DetectMultiBackend(
  (model): DetectionModel(
    (model): Sequential(
      (0): Conv(
        (conv): Conv2d(3, 16, kernel_size=(3, 3), stride=(1, 1), padding=(1, 1))
        (act): SiLU(inplace=True)
      )
      (1): MaxPool2d(kernel_size=2, stride=2, padding=0, dilation=1, ceil_mode=False)
      (2): Conv(
        (conv): Conv2d(16, 32, kernel_size=(3, 3), stride=(1, 1), padding=(1, 1))
        (act): SiLU(inplace=True)
      )
      (3): MaxPool2d(kernel_size=2, stride=2, padding=0, dilation=1, ceil_mode=False)
      (4): Conv(
        (conv): Conv2d(32, 64, kernel_size=(3, 3), stride=(1, 1), padding=(1, 1))
        (act): SiLU(inplace=True)
      )
      (5): MaxPool2d(kernel_size=2, stride=2, padding=0, dilation=1, ceil_mode=False)
      (6): Conv(
        (conv): Conv2d(64, 128, kernel_size=(3, 3), stride=(1, 1), padding=(1, 1))
        (act): SiLU(inplace=True)
      )
      (7): MaxPool2d(kernel_size=2, stride=2, padding=0, dilation=1, ceil_mode=False)
      (8): Conv(
        (conv): Conv2d(128, 256, kernel_size=(3, 3), stride=(1, 1), padding=(1, 1))
        (act): SiLU(inplace=True)
      )
      (9): MaxPool2d(kernel_size=2, stride=2, padding=0, dilation=1, ceil_mode=False)
      (10): Conv(
        (conv): Conv2d(256, 512, kernel_size=(3, 3), stride=(1, 1), padding=(1, 1))
        (act): SiLU(inplace=True)
      )
      (11): ZeroPad2d((0, 1, 0, 1))
      (12): MaxPool2d(kernel_size=2, stride=1, padding=0, dilation=1, ceil_mode=False)
      (13): Conv(
        (conv): Conv2d(512, 1024, kernel_size=(3, 3), stride=(1, 1), padding=(1, 1))
        (act): SiLU(inplace=True)
      )
      (14): Conv(
        (conv): Conv2d(1024, 256, kernel_size=(1, 1), stride=(1, 1))
        (act): SiLU(inplace=True)
      )
      (15): Conv(
        (conv): Conv2d(256, 512, kernel_size=(3, 3), stride=(1, 1), padding=(1, 1))
        (act): SiLU(inplace=True)
      )
      (16): Conv(
        (conv): Conv2d(256, 128, kernel_size=(1, 1), stride=(1, 1))
        (act): SiLU(inplace=True)
      )
      (17): Upsample(scale_factor=2.0, mode='nearest')
      (18): Concat()
      (19): Conv(
        (conv): Conv2d(384, 256, kernel_size=(3, 3), stride=(1, 1), padding=(1, 1))
        (act): SiLU(inplace=True)
      )
      (20): Detect(
        (m): ModuleList(
          (0): Conv2d(256, 255, kernel_size=(1, 1), stride=(1, 1))
          (1): Conv2d(512, 255, kernel_size=(1, 1), stride=(1, 1))
        )
      )
    )
  )
)
{'graph': <torch.fx.graph.Graph object at 0x7fabd694e8d0>, 'name': 'arg0_1', 'op': 'placeholder', 'target': 'arg0_1', '_input_nodes': {}, '_args': (), '_kwargs': {}, 'users': {convolution: None}, 'type': None, '_prev': , '_next': arg1_1, '_erased': False, '_repr_fn': None, 'meta': {'val': FakeTensor(..., size=(16, 3, 3, 3)), 'tensor_meta': TensorMetadata(shape=torch.Size([16, 3, 3, 3]), dtype=torch.float32, requires_grad=False, stride=(27, 9, 3, 1), memory_format=torch.contiguous_format, is_quantized=False, qparams={})}}
…
