DetectMultiBackend(
  (model): DetectionModel(
    (model): Sequential(
      (0): Conv(
        (conv): Conv2d(3, 16, kernel_size=(3, 3), stride=(1, 1), padding=(1, 1))
        (act): SiLU(inplace=True)
      )
      (1): MaxPool2d(kernel_size=2, stride=2, padding=0, dilation=1, ceil_mode=False)
      (2): Conv(
        (conv): Conv2d(16, 32, kernel_size=(3, 3), stride=(1, 1), padding=(1, 1))
        (act): SiLU(inplace=True)
      )
      (3): MaxPool2d(kernel_size=2, stride=2, padding=0, dilation=1, ceil_mode=False)
      (4): Conv(
        (conv): Conv2d(32, 64, kernel_size=(3, 3), stride=(1, 1), padding=(1, 1))
        (act): SiLU(inplace=True)
      )
      (5): MaxPool2d(kernel_size=2, stride=2, padding=0, dilation=1, ceil_mode=False)
      (6): Conv(
        (conv): Conv2d(64, 128, kernel_size=(3, 3), stride=(1, 1), padding=(1, 1))
        (act): SiLU(inplace=True)
      )
      (7): MaxPool2d(kernel_size=2, stride=2, padding=0, dilation=1, ceil_mode=False)
      (8): Conv(
        (conv): Conv2d(128, 256, kernel_size=(3, 3), stride=(1, 1), padding=(1, 1))
        (act): SiLU(inplace=True)
      )
      (9): MaxPool2d(kernel_size=2, stride=2, padding=0, dilation=1, ceil_mode=False)
      (10): Conv(
        (conv): Conv2d(256, 512, kernel_size=(3, 3), stride=(1, 1), padding=(1, 1))
        (act): SiLU(inplace=True)
      )
      (11): ZeroPad2d((0, 1, 0, 1))
      (12): MaxPool2d(kernel_size=2, stride=1, padding=0, dilation=1, ceil_mode=False)
      (13): Conv(
        (conv): Conv2d(512, 1024, kernel_size=(3, 3), stride=(1, 1), padding=(1, 1))
        (act): SiLU(inplace=True)
      )
      (14): Conv(
        (conv): Conv2d(1024, 256, kernel_size=(1, 1), stride=(1, 1))
        (act): SiLU(inplace=True)
      )
      (15): Conv(
        (conv): Conv2d(256, 512, kernel_size=(3, 3), stride=(1, 1), padding=(1, 1))
        (act): SiLU(inplace=True)
      )
      (16): Conv(
        (conv): Conv2d(256, 128, kernel_size=(1, 1), stride=(1, 1))
        (act): SiLU(inplace=True)
      )
      (17): Upsample(scale_factor=2.0, mode='nearest')
      (18): Concat()
      (19): Conv(
        (conv): Conv2d(384, 256, kernel_size=(3, 3), stride=(1, 1), padding=(1, 1))
        (act): SiLU(inplace=True)
      )
      (20): Detect(
        (m): ModuleList(
          (0): Conv2d(256, 255, kernel_size=(1, 1), stride=(1, 1))
          (1): Conv2d(512, 255, kernel_size=(1, 1), stride=(1, 1))
        )
      )
    )
  )
)
class <lambda>(torch.nn.Module):
    def forward(self, arg0_1: f32[16, 3, 3, 3], arg1_1: f32[16], arg2_1: f32[32, 16, 3, 3], arg3_1: f32[32], arg4_1: f32[64, 32, 3, 3], arg5_1: f32[64], arg6_1: f32[128, 64, 3, 3], arg7_1: f32[128], arg8_1: f32[256, 128, 3, 3], arg9_1: f32[256], arg10_1: f32[512, 256, 3, 3], arg11_1: f32[512
…
