#map = affine_map<(d0, d1, d2) -> (d1)>
#map1 = affine_map<(d0, d1, d2) -> (d0, d2)>
#map2 = affine_map<(d0, d1, d2) -> (d0, d1)>
#map3 = affine_map<(d0, d1, d2, d3) -> (d0, d1, d2, d3)>
#map4 = affine_map<(d0, d1, d2) -> (d0, d1, d2)>
module {
  // ===========================================================================
  // DeepSeek R1 Transformer Model - MLIR Representation
  // ===========================================================================
  // This file contains the MLIR representation of DeepSeek R1 transformer model
  //
  // Model Architecture Summary:
  // - Vocabulary Size: 151,936 tokens
  // - Hidden Dimension: 1,536
  // - Attention Heads: 12
  // - Head Dimension: 128 (1536/12)
  // - Transformer Layers: 28 layers
  // - FFN Expansion Ratio: ~5.83 (8960/1536)
  // - Sequence Length: 40 tokens (in this example)
  // - Activation: SwiGLU (Sigmoid-Gated Linear Unit)
  // - Positional Encoding: RoPE (Rotary Position Embedding)
  // - Normalization: Layer Normalization (Pre-Norm)
  //
  // Main Components:
  // 1. Token Embedding: %arg0 (151936x1536) - vocabulary_size x hidden_dim
  // 2. Positional Encoding: %arg3 (64) - rotary embedding frequencies
  // 3. Transformer Layers (28 layers, each with):
  //    - Multi-Head Self-Attention (12 heads, 128 dims per head)
  //    - SwiGLU Feed-Forward Network (1536 -> 8960 -> 1536)
  //    - Residual Connections and Layer Normalization
  // 4. Output Projection: %arg341 (151936x1536) - hidden_dim x vocabulary_size
  //
  // Note: This MLIR file represents a single forward pass through the model.
  // The model follows the standard Transformer decoder architecture with
  // causal attention masking for autoregressive language modeling.
  // ===========================================

  func.func @subgraph0(%arg0: tensor<151936x1536xf32>, %arg1: tensor<1x40xi64>, %arg2: tensor<1x40xi64>, %arg3: tensor<64xf32>, %arg4: tensor<1536xf32>, %arg5: tensor<1536x1536xf32>, %arg6: tensor<1536xf32>, %arg7: tensor<256x1536xf32>, %arg8: tensor<256xf32>, %arg9: tensor<256x1536xf32>, %arg10: tensor<256xf32>, %arg11: tensor<1536x1536xf32>, %arg12: tensor<1536xf32>, %arg13: tensor<8960x1536xf32>, %arg14: tensor<8960x1536xf32>, %arg15: tensor<1536x8960xf32>, %arg16: tensor<1536xf32>, %arg17: tensor<1536x1536xf32>, %arg18: tensor<1536xf32>, %arg19: tensor<256x1536xf32>, %arg20: tensor<256xf32>, %arg21: tensor<256x1536xf32>, %arg22: tensor<256xf32>, %arg23: tensor<1536x1536xf32>, %arg24: tensor<1536xf32>, %arg25: tensor<8960x1536xf32>, %arg26: tensor<8960x1536xf32>, %arg27: tensor<1536x8960xf32>, %arg28: tensor<1536xf32>, %arg29: tensor<1536x1536xf32>, %arg30: tensor<1536xf32>, %arg31: tensor<256x1536xf32>, %arg32: tensor<256xf32>, %arg33: tensor<256x1536xf32>, %arg34: tensor<256xf32>, %arg35: tensor<1536x1536xf32>, %arg36: tensor<1536xf32>, %arg37: tensor<8960x1536xf32>, %arg38: tensor<8960x1536xf32>, %arg39: tensor<1536x8960xf32>, %arg40: tensor<1536xf32>, %arg41: tensor<1536x1536xf32>, %arg42: tensor<1536xf32>, %arg43: tensor<256x1536xf32>, %arg44: tensor<256xf32>, %arg45: tensor<256x1536xf32>, %arg46: tensor<256xf32>, %arg47: tensor<1536x1536xf32>, %arg48: tensor<1536xf32>, %arg49: tensor<8960x1536xf32>, %arg50: tensor<8960x1536xf32>, %arg51: tensor<1536x8960xf32>, %arg52: tensor<1536xf32>, %arg53: tensor<1536x1536xf32>, %arg54: tensor<1536xf32>, %arg55: tensor<256x1536xf32>, %arg56: tensor<256xf32>, %arg57: tensor<256x1536xf32>, %arg58: tensor<256xf32>, %arg59: tensor<1536x1536xf32>, %arg60: tensor<1536xf32>, %arg61: tensor<8960x1536xf32>, %arg62: tensor<8960x1536xf32>, %arg63: tensor<1536x8960xf32>, %arg64: tensor<1536xf32>, %arg65: tensor<1536x1536xf32>, %arg66: tensor<1536xf32>, %arg67: tensor<256x1536xf32>, %arg68: tensor<256xf32>, %arg69: tensor<256x1536xf32>, %arg70: tensor<256xf32>, %arg71: tensor<1536x1536xf32>, %arg72: tensor<1536xf32>, %arg73: tensor<8960x1536xf32>, %arg74: tensor<8960x1536xf32>, %arg75: tensor<1536x8960xf32>, %arg76: tensor<1536xf32>, %arg77: tensor<1536x1536xf32>, %arg78: tensor<1536xf32>, %arg79: tensor<256x1536xf32>, %arg80: tensor<256xf32>, %arg81: tensor<256x1536xf32>, %arg82: tensor<256xf32>, %arg83: tensor<1536x1536xf32>, %arg84: tensor<1536xf32>, %arg85: tensor<8960x1536xf32>, %arg86: tensor<8960x1536xf32>, %arg87: tensor<1536x8960xf32>, %arg88: tensor<1536xf32>, %arg89: tensor<1536x1536xf32>, %arg90: tensor<1536xf32>, %arg91: tensor<256x1536xf32>, %arg92: tensor<256xf32>, %arg93: tensor<256x1536xf32>, %arg94: tensor<256xf32>, %arg95: tensor<1536x1536xf32>, %arg96: tensor<1536xf32>, %arg97: tensor<8960x1536xf32>, %arg98: tensor<8960x1536xf32>, %arg99: tensor<1536x8960xf32>, %arg100: tensor<1536xf32>, %arg101: tensor<1536x1536xf32>, %arg102: tensor<1536xf32>, %arg103: tensor<256x1536xf32>, %arg104: tensor<256xf32>, %arg105: tensor<256x1536xf32>, %arg106: tensor<256xf32>, %arg107: tensor<1536x1536xf32>, %arg108: tensor<1536xf32>, %arg109: tensor<8960x1536xf32>, %arg110: tensor<8960x1536xf32>, %arg111: tensor<1536x8960xf32>, %arg112: tensor<1536xf32>, %arg113: tensor<1536x1536xf32>, %arg114: tensor<1536xf32>, %arg115: tensor<256x1536xf32>, %arg116: tensor<256xf32>, %arg117: tensor<256x1536xf32>, %arg118: tensor<256xf32>, %arg119: tensor<1536x1536xf32>, %arg120: tensor<1536xf32>, %arg121: tensor<8960x1536xf32>, %arg122: tensor<8960x1536xf32>, %arg123: tensor<1536x8960xf32>, %arg124: tensor<1536xf32>, %arg125: tensor<1536x1536xf32>, %arg126: tensor<1536xf32>, %arg127: tensor<256x1536xf32>, %arg128: tensor<256xf32>, %arg129: tensor<256x1536xf32>, %arg130: tensor<256xf32>, %arg131: tensor<1536x1536xf32>, %arg132: tensor<1536xf32>, %arg133: tensor<8960x1536xf32>, %arg134: tensor<8960x1536xf32>, %arg135: tensor<1536x8960xf32>, %arg136: tensor<1536xf32>, %arg137: tensor<1536x1536xf32>, %arg138: tensor<1536xf32>, %arg139: tensor<256x1536xf32>, %arg140: tensor<256xf32>, %arg141: tensor<256x1536xf32>, %arg142: tensor<256xf32>, %arg143: tensor<1536x1536xf32>, %arg144: tensor<1536xf32>, %arg145: tensor<8960x1536xf32>, %arg146: tensor<8960x1536xf32>, %arg147: tensor<1536x8960xf32>, %arg148: tensor<1536xf32>, %arg149: tensor<1536x1536xf32>, %arg150: tensor<1536xf32>, %arg151: tensor<256x1536xf32>, %arg152: tensor<256xf32>, %arg153: tensor<256x1536xf32>, %arg154: tensor<256xf32>, %arg155: tensor<1536x1536xf32>, %arg156: tensor<1536xf32>, %arg157: tensor<8960x1536xf32>, %arg158: tensor<8960x1536xf32>, %arg159: tensor<1536x8960xf32>, %arg160: tensor<1536xf32>, %arg161: tensor<1536x1536xf32>, %arg162: tensor<1536xf32>, %arg163: tensor<256x1536xf32>, %arg164: tensor<256xf32>, %arg165: tensor<256x1536xf32>, %arg166: tensor<256xf32>, %arg167: tensor<1536x1536xf32>, %arg168: tensor<1536xf32>, %arg169: tensor<8960x1536xf32>, %arg170: tensor<8960x1536xf32>, %arg171: tensor<1536x8960xf32>, %arg172: tensor<1536xf32>, %arg173: tensor<1536x1536xf32>, %arg174: tensor<1536xf32>, %arg175: tensor<256x1536xf32>, %arg176: tensor<256xf32>, %arg177: tensor<256x1536xf32>, %arg178: tensor<256xf32>, %arg179: tensor<1536x1536xf32>, %arg180: tensor<1536xf32>, %arg181: tensor<8960x1536xf32>, %arg182: tensor<8960x1536xf32>, %arg183: tensor<1536x8960xf32>, %arg184: tensor<1536xf32>, %arg185: tensor<1536x1536xf32>, %arg186: tensor<1536xf32>, %arg187: tensor<256x1536xf32>, %arg188: tensor<256xf32>, %arg189: tensor<256x1536xf32>, %arg190: tensor<256xf32>, %arg191: tensor<1536x1536xf32>, %arg192: tensor<1536xf32>, %arg193: tensor<8960x1536xf32>, %arg194: tensor<8960x1536xf32>, %arg195: tensor<1536x8960xf32>, %arg196: tensor<1536xf32>, %arg197: tensor<1536x1536xf32>, %arg198: tensor<1536xf32>, %arg199: tensor<256x1536xf32>, %arg200: tensor<256xf32>, %arg201: tensor<256x1536xf32>, %arg202: tensor<256xf32>, %arg203: tensor<1536x1536xf32>, %arg204: tensor<1536xf32>, %arg205: tensor<8960x1536xf32>, %arg206: tensor<8960x1536xf32>, %arg207: tensor<1536x8960xf32>, %arg208: tensor<1536xf32>, %arg209: tensor<1536x1536xf32>, %arg210: tensor<1536xf32>, %arg211: tensor<256x1536xf32>, %arg212: tensor<256xf32>, %arg213: tensor<256x1536xf32>, %arg214: tensor<256xf32>, %arg215: tensor<1536x1536xf32>, %arg216: tensor<1536xf32>, %arg217: tensor<8960x1536xf32>, %arg218: tensor<8960x1536xf32>, %arg219: tensor<1536x8960xf32>, %arg220: tensor<1536xf32>, %arg221: tensor<1536x1536xf32>, %arg222: tensor<1536xf32>, %arg223: tensor<256x1536xf32>, %arg224: tensor<256xf32>, %arg225: tensor<256x1536xf32>, %arg226: tensor<256xf32>, %arg227: tensor<1536x1536xf32>, %arg228: tensor<1536xf32>, %arg229: tensor<8960x1536xf32>, %arg230: tensor<8960x1536xf32>, %arg231: tensor<1536x8960xf32>, %arg232: tensor<1536xf32>, %arg233: tensor<1536x1536xf32>, %arg234: tensor<1536xf32>, %arg235: tensor<256x1536xf32>, %arg236: tensor<256xf32>, %arg237: tensor<256x1536xf32>, %arg238: tensor<256xf32>, %arg239: tensor<1536x1536xf32>, %arg240: tensor<1536xf32>, %arg241: tensor<8960x1536xf32>, %arg242: tensor<8960x1536xf32>, %arg243: tensor<1536x8960xf32>, %arg244: tensor<1536xf32>, %arg245: tensor<1536x1536xf32>, %arg246: tensor<1536xf32>, %arg247: tensor<256x1536xf32>, %arg248: tensor<256xf32>, %arg249: tensor<256x1536xf32>, %arg250: tensor<256xf32>, %arg251: tensor<1536x1536xf32>, %arg252: tensor<1536xf32>, %arg253: tensor<8960x1536xf32>, %arg254: tensor<8960x1536xf32>, %arg255: tensor<1536x8960xf32>, %arg256: tensor<1536xf32>, %arg257: tensor<1536x1536xf32>, %arg258: tensor<1536xf32>, %arg259: tensor<256x1536xf32>, %arg260: tensor<256xf32>, %arg261: tensor<256x1536xf32>, %arg262: tensor<256xf32>, %arg263: tensor<1536x1536xf32>, %arg264: tensor<1536xf32>, %arg265: tensor<8960x1536xf32>, %arg266: tensor<8960x1536xf32>, %arg267: tensor<1536x8960xf32>, %arg268: tensor<1536xf32>, %arg269: tensor<1536x1536xf32>, %arg270: tensor<1536xf32>, %arg271: tensor<256x1536xf32>, %arg272: tensor<256xf32>, %arg273: tensor<256x1536xf32>, %arg274: tensor<256xf32>, %arg275: tensor<1536x1536xf32>, %arg276: tensor<1536xf32>, %arg277: tensor<8960x1536xf32>, %arg278: tensor<8960x1536xf32>, %arg279: tensor<1536x8960xf32>, %arg280: tensor<1536xf32>, %arg281: tensor<1536x1536xf32>, %arg282: tensor<1536xf32>, %arg283: tensor<256x1536xf32>, %arg284: tensor<256xf32>, %arg285: tensor<256x1536xf32>, %arg286: tensor<256xf32>, %arg287: tensor<1536x1536xf32>, %arg288: tensor<1536xf32>, %arg289: tensor<8960x1536xf32>, %arg290: tensor<8960x1536xf32>, %arg291: tensor<1536x8960xf32>, %arg292: tensor<1536xf32>, %arg293: tensor<1536x1536xf32>, %arg294: tensor<1536xf32>, %arg295: tensor<256x1536xf32>, %arg296: tensor<256xf32>, %arg297: tensor<256x1536xf32>, %arg298: tensor<256xf32>, %arg299: tensor<1536x1536xf32>, %arg300: tensor<1536xf32>, %arg301: tensor<8960x1536xf32>, %arg302: tensor<8960x1536xf32>, %arg303: tensor<1536x8960xf32>, %arg304: tensor<1536xf32>, %arg305: tensor<1536x1536xf32>, %arg306: tensor<1536xf32>, %arg307: tensor<256x1536xf32>, %arg308: tensor<256xf32>, %arg309: tensor<256x1536xf32>, %arg310: tensor<256xf32>, %arg311: tensor<1536x1536xf32>, %arg312: tensor<1536xf32>, %arg313: tensor<8960x1536xf32>, %arg314: tensor<8960x1536xf32>, %arg315: tensor<1536x8960xf32>, %arg316: tensor<1536xf32>, %arg317: tensor<1536x1536xf32>, %arg318: tensor<1536xf32>, %arg319: tensor<256x1536xf32>, %arg320: tensor<256xf32>, %arg321: tensor<256x1536xf32>, %arg322: tensor<256xf32>, %arg323: tensor<1536x1536xf32>, %arg324: tensor<1536xf32>, %arg325: tensor<8960x1536xf32>, %arg326: tensor<8960x1536xf32>, %arg327: tensor<1536x8960xf32>, %arg328: tensor<1536xf32>, %arg329: tensor<1536x1536xf32>, %arg330: tensor<1536xf32>, %arg331: tensor<256x1536xf32>, %arg332: tensor<256xf32>, %arg333: tensor<256x1536xf32>, %arg334: tensor<256xf32>, %arg335: tensor<1536x1536xf32>, %arg336: tensor<1536xf32>, %arg337: tensor<8960x1536xf32>, %arg338: tensor<8960x1536xf32>, %arg339: tensor<1536x8960xf32>, %arg340: tensor<1536xf32>, %arg341: tensor<151936x1536xf32>) -> tensor<1x40x151936xf32> {
    // ===========================================
    // 1. TOKEN EMBEDDING LAYER
    // ===========================================
    // Input: %arg1 (1x40xi64) - token IDs for sequence of length 40
    // Embedding weights: %arg0 (151936x1536) - vocabulary_size x hidden_dim
    // Output: token embeddings (1x40x1536)

    %0 = tosa.cast %arg1 : (tensor<1x40xi64>) -> tensor<1x40xi32>
    %1 = tosa.reshape %arg0 {new_shape = array<i64: 1, 151936, 1536>} : (tensor<151936x1536xf32>) -> tensor<1x151936x1536xf32>
    %2 = tosa.gather %1, %0 : (tensor<1x151936x1536xf32>, tensor<1x40xi32>) -> tensor<1x40x1536xf32>
    %3 = tosa.reshape %2 {new_shape = array<i64: 1, 40, 1536>} : (tensor<1x40x1536xf32>) -> tensor<1x40x1536xf32>
    // ===========================================
    // 2. POSITIONAL ENCODING & ATTENTION MASK
    // ===========================================
    // Create causal attention mask to prevent attending to future tokens
    // Input: %arg2 (1x40xi64) - position indices for causal masking
    // Rotary embedding weights: %arg3 (64xf32) - rotary embedding frequencies

    %4 = "tosa.const"() <{value = dense<[0, 1, 2, 3, 4, 5, 6, 7, 8, 9, 10, 11, 12, 13, 14, 15, 16, 17, 18, 19, 20, 21, 22, 23, 24, 25, 26, 27, 28, 29, 30, 31, 32, 33, 34, 35, 36, 37, 38, 39]> : tensor<40xi64>}> : () -> tensor<40xi64>
    %5 = tosa.reshape %4 {new_shape = array<i64: 1, 40>} : (tensor<40xi64>) -> tensor<1x40xi64>
    %cst = arith.constant dense<-3.40282347E+38> : tensor<40x40xf32>
    %6 = "tosa.const"() <{value = dense<[0, 1, 2, 3, 4, 5, 6, 7, 8, 9, 10, 11, 12, 13, 14, 15, 16, 17, 18, 19, 20, 21, 22, 23, 24, 25, 26, 27, 28, 29, 30, 31, 32, 33, 34, 35, 36, 37, 38, 39]> : tensor<40xi64>}> : () -> tensor<40xi64>
    %7 = tosa.reshape %4 {new_shape = array<i64: 40, 1>} : (tensor<40xi64>) -> tensor<40x1xi64>
    %8 = tensor.empty() : tensor<40x40xi1>
    %9 = linalg.generic {indexing_maps = [#map, #map1, #map2], iterator_types = ["parallel", "parallel", "reduction"]} ins(%6, %7 : tensor<40xi64>, tensor<40x1xi64>) outs(%8 : tensor<40x40xi1>) {
    ^bb0(%in: i64, %in_843: i64, %out: i1):
      %3964 = arith.cmpi sgt, %in, %in_843 : i64
      linalg.yield %3964 : i1
    } -> tensor<40x40xi1>
    %10 = tosa.cast %9 : (tensor<40x40xi1>) -> tensor<40x40xf32>
    %11 = tosa.mul %cst, %10 : (tensor<40x40xf32>, tensor<40x40xf32>) -> tensor<40x40xf32>
    %12 = tosa.reshape %11 {new_shape = array<i64: 1, 40, 40>} : (tensor<40x40xf32>) -> tensor<1x40x40xf32>
    %13 = tosa.reshape %12 {new_shape = array<i64: 1, 1, 40, 40>} : (tensor<1x40x40xf32>) -> tensor<1x1x40x40xf32>
    %extracted_slice = tensor.extract_slice %13[0, 0, 0, 0] [1, 1, 40, 40] [1, 1, 1, 1] : tensor<1x1x40x40xf32> to tensor<1x1x40x40xf32>
    %extracted_slice_0 = tensor.extract_slice %extracted_slice[0, 0, 0, 0] [1, 1, 40, 40] [1, 1, 1, 1] : tensor<1x1x40x40xf32> to tensor<1x1x40x40xf32>
    %14 = "tosa.const"() <{value = dense<0.000000e+00> : tensor<1x1x40x40xf32>}> : () -> tensor<1x1x40x40xf32>
    %15 = tosa.add %extracted_slice_0, %14 : (tensor<1x1x40x40xf32>, tensor<1x1x40x40xf32>) -> tensor<1x1x40x40xf32>
    %16 = tosa.identity %15 : (tensor<1x1x40x40xf32>) -> tensor<1x1x40x40xf32>
    %extracted_slice_1 = tensor.extract_slice %16[0, 0, 0, 0] [1, 1, 40, 40] [1, 1, 1, 1] : tensor<1x1x40x40xf32> to tensor<1x1x40x40xf32>
    %extracted_slice_2 = tensor.extract_slice %extracted_slice_1[0, 0, 0, 0] [1, 1, 40, 40] [1, 1, 1, 1] : tensor<1x1x40x40xf32> to tensor<1x1x40x40xf32>
    %extracted_slice_3 = tensor.extract_slice %extracted_slice_2[0, 0, 0, 0] [1, 1, 40, 40] [1, 1, 1, 1] : tensor<1x1x40x40xf32> to tensor<1x1x40x40xf32>
    %extracted_slice_4 = tensor.extract_slice %arg2[0, 0] [1, 40] [1, 1] : tensor<1x40xi64> to tensor<1x40xi64>
    %17 = tosa.reshape %extracted_slice_4 {new_shape = array<i64: 1, 1, 40>} : (tensor<1x40xi64>) -> tensor<1x1x40xi64>
    %18 = tosa.reshape %17 {new_shape = array<i64: 1, 1, 1, 40>} : (tensor<1x1x40xi64>) -> tensor<1x1x1x40xi64>
    %extracted_slice_5 = tensor.extract_slice %18[0, 0, 0, 0] [1, 1, 1, 40] [1, 1, 1, 1] : tensor<1x1x1x40xi64> to tensor<1x1x1x40xi64>
    %19 = tosa.cast %extracted_slice_5 : (tensor<1x1x1x40xi64>) -> tensor<1x1x1x40xf32>
    %20 = tosa.add %extracted_slice_3, %19 : (tensor<1x1x40x40xf32>, tensor<1x1x1x40xf32>) -> tensor<1x1x40x40xf32>
    %cst_6 = arith.constant 0.000000e+00 : f32
    %splat = tensor.splat %cst_6 : tensor<1x1x40x40xf32>
    %21 = arith.cmpf oeq, %20, %splat : tensor<1x1x40x40xf32>
    %extracted_slice_7 = tensor.extract_slice %16[0, 0, 0, 0] [1, 1, 40, 40] [1, 1, 1, 1] : tensor<1x1x40x40xf32> to tensor<1x1x40x40xf32>
    %extracted_slice_8 = tensor.extract_slice %extracted_slice_7[0, 0, 0, 0] [1, 1, 40, 40] [1, 1, 1, 1] : tensor<1x1x40x40xf32> to tensor<1x1x40x40xf32>
    %extracted_slice_9 = tensor.extract_slice %extracted_slice_8[0, 0, 0, 0] [1, 1, 40, 40] [1, 1, 1, 1] : tensor<1x1x40x40xf32> to tensor<1x1x40x40xf32>
    %cst_10 = arith.constant -3.40282347E+38 : f32
    %22 = tensor.empty() : tensor<1x1x40x40xf32>
    %splat_11 = tensor.splat %cst_10 : tensor<1x1x40x40xf32>
    %23 = linalg.generic {indexing_maps = [#map3, #map3, #map3, #map3], iterator_types = ["parallel", "parallel", "parallel", "parallel"]} ins(%21, %splat_11, %extracted_slice_9 : tensor<1x1x40x40xi1>, tensor<1x1x40x40xf32>, tensor<1x1x40x40xf32>) outs(%22 : tensor<1x1x40x40xf32>) {
    ^bb0(%in: i1, %in_843: f32, %in_844: f32, %out: f32):
      %3964 = arith.select %in, %in_843, %in_844 : f32
      linalg.yield %3964 : f32
    } -> tensor<1x1x40x40xf32>
    %extracted_slice_12 = tensor.extract_slice %16[0, 0, 0, 0] [1, 1, 40, 40] [1, 1, 1, 1] : tensor<1x1x40x40xf32> to tensor<1x1x40x40xf32>
    %extracted_slice_13 = tensor.extract_slice %extracted_slice_12[0, 0, 0, 0] [1, 1, 40, 40] [1, 1, 1, 1] : tensor<1x1x40x40xf32> to tensor<1x1x40x40xf32>
    %extracted_slice_14 = tensor.extract_slice %extracted_slice_13[0, 0, 0, 0] [1, 1, 40, 40] [1, 1, 1, 1] : tensor<1x1x40x40xf32> to tensor<1x1x40x40xf32>
    %24 = tensor.empty() : tensor<1x1x40x40xf32>
    %25 = linalg.generic {indexing_maps = [#map3, #map3], iterator_types = ["parallel", "parallel", "parallel", "parallel"]} ins(%23 : tensor<1x1x40x40xf32>) outs(%extracted_slice_14 : tensor<1x1x40x40xf32>) {
    ^bb0(%in: f32, %out: f32):
      linalg.yield %in : f32
    } -> tensor<1x1x40x40xf32>
    %extracted_slice_15 = tensor.extract_slice %16[0, 0, 0, 0] [1, 1, 40, 40] [1, 1, 1, 1] : tensor<1x1x40x40xf32> to tensor<1x1x40x40xf32>
    %extracted_slice_16 = tensor.extract_slice %extracted_slice_15[0, 0, 0, 0] [1, 1, 40, 40] [1, 1, 1, 1] : tensor<1x1x40x40xf32> to tensor<1x1x40x40xf32>
    %extracted_slice_17 = tensor.extract_slice %extracted_slice_16[0, 0, 0, 0] [1, 1, 40, 40] [1, 1, 1, 1] : tensor<1x1x40x40xf32> to tensor<1x1x40x40xf32>
    %inserted_slice = tensor.insert_slice %25 into %extracted_slice_16[0, 0, 0, 0] [1, 1, 40, 40] [1, 1, 1, 1] : tensor<1x1x40x40xf32> into tensor<1x1x40x40xf32>
    %extracted_slice_18 = tensor.extract_slice %extracted_slice_15[0, 0, 0, 0] [1, 1, 40, 40] [1, 1, 1, 1] : tensor<1x1x40x40xf32> to tensor<1x1x40x40xf32>
    %inserted_slice_19 = tensor.insert_slice %inserted_slice into %extracted_slice_15[0, 0, 0, 0] [1, 1, 40, 40] [1, 1, 1, 1] : tensor<1x1x40x40xf32> into tensor<1x1x40x40xf32>
    %extracted_slice_20 = tensor.extract_slice %16[0, 0, 0, 0] [1, 1, 40, 40] [1, 1, 1, 1] : tensor<1x1x40x40xf32> to tensor<1x1x40x40xf32>
    %inserted_slice_21 = tensor.insert_slice %inserted_slice_19 into %16[0, 0, 0, 0] [1, 1, 40, 40] [1, 1, 1, 1] : tensor<1x1x40x40xf32> into tensor<1x1x40x40xf32>

    // Generate Rotary Position Embedding (RoPE)
    // %arg3 contains the rotary embedding frequencies (64 dimensions)
    %26 = tosa.reshape %arg3 {new_shape = array<i64: 1, 64>} : (tensor<64xf32>) -> tensor<1x64xf32>
    %extracted_slice_22 = tensor.extract_slice %26[0, 0] [1, 64] [1, 1] : tensor<1x64xf32> to tensor<1x64xf32>
    %27 = tosa.reshape %extracted_slice_22 {new_shape = array<i64: 1, 64, 1>} : (tensor<1x64xf32>) -> tensor<1x64x1xf32>
    %28 = "tosa.const"() <{value = dense<0.000000e+00> : tensor<1x64x1xf32>}> : () -> tensor<1x64x1xf32>
    %29 = tosa.add %27, %28 : (tensor<1x64x1xf32>, tensor<1x64x1xf32>) -> tensor<1x64x1xf32>
    %extracted_slice_23 = tensor.extract_slice %5[0, 0] [1, 40] [1, 1] : tensor<1x40xi64> to tensor<1x40xi64>
    %30 = tosa.reshape %extracted_slice_23 {new_shape = array<i64: 1, 1, 40>} : (tensor<1x40xi64>) -> tensor<1x1x40xi64>
    %extracted_slice_24 = tensor.extract_slice %30[0, 0, 0] [1, 1, 40] [1, 1, 1] : tensor<1x1x40xi64> to tensor<1x1x40xi64>
    %31 = tosa.cast %extracted_slice_24 : (tensor<1x1x40xi64>) -> tensor<1x1x40xf32>
    %32 = "tosa.const"() <{value = dense<0.000000e+00> : tensor<1x64x1xf32>}> : () -> tensor<1x64x1xf32>
    %33 = tosa.add %29, %32 : (tensor<1x64x1xf32>, tensor<1x64x1xf32>) -> tensor<1x64x1xf32>
    %34 = tosa.reshape %33 {new_shape = array<i64: 1, 64, 1>} : (tensor<1x64x1xf32>) -> tensor<1x64x1xf32>
    %35 = "tosa.const"() <{value = dense<0.000000e+00> : tensor<1x1x40xf32>}> : () -> tensor<1x1x40xf32>
    %36 = tosa.add %31, %35 : (tensor<1x1x40xf32>, tensor<1x1x40xf32>) -> tensor<1x1x40xf32>
    %37 = tosa.reshape %36 {new_shape = array<i64: 1, 1, 40>} : (tensor<1x1x40xf32>) -> tensor<1x1x40xf32>
    %38 = tosa.matmul %34, %37 : (tensor<1x64x1xf32>, tensor<1x1x40xf32>) -> tensor<1x64x40xf32>
    %39 = tosa.reshape %38 {new_shape = array<i64: 1, 64, 40>} : (tensor<1x64x40xf32>) -> tensor<1x64x40xf32>
    %40 = "tosa.const"() <{value = dense<[0, 2, 1]> : tensor<3xi32>}> : () -> tensor<3xi32>
    %41 = tosa.transpose %39, %40 : (tensor<1x64x40xf32>, tensor<3xi32>) -> tensor<1x40x64xf32>
    %42 = tosa.reshape %41 {new_shape = array<i64: 1, 40, 1, 64>} : (tensor<1x40x64xf32>) -> tensor<1x40x1x64xf32>
    %43 = "tosa.const"() <{value = dense<0.000000e+00> : tensor<1x40x2x64xf32>}> : () -> tensor<1x40x2x64xf32>
    %44 = tosa.add %42, %43 : (tensor<1x40x1x64xf32>, tensor<1x40x2x64xf32>) -> tensor<1x40x2x64xf32>
    %45 = tosa.identity %44 : (tensor<1x40x2x64xf32>) -> tensor<1x40x2x64xf32>
    %46 = tosa.reshape %45 {new_shape = array<i64: 1, 40, 128>} : (tensor<1x40x2x64xf32>) -> tensor<1x40x128xf32>
    %47 = tosa.identity %46 : (tensor<1x40x128xf32>) -> tensor<1x40x128xf32>
    %48 = math.cos %47 : tensor<1x40x128xf32>
    %49 = math.sin %47 : tensor<1x40x128xf32>
    %cst_25 = arith.constant dense<1.000000e+00> : tensor<1xf32>
    %50 = tosa.reshape %cst_25 {new_shape = array<i64: 1, 1, 1>} : (tensor<1xf32>) -> tensor<1x1x1xf32>
    %51 = tosa.mul %48, %50 : (tensor<1x40x128xf32>, tensor<1x1x1xf32>) -> tensor<1x40x128xf32>
    %cst_26 = arith.constant dense<1.000000e+00> : tensor<1xf32>
    %52 = tosa.reshape %cst_26 {new_shape = array<i64: 1, 1, 1>} : (tensor<1xf32>) -> tensor<1x1x1xf32>
    %53 = tosa.mul %49, %52 : (tensor<1x40x128xf32>, tensor<1x1x1xf32>) -> tensor<1x40x128xf32>

    // ===========================================
    // 3. LAYER NORMALIZATION (Pre-Attention)
    // ===========================================
    // Apply layer normalization before attention mechanism
    // Weights: %arg4 (1536xf32) - layer norm scale
    // Bias: %arg6 (1536xf32) - layer norm bias

    %54 = tensor.empty() : tensor<1x40x1536xf32>
    %c2_i32 = arith.constant 2 : i32
    %55 = linalg.generic {indexing_maps = [#map4, #map4], iterator_types = ["parallel", "parallel", "parallel"]} ins(%3 : tensor<1x40x1536xf32>) outs(%54 : tensor<1x40x1536xf32>) {
    ^bb0(%in: f32, %out: f32):
      %3964 = math.fpowi %in, %c2_i32 : f32, i32
      linalg.yield %3964 : f32
    } -> tensor<1x40x1536xf32>
    %56 = tosa.reduce_sum %55 {axis = 2 : i32} : (tensor<1x40x1536xf32>) -> tensor<1x40x1xf32>
    %57 = "tosa.const"() <{value = dense<1.536000e+03> : tensor<1xf32>}> : () -> tensor<1xf32>
    %58 = tosa.reciprocal %57 : (tensor<1xf32>) -> tensor<1xf32>
    %59 = tosa.reshape %58 {new_shape = array<i64: 1, 1, 1>} : (tensor<1xf32>) -> tensor<1x1x1xf32>
    %60 = tosa.mul %59, %56 : (tensor<1x1x1xf32>, tensor<1x40x1xf32>) -> tensor<1x40x1xf32>
    %61 = "tosa.const"() <{value = dense<9.99999997E-7> : tensor<1x40x1xf32>}> : () -> tensor<1x40x1xf32>
    %62 = tosa.add %60, %61 : (tensor<1x40x1xf32>, tensor<1x40x1xf32>) -> tensor<1x40x1xf32>
    %63 = tosa.rsqrt %62 : (tensor<1x40x1xf32>) -> tensor<1x40x1xf32>
    %64 = tosa.mul %3, %63 : (tensor<1x40x1536xf32>, tensor<1x40x1xf32>) -> tensor<1x40x1536xf32>
    %65 = tosa.reshape %arg4 {new_shape = array<i64: 1, 1, 1536>} : (tensor<1536xf32>) -> tensor<1x1x1536xf32>
    %66 = tosa.mul %65, %64 : (tensor<1x1x1536xf32>, tensor<1x40x1536xf32>) -> tensor<1x40x1536xf32>

    // ===========================================
    // 4. MULTI-HEAD ATTENTION MECHANISM
    // ===========================================
    // Generate Query, Key, Value projections for attention
    // Model has 12 attention heads, 128 dimensions per head

    %67 = tosa.reshape %66 {new_shape = array<i64: 40, 1536>} : (tensor<1x40x1536xf32>) -> tensor<40x1536xf32>
    %68 = "tosa.const"() <{value = dense<[1, 0]> : tensor<2xi32>}> : () -> tensor<2xi32>
    %69 = tosa.transpose %arg5, %68 : (tensor<1536x1536xf32>, tensor<2xi32>) -> tensor<1536x1536xf32>
    %70 = tosa.reshape %67 {new_shape = array<i64: 1, 40, 1536>} : (tensor<40x1536xf32>) -> tensor<1x40x1536xf32>
    %71 = tosa.reshape %69 {new_shape = array<i64: 1, 1536, 1536>} : (tensor<1536x1536xf32>) -> tensor<1x1536x1536xf32>
    %72 = tosa.matmul %70, %71 : (tensor<1x40x1536xf32>, tensor<1x1536x1536xf32>) -> tensor<1x40x1536xf32>
    %73 = tosa.reshape %72 {new_shape = array<i64: 40, 1536>} : (tensor<1x40x1536xf32>) -> tensor<40x1536xf32>
    %74 = tosa.reshape %arg6 {new_shape = array<i64: 1, 1536>} : (tensor<1536xf32>) -> tensor<1x1536xf32>
    %75 = tosa.add %74, %73 : (tensor<1x1536xf32>, tensor<40x1536xf32>) -> tensor<40x1536xf32>
    %76 = tosa.reshape %75 {new_shape = array<i64: 1, 40, 1536>} : (tensor<40x1536xf32>) -> tensor<1x40x1536xf32>

    // Query Projection: %arg7 (256x1536) -> Q weights
    %77 = tosa.reshape %66 {new_shape = array<i64: 40, 1536>} : (tensor<1x40x1536xf32>) -> tensor<40x1536xf32>
    %78 = "tosa.const"() <{value = dense<[1, 0]> : tensor<2xi32>}> : () -> tensor<2xi32>
    %79 = tosa.transpose %arg7, %78 : (tensor<256x1536xf32>, tensor<2xi32>) -> tensor<1536x256xf32>
    %80 = tosa.reshape %77 {new_shape = array<i64: 1, 40, 1536>} : (tensor<40x1536xf32>) -> tensor<1x40x1536xf32>
    %81 = tosa.reshape %79 {new_shape = array<i64: 1, 1536, 256>} : (tensor<1536x256xf32>) -> tensor<1x1536x256xf32>
    %82 = tosa.matmul %80, %81 : (tensor<1x40x1536xf32>, tensor<1x1536x256xf32>) -> tensor<1x40x256xf32>
    %83 = tosa.reshape %82 {new_shape = array<i64: 40, 256>} : (tensor<1x40x256xf32>) -> tensor<40x256xf32>
    %84 = tosa.reshape %arg8 {new_shape = array<i64: 1, 256>} : (tensor<256xf32>) -> tensor<1x256xf32>
    %85 = tosa.add %84, %83 : (tensor<1x256xf32>, tensor<40x256xf32>) -> tensor<40x256xf32>
    %86 = tosa.reshape %85 {new_shape = array<i64: 1, 40, 256>} : (tensor<40x256xf32>) -> tensor<1x40x256xf32>

    // Key Projection: %arg9 (256x1536) -> K weights
    %87 = tosa.reshape %66 {new_shape = array<i64: 40, 1536>} : (tensor<1x40x1536xf32>) -> tensor<40x1536xf32>
    %88 = "tosa.const"() <{value = dense<[1, 0]> : tensor<2xi32>}> : () -> tensor<2xi32>
    %89 = tosa.transpose %arg9, %88 : (tensor<256x1536xf32>, tensor<2xi32>) -> tensor<1536x256xf32>
    %90 = tosa.reshape %87 {new_shape = array<i64: 1, 40, 1536>} : (tensor<40x1536xf32>) -> tensor<1x40x1536xf32>
    %91 = tosa.reshape %89 {new_shape = array<i64: 1, 1536, 256>} : (tensor<1536x256xf32>) -> tensor<1x1536x256xf32>
    %92 = tosa.matmul %90, %91 : (tensor<1x40x1536xf32>, tensor<1x1536x256xf32>) -> tensor<1x40x256xf32>
    %93 = tosa.reshape %92 {new_shape = array<i64: 40, 256>} : (tensor<1x40x256xf32>) -> tensor<40x256xf32>
    %94 = tosa.reshape %arg10 {new_shape = array<i64: 1, 256>} : (tensor<256xf32>) -> tensor<1x256xf32>
    %95 = tosa.add %94, %93 : (tensor<1x256xf32>, tensor<40x256xf32>) -> tensor<40x256xf32>
    %96 = tosa.reshape %95 {new_shape = array<i64: 1, 40, 256>} : (tensor<40x256xf32>) -> tensor<1x40x256xf32>
    // Apply RoPE (Rotary Position Embedding) to Q, K vectors
    // Reshape for multi-head attention: 12 heads x 128 dims per head

    %97 = tosa.reshape %76 {new_shape = array<i64: 1, 40, 12, 128>} : (tensor<1x40x1536xf32>) -> tensor<1x40x12x128xf32>
    %98 = "tosa.const"() <{value = dense<[0, 2, 1, 3]> : tensor<4xi32>}> : () -> tensor<4xi32>
    %99 = tosa.transpose %97, %98 : (tensor<1x40x12x128xf32>, tensor<4xi32>) -> tensor<1x12x40x128xf32>
    %100 = tosa.reshape %86 {new_shape = array<i64: 1, 40, 2, 128>} : (tensor<1x40x256xf32>) -> tensor<1x40x2x128xf32>
    %101 = "tosa.const"() <{value = dense<[0, 2, 1, 3]> : tensor<4xi32>}> : () -> tensor<4xi32>
    %102 = tosa.transpose %100, %101 : (tensor<1x40x2x128xf32>, tensor<4xi32>) -> tensor<1x2x40x128xf32>
    %103 = tosa.reshape %96 {new_shape = array<i64: 1, 40, 2, 128>} : (tensor<1x40x256xf32>) -> tensor<1x40x2x128xf32>
    %104 = "tosa.const"() <{value = dense<[0, 2, 1, 3]> : tensor<4xi32>}> : () -> tensor<4xi32>
    %105 = tosa.transpose %103, %104 : (tensor<1x40x2x128xf32>, tensor<4xi32>) -> tensor<1x2x40x128xf32>
    %106 = tosa.reshape %51 {new_shape = array<i64: 1, 1, 40, 128>} : (tensor<1x40x128xf32>) -> tensor<1x1x40x128xf32>
    %107 = tosa.reshape %53 {new_shape = array<i64: 1, 1, 40, 128>} : (tensor<1x40x128xf32>) -> tensor<1x1x40x128xf32>

    // Apply RoPE to Query (Q) vectors
    %108 = tosa.mul %99, %106 : (tensor<1x12x40x128xf32>, tensor<1x1x40x128xf32>) -> tensor<1x12x40x128xf32>
    %extracted_slice_27 = tensor.extract_slice %99[0, 0, 0, 0] [1, 12, 40, 64] [1, 1, 1, 1] : tensor<1x12x40x128xf32> to tensor<1x12x40x64xf32>
    %extracted_slice_28 = tensor.extract_slice %99[0, 0, 0, 64] [1, 12, 40, 64] [1, 1, 1, 1] : tensor<1x12x40x128xf32> to tensor<1x12x40x64xf32>
    %109 = tensor.empty() : tensor<1x12x40x64xf32>
    %110 = linalg.negf ins(%extracted_slice_28 : tensor<1x12x40x64xf32>) outs(%109 : tensor<1x12x40x64xf32>) -> tensor<1x12x40x64xf32>
    %111 = tensor.empty() : tensor<1x12x40x128xf32>
    %inserted_slice_29 = tensor.insert_slice %110 into %111[0, 0, 0, 0] [1, 12, 40, 64] [1, 1, 1, 1] : tensor<1x12x40x64xf32> into tensor<1x12x40x128xf32>
    %inserted_slice_30 = tensor.insert_slice %extracted_slice_27 into %inserted_slice_29[0, 0, 0, 64] [1, 12, 40, 64] [1, 1, 1, 1] : tensor<1x12x40x64xf32> into tensor<1x12x40x128xf32>
    %112 = tosa.mul %inserted_slice_30, %107 : (tensor<1x12x40x128xf32>, tensor<1x1x40x128xf32>) -> tensor<1x12x40x128xf32>
    %113 = tosa.add %108, %112 : (tensor<1x12x40x128xf32>, tensor<1x12x40x128xf32>) -> tensor<1x12x40x128xf32>

    // Apply RoPE to Key (K) vectors
    %114 = tosa.mul %102, %106 : (tensor<1x2x40x128xf32>, tensor<1x1x40x128xf32>) -> tensor<1x2x40x128xf32>
    %extracted_slice_31 = tensor.extract_slice %102[0, 0, 0, 0] [1, 2, 40, 64] [1, 1, 1, 1] : tensor<1x2x40x128xf32> to tensor<1x2x40x64xf32>
    %extracted_slice_32 = tensor.extract_slice %102[0, 0, 0, 64] [1, 2, 40, 64] [1, 1, 1, 1] : tensor<1x2x40x128xf32> to tensor<1x2x40x64xf32>
    %115 = tensor.empty() : tensor<1x2x40x64xf32>
    %116 = linalg.negf ins(%extracted_slice_32 : tensor<1x2x40x64xf32>) outs(%115 : tensor<1x2x40x64xf32>) -> tensor<1x2x40x64xf32>
    %117 = tensor.empty() : tensor<1x2x40x128xf32>
    %inserted_slice_33 = tensor.insert_slice %116 into %117[0, 0, 0, 0] [1, 2, 40, 64] [1, 1, 1, 1] : tensor<1x2x40x64xf32> into tensor<1x2x40x128xf32>
    %inserted_slice_34 = tensor.insert_slice %extracted_slice_31 into %inserted_slice_33[0, 0, 0, 64] [1, 2, 40, 64] [1, 1, 1, 1] : tensor<1x2x40x64xf32> into tensor<1x2x40x128xf32>
    %118 = tosa.mul %inserted_slice_34, %107 : (tensor<1x2x40x128xf32>, tensor<1x1x40x128xf32>) -> tensor<1x2x40x128xf32>
    %119 = tosa.add %114, %118 : (tensor<1x2x40x128xf32>, tensor<1x2x40x128xf32>) -> tensor<1x2x40x128xf32>
    // Reshape K vectors for attention computation
    %extracted_slice_35 = tensor.extract_slice %119[0, 0, 0, 0] [1, 2, 40, 128] [1, 1, 1, 1] : tensor<1x2x40x128xf32> to tensor<1x2x40x128xf32>
    %extracted_slice_36 = tensor.extract_slice %extracted_slice_35[0, 0, 0, 0] [1, 2, 40, 128] [1, 1, 1, 1] : tensor<1x2x40x128xf32> to tensor<1x2x40x128xf32>
    %120 = tosa.reshape %extracted_slice_36 {new_shape = array<i64: 1, 2, 1, 40, 128>} : (tensor<1x2x40x128xf32>) -> tensor<1x2x1x40x128xf32>
    %extracted_slice_37 = tensor.extract_slice %120[0, 0, 0, 0, 0] [1, 2, 1, 40, 128] [1, 1, 1, 1, 1] : tensor<1x2x1x40x128xf32> to tensor<1x2x1x40x128xf32>
    %extracted_slice_38 = tensor.extract_slice %extracted_slice_37[0, 0, 0, 0, 0] [1, 2, 1, 40, 128] [1, 1, 1, 1, 1] : tensor<1x2x1x40x128xf32> to tensor<1x2x1x40x128xf32>
    %121 = "tosa.const"() <{value = dense<0.000000e+00> : tensor<1x2x6x40x128xf32>}> : () -> tensor<1x2x6x40x128xf32>
    %122 = tosa.add %extracted_slice_38, %121 : (tensor<1x2x1x40x128xf32>, tensor<1x2x6x40x128xf32>) -> tensor<1x2x6x40x128xf32>
    %123 = tosa.identity %122 : (tensor<1x2x6x40x128xf32>) -> tensor<1x2x6x40x128xf32>
    %124 = tosa.reshape %123 {new_shape = array<i64: 1, 12, 40, 128>} : (tensor<1x2x6x40x128xf32>) -> tensor<1x12x40x128xf32>

    // Reshape V vectors for attention computation
    %extracted_slice_39 = tensor.extract_slice %105[0, 0, 0, 0] [1, 2, 40, 128] [1, 1, 1, 1] : tensor<1x2x40x128xf32> to tensor<1x2x40x128xf32>
    %extracted_slice_40 = tensor.extract_slice %extracted_slice_39[0, 0, 0, 0] [1, 2, 40, 128] [1, 1, 1, 1] : tensor<1x2x40x128xf32> to tensor<1x2x40x128xf32>
    %125 = tosa.reshape %extracted_slice_40 {new_shape = array<i64: 1, 2, 1, 40, 128>} : (tensor<1x2x40x128xf32>) -> tensor<1x2x1x40x128xf32>
    %extracted_slice_41 = tensor.extract_slice %125[0, 0, 0, 0, 0] [1, 2, 1, 40, 128] [1, 1, 1, 1, 1] : tensor<1x2x1x40x128xf32> to tensor<1x2x1x40x128xf32>
    %extracted_slice_42 = tensor.extract_slice %extracted_slice_41[0, 0, 0, 0, 0] [1, 2, 1, 40, 128] [1, 1, 1, 1, 1] : tensor<1x2x1x40x128xf32> to tensor<1x2x1x40x128xf32>
    %126 = "tosa.const"() <{value = dense<0.000000e+00> : tensor<1x2x6x40x128xf32>}> : () -> tensor<1x2x6x40x128xf32>
    %127 = tosa.add %extracted_slice_42, %126 : (tensor<1x2x1x40x128xf32>, tensor<1x2x6x40x128xf32>) -> tensor<1x2x6x40x128xf32>
    %128 = tosa.identity %127 : (tensor<1x2x6x40x128xf32>) -> tensor<1x2x6x40x128xf32>
    %129 = tosa.reshape %128 {new_shape = array<i64: 1, 12, 40, 128>} : (tensor<1x2x6x40x128xf32>) -> tensor<1x12x40x128xf32>

    // ===========================================
    // 5. ATTENTION SCORE COMPUTATION
    // ===========================================
    // Compute attention scores: Q @ K^T / sqrt(d_k)
    // Apply causal mask and softmax normalization

    %extracted_slice_43 = tensor.extract_slice %inserted_slice_21[0, 0, 0, 0] [1, 1, 40, 40] [1, 1, 1, 1] : tensor<1x1x40x40xf32> to tensor<1x1x40x40xf32>
    %extracted_slice_44 = tensor.extract_slice %extracted_slice_43[0, 0, 0, 0] [1, 1, 40, 40] [1, 1, 1, 1] : tensor<1x1x40x40xf32> to tensor<1x1x40x40xf32>
    %extracted_slice_45 = tensor.extract_slice %extracted_slice_44[0, 0, 0, 0] [1, 1, 40, 40] [1, 1, 1, 1] : tensor<1x1x40x40xf32> to tensor<1x1x40x40xf32>
    %cst_46 = arith.constant 0.000000e+00 : f32
    %splat_47 = tensor.splat %cst_46 : tensor<40x40xf32>
    %130 = tosa.reshape %extracted_slice_45 {new_shape = array<i64: 40, 40>} : (tensor<1x1x40x40xf32>) -> tensor<40x40xf32>
    %131 = tosa.add %splat_47, %130 : (tensor<40x40xf32>, tensor<40x40xf32>) -> tensor<40x40xf32>
    %132 = "tosa.const"() <{value = dense<[0, 1, 3, 2]> : tensor<4xi32>}> : () -> tensor<4xi32>
    %133 = tosa.transpose %124, %132 : (tensor<1x12x40x128xf32>, tensor<4xi32>) -> tensor<1x12x128x40xf32>
    %134 = tosa.reshape %113 {new_shape = array<i64: 12, 40, 128>} : (tensor<1x12x40x128xf32>) -> tensor<12x40x128xf32>
    %135 = tosa.reshape %133 {new_shape = array<i64: 12, 128, 40>} : (tensor<1x12x128x40xf32>) -> tensor<12x128x40xf32>
    %136 = tosa.matmul %134, %135 : (tensor<12x40x128xf32>, tensor<12x128x40xf32>) -> tensor<12x40x40xf32>
    %cst_48 = arith.constant 0.0883883461 : f32
    %splat_49 = tensor.splat %cst_48 : tensor<12x40x40xf32>
    %137 = tosa.mul %136, %splat_49 : (tensor<12x40x40xf32>, tensor<12x40x40xf32>) -> tensor<12x40x40xf32>
    %138 = tosa.reshape %131 {new_shape = array<i64: 1, 40, 40>} : (tensor<40x40xf32>) -> tensor<1x40x40xf32>
    %139 = tosa.add %137, %138 : (tensor<12x40x40xf32>, tensor<1x40x40xf32>) -> tensor<12x40x40xf32>

    // Apply softmax with numerical stability (log-sum-exp trick)
    %140 = tosa.reduce_max %139 {axis = 2 : i32} : (tensor<12x40x40xf32>) -> tensor<12x40x1xf32>
    %141 = tosa.sub %139, %140 : (tensor<12x40x40xf32>, tensor<12x40x1xf32>) -> tensor<12x40x40xf32>
    %142 = math.exp %141 : tensor<12x40x40xf32>
    %143 = tosa.reduce_sum %142 {axis = 2 : i32} : (tensor<12x40x40xf32>) -> tensor<12x40x1xf32>
    %144 = tosa.log %143 : (tensor<12x40x1xf32>) -> tensor<12x40x1xf32>
    %145 = tosa.add %140, %144 : (tensor<12x40x1xf32>, tensor<12x40x1xf32>) -> tensor<12x40x1xf32>
    %146 = tosa.sub %139, %145 : (tensor<12x40x40xf32>, tensor<12x40x1xf32>) -> tensor<12x40x40xf32>
    %147 = math.exp %146 : tensor<12x40x40xf32>
    %148 = tosa.reshape %145 {new_shape = array<i64: 1, 12, 40>} : (tensor<12x40x1xf32>) -> tensor<1x12x40xf32>
    %149 = tosa.reshape %129 {new_shape = array<i64: 12, 40, 128>} : (tensor<1x12x40x128xf32>) -> tensor<12x40x128xf32>
    %150 = tosa.matmul %147, %149 : (tensor<12x40x40xf32>, tensor<12x40x128xf32>) -> tensor<12x40x128xf32>
    %151 = tosa.reshape %150 {new_shape = array<i64: 1, 12, 40, 128>} : (tensor<12x40x128xf32>) -> tensor<1x12x40x128xf32>
    %152 = "tosa.const"() <{value = dense<[0, 2, 1, 3]> : tensor<4xi32>}> : () -> tensor<4xi32>
    %153 = tosa.transpose %151, %152 : (tensor<1x12x40x128xf32>, tensor<4xi32>) -> tensor<1x40x12x128xf32>
    %154 = tosa.reshape %153 {new_shape = array<i64: 1, 40, 1536>} : (tensor<1x40x12x128xf32>) -> tensor<1x40x1536xf32>

    // ===========================================
    // 6. OUTPUT PROJECTION & RESIDUAL CONNECTION
    // ===========================================
    // Project attention output back to hidden dimension
    // Add residual connection (attention output + input)

    %155 = "tosa.const"() <{value = dense<[1, 0]> : tensor<2xi32>}> : () -> tensor<2xi32>
    %156 = tosa.transpose %arg11, %155 : (tensor<1536x1536xf32>, tensor<2xi32>) -> tensor<1536x1536xf32>
    %157 = tosa.reshape %154 {new_shape = array<i64: 40, 1536>} : (tensor<1x40x1536xf32>) -> tensor<40x1536xf32>
    %cst_50 = arith.constant dense<0.000000e+00> : tensor<40x1536xf32>
    %158 = linalg.matmul {cast = #linalg.type_fn<cast_signed>} ins(%157, %156 : tensor<40x1536xf32>, tensor<1536x1536xf32>) outs(%cst_50 : tensor<40x1536xf32>) -> tensor<40x1536xf32>
    %159 = tosa.reshape %158 {new_shape = array<i64: 1, 40, 1536>} : (tensor<40x1536xf32>) -> tensor<1x40x1536xf32>
    %160 = tosa.add %3, %159 : (tensor<1x40x1536xf32>, tensor<1x40x1536xf32>) -> tensor<1x40x1536xf32>

    // ===========================================
    // 7. LAYER NORMALIZATION (Pre-FFN)
    // ===========================================
    // Apply layer normalization before feed-forward network

    %161 = tensor.empty() : tensor<1x40x1536xf32>
    %c2_i32_51 = arith.constant 2 : i32
    %162 = linalg.generic {indexing_maps = [#map4, #map4], iterator_types = ["parallel", "parallel", "parallel"]} ins(%160 : tensor<1x40x1536xf32>) outs(%161 : tensor<1x40x1536xf32>) {
    ^bb0(%in: f32, %out: f32):
      %3964 = math.fpowi %in, %c2_i32_51 : f32, i32
      linalg.yield %3964 : f32
    } -> tensor<1x40x1536xf32>
    %163 = tosa.reduce_sum %162 {axis = 2 : i32} : (tensor<1x40x1536xf32>) -> tensor<1x40x1xf32>
    %164 = "tosa.const"() <{value = dense<1.536000e+03> : tensor<1xf32>}> : () -> tensor<1xf32>
    %165 = tosa.reciprocal %164 : (tensor<1xf32>) -> tensor<1xf32>
    %166 = tosa.reshape %165 {new_shape = array<i64: 1, 1, 1>} : (tensor<1xf32>) -> tensor<1x1x1xf32>
    %167 = tosa.mul %166, %163 : (tensor<1x1x1xf32>, tensor<1x40x1xf32>) -> tensor<1x40x1xf32>
    %168 = "tosa.const"() <{value = dense<9.99999997E-7> : tensor<1x40x1xf32>}> : () -> tensor<1x40x1xf32>
    %169 = tosa.add %167, %168 : (tensor<1x40x1xf32>, tensor<1x40x1xf32>) -> tensor<1x40x1xf32>
    %170 = tosa.rsqrt %169 : (tensor<1x40x1xf32>) -> tensor<1x40x1xf32>
    %171 = tosa.mul %160, %170 : (tensor<1x40x1536xf32>, tensor<1x40x1xf32>) -> tensor<1x40x1536xf32>
    %172 = tosa.reshape %arg12 {new_shape = array<i64: 1, 1, 1536>} : (tensor<1536xf32>) -> tensor<1x1x1536xf32>
    %173 = tosa.mul %172, %171 : (tensor<1x1x1536xf32>, tensor<1x40x1536xf32>) -> tensor<1x40x1536xf32>

    // ===========================================
    // 8. FEED-FORWARD NETWORK (FFN)
    // ===========================================
    // DeepSeek uses SwiGLU activation: x * sigmoid(x) * gate
    // FFN expansion ratio: 1536 -> 8960 -> 1536

    %174 = "tosa.const"() <{value = dense<[1, 0]> : tensor<2xi32>}> : () -> tensor<2xi32>
    %175 = tosa.transpose %arg13, %174 : (tensor<8960x1536xf32>, tensor<2xi32>) -> tensor<1536x8960xf32>
    %176 = tosa.reshape %173 {new_shape = array<i64: 40, 1536>} : (tensor<1x40x1536xf32>) -> tensor<40x1536xf32>
    %cst_52 = arith.constant dense<0.000000e+00> : tensor<40x8960xf32>
    %177 = linalg.matmul {cast = #linalg.type_fn<cast_signed>} ins(%176, %175 : tensor<40x1536xf32>, tensor<1536x8960xf32>) outs(%cst_52 : tensor<40x8960xf32>) -> tensor<40x8960xf32>
    %178 = tosa.reshape %177 {new_shape = array<i64: 1, 40, 8960>} : (tensor<40x8960xf32>) -> tensor<1x40x8960xf32>
    %179 = tosa.sigmoid %178 : (tensor<1x40x8960xf32>) -> tensor<1x40x8960xf32>
    %180 = tosa.mul %178, %179 : (tensor<1x40x8960xf32>, tensor<1x40x8960xf32>) -> tensor<1x40x8960xf32>
    %181 = "tosa.const"() <{value = dense<[1, 0]> : tensor<2xi32>}> : () -> tensor<2xi32>
    %182 = tosa.transpose %arg14, %181 : (tensor<8960x1536xf32>, tensor<2xi32>) -> tensor<1536x8960xf32>
    %183 = tosa.reshape %173 {new_shape = array<i64: 40, 1536>} : (tensor<1x40x1536xf32>) -> tensor<40x1536xf32>
    %cst_53 = arith.constant dense<0.000000e+00> : tensor<40x8960xf32>
    %184 = linalg.matmul {cast = #linalg.type_fn<cast_signed>} ins(%183, %182 : tensor<40x1536xf32>, tensor<1536x8960xf32>) outs(%cst_53 : tensor<40x8960xf32>) -> tensor<40x8960xf32>
    %185 = tosa.reshape %184 {new_shape = array<i64: 1, 40, 8960>} : (tensor<40x8960xf32>) -> tensor<1x40x8960xf32>
    %186 = tosa.mul %180, %185 : (tensor<1x40x8960xf32>, tensor<1x40x8960xf32>) -> tensor<1x40x8960xf32>
    %187 = "tosa.const"() <{value = dense<[1, 0]> : tensor<2xi32>}> : () -> tensor<2xi32>
    %188 = tosa.transpose %arg15, %187 : (tensor<1536x8960xf32>, tensor<2xi32>) -> tensor<8960x1536xf32>
    %189 = tosa.reshape %186 {new_shape = array<i64: 40, 8960>} : (tensor<1x40x8960xf32>) -> tensor<40x8960xf32>
    %cst_54 = arith.constant dense<0.000000e+00> : tensor<40x1536xf32>
    %190 = linalg.matmul {cast = #linalg.type_fn<cast_signed>} ins(%189, %188 : tensor<40x8960xf32>, tensor<8960x1536xf32>) outs(%cst_54 : tensor<40x1536xf32>) -> tensor<40x1536xf32>
    %191 = tosa.reshape %190 {new_shape = array<i64: 1, 40, 1536>} : (tensor<40x1536xf32>) -> tensor<1x40x1536xf32>
    %192 = tosa.add %160, %191 : (tensor<1x40x1536xf32>, tensor<1x40x1536xf32>) -> tensor<1x40x1536xf32>
    %193 = tensor.empty() : tensor<1x40x1536xf32>
    %c2_i32_55 = arith.constant 2 : i32
    %194 = linalg.generic {indexing_maps = [#map4, #map4], iterator_types = ["parallel", "parallel", "parallel"]} ins(%192 : tensor<1x40x1536xf32>) outs(%193 : tensor<1x40x1536xf32>) {
    ^bb0(%in: f32, %out: f32):
      %3964 = math.fpowi %in, %c2_i32_55 : f32, i32
      linalg.yield %3964 : f32
    } -> tensor<1x40x1536xf32>
    %195 = tosa.reduce_sum %194 {axis = 2 : i32} : (tensor<1x40x1536xf32>) -> tensor<1x40x1xf32>
    %196 = "tosa.const"() <{value = dense<1.536000e+03> : tensor<1xf32>}> : () -> tensor<1xf32>
    %197 = tosa.reciprocal %196 : (tensor<1xf32>) -> tensor<1xf32>
    %198 = tosa.reshape %197 {new_shape = array<i64: 1, 1, 1>} : (tensor<1xf32>) -> tensor<1x1x1xf32>
    %199 = tosa.mul %198, %195 : (tensor<1x1x1xf32>, tensor<1x40x1xf32>) -> tensor<1x40x1xf32>
    %200 = "tosa.const"() <{value = dense<9.99999997E-7> : tensor<1x40x1xf32>}> : () -> tensor<1x40x1xf32>
    %201 = tosa.add %199, %200 : (tensor<1x40x1xf32>, tensor<1x40x1xf32>) -> tensor<1x40x1xf32>
    %202 = tosa.rsqrt %201 : (tensor<1x40x1xf32>) -> tensor<1x40x1xf32>
    %203 = tosa.mul %192, %202 : (tensor<1x40x1536xf32>, tensor<1x40x1xf32>) -> tensor<1x40x1536xf32>
    %204 = tosa.reshape %arg16 {new_shape = array<i64: 1, 1, 1536>} : (tensor<1536xf32>) -> tensor<1x1x1536xf32>
    %205 = tosa.mul %204, %203 : (tensor<1x1x1536xf32>, tensor<1x40x1536xf32>) -> tensor<1x40x1536xf32>
    %206 = tosa.reshape %205 {new_shape = array<i64: 40, 1536>} : (tensor<1x40x1536xf32>) -> tensor<40x1536xf32>
    %207 = "tosa.const"() <{value = dense<[1, 0]> : tensor<2xi32>}> : () -> tensor<2xi32>
    %208 = tosa.transpose %arg17, %207 : (tensor<1536x1536xf32>, tensor<2xi32>) -> tensor<1536x1536xf32>
    %209 = tosa.reshape %206 {new_shape = array<i64: 1, 40, 1536>} : (tensor<40x1536xf32>) -> tensor<1x40x1536xf32>
    %210 = tosa.reshape %208 {new_shape = array<i64: 1, 1536, 1536>} : (tensor<1536x1536xf32>) -> tensor<1x1536x1536xf32>
    %211 = tosa.matmul %209, %210 : (tensor<1x40x1536xf32>, tensor<1x1536x1536xf32>) -> tensor<1x40x1536xf32>

    // ===========================================
    // 9. REMAINING TRANSFORMER LAYERS (Layer 2-28)
    // ===========================================
    // The following operations represent the remaining 27 transformer layers
    // Each layer follows the same pattern as Layer 1:
    // 1. Layer Normalization (Pre-Attention)
    // 2. Multi-Head Self-Attention with RoPE
    // 3. Residual Connection + Output Projection
    // 4. Layer Normalization (Pre-FFN)
    // 5. SwiGLU Feed-Forward Network
    // 6. Residual Connection
    //
    // Total Architecture: 28 Transformer Layers
    // - Each layer processes the same sequence length (40 tokens)
    // - Same hidden dimension (1536) and attention heads (12)
    // - Same FFN expansion ratio (1536 -> 8960 -> 1536)
    // - RoPE applied to Q, K vectors in each attention layer
    // - SwiGLU activation in each FFN layer
    //
    // Note: The parameters (arg17-arg340) represent the weights and biases
    // for all 28 transformer layers, with each layer having its own
    // set of learned parameters for attention and FFN operations.
    // ===========================================
    %212 = tosa.reshape %211 {new_shape = array<i64: 40, 1536>} : (tensor<1x40x1536xf32>) -> tensor<40x1536xf32>
    %213 = tosa.reshape %arg18 {new_shape = array<i64: 1, 1536>} : (tensor<1536xf32>) -> tensor<1x1536xf32>
    %214 = tosa.add %213, %212 : (tensor<1x1536xf32>, tensor<40x1536xf32>) -> tensor<40x1536xf32>
    %215 = tosa.reshape %214 {new_shape = array<i64: 1, 40, 1536>} : (tensor<40x1536xf32>) -> tensor<1x40x1536xf32>
    %216 = tosa.reshape %205 {new_shape = array<i64: 40, 1536>} : (tensor<1x40x1536xf32>) -> tensor<40x1536xf32>
    %217 = "tosa.const"() <{value = dense<[1, 0]> : tensor<2xi32>}> : () -> tensor<2xi32>
    %218 = tosa.transpose %arg19, %217 : (tensor<256x1536xf32>, tensor<2xi32>) -> tensor<1536x256xf32>
    %219 = tosa.reshape %216 {new_shape = array<i64: 1, 40, 1536>} : (tensor<40x1536xf32>) -> tensor<1x40x1536xf32>
    %220 = tosa.reshape %218 {new_shape = array<i64: 1, 1536, 256>} : (tensor<1536x256xf32>) -> tensor<1x1536x256xf32>
    %221 = tosa.matmul %219, %220 : (tensor<1x40x1536xf32>, tensor<1x1536x256xf32>) -> tensor<1x40x256xf32>
    %222 = tosa.reshape %221 {new_shape = array<i64: 40, 256>} : (tensor<1x40x256xf32>) -> tensor<40x256xf32>
    %223 = tosa.reshape %arg20 {new_shape = array<i64: 1, 256>} : (tensor<256xf32>) -> tensor<1x256xf32>
    %224 = tosa.add %223, %222 : (tensor<1x256xf32>, tensor<40x256xf32>) -> tensor<40x256xf32>
    %225 = tosa.reshape %224 {new_shape = array<i64: 1, 40, 256>} : (tensor<40x256xf32>) -> tensor<1x40x256xf32>
    %226 = tosa.reshape %205 {new_shape = array<i64: 40, 1536>} : (tensor<1x40x1536xf32>) -> tensor<40x1536xf32>
    %227 = "tosa.const"() <{value = dense<[1, 0]> : tensor<2xi32>}> : () -> tensor<2xi32>
    %228 = tosa.transpose %arg21, %227 : (tensor<256x1536xf32>, tensor<2xi32>) -> tensor<1536x256xf32>
    %229 = tosa.reshape %226 {new_shape = array<i64: 1, 40, 1536>} : (tensor<40x1536xf32>) -> tensor<1x40x1536xf32>
    %230 = tosa.reshape %228 {new_shape = array<i64: 1, 1536, 256>} : (tensor<1536x256xf32>) -> tensor<1x1536x256xf32>
    %231 = tosa.matmul %229, %230 : (tensor<1x40x1536xf32>, tensor<1x1536x256xf32>) -> tensor<1x40x256xf32>
    %232 = tosa.reshape %231 {new_shape = array<i64: 40, 256>} : (tensor<1x40x256xf32>) -> tensor<40x256xf32>
    %233 = tosa.reshape %arg22 {new_shape = array<i64: 1, 256>} : (tensor<256xf32>) -> tensor<1x256xf32>
    %234 = tosa.add %233, %232 : (tensor<1x256xf32>, tensor<40x256xf32>) -> tensor<40x256xf32>
    %235 = tosa.reshape %234 {new_shape = array<i64: 1, 40, 256>} : (tensor<40x256xf32>) -> tensor<1x40x256xf32>
    %236 = tosa.reshape %215 {new_shape = array<i64: 1, 40, 12, 128>} : (tensor<1x40x1536xf32>) -> tensor<1x40x12x128xf32>
    %237 = "tosa.const"() <{value = dense<[0, 2, 1, 3]> : tensor<4xi32>}> : () -> tensor<4xi32>
    %238 = tosa.transpose %236, %237 : (tensor<1x40x12x128xf32>, tensor<4xi32>) -> tensor<1x12x40x128xf32>
    %239 = tosa.reshape %225 {new_shape = array<i64: 1, 40, 2, 128>} : (tensor<1x40x256xf32>) -> tensor<1x40x2x128xf32>
    %240 = "tosa.const"() <{value = dense<[0, 2, 1, 3]> : tensor<4xi32>}> : () -> tensor<4xi32>
    %241 = tosa.transpose %239, %240 : (tensor<1x40x2x128xf32>, tensor<4xi32>) -> tensor<1x2x40x128xf32>
    %242 = tosa.reshape %235 {new_shape = array<i64: 1, 40, 2, 128>} : (tensor<1x40x256xf32>) -> tensor<1x40x2x128xf32>
    %243 = "tosa.const"() <{value = dense<[0, 2, 1, 3]> : tensor<4xi32>}> : () -> tensor<4xi32>
    %244 = tosa.transpose %242, %243 : (tensor<1x40x2x128xf32>, tensor<4xi32>) -> tensor<1x2x40x128xf32>
    %245 = tosa.reshape %51 {new_shape = array<i64: 1, 1, 40, 128>} : (tensor<1x40x128xf32>) -> tensor<1x1x40x128xf32>
    %246 = tosa.reshape %53 {new_shape = array<i64: 1, 1, 40, 128>} : (tensor<1x40x128xf32>) -> tensor<1x1x40x128xf32>
    %247 = tosa.mul %238, %245 : (tensor<1x12x40x128xf32>, tensor<1x1x40x128xf32>) -> tensor<1x12x40x128xf32>
    %extracted_slice_56 = tensor.extract_slice %238[0, 0, 0, 0] [1, 12, 40, 64] [1, 1, 1, 1] : tensor<1x12x40x128xf32> to tensor<1x12x40x64xf32>
    %extracted_slice_57 = tensor.extract_slice %238[0, 0, 0, 64] [1, 12, 40, 64] [1, 1, 1, 1] : tensor<1x12x40x128xf32> to tensor<1x12x40x64xf32>
    %248 = tensor.empty() : tensor<1x12x40x64xf32>
    %249 = linalg.negf ins(%extracted_slice_57 : tensor<1x12x40x64xf32>) outs(%248 : tensor<1x12x40x64xf32>) -> tensor<1x12x40x64xf32>
    %250 = tensor.empty() : tensor<1x12x40x128xf32>
    %inserted_slice_58 = tensor.insert_slice %249 into %250[0, 0, 0, 0] [1, 12, 40, 64] [1, 1, 1, 1] : tensor<1x12x40x64xf32> into tensor<1x12x40x128xf32>
    %inserted_slice_59 = tensor.insert_slice %extracted_slice_56 into %inserted_slice_58[0, 0, 0, 64] [1, 12, 40, 64] [1, 1, 1, 1] : tensor<1x12x40x64xf32> into tensor<1x12x40x128xf32>
    %251 = tosa.mul %inserted_slice_59, %246 : (tensor<1x12x40x128xf32>, tensor<1x1x40x128xf32>) -> tensor<1x12x40x128xf32>
    %252 = tosa.add %247, %251 : (tensor<1x12x40x128xf32>, tensor<1x12x40x128xf32>) -> tensor<1x12x40x128xf32>
    %253 = tosa.mul %241, %245 : (tensor<1x2x40x128xf32>, tensor<1x1x40x128xf32>) -> tensor<1x2x40x128xf32>
    %extracted_slice_60 = tensor.extract_slice %241[0, 0, 0, 0] [1, 2, 40, 64] [1, 1, 1, 1] : tensor<1x2x40x128xf32> to tensor<1x2x40x64xf32>
    %extracted_slice_61 = tensor.extract_slice %241[0, 0, 0, 64] [1, 2, 40, 64] [1, 1, 1, 1] : tensor<1x2x40x128xf32> to tensor<1x2x40x64xf32>
    %254 = tensor.empty() : tensor<1x2x40x64xf32>
    %255 = linalg.negf ins(%extracted_slice_61 : tensor<1x2x40x64xf32>) outs(%254 : tensor<1x2x40x64xf32>) -> tensor<1x2x40x64xf32>
    %256 = tensor.empty() : tensor<1x2x40x128xf32>
    %inserted_slice_62 = tensor.insert_slice %255 into %256[0, 0, 0, 0] [1, 2, 40, 64] [1, 1, 1, 1] : tensor<1x2x40x64xf32> into tensor<1x2x40x128xf32>
    %inserted_slice_63 = tensor.insert_slice %extracted_slice_60 into %inserted_slice_62[0, 0, 0, 64] [1, 2, 40, 64] [1, 1, 1, 1] : tensor<1x2x40x64xf32> into tensor<1x2x40x128xf32>
    %257 = tosa.mul %inserted_slice_63, %246 : (tensor<1x2x40x128xf32>, tensor<1x1x40x128xf32>) -> tensor<1x2x40x128xf32>
    %258 = tosa.add %253, %257 : (tensor<1x2x40x128xf32>, tensor<1x2x40x128xf32>) -> tensor<1x2x40x128xf32>
    %extracted_slice_64 = tensor.extract_slice %258[0, 0, 0, 0] [1, 2, 40, 128] [1, 1, 1, 1] : tensor<1x2x40x128xf32> to tensor<1x2x40x128xf32>
    %extracted_slice_65 = tensor.extract_slice %extracted_slice_64[0, 0, 0, 0] [1, 2, 40, 128] [1, 1, 1, 1] : tensor<1x2x40x128xf32> to tensor<1x2x40x128xf32>
    %259 = tosa.reshape %extracted_slice_65 {new_shape = array<i64: 1, 2, 1, 40, 128>} : (tensor<1x2x40x128xf32>) -> tensor<1x2x1x40x128xf32>
    %extracted_slice_66 = tensor.extract_slice %259[0, 0, 0, 0, 0] [1, 2, 1, 40, 128] [1, 1, 1, 1, 1] : tensor<1x2x1x40x128xf32> to tensor<1x2x1x40x128xf32>
    %extracted_slice_67 = tensor.extract_slice %extracted_slice_66[0, 0, 0, 0, 0] [1, 2, 1, 40, 128] [1, 1, 1, 1, 1] : tensor<1x2x1x40x128xf32> to tensor<1x2x1x40x128xf32>
    %260 = "tosa.const"() <{value = dense<0.000000e+00> : tensor<1x2x6x40x128xf32>}> : () -> tensor<1x2x6x40x128xf32>
    %261 = tosa.add %extracted_slice_67, %260 : (tensor<1x2x1x40x128xf32>, tensor<1x2x6x40x128xf32>) -> tensor<1x2x6x40x128xf32>
    %262 = tosa.identity %261 : (tensor<1x2x6x40x128xf32>) -> tensor<1x2x6x40x128xf32>
    %263 = tosa.reshape %262 {new_shape = array<i64: 1, 12, 40, 128>} : (tensor<1x2x6x40x128xf32>) -> tensor<1x12x40x128xf32>
    %extracted_slice_68 = tensor.extract_slice %244[0, 0, 0, 0] [1, 2, 40, 128] [1, 1, 1, 1] : tensor<1x2x40x128xf32> to tensor<1x2x40x128xf32>
    %extracted_slice_69 = tensor.extract_slice %extracted_slice_68[0, 0, 0, 0] [1, 2, 40, 128] [1, 1, 1, 1] : tensor<1x2x40x128xf32> to tensor<1x2x40x128xf32>
    %264 = tosa.reshape %extracted_slice_69 {new_shape = array<i64: 1, 2, 1, 40, 128>} : (tensor<1x2x40x128xf32>) -> tensor<1x2x1x40x128xf32>
    %extracted_slice_70 = tensor.extract_slice %264[0, 0, 0, 0, 0] [1, 2, 1, 40, 128] [1, 1, 1, 1, 1] : tensor<1x2x1x40x128xf32> to tensor<1x2x1x40x128xf32>
    %extracted_slice_71 = tensor.extract_slice %extracted_slice_70[0, 0, 0, 0, 0] [1, 2, 1, 40, 128] [1, 1, 1, 1, 1] : tensor<1x2x1x40x128xf32> to tensor<1x2x1x40x128xf32>
    %265 = "tosa.const"() <{value = dense<0.000000e+00> : tensor<1x2x6x40x128xf32>}> : () -> tensor<1x2x6x40x128xf32>
    %266 = tosa.add %extracted_slice_71, %265 : (tensor<1x2x1x40x128xf32>, tensor<1x2x6x40x128xf32>) -> tensor<1x2x6x40x128xf32>
    %267 = tosa.identity %266 : (tensor<1x2x6x40x128xf32>) -> tensor<1x2x6x40x128xf32>
    %268 = tosa.reshape %267 {new_shape = array<i64: 1, 12, 40, 128>} : (tensor<1x2x6x40x128xf32>) -> tensor<1x12x40x128xf32>
    %extracted_slice_72 = tensor.extract_slice %inserted_slice_21[0, 0, 0, 0] [1, 1, 40, 40] [1, 1, 1, 1] : tensor<1x1x40x40xf32> to tensor<1x1x40x40xf32>
    %extracted_slice_73 = tensor.extract_slice %extracted_slice_72[0, 0, 0, 0] [1, 1, 40, 40] [1, 1, 1, 1] : tensor<1x1x40x40xf32> to tensor<1x1x40x40xf32>
    %extracted_slice_74 = tensor.extract_slice %extracted_slice_73[0, 0, 0, 0] [1, 1, 40, 40] [1, 1, 1, 1] : tensor<1x1x40x40xf32> to tensor<1x1x40x40xf32>
    %cst_75 = arith.constant 0.000000e+00 : f32
    %splat_76 = tensor.splat %cst_75 : tensor<40x40xf32>
    %269 = tosa.reshape %extracted_slice_74 {new_shape = array<i64: 40, 40>} : (tensor<1x1x40x40xf32>) -> tensor<40x40xf32>
    %270 = tosa.add %splat_76, %269 : (tensor<40x40xf32>, tensor<40x40xf32>) -> tensor<40x40xf32>
    %271 = "tosa.const"() <{value = dense<[0, 1, 3, 2]> : tensor<4xi32>}> : () -> tensor<4xi32>
    %272 = tosa.transpose %263, %271 : (tensor<1x12x40x128xf32>, tensor<4xi32>) -> tensor<1x12x128x40xf32>
    %273 = tosa.reshape %252 {new_shape = array<i64: 12, 40, 128>} : (tensor<1x12x40x128xf32>) -> tensor<12x40x128xf32>
    %274 = tosa.reshape %272 {new_shape = array<i64: 12, 128, 40>} : (tensor<1x12x128x40xf32>) -> tensor<12x128x40xf32>
    %275 = tosa.matmul %273, %274 : (tensor<12x40x128xf32>, tensor<12x128x40xf32>) -> tensor<12x40x40xf32>
    %cst_77 = arith.constant 0.0883883461 : f32
    %splat_78 = tensor.splat %cst_77 : tensor<12x40x40xf32>
    %276 = tosa.mul %275, %splat_78 : (tensor<12x40x40xf32>, tensor<12x40x40xf32>) -> tensor<12x40x40xf32>
    %277 = tosa.reshape %270 {new_shape = array<i64: 1, 40, 40>} : (tensor<40x40xf32>) -> tensor<1x40x40xf32>
    %278 = tosa.add %276, %277 : (tensor<12x40x40xf32>, tensor<1x40x40xf32>) -> tensor<12x40x40xf32>
    %279 = tosa.reduce_max %278 {axis = 2 : i32} : (tensor<12x40x40xf32>) -> tensor<12x40x1xf32>
    %280 = tosa.sub %278, %279 : (tensor<12x40x40xf32>, tensor<12x40x1xf32>) -> tensor<12x40x40xf32>
    %281 = math.exp %280 : tensor<12x40x40xf32>
    %282 = tosa.reduce_sum %281 {axis = 2 : i32} : (tensor<12x40x40xf32>) -> tensor<12x40x1xf32>
    %283 = tosa.log %282 : (tensor<12x40x1xf32>) -> tensor<12x40x1xf32>
    %284 = tosa.add %279, %283 : (tensor<12x40x1xf32>, tensor<12x40x1xf32>) -> tensor<12x40x1xf32>
    %285 = tosa.sub %278, %284 : (tensor<12x40x40xf32>, tensor<12x40x1xf32>) -> tensor<12x40x40xf32>
    %286 = math.exp %285 : tensor<12x40x40xf32>
    %287 = tosa.reshape %284 {new_shape = array<i64: 1, 12, 40>} : (tensor<12x40x1xf32>) -> tensor<1x12x40xf32>
    %288 = tosa.reshape %268 {new_shape = array<i64: 12, 40, 128>} : (tensor<1x12x40x128xf32>) -> tensor<12x40x128xf32>
    %289 = tosa.matmul %286, %288 : (tensor<12x40x40xf32>, tensor<12x40x128xf32>) -> tensor<12x40x128xf32>
    %290 = tosa.reshape %289 {new_shape = array<i64: 1, 12, 40, 128>} : (tensor<12x40x128xf32>) -> tensor<1x12x40x128xf32>
    %291 = "tosa.const"() <{value = dense<[0, 2, 1, 3]> : tensor<4xi32>}> : () -> tensor<4xi32>
    %292 = tosa.transpose %290, %291 : (tensor<1x12x40x128xf32>, tensor<4xi32>) -> tensor<1x40x12x128xf32>
    %293 = tosa.reshape %292 {new_shape = array<i64: 1, 40, 1536>} : (tensor<1x40x12x128xf32>) -> tensor<1x40x1536xf32>
    %294 = "tosa.const"() <{value = dense<[1, 0]> : tensor<2xi32>}> : () -> tensor<2xi32>
    %295 = tosa.transpose %arg23, %294 : (tensor<1536x1536xf32>, tensor<2xi32>) -> tensor<1536x1536xf32>
    %296 = tosa.reshape %293 {new_shape = array<i64: 40, 1536>} : (tensor<1x40x1536xf32>) -> tensor<40x1536xf32>
    %cst_79 = arith.constant dense<0.000000e+00> : tensor<40x1536xf32>
    %297 = linalg.matmul {cast = #linalg.type_fn<cast_signed>} ins(%296, %295 : tensor<40x1536xf32>, tensor<1536x1536xf32>) outs(%cst_79 : tensor<40x1536xf32>) -> tensor<40x1536xf32>
    %298 = tosa.reshape %297 {new_shape = array<i64: 1, 40, 1536>} : (tensor<40x1536xf32>) -> tensor<1x40x1536xf32>
    %299 = tosa.add %192, %298 : (tensor<1x40x1536xf32>, tensor<1x40x1536xf32>) -> tensor<1x40x1536xf32>
    %300 = tensor.empty() : tensor<1x40x1536xf32>
    %c2_i32_80 = arith.constant 2 : i32
    %301 = linalg.generic {indexing_maps = [#map4, #map4], iterator_types = ["parallel", "parallel", "parallel"]} ins(%299 : tensor<1x40x1536xf32>) outs(%300 : tensor<1x40x1536xf32>) {
    ^bb0(%in: f32, %out: f32):
      %3964 = math.fpowi %in, %c2_i32_80 : f32, i32
      linalg.yield %3964 : f32
    } -> tensor<1x40x1536xf32>
    %302 = tosa.reduce_sum %301 {axis = 2 : i32} : (tensor<1x40x1536xf32>) -> tensor<1x40x1xf32>
    %303 = "tosa.const"() <{value = dense<1.536000e+03> : tensor<1xf32>}> : () -> tensor<1xf32>
    %304 = tosa.reciprocal %303 : (tensor<1xf32>) -> tensor<1xf32>
    %305 = tosa.reshape %304 {new_shape = array<i64: 1, 1, 1>} : (tensor<1xf32>) -> tensor<1x1x1xf32>
    %306 = tosa.mul %305, %302 : (tensor<1x1x1xf32>, tensor<1x40x1xf32>) -> tensor<1x40x1xf32>
    %307 = "tosa.const"() <{value = dense<9.99999997E-7> : tensor<1x40x1xf32>}> : () -> tensor<1x40x1xf32>
    %308 = tosa.add %306, %307 : (tensor<1x40x1xf32>, tensor<1x40x1xf32>) -> tensor<1x40x1xf32>
    %309 = tosa.rsqrt %308 : (tensor<1x40x1xf32>) -> tensor<1x40x1xf32>
    %310 = tosa.mul %299, %309 : (tensor<1x40x1536xf32>, tensor<1x40x1xf32>) -> tensor<1x40x1536xf32>
    %311 = tosa.reshape %arg24 {new_shape = array<i64: 1, 1, 1536>} : (tensor<1536xf32>) -> tensor<1x1x1536xf32>
    %312 = tosa.mul %311, %310 : (tensor<1x1x1536xf32>, tensor<1x40x1536xf32>) -> tensor<1x40x1536xf32>
    %313 = "tosa.const"() <{value = dense<[1, 0]> : tensor<2xi32>}> : () -> tensor<2xi32>
    %314 = tosa.transpose %arg25, %313 : (tensor<8960x1536xf32>, tensor<2xi32>) -> tensor<1536x8960xf32>
    %315 = tosa.reshape %312 {new_shape = array<i64: 40, 1536>} : (tensor<1x40x1536xf32>) -> tensor<40x1536xf32>
    %cst_81 = arith.constant dense<0.000000e+00> : tensor<40x8960xf32>
    %316 = linalg.matmul {cast = #linalg.type_fn<cast_signed>} ins(%315, %314 : tensor<40x1536xf32>, tensor<1536x8960xf32>) outs(%cst_81 : tensor<40x8960xf32>) -> tensor<40x8960xf32>
    %317 = tosa.reshape %316 {new_shape = array<i64: 1, 40, 8960>} : (tensor<40x8960xf32>) -> tensor<1x40x8960xf32>
    %318 = tosa.sigmoid %317 : (tensor<1x40x8960xf32>) -> tensor<1x40x8960xf32>
    %319 = tosa.mul %317, %318 : (tensor<1x40x8960xf32>, tensor<1x40x8960xf32>) -> tensor<1x40x8960xf32>
    %320 = "tosa.const"() <{value = dense<[1, 0]> : tensor<2xi32>}> : () -> tensor<2xi32>
    %321 = tosa.transpose %arg26, %320 : (tensor<8960x1536xf32>, tensor<2xi32>) -> tensor<1536x8960xf32>
    %322 = tosa.reshape %312 {new_shape = array<i64: 40, 1536>} : (tensor<1x40x1536xf32>) -> tensor<40x1536xf32>
    %cst_82 = arith.constant dense<0.000000e+00> : tensor<40x8960xf32>
    %323 = linalg.matmul {cast = #linalg.type_fn<cast_signed>} ins(%322, %321 : tensor<40x1536xf32>, tensor<1536x8960xf32>) outs(%cst_82 : tensor<40x8960xf32>) -> tensor<40x8960xf32>
    %324 = tosa.reshape %323 {new_shape = array<i64: 1, 40, 8960>} : (tensor<40x8960xf32>) -> tensor<1x40x8960xf32>
    %325 = tosa.mul %319, %324 : (tensor<1x40x8960xf32>, tensor<1x40x8960xf32>) -> tensor<1x40x8960xf32>
    %326 = "tosa.const"() <{value = dense<[1, 0]> : tensor<2xi32>}> : () -> tensor<2xi32>
    %327 = tosa.transpose %arg27, %326 : (tensor<1536x8960xf32>, tensor<2xi32>) -> tensor<8960x1536xf32>
    %328 = tosa.reshape %325 {new_shape = array<i64: 40, 8960>} : (tensor<1x40x8960xf32>) -> tensor<40x8960xf32>
    %cst_83 = arith.constant dense<0.000000e+00> : tensor<40x1536xf32>
    %329 = linalg.matmul {cast = #linalg.type_fn<cast_signed>} ins(%328, %327 : tensor<40x8960xf32>, tensor<8960x1536xf32>) outs(%cst_83 : tensor<40x1536xf32>) -> tensor<40x1536xf32>
    %330 = tosa.reshape %329 {new_shape = array<i64: 1, 40, 1536>} : (tensor<40x1536xf32>) -> tensor<1x40x1536xf32>
    %331 = tosa.add %299, %330 : (tensor<1x40x1536xf32>, tensor<1x40x1536xf32>) -> tensor<1x40x1536xf32>
    %332 = tensor.empty() : tensor<1x40x1536xf32>
    %c2_i32_84 = arith.constant 2 : i32
    %333 = linalg.generic {indexing_maps = [#map4, #map4], iterator_types = ["parallel", "parallel", "parallel"]} ins(%331 : tensor<1x40x1536xf32>) outs(%332 : tensor<1x40x1536xf32>) {
    ^bb0(%in: f32, %out: f32):
      %3964 = math.fpowi %in, %c2_i32_84 : f32, i32
      linalg.yield %3964 : f32
    } -> tensor<1x40x1536xf32>
    %334 = tosa.reduce_sum %333 {axis = 2 : i32} : (tensor<1x40x1536xf32>) -> tensor<1x40x1xf32>
    %335 = "tosa.const"() <{value = dense<1.536000e+03> : tensor<1xf32>}> : () -> tensor<1xf32>
    %336 = tosa.reciprocal %335 : (tensor<1xf32>) -> tensor<1xf32>
    %337 = tosa.reshape %336 {new_shape = array<i64: 1, 1, 1>} : (tensor<1xf32>) -> tensor<1x1x1xf32>
    %338 = tosa.mul %337, %334 : (tensor<1x1x1xf32>, tensor<1x40x1xf32>) -> tensor<1x40x1xf32>
    %339 = "tosa.const"() <{value = dense<9.99999997E-7> : tensor<1x40x1xf32>}> : () -> tensor<1x40x1xf32>
    %340 = tosa.add %338, %339 : (tensor<1x40x1xf32>, tensor<1x40x1xf32>) -> tensor<1x40x1xf32>
    %341 = tosa.rsqrt %340 : (tensor<1x40x1xf32>) -> tensor<1x40x1xf32>
    %342 = tosa.mul %331, %341 : (tensor<1x40x1536xf32>, tensor<1x40x1xf32>) -> tensor<1x40x1536xf32>
    %343 = tosa.reshape %arg28 {new_shape = array<i64: 1, 1, 1536>} : (tensor<1536xf32>) -> tensor<1x1x1536xf32>
    %344 = tosa.mul %343, %342 : (tensor<1x1x1536xf32>, tensor<1x40x1536xf32>) -> tensor<1x40x1536xf32>
    %345 = tosa.reshape %344 {new_shape = array<i64: 40, 1536>} : (tensor<1x40x1536xf32>) -> tensor<40x1536xf32>
    %346 = "tosa.const"() <{value = dense<[1, 0]> : tensor<2xi32>}> : () -> tensor<2xi32>
    %347 = tosa.transpose %arg29, %346 : (tensor<1536x1536xf32>, tensor<2xi32>) -> tensor<1536x1536xf32>
    %348 = tosa.reshape %345 {new_shape = array<i64: 1, 40, 1536>} : (tensor<40x1536xf32>) -> tensor<1x40x1536xf32>
    %349 = tosa.reshape %347 {new_shape = array<i64: 1, 1536, 1536>} : (tensor<1536x1536xf32>) -> tensor<1x1536x1536xf32>
    %350 = tosa.matmul %348, %349 : (tensor<1x40x1536xf32>, tensor<1x1536x1536xf32>) -> tensor<1x40x1536xf32>
    %351 = tosa.reshape %350 {new_shape = array<i64: 40, 1536>} : (tensor<1x40x1536xf32>) -> tensor<40x1536xf32>
    %352 = tosa.reshape %arg30 {new_shape = array<i64: 1, 1536>} : (tensor<1536xf32>) -> tensor<1x1536xf32>
    %353 = tosa.add %352, %351 : (tensor<1x1536xf32>, tensor<40x1536xf32>) -> tensor<40x1536xf32>
    %354 = tosa.reshape %353 {new_shape = array<i64: 1, 40, 1536>} : (tensor<40x1536xf32>) -> tensor<1x40x1536xf32>
    %355 = tosa.reshape %344 {new_shape = array<i64: 40, 1536>} : (tensor<1x40x1536xf32>) -> tensor<40x1536xf32>
    %356 = "tosa.const"() <{value = dense<[1, 0]> : tensor<2xi32>}> : () -> tensor<2xi32>
    %357 = tosa.transpose %arg31, %356 : (tensor<256x1536xf32>, tensor<2xi32>) -> tensor<1536x256xf32>
    %358 = tosa.reshape %355 {new_shape = array<i64: 1, 40, 1536>} : (tensor<40x1536xf32>) -> tensor<1x40x1536xf32>
    %359 = tosa.reshape %357 {new_shape = array<i64: 1, 1536, 256>} : (tensor<1536x256xf32>) -> tensor<1x1536x256xf32>
    %360 = tosa.matmul %358, %359 : (tensor<1x40x1536xf32>, tensor<1x1536x256xf32>) -> tensor<1x40x256xf32>
    %361 = tosa.reshape %360 {new_shape = array<i64: 40, 256>} : (tensor<1x40x256xf32>) -> tensor<40x256xf32>
    %362 = tosa.reshape %arg32 {new_shape = array<i64: 1, 256>} : (tensor<256xf32>) -> tensor<1x256xf32>
    %363 = tosa.add %362, %361 : (tensor<1x256xf32>, tensor<40x256xf32>) -> tensor<40x256xf32>
    %364 = tosa.reshape %363 {new_shape = array<i64: 1, 40, 256>} : (tensor<40x256xf32>) -> tensor<1x40x256xf32>
    %365 = tosa.reshape %344 {new_shape = array<i64: 40, 1536>} : (tensor<1x40x1536xf32>) -> tensor<40x1536xf32>
    %366 = "tosa.const"() <{value = dense<[1, 0]> : tensor<2xi32>}> : () -> tensor<2xi32>
    %367 = tosa.transpose %arg33, %366 : (tensor<256x1536xf32>, tensor<2xi32>) -> tensor<1536x256xf32>
    %368 = tosa.reshape %365 {new_shape = array<i64: 1, 40, 1536>} : (tensor<40x1536xf32>) -> tensor<1x40x1536xf32>
    %369 = tosa.reshape %367 {new_shape = array<i64: 1, 1536, 256>} : (tensor<1536x256xf32>) -> tensor<1x1536x256xf32>
    %370 = tosa.matmul %368, %369 : (tensor<1x40x1536xf32>, tensor<1x1536x256xf32>) -> tensor<1x40x256xf32>
    %371 = tosa.reshape %370 {new_shape = array<i64: 40, 256>} : (tensor<1x40x256xf32>) -> tensor<40x256xf32>
    %372 = tosa.reshape %arg34 {new_shape = array<i64: 1, 256>} : (tensor<256xf32>) -> tensor<1x256xf32>
    %373 = tosa.add %372, %371 : (tensor<1x256xf32>, tensor<40x256xf32>) -> tensor<40x256xf32>
    %374 = tosa.reshape %373 {new_shape = array<i64: 1, 40, 256>} : (tensor<40x256xf32>) -> tensor<1x40x256xf32>
    %375 = tosa.reshape %354 {new_shape = array<i64: 1, 40, 12, 128>} : (tensor<1x40x1536xf32>) -> tensor<1x40x12x128xf32>
    %376 = "tosa.const"() <{value = dense<[0, 2, 1, 3]> : tensor<4xi32>}> : () -> tensor<4xi32>
    %377 = tosa.transpose %375, %376 : (tensor<1x40x12x128xf32>, tensor<4xi32>) -> tensor<1x12x40x128xf32>
    %378 = tosa.reshape %364 {new_shape = array<i64: 1, 40, 2, 128>} : (tensor<1x40x256xf32>) -> tensor<1x40x2x128xf32>
    %379 = "tosa.const"() <{value = dense<[0, 2, 1, 3]> : tensor<4xi32>}> : () -> tensor<4xi32>
    %380 = tosa.transpose %378, %379 : (tensor<1x40x2x128xf32>, tensor<4xi32>) -> tensor<1x2x40x128xf32>
    %381 = tosa.reshape %374 {new_shape = array<i64: 1, 40, 2, 128>} : (tensor<1x40x256xf32>) -> tensor<1x40x2x128xf32>
    %382 = "tosa.const"() <{value = dense<[0, 2, 1, 3]> : tensor<4xi32>}> : () -> tensor<4xi32>
    %383 = tosa.transpose %381, %382 : (tensor<1x40x2x128xf32>, tensor<4xi32>) -> tensor<1x2x40x128xf32>
    %384 = tosa.reshape %51 {new_shape = array<i64: 1, 1, 40, 128>} : (tensor<1x40x128xf32>) -> tensor<1x1x40x128xf32>
    %385 = tosa.reshape %53 {new_shape = array<i64: 1, 1, 40, 128>} : (tensor<1x40x128xf32>) -> tensor<1x1x40x128xf32>
    %386 = tosa.mul %377, %384 : (tensor<1x12x40x128xf32>, tensor<1x1x40x128xf32>) -> tensor<1x12x40x128xf32>
    %extracted_slice_85 = tensor.extract_slice %377[0, 0, 0, 0] [1, 12, 40, 64] [1, 1, 1, 1] : tensor<1x12x40x128xf32> to tensor<1x12x40x64xf32>
    %extracted_slice_86 = tensor.extract_slice %377[0, 0, 0, 64] [1, 12, 40, 64] [1, 1, 1, 1] : tensor<1x12x40x128xf32> to tensor<1x12x40x64xf32>
    %387 = tensor.empty() : tensor<1x12x40x64xf32>
    %388 = linalg.negf ins(%extracted_slice_86 : tensor<1x12x40x64xf32>) outs(%387 : tensor<1x12x40x64xf32>) -> tensor<1x12x40x64xf32>
    %389 = tensor.empty() : tensor<1x12x40x128xf32>
    %inserted_slice_87 = tensor.insert_slice %388 into %389[0, 0, 0, 0] [1, 12, 40, 64] [1, 1, 1, 1] : tensor<1x12x40x64xf32> into tensor<1x12x40x128xf32>
    %inserted_slice_88 = tensor.insert_slice %extracted_slice_85 into %inserted_slice_87[0, 0, 0, 64] [1, 12, 40, 64] [1, 1, 1, 1] : tensor<1x12x40x64xf32> into tensor<1x12x40x128xf32>
    %390 = tosa.mul %inserted_slice_88, %385 : (tensor<1x12x40x128xf32>, tensor<1x1x40x128xf32>) -> tensor<1x12x40x128xf32>
    %391 = tosa.add %386, %390 : (tensor<1x12x40x128xf32>, tensor<1x12x40x128xf32>) -> tensor<1x12x40x128xf32>
    %392 = tosa.mul %380, %384 : (tensor<1x2x40x128xf32>, tensor<1x1x40x128xf32>) -> tensor<1x2x40x128xf32>
    %extracted_slice_89 = tensor.extract_slice %380[0, 0, 0, 0] [1, 2, 40, 64] [1, 1, 1, 1] : tensor<1x2x40x128xf32> to tensor<1x2x40x64xf32>
    %extracted_slice_90 = tensor.extract_slice %380[0, 0, 0, 64] [1, 2, 40, 64] [1, 1, 1, 1] : tensor<1x2x40x128xf32> to tensor<1x2x40x64xf32>
    %393 = tensor.empty() : tensor<1x2x40x64xf32>
    %394 = linalg.negf ins(%extracted_slice_90 : tensor<1x2x40x64xf32>) outs(%393 : tensor<1x2x40x64xf32>) -> tensor<1x2x40x64xf32>
    %395 = tensor.empty() : tensor<1x2x40x128xf32>
    %inserted_slice_91 = tensor.insert_slice %394 into %395[0, 0, 0, 0] [1, 2, 40, 64] [1, 1, 1, 1] : tensor<1x2x40x64xf32> into tensor<1x2x40x128xf32>
    %inserted_slice_92 = tensor.insert_slice %extracted_slice_89 into %inserted_slice_91[0, 0, 0, 64] [1, 2, 40, 64] [1, 1, 1, 1] : tensor<1x2x40x64xf32> into tensor<1x2x40x128xf32>
    %396 = tosa.mul %inserted_slice_92, %385 : (tensor<1x2x40x128xf32>, tensor<1x1x40x128xf32>) -> tensor<1x2x40x128xf32>
    %397 = tosa.add %392, %396 : (tensor<1x2x40x128xf32>, tensor<1x2x40x128xf32>) -> tensor<1x2x40x128xf32>
    %extracted_slice_93 = tensor.extract_slice %397[0, 0, 0, 0] [1, 2, 40, 128] [1, 1, 1, 1] : tensor<1x2x40x128xf32> to tensor<1x2x40x128xf32>
    %extracted_slice_94 = tensor.extract_slice %extracted_slice_93[0, 0, 0, 0] [1, 2, 40, 128] [1, 1, 1, 1] : tensor<1x2x40x128xf32> to tensor<1x2x40x128xf32>
    %398 = tosa.reshape %extracted_slice_94 {new_shape = array<i64: 1, 2, 1, 40, 128>} : (tensor<1x2x40x128xf32>) -> tensor<1x2x1x40x128xf32>
    %extracted_slice_95 = tensor.extract_slice %398[0, 0, 0, 0, 0] [1, 2, 1, 40, 128] [1, 1, 1, 1, 1] : tensor<1x2x1x40x128xf32> to tensor<1x2x1x40x128xf32>
    %extracted_slice_96 = tensor.extract_slice %extracted_slice_95[0, 0, 0, 0, 0] [1, 2, 1, 40, 128] [1, 1, 1, 1, 1] : tensor<1x2x1x40x128xf32> to tensor<1x2x1x40x128xf32>
    %399 = "tosa.const"() <{value = dense<0.000000e+00> : tensor<1x2x6x40x128xf32>}> : () -> tensor<1x2x6x40x128xf32>
    %400 = tosa.add %extracted_slice_96, %399 : (tensor<1x2x1x40x128xf32>, tensor<1x2x6x40x128xf32>) -> tensor<1x2x6x40x128xf32>
    %401 = tosa.identity %400 : (tensor<1x2x6x40x128xf32>) -> tensor<1x2x6x40x128xf32>
    %402 = tosa.reshape %401 {new_shape = array<i64: 1, 12, 40, 128>} : (tensor<1x2x6x40x128xf32>) -> tensor<1x12x40x128xf32>
    %extracted_slice_97 = tensor.extract_slice %383[0, 0, 0, 0] [1, 2, 40, 128] [1, 1, 1, 1] : tensor<1x2x40x128xf32> to tensor<1x2x40x128xf32>
    %extracted_slice_98 = tensor.extract_slice %extracted_slice_97[0, 0, 0, 0] [1, 2, 40, 128] [1, 1, 1, 1] : tensor<1x2x40x128xf32> to tensor<1x2x40x128xf32>
    %403 = tosa.reshape %extracted_slice_98 {new_shape = array<i64: 1, 2, 1, 40, 128>} : (tensor<1x2x40x128xf32>) -> tensor<1x2x1x40x128xf32>
    %extracted_slice_99 = tensor.extract_slice %403[0, 0, 0, 0, 0] [1, 2, 1, 40, 128] [1, 1, 1, 1, 1] : tensor<1x2x1x40x128xf32> to tensor<1x2x1x40x128xf32>
    %extracted_slice_100 = tensor.extract_slice %extracted_slice_99[0, 0, 0, 0, 0] [1, 2, 1, 40, 128] [1, 1, 1, 1, 1] : tensor<1x2x1x40x128xf32> to tensor<1x2x1x40x128xf32>
    %404 = "tosa.const"() <{value = dense<0.000000e+00> : tensor<1x2x6x40x128xf32>}> : () -> tensor<1x2x6x40x128xf32>
    %405 = tosa.add %extracted_slice_100, %404 : (tensor<1x2x1x40x128xf32>, tensor<1x2x6x40x128xf32>) -> tensor<1x2x6x40x128xf32>
    %406 = tosa.identity %405 : (tensor<1x2x6x40x128xf32>) -> tensor<1x2x6x40x128xf32>
    %407 = tosa.reshape %406 {new_shape = array<i64: 1, 12, 40, 128>} : (tensor<1x2x6x40x128xf32>) -> tensor<1x12x40x128xf32>
    %extracted_slice_101 = tensor.extract_slice %inserted_slice_21[0, 0, 0, 0] [1, 1, 40, 40] [1, 1, 1, 1] : tensor<1x1x40x40xf32> to tensor<1x1x40x40xf32>
    %extracted_slice_102 = tensor.extract_slice %extracted_slice_101[0, 0, 0, 0] [1, 1, 40, 40] [1, 1, 1, 1] : tensor<1x1x40x40xf32> to tensor<1x1x40x40xf32>
    %extracted_slice_103 = tensor.extract_slice %extracted_slice_102[0, 0, 0, 0] [1, 1, 40, 40] [1, 1, 1, 1] : tensor<1x1x40x40xf32> to tensor<1x1x40x40xf32>
    %cst_104 = arith.constant 0.000000e+00 : f32
    %splat_105 = tensor.splat %cst_104 : tensor<40x40xf32>
    %408 = tosa.reshape %extracted_slice_103 {new_shape = array<i64: 40, 40>} : (tensor<1x1x40x40xf32>) -> tensor<40x40xf32>
    %409 = tosa.add %splat_105, %408 : (tensor<40x40xf32>, tensor<40x40xf32>) -> tensor<40x40xf32>
    %410 = "tosa.const"() <{value = dense<[0, 1, 3, 2]> : tensor<4xi32>}> : () -> tensor<4xi32>
    %411 = tosa.transpose %402, %410 : (tensor<1x12x40x128xf32>, tensor<4xi32>) -> tensor<1x12x128x40xf32>
    %412 = tosa.reshape %391 {new_shape = array<i64: 12, 40, 128>} : (tensor<1x12x40x128xf32>) -> tensor<12x40x128xf32>
    %413 = tosa.reshape %411 {new_shape = array<i64: 12, 128, 40>} : (tensor<1x12x128x40xf32>) -> tensor<12x128x40xf32>
    %414 = tosa.matmul %412, %413 : (tensor<12x40x128xf32>, tensor<12x128x40xf32>) -> tensor<12x40x40xf32>
    %cst_106 = arith.constant 0.0883883461 : f32
    %splat_107 = tensor.splat %cst_106 : tensor<12x40x40xf32>
    %415 = tosa.mul %414, %splat_107 : (tensor<12x40x40xf32>, tensor<12x40x40xf32>) -> tensor<12x40x40xf32>
    %416 = tosa.reshape %409 {new_shape = array<i64: 1, 40, 40>} : (tensor<40x40xf32>) -> tensor<1x40x40xf32>
    %417 = tosa.add %415, %416 : (tensor<12x40x40xf32>, tensor<1x40x40xf32>) -> tensor<12x40x40xf32>
    %418 = tosa.reduce_max %417 {axis = 2 : i32} : (tensor<12x40x40xf32>) -> tensor<12x40x1xf32>
    %419 = tosa.sub %417, %418 : (tensor<12x40x40xf32>, tensor<12x40x1xf32>) -> tensor<12x40x40xf32>
    %420 = math.exp %419 : tensor<12x40x40xf32>
    %421 = tosa.reduce_sum %420 {axis = 2 : i32} : (tensor<12x40x40xf32>) -> tensor<12x40x1xf32>
    %422 = tosa.log %421 : (tensor<12x40x1xf32>) -> tensor<12x40x1xf32>
    %423 = tosa.add %418, %422 : (tensor<12x40x1xf32>, tensor<12x40x1xf32>) -> tensor<12x40x1xf32>
    %424 = tosa.sub %417, %423 : (tensor<12x40x40xf32>, tensor<12x40x1xf32>) -> tensor<12x40x40xf32>
    %425 = math.exp %424 : tensor<12x40x40xf32>
    %426 = tosa.reshape %423 {new_shape = array<i64: 1, 12, 40>} : (tensor<12x40x1xf32>) -> tensor<1x12x40xf32>
    %427 = tosa.reshape %407 {new_shape = array<i64: 12, 40, 128>} : (tensor<1x12x40x128xf32>) -> tensor<12x40x128xf32>
    %428 = tosa.matmul %425, %427 : (tensor<12x40x40xf32>, tensor<12x40x128xf32>) -> tensor<12x40x128xf32>
    %429 = tosa.reshape %428 {new_shape = array<i64: 1, 12, 40, 128>} : (tensor<12x40x128xf32>) -> tensor<1x12x40x128xf32>
    %430 = "tosa.const"() <{value = dense<[0, 2, 1, 3]> : tensor<4xi32>}> : () -> tensor<4xi32>
    %431 = tosa.transpose %429, %430 : (tensor<1x12x40x128xf32>, tensor<4xi32>) -> tensor<1x40x12x128xf32>
    %432 = tosa.reshape %431 {new_shape = array<i64: 1, 40, 1536>} : (tensor<1x40x12x128xf32>) -> tensor<1x40x1536xf32>
    %433 = "tosa.const"() <{value = dense<[1, 0]> : tensor<2xi32>}> : () -> tensor<2xi32>
    %434 = tosa.transpose %arg35, %433 : (tensor<1536x1536xf32>, tensor<2xi32>) -> tensor<1536x1536xf32>
    %435 = tosa.reshape %432 {new_shape = array<i64: 40, 1536>} : (tensor<1x40x1536xf32>) -> tensor<40x1536xf32>
    %cst_108 = arith.constant dense<0.000000e+00> : tensor<40x1536xf32>
    %436 = linalg.matmul {cast = #linalg.type_fn<cast_signed>} ins(%435, %434 : tensor<40x1536xf32>, tensor<1536x1536xf32>) outs(%cst_108 : tensor<40x1536xf32>) -> tensor<40x1536xf32>
    %437 = tosa.reshape %436 {new_shape = array<i64: 1, 40, 1536>} : (tensor<40x1536xf32>) -> tensor<1x40x1536xf32>
    %438 = tosa.add %331, %437 : (tensor<1x40x1536xf32>, tensor<1x40x1536xf32>) -> tensor<1x40x1536xf32>
    %439 = tensor.empty() : tensor<1x40x1536xf32>
    %c2_i32_109 = arith.constant 2 : i32
    %440 = linalg.generic {indexing_maps = [#map4, #map4], iterator_types = ["parallel", "parallel", "parallel"]} ins(%438 : tensor<1x40x1536xf32>) outs(%439 : tensor<1x40x1536xf32>) {
    ^bb0(%in: f32, %out: f32):
      %3964 = math.fpowi %in, %c2_i32_109 : f32, i32
      linalg.yield %3964 : f32
    } -> tensor<1x40x1536xf32>
    %441 = tosa.reduce_sum %440 {axis = 2 : i32} : (tensor<1x40x1536xf32>) -> tensor<1x40x1xf32>
    %442 = "tosa.const"() <{value = dense<1.536000e+03> : tensor<1xf32>}> : () -> tensor<1xf32>
    %443 = tosa.reciprocal %442 : (tensor<1xf32>) -> tensor<1xf32>
    %444 = tosa.reshape %443 {new_shape = array<i64: 1, 1, 1>} : (tensor<1xf32>) -> tensor<1x1x1xf32>
    %445 = tosa.mul %444, %441 : (tensor<1x1x1xf32>, tensor<1x40x1xf32>) -> tensor<1x40x1xf32>
    %446 = "tosa.const"() <{value = dense<9.99999997E-7> : tensor<1x40x1xf32>}> : () -> tensor<1x40x1xf32>
    %447 = tosa.add %445, %446 : (tensor<1x40x1xf32>, tensor<1x40x1xf32>) -> tensor<1x40x1xf32>
    %448 = tosa.rsqrt %447 : (tensor<1x40x1xf32>) -> tensor<1x40x1xf32>
    %449 = tosa.mul %438, %448 : (tensor<1x40x1536xf32>, tensor<1x40x1xf32>) -> tensor<1x40x1536xf32>
    %450 = tosa.reshape %arg36 {new_shape = array<i64: 1, 1, 1536>} : (tensor<1536xf32>) -> tensor<1x1x1536xf32>
    %451 = tosa.mul %450, %449 : (tensor<1x1x1536xf32>, tensor<1x40x1536xf32>) -> tensor<1x40x1536xf32>
    %452 = "tosa.const"() <{value = dense<[1, 0]> : tensor<2xi32>}> : () -> tensor<2xi32>
    %453 = tosa.transpose %arg37, %452 : (tensor<8960x1536xf32>, tensor<2xi32>) -> tensor<1536x8960xf32>
    %454 = tosa.reshape %451 {new_shape = array<i64: 40, 1536>} : (tensor<1x40x1536xf32>) -> tensor<40x1536xf32>
    %cst_110 = arith.constant dense<0.000000e+00> : tensor<40x8960xf32>
    %455 = linalg.matmul {cast = #linalg.type_fn<cast_signed>} ins(%454, %453 : tensor<40x1536xf32>, tensor<1536x8960xf32>) outs(%cst_110 : tensor<40x8960xf32>) -> tensor<40x8960xf32>
    %456 = tosa.reshape %455 {new_shape = array<i64: 1, 40, 8960>} : (tensor<40x8960xf32>) -> tensor<1x40x8960xf32>
    %457 = tosa.sigmoid %456 : (tensor<1x40x8960xf32>) -> tensor<1x40x8960xf32>
    %458 = tosa.mul %456, %457 : (tensor<1x40x8960xf32>, tensor<1x40x8960xf32>) -> tensor<1x40x8960xf32>
    %459 = "tosa.const"() <{value = dense<[1, 0]> : tensor<2xi32>}> : () -> tensor<2xi32>
    %460 = tosa.transpose %arg38, %459 : (tensor<8960x1536xf32>, tensor<2xi32>) -> tensor<1536x8960xf32>
    %461 = tosa.reshape %451 {new_shape = array<i64: 40, 1536>} : (tensor<1x40x1536xf32>) -> tensor<40x1536xf32>
    %cst_111 = arith.constant dense<0.000000e+00> : tensor<40x8960xf32>
    %462 = linalg.matmul {cast = #linalg.type_fn<cast_signed>} ins(%461, %460 : tensor<40x1536xf32>, tensor<1536x8960xf32>) outs(%cst_111 : tensor<40x8960xf32>) -> tensor<40x8960xf32>
    %463 = tosa.reshape %462 {new_shape = array<i64: 1, 40, 8960>} : (tensor<40x8960xf32>) -> tensor<1x40x8960xf32>
    %464 = tosa.mul %458, %463 : (tensor<1x40x8960xf32>, tensor<1x40x8960xf32>) -> tensor<1x40x8960xf32>
    %465 = "tosa.const"() <{value = dense<[1, 0]> : tensor<2xi32>}> : () -> tensor<2xi32>
    %466 = tosa.transpose %arg39, %465 : (tensor<1536x8960xf32>, tensor<2xi32>) -> tensor<8960x1536xf32>
    %467 = tosa.reshape %464 {new_shape = array<i64: 40, 8960>} : (tensor<1x40x8960xf32>) -> tensor<40x8960xf32>
    %cst_112 = arith.constant dense<0.000000e+00> : tensor<40x1536xf32>
    %468 = linalg.matmul {cast = #linalg.type_fn<cast_signed>} ins(%467, %466 : tensor<40x8960xf32>, tensor<8960x1536xf32>) outs(%cst_112 : tensor<40x1536xf32>) -> tensor<40x1536xf32>
    %469 = tosa.reshape %468 {new_shape = array<i64: 1, 40, 1536>} : (tensor<40x1536xf32>) -> tensor<1x40x1536xf32>
    %470 = tosa.add %438, %469 : (tensor<1x40x1536xf32>, tensor<1x40x1536xf32>) -> tensor<1x40x1536xf32>
    %471 = tensor.empty() : tensor<1x40x1536xf32>
    %c2_i32_113 = arith.constant 2 : i32
    %472 = linalg.generic {indexing_maps = [#map4, #map4], iterator_types = ["parallel", "parallel", "parallel"]} ins(%470 : tensor<1x40x1536xf32>) outs(%471 : tensor<1x40x1536xf32>) {
    ^bb0(%in: f32, %out: f32):
      %3964 = math.fpowi %in, %c2_i32_113 : f32, i32
      linalg.yield %3964 : f32
    } -> tensor<1x40x1536xf32>
    %473 = tosa.reduce_sum %472 {axis = 2 : i32} : (tensor<1x40x1536xf32>) -> tensor<1x40x1xf32>
    %474 = "tosa.const"() <{value = dense<1.536000e+03> : tensor<1xf32>}> : () -> tensor<1xf32>
    %475 = tosa.reciprocal %474 : (tensor<1xf32>) -> tensor<1xf32>
    %476 = tosa.reshape %475 {new_shape = array<i64: 1, 1, 1>} : (tensor<1xf32>) -> tensor<1x1x1xf32>
    %477 = tosa.mul %476, %473 : (tensor<1x1x1xf32>, tensor<1x40x1xf32>) -> tensor<1x40x1xf32>
    %478 = "tosa.const"() <{value = dense<9.99999997E-7> : tensor<1x40x1xf32>}> : () -> tensor<1x40x1xf32>
    %479 = tosa.add %477, %478 : (tensor<1x40x1xf32>, tensor<1x40x1xf32>) -> tensor<1x40x1xf32>
    %480 = tosa.rsqrt %479 : (tensor<1x40x1xf32>) -> tensor<1x40x1xf32>
    %481 = tosa.mul %470, %480 : (tensor<1x40x1536xf32>, tensor<1x40x1xf32>) -> tensor<1x40x1536xf32>
    %482 = tosa.reshape %arg40 {new_shape = array<i64: 1, 1, 1536>} : (tensor<1536xf32>) -> tensor<1x1x1536xf32>
    %483 = tosa.mul %482, %481 : (tensor<1x1x1536xf32>, tensor<1x40x1536xf32>) -> tensor<1x40x1536xf32>
    %484 = tosa.reshape %483 {new_shape = array<i64: 40, 1536>} : (tensor<1x40x1536xf32>) -> tensor<40x1536xf32>
    %485 = "tosa.const"() <{value = dense<[1, 0]> : tensor<2xi32>}> : () -> tensor<2xi32>
    %486 = tosa.transpose %arg41, %485 : (tensor<1536x1536xf32>, tensor<2xi32>) -> tensor<1536x1536xf32>
    %487 = tosa.reshape %484 {new_shape = array<i64: 1, 40, 1536>} : (tensor<40x1536xf32>) -> tensor<1x40x1536xf32>
    %488 = tosa.reshape %486 {new_shape = array<i64: 1, 1536, 1536>} : (tensor<1536x1536xf32>) -> tensor<1x1536x1536xf32>
    %489 = tosa.matmul %487, %488 : (tensor<1x40x1536xf32>, tensor<1x1536x1536xf32>) -> tensor<1x40x1536xf32>
    %490 = tosa.reshape %489 {new_shape = array<i64: 40, 1536>} : (tensor<1x40x1536xf32>) -> tensor<40x1536xf32>
    %491 = tosa.reshape %arg42 {new_shape = array<i64: 1, 1536>} : (tensor<1536xf32>) -> tensor<1x1536xf32>
    %492 = tosa.add %491, %490 : (tensor<1x1536xf32>, tensor<40x1536xf32>) -> tensor<40x1536xf32>
    %493 = tosa.reshape %492 {new_shape = array<i64: 1, 40, 1536>} : (tensor<40x1536xf32>) -> tensor<1x40x1536xf32>
    %494 = tosa.reshape %483 {new_shape = array<i64: 40, 1536>} : (tensor<1x40x1536xf32>) -> tensor<40x1536xf32>
    %495 = "tosa.const"() <{value = dense<[1, 0]> : tensor<2xi32>}> : () -> tensor<2xi32>
    %496 = tosa.transpose %arg43, %495 : (tensor<256x1536xf32>, tensor<2xi32>) -> tensor<1536x256xf32>
    %497 = tosa.reshape %494 {new_shape = array<i64: 1, 40, 1536>} : (tensor<40x1536xf32>) -> tensor<1x40x1536xf32>
    %498 = tosa.reshape %496 {new_shape = array<i64: 1, 1536, 256>} : (tensor<1536x256xf32>) -> tensor<1x1536x256xf32>
    %499 = tosa.matmul %497, %498 : (tensor<1x40x1536xf32>, tensor<1x1536x256xf32>) -> tensor<1x40x256xf32>
    %500 = tosa.reshape %499 {new_shape = array<i64: 40, 256>} : (tensor<1x40x256xf32>) -> tensor<40x256xf32>
    %501 = tosa.reshape %arg44 {new_shape = array<i64: 1, 256>} : (tensor<256xf32>) -> tensor<1x256xf32>
    %502 = tosa.add %501, %500 : (tensor<1x256xf32>, tensor<40x256xf32>) -> tensor<40x256xf32>
    %503 = tosa.reshape %502 {new_shape = array<i64: 1, 40, 256>} : (tensor<40x256xf32>) -> tensor<1x40x256xf32>
    %504 = tosa.reshape %483 {new_shape = array<i64: 40, 1536>} : (tensor<1x40x1536xf32>) -> tensor<40x1536xf32>
    %505 = "tosa.const"() <{value = dense<[1, 0]> : tensor<2xi32>}> : () -> tensor<2xi32>
    %506 = tosa.transpose %arg45, %505 : (tensor<256x1536xf32>, tensor<2xi32>) -> tensor<1536x256xf32>
    %507 = tosa.reshape %504 {new_shape = array<i64: 1, 40, 1536>} : (tensor<40x1536xf32>) -> tensor<1x40x1536xf32>
    %508 = tosa.reshape %506 {new_shape = array<i64: 1, 1536, 256>} : (tensor<1536x256xf32>) -> tensor<1x1536x256xf32>
    %509 = tosa.matmul %507, %508 : (tensor<1x40x1536xf32>, tensor<1x1536x256xf32>) -> tensor<1x40x256xf32>
    %510 = tosa.reshape %509 {new_shape = array<i64: 40, 256>} : (tensor<1x40x256xf32>) -> tensor<40x256xf32>
    %511 = tosa.reshape %arg46 {new_shape = array<i64: 1, 256>} : (tensor<256xf32>) -> tensor<1x256xf32>
    %512 = tosa.add %511, %510 : (tensor<1x256xf32>, tensor<40x256xf32>) -> tensor<40x256xf32>
    %513 = tosa.reshape %512 {new_shape = array<i64: 1, 40, 256>} : (tensor<40x256xf32>) -> tensor<1x40x256xf32>
    %514 = tosa.reshape %493 {new_shape = array<i64: 1, 40, 12, 128>} : (tensor<1x40x1536xf32>) -> tensor<1x40x12x128xf32>
    %515 = "tosa.const"() <{value = dense<[0, 2, 1, 3]> : tensor<4xi32>}> : () -> tensor<4xi32>
    %516 = tosa.transpose %514, %515 : (tensor<1x40x12x128xf32>, tensor<4xi32>) -> tensor<1x12x40x128xf32>
    %517 = tosa.reshape %503 {new_shape = array<i64: 1, 40, 2, 128>} : (tensor<1x40x256xf32>) -> tensor<1x40x2x128xf32>
    %518 = "tosa.const"() <{value = dense<[0, 2, 1, 3]> : tensor<4xi32>}> : () -> tensor<4xi32>
    %519 = tosa.transpose %517, %518 : (tensor<1x40x2x128xf32>, tensor<4xi32>) -> tensor<1x2x40x128xf32>
    %520 = tosa.reshape %513 {new_shape = array<i64: 1, 40, 2, 128>} : (tensor<1x40x256xf32>) -> tensor<1x40x2x128xf32>
    %521 = "tosa.const"() <{value = dense<[0, 2, 1, 3]> : tensor<4xi32>}> : () -> tensor<4xi32>
    %522 = tosa.transpose %520, %521 : (tensor<1x40x2x128xf32>, tensor<4xi32>) -> tensor<1x2x40x128xf32>
    %523 = tosa.reshape %51 {new_shape = array<i64: 1, 1, 40, 128>} : (tensor<1x40x128xf32>) -> tensor<1x1x40x128xf32>
    %524 = tosa.reshape %53 {new_shape = array<i64: 1, 1, 40, 128>} : (tensor<1x40x128xf32>) -> tensor<1x1x40x128xf32>
    %525 = tosa.mul %516, %523 : (tensor<1x12x40x128xf32>, tensor<1x1x40x128xf32>) -> tensor<1x12x40x128xf32>
    %extracted_slice_114 = tensor.extract_slice %516[0, 0, 0, 0] [1, 12, 40, 64] [1, 1, 1, 1] : tensor<1x12x40x128xf32> to tensor<1x12x40x64xf32>
    %extracted_slice_115 = tensor.extract_slice %516[0, 0, 0, 64] [1, 12, 40, 64] [1, 1, 1, 1] : tensor<1x12x40x128xf32> to tensor<1x12x40x64xf32>
    %526 = tensor.empty() : tensor<1x12x40x64xf32>
    %527 = linalg.negf ins(%extracted_slice_115 : tensor<1x12x40x64xf32>) outs(%526 : tensor<1x12x40x64xf32>) -> tensor<1x12x40x64xf32>
    %528 = tensor.empty() : tensor<1x12x40x128xf32>
    %inserted_slice_116 = tensor.insert_slice %527 into %528[0, 0, 0, 0] [1, 12, 40, 64] [1, 1, 1, 1] : tensor<1x12x40x64xf32> into tensor<1x12x40x128xf32>
    %inserted_slice_117 = tensor.insert_slice %extracted_slice_114 into %inserted_slice_116[0, 0, 0, 64] [1, 12, 40, 64] [1, 1, 1, 1] : tensor<1x12x40x64xf32> into tensor<1x12x40x128xf32>
    %529 = tosa.mul %inserted_slice_117, %524 : (tensor<1x12x40x128xf32>, tensor<1x1x40x128xf32>) -> tensor<1x12x40x128xf32>
    %530 = tosa.add %525, %529 : (tensor<1x12x40x128xf32>, tensor<1x12x40x128xf32>) -> tensor<1x12x40x128xf32>
    %531 = tosa.mul %519, %523 : (tensor<1x2x40x128xf32>, tensor<1x1x40x128xf32>) -> tensor<1x2x40x128xf32>
    %extracted_slice_118 = tensor.extract_slice %519[0, 0, 0, 0] [1, 2, 40, 64] [1, 1, 1, 1] : tensor<1x2x40x128xf32> to tensor<1x2x40x64xf32>
    %extracted_slice_119 = tensor.extract_slice %519[0, 0, 0, 64] [1, 2, 40, 64] [1, 1, 1, 1] : tensor<1x2x40x128xf32> to tensor<1x2x40x64xf32>
    %532 = tensor.empty() : tensor<1x2x40x64xf32>
    %533 = linalg.negf ins(%extracted_slice_119 : tensor<1x2x40x64xf32>) outs(%532 : tensor<1x2x40x64xf32>) -> tensor<1x2x40x64xf32>
    %534 = tensor.empty() : tensor<1x2x40x128xf32>
    %inserted_slice_120 = tensor.insert_slice %533 into %534[0, 0, 0, 0] [1, 2, 40, 64] [1, 1, 1, 1] : tensor<1x2x40x64xf32> into tensor<1x2x40x128xf32>
    %inserted_slice_121 = tensor.insert_slice %extracted_slice_118 into %inserted_slice_120[0, 0, 0, 64] [1, 2, 40, 64] [1, 1, 1, 1] : tensor<1x2x40x64xf32> into tensor<1x2x40x128xf32>
    %535 = tosa.mul %inserted_slice_121, %524 : (tensor<1x2x40x128xf32>, tensor<1x1x40x128xf32>) -> tensor<1x2x40x128xf32>
    %536 = tosa.add %531, %535 : (tensor<1x2x40x128xf32>, tensor<1x2x40x128xf32>) -> tensor<1x2x40x128xf32>
    %extracted_slice_122 = tensor.extract_slice %536[0, 0, 0, 0] [1, 2, 40, 128] [1, 1, 1, 1] : tensor<1x2x40x128xf32> to tensor<1x2x40x128xf32>
    %extracted_slice_123 = tensor.extract_slice %extracted_slice_122[0, 0, 0, 0] [1, 2, 40, 128] [1, 1, 1, 1] : tensor<1x2x40x128xf32> to tensor<1x2x40x128xf32>
    %537 = tosa.reshape %extracted_slice_123 {new_shape = array<i64: 1, 2, 1, 40, 128>} : (tensor<1x2x40x128xf32>) -> tensor<1x2x1x40x128xf32>
    %extracted_slice_124 = tensor.extract_slice %537[0, 0, 0, 0, 0] [1, 2, 1, 40, 128] [1, 1, 1, 1, 1] : tensor<1x2x1x40x128xf32> to tensor<1x2x1x40x128xf32>
    %extracted_slice_125 = tensor.extract_slice %extracted_slice_124[0, 0, 0, 0, 0] [1, 2, 1, 40, 128] [1, 1, 1, 1, 1] : tensor<1x2x1x40x128xf32> to tensor<1x2x1x40x128xf32>
    %538 = "tosa.const"() <{value = dense<0.000000e+00> : tensor<1x2x6x40x128xf32>}> : () -> tensor<1x2x6x40x128xf32>
    %539 = tosa.add %extracted_slice_125, %538 : (tensor<1x2x1x40x128xf32>, tensor<1x2x6x40x128xf32>) -> tensor<1x2x6x40x128xf32>
    %540 = tosa.identity %539 : (tensor<1x2x6x40x128xf32>) -> tensor<1x2x6x40x128xf32>
    %541 = tosa.reshape %540 {new_shape = array<i64: 1, 12, 40, 128>} : (tensor<1x2x6x40x128xf32>) -> tensor<1x12x40x128xf32>
    %extracted_slice_126 = tensor.extract_slice %522[0, 0, 0, 0] [1, 2, 40, 128] [1, 1, 1, 1] : tensor<1x2x40x128xf32> to tensor<1x2x40x128xf32>
    %extracted_slice_127 = tensor.extract_slice %extracted_slice_126[0, 0, 0, 0] [1, 2, 40, 128] [1, 1, 1, 1] : tensor<1x2x40x128xf32> to tensor<1x2x40x128xf32>
    %542 = tosa.reshape %extracted_slice_127 {new_shape = array<i64: 1, 2, 1, 40, 128>} : (tensor<1x2x40x128xf32>) -> tensor<1x2x1x40x128xf32>
    %extracted_slice_128 = tensor.extract_slice %542[0, 0, 0, 0, 0] [1, 2, 1, 40, 128] [1, 1, 1, 1, 1] : tensor<1x2x1x40x128xf32> to tensor<1x2x1x40x128xf32>
    %extracted_slice_129 = tensor.extract_slice %extracted_slice_128[0, 0, 0, 0, 0] [1, 2, 1, 40, 128] [1, 1, 1, 1, 1] : tensor<1x2x1x40x128xf32> to tensor<1x2x1x40x128xf32>
    %543 = "tosa.const"() <{value = dense<0.000000e+00> : tensor<1x2x6x40x128xf32>}> : () -> tensor<1x2x6x40x128xf32>
    %544 = tosa.add %extracted_slice_129, %543 : (tensor<1x2x1x40x128xf32>, tensor<1x2x6x40x128xf32>) -> tensor<1x2x6x40x128xf32>
    %545 = tosa.identity %544 : (tensor<1x2x6x40x128xf32>) -> tensor<1x2x6x40x128xf32>
    %546 = tosa.reshape %545 {new_shape = array<i64: 1, 12, 40, 128>} : (tensor<1x2x6x40x128xf32>) -> tensor<1x12x40x128xf32>
    %extracted_slice_130 = tensor.extract_slice %inserted_slice_21[0, 0, 0, 0] [1, 1, 40, 40] [1, 1, 1, 1] : tensor<1x1x40x40xf32> to tensor<1x1x40x40xf32>
    %extracted_slice_131 = tensor.extract_slice %extracted_slice_130[0, 0, 0, 0] [1, 1, 40, 40] [1, 1, 1, 1] : tensor<1x1x40x40xf32> to tensor<1x1x40x40xf32>
    %extracted_slice_132 = tensor.extract_slice %extracted_slice_131[0, 0, 0, 0] [1, 1, 40, 40] [1, 1, 1, 1] : tensor<1x1x40x40xf32> to tensor<1x1x40x40xf32>
    %cst_133 = arith.constant 0.000000e+00 : f32
    %splat_134 = tensor.splat %cst_133 : tensor<40x40xf32>
    %547 = tosa.reshape %extracted_slice_132 {new_shape = array<i64: 40, 40>} : (tensor<1x1x40x40xf32>) -> tensor<40x40xf32>
    %548 = tosa.add %splat_134, %547 : (tensor<40x40xf32>, tensor<40x40xf32>) -> tensor<40x40xf32>
    %549 = "tosa.const"() <{value = dense<[0, 1, 3, 2]> : tensor<4xi32>}> : () -> tensor<4xi32>
    %550 = tosa.transpose %541, %549 : (tensor<1x12x40x128xf32>, tensor<4xi32>) -> tensor<1x12x128x40xf32>
    %551 = tosa.reshape %530 {new_shape = array<i64: 12, 40, 128>} : (tensor<1x12x40x128xf32>) -> tensor<12x40x128xf32>
    %552 = tosa.reshape %550 {new_shape = array<i64: 12, 128, 40>} : (tensor<1x12x128x40xf32>) -> tensor<12x128x40xf32>
    %553 = tosa.matmul %551, %552 : (tensor<12x40x128xf32>, tensor<12x128x40xf32>) -> tensor<12x40x40xf32>
    %cst_135 = arith.constant 0.0883883461 : f32
    %splat_136 = tensor.splat %cst_135 : tensor<12x40x40xf32>
    %554 = tosa.mul %553, %splat_136 : (tensor<12x40x40xf32>, tensor<12x40x40xf32>) -> tensor<12x40x40xf32>
    %555 = tosa.reshape %548 {new_shape = array<i64: 1, 40, 40>} : (tensor<40x40xf32>) -> tensor<1x40x40xf32>
    %556 = tosa.add %554, %555 : (tensor<12x40x40xf32>, tensor<1x40x40xf32>) -> tensor<12x40x40xf32>
    %557 = tosa.reduce_max %556 {axis = 2 : i32} : (tensor<12x40x40xf32>) -> tensor<12x40x1xf32>
    %558 = tosa.sub %556, %557 : (tensor<12x40x40xf32>, tensor<12x40x1xf32>) -> tensor<12x40x40xf32>
    %559 = math.exp %558 : tensor<12x40x40xf32>
    %560 = tosa.reduce_sum %559 {axis = 2 : i32} : (tensor<12x40x40xf32>) -> tensor<12x40x1xf32>
    %561 = tosa.log %560 : (tensor<12x40x1xf32>) -> tensor<12x40x1xf32>
    %562 = tosa.add %557, %561 : (tensor<12x40x1xf32>, tensor<12x40x1xf32>) -> tensor<12x40x1xf32>
    %563 = tosa.sub %556, %562 : (tensor<12x40x40xf32>, tensor<12x40x1xf32>) -> tensor<12x40x40xf32>
    %564 = math.exp %563 : tensor<12x40x40xf32>
    %565 = tosa.reshape %562 {new_shape = array<i64: 1, 12, 40>} : (tensor<12x40x1xf32>) -> tensor<1x12x40xf32>
    %566 = tosa.reshape %546 {new_shape = array<i64: 12, 40, 128>} : (tensor<1x12x40x128xf32>) -> tensor<12x40x128xf32>
    %567 = tosa.matmul %564, %566 : (tensor<12x40x40xf32>, tensor<12x40x128xf32>) -> tensor<12x40x128xf32>
    %568 = tosa.reshape %567 {new_shape = array<i64: 1, 12, 40, 128>} : (tensor<12x40x128xf32>) -> tensor<1x12x40x128xf32>
    %569 = "tosa.const"() <{value = dense<[0, 2, 1, 3]> : tensor<4xi32>}> : () -> tensor<4xi32>
    %570 = tosa.transpose %568, %569 : (tensor<1x12x40x128xf32>, tensor<4xi32>) -> tensor<1x40x12x128xf32>
    %571 = tosa.reshape %570 {new_shape = array<i64: 1, 40, 1536>} : (tensor<1x40x12x128xf32>) -> tensor<1x40x1536xf32>
    %572 = "tosa.const"() <{value = dense<[1, 0]> : tensor<2xi32>}> : () -> tensor<2xi32>
    %573 = tosa.transpose %arg47, %572 : (tensor<1536x1536xf32>, tensor<2xi32>) -> tensor<1536x1536xf32>
    %574 = tosa.reshape %571 {new_shape = array<i64: 40, 1536>} : (tensor<1x40x1536xf32>) -> tensor<40x1536xf32>
    %cst_137 = arith.constant dense<0.000000e+00> : tensor<40x1536xf32>
    %575 = linalg.matmul {cast = #linalg.type_fn<cast_signed>} ins(%574, %573 : tensor<40x1536xf32>, tensor<1536x1536xf32>) outs(%cst_137 : tensor<40x1536xf32>) -> tensor<40x1536xf32>
    %576 = tosa.reshape %575 {new_shape = array<i64: 1, 40, 1536>} : (tensor<40x1536xf32>) -> tensor<1x40x1536xf32>
    %577 = tosa.add %470, %576 : (tensor<1x40x1536xf32>, tensor<1x40x1536xf32>) -> tensor<1x40x1536xf32>
    %578 = tensor.empty() : tensor<1x40x1536xf32>
    %c2_i32_138 = arith.constant 2 : i32
    %579 = linalg.generic {indexing_maps = [#map4, #map4], iterator_types = ["parallel", "parallel", "parallel"]} ins(%577 : tensor<1x40x1536xf32>) outs(%578 : tensor<1x40x1536xf32>) {
    ^bb0(%in: f32, %out: f32):
      %3964 = math.fpowi %in, %c2_i32_138 : f32, i32
      linalg.yield %3964 : f32
    } -> tensor<1x40x1536xf32>
    %580 = tosa.reduce_sum %579 {axis = 2 : i32} : (tensor<1x40x1536xf32>) -> tensor<1x40x1xf32>
    %581 = "tosa.const"() <{value = dense<1.536000e+03> : tensor<1xf32>}> : () -> tensor<1xf32>
    %582 = tosa.reciprocal %581 : (tensor<1xf32>) -> tensor<1xf32>
    %583 = tosa.reshape %582 {new_shape = array<i64: 1, 1, 1>} : (tensor<1xf32>) -> tensor<1x1x1xf32>
    %584 = tosa.mul %583, %580 : (tensor<1x1x1xf32>, tensor<1x40x1xf32>) -> tensor<1x40x1xf32>
    %585 = "tosa.const"() <{value = dense<9.99999997E-7> : tensor<1x40x1xf32>}> : () -> tensor<1x40x1xf32>
    %586 = tosa.add %584, %585 : (tensor<1x40x1xf32>, tensor<1x40x1xf32>) -> tensor<1x40x1xf32>
    %587 = tosa.rsqrt %586 : (tensor<1x40x1xf32>) -> tensor<1x40x1xf32>
    %588 = tosa.mul %577, %587 : (tensor<1x40x1536xf32>, tensor<1x40x1xf32>) -> tensor<1x40x1536xf32>
    %589 = tosa.reshape %arg48 {new_shape = array<i64: 1, 1, 1536>} : (tensor<1536xf32>) -> tensor<1x1x1536xf32>
    %590 = tosa.mul %589, %588 : (tensor<1x1x1536xf32>, tensor<1x40x1536xf32>) -> tensor<1x40x1536xf32>
    %591 = "tosa.const"() <{value = dense<[1, 0]> : tensor<2xi32>}> : () -> tensor<2xi32>
    %592 = tosa.transpose %arg49, %591 : (tensor<8960x1536xf32>, tensor<2xi32>) -> tensor<1536x8960xf32>
    %593 = tosa.reshape %590 {new_shape = array<i64: 40, 1536>} : (tensor<1x40x1536xf32>) -> tensor<40x1536xf32>
    %cst_139 = arith.constant dense<0.000000e+00> : tensor<40x8960xf32>
    %594 = linalg.matmul {cast = #linalg.type_fn<cast_signed>} ins(%593, %592 : tensor<40x1536xf32>, tensor<1536x8960xf32>) outs(%cst_139 : tensor<40x8960xf32>) -> tensor<40x8960xf32>
    %595 = tosa.reshape %594 {new_shape = array<i64: 1, 40, 8960>} : (tensor<40x8960xf32>) -> tensor<1x40x8960xf32>
    %596 = tosa.sigmoid %595 : (tensor<1x40x8960xf32>) -> tensor<1x40x8960xf32>
    %597 = tosa.mul %595, %596 : (tensor<1x40x8960xf32>, tensor<1x40x8960xf32>) -> tensor<1x40x8960xf32>
    %598 = "tosa.const"() <{value = dense<[1, 0]> : tensor<2xi32>}> : () -> tensor<2xi32>
    %599 = tosa.transpose %arg50, %598 : (tensor<8960x1536xf32>, tensor<2xi32>) -> tensor<1536x8960xf32>
    %600 = tosa.reshape %590 {new_shape = array<i64: 40, 1536>} : (tensor<1x40x1536xf32>) -> tensor<40x1536xf32>
    %cst_140 = arith.constant dense<0.000000e+00> : tensor<40x8960xf32>
    %601 = linalg.matmul {cast = #linalg.type_fn<cast_signed>} ins(%600, %599 : tensor<40x1536xf32>, tensor<1536x8960xf32>) outs(%cst_140 : tensor<40x8960xf32>) -> tensor<40x8960xf32>
    %602 = tosa.reshape %601 {new_shape = array<i64: 1, 40, 8960>} : (tensor<40x8960xf32>) -> tensor<1x40x8960xf32>
    %603 = tosa.mul %597, %602 : (tensor<1x40x8960xf32>, tensor<1x40x8960xf32>) -> tensor<1x40x8960xf32>
    %604 = "tosa.const"() <{value = dense<[1, 0]> : tensor<2xi32>}> : () -> tensor<2xi32>
    %605 = tosa.transpose %arg51, %604 : (tensor<1536x8960xf32>, tensor<2xi32>) -> tensor<8960x1536xf32>
    %606 = tosa.reshape %603 {new_shape = array<i64: 40, 8960>} : (tensor<1x40x8960xf32>) -> tensor<40x8960xf32>
    %cst_141 = arith.constant dense<0.000000e+00> : tensor<40x1536xf32>
    %607 = linalg.matmul {cast = #linalg.type_fn<cast_signed>} ins(%606, %605 : tensor<40x8960xf32>, tensor<8960x1536xf32>) outs(%cst_141 : tensor<40x1536xf32>) -> tensor<40x1536xf32>
    %608 = tosa.reshape %607 {new_shape = array<i64: 1, 40, 1536>} : (tensor<40x1536xf32>) -> tensor<1x40x1536xf32>
    %609 = tosa.add %577, %608 : (tensor<1x40x1536xf32>, tensor<1x40x1536xf32>) -> tensor<1x40x1536xf32>
    %610 = tensor.empty() : tensor<1x40x1536xf32>
    %c2_i32_142 = arith.constant 2 : i32
    %611 = linalg.generic {indexing_maps = [#map4, #map4], iterator_types = ["parallel", "parallel", "parallel"]} ins(%609 : tensor<1x40x1536xf32>) outs(%610 : tensor<1x40x1536xf32>) {
    ^bb0(%in: f32, %out: f32):
      %3964 = math.fpowi %in, %c2_i32_142 : f32, i32
      linalg.yield %3964 : f32
    } -> tensor<1x40x1536xf32>
    %612 = tosa.reduce_sum %611 {axis = 2 : i32} : (tensor<1x40x1536xf32>) -> tensor<1x40x1xf32>
    %613 = "tosa.const"() <{value = dense<1.536000e+03> : tensor<1xf32>}> : () -> tensor<1xf32>
    %614 = tosa.reciprocal %613 : (tensor<1xf32>) -> tensor<1xf32>
    %615 = tosa.reshape %614 {new_shape = array<i64: 1, 1, 1>} : (tensor<1xf32>) -> tensor<1x1x1xf32>
    %616 = tosa.mul %615, %612 : (tensor<1x1x1xf32>, tensor<1x40x1xf32>) -> tensor<1x40x1xf32>
    %617 = "tosa.const"() <{value = dense<9.99999997E-7> : tensor<1x40x1xf32>}> : () -> tensor<1x40x1xf32>
    %618 = tosa.add %616, %617 : (tensor<1x40x1xf32>, tensor<1x40x1xf32>) -> tensor<1x40x1xf32>
    %619 = tosa.rsqrt %618 : (tensor<1x40x1xf32>) -> tensor<1x40x1xf32>
    %620 = tosa.mul %609, %619 : (tensor<1x40x1536xf32>, tensor<1x40x1xf32>) -> tensor<1x40x1536xf32>
    %621 = tosa.reshape %arg52 {new_shape = array<i64: 1, 1, 1536>} : (tensor<1536xf32>) -> tensor<1x1x1536xf32>
    %622 = tosa.mul %621, %620 : (tensor<1x1x1536xf32>, tensor<1x40x1536xf32>) -> tensor<1x40x1536xf32>
    %623 = tosa.reshape %622 {new_shape = array<i64: 40, 1536>} : (tensor<1x40x1536xf32>) -> tensor<40x1536xf32>
    %624 = "tosa.const"() <{value = dense<[1, 0]> : tensor<2xi32>}> : () -> tensor<2xi32>
    %625 = tosa.transpose %arg53, %624 : (tensor<1536x1536xf32>, tensor<2xi32>) -> tensor<1536x1536xf32>
    %626 = tosa.reshape %623 {new_shape = array<i64: 1, 40, 1536>} : (tensor<40x1536xf32>) -> tensor<1x40x1536xf32>
    %627 = tosa.reshape %625 {new_shape = array<i64: 1, 1536, 1536>} : (tensor<1536x1536xf32>) -> tensor<1x1536x1536xf32>
    %628 = tosa.matmul %626, %627 : (tensor<1x40x1536xf32>, tensor<1x1536x1536xf32>) -> tensor<1x40x1536xf32>
    %629 = tosa.reshape %628 {new_shape = array<i64: 40, 1536>} : (tensor<1x40x1536xf32>) -> tensor<40x1536xf32>
    %630 = tosa.reshape %arg54 {new_shape = array<i64: 1, 1536>} : (tensor<1536xf32>) -> tensor<1x1536xf32>
    %631 = tosa.add %630, %629 : (tensor<1x1536xf32>, tensor<40x1536xf32>) -> tensor<40x1536xf32>
    %632 = tosa.reshape %631 {new_shape = array<i64: 1, 40, 1536>} : (tensor<40x1536xf32>) -> tensor<1x40x1536xf32>
    %633 = tosa.reshape %622 {new_shape = array<i64: 40, 1536>} : (tensor<1x40x1536xf32>) -> tensor<40x1536xf32>
    %634 = "tosa.const"() <{value = dense<[1, 0]> : tensor<2xi32>}> : () -> tensor<2xi32>
    %635 = tosa.transpose %arg55, %634 : (tensor<256x1536xf32>, tensor<2xi32>) -> tensor<1536x256xf32>
    %636 = tosa.reshape %633 {new_shape = array<i64: 1, 40, 1536>} : (tensor<40x1536xf32>) -> tensor<1x40x1536xf32>
    %637 = tosa.reshape %635 {new_shape = array<i64: 1, 1536, 256>} : (tensor<1536x256xf32>) -> tensor<1x1536x256xf32>
    %638 = tosa.matmul %636, %637 : (tensor<1x40x1536xf32>, tensor<1x1536x256xf32>) -> tensor<1x40x256xf32>
    %639 = tosa.reshape %638 {new_shape = array<i64: 40, 256>} : (tensor<1x40x256xf32>) -> tensor<40x256xf32>
    %640 = tosa.reshape %arg56 {new_shape = array<i64: 1, 256>} : (tensor<256xf32>) -> tensor<1x256xf32>
    %641 = tosa.add %640, %639 : (tensor<1x256xf32>, tensor<40x256xf32>) -> tensor<40x256xf32>
    %642 = tosa.reshape %641 {new_shape = array<i64: 1, 40, 256>} : (tensor<40x256xf32>) -> tensor<1x40x256xf32>
    %643 = tosa.reshape %622 {new_shape = array<i64: 40, 1536>} : (tensor<1x40x1536xf32>) -> tensor<40x1536xf32>
    %644 = "tosa.const"() <{value = dense<[1, 0]> : tensor<2xi32>}> : () -> tensor<2xi32>
    %645 = tosa.transpose %arg57, %644 : (tensor<256x1536xf32>, tensor<2xi32>) -> tensor<1536x256xf32>
    %646 = tosa.reshape %643 {new_shape = array<i64: 1, 40, 1536>} : (tensor<40x1536xf32>) -> tensor<1x40x1536xf32>
    %647 = tosa.reshape %645 {new_shape = array<i64: 1, 1536, 256>} : (tensor<1536x256xf32>) -> tensor<1x1536x256xf32>
    %648 = tosa.matmul %646, %647 : (tensor<1x40x1536xf32>, tensor<1x1536x256xf32>) -> tensor<1x40x256xf32>
    %649 = tosa.reshape %648 {new_shape = array<i64: 40, 256>} : (tensor<1x40x256xf32>) -> tensor<40x256xf32>
    %650 = tosa.reshape %arg58 {new_shape = array<i64: 1, 256>} : (tensor<256xf32>) -> tensor<1x256xf32>
    %651 = tosa.add %650, %649 : (tensor<1x256xf32>, tensor<40x256xf32>) -> tensor<40x256xf32>
    %652 = tosa.reshape %651 {new_shape = array<i64: 1, 40, 256>} : (tensor<40x256xf32>) -> tensor<1x40x256xf32>
    %653 = tosa.reshape %632 {new_shape = array<i64: 1, 40, 12, 128>} : (tensor<1x40x1536xf32>) -> tensor<1x40x12x128xf32>
    %654 = "tosa.const"() <{value = dense<[0, 2, 1, 3]> : tensor<4xi32>}> : () -> tensor<4xi32>
    %655 = tosa.transpose %653, %654 : (tensor<1x40x12x128xf32>, tensor<4xi32>) -> tensor<1x12x40x128xf32>
    %656 = tosa.reshape %642 {new_shape = array<i64: 1, 40, 2, 128>} : (tensor<1x40x256xf32>) -> tensor<1x40x2x128xf32>
    %657 = "tosa.const"() <{value = dense<[0, 2, 1, 3]> : tensor<4xi32>}> : () -> tensor<4xi32>
    %658 = tosa.transpose %656, %657 : (tensor<1x40x2x128xf32>, tensor<4xi32>) -> tensor<1x2x40x128xf32>
    %659 = tosa.reshape %652 {new_shape = array<i64: 1, 40, 2, 128>} : (tensor<1x40x256xf32>) -> tensor<1x40x2x128xf32>
    %660 = "tosa.const"() <{value = dense<[0, 2, 1, 3]> : tensor<4xi32>}> : () -> tensor<4xi32>
    %661 = tosa.transpose %659, %660 : (tensor<1x40x2x128xf32>, tensor<4xi32>) -> tensor<1x2x40x128xf32>
    %662 = tosa.reshape %51 {new_shape = array<i64: 1, 1, 40, 128>} : (tensor<1x40x128xf32>) -> tensor<1x1x40x128xf32>
    %663 = tosa.reshape %53 {new_shape = array<i64: 1, 1, 40, 128>} : (tensor<1x40x128xf32>) -> tensor<1x1x40x128xf32>
    %664 = tosa.mul %655, %662 : (tensor<1x12x40x128xf32>, tensor<1x1x40x128xf32>) -> tensor<1x12x40x128xf32>
    %extracted_slice_143 = tensor.extract_slice %655[0, 0, 0, 0] [1, 12, 40, 64] [1, 1, 1, 1] : tensor<1x12x40x128xf32> to tensor<1x12x40x64xf32>
    %extracted_slice_144 = tensor.extract_slice %655[0, 0, 0, 64] [1, 12, 40, 64] [1, 1, 1, 1] : tensor<1x12x40x128xf32> to tensor<1x12x40x64xf32>
    %665 = tensor.empty() : tensor<1x12x40x64xf32>
    %666 = linalg.negf ins(%extracted_slice_144 : tensor<1x12x40x64xf32>) outs(%665 : tensor<1x12x40x64xf32>) -> tensor<1x12x40x64xf32>
    %667 = tensor.empty() : tensor<1x12x40x128xf32>
    %inserted_slice_145 = tensor.insert_slice %666 into %667[0, 0, 0, 0] [1, 12, 40, 64] [1, 1, 1, 1] : tensor<1x12x40x64xf32> into tensor<1x12x40x128xf32>
    %inserted_slice_146 = tensor.insert_slice %extracted_slice_143 into %inserted_slice_145[0, 0, 0, 64] [1, 12, 40, 64] [1, 1, 1, 1] : tensor<1x12x40x64xf32> into tensor<1x12x40x128xf32>
    %668 = tosa.mul %inserted_slice_146, %663 : (tensor<1x12x40x128xf32>, tensor<1x1x40x128xf32>) -> tensor<1x12x40x128xf32>
    %669 = tosa.add %664, %668 : (tensor<1x12x40x128xf32>, tensor<1x12x40x128xf32>) -> tensor<1x12x40x128xf32>
    %670 = tosa.mul %658, %662 : (tensor<1x2x40x128xf32>, tensor<1x1x40x128xf32>) -> tensor<1x2x40x128xf32>
    %extracted_slice_147 = tensor.extract_slice %658[0, 0, 0, 0] [1, 2, 40, 64] [1, 1, 1, 1] : tensor<1x2x40x128xf32> to tensor<1x2x40x64xf32>
    %extracted_slice_148 = tensor.extract_slice %658[0, 0, 0, 64] [1, 2, 40, 64] [1, 1, 1, 1] : tensor<1x2x40x128xf32> to tensor<1x2x40x64xf32>
    %671 = tensor.empty() : tensor<1x2x40x64xf32>
    %672 = linalg.negf ins(%extracted_slice_148 : tensor<1x2x40x64xf32>) outs(%671 : tensor<1x2x40x64xf32>) -> tensor<1x2x40x64xf32>
    %673 = tensor.empty() : tensor<1x2x40x128xf32>
    %inserted_slice_149 = tensor.insert_slice %672 into %673[0, 0, 0, 0] [1, 2, 40, 64] [1, 1, 1, 1] : tensor<1x2x40x64xf32> into tensor<1x2x40x128xf32>
    %inserted_slice_150 = tensor.insert_slice %extracted_slice_147 into %inserted_slice_149[0, 0, 0, 64] [1, 2, 40, 64] [1, 1, 1, 1] : tensor<1x2x40x64xf32> into tensor<1x2x40x128xf32>
    %674 = tosa.mul %inserted_slice_150, %663 : (tensor<1x2x40x128xf32>, tensor<1x1x40x128xf32>) -> tensor<1x2x40x128xf32>
    %675 = tosa.add %670, %674 : (tensor<1x2x40x128xf32>, tensor<1x2x40x128xf32>) -> tensor<1x2x40x128xf32>
    %extracted_slice_151 = tensor.extract_slice %675[0, 0, 0, 0] [1, 2, 40, 128] [1, 1, 1, 1] : tensor<1x2x40x128xf32> to tensor<1x2x40x128xf32>
    %extracted_slice_152 = tensor.extract_slice %extracted_slice_151[0, 0, 0, 0] [1, 2, 40, 128] [1, 1, 1, 1] : tensor<1x2x40x128xf32> to tensor<1x2x40x128xf32>
    %676 = tosa.reshape %extracted_slice_152 {new_shape = array<i64: 1, 2, 1, 40, 128>} : (tensor<1x2x40x128xf32>) -> tensor<1x2x1x40x128xf32>
    %extracted_slice_153 = tensor.extract_slice %676[0, 0, 0, 0, 0] [1, 2, 1, 40, 128] [1, 1, 1, 1, 1] : tensor<1x2x1x40x128xf32> to tensor<1x2x1x40x128xf32>
    %extracted_slice_154 = tensor.extract_slice %extracted_slice_153[0, 0, 0, 0, 0] [1, 2, 1, 40, 128] [1, 1, 1, 1, 1] : tensor<1x2x1x40x128xf32> to tensor<1x2x1x40x128xf32>
    %677 = "tosa.const"() <{value = dense<0.000000e+00> : tensor<1x2x6x40x128xf32>}> : () -> tensor<1x2x6x40x128xf32>
    %678 = tosa.add %extracted_slice_154, %677 : (tensor<1x2x1x40x128xf32>, tensor<1x2x6x40x128xf32>) -> tensor<1x2x6x40x128xf32>
    %679 = tosa.identity %678 : (tensor<1x2x6x40x128xf32>) -> tensor<1x2x6x40x128xf32>
    %680 = tosa.reshape %679 {new_shape = array<i64: 1, 12, 40, 128>} : (tensor<1x2x6x40x128xf32>) -> tensor<1x12x40x128xf32>
    %extracted_slice_155 = tensor.extract_slice %661[0, 0, 0, 0] [1, 2, 40, 128] [1, 1, 1, 1] : tensor<1x2x40x128xf32> to tensor<1x2x40x128xf32>
    %extracted_slice_156 = tensor.extract_slice %extracted_slice_155[0, 0, 0, 0] [1, 2, 40, 128] [1, 1, 1, 1] : tensor<1x2x40x128xf32> to tensor<1x2x40x128xf32>
    %681 = tosa.reshape %extracted_slice_156 {new_shape = array<i64: 1, 2, 1, 40, 128>} : (tensor<1x2x40x128xf32>) -> tensor<1x2x1x40x128xf32>
    %extracted_slice_157 = tensor.extract_slice %681[0, 0, 0, 0, 0] [1, 2, 1, 40, 128] [1, 1, 1, 1, 1] : tensor<1x2x1x40x128xf32> to tensor<1x2x1x40x128xf32>
    %extracted_slice_158 = tensor.extract_slice %extracted_slice_157[0, 0, 0, 0, 0] [1, 2, 1, 40, 128] [1, 1, 1, 1, 1] : tensor<1x2x1x40x128xf32> to tensor<1x2x1x40x128xf32>
    %682 = "tosa.const"() <{value = dense<0.000000e+00> : tensor<1x2x6x40x128xf32>}> : () -> tensor<1x2x6x40x128xf32>
    %683 = tosa.add %extracted_slice_158, %682 : (tensor<1x2x1x40x128xf32>, tensor<1x2x6x40x128xf32>) -> tensor<1x2x6x40x128xf32>
    %684 = tosa.identity %683 : (tensor<1x2x6x40x128xf32>) -> tensor<1x2x6x40x128xf32>
    %685 = tosa.reshape %684 {new_shape = array<i64: 1, 12, 40, 128>} : (tensor<1x2x6x40x128xf32>) -> tensor<1x12x40x128xf32>
    %extracted_slice_159 = tensor.extract_slice %inserted_slice_21[0, 0, 0, 0] [1, 1, 40, 40] [1, 1, 1, 1] : tensor<1x1x40x40xf32> to tensor<1x1x40x40xf32>
    %extracted_slice_160 = tensor.extract_slice %extracted_slice_159[0, 0, 0, 0] [1, 1, 40, 40] [1, 1, 1, 1] : tensor<1x1x40x40xf32> to tensor<1x1x40x40xf32>
    %extracted_slice_161 = tensor.extract_slice %extracted_slice_160[0, 0, 0, 0] [1, 1, 40, 40] [1, 1, 1, 1] : tensor<1x1x40x40xf32> to tensor<1x1x40x40xf32>
    %cst_162 = arith.constant 0.000000e+00 : f32
    %splat_163 = tensor.splat %cst_162 : tensor<40x40xf32>
    %686 = tosa.reshape %extracted_slice_161 {new_shape = array<i64: 40, 40>} : (tensor<1x1x40x40xf32>) -> tensor<40x40xf32>
    %687 = tosa.add %splat_163, %686 : (tensor<40x40xf32>, tensor<40x40xf32>) -> tensor<40x40xf32>
    %688 = "tosa.const"() <{value = dense<[0, 1, 3, 2]> : tensor<4xi32>}> : () -> tensor<4xi32>
    %689 = tosa.transpose %680, %688 : (tensor<1x12x40x128xf32>, tensor<4xi32>) -> tensor<1x12x128x40xf32>
    %690 = tosa.reshape %669 {new_shape = array<i64: 12, 40, 128>} : (tensor<1x12x40x128xf32>) -> tensor<12x40x128xf32>
    %691 = tosa.reshape %689 {new_shape = array<i64: 12, 128, 40>} : (tensor<1x12x128x40xf32>) -> tensor<12x128x40xf32>
    %692 = tosa.matmul %690, %691 : (tensor<12x40x128xf32>, tensor<12x128x40xf32>) -> tensor<12x40x40xf32>
    %cst_164 = arith.constant 0.0883883461 : f32
    %splat_165 = tensor.splat %cst_164 : tensor<12x40x40xf32>
    %693 = tosa.mul %692, %splat_165 : (tensor<12x40x40xf32>, tensor<12x40x40xf32>) -> tensor<12x40x40xf32>
    %694 = tosa.reshape %687 {new_shape = array<i64: 1, 40, 40>} : (tensor<40x40xf32>) -> tensor<1x40x40xf32>
    %695 = tosa.add %693, %694 : (tensor<12x40x40xf32>, tensor<1x40x40xf32>) -> tensor<12x40x40xf32>
    %696 = tosa.reduce_max %695 {axis = 2 : i32} : (tensor<12x40x40xf32>) -> tensor<12x40x1xf32>
    %697 = tosa.sub %695, %696 : (tensor<12x40x40xf32>, tensor<12x40x1xf32>) -> tensor<12x40x40xf32>
    %698 = math.exp %697 : tensor<12x40x40xf32>
    %699 = tosa.reduce_sum %698 {axis = 2 : i32} : (tensor<12x40x40xf32>) -> tensor<12x40x1xf32>
    %700 = tosa.log %699 : (tensor<12x40x1xf32>) -> tensor<12x40x1xf32>
    %701 = tosa.add %696, %700 : (tensor<12x40x1xf32>, tensor<12x40x1xf32>) -> tensor<12x40x1xf32>
    %702 = tosa.sub %695, %701 : (tensor<12x40x40xf32>, tensor<12x40x1xf32>) -> tensor<12x40x40xf32>
    %703 = math.exp %702 : tensor<12x40x40xf32>
    %704 = tosa.reshape %701 {new_shape = array<i64: 1, 12, 40>} : (tensor<12x40x1xf32>) -> tensor<1x12x40xf32>
    %705 = tosa.reshape %685 {new_shape = array<i64: 12, 40, 128>} : (tensor<1x12x40x128xf32>) -> tensor<12x40x128xf32>
    %706 = tosa.matmul %703, %705 : (tensor<12x40x40xf32>, tensor<12x40x128xf32>) -> tensor<12x40x128xf32>
    %707 = tosa.reshape %706 {new_shape = array<i64: 1, 12, 40, 128>} : (tensor<12x40x128xf32>) -> tensor<1x12x40x128xf32>
    %708 = "tosa.const"() <{value = dense<[0, 2, 1, 3]> : tensor<4xi32>}> : () -> tensor<4xi32>
    %709 = tosa.transpose %707, %708 : (tensor<1x12x40x128xf32>, tensor<4xi32>) -> tensor<1x40x12x128xf32>
    %710 = tosa.reshape %709 {new_shape = array<i64: 1, 40, 1536>} : (tensor<1x40x12x128xf32>) -> tensor<1x40x1536xf32>
    %711 = "tosa.const"() <{value = dense<[1, 0]> : tensor<2xi32>}> : () -> tensor<2xi32>
    %712 = tosa.transpose %arg59, %711 : (tensor<1536x1536xf32>, tensor<2xi32>) -> tensor<1536x1536xf32>
    %713 = tosa.reshape %710 {new_shape = array<i64: 40, 1536>} : (tensor<1x40x1536xf32>) -> tensor<40x1536xf32>
    %cst_166 = arith.constant dense<0.000000e+00> : tensor<40x1536xf32>
    %714 = linalg.matmul {cast = #linalg.type_fn<cast_signed>} ins(%713, %712 : tensor<40x1536xf32>, tensor<1536x1536xf32>) outs(%cst_166 : tensor<40x1536xf32>) -> tensor<40x1536xf32>
    %715 = tosa.reshape %714 {new_shape = array<i64: 1, 40, 1536>} : (tensor<40x1536xf32>) -> tensor<1x40x1536xf32>
    %716 = tosa.add %609, %715 : (tensor<1x40x1536xf32>, tensor<1x40x1536xf32>) -> tensor<1x40x1536xf32>
    %717 = tensor.empty() : tensor<1x40x1536xf32>
    %c2_i32_167 = arith.constant 2 : i32
    %718 = linalg.generic {indexing_maps = [#map4, #map4], iterator_types = ["parallel", "parallel", "parallel"]} ins(%716 : tensor<1x40x1536xf32>) outs(%717 : tensor<1x40x1536xf32>) {
    ^bb0(%in: f32, %out: f32):
      %3964 = math.fpowi %in, %c2_i32_167 : f32, i32
      linalg.yield %3964 : f32
    } -> tensor<1x40x1536xf32>
    %719 = tosa.reduce_sum %718 {axis = 2 : i32} : (tensor<1x40x1536xf32>) -> tensor<1x40x1xf32>
    %720 = "tosa.const"() <{value = dense<1.536000e+03> : tensor<1xf32>}> : () -> tensor<1xf32>
    %721 = tosa.reciprocal %720 : (tensor<1xf32>) -> tensor<1xf32>
    %722 = tosa.reshape %721 {new_shape = array<i64: 1, 1, 1>} : (tensor<1xf32>) -> tensor<1x1x1xf32>
    %723 = tosa.mul %722, %719 : (tensor<1x1x1xf32>, tensor<1x40x1xf32>) -> tensor<1x40x1xf32>
    %724 = "tosa.const"() <{value = dense<9.99999997E-7> : tensor<1x40x1xf32>}> : () -> tensor<1x40x1xf32>
    %725 = tosa.add %723, %724 : (tensor<1x40x1xf32>, tensor<1x40x1xf32>) -> tensor<1x40x1xf32>
    %726 = tosa.rsqrt %725 : (tensor<1x40x1xf32>) -> tensor<1x40x1xf32>
    %727 = tosa.mul %716, %726 : (tensor<1x40x1536xf32>, tensor<1x40x1xf32>) -> tensor<1x40x1536xf32>
    %728 = tosa.reshape %arg60 {new_shape = array<i64: 1, 1, 1536>} : (tensor<1536xf32>) -> tensor<1x1x1536xf32>
    %729 = tosa.mul %728, %727 : (tensor<1x1x1536xf32>, tensor<1x40x1536xf32>) -> tensor<1x40x1536xf32>
    %730 = "tosa.const"() <{value = dense<[1, 0]> : tensor<2xi32>}> : () -> tensor<2xi32>
    %731 = tosa.transpose %arg61, %730 : (tensor<8960x1536xf32>, tensor<2xi32>) -> tensor<1536x8960xf32>
    %732 = tosa.reshape %729 {new_shape = array<i64: 40, 1536>} : (tensor<1x40x1536xf32>) -> tensor<40x1536xf32>
    %cst_168 = arith.constant dense<0.000000e+00> : tensor<40x8960xf32>
    %733 = linalg.matmul {cast = #linalg.type_fn<cast_signed>} ins(%732, %731 : tensor<40x1536xf32>, tensor<1536x8960xf32>) outs(%cst_168 : tensor<40x8960xf32>) -> tensor<40x8960xf32>
    %734 = tosa.reshape %733 {new_shape = array<i64: 1, 40, 8960>} : (tensor<40x8960xf32>) -> tensor<1x40x8960xf32>
    %735 = tosa.sigmoid %734 : (tensor<1x40x8960xf32>) -> tensor<1x40x8960xf32>
    %736 = tosa.mul %734, %735 : (tensor<1x40x8960xf32>, tensor<1x40x8960xf32>) -> tensor<1x40x8960xf32>
    %737 = "tosa.const"() <{value = dense<[1, 0]> : tensor<2xi32>}> : () -> tensor<2xi32>
    %738 = tosa.transpose %arg62, %737 : (tensor<8960x1536xf32>, tensor<2xi32>) -> tensor<1536x8960xf32>
    %739 = tosa.reshape %729 {new_shape = array<i64: 40, 1536>} : (tensor<1x40x1536xf32>) -> tensor<40x1536xf32>
    %cst_169 = arith.constant dense<0.000000e+00> : tensor<40x8960xf32>
    %740 = linalg.matmul {cast = #linalg.type_fn<cast_signed>} ins(%739, %738 : tensor<40x1536xf32>, tensor<1536x8960xf32>) outs(%cst_169 : tensor<40x8960xf32>) -> tensor<40x8960xf32>
    %741 = tosa.reshape %740 {new_shape = array<i64: 1, 40, 8960>} : (tensor<40x8960xf32>) -> tensor<1x40x8960xf32>
    %742 = tosa.mul %736, %741 : (tensor<1x40x8960xf32>, tensor<1x40x8960xf32>) -> tensor<1x40x8960xf32>
    %743 = "tosa.const"() <{value = dense<[1, 0]> : tensor<2xi32>}> : () -> tensor<2xi32>
    %744 = tosa.transpose %arg63, %743 : (tensor<1536x8960xf32>, tensor<2xi32>) -> tensor<8960x1536xf32>
    %745 = tosa.reshape %742 {new_shape = array<i64: 40, 8960>} : (tensor<1x40x8960xf32>) -> tensor<40x8960xf32>
    %cst_170 = arith.constant dense<0.000000e+00> : tensor<40x1536xf32>
    %746 = linalg.matmul {cast = #linalg.type_fn<cast_signed>} ins(%745, %744 : tensor<40x8960xf32>, tensor<8960x1536xf32>) outs(%cst_170 : tensor<40x1536xf32>) -> tensor<40x1536xf32>
    %747 = tosa.reshape %746 {new_shape = array<i64: 1, 40, 1536>} : (tensor<40x1536xf32>) -> tensor<1x40x1536xf32>
    %748 = tosa.add %716, %747 : (tensor<1x40x1536xf32>, tensor<1x40x1536xf32>) -> tensor<1x40x1536xf32>
    %749 = tensor.empty() : tensor<1x40x1536xf32>
    %c2_i32_171 = arith.constant 2 : i32
    %750 = linalg.generic {indexing_maps = [#map4, #map4], iterator_types = ["parallel", "parallel", "parallel"]} ins(%748 : tensor<1x40x1536xf32>) outs(%749 : tensor<1x40x1536xf32>) {
    ^bb0(%in: f32, %out: f32):
      %3964 = math.fpowi %in, %c2_i32_171 : f32, i32
      linalg.yield %3964 : f32
    } -> tensor<1x40x1536xf32>
    %751 = tosa.reduce_sum %750 {axis = 2 : i32} : (tensor<1x40x1536xf32>) -> tensor<1x40x1xf32>
    %752 = "tosa.const"() <{value = dense<1.536000e+03> : tensor<1xf32>}> : () -> tensor<1xf32>
    %753 = tosa.reciprocal %752 : (tensor<1xf32>) -> tensor<1xf32>
    %754 = tosa.reshape %753 {new_shape = array<i64: 1, 1, 1>} : (tensor<1xf32>) -> tensor<1x1x1xf32>
    %755 = tosa.mul %754, %751 : (tensor<1x1x1xf32>, tensor<1x40x1xf32>) -> tensor<1x40x1xf32>
    %756 = "tosa.const"() <{value = dense<9.99999997E-7> : tensor<1x40x1xf32>}> : () -> tensor<1x40x1xf32>
    %757 = tosa.add %755, %756 : (tensor<1x40x1xf32>, tensor<1x40x1xf32>) -> tensor<1x40x1xf32>
    %758 = tosa.rsqrt %757 : (tensor<1x40x1xf32>) -> tensor<1x40x1xf32>
    %759 = tosa.mul %748, %758 : (tensor<1x40x1536xf32>, tensor<1x40x1xf32>) -> tensor<1x40x1536xf32>
    %760 = tosa.reshape %arg64 {new_shape = array<i64: 1, 1, 1536>} : (tensor<1536xf32>) -> tensor<1x1x1536xf32>
    %761 = tosa.mul %760, %759 : (tensor<1x1x1536xf32>, tensor<1x40x1536xf32>) -> tensor<1x40x1536xf32>
    %762 = tosa.reshape %761 {new_shape = array<i64: 40, 1536>} : (tensor<1x40x1536xf32>) -> tensor<40x1536xf32>
    %763 = "tosa.const"() <{value = dense<[1, 0]> : tensor<2xi32>}> : () -> tensor<2xi32>
    %764 = tosa.transpose %arg65, %763 : (tensor<1536x1536xf32>, tensor<2xi32>) -> tensor<1536x1536xf32>
    %765 = tosa.reshape %762 {new_shape = array<i64: 1, 40, 1536>} : (tensor<40x1536xf32>) -> tensor<1x40x1536xf32>
    %766 = tosa.reshape %764 {new_shape = array<i64: 1, 1536, 1536>} : (tensor<1536x1536xf32>) -> tensor<1x1536x1536xf32>
    %767 = tosa.matmul %765, %766 : (tensor<1x40x1536xf32>, tensor<1x1536x1536xf32>) -> tensor<1x40x1536xf32>
    %768 = tosa.reshape %767 {new_shape = array<i64: 40, 1536>} : (tensor<1x40x1536xf32>) -> tensor<40x1536xf32>
    %769 = tosa.reshape %arg66 {new_shape = array<i64: 1, 1536>} : (tensor<1536xf32>) -> tensor<1x1536xf32>
    %770 = tosa.add %769, %768 : (tensor<1x1536xf32>, tensor<40x1536xf32>) -> tensor<40x1536xf32>
    %771 = tosa.reshape %770 {new_shape = array<i64: 1, 40, 1536>} : (tensor<40x1536xf32>) -> tensor<1x40x1536xf32>
    %772 = tosa.reshape %761 {new_shape = array<i64: 40, 1536>} : (tensor<1x40x1536xf32>) -> tensor<40x1536xf32>
    %773 = "tosa.const"() <{value = dense<[1, 0]> : tensor<2xi32>}> : () -> tensor<2xi32>
    %774 = tosa.transpose %arg67, %773 : (tensor<256x1536xf32>, tensor<2xi32>) -> tensor<1536x256xf32>
    %775 = tosa.reshape %772 {new_shape = array<i64: 1, 40, 1536>} : (tensor<40x1536xf32>) -> tensor<1x40x1536xf32>
    %776 = tosa.reshape %774 {new_shape = array<i64: 1, 1536, 256>} : (tensor<1536x256xf32>) -> tensor<1x1536x256xf32>
    %777 = tosa.matmul %775, %776 : (tensor<1x40x1536xf32>, tensor<1x1536x256xf32>) -> tensor<1x40x256xf32>
    %778 = tosa.reshape %777 {new_shape = array<i64: 40, 256>} : (tensor<1x40x256xf32>) -> tensor<40x256xf32>
    %779 = tosa.reshape %arg68 {new_shape = array<i64: 1, 256>} : (tensor<256xf32>) -> tensor<1x256xf32>
    %780 = tosa.add %779, %778 : (tensor<1x256xf32>, tensor<40x256xf32>) -> tensor<40x256xf32>
    %781 = tosa.reshape %780 {new_shape = array<i64: 1, 40, 256>} : (tensor<40x256xf32>) -> tensor<1x40x256xf32>
    %782 = tosa.reshape %761 {new_shape = array<i64: 40, 1536>} : (tensor<1x40x1536xf32>) -> tensor<40x1536xf32>
    %783 = "tosa.const"() <{value = dense<[1, 0]> : tensor<2xi32>}> : () -> tensor<2xi32>
    %784 = tosa.transpose %arg69, %783 : (tensor<256x1536xf32>, tensor<2xi32>) -> tensor<1536x256xf32>
    %785 = tosa.reshape %782 {new_shape = array<i64: 1, 40, 1536>} : (tensor<40x1536xf32>) -> tensor<1x40x1536xf32>
    %786 = tosa.reshape %784 {new_shape = array<i64: 1, 1536, 256>} : (tensor<1536x256xf32>) -> tensor<1x1536x256xf32>
    %787 = tosa.matmul %785, %786 : (tensor<1x40x1536xf32>, tensor<1x1536x256xf32>) -> tensor<1x40x256xf32>
    %788 = tosa.reshape %787 {new_shape = array<i64: 40, 256>} : (tensor<1x40x256xf32>) -> tensor<40x256xf32>
    %789 = tosa.reshape %arg70 {new_shape = array<i64: 1, 256>} : (tensor<256xf32>) -> tensor<1x256xf32>
    %790 = tosa.add %789, %788 : (tensor<1x256xf32>, tensor<40x256xf32>) -> tensor<40x256xf32>
    %791 = tosa.reshape %790 {new_shape = array<i64: 1, 40, 256>} : (tensor<40x256xf32>) -> tensor<1x40x256xf32>
    %792 = tosa.reshape %771 {new_shape = array<i64: 1, 40, 12, 128>} : (tensor<1x40x1536xf32>) -> tensor<1x40x12x128xf32>
    %793 = "tosa.const"() <{value = dense<[0, 2, 1, 3]> : tensor<4xi32>}> : () -> tensor<4xi32>
    %794 = tosa.transpose %792, %793 : (tensor<1x40x12x128xf32>, tensor<4xi32>) -> tensor<1x12x40x128xf32>
    %795 = tosa.reshape %781 {new_shape = array<i64: 1, 40, 2, 128>} : (tensor<1x40x256xf32>) -> tensor<1x40x2x128xf32>
    %796 = "tosa.const"() <{value = dense<[0, 2, 1, 3]> : tensor<4xi32>}> : () -> tensor<4xi32>
    %797 = tosa.transpose %795, %796 : (tensor<1x40x2x128xf32>, tensor<4xi32>) -> tensor<1x2x40x128xf32>
    %798 = tosa.reshape %791 {new_shape = array<i64: 1, 40, 2, 128>} : (tensor<1x40x256xf32>) -> tensor<1x40x2x128xf32>
    %799 = "tosa.const"() <{value = dense<[0, 2, 1, 3]> : tensor<4xi32>}> : () -> tensor<4xi32>
    %800 = tosa.transpose %798, %799 : (tensor<1x40x2x128xf32>, tensor<4xi32>) -> tensor<1x2x40x128xf32>
    %801 = tosa.reshape %51 {new_shape = array<i64: 1, 1, 40, 128>} : (tensor<1x40x128xf32>) -> tensor<1x1x40x128xf32>
    %802 = tosa.reshape %53 {new_shape = array<i64: 1, 1, 40, 128>} : (tensor<1x40x128xf32>) -> tensor<1x1x40x128xf32>
    %803 = tosa.mul %794, %801 : (tensor<1x12x40x128xf32>, tensor<1x1x40x128xf32>) -> tensor<1x12x40x128xf32>
    %extracted_slice_172 = tensor.extract_slice %794[0, 0, 0, 0] [1, 12, 40, 64] [1, 1, 1, 1] : tensor<1x12x40x128xf32> to tensor<1x12x40x64xf32>
    %extracted_slice_173 = tensor.extract_slice %794[0, 0, 0, 64] [1, 12, 40, 64] [1, 1, 1, 1] : tensor<1x12x40x128xf32> to tensor<1x12x40x64xf32>
    %804 = tensor.empty() : tensor<1x12x40x64xf32>
    %805 = linalg.negf ins(%extracted_slice_173 : tensor<1x12x40x64xf32>) outs(%804 : tensor<1x12x40x64xf32>) -> tensor<1x12x40x64xf32>
    %806 = tensor.empty() : tensor<1x12x40x128xf32>
    %inserted_slice_174 = tensor.insert_slice %805 into %806[0, 0, 0, 0] [1, 12, 40, 64] [1, 1, 1, 1] : tensor<1x12x40x64xf32> into tensor<1x12x40x128xf32>
    %inserted_slice_175 = tensor.insert_slice %extracted_slice_172 into %inserted_slice_174[0, 0, 0, 64] [1, 12, 40, 64] [1, 1, 1, 1] : tensor<1x12x40x64xf32> into tensor<1x12x40x128xf32>
    %807 = tosa.mul %inserted_slice_175, %802 : (tensor<1x12x40x128xf32>, tensor<1x1x40x128xf32>) -> tensor<1x12x40x128xf32>
    %808 = tosa.add %803, %807 : (tensor<1x12x40x128xf32>, tensor<1x12x40x128xf32>) -> tensor<1x12x40x128xf32>
    %809 = tosa.mul %797, %801 : (tensor<1x2x40x128xf32>, tensor<1x1x40x128xf32>) -> tensor<1x2x40x128xf32>
    %extracted_slice_176 = tensor.extract_slice %797[0, 0, 0, 0] [1, 2, 40, 64] [1, 1, 1, 1] : tensor<1x2x40x128xf32> to tensor<1x2x40x64xf32>
    %extracted_slice_177 = tensor.extract_slice %797[0, 0, 0, 64] [1, 2, 40, 64] [1, 1, 1, 1] : tensor<1x2x40x128xf32> to tensor<1x2x40x64xf32>
    %810 = tensor.empty() : tensor<1x2x40x64xf32>
    %811 = linalg.negf ins(%extracted_slice_177 : tensor<1x2x40x64xf32>) outs(%810 : tensor<1x2x40x64xf32>) -> tensor<1x2x40x64xf32>
    %812 = tensor.empty() : tensor<1x2x40x128xf32>
    %inserted_slice_178 = tensor.insert_slice %811 into %812[0, 0, 0, 0] [1, 2, 40, 64] [1, 1, 1, 1] : tensor<1x2x40x64xf32> into tensor<1x2x40x128xf32>
    %inserted_slice_179 = tensor.insert_slice %extracted_slice_176 into %inserted_slice_178[0, 0, 0, 64] [1, 2, 40, 64] [1, 1, 1, 1] : tensor<1x2x40x64xf32> into tensor<1x2x40x128xf32>
    %813 = tosa.mul %inserted_slice_179, %802 : (tensor<1x2x40x128xf32>, tensor<1x1x40x128xf32>) -> tensor<1x2x40x128xf32>
    %814 = tosa.add %809, %813 : (tensor<1x2x40x128xf32>, tensor<1x2x40x128xf32>) -> tensor<1x2x40x128xf32>
    %extracted_slice_180 = tensor.extract_slice %814[0, 0, 0, 0] [1, 2, 40, 128] [1, 1, 1, 1] : tensor<1x2x40x128xf32> to tensor<1x2x40x128xf32>
    %extracted_slice_181 = tensor.extract_slice %extracted_slice_180[0, 0, 0, 0] [1, 2, 40, 128] [1, 1, 1, 1] : tensor<1x2x40x128xf32> to tensor<1x2x40x128xf32>
    %815 = tosa.reshape %extracted_slice_181 {new_shape = array<i64: 1, 2, 1, 40, 128>} : (tensor<1x2x40x128xf32>) -> tensor<1x2x1x40x128xf32>
    %extracted_slice_182 = tensor.extract_slice %815[0, 0, 0, 0, 0] [1, 2, 1, 40, 128] [1, 1, 1, 1, 1] : tensor<1x2x1x40x128xf32> to tensor<1x2x1x40x128xf32>
    %extracted_slice_183 = tensor.extract_slice %extracted_slice_182[0, 0, 0, 0, 0] [1, 2, 1, 40, 128] [1, 1, 1, 1, 1] : tensor<1x2x1x40x128xf32> to tensor<1x2x1x40x128xf32>
    %816 = "tosa.const"() <{value = dense<0.000000e+00> : tensor<1x2x6x40x128xf32>}> : () -> tensor<1x2x6x40x128xf32>
    %817 = tosa.add %extracted_slice_183, %816 : (tensor<1x2x1x40x128xf32>, tensor<1x2x6x40x128xf32>) -> tensor<1x2x6x40x128xf32>
    %818 = tosa.identity %817 : (tensor<1x2x6x40x128xf32>) -> tensor<1x2x6x40x128xf32>
    %819 = tosa.reshape %818 {new_shape = array<i64: 1, 12, 40, 128>} : (tensor<1x2x6x40x128xf32>) -> tensor<1x12x40x128xf32>
    %extracted_slice_184 = tensor.extract_slice %800[0, 0, 0, 0] [1, 2, 40, 128] [1, 1, 1, 1] : tensor<1x2x40x128xf32> to tensor<1x2x40x128xf32>
    %extracted_slice_185 = tensor.extract_slice %extracted_slice_184[0, 0, 0, 0] [1, 2, 40, 128] [1, 1, 1, 1] : tensor<1x2x40x128xf32> to tensor<1x2x40x128xf32>
    %820 = tosa.reshape %extracted_slice_185 {new_shape = array<i64: 1, 2, 1, 40, 128>} : (tensor<1x2x40x128xf32>) -> tensor<1x2x1x40x128xf32>
    %extracted_slice_186 = tensor.extract_slice %820[0, 0, 0, 0, 0] [1, 2, 1, 40, 128] [1, 1, 1, 1, 1] : tensor<1x2x1x40x128xf32> to tensor<1x2x1x40x128xf32>
    %extracted_slice_187 = tensor.extract_slice %extracted_slice_186[0, 0, 0, 0, 0] [1, 2, 1, 40, 128] [1, 1, 1, 1, 1] : tensor<1x2x1x40x128xf32> to tensor<1x2x1x40x128xf32>
    %821 = "tosa.const"() <{value = dense<0.000000e+00> : tensor<1x2x6x40x128xf32>}> : () -> tensor<1x2x6x40x128xf32>
    %822 = tosa.add %extracted_slice_187, %821 : (tensor<1x2x1x40x128xf32>, tensor<1x2x6x40x128xf32>) -> tensor<1x2x6x40x128xf32>
    %823 = tosa.identity %822 : (tensor<1x2x6x40x128xf32>) -> tensor<1x2x6x40x128xf32>
    %824 = tosa.reshape %823 {new_shape = array<i64: 1, 12, 40, 128>} : (tensor<1x2x6x40x128xf32>) -> tensor<1x12x40x128xf32>
    %extracted_slice_188 = tensor.extract_slice %inserted_slice_21[0, 0, 0, 0] [1, 1, 40, 40] [1, 1, 1, 1] : tensor<1x1x40x40xf32> to tensor<1x1x40x40xf32>
    %extracted_slice_189 = tensor.extract_slice %extracted_slice_188[0, 0, 0, 0] [1, 1, 40, 40] [1, 1, 1, 1] : tensor<1x1x40x40xf32> to tensor<1x1x40x40xf32>
    %extracted_slice_190 = tensor.extract_slice %extracted_slice_189[0, 0, 0, 0] [1, 1, 40, 40] [1, 1, 1, 1] : tensor<1x1x40x40xf32> to tensor<1x1x40x40xf32>
    %cst_191 = arith.constant 0.000000e+00 : f32
    %splat_192 = tensor.splat %cst_191 : tensor<40x40xf32>
    %825 = tosa.reshape %extracted_slice_190 {new_shape = array<i64: 40, 40>} : (tensor<1x1x40x40xf32>) -> tensor<40x40xf32>
    %826 = tosa.add %splat_192, %825 : (tensor<40x40xf32>, tensor<40x40xf32>) -> tensor<40x40xf32>
    %827 = "tosa.const"() <{value = dense<[0, 1, 3, 2]> : tensor<4xi32>}> : () -> tensor<4xi32>
    %828 = tosa.transpose %819, %827 : (tensor<1x12x40x128xf32>, tensor<4xi32>) -> tensor<1x12x128x40xf32>
    %829 = tosa.reshape %808 {new_shape = array<i64: 12, 40, 128>} : (tensor<1x12x40x128xf32>) -> tensor<12x40x128xf32>
    %830 = tosa.reshape %828 {new_shape = array<i64: 12, 128, 40>} : (tensor<1x12x128x40xf32>) -> tensor<12x128x40xf32>
    %831 = tosa.matmul %829, %830 : (tensor<12x40x128xf32>, tensor<12x128x40xf32>) -> tensor<12x40x40xf32>
    %cst_193 = arith.constant 0.0883883461 : f32
    %splat_194 = tensor.splat %cst_193 : tensor<12x40x40xf32>
    %832 = tosa.mul %831, %splat_194 : (tensor<12x40x40xf32>, tensor<12x40x40xf32>) -> tensor<12x40x40xf32>
    %833 = tosa.reshape %826 {new_shape = array<i64: 1, 40, 40>} : (tensor<40x40xf32>) -> tensor<1x40x40xf32>
    %834 = tosa.add %832, %833 : (tensor<12x40x40xf32>, tensor<1x40x40xf32>) -> tensor<12x40x40xf32>
    %835 = tosa.reduce_max %834 {axis = 2 : i32} : (tensor<12x40x40xf32>) -> tensor<12x40x1xf32>
    %836 = tosa.sub %834, %835 : (tensor<12x40x40xf32>, tensor<12x40x1xf32>) -> tensor<12x40x40xf32>
    %837 = math.exp %836 : tensor<12x40x40xf32>
    %838 = tosa.reduce_sum %837 {axis = 2 : i32} : (tensor<12x40x40xf32>) -> tensor<12x40x1xf32>
    %839 = tosa.log %838 : (tensor<12x40x1xf32>) -> tensor<12x40x1xf32>
    %840 = tosa.add %835, %839 : (tensor<12x40x1xf32>, tensor<12x40x1xf32>) -> tensor<12x40x1xf32>
    %841 = tosa.sub %834, %840 : (tensor<12x40x40xf32>, tensor<12x40x1xf32>) -> tensor<12x40x40xf32>
    %842 = math.exp %841 : tensor<12x40x40xf32>
    %843 = tosa.reshape %840 {new_shape = array<i64: 1, 12, 40>} : (tensor<12x40x1xf32>) -> tensor<1x12x40xf32>
    %844 = tosa.reshape %824 {new_shape = array<i64: 12, 40, 128>} : (tensor<1x12x40x128xf32>) -> tensor<12x40x128xf32>
    %845 = tosa.matmul %842, %844 : (tensor<12x40x40xf32>, tensor<12x40x128xf32>) -> tensor<12x40x128xf32>
    %846 = tosa.reshape %845 {new_shape = array<i64: 1, 12, 40, 128>} : (tensor<12x40x128xf32>) -> tensor<1x12x40x128xf32>
    %847 = "tosa.const"() <{value = dense<[0, 2, 1, 3]> : tensor<4xi32>}> : () -> tensor<4xi32>
    %848 = tosa.transpose %846, %847 : (tensor<1x12x40x128xf32>, tensor<4xi32>) -> tensor<1x40x12x128xf32>
    %849 = tosa.reshape %848 {new_shape = array<i64: 1, 40, 1536>} : (tensor<1x40x12x128xf32>) -> tensor<1x40x1536xf32>
    %850 = "tosa.const"() <{value = dense<[1, 0]> : tensor<2xi32>}> : () -> tensor<2xi32>
    %851 = tosa.transpose %arg71, %850 : (tensor<1536x1536xf32>, tensor<2xi32>) -> tensor<1536x1536xf32>
    %852 = tosa.reshape %849 {new_shape = array<i64: 40, 1536>} : (tensor<1x40x1536xf32>) -> tensor<40x1536xf32>
    %cst_195 = arith.constant dense<0.000000e+00> : tensor<40x1536xf32>
    %853 = linalg.matmul {cast = #linalg.type_fn<cast_signed>} ins(%852, %851 : tensor<40x1536xf32>, tensor<1536x1536xf32>) outs(%cst_195 : tensor<40x1536xf32>) -> tensor<40x1536xf32>
    %854 = tosa.reshape %853 {new_shape = array<i64: 1, 40, 1536>} : (tensor<40x1536xf32>) -> tensor<1x40x1536xf32>
    %855 = tosa.add %748, %854 : (tensor<1x40x1536xf32>, tensor<1x40x1536xf32>) -> tensor<1x40x1536xf32>
    %856 = tensor.empty() : tensor<1x40x1536xf32>
    %c2_i32_196 = arith.constant 2 : i32
    %857 = linalg.generic {indexing_maps = [#map4, #map4], iterator_types = ["parallel", "parallel", "parallel"]} ins(%855 : tensor<1x40x1536xf32>) outs(%856 : tensor<1x40x1536xf32>) {
    ^bb0(%in: f32, %out: f32):
      %3964 = math.fpowi %in, %c2_i32_196 : f32, i32
      linalg.yield %3964 : f32
    } -> tensor<1x40x1536xf32>
    %858 = tosa.reduce_sum %857 {axis = 2 : i32} : (tensor<1x40x1536xf32>) -> tensor<1x40x1xf32>
    %859 = "tosa.const"() <{value = dense<1.536000e+03> : tensor<1xf32>}> : () -> tensor<1xf32>
    %860 = tosa.reciprocal %859 : (tensor<1xf32>) -> tensor<1xf32>
    %861 = tosa.reshape %860 {new_shape = array<i64: 1, 1, 1>} : (tensor<1xf32>) -> tensor<1x1x1xf32>
    %862 = tosa.mul %861, %858 : (tensor<1x1x1xf32>, tensor<1x40x1xf32>) -> tensor<1x40x1xf32>
    %863 = "tosa.const"() <{value = dense<9.99999997E-7> : tensor<1x40x1xf32>}> : () -> tensor<1x40x1xf32>
    %864 = tosa.add %862, %863 : (tensor<1x40x1xf32>, tensor<1x40x1xf32>) -> tensor<1x40x1xf32>
    %865 = tosa.rsqrt %864 : (tensor<1x40x1xf32>) -> tensor<1x40x1xf32>
    %866 = tosa.mul %855, %865 : (tensor<1x40x1536xf32>, tensor<1x40x1xf32>) -> tensor<1x40x1536xf32>
    %867 = tosa.reshape %arg72 {new_shape = array<i64: 1, 1, 1536>} : (tensor<1536xf32>) -> tensor<1x1x1536xf32>
    %868 = tosa.mul %867, %866 : (tensor<1x1x1536xf32>, tensor<1x40x1536xf32>) -> tensor<1x40x1536xf32>
    %869 = "tosa.const"() <{value = dense<[1, 0]> : tensor<2xi32>}> : () -> tensor<2xi32>
    %870 = tosa.transpose %arg73, %869 : (tensor<8960x1536xf32>, tensor<2xi32>) -> tensor<1536x8960xf32>
    %871 = tosa.reshape %868 {new_shape = array<i64: 40, 1536>} : (tensor<1x40x1536xf32>) -> tensor<40x1536xf32>
    %cst_197 = arith.constant dense<0.000000e+00> : tensor<40x8960xf32>
    %872 = linalg.matmul {cast = #linalg.type_fn<cast_signed>} ins(%871, %870 : tensor<40x1536xf32>, tensor<1536x8960xf32>) outs(%cst_197 : tensor<40x8960xf32>) -> tensor<40x8960xf32>
    %873 = tosa.reshape %872 {new_shape = array<i64: 1, 40, 8960>} : (tensor<40x8960xf32>) -> tensor<1x40x8960xf32>
    %874 = tosa.sigmoid %873 : (tensor<1x40x8960xf32>) -> tensor<1x40x8960xf32>
    %875 = tosa.mul %873, %874 : (tensor<1x40x8960xf32>, tensor<1x40x8960xf32>) -> tensor<1x40x8960xf32>
    %876 = "tosa.const"() <{value = dense<[1, 0]> : tensor<2xi32>}> : () -> tensor<2xi32>
    %877 = tosa.transpose %arg74, %876 : (tensor<8960x1536xf32>, tensor<2xi32>) -> tensor<1536x8960xf32>
    %878 = tosa.reshape %868 {new_shape = array<i64: 40, 1536>} : (tensor<1x40x1536xf32>) -> tensor<40x1536xf32>
    %cst_198 = arith.constant dense<0.000000e+00> : tensor<40x8960xf32>
    %879 = linalg.matmul {cast = #linalg.type_fn<cast_signed>} ins(%878, %877 : tensor<40x1536xf32>, tensor<1536x8960xf32>) outs(%cst_198 : tensor<40x8960xf32>) -> tensor<40x8960xf32>
    %880 = tosa.reshape %879 {new_shape = array<i64: 1, 40, 8960>} : (tensor<40x8960xf32>) -> tensor<1x40x8960xf32>
    %881 = tosa.mul %875, %880 : (tensor<1x40x8960xf32>, tensor<1x40x8960xf32>) -> tensor<1x40x8960xf32>
    %882 = "tosa.const"() <{value = dense<[1, 0]> : tensor<2xi32>}> : () -> tensor<2xi32>
    %883 = tosa.transpose %arg75, %882 : (tensor<1536x8960xf32>, tensor<2xi32>) -> tensor<8960x1536xf32>
    %884 = tosa.reshape %881 {new_shape = array<i64: 40, 8960>} : (tensor<1x40x8960xf32>) -> tensor<40x8960xf32>
    %cst_199 = arith.constant dense<0.000000e+00> : tensor<40x1536xf32>
    %885 = linalg.matmul {cast = #linalg.type_fn<cast_signed>} ins(%884, %883 : tensor<40x8960xf32>, tensor<8960x1536xf32>) outs(%cst_199 : tensor<40x1536xf32>) -> tensor<40x1536xf32>
    %886 = tosa.reshape %885 {new_shape = array<i64: 1, 40, 1536>} : (tensor<40x1536xf32>) -> tensor<1x40x1536xf32>
    %887 = tosa.add %855, %886 : (tensor<1x40x1536xf32>, tensor<1x40x1536xf32>) -> tensor<1x40x1536xf32>
    %888 = tensor.empty() : tensor<1x40x1536xf32>
    %c2_i32_200 = arith.constant 2 : i32
    %889 = linalg.generic {indexing_maps = [#map4, #map4], iterator_types = ["parallel", "parallel", "parallel"]} ins(%887 : tensor<1x40x1536xf32>) outs(%888 : tensor<1x40x1536xf32>) {
    ^bb0(%in: f32, %out: f32):
      %3964 = math.fpowi %in, %c2_i32_200 : f32, i32
      linalg.yield %3964 : f32
    } -> tensor<1x40x1536xf32>
    %890 = tosa.reduce_sum %889 {axis = 2 : i32} : (tensor<1x40x1536xf32>) -> tensor<1x40x1xf32>
    %891 = "tosa.const"() <{value = dense<1.536000e+03> : tensor<1xf32>}> : () -> tensor<1xf32>
    %892 = tosa.reciprocal %891 : (tensor<1xf32>) -> tensor<1xf32>
    %893 = tosa.reshape %892 {new_shape = array<i64: 1, 1, 1>} : (tensor<1xf32>) -> tensor<1x1x1xf32>
    %894 = tosa.mul %893, %890 : (tensor<1x1x1xf32>, tensor<1x40x1xf32>) -> tensor<1x40x1xf32>
    %895 = "tosa.const"() <{value = dense<9.99999997E-7> : tensor<1x40x1xf32>}> : () -> tensor<1x40x1xf32>
    %896 = tosa.add %894, %895 : (tensor<1x40x1xf32>, tensor<1x40x1xf32>) -> tensor<1x40x1xf32>
    %897 = tosa.rsqrt %896 : (tensor<1x40x1xf32>) -> tensor<1x40x1xf32>
    %898 = tosa.mul %887, %897 : (tensor<1x40x1536xf32>, tensor<1x40x1xf32>) -> tensor<1x40x1536xf32>
    %899 = tosa.reshape %arg76 {new_shape = array<i64: 1, 1, 1536>} : (tensor<1536xf32>) -> tensor<1x1x1536xf32>
    %900 = tosa.mul %899, %898 : (tensor<1x1x1536xf32>, tensor<1x40x1536xf32>) -> tensor<1x40x1536xf32>
    %901 = tosa.reshape %900 {new_shape = array<i64: 40, 1536>} : (tensor<1x40x1536xf32>) -> tensor<40x1536xf32>
    %902 = "tosa.const"() <{value = dense<[1, 0]> : tensor<2xi32>}> : () -> tensor<2xi32>
    %903 = tosa.transpose %arg77, %902 : (tensor<1536x1536xf32>, tensor<2xi32>) -> tensor<1536x1536xf32>
    %904 = tosa.reshape %901 {new_shape = array<i64: 1, 40, 1536>} : (tensor<40x1536xf32>) -> tensor<1x40x1536xf32>
    %905 = tosa.reshape %903 {new_shape = array<i64: 1, 1536, 1536>} : (tensor<1536x1536xf32>) -> tensor<1x1536x1536xf32>
    %906 = tosa.matmul %904, %905 : (tensor<1x40x1536xf32>, tensor<1x1536x1536xf32>) -> tensor<1x40x1536xf32>
    %907 = tosa.reshape %906 {new_shape = array<i64: 40, 1536>} : (tensor<1x40x1536xf32>) -> tensor<40x1536xf32>
    %908 = tosa.reshape %arg78 {new_shape = array<i64: 1, 1536>} : (tensor<1536xf32>) -> tensor<1x1536xf32>
    %909 = tosa.add %908, %907 : (tensor<1x1536xf32>, tensor<40x1536xf32>) -> tensor<40x1536xf32>
    %910 = tosa.reshape %909 {new_shape = array<i64: 1, 40, 1536>} : (tensor<40x1536xf32>) -> tensor<1x40x1536xf32>
    %911 = tosa.reshape %900 {new_shape = array<i64: 40, 1536>} : (tensor<1x40x1536xf32>) -> tensor<40x1536xf32>
    %912 = "tosa.const"() <{value = dense<[1, 0]> : tensor<2xi32>}> : () -> tensor<2xi32>
    %913 = tosa.transpose %arg79, %912 : (tensor<256x1536xf32>, tensor<2xi32>) -> tensor<1536x256xf32>
    %914 = tosa.reshape %911 {new_shape = array<i64: 1, 40, 1536>} : (tensor<40x1536xf32>) -> tensor<1x40x1536xf32>
    %915 = tosa.reshape %913 {new_shape = array<i64: 1, 1536, 256>} : (tensor<1536x256xf32>) -> tensor<1x1536x256xf32>
    %916 = tosa.matmul %914, %915 : (tensor<1x40x1536xf32>, tensor<1x1536x256xf32>) -> tensor<1x40x256xf32>
    %917 = tosa.reshape %916 {new_shape = array<i64: 40, 256>} : (tensor<1x40x256xf32>) -> tensor<40x256xf32>
    %918 = tosa.reshape %arg80 {new_shape = array<i64: 1, 256>} : (tensor<256xf32>) -> tensor<1x256xf32>
    %919 = tosa.add %918, %917 : (tensor<1x256xf32>, tensor<40x256xf32>) -> tensor<40x256xf32>
    %920 = tosa.reshape %919 {new_shape = array<i64: 1, 40, 256>} : (tensor<40x256xf32>) -> tensor<1x40x256xf32>
    %921 = tosa.reshape %900 {new_shape = array<i64: 40, 1536>} : (tensor<1x40x1536xf32>) -> tensor<40x1536xf32>
    %922 = "tosa.const"() <{value = dense<[1, 0]> : tensor<2xi32>}> : () -> tensor<2xi32>
    %923 = tosa.transpose %arg81, %922 : (tensor<256x1536xf32>, tensor<2xi32>) -> tensor<1536x256xf32>
    %924 = tosa.reshape %921 {new_shape = array<i64: 1, 40, 1536>} : (tensor<40x1536xf32>) -> tensor<1x40x1536xf32>
    %925 = tosa.reshape %923 {new_shape = array<i64: 1, 1536, 256>} : (tensor<1536x256xf32>) -> tensor<1x1536x256xf32>
    %926 = tosa.matmul %924, %925 : (tensor<1x40x1536xf32>, tensor<1x1536x256xf32>) -> tensor<1x40x256xf32>
    %927 = tosa.reshape %926 {new_shape = array<i64: 40, 256>} : (tensor<1x40x256xf32>) -> tensor<40x256xf32>
    %928 = tosa.reshape %arg82 {new_shape = array<i64: 1, 256>} : (tensor<256xf32>) -> tensor<1x256xf32>
    %929 = tosa.add %928, %927 : (tensor<1x256xf32>, tensor<40x256xf32>) -> tensor<40x256xf32>
    %930 = tosa.reshape %929 {new_shape = array<i64: 1, 40, 256>} : (tensor<40x256xf32>) -> tensor<1x40x256xf32>
    %931 = tosa.reshape %910 {new_shape = array<i64: 1, 40, 12, 128>} : (tensor<1x40x1536xf32>) -> tensor<1x40x12x128xf32>
    %932 = "tosa.const"() <{value = dense<[0, 2, 1, 3]> : tensor<4xi32>}> : () -> tensor<4xi32>
    %933 = tosa.transpose %931, %932 : (tensor<1x40x12x128xf32>, tensor<4xi32>) -> tensor<1x12x40x128xf32>
    %934 = tosa.reshape %920 {new_shape = array<i64: 1, 40, 2, 128>} : (tensor<1x40x256xf32>) -> tensor<1x40x2x128xf32>
    %935 = "tosa.const"() <{value = dense<[0, 2, 1, 3]> : tensor<4xi32>}> : () -> tensor<4xi32>
    %936 = tosa.transpose %934, %935 : (tensor<1x40x2x128xf32>, tensor<4xi32>) -> tensor<1x2x40x128xf32>
    %937 = tosa.reshape %930 {new_shape = array<i64: 1, 40, 2, 128>} : (tensor<1x40x256xf32>) -> tensor<1x40x2x128xf32>
    %938 = "tosa.const"() <{value = dense<[0, 2, 1, 3]> : tensor<4xi32>}> : () -> tensor<4xi32>
    %939 = tosa.transpose %937, %938 : (tensor<1x40x2x128xf32>, tensor<4xi32>) -> tensor<1x2x40x128xf32>
    %940 = tosa.reshape %51 {new_shape = array<i64: 1, 1, 40, 128>} : (tensor<1x40x128xf32>) -> tensor<1x1x40x128xf32>
    %941 = tosa.reshape %53 {new_shape = array<i64: 1, 1, 40, 128>} : (tensor<1x40x128xf32>) -> tensor<1x1x40x128xf32>
    %942 = tosa.mul %933, %940 : (tensor<1x12x40x128xf32>, tensor<1x1x40x128xf32>) -> tensor<1x12x40x128xf32>
    %extracted_slice_201 = tensor.extract_slice %933[0, 0, 0, 0] [1, 12, 40, 64] [1, 1, 1, 1] : tensor<1x12x40x128xf32> to tensor<1x12x40x64xf32>
    %extracted_slice_202 = tensor.extract_slice %933[0, 0, 0, 64] [1, 12, 40, 64] [1, 1, 1, 1] : tensor<1x12x40x128xf32> to tensor<1x12x40x64xf32>
    %943 = tensor.empty() : tensor<1x12x40x64xf32>
    %944 = linalg.negf ins(%extracted_slice_202 : tensor<1x12x40x64xf32>) outs(%943 : tensor<1x12x40x64xf32>) -> tensor<1x12x40x64xf32>
    %945 = tensor.empty() : tensor<1x12x40x128xf32>
    %inserted_slice_203 = tensor.insert_slice %944 into %945[0, 0, 0, 0] [1, 12, 40, 64] [1, 1, 1, 1] : tensor<1x12x40x64xf32> into tensor<1x12x40x128xf32>
    %inserted_slice_204 = tensor.insert_slice %extracted_slice_201 into %inserted_slice_203[0, 0, 0, 64] [1, 12, 40, 64] [1, 1, 1, 1] : tensor<1x12x40x64xf32> into tensor<1x12x40x128xf32>
    %946 = tosa.mul %inserted_slice_204, %941 : (tensor<1x12x40x128xf32>, tensor<1x1x40x128xf32>) -> tensor<1x12x40x128xf32>
    %947 = tosa.add %942, %946 : (tensor<1x12x40x128xf32>, tensor<1x12x40x128xf32>) -> tensor<1x12x40x128xf32>
    %948 = tosa.mul %936, %940 : (tensor<1x2x40x128xf32>, tensor<1x1x40x128xf32>) -> tensor<1x2x40x128xf32>
    %extracted_slice_205 = tensor.extract_slice %936[0, 0, 0, 0] [1, 2, 40, 64] [1, 1, 1, 1] : tensor<1x2x40x128xf32> to tensor<1x2x40x64xf32>
    %extracted_slice_206 = tensor.extract_slice %936[0, 0, 0, 64] [1, 2, 40, 64] [1, 1, 1, 1] : tensor<1x2x40x128xf32> to tensor<1x2x40x64xf32>
    %949 = tensor.empty() : tensor<1x2x40x64xf32>
    %950 = linalg.negf ins(%extracted_slice_206 : tensor<1x2x40x64xf32>) outs(%949 : tensor<1x2x40x64xf32>) -> tensor<1x2x40x64xf32>
    %951 = tensor.empty() : tensor<1x2x40x128xf32>
    %inserted_slice_207 = tensor.insert_slice %950 into %951[0, 0, 0, 0] [1, 2, 40, 64] [1, 1, 1, 1] : tensor<1x2x40x64xf32> into tensor<1x2x40x128xf32>
    %inserted_slice_208 = tensor.insert_slice %extracted_slice_205 into %inserted_slice_207[0, 0, 0, 64] [1, 2, 40, 64] [1, 1, 1, 1] : tensor<1x2x40x64xf32> into tensor<1x2x40x128xf32>
    %952 = tosa.mul %inserted_slice_208, %941 : (tensor<1x2x40x128xf32>, tensor<1x1x40x128xf32>) -> tensor<1x2x40x128xf32>
    %953 = tosa.add %948, %952 : (tensor<1x2x40x128xf32>, tensor<1x2x40x128xf32>) -> tensor<1x2x40x128xf32>
    %extracted_slice_209 = tensor.extract_slice %953[0, 0, 0, 0] [1, 2, 40, 128] [1, 1, 1, 1] : tensor<1x2x40x128xf32> to tensor<1x2x40x128xf32>
    %extracted_slice_210 = tensor.extract_slice %extracted_slice_209[0, 0, 0, 0] [1, 2, 40, 128] [1, 1, 1, 1] : tensor<1x2x40x128xf32> to tensor<1x2x40x128xf32>
    %954 = tosa.reshape %extracted_slice_210 {new_shape = array<i64: 1, 2, 1, 40, 128>} : (tensor<1x2x40x128xf32>) -> tensor<1x2x1x40x128xf32>
    %extracted_slice_211 = tensor.extract_slice %954[0, 0, 0, 0, 0] [1, 2, 1, 40, 128] [1, 1, 1, 1, 1] : tensor<1x2x1x40x128xf32> to tensor<1x2x1x40x128xf32>
    %extracted_slice_212 = tensor.extract_slice %extracted_slice_211[0, 0, 0, 0, 0] [1, 2, 1, 40, 128] [1, 1, 1, 1, 1] : tensor<1x2x1x40x128xf32> to tensor<1x2x1x40x128xf32>
    %955 = "tosa.const"() <{value = dense<0.000000e+00> : tensor<1x2x6x40x128xf32>}> : () -> tensor<1x2x6x40x128xf32>
    %956 = tosa.add %extracted_slice_212, %955 : (tensor<1x2x1x40x128xf32>, tensor<1x2x6x40x128xf32>) -> tensor<1x2x6x40x128xf32>
    %957 = tosa.identity %956 : (tensor<1x2x6x40x128xf32>) -> tensor<1x2x6x40x128xf32>
    %958 = tosa.reshape %957 {new_shape = array<i64: 1, 12, 40, 128>} : (tensor<1x2x6x40x128xf32>) -> tensor<1x12x40x128xf32>
    %extracted_slice_213 = tensor.extract_slice %939[0, 0, 0, 0] [1, 2, 40, 128] [1, 1, 1, 1] : tensor<1x2x40x128xf32> to tensor<1x2x40x128xf32>
    %extracted_slice_214 = tensor.extract_slice %extracted_slice_213[0, 0, 0, 0] [1, 2, 40, 128] [1, 1, 1, 1] : tensor<1x2x40x128xf32> to tensor<1x2x40x128xf32>
    %959 = tosa.reshape %extracted_slice_214 {new_shape = array<i64: 1, 2, 1, 40, 128>} : (tensor<1x2x40x128xf32>) -> tensor<1x2x1x40x128xf32>
    %extracted_slice_215 = tensor.extract_slice %959[0, 0, 0, 0, 0] [1, 2, 1, 40, 128] [1, 1, 1, 1, 1] : tensor<1x2x1x40x128xf32> to tensor<1x2x1x40x128xf32>
    %extracted_slice_216 = tensor.extract_slice %extracted_slice_215[0, 0, 0, 0, 0] [1, 2, 1, 40, 128] [1, 1, 1, 1, 1] : tensor<1x2x1x40x128xf32> to tensor<1x2x1x40x128xf32>
    %960 = "tosa.const"() <{value = dense<0.000000e+00> : tensor<1x2x6x40x128xf32>}> : () -> tensor<1x2x6x40x128xf32>
    %961 = tosa.add %extracted_slice_216, %960 : (tensor<1x2x1x40x128xf32>, tensor<1x2x6x40x128xf32>) -> tensor<1x2x6x40x128xf32>
    %962 = tosa.identity %961 : (tensor<1x2x6x40x128xf32>) -> tensor<1x2x6x40x128xf32>
    %963 = tosa.reshape %962 {new_shape = array<i64: 1, 12, 40, 128>} : (tensor<1x2x6x40x128xf32>) -> tensor<1x12x40x128xf32>
    %extracted_slice_217 = tensor.extract_slice %inserted_slice_21[0, 0, 0, 0] [1, 1, 40, 40] [1, 1, 1, 1] : tensor<1x1x40x40xf32> to tensor<1x1x40x40xf32>
    %extracted_slice_218 = tensor.extract_slice %extracted_slice_217[0, 0, 0, 0] [1, 1, 40, 40] [1, 1, 1, 1] : tensor<1x1x40x40xf32> to tensor<1x1x40x40xf32>
    %extracted_slice_219 = tensor.extract_slice %extracted_slice_218[0, 0, 0, 0] [1, 1, 40, 40] [1, 1, 1, 1] : tensor<1x1x40x40xf32> to tensor<1x1x40x40xf32>
    %cst_220 = arith.constant 0.000000e+00 : f32
    %splat_221 = tensor.splat %cst_220 : tensor<40x40xf32>
    %964 = tosa.reshape %extracted_slice_219 {new_shape = array<i64: 40, 40>} : (tensor<1x1x40x40xf32>) -> tensor<40x40xf32>
    %965 = tosa.add %splat_221, %964 : (tensor<40x40xf32>, tensor<40x40xf32>) -> tensor<40x40xf32>
    %966 = "tosa.const"() <{value = dense<[0, 1, 3, 2]> : tensor<4xi32>}> : () -> tensor<4xi32>
    %967 = tosa.transpose %958, %966 : (tensor<1x12x40x128xf32>, tensor<4xi32>) -> tensor<1x12x128x40xf32>
…
    %extracted_slice_766 = tensor.extract_slice %3600[0, 0, 0, 0, 0] [1, 2, 1, 40, 128] [1, 1, 1, 1, 1] : tensor<1x2x1x40x128xf32> to tensor<1x2x1x40x128xf32>
    %extracted_slice_767 = tensor.extract_slice %extracted_slice_766[0, 0, 0, 0, 0] [1, 2, 1, 40, 128] [1, 1, 1, 1, 1] : tensor<1x2x1x40x128xf32> to tensor<1x2x1x40x128xf32>
    %3601 = "tosa.const"() <{value = dense<0.000000e+00> : tensor<1x2x6x40x128xf32>}> : () -> tensor<1x2x6x40x128xf32>
    %3602 = tosa.add %extracted_slice_767, %3601 : (tensor<1x2x1x40x128xf32>, tensor<1x2x6x40x128xf32>) -> tensor<1x2x6x40x128xf32>
    %3603 = tosa.identity %3602 : (tensor<1x2x6x40x128xf32>) -> tensor<1x2x6x40x128xf32>
    %3604 = tosa.reshape %3603 {new_shape = array<i64: 1, 12, 40, 128>} : (tensor<1x2x6x40x128xf32>) -> tensor<1x12x40x128xf32>
    %extracted_slice_768 = tensor.extract_slice %inserted_slice_21[0, 0, 0, 0] [1, 1, 40, 40] [1, 1, 1, 1] : tensor<1x1x40x40xf32> to tensor<1x1x40x40xf32>
    %extracted_slice_769 = tensor.extract_slice %extracted_slice_768[0, 0, 0, 0] [1, 1, 40, 40] [1, 1, 1, 1] : tensor<1x1x40x40xf32> to tensor<1x1x40x40xf32>
    %extracted_slice_770 = tensor.extract_slice %extracted_slice_769[0, 0, 0, 0] [1, 1, 40, 40] [1, 1, 1, 1] : tensor<1x1x40x40xf32> to tensor<1x1x40x40xf32>
    %cst_771 = arith.constant 0.000000e+00 : f32
    %splat_772 = tensor.splat %cst_771 : tensor<40x40xf32>
    %3605 = tosa.reshape %extracted_slice_770 {new_shape = array<i64: 40, 40>} : (tensor<1x1x40x40xf32>) -> tensor<40x40xf32>
    %3606 = tosa.add %splat_772, %3605 : (tensor<40x40xf32>, tensor<40x40xf32>) -> tensor<40x40xf32>
    %3607 = "tosa.const"() <{value = dense<[0, 1, 3, 2]> : tensor<4xi32>}> : () -> tensor<4xi32>
    %3608 = tosa.transpose %3599, %3607 : (tensor<1x12x40x128xf32>, tensor<4xi32>) -> tensor<1x12x128x40xf32>
    %3609 = tosa.reshape %3588 {new_shape = array<i64: 12, 40, 128>} : (tensor<1x12x40x128xf32>) -> tensor<12x40x128xf32>
    %3610 = tosa.reshape %3608 {new_shape = array<i64: 12, 128, 40>} : (tensor<1x12x128x40xf32>) -> tensor<12x128x40xf32>
    %3611 = tosa.matmul %3609, %3610 : (tensor<12x40x128xf32>, tensor<12x128x40xf32>) -> tensor<12x40x40xf32>
    %cst_773 = arith.constant 0.0883883461 : f32
    %splat_774 = tensor.splat %cst_773 : tensor<12x40x40xf32>
    %3612 = tosa.mul %3611, %splat_774 : (tensor<12x40x40xf32>, tensor<12x40x40xf32>) -> tensor<12x40x40xf32>
    %3613 = tosa.reshape %3606 {new_shape = array<i64: 1, 40, 40>} : (tensor<40x40xf32>) -> tensor<1x40x40xf32>
    %3614 = tosa.add %3612, %3613 : (tensor<12x40x40xf32>, tensor<1x40x40xf32>) -> tensor<12x40x40xf32>
    %3615 = tosa.reduce_max %3614 {axis = 2 : i32} : (tensor<12x40x40xf32>) -> tensor<12x40x1xf32>
    %3616 = tosa.sub %3614, %3615 : (tensor<12x40x40xf32>, tensor<12x40x1xf32>) -> tensor<12x40x40xf32>
    %3617 = math.exp %3616 : tensor<12x40x40xf32>
    %3618 = tosa.reduce_sum %3617 {axis = 2 : i32} : (tensor<12x40x40xf32>) -> tensor<12x40x1xf32>
    %3619 = tosa.log %3618 : (tensor<12x40x1xf32>) -> tensor<12x40x1xf32>
    %3620 = tosa.add %3615, %3619 : (tensor<12x40x1xf32>, tensor<12x40x1xf32>) -> tensor<12x40x1xf32>
    %3621 = tosa.sub %3614, %3620 : (tensor<12x40x40xf32>, tensor<12x40x1xf32>) -> tensor<12x40x40xf32>
    %3622 = math.exp %3621 : tensor<12x40x40xf32>
    %3623 = tosa.reshape %3620 {new_shape = array<i64: 1, 12, 40>} : (tensor<12x40x1xf32>) -> tensor<1x12x40xf32>
    %3624 = tosa.reshape %3604 {new_shape = array<i64: 12, 40, 128>} : (tensor<1x12x40x128xf32>) -> tensor<12x40x128xf32>
    %3625 = tosa.matmul %3622, %3624 : (tensor<12x40x40xf32>, tensor<12x40x128xf32>) -> tensor<12x40x128xf32>
    %3626 = tosa.reshape %3625 {new_shape = array<i64: 1, 12, 40, 128>} : (tensor<12x40x128xf32>) -> tensor<1x12x40x128xf32>
    %3627 = "tosa.const"() <{value = dense<[0, 2, 1, 3]> : tensor<4xi32>}> : () -> tensor<4xi32>
    %3628 = tosa.transpose %3626, %3627 : (tensor<1x12x40x128xf32>, tensor<4xi32>) -> tensor<1x40x12x128xf32>
    %3629 = tosa.reshape %3628 {new_shape = array<i64: 1, 40, 1536>} : (tensor<1x40x12x128xf32>) -> tensor<1x40x1536xf32>
    %3630 = "tosa.const"() <{value = dense<[1, 0]> : tensor<2xi32>}> : () -> tensor<2xi32>
    %3631 = tosa.transpose %arg311, %3630 : (tensor<1536x1536xf32>, tensor<2xi32>) -> tensor<1536x1536xf32>
    %3632 = tosa.reshape %3629 {new_shape = array<i64: 40, 1536>} : (tensor<1x40x1536xf32>) -> tensor<40x1536xf32>
    %cst_775 = arith.constant dense<0.000000e+00> : tensor<40x1536xf32>
    %3633 = linalg.matmul {cast = #linalg.type_fn<cast_signed>} ins(%3632, %3631 : tensor<40x1536xf32>, tensor<1536x1536xf32>) outs(%cst_775 : tensor<40x1536xf32>) -> tensor<40x1536xf32>
    %3634 = tosa.reshape %3633 {new_shape = array<i64: 1, 40, 1536>} : (tensor<40x1536xf32>) -> tensor<1x40x1536xf32>
    %3635 = tosa.add %3528, %3634 : (tensor<1x40x1536xf32>, tensor<1x40x1536xf32>) -> tensor<1x40x1536xf32>
    %3636 = tensor.empty() : tensor<1x40x1536xf32>
    %c2_i32_776 = arith.constant 2 : i32
    %3637 = linalg.generic {indexing_maps = [#map4, #map4], iterator_types = ["parallel", "parallel", "parallel"]} ins(%3635 : tensor<1x40x1536xf32>) outs(%3636 : tensor<1x40x1536xf32>) {
    ^bb0(%in: f32, %out: f32):
      %3964 = math.fpowi %in, %c2_i32_776 : f32, i32
      linalg.yield %3964 : f32
    } -> tensor<1x40x1536xf32>
    %3638 = tosa.reduce_sum %3637 {axis = 2 : i32} : (tensor<1x40x1536xf32>) -> tensor<1x40x1xf32>
    %3639 = "tosa.const"() <{value = dense<1.536000e+03> : tensor<1xf32>}> : () -> tensor<1xf32>
    %3640 = tosa.reciprocal %3639 : (tensor<1xf32>) -> tensor<1xf32>
    %3641 = tosa.reshape %3640 {new_shape = array<i64: 1, 1, 1>} : (tensor<1xf32>) -> tensor<1x1x1xf32>
    %3642 = tosa.mul %3641, %3638 : (tensor<1x1x1xf32>, tensor<1x40x1xf32>) -> tensor<1x40x1xf32>
    %3643 = "tosa.const"() <{value = dense<9.99999997E-7> : tensor<1x40x1xf32>}> : () -> tensor<1x40x1xf32>
    %3644 = tosa.add %3642, %3643 : (tensor<1x40x1xf32>, tensor<1x40x1xf32>) -> tensor<1x40x1xf32>
    %3645 = tosa.rsqrt %3644 : (tensor<1x40x1xf32>) -> tensor<1x40x1xf32>
    %3646 = tosa.mul %3635, %3645 : (tensor<1x40x1536xf32>, tensor<1x40x1xf32>) -> tensor<1x40x1536xf32>
    %3647 = tosa.reshape %arg312 {new_shape = array<i64: 1, 1, 1536>} : (tensor<1536xf32>) -> tensor<1x1x1536xf32>
    %3648 = tosa.mul %3647, %3646 : (tensor<1x1x1536xf32>, tensor<1x40x1536xf32>) -> tensor<1x40x1536xf32>
    %3649 = "tosa.const"() <{value = dense<[1, 0]> : tensor<2xi32>}> : () -> tensor<2xi32>
    %3650 = tosa.transpose %arg313, %3649 : (tensor<8960x1536xf32>, tensor<2xi32>) -> tensor<1536x8960xf32>
    %3651 = tosa.reshape %3648 {new_shape = array<i64: 40, 1536>} : (tensor<1x40x1536xf32>) -> tensor<40x1536xf32>
    %cst_777 = arith.constant dense<0.000000e+00> : tensor<40x8960xf32>
    %3652 = linalg.matmul {cast = #linalg.type_fn<cast_signed>} ins(%3651, %3650 : tensor<40x1536xf32>, tensor<1536x8960xf32>) outs(%cst_777 : tensor<40x8960xf32>) -> tensor<40x8960xf32>
    %3653 = tosa.reshape %3652 {new_shape = array<i64: 1, 40, 8960>} : (tensor<40x8960xf32>) -> tensor<1x40x8960xf32>
    %3654 = tosa.sigmoid %3653 : (tensor<1x40x8960xf32>) -> tensor<1x40x8960xf32>
    %3655 = tosa.mul %3653, %3654 : (tensor<1x40x8960xf32>, tensor<1x40x8960xf32>) -> tensor<1x40x8960xf32>
    %3656 = "tosa.const"() <{value = dense<[1, 0]> : tensor<2xi32>}> : () -> tensor<2xi32>
    %3657 = tosa.transpose %arg314, %3656 : (tensor<8960x1536xf32>, tensor<2xi32>) -> tensor<1536x8960xf32>
    %3658 = tosa.reshape %3648 {new_shape = array<i64: 40, 1536>} : (tensor<1x40x1536xf32>) -> tensor<40x1536xf32>
    %cst_778 = arith.constant dense<0.000000e+00> : tensor<40x8960xf32>
    %3659 = linalg.matmul {cast = #linalg.type_fn<cast_signed>} ins(%3658, %3657 : tensor<40x1536xf32>, tensor<1536x8960xf32>) outs(%cst_778 : tensor<40x8960xf32>) -> tensor<40x8960xf32>
    %3660 = tosa.reshape %3659 {new_shape = array<i64: 1, 40, 8960>} : (tensor<40x8960xf32>) -> tensor<1x40x8960xf32>
    %3661 = tosa.mul %3655, %3660 : (tensor<1x40x8960xf32>, tensor<1x40x8960xf32>) -> tensor<1x40x8960xf32>
    %3662 = "tosa.const"() <{value = dense<[1, 0]> : tensor<2xi32>}> : () -> tensor<2xi32>
    %3663 = tosa.transpose %arg315, %3662 : (tensor<1536x8960xf32>, tensor<2xi32>) -> tensor<8960x1536xf32>
    %3664 = tosa.reshape %3661 {new_shape = array<i64: 40, 8960>} : (tensor<1x40x8960xf32>) -> tensor<40x8960xf32>
    %cst_779 = arith.constant dense<0.000000e+00> : tensor<40x1536xf32>
    %3665 = linalg.matmul {cast = #linalg.type_fn<cast_signed>} ins(%3664, %3663 : tensor<40x8960xf32>, tensor<8960x1536xf32>) outs(%cst_779 : tensor<40x1536xf32>) -> tensor<40x1536xf32>
    %3666 = tosa.reshape %3665 {new_shape = array<i64: 1, 40, 1536>} : (tensor<40x1536xf32>) -> tensor<1x40x1536xf32>
    %3667 = tosa.add %3635, %3666 : (tensor<1x40x1536xf32>, tensor<1x40x1536xf32>) -> tensor<1x40x1536xf32>
    %3668 = tensor.empty() : tensor<1x40x1536xf32>
    %c2_i32_780 = arith.constant 2 : i32
    %3669 = linalg.generic {indexing_maps = [#map4, #map4], iterator_types = ["parallel", "parallel", "parallel"]} ins(%3667 : tensor<1x40x1536xf32>) outs(%3668 : tensor<1x40x1536xf32>) {
    ^bb0(%in: f32, %out: f32):
      %3964 = math.fpowi %in, %c2_i32_780 : f32, i32
      linalg.yield %3964 : f32
    } -> tensor<1x40x1536xf32>
    %3670 = tosa.reduce_sum %3669 {axis = 2 : i32} : (tensor<1x40x1536xf32>) -> tensor<1x40x1xf32>
    %3671 = "tosa.const"() <{value = dense<1.536000e+03> : tensor<1xf32>}> : () -> tensor<1xf32>
    %3672 = tosa.reciprocal %3671 : (tensor<1xf32>) -> tensor<1xf32>
    %3673 = tosa.reshape %3672 {new_shape = array<i64: 1, 1, 1>} : (tensor<1xf32>) -> tensor<1x1x1xf32>
    %3674 = tosa.mul %3673, %3670 : (tensor<1x1x1xf32>, tensor<1x40x1xf32>) -> tensor<1x40x1xf32>
    %3675 = "tosa.const"() <{value = dense<9.99999997E-7> : tensor<1x40x1xf32>}> : () -> tensor<1x40x1xf32>
    %3676 = tosa.add %3674, %3675 : (tensor<1x40x1xf32>, tensor<1x40x1xf32>) -> tensor<1x40x1xf32>
    %3677 = tosa.rsqrt %3676 : (tensor<1x40x1xf32>) -> tensor<1x40x1xf32>
    %3678 = tosa.mul %3667, %3677 : (tensor<1x40x1536xf32>, tensor<1x40x1xf32>) -> tensor<1x40x1536xf32>
    %3679 = tosa.reshape %arg316 {new_shape = array<i64: 1, 1, 1536>} : (tensor<1536xf32>) -> tensor<1x1x1536xf32>
    %3680 = tosa.mul %3679, %3678 : (tensor<1x1x1536xf32>, tensor<1x40x1536xf32>) -> tensor<1x40x1536xf32>
    %3681 = tosa.reshape %3680 {new_shape = array<i64: 40, 1536>} : (tensor<1x40x1536xf32>) -> tensor<40x1536xf32>
    %3682 = "tosa.const"() <{value = dense<[1, 0]> : tensor<2xi32>}> : () -> tensor<2xi32>
    %3683 = tosa.transpose %arg317, %3682 : (tensor<1536x1536xf32>, tensor<2xi32>) -> tensor<1536x1536xf32>
    %3684 = tosa.reshape %3681 {new_shape = array<i64: 1, 40, 1536>} : (tensor<40x1536xf32>) -> tensor<1x40x1536xf32>
    %3685 = tosa.reshape %3683 {new_shape = array<i64: 1, 1536, 1536>} : (tensor<1536x1536xf32>) -> tensor<1x1536x1536xf32>
    %3686 = tosa.matmul %3684, %3685 : (tensor<1x40x1536xf32>, tensor<1x1536x1536xf32>) -> tensor<1x40x1536xf32>
    %3687 = tosa.reshape %3686 {new_shape = array<i64: 40, 1536>} : (tensor<1x40x1536xf32>) -> tensor<40x1536xf32>
    %3688 = tosa.reshape %arg318 {new_shape = array<i64: 1, 1536>} : (tensor<1536xf32>) -> tensor<1x1536xf32>
    %3689 = tosa.add %3688, %3687 : (tensor<1x1536xf32>, tensor<40x1536xf32>) -> tensor<40x1536xf32>
    %3690 = tosa.reshape %3689 {new_shape = array<i64: 1, 40, 1536>} : (tensor<40x1536xf32>) -> tensor<1x40x1536xf32>
    %3691 = tosa.reshape %3680 {new_shape = array<i64: 40, 1536>} : (tensor<1x40x1536xf32>) -> tensor<40x1536xf32>
    %3692 = "tosa.const"() <{value = dense<[1, 0]> : tensor<2xi32>}> : () -> tensor<2xi32>
    %3693 = tosa.transpose %arg319, %3692 : (tensor<256x1536xf32>, tensor<2xi32>) -> tensor<1536x256xf32>
    %3694 = tosa.reshape %3691 {new_shape = array<i64: 1, 40, 1536>} : (tensor<40x1536xf32>) -> tensor<1x40x1536xf32>
    %3695 = tosa.reshape %3693 {new_shape = array<i64: 1, 1536, 256>} : (tensor<1536x256xf32>) -> tensor<1x1536x256xf32>
    %3696 = tosa.matmul %3694, %3695 : (tensor<1x40x1536xf32>, tensor<1x1536x256xf32>) -> tensor<1x40x256xf32>
    %3697 = tosa.reshape %3696 {new_shape = array<i64: 40, 256>} : (tensor<1x40x256xf32>) -> tensor<40x256xf32>
    %3698 = tosa.reshape %arg320 {new_shape = array<i64: 1, 256>} : (tensor<256xf32>) -> tensor<1x256xf32>
    %3699 = tosa.add %3698, %3697 : (tensor<1x256xf32>, tensor<40x256xf32>) -> tensor<40x256xf32>
    %3700 = tosa.reshape %3699 {new_shape = array<i64: 1, 40, 256>} : (tensor<40x256xf32>) -> tensor<1x40x256xf32>
    %3701 = tosa.reshape %3680 {new_shape = array<i64: 40, 1536>} : (tensor<1x40x1536xf32>) -> tensor<40x1536xf32>
    %3702 = "tosa.const"() <{value = dense<[1, 0]> : tensor<2xi32>}> : () -> tensor<2xi32>
    %3703 = tosa.transpose %arg321, %3702 : (tensor<256x1536xf32>, tensor<2xi32>) -> tensor<1536x256xf32>
    %3704 = tosa.reshape %3701 {new_shape = array<i64: 1, 40, 1536>} : (tensor<40x1536xf32>) -> tensor<1x40x1536xf32>
    %3705 = tosa.reshape %3703 {new_shape = array<i64: 1, 1536, 256>} : (tensor<1536x256xf32>) -> tensor<1x1536x256xf32>
    %3706 = tosa.matmul %3704, %3705 : (tensor<1x40x1536xf32>, tensor<1x1536x256xf32>) -> tensor<1x40x256xf32>
    %3707 = tosa.reshape %3706 {new_shape = array<i64: 40, 256>} : (tensor<1x40x256xf32>) -> tensor<40x256xf32>
    %3708 = tosa.reshape %arg322 {new_shape = array<i64: 1, 256>} : (tensor<256xf32>) -> tensor<1x256xf32>
    %3709 = tosa.add %3708, %3707 : (tensor<1x256xf32>, tensor<40x256xf32>) -> tensor<40x256xf32>
    %3710 = tosa.reshape %3709 {new_shape = array<i64: 1, 40, 256>} : (tensor<40x256xf32>) -> tensor<1x40x256xf32>
    %3711 = tosa.reshape %3690 {new_shape = array<i64: 1, 40, 12, 128>} : (tensor<1x40x1536xf32>) -> tensor<1x40x12x128xf32>
    %3712 = "tosa.const"() <{value = dense<[0, 2, 1, 3]> : tensor<4xi32>}> : () -> tensor<4xi32>
    %3713 = tosa.transpose %3711, %3712 : (tensor<1x40x12x128xf32>, tensor<4xi32>) -> tensor<1x12x40x128xf32>
    %3714 = tosa.reshape %3700 {new_shape = array<i64: 1, 40, 2, 128>} : (tensor<1x40x256xf32>) -> tensor<1x40x2x128xf32>
    %3715 = "tosa.const"() <{value = dense<[0, 2, 1, 3]> : tensor<4xi32>}> : () -> tensor<4xi32>
    %3716 = tosa.transpose %3714, %3715 : (tensor<1x40x2x128xf32>, tensor<4xi32>) -> tensor<1x2x40x128xf32>
    %3717 = tosa.reshape %3710 {new_shape = array<i64: 1, 40, 2, 128>} : (tensor<1x40x256xf32>) -> tensor<1x40x2x128xf32>
    %3718 = "tosa.const"() <{value = dense<[0, 2, 1, 3]> : tensor<4xi32>}> : () -> tensor<4xi32>
    %3719 = tosa.transpose %3717, %3718 : (tensor<1x40x2x128xf32>, tensor<4xi32>) -> tensor<1x2x40x128xf32>
    %3720 = tosa.reshape %51 {new_shape = array<i64: 1, 1, 40, 128>} : (tensor<1x40x128xf32>) -> tensor<1x1x40x128xf32>
    %3721 = tosa.reshape %53 {new_shape = array<i64: 1, 1, 40, 128>} : (tensor<1x40x128xf32>) -> tensor<1x1x40x128xf32>
    %3722 = tosa.mul %3713, %3720 : (tensor<1x12x40x128xf32>, tensor<1x1x40x128xf32>) -> tensor<1x12x40x128xf32>
    %extracted_slice_781 = tensor.extract_slice %3713[0, 0, 0, 0] [1, 12, 40, 64] [1, 1, 1, 1] : tensor<1x12x40x128xf32> to tensor<1x12x40x64xf32>
    %extracted_slice_782 = tensor.extract_slice %3713[0, 0, 0, 64] [1, 12, 40, 64] [1, 1, 1, 1] : tensor<1x12x40x128xf32> to tensor<1x12x40x64xf32>
    %3723 = tensor.empty() : tensor<1x12x40x64xf32>
    %3724 = linalg.negf ins(%extracted_slice_782 : tensor<1x12x40x64xf32>) outs(%3723 : tensor<1x12x40x64xf32>) -> tensor<1x12x40x64xf32>
    %3725 = tensor.empty() : tensor<1x12x40x128xf32>
    %inserted_slice_783 = tensor.insert_slice %3724 into %3725[0, 0, 0, 0] [1, 12, 40, 64] [1, 1, 1, 1] : tensor<1x12x40x64xf32> into tensor<1x12x40x128xf32>
    %inserted_slice_784 = tensor.insert_slice %extracted_slice_781 into %inserted_slice_783[0, 0, 0, 64] [1, 12, 40, 64] [1, 1, 1, 1] : tensor<1x12x40x64xf32> into tensor<1x12x40x128xf32>
    %3726 = tosa.mul %inserted_slice_784, %3721 : (tensor<1x12x40x128xf32>, tensor<1x1x40x128xf32>) -> tensor<1x12x40x128xf32>
    %3727 = tosa.add %3722, %3726 : (tensor<1x12x40x128xf32>, tensor<1x12x40x128xf32>) -> tensor<1x12x40x128xf32>
    %3728 = tosa.mul %3716, %3720 : (tensor<1x2x40x128xf32>, tensor<1x1x40x128xf32>) -> tensor<1x2x40x128xf32>
    %extracted_slice_785 = tensor.extract_slice %3716[0, 0, 0, 0] [1, 2, 40, 64] [1, 1, 1, 1] : tensor<1x2x40x128xf32> to tensor<1x2x40x64xf32>
    %extracted_slice_786 = tensor.extract_slice %3716[0, 0, 0, 64] [1, 2, 40, 64] [1, 1, 1, 1] : tensor<1x2x40x128xf32> to tensor<1x2x40x64xf32>
    %3729 = tensor.empty() : tensor<1x2x40x64xf32>
    %3730 = linalg.negf ins(%extracted_slice_786 : tensor<1x2x40x64xf32>) outs(%3729 : tensor<1x2x40x64xf32>) -> tensor<1x2x40x64xf32>
    %3731 = tensor.empty() : tensor<1x2x40x128xf32>
    %inserted_slice_787 = tensor.insert_slice %3730 into %3731[0, 0, 0, 0] [1, 2, 40, 64] [1, 1, 1, 1] : tensor<1x2x40x64xf32> into tensor<1x2x40x128xf32>
    %inserted_slice_788 = tensor.insert_slice %extracted_slice_785 into %inserted_slice_787[0, 0, 0, 64] [1, 2, 40, 64] [1, 1, 1, 1] : tensor<1x2x40x64xf32> into tensor<1x2x40x128xf32>
    %3732 = tosa.mul %inserted_slice_788, %3721 : (tensor<1x2x40x128xf32>, tensor<1x1x40x128xf32>) -> tensor<1x2x40x128xf32>
    %3733 = tosa.add %3728, %3732 : (tensor<1x2x40x128xf32>, tensor<1x2x40x128xf32>) -> tensor<1x2x40x128xf32>
    %extracted_slice_789 = tensor.extract_slice %3733[0, 0, 0, 0] [1, 2, 40, 128] [1, 1, 1, 1] : tensor<1x2x40x128xf32> to tensor<1x2x40x128xf32>
    %extracted_slice_790 = tensor.extract_slice %extracted_slice_789[0, 0, 0, 0] [1, 2, 40, 128] [1, 1, 1, 1] : tensor<1x2x40x128xf32> to tensor<1x2x40x128xf32>
    %3734 = tosa.reshape %extracted_slice_790 {new_shape = array<i64: 1, 2, 1, 40, 128>} : (tensor<1x2x40x128xf32>) -> tensor<1x2x1x40x128xf32>
    %extracted_slice_791 = tensor.extract_slice %3734[0, 0, 0, 0, 0] [1, 2, 1, 40, 128] [1, 1, 1, 1, 1] : tensor<1x2x1x40x128xf32> to tensor<1x2x1x40x128xf32>
    %extracted_slice_792 = tensor.extract_slice %extracted_slice_791[0, 0, 0, 0, 0] [1, 2, 1, 40, 128] [1, 1, 1, 1, 1] : tensor<1x2x1x40x128xf32> to tensor<1x2x1x40x128xf32>
    %3735 = "tosa.const"() <{value = dense<0.000000e+00> : tensor<1x2x6x40x128xf32>}> : () -> tensor<1x2x6x40x128xf32>
    %3736 = tosa.add %extracted_slice_792, %3735 : (tensor<1x2x1x40x128xf32>, tensor<1x2x6x40x128xf32>) -> tensor<1x2x6x40x128xf32>
    %3737 = tosa.identity %3736 : (tensor<1x2x6x40x128xf32>) -> tensor<1x2x6x40x128xf32>
    %3738 = tosa.reshape %3737 {new_shape = array<i64: 1, 12, 40, 128>} : (tensor<1x2x6x40x128xf32>) -> tensor<1x12x40x128xf32>
    %extracted_slice_793 = tensor.extract_slice %3719[0, 0, 0, 0] [1, 2, 40, 128] [1, 1, 1, 1] : tensor<1x2x40x128xf32> to tensor<1x2x40x128xf32>
    %extracted_slice_794 = tensor.extract_slice %extracted_slice_793[0, 0, 0, 0] [1, 2, 40, 128] [1, 1, 1, 1] : tensor<1x2x40x128xf32> to tensor<1x2x40x128xf32>
    %3739 = tosa.reshape %extracted_slice_794 {new_shape = array<i64: 1, 2, 1, 40, 128>} : (tensor<1x2x40x128xf32>) -> tensor<1x2x1x40x128xf32>
    %extracted_slice_795 = tensor.extract_slice %3739[0, 0, 0, 0, 0] [1, 2, 1, 40, 128] [1, 1, 1, 1, 1] : tensor<1x2x1x40x128xf32> to tensor<1x2x1x40x128xf32>
    %extracted_slice_796 = tensor.extract_slice %extracted_slice_795[0, 0, 0, 0, 0] [1, 2, 1, 40, 128] [1, 1, 1, 1, 1] : tensor<1x2x1x40x128xf32> to tensor<1x2x1x40x128xf32>
    %3740 = "tosa.const"() <{value = dense<0.000000e+00> : tensor<1x2x6x40x128xf32>}> : () -> tensor<1x2x6x40x128xf32>
    %3741 = tosa.add %extracted_slice_796, %3740 : (tensor<1x2x1x40x128xf32>, tensor<1x2x6x40x128xf32>) -> tensor<1x2x6x40x128xf32>
    %3742 = tosa.identity %3741 : (tensor<1x2x6x40x128xf32>) -> tensor<1x2x6x40x128xf32>
    %3743 = tosa.reshape %3742 {new_shape = array<i64: 1, 12, 40, 128>} : (tensor<1x2x6x40x128xf32>) -> tensor<1x12x40x128xf32>
    %extracted_slice_797 = tensor.extract_slice %inserted_slice_21[0, 0, 0, 0] [1, 1, 40, 40] [1, 1, 1, 1] : tensor<1x1x40x40xf32> to tensor<1x1x40x40xf32>
    %extracted_slice_798 = tensor.extract_slice %extracted_slice_797[0, 0, 0, 0] [1, 1, 40, 40] [1, 1, 1, 1] : tensor<1x1x40x40xf32> to tensor<1x1x40x40xf32>
    %extracted_slice_799 = tensor.extract_slice %extracted_slice_798[0, 0, 0, 0] [1, 1, 40, 40] [1, 1, 1, 1] : tensor<1x1x40x40xf32> to tensor<1x1x40x40xf32>
    %cst_800 = arith.constant 0.000000e+00 : f32
    %splat_801 = tensor.splat %cst_800 : tensor<40x40xf32>
    %3744 = tosa.reshape %extracted_slice_799 {new_shape = array<i64: 40, 40>} : (tensor<1x1x40x40xf32>) -> tensor<40x40xf32>
    %3745 = tosa.add %splat_801, %3744 : (tensor<40x40xf32>, tensor<40x40xf32>) -> tensor<40x40xf32>
    %3746 = "tosa.const"() <{value = dense<[0, 1, 3, 2]> : tensor<4xi32>}> : () -> tensor<4xi32>
    %3747 = tosa.transpose %3738, %3746 : (tensor<1x12x40x128xf32>, tensor<4xi32>) -> tensor<1x12x128x40xf32>
    %3748 = tosa.reshape %3727 {new_shape = array<i64: 12, 40, 128>} : (tensor<1x12x40x128xf32>) -> tensor<12x40x128xf32>
    %3749 = tosa.reshape %3747 {new_shape = array<i64: 12, 128, 40>} : (tensor<1x12x128x40xf32>) -> tensor<12x128x40xf32>
    %3750 = tosa.matmul %3748, %3749 : (tensor<12x40x128xf32>, tensor<12x128x40xf32>) -> tensor<12x40x40xf32>
    %cst_802 = arith.constant 0.0883883461 : f32
    %splat_803 = tensor.splat %cst_802 : tensor<12x40x40xf32>
    %3751 = tosa.mul %3750, %splat_803 : (tensor<12x40x40xf32>, tensor<12x40x40xf32>) -> tensor<12x40x40xf32>
    %3752 = tosa.reshape %3745 {new_shape = array<i64: 1, 40, 40>} : (tensor<40x40xf32>) -> tensor<1x40x40xf32>
    %3753 = tosa.add %3751, %3752 : (tensor<12x40x40xf32>, tensor<1x40x40xf32>) -> tensor<12x40x40xf32>
    %3754 = tosa.reduce_max %3753 {axis = 2 : i32} : (tensor<12x40x40xf32>) -> tensor<12x40x1xf32>
    %3755 = tosa.sub %3753, %3754 : (tensor<12x40x40xf32>, tensor<12x40x1xf32>) -> tensor<12x40x40xf32>
    %3756 = math.exp %3755 : tensor<12x40x40xf32>
    %3757 = tosa.reduce_sum %3756 {axis = 2 : i32} : (tensor<12x40x40xf32>) -> tensor<12x40x1xf32>
    %3758 = tosa.log %3757 : (tensor<12x40x1xf32>) -> tensor<12x40x1xf32>
    %3759 = tosa.add %3754, %3758 : (tensor<12x40x1xf32>, tensor<12x40x1xf32>) -> tensor<12x40x1xf32>
    %3760 = tosa.sub %3753, %3759 : (tensor<12x40x40xf32>, tensor<12x40x1xf32>) -> tensor<12x40x40xf32>
    %3761 = math.exp %3760 : tensor<12x40x40xf32>
    %3762 = tosa.reshape %3759 {new_shape = array<i64: 1, 12, 40>} : (tensor<12x40x1xf32>) -> tensor<1x12x40xf32>
    %3763 = tosa.reshape %3743 {new_shape = array<i64: 12, 40, 128>} : (tensor<1x12x40x128xf32>) -> tensor<12x40x128xf32>
    %3764 = tosa.matmul %3761, %3763 : (tensor<12x40x40xf32>, tensor<12x40x128xf32>) -> tensor<12x40x128xf32>
    %3765 = tosa.reshape %3764 {new_shape = array<i64: 1, 12, 40, 128>} : (tensor<12x40x128xf32>) -> tensor<1x12x40x128xf32>
    %3766 = "tosa.const"() <{value = dense<[0, 2, 1, 3]> : tensor<4xi32>}> : () -> tensor<4xi32>
    %3767 = tosa.transpose %3765, %3766 : (tensor<1x12x40x128xf32>, tensor<4xi32>) -> tensor<1x40x12x128xf32>
    %3768 = tosa.reshape %3767 {new_shape = array<i64: 1, 40, 1536>} : (tensor<1x40x12x128xf32>) -> tensor<1x40x1536xf32>
    %3769 = "tosa.const"() <{value = dense<[1, 0]> : tensor<2xi32>}> : () -> tensor<2xi32>
    %3770 = tosa.transpose %arg323, %3769 : (tensor<1536x1536xf32>, tensor<2xi32>) -> tensor<1536x1536xf32>
    %3771 = tosa.reshape %3768 {new_shape = array<i64: 40, 1536>} : (tensor<1x40x1536xf32>) -> tensor<40x1536xf32>
    %cst_804 = arith.constant dense<0.000000e+00> : tensor<40x1536xf32>
    %3772 = linalg.matmul {cast = #linalg.type_fn<cast_signed>} ins(%3771, %3770 : tensor<40x1536xf32>, tensor<1536x1536xf32>) outs(%cst_804 : tensor<40x1536xf32>) -> tensor<40x1536xf32>
    %3773 = tosa.reshape %3772 {new_shape = array<i64: 1, 40, 1536>} : (tensor<40x1536xf32>) -> tensor<1x40x1536xf32>
    %3774 = tosa.add %3667, %3773 : (tensor<1x40x1536xf32>, tensor<1x40x1536xf32>) -> tensor<1x40x1536xf32>
    %3775 = tensor.empty() : tensor<1x40x1536xf32>
    %c2_i32_805 = arith.constant 2 : i32
    %3776 = linalg.generic {indexing_maps = [#map4, #map4], iterator_types = ["parallel", "parallel", "parallel"]} ins(%3774 : tensor<1x40x1536xf32>) outs(%3775 : tensor<1x40x1536xf32>) {
    ^bb0(%in: f32, %out: f32):
      %3964 = math.fpowi %in, %c2_i32_805 : f32, i32
      linalg.yield %3964 : f32
    } -> tensor<1x40x1536xf32>
    %3777 = tosa.reduce_sum %3776 {axis = 2 : i32} : (tensor<1x40x1536xf32>) -> tensor<1x40x1xf32>
    %3778 = "tosa.const"() <{value = dense<1.536000e+03> : tensor<1xf32>}> : () -> tensor<1xf32>
    %3779 = tosa.reciprocal %3778 : (tensor<1xf32>) -> tensor<1xf32>
    %3780 = tosa.reshape %3779 {new_shape = array<i64: 1, 1, 1>} : (tensor<1xf32>) -> tensor<1x1x1xf32>
    %3781 = tosa.mul %3780, %3777 : (tensor<1x1x1xf32>, tensor<1x40x1xf32>) -> tensor<1x40x1xf32>
    %3782 = "tosa.const"() <{value = dense<9.99999997E-7> : tensor<1x40x1xf32>}> : () -> tensor<1x40x1xf32>
    %3783 = tosa.add %3781, %3782 : (tensor<1x40x1xf32>, tensor<1x40x1xf32>) -> tensor<1x40x1xf32>
    %3784 = tosa.rsqrt %3783 : (tensor<1x40x1xf32>) -> tensor<1x40x1xf32>
    %3785 = tosa.mul %3774, %3784 : (tensor<1x40x1536xf32>, tensor<1x40x1xf32>) -> tensor<1x40x1536xf32>
    %3786 = tosa.reshape %arg324 {new_shape = array<i64: 1, 1, 1536>} : (tensor<1536xf32>) -> tensor<1x1x1536xf32>
    %3787 = tosa.mul %3786, %3785 : (tensor<1x1x1536xf32>, tensor<1x40x1536xf32>) -> tensor<1x40x1536xf32>
    %3788 = "tosa.const"() <{value = dense<[1, 0]> : tensor<2xi32>}> : () -> tensor<2xi32>
    %3789 = tosa.transpose %arg325, %3788 : (tensor<8960x1536xf32>, tensor<2xi32>) -> tensor<1536x8960xf32>
    %3790 = tosa.reshape %3787 {new_shape = array<i64: 40, 1536>} : (tensor<1x40x1536xf32>) -> tensor<40x1536xf32>
    %cst_806 = arith.constant dense<0.000000e+00> : tensor<40x8960xf32>
    %3791 = linalg.matmul {cast = #linalg.type_fn<cast_signed>} ins(%3790, %3789 : tensor<40x1536xf32>, tensor<1536x8960xf32>) outs(%cst_806 : tensor<40x8960xf32>) -> tensor<40x8960xf32>
    %3792 = tosa.reshape %3791 {new_shape = array<i64: 1, 40, 8960>} : (tensor<40x8960xf32>) -> tensor<1x40x8960xf32>
    %3793 = tosa.sigmoid %3792 : (tensor<1x40x8960xf32>) -> tensor<1x40x8960xf32>
    %3794 = tosa.mul %3792, %3793 : (tensor<1x40x8960xf32>, tensor<1x40x8960xf32>) -> tensor<1x40x8960xf32>
    %3795 = "tosa.const"() <{value = dense<[1, 0]> : tensor<2xi32>}> : () -> tensor<2xi32>
    %3796 = tosa.transpose %arg326, %3795 : (tensor<8960x1536xf32>, tensor<2xi32>) -> tensor<1536x8960xf32>
    %3797 = tosa.reshape %3787 {new_shape = array<i64: 40, 1536>} : (tensor<1x40x1536xf32>) -> tensor<40x1536xf32>
    %cst_807 = arith.constant dense<0.000000e+00> : tensor<40x8960xf32>
    %3798 = linalg.matmul {cast = #linalg.type_fn<cast_signed>} ins(%3797, %3796 : tensor<40x1536xf32>, tensor<1536x8960xf32>) outs(%cst_807 : tensor<40x8960xf32>) -> tensor<40x8960xf32>
    %3799 = tosa.reshape %3798 {new_shape = array<i64: 1, 40, 8960>} : (tensor<40x8960xf32>) -> tensor<1x40x8960xf32>
    %3800 = tosa.mul %3794, %3799 : (tensor<1x40x8960xf32>, tensor<1x40x8960xf32>) -> tensor<1x40x8960xf32>
    %3801 = "tosa.const"() <{value = dense<[1, 0]> : tensor<2xi32>}> : () -> tensor<2xi32>
    %3802 = tosa.transpose %arg327, %3801 : (tensor<1536x8960xf32>, tensor<2xi32>) -> tensor<8960x1536xf32>
    %3803 = tosa.reshape %3800 {new_shape = array<i64: 40, 8960>} : (tensor<1x40x8960xf32>) -> tensor<40x8960xf32>
    %cst_808 = arith.constant dense<0.000000e+00> : tensor<40x1536xf32>
    %3804 = linalg.matmul {cast = #linalg.type_fn<cast_signed>} ins(%3803, %3802 : tensor<40x8960xf32>, tensor<8960x1536xf32>) outs(%cst_808 : tensor<40x1536xf32>) -> tensor<40x1536xf32>
    %3805 = tosa.reshape %3804 {new_shape = array<i64: 1, 40, 1536>} : (tensor<40x1536xf32>) -> tensor<1x40x1536xf32>
    %3806 = tosa.add %3774, %3805 : (tensor<1x40x1536xf32>, tensor<1x40x1536xf32>) -> tensor<1x40x1536xf32>
    %3807 = tensor.empty() : tensor<1x40x1536xf32>
    %c2_i32_809 = arith.constant 2 : i32
    %3808 = linalg.generic {indexing_maps = [#map4, #map4], iterator_types = ["parallel", "parallel", "parallel"]} ins(%3806 : tensor<1x40x1536xf32>) outs(%3807 : tensor<1x40x1536xf32>) {
    ^bb0(%in: f32, %out: f32):
      %3964 = math.fpowi %in, %c2_i32_809 : f32, i32
      linalg.yield %3964 : f32
    } -> tensor<1x40x1536xf32>
    %3809 = tosa.reduce_sum %3808 {axis = 2 : i32} : (tensor<1x40x1536xf32>) -> tensor<1x40x1xf32>
    %3810 = "tosa.const"() <{value = dense<1.536000e+03> : tensor<1xf32>}> : () -> tensor<1xf32>
    %3811 = tosa.reciprocal %3810 : (tensor<1xf32>) -> tensor<1xf32>
    %3812 = tosa.reshape %3811 {new_shape = array<i64: 1, 1, 1>} : (tensor<1xf32>) -> tensor<1x1x1xf32>
    %3813 = tosa.mul %3812, %3809 : (tensor<1x1x1xf32>, tensor<1x40x1xf32>) -> tensor<1x40x1xf32>
    %3814 = "tosa.const"() <{value = dense<9.99999997E-7> : tensor<1x40x1xf32>}> : () -> tensor<1x40x1xf32>
    %3815 = tosa.add %3813, %3814 : (tensor<1x40x1xf32>, tensor<1x40x1xf32>) -> tensor<1x40x1xf32>
    %3816 = tosa.rsqrt %3815 : (tensor<1x40x1xf32>) -> tensor<1x40x1xf32>
    %3817 = tosa.mul %3806, %3816 : (tensor<1x40x1536xf32>, tensor<1x40x1xf32>) -> tensor<1x40x1536xf32>
    %3818 = tosa.reshape %arg328 {new_shape = array<i64: 1, 1, 1536>} : (tensor<1536xf32>) -> tensor<1x1x1536xf32>
    %3819 = tosa.mul %3818, %3817 : (tensor<1x1x1536xf32>, tensor<1x40x1536xf32>) -> tensor<1x40x1536xf32>
    %3820 = tosa.reshape %3819 {new_shape = array<i64: 40, 1536>} : (tensor<1x40x1536xf32>) -> tensor<40x1536xf32>
    %3821 = "tosa.const"() <{value = dense<[1, 0]> : tensor<2xi32>}> : () -> tensor<2xi32>
    %3822 = tosa.transpose %arg329, %3821 : (tensor<1536x1536xf32>, tensor<2xi32>) -> tensor<1536x1536xf32>
    %3823 = tosa.reshape %3820 {new_shape = array<i64: 1, 40, 1536>} : (tensor<40x1536xf32>) -> tensor<1x40x1536xf32>
    %3824 = tosa.reshape %3822 {new_shape = array<i64: 1, 1536, 1536>} : (tensor<1536x1536xf32>) -> tensor<1x1536x1536xf32>
    %3825 = tosa.matmul %3823, %3824 : (tensor<1x40x1536xf32>, tensor<1x1536x1536xf32>) -> tensor<1x40x1536xf32>
    %3826 = tosa.reshape %3825 {new_shape = array<i64: 40, 1536>} : (tensor<1x40x1536xf32>) -> tensor<40x1536xf32>
    %3827 = tosa.reshape %arg330 {new_shape = array<i64: 1, 1536>} : (tensor<1536xf32>) -> tensor<1x1536xf32>
    %3828 = tosa.add %3827, %3826 : (tensor<1x1536xf32>, tensor<40x1536xf32>) -> tensor<40x1536xf32>
    %3829 = tosa.reshape %3828 {new_shape = array<i64: 1, 40, 1536>} : (tensor<40x1536xf32>) -> tensor<1x40x1536xf32>
    %3830 = tosa.reshape %3819 {new_shape = array<i64: 40, 1536>} : (tensor<1x40x1536xf32>) -> tensor<40x1536xf32>
    %3831 = "tosa.const"() <{value = dense<[1, 0]> : tensor<2xi32>}> : () -> tensor<2xi32>
    %3832 = tosa.transpose %arg331, %3831 : (tensor<256x1536xf32>, tensor<2xi32>) -> tensor<1536x256xf32>
    %3833 = tosa.reshape %3830 {new_shape = array<i64: 1, 40, 1536>} : (tensor<40x1536xf32>) -> tensor<1x40x1536xf32>
    %3834 = tosa.reshape %3832 {new_shape = array<i64: 1, 1536, 256>} : (tensor<1536x256xf32>) -> tensor<1x1536x256xf32>
    %3835 = tosa.matmul %3833, %3834 : (tensor<1x40x1536xf32>, tensor<1x1536x256xf32>) -> tensor<1x40x256xf32>
    %3836 = tosa.reshape %3835 {new_shape = array<i64: 40, 256>} : (tensor<1x40x256xf32>) -> tensor<40x256xf32>
    %3837 = tosa.reshape %arg332 {new_shape = array<i64: 1, 256>} : (tensor<256xf32>) -> tensor<1x256xf32>
    %3838 = tosa.add %3837, %3836 : (tensor<1x256xf32>, tensor<40x256xf32>) -> tensor<40x256xf32>
    %3839 = tosa.reshape %3838 {new_shape = array<i64: 1, 40, 256>} : (tensor<40x256xf32>) -> tensor<1x40x256xf32>
    %3840 = tosa.reshape %3819 {new_shape = array<i64: 40, 1536>} : (tensor<1x40x1536xf32>) -> tensor<40x1536xf32>
    %3841 = "tosa.const"() <{value = dense<[1, 0]> : tensor<2xi32>}> : () -> tensor<2xi32>
    %3842 = tosa.transpose %arg333, %3841 : (tensor<256x1536xf32>, tensor<2xi32>) -> tensor<1536x256xf32>
    %3843 = tosa.reshape %3840 {new_shape = array<i64: 1, 40, 1536>} : (tensor<40x1536xf32>) -> tensor<1x40x1536xf32>
    %3844 = tosa.reshape %3842 {new_shape = array<i64: 1, 1536, 256>} : (tensor<1536x256xf32>) -> tensor<1x1536x256xf32>
    %3845 = tosa.matmul %3843, %3844 : (tensor<1x40x1536xf32>, tensor<1x1536x256xf32>) -> tensor<1x40x256xf32>
    %3846 = tosa.reshape %3845 {new_shape = array<i64: 40, 256>} : (tensor<1x40x256xf32>) -> tensor<40x256xf32>
    %3847 = tosa.reshape %arg334 {new_shape = array<i64: 1, 256>} : (tensor<256xf32>) -> tensor<1x256xf32>
    %3848 = tosa.add %3847, %3846 : (tensor<1x256xf32>, tensor<40x256xf32>) -> tensor<40x256xf32>
    %3849 = tosa.reshape %3848 {new_shape = array<i64: 1, 40, 256>} : (tensor<40x256xf32>) -> tensor<1x40x256xf32>
    %3850 = tosa.reshape %3829 {new_shape = array<i64: 1, 40, 12, 128>} : (tensor<1x40x1536xf32>) -> tensor<1x40x12x128xf32>
    %3851 = "tosa.const"() <{value = dense<[0, 2, 1, 3]> : tensor<4xi32>}> : () -> tensor<4xi32>
    %3852 = tosa.transpose %3850, %3851 : (tensor<1x40x12x128xf32>, tensor<4xi32>) -> tensor<1x12x40x128xf32>
    %3853 = tosa.reshape %3839 {new_shape = array<i64: 1, 40, 2, 128>} : (tensor<1x40x256xf32>) -> tensor<1x40x2x128xf32>
    %3854 = "tosa.const"() <{value = dense<[0, 2, 1, 3]> : tensor<4xi32>}> : () -> tensor<4xi32>
    %3855 = tosa.transpose %3853, %3854 : (tensor<1x40x2x128xf32>, tensor<4xi32>) -> tensor<1x2x40x128xf32>
    %3856 = tosa.reshape %3849 {new_shape = array<i64: 1, 40, 2, 128>} : (tensor<1x40x256xf32>) -> tensor<1x40x2x128xf32>
    %3857 = "tosa.const"() <{value = dense<[0, 2, 1, 3]> : tensor<4xi32>}> : () -> tensor<4xi32>
    %3858 = tosa.transpose %3856, %3857 : (tensor<1x40x2x128xf32>, tensor<4xi32>) -> tensor<1x2x40x128xf32>
    %3859 = tosa.reshape %51 {new_shape = array<i64: 1, 1, 40, 128>} : (tensor<1x40x128xf32>) -> tensor<1x1x40x128xf32>
    %3860 = tosa.reshape %53 {new_shape = array<i64: 1, 1, 40, 128>} : (tensor<1x40x128xf32>) -> tensor<1x1x40x128xf32>
    %3861 = tosa.mul %3852, %3859 : (tensor<1x12x40x128xf32>, tensor<1x1x40x128xf32>) -> tensor<1x12x40x128xf32>
    %extracted_slice_810 = tensor.extract_slice %3852[0, 0, 0, 0] [1, 12, 40, 64] [1, 1, 1, 1] : tensor<1x12x40x128xf32> to tensor<1x12x40x64xf32>
    %extracted_slice_811 = tensor.extract_slice %3852[0, 0, 0, 64] [1, 12, 40, 64] [1, 1, 1, 1] : tensor<1x12x40x128xf32> to tensor<1x12x40x64xf32>
    %3862 = tensor.empty() : tensor<1x12x40x64xf32>
    %3863 = linalg.negf ins(%extracted_slice_811 : tensor<1x12x40x64xf32>) outs(%3862 : tensor<1x12x40x64xf32>) -> tensor<1x12x40x64xf32>
    %3864 = tensor.empty() : tensor<1x12x40x128xf32>
    %inserted_slice_812 = tensor.insert_slice %3863 into %3864[0, 0, 0, 0] [1, 12, 40, 64] [1, 1, 1, 1] : tensor<1x12x40x64xf32> into tensor<1x12x40x128xf32>
    %inserted_slice_813 = tensor.insert_slice %extracted_slice_810 into %inserted_slice_812[0, 0, 0, 64] [1, 12, 40, 64] [1, 1, 1, 1] : tensor<1x12x40x64xf32> into tensor<1x12x40x128xf32>
    %3865 = tosa.mul %inserted_slice_813, %3860 : (tensor<1x12x40x128xf32>, tensor<1x1x40x128xf32>) -> tensor<1x12x40x128xf32>
    %3866 = tosa.add %3861, %3865 : (tensor<1x12x40x128xf32>, tensor<1x12x40x128xf32>) -> tensor<1x12x40x128xf32>
    %3867 = tosa.mul %3855, %3859 : (tensor<1x2x40x128xf32>, tensor<1x1x40x128xf32>) -> tensor<1x2x40x128xf32>
    %extracted_slice_814 = tensor.extract_slice %3855[0, 0, 0, 0] [1, 2, 40, 64] [1, 1, 1, 1] : tensor<1x2x40x128xf32> to tensor<1x2x40x64xf32>
    %extracted_slice_815 = tensor.extract_slice %3855[0, 0, 0, 64] [1, 2, 40, 64] [1, 1, 1, 1] : tensor<1x2x40x128xf32> to tensor<1x2x40x64xf32>
    %3868 = tensor.empty() : tensor<1x2x40x64xf32>
    %3869 = linalg.negf ins(%extracted_slice_815 : tensor<1x2x40x64xf32>) outs(%3868 : tensor<1x2x40x64xf32>) -> tensor<1x2x40x64xf32>
    %3870 = tensor.empty() : tensor<1x2x40x128xf32>
    %inserted_slice_816 = tensor.insert_slice %3869 into %3870[0, 0, 0, 0] [1, 2, 40, 64] [1, 1, 1, 1] : tensor<1x2x40x64xf32> into tensor<1x2x40x128xf32>
    %inserted_slice_817 = tensor.insert_slice %extracted_slice_814 into %inserted_slice_816[0, 0, 0, 64] [1, 2, 40, 64] [1, 1, 1, 1] : tensor<1x2x40x64xf32> into tensor<1x2x40x128xf32>
    %3871 = tosa.mul %inserted_slice_817, %3860 : (tensor<1x2x40x128xf32>, tensor<1x1x40x128xf32>) -> tensor<1x2x40x128xf32>
    %3872 = tosa.add %3867, %3871 : (tensor<1x2x40x128xf32>, tensor<1x2x40x128xf32>) -> tensor<1x2x40x128xf32>
    %extracted_slice_818 = tensor.extract_slice %3872[0, 0, 0, 0] [1, 2, 40, 128] [1, 1, 1, 1] : tensor<1x2x40x128xf32> to tensor<1x2x40x128xf32>
    %extracted_slice_819 = tensor.extract_slice %extracted_slice_818[0, 0, 0, 0] [1, 2, 40, 128] [1, 1, 1, 1] : tensor<1x2x40x128xf32> to tensor<1x2x40x128xf32>
    %3873 = tosa.reshape %extracted_slice_819 {new_shape = array<i64: 1, 2, 1, 40, 128>} : (tensor<1x2x40x128xf32>) -> tensor<1x2x1x40x128xf32>
    %extracted_slice_820 = tensor.extract_slice %3873[0, 0, 0, 0, 0] [1, 2, 1, 40, 128] [1, 1, 1, 1, 1] : tensor<1x2x1x40x128xf32> to tensor<1x2x1x40x128xf32>
    %extracted_slice_821 = tensor.extract_slice %extracted_slice_820[0, 0, 0, 0, 0] [1, 2, 1, 40, 128] [1, 1, 1, 1, 1] : tensor<1x2x1x40x128xf32> to tensor<1x2x1x40x128xf32>
    %3874 = "tosa.const"() <{value = dense<0.000000e+00> : tensor<1x2x6x40x128xf32>}> : () -> tensor<1x2x6x40x128xf32>
    %3875 = tosa.add %extracted_slice_821, %3874 : (tensor<1x2x1x40x128xf32>, tensor<1x2x6x40x128xf32>) -> tensor<1x2x6x40x128xf32>
    %3876 = tosa.identity %3875 : (tensor<1x2x6x40x128xf32>) -> tensor<1x2x6x40x128xf32>
    %3877 = tosa.reshape %3876 {new_shape = array<i64: 1, 12, 40, 128>} : (tensor<1x2x6x40x128xf32>) -> tensor<1x12x40x128xf32>
    %extracted_slice_822 = tensor.extract_slice %3858[0, 0, 0, 0] [1, 2, 40, 128] [1, 1, 1, 1] : tensor<1x2x40x128xf32> to tensor<1x2x40x128xf32>
    %extracted_slice_823 = tensor.extract_slice %extracted_slice_822[0, 0, 0, 0] [1, 2, 40, 128] [1, 1, 1, 1] : tensor<1x2x40x128xf32> to tensor<1x2x40x128xf32>
    %3878 = tosa.reshape %extracted_slice_823 {new_shape = array<i64: 1, 2, 1, 40, 128>} : (tensor<1x2x40x128xf32>) -> tensor<1x2x1x40x128xf32>
    %extracted_slice_824 = tensor.extract_slice %3878[0, 0, 0, 0, 0] [1, 2, 1, 40, 128] [1, 1, 1, 1, 1] : tensor<1x2x1x40x128xf32> to tensor<1x2x1x40x128xf32>
    %extracted_slice_825 = tensor.extract_slice %extracted_slice_824[0, 0, 0, 0, 0] [1, 2, 1, 40, 128] [1, 1, 1, 1, 1] : tensor<1x2x1x40x128xf32> to tensor<1x2x1x40x128xf32>
    %3879 = "tosa.const"() <{value = dense<0.000000e+00> : tensor<1x2x6x40x128xf32>}> : () -> tensor<1x2x6x40x128xf32>
    %3880 = tosa.add %extracted_slice_825, %3879 : (tensor<1x2x1x40x128xf32>, tensor<1x2x6x40x128xf32>) -> tensor<1x2x6x40x128xf32>
    %3881 = tosa.identity %3880 : (tensor<1x2x6x40x128xf32>) -> tensor<1x2x6x40x128xf32>
    %3882 = tosa.reshape %3881 {new_shape = array<i64: 1, 12, 40, 128>} : (tensor<1x2x6x40x128xf32>) -> tensor<1x12x40x128xf32>
    %extracted_slice_826 = tensor.extract_slice %inserted_slice_21[0, 0, 0, 0] [1, 1, 40, 40] [1, 1, 1, 1] : tensor<1x1x40x40xf32> to tensor<1x1x40x40xf32>
    %extracted_slice_827 = tensor.extract_slice %extracted_slice_826[0, 0, 0, 0] [1, 1, 40, 40] [1, 1, 1, 1] : tensor<1x1x40x40xf32> to tensor<1x1x40x40xf32>
    %extracted_slice_828 = tensor.extract_slice %extracted_slice_827[0, 0, 0, 0] [1, 1, 40, 40] [1, 1, 1, 1] : tensor<1x1x40x40xf32> to tensor<1x1x40x40xf32>
    %cst_829 = arith.constant 0.000000e+00 : f32
    %splat_830 = tensor.splat %cst_829 : tensor<40x40xf32>
    %3883 = tosa.reshape %extracted_slice_828 {new_shape = array<i64: 40, 40>} : (tensor<1x1x40x40xf32>) -> tensor<40x40xf32>
    %3884 = tosa.add %splat_830, %3883 : (tensor<40x40xf32>, tensor<40x40xf32>) -> tensor<40x40xf32>
    %3885 = "tosa.const"() <{value = dense<[0, 1, 3, 2]> : tensor<4xi32>}> : () -> tensor<4xi32>
    %3886 = tosa.transpose %3877, %3885 : (tensor<1x12x40x128xf32>, tensor<4xi32>) -> tensor<1x12x128x40xf32>
    %3887 = tosa.reshape %3866 {new_shape = array<i64: 12, 40, 128>} : (tensor<1x12x40x128xf32>) -> tensor<12x40x128xf32>
    %3888 = tosa.reshape %3886 {new_shape = array<i64: 12, 128, 40>} : (tensor<1x12x128x40xf32>) -> tensor<12x128x40xf32>
    %3889 = tosa.matmul %3887, %3888 : (tensor<12x40x128xf32>, tensor<12x128x40xf32>) -> tensor<12x40x40xf32>
    %cst_831 = arith.constant 0.0883883461 : f32
    %splat_832 = tensor.splat %cst_831 : tensor<12x40x40xf32>
    %3890 = tosa.mul %3889, %splat_832 : (tensor<12x40x40xf32>, tensor<12x40x40xf32>) -> tensor<12x40x40xf32>
    %3891 = tosa.reshape %3884 {new_shape = array<i64: 1, 40, 40>} : (tensor<40x40xf32>) -> tensor<1x40x40xf32>
    %3892 = tosa.add %3890, %3891 : (tensor<12x40x40xf32>, tensor<1x40x40xf32>) -> tensor<12x40x40xf32>
    %3893 = tosa.reduce_max %3892 {axis = 2 : i32} : (tensor<12x40x40xf32>) -> tensor<12x40x1xf32>
    %3894 = tosa.sub %3892, %3893 : (tensor<12x40x40xf32>, tensor<12x40x1xf32>) -> tensor<12x40x40xf32>
    %3895 = math.exp %3894 : tensor<12x40x40xf32>
    %3896 = tosa.reduce_sum %3895 {axis = 2 : i32} : (tensor<12x40x40xf32>) -> tensor<12x40x1xf32>
    %3897 = tosa.log %3896 : (tensor<12x40x1xf32>) -> tensor<12x40x1xf32>
    %3898 = tosa.add %3893, %3897 : (tensor<12x40x1xf32>, tensor<12x40x1xf32>) -> tensor<12x40x1xf32>
    %3899 = tosa.sub %3892, %3898 : (tensor<12x40x40xf32>, tensor<12x40x1xf32>) -> tensor<12x40x40xf32>
    %3900 = math.exp %3899 : tensor<12x40x40xf32>
    %3901 = tosa.reshape %3898 {new_shape = array<i64: 1, 12, 40>} : (tensor<12x40x1xf32>) -> tensor<1x12x40xf32>
    %3902 = tosa.reshape %3882 {new_shape = array<i64: 12, 40, 128>} : (tensor<1x12x40x128xf32>) -> tensor<12x40x128xf32>
    %3903 = tosa.matmul %3900, %3902 : (tensor<12x40x40xf32>, tensor<12x40x128xf32>) -> tensor<12x40x128xf32>
    %3904 = tosa.reshape %3903 {new_shape = array<i64: 1, 12, 40, 128>} : (tensor<12x40x128xf32>) -> tensor<1x12x40x128xf32>
    %3905 = "tosa.const"() <{value = dense<[0, 2, 1, 3]> : tensor<4xi32>}> : () -> tensor<4xi32>
    %3906 = tosa.transpose %3904, %3905 : (tensor<1x12x40x128xf32>, tensor<4xi32>) -> tensor<1x40x12x128xf32>
    %3907 = tosa.reshape %3906 {new_shape = array<i64: 1, 40, 1536>} : (tensor<1x40x12x128xf32>) -> tensor<1x40x1536xf32>
    %3908 = "tosa.const"() <{value = dense<[1, 0]> : tensor<2xi32>}> : () -> tensor<2xi32>
    %3909 = tosa.transpose %arg335, %3908 : (tensor<1536x1536xf32>, tensor<2xi32>) -> tensor<1536x1536xf32>
    %3910 = tosa.reshape %3907 {new_shape = array<i64: 40, 1536>} : (tensor<1x40x1536xf32>) -> tensor<40x1536xf32>
    %cst_833 = arith.constant dense<0.000000e+00> : tensor<40x1536xf32>
    %3911 = linalg.matmul {cast = #linalg.type_fn<cast_signed>} ins(%3910, %3909 : tensor<40x1536xf32>, tensor<1536x1536xf32>) outs(%cst_833 : tensor<40x1536xf32>) -> tensor<40x1536xf32>
    %3912 = tosa.reshape %3911 {new_shape = array<i64: 1, 40, 1536>} : (tensor<40x1536xf32>) -> tensor<1x40x1536xf32>
    %3913 = tosa.add %3806, %3912 : (tensor<1x40x1536xf32>, tensor<1x40x1536xf32>) -> tensor<1x40x1536xf32>
    %3914 = tensor.empty() : tensor<1x40x1536xf32>
    %c2_i32_834 = arith.constant 2 : i32
    %3915 = linalg.generic {indexing_maps = [#map4, #map4], iterator_types = ["parallel", "parallel", "parallel"]} ins(%3913 : tensor<1x40x1536xf32>) outs(%3914 : tensor<1x40x1536xf32>) {
    ^bb0(%in: f32, %out: f32):
      %3964 = math.fpowi %in, %c2_i32_834 : f32, i32
      linalg.yield %3964 : f32
    } -> tensor<1x40x1536xf32>
    %3916 = tosa.reduce_sum %3915 {axis = 2 : i32} : (tensor<1x40x1536xf32>) -> tensor<1x40x1xf32>
    %3917 = "tosa.const"() <{value = dense<1.536000e+03> : tensor<1xf32>}> : () -> tensor<1xf32>
    %3918 = tosa.reciprocal %3917 : (tensor<1xf32>) -> tensor<1xf32>
    %3919 = tosa.reshape %3918 {new_shape = array<i64: 1, 1, 1>} : (tensor<1xf32>) -> tensor<1x1x1xf32>
    %3920 = tosa.mul %3919, %3916 : (tensor<1x1x1xf32>, tensor<1x40x1xf32>) -> tensor<1x40x1xf32>
    %3921 = "tosa.const"() <{value = dense<9.99999997E-7> : tensor<1x40x1xf32>}> : () -> tensor<1x40x1xf32>
    %3922 = tosa.add %3920, %3921 : (tensor<1x40x1xf32>, tensor<1x40x1xf32>) -> tensor<1x40x1xf32>
    %3923 = tosa.rsqrt %3922 : (tensor<1x40x1xf32>) -> tensor<1x40x1xf32>
    %3924 = tosa.mul %3913, %3923 : (tensor<1x40x1536xf32>, tensor<1x40x1xf32>) -> tensor<1x40x1536xf32>
    %3925 = tosa.reshape %arg336 {new_shape = array<i64: 1, 1, 1536>} : (tensor<1536xf32>) -> tensor<1x1x1536xf32>
    %3926 = tosa.mul %3925, %3924 : (tensor<1x1x1536xf32>, tensor<1x40x1536xf32>) -> tensor<1x40x1536xf32>
    %3927 = "tosa.const"() <{value = dense<[1, 0]> : tensor<2xi32>}> : () -> tensor<2xi32>
    %3928 = tosa.transpose %arg337, %3927 : (tensor<8960x1536xf32>, tensor<2xi32>) -> tensor<1536x8960xf32>
    %3929 = tosa.reshape %3926 {new_shape = array<i64: 40, 1536>} : (tensor<1x40x1536xf32>) -> tensor<40x1536xf32>
    %cst_835 = arith.constant dense<0.000000e+00> : tensor<40x8960xf32>
    %3930 = linalg.matmul {cast = #linalg.type_fn<cast_signed>} ins(%3929, %3928 : tensor<40x1536xf32>, tensor<1536x8960xf32>) outs(%cst_835 : tensor<40x8960xf32>) -> tensor<40x8960xf32>
    %3931 = tosa.reshape %3930 {new_shape = array<i64: 1, 40, 8960>} : (tensor<40x8960xf32>) -> tensor<1x40x8960xf32>
    %3932 = tosa.sigmoid %3931 : (tensor<1x40x8960xf32>) -> tensor<1x40x8960xf32>
    %3933 = tosa.mul %3931, %3932 : (tensor<1x40x8960xf32>, tensor<1x40x8960xf32>) -> tensor<1x40x8960xf32>
    %3934 = "tosa.const"() <{value = dense<[1, 0]> : tensor<2xi32>}> : () -> tensor<2xi32>
    %3935 = tosa.transpose %arg338, %3934 : (tensor<8960x1536xf32>, tensor<2xi32>) -> tensor<1536x8960xf32>
    %3936 = tosa.reshape %3926 {new_shape = array<i64: 40, 1536>} : (tensor<1x40x1536xf32>) -> tensor<40x1536xf32>
    %cst_836 = arith.constant dense<0.000000e+00> : tensor<40x8960xf32>
    %3937 = linalg.matmul {cast = #linalg.type_fn<cast_signed>} ins(%3936, %3935 : tensor<40x1536xf32>, tensor<1536x8960xf32>) outs(%cst_836 : tensor<40x8960xf32>) -> tensor<40x8960xf32>
    %3938 = tosa.reshape %3937 {new_shape = array<i64: 1, 40, 8960>} : (tensor<40x8960xf32>) -> tensor<1x40x8960xf32>
    %3939 = tosa.mul %3933, %3938 : (tensor<1x40x8960xf32>, tensor<1x40x8960xf32>) -> tensor<1x40x8960xf32>
    %3940 = "tosa.const"() <{value = dense<[1, 0]> : tensor<2xi32>}> : () -> tensor<2xi32>
    %3941 = tosa.transpose %arg339, %3940 : (tensor<1536x8960xf32>, tensor<2xi32>) -> tensor<8960x1536xf32>
    %3942 = tosa.reshape %3939 {new_shape = array<i64: 40, 8960>} : (tensor<1x40x8960xf32>) -> tensor<40x8960xf32>
    %cst_837 = arith.constant dense<0.000000e+00> : tensor<40x1536xf32>
    %3943 = linalg.matmul {cast = #linalg.type_fn<cast_signed>} ins(%3942, %3941 : tensor<40x8960xf32>, tensor<8960x1536xf32>) outs(%cst_837 : tensor<40x1536xf32>) -> tensor<40x1536xf32>
    %3944 = tosa.reshape %3943 {new_shape = array<i64: 1, 40, 1536>} : (tensor<40x1536xf32>) -> tensor<1x40x1536xf32>
    %3945 = tosa.add %3913, %3944 : (tensor<1x40x1536xf32>, tensor<1x40x1536xf32>) -> tensor<1x40x1536xf32>
    %3946 = tensor.empty() : tensor<1x40x1536xf32>
    %c2_i32_838 = arith.constant 2 : i32
    %3947 = linalg.generic {indexing_maps = [#map4, #map4], iterator_types = ["parallel", "parallel", "parallel"]} ins(%3945 : tensor<1x40x1536xf32>) outs(%3946 : tensor<1x40x1536xf32>) {
    ^bb0(%in: f32, %out: f32):
      %3964 = math.fpowi %in, %c2_i32_838 : f32, i32
      linalg.yield %3964 : f32
    } -> tensor<1x40x1536xf32>
    %3948 = tosa.reduce_sum %3947 {axis = 2 : i32} : (tensor<1x40x1536xf32>) -> tensor<1x40x1xf32>
    %3949 = "tosa.const"() <{value = dense<1.536000e+03> : tensor<1xf32>}> : () -> tensor<1xf32>
    %3950 = tosa.reciprocal %3949 : (tensor<1xf32>) -> tensor<1xf32>
    %3951 = tosa.reshape %3950 {new_shape = array<i64: 1, 1, 1>} : (tensor<1xf32>) -> tensor<1x1x1xf32>
    %3952 = tosa.mul %3951, %3948 : (tensor<1x1x1xf32>, tensor<1x40x1xf32>) -> tensor<1x40x1xf32>
    %3953 = "tosa.const"() <{value = dense<9.99999997E-7> : tensor<1x40x1xf32>}> : () -> tensor<1x40x1xf32>
    %3954 = tosa.add %3952, %3953 : (tensor<1x40x1xf32>, tensor<1x40x1xf32>) -> tensor<1x40x1xf32>
    %3955 = tosa.rsqrt %3954 : (tensor<1x40x1xf32>) -> tensor<1x40x1xf32>
    %3956 = tosa.mul %3945, %3955 : (tensor<1x40x1536xf32>, tensor<1x40x1xf32>) -> tensor<1x40x1536xf32>
    %3957 = tosa.reshape %arg340 {new_shape = array<i64: 1, 1, 1536>} : (tensor<1536xf32>) -> tensor<1x1x1536xf32>
    %3958 = tosa.mul %3957, %3956 : (tensor<1x1x1536xf32>, tensor<1x40x1536xf32>) -> tensor<1x40x1536xf32>
    %extracted_slice_839 = tensor.extract_slice %3958[0, 0, 0] [1, 40, 1536] [1, 1, 1] : tensor<1x40x1536xf32> to tensor<1x40x1536xf32>
    %extracted_slice_840 = tensor.extract_slice %extracted_slice_839[0, 0, 0] [1, 40, 1536] [1, 1, 1] : tensor<1x40x1536xf32> to tensor<1x40x1536xf32>
    %extracted_slice_841 = tensor.extract_slice %extracted_slice_840[0, 0, 0] [1, 40, 1536] [1, 1, 1] : tensor<1x40x1536xf32> to tensor<1x40x1536xf32>
    // ===========================================
    // 10. FINAL OUTPUT PROJECTION LAYER
    // ===========================================
    // Project the final hidden states back to vocabulary space
    // Input: Final hidden states (1x40x1536) from last transformer layer
    // Weights: %arg341 (151936x1536) - vocabulary_size x hidden_dim
    // Output: Logits (1x40x151936) - probabilities over vocabulary

    %3959 = "tosa.const"() <{value = dense<[1, 0]> : tensor<2xi32>}> : () -> tensor<2xi32>
    %3960 = tosa.transpose %arg341, %3959 : (tensor<151936x1536xf32>, tensor<2xi32>) -> tensor<1536x151936xf32>
    %3961 = tosa.reshape %extracted_slice_841 {new_shape = array<i64: 40, 1536>} : (tensor<1x40x1536xf32>) -> tensor<40x1536xf32>
    %cst_842 = arith.constant dense<0.000000e+00> : tensor<40x151936xf32>
    %3962 = linalg.matmul {cast = #linalg.type_fn<cast_signed>} ins(%3961, %3960 : tensor<40x1536xf32>, tensor<1536x151936xf32>) outs(%cst_842 : tensor<40x151936xf32>) -> tensor<40x151936xf32>
    %3963 = tosa.reshape %3962 {new_shape = array<i64: 1, 40, 151936>} : (tensor<40x151936xf32>) -> tensor<1x40x151936xf32>
    return %3963 : tensor<1x40x151936xf32>
  }
}
