#map = affine_map<(d0, d1, d2) -> (d0, d1, d2)>
#map1 = affine_map<(d0, d1, d2, d3) -> (d0, d1, d2, d3)>
module {
  func.func @subgraph0_decode(%arg0: tensor<151936x1536xf32>, %arg1: tensor<1x1xi64>, %arg2: tensor<1xi64>, %arg3: tensor<1xi64>, %arg4: tensor<64xf32>, %arg5: tensor<1536xf32>, %arg6: tensor<1536xf32>, %arg7: tensor<1536x1536xf32>, %arg8: tensor<256xf32>, %arg9: tensor<1536x256xf32>, %arg10: tensor<256xf32>, %arg11: tensor<1536x256xf32>, %arg12: tensor<1x2x1024x128xf32>, %arg13: tensor<1x2x1024x128xf32>, %arg14: tensor<1536x1536xf32>, %arg15: tensor<1536xf32>, %arg16: tensor<1536x8960xf32>, %arg17: tensor<1536x8960xf32>, %arg18: tensor<8960x1536xf32>, %arg19: tensor<1536xf32>, %arg20: tensor<1536xf32>, %arg21: tensor<1536x1536xf32>, %arg22: tensor<256xf32>, %arg23: tensor<1536x256xf32>, %arg24: tensor<256xf32>, %arg25: tensor<1536x256xf32>, %arg26: tensor<1x2x1024x128xf32>, %arg27: tensor<1x2x1024x128xf32>, %arg28: tensor<1536x1536xf32>, %arg29: tensor<1536xf32>, %arg30: tensor<1536x8960xf32>, %arg31: tensor<1536x8960xf32>, %arg32: tensor<8960x1536xf32>, %arg33: tensor<1536xf32>, %arg34: tensor<1536xf32>, %arg35: tensor<1536x1536xf32>, %arg36: tensor<256xf32>, %arg37: tensor<1536x256xf32>, %arg38: tensor<256xf32>, %arg39: tensor<1536x256xf32>, %arg40: tensor<1x2x1024x128xf32>, %arg41: tensor<1x2x1024x128xf32>, %arg42: tensor<1536x1536xf32>, %arg43: tensor<1536xf32>, %arg44: tensor<1536x8960xf32>, %arg45: tensor<1536x8960xf32>, %arg46: tensor<8960x1536xf32>, %arg47: tensor<1536xf32>, %arg48: tensor<1536xf32>, %arg49: tensor<1536x1536xf32>, %arg50: tensor<256xf32>, %arg51: tensor<1536x256xf32>, %arg52: tensor<256xf32>, %arg53: tensor<1536x256xf32>, %arg54: tensor<1x2x1024x128xf32>, %arg55: tensor<1x2x1024x128xf32>, %arg56: tensor<1536x1536xf32>, %arg57: tensor<1536xf32>, %arg58: tensor<1536x8960xf32>, %arg59: tensor<1536x8960xf32>, %arg60: tensor<8960x1536xf32>, %arg61: tensor<1536xf32>, %arg62: tensor<1536xf32>, %arg63: tensor<1536x1536xf32>, %arg64: tensor<256xf32>, %arg65: tensor<1536x256xf32>, %arg66: tensor<256xf32>, %arg67: tensor<1536x256xf32>, %arg68: tensor<1x2x1024x128xf32>, %arg69: tensor<1x2x1024x128xf32>, %arg70: tensor<1536x1536xf32>, %arg71: tensor<1536xf32>, %arg72: tensor<1536x8960xf32>, %arg73: tensor<1536x8960xf32>, %arg74: tensor<8960x1536xf32>, %arg75: tensor<1536xf32>, %arg76: tensor<1536xf32>, %arg77: tensor<1536x1536xf32>, %arg78: tensor<256xf32>, %arg79: tensor<1536x256xf32>, %arg80: tensor<256xf32>, %arg81: tensor<1536x256xf32>, %arg82: tensor<1x2x1024x128xf32>, %arg83: tensor<1x2x1024x128xf32>, %arg84: tensor<1536x1536xf32>, %arg85: tensor<1536xf32>, %arg86: tensor<1536x8960xf32>, %arg87: tensor<1536x8960xf32>, %arg88: tensor<8960x1536xf32>, %arg89: tensor<1536xf32>, %arg90: tensor<1536xf32>, %arg91: tensor<1536x1536xf32>, %arg92: tensor<256xf32>, %arg93: tensor<1536x256xf32>, %arg94: tensor<256xf32>, %arg95: tensor<1536x256xf32>, %arg96: tensor<1x2x1024x128xf32>, %arg97: tensor<1x2x1024x128xf32>, %arg98: tensor<1536x1536xf32>, %arg99: tensor<1536xf32>, %arg100: tensor<1536x8960xf32>, %arg101: tensor<1536x8960xf32>, %arg102: tensor<8960x1536xf32>, %arg103: tensor<1536xf32>, %arg104: tensor<1536xf32>, %arg105: tensor<1536x1536xf32>, %arg106: tensor<256xf32>, %arg107: tensor<1536x256xf32>, %arg108: tensor<256xf32>, %arg109: tensor<1536x256xf32>, %arg110: tensor<1x2x1024x128xf32>, %arg111: tensor<1x2x1024x128xf32>, %arg112: tensor<1536x1536xf32>, %arg113: tensor<1536xf32>, %arg114: tensor<1536x8960xf32>, %arg115: tensor<1536x8960xf32>, %arg116: tensor<8960x1536xf32>, %arg117: tensor<1536xf32>, %arg118: tensor<1536xf32>, %arg119: tensor<1536x1536xf32>, %arg120: tensor<256xf32>, %arg121: tensor<1536x256xf32>, %arg122: tensor<256xf32>, %arg123: tensor<1536x256xf32>, %arg124: tensor<1x2x1024x128xf32>, %arg125: tensor<1x2x1024x128xf32>, %arg126: tensor<1536x1536xf32>, %arg127: tensor<1536xf32>, %arg128: tensor<1536x8960xf32>, %arg129: tensor<1536x8960xf32>, %arg130: tensor<8960x1536xf32>, %arg131: tensor<1536xf32>, %arg132: tensor<1536xf32>, %arg133: tensor<1536x1536xf32>, %arg134: tensor<256xf32>, %arg135: tensor<1536x256xf32>, %arg136: tensor<256xf32>, %arg137: tensor<1536x256xf32>, %arg138: tensor<1x2x1024x128xf32>, %arg139: tensor<1x2x1024x128xf32>, %arg140: tensor<1536x1536xf32>, %arg141: tensor<1536xf32>, %arg142: tensor<1536x8960xf32>, %arg143: tensor<1536x8960xf32>, %arg144: tensor<8960x1536xf32>, %arg145: tensor<1536xf32>, %arg146: tensor<1536xf32>, %arg147: tensor<1536x1536xf32>, %arg148: tensor<256xf32>, %arg149: tensor<1536x256xf32>, %arg150: tensor<256xf32>, %arg151: tensor<1536x256xf32>, %arg152: tensor<1x2x1024x128xf32>, %arg153: tensor<1x2x1024x128xf32>, %arg154: tensor<1536x1536xf32>, %arg155: tensor<1536xf32>, %arg156: tensor<1536x8960xf32>, %arg157: tensor<1536x8960xf32>, %arg158: tensor<8960x1536xf32>, %arg159: tensor<1536xf32>, %arg160: tensor<1536xf32>, %arg161: tensor<1536x1536xf32>, %arg162: tensor<256xf32>, %arg163: tensor<1536x256xf32>, %arg164: tensor<256xf32>, %arg165: tensor<1536x256xf32>, %arg166: tensor<1x2x1024x128xf32>, %arg167: tensor<1x2x1024x128xf32>, %arg168: tensor<1536x1536xf32>, %arg169: tensor<1536xf32>, %arg170: tensor<1536x8960xf32>, %arg171: tensor<1536x8960xf32>, %arg172: tensor<8960x1536xf32>, %arg173: tensor<1536xf32>, %arg174: tensor<1536xf32>, %arg175: tensor<1536x1536xf32>, %arg176: tensor<256xf32>, %arg177: tensor<1536x256xf32>, %arg178: tensor<256xf32>, %arg179: tensor<1536x256xf32>, %arg180: tensor<1x2x1024x128xf32>, %arg181: tensor<1x2x1024x128xf32>, %arg182: tensor<1536x1536xf32>, %arg183: tensor<1536xf32>, %arg184: tensor<1536x8960xf32>, %arg185: tensor<1536x8960xf32>, %arg186: tensor<8960x1536xf32>, %arg187: tensor<1536xf32>, %arg188: tensor<1536xf32>, %arg189: tensor<1536x1536xf32>, %arg190: tensor<256xf32>, %arg191: tensor<1536x256xf32>, %arg192: tensor<256xf32>, %arg193: tensor<1536x256xf32>, %arg194: tensor<1x2x1024x128xf32>, %arg195: tensor<1x2x1024x128xf32>, %arg196: tensor<1536x1536xf32>, %arg197: tensor<1536xf32>, %arg198: tensor<1536x8960xf32>, %arg199: tensor<1536x8960xf32>, %arg200: tensor<8960x1536xf32>, %arg201: tensor<1536xf32>, %arg202: tensor<1536xf32>, %arg203: tensor<1536x1536xf32>, %arg204: tensor<256xf32>, %arg205: tensor<1536x256xf32>, %arg206: tensor<256xf32>, %arg207: tensor<1536x256xf32>, %arg208: tensor<1x2x1024x128xf32>, %arg209: tensor<1x2x1024x128xf32>, %arg210: tensor<1536x1536xf32>, %arg211: tensor<1536xf32>, %arg212: tensor<1536x8960xf32>, %arg213: tensor<1536x8960xf32>, %arg214: tensor<8960x1536xf32>, %arg215: tensor<1536xf32>, %arg216: tensor<1536xf32>, %arg217: tensor<1536x1536xf32>, %arg218: tensor<256xf32>, %arg219: tensor<1536x256xf32>, %arg220: tensor<256xf32>, %arg221: tensor<1536x256xf32>, %arg222: tensor<1x2x1024x128xf32>, %arg223: tensor<1x2x1024x128xf32>, %arg224: tensor<1536x1536xf32>, %arg225: tensor<1536xf32>, %arg226: tensor<1536x8960xf32>, %arg227: tensor<1536x8960xf32>, %arg228: tensor<8960x1536xf32>, %arg229: tensor<1536xf32>, %arg230: tensor<1536xf32>, %arg231: tensor<1536x1536xf32>, %arg232: tensor<256xf32>, %arg233: tensor<1536x256xf32>, %arg234: tensor<256xf32>, %arg235: tensor<1536x256xf32>, %arg236: tensor<1x2x1024x128xf32>, %arg237: tensor<1x2x1024x128xf32>, %arg238: tensor<1536x1536xf32>, %arg239: tensor<1536xf32>, %arg240: tensor<1536x8960xf32>, %arg241: tensor<1536x8960xf32>, %arg242: tensor<8960x1536xf32>, %arg243: tensor<1536xf32>, %arg244: tensor<1536xf32>, %arg245: tensor<1536x1536xf32>, %arg246: tensor<256xf32>, %arg247: tensor<1536x256xf32>, %arg248: tensor<256xf32>, %arg249: tensor<1536x256xf32>, %arg250: tensor<1x2x1024x128xf32>, %arg251: tensor<1x2x1024x128xf32>, %arg252: tensor<1536x1536xf32>, %arg253: tensor<1536xf32>, %arg254: tensor<1536x8960xf32>, %arg255: tensor<1536x8960xf32>, %arg256: tensor<8960x1536xf32>, %arg257: tensor<1536xf32>, %arg258: tensor<1536xf32>, %arg259: tensor<1536x1536xf32>, %arg260: tensor<256xf32>, %arg261: tensor<1536x256xf32>, %arg262: tensor<256xf32>, %arg263: tensor<1536x256xf32>, %arg264: tensor<1x2x1024x128xf32>, %arg265: tensor<1x2x1024x128xf32>, %arg266: tensor<1536x1536xf32>, %arg267: tensor<1536xf32>, %arg268: tensor<1536x8960xf32>, %arg269: tensor<1536x8960xf32>, %arg270: tensor<8960x1536xf32>, %arg271: tensor<1536xf32>, %arg272: tensor<1536xf32>, %arg273: tensor<1536x1536xf32>, %arg274: tensor<256xf32>, %arg275: tensor<1536x256xf32>, %arg276: tensor<256xf32>, %arg277: tensor<1536x256xf32>, %arg278: tensor<1x2x1024x128xf32>, %arg279: tensor<1x2x1024x128xf32>, %arg280: tensor<1536x1536xf32>, %arg281: tensor<1536xf32>, %arg282: tensor<1536x8960xf32>, %arg283: tensor<1536x8960xf32>, %arg284: tensor<8960x1536xf32>, %arg285: tensor<1536xf32>, %arg286: tensor<1536xf32>, %arg287: tensor<1536x1536xf32>, %arg288: tensor<256xf32>, %arg289: tensor<1536x256xf32>, %arg290: tensor<256xf32>, %arg291: tensor<1536x256xf32>, %arg292: tensor<1x2x1024x128xf32>, %arg293: tensor<1x2x1024x128xf32>, %arg294: tensor<1536x1536xf32>, %arg295: tensor<1536xf32>, %arg296: tensor<1536x8960xf32>, %arg297: tensor<1536x8960xf32>, %arg298: tensor<8960x1536xf32>, %arg299: tensor<1536xf32>, %arg300: tensor<1536xf32>, %arg301: tensor<1536x1536xf32>, %arg302: tensor<256xf32>, %arg303: tensor<1536x256xf32>, %arg304: tensor<256xf32>, %arg305: tensor<1536x256xf32>, %arg306: tensor<1x2x1024x128xf32>, %arg307: tensor<1x2x1024x128xf32>, %arg308: tensor<1536x1536xf32>, %arg309: tensor<1536xf32>, %arg310: tensor<1536x8960xf32>, %arg311: tensor<1536x8960xf32>, %arg312: tensor<8960x1536xf32>, %arg313: tensor<1536xf32>, %arg314: tensor<1536xf32>, %arg315: tensor<1536x1536xf32>, %arg316: tensor<256xf32>, %arg317: tensor<1536x256xf32>, %arg318: tensor<256xf32>, %arg319: tensor<1536x256xf32>, %arg320: tensor<1x2x1024x128xf32>, %arg321: tensor<1x2x1024x128xf32>, %arg322: tensor<1536x1536xf32>, %arg323: tensor<1536xf32>, %arg324: tensor<1536x8960xf32>, %arg325: tensor<1536x8960xf32>, %arg326: tensor<8960x1536xf32>, %arg327: tensor<1536xf32>, %arg328: tensor<1536xf32>, %arg329: tensor<1536x1536xf32>, %arg330: tensor<256xf32>, %arg331: tensor<1536x256xf32>, %arg332: tensor<256xf32>, %arg333: tensor<1536x256xf32>, %arg334: tensor<1x2x1024x128xf32>, %arg335: tensor<1x2x1024x128xf32>, %arg336: tensor<1536x1536xf32>, %arg337: tensor<1536xf32>, %arg338: tensor<1536x8960xf32>, %arg339: tensor<1536x8960xf32>, %arg340: tensor<8960x1536xf32>, %arg341: tensor<1536xf32>, %arg342: tensor<1536xf32>, %arg343: tensor<1536x1536xf32>, %arg344: tensor<256xf32>, %arg345: tensor<1536x256xf32>, %arg346: tensor<256xf32>, %arg347: tensor<1536x256xf32>, %arg348: tensor<1x2x1024x128xf32>, %arg349: tensor<1x2x1024x128xf32>, %arg350: tensor<1536x1536xf32>, %arg351: tensor<1536xf32>, %arg352: tensor<1536x8960xf32>, %arg353: tensor<1536x8960xf32>, %arg354: tensor<8960x1536xf32>, %arg355: tensor<1536xf32>, %arg356: tensor<1536xf32>, %arg357: tensor<1536x1536xf32>, %arg358: tensor<256xf32>, %arg359: tensor<1536x256xf32>, %arg360: tensor<256xf32>, %arg361: tensor<1536x256xf32>, %arg362: tensor<1x2x1024x128xf32>, %arg363: tensor<1x2x1024x128xf32>, %arg364: tensor<1536x1536xf32>, %arg365: tensor<1536xf32>, %arg366: tensor<1536x8960xf32>, %arg367: tensor<1536x8960xf32>, %arg368: tensor<8960x1536xf32>, %arg369: tensor<1536xf32>, %arg370: tensor<1536xf32>, %arg371: tensor<1536x1536xf32>, %arg372: tensor<256xf32>, %arg373: tensor<1536x256xf32>, %arg374: tensor<256xf32>, %arg375: tensor<1536x256xf32>, %arg376: tensor<1x2x1024x128xf32>, %arg377: tensor<1x2x1024x128xf32>, %arg378: tensor<1536x1536xf32>, %arg379: tensor<1536xf32>, %arg380: tensor<1536x8960xf32>, %arg381: tensor<1536x8960xf32>, %arg382: tensor<8960x1536xf32>, %arg383: tensor<1536xf32>, %arg384: tensor<1536xf32>, %arg385: tensor<1536x1536xf32>, %arg386: tensor<256xf32>, %arg387: tensor<1536x256xf32>, %arg388: tensor<256xf32>, %arg389: tensor<1536x256xf32>, %arg390: tensor<1x2x1024x128xf32>, %arg391: tensor<1x2x1024x128xf32>, %arg392: tensor<1536x1536xf32>, %arg393: tensor<1536xf32>, %arg394: tensor<1536x8960xf32>, %arg395: tensor<1536x8960xf32>, %arg396: tensor<8960x1536xf32>, %arg397: tensor<1536xf32>, %arg398: tensor<1536x151936xf32>) -> (tensor<1x2x1024x128xf32>, tensor<1x2x1024x128xf32>, tensor<1x2x1024x128xf32>, tensor<1x2x1024x128xf32>, tensor<1x2x1024x128xf32>, tensor<1x2x1024x128xf32>, tensor<1x2x1024x128xf32>, tensor<1x2x1024x128xf32>, tensor<1x2x1024x128xf32>, tensor<1x2x1024x128xf32>, tensor<1x2x1024x128xf32>, tensor<1x2x1024x128xf32>, tensor<1x2x1024x128xf32>, tensor<1x2x1024x128xf32>, tensor<1x2x1024x128xf32>, tensor<1x2x1024x128xf32>, tensor<1x2x1024x128xf32>, tensor<1x2x1024x128xf32>, tensor<1x2x1024x128xf32>, tensor<1x2x1024x128xf32>, tensor<1x2x1024x128xf32>, tensor<1x2x1024x128xf32>, tensor<1x2x1024x128xf32>, tensor<1x2x1024x128xf32>, tensor<1x2x1024x128xf32>, tensor<1x2x1024x128xf32>, tensor<1x2x1024x128xf32>, tensor<1x2x1024x128xf32>, tensor<1x2x1024x128xf32>, tensor<1x2x1024x128xf32>, tensor<1x2x1024x128xf32>, tensor<1x2x1024x128xf32>, tensor<1x2x1024x128xf32>, tensor<1x2x1024x128xf32>, tensor<1x2x1024x128xf32>, tensor<1x2x1024x128xf32>, tensor<1x2x1024x128xf32>, tensor<1x2x1024x128xf32>, tensor<1x2x1024x128xf32>, tensor<1x2x1024x128xf32>, tensor<1x2x1024x128xf32>, tensor<1x2x1024x128xf32>, tensor<1x2x1024x128xf32>, tensor<1x2x1024x128xf32>, tensor<1x2x1024x128xf32>, tensor<1x2x1024x128xf32>, tensor<1x2x1024x128xf32>, tensor<1x2x1024x128xf32>, tensor<1x2x1024x128xf32>, tensor<1x2x1024x128xf32>, tensor<1x2x1024x128xf32>, tensor<1x2x1024x128xf32>, tensor<1x2x1024x128xf32>, tensor<1x2x1024x128xf32>, tensor<1x2x1024x128xf32>, tensor<1x2x1024x128xf32>, tensor<1x1x151936xf32>) {
    %cst = arith.constant dense<0.000000e+00> : vector<16xf32>
    %cst_0 = arith.constant dense<0xFF800000> : tensor<1x1x1x1024xf32>
    %cst_1 = arith.constant dense<0.000000e+00> : tensor<1x1x1x1024xf32>
    %0 = "tosa.const"() <{values = dense<6.51041686E-4> : tensor<1x1x1xf32>}> : () -> tensor<1x1x1xf32>
    %1 = "tosa.const"() <{values = dense<"…"> : tensor<1x1024xi64>}> : () -> tensor<1x1024xi64>
    %2 = tosa.const_shape  {values = dense<[1, 1, 151936]> : tensor<3xindex>} : () -> !tosa.shape<3>
    %cst_2 = arith.constant dense<0.000000e+00> : tensor<1x151936xf32>
    %3 = tosa.const_shape  {values = dense<[1, 8960]> : tensor<2xindex>} : () -> !tosa.shape<2>
    %4 = tosa.const_shape  {values = dense<[1, 1, 8960]> : tensor<3xindex>} : () -> !tosa.shape<3>
    %cst_3 = arith.constant dense<0.000000e+00> : tensor<1x8960xf32>
    %c6 = arith.constant 6 : index
    %cst_4 = arith.constant -1.000000e+30 : f32
    %cst_5 = arith.constant 0.0883883461 : f32
    %cst_6 = arith.constant 1.000000e+00 : f32
    %cst_7 = arith.constant 0.000000e+00 : f32
    %5 = tosa.const_shape  {values = dense<[1, 1, 1, 1024]> : tensor<4xindex>} : () -> !tosa.shape<4>
    %c128 = arith.constant 128 : index
    %c2 = arith.constant 2 : index
    %c1 = arith.constant 1 : index
    %c0 = arith.constant 0 : index
    %6 = "tosa.const"() <{values = dense<0> : tensor<1x2x1x128xi64>}> : () -> tensor<1x2x1x128xi64>
    %7 = tosa.const_shape  {values = dense<1> : tensor<4xindex>} : () -> !tosa.shape<4>
    %8 = tosa.const_shape  {values = dense<[1, 1, 1, 128]> : tensor<4xindex>} : () -> !tosa.shape<4>
    %9 = tosa.const_shape  {values = dense<[1, 2, 1, 128]> : tensor<4xindex>} : () -> !tosa.shape<4>
    %10 = tosa.const_shape  {values = dense<[1, 256]> : tensor<2xindex>} : () -> !tosa.shape<2>
    %cst_8 = arith.constant dense<0.000000e+00> : tensor<1x256xf32>
    %11 = tosa.const_shape  {values = dense<[1, 12, 1, 128]> : tensor<4xindex>} : () -> !tosa.shape<4>
    %cst_9 = arith.constant dense<0.000000e+00> : tensor<1x1536xf32>
    %12 = tosa.const_shape  {values = dense<[1, 1536]> : tensor<2xindex>} : () -> !tosa.shape<2>
    %13 = tosa.const_shape  {values = dense<[1, 1, 1536]> : tensor<3xindex>} : () -> !tosa.shape<3>
    %14 = "tosa.const"() <{values = dense<9.99999997E-7> : tensor<1x1x1xf32>}> : () -> tensor<1x1x1xf32>
    %c2_i32 = arith.constant 2 : i32
    %15 = "tosa.const"() <{values = dense<0> : tensor<1xi8>}> : () -> tensor<1xi8>
    %16 = tosa.const_shape  {values = dense<[1, 1, 128]> : tensor<3xindex>} : () -> !tosa.shape<3>
    %17 = "tosa.const"() <{values = dense<0.000000e+00> : tensor<1x1x2x64xf32>}> : () -> tensor<1x1x2x64xf32>
    %18 = tosa.const_shape  {values = dense<[1, 1, 1, 64]> : tensor<4xindex>} : () -> !tosa.shape<4>
    %19 = "tosa.const"() <{values = dense<0.000000e+00> : tensor<1xf32>}> : () -> tensor<1xf32>
    %20 = tosa.const_shape  {values = dense<1> : tensor<3xindex>} : () -> !tosa.shape<3>
    %21 = tosa.const_shape  {values = dense<[1, 64, 1]> : tensor<3xindex>} : () -> !tosa.shape<3>
    %22 = tosa.const_shape  {values = dense<1> : tensor<2xindex>} : () -> !tosa.shape<2>
    %23 = tosa.const_shape  {values = dense<[1, 151936, 1536]> : tensor<3xindex>} : () -> !tosa.shape<3>
    %24 = tosa.cast %arg1 : (tensor<1x1xi64>) -> tensor<1x1xi32>
    %25 = tosa.reshape %arg0, %23 : (tensor<151936x1536xf32>, !tosa.shape<3>) -> tensor<1x151936x1536xf32>
    %26 = tosa.gather %25, %24 : (tensor<1x151936x1536xf32>, tensor<1x1xi32>) -> tensor<1x1x1536xf32>
    %27 = tosa.reshape %arg3, %22 : (tensor<1xi64>, !tosa.shape<2>) -> tensor<1x1xi64>
    %28 = tosa.greater_equal %27, %1 : (tensor<1x1xi64>, tensor<1x1024xi64>) -> tensor<1x1024xi1>
    %29 = tosa.reshape %arg4, %21 : (tensor<64xf32>, !tosa.shape<3>) -> tensor<1x64x1xf32>
    %30 = tosa.reshape %arg3, %20 : (tensor<1xi64>, !tosa.shape<3>) -> tensor<1x1x1xi64>
    %31 = tosa.cast %30 : (tensor<1x1x1xi64>) -> tensor<1x1x1xf32>
    %32 = tosa.mul %29, %31, %15 : (tensor<1x64x1xf32>, tensor<1x1x1xf32>, tensor<1xi8>) -> tensor<1x64x1xf32>
    %33 = tosa.reshape %32, %18 : (tensor<1x64x1xf32>, !tosa.shape<4>) -> tensor<1x1x1x64xf32>
    %34 = tosa.add %33, %17 : (tensor<1x1x1x64xf32>, tensor<1x1x2x64xf32>) -> tensor<1x1x2x64xf32>
    %35 = tosa.reshape %34, %16 : (tensor<1x1x2x64xf32>, !tosa.shape<3>) -> tensor<1x1x128xf32>
    %36 = math.cos %35 : tensor<1x1x128xf32>
    %37 = math.sin %35 : tensor<1x1x128xf32>
    %38 = tensor.empty() : tensor<1x1x1536xf32>
    %39 = linalg.generic {indexing_maps = [#map, #map], iterator_types = ["parallel", "parallel", "parallel"]} ins(%26 : tensor<1x1x1536xf32>) outs(%38 : tensor<1x1x1536xf32>) {
    ^bb0(%in: f32, %out: f32):
      %2290 = math.fpowi %in, %c2_i32 : f32, i32
      linalg.yield %2290 : f32
    } -> tensor<1x1x1536xf32>
    %40 = tosa.reduce_sum %39 {axis = 2 : i32} : (tensor<1x1x1536xf32>) -> tensor<1x1x1xf32>
    %41 = tosa.mul %40, %0, %15 : (tensor<1x1x1xf32>, tensor<1x1x1xf32>, tensor<1xi8>) -> tensor<1x1x1xf32>
    %42 = tosa.add %41, %14 : (tensor<1x1x1xf32>, tensor<1x1x1xf32>) -> tensor<1x1x1xf32>
    %43 = tosa.rsqrt %42 : (tensor<1x1x1xf32>) -> tensor<1x1x1xf32>
    %44 = tosa.mul %26, %43, %15 : (tensor<1x1x1536xf32>, tensor<1x1x1xf32>, tensor<1xi8>) -> tensor<1x1x1536xf32>
    %45 = tosa.reshape %arg5, %13 : (tensor<1536xf32>, !tosa.shape<3>) -> tensor<1x1x1536xf32>
    %46 = tosa.mul %45, %44, %15 : (tensor<1x1x1536xf32>, tensor<1x1x1536xf32>, tensor<1xi8>) -> tensor<1x1x1536xf32>
    %47 = tosa.reshape %46, %12 : (tensor<1x1x1536xf32>, !tosa.shape<2>) -> tensor<1x1536xf32>
    %48 = linalg.matmul {cast = #linalg.type_fn<cast_signed>} ins(%47, %arg7 : tensor<1x1536xf32>, tensor<1536x1536xf32>) outs(%cst_9 : tensor<1x1536xf32>) -> tensor<1x1536xf32>
    %49 = tosa.reshape %arg6, %12 : (tensor<1536xf32>, !tosa.shape<2>) -> tensor<1x1536xf32>
    %50 = tosa.add %49, %48 : (tensor<1x1536xf32>, tensor<1x1536xf32>) -> tensor<1x1536xf32>
    %51 = tosa.reshape %50, %11 : (tensor<1x1536xf32>, !tosa.shape<4>) -> tensor<1x12x1x128xf32>
    %52 = tosa.reshape %46, %12 : (tensor<1x1x1536xf32>, !tosa.shape<2>) -> tensor<1x1536xf32>
    %53 = linalg.matmul {cast = #linalg.type_fn<cast_signed>} ins(%52, %arg9 : tensor<1x1536xf32>, tensor<1536x256xf32>) outs(%cst_8 : tensor<1x256xf32>) -> tensor<1x256xf32>
    %54 = tosa.reshape %arg8, %10 : (tensor<256xf32>, !tosa.shape<2>) -> tensor<1x256xf32>
    %55 = tosa.add %54, %53 : (tensor<1x256xf32>, tensor<1x256xf32>) -> tensor<1x256xf32>
    %56 = tosa.reshape %55, %9 : (tensor<1x256xf32>, !tosa.shape<4>) -> tensor<1x2x1x128xf32>
    %57 = tosa.reshape %46, %12 : (tensor<1x1x1536xf32>, !tosa.shape<2>) -> tensor<1x1536xf32>
    %58 = linalg.matmul {cast = #linalg.type_fn<cast_signed>} ins(%57, %arg11 : tensor<1x1536xf32>, tensor<1536x256xf32>) outs(%cst_8 : tensor<1x256xf32>) -> tensor<1x256xf32>
    %59 = tosa.reshape %arg10, %10 : (tensor<256xf32>, !tosa.shape<2>) -> tensor<1x256xf32>
    %60 = tosa.add %59, %58 : (tensor<1x256xf32>, tensor<1x256xf32>) -> tensor<1x256xf32>
    %61 = tosa.reshape %60, %9 : (tensor<1x256xf32>, !tosa.shape<4>) -> tensor<1x2x1x128xf32>
    %62 = tosa.reshape %36, %8 : (tensor<1x1x128xf32>, !tosa.shape<4>) -> tensor<1x1x1x128xf32>
    %63 = tosa.reshape %37, %8 : (tensor<1x1x128xf32>, !tosa.shape<4>) -> tensor<1x1x1x128xf32>
    %64 = tosa.mul %51, %62, %15 : (tensor<1x12x1x128xf32>, tensor<1x1x1x128xf32>, tensor<1xi8>) -> tensor<1x12x1x128xf32>
    %extracted_slice = tensor.extract_slice %51[0, 0, 0, 0] [1, 12, 1, 64] [1, 1, 1, 1] : tensor<1x12x1x128xf32> to tensor<1x12x1x64xf32>
    %extracted_slice_10 = tensor.extract_slice %51[0, 0, 0, 64] [1, 12, 1, 64] [1, 1, 1, 1] : tensor<1x12x1x128xf32> to tensor<1x12x1x64xf32>
    %65 = tosa.negate %extracted_slice_10, %19, %19 : (tensor<1x12x1x64xf32>, tensor<1xf32>, tensor<1xf32>) -> tensor<1x12x1x64xf32>
    %66 = tensor.empty() : tensor<1x12x1x128xf32>
    %inserted_slice = tensor.insert_slice %65 into %66[0, 0, 0, 0] [1, 12, 1, 64] [1, 1, 1, 1] : tensor<1x12x1x64xf32> into tensor<1x12x1x128xf32>
    %inserted_slice_11 = tensor.insert_slice %extracted_slice into %inserted_slice[0, 0, 0, 64] [1, 12, 1, 64] [1, 1, 1, 1] : tensor<1x12x1x64xf32> into tensor<1x12x1x128xf32>
    %67 = tosa.mul %inserted_slice_11, %63, %15 : (tensor<1x12x1x128xf32>, tensor<1x1x1x128xf32>, tensor<1xi8>) -> tensor<1x12x1x128xf32>
    %68 = tosa.add %64, %67 : (tensor<1x12x1x128xf32>, tensor<1x12x1x128xf32>) -> tensor<1x12x1x128xf32>
    %69 = tosa.mul %56, %62, %15 : (tensor<1x2x1x128xf32>, tensor<1x1x1x128xf32>, tensor<1xi8>) -> tensor<1x2x1x128xf32>
    %extracted_slice_12 = tensor.extract_slice %56[0, 0, 0, 0] [1, 2, 1, 64] [1, 1, 1, 1] : tensor<1x2x1x128xf32> to tensor<1x2x1x64xf32>
    %extracted_slice_13 = tensor.extract_slice %56[0, 0, 0, 64] [1, 2, 1, 64] [1, 1, 1, 1] : tensor<1x2x1x128xf32> to tensor<1x2x1x64xf32>
    %70 = tosa.negate %extracted_slice_13, %19, %19 : (tensor<1x2x1x64xf32>, tensor<1xf32>, tensor<1xf32>) -> tensor<1x2x1x64xf32>
    %71 = tensor.empty() : tensor<1x2x1x128xf32>
    %inserted_slice_14 = tensor.insert_slice %70 into %71[0, 0, 0, 0] [1, 2, 1, 64] [1, 1, 1, 1] : tensor<1x2x1x64xf32> into tensor<1x2x1x128xf32>
    %inserted_slice_15 = tensor.insert_slice %extracted_slice_12 into %inserted_slice_14[0, 0, 0, 64] [1, 2, 1, 64] [1, 1, 1, 1] : tensor<1x2x1x64xf32> into tensor<1x2x1x128xf32>
    %72 = tosa.mul %inserted_slice_15, %63, %15 : (tensor<1x2x1x128xf32>, tensor<1x1x1x128xf32>, tensor<1xi8>) -> tensor<1x2x1x128xf32>
    %73 = tosa.add %69, %72 : (tensor<1x2x1x128xf32>, tensor<1x2x1x128xf32>) -> tensor<1x2x1x128xf32>
    %74 = bufferization.to_buffer %arg12 : tensor<1x2x1024x128xf32> to memref<1x2x1024x128xf32>
    %75 = tosa.reshape %arg3, %7 : (tensor<1xi64>, !tosa.shape<4>) -> tensor<1x1x1x1xi64>
    %76 = tosa.add %75, %6 : (tensor<1x1x1x1xi64>, tensor<1x2x1x128xi64>) -> tensor<1x2x1x128xi64>
    %77 = bufferization.to_buffer %76 : tensor<1x2x1x128xi64> to memref<1x2x1x128xi64>
    %78 = bufferization.to_buffer %73 : tensor<1x2x1x128xf32> to memref<1x2x1x128xf32>
    scf.for %arg399 = %c0 to %c1 step %c1 {
      scf.for %arg400 = %c0 to %c2 step %c1 {
        scf.for %arg401 = %c0 to %c1 step %c1 {
          scf.for %arg402 = %c0 to %c128 step %c1 {
            %2290 = memref.load %78[%arg399, %arg400, %arg401, %arg402] : memref<1x2x1x128xf32>
            %2291 = memref.load %77[%arg399, %arg400, %arg401, %arg402] : memref<1x2x1x128xi64>
            %2292 = arith.index_cast %2291 : i64 to index
            memref.store %2290, %74[%arg399, %arg400, %2292, %arg402] : memref<1x2x1024x128xf32>
          }
        }
      }
    }
    %79 = bufferization.to_tensor %74 restrict : memref<1x2x1024x128xf32> to tensor<1x2x1024x128xf32>
    %80 = bufferization.to_buffer %arg13 : tensor<1x2x1024x128xf32> to memref<1x2x1024x128xf32>
    %81 = tosa.reshape %arg3, %7 : (tensor<1xi64>, !tosa.shape<4>) -> tensor<1x1x1x1xi64>
    %82 = tosa.add %81, %6 : (tensor<1x1x1x1xi64>, tensor<1x2x1x128xi64>) -> tensor<1x2x1x128xi64>
    %83 = bufferization.to_buffer %82 : tensor<1x2x1x128xi64> to memref<1x2x1x128xi64>
    %84 = bufferization.to_buffer %61 : tensor<1x2x1x128xf32> to memref<1x2x1x128xf32>
    scf.for %arg399 = %c0 to %c1 step %c1 {
      scf.for %arg400 = %c0 to %c2 step %c1 {
        scf.for %arg401 = %c0 to %c1 step %c1 {
          scf.for %arg402 = %c0 to %c128 step %c1 {
            %2290 = memref.load %84[%arg399, %arg400, %arg401, %arg402] : memref<1x2x1x128xf32>
            %2291 = memref.load %83[%arg399, %arg400, %arg401, %arg402] : memref<1x2x1x128xi64>
            %2292 = arith.index_cast %2291 : i64 to index
            memref.store %2290, %80[%arg399, %arg400, %2292, %arg402] : memref<1x2x1024x128xf32>
          }
        }
      }
    }
    %85 = bufferization.to_tensor %80 restrict : memref<1x2x1024x128xf32> to tensor<1x2x1024x128xf32>
    %86 = tosa.reshape %28, %5 : (tensor<1x1024xi1>, !tosa.shape<4>) -> tensor<1x1x1x1024xi1>
    %87 = tensor.empty() : tensor<1x1x1x1024xf32>
    %88 = linalg.generic {indexing_maps = [#map1, #map1, #map1, #map1], iterator_types = ["parallel", "parallel", "parallel", "parallel"]} ins(%86, %cst_1, %cst_0 : tensor<1x1x1x1024xi1>, tensor<1x1x1x1024xf32>, tensor<1x1x1x1024xf32>) outs(%87 : tensor<1x1x1x1024xf32>) {
    ^bb0(%in: i1, %in_315: f32, %in_316: f32, %out: f32):
      %2290 = arith.select %in, %in_315, %in_316 : f32
      linalg.yield %2290 : f32
    } -> tensor<1x1x1x1024xf32>
    %89 = bufferization.to_buffer %68 : tensor<1x12x1x128xf32> to memref<1x12x1x128xf32>
    %90 = bufferization.to_buffer %88 : tensor<1x1x1x1024xf32> to memref<1x1x1x1024xf32>
    %alloc = memref.alloc() : memref<1x12x1x128xf32>
    %alloc_16 = memref.alloc() : memref<1x12x1xf32>
    %alloc_17 = memref.alloc() : memref<128xf32>
    affine.for %arg399 = 0 to 1 {
      affine.for %arg400 = 0 to 12 {
        %2290 = arith.divsi %arg400, %c6 : index
        affine.for %arg401 = 0 to 1 {
          affine.for %arg402 = 0 to 128 {
            memref.store %cst_7, %alloc_17[%arg402] : memref<128xf32>
          }
          %2291:2 = affine.for %arg402 = 0 to 1024 iter_args(%arg403 = %cst_4, %arg404 = %cst_7) -> (f32, f32) {
            %2292 = affine.for %arg405 = 0 to 128 step 16 iter_args(%arg406 = %cst) -> (vector<16xf32>) {
              %2307 = vector.load %89[%arg399, %arg400, %arg401, %arg405] : memref<1x12x1x128xf32>, vector<16xf32>
              %2308 = vector.load %74[%arg399, %2290, %arg402, %arg405] : memref<1x2x1024x128xf32>, vector<16xf32>
              %2309 = vector.fma %2307, %2308, %arg406 : vector<16xf32>
              affine.yield %2309 : vector<16xf32>
            }
            %2293 = vector.reduction <add>, %2292 : vector<16xf32> into f32
            %2294 = arith.mulf %2293, %cst_5 : f32
            %2295 = memref.load %90[%arg399, %c0, %arg401, %arg402] : memref<1x1x1x1024xf32>
            %2296 = arith.addf %2294, %2295 : f32
            %2297 = arith.cmpf ogt, %2296, %arg403 : f32
            %2298 = arith.select %2297, %2296, %arg403 : f32
            %2299 = arith.subf %arg403, %2296 : f32
            %2300 = math.exp %2299 : f32
            %2301 = arith.mulf %2300, %arg404 : f32
            %2302 = arith.addf %2301, %cst_6 : f32
            %2303 = arith.subf %2296, %arg403 : f32
            %2304 = math.exp %2303 : f32
            %2305 = arith.addf %arg404, %2304 : f32
            %2306 = arith.select %2297, %2302, %2305 : f32
            affine.for %arg405 = 0 to 128 {
              %2307 = memref.load %80[%arg399, %2290, %arg402, %arg405] : memref<1x2x1024x128xf32>
              %2308 = memref.load %alloc_17[%arg405] : memref<128xf32>
              %2309 = arith.mulf %2308, %2300 : f32
              %2310 = arith.addf %2309, %2307 : f32
              %2311 = arith.mulf %2304, %2307 : f32
              %2312 = arith.addf %2311, %2308 : f32
              %2313 = arith.select %2297, %2310, %2312 : f32
              memref.store %2313, %alloc_17[%arg405] : memref<128xf32>
            }
            affine.yield %2298, %2306 : f32, f32
          }
          memref.store %2291#1, %alloc_16[%arg399, %arg400, %arg401] : memref<1x12x1xf32>
          affine.for %arg402 = 0 to 128 {
            %2292 = memref.load %alloc_17[%arg402] : memref<128xf32>
            %2293 = arith.divf %2292, %2291#1 : f32
            memref.store %2293, %alloc[%arg399, %arg400, %arg401, %arg402] : memref<1x12x1x128xf32>
          }
        }
      }
    }
    %91 = bufferization.to_tensor %alloc restrict : memref<1x12x1x128xf32> to tensor<1x12x1x128xf32>
    %92 = tosa.reshape %91, %12 : (tensor<1x12x1x128xf32>, !tosa.shape<2>) -> tensor<1x1536xf32>
    %93 = linalg.matmul {cast = #linalg.type_fn<cast_signed>} ins(%92, %arg14 : tensor<1x1536xf32>, tensor<1536x1536xf32>) outs(%cst_9 : tensor<1x1536xf32>) -> tensor<1x1536xf32>
    %94 = tosa.reshape %93, %13 : (tensor<1x1536xf32>, !tosa.shape<3>) -> tensor<1x1x1536xf32>
    %95 = tosa.add %26, %94 : (tensor<1x1x1536xf32>, tensor<1x1x1536xf32>) -> tensor<1x1x1536xf32>
    %96 = tensor.empty() : tensor<1x1x1536xf32>
    %97 = linalg.generic {indexing_maps = [#map, #map], iterator_types = ["parallel", "parallel", "parallel"]} ins(%95 : tensor<1x1x1536xf32>) outs(%96 : tensor<1x1x1536xf32>) {
    ^bb0(%in: f32, %out: f32):
      %2290 = math.fpowi %in, %c2_i32 : f32, i32
      linalg.yield %2290 : f32
    } -> tensor<1x1x1536xf32>
    %98 = tosa.reduce_sum %97 {axis = 2 : i32} : (tensor<1x1x1536xf32>) -> tensor<1x1x1xf32>
    %99 = tosa.mul %98, %0, %15 : (tensor<1x1x1xf32>, tensor<1x1x1xf32>, tensor<1xi8>) -> tensor<1x1x1xf32>
    %100 = tosa.add %99, %14 : (tensor<1x1x1xf32>, tensor<1x1x1xf32>) -> tensor<1x1x1xf32>
    %101 = tosa.rsqrt %100 : (tensor<1x1x1xf32>) -> tensor<1x1x1xf32>
    %102 = tosa.mul %95, %101, %15 : (tensor<1x1x1536xf32>, tensor<1x1x1xf32>, tensor<1xi8>) -> tensor<1x1x1536xf32>
    %103 = tosa.reshape %arg15, %13 : (tensor<1536xf32>, !tosa.shape<3>) -> tensor<1x1x1536xf32>
    %104 = tosa.mul %103, %102, %15 : (tensor<1x1x1536xf32>, tensor<1x1x1536xf32>, tensor<1xi8>) -> tensor<1x1x1536xf32>
    %105 = tosa.reshape %104, %12 : (tensor<1x1x1536xf32>, !tosa.shape<2>) -> tensor<1x1536xf32>
    %106 = linalg.matmul {cast = #linalg.type_fn<cast_signed>} ins(%105, %arg16 : tensor<1x1536xf32>, tensor<1536x8960xf32>) outs(%cst_3 : tensor<1x8960xf32>) -> tensor<1x8960xf32>
    %107 = tosa.reshape %106, %4 : (tensor<1x8960xf32>, !tosa.shape<3>) -> tensor<1x1x8960xf32>
    %108 = tosa.sigmoid %107 : (tensor<1x1x8960xf32>) -> tensor<1x1x8960xf32>
    %109 = tosa.mul %107, %108, %15 : (tensor<1x1x8960xf32>, tensor<1x1x8960xf32>, tensor<1xi8>) -> tensor<1x1x8960xf32>
    %110 = tosa.reshape %104, %12 : (tensor<1x1x1536xf32>, !tosa.shape<2>) -> tensor<1x1536xf32>
    %111 = linalg.matmul {cast = #linalg.type_fn<cast_signed>} ins(%110, %arg17 : tensor<1x1536xf32>, tensor<1536x8960xf32>) outs(%cst_3 : tensor<1x8960xf32>) -> tensor<1x8960xf32>
    %112 = tosa.reshape %111, %4 : (tensor<1x8960xf32>, !tosa.shape<3>) -> tensor<1x1x8960xf32>
    %113 = tosa.mul %109, %112, %15 : (tensor<1x1x8960xf32>, tensor<1x1x8960xf32>, tensor<1xi8>) -> tensor<1x1x8960xf32>
    %114 = tosa.reshape %113, %3 : (tensor<1x1x8960xf32>, !tosa.shape<2>) -> tensor<1x8960xf32>
    %115 = linalg.matmul {cast = #linalg.type_fn<cast_signed>} ins(%114, %arg18 : tensor<1x8960xf32>, tensor<8960x1536xf32>) outs(%cst_9 : tensor<1x1536xf32>) -> tensor<1x1536xf32>
    %116 = tosa.reshape %115, %13 : (tensor<1x1536xf32>, !tosa.shape<3>) -> tensor<1x1x1536xf32>
    %117 = tosa.add %95, %116 : (tensor<1x1x1536xf32>, tensor<1x1x1536xf32>) -> tensor<1x1x1536xf32>
    %118 = tensor.empty() : tensor<1x1x1536xf32>
    %119 = linalg.generic {indexing_maps = [#map, #map], iterator_types = ["parallel", "parallel", "parallel"]} ins(%117 : tensor<1x1x1536xf32>) outs(%118 : tensor<1x1x1536xf32>) {
    ^bb0(%in: f32, %out: f32):
      %2290 = math.fpowi %in, %c2_i32 : f32, i32
      linalg.yield %2290 : f32
    } -> tensor<1x1x1536xf32>
    %120 = tosa.reduce_sum %119 {axis = 2 : i32} : (tensor<1x1x1536xf32>) -> tensor<1x1x1xf32>
    %121 = tosa.mul %120, %0, %15 : (tensor<1x1x1xf32>, tensor<1x1x1xf32>, tensor<1xi8>) -> tensor<1x1x1xf32>
    %122 = tosa.add %121, %14 : (tensor<1x1x1xf32>, tensor<1x1x1xf32>) -> tensor<1x1x1xf32>
    %123 = tosa.rsqrt %122 : (tensor<1x1x1xf32>) -> tensor<1x1x1xf32>
    %124 = tosa.mul %117, %123, %15 : (tensor<1x1x1536xf32>, tensor<1x1x1xf32>, tensor<1xi8>) -> tensor<1x1x1536xf32>
    %125 = tosa.reshape %arg19, %13 : (tensor<1536xf32>, !tosa.shape<3>) -> tensor<1x1x1536xf32>
    %126 = tosa.mul %125, %124, %15 : (tensor<1x1x1536xf32>, tensor<1x1x1536xf32>, tensor<1xi8>) -> tensor<1x1x1536xf32>
    %127 = tosa.reshape %126, %12 : (tensor<1x1x1536xf32>, !tosa.shape<2>) -> tensor<1x1536xf32>
    %128 = linalg.matmul {cast = #linalg.type_fn<cast_signed>} ins(%127, %arg21 : tensor<1x1536xf32>, tensor<1536x1536xf32>) outs(%cst_9 : tensor<1x1536xf32>) -> tensor<1x1536xf32>
    %129 = tosa.reshape %arg20, %12 : (tensor<1536xf32>, !tosa.shape<2>) -> tensor<1x1536xf32>
    %130 = tosa.add %129, %128 : (tensor<1x1536xf32>, tensor<1x1536xf32>) -> tensor<1x1536xf32>
    %131 = tosa.reshape %130, %11 : (tensor<1x1536xf32>, !tosa.shape<4>) -> tensor<1x12x1x128xf32>
    %132 = tosa.reshape %126, %12 : (tensor<1x1x1536xf32>, !tosa.shape<2>) -> tensor<1x1536xf32>
    %133 = linalg.matmul {cast = #linalg.type_fn<cast_signed>} ins(%132, %arg23 : tensor<1x1536xf32>, tensor<1536x256xf32>) outs(%cst_8 : tensor<1x256xf32>) -> tensor<1x256xf32>
    %134 = tosa.reshape %arg22, %10 : (tensor<256xf32>, !tosa.shape<2>) -> tensor<1x256xf32>
    %135 = tosa.add %134, %133 : (tensor<1x256xf32>, tensor<1x256xf32>) -> tensor<1x256xf32>
    %136 = tosa.reshape %135, %9 : (tensor<1x256xf32>, !tosa.shape<4>) -> tensor<1x2x1x128xf32>
    %137 = tosa.reshape %126, %12 : (tensor<1x1x1536xf32>, !tosa.shape<2>) -> tensor<1x1536xf32>
    %138 = linalg.matmul {cast = #linalg.type_fn<cast_signed>} ins(%137, %arg25 : tensor<1x1536xf32>, tensor<1536x256xf32>) outs(%cst_8 : tensor<1x256xf32>) -> tensor<1x256xf32>
    %139 = tosa.reshape %arg24, %10 : (tensor<256xf32>, !tosa.shape<2>) -> tensor<1x256xf32>
    %140 = tosa.add %139, %138 : (tensor<1x256xf32>, tensor<1x256xf32>) -> tensor<1x256xf32>
    %141 = tosa.reshape %140, %9 : (tensor<1x256xf32>, !tosa.shape<4>) -> tensor<1x2x1x128xf32>
    %142 = tosa.reshape %36, %8 : (tensor<1x1x128xf32>, !tosa.shape<4>) -> tensor<1x1x1x128xf32>
    %143 = tosa.reshape %37, %8 : (tensor<1x1x128xf32>, !tosa.shape<4>) -> tensor<1x1x1x128xf32>
    %144 = tosa.mul %131, %142, %15 : (tensor<1x12x1x128xf32>, tensor<1x1x1x128xf32>, tensor<1xi8>) -> tensor<1x12x1x128xf32>
    %extracted_slice_18 = tensor.extract_slice %131[0, 0, 0, 0] [1, 12, 1, 64] [1, 1, 1, 1] : tensor<1x12x1x128xf32> to tensor<1x12x1x64xf32>
    %extracted_slice_19 = tensor.extract_slice %131[0, 0, 0, 64] [1, 12, 1, 64] [1, 1, 1, 1] : tensor<1x12x1x128xf32> to tensor<1x12x1x64xf32>
    %145 = tosa.negate %extracted_slice_19, %19, %19 : (tensor<1x12x1x64xf32>, tensor<1xf32>, tensor<1xf32>) -> tensor<1x12x1x64xf32>
    %146 = tensor.empty() : tensor<1x12x1x128xf32>
    %inserted_slice_20 = tensor.insert_slice %145 into %146[0, 0, 0, 0] [1, 12, 1, 64] [1, 1, 1, 1] : tensor<1x12x1x64xf32> into tensor<1x12x1x128xf32>
    %inserted_slice_21 = tensor.insert_slice %extracted_slice_18 into %inserted_slice_20[0, 0, 0, 64] [1, 12, 1, 64] [1, 1, 1, 1] : tensor<1x12x1x64xf32> into tensor<1x12x1x128xf32>
    %147 = tosa.mul %inserted_slice_21, %143, %15 : (tensor<1x12x1x128xf32>, tensor<1x1x1x128xf32>, tensor<1xi8>) -> tensor<1x12x1x128xf32>
    %148 = tosa.add %144, %147 : (tensor<1x12x1x128xf32>, tensor<1x12x1x128xf32>) -> tensor<1x12x1x128xf32>
    %149 = tosa.mul %136, %142, %15 : (tensor<1x2x1x128xf32>, tensor<1x1x1x128xf32>, tensor<1xi8>) -> tensor<1x2x1x128xf32>
    %extracted_slice_22 = tensor.extract_slice %136[0, 0, 0, 0] [1, 2, 1, 64] [1, 1, 1, 1] : tensor<1x2x1x128xf32> to tensor<1x2x1x64xf32>
    %extracted_slice_23 = tensor.extract_slice %136[0, 0, 0, 64] [1, 2, 1, 64] [1, 1, 1, 1] : tensor<1x2x1x128xf32> to tensor<1x2x1x64xf32>
    %150 = tosa.negate %extracted_slice_23, %19, %19 : (tensor<1x2x1x64xf32>, tensor<1xf32>, tensor<1xf32>) -> tensor<1x2x1x64xf32>
    %151 = tensor.empty() : tensor<1x2x1x128xf32>
    %inserted_slice_24 = tensor.insert_slice %150 into %151[0, 0, 0, 0] [1, 2, 1, 64] [1, 1, 1, 1] : tensor<1x2x1x64xf32> into tensor<1x2x1x128xf32>
    %inserted_slice_25 = tensor.insert_slice %extracted_slice_22 into %inserted_slice_24[0, 0, 0, 64] [1, 2, 1, 64] [1, 1, 1, 1] : tensor<1x2x1x64xf32> into tensor<1x2x1x128xf32>
    %152 = tosa.mul %inserted_slice_25, %143, %15 : (tensor<1x2x1x128xf32>, tensor<1x1x1x128xf32>, tensor<1xi8>) -> tensor<1x2x1x128xf32>
    %153 = tosa.add %149, %152 : (tensor<1x2x1x128xf32>, tensor<1x2x1x128xf32>) -> tensor<1x2x1x128xf32>
    %154 = bufferization.to_buffer %arg26 : tensor<1x2x1024x128xf32> to memref<1x2x1024x128xf32>
    %155 = tosa.reshape %arg3, %7 : (tensor<1xi64>, !tosa.shape<4>) -> tensor<1x1x1x1xi64>
    %156 = tosa.add %155, %6 : (tensor<1x1x1x1xi64>, tensor<1x2x1x128xi64>) -> tensor<1x2x1x128xi64>
    %157 = bufferization.to_buffer %156 : tensor<1x2x1x128xi64> to memref<1x2x1x128xi64>
    %158 = bufferization.to_buffer %153 : tensor<1x2x1x128xf32> to memref<1x2x1x128xf32>
    scf.for %arg399 = %c0 to %c1 step %c1 {
      scf.for %arg400 = %c0 to %c2 step %c1 {
        scf.for %arg401 = %c0 to %c1 step %c1 {
          scf.for %arg402 = %c0 to %c128 step %c1 {
            %2290 = memref.load %158[%arg399, %arg400, %arg401, %arg402] : memref<1x2x1x128xf32>
            %2291 = memref.load %157[%arg399, %arg400, %arg401, %arg402] : memref<1x2x1x128xi64>
            %2292 = arith.index_cast %2291 : i64 to index
            memref.store %2290, %154[%arg399, %arg400, %2292, %arg402] : memref<1x2x1024x128xf32>
          }
        }
      }
    }
    %159 = bufferization.to_tensor %154 restrict : memref<1x2x1024x128xf32> to tensor<1x2x1024x128xf32>
    %160 = bufferization.to_buffer %arg27 : tensor<1x2x1024x128xf32> to memref<1x2x1024x128xf32>
    %161 = tosa.reshape %arg3, %7 : (tensor<1xi64>, !tosa.shape<4>) -> tensor<1x1x1x1xi64>
    %162 = tosa.add %161, %6 : (tensor<1x1x1x1xi64>, tensor<1x2x1x128xi64>) -> tensor<1x2x1x128xi64>
    %163 = bufferization.to_buffer %162 : tensor<1x2x1x128xi64> to memref<1x2x1x128xi64>
    %164 = bufferization.to_buffer %141 : tensor<1x2x1x128xf32> to memref<1x2x1x128xf32>
    scf.for %arg399 = %c0 to %c1 step %c1 {
      scf.for %arg400 = %c0 to %c2 step %c1 {
        scf.for %arg401 = %c0 to %c1 step %c1 {
          scf.for %arg402 = %c0 to %c128 step %c1 {
            %2290 = memref.load %164[%arg399, %arg400, %arg401, %arg402] : memref<1x2x1x128xf32>
            %2291 = memref.load %163[%arg399, %arg400, %arg401, %arg402] : memref<1x2x1x128xi64>
            %2292 = arith.index_cast %2291 : i64 to index
            memref.store %2290, %160[%arg399, %arg400, %2292, %arg402] : memref<1x2x1024x128xf32>
          }
        }
      }
    }
    %165 = bufferization.to_tensor %160 restrict : memref<1x2x1024x128xf32> to tensor<1x2x1024x128xf32>
    %166 = tosa.reshape %28, %5 : (tensor<1x1024xi1>, !tosa.shape<4>) -> tensor<1x1x1x1024xi1>
    %167 = tensor.empty() : tensor<1x1x1x1024xf32>
    %168 = linalg.generic {indexing_maps = [#map1, #map1, #map1, #map1], iterator_types = ["parallel", "parallel", "parallel", "parallel"]} ins(%166, %cst_1, %cst_0 : tensor<1x1x1x1024xi1>, tensor<1x1x1x1024xf32>, tensor<1x1x1x1024xf32>) outs(%167 : tensor<1x1x1x1024xf32>) {
    ^bb0(%in: i1, %in_315: f32, %in_316: f32, %out: f32):
      %2290 = arith.select %in, %in_315, %in_316 : f32
      linalg.yield %2290 : f32
    } -> tensor<1x1x1x1024xf32>
    %169 = bufferization.to_buffer %148 : tensor<1x12x1x128xf32> to memref<1x12x1x128xf32>
    %170 = bufferization.to_buffer %168 : tensor<1x1x1x1024xf32> to memref<1x1x1x1024xf32>
    %alloc_26 = memref.alloc() : memref<1x12x1x128xf32>
    %alloc_27 = memref.alloc() : memref<1x12x1xf32>
    %alloc_28 = memref.alloc() : memref<128xf32>
    affine.for %arg399 = 0 to 1 {
      affine.for %arg400 = 0 to 12 {
        %2290 = arith.divsi %arg400, %c6 : index
        affine.for %arg401 = 0 to 1 {
          affine.for %arg402 = 0 to 128 {
            memref.store %cst_7, %alloc_28[%arg402] : memref<128xf32>
          }
          %2291:2 = affine.for %arg402 = 0 to 1024 iter_args(%arg403 = %cst_4, %arg404 = %cst_7) -> (f32, f32) {
            %2292 = affine.for %arg405 = 0 to 128 step 16 iter_args(%arg406 = %cst) -> (vector<16xf32>) {
              %2307 = vector.load %169[%arg399, %arg400, %arg401, %arg405] : memref<1x12x1x128xf32>, vector<16xf32>
              %2308 = vector.load %154[%arg399, %2290, %arg402, %arg405] : memref<1x2x1024x128xf32>, vector<16xf32>
              %2309 = vector.fma %2307, %2308, %arg406 : vector<16xf32>
              affine.yield %2309 : vector<16xf32>
            }
            %2293 = vector.reduction <add>, %2292 : vector<16xf32> into f32
            %2294 = arith.mulf %2293, %cst_5 : f32
            %2295 = memref.load %170[%arg399, %c0, %arg401, %arg402] : memref<1x1x1x1024xf32>
            %2296 = arith.addf %2294, %2295 : f32
            %2297 = arith.cmpf ogt, %2296, %arg403 : f32
            %2298 = arith.select %2297, %2296, %arg403 : f32
            %2299 = arith.subf %arg403, %2296 : f32
            %2300 = math.exp %2299 : f32
            %2301 = arith.mulf %2300, %arg404 : f32
            %2302 = arith.addf %2301, %cst_6 : f32
            %2303 = arith.subf %2296, %arg403 : f32
            %2304 = math.exp %2303 : f32
            %2305 = arith.addf %arg404, %2304 : f32
            %2306 = arith.select %2297, %2302, %2305 : f32
            affine.for %arg405 = 0 to 128 {
              %2307 = memref.load %160[%arg399, %2290, %arg402, %arg405] : memref<1x2x1024x128xf32>
              %2308 = memref.load %alloc_28[%arg405] : memref<128xf32>
              %2309 = arith.mulf %2308, %2300 : f32
              %2310 = arith.addf %2309, %2307 : f32
              %2311 = arith.mulf %2304, %2307 : f32
              %2312 = arith.addf %2311, %2308 : f32
              %2313 = arith.select %2297, %2310, %2312 : f32
              memref.store %2313, %alloc_28[%arg405] : memref<128xf32>
            }
            affine.yield %2298, %2306 : f32, f32
          }
          memref.store %2291#1, %alloc_27[%arg399, %arg400, %arg401] : memref<1x12x1xf32>
          affine.for %arg402 = 0 to 128 {
            %2292 = memref.load %alloc_28[%arg402] : memref<128xf32>
            %2293 = arith.divf %2292, %2291#1 : f32
            memref.store %2293, %alloc_26[%arg399, %arg400, %arg401, %arg402] : memref<1x12x1x128xf32>
          }
        }
      }
    }
    %171 = bufferization.to_tensor %alloc_26 restrict : memref<1x12x1x128xf32> to tensor<1x12x1x128xf32>
    %172 = tosa.reshape %171, %12 : (tensor<1x12x1x128xf32>, !tosa.shape<2>) -> tensor<1x1536xf32>
    %173 = linalg.matmul {cast = #linalg.type_fn<cast_signed>} ins(%172, %arg28 : tensor<1x1536xf32>, tensor<1536x1536xf32>) outs(%cst_9 : tensor<1x1536xf32>) -> tensor<1x1536xf32>
    %174 = tosa.reshape %173, %13 : (tensor<1x1536xf32>, !tosa.shape<3>) -> tensor<1x1x1536xf32>
    %175 = tosa.add %117, %174 : (tensor<1x1x1536xf32>, tensor<1x1x1536xf32>) -> tensor<1x1x1536xf32>
    %176 = tensor.empty() : tensor<1x1x1536xf32>
    %177 = linalg.generic {indexing_maps = [#map, #map], iterator_types = ["parallel", "parallel", "parallel"]} ins(%175 : tensor<1x1x1536xf32>) outs(%176 : tensor<1x1x1536xf32>) {
    ^bb0(%in: f32, %out: f32):
      %2290 = math.fpowi %in, %c2_i32 : f32, i32
      linalg.yield %2290 : f32
    } -> tensor<1x1x1536xf32>
    %178 = tosa.reduce_sum %177 {axis = 2 : i32} : (tensor<1x1x1536xf32>) -> tensor<1x1x1xf32>
    %179 = tosa.mul %178, %0, %15 : (tensor<1x1x1xf32>, tensor<1x1x1xf32>, tensor<1xi8>) -> tensor<1x1x1xf32>
    %180 = tosa.add %179, %14 : (tensor<1x1x1xf32>, tensor<1x1x1xf32>) -> tensor<1x1x1xf32>
    %181 = tosa.rsqrt %180 : (tensor<1x1x1xf32>) -> tensor<1x1x1xf32>
    %182 = tosa.mul %175, %181, %15 : (tensor<1x1x1536xf32>, tensor<1x1x1xf32>, tensor<1xi8>) -> tensor<1x1x1536xf32>
    %183 = tosa.reshape %arg29, %13 : (tensor<1536xf32>, !tosa.shape<3>) -> tensor<1x1x1536xf32>
    %184 = tosa.mul %183, %182, %15 : (tensor<1x1x1536xf32>, tensor<1x1x1536xf32>, tensor<1xi8>) -> tensor<1x1x1536xf32>
    %185 = tosa.reshape %184, %12 : (tensor<1x1x1536xf32>, !tosa.shape<2>) -> tensor<1x1536xf32>
    %186 = linalg.matmul {cast = #linalg.type_fn<cast_signed>} ins(%185, %arg30 : tensor<1x1536xf32>, tensor<1536x8960xf32>) outs(%cst_3 : tensor<1x8960xf32>) -> tensor<1x8960xf32>
    %187 = tosa.reshape %186, %4 : (tensor<1x8960xf32>, !tosa.shape<3>) -> tensor<1x1x8960xf32>
    %188 = tosa.sigmoid %187 : (tensor<1x1x8960xf32>) -> tensor<1x1x8960xf32>
    %189 = tosa.mul %187, %188, %15 : (tensor<1x1x8960xf32>, tensor<1x1x8960xf32>, tensor<1xi8>) -> tensor<1x1x8960xf32>
    %190 = tosa.reshape %184, %12 : (tensor<1x1x1536xf32>, !tosa.shape<2>) -> tensor<1x1536xf32>
    %191 = linalg.matmul {cast = #linalg.type_fn<cast_signed>} ins(%190, %arg31 : tensor<1x1536xf32>, tensor<1536x8960xf32>) outs(%cst_3 : tensor<1x8960xf32>) -> tensor<1x8960xf32>
    %192 = tosa.reshape %191, %4 : (tensor<1x8960xf32>, !tosa.shape<3>) -> tensor<1x1x8960xf32>
    %193 = tosa.mul %189, %192, %15 : (tensor<1x1x8960xf32>, tensor<1x1x8960xf32>, tensor<1xi8>) -> tensor<1x1x8960xf32>
    %194 = tosa.reshape %193, %3 : (tensor<1x1x8960xf32>, !tosa.shape<2>) -> tensor<1x8960xf32>
    %195 = linalg.matmul {cast = #linalg.type_fn<cast_signed>} ins(%194, %arg32 : tensor<1x8960xf32>, tensor<8960x1536xf32>) outs(%cst_9 : tensor<1x1536xf32>) -> tensor<1x1536xf32>
    %196 = tosa.reshape %195, %13 : (tensor<1x1536xf32>, !tosa.shape<3>) -> tensor<1x1x1536xf32>
    %197 = tosa.add %175, %196 : (tensor<1x1x1536xf32>, tensor<1x1x1536xf32>) -> tensor<1x1x1536xf32>
    %198 = tensor.empty() : tensor<1x1x1536xf32>
    %199 = linalg.generic {indexing_maps = [#map, #map], iterator_types = ["parallel", "parallel", "parallel"]} ins(%197 : tensor<1x1x1536xf32>) outs(%198 : tensor<1x1x1536xf32>) {
    ^bb0(%in: f32, %out: f32):
      %2290 = math.fpowi %in, %c2_i32 : f32, i32
      linalg.yield %2290 : f32
    } -> tensor<1x1x1536xf32>
    %200 = tosa.reduce_sum %199 {axis = 2 : i32} : (tensor<1x1x1536xf32>) -> tensor<1x1x1xf32>
    %201 = tosa.mul %200, %0, %15 : (tensor<1x1x1xf32>, tensor<1x1x1xf32>, tensor<1xi8>) -> tensor<1x1x1xf32>
    %202 = tosa.add %201, %14 : (tensor<1x1x1xf32>, tensor<1x1x1xf32>) -> tensor<1x1x1xf32>
    %203 = tosa.rsqrt %202 : (tensor<1x1x1xf32>) -> tensor<1x1x1xf32>
    %204 = tosa.mul %197, %203, %15 : (tensor<1x1x1536xf32>, tensor<1x1x1xf32>, tensor<1xi8>) -> tensor<1x1x1536xf32>
    %205 = tosa.reshape %arg33, %13 : (tensor<1536xf32>, !tosa.shape<3>) -> tensor<1x1x1536xf32>
    %206 = tosa.mul %205, %204, %15 : (tensor<1x1x1536xf32>, tensor<1x1x1536xf32>, tensor<1xi8>) -> tensor<1x1x1536xf32>
    %207 = tosa.reshape %206, %12 : (tensor<1x1x1536xf32>, !tosa.shape<2>) -> tensor<1x1536xf32>
    %208 = linalg.matmul {cast = #linalg.type_fn<cast_signed>} ins(%207, %arg35 : tensor<1x1536xf32>, tensor<1536x1536xf32>) outs(%cst_9 : tensor<1x1536xf32>) -> tensor<1x1536xf32>
    %209 = tosa.reshape %arg34, %12 : (tensor<1536xf32>, !tosa.shape<2>) -> tensor<1x1536xf32>
    %210 = tosa.add %209, %208 : (tensor<1x1536xf32>, tensor<1x1536xf32>) -> tensor<1x1536xf32>
    %211 = tosa.reshape %210, %11 : (tensor<1x1536xf32>, !tosa.shape<4>) -> tensor<1x12x1x128xf32>
    %212 = tosa.reshape %206, %12 : (tensor<1x1x1536xf32>, !tosa.shape<2>) -> tensor<1x1536xf32>
    %213 = linalg.matmul {cast = #linalg.type_fn<cast_signed>} ins(%212, %arg37 : tensor<1x1536xf32>, tensor<1536x256xf32>) outs(%cst_8 : tensor<1x256xf32>) -> tensor<1x256xf32>
    %214 = tosa.reshape %arg36, %10 : (tensor<256xf32>, !tosa.shape<2>) -> tensor<1x256xf32>
    %215 = tosa.add %214, %213 : (tensor<1x256xf32>, tensor<1x256xf32>) -> tensor<1x256xf32>
    %216 = tosa.reshape %215, %9 : (tensor<1x256xf32>, !tosa.shape<4>) -> tensor<1x2x1x128xf32>
    %217 = tosa.reshape %206, %12 : (tensor<1x1x1536xf32>, !tosa.shape<2>) -> tensor<1x1536xf32>
    %218 = linalg.matmul {cast = #linalg.type_fn<cast_signed>} ins(%217, %arg39 : tensor<1x1536xf32>, tensor<1536x256xf32>) outs(%cst_8 : tensor<1x256xf32>) -> tensor<1x256xf32>
    %219 = tosa.reshape %arg38, %10 : (tensor<256xf32>, !tosa.shape<2>) -> tensor<1x256xf32>
    %220 = tosa.add %219, %218 : (tensor<1x256xf32>, tensor<1x256xf32>) -> tensor<1x256xf32>
    %221 = tosa.reshape %220, %9 : (tensor<1x256xf32>, !tosa.shape<4>) -> tensor<1x2x1x128xf32>
    %222 = tosa.reshape %36, %8 : (tensor<1x1x128xf32>, !tosa.shape<4>) -> tensor<1x1x1x128xf32>
    %223 = tosa.reshape %37, %8 : (tensor<1x1x128xf32>, !tosa.shape<4>) -> tensor<1x1x1x128xf32>
    %224 = tosa.mul %211, %222, %15 : (tensor<1x12x1x128xf32>, tensor<1x1x1x128xf32>, tensor<1xi8>) -> tensor<1x12x1x128xf32>
    %extracted_slice_29 = tensor.extract_slice %211[0, 0, 0, 0] [1, 12, 1, 64] [1, 1, 1, 1] : tensor<1x12x1x128xf32> to tensor<1x12x1x64xf32>
    %extracted_slice_30 = tensor.extract_slice %211[0, 0, 0, 64] [1, 12, 1, 64] [1, 1, 1, 1] : tensor<1x12x1x128xf32> to tensor<1x12x1x64xf32>
    %225 = tosa.negate %extracted_slice_30, %19, %19 : (tensor<1x12x1x64xf32>, tensor<1xf32>, tensor<1xf32>) -> tensor<1x12x1x64xf32>
    %226 = tensor.empty() : tensor<1x12x1x128xf32>
    %inserted_slice_31 = tensor.insert_slice %225 into %226[0, 0, 0, 0] [1, 12, 1, 64] [1, 1, 1, 1] : tensor<1x12x1x64xf32> into tensor<1x12x1x128xf32>
    %inserted_slice_32 = tensor.insert_slice %extracted_slice_29 into %inserted_slice_31[0, 0, 0, 64] [1, 12, 1, 64] [1, 1, 1, 1] : tensor<1x12x1x64xf32> into tensor<1x12x1x128xf32>
    %227 = tosa.mul %inserted_slice_32, %223, %15 : (tensor<1x12x1x128xf32>, tensor<1x1x1x128xf32>, tensor<1xi8>) -> tensor<1x12x1x128xf32>
    %228 = tosa.add %224, %227 : (tensor<1x12x1x128xf32>, tensor<1x12x1x128xf32>) -> tensor<1x12x1x128xf32>
    %229 = tosa.mul %216, %222, %15 : (tensor<1x2x1x128xf32>, tensor<1x1x1x128xf32>, tensor<1xi8>) -> tensor<1x2x1x128xf32>
    %extracted_slice_33 = tensor.extract_slice %216[0, 0, 0, 0] [1, 2, 1, 64] [1, 1, 1, 1] : tensor<1x2x1x128xf32> to tensor<1x2x1x64xf32>
    %extracted_slice_34 = tensor.extract_slice %216[0, 0, 0, 64] [1, 2, 1, 64] [1, 1, 1, 1] : tensor<1x2x1x128xf32> to tensor<1x2x1x64xf32>
    %230 = tosa.negate %extracted_slice_34, %19, %19 : (tensor<1x2x1x64xf32>, tensor<1xf32>, tensor<1xf32>) -> tensor<1x2x1x64xf32>
    %231 = tensor.empty() : tensor<1x2x1x128xf32>
    %inserted_slice_35 = tensor.insert_slice %230 into %231[0, 0, 0, 0] [1, 2, 1, 64] [1, 1, 1, 1] : tensor<1x2x1x64xf32> into tensor<1x2x1x128xf32>
    %inserted_slice_36 = tensor.insert_slice %extracted_slice_33 into %inserted_slice_35[0, 0, 0, 64] [1, 2, 1, 64] [1, 1, 1, 1] : tensor<1x2x1x64xf32> into tensor<1x2x1x128xf32>
    %232 = tosa.mul %inserted_slice_36, %223, %15 : (tensor<1x2x1x128xf32>, tensor<1x1x1x128xf32>, tensor<1xi8>) -> tensor<1x2x1x128xf32>
    %233 = tosa.add %229, %232 : (tensor<1x2x1x128xf32>, tensor<1x2x1x128xf32>) -> tensor<1x2x1x128xf32>
    %234 = bufferization.to_buffer %arg40 : tensor<1x2x1024x128xf32> to memref<1x2x1024x128xf32>
    %235 = tosa.reshape %arg3, %7 : (tensor<1xi64>, !tosa.shape<4>) -> tensor<1x1x1x1xi64>
    %236 = tosa.add %235, %6 : (tensor<1x1x1x1xi64>, tensor<1x2x1x128xi64>) -> tensor<1x2x1x128xi64>
    %237 = bufferization.to_buffer %236 : tensor<1x2x1x128xi64> to memref<1x2x1x128xi64>
    %238 = bufferization.to_buffer %233 : tensor<1x2x1x128xf32> to memref<1x2x1x128xf32>
    scf.for %arg399 = %c0 to %c1 step %c1 {
      scf.for %arg400 = %c0 to %c2 step %c1 {
        scf.for %arg401 = %c0 to %c1 step %c1 {
          scf.for %arg402 = %c0 to %c128 step %c1 {
            %2290 = memref.load %238[%arg399, %arg400, %arg401, %arg402] : memref<1x2x1x128xf32>
            %2291 = memref.load %237[%arg399, %arg400, %arg401, %arg402] : memref<1x2x1x128xi64>
            %2292 = arith.index_cast %2291 : i64 to index
            memref.store %2290, %234[%arg399, %arg400, %2292, %arg402] : memref<1x2x1024x128xf32>
          }
        }
      }
    }
    %239 = bufferization.to_tensor %234 restrict : memref<1x2x1024x128xf32> to tensor<1x2x1024x128xf32>
    %240 = bufferization.to_buffer %arg41 : tensor<1x2x1024x128xf32> to memref<1x2x1024x128xf32>
    %241 = tosa.reshape %arg3, %7 : (tensor<1xi64>, !tosa.shape<4>) -> tensor<1x1x1x1xi64>
    %242 = tosa.add %241, %6 : (tensor<1x1x1x1xi64>, tensor<1x2x1x128xi64>) -> tensor<1x2x1x128xi64>
    %243 = bufferization.to_buffer %242 : tensor<1x2x1x128xi64> to memref<1x2x1x128xi64>
    %244 = bufferization.to_buffer %221 : tensor<1x2x1x128xf32> to memref<1x2x1x128xf32>
    scf.for %arg399 = %c0 to %c1 step %c1 {
      scf.for %arg400 = %c0 to %c2 step %c1 {
        scf.for %arg401 = %c0 to %c1 step %c1 {
          scf.for %arg402 = %c0 to %c128 step %c1 {
            %2290 = memref.load %244[%arg399, %arg400, %arg401, %arg402] : memref<1x2x1x128xf32>
            %2291 = memref.load %243[%arg399, %arg400, %arg401, %arg402] : memref<1x2x1x128xi64>
            %2292 = arith.index_cast %2291 : i64 to index
            memref.store %2290, %240[%arg399, %arg400, %2292, %arg402] : memref<1x2x1024x128xf32>
          }
        }
      }
    }
    %245 = bufferization.to_tensor %240 restrict : memref<1x2x1024x128xf32> to tensor<1x2x1024x128xf32>
    %246 = tosa.reshape %28, %5 : (tensor<1x1024xi1>, !tosa.shape<4>) -> tensor<1x1x1x1024xi1>
    %247 = tensor.empty() : tensor<1x1x1x1024xf32>
    %248 = linalg.generic {indexing_maps = [#map1, #map1, #map1, #map1], iterator_types = ["parallel", "parallel", "parallel", "parallel"]} ins(%246, %cst_1, %cst_0 : tensor<1x1x1x1024xi1>, tensor<1x1x1x1024xf32>, tensor<1x1x1x1024xf32>) outs(%247 : tensor<1x1x1x1024xf32>) {
    ^bb0(%in: i1, %in_315: f32, %in_316: f32, %out: f32):
      %2290 = arith.select %in, %in_315, %in_316 : f32
      linalg.yield %2290 : f32
    } -> tensor<1x1x1x1024xf32>
    %249 = bufferization.to_buffer %228 : tensor<1x12x1x128xf32> to memref<1x12x1x128xf32>
    %250 = bufferization.to_buffer %248 : tensor<1x1x1x1024xf32> to memref<1x1x1x1024xf32>
    %alloc_37 = memref.alloc() : memref<1x12x1x128xf32>
    %alloc_38 = memref.alloc() : memref<1x12x1xf32>
    %alloc_39 = memref.alloc() : memref<128xf32>
    affine.for %arg399 = 0 to 1 {
      affine.for %arg400 = 0 to 12 {
        %2290 = arith.divsi %arg400, %c6 : index
        affine.for %arg401 = 0 to 1 {
          affine.for %arg402 = 0 to 128 {
            memref.store %cst_7, %alloc_39[%arg402] : memref<128xf32>
          }
          %2291:2 = affine.for %arg402 = 0 to 1024 iter_args(%arg403 = %cst_4, %arg404 = %cst_7) -> (f32, f32) {
            %2292 = affine.for %arg405 = 0 to 128 step 16 iter_args(%arg406 = %cst) -> (vector<16xf32>) {
              %2307 = vector.load %249[%arg399, %arg400, %arg401, %arg405] : memref<1x12x1x128xf32>, vector<16xf32>
              %2308 = vector.load %234[%arg399, %2290, %arg402, %arg405] : memref<1x2x1024x128xf32>, vector<16xf32>
              %2309 = vector.fma %2307, %2308, %arg406 : vector<16xf32>
              affine.yield %2309 : vector<16xf32>
            }
            %2293 = vector.reduction <add>, %2292 : vector<16xf32> into f32
            %2294 = arith.mulf %2293, %cst_5 : f32
            %2295 = memref.load %250[%arg399, %c0, %arg401, %arg402] : memref<1x1x1x1024xf32>
            %2296 = arith.addf %2294, %2295 : f32
            %2297 = arith.cmpf ogt, %2296, %arg403 : f32
            %2298 = arith.select %2297, %2296, %arg403 : f32
            %2299 = arith.subf %arg403, %2296 : f32
            %2300 = math.exp %2299 : f32
            %2301 = arith.mulf %2300, %arg404 : f32
            %2302 = arith.addf %2301, %cst_6 : f32
            %2303 = arith.subf %2296, %arg403 : f32
            %2304 = math.exp %2303 : f32
            %2305 = arith.addf %arg404, %2304 : f32
            %2306 = arith.select %2297, %2302, %2305 : f32
            affine.for %arg405 = 0 to 128 {
              %2307 = memref.load %240[%arg399, %2290, %arg402, %arg405] : memref<1x2x1024x128xf32>
              %2308 = memref.load %alloc_39[%arg405] : memref<128xf32>
              %2309 = arith.mulf %2308, %2300 : f32
              %2310 = arith.addf %2309, %2307 : f32
              %2311 = arith.mulf %2304, %2307 : f32
              %2312 = arith.addf %2311, %2308 : f32
              %2313 = arith.select %2297, %2310, %2312 : f32
              memref.store %2313, %alloc_39[%arg405] : memref<128xf32>
            }
            affine.yield %2298, %2306 : f32, f32
          }
          memref.store %2291#1, %alloc_38[%arg399, %arg400, %arg401] : memref<1x12x1xf32>
          affine.for %arg402 = 0 to 128 {
            %2292 = memref.load %alloc_39[%arg402] : memref<128xf32>
            %2293 = arith.divf %2292, %2291#1 : f32
            memref.store %2293, %alloc_37[%arg399, %arg400, %arg401, %arg402] : memref<1x12x1x128xf32>
          }
        }
      }
    }
    %251 = bufferization.to_tensor %alloc_37 restrict : memref<1x12x1x128xf32> to tensor<1x12x1x128xf32>
    %252 = tosa.reshape %251, %12 : (tensor<1x12x1x128xf32>, !tosa.shape<2>) -> tensor<1x1536xf32>
    %253 = linalg.matmul {cast = #linalg.type_fn<cast_signed>} ins(%252, %arg42 : tensor<1x1536xf32>, tensor<1536x1536xf32>) outs(%cst_9 : tensor<1x1536xf32>) -> tensor<1x1536xf32>
    %254 = tosa.reshape %253, %13 : (tensor<1x1536xf32>, !tosa.shape<3>) -> tensor<1x1x1536xf32>
    %255 = tosa.add %197, %254 : (tensor<1x1x1536xf32>, tensor<1x1x1536xf32>) -> tensor<1x1x1536xf32>
    %256 = tensor.empty() : tensor<1x1x1536xf32>
    %257 = linalg.generic {indexing_maps = [#map, #map], iterator_types = ["parallel", "parallel", "parallel"]} ins(%255 : tensor<1x1x1536xf32>) outs(%256 : tensor<1x1x1536xf32>) {
    ^bb0(%in: f32, %out: f32):
      %2290 = math.fpowi %in, %c2_i32 : f32, i32
      linalg.yield %2290 : f32
    } -> tensor<1x1x1536xf32>
    %258 = tosa.reduce_sum %257 {axis = 2 : i32} : (tensor<1x1x1536xf32>) -> tensor<1x1x1xf32>
    %259 = tosa.mul %258, %0, %15 : (tensor<1x1x1xf32>, tensor<1x1x1xf32>, tensor<1xi8>) -> tensor<1x1x1xf32>
    %260 = tosa.add %259, %14 : (tensor<1x1x1xf32>, tensor<1x1x1xf32>) -> tensor<1x1x1xf32>
    %261 = tosa.rsqrt %260 : (tensor<1x1x1xf32>) -> tensor<1x1x1xf32>
    %262 = tosa.mul %255, %261, %15 : (tensor<1x1x1536xf32>, tensor<1x1x1xf32>, tensor<1xi8>) -> tensor<1x1x1536xf32>
    %263 = tosa.reshape %arg43, %13 : (tensor<1536xf32>, !tosa.shape<3>) -> tensor<1x1x1536xf32>
    %264 = tosa.mul %263, %262, %15 : (tensor<1x1x1536xf32>, tensor<1x1x1536xf32>, tensor<1xi8>) -> tensor<1x1x1536xf32>
    %265 = tosa.reshape %264, %12 : (tensor<1x1x1536xf32>, !tosa.shape<2>) -> tensor<1x1536xf32>
    %266 = linalg.matmul {cast = #linalg.type_fn<cast_signed>} ins(%265, %arg44 : tensor<1x1536xf32>, tensor<1536x8960xf32>) outs(%cst_3 : tensor<1x8960xf32>) -> tensor<1x8960xf32>
    %267 = tosa.reshape %266, %4 : (tensor<1x8960xf32>, !tosa.shape<3>) -> tensor<1x1x8960xf32>
    %268 = tosa.sigmoid %267 : (tensor<1x1x8960xf32>) -> tensor<1x1x8960xf32>
    %269 = tosa.mul %267, %268, %15 : (tensor<1x1x8960xf32>, tensor<1x1x8960xf32>, tensor<1xi8>) -> tensor<1x1x8960xf32>
    %270 = tosa.reshape %264, %12 : (tensor<1x1x1536xf32>, !tosa.shape<2>) -> tensor<1x1536xf32>
    %271 = linalg.matmul {cast = #linalg.type_fn<cast_signed>} ins(%270, %arg45 : tensor<1x1536xf32>, tensor<1536x8960xf32>) outs(%cst_3 : tensor<1x8960xf32>) -> tensor<1x8960xf32>
    %272 = tosa.reshape %271, %4 : (tensor<1x8960xf32>, !tosa.shape<3>) -> tensor<1x1x8960xf32>
    %273 = tosa.mul %269, %272, %15 : (tensor<1x1x8960xf32>, tensor<1x1x8960xf32>, tensor<1xi8>) -> tensor<1x1x8960xf32>
    %274 = tosa.reshape %273, %3 : (tensor<1x1x8960xf32>, !tosa.shape<2>) -> tensor<1x8960xf32>
    %275 = linalg.matmul {cast = #linalg.type_fn<cast_signed>} ins(%274, %arg46 : tensor<1x8960xf32>, tensor<8960x1536xf32>) outs(%cst_9 : tensor<1x1536xf32>) -> tensor<1x1536xf32>
    %276 = tosa.reshape %275, %13 : (tensor<1x1536xf32>, !tosa.shape<3>) -> tensor<1x1x1536xf32>
    %277 = tosa.add %255, %276 : (tensor<1x1x1536xf32>, tensor<1x1x1536xf32>) -> tensor<1x1x1536xf32>
    %278 = tensor.empty() : tensor<1x1x1536xf32>
    %279 = linalg.generic {indexing_maps = [#map, #map], iterator_types = ["parallel", "parallel", "parallel"]} ins(%277 : tensor<1x1x1536xf32>) outs(%278 : tensor<1x1x1536xf32>) {
    ^bb0(%in: f32, %out: f32):
      %2290 = math.fpowi %in, %c2_i32 : f32, i32
      linalg.yield %2290 : f32
    } -> tensor<1x1x1536xf32>
    %280 = tosa.reduce_sum %279 {axis = 2 : i32} : (tensor<1x1x1536xf32>) -> tensor<1x1x1xf32>
    %281 = tosa.mul %280, %0, %15 : (tensor<1x1x1xf32>, tensor<1x1x1xf32>, tensor<1xi8>) -> tensor<1x1x1xf32>
    %282 = tosa.add %281, %14 : (tensor<1x1x1xf32>, tensor<1x1x1xf32>) -> tensor<1x1x1xf32>
    %283 = tosa.rsqrt %282 : (tensor<1x1x1xf32>) -> tensor<1x1x1xf32>
    %284 = tosa.mul %277, %283, %15 : (tensor<1x1x1536xf32>, tensor<1x1x1xf32>, tensor<1xi8>) -> tensor<1x1x1536xf32>
    %285 = tosa.reshape %arg47, %13 : (tensor<1536xf32>, !tosa.shape<3>) -> tensor<1x1x1536xf32>
    %286 = tosa.mul %285, %284, %15 : (tensor<1x1x1536xf32>, tensor<1x1x1536xf32>, tensor<1xi8>) -> tensor<1x1x1536xf32>
    %287 = tosa.reshape %286, %12 : (tensor<1x1x1536xf32>, !tosa.shape<2>) -> tensor<1x1536xf32>
    %288 = linalg.matmul {cast = #linalg.type_fn<cast_signed>} ins(%287, %arg49 : tensor<1x1536xf32>, tensor<1536x1536xf32>) outs(%cst_9 : tensor<1x1536xf32>) -> tensor<1x1536xf32>
    %289 = tosa.reshape %arg48, %12 : (tensor<1536xf32>, !tosa.shape<2>) -> tensor<1x1536xf32>
    %290 = tosa.add %289, %288 : (tensor<1x1536xf32>, tensor<1x1536xf32>) -> tensor<1x1536xf32>
    %291 = tosa.reshape %290, %11 : (tensor<1x1536xf32>, !tosa.shape<4>) -> tensor<1x12x1x128xf32>
    %292 = tosa.reshape %286, %12 : (tensor<1x1x1536xf32>, !tosa.shape<2>) -> tensor<1x1536xf32>
    %293 = linalg.matmul {cast = #linalg.type_fn<cast_signed>} ins(%292, %arg51 : tensor<1x1536xf32>, tensor<1536x256xf32>) outs(%cst_8 : tensor<1x256xf32>) -> tensor<1x256xf32>
    %294 = tosa.reshape %arg50, %10 : (tensor<256xf32>, !tosa.shape<2>) -> tensor<1x256xf32>
    %295 = tosa.add %294, %293 : (tensor<1x256xf32>, tensor<1x256xf32>) -> tensor<1x256xf32>
    %296 = tosa.reshape %295, %9 : (tensor<1x256xf32>, !tosa.shape<4>) -> tensor<1x2x1x128xf32>
    %297 = tosa.reshape %286, %12 : (tensor<1x1x1536xf32>, !tosa.shape<2>) -> tensor<1x1536xf32>
    %298 = linalg.matmul {cast = #linalg.type_fn<cast_signed>} ins(%297, %arg53 : tensor<1x1536xf32>, tensor<1536x256xf32>) outs(%cst_8 : tensor<1x256xf32>) -> tensor<1x256xf32>
    %299 = tosa.reshape %arg52, %10 : (tensor<256xf32>, !tosa.shape<2>) -> tensor<1x256xf32>
    %300 = tosa.add %299, %298 : (tensor<1x256xf32>, tensor<1x256xf32>) -> tensor<1x256xf32>
    %301 = tosa.reshape %300, %9 : (tensor<1x256xf32>, !tosa.shape<4>) -> tensor<1x2x1x128xf32>
    %302 = tosa.reshape %36, %8 : (tensor<1x1x128xf32>, !tosa.shape<4>) -> tensor<1x1x1x128xf32>
    %303 = tosa.reshape %37, %8 : (tensor<1x1x128xf32>, !tosa.shape<4>) -> tensor<1x1x1x128xf32>
    %304 = tosa.mul %291, %302, %15 : (tensor<1x12x1x128xf32>, tensor<1x1x1x128xf32>, tensor<1xi8>) -> tensor<1x12x1x128xf32>
    %extracted_slice_40 = tensor.extract_slice %291[0, 0, 0, 0] [1, 12, 1, 64] [1, 1, 1, 1] : tensor<1x12x1x128xf32> to tensor<1x12x1x64xf32>
    %extracted_slice_41 = tensor.extract_slice %291[0, 0, 0, 64] [1, 12, 1, 64] [1, 1, 1, 1] : tensor<1x12x1x128xf32> to tensor<1x12x1x64xf32>
    %305 = tosa.negate %extracted_slice_41, %19, %19 : (tensor<1x12x1x64xf32>, tensor<1xf32>, tensor<1xf32>) -> tensor<1x12x1x64xf32>
    %306 = tensor.empty() : tensor<1x12x1x128xf32>
    %inserted_slice_42 = tensor.insert_slice %305 into %306[0, 0, 0, 0] [1, 12, 1, 64] [1, 1, 1, 1] : tensor<1x12x1x64xf32> into tensor<1x12x1x128xf32>
    %inserted_slice_43 = tensor.insert_slice %extracted_slice_40 into %inserted_slice_42[0, 0, 0, 64] [1, 12, 1, 64] [1, 1, 1, 1] : tensor<1x12x1x64xf32> into tensor<1x12x1x128xf32>
    %307 = tosa.mul %inserted_slice_43, %303, %15 : (tensor<1x12x1x128xf32>, tensor<1x1x1x128xf32>, tensor<1xi8>) -> tensor<1x12x1x128xf32>
    %308 = tosa.add %304, %307 : (tensor<1x12x1x128xf32>, tensor<1x12x1x128xf32>) -> tensor<1x12x1x128xf32>
    %309 = tosa.mul %296, %302, %15 : (tensor<1x2x1x128xf32>, tensor<1x1x1x128xf32>, tensor<1xi8>) -> tensor<1x2x1x128xf32>
    %extracted_slice_44 = tensor.extract_slice %296[0, 0, 0, 0] [1, 2, 1, 64] [1, 1, 1, 1] : tensor<1x2x1x128xf32> to tensor<1x2x1x64xf32>
    %extracted_slice_45 = tensor.extract_slice %296[0, 0, 0, 64] [1, 2, 1, 64] [1, 1, 1, 1] : tensor<1x2x1x128xf32> to tensor<1x2x1x64xf32>
    %310 = tosa.negate %extracted_slice_45, %19, %19 : (tensor<1x2x1x64xf32>, tensor<1xf32>, tensor<1xf32>) -> tensor<1x2x1x64xf32>
    %311 = tensor.empty() : tensor<1x2x1x128xf32>
    %inserted_slice_46 = tensor.insert_slice %310 into %311[0, 0, 0, 0] [1, 2, 1, 64] [1, 1, 1, 1] : tensor<1x2x1x64xf32> into tensor<1x2x1x128xf32>
    %inserted_slice_47 = tensor.insert_slice %extracted_slice_44 into %inserted_slice_46[0, 0, 0, 64] [1, 2, 1, 64] [1, 1, 1, 1] : tensor<1x2x1x64xf32> into tensor<1x2x1x128xf32>
    %312 = tosa.mul %inserted_slice_47, %303, %15 : (tensor<1x2x1x128xf32>, tensor<1x1x1x128xf32>, tensor<1xi8>) -> tensor<1x2x1x128xf32>
    %313 = tosa.add %309, %312 : (tensor<1x2x1x128xf32>, tensor<1x2x1x128xf32>) -> tensor<1x2x1x128xf32>
    %314 = bufferization.to_buffer %arg54 : tensor<1x2x1024x128xf32> to memref<1x2x1024x128xf32>
    %315 = tosa.reshape %arg3, %7 : (tensor<1xi64>, !tosa.shape<4>) -> tensor<1x1x1x1xi64>
    %316 = tosa.add %315, %6 : (tensor<1x1x1x1xi64>, tensor<1x2x1x128xi64>) -> tensor<1x2x1x128xi64>
    %317 = bufferization.to_buffer %316 : tensor<1x2x1x128xi64> to memref<1x2x1x128xi64>
    %318 = bufferization.to_buffer %313 : tensor<1x2x1x128xf32> to memref<1x2x1x128xf32>
    scf.for %arg399 = %c0 to %c1 step %c1 {
      scf.for %arg400 = %c0 to %c2 step %c1 {
        scf.for %arg401 = %c0 to %c1 step %c1 {
          scf.for %arg402 = %c0 to %c128 step %c1 {
            %2290 = memref.load %318[%arg399, %arg400, %arg401, %arg402] : memref<1x2x1x128xf32>
            %2291 = memref.load %317[%arg399, %arg400, %arg401, %arg402] : memref<1x2x1x128xi64>
            %2292 = arith.index_cast %2291 : i64 to index
            memref.store %2290, %314[%arg399, %arg400, %2292, %arg402] : memref<1x2x1024x128xf32>
          }
        }
      }
    }
    %319 = bufferization.to_tensor %314 restrict : memref<1x2x1024x128xf32> to tensor<1x2x1024x128xf32>
    %320 = bufferization.to_buffer %arg55 : tensor<1x2x1024x128xf32> to memref<1x2x1024x128xf32>
    %321 = tosa.reshape %arg3, %7 : (tensor<1xi64>, !tosa.shape<4>) -> tensor<1x1x1x1xi64>
    %322 = tosa.add %321, %6 : (tensor<1x1x1x1xi64>, tensor<1x2x1x128xi64>) -> tensor<1x2x1x128xi64>
    %323 = bufferization.to_buffer %322 : tensor<1x2x1x128xi64> to memref<1x2x1x128xi64>
    %324 = bufferization.to_buffer %301 : tensor<1x2x1x128xf32> to memref<1x2x1x128xf32>
    scf.for %arg399 = %c0 to %c1 step %c1 {
      scf.for %arg400 = %c0 to %c2 step %c1 {
        scf.for %arg401 = %c0 to %c1 step %c1 {
          scf.for %arg402 = %c0 to %c128 step %c1 {
            %2290 = memref.load %324[%arg399, %arg400, %arg401, %arg402] : memref<1x2x1x128xf32>
            %2291 = memref.load %323[%arg399, %arg400, %arg401, %arg402] : memref<1x2x1x128xi64>
            %2292 = arith.index_cast %2291 : i64 to index
            memref.store %2290, %320[%arg399, %arg400, %2292, %arg402] : memref<1x2x1024x128xf32>
          }
        }
      }
    }
    %325 = bufferization.to_tensor %320 restrict : memref<1x2x1024x128xf32> to tensor<1x2x1024x128xf32>
    %326 = tosa.reshape %28, %5 : (tensor<1x1024xi1>, !tosa.shape<4>) -> tensor<1x1x1x1024xi1>
    %327 = tensor.empty() : tensor<1x1x1x1024xf32>
    %328 = linalg.generic {indexing_maps = [#map1, #map1, #map1, #map1], iterator_types = ["parallel", "parallel", "parallel", "parallel"]} ins(%326, %cst_1, %cst_0 : tensor<1x1x1x1024xi1>, tensor<1x1x1x1024xf32>, tensor<1x1x1x1024xf32>) outs(%327 : tensor<1x1x1x1024xf32>) {
    ^bb0(%in: i1, %in_315: f32, %in_316: f32, %out: f32):
      %2290 = arith.select %in, %in_315, %in_316 : f32
      linalg.yield %2290 : f32
    } -> tensor<1x1x1x1024xf32>
    %329 = bufferization.to_buffer %308 : tensor<1x12x1x128xf32> to memref<1x12x1x128xf32>
    %330 = bufferization.to_buffer %328 : tensor<1x1x1x1024xf32> to memref<1x1x1x1024xf32>
    %alloc_48 = memref.alloc() : memref<1x12x1x128xf32>
    %alloc_49 = memref.alloc() : memref<1x12x1xf32>
    %alloc_50 = memref.alloc() : memref<128xf32>
    affine.for %arg399 = 0 to 1 {
      affine.for %arg400 = 0 to 12 {
        %2290 = arith.divsi %arg400, %c6 : index
        affine.for %arg401 = 0 to 1 {
          affine.for %arg402 = 0 to 128 {
            memref.store %cst_7, %alloc_50[%arg402] : memref<128xf32>
          }
          %2291:2 = affine.for %arg402 = 0 to 1024 iter_args(%arg403 = %cst_4, %arg404 = %cst_7) -> (f32, f32) {
            %2292 = affine.for %arg405 = 0 to 128 step 16 iter_args(%arg406 = %cst) -> (vector<16xf32>) {
              %2307 = vector.load %329[%arg399, %arg400, %arg401, %arg405] : memref<1x12x1x128xf32>, vector<16xf32>
              %2308 = vector.load %314[%arg399, %2290, %arg402, %arg405] : memref<1x2x1024x128xf32>, vector<16xf32>
              %2309 = vector.fma %2307, %2308, %arg406 : vector<16xf32>
              affine.yield %2309 : vector<16xf32>
            }
            %2293 = vector.reduction <add>, %2292 : vector<16xf32> into f32
            %2294 = arith.mulf %2293, %cst_5 : f32
            %2295 = memref.load %330[%arg399, %c0, %arg401, %arg402] : memref<1x1x1x1024xf32>
            %2296 = arith.addf %2294, %2295 : f32
            %2297 = arith.cmpf ogt, %2296, %arg403 : f32
            %2298 = arith.select %2297, %2296, %arg403 : f32
            %2299 = arith.subf %arg403, %2296 : f32
            %2300 = math.exp %2299 : f32
            %2301 = arith.mulf %2300, %arg404 : f32
            %2302 = arith.addf %2301, %cst_6 : f32
            %2303 = arith.subf %2296, %arg403 : f32
            %2304 = math.exp %2303 : f32
            %2305 = arith.addf %arg404, %2304 : f32
            %2306 = arith.select %2297, %2302, %2305 : f32
            affine.for %arg405 = 0 to 128 {
              %2307 = memref.load %320[%arg399, %2290, %arg402, %arg405] : memref<1x2x1024x128xf32>
              %2308 = memref.load %alloc_50[%arg405] : memref<128xf32>
              %2309 = arith.mulf %2308, %2300 : f32
              %2310 = arith.addf %2309, %2307 : f32
              %2311 = arith.mulf %2304, %2307 : f32
              %2312 = arith.addf %2311, %2308 : f32
              %2313 = arith.select %2297, %2310, %2312 : f32
              memref.store %2313, %alloc_50[%arg405] : memref<128xf32>
            }
            affine.yield %2298, %2306 : f32, f32
          }
          memref.store %2291#1, %alloc_49[%arg399, %arg400, %arg401] : memref<1x12x1xf32>
          affine.for %arg402 = 0 to 128 {
            %2292 = memref.load %alloc_50[%arg402] : memref<128xf32>
            %2293 = arith.divf %2292, %2291#1 : f32
            memref.store %2293, %alloc_48[%arg399, %arg400, %arg401, %arg402] : memref<1x12x1x128xf32>
          }
        }
      }
    }
    %331 = bufferization.to_tensor %alloc_48 restrict : memref<1x12x1x128xf32> to tensor<1x12x1x128xf32>
    %332 = tosa.reshape %331, %12 : (tensor<1x12x1x128xf32>, !tosa.shape<2>) -> tensor<1x1536xf32>
    %333 = linalg.matmul {cast = #linalg.type_fn<cast_signed>} ins(%332, %arg56 : tensor<1x1536xf32>, tensor<1536x1536xf32>) outs(%cst_9 : tensor<1x1536xf32>) -> tensor<1x1536xf32>
    %334 = tosa.reshape %333, %13 : (tensor<1x1536xf32>, !tosa.shape<3>) -> tensor<1x1x1536xf32>
    %335 = tosa.add %277, %334 : (tensor<1x1x1536xf32>, tensor<1x1x1536xf32>) -> tensor<1x1x1536xf32>
    %336 = tensor.empty() : tensor<1x1x1536xf32>
    %337 = linalg.generic {indexing_maps = [#map, #map], iterator_types = ["parallel", "parallel", "parallel"]} ins(%335 : tensor<1x1x1536xf32>) outs(%336 : tensor<1x1x1536xf32>) {
    ^bb0(%in: f32, %out: f32):
      %2290 = math.fpowi %in, %c2_i32 : f32, i32
      linalg.yield %2290 : f32
    } -> tensor<1x1x1536xf32>
    %338 = tosa.reduce_sum %337 {axis = 2 : i32} : (tensor<1x1x1536xf32>) -> tensor<1x1x1xf32>
    %339 = tosa.mul %338, %0, %15 : (tensor<1x1x1xf32>, tensor<1x1x1xf32>, tensor<1xi8>) -> tensor<1x1x1xf32>
    %340 = tosa.add %339, %14 : (tensor<1x1x1xf32>, tensor<1x1x1xf32>) -> tensor<1x1x1xf32>
    %341 = tosa.rsqrt %340 : (tensor<1x1x1xf32>) -> tensor<1x1x1xf32>
    %342 = tosa.mul %335, %341, %15 : (tensor<1x1x1536xf32>, tensor<1x1x1xf32>, tensor<1xi8>) -> tensor<1x1x1536xf32>
    %343 = tosa.reshape %arg57, %13 : (tensor<1536xf32>, !tosa.shape<3>) -> tensor<1x1x1536xf32>
    %344 = tosa.mul %343, %342, %15 : (tensor<1x1x1536xf32>, tensor<1x1x1536xf32>, tensor<1xi8>) -> tensor<1x1x1536xf32>
    %345 = tosa.reshape %344, %12 : (tensor<1x1x1536xf32>, !tosa.shape<2>) -> tensor<1x1536xf32>
    %346 = linalg.matmul {cast = #linalg.type_fn<cast_signed>} ins(%345, %arg58 : tensor<1x1536xf32>, tensor<1536x8960xf32>) outs(%cst_3 : tensor<1x8960xf32>) -> tensor<1x8960xf32>
    %347 = tosa.reshape %346, %4 : (tensor<1x8960xf32>, !tosa.shape<3>) -> tensor<1x1x8960xf32>
    %348 = tosa.sigmoid %347 : (tensor<1x1x8960xf32>) -> tensor<1x1x8960xf32>
    %349 = tosa.mul %347, %348, %15 : (tensor<1x1x8960xf32>, tensor<1x1x8960xf32>, tensor<1xi8>) -> tensor<1x1x8960xf32>
    %350 = tosa.reshape %344, %12 : (tensor<1x1x1536xf32>, !tosa.shape<2>) -> tensor<1x1536xf32>
    %351 = linalg.matmul {cast = #linalg.type_fn<cast_signed>} ins(%350, %arg59 : tensor<1x1536xf32>, tensor<1536x8960xf32>) outs(%cst_3 : tensor<1x8960xf32>) -> tensor<1x8960xf32>
    %352 = tosa.reshape %351, %4 : (tensor<1x8960xf32>, !tosa.shape<3>) -> tensor<1x1x8960xf32>
    %353 = tosa.mul %349, %352, %15 : (tensor<1x1x8960xf32>, tensor<1x1x8960xf32>, tensor<1xi8>) -> tensor<1x1x8960xf32>
    %354 = tosa.reshape %353, %3 : (tensor<1x1x8960xf32>, !tosa.shape<2>) -> tensor<1x8960xf32>
    %355 = linalg.matmul {cast = #linalg.type_fn<cast_signed>} ins(%354, %arg60 : tensor<1x8960xf32>, tensor<8960x1536xf32>) outs(%cst_9 : tensor<1x1536xf32>) -> tensor<1x1536xf32>
    %356 = tosa.reshape %355, %13 : (tensor<1x1536xf32>, !tosa.shape<3>) -> tensor<1x1x1536xf32>
    %357 = tosa.add %335, %356 : (tensor<1x1x1536xf32>, tensor<1x1x1536xf32>) -> tensor<1x1x1536xf32>
    %358 = tensor.empty() : tensor<1x1x1536xf32>
    %359 = linalg.generic {indexing_maps = [#map, #map], iterator_types = ["parallel", "parallel", "parallel"]} ins(%357 : tensor<1x1x1536xf32>) outs(%358 : tensor<1x1x1536xf32>) {
    ^bb0(%in: f32, %out: f32):
      %2290 = math.fpowi %in, %c2_i32 : f32, i32
      linalg.yield %2290 : f32
    } -> tensor<1x1x1536xf32>
    %360 = tosa.reduce_sum %359 {axis = 2 : i32} : (tensor<1x1x1536xf32>) -> tensor<1x1x1xf32>
    %361 = tosa.mul %360, %0, %15 : (tensor<1x1x1xf32>, tensor<1x1x1xf32>, tensor<1xi8>) -> tensor<1x1x1xf32>
    %362 = tosa.add %361, %14 : (tensor<1x1x1xf32>, tensor<1x1x1xf32>) -> tensor<1x1x1xf32>
    %363 = tosa.rsqrt %362 : (tensor<1x1x1xf32>) -> tensor<1x1x1xf32>
    %364 = tosa.mul %357, %363, %15 : (tensor<1x1x1536xf32>, tensor<1x1x1xf32>, tensor<1xi8>) -> tensor<1x1x1536xf32>
    %365 = tosa.reshape %arg61, %13 : (tensor<1536xf32>, !tosa.shape<3>) -> tensor<1x1x1536xf32>
    %366 = tosa.mul %365, %364, %15 : (tensor<1x1x1536xf32>, tensor<1x1x1536xf32>, tensor<1xi8>) -> tensor<1x1x1536xf32>
    %367 = tosa.reshape %366, %12 : (tensor<1x1x1536xf32>, !tosa.shape<2>) -> tensor<1x1536xf32>
    %368 = linalg.matmul {cast = #linalg.type_fn<cast_signed>} ins(%367, %arg63 : tensor<1x1536xf32>, tensor<1536x1536xf32>) outs(%cst_9 : tensor<1x1536xf32>) -> tensor<1x1536xf32>
    %369 = tosa.reshape %arg62, %12 : (tensor<1536xf32>, !tosa.shape<2>) -> tensor<1x1536xf32>
    %370 = tosa.add %369, %368 : (tensor<1x1536xf32>, tensor<1x1536xf32>) -> tensor<1x1536xf32>
    %371 = tosa.reshape %370, %11 : (tensor<1x1536xf32>, !tosa.shape<4>) -> tensor<1x12x1x128xf32>
    %372 = tosa.reshape %366, %12 : (tensor<1x1x1536xf32>, !tosa.shape<2>) -> tensor<1x1536xf32>
    %373 = linalg.matmul {cast = #linalg.type_fn<cast_signed>} ins(%372, %arg65 : tensor<1x1536xf32>, tensor<1536x256xf32>) outs(%cst_8 : tensor<1x256xf32>) -> tensor<1x256xf32>
    %374 = tosa.reshape %arg64, %10 : (tensor<256xf32>, !tosa.shape<2>) -> tensor<1x256xf32>
    %375 = tosa.add %374, %373 : (tensor<1x256xf32>, tensor<1x256xf32>) -> tensor<1x256xf32>
    %376 = tosa.reshape %375, %9 : (tensor<1x256xf32>, !tosa.shape<4>) -> tensor<1x2x1x128xf32>
    %377 = tosa.reshape %366, %12 : (tensor<1x1x1536xf32>, !tosa.shape<2>) -> tensor<1x1536xf32>
    %378 = linalg.matmul {cast = #linalg.type_fn<cast_signed>} ins(%377, %arg67 : tensor<1x1536xf32>, tensor<1536x256xf32>) outs(%cst_8 : tensor<1x256xf32>) -> tensor<1x256xf32>
    %379 = tosa.reshape %arg66, %10 : (tensor<256xf32>, !tosa.shape<2>) -> tensor<1x256xf32>
    %380 = tosa.add %379, %378 : (tensor<1x256xf32>, tensor<1x256xf32>) -> tensor<1x256xf32>
    %381 = tosa.reshape %380, %9 : (tensor<1x256xf32>, !tosa.shape<4>) -> tensor<1x2x1x128xf32>
    %382 = tosa.reshape %36, %8 : (tensor<1x1x128xf32>, !tosa.shape<4>) -> tensor<1x1x1x128xf32>
    %383 = tosa.reshape %37, %8 : (tensor<1x1x128xf32>, !tosa.shape<4>) -> tensor<1x1x1x128xf32>
    %384 = tosa.mul %371, %382, %15 : (tensor<1x12x1x128xf32>, tensor<1x1x1x128xf32>, tensor<1xi8>) -> tensor<1x12x1x128xf32>
    %extracted_slice_51 = tensor.extract_slice %371[0, 0, 0, 0] [1, 12, 1, 64] [1, 1, 1, 1] : tensor<1x12x1x128xf32> to tensor<1x12x1x64xf32>
    %extracted_slice_52 = tensor.extract_slice %371[0, 0, 0, 64] [1, 12, 1, 64] [1, 1, 1, 1] : tensor<1x12x1x128xf32> to tensor<1x12x1x64xf32>
    %385 = tosa.negate %extracted_slice_52, %19, %19 : (tensor<1x12x1x64xf32>, tensor<1xf32>, tensor<1xf32>) -> tensor<1x12x1x64xf32>
    %386 = tensor.empty() : tensor<1x12x1x128xf32>
    %inserted_slice_53 = tensor.insert_slice %385 into %386[0, 0, 0, 0] [1, 12, 1, 64] [1, 1, 1, 1] : tensor<1x12x1x64xf32> into tensor<1x12x1x128xf32>
    %inserted_slice_54 = tensor.insert_slice %extracted_slice_51 into %inserted_slice_53[0, 0, 0, 64] [1, 12, 1, 64] [1, 1, 1, 1] : tensor<1x12x1x64xf32> into tensor<1x12x1x128xf32>
    %387 = tosa.mul %inserted_slice_54, %383, %15 : (tensor<1x12x1x128xf32>, tensor<1x1x1x128xf32>, tensor<1xi8>) -> tensor<1x12x1x128xf32>
    %388 = tosa.add %384, %387 : (tensor<1x12x1x128xf32>, tensor<1x12x1x128xf32>) -> tensor<1x12x1x128xf32>
    %389 = tosa.mul %376, %382, %15 : (tensor<1x2x1x128xf32>, tensor<1x1x1x128xf32>, tensor<1xi8>) -> tensor<1x2x1x128xf32>
    %extracted_slice_55 = tensor.extract_slice %376[0, 0, 0, 0] [1, 2, 1, 64] [1, 1, 1, 1] : tensor<1x2x1x128xf32> to tensor<1x2x1x64xf32>
    %extracted_slice_56 = tensor.extract_slice %376[0, 0, 0, 64] [1, 2, 1, 64] [1, 1, 1, 1] : tensor<1x2x1x128xf32> to tensor<1x2x1x64xf32>
    %390 = tosa.negate %extracted_slice_56, %19, %19 : (tensor<1x2x1x64xf32>, tensor<1xf32>, tensor<1xf32>) -> tensor<1x2x1x64xf32>
    %391 = tensor.empty() : tensor<1x2x1x128xf32>
    %inserted_slice_57 = tensor.insert_slice %390 into %391[0, 0, 0, 0] [1, 2, 1, 64] [1, 1, 1, 1] : tensor<1x2x1x64xf32> into tensor<1x2x1x128xf32>
    %inserted_slice_58 = tensor.insert_slice %extracted_slice_55 into %inserted_slice_57[0, 0, 0, 64] [1, 2, 1, 64] [1, 1, 1, 1] : tensor<1x2x1x64xf32> into tensor<1x2x1x128xf32>
    %392 = tosa.mul %inserted_slice_58, %383, %15 : (tensor<1x2x1x128xf32>, tensor<1x1x1x128xf32>, tensor<1xi8>) -> tensor<1x2x1x128xf32>
    %393 = tosa.add %389, %392 : (tensor<1x2x1x128xf32>, tensor<1x2x1x128xf32>) -> tensor<1x2x1x128xf32>
    %394 = bufferization.to_buffer %arg68 : tensor<1x2x1024x128xf32> to memref<1x2x1024x128xf32>
    %395 = tosa.reshape %arg3, %7 : (tensor<1xi64>, !tosa.shape<4>) -> tensor<1x1x1x1xi64>
    %396 = tosa.add %395, %6 : (tensor<1x1x1x1xi64>, tensor<1x2x1x128xi64>) -> tensor<1x2x1x128xi64>
    %397 = bufferization.to_buffer %396 : tensor<1x2x1x128xi64> to memref<1x2x1x128xi64>
    %398 = bufferization.to_buffer %393 : tensor<1x2x1x128xf32> to memref<1x2x1x128xf32>
    scf.for %arg399 = %c0 to %c1 step %c1 {
      scf.for %arg400 = %c0 to %c2 step %c1 {
        scf.for %arg401 = %c0 to %c1 step %c1 {
          scf.for %arg402 = %c0 to %c128 step %c1 {
            %2290 = memref.load %398[%arg399, %arg400, %arg401, %arg402] : memref<1x2x1x128xf32>
            %2291 = memref.load %397[%arg399, %arg400, %arg401, %arg402] : memref<1x2x1x128xi64>
            %2292 = arith.index_cast %2291 : i64 to index
            memref.store %2290, %394[%arg399, %arg400, %2292, %arg402] : memref<1x2x1024x128xf32>
          }
        }
      }
    }
    %399 = bufferization.to_tensor %394 restrict : memref<1x2x1024x128xf32> to tensor<1x2x1024x128xf32>
    %400 = bufferization.to_buffer %arg69 : tensor<1x2x1024x128xf32> to memref<1x2x1024x128xf32>
    %401 = tosa.reshape %arg3, %7 : (tensor<1xi64>, !tosa.shape<4>) -> tensor<1x1x1x1xi64>
    %402 = tosa.add %401, %6 : (tensor<1x1x1x1xi64>, tensor<1x2x1x128xi64>) -> tensor<1x2x1x128xi64>
    %403 = bufferization.to_buffer %402 : tensor<1x2x1x128xi64> to memref<1x2x1x128xi64>
    %404 = bufferization.to_buffer %381 : tensor<1x2x1x128xf32> to memref<1x2x1x128xf32>
    scf.for %arg399 = %c0 to %c1 step %c1 {
      scf.for %arg400 = %c0 to %c2 step %c1 {
        scf.for %arg401 = %c0 to %c1 step %c1 {
          scf.for %arg402 = %c0 to %c128 step %c1 {
            %2290 = memref.load %404[%arg399, %arg400, %arg401, %arg402] : memref<1x2x1x128xf32>
            %2291 = memref.load %403[%arg399, %arg400, %arg401, %arg402] : memref<1x2x1x128xi64>
            %2292 = arith.index_cast %2291 : i64 to index
            memref.store %2290, %400[%arg399, %arg400, %2292, %arg402] : memref<1x2x1024x128xf32>
          }
        }
      }
    }
    %405 = bufferization.to_tensor %400 restrict : memref<1x2x1024x128xf32> to tensor<1x2x1024x128xf32>
    %406 = tosa.reshape %28, %5 : (tensor<1x1024xi1>, !tosa.shape<4>) -> tensor<1x1x1x1024xi1>
    %407 = tensor.empty() : tensor<1x1x1x1024xf32>
    %408 = linalg.generic {indexing_maps = [#map1, #map1, #map1, #map1], iterator_types = ["parallel", "parallel", "parallel", "parallel"]} ins(%406, %cst_1, %cst_0 : tensor<1x1x1x1024xi1>, tensor<1x1x1x1024xf32>, tensor<1x1x1x1024xf32>) outs(%407 : tensor<1x1x1x1024xf32>) {
    ^bb0(%in: i1, %in_315: f32, %in_316: f32, %out: f32):
      %2290 = arith.select %in, %in_315, %in_316 : f32
      linalg.yield %2290 : f32
    } -> tensor<1x1x1x1024xf32>
    %409 = bufferization.to_buffer %388 : tensor<1x12x1x128xf32> to memref<1x12x1x128xf32>
    %410 = bufferization.to_buffer %408 : tensor<1x1x1x1024xf32> to memref<1x1x1x1024xf32>
    %alloc_59 = memref.alloc() : memref<1x12x1x128xf32>
    %alloc_60 = memref.alloc() : memref<1x12x1xf32>
    %alloc_61 = memref.alloc() : memref<128xf32>
    affine.for %arg399 = 0 to 1 {
      affine.for %arg400 = 0 to 12 {
        %2290 = arith.divsi %arg400, %c6 : index
        affine.for %arg401 = 0 to 1 {
          affine.for %arg402 = 0 to 128 {
            memref.store %cst_7, %alloc_61[%arg402] : memref<128xf32>
          }
          %2291:2 = affine.for %arg402 = 0 to 1024 iter_args(%arg403 = %cst_4, %arg404 = %cst_7) -> (f32, f32) {
            %2292 = affine.for %arg405 = 0 to 128 step 16 iter_args(%arg406 = %cst) -> (vector<16xf32>) {
              %2307 = vector.load %409[%arg399, %arg400, %arg401, %arg405] : memref<1x12x1x128xf32>, vector<16xf32>
              %2308 = vector.load %394[%arg399, %2290, %arg402, %arg405] : memref<1x2x1024x128xf32>, vector<16xf32>
              %2309 = vector.fma %2307, %2308, %arg406 : vector<16xf32>
              affine.yield %2309 : vector<16xf32>
            }
            %2293 = vector.reduction <add>, %2292 : vector<16xf32> into f32
            %2294 = arith.mulf %2293, %cst_5 : f32
            %2295 = memref.load %410[%arg399, %c0, %arg401, %arg402] : memref<1x1x1x1024xf32>
            %2296 = arith.addf %2294, %2295 : f32
            %2297 = arith.cmpf ogt, %2296, %arg403 : f32
            %2298 = arith.select %2297, %2296, %arg403 : f32
            %2299 = arith.subf %arg403, %2296 : f32
            %2300 = math.exp %2299 : f32
            %2301 = arith.mulf %2300, %arg404 : f32
            %2302 = arith.addf %2301, %cst_6 : f32
            %2303 = arith.subf %2296, %arg403 : f32
            %2304 = math.exp %2303 : f32
            %2305 = arith.addf %arg404, %2304 : f32
            %2306 = arith.select %2297, %2302, %2305 : f32
            affine.for %arg405 = 0 to 128 {
              %2307 = memref.load %400[%arg399, %2290, %arg402, %arg405] : memref<1x2x1024x128xf32>
              %2308 = memref.load %alloc_61[%arg405] : memref<128xf32>
              %2309 = arith.mulf %2308, %2300 : f32
              %2310 = arith.addf %2309, %2307 : f32
              %2311 = arith.mulf %2304, %2307 : f32
              %2312 = arith.addf %2311, %2308 : f32
              %2313 = arith.select %2297, %2310, %2312 : f32
              memref.store %2313, %alloc_61[%arg405] : memref<128xf32>
            }
            affine.yield %2298, %2306 : f32, f32
          }
          memref.store %2291#1, %alloc_60[%arg399, %arg400, %arg401] : memref<1x12x1xf32>
          affine.for %arg402 = 0 to 128 {
            %2292 = memref.load %alloc_61[%arg402] : memref<128xf32>
            %2293 = arith.divf %2292, %2291#1 : f32
            memref.store %2293, %alloc_59[%arg399, %arg400, %arg401, %arg402] : memref<1x12x1x128xf32>
          }
        }
      }
    }
    %411 = bufferization.to_tensor %alloc_59 restrict : memref<1x12x1x128xf32> to tensor<1x12x1x128xf32>
    %412 = tosa.reshape %411, %12 : (tensor<1x12x1x128xf32>, !tosa.shape<2>) -> tensor<1x1536xf32>
    %413 = linalg.matmul {cast = #linalg.type_fn<cast_signed>} ins(%412, %arg70 : tensor<1x1536xf32>, tensor<1536x1536xf32>) outs(%cst_9 : tensor<1x1536xf32>) -> tensor<1x1536xf32>
    %414 = tosa.reshape %413, %13 : (tensor<1x1536xf32>, !tosa.shape<3>) -> tensor<1x1x1536xf32>
    %415 = tosa.add %357, %414 : (tensor<1x1x1536xf32>, tensor<1x1x1536xf32>) -> tensor<1x1x1536xf32>
    %416 = tensor.empty() : tensor<1x1x1536xf32>
    %417 = linalg.generic {indexing_maps = [#map, #map], iterator_types = ["parallel", "parallel", "parallel"]} ins(%415 : tensor<1x1x1536xf32>) outs(%416 : tensor<1x1x1536xf32>) {
    ^bb0(%in: f32, %out: f32):
      %2290 = math.fpowi %in, %c2_i32 : f32, i32
      linalg.yield %2290 : f32
    } -> tensor<1x1x1536xf32>
    %418 = tosa.reduce_sum %417 {axis = 2 : i32} : (tensor<1x1x1536xf32>) -> tensor<1x1x1xf32>
    %419 = tosa.mul %418, %0, %15 : (tensor<1x1x1xf32>, tensor<1x1x1xf32>, tensor<1xi8>) -> tensor<1x1x1xf32>
    %420 = tosa.add %419, %14 : (tensor<1x1x1xf32>, tensor<1x1x1xf32>) -> tensor<1x1x1xf32>
    %421 = tosa.rsqrt %420 : (tensor<1x1x1xf32>) -> tensor<1x1x1xf32>
    %422 = tosa.mul %415, %421, %15 : (tensor<1x1x1536xf32>, tensor<1x1x1xf32>, tensor<1xi8>) -> tensor<1x1x1536xf32>
    %423 = tosa.reshape %arg71, %13 : (tensor<1536xf32>, !tosa.shape<3>) -> tensor<1x1x1536xf32>
    %424 = tosa.mul %423, %422, %15 : (tensor<1x1x1536xf32>, tensor<1x1x1536xf32>, tensor<1xi8>) -> tensor<1x1x1536xf32>
    %425 = tosa.reshape %424, %12 : (tensor<1x1x1536xf32>, !tosa.shape<2>) -> tensor<1x1536xf32>
    %426 = linalg.matmul {cast = #linalg.type_fn<cast_signed>} ins(%425, %arg72 : tensor<1x1536xf32>, tensor<1536x8960xf32>) outs(%cst_3 : tensor<1x8960xf32>) -> tensor<1x8960xf32>
    %427 = tosa.reshape %426, %4 : (tensor<1x8960xf32>, !tosa.shape<3>) -> tensor<1x1x8960xf32>
    %428 = tosa.sigmoid %427 : (tensor<1x1x8960xf32>) -> tensor<1x1x8960xf32>
    %429 = tosa.mul %427, %428, %15 : (tensor<1x1x8960xf32>, tensor<1x1x8960xf32>, tensor<1xi8>) -> tensor<1x1x8960xf32>
    %430 = tosa.reshape %424, %12 : (tensor<1x1x1536xf32>, !tosa.shape<2>) -> tensor<1x1536xf32>
    %431 = linalg.matmul {cast = #linalg.type_fn<cast_signed>} ins(%430, %arg73 : tensor<1x1536xf32>, tensor<1536x8960xf32>) outs(%cst_3 : tensor<1x8960xf32>) -> tensor<1x8960xf32>
    %432 = tosa.reshape %431, %4 : (tensor<1x8960xf32>, !tosa.shape<3>) -> tensor<1x1x8960xf32>
    %433 = tosa.mul %429, %432, %15 : (tensor<1x1x8960xf32>, tensor<1x1x8960xf32>, tensor<1xi8>) -> tensor<1x1x8960xf32>
    %434 = tosa.reshape %433, %3 : (tensor<1x1x8960xf32>, !tosa.shape<2>) -> tensor<1x8960xf32>
    %435 = linalg.matmul {cast = #linalg.type_fn<cast_signed>} ins(%434, %arg74 : tensor<1x8960xf32>, tensor<8960x1536xf32>) outs(%cst_9 : tensor<1x1536xf32>) -> tensor<1x1536xf32>
    %436 = tosa.reshape %435, %13 : (tensor<1x1536xf32>, !tosa.shape<3>) -> tensor<1x1x1536xf32>
    %437 = tosa.add %415, %436 : (tensor<1x1x1536xf32>, tensor<1x1x1536xf32>) -> tensor<1x1x1536xf32>
    %438 = tensor.empty() : tensor<1x1x1536xf32>
    %439 = linalg.generic {indexing_maps = [#map, #map], iterator_types = ["parallel", "parallel", "parallel"]} ins(%437 : tensor<1x1x1536xf32>) outs(%438 : tensor<1x1x1536xf32>) {
    ^bb0(%in: f32, %out: f32):
      %2290 = math.fpowi %in, %c2_i32 : f32, i32
      linalg.yield %2290 : f32
    } -> tensor<1x1x1536xf32>
    %440 = tosa.reduce_sum %439 {axis = 2 : i32} : (tensor<1x1x1536xf32>) -> tensor<1x1x1xf32>
    %441 = tosa.mul %440, %0, %15 : (tensor<1x1x1xf32>, tensor<1x1x1xf32>, tensor<1xi8>) -> tensor<1x1x1xf32>
    %442 = tosa.add %441, %14 : (tensor<1x1x1xf32>, tensor<1x1x1xf32>) -> tensor<1x1x1xf32>
    %443 = tosa.rsqrt %442 : (tensor<1x1x1xf32>) -> tensor<1x1x1xf32>
    %444 = tosa.mul %437, %443, %15 : (tensor<1x1x1536xf32>, tensor<1x1x1xf32>, tensor<1xi8>) -> tensor<1x1x1536xf32>
    %445 = tosa.reshape %arg75, %13 : (tensor<1536xf32>, !tosa.shape<3>) -> tensor<1x1x1536xf32>
    %446 = tosa.mul %445, %444, %15 : (tensor<1x1x1536xf32>, tensor<1x1x1536xf32>, tensor<1xi8>) -> tensor<1x1x1536xf32>
    %447 = tosa.reshape %446, %12 : (tensor<1x1x1536xf32>, !tosa.shape<2>) -> tensor<1x1536xf32>
    %448 = linalg.matmul {cast = #linalg.type_fn<cast_signed>} ins(%447, %arg77 : tensor<1x1536xf32>, tensor<1536x1536xf32>) outs(%cst_9 : tensor<1x1536xf32>) -> tensor<1x1536xf32>
    %449 = tosa.reshape %arg76, %12 : (tensor<1536xf32>, !tosa.shape<2>) -> tensor<1x1536xf32>
    %450 = tosa.add %449, %448 : (tensor<1x1536xf32>, tensor<1x1536xf32>) -> tensor<1x1536xf32>
    %451 = tosa.reshape %450, %11 : (tensor<1x1536xf32>, !tosa.shape<4>) -> tensor<1x12x1x128xf32>
    %452 = tosa.reshape %446, %12 : (tensor<1x1x1536xf32>, !tosa.shape<2>) -> tensor<1x1536xf32>
    %453 = linalg.matmul {cast = #linalg.type_fn<cast_signed>} ins(%452, %arg79 : tensor<1x1536xf32>, tensor<1536x256xf32>) outs(%cst_8 : tensor<1x256xf32>) -> tensor<1x256xf32>
    %454 = tosa.reshape %arg78, %10 : (tensor<256xf32>, !tosa.shape<2>) -> tensor<1x256xf32>
    %455 = tosa.add %454, %453 : (tensor<1x256xf32>, tensor<1x256xf32>) -> tensor<1x256xf32>
    %456 = tosa.reshape %455, %9 : (tensor<1x256xf32>, !tosa.shape<4>) -> tensor<1x2x1x128xf32>
    %457 = tosa.reshape %446, %12 : (tensor<1x1x1536xf32>, !tosa.shape<2>) -> tensor<1x1536xf32>
    %458 = linalg.matmul {cast = #linalg.type_fn<cast_signed>} ins(%457, %arg81 : tensor<1x1536xf32>, tensor<1536x256xf32>) outs(%cst_8 : tensor<1x256xf32>) -> tensor<1x256xf32>
    %459 = tosa.reshape %arg80, %10 : (tensor<256xf32>, !tosa.shape<2>) -> tensor<1x256xf32>
    %460 = tosa.add %459, %458 : (tensor<1x256xf32>, tensor<1x256xf32>) -> tensor<1x256xf32>
    %461 = tosa.reshape %460, %9 : (tensor<1x256xf32>, !tosa.shape<4>) -> tensor<1x2x1x128xf32>
    %462 = tosa.reshape %36, %8 : (tensor<1x1x128xf32>, !tosa.shape<4>) -> tensor<1x1x1x128xf32>
    %463 = tosa.reshape %37, %8 : (tensor<1x1x128xf32>, !tosa.shape<4>) -> tensor<1x1x1x128xf32>
    %464 = tosa.mul %451, %462, %15 : (tensor<1x12x1x128xf32>, tensor<1x1x1x128xf32>, tensor<1xi8>) -> tensor<1x12x1x128xf32>
    %extracted_slice_62 = tensor.extract_slice %451[0, 0, 0, 0] [1, 12, 1, 64] [1, 1, 1, 1] : tensor<1x12x1x128xf32> to tensor<1x12x1x64xf32>
    %extracted_slice_63 = tensor.extract_slice %451[0, 0, 0, 64] [1, 12, 1, 64] [1, 1, 1, 1] : tensor<1x12x1x128xf32> to tensor<1x12x1x64xf32>
    %465 = tosa.negate %extracted_slice_63, %19, %19 : (tensor<1x12x1x64xf32>, tensor<1xf32>, tensor<1xf32>) -> tensor<1x12x1x64xf32>
    %466 = tensor.empty() : tensor<1x12x1x128xf32>
    %inserted_slice_64 = tensor.insert_slice %465 into %466[0, 0, 0, 0] [1, 12, 1, 64] [1, 1, 1, 1] : tensor<1x12x1x64xf32> into tensor<1x12x1x128xf32>
    %inserted_slice_65 = tensor.insert_slice %extracted_slice_62 into %inserted_slice_64[0, 0, 0, 64] [1, 12, 1, 64] [1, 1, 1, 1] : tensor<1x12x1x64xf32> into tensor<1x12x1x128xf32>
    %467 = tosa.mul %inserted_slice_65, %463, %15 : (tensor<1x12x1x128xf32>, tensor<1x1x1x128xf32>, tensor<1xi8>) -> tensor<1x12x1x128xf32>
    %468 = tosa.add %464, %467 : (tensor<1x12x1x128xf32>, tensor<1x12x1x128xf32>) -> tensor<1x12x1x128xf32>
    %469 = tosa.mul %456, %462, %15 : (tensor<1x2x1x128xf32>, tensor<1x1x1x128xf32>, tensor<1xi8>) -> tensor<1x2x1x128xf32>
    %extracted_slice_66 = tensor.extract_slice %456[0, 0, 0, 0] [1, 2, 1, 64] [1, 1, 1, 1] : tensor<1x2x1x128xf32> to tensor<1x2x1x64xf32>
    %extracted_slice_67 = tensor.extract_slice %456[0, 0, 0, 64] [1, 2, 1, 64] [1, 1, 1, 1] : tensor<1x2x1x128xf32> to tensor<1x2x1x64xf32>
    %470 = tosa.negate %extracted_slice_67, %19, %19 : (tensor<1x2x1x64xf32>, tensor<1xf32>, tensor<1xf32>) -> tensor<1x2x1x64xf32>
    %471 = tensor.empty() : tensor<1x2x1x128xf32>
    %inserted_slice_68 = tensor.insert_slice %470 into %471[0, 0, 0, 0] [1, 2, 1, 64] [1, 1, 1, 1] : tensor<1x2x1x64xf32> into tensor<1x2x1x128xf32>
    %inserted_slice_69 = tensor.insert_slice %extracted_slice_66 into %inserted_slice_68[0, 0, 0, 64] [1, 2, 1, 64] [1, 1, 1, 1] : tensor<1x2x1x64xf32> into tensor<1x2x1x128xf32>
    %472 = tosa.mul %inserted_slice_69, %463, %15 : (tensor<1x2x1x128xf32>, tensor<1x1x1x128xf32>, tensor<1xi8>) -> tensor<1x2x1x128xf32>
    %473 = tosa.add %469, %472 : (tensor<1x2x1x128xf32>, tensor<1x2x1x128xf32>) -> tensor<1x2x1x128xf32>
    %474 = bufferization.to_buffer %arg82 : tensor<1x2x1024x128xf32> to memref<1x2x1024x128xf32>
    %475 = tosa.reshape %arg3, %7 : (tensor<1xi64>, !tosa.shape<4>) -> tensor<1x1x1x1xi64>
    %476 = tosa.add %475, %6 : (tensor<1x1x1x1xi64>, tensor<1x2x1x128xi64>) -> tensor<1x2x1x128xi64>
    %477 = bufferization.to_buffer %476 : tensor<1x2x1x128xi64> to memref<1x2x1x128xi64>
    %478 = bufferization.to_buffer %473 : tensor<1x2x1x128xf32> to memref<1x2x1x128xf32>
    scf.for %arg399 = %c0 to %c1 step %c1 {
      scf.for %arg400 = %c0 to %c2 step %c1 {
        scf.for %arg401 = %c0 to %c1 step %c1 {
          scf.for %arg402 = %c0 to %c128 step %c1 {
            %2290 = memref.load %478[%arg399, %arg400, %arg401, %arg402] : memref<1x2x1x128xf32>
            %2291 = memref.load %477[%arg399, %arg400, %arg401, %arg402] : memref<1x2x1x128xi64>
            %2292 = arith.index_cast %2291 : i64 to index
            memref.store %2290, %474[%arg399, %arg400, %2292, %arg402] : memref<1x2x1024x128xf32>
          }
        }
      }
    }
    %479 = bufferization.to_tensor %474 restrict : memref<1x2x1024x128xf32> to tensor<1x2x1024x128xf32>
    %480 = bufferization.to_buffer %arg83 : tensor<1x2x1024x128xf32> to memref<1x2x1024x128xf32>
    %481 = tosa.reshape %arg3, %7 : (tensor<1xi64>, !tosa.shape<4>) -> tensor<1x1x1x1xi64>
    %482 = tosa.add %481, %6 : (tensor<1x1x1x1xi64>, tensor<1x2x1x128xi64>) -> tensor<1x2x1x128xi64>
    %483 = bufferization.to_buffer %482 : tensor<1x2x1x128xi64> to memref<1x2x1x128xi64>
    %484 = bufferization.to_buffer %461 : tensor<1x2x1x128xf32> to memref<1x2x1x128xf32>
    scf.for %arg399 = %c0 to %c1 step %c1 {
      scf.for %arg400 = %c0 to %c2 step %c1 {
        scf.for %arg401 = %c0 to %c1 step %c1 {
          scf.for %arg402 = %c0 to %c128 step %c1 {
            %2290 = memref.load %484[%arg399, %arg400, %arg401, %arg402] : memref<1x2x1x128xf32>
            %2291 = memref.load %483[%arg399, %arg400, %arg401, %arg402] : memref<1x2x1x128xi64>
            %2292 = arith.index_cast %2291 : i64 to index
            memref.store %2290, %480[%arg399, %arg400, %2292, %arg402] : memref<1x2x1024x128xf32>
          }
        }
      }
    }
    %485 = bufferization.to_tensor %480 restrict : memref<1x2x1024x128xf32> to tensor<1x2x1024x128xf32>
    %486 = tosa.reshape %28, %5 : (tensor<1x1024xi1>, !tosa.shape<4>) -> tensor<1x1x1x1024xi1>
    %487 = tensor.empty() : tensor<1x1x1x1024xf32>
    %488 = linalg.generic {indexing_maps = [#map1, #map1, #map1, #map1], iterator_types = ["parallel", "parallel", "parallel", "parallel"]} ins(%486, %cst_1, %cst_0 : tensor<1x1x1x1024xi1>, tensor<1x1x1x1024xf32>, tensor<1x1x1x1024xf32>) outs(%487 : tensor<1x1x1x1024xf32>) {
    ^bb0(%in: i1, %in_315: f32, %in_316: f32, %out: f32):
      %2290 = arith.select %in, %in_315, %in_316 : f32
      linalg.yield %2290 : f32
    } -> tensor<1x1x1x1024xf32>
    %489 = bufferization.to_buffer %468 : tensor<1x12x1x128xf32> to memref<1x12x1x128xf32>
    %490 = bufferization.to_buffer %488 : tensor<1x1x1x1024xf32> to memref<1x1x1x1024xf32>
    %alloc_70 = memref.alloc() : memref<1x12x1x128xf32>
    %alloc_71 = memref.alloc() : memref<1x12x1xf32>
    %alloc_72 = memref.alloc() : memref<128xf32>
    affine.for %arg399 = 0 to 1 {
      affine.for %arg400 = 0 to 12 {
        %2290 = arith.divsi %arg400, %c6 : index
        affine.for %arg401 = 0 to 1 {
          affine.for %arg402 = 0 to 128 {
            memref.store %cst_7, %alloc_72[%arg402] : memref<128xf32>
          }
          %2291:2 = affine.for %arg402 = 0 to 1024 iter_args(%arg403 = %cst_4, %arg404 = %cst_7) -> (f32, f32) {
            %2292 = affine.for %arg405 = 0 to 128 step 16 iter_args(%arg406 = %cst) -> (vector<16xf32>) {
              %2307 = vector.load %489[%arg399, %arg400, %arg401, %arg405] : memref<1x12x1x128xf32>, vector<16xf32>
              %2308 = vector.load %474[%arg399, %2290, %arg402, %arg405] : memref<1x2x1024x128xf32>, vector<16xf32>
              %2309 = vector.fma %2307, %2308, %arg406 : vector<16xf32>
              affine.yield %2309 : vector<16xf32>
            }
            %2293 = vector.reduction <add>, %2292 : vector<16xf32> into f32
            %2294 = arith.mulf %2293, %cst_5 : f32
            %2295 = memref.load %490[%arg399, %c0, %arg401, %arg402] : memref<1x1x1x1024xf32>
            %2296 = arith.addf %2294, %2295 : f32
            %2297 = arith.cmpf ogt, %2296, %arg403 : f32
            %2298 = arith.select %2297, %2296, %arg403 : f32
            %2299 = arith.subf %arg403, %2296 : f32
            %2300 = math.exp %2299 : f32
            %2301 = arith.mulf %2300, %arg404 : f32
            %2302 = arith.addf %2301, %cst_6 : f32
            %2303 = arith.subf %2296, %arg403 : f32
            %2304 = math.exp %2303 : f32
            %2305 = arith.addf %arg404, %2304 : f32
            %2306 = arith.select %2297, %2302, %2305 : f32
            affine.for %arg405 = 0 to 128 {
              %2307 = memref.load %480[%arg399, %2290, %arg402, %arg405] : memref<1x2x1024x128xf32>
              %2308 = memref.load %alloc_72[%arg405] : memref<128xf32>
              %2309 = arith.mulf %2308, %2300 : f32
              %2310 = arith.addf %2309, %2307 : f32
              %2311 = arith.mulf %2304, %2307 : f32
              %2312 = arith.addf %2311, %2308 : f32
              %2313 = arith.select %2297, %2310, %2312 : f32
              memref.store %2313, %alloc_72[%arg405] : memref<128xf32>
            }
            affine.yield %2298, %2306 : f32, f32
          }
          memref.store %2291#1, %alloc_71[%arg399, %arg400, %arg401] : memref<1x12x1xf32>
          affine.for %arg402 = 0 to 128 {
            %2292 = memref.load %alloc_72[%arg402] : memref<128xf32>
            %2293 = arith.divf %2292, %2291#1 : f32
            memref.store %2293, %alloc_70[%arg399, %arg400, %arg401, %arg402] : memref<1x12x1x128xf32>
          }
        }
      }
    }
    %491 = bufferization.to_tensor %alloc_70 restrict : memref<1x12x1x128xf32> to tensor<1x12x1x128xf32>
    %492 = tosa.reshape %491, %12 : (tensor<1x12x1x128xf32>, !tosa.shape<2>) -> tensor<1x1536xf32>
    %493 = linalg.matmul {cast = #linalg.type_fn<cast_signed>} ins(%492, %arg84 : tensor<1x1536xf32>, tensor<1536x1536xf32>) outs(%cst_9 : tensor<1x1536xf32>) -> tensor<1x1536xf32>
    %494 = tosa.reshape %493, %13 : (tensor<1x1536xf32>, !tosa.shape<3>) -> tensor<1x1x1536xf32>
    %495 = tosa.add %437, %494 : (tensor<1x1x1536xf32>, tensor<1x1x1536xf32>) -> tensor<1x1x1536xf32>
    %496 = tensor.empty() : tensor<1x1x1536xf32>
    %497 = linalg.generic {indexing_maps = [#map, #map], iterator_types = ["parallel", "parallel", "parallel"]} ins(%495 : tensor<1x1x1536xf32>) outs(%496 : tensor<1x1x1536xf32>) {
    ^bb0(%in: f32, %out: f32):
      %2290 = math.fpowi %in, %c2_i32 : f32, i32
      linalg.yield %2290 : f32
    } -> tensor<1x1x1536xf32>
    %498 = tosa.reduce_sum %497 {axis = 2 : i32} : (tensor<1x1x1536xf32>) -> tensor<1x1x1xf32>
    %499 = tosa.mul %498, %0, %15 : (tensor<1x1x1xf32>, tensor<1x1x1xf32>, tensor<1xi8>) -> tensor<1x1x1xf32>
    %500 = tosa.add %499, %14 : (tensor<1x1x1xf32>, tensor<1x1x1xf32>) -> tensor<1x1x1xf32>
    %501 = tosa.rsqrt %500 : (tensor<1x1x1xf32>) -> tensor<1x1x1xf32>
    %502 = tosa.mul %495, %501, %15 : (tensor<1x1x1536xf32>, tensor<1x1x1xf32>, tensor<1xi8>) -> tensor<1x1x1536xf32>
    %503 = tosa.reshape %arg85, %13 : (tensor<1536xf32>, !tosa.shape<3>) -> tensor<1x1x1536xf32>
    %504 = tosa.mul %503, %502, %15 : (tensor<1x1x1536xf32>, tensor<1x1x1536xf32>, tensor<1xi8>) -> tensor<1x1x1536xf32>
    %505 = tosa.reshape %504, %12 : (tensor<1x1x1536xf32>, !tosa.shape<2>) -> tensor<1x1536xf32>
    %506 = linalg.matmul {cast = #linalg.type_fn<cast_signed>} ins(%505, %arg86 : tensor<1x1536xf32>, tensor<1536x8960xf32>) outs(%cst_3 : tensor<1x8960xf32>) -> tensor<1x8960xf32>
    %507 = tosa.reshape %506, %4 : (tensor<1x8960xf32>, !tosa.shape<3>) -> tensor<1x1x8960xf32>
    %508 = tosa.sigmoid %507 : (tensor<1x1x8960xf32>) -> tensor<1x1x8960xf32>
    %509 = tosa.mul %507, %508, %15 : (tensor<1x1x8960xf32>, tensor<1x1x8960xf32>, tensor<1xi8>) -> tensor<1x1x8960xf32>
    %510 = tosa.reshape %504, %12 : (tensor<1x1x1536xf32>, !tosa.shape<2>) -> tensor<1x1536xf32>
    %511 = linalg.matmul {cast = #linalg.type_fn<cast_signed>} ins(%510, %arg87 : tensor<1x1536xf32>, tensor<1536x8960xf32>) outs(%cst_3 : tensor<1x8960xf32>) -> tensor<1x8960xf32>
    %512 = tosa.reshape %511, %4 : (tensor<1x8960xf32>, !tosa.shape<3>) -> tensor<1x1x8960xf32>
    %513 = tosa.mul %509, %512, %15 : (tensor<1x1x8960xf32>, tensor<1x1x8960xf32>, tensor<1xi8>) -> tensor<1x1x8960xf32>
    %514 = tosa.reshape %513, %3 : (tensor<1x1x8960xf32>, !tosa.shape<2>) -> tensor<1x8960xf32>
    %515 = linalg.matmul {cast = #linalg.type_fn<cast_signed>} ins(%514, %arg88 : tensor<1x8960xf32>, tensor<8960x1536xf32>) outs(%cst_9 : tensor<1x1536xf32>) -> tensor<1x1536xf32>
    %516 = tosa.reshape %515, %13 : (tensor<1x1536xf32>, !tosa.shape<3>) -> tensor<1x1x1536xf32>
    %517 = tosa.add %495, %516 : (tensor<1x1x1536xf32>, tensor<1x1x1536xf32>) -> tensor<1x1x1536xf32>
    %518 = tensor.empty() : tensor<1x1x1536xf32>
    %519 = linalg.generic {indexing_maps = [#map, #map], iterator_types = ["parallel", "parallel", "parallel"]} ins(%517 : tensor<1x1x1536xf32>) outs(%518 : tensor<1x1x1536xf32>) {
    ^bb0(%in: f32, %out: f32):
      %2290 = math.fpowi %in, %c2_i32 : f32, i32
      linalg.yield %2290 : f32
    } -> tensor<1x1x1536xf32>
    %520 = tosa.reduce_sum %519 {axis = 2 : i32} : (tensor<1x1x1536xf32>) -> tensor<1x1x1xf32>
    %521 = tosa.mul %520, %0, %15 : (tensor<1x1x1xf32>, tensor<1x1x1xf32>, tensor<1xi8>) -> tensor<1x1x1xf32>
    %522 = tosa.add %521, %14 : (tensor<1x1x1xf32>, tensor<1x1x1xf32>) -> tensor<1x1x1xf32>
    %523 = tosa.rsqrt %522 : (tensor<1x1x1xf32>) -> tensor<1x1x1xf32>
    %524 = tosa.mul %517, %523, %15 : (tensor<1x1x1536xf32>, tensor<1x1x1xf32>, tensor<1xi8>) -> tensor<1x1x1536xf32>
    %525 = tosa.reshape %arg89, %13 : (tensor<1536xf32>, !tosa.shape<3>) -> tensor<1x1x1536xf32>
    %526 = tosa.mul %525, %524, %15 : (tensor<1x1x1536xf32>, tensor<1x1x1536xf32>, tensor<1xi8>) -> tensor<1x1x1536xf32>
    %527 = tosa.reshape %526, %12 : (tensor<1x1x1536xf32>, !tosa.shape<2>) -> tensor<1x1536xf32>
    %528 = linalg.matmul {cast = #linalg.type_fn<cast_signed>} ins(%527, %arg91 : tensor<1x1536xf32>, tensor<1536x1536xf32>) outs(%cst_9 : tensor<1x1536xf32>) -> tensor<1x1536xf32>
    %529 = tosa.reshape %arg90, %12 : (tensor<1536xf32>, !tosa.shape<2>) -> tensor<1x1536xf32>
    %530 = tosa.add %529, %528 : (tensor<1x1536xf32>, tensor<1x1536xf32>) -> tensor<1x1536xf32>
    %531 = tosa.reshape %530, %11 : (tensor<1x1536xf32>, !tosa.shape<4>) -> tensor<1x12x1x128xf32>
    %532 = tosa.reshape %526, %12 : (tensor<1x1x1536xf32>, !tosa.shape<2>) -> tensor<1x1536xf32>
    %533 = linalg.matmul {cast = #linalg.type_fn<cast_signed>} ins(%532, %arg93 : tensor<1x1536xf32>, tensor<1536x256xf32>) outs(%cst_8 : tensor<1x256xf32>) -> tensor<1x256xf32>
    %534 = tosa.reshape %arg92, %10 : (tensor<256xf32>, !tosa.shape<2>) -> tensor<1x256xf32>
    %535 = tosa.add %534, %533 : (tensor<1x256xf32>, tensor<1x256xf32>) -> tensor<1x256xf32>
    %536 = tosa.reshape %535, %9 : (tensor<1x256xf32>, !tosa.shape<4>) -> tensor<1x2x1x128xf32>
    %537 = tosa.reshape %526, %12 : (tensor<1x1x1536xf32>, !tosa.shape<2>) -> tensor<1x1536xf32>
    %538 = linalg.matmul {cast = #linalg.type_fn<cast_signed>} ins(%537, %arg95 : tensor<1x1536xf32>, tensor<1536x256xf32>) outs(%cst_8 : tensor<1x256xf32>) -> tensor<1x256xf32>
    %539 = tosa.reshape %arg94, %10 : (tensor<256xf32>, !tosa.shape<2>) -> tensor<1x256xf32>
    %540 = tosa.add %539, %538 : (tensor<1x256xf32>, tensor<1x256xf32>) -> tensor<1x256xf32>
    %541 = tosa.reshape %540, %9 : (tensor<1x256xf32>, !tosa.shape<4>) -> tensor<1x2x1x128xf32>
    %542 = tosa.reshape %36, %8 : (tensor<1x1x128xf32>, !tosa.shape<4>) -> tensor<1x1x1x128xf32>
    %543 = tosa.reshape %37, %8 : (tensor<1x1x128xf32>, !tosa.shape<4>) -> tensor<1x1x1x128xf32>
    %544 = tosa.mul %531, %542, %15 : (tensor<1x12x1x128xf32>, tensor<1x1x1x128xf32>, tensor<1xi8>) -> tensor<1x12x1x128xf32>
    %extracted_slice_73 = tensor.extract_slice %531[0, 0, 0, 0] [1, 12, 1, 64] [1, 1, 1, 1] : tensor<1x12x1x128xf32> to tensor<1x12x1x64xf32>
    %extracted_slice_74 = tensor.extract_slice %531[0, 0, 0, 64] [1, 12, 1, 64] [1, 1, 1, 1] : tensor<1x12x1x128xf32> to tensor<1x12x1x64xf32>
    %545 = tosa.negate %extracted_slice_74, %19, %19 : (tensor<1x12x1x64xf32>, tensor<1xf32>, tensor<1xf32>) -> tensor<1x12x1x64xf32>
    %546 = tensor.empty() : tensor<1x12x1x128xf32>
    %inserted_slice_75 = tensor.insert_slice %545 into %546[0, 0, 0, 0] [1, 12, 1, 64] [1, 1, 1, 1] : tensor<1x12x1x64xf32> into tensor<1x12x1x128xf32>
    %inserted_slice_76 = tensor.insert_slice %extracted_slice_73 into %inserted_slice_75[0, 0, 0, 64] [1, 12, 1, 64] [1, 1, 1, 1] : tensor<1x12x1x64xf32> into tensor<1x12x1x128xf32>
    %547 = tosa.mul %inserted_slice_76, %543, %15 : (tensor<1x12x1x128xf32>, tensor<1x1x1x128xf32>, tensor<1xi8>) -> tensor<1x12x1x128xf32>
    %548 = tosa.add %544, %547 : (tensor<1x12x1x128xf32>, tensor<1x12x1x128xf32>) -> tensor<1x12x1x128xf32>
    %549 = tosa.mul %536, %542, %15 : (tensor<1x2x1x128xf32>, tensor<1x1x1x128xf32>, tensor<1xi8>) -> tensor<1x2x1x128xf32>
    %extracted_slice_77 = tensor.extract_slice %536[0, 0, 0, 0] [1, 2, 1, 64] [1, 1, 1, 1] : tensor<1x2x1x128xf32> to tensor<1x2x1x64xf32>
    %extracted_slice_78 = tensor.extract_slice %536[0, 0, 0, 64] [1, 2, 1, 64] [1, 1, 1, 1] : tensor<1x2x1x128xf32> to tensor<1x2x1x64xf32>
    %550 = tosa.negate %extracted_slice_78, %19, %19 : (tensor<1x2x1x64xf32>, tensor<1xf32>, tensor<1xf32>) -> tensor<1x2x1x64xf32>
    %551 = tensor.empty() : tensor<1x2x1x128xf32>
    %inserted_slice_79 = tensor.insert_slice %550 into %551[0, 0, 0, 0] [1, 2, 1, 64] [1, 1, 1, 1] : tensor<1x2x1x64xf32> into tensor<1x2x1x128xf32>
    %inserted_slice_80 = tensor.insert_slice %extracted_slice_77 into %inserted_slice_79[0, 0, 0, 64] [1, 2, 1, 64] [1, 1, 1, 1] : tensor<1x2x1x64xf32> into tensor<1x2x1x128xf32>
    %552 = tosa.mul %inserted_slice_80, %543, %15 : (tensor<1x2x1x128xf32>, tensor<1x1x1x128xf32>, tensor<1xi8>) -> tensor<1x2x1x128xf32>
    %553 = tosa.add %549, %552 : (tensor<1x2x1x128xf32>, tensor<1x2x1x128xf32>) -> tensor<1x2x1x128xf32>
    %554 = bufferization.to_buffer %arg96 : tensor<1x2x1024x128xf32> to memref<1x2x1024x128xf32>
    %555 = tosa.reshape %arg3, %7 : (tensor<1xi64>, !tosa.shape<4>) -> tensor<1x1x1x1xi64>
    %556 = tosa.add %555, %6 : (tensor<1x1x1x1xi64>, tensor<1x2x1x128xi64>) -> tensor<1x2x1x128xi64>
    %557 = bufferization.to_buffer %556 : tensor<1x2x1x128xi64> to memref<1x2x1x128xi64>
    %558 = bufferization.to_buffer %553 : tensor<1x2x1x128xf32> to memref<1x2x1x128xf32>
    scf.for %arg399 = %c0 to %c1 step %c1 {
      scf.for %arg400 = %c0 to %c2 step %c1 {
        scf.for %arg401 = %c0 to %c1 step %c1 {
          scf.for %arg402 = %c0 to %c128 step %c1 {
            %2290 = memref.load %558[%arg399, %arg400, %arg401, %arg402] : memref<1x2x1x128xf32>
            %2291 = memref.load %557[%arg399, %arg400, %arg401, %arg402] : memref<1x2x1x128xi64>
            %2292 = arith.index_cast %2291 : i64 to index
            memref.store %2290, %554[%arg399, %arg400, %2292, %arg402] : memref<1x2x1024x128xf32>
          }
        }
      }
    }
    %559 = bufferization.to_tensor %554 restrict : memref<1x2x1024x128xf32> to tensor<1x2x1024x128xf32>
    %560 = bufferization.to_buffer %arg97 : tensor<1x2x1024x128xf32> to memref<1x2x1024x128xf32>
    %561 = tosa.reshape %arg3, %7 : (tensor<1xi64>, !tosa.shape<4>) -> tensor<1x1x1x1xi64>
    %562 = tosa.add %561, %6 : (tensor<1x1x1x1xi64>, tensor<1x2x1x128xi64>) -> tensor<1x2x1x128xi64>
    %563 = bufferization.to_buffer %562 : tensor<1x2x1x128xi64> to memref<1x2x1x128xi64>
    %564 = bufferization.to_buffer %541 : tensor<1x2x1x128xf32> to memref<1x2x1x128xf32>
    scf.for %arg399 = %c0 to %c1 step %c1 {
      scf.for %arg400 = %c0 to %c2 step %c1 {
        scf.for %arg401 = %c0 to %c1 step %c1 {
          scf.for %arg402 = %c0 to %c128 step %c1 {
            %2290 = memref.load %564[%arg399, %arg400, %arg401, %arg402] : memref<1x2x1x128xf32>
            %2291 = memref.load %563[%arg399, %arg400, %arg401, %arg402] : memref<1x2x1x128xi64>
            %2292 = arith.index_cast %2291 : i64 to index
            memref.store %2290, %560[%arg399, %arg400, %2292, %arg402] : memref<1x2x1024x128xf32>
          }
        }
      }
    }
    %565 = bufferization.to_tensor %560 restrict : memref<1x2x1024x128xf32> to tensor<1x2x1024x128xf32>
    %566 = tosa.reshape %28, %5 : (tensor<1x1024xi1>, !tosa.shape<4>) -> tensor<1x1x1x1024xi1>
    %567 = tensor.empty() : tensor<1x1x1x1024xf32>
    %568 = linalg.generic {indexing_maps = [#map1, #map1, #map1, #map1], iterator_types = ["parallel", "parallel", "parallel", "parallel"]} ins(%566, %cst_1, %cst_0 : tensor<1x1x1x1024xi1>, tensor<1x1x1x1024xf32>, tensor<1x1x1x1024xf32>) outs(%567 : tensor<1x1x1x1024xf32>) {
    ^bb0(%in: i1, %in_315: f32, %in_316: f32, %out: f32):
      %2290 = arith.select %in, %in_315, %in_316 : f32
      linalg.yield %2290 : f32
    } -> tensor<1x1x1x1024xf32>
    %569 = bufferization.to_buffer %548 : tensor<1x12x1x128xf32> to memref<1x12x1x128xf32>
    %570 = bufferization.to_buffer %568 : tensor<1x1x1x1024xf32> to memref<1x1x1x1024xf32>
    %alloc_81 = memref.alloc() : memref<1x12x1x128xf32>
    %alloc_82 = memref.alloc() : memref<1x12x1xf32>
    %alloc_83 = memref.alloc() : memref<128xf32>
    affine.for %arg399 = 0 to 1 {
      affine.for %arg400 = 0 to 12 {
        %2290 = arith.divsi %arg400, %c6 : index
        affine.for %arg401 = 0 to 1 {
          affine.for %arg402 = 0 to 128 {
            memref.store %cst_7, %alloc_83[%arg402] : memref<128xf32>
          }
          %2291:2 = affine.for %arg402 = 0 to 1024 iter_args(%arg403 = %cst_4, %arg404 = %cst_7) -> (f32, f32) {
            %2292 = affine.for %arg405 = 0 to 128 step 16 iter_args(%arg406 = %cst) -> (vector<16xf32>) {
              %2307 = vector.load %569[%arg399, %arg400, %arg401, %arg405] : memref<1x12x1x128xf32>, vector<16xf32>
              %2308 = vector.load %554[%arg399, %2290, %arg402, %arg405] : memref<1x2x1024x128xf32>, vector<16xf32>
              %2309 = vector.fma %2307, %2308, %arg406 : vector<16xf32>
              affine.yield %2309 : vector<16xf32>
            }
            %2293 = vector.reduction <add>, %2292 : vector<16xf32> into f32
            %2294 = arith.mulf %2293, %cst_5 : f32
            %2295 = memref.load %570[%arg399, %c0, %arg401, %arg402] : memref<1x1x1x1024xf32>
            %2296 = arith.addf %2294, %2295 : f32
            %2297 = arith.cmpf ogt, %2296, %arg403 : f32
            %2298 = arith.select %2297, %2296, %arg403 : f32
            %2299 = arith.subf %arg403, %2296 : f32
            %2300 = math.exp %2299 : f32
            %2301 = arith.mulf %2300, %arg404 : f32
            %2302 = arith.addf %2301, %cst_6 : f32
            %2303 = arith.subf %2296, %arg403 : f32
            %2304 = math.exp %2303 : f32
            %2305 = arith.addf %arg404, %2304 : f32
            %2306 = arith.select %2297, %2302, %2305 : f32
            affine.for %arg405 = 0 to 128 {
              %2307 = memref.load %560[%arg399, %2290, %arg402, %arg405] : memref<1x2x1024x128xf32>
              %2308 = memref.load %alloc_83[%arg405] : memref<128xf32>
              %2309 = arith.mulf %2308, %2300 : f32
              %2310 = arith.addf %2309, %2307 : f32
              %2311 = arith.mulf %2304, %2307 : f32
              %2312 = arith.addf %2311, %2308 : f32
              %2313 = arith.select %2297, %2310, %2312 : f32
              memref.store %2313, %alloc_83[%arg405] : memref<128xf32>
            }
            affine.yield %2298, %2306 : f32, f32
          }
          memref.store %2291#1, %alloc_82[%arg399, %arg400, %arg401] : memref<1x12x1xf32>
          affine.for %arg402 = 0 to 128 {
            %2292 = memref.load %alloc_83[%arg402] : memref<128xf32>
            %2293 = arith.divf %2292, %2291#1 : f32
            memref.store %2293, %alloc_81[%arg399, %arg400, %arg401, %arg402] : memref<1x12x1x128xf32>
          }
        }
      }
    }
    %571 = bufferization.to_tensor %alloc_81 restrict : memref<1x12x1x128xf32> to tensor<1x12x1x128xf32>
    %572 = tosa.reshape %571, %12 : (tensor<1x12x1x128xf32>, !tosa.shape<2>) -> tensor<1x1536xf32>
    %573 = linalg.matmul {cast = #linalg.type_fn<cast_signed>} ins(%572, %arg98 : tensor<1x1536xf32>, tensor<1536x1536xf32>) outs(%cst_9 : tensor<1x1536xf32>) -> tensor<1x1536xf32>
    %574 = tosa.reshape %573, %13 : (tensor<1x1536xf32>, !tosa.shape<3>) -> tensor<1x1x1536xf32>
    %575 = tosa.add %517, %574 : (tensor<1x1x1536xf32>, tensor<1x1x1536xf32>) -> tensor<1x1x1536xf32>
    %576 = tensor.empty() : tensor<1x1x1536xf32>
    %577 = linalg.generic {indexing_maps = [#map, #map], iterator_types = ["parallel", "parallel", "parallel"]} ins(%575 : tensor<1x1x1536xf32>) outs(%576 : tensor<1x1x1536xf32>) {
    ^bb0(%in: f32, %out: f32):
      %2290 = math.fpowi %in, %c2_i32 : f32, i32
      linalg.yield %2290 : f32
    } -> tensor<1x1x1536xf32>
    %578 = tosa.reduce_sum %577 {axis = 2 : i32} : (tensor<1x1x1536xf32>) -> tensor<1x1x1xf32>
    %579 = tosa.mul %578, %0, %15 : (tensor<1x1x1xf32>, tensor<1x1x1xf32>, tensor<1xi8>) -> tensor<1x1x1xf32>
    %580 = tosa.add %579, %14 : (tensor<1x1x1xf32>, tensor<1x1x1xf32>) -> tensor<1x1x1xf32>
    %581 = tosa.rsqrt %580 : (tensor<1x1x1xf32>) -> tensor<1x1x1xf32>
    %582 = tosa.mul %575, %581, %15 : (tensor<1x1x1536xf32>, tensor<1x1x1xf32>, tensor<1xi8>) -> tensor<1x1x1536xf32>
    %583 = tosa.reshape %arg99, %13 : (tensor<1536xf32>, !tosa.shape<3>) -> tensor<1x1x1536xf32>
    %584 = tosa.mul %583, %582, %15 : (tensor<1x1x1536xf32>, tensor<1x1x1536xf32>, tensor<1xi8>) -> tensor<1x1x1536xf32>
    %585 = tosa.reshape %584, %12 : (tensor<1x1x1536xf32>, !tosa.shape<2>) -> tensor<1x1536xf32>
    %586 = linalg.matmul {cast = #linalg.type_fn<cast_signed>} ins(%585, %arg100 : tensor<1x1536xf32>, tensor<1536x8960xf32>) outs(%cst_3 : tensor<1x8960xf32>) -> tensor<1x8960xf32>
    %587 = tosa.reshape %586, %4 : (tensor<1x8960xf32>, !tosa.shape<3>) -> tensor<1x1x8960xf32>
    %588 = tosa.sigmoid %587 : (tensor<1x1x8960xf32>) -> tensor<1x1x8960xf32>
    %589 = tosa.mul %587, %588, %15 : (tensor<1x1x8960xf32>, tensor<1x1x8960xf32>, tensor<1xi8>) -> tensor<1x1x8960xf32>
    %590 = tosa.reshape %584, %12 : (tensor<1x1x1536xf32>, !tosa.shape<2>) -> tensor<1x1536xf32>
    %591 = linalg.matmul {cast = #linalg.type_fn<cast_signed>} ins(%590, %arg101 : tensor<1x1536xf32>, tensor<1536x8960xf32>) outs(%cst_3 : tensor<1x8960xf32>) -> tensor<1x8960xf32>
    %592 = tosa.reshape %591, %4 : (tensor<1x8960xf32>, !tosa.shape<3>) -> tensor<1x1x8960xf32>
    %593 = tosa.mul %589, %592, %15 : (tensor<1x1x8960xf32>, tensor<1x1x8960xf32>, tensor<1xi8>) -> tensor<1x1x8960xf32>
    %594 = tosa.reshape %593, %3 : (tensor<1x1x8960xf32>, !tosa.shape<2>) -> tensor<1x8960xf32>
    %595 = linalg.matmul {cast = #linalg.type_fn<cast_signed>} ins(%594, %arg102 : tensor<1x8960xf32>, tensor<8960x1536xf32>) outs(%cst_9 : tensor<1x1536xf32>) -> tensor<1x1536xf32>
    %596 = tosa.reshape %595, %13 : (tensor<1x1536xf32>, !tosa.shape<3>) -> tensor<1x1x1536xf32>
    %597 = tosa.add %575, %596 : (tensor<1x1x1536xf32>, tensor<1x1x1536xf32>) -> tensor<1x1x1536xf32>
    %598 = tensor.empty() : tensor<1x1x1536xf32>
    %599 = linalg.generic {indexing_maps = [#map, #map], iterator_types = ["parallel", "parallel", "parallel"]} ins(%597 : tensor<1x1x1536xf32>) outs(%598 : tensor<1x1x1536xf32>) {
    ^bb0(%in: f32, %out: f32):
      %2290 = math.fpowi %in, %c2_i32 : f32, i32
      linalg.yield %2290 : f32
    } -> tensor<1x1x1536xf32>
    %600 = tosa.reduce_sum %599 {axis = 2 : i32} : (tensor<1x1x1536xf32>) -> tensor<1x1x1xf32>
    %601 = tosa.mul %600, %0, %15 : (tensor<1x1x1xf32>, tensor<1x1x1xf32>, tensor<1xi8>) -> tensor<1x1x1xf32>
    %602 = tosa.add %601, %14 : (tensor<1x1x1xf32>, tensor<1x1x1xf32>) -> tensor<1x1x1xf32>
    %603 = tosa.rsqrt %602 : (tensor<1x1x1xf32>) -> tensor<1x1x1xf32>
    %604 = tosa.mul %597, %603, %15 : (tensor<1x1x1536xf32>, tensor<1x1x1xf32>, tensor<1xi8>) -> tensor<1x1x1536xf32>
    %605 = tosa.reshape %arg103, %13 : (tensor<1536xf32>, !tosa.shape<3>) -> tensor<1x1x1536xf32>
    %606 = tosa.mul %605, %604, %15 : (tensor<1x1x1536xf32>, tensor<1x1x1536xf32>, tensor<1xi8>) -> tensor<1x1x1536xf32>
    %607 = tosa.reshape %606, %12 : (tensor<1x1x1536xf32>, !tosa.shape<2>) -> tensor<1x1536xf32>
    %608 = linalg.matmul {cast = #linalg.type_fn<cast_signed>} ins(%607, %arg105 : tensor<1x1536xf32>, tensor<1536x1536xf32>) outs(%cst_9 : tensor<1x1536xf32>) -> tensor<1x1536xf32>
    %609 = tosa.reshape %arg104, %12 : (tensor<1536xf32>, !tosa.shape<2>) -> tensor<1x1536xf32>
    %610 = tosa.add %609, %608 : (tensor<1x1536xf32>, tensor<1x1536xf32>) -> tensor<1x1536xf32>
    %611 = tosa.reshape %610, %11 : (tensor<1x1536xf32>, !tosa.shape<4>) -> tensor<1x12x1x128xf32>
    %612 = tosa.reshape %606, %12 : (tensor<1x1x1536xf32>, !tosa.shape<2>) -> tensor<1x1536xf32>
    %613 = linalg.matmul {cast = #linalg.type_fn<cast_signed>} ins(%612, %arg107 : tensor<1x1536xf32>, tensor<1536x256xf32>) outs(%cst_8 : tensor<1x256xf32>) -> tensor<1x256xf32>
    %614 = tosa.reshape %arg106, %10 : (tensor<256xf32>, !tosa.shape<2>) -> tensor<1x256xf32>
    %615 = tosa.add %614, %613 : (tensor<1x256xf32>, tensor<1x256xf32>) -> tensor<1x256xf32>
    %616 = tosa.reshape %615, %9 : (tensor<1x256xf32>, !tosa.shape<4>) -> tensor<1x2x1x128xf32>
    %617 = tosa.reshape %606, %12 : (tensor<1x1x1536xf32>, !tosa.shape<2>) -> tensor<1x1536xf32>
    %618 = linalg.matmul {cast = #linalg.type_fn<cast_signed>} ins(%617, %arg109 : tensor<1x1536xf32>, tensor<1536x256xf32>) outs(%cst_8 : tensor<1x256xf32>) -> tensor<1x256xf32>
    %619 = tosa.reshape %arg108, %10 : (tensor<256xf32>, !tosa.shape<2>) -> tensor<1x256xf32>
    %620 = tosa.add %619, %618 : (tensor<1x256xf32>, tensor<1x256xf32>) -> tensor<1x256xf32>
    %621 = tosa.reshape %620, %9 : (tensor<1x256xf32>, !tosa.shape<4>) -> tensor<1x2x1x128xf32>
    %622 = tosa.reshape %36, %8 : (tensor<1x1x128xf32>, !tosa.shape<4>) -> tensor<1x1x1x128xf32>
    %623 = tosa.reshape %37, %8 : (tensor<1x1x128xf32>, !tosa.shape<4>) -> tensor<1x1x1x128xf32>
    %624 = tosa.mul %611, %622, %15 : (tensor<1x12x1x128xf32>, tensor<1x1x1x128xf32>, tensor<1xi8>) -> tensor<1x12x1x128xf32>
    %extracted_slice_84 = tensor.extract_slice %611[0, 0, 0, 0] [1, 12, 1, 64] [1, 1, 1, 1] : tensor<1x12x1x128xf32> to tensor<1x12x1x64xf32>
    %extracted_slice_85 = tensor.extract_slice %611[0, 0, 0, 64] [1, 12, 1, 64] [1, 1, 1, 1] : tensor<1x12x1x128xf32> to tensor<1x12x1x64xf32>
    %625 = tosa.negate %extracted_slice_85, %19, %19 : (tensor<1x12x1x64xf32>, tensor<1xf32>, tensor<1xf32>) -> tensor<1x12x1x64xf32>
    %626 = tensor.empty() : tensor<1x12x1x128xf32>
    %inserted_slice_86 = tensor.insert_slice %625 into %626[0, 0, 0, 0] [1, 12, 1, 64] [1, 1, 1, 1] : tensor<1x12x1x64xf32> into tensor<1x12x1x128xf32>
    %inserted_slice_87 = tensor.insert_slice %extracted_slice_84 into %inserted_slice_86[0, 0, 0, 64] [1, 12, 1, 64] [1, 1, 1, 1] : tensor<1x12x1x64xf32> into tensor<1x12x1x128xf32>
    %627 = tosa.mul %inserted_slice_87, %623, %15 : (tensor<1x12x1x128xf32>, tensor<1x1x1x128xf32>, tensor<1xi8>) -> tensor<1x12x1x128xf32>
    %628 = tosa.add %624, %627 : (tensor<1x12x1x128xf32>, tensor<1x12x1x128xf32>) -> tensor<1x12x1x128xf32>
    %629 = tosa.mul %616, %622, %15 : (tensor<1x2x1x128xf32>, tensor<1x1x1x128xf32>, tensor<1xi8>) -> tensor<1x2x1x128xf32>
    %extracted_slice_88 = tensor.extract_slice %616[0, 0, 0, 0] [1, 2, 1, 64] [1, 1, 1, 1] : tensor<1x2x1x128xf32> to tensor<1x2x1x64xf32>
    %extracted_slice_89 = tensor.extract_slice %616[0, 0, 0, 64] [1, 2, 1, 64] [1, 1, 1, 1] : tensor<1x2x1x128xf32> to tensor<1x2x1x64xf32>
    %630 = tosa.negate %extracted_slice_89, %19, %19 : (tensor<1x2x1x64xf32>, tensor<1xf32>, tensor<1xf32>) -> tensor<1x2x1x64xf32>
    %631 = tensor.empty() : tensor<1x2x1x128xf32>
    %inserted_slice_90 = tensor.insert_slice %630 into %631[0, 0, 0, 0] [1, 2, 1, 64] [1, 1, 1, 1] : tensor<1x2x1x64xf32> into tensor<1x2x1x128xf32>
    %inserted_slice_91 = tensor.insert_slice %extracted_slice_88 into %inserted_slice_90[0, 0, 0, 64] [1, 2, 1, 64] [1, 1, 1, 1] : tensor<1x2x1x64xf32> into tensor<1x2x1x128xf32>
    %632 = tosa.mul %inserted_slice_91, %623, %15 : (tensor<1x2x1x128xf32>, tensor<1x1x1x128xf32>, tensor<1xi8>) -> tensor<1x2x1x128xf32>
    %633 = tosa.add %629, %632 : (tensor<1x2x1x128xf32>, tensor<1x2x1x128xf32>) -> tensor<1x2x1x128xf32>
    %634 = bufferization.to_buffer %arg110 : tensor<1x2x1024x128xf32> to memref<1x2x1024x128xf32>
    %635 = tosa.reshape %arg3, %7 : (tensor<1xi64>, !tosa.shape<4>) -> tensor<1x1x1x1xi64>
    %636 = tosa.add %635, %6 : (tensor<1x1x1x1xi64>, tensor<1x2x1x128xi64>) -> tensor<1x2x1x128xi64>
    %637 = bufferization.to_buffer %636 : tensor<1x2x1x128xi64> to memref<1x2x1x128xi64>
    %638 = bufferization.to_buffer %633 : tensor<1x2x1x128xf32> to memref<1x2x1x128xf32>
    scf.for %arg399 = %c0 to %c1 step %c1 {
      scf.for %arg400 = %c0 to %c2 step %c1 {
        scf.for %arg401 = %c0 to %c1 step %c1 {
          scf.for %arg402 = %c0 to %c128 step %c1 {
            %2290 = memref.load %638[%arg399, %arg400, %arg401, %arg402] : memref<1x2x1x128xf32>
            %2291 = memref.load %637[%arg399, %arg400, %arg401, %arg402] : memref<1x2x1x128xi64>
            %2292 = arith.index_cast %2291 : i64 to index
            memref.store %2290, %634[%arg399, %arg400, %2292, %arg402] : memref<1x2x1024x128xf32>
          }
        }
      }
    }
    %639 = bufferization.to_tensor %634 restrict : memref<1x2x1024x128xf32> to tensor<1x2x1024x128xf32>
    %640 = bufferization.to_buffer %arg111 : tensor<1x2x1024x128xf32> to memref<1x2x1024x128xf32>
    %641 = tosa.reshape %arg3, %7 : (tensor<1xi64>, !tosa.shape<4>) -> tensor<1x1x1x1xi64>
    %642 = tosa.add %641, %6 : (tensor<1x1x1x1xi64>, tensor<1x2x1x128xi64>) -> tensor<1x2x1x128xi64>
    %643 = bufferization.to_buffer %642 : tensor<1x2x1x128xi64> to memref<1x2x1x128xi64>
    %644 = bufferization.to_buffer %621 : tensor<1x2x1x128xf32> to memref<1x2x1x128xf32>
    scf.for %arg399 = %c0 to %c1 step %c1 {
      scf.for %arg400 = %c0 to %c2 step %c1 {
        scf.for %arg401 = %c0 to %c1 step %c1 {
          scf.for %arg402 = %c0 to %c128 step %c1 {
            %2290 = memref.load %644[%arg399, %arg400, %arg401, %arg402] : memref<1x2x1x128xf32>
            %2291 = memref.load %643[%arg399, %arg400, %arg401, %arg402] : memref<1x2x1x128xi64>
            %2292 = arith.index_cast %2291 : i64 to index
            memref.store %2290, %640[%arg399, %arg400, %2292, %arg402] : memref<1x2x1024x128xf32>
          }
        }
      }
    }
    %645 = bufferization.to_tensor %640 restrict : memref<1x2x1024x128xf32> to tensor<1x2x1024x128xf32>
    %646 = tosa.reshape %28, %5 : (tensor<1x1024xi1>, !tosa.shape<4>) -> tensor<1x1x1x1024xi1>
    %647 = tensor.empty() : tensor<1x1x1x1024xf32>
    %648 = linalg.generic {indexing_maps = [#map1, #map1, #map1, #map1], iterator_types = ["parallel", "parallel", "parallel", "parallel"]} ins(%646, %cst_1, %cst_0 : tensor<1x1x1x1024xi1>, tensor<1x1x1x1024xf32>, tensor<1x1x1x1024xf32>) outs(%647 : tensor<1x1x1x1024xf32>) {
    ^bb0(%in: i1, %in_315: f32, %in_316: f32, %out: f32):
      %2290 = arith.select %in, %in_315, %in_316 : f32
      linalg.yield %2290 : f32
    } -> tensor<1x1x1x1024xf32>
    %649 = bufferization.to_buffer %628 : tensor<1x12x1x128xf32> to memref<1x12x1x128xf32>
    %650 = bufferization.to_buffer %648 : tensor<1x1x1x1024xf32> to memref<1x1x1x1024xf32>
    %alloc_92 = memref.alloc() : memref<1x12x1x128xf32>
    %alloc_93 = memref.alloc() : memref<1x12x1xf32>
    %alloc_94 = memref.alloc() : memref<128xf32>
    affine.for %arg399 = 0 to 1 {
      affine.for %arg400 = 0 to 12 {
        %2290 = arith.divsi %arg400, %c6 : index
        affine.for %arg401 = 0 to 1 {
          affine.for %arg402 = 0 to 128 {
            memref.store %cst_7, %alloc_94[%arg402] : memref<128xf32>
          }
          %2291:2 = affine.for %arg402 = 0 to 1024 iter_args(%arg403 = %cst_4, %arg404 = %cst_7) -> (f32, f32) {
            %2292 = affine.for %arg405 = 0 to 128 step 16 iter_args(%arg406 = %cst) -> (vector<16xf32>) {
              %2307 = vector.load %649[%arg399, %arg400, %arg401, %arg405] : memref<1x12x1x128xf32>, vector<16xf32>
              %2308 = vector.load %634[%arg399, %2290, %arg402, %arg405] : memref<1x2x1024x128xf32>, vector<16xf32>
              %2309 = vector.fma %2307, %2308, %arg406 : vector<16xf32>
              affine.yield %2309 : vector<16xf32>
            }
            %2293 = vector.reduction <add>, %2292 : vector<16xf32> into f32
            %2294 = arith.mulf %2293, %cst_5 : f32
            %2295 = memref.load %650[%arg399, %c0, %arg401, %arg402] : memref<1x1x1x1024xf32>
            %2296 = arith.addf %2294, %2295 : f32
            %2297 = arith.cmpf ogt, %2296, %arg403 : f32
            %2298 = arith.select %2297, %2296, %arg403 : f32
            %2299 = arith.subf %arg403, %2296 : f32
            %2300 = math.exp %2299 : f32
            %2301 = arith.mulf %2300, %arg404 : f32
            %2302 = arith.addf %2301, %cst_6 : f32
            %2303 = arith.subf %2296, %arg403 : f32
            %2304 = math.exp %2303 : f32
            %2305 = arith.addf %arg404, %2304 : f32
            %2306 = arith.select %2297, %2302, %2305 : f32
            affine.for %arg405 = 0 to 128 {
              %2307 = memref.load %640[%arg399, %2290, %arg402, %arg405] : memref<1x2x1024x128xf32>
              %2308 = memref.load %alloc_94[%arg405] : memref<128xf32>
              %2309 = arith.mulf %2308, %2300 : f32
              %2310 = arith.addf %2309, %2307 : f32
              %2311 = arith.mulf %2304, %2307 : f32
              %2312 = arith.addf %2311, %2308 : f32
              %2313 = arith.select %2297, %2310, %2312 : f32
              memref.store %2313, %alloc_94[%arg405] : memref<128xf32>
            }
            affine.yield %2298, %2306 : f32, f32
          }
          memref.store %2291#1, %alloc_93[%arg399, %arg400, %arg401] : memref<1x12x1xf32>
          affine.for %arg402 = 0 to 128 {
            %2292 = memref.load %alloc_94[%arg402] : memref<128xf32>
            %2293 = arith.divf %2292, %2291#1 : f32
            memref.store %2293, %alloc_92[%arg399, %arg400, %arg401, %arg402] : memref<1x12x1x128xf32>
          }
        }
      }
    }
    %651 = bufferization.to_tensor %alloc_92 restrict : memref<1x12x1x128xf32> to tensor<1x12x1x128xf32>
    %652 = tosa.reshape %651, %12 : (tensor<1x12x1x128xf32>, !tosa.shape<2>) -> tensor<1x1536xf32>
    %653 = linalg.matmul {cast = #linalg.type_fn<cast_signed>} ins(%652, %arg112 : tensor<1x1536xf32>, tensor<1536x1536xf32>) outs(%cst_9 : tensor<1x1536xf32>) -> tensor<1x1536xf32>
    %654 = tosa.reshape %653, %13 : (tensor<1x1536xf32>, !tosa.shape<3>) -> tensor<1x1x1536xf32>
    %655 = tosa.add %597, %654 : (tensor<1x1x1536xf32>, tensor<1x1x1536xf32>) -> tensor<1x1x1536xf32>
    %656 = tensor.empty() : tensor<1x1x1536xf32>
    %657 = linalg.generic {indexing_maps = [#map, #map], iterator_types = ["parallel", "parallel", "parallel"]} ins(%655 : tensor<1x1x1536xf32>) outs(%656 : tensor<1x1x1536xf32>) {
    ^bb0(%in: f32, %out: f32):
      %2290 = math.fpowi %in, %c2_i32 : f32, i32
      linalg.yield %2290 : f32
    } -> tensor<1x1x1536xf32>
    %658 = tosa.reduce_sum %657 {axis = 2 : i32} : (tensor<1x1x1536xf32>) -> tensor<1x1x1xf32>
    %659 = tosa.mul %658, %0, %15 : (tensor<1x1x1xf32>, tensor<1x1x1xf32>, tensor<1xi8>) -> tensor<1x1x1xf32>
    %660 = tosa.add %659, %14 : (tensor<1x1x1xf32>, tensor<1x1x1xf32>) -> tensor<1x1x1xf32>
    %661 = tosa.rsqrt %660 : (tensor<1x1x1xf32>) -> tensor<1x1x1xf32>
    %662 = tosa.mul %655, %661, %15 : (tensor<1x1x1536xf32>, tensor<1x1x1xf32>, tensor<1xi8>) -> tensor<1x1x1536xf32>
    %663 = tosa.reshape %arg113, %13 : (tensor<1536xf32>, !tosa.shape<3>) -> tensor<1x1x1536xf32>
    %664 = tosa.mul %663, %662, %15 : (tensor<1x1x1536xf32>, tensor<1x1x1536xf32>, tensor<1xi8>) -> tensor<1x1x1536xf32>
    %665 = tosa.reshape %664, %12 : (tensor<1x1x1536xf32>, !tosa.shape<2>) -> tensor<1x1536xf32>
    %666 = linalg.matmul {cast = #linalg.type_fn<cast_signed>} ins(%665, %arg114 : tensor<1x1536xf32>, tensor<1536x8960xf32>) outs(%cst_3 : tensor<1x8960xf32>) -> tensor<1x8960xf32>
    %667 = tosa.reshape %666, %4 : (tensor<1x8960xf32>, !tosa.shape<3>) -> tensor<1x1x8960xf32>
    %668 = tosa.sigmoid %667 : (tensor<1x1x8960xf32>) -> tensor<1x1x8960xf32>
    %669 = tosa.mul %667, %668, %15 : (tensor<1x1x8960xf32>, tensor<1x1x8960xf32>, tensor<1xi8>) -> tensor<1x1x8960xf32>
    %670 = tosa.reshape %664, %12 : (tensor<1x1x1536xf32>, !tosa.shape<2>) -> tensor<1x1536xf32>
    %671 = linalg.matmul {cast = #linalg.type_fn<cast_signed>} ins(%670, %arg115 : tensor<1x1536xf32>, tensor<1536x8960xf32>) outs(%cst_3 : tensor<1x8960xf32>) -> tensor<1x8960xf32>
    %672 = tosa.reshape %671, %4 : (tensor<1x8960xf32>, !tosa.shape<3>) -> tensor<1x1x8960xf32>
    %673 = tosa.mul %669, %672, %15 : (tensor<1x1x8960xf32>, tensor<1x1x8960xf32>, tensor<1xi8>) -> tensor<1x1x8960xf32>
    %674 = tosa.reshape %673, %3 : (tensor<1x1x8960xf32>, !tosa.shape<2>) -> tensor<1x8960xf32>
    %675 = linalg.matmul {cast = #linalg.type_fn<cast_signed>} ins(%674, %arg116 : tensor<1x8960xf32>, tensor<8960x1536xf32>) outs(%cst_9 : tensor<1x1536xf32>) -> tensor<1x1536xf32>
    %676 = tosa.reshape %675, %13 : (tensor<1x1536xf32>, !tosa.shape<3>) -> tensor<1x1x1536xf32>
    %677 = tosa.add %655, %676 : (tensor<1x1x1536xf32>, tensor<1x1x1536xf32>) -> tensor<1x1x1536xf32>
    %678 = tensor.empty() : tensor<1x1x1536xf32>
    %679 = linalg.generic {indexing_maps = [#map, #map], iterator_types = ["parallel", "parallel", "parallel"]} ins(%677 : tensor<1x1x1536xf32>) outs(%678 : tensor<1x1x1536xf32>) {
    ^bb0(%in: f32, %out: f32):
      %2290 = math.fpowi %in, %c2_i32 : f32, i32
      linalg.yield %2290 : f32
    } -> tensor<1x1x1536xf32>
    %680 = tosa.reduce_sum %679 {axis = 2 : i32} : (tensor<1x1x1536xf32>) -> tensor<1x1x1xf32>
    %681 = tosa.mul %680, %0, %15 : (tensor<1x1x1xf32>, tensor<1x1x1xf32>, tensor<1xi8>) -> tensor<1x1x1xf32>
    %682 = tosa.add %681, %14 : (tensor<1x1x1xf32>, tensor<1x1x1xf32>) -> tensor<1x1x1xf32>
    %683 = tosa.rsqrt %682 : (tensor<1x1x1xf32>) -> tensor<1x1x1xf32>
    %684 = tosa.mul %677, %683, %15 : (tensor<1x1x1536xf32>, tensor<1x1x1xf32>, tensor<1xi8>) -> tensor<1x1x1536xf32>
    %685 = tosa.reshape %arg117, %13 : (tensor<1536xf32>, !tosa.shape<3>) -> tensor<1x1x1536xf32>
    %686 = tosa.mul %685, %684, %15 : (tensor<1x1x1536xf32>, tensor<1x1x1536xf32>, tensor<1xi8>) -> tensor<1x1x1536xf32>
    %687 = tosa.reshape %686, %12 : (tensor<1x1x1536xf32>, !tosa.shape<2>) -> tensor<1x1536xf32>
    %688 = linalg.matmul {cast = #linalg.type_fn<cast_signed>} ins(%687, %arg119 : tensor<1x1536xf32>, tensor<1536x1536xf32>) outs(%cst_9 : tensor<1x1536xf32>) -> tensor<1x1536xf32>
    %689 = tosa.reshape %arg118, %12 : (tensor<1536xf32>, !tosa.shape<2>) -> tensor<1x1536xf32>
    %690 = tosa.add %689, %688 : (tensor<1x1536xf32>, tensor<1x1536xf32>) -> tensor<1x1536xf32>
    %691 = tosa.reshape %690, %11 : (tensor<1x1536xf32>, !tosa.shape<4>) -> tensor<1x12x1x128xf32>
    %692 = tosa.reshape %686, %12 : (tensor<1x1x1536xf32>, !tosa.shape<2>) -> tensor<1x1536xf32>
    %693 = linalg.matmul {cast = #linalg.type_fn<cast_signed>} ins(%692, %arg121 : tensor<1x1536xf32>, tensor<1536x256xf32>) outs(%cst_8 : tensor<1x256xf32>) -> tensor<1x256xf32>
    %694 = tosa.reshape %arg120, %10 : (tensor<256xf32>, !tosa.shape<2>) -> tensor<1x256xf32>
    %695 = tosa.add %694, %693 : (tensor<1x256xf32>, tensor<1x256xf32>) -> tensor<1x256xf32>
    %696 = tosa.reshape %695, %9 : (tensor<1x256xf32>, !tosa.shape<4>) -> tensor<1x2x1x128xf32>
    %697 = tosa.reshape %686, %12 : (tensor<1x1x1536xf32>, !tosa.shape<2>) -> tensor<1x1536xf32>
    %698 = linalg.matmul {cast = #linalg.type_fn<cast_signed>} ins(%697, %arg123 : tensor<1x1536xf32>, tensor<1536x256xf32>) outs(%cst_8 : tensor<1x256xf32>) -> tensor<1x256xf32>
    %699 = tosa.reshape %arg122, %10 : (tensor<256xf32>, !tosa.shape<2>) -> tensor<1x256xf32>
    %700 = tosa.add %699, %698 : (tensor<1x256xf32>, tensor<1x256xf32>) -> tensor<1x256xf32>
    %701 = tosa.reshape %700, %9 : (tensor<1x256xf32>, !tosa.shape<4>) -> tensor<1x2x1x128xf32>
    %702 = tosa.reshape %36, %8 : (tensor<1x1x128xf32>, !tosa.shape<4>) -> tensor<1x1x1x128xf32>
    %703 = tosa.reshape %37, %8 : (tensor<1x1x128xf32>, !tosa.shape<4>) -> tensor<1x1x1x128xf32>
    %704 = tosa.mul %691, %702, %15 : (tensor<1x12x1x128xf32>, tensor<1x1x1x128xf32>, tensor<1xi8>) -> tensor<1x12x1x128xf32>
    %extracted_slice_95 = tensor.extract_slice %691[0, 0, 0, 0] [1, 12, 1, 64] [1, 1, 1, 1] : tensor<1x12x1x128xf32> to tensor<1x12x1x64xf32>
    %extracted_slice_96 = tensor.extract_slice %691[0, 0, 0, 64] [1, 12, 1, 64] [1, 1, 1, 1] : tensor<1x12x1x128xf32> to tensor<1x12x1x64xf32>
    %705 = tosa.negate %extracted_slice_96, %19, %19 : (tensor<1x12x1x64xf32>, tensor<1xf32>, tensor<1xf32>) -> tensor<1x12x1x64xf32>
    %706 = tensor.empty() : tensor<1x12x1x128xf32>
    %inserted_slice_97 = tensor.insert_slice %705 into %706[0, 0, 0, 0] [1, 12, 1, 64] [1, 1, 1, 1] : tensor<1x12x1x64xf32> into tensor<1x12x1x128xf32>
    %inserted_slice_98 = tensor.insert_slice %extracted_slice_95 into %inserted_slice_97[0, 0, 0, 64] [1, 12, 1, 64] [1, 1, 1, 1] : tensor<1x12x1x64xf32> into tensor<1x12x1x128xf32>
    %707 = tosa.mul %inserted_slice_98, %703, %15 : (tensor<1x12x1x128xf32>, tensor<1x1x1x128xf32>, tensor<1xi8>) -> tensor<1x12x1x128xf32>
    %708 = tosa.add %704, %707 : (tensor<1x12x1x128xf32>, tensor<1x12x1x128xf32>) -> tensor<1x12x1x128xf32>
    %709 = tosa.mul %696, %702, %15 : (tensor<1x2x1x128xf32>, tensor<1x1x1x128xf32>, tensor<1xi8>) -> tensor<1x2x1x128xf32>
    %extracted_slice_99 = tensor.extract_slice %696[0, 0, 0, 0] [1, 2, 1, 64] [1, 1, 1, 1] : tensor<1x2x1x128xf32> to tensor<1x2x1x64xf32>
    %extracted_slice_100 = tensor.extract_slice %696[0, 0, 0, 64] [1, 2, 1, 64] [1, 1, 1, 1] : tensor<1x2x1x128xf32> to tensor<1x2x1x64xf32>
    %710 = tosa.negate %extracted_slice_100, %19, %19 : (tensor<1x2x1x64xf32>, tensor<1xf32>, tensor<1xf32>) -> tensor<1x2x1x64xf32>
    %711 = tensor.empty() : tensor<1x2x1x128xf32>
    %inserted_slice_101 = tensor.insert_slice %710 into %711[0, 0, 0, 0] [1, 2, 1, 64] [1, 1, 1, 1] : tensor<1x2x1x64xf32> into tensor<1x2x1x128xf32>
    %inserted_slice_102 = tensor.insert_slice %extracted_slice_99 into %inserted_slice_101[0, 0, 0, 64] [1, 2, 1, 64] [1, 1, 1, 1] : tensor<1x2x1x64xf32> into tensor<1x2x1x128xf32>
    %712 = tosa.mul %inserted_slice_102, %703, %15 : (tensor<1x2x1x128xf32>, tensor<1x1x1x128xf32>, tensor<1xi8>) -> tensor<1x2x1x128xf32>
    %713 = tosa.add %709, %712 : (tensor<1x2x1x128xf32>, tensor<1x2x1x128xf32>) -> tensor<1x2x1x128xf32>
    %714 = bufferization.to_buffer %arg124 : tensor<1x2x1024x128xf32> to memref<1x2x1024x128xf32>
    %715 = tosa.reshape %arg3, %7 : (tensor<1xi64>, !tosa.shape<4>) -> tensor<1x1x1x1xi64>
    %716 = tosa.add %715, %6 : (tensor<1x1x1x1xi64>, tensor<1x2x1x128xi64>) -> tensor<1x2x1x128xi64>
    %717 = bufferization.to_buffer %716 : tensor<1x2x1x128xi64> to memref<1x2x1x128xi64>
    %718 = bufferization.to_buffer %713 : tensor<1x2x1x128xf32> to memref<1x2x1x128xf32>
    scf.for %arg399 = %c0 to %c1 step %c1 {
      scf.for %arg400 = %c0 to %c2 step %c1 {
        scf.for %arg401 = %c0 to %c1 step %c1 {
          scf.for %arg402 = %c0 to %c128 step %c1 {
            %2290 = memref.load %718[%arg399, %arg400, %arg401, %arg402] : memref<1x2x1x128xf32>
            %2291 = memref.load %717[%arg399, %arg400, %arg401, %arg402] : memref<1x2x1x128xi64>
            %2292 = arith.index_cast %2291 : i64 to index
            memref.store %2290, %714[%arg399, %arg400, %2292, %arg402] : memref<1x2x1024x128xf32>
          }
        }
      }
    }
    %719 = bufferization.to_tensor %714 restrict : memref<1x2x1024x128xf32> to tensor<1x2x1024x128xf32>
    %720 = bufferization.to_buffer %arg125 : tensor<1x2x1024x128xf32> to memref<1x2x1024x128xf32>
    %721 = tosa.reshape %arg3, %7 : (tensor<1xi64>, !tosa.shape<4>) -> tensor<1x1x1x1xi64>
    %722 = tosa.add %721, %6 : (tensor<1x1x1x1xi64>, tensor<1x2x1x128xi64>) -> tensor<1x2x1x128xi64>
    %723 = bufferization.to_buffer %722 : tensor<1x2x1x128xi64> to memref<1x2x1x128xi64>
    %724 = bufferization.to_buffer %701 : tensor<1x2x1x128xf32> to memref<1x2x1x128xf32>
    scf.for %arg399 = %c0 to %c1 step %c1 {
      scf.for %arg400 = %c0 to %c2 step %c1 {
        scf.for %arg401 = %c0 to %c1 step %c1 {
          scf.for %arg402 = %c0 to %c128 step %c1 {
            %2290 = memref.load %724[%arg399, %arg400, %arg401, %arg402] : memref<1x2x1x128xf32>
            %2291 = memref.load %723[%arg399, %arg400, %arg401, %arg402] : memref<1x2x1x128xi64>
            %2292 = arith.index_cast %2291 : i64 to index
            memref.store %2290, %720[%arg399, %arg400, %2292, %arg402] : memref<1x2x1024x128xf32>
          }
        }
      }
    }
    %725 = bufferization.to_tensor %720 restrict : memref<1x2x1024x128xf32> to tensor<1x2x1024x128xf32>
    %726 = tosa.reshape %28, %5 : (tensor<1x1024xi1>, !tosa.shape<4>) -> tensor<1x1x1x1024xi1>
    %727 = tensor.empty() : tensor<1x1x1x1024xf32>
    %728 = linalg.generic {indexing_maps = [#map1, #map1, #map1, #map1], iterator_types = ["parallel", "parallel", "parallel", "parallel"]} ins(%726, %cst_1, %cst_0 : tensor<1x1x1x1024xi1>, tensor<1x1x1x1024xf32>, tensor<1x1x1x1024xf32>) outs(%727 : tensor<1x1x1x1024xf32>) {
    ^bb0(%in: i1, %in_315: f32, %in_316: f32, %out: f32):
      %2290 = arith.select %in, %in_315, %in_316 : f32
      linalg.yield %2290 : f32
    } -> tensor<1x1x1x1024xf32>
    %729 = bufferization.to_buffer %708 : tensor<1x12x1x128xf32> to memref<1x12x1x128xf32>
    %730 = bufferization.to_buffer %728 : tensor<1x1x1x1024xf32> to memref<1x1x1x1024xf32>
    %alloc_103 = memref.alloc() : memref<1x12x1x128xf32>
    %alloc_104 = memref.alloc() : memref<1x12x1xf32>
    %alloc_105 = memref.alloc() : memref<128xf32>
    affine.for %arg399 = 0 to 1 {
      affine.for %arg400 = 0 to 12 {
        %2290 = arith.divsi %arg400, %c6 : index
        affine.for %arg401 = 0 to 1 {
          affine.for %arg402 = 0 to 128 {
            memref.store %cst_7, %alloc_105[%arg402] : memref<128xf32>
          }
          %2291:2 = affine.for %arg402 = 0 to 1024 iter_args(%arg403 = %cst_4, %arg404 = %cst_7) -> (f32, f32) {
            %2292 = affine.for %arg405 = 0 to 128 step 16 iter_args(%arg406 = %cst) -> (vector<16xf32>) {
              %2307 = vector.load %729[%arg399, %arg400, %arg401, %arg405] : memref<1x12x1x128xf32>, vector<16xf32>
              %2308 = vector.load %714[%arg399, %2290, %arg402, %arg405] : memref<1x2x1024x128xf32>, vector<16xf32>
              %2309 = vector.fma %2307, %2308, %arg406 : vector<16xf32>
              affine.yield %2309 : vector<16xf32>
            }
            %2293 = vector.reduction <add>, %2292 : vector<16xf32> into f32
            %2294 = arith.mulf %2293, %cst_5 : f32
            %2295 = memref.load %730[%arg399, %c0, %arg401, %arg402] : memref<1x1x1x1024xf32>
            %2296 = arith.addf %2294, %2295 : f32
            %2297 = arith.cmpf ogt, %2296, %arg403 : f32
            %2298 = arith.select %2297, %2296, %arg403 : f32
            %2299 = arith.subf %arg403, %2296 : f32
            %2300 = math.exp %2299 : f32
            %2301 = arith.mulf %2300, %arg404 : f32
            %2302 = arith.addf %2301, %cst_6 : f32
            %2303 = arith.subf %2296, %arg403 : f32
            %2304 = math.exp %2303 : f32
            %2305 = arith.addf %arg404, %2304 : f32
            %2306 = arith.select %2297, %2302, %2305 : f32
            affine.for %arg405 = 0 to 128 {
              %2307 = memref.load %720[%arg399, %2290, %arg402, %arg405] : memref<1x2x1024x128xf32>
              %2308 = memref.load %alloc_105[%arg405] : memref<128xf32>
              %2309 = arith.mulf %2308, %2300 : f32
              %2310 = arith.addf %2309, %2307 : f32
              %2311 = arith.mulf %2304, %2307 : f32
              %2312 = arith.addf %2311, %2308 : f32
              %2313 = arith.select %2297, %2310, %2312 : f32
              memref.store %2313, %alloc_105[%arg405] : memref<128xf32>
            }
            affine.yield %2298, %2306 : f32, f32
          }
          memref.store %2291#1, %alloc_104[%arg399, %arg400, %arg401] : memref<1x12x1xf32>
          affine.for %arg402 = 0 to 128 {
            %2292 = memref.load %alloc_105[%arg402] : memref<128xf32>
            %2293 = arith.divf %2292, %2291#1 : f32
            memref.store %2293, %alloc_103[%arg399, %arg400, %arg401, %arg402] : memref<1x12x1x128xf32>
          }
        }
      }
    }
    %731 = bufferization.to_tensor %alloc_103 restrict : memref<1x12x1x128xf32> to tensor<1x12x1x128xf32>
    %732 = tosa.reshape %731, %12 : (tensor<1x12x1x128xf32>, !tosa.shape<2>) -> tensor<1x1536xf32>
    %733 = linalg.matmul {cast = #linalg.type_fn<cast_signed>} ins(%732, %arg126 : tensor<1x1536xf32>, tensor<1536x1536xf32>) outs(%cst_9 : tensor<1x1536xf32>) -> tensor<1x1536xf32>
    %734 = tosa.reshape %733, %13 : (tensor<1x1536xf32>, !tosa.shape<3>) -> tensor<1x1x1536xf32>
    %735 = tosa.add %677, %734 : (tensor<1x1x1536xf32>, tensor<1x1x1536xf32>) -> tensor<1x1x1536xf32>
    %736 = tensor.empty() : tensor<1x1x1536xf32>
    %737 = linalg.generic {indexing_maps = [#map, #map], iterator_types = ["parallel", "parallel", "parallel"]} ins(%735 : tensor<1x1x1536xf32>) outs(%736 : tensor<1x1x1536xf32>) {
    ^bb0(%in: f32, %out: f32):
      %2290 = math.fpowi %in, %c2_i32 : f32, i32
      linalg.yield %2290 : f32
    } -> tensor<1x1x1536xf32>
    %738 = tosa.reduce_sum %737 {axis = 2 : i32} : (tensor<1x1x1536xf32>) -> tensor<1x1x1xf32>
    %739 = tosa.mul %738, %0, %15 : (tensor<1x1x1xf32>, tensor<1x1x1xf32>, tensor<1xi8>) -> tensor<1x1x1xf32>
    %740 = tosa.add %739, %14 : (tensor<1x1x1xf32>, tensor<1x1x1xf32>) -> tensor<1x1x1xf32>
    %741 = tosa.rsqrt %740 : (tensor<1x1x1xf32>) -> tensor<1x1x1xf32>
    %742 = tosa.mul %735, %741, %15 : (tensor<1x1x1536xf32>, tensor<1x1x1xf32>, tensor<1xi8>) -> tensor<1x1x1536xf32>
    %743 = tosa.reshape %arg127, %13 : (tensor<1536xf32>, !tosa.shape<3>) -> tensor<1x1x1536xf32>
    %744 = tosa.mul %743, %742, %15 : (tensor<1x1x1536xf32>, tensor<1x1x1536xf32>, tensor<1xi8>) -> tensor<1x1x1536xf32>
    %745 = tosa.reshape %744, %12 : (tensor<1x1x1536xf32>, !tosa.shape<2>) -> tensor<1x1536xf32>
    %746 = linalg.matmul {cast = #linalg.type_fn<cast_signed>} ins(%745, %arg128 : tensor<1x1536xf32>, tensor<1536x8960xf32>) outs(%cst_3 : tensor<1x8960xf32>) -> tensor<1x8960xf32>
    %747 = tosa.reshape %746, %4 : (tensor<1x8960xf32>, !tosa.shape<3>) -> tensor<1x1x8960xf32>
    %748 = tosa.sigmoid %747 : (tensor<1x1x8960xf32>) -> tensor<1x1x8960xf32>
    %749 = tosa.mul %747, %748, %15 : (tensor<1x1x8960xf32>, tensor<1x1x8960xf32>, tensor<1xi8>) -> tensor<1x1x8960xf32>
    %750 = tosa.reshape %744, %12 : (tensor<1x1x1536xf32>, !tosa.shape<2>) -> tensor<1x1536xf32>
    %751 = linalg.matmul {cast = #linalg.type_fn<cast_signed>} ins(%750, %arg129 : tensor<1x1536xf32>, tensor<1536x8960xf32>) outs(%cst_3 : tensor<1x8960xf32>) -> tensor<1x8960xf32>
    %752 = tosa.reshape %751, %4 : (tensor<1x8960xf32>, !tosa.shape<3>) -> tensor<1x1x8960xf32>
    %753 = tosa.mul %749, %752, %15 : (tensor<1x1x8960xf32>, tensor<1x1x8960xf32>, tensor<1xi8>) -> tensor<1x1x8960xf32>
    %754 = tosa.reshape %753, %3 : (tensor<1x1x8960xf32>, !tosa.shape<2>) -> tensor<1x8960xf32>
    %755 = linalg.matmul {cast = #linalg.type_fn<cast_signed>} ins(%754, %arg130 : tensor<1x8960xf32>, tensor<8960x1536xf32>) outs(%cst_9 : tensor<1x1536xf32>) -> tensor<1x1536xf32>
    %756 = tosa.reshape %755, %13 : (tensor<1x1536xf32>, !tosa.shape<3>) -> tensor<1x1x1536xf32>
    %757 = tosa.add %735, %756 : (tensor<1x1x1536xf32>, tensor<1x1x1536xf32>) -> tensor<1x1x1536xf32>
    %758 = tensor.empty() : tensor<1x1x1536xf32>
    %759 = linalg.generic {indexing_maps = [#map, #map], iterator_types = ["parallel", "parallel", "parallel"]} ins(%757 : tensor<1x1x1536xf32>) outs(%758 : tensor<1x1x1536xf32>) {
    ^bb0(%in: f32, %out: f32):
      %2290 = math.fpowi %in, %c2_i32 : f32, i32
      linalg.yield %2290 : f32
    } -> tensor<1x1x1536xf32>
    %760 = tosa.reduce_sum %759 {axis = 2 : i32} : (tensor<1x1x1536xf32>) -> tensor<1x1x1xf32>
    %761 = tosa.mul %760, %0, %15 : (tensor<1x1x1xf32>, tensor<1x1x1xf32>, tensor<1xi8>) -> tensor<1x1x1xf32>
    %762 = tosa.add %761, %14 : (tensor<1x1x1xf32>, tensor<1x1x1xf32>) -> tensor<1x1x1xf32>
    %763 = tosa.rsqrt %762 : (tensor<1x1x1xf32>) -> tensor<1x1x1xf32>
    %764 = tosa.mul %757, %763, %15 : (tensor<1x1x1536xf32>, tensor<1x1x1xf32>, tensor<1xi8>) -> tensor<1x1x1536xf32>
    %765 = tosa.reshape %arg131, %13 : (tensor<1536xf32>, !tosa.shape<3>) -> tensor<1x1x1536xf32>
    %766 = tosa.mul %765, %764, %15 : (tensor<1x1x1536xf32>, tensor<1x1x1536xf32>, tensor<1xi8>) -> tensor<1x1x1536xf32>
    %767 = tosa.reshape %766, %12 : (tensor<1x1x1536xf32>, !tosa.shape<2>) -> tensor<1x1536xf32>
    %768 = linalg.matmul {cast = #linalg.type_fn<cast_signed>} ins(%767, %arg133 : tensor<1x1536xf32>, tensor<1536x1536xf32>) outs(%cst_9 : tensor<1x1536xf32>) -> tensor<1x1536xf32>
    %769 = tosa.reshape %arg132, %12 : (tensor<1536xf32>, !tosa.shape<2>) -> tensor<1x1536xf32>
    %770 = tosa.add %769, %768 : (tensor<1x1536xf32>, tensor<1x1536xf32>) -> tensor<1x1536xf32>
    %771 = tosa.reshape %770, %11 : (tensor<1x1536xf32>, !tosa.shape<4>) -> tensor<1x12x1x128xf32>
    %772 = tosa.reshape %766, %12 : (tensor<1x1x1536xf32>, !tosa.shape<2>) -> tensor<1x1536xf32>
    %773 = linalg.matmul {cast = #linalg.type_fn<cast_signed>} ins(%772, %arg135 : tensor<1x1536xf32>, tensor<1536x256xf32>) outs(%cst_8 : tensor<1x256xf32>) -> tensor<1x256xf32>
    %774 = tosa.reshape %arg134, %10 : (tensor<256xf32>, !tosa.shape<2>) -> tensor<1x256xf32>
    %775 = tosa.add %774, %773 : (tensor<1x256xf32>, tensor<1x256xf32>) -> tensor<1x256xf32>
    %776 = tosa.reshape %775, %9 : (tensor<1x256xf32>, !tosa.shape<4>) -> tensor<1x2x1x128xf32>
    %777 = tosa.reshape %766, %12 : (tensor<1x1x1536xf32>, !tosa.shape<2>) -> tensor<1x1536xf32>
    %778 = linalg.matmul {cast = #linalg.type_fn<cast_signed>} ins(%777, %arg137 : tensor<1x1536xf32>, tensor<1536x256xf32>) outs(%cst_8 : tensor<1x256xf32>) -> tensor<1x256xf32>
…
    %2014 = tosa.reshape %2013, %13 : (tensor<1x1536xf32>, !tosa.shape<3>) -> tensor<1x1x1536xf32>
    %2015 = tosa.add %1957, %2014 : (tensor<1x1x1536xf32>, tensor<1x1x1536xf32>) -> tensor<1x1x1536xf32>
    %2016 = tensor.empty() : tensor<1x1x1536xf32>
    %2017 = linalg.generic {indexing_maps = [#map, #map], iterator_types = ["parallel", "parallel", "parallel"]} ins(%2015 : tensor<1x1x1536xf32>) outs(%2016 : tensor<1x1x1536xf32>) {
    ^bb0(%in: f32, %out: f32):
      %2290 = math.fpowi %in, %c2_i32 : f32, i32
      linalg.yield %2290 : f32
    } -> tensor<1x1x1536xf32>
    %2018 = tosa.reduce_sum %2017 {axis = 2 : i32} : (tensor<1x1x1536xf32>) -> tensor<1x1x1xf32>
    %2019 = tosa.mul %2018, %0, %15 : (tensor<1x1x1xf32>, tensor<1x1x1xf32>, tensor<1xi8>) -> tensor<1x1x1xf32>
    %2020 = tosa.add %2019, %14 : (tensor<1x1x1xf32>, tensor<1x1x1xf32>) -> tensor<1x1x1xf32>
    %2021 = tosa.rsqrt %2020 : (tensor<1x1x1xf32>) -> tensor<1x1x1xf32>
    %2022 = tosa.mul %2015, %2021, %15 : (tensor<1x1x1536xf32>, tensor<1x1x1xf32>, tensor<1xi8>) -> tensor<1x1x1536xf32>
    %2023 = tosa.reshape %arg351, %13 : (tensor<1536xf32>, !tosa.shape<3>) -> tensor<1x1x1536xf32>
    %2024 = tosa.mul %2023, %2022, %15 : (tensor<1x1x1536xf32>, tensor<1x1x1536xf32>, tensor<1xi8>) -> tensor<1x1x1536xf32>
    %2025 = tosa.reshape %2024, %12 : (tensor<1x1x1536xf32>, !tosa.shape<2>) -> tensor<1x1536xf32>
    %2026 = linalg.matmul {cast = #linalg.type_fn<cast_signed>} ins(%2025, %arg352 : tensor<1x1536xf32>, tensor<1536x8960xf32>) outs(%cst_3 : tensor<1x8960xf32>) -> tensor<1x8960xf32>
    %2027 = tosa.reshape %2026, %4 : (tensor<1x8960xf32>, !tosa.shape<3>) -> tensor<1x1x8960xf32>
    %2028 = tosa.sigmoid %2027 : (tensor<1x1x8960xf32>) -> tensor<1x1x8960xf32>
    %2029 = tosa.mul %2027, %2028, %15 : (tensor<1x1x8960xf32>, tensor<1x1x8960xf32>, tensor<1xi8>) -> tensor<1x1x8960xf32>
    %2030 = tosa.reshape %2024, %12 : (tensor<1x1x1536xf32>, !tosa.shape<2>) -> tensor<1x1536xf32>
    %2031 = linalg.matmul {cast = #linalg.type_fn<cast_signed>} ins(%2030, %arg353 : tensor<1x1536xf32>, tensor<1536x8960xf32>) outs(%cst_3 : tensor<1x8960xf32>) -> tensor<1x8960xf32>
    %2032 = tosa.reshape %2031, %4 : (tensor<1x8960xf32>, !tosa.shape<3>) -> tensor<1x1x8960xf32>
    %2033 = tosa.mul %2029, %2032, %15 : (tensor<1x1x8960xf32>, tensor<1x1x8960xf32>, tensor<1xi8>) -> tensor<1x1x8960xf32>
    %2034 = tosa.reshape %2033, %3 : (tensor<1x1x8960xf32>, !tosa.shape<2>) -> tensor<1x8960xf32>
    %2035 = linalg.matmul {cast = #linalg.type_fn<cast_signed>} ins(%2034, %arg354 : tensor<1x8960xf32>, tensor<8960x1536xf32>) outs(%cst_9 : tensor<1x1536xf32>) -> tensor<1x1536xf32>
    %2036 = tosa.reshape %2035, %13 : (tensor<1x1536xf32>, !tosa.shape<3>) -> tensor<1x1x1536xf32>
    %2037 = tosa.add %2015, %2036 : (tensor<1x1x1536xf32>, tensor<1x1x1536xf32>) -> tensor<1x1x1536xf32>
    %2038 = tensor.empty() : tensor<1x1x1536xf32>
    %2039 = linalg.generic {indexing_maps = [#map, #map], iterator_types = ["parallel", "parallel", "parallel"]} ins(%2037 : tensor<1x1x1536xf32>) outs(%2038 : tensor<1x1x1536xf32>) {
    ^bb0(%in: f32, %out: f32):
      %2290 = math.fpowi %in, %c2_i32 : f32, i32
      linalg.yield %2290 : f32
    } -> tensor<1x1x1536xf32>
    %2040 = tosa.reduce_sum %2039 {axis = 2 : i32} : (tensor<1x1x1536xf32>) -> tensor<1x1x1xf32>
    %2041 = tosa.mul %2040, %0, %15 : (tensor<1x1x1xf32>, tensor<1x1x1xf32>, tensor<1xi8>) -> tensor<1x1x1xf32>
    %2042 = tosa.add %2041, %14 : (tensor<1x1x1xf32>, tensor<1x1x1xf32>) -> tensor<1x1x1xf32>
    %2043 = tosa.rsqrt %2042 : (tensor<1x1x1xf32>) -> tensor<1x1x1xf32>
    %2044 = tosa.mul %2037, %2043, %15 : (tensor<1x1x1536xf32>, tensor<1x1x1xf32>, tensor<1xi8>) -> tensor<1x1x1536xf32>
    %2045 = tosa.reshape %arg355, %13 : (tensor<1536xf32>, !tosa.shape<3>) -> tensor<1x1x1536xf32>
    %2046 = tosa.mul %2045, %2044, %15 : (tensor<1x1x1536xf32>, tensor<1x1x1536xf32>, tensor<1xi8>) -> tensor<1x1x1536xf32>
    %2047 = tosa.reshape %2046, %12 : (tensor<1x1x1536xf32>, !tosa.shape<2>) -> tensor<1x1536xf32>
    %2048 = linalg.matmul {cast = #linalg.type_fn<cast_signed>} ins(%2047, %arg357 : tensor<1x1536xf32>, tensor<1536x1536xf32>) outs(%cst_9 : tensor<1x1536xf32>) -> tensor<1x1536xf32>
    %2049 = tosa.reshape %arg356, %12 : (tensor<1536xf32>, !tosa.shape<2>) -> tensor<1x1536xf32>
    %2050 = tosa.add %2049, %2048 : (tensor<1x1536xf32>, tensor<1x1536xf32>) -> tensor<1x1536xf32>
    %2051 = tosa.reshape %2050, %11 : (tensor<1x1536xf32>, !tosa.shape<4>) -> tensor<1x12x1x128xf32>
    %2052 = tosa.reshape %2046, %12 : (tensor<1x1x1536xf32>, !tosa.shape<2>) -> tensor<1x1536xf32>
    %2053 = linalg.matmul {cast = #linalg.type_fn<cast_signed>} ins(%2052, %arg359 : tensor<1x1536xf32>, tensor<1536x256xf32>) outs(%cst_8 : tensor<1x256xf32>) -> tensor<1x256xf32>
    %2054 = tosa.reshape %arg358, %10 : (tensor<256xf32>, !tosa.shape<2>) -> tensor<1x256xf32>
    %2055 = tosa.add %2054, %2053 : (tensor<1x256xf32>, tensor<1x256xf32>) -> tensor<1x256xf32>
    %2056 = tosa.reshape %2055, %9 : (tensor<1x256xf32>, !tosa.shape<4>) -> tensor<1x2x1x128xf32>
    %2057 = tosa.reshape %2046, %12 : (tensor<1x1x1536xf32>, !tosa.shape<2>) -> tensor<1x1536xf32>
    %2058 = linalg.matmul {cast = #linalg.type_fn<cast_signed>} ins(%2057, %arg361 : tensor<1x1536xf32>, tensor<1536x256xf32>) outs(%cst_8 : tensor<1x256xf32>) -> tensor<1x256xf32>
    %2059 = tosa.reshape %arg360, %10 : (tensor<256xf32>, !tosa.shape<2>) -> tensor<1x256xf32>
    %2060 = tosa.add %2059, %2058 : (tensor<1x256xf32>, tensor<1x256xf32>) -> tensor<1x256xf32>
    %2061 = tosa.reshape %2060, %9 : (tensor<1x256xf32>, !tosa.shape<4>) -> tensor<1x2x1x128xf32>
    %2062 = tosa.reshape %36, %8 : (tensor<1x1x128xf32>, !tosa.shape<4>) -> tensor<1x1x1x128xf32>
    %2063 = tosa.reshape %37, %8 : (tensor<1x1x128xf32>, !tosa.shape<4>) -> tensor<1x1x1x128xf32>
    %2064 = tosa.mul %2051, %2062, %15 : (tensor<1x12x1x128xf32>, tensor<1x1x1x128xf32>, tensor<1xi8>) -> tensor<1x12x1x128xf32>
    %extracted_slice_282 = tensor.extract_slice %2051[0, 0, 0, 0] [1, 12, 1, 64] [1, 1, 1, 1] : tensor<1x12x1x128xf32> to tensor<1x12x1x64xf32>
    %extracted_slice_283 = tensor.extract_slice %2051[0, 0, 0, 64] [1, 12, 1, 64] [1, 1, 1, 1] : tensor<1x12x1x128xf32> to tensor<1x12x1x64xf32>
    %2065 = tosa.negate %extracted_slice_283, %19, %19 : (tensor<1x12x1x64xf32>, tensor<1xf32>, tensor<1xf32>) -> tensor<1x12x1x64xf32>
    %2066 = tensor.empty() : tensor<1x12x1x128xf32>
    %inserted_slice_284 = tensor.insert_slice %2065 into %2066[0, 0, 0, 0] [1, 12, 1, 64] [1, 1, 1, 1] : tensor<1x12x1x64xf32> into tensor<1x12x1x128xf32>
    %inserted_slice_285 = tensor.insert_slice %extracted_slice_282 into %inserted_slice_284[0, 0, 0, 64] [1, 12, 1, 64] [1, 1, 1, 1] : tensor<1x12x1x64xf32> into tensor<1x12x1x128xf32>
    %2067 = tosa.mul %inserted_slice_285, %2063, %15 : (tensor<1x12x1x128xf32>, tensor<1x1x1x128xf32>, tensor<1xi8>) -> tensor<1x12x1x128xf32>
    %2068 = tosa.add %2064, %2067 : (tensor<1x12x1x128xf32>, tensor<1x12x1x128xf32>) -> tensor<1x12x1x128xf32>
    %2069 = tosa.mul %2056, %2062, %15 : (tensor<1x2x1x128xf32>, tensor<1x1x1x128xf32>, tensor<1xi8>) -> tensor<1x2x1x128xf32>
    %extracted_slice_286 = tensor.extract_slice %2056[0, 0, 0, 0] [1, 2, 1, 64] [1, 1, 1, 1] : tensor<1x2x1x128xf32> to tensor<1x2x1x64xf32>
    %extracted_slice_287 = tensor.extract_slice %2056[0, 0, 0, 64] [1, 2, 1, 64] [1, 1, 1, 1] : tensor<1x2x1x128xf32> to tensor<1x2x1x64xf32>
    %2070 = tosa.negate %extracted_slice_287, %19, %19 : (tensor<1x2x1x64xf32>, tensor<1xf32>, tensor<1xf32>) -> tensor<1x2x1x64xf32>
    %2071 = tensor.empty() : tensor<1x2x1x128xf32>
    %inserted_slice_288 = tensor.insert_slice %2070 into %2071[0, 0, 0, 0] [1, 2, 1, 64] [1, 1, 1, 1] : tensor<1x2x1x64xf32> into tensor<1x2x1x128xf32>
    %inserted_slice_289 = tensor.insert_slice %extracted_slice_286 into %inserted_slice_288[0, 0, 0, 64] [1, 2, 1, 64] [1, 1, 1, 1] : tensor<1x2x1x64xf32> into tensor<1x2x1x128xf32>
    %2072 = tosa.mul %inserted_slice_289, %2063, %15 : (tensor<1x2x1x128xf32>, tensor<1x1x1x128xf32>, tensor<1xi8>) -> tensor<1x2x1x128xf32>
    %2073 = tosa.add %2069, %2072 : (tensor<1x2x1x128xf32>, tensor<1x2x1x128xf32>) -> tensor<1x2x1x128xf32>
    %2074 = bufferization.to_buffer %arg362 : tensor<1x2x1024x128xf32> to memref<1x2x1024x128xf32>
    %2075 = tosa.reshape %arg3, %7 : (tensor<1xi64>, !tosa.shape<4>) -> tensor<1x1x1x1xi64>
    %2076 = tosa.add %2075, %6 : (tensor<1x1x1x1xi64>, tensor<1x2x1x128xi64>) -> tensor<1x2x1x128xi64>
    %2077 = bufferization.to_buffer %2076 : tensor<1x2x1x128xi64> to memref<1x2x1x128xi64>
    %2078 = bufferization.to_buffer %2073 : tensor<1x2x1x128xf32> to memref<1x2x1x128xf32>
    scf.for %arg399 = %c0 to %c1 step %c1 {
      scf.for %arg400 = %c0 to %c2 step %c1 {
        scf.for %arg401 = %c0 to %c1 step %c1 {
          scf.for %arg402 = %c0 to %c128 step %c1 {
            %2290 = memref.load %2078[%arg399, %arg400, %arg401, %arg402] : memref<1x2x1x128xf32>
            %2291 = memref.load %2077[%arg399, %arg400, %arg401, %arg402] : memref<1x2x1x128xi64>
            %2292 = arith.index_cast %2291 : i64 to index
            memref.store %2290, %2074[%arg399, %arg400, %2292, %arg402] : memref<1x2x1024x128xf32>
          }
        }
      }
    }
    %2079 = bufferization.to_tensor %2074 restrict : memref<1x2x1024x128xf32> to tensor<1x2x1024x128xf32>
    %2080 = bufferization.to_buffer %arg363 : tensor<1x2x1024x128xf32> to memref<1x2x1024x128xf32>
    %2081 = tosa.reshape %arg3, %7 : (tensor<1xi64>, !tosa.shape<4>) -> tensor<1x1x1x1xi64>
    %2082 = tosa.add %2081, %6 : (tensor<1x1x1x1xi64>, tensor<1x2x1x128xi64>) -> tensor<1x2x1x128xi64>
    %2083 = bufferization.to_buffer %2082 : tensor<1x2x1x128xi64> to memref<1x2x1x128xi64>
    %2084 = bufferization.to_buffer %2061 : tensor<1x2x1x128xf32> to memref<1x2x1x128xf32>
    scf.for %arg399 = %c0 to %c1 step %c1 {
      scf.for %arg400 = %c0 to %c2 step %c1 {
        scf.for %arg401 = %c0 to %c1 step %c1 {
          scf.for %arg402 = %c0 to %c128 step %c1 {
            %2290 = memref.load %2084[%arg399, %arg400, %arg401, %arg402] : memref<1x2x1x128xf32>
            %2291 = memref.load %2083[%arg399, %arg400, %arg401, %arg402] : memref<1x2x1x128xi64>
            %2292 = arith.index_cast %2291 : i64 to index
            memref.store %2290, %2080[%arg399, %arg400, %2292, %arg402] : memref<1x2x1024x128xf32>
          }
        }
      }
    }
    %2085 = bufferization.to_tensor %2080 restrict : memref<1x2x1024x128xf32> to tensor<1x2x1024x128xf32>
    %2086 = tosa.reshape %28, %5 : (tensor<1x1024xi1>, !tosa.shape<4>) -> tensor<1x1x1x1024xi1>
    %2087 = tensor.empty() : tensor<1x1x1x1024xf32>
    %2088 = linalg.generic {indexing_maps = [#map1, #map1, #map1, #map1], iterator_types = ["parallel", "parallel", "parallel", "parallel"]} ins(%2086, %cst_1, %cst_0 : tensor<1x1x1x1024xi1>, tensor<1x1x1x1024xf32>, tensor<1x1x1x1024xf32>) outs(%2087 : tensor<1x1x1x1024xf32>) {
    ^bb0(%in: i1, %in_315: f32, %in_316: f32, %out: f32):
      %2290 = arith.select %in, %in_315, %in_316 : f32
      linalg.yield %2290 : f32
    } -> tensor<1x1x1x1024xf32>
    %2089 = bufferization.to_buffer %2068 : tensor<1x12x1x128xf32> to memref<1x12x1x128xf32>
    %2090 = bufferization.to_buffer %2088 : tensor<1x1x1x1024xf32> to memref<1x1x1x1024xf32>
    %alloc_290 = memref.alloc() : memref<1x12x1x128xf32>
    %alloc_291 = memref.alloc() : memref<1x12x1xf32>
    %alloc_292 = memref.alloc() : memref<128xf32>
    affine.for %arg399 = 0 to 1 {
      affine.for %arg400 = 0 to 12 {
        %2290 = arith.divsi %arg400, %c6 : index
        affine.for %arg401 = 0 to 1 {
          affine.for %arg402 = 0 to 128 {
            memref.store %cst_7, %alloc_292[%arg402] : memref<128xf32>
          }
          %2291:2 = affine.for %arg402 = 0 to 1024 iter_args(%arg403 = %cst_4, %arg404 = %cst_7) -> (f32, f32) {
            %2292 = affine.for %arg405 = 0 to 128 step 16 iter_args(%arg406 = %cst) -> (vector<16xf32>) {
              %2307 = vector.load %2089[%arg399, %arg400, %arg401, %arg405] : memref<1x12x1x128xf32>, vector<16xf32>
              %2308 = vector.load %2074[%arg399, %2290, %arg402, %arg405] : memref<1x2x1024x128xf32>, vector<16xf32>
              %2309 = vector.fma %2307, %2308, %arg406 : vector<16xf32>
              affine.yield %2309 : vector<16xf32>
            }
            %2293 = vector.reduction <add>, %2292 : vector<16xf32> into f32
            %2294 = arith.mulf %2293, %cst_5 : f32
            %2295 = memref.load %2090[%arg399, %c0, %arg401, %arg402] : memref<1x1x1x1024xf32>
            %2296 = arith.addf %2294, %2295 : f32
            %2297 = arith.cmpf ogt, %2296, %arg403 : f32
            %2298 = arith.select %2297, %2296, %arg403 : f32
            %2299 = arith.subf %arg403, %2296 : f32
            %2300 = math.exp %2299 : f32
            %2301 = arith.mulf %2300, %arg404 : f32
            %2302 = arith.addf %2301, %cst_6 : f32
            %2303 = arith.subf %2296, %arg403 : f32
            %2304 = math.exp %2303 : f32
            %2305 = arith.addf %arg404, %2304 : f32
            %2306 = arith.select %2297, %2302, %2305 : f32
            affine.for %arg405 = 0 to 128 {
              %2307 = memref.load %2080[%arg399, %2290, %arg402, %arg405] : memref<1x2x1024x128xf32>
              %2308 = memref.load %alloc_292[%arg405] : memref<128xf32>
              %2309 = arith.mulf %2308, %2300 : f32
              %2310 = arith.addf %2309, %2307 : f32
              %2311 = arith.mulf %2304, %2307 : f32
              %2312 = arith.addf %2311, %2308 : f32
              %2313 = arith.select %2297, %2310, %2312 : f32
              memref.store %2313, %alloc_292[%arg405] : memref<128xf32>
            }
            affine.yield %2298, %2306 : f32, f32
          }
          memref.store %2291#1, %alloc_291[%arg399, %arg400, %arg401] : memref<1x12x1xf32>
          affine.for %arg402 = 0 to 128 {
            %2292 = memref.load %alloc_292[%arg402] : memref<128xf32>
            %2293 = arith.divf %2292, %2291#1 : f32
            memref.store %2293, %alloc_290[%arg399, %arg400, %arg401, %arg402] : memref<1x12x1x128xf32>
          }
        }
      }
    }
    %2091 = bufferization.to_tensor %alloc_290 restrict : memref<1x12x1x128xf32> to tensor<1x12x1x128xf32>
    %2092 = tosa.reshape %2091, %12 : (tensor<1x12x1x128xf32>, !tosa.shape<2>) -> tensor<1x1536xf32>
    %2093 = linalg.matmul {cast = #linalg.type_fn<cast_signed>} ins(%2092, %arg364 : tensor<1x1536xf32>, tensor<1536x1536xf32>) outs(%cst_9 : tensor<1x1536xf32>) -> tensor<1x1536xf32>
    %2094 = tosa.reshape %2093, %13 : (tensor<1x1536xf32>, !tosa.shape<3>) -> tensor<1x1x1536xf32>
    %2095 = tosa.add %2037, %2094 : (tensor<1x1x1536xf32>, tensor<1x1x1536xf32>) -> tensor<1x1x1536xf32>
    %2096 = tensor.empty() : tensor<1x1x1536xf32>
    %2097 = linalg.generic {indexing_maps = [#map, #map], iterator_types = ["parallel", "parallel", "parallel"]} ins(%2095 : tensor<1x1x1536xf32>) outs(%2096 : tensor<1x1x1536xf32>) {
    ^bb0(%in: f32, %out: f32):
      %2290 = math.fpowi %in, %c2_i32 : f32, i32
      linalg.yield %2290 : f32
    } -> tensor<1x1x1536xf32>
    %2098 = tosa.reduce_sum %2097 {axis = 2 : i32} : (tensor<1x1x1536xf32>) -> tensor<1x1x1xf32>
    %2099 = tosa.mul %2098, %0, %15 : (tensor<1x1x1xf32>, tensor<1x1x1xf32>, tensor<1xi8>) -> tensor<1x1x1xf32>
    %2100 = tosa.add %2099, %14 : (tensor<1x1x1xf32>, tensor<1x1x1xf32>) -> tensor<1x1x1xf32>
    %2101 = tosa.rsqrt %2100 : (tensor<1x1x1xf32>) -> tensor<1x1x1xf32>
    %2102 = tosa.mul %2095, %2101, %15 : (tensor<1x1x1536xf32>, tensor<1x1x1xf32>, tensor<1xi8>) -> tensor<1x1x1536xf32>
    %2103 = tosa.reshape %arg365, %13 : (tensor<1536xf32>, !tosa.shape<3>) -> tensor<1x1x1536xf32>
    %2104 = tosa.mul %2103, %2102, %15 : (tensor<1x1x1536xf32>, tensor<1x1x1536xf32>, tensor<1xi8>) -> tensor<1x1x1536xf32>
    %2105 = tosa.reshape %2104, %12 : (tensor<1x1x1536xf32>, !tosa.shape<2>) -> tensor<1x1536xf32>
    %2106 = linalg.matmul {cast = #linalg.type_fn<cast_signed>} ins(%2105, %arg366 : tensor<1x1536xf32>, tensor<1536x8960xf32>) outs(%cst_3 : tensor<1x8960xf32>) -> tensor<1x8960xf32>
    %2107 = tosa.reshape %2106, %4 : (tensor<1x8960xf32>, !tosa.shape<3>) -> tensor<1x1x8960xf32>
    %2108 = tosa.sigmoid %2107 : (tensor<1x1x8960xf32>) -> tensor<1x1x8960xf32>
    %2109 = tosa.mul %2107, %2108, %15 : (tensor<1x1x8960xf32>, tensor<1x1x8960xf32>, tensor<1xi8>) -> tensor<1x1x8960xf32>
    %2110 = tosa.reshape %2104, %12 : (tensor<1x1x1536xf32>, !tosa.shape<2>) -> tensor<1x1536xf32>
    %2111 = linalg.matmul {cast = #linalg.type_fn<cast_signed>} ins(%2110, %arg367 : tensor<1x1536xf32>, tensor<1536x8960xf32>) outs(%cst_3 : tensor<1x8960xf32>) -> tensor<1x8960xf32>
    %2112 = tosa.reshape %2111, %4 : (tensor<1x8960xf32>, !tosa.shape<3>) -> tensor<1x1x8960xf32>
    %2113 = tosa.mul %2109, %2112, %15 : (tensor<1x1x8960xf32>, tensor<1x1x8960xf32>, tensor<1xi8>) -> tensor<1x1x8960xf32>
    %2114 = tosa.reshape %2113, %3 : (tensor<1x1x8960xf32>, !tosa.shape<2>) -> tensor<1x8960xf32>
    %2115 = linalg.matmul {cast = #linalg.type_fn<cast_signed>} ins(%2114, %arg368 : tensor<1x8960xf32>, tensor<8960x1536xf32>) outs(%cst_9 : tensor<1x1536xf32>) -> tensor<1x1536xf32>
    %2116 = tosa.reshape %2115, %13 : (tensor<1x1536xf32>, !tosa.shape<3>) -> tensor<1x1x1536xf32>
    %2117 = tosa.add %2095, %2116 : (tensor<1x1x1536xf32>, tensor<1x1x1536xf32>) -> tensor<1x1x1536xf32>
    %2118 = tensor.empty() : tensor<1x1x1536xf32>
    %2119 = linalg.generic {indexing_maps = [#map, #map], iterator_types = ["parallel", "parallel", "parallel"]} ins(%2117 : tensor<1x1x1536xf32>) outs(%2118 : tensor<1x1x1536xf32>) {
    ^bb0(%in: f32, %out: f32):
      %2290 = math.fpowi %in, %c2_i32 : f32, i32
      linalg.yield %2290 : f32
    } -> tensor<1x1x1536xf32>
    %2120 = tosa.reduce_sum %2119 {axis = 2 : i32} : (tensor<1x1x1536xf32>) -> tensor<1x1x1xf32>
    %2121 = tosa.mul %2120, %0, %15 : (tensor<1x1x1xf32>, tensor<1x1x1xf32>, tensor<1xi8>) -> tensor<1x1x1xf32>
    %2122 = tosa.add %2121, %14 : (tensor<1x1x1xf32>, tensor<1x1x1xf32>) -> tensor<1x1x1xf32>
    %2123 = tosa.rsqrt %2122 : (tensor<1x1x1xf32>) -> tensor<1x1x1xf32>
    %2124 = tosa.mul %2117, %2123, %15 : (tensor<1x1x1536xf32>, tensor<1x1x1xf32>, tensor<1xi8>) -> tensor<1x1x1536xf32>
    %2125 = tosa.reshape %arg369, %13 : (tensor<1536xf32>, !tosa.shape<3>) -> tensor<1x1x1536xf32>
    %2126 = tosa.mul %2125, %2124, %15 : (tensor<1x1x1536xf32>, tensor<1x1x1536xf32>, tensor<1xi8>) -> tensor<1x1x1536xf32>
    %2127 = tosa.reshape %2126, %12 : (tensor<1x1x1536xf32>, !tosa.shape<2>) -> tensor<1x1536xf32>
    %2128 = linalg.matmul {cast = #linalg.type_fn<cast_signed>} ins(%2127, %arg371 : tensor<1x1536xf32>, tensor<1536x1536xf32>) outs(%cst_9 : tensor<1x1536xf32>) -> tensor<1x1536xf32>
    %2129 = tosa.reshape %arg370, %12 : (tensor<1536xf32>, !tosa.shape<2>) -> tensor<1x1536xf32>
    %2130 = tosa.add %2129, %2128 : (tensor<1x1536xf32>, tensor<1x1536xf32>) -> tensor<1x1536xf32>
    %2131 = tosa.reshape %2130, %11 : (tensor<1x1536xf32>, !tosa.shape<4>) -> tensor<1x12x1x128xf32>
    %2132 = tosa.reshape %2126, %12 : (tensor<1x1x1536xf32>, !tosa.shape<2>) -> tensor<1x1536xf32>
    %2133 = linalg.matmul {cast = #linalg.type_fn<cast_signed>} ins(%2132, %arg373 : tensor<1x1536xf32>, tensor<1536x256xf32>) outs(%cst_8 : tensor<1x256xf32>) -> tensor<1x256xf32>
    %2134 = tosa.reshape %arg372, %10 : (tensor<256xf32>, !tosa.shape<2>) -> tensor<1x256xf32>
    %2135 = tosa.add %2134, %2133 : (tensor<1x256xf32>, tensor<1x256xf32>) -> tensor<1x256xf32>
    %2136 = tosa.reshape %2135, %9 : (tensor<1x256xf32>, !tosa.shape<4>) -> tensor<1x2x1x128xf32>
    %2137 = tosa.reshape %2126, %12 : (tensor<1x1x1536xf32>, !tosa.shape<2>) -> tensor<1x1536xf32>
    %2138 = linalg.matmul {cast = #linalg.type_fn<cast_signed>} ins(%2137, %arg375 : tensor<1x1536xf32>, tensor<1536x256xf32>) outs(%cst_8 : tensor<1x256xf32>) -> tensor<1x256xf32>
    %2139 = tosa.reshape %arg374, %10 : (tensor<256xf32>, !tosa.shape<2>) -> tensor<1x256xf32>
    %2140 = tosa.add %2139, %2138 : (tensor<1x256xf32>, tensor<1x256xf32>) -> tensor<1x256xf32>
    %2141 = tosa.reshape %2140, %9 : (tensor<1x256xf32>, !tosa.shape<4>) -> tensor<1x2x1x128xf32>
    %2142 = tosa.reshape %36, %8 : (tensor<1x1x128xf32>, !tosa.shape<4>) -> tensor<1x1x1x128xf32>
    %2143 = tosa.reshape %37, %8 : (tensor<1x1x128xf32>, !tosa.shape<4>) -> tensor<1x1x1x128xf32>
    %2144 = tosa.mul %2131, %2142, %15 : (tensor<1x12x1x128xf32>, tensor<1x1x1x128xf32>, tensor<1xi8>) -> tensor<1x12x1x128xf32>
    %extracted_slice_293 = tensor.extract_slice %2131[0, 0, 0, 0] [1, 12, 1, 64] [1, 1, 1, 1] : tensor<1x12x1x128xf32> to tensor<1x12x1x64xf32>
    %extracted_slice_294 = tensor.extract_slice %2131[0, 0, 0, 64] [1, 12, 1, 64] [1, 1, 1, 1] : tensor<1x12x1x128xf32> to tensor<1x12x1x64xf32>
    %2145 = tosa.negate %extracted_slice_294, %19, %19 : (tensor<1x12x1x64xf32>, tensor<1xf32>, tensor<1xf32>) -> tensor<1x12x1x64xf32>
    %2146 = tensor.empty() : tensor<1x12x1x128xf32>
    %inserted_slice_295 = tensor.insert_slice %2145 into %2146[0, 0, 0, 0] [1, 12, 1, 64] [1, 1, 1, 1] : tensor<1x12x1x64xf32> into tensor<1x12x1x128xf32>
    %inserted_slice_296 = tensor.insert_slice %extracted_slice_293 into %inserted_slice_295[0, 0, 0, 64] [1, 12, 1, 64] [1, 1, 1, 1] : tensor<1x12x1x64xf32> into tensor<1x12x1x128xf32>
    %2147 = tosa.mul %inserted_slice_296, %2143, %15 : (tensor<1x12x1x128xf32>, tensor<1x1x1x128xf32>, tensor<1xi8>) -> tensor<1x12x1x128xf32>
    %2148 = tosa.add %2144, %2147 : (tensor<1x12x1x128xf32>, tensor<1x12x1x128xf32>) -> tensor<1x12x1x128xf32>
    %2149 = tosa.mul %2136, %2142, %15 : (tensor<1x2x1x128xf32>, tensor<1x1x1x128xf32>, tensor<1xi8>) -> tensor<1x2x1x128xf32>
    %extracted_slice_297 = tensor.extract_slice %2136[0, 0, 0, 0] [1, 2, 1, 64] [1, 1, 1, 1] : tensor<1x2x1x128xf32> to tensor<1x2x1x64xf32>
    %extracted_slice_298 = tensor.extract_slice %2136[0, 0, 0, 64] [1, 2, 1, 64] [1, 1, 1, 1] : tensor<1x2x1x128xf32> to tensor<1x2x1x64xf32>
    %2150 = tosa.negate %extracted_slice_298, %19, %19 : (tensor<1x2x1x64xf32>, tensor<1xf32>, tensor<1xf32>) -> tensor<1x2x1x64xf32>
    %2151 = tensor.empty() : tensor<1x2x1x128xf32>
    %inserted_slice_299 = tensor.insert_slice %2150 into %2151[0, 0, 0, 0] [1, 2, 1, 64] [1, 1, 1, 1] : tensor<1x2x1x64xf32> into tensor<1x2x1x128xf32>
    %inserted_slice_300 = tensor.insert_slice %extracted_slice_297 into %inserted_slice_299[0, 0, 0, 64] [1, 2, 1, 64] [1, 1, 1, 1] : tensor<1x2x1x64xf32> into tensor<1x2x1x128xf32>
    %2152 = tosa.mul %inserted_slice_300, %2143, %15 : (tensor<1x2x1x128xf32>, tensor<1x1x1x128xf32>, tensor<1xi8>) -> tensor<1x2x1x128xf32>
    %2153 = tosa.add %2149, %2152 : (tensor<1x2x1x128xf32>, tensor<1x2x1x128xf32>) -> tensor<1x2x1x128xf32>
    %2154 = bufferization.to_buffer %arg376 : tensor<1x2x1024x128xf32> to memref<1x2x1024x128xf32>
    %2155 = tosa.reshape %arg3, %7 : (tensor<1xi64>, !tosa.shape<4>) -> tensor<1x1x1x1xi64>
    %2156 = tosa.add %2155, %6 : (tensor<1x1x1x1xi64>, tensor<1x2x1x128xi64>) -> tensor<1x2x1x128xi64>
    %2157 = bufferization.to_buffer %2156 : tensor<1x2x1x128xi64> to memref<1x2x1x128xi64>
    %2158 = bufferization.to_buffer %2153 : tensor<1x2x1x128xf32> to memref<1x2x1x128xf32>
    scf.for %arg399 = %c0 to %c1 step %c1 {
      scf.for %arg400 = %c0 to %c2 step %c1 {
        scf.for %arg401 = %c0 to %c1 step %c1 {
          scf.for %arg402 = %c0 to %c128 step %c1 {
            %2290 = memref.load %2158[%arg399, %arg400, %arg401, %arg402] : memref<1x2x1x128xf32>
            %2291 = memref.load %2157[%arg399, %arg400, %arg401, %arg402] : memref<1x2x1x128xi64>
            %2292 = arith.index_cast %2291 : i64 to index
            memref.store %2290, %2154[%arg399, %arg400, %2292, %arg402] : memref<1x2x1024x128xf32>
          }
        }
      }
    }
    %2159 = bufferization.to_tensor %2154 restrict : memref<1x2x1024x128xf32> to tensor<1x2x1024x128xf32>
    %2160 = bufferization.to_buffer %arg377 : tensor<1x2x1024x128xf32> to memref<1x2x1024x128xf32>
    %2161 = tosa.reshape %arg3, %7 : (tensor<1xi64>, !tosa.shape<4>) -> tensor<1x1x1x1xi64>
    %2162 = tosa.add %2161, %6 : (tensor<1x1x1x1xi64>, tensor<1x2x1x128xi64>) -> tensor<1x2x1x128xi64>
    %2163 = bufferization.to_buffer %2162 : tensor<1x2x1x128xi64> to memref<1x2x1x128xi64>
    %2164 = bufferization.to_buffer %2141 : tensor<1x2x1x128xf32> to memref<1x2x1x128xf32>
    scf.for %arg399 = %c0 to %c1 step %c1 {
      scf.for %arg400 = %c0 to %c2 step %c1 {
        scf.for %arg401 = %c0 to %c1 step %c1 {
          scf.for %arg402 = %c0 to %c128 step %c1 {
            %2290 = memref.load %2164[%arg399, %arg400, %arg401, %arg402] : memref<1x2x1x128xf32>
            %2291 = memref.load %2163[%arg399, %arg400, %arg401, %arg402] : memref<1x2x1x128xi64>
            %2292 = arith.index_cast %2291 : i64 to index
            memref.store %2290, %2160[%arg399, %arg400, %2292, %arg402] : memref<1x2x1024x128xf32>
          }
        }
      }
    }
    %2165 = bufferization.to_tensor %2160 restrict : memref<1x2x1024x128xf32> to tensor<1x2x1024x128xf32>
    %2166 = tosa.reshape %28, %5 : (tensor<1x1024xi1>, !tosa.shape<4>) -> tensor<1x1x1x1024xi1>
    %2167 = tensor.empty() : tensor<1x1x1x1024xf32>
    %2168 = linalg.generic {indexing_maps = [#map1, #map1, #map1, #map1], iterator_types = ["parallel", "parallel", "parallel", "parallel"]} ins(%2166, %cst_1, %cst_0 : tensor<1x1x1x1024xi1>, tensor<1x1x1x1024xf32>, tensor<1x1x1x1024xf32>) outs(%2167 : tensor<1x1x1x1024xf32>) {
    ^bb0(%in: i1, %in_315: f32, %in_316: f32, %out: f32):
      %2290 = arith.select %in, %in_315, %in_316 : f32
      linalg.yield %2290 : f32
    } -> tensor<1x1x1x1024xf32>
    %2169 = bufferization.to_buffer %2148 : tensor<1x12x1x128xf32> to memref<1x12x1x128xf32>
    %2170 = bufferization.to_buffer %2168 : tensor<1x1x1x1024xf32> to memref<1x1x1x1024xf32>
    %alloc_301 = memref.alloc() : memref<1x12x1x128xf32>
    %alloc_302 = memref.alloc() : memref<1x12x1xf32>
    %alloc_303 = memref.alloc() : memref<128xf32>
    affine.for %arg399 = 0 to 1 {
      affine.for %arg400 = 0 to 12 {
        %2290 = arith.divsi %arg400, %c6 : index
        affine.for %arg401 = 0 to 1 {
          affine.for %arg402 = 0 to 128 {
            memref.store %cst_7, %alloc_303[%arg402] : memref<128xf32>
          }
          %2291:2 = affine.for %arg402 = 0 to 1024 iter_args(%arg403 = %cst_4, %arg404 = %cst_7) -> (f32, f32) {
            %2292 = affine.for %arg405 = 0 to 128 step 16 iter_args(%arg406 = %cst) -> (vector<16xf32>) {
              %2307 = vector.load %2169[%arg399, %arg400, %arg401, %arg405] : memref<1x12x1x128xf32>, vector<16xf32>
              %2308 = vector.load %2154[%arg399, %2290, %arg402, %arg405] : memref<1x2x1024x128xf32>, vector<16xf32>
              %2309 = vector.fma %2307, %2308, %arg406 : vector<16xf32>
              affine.yield %2309 : vector<16xf32>
            }
            %2293 = vector.reduction <add>, %2292 : vector<16xf32> into f32
            %2294 = arith.mulf %2293, %cst_5 : f32
            %2295 = memref.load %2170[%arg399, %c0, %arg401, %arg402] : memref<1x1x1x1024xf32>
            %2296 = arith.addf %2294, %2295 : f32
            %2297 = arith.cmpf ogt, %2296, %arg403 : f32
            %2298 = arith.select %2297, %2296, %arg403 : f32
            %2299 = arith.subf %arg403, %2296 : f32
            %2300 = math.exp %2299 : f32
            %2301 = arith.mulf %2300, %arg404 : f32
            %2302 = arith.addf %2301, %cst_6 : f32
            %2303 = arith.subf %2296, %arg403 : f32
            %2304 = math.exp %2303 : f32
            %2305 = arith.addf %arg404, %2304 : f32
            %2306 = arith.select %2297, %2302, %2305 : f32
            affine.for %arg405 = 0 to 128 {
              %2307 = memref.load %2160[%arg399, %2290, %arg402, %arg405] : memref<1x2x1024x128xf32>
              %2308 = memref.load %alloc_303[%arg405] : memref<128xf32>
              %2309 = arith.mulf %2308, %2300 : f32
              %2310 = arith.addf %2309, %2307 : f32
              %2311 = arith.mulf %2304, %2307 : f32
              %2312 = arith.addf %2311, %2308 : f32
              %2313 = arith.select %2297, %2310, %2312 : f32
              memref.store %2313, %alloc_303[%arg405] : memref<128xf32>
            }
            affine.yield %2298, %2306 : f32, f32
          }
          memref.store %2291#1, %alloc_302[%arg399, %arg400, %arg401] : memref<1x12x1xf32>
          affine.for %arg402 = 0 to 128 {
            %2292 = memref.load %alloc_303[%arg402] : memref<128xf32>
            %2293 = arith.divf %2292, %2291#1 : f32
            memref.store %2293, %alloc_301[%arg399, %arg400, %arg401, %arg402] : memref<1x12x1x128xf32>
          }
        }
      }
    }
    %2171 = bufferization.to_tensor %alloc_301 restrict : memref<1x12x1x128xf32> to tensor<1x12x1x128xf32>
    %2172 = tosa.reshape %2171, %12 : (tensor<1x12x1x128xf32>, !tosa.shape<2>) -> tensor<1x1536xf32>
    %2173 = linalg.matmul {cast = #linalg.type_fn<cast_signed>} ins(%2172, %arg378 : tensor<1x1536xf32>, tensor<1536x1536xf32>) outs(%cst_9 : tensor<1x1536xf32>) -> tensor<1x1536xf32>
    %2174 = tosa.reshape %2173, %13 : (tensor<1x1536xf32>, !tosa.shape<3>) -> tensor<1x1x1536xf32>
    %2175 = tosa.add %2117, %2174 : (tensor<1x1x1536xf32>, tensor<1x1x1536xf32>) -> tensor<1x1x1536xf32>
    %2176 = tensor.empty() : tensor<1x1x1536xf32>
    %2177 = linalg.generic {indexing_maps = [#map, #map], iterator_types = ["parallel", "parallel", "parallel"]} ins(%2175 : tensor<1x1x1536xf32>) outs(%2176 : tensor<1x1x1536xf32>) {
    ^bb0(%in: f32, %out: f32):
      %2290 = math.fpowi %in, %c2_i32 : f32, i32
      linalg.yield %2290 : f32
    } -> tensor<1x1x1536xf32>
    %2178 = tosa.reduce_sum %2177 {axis = 2 : i32} : (tensor<1x1x1536xf32>) -> tensor<1x1x1xf32>
    %2179 = tosa.mul %2178, %0, %15 : (tensor<1x1x1xf32>, tensor<1x1x1xf32>, tensor<1xi8>) -> tensor<1x1x1xf32>
    %2180 = tosa.add %2179, %14 : (tensor<1x1x1xf32>, tensor<1x1x1xf32>) -> tensor<1x1x1xf32>
    %2181 = tosa.rsqrt %2180 : (tensor<1x1x1xf32>) -> tensor<1x1x1xf32>
    %2182 = tosa.mul %2175, %2181, %15 : (tensor<1x1x1536xf32>, tensor<1x1x1xf32>, tensor<1xi8>) -> tensor<1x1x1536xf32>
    %2183 = tosa.reshape %arg379, %13 : (tensor<1536xf32>, !tosa.shape<3>) -> tensor<1x1x1536xf32>
    %2184 = tosa.mul %2183, %2182, %15 : (tensor<1x1x1536xf32>, tensor<1x1x1536xf32>, tensor<1xi8>) -> tensor<1x1x1536xf32>
    %2185 = tosa.reshape %2184, %12 : (tensor<1x1x1536xf32>, !tosa.shape<2>) -> tensor<1x1536xf32>
    %2186 = linalg.matmul {cast = #linalg.type_fn<cast_signed>} ins(%2185, %arg380 : tensor<1x1536xf32>, tensor<1536x8960xf32>) outs(%cst_3 : tensor<1x8960xf32>) -> tensor<1x8960xf32>
    %2187 = tosa.reshape %2186, %4 : (tensor<1x8960xf32>, !tosa.shape<3>) -> tensor<1x1x8960xf32>
    %2188 = tosa.sigmoid %2187 : (tensor<1x1x8960xf32>) -> tensor<1x1x8960xf32>
    %2189 = tosa.mul %2187, %2188, %15 : (tensor<1x1x8960xf32>, tensor<1x1x8960xf32>, tensor<1xi8>) -> tensor<1x1x8960xf32>
    %2190 = tosa.reshape %2184, %12 : (tensor<1x1x1536xf32>, !tosa.shape<2>) -> tensor<1x1536xf32>
    %2191 = linalg.matmul {cast = #linalg.type_fn<cast_signed>} ins(%2190, %arg381 : tensor<1x1536xf32>, tensor<1536x8960xf32>) outs(%cst_3 : tensor<1x8960xf32>) -> tensor<1x8960xf32>
    %2192 = tosa.reshape %2191, %4 : (tensor<1x8960xf32>, !tosa.shape<3>) -> tensor<1x1x8960xf32>
    %2193 = tosa.mul %2189, %2192, %15 : (tensor<1x1x8960xf32>, tensor<1x1x8960xf32>, tensor<1xi8>) -> tensor<1x1x8960xf32>
    %2194 = tosa.reshape %2193, %3 : (tensor<1x1x8960xf32>, !tosa.shape<2>) -> tensor<1x8960xf32>
    %2195 = linalg.matmul {cast = #linalg.type_fn<cast_signed>} ins(%2194, %arg382 : tensor<1x8960xf32>, tensor<8960x1536xf32>) outs(%cst_9 : tensor<1x1536xf32>) -> tensor<1x1536xf32>
    %2196 = tosa.reshape %2195, %13 : (tensor<1x1536xf32>, !tosa.shape<3>) -> tensor<1x1x1536xf32>
    %2197 = tosa.add %2175, %2196 : (tensor<1x1x1536xf32>, tensor<1x1x1536xf32>) -> tensor<1x1x1536xf32>
    %2198 = tensor.empty() : tensor<1x1x1536xf32>
    %2199 = linalg.generic {indexing_maps = [#map, #map], iterator_types = ["parallel", "parallel", "parallel"]} ins(%2197 : tensor<1x1x1536xf32>) outs(%2198 : tensor<1x1x1536xf32>) {
    ^bb0(%in: f32, %out: f32):
      %2290 = math.fpowi %in, %c2_i32 : f32, i32
      linalg.yield %2290 : f32
    } -> tensor<1x1x1536xf32>
    %2200 = tosa.reduce_sum %2199 {axis = 2 : i32} : (tensor<1x1x1536xf32>) -> tensor<1x1x1xf32>
    %2201 = tosa.mul %2200, %0, %15 : (tensor<1x1x1xf32>, tensor<1x1x1xf32>, tensor<1xi8>) -> tensor<1x1x1xf32>
    %2202 = tosa.add %2201, %14 : (tensor<1x1x1xf32>, tensor<1x1x1xf32>) -> tensor<1x1x1xf32>
    %2203 = tosa.rsqrt %2202 : (tensor<1x1x1xf32>) -> tensor<1x1x1xf32>
    %2204 = tosa.mul %2197, %2203, %15 : (tensor<1x1x1536xf32>, tensor<1x1x1xf32>, tensor<1xi8>) -> tensor<1x1x1536xf32>
    %2205 = tosa.reshape %arg383, %13 : (tensor<1536xf32>, !tosa.shape<3>) -> tensor<1x1x1536xf32>
    %2206 = tosa.mul %2205, %2204, %15 : (tensor<1x1x1536xf32>, tensor<1x1x1536xf32>, tensor<1xi8>) -> tensor<1x1x1536xf32>
    %2207 = tosa.reshape %2206, %12 : (tensor<1x1x1536xf32>, !tosa.shape<2>) -> tensor<1x1536xf32>
    %2208 = linalg.matmul {cast = #linalg.type_fn<cast_signed>} ins(%2207, %arg385 : tensor<1x1536xf32>, tensor<1536x1536xf32>) outs(%cst_9 : tensor<1x1536xf32>) -> tensor<1x1536xf32>
    %2209 = tosa.reshape %arg384, %12 : (tensor<1536xf32>, !tosa.shape<2>) -> tensor<1x1536xf32>
    %2210 = tosa.add %2209, %2208 : (tensor<1x1536xf32>, tensor<1x1536xf32>) -> tensor<1x1536xf32>
    %2211 = tosa.reshape %2210, %11 : (tensor<1x1536xf32>, !tosa.shape<4>) -> tensor<1x12x1x128xf32>
    %2212 = tosa.reshape %2206, %12 : (tensor<1x1x1536xf32>, !tosa.shape<2>) -> tensor<1x1536xf32>
    %2213 = linalg.matmul {cast = #linalg.type_fn<cast_signed>} ins(%2212, %arg387 : tensor<1x1536xf32>, tensor<1536x256xf32>) outs(%cst_8 : tensor<1x256xf32>) -> tensor<1x256xf32>
    %2214 = tosa.reshape %arg386, %10 : (tensor<256xf32>, !tosa.shape<2>) -> tensor<1x256xf32>
    %2215 = tosa.add %2214, %2213 : (tensor<1x256xf32>, tensor<1x256xf32>) -> tensor<1x256xf32>
    %2216 = tosa.reshape %2215, %9 : (tensor<1x256xf32>, !tosa.shape<4>) -> tensor<1x2x1x128xf32>
    %2217 = tosa.reshape %2206, %12 : (tensor<1x1x1536xf32>, !tosa.shape<2>) -> tensor<1x1536xf32>
    %2218 = linalg.matmul {cast = #linalg.type_fn<cast_signed>} ins(%2217, %arg389 : tensor<1x1536xf32>, tensor<1536x256xf32>) outs(%cst_8 : tensor<1x256xf32>) -> tensor<1x256xf32>
    %2219 = tosa.reshape %arg388, %10 : (tensor<256xf32>, !tosa.shape<2>) -> tensor<1x256xf32>
    %2220 = tosa.add %2219, %2218 : (tensor<1x256xf32>, tensor<1x256xf32>) -> tensor<1x256xf32>
    %2221 = tosa.reshape %2220, %9 : (tensor<1x256xf32>, !tosa.shape<4>) -> tensor<1x2x1x128xf32>
    %2222 = tosa.reshape %36, %8 : (tensor<1x1x128xf32>, !tosa.shape<4>) -> tensor<1x1x1x128xf32>
    %2223 = tosa.reshape %37, %8 : (tensor<1x1x128xf32>, !tosa.shape<4>) -> tensor<1x1x1x128xf32>
    %2224 = tosa.mul %2211, %2222, %15 : (tensor<1x12x1x128xf32>, tensor<1x1x1x128xf32>, tensor<1xi8>) -> tensor<1x12x1x128xf32>
    %extracted_slice_304 = tensor.extract_slice %2211[0, 0, 0, 0] [1, 12, 1, 64] [1, 1, 1, 1] : tensor<1x12x1x128xf32> to tensor<1x12x1x64xf32>
    %extracted_slice_305 = tensor.extract_slice %2211[0, 0, 0, 64] [1, 12, 1, 64] [1, 1, 1, 1] : tensor<1x12x1x128xf32> to tensor<1x12x1x64xf32>
    %2225 = tosa.negate %extracted_slice_305, %19, %19 : (tensor<1x12x1x64xf32>, tensor<1xf32>, tensor<1xf32>) -> tensor<1x12x1x64xf32>
    %2226 = tensor.empty() : tensor<1x12x1x128xf32>
    %inserted_slice_306 = tensor.insert_slice %2225 into %2226[0, 0, 0, 0] [1, 12, 1, 64] [1, 1, 1, 1] : tensor<1x12x1x64xf32> into tensor<1x12x1x128xf32>
    %inserted_slice_307 = tensor.insert_slice %extracted_slice_304 into %inserted_slice_306[0, 0, 0, 64] [1, 12, 1, 64] [1, 1, 1, 1] : tensor<1x12x1x64xf32> into tensor<1x12x1x128xf32>
    %2227 = tosa.mul %inserted_slice_307, %2223, %15 : (tensor<1x12x1x128xf32>, tensor<1x1x1x128xf32>, tensor<1xi8>) -> tensor<1x12x1x128xf32>
    %2228 = tosa.add %2224, %2227 : (tensor<1x12x1x128xf32>, tensor<1x12x1x128xf32>) -> tensor<1x12x1x128xf32>
    %2229 = tosa.mul %2216, %2222, %15 : (tensor<1x2x1x128xf32>, tensor<1x1x1x128xf32>, tensor<1xi8>) -> tensor<1x2x1x128xf32>
    %extracted_slice_308 = tensor.extract_slice %2216[0, 0, 0, 0] [1, 2, 1, 64] [1, 1, 1, 1] : tensor<1x2x1x128xf32> to tensor<1x2x1x64xf32>
    %extracted_slice_309 = tensor.extract_slice %2216[0, 0, 0, 64] [1, 2, 1, 64] [1, 1, 1, 1] : tensor<1x2x1x128xf32> to tensor<1x2x1x64xf32>
    %2230 = tosa.negate %extracted_slice_309, %19, %19 : (tensor<1x2x1x64xf32>, tensor<1xf32>, tensor<1xf32>) -> tensor<1x2x1x64xf32>
    %2231 = tensor.empty() : tensor<1x2x1x128xf32>
    %inserted_slice_310 = tensor.insert_slice %2230 into %2231[0, 0, 0, 0] [1, 2, 1, 64] [1, 1, 1, 1] : tensor<1x2x1x64xf32> into tensor<1x2x1x128xf32>
    %inserted_slice_311 = tensor.insert_slice %extracted_slice_308 into %inserted_slice_310[0, 0, 0, 64] [1, 2, 1, 64] [1, 1, 1, 1] : tensor<1x2x1x64xf32> into tensor<1x2x1x128xf32>
    %2232 = tosa.mul %inserted_slice_311, %2223, %15 : (tensor<1x2x1x128xf32>, tensor<1x1x1x128xf32>, tensor<1xi8>) -> tensor<1x2x1x128xf32>
    %2233 = tosa.add %2229, %2232 : (tensor<1x2x1x128xf32>, tensor<1x2x1x128xf32>) -> tensor<1x2x1x128xf32>
    %2234 = bufferization.to_buffer %arg390 : tensor<1x2x1024x128xf32> to memref<1x2x1024x128xf32>
    %2235 = tosa.reshape %arg3, %7 : (tensor<1xi64>, !tosa.shape<4>) -> tensor<1x1x1x1xi64>
    %2236 = tosa.add %2235, %6 : (tensor<1x1x1x1xi64>, tensor<1x2x1x128xi64>) -> tensor<1x2x1x128xi64>
    %2237 = bufferization.to_buffer %2236 : tensor<1x2x1x128xi64> to memref<1x2x1x128xi64>
    %2238 = bufferization.to_buffer %2233 : tensor<1x2x1x128xf32> to memref<1x2x1x128xf32>
    scf.for %arg399 = %c0 to %c1 step %c1 {
      scf.for %arg400 = %c0 to %c2 step %c1 {
        scf.for %arg401 = %c0 to %c1 step %c1 {
          scf.for %arg402 = %c0 to %c128 step %c1 {
            %2290 = memref.load %2238[%arg399, %arg400, %arg401, %arg402] : memref<1x2x1x128xf32>
            %2291 = memref.load %2237[%arg399, %arg400, %arg401, %arg402] : memref<1x2x1x128xi64>
            %2292 = arith.index_cast %2291 : i64 to index
            memref.store %2290, %2234[%arg399, %arg400, %2292, %arg402] : memref<1x2x1024x128xf32>
          }
        }
      }
    }
    %2239 = bufferization.to_tensor %2234 restrict : memref<1x2x1024x128xf32> to tensor<1x2x1024x128xf32>
    %2240 = bufferization.to_buffer %arg391 : tensor<1x2x1024x128xf32> to memref<1x2x1024x128xf32>
    %2241 = tosa.reshape %arg3, %7 : (tensor<1xi64>, !tosa.shape<4>) -> tensor<1x1x1x1xi64>
    %2242 = tosa.add %2241, %6 : (tensor<1x1x1x1xi64>, tensor<1x2x1x128xi64>) -> tensor<1x2x1x128xi64>
    %2243 = bufferization.to_buffer %2242 : tensor<1x2x1x128xi64> to memref<1x2x1x128xi64>
    %2244 = bufferization.to_buffer %2221 : tensor<1x2x1x128xf32> to memref<1x2x1x128xf32>
    scf.for %arg399 = %c0 to %c1 step %c1 {
      scf.for %arg400 = %c0 to %c2 step %c1 {
        scf.for %arg401 = %c0 to %c1 step %c1 {
          scf.for %arg402 = %c0 to %c128 step %c1 {
            %2290 = memref.load %2244[%arg399, %arg400, %arg401, %arg402] : memref<1x2x1x128xf32>
            %2291 = memref.load %2243[%arg399, %arg400, %arg401, %arg402] : memref<1x2x1x128xi64>
            %2292 = arith.index_cast %2291 : i64 to index
            memref.store %2290, %2240[%arg399, %arg400, %2292, %arg402] : memref<1x2x1024x128xf32>
          }
        }
      }
    }
    %2245 = bufferization.to_tensor %2240 restrict : memref<1x2x1024x128xf32> to tensor<1x2x1024x128xf32>
    %2246 = tosa.reshape %28, %5 : (tensor<1x1024xi1>, !tosa.shape<4>) -> tensor<1x1x1x1024xi1>
    %2247 = tensor.empty() : tensor<1x1x1x1024xf32>
    %2248 = linalg.generic {indexing_maps = [#map1, #map1, #map1, #map1], iterator_types = ["parallel", "parallel", "parallel", "parallel"]} ins(%2246, %cst_1, %cst_0 : tensor<1x1x1x1024xi1>, tensor<1x1x1x1024xf32>, tensor<1x1x1x1024xf32>) outs(%2247 : tensor<1x1x1x1024xf32>) {
    ^bb0(%in: i1, %in_315: f32, %in_316: f32, %out: f32):
      %2290 = arith.select %in, %in_315, %in_316 : f32
      linalg.yield %2290 : f32
    } -> tensor<1x1x1x1024xf32>
    %2249 = bufferization.to_buffer %2228 : tensor<1x12x1x128xf32> to memref<1x12x1x128xf32>
    %2250 = bufferization.to_buffer %2248 : tensor<1x1x1x1024xf32> to memref<1x1x1x1024xf32>
    %alloc_312 = memref.alloc() : memref<1x12x1x128xf32>
    %alloc_313 = memref.alloc() : memref<1x12x1xf32>
    %alloc_314 = memref.alloc() : memref<128xf32>
    affine.for %arg399 = 0 to 1 {
      affine.for %arg400 = 0 to 12 {
        %2290 = arith.divsi %arg400, %c6 : index
        affine.for %arg401 = 0 to 1 {
          affine.for %arg402 = 0 to 128 {
            memref.store %cst_7, %alloc_314[%arg402] : memref<128xf32>
          }
          %2291:2 = affine.for %arg402 = 0 to 1024 iter_args(%arg403 = %cst_4, %arg404 = %cst_7) -> (f32, f32) {
            %2292 = affine.for %arg405 = 0 to 128 step 16 iter_args(%arg406 = %cst) -> (vector<16xf32>) {
              %2307 = vector.load %2249[%arg399, %arg400, %arg401, %arg405] : memref<1x12x1x128xf32>, vector<16xf32>
              %2308 = vector.load %2234[%arg399, %2290, %arg402, %arg405] : memref<1x2x1024x128xf32>, vector<16xf32>
              %2309 = vector.fma %2307, %2308, %arg406 : vector<16xf32>
              affine.yield %2309 : vector<16xf32>
            }
            %2293 = vector.reduction <add>, %2292 : vector<16xf32> into f32
            %2294 = arith.mulf %2293, %cst_5 : f32
            %2295 = memref.load %2250[%arg399, %c0, %arg401, %arg402] : memref<1x1x1x1024xf32>
            %2296 = arith.addf %2294, %2295 : f32
            %2297 = arith.cmpf ogt, %2296, %arg403 : f32
            %2298 = arith.select %2297, %2296, %arg403 : f32
            %2299 = arith.subf %arg403, %2296 : f32
            %2300 = math.exp %2299 : f32
            %2301 = arith.mulf %2300, %arg404 : f32
            %2302 = arith.addf %2301, %cst_6 : f32
            %2303 = arith.subf %2296, %arg403 : f32
            %2304 = math.exp %2303 : f32
            %2305 = arith.addf %arg404, %2304 : f32
            %2306 = arith.select %2297, %2302, %2305 : f32
            affine.for %arg405 = 0 to 128 {
              %2307 = memref.load %2240[%arg399, %2290, %arg402, %arg405] : memref<1x2x1024x128xf32>
              %2308 = memref.load %alloc_314[%arg405] : memref<128xf32>
              %2309 = arith.mulf %2308, %2300 : f32
              %2310 = arith.addf %2309, %2307 : f32
              %2311 = arith.mulf %2304, %2307 : f32
              %2312 = arith.addf %2311, %2308 : f32
              %2313 = arith.select %2297, %2310, %2312 : f32
              memref.store %2313, %alloc_314[%arg405] : memref<128xf32>
            }
            affine.yield %2298, %2306 : f32, f32
          }
          memref.store %2291#1, %alloc_313[%arg399, %arg400, %arg401] : memref<1x12x1xf32>
          affine.for %arg402 = 0 to 128 {
            %2292 = memref.load %alloc_314[%arg402] : memref<128xf32>
            %2293 = arith.divf %2292, %2291#1 : f32
            memref.store %2293, %alloc_312[%arg399, %arg400, %arg401, %arg402] : memref<1x12x1x128xf32>
          }
        }
      }
    }
    %2251 = bufferization.to_tensor %alloc_312 restrict : memref<1x12x1x128xf32> to tensor<1x12x1x128xf32>
    %2252 = tosa.reshape %2251, %12 : (tensor<1x12x1x128xf32>, !tosa.shape<2>) -> tensor<1x1536xf32>
    %2253 = linalg.matmul {cast = #linalg.type_fn<cast_signed>} ins(%2252, %arg392 : tensor<1x1536xf32>, tensor<1536x1536xf32>) outs(%cst_9 : tensor<1x1536xf32>) -> tensor<1x1536xf32>
    %2254 = tosa.reshape %2253, %13 : (tensor<1x1536xf32>, !tosa.shape<3>) -> tensor<1x1x1536xf32>
    %2255 = tosa.add %2197, %2254 : (tensor<1x1x1536xf32>, tensor<1x1x1536xf32>) -> tensor<1x1x1536xf32>
    %2256 = tensor.empty() : tensor<1x1x1536xf32>
    %2257 = linalg.generic {indexing_maps = [#map, #map], iterator_types = ["parallel", "parallel", "parallel"]} ins(%2255 : tensor<1x1x1536xf32>) outs(%2256 : tensor<1x1x1536xf32>) {
    ^bb0(%in: f32, %out: f32):
      %2290 = math.fpowi %in, %c2_i32 : f32, i32
      linalg.yield %2290 : f32
    } -> tensor<1x1x1536xf32>
    %2258 = tosa.reduce_sum %2257 {axis = 2 : i32} : (tensor<1x1x1536xf32>) -> tensor<1x1x1xf32>
    %2259 = tosa.mul %2258, %0, %15 : (tensor<1x1x1xf32>, tensor<1x1x1xf32>, tensor<1xi8>) -> tensor<1x1x1xf32>
    %2260 = tosa.add %2259, %14 : (tensor<1x1x1xf32>, tensor<1x1x1xf32>) -> tensor<1x1x1xf32>
    %2261 = tosa.rsqrt %2260 : (tensor<1x1x1xf32>) -> tensor<1x1x1xf32>
    %2262 = tosa.mul %2255, %2261, %15 : (tensor<1x1x1536xf32>, tensor<1x1x1xf32>, tensor<1xi8>) -> tensor<1x1x1536xf32>
    %2263 = tosa.reshape %arg393, %13 : (tensor<1536xf32>, !tosa.shape<3>) -> tensor<1x1x1536xf32>
    %2264 = tosa.mul %2263, %2262, %15 : (tensor<1x1x1536xf32>, tensor<1x1x1536xf32>, tensor<1xi8>) -> tensor<1x1x1536xf32>
    %2265 = tosa.reshape %2264, %12 : (tensor<1x1x1536xf32>, !tosa.shape<2>) -> tensor<1x1536xf32>
    %2266 = linalg.matmul {cast = #linalg.type_fn<cast_signed>} ins(%2265, %arg394 : tensor<1x1536xf32>, tensor<1536x8960xf32>) outs(%cst_3 : tensor<1x8960xf32>) -> tensor<1x8960xf32>
    %2267 = tosa.reshape %2266, %4 : (tensor<1x8960xf32>, !tosa.shape<3>) -> tensor<1x1x8960xf32>
    %2268 = tosa.sigmoid %2267 : (tensor<1x1x8960xf32>) -> tensor<1x1x8960xf32>
    %2269 = tosa.mul %2267, %2268, %15 : (tensor<1x1x8960xf32>, tensor<1x1x8960xf32>, tensor<1xi8>) -> tensor<1x1x8960xf32>
    %2270 = tosa.reshape %2264, %12 : (tensor<1x1x1536xf32>, !tosa.shape<2>) -> tensor<1x1536xf32>
    %2271 = linalg.matmul {cast = #linalg.type_fn<cast_signed>} ins(%2270, %arg395 : tensor<1x1536xf32>, tensor<1536x8960xf32>) outs(%cst_3 : tensor<1x8960xf32>) -> tensor<1x8960xf32>
    %2272 = tosa.reshape %2271, %4 : (tensor<1x8960xf32>, !tosa.shape<3>) -> tensor<1x1x8960xf32>
    %2273 = tosa.mul %2269, %2272, %15 : (tensor<1x1x8960xf32>, tensor<1x1x8960xf32>, tensor<1xi8>) -> tensor<1x1x8960xf32>
    %2274 = tosa.reshape %2273, %3 : (tensor<1x1x8960xf32>, !tosa.shape<2>) -> tensor<1x8960xf32>
    %2275 = linalg.matmul {cast = #linalg.type_fn<cast_signed>} ins(%2274, %arg396 : tensor<1x8960xf32>, tensor<8960x1536xf32>) outs(%cst_9 : tensor<1x1536xf32>) -> tensor<1x1536xf32>
    %2276 = tosa.reshape %2275, %13 : (tensor<1x1536xf32>, !tosa.shape<3>) -> tensor<1x1x1536xf32>
    %2277 = tosa.add %2255, %2276 : (tensor<1x1x1536xf32>, tensor<1x1x1536xf32>) -> tensor<1x1x1536xf32>
    %2278 = tensor.empty() : tensor<1x1x1536xf32>
    %2279 = linalg.generic {indexing_maps = [#map, #map], iterator_types = ["parallel", "parallel", "parallel"]} ins(%2277 : tensor<1x1x1536xf32>) outs(%2278 : tensor<1x1x1536xf32>) {
    ^bb0(%in: f32, %out: f32):
      %2290 = math.fpowi %in, %c2_i32 : f32, i32
      linalg.yield %2290 : f32
    } -> tensor<1x1x1536xf32>
    %2280 = tosa.reduce_sum %2279 {axis = 2 : i32} : (tensor<1x1x1536xf32>) -> tensor<1x1x1xf32>
    %2281 = tosa.mul %2280, %0, %15 : (tensor<1x1x1xf32>, tensor<1x1x1xf32>, tensor<1xi8>) -> tensor<1x1x1xf32>
    %2282 = tosa.add %2281, %14 : (tensor<1x1x1xf32>, tensor<1x1x1xf32>) -> tensor<1x1x1xf32>
    %2283 = tosa.rsqrt %2282 : (tensor<1x1x1xf32>) -> tensor<1x1x1xf32>
    %2284 = tosa.mul %2277, %2283, %15 : (tensor<1x1x1536xf32>, tensor<1x1x1xf32>, tensor<1xi8>) -> tensor<1x1x1536xf32>
    %2285 = tosa.reshape %arg397, %13 : (tensor<1536xf32>, !tosa.shape<3>) -> tensor<1x1x1536xf32>
    %2286 = tosa.mul %2285, %2284, %15 : (tensor<1x1x1536xf32>, tensor<1x1x1536xf32>, tensor<1xi8>) -> tensor<1x1x1536xf32>
    %2287 = tosa.reshape %2286, %12 : (tensor<1x1x1536xf32>, !tosa.shape<2>) -> tensor<1x1536xf32>
    %2288 = linalg.matmul {cast = #linalg.type_fn<cast_signed>} ins(%2287, %arg398 : tensor<1x1536xf32>, tensor<1536x151936xf32>) outs(%cst_2 : tensor<1x151936xf32>) -> tensor<1x151936xf32>
    %2289 = tosa.reshape %2288, %2 : (tensor<1x151936xf32>, !tosa.shape<3>) -> tensor<1x1x151936xf32>
    return %79, %85, %159, %165, %239, %245, %319, %325, %399, %405, %479, %485, %559, %565, %639, %645, %719, %725, %799, %805, %879, %885, %959, %965, %1039, %1045, %1119, %1125, %1199, %1205, %1279, %1285, %1359, %1365, %1439, %1445, %1519, %1525, %1599, %1605, %1679, %1685, %1759, %1765, %1839, %1845, %1919, %1925, %1999, %2005, %2079, %2085, %2159, %2165, %2239, %2245, %2289 : tensor<1x2x1024x128xf32>, tensor<1x2x1024x128xf32>, tensor<1x2x1024x128xf32>, tensor<1x2x1024x128xf32>, tensor<1x2x1024x128xf32>, tensor<1x2x1024x128xf32>, tensor<1x2x1024x128xf32>, tensor<1x2x1024x128xf32>, tensor<1x2x1024x128xf32>, tensor<1x2x1024x128xf32>, tensor<1x2x1024x128xf32>, tensor<1x2x1024x128xf32>, tensor<1x2x1024x128xf32>, tensor<1x2x1024x128xf32>, tensor<1x2x1024x128xf32>, tensor<1x2x1024x128xf32>, tensor<1x2x1024x128xf32>, tensor<1x2x1024x128xf32>, tensor<1x2x1024x128xf32>, tensor<1x2x1024x128xf32>, tensor<1x2x1024x128xf32>, tensor<1x2x1024x128xf32>, tensor<1x2x1024x128xf32>, tensor<1x2x1024x128xf32>, tensor<1x2x1024x128xf32>, tensor<1x2x1024x128xf32>, tensor<1x2x1024x128xf32>, tensor<1x2x1024x128xf32>, tensor<1x2x1024x128xf32>, tensor<1x2x1024x128xf32>, tensor<1x2x1024x128xf32>, tensor<1x2x1024x128xf32>, tensor<1x2x1024x128xf32>, tensor<1x2x1024x128xf32>, tensor<1x2x1024x128xf32>, tensor<1x2x1024x128xf32>, tensor<1x2x1024x128xf32>, tensor<1x2x1024x128xf32>, tensor<1x2x1024x128xf32>, tensor<1x2x1024x128xf32>, tensor<1x2x1024x128xf32>, tensor<1x2x1024x128xf32>, tensor<1x2x1024x128xf32>, tensor<1x2x1024x128xf32>, tensor<1x2x1024x128xf32>, tensor<1x2x1024x128xf32>, tensor<1x2x1024x128xf32>, tensor<1x2x1024x128xf32>, tensor<1x2x1024x128xf32>, tensor<1x2x1024x128xf32>, tensor<1x2x1024x128xf32>, tensor<1x2x1024x128xf32>, tensor<1x2x1024x128xf32>, tensor<1x2x1024x128xf32>, tensor<1x2x1024x128xf32>, tensor<1x2x1024x128xf32>, tensor<1x1x151936xf32>
  }
}
