#map = affine_map<(d0, d1) -> (d0, d1)>
#map1 = affine_map<()[s0] -> (s0 * 151936)>
#map2 = affine_map<(d0, d1, d2) -> (d0, d1)>
#map3 = affine_map<(d0, d1, d2) -> (d0, d1, d2)>
#map4 = affine_map<(d0, d1) -> (d0, 0)>
#map5 = affine_map<()[s0] -> (s0 * 64)>
#map6 = affine_map<(d0, d1, d2) -> (d0, 0, d2)>
#map7 = affine_map<(d0, d1, d2, d3) -> (d0, d1, 0, d3)>
#map8 = affine_map<(d0, d1, d2, d3) -> (d0, d1, d2, d3)>
#map9 = affine_map<(d0, d1, d2) -> (d0, d1, 0)>
#map10 = affine_map<()[s0] -> (s0 * 1536)>
#map11 = affine_map<()[s0] -> (s0 * 256)>
#map12 = affine_map<(d0, d1, d2, d3) -> (d0, 0, d2, d3)>
#map13 = affine_map<(d0, d1, d2, d3) -> (d0, 0, d2, 0)>
module {
  memref.global "private" constant @__constant_1x1x2x64xf32 : memref<1x1x2x64xf32> = dense<0.000000e+00> {alignment = 64 : i64}
  memref.global "private" constant @__constant_1x1x1xf32_1 : memref<1x1x1xf32> = dense<9.99999997E-7> {alignment = 64 : i64}
  memref.global "private" constant @__constant_1x1536xf32 : memref<1x1536xf32> = dense<0.000000e+00> {alignment = 64 : i64}
  memref.global "private" constant @__constant_1x256xf32 : memref<1x256xf32> = dense<0.000000e+00> {alignment = 64 : i64}
  memref.global "private" constant @__constant_1x2x1x128xi64 : memref<1x2x1x128xi64> = dense<0> {alignment = 64 : i64}
  memref.global "private" constant @__constant_1x8960xf32 : memref<1x8960xf32> = dense<0.000000e+00> {alignment = 64 : i64}
  memref.global "private" constant @__constant_1x151936xf32 : memref<1x151936xf32> = dense<0.000000e+00> {alignment = 64 : i64}
  memref.global "private" constant @__constant_1x1024xi64 : memref<1x1024xi64> = dense<"…"> {alignment = 64 : i64}
  memref.global "private" constant @__constant_1x1x1xf32 : memref<1x1x1xf32> = dense<6.51041686E-4> {alignment = 64 : i64}
  memref.global "private" constant @__constant_1x1x1x1024xf32_0 : memref<1x1x1x1024xf32> = dense<0.000000e+00> {alignment = 64 : i64}
  memref.global "private" constant @__constant_1x1x1x1024xf32 : memref<1x1x1x1024xf32> = dense<0xFF800000> {alignment = 64 : i64}
  func.func @subgraph0_decode(%arg0: memref<151936x1536xf32, strided<[?, ?], offset: ?>>, %arg1: memref<1x1xi64, strided<[?, ?], offset: ?>>, %arg2: memref<1xi64, strided<[?], offset: ?>>, %arg3: memref<1xi64, strided<[?], offset: ?>>, %arg4: memref<64xf32, strided<[?], offset: ?>>, %arg5: memref<1536xf32, strided<[?], offset: ?>>, %arg6: memref<1536xf32, strided<[?], offset: ?>>, %arg7: memref<1536x1536xf32, strided<[?, ?], offset: ?>>, %arg8: memref<256xf32, strided<[?], offset: ?>>, %arg9: memref<1536x256xf32, strided<[?, ?], offset: ?>>, %arg10: memref<256xf32, strided<[?], offset: ?>>, %arg11: memref<1536x256xf32, strided<[?, ?], offset: ?>>, %arg12: memref<1x2x1024x128xf32, strided<[?, ?, ?, ?], offset: ?>>, %arg13: memref<1x2x1024x128xf32, strided<[?, ?, ?, ?], offset: ?>>, %arg14: memref<1536x1536xf32, strided<[?, ?], offset: ?>>, %arg15: memref<1536xf32, strided<[?], offset: ?>>, %arg16: memref<1536x8960xf32, strided<[?, ?], offset: ?>>, %arg17: memref<1536x8960xf32, strided<[?, ?], offset: ?>>, %arg18: memref<8960x1536xf32, strided<[?, ?], offset: ?>>, %arg19: memref<1536xf32, strided<[?], offset: ?>>, %arg20: memref<1536xf32, strided<[?], offset: ?>>, %arg21: memref<1536x1536xf32, strided<[?, ?], offset: ?>>, %arg22: memref<256xf32, strided<[?], offset: ?>>, %arg23: memref<1536x256xf32, strided<[?, ?], offset: ?>>, %arg24: memref<256xf32, strided<[?], offset: ?>>, %arg25: memref<1536x256xf32, strided<[?, ?], offset: ?>>, %arg26: memref<1x2x1024x128xf32, strided<[?, ?, ?, ?], offset: ?>>, %arg27: memref<1x2x1024x128xf32, strided<[?, ?, ?, ?], offset: ?>>, %arg28: memref<1536x1536xf32, strided<[?, ?], offset: ?>>, %arg29: memref<1536xf32, strided<[?], offset: ?>>, %arg30: memref<1536x8960xf32, strided<[?, ?], offset: ?>>, %arg31: memref<1536x8960xf32, strided<[?, ?], offset: ?>>, %arg32: memref<8960x1536xf32, strided<[?, ?], offset: ?>>, %arg33: memref<1536xf32, strided<[?], offset: ?>>, %arg34: memref<1536xf32, strided<[?], offset: ?>>, %arg35: memref<1536x1536xf32, strided<[?, ?], offset: ?>>, %arg36: memref<256xf32, strided<[?], offset: ?>>, %arg37: memref<1536x256xf32, strided<[?, ?], offset: ?>>, %arg38: memref<256xf32, strided<[?], offset: ?>>, %arg39: memref<1536x256xf32, strided<[?, ?], offset: ?>>, %arg40: memref<1x2x1024x128xf32, strided<[?, ?, ?, ?], offset: ?>>, %arg41: memref<1x2x1024x128xf32, strided<[?, ?, ?, ?], offset: ?>>, %arg42: memref<1536x1536xf32, strided<[?, ?], offset: ?>>, %arg43: memref<1536xf32, strided<[?], offset: ?>>, %arg44: memref<1536x8960xf32, strided<[?, ?], offset: ?>>, %arg45: memref<1536x8960xf32, strided<[?, ?], offset: ?>>, %arg46: memref<8960x1536xf32, strided<[?, ?], offset: ?>>, %arg47: memref<1536xf32, strided<[?], offset: ?>>, %arg48: memref<1536xf32, strided<[?], offset: ?>>, %arg49: memref<1536x1536xf32, strided<[?, ?], offset: ?>>, %arg50: memref<256xf32, strided<[?], offset: ?>>, %arg51: memref<1536x256xf32, strided<[?, ?], offset: ?>>, %arg52: memref<256xf32, strided<[?], offset: ?>>, %arg53: memref<1536x256xf32, strided<[?, ?], offset: ?>>, %arg54: memref<1x2x1024x128xf32, strided<[?, ?, ?, ?], offset: ?>>, %arg55: memref<1x2x1024x128xf32, strided<[?, ?, ?, ?], offset: ?>>, %arg56: memref<1536x1536xf32, strided<[?, ?], offset: ?>>, %arg57: memref<1536xf32, strided<[?], offset: ?>>, %arg58: memref<1536x8960xf32, strided<[?, ?], offset: ?>>, %arg59: memref<1536x8960xf32, strided<[?, ?], offset: ?>>, %arg60: memref<8960x1536xf32, strided<[?, ?], offset: ?>>, %arg61: memref<1536xf32, strided<[?], offset: ?>>, %arg62: memref<1536xf32, strided<[?], offset: ?>>, %arg63: memref<1536x1536xf32, strided<[?, ?], offset: ?>>, %arg64: memref<256xf32, strided<[?], offset: ?>>, %arg65: memref<1536x256xf32, strided<[?, ?], offset: ?>>, %arg66: memref<256xf32, strided<[?], offset: ?>>, %arg67: memref<1536x256xf32, strided<[?, ?], offset: ?>>, %arg68: memref<1x2x1024x128xf32, strided<[?, ?, ?, ?], offset: ?>>, %arg69: memref<1x2x1024x128xf32, strided<[?, ?, ?, ?], offset: ?>>, %arg70: memref<1536x1536xf32, strided<[?, ?], offset: ?>>, %arg71: memref<1536xf32, strided<[?], offset: ?>>, %arg72: memref<1536x8960xf32, strided<[?, ?], offset: ?>>, %arg73: memref<1536x8960xf32, strided<[?, ?], offset: ?>>, %arg74: memref<8960x1536xf32, strided<[?, ?], offset: ?>>, %arg75: memref<1536xf32, strided<[?], offset: ?>>, %arg76: memref<1536xf32, strided<[?], offset: ?>>, %arg77: memref<1536x1536xf32, strided<[?, ?], offset: ?>>, %arg78: memref<256xf32, strided<[?], offset: ?>>, %arg79: memref<1536x256xf32, strided<[?, ?], offset: ?>>, %arg80: memref<256xf32, strided<[?], offset: ?>>, %arg81: memref<1536x256xf32, strided<[?, ?], offset: ?>>, %arg82: memref<1x2x1024x128xf32, strided<[?, ?, ?, ?], offset: ?>>, %arg83: memref<1x2x1024x128xf32, strided<[?, ?, ?, ?], offset: ?>>, %arg84: memref<1536x1536xf32, strided<[?, ?], offset: ?>>, %arg85: memref<1536xf32, strided<[?], offset: ?>>, %arg86: memref<1536x8960xf32, strided<[?, ?], offset: ?>>, %arg87: memref<1536x8960xf32, strided<[?, ?], offset: ?>>, %arg88: memref<8960x1536xf32, strided<[?, ?], offset: ?>>, %arg89: memref<1536xf32, strided<[?], offset: ?>>, %arg90: memref<1536xf32, strided<[?], offset: ?>>, %arg91: memref<1536x1536xf32, strided<[?, ?], offset: ?>>, %arg92: memref<256xf32, strided<[?], offset: ?>>, %arg93: memref<1536x256xf32, strided<[?, ?], offset: ?>>, %arg94: memref<256xf32, strided<[?], offset: ?>>, %arg95: memref<1536x256xf32, strided<[?, ?], offset: ?>>, %arg96: memref<1x2x1024x128xf32, strided<[?, ?, ?, ?], offset: ?>>, %arg97: memref<1x2x1024x128xf32, strided<[?, ?, ?, ?], offset: ?>>, %arg98: memref<1536x1536xf32, strided<[?, ?], offset: ?>>, %arg99: memref<1536xf32, strided<[?], offset: ?>>, %arg100: memref<1536x8960xf32, strided<[?, ?], offset: ?>>, %arg101: memref<1536x8960xf32, strided<[?, ?], offset: ?>>, %arg102: memref<8960x1536xf32, strided<[?, ?], offset: ?>>, %arg103: memref<1536xf32, strided<[?], offset: ?>>, %arg104: memref<1536xf32, strided<[?], offset: ?>>, %arg105: memref<1536x1536xf32, strided<[?, ?], offset: ?>>, %arg106: memref<256xf32, strided<[?], offset: ?>>, %arg107: memref<1536x256xf32, strided<[?, ?], offset: ?>>, %arg108: memref<256xf32, strided<[?], offset: ?>>, %arg109: memref<1536x256xf32, strided<[?, ?], offset: ?>>, %arg110: memref<1x2x1024x128xf32, strided<[?, ?, ?, ?], offset: ?>>, %arg111: memref<1x2x1024x128xf32, strided<[?, ?, ?, ?], offset: ?>>, %arg112: memref<1536x1536xf32, strided<[?, ?], offset: ?>>, %arg113: memref<1536xf32, strided<[?], offset: ?>>, %arg114: memref<1536x8960xf32, strided<[?, ?], offset: ?>>, %arg115: memref<1536x8960xf32, strided<[?, ?], offset: ?>>, %arg116: memref<8960x1536xf32, strided<[?, ?], offset: ?>>, %arg117: memref<1536xf32, strided<[?], offset: ?>>, %arg118: memref<1536xf32, strided<[?], offset: ?>>, %arg119: memref<1536x1536xf32, strided<[?, ?], offset: ?>>, %arg120: memref<256xf32, strided<[?], offset: ?>>, %arg121: memref<1536x256xf32, strided<[?, ?], offset: ?>>, %arg122: memref<256xf32, strided<[?], offset: ?>>, %arg123: memref<1536x256xf32, strided<[?, ?], offset: ?>>, %arg124: memref<1x2x1024x128xf32, strided<[?, ?, ?, ?], offset: ?>>, %arg125: memref<1x2x1024x128xf32, strided<[?, ?, ?, ?], offset: ?>>, %arg126: memref<1536x1536xf32, strided<[?, ?], offset: ?>>, %arg127: memref<1536xf32, strided<[?], offset: ?>>, %arg128: memref<1536x8960xf32, strided<[?, ?], offset: ?>>, %arg129: memref<1536x8960xf32, strided<[?, ?], offset: ?>>, %arg130: memref<8960x1536xf32, strided<[?, ?], offset: ?>>, %arg131: memref<1536xf32, strided<[?], offset: ?>>, %arg132: memref<1536xf32, strided<[?], offset: ?>>, %arg133: memref<1536x1536xf32, strided<[?, ?], offset: ?>>, %arg134: memref<256xf32, strided<[?], offset: ?>>, %arg135: memref<1536x256xf32, strided<[?, ?], offset: ?>>, %arg136: memref<256xf32, strided<[?], offset: ?>>, %arg137: memref<1536x256xf32, strided<[?, ?], offset: ?>>, %arg138: memref<1x2x1024x128xf32, strided<[?, ?, ?, ?], offset: ?>>, %arg139: memref<1x2x1024x128xf32, strided<[?, ?, ?, ?], offset: ?>>, %arg140: memref<1536x1536xf32, strided<[?, ?], offset: ?>>, %arg141: memref<1536xf32, strided<[?], offset: ?>>, %arg142: memref<1536x8960xf32, strided<[?, ?], offset: ?>>, %arg143: memref<1536x8960xf32, strided<[?, ?], offset: ?>>, %arg144: memref<8960x1536xf32, strided<[?, ?], offset: ?>>, %arg145: memref<1536xf32, strided<[?], offset: ?>>, %arg146: memref<1536xf32, strided<[?], offset: ?>>, %arg147: memref<1536x1536xf32, strided<[?, ?], offset: ?>>, %arg148: memref<256xf32, strided<[?], offset: ?>>, %arg149: memref<1536x256xf32, strided<[?, ?], offset: ?>>, %arg150: memref<256xf32, strided<[?], offset: ?>>, %arg151: memref<1536x256xf32, strided<[?, ?], offset: ?>>, %arg152: memref<1x2x1024x128xf32, strided<[?, ?, ?, ?], offset: ?>>, %arg153: memref<1x2x1024x128xf32, strided<[?, ?, ?, ?], offset: ?>>, %arg154: memref<1536x1536xf32, strided<[?, ?], offset: ?>>, %arg155: memref<1536xf32, strided<[?], offset: ?>>, %arg156: memref<1536x8960xf32, strided<[?, ?], offset: ?>>, %arg157: memref<1536x8960xf32, strided<[?, ?], offset: ?>>, %arg158: memref<8960x1536xf32, strided<[?, ?], offset: ?>>, %arg159: memref<1536xf32, strided<[?], offset: ?>>, %arg160: memref<1536xf32, strided<[?], offset: ?>>, %arg161: memref<1536x1536xf32, strided<[?, ?], offset: ?>>, %arg162: memref<256xf32, strided<[?], offset: ?>>, %arg163: memref<1536x256xf32, strided<[?, ?], offset: ?>>, %arg164: memref<256xf32, strided<[?], offset: ?>>, %arg165: memref<1536x256xf32, strided<[?, ?], offset: ?>>, %arg166: memref<1x2x1024x128xf32, strided<[?, ?, ?, ?], offset: ?>>, %arg167: memref<1x2x1024x128xf32, strided<[?, ?, ?, ?], offset: ?>>, %arg168: memref<1536x1536xf32, strided<[?, ?], offset: ?>>, %arg169: memref<1536xf32, strided<[?], offset: ?>>, %arg170: memref<1536x8960xf32, strided<[?, ?], offset: ?>>, %arg171: memref<1536x8960xf32, strided<[?, ?], offset: ?>>, %arg172: memref<8960x1536xf32, strided<[?, ?], offset: ?>>, %arg173: memref<1536xf32, strided<[?], offset: ?>>, %arg174: memref<1536xf32, strided<[?], offset: ?>>, %arg175: memref<1536x1536xf32, strided<[?, ?], offset: ?>>, %arg176: memref<256xf32, strided<[?], offset: ?>>, %arg177: memref<1536x256xf32, strided<[?, ?], offset: ?>>, %arg178: memref<256xf32, strided<[?], offset: ?>>, %arg179: memref<1536x256xf32, strided<[?, ?], offset: ?>>, %arg180: memref<1x2x1024x128xf32, strided<[?, ?, ?, ?], offset: ?>>, %arg181: memref<1x2x1024x128xf32, strided<[?, ?, ?, ?], offset: ?>>, %arg182: memref<1536x1536xf32, strided<[?, ?], offset: ?>>, %arg183: memref<1536xf32, strided<[?], offset: ?>>, %arg184: memref<1536x8960xf32, strided<[?, ?], offset: ?>>, %arg185: memref<1536x8960xf32, strided<[?, ?], offset: ?>>, %arg186: memref<8960x1536xf32, strided<[?, ?], offset: ?>>, %arg187: memref<1536xf32, strided<[?], offset: ?>>, %arg188: memref<1536xf32, strided<[?], offset: ?>>, %arg189: memref<1536x1536xf32, strided<[?, ?], offset: ?>>, %arg190: memref<256xf32, strided<[?], offset: ?>>, %arg191: memref<1536x256xf32, strided<[?, ?], offset: ?>>, %arg192: memref<256xf32, strided<[?], offset: ?>>, %arg193: memref<1536x256xf32, strided<[?, ?], offset: ?>>, %arg194: memref<1x2x1024x128xf32, strided<[?, ?, ?, ?], offset: ?>>, %arg195: memref<1x2x1024x128xf32, strided<[?, ?, ?, ?], offset: ?>>, %arg196: memref<1536x1536xf32, strided<[?, ?], offset: ?>>, %arg197: memref<1536xf32, strided<[?], offset: ?>>, %arg198: memref<1536x8960xf32, strided<[?, ?], offset: ?>>, %arg199: memref<1536x8960xf32, strided<[?, ?], offset: ?>>, %arg200: memref<8960x1536xf32, strided<[?, ?], offset: ?>>, %arg201: memref<1536xf32, strided<[?], offset: ?>>, %arg202: memref<1536xf32, strided<[?], offset: ?>>, %arg203: memref<1536x1536xf32, strided<[?, ?], offset: ?>>, %arg204: memref<256xf32, strided<[?], offset: ?>>, %arg205: memref<1536x256xf32, strided<[?, ?], offset: ?>>, %arg206: memref<256xf32, strided<[?], offset: ?>>, %arg207: memref<1536x256xf32, strided<[?, ?], offset: ?>>, %arg208: memref<1x2x1024x128xf32, strided<[?, ?, ?, ?], offset: ?>>, %arg209: memref<1x2x1024x128xf32, strided<[?, ?, ?, ?], offset: ?>>, %arg210: memref<1536x1536xf32, strided<[?, ?], offset: ?>>, %arg211: memref<1536xf32, strided<[?], offset: ?>>, %arg212: memref<1536x8960xf32, strided<[?, ?], offset: ?>>, %arg213: memref<1536x8960xf32, strided<[?, ?], offset: ?>>, %arg214: memref<8960x1536xf32, strided<[?, ?], offset: ?>>, %arg215: memref<1536xf32, strided<[?], offset: ?>>, %arg216: memref<1536xf32, strided<[?], offset: ?>>, %arg217: memref<1536x1536xf32, strided<[?, ?], offset: ?>>, %arg218: memref<256xf32, strided<[?], offset: ?>>, %arg219: memref<1536x256xf32, strided<[?, ?], offset: ?>>, %arg220: memref<256xf32, strided<[?], offset: ?>>, %arg221: memref<1536x256xf32, strided<[?, ?], offset: ?>>, %arg222: memref<1x2x1024x128xf32, strided<[?, ?, ?, ?], offset: ?>>, %arg223: memref<1x2x1024x128xf32, strided<[?, ?, ?, ?], offset: ?>>, %arg224: memref<1536x1536xf32, strided<[?, ?], offset: ?>>, %arg225: memref<1536xf32, strided<[?], offset: ?>>, %arg226: memref<1536x8960xf32, strided<[?, ?], offset: ?>>, %arg227: memref<1536x8960xf32, strided<[?, ?], offset: ?>>, %arg228: memref<8960x1536xf32, strided<[?, ?], offset: ?>>, %arg229: memref<1536xf32, strided<[?], offset: ?>>, %arg230: memref<1536xf32, strided<[?], offset: ?>>, %arg231: memref<1536x1536xf32, strided<[?, ?], offset: ?>>, %arg232: memref<256xf32, strided<[?], offset: ?>>, %arg233: memref<1536x256xf32, strided<[?, ?], offset: ?>>, %arg234: memref<256xf32, strided<[?], offset: ?>>, %arg235: memref<1536x256xf32, strided<[?, ?], offset: ?>>, %arg236: memref<1x2x1024x128xf32, strided<[?, ?, ?, ?], offset: ?>>, %arg237: memref<1x2x1024x128xf32, strided<[?, ?, ?, ?], offset: ?>>, %arg238: memref<1536x1536xf32, strided<[?, ?], offset: ?>>, %arg239: memref<1536xf32, strided<[?], offset: ?>>, %arg240: memref<1536x8960xf32, strided<[?, ?], offset: ?>>, %arg241: memref<1536x8960xf32, strided<[?, ?], offset: ?>>, %arg242: memref<8960x1536xf32, strided<[?, ?], offset: ?>>, %arg243: memref<1536xf32, strided<[?], offset: ?>>, %arg244: memref<1536xf32, strided<[?], offset: ?>>, %arg245: memref<1536x1536xf32, strided<[?, ?], offset: ?>>, %arg246: memref<256xf32, strided<[?], offset: ?>>, %arg247: memref<1536x256xf32, strided<[?, ?], offset: ?>>, %arg248: memref<256xf32, strided<[?], offset: ?>>, %arg249: memref<1536x256xf32, strided<[?, ?], offset: ?>>, %arg250: memref<1x2x1024x128xf32, strided<[?, ?, ?, ?], offset: ?>>, %arg251: memref<1x2x1024x128xf32, strided<[?, ?, ?, ?], offset: ?>>, %arg252: memref<1536x1536xf32, strided<[?, ?], offset: ?>>, %arg253: memref<1536xf32, strided<[?], offset: ?>>, %arg254: memref<1536x8960xf32, strided<[?, ?], offset: ?>>, %arg255: memref<1536x8960xf32, strided<[?, ?], offset: ?>>, %arg256: memref<8960x1536xf32, strided<[?, ?], offset: ?>>, %arg257: memref<1536xf32, strided<[?], offset: ?>>, %arg258: memref<1536xf32, strided<[?], offset: ?>>, %arg259: memref<1536x1536xf32, strided<[?, ?], offset: ?>>, %arg260: memref<256xf32, strided<[?], offset: ?>>, %arg261: memref<1536x256xf32, strided<[?, ?], offset: ?>>, %arg262: memref<256xf32, strided<[?], offset: ?>>, %arg263: memref<1536x256xf32, strided<[?, ?], offset: ?>>, %arg264: memref<1x2x1024x128xf32, strided<[?, ?, ?, ?], offset: ?>>, %arg265: memref<1x2x1024x128xf32, strided<[?, ?, ?, ?], offset: ?>>, %arg266: memref<1536x1536xf32, strided<[?, ?], offset: ?>>, %arg267: memref<1536xf32, strided<[?], offset: ?>>, %arg268: memref<1536x8960xf32, strided<[?, ?], offset: ?>>, %arg269: memref<1536x8960xf32, strided<[?, ?], offset: ?>>, %arg270: memref<8960x1536xf32, strided<[?, ?], offset: ?>>, %arg271: memref<1536xf32, strided<[?], offset: ?>>, %arg272: memref<1536xf32, strided<[?], offset: ?>>, %arg273: memref<1536x1536xf32, strided<[?, ?], offset: ?>>, %arg274: memref<256xf32, strided<[?], offset: ?>>, %arg275: memref<1536x256xf32, strided<[?, ?], offset: ?>>, %arg276: memref<256xf32, strided<[?], offset: ?>>, %arg277: memref<1536x256xf32, strided<[?, ?], offset: ?>>, %arg278: memref<1x2x1024x128xf32, strided<[?, ?, ?, ?], offset: ?>>, %arg279: memref<1x2x1024x128xf32, strided<[?, ?, ?, ?], offset: ?>>, %arg280: memref<1536x1536xf32, strided<[?, ?], offset: ?>>, %arg281: memref<1536xf32, strided<[?], offset: ?>>, %arg282: memref<1536x8960xf32, strided<[?, ?], offset: ?>>, %arg283: memref<1536x8960xf32, strided<[?, ?], offset: ?>>, %arg284: memref<8960x1536xf32, strided<[?, ?], offset: ?>>, %arg285: memref<1536xf32, strided<[?], offset: ?>>, %arg286: memref<1536xf32, strided<[?], offset: ?>>, %arg287: memref<1536x1536xf32, strided<[?, ?], offset: ?>>, %arg288: memref<256xf32, strided<[?], offset: ?>>, %arg289: memref<1536x256xf32, strided<[?, ?], offset: ?>>, %arg290: memref<256xf32, strided<[?], offset: ?>>, %arg291: memref<1536x256xf32, strided<[?, ?], offset: ?>>, %arg292: memref<1x2x1024x128xf32, strided<[?, ?, ?, ?], offset: ?>>, %arg293: memref<1x2x1024x128xf32, strided<[?, ?, ?, ?], offset: ?>>, %arg294: memref<1536x1536xf32, strided<[?, ?], offset: ?>>, %arg295: memref<1536xf32, strided<[?], offset: ?>>, %arg296: memref<1536x8960xf32, strided<[?, ?], offset: ?>>, %arg297: memref<1536x8960xf32, strided<[?, ?], offset: ?>>, %arg298: memref<8960x1536xf32, strided<[?, ?], offset: ?>>, %arg299: memref<1536xf32, strided<[?], offset: ?>>, %arg300: memref<1536xf32, strided<[?], offset: ?>>, %arg301: memref<1536x1536xf32, strided<[?, ?], offset: ?>>, %arg302: memref<256xf32, strided<[?], offset: ?>>, %arg303: memref<1536x256xf32, strided<[?, ?], offset: ?>>, %arg304: memref<256xf32, strided<[?], offset: ?>>, %arg305: memref<1536x256xf32, strided<[?, ?], offset: ?>>, %arg306: memref<1x2x1024x128xf32, strided<[?, ?, ?, ?], offset: ?>>, %arg307: memref<1x2x1024x128xf32, strided<[?, ?, ?, ?], offset: ?>>, %arg308: memref<1536x1536xf32, strided<[?, ?], offset: ?>>, %arg309: memref<1536xf32, strided<[?], offset: ?>>, %arg310: memref<1536x8960xf32, strided<[?, ?], offset: ?>>, %arg311: memref<1536x8960xf32, strided<[?, ?], offset: ?>>, %arg312: memref<8960x1536xf32, strided<[?, ?], offset: ?>>, %arg313: memref<1536xf32, strided<[?], offset: ?>>, %arg314: memref<1536xf32, strided<[?], offset: ?>>, %arg315: memref<1536x1536xf32, strided<[?, ?], offset: ?>>, %arg316: memref<256xf32, strided<[?], offset: ?>>, %arg317: memref<1536x256xf32, strided<[?, ?], offset: ?>>, %arg318: memref<256xf32, strided<[?], offset: ?>>, %arg319: memref<1536x256xf32, strided<[?, ?], offset: ?>>, %arg320: memref<1x2x1024x128xf32, strided<[?, ?, ?, ?], offset: ?>>, %arg321: memref<1x2x1024x128xf32, strided<[?, ?, ?, ?], offset: ?>>, %arg322: memref<1536x1536xf32, strided<[?, ?], offset: ?>>, %arg323: memref<1536xf32, strided<[?], offset: ?>>, %arg324: memref<1536x8960xf32, strided<[?, ?], offset: ?>>, %arg325: memref<1536x8960xf32, strided<[?, ?], offset: ?>>, %arg326: memref<8960x1536xf32, strided<[?, ?], offset: ?>>, %arg327: memref<1536xf32, strided<[?], offset: ?>>, %arg328: memref<1536xf32, strided<[?], offset: ?>>, %arg329: memref<1536x1536xf32, strided<[?, ?], offset: ?>>, %arg330: memref<256xf32, strided<[?], offset: ?>>, %arg331: memref<1536x256xf32, strided<[?, ?], offset: ?>>, %arg332: memref<256xf32, strided<[?], offset: ?>>, %arg333: memref<1536x256xf32, strided<[?, ?], offset: ?>>, %arg334: memref<1x2x1024x128xf32, strided<[?, ?, ?, ?], offset: ?>>, %arg335: memref<1x2x1024x128xf32, strided<[?, ?, ?, ?], offset: ?>>, %arg336: memref<1536x1536xf32, strided<[?, ?], offset: ?>>, %arg337: memref<1536xf32, strided<[?], offset: ?>>, %arg338: memref<1536x8960xf32, strided<[?, ?], offset: ?>>, %arg339: memref<1536x8960xf32, strided<[?, ?], offset: ?>>, %arg340: memref<8960x1536xf32, strided<[?, ?], offset: ?>>, %arg341: memref<1536xf32, strided<[?], offset: ?>>, %arg342: memref<1536xf32, strided<[?], offset: ?>>, %arg343: memref<1536x1536xf32, strided<[?, ?], offset: ?>>, %arg344: memref<256xf32, strided<[?], offset: ?>>, %arg345: memref<1536x256xf32, strided<[?, ?], offset: ?>>, %arg346: memref<256xf32, strided<[?], offset: ?>>, %arg347: memref<1536x256xf32, strided<[?, ?], offset: ?>>, %arg348: memref<1x2x1024x128xf32, strided<[?, ?, ?, ?], offset: ?>>, %arg349: memref<1x2x1024x128xf32, strided<[?, ?, ?, ?], offset: ?>>, %arg350: memref<1536x1536xf32, strided<[?, ?], offset: ?>>, %arg351: memref<1536xf32, strided<[?], offset: ?>>, %arg352: memref<1536x8960xf32, strided<[?, ?], offset: ?>>, %arg353: memref<1536x8960xf32, strided<[?, ?], offset: ?>>, %arg354: memref<8960x1536xf32, strided<[?, ?], offset: ?>>, %arg355: memref<1536xf32, strided<[?], offset: ?>>, %arg356: memref<1536xf32, strided<[?], offset: ?>>, %arg357: memref<1536x1536xf32, strided<[?, ?], offset: ?>>, %arg358: memref<256xf32, strided<[?], offset: ?>>, %arg359: memref<1536x256xf32, strided<[?, ?], offset: ?>>, %arg360: memref<256xf32, strided<[?], offset: ?>>, %arg361: memref<1536x256xf32, strided<[?, ?], offset: ?>>, %arg362: memref<1x2x1024x128xf32, strided<[?, ?, ?, ?], offset: ?>>, %arg363: memref<1x2x1024x128xf32, strided<[?, ?, ?, ?], offset: ?>>, %arg364: memref<1536x1536xf32, strided<[?, ?], offset: ?>>, %arg365: memref<1536xf32, strided<[?], offset: ?>>, %arg366: memref<1536x8960xf32, strided<[?, ?], offset: ?>>, %arg367: memref<1536x8960xf32, strided<[?, ?], offset: ?>>, %arg368: memref<8960x1536xf32, strided<[?, ?], offset: ?>>, %arg369: memref<1536xf32, strided<[?], offset: ?>>, %arg370: memref<1536xf32, strided<[?], offset: ?>>, %arg371: memref<1536x1536xf32, strided<[?, ?], offset: ?>>, %arg372: memref<256xf32, strided<[?], offset: ?>>, %arg373: memref<1536x256xf32, strided<[?, ?], offset: ?>>, %arg374: memref<256xf32, strided<[?], offset: ?>>, %arg375: memref<1536x256xf32, strided<[?, ?], offset: ?>>, %arg376: memref<1x2x1024x128xf32, strided<[?, ?, ?, ?], offset: ?>>, %arg377: memref<1x2x1024x128xf32, strided<[?, ?, ?, ?], offset: ?>>, %arg378: memref<1536x1536xf32, strided<[?, ?], offset: ?>>, %arg379: memref<1536xf32, strided<[?], offset: ?>>, %arg380: memref<1536x8960xf32, strided<[?, ?], offset: ?>>, %arg381: memref<1536x8960xf32, strided<[?, ?], offset: ?>>, %arg382: memref<8960x1536xf32, strided<[?, ?], offset: ?>>, %arg383: memref<1536xf32, strided<[?], offset: ?>>, %arg384: memref<1536xf32, strided<[?], offset: ?>>, %arg385: memref<1536x1536xf32, strided<[?, ?], offset: ?>>, %arg386: memref<256xf32, strided<[?], offset: ?>>, %arg387: memref<1536x256xf32, strided<[?, ?], offset: ?>>, %arg388: memref<256xf32, strided<[?], offset: ?>>, %arg389: memref<1536x256xf32, strided<[?, ?], offset: ?>>, %arg390: memref<1x2x1024x128xf32, strided<[?, ?, ?, ?], offset: ?>>, %arg391: memref<1x2x1024x128xf32, strided<[?, ?, ?, ?], offset: ?>>, %arg392: memref<1536x1536xf32, strided<[?, ?], offset: ?>>, %arg393: memref<1536xf32, strided<[?], offset: ?>>, %arg394: memref<1536x8960xf32, strided<[?, ?], offset: ?>>, %arg395: memref<1536x8960xf32, strided<[?, ?], offset: ?>>, %arg396: memref<8960x1536xf32, strided<[?, ?], offset: ?>>, %arg397: memref<1536xf32, strided<[?], offset: ?>>, %arg398: memref<1536x151936xf32, strided<[?, ?], offset: ?>>) -> (memref<1x2x1024x128xf32>, memref<1x2x1024x128xf32>, memref<1x2x1024x128xf32>, memref<1x2x1024x128xf32>, memref<1x2x1024x128xf32>, memref<1x2x1024x128xf32>, memref<1x2x1024x128xf32>, memref<1x2x1024x128xf32>, memref<1x2x1024x128xf32>, memref<1x2x1024x128xf32>, memref<1x2x1024x128xf32>, memref<1x2x1024x128xf32>, memref<1x2x1024x128xf32>, memref<1x2x1024x128xf32>, memref<1x2x1024x128xf32>, memref<1x2x1024x128xf32>, memref<1x2x1024x128xf32>, memref<1x2x1024x128xf32>, memref<1x2x1024x128xf32>, memref<1x2x1024x128xf32>, memref<1x2x1024x128xf32>, memref<1x2x1024x128xf32>, memref<1x2x1024x128xf32>, memref<1x2x1024x128xf32>, memref<1x2x1024x128xf32>, memref<1x2x1024x128xf32>, memref<1x2x1024x128xf32>, memref<1x2x1024x128xf32>, memref<1x2x1024x128xf32>, memref<1x2x1024x128xf32>, memref<1x2x1024x128xf32>, memref<1x2x1024x128xf32>, memref<1x2x1024x128xf32>, memref<1x2x1024x128xf32>, memref<1x2x1024x128xf32>, memref<1x2x1024x128xf32>, memref<1x2x1024x128xf32>, memref<1x2x1024x128xf32>, memref<1x2x1024x128xf32>, memref<1x2x1024x128xf32>, memref<1x2x1024x128xf32>, memref<1x2x1024x128xf32>, memref<1x2x1024x128xf32>, memref<1x2x1024x128xf32>, memref<1x2x1024x128xf32>, memref<1x2x1024x128xf32>, memref<1x2x1024x128xf32>, memref<1x2x1024x128xf32>, memref<1x2x1024x128xf32>, memref<1x2x1024x128xf32>, memref<1x2x1024x128xf32>, memref<1x2x1024x128xf32>, memref<1x2x1024x128xf32>, memref<1x2x1024x128xf32>, memref<1x2x1024x128xf32>, memref<1x2x1024x128xf32>, memref<1x1x151936xf32>) {
    %true = arith.constant true
    %c2_i32 = arith.constant 2 : i32
    %c0 = arith.constant 0 : index
    %c1 = arith.constant 1 : index
    %c2 = arith.constant 2 : index
    %c128 = arith.constant 128 : index
    %cst = arith.constant 0.000000e+00 : f32
    %cst_0 = arith.constant 1.000000e+00 : f32
    %cst_1 = arith.constant 0.0883883461 : f32
    %cst_2 = arith.constant -1.000000e+30 : f32
    %c6 = arith.constant 6 : index
    %cst_3 = arith.constant dense<0.000000e+00> : vector<16xf32>
    %0 = memref.get_global @__constant_1x1x1x1024xf32 : memref<1x1x1x1024xf32>
    %1 = memref.get_global @__constant_1x1x1x1024xf32_0 : memref<1x1x1x1024xf32>
    %2 = memref.get_global @__constant_1x1x1xf32 : memref<1x1x1xf32>
    %3 = memref.get_global @__constant_1x1024xi64 : memref<1x1024xi64>
    %4 = memref.get_global @__constant_1x151936xf32 : memref<1x151936xf32>
    %5 = memref.get_global @__constant_1x8960xf32 : memref<1x8960xf32>
    %6 = memref.get_global @__constant_1x2x1x128xi64 : memref<1x2x1x128xi64>
    %7 = memref.get_global @__constant_1x256xf32 : memref<1x256xf32>
    %8 = memref.get_global @__constant_1x1536xf32 : memref<1x1536xf32>
    %9 = memref.get_global @__constant_1x1x1xf32_1 : memref<1x1x1xf32>
    %10 = memref.get_global @__constant_1x1x2x64xf32 : memref<1x1x2x64xf32>
    %alloc = memref.alloc() {alignment = 64 : i64} : memref<1x1xi32>
    linalg.generic {indexing_maps = [#map, #map], iterator_types = ["parallel", "parallel"]} ins(%arg1 : memref<1x1xi64, strided<[?, ?], offset: ?>>) outs(%alloc : memref<1x1xi32>) {
    ^bb0(%in: i64, %out: i32):
      %211 = arith.trunci %in : i64 to i32
      linalg.yield %211 : i32
    }
    %base_buffer, %offset, %sizes:2, %strides:2 = memref.extract_strided_metadata %arg0 : memref<151936x1536xf32, strided<[?, ?], offset: ?>> -> memref<f32>, index, index, index, index, index
    %11 = affine.apply #map1()[%strides#0]
    %reinterpret_cast = memref.reinterpret_cast %base_buffer to offset: [%offset], sizes: [1, 151936, 1536], strides: [%11, %strides#0, %strides#1] : memref<f32> to memref<1x151936x1536xf32, strided<[?, ?, ?], offset: ?>>
    %alloc_4 = memref.alloc() {alignment = 64 : i64} : memref<1x1x1536xf32>
    linalg.generic {indexing_maps = [#map2, #map3], iterator_types = ["parallel", "parallel", "parallel"]} ins(%alloc : memref<1x1xi32>) outs(%alloc_4 : memref<1x1x1536xf32>) {
    ^bb0(%in: i32, %out: f32):
      %211 = arith.index_cast %in : i32 to index
      %212 = linalg.index 2 : index
      %213 = memref.load %reinterpret_cast[%c0, %211, %212] : memref<1x151936x1536xf32, strided<[?, ?, ?], offset: ?>>
      linalg.yield %213 : f32
    }
    %base_buffer_5, %offset_6, %sizes_7, %strides_8 = memref.extract_strided_metadata %arg3 : memref<1xi64, strided<[?], offset: ?>> -> memref<i64>, index, index, index
    %reinterpret_cast_9 = memref.reinterpret_cast %base_buffer_5 to offset: [%offset_6], sizes: [1, 1], strides: [%strides_8, %strides_8] : memref<i64> to memref<1x1xi64, strided<[?, ?], offset: ?>>
    %alloc_10 = memref.alloc() {alignment = 64 : i64} : memref<1x1024xi1>
    linalg.generic {indexing_maps = [#map4, #map, #map], iterator_types = ["parallel", "parallel"]} ins(%reinterpret_cast_9, %3 : memref<1x1xi64, strided<[?, ?], offset: ?>>, memref<1x1024xi64>) outs(%alloc_10 : memref<1x1024xi1>) {
    ^bb0(%in: i64, %in_3095: i64, %out: i1):
      %211 = arith.cmpi sge, %in, %in_3095 : i64
      linalg.yield %211 : i1
    }
    %base_buffer_11, %offset_12, %sizes_13, %strides_14 = memref.extract_strided_metadata %arg4 : memref<64xf32, strided<[?], offset: ?>> -> memref<f32>, index, index, index
    %12 = affine.apply #map5()[%strides_14]
    %reinterpret_cast_15 = memref.reinterpret_cast %base_buffer_11 to offset: [%offset_12], sizes: [1, 64, 1], strides: [%12, %strides_14, %strides_14] : memref<f32> to memref<1x64x1xf32, strided<[?, ?, ?], offset: ?>>
    %base_buffer_16, %offset_17, %sizes_18, %strides_19 = memref.extract_strided_metadata %arg3 : memref<1xi64, strided<[?], offset: ?>> -> memref<i64>, index, index, index
    %reinterpret_cast_20 = memref.reinterpret_cast %base_buffer_16 to offset: [%offset_17], sizes: [1, 1, 1], strides: [%strides_19, %strides_19, %strides_19] : memref<i64> to memref<1x1x1xi64, strided<[?, ?, ?], offset: ?>>
    %alloc_21 = memref.alloc() {alignment = 64 : i64} : memref<1x1x1xf32>
    linalg.generic {indexing_maps = [#map3, #map3], iterator_types = ["parallel", "parallel", "parallel"]} ins(%reinterpret_cast_20 : memref<1x1x1xi64, strided<[?, ?, ?], offset: ?>>) outs(%alloc_21 : memref<1x1x1xf32>) {
    ^bb0(%in: i64, %out: f32):
      %211 = arith.sitofp %in : i64 to f32
      linalg.yield %211 : f32
    }
    %alloc_22 = memref.alloc() {alignment = 64 : i64} : memref<1x64x1xf32>
    linalg.generic {indexing_maps = [#map3, #map6, #map3], iterator_types = ["parallel", "parallel", "parallel"]} ins(%reinterpret_cast_15, %alloc_21 : memref<1x64x1xf32, strided<[?, ?, ?], offset: ?>>, memref<1x1x1xf32>) outs(%alloc_22 : memref<1x64x1xf32>) {
    ^bb0(%in: f32, %in_3095: f32, %out: f32):
      %211 = arith.mulf %in, %in_3095 : f32
      linalg.yield %211 : f32
    }
    %reinterpret_cast_23 = memref.reinterpret_cast %alloc_22 to offset: [0], sizes: [1, 1, 1, 64], strides: [64, 64, 64, 1] : memref<1x64x1xf32> to memref<1x1x1x64xf32>
    %alloc_24 = memref.alloc() {alignment = 64 : i64} : memref<1x1x2x64xf32>
    linalg.generic {indexing_maps = [#map7, #map8, #map8], iterator_types = ["parallel", "parallel", "parallel", "parallel"]} ins(%reinterpret_cast_23, %10 : memref<1x1x1x64xf32>, memref<1x1x2x64xf32>) outs(%alloc_24 : memref<1x1x2x64xf32>) {
    ^bb0(%in: f32, %in_3095: f32, %out: f32):
      %211 = arith.addf %in, %in_3095 : f32
      linalg.yield %211 : f32
    }
    %reinterpret_cast_25 = memref.reinterpret_cast %alloc_24 to offset: [0], sizes: [1, 1, 128], strides: [128, 128, 1] : memref<1x1x2x64xf32> to memref<1x1x128xf32>
    %alloc_26 = memref.alloc() {alignment = 64 : i64} : memref<1x1x128xf32>
    linalg.generic {indexing_maps = [#map3, #map3], iterator_types = ["parallel", "parallel", "parallel"]} ins(%reinterpret_cast_25 : memref<1x1x128xf32>) outs(%alloc_26 : memref<1x1x128xf32>) {
    ^bb0(%in: f32, %out: f32):
      %211 = math.cos %in : f32
      linalg.yield %211 : f32
    }
    linalg.generic {indexing_maps = [#map3, #map3], iterator_types = ["parallel", "parallel", "parallel"]} ins(%reinterpret_cast_25 : memref<1x1x128xf32>) outs(%reinterpret_cast_25 : memref<1x1x128xf32>) {
    ^bb0(%in: f32, %out: f32):
      %211 = math.sin %in : f32
      linalg.yield %211 : f32
    }
    %alloc_27 = memref.alloc() {alignment = 64 : i64} : memref<1x1x1536xf32>
    linalg.generic {indexing_maps = [#map3, #map3], iterator_types = ["parallel", "parallel", "parallel"]} ins(%alloc_4 : memref<1x1x1536xf32>) outs(%alloc_27 : memref<1x1x1536xf32>) {
    ^bb0(%in: f32, %out: f32):
      %211 = math.fpowi %in, %c2_i32 : f32, i32
      linalg.yield %211 : f32
    }
    %alloc_28 = memref.alloc() {alignment = 64 : i64} : memref<1x1xf32>
    linalg.fill ins(%cst : f32) outs(%alloc_28 : memref<1x1xf32>)
    linalg.reduce ins(%alloc_27 : memref<1x1x1536xf32>) outs(%alloc_28 : memref<1x1xf32>) dimensions = [2]
      (%in: f32, %init: f32) {
        %211 = arith.addf %in, %init : f32
        linalg.yield %211 : f32
      }
    %reinterpret_cast_29 = memref.reinterpret_cast %alloc_28 to offset: [0], sizes: [1, 1, 1], strides: [1, 1, 1] : memref<1x1xf32> to memref<1x1x1xf32>
    %alloc_30 = memref.alloc() {alignment = 64 : i64} : memref<1x1x1xf32>
    linalg.generic {indexing_maps = [#map3, #map3, #map3], iterator_types = ["parallel", "parallel", "parallel"]} ins(%reinterpret_cast_29, %2 : memref<1x1x1xf32>, memref<1x1x1xf32>) outs(%alloc_30 : memref<1x1x1xf32>) {
    ^bb0(%in: f32, %in_3095: f32, %out: f32):
      %211 = arith.mulf %in, %in_3095 : f32
      linalg.yield %211 : f32
    }
    %alloc_31 = memref.alloc() {alignment = 64 : i64} : memref<1x1x1xf32>
    linalg.generic {indexing_maps = [#map3, #map3, #map3], iterator_types = ["parallel", "parallel", "parallel"]} ins(%alloc_30, %9 : memref<1x1x1xf32>, memref<1x1x1xf32>) outs(%alloc_31 : memref<1x1x1xf32>) {
    ^bb0(%in: f32, %in_3095: f32, %out: f32):
      %211 = arith.addf %in, %in_3095 : f32
      linalg.yield %211 : f32
    }
    %alloc_32 = memref.alloc() {alignment = 64 : i64} : memref<1x1x1xf32>
    linalg.generic {indexing_maps = [#map3, #map3], iterator_types = ["parallel", "parallel", "parallel"]} ins(%alloc_31 : memref<1x1x1xf32>) outs(%alloc_32 : memref<1x1x1xf32>) {
    ^bb0(%in: f32, %out: f32):
      %211 = math.rsqrt %in : f32
      linalg.yield %211 : f32
    }
    %alloc_33 = memref.alloc() {alignment = 64 : i64} : memref<1x1x1536xf32>
    linalg.generic {indexing_maps = [#map3, #map9, #map3], iterator_types = ["parallel", "parallel", "parallel"]} ins(%alloc_4, %alloc_32 : memref<1x1x1536xf32>, memref<1x1x1xf32>) outs(%alloc_33 : memref<1x1x1536xf32>) {
    ^bb0(%in: f32, %in_3095: f32, %out: f32):
      %211 = arith.mulf %in, %in_3095 : f32
      linalg.yield %211 : f32
    }
    %base_buffer_34, %offset_35, %sizes_36, %strides_37 = memref.extract_strided_metadata %arg5 : memref<1536xf32, strided<[?], offset: ?>> -> memref<f32>, index, index, index
    %13 = affine.apply #map10()[%strides_37]
    %14 = affine.apply #map10()[%strides_37]
    %reinterpret_cast_38 = memref.reinterpret_cast %base_buffer_34 to offset: [%offset_35], sizes: [1, 1, 1536], strides: [%13, %14, %strides_37] : memref<f32> to memref<1x1x1536xf32, strided<[?, ?, ?], offset: ?>>
    %alloc_39 = memref.alloc() {alignment = 64 : i64} : memref<1x1x1536xf32>
    linalg.generic {indexing_maps = [#map3, #map3, #map3], iterator_types = ["parallel", "parallel", "parallel"]} ins(%reinterpret_cast_38, %alloc_33 : memref<1x1x1536xf32, strided<[?, ?, ?], offset: ?>>, memref<1x1x1536xf32>) outs(%alloc_39 : memref<1x1x1536xf32>) {
    ^bb0(%in: f32, %in_3095: f32, %out: f32):
      %211 = arith.mulf %in, %in_3095 : f32
      linalg.yield %211 : f32
    }
    %reinterpret_cast_40 = memref.reinterpret_cast %alloc_39 to offset: [0], sizes: [1, 1536], strides: [1536, 1] : memref<1x1x1536xf32> to memref<1x1536xf32>
    %alloc_41 = memref.alloc() {alignment = 64 : i64} : memref<1x1536xf32>
    memref.copy %8, %alloc_41 : memref<1x1536xf32> to memref<1x1536xf32>
    linalg.matmul {cast = #linalg.type_fn<cast_signed>} ins(%reinterpret_cast_40, %arg7 : memref<1x1536xf32>, memref<1536x1536xf32, strided<[?, ?], offset: ?>>) outs(%alloc_41 : memref<1x1536xf32>)
    %base_buffer_42, %offset_43, %sizes_44, %strides_45 = memref.extract_strided_metadata %arg6 : memref<1536xf32, strided<[?], offset: ?>> -> memref<f32>, index, index, index
    %15 = affine.apply #map10()[%strides_45]
    %reinterpret_cast_46 = memref.reinterpret_cast %base_buffer_42 to offset: [%offset_43], sizes: [1, 1536], strides: [%15, %strides_45] : memref<f32> to memref<1x1536xf32, strided<[?, ?], offset: ?>>
    %alloc_47 = memref.alloc() {alignment = 64 : i64} : memref<1x1536xf32>
    linalg.generic {indexing_maps = [#map, #map, #map], iterator_types = ["parallel", "parallel"]} ins(%reinterpret_cast_46, %alloc_41 : memref<1x1536xf32, strided<[?, ?], offset: ?>>, memref<1x1536xf32>) outs(%alloc_47 : memref<1x1536xf32>) {
    ^bb0(%in: f32, %in_3095: f32, %out: f32):
      %211 = arith.addf %in, %in_3095 : f32
      linalg.yield %211 : f32
    }
    %reinterpret_cast_48 = memref.reinterpret_cast %alloc_47 to offset: [0], sizes: [1, 12, 1, 128], strides: [1536, 128, 128, 1] : memref<1x1536xf32> to memref<1x12x1x128xf32>
    %reinterpret_cast_49 = memref.reinterpret_cast %alloc_39 to offset: [0], sizes: [1, 1536], strides: [1536, 1] : memref<1x1x1536xf32> to memref<1x1536xf32>
    %alloc_50 = memref.alloc() {alignment = 64 : i64} : memref<1x256xf32>
    memref.copy %7, %alloc_50 : memref<1x256xf32> to memref<1x256xf32>
    linalg.matmul {cast = #linalg.type_fn<cast_signed>} ins(%reinterpret_cast_49, %arg9 : memref<1x1536xf32>, memref<1536x256xf32, strided<[?, ?], offset: ?>>) outs(%alloc_50 : memref<1x256xf32>)
    %base_buffer_51, %offset_52, %sizes_53, %strides_54 = memref.extract_strided_metadata %arg8 : memref<256xf32, strided<[?], offset: ?>> -> memref<f32>, index, index, index
    %16 = affine.apply #map11()[%strides_54]
    %reinterpret_cast_55 = memref.reinterpret_cast %base_buffer_51 to offset: [%offset_52], sizes: [1, 256], strides: [%16, %strides_54] : memref<f32> to memref<1x256xf32, strided<[?, ?], offset: ?>>
    %alloc_56 = memref.alloc() {alignment = 64 : i64} : memref<1x256xf32>
    linalg.generic {indexing_maps = [#map, #map, #map], iterator_types = ["parallel", "parallel"]} ins(%reinterpret_cast_55, %alloc_50 : memref<1x256xf32, strided<[?, ?], offset: ?>>, memref<1x256xf32>) outs(%alloc_56 : memref<1x256xf32>) {
    ^bb0(%in: f32, %in_3095: f32, %out: f32):
      %211 = arith.addf %in, %in_3095 : f32
      linalg.yield %211 : f32
    }
    %reinterpret_cast_57 = memref.reinterpret_cast %alloc_56 to offset: [0], sizes: [1, 2, 1, 128], strides: [256, 128, 128, 1] : memref<1x256xf32> to memref<1x2x1x128xf32>
    %reinterpret_cast_58 = memref.reinterpret_cast %alloc_39 to offset: [0], sizes: [1, 1536], strides: [1536, 1] : memref<1x1x1536xf32> to memref<1x1536xf32>
    %alloc_59 = memref.alloc() {alignment = 64 : i64} : memref<1x256xf32>
    memref.copy %7, %alloc_59 : memref<1x256xf32> to memref<1x256xf32>
    linalg.matmul {cast = #linalg.type_fn<cast_signed>} ins(%reinterpret_cast_58, %arg11 : memref<1x1536xf32>, memref<1536x256xf32, strided<[?, ?], offset: ?>>) outs(%alloc_59 : memref<1x256xf32>)
    %base_buffer_60, %offset_61, %sizes_62, %strides_63 = memref.extract_strided_metadata %arg10 : memref<256xf32, strided<[?], offset: ?>> -> memref<f32>, index, index, index
    %17 = affine.apply #map11()[%strides_63]
    %reinterpret_cast_64 = memref.reinterpret_cast %base_buffer_60 to offset: [%offset_61], sizes: [1, 256], strides: [%17, %strides_63] : memref<f32> to memref<1x256xf32, strided<[?, ?], offset: ?>>
    %alloc_65 = memref.alloc() {alignment = 64 : i64} : memref<1x256xf32>
    linalg.generic {indexing_maps = [#map, #map, #map], iterator_types = ["parallel", "parallel"]} ins(%reinterpret_cast_64, %alloc_59 : memref<1x256xf32, strided<[?, ?], offset: ?>>, memref<1x256xf32>) outs(%alloc_65 : memref<1x256xf32>) {
    ^bb0(%in: f32, %in_3095: f32, %out: f32):
      %211 = arith.addf %in, %in_3095 : f32
      linalg.yield %211 : f32
    }
    %reinterpret_cast_66 = memref.reinterpret_cast %alloc_65 to offset: [0], sizes: [1, 2, 1, 128], strides: [256, 128, 128, 1] : memref<1x256xf32> to memref<1x2x1x128xf32>
    %reinterpret_cast_67 = memref.reinterpret_cast %alloc_26 to offset: [0], sizes: [1, 1, 1, 128], strides: [128, 128, 128, 1] : memref<1x1x128xf32> to memref<1x1x1x128xf32>
    %reinterpret_cast_68 = memref.reinterpret_cast %alloc_24 to offset: [0], sizes: [1, 1, 1, 128], strides: [128, 128, 128, 1] : memref<1x1x2x64xf32> to memref<1x1x1x128xf32>
    %alloc_69 = memref.alloc() {alignment = 64 : i64} : memref<1x12x1x128xf32>
    linalg.generic {indexing_maps = [#map8, #map12, #map8], iterator_types = ["parallel", "parallel", "parallel", "parallel"]} ins(%reinterpret_cast_48, %reinterpret_cast_67 : memref<1x12x1x128xf32>, memref<1x1x1x128xf32>) outs(%alloc_69 : memref<1x12x1x128xf32>) {
    ^bb0(%in: f32, %in_3095: f32, %out: f32):
      %211 = arith.mulf %in, %in_3095 : f32
      linalg.yield %211 : f32
    }
    %reinterpret_cast_70 = memref.reinterpret_cast %alloc_47 to offset: [0], sizes: [1, 12, 1, 64], strides: [1536, 128, 128, 1] : memref<1x1536xf32> to memref<1x12x1x64xf32, strided<[1536, 128, 128, 1]>>
    %reinterpret_cast_71 = memref.reinterpret_cast %alloc_47 to offset: [64], sizes: [1, 12, 1, 64], strides: [1536, 128, 128, 1] : memref<1x1536xf32> to memref<1x12x1x64xf32, strided<[1536, 128, 128, 1], offset: 64>>
    %alloc_72 = memref.alloc() {alignment = 64 : i64} : memref<1x12x1x64xf32>
    linalg.generic {indexing_maps = [#map8, #map8], iterator_types = ["parallel", "parallel", "parallel", "parallel"]} ins(%reinterpret_cast_71 : memref<1x12x1x64xf32, strided<[1536, 128, 128, 1], offset: 64>>) outs(%alloc_72 : memref<1x12x1x64xf32>) {
    ^bb0(%in: f32, %out: f32):
      %211 = arith.negf %in : f32
      linalg.yield %211 : f32
    }
    %alloc_73 = memref.alloc() {alignment = 64 : i64} : memref<1x12x1x128xf32>
    %reinterpret_cast_74 = memref.reinterpret_cast %alloc_73 to offset: [0], sizes: [1, 12, 1, 64], strides: [1536, 128, 128, 1] : memref<1x12x1x128xf32> to memref<1x12x1x64xf32, strided<[1536, 128, 128, 1]>>
    memref.copy %alloc_72, %reinterpret_cast_74 : memref<1x12x1x64xf32> to memref<1x12x1x64xf32, strided<[1536, 128, 128, 1]>>
    %reinterpret_cast_75 = memref.reinterpret_cast %alloc_73 to offset: [64], sizes: [1, 12, 1, 64], strides: [1536, 128, 128, 1] : memref<1x12x1x128xf32> to memref<1x12x1x64xf32, strided<[1536, 128, 128, 1], offset: 64>>
    memref.copy %reinterpret_cast_70, %reinterpret_cast_75 : memref<1x12x1x64xf32, strided<[1536, 128, 128, 1]>> to memref<1x12x1x64xf32, strided<[1536, 128, 128, 1], offset: 64>>
    %alloc_76 = memref.alloc() {alignment = 64 : i64} : memref<1x12x1x128xf32>
    linalg.generic {indexing_maps = [#map8, #map12, #map8], iterator_types = ["parallel", "parallel", "parallel", "parallel"]} ins(%alloc_73, %reinterpret_cast_68 : memref<1x12x1x128xf32>, memref<1x1x1x128xf32>) outs(%alloc_76 : memref<1x12x1x128xf32>) {
    ^bb0(%in: f32, %in_3095: f32, %out: f32):
      %211 = arith.mulf %in, %in_3095 : f32
      linalg.yield %211 : f32
    }
    %alloc_77 = memref.alloc() {alignment = 64 : i64} : memref<1x12x1x128xf32>
    linalg.generic {indexing_maps = [#map8, #map8, #map8], iterator_types = ["parallel", "parallel", "parallel", "parallel"]} ins(%alloc_69, %alloc_76 : memref<1x12x1x128xf32>, memref<1x12x1x128xf32>) outs(%alloc_77 : memref<1x12x1x128xf32>) {
    ^bb0(%in: f32, %in_3095: f32, %out: f32):
      %211 = arith.addf %in, %in_3095 : f32
      linalg.yield %211 : f32
    }
    %alloc_78 = memref.alloc() {alignment = 64 : i64} : memref<1x2x1x128xf32>
    linalg.generic {indexing_maps = [#map8, #map12, #map8], iterator_types = ["parallel", "parallel", "parallel", "parallel"]} ins(%reinterpret_cast_57, %reinterpret_cast_67 : memref<1x2x1x128xf32>, memref<1x1x1x128xf32>) outs(%alloc_78 : memref<1x2x1x128xf32>) {
    ^bb0(%in: f32, %in_3095: f32, %out: f32):
      %211 = arith.mulf %in, %in_3095 : f32
      linalg.yield %211 : f32
    }
    %reinterpret_cast_79 = memref.reinterpret_cast %alloc_56 to offset: [0], sizes: [1, 2, 1, 64], strides: [256, 128, 128, 1] : memref<1x256xf32> to memref<1x2x1x64xf32, strided<[256, 128, 128, 1]>>
    %reinterpret_cast_80 = memref.reinterpret_cast %alloc_56 to offset: [64], sizes: [1, 2, 1, 64], strides: [256, 128, 128, 1] : memref<1x256xf32> to memref<1x2x1x64xf32, strided<[256, 128, 128, 1], offset: 64>>
    %alloc_81 = memref.alloc() {alignment = 64 : i64} : memref<1x2x1x64xf32>
    linalg.generic {indexing_maps = [#map8, #map8], iterator_types = ["parallel", "parallel", "parallel", "parallel"]} ins(%reinterpret_cast_80 : memref<1x2x1x64xf32, strided<[256, 128, 128, 1], offset: 64>>) outs(%alloc_81 : memref<1x2x1x64xf32>) {
    ^bb0(%in: f32, %out: f32):
      %211 = arith.negf %in : f32
      linalg.yield %211 : f32
    }
    %alloc_82 = memref.alloc() {alignment = 64 : i64} : memref<1x2x1x128xf32>
    %reinterpret_cast_83 = memref.reinterpret_cast %alloc_82 to offset: [0], sizes: [1, 2, 1, 64], strides: [256, 128, 128, 1] : memref<1x2x1x128xf32> to memref<1x2x1x64xf32, strided<[256, 128, 128, 1]>>
    memref.copy %alloc_81, %reinterpret_cast_83 : memref<1x2x1x64xf32> to memref<1x2x1x64xf32, strided<[256, 128, 128, 1]>>
    %reinterpret_cast_84 = memref.reinterpret_cast %alloc_82 to offset: [64], sizes: [1, 2, 1, 64], strides: [256, 128, 128, 1] : memref<1x2x1x128xf32> to memref<1x2x1x64xf32, strided<[256, 128, 128, 1], offset: 64>>
    memref.copy %reinterpret_cast_79, %reinterpret_cast_84 : memref<1x2x1x64xf32, strided<[256, 128, 128, 1]>> to memref<1x2x1x64xf32, strided<[256, 128, 128, 1], offset: 64>>
    %alloc_85 = memref.alloc() {alignment = 64 : i64} : memref<1x2x1x128xf32>
    linalg.generic {indexing_maps = [#map8, #map12, #map8], iterator_types = ["parallel", "parallel", "parallel", "parallel"]} ins(%alloc_82, %reinterpret_cast_68 : memref<1x2x1x128xf32>, memref<1x1x1x128xf32>) outs(%alloc_85 : memref<1x2x1x128xf32>) {
    ^bb0(%in: f32, %in_3095: f32, %out: f32):
      %211 = arith.mulf %in, %in_3095 : f32
      linalg.yield %211 : f32
    }
    %alloc_86 = memref.alloc() {alignment = 64 : i64} : memref<1x2x1x128xf32>
    linalg.generic {indexing_maps = [#map8, #map8, #map8], iterator_types = ["parallel", "parallel", "parallel", "parallel"]} ins(%alloc_78, %alloc_85 : memref<1x2x1x128xf32>, memref<1x2x1x128xf32>) outs(%alloc_86 : memref<1x2x1x128xf32>) {
    ^bb0(%in: f32, %in_3095: f32, %out: f32):
      %211 = arith.addf %in, %in_3095 : f32
      linalg.yield %211 : f32
    }
    %alloc_87 = memref.alloc() {alignment = 64 : i64} : memref<1x2x1024x128xf32>
    memref.copy %arg12, %alloc_87 : memref<1x2x1024x128xf32, strided<[?, ?, ?, ?], offset: ?>> to memref<1x2x1024x128xf32>
    %base_buffer_88, %offset_89, %sizes_90, %strides_91 = memref.extract_strided_metadata %arg3 : memref<1xi64, strided<[?], offset: ?>> -> memref<i64>, index, index, index
    %reinterpret_cast_92 = memref.reinterpret_cast %base_buffer_88 to offset: [%offset_89], sizes: [1, 1, 1, 1], strides: [%strides_91, %strides_91, %strides_91, %strides_91] : memref<i64> to memref<1x1x1x1xi64, strided<[?, ?, ?, ?], offset: ?>>
    %alloc_93 = memref.alloc() {alignment = 64 : i64} : memref<1x2x1x128xi64>
    linalg.generic {indexing_maps = [#map13, #map8, #map8], iterator_types = ["parallel", "parallel", "parallel", "parallel"]} ins(%reinterpret_cast_92, %6 : memref<1x1x1x1xi64, strided<[?, ?, ?, ?], offset: ?>>, memref<1x2x1x128xi64>) outs(%alloc_93 : memref<1x2x1x128xi64>) {
    ^bb0(%in: i64, %in_3095: i64, %out: i64):
      %211 = arith.addi %in, %in_3095 : i64
      linalg.yield %211 : i64
    }
    scf.for %arg399 = %c0 to %c1 step %c1 {
      scf.for %arg400 = %c0 to %c2 step %c1 {
        scf.for %arg401 = %c0 to %c1 step %c1 {
          scf.for %arg402 = %c0 to %c128 step %c1 {
            %211 = memref.load %alloc_86[%arg399, %arg400, %arg401, %arg402] : memref<1x2x1x128xf32>
            %212 = memref.load %alloc_93[%arg399, %arg400, %arg401, %arg402] : memref<1x2x1x128xi64>
            %213 = arith.index_cast %212 : i64 to index
            memref.store %211, %alloc_87[%arg399, %arg400, %213, %arg402] : memref<1x2x1024x128xf32>
          }
        }
      }
    }
    %alloc_94 = memref.alloc() {alignment = 64 : i64} : memref<1x2x1024x128xf32>
    memref.copy %arg13, %alloc_94 : memref<1x2x1024x128xf32, strided<[?, ?, ?, ?], offset: ?>> to memref<1x2x1024x128xf32>
    %base_buffer_95, %offset_96, %sizes_97, %strides_98 = memref.extract_strided_metadata %arg3 : memref<1xi64, strided<[?], offset: ?>> -> memref<i64>, index, index, index
    %reinterpret_cast_99 = memref.reinterpret_cast %base_buffer_95 to offset: [%offset_96], sizes: [1, 1, 1, 1], strides: [%strides_98, %strides_98, %strides_98, %strides_98] : memref<i64> to memref<1x1x1x1xi64, strided<[?, ?, ?, ?], offset: ?>>
    %alloc_100 = memref.alloc() {alignment = 64 : i64} : memref<1x2x1x128xi64>
    linalg.generic {indexing_maps = [#map13, #map8, #map8], iterator_types = ["parallel", "parallel", "parallel", "parallel"]} ins(%reinterpret_cast_99, %6 : memref<1x1x1x1xi64, strided<[?, ?, ?, ?], offset: ?>>, memref<1x2x1x128xi64>) outs(%alloc_100 : memref<1x2x1x128xi64>) {
    ^bb0(%in: i64, %in_3095: i64, %out: i64):
      %211 = arith.addi %in, %in_3095 : i64
      linalg.yield %211 : i64
    }
    scf.for %arg399 = %c0 to %c1 step %c1 {
      scf.for %arg400 = %c0 to %c2 step %c1 {
        scf.for %arg401 = %c0 to %c1 step %c1 {
          scf.for %arg402 = %c0 to %c128 step %c1 {
            %211 = memref.load %reinterpret_cast_66[%arg399, %arg400, %arg401, %arg402] : memref<1x2x1x128xf32>
            %212 = memref.load %alloc_100[%arg399, %arg400, %arg401, %arg402] : memref<1x2x1x128xi64>
            %213 = arith.index_cast %212 : i64 to index
            memref.store %211, %alloc_94[%arg399, %arg400, %213, %arg402] : memref<1x2x1024x128xf32>
          }
        }
      }
    }
    %reinterpret_cast_101 = memref.reinterpret_cast %alloc_10 to offset: [0], sizes: [1, 1, 1, 1024], strides: [1024, 1024, 1024, 1] : memref<1x1024xi1> to memref<1x1x1x1024xi1>
    %alloc_102 = memref.alloc() {alignment = 64 : i64} : memref<1x1x1x1024xf32>
    linalg.generic {indexing_maps = [#map8, #map8, #map8, #map8], iterator_types = ["parallel", "parallel", "parallel", "parallel"]} ins(%reinterpret_cast_101, %1, %0 : memref<1x1x1x1024xi1>, memref<1x1x1x1024xf32>, memref<1x1x1x1024xf32>) outs(%alloc_102 : memref<1x1x1x1024xf32>) {
    ^bb0(%in: i1, %in_3095: f32, %in_3096: f32, %out: f32):
      %211 = arith.select %in, %in_3095, %in_3096 : f32
      linalg.yield %211 : f32
    }
    %alloc_103 = memref.alloc() : memref<1x12x1x128xf32>
    %alloc_104 = memref.alloc() : memref<1x12x1xf32>
    %alloc_105 = memref.alloc() : memref<128xf32>
    affine.for %arg399 = 0 to 1 {
      affine.for %arg400 = 0 to 12 {
        %211 = arith.divsi %arg400, %c6 : index
        affine.for %arg401 = 0 to 1 {
          affine.for %arg402 = 0 to 128 {
            memref.store %cst, %alloc_105[%arg402] : memref<128xf32>
          }
          %212:2 = affine.for %arg402 = 0 to 1024 iter_args(%arg403 = %cst_2, %arg404 = %cst) -> (f32, f32) {
            %213 = affine.for %arg405 = 0 to 128 step 16 iter_args(%arg406 = %cst_3) -> (vector<16xf32>) {
              %228 = vector.load %alloc_77[%arg399, %arg400, %arg401, %arg405] : memref<1x12x1x128xf32>, vector<16xf32>
              %229 = vector.load %alloc_87[%arg399, %211, %arg402, %arg405] : memref<1x2x1024x128xf32>, vector<16xf32>
              %230 = vector.fma %228, %229, %arg406 : vector<16xf32>
              affine.yield %230 : vector<16xf32>
            }
            %214 = vector.reduction <add>, %213 : vector<16xf32> into f32
            %215 = arith.mulf %214, %cst_1 : f32
            %216 = memref.load %alloc_102[%arg399, %c0, %arg401, %arg402] : memref<1x1x1x1024xf32>
            %217 = arith.addf %215, %216 : f32
            %218 = arith.cmpf ogt, %217, %arg403 : f32
            %219 = arith.select %218, %217, %arg403 : f32
            %220 = arith.subf %arg403, %217 : f32
            %221 = math.exp %220 : f32
            %222 = arith.mulf %221, %arg404 : f32
            %223 = arith.addf %222, %cst_0 : f32
            %224 = arith.subf %217, %arg403 : f32
            %225 = math.exp %224 : f32
            %226 = arith.addf %arg404, %225 : f32
            %227 = arith.select %218, %223, %226 : f32
            affine.for %arg405 = 0 to 128 {
              %228 = memref.load %alloc_94[%arg399, %211, %arg402, %arg405] : memref<1x2x1024x128xf32>
              %229 = memref.load %alloc_105[%arg405] : memref<128xf32>
              %230 = arith.mulf %229, %221 : f32
              %231 = arith.addf %230, %228 : f32
              %232 = arith.mulf %225, %228 : f32
              %233 = arith.addf %232, %229 : f32
              %234 = arith.select %218, %231, %233 : f32
              memref.store %234, %alloc_105[%arg405] : memref<128xf32>
            }
            affine.yield %219, %227 : f32, f32
          }
          memref.store %212#1, %alloc_104[%arg399, %arg400, %arg401] : memref<1x12x1xf32>
          affine.for %arg402 = 0 to 128 {
            %213 = memref.load %alloc_105[%arg402] : memref<128xf32>
            %214 = arith.divf %213, %212#1 : f32
            memref.store %214, %alloc_103[%arg399, %arg400, %arg401, %arg402] : memref<1x12x1x128xf32>
          }
        }
      }
    }
    %reinterpret_cast_106 = memref.reinterpret_cast %alloc_103 to offset: [0], sizes: [1, 1536], strides: [1536, 1] : memref<1x12x1x128xf32> to memref<1x1536xf32>
    %alloc_107 = memref.alloc() {alignment = 64 : i64} : memref<1x1536xf32>
    memref.copy %8, %alloc_107 : memref<1x1536xf32> to memref<1x1536xf32>
    linalg.matmul {cast = #linalg.type_fn<cast_signed>} ins(%reinterpret_cast_106, %arg14 : memref<1x1536xf32>, memref<1536x1536xf32, strided<[?, ?], offset: ?>>) outs(%alloc_107 : memref<1x1536xf32>)
    %reinterpret_cast_108 = memref.reinterpret_cast %alloc_107 to offset: [0], sizes: [1, 1, 1536], strides: [1536, 1536, 1] : memref<1x1536xf32> to memref<1x1x1536xf32>
    %alloc_109 = memref.alloc() {alignment = 64 : i64} : memref<1x1x1536xf32>
    linalg.generic {indexing_maps = [#map3, #map3, #map3], iterator_types = ["parallel", "parallel", "parallel"]} ins(%alloc_4, %reinterpret_cast_108 : memref<1x1x1536xf32>, memref<1x1x1536xf32>) outs(%alloc_109 : memref<1x1x1536xf32>) {
    ^bb0(%in: f32, %in_3095: f32, %out: f32):
      %211 = arith.addf %in, %in_3095 : f32
      linalg.yield %211 : f32
    }
    %alloc_110 = memref.alloc() {alignment = 64 : i64} : memref<1x1x1536xf32>
    linalg.generic {indexing_maps = [#map3, #map3], iterator_types = ["parallel", "parallel", "parallel"]} ins(%alloc_109 : memref<1x1x1536xf32>) outs(%alloc_110 : memref<1x1x1536xf32>) {
    ^bb0(%in: f32, %out: f32):
      %211 = math.fpowi %in, %c2_i32 : f32, i32
      linalg.yield %211 : f32
    }
    %alloc_111 = memref.alloc() {alignment = 64 : i64} : memref<1x1xf32>
    linalg.fill ins(%cst : f32) outs(%alloc_111 : memref<1x1xf32>)
    linalg.reduce ins(%alloc_110 : memref<1x1x1536xf32>) outs(%alloc_111 : memref<1x1xf32>) dimensions = [2]
      (%in: f32, %init: f32) {
        %211 = arith.addf %in, %init : f32
        linalg.yield %211 : f32
      }
    %reinterpret_cast_112 = memref.reinterpret_cast %alloc_111 to offset: [0], sizes: [1, 1, 1], strides: [1, 1, 1] : memref<1x1xf32> to memref<1x1x1xf32>
    %alloc_113 = memref.alloc() {alignment = 64 : i64} : memref<1x1x1xf32>
    linalg.generic {indexing_maps = [#map3, #map3, #map3], iterator_types = ["parallel", "parallel", "parallel"]} ins(%reinterpret_cast_112, %2 : memref<1x1x1xf32>, memref<1x1x1xf32>) outs(%alloc_113 : memref<1x1x1xf32>) {
    ^bb0(%in: f32, %in_3095: f32, %out: f32):
      %211 = arith.mulf %in, %in_3095 : f32
      linalg.yield %211 : f32
    }
    %alloc_114 = memref.alloc() {alignment = 64 : i64} : memref<1x1x1xf32>
    linalg.generic {indexing_maps = [#map3, #map3, #map3], iterator_types = ["parallel", "parallel", "parallel"]} ins(%alloc_113, %9 : memref<1x1x1xf32>, memref<1x1x1xf32>) outs(%alloc_114 : memref<1x1x1xf32>) {
    ^bb0(%in: f32, %in_3095: f32, %out: f32):
      %211 = arith.addf %in, %in_3095 : f32
      linalg.yield %211 : f32
    }
    %alloc_115 = memref.alloc() {alignment = 64 : i64} : memref<1x1x1xf32>
    linalg.generic {indexing_maps = [#map3, #map3], iterator_types = ["parallel", "parallel", "parallel"]} ins(%alloc_114 : memref<1x1x1xf32>) outs(%alloc_115 : memref<1x1x1xf32>) {
    ^bb0(%in: f32, %out: f32):
      %211 = math.rsqrt %in : f32
      linalg.yield %211 : f32
    }
    %alloc_116 = memref.alloc() {alignment = 64 : i64} : memref<1x1x1536xf32>
    linalg.generic {indexing_maps = [#map3, #map9, #map3], iterator_types = ["parallel", "parallel", "parallel"]} ins(%alloc_109, %alloc_115 : memref<1x1x1536xf32>, memref<1x1x1xf32>) outs(%alloc_116 : memref<1x1x1536xf32>) {
    ^bb0(%in: f32, %in_3095: f32, %out: f32):
      %211 = arith.mulf %in, %in_3095 : f32
      linalg.yield %211 : f32
    }
    %base_buffer_117, %offset_118, %sizes_119, %strides_120 = memref.extract_strided_metadata %arg15 : memref<1536xf32, strided<[?], offset: ?>> -> memref<f32>, index, index, index
    %18 = affine.apply #map10()[%strides_120]
    %19 = affine.apply #map10()[%strides_120]
    %reinterpret_cast_121 = memref.reinterpret_cast %base_buffer_117 to offset: [%offset_118], sizes: [1, 1, 1536], strides: [%18, %19, %strides_120] : memref<f32> to memref<1x1x1536xf32, strided<[?, ?, ?], offset: ?>>
    %alloc_122 = memref.alloc() {alignment = 64 : i64} : memref<1x1x1536xf32>
    linalg.generic {indexing_maps = [#map3, #map3, #map3], iterator_types = ["parallel", "parallel", "parallel"]} ins(%reinterpret_cast_121, %alloc_116 : memref<1x1x1536xf32, strided<[?, ?, ?], offset: ?>>, memref<1x1x1536xf32>) outs(%alloc_122 : memref<1x1x1536xf32>) {
    ^bb0(%in: f32, %in_3095: f32, %out: f32):
      %211 = arith.mulf %in, %in_3095 : f32
      linalg.yield %211 : f32
    }
    %reinterpret_cast_123 = memref.reinterpret_cast %alloc_122 to offset: [0], sizes: [1, 1536], strides: [1536, 1] : memref<1x1x1536xf32> to memref<1x1536xf32>
    %alloc_124 = memref.alloc() {alignment = 64 : i64} : memref<1x8960xf32>
    memref.copy %5, %alloc_124 : memref<1x8960xf32> to memref<1x8960xf32>
    linalg.matmul {cast = #linalg.type_fn<cast_signed>} ins(%reinterpret_cast_123, %arg16 : memref<1x1536xf32>, memref<1536x8960xf32, strided<[?, ?], offset: ?>>) outs(%alloc_124 : memref<1x8960xf32>)
    %reinterpret_cast_125 = memref.reinterpret_cast %alloc_124 to offset: [0], sizes: [1, 1, 8960], strides: [8960, 8960, 1] : memref<1x8960xf32> to memref<1x1x8960xf32>
    %alloc_126 = memref.alloc() {alignment = 64 : i64} : memref<1x1x8960xf32>
    linalg.generic {indexing_maps = [#map3, #map3], iterator_types = ["parallel", "parallel", "parallel"]} ins(%reinterpret_cast_125 : memref<1x1x8960xf32>) outs(%alloc_126 : memref<1x1x8960xf32>) {
    ^bb0(%in: f32, %out: f32):
      %211 = arith.negf %in : f32
      %212 = math.exp %211 : f32
      %213 = arith.addf %212, %cst_0 : f32
      %214 = arith.divf %cst_0, %213 : f32
      linalg.yield %214 : f32
    }
    %alloc_127 = memref.alloc() {alignment = 64 : i64} : memref<1x1x8960xf32>
    linalg.generic {indexing_maps = [#map3, #map3, #map3], iterator_types = ["parallel", "parallel", "parallel"]} ins(%reinterpret_cast_125, %alloc_126 : memref<1x1x8960xf32>, memref<1x1x8960xf32>) outs(%alloc_127 : memref<1x1x8960xf32>) {
    ^bb0(%in: f32, %in_3095: f32, %out: f32):
      %211 = arith.mulf %in, %in_3095 : f32
      linalg.yield %211 : f32
    }
    %reinterpret_cast_128 = memref.reinterpret_cast %alloc_122 to offset: [0], sizes: [1, 1536], strides: [1536, 1] : memref<1x1x1536xf32> to memref<1x1536xf32>
    %alloc_129 = memref.alloc() {alignment = 64 : i64} : memref<1x8960xf32>
    memref.copy %5, %alloc_129 : memref<1x8960xf32> to memref<1x8960xf32>
    linalg.matmul {cast = #linalg.type_fn<cast_signed>} ins(%reinterpret_cast_128, %arg17 : memref<1x1536xf32>, memref<1536x8960xf32, strided<[?, ?], offset: ?>>) outs(%alloc_129 : memref<1x8960xf32>)
    %reinterpret_cast_130 = memref.reinterpret_cast %alloc_129 to offset: [0], sizes: [1, 1, 8960], strides: [8960, 8960, 1] : memref<1x8960xf32> to memref<1x1x8960xf32>
    %alloc_131 = memref.alloc() {alignment = 64 : i64} : memref<1x1x8960xf32>
    linalg.generic {indexing_maps = [#map3, #map3, #map3], iterator_types = ["parallel", "parallel", "parallel"]} ins(%alloc_127, %reinterpret_cast_130 : memref<1x1x8960xf32>, memref<1x1x8960xf32>) outs(%alloc_131 : memref<1x1x8960xf32>) {
    ^bb0(%in: f32, %in_3095: f32, %out: f32):
      %211 = arith.mulf %in, %in_3095 : f32
      linalg.yield %211 : f32
    }
    %reinterpret_cast_132 = memref.reinterpret_cast %alloc_131 to offset: [0], sizes: [1, 8960], strides: [8960, 1] : memref<1x1x8960xf32> to memref<1x8960xf32>
    %alloc_133 = memref.alloc() {alignment = 64 : i64} : memref<1x1536xf32>
    memref.copy %8, %alloc_133 : memref<1x1536xf32> to memref<1x1536xf32>
    linalg.matmul {cast = #linalg.type_fn<cast_signed>} ins(%reinterpret_cast_132, %arg18 : memref<1x8960xf32>, memref<8960x1536xf32, strided<[?, ?], offset: ?>>) outs(%alloc_133 : memref<1x1536xf32>)
    %reinterpret_cast_134 = memref.reinterpret_cast %alloc_133 to offset: [0], sizes: [1, 1, 1536], strides: [1536, 1536, 1] : memref<1x1536xf32> to memref<1x1x1536xf32>
    %alloc_135 = memref.alloc() {alignment = 64 : i64} : memref<1x1x1536xf32>
    linalg.generic {indexing_maps = [#map3, #map3, #map3], iterator_types = ["parallel", "parallel", "parallel"]} ins(%alloc_109, %reinterpret_cast_134 : memref<1x1x1536xf32>, memref<1x1x1536xf32>) outs(%alloc_135 : memref<1x1x1536xf32>) {
    ^bb0(%in: f32, %in_3095: f32, %out: f32):
      %211 = arith.addf %in, %in_3095 : f32
      linalg.yield %211 : f32
    }
    %alloc_136 = memref.alloc() {alignment = 64 : i64} : memref<1x1x1536xf32>
    linalg.generic {indexing_maps = [#map3, #map3], iterator_types = ["parallel", "parallel", "parallel"]} ins(%alloc_135 : memref<1x1x1536xf32>) outs(%alloc_136 : memref<1x1x1536xf32>) {
    ^bb0(%in: f32, %out: f32):
      %211 = math.fpowi %in, %c2_i32 : f32, i32
      linalg.yield %211 : f32
    }
    %alloc_137 = memref.alloc() {alignment = 64 : i64} : memref<1x1xf32>
    linalg.fill ins(%cst : f32) outs(%alloc_137 : memref<1x1xf32>)
    linalg.reduce ins(%alloc_136 : memref<1x1x1536xf32>) outs(%alloc_137 : memref<1x1xf32>) dimensions = [2]
      (%in: f32, %init: f32) {
        %211 = arith.addf %in, %init : f32
        linalg.yield %211 : f32
      }
    %reinterpret_cast_138 = memref.reinterpret_cast %alloc_137 to offset: [0], sizes: [1, 1, 1], strides: [1, 1, 1] : memref<1x1xf32> to memref<1x1x1xf32>
    %alloc_139 = memref.alloc() {alignment = 64 : i64} : memref<1x1x1xf32>
    linalg.generic {indexing_maps = [#map3, #map3, #map3], iterator_types = ["parallel", "parallel", "parallel"]} ins(%reinterpret_cast_138, %2 : memref<1x1x1xf32>, memref<1x1x1xf32>) outs(%alloc_139 : memref<1x1x1xf32>) {
    ^bb0(%in: f32, %in_3095: f32, %out: f32):
      %211 = arith.mulf %in, %in_3095 : f32
      linalg.yield %211 : f32
    }
    %alloc_140 = memref.alloc() {alignment = 64 : i64} : memref<1x1x1xf32>
    linalg.generic {indexing_maps = [#map3, #map3, #map3], iterator_types = ["parallel", "parallel", "parallel"]} ins(%alloc_139, %9 : memref<1x1x1xf32>, memref<1x1x1xf32>) outs(%alloc_140 : memref<1x1x1xf32>) {
    ^bb0(%in: f32, %in_3095: f32, %out: f32):
      %211 = arith.addf %in, %in_3095 : f32
      linalg.yield %211 : f32
    }
    %alloc_141 = memref.alloc() {alignment = 64 : i64} : memref<1x1x1xf32>
    linalg.generic {indexing_maps = [#map3, #map3], iterator_types = ["parallel", "parallel", "parallel"]} ins(%alloc_140 : memref<1x1x1xf32>) outs(%alloc_141 : memref<1x1x1xf32>) {
    ^bb0(%in: f32, %out: f32):
      %211 = math.rsqrt %in : f32
      linalg.yield %211 : f32
    }
    %alloc_142 = memref.alloc() {alignment = 64 : i64} : memref<1x1x1536xf32>
    linalg.generic {indexing_maps = [#map3, #map9, #map3], iterator_types = ["parallel", "parallel", "parallel"]} ins(%alloc_135, %alloc_141 : memref<1x1x1536xf32>, memref<1x1x1xf32>) outs(%alloc_142 : memref<1x1x1536xf32>) {
    ^bb0(%in: f32, %in_3095: f32, %out: f32):
      %211 = arith.mulf %in, %in_3095 : f32
      linalg.yield %211 : f32
    }
    %base_buffer_143, %offset_144, %sizes_145, %strides_146 = memref.extract_strided_metadata %arg19 : memref<1536xf32, strided<[?], offset: ?>> -> memref<f32>, index, index, index
    %20 = affine.apply #map10()[%strides_146]
    %21 = affine.apply #map10()[%strides_146]
    %reinterpret_cast_147 = memref.reinterpret_cast %base_buffer_143 to offset: [%offset_144], sizes: [1, 1, 1536], strides: [%20, %21, %strides_146] : memref<f32> to memref<1x1x1536xf32, strided<[?, ?, ?], offset: ?>>
    %alloc_148 = memref.alloc() {alignment = 64 : i64} : memref<1x1x1536xf32>
    linalg.generic {indexing_maps = [#map3, #map3, #map3], iterator_types = ["parallel", "parallel", "parallel"]} ins(%reinterpret_cast_147, %alloc_142 : memref<1x1x1536xf32, strided<[?, ?, ?], offset: ?>>, memref<1x1x1536xf32>) outs(%alloc_148 : memref<1x1x1536xf32>) {
    ^bb0(%in: f32, %in_3095: f32, %out: f32):
      %211 = arith.mulf %in, %in_3095 : f32
      linalg.yield %211 : f32
    }
    %reinterpret_cast_149 = memref.reinterpret_cast %alloc_148 to offset: [0], sizes: [1, 1536], strides: [1536, 1] : memref<1x1x1536xf32> to memref<1x1536xf32>
    %alloc_150 = memref.alloc() {alignment = 64 : i64} : memref<1x1536xf32>
    memref.copy %8, %alloc_150 : memref<1x1536xf32> to memref<1x1536xf32>
    linalg.matmul {cast = #linalg.type_fn<cast_signed>} ins(%reinterpret_cast_149, %arg21 : memref<1x1536xf32>, memref<1536x1536xf32, strided<[?, ?], offset: ?>>) outs(%alloc_150 : memref<1x1536xf32>)
    %base_buffer_151, %offset_152, %sizes_153, %strides_154 = memref.extract_strided_metadata %arg20 : memref<1536xf32, strided<[?], offset: ?>> -> memref<f32>, index, index, index
    %22 = affine.apply #map10()[%strides_154]
    %reinterpret_cast_155 = memref.reinterpret_cast %base_buffer_151 to offset: [%offset_152], sizes: [1, 1536], strides: [%22, %strides_154] : memref<f32> to memref<1x1536xf32, strided<[?, ?], offset: ?>>
    %alloc_156 = memref.alloc() {alignment = 64 : i64} : memref<1x1536xf32>
    linalg.generic {indexing_maps = [#map, #map, #map], iterator_types = ["parallel", "parallel"]} ins(%reinterpret_cast_155, %alloc_150 : memref<1x1536xf32, strided<[?, ?], offset: ?>>, memref<1x1536xf32>) outs(%alloc_156 : memref<1x1536xf32>) {
    ^bb0(%in: f32, %in_3095: f32, %out: f32):
      %211 = arith.addf %in, %in_3095 : f32
      linalg.yield %211 : f32
    }
    %reinterpret_cast_157 = memref.reinterpret_cast %alloc_156 to offset: [0], sizes: [1, 12, 1, 128], strides: [1536, 128, 128, 1] : memref<1x1536xf32> to memref<1x12x1x128xf32>
    %reinterpret_cast_158 = memref.reinterpret_cast %alloc_148 to offset: [0], sizes: [1, 1536], strides: [1536, 1] : memref<1x1x1536xf32> to memref<1x1536xf32>
    %alloc_159 = memref.alloc() {alignment = 64 : i64} : memref<1x256xf32>
    memref.copy %7, %alloc_159 : memref<1x256xf32> to memref<1x256xf32>
    linalg.matmul {cast = #linalg.type_fn<cast_signed>} ins(%reinterpret_cast_158, %arg23 : memref<1x1536xf32>, memref<1536x256xf32, strided<[?, ?], offset: ?>>) outs(%alloc_159 : memref<1x256xf32>)
    %base_buffer_160, %offset_161, %sizes_162, %strides_163 = memref.extract_strided_metadata %arg22 : memref<256xf32, strided<[?], offset: ?>> -> memref<f32>, index, index, index
    %23 = affine.apply #map11()[%strides_163]
    %reinterpret_cast_164 = memref.reinterpret_cast %base_buffer_160 to offset: [%offset_161], sizes: [1, 256], strides: [%23, %strides_163] : memref<f32> to memref<1x256xf32, strided<[?, ?], offset: ?>>
    %alloc_165 = memref.alloc() {alignment = 64 : i64} : memref<1x256xf32>
    linalg.generic {indexing_maps = [#map, #map, #map], iterator_types = ["parallel", "parallel"]} ins(%reinterpret_cast_164, %alloc_159 : memref<1x256xf32, strided<[?, ?], offset: ?>>, memref<1x256xf32>) outs(%alloc_165 : memref<1x256xf32>) {
    ^bb0(%in: f32, %in_3095: f32, %out: f32):
      %211 = arith.addf %in, %in_3095 : f32
      linalg.yield %211 : f32
    }
    %reinterpret_cast_166 = memref.reinterpret_cast %alloc_165 to offset: [0], sizes: [1, 2, 1, 128], strides: [256, 128, 128, 1] : memref<1x256xf32> to memref<1x2x1x128xf32>
    %reinterpret_cast_167 = memref.reinterpret_cast %alloc_148 to offset: [0], sizes: [1, 1536], strides: [1536, 1] : memref<1x1x1536xf32> to memref<1x1536xf32>
    %alloc_168 = memref.alloc() {alignment = 64 : i64} : memref<1x256xf32>
    memref.copy %7, %alloc_168 : memref<1x256xf32> to memref<1x256xf32>
    linalg.matmul {cast = #linalg.type_fn<cast_signed>} ins(%reinterpret_cast_167, %arg25 : memref<1x1536xf32>, memref<1536x256xf32, strided<[?, ?], offset: ?>>) outs(%alloc_168 : memref<1x256xf32>)
    %base_buffer_169, %offset_170, %sizes_171, %strides_172 = memref.extract_strided_metadata %arg24 : memref<256xf32, strided<[?], offset: ?>> -> memref<f32>, index, index, index
    %24 = affine.apply #map11()[%strides_172]
    %reinterpret_cast_173 = memref.reinterpret_cast %base_buffer_169 to offset: [%offset_170], sizes: [1, 256], strides: [%24, %strides_172] : memref<f32> to memref<1x256xf32, strided<[?, ?], offset: ?>>
    %alloc_174 = memref.alloc() {alignment = 64 : i64} : memref<1x256xf32>
    linalg.generic {indexing_maps = [#map, #map, #map], iterator_types = ["parallel", "parallel"]} ins(%reinterpret_cast_173, %alloc_168 : memref<1x256xf32, strided<[?, ?], offset: ?>>, memref<1x256xf32>) outs(%alloc_174 : memref<1x256xf32>) {
    ^bb0(%in: f32, %in_3095: f32, %out: f32):
      %211 = arith.addf %in, %in_3095 : f32
      linalg.yield %211 : f32
    }
    %reinterpret_cast_175 = memref.reinterpret_cast %alloc_174 to offset: [0], sizes: [1, 2, 1, 128], strides: [256, 128, 128, 1] : memref<1x256xf32> to memref<1x2x1x128xf32>
    %reinterpret_cast_176 = memref.reinterpret_cast %alloc_26 to offset: [0], sizes: [1, 1, 1, 128], strides: [128, 128, 128, 1] : memref<1x1x128xf32> to memref<1x1x1x128xf32>
    %reinterpret_cast_177 = memref.reinterpret_cast %alloc_24 to offset: [0], sizes: [1, 1, 1, 128], strides: [128, 128, 128, 1] : memref<1x1x2x64xf32> to memref<1x1x1x128xf32>
    %alloc_178 = memref.alloc() {alignment = 64 : i64} : memref<1x12x1x128xf32>
    linalg.generic {indexing_maps = [#map8, #map12, #map8], iterator_types = ["parallel", "parallel", "parallel", "parallel"]} ins(%reinterpret_cast_157, %reinterpret_cast_176 : memref<1x12x1x128xf32>, memref<1x1x1x128xf32>) outs(%alloc_178 : memref<1x12x1x128xf32>) {
    ^bb0(%in: f32, %in_3095: f32, %out: f32):
      %211 = arith.mulf %in, %in_3095 : f32
      linalg.yield %211 : f32
    }
    %reinterpret_cast_179 = memref.reinterpret_cast %alloc_156 to offset: [0], sizes: [1, 12, 1, 64], strides: [1536, 128, 128, 1] : memref<1x1536xf32> to memref<1x12x1x64xf32, strided<[1536, 128, 128, 1]>>
    %reinterpret_cast_180 = memref.reinterpret_cast %alloc_156 to offset: [64], sizes: [1, 12, 1, 64], strides: [1536, 128, 128, 1] : memref<1x1536xf32> to memref<1x12x1x64xf32, strided<[1536, 128, 128, 1], offset: 64>>
    %alloc_181 = memref.alloc() {alignment = 64 : i64} : memref<1x12x1x64xf32>
    linalg.generic {indexing_maps = [#map8, #map8], iterator_types = ["parallel", "parallel", "parallel", "parallel"]} ins(%reinterpret_cast_180 : memref<1x12x1x64xf32, strided<[1536, 128, 128, 1], offset: 64>>) outs(%alloc_181 : memref<1x12x1x64xf32>) {
    ^bb0(%in: f32, %out: f32):
      %211 = arith.negf %in : f32
      linalg.yield %211 : f32
    }
    %alloc_182 = memref.alloc() {alignment = 64 : i64} : memref<1x12x1x128xf32>
    %reinterpret_cast_183 = memref.reinterpret_cast %alloc_182 to offset: [0], sizes: [1, 12, 1, 64], strides: [1536, 128, 128, 1] : memref<1x12x1x128xf32> to memref<1x12x1x64xf32, strided<[1536, 128, 128, 1]>>
    memref.copy %alloc_181, %reinterpret_cast_183 : memref<1x12x1x64xf32> to memref<1x12x1x64xf32, strided<[1536, 128, 128, 1]>>
    %reinterpret_cast_184 = memref.reinterpret_cast %alloc_182 to offset: [64], sizes: [1, 12, 1, 64], strides: [1536, 128, 128, 1] : memref<1x12x1x128xf32> to memref<1x12x1x64xf32, strided<[1536, 128, 128, 1], offset: 64>>
    memref.copy %reinterpret_cast_179, %reinterpret_cast_184 : memref<1x12x1x64xf32, strided<[1536, 128, 128, 1]>> to memref<1x12x1x64xf32, strided<[1536, 128, 128, 1], offset: 64>>
    %alloc_185 = memref.alloc() {alignment = 64 : i64} : memref<1x12x1x128xf32>
    linalg.generic {indexing_maps = [#map8, #map12, #map8], iterator_types = ["parallel", "parallel", "parallel", "parallel"]} ins(%alloc_182, %reinterpret_cast_177 : memref<1x12x1x128xf32>, memref<1x1x1x128xf32>) outs(%alloc_185 : memref<1x12x1x128xf32>) {
    ^bb0(%in: f32, %in_3095: f32, %out: f32):
      %211 = arith.mulf %in, %in_3095 : f32
      linalg.yield %211 : f32
    }
    %alloc_186 = memref.alloc() {alignment = 64 : i64} : memref<1x12x1x128xf32>
    linalg.generic {indexing_maps = [#map8, #map8, #map8], iterator_types = ["parallel", "parallel", "parallel", "parallel"]} ins(%alloc_178, %alloc_185 : memref<1x12x1x128xf32>, memref<1x12x1x128xf32>) outs(%alloc_186 : memref<1x12x1x128xf32>) {
    ^bb0(%in: f32, %in_3095: f32, %out: f32):
      %211 = arith.addf %in, %in_3095 : f32
      linalg.yield %211 : f32
    }
    %alloc_187 = memref.alloc() {alignment = 64 : i64} : memref<1x2x1x128xf32>
    linalg.generic {indexing_maps = [#map8, #map12, #map8], iterator_types = ["parallel", "parallel", "parallel", "parallel"]} ins(%reinterpret_cast_166, %reinterpret_cast_176 : memref<1x2x1x128xf32>, memref<1x1x1x128xf32>) outs(%alloc_187 : memref<1x2x1x128xf32>) {
    ^bb0(%in: f32, %in_3095: f32, %out: f32):
      %211 = arith.mulf %in, %in_3095 : f32
      linalg.yield %211 : f32
    }
    %reinterpret_cast_188 = memref.reinterpret_cast %alloc_165 to offset: [0], sizes: [1, 2, 1, 64], strides: [256, 128, 128, 1] : memref<1x256xf32> to memref<1x2x1x64xf32, strided<[256, 128, 128, 1]>>
    %reinterpret_cast_189 = memref.reinterpret_cast %alloc_165 to offset: [64], sizes: [1, 2, 1, 64], strides: [256, 128, 128, 1] : memref<1x256xf32> to memref<1x2x1x64xf32, strided<[256, 128, 128, 1], offset: 64>>
    %alloc_190 = memref.alloc() {alignment = 64 : i64} : memref<1x2x1x64xf32>
    linalg.generic {indexing_maps = [#map8, #map8], iterator_types = ["parallel", "parallel", "parallel", "parallel"]} ins(%reinterpret_cast_189 : memref<1x2x1x64xf32, strided<[256, 128, 128, 1], offset: 64>>) outs(%alloc_190 : memref<1x2x1x64xf32>) {
    ^bb0(%in: f32, %out: f32):
      %211 = arith.negf %in : f32
      linalg.yield %211 : f32
    }
    %alloc_191 = memref.alloc() {alignment = 64 : i64} : memref<1x2x1x128xf32>
    %reinterpret_cast_192 = memref.reinterpret_cast %alloc_191 to offset: [0], sizes: [1, 2, 1, 64], strides: [256, 128, 128, 1] : memref<1x2x1x128xf32> to memref<1x2x1x64xf32, strided<[256, 128, 128, 1]>>
    memref.copy %alloc_190, %reinterpret_cast_192 : memref<1x2x1x64xf32> to memref<1x2x1x64xf32, strided<[256, 128, 128, 1]>>
    %reinterpret_cast_193 = memref.reinterpret_cast %alloc_191 to offset: [64], sizes: [1, 2, 1, 64], strides: [256, 128, 128, 1] : memref<1x2x1x128xf32> to memref<1x2x1x64xf32, strided<[256, 128, 128, 1], offset: 64>>
    memref.copy %reinterpret_cast_188, %reinterpret_cast_193 : memref<1x2x1x64xf32, strided<[256, 128, 128, 1]>> to memref<1x2x1x64xf32, strided<[256, 128, 128, 1], offset: 64>>
    %alloc_194 = memref.alloc() {alignment = 64 : i64} : memref<1x2x1x128xf32>
    linalg.generic {indexing_maps = [#map8, #map12, #map8], iterator_types = ["parallel", "parallel", "parallel", "parallel"]} ins(%alloc_191, %reinterpret_cast_177 : memref<1x2x1x128xf32>, memref<1x1x1x128xf32>) outs(%alloc_194 : memref<1x2x1x128xf32>) {
    ^bb0(%in: f32, %in_3095: f32, %out: f32):
      %211 = arith.mulf %in, %in_3095 : f32
      linalg.yield %211 : f32
    }
    %alloc_195 = memref.alloc() {alignment = 64 : i64} : memref<1x2x1x128xf32>
    linalg.generic {indexing_maps = [#map8, #map8, #map8], iterator_types = ["parallel", "parallel", "parallel", "parallel"]} ins(%alloc_187, %alloc_194 : memref<1x2x1x128xf32>, memref<1x2x1x128xf32>) outs(%alloc_195 : memref<1x2x1x128xf32>) {
    ^bb0(%in: f32, %in_3095: f32, %out: f32):
      %211 = arith.addf %in, %in_3095 : f32
      linalg.yield %211 : f32
    }
    %alloc_196 = memref.alloc() {alignment = 64 : i64} : memref<1x2x1024x128xf32>
    memref.copy %arg26, %alloc_196 : memref<1x2x1024x128xf32, strided<[?, ?, ?, ?], offset: ?>> to memref<1x2x1024x128xf32>
    %base_buffer_197, %offset_198, %sizes_199, %strides_200 = memref.extract_strided_metadata %arg3 : memref<1xi64, strided<[?], offset: ?>> -> memref<i64>, index, index, index
    %reinterpret_cast_201 = memref.reinterpret_cast %base_buffer_197 to offset: [%offset_198], sizes: [1, 1, 1, 1], strides: [%strides_200, %strides_200, %strides_200, %strides_200] : memref<i64> to memref<1x1x1x1xi64, strided<[?, ?, ?, ?], offset: ?>>
    %alloc_202 = memref.alloc() {alignment = 64 : i64} : memref<1x2x1x128xi64>
    linalg.generic {indexing_maps = [#map13, #map8, #map8], iterator_types = ["parallel", "parallel", "parallel", "parallel"]} ins(%reinterpret_cast_201, %6 : memref<1x1x1x1xi64, strided<[?, ?, ?, ?], offset: ?>>, memref<1x2x1x128xi64>) outs(%alloc_202 : memref<1x2x1x128xi64>) {
    ^bb0(%in: i64, %in_3095: i64, %out: i64):
      %211 = arith.addi %in, %in_3095 : i64
      linalg.yield %211 : i64
    }
    scf.for %arg399 = %c0 to %c1 step %c1 {
      scf.for %arg400 = %c0 to %c2 step %c1 {
        scf.for %arg401 = %c0 to %c1 step %c1 {
          scf.for %arg402 = %c0 to %c128 step %c1 {
            %211 = memref.load %alloc_195[%arg399, %arg400, %arg401, %arg402] : memref<1x2x1x128xf32>
            %212 = memref.load %alloc_202[%arg399, %arg400, %arg401, %arg402] : memref<1x2x1x128xi64>
            %213 = arith.index_cast %212 : i64 to index
            memref.store %211, %alloc_196[%arg399, %arg400, %213, %arg402] : memref<1x2x1024x128xf32>
          }
        }
      }
    }
    %alloc_203 = memref.alloc() {alignment = 64 : i64} : memref<1x2x1024x128xf32>
    memref.copy %arg27, %alloc_203 : memref<1x2x1024x128xf32, strided<[?, ?, ?, ?], offset: ?>> to memref<1x2x1024x128xf32>
    %base_buffer_204, %offset_205, %sizes_206, %strides_207 = memref.extract_strided_metadata %arg3 : memref<1xi64, strided<[?], offset: ?>> -> memref<i64>, index, index, index
    %reinterpret_cast_208 = memref.reinterpret_cast %base_buffer_204 to offset: [%offset_205], sizes: [1, 1, 1, 1], strides: [%strides_207, %strides_207, %strides_207, %strides_207] : memref<i64> to memref<1x1x1x1xi64, strided<[?, ?, ?, ?], offset: ?>>
    %alloc_209 = memref.alloc() {alignment = 64 : i64} : memref<1x2x1x128xi64>
    linalg.generic {indexing_maps = [#map13, #map8, #map8], iterator_types = ["parallel", "parallel", "parallel", "parallel"]} ins(%reinterpret_cast_208, %6 : memref<1x1x1x1xi64, strided<[?, ?, ?, ?], offset: ?>>, memref<1x2x1x128xi64>) outs(%alloc_209 : memref<1x2x1x128xi64>) {
    ^bb0(%in: i64, %in_3095: i64, %out: i64):
      %211 = arith.addi %in, %in_3095 : i64
      linalg.yield %211 : i64
    }
    scf.for %arg399 = %c0 to %c1 step %c1 {
      scf.for %arg400 = %c0 to %c2 step %c1 {
        scf.for %arg401 = %c0 to %c1 step %c1 {
          scf.for %arg402 = %c0 to %c128 step %c1 {
            %211 = memref.load %reinterpret_cast_175[%arg399, %arg400, %arg401, %arg402] : memref<1x2x1x128xf32>
            %212 = memref.load %alloc_209[%arg399, %arg400, %arg401, %arg402] : memref<1x2x1x128xi64>
            %213 = arith.index_cast %212 : i64 to index
            memref.store %211, %alloc_203[%arg399, %arg400, %213, %arg402] : memref<1x2x1024x128xf32>
          }
        }
      }
    }
    %reinterpret_cast_210 = memref.reinterpret_cast %alloc_10 to offset: [0], sizes: [1, 1, 1, 1024], strides: [1024, 1024, 1024, 1] : memref<1x1024xi1> to memref<1x1x1x1024xi1>
    %alloc_211 = memref.alloc() {alignment = 64 : i64} : memref<1x1x1x1024xf32>
    linalg.generic {indexing_maps = [#map8, #map8, #map8, #map8], iterator_types = ["parallel", "parallel", "parallel", "parallel"]} ins(%reinterpret_cast_210, %1, %0 : memref<1x1x1x1024xi1>, memref<1x1x1x1024xf32>, memref<1x1x1x1024xf32>) outs(%alloc_211 : memref<1x1x1x1024xf32>) {
    ^bb0(%in: i1, %in_3095: f32, %in_3096: f32, %out: f32):
      %211 = arith.select %in, %in_3095, %in_3096 : f32
      linalg.yield %211 : f32
    }
    %alloc_212 = memref.alloc() : memref<1x12x1x128xf32>
    %alloc_213 = memref.alloc() : memref<1x12x1xf32>
    %alloc_214 = memref.alloc() : memref<128xf32>
    affine.for %arg399 = 0 to 1 {
      affine.for %arg400 = 0 to 12 {
        %211 = arith.divsi %arg400, %c6 : index
        affine.for %arg401 = 0 to 1 {
          affine.for %arg402 = 0 to 128 {
            memref.store %cst, %alloc_214[%arg402] : memref<128xf32>
          }
          %212:2 = affine.for %arg402 = 0 to 1024 iter_args(%arg403 = %cst_2, %arg404 = %cst) -> (f32, f32) {
            %213 = affine.for %arg405 = 0 to 128 step 16 iter_args(%arg406 = %cst_3) -> (vector<16xf32>) {
              %228 = vector.load %alloc_186[%arg399, %arg400, %arg401, %arg405] : memref<1x12x1x128xf32>, vector<16xf32>
              %229 = vector.load %alloc_196[%arg399, %211, %arg402, %arg405] : memref<1x2x1024x128xf32>, vector<16xf32>
              %230 = vector.fma %228, %229, %arg406 : vector<16xf32>
              affine.yield %230 : vector<16xf32>
            }
            %214 = vector.reduction <add>, %213 : vector<16xf32> into f32
            %215 = arith.mulf %214, %cst_1 : f32
            %216 = memref.load %alloc_211[%arg399, %c0, %arg401, %arg402] : memref<1x1x1x1024xf32>
            %217 = arith.addf %215, %216 : f32
            %218 = arith.cmpf ogt, %217, %arg403 : f32
            %219 = arith.select %218, %217, %arg403 : f32
            %220 = arith.subf %arg403, %217 : f32
            %221 = math.exp %220 : f32
            %222 = arith.mulf %221, %arg404 : f32
            %223 = arith.addf %222, %cst_0 : f32
            %224 = arith.subf %217, %arg403 : f32
            %225 = math.exp %224 : f32
            %226 = arith.addf %arg404, %225 : f32
            %227 = arith.select %218, %223, %226 : f32
            affine.for %arg405 = 0 to 128 {
              %228 = memref.load %alloc_203[%arg399, %211, %arg402, %arg405] : memref<1x2x1024x128xf32>
              %229 = memref.load %alloc_214[%arg405] : memref<128xf32>
              %230 = arith.mulf %229, %221 : f32
              %231 = arith.addf %230, %228 : f32
              %232 = arith.mulf %225, %228 : f32
              %233 = arith.addf %232, %229 : f32
              %234 = arith.select %218, %231, %233 : f32
              memref.store %234, %alloc_214[%arg405] : memref<128xf32>
            }
            affine.yield %219, %227 : f32, f32
          }
          memref.store %212#1, %alloc_213[%arg399, %arg400, %arg401] : memref<1x12x1xf32>
          affine.for %arg402 = 0 to 128 {
            %213 = memref.load %alloc_214[%arg402] : memref<128xf32>
            %214 = arith.divf %213, %212#1 : f32
            memref.store %214, %alloc_212[%arg399, %arg400, %arg401, %arg402] : memref<1x12x1x128xf32>
          }
        }
      }
    }
    %reinterpret_cast_215 = memref.reinterpret_cast %alloc_212 to offset: [0], sizes: [1, 1536], strides: [1536, 1] : memref<1x12x1x128xf32> to memref<1x1536xf32>
    %alloc_216 = memref.alloc() {alignment = 64 : i64} : memref<1x1536xf32>
    memref.copy %8, %alloc_216 : memref<1x1536xf32> to memref<1x1536xf32>
    linalg.matmul {cast = #linalg.type_fn<cast_signed>} ins(%reinterpret_cast_215, %arg28 : memref<1x1536xf32>, memref<1536x1536xf32, strided<[?, ?], offset: ?>>) outs(%alloc_216 : memref<1x1536xf32>)
    %reinterpret_cast_217 = memref.reinterpret_cast %alloc_216 to offset: [0], sizes: [1, 1, 1536], strides: [1536, 1536, 1] : memref<1x1536xf32> to memref<1x1x1536xf32>
    %alloc_218 = memref.alloc() {alignment = 64 : i64} : memref<1x1x1536xf32>
    linalg.generic {indexing_maps = [#map3, #map3, #map3], iterator_types = ["parallel", "parallel", "parallel"]} ins(%alloc_135, %reinterpret_cast_217 : memref<1x1x1536xf32>, memref<1x1x1536xf32>) outs(%alloc_218 : memref<1x1x1536xf32>) {
    ^bb0(%in: f32, %in_3095: f32, %out: f32):
      %211 = arith.addf %in, %in_3095 : f32
      linalg.yield %211 : f32
    }
    %alloc_219 = memref.alloc() {alignment = 64 : i64} : memref<1x1x1536xf32>
    linalg.generic {indexing_maps = [#map3, #map3], iterator_types = ["parallel", "parallel", "parallel"]} ins(%alloc_218 : memref<1x1x1536xf32>) outs(%alloc_219 : memref<1x1x1536xf32>) {
    ^bb0(%in: f32, %out: f32):
      %211 = math.fpowi %in, %c2_i32 : f32, i32
      linalg.yield %211 : f32
    }
    %alloc_220 = memref.alloc() {alignment = 64 : i64} : memref<1x1xf32>
    linalg.fill ins(%cst : f32) outs(%alloc_220 : memref<1x1xf32>)
    linalg.reduce ins(%alloc_219 : memref<1x1x1536xf32>) outs(%alloc_220 : memref<1x1xf32>) dimensions = [2]
      (%in: f32, %init: f32) {
        %211 = arith.addf %in, %init : f32
        linalg.yield %211 : f32
      }
    %reinterpret_cast_221 = memref.reinterpret_cast %alloc_220 to offset: [0], sizes: [1, 1, 1], strides: [1, 1, 1] : memref<1x1xf32> to memref<1x1x1xf32>
    %alloc_222 = memref.alloc() {alignment = 64 : i64} : memref<1x1x1xf32>
    linalg.generic {indexing_maps = [#map3, #map3, #map3], iterator_types = ["parallel", "parallel", "parallel"]} ins(%reinterpret_cast_221, %2 : memref<1x1x1xf32>, memref<1x1x1xf32>) outs(%alloc_222 : memref<1x1x1xf32>) {
    ^bb0(%in: f32, %in_3095: f32, %out: f32):
      %211 = arith.mulf %in, %in_3095 : f32
      linalg.yield %211 : f32
    }
    %alloc_223 = memref.alloc() {alignment = 64 : i64} : memref<1x1x1xf32>
    linalg.generic {indexing_maps = [#map3, #map3, #map3], iterator_types = ["parallel", "parallel", "parallel"]} ins(%alloc_222, %9 : memref<1x1x1xf32>, memref<1x1x1xf32>) outs(%alloc_223 : memref<1x1x1xf32>) {
    ^bb0(%in: f32, %in_3095: f32, %out: f32):
      %211 = arith.addf %in, %in_3095 : f32
      linalg.yield %211 : f32
    }
    %alloc_224 = memref.alloc() {alignment = 64 : i64} : memref<1x1x1xf32>
    linalg.generic {indexing_maps = [#map3, #map3], iterator_types = ["parallel", "parallel", "parallel"]} ins(%alloc_223 : memref<1x1x1xf32>) outs(%alloc_224 : memref<1x1x1xf32>) {
    ^bb0(%in: f32, %out: f32):
      %211 = math.rsqrt %in : f32
      linalg.yield %211 : f32
    }
    %alloc_225 = memref.alloc() {alignment = 64 : i64} : memref<1x1x1536xf32>
    linalg.generic {indexing_maps = [#map3, #map9, #map3], iterator_types = ["parallel", "parallel", "parallel"]} ins(%alloc_218, %alloc_224 : memref<1x1x1536xf32>, memref<1x1x1xf32>) outs(%alloc_225 : memref<1x1x1536xf32>) {
    ^bb0(%in: f32, %in_3095: f32, %out: f32):
      %211 = arith.mulf %in, %in_3095 : f32
      linalg.yield %211 : f32
    }
    %base_buffer_226, %offset_227, %sizes_228, %strides_229 = memref.extract_strided_metadata %arg29 : memref<1536xf32, strided<[?], offset: ?>> -> memref<f32>, index, index, index
    %25 = affine.apply #map10()[%strides_229]
    %26 = affine.apply #map10()[%strides_229]
    %reinterpret_cast_230 = memref.reinterpret_cast %base_buffer_226 to offset: [%offset_227], sizes: [1, 1, 1536], strides: [%25, %26, %strides_229] : memref<f32> to memref<1x1x1536xf32, strided<[?, ?, ?], offset: ?>>
    %alloc_231 = memref.alloc() {alignment = 64 : i64} : memref<1x1x1536xf32>
    linalg.generic {indexing_maps = [#map3, #map3, #map3], iterator_types = ["parallel", "parallel", "parallel"]} ins(%reinterpret_cast_230, %alloc_225 : memref<1x1x1536xf32, strided<[?, ?, ?], offset: ?>>, memref<1x1x1536xf32>) outs(%alloc_231 : memref<1x1x1536xf32>) {
    ^bb0(%in: f32, %in_3095: f32, %out: f32):
      %211 = arith.mulf %in, %in_3095 : f32
      linalg.yield %211 : f32
    }
    %reinterpret_cast_232 = memref.reinterpret_cast %alloc_231 to offset: [0], sizes: [1, 1536], strides: [1536, 1] : memref<1x1x1536xf32> to memref<1x1536xf32>
    %alloc_233 = memref.alloc() {alignment = 64 : i64} : memref<1x8960xf32>
    memref.copy %5, %alloc_233 : memref<1x8960xf32> to memref<1x8960xf32>
    linalg.matmul {cast = #linalg.type_fn<cast_signed>} ins(%reinterpret_cast_232, %arg30 : memref<1x1536xf32>, memref<1536x8960xf32, strided<[?, ?], offset: ?>>) outs(%alloc_233 : memref<1x8960xf32>)
    %reinterpret_cast_234 = memref.reinterpret_cast %alloc_233 to offset: [0], sizes: [1, 1, 8960], strides: [8960, 8960, 1] : memref<1x8960xf32> to memref<1x1x8960xf32>
    %alloc_235 = memref.alloc() {alignment = 64 : i64} : memref<1x1x8960xf32>
    linalg.generic {indexing_maps = [#map3, #map3], iterator_types = ["parallel", "parallel", "parallel"]} ins(%reinterpret_cast_234 : memref<1x1x8960xf32>) outs(%alloc_235 : memref<1x1x8960xf32>) {
    ^bb0(%in: f32, %out: f32):
      %211 = arith.negf %in : f32
      %212 = math.exp %211 : f32
      %213 = arith.addf %212, %cst_0 : f32
      %214 = arith.divf %cst_0, %213 : f32
      linalg.yield %214 : f32
    }
    %alloc_236 = memref.alloc() {alignment = 64 : i64} : memref<1x1x8960xf32>
    linalg.generic {indexing_maps = [#map3, #map3, #map3], iterator_types = ["parallel", "parallel", "parallel"]} ins(%reinterpret_cast_234, %alloc_235 : memref<1x1x8960xf32>, memref<1x1x8960xf32>) outs(%alloc_236 : memref<1x1x8960xf32>) {
    ^bb0(%in: f32, %in_3095: f32, %out: f32):
      %211 = arith.mulf %in, %in_3095 : f32
      linalg.yield %211 : f32
    }
    %reinterpret_cast_237 = memref.reinterpret_cast %alloc_231 to offset: [0], sizes: [1, 1536], strides: [1536, 1] : memref<1x1x1536xf32> to memref<1x1536xf32>
    %alloc_238 = memref.alloc() {alignment = 64 : i64} : memref<1x8960xf32>
    memref.copy %5, %alloc_238 : memref<1x8960xf32> to memref<1x8960xf32>
    linalg.matmul {cast = #linalg.type_fn<cast_signed>} ins(%reinterpret_cast_237, %arg31 : memref<1x1536xf32>, memref<1536x8960xf32, strided<[?, ?], offset: ?>>) outs(%alloc_238 : memref<1x8960xf32>)
    %reinterpret_cast_239 = memref.reinterpret_cast %alloc_238 to offset: [0], sizes: [1, 1, 8960], strides: [8960, 8960, 1] : memref<1x8960xf32> to memref<1x1x8960xf32>
    %alloc_240 = memref.alloc() {alignment = 64 : i64} : memref<1x1x8960xf32>
    linalg.generic {indexing_maps = [#map3, #map3, #map3], iterator_types = ["parallel", "parallel", "parallel"]} ins(%alloc_236, %reinterpret_cast_239 : memref<1x1x8960xf32>, memref<1x1x8960xf32>) outs(%alloc_240 : memref<1x1x8960xf32>) {
    ^bb0(%in: f32, %in_3095: f32, %out: f32):
      %211 = arith.mulf %in, %in_3095 : f32
      linalg.yield %211 : f32
    }
    %reinterpret_cast_241 = memref.reinterpret_cast %alloc_240 to offset: [0], sizes: [1, 8960], strides: [8960, 1] : memref<1x1x8960xf32> to memref<1x8960xf32>
    %alloc_242 = memref.alloc() {alignment = 64 : i64} : memref<1x1536xf32>
    memref.copy %8, %alloc_242 : memref<1x1536xf32> to memref<1x1536xf32>
    linalg.matmul {cast = #linalg.type_fn<cast_signed>} ins(%reinterpret_cast_241, %arg32 : memref<1x8960xf32>, memref<8960x1536xf32, strided<[?, ?], offset: ?>>) outs(%alloc_242 : memref<1x1536xf32>)
    %reinterpret_cast_243 = memref.reinterpret_cast %alloc_242 to offset: [0], sizes: [1, 1, 1536], strides: [1536, 1536, 1] : memref<1x1536xf32> to memref<1x1x1536xf32>
    %alloc_244 = memref.alloc() {alignment = 64 : i64} : memref<1x1x1536xf32>
    linalg.generic {indexing_maps = [#map3, #map3, #map3], iterator_types = ["parallel", "parallel", "parallel"]} ins(%alloc_218, %reinterpret_cast_243 : memref<1x1x1536xf32>, memref<1x1x1536xf32>) outs(%alloc_244 : memref<1x1x1536xf32>) {
    ^bb0(%in: f32, %in_3095: f32, %out: f32):
      %211 = arith.addf %in, %in_3095 : f32
      linalg.yield %211 : f32
    }
    %alloc_245 = memref.alloc() {alignment = 64 : i64} : memref<1x1x1536xf32>
    linalg.generic {indexing_maps = [#map3, #map3], iterator_types = ["parallel", "parallel", "parallel"]} ins(%alloc_244 : memref<1x1x1536xf32>) outs(%alloc_245 : memref<1x1x1536xf32>) {
    ^bb0(%in: f32, %out: f32):
      %211 = math.fpowi %in, %c2_i32 : f32, i32
      linalg.yield %211 : f32
    }
    %alloc_246 = memref.alloc() {alignment = 64 : i64} : memref<1x1xf32>
    linalg.fill ins(%cst : f32) outs(%alloc_246 : memref<1x1xf32>)
    linalg.reduce ins(%alloc_245 : memref<1x1x1536xf32>) outs(%alloc_246 : memref<1x1xf32>) dimensions = [2]
      (%in: f32, %init: f32) {
        %211 = arith.addf %in, %init : f32
        linalg.yield %211 : f32
      }
    %reinterpret_cast_247 = memref.reinterpret_cast %alloc_246 to offset: [0], sizes: [1, 1, 1], strides: [1, 1, 1] : memref<1x1xf32> to memref<1x1x1xf32>
    %alloc_248 = memref.alloc() {alignment = 64 : i64} : memref<1x1x1xf32>
    linalg.generic {indexing_maps = [#map3, #map3, #map3], iterator_types = ["parallel", "parallel", "parallel"]} ins(%reinterpret_cast_247, %2 : memref<1x1x1xf32>, memref<1x1x1xf32>) outs(%alloc_248 : memref<1x1x1xf32>) {
    ^bb0(%in: f32, %in_3095: f32, %out: f32):
      %211 = arith.mulf %in, %in_3095 : f32
      linalg.yield %211 : f32
    }
    %alloc_249 = memref.alloc() {alignment = 64 : i64} : memref<1x1x1xf32>
    linalg.generic {indexing_maps = [#map3, #map3, #map3], iterator_types = ["parallel", "parallel", "parallel"]} ins(%alloc_248, %9 : memref<1x1x1xf32>, memref<1x1x1xf32>) outs(%alloc_249 : memref<1x1x1xf32>) {
    ^bb0(%in: f32, %in_3095: f32, %out: f32):
      %211 = arith.addf %in, %in_3095 : f32
      linalg.yield %211 : f32
    }
    %alloc_250 = memref.alloc() {alignment = 64 : i64} : memref<1x1x1xf32>
    linalg.generic {indexing_maps = [#map3, #map3], iterator_types = ["parallel", "parallel", "parallel"]} ins(%alloc_249 : memref<1x1x1xf32>) outs(%alloc_250 : memref<1x1x1xf32>) {
    ^bb0(%in: f32, %out: f32):
      %211 = math.rsqrt %in : f32
      linalg.yield %211 : f32
    }
    %alloc_251 = memref.alloc() {alignment = 64 : i64} : memref<1x1x1536xf32>
    linalg.generic {indexing_maps = [#map3, #map9, #map3], iterator_types = ["parallel", "parallel", "parallel"]} ins(%alloc_244, %alloc_250 : memref<1x1x1536xf32>, memref<1x1x1xf32>) outs(%alloc_251 : memref<1x1x1536xf32>) {
    ^bb0(%in: f32, %in_3095: f32, %out: f32):
      %211 = arith.mulf %in, %in_3095 : f32
      linalg.yield %211 : f32
    }
    %base_buffer_252, %offset_253, %sizes_254, %strides_255 = memref.extract_strided_metadata %arg33 : memref<1536xf32, strided<[?], offset: ?>> -> memref<f32>, index, index, index
    %27 = affine.apply #map10()[%strides_255]
    %28 = affine.apply #map10()[%strides_255]
    %reinterpret_cast_256 = memref.reinterpret_cast %base_buffer_252 to offset: [%offset_253], sizes: [1, 1, 1536], strides: [%27, %28, %strides_255] : memref<f32> to memref<1x1x1536xf32, strided<[?, ?, ?], offset: ?>>
    %alloc_257 = memref.alloc() {alignment = 64 : i64} : memref<1x1x1536xf32>
    linalg.generic {indexing_maps = [#map3, #map3, #map3], iterator_types = ["parallel", "parallel", "parallel"]} ins(%reinterpret_cast_256, %alloc_251 : memref<1x1x1536xf32, strided<[?, ?, ?], offset: ?>>, memref<1x1x1536xf32>) outs(%alloc_257 : memref<1x1x1536xf32>) {
    ^bb0(%in: f32, %in_3095: f32, %out: f32):
      %211 = arith.mulf %in, %in_3095 : f32
      linalg.yield %211 : f32
    }
    %reinterpret_cast_258 = memref.reinterpret_cast %alloc_257 to offset: [0], sizes: [1, 1536], strides: [1536, 1] : memref<1x1x1536xf32> to memref<1x1536xf32>
    %alloc_259 = memref.alloc() {alignment = 64 : i64} : memref<1x1536xf32>
    memref.copy %8, %alloc_259 : memref<1x1536xf32> to memref<1x1536xf32>
    linalg.matmul {cast = #linalg.type_fn<cast_signed>} ins(%reinterpret_cast_258, %arg35 : memref<1x1536xf32>, memref<1536x1536xf32, strided<[?, ?], offset: ?>>) outs(%alloc_259 : memref<1x1536xf32>)
    %base_buffer_260, %offset_261, %sizes_262, %strides_263 = memref.extract_strided_metadata %arg34 : memref<1536xf32, strided<[?], offset: ?>> -> memref<f32>, index, index, index
    %29 = affine.apply #map10()[%strides_263]
    %reinterpret_cast_264 = memref.reinterpret_cast %base_buffer_260 to offset: [%offset_261], sizes: [1, 1536], strides: [%29, %strides_263] : memref<f32> to memref<1x1536xf32, strided<[?, ?], offset: ?>>
    %alloc_265 = memref.alloc() {alignment = 64 : i64} : memref<1x1536xf32>
    linalg.generic {indexing_maps = [#map, #map, #map], iterator_types = ["parallel", "parallel"]} ins(%reinterpret_cast_264, %alloc_259 : memref<1x1536xf32, strided<[?, ?], offset: ?>>, memref<1x1536xf32>) outs(%alloc_265 : memref<1x1536xf32>) {
    ^bb0(%in: f32, %in_3095: f32, %out: f32):
      %211 = arith.addf %in, %in_3095 : f32
      linalg.yield %211 : f32
    }
    %reinterpret_cast_266 = memref.reinterpret_cast %alloc_265 to offset: [0], sizes: [1, 12, 1, 128], strides: [1536, 128, 128, 1] : memref<1x1536xf32> to memref<1x12x1x128xf32>
    %reinterpret_cast_267 = memref.reinterpret_cast %alloc_257 to offset: [0], sizes: [1, 1536], strides: [1536, 1] : memref<1x1x1536xf32> to memref<1x1536xf32>
    %alloc_268 = memref.alloc() {alignment = 64 : i64} : memref<1x256xf32>
    memref.copy %7, %alloc_268 : memref<1x256xf32> to memref<1x256xf32>
    linalg.matmul {cast = #linalg.type_fn<cast_signed>} ins(%reinterpret_cast_267, %arg37 : memref<1x1536xf32>, memref<1536x256xf32, strided<[?, ?], offset: ?>>) outs(%alloc_268 : memref<1x256xf32>)
    %base_buffer_269, %offset_270, %sizes_271, %strides_272 = memref.extract_strided_metadata %arg36 : memref<256xf32, strided<[?], offset: ?>> -> memref<f32>, index, index, index
    %30 = affine.apply #map11()[%strides_272]
    %reinterpret_cast_273 = memref.reinterpret_cast %base_buffer_269 to offset: [%offset_270], sizes: [1, 256], strides: [%30, %strides_272] : memref<f32> to memref<1x256xf32, strided<[?, ?], offset: ?>>
    %alloc_274 = memref.alloc() {alignment = 64 : i64} : memref<1x256xf32>
    linalg.generic {indexing_maps = [#map, #map, #map], iterator_types = ["parallel", "parallel"]} ins(%reinterpret_cast_273, %alloc_268 : memref<1x256xf32, strided<[?, ?], offset: ?>>, memref<1x256xf32>) outs(%alloc_274 : memref<1x256xf32>) {
    ^bb0(%in: f32, %in_3095: f32, %out: f32):
      %211 = arith.addf %in, %in_3095 : f32
      linalg.yield %211 : f32
    }
    %reinterpret_cast_275 = memref.reinterpret_cast %alloc_274 to offset: [0], sizes: [1, 2, 1, 128], strides: [256, 128, 128, 1] : memref<1x256xf32> to memref<1x2x1x128xf32>
    %reinterpret_cast_276 = memref.reinterpret_cast %alloc_257 to offset: [0], sizes: [1, 1536], strides: [1536, 1] : memref<1x1x1536xf32> to memref<1x1536xf32>
    %alloc_277 = memref.alloc() {alignment = 64 : i64} : memref<1x256xf32>
    memref.copy %7, %alloc_277 : memref<1x256xf32> to memref<1x256xf32>
    linalg.matmul {cast = #linalg.type_fn<cast_signed>} ins(%reinterpret_cast_276, %arg39 : memref<1x1536xf32>, memref<1536x256xf32, strided<[?, ?], offset: ?>>) outs(%alloc_277 : memref<1x256xf32>)
    %base_buffer_278, %offset_279, %sizes_280, %strides_281 = memref.extract_strided_metadata %arg38 : memref<256xf32, strided<[?], offset: ?>> -> memref<f32>, index, index, index
    %31 = affine.apply #map11()[%strides_281]
    %reinterpret_cast_282 = memref.reinterpret_cast %base_buffer_278 to offset: [%offset_279], sizes: [1, 256], strides: [%31, %strides_281] : memref<f32> to memref<1x256xf32, strided<[?, ?], offset: ?>>
    %alloc_283 = memref.alloc() {alignment = 64 : i64} : memref<1x256xf32>
    linalg.generic {indexing_maps = [#map, #map, #map], iterator_types = ["parallel", "parallel"]} ins(%reinterpret_cast_282, %alloc_277 : memref<1x256xf32, strided<[?, ?], offset: ?>>, memref<1x256xf32>) outs(%alloc_283 : memref<1x256xf32>) {
    ^bb0(%in: f32, %in_3095: f32, %out: f32):
      %211 = arith.addf %in, %in_3095 : f32
      linalg.yield %211 : f32
    }
    %reinterpret_cast_284 = memref.reinterpret_cast %alloc_283 to offset: [0], sizes: [1, 2, 1, 128], strides: [256, 128, 128, 1] : memref<1x256xf32> to memref<1x2x1x128xf32>
    %reinterpret_cast_285 = memref.reinterpret_cast %alloc_26 to offset: [0], sizes: [1, 1, 1, 128], strides: [128, 128, 128, 1] : memref<1x1x128xf32> to memref<1x1x1x128xf32>
    %reinterpret_cast_286 = memref.reinterpret_cast %alloc_24 to offset: [0], sizes: [1, 1, 1, 128], strides: [128, 128, 128, 1] : memref<1x1x2x64xf32> to memref<1x1x1x128xf32>
    %alloc_287 = memref.alloc() {alignment = 64 : i64} : memref<1x12x1x128xf32>
    linalg.generic {indexing_maps = [#map8, #map12, #map8], iterator_types = ["parallel", "parallel", "parallel", "parallel"]} ins(%reinterpret_cast_266, %reinterpret_cast_285 : memref<1x12x1x128xf32>, memref<1x1x1x128xf32>) outs(%alloc_287 : memref<1x12x1x128xf32>) {
    ^bb0(%in: f32, %in_3095: f32, %out: f32):
      %211 = arith.mulf %in, %in_3095 : f32
      linalg.yield %211 : f32
    }
    %reinterpret_cast_288 = memref.reinterpret_cast %alloc_265 to offset: [0], sizes: [1, 12, 1, 64], strides: [1536, 128, 128, 1] : memref<1x1536xf32> to memref<1x12x1x64xf32, strided<[1536, 128, 128, 1]>>
    %reinterpret_cast_289 = memref.reinterpret_cast %alloc_265 to offset: [64], sizes: [1, 12, 1, 64], strides: [1536, 128, 128, 1] : memref<1x1536xf32> to memref<1x12x1x64xf32, strided<[1536, 128, 128, 1], offset: 64>>
    %alloc_290 = memref.alloc() {alignment = 64 : i64} : memref<1x12x1x64xf32>
    linalg.generic {indexing_maps = [#map8, #map8], iterator_types = ["parallel", "parallel", "parallel", "parallel"]} ins(%reinterpret_cast_289 : memref<1x12x1x64xf32, strided<[1536, 128, 128, 1], offset: 64>>) outs(%alloc_290 : memref<1x12x1x64xf32>) {
    ^bb0(%in: f32, %out: f32):
      %211 = arith.negf %in : f32
      linalg.yield %211 : f32
    }
    %alloc_291 = memref.alloc() {alignment = 64 : i64} : memref<1x12x1x128xf32>
    %reinterpret_cast_292 = memref.reinterpret_cast %alloc_291 to offset: [0], sizes: [1, 12, 1, 64], strides: [1536, 128, 128, 1] : memref<1x12x1x128xf32> to memref<1x12x1x64xf32, strided<[1536, 128, 128, 1]>>
    memref.copy %alloc_290, %reinterpret_cast_292 : memref<1x12x1x64xf32> to memref<1x12x1x64xf32, strided<[1536, 128, 128, 1]>>
    %reinterpret_cast_293 = memref.reinterpret_cast %alloc_291 to offset: [64], sizes: [1, 12, 1, 64], strides: [1536, 128, 128, 1] : memref<1x12x1x128xf32> to memref<1x12x1x64xf32, strided<[1536, 128, 128, 1], offset: 64>>
    memref.copy %reinterpret_cast_288, %reinterpret_cast_293 : memref<1x12x1x64xf32, strided<[1536, 128, 128, 1]>> to memref<1x12x1x64xf32, strided<[1536, 128, 128, 1], offset: 64>>
    %alloc_294 = memref.alloc() {alignment = 64 : i64} : memref<1x12x1x128xf32>
    linalg.generic {indexing_maps = [#map8, #map12, #map8], iterator_types = ["parallel", "parallel", "parallel", "parallel"]} ins(%alloc_291, %reinterpret_cast_286 : memref<1x12x1x128xf32>, memref<1x1x1x128xf32>) outs(%alloc_294 : memref<1x12x1x128xf32>) {
    ^bb0(%in: f32, %in_3095: f32, %out: f32):
      %211 = arith.mulf %in, %in_3095 : f32
      linalg.yield %211 : f32
    }
    %alloc_295 = memref.alloc() {alignment = 64 : i64} : memref<1x12x1x128xf32>
    linalg.generic {indexing_maps = [#map8, #map8, #map8], iterator_types = ["parallel", "parallel", "parallel", "parallel"]} ins(%alloc_287, %alloc_294 : memref<1x12x1x128xf32>, memref<1x12x1x128xf32>) outs(%alloc_295 : memref<1x12x1x128xf32>) {
    ^bb0(%in: f32, %in_3095: f32, %out: f32):
      %211 = arith.addf %in, %in_3095 : f32
      linalg.yield %211 : f32
    }
    %alloc_296 = memref.alloc() {alignment = 64 : i64} : memref<1x2x1x128xf32>
    linalg.generic {indexing_maps = [#map8, #map12, #map8], iterator_types = ["parallel", "parallel", "parallel", "parallel"]} ins(%reinterpret_cast_275, %reinterpret_cast_285 : memref<1x2x1x128xf32>, memref<1x1x1x128xf32>) outs(%alloc_296 : memref<1x2x1x128xf32>) {
    ^bb0(%in: f32, %in_3095: f32, %out: f32):
      %211 = arith.mulf %in, %in_3095 : f32
      linalg.yield %211 : f32
    }
    %reinterpret_cast_297 = memref.reinterpret_cast %alloc_274 to offset: [0], sizes: [1, 2, 1, 64], strides: [256, 128, 128, 1] : memref<1x256xf32> to memref<1x2x1x64xf32, strided<[256, 128, 128, 1]>>
    %reinterpret_cast_298 = memref.reinterpret_cast %alloc_274 to offset: [64], sizes: [1, 2, 1, 64], strides: [256, 128, 128, 1] : memref<1x256xf32> to memref<1x2x1x64xf32, strided<[256, 128, 128, 1], offset: 64>>
    %alloc_299 = memref.alloc() {alignment = 64 : i64} : memref<1x2x1x64xf32>
    linalg.generic {indexing_maps = [#map8, #map8], iterator_types = ["parallel", "parallel", "parallel", "parallel"]} ins(%reinterpret_cast_298 : memref<1x2x1x64xf32, strided<[256, 128, 128, 1], offset: 64>>) outs(%alloc_299 : memref<1x2x1x64xf32>) {
    ^bb0(%in: f32, %out: f32):
      %211 = arith.negf %in : f32
      linalg.yield %211 : f32
    }
    %alloc_300 = memref.alloc() {alignment = 64 : i64} : memref<1x2x1x128xf32>
    %reinterpret_cast_301 = memref.reinterpret_cast %alloc_300 to offset: [0], sizes: [1, 2, 1, 64], strides: [256, 128, 128, 1] : memref<1x2x1x128xf32> to memref<1x2x1x64xf32, strided<[256, 128, 128, 1]>>
    memref.copy %alloc_299, %reinterpret_cast_301 : memref<1x2x1x64xf32> to memref<1x2x1x64xf32, strided<[256, 128, 128, 1]>>
    %reinterpret_cast_302 = memref.reinterpret_cast %alloc_300 to offset: [64], sizes: [1, 2, 1, 64], strides: [256, 128, 128, 1] : memref<1x2x1x128xf32> to memref<1x2x1x64xf32, strided<[256, 128, 128, 1], offset: 64>>
    memref.copy %reinterpret_cast_297, %reinterpret_cast_302 : memref<1x2x1x64xf32, strided<[256, 128, 128, 1]>> to memref<1x2x1x64xf32, strided<[256, 128, 128, 1], offset: 64>>
    %alloc_303 = memref.alloc() {alignment = 64 : i64} : memref<1x2x1x128xf32>
    linalg.generic {indexing_maps = [#map8, #map12, #map8], iterator_types = ["parallel", "parallel", "parallel", "parallel"]} ins(%alloc_300, %reinterpret_cast_286 : memref<1x2x1x128xf32>, memref<1x1x1x128xf32>) outs(%alloc_303 : memref<1x2x1x128xf32>) {
    ^bb0(%in: f32, %in_3095: f32, %out: f32):
      %211 = arith.mulf %in, %in_3095 : f32
      linalg.yield %211 : f32
    }
    %alloc_304 = memref.alloc() {alignment = 64 : i64} : memref<1x2x1x128xf32>
    linalg.generic {indexing_maps = [#map8, #map8, #map8], iterator_types = ["parallel", "parallel", "parallel", "parallel"]} ins(%alloc_296, %alloc_303 : memref<1x2x1x128xf32>, memref<1x2x1x128xf32>) outs(%alloc_304 : memref<1x2x1x128xf32>) {
    ^bb0(%in: f32, %in_3095: f32, %out: f32):
      %211 = arith.addf %in, %in_3095 : f32
      linalg.yield %211 : f32
    }
    %alloc_305 = memref.alloc() {alignment = 64 : i64} : memref<1x2x1024x128xf32>
    memref.copy %arg40, %alloc_305 : memref<1x2x1024x128xf32, strided<[?, ?, ?, ?], offset: ?>> to memref<1x2x1024x128xf32>
    %base_buffer_306, %offset_307, %sizes_308, %strides_309 = memref.extract_strided_metadata %arg3 : memref<1xi64, strided<[?], offset: ?>> -> memref<i64>, index, index, index
    %reinterpret_cast_310 = memref.reinterpret_cast %base_buffer_306 to offset: [%offset_307], sizes: [1, 1, 1, 1], strides: [%strides_309, %strides_309, %strides_309, %strides_309] : memref<i64> to memref<1x1x1x1xi64, strided<[?, ?, ?, ?], offset: ?>>
    %alloc_311 = memref.alloc() {alignment = 64 : i64} : memref<1x2x1x128xi64>
    linalg.generic {indexing_maps = [#map13, #map8, #map8], iterator_types = ["parallel", "parallel", "parallel", "parallel"]} ins(%reinterpret_cast_310, %6 : memref<1x1x1x1xi64, strided<[?, ?, ?, ?], offset: ?>>, memref<1x2x1x128xi64>) outs(%alloc_311 : memref<1x2x1x128xi64>) {
    ^bb0(%in: i64, %in_3095: i64, %out: i64):
      %211 = arith.addi %in, %in_3095 : i64
      linalg.yield %211 : i64
    }
    scf.for %arg399 = %c0 to %c1 step %c1 {
      scf.for %arg400 = %c0 to %c2 step %c1 {
        scf.for %arg401 = %c0 to %c1 step %c1 {
          scf.for %arg402 = %c0 to %c128 step %c1 {
            %211 = memref.load %alloc_304[%arg399, %arg400, %arg401, %arg402] : memref<1x2x1x128xf32>
            %212 = memref.load %alloc_311[%arg399, %arg400, %arg401, %arg402] : memref<1x2x1x128xi64>
            %213 = arith.index_cast %212 : i64 to index
            memref.store %211, %alloc_305[%arg399, %arg400, %213, %arg402] : memref<1x2x1024x128xf32>
          }
        }
      }
    }
    %alloc_312 = memref.alloc() {alignment = 64 : i64} : memref<1x2x1024x128xf32>
    memref.copy %arg41, %alloc_312 : memref<1x2x1024x128xf32, strided<[?, ?, ?, ?], offset: ?>> to memref<1x2x1024x128xf32>
    %base_buffer_313, %offset_314, %sizes_315, %strides_316 = memref.extract_strided_metadata %arg3 : memref<1xi64, strided<[?], offset: ?>> -> memref<i64>, index, index, index
    %reinterpret_cast_317 = memref.reinterpret_cast %base_buffer_313 to offset: [%offset_314], sizes: [1, 1, 1, 1], strides: [%strides_316, %strides_316, %strides_316, %strides_316] : memref<i64> to memref<1x1x1x1xi64, strided<[?, ?, ?, ?], offset: ?>>
    %alloc_318 = memref.alloc() {alignment = 64 : i64} : memref<1x2x1x128xi64>
    linalg.generic {indexing_maps = [#map13, #map8, #map8], iterator_types = ["parallel", "parallel", "parallel", "parallel"]} ins(%reinterpret_cast_317, %6 : memref<1x1x1x1xi64, strided<[?, ?, ?, ?], offset: ?>>, memref<1x2x1x128xi64>) outs(%alloc_318 : memref<1x2x1x128xi64>) {
    ^bb0(%in: i64, %in_3095: i64, %out: i64):
      %211 = arith.addi %in, %in_3095 : i64
      linalg.yield %211 : i64
    }
    scf.for %arg399 = %c0 to %c1 step %c1 {
      scf.for %arg400 = %c0 to %c2 step %c1 {
        scf.for %arg401 = %c0 to %c1 step %c1 {
          scf.for %arg402 = %c0 to %c128 step %c1 {
            %211 = memref.load %reinterpret_cast_284[%arg399, %arg400, %arg401, %arg402] : memref<1x2x1x128xf32>
            %212 = memref.load %alloc_318[%arg399, %arg400, %arg401, %arg402] : memref<1x2x1x128xi64>
            %213 = arith.index_cast %212 : i64 to index
            memref.store %211, %alloc_312[%arg399, %arg400, %213, %arg402] : memref<1x2x1024x128xf32>
          }
        }
      }
    }
    %reinterpret_cast_319 = memref.reinterpret_cast %alloc_10 to offset: [0], sizes: [1, 1, 1, 1024], strides: [1024, 1024, 1024, 1] : memref<1x1024xi1> to memref<1x1x1x1024xi1>
    %alloc_320 = memref.alloc() {alignment = 64 : i64} : memref<1x1x1x1024xf32>
    linalg.generic {indexing_maps = [#map8, #map8, #map8, #map8], iterator_types = ["parallel", "parallel", "parallel", "parallel"]} ins(%reinterpret_cast_319, %1, %0 : memref<1x1x1x1024xi1>, memref<1x1x1x1024xf32>, memref<1x1x1x1024xf32>) outs(%alloc_320 : memref<1x1x1x1024xf32>) {
    ^bb0(%in: i1, %in_3095: f32, %in_3096: f32, %out: f32):
      %211 = arith.select %in, %in_3095, %in_3096 : f32
      linalg.yield %211 : f32
    }
    %alloc_321 = memref.alloc() : memref<1x12x1x128xf32>
    %alloc_322 = memref.alloc() : memref<1x12x1xf32>
    %alloc_323 = memref.alloc() : memref<128xf32>
    affine.for %arg399 = 0 to 1 {
      affine.for %arg400 = 0 to 12 {
        %211 = arith.divsi %arg400, %c6 : index
        affine.for %arg401 = 0 to 1 {
          affine.for %arg402 = 0 to 128 {
            memref.store %cst, %alloc_323[%arg402] : memref<128xf32>
          }
          %212:2 = affine.for %arg402 = 0 to 1024 iter_args(%arg403 = %cst_2, %arg404 = %cst) -> (f32, f32) {
            %213 = affine.for %arg405 = 0 to 128 step 16 iter_args(%arg406 = %cst_3) -> (vector<16xf32>) {
              %228 = vector.load %alloc_295[%arg399, %arg400, %arg401, %arg405] : memref<1x12x1x128xf32>, vector<16xf32>
              %229 = vector.load %alloc_305[%arg399, %211, %arg402, %arg405] : memref<1x2x1024x128xf32>, vector<16xf32>
              %230 = vector.fma %228, %229, %arg406 : vector<16xf32>
              affine.yield %230 : vector<16xf32>
            }
            %214 = vector.reduction <add>, %213 : vector<16xf32> into f32
            %215 = arith.mulf %214, %cst_1 : f32
            %216 = memref.load %alloc_320[%arg399, %c0, %arg401, %arg402] : memref<1x1x1x1024xf32>
            %217 = arith.addf %215, %216 : f32
            %218 = arith.cmpf ogt, %217, %arg403 : f32
            %219 = arith.select %218, %217, %arg403 : f32
            %220 = arith.subf %arg403, %217 : f32
            %221 = math.exp %220 : f32
            %222 = arith.mulf %221, %arg404 : f32
            %223 = arith.addf %222, %cst_0 : f32
            %224 = arith.subf %217, %arg403 : f32
            %225 = math.exp %224 : f32
            %226 = arith.addf %arg404, %225 : f32
            %227 = arith.select %218, %223, %226 : f32
            affine.for %arg405 = 0 to 128 {
              %228 = memref.load %alloc_312[%arg399, %211, %arg402, %arg405] : memref<1x2x1024x128xf32>
              %229 = memref.load %alloc_323[%arg405] : memref<128xf32>
              %230 = arith.mulf %229, %221 : f32
              %231 = arith.addf %230, %228 : f32
              %232 = arith.mulf %225, %228 : f32
              %233 = arith.addf %232, %229 : f32
              %234 = arith.select %218, %231, %233 : f32
              memref.store %234, %alloc_323[%arg405] : memref<128xf32>
            }
            affine.yield %219, %227 : f32, f32
          }
          memref.store %212#1, %alloc_322[%arg399, %arg400, %arg401] : memref<1x12x1xf32>
          affine.for %arg402 = 0 to 128 {
            %213 = memref.load %alloc_323[%arg402] : memref<128xf32>
            %214 = arith.divf %213, %212#1 : f32
            memref.store %214, %alloc_321[%arg399, %arg400, %arg401, %arg402] : memref<1x12x1x128xf32>
          }
        }
      }
    }
    %reinterpret_cast_324 = memref.reinterpret_cast %alloc_321 to offset: [0], sizes: [1, 1536], strides: [1536, 1] : memref<1x12x1x128xf32> to memref<1x1536xf32>
    %alloc_325 = memref.alloc() {alignment = 64 : i64} : memref<1x1536xf32>
    memref.copy %8, %alloc_325 : memref<1x1536xf32> to memref<1x1536xf32>
    linalg.matmul {cast = #linalg.type_fn<cast_signed>} ins(%reinterpret_cast_324, %arg42 : memref<1x1536xf32>, memref<1536x1536xf32, strided<[?, ?], offset: ?>>) outs(%alloc_325 : memref<1x1536xf32>)
    %reinterpret_cast_326 = memref.reinterpret_cast %alloc_325 to offset: [0], sizes: [1, 1, 1536], strides: [1536, 1536, 1] : memref<1x1536xf32> to memref<1x1x1536xf32>
    %alloc_327 = memref.alloc() {alignment = 64 : i64} : memref<1x1x1536xf32>
    linalg.generic {indexing_maps = [#map3, #map3, #map3], iterator_types = ["parallel", "parallel", "parallel"]} ins(%alloc_244, %reinterpret_cast_326 : memref<1x1x1536xf32>, memref<1x1x1536xf32>) outs(%alloc_327 : memref<1x1x1536xf32>) {
    ^bb0(%in: f32, %in_3095: f32, %out: f32):
      %211 = arith.addf %in, %in_3095 : f32
      linalg.yield %211 : f32
    }
    %alloc_328 = memref.alloc() {alignment = 64 : i64} : memref<1x1x1536xf32>
    linalg.generic {indexing_maps = [#map3, #map3], iterator_types = ["parallel", "parallel", "parallel"]} ins(%alloc_327 : memref<1x1x1536xf32>) outs(%alloc_328 : memref<1x1x1536xf32>) {
    ^bb0(%in: f32, %out: f32):
      %211 = math.fpowi %in, %c2_i32 : f32, i32
      linalg.yield %211 : f32
    }
    %alloc_329 = memref.alloc() {alignment = 64 : i64} : memref<1x1xf32>
    linalg.fill ins(%cst : f32) outs(%alloc_329 : memref<1x1xf32>)
    linalg.reduce ins(%alloc_328 : memref<1x1x1536xf32>) outs(%alloc_329 : memref<1x1xf32>) dimensions = [2]
      (%in: f32, %init: f32) {
        %211 = arith.addf %in, %init : f32
        linalg.yield %211 : f32
      }
    %reinterpret_cast_330 = memref.reinterpret_cast %alloc_329 to offset: [0], sizes: [1, 1, 1], strides: [1, 1, 1] : memref<1x1xf32> to memref<1x1x1xf32>
    %alloc_331 = memref.alloc() {alignment = 64 : i64} : memref<1x1x1xf32>
    linalg.generic {indexing_maps = [#map3, #map3, #map3], iterator_types = ["parallel", "parallel", "parallel"]} ins(%reinterpret_cast_330, %2 : memref<1x1x1xf32>, memref<1x1x1xf32>) outs(%alloc_331 : memref<1x1x1xf32>) {
    ^bb0(%in: f32, %in_3095: f32, %out: f32):
      %211 = arith.mulf %in, %in_3095 : f32
      linalg.yield %211 : f32
    }
    %alloc_332 = memref.alloc() {alignment = 64 : i64} : memref<1x1x1xf32>
    linalg.generic {indexing_maps = [#map3, #map3, #map3], iterator_types = ["parallel", "parallel", "parallel"]} ins(%alloc_331, %9 : memref<1x1x1xf32>, memref<1x1x1xf32>) outs(%alloc_332 : memref<1x1x1xf32>) {
    ^bb0(%in: f32, %in_3095: f32, %out: f32):
      %211 = arith.addf %in, %in_3095 : f32
      linalg.yield %211 : f32
    }
    %alloc_333 = memref.alloc() {alignment = 64 : i64} : memref<1x1x1xf32>
    linalg.generic {indexing_maps = [#map3, #map3], iterator_types = ["parallel", "parallel", "parallel"]} ins(%alloc_332 : memref<1x1x1xf32>) outs(%alloc_333 : memref<1x1x1xf32>) {
    ^bb0(%in: f32, %out: f32):
      %211 = math.rsqrt %in : f32
      linalg.yield %211 : f32
    }
    %alloc_334 = memref.alloc() {alignment = 64 : i64} : memref<1x1x1536xf32>
    linalg.generic {indexing_maps = [#map3, #map9, #map3], iterator_types = ["parallel", "parallel", "parallel"]} ins(%alloc_327, %alloc_333 : memref<1x1x1536xf32>, memref<1x1x1xf32>) outs(%alloc_334 : memref<1x1x1536xf32>) {
    ^bb0(%in: f32, %in_3095: f32, %out: f32):
      %211 = arith.mulf %in, %in_3095 : f32
      linalg.yield %211 : f32
    }
    %base_buffer_335, %offset_336, %sizes_337, %strides_338 = memref.extract_strided_metadata %arg43 : memref<1536xf32, strided<[?], offset: ?>> -> memref<f32>, index, index, index
    %32 = affine.apply #map10()[%strides_338]
    %33 = affine.apply #map10()[%strides_338]
    %reinterpret_cast_339 = memref.reinterpret_cast %base_buffer_335 to offset: [%offset_336], sizes: [1, 1, 1536], strides: [%32, %33, %strides_338] : memref<f32> to memref<1x1x1536xf32, strided<[?, ?, ?], offset: ?>>
    %alloc_340 = memref.alloc() {alignment = 64 : i64} : memref<1x1x1536xf32>
    linalg.generic {indexing_maps = [#map3, #map3, #map3], iterator_types = ["parallel", "parallel", "parallel"]} ins(%reinterpret_cast_339, %alloc_334 : memref<1x1x1536xf32, strided<[?, ?, ?], offset: ?>>, memref<1x1x1536xf32>) outs(%alloc_340 : memref<1x1x1536xf32>) {
    ^bb0(%in: f32, %in_3095: f32, %out: f32):
      %211 = arith.mulf %in, %in_3095 : f32
      linalg.yield %211 : f32
    }
    %reinterpret_cast_341 = memref.reinterpret_cast %alloc_340 to offset: [0], sizes: [1, 1536], strides: [1536, 1] : memref<1x1x1536xf32> to memref<1x1536xf32>
    %alloc_342 = memref.alloc() {alignment = 64 : i64} : memref<1x8960xf32>
    memref.copy %5, %alloc_342 : memref<1x8960xf32> to memref<1x8960xf32>
    linalg.matmul {cast = #linalg.type_fn<cast_signed>} ins(%reinterpret_cast_341, %arg44 : memref<1x1536xf32>, memref<1536x8960xf32, strided<[?, ?], offset: ?>>) outs(%alloc_342 : memref<1x8960xf32>)
    %reinterpret_cast_343 = memref.reinterpret_cast %alloc_342 to offset: [0], sizes: [1, 1, 8960], strides: [8960, 8960, 1] : memref<1x8960xf32> to memref<1x1x8960xf32>
    %alloc_344 = memref.alloc() {alignment = 64 : i64} : memref<1x1x8960xf32>
    linalg.generic {indexing_maps = [#map3, #map3], iterator_types = ["parallel", "parallel", "parallel"]} ins(%reinterpret_cast_343 : memref<1x1x8960xf32>) outs(%alloc_344 : memref<1x1x8960xf32>) {
    ^bb0(%in: f32, %out: f32):
      %211 = arith.negf %in : f32
      %212 = math.exp %211 : f32
      %213 = arith.addf %212, %cst_0 : f32
      %214 = arith.divf %cst_0, %213 : f32
      linalg.yield %214 : f32
    }
    %alloc_345 = memref.alloc() {alignment = 64 : i64} : memref<1x1x8960xf32>
    linalg.generic {indexing_maps = [#map3, #map3, #map3], iterator_types = ["parallel", "parallel", "parallel"]} ins(%reinterpret_cast_343, %alloc_344 : memref<1x1x8960xf32>, memref<1x1x8960xf32>) outs(%alloc_345 : memref<1x1x8960xf32>) {
    ^bb0(%in: f32, %in_3095: f32, %out: f32):
      %211 = arith.mulf %in, %in_3095 : f32
      linalg.yield %211 : f32
    }
    %reinterpret_cast_346 = memref.reinterpret_cast %alloc_340 to offset: [0], sizes: [1, 1536], strides: [1536, 1] : memref<1x1x1536xf32> to memref<1x1536xf32>
    %alloc_347 = memref.alloc() {alignment = 64 : i64} : memref<1x8960xf32>
    memref.copy %5, %alloc_347 : memref<1x8960xf32> to memref<1x8960xf32>
    linalg.matmul {cast = #linalg.type_fn<cast_signed>} ins(%reinterpret_cast_346, %arg45 : memref<1x1536xf32>, memref<1536x8960xf32, strided<[?, ?], offset: ?>>) outs(%alloc_347 : memref<1x8960xf32>)
    %reinterpret_cast_348 = memref.reinterpret_cast %alloc_347 to offset: [0], sizes: [1, 1, 8960], strides: [8960, 8960, 1] : memref<1x8960xf32> to memref<1x1x8960xf32>
    %alloc_349 = memref.alloc() {alignment = 64 : i64} : memref<1x1x8960xf32>
    linalg.generic {indexing_maps = [#map3, #map3, #map3], iterator_types = ["parallel", "parallel", "parallel"]} ins(%alloc_345, %reinterpret_cast_348 : memref<1x1x8960xf32>, memref<1x1x8960xf32>) outs(%alloc_349 : memref<1x1x8960xf32>) {
    ^bb0(%in: f32, %in_3095: f32, %out: f32):
      %211 = arith.mulf %in, %in_3095 : f32
      linalg.yield %211 : f32
    }
    %reinterpret_cast_350 = memref.reinterpret_cast %alloc_349 to offset: [0], sizes: [1, 8960], strides: [8960, 1] : memref<1x1x8960xf32> to memref<1x8960xf32>
    %alloc_351 = memref.alloc() {alignment = 64 : i64} : memref<1x1536xf32>
    memref.copy %8, %alloc_351 : memref<1x1536xf32> to memref<1x1536xf32>
    linalg.matmul {cast = #linalg.type_fn<cast_signed>} ins(%reinterpret_cast_350, %arg46 : memref<1x8960xf32>, memref<8960x1536xf32, strided<[?, ?], offset: ?>>) outs(%alloc_351 : memref<1x1536xf32>)
    %reinterpret_cast_352 = memref.reinterpret_cast %alloc_351 to offset: [0], sizes: [1, 1, 1536], strides: [1536, 1536, 1] : memref<1x1536xf32> to memref<1x1x1536xf32>
    %alloc_353 = memref.alloc() {alignment = 64 : i64} : memref<1x1x1536xf32>
    linalg.generic {indexing_maps = [#map3, #map3, #map3], iterator_types = ["parallel", "parallel", "parallel"]} ins(%alloc_327, %reinterpret_cast_352 : memref<1x1x1536xf32>, memref<1x1x1536xf32>) outs(%alloc_353 : memref<1x1x1536xf32>) {
    ^bb0(%in: f32, %in_3095: f32, %out: f32):
      %211 = arith.addf %in, %in_3095 : f32
      linalg.yield %211 : f32
    }
    %alloc_354 = memref.alloc() {alignment = 64 : i64} : memref<1x1x1536xf32>
    linalg.generic {indexing_maps = [#map3, #map3], iterator_types = ["parallel", "parallel", "parallel"]} ins(%alloc_353 : memref<1x1x1536xf32>) outs(%alloc_354 : memref<1x1x1536xf32>) {
    ^bb0(%in: f32, %out: f32):
      %211 = math.fpowi %in, %c2_i32 : f32, i32
      linalg.yield %211 : f32
    }
    %alloc_355 = memref.alloc() {alignment = 64 : i64} : memref<1x1xf32>
    linalg.fill ins(%cst : f32) outs(%alloc_355 : memref<1x1xf32>)
    linalg.reduce ins(%alloc_354 : memref<1x1x1536xf32>) outs(%alloc_355 : memref<1x1xf32>) dimensions = [2]
      (%in: f32, %init: f32) {
        %211 = arith.addf %in, %init : f32
        linalg.yield %211 : f32
      }
    %reinterpret_cast_356 = memref.reinterpret_cast %alloc_355 to offset: [0], sizes: [1, 1, 1], strides: [1, 1, 1] : memref<1x1xf32> to memref<1x1x1xf32>
    %alloc_357 = memref.alloc() {alignment = 64 : i64} : memref<1x1x1xf32>
    linalg.generic {indexing_maps = [#map3, #map3, #map3], iterator_types = ["parallel", "parallel", "parallel"]} ins(%reinterpret_cast_356, %2 : memref<1x1x1xf32>, memref<1x1x1xf32>) outs(%alloc_357 : memref<1x1x1xf32>) {
    ^bb0(%in: f32, %in_3095: f32, %out: f32):
      %211 = arith.mulf %in, %in_3095 : f32
      linalg.yield %211 : f32
    }
    %alloc_358 = memref.alloc() {alignment = 64 : i64} : memref<1x1x1xf32>
    linalg.generic {indexing_maps = [#map3, #map3, #map3], iterator_types = ["parallel", "parallel", "parallel"]} ins(%alloc_357, %9 : memref<1x1x1xf32>, memref<1x1x1xf32>) outs(%alloc_358 : memref<1x1x1xf32>) {
    ^bb0(%in: f32, %in_3095: f32, %out: f32):
      %211 = arith.addf %in, %in_3095 : f32
      linalg.yield %211 : f32
    }
    %alloc_359 = memref.alloc() {alignment = 64 : i64} : memref<1x1x1xf32>
    linalg.generic {indexing_maps = [#map3, #map3], iterator_types = ["parallel", "parallel", "parallel"]} ins(%alloc_358 : memref<1x1x1xf32>) outs(%alloc_359 : memref<1x1x1xf32>) {
    ^bb0(%in: f32, %out: f32):
      %211 = math.rsqrt %in : f32
      linalg.yield %211 : f32
    }
    %alloc_360 = memref.alloc() {alignment = 64 : i64} : memref<1x1x1536xf32>
    linalg.generic {indexing_maps = [#map3, #map9, #map3], iterator_types = ["parallel", "parallel", "parallel"]} ins(%alloc_353, %alloc_359 : memref<1x1x1536xf32>, memref<1x1x1xf32>) outs(%alloc_360 : memref<1x1x1536xf32>) {
    ^bb0(%in: f32, %in_3095: f32, %out: f32):
      %211 = arith.mulf %in, %in_3095 : f32
      linalg.yield %211 : f32
    }
    %base_buffer_361, %offset_362, %sizes_363, %strides_364 = memref.extract_strided_metadata %arg47 : memref<1536xf32, strided<[?], offset: ?>> -> memref<f32>, index, index, index
    %34 = affine.apply #map10()[%strides_364]
    %35 = affine.apply #map10()[%strides_364]
    %reinterpret_cast_365 = memref.reinterpret_cast %base_buffer_361 to offset: [%offset_362], sizes: [1, 1, 1536], strides: [%34, %35, %strides_364] : memref<f32> to memref<1x1x1536xf32, strided<[?, ?, ?], offset: ?>>
    %alloc_366 = memref.alloc() {alignment = 64 : i64} : memref<1x1x1536xf32>
    linalg.generic {indexing_maps = [#map3, #map3, #map3], iterator_types = ["parallel", "parallel", "parallel"]} ins(%reinterpret_cast_365, %alloc_360 : memref<1x1x1536xf32, strided<[?, ?, ?], offset: ?>>, memref<1x1x1536xf32>) outs(%alloc_366 : memref<1x1x1536xf32>) {
    ^bb0(%in: f32, %in_3095: f32, %out: f32):
      %211 = arith.mulf %in, %in_3095 : f32
      linalg.yield %211 : f32
    }
    %reinterpret_cast_367 = memref.reinterpret_cast %alloc_366 to offset: [0], sizes: [1, 1536], strides: [1536, 1] : memref<1x1x1536xf32> to memref<1x1536xf32>
    %alloc_368 = memref.alloc() {alignment = 64 : i64} : memref<1x1536xf32>
    memref.copy %8, %alloc_368 : memref<1x1536xf32> to memref<1x1536xf32>
    linalg.matmul {cast = #linalg.type_fn<cast_signed>} ins(%reinterpret_cast_367, %arg49 : memref<1x1536xf32>, memref<1536x1536xf32, strided<[?, ?], offset: ?>>) outs(%alloc_368 : memref<1x1536xf32>)
    %base_buffer_369, %offset_370, %sizes_371, %strides_372 = memref.extract_strided_metadata %arg48 : memref<1536xf32, strided<[?], offset: ?>> -> memref<f32>, index, index, index
    %36 = affine.apply #map10()[%strides_372]
    %reinterpret_cast_373 = memref.reinterpret_cast %base_buffer_369 to offset: [%offset_370], sizes: [1, 1536], strides: [%36, %strides_372] : memref<f32> to memref<1x1536xf32, strided<[?, ?], offset: ?>>
    %alloc_374 = memref.alloc() {alignment = 64 : i64} : memref<1x1536xf32>
    linalg.generic {indexing_maps = [#map, #map, #map], iterator_types = ["parallel", "parallel"]} ins(%reinterpret_cast_373, %alloc_368 : memref<1x1536xf32, strided<[?, ?], offset: ?>>, memref<1x1536xf32>) outs(%alloc_374 : memref<1x1536xf32>) {
    ^bb0(%in: f32, %in_3095: f32, %out: f32):
      %211 = arith.addf %in, %in_3095 : f32
      linalg.yield %211 : f32
    }
    %reinterpret_cast_375 = memref.reinterpret_cast %alloc_374 to offset: [0], sizes: [1, 12, 1, 128], strides: [1536, 128, 128, 1] : memref<1x1536xf32> to memref<1x12x1x128xf32>
    %reinterpret_cast_376 = memref.reinterpret_cast %alloc_366 to offset: [0], sizes: [1, 1536], strides: [1536, 1] : memref<1x1x1536xf32> to memref<1x1536xf32>
    %alloc_377 = memref.alloc() {alignment = 64 : i64} : memref<1x256xf32>
    memref.copy %7, %alloc_377 : memref<1x256xf32> to memref<1x256xf32>
    linalg.matmul {cast = #linalg.type_fn<cast_signed>} ins(%reinterpret_cast_376, %arg51 : memref<1x1536xf32>, memref<1536x256xf32, strided<[?, ?], offset: ?>>) outs(%alloc_377 : memref<1x256xf32>)
    %base_buffer_378, %offset_379, %sizes_380, %strides_381 = memref.extract_strided_metadata %arg50 : memref<256xf32, strided<[?], offset: ?>> -> memref<f32>, index, index, index
    %37 = affine.apply #map11()[%strides_381]
    %reinterpret_cast_382 = memref.reinterpret_cast %base_buffer_378 to offset: [%offset_379], sizes: [1, 256], strides: [%37, %strides_381] : memref<f32> to memref<1x256xf32, strided<[?, ?], offset: ?>>
    %alloc_383 = memref.alloc() {alignment = 64 : i64} : memref<1x256xf32>
    linalg.generic {indexing_maps = [#map, #map, #map], iterator_types = ["parallel", "parallel"]} ins(%reinterpret_cast_382, %alloc_377 : memref<1x256xf32, strided<[?, ?], offset: ?>>, memref<1x256xf32>) outs(%alloc_383 : memref<1x256xf32>) {
    ^bb0(%in: f32, %in_3095: f32, %out: f32):
      %211 = arith.addf %in, %in_3095 : f32
      linalg.yield %211 : f32
    }
    %reinterpret_cast_384 = memref.reinterpret_cast %alloc_383 to offset: [0], sizes: [1, 2, 1, 128], strides: [256, 128, 128, 1] : memref<1x256xf32> to memref<1x2x1x128xf32>
    %reinterpret_cast_385 = memref.reinterpret_cast %alloc_366 to offset: [0], sizes: [1, 1536], strides: [1536, 1] : memref<1x1x1536xf32> to memref<1x1536xf32>
    %alloc_386 = memref.alloc() {alignment = 64 : i64} : memref<1x256xf32>
    memref.copy %7, %alloc_386 : memref<1x256xf32> to memref<1x256xf32>
    linalg.matmul {cast = #linalg.type_fn<cast_signed>} ins(%reinterpret_cast_385, %arg53 : memref<1x1536xf32>, memref<1536x256xf32, strided<[?, ?], offset: ?>>) outs(%alloc_386 : memref<1x256xf32>)
    %base_buffer_387, %offset_388, %sizes_389, %strides_390 = memref.extract_strided_metadata %arg52 : memref<256xf32, strided<[?], offset: ?>> -> memref<f32>, index, index, index
    %38 = affine.apply #map11()[%strides_390]
    %reinterpret_cast_391 = memref.reinterpret_cast %base_buffer_387 to offset: [%offset_388], sizes: [1, 256], strides: [%38, %strides_390] : memref<f32> to memref<1x256xf32, strided<[?, ?], offset: ?>>
    %alloc_392 = memref.alloc() {alignment = 64 : i64} : memref<1x256xf32>
    linalg.generic {indexing_maps = [#map, #map, #map], iterator_types = ["parallel", "parallel"]} ins(%reinterpret_cast_391, %alloc_386 : memref<1x256xf32, strided<[?, ?], offset: ?>>, memref<1x256xf32>) outs(%alloc_392 : memref<1x256xf32>) {
    ^bb0(%in: f32, %in_3095: f32, %out: f32):
      %211 = arith.addf %in, %in_3095 : f32
      linalg.yield %211 : f32
    }
    %reinterpret_cast_393 = memref.reinterpret_cast %alloc_392 to offset: [0], sizes: [1, 2, 1, 128], strides: [256, 128, 128, 1] : memref<1x256xf32> to memref<1x2x1x128xf32>
    %reinterpret_cast_394 = memref.reinterpret_cast %alloc_26 to offset: [0], sizes: [1, 1, 1, 128], strides: [128, 128, 128, 1] : memref<1x1x128xf32> to memref<1x1x1x128xf32>
    %reinterpret_cast_395 = memref.reinterpret_cast %alloc_24 to offset: [0], sizes: [1, 1, 1, 128], strides: [128, 128, 128, 1] : memref<1x1x2x64xf32> to memref<1x1x1x128xf32>
    %alloc_396 = memref.alloc() {alignment = 64 : i64} : memref<1x12x1x128xf32>
    linalg.generic {indexing_maps = [#map8, #map12, #map8], iterator_types = ["parallel", "parallel", "parallel", "parallel"]} ins(%reinterpret_cast_375, %reinterpret_cast_394 : memref<1x12x1x128xf32>, memref<1x1x1x128xf32>) outs(%alloc_396 : memref<1x12x1x128xf32>) {
    ^bb0(%in: f32, %in_3095: f32, %out: f32):
      %211 = arith.mulf %in, %in_3095 : f32
      linalg.yield %211 : f32
    }
    %reinterpret_cast_397 = memref.reinterpret_cast %alloc_374 to offset: [0], sizes: [1, 12, 1, 64], strides: [1536, 128, 128, 1] : memref<1x1536xf32> to memref<1x12x1x64xf32, strided<[1536, 128, 128, 1]>>
    %reinterpret_cast_398 = memref.reinterpret_cast %alloc_374 to offset: [64], sizes: [1, 12, 1, 64], strides: [1536, 128, 128, 1] : memref<1x1536xf32> to memref<1x12x1x64xf32, strided<[1536, 128, 128, 1], offset: 64>>
    %alloc_399 = memref.alloc() {alignment = 64 : i64} : memref<1x12x1x64xf32>
    linalg.generic {indexing_maps = [#map8, #map8], iterator_types = ["parallel", "parallel", "parallel", "parallel"]} ins(%reinterpret_cast_398 : memref<1x12x1x64xf32, strided<[1536, 128, 128, 1], offset: 64>>) outs(%alloc_399 : memref<1x12x1x64xf32>) {
    ^bb0(%in: f32, %out: f32):
      %211 = arith.negf %in : f32
      linalg.yield %211 : f32
    }
    %alloc_400 = memref.alloc() {alignment = 64 : i64} : memref<1x12x1x128xf32>
    %reinterpret_cast_401 = memref.reinterpret_cast %alloc_400 to offset: [0], sizes: [1, 12, 1, 64], strides: [1536, 128, 128, 1] : memref<1x12x1x128xf32> to memref<1x12x1x64xf32, strided<[1536, 128, 128, 1]>>
    memref.copy %alloc_399, %reinterpret_cast_401 : memref<1x12x1x64xf32> to memref<1x12x1x64xf32, strided<[1536, 128, 128, 1]>>
    %reinterpret_cast_402 = memref.reinterpret_cast %alloc_400 to offset: [64], sizes: [1, 12, 1, 64], strides: [1536, 128, 128, 1] : memref<1x12x1x128xf32> to memref<1x12x1x64xf32, strided<[1536, 128, 128, 1], offset: 64>>
    memref.copy %reinterpret_cast_397, %reinterpret_cast_402 : memref<1x12x1x64xf32, strided<[1536, 128, 128, 1]>> to memref<1x12x1x64xf32, strided<[1536, 128, 128, 1], offset: 64>>
    %alloc_403 = memref.alloc() {alignment = 64 : i64} : memref<1x12x1x128xf32>
    linalg.generic {indexing_maps = [#map8, #map12, #map8], iterator_types = ["parallel", "parallel", "parallel", "parallel"]} ins(%alloc_400, %reinterpret_cast_395 : memref<1x12x1x128xf32>, memref<1x1x1x128xf32>) outs(%alloc_403 : memref<1x12x1x128xf32>) {
    ^bb0(%in: f32, %in_3095: f32, %out: f32):
      %211 = arith.mulf %in, %in_3095 : f32
      linalg.yield %211 : f32
    }
    %alloc_404 = memref.alloc() {alignment = 64 : i64} : memref<1x12x1x128xf32>
    linalg.generic {indexing_maps = [#map8, #map8, #map8], iterator_types = ["parallel", "parallel", "parallel", "parallel"]} ins(%alloc_396, %alloc_403 : memref<1x12x1x128xf32>, memref<1x12x1x128xf32>) outs(%alloc_404 : memref<1x12x1x128xf32>) {
    ^bb0(%in: f32, %in_3095: f32, %out: f32):
      %211 = arith.addf %in, %in_3095 : f32
      linalg.yield %211 : f32
    }
    %alloc_405 = memref.alloc() {alignment = 64 : i64} : memref<1x2x1x128xf32>
    linalg.generic {indexing_maps = [#map8, #map12, #map8], iterator_types = ["parallel", "parallel", "parallel", "parallel"]} ins(%reinterpret_cast_384, %reinterpret_cast_394 : memref<1x2x1x128xf32>, memref<1x1x1x128xf32>) outs(%alloc_405 : memref<1x2x1x128xf32>) {
    ^bb0(%in: f32, %in_3095: f32, %out: f32):
      %211 = arith.mulf %in, %in_3095 : f32
      linalg.yield %211 : f32
    }
    %reinterpret_cast_406 = memref.reinterpret_cast %alloc_383 to offset: [0], sizes: [1, 2, 1, 64], strides: [256, 128, 128, 1] : memref<1x256xf32> to memref<1x2x1x64xf32, strided<[256, 128, 128, 1]>>
    %reinterpret_cast_407 = memref.reinterpret_cast %alloc_383 to offset: [64], sizes: [1, 2, 1, 64], strides: [256, 128, 128, 1] : memref<1x256xf32> to memref<1x2x1x64xf32, strided<[256, 128, 128, 1], offset: 64>>
    %alloc_408 = memref.alloc() {alignment = 64 : i64} : memref<1x2x1x64xf32>
    linalg.generic {indexing_maps = [#map8, #map8], iterator_types = ["parallel", "parallel", "parallel", "parallel"]} ins(%reinterpret_cast_407 : memref<1x2x1x64xf32, strided<[256, 128, 128, 1], offset: 64>>) outs(%alloc_408 : memref<1x2x1x64xf32>) {
    ^bb0(%in: f32, %out: f32):
      %211 = arith.negf %in : f32
      linalg.yield %211 : f32
    }
    %alloc_409 = memref.alloc() {alignment = 64 : i64} : memref<1x2x1x128xf32>
    %reinterpret_cast_410 = memref.reinterpret_cast %alloc_409 to offset: [0], sizes: [1, 2, 1, 64], strides: [256, 128, 128, 1] : memref<1x2x1x128xf32> to memref<1x2x1x64xf32, strided<[256, 128, 128, 1]>>
    memref.copy %alloc_408, %reinterpret_cast_410 : memref<1x2x1x64xf32> to memref<1x2x1x64xf32, strided<[256, 128, 128, 1]>>
    %reinterpret_cast_411 = memref.reinterpret_cast %alloc_409 to offset: [64], sizes: [1, 2, 1, 64], strides: [256, 128, 128, 1] : memref<1x2x1x128xf32> to memref<1x2x1x64xf32, strided<[256, 128, 128, 1], offset: 64>>
    memref.copy %reinterpret_cast_406, %reinterpret_cast_411 : memref<1x2x1x64xf32, strided<[256, 128, 128, 1]>> to memref<1x2x1x64xf32, strided<[256, 128, 128, 1], offset: 64>>
    %alloc_412 = memref.alloc() {alignment = 64 : i64} : memref<1x2x1x128xf32>
    linalg.generic {indexing_maps = [#map8, #map12, #map8], iterator_types = ["parallel", "parallel", "parallel", "parallel"]} ins(%alloc_409, %reinterpret_cast_395 : memref<1x2x1x128xf32>, memref<1x1x1x128xf32>) outs(%alloc_412 : memref<1x2x1x128xf32>) {
    ^bb0(%in: f32, %in_3095: f32, %out: f32):
      %211 = arith.mulf %in, %in_3095 : f32
      linalg.yield %211 : f32
    }
    %alloc_413 = memref.alloc() {alignment = 64 : i64} : memref<1x2x1x128xf32>
    linalg.generic {indexing_maps = [#map8, #map8, #map8], iterator_types = ["parallel", "parallel", "parallel", "parallel"]} ins(%alloc_405, %alloc_412 : memref<1x2x1x128xf32>, memref<1x2x1x128xf32>) outs(%alloc_413 : memref<1x2x1x128xf32>) {
    ^bb0(%in: f32, %in_3095: f32, %out: f32):
      %211 = arith.addf %in, %in_3095 : f32
      linalg.yield %211 : f32
    }
    %alloc_414 = memref.alloc() {alignment = 64 : i64} : memref<1x2x1024x128xf32>
    memref.copy %arg54, %alloc_414 : memref<1x2x1024x128xf32, strided<[?, ?, ?, ?], offset: ?>> to memref<1x2x1024x128xf32>
    %base_buffer_415, %offset_416, %sizes_417, %strides_418 = memref.extract_strided_metadata %arg3 : memref<1xi64, strided<[?], offset: ?>> -> memref<i64>, index, index, index
    %reinterpret_cast_419 = memref.reinterpret_cast %base_buffer_415 to offset: [%offset_416], sizes: [1, 1, 1, 1], strides: [%strides_418, %strides_418, %strides_418, %strides_418] : memref<i64> to memref<1x1x1x1xi64, strided<[?, ?, ?, ?], offset: ?>>
    %alloc_420 = memref.alloc() {alignment = 64 : i64} : memref<1x2x1x128xi64>
    linalg.generic {indexing_maps = [#map13, #map8, #map8], iterator_types = ["parallel", "parallel", "parallel", "parallel"]} ins(%reinterpret_cast_419, %6 : memref<1x1x1x1xi64, strided<[?, ?, ?, ?], offset: ?>>, memref<1x2x1x128xi64>) outs(%alloc_420 : memref<1x2x1x128xi64>) {
    ^bb0(%in: i64, %in_3095: i64, %out: i64):
      %211 = arith.addi %in, %in_3095 : i64
      linalg.yield %211 : i64
    }
    scf.for %arg399 = %c0 to %c1 step %c1 {
      scf.for %arg400 = %c0 to %c2 step %c1 {
        scf.for %arg401 = %c0 to %c1 step %c1 {
          scf.for %arg402 = %c0 to %c128 step %c1 {
            %211 = memref.load %alloc_413[%arg399, %arg400, %arg401, %arg402] : memref<1x2x1x128xf32>
            %212 = memref.load %alloc_420[%arg399, %arg400, %arg401, %arg402] : memref<1x2x1x128xi64>
            %213 = arith.index_cast %212 : i64 to index
            memref.store %211, %alloc_414[%arg399, %arg400, %213, %arg402] : memref<1x2x1024x128xf32>
          }
        }
      }
    }
    %alloc_421 = memref.alloc() {alignment = 64 : i64} : memref<1x2x1024x128xf32>
    memref.copy %arg55, %alloc_421 : memref<1x2x1024x128xf32, strided<[?, ?, ?, ?], offset: ?>> to memref<1x2x1024x128xf32>
    %base_buffer_422, %offset_423, %sizes_424, %strides_425 = memref.extract_strided_metadata %arg3 : memref<1xi64, strided<[?], offset: ?>> -> memref<i64>, index, index, index
    %reinterpret_cast_426 = memref.reinterpret_cast %base_buffer_422 to offset: [%offset_423], sizes: [1, 1, 1, 1], strides: [%strides_425, %strides_425, %strides_425, %strides_425] : memref<i64> to memref<1x1x1x1xi64, strided<[?, ?, ?, ?], offset: ?>>
    %alloc_427 = memref.alloc() {alignment = 64 : i64} : memref<1x2x1x128xi64>
    linalg.generic {indexing_maps = [#map13, #map8, #map8], iterator_types = ["parallel", "parallel", "parallel", "parallel"]} ins(%reinterpret_cast_426, %6 : memref<1x1x1x1xi64, strided<[?, ?, ?, ?], offset: ?>>, memref<1x2x1x128xi64>) outs(%alloc_427 : memref<1x2x1x128xi64>) {
    ^bb0(%in: i64, %in_3095: i64, %out: i64):
      %211 = arith.addi %in, %in_3095 : i64
      linalg.yield %211 : i64
    }
    scf.for %arg399 = %c0 to %c1 step %c1 {
      scf.for %arg400 = %c0 to %c2 step %c1 {
        scf.for %arg401 = %c0 to %c1 step %c1 {
          scf.for %arg402 = %c0 to %c128 step %c1 {
            %211 = memref.load %reinterpret_cast_393[%arg399, %arg400, %arg401, %arg402] : memref<1x2x1x128xf32>
            %212 = memref.load %alloc_427[%arg399, %arg400, %arg401, %arg402] : memref<1x2x1x128xi64>
            %213 = arith.index_cast %212 : i64 to index
            memref.store %211, %alloc_421[%arg399, %arg400, %213, %arg402] : memref<1x2x1024x128xf32>
          }
        }
      }
    }
    %reinterpret_cast_428 = memref.reinterpret_cast %alloc_10 to offset: [0], sizes: [1, 1, 1, 1024], strides: [1024, 1024, 1024, 1] : memref<1x1024xi1> to memref<1x1x1x1024xi1>
    %alloc_429 = memref.alloc() {alignment = 64 : i64} : memref<1x1x1x1024xf32>
    linalg.generic {indexing_maps = [#map8, #map8, #map8, #map8], iterator_types = ["parallel", "parallel", "parallel", "parallel"]} ins(%reinterpret_cast_428, %1, %0 : memref<1x1x1x1024xi1>, memref<1x1x1x1024xf32>, memref<1x1x1x1024xf32>) outs(%alloc_429 : memref<1x1x1x1024xf32>) {
    ^bb0(%in: i1, %in_3095: f32, %in_3096: f32, %out: f32):
      %211 = arith.select %in, %in_3095, %in_3096 : f32
      linalg.yield %211 : f32
    }
    %alloc_430 = memref.alloc() : memref<1x12x1x128xf32>
    %alloc_431 = memref.alloc() : memref<1x12x1xf32>
    %alloc_432 = memref.alloc() : memref<128xf32>
    affine.for %arg399 = 0 to 1 {
      affine.for %arg400 = 0 to 12 {
        %211 = arith.divsi %arg400, %c6 : index
        affine.for %arg401 = 0 to 1 {
          affine.for %arg402 = 0 to 128 {
            memref.store %cst, %alloc_432[%arg402] : memref<128xf32>
          }
          %212:2 = affine.for %arg402 = 0 to 1024 iter_args(%arg403 = %cst_2, %arg404 = %cst) -> (f32, f32) {
            %213 = affine.for %arg405 = 0 to 128 step 16 iter_args(%arg406 = %cst_3) -> (vector<16xf32>) {
              %228 = vector.load %alloc_404[%arg399, %arg400, %arg401, %arg405] : memref<1x12x1x128xf32>, vector<16xf32>
              %229 = vector.load %alloc_414[%arg399, %211, %arg402, %arg405] : memref<1x2x1024x128xf32>, vector<16xf32>
              %230 = vector.fma %228, %229, %arg406 : vector<16xf32>
              affine.yield %230 : vector<16xf32>
            }
            %214 = vector.reduction <add>, %213 : vector<16xf32> into f32
            %215 = arith.mulf %214, %cst_1 : f32
            %216 = memref.load %alloc_429[%arg399, %c0, %arg401, %arg402] : memref<1x1x1x1024xf32>
            %217 = arith.addf %215, %216 : f32
            %218 = arith.cmpf ogt, %217, %arg403 : f32
            %219 = arith.select %218, %217, %arg403 : f32
            %220 = arith.subf %arg403, %217 : f32
            %221 = math.exp %220 : f32
            %222 = arith.mulf %221, %arg404 : f32
            %223 = arith.addf %222, %cst_0 : f32
            %224 = arith.subf %217, %arg403 : f32
            %225 = math.exp %224 : f32
            %226 = arith.addf %arg404, %225 : f32
            %227 = arith.select %218, %223, %226 : f32
            affine.for %arg405 = 0 to 128 {
              %228 = memref.load %alloc_421[%arg399, %211, %arg402, %arg405] : memref<1x2x1024x128xf32>
              %229 = memref.load %alloc_432[%arg405] : memref<128xf32>
              %230 = arith.mulf %229, %221 : f32
              %231 = arith.addf %230, %228 : f32
              %232 = arith.mulf %225, %228 : f32
              %233 = arith.addf %232, %229 : f32
              %234 = arith.select %218, %231, %233 : f32
              memref.store %234, %alloc_432[%arg405] : memref<128xf32>
            }
            affine.yield %219, %227 : f32, f32
          }
          memref.store %212#1, %alloc_431[%arg399, %arg400, %arg401] : memref<1x12x1xf32>
          affine.for %arg402 = 0 to 128 {
            %213 = memref.load %alloc_432[%arg402] : memref<128xf32>
            %214 = arith.divf %213, %212#1 : f32
            memref.store %214, %alloc_430[%arg399, %arg400, %arg401, %arg402] : memref<1x12x1x128xf32>
          }
        }
      }
    }
    %reinterpret_cast_433 = memref.reinterpret_cast %alloc_430 to offset: [0], sizes: [1, 1536], strides: [1536, 1] : memref<1x12x1x128xf32> to memref<1x1536xf32>
    %alloc_434 = memref.alloc() {alignment = 64 : i64} : memref<1x1536xf32>
    memref.copy %8, %alloc_434 : memref<1x1536xf32> to memref<1x1536xf32>
    linalg.matmul {cast = #linalg.type_fn<cast_signed>} ins(%reinterpret_cast_433, %arg56 : memref<1x1536xf32>, memref<1536x1536xf32, strided<[?, ?], offset: ?>>) outs(%alloc_434 : memref<1x1536xf32>)
    %reinterpret_cast_435 = memref.reinterpret_cast %alloc_434 to offset: [0], sizes: [1, 1, 1536], strides: [1536, 1536, 1] : memref<1x1536xf32> to memref<1x1x1536xf32>
    %alloc_436 = memref.alloc() {alignment = 64 : i64} : memref<1x1x1536xf32>
    linalg.generic {indexing_maps = [#map3, #map3, #map3], iterator_types = ["parallel", "parallel", "parallel"]} ins(%alloc_353, %reinterpret_cast_435 : memref<1x1x1536xf32>, memref<1x1x1536xf32>) outs(%alloc_436 : memref<1x1x1536xf32>) {
    ^bb0(%in: f32, %in_3095: f32, %out: f32):
      %211 = arith.addf %in, %in_3095 : f32
      linalg.yield %211 : f32
    }
    %alloc_437 = memref.alloc() {alignment = 64 : i64} : memref<1x1x1536xf32>
    linalg.generic {indexing_maps = [#map3, #map3], iterator_types = ["parallel", "parallel", "parallel"]} ins(%alloc_436 : memref<1x1x1536xf32>) outs(%alloc_437 : memref<1x1x1536xf32>) {
    ^bb0(%in: f32, %out: f32):
      %211 = math.fpowi %in, %c2_i32 : f32, i32
      linalg.yield %211 : f32
    }
    %alloc_438 = memref.alloc() {alignment = 64 : i64} : memref<1x1xf32>
    linalg.fill ins(%cst : f32) outs(%alloc_438 : memref<1x1xf32>)
    linalg.reduce ins(%alloc_437 : memref<1x1x1536xf32>) outs(%alloc_438 : memref<1x1xf32>) dimensions = [2]
      (%in: f32, %init: f32) {
        %211 = arith.addf %in, %init : f32
        linalg.yield %211 : f32
      }
    %reinterpret_cast_439 = memref.reinterpret_cast %alloc_438 to offset: [0], sizes: [1, 1, 1], strides: [1, 1, 1] : memref<1x1xf32> to memref<1x1x1xf32>
    %alloc_440 = memref.alloc() {alignment = 64 : i64} : memref<1x1x1xf32>
    linalg.generic {indexing_maps = [#map3, #map3, #map3], iterator_types = ["parallel", "parallel", "parallel"]} ins(%reinterpret_cast_439, %2 : memref<1x1x1xf32>, memref<1x1x1xf32>) outs(%alloc_440 : memref<1x1x1xf32>) {
    ^bb0(%in: f32, %in_3095: f32, %out: f32):
      %211 = arith.mulf %in, %in_3095 : f32
      linalg.yield %211 : f32
    }
    %alloc_441 = memref.alloc() {alignment = 64 : i64} : memref<1x1x1xf32>
    linalg.generic {indexing_maps = [#map3, #map3, #map3], iterator_types = ["parallel", "parallel", "parallel"]} ins(%alloc_440, %9 : memref<1x1x1xf32>, memref<1x1x1xf32>) outs(%alloc_441 : memref<1x1x1xf32>) {
    ^bb0(%in: f32, %in_3095: f32, %out: f32):
      %211 = arith.addf %in, %in_3095 : f32
      linalg.yield %211 : f32
    }
    %alloc_442 = memref.alloc() {alignment = 64 : i64} : memref<1x1x1xf32>
    linalg.generic {indexing_maps = [#map3, #map3], iterator_types = ["parallel", "parallel", "parallel"]} ins(%alloc_441 : memref<1x1x1xf32>) outs(%alloc_442 : memref<1x1x1xf32>) {
    ^bb0(%in: f32, %out: f32):
      %211 = math.rsqrt %in : f32
      linalg.yield %211 : f32
    }
    %alloc_443 = memref.alloc() {alignment = 64 : i64} : memref<1x1x1536xf32>
    linalg.generic {indexing_maps = [#map3, #map9, #map3], iterator_types = ["parallel", "parallel", "parallel"]} ins(%alloc_436, %alloc_442 : memref<1x1x1536xf32>, memref<1x1x1xf32>) outs(%alloc_443 : memref<1x1x1536xf32>) {
    ^bb0(%in: f32, %in_3095: f32, %out: f32):
      %211 = arith.mulf %in, %in_3095 : f32
      linalg.yield %211 : f32
    }
    %base_buffer_444, %offset_445, %sizes_446, %strides_447 = memref.extract_strided_metadata %arg57 : memref<1536xf32, strided<[?], offset: ?>> -> memref<f32>, index, index, index
    %39 = affine.apply #map10()[%strides_447]
    %40 = affine.apply #map10()[%strides_447]
    %reinterpret_cast_448 = memref.reinterpret_cast %base_buffer_444 to offset: [%offset_445], sizes: [1, 1, 1536], strides: [%39, %40, %strides_447] : memref<f32> to memref<1x1x1536xf32, strided<[?, ?, ?], offset: ?>>
    %alloc_449 = memref.alloc() {alignment = 64 : i64} : memref<1x1x1536xf32>
    linalg.generic {indexing_maps = [#map3, #map3, #map3], iterator_types = ["parallel", "parallel", "parallel"]} ins(%reinterpret_cast_448, %alloc_443 : memref<1x1x1536xf32, strided<[?, ?, ?], offset: ?>>, memref<1x1x1536xf32>) outs(%alloc_449 : memref<1x1x1536xf32>) {
    ^bb0(%in: f32, %in_3095: f32, %out: f32):
      %211 = arith.mulf %in, %in_3095 : f32
      linalg.yield %211 : f32
    }
    %reinterpret_cast_450 = memref.reinterpret_cast %alloc_449 to offset: [0], sizes: [1, 1536], strides: [1536, 1] : memref<1x1x1536xf32> to memref<1x1536xf32>
    %alloc_451 = memref.alloc() {alignment = 64 : i64} : memref<1x8960xf32>
    memref.copy %5, %alloc_451 : memref<1x8960xf32> to memref<1x8960xf32>
    linalg.matmul {cast = #linalg.type_fn<cast_signed>} ins(%reinterpret_cast_450, %arg58 : memref<1x1536xf32>, memref<1536x8960xf32, strided<[?, ?], offset: ?>>) outs(%alloc_451 : memref<1x8960xf32>)
…
      memref.dealloc %alloc_1653 : memref<1x1x8960xf32>
    }
    scf.if %true {
      memref.dealloc %alloc_1655 : memref<1x8960xf32>
    }
    scf.if %true {
      memref.dealloc %alloc_1657 : memref<1x1x8960xf32>
    }
    scf.if %true {
      memref.dealloc %alloc_1659 : memref<1x1536xf32>
    }
    scf.if %true {
      memref.dealloc %alloc_1661 : memref<1x1x1536xf32>
    }
    scf.if %true {
      memref.dealloc %alloc_1662 : memref<1x1x1536xf32>
    }
    scf.if %true {
      memref.dealloc %alloc_1663 : memref<1x1xf32>
    }
    scf.if %true {
      memref.dealloc %alloc_1665 : memref<1x1x1xf32>
    }
    scf.if %true {
      memref.dealloc %alloc_1666 : memref<1x1x1xf32>
    }
    scf.if %true {
      memref.dealloc %alloc_1667 : memref<1x1x1xf32>
    }
    scf.if %true {
      memref.dealloc %alloc_1668 : memref<1x1x1536xf32>
    }
    scf.if %true {
      memref.dealloc %alloc_1674 : memref<1x1x1536xf32>
    }
    scf.if %true {
      memref.dealloc %alloc_1676 : memref<1x1536xf32>
    }
    scf.if %true {
      memref.dealloc %alloc_1682 : memref<1x1536xf32>
    }
    scf.if %true {
      memref.dealloc %alloc_1685 : memref<1x256xf32>
    }
    scf.if %true {
      memref.dealloc %alloc_1691 : memref<1x256xf32>
    }
    scf.if %true {
      memref.dealloc %alloc_1694 : memref<1x256xf32>
    }
    scf.if %true {
      memref.dealloc %alloc_1700 : memref<1x256xf32>
    }
    scf.if %true {
      memref.dealloc %alloc_1704 : memref<1x12x1x128xf32>
    }
    scf.if %true {
      memref.dealloc %alloc_1707 : memref<1x12x1x64xf32>
    }
    scf.if %true {
      memref.dealloc %alloc_1708 : memref<1x12x1x128xf32>
    }
    scf.if %true {
      memref.dealloc %alloc_1711 : memref<1x12x1x128xf32>
    }
    scf.if %true {
      memref.dealloc %alloc_1712 : memref<1x12x1x128xf32>
    }
    scf.if %true {
      memref.dealloc %alloc_1713 : memref<1x2x1x128xf32>
    }
    scf.if %true {
      memref.dealloc %alloc_1716 : memref<1x2x1x64xf32>
    }
    scf.if %true {
      memref.dealloc %alloc_1717 : memref<1x2x1x128xf32>
    }
    scf.if %true {
      memref.dealloc %alloc_1720 : memref<1x2x1x128xf32>
    }
    scf.if %true {
      memref.dealloc %alloc_1721 : memref<1x2x1x128xf32>
    }
    scf.if %true {
      memref.dealloc %alloc_1728 : memref<1x2x1x128xi64>
    }
    scf.if %true {
      memref.dealloc %alloc_1735 : memref<1x2x1x128xi64>
    }
    scf.if %true {
      memref.dealloc %alloc_1737 : memref<1x1x1x1024xf32>
    }
    scf.if %true {
      memref.dealloc %alloc_1738 : memref<1x12x1x128xf32>
    }
    scf.if %true {
      memref.dealloc %alloc_1739 : memref<1x12x1xf32>
    }
    scf.if %true {
      memref.dealloc %alloc_1740 : memref<128xf32>
    }
    scf.if %true {
      memref.dealloc %alloc_1742 : memref<1x1536xf32>
    }
    scf.if %true {
      memref.dealloc %alloc_1744 : memref<1x1x1536xf32>
    }
    scf.if %true {
      memref.dealloc %alloc_1745 : memref<1x1x1536xf32>
    }
    scf.if %true {
      memref.dealloc %alloc_1746 : memref<1x1xf32>
    }
    scf.if %true {
      memref.dealloc %alloc_1748 : memref<1x1x1xf32>
    }
    scf.if %true {
      memref.dealloc %alloc_1749 : memref<1x1x1xf32>
    }
    scf.if %true {
      memref.dealloc %alloc_1750 : memref<1x1x1xf32>
    }
    scf.if %true {
      memref.dealloc %alloc_1751 : memref<1x1x1536xf32>
    }
    scf.if %true {
      memref.dealloc %alloc_1757 : memref<1x1x1536xf32>
    }
    scf.if %true {
      memref.dealloc %alloc_1759 : memref<1x8960xf32>
    }
    scf.if %true {
      memref.dealloc %alloc_1761 : memref<1x1x8960xf32>
    }
    scf.if %true {
      memref.dealloc %alloc_1762 : memref<1x1x8960xf32>
    }
    scf.if %true {
      memref.dealloc %alloc_1764 : memref<1x8960xf32>
    }
    scf.if %true {
      memref.dealloc %alloc_1766 : memref<1x1x8960xf32>
    }
    scf.if %true {
      memref.dealloc %alloc_1768 : memref<1x1536xf32>
    }
    scf.if %true {
      memref.dealloc %alloc_1770 : memref<1x1x1536xf32>
    }
    scf.if %true {
      memref.dealloc %alloc_1771 : memref<1x1x1536xf32>
    }
    scf.if %true {
      memref.dealloc %alloc_1772 : memref<1x1xf32>
    }
    scf.if %true {
      memref.dealloc %alloc_1774 : memref<1x1x1xf32>
    }
    scf.if %true {
      memref.dealloc %alloc_1775 : memref<1x1x1xf32>
    }
    scf.if %true {
      memref.dealloc %alloc_1776 : memref<1x1x1xf32>
    }
    scf.if %true {
      memref.dealloc %alloc_1777 : memref<1x1x1536xf32>
    }
    scf.if %true {
      memref.dealloc %alloc_1783 : memref<1x1x1536xf32>
    }
    scf.if %true {
      memref.dealloc %alloc_1785 : memref<1x1536xf32>
    }
    scf.if %true {
      memref.dealloc %alloc_1791 : memref<1x1536xf32>
    }
    scf.if %true {
      memref.dealloc %alloc_1794 : memref<1x256xf32>
    }
    scf.if %true {
      memref.dealloc %alloc_1800 : memref<1x256xf32>
    }
    scf.if %true {
      memref.dealloc %alloc_1803 : memref<1x256xf32>
    }
    scf.if %true {
      memref.dealloc %alloc_1809 : memref<1x256xf32>
    }
    scf.if %true {
      memref.dealloc %alloc_1813 : memref<1x12x1x128xf32>
    }
    scf.if %true {
      memref.dealloc %alloc_1816 : memref<1x12x1x64xf32>
    }
    scf.if %true {
      memref.dealloc %alloc_1817 : memref<1x12x1x128xf32>
    }
    scf.if %true {
      memref.dealloc %alloc_1820 : memref<1x12x1x128xf32>
    }
    scf.if %true {
      memref.dealloc %alloc_1821 : memref<1x12x1x128xf32>
    }
    scf.if %true {
      memref.dealloc %alloc_1822 : memref<1x2x1x128xf32>
    }
    scf.if %true {
      memref.dealloc %alloc_1825 : memref<1x2x1x64xf32>
    }
    scf.if %true {
      memref.dealloc %alloc_1826 : memref<1x2x1x128xf32>
    }
    scf.if %true {
      memref.dealloc %alloc_1829 : memref<1x2x1x128xf32>
    }
    scf.if %true {
      memref.dealloc %alloc_1830 : memref<1x2x1x128xf32>
    }
    scf.if %true {
      memref.dealloc %alloc_1837 : memref<1x2x1x128xi64>
    }
    scf.if %true {
      memref.dealloc %alloc_1844 : memref<1x2x1x128xi64>
    }
    scf.if %true {
      memref.dealloc %alloc_1846 : memref<1x1x1x1024xf32>
    }
    scf.if %true {
      memref.dealloc %alloc_1847 : memref<1x12x1x128xf32>
    }
    scf.if %true {
      memref.dealloc %alloc_1848 : memref<1x12x1xf32>
    }
    scf.if %true {
      memref.dealloc %alloc_1849 : memref<128xf32>
    }
    scf.if %true {
      memref.dealloc %alloc_1851 : memref<1x1536xf32>
    }
    scf.if %true {
      memref.dealloc %alloc_1853 : memref<1x1x1536xf32>
    }
    scf.if %true {
      memref.dealloc %alloc_1854 : memref<1x1x1536xf32>
    }
    scf.if %true {
      memref.dealloc %alloc_1855 : memref<1x1xf32>
    }
    scf.if %true {
      memref.dealloc %alloc_1857 : memref<1x1x1xf32>
    }
    scf.if %true {
      memref.dealloc %alloc_1858 : memref<1x1x1xf32>
    }
    scf.if %true {
      memref.dealloc %alloc_1859 : memref<1x1x1xf32>
    }
    scf.if %true {
      memref.dealloc %alloc_1860 : memref<1x1x1536xf32>
    }
    scf.if %true {
      memref.dealloc %alloc_1866 : memref<1x1x1536xf32>
    }
    scf.if %true {
      memref.dealloc %alloc_1868 : memref<1x8960xf32>
    }
    scf.if %true {
      memref.dealloc %alloc_1870 : memref<1x1x8960xf32>
    }
    scf.if %true {
      memref.dealloc %alloc_1871 : memref<1x1x8960xf32>
    }
    scf.if %true {
      memref.dealloc %alloc_1873 : memref<1x8960xf32>
    }
    scf.if %true {
      memref.dealloc %alloc_1875 : memref<1x1x8960xf32>
    }
    scf.if %true {
      memref.dealloc %alloc_1877 : memref<1x1536xf32>
    }
    scf.if %true {
      memref.dealloc %alloc_1879 : memref<1x1x1536xf32>
    }
    scf.if %true {
      memref.dealloc %alloc_1880 : memref<1x1x1536xf32>
    }
    scf.if %true {
      memref.dealloc %alloc_1881 : memref<1x1xf32>
    }
    scf.if %true {
      memref.dealloc %alloc_1883 : memref<1x1x1xf32>
    }
    scf.if %true {
      memref.dealloc %alloc_1884 : memref<1x1x1xf32>
    }
    scf.if %true {
      memref.dealloc %alloc_1885 : memref<1x1x1xf32>
    }
    scf.if %true {
      memref.dealloc %alloc_1886 : memref<1x1x1536xf32>
    }
    scf.if %true {
      memref.dealloc %alloc_1892 : memref<1x1x1536xf32>
    }
    scf.if %true {
      memref.dealloc %alloc_1894 : memref<1x1536xf32>
    }
    scf.if %true {
      memref.dealloc %alloc_1900 : memref<1x1536xf32>
    }
    scf.if %true {
      memref.dealloc %alloc_1903 : memref<1x256xf32>
    }
    scf.if %true {
      memref.dealloc %alloc_1909 : memref<1x256xf32>
    }
    scf.if %true {
      memref.dealloc %alloc_1912 : memref<1x256xf32>
    }
    scf.if %true {
      memref.dealloc %alloc_1918 : memref<1x256xf32>
    }
    scf.if %true {
      memref.dealloc %alloc_1922 : memref<1x12x1x128xf32>
    }
    scf.if %true {
      memref.dealloc %alloc_1925 : memref<1x12x1x64xf32>
    }
    scf.if %true {
      memref.dealloc %alloc_1926 : memref<1x12x1x128xf32>
    }
    scf.if %true {
      memref.dealloc %alloc_1929 : memref<1x12x1x128xf32>
    }
    scf.if %true {
      memref.dealloc %alloc_1930 : memref<1x12x1x128xf32>
    }
    scf.if %true {
      memref.dealloc %alloc_1931 : memref<1x2x1x128xf32>
    }
    scf.if %true {
      memref.dealloc %alloc_1934 : memref<1x2x1x64xf32>
    }
    scf.if %true {
      memref.dealloc %alloc_1935 : memref<1x2x1x128xf32>
    }
    scf.if %true {
      memref.dealloc %alloc_1938 : memref<1x2x1x128xf32>
    }
    scf.if %true {
      memref.dealloc %alloc_1939 : memref<1x2x1x128xf32>
    }
    scf.if %true {
      memref.dealloc %alloc_1946 : memref<1x2x1x128xi64>
    }
    scf.if %true {
      memref.dealloc %alloc_1953 : memref<1x2x1x128xi64>
    }
    scf.if %true {
      memref.dealloc %alloc_1955 : memref<1x1x1x1024xf32>
    }
    scf.if %true {
      memref.dealloc %alloc_1956 : memref<1x12x1x128xf32>
    }
    scf.if %true {
      memref.dealloc %alloc_1957 : memref<1x12x1xf32>
    }
    scf.if %true {
      memref.dealloc %alloc_1958 : memref<128xf32>
    }
    scf.if %true {
      memref.dealloc %alloc_1960 : memref<1x1536xf32>
    }
    scf.if %true {
      memref.dealloc %alloc_1962 : memref<1x1x1536xf32>
    }
    scf.if %true {
      memref.dealloc %alloc_1963 : memref<1x1x1536xf32>
    }
    scf.if %true {
      memref.dealloc %alloc_1964 : memref<1x1xf32>
    }
    scf.if %true {
      memref.dealloc %alloc_1966 : memref<1x1x1xf32>
    }
    scf.if %true {
      memref.dealloc %alloc_1967 : memref<1x1x1xf32>
    }
    scf.if %true {
      memref.dealloc %alloc_1968 : memref<1x1x1xf32>
    }
    scf.if %true {
      memref.dealloc %alloc_1969 : memref<1x1x1536xf32>
    }
    scf.if %true {
      memref.dealloc %alloc_1975 : memref<1x1x1536xf32>
    }
    scf.if %true {
      memref.dealloc %alloc_1977 : memref<1x8960xf32>
    }
    scf.if %true {
      memref.dealloc %alloc_1979 : memref<1x1x8960xf32>
    }
    scf.if %true {
      memref.dealloc %alloc_1980 : memref<1x1x8960xf32>
    }
    scf.if %true {
      memref.dealloc %alloc_1982 : memref<1x8960xf32>
    }
    scf.if %true {
      memref.dealloc %alloc_1984 : memref<1x1x8960xf32>
    }
    scf.if %true {
      memref.dealloc %alloc_1986 : memref<1x1536xf32>
    }
    scf.if %true {
      memref.dealloc %alloc_1988 : memref<1x1x1536xf32>
    }
    scf.if %true {
      memref.dealloc %alloc_1989 : memref<1x1x1536xf32>
    }
    scf.if %true {
      memref.dealloc %alloc_1990 : memref<1x1xf32>
    }
    scf.if %true {
      memref.dealloc %alloc_1992 : memref<1x1x1xf32>
    }
    scf.if %true {
      memref.dealloc %alloc_1993 : memref<1x1x1xf32>
    }
    scf.if %true {
      memref.dealloc %alloc_1994 : memref<1x1x1xf32>
    }
    scf.if %true {
      memref.dealloc %alloc_1995 : memref<1x1x1536xf32>
    }
    scf.if %true {
      memref.dealloc %alloc_2001 : memref<1x1x1536xf32>
    }
    scf.if %true {
      memref.dealloc %alloc_2003 : memref<1x1536xf32>
    }
    scf.if %true {
      memref.dealloc %alloc_2009 : memref<1x1536xf32>
    }
    scf.if %true {
      memref.dealloc %alloc_2012 : memref<1x256xf32>
    }
    scf.if %true {
      memref.dealloc %alloc_2018 : memref<1x256xf32>
    }
    scf.if %true {
      memref.dealloc %alloc_2021 : memref<1x256xf32>
    }
    scf.if %true {
      memref.dealloc %alloc_2027 : memref<1x256xf32>
    }
    scf.if %true {
      memref.dealloc %alloc_2031 : memref<1x12x1x128xf32>
    }
    scf.if %true {
      memref.dealloc %alloc_2034 : memref<1x12x1x64xf32>
    }
    scf.if %true {
      memref.dealloc %alloc_2035 : memref<1x12x1x128xf32>
    }
    scf.if %true {
      memref.dealloc %alloc_2038 : memref<1x12x1x128xf32>
    }
    scf.if %true {
      memref.dealloc %alloc_2039 : memref<1x12x1x128xf32>
    }
    scf.if %true {
      memref.dealloc %alloc_2040 : memref<1x2x1x128xf32>
    }
    scf.if %true {
      memref.dealloc %alloc_2043 : memref<1x2x1x64xf32>
    }
    scf.if %true {
      memref.dealloc %alloc_2044 : memref<1x2x1x128xf32>
    }
    scf.if %true {
      memref.dealloc %alloc_2047 : memref<1x2x1x128xf32>
    }
    scf.if %true {
      memref.dealloc %alloc_2048 : memref<1x2x1x128xf32>
    }
    scf.if %true {
      memref.dealloc %alloc_2055 : memref<1x2x1x128xi64>
    }
    scf.if %true {
      memref.dealloc %alloc_2062 : memref<1x2x1x128xi64>
    }
    scf.if %true {
      memref.dealloc %alloc_2064 : memref<1x1x1x1024xf32>
    }
    scf.if %true {
      memref.dealloc %alloc_2065 : memref<1x12x1x128xf32>
    }
    scf.if %true {
      memref.dealloc %alloc_2066 : memref<1x12x1xf32>
    }
    scf.if %true {
      memref.dealloc %alloc_2067 : memref<128xf32>
    }
    scf.if %true {
      memref.dealloc %alloc_2069 : memref<1x1536xf32>
    }
    scf.if %true {
      memref.dealloc %alloc_2071 : memref<1x1x1536xf32>
    }
    scf.if %true {
      memref.dealloc %alloc_2072 : memref<1x1x1536xf32>
    }
    scf.if %true {
      memref.dealloc %alloc_2073 : memref<1x1xf32>
    }
    scf.if %true {
      memref.dealloc %alloc_2075 : memref<1x1x1xf32>
    }
    scf.if %true {
      memref.dealloc %alloc_2076 : memref<1x1x1xf32>
    }
    scf.if %true {
      memref.dealloc %alloc_2077 : memref<1x1x1xf32>
    }
    scf.if %true {
      memref.dealloc %alloc_2078 : memref<1x1x1536xf32>
    }
    scf.if %true {
      memref.dealloc %alloc_2084 : memref<1x1x1536xf32>
    }
    scf.if %true {
      memref.dealloc %alloc_2086 : memref<1x8960xf32>
    }
    scf.if %true {
      memref.dealloc %alloc_2088 : memref<1x1x8960xf32>
    }
    scf.if %true {
      memref.dealloc %alloc_2089 : memref<1x1x8960xf32>
    }
    scf.if %true {
      memref.dealloc %alloc_2091 : memref<1x8960xf32>
    }
    scf.if %true {
      memref.dealloc %alloc_2093 : memref<1x1x8960xf32>
    }
    scf.if %true {
      memref.dealloc %alloc_2095 : memref<1x1536xf32>
    }
    scf.if %true {
      memref.dealloc %alloc_2097 : memref<1x1x1536xf32>
    }
    scf.if %true {
      memref.dealloc %alloc_2098 : memref<1x1x1536xf32>
    }
    scf.if %true {
      memref.dealloc %alloc_2099 : memref<1x1xf32>
    }
    scf.if %true {
      memref.dealloc %alloc_2101 : memref<1x1x1xf32>
    }
    scf.if %true {
      memref.dealloc %alloc_2102 : memref<1x1x1xf32>
    }
    scf.if %true {
      memref.dealloc %alloc_2103 : memref<1x1x1xf32>
    }
    scf.if %true {
      memref.dealloc %alloc_2104 : memref<1x1x1536xf32>
    }
    scf.if %true {
      memref.dealloc %alloc_2110 : memref<1x1x1536xf32>
    }
    scf.if %true {
      memref.dealloc %alloc_2112 : memref<1x1536xf32>
    }
    scf.if %true {
      memref.dealloc %alloc_2118 : memref<1x1536xf32>
    }
    scf.if %true {
      memref.dealloc %alloc_2121 : memref<1x256xf32>
    }
    scf.if %true {
      memref.dealloc %alloc_2127 : memref<1x256xf32>
    }
    scf.if %true {
      memref.dealloc %alloc_2130 : memref<1x256xf32>
    }
    scf.if %true {
      memref.dealloc %alloc_2136 : memref<1x256xf32>
    }
    scf.if %true {
      memref.dealloc %alloc_2140 : memref<1x12x1x128xf32>
    }
    scf.if %true {
      memref.dealloc %alloc_2143 : memref<1x12x1x64xf32>
    }
    scf.if %true {
      memref.dealloc %alloc_2144 : memref<1x12x1x128xf32>
    }
    scf.if %true {
      memref.dealloc %alloc_2147 : memref<1x12x1x128xf32>
    }
    scf.if %true {
      memref.dealloc %alloc_2148 : memref<1x12x1x128xf32>
    }
    scf.if %true {
      memref.dealloc %alloc_2149 : memref<1x2x1x128xf32>
    }
    scf.if %true {
      memref.dealloc %alloc_2152 : memref<1x2x1x64xf32>
    }
    scf.if %true {
      memref.dealloc %alloc_2153 : memref<1x2x1x128xf32>
    }
    scf.if %true {
      memref.dealloc %alloc_2156 : memref<1x2x1x128xf32>
    }
    scf.if %true {
      memref.dealloc %alloc_2157 : memref<1x2x1x128xf32>
    }
    scf.if %true {
      memref.dealloc %alloc_2164 : memref<1x2x1x128xi64>
    }
    scf.if %true {
      memref.dealloc %alloc_2171 : memref<1x2x1x128xi64>
    }
    scf.if %true {
      memref.dealloc %alloc_2173 : memref<1x1x1x1024xf32>
    }
    scf.if %true {
      memref.dealloc %alloc_2174 : memref<1x12x1x128xf32>
    }
    scf.if %true {
      memref.dealloc %alloc_2175 : memref<1x12x1xf32>
    }
    scf.if %true {
      memref.dealloc %alloc_2176 : memref<128xf32>
    }
    scf.if %true {
      memref.dealloc %alloc_2178 : memref<1x1536xf32>
    }
    scf.if %true {
      memref.dealloc %alloc_2180 : memref<1x1x1536xf32>
    }
    scf.if %true {
      memref.dealloc %alloc_2181 : memref<1x1x1536xf32>
    }
    scf.if %true {
      memref.dealloc %alloc_2182 : memref<1x1xf32>
    }
    scf.if %true {
      memref.dealloc %alloc_2184 : memref<1x1x1xf32>
    }
    scf.if %true {
      memref.dealloc %alloc_2185 : memref<1x1x1xf32>
    }
    scf.if %true {
      memref.dealloc %alloc_2186 : memref<1x1x1xf32>
    }
    scf.if %true {
      memref.dealloc %alloc_2187 : memref<1x1x1536xf32>
    }
    scf.if %true {
      memref.dealloc %alloc_2193 : memref<1x1x1536xf32>
    }
    scf.if %true {
      memref.dealloc %alloc_2195 : memref<1x8960xf32>
    }
    scf.if %true {
      memref.dealloc %alloc_2197 : memref<1x1x8960xf32>
    }
    scf.if %true {
      memref.dealloc %alloc_2198 : memref<1x1x8960xf32>
    }
    scf.if %true {
      memref.dealloc %alloc_2200 : memref<1x8960xf32>
    }
    scf.if %true {
      memref.dealloc %alloc_2202 : memref<1x1x8960xf32>
    }
    scf.if %true {
      memref.dealloc %alloc_2204 : memref<1x1536xf32>
    }
    scf.if %true {
      memref.dealloc %alloc_2206 : memref<1x1x1536xf32>
    }
    scf.if %true {
      memref.dealloc %alloc_2207 : memref<1x1x1536xf32>
    }
    scf.if %true {
      memref.dealloc %alloc_2208 : memref<1x1xf32>
    }
    scf.if %true {
      memref.dealloc %alloc_2210 : memref<1x1x1xf32>
    }
    scf.if %true {
      memref.dealloc %alloc_2211 : memref<1x1x1xf32>
    }
    scf.if %true {
      memref.dealloc %alloc_2212 : memref<1x1x1xf32>
    }
    scf.if %true {
      memref.dealloc %alloc_2213 : memref<1x1x1536xf32>
    }
    scf.if %true {
      memref.dealloc %alloc_2219 : memref<1x1x1536xf32>
    }
    scf.if %true {
      memref.dealloc %alloc_2221 : memref<1x1536xf32>
    }
    scf.if %true {
      memref.dealloc %alloc_2227 : memref<1x1536xf32>
    }
    scf.if %true {
      memref.dealloc %alloc_2230 : memref<1x256xf32>
    }
    scf.if %true {
      memref.dealloc %alloc_2236 : memref<1x256xf32>
    }
    scf.if %true {
      memref.dealloc %alloc_2239 : memref<1x256xf32>
    }
    scf.if %true {
      memref.dealloc %alloc_2245 : memref<1x256xf32>
    }
    scf.if %true {
      memref.dealloc %alloc_2249 : memref<1x12x1x128xf32>
    }
    scf.if %true {
      memref.dealloc %alloc_2252 : memref<1x12x1x64xf32>
    }
    scf.if %true {
      memref.dealloc %alloc_2253 : memref<1x12x1x128xf32>
    }
    scf.if %true {
      memref.dealloc %alloc_2256 : memref<1x12x1x128xf32>
    }
    scf.if %true {
      memref.dealloc %alloc_2257 : memref<1x12x1x128xf32>
    }
    scf.if %true {
      memref.dealloc %alloc_2258 : memref<1x2x1x128xf32>
    }
    scf.if %true {
      memref.dealloc %alloc_2261 : memref<1x2x1x64xf32>
    }
    scf.if %true {
      memref.dealloc %alloc_2262 : memref<1x2x1x128xf32>
    }
    scf.if %true {
      memref.dealloc %alloc_2265 : memref<1x2x1x128xf32>
    }
    scf.if %true {
      memref.dealloc %alloc_2266 : memref<1x2x1x128xf32>
    }
    scf.if %true {
      memref.dealloc %alloc_2273 : memref<1x2x1x128xi64>
    }
    scf.if %true {
      memref.dealloc %alloc_2280 : memref<1x2x1x128xi64>
    }
    scf.if %true {
      memref.dealloc %alloc_2282 : memref<1x1x1x1024xf32>
    }
    scf.if %true {
      memref.dealloc %alloc_2283 : memref<1x12x1x128xf32>
    }
    scf.if %true {
      memref.dealloc %alloc_2284 : memref<1x12x1xf32>
    }
    scf.if %true {
      memref.dealloc %alloc_2285 : memref<128xf32>
    }
    scf.if %true {
      memref.dealloc %alloc_2287 : memref<1x1536xf32>
    }
    scf.if %true {
      memref.dealloc %alloc_2289 : memref<1x1x1536xf32>
    }
    scf.if %true {
      memref.dealloc %alloc_2290 : memref<1x1x1536xf32>
    }
    scf.if %true {
      memref.dealloc %alloc_2291 : memref<1x1xf32>
    }
    scf.if %true {
      memref.dealloc %alloc_2293 : memref<1x1x1xf32>
    }
    scf.if %true {
      memref.dealloc %alloc_2294 : memref<1x1x1xf32>
    }
    scf.if %true {
      memref.dealloc %alloc_2295 : memref<1x1x1xf32>
    }
    scf.if %true {
      memref.dealloc %alloc_2296 : memref<1x1x1536xf32>
    }
    scf.if %true {
      memref.dealloc %alloc_2302 : memref<1x1x1536xf32>
    }
    scf.if %true {
      memref.dealloc %alloc_2304 : memref<1x8960xf32>
    }
    scf.if %true {
      memref.dealloc %alloc_2306 : memref<1x1x8960xf32>
    }
    scf.if %true {
      memref.dealloc %alloc_2307 : memref<1x1x8960xf32>
    }
    scf.if %true {
      memref.dealloc %alloc_2309 : memref<1x8960xf32>
    }
    scf.if %true {
      memref.dealloc %alloc_2311 : memref<1x1x8960xf32>
    }
    scf.if %true {
      memref.dealloc %alloc_2313 : memref<1x1536xf32>
    }
    scf.if %true {
      memref.dealloc %alloc_2315 : memref<1x1x1536xf32>
    }
    scf.if %true {
      memref.dealloc %alloc_2316 : memref<1x1x1536xf32>
    }
    scf.if %true {
      memref.dealloc %alloc_2317 : memref<1x1xf32>
    }
    scf.if %true {
      memref.dealloc %alloc_2319 : memref<1x1x1xf32>
    }
    scf.if %true {
      memref.dealloc %alloc_2320 : memref<1x1x1xf32>
    }
    scf.if %true {
      memref.dealloc %alloc_2321 : memref<1x1x1xf32>
    }
    scf.if %true {
      memref.dealloc %alloc_2322 : memref<1x1x1536xf32>
    }
    scf.if %true {
      memref.dealloc %alloc_2328 : memref<1x1x1536xf32>
    }
    scf.if %true {
      memref.dealloc %alloc_2330 : memref<1x1536xf32>
    }
    scf.if %true {
      memref.dealloc %alloc_2336 : memref<1x1536xf32>
    }
    scf.if %true {
      memref.dealloc %alloc_2339 : memref<1x256xf32>
    }
    scf.if %true {
      memref.dealloc %alloc_2345 : memref<1x256xf32>
    }
    scf.if %true {
      memref.dealloc %alloc_2348 : memref<1x256xf32>
    }
    scf.if %true {
      memref.dealloc %alloc_2354 : memref<1x256xf32>
    }
    scf.if %true {
      memref.dealloc %alloc_2358 : memref<1x12x1x128xf32>
    }
    scf.if %true {
      memref.dealloc %alloc_2361 : memref<1x12x1x64xf32>
    }
    scf.if %true {
      memref.dealloc %alloc_2362 : memref<1x12x1x128xf32>
    }
    scf.if %true {
      memref.dealloc %alloc_2365 : memref<1x12x1x128xf32>
    }
    scf.if %true {
      memref.dealloc %alloc_2366 : memref<1x12x1x128xf32>
    }
    scf.if %true {
      memref.dealloc %alloc_2367 : memref<1x2x1x128xf32>
    }
    scf.if %true {
      memref.dealloc %alloc_2370 : memref<1x2x1x64xf32>
    }
    scf.if %true {
      memref.dealloc %alloc_2371 : memref<1x2x1x128xf32>
    }
    scf.if %true {
      memref.dealloc %alloc_2374 : memref<1x2x1x128xf32>
    }
    scf.if %true {
      memref.dealloc %alloc_2375 : memref<1x2x1x128xf32>
    }
    scf.if %true {
      memref.dealloc %alloc_2382 : memref<1x2x1x128xi64>
    }
    scf.if %true {
      memref.dealloc %alloc_2389 : memref<1x2x1x128xi64>
    }
    scf.if %true {
      memref.dealloc %alloc_2391 : memref<1x1x1x1024xf32>
    }
    scf.if %true {
      memref.dealloc %alloc_2392 : memref<1x12x1x128xf32>
    }
    scf.if %true {
      memref.dealloc %alloc_2393 : memref<1x12x1xf32>
    }
    scf.if %true {
      memref.dealloc %alloc_2394 : memref<128xf32>
    }
    scf.if %true {
      memref.dealloc %alloc_2396 : memref<1x1536xf32>
    }
    scf.if %true {
      memref.dealloc %alloc_2398 : memref<1x1x1536xf32>
    }
    scf.if %true {
      memref.dealloc %alloc_2399 : memref<1x1x1536xf32>
    }
    scf.if %true {
      memref.dealloc %alloc_2400 : memref<1x1xf32>
    }
    scf.if %true {
      memref.dealloc %alloc_2402 : memref<1x1x1xf32>
    }
    scf.if %true {
      memref.dealloc %alloc_2403 : memref<1x1x1xf32>
    }
    scf.if %true {
      memref.dealloc %alloc_2404 : memref<1x1x1xf32>
    }
    scf.if %true {
      memref.dealloc %alloc_2405 : memref<1x1x1536xf32>
    }
    scf.if %true {
      memref.dealloc %alloc_2411 : memref<1x1x1536xf32>
    }
    scf.if %true {
      memref.dealloc %alloc_2413 : memref<1x8960xf32>
    }
    scf.if %true {
      memref.dealloc %alloc_2415 : memref<1x1x8960xf32>
    }
    scf.if %true {
      memref.dealloc %alloc_2416 : memref<1x1x8960xf32>
    }
    scf.if %true {
      memref.dealloc %alloc_2418 : memref<1x8960xf32>
    }
    scf.if %true {
      memref.dealloc %alloc_2420 : memref<1x1x8960xf32>
    }
    scf.if %true {
      memref.dealloc %alloc_2422 : memref<1x1536xf32>
    }
    scf.if %true {
      memref.dealloc %alloc_2424 : memref<1x1x1536xf32>
    }
    scf.if %true {
      memref.dealloc %alloc_2425 : memref<1x1x1536xf32>
    }
    scf.if %true {
      memref.dealloc %alloc_2426 : memref<1x1xf32>
    }
    scf.if %true {
      memref.dealloc %alloc_2428 : memref<1x1x1xf32>
    }
    scf.if %true {
      memref.dealloc %alloc_2429 : memref<1x1x1xf32>
    }
    scf.if %true {
      memref.dealloc %alloc_2430 : memref<1x1x1xf32>
    }
    scf.if %true {
      memref.dealloc %alloc_2431 : memref<1x1x1536xf32>
    }
    scf.if %true {
      memref.dealloc %alloc_2437 : memref<1x1x1536xf32>
    }
    scf.if %true {
      memref.dealloc %alloc_2439 : memref<1x1536xf32>
    }
    scf.if %true {
      memref.dealloc %alloc_2445 : memref<1x1536xf32>
    }
    scf.if %true {
      memref.dealloc %alloc_2448 : memref<1x256xf32>
    }
    scf.if %true {
      memref.dealloc %alloc_2454 : memref<1x256xf32>
    }
    scf.if %true {
      memref.dealloc %alloc_2457 : memref<1x256xf32>
    }
    scf.if %true {
      memref.dealloc %alloc_2463 : memref<1x256xf32>
    }
    scf.if %true {
      memref.dealloc %alloc_2467 : memref<1x12x1x128xf32>
    }
    scf.if %true {
      memref.dealloc %alloc_2470 : memref<1x12x1x64xf32>
    }
    scf.if %true {
      memref.dealloc %alloc_2471 : memref<1x12x1x128xf32>
    }
    scf.if %true {
      memref.dealloc %alloc_2474 : memref<1x12x1x128xf32>
    }
    scf.if %true {
      memref.dealloc %alloc_2475 : memref<1x12x1x128xf32>
    }
    scf.if %true {
      memref.dealloc %alloc_2476 : memref<1x2x1x128xf32>
    }
    scf.if %true {
      memref.dealloc %alloc_2479 : memref<1x2x1x64xf32>
    }
    scf.if %true {
      memref.dealloc %alloc_2480 : memref<1x2x1x128xf32>
    }
    scf.if %true {
      memref.dealloc %alloc_2483 : memref<1x2x1x128xf32>
    }
    scf.if %true {
      memref.dealloc %alloc_2484 : memref<1x2x1x128xf32>
    }
    scf.if %true {
      memref.dealloc %alloc_2491 : memref<1x2x1x128xi64>
    }
    scf.if %true {
      memref.dealloc %alloc_2498 : memref<1x2x1x128xi64>
    }
    scf.if %true {
      memref.dealloc %alloc_2500 : memref<1x1x1x1024xf32>
    }
    scf.if %true {
      memref.dealloc %alloc_2501 : memref<1x12x1x128xf32>
    }
    scf.if %true {
      memref.dealloc %alloc_2502 : memref<1x12x1xf32>
    }
    scf.if %true {
      memref.dealloc %alloc_2503 : memref<128xf32>
    }
    scf.if %true {
      memref.dealloc %alloc_2505 : memref<1x1536xf32>
    }
    scf.if %true {
      memref.dealloc %alloc_2507 : memref<1x1x1536xf32>
    }
    scf.if %true {
      memref.dealloc %alloc_2508 : memref<1x1x1536xf32>
    }
    scf.if %true {
      memref.dealloc %alloc_2509 : memref<1x1xf32>
    }
    scf.if %true {
      memref.dealloc %alloc_2511 : memref<1x1x1xf32>
    }
    scf.if %true {
      memref.dealloc %alloc_2512 : memref<1x1x1xf32>
    }
    scf.if %true {
      memref.dealloc %alloc_2513 : memref<1x1x1xf32>
    }
    scf.if %true {
      memref.dealloc %alloc_2514 : memref<1x1x1536xf32>
    }
    scf.if %true {
      memref.dealloc %alloc_2520 : memref<1x1x1536xf32>
    }
    scf.if %true {
      memref.dealloc %alloc_2522 : memref<1x8960xf32>
    }
    scf.if %true {
      memref.dealloc %alloc_2524 : memref<1x1x8960xf32>
    }
    scf.if %true {
      memref.dealloc %alloc_2525 : memref<1x1x8960xf32>
    }
    scf.if %true {
      memref.dealloc %alloc_2527 : memref<1x8960xf32>
    }
    scf.if %true {
      memref.dealloc %alloc_2529 : memref<1x1x8960xf32>
    }
    scf.if %true {
      memref.dealloc %alloc_2531 : memref<1x1536xf32>
    }
    scf.if %true {
      memref.dealloc %alloc_2533 : memref<1x1x1536xf32>
    }
    scf.if %true {
      memref.dealloc %alloc_2534 : memref<1x1x1536xf32>
    }
    scf.if %true {
      memref.dealloc %alloc_2535 : memref<1x1xf32>
    }
    scf.if %true {
      memref.dealloc %alloc_2537 : memref<1x1x1xf32>
    }
    scf.if %true {
      memref.dealloc %alloc_2538 : memref<1x1x1xf32>
    }
    scf.if %true {
      memref.dealloc %alloc_2539 : memref<1x1x1xf32>
    }
    scf.if %true {
      memref.dealloc %alloc_2540 : memref<1x1x1536xf32>
    }
    scf.if %true {
      memref.dealloc %alloc_2546 : memref<1x1x1536xf32>
    }
    scf.if %true {
      memref.dealloc %alloc_2548 : memref<1x1536xf32>
    }
    scf.if %true {
      memref.dealloc %alloc_2554 : memref<1x1536xf32>
    }
    scf.if %true {
      memref.dealloc %alloc_2557 : memref<1x256xf32>
    }
    scf.if %true {
      memref.dealloc %alloc_2563 : memref<1x256xf32>
    }
    scf.if %true {
      memref.dealloc %alloc_2566 : memref<1x256xf32>
    }
    scf.if %true {
      memref.dealloc %alloc_2572 : memref<1x256xf32>
    }
    scf.if %true {
      memref.dealloc %alloc_2576 : memref<1x12x1x128xf32>
    }
    scf.if %true {
      memref.dealloc %alloc_2579 : memref<1x12x1x64xf32>
    }
    scf.if %true {
      memref.dealloc %alloc_2580 : memref<1x12x1x128xf32>
    }
    scf.if %true {
      memref.dealloc %alloc_2583 : memref<1x12x1x128xf32>
    }
    scf.if %true {
      memref.dealloc %alloc_2584 : memref<1x12x1x128xf32>
    }
    scf.if %true {
      memref.dealloc %alloc_2585 : memref<1x2x1x128xf32>
    }
    scf.if %true {
      memref.dealloc %alloc_2588 : memref<1x2x1x64xf32>
    }
    scf.if %true {
      memref.dealloc %alloc_2589 : memref<1x2x1x128xf32>
    }
    scf.if %true {
      memref.dealloc %alloc_2592 : memref<1x2x1x128xf32>
    }
    scf.if %true {
      memref.dealloc %alloc_2593 : memref<1x2x1x128xf32>
    }
    scf.if %true {
      memref.dealloc %alloc_2600 : memref<1x2x1x128xi64>
    }
    scf.if %true {
      memref.dealloc %alloc_2607 : memref<1x2x1x128xi64>
    }
    scf.if %true {
      memref.dealloc %alloc_2609 : memref<1x1x1x1024xf32>
    }
    scf.if %true {
      memref.dealloc %alloc_2610 : memref<1x12x1x128xf32>
    }
    scf.if %true {
      memref.dealloc %alloc_2611 : memref<1x12x1xf32>
    }
    scf.if %true {
      memref.dealloc %alloc_2612 : memref<128xf32>
    }
    scf.if %true {
      memref.dealloc %alloc_2614 : memref<1x1536xf32>
    }
    scf.if %true {
      memref.dealloc %alloc_2616 : memref<1x1x1536xf32>
    }
    scf.if %true {
      memref.dealloc %alloc_2617 : memref<1x1x1536xf32>
    }
    scf.if %true {
      memref.dealloc %alloc_2618 : memref<1x1xf32>
    }
    scf.if %true {
      memref.dealloc %alloc_2620 : memref<1x1x1xf32>
    }
    scf.if %true {
      memref.dealloc %alloc_2621 : memref<1x1x1xf32>
    }
    scf.if %true {
      memref.dealloc %alloc_2622 : memref<1x1x1xf32>
    }
    scf.if %true {
      memref.dealloc %alloc_2623 : memref<1x1x1536xf32>
    }
    scf.if %true {
      memref.dealloc %alloc_2629 : memref<1x1x1536xf32>
    }
    scf.if %true {
      memref.dealloc %alloc_2631 : memref<1x8960xf32>
    }
    scf.if %true {
      memref.dealloc %alloc_2633 : memref<1x1x8960xf32>
    }
    scf.if %true {
      memref.dealloc %alloc_2634 : memref<1x1x8960xf32>
    }
    scf.if %true {
      memref.dealloc %alloc_2636 : memref<1x8960xf32>
    }
    scf.if %true {
      memref.dealloc %alloc_2638 : memref<1x1x8960xf32>
    }
    scf.if %true {
      memref.dealloc %alloc_2640 : memref<1x1536xf32>
    }
    scf.if %true {
      memref.dealloc %alloc_2642 : memref<1x1x1536xf32>
    }
    scf.if %true {
      memref.dealloc %alloc_2643 : memref<1x1x1536xf32>
    }
    scf.if %true {
      memref.dealloc %alloc_2644 : memref<1x1xf32>
    }
    scf.if %true {
      memref.dealloc %alloc_2646 : memref<1x1x1xf32>
    }
    scf.if %true {
      memref.dealloc %alloc_2647 : memref<1x1x1xf32>
    }
    scf.if %true {
      memref.dealloc %alloc_2648 : memref<1x1x1xf32>
    }
    scf.if %true {
      memref.dealloc %alloc_2649 : memref<1x1x1536xf32>
    }
    scf.if %true {
      memref.dealloc %alloc_2655 : memref<1x1x1536xf32>
    }
    scf.if %true {
      memref.dealloc %alloc_2657 : memref<1x1536xf32>
    }
    scf.if %true {
      memref.dealloc %alloc_2663 : memref<1x1536xf32>
    }
    scf.if %true {
      memref.dealloc %alloc_2666 : memref<1x256xf32>
    }
    scf.if %true {
      memref.dealloc %alloc_2672 : memref<1x256xf32>
    }
    scf.if %true {
      memref.dealloc %alloc_2675 : memref<1x256xf32>
    }
    scf.if %true {
      memref.dealloc %alloc_2681 : memref<1x256xf32>
    }
    scf.if %true {
      memref.dealloc %alloc_2685 : memref<1x12x1x128xf32>
    }
    scf.if %true {
      memref.dealloc %alloc_2688 : memref<1x12x1x64xf32>
    }
    scf.if %true {
      memref.dealloc %alloc_2689 : memref<1x12x1x128xf32>
    }
    scf.if %true {
      memref.dealloc %alloc_2692 : memref<1x12x1x128xf32>
    }
    scf.if %true {
      memref.dealloc %alloc_2693 : memref<1x12x1x128xf32>
    }
    scf.if %true {
      memref.dealloc %alloc_2694 : memref<1x2x1x128xf32>
    }
    scf.if %true {
      memref.dealloc %alloc_2697 : memref<1x2x1x64xf32>
    }
    scf.if %true {
      memref.dealloc %alloc_2698 : memref<1x2x1x128xf32>
    }
    scf.if %true {
      memref.dealloc %alloc_2701 : memref<1x2x1x128xf32>
    }
    scf.if %true {
      memref.dealloc %alloc_2702 : memref<1x2x1x128xf32>
    }
    scf.if %true {
      memref.dealloc %alloc_2709 : memref<1x2x1x128xi64>
    }
    scf.if %true {
      memref.dealloc %alloc_2716 : memref<1x2x1x128xi64>
    }
    scf.if %true {
      memref.dealloc %alloc_2718 : memref<1x1x1x1024xf32>
    }
    scf.if %true {
      memref.dealloc %alloc_2719 : memref<1x12x1x128xf32>
    }
    scf.if %true {
      memref.dealloc %alloc_2720 : memref<1x12x1xf32>
    }
    scf.if %true {
      memref.dealloc %alloc_2721 : memref<128xf32>
    }
    scf.if %true {
      memref.dealloc %alloc_2723 : memref<1x1536xf32>
    }
    scf.if %true {
      memref.dealloc %alloc_2725 : memref<1x1x1536xf32>
    }
    scf.if %true {
      memref.dealloc %alloc_2726 : memref<1x1x1536xf32>
    }
    scf.if %true {
      memref.dealloc %alloc_2727 : memref<1x1xf32>
    }
    scf.if %true {
      memref.dealloc %alloc_2729 : memref<1x1x1xf32>
    }
    scf.if %true {
      memref.dealloc %alloc_2730 : memref<1x1x1xf32>
    }
    scf.if %true {
      memref.dealloc %alloc_2731 : memref<1x1x1xf32>
    }
    scf.if %true {
      memref.dealloc %alloc_2732 : memref<1x1x1536xf32>
    }
    scf.if %true {
      memref.dealloc %alloc_2738 : memref<1x1x1536xf32>
    }
    scf.if %true {
      memref.dealloc %alloc_2740 : memref<1x8960xf32>
    }
    scf.if %true {
      memref.dealloc %alloc_2742 : memref<1x1x8960xf32>
    }
    scf.if %true {
      memref.dealloc %alloc_2743 : memref<1x1x8960xf32>
    }
    scf.if %true {
      memref.dealloc %alloc_2745 : memref<1x8960xf32>
    }
    scf.if %true {
      memref.dealloc %alloc_2747 : memref<1x1x8960xf32>
    }
    scf.if %true {
      memref.dealloc %alloc_2749 : memref<1x1536xf32>
    }
    scf.if %true {
      memref.dealloc %alloc_2751 : memref<1x1x1536xf32>
    }
    scf.if %true {
      memref.dealloc %alloc_2752 : memref<1x1x1536xf32>
    }
    scf.if %true {
      memref.dealloc %alloc_2753 : memref<1x1xf32>
    }
    scf.if %true {
      memref.dealloc %alloc_2755 : memref<1x1x1xf32>
    }
    scf.if %true {
      memref.dealloc %alloc_2756 : memref<1x1x1xf32>
    }
    scf.if %true {
      memref.dealloc %alloc_2757 : memref<1x1x1xf32>
    }
    scf.if %true {
      memref.dealloc %alloc_2758 : memref<1x1x1536xf32>
    }
    scf.if %true {
      memref.dealloc %alloc_2764 : memref<1x1x1536xf32>
    }
    scf.if %true {
      memref.dealloc %alloc_2766 : memref<1x1536xf32>
    }
    scf.if %true {
      memref.dealloc %alloc_2772 : memref<1x1536xf32>
    }
    scf.if %true {
      memref.dealloc %alloc_2775 : memref<1x256xf32>
    }
    scf.if %true {
      memref.dealloc %alloc_2781 : memref<1x256xf32>
    }
    scf.if %true {
      memref.dealloc %alloc_2784 : memref<1x256xf32>
    }
    scf.if %true {
      memref.dealloc %alloc_2790 : memref<1x256xf32>
    }
    scf.if %true {
      memref.dealloc %alloc_2794 : memref<1x12x1x128xf32>
    }
    scf.if %true {
      memref.dealloc %alloc_2797 : memref<1x12x1x64xf32>
    }
    scf.if %true {
      memref.dealloc %alloc_2798 : memref<1x12x1x128xf32>
    }
    scf.if %true {
      memref.dealloc %alloc_2801 : memref<1x12x1x128xf32>
    }
    scf.if %true {
      memref.dealloc %alloc_2802 : memref<1x12x1x128xf32>
    }
    scf.if %true {
      memref.dealloc %alloc_2803 : memref<1x2x1x128xf32>
    }
    scf.if %true {
      memref.dealloc %alloc_2806 : memref<1x2x1x64xf32>
    }
    scf.if %true {
      memref.dealloc %alloc_2807 : memref<1x2x1x128xf32>
    }
    scf.if %true {
      memref.dealloc %alloc_2810 : memref<1x2x1x128xf32>
    }
    scf.if %true {
      memref.dealloc %alloc_2811 : memref<1x2x1x128xf32>
    }
    scf.if %true {
      memref.dealloc %alloc_2818 : memref<1x2x1x128xi64>
    }
    scf.if %true {
      memref.dealloc %alloc_2825 : memref<1x2x1x128xi64>
    }
    scf.if %true {
      memref.dealloc %alloc_2827 : memref<1x1x1x1024xf32>
    }
    scf.if %true {
      memref.dealloc %alloc_2828 : memref<1x12x1x128xf32>
    }
    scf.if %true {
      memref.dealloc %alloc_2829 : memref<1x12x1xf32>
    }
    scf.if %true {
      memref.dealloc %alloc_2830 : memref<128xf32>
    }
    scf.if %true {
      memref.dealloc %alloc_2832 : memref<1x1536xf32>
    }
    scf.if %true {
      memref.dealloc %alloc_2834 : memref<1x1x1536xf32>
    }
    scf.if %true {
      memref.dealloc %alloc_2835 : memref<1x1x1536xf32>
    }
    scf.if %true {
      memref.dealloc %alloc_2836 : memref<1x1xf32>
    }
    scf.if %true {
      memref.dealloc %alloc_2838 : memref<1x1x1xf32>
    }
    scf.if %true {
      memref.dealloc %alloc_2839 : memref<1x1x1xf32>
    }
    scf.if %true {
      memref.dealloc %alloc_2840 : memref<1x1x1xf32>
    }
    scf.if %true {
      memref.dealloc %alloc_2841 : memref<1x1x1536xf32>
    }
    scf.if %true {
      memref.dealloc %alloc_2847 : memref<1x1x1536xf32>
    }
    scf.if %true {
      memref.dealloc %alloc_2849 : memref<1x8960xf32>
    }
    scf.if %true {
      memref.dealloc %alloc_2851 : memref<1x1x8960xf32>
    }
    scf.if %true {
      memref.dealloc %alloc_2852 : memref<1x1x8960xf32>
    }
    scf.if %true {
      memref.dealloc %alloc_2854 : memref<1x8960xf32>
    }
    scf.if %true {
      memref.dealloc %alloc_2856 : memref<1x1x8960xf32>
    }
    scf.if %true {
      memref.dealloc %alloc_2858 : memref<1x1536xf32>
    }
    scf.if %true {
      memref.dealloc %alloc_2860 : memref<1x1x1536xf32>
    }
    scf.if %true {
      memref.dealloc %alloc_2861 : memref<1x1x1536xf32>
    }
    scf.if %true {
      memref.dealloc %alloc_2862 : memref<1x1xf32>
    }
    scf.if %true {
      memref.dealloc %alloc_2864 : memref<1x1x1xf32>
    }
    scf.if %true {
      memref.dealloc %alloc_2865 : memref<1x1x1xf32>
    }
    scf.if %true {
      memref.dealloc %alloc_2866 : memref<1x1x1xf32>
    }
    scf.if %true {
      memref.dealloc %alloc_2867 : memref<1x1x1536xf32>
    }
    scf.if %true {
      memref.dealloc %alloc_2873 : memref<1x1x1536xf32>
    }
    scf.if %true {
      memref.dealloc %alloc_2875 : memref<1x1536xf32>
    }
    scf.if %true {
      memref.dealloc %alloc_2881 : memref<1x1536xf32>
    }
    scf.if %true {
      memref.dealloc %alloc_2884 : memref<1x256xf32>
    }
    scf.if %true {
      memref.dealloc %alloc_2890 : memref<1x256xf32>
    }
    scf.if %true {
      memref.dealloc %alloc_2893 : memref<1x256xf32>
    }
    scf.if %true {
      memref.dealloc %alloc_2899 : memref<1x256xf32>
    }
    scf.if %true {
      memref.dealloc %alloc_2903 : memref<1x12x1x128xf32>
    }
    scf.if %true {
      memref.dealloc %alloc_2906 : memref<1x12x1x64xf32>
    }
    scf.if %true {
      memref.dealloc %alloc_2907 : memref<1x12x1x128xf32>
    }
    scf.if %true {
      memref.dealloc %alloc_2910 : memref<1x12x1x128xf32>
    }
    scf.if %true {
      memref.dealloc %alloc_2911 : memref<1x12x1x128xf32>
    }
    scf.if %true {
      memref.dealloc %alloc_2912 : memref<1x2x1x128xf32>
    }
    scf.if %true {
      memref.dealloc %alloc_2915 : memref<1x2x1x64xf32>
    }
    scf.if %true {
      memref.dealloc %alloc_2916 : memref<1x2x1x128xf32>
    }
    scf.if %true {
      memref.dealloc %alloc_2919 : memref<1x2x1x128xf32>
    }
    scf.if %true {
      memref.dealloc %alloc_2920 : memref<1x2x1x128xf32>
    }
    scf.if %true {
      memref.dealloc %alloc_2927 : memref<1x2x1x128xi64>
    }
    scf.if %true {
      memref.dealloc %alloc_2934 : memref<1x2x1x128xi64>
    }
    scf.if %true {
      memref.dealloc %alloc_2936 : memref<1x1x1x1024xf32>
    }
    scf.if %true {
      memref.dealloc %alloc_2937 : memref<1x12x1x128xf32>
    }
    scf.if %true {
      memref.dealloc %alloc_2938 : memref<1x12x1xf32>
    }
    scf.if %true {
      memref.dealloc %alloc_2939 : memref<128xf32>
    }
    scf.if %true {
      memref.dealloc %alloc_2941 : memref<1x1536xf32>
    }
    scf.if %true {
      memref.dealloc %alloc_2943 : memref<1x1x1536xf32>
    }
    scf.if %true {
      memref.dealloc %alloc_2944 : memref<1x1x1536xf32>
    }
    scf.if %true {
      memref.dealloc %alloc_2945 : memref<1x1xf32>
    }
    scf.if %true {
      memref.dealloc %alloc_2947 : memref<1x1x1xf32>
    }
    scf.if %true {
      memref.dealloc %alloc_2948 : memref<1x1x1xf32>
    }
    scf.if %true {
      memref.dealloc %alloc_2949 : memref<1x1x1xf32>
    }
    scf.if %true {
      memref.dealloc %alloc_2950 : memref<1x1x1536xf32>
    }
    scf.if %true {
      memref.dealloc %alloc_2956 : memref<1x1x1536xf32>
    }
    scf.if %true {
      memref.dealloc %alloc_2958 : memref<1x8960xf32>
    }
    scf.if %true {
      memref.dealloc %alloc_2960 : memref<1x1x8960xf32>
    }
    scf.if %true {
      memref.dealloc %alloc_2961 : memref<1x1x8960xf32>
    }
    scf.if %true {
      memref.dealloc %alloc_2963 : memref<1x8960xf32>
    }
    scf.if %true {
      memref.dealloc %alloc_2965 : memref<1x1x8960xf32>
    }
    scf.if %true {
      memref.dealloc %alloc_2967 : memref<1x1536xf32>
    }
    scf.if %true {
      memref.dealloc %alloc_2969 : memref<1x1x1536xf32>
    }
    scf.if %true {
      memref.dealloc %alloc_2970 : memref<1x1x1536xf32>
    }
    scf.if %true {
      memref.dealloc %alloc_2971 : memref<1x1xf32>
    }
    scf.if %true {
      memref.dealloc %alloc_2973 : memref<1x1x1xf32>
    }
    scf.if %true {
      memref.dealloc %alloc_2974 : memref<1x1x1xf32>
    }
    scf.if %true {
      memref.dealloc %alloc_2975 : memref<1x1x1xf32>
    }
    scf.if %true {
      memref.dealloc %alloc_2976 : memref<1x1x1536xf32>
    }
    scf.if %true {
      memref.dealloc %alloc_2982 : memref<1x1x1536xf32>
    }
    scf.if %true {
      memref.dealloc %alloc_2984 : memref<1x1536xf32>
    }
    scf.if %true {
      memref.dealloc %alloc_2990 : memref<1x1536xf32>
    }
    scf.if %true {
      memref.dealloc %alloc_2993 : memref<1x256xf32>
    }
    scf.if %true {
      memref.dealloc %alloc_2999 : memref<1x256xf32>
    }
    scf.if %true {
      memref.dealloc %alloc_3002 : memref<1x256xf32>
    }
    scf.if %true {
      memref.dealloc %alloc_3008 : memref<1x256xf32>
    }
    scf.if %true {
      memref.dealloc %alloc_3012 : memref<1x12x1x128xf32>
    }
    scf.if %true {
      memref.dealloc %alloc_3015 : memref<1x12x1x64xf32>
    }
    scf.if %true {
      memref.dealloc %alloc_3016 : memref<1x12x1x128xf32>
    }
    scf.if %true {
      memref.dealloc %alloc_3019 : memref<1x12x1x128xf32>
    }
    scf.if %true {
      memref.dealloc %alloc_3020 : memref<1x12x1x128xf32>
    }
    scf.if %true {
      memref.dealloc %alloc_3021 : memref<1x2x1x128xf32>
    }
    scf.if %true {
      memref.dealloc %alloc_3024 : memref<1x2x1x64xf32>
    }
    scf.if %true {
      memref.dealloc %alloc_3025 : memref<1x2x1x128xf32>
    }
    scf.if %true {
      memref.dealloc %alloc_3028 : memref<1x2x1x128xf32>
    }
    scf.if %true {
      memref.dealloc %alloc_3029 : memref<1x2x1x128xf32>
    }
    scf.if %true {
      memref.dealloc %alloc_3036 : memref<1x2x1x128xi64>
    }
    scf.if %true {
      memref.dealloc %alloc_3043 : memref<1x2x1x128xi64>
    }
    scf.if %true {
      memref.dealloc %alloc_3045 : memref<1x1x1x1024xf32>
    }
    scf.if %true {
      memref.dealloc %alloc_3046 : memref<1x12x1x128xf32>
    }
    scf.if %true {
      memref.dealloc %alloc_3047 : memref<1x12x1xf32>
    }
    scf.if %true {
      memref.dealloc %alloc_3048 : memref<128xf32>
    }
    scf.if %true {
      memref.dealloc %alloc_3050 : memref<1x1536xf32>
    }
    scf.if %true {
      memref.dealloc %alloc_3052 : memref<1x1x1536xf32>
    }
    scf.if %true {
      memref.dealloc %alloc_3053 : memref<1x1x1536xf32>
    }
    scf.if %true {
      memref.dealloc %alloc_3054 : memref<1x1xf32>
    }
    scf.if %true {
      memref.dealloc %alloc_3056 : memref<1x1x1xf32>
    }
    scf.if %true {
      memref.dealloc %alloc_3057 : memref<1x1x1xf32>
    }
    scf.if %true {
      memref.dealloc %alloc_3058 : memref<1x1x1xf32>
    }
    scf.if %true {
      memref.dealloc %alloc_3059 : memref<1x1x1536xf32>
    }
    scf.if %true {
      memref.dealloc %alloc_3065 : memref<1x1x1536xf32>
    }
    scf.if %true {
      memref.dealloc %alloc_3067 : memref<1x8960xf32>
    }
    scf.if %true {
      memref.dealloc %alloc_3069 : memref<1x1x8960xf32>
    }
    scf.if %true {
      memref.dealloc %alloc_3070 : memref<1x1x8960xf32>
    }
    scf.if %true {
      memref.dealloc %alloc_3072 : memref<1x8960xf32>
    }
    scf.if %true {
      memref.dealloc %alloc_3074 : memref<1x1x8960xf32>
    }
    scf.if %true {
      memref.dealloc %alloc_3076 : memref<1x1536xf32>
    }
    scf.if %true {
      memref.dealloc %alloc_3078 : memref<1x1x1536xf32>
    }
    scf.if %true {
      memref.dealloc %alloc_3079 : memref<1x1x1536xf32>
    }
    scf.if %true {
      memref.dealloc %alloc_3080 : memref<1x1xf32>
    }
    scf.if %true {
      memref.dealloc %alloc_3082 : memref<1x1x1xf32>
    }
    scf.if %true {
      memref.dealloc %alloc_3083 : memref<1x1x1xf32>
    }
    scf.if %true {
      memref.dealloc %alloc_3084 : memref<1x1x1xf32>
    }
    scf.if %true {
      memref.dealloc %alloc_3085 : memref<1x1x1536xf32>
    }
    scf.if %true {
      memref.dealloc %alloc_3091 : memref<1x1x1536xf32>
    }
    return %alloc_87, %alloc_94, %alloc_196, %alloc_203, %alloc_305, %alloc_312, %alloc_414, %alloc_421, %alloc_523, %alloc_530, %alloc_632, %alloc_639, %alloc_741, %alloc_748, %alloc_850, %alloc_857, %alloc_959, %alloc_966, %alloc_1068, %alloc_1075, %alloc_1177, %alloc_1184, %alloc_1286, %alloc_1293, %alloc_1395, %alloc_1402, %alloc_1504, %alloc_1511, %alloc_1613, %alloc_1620, %alloc_1722, %alloc_1729, %alloc_1831, %alloc_1838, %alloc_1940, %alloc_1947, %alloc_2049, %alloc_2056, %alloc_2158, %alloc_2165, %alloc_2267, %alloc_2274, %alloc_2376, %alloc_2383, %alloc_2485, %alloc_2492, %alloc_2594, %alloc_2601, %alloc_2703, %alloc_2710, %alloc_2812, %alloc_2819, %alloc_2921, %alloc_2928, %alloc_3030, %alloc_3037, %reinterpret_cast_3094 : memref<1x2x1024x128xf32>, memref<1x2x1024x128xf32>, memref<1x2x1024x128xf32>, memref<1x2x1024x128xf32>, memref<1x2x1024x128xf32>, memref<1x2x1024x128xf32>, memref<1x2x1024x128xf32>, memref<1x2x1024x128xf32>, memref<1x2x1024x128xf32>, memref<1x2x1024x128xf32>, memref<1x2x1024x128xf32>, memref<1x2x1024x128xf32>, memref<1x2x1024x128xf32>, memref<1x2x1024x128xf32>, memref<1x2x1024x128xf32>, memref<1x2x1024x128xf32>, memref<1x2x1024x128xf32>, memref<1x2x1024x128xf32>, memref<1x2x1024x128xf32>, memref<1x2x1024x128xf32>, memref<1x2x1024x128xf32>, memref<1x2x1024x128xf32>, memref<1x2x1024x128xf32>, memref<1x2x1024x128xf32>, memref<1x2x1024x128xf32>, memref<1x2x1024x128xf32>, memref<1x2x1024x128xf32>, memref<1x2x1024x128xf32>, memref<1x2x1024x128xf32>, memref<1x2x1024x128xf32>, memref<1x2x1024x128xf32>, memref<1x2x1024x128xf32>, memref<1x2x1024x128xf32>, memref<1x2x1024x128xf32>, memref<1x2x1024x128xf32>, memref<1x2x1024x128xf32>, memref<1x2x1024x128xf32>, memref<1x2x1024x128xf32>, memref<1x2x1024x128xf32>, memref<1x2x1024x128xf32>, memref<1x2x1024x128xf32>, memref<1x2x1024x128xf32>, memref<1x2x1024x128xf32>, memref<1x2x1024x128xf32>, memref<1x2x1024x128xf32>, memref<1x2x1024x128xf32>, memref<1x2x1024x128xf32>, memref<1x2x1024x128xf32>, memref<1x2x1024x128xf32>, memref<1x2x1024x128xf32>, memref<1x2x1024x128xf32>, memref<1x2x1024x128xf32>, memref<1x2x1024x128xf32>, memref<1x2x1024x128xf32>, memref<1x2x1024x128xf32>, memref<1x2x1024x128xf32>, memref<1x1x151936xf32>
  }
}
