#map = affine_map<(d0, d1) -> (d0, d1)>
#map1 = affine_map<(d0, d1, d2) -> (d0, d1)>
#map2 = affine_map<(d0, d1, d2) -> (d0, d1, d2)>
#map3 = affine_map<(d0, d1) -> (d0, 0)>
#map4 = affine_map<(d0, d1, d2) -> (d0, 0, d2)>
#map5 = affine_map<(d0, d1, d2, d3) -> (d0, d1, 0, d3)>
#map6 = affine_map<(d0, d1, d2, d3) -> (d0, d1, d2, d3)>
#map7 = affine_map<(d0, d1, d2) -> (d0, d1, 0)>
#map8 = affine_map<(d0, d1, d2, d3) -> (d0, 0, d2, d3)>
#map9 = affine_map<(d0, d1, d2, d3) -> (d0, 0, d2, 0)>
module {
  func.func @subgraph0_decode(%arg0: tensor<151936x1536xf32>, %arg1: tensor<1x1xi64>, %arg2: tensor<1xi64>, %arg3: tensor<1xi64>, %arg4: tensor<64xf32>, %arg5: tensor<1536xf32>, %arg6: tensor<1536xf32>, %arg7: tensor<1536x1536xf32>, %arg8: tensor<256xf32>, %arg9: tensor<1536x256xf32>, %arg10: tensor<256xf32>, %arg11: tensor<1536x256xf32>, %arg12: tensor<1x2x1024x128xf32>, %arg13: tensor<1x2x1024x128xf32>, %arg14: tensor<1536x1536xf32>, %arg15: tensor<1536xf32>, %arg16: tensor<1536x8960xf32>, %arg17: tensor<1536x8960xf32>, %arg18: tensor<8960x1536xf32>, %arg19: tensor<1536xf32>, %arg20: tensor<1536xf32>, %arg21: tensor<1536x1536xf32>, %arg22: tensor<256xf32>, %arg23: tensor<1536x256xf32>, %arg24: tensor<256xf32>, %arg25: tensor<1536x256xf32>, %arg26: tensor<1x2x1024x128xf32>, %arg27: tensor<1x2x1024x128xf32>, %arg28: tensor<1536x1536xf32>, %arg29: tensor<1536xf32>, %arg30: tensor<1536x8960xf32>, %arg31: tensor<1536x8960xf32>, %arg32: tensor<8960x1536xf32>, %arg33: tensor<1536xf32>, %arg34: tensor<1536xf32>, %arg35: tensor<1536x1536xf32>, %arg36: tensor<256xf32>, %arg37: tensor<1536x256xf32>, %arg38: tensor<256xf32>, %arg39: tensor<1536x256xf32>, %arg40: tensor<1x2x1024x128xf32>, %arg41: tensor<1x2x1024x128xf32>, %arg42: tensor<1536x1536xf32>, %arg43: tensor<1536xf32>, %arg44: tensor<1536x8960xf32>, %arg45: tensor<1536x8960xf32>, %arg46: tensor<8960x1536xf32>, %arg47: tensor<1536xf32>, %arg48: tensor<1536xf32>, %arg49: tensor<1536x1536xf32>, %arg50: tensor<256xf32>, %arg51: tensor<1536x256xf32>, %arg52: tensor<256xf32>, %arg53: tensor<1536x256xf32>, %arg54: tensor<1x2x1024x128xf32>, %arg55: tensor<1x2x1024x128xf32>, %arg56: tensor<1536x1536xf32>, %arg57: tensor<1536xf32>, %arg58: tensor<1536x8960xf32>, %arg59: tensor<1536x8960xf32>, %arg60: tensor<8960x1536xf32>, %arg61: tensor<1536xf32>, %arg62: tensor<1536xf32>, %arg63: tensor<1536x1536xf32>, %arg64: tensor<256xf32>, %arg65: tensor<1536x256xf32>, %arg66: tensor<256xf32>, %arg67: tensor<1536x256xf32>, %arg68: tensor<1x2x1024x128xf32>, %arg69: tensor<1x2x1024x128xf32>, %arg70: tensor<1536x1536xf32>, %arg71: tensor<1536xf32>, %arg72: tensor<1536x8960xf32>, %arg73: tensor<1536x8960xf32>, %arg74: tensor<8960x1536xf32>, %arg75: tensor<1536xf32>, %arg76: tensor<1536xf32>, %arg77: tensor<1536x1536xf32>, %arg78: tensor<256xf32>, %arg79: tensor<1536x256xf32>, %arg80: tensor<256xf32>, %arg81: tensor<1536x256xf32>, %arg82: tensor<1x2x1024x128xf32>, %arg83: tensor<1x2x1024x128xf32>, %arg84: tensor<1536x1536xf32>, %arg85: tensor<1536xf32>, %arg86: tensor<1536x8960xf32>, %arg87: tensor<1536x8960xf32>, %arg88: tensor<8960x1536xf32>, %arg89: tensor<1536xf32>, %arg90: tensor<1536xf32>, %arg91: tensor<1536x1536xf32>, %arg92: tensor<256xf32>, %arg93: tensor<1536x256xf32>, %arg94: tensor<256xf32>, %arg95: tensor<1536x256xf32>, %arg96: tensor<1x2x1024x128xf32>, %arg97: tensor<1x2x1024x128xf32>, %arg98: tensor<1536x1536xf32>, %arg99: tensor<1536xf32>, %arg100: tensor<1536x8960xf32>, %arg101: tensor<1536x8960xf32>, %arg102: tensor<8960x1536xf32>, %arg103: tensor<1536xf32>, %arg104: tensor<1536xf32>, %arg105: tensor<1536x1536xf32>, %arg106: tensor<256xf32>, %arg107: tensor<1536x256xf32>, %arg108: tensor<256xf32>, %arg109: tensor<1536x256xf32>, %arg110: tensor<1x2x1024x128xf32>, %arg111: tensor<1x2x1024x128xf32>, %arg112: tensor<1536x1536xf32>, %arg113: tensor<1536xf32>, %arg114: tensor<1536x8960xf32>, %arg115: tensor<1536x8960xf32>, %arg116: tensor<8960x1536xf32>, %arg117: tensor<1536xf32>, %arg118: tensor<1536xf32>, %arg119: tensor<1536x1536xf32>, %arg120: tensor<256xf32>, %arg121: tensor<1536x256xf32>, %arg122: tensor<256xf32>, %arg123: tensor<1536x256xf32>, %arg124: tensor<1x2x1024x128xf32>, %arg125: tensor<1x2x1024x128xf32>, %arg126: tensor<1536x1536xf32>, %arg127: tensor<1536xf32>, %arg128: tensor<1536x8960xf32>, %arg129: tensor<1536x8960xf32>, %arg130: tensor<8960x1536xf32>, %arg131: tensor<1536xf32>, %arg132: tensor<1536xf32>, %arg133: tensor<1536x1536xf32>, %arg134: tensor<256xf32>, %arg135: tensor<1536x256xf32>, %arg136: tensor<256xf32>, %arg137: tensor<1536x256xf32>, %arg138: tensor<1x2x1024x128xf32>, %arg139: tensor<1x2x1024x128xf32>, %arg140: tensor<1536x1536xf32>, %arg141: tensor<1536xf32>, %arg142: tensor<1536x8960xf32>, %arg143: tensor<1536x8960xf32>, %arg144: tensor<8960x1536xf32>, %arg145: tensor<1536xf32>, %arg146: tensor<1536xf32>, %arg147: tensor<1536x1536xf32>, %arg148: tensor<256xf32>, %arg149: tensor<1536x256xf32>, %arg150: tensor<256xf32>, %arg151: tensor<1536x256xf32>, %arg152: tensor<1x2x1024x128xf32>, %arg153: tensor<1x2x1024x128xf32>, %arg154: tensor<1536x1536xf32>, %arg155: tensor<1536xf32>, %arg156: tensor<1536x8960xf32>, %arg157: tensor<1536x8960xf32>, %arg158: tensor<8960x1536xf32>, %arg159: tensor<1536xf32>, %arg160: tensor<1536xf32>, %arg161: tensor<1536x1536xf32>, %arg162: tensor<256xf32>, %arg163: tensor<1536x256xf32>, %arg164: tensor<256xf32>, %arg165: tensor<1536x256xf32>, %arg166: tensor<1x2x1024x128xf32>, %arg167: tensor<1x2x1024x128xf32>, %arg168: tensor<1536x1536xf32>, %arg169: tensor<1536xf32>, %arg170: tensor<1536x8960xf32>, %arg171: tensor<1536x8960xf32>, %arg172: tensor<8960x1536xf32>, %arg173: tensor<1536xf32>, %arg174: tensor<1536xf32>, %arg175: tensor<1536x1536xf32>, %arg176: tensor<256xf32>, %arg177: tensor<1536x256xf32>, %arg178: tensor<256xf32>, %arg179: tensor<1536x256xf32>, %arg180: tensor<1x2x1024x128xf32>, %arg181: tensor<1x2x1024x128xf32>, %arg182: tensor<1536x1536xf32>, %arg183: tensor<1536xf32>, %arg184: tensor<1536x8960xf32>, %arg185: tensor<1536x8960xf32>, %arg186: tensor<8960x1536xf32>, %arg187: tensor<1536xf32>, %arg188: tensor<1536xf32>, %arg189: tensor<1536x1536xf32>, %arg190: tensor<256xf32>, %arg191: tensor<1536x256xf32>, %arg192: tensor<256xf32>, %arg193: tensor<1536x256xf32>, %arg194: tensor<1x2x1024x128xf32>, %arg195: tensor<1x2x1024x128xf32>, %arg196: tensor<1536x1536xf32>, %arg197: tensor<1536xf32>, %arg198: tensor<1536x8960xf32>, %arg199: tensor<1536x8960xf32>, %arg200: tensor<8960x1536xf32>, %arg201: tensor<1536xf32>, %arg202: tensor<1536xf32>, %arg203: tensor<1536x1536xf32>, %arg204: tensor<256xf32>, %arg205: tensor<1536x256xf32>, %arg206: tensor<256xf32>, %arg207: tensor<1536x256xf32>, %arg208: tensor<1x2x1024x128xf32>, %arg209: tensor<1x2x1024x128xf32>, %arg210: tensor<1536x1536xf32>, %arg211: tensor<1536xf32>, %arg212: tensor<1536x8960xf32>, %arg213: tensor<1536x8960xf32>, %arg214: tensor<8960x1536xf32>, %arg215: tensor<1536xf32>, %arg216: tensor<1536xf32>, %arg217: tensor<1536x1536xf32>, %arg218: tensor<256xf32>, %arg219: tensor<1536x256xf32>, %arg220: tensor<256xf32>, %arg221: tensor<1536x256xf32>, %arg222: tensor<1x2x1024x128xf32>, %arg223: tensor<1x2x1024x128xf32>, %arg224: tensor<1536x1536xf32>, %arg225: tensor<1536xf32>, %arg226: tensor<1536x8960xf32>, %arg227: tensor<1536x8960xf32>, %arg228: tensor<8960x1536xf32>, %arg229: tensor<1536xf32>, %arg230: tensor<1536xf32>, %arg231: tensor<1536x1536xf32>, %arg232: tensor<256xf32>, %arg233: tensor<1536x256xf32>, %arg234: tensor<256xf32>, %arg235: tensor<1536x256xf32>, %arg236: tensor<1x2x1024x128xf32>, %arg237: tensor<1x2x1024x128xf32>, %arg238: tensor<1536x1536xf32>, %arg239: tensor<1536xf32>, %arg240: tensor<1536x8960xf32>, %arg241: tensor<1536x8960xf32>, %arg242: tensor<8960x1536xf32>, %arg243: tensor<1536xf32>, %arg244: tensor<1536xf32>, %arg245: tensor<1536x1536xf32>, %arg246: tensor<256xf32>, %arg247: tensor<1536x256xf32>, %arg248: tensor<256xf32>, %arg249: tensor<1536x256xf32>, %arg250: tensor<1x2x1024x128xf32>, %arg251: tensor<1x2x1024x128xf32>, %arg252: tensor<1536x1536xf32>, %arg253: tensor<1536xf32>, %arg254: tensor<1536x8960xf32>, %arg255: tensor<1536x8960xf32>, %arg256: tensor<8960x1536xf32>, %arg257: tensor<1536xf32>, %arg258: tensor<1536xf32>, %arg259: tensor<1536x1536xf32>, %arg260: tensor<256xf32>, %arg261: tensor<1536x256xf32>, %arg262: tensor<256xf32>, %arg263: tensor<1536x256xf32>, %arg264: tensor<1x2x1024x128xf32>, %arg265: tensor<1x2x1024x128xf32>, %arg266: tensor<1536x1536xf32>, %arg267: tensor<1536xf32>, %arg268: tensor<1536x8960xf32>, %arg269: tensor<1536x8960xf32>, %arg270: tensor<8960x1536xf32>, %arg271: tensor<1536xf32>, %arg272: tensor<1536xf32>, %arg273: tensor<1536x1536xf32>, %arg274: tensor<256xf32>, %arg275: tensor<1536x256xf32>, %arg276: tensor<256xf32>, %arg277: tensor<1536x256xf32>, %arg278: tensor<1x2x1024x128xf32>, %arg279: tensor<1x2x1024x128xf32>, %arg280: tensor<1536x1536xf32>, %arg281: tensor<1536xf32>, %arg282: tensor<1536x8960xf32>, %arg283: tensor<1536x8960xf32>, %arg284: tensor<8960x1536xf32>, %arg285: tensor<1536xf32>, %arg286: tensor<1536xf32>, %arg287: tensor<1536x1536xf32>, %arg288: tensor<256xf32>, %arg289: tensor<1536x256xf32>, %arg290: tensor<256xf32>, %arg291: tensor<1536x256xf32>, %arg292: tensor<1x2x1024x128xf32>, %arg293: tensor<1x2x1024x128xf32>, %arg294: tensor<1536x1536xf32>, %arg295: tensor<1536xf32>, %arg296: tensor<1536x8960xf32>, %arg297: tensor<1536x8960xf32>, %arg298: tensor<8960x1536xf32>, %arg299: tensor<1536xf32>, %arg300: tensor<1536xf32>, %arg301: tensor<1536x1536xf32>, %arg302: tensor<256xf32>, %arg303: tensor<1536x256xf32>, %arg304: tensor<256xf32>, %arg305: tensor<1536x256xf32>, %arg306: tensor<1x2x1024x128xf32>, %arg307: tensor<1x2x1024x128xf32>, %arg308: tensor<1536x1536xf32>, %arg309: tensor<1536xf32>, %arg310: tensor<1536x8960xf32>, %arg311: tensor<1536x8960xf32>, %arg312: tensor<8960x1536xf32>, %arg313: tensor<1536xf32>, %arg314: tensor<1536xf32>, %arg315: tensor<1536x1536xf32>, %arg316: tensor<256xf32>, %arg317: tensor<1536x256xf32>, %arg318: tensor<256xf32>, %arg319: tensor<1536x256xf32>, %arg320: tensor<1x2x1024x128xf32>, %arg321: tensor<1x2x1024x128xf32>, %arg322: tensor<1536x1536xf32>, %arg323: tensor<1536xf32>, %arg324: tensor<1536x8960xf32>, %arg325: tensor<1536x8960xf32>, %arg326: tensor<8960x1536xf32>, %arg327: tensor<1536xf32>, %arg328: tensor<1536xf32>, %arg329: tensor<1536x1536xf32>, %arg330: tensor<256xf32>, %arg331: tensor<1536x256xf32>, %arg332: tensor<256xf32>, %arg333: tensor<1536x256xf32>, %arg334: tensor<1x2x1024x128xf32>, %arg335: tensor<1x2x1024x128xf32>, %arg336: tensor<1536x1536xf32>, %arg337: tensor<1536xf32>, %arg338: tensor<1536x8960xf32>, %arg339: tensor<1536x8960xf32>, %arg340: tensor<8960x1536xf32>, %arg341: tensor<1536xf32>, %arg342: tensor<1536xf32>, %arg343: tensor<1536x1536xf32>, %arg344: tensor<256xf32>, %arg345: tensor<1536x256xf32>, %arg346: tensor<256xf32>, %arg347: tensor<1536x256xf32>, %arg348: tensor<1x2x1024x128xf32>, %arg349: tensor<1x2x1024x128xf32>, %arg350: tensor<1536x1536xf32>, %arg351: tensor<1536xf32>, %arg352: tensor<1536x8960xf32>, %arg353: tensor<1536x8960xf32>, %arg354: tensor<8960x1536xf32>, %arg355: tensor<1536xf32>, %arg356: tensor<1536xf32>, %arg357: tensor<1536x1536xf32>, %arg358: tensor<256xf32>, %arg359: tensor<1536x256xf32>, %arg360: tensor<256xf32>, %arg361: tensor<1536x256xf32>, %arg362: tensor<1x2x1024x128xf32>, %arg363: tensor<1x2x1024x128xf32>, %arg364: tensor<1536x1536xf32>, %arg365: tensor<1536xf32>, %arg366: tensor<1536x8960xf32>, %arg367: tensor<1536x8960xf32>, %arg368: tensor<8960x1536xf32>, %arg369: tensor<1536xf32>, %arg370: tensor<1536xf32>, %arg371: tensor<1536x1536xf32>, %arg372: tensor<256xf32>, %arg373: tensor<1536x256xf32>, %arg374: tensor<256xf32>, %arg375: tensor<1536x256xf32>, %arg376: tensor<1x2x1024x128xf32>, %arg377: tensor<1x2x1024x128xf32>, %arg378: tensor<1536x1536xf32>, %arg379: tensor<1536xf32>, %arg380: tensor<1536x8960xf32>, %arg381: tensor<1536x8960xf32>, %arg382: tensor<8960x1536xf32>, %arg383: tensor<1536xf32>, %arg384: tensor<1536xf32>, %arg385: tensor<1536x1536xf32>, %arg386: tensor<256xf32>, %arg387: tensor<1536x256xf32>, %arg388: tensor<256xf32>, %arg389: tensor<1536x256xf32>, %arg390: tensor<1x2x1024x128xf32>, %arg391: tensor<1x2x1024x128xf32>, %arg392: tensor<1536x1536xf32>, %arg393: tensor<1536xf32>, %arg394: tensor<1536x8960xf32>, %arg395: tensor<1536x8960xf32>, %arg396: tensor<8960x1536xf32>, %arg397: tensor<1536xf32>, %arg398: tensor<1536x151936xf32>) -> (tensor<1x2x1024x128xf32>, tensor<1x2x1024x128xf32>, tensor<1x2x1024x128xf32>, tensor<1x2x1024x128xf32>, tensor<1x2x1024x128xf32>, tensor<1x2x1024x128xf32>, tensor<1x2x1024x128xf32>, tensor<1x2x1024x128xf32>, tensor<1x2x1024x128xf32>, tensor<1x2x1024x128xf32>, tensor<1x2x1024x128xf32>, tensor<1x2x1024x128xf32>, tensor<1x2x1024x128xf32>, tensor<1x2x1024x128xf32>, tensor<1x2x1024x128xf32>, tensor<1x2x1024x128xf32>, tensor<1x2x1024x128xf32>, tensor<1x2x1024x128xf32>, tensor<1x2x1024x128xf32>, tensor<1x2x1024x128xf32>, tensor<1x2x1024x128xf32>, tensor<1x2x1024x128xf32>, tensor<1x2x1024x128xf32>, tensor<1x2x1024x128xf32>, tensor<1x2x1024x128xf32>, tensor<1x2x1024x128xf32>, tensor<1x2x1024x128xf32>, tensor<1x2x1024x128xf32>, tensor<1x2x1024x128xf32>, tensor<1x2x1024x128xf32>, tensor<1x2x1024x128xf32>, tensor<1x2x1024x128xf32>, tensor<1x2x1024x128xf32>, tensor<1x2x1024x128xf32>, tensor<1x2x1024x128xf32>, tensor<1x2x1024x128xf32>, tensor<1x2x1024x128xf32>, tensor<1x2x1024x128xf32>, tensor<1x2x1024x128xf32>, tensor<1x2x1024x128xf32>, tensor<1x2x1024x128xf32>, tensor<1x2x1024x128xf32>, tensor<1x2x1024x128xf32>, tensor<1x2x1024x128xf32>, tensor<1x2x1024x128xf32>, tensor<1x2x1024x128xf32>, tensor<1x2x1024x128xf32>, tensor<1x2x1024x128xf32>, tensor<1x2x1024x128xf32>, tensor<1x2x1024x128xf32>, tensor<1x2x1024x128xf32>, tensor<1x2x1024x128xf32>, tensor<1x2x1024x128xf32>, tensor<1x2x1024x128xf32>, tensor<1x2x1024x128xf32>, tensor<1x2x1024x128xf32>, tensor<1x1x151936xf32>) {
    %cst = arith.constant dense<0.000000e+00> : vector<16xf32>
    %cst_0 = arith.constant dense<0xFF800000> : tensor<1x1x1x1024xf32>
    %cst_1 = arith.constant dense<0.000000e+00> : tensor<1x1x1x1024xf32>
    %cst_2 = arith.constant dense<6.51041686E-4> : tensor<1x1x1xf32>
    %cst_3 = arith.constant dense<"…"> : tensor<1x1024xi64>
    %0 = tosa.const_shape  {values = dense<[1, 1, 151936]> : tensor<3xindex>} : () -> !tosa.shape<3>
    %cst_4 = arith.constant dense<0.000000e+00> : tensor<1x151936xf32>
    %1 = tosa.const_shape  {values = dense<[1, 8960]> : tensor<2xindex>} : () -> !tosa.shape<2>
    %2 = tosa.const_shape  {values = dense<[1, 1, 8960]> : tensor<3xindex>} : () -> !tosa.shape<3>
    %cst_5 = arith.constant dense<0.000000e+00> : tensor<1x8960xf32>
    %c6 = arith.constant 6 : index
    %cst_6 = arith.constant -1.000000e+30 : f32
    %cst_7 = arith.constant 0.0883883461 : f32
    %cst_8 = arith.constant 1.000000e+00 : f32
    %cst_9 = arith.constant 0.000000e+00 : f32
    %3 = tosa.const_shape  {values = dense<[1, 1, 1, 1024]> : tensor<4xindex>} : () -> !tosa.shape<4>
    %c128 = arith.constant 128 : index
    %c2 = arith.constant 2 : index
    %c1 = arith.constant 1 : index
    %c0 = arith.constant 0 : index
    %cst_10 = arith.constant dense<0> : tensor<1x2x1x128xi64>
    %4 = tosa.const_shape  {values = dense<1> : tensor<4xindex>} : () -> !tosa.shape<4>
    %5 = tosa.const_shape  {values = dense<[1, 1, 1, 128]> : tensor<4xindex>} : () -> !tosa.shape<4>
    %6 = tosa.const_shape  {values = dense<[1, 2, 1, 128]> : tensor<4xindex>} : () -> !tosa.shape<4>
    %7 = tosa.const_shape  {values = dense<[1, 256]> : tensor<2xindex>} : () -> !tosa.shape<2>
    %cst_11 = arith.constant dense<0.000000e+00> : tensor<1x256xf32>
    %8 = tosa.const_shape  {values = dense<[1, 12, 1, 128]> : tensor<4xindex>} : () -> !tosa.shape<4>
    %cst_12 = arith.constant dense<0.000000e+00> : tensor<1x1536xf32>
    %9 = tosa.const_shape  {values = dense<[1, 1536]> : tensor<2xindex>} : () -> !tosa.shape<2>
    %10 = tosa.const_shape  {values = dense<[1, 1, 1536]> : tensor<3xindex>} : () -> !tosa.shape<3>
    %cst_13 = arith.constant dense<9.99999997E-7> : tensor<1x1x1xf32>
    %c2_i32 = arith.constant 2 : i32
    %cst_14 = arith.constant dense<0> : tensor<1xi8>
    %11 = tosa.const_shape  {values = dense<[1, 1, 128]> : tensor<3xindex>} : () -> !tosa.shape<3>
    %cst_15 = arith.constant dense<0.000000e+00> : tensor<1x1x2x64xf32>
    %12 = tosa.const_shape  {values = dense<[1, 1, 1, 64]> : tensor<4xindex>} : () -> !tosa.shape<4>
    %cst_16 = arith.constant dense<0.000000e+00> : tensor<1xf32>
    %13 = tosa.const_shape  {values = dense<1> : tensor<3xindex>} : () -> !tosa.shape<3>
    %14 = tosa.const_shape  {values = dense<[1, 64, 1]> : tensor<3xindex>} : () -> !tosa.shape<3>
    %15 = tosa.const_shape  {values = dense<1> : tensor<2xindex>} : () -> !tosa.shape<2>
    %16 = tosa.const_shape  {values = dense<[1, 151936, 1536]> : tensor<3xindex>} : () -> !tosa.shape<3>
    %17 = tensor.empty() : tensor<1x1xi32>
    %18 = linalg.generic {indexing_maps = [#map, #map], iterator_types = ["parallel", "parallel"]} ins(%arg1 : tensor<1x1xi64>) outs(%17 : tensor<1x1xi32>) {
    ^bb0(%in: i64, %out: i32):
      %2454 = arith.trunci %in : i64 to i32
      linalg.yield %2454 : i32
    } -> tensor<1x1xi32>
    %expanded = tensor.expand_shape %arg0 [[0, 1], [2]] output_shape [1, 151936, 1536] : tensor<151936x1536xf32> into tensor<1x151936x1536xf32>
    %19 = tensor.empty() : tensor<1x1x1536xf32>
    %20 = linalg.generic {indexing_maps = [#map1, #map2], iterator_types = ["parallel", "parallel", "parallel"]} ins(%18 : tensor<1x1xi32>) outs(%19 : tensor<1x1x1536xf32>) {
    ^bb0(%in: i32, %out: f32):
      %c0_1172 = arith.constant 0 : index
      %2454 = arith.index_cast %in : i32 to index
      %2455 = linalg.index 2 : index
      %extracted = tensor.extract %expanded[%c0_1172, %2454, %2455] : tensor<1x151936x1536xf32>
      linalg.yield %extracted : f32
    } -> tensor<1x1x1536xf32>
    %expanded_17 = tensor.expand_shape %arg3 [[0, 1]] output_shape [1, 1] : tensor<1xi64> into tensor<1x1xi64>
    %21 = tensor.empty() : tensor<1x1024xi1>
    %22 = linalg.generic {indexing_maps = [#map3, #map, #map], iterator_types = ["parallel", "parallel"]} ins(%expanded_17, %cst_3 : tensor<1x1xi64>, tensor<1x1024xi64>) outs(%21 : tensor<1x1024xi1>) {
    ^bb0(%in: i64, %in_1172: i64, %out: i1):
      %2454 = arith.cmpi sge, %in, %in_1172 : i64
      linalg.yield %2454 : i1
    } -> tensor<1x1024xi1>
    %expanded_18 = tensor.expand_shape %arg4 [[0, 1, 2]] output_shape [1, 64, 1] : tensor<64xf32> into tensor<1x64x1xf32>
    %expanded_19 = tensor.expand_shape %arg3 [[0, 1, 2]] output_shape [1, 1, 1] : tensor<1xi64> into tensor<1x1x1xi64>
    %23 = tensor.empty() : tensor<1x1x1xf32>
    %24 = linalg.generic {indexing_maps = [#map2, #map2], iterator_types = ["parallel", "parallel", "parallel"]} ins(%expanded_19 : tensor<1x1x1xi64>) outs(%23 : tensor<1x1x1xf32>) {
    ^bb0(%in: i64, %out: f32):
      %2454 = arith.sitofp %in : i64 to f32
      linalg.yield %2454 : f32
    } -> tensor<1x1x1xf32>
    %25 = tensor.empty() : tensor<1x64x1xf32>
    %26 = linalg.generic {indexing_maps = [#map2, #map4, #map2], iterator_types = ["parallel", "parallel", "parallel"]} ins(%expanded_18, %24 : tensor<1x64x1xf32>, tensor<1x1x1xf32>) outs(%25 : tensor<1x64x1xf32>) {
    ^bb0(%in: f32, %in_1172: f32, %out: f32):
      %2454 = arith.mulf %in, %in_1172 : f32
      linalg.yield %2454 : f32
    } -> tensor<1x64x1xf32>
    %collapsed = tensor.collapse_shape %26 [[0], [1, 2]] : tensor<1x64x1xf32> into tensor<1x64xf32>
    %expanded_20 = tensor.expand_shape %collapsed [[0, 1, 2], [3]] output_shape [1, 1, 1, 64] : tensor<1x64xf32> into tensor<1x1x1x64xf32>
    %27 = tensor.empty() : tensor<1x1x2x64xf32>
    %28 = linalg.generic {indexing_maps = [#map5, #map6, #map6], iterator_types = ["parallel", "parallel", "parallel", "parallel"]} ins(%expanded_20, %cst_15 : tensor<1x1x1x64xf32>, tensor<1x1x2x64xf32>) outs(%27 : tensor<1x1x2x64xf32>) {
    ^bb0(%in: f32, %in_1172: f32, %out: f32):
      %2454 = arith.addf %in, %in_1172 : f32
      linalg.yield %2454 : f32
    } -> tensor<1x1x2x64xf32>
    %collapsed_21 = tensor.collapse_shape %28 [[0], [1], [2, 3]] : tensor<1x1x2x64xf32> into tensor<1x1x128xf32>
    %29 = math.cos %collapsed_21 : tensor<1x1x128xf32>
    %30 = math.sin %collapsed_21 : tensor<1x1x128xf32>
    %31 = tensor.empty() : tensor<1x1x1536xf32>
    %32 = linalg.generic {indexing_maps = [#map2, #map2], iterator_types = ["parallel", "parallel", "parallel"]} ins(%20 : tensor<1x1x1536xf32>) outs(%31 : tensor<1x1x1536xf32>) {
    ^bb0(%in: f32, %out: f32):
      %2454 = math.fpowi %in, %c2_i32 : f32, i32
      linalg.yield %2454 : f32
    } -> tensor<1x1x1536xf32>
    %33 = tensor.empty() : tensor<1x1xf32>
    %cst_22 = arith.constant 0.000000e+00 : f32
    %34 = linalg.fill ins(%cst_22 : f32) outs(%33 : tensor<1x1xf32>) -> tensor<1x1xf32>
    %reduced = linalg.reduce ins(%32 : tensor<1x1x1536xf32>) outs(%34 : tensor<1x1xf32>) dimensions = [2]
      (%in: f32, %init: f32) {
        %2454 = arith.addf %in, %init : f32
        linalg.yield %2454 : f32
      }
    %expanded_23 = tensor.expand_shape %reduced [[0], [1, 2]] output_shape [1, 1, 1] : tensor<1x1xf32> into tensor<1x1x1xf32>
    %35 = tensor.empty() : tensor<1x1x1xf32>
    %36 = linalg.generic {indexing_maps = [#map2, #map2, #map2], iterator_types = ["parallel", "parallel", "parallel"]} ins(%expanded_23, %cst_2 : tensor<1x1x1xf32>, tensor<1x1x1xf32>) outs(%35 : tensor<1x1x1xf32>) {
    ^bb0(%in: f32, %in_1172: f32, %out: f32):
      %2454 = arith.mulf %in, %in_1172 : f32
      linalg.yield %2454 : f32
    } -> tensor<1x1x1xf32>
    %37 = tensor.empty() : tensor<1x1x1xf32>
    %38 = linalg.generic {indexing_maps = [#map2, #map2, #map2], iterator_types = ["parallel", "parallel", "parallel"]} ins(%36, %cst_13 : tensor<1x1x1xf32>, tensor<1x1x1xf32>) outs(%37 : tensor<1x1x1xf32>) {
    ^bb0(%in: f32, %in_1172: f32, %out: f32):
      %2454 = arith.addf %in, %in_1172 : f32
      linalg.yield %2454 : f32
    } -> tensor<1x1x1xf32>
    %39 = tensor.empty() : tensor<1x1x1xf32>
    %40 = linalg.generic {indexing_maps = [#map2, #map2], iterator_types = ["parallel", "parallel", "parallel"]} ins(%38 : tensor<1x1x1xf32>) outs(%39 : tensor<1x1x1xf32>) {
    ^bb0(%in: f32, %out: f32):
      %2454 = math.rsqrt %in : f32
      linalg.yield %2454 : f32
    } -> tensor<1x1x1xf32>
    %41 = tensor.empty() : tensor<1x1x1536xf32>
    %42 = linalg.generic {indexing_maps = [#map2, #map7, #map2], iterator_types = ["parallel", "parallel", "parallel"]} ins(%20, %40 : tensor<1x1x1536xf32>, tensor<1x1x1xf32>) outs(%41 : tensor<1x1x1536xf32>) {
    ^bb0(%in: f32, %in_1172: f32, %out: f32):
      %2454 = arith.mulf %in, %in_1172 : f32
      linalg.yield %2454 : f32
    } -> tensor<1x1x1536xf32>
    %expanded_24 = tensor.expand_shape %arg5 [[0, 1, 2]] output_shape [1, 1, 1536] : tensor<1536xf32> into tensor<1x1x1536xf32>
    %43 = tensor.empty() : tensor<1x1x1536xf32>
    %44 = linalg.generic {indexing_maps = [#map2, #map2, #map2], iterator_types = ["parallel", "parallel", "parallel"]} ins(%expanded_24, %42 : tensor<1x1x1536xf32>, tensor<1x1x1536xf32>) outs(%43 : tensor<1x1x1536xf32>) {
    ^bb0(%in: f32, %in_1172: f32, %out: f32):
      %2454 = arith.mulf %in, %in_1172 : f32
      linalg.yield %2454 : f32
    } -> tensor<1x1x1536xf32>
    %collapsed_25 = tensor.collapse_shape %44 [[0, 1], [2]] : tensor<1x1x1536xf32> into tensor<1x1536xf32>
    %45 = linalg.matmul {cast = #linalg.type_fn<cast_signed>} ins(%collapsed_25, %arg7 : tensor<1x1536xf32>, tensor<1536x1536xf32>) outs(%cst_12 : tensor<1x1536xf32>) -> tensor<1x1536xf32>
    %expanded_26 = tensor.expand_shape %arg6 [[0, 1]] output_shape [1, 1536] : tensor<1536xf32> into tensor<1x1536xf32>
    %46 = tensor.empty() : tensor<1x1536xf32>
    %47 = linalg.generic {indexing_maps = [#map, #map, #map], iterator_types = ["parallel", "parallel"]} ins(%expanded_26, %45 : tensor<1x1536xf32>, tensor<1x1536xf32>) outs(%46 : tensor<1x1536xf32>) {
    ^bb0(%in: f32, %in_1172: f32, %out: f32):
      %2454 = arith.addf %in, %in_1172 : f32
      linalg.yield %2454 : f32
    } -> tensor<1x1536xf32>
    %expanded_27 = tensor.expand_shape %47 [[0], [1, 2, 3]] output_shape [1, 12, 1, 128] : tensor<1x1536xf32> into tensor<1x12x1x128xf32>
    %collapsed_28 = tensor.collapse_shape %44 [[0, 1], [2]] : tensor<1x1x1536xf32> into tensor<1x1536xf32>
    %48 = linalg.matmul {cast = #linalg.type_fn<cast_signed>} ins(%collapsed_28, %arg9 : tensor<1x1536xf32>, tensor<1536x256xf32>) outs(%cst_11 : tensor<1x256xf32>) -> tensor<1x256xf32>
    %expanded_29 = tensor.expand_shape %arg8 [[0, 1]] output_shape [1, 256] : tensor<256xf32> into tensor<1x256xf32>
    %49 = tensor.empty() : tensor<1x256xf32>
    %50 = linalg.generic {indexing_maps = [#map, #map, #map], iterator_types = ["parallel", "parallel"]} ins(%expanded_29, %48 : tensor<1x256xf32>, tensor<1x256xf32>) outs(%49 : tensor<1x256xf32>) {
    ^bb0(%in: f32, %in_1172: f32, %out: f32):
      %2454 = arith.addf %in, %in_1172 : f32
      linalg.yield %2454 : f32
    } -> tensor<1x256xf32>
    %expanded_30 = tensor.expand_shape %50 [[0], [1, 2, 3]] output_shape [1, 2, 1, 128] : tensor<1x256xf32> into tensor<1x2x1x128xf32>
    %collapsed_31 = tensor.collapse_shape %44 [[0, 1], [2]] : tensor<1x1x1536xf32> into tensor<1x1536xf32>
    %51 = linalg.matmul {cast = #linalg.type_fn<cast_signed>} ins(%collapsed_31, %arg11 : tensor<1x1536xf32>, tensor<1536x256xf32>) outs(%cst_11 : tensor<1x256xf32>) -> tensor<1x256xf32>
    %expanded_32 = tensor.expand_shape %arg10 [[0, 1]] output_shape [1, 256] : tensor<256xf32> into tensor<1x256xf32>
    %52 = tensor.empty() : tensor<1x256xf32>
    %53 = linalg.generic {indexing_maps = [#map, #map, #map], iterator_types = ["parallel", "parallel"]} ins(%expanded_32, %51 : tensor<1x256xf32>, tensor<1x256xf32>) outs(%52 : tensor<1x256xf32>) {
    ^bb0(%in: f32, %in_1172: f32, %out: f32):
      %2454 = arith.addf %in, %in_1172 : f32
      linalg.yield %2454 : f32
    } -> tensor<1x256xf32>
    %expanded_33 = tensor.expand_shape %53 [[0], [1, 2, 3]] output_shape [1, 2, 1, 128] : tensor<1x256xf32> into tensor<1x2x1x128xf32>
    %expanded_34 = tensor.expand_shape %29 [[0], [1, 2], [3]] output_shape [1, 1, 1, 128] : tensor<1x1x128xf32> into tensor<1x1x1x128xf32>
    %expanded_35 = tensor.expand_shape %30 [[0], [1, 2], [3]] output_shape [1, 1, 1, 128] : tensor<1x1x128xf32> into tensor<1x1x1x128xf32>
    %54 = tensor.empty() : tensor<1x12x1x128xf32>
    %55 = linalg.generic {indexing_maps = [#map6, #map8, #map6], iterator_types = ["parallel", "parallel", "parallel", "parallel"]} ins(%expanded_27, %expanded_34 : tensor<1x12x1x128xf32>, tensor<1x1x1x128xf32>) outs(%54 : tensor<1x12x1x128xf32>) {
    ^bb0(%in: f32, %in_1172: f32, %out: f32):
      %2454 = arith.mulf %in, %in_1172 : f32
      linalg.yield %2454 : f32
    } -> tensor<1x12x1x128xf32>
    %extracted_slice = tensor.extract_slice %expanded_27[0, 0, 0, 0] [1, 12, 1, 64] [1, 1, 1, 1] : tensor<1x12x1x128xf32> to tensor<1x12x1x64xf32>
    %extracted_slice_36 = tensor.extract_slice %expanded_27[0, 0, 0, 64] [1, 12, 1, 64] [1, 1, 1, 1] : tensor<1x12x1x128xf32> to tensor<1x12x1x64xf32>
    %56 = tensor.empty() : tensor<1x12x1x64xf32>
    %57 = linalg.generic {indexing_maps = [#map6, #map6], iterator_types = ["parallel", "parallel", "parallel", "parallel"]} ins(%extracted_slice_36 : tensor<1x12x1x64xf32>) outs(%56 : tensor<1x12x1x64xf32>) {
    ^bb0(%in: f32, %out: f32):
      %2454 = arith.negf %in : f32
      linalg.yield %2454 : f32
    } -> tensor<1x12x1x64xf32>
    %58 = tensor.empty() : tensor<1x12x1x128xf32>
    %inserted_slice = tensor.insert_slice %57 into %58[0, 0, 0, 0] [1, 12, 1, 64] [1, 1, 1, 1] : tensor<1x12x1x64xf32> into tensor<1x12x1x128xf32>
    %inserted_slice_37 = tensor.insert_slice %extracted_slice into %inserted_slice[0, 0, 0, 64] [1, 12, 1, 64] [1, 1, 1, 1] : tensor<1x12x1x64xf32> into tensor<1x12x1x128xf32>
    %59 = tensor.empty() : tensor<1x12x1x128xf32>
    %60 = linalg.generic {indexing_maps = [#map6, #map8, #map6], iterator_types = ["parallel", "parallel", "parallel", "parallel"]} ins(%inserted_slice_37, %expanded_35 : tensor<1x12x1x128xf32>, tensor<1x1x1x128xf32>) outs(%59 : tensor<1x12x1x128xf32>) {
    ^bb0(%in: f32, %in_1172: f32, %out: f32):
      %2454 = arith.mulf %in, %in_1172 : f32
      linalg.yield %2454 : f32
    } -> tensor<1x12x1x128xf32>
    %61 = tensor.empty() : tensor<1x12x1x128xf32>
    %62 = linalg.generic {indexing_maps = [#map6, #map6, #map6], iterator_types = ["parallel", "parallel", "parallel", "parallel"]} ins(%55, %60 : tensor<1x12x1x128xf32>, tensor<1x12x1x128xf32>) outs(%61 : tensor<1x12x1x128xf32>) {
    ^bb0(%in: f32, %in_1172: f32, %out: f32):
      %2454 = arith.addf %in, %in_1172 : f32
      linalg.yield %2454 : f32
    } -> tensor<1x12x1x128xf32>
    %63 = tensor.empty() : tensor<1x2x1x128xf32>
    %64 = linalg.generic {indexing_maps = [#map6, #map8, #map6], iterator_types = ["parallel", "parallel", "parallel", "parallel"]} ins(%expanded_30, %expanded_34 : tensor<1x2x1x128xf32>, tensor<1x1x1x128xf32>) outs(%63 : tensor<1x2x1x128xf32>) {
    ^bb0(%in: f32, %in_1172: f32, %out: f32):
      %2454 = arith.mulf %in, %in_1172 : f32
      linalg.yield %2454 : f32
    } -> tensor<1x2x1x128xf32>
    %extracted_slice_38 = tensor.extract_slice %expanded_30[0, 0, 0, 0] [1, 2, 1, 64] [1, 1, 1, 1] : tensor<1x2x1x128xf32> to tensor<1x2x1x64xf32>
    %extracted_slice_39 = tensor.extract_slice %expanded_30[0, 0, 0, 64] [1, 2, 1, 64] [1, 1, 1, 1] : tensor<1x2x1x128xf32> to tensor<1x2x1x64xf32>
    %65 = tensor.empty() : tensor<1x2x1x64xf32>
    %66 = linalg.generic {indexing_maps = [#map6, #map6], iterator_types = ["parallel", "parallel", "parallel", "parallel"]} ins(%extracted_slice_39 : tensor<1x2x1x64xf32>) outs(%65 : tensor<1x2x1x64xf32>) {
    ^bb0(%in: f32, %out: f32):
      %2454 = arith.negf %in : f32
      linalg.yield %2454 : f32
    } -> tensor<1x2x1x64xf32>
    %67 = tensor.empty() : tensor<1x2x1x128xf32>
    %inserted_slice_40 = tensor.insert_slice %66 into %67[0, 0, 0, 0] [1, 2, 1, 64] [1, 1, 1, 1] : tensor<1x2x1x64xf32> into tensor<1x2x1x128xf32>
    %inserted_slice_41 = tensor.insert_slice %extracted_slice_38 into %inserted_slice_40[0, 0, 0, 64] [1, 2, 1, 64] [1, 1, 1, 1] : tensor<1x2x1x64xf32> into tensor<1x2x1x128xf32>
    %68 = tensor.empty() : tensor<1x2x1x128xf32>
    %69 = linalg.generic {indexing_maps = [#map6, #map8, #map6], iterator_types = ["parallel", "parallel", "parallel", "parallel"]} ins(%inserted_slice_41, %expanded_35 : tensor<1x2x1x128xf32>, tensor<1x1x1x128xf32>) outs(%68 : tensor<1x2x1x128xf32>) {
    ^bb0(%in: f32, %in_1172: f32, %out: f32):
      %2454 = arith.mulf %in, %in_1172 : f32
      linalg.yield %2454 : f32
    } -> tensor<1x2x1x128xf32>
    %70 = tensor.empty() : tensor<1x2x1x128xf32>
    %71 = linalg.generic {indexing_maps = [#map6, #map6, #map6], iterator_types = ["parallel", "parallel", "parallel", "parallel"]} ins(%64, %69 : tensor<1x2x1x128xf32>, tensor<1x2x1x128xf32>) outs(%70 : tensor<1x2x1x128xf32>) {
    ^bb0(%in: f32, %in_1172: f32, %out: f32):
      %2454 = arith.addf %in, %in_1172 : f32
      linalg.yield %2454 : f32
    } -> tensor<1x2x1x128xf32>
    %72 = bufferization.to_buffer %arg12 : tensor<1x2x1024x128xf32> to memref<1x2x1024x128xf32>
    %expanded_42 = tensor.expand_shape %arg3 [[0, 1, 2, 3]] output_shape [1, 1, 1, 1] : tensor<1xi64> into tensor<1x1x1x1xi64>
    %73 = tensor.empty() : tensor<1x2x1x128xi64>
    %74 = linalg.generic {indexing_maps = [#map9, #map6, #map6], iterator_types = ["parallel", "parallel", "parallel", "parallel"]} ins(%expanded_42, %cst_10 : tensor<1x1x1x1xi64>, tensor<1x2x1x128xi64>) outs(%73 : tensor<1x2x1x128xi64>) {
    ^bb0(%in: i64, %in_1172: i64, %out: i64):
      %2454 = arith.addi %in, %in_1172 : i64
      linalg.yield %2454 : i64
    } -> tensor<1x2x1x128xi64>
    %75 = bufferization.to_buffer %74 : tensor<1x2x1x128xi64> to memref<1x2x1x128xi64>
    %76 = bufferization.to_buffer %71 : tensor<1x2x1x128xf32> to memref<1x2x1x128xf32>
    scf.for %arg399 = %c0 to %c1 step %c1 {
      scf.for %arg400 = %c0 to %c2 step %c1 {
        scf.for %arg401 = %c0 to %c1 step %c1 {
          scf.for %arg402 = %c0 to %c128 step %c1 {
            %2454 = memref.load %76[%arg399, %arg400, %arg401, %arg402] : memref<1x2x1x128xf32>
            %2455 = memref.load %75[%arg399, %arg400, %arg401, %arg402] : memref<1x2x1x128xi64>
            %2456 = arith.index_cast %2455 : i64 to index
            memref.store %2454, %72[%arg399, %arg400, %2456, %arg402] : memref<1x2x1024x128xf32>
          }
        }
      }
    }
    %77 = bufferization.to_tensor %72 restrict : memref<1x2x1024x128xf32> to tensor<1x2x1024x128xf32>
    %78 = bufferization.to_buffer %arg13 : tensor<1x2x1024x128xf32> to memref<1x2x1024x128xf32>
    %expanded_43 = tensor.expand_shape %arg3 [[0, 1, 2, 3]] output_shape [1, 1, 1, 1] : tensor<1xi64> into tensor<1x1x1x1xi64>
    %79 = tensor.empty() : tensor<1x2x1x128xi64>
    %80 = linalg.generic {indexing_maps = [#map9, #map6, #map6], iterator_types = ["parallel", "parallel", "parallel", "parallel"]} ins(%expanded_43, %cst_10 : tensor<1x1x1x1xi64>, tensor<1x2x1x128xi64>) outs(%79 : tensor<1x2x1x128xi64>) {
    ^bb0(%in: i64, %in_1172: i64, %out: i64):
      %2454 = arith.addi %in, %in_1172 : i64
      linalg.yield %2454 : i64
    } -> tensor<1x2x1x128xi64>
    %81 = bufferization.to_buffer %80 : tensor<1x2x1x128xi64> to memref<1x2x1x128xi64>
    %82 = bufferization.to_buffer %expanded_33 : tensor<1x2x1x128xf32> to memref<1x2x1x128xf32>
    scf.for %arg399 = %c0 to %c1 step %c1 {
      scf.for %arg400 = %c0 to %c2 step %c1 {
        scf.for %arg401 = %c0 to %c1 step %c1 {
          scf.for %arg402 = %c0 to %c128 step %c1 {
            %2454 = memref.load %82[%arg399, %arg400, %arg401, %arg402] : memref<1x2x1x128xf32>
            %2455 = memref.load %81[%arg399, %arg400, %arg401, %arg402] : memref<1x2x1x128xi64>
            %2456 = arith.index_cast %2455 : i64 to index
            memref.store %2454, %78[%arg399, %arg400, %2456, %arg402] : memref<1x2x1024x128xf32>
          }
        }
      }
    }
    %83 = bufferization.to_tensor %78 restrict : memref<1x2x1024x128xf32> to tensor<1x2x1024x128xf32>
    %expanded_44 = tensor.expand_shape %22 [[0, 1, 2], [3]] output_shape [1, 1, 1, 1024] : tensor<1x1024xi1> into tensor<1x1x1x1024xi1>
    %84 = tensor.empty() : tensor<1x1x1x1024xf32>
    %85 = linalg.generic {indexing_maps = [#map6, #map6, #map6, #map6], iterator_types = ["parallel", "parallel", "parallel", "parallel"]} ins(%expanded_44, %cst_1, %cst_0 : tensor<1x1x1x1024xi1>, tensor<1x1x1x1024xf32>, tensor<1x1x1x1024xf32>) outs(%84 : tensor<1x1x1x1024xf32>) {
    ^bb0(%in: i1, %in_1172: f32, %in_1173: f32, %out: f32):
      %2454 = arith.select %in, %in_1172, %in_1173 : f32
      linalg.yield %2454 : f32
    } -> tensor<1x1x1x1024xf32>
    %86 = bufferization.to_buffer %62 : tensor<1x12x1x128xf32> to memref<1x12x1x128xf32>
    %87 = bufferization.to_buffer %85 : tensor<1x1x1x1024xf32> to memref<1x1x1x1024xf32>
    %alloc = memref.alloc() : memref<1x12x1x128xf32>
    %alloc_45 = memref.alloc() : memref<1x12x1xf32>
    %alloc_46 = memref.alloc() : memref<128xf32>
    affine.for %arg399 = 0 to 1 {
      affine.for %arg400 = 0 to 12 {
        %2454 = arith.divsi %arg400, %c6 : index
        affine.for %arg401 = 0 to 1 {
          affine.for %arg402 = 0 to 128 {
            memref.store %cst_9, %alloc_46[%arg402] : memref<128xf32>
          }
          %2455:2 = affine.for %arg402 = 0 to 1024 iter_args(%arg403 = %cst_6, %arg404 = %cst_9) -> (f32, f32) {
            %2456 = affine.for %arg405 = 0 to 128 step 16 iter_args(%arg406 = %cst) -> (vector<16xf32>) {
              %2471 = vector.load %86[%arg399, %arg400, %arg401, %arg405] : memref<1x12x1x128xf32>, vector<16xf32>
              %2472 = vector.load %72[%arg399, %2454, %arg402, %arg405] : memref<1x2x1024x128xf32>, vector<16xf32>
              %2473 = vector.fma %2471, %2472, %arg406 : vector<16xf32>
              affine.yield %2473 : vector<16xf32>
            }
            %2457 = vector.reduction <add>, %2456 : vector<16xf32> into f32
            %2458 = arith.mulf %2457, %cst_7 : f32
            %2459 = memref.load %87[%arg399, %c0, %arg401, %arg402] : memref<1x1x1x1024xf32>
            %2460 = arith.addf %2458, %2459 : f32
            %2461 = arith.cmpf ogt, %2460, %arg403 : f32
            %2462 = arith.select %2461, %2460, %arg403 : f32
            %2463 = arith.subf %arg403, %2460 : f32
            %2464 = math.exp %2463 : f32
            %2465 = arith.mulf %2464, %arg404 : f32
            %2466 = arith.addf %2465, %cst_8 : f32
            %2467 = arith.subf %2460, %arg403 : f32
            %2468 = math.exp %2467 : f32
            %2469 = arith.addf %arg404, %2468 : f32
            %2470 = arith.select %2461, %2466, %2469 : f32
            affine.for %arg405 = 0 to 128 {
              %2471 = memref.load %78[%arg399, %2454, %arg402, %arg405] : memref<1x2x1024x128xf32>
              %2472 = memref.load %alloc_46[%arg405] : memref<128xf32>
              %2473 = arith.mulf %2472, %2464 : f32
              %2474 = arith.addf %2473, %2471 : f32
              %2475 = arith.mulf %2468, %2471 : f32
              %2476 = arith.addf %2475, %2472 : f32
              %2477 = arith.select %2461, %2474, %2476 : f32
              memref.store %2477, %alloc_46[%arg405] : memref<128xf32>
            }
            affine.yield %2462, %2470 : f32, f32
          }
          memref.store %2455#1, %alloc_45[%arg399, %arg400, %arg401] : memref<1x12x1xf32>
          affine.for %arg402 = 0 to 128 {
            %2456 = memref.load %alloc_46[%arg402] : memref<128xf32>
            %2457 = arith.divf %2456, %2455#1 : f32
            memref.store %2457, %alloc[%arg399, %arg400, %arg401, %arg402] : memref<1x12x1x128xf32>
          }
        }
      }
    }
    %88 = bufferization.to_tensor %alloc restrict : memref<1x12x1x128xf32> to tensor<1x12x1x128xf32>
    %collapsed_47 = tensor.collapse_shape %88 [[0], [1, 2, 3]] : tensor<1x12x1x128xf32> into tensor<1x1536xf32>
    %89 = linalg.matmul {cast = #linalg.type_fn<cast_signed>} ins(%collapsed_47, %arg14 : tensor<1x1536xf32>, tensor<1536x1536xf32>) outs(%cst_12 : tensor<1x1536xf32>) -> tensor<1x1536xf32>
    %expanded_48 = tensor.expand_shape %89 [[0, 1], [2]] output_shape [1, 1, 1536] : tensor<1x1536xf32> into tensor<1x1x1536xf32>
    %90 = tensor.empty() : tensor<1x1x1536xf32>
    %91 = linalg.generic {indexing_maps = [#map2, #map2, #map2], iterator_types = ["parallel", "parallel", "parallel"]} ins(%20, %expanded_48 : tensor<1x1x1536xf32>, tensor<1x1x1536xf32>) outs(%90 : tensor<1x1x1536xf32>) {
    ^bb0(%in: f32, %in_1172: f32, %out: f32):
      %2454 = arith.addf %in, %in_1172 : f32
      linalg.yield %2454 : f32
    } -> tensor<1x1x1536xf32>
    %92 = tensor.empty() : tensor<1x1x1536xf32>
    %93 = linalg.generic {indexing_maps = [#map2, #map2], iterator_types = ["parallel", "parallel", "parallel"]} ins(%91 : tensor<1x1x1536xf32>) outs(%92 : tensor<1x1x1536xf32>) {
    ^bb0(%in: f32, %out: f32):
      %2454 = math.fpowi %in, %c2_i32 : f32, i32
      linalg.yield %2454 : f32
    } -> tensor<1x1x1536xf32>
    %94 = tensor.empty() : tensor<1x1xf32>
    %cst_49 = arith.constant 0.000000e+00 : f32
    %95 = linalg.fill ins(%cst_49 : f32) outs(%94 : tensor<1x1xf32>) -> tensor<1x1xf32>
    %reduced_50 = linalg.reduce ins(%93 : tensor<1x1x1536xf32>) outs(%95 : tensor<1x1xf32>) dimensions = [2]
      (%in: f32, %init: f32) {
        %2454 = arith.addf %in, %init : f32
        linalg.yield %2454 : f32
      }
    %expanded_51 = tensor.expand_shape %reduced_50 [[0], [1, 2]] output_shape [1, 1, 1] : tensor<1x1xf32> into tensor<1x1x1xf32>
    %96 = tensor.empty() : tensor<1x1x1xf32>
    %97 = linalg.generic {indexing_maps = [#map2, #map2, #map2], iterator_types = ["parallel", "parallel", "parallel"]} ins(%expanded_51, %cst_2 : tensor<1x1x1xf32>, tensor<1x1x1xf32>) outs(%96 : tensor<1x1x1xf32>) {
    ^bb0(%in: f32, %in_1172: f32, %out: f32):
      %2454 = arith.mulf %in, %in_1172 : f32
      linalg.yield %2454 : f32
    } -> tensor<1x1x1xf32>
    %98 = tensor.empty() : tensor<1x1x1xf32>
    %99 = linalg.generic {indexing_maps = [#map2, #map2, #map2], iterator_types = ["parallel", "parallel", "parallel"]} ins(%97, %cst_13 : tensor<1x1x1xf32>, tensor<1x1x1xf32>) outs(%98 : tensor<1x1x1xf32>) {
    ^bb0(%in: f32, %in_1172: f32, %out: f32):
      %2454 = arith.addf %in, %in_1172 : f32
      linalg.yield %2454 : f32
    } -> tensor<1x1x1xf32>
    %100 = tensor.empty() : tensor<1x1x1xf32>
    %101 = linalg.generic {indexing_maps = [#map2, #map2], iterator_types = ["parallel", "parallel", "parallel"]} ins(%99 : tensor<1x1x1xf32>) outs(%100 : tensor<1x1x1xf32>) {
    ^bb0(%in: f32, %out: f32):
      %2454 = math.rsqrt %in : f32
      linalg.yield %2454 : f32
    } -> tensor<1x1x1xf32>
    %102 = tensor.empty() : tensor<1x1x1536xf32>
    %103 = linalg.generic {indexing_maps = [#map2, #map7, #map2], iterator_types = ["parallel", "parallel", "parallel"]} ins(%91, %101 : tensor<1x1x1536xf32>, tensor<1x1x1xf32>) outs(%102 : tensor<1x1x1536xf32>) {
    ^bb0(%in: f32, %in_1172: f32, %out: f32):
      %2454 = arith.mulf %in, %in_1172 : f32
      linalg.yield %2454 : f32
    } -> tensor<1x1x1536xf32>
    %expanded_52 = tensor.expand_shape %arg15 [[0, 1, 2]] output_shape [1, 1, 1536] : tensor<1536xf32> into tensor<1x1x1536xf32>
    %104 = tensor.empty() : tensor<1x1x1536xf32>
    %105 = linalg.generic {indexing_maps = [#map2, #map2, #map2], iterator_types = ["parallel", "parallel", "parallel"]} ins(%expanded_52, %103 : tensor<1x1x1536xf32>, tensor<1x1x1536xf32>) outs(%104 : tensor<1x1x1536xf32>) {
    ^bb0(%in: f32, %in_1172: f32, %out: f32):
      %2454 = arith.mulf %in, %in_1172 : f32
      linalg.yield %2454 : f32
    } -> tensor<1x1x1536xf32>
    %collapsed_53 = tensor.collapse_shape %105 [[0, 1], [2]] : tensor<1x1x1536xf32> into tensor<1x1536xf32>
    %106 = linalg.matmul {cast = #linalg.type_fn<cast_signed>} ins(%collapsed_53, %arg16 : tensor<1x1536xf32>, tensor<1536x8960xf32>) outs(%cst_5 : tensor<1x8960xf32>) -> tensor<1x8960xf32>
    %expanded_54 = tensor.expand_shape %106 [[0, 1], [2]] output_shape [1, 1, 8960] : tensor<1x8960xf32> into tensor<1x1x8960xf32>
    %107 = tensor.empty() : tensor<1x1x8960xf32>
    %108 = linalg.generic {indexing_maps = [#map2, #map2], iterator_types = ["parallel", "parallel", "parallel"]} ins(%expanded_54 : tensor<1x1x8960xf32>) outs(%107 : tensor<1x1x8960xf32>) {
    ^bb0(%in: f32, %out: f32):
      %cst_1172 = arith.constant 1.000000e+00 : f32
      %2454 = arith.negf %in : f32
      %2455 = math.exp %2454 : f32
      %2456 = arith.addf %2455, %cst_1172 : f32
      %2457 = arith.divf %cst_1172, %2456 : f32
      linalg.yield %2457 : f32
    } -> tensor<1x1x8960xf32>
    %109 = tensor.empty() : tensor<1x1x8960xf32>
    %110 = linalg.generic {indexing_maps = [#map2, #map2, #map2], iterator_types = ["parallel", "parallel", "parallel"]} ins(%expanded_54, %108 : tensor<1x1x8960xf32>, tensor<1x1x8960xf32>) outs(%109 : tensor<1x1x8960xf32>) {
    ^bb0(%in: f32, %in_1172: f32, %out: f32):
      %2454 = arith.mulf %in, %in_1172 : f32
      linalg.yield %2454 : f32
    } -> tensor<1x1x8960xf32>
    %collapsed_55 = tensor.collapse_shape %105 [[0, 1], [2]] : tensor<1x1x1536xf32> into tensor<1x1536xf32>
    %111 = linalg.matmul {cast = #linalg.type_fn<cast_signed>} ins(%collapsed_55, %arg17 : tensor<1x1536xf32>, tensor<1536x8960xf32>) outs(%cst_5 : tensor<1x8960xf32>) -> tensor<1x8960xf32>
    %expanded_56 = tensor.expand_shape %111 [[0, 1], [2]] output_shape [1, 1, 8960] : tensor<1x8960xf32> into tensor<1x1x8960xf32>
    %112 = tensor.empty() : tensor<1x1x8960xf32>
    %113 = linalg.generic {indexing_maps = [#map2, #map2, #map2], iterator_types = ["parallel", "parallel", "parallel"]} ins(%110, %expanded_56 : tensor<1x1x8960xf32>, tensor<1x1x8960xf32>) outs(%112 : tensor<1x1x8960xf32>) {
    ^bb0(%in: f32, %in_1172: f32, %out: f32):
      %2454 = arith.mulf %in, %in_1172 : f32
      linalg.yield %2454 : f32
    } -> tensor<1x1x8960xf32>
    %collapsed_57 = tensor.collapse_shape %113 [[0, 1], [2]] : tensor<1x1x8960xf32> into tensor<1x8960xf32>
    %114 = linalg.matmul {cast = #linalg.type_fn<cast_signed>} ins(%collapsed_57, %arg18 : tensor<1x8960xf32>, tensor<8960x1536xf32>) outs(%cst_12 : tensor<1x1536xf32>) -> tensor<1x1536xf32>
    %expanded_58 = tensor.expand_shape %114 [[0, 1], [2]] output_shape [1, 1, 1536] : tensor<1x1536xf32> into tensor<1x1x1536xf32>
    %115 = tensor.empty() : tensor<1x1x1536xf32>
    %116 = linalg.generic {indexing_maps = [#map2, #map2, #map2], iterator_types = ["parallel", "parallel", "parallel"]} ins(%91, %expanded_58 : tensor<1x1x1536xf32>, tensor<1x1x1536xf32>) outs(%115 : tensor<1x1x1536xf32>) {
    ^bb0(%in: f32, %in_1172: f32, %out: f32):
      %2454 = arith.addf %in, %in_1172 : f32
      linalg.yield %2454 : f32
    } -> tensor<1x1x1536xf32>
    %117 = tensor.empty() : tensor<1x1x1536xf32>
    %118 = linalg.generic {indexing_maps = [#map2, #map2], iterator_types = ["parallel", "parallel", "parallel"]} ins(%116 : tensor<1x1x1536xf32>) outs(%117 : tensor<1x1x1536xf32>) {
    ^bb0(%in: f32, %out: f32):
      %2454 = math.fpowi %in, %c2_i32 : f32, i32
      linalg.yield %2454 : f32
    } -> tensor<1x1x1536xf32>
    %119 = tensor.empty() : tensor<1x1xf32>
    %cst_59 = arith.constant 0.000000e+00 : f32
    %120 = linalg.fill ins(%cst_59 : f32) outs(%119 : tensor<1x1xf32>) -> tensor<1x1xf32>
    %reduced_60 = linalg.reduce ins(%118 : tensor<1x1x1536xf32>) outs(%120 : tensor<1x1xf32>) dimensions = [2]
      (%in: f32, %init: f32) {
        %2454 = arith.addf %in, %init : f32
        linalg.yield %2454 : f32
      }
    %expanded_61 = tensor.expand_shape %reduced_60 [[0], [1, 2]] output_shape [1, 1, 1] : tensor<1x1xf32> into tensor<1x1x1xf32>
    %121 = tensor.empty() : tensor<1x1x1xf32>
    %122 = linalg.generic {indexing_maps = [#map2, #map2, #map2], iterator_types = ["parallel", "parallel", "parallel"]} ins(%expanded_61, %cst_2 : tensor<1x1x1xf32>, tensor<1x1x1xf32>) outs(%121 : tensor<1x1x1xf32>) {
    ^bb0(%in: f32, %in_1172: f32, %out: f32):
      %2454 = arith.mulf %in, %in_1172 : f32
      linalg.yield %2454 : f32
    } -> tensor<1x1x1xf32>
    %123 = tensor.empty() : tensor<1x1x1xf32>
    %124 = linalg.generic {indexing_maps = [#map2, #map2, #map2], iterator_types = ["parallel", "parallel", "parallel"]} ins(%122, %cst_13 : tensor<1x1x1xf32>, tensor<1x1x1xf32>) outs(%123 : tensor<1x1x1xf32>) {
    ^bb0(%in: f32, %in_1172: f32, %out: f32):
      %2454 = arith.addf %in, %in_1172 : f32
      linalg.yield %2454 : f32
    } -> tensor<1x1x1xf32>
    %125 = tensor.empty() : tensor<1x1x1xf32>
    %126 = linalg.generic {indexing_maps = [#map2, #map2], iterator_types = ["parallel", "parallel", "parallel"]} ins(%124 : tensor<1x1x1xf32>) outs(%125 : tensor<1x1x1xf32>) {
    ^bb0(%in: f32, %out: f32):
      %2454 = math.rsqrt %in : f32
      linalg.yield %2454 : f32
    } -> tensor<1x1x1xf32>
    %127 = tensor.empty() : tensor<1x1x1536xf32>
    %128 = linalg.generic {indexing_maps = [#map2, #map7, #map2], iterator_types = ["parallel", "parallel", "parallel"]} ins(%116, %126 : tensor<1x1x1536xf32>, tensor<1x1x1xf32>) outs(%127 : tensor<1x1x1536xf32>) {
    ^bb0(%in: f32, %in_1172: f32, %out: f32):
      %2454 = arith.mulf %in, %in_1172 : f32
      linalg.yield %2454 : f32
    } -> tensor<1x1x1536xf32>
    %expanded_62 = tensor.expand_shape %arg19 [[0, 1, 2]] output_shape [1, 1, 1536] : tensor<1536xf32> into tensor<1x1x1536xf32>
    %129 = tensor.empty() : tensor<1x1x1536xf32>
    %130 = linalg.generic {indexing_maps = [#map2, #map2, #map2], iterator_types = ["parallel", "parallel", "parallel"]} ins(%expanded_62, %128 : tensor<1x1x1536xf32>, tensor<1x1x1536xf32>) outs(%129 : tensor<1x1x1536xf32>) {
    ^bb0(%in: f32, %in_1172: f32, %out: f32):
      %2454 = arith.mulf %in, %in_1172 : f32
      linalg.yield %2454 : f32
    } -> tensor<1x1x1536xf32>
    %collapsed_63 = tensor.collapse_shape %130 [[0, 1], [2]] : tensor<1x1x1536xf32> into tensor<1x1536xf32>
    %131 = linalg.matmul {cast = #linalg.type_fn<cast_signed>} ins(%collapsed_63, %arg21 : tensor<1x1536xf32>, tensor<1536x1536xf32>) outs(%cst_12 : tensor<1x1536xf32>) -> tensor<1x1536xf32>
    %expanded_64 = tensor.expand_shape %arg20 [[0, 1]] output_shape [1, 1536] : tensor<1536xf32> into tensor<1x1536xf32>
    %132 = tensor.empty() : tensor<1x1536xf32>
    %133 = linalg.generic {indexing_maps = [#map, #map, #map], iterator_types = ["parallel", "parallel"]} ins(%expanded_64, %131 : tensor<1x1536xf32>, tensor<1x1536xf32>) outs(%132 : tensor<1x1536xf32>) {
    ^bb0(%in: f32, %in_1172: f32, %out: f32):
      %2454 = arith.addf %in, %in_1172 : f32
      linalg.yield %2454 : f32
    } -> tensor<1x1536xf32>
    %expanded_65 = tensor.expand_shape %133 [[0], [1, 2, 3]] output_shape [1, 12, 1, 128] : tensor<1x1536xf32> into tensor<1x12x1x128xf32>
    %collapsed_66 = tensor.collapse_shape %130 [[0, 1], [2]] : tensor<1x1x1536xf32> into tensor<1x1536xf32>
    %134 = linalg.matmul {cast = #linalg.type_fn<cast_signed>} ins(%collapsed_66, %arg23 : tensor<1x1536xf32>, tensor<1536x256xf32>) outs(%cst_11 : tensor<1x256xf32>) -> tensor<1x256xf32>
    %expanded_67 = tensor.expand_shape %arg22 [[0, 1]] output_shape [1, 256] : tensor<256xf32> into tensor<1x256xf32>
    %135 = tensor.empty() : tensor<1x256xf32>
    %136 = linalg.generic {indexing_maps = [#map, #map, #map], iterator_types = ["parallel", "parallel"]} ins(%expanded_67, %134 : tensor<1x256xf32>, tensor<1x256xf32>) outs(%135 : tensor<1x256xf32>) {
    ^bb0(%in: f32, %in_1172: f32, %out: f32):
      %2454 = arith.addf %in, %in_1172 : f32
      linalg.yield %2454 : f32
    } -> tensor<1x256xf32>
    %expanded_68 = tensor.expand_shape %136 [[0], [1, 2, 3]] output_shape [1, 2, 1, 128] : tensor<1x256xf32> into tensor<1x2x1x128xf32>
    %collapsed_69 = tensor.collapse_shape %130 [[0, 1], [2]] : tensor<1x1x1536xf32> into tensor<1x1536xf32>
    %137 = linalg.matmul {cast = #linalg.type_fn<cast_signed>} ins(%collapsed_69, %arg25 : tensor<1x1536xf32>, tensor<1536x256xf32>) outs(%cst_11 : tensor<1x256xf32>) -> tensor<1x256xf32>
    %expanded_70 = tensor.expand_shape %arg24 [[0, 1]] output_shape [1, 256] : tensor<256xf32> into tensor<1x256xf32>
    %138 = tensor.empty() : tensor<1x256xf32>
    %139 = linalg.generic {indexing_maps = [#map, #map, #map], iterator_types = ["parallel", "parallel"]} ins(%expanded_70, %137 : tensor<1x256xf32>, tensor<1x256xf32>) outs(%138 : tensor<1x256xf32>) {
    ^bb0(%in: f32, %in_1172: f32, %out: f32):
      %2454 = arith.addf %in, %in_1172 : f32
      linalg.yield %2454 : f32
    } -> tensor<1x256xf32>
    %expanded_71 = tensor.expand_shape %139 [[0], [1, 2, 3]] output_shape [1, 2, 1, 128] : tensor<1x256xf32> into tensor<1x2x1x128xf32>
    %expanded_72 = tensor.expand_shape %29 [[0], [1, 2], [3]] output_shape [1, 1, 1, 128] : tensor<1x1x128xf32> into tensor<1x1x1x128xf32>
    %expanded_73 = tensor.expand_shape %30 [[0], [1, 2], [3]] output_shape [1, 1, 1, 128] : tensor<1x1x128xf32> into tensor<1x1x1x128xf32>
    %140 = tensor.empty() : tensor<1x12x1x128xf32>
    %141 = linalg.generic {indexing_maps = [#map6, #map8, #map6], iterator_types = ["parallel", "parallel", "parallel", "parallel"]} ins(%expanded_65, %expanded_72 : tensor<1x12x1x128xf32>, tensor<1x1x1x128xf32>) outs(%140 : tensor<1x12x1x128xf32>) {
    ^bb0(%in: f32, %in_1172: f32, %out: f32):
      %2454 = arith.mulf %in, %in_1172 : f32
      linalg.yield %2454 : f32
    } -> tensor<1x12x1x128xf32>
    %extracted_slice_74 = tensor.extract_slice %expanded_65[0, 0, 0, 0] [1, 12, 1, 64] [1, 1, 1, 1] : tensor<1x12x1x128xf32> to tensor<1x12x1x64xf32>
    %extracted_slice_75 = tensor.extract_slice %expanded_65[0, 0, 0, 64] [1, 12, 1, 64] [1, 1, 1, 1] : tensor<1x12x1x128xf32> to tensor<1x12x1x64xf32>
    %142 = tensor.empty() : tensor<1x12x1x64xf32>
    %143 = linalg.generic {indexing_maps = [#map6, #map6], iterator_types = ["parallel", "parallel", "parallel", "parallel"]} ins(%extracted_slice_75 : tensor<1x12x1x64xf32>) outs(%142 : tensor<1x12x1x64xf32>) {
    ^bb0(%in: f32, %out: f32):
      %2454 = arith.negf %in : f32
      linalg.yield %2454 : f32
    } -> tensor<1x12x1x64xf32>
    %144 = tensor.empty() : tensor<1x12x1x128xf32>
    %inserted_slice_76 = tensor.insert_slice %143 into %144[0, 0, 0, 0] [1, 12, 1, 64] [1, 1, 1, 1] : tensor<1x12x1x64xf32> into tensor<1x12x1x128xf32>
    %inserted_slice_77 = tensor.insert_slice %extracted_slice_74 into %inserted_slice_76[0, 0, 0, 64] [1, 12, 1, 64] [1, 1, 1, 1] : tensor<1x12x1x64xf32> into tensor<1x12x1x128xf32>
    %145 = tensor.empty() : tensor<1x12x1x128xf32>
    %146 = linalg.generic {indexing_maps = [#map6, #map8, #map6], iterator_types = ["parallel", "parallel", "parallel", "parallel"]} ins(%inserted_slice_77, %expanded_73 : tensor<1x12x1x128xf32>, tensor<1x1x1x128xf32>) outs(%145 : tensor<1x12x1x128xf32>) {
    ^bb0(%in: f32, %in_1172: f32, %out: f32):
      %2454 = arith.mulf %in, %in_1172 : f32
      linalg.yield %2454 : f32
    } -> tensor<1x12x1x128xf32>
    %147 = tensor.empty() : tensor<1x12x1x128xf32>
    %148 = linalg.generic {indexing_maps = [#map6, #map6, #map6], iterator_types = ["parallel", "parallel", "parallel", "parallel"]} ins(%141, %146 : tensor<1x12x1x128xf32>, tensor<1x12x1x128xf32>) outs(%147 : tensor<1x12x1x128xf32>) {
    ^bb0(%in: f32, %in_1172: f32, %out: f32):
      %2454 = arith.addf %in, %in_1172 : f32
      linalg.yield %2454 : f32
    } -> tensor<1x12x1x128xf32>
    %149 = tensor.empty() : tensor<1x2x1x128xf32>
    %150 = linalg.generic {indexing_maps = [#map6, #map8, #map6], iterator_types = ["parallel", "parallel", "parallel", "parallel"]} ins(%expanded_68, %expanded_72 : tensor<1x2x1x128xf32>, tensor<1x1x1x128xf32>) outs(%149 : tensor<1x2x1x128xf32>) {
    ^bb0(%in: f32, %in_1172: f32, %out: f32):
      %2454 = arith.mulf %in, %in_1172 : f32
      linalg.yield %2454 : f32
    } -> tensor<1x2x1x128xf32>
    %extracted_slice_78 = tensor.extract_slice %expanded_68[0, 0, 0, 0] [1, 2, 1, 64] [1, 1, 1, 1] : tensor<1x2x1x128xf32> to tensor<1x2x1x64xf32>
    %extracted_slice_79 = tensor.extract_slice %expanded_68[0, 0, 0, 64] [1, 2, 1, 64] [1, 1, 1, 1] : tensor<1x2x1x128xf32> to tensor<1x2x1x64xf32>
    %151 = tensor.empty() : tensor<1x2x1x64xf32>
    %152 = linalg.generic {indexing_maps = [#map6, #map6], iterator_types = ["parallel", "parallel", "parallel", "parallel"]} ins(%extracted_slice_79 : tensor<1x2x1x64xf32>) outs(%151 : tensor<1x2x1x64xf32>) {
    ^bb0(%in: f32, %out: f32):
      %2454 = arith.negf %in : f32
      linalg.yield %2454 : f32
    } -> tensor<1x2x1x64xf32>
    %153 = tensor.empty() : tensor<1x2x1x128xf32>
    %inserted_slice_80 = tensor.insert_slice %152 into %153[0, 0, 0, 0] [1, 2, 1, 64] [1, 1, 1, 1] : tensor<1x2x1x64xf32> into tensor<1x2x1x128xf32>
    %inserted_slice_81 = tensor.insert_slice %extracted_slice_78 into %inserted_slice_80[0, 0, 0, 64] [1, 2, 1, 64] [1, 1, 1, 1] : tensor<1x2x1x64xf32> into tensor<1x2x1x128xf32>
    %154 = tensor.empty() : tensor<1x2x1x128xf32>
    %155 = linalg.generic {indexing_maps = [#map6, #map8, #map6], iterator_types = ["parallel", "parallel", "parallel", "parallel"]} ins(%inserted_slice_81, %expanded_73 : tensor<1x2x1x128xf32>, tensor<1x1x1x128xf32>) outs(%154 : tensor<1x2x1x128xf32>) {
    ^bb0(%in: f32, %in_1172: f32, %out: f32):
      %2454 = arith.mulf %in, %in_1172 : f32
      linalg.yield %2454 : f32
    } -> tensor<1x2x1x128xf32>
    %156 = tensor.empty() : tensor<1x2x1x128xf32>
    %157 = linalg.generic {indexing_maps = [#map6, #map6, #map6], iterator_types = ["parallel", "parallel", "parallel", "parallel"]} ins(%150, %155 : tensor<1x2x1x128xf32>, tensor<1x2x1x128xf32>) outs(%156 : tensor<1x2x1x128xf32>) {
    ^bb0(%in: f32, %in_1172: f32, %out: f32):
      %2454 = arith.addf %in, %in_1172 : f32
      linalg.yield %2454 : f32
    } -> tensor<1x2x1x128xf32>
    %158 = bufferization.to_buffer %arg26 : tensor<1x2x1024x128xf32> to memref<1x2x1024x128xf32>
    %expanded_82 = tensor.expand_shape %arg3 [[0, 1, 2, 3]] output_shape [1, 1, 1, 1] : tensor<1xi64> into tensor<1x1x1x1xi64>
    %159 = tensor.empty() : tensor<1x2x1x128xi64>
    %160 = linalg.generic {indexing_maps = [#map9, #map6, #map6], iterator_types = ["parallel", "parallel", "parallel", "parallel"]} ins(%expanded_82, %cst_10 : tensor<1x1x1x1xi64>, tensor<1x2x1x128xi64>) outs(%159 : tensor<1x2x1x128xi64>) {
    ^bb0(%in: i64, %in_1172: i64, %out: i64):
      %2454 = arith.addi %in, %in_1172 : i64
      linalg.yield %2454 : i64
    } -> tensor<1x2x1x128xi64>
    %161 = bufferization.to_buffer %160 : tensor<1x2x1x128xi64> to memref<1x2x1x128xi64>
    %162 = bufferization.to_buffer %157 : tensor<1x2x1x128xf32> to memref<1x2x1x128xf32>
    scf.for %arg399 = %c0 to %c1 step %c1 {
      scf.for %arg400 = %c0 to %c2 step %c1 {
        scf.for %arg401 = %c0 to %c1 step %c1 {
          scf.for %arg402 = %c0 to %c128 step %c1 {
            %2454 = memref.load %162[%arg399, %arg400, %arg401, %arg402] : memref<1x2x1x128xf32>
            %2455 = memref.load %161[%arg399, %arg400, %arg401, %arg402] : memref<1x2x1x128xi64>
            %2456 = arith.index_cast %2455 : i64 to index
            memref.store %2454, %158[%arg399, %arg400, %2456, %arg402] : memref<1x2x1024x128xf32>
          }
        }
      }
    }
    %163 = bufferization.to_tensor %158 restrict : memref<1x2x1024x128xf32> to tensor<1x2x1024x128xf32>
    %164 = bufferization.to_buffer %arg27 : tensor<1x2x1024x128xf32> to memref<1x2x1024x128xf32>
    %expanded_83 = tensor.expand_shape %arg3 [[0, 1, 2, 3]] output_shape [1, 1, 1, 1] : tensor<1xi64> into tensor<1x1x1x1xi64>
    %165 = tensor.empty() : tensor<1x2x1x128xi64>
    %166 = linalg.generic {indexing_maps = [#map9, #map6, #map6], iterator_types = ["parallel", "parallel", "parallel", "parallel"]} ins(%expanded_83, %cst_10 : tensor<1x1x1x1xi64>, tensor<1x2x1x128xi64>) outs(%165 : tensor<1x2x1x128xi64>) {
    ^bb0(%in: i64, %in_1172: i64, %out: i64):
      %2454 = arith.addi %in, %in_1172 : i64
      linalg.yield %2454 : i64
    } -> tensor<1x2x1x128xi64>
    %167 = bufferization.to_buffer %166 : tensor<1x2x1x128xi64> to memref<1x2x1x128xi64>
    %168 = bufferization.to_buffer %expanded_71 : tensor<1x2x1x128xf32> to memref<1x2x1x128xf32>
    scf.for %arg399 = %c0 to %c1 step %c1 {
      scf.for %arg400 = %c0 to %c2 step %c1 {
        scf.for %arg401 = %c0 to %c1 step %c1 {
          scf.for %arg402 = %c0 to %c128 step %c1 {
            %2454 = memref.load %168[%arg399, %arg400, %arg401, %arg402] : memref<1x2x1x128xf32>
            %2455 = memref.load %167[%arg399, %arg400, %arg401, %arg402] : memref<1x2x1x128xi64>
            %2456 = arith.index_cast %2455 : i64 to index
            memref.store %2454, %164[%arg399, %arg400, %2456, %arg402] : memref<1x2x1024x128xf32>
          }
        }
      }
    }
    %169 = bufferization.to_tensor %164 restrict : memref<1x2x1024x128xf32> to tensor<1x2x1024x128xf32>
    %expanded_84 = tensor.expand_shape %22 [[0, 1, 2], [3]] output_shape [1, 1, 1, 1024] : tensor<1x1024xi1> into tensor<1x1x1x1024xi1>
    %170 = tensor.empty() : tensor<1x1x1x1024xf32>
    %171 = linalg.generic {indexing_maps = [#map6, #map6, #map6, #map6], iterator_types = ["parallel", "parallel", "parallel", "parallel"]} ins(%expanded_84, %cst_1, %cst_0 : tensor<1x1x1x1024xi1>, tensor<1x1x1x1024xf32>, tensor<1x1x1x1024xf32>) outs(%170 : tensor<1x1x1x1024xf32>) {
    ^bb0(%in: i1, %in_1172: f32, %in_1173: f32, %out: f32):
      %2454 = arith.select %in, %in_1172, %in_1173 : f32
      linalg.yield %2454 : f32
    } -> tensor<1x1x1x1024xf32>
    %172 = bufferization.to_buffer %148 : tensor<1x12x1x128xf32> to memref<1x12x1x128xf32>
    %173 = bufferization.to_buffer %171 : tensor<1x1x1x1024xf32> to memref<1x1x1x1024xf32>
    %alloc_85 = memref.alloc() : memref<1x12x1x128xf32>
    %alloc_86 = memref.alloc() : memref<1x12x1xf32>
    %alloc_87 = memref.alloc() : memref<128xf32>
    affine.for %arg399 = 0 to 1 {
      affine.for %arg400 = 0 to 12 {
        %2454 = arith.divsi %arg400, %c6 : index
        affine.for %arg401 = 0 to 1 {
          affine.for %arg402 = 0 to 128 {
            memref.store %cst_9, %alloc_87[%arg402] : memref<128xf32>
          }
          %2455:2 = affine.for %arg402 = 0 to 1024 iter_args(%arg403 = %cst_6, %arg404 = %cst_9) -> (f32, f32) {
            %2456 = affine.for %arg405 = 0 to 128 step 16 iter_args(%arg406 = %cst) -> (vector<16xf32>) {
              %2471 = vector.load %172[%arg399, %arg400, %arg401, %arg405] : memref<1x12x1x128xf32>, vector<16xf32>
              %2472 = vector.load %158[%arg399, %2454, %arg402, %arg405] : memref<1x2x1024x128xf32>, vector<16xf32>
              %2473 = vector.fma %2471, %2472, %arg406 : vector<16xf32>
              affine.yield %2473 : vector<16xf32>
            }
            %2457 = vector.reduction <add>, %2456 : vector<16xf32> into f32
            %2458 = arith.mulf %2457, %cst_7 : f32
            %2459 = memref.load %173[%arg399, %c0, %arg401, %arg402] : memref<1x1x1x1024xf32>
            %2460 = arith.addf %2458, %2459 : f32
            %2461 = arith.cmpf ogt, %2460, %arg403 : f32
            %2462 = arith.select %2461, %2460, %arg403 : f32
            %2463 = arith.subf %arg403, %2460 : f32
            %2464 = math.exp %2463 : f32
            %2465 = arith.mulf %2464, %arg404 : f32
            %2466 = arith.addf %2465, %cst_8 : f32
            %2467 = arith.subf %2460, %arg403 : f32
            %2468 = math.exp %2467 : f32
            %2469 = arith.addf %arg404, %2468 : f32
            %2470 = arith.select %2461, %2466, %2469 : f32
            affine.for %arg405 = 0 to 128 {
              %2471 = memref.load %164[%arg399, %2454, %arg402, %arg405] : memref<1x2x1024x128xf32>
              %2472 = memref.load %alloc_87[%arg405] : memref<128xf32>
              %2473 = arith.mulf %2472, %2464 : f32
              %2474 = arith.addf %2473, %2471 : f32
              %2475 = arith.mulf %2468, %2471 : f32
              %2476 = arith.addf %2475, %2472 : f32
              %2477 = arith.select %2461, %2474, %2476 : f32
              memref.store %2477, %alloc_87[%arg405] : memref<128xf32>
            }
            affine.yield %2462, %2470 : f32, f32
          }
          memref.store %2455#1, %alloc_86[%arg399, %arg400, %arg401] : memref<1x12x1xf32>
          affine.for %arg402 = 0 to 128 {
            %2456 = memref.load %alloc_87[%arg402] : memref<128xf32>
            %2457 = arith.divf %2456, %2455#1 : f32
            memref.store %2457, %alloc_85[%arg399, %arg400, %arg401, %arg402] : memref<1x12x1x128xf32>
          }
        }
      }
    }
    %174 = bufferization.to_tensor %alloc_85 restrict : memref<1x12x1x128xf32> to tensor<1x12x1x128xf32>
    %collapsed_88 = tensor.collapse_shape %174 [[0], [1, 2, 3]] : tensor<1x12x1x128xf32> into tensor<1x1536xf32>
    %175 = linalg.matmul {cast = #linalg.type_fn<cast_signed>} ins(%collapsed_88, %arg28 : tensor<1x1536xf32>, tensor<1536x1536xf32>) outs(%cst_12 : tensor<1x1536xf32>) -> tensor<1x1536xf32>
    %expanded_89 = tensor.expand_shape %175 [[0, 1], [2]] output_shape [1, 1, 1536] : tensor<1x1536xf32> into tensor<1x1x1536xf32>
    %176 = tensor.empty() : tensor<1x1x1536xf32>
    %177 = linalg.generic {indexing_maps = [#map2, #map2, #map2], iterator_types = ["parallel", "parallel", "parallel"]} ins(%116, %expanded_89 : tensor<1x1x1536xf32>, tensor<1x1x1536xf32>) outs(%176 : tensor<1x1x1536xf32>) {
    ^bb0(%in: f32, %in_1172: f32, %out: f32):
      %2454 = arith.addf %in, %in_1172 : f32
      linalg.yield %2454 : f32
    } -> tensor<1x1x1536xf32>
    %178 = tensor.empty() : tensor<1x1x1536xf32>
    %179 = linalg.generic {indexing_maps = [#map2, #map2], iterator_types = ["parallel", "parallel", "parallel"]} ins(%177 : tensor<1x1x1536xf32>) outs(%178 : tensor<1x1x1536xf32>) {
    ^bb0(%in: f32, %out: f32):
      %2454 = math.fpowi %in, %c2_i32 : f32, i32
      linalg.yield %2454 : f32
    } -> tensor<1x1x1536xf32>
    %180 = tensor.empty() : tensor<1x1xf32>
    %cst_90 = arith.constant 0.000000e+00 : f32
    %181 = linalg.fill ins(%cst_90 : f32) outs(%180 : tensor<1x1xf32>) -> tensor<1x1xf32>
    %reduced_91 = linalg.reduce ins(%179 : tensor<1x1x1536xf32>) outs(%181 : tensor<1x1xf32>) dimensions = [2]
      (%in: f32, %init: f32) {
        %2454 = arith.addf %in, %init : f32
        linalg.yield %2454 : f32
      }
    %expanded_92 = tensor.expand_shape %reduced_91 [[0], [1, 2]] output_shape [1, 1, 1] : tensor<1x1xf32> into tensor<1x1x1xf32>
    %182 = tensor.empty() : tensor<1x1x1xf32>
    %183 = linalg.generic {indexing_maps = [#map2, #map2, #map2], iterator_types = ["parallel", "parallel", "parallel"]} ins(%expanded_92, %cst_2 : tensor<1x1x1xf32>, tensor<1x1x1xf32>) outs(%182 : tensor<1x1x1xf32>) {
    ^bb0(%in: f32, %in_1172: f32, %out: f32):
      %2454 = arith.mulf %in, %in_1172 : f32
      linalg.yield %2454 : f32
    } -> tensor<1x1x1xf32>
    %184 = tensor.empty() : tensor<1x1x1xf32>
    %185 = linalg.generic {indexing_maps = [#map2, #map2, #map2], iterator_types = ["parallel", "parallel", "parallel"]} ins(%183, %cst_13 : tensor<1x1x1xf32>, tensor<1x1x1xf32>) outs(%184 : tensor<1x1x1xf32>) {
    ^bb0(%in: f32, %in_1172: f32, %out: f32):
      %2454 = arith.addf %in, %in_1172 : f32
      linalg.yield %2454 : f32
    } -> tensor<1x1x1xf32>
    %186 = tensor.empty() : tensor<1x1x1xf32>
    %187 = linalg.generic {indexing_maps = [#map2, #map2], iterator_types = ["parallel", "parallel", "parallel"]} ins(%185 : tensor<1x1x1xf32>) outs(%186 : tensor<1x1x1xf32>) {
    ^bb0(%in: f32, %out: f32):
      %2454 = math.rsqrt %in : f32
      linalg.yield %2454 : f32
    } -> tensor<1x1x1xf32>
    %188 = tensor.empty() : tensor<1x1x1536xf32>
    %189 = linalg.generic {indexing_maps = [#map2, #map7, #map2], iterator_types = ["parallel", "parallel", "parallel"]} ins(%177, %187 : tensor<1x1x1536xf32>, tensor<1x1x1xf32>) outs(%188 : tensor<1x1x1536xf32>) {
    ^bb0(%in: f32, %in_1172: f32, %out: f32):
      %2454 = arith.mulf %in, %in_1172 : f32
      linalg.yield %2454 : f32
    } -> tensor<1x1x1536xf32>
    %expanded_93 = tensor.expand_shape %arg29 [[0, 1, 2]] output_shape [1, 1, 1536] : tensor<1536xf32> into tensor<1x1x1536xf32>
    %190 = tensor.empty() : tensor<1x1x1536xf32>
    %191 = linalg.generic {indexing_maps = [#map2, #map2, #map2], iterator_types = ["parallel", "parallel", "parallel"]} ins(%expanded_93, %189 : tensor<1x1x1536xf32>, tensor<1x1x1536xf32>) outs(%190 : tensor<1x1x1536xf32>) {
    ^bb0(%in: f32, %in_1172: f32, %out: f32):
      %2454 = arith.mulf %in, %in_1172 : f32
      linalg.yield %2454 : f32
    } -> tensor<1x1x1536xf32>
    %collapsed_94 = tensor.collapse_shape %191 [[0, 1], [2]] : tensor<1x1x1536xf32> into tensor<1x1536xf32>
    %192 = linalg.matmul {cast = #linalg.type_fn<cast_signed>} ins(%collapsed_94, %arg30 : tensor<1x1536xf32>, tensor<1536x8960xf32>) outs(%cst_5 : tensor<1x8960xf32>) -> tensor<1x8960xf32>
    %expanded_95 = tensor.expand_shape %192 [[0, 1], [2]] output_shape [1, 1, 8960] : tensor<1x8960xf32> into tensor<1x1x8960xf32>
    %193 = tensor.empty() : tensor<1x1x8960xf32>
    %194 = linalg.generic {indexing_maps = [#map2, #map2], iterator_types = ["parallel", "parallel", "parallel"]} ins(%expanded_95 : tensor<1x1x8960xf32>) outs(%193 : tensor<1x1x8960xf32>) {
    ^bb0(%in: f32, %out: f32):
      %cst_1172 = arith.constant 1.000000e+00 : f32
      %2454 = arith.negf %in : f32
      %2455 = math.exp %2454 : f32
      %2456 = arith.addf %2455, %cst_1172 : f32
      %2457 = arith.divf %cst_1172, %2456 : f32
      linalg.yield %2457 : f32
    } -> tensor<1x1x8960xf32>
    %195 = tensor.empty() : tensor<1x1x8960xf32>
    %196 = linalg.generic {indexing_maps = [#map2, #map2, #map2], iterator_types = ["parallel", "parallel", "parallel"]} ins(%expanded_95, %194 : tensor<1x1x8960xf32>, tensor<1x1x8960xf32>) outs(%195 : tensor<1x1x8960xf32>) {
    ^bb0(%in: f32, %in_1172: f32, %out: f32):
      %2454 = arith.mulf %in, %in_1172 : f32
      linalg.yield %2454 : f32
    } -> tensor<1x1x8960xf32>
    %collapsed_96 = tensor.collapse_shape %191 [[0, 1], [2]] : tensor<1x1x1536xf32> into tensor<1x1536xf32>
    %197 = linalg.matmul {cast = #linalg.type_fn<cast_signed>} ins(%collapsed_96, %arg31 : tensor<1x1536xf32>, tensor<1536x8960xf32>) outs(%cst_5 : tensor<1x8960xf32>) -> tensor<1x8960xf32>
    %expanded_97 = tensor.expand_shape %197 [[0, 1], [2]] output_shape [1, 1, 8960] : tensor<1x8960xf32> into tensor<1x1x8960xf32>
    %198 = tensor.empty() : tensor<1x1x8960xf32>
    %199 = linalg.generic {indexing_maps = [#map2, #map2, #map2], iterator_types = ["parallel", "parallel", "parallel"]} ins(%196, %expanded_97 : tensor<1x1x8960xf32>, tensor<1x1x8960xf32>) outs(%198 : tensor<1x1x8960xf32>) {
    ^bb0(%in: f32, %in_1172: f32, %out: f32):
      %2454 = arith.mulf %in, %in_1172 : f32
      linalg.yield %2454 : f32
    } -> tensor<1x1x8960xf32>
    %collapsed_98 = tensor.collapse_shape %199 [[0, 1], [2]] : tensor<1x1x8960xf32> into tensor<1x8960xf32>
    %200 = linalg.matmul {cast = #linalg.type_fn<cast_signed>} ins(%collapsed_98, %arg32 : tensor<1x8960xf32>, tensor<8960x1536xf32>) outs(%cst_12 : tensor<1x1536xf32>) -> tensor<1x1536xf32>
    %expanded_99 = tensor.expand_shape %200 [[0, 1], [2]] output_shape [1, 1, 1536] : tensor<1x1536xf32> into tensor<1x1x1536xf32>
    %201 = tensor.empty() : tensor<1x1x1536xf32>
    %202 = linalg.generic {indexing_maps = [#map2, #map2, #map2], iterator_types = ["parallel", "parallel", "parallel"]} ins(%177, %expanded_99 : tensor<1x1x1536xf32>, tensor<1x1x1536xf32>) outs(%201 : tensor<1x1x1536xf32>) {
    ^bb0(%in: f32, %in_1172: f32, %out: f32):
      %2454 = arith.addf %in, %in_1172 : f32
      linalg.yield %2454 : f32
    } -> tensor<1x1x1536xf32>
    %203 = tensor.empty() : tensor<1x1x1536xf32>
    %204 = linalg.generic {indexing_maps = [#map2, #map2], iterator_types = ["parallel", "parallel", "parallel"]} ins(%202 : tensor<1x1x1536xf32>) outs(%203 : tensor<1x1x1536xf32>) {
    ^bb0(%in: f32, %out: f32):
      %2454 = math.fpowi %in, %c2_i32 : f32, i32
      linalg.yield %2454 : f32
    } -> tensor<1x1x1536xf32>
    %205 = tensor.empty() : tensor<1x1xf32>
    %cst_100 = arith.constant 0.000000e+00 : f32
    %206 = linalg.fill ins(%cst_100 : f32) outs(%205 : tensor<1x1xf32>) -> tensor<1x1xf32>
    %reduced_101 = linalg.reduce ins(%204 : tensor<1x1x1536xf32>) outs(%206 : tensor<1x1xf32>) dimensions = [2]
      (%in: f32, %init: f32) {
        %2454 = arith.addf %in, %init : f32
        linalg.yield %2454 : f32
      }
    %expanded_102 = tensor.expand_shape %reduced_101 [[0], [1, 2]] output_shape [1, 1, 1] : tensor<1x1xf32> into tensor<1x1x1xf32>
    %207 = tensor.empty() : tensor<1x1x1xf32>
    %208 = linalg.generic {indexing_maps = [#map2, #map2, #map2], iterator_types = ["parallel", "parallel", "parallel"]} ins(%expanded_102, %cst_2 : tensor<1x1x1xf32>, tensor<1x1x1xf32>) outs(%207 : tensor<1x1x1xf32>) {
    ^bb0(%in: f32, %in_1172: f32, %out: f32):
      %2454 = arith.mulf %in, %in_1172 : f32
      linalg.yield %2454 : f32
    } -> tensor<1x1x1xf32>
    %209 = tensor.empty() : tensor<1x1x1xf32>
    %210 = linalg.generic {indexing_maps = [#map2, #map2, #map2], iterator_types = ["parallel", "parallel", "parallel"]} ins(%208, %cst_13 : tensor<1x1x1xf32>, tensor<1x1x1xf32>) outs(%209 : tensor<1x1x1xf32>) {
    ^bb0(%in: f32, %in_1172: f32, %out: f32):
      %2454 = arith.addf %in, %in_1172 : f32
      linalg.yield %2454 : f32
    } -> tensor<1x1x1xf32>
    %211 = tensor.empty() : tensor<1x1x1xf32>
    %212 = linalg.generic {indexing_maps = [#map2, #map2], iterator_types = ["parallel", "parallel", "parallel"]} ins(%210 : tensor<1x1x1xf32>) outs(%211 : tensor<1x1x1xf32>) {
    ^bb0(%in: f32, %out: f32):
      %2454 = math.rsqrt %in : f32
      linalg.yield %2454 : f32
    } -> tensor<1x1x1xf32>
    %213 = tensor.empty() : tensor<1x1x1536xf32>
    %214 = linalg.generic {indexing_maps = [#map2, #map7, #map2], iterator_types = ["parallel", "parallel", "parallel"]} ins(%202, %212 : tensor<1x1x1536xf32>, tensor<1x1x1xf32>) outs(%213 : tensor<1x1x1536xf32>) {
    ^bb0(%in: f32, %in_1172: f32, %out: f32):
      %2454 = arith.mulf %in, %in_1172 : f32
      linalg.yield %2454 : f32
    } -> tensor<1x1x1536xf32>
    %expanded_103 = tensor.expand_shape %arg33 [[0, 1, 2]] output_shape [1, 1, 1536] : tensor<1536xf32> into tensor<1x1x1536xf32>
    %215 = tensor.empty() : tensor<1x1x1536xf32>
    %216 = linalg.generic {indexing_maps = [#map2, #map2, #map2], iterator_types = ["parallel", "parallel", "parallel"]} ins(%expanded_103, %214 : tensor<1x1x1536xf32>, tensor<1x1x1536xf32>) outs(%215 : tensor<1x1x1536xf32>) {
    ^bb0(%in: f32, %in_1172: f32, %out: f32):
      %2454 = arith.mulf %in, %in_1172 : f32
      linalg.yield %2454 : f32
    } -> tensor<1x1x1536xf32>
    %collapsed_104 = tensor.collapse_shape %216 [[0, 1], [2]] : tensor<1x1x1536xf32> into tensor<1x1536xf32>
    %217 = linalg.matmul {cast = #linalg.type_fn<cast_signed>} ins(%collapsed_104, %arg35 : tensor<1x1536xf32>, tensor<1536x1536xf32>) outs(%cst_12 : tensor<1x1536xf32>) -> tensor<1x1536xf32>
    %expanded_105 = tensor.expand_shape %arg34 [[0, 1]] output_shape [1, 1536] : tensor<1536xf32> into tensor<1x1536xf32>
    %218 = tensor.empty() : tensor<1x1536xf32>
    %219 = linalg.generic {indexing_maps = [#map, #map, #map], iterator_types = ["parallel", "parallel"]} ins(%expanded_105, %217 : tensor<1x1536xf32>, tensor<1x1536xf32>) outs(%218 : tensor<1x1536xf32>) {
    ^bb0(%in: f32, %in_1172: f32, %out: f32):
      %2454 = arith.addf %in, %in_1172 : f32
      linalg.yield %2454 : f32
    } -> tensor<1x1536xf32>
    %expanded_106 = tensor.expand_shape %219 [[0], [1, 2, 3]] output_shape [1, 12, 1, 128] : tensor<1x1536xf32> into tensor<1x12x1x128xf32>
    %collapsed_107 = tensor.collapse_shape %216 [[0, 1], [2]] : tensor<1x1x1536xf32> into tensor<1x1536xf32>
    %220 = linalg.matmul {cast = #linalg.type_fn<cast_signed>} ins(%collapsed_107, %arg37 : tensor<1x1536xf32>, tensor<1536x256xf32>) outs(%cst_11 : tensor<1x256xf32>) -> tensor<1x256xf32>
    %expanded_108 = tensor.expand_shape %arg36 [[0, 1]] output_shape [1, 256] : tensor<256xf32> into tensor<1x256xf32>
    %221 = tensor.empty() : tensor<1x256xf32>
    %222 = linalg.generic {indexing_maps = [#map, #map, #map], iterator_types = ["parallel", "parallel"]} ins(%expanded_108, %220 : tensor<1x256xf32>, tensor<1x256xf32>) outs(%221 : tensor<1x256xf32>) {
    ^bb0(%in: f32, %in_1172: f32, %out: f32):
      %2454 = arith.addf %in, %in_1172 : f32
      linalg.yield %2454 : f32
    } -> tensor<1x256xf32>
    %expanded_109 = tensor.expand_shape %222 [[0], [1, 2, 3]] output_shape [1, 2, 1, 128] : tensor<1x256xf32> into tensor<1x2x1x128xf32>
    %collapsed_110 = tensor.collapse_shape %216 [[0, 1], [2]] : tensor<1x1x1536xf32> into tensor<1x1536xf32>
    %223 = linalg.matmul {cast = #linalg.type_fn<cast_signed>} ins(%collapsed_110, %arg39 : tensor<1x1536xf32>, tensor<1536x256xf32>) outs(%cst_11 : tensor<1x256xf32>) -> tensor<1x256xf32>
    %expanded_111 = tensor.expand_shape %arg38 [[0, 1]] output_shape [1, 256] : tensor<256xf32> into tensor<1x256xf32>
    %224 = tensor.empty() : tensor<1x256xf32>
    %225 = linalg.generic {indexing_maps = [#map, #map, #map], iterator_types = ["parallel", "parallel"]} ins(%expanded_111, %223 : tensor<1x256xf32>, tensor<1x256xf32>) outs(%224 : tensor<1x256xf32>) {
    ^bb0(%in: f32, %in_1172: f32, %out: f32):
      %2454 = arith.addf %in, %in_1172 : f32
      linalg.yield %2454 : f32
    } -> tensor<1x256xf32>
    %expanded_112 = tensor.expand_shape %225 [[0], [1, 2, 3]] output_shape [1, 2, 1, 128] : tensor<1x256xf32> into tensor<1x2x1x128xf32>
    %expanded_113 = tensor.expand_shape %29 [[0], [1, 2], [3]] output_shape [1, 1, 1, 128] : tensor<1x1x128xf32> into tensor<1x1x1x128xf32>
    %expanded_114 = tensor.expand_shape %30 [[0], [1, 2], [3]] output_shape [1, 1, 1, 128] : tensor<1x1x128xf32> into tensor<1x1x1x128xf32>
    %226 = tensor.empty() : tensor<1x12x1x128xf32>
    %227 = linalg.generic {indexing_maps = [#map6, #map8, #map6], iterator_types = ["parallel", "parallel", "parallel", "parallel"]} ins(%expanded_106, %expanded_113 : tensor<1x12x1x128xf32>, tensor<1x1x1x128xf32>) outs(%226 : tensor<1x12x1x128xf32>) {
    ^bb0(%in: f32, %in_1172: f32, %out: f32):
      %2454 = arith.mulf %in, %in_1172 : f32
      linalg.yield %2454 : f32
    } -> tensor<1x12x1x128xf32>
    %extracted_slice_115 = tensor.extract_slice %expanded_106[0, 0, 0, 0] [1, 12, 1, 64] [1, 1, 1, 1] : tensor<1x12x1x128xf32> to tensor<1x12x1x64xf32>
    %extracted_slice_116 = tensor.extract_slice %expanded_106[0, 0, 0, 64] [1, 12, 1, 64] [1, 1, 1, 1] : tensor<1x12x1x128xf32> to tensor<1x12x1x64xf32>
    %228 = tensor.empty() : tensor<1x12x1x64xf32>
    %229 = linalg.generic {indexing_maps = [#map6, #map6], iterator_types = ["parallel", "parallel", "parallel", "parallel"]} ins(%extracted_slice_116 : tensor<1x12x1x64xf32>) outs(%228 : tensor<1x12x1x64xf32>) {
    ^bb0(%in: f32, %out: f32):
      %2454 = arith.negf %in : f32
      linalg.yield %2454 : f32
    } -> tensor<1x12x1x64xf32>
    %230 = tensor.empty() : tensor<1x12x1x128xf32>
    %inserted_slice_117 = tensor.insert_slice %229 into %230[0, 0, 0, 0] [1, 12, 1, 64] [1, 1, 1, 1] : tensor<1x12x1x64xf32> into tensor<1x12x1x128xf32>
    %inserted_slice_118 = tensor.insert_slice %extracted_slice_115 into %inserted_slice_117[0, 0, 0, 64] [1, 12, 1, 64] [1, 1, 1, 1] : tensor<1x12x1x64xf32> into tensor<1x12x1x128xf32>
    %231 = tensor.empty() : tensor<1x12x1x128xf32>
    %232 = linalg.generic {indexing_maps = [#map6, #map8, #map6], iterator_types = ["parallel", "parallel", "parallel", "parallel"]} ins(%inserted_slice_118, %expanded_114 : tensor<1x12x1x128xf32>, tensor<1x1x1x128xf32>) outs(%231 : tensor<1x12x1x128xf32>) {
    ^bb0(%in: f32, %in_1172: f32, %out: f32):
      %2454 = arith.mulf %in, %in_1172 : f32
      linalg.yield %2454 : f32
    } -> tensor<1x12x1x128xf32>
    %233 = tensor.empty() : tensor<1x12x1x128xf32>
    %234 = linalg.generic {indexing_maps = [#map6, #map6, #map6], iterator_types = ["parallel", "parallel", "parallel", "parallel"]} ins(%227, %232 : tensor<1x12x1x128xf32>, tensor<1x12x1x128xf32>) outs(%233 : tensor<1x12x1x128xf32>) {
    ^bb0(%in: f32, %in_1172: f32, %out: f32):
      %2454 = arith.addf %in, %in_1172 : f32
      linalg.yield %2454 : f32
    } -> tensor<1x12x1x128xf32>
    %235 = tensor.empty() : tensor<1x2x1x128xf32>
    %236 = linalg.generic {indexing_maps = [#map6, #map8, #map6], iterator_types = ["parallel", "parallel", "parallel", "parallel"]} ins(%expanded_109, %expanded_113 : tensor<1x2x1x128xf32>, tensor<1x1x1x128xf32>) outs(%235 : tensor<1x2x1x128xf32>) {
    ^bb0(%in: f32, %in_1172: f32, %out: f32):
      %2454 = arith.mulf %in, %in_1172 : f32
      linalg.yield %2454 : f32
    } -> tensor<1x2x1x128xf32>
    %extracted_slice_119 = tensor.extract_slice %expanded_109[0, 0, 0, 0] [1, 2, 1, 64] [1, 1, 1, 1] : tensor<1x2x1x128xf32> to tensor<1x2x1x64xf32>
    %extracted_slice_120 = tensor.extract_slice %expanded_109[0, 0, 0, 64] [1, 2, 1, 64] [1, 1, 1, 1] : tensor<1x2x1x128xf32> to tensor<1x2x1x64xf32>
    %237 = tensor.empty() : tensor<1x2x1x64xf32>
    %238 = linalg.generic {indexing_maps = [#map6, #map6], iterator_types = ["parallel", "parallel", "parallel", "parallel"]} ins(%extracted_slice_120 : tensor<1x2x1x64xf32>) outs(%237 : tensor<1x2x1x64xf32>) {
    ^bb0(%in: f32, %out: f32):
      %2454 = arith.negf %in : f32
      linalg.yield %2454 : f32
    } -> tensor<1x2x1x64xf32>
    %239 = tensor.empty() : tensor<1x2x1x128xf32>
    %inserted_slice_121 = tensor.insert_slice %238 into %239[0, 0, 0, 0] [1, 2, 1, 64] [1, 1, 1, 1] : tensor<1x2x1x64xf32> into tensor<1x2x1x128xf32>
    %inserted_slice_122 = tensor.insert_slice %extracted_slice_119 into %inserted_slice_121[0, 0, 0, 64] [1, 2, 1, 64] [1, 1, 1, 1] : tensor<1x2x1x64xf32> into tensor<1x2x1x128xf32>
    %240 = tensor.empty() : tensor<1x2x1x128xf32>
    %241 = linalg.generic {indexing_maps = [#map6, #map8, #map6], iterator_types = ["parallel", "parallel", "parallel", "parallel"]} ins(%inserted_slice_122, %expanded_114 : tensor<1x2x1x128xf32>, tensor<1x1x1x128xf32>) outs(%240 : tensor<1x2x1x128xf32>) {
    ^bb0(%in: f32, %in_1172: f32, %out: f32):
      %2454 = arith.mulf %in, %in_1172 : f32
      linalg.yield %2454 : f32
    } -> tensor<1x2x1x128xf32>
    %242 = tensor.empty() : tensor<1x2x1x128xf32>
    %243 = linalg.generic {indexing_maps = [#map6, #map6, #map6], iterator_types = ["parallel", "parallel", "parallel", "parallel"]} ins(%236, %241 : tensor<1x2x1x128xf32>, tensor<1x2x1x128xf32>) outs(%242 : tensor<1x2x1x128xf32>) {
    ^bb0(%in: f32, %in_1172: f32, %out: f32):
      %2454 = arith.addf %in, %in_1172 : f32
      linalg.yield %2454 : f32
    } -> tensor<1x2x1x128xf32>
    %244 = bufferization.to_buffer %arg40 : tensor<1x2x1024x128xf32> to memref<1x2x1024x128xf32>
    %expanded_123 = tensor.expand_shape %arg3 [[0, 1, 2, 3]] output_shape [1, 1, 1, 1] : tensor<1xi64> into tensor<1x1x1x1xi64>
    %245 = tensor.empty() : tensor<1x2x1x128xi64>
    %246 = linalg.generic {indexing_maps = [#map9, #map6, #map6], iterator_types = ["parallel", "parallel", "parallel", "parallel"]} ins(%expanded_123, %cst_10 : tensor<1x1x1x1xi64>, tensor<1x2x1x128xi64>) outs(%245 : tensor<1x2x1x128xi64>) {
    ^bb0(%in: i64, %in_1172: i64, %out: i64):
      %2454 = arith.addi %in, %in_1172 : i64
      linalg.yield %2454 : i64
    } -> tensor<1x2x1x128xi64>
    %247 = bufferization.to_buffer %246 : tensor<1x2x1x128xi64> to memref<1x2x1x128xi64>
    %248 = bufferization.to_buffer %243 : tensor<1x2x1x128xf32> to memref<1x2x1x128xf32>
    scf.for %arg399 = %c0 to %c1 step %c1 {
      scf.for %arg400 = %c0 to %c2 step %c1 {
        scf.for %arg401 = %c0 to %c1 step %c1 {
          scf.for %arg402 = %c0 to %c128 step %c1 {
            %2454 = memref.load %248[%arg399, %arg400, %arg401, %arg402] : memref<1x2x1x128xf32>
            %2455 = memref.load %247[%arg399, %arg400, %arg401, %arg402] : memref<1x2x1x128xi64>
            %2456 = arith.index_cast %2455 : i64 to index
            memref.store %2454, %244[%arg399, %arg400, %2456, %arg402] : memref<1x2x1024x128xf32>
          }
        }
      }
    }
    %249 = bufferization.to_tensor %244 restrict : memref<1x2x1024x128xf32> to tensor<1x2x1024x128xf32>
    %250 = bufferization.to_buffer %arg41 : tensor<1x2x1024x128xf32> to memref<1x2x1024x128xf32>
    %expanded_124 = tensor.expand_shape %arg3 [[0, 1, 2, 3]] output_shape [1, 1, 1, 1] : tensor<1xi64> into tensor<1x1x1x1xi64>
    %251 = tensor.empty() : tensor<1x2x1x128xi64>
    %252 = linalg.generic {indexing_maps = [#map9, #map6, #map6], iterator_types = ["parallel", "parallel", "parallel", "parallel"]} ins(%expanded_124, %cst_10 : tensor<1x1x1x1xi64>, tensor<1x2x1x128xi64>) outs(%251 : tensor<1x2x1x128xi64>) {
    ^bb0(%in: i64, %in_1172: i64, %out: i64):
      %2454 = arith.addi %in, %in_1172 : i64
      linalg.yield %2454 : i64
    } -> tensor<1x2x1x128xi64>
    %253 = bufferization.to_buffer %252 : tensor<1x2x1x128xi64> to memref<1x2x1x128xi64>
    %254 = bufferization.to_buffer %expanded_112 : tensor<1x2x1x128xf32> to memref<1x2x1x128xf32>
    scf.for %arg399 = %c0 to %c1 step %c1 {
      scf.for %arg400 = %c0 to %c2 step %c1 {
        scf.for %arg401 = %c0 to %c1 step %c1 {
          scf.for %arg402 = %c0 to %c128 step %c1 {
            %2454 = memref.load %254[%arg399, %arg400, %arg401, %arg402] : memref<1x2x1x128xf32>
            %2455 = memref.load %253[%arg399, %arg400, %arg401, %arg402] : memref<1x2x1x128xi64>
            %2456 = arith.index_cast %2455 : i64 to index
            memref.store %2454, %250[%arg399, %arg400, %2456, %arg402] : memref<1x2x1024x128xf32>
          }
        }
      }
    }
    %255 = bufferization.to_tensor %250 restrict : memref<1x2x1024x128xf32> to tensor<1x2x1024x128xf32>
    %expanded_125 = tensor.expand_shape %22 [[0, 1, 2], [3]] output_shape [1, 1, 1, 1024] : tensor<1x1024xi1> into tensor<1x1x1x1024xi1>
    %256 = tensor.empty() : tensor<1x1x1x1024xf32>
    %257 = linalg.generic {indexing_maps = [#map6, #map6, #map6, #map6], iterator_types = ["parallel", "parallel", "parallel", "parallel"]} ins(%expanded_125, %cst_1, %cst_0 : tensor<1x1x1x1024xi1>, tensor<1x1x1x1024xf32>, tensor<1x1x1x1024xf32>) outs(%256 : tensor<1x1x1x1024xf32>) {
    ^bb0(%in: i1, %in_1172: f32, %in_1173: f32, %out: f32):
      %2454 = arith.select %in, %in_1172, %in_1173 : f32
      linalg.yield %2454 : f32
    } -> tensor<1x1x1x1024xf32>
    %258 = bufferization.to_buffer %234 : tensor<1x12x1x128xf32> to memref<1x12x1x128xf32>
    %259 = bufferization.to_buffer %257 : tensor<1x1x1x1024xf32> to memref<1x1x1x1024xf32>
    %alloc_126 = memref.alloc() : memref<1x12x1x128xf32>
    %alloc_127 = memref.alloc() : memref<1x12x1xf32>
    %alloc_128 = memref.alloc() : memref<128xf32>
    affine.for %arg399 = 0 to 1 {
      affine.for %arg400 = 0 to 12 {
        %2454 = arith.divsi %arg400, %c6 : index
        affine.for %arg401 = 0 to 1 {
          affine.for %arg402 = 0 to 128 {
            memref.store %cst_9, %alloc_128[%arg402] : memref<128xf32>
          }
          %2455:2 = affine.for %arg402 = 0 to 1024 iter_args(%arg403 = %cst_6, %arg404 = %cst_9) -> (f32, f32) {
            %2456 = affine.for %arg405 = 0 to 128 step 16 iter_args(%arg406 = %cst) -> (vector<16xf32>) {
              %2471 = vector.load %258[%arg399, %arg400, %arg401, %arg405] : memref<1x12x1x128xf32>, vector<16xf32>
              %2472 = vector.load %244[%arg399, %2454, %arg402, %arg405] : memref<1x2x1024x128xf32>, vector<16xf32>
              %2473 = vector.fma %2471, %2472, %arg406 : vector<16xf32>
              affine.yield %2473 : vector<16xf32>
            }
            %2457 = vector.reduction <add>, %2456 : vector<16xf32> into f32
            %2458 = arith.mulf %2457, %cst_7 : f32
            %2459 = memref.load %259[%arg399, %c0, %arg401, %arg402] : memref<1x1x1x1024xf32>
            %2460 = arith.addf %2458, %2459 : f32
            %2461 = arith.cmpf ogt, %2460, %arg403 : f32
            %2462 = arith.select %2461, %2460, %arg403 : f32
            %2463 = arith.subf %arg403, %2460 : f32
            %2464 = math.exp %2463 : f32
            %2465 = arith.mulf %2464, %arg404 : f32
            %2466 = arith.addf %2465, %cst_8 : f32
            %2467 = arith.subf %2460, %arg403 : f32
            %2468 = math.exp %2467 : f32
            %2469 = arith.addf %arg404, %2468 : f32
            %2470 = arith.select %2461, %2466, %2469 : f32
            affine.for %arg405 = 0 to 128 {
              %2471 = memref.load %250[%arg399, %2454, %arg402, %arg405] : memref<1x2x1024x128xf32>
              %2472 = memref.load %alloc_128[%arg405] : memref<128xf32>
              %2473 = arith.mulf %2472, %2464 : f32
              %2474 = arith.addf %2473, %2471 : f32
              %2475 = arith.mulf %2468, %2471 : f32
              %2476 = arith.addf %2475, %2472 : f32
              %2477 = arith.select %2461, %2474, %2476 : f32
              memref.store %2477, %alloc_128[%arg405] : memref<128xf32>
            }
            affine.yield %2462, %2470 : f32, f32
          }
          memref.store %2455#1, %alloc_127[%arg399, %arg400, %arg401] : memref<1x12x1xf32>
          affine.for %arg402 = 0 to 128 {
            %2456 = memref.load %alloc_128[%arg402] : memref<128xf32>
            %2457 = arith.divf %2456, %2455#1 : f32
            memref.store %2457, %alloc_126[%arg399, %arg400, %arg401, %arg402] : memref<1x12x1x128xf32>
          }
        }
      }
    }
    %260 = bufferization.to_tensor %alloc_126 restrict : memref<1x12x1x128xf32> to tensor<1x12x1x128xf32>
    %collapsed_129 = tensor.collapse_shape %260 [[0], [1, 2, 3]] : tensor<1x12x1x128xf32> into tensor<1x1536xf32>
    %261 = linalg.matmul {cast = #linalg.type_fn<cast_signed>} ins(%collapsed_129, %arg42 : tensor<1x1536xf32>, tensor<1536x1536xf32>) outs(%cst_12 : tensor<1x1536xf32>) -> tensor<1x1536xf32>
    %expanded_130 = tensor.expand_shape %261 [[0, 1], [2]] output_shape [1, 1, 1536] : tensor<1x1536xf32> into tensor<1x1x1536xf32>
    %262 = tensor.empty() : tensor<1x1x1536xf32>
    %263 = linalg.generic {indexing_maps = [#map2, #map2, #map2], iterator_types = ["parallel", "parallel", "parallel"]} ins(%202, %expanded_130 : tensor<1x1x1536xf32>, tensor<1x1x1536xf32>) outs(%262 : tensor<1x1x1536xf32>) {
    ^bb0(%in: f32, %in_1172: f32, %out: f32):
      %2454 = arith.addf %in, %in_1172 : f32
      linalg.yield %2454 : f32
    } -> tensor<1x1x1536xf32>
    %264 = tensor.empty() : tensor<1x1x1536xf32>
    %265 = linalg.generic {indexing_maps = [#map2, #map2], iterator_types = ["parallel", "parallel", "parallel"]} ins(%263 : tensor<1x1x1536xf32>) outs(%264 : tensor<1x1x1536xf32>) {
    ^bb0(%in: f32, %out: f32):
      %2454 = math.fpowi %in, %c2_i32 : f32, i32
      linalg.yield %2454 : f32
    } -> tensor<1x1x1536xf32>
    %266 = tensor.empty() : tensor<1x1xf32>
    %cst_131 = arith.constant 0.000000e+00 : f32
    %267 = linalg.fill ins(%cst_131 : f32) outs(%266 : tensor<1x1xf32>) -> tensor<1x1xf32>
    %reduced_132 = linalg.reduce ins(%265 : tensor<1x1x1536xf32>) outs(%267 : tensor<1x1xf32>) dimensions = [2]
      (%in: f32, %init: f32) {
        %2454 = arith.addf %in, %init : f32
        linalg.yield %2454 : f32
      }
    %expanded_133 = tensor.expand_shape %reduced_132 [[0], [1, 2]] output_shape [1, 1, 1] : tensor<1x1xf32> into tensor<1x1x1xf32>
    %268 = tensor.empty() : tensor<1x1x1xf32>
    %269 = linalg.generic {indexing_maps = [#map2, #map2, #map2], iterator_types = ["parallel", "parallel", "parallel"]} ins(%expanded_133, %cst_2 : tensor<1x1x1xf32>, tensor<1x1x1xf32>) outs(%268 : tensor<1x1x1xf32>) {
    ^bb0(%in: f32, %in_1172: f32, %out: f32):
      %2454 = arith.mulf %in, %in_1172 : f32
      linalg.yield %2454 : f32
    } -> tensor<1x1x1xf32>
    %270 = tensor.empty() : tensor<1x1x1xf32>
    %271 = linalg.generic {indexing_maps = [#map2, #map2, #map2], iterator_types = ["parallel", "parallel", "parallel"]} ins(%269, %cst_13 : tensor<1x1x1xf32>, tensor<1x1x1xf32>) outs(%270 : tensor<1x1x1xf32>) {
    ^bb0(%in: f32, %in_1172: f32, %out: f32):
      %2454 = arith.addf %in, %in_1172 : f32
      linalg.yield %2454 : f32
    } -> tensor<1x1x1xf32>
    %272 = tensor.empty() : tensor<1x1x1xf32>
    %273 = linalg.generic {indexing_maps = [#map2, #map2], iterator_types = ["parallel", "parallel", "parallel"]} ins(%271 : tensor<1x1x1xf32>) outs(%272 : tensor<1x1x1xf32>) {
    ^bb0(%in: f32, %out: f32):
      %2454 = math.rsqrt %in : f32
      linalg.yield %2454 : f32
    } -> tensor<1x1x1xf32>
    %274 = tensor.empty() : tensor<1x1x1536xf32>
    %275 = linalg.generic {indexing_maps = [#map2, #map7, #map2], iterator_types = ["parallel", "parallel", "parallel"]} ins(%263, %273 : tensor<1x1x1536xf32>, tensor<1x1x1xf32>) outs(%274 : tensor<1x1x1536xf32>) {
    ^bb0(%in: f32, %in_1172: f32, %out: f32):
      %2454 = arith.mulf %in, %in_1172 : f32
      linalg.yield %2454 : f32
    } -> tensor<1x1x1536xf32>
    %expanded_134 = tensor.expand_shape %arg43 [[0, 1, 2]] output_shape [1, 1, 1536] : tensor<1536xf32> into tensor<1x1x1536xf32>
    %276 = tensor.empty() : tensor<1x1x1536xf32>
    %277 = linalg.generic {indexing_maps = [#map2, #map2, #map2], iterator_types = ["parallel", "parallel", "parallel"]} ins(%expanded_134, %275 : tensor<1x1x1536xf32>, tensor<1x1x1536xf32>) outs(%276 : tensor<1x1x1536xf32>) {
    ^bb0(%in: f32, %in_1172: f32, %out: f32):
      %2454 = arith.mulf %in, %in_1172 : f32
      linalg.yield %2454 : f32
    } -> tensor<1x1x1536xf32>
    %collapsed_135 = tensor.collapse_shape %277 [[0, 1], [2]] : tensor<1x1x1536xf32> into tensor<1x1536xf32>
    %278 = linalg.matmul {cast = #linalg.type_fn<cast_signed>} ins(%collapsed_135, %arg44 : tensor<1x1536xf32>, tensor<1536x8960xf32>) outs(%cst_5 : tensor<1x8960xf32>) -> tensor<1x8960xf32>
    %expanded_136 = tensor.expand_shape %278 [[0, 1], [2]] output_shape [1, 1, 8960] : tensor<1x8960xf32> into tensor<1x1x8960xf32>
    %279 = tensor.empty() : tensor<1x1x8960xf32>
    %280 = linalg.generic {indexing_maps = [#map2, #map2], iterator_types = ["parallel", "parallel", "parallel"]} ins(%expanded_136 : tensor<1x1x8960xf32>) outs(%279 : tensor<1x1x8960xf32>) {
    ^bb0(%in: f32, %out: f32):
      %cst_1172 = arith.constant 1.000000e+00 : f32
      %2454 = arith.negf %in : f32
      %2455 = math.exp %2454 : f32
      %2456 = arith.addf %2455, %cst_1172 : f32
      %2457 = arith.divf %cst_1172, %2456 : f32
      linalg.yield %2457 : f32
    } -> tensor<1x1x8960xf32>
    %281 = tensor.empty() : tensor<1x1x8960xf32>
    %282 = linalg.generic {indexing_maps = [#map2, #map2, #map2], iterator_types = ["parallel", "parallel", "parallel"]} ins(%expanded_136, %280 : tensor<1x1x8960xf32>, tensor<1x1x8960xf32>) outs(%281 : tensor<1x1x8960xf32>) {
    ^bb0(%in: f32, %in_1172: f32, %out: f32):
      %2454 = arith.mulf %in, %in_1172 : f32
      linalg.yield %2454 : f32
    } -> tensor<1x1x8960xf32>
    %collapsed_137 = tensor.collapse_shape %277 [[0, 1], [2]] : tensor<1x1x1536xf32> into tensor<1x1536xf32>
    %283 = linalg.matmul {cast = #linalg.type_fn<cast_signed>} ins(%collapsed_137, %arg45 : tensor<1x1536xf32>, tensor<1536x8960xf32>) outs(%cst_5 : tensor<1x8960xf32>) -> tensor<1x8960xf32>
    %expanded_138 = tensor.expand_shape %283 [[0, 1], [2]] output_shape [1, 1, 8960] : tensor<1x8960xf32> into tensor<1x1x8960xf32>
    %284 = tensor.empty() : tensor<1x1x8960xf32>
    %285 = linalg.generic {indexing_maps = [#map2, #map2, #map2], iterator_types = ["parallel", "parallel", "parallel"]} ins(%282, %expanded_138 : tensor<1x1x8960xf32>, tensor<1x1x8960xf32>) outs(%284 : tensor<1x1x8960xf32>) {
    ^bb0(%in: f32, %in_1172: f32, %out: f32):
      %2454 = arith.mulf %in, %in_1172 : f32
      linalg.yield %2454 : f32
    } -> tensor<1x1x8960xf32>
    %collapsed_139 = tensor.collapse_shape %285 [[0, 1], [2]] : tensor<1x1x8960xf32> into tensor<1x8960xf32>
    %286 = linalg.matmul {cast = #linalg.type_fn<cast_signed>} ins(%collapsed_139, %arg46 : tensor<1x8960xf32>, tensor<8960x1536xf32>) outs(%cst_12 : tensor<1x1536xf32>) -> tensor<1x1536xf32>
    %expanded_140 = tensor.expand_shape %286 [[0, 1], [2]] output_shape [1, 1, 1536] : tensor<1x1536xf32> into tensor<1x1x1536xf32>
    %287 = tensor.empty() : tensor<1x1x1536xf32>
    %288 = linalg.generic {indexing_maps = [#map2, #map2, #map2], iterator_types = ["parallel", "parallel", "parallel"]} ins(%263, %expanded_140 : tensor<1x1x1536xf32>, tensor<1x1x1536xf32>) outs(%287 : tensor<1x1x1536xf32>) {
    ^bb0(%in: f32, %in_1172: f32, %out: f32):
      %2454 = arith.addf %in, %in_1172 : f32
      linalg.yield %2454 : f32
    } -> tensor<1x1x1536xf32>
    %289 = tensor.empty() : tensor<1x1x1536xf32>
    %290 = linalg.generic {indexing_maps = [#map2, #map2], iterator_types = ["parallel", "parallel", "parallel"]} ins(%288 : tensor<1x1x1536xf32>) outs(%289 : tensor<1x1x1536xf32>) {
    ^bb0(%in: f32, %out: f32):
      %2454 = math.fpowi %in, %c2_i32 : f32, i32
      linalg.yield %2454 : f32
    } -> tensor<1x1x1536xf32>
    %291 = tensor.empty() : tensor<1x1xf32>
    %cst_141 = arith.constant 0.000000e+00 : f32
    %292 = linalg.fill ins(%cst_141 : f32) outs(%291 : tensor<1x1xf32>) -> tensor<1x1xf32>
    %reduced_142 = linalg.reduce ins(%290 : tensor<1x1x1536xf32>) outs(%292 : tensor<1x1xf32>) dimensions = [2]
      (%in: f32, %init: f32) {
        %2454 = arith.addf %in, %init : f32
        linalg.yield %2454 : f32
      }
    %expanded_143 = tensor.expand_shape %reduced_142 [[0], [1, 2]] output_shape [1, 1, 1] : tensor<1x1xf32> into tensor<1x1x1xf32>
    %293 = tensor.empty() : tensor<1x1x1xf32>
    %294 = linalg.generic {indexing_maps = [#map2, #map2, #map2], iterator_types = ["parallel", "parallel", "parallel"]} ins(%expanded_143, %cst_2 : tensor<1x1x1xf32>, tensor<1x1x1xf32>) outs(%293 : tensor<1x1x1xf32>) {
    ^bb0(%in: f32, %in_1172: f32, %out: f32):
      %2454 = arith.mulf %in, %in_1172 : f32
      linalg.yield %2454 : f32
    } -> tensor<1x1x1xf32>
    %295 = tensor.empty() : tensor<1x1x1xf32>
    %296 = linalg.generic {indexing_maps = [#map2, #map2, #map2], iterator_types = ["parallel", "parallel", "parallel"]} ins(%294, %cst_13 : tensor<1x1x1xf32>, tensor<1x1x1xf32>) outs(%295 : tensor<1x1x1xf32>) {
    ^bb0(%in: f32, %in_1172: f32, %out: f32):
      %2454 = arith.addf %in, %in_1172 : f32
      linalg.yield %2454 : f32
    } -> tensor<1x1x1xf32>
    %297 = tensor.empty() : tensor<1x1x1xf32>
    %298 = linalg.generic {indexing_maps = [#map2, #map2], iterator_types = ["parallel", "parallel", "parallel"]} ins(%296 : tensor<1x1x1xf32>) outs(%297 : tensor<1x1x1xf32>) {
    ^bb0(%in: f32, %out: f32):
      %2454 = math.rsqrt %in : f32
      linalg.yield %2454 : f32
    } -> tensor<1x1x1xf32>
    %299 = tensor.empty() : tensor<1x1x1536xf32>
    %300 = linalg.generic {indexing_maps = [#map2, #map7, #map2], iterator_types = ["parallel", "parallel", "parallel"]} ins(%288, %298 : tensor<1x1x1536xf32>, tensor<1x1x1xf32>) outs(%299 : tensor<1x1x1536xf32>) {
    ^bb0(%in: f32, %in_1172: f32, %out: f32):
      %2454 = arith.mulf %in, %in_1172 : f32
      linalg.yield %2454 : f32
    } -> tensor<1x1x1536xf32>
    %expanded_144 = tensor.expand_shape %arg47 [[0, 1, 2]] output_shape [1, 1, 1536] : tensor<1536xf32> into tensor<1x1x1536xf32>
    %301 = tensor.empty() : tensor<1x1x1536xf32>
    %302 = linalg.generic {indexing_maps = [#map2, #map2, #map2], iterator_types = ["parallel", "parallel", "parallel"]} ins(%expanded_144, %300 : tensor<1x1x1536xf32>, tensor<1x1x1536xf32>) outs(%301 : tensor<1x1x1536xf32>) {
    ^bb0(%in: f32, %in_1172: f32, %out: f32):
      %2454 = arith.mulf %in, %in_1172 : f32
      linalg.yield %2454 : f32
    } -> tensor<1x1x1536xf32>
    %collapsed_145 = tensor.collapse_shape %302 [[0, 1], [2]] : tensor<1x1x1536xf32> into tensor<1x1536xf32>
    %303 = linalg.matmul {cast = #linalg.type_fn<cast_signed>} ins(%collapsed_145, %arg49 : tensor<1x1536xf32>, tensor<1536x1536xf32>) outs(%cst_12 : tensor<1x1536xf32>) -> tensor<1x1536xf32>
    %expanded_146 = tensor.expand_shape %arg48 [[0, 1]] output_shape [1, 1536] : tensor<1536xf32> into tensor<1x1536xf32>
    %304 = tensor.empty() : tensor<1x1536xf32>
    %305 = linalg.generic {indexing_maps = [#map, #map, #map], iterator_types = ["parallel", "parallel"]} ins(%expanded_146, %303 : tensor<1x1536xf32>, tensor<1x1536xf32>) outs(%304 : tensor<1x1536xf32>) {
    ^bb0(%in: f32, %in_1172: f32, %out: f32):
      %2454 = arith.addf %in, %in_1172 : f32
      linalg.yield %2454 : f32
    } -> tensor<1x1536xf32>
    %expanded_147 = tensor.expand_shape %305 [[0], [1, 2, 3]] output_shape [1, 12, 1, 128] : tensor<1x1536xf32> into tensor<1x12x1x128xf32>
    %collapsed_148 = tensor.collapse_shape %302 [[0, 1], [2]] : tensor<1x1x1536xf32> into tensor<1x1536xf32>
    %306 = linalg.matmul {cast = #linalg.type_fn<cast_signed>} ins(%collapsed_148, %arg51 : tensor<1x1536xf32>, tensor<1536x256xf32>) outs(%cst_11 : tensor<1x256xf32>) -> tensor<1x256xf32>
    %expanded_149 = tensor.expand_shape %arg50 [[0, 1]] output_shape [1, 256] : tensor<256xf32> into tensor<1x256xf32>
    %307 = tensor.empty() : tensor<1x256xf32>
    %308 = linalg.generic {indexing_maps = [#map, #map, #map], iterator_types = ["parallel", "parallel"]} ins(%expanded_149, %306 : tensor<1x256xf32>, tensor<1x256xf32>) outs(%307 : tensor<1x256xf32>) {
    ^bb0(%in: f32, %in_1172: f32, %out: f32):
      %2454 = arith.addf %in, %in_1172 : f32
      linalg.yield %2454 : f32
    } -> tensor<1x256xf32>
    %expanded_150 = tensor.expand_shape %308 [[0], [1, 2, 3]] output_shape [1, 2, 1, 128] : tensor<1x256xf32> into tensor<1x2x1x128xf32>
    %collapsed_151 = tensor.collapse_shape %302 [[0, 1], [2]] : tensor<1x1x1536xf32> into tensor<1x1536xf32>
    %309 = linalg.matmul {cast = #linalg.type_fn<cast_signed>} ins(%collapsed_151, %arg53 : tensor<1x1536xf32>, tensor<1536x256xf32>) outs(%cst_11 : tensor<1x256xf32>) -> tensor<1x256xf32>
    %expanded_152 = tensor.expand_shape %arg52 [[0, 1]] output_shape [1, 256] : tensor<256xf32> into tensor<1x256xf32>
    %310 = tensor.empty() : tensor<1x256xf32>
    %311 = linalg.generic {indexing_maps = [#map, #map, #map], iterator_types = ["parallel", "parallel"]} ins(%expanded_152, %309 : tensor<1x256xf32>, tensor<1x256xf32>) outs(%310 : tensor<1x256xf32>) {
    ^bb0(%in: f32, %in_1172: f32, %out: f32):
      %2454 = arith.addf %in, %in_1172 : f32
      linalg.yield %2454 : f32
    } -> tensor<1x256xf32>
    %expanded_153 = tensor.expand_shape %311 [[0], [1, 2, 3]] output_shape [1, 2, 1, 128] : tensor<1x256xf32> into tensor<1x2x1x128xf32>
    %expanded_154 = tensor.expand_shape %29 [[0], [1, 2], [3]] output_shape [1, 1, 1, 128] : tensor<1x1x128xf32> into tensor<1x1x1x128xf32>
    %expanded_155 = tensor.expand_shape %30 [[0], [1, 2], [3]] output_shape [1, 1, 1, 128] : tensor<1x1x128xf32> into tensor<1x1x1x128xf32>
    %312 = tensor.empty() : tensor<1x12x1x128xf32>
    %313 = linalg.generic {indexing_maps = [#map6, #map8, #map6], iterator_types = ["parallel", "parallel", "parallel", "parallel"]} ins(%expanded_147, %expanded_154 : tensor<1x12x1x128xf32>, tensor<1x1x1x128xf32>) outs(%312 : tensor<1x12x1x128xf32>) {
    ^bb0(%in: f32, %in_1172: f32, %out: f32):
      %2454 = arith.mulf %in, %in_1172 : f32
      linalg.yield %2454 : f32
    } -> tensor<1x12x1x128xf32>
    %extracted_slice_156 = tensor.extract_slice %expanded_147[0, 0, 0, 0] [1, 12, 1, 64] [1, 1, 1, 1] : tensor<1x12x1x128xf32> to tensor<1x12x1x64xf32>
    %extracted_slice_157 = tensor.extract_slice %expanded_147[0, 0, 0, 64] [1, 12, 1, 64] [1, 1, 1, 1] : tensor<1x12x1x128xf32> to tensor<1x12x1x64xf32>
    %314 = tensor.empty() : tensor<1x12x1x64xf32>
    %315 = linalg.generic {indexing_maps = [#map6, #map6], iterator_types = ["parallel", "parallel", "parallel", "parallel"]} ins(%extracted_slice_157 : tensor<1x12x1x64xf32>) outs(%314 : tensor<1x12x1x64xf32>) {
    ^bb0(%in: f32, %out: f32):
      %2454 = arith.negf %in : f32
      linalg.yield %2454 : f32
    } -> tensor<1x12x1x64xf32>
    %316 = tensor.empty() : tensor<1x12x1x128xf32>
    %inserted_slice_158 = tensor.insert_slice %315 into %316[0, 0, 0, 0] [1, 12, 1, 64] [1, 1, 1, 1] : tensor<1x12x1x64xf32> into tensor<1x12x1x128xf32>
    %inserted_slice_159 = tensor.insert_slice %extracted_slice_156 into %inserted_slice_158[0, 0, 0, 64] [1, 12, 1, 64] [1, 1, 1, 1] : tensor<1x12x1x64xf32> into tensor<1x12x1x128xf32>
    %317 = tensor.empty() : tensor<1x12x1x128xf32>
    %318 = linalg.generic {indexing_maps = [#map6, #map8, #map6], iterator_types = ["parallel", "parallel", "parallel", "parallel"]} ins(%inserted_slice_159, %expanded_155 : tensor<1x12x1x128xf32>, tensor<1x1x1x128xf32>) outs(%317 : tensor<1x12x1x128xf32>) {
    ^bb0(%in: f32, %in_1172: f32, %out: f32):
      %2454 = arith.mulf %in, %in_1172 : f32
      linalg.yield %2454 : f32
    } -> tensor<1x12x1x128xf32>
    %319 = tensor.empty() : tensor<1x12x1x128xf32>
    %320 = linalg.generic {indexing_maps = [#map6, #map6, #map6], iterator_types = ["parallel", "parallel", "parallel", "parallel"]} ins(%313, %318 : tensor<1x12x1x128xf32>, tensor<1x12x1x128xf32>) outs(%319 : tensor<1x12x1x128xf32>) {
    ^bb0(%in: f32, %in_1172: f32, %out: f32):
      %2454 = arith.addf %in, %in_1172 : f32
      linalg.yield %2454 : f32
    } -> tensor<1x12x1x128xf32>
    %321 = tensor.empty() : tensor<1x2x1x128xf32>
    %322 = linalg.generic {indexing_maps = [#map6, #map8, #map6], iterator_types = ["parallel", "parallel", "parallel", "parallel"]} ins(%expanded_150, %expanded_154 : tensor<1x2x1x128xf32>, tensor<1x1x1x128xf32>) outs(%321 : tensor<1x2x1x128xf32>) {
    ^bb0(%in: f32, %in_1172: f32, %out: f32):
      %2454 = arith.mulf %in, %in_1172 : f32
      linalg.yield %2454 : f32
    } -> tensor<1x2x1x128xf32>
    %extracted_slice_160 = tensor.extract_slice %expanded_150[0, 0, 0, 0] [1, 2, 1, 64] [1, 1, 1, 1] : tensor<1x2x1x128xf32> to tensor<1x2x1x64xf32>
    %extracted_slice_161 = tensor.extract_slice %expanded_150[0, 0, 0, 64] [1, 2, 1, 64] [1, 1, 1, 1] : tensor<1x2x1x128xf32> to tensor<1x2x1x64xf32>
    %323 = tensor.empty() : tensor<1x2x1x64xf32>
    %324 = linalg.generic {indexing_maps = [#map6, #map6], iterator_types = ["parallel", "parallel", "parallel", "parallel"]} ins(%extracted_slice_161 : tensor<1x2x1x64xf32>) outs(%323 : tensor<1x2x1x64xf32>) {
    ^bb0(%in: f32, %out: f32):
      %2454 = arith.negf %in : f32
      linalg.yield %2454 : f32
    } -> tensor<1x2x1x64xf32>
    %325 = tensor.empty() : tensor<1x2x1x128xf32>
    %inserted_slice_162 = tensor.insert_slice %324 into %325[0, 0, 0, 0] [1, 2, 1, 64] [1, 1, 1, 1] : tensor<1x2x1x64xf32> into tensor<1x2x1x128xf32>
    %inserted_slice_163 = tensor.insert_slice %extracted_slice_160 into %inserted_slice_162[0, 0, 0, 64] [1, 2, 1, 64] [1, 1, 1, 1] : tensor<1x2x1x64xf32> into tensor<1x2x1x128xf32>
    %326 = tensor.empty() : tensor<1x2x1x128xf32>
    %327 = linalg.generic {indexing_maps = [#map6, #map8, #map6], iterator_types = ["parallel", "parallel", "parallel", "parallel"]} ins(%inserted_slice_163, %expanded_155 : tensor<1x2x1x128xf32>, tensor<1x1x1x128xf32>) outs(%326 : tensor<1x2x1x128xf32>) {
    ^bb0(%in: f32, %in_1172: f32, %out: f32):
      %2454 = arith.mulf %in, %in_1172 : f32
      linalg.yield %2454 : f32
    } -> tensor<1x2x1x128xf32>
    %328 = tensor.empty() : tensor<1x2x1x128xf32>
    %329 = linalg.generic {indexing_maps = [#map6, #map6, #map6], iterator_types = ["parallel", "parallel", "parallel", "parallel"]} ins(%322, %327 : tensor<1x2x1x128xf32>, tensor<1x2x1x128xf32>) outs(%328 : tensor<1x2x1x128xf32>) {
    ^bb0(%in: f32, %in_1172: f32, %out: f32):
      %2454 = arith.addf %in, %in_1172 : f32
      linalg.yield %2454 : f32
    } -> tensor<1x2x1x128xf32>
    %330 = bufferization.to_buffer %arg54 : tensor<1x2x1024x128xf32> to memref<1x2x1024x128xf32>
    %expanded_164 = tensor.expand_shape %arg3 [[0, 1, 2, 3]] output_shape [1, 1, 1, 1] : tensor<1xi64> into tensor<1x1x1x1xi64>
    %331 = tensor.empty() : tensor<1x2x1x128xi64>
    %332 = linalg.generic {indexing_maps = [#map9, #map6, #map6], iterator_types = ["parallel", "parallel", "parallel", "parallel"]} ins(%expanded_164, %cst_10 : tensor<1x1x1x1xi64>, tensor<1x2x1x128xi64>) outs(%331 : tensor<1x2x1x128xi64>) {
    ^bb0(%in: i64, %in_1172: i64, %out: i64):
      %2454 = arith.addi %in, %in_1172 : i64
      linalg.yield %2454 : i64
    } -> tensor<1x2x1x128xi64>
    %333 = bufferization.to_buffer %332 : tensor<1x2x1x128xi64> to memref<1x2x1x128xi64>
    %334 = bufferization.to_buffer %329 : tensor<1x2x1x128xf32> to memref<1x2x1x128xf32>
    scf.for %arg399 = %c0 to %c1 step %c1 {
      scf.for %arg400 = %c0 to %c2 step %c1 {
        scf.for %arg401 = %c0 to %c1 step %c1 {
          scf.for %arg402 = %c0 to %c128 step %c1 {
            %2454 = memref.load %334[%arg399, %arg400, %arg401, %arg402] : memref<1x2x1x128xf32>
            %2455 = memref.load %333[%arg399, %arg400, %arg401, %arg402] : memref<1x2x1x128xi64>
            %2456 = arith.index_cast %2455 : i64 to index
            memref.store %2454, %330[%arg399, %arg400, %2456, %arg402] : memref<1x2x1024x128xf32>
          }
        }
      }
    }
    %335 = bufferization.to_tensor %330 restrict : memref<1x2x1024x128xf32> to tensor<1x2x1024x128xf32>
    %336 = bufferization.to_buffer %arg55 : tensor<1x2x1024x128xf32> to memref<1x2x1024x128xf32>
    %expanded_165 = tensor.expand_shape %arg3 [[0, 1, 2, 3]] output_shape [1, 1, 1, 1] : tensor<1xi64> into tensor<1x1x1x1xi64>
    %337 = tensor.empty() : tensor<1x2x1x128xi64>
    %338 = linalg.generic {indexing_maps = [#map9, #map6, #map6], iterator_types = ["parallel", "parallel", "parallel", "parallel"]} ins(%expanded_165, %cst_10 : tensor<1x1x1x1xi64>, tensor<1x2x1x128xi64>) outs(%337 : tensor<1x2x1x128xi64>) {
    ^bb0(%in: i64, %in_1172: i64, %out: i64):
      %2454 = arith.addi %in, %in_1172 : i64
      linalg.yield %2454 : i64
    } -> tensor<1x2x1x128xi64>
    %339 = bufferization.to_buffer %338 : tensor<1x2x1x128xi64> to memref<1x2x1x128xi64>
    %340 = bufferization.to_buffer %expanded_153 : tensor<1x2x1x128xf32> to memref<1x2x1x128xf32>
    scf.for %arg399 = %c0 to %c1 step %c1 {
      scf.for %arg400 = %c0 to %c2 step %c1 {
        scf.for %arg401 = %c0 to %c1 step %c1 {
          scf.for %arg402 = %c0 to %c128 step %c1 {
            %2454 = memref.load %340[%arg399, %arg400, %arg401, %arg402] : memref<1x2x1x128xf32>
            %2455 = memref.load %339[%arg399, %arg400, %arg401, %arg402] : memref<1x2x1x128xi64>
            %2456 = arith.index_cast %2455 : i64 to index
            memref.store %2454, %336[%arg399, %arg400, %2456, %arg402] : memref<1x2x1024x128xf32>
          }
        }
      }
    }
    %341 = bufferization.to_tensor %336 restrict : memref<1x2x1024x128xf32> to tensor<1x2x1024x128xf32>
    %expanded_166 = tensor.expand_shape %22 [[0, 1, 2], [3]] output_shape [1, 1, 1, 1024] : tensor<1x1024xi1> into tensor<1x1x1x1024xi1>
    %342 = tensor.empty() : tensor<1x1x1x1024xf32>
    %343 = linalg.generic {indexing_maps = [#map6, #map6, #map6, #map6], iterator_types = ["parallel", "parallel", "parallel", "parallel"]} ins(%expanded_166, %cst_1, %cst_0 : tensor<1x1x1x1024xi1>, tensor<1x1x1x1024xf32>, tensor<1x1x1x1024xf32>) outs(%342 : tensor<1x1x1x1024xf32>) {
    ^bb0(%in: i1, %in_1172: f32, %in_1173: f32, %out: f32):
      %2454 = arith.select %in, %in_1172, %in_1173 : f32
      linalg.yield %2454 : f32
    } -> tensor<1x1x1x1024xf32>
    %344 = bufferization.to_buffer %320 : tensor<1x12x1x128xf32> to memref<1x12x1x128xf32>
    %345 = bufferization.to_buffer %343 : tensor<1x1x1x1024xf32> to memref<1x1x1x1024xf32>
    %alloc_167 = memref.alloc() : memref<1x12x1x128xf32>
    %alloc_168 = memref.alloc() : memref<1x12x1xf32>
    %alloc_169 = memref.alloc() : memref<128xf32>
    affine.for %arg399 = 0 to 1 {
      affine.for %arg400 = 0 to 12 {
        %2454 = arith.divsi %arg400, %c6 : index
        affine.for %arg401 = 0 to 1 {
          affine.for %arg402 = 0 to 128 {
            memref.store %cst_9, %alloc_169[%arg402] : memref<128xf32>
          }
          %2455:2 = affine.for %arg402 = 0 to 1024 iter_args(%arg403 = %cst_6, %arg404 = %cst_9) -> (f32, f32) {
            %2456 = affine.for %arg405 = 0 to 128 step 16 iter_args(%arg406 = %cst) -> (vector<16xf32>) {
              %2471 = vector.load %344[%arg399, %arg400, %arg401, %arg405] : memref<1x12x1x128xf32>, vector<16xf32>
              %2472 = vector.load %330[%arg399, %2454, %arg402, %arg405] : memref<1x2x1024x128xf32>, vector<16xf32>
              %2473 = vector.fma %2471, %2472, %arg406 : vector<16xf32>
              affine.yield %2473 : vector<16xf32>
            }
            %2457 = vector.reduction <add>, %2456 : vector<16xf32> into f32
            %2458 = arith.mulf %2457, %cst_7 : f32
            %2459 = memref.load %345[%arg399, %c0, %arg401, %arg402] : memref<1x1x1x1024xf32>
            %2460 = arith.addf %2458, %2459 : f32
            %2461 = arith.cmpf ogt, %2460, %arg403 : f32
            %2462 = arith.select %2461, %2460, %arg403 : f32
            %2463 = arith.subf %arg403, %2460 : f32
            %2464 = math.exp %2463 : f32
            %2465 = arith.mulf %2464, %arg404 : f32
            %2466 = arith.addf %2465, %cst_8 : f32
            %2467 = arith.subf %2460, %arg403 : f32
            %2468 = math.exp %2467 : f32
            %2469 = arith.addf %arg404, %2468 : f32
            %2470 = arith.select %2461, %2466, %2469 : f32
            affine.for %arg405 = 0 to 128 {
              %2471 = memref.load %336[%arg399, %2454, %arg402, %arg405] : memref<1x2x1024x128xf32>
              %2472 = memref.load %alloc_169[%arg405] : memref<128xf32>
              %2473 = arith.mulf %2472, %2464 : f32
              %2474 = arith.addf %2473, %2471 : f32
              %2475 = arith.mulf %2468, %2471 : f32
              %2476 = arith.addf %2475, %2472 : f32
              %2477 = arith.select %2461, %2474, %2476 : f32
              memref.store %2477, %alloc_169[%arg405] : memref<128xf32>
            }
            affine.yield %2462, %2470 : f32, f32
          }
          memref.store %2455#1, %alloc_168[%arg399, %arg400, %arg401] : memref<1x12x1xf32>
          affine.for %arg402 = 0 to 128 {
            %2456 = memref.load %alloc_169[%arg402] : memref<128xf32>
            %2457 = arith.divf %2456, %2455#1 : f32
            memref.store %2457, %alloc_167[%arg399, %arg400, %arg401, %arg402] : memref<1x12x1x128xf32>
          }
        }
      }
    }
    %346 = bufferization.to_tensor %alloc_167 restrict : memref<1x12x1x128xf32> to tensor<1x12x1x128xf32>
    %collapsed_170 = tensor.collapse_shape %346 [[0], [1, 2, 3]] : tensor<1x12x1x128xf32> into tensor<1x1536xf32>
    %347 = linalg.matmul {cast = #linalg.type_fn<cast_signed>} ins(%collapsed_170, %arg56 : tensor<1x1536xf32>, tensor<1536x1536xf32>) outs(%cst_12 : tensor<1x1536xf32>) -> tensor<1x1536xf32>
    %expanded_171 = tensor.expand_shape %347 [[0, 1], [2]] output_shape [1, 1, 1536] : tensor<1x1536xf32> into tensor<1x1x1536xf32>
    %348 = tensor.empty() : tensor<1x1x1536xf32>
    %349 = linalg.generic {indexing_maps = [#map2, #map2, #map2], iterator_types = ["parallel", "parallel", "parallel"]} ins(%288, %expanded_171 : tensor<1x1x1536xf32>, tensor<1x1x1536xf32>) outs(%348 : tensor<1x1x1536xf32>) {
    ^bb0(%in: f32, %in_1172: f32, %out: f32):
      %2454 = arith.addf %in, %in_1172 : f32
      linalg.yield %2454 : f32
    } -> tensor<1x1x1536xf32>
    %350 = tensor.empty() : tensor<1x1x1536xf32>
    %351 = linalg.generic {indexing_maps = [#map2, #map2], iterator_types = ["parallel", "parallel", "parallel"]} ins(%349 : tensor<1x1x1536xf32>) outs(%350 : tensor<1x1x1536xf32>) {
    ^bb0(%in: f32, %out: f32):
      %2454 = math.fpowi %in, %c2_i32 : f32, i32
      linalg.yield %2454 : f32
    } -> tensor<1x1x1536xf32>
    %352 = tensor.empty() : tensor<1x1xf32>
    %cst_172 = arith.constant 0.000000e+00 : f32
    %353 = linalg.fill ins(%cst_172 : f32) outs(%352 : tensor<1x1xf32>) -> tensor<1x1xf32>
    %reduced_173 = linalg.reduce ins(%351 : tensor<1x1x1536xf32>) outs(%353 : tensor<1x1xf32>) dimensions = [2]
      (%in: f32, %init: f32) {
        %2454 = arith.addf %in, %init : f32
        linalg.yield %2454 : f32
      }
    %expanded_174 = tensor.expand_shape %reduced_173 [[0], [1, 2]] output_shape [1, 1, 1] : tensor<1x1xf32> into tensor<1x1x1xf32>
    %354 = tensor.empty() : tensor<1x1x1xf32>
    %355 = linalg.generic {indexing_maps = [#map2, #map2, #map2], iterator_types = ["parallel", "parallel", "parallel"]} ins(%expanded_174, %cst_2 : tensor<1x1x1xf32>, tensor<1x1x1xf32>) outs(%354 : tensor<1x1x1xf32>) {
    ^bb0(%in: f32, %in_1172: f32, %out: f32):
      %2454 = arith.mulf %in, %in_1172 : f32
      linalg.yield %2454 : f32
    } -> tensor<1x1x1xf32>
    %356 = tensor.empty() : tensor<1x1x1xf32>
    %357 = linalg.generic {indexing_maps = [#map2, #map2, #map2], iterator_types = ["parallel", "parallel", "parallel"]} ins(%355, %cst_13 : tensor<1x1x1xf32>, tensor<1x1x1xf32>) outs(%356 : tensor<1x1x1xf32>) {
    ^bb0(%in: f32, %in_1172: f32, %out: f32):
      %2454 = arith.addf %in, %in_1172 : f32
      linalg.yield %2454 : f32
    } -> tensor<1x1x1xf32>
    %358 = tensor.empty() : tensor<1x1x1xf32>
    %359 = linalg.generic {indexing_maps = [#map2, #map2], iterator_types = ["parallel", "parallel", "parallel"]} ins(%357 : tensor<1x1x1xf32>) outs(%358 : tensor<1x1x1xf32>) {
    ^bb0(%in: f32, %out: f32):
      %2454 = math.rsqrt %in : f32
      linalg.yield %2454 : f32
    } -> tensor<1x1x1xf32>
    %360 = tensor.empty() : tensor<1x1x1536xf32>
    %361 = linalg.generic {indexing_maps = [#map2, #map7, #map2], iterator_types = ["parallel", "parallel", "parallel"]} ins(%349, %359 : tensor<1x1x1536xf32>, tensor<1x1x1xf32>) outs(%360 : tensor<1x1x1536xf32>) {
    ^bb0(%in: f32, %in_1172: f32, %out: f32):
      %2454 = arith.mulf %in, %in_1172 : f32
      linalg.yield %2454 : f32
    } -> tensor<1x1x1536xf32>
    %expanded_175 = tensor.expand_shape %arg57 [[0, 1, 2]] output_shape [1, 1, 1536] : tensor<1536xf32> into tensor<1x1x1536xf32>
    %362 = tensor.empty() : tensor<1x1x1536xf32>
    %363 = linalg.generic {indexing_maps = [#map2, #map2, #map2], iterator_types = ["parallel", "parallel", "parallel"]} ins(%expanded_175, %361 : tensor<1x1x1536xf32>, tensor<1x1x1536xf32>) outs(%362 : tensor<1x1x1536xf32>) {
    ^bb0(%in: f32, %in_1172: f32, %out: f32):
      %2454 = arith.mulf %in, %in_1172 : f32
      linalg.yield %2454 : f32
    } -> tensor<1x1x1536xf32>
    %collapsed_176 = tensor.collapse_shape %363 [[0, 1], [2]] : tensor<1x1x1536xf32> into tensor<1x1536xf32>
    %364 = linalg.matmul {cast = #linalg.type_fn<cast_signed>} ins(%collapsed_176, %arg58 : tensor<1x1536xf32>, tensor<1536x8960xf32>) outs(%cst_5 : tensor<1x8960xf32>) -> tensor<1x8960xf32>
    %expanded_177 = tensor.expand_shape %364 [[0, 1], [2]] output_shape [1, 1, 8960] : tensor<1x8960xf32> into tensor<1x1x8960xf32>
    %365 = tensor.empty() : tensor<1x1x8960xf32>
    %366 = linalg.generic {indexing_maps = [#map2, #map2], iterator_types = ["parallel", "parallel", "parallel"]} ins(%expanded_177 : tensor<1x1x8960xf32>) outs(%365 : tensor<1x1x8960xf32>) {
    ^bb0(%in: f32, %out: f32):
      %cst_1172 = arith.constant 1.000000e+00 : f32
      %2454 = arith.negf %in : f32
      %2455 = math.exp %2454 : f32
      %2456 = arith.addf %2455, %cst_1172 : f32
      %2457 = arith.divf %cst_1172, %2456 : f32
      linalg.yield %2457 : f32
    } -> tensor<1x1x8960xf32>
    %367 = tensor.empty() : tensor<1x1x8960xf32>
    %368 = linalg.generic {indexing_maps = [#map2, #map2, #map2], iterator_types = ["parallel", "parallel", "parallel"]} ins(%expanded_177, %366 : tensor<1x1x8960xf32>, tensor<1x1x8960xf32>) outs(%367 : tensor<1x1x8960xf32>) {
    ^bb0(%in: f32, %in_1172: f32, %out: f32):
      %2454 = arith.mulf %in, %in_1172 : f32
      linalg.yield %2454 : f32
    } -> tensor<1x1x8960xf32>
    %collapsed_178 = tensor.collapse_shape %363 [[0, 1], [2]] : tensor<1x1x1536xf32> into tensor<1x1536xf32>
    %369 = linalg.matmul {cast = #linalg.type_fn<cast_signed>} ins(%collapsed_178, %arg59 : tensor<1x1536xf32>, tensor<1536x8960xf32>) outs(%cst_5 : tensor<1x8960xf32>) -> tensor<1x8960xf32>
    %expanded_179 = tensor.expand_shape %369 [[0, 1], [2]] output_shape [1, 1, 8960] : tensor<1x8960xf32> into tensor<1x1x8960xf32>
    %370 = tensor.empty() : tensor<1x1x8960xf32>
    %371 = linalg.generic {indexing_maps = [#map2, #map2, #map2], iterator_types = ["parallel", "parallel", "parallel"]} ins(%368, %expanded_179 : tensor<1x1x8960xf32>, tensor<1x1x8960xf32>) outs(%370 : tensor<1x1x8960xf32>) {
    ^bb0(%in: f32, %in_1172: f32, %out: f32):
      %2454 = arith.mulf %in, %in_1172 : f32
      linalg.yield %2454 : f32
    } -> tensor<1x1x8960xf32>
    %collapsed_180 = tensor.collapse_shape %371 [[0, 1], [2]] : tensor<1x1x8960xf32> into tensor<1x8960xf32>
    %372 = linalg.matmul {cast = #linalg.type_fn<cast_signed>} ins(%collapsed_180, %arg60 : tensor<1x8960xf32>, tensor<8960x1536xf32>) outs(%cst_12 : tensor<1x1536xf32>) -> tensor<1x1536xf32>
    %expanded_181 = tensor.expand_shape %372 [[0, 1], [2]] output_shape [1, 1, 1536] : tensor<1x1536xf32> into tensor<1x1x1536xf32>
    %373 = tensor.empty() : tensor<1x1x1536xf32>
    %374 = linalg.generic {indexing_maps = [#map2, #map2, #map2], iterator_types = ["parallel", "parallel", "parallel"]} ins(%349, %expanded_181 : tensor<1x1x1536xf32>, tensor<1x1x1536xf32>) outs(%373 : tensor<1x1x1536xf32>) {
    ^bb0(%in: f32, %in_1172: f32, %out: f32):
      %2454 = arith.addf %in, %in_1172 : f32
      linalg.yield %2454 : f32
    } -> tensor<1x1x1536xf32>
    %375 = tensor.empty() : tensor<1x1x1536xf32>
    %376 = linalg.generic {indexing_maps = [#map2, #map2], iterator_types = ["parallel", "parallel", "parallel"]} ins(%374 : tensor<1x1x1536xf32>) outs(%375 : tensor<1x1x1536xf32>) {
    ^bb0(%in: f32, %out: f32):
      %2454 = math.fpowi %in, %c2_i32 : f32, i32
      linalg.yield %2454 : f32
    } -> tensor<1x1x1536xf32>
    %377 = tensor.empty() : tensor<1x1xf32>
    %cst_182 = arith.constant 0.000000e+00 : f32
    %378 = linalg.fill ins(%cst_182 : f32) outs(%377 : tensor<1x1xf32>) -> tensor<1x1xf32>
    %reduced_183 = linalg.reduce ins(%376 : tensor<1x1x1536xf32>) outs(%378 : tensor<1x1xf32>) dimensions = [2]
      (%in: f32, %init: f32) {
        %2454 = arith.addf %in, %init : f32
        linalg.yield %2454 : f32
      }
    %expanded_184 = tensor.expand_shape %reduced_183 [[0], [1, 2]] output_shape [1, 1, 1] : tensor<1x1xf32> into tensor<1x1x1xf32>
    %379 = tensor.empty() : tensor<1x1x1xf32>
    %380 = linalg.generic {indexing_maps = [#map2, #map2, #map2], iterator_types = ["parallel", "parallel", "parallel"]} ins(%expanded_184, %cst_2 : tensor<1x1x1xf32>, tensor<1x1x1xf32>) outs(%379 : tensor<1x1x1xf32>) {
    ^bb0(%in: f32, %in_1172: f32, %out: f32):
      %2454 = arith.mulf %in, %in_1172 : f32
      linalg.yield %2454 : f32
    } -> tensor<1x1x1xf32>
    %381 = tensor.empty() : tensor<1x1x1xf32>
    %382 = linalg.generic {indexing_maps = [#map2, #map2, #map2], iterator_types = ["parallel", "parallel", "parallel"]} ins(%380, %cst_13 : tensor<1x1x1xf32>, tensor<1x1x1xf32>) outs(%381 : tensor<1x1x1xf32>) {
    ^bb0(%in: f32, %in_1172: f32, %out: f32):
      %2454 = arith.addf %in, %in_1172 : f32
      linalg.yield %2454 : f32
    } -> tensor<1x1x1xf32>
    %383 = tensor.empty() : tensor<1x1x1xf32>
    %384 = linalg.generic {indexing_maps = [#map2, #map2], iterator_types = ["parallel", "parallel", "parallel"]} ins(%382 : tensor<1x1x1xf32>) outs(%383 : tensor<1x1x1xf32>) {
    ^bb0(%in: f32, %out: f32):
      %2454 = math.rsqrt %in : f32
      linalg.yield %2454 : f32
    } -> tensor<1x1x1xf32>
    %385 = tensor.empty() : tensor<1x1x1536xf32>
    %386 = linalg.generic {indexing_maps = [#map2, #map7, #map2], iterator_types = ["parallel", "parallel", "parallel"]} ins(%374, %384 : tensor<1x1x1536xf32>, tensor<1x1x1xf32>) outs(%385 : tensor<1x1x1536xf32>) {
    ^bb0(%in: f32, %in_1172: f32, %out: f32):
      %2454 = arith.mulf %in, %in_1172 : f32
      linalg.yield %2454 : f32
    } -> tensor<1x1x1536xf32>
    %expanded_185 = tensor.expand_shape %arg61 [[0, 1, 2]] output_shape [1, 1, 1536] : tensor<1536xf32> into tensor<1x1x1536xf32>
    %387 = tensor.empty() : tensor<1x1x1536xf32>
    %388 = linalg.generic {indexing_maps = [#map2, #map2, #map2], iterator_types = ["parallel", "parallel", "parallel"]} ins(%expanded_185, %386 : tensor<1x1x1536xf32>, tensor<1x1x1536xf32>) outs(%387 : tensor<1x1x1536xf32>) {
    ^bb0(%in: f32, %in_1172: f32, %out: f32):
      %2454 = arith.mulf %in, %in_1172 : f32
      linalg.yield %2454 : f32
    } -> tensor<1x1x1536xf32>
    %collapsed_186 = tensor.collapse_shape %388 [[0, 1], [2]] : tensor<1x1x1536xf32> into tensor<1x1536xf32>
    %389 = linalg.matmul {cast = #linalg.type_fn<cast_signed>} ins(%collapsed_186, %arg63 : tensor<1x1536xf32>, tensor<1536x1536xf32>) outs(%cst_12 : tensor<1x1536xf32>) -> tensor<1x1536xf32>
    %expanded_187 = tensor.expand_shape %arg62 [[0, 1]] output_shape [1, 1536] : tensor<1536xf32> into tensor<1x1536xf32>
    %390 = tensor.empty() : tensor<1x1536xf32>
    %391 = linalg.generic {indexing_maps = [#map, #map, #map], iterator_types = ["parallel", "parallel"]} ins(%expanded_187, %389 : tensor<1x1536xf32>, tensor<1x1536xf32>) outs(%390 : tensor<1x1536xf32>) {
    ^bb0(%in: f32, %in_1172: f32, %out: f32):
      %2454 = arith.addf %in, %in_1172 : f32
      linalg.yield %2454 : f32
    } -> tensor<1x1536xf32>
    %expanded_188 = tensor.expand_shape %391 [[0], [1, 2, 3]] output_shape [1, 12, 1, 128] : tensor<1x1536xf32> into tensor<1x12x1x128xf32>
    %collapsed_189 = tensor.collapse_shape %388 [[0, 1], [2]] : tensor<1x1x1536xf32> into tensor<1x1536xf32>
    %392 = linalg.matmul {cast = #linalg.type_fn<cast_signed>} ins(%collapsed_189, %arg65 : tensor<1x1536xf32>, tensor<1536x256xf32>) outs(%cst_11 : tensor<1x256xf32>) -> tensor<1x256xf32>
    %expanded_190 = tensor.expand_shape %arg64 [[0, 1]] output_shape [1, 256] : tensor<256xf32> into tensor<1x256xf32>
    %393 = tensor.empty() : tensor<1x256xf32>
    %394 = linalg.generic {indexing_maps = [#map, #map, #map], iterator_types = ["parallel", "parallel"]} ins(%expanded_190, %392 : tensor<1x256xf32>, tensor<1x256xf32>) outs(%393 : tensor<1x256xf32>) {
    ^bb0(%in: f32, %in_1172: f32, %out: f32):
      %2454 = arith.addf %in, %in_1172 : f32
      linalg.yield %2454 : f32
    } -> tensor<1x256xf32>
    %expanded_191 = tensor.expand_shape %394 [[0], [1, 2, 3]] output_shape [1, 2, 1, 128] : tensor<1x256xf32> into tensor<1x2x1x128xf32>
    %collapsed_192 = tensor.collapse_shape %388 [[0, 1], [2]] : tensor<1x1x1536xf32> into tensor<1x1536xf32>
    %395 = linalg.matmul {cast = #linalg.type_fn<cast_signed>} ins(%collapsed_192, %arg67 : tensor<1x1536xf32>, tensor<1536x256xf32>) outs(%cst_11 : tensor<1x256xf32>) -> tensor<1x256xf32>
    %expanded_193 = tensor.expand_shape %arg66 [[0, 1]] output_shape [1, 256] : tensor<256xf32> into tensor<1x256xf32>
    %396 = tensor.empty() : tensor<1x256xf32>
    %397 = linalg.generic {indexing_maps = [#map, #map, #map], iterator_types = ["parallel", "parallel"]} ins(%expanded_193, %395 : tensor<1x256xf32>, tensor<1x256xf32>) outs(%396 : tensor<1x256xf32>) {
    ^bb0(%in: f32, %in_1172: f32, %out: f32):
      %2454 = arith.addf %in, %in_1172 : f32
      linalg.yield %2454 : f32
    } -> tensor<1x256xf32>
    %expanded_194 = tensor.expand_shape %397 [[0], [1, 2, 3]] output_shape [1, 2, 1, 128] : tensor<1x256xf32> into tensor<1x2x1x128xf32>
    %expanded_195 = tensor.expand_shape %29 [[0], [1, 2], [3]] output_shape [1, 1, 1, 128] : tensor<1x1x128xf32> into tensor<1x1x1x128xf32>
    %expanded_196 = tensor.expand_shape %30 [[0], [1, 2], [3]] output_shape [1, 1, 1, 128] : tensor<1x1x128xf32> into tensor<1x1x1x128xf32>
    %398 = tensor.empty() : tensor<1x12x1x128xf32>
    %399 = linalg.generic {indexing_maps = [#map6, #map8, #map6], iterator_types = ["parallel", "parallel", "parallel", "parallel"]} ins(%expanded_188, %expanded_195 : tensor<1x12x1x128xf32>, tensor<1x1x1x128xf32>) outs(%398 : tensor<1x12x1x128xf32>) {
    ^bb0(%in: f32, %in_1172: f32, %out: f32):
      %2454 = arith.mulf %in, %in_1172 : f32
      linalg.yield %2454 : f32
    } -> tensor<1x12x1x128xf32>
    %extracted_slice_197 = tensor.extract_slice %expanded_188[0, 0, 0, 0] [1, 12, 1, 64] [1, 1, 1, 1] : tensor<1x12x1x128xf32> to tensor<1x12x1x64xf32>
    %extracted_slice_198 = tensor.extract_slice %expanded_188[0, 0, 0, 64] [1, 12, 1, 64] [1, 1, 1, 1] : tensor<1x12x1x128xf32> to tensor<1x12x1x64xf32>
    %400 = tensor.empty() : tensor<1x12x1x64xf32>
    %401 = linalg.generic {indexing_maps = [#map6, #map6], iterator_types = ["parallel", "parallel", "parallel", "parallel"]} ins(%extracted_slice_198 : tensor<1x12x1x64xf32>) outs(%400 : tensor<1x12x1x64xf32>) {
    ^bb0(%in: f32, %out: f32):
      %2454 = arith.negf %in : f32
      linalg.yield %2454 : f32
    } -> tensor<1x12x1x64xf32>
    %402 = tensor.empty() : tensor<1x12x1x128xf32>
    %inserted_slice_199 = tensor.insert_slice %401 into %402[0, 0, 0, 0] [1, 12, 1, 64] [1, 1, 1, 1] : tensor<1x12x1x64xf32> into tensor<1x12x1x128xf32>
    %inserted_slice_200 = tensor.insert_slice %extracted_slice_197 into %inserted_slice_199[0, 0, 0, 64] [1, 12, 1, 64] [1, 1, 1, 1] : tensor<1x12x1x64xf32> into tensor<1x12x1x128xf32>
    %403 = tensor.empty() : tensor<1x12x1x128xf32>
    %404 = linalg.generic {indexing_maps = [#map6, #map8, #map6], iterator_types = ["parallel", "parallel", "parallel", "parallel"]} ins(%inserted_slice_200, %expanded_196 : tensor<1x12x1x128xf32>, tensor<1x1x1x128xf32>) outs(%403 : tensor<1x12x1x128xf32>) {
    ^bb0(%in: f32, %in_1172: f32, %out: f32):
      %2454 = arith.mulf %in, %in_1172 : f32
      linalg.yield %2454 : f32
    } -> tensor<1x12x1x128xf32>
    %405 = tensor.empty() : tensor<1x12x1x128xf32>
    %406 = linalg.generic {indexing_maps = [#map6, #map6, #map6], iterator_types = ["parallel", "parallel", "parallel", "parallel"]} ins(%399, %404 : tensor<1x12x1x128xf32>, tensor<1x12x1x128xf32>) outs(%405 : tensor<1x12x1x128xf32>) {
    ^bb0(%in: f32, %in_1172: f32, %out: f32):
      %2454 = arith.addf %in, %in_1172 : f32
      linalg.yield %2454 : f32
    } -> tensor<1x12x1x128xf32>
    %407 = tensor.empty() : tensor<1x2x1x128xf32>
    %408 = linalg.generic {indexing_maps = [#map6, #map8, #map6], iterator_types = ["parallel", "parallel", "parallel", "parallel"]} ins(%expanded_191, %expanded_195 : tensor<1x2x1x128xf32>, tensor<1x1x1x128xf32>) outs(%407 : tensor<1x2x1x128xf32>) {
    ^bb0(%in: f32, %in_1172: f32, %out: f32):
      %2454 = arith.mulf %in, %in_1172 : f32
      linalg.yield %2454 : f32
    } -> tensor<1x2x1x128xf32>
    %extracted_slice_201 = tensor.extract_slice %expanded_191[0, 0, 0, 0] [1, 2, 1, 64] [1, 1, 1, 1] : tensor<1x2x1x128xf32> to tensor<1x2x1x64xf32>
    %extracted_slice_202 = tensor.extract_slice %expanded_191[0, 0, 0, 64] [1, 2, 1, 64] [1, 1, 1, 1] : tensor<1x2x1x128xf32> to tensor<1x2x1x64xf32>
    %409 = tensor.empty() : tensor<1x2x1x64xf32>
    %410 = linalg.generic {indexing_maps = [#map6, #map6], iterator_types = ["parallel", "parallel", "parallel", "parallel"]} ins(%extracted_slice_202 : tensor<1x2x1x64xf32>) outs(%409 : tensor<1x2x1x64xf32>) {
    ^bb0(%in: f32, %out: f32):
      %2454 = arith.negf %in : f32
      linalg.yield %2454 : f32
    } -> tensor<1x2x1x64xf32>
    %411 = tensor.empty() : tensor<1x2x1x128xf32>
    %inserted_slice_203 = tensor.insert_slice %410 into %411[0, 0, 0, 0] [1, 2, 1, 64] [1, 1, 1, 1] : tensor<1x2x1x64xf32> into tensor<1x2x1x128xf32>
    %inserted_slice_204 = tensor.insert_slice %extracted_slice_201 into %inserted_slice_203[0, 0, 0, 64] [1, 2, 1, 64] [1, 1, 1, 1] : tensor<1x2x1x64xf32> into tensor<1x2x1x128xf32>
    %412 = tensor.empty() : tensor<1x2x1x128xf32>
    %413 = linalg.generic {indexing_maps = [#map6, #map8, #map6], iterator_types = ["parallel", "parallel", "parallel", "parallel"]} ins(%inserted_slice_204, %expanded_196 : tensor<1x2x1x128xf32>, tensor<1x1x1x128xf32>) outs(%412 : tensor<1x2x1x128xf32>) {
    ^bb0(%in: f32, %in_1172: f32, %out: f32):
      %2454 = arith.mulf %in, %in_1172 : f32
      linalg.yield %2454 : f32
    } -> tensor<1x2x1x128xf32>
    %414 = tensor.empty() : tensor<1x2x1x128xf32>
    %415 = linalg.generic {indexing_maps = [#map6, #map6, #map6], iterator_types = ["parallel", "parallel", "parallel", "parallel"]} ins(%408, %413 : tensor<1x2x1x128xf32>, tensor<1x2x1x128xf32>) outs(%414 : tensor<1x2x1x128xf32>) {
    ^bb0(%in: f32, %in_1172: f32, %out: f32):
      %2454 = arith.addf %in, %in_1172 : f32
      linalg.yield %2454 : f32
    } -> tensor<1x2x1x128xf32>
    %416 = bufferization.to_buffer %arg68 : tensor<1x2x1024x128xf32> to memref<1x2x1024x128xf32>
    %expanded_205 = tensor.expand_shape %arg3 [[0, 1, 2, 3]] output_shape [1, 1, 1, 1] : tensor<1xi64> into tensor<1x1x1x1xi64>
    %417 = tensor.empty() : tensor<1x2x1x128xi64>
    %418 = linalg.generic {indexing_maps = [#map9, #map6, #map6], iterator_types = ["parallel", "parallel", "parallel", "parallel"]} ins(%expanded_205, %cst_10 : tensor<1x1x1x1xi64>, tensor<1x2x1x128xi64>) outs(%417 : tensor<1x2x1x128xi64>) {
    ^bb0(%in: i64, %in_1172: i64, %out: i64):
      %2454 = arith.addi %in, %in_1172 : i64
      linalg.yield %2454 : i64
    } -> tensor<1x2x1x128xi64>
    %419 = bufferization.to_buffer %418 : tensor<1x2x1x128xi64> to memref<1x2x1x128xi64>
    %420 = bufferization.to_buffer %415 : tensor<1x2x1x128xf32> to memref<1x2x1x128xf32>
    scf.for %arg399 = %c0 to %c1 step %c1 {
      scf.for %arg400 = %c0 to %c2 step %c1 {
        scf.for %arg401 = %c0 to %c1 step %c1 {
          scf.for %arg402 = %c0 to %c128 step %c1 {
            %2454 = memref.load %420[%arg399, %arg400, %arg401, %arg402] : memref<1x2x1x128xf32>
            %2455 = memref.load %419[%arg399, %arg400, %arg401, %arg402] : memref<1x2x1x128xi64>
            %2456 = arith.index_cast %2455 : i64 to index
            memref.store %2454, %416[%arg399, %arg400, %2456, %arg402] : memref<1x2x1024x128xf32>
          }
        }
      }
    }
    %421 = bufferization.to_tensor %416 restrict : memref<1x2x1024x128xf32> to tensor<1x2x1024x128xf32>
    %422 = bufferization.to_buffer %arg69 : tensor<1x2x1024x128xf32> to memref<1x2x1024x128xf32>
    %expanded_206 = tensor.expand_shape %arg3 [[0, 1, 2, 3]] output_shape [1, 1, 1, 1] : tensor<1xi64> into tensor<1x1x1x1xi64>
    %423 = tensor.empty() : tensor<1x2x1x128xi64>
    %424 = linalg.generic {indexing_maps = [#map9, #map6, #map6], iterator_types = ["parallel", "parallel", "parallel", "parallel"]} ins(%expanded_206, %cst_10 : tensor<1x1x1x1xi64>, tensor<1x2x1x128xi64>) outs(%423 : tensor<1x2x1x128xi64>) {
    ^bb0(%in: i64, %in_1172: i64, %out: i64):
      %2454 = arith.addi %in, %in_1172 : i64
      linalg.yield %2454 : i64
    } -> tensor<1x2x1x128xi64>
    %425 = bufferization.to_buffer %424 : tensor<1x2x1x128xi64> to memref<1x2x1x128xi64>
    %426 = bufferization.to_buffer %expanded_194 : tensor<1x2x1x128xf32> to memref<1x2x1x128xf32>
    scf.for %arg399 = %c0 to %c1 step %c1 {
      scf.for %arg400 = %c0 to %c2 step %c1 {
        scf.for %arg401 = %c0 to %c1 step %c1 {
          scf.for %arg402 = %c0 to %c128 step %c1 {
            %2454 = memref.load %426[%arg399, %arg400, %arg401, %arg402] : memref<1x2x1x128xf32>
            %2455 = memref.load %425[%arg399, %arg400, %arg401, %arg402] : memref<1x2x1x128xi64>
            %2456 = arith.index_cast %2455 : i64 to index
            memref.store %2454, %422[%arg399, %arg400, %2456, %arg402] : memref<1x2x1024x128xf32>
          }
        }
      }
    }
    %427 = bufferization.to_tensor %422 restrict : memref<1x2x1024x128xf32> to tensor<1x2x1024x128xf32>
    %expanded_207 = tensor.expand_shape %22 [[0, 1, 2], [3]] output_shape [1, 1, 1, 1024] : tensor<1x1024xi1> into tensor<1x1x1x1024xi1>
    %428 = tensor.empty() : tensor<1x1x1x1024xf32>
    %429 = linalg.generic {indexing_maps = [#map6, #map6, #map6, #map6], iterator_types = ["parallel", "parallel", "parallel", "parallel"]} ins(%expanded_207, %cst_1, %cst_0 : tensor<1x1x1x1024xi1>, tensor<1x1x1x1024xf32>, tensor<1x1x1x1024xf32>) outs(%428 : tensor<1x1x1x1024xf32>) {
    ^bb0(%in: i1, %in_1172: f32, %in_1173: f32, %out: f32):
      %2454 = arith.select %in, %in_1172, %in_1173 : f32
      linalg.yield %2454 : f32
    } -> tensor<1x1x1x1024xf32>
    %430 = bufferization.to_buffer %406 : tensor<1x12x1x128xf32> to memref<1x12x1x128xf32>
    %431 = bufferization.to_buffer %429 : tensor<1x1x1x1024xf32> to memref<1x1x1x1024xf32>
    %alloc_208 = memref.alloc() : memref<1x12x1x128xf32>
    %alloc_209 = memref.alloc() : memref<1x12x1xf32>
    %alloc_210 = memref.alloc() : memref<128xf32>
    affine.for %arg399 = 0 to 1 {
      affine.for %arg400 = 0 to 12 {
        %2454 = arith.divsi %arg400, %c6 : index
        affine.for %arg401 = 0 to 1 {
          affine.for %arg402 = 0 to 128 {
            memref.store %cst_9, %alloc_210[%arg402] : memref<128xf32>
          }
          %2455:2 = affine.for %arg402 = 0 to 1024 iter_args(%arg403 = %cst_6, %arg404 = %cst_9) -> (f32, f32) {
            %2456 = affine.for %arg405 = 0 to 128 step 16 iter_args(%arg406 = %cst) -> (vector<16xf32>) {
              %2471 = vector.load %430[%arg399, %arg400, %arg401, %arg405] : memref<1x12x1x128xf32>, vector<16xf32>
              %2472 = vector.load %416[%arg399, %2454, %arg402, %arg405] : memref<1x2x1024x128xf32>, vector<16xf32>
              %2473 = vector.fma %2471, %2472, %arg406 : vector<16xf32>
              affine.yield %2473 : vector<16xf32>
            }
            %2457 = vector.reduction <add>, %2456 : vector<16xf32> into f32
            %2458 = arith.mulf %2457, %cst_7 : f32
            %2459 = memref.load %431[%arg399, %c0, %arg401, %arg402] : memref<1x1x1x1024xf32>
            %2460 = arith.addf %2458, %2459 : f32
            %2461 = arith.cmpf ogt, %2460, %arg403 : f32
            %2462 = arith.select %2461, %2460, %arg403 : f32
            %2463 = arith.subf %arg403, %2460 : f32
            %2464 = math.exp %2463 : f32
            %2465 = arith.mulf %2464, %arg404 : f32
            %2466 = arith.addf %2465, %cst_8 : f32
            %2467 = arith.subf %2460, %arg403 : f32
            %2468 = math.exp %2467 : f32
            %2469 = arith.addf %arg404, %2468 : f32
            %2470 = arith.select %2461, %2466, %2469 : f32
            affine.for %arg405 = 0 to 128 {
              %2471 = memref.load %422[%arg399, %2454, %arg402, %arg405] : memref<1x2x1024x128xf32>
              %2472 = memref.load %alloc_210[%arg405] : memref<128xf32>
              %2473 = arith.mulf %2472, %2464 : f32
              %2474 = arith.addf %2473, %2471 : f32
              %2475 = arith.mulf %2468, %2471 : f32
              %2476 = arith.addf %2475, %2472 : f32
              %2477 = arith.select %2461, %2474, %2476 : f32
              memref.store %2477, %alloc_210[%arg405] : memref<128xf32>
            }
            affine.yield %2462, %2470 : f32, f32
          }
          memref.store %2455#1, %alloc_209[%arg399, %arg400, %arg401] : memref<1x12x1xf32>
          affine.for %arg402 = 0 to 128 {
            %2456 = memref.load %alloc_210[%arg402] : memref<128xf32>
            %2457 = arith.divf %2456, %2455#1 : f32
            memref.store %2457, %alloc_208[%arg399, %arg400, %arg401, %arg402] : memref<1x12x1x128xf32>
          }
        }
      }
    }
    %432 = bufferization.to_tensor %alloc_208 restrict : memref<1x12x1x128xf32> to tensor<1x12x1x128xf32>
    %collapsed_211 = tensor.collapse_shape %432 [[0], [1, 2, 3]] : tensor<1x12x1x128xf32> into tensor<1x1536xf32>
    %433 = linalg.matmul {cast = #linalg.type_fn<cast_signed>} ins(%collapsed_211, %arg70 : tensor<1x1536xf32>, tensor<1536x1536xf32>) outs(%cst_12 : tensor<1x1536xf32>) -> tensor<1x1536xf32>
    %expanded_212 = tensor.expand_shape %433 [[0, 1], [2]] output_shape [1, 1, 1536] : tensor<1x1536xf32> into tensor<1x1x1536xf32>
    %434 = tensor.empty() : tensor<1x1x1536xf32>
    %435 = linalg.generic {indexing_maps = [#map2, #map2, #map2], iterator_types = ["parallel", "parallel", "parallel"]} ins(%374, %expanded_212 : tensor<1x1x1536xf32>, tensor<1x1x1536xf32>) outs(%434 : tensor<1x1x1536xf32>) {
    ^bb0(%in: f32, %in_1172: f32, %out: f32):
      %2454 = arith.addf %in, %in_1172 : f32
      linalg.yield %2454 : f32
    } -> tensor<1x1x1536xf32>
    %436 = tensor.empty() : tensor<1x1x1536xf32>
    %437 = linalg.generic {indexing_maps = [#map2, #map2], iterator_types = ["parallel", "parallel", "parallel"]} ins(%435 : tensor<1x1x1536xf32>) outs(%436 : tensor<1x1x1536xf32>) {
    ^bb0(%in: f32, %out: f32):
      %2454 = math.fpowi %in, %c2_i32 : f32, i32
      linalg.yield %2454 : f32
    } -> tensor<1x1x1536xf32>
    %438 = tensor.empty() : tensor<1x1xf32>
    %cst_213 = arith.constant 0.000000e+00 : f32
    %439 = linalg.fill ins(%cst_213 : f32) outs(%438 : tensor<1x1xf32>) -> tensor<1x1xf32>
    %reduced_214 = linalg.reduce ins(%437 : tensor<1x1x1536xf32>) outs(%439 : tensor<1x1xf32>) dimensions = [2]
      (%in: f32, %init: f32) {
        %2454 = arith.addf %in, %init : f32
        linalg.yield %2454 : f32
      }
    %expanded_215 = tensor.expand_shape %reduced_214 [[0], [1, 2]] output_shape [1, 1, 1] : tensor<1x1xf32> into tensor<1x1x1xf32>
    %440 = tensor.empty() : tensor<1x1x1xf32>
    %441 = linalg.generic {indexing_maps = [#map2, #map2, #map2], iterator_types = ["parallel", "parallel", "parallel"]} ins(%expanded_215, %cst_2 : tensor<1x1x1xf32>, tensor<1x1x1xf32>) outs(%440 : tensor<1x1x1xf32>) {
    ^bb0(%in: f32, %in_1172: f32, %out: f32):
      %2454 = arith.mulf %in, %in_1172 : f32
      linalg.yield %2454 : f32
    } -> tensor<1x1x1xf32>
    %442 = tensor.empty() : tensor<1x1x1xf32>
    %443 = linalg.generic {indexing_maps = [#map2, #map2, #map2], iterator_types = ["parallel", "parallel", "parallel"]} ins(%441, %cst_13 : tensor<1x1x1xf32>, tensor<1x1x1xf32>) outs(%442 : tensor<1x1x1xf32>) {
    ^bb0(%in: f32, %in_1172: f32, %out: f32):
      %2454 = arith.addf %in, %in_1172 : f32
      linalg.yield %2454 : f32
    } -> tensor<1x1x1xf32>
    %444 = tensor.empty() : tensor<1x1x1xf32>
    %445 = linalg.generic {indexing_maps = [#map2, #map2], iterator_types = ["parallel", "parallel", "parallel"]} ins(%443 : tensor<1x1x1xf32>) outs(%444 : tensor<1x1x1xf32>) {
    ^bb0(%in: f32, %out: f32):
      %2454 = math.rsqrt %in : f32
      linalg.yield %2454 : f32
    } -> tensor<1x1x1xf32>
    %446 = tensor.empty() : tensor<1x1x1536xf32>
    %447 = linalg.generic {indexing_maps = [#map2, #map7, #map2], iterator_types = ["parallel", "parallel", "parallel"]} ins(%435, %445 : tensor<1x1x1536xf32>, tensor<1x1x1xf32>) outs(%446 : tensor<1x1x1536xf32>) {
    ^bb0(%in: f32, %in_1172: f32, %out: f32):
      %2454 = arith.mulf %in, %in_1172 : f32
      linalg.yield %2454 : f32
    } -> tensor<1x1x1536xf32>
    %expanded_216 = tensor.expand_shape %arg71 [[0, 1, 2]] output_shape [1, 1, 1536] : tensor<1536xf32> into tensor<1x1x1536xf32>
    %448 = tensor.empty() : tensor<1x1x1536xf32>
    %449 = linalg.generic {indexing_maps = [#map2, #map2, #map2], iterator_types = ["parallel", "parallel", "parallel"]} ins(%expanded_216, %447 : tensor<1x1x1536xf32>, tensor<1x1x1536xf32>) outs(%448 : tensor<1x1x1536xf32>) {
    ^bb0(%in: f32, %in_1172: f32, %out: f32):
      %2454 = arith.mulf %in, %in_1172 : f32
      linalg.yield %2454 : f32
    } -> tensor<1x1x1536xf32>
    %collapsed_217 = tensor.collapse_shape %449 [[0, 1], [2]] : tensor<1x1x1536xf32> into tensor<1x1536xf32>
    %450 = linalg.matmul {cast = #linalg.type_fn<cast_signed>} ins(%collapsed_217, %arg72 : tensor<1x1536xf32>, tensor<1536x8960xf32>) outs(%cst_5 : tensor<1x8960xf32>) -> tensor<1x8960xf32>
    %expanded_218 = tensor.expand_shape %450 [[0, 1], [2]] output_shape [1, 1, 8960] : tensor<1x8960xf32> into tensor<1x1x8960xf32>
    %451 = tensor.empty() : tensor<1x1x8960xf32>
    %452 = linalg.generic {indexing_maps = [#map2, #map2], iterator_types = ["parallel", "parallel", "parallel"]} ins(%expanded_218 : tensor<1x1x8960xf32>) outs(%451 : tensor<1x1x8960xf32>) {
    ^bb0(%in: f32, %out: f32):
      %cst_1172 = arith.constant 1.000000e+00 : f32
      %2454 = arith.negf %in : f32
      %2455 = math.exp %2454 : f32
      %2456 = arith.addf %2455, %cst_1172 : f32
      %2457 = arith.divf %cst_1172, %2456 : f32
      linalg.yield %2457 : f32
    } -> tensor<1x1x8960xf32>
    %453 = tensor.empty() : tensor<1x1x8960xf32>
    %454 = linalg.generic {indexing_maps = [#map2, #map2, #map2], iterator_types = ["parallel", "parallel", "parallel"]} ins(%expanded_218, %452 : tensor<1x1x8960xf32>, tensor<1x1x8960xf32>) outs(%453 : tensor<1x1x8960xf32>) {
    ^bb0(%in: f32, %in_1172: f32, %out: f32):
      %2454 = arith.mulf %in, %in_1172 : f32
      linalg.yield %2454 : f32
    } -> tensor<1x1x8960xf32>
    %collapsed_219 = tensor.collapse_shape %449 [[0, 1], [2]] : tensor<1x1x1536xf32> into tensor<1x1536xf32>
    %455 = linalg.matmul {cast = #linalg.type_fn<cast_signed>} ins(%collapsed_219, %arg73 : tensor<1x1536xf32>, tensor<1536x8960xf32>) outs(%cst_5 : tensor<1x8960xf32>) -> tensor<1x8960xf32>
    %expanded_220 = tensor.expand_shape %455 [[0, 1], [2]] output_shape [1, 1, 8960] : tensor<1x8960xf32> into tensor<1x1x8960xf32>
    %456 = tensor.empty() : tensor<1x1x8960xf32>
    %457 = linalg.generic {indexing_maps = [#map2, #map2, #map2], iterator_types = ["parallel", "parallel", "parallel"]} ins(%454, %expanded_220 : tensor<1x1x8960xf32>, tensor<1x1x8960xf32>) outs(%456 : tensor<1x1x8960xf32>) {
    ^bb0(%in: f32, %in_1172: f32, %out: f32):
      %2454 = arith.mulf %in, %in_1172 : f32
      linalg.yield %2454 : f32
    } -> tensor<1x1x8960xf32>
    %collapsed_221 = tensor.collapse_shape %457 [[0, 1], [2]] : tensor<1x1x8960xf32> into tensor<1x8960xf32>
    %458 = linalg.matmul {cast = #linalg.type_fn<cast_signed>} ins(%collapsed_221, %arg74 : tensor<1x8960xf32>, tensor<8960x1536xf32>) outs(%cst_12 : tensor<1x1536xf32>) -> tensor<1x1536xf32>
    %expanded_222 = tensor.expand_shape %458 [[0, 1], [2]] output_shape [1, 1, 1536] : tensor<1x1536xf32> into tensor<1x1x1536xf32>
    %459 = tensor.empty() : tensor<1x1x1536xf32>
    %460 = linalg.generic {indexing_maps = [#map2, #map2, #map2], iterator_types = ["parallel", "parallel", "parallel"]} ins(%435, %expanded_222 : tensor<1x1x1536xf32>, tensor<1x1x1536xf32>) outs(%459 : tensor<1x1x1536xf32>) {
    ^bb0(%in: f32, %in_1172: f32, %out: f32):
      %2454 = arith.addf %in, %in_1172 : f32
      linalg.yield %2454 : f32
    } -> tensor<1x1x1536xf32>
    %461 = tensor.empty() : tensor<1x1x1536xf32>
    %462 = linalg.generic {indexing_maps = [#map2, #map2], iterator_types = ["parallel", "parallel", "parallel"]} ins(%460 : tensor<1x1x1536xf32>) outs(%461 : tensor<1x1x1536xf32>) {
    ^bb0(%in: f32, %out: f32):
      %2454 = math.fpowi %in, %c2_i32 : f32, i32
      linalg.yield %2454 : f32
    } -> tensor<1x1x1536xf32>
    %463 = tensor.empty() : tensor<1x1xf32>
    %cst_223 = arith.constant 0.000000e+00 : f32
    %464 = linalg.fill ins(%cst_223 : f32) outs(%463 : tensor<1x1xf32>) -> tensor<1x1xf32>
    %reduced_224 = linalg.reduce ins(%462 : tensor<1x1x1536xf32>) outs(%464 : tensor<1x1xf32>) dimensions = [2]
      (%in: f32, %init: f32) {
        %2454 = arith.addf %in, %init : f32
        linalg.yield %2454 : f32
      }
    %expanded_225 = tensor.expand_shape %reduced_224 [[0], [1, 2]] output_shape [1, 1, 1] : tensor<1x1xf32> into tensor<1x1x1xf32>
    %465 = tensor.empty() : tensor<1x1x1xf32>
    %466 = linalg.generic {indexing_maps = [#map2, #map2, #map2], iterator_types = ["parallel", "parallel", "parallel"]} ins(%expanded_225, %cst_2 : tensor<1x1x1xf32>, tensor<1x1x1xf32>) outs(%465 : tensor<1x1x1xf32>) {
    ^bb0(%in: f32, %in_1172: f32, %out: f32):
      %2454 = arith.mulf %in, %in_1172 : f32
      linalg.yield %2454 : f32
    } -> tensor<1x1x1xf32>
    %467 = tensor.empty() : tensor<1x1x1xf32>
    %468 = linalg.generic {indexing_maps = [#map2, #map2, #map2], iterator_types = ["parallel", "parallel", "parallel"]} ins(%466, %cst_13 : tensor<1x1x1xf32>, tensor<1x1x1xf32>) outs(%467 : tensor<1x1x1xf32>) {
    ^bb0(%in: f32, %in_1172: f32, %out: f32):
      %2454 = arith.addf %in, %in_1172 : f32
      linalg.yield %2454 : f32
    } -> tensor<1x1x1xf32>
    %469 = tensor.empty() : tensor<1x1x1xf32>
    %470 = linalg.generic {indexing_maps = [#map2, #map2], iterator_types = ["parallel", "parallel", "parallel"]} ins(%468 : tensor<1x1x1xf32>) outs(%469 : tensor<1x1x1xf32>) {
    ^bb0(%in: f32, %out: f32):
      %2454 = math.rsqrt %in : f32
      linalg.yield %2454 : f32
    } -> tensor<1x1x1xf32>
    %471 = tensor.empty() : tensor<1x1x1536xf32>
    %472 = linalg.generic {indexing_maps = [#map2, #map7, #map2], iterator_types = ["parallel", "parallel", "parallel"]} ins(%460, %470 : tensor<1x1x1536xf32>, tensor<1x1x1xf32>) outs(%471 : tensor<1x1x1536xf32>) {
    ^bb0(%in: f32, %in_1172: f32, %out: f32):
      %2454 = arith.mulf %in, %in_1172 : f32
      linalg.yield %2454 : f32
    } -> tensor<1x1x1536xf32>
    %expanded_226 = tensor.expand_shape %arg75 [[0, 1, 2]] output_shape [1, 1, 1536] : tensor<1536xf32> into tensor<1x1x1536xf32>
    %473 = tensor.empty() : tensor<1x1x1536xf32>
    %474 = linalg.generic {indexing_maps = [#map2, #map2, #map2], iterator_types = ["parallel", "parallel", "parallel"]} ins(%expanded_226, %472 : tensor<1x1x1536xf32>, tensor<1x1x1536xf32>) outs(%473 : tensor<1x1x1536xf32>) {
    ^bb0(%in: f32, %in_1172: f32, %out: f32):
      %2454 = arith.mulf %in, %in_1172 : f32
      linalg.yield %2454 : f32
    } -> tensor<1x1x1536xf32>
    %collapsed_227 = tensor.collapse_shape %474 [[0, 1], [2]] : tensor<1x1x1536xf32> into tensor<1x1536xf32>
    %475 = linalg.matmul {cast = #linalg.type_fn<cast_signed>} ins(%collapsed_227, %arg77 : tensor<1x1536xf32>, tensor<1536x1536xf32>) outs(%cst_12 : tensor<1x1536xf32>) -> tensor<1x1536xf32>
    %expanded_228 = tensor.expand_shape %arg76 [[0, 1]] output_shape [1, 1536] : tensor<1536xf32> into tensor<1x1536xf32>
    %476 = tensor.empty() : tensor<1x1536xf32>
    %477 = linalg.generic {indexing_maps = [#map, #map, #map], iterator_types = ["parallel", "parallel"]} ins(%expanded_228, %475 : tensor<1x1536xf32>, tensor<1x1536xf32>) outs(%476 : tensor<1x1536xf32>) {
    ^bb0(%in: f32, %in_1172: f32, %out: f32):
      %2454 = arith.addf %in, %in_1172 : f32
      linalg.yield %2454 : f32
    } -> tensor<1x1536xf32>
    %expanded_229 = tensor.expand_shape %477 [[0], [1, 2, 3]] output_shape [1, 12, 1, 128] : tensor<1x1536xf32> into tensor<1x12x1x128xf32>
    %collapsed_230 = tensor.collapse_shape %474 [[0, 1], [2]] : tensor<1x1x1536xf32> into tensor<1x1536xf32>
    %478 = linalg.matmul {cast = #linalg.type_fn<cast_signed>} ins(%collapsed_230, %arg79 : tensor<1x1536xf32>, tensor<1536x256xf32>) outs(%cst_11 : tensor<1x256xf32>) -> tensor<1x256xf32>
    %expanded_231 = tensor.expand_shape %arg78 [[0, 1]] output_shape [1, 256] : tensor<256xf32> into tensor<1x256xf32>
    %479 = tensor.empty() : tensor<1x256xf32>
    %480 = linalg.generic {indexing_maps = [#map, #map, #map], iterator_types = ["parallel", "parallel"]} ins(%expanded_231, %478 : tensor<1x256xf32>, tensor<1x256xf32>) outs(%479 : tensor<1x256xf32>) {
    ^bb0(%in: f32, %in_1172: f32, %out: f32):
      %2454 = arith.addf %in, %in_1172 : f32
      linalg.yield %2454 : f32
    } -> tensor<1x256xf32>
    %expanded_232 = tensor.expand_shape %480 [[0], [1, 2, 3]] output_shape [1, 2, 1, 128] : tensor<1x256xf32> into tensor<1x2x1x128xf32>
…
    %expanded_1096 = tensor.expand_shape %2289 [[0], [1, 2, 3]] output_shape [1, 2, 1, 128] : tensor<1x256xf32> into tensor<1x2x1x128xf32>
    %expanded_1097 = tensor.expand_shape %29 [[0], [1, 2], [3]] output_shape [1, 1, 1, 128] : tensor<1x1x128xf32> into tensor<1x1x1x128xf32>
    %expanded_1098 = tensor.expand_shape %30 [[0], [1, 2], [3]] output_shape [1, 1, 1, 128] : tensor<1x1x128xf32> into tensor<1x1x1x128xf32>
    %2290 = tensor.empty() : tensor<1x12x1x128xf32>
    %2291 = linalg.generic {indexing_maps = [#map6, #map8, #map6], iterator_types = ["parallel", "parallel", "parallel", "parallel"]} ins(%expanded_1090, %expanded_1097 : tensor<1x12x1x128xf32>, tensor<1x1x1x128xf32>) outs(%2290 : tensor<1x12x1x128xf32>) {
    ^bb0(%in: f32, %in_1172: f32, %out: f32):
      %2454 = arith.mulf %in, %in_1172 : f32
      linalg.yield %2454 : f32
    } -> tensor<1x12x1x128xf32>
    %extracted_slice_1099 = tensor.extract_slice %expanded_1090[0, 0, 0, 0] [1, 12, 1, 64] [1, 1, 1, 1] : tensor<1x12x1x128xf32> to tensor<1x12x1x64xf32>
    %extracted_slice_1100 = tensor.extract_slice %expanded_1090[0, 0, 0, 64] [1, 12, 1, 64] [1, 1, 1, 1] : tensor<1x12x1x128xf32> to tensor<1x12x1x64xf32>
    %2292 = tensor.empty() : tensor<1x12x1x64xf32>
    %2293 = linalg.generic {indexing_maps = [#map6, #map6], iterator_types = ["parallel", "parallel", "parallel", "parallel"]} ins(%extracted_slice_1100 : tensor<1x12x1x64xf32>) outs(%2292 : tensor<1x12x1x64xf32>) {
    ^bb0(%in: f32, %out: f32):
      %2454 = arith.negf %in : f32
      linalg.yield %2454 : f32
    } -> tensor<1x12x1x64xf32>
    %2294 = tensor.empty() : tensor<1x12x1x128xf32>
    %inserted_slice_1101 = tensor.insert_slice %2293 into %2294[0, 0, 0, 0] [1, 12, 1, 64] [1, 1, 1, 1] : tensor<1x12x1x64xf32> into tensor<1x12x1x128xf32>
    %inserted_slice_1102 = tensor.insert_slice %extracted_slice_1099 into %inserted_slice_1101[0, 0, 0, 64] [1, 12, 1, 64] [1, 1, 1, 1] : tensor<1x12x1x64xf32> into tensor<1x12x1x128xf32>
    %2295 = tensor.empty() : tensor<1x12x1x128xf32>
    %2296 = linalg.generic {indexing_maps = [#map6, #map8, #map6], iterator_types = ["parallel", "parallel", "parallel", "parallel"]} ins(%inserted_slice_1102, %expanded_1098 : tensor<1x12x1x128xf32>, tensor<1x1x1x128xf32>) outs(%2295 : tensor<1x12x1x128xf32>) {
    ^bb0(%in: f32, %in_1172: f32, %out: f32):
      %2454 = arith.mulf %in, %in_1172 : f32
      linalg.yield %2454 : f32
    } -> tensor<1x12x1x128xf32>
    %2297 = tensor.empty() : tensor<1x12x1x128xf32>
    %2298 = linalg.generic {indexing_maps = [#map6, #map6, #map6], iterator_types = ["parallel", "parallel", "parallel", "parallel"]} ins(%2291, %2296 : tensor<1x12x1x128xf32>, tensor<1x12x1x128xf32>) outs(%2297 : tensor<1x12x1x128xf32>) {
    ^bb0(%in: f32, %in_1172: f32, %out: f32):
      %2454 = arith.addf %in, %in_1172 : f32
      linalg.yield %2454 : f32
    } -> tensor<1x12x1x128xf32>
    %2299 = tensor.empty() : tensor<1x2x1x128xf32>
    %2300 = linalg.generic {indexing_maps = [#map6, #map8, #map6], iterator_types = ["parallel", "parallel", "parallel", "parallel"]} ins(%expanded_1093, %expanded_1097 : tensor<1x2x1x128xf32>, tensor<1x1x1x128xf32>) outs(%2299 : tensor<1x2x1x128xf32>) {
    ^bb0(%in: f32, %in_1172: f32, %out: f32):
      %2454 = arith.mulf %in, %in_1172 : f32
      linalg.yield %2454 : f32
    } -> tensor<1x2x1x128xf32>
    %extracted_slice_1103 = tensor.extract_slice %expanded_1093[0, 0, 0, 0] [1, 2, 1, 64] [1, 1, 1, 1] : tensor<1x2x1x128xf32> to tensor<1x2x1x64xf32>
    %extracted_slice_1104 = tensor.extract_slice %expanded_1093[0, 0, 0, 64] [1, 2, 1, 64] [1, 1, 1, 1] : tensor<1x2x1x128xf32> to tensor<1x2x1x64xf32>
    %2301 = tensor.empty() : tensor<1x2x1x64xf32>
    %2302 = linalg.generic {indexing_maps = [#map6, #map6], iterator_types = ["parallel", "parallel", "parallel", "parallel"]} ins(%extracted_slice_1104 : tensor<1x2x1x64xf32>) outs(%2301 : tensor<1x2x1x64xf32>) {
    ^bb0(%in: f32, %out: f32):
      %2454 = arith.negf %in : f32
      linalg.yield %2454 : f32
    } -> tensor<1x2x1x64xf32>
    %2303 = tensor.empty() : tensor<1x2x1x128xf32>
    %inserted_slice_1105 = tensor.insert_slice %2302 into %2303[0, 0, 0, 0] [1, 2, 1, 64] [1, 1, 1, 1] : tensor<1x2x1x64xf32> into tensor<1x2x1x128xf32>
    %inserted_slice_1106 = tensor.insert_slice %extracted_slice_1103 into %inserted_slice_1105[0, 0, 0, 64] [1, 2, 1, 64] [1, 1, 1, 1] : tensor<1x2x1x64xf32> into tensor<1x2x1x128xf32>
    %2304 = tensor.empty() : tensor<1x2x1x128xf32>
    %2305 = linalg.generic {indexing_maps = [#map6, #map8, #map6], iterator_types = ["parallel", "parallel", "parallel", "parallel"]} ins(%inserted_slice_1106, %expanded_1098 : tensor<1x2x1x128xf32>, tensor<1x1x1x128xf32>) outs(%2304 : tensor<1x2x1x128xf32>) {
    ^bb0(%in: f32, %in_1172: f32, %out: f32):
      %2454 = arith.mulf %in, %in_1172 : f32
      linalg.yield %2454 : f32
    } -> tensor<1x2x1x128xf32>
    %2306 = tensor.empty() : tensor<1x2x1x128xf32>
    %2307 = linalg.generic {indexing_maps = [#map6, #map6, #map6], iterator_types = ["parallel", "parallel", "parallel", "parallel"]} ins(%2300, %2305 : tensor<1x2x1x128xf32>, tensor<1x2x1x128xf32>) outs(%2306 : tensor<1x2x1x128xf32>) {
    ^bb0(%in: f32, %in_1172: f32, %out: f32):
      %2454 = arith.addf %in, %in_1172 : f32
      linalg.yield %2454 : f32
    } -> tensor<1x2x1x128xf32>
    %2308 = bufferization.to_buffer %arg376 : tensor<1x2x1024x128xf32> to memref<1x2x1024x128xf32>
    %expanded_1107 = tensor.expand_shape %arg3 [[0, 1, 2, 3]] output_shape [1, 1, 1, 1] : tensor<1xi64> into tensor<1x1x1x1xi64>
    %2309 = tensor.empty() : tensor<1x2x1x128xi64>
    %2310 = linalg.generic {indexing_maps = [#map9, #map6, #map6], iterator_types = ["parallel", "parallel", "parallel", "parallel"]} ins(%expanded_1107, %cst_10 : tensor<1x1x1x1xi64>, tensor<1x2x1x128xi64>) outs(%2309 : tensor<1x2x1x128xi64>) {
    ^bb0(%in: i64, %in_1172: i64, %out: i64):
      %2454 = arith.addi %in, %in_1172 : i64
      linalg.yield %2454 : i64
    } -> tensor<1x2x1x128xi64>
    %2311 = bufferization.to_buffer %2310 : tensor<1x2x1x128xi64> to memref<1x2x1x128xi64>
    %2312 = bufferization.to_buffer %2307 : tensor<1x2x1x128xf32> to memref<1x2x1x128xf32>
    scf.for %arg399 = %c0 to %c1 step %c1 {
      scf.for %arg400 = %c0 to %c2 step %c1 {
        scf.for %arg401 = %c0 to %c1 step %c1 {
          scf.for %arg402 = %c0 to %c128 step %c1 {
            %2454 = memref.load %2312[%arg399, %arg400, %arg401, %arg402] : memref<1x2x1x128xf32>
            %2455 = memref.load %2311[%arg399, %arg400, %arg401, %arg402] : memref<1x2x1x128xi64>
            %2456 = arith.index_cast %2455 : i64 to index
            memref.store %2454, %2308[%arg399, %arg400, %2456, %arg402] : memref<1x2x1024x128xf32>
          }
        }
      }
    }
    %2313 = bufferization.to_tensor %2308 restrict : memref<1x2x1024x128xf32> to tensor<1x2x1024x128xf32>
    %2314 = bufferization.to_buffer %arg377 : tensor<1x2x1024x128xf32> to memref<1x2x1024x128xf32>
    %expanded_1108 = tensor.expand_shape %arg3 [[0, 1, 2, 3]] output_shape [1, 1, 1, 1] : tensor<1xi64> into tensor<1x1x1x1xi64>
    %2315 = tensor.empty() : tensor<1x2x1x128xi64>
    %2316 = linalg.generic {indexing_maps = [#map9, #map6, #map6], iterator_types = ["parallel", "parallel", "parallel", "parallel"]} ins(%expanded_1108, %cst_10 : tensor<1x1x1x1xi64>, tensor<1x2x1x128xi64>) outs(%2315 : tensor<1x2x1x128xi64>) {
    ^bb0(%in: i64, %in_1172: i64, %out: i64):
      %2454 = arith.addi %in, %in_1172 : i64
      linalg.yield %2454 : i64
    } -> tensor<1x2x1x128xi64>
    %2317 = bufferization.to_buffer %2316 : tensor<1x2x1x128xi64> to memref<1x2x1x128xi64>
    %2318 = bufferization.to_buffer %expanded_1096 : tensor<1x2x1x128xf32> to memref<1x2x1x128xf32>
    scf.for %arg399 = %c0 to %c1 step %c1 {
      scf.for %arg400 = %c0 to %c2 step %c1 {
        scf.for %arg401 = %c0 to %c1 step %c1 {
          scf.for %arg402 = %c0 to %c128 step %c1 {
            %2454 = memref.load %2318[%arg399, %arg400, %arg401, %arg402] : memref<1x2x1x128xf32>
            %2455 = memref.load %2317[%arg399, %arg400, %arg401, %arg402] : memref<1x2x1x128xi64>
            %2456 = arith.index_cast %2455 : i64 to index
            memref.store %2454, %2314[%arg399, %arg400, %2456, %arg402] : memref<1x2x1024x128xf32>
          }
        }
      }
    }
    %2319 = bufferization.to_tensor %2314 restrict : memref<1x2x1024x128xf32> to tensor<1x2x1024x128xf32>
    %expanded_1109 = tensor.expand_shape %22 [[0, 1, 2], [3]] output_shape [1, 1, 1, 1024] : tensor<1x1024xi1> into tensor<1x1x1x1024xi1>
    %2320 = tensor.empty() : tensor<1x1x1x1024xf32>
    %2321 = linalg.generic {indexing_maps = [#map6, #map6, #map6, #map6], iterator_types = ["parallel", "parallel", "parallel", "parallel"]} ins(%expanded_1109, %cst_1, %cst_0 : tensor<1x1x1x1024xi1>, tensor<1x1x1x1024xf32>, tensor<1x1x1x1024xf32>) outs(%2320 : tensor<1x1x1x1024xf32>) {
    ^bb0(%in: i1, %in_1172: f32, %in_1173: f32, %out: f32):
      %2454 = arith.select %in, %in_1172, %in_1173 : f32
      linalg.yield %2454 : f32
    } -> tensor<1x1x1x1024xf32>
    %2322 = bufferization.to_buffer %2298 : tensor<1x12x1x128xf32> to memref<1x12x1x128xf32>
    %2323 = bufferization.to_buffer %2321 : tensor<1x1x1x1024xf32> to memref<1x1x1x1024xf32>
    %alloc_1110 = memref.alloc() : memref<1x12x1x128xf32>
    %alloc_1111 = memref.alloc() : memref<1x12x1xf32>
    %alloc_1112 = memref.alloc() : memref<128xf32>
    affine.for %arg399 = 0 to 1 {
      affine.for %arg400 = 0 to 12 {
        %2454 = arith.divsi %arg400, %c6 : index
        affine.for %arg401 = 0 to 1 {
          affine.for %arg402 = 0 to 128 {
            memref.store %cst_9, %alloc_1112[%arg402] : memref<128xf32>
          }
          %2455:2 = affine.for %arg402 = 0 to 1024 iter_args(%arg403 = %cst_6, %arg404 = %cst_9) -> (f32, f32) {
            %2456 = affine.for %arg405 = 0 to 128 step 16 iter_args(%arg406 = %cst) -> (vector<16xf32>) {
              %2471 = vector.load %2322[%arg399, %arg400, %arg401, %arg405] : memref<1x12x1x128xf32>, vector<16xf32>
              %2472 = vector.load %2308[%arg399, %2454, %arg402, %arg405] : memref<1x2x1024x128xf32>, vector<16xf32>
              %2473 = vector.fma %2471, %2472, %arg406 : vector<16xf32>
              affine.yield %2473 : vector<16xf32>
            }
            %2457 = vector.reduction <add>, %2456 : vector<16xf32> into f32
            %2458 = arith.mulf %2457, %cst_7 : f32
            %2459 = memref.load %2323[%arg399, %c0, %arg401, %arg402] : memref<1x1x1x1024xf32>
            %2460 = arith.addf %2458, %2459 : f32
            %2461 = arith.cmpf ogt, %2460, %arg403 : f32
            %2462 = arith.select %2461, %2460, %arg403 : f32
            %2463 = arith.subf %arg403, %2460 : f32
            %2464 = math.exp %2463 : f32
            %2465 = arith.mulf %2464, %arg404 : f32
            %2466 = arith.addf %2465, %cst_8 : f32
            %2467 = arith.subf %2460, %arg403 : f32
            %2468 = math.exp %2467 : f32
            %2469 = arith.addf %arg404, %2468 : f32
            %2470 = arith.select %2461, %2466, %2469 : f32
            affine.for %arg405 = 0 to 128 {
              %2471 = memref.load %2314[%arg399, %2454, %arg402, %arg405] : memref<1x2x1024x128xf32>
              %2472 = memref.load %alloc_1112[%arg405] : memref<128xf32>
              %2473 = arith.mulf %2472, %2464 : f32
              %2474 = arith.addf %2473, %2471 : f32
              %2475 = arith.mulf %2468, %2471 : f32
              %2476 = arith.addf %2475, %2472 : f32
              %2477 = arith.select %2461, %2474, %2476 : f32
              memref.store %2477, %alloc_1112[%arg405] : memref<128xf32>
            }
            affine.yield %2462, %2470 : f32, f32
          }
          memref.store %2455#1, %alloc_1111[%arg399, %arg400, %arg401] : memref<1x12x1xf32>
          affine.for %arg402 = 0 to 128 {
            %2456 = memref.load %alloc_1112[%arg402] : memref<128xf32>
            %2457 = arith.divf %2456, %2455#1 : f32
            memref.store %2457, %alloc_1110[%arg399, %arg400, %arg401, %arg402] : memref<1x12x1x128xf32>
          }
        }
      }
    }
    %2324 = bufferization.to_tensor %alloc_1110 restrict : memref<1x12x1x128xf32> to tensor<1x12x1x128xf32>
    %collapsed_1113 = tensor.collapse_shape %2324 [[0], [1, 2, 3]] : tensor<1x12x1x128xf32> into tensor<1x1536xf32>
    %2325 = linalg.matmul {cast = #linalg.type_fn<cast_signed>} ins(%collapsed_1113, %arg378 : tensor<1x1536xf32>, tensor<1536x1536xf32>) outs(%cst_12 : tensor<1x1536xf32>) -> tensor<1x1536xf32>
    %expanded_1114 = tensor.expand_shape %2325 [[0, 1], [2]] output_shape [1, 1, 1536] : tensor<1x1536xf32> into tensor<1x1x1536xf32>
    %2326 = tensor.empty() : tensor<1x1x1536xf32>
    %2327 = linalg.generic {indexing_maps = [#map2, #map2, #map2], iterator_types = ["parallel", "parallel", "parallel"]} ins(%2266, %expanded_1114 : tensor<1x1x1536xf32>, tensor<1x1x1536xf32>) outs(%2326 : tensor<1x1x1536xf32>) {
    ^bb0(%in: f32, %in_1172: f32, %out: f32):
      %2454 = arith.addf %in, %in_1172 : f32
      linalg.yield %2454 : f32
    } -> tensor<1x1x1536xf32>
    %2328 = tensor.empty() : tensor<1x1x1536xf32>
    %2329 = linalg.generic {indexing_maps = [#map2, #map2], iterator_types = ["parallel", "parallel", "parallel"]} ins(%2327 : tensor<1x1x1536xf32>) outs(%2328 : tensor<1x1x1536xf32>) {
    ^bb0(%in: f32, %out: f32):
      %2454 = math.fpowi %in, %c2_i32 : f32, i32
      linalg.yield %2454 : f32
    } -> tensor<1x1x1536xf32>
    %2330 = tensor.empty() : tensor<1x1xf32>
    %cst_1115 = arith.constant 0.000000e+00 : f32
    %2331 = linalg.fill ins(%cst_1115 : f32) outs(%2330 : tensor<1x1xf32>) -> tensor<1x1xf32>
    %reduced_1116 = linalg.reduce ins(%2329 : tensor<1x1x1536xf32>) outs(%2331 : tensor<1x1xf32>) dimensions = [2]
      (%in: f32, %init: f32) {
        %2454 = arith.addf %in, %init : f32
        linalg.yield %2454 : f32
      }
    %expanded_1117 = tensor.expand_shape %reduced_1116 [[0], [1, 2]] output_shape [1, 1, 1] : tensor<1x1xf32> into tensor<1x1x1xf32>
    %2332 = tensor.empty() : tensor<1x1x1xf32>
    %2333 = linalg.generic {indexing_maps = [#map2, #map2, #map2], iterator_types = ["parallel", "parallel", "parallel"]} ins(%expanded_1117, %cst_2 : tensor<1x1x1xf32>, tensor<1x1x1xf32>) outs(%2332 : tensor<1x1x1xf32>) {
    ^bb0(%in: f32, %in_1172: f32, %out: f32):
      %2454 = arith.mulf %in, %in_1172 : f32
      linalg.yield %2454 : f32
    } -> tensor<1x1x1xf32>
    %2334 = tensor.empty() : tensor<1x1x1xf32>
    %2335 = linalg.generic {indexing_maps = [#map2, #map2, #map2], iterator_types = ["parallel", "parallel", "parallel"]} ins(%2333, %cst_13 : tensor<1x1x1xf32>, tensor<1x1x1xf32>) outs(%2334 : tensor<1x1x1xf32>) {
    ^bb0(%in: f32, %in_1172: f32, %out: f32):
      %2454 = arith.addf %in, %in_1172 : f32
      linalg.yield %2454 : f32
    } -> tensor<1x1x1xf32>
    %2336 = tensor.empty() : tensor<1x1x1xf32>
    %2337 = linalg.generic {indexing_maps = [#map2, #map2], iterator_types = ["parallel", "parallel", "parallel"]} ins(%2335 : tensor<1x1x1xf32>) outs(%2336 : tensor<1x1x1xf32>) {
    ^bb0(%in: f32, %out: f32):
      %2454 = math.rsqrt %in : f32
      linalg.yield %2454 : f32
    } -> tensor<1x1x1xf32>
    %2338 = tensor.empty() : tensor<1x1x1536xf32>
    %2339 = linalg.generic {indexing_maps = [#map2, #map7, #map2], iterator_types = ["parallel", "parallel", "parallel"]} ins(%2327, %2337 : tensor<1x1x1536xf32>, tensor<1x1x1xf32>) outs(%2338 : tensor<1x1x1536xf32>) {
    ^bb0(%in: f32, %in_1172: f32, %out: f32):
      %2454 = arith.mulf %in, %in_1172 : f32
      linalg.yield %2454 : f32
    } -> tensor<1x1x1536xf32>
    %expanded_1118 = tensor.expand_shape %arg379 [[0, 1, 2]] output_shape [1, 1, 1536] : tensor<1536xf32> into tensor<1x1x1536xf32>
    %2340 = tensor.empty() : tensor<1x1x1536xf32>
    %2341 = linalg.generic {indexing_maps = [#map2, #map2, #map2], iterator_types = ["parallel", "parallel", "parallel"]} ins(%expanded_1118, %2339 : tensor<1x1x1536xf32>, tensor<1x1x1536xf32>) outs(%2340 : tensor<1x1x1536xf32>) {
    ^bb0(%in: f32, %in_1172: f32, %out: f32):
      %2454 = arith.mulf %in, %in_1172 : f32
      linalg.yield %2454 : f32
    } -> tensor<1x1x1536xf32>
    %collapsed_1119 = tensor.collapse_shape %2341 [[0, 1], [2]] : tensor<1x1x1536xf32> into tensor<1x1536xf32>
    %2342 = linalg.matmul {cast = #linalg.type_fn<cast_signed>} ins(%collapsed_1119, %arg380 : tensor<1x1536xf32>, tensor<1536x8960xf32>) outs(%cst_5 : tensor<1x8960xf32>) -> tensor<1x8960xf32>
    %expanded_1120 = tensor.expand_shape %2342 [[0, 1], [2]] output_shape [1, 1, 8960] : tensor<1x8960xf32> into tensor<1x1x8960xf32>
    %2343 = tensor.empty() : tensor<1x1x8960xf32>
    %2344 = linalg.generic {indexing_maps = [#map2, #map2], iterator_types = ["parallel", "parallel", "parallel"]} ins(%expanded_1120 : tensor<1x1x8960xf32>) outs(%2343 : tensor<1x1x8960xf32>) {
    ^bb0(%in: f32, %out: f32):
      %cst_1172 = arith.constant 1.000000e+00 : f32
      %2454 = arith.negf %in : f32
      %2455 = math.exp %2454 : f32
      %2456 = arith.addf %2455, %cst_1172 : f32
      %2457 = arith.divf %cst_1172, %2456 : f32
      linalg.yield %2457 : f32
    } -> tensor<1x1x8960xf32>
    %2345 = tensor.empty() : tensor<1x1x8960xf32>
    %2346 = linalg.generic {indexing_maps = [#map2, #map2, #map2], iterator_types = ["parallel", "parallel", "parallel"]} ins(%expanded_1120, %2344 : tensor<1x1x8960xf32>, tensor<1x1x8960xf32>) outs(%2345 : tensor<1x1x8960xf32>) {
    ^bb0(%in: f32, %in_1172: f32, %out: f32):
      %2454 = arith.mulf %in, %in_1172 : f32
      linalg.yield %2454 : f32
    } -> tensor<1x1x8960xf32>
    %collapsed_1121 = tensor.collapse_shape %2341 [[0, 1], [2]] : tensor<1x1x1536xf32> into tensor<1x1536xf32>
    %2347 = linalg.matmul {cast = #linalg.type_fn<cast_signed>} ins(%collapsed_1121, %arg381 : tensor<1x1536xf32>, tensor<1536x8960xf32>) outs(%cst_5 : tensor<1x8960xf32>) -> tensor<1x8960xf32>
    %expanded_1122 = tensor.expand_shape %2347 [[0, 1], [2]] output_shape [1, 1, 8960] : tensor<1x8960xf32> into tensor<1x1x8960xf32>
    %2348 = tensor.empty() : tensor<1x1x8960xf32>
    %2349 = linalg.generic {indexing_maps = [#map2, #map2, #map2], iterator_types = ["parallel", "parallel", "parallel"]} ins(%2346, %expanded_1122 : tensor<1x1x8960xf32>, tensor<1x1x8960xf32>) outs(%2348 : tensor<1x1x8960xf32>) {
    ^bb0(%in: f32, %in_1172: f32, %out: f32):
      %2454 = arith.mulf %in, %in_1172 : f32
      linalg.yield %2454 : f32
    } -> tensor<1x1x8960xf32>
    %collapsed_1123 = tensor.collapse_shape %2349 [[0, 1], [2]] : tensor<1x1x8960xf32> into tensor<1x8960xf32>
    %2350 = linalg.matmul {cast = #linalg.type_fn<cast_signed>} ins(%collapsed_1123, %arg382 : tensor<1x8960xf32>, tensor<8960x1536xf32>) outs(%cst_12 : tensor<1x1536xf32>) -> tensor<1x1536xf32>
    %expanded_1124 = tensor.expand_shape %2350 [[0, 1], [2]] output_shape [1, 1, 1536] : tensor<1x1536xf32> into tensor<1x1x1536xf32>
    %2351 = tensor.empty() : tensor<1x1x1536xf32>
    %2352 = linalg.generic {indexing_maps = [#map2, #map2, #map2], iterator_types = ["parallel", "parallel", "parallel"]} ins(%2327, %expanded_1124 : tensor<1x1x1536xf32>, tensor<1x1x1536xf32>) outs(%2351 : tensor<1x1x1536xf32>) {
    ^bb0(%in: f32, %in_1172: f32, %out: f32):
      %2454 = arith.addf %in, %in_1172 : f32
      linalg.yield %2454 : f32
    } -> tensor<1x1x1536xf32>
    %2353 = tensor.empty() : tensor<1x1x1536xf32>
    %2354 = linalg.generic {indexing_maps = [#map2, #map2], iterator_types = ["parallel", "parallel", "parallel"]} ins(%2352 : tensor<1x1x1536xf32>) outs(%2353 : tensor<1x1x1536xf32>) {
    ^bb0(%in: f32, %out: f32):
      %2454 = math.fpowi %in, %c2_i32 : f32, i32
      linalg.yield %2454 : f32
    } -> tensor<1x1x1536xf32>
    %2355 = tensor.empty() : tensor<1x1xf32>
    %cst_1125 = arith.constant 0.000000e+00 : f32
    %2356 = linalg.fill ins(%cst_1125 : f32) outs(%2355 : tensor<1x1xf32>) -> tensor<1x1xf32>
    %reduced_1126 = linalg.reduce ins(%2354 : tensor<1x1x1536xf32>) outs(%2356 : tensor<1x1xf32>) dimensions = [2]
      (%in: f32, %init: f32) {
        %2454 = arith.addf %in, %init : f32
        linalg.yield %2454 : f32
      }
    %expanded_1127 = tensor.expand_shape %reduced_1126 [[0], [1, 2]] output_shape [1, 1, 1] : tensor<1x1xf32> into tensor<1x1x1xf32>
    %2357 = tensor.empty() : tensor<1x1x1xf32>
    %2358 = linalg.generic {indexing_maps = [#map2, #map2, #map2], iterator_types = ["parallel", "parallel", "parallel"]} ins(%expanded_1127, %cst_2 : tensor<1x1x1xf32>, tensor<1x1x1xf32>) outs(%2357 : tensor<1x1x1xf32>) {
    ^bb0(%in: f32, %in_1172: f32, %out: f32):
      %2454 = arith.mulf %in, %in_1172 : f32
      linalg.yield %2454 : f32
    } -> tensor<1x1x1xf32>
    %2359 = tensor.empty() : tensor<1x1x1xf32>
    %2360 = linalg.generic {indexing_maps = [#map2, #map2, #map2], iterator_types = ["parallel", "parallel", "parallel"]} ins(%2358, %cst_13 : tensor<1x1x1xf32>, tensor<1x1x1xf32>) outs(%2359 : tensor<1x1x1xf32>) {
    ^bb0(%in: f32, %in_1172: f32, %out: f32):
      %2454 = arith.addf %in, %in_1172 : f32
      linalg.yield %2454 : f32
    } -> tensor<1x1x1xf32>
    %2361 = tensor.empty() : tensor<1x1x1xf32>
    %2362 = linalg.generic {indexing_maps = [#map2, #map2], iterator_types = ["parallel", "parallel", "parallel"]} ins(%2360 : tensor<1x1x1xf32>) outs(%2361 : tensor<1x1x1xf32>) {
    ^bb0(%in: f32, %out: f32):
      %2454 = math.rsqrt %in : f32
      linalg.yield %2454 : f32
    } -> tensor<1x1x1xf32>
    %2363 = tensor.empty() : tensor<1x1x1536xf32>
    %2364 = linalg.generic {indexing_maps = [#map2, #map7, #map2], iterator_types = ["parallel", "parallel", "parallel"]} ins(%2352, %2362 : tensor<1x1x1536xf32>, tensor<1x1x1xf32>) outs(%2363 : tensor<1x1x1536xf32>) {
    ^bb0(%in: f32, %in_1172: f32, %out: f32):
      %2454 = arith.mulf %in, %in_1172 : f32
      linalg.yield %2454 : f32
    } -> tensor<1x1x1536xf32>
    %expanded_1128 = tensor.expand_shape %arg383 [[0, 1, 2]] output_shape [1, 1, 1536] : tensor<1536xf32> into tensor<1x1x1536xf32>
    %2365 = tensor.empty() : tensor<1x1x1536xf32>
    %2366 = linalg.generic {indexing_maps = [#map2, #map2, #map2], iterator_types = ["parallel", "parallel", "parallel"]} ins(%expanded_1128, %2364 : tensor<1x1x1536xf32>, tensor<1x1x1536xf32>) outs(%2365 : tensor<1x1x1536xf32>) {
    ^bb0(%in: f32, %in_1172: f32, %out: f32):
      %2454 = arith.mulf %in, %in_1172 : f32
      linalg.yield %2454 : f32
    } -> tensor<1x1x1536xf32>
    %collapsed_1129 = tensor.collapse_shape %2366 [[0, 1], [2]] : tensor<1x1x1536xf32> into tensor<1x1536xf32>
    %2367 = linalg.matmul {cast = #linalg.type_fn<cast_signed>} ins(%collapsed_1129, %arg385 : tensor<1x1536xf32>, tensor<1536x1536xf32>) outs(%cst_12 : tensor<1x1536xf32>) -> tensor<1x1536xf32>
    %expanded_1130 = tensor.expand_shape %arg384 [[0, 1]] output_shape [1, 1536] : tensor<1536xf32> into tensor<1x1536xf32>
    %2368 = tensor.empty() : tensor<1x1536xf32>
    %2369 = linalg.generic {indexing_maps = [#map, #map, #map], iterator_types = ["parallel", "parallel"]} ins(%expanded_1130, %2367 : tensor<1x1536xf32>, tensor<1x1536xf32>) outs(%2368 : tensor<1x1536xf32>) {
    ^bb0(%in: f32, %in_1172: f32, %out: f32):
      %2454 = arith.addf %in, %in_1172 : f32
      linalg.yield %2454 : f32
    } -> tensor<1x1536xf32>
    %expanded_1131 = tensor.expand_shape %2369 [[0], [1, 2, 3]] output_shape [1, 12, 1, 128] : tensor<1x1536xf32> into tensor<1x12x1x128xf32>
    %collapsed_1132 = tensor.collapse_shape %2366 [[0, 1], [2]] : tensor<1x1x1536xf32> into tensor<1x1536xf32>
    %2370 = linalg.matmul {cast = #linalg.type_fn<cast_signed>} ins(%collapsed_1132, %arg387 : tensor<1x1536xf32>, tensor<1536x256xf32>) outs(%cst_11 : tensor<1x256xf32>) -> tensor<1x256xf32>
    %expanded_1133 = tensor.expand_shape %arg386 [[0, 1]] output_shape [1, 256] : tensor<256xf32> into tensor<1x256xf32>
    %2371 = tensor.empty() : tensor<1x256xf32>
    %2372 = linalg.generic {indexing_maps = [#map, #map, #map], iterator_types = ["parallel", "parallel"]} ins(%expanded_1133, %2370 : tensor<1x256xf32>, tensor<1x256xf32>) outs(%2371 : tensor<1x256xf32>) {
    ^bb0(%in: f32, %in_1172: f32, %out: f32):
      %2454 = arith.addf %in, %in_1172 : f32
      linalg.yield %2454 : f32
    } -> tensor<1x256xf32>
    %expanded_1134 = tensor.expand_shape %2372 [[0], [1, 2, 3]] output_shape [1, 2, 1, 128] : tensor<1x256xf32> into tensor<1x2x1x128xf32>
    %collapsed_1135 = tensor.collapse_shape %2366 [[0, 1], [2]] : tensor<1x1x1536xf32> into tensor<1x1536xf32>
    %2373 = linalg.matmul {cast = #linalg.type_fn<cast_signed>} ins(%collapsed_1135, %arg389 : tensor<1x1536xf32>, tensor<1536x256xf32>) outs(%cst_11 : tensor<1x256xf32>) -> tensor<1x256xf32>
    %expanded_1136 = tensor.expand_shape %arg388 [[0, 1]] output_shape [1, 256] : tensor<256xf32> into tensor<1x256xf32>
    %2374 = tensor.empty() : tensor<1x256xf32>
    %2375 = linalg.generic {indexing_maps = [#map, #map, #map], iterator_types = ["parallel", "parallel"]} ins(%expanded_1136, %2373 : tensor<1x256xf32>, tensor<1x256xf32>) outs(%2374 : tensor<1x256xf32>) {
    ^bb0(%in: f32, %in_1172: f32, %out: f32):
      %2454 = arith.addf %in, %in_1172 : f32
      linalg.yield %2454 : f32
    } -> tensor<1x256xf32>
    %expanded_1137 = tensor.expand_shape %2375 [[0], [1, 2, 3]] output_shape [1, 2, 1, 128] : tensor<1x256xf32> into tensor<1x2x1x128xf32>
    %expanded_1138 = tensor.expand_shape %29 [[0], [1, 2], [3]] output_shape [1, 1, 1, 128] : tensor<1x1x128xf32> into tensor<1x1x1x128xf32>
    %expanded_1139 = tensor.expand_shape %30 [[0], [1, 2], [3]] output_shape [1, 1, 1, 128] : tensor<1x1x128xf32> into tensor<1x1x1x128xf32>
    %2376 = tensor.empty() : tensor<1x12x1x128xf32>
    %2377 = linalg.generic {indexing_maps = [#map6, #map8, #map6], iterator_types = ["parallel", "parallel", "parallel", "parallel"]} ins(%expanded_1131, %expanded_1138 : tensor<1x12x1x128xf32>, tensor<1x1x1x128xf32>) outs(%2376 : tensor<1x12x1x128xf32>) {
    ^bb0(%in: f32, %in_1172: f32, %out: f32):
      %2454 = arith.mulf %in, %in_1172 : f32
      linalg.yield %2454 : f32
    } -> tensor<1x12x1x128xf32>
    %extracted_slice_1140 = tensor.extract_slice %expanded_1131[0, 0, 0, 0] [1, 12, 1, 64] [1, 1, 1, 1] : tensor<1x12x1x128xf32> to tensor<1x12x1x64xf32>
    %extracted_slice_1141 = tensor.extract_slice %expanded_1131[0, 0, 0, 64] [1, 12, 1, 64] [1, 1, 1, 1] : tensor<1x12x1x128xf32> to tensor<1x12x1x64xf32>
    %2378 = tensor.empty() : tensor<1x12x1x64xf32>
    %2379 = linalg.generic {indexing_maps = [#map6, #map6], iterator_types = ["parallel", "parallel", "parallel", "parallel"]} ins(%extracted_slice_1141 : tensor<1x12x1x64xf32>) outs(%2378 : tensor<1x12x1x64xf32>) {
    ^bb0(%in: f32, %out: f32):
      %2454 = arith.negf %in : f32
      linalg.yield %2454 : f32
    } -> tensor<1x12x1x64xf32>
    %2380 = tensor.empty() : tensor<1x12x1x128xf32>
    %inserted_slice_1142 = tensor.insert_slice %2379 into %2380[0, 0, 0, 0] [1, 12, 1, 64] [1, 1, 1, 1] : tensor<1x12x1x64xf32> into tensor<1x12x1x128xf32>
    %inserted_slice_1143 = tensor.insert_slice %extracted_slice_1140 into %inserted_slice_1142[0, 0, 0, 64] [1, 12, 1, 64] [1, 1, 1, 1] : tensor<1x12x1x64xf32> into tensor<1x12x1x128xf32>
    %2381 = tensor.empty() : tensor<1x12x1x128xf32>
    %2382 = linalg.generic {indexing_maps = [#map6, #map8, #map6], iterator_types = ["parallel", "parallel", "parallel", "parallel"]} ins(%inserted_slice_1143, %expanded_1139 : tensor<1x12x1x128xf32>, tensor<1x1x1x128xf32>) outs(%2381 : tensor<1x12x1x128xf32>) {
    ^bb0(%in: f32, %in_1172: f32, %out: f32):
      %2454 = arith.mulf %in, %in_1172 : f32
      linalg.yield %2454 : f32
    } -> tensor<1x12x1x128xf32>
    %2383 = tensor.empty() : tensor<1x12x1x128xf32>
    %2384 = linalg.generic {indexing_maps = [#map6, #map6, #map6], iterator_types = ["parallel", "parallel", "parallel", "parallel"]} ins(%2377, %2382 : tensor<1x12x1x128xf32>, tensor<1x12x1x128xf32>) outs(%2383 : tensor<1x12x1x128xf32>) {
    ^bb0(%in: f32, %in_1172: f32, %out: f32):
      %2454 = arith.addf %in, %in_1172 : f32
      linalg.yield %2454 : f32
    } -> tensor<1x12x1x128xf32>
    %2385 = tensor.empty() : tensor<1x2x1x128xf32>
    %2386 = linalg.generic {indexing_maps = [#map6, #map8, #map6], iterator_types = ["parallel", "parallel", "parallel", "parallel"]} ins(%expanded_1134, %expanded_1138 : tensor<1x2x1x128xf32>, tensor<1x1x1x128xf32>) outs(%2385 : tensor<1x2x1x128xf32>) {
    ^bb0(%in: f32, %in_1172: f32, %out: f32):
      %2454 = arith.mulf %in, %in_1172 : f32
      linalg.yield %2454 : f32
    } -> tensor<1x2x1x128xf32>
    %extracted_slice_1144 = tensor.extract_slice %expanded_1134[0, 0, 0, 0] [1, 2, 1, 64] [1, 1, 1, 1] : tensor<1x2x1x128xf32> to tensor<1x2x1x64xf32>
    %extracted_slice_1145 = tensor.extract_slice %expanded_1134[0, 0, 0, 64] [1, 2, 1, 64] [1, 1, 1, 1] : tensor<1x2x1x128xf32> to tensor<1x2x1x64xf32>
    %2387 = tensor.empty() : tensor<1x2x1x64xf32>
    %2388 = linalg.generic {indexing_maps = [#map6, #map6], iterator_types = ["parallel", "parallel", "parallel", "parallel"]} ins(%extracted_slice_1145 : tensor<1x2x1x64xf32>) outs(%2387 : tensor<1x2x1x64xf32>) {
    ^bb0(%in: f32, %out: f32):
      %2454 = arith.negf %in : f32
      linalg.yield %2454 : f32
    } -> tensor<1x2x1x64xf32>
    %2389 = tensor.empty() : tensor<1x2x1x128xf32>
    %inserted_slice_1146 = tensor.insert_slice %2388 into %2389[0, 0, 0, 0] [1, 2, 1, 64] [1, 1, 1, 1] : tensor<1x2x1x64xf32> into tensor<1x2x1x128xf32>
    %inserted_slice_1147 = tensor.insert_slice %extracted_slice_1144 into %inserted_slice_1146[0, 0, 0, 64] [1, 2, 1, 64] [1, 1, 1, 1] : tensor<1x2x1x64xf32> into tensor<1x2x1x128xf32>
    %2390 = tensor.empty() : tensor<1x2x1x128xf32>
    %2391 = linalg.generic {indexing_maps = [#map6, #map8, #map6], iterator_types = ["parallel", "parallel", "parallel", "parallel"]} ins(%inserted_slice_1147, %expanded_1139 : tensor<1x2x1x128xf32>, tensor<1x1x1x128xf32>) outs(%2390 : tensor<1x2x1x128xf32>) {
    ^bb0(%in: f32, %in_1172: f32, %out: f32):
      %2454 = arith.mulf %in, %in_1172 : f32
      linalg.yield %2454 : f32
    } -> tensor<1x2x1x128xf32>
    %2392 = tensor.empty() : tensor<1x2x1x128xf32>
    %2393 = linalg.generic {indexing_maps = [#map6, #map6, #map6], iterator_types = ["parallel", "parallel", "parallel", "parallel"]} ins(%2386, %2391 : tensor<1x2x1x128xf32>, tensor<1x2x1x128xf32>) outs(%2392 : tensor<1x2x1x128xf32>) {
    ^bb0(%in: f32, %in_1172: f32, %out: f32):
      %2454 = arith.addf %in, %in_1172 : f32
      linalg.yield %2454 : f32
    } -> tensor<1x2x1x128xf32>
    %2394 = bufferization.to_buffer %arg390 : tensor<1x2x1024x128xf32> to memref<1x2x1024x128xf32>
    %expanded_1148 = tensor.expand_shape %arg3 [[0, 1, 2, 3]] output_shape [1, 1, 1, 1] : tensor<1xi64> into tensor<1x1x1x1xi64>
    %2395 = tensor.empty() : tensor<1x2x1x128xi64>
    %2396 = linalg.generic {indexing_maps = [#map9, #map6, #map6], iterator_types = ["parallel", "parallel", "parallel", "parallel"]} ins(%expanded_1148, %cst_10 : tensor<1x1x1x1xi64>, tensor<1x2x1x128xi64>) outs(%2395 : tensor<1x2x1x128xi64>) {
    ^bb0(%in: i64, %in_1172: i64, %out: i64):
      %2454 = arith.addi %in, %in_1172 : i64
      linalg.yield %2454 : i64
    } -> tensor<1x2x1x128xi64>
    %2397 = bufferization.to_buffer %2396 : tensor<1x2x1x128xi64> to memref<1x2x1x128xi64>
    %2398 = bufferization.to_buffer %2393 : tensor<1x2x1x128xf32> to memref<1x2x1x128xf32>
    scf.for %arg399 = %c0 to %c1 step %c1 {
      scf.for %arg400 = %c0 to %c2 step %c1 {
        scf.for %arg401 = %c0 to %c1 step %c1 {
          scf.for %arg402 = %c0 to %c128 step %c1 {
            %2454 = memref.load %2398[%arg399, %arg400, %arg401, %arg402] : memref<1x2x1x128xf32>
            %2455 = memref.load %2397[%arg399, %arg400, %arg401, %arg402] : memref<1x2x1x128xi64>
            %2456 = arith.index_cast %2455 : i64 to index
            memref.store %2454, %2394[%arg399, %arg400, %2456, %arg402] : memref<1x2x1024x128xf32>
          }
        }
      }
    }
    %2399 = bufferization.to_tensor %2394 restrict : memref<1x2x1024x128xf32> to tensor<1x2x1024x128xf32>
    %2400 = bufferization.to_buffer %arg391 : tensor<1x2x1024x128xf32> to memref<1x2x1024x128xf32>
    %expanded_1149 = tensor.expand_shape %arg3 [[0, 1, 2, 3]] output_shape [1, 1, 1, 1] : tensor<1xi64> into tensor<1x1x1x1xi64>
    %2401 = tensor.empty() : tensor<1x2x1x128xi64>
    %2402 = linalg.generic {indexing_maps = [#map9, #map6, #map6], iterator_types = ["parallel", "parallel", "parallel", "parallel"]} ins(%expanded_1149, %cst_10 : tensor<1x1x1x1xi64>, tensor<1x2x1x128xi64>) outs(%2401 : tensor<1x2x1x128xi64>) {
    ^bb0(%in: i64, %in_1172: i64, %out: i64):
      %2454 = arith.addi %in, %in_1172 : i64
      linalg.yield %2454 : i64
    } -> tensor<1x2x1x128xi64>
    %2403 = bufferization.to_buffer %2402 : tensor<1x2x1x128xi64> to memref<1x2x1x128xi64>
    %2404 = bufferization.to_buffer %expanded_1137 : tensor<1x2x1x128xf32> to memref<1x2x1x128xf32>
    scf.for %arg399 = %c0 to %c1 step %c1 {
      scf.for %arg400 = %c0 to %c2 step %c1 {
        scf.for %arg401 = %c0 to %c1 step %c1 {
          scf.for %arg402 = %c0 to %c128 step %c1 {
            %2454 = memref.load %2404[%arg399, %arg400, %arg401, %arg402] : memref<1x2x1x128xf32>
            %2455 = memref.load %2403[%arg399, %arg400, %arg401, %arg402] : memref<1x2x1x128xi64>
            %2456 = arith.index_cast %2455 : i64 to index
            memref.store %2454, %2400[%arg399, %arg400, %2456, %arg402] : memref<1x2x1024x128xf32>
          }
        }
      }
    }
    %2405 = bufferization.to_tensor %2400 restrict : memref<1x2x1024x128xf32> to tensor<1x2x1024x128xf32>
    %expanded_1150 = tensor.expand_shape %22 [[0, 1, 2], [3]] output_shape [1, 1, 1, 1024] : tensor<1x1024xi1> into tensor<1x1x1x1024xi1>
    %2406 = tensor.empty() : tensor<1x1x1x1024xf32>
    %2407 = linalg.generic {indexing_maps = [#map6, #map6, #map6, #map6], iterator_types = ["parallel", "parallel", "parallel", "parallel"]} ins(%expanded_1150, %cst_1, %cst_0 : tensor<1x1x1x1024xi1>, tensor<1x1x1x1024xf32>, tensor<1x1x1x1024xf32>) outs(%2406 : tensor<1x1x1x1024xf32>) {
    ^bb0(%in: i1, %in_1172: f32, %in_1173: f32, %out: f32):
      %2454 = arith.select %in, %in_1172, %in_1173 : f32
      linalg.yield %2454 : f32
    } -> tensor<1x1x1x1024xf32>
    %2408 = bufferization.to_buffer %2384 : tensor<1x12x1x128xf32> to memref<1x12x1x128xf32>
    %2409 = bufferization.to_buffer %2407 : tensor<1x1x1x1024xf32> to memref<1x1x1x1024xf32>
    %alloc_1151 = memref.alloc() : memref<1x12x1x128xf32>
    %alloc_1152 = memref.alloc() : memref<1x12x1xf32>
    %alloc_1153 = memref.alloc() : memref<128xf32>
    affine.for %arg399 = 0 to 1 {
      affine.for %arg400 = 0 to 12 {
        %2454 = arith.divsi %arg400, %c6 : index
        affine.for %arg401 = 0 to 1 {
          affine.for %arg402 = 0 to 128 {
            memref.store %cst_9, %alloc_1153[%arg402] : memref<128xf32>
          }
          %2455:2 = affine.for %arg402 = 0 to 1024 iter_args(%arg403 = %cst_6, %arg404 = %cst_9) -> (f32, f32) {
            %2456 = affine.for %arg405 = 0 to 128 step 16 iter_args(%arg406 = %cst) -> (vector<16xf32>) {
              %2471 = vector.load %2408[%arg399, %arg400, %arg401, %arg405] : memref<1x12x1x128xf32>, vector<16xf32>
              %2472 = vector.load %2394[%arg399, %2454, %arg402, %arg405] : memref<1x2x1024x128xf32>, vector<16xf32>
              %2473 = vector.fma %2471, %2472, %arg406 : vector<16xf32>
              affine.yield %2473 : vector<16xf32>
            }
            %2457 = vector.reduction <add>, %2456 : vector<16xf32> into f32
            %2458 = arith.mulf %2457, %cst_7 : f32
            %2459 = memref.load %2409[%arg399, %c0, %arg401, %arg402] : memref<1x1x1x1024xf32>
            %2460 = arith.addf %2458, %2459 : f32
            %2461 = arith.cmpf ogt, %2460, %arg403 : f32
            %2462 = arith.select %2461, %2460, %arg403 : f32
            %2463 = arith.subf %arg403, %2460 : f32
            %2464 = math.exp %2463 : f32
            %2465 = arith.mulf %2464, %arg404 : f32
            %2466 = arith.addf %2465, %cst_8 : f32
            %2467 = arith.subf %2460, %arg403 : f32
            %2468 = math.exp %2467 : f32
            %2469 = arith.addf %arg404, %2468 : f32
            %2470 = arith.select %2461, %2466, %2469 : f32
            affine.for %arg405 = 0 to 128 {
              %2471 = memref.load %2400[%arg399, %2454, %arg402, %arg405] : memref<1x2x1024x128xf32>
              %2472 = memref.load %alloc_1153[%arg405] : memref<128xf32>
              %2473 = arith.mulf %2472, %2464 : f32
              %2474 = arith.addf %2473, %2471 : f32
              %2475 = arith.mulf %2468, %2471 : f32
              %2476 = arith.addf %2475, %2472 : f32
              %2477 = arith.select %2461, %2474, %2476 : f32
              memref.store %2477, %alloc_1153[%arg405] : memref<128xf32>
            }
            affine.yield %2462, %2470 : f32, f32
          }
          memref.store %2455#1, %alloc_1152[%arg399, %arg400, %arg401] : memref<1x12x1xf32>
          affine.for %arg402 = 0 to 128 {
            %2456 = memref.load %alloc_1153[%arg402] : memref<128xf32>
            %2457 = arith.divf %2456, %2455#1 : f32
            memref.store %2457, %alloc_1151[%arg399, %arg400, %arg401, %arg402] : memref<1x12x1x128xf32>
          }
        }
      }
    }
    %2410 = bufferization.to_tensor %alloc_1151 restrict : memref<1x12x1x128xf32> to tensor<1x12x1x128xf32>
    %collapsed_1154 = tensor.collapse_shape %2410 [[0], [1, 2, 3]] : tensor<1x12x1x128xf32> into tensor<1x1536xf32>
    %2411 = linalg.matmul {cast = #linalg.type_fn<cast_signed>} ins(%collapsed_1154, %arg392 : tensor<1x1536xf32>, tensor<1536x1536xf32>) outs(%cst_12 : tensor<1x1536xf32>) -> tensor<1x1536xf32>
    %expanded_1155 = tensor.expand_shape %2411 [[0, 1], [2]] output_shape [1, 1, 1536] : tensor<1x1536xf32> into tensor<1x1x1536xf32>
    %2412 = tensor.empty() : tensor<1x1x1536xf32>
    %2413 = linalg.generic {indexing_maps = [#map2, #map2, #map2], iterator_types = ["parallel", "parallel", "parallel"]} ins(%2352, %expanded_1155 : tensor<1x1x1536xf32>, tensor<1x1x1536xf32>) outs(%2412 : tensor<1x1x1536xf32>) {
    ^bb0(%in: f32, %in_1172: f32, %out: f32):
      %2454 = arith.addf %in, %in_1172 : f32
      linalg.yield %2454 : f32
    } -> tensor<1x1x1536xf32>
    %2414 = tensor.empty() : tensor<1x1x1536xf32>
    %2415 = linalg.generic {indexing_maps = [#map2, #map2], iterator_types = ["parallel", "parallel", "parallel"]} ins(%2413 : tensor<1x1x1536xf32>) outs(%2414 : tensor<1x1x1536xf32>) {
    ^bb0(%in: f32, %out: f32):
      %2454 = math.fpowi %in, %c2_i32 : f32, i32
      linalg.yield %2454 : f32
    } -> tensor<1x1x1536xf32>
    %2416 = tensor.empty() : tensor<1x1xf32>
    %cst_1156 = arith.constant 0.000000e+00 : f32
    %2417 = linalg.fill ins(%cst_1156 : f32) outs(%2416 : tensor<1x1xf32>) -> tensor<1x1xf32>
    %reduced_1157 = linalg.reduce ins(%2415 : tensor<1x1x1536xf32>) outs(%2417 : tensor<1x1xf32>) dimensions = [2]
      (%in: f32, %init: f32) {
        %2454 = arith.addf %in, %init : f32
        linalg.yield %2454 : f32
      }
    %expanded_1158 = tensor.expand_shape %reduced_1157 [[0], [1, 2]] output_shape [1, 1, 1] : tensor<1x1xf32> into tensor<1x1x1xf32>
    %2418 = tensor.empty() : tensor<1x1x1xf32>
    %2419 = linalg.generic {indexing_maps = [#map2, #map2, #map2], iterator_types = ["parallel", "parallel", "parallel"]} ins(%expanded_1158, %cst_2 : tensor<1x1x1xf32>, tensor<1x1x1xf32>) outs(%2418 : tensor<1x1x1xf32>) {
    ^bb0(%in: f32, %in_1172: f32, %out: f32):
      %2454 = arith.mulf %in, %in_1172 : f32
      linalg.yield %2454 : f32
    } -> tensor<1x1x1xf32>
    %2420 = tensor.empty() : tensor<1x1x1xf32>
    %2421 = linalg.generic {indexing_maps = [#map2, #map2, #map2], iterator_types = ["parallel", "parallel", "parallel"]} ins(%2419, %cst_13 : tensor<1x1x1xf32>, tensor<1x1x1xf32>) outs(%2420 : tensor<1x1x1xf32>) {
    ^bb0(%in: f32, %in_1172: f32, %out: f32):
      %2454 = arith.addf %in, %in_1172 : f32
      linalg.yield %2454 : f32
    } -> tensor<1x1x1xf32>
    %2422 = tensor.empty() : tensor<1x1x1xf32>
    %2423 = linalg.generic {indexing_maps = [#map2, #map2], iterator_types = ["parallel", "parallel", "parallel"]} ins(%2421 : tensor<1x1x1xf32>) outs(%2422 : tensor<1x1x1xf32>) {
    ^bb0(%in: f32, %out: f32):
      %2454 = math.rsqrt %in : f32
      linalg.yield %2454 : f32
    } -> tensor<1x1x1xf32>
    %2424 = tensor.empty() : tensor<1x1x1536xf32>
    %2425 = linalg.generic {indexing_maps = [#map2, #map7, #map2], iterator_types = ["parallel", "parallel", "parallel"]} ins(%2413, %2423 : tensor<1x1x1536xf32>, tensor<1x1x1xf32>) outs(%2424 : tensor<1x1x1536xf32>) {
    ^bb0(%in: f32, %in_1172: f32, %out: f32):
      %2454 = arith.mulf %in, %in_1172 : f32
      linalg.yield %2454 : f32
    } -> tensor<1x1x1536xf32>
    %expanded_1159 = tensor.expand_shape %arg393 [[0, 1, 2]] output_shape [1, 1, 1536] : tensor<1536xf32> into tensor<1x1x1536xf32>
    %2426 = tensor.empty() : tensor<1x1x1536xf32>
    %2427 = linalg.generic {indexing_maps = [#map2, #map2, #map2], iterator_types = ["parallel", "parallel", "parallel"]} ins(%expanded_1159, %2425 : tensor<1x1x1536xf32>, tensor<1x1x1536xf32>) outs(%2426 : tensor<1x1x1536xf32>) {
    ^bb0(%in: f32, %in_1172: f32, %out: f32):
      %2454 = arith.mulf %in, %in_1172 : f32
      linalg.yield %2454 : f32
    } -> tensor<1x1x1536xf32>
    %collapsed_1160 = tensor.collapse_shape %2427 [[0, 1], [2]] : tensor<1x1x1536xf32> into tensor<1x1536xf32>
    %2428 = linalg.matmul {cast = #linalg.type_fn<cast_signed>} ins(%collapsed_1160, %arg394 : tensor<1x1536xf32>, tensor<1536x8960xf32>) outs(%cst_5 : tensor<1x8960xf32>) -> tensor<1x8960xf32>
    %expanded_1161 = tensor.expand_shape %2428 [[0, 1], [2]] output_shape [1, 1, 8960] : tensor<1x8960xf32> into tensor<1x1x8960xf32>
    %2429 = tensor.empty() : tensor<1x1x8960xf32>
    %2430 = linalg.generic {indexing_maps = [#map2, #map2], iterator_types = ["parallel", "parallel", "parallel"]} ins(%expanded_1161 : tensor<1x1x8960xf32>) outs(%2429 : tensor<1x1x8960xf32>) {
    ^bb0(%in: f32, %out: f32):
      %cst_1172 = arith.constant 1.000000e+00 : f32
      %2454 = arith.negf %in : f32
      %2455 = math.exp %2454 : f32
      %2456 = arith.addf %2455, %cst_1172 : f32
      %2457 = arith.divf %cst_1172, %2456 : f32
      linalg.yield %2457 : f32
    } -> tensor<1x1x8960xf32>
    %2431 = tensor.empty() : tensor<1x1x8960xf32>
    %2432 = linalg.generic {indexing_maps = [#map2, #map2, #map2], iterator_types = ["parallel", "parallel", "parallel"]} ins(%expanded_1161, %2430 : tensor<1x1x8960xf32>, tensor<1x1x8960xf32>) outs(%2431 : tensor<1x1x8960xf32>) {
    ^bb0(%in: f32, %in_1172: f32, %out: f32):
      %2454 = arith.mulf %in, %in_1172 : f32
      linalg.yield %2454 : f32
    } -> tensor<1x1x8960xf32>
    %collapsed_1162 = tensor.collapse_shape %2427 [[0, 1], [2]] : tensor<1x1x1536xf32> into tensor<1x1536xf32>
    %2433 = linalg.matmul {cast = #linalg.type_fn<cast_signed>} ins(%collapsed_1162, %arg395 : tensor<1x1536xf32>, tensor<1536x8960xf32>) outs(%cst_5 : tensor<1x8960xf32>) -> tensor<1x8960xf32>
    %expanded_1163 = tensor.expand_shape %2433 [[0, 1], [2]] output_shape [1, 1, 8960] : tensor<1x8960xf32> into tensor<1x1x8960xf32>
    %2434 = tensor.empty() : tensor<1x1x8960xf32>
    %2435 = linalg.generic {indexing_maps = [#map2, #map2, #map2], iterator_types = ["parallel", "parallel", "parallel"]} ins(%2432, %expanded_1163 : tensor<1x1x8960xf32>, tensor<1x1x8960xf32>) outs(%2434 : tensor<1x1x8960xf32>) {
    ^bb0(%in: f32, %in_1172: f32, %out: f32):
      %2454 = arith.mulf %in, %in_1172 : f32
      linalg.yield %2454 : f32
    } -> tensor<1x1x8960xf32>
    %collapsed_1164 = tensor.collapse_shape %2435 [[0, 1], [2]] : tensor<1x1x8960xf32> into tensor<1x8960xf32>
    %2436 = linalg.matmul {cast = #linalg.type_fn<cast_signed>} ins(%collapsed_1164, %arg396 : tensor<1x8960xf32>, tensor<8960x1536xf32>) outs(%cst_12 : tensor<1x1536xf32>) -> tensor<1x1536xf32>
    %expanded_1165 = tensor.expand_shape %2436 [[0, 1], [2]] output_shape [1, 1, 1536] : tensor<1x1536xf32> into tensor<1x1x1536xf32>
    %2437 = tensor.empty() : tensor<1x1x1536xf32>
    %2438 = linalg.generic {indexing_maps = [#map2, #map2, #map2], iterator_types = ["parallel", "parallel", "parallel"]} ins(%2413, %expanded_1165 : tensor<1x1x1536xf32>, tensor<1x1x1536xf32>) outs(%2437 : tensor<1x1x1536xf32>) {
    ^bb0(%in: f32, %in_1172: f32, %out: f32):
      %2454 = arith.addf %in, %in_1172 : f32
      linalg.yield %2454 : f32
    } -> tensor<1x1x1536xf32>
    %2439 = tensor.empty() : tensor<1x1x1536xf32>
    %2440 = linalg.generic {indexing_maps = [#map2, #map2], iterator_types = ["parallel", "parallel", "parallel"]} ins(%2438 : tensor<1x1x1536xf32>) outs(%2439 : tensor<1x1x1536xf32>) {
    ^bb0(%in: f32, %out: f32):
      %2454 = math.fpowi %in, %c2_i32 : f32, i32
      linalg.yield %2454 : f32
    } -> tensor<1x1x1536xf32>
    %2441 = tensor.empty() : tensor<1x1xf32>
    %cst_1166 = arith.constant 0.000000e+00 : f32
    %2442 = linalg.fill ins(%cst_1166 : f32) outs(%2441 : tensor<1x1xf32>) -> tensor<1x1xf32>
    %reduced_1167 = linalg.reduce ins(%2440 : tensor<1x1x1536xf32>) outs(%2442 : tensor<1x1xf32>) dimensions = [2]
      (%in: f32, %init: f32) {
        %2454 = arith.addf %in, %init : f32
        linalg.yield %2454 : f32
      }
    %expanded_1168 = tensor.expand_shape %reduced_1167 [[0], [1, 2]] output_shape [1, 1, 1] : tensor<1x1xf32> into tensor<1x1x1xf32>
    %2443 = tensor.empty() : tensor<1x1x1xf32>
    %2444 = linalg.generic {indexing_maps = [#map2, #map2, #map2], iterator_types = ["parallel", "parallel", "parallel"]} ins(%expanded_1168, %cst_2 : tensor<1x1x1xf32>, tensor<1x1x1xf32>) outs(%2443 : tensor<1x1x1xf32>) {
    ^bb0(%in: f32, %in_1172: f32, %out: f32):
      %2454 = arith.mulf %in, %in_1172 : f32
      linalg.yield %2454 : f32
    } -> tensor<1x1x1xf32>
    %2445 = tensor.empty() : tensor<1x1x1xf32>
    %2446 = linalg.generic {indexing_maps = [#map2, #map2, #map2], iterator_types = ["parallel", "parallel", "parallel"]} ins(%2444, %cst_13 : tensor<1x1x1xf32>, tensor<1x1x1xf32>) outs(%2445 : tensor<1x1x1xf32>) {
    ^bb0(%in: f32, %in_1172: f32, %out: f32):
      %2454 = arith.addf %in, %in_1172 : f32
      linalg.yield %2454 : f32
    } -> tensor<1x1x1xf32>
    %2447 = tensor.empty() : tensor<1x1x1xf32>
    %2448 = linalg.generic {indexing_maps = [#map2, #map2], iterator_types = ["parallel", "parallel", "parallel"]} ins(%2446 : tensor<1x1x1xf32>) outs(%2447 : tensor<1x1x1xf32>) {
    ^bb0(%in: f32, %out: f32):
      %2454 = math.rsqrt %in : f32
      linalg.yield %2454 : f32
    } -> tensor<1x1x1xf32>
    %2449 = tensor.empty() : tensor<1x1x1536xf32>
    %2450 = linalg.generic {indexing_maps = [#map2, #map7, #map2], iterator_types = ["parallel", "parallel", "parallel"]} ins(%2438, %2448 : tensor<1x1x1536xf32>, tensor<1x1x1xf32>) outs(%2449 : tensor<1x1x1536xf32>) {
    ^bb0(%in: f32, %in_1172: f32, %out: f32):
      %2454 = arith.mulf %in, %in_1172 : f32
      linalg.yield %2454 : f32
    } -> tensor<1x1x1536xf32>
    %expanded_1169 = tensor.expand_shape %arg397 [[0, 1, 2]] output_shape [1, 1, 1536] : tensor<1536xf32> into tensor<1x1x1536xf32>
    %2451 = tensor.empty() : tensor<1x1x1536xf32>
    %2452 = linalg.generic {indexing_maps = [#map2, #map2, #map2], iterator_types = ["parallel", "parallel", "parallel"]} ins(%expanded_1169, %2450 : tensor<1x1x1536xf32>, tensor<1x1x1536xf32>) outs(%2451 : tensor<1x1x1536xf32>) {
    ^bb0(%in: f32, %in_1172: f32, %out: f32):
      %2454 = arith.mulf %in, %in_1172 : f32
      linalg.yield %2454 : f32
    } -> tensor<1x1x1536xf32>
    %collapsed_1170 = tensor.collapse_shape %2452 [[0, 1], [2]] : tensor<1x1x1536xf32> into tensor<1x1536xf32>
    %2453 = linalg.matmul {cast = #linalg.type_fn<cast_signed>} ins(%collapsed_1170, %arg398 : tensor<1x1536xf32>, tensor<1536x151936xf32>) outs(%cst_4 : tensor<1x151936xf32>) -> tensor<1x151936xf32>
    %expanded_1171 = tensor.expand_shape %2453 [[0, 1], [2]] output_shape [1, 1, 151936] : tensor<1x151936xf32> into tensor<1x1x151936xf32>
    return %77, %83, %163, %169, %249, %255, %335, %341, %421, %427, %507, %513, %593, %599, %679, %685, %765, %771, %851, %857, %937, %943, %1023, %1029, %1109, %1115, %1195, %1201, %1281, %1287, %1367, %1373, %1453, %1459, %1539, %1545, %1625, %1631, %1711, %1717, %1797, %1803, %1883, %1889, %1969, %1975, %2055, %2061, %2141, %2147, %2227, %2233, %2313, %2319, %2399, %2405, %expanded_1171 : tensor<1x2x1024x128xf32>, tensor<1x2x1024x128xf32>, tensor<1x2x1024x128xf32>, tensor<1x2x1024x128xf32>, tensor<1x2x1024x128xf32>, tensor<1x2x1024x128xf32>, tensor<1x2x1024x128xf32>, tensor<1x2x1024x128xf32>, tensor<1x2x1024x128xf32>, tensor<1x2x1024x128xf32>, tensor<1x2x1024x128xf32>, tensor<1x2x1024x128xf32>, tensor<1x2x1024x128xf32>, tensor<1x2x1024x128xf32>, tensor<1x2x1024x128xf32>, tensor<1x2x1024x128xf32>, tensor<1x2x1024x128xf32>, tensor<1x2x1024x128xf32>, tensor<1x2x1024x128xf32>, tensor<1x2x1024x128xf32>, tensor<1x2x1024x128xf32>, tensor<1x2x1024x128xf32>, tensor<1x2x1024x128xf32>, tensor<1x2x1024x128xf32>, tensor<1x2x1024x128xf32>, tensor<1x2x1024x128xf32>, tensor<1x2x1024x128xf32>, tensor<1x2x1024x128xf32>, tensor<1x2x1024x128xf32>, tensor<1x2x1024x128xf32>, tensor<1x2x1024x128xf32>, tensor<1x2x1024x128xf32>, tensor<1x2x1024x128xf32>, tensor<1x2x1024x128xf32>, tensor<1x2x1024x128xf32>, tensor<1x2x1024x128xf32>, tensor<1x2x1024x128xf32>, tensor<1x2x1024x128xf32>, tensor<1x2x1024x128xf32>, tensor<1x2x1024x128xf32>, tensor<1x2x1024x128xf32>, tensor<1x2x1024x128xf32>, tensor<1x2x1024x128xf32>, tensor<1x2x1024x128xf32>, tensor<1x2x1024x128xf32>, tensor<1x2x1024x128xf32>, tensor<1x2x1024x128xf32>, tensor<1x2x1024x128xf32>, tensor<1x2x1024x128xf32>, tensor<1x2x1024x128xf32>, tensor<1x2x1024x128xf32>, tensor<1x2x1024x128xf32>, tensor<1x2x1024x128xf32>, tensor<1x2x1024x128xf32>, tensor<1x2x1024x128xf32>, tensor<1x2x1024x128xf32>, tensor<1x1x151936xf32>
  }
}
