#map = affine_map<(d0, d1, d2) -> (d0, d1, d2)>
#map1 = affine_map<(d0, d1, d2, d3) -> (d0, d1, d2, d3)>
#map2 = affine_map<(d0) -> (d0)>
module {

    // Declare timing functions
    func.func private @rtclock() -> f64
    func.func private @record_timing(!llvm.ptr, f64) -> ()

    // Operator name constants
    llvm.mlir.global private constant @op_name_input_layernorm("input_layernorm\00") {addr_space = 0 : i32}
    llvm.mlir.global private constant @op_name_q_proj("q_projection\00") {addr_space = 0 : i32}
    llvm.mlir.global private constant @op_name_k_proj("k_projection\00") {addr_space = 0 : i32}
    llvm.mlir.global private constant @op_name_v_proj("v_projection\00") {addr_space = 0 : i32}
    llvm.mlir.global private constant @op_name_kv_update("attn_kv_cache_update\00") {addr_space = 0 : i32}
    llvm.mlir.global private constant @op_name_attn("qga and attention\00") {addr_space = 0 : i32}
    llvm.mlir.global private constant @op_name_o_proj("o_projection\00") {addr_space = 0 : i32}
    llvm.mlir.global private constant @op_name_post_attn_layernorm("post_attention_layernorm\00") {addr_space = 0 : i32}
    llvm.mlir.global private constant @op_name_ffn_gate("ffn_gate_projection\00") {addr_space = 0 : i32}
    llvm.mlir.global private constant @op_name_ffn_up("ffn_up_projection\00") {addr_space = 0 : i32}
    llvm.mlir.global private constant @op_name_ffn_down("ffn_down_projection\00") {addr_space = 0 : i32}

  func.func @subgraph0_decode(%arg0: tensor<151936x1536xf32>, %arg1: tensor<1x1xi64>, %arg2: tensor<1xi64>, %arg3: tensor<1xi64>, %arg4: tensor<64xf32>, %arg5: tensor<1536xf32>, %arg6: tensor<1536xf32>, %arg7: tensor<1536x1536xf32>, %arg8: tensor<256xf32>, %arg9: tensor<1536x256xf32>, %arg10: tensor<256xf32>, %arg11: tensor<1536x256xf32>, %arg12: tensor<1x2x1024x128xf32>, %arg13: tensor<1x2x1024x128xf32>, %arg14: tensor<1536x1536xf32>, %arg15: tensor<1536xf32>, %arg16: tensor<1536x8960xf32>, %arg17: tensor<1536x8960xf32>, %arg18: tensor<8960x1536xf32>, %arg19: tensor<1536xf32>, %arg20: tensor<1536xf32>, %arg21: tensor<1536x1536xf32>, %arg22: tensor<256xf32>, %arg23: tensor<1536x256xf32>, %arg24: tensor<256xf32>, %arg25: tensor<1536x256xf32>, %arg26: tensor<1x2x1024x128xf32>, %arg27: tensor<1x2x1024x128xf32>, %arg28: tensor<1536x1536xf32>, %arg29: tensor<1536xf32>, %arg30: tensor<1536x8960xf32>, %arg31: tensor<1536x8960xf32>, %arg32: tensor<8960x1536xf32>, %arg33: tensor<1536xf32>, %arg34: tensor<1536xf32>, %arg35: tensor<1536x1536xf32>, %arg36: tensor<256xf32>, %arg37: tensor<1536x256xf32>, %arg38: tensor<256xf32>, %arg39: tensor<1536x256xf32>, %arg40: tensor<1x2x1024x128xf32>, %arg41: tensor<1x2x1024x128xf32>, %arg42: tensor<1536x1536xf32>, %arg43: tensor<1536xf32>, %arg44: tensor<1536x8960xf32>, %arg45: tensor<1536x8960xf32>, %arg46: tensor<8960x1536xf32>, %arg47: tensor<1536xf32>, %arg48: tensor<1536xf32>, %arg49: tensor<1536x1536xf32>, %arg50: tensor<256xf32>, %arg51: tensor<1536x256xf32>, %arg52: tensor<256xf32>, %arg53: tensor<1536x256xf32>, %arg54: tensor<1x2x1024x128xf32>, %arg55: tensor<1x2x1024x128xf32>, %arg56: tensor<1536x1536xf32>, %arg57: tensor<1536xf32>, %arg58: tensor<1536x8960xf32>, %arg59: tensor<1536x8960xf32>, %arg60: tensor<8960x1536xf32>, %arg61: tensor<1536xf32>, %arg62: tensor<1536xf32>, %arg63: tensor<1536x1536xf32>, %arg64: tensor<256xf32>, %arg65: tensor<1536x256xf32>, %arg66: tensor<256xf32>, %arg67: tensor<1536x256xf32>, %arg68: tensor<1x2x1024x128xf32>, %arg69: tensor<1x2x1024x128xf32>, %arg70: tensor<1536x1536xf32>, %arg71: tensor<1536xf32>, %arg72: tensor<1536x8960xf32>, %arg73: tensor<1536x8960xf32>, %arg74: tensor<8960x1536xf32>, %arg75: tensor<1536xf32>, %arg76: tensor<1536xf32>, %arg77: tensor<1536x1536xf32>, %arg78: tensor<256xf32>, %arg79: tensor<1536x256xf32>, %arg80: tensor<256xf32>, %arg81: tensor<1536x256xf32>, %arg82: tensor<1x2x1024x128xf32>, %arg83: tensor<1x2x1024x128xf32>, %arg84: tensor<1536x1536xf32>, %arg85: tensor<1536xf32>, %arg86: tensor<1536x8960xf32>, %arg87: tensor<1536x8960xf32>, %arg88: tensor<8960x1536xf32>, %arg89: tensor<1536xf32>, %arg90: tensor<1536xf32>, %arg91: tensor<1536x1536xf32>, %arg92: tensor<256xf32>, %arg93: tensor<1536x256xf32>, %arg94: tensor<256xf32>, %arg95: tensor<1536x256xf32>, %arg96: tensor<1x2x1024x128xf32>, %arg97: tensor<1x2x1024x128xf32>, %arg98: tensor<1536x1536xf32>, %arg99: tensor<1536xf32>, %arg100: tensor<1536x8960xf32>, %arg101: tensor<1536x8960xf32>, %arg102: tensor<8960x1536xf32>, %arg103: tensor<1536xf32>, %arg104: tensor<1536xf32>, %arg105: tensor<1536x1536xf32>, %arg106: tensor<256xf32>, %arg107: tensor<1536x256xf32>, %arg108: tensor<256xf32>, %arg109: tensor<1536x256xf32>, %arg110: tensor<1x2x1024x128xf32>, %arg111: tensor<1x2x1024x128xf32>, %arg112: tensor<1536x1536xf32>, %arg113: tensor<1536xf32>, %arg114: tensor<1536x8960xf32>, %arg115: tensor<1536x8960xf32>, %arg116: tensor<8960x1536xf32>, %arg117: tensor<1536xf32>, %arg118: tensor<1536xf32>, %arg119: tensor<1536x1536xf32>, %arg120: tensor<256xf32>, %arg121: tensor<1536x256xf32>, %arg122: tensor<256xf32>, %arg123: tensor<1536x256xf32>, %arg124: tensor<1x2x1024x128xf32>, %arg125: tensor<1x2x1024x128xf32>, %arg126: tensor<1536x1536xf32>, %arg127: tensor<1536xf32>, %arg128: tensor<1536x8960xf32>, %arg129: tensor<1536x8960xf32>, %arg130: tensor<8960x1536xf32>, %arg131: tensor<1536xf32>, %arg132: tensor<1536xf32>, %arg133: tensor<1536x1536xf32>, %arg134: tensor<256xf32>, %arg135: tensor<1536x256xf32>, %arg136: tensor<256xf32>, %arg137: tensor<1536x256xf32>, %arg138: tensor<1x2x1024x128xf32>, %arg139: tensor<1x2x1024x128xf32>, %arg140: tensor<1536x1536xf32>, %arg141: tensor<1536xf32>, %arg142: tensor<1536x8960xf32>, %arg143: tensor<1536x8960xf32>, %arg144: tensor<8960x1536xf32>, %arg145: tensor<1536xf32>, %arg146: tensor<1536xf32>, %arg147: tensor<1536x1536xf32>, %arg148: tensor<256xf32>, %arg149: tensor<1536x256xf32>, %arg150: tensor<256xf32>, %arg151: tensor<1536x256xf32>, %arg152: tensor<1x2x1024x128xf32>, %arg153: tensor<1x2x1024x128xf32>, %arg154: tensor<1536x1536xf32>, %arg155: tensor<1536xf32>, %arg156: tensor<1536x8960xf32>, %arg157: tensor<1536x8960xf32>, %arg158: tensor<8960x1536xf32>, %arg159: tensor<1536xf32>, %arg160: tensor<1536xf32>, %arg161: tensor<1536x1536xf32>, %arg162: tensor<256xf32>, %arg163: tensor<1536x256xf32>, %arg164: tensor<256xf32>, %arg165: tensor<1536x256xf32>, %arg166: tensor<1x2x1024x128xf32>, %arg167: tensor<1x2x1024x128xf32>, %arg168: tensor<1536x1536xf32>, %arg169: tensor<1536xf32>, %arg170: tensor<1536x8960xf32>, %arg171: tensor<1536x8960xf32>, %arg172: tensor<8960x1536xf32>, %arg173: tensor<1536xf32>, %arg174: tensor<1536xf32>, %arg175: tensor<1536x1536xf32>, %arg176: tensor<256xf32>, %arg177: tensor<1536x256xf32>, %arg178: tensor<256xf32>, %arg179: tensor<1536x256xf32>, %arg180: tensor<1x2x1024x128xf32>, %arg181: tensor<1x2x1024x128xf32>, %arg182: tensor<1536x1536xf32>, %arg183: tensor<1536xf32>, %arg184: tensor<1536x8960xf32>, %arg185: tensor<1536x8960xf32>, %arg186: tensor<8960x1536xf32>, %arg187: tensor<1536xf32>, %arg188: tensor<1536xf32>, %arg189: tensor<1536x1536xf32>, %arg190: tensor<256xf32>, %arg191: tensor<1536x256xf32>, %arg192: tensor<256xf32>, %arg193: tensor<1536x256xf32>, %arg194: tensor<1x2x1024x128xf32>, %arg195: tensor<1x2x1024x128xf32>, %arg196: tensor<1536x1536xf32>, %arg197: tensor<1536xf32>, %arg198: tensor<1536x8960xf32>, %arg199: tensor<1536x8960xf32>, %arg200: tensor<8960x1536xf32>, %arg201: tensor<1536xf32>, %arg202: tensor<1536xf32>, %arg203: tensor<1536x1536xf32>, %arg204: tensor<256xf32>, %arg205: tensor<1536x256xf32>, %arg206: tensor<256xf32>, %arg207: tensor<1536x256xf32>, %arg208: tensor<1x2x1024x128xf32>, %arg209: tensor<1x2x1024x128xf32>, %arg210: tensor<1536x1536xf32>, %arg211: tensor<1536xf32>, %arg212: tensor<1536x8960xf32>, %arg213: tensor<1536x8960xf32>, %arg214: tensor<8960x1536xf32>, %arg215: tensor<1536xf32>, %arg216: tensor<1536xf32>, %arg217: tensor<1536x1536xf32>, %arg218: tensor<256xf32>, %arg219: tensor<1536x256xf32>, %arg220: tensor<256xf32>, %arg221: tensor<1536x256xf32>, %arg222: tensor<1x2x1024x128xf32>, %arg223: tensor<1x2x1024x128xf32>, %arg224: tensor<1536x1536xf32>, %arg225: tensor<1536xf32>, %arg226: tensor<1536x8960xf32>, %arg227: tensor<1536x8960xf32>, %arg228: tensor<8960x1536xf32>, %arg229: tensor<1536xf32>, %arg230: tensor<1536xf32>, %arg231: tensor<1536x1536xf32>, %arg232: tensor<256xf32>, %arg233: tensor<1536x256xf32>, %arg234: tensor<256xf32>, %arg235: tensor<1536x256xf32>, %arg236: tensor<1x2x1024x128xf32>, %arg237: tensor<1x2x1024x128xf32>, %arg238: tensor<1536x1536xf32>, %arg239: tensor<1536xf32>, %arg240: tensor<1536x8960xf32>, %arg241: tensor<1536x8960xf32>, %arg242: tensor<8960x1536xf32>, %arg243: tensor<1536xf32>, %arg244: tensor<1536xf32>, %arg245: tensor<1536x1536xf32>, %arg246: tensor<256xf32>, %arg247: tensor<1536x256xf32>, %arg248: tensor<256xf32>, %arg249: tensor<1536x256xf32>, %arg250: tensor<1x2x1024x128xf32>, %arg251: tensor<1x2x1024x128xf32>, %arg252: tensor<1536x1536xf32>, %arg253: tensor<1536xf32>, %arg254: tensor<1536x8960xf32>, %arg255: tensor<1536x8960xf32>, %arg256: tensor<8960x1536xf32>, %arg257: tensor<1536xf32>, %arg258: tensor<1536xf32>, %arg259: tensor<1536x1536xf32>, %arg260: tensor<256xf32>, %arg261: tensor<1536x256xf32>, %arg262: tensor<256xf32>, %arg263: tensor<1536x256xf32>, %arg264: tensor<1x2x1024x128xf32>, %arg265: tensor<1x2x1024x128xf32>, %arg266: tensor<1536x1536xf32>, %arg267: tensor<1536xf32>, %arg268: tensor<1536x8960xf32>, %arg269: tensor<1536x8960xf32>, %arg270: tensor<8960x1536xf32>, %arg271: tensor<1536xf32>, %arg272: tensor<1536xf32>, %arg273: tensor<1536x1536xf32>, %arg274: tensor<256xf32>, %arg275: tensor<1536x256xf32>, %arg276: tensor<256xf32>, %arg277: tensor<1536x256xf32>, %arg278: tensor<1x2x1024x128xf32>, %arg279: tensor<1x2x1024x128xf32>, %arg280: tensor<1536x1536xf32>, %arg281: tensor<1536xf32>, %arg282: tensor<1536x8960xf32>, %arg283: tensor<1536x8960xf32>, %arg284: tensor<8960x1536xf32>, %arg285: tensor<1536xf32>, %arg286: tensor<1536xf32>, %arg287: tensor<1536x1536xf32>, %arg288: tensor<256xf32>, %arg289: tensor<1536x256xf32>, %arg290: tensor<256xf32>, %arg291: tensor<1536x256xf32>, %arg292: tensor<1x2x1024x128xf32>, %arg293: tensor<1x2x1024x128xf32>, %arg294: tensor<1536x1536xf32>, %arg295: tensor<1536xf32>, %arg296: tensor<1536x8960xf32>, %arg297: tensor<1536x8960xf32>, %arg298: tensor<8960x1536xf32>, %arg299: tensor<1536xf32>, %arg300: tensor<1536xf32>, %arg301: tensor<1536x1536xf32>, %arg302: tensor<256xf32>, %arg303: tensor<1536x256xf32>, %arg304: tensor<256xf32>, %arg305: tensor<1536x256xf32>, %arg306: tensor<1x2x1024x128xf32>, %arg307: tensor<1x2x1024x128xf32>, %arg308: tensor<1536x1536xf32>, %arg309: tensor<1536xf32>, %arg310: tensor<1536x8960xf32>, %arg311: tensor<1536x8960xf32>, %arg312: tensor<8960x1536xf32>, %arg313: tensor<1536xf32>, %arg314: tensor<1536xf32>, %arg315: tensor<1536x1536xf32>, %arg316: tensor<256xf32>, %arg317: tensor<1536x256xf32>, %arg318: tensor<256xf32>, %arg319: tensor<1536x256xf32>, %arg320: tensor<1x2x1024x128xf32>, %arg321: tensor<1x2x1024x128xf32>, %arg322: tensor<1536x1536xf32>, %arg323: tensor<1536xf32>, %arg324: tensor<1536x8960xf32>, %arg325: tensor<1536x8960xf32>, %arg326: tensor<8960x1536xf32>, %arg327: tensor<1536xf32>, %arg328: tensor<1536xf32>, %arg329: tensor<1536x1536xf32>, %arg330: tensor<256xf32>, %arg331: tensor<1536x256xf32>, %arg332: tensor<256xf32>, %arg333: tensor<1536x256xf32>, %arg334: tensor<1x2x1024x128xf32>, %arg335: tensor<1x2x1024x128xf32>, %arg336: tensor<1536x1536xf32>, %arg337: tensor<1536xf32>, %arg338: tensor<1536x8960xf32>, %arg339: tensor<1536x8960xf32>, %arg340: tensor<8960x1536xf32>, %arg341: tensor<1536xf32>, %arg342: tensor<1536xf32>, %arg343: tensor<1536x1536xf32>, %arg344: tensor<256xf32>, %arg345: tensor<1536x256xf32>, %arg346: tensor<256xf32>, %arg347: tensor<1536x256xf32>, %arg348: tensor<1x2x1024x128xf32>, %arg349: tensor<1x2x1024x128xf32>, %arg350: tensor<1536x1536xf32>, %arg351: tensor<1536xf32>, %arg352: tensor<1536x8960xf32>, %arg353: tensor<1536x8960xf32>, %arg354: tensor<8960x1536xf32>, %arg355: tensor<1536xf32>, %arg356: tensor<1536xf32>, %arg357: tensor<1536x1536xf32>, %arg358: tensor<256xf32>, %arg359: tensor<1536x256xf32>, %arg360: tensor<256xf32>, %arg361: tensor<1536x256xf32>, %arg362: tensor<1x2x1024x128xf32>, %arg363: tensor<1x2x1024x128xf32>, %arg364: tensor<1536x1536xf32>, %arg365: tensor<1536xf32>, %arg366: tensor<1536x8960xf32>, %arg367: tensor<1536x8960xf32>, %arg368: tensor<8960x1536xf32>, %arg369: tensor<1536xf32>, %arg370: tensor<1536xf32>, %arg371: tensor<1536x1536xf32>, %arg372: tensor<256xf32>, %arg373: tensor<1536x256xf32>, %arg374: tensor<256xf32>, %arg375: tensor<1536x256xf32>, %arg376: tensor<1x2x1024x128xf32>, %arg377: tensor<1x2x1024x128xf32>, %arg378: tensor<1536x1536xf32>, %arg379: tensor<1536xf32>, %arg380: tensor<1536x8960xf32>, %arg381: tensor<1536x8960xf32>, %arg382: tensor<8960x1536xf32>, %arg383: tensor<1536xf32>, %arg384: tensor<1536xf32>, %arg385: tensor<1536x1536xf32>, %arg386: tensor<256xf32>, %arg387: tensor<1536x256xf32>, %arg388: tensor<256xf32>, %arg389: tensor<1536x256xf32>, %arg390: tensor<1x2x1024x128xf32>, %arg391: tensor<1x2x1024x128xf32>, %arg392: tensor<1536x1536xf32>, %arg393: tensor<1536xf32>, %arg394: tensor<1536x8960xf32>, %arg395: tensor<1536x8960xf32>, %arg396: tensor<8960x1536xf32>, %arg397: tensor<1536xf32>, %arg398: tensor<1536x151936xf32>) -> (tensor<1x2x1024x128xf32>, tensor<1x2x1024x128xf32>, tensor<1x2x1024x128xf32>, tensor<1x2x1024x128xf32>, tensor<1x2x1024x128xf32>, tensor<1x2x1024x128xf32>, tensor<1x2x1024x128xf32>, tensor<1x2x1024x128xf32>, tensor<1x2x1024x128xf32>, tensor<1x2x1024x128xf32>, tensor<1x2x1024x128xf32>, tensor<1x2x1024x128xf32>, tensor<1x2x1024x128xf32>, tensor<1x2x1024x128xf32>, tensor<1x2x1024x128xf32>, tensor<1x2x1024x128xf32>, tensor<1x2x1024x128xf32>, tensor<1x2x1024x128xf32>, tensor<1x2x1024x128xf32>, tensor<1x2x1024x128xf32>, tensor<1x2x1024x128xf32>, tensor<1x2x1024x128xf32>, tensor<1x2x1024x128xf32>, tensor<1x2x1024x128xf32>, tensor<1x2x1024x128xf32>, tensor<1x2x1024x128xf32>, tensor<1x2x1024x128xf32>, tensor<1x2x1024x128xf32>, tensor<1x2x1024x128xf32>, tensor<1x2x1024x128xf32>, tensor<1x2x1024x128xf32>, tensor<1x2x1024x128xf32>, tensor<1x2x1024x128xf32>, tensor<1x2x1024x128xf32>, tensor<1x2x1024x128xf32>, tensor<1x2x1024x128xf32>, tensor<1x2x1024x128xf32>, tensor<1x2x1024x128xf32>, tensor<1x2x1024x128xf32>, tensor<1x2x1024x128xf32>, tensor<1x2x1024x128xf32>, tensor<1x2x1024x128xf32>, tensor<1x2x1024x128xf32>, tensor<1x2x1024x128xf32>, tensor<1x2x1024x128xf32>, tensor<1x2x1024x128xf32>, tensor<1x2x1024x128xf32>, tensor<1x2x1024x128xf32>, tensor<1x2x1024x128xf32>, tensor<1x2x1024x128xf32>, tensor<1x2x1024x128xf32>, tensor<1x2x1024x128xf32>, tensor<1x2x1024x128xf32>, tensor<1x2x1024x128xf32>, tensor<1x2x1024x128xf32>, tensor<1x2x1024x128xf32>, tensor<1x1x151936xf32>) {
    %0 = tosa.cast %arg1 : (tensor<1x1xi64>) -> tensor<1x1xi32>
    %1 = tosa.const_shape  {values = dense<[1, 151936, 1536]> : tensor<3xindex>} : () -> !tosa.shape<3>
    %2 = tosa.reshape %arg0, %1 : (tensor<151936x1536xf32>, !tosa.shape<3>) -> tensor<1x151936x1536xf32>
    %3 = tosa.gather %2, %0 : (tensor<1x151936x1536xf32>, tensor<1x1xi32>) -> tensor<1x1x1536xf32>
    %4 = tosa.const_shape  {values = dense<1> : tensor<2xindex>} : () -> !tosa.shape<2>
    %5 = tosa.reshape %arg3, %4 : (tensor<1xi64>, !tosa.shape<2>) -> tensor<1x1xi64>
    %6 = "tosa.const"() <{values = dense<"…"> : tensor<1024xi64>}> : () -> tensor<1024xi64>
    %7 = "tosa.const"() <{values = dense<0> : tensor<1024xi64>}> : () -> tensor<1024xi64>
    %8 = tosa.add %6, %7 : (tensor<1024xi64>, tensor<1024xi64>) -> tensor<1024xi64>
    %9 = tosa.const_shape  {values = dense<1> : tensor<2xindex>} : () -> !tosa.shape<2>
    %10 = tosa.reshape %arg3, %9 : (tensor<1xi64>, !tosa.shape<2>) -> tensor<1x1xi64>
    %11 = tosa.const_shape  {values = dense<[1, 1024]> : tensor<2xindex>} : () -> !tosa.shape<2>
    %12 = tosa.reshape %8, %11 : (tensor<1024xi64>, !tosa.shape<2>) -> tensor<1x1024xi64>
    %13 = tosa.greater_equal %10, %12 : (tensor<1x1xi64>, tensor<1x1024xi64>) -> tensor<1x1024xi1>
    %14 = "tosa.const"() <{values = dense<false> : tensor<1x1xi1>}> : () -> tensor<1x1xi1>
    %15 = tosa.add %13, %14 : (tensor<1x1024xi1>, tensor<1x1xi1>) -> tensor<1x1024xi1>
    %16 = "tosa.const"() <{values = dense<false> : tensor<1x1xi1>}> : () -> tensor<1x1xi1>
    %17 = tosa.add %15, %16 : (tensor<1x1024xi1>, tensor<1x1xi1>) -> tensor<1x1024xi1>
    %18 = tosa.const_shape  {values = dense<[1, 64]> : tensor<2xindex>} : () -> !tosa.shape<2>
    %19 = tosa.reshape %arg4, %18 : (tensor<64xf32>, !tosa.shape<2>) -> tensor<1x64xf32>
    %20 = tosa.const_shape  {values = dense<[1, 64, 1]> : tensor<3xindex>} : () -> !tosa.shape<3>
    %21 = tosa.reshape %19, %20 : (tensor<1x64xf32>, !tosa.shape<3>) -> tensor<1x64x1xf32>
    %22 = tosa.const_shape  {values = dense<1> : tensor<3xindex>} : () -> !tosa.shape<3>
    %23 = tosa.reshape %5, %22 : (tensor<1x1xi64>, !tosa.shape<3>) -> tensor<1x1x1xi64>
    %24 = tosa.cast %23 : (tensor<1x1x1xi64>) -> tensor<1x1x1xf32>
    %25 = "tosa.const"() <{values = dense<0.000000e+00> : tensor<1xf32>}> : () -> tensor<1xf32>
    %26 = "tosa.const"() <{values = dense<0.000000e+00> : tensor<1xf32>}> : () -> tensor<1xf32>
    %27 = tosa.matmul %21, %24, %25, %26 : (tensor<1x64x1xf32>, tensor<1x1x1xf32>, tensor<1xf32>, tensor<1xf32>) -> tensor<1x64x1xf32>
    %28 = tosa.const_shape  {values = dense<[1, 1, 1, 64]> : tensor<4xindex>} : () -> !tosa.shape<4>
    %29 = tosa.reshape %27, %28 : (tensor<1x64x1xf32>, !tosa.shape<4>) -> tensor<1x1x1x64xf32>
    %30 = "tosa.const"() <{values = dense<0.000000e+00> : tensor<1x1x2x64xf32>}> : () -> tensor<1x1x2x64xf32>
    %31 = tosa.add %29, %30 : (tensor<1x1x1x64xf32>, tensor<1x1x2x64xf32>) -> tensor<1x1x2x64xf32>
    %32 = tosa.const_shape  {values = dense<[1, 1, 128]> : tensor<3xindex>} : () -> !tosa.shape<3>
    %33 = tosa.reshape %31, %32 : (tensor<1x1x2x64xf32>, !tosa.shape<3>) -> tensor<1x1x128xf32>
    %34 = math.cos %33 : tensor<1x1x128xf32>
    %cst = arith.constant dense<1.000000e+00> : tensor<1xf32>
    %35 = tosa.const_shape  {values = dense<1> : tensor<3xindex>} : () -> !tosa.shape<3>
    %36 = tosa.reshape %cst, %35 : (tensor<1xf32>, !tosa.shape<3>) -> tensor<1x1x1xf32>
    %37 = "tosa.const"() <{values = dense<0> : tensor<1xi8>}> : () -> tensor<1xi8>
    %38 = tosa.mul %34, %36, %37 : (tensor<1x1x128xf32>, tensor<1x1x1xf32>, tensor<1xi8>) -> tensor<1x1x128xf32>
    %39 = math.sin %33 : tensor<1x1x128xf32>
    %cst_0 = arith.constant dense<1.000000e+00> : tensor<1xf32>
    %40 = tosa.const_shape  {values = dense<1> : tensor<3xindex>} : () -> !tosa.shape<3>
    %41 = tosa.reshape %cst_0, %40 : (tensor<1xf32>, !tosa.shape<3>) -> tensor<1x1x1xf32>
    %42 = "tosa.const"() <{values = dense<0> : tensor<1xi8>}> : () -> tensor<1xi8>
    %43 = tosa.mul %39, %41, %42 : (tensor<1x1x128xf32>, tensor<1x1x1xf32>, tensor<1xi8>) -> tensor<1x1x128xf32>

    // ===== Input LayerNorm =====
    %t_start_0 = call @rtclock() : () -> f64

    %44 = tensor.empty() : tensor<1x1x1536xf32>
    %c2_i32 = arith.constant 2 : i32
    %45 = linalg.generic {indexing_maps = [#map, #map], iterator_types = ["parallel", "parallel", "parallel"]} ins(%3 : tensor<1x1x1536xf32>) outs(%44 : tensor<1x1x1536xf32>) {
    ^bb0(%in: f32, %out: f32):
      %4267 = math.fpowi %in, %c2_i32 : f32, i32
      linalg.yield %4267 : f32
    } -> tensor<1x1x1536xf32>
    %46 = tosa.reduce_sum %45 {axis = 2 : i32} : (tensor<1x1x1536xf32>) -> tensor<1x1x1xf32>
    %47 = "tosa.const"() <{values = dense<1.536000e+03> : tensor<1xf32>}> : () -> tensor<1xf32>
    %48 = tosa.reciprocal %47 : (tensor<1xf32>) -> tensor<1xf32>
    %49 = tosa.const_shape  {values = dense<1> : tensor<3xindex>} : () -> !tosa.shape<3>
    %50 = tosa.reshape %48, %49 : (tensor<1xf32>, !tosa.shape<3>) -> tensor<1x1x1xf32>
    %51 = "tosa.const"() <{values = dense<0> : tensor<1xi8>}> : () -> tensor<1xi8>
    %52 = tosa.mul %50, %46, %51 : (tensor<1x1x1xf32>, tensor<1x1x1xf32>, tensor<1xi8>) -> tensor<1x1x1xf32>
    %53 = "tosa.const"() <{values = dense<9.99999997E-7> : tensor<1x1x1xf32>}> : () -> tensor<1x1x1xf32>
    %54 = tosa.add %52, %53 : (tensor<1x1x1xf32>, tensor<1x1x1xf32>) -> tensor<1x1x1xf32>
    %55 = tosa.rsqrt %54 : (tensor<1x1x1xf32>) -> tensor<1x1x1xf32>
    %56 = "tosa.const"() <{values = dense<0> : tensor<1xi8>}> : () -> tensor<1xi8>
    %57 = tosa.mul %3, %55, %56 : (tensor<1x1x1536xf32>, tensor<1x1x1xf32>, tensor<1xi8>) -> tensor<1x1x1536xf32>
    %58 = tosa.const_shape  {values = dense<[1, 1, 1536]> : tensor<3xindex>} : () -> !tosa.shape<3>
    %59 = tosa.reshape %arg5, %58 : (tensor<1536xf32>, !tosa.shape<3>) -> tensor<1x1x1536xf32>
    %60 = "tosa.const"() <{values = dense<0> : tensor<1xi8>}> : () -> tensor<1xi8>
    %61 = tosa.mul %59, %57, %60 : (tensor<1x1x1536xf32>, tensor<1x1x1536xf32>, tensor<1xi8>) -> tensor<1x1x1536xf32>
    %62 = tosa.const_shape  {values = dense<[1, 1536]> : tensor<2xindex>} : () -> !tosa.shape<2>
    %63 = tosa.reshape %61, %62 : (tensor<1x1x1536xf32>, !tosa.shape<2>) -> tensor<1x1536xf32>

    %t_end_0 = call @rtclock() : () -> f64
    %duration_0 = arith.subf %t_end_0, %t_start_0 : f64
    %name_ptr_0 = llvm.mlir.addressof @op_name_input_layernorm : !llvm.ptr
    call @record_timing(%name_ptr_0, %duration_0) : (!llvm.ptr, f64) -> ()

    // ===== Q Projection =====
    %t_start_1 = call @rtclock() : () -> f64

    %cst_1 = arith.constant dense<0.000000e+00> : tensor<1x1536xf32>
    %64 = linalg.matmul {cast = #linalg.type_fn<cast_signed>} ins(%63, %arg7 : tensor<1x1536xf32>, tensor<1536x1536xf32>) outs(%cst_1 : tensor<1x1536xf32>) -> tensor<1x1536xf32>
    %65 = tosa.const_shape  {values = dense<[1, 1536]> : tensor<2xindex>} : () -> !tosa.shape<2>
    %66 = tosa.reshape %arg6, %65 : (tensor<1536xf32>, !tosa.shape<2>) -> tensor<1x1536xf32>
    %67 = tosa.add %66, %64 : (tensor<1x1536xf32>, tensor<1x1536xf32>) -> tensor<1x1536xf32>
    %68 = tosa.const_shape  {values = dense<[1, 1, 1536]> : tensor<3xindex>} : () -> !tosa.shape<3>
    %69 = tosa.reshape %67, %68 : (tensor<1x1536xf32>, !tosa.shape<3>) -> tensor<1x1x1536xf32>
    %70 = tosa.const_shape  {values = dense<[1, 1, 12, 128]> : tensor<4xindex>} : () -> !tosa.shape<4>
    %71 = tosa.reshape %69, %70 : (tensor<1x1x1536xf32>, !tosa.shape<4>) -> tensor<1x1x12x128xf32>
    %72 = tosa.const_shape  {values = dense<[1, 12, 1, 128]> : tensor<4xindex>} : () -> !tosa.shape<4>
    %73 = tosa.reshape %71, %72 : (tensor<1x1x12x128xf32>, !tosa.shape<4>) -> tensor<1x12x1x128xf32>
    %74 = tosa.const_shape  {values = dense<[1, 1536]> : tensor<2xindex>} : () -> !tosa.shape<2>
    %75 = tosa.reshape %61, %74 : (tensor<1x1x1536xf32>, !tosa.shape<2>) -> tensor<1x1536xf32>

    %t_end_1 = call @rtclock() : () -> f64
    %duration_1 = arith.subf %t_end_1, %t_start_1 : f64
    %name_ptr_1 = llvm.mlir.addressof @op_name_q_proj : !llvm.ptr
    call @record_timing(%name_ptr_1, %duration_1) : (!llvm.ptr, f64) -> ()

        // ===== K Projection =====
    %t_start_2 = call @rtclock() : () -> f64

    %cst_2 = arith.constant dense<0.000000e+00> : tensor<1x256xf32>
    %76 = linalg.matmul {cast = #linalg.type_fn<cast_signed>} ins(%75, %arg9 : tensor<1x1536xf32>, tensor<1536x256xf32>) outs(%cst_2 : tensor<1x256xf32>) -> tensor<1x256xf32>
    %77 = tosa.const_shape  {values = dense<[1, 256]> : tensor<2xindex>} : () -> !tosa.shape<2>
    %78 = tosa.reshape %arg8, %77 : (tensor<256xf32>, !tosa.shape<2>) -> tensor<1x256xf32>
    %79 = tosa.add %78, %76 : (tensor<1x256xf32>, tensor<1x256xf32>) -> tensor<1x256xf32>
    %80 = tosa.const_shape  {values = dense<[1, 1, 256]> : tensor<3xindex>} : () -> !tosa.shape<3>
    %81 = tosa.reshape %79, %80 : (tensor<1x256xf32>, !tosa.shape<3>) -> tensor<1x1x256xf32>
    %82 = tosa.const_shape  {values = dense<[1, 1, 2, 128]> : tensor<4xindex>} : () -> !tosa.shape<4>
    %83 = tosa.reshape %81, %82 : (tensor<1x1x256xf32>, !tosa.shape<4>) -> tensor<1x1x2x128xf32>
    %84 = tosa.const_shape  {values = dense<[1, 2, 1, 128]> : tensor<4xindex>} : () -> !tosa.shape<4>
    %85 = tosa.reshape %83, %84 : (tensor<1x1x2x128xf32>, !tosa.shape<4>) -> tensor<1x2x1x128xf32>
    %86 = tosa.const_shape  {values = dense<[1, 1536]> : tensor<2xindex>} : () -> !tosa.shape<2>
    %87 = tosa.reshape %61, %86 : (tensor<1x1x1536xf32>, !tosa.shape<2>) -> tensor<1x1536xf32>

    %t_end_2 = call @rtclock() : () -> f64
    %duration_2 = arith.subf %t_end_2, %t_start_2 : f64
    %name_ptr_2 = llvm.mlir.addressof @op_name_k_proj : !llvm.ptr
    call @record_timing(%name_ptr_2, %duration_2) : (!llvm.ptr, f64) -> ()

    // ===== V Projection =====
    %t_start_3 = call @rtclock() : () -> f64

    %cst_3 = arith.constant dense<0.000000e+00> : tensor<1x256xf32>
    %88 = linalg.matmul {cast = #linalg.type_fn<cast_signed>} ins(%87, %arg11 : tensor<1x1536xf32>, tensor<1536x256xf32>) outs(%cst_3 : tensor<1x256xf32>) -> tensor<1x256xf32>
    %89 = tosa.const_shape  {values = dense<[1, 256]> : tensor<2xindex>} : () -> !tosa.shape<2>
    %90 = tosa.reshape %arg10, %89 : (tensor<256xf32>, !tosa.shape<2>) -> tensor<1x256xf32>
    %91 = tosa.add %90, %88 : (tensor<1x256xf32>, tensor<1x256xf32>) -> tensor<1x256xf32>

    %t_end_3 = call @rtclock() : () -> f64
    %duration_3 = arith.subf %t_end_3, %t_start_3 : f64
    %name_ptr_3 = llvm.mlir.addressof @op_name_v_proj : !llvm.ptr
    call @record_timing(%name_ptr_3, %duration_3) : (!llvm.ptr, f64) -> ()

    // ===============kv cahche update====================
    %t_start_kv = call @rtclock() : () -> f64

    %92 = tosa.const_shape  {values = dense<[1, 1, 256]> : tensor<3xindex>} : () -> !tosa.shape<3>
    %93 = tosa.reshape %91, %92 : (tensor<1x256xf32>, !tosa.shape<3>) -> tensor<1x1x256xf32>
    %94 = tosa.const_shape  {values = dense<[1, 1, 2, 128]> : tensor<4xindex>} : () -> !tosa.shape<4>
    %95 = tosa.reshape %93, %94 : (tensor<1x1x256xf32>, !tosa.shape<4>) -> tensor<1x1x2x128xf32>
    %96 = tosa.const_shape  {values = dense<[1, 2, 1, 128]> : tensor<4xindex>} : () -> !tosa.shape<4>
    %97 = tosa.reshape %95, %96 : (tensor<1x1x2x128xf32>, !tosa.shape<4>) -> tensor<1x2x1x128xf32>
    %98 = tosa.const_shape  {values = dense<[1, 1, 1, 128]> : tensor<4xindex>} : () -> !tosa.shape<4>
    %99 = tosa.reshape %38, %98 : (tensor<1x1x128xf32>, !tosa.shape<4>) -> tensor<1x1x1x128xf32>
    %100 = tosa.const_shape  {values = dense<[1, 1, 1, 128]> : tensor<4xindex>} : () -> !tosa.shape<4>
    %101 = tosa.reshape %43, %100 : (tensor<1x1x128xf32>, !tosa.shape<4>) -> tensor<1x1x1x128xf32>
    %102 = "tosa.const"() <{values = dense<0> : tensor<1xi8>}> : () -> tensor<1xi8>
    %103 = tosa.mul %73, %99, %102 : (tensor<1x12x1x128xf32>, tensor<1x1x1x128xf32>, tensor<1xi8>) -> tensor<1x12x1x128xf32>
    %extracted_slice = tensor.extract_slice %73[0, 0, 0, 0] [1, 12, 1, 64] [1, 1, 1, 1] : tensor<1x12x1x128xf32> to tensor<1x12x1x64xf32>
    %extracted_slice_4 = tensor.extract_slice %73[0, 0, 0, 64] [1, 12, 1, 64] [1, 1, 1, 1] : tensor<1x12x1x128xf32> to tensor<1x12x1x64xf32>
    %104 = "tosa.const"() <{values = dense<0.000000e+00> : tensor<1xf32>}> : () -> tensor<1xf32>
    %105 = "tosa.const"() <{values = dense<0.000000e+00> : tensor<1xf32>}> : () -> tensor<1xf32>
    %106 = tosa.negate %extracted_slice_4, %104, %105 : (tensor<1x12x1x64xf32>, tensor<1xf32>, tensor<1xf32>) -> tensor<1x12x1x64xf32>
    %107 = tensor.empty() : tensor<1x12x1x128xf32>
    %inserted_slice = tensor.insert_slice %106 into %107[0, 0, 0, 0] [1, 12, 1, 64] [1, 1, 1, 1] : tensor<1x12x1x64xf32> into tensor<1x12x1x128xf32>
    %inserted_slice_5 = tensor.insert_slice %extracted_slice into %inserted_slice[0, 0, 0, 64] [1, 12, 1, 64] [1, 1, 1, 1] : tensor<1x12x1x64xf32> into tensor<1x12x1x128xf32>
    %108 = "tosa.const"() <{values = dense<0> : tensor<1xi8>}> : () -> tensor<1xi8>
    %109 = tosa.mul %inserted_slice_5, %101, %108 : (tensor<1x12x1x128xf32>, tensor<1x1x1x128xf32>, tensor<1xi8>) -> tensor<1x12x1x128xf32>
    %110 = tosa.add %103, %109 : (tensor<1x12x1x128xf32>, tensor<1x12x1x128xf32>) -> tensor<1x12x1x128xf32>
    %111 = "tosa.const"() <{values = dense<0> : tensor<1xi8>}> : () -> tensor<1xi8>
    %112 = tosa.mul %85, %99, %111 : (tensor<1x2x1x128xf32>, tensor<1x1x1x128xf32>, tensor<1xi8>) -> tensor<1x2x1x128xf32>
    %extracted_slice_6 = tensor.extract_slice %85[0, 0, 0, 0] [1, 2, 1, 64] [1, 1, 1, 1] : tensor<1x2x1x128xf32> to tensor<1x2x1x64xf32>
    %extracted_slice_7 = tensor.extract_slice %85[0, 0, 0, 64] [1, 2, 1, 64] [1, 1, 1, 1] : tensor<1x2x1x128xf32> to tensor<1x2x1x64xf32>
    %113 = "tosa.const"() <{values = dense<0.000000e+00> : tensor<1xf32>}> : () -> tensor<1xf32>
    %114 = "tosa.const"() <{values = dense<0.000000e+00> : tensor<1xf32>}> : () -> tensor<1xf32>
    %115 = tosa.negate %extracted_slice_7, %113, %114 : (tensor<1x2x1x64xf32>, tensor<1xf32>, tensor<1xf32>) -> tensor<1x2x1x64xf32>
    %116 = tensor.empty() : tensor<1x2x1x128xf32>
    %inserted_slice_8 = tensor.insert_slice %115 into %116[0, 0, 0, 0] [1, 2, 1, 64] [1, 1, 1, 1] : tensor<1x2x1x64xf32> into tensor<1x2x1x128xf32>
    %inserted_slice_9 = tensor.insert_slice %extracted_slice_6 into %inserted_slice_8[0, 0, 0, 64] [1, 2, 1, 64] [1, 1, 1, 1] : tensor<1x2x1x64xf32> into tensor<1x2x1x128xf32>
    %117 = "tosa.const"() <{values = dense<0> : tensor<1xi8>}> : () -> tensor<1xi8>
    %118 = tosa.mul %inserted_slice_9, %101, %117 : (tensor<1x2x1x128xf32>, tensor<1x1x1x128xf32>, tensor<1xi8>) -> tensor<1x2x1x128xf32>
    %119 = tosa.add %112, %118 : (tensor<1x2x1x128xf32>, tensor<1x2x1x128xf32>) -> tensor<1x2x1x128xf32>
    %120 = bufferization.to_buffer %arg12 : tensor<1x2x1024x128xf32> to memref<1x2x1024x128xf32>
    %121 = tosa.const_shape  {values = dense<1> : tensor<4xindex>} : () -> !tosa.shape<4>
    %122 = tosa.reshape %arg3, %121 : (tensor<1xi64>, !tosa.shape<4>) -> tensor<1x1x1x1xi64>
    %123 = "tosa.const"() <{values = dense<0> : tensor<1x2x1x128xi64>}> : () -> tensor<1x2x1x128xi64>
    %124 = tosa.add %122, %123 : (tensor<1x1x1x1xi64>, tensor<1x2x1x128xi64>) -> tensor<1x2x1x128xi64>
    %125 = bufferization.to_buffer %124 : tensor<1x2x1x128xi64> to memref<1x2x1x128xi64>
    %126 = bufferization.to_buffer %119 : tensor<1x2x1x128xf32> to memref<1x2x1x128xf32>
    %c0 = arith.constant 0 : index
    %c1 = arith.constant 1 : index
    %c1_10 = arith.constant 1 : index
    %c2 = arith.constant 2 : index
    %c1_11 = arith.constant 1 : index
    %c128 = arith.constant 128 : index
    scf.for %arg399 = %c0 to %c1_10 step %c1 {
      scf.for %arg400 = %c0 to %c2 step %c1 {
        scf.for %arg401 = %c0 to %c1_11 step %c1 {
          scf.for %arg402 = %c0 to %c128 step %c1 {
            %4267 = memref.load %126[%arg399, %arg400, %arg401, %arg402] : memref<1x2x1x128xf32>
            %4268 = memref.load %125[%arg399, %arg400, %arg401, %arg402] : memref<1x2x1x128xi64>
            %4269 = arith.index_cast %4268 : i64 to index
            memref.store %4267, %120[%arg399, %arg400, %4269, %arg402] : memref<1x2x1024x128xf32>
          }
        }
      }
    }
    %127 = bufferization.to_tensor %120 restrict : memref<1x2x1024x128xf32> to tensor<1x2x1024x128xf32>
    %128 = bufferization.to_buffer %arg13 : tensor<1x2x1024x128xf32> to memref<1x2x1024x128xf32>
    %129 = tosa.const_shape  {values = dense<1> : tensor<4xindex>} : () -> !tosa.shape<4>
    %130 = tosa.reshape %arg3, %129 : (tensor<1xi64>, !tosa.shape<4>) -> tensor<1x1x1x1xi64>
    %131 = "tosa.const"() <{values = dense<0> : tensor<1x2x1x128xi64>}> : () -> tensor<1x2x1x128xi64>
    %132 = tosa.add %130, %131 : (tensor<1x1x1x1xi64>, tensor<1x2x1x128xi64>) -> tensor<1x2x1x128xi64>
    %133 = bufferization.to_buffer %132 : tensor<1x2x1x128xi64> to memref<1x2x1x128xi64>
    %134 = bufferization.to_buffer %97 : tensor<1x2x1x128xf32> to memref<1x2x1x128xf32>
    %c0_12 = arith.constant 0 : index
    %c1_13 = arith.constant 1 : index
    %c1_14 = arith.constant 1 : index
    %c2_15 = arith.constant 2 : index
    %c1_16 = arith.constant 1 : index
    %c128_17 = arith.constant 128 : index
    scf.for %arg399 = %c0_12 to %c1_14 step %c1_13 {
      scf.for %arg400 = %c0_12 to %c2_15 step %c1_13 {
        scf.for %arg401 = %c0_12 to %c1_16 step %c1_13 {
          scf.for %arg402 = %c0_12 to %c128_17 step %c1_13 {
            %4267 = memref.load %134[%arg399, %arg400, %arg401, %arg402] : memref<1x2x1x128xf32>
            %4268 = memref.load %133[%arg399, %arg400, %arg401, %arg402] : memref<1x2x1x128xi64>
            %4269 = arith.index_cast %4268 : i64 to index
            memref.store %4267, %128[%arg399, %arg400, %4269, %arg402] : memref<1x2x1024x128xf32>
          }
        }
      }
    }
    %135 = bufferization.to_tensor %128 restrict : memref<1x2x1024x128xf32> to tensor<1x2x1024x128xf32>
    %136 = tosa.const_shape  {values = dense<[1, 1, 1, 1024]> : tensor<4xindex>} : () -> !tosa.shape<4>
    %137 = tosa.reshape %17, %136 : (tensor<1x1024xi1>, !tosa.shape<4>) -> tensor<1x1x1x1024xi1>
    %cst_18 = arith.constant 0xFF800000 : f32
    %cst_19 = arith.constant 0.000000e+00 : f32
    %138 = tensor.empty() : tensor<1x1x1x1024xf32>
    %splat = tensor.splat %cst_19 : tensor<1x1x1x1024xf32>
    %splat_20 = tensor.splat %cst_18 : tensor<1x1x1x1024xf32>
    %139 = linalg.generic {indexing_maps = [#map1, #map1, #map1, #map1], iterator_types = ["parallel", "parallel", "parallel", "parallel"]} ins(%137, %splat, %splat_20 : tensor<1x1x1x1024xi1>, tensor<1x1x1x1024xf32>, tensor<1x1x1x1024xf32>) outs(%138 : tensor<1x1x1x1024xf32>) {
    ^bb0(%in: i1, %in_1253: f32, %in_1254: f32, %out: f32):
      %4267 = arith.select %in, %in_1253, %in_1254 : f32
      linalg.yield %4267 : f32
    } -> tensor<1x1x1x1024xf32>

    %t_end_kv = call @rtclock() : () -> f64
    %duration_kv = arith.subf %t_end_kv, %t_start_kv : f64
    %name_ptr_kv = llvm.mlir.addressof @op_name_kv_update : !llvm.ptr
    call @record_timing(%name_ptr_kv, %duration_kv) : (!llvm.ptr, f64) -> ()

            // ===== GQA and Attention =====
    %t_start_attn = call @rtclock() : () -> f64

    %c0_21 = arith.constant 0 : index
    %cst_22 = arith.constant 1.000000e+00 : f32
    %cst_23 = arith.constant 0.0883883461 : f32
    %cst_24 = arith.constant 0.000000e+00 : f32
    %140 = vector.splat %cst_24 : vector<16xf32>
    %cst_25 = arith.constant -1.000000e+30 : f32
    %141 = bufferization.to_buffer %110 : tensor<1x12x1x128xf32> to memref<1x12x1x128xf32>
    %142 = bufferization.to_buffer %127 : tensor<1x2x1024x128xf32> to memref<1x2x1024x128xf32>
    %143 = bufferization.to_buffer %135 : tensor<1x2x1024x128xf32> to memref<1x2x1024x128xf32>
    %144 = bufferization.to_buffer %139 : tensor<1x1x1x1024xf32> to memref<1x1x1x1024xf32>
    %c1_26 = arith.constant 1 : index
    %c12 = arith.constant 12 : index
    %c1_27 = arith.constant 1 : index
    %c128_28 = arith.constant 128 : index
    %alloc = memref.alloc() : memref<1x12x1x128xf32>
    %alloc_29 = memref.alloc() : memref<1x12x1xf32>
    %alloc_30 = memref.alloc() : memref<128xf32>
    affine.for %arg399 = 0 to #map2(%c1_26) {
      affine.for %arg400 = 0 to #map2(%c12) {
        %c6 = arith.constant 6 : index
        %4267 = arith.divsi %arg400, %c6 : index
        affine.for %arg401 = 0 to #map2(%c1_27) {
          affine.for %arg402 = 0 to #map2(%c128_28) {
            memref.store %cst_24, %alloc_30[%arg402] : memref<128xf32>
          }
          %c1024 = arith.constant 1024 : index
          %4268:2 = affine.for %arg402 = 0 to #map2(%c1024) iter_args(%arg403 = %cst_25, %arg404 = %cst_24) -> (f32, f32) {
            %4269 = affine.for %arg405 = 0 to #map2(%c128_28) step 16 iter_args(%arg406 = %140) -> (vector<16xf32>) {
              %4284 = vector.load %141[%arg399, %arg400, %arg401, %arg405] : memref<1x12x1x128xf32>, vector<16xf32>
              %4285 = vector.load %142[%arg399, %4267, %arg402, %arg405] : memref<1x2x1024x128xf32>, vector<16xf32>
              %4286 = vector.fma %4284, %4285, %arg406 : vector<16xf32>
              affine.yield %4286 : vector<16xf32>
            }
            %4270 = vector.reduction <add>, %4269 : vector<16xf32> into f32
            %4271 = arith.mulf %4270, %cst_23 : f32
            %4272 = memref.load %144[%arg399, %c0_21, %arg401, %arg402] : memref<1x1x1x1024xf32>
            %4273 = arith.addf %4271, %4272 : f32
            %4274 = arith.cmpf ogt, %4273, %arg403 : f32
            %4275 = arith.select %4274, %4273, %arg403 : f32
            %4276 = arith.subf %arg403, %4273 : f32
            %4277 = math.exp %4276 : f32
            %4278 = arith.mulf %4277, %arg404 : f32
            %4279 = arith.addf %4278, %cst_22 : f32
            %4280 = arith.subf %4273, %arg403 : f32
            %4281 = math.exp %4280 : f32
            %4282 = arith.addf %arg404, %4281 : f32
            %4283 = arith.select %4274, %4279, %4282 : f32
            affine.for %arg405 = 0 to #map2(%c128_28) {
              %4284 = memref.load %143[%arg399, %4267, %arg402, %arg405] : memref<1x2x1024x128xf32>
              %4285 = memref.load %alloc_30[%arg405] : memref<128xf32>
              %4286 = arith.mulf %4285, %4277 : f32
              %4287 = arith.addf %4286, %4284 : f32
              %4288 = arith.mulf %4281, %4284 : f32
              %4289 = arith.addf %4288, %4285 : f32
              %4290 = arith.select %4274, %4287, %4289 : f32
              memref.store %4290, %alloc_30[%arg405] : memref<128xf32>
            }
            affine.yield %4275, %4283 : f32, f32
          }
          memref.store %4268#1, %alloc_29[%arg399, %arg400, %arg401] : memref<1x12x1xf32>
          affine.for %arg402 = 0 to #map2(%c128_28) {
            %4269 = memref.load %alloc_30[%arg402] : memref<128xf32>
            %4270 = arith.divf %4269, %4268#1 : f32
            memref.store %4270, %alloc[%arg399, %arg400, %arg401, %arg402] : memref<1x12x1x128xf32>
          }
        }
      }
    }
    %145 = bufferization.to_tensor %alloc restrict : memref<1x12x1x128xf32> to tensor<1x12x1x128xf32>
    %146 = bufferization.to_tensor %alloc_29 restrict : memref<1x12x1xf32> to tensor<1x12x1xf32>

    %t_end_attn = call @rtclock() : () -> f64
    %duration_attn = arith.subf %t_end_attn, %t_start_attn : f64
    %name_ptr_attn = llvm.mlir.addressof @op_name_attn : !llvm.ptr
    call @record_timing(%name_ptr_attn, %duration_attn) : (!llvm.ptr, f64) -> ()

        // ===== O Projection =====
    %t_start_o = call @rtclock() : () -> f64

    %147 = tosa.const_shape  {values = dense<[1, 1, 1536]> : tensor<3xindex>} : () -> !tosa.shape<3>
    %148 = tosa.reshape %145, %147 : (tensor<1x12x1x128xf32>, !tosa.shape<3>) -> tensor<1x1x1536xf32>
    %149 = tosa.const_shape  {values = dense<[1, 1536]> : tensor<2xindex>} : () -> !tosa.shape<2>
    %150 = tosa.reshape %148, %149 : (tensor<1x1x1536xf32>, !tosa.shape<2>) -> tensor<1x1536xf32>
    %cst_31 = arith.constant dense<0.000000e+00> : tensor<1x1536xf32>
    %151 = linalg.matmul {cast = #linalg.type_fn<cast_signed>} ins(%150, %arg14 : tensor<1x1536xf32>, tensor<1536x1536xf32>) outs(%cst_31 : tensor<1x1536xf32>) -> tensor<1x1536xf32>
    %152 = tosa.const_shape  {values = dense<[1, 1, 1536]> : tensor<3xindex>} : () -> !tosa.shape<3>
    %153 = tosa.reshape %151, %152 : (tensor<1x1536xf32>, !tosa.shape<3>) -> tensor<1x1x1536xf32>
    %154 = tosa.add %3, %153 : (tensor<1x1x1536xf32>, tensor<1x1x1536xf32>) -> tensor<1x1x1536xf32>

    %t_end_o = call @rtclock() : () -> f64
    %duration_o = arith.subf %t_end_o, %t_start_o : f64
    %name_ptr_o = llvm.mlir.addressof @op_name_o_proj : !llvm.ptr
    call @record_timing(%name_ptr_o, %duration_o) : (!llvm.ptr, f64) -> ()

    // ===== Post-Attention LayerNorm =====
    %t_start_8 = call @rtclock() : () -> f64

    %155 = tensor.empty() : tensor<1x1x1536xf32>
    %c2_i32_32 = arith.constant 2 : i32
    %156 = linalg.generic {indexing_maps = [#map, #map], iterator_types = ["parallel", "parallel", "parallel"]} ins(%154 : tensor<1x1x1536xf32>) outs(%155 : tensor<1x1x1536xf32>) {
    ^bb0(%in: f32, %out: f32):
      %4267 = math.fpowi %in, %c2_i32_32 : f32, i32
      linalg.yield %4267 : f32
    } -> tensor<1x1x1536xf32>
    %157 = tosa.reduce_sum %156 {axis = 2 : i32} : (tensor<1x1x1536xf32>) -> tensor<1x1x1xf32>
    %158 = "tosa.const"() <{values = dense<1.536000e+03> : tensor<1xf32>}> : () -> tensor<1xf32>
    %159 = tosa.reciprocal %158 : (tensor<1xf32>) -> tensor<1xf32>
    %160 = tosa.const_shape  {values = dense<1> : tensor<3xindex>} : () -> !tosa.shape<3>
    %161 = tosa.reshape %159, %160 : (tensor<1xf32>, !tosa.shape<3>) -> tensor<1x1x1xf32>
    %162 = "tosa.const"() <{values = dense<0> : tensor<1xi8>}> : () -> tensor<1xi8>
    %163 = tosa.mul %161, %157, %162 : (tensor<1x1x1xf32>, tensor<1x1x1xf32>, tensor<1xi8>) -> tensor<1x1x1xf32>
    %164 = "tosa.const"() <{values = dense<9.99999997E-7> : tensor<1x1x1xf32>}> : () -> tensor<1x1x1xf32>
    %165 = tosa.add %163, %164 : (tensor<1x1x1xf32>, tensor<1x1x1xf32>) -> tensor<1x1x1xf32>
    %166 = tosa.rsqrt %165 : (tensor<1x1x1xf32>) -> tensor<1x1x1xf32>
    %167 = "tosa.const"() <{values = dense<0> : tensor<1xi8>}> : () -> tensor<1xi8>
    %168 = tosa.mul %154, %166, %167 : (tensor<1x1x1536xf32>, tensor<1x1x1xf32>, tensor<1xi8>) -> tensor<1x1x1536xf32>
    %169 = tosa.const_shape  {values = dense<[1, 1, 1536]> : tensor<3xindex>} : () -> !tosa.shape<3>
    %170 = tosa.reshape %arg15, %169 : (tensor<1536xf32>, !tosa.shape<3>) -> tensor<1x1x1536xf32>
    %171 = "tosa.const"() <{values = dense<0> : tensor<1xi8>}> : () -> tensor<1xi8>
    %172 = tosa.mul %170, %168, %171 : (tensor<1x1x1536xf32>, tensor<1x1x1536xf32>, tensor<1xi8>) -> tensor<1x1x1536xf32>
    %173 = tosa.const_shape  {values = dense<[1, 1536]> : tensor<2xindex>} : () -> !tosa.shape<2>
    %174 = tosa.reshape %172, %173 : (tensor<1x1x1536xf32>, !tosa.shape<2>) -> tensor<1x1536xf32>

    %t_end_8 = call @rtclock() : () -> f64
    %duration_8 = arith.subf %t_end_8, %t_start_8 : f64
    %name_ptr_8 = llvm.mlir.addressof @op_name_post_attn_layernorm : !llvm.ptr
    call @record_timing(%name_ptr_8, %duration_8) : (!llvm.ptr, f64) -> ()

    // ===== FFN Gate Projection =====
    %t_start_9 = call @rtclock() : () -> f64

    %cst_33 = arith.constant dense<0.000000e+00> : tensor<1x8960xf32>
    %175 = linalg.matmul {cast = #linalg.type_fn<cast_signed>} ins(%174, %arg16 : tensor<1x1536xf32>, tensor<1536x8960xf32>) outs(%cst_33 : tensor<1x8960xf32>) -> tensor<1x8960xf32>
    %176 = tosa.const_shape  {values = dense<[1, 1, 8960]> : tensor<3xindex>} : () -> !tosa.shape<3>
    %177 = tosa.reshape %175, %176 : (tensor<1x8960xf32>, !tosa.shape<3>) -> tensor<1x1x8960xf32>
    %178 = tosa.sigmoid %177 : (tensor<1x1x8960xf32>) -> tensor<1x1x8960xf32>
    %179 = "tosa.const"() <{values = dense<0> : tensor<1xi8>}> : () -> tensor<1xi8>
    %180 = tosa.mul %177, %178, %179 : (tensor<1x1x8960xf32>, tensor<1x1x8960xf32>, tensor<1xi8>) -> tensor<1x1x8960xf32>

    %t_end_9 = call @rtclock() : () -> f64
    %duration_9 = arith.subf %t_end_9, %t_start_9 : f64
    %name_ptr_9 = llvm.mlir.addressof @op_name_ffn_gate : !llvm.ptr
    call @record_timing(%name_ptr_9, %duration_9) : (!llvm.ptr, f64) -> ()

    // ===== FFN Up Projection =====
    %t_start_10 = call @rtclock() : () -> f64

    %181 = tosa.const_shape  {values = dense<[1, 1536]> : tensor<2xindex>} : () -> !tosa.shape<2>
    %182 = tosa.reshape %172, %181 : (tensor<1x1x1536xf32>, !tosa.shape<2>) -> tensor<1x1536xf32>
    %cst_34 = arith.constant dense<0.000000e+00> : tensor<1x8960xf32>
    %183 = linalg.matmul {cast = #linalg.type_fn<cast_signed>} ins(%182, %arg17 : tensor<1x1536xf32>, tensor<1536x8960xf32>) outs(%cst_34 : tensor<1x8960xf32>) -> tensor<1x8960xf32>
    %184 = tosa.const_shape  {values = dense<[1, 1, 8960]> : tensor<3xindex>} : () -> !tosa.shape<3>
    %185 = tosa.reshape %183, %184 : (tensor<1x8960xf32>, !tosa.shape<3>) -> tensor<1x1x8960xf32>
    %186 = "tosa.const"() <{values = dense<0> : tensor<1xi8>}> : () -> tensor<1xi8>
    %187 = tosa.mul %180, %185, %186 : (tensor<1x1x8960xf32>, tensor<1x1x8960xf32>, tensor<1xi8>) -> tensor<1x1x8960xf32>

    %t_end_10 = call @rtclock() : () -> f64
    %duration_10 = arith.subf %t_end_10, %t_start_10 : f64
    %name_ptr_10 = llvm.mlir.addressof @op_name_ffn_up : !llvm.ptr
    call @record_timing(%name_ptr_10, %duration_10) : (!llvm.ptr, f64) -> ()

    // ===== FFN Down Projection =====
    %t_start_11 = call @rtclock() : () -> f64

    %188 = tosa.const_shape  {values = dense<[1, 8960]> : tensor<2xindex>} : () -> !tosa.shape<2>
    %189 = tosa.reshape %187, %188 : (tensor<1x1x8960xf32>, !tosa.shape<2>) -> tensor<1x8960xf32>
    %cst_35 = arith.constant dense<0.000000e+00> : tensor<1x1536xf32>
    %190 = linalg.matmul {cast = #linalg.type_fn<cast_signed>} ins(%189, %arg18 : tensor<1x8960xf32>, tensor<8960x1536xf32>) outs(%cst_35 : tensor<1x1536xf32>) -> tensor<1x1536xf32>
    %191 = tosa.const_shape  {values = dense<[1, 1, 1536]> : tensor<3xindex>} : () -> !tosa.shape<3>
    %192 = tosa.reshape %190, %191 : (tensor<1x1536xf32>, !tosa.shape<3>) -> tensor<1x1x1536xf32>
    %193 = tosa.add %154, %192 : (tensor<1x1x1536xf32>, tensor<1x1x1536xf32>) -> tensor<1x1x1536xf32>


    %t_end_11 = call @rtclock() : () -> f64
    %duration_11 = arith.subf %t_end_11, %t_start_11 : f64
    %name_ptr_11 = llvm.mlir.addressof @op_name_ffn_down : !llvm.ptr
    call @record_timing(%name_ptr_11, %duration_11) : (!llvm.ptr, f64) -> ()

    %194 = tensor.empty() : tensor<1x1x1536xf32>
    %c2_i32_36 = arith.constant 2 : i32
    %195 = linalg.generic {indexing_maps = [#map, #map], iterator_types = ["parallel", "parallel", "parallel"]} ins(%193 : tensor<1x1x1536xf32>) outs(%194 : tensor<1x1x1536xf32>) {
    ^bb0(%in: f32, %out: f32):
      %4267 = math.fpowi %in, %c2_i32_36 : f32, i32
      linalg.yield %4267 : f32
    } -> tensor<1x1x1536xf32>
    %196 = tosa.reduce_sum %195 {axis = 2 : i32} : (tensor<1x1x1536xf32>) -> tensor<1x1x1xf32>
    %197 = "tosa.const"() <{values = dense<1.536000e+03> : tensor<1xf32>}> : () -> tensor<1xf32>
    %198 = tosa.reciprocal %197 : (tensor<1xf32>) -> tensor<1xf32>
    %199 = tosa.const_shape  {values = dense<1> : tensor<3xindex>} : () -> !tosa.shape<3>
    %200 = tosa.reshape %198, %199 : (tensor<1xf32>, !tosa.shape<3>) -> tensor<1x1x1xf32>
    %201 = "tosa.const"() <{values = dense<0> : tensor<1xi8>}> : () -> tensor<1xi8>
    %202 = tosa.mul %200, %196, %201 : (tensor<1x1x1xf32>, tensor<1x1x1xf32>, tensor<1xi8>) -> tensor<1x1x1xf32>
    %203 = "tosa.const"() <{values = dense<9.99999997E-7> : tensor<1x1x1xf32>}> : () -> tensor<1x1x1xf32>
    %204 = tosa.add %202, %203 : (tensor<1x1x1xf32>, tensor<1x1x1xf32>) -> tensor<1x1x1xf32>
    %205 = tosa.rsqrt %204 : (tensor<1x1x1xf32>) -> tensor<1x1x1xf32>
    %206 = "tosa.const"() <{values = dense<0> : tensor<1xi8>}> : () -> tensor<1xi8>
    %207 = tosa.mul %193, %205, %206 : (tensor<1x1x1536xf32>, tensor<1x1x1xf32>, tensor<1xi8>) -> tensor<1x1x1536xf32>
    %208 = tosa.const_shape  {values = dense<[1, 1, 1536]> : tensor<3xindex>} : () -> !tosa.shape<3>
    %209 = tosa.reshape %arg19, %208 : (tensor<1536xf32>, !tosa.shape<3>) -> tensor<1x1x1536xf32>
    %210 = "tosa.const"() <{values = dense<0> : tensor<1xi8>}> : () -> tensor<1xi8>
    %211 = tosa.mul %209, %207, %210 : (tensor<1x1x1536xf32>, tensor<1x1x1536xf32>, tensor<1xi8>) -> tensor<1x1x1536xf32>
    %212 = tosa.const_shape  {values = dense<[1, 1536]> : tensor<2xindex>} : () -> !tosa.shape<2>
    %213 = tosa.reshape %211, %212 : (tensor<1x1x1536xf32>, !tosa.shape<2>) -> tensor<1x1536xf32>
    %cst_37 = arith.constant dense<0.000000e+00> : tensor<1x1536xf32>
    %214 = linalg.matmul {cast = #linalg.type_fn<cast_signed>} ins(%213, %arg21 : tensor<1x1536xf32>, tensor<1536x1536xf32>) outs(%cst_37 : tensor<1x1536xf32>) -> tensor<1x1536xf32>
    %215 = tosa.const_shape  {values = dense<[1, 1536]> : tensor<2xindex>} : () -> !tosa.shape<2>
    %216 = tosa.reshape %arg20, %215 : (tensor<1536xf32>, !tosa.shape<2>) -> tensor<1x1536xf32>
    %217 = tosa.add %216, %214 : (tensor<1x1536xf32>, tensor<1x1536xf32>) -> tensor<1x1536xf32>
    %218 = tosa.const_shape  {values = dense<[1, 1, 1536]> : tensor<3xindex>} : () -> !tosa.shape<3>
    %219 = tosa.reshape %217, %218 : (tensor<1x1536xf32>, !tosa.shape<3>) -> tensor<1x1x1536xf32>
    %220 = tosa.const_shape  {values = dense<[1, 1, 12, 128]> : tensor<4xindex>} : () -> !tosa.shape<4>
    %221 = tosa.reshape %219, %220 : (tensor<1x1x1536xf32>, !tosa.shape<4>) -> tensor<1x1x12x128xf32>
    %222 = tosa.const_shape  {values = dense<[1, 12, 1, 128]> : tensor<4xindex>} : () -> !tosa.shape<4>
    %223 = tosa.reshape %221, %222 : (tensor<1x1x12x128xf32>, !tosa.shape<4>) -> tensor<1x12x1x128xf32>
    %224 = tosa.const_shape  {values = dense<[1, 1536]> : tensor<2xindex>} : () -> !tosa.shape<2>
    %225 = tosa.reshape %211, %224 : (tensor<1x1x1536xf32>, !tosa.shape<2>) -> tensor<1x1536xf32>
    %cst_38 = arith.constant dense<0.000000e+00> : tensor<1x256xf32>
    %226 = linalg.matmul {cast = #linalg.type_fn<cast_signed>} ins(%225, %arg23 : tensor<1x1536xf32>, tensor<1536x256xf32>) outs(%cst_38 : tensor<1x256xf32>) -> tensor<1x256xf32>
    %227 = tosa.const_shape  {values = dense<[1, 256]> : tensor<2xindex>} : () -> !tosa.shape<2>
    %228 = tosa.reshape %arg22, %227 : (tensor<256xf32>, !tosa.shape<2>) -> tensor<1x256xf32>
    %229 = tosa.add %228, %226 : (tensor<1x256xf32>, tensor<1x256xf32>) -> tensor<1x256xf32>
    %230 = tosa.const_shape  {values = dense<[1, 1, 256]> : tensor<3xindex>} : () -> !tosa.shape<3>
    %231 = tosa.reshape %229, %230 : (tensor<1x256xf32>, !tosa.shape<3>) -> tensor<1x1x256xf32>
    %232 = tosa.const_shape  {values = dense<[1, 1, 2, 128]> : tensor<4xindex>} : () -> !tosa.shape<4>
    %233 = tosa.reshape %231, %232 : (tensor<1x1x256xf32>, !tosa.shape<4>) -> tensor<1x1x2x128xf32>
    %234 = tosa.const_shape  {values = dense<[1, 2, 1, 128]> : tensor<4xindex>} : () -> !tosa.shape<4>
    %235 = tosa.reshape %233, %234 : (tensor<1x1x2x128xf32>, !tosa.shape<4>) -> tensor<1x2x1x128xf32>
    %236 = tosa.const_shape  {values = dense<[1, 1536]> : tensor<2xindex>} : () -> !tosa.shape<2>
    %237 = tosa.reshape %211, %236 : (tensor<1x1x1536xf32>, !tosa.shape<2>) -> tensor<1x1536xf32>
    %cst_39 = arith.constant dense<0.000000e+00> : tensor<1x256xf32>
    %238 = linalg.matmul {cast = #linalg.type_fn<cast_signed>} ins(%237, %arg25 : tensor<1x1536xf32>, tensor<1536x256xf32>) outs(%cst_39 : tensor<1x256xf32>) -> tensor<1x256xf32>
    %239 = tosa.const_shape  {values = dense<[1, 256]> : tensor<2xindex>} : () -> !tosa.shape<2>
    %240 = tosa.reshape %arg24, %239 : (tensor<256xf32>, !tosa.shape<2>) -> tensor<1x256xf32>
    %241 = tosa.add %240, %238 : (tensor<1x256xf32>, tensor<1x256xf32>) -> tensor<1x256xf32>
    %242 = tosa.const_shape  {values = dense<[1, 1, 256]> : tensor<3xindex>} : () -> !tosa.shape<3>
    %243 = tosa.reshape %241, %242 : (tensor<1x256xf32>, !tosa.shape<3>) -> tensor<1x1x256xf32>
    %244 = tosa.const_shape  {values = dense<[1, 1, 2, 128]> : tensor<4xindex>} : () -> !tosa.shape<4>
    %245 = tosa.reshape %243, %244 : (tensor<1x1x256xf32>, !tosa.shape<4>) -> tensor<1x1x2x128xf32>
    %246 = tosa.const_shape  {values = dense<[1, 2, 1, 128]> : tensor<4xindex>} : () -> !tosa.shape<4>
    %247 = tosa.reshape %245, %246 : (tensor<1x1x2x128xf32>, !tosa.shape<4>) -> tensor<1x2x1x128xf32>
    %248 = tosa.const_shape  {values = dense<[1, 1, 1, 128]> : tensor<4xindex>} : () -> !tosa.shape<4>
    %249 = tosa.reshape %38, %248 : (tensor<1x1x128xf32>, !tosa.shape<4>) -> tensor<1x1x1x128xf32>
    %250 = tosa.const_shape  {values = dense<[1, 1, 1, 128]> : tensor<4xindex>} : () -> !tosa.shape<4>
    %251 = tosa.reshape %43, %250 : (tensor<1x1x128xf32>, !tosa.shape<4>) -> tensor<1x1x1x128xf32>
    %252 = "tosa.const"() <{values = dense<0> : tensor<1xi8>}> : () -> tensor<1xi8>
    %253 = tosa.mul %223, %249, %252 : (tensor<1x12x1x128xf32>, tensor<1x1x1x128xf32>, tensor<1xi8>) -> tensor<1x12x1x128xf32>
    %extracted_slice_40 = tensor.extract_slice %223[0, 0, 0, 0] [1, 12, 1, 64] [1, 1, 1, 1] : tensor<1x12x1x128xf32> to tensor<1x12x1x64xf32>
    %extracted_slice_41 = tensor.extract_slice %223[0, 0, 0, 64] [1, 12, 1, 64] [1, 1, 1, 1] : tensor<1x12x1x128xf32> to tensor<1x12x1x64xf32>
    %254 = "tosa.const"() <{values = dense<0.000000e+00> : tensor<1xf32>}> : () -> tensor<1xf32>
    %255 = "tosa.const"() <{values = dense<0.000000e+00> : tensor<1xf32>}> : () -> tensor<1xf32>
    %256 = tosa.negate %extracted_slice_41, %254, %255 : (tensor<1x12x1x64xf32>, tensor<1xf32>, tensor<1xf32>) -> tensor<1x12x1x64xf32>
    %257 = tensor.empty() : tensor<1x12x1x128xf32>
    %inserted_slice_42 = tensor.insert_slice %256 into %257[0, 0, 0, 0] [1, 12, 1, 64] [1, 1, 1, 1] : tensor<1x12x1x64xf32> into tensor<1x12x1x128xf32>
    %inserted_slice_43 = tensor.insert_slice %extracted_slice_40 into %inserted_slice_42[0, 0, 0, 64] [1, 12, 1, 64] [1, 1, 1, 1] : tensor<1x12x1x64xf32> into tensor<1x12x1x128xf32>
    %258 = "tosa.const"() <{values = dense<0> : tensor<1xi8>}> : () -> tensor<1xi8>
    %259 = tosa.mul %inserted_slice_43, %251, %258 : (tensor<1x12x1x128xf32>, tensor<1x1x1x128xf32>, tensor<1xi8>) -> tensor<1x12x1x128xf32>
    %260 = tosa.add %253, %259 : (tensor<1x12x1x128xf32>, tensor<1x12x1x128xf32>) -> tensor<1x12x1x128xf32>
    %261 = "tosa.const"() <{values = dense<0> : tensor<1xi8>}> : () -> tensor<1xi8>
    %262 = tosa.mul %235, %249, %261 : (tensor<1x2x1x128xf32>, tensor<1x1x1x128xf32>, tensor<1xi8>) -> tensor<1x2x1x128xf32>
    %extracted_slice_44 = tensor.extract_slice %235[0, 0, 0, 0] [1, 2, 1, 64] [1, 1, 1, 1] : tensor<1x2x1x128xf32> to tensor<1x2x1x64xf32>
    %extracted_slice_45 = tensor.extract_slice %235[0, 0, 0, 64] [1, 2, 1, 64] [1, 1, 1, 1] : tensor<1x2x1x128xf32> to tensor<1x2x1x64xf32>
    %263 = "tosa.const"() <{values = dense<0.000000e+00> : tensor<1xf32>}> : () -> tensor<1xf32>
    %264 = "tosa.const"() <{values = dense<0.000000e+00> : tensor<1xf32>}> : () -> tensor<1xf32>
    %265 = tosa.negate %extracted_slice_45, %263, %264 : (tensor<1x2x1x64xf32>, tensor<1xf32>, tensor<1xf32>) -> tensor<1x2x1x64xf32>
    %266 = tensor.empty() : tensor<1x2x1x128xf32>
    %inserted_slice_46 = tensor.insert_slice %265 into %266[0, 0, 0, 0] [1, 2, 1, 64] [1, 1, 1, 1] : tensor<1x2x1x64xf32> into tensor<1x2x1x128xf32>
    %inserted_slice_47 = tensor.insert_slice %extracted_slice_44 into %inserted_slice_46[0, 0, 0, 64] [1, 2, 1, 64] [1, 1, 1, 1] : tensor<1x2x1x64xf32> into tensor<1x2x1x128xf32>
    %267 = "tosa.const"() <{values = dense<0> : tensor<1xi8>}> : () -> tensor<1xi8>
    %268 = tosa.mul %inserted_slice_47, %251, %267 : (tensor<1x2x1x128xf32>, tensor<1x1x1x128xf32>, tensor<1xi8>) -> tensor<1x2x1x128xf32>
    %269 = tosa.add %262, %268 : (tensor<1x2x1x128xf32>, tensor<1x2x1x128xf32>) -> tensor<1x2x1x128xf32>
    %270 = bufferization.to_buffer %arg26 : tensor<1x2x1024x128xf32> to memref<1x2x1024x128xf32>
    %271 = tosa.const_shape  {values = dense<1> : tensor<4xindex>} : () -> !tosa.shape<4>
    %272 = tosa.reshape %arg3, %271 : (tensor<1xi64>, !tosa.shape<4>) -> tensor<1x1x1x1xi64>
    %273 = "tosa.const"() <{values = dense<0> : tensor<1x2x1x128xi64>}> : () -> tensor<1x2x1x128xi64>
    %274 = tosa.add %272, %273 : (tensor<1x1x1x1xi64>, tensor<1x2x1x128xi64>) -> tensor<1x2x1x128xi64>
    %275 = bufferization.to_buffer %274 : tensor<1x2x1x128xi64> to memref<1x2x1x128xi64>
    %276 = bufferization.to_buffer %269 : tensor<1x2x1x128xf32> to memref<1x2x1x128xf32>
    %c0_48 = arith.constant 0 : index
    %c1_49 = arith.constant 1 : index
    %c1_50 = arith.constant 1 : index
    %c2_51 = arith.constant 2 : index
    %c1_52 = arith.constant 1 : index
    %c128_53 = arith.constant 128 : index
    scf.for %arg399 = %c0_48 to %c1_50 step %c1_49 {
      scf.for %arg400 = %c0_48 to %c2_51 step %c1_49 {
        scf.for %arg401 = %c0_48 to %c1_52 step %c1_49 {
          scf.for %arg402 = %c0_48 to %c128_53 step %c1_49 {
            %4267 = memref.load %276[%arg399, %arg400, %arg401, %arg402] : memref<1x2x1x128xf32>
            %4268 = memref.load %275[%arg399, %arg400, %arg401, %arg402] : memref<1x2x1x128xi64>
            %4269 = arith.index_cast %4268 : i64 to index
            memref.store %4267, %270[%arg399, %arg400, %4269, %arg402] : memref<1x2x1024x128xf32>
          }
        }
      }
    }
    %277 = bufferization.to_tensor %270 restrict : memref<1x2x1024x128xf32> to tensor<1x2x1024x128xf32>
    %278 = bufferization.to_buffer %arg27 : tensor<1x2x1024x128xf32> to memref<1x2x1024x128xf32>
    %279 = tosa.const_shape  {values = dense<1> : tensor<4xindex>} : () -> !tosa.shape<4>
    %280 = tosa.reshape %arg3, %279 : (tensor<1xi64>, !tosa.shape<4>) -> tensor<1x1x1x1xi64>
    %281 = "tosa.const"() <{values = dense<0> : tensor<1x2x1x128xi64>}> : () -> tensor<1x2x1x128xi64>
    %282 = tosa.add %280, %281 : (tensor<1x1x1x1xi64>, tensor<1x2x1x128xi64>) -> tensor<1x2x1x128xi64>
    %283 = bufferization.to_buffer %282 : tensor<1x2x1x128xi64> to memref<1x2x1x128xi64>
    %284 = bufferization.to_buffer %247 : tensor<1x2x1x128xf32> to memref<1x2x1x128xf32>
    %c0_54 = arith.constant 0 : index
    %c1_55 = arith.constant 1 : index
    %c1_56 = arith.constant 1 : index
    %c2_57 = arith.constant 2 : index
    %c1_58 = arith.constant 1 : index
    %c128_59 = arith.constant 128 : index
    scf.for %arg399 = %c0_54 to %c1_56 step %c1_55 {
      scf.for %arg400 = %c0_54 to %c2_57 step %c1_55 {
        scf.for %arg401 = %c0_54 to %c1_58 step %c1_55 {
          scf.for %arg402 = %c0_54 to %c128_59 step %c1_55 {
            %4267 = memref.load %284[%arg399, %arg400, %arg401, %arg402] : memref<1x2x1x128xf32>
            %4268 = memref.load %283[%arg399, %arg400, %arg401, %arg402] : memref<1x2x1x128xi64>
            %4269 = arith.index_cast %4268 : i64 to index
            memref.store %4267, %278[%arg399, %arg400, %4269, %arg402] : memref<1x2x1024x128xf32>
          }
        }
      }
    }
    %285 = bufferization.to_tensor %278 restrict : memref<1x2x1024x128xf32> to tensor<1x2x1024x128xf32>
    %286 = tosa.const_shape  {values = dense<[1, 1, 1, 1024]> : tensor<4xindex>} : () -> !tosa.shape<4>
    %287 = tosa.reshape %17, %286 : (tensor<1x1024xi1>, !tosa.shape<4>) -> tensor<1x1x1x1024xi1>
    %cst_60 = arith.constant 0xFF800000 : f32
    %cst_61 = arith.constant 0.000000e+00 : f32
    %288 = tensor.empty() : tensor<1x1x1x1024xf32>
    %splat_62 = tensor.splat %cst_61 : tensor<1x1x1x1024xf32>
    %splat_63 = tensor.splat %cst_60 : tensor<1x1x1x1024xf32>
    %289 = linalg.generic {indexing_maps = [#map1, #map1, #map1, #map1], iterator_types = ["parallel", "parallel", "parallel", "parallel"]} ins(%287, %splat_62, %splat_63 : tensor<1x1x1x1024xi1>, tensor<1x1x1x1024xf32>, tensor<1x1x1x1024xf32>) outs(%288 : tensor<1x1x1x1024xf32>) {
    ^bb0(%in: i1, %in_1253: f32, %in_1254: f32, %out: f32):
      %4267 = arith.select %in, %in_1253, %in_1254 : f32
      linalg.yield %4267 : f32
    } -> tensor<1x1x1x1024xf32>
    %c0_64 = arith.constant 0 : index
    %cst_65 = arith.constant 1.000000e+00 : f32
    %cst_66 = arith.constant 0.0883883461 : f32
    %cst_67 = arith.constant 0.000000e+00 : f32
    %290 = vector.splat %cst_67 : vector<16xf32>
    %cst_68 = arith.constant -1.000000e+30 : f32
    %291 = bufferization.to_buffer %260 : tensor<1x12x1x128xf32> to memref<1x12x1x128xf32>
    %292 = bufferization.to_buffer %277 : tensor<1x2x1024x128xf32> to memref<1x2x1024x128xf32>
    %293 = bufferization.to_buffer %285 : tensor<1x2x1024x128xf32> to memref<1x2x1024x128xf32>
    %294 = bufferization.to_buffer %289 : tensor<1x1x1x1024xf32> to memref<1x1x1x1024xf32>
    %c1_69 = arith.constant 1 : index
    %c12_70 = arith.constant 12 : index
    %c1_71 = arith.constant 1 : index
    %c128_72 = arith.constant 128 : index
    %alloc_73 = memref.alloc() : memref<1x12x1x128xf32>
    %alloc_74 = memref.alloc() : memref<1x12x1xf32>
    %alloc_75 = memref.alloc() : memref<128xf32>
    affine.for %arg399 = 0 to #map2(%c1_69) {
      affine.for %arg400 = 0 to #map2(%c12_70) {
        %c6 = arith.constant 6 : index
        %4267 = arith.divsi %arg400, %c6 : index
        affine.for %arg401 = 0 to #map2(%c1_71) {
          affine.for %arg402 = 0 to #map2(%c128_72) {
            memref.store %cst_67, %alloc_75[%arg402] : memref<128xf32>
          }
          %c1024 = arith.constant 1024 : index
          %4268:2 = affine.for %arg402 = 0 to #map2(%c1024) iter_args(%arg403 = %cst_68, %arg404 = %cst_67) -> (f32, f32) {
            %4269 = affine.for %arg405 = 0 to #map2(%c128_72) step 16 iter_args(%arg406 = %290) -> (vector<16xf32>) {
              %4284 = vector.load %291[%arg399, %arg400, %arg401, %arg405] : memref<1x12x1x128xf32>, vector<16xf32>
              %4285 = vector.load %292[%arg399, %4267, %arg402, %arg405] : memref<1x2x1024x128xf32>, vector<16xf32>
              %4286 = vector.fma %4284, %4285, %arg406 : vector<16xf32>
              affine.yield %4286 : vector<16xf32>
            }
            %4270 = vector.reduction <add>, %4269 : vector<16xf32> into f32
            %4271 = arith.mulf %4270, %cst_66 : f32
            %4272 = memref.load %294[%arg399, %c0_64, %arg401, %arg402] : memref<1x1x1x1024xf32>
            %4273 = arith.addf %4271, %4272 : f32
            %4274 = arith.cmpf ogt, %4273, %arg403 : f32
            %4275 = arith.select %4274, %4273, %arg403 : f32
            %4276 = arith.subf %arg403, %4273 : f32
            %4277 = math.exp %4276 : f32
            %4278 = arith.mulf %4277, %arg404 : f32
            %4279 = arith.addf %4278, %cst_65 : f32
            %4280 = arith.subf %4273, %arg403 : f32
            %4281 = math.exp %4280 : f32
            %4282 = arith.addf %arg404, %4281 : f32
            %4283 = arith.select %4274, %4279, %4282 : f32
            affine.for %arg405 = 0 to #map2(%c128_72) {
              %4284 = memref.load %293[%arg399, %4267, %arg402, %arg405] : memref<1x2x1024x128xf32>
              %4285 = memref.load %alloc_75[%arg405] : memref<128xf32>
              %4286 = arith.mulf %4285, %4277 : f32
              %4287 = arith.addf %4286, %4284 : f32
              %4288 = arith.mulf %4281, %4284 : f32
              %4289 = arith.addf %4288, %4285 : f32
              %4290 = arith.select %4274, %4287, %4289 : f32
              memref.store %4290, %alloc_75[%arg405] : memref<128xf32>
            }
            affine.yield %4275, %4283 : f32, f32
          }
          memref.store %4268#1, %alloc_74[%arg399, %arg400, %arg401] : memref<1x12x1xf32>
          affine.for %arg402 = 0 to #map2(%c128_72) {
            %4269 = memref.load %alloc_75[%arg402] : memref<128xf32>
            %4270 = arith.divf %4269, %4268#1 : f32
            memref.store %4270, %alloc_73[%arg399, %arg400, %arg401, %arg402] : memref<1x12x1x128xf32>
          }
        }
      }
    }
    %295 = bufferization.to_tensor %alloc_73 restrict : memref<1x12x1x128xf32> to tensor<1x12x1x128xf32>
    %296 = bufferization.to_tensor %alloc_74 restrict : memref<1x12x1xf32> to tensor<1x12x1xf32>
    %297 = tosa.const_shape  {values = dense<[1, 1, 1536]> : tensor<3xindex>} : () -> !tosa.shape<3>
    %298 = tosa.reshape %295, %297 : (tensor<1x12x1x128xf32>, !tosa.shape<3>) -> tensor<1x1x1536xf32>
    %299 = tosa.const_shape  {values = dense<[1, 1536]> : tensor<2xindex>} : () -> !tosa.shape<2>
    %300 = tosa.reshape %298, %299 : (tensor<1x1x1536xf32>, !tosa.shape<2>) -> tensor<1x1536xf32>
    %cst_76 = arith.constant dense<0.000000e+00> : tensor<1x1536xf32>
    %301 = linalg.matmul {cast = #linalg.type_fn<cast_signed>} ins(%300, %arg28 : tensor<1x1536xf32>, tensor<1536x1536xf32>) outs(%cst_76 : tensor<1x1536xf32>) -> tensor<1x1536xf32>
    %302 = tosa.const_shape  {values = dense<[1, 1, 1536]> : tensor<3xindex>} : () -> !tosa.shape<3>
    %303 = tosa.reshape %301, %302 : (tensor<1x1536xf32>, !tosa.shape<3>) -> tensor<1x1x1536xf32>
    %304 = tosa.add %193, %303 : (tensor<1x1x1536xf32>, tensor<1x1x1536xf32>) -> tensor<1x1x1536xf32>
    %305 = tensor.empty() : tensor<1x1x1536xf32>
    %c2_i32_77 = arith.constant 2 : i32
    %306 = linalg.generic {indexing_maps = [#map, #map], iterator_types = ["parallel", "parallel", "parallel"]} ins(%304 : tensor<1x1x1536xf32>) outs(%305 : tensor<1x1x1536xf32>) {
    ^bb0(%in: f32, %out: f32):
      %4267 = math.fpowi %in, %c2_i32_77 : f32, i32
      linalg.yield %4267 : f32
    } -> tensor<1x1x1536xf32>
    %307 = tosa.reduce_sum %306 {axis = 2 : i32} : (tensor<1x1x1536xf32>) -> tensor<1x1x1xf32>
    %308 = "tosa.const"() <{values = dense<1.536000e+03> : tensor<1xf32>}> : () -> tensor<1xf32>
    %309 = tosa.reciprocal %308 : (tensor<1xf32>) -> tensor<1xf32>
    %310 = tosa.const_shape  {values = dense<1> : tensor<3xindex>} : () -> !tosa.shape<3>
    %311 = tosa.reshape %309, %310 : (tensor<1xf32>, !tosa.shape<3>) -> tensor<1x1x1xf32>
    %312 = "tosa.const"() <{values = dense<0> : tensor<1xi8>}> : () -> tensor<1xi8>
    %313 = tosa.mul %311, %307, %312 : (tensor<1x1x1xf32>, tensor<1x1x1xf32>, tensor<1xi8>) -> tensor<1x1x1xf32>
    %314 = "tosa.const"() <{values = dense<9.99999997E-7> : tensor<1x1x1xf32>}> : () -> tensor<1x1x1xf32>
    %315 = tosa.add %313, %314 : (tensor<1x1x1xf32>, tensor<1x1x1xf32>) -> tensor<1x1x1xf32>
    %316 = tosa.rsqrt %315 : (tensor<1x1x1xf32>) -> tensor<1x1x1xf32>
    %317 = "tosa.const"() <{values = dense<0> : tensor<1xi8>}> : () -> tensor<1xi8>
    %318 = tosa.mul %304, %316, %317 : (tensor<1x1x1536xf32>, tensor<1x1x1xf32>, tensor<1xi8>) -> tensor<1x1x1536xf32>
    %319 = tosa.const_shape  {values = dense<[1, 1, 1536]> : tensor<3xindex>} : () -> !tosa.shape<3>
    %320 = tosa.reshape %arg29, %319 : (tensor<1536xf32>, !tosa.shape<3>) -> tensor<1x1x1536xf32>
    %321 = "tosa.const"() <{values = dense<0> : tensor<1xi8>}> : () -> tensor<1xi8>
    %322 = tosa.mul %320, %318, %321 : (tensor<1x1x1536xf32>, tensor<1x1x1536xf32>, tensor<1xi8>) -> tensor<1x1x1536xf32>
    %323 = tosa.const_shape  {values = dense<[1, 1536]> : tensor<2xindex>} : () -> !tosa.shape<2>
    %324 = tosa.reshape %322, %323 : (tensor<1x1x1536xf32>, !tosa.shape<2>) -> tensor<1x1536xf32>
    %cst_78 = arith.constant dense<0.000000e+00> : tensor<1x8960xf32>
    %325 = linalg.matmul {cast = #linalg.type_fn<cast_signed>} ins(%324, %arg30 : tensor<1x1536xf32>, tensor<1536x8960xf32>) outs(%cst_78 : tensor<1x8960xf32>) -> tensor<1x8960xf32>
    %326 = tosa.const_shape  {values = dense<[1, 1, 8960]> : tensor<3xindex>} : () -> !tosa.shape<3>
    %327 = tosa.reshape %325, %326 : (tensor<1x8960xf32>, !tosa.shape<3>) -> tensor<1x1x8960xf32>
    %328 = tosa.sigmoid %327 : (tensor<1x1x8960xf32>) -> tensor<1x1x8960xf32>
    %329 = "tosa.const"() <{values = dense<0> : tensor<1xi8>}> : () -> tensor<1xi8>
    %330 = tosa.mul %327, %328, %329 : (tensor<1x1x8960xf32>, tensor<1x1x8960xf32>, tensor<1xi8>) -> tensor<1x1x8960xf32>
    %331 = tosa.const_shape  {values = dense<[1, 1536]> : tensor<2xindex>} : () -> !tosa.shape<2>
    %332 = tosa.reshape %322, %331 : (tensor<1x1x1536xf32>, !tosa.shape<2>) -> tensor<1x1536xf32>
    %cst_79 = arith.constant dense<0.000000e+00> : tensor<1x8960xf32>
    %333 = linalg.matmul {cast = #linalg.type_fn<cast_signed>} ins(%332, %arg31 : tensor<1x1536xf32>, tensor<1536x8960xf32>) outs(%cst_79 : tensor<1x8960xf32>) -> tensor<1x8960xf32>
    %334 = tosa.const_shape  {values = dense<[1, 1, 8960]> : tensor<3xindex>} : () -> !tosa.shape<3>
    %335 = tosa.reshape %333, %334 : (tensor<1x8960xf32>, !tosa.shape<3>) -> tensor<1x1x8960xf32>
    %336 = "tosa.const"() <{values = dense<0> : tensor<1xi8>}> : () -> tensor<1xi8>
    %337 = tosa.mul %330, %335, %336 : (tensor<1x1x8960xf32>, tensor<1x1x8960xf32>, tensor<1xi8>) -> tensor<1x1x8960xf32>
    %338 = tosa.const_shape  {values = dense<[1, 8960]> : tensor<2xindex>} : () -> !tosa.shape<2>
    %339 = tosa.reshape %337, %338 : (tensor<1x1x8960xf32>, !tosa.shape<2>) -> tensor<1x8960xf32>
    %cst_80 = arith.constant dense<0.000000e+00> : tensor<1x1536xf32>
    %340 = linalg.matmul {cast = #linalg.type_fn<cast_signed>} ins(%339, %arg32 : tensor<1x8960xf32>, tensor<8960x1536xf32>) outs(%cst_80 : tensor<1x1536xf32>) -> tensor<1x1536xf32>
    %341 = tosa.const_shape  {values = dense<[1, 1, 1536]> : tensor<3xindex>} : () -> !tosa.shape<3>
    %342 = tosa.reshape %340, %341 : (tensor<1x1536xf32>, !tosa.shape<3>) -> tensor<1x1x1536xf32>
    %343 = tosa.add %304, %342 : (tensor<1x1x1536xf32>, tensor<1x1x1536xf32>) -> tensor<1x1x1536xf32>
    %344 = tensor.empty() : tensor<1x1x1536xf32>
    %c2_i32_81 = arith.constant 2 : i32
    %345 = linalg.generic {indexing_maps = [#map, #map], iterator_types = ["parallel", "parallel", "parallel"]} ins(%343 : tensor<1x1x1536xf32>) outs(%344 : tensor<1x1x1536xf32>) {
    ^bb0(%in: f32, %out: f32):
      %4267 = math.fpowi %in, %c2_i32_81 : f32, i32
      linalg.yield %4267 : f32
    } -> tensor<1x1x1536xf32>
    %346 = tosa.reduce_sum %345 {axis = 2 : i32} : (tensor<1x1x1536xf32>) -> tensor<1x1x1xf32>
    %347 = "tosa.const"() <{values = dense<1.536000e+03> : tensor<1xf32>}> : () -> tensor<1xf32>
    %348 = tosa.reciprocal %347 : (tensor<1xf32>) -> tensor<1xf32>
    %349 = tosa.const_shape  {values = dense<1> : tensor<3xindex>} : () -> !tosa.shape<3>
    %350 = tosa.reshape %348, %349 : (tensor<1xf32>, !tosa.shape<3>) -> tensor<1x1x1xf32>
    %351 = "tosa.const"() <{values = dense<0> : tensor<1xi8>}> : () -> tensor<1xi8>
    %352 = tosa.mul %350, %346, %351 : (tensor<1x1x1xf32>, tensor<1x1x1xf32>, tensor<1xi8>) -> tensor<1x1x1xf32>
    %353 = "tosa.const"() <{values = dense<9.99999997E-7> : tensor<1x1x1xf32>}> : () -> tensor<1x1x1xf32>
    %354 = tosa.add %352, %353 : (tensor<1x1x1xf32>, tensor<1x1x1xf32>) -> tensor<1x1x1xf32>
    %355 = tosa.rsqrt %354 : (tensor<1x1x1xf32>) -> tensor<1x1x1xf32>
    %356 = "tosa.const"() <{values = dense<0> : tensor<1xi8>}> : () -> tensor<1xi8>
    %357 = tosa.mul %343, %355, %356 : (tensor<1x1x1536xf32>, tensor<1x1x1xf32>, tensor<1xi8>) -> tensor<1x1x1536xf32>
    %358 = tosa.const_shape  {values = dense<[1, 1, 1536]> : tensor<3xindex>} : () -> !tosa.shape<3>
    %359 = tosa.reshape %arg33, %358 : (tensor<1536xf32>, !tosa.shape<3>) -> tensor<1x1x1536xf32>
    %360 = "tosa.const"() <{values = dense<0> : tensor<1xi8>}> : () -> tensor<1xi8>
    %361 = tosa.mul %359, %357, %360 : (tensor<1x1x1536xf32>, tensor<1x1x1536xf32>, tensor<1xi8>) -> tensor<1x1x1536xf32>
    %362 = tosa.const_shape  {values = dense<[1, 1536]> : tensor<2xindex>} : () -> !tosa.shape<2>
    %363 = tosa.reshape %361, %362 : (tensor<1x1x1536xf32>, !tosa.shape<2>) -> tensor<1x1536xf32>
    %cst_82 = arith.constant dense<0.000000e+00> : tensor<1x1536xf32>
    %364 = linalg.matmul {cast = #linalg.type_fn<cast_signed>} ins(%363, %arg35 : tensor<1x1536xf32>, tensor<1536x1536xf32>) outs(%cst_82 : tensor<1x1536xf32>) -> tensor<1x1536xf32>
    %365 = tosa.const_shape  {values = dense<[1, 1536]> : tensor<2xindex>} : () -> !tosa.shape<2>
    %366 = tosa.reshape %arg34, %365 : (tensor<1536xf32>, !tosa.shape<2>) -> tensor<1x1536xf32>
    %367 = tosa.add %366, %364 : (tensor<1x1536xf32>, tensor<1x1536xf32>) -> tensor<1x1536xf32>
    %368 = tosa.const_shape  {values = dense<[1, 1, 1536]> : tensor<3xindex>} : () -> !tosa.shape<3>
    %369 = tosa.reshape %367, %368 : (tensor<1x1536xf32>, !tosa.shape<3>) -> tensor<1x1x1536xf32>
    %370 = tosa.const_shape  {values = dense<[1, 1, 12, 128]> : tensor<4xindex>} : () -> !tosa.shape<4>
    %371 = tosa.reshape %369, %370 : (tensor<1x1x1536xf32>, !tosa.shape<4>) -> tensor<1x1x12x128xf32>
    %372 = tosa.const_shape  {values = dense<[1, 12, 1, 128]> : tensor<4xindex>} : () -> !tosa.shape<4>
    %373 = tosa.reshape %371, %372 : (tensor<1x1x12x128xf32>, !tosa.shape<4>) -> tensor<1x12x1x128xf32>
    %374 = tosa.const_shape  {values = dense<[1, 1536]> : tensor<2xindex>} : () -> !tosa.shape<2>
    %375 = tosa.reshape %361, %374 : (tensor<1x1x1536xf32>, !tosa.shape<2>) -> tensor<1x1536xf32>
    %cst_83 = arith.constant dense<0.000000e+00> : tensor<1x256xf32>
    %376 = linalg.matmul {cast = #linalg.type_fn<cast_signed>} ins(%375, %arg37 : tensor<1x1536xf32>, tensor<1536x256xf32>) outs(%cst_83 : tensor<1x256xf32>) -> tensor<1x256xf32>
    %377 = tosa.const_shape  {values = dense<[1, 256]> : tensor<2xindex>} : () -> !tosa.shape<2>
    %378 = tosa.reshape %arg36, %377 : (tensor<256xf32>, !tosa.shape<2>) -> tensor<1x256xf32>
    %379 = tosa.add %378, %376 : (tensor<1x256xf32>, tensor<1x256xf32>) -> tensor<1x256xf32>
    %380 = tosa.const_shape  {values = dense<[1, 1, 256]> : tensor<3xindex>} : () -> !tosa.shape<3>
    %381 = tosa.reshape %379, %380 : (tensor<1x256xf32>, !tosa.shape<3>) -> tensor<1x1x256xf32>
    %382 = tosa.const_shape  {values = dense<[1, 1, 2, 128]> : tensor<4xindex>} : () -> !tosa.shape<4>
    %383 = tosa.reshape %381, %382 : (tensor<1x1x256xf32>, !tosa.shape<4>) -> tensor<1x1x2x128xf32>
    %384 = tosa.const_shape  {values = dense<[1, 2, 1, 128]> : tensor<4xindex>} : () -> !tosa.shape<4>
    %385 = tosa.reshape %383, %384 : (tensor<1x1x2x128xf32>, !tosa.shape<4>) -> tensor<1x2x1x128xf32>
    %386 = tosa.const_shape  {values = dense<[1, 1536]> : tensor<2xindex>} : () -> !tosa.shape<2>
    %387 = tosa.reshape %361, %386 : (tensor<1x1x1536xf32>, !tosa.shape<2>) -> tensor<1x1536xf32>
    %cst_84 = arith.constant dense<0.000000e+00> : tensor<1x256xf32>
    %388 = linalg.matmul {cast = #linalg.type_fn<cast_signed>} ins(%387, %arg39 : tensor<1x1536xf32>, tensor<1536x256xf32>) outs(%cst_84 : tensor<1x256xf32>) -> tensor<1x256xf32>
    %389 = tosa.const_shape  {values = dense<[1, 256]> : tensor<2xindex>} : () -> !tosa.shape<2>
    %390 = tosa.reshape %arg38, %389 : (tensor<256xf32>, !tosa.shape<2>) -> tensor<1x256xf32>
    %391 = tosa.add %390, %388 : (tensor<1x256xf32>, tensor<1x256xf32>) -> tensor<1x256xf32>
    %392 = tosa.const_shape  {values = dense<[1, 1, 256]> : tensor<3xindex>} : () -> !tosa.shape<3>
    %393 = tosa.reshape %391, %392 : (tensor<1x256xf32>, !tosa.shape<3>) -> tensor<1x1x256xf32>
    %394 = tosa.const_shape  {values = dense<[1, 1, 2, 128]> : tensor<4xindex>} : () -> !tosa.shape<4>
    %395 = tosa.reshape %393, %394 : (tensor<1x1x256xf32>, !tosa.shape<4>) -> tensor<1x1x2x128xf32>
    %396 = tosa.const_shape  {values = dense<[1, 2, 1, 128]> : tensor<4xindex>} : () -> !tosa.shape<4>
    %397 = tosa.reshape %395, %396 : (tensor<1x1x2x128xf32>, !tosa.shape<4>) -> tensor<1x2x1x128xf32>
    %398 = tosa.const_shape  {values = dense<[1, 1, 1, 128]> : tensor<4xindex>} : () -> !tosa.shape<4>
    %399 = tosa.reshape %38, %398 : (tensor<1x1x128xf32>, !tosa.shape<4>) -> tensor<1x1x1x128xf32>
    %400 = tosa.const_shape  {values = dense<[1, 1, 1, 128]> : tensor<4xindex>} : () -> !tosa.shape<4>
    %401 = tosa.reshape %43, %400 : (tensor<1x1x128xf32>, !tosa.shape<4>) -> tensor<1x1x1x128xf32>
    %402 = "tosa.const"() <{values = dense<0> : tensor<1xi8>}> : () -> tensor<1xi8>
    %403 = tosa.mul %373, %399, %402 : (tensor<1x12x1x128xf32>, tensor<1x1x1x128xf32>, tensor<1xi8>) -> tensor<1x12x1x128xf32>
    %extracted_slice_85 = tensor.extract_slice %373[0, 0, 0, 0] [1, 12, 1, 64] [1, 1, 1, 1] : tensor<1x12x1x128xf32> to tensor<1x12x1x64xf32>
    %extracted_slice_86 = tensor.extract_slice %373[0, 0, 0, 64] [1, 12, 1, 64] [1, 1, 1, 1] : tensor<1x12x1x128xf32> to tensor<1x12x1x64xf32>
    %404 = "tosa.const"() <{values = dense<0.000000e+00> : tensor<1xf32>}> : () -> tensor<1xf32>
    %405 = "tosa.const"() <{values = dense<0.000000e+00> : tensor<1xf32>}> : () -> tensor<1xf32>
    %406 = tosa.negate %extracted_slice_86, %404, %405 : (tensor<1x12x1x64xf32>, tensor<1xf32>, tensor<1xf32>) -> tensor<1x12x1x64xf32>
    %407 = tensor.empty() : tensor<1x12x1x128xf32>
    %inserted_slice_87 = tensor.insert_slice %406 into %407[0, 0, 0, 0] [1, 12, 1, 64] [1, 1, 1, 1] : tensor<1x12x1x64xf32> into tensor<1x12x1x128xf32>
    %inserted_slice_88 = tensor.insert_slice %extracted_slice_85 into %inserted_slice_87[0, 0, 0, 64] [1, 12, 1, 64] [1, 1, 1, 1] : tensor<1x12x1x64xf32> into tensor<1x12x1x128xf32>
    %408 = "tosa.const"() <{values = dense<0> : tensor<1xi8>}> : () -> tensor<1xi8>
    %409 = tosa.mul %inserted_slice_88, %401, %408 : (tensor<1x12x1x128xf32>, tensor<1x1x1x128xf32>, tensor<1xi8>) -> tensor<1x12x1x128xf32>
    %410 = tosa.add %403, %409 : (tensor<1x12x1x128xf32>, tensor<1x12x1x128xf32>) -> tensor<1x12x1x128xf32>
    %411 = "tosa.const"() <{values = dense<0> : tensor<1xi8>}> : () -> tensor<1xi8>
    %412 = tosa.mul %385, %399, %411 : (tensor<1x2x1x128xf32>, tensor<1x1x1x128xf32>, tensor<1xi8>) -> tensor<1x2x1x128xf32>
    %extracted_slice_89 = tensor.extract_slice %385[0, 0, 0, 0] [1, 2, 1, 64] [1, 1, 1, 1] : tensor<1x2x1x128xf32> to tensor<1x2x1x64xf32>
    %extracted_slice_90 = tensor.extract_slice %385[0, 0, 0, 64] [1, 2, 1, 64] [1, 1, 1, 1] : tensor<1x2x1x128xf32> to tensor<1x2x1x64xf32>
    %413 = "tosa.const"() <{values = dense<0.000000e+00> : tensor<1xf32>}> : () -> tensor<1xf32>
    %414 = "tosa.const"() <{values = dense<0.000000e+00> : tensor<1xf32>}> : () -> tensor<1xf32>
    %415 = tosa.negate %extracted_slice_90, %413, %414 : (tensor<1x2x1x64xf32>, tensor<1xf32>, tensor<1xf32>) -> tensor<1x2x1x64xf32>
    %416 = tensor.empty() : tensor<1x2x1x128xf32>
    %inserted_slice_91 = tensor.insert_slice %415 into %416[0, 0, 0, 0] [1, 2, 1, 64] [1, 1, 1, 1] : tensor<1x2x1x64xf32> into tensor<1x2x1x128xf32>
    %inserted_slice_92 = tensor.insert_slice %extracted_slice_89 into %inserted_slice_91[0, 0, 0, 64] [1, 2, 1, 64] [1, 1, 1, 1] : tensor<1x2x1x64xf32> into tensor<1x2x1x128xf32>
    %417 = "tosa.const"() <{values = dense<0> : tensor<1xi8>}> : () -> tensor<1xi8>
    %418 = tosa.mul %inserted_slice_92, %401, %417 : (tensor<1x2x1x128xf32>, tensor<1x1x1x128xf32>, tensor<1xi8>) -> tensor<1x2x1x128xf32>
    %419 = tosa.add %412, %418 : (tensor<1x2x1x128xf32>, tensor<1x2x1x128xf32>) -> tensor<1x2x1x128xf32>
    %420 = bufferization.to_buffer %arg40 : tensor<1x2x1024x128xf32> to memref<1x2x1024x128xf32>
    %421 = tosa.const_shape  {values = dense<1> : tensor<4xindex>} : () -> !tosa.shape<4>
    %422 = tosa.reshape %arg3, %421 : (tensor<1xi64>, !tosa.shape<4>) -> tensor<1x1x1x1xi64>
    %423 = "tosa.const"() <{values = dense<0> : tensor<1x2x1x128xi64>}> : () -> tensor<1x2x1x128xi64>
    %424 = tosa.add %422, %423 : (tensor<1x1x1x1xi64>, tensor<1x2x1x128xi64>) -> tensor<1x2x1x128xi64>
    %425 = bufferization.to_buffer %424 : tensor<1x2x1x128xi64> to memref<1x2x1x128xi64>
    %426 = bufferization.to_buffer %419 : tensor<1x2x1x128xf32> to memref<1x2x1x128xf32>
    %c0_93 = arith.constant 0 : index
    %c1_94 = arith.constant 1 : index
    %c1_95 = arith.constant 1 : index
    %c2_96 = arith.constant 2 : index
    %c1_97 = arith.constant 1 : index
    %c128_98 = arith.constant 128 : index
    scf.for %arg399 = %c0_93 to %c1_95 step %c1_94 {
      scf.for %arg400 = %c0_93 to %c2_96 step %c1_94 {
        scf.for %arg401 = %c0_93 to %c1_97 step %c1_94 {
          scf.for %arg402 = %c0_93 to %c128_98 step %c1_94 {
            %4267 = memref.load %426[%arg399, %arg400, %arg401, %arg402] : memref<1x2x1x128xf32>
            %4268 = memref.load %425[%arg399, %arg400, %arg401, %arg402] : memref<1x2x1x128xi64>
            %4269 = arith.index_cast %4268 : i64 to index
            memref.store %4267, %420[%arg399, %arg400, %4269, %arg402] : memref<1x2x1024x128xf32>
          }
        }
      }
    }
    %427 = bufferization.to_tensor %420 restrict : memref<1x2x1024x128xf32> to tensor<1x2x1024x128xf32>
    %428 = bufferization.to_buffer %arg41 : tensor<1x2x1024x128xf32> to memref<1x2x1024x128xf32>
    %429 = tosa.const_shape  {values = dense<1> : tensor<4xindex>} : () -> !tosa.shape<4>
    %430 = tosa.reshape %arg3, %429 : (tensor<1xi64>, !tosa.shape<4>) -> tensor<1x1x1x1xi64>
    %431 = "tosa.const"() <{values = dense<0> : tensor<1x2x1x128xi64>}> : () -> tensor<1x2x1x128xi64>
    %432 = tosa.add %430, %431 : (tensor<1x1x1x1xi64>, tensor<1x2x1x128xi64>) -> tensor<1x2x1x128xi64>
    %433 = bufferization.to_buffer %432 : tensor<1x2x1x128xi64> to memref<1x2x1x128xi64>
    %434 = bufferization.to_buffer %397 : tensor<1x2x1x128xf32> to memref<1x2x1x128xf32>
    %c0_99 = arith.constant 0 : index
    %c1_100 = arith.constant 1 : index
    %c1_101 = arith.constant 1 : index
    %c2_102 = arith.constant 2 : index
    %c1_103 = arith.constant 1 : index
    %c128_104 = arith.constant 128 : index
    scf.for %arg399 = %c0_99 to %c1_101 step %c1_100 {
      scf.for %arg400 = %c0_99 to %c2_102 step %c1_100 {
        scf.for %arg401 = %c0_99 to %c1_103 step %c1_100 {
          scf.for %arg402 = %c0_99 to %c128_104 step %c1_100 {
            %4267 = memref.load %434[%arg399, %arg400, %arg401, %arg402] : memref<1x2x1x128xf32>
            %4268 = memref.load %433[%arg399, %arg400, %arg401, %arg402] : memref<1x2x1x128xi64>
            %4269 = arith.index_cast %4268 : i64 to index
            memref.store %4267, %428[%arg399, %arg400, %4269, %arg402] : memref<1x2x1024x128xf32>
          }
        }
      }
    }
    %435 = bufferization.to_tensor %428 restrict : memref<1x2x1024x128xf32> to tensor<1x2x1024x128xf32>
    %436 = tosa.const_shape  {values = dense<[1, 1, 1, 1024]> : tensor<4xindex>} : () -> !tosa.shape<4>
    %437 = tosa.reshape %17, %436 : (tensor<1x1024xi1>, !tosa.shape<4>) -> tensor<1x1x1x1024xi1>
    %cst_105 = arith.constant 0xFF800000 : f32
    %cst_106 = arith.constant 0.000000e+00 : f32
    %438 = tensor.empty() : tensor<1x1x1x1024xf32>
    %splat_107 = tensor.splat %cst_106 : tensor<1x1x1x1024xf32>
    %splat_108 = tensor.splat %cst_105 : tensor<1x1x1x1024xf32>
    %439 = linalg.generic {indexing_maps = [#map1, #map1, #map1, #map1], iterator_types = ["parallel", "parallel", "parallel", "parallel"]} ins(%437, %splat_107, %splat_108 : tensor<1x1x1x1024xi1>, tensor<1x1x1x1024xf32>, tensor<1x1x1x1024xf32>) outs(%438 : tensor<1x1x1x1024xf32>) {
    ^bb0(%in: i1, %in_1253: f32, %in_1254: f32, %out: f32):
      %4267 = arith.select %in, %in_1253, %in_1254 : f32
      linalg.yield %4267 : f32
    } -> tensor<1x1x1x1024xf32>
    %c0_109 = arith.constant 0 : index
    %cst_110 = arith.constant 1.000000e+00 : f32
    %cst_111 = arith.constant 0.0883883461 : f32
    %cst_112 = arith.constant 0.000000e+00 : f32
    %440 = vector.splat %cst_112 : vector<16xf32>
    %cst_113 = arith.constant -1.000000e+30 : f32
    %441 = bufferization.to_buffer %410 : tensor<1x12x1x128xf32> to memref<1x12x1x128xf32>
    %442 = bufferization.to_buffer %427 : tensor<1x2x1024x128xf32> to memref<1x2x1024x128xf32>
    %443 = bufferization.to_buffer %435 : tensor<1x2x1024x128xf32> to memref<1x2x1024x128xf32>
    %444 = bufferization.to_buffer %439 : tensor<1x1x1x1024xf32> to memref<1x1x1x1024xf32>
    %c1_114 = arith.constant 1 : index
    %c12_115 = arith.constant 12 : index
    %c1_116 = arith.constant 1 : index
    %c128_117 = arith.constant 128 : index
    %alloc_118 = memref.alloc() : memref<1x12x1x128xf32>
    %alloc_119 = memref.alloc() : memref<1x12x1xf32>
    %alloc_120 = memref.alloc() : memref<128xf32>
    affine.for %arg399 = 0 to #map2(%c1_114) {
      affine.for %arg400 = 0 to #map2(%c12_115) {
        %c6 = arith.constant 6 : index
        %4267 = arith.divsi %arg400, %c6 : index
        affine.for %arg401 = 0 to #map2(%c1_116) {
          affine.for %arg402 = 0 to #map2(%c128_117) {
            memref.store %cst_112, %alloc_120[%arg402] : memref<128xf32>
          }
          %c1024 = arith.constant 1024 : index
          %4268:2 = affine.for %arg402 = 0 to #map2(%c1024) iter_args(%arg403 = %cst_113, %arg404 = %cst_112) -> (f32, f32) {
            %4269 = affine.for %arg405 = 0 to #map2(%c128_117) step 16 iter_args(%arg406 = %440) -> (vector<16xf32>) {
              %4284 = vector.load %441[%arg399, %arg400, %arg401, %arg405] : memref<1x12x1x128xf32>, vector<16xf32>
              %4285 = vector.load %442[%arg399, %4267, %arg402, %arg405] : memref<1x2x1024x128xf32>, vector<16xf32>
              %4286 = vector.fma %4284, %4285, %arg406 : vector<16xf32>
              affine.yield %4286 : vector<16xf32>
            }
            %4270 = vector.reduction <add>, %4269 : vector<16xf32> into f32
            %4271 = arith.mulf %4270, %cst_111 : f32
            %4272 = memref.load %444[%arg399, %c0_109, %arg401, %arg402] : memref<1x1x1x1024xf32>
            %4273 = arith.addf %4271, %4272 : f32
            %4274 = arith.cmpf ogt, %4273, %arg403 : f32
            %4275 = arith.select %4274, %4273, %arg403 : f32
            %4276 = arith.subf %arg403, %4273 : f32
            %4277 = math.exp %4276 : f32
            %4278 = arith.mulf %4277, %arg404 : f32
            %4279 = arith.addf %4278, %cst_110 : f32
            %4280 = arith.subf %4273, %arg403 : f32
            %4281 = math.exp %4280 : f32
            %4282 = arith.addf %arg404, %4281 : f32
            %4283 = arith.select %4274, %4279, %4282 : f32
            affine.for %arg405 = 0 to #map2(%c128_117) {
              %4284 = memref.load %443[%arg399, %4267, %arg402, %arg405] : memref<1x2x1024x128xf32>
              %4285 = memref.load %alloc_120[%arg405] : memref<128xf32>
              %4286 = arith.mulf %4285, %4277 : f32
              %4287 = arith.addf %4286, %4284 : f32
              %4288 = arith.mulf %4281, %4284 : f32
              %4289 = arith.addf %4288, %4285 : f32
              %4290 = arith.select %4274, %4287, %4289 : f32
              memref.store %4290, %alloc_120[%arg405] : memref<128xf32>
            }
            affine.yield %4275, %4283 : f32, f32
          }
          memref.store %4268#1, %alloc_119[%arg399, %arg400, %arg401] : memref<1x12x1xf32>
          affine.for %arg402 = 0 to #map2(%c128_117) {
            %4269 = memref.load %alloc_120[%arg402] : memref<128xf32>
            %4270 = arith.divf %4269, %4268#1 : f32
            memref.store %4270, %alloc_118[%arg399, %arg400, %arg401, %arg402] : memref<1x12x1x128xf32>
          }
        }
      }
    }
    %445 = bufferization.to_tensor %alloc_118 restrict : memref<1x12x1x128xf32> to tensor<1x12x1x128xf32>
    %446 = bufferization.to_tensor %alloc_119 restrict : memref<1x12x1xf32> to tensor<1x12x1xf32>
    %447 = tosa.const_shape  {values = dense<[1, 1, 1536]> : tensor<3xindex>} : () -> !tosa.shape<3>
    %448 = tosa.reshape %445, %447 : (tensor<1x12x1x128xf32>, !tosa.shape<3>) -> tensor<1x1x1536xf32>
    %449 = tosa.const_shape  {values = dense<[1, 1536]> : tensor<2xindex>} : () -> !tosa.shape<2>
    %450 = tosa.reshape %448, %449 : (tensor<1x1x1536xf32>, !tosa.shape<2>) -> tensor<1x1536xf32>
    %cst_121 = arith.constant dense<0.000000e+00> : tensor<1x1536xf32>
    %451 = linalg.matmul {cast = #linalg.type_fn<cast_signed>} ins(%450, %arg42 : tensor<1x1536xf32>, tensor<1536x1536xf32>) outs(%cst_121 : tensor<1x1536xf32>) -> tensor<1x1536xf32>
    %452 = tosa.const_shape  {values = dense<[1, 1, 1536]> : tensor<3xindex>} : () -> !tosa.shape<3>
    %453 = tosa.reshape %451, %452 : (tensor<1x1536xf32>, !tosa.shape<3>) -> tensor<1x1x1536xf32>
    %454 = tosa.add %343, %453 : (tensor<1x1x1536xf32>, tensor<1x1x1536xf32>) -> tensor<1x1x1536xf32>
    %455 = tensor.empty() : tensor<1x1x1536xf32>
    %c2_i32_122 = arith.constant 2 : i32
    %456 = linalg.generic {indexing_maps = [#map, #map], iterator_types = ["parallel", "parallel", "parallel"]} ins(%454 : tensor<1x1x1536xf32>) outs(%455 : tensor<1x1x1536xf32>) {
    ^bb0(%in: f32, %out: f32):
      %4267 = math.fpowi %in, %c2_i32_122 : f32, i32
      linalg.yield %4267 : f32
    } -> tensor<1x1x1536xf32>
    %457 = tosa.reduce_sum %456 {axis = 2 : i32} : (tensor<1x1x1536xf32>) -> tensor<1x1x1xf32>
    %458 = "tosa.const"() <{values = dense<1.536000e+03> : tensor<1xf32>}> : () -> tensor<1xf32>
    %459 = tosa.reciprocal %458 : (tensor<1xf32>) -> tensor<1xf32>
    %460 = tosa.const_shape  {values = dense<1> : tensor<3xindex>} : () -> !tosa.shape<3>
    %461 = tosa.reshape %459, %460 : (tensor<1xf32>, !tosa.shape<3>) -> tensor<1x1x1xf32>
    %462 = "tosa.const"() <{values = dense<0> : tensor<1xi8>}> : () -> tensor<1xi8>
    %463 = tosa.mul %461, %457, %462 : (tensor<1x1x1xf32>, tensor<1x1x1xf32>, tensor<1xi8>) -> tensor<1x1x1xf32>
    %464 = "tosa.const"() <{values = dense<9.99999997E-7> : tensor<1x1x1xf32>}> : () -> tensor<1x1x1xf32>
    %465 = tosa.add %463, %464 : (tensor<1x1x1xf32>, tensor<1x1x1xf32>) -> tensor<1x1x1xf32>
    %466 = tosa.rsqrt %465 : (tensor<1x1x1xf32>) -> tensor<1x1x1xf32>
    %467 = "tosa.const"() <{values = dense<0> : tensor<1xi8>}> : () -> tensor<1xi8>
    %468 = tosa.mul %454, %466, %467 : (tensor<1x1x1536xf32>, tensor<1x1x1xf32>, tensor<1xi8>) -> tensor<1x1x1536xf32>
    %469 = tosa.const_shape  {values = dense<[1, 1, 1536]> : tensor<3xindex>} : () -> !tosa.shape<3>
    %470 = tosa.reshape %arg43, %469 : (tensor<1536xf32>, !tosa.shape<3>) -> tensor<1x1x1536xf32>
    %471 = "tosa.const"() <{values = dense<0> : tensor<1xi8>}> : () -> tensor<1xi8>
    %472 = tosa.mul %470, %468, %471 : (tensor<1x1x1536xf32>, tensor<1x1x1536xf32>, tensor<1xi8>) -> tensor<1x1x1536xf32>
    %473 = tosa.const_shape  {values = dense<[1, 1536]> : tensor<2xindex>} : () -> !tosa.shape<2>
    %474 = tosa.reshape %472, %473 : (tensor<1x1x1536xf32>, !tosa.shape<2>) -> tensor<1x1536xf32>
    %cst_123 = arith.constant dense<0.000000e+00> : tensor<1x8960xf32>
    %475 = linalg.matmul {cast = #linalg.type_fn<cast_signed>} ins(%474, %arg44 : tensor<1x1536xf32>, tensor<1536x8960xf32>) outs(%cst_123 : tensor<1x8960xf32>) -> tensor<1x8960xf32>
    %476 = tosa.const_shape  {values = dense<[1, 1, 8960]> : tensor<3xindex>} : () -> !tosa.shape<3>
    %477 = tosa.reshape %475, %476 : (tensor<1x8960xf32>, !tosa.shape<3>) -> tensor<1x1x8960xf32>
    %478 = tosa.sigmoid %477 : (tensor<1x1x8960xf32>) -> tensor<1x1x8960xf32>
    %479 = "tosa.const"() <{values = dense<0> : tensor<1xi8>}> : () -> tensor<1xi8>
    %480 = tosa.mul %477, %478, %479 : (tensor<1x1x8960xf32>, tensor<1x1x8960xf32>, tensor<1xi8>) -> tensor<1x1x8960xf32>
    %481 = tosa.const_shape  {values = dense<[1, 1536]> : tensor<2xindex>} : () -> !tosa.shape<2>
    %482 = tosa.reshape %472, %481 : (tensor<1x1x1536xf32>, !tosa.shape<2>) -> tensor<1x1536xf32>
    %cst_124 = arith.constant dense<0.000000e+00> : tensor<1x8960xf32>
    %483 = linalg.matmul {cast = #linalg.type_fn<cast_signed>} ins(%482, %arg45 : tensor<1x1536xf32>, tensor<1536x8960xf32>) outs(%cst_124 : tensor<1x8960xf32>) -> tensor<1x8960xf32>
    %484 = tosa.const_shape  {values = dense<[1, 1, 8960]> : tensor<3xindex>} : () -> !tosa.shape<3>
    %485 = tosa.reshape %483, %484 : (tensor<1x8960xf32>, !tosa.shape<3>) -> tensor<1x1x8960xf32>
    %486 = "tosa.const"() <{values = dense<0> : tensor<1xi8>}> : () -> tensor<1xi8>
    %487 = tosa.mul %480, %485, %486 : (tensor<1x1x8960xf32>, tensor<1x1x8960xf32>, tensor<1xi8>) -> tensor<1x1x8960xf32>
    %488 = tosa.const_shape  {values = dense<[1, 8960]> : tensor<2xindex>} : () -> !tosa.shape<2>
    %489 = tosa.reshape %487, %488 : (tensor<1x1x8960xf32>, !tosa.shape<2>) -> tensor<1x8960xf32>
    %cst_125 = arith.constant dense<0.000000e+00> : tensor<1x1536xf32>
    %490 = linalg.matmul {cast = #linalg.type_fn<cast_signed>} ins(%489, %arg46 : tensor<1x8960xf32>, tensor<8960x1536xf32>) outs(%cst_125 : tensor<1x1536xf32>) -> tensor<1x1536xf32>
    %491 = tosa.const_shape  {values = dense<[1, 1, 1536]> : tensor<3xindex>} : () -> !tosa.shape<3>
    %492 = tosa.reshape %490, %491 : (tensor<1x1536xf32>, !tosa.shape<3>) -> tensor<1x1x1536xf32>
    %493 = tosa.add %454, %492 : (tensor<1x1x1536xf32>, tensor<1x1x1536xf32>) -> tensor<1x1x1536xf32>
    %494 = tensor.empty() : tensor<1x1x1536xf32>
    %c2_i32_126 = arith.constant 2 : i32
    %495 = linalg.generic {indexing_maps = [#map, #map], iterator_types = ["parallel", "parallel", "parallel"]} ins(%493 : tensor<1x1x1536xf32>) outs(%494 : tensor<1x1x1536xf32>) {
    ^bb0(%in: f32, %out: f32):
      %4267 = math.fpowi %in, %c2_i32_126 : f32, i32
      linalg.yield %4267 : f32
    } -> tensor<1x1x1536xf32>
    %496 = tosa.reduce_sum %495 {axis = 2 : i32} : (tensor<1x1x1536xf32>) -> tensor<1x1x1xf32>
    %497 = "tosa.const"() <{values = dense<1.536000e+03> : tensor<1xf32>}> : () -> tensor<1xf32>
    %498 = tosa.reciprocal %497 : (tensor<1xf32>) -> tensor<1xf32>
    %499 = tosa.const_shape  {values = dense<1> : tensor<3xindex>} : () -> !tosa.shape<3>
    %500 = tosa.reshape %498, %499 : (tensor<1xf32>, !tosa.shape<3>) -> tensor<1x1x1xf32>
    %501 = "tosa.const"() <{values = dense<0> : tensor<1xi8>}> : () -> tensor<1xi8>
    %502 = tosa.mul %500, %496, %501 : (tensor<1x1x1xf32>, tensor<1x1x1xf32>, tensor<1xi8>) -> tensor<1x1x1xf32>
    %503 = "tosa.const"() <{values = dense<9.99999997E-7> : tensor<1x1x1xf32>}> : () -> tensor<1x1x1xf32>
    %504 = tosa.add %502, %503 : (tensor<1x1x1xf32>, tensor<1x1x1xf32>) -> tensor<1x1x1xf32>
    %505 = tosa.rsqrt %504 : (tensor<1x1x1xf32>) -> tensor<1x1x1xf32>
    %506 = "tosa.const"() <{values = dense<0> : tensor<1xi8>}> : () -> tensor<1xi8>
    %507 = tosa.mul %493, %505, %506 : (tensor<1x1x1536xf32>, tensor<1x1x1xf32>, tensor<1xi8>) -> tensor<1x1x1536xf32>
    %508 = tosa.const_shape  {values = dense<[1, 1, 1536]> : tensor<3xindex>} : () -> !tosa.shape<3>
    %509 = tosa.reshape %arg47, %508 : (tensor<1536xf32>, !tosa.shape<3>) -> tensor<1x1x1536xf32>
    %510 = "tosa.const"() <{values = dense<0> : tensor<1xi8>}> : () -> tensor<1xi8>
    %511 = tosa.mul %509, %507, %510 : (tensor<1x1x1536xf32>, tensor<1x1x1536xf32>, tensor<1xi8>) -> tensor<1x1x1536xf32>
    %512 = tosa.const_shape  {values = dense<[1, 1536]> : tensor<2xindex>} : () -> !tosa.shape<2>
    %513 = tosa.reshape %511, %512 : (tensor<1x1x1536xf32>, !tosa.shape<2>) -> tensor<1x1536xf32>
    %cst_127 = arith.constant dense<0.000000e+00> : tensor<1x1536xf32>
    %514 = linalg.matmul {cast = #linalg.type_fn<cast_signed>} ins(%513, %arg49 : tensor<1x1536xf32>, tensor<1536x1536xf32>) outs(%cst_127 : tensor<1x1536xf32>) -> tensor<1x1536xf32>
    %515 = tosa.const_shape  {values = dense<[1, 1536]> : tensor<2xindex>} : () -> !tosa.shape<2>
    %516 = tosa.reshape %arg48, %515 : (tensor<1536xf32>, !tosa.shape<2>) -> tensor<1x1536xf32>
    %517 = tosa.add %516, %514 : (tensor<1x1536xf32>, tensor<1x1536xf32>) -> tensor<1x1536xf32>
    %518 = tosa.const_shape  {values = dense<[1, 1, 1536]> : tensor<3xindex>} : () -> !tosa.shape<3>
    %519 = tosa.reshape %517, %518 : (tensor<1x1536xf32>, !tosa.shape<3>) -> tensor<1x1x1536xf32>
    %520 = tosa.const_shape  {values = dense<[1, 1, 12, 128]> : tensor<4xindex>} : () -> !tosa.shape<4>
    %521 = tosa.reshape %519, %520 : (tensor<1x1x1536xf32>, !tosa.shape<4>) -> tensor<1x1x12x128xf32>
    %522 = tosa.const_shape  {values = dense<[1, 12, 1, 128]> : tensor<4xindex>} : () -> !tosa.shape<4>
    %523 = tosa.reshape %521, %522 : (tensor<1x1x12x128xf32>, !tosa.shape<4>) -> tensor<1x12x1x128xf32>
    %524 = tosa.const_shape  {values = dense<[1, 1536]> : tensor<2xindex>} : () -> !tosa.shape<2>
    %525 = tosa.reshape %511, %524 : (tensor<1x1x1536xf32>, !tosa.shape<2>) -> tensor<1x1536xf32>
    %cst_128 = arith.constant dense<0.000000e+00> : tensor<1x256xf32>
    %526 = linalg.matmul {cast = #linalg.type_fn<cast_signed>} ins(%525, %arg51 : tensor<1x1536xf32>, tensor<1536x256xf32>) outs(%cst_128 : tensor<1x256xf32>) -> tensor<1x256xf32>
    %527 = tosa.const_shape  {values = dense<[1, 256]> : tensor<2xindex>} : () -> !tosa.shape<2>
    %528 = tosa.reshape %arg50, %527 : (tensor<256xf32>, !tosa.shape<2>) -> tensor<1x256xf32>
    %529 = tosa.add %528, %526 : (tensor<1x256xf32>, tensor<1x256xf32>) -> tensor<1x256xf32>
    %530 = tosa.const_shape  {values = dense<[1, 1, 256]> : tensor<3xindex>} : () -> !tosa.shape<3>
    %531 = tosa.reshape %529, %530 : (tensor<1x256xf32>, !tosa.shape<3>) -> tensor<1x1x256xf32>
    %532 = tosa.const_shape  {values = dense<[1, 1, 2, 128]> : tensor<4xindex>} : () -> !tosa.shape<4>
    %533 = tosa.reshape %531, %532 : (tensor<1x1x256xf32>, !tosa.shape<4>) -> tensor<1x1x2x128xf32>
    %534 = tosa.const_shape  {values = dense<[1, 2, 1, 128]> : tensor<4xindex>} : () -> !tosa.shape<4>
    %535 = tosa.reshape %533, %534 : (tensor<1x1x2x128xf32>, !tosa.shape<4>) -> tensor<1x2x1x128xf32>
    %536 = tosa.const_shape  {values = dense<[1, 1536]> : tensor<2xindex>} : () -> !tosa.shape<2>
    %537 = tosa.reshape %511, %536 : (tensor<1x1x1536xf32>, !tosa.shape<2>) -> tensor<1x1536xf32>
    %cst_129 = arith.constant dense<0.000000e+00> : tensor<1x256xf32>
    %538 = linalg.matmul {cast = #linalg.type_fn<cast_signed>} ins(%537, %arg53 : tensor<1x1536xf32>, tensor<1536x256xf32>) outs(%cst_129 : tensor<1x256xf32>) -> tensor<1x256xf32>
    %539 = tosa.const_shape  {values = dense<[1, 256]> : tensor<2xindex>} : () -> !tosa.shape<2>
    %540 = tosa.reshape %arg52, %539 : (tensor<256xf32>, !tosa.shape<2>) -> tensor<1x256xf32>
    %541 = tosa.add %540, %538 : (tensor<1x256xf32>, tensor<1x256xf32>) -> tensor<1x256xf32>
    %542 = tosa.const_shape  {values = dense<[1, 1, 256]> : tensor<3xindex>} : () -> !tosa.shape<3>
    %543 = tosa.reshape %541, %542 : (tensor<1x256xf32>, !tosa.shape<3>) -> tensor<1x1x256xf32>
    %544 = tosa.const_shape  {values = dense<[1, 1, 2, 128]> : tensor<4xindex>} : () -> !tosa.shape<4>
    %545 = tosa.reshape %543, %544 : (tensor<1x1x256xf32>, !tosa.shape<4>) -> tensor<1x1x2x128xf32>
    %546 = tosa.const_shape  {values = dense<[1, 2, 1, 128]> : tensor<4xindex>} : () -> !tosa.shape<4>
    %547 = tosa.reshape %545, %546 : (tensor<1x1x2x128xf32>, !tosa.shape<4>) -> tensor<1x2x1x128xf32>
    %548 = tosa.const_shape  {values = dense<[1, 1, 1, 128]> : tensor<4xindex>} : () -> !tosa.shape<4>
    %549 = tosa.reshape %38, %548 : (tensor<1x1x128xf32>, !tosa.shape<4>) -> tensor<1x1x1x128xf32>
    %550 = tosa.const_shape  {values = dense<[1, 1, 1, 128]> : tensor<4xindex>} : () -> !tosa.shape<4>
    %551 = tosa.reshape %43, %550 : (tensor<1x1x128xf32>, !tosa.shape<4>) -> tensor<1x1x1x128xf32>
    %552 = "tosa.const"() <{values = dense<0> : tensor<1xi8>}> : () -> tensor<1xi8>
    %553 = tosa.mul %523, %549, %552 : (tensor<1x12x1x128xf32>, tensor<1x1x1x128xf32>, tensor<1xi8>) -> tensor<1x12x1x128xf32>
    %extracted_slice_130 = tensor.extract_slice %523[0, 0, 0, 0] [1, 12, 1, 64] [1, 1, 1, 1] : tensor<1x12x1x128xf32> to tensor<1x12x1x64xf32>
    %extracted_slice_131 = tensor.extract_slice %523[0, 0, 0, 64] [1, 12, 1, 64] [1, 1, 1, 1] : tensor<1x12x1x128xf32> to tensor<1x12x1x64xf32>
    %554 = "tosa.const"() <{values = dense<0.000000e+00> : tensor<1xf32>}> : () -> tensor<1xf32>
    %555 = "tosa.const"() <{values = dense<0.000000e+00> : tensor<1xf32>}> : () -> tensor<1xf32>
    %556 = tosa.negate %extracted_slice_131, %554, %555 : (tensor<1x12x1x64xf32>, tensor<1xf32>, tensor<1xf32>) -> tensor<1x12x1x64xf32>
    %557 = tensor.empty() : tensor<1x12x1x128xf32>
    %inserted_slice_132 = tensor.insert_slice %556 into %557[0, 0, 0, 0] [1, 12, 1, 64] [1, 1, 1, 1] : tensor<1x12x1x64xf32> into tensor<1x12x1x128xf32>
    %inserted_slice_133 = tensor.insert_slice %extracted_slice_130 into %inserted_slice_132[0, 0, 0, 64] [1, 12, 1, 64] [1, 1, 1, 1] : tensor<1x12x1x64xf32> into tensor<1x12x1x128xf32>
    %558 = "tosa.const"() <{values = dense<0> : tensor<1xi8>}> : () -> tensor<1xi8>
    %559 = tosa.mul %inserted_slice_133, %551, %558 : (tensor<1x12x1x128xf32>, tensor<1x1x1x128xf32>, tensor<1xi8>) -> tensor<1x12x1x128xf32>
    %560 = tosa.add %553, %559 : (tensor<1x12x1x128xf32>, tensor<1x12x1x128xf32>) -> tensor<1x12x1x128xf32>
    %561 = "tosa.const"() <{values = dense<0> : tensor<1xi8>}> : () -> tensor<1xi8>
    %562 = tosa.mul %535, %549, %561 : (tensor<1x2x1x128xf32>, tensor<1x1x1x128xf32>, tensor<1xi8>) -> tensor<1x2x1x128xf32>
    %extracted_slice_134 = tensor.extract_slice %535[0, 0, 0, 0] [1, 2, 1, 64] [1, 1, 1, 1] : tensor<1x2x1x128xf32> to tensor<1x2x1x64xf32>
    %extracted_slice_135 = tensor.extract_slice %535[0, 0, 0, 64] [1, 2, 1, 64] [1, 1, 1, 1] : tensor<1x2x1x128xf32> to tensor<1x2x1x64xf32>
    %563 = "tosa.const"() <{values = dense<0.000000e+00> : tensor<1xf32>}> : () -> tensor<1xf32>
    %564 = "tosa.const"() <{values = dense<0.000000e+00> : tensor<1xf32>}> : () -> tensor<1xf32>
    %565 = tosa.negate %extracted_slice_135, %563, %564 : (tensor<1x2x1x64xf32>, tensor<1xf32>, tensor<1xf32>) -> tensor<1x2x1x64xf32>
    %566 = tensor.empty() : tensor<1x2x1x128xf32>
    %inserted_slice_136 = tensor.insert_slice %565 into %566[0, 0, 0, 0] [1, 2, 1, 64] [1, 1, 1, 1] : tensor<1x2x1x64xf32> into tensor<1x2x1x128xf32>
    %inserted_slice_137 = tensor.insert_slice %extracted_slice_134 into %inserted_slice_136[0, 0, 0, 64] [1, 2, 1, 64] [1, 1, 1, 1] : tensor<1x2x1x64xf32> into tensor<1x2x1x128xf32>
    %567 = "tosa.const"() <{values = dense<0> : tensor<1xi8>}> : () -> tensor<1xi8>
    %568 = tosa.mul %inserted_slice_137, %551, %567 : (tensor<1x2x1x128xf32>, tensor<1x1x1x128xf32>, tensor<1xi8>) -> tensor<1x2x1x128xf32>
    %569 = tosa.add %562, %568 : (tensor<1x2x1x128xf32>, tensor<1x2x1x128xf32>) -> tensor<1x2x1x128xf32>
    %570 = bufferization.to_buffer %arg54 : tensor<1x2x1024x128xf32> to memref<1x2x1024x128xf32>
    %571 = tosa.const_shape  {values = dense<1> : tensor<4xindex>} : () -> !tosa.shape<4>
    %572 = tosa.reshape %arg3, %571 : (tensor<1xi64>, !tosa.shape<4>) -> tensor<1x1x1x1xi64>
    %573 = "tosa.const"() <{values = dense<0> : tensor<1x2x1x128xi64>}> : () -> tensor<1x2x1x128xi64>
    %574 = tosa.add %572, %573 : (tensor<1x1x1x1xi64>, tensor<1x2x1x128xi64>) -> tensor<1x2x1x128xi64>
    %575 = bufferization.to_buffer %574 : tensor<1x2x1x128xi64> to memref<1x2x1x128xi64>
    %576 = bufferization.to_buffer %569 : tensor<1x2x1x128xf32> to memref<1x2x1x128xf32>
    %c0_138 = arith.constant 0 : index
    %c1_139 = arith.constant 1 : index
    %c1_140 = arith.constant 1 : index
    %c2_141 = arith.constant 2 : index
    %c1_142 = arith.constant 1 : index
    %c128_143 = arith.constant 128 : index
    scf.for %arg399 = %c0_138 to %c1_140 step %c1_139 {
      scf.for %arg400 = %c0_138 to %c2_141 step %c1_139 {
        scf.for %arg401 = %c0_138 to %c1_142 step %c1_139 {
          scf.for %arg402 = %c0_138 to %c128_143 step %c1_139 {
            %4267 = memref.load %576[%arg399, %arg400, %arg401, %arg402] : memref<1x2x1x128xf32>
            %4268 = memref.load %575[%arg399, %arg400, %arg401, %arg402] : memref<1x2x1x128xi64>
            %4269 = arith.index_cast %4268 : i64 to index
            memref.store %4267, %570[%arg399, %arg400, %4269, %arg402] : memref<1x2x1024x128xf32>
          }
        }
      }
    }
    %577 = bufferization.to_tensor %570 restrict : memref<1x2x1024x128xf32> to tensor<1x2x1024x128xf32>
    %578 = bufferization.to_buffer %arg55 : tensor<1x2x1024x128xf32> to memref<1x2x1024x128xf32>
    %579 = tosa.const_shape  {values = dense<1> : tensor<4xindex>} : () -> !tosa.shape<4>
    %580 = tosa.reshape %arg3, %579 : (tensor<1xi64>, !tosa.shape<4>) -> tensor<1x1x1x1xi64>
    %581 = "tosa.const"() <{values = dense<0> : tensor<1x2x1x128xi64>}> : () -> tensor<1x2x1x128xi64>
    %582 = tosa.add %580, %581 : (tensor<1x1x1x1xi64>, tensor<1x2x1x128xi64>) -> tensor<1x2x1x128xi64>
    %583 = bufferization.to_buffer %582 : tensor<1x2x1x128xi64> to memref<1x2x1x128xi64>
    %584 = bufferization.to_buffer %547 : tensor<1x2x1x128xf32> to memref<1x2x1x128xf32>
    %c0_144 = arith.constant 0 : index
    %c1_145 = arith.constant 1 : index
    %c1_146 = arith.constant 1 : index
    %c2_147 = arith.constant 2 : index
    %c1_148 = arith.constant 1 : index
    %c128_149 = arith.constant 128 : index
    scf.for %arg399 = %c0_144 to %c1_146 step %c1_145 {
      scf.for %arg400 = %c0_144 to %c2_147 step %c1_145 {
        scf.for %arg401 = %c0_144 to %c1_148 step %c1_145 {
          scf.for %arg402 = %c0_144 to %c128_149 step %c1_145 {
            %4267 = memref.load %584[%arg399, %arg400, %arg401, %arg402] : memref<1x2x1x128xf32>
            %4268 = memref.load %583[%arg399, %arg400, %arg401, %arg402] : memref<1x2x1x128xi64>
            %4269 = arith.index_cast %4268 : i64 to index
            memref.store %4267, %578[%arg399, %arg400, %4269, %arg402] : memref<1x2x1024x128xf32>
          }
        }
      }
    }
    %585 = bufferization.to_tensor %578 restrict : memref<1x2x1024x128xf32> to tensor<1x2x1024x128xf32>
    %586 = tosa.const_shape  {values = dense<[1, 1, 1, 1024]> : tensor<4xindex>} : () -> !tosa.shape<4>
    %587 = tosa.reshape %17, %586 : (tensor<1x1024xi1>, !tosa.shape<4>) -> tensor<1x1x1x1024xi1>
    %cst_150 = arith.constant 0xFF800000 : f32
    %cst_151 = arith.constant 0.000000e+00 : f32
    %588 = tensor.empty() : tensor<1x1x1x1024xf32>
    %splat_152 = tensor.splat %cst_151 : tensor<1x1x1x1024xf32>
    %splat_153 = tensor.splat %cst_150 : tensor<1x1x1x1024xf32>
    %589 = linalg.generic {indexing_maps = [#map1, #map1, #map1, #map1], iterator_types = ["parallel", "parallel", "parallel", "parallel"]} ins(%587, %splat_152, %splat_153 : tensor<1x1x1x1024xi1>, tensor<1x1x1x1024xf32>, tensor<1x1x1x1024xf32>) outs(%588 : tensor<1x1x1x1024xf32>) {
    ^bb0(%in: i1, %in_1253: f32, %in_1254: f32, %out: f32):
      %4267 = arith.select %in, %in_1253, %in_1254 : f32
      linalg.yield %4267 : f32
    } -> tensor<1x1x1x1024xf32>
    %c0_154 = arith.constant 0 : index
    %cst_155 = arith.constant 1.000000e+00 : f32
    %cst_156 = arith.constant 0.0883883461 : f32
    %cst_157 = arith.constant 0.000000e+00 : f32
    %590 = vector.splat %cst_157 : vector<16xf32>
    %cst_158 = arith.constant -1.000000e+30 : f32
    %591 = bufferization.to_buffer %560 : tensor<1x12x1x128xf32> to memref<1x12x1x128xf32>
    %592 = bufferization.to_buffer %577 : tensor<1x2x1024x128xf32> to memref<1x2x1024x128xf32>
    %593 = bufferization.to_buffer %585 : tensor<1x2x1024x128xf32> to memref<1x2x1024x128xf32>
    %594 = bufferization.to_buffer %589 : tensor<1x1x1x1024xf32> to memref<1x1x1x1024xf32>
    %c1_159 = arith.constant 1 : index
    %c12_160 = arith.constant 12 : index
    %c1_161 = arith.constant 1 : index
    %c128_162 = arith.constant 128 : index
    %alloc_163 = memref.alloc() : memref<1x12x1x128xf32>
    %alloc_164 = memref.alloc() : memref<1x12x1xf32>
    %alloc_165 = memref.alloc() : memref<128xf32>
    affine.for %arg399 = 0 to #map2(%c1_159) {
      affine.for %arg400 = 0 to #map2(%c12_160) {
        %c6 = arith.constant 6 : index
        %4267 = arith.divsi %arg400, %c6 : index
        affine.for %arg401 = 0 to #map2(%c1_161) {
          affine.for %arg402 = 0 to #map2(%c128_162) {
            memref.store %cst_157, %alloc_165[%arg402] : memref<128xf32>
          }
          %c1024 = arith.constant 1024 : index
          %4268:2 = affine.for %arg402 = 0 to #map2(%c1024) iter_args(%arg403 = %cst_158, %arg404 = %cst_157) -> (f32, f32) {
            %4269 = affine.for %arg405 = 0 to #map2(%c128_162) step 16 iter_args(%arg406 = %590) -> (vector<16xf32>) {
              %4284 = vector.load %591[%arg399, %arg400, %arg401, %arg405] : memref<1x12x1x128xf32>, vector<16xf32>
              %4285 = vector.load %592[%arg399, %4267, %arg402, %arg405] : memref<1x2x1024x128xf32>, vector<16xf32>
              %4286 = vector.fma %4284, %4285, %arg406 : vector<16xf32>
              affine.yield %4286 : vector<16xf32>
            }
            %4270 = vector.reduction <add>, %4269 : vector<16xf32> into f32
            %4271 = arith.mulf %4270, %cst_156 : f32
            %4272 = memref.load %594[%arg399, %c0_154, %arg401, %arg402] : memref<1x1x1x1024xf32>
            %4273 = arith.addf %4271, %4272 : f32
            %4274 = arith.cmpf ogt, %4273, %arg403 : f32
            %4275 = arith.select %4274, %4273, %arg403 : f32
            %4276 = arith.subf %arg403, %4273 : f32
            %4277 = math.exp %4276 : f32
            %4278 = arith.mulf %4277, %arg404 : f32
            %4279 = arith.addf %4278, %cst_155 : f32
            %4280 = arith.subf %4273, %arg403 : f32
            %4281 = math.exp %4280 : f32
            %4282 = arith.addf %arg404, %4281 : f32
            %4283 = arith.select %4274, %4279, %4282 : f32
            affine.for %arg405 = 0 to #map2(%c128_162) {
              %4284 = memref.load %593[%arg399, %4267, %arg402, %arg405] : memref<1x2x1024x128xf32>
              %4285 = memref.load %alloc_165[%arg405] : memref<128xf32>
              %4286 = arith.mulf %4285, %4277 : f32
              %4287 = arith.addf %4286, %4284 : f32
              %4288 = arith.mulf %4281, %4284 : f32
              %4289 = arith.addf %4288, %4285 : f32
              %4290 = arith.select %4274, %4287, %4289 : f32
              memref.store %4290, %alloc_165[%arg405] : memref<128xf32>
            }
            affine.yield %4275, %4283 : f32, f32
          }
          memref.store %4268#1, %alloc_164[%arg399, %arg400, %arg401] : memref<1x12x1xf32>
          affine.for %arg402 = 0 to #map2(%c128_162) {
            %4269 = memref.load %alloc_165[%arg402] : memref<128xf32>
            %4270 = arith.divf %4269, %4268#1 : f32
            memref.store %4270, %alloc_163[%arg399, %arg400, %arg401, %arg402] : memref<1x12x1x128xf32>
          }
        }
      }
    }
    %595 = bufferization.to_tensor %alloc_163 restrict : memref<1x12x1x128xf32> to tensor<1x12x1x128xf32>
    %596 = bufferization.to_tensor %alloc_164 restrict : memref<1x12x1xf32> to tensor<1x12x1xf32>
    %597 = tosa.const_shape  {values = dense<[1, 1, 1536]> : tensor<3xindex>} : () -> !tosa.shape<3>
    %598 = tosa.reshape %595, %597 : (tensor<1x12x1x128xf32>, !tosa.shape<3>) -> tensor<1x1x1536xf32>
    %599 = tosa.const_shape  {values = dense<[1, 1536]> : tensor<2xindex>} : () -> !tosa.shape<2>
    %600 = tosa.reshape %598, %599 : (tensor<1x1x1536xf32>, !tosa.shape<2>) -> tensor<1x1536xf32>
    %cst_166 = arith.constant dense<0.000000e+00> : tensor<1x1536xf32>
    %601 = linalg.matmul {cast = #linalg.type_fn<cast_signed>} ins(%600, %arg56 : tensor<1x1536xf32>, tensor<1536x1536xf32>) outs(%cst_166 : tensor<1x1536xf32>) -> tensor<1x1536xf32>
    %602 = tosa.const_shape  {values = dense<[1, 1, 1536]> : tensor<3xindex>} : () -> !tosa.shape<3>
    %603 = tosa.reshape %601, %602 : (tensor<1x1536xf32>, !tosa.shape<3>) -> tensor<1x1x1536xf32>
    %604 = tosa.add %493, %603 : (tensor<1x1x1536xf32>, tensor<1x1x1536xf32>) -> tensor<1x1x1536xf32>
    %605 = tensor.empty() : tensor<1x1x1536xf32>
    %c2_i32_167 = arith.constant 2 : i32
    %606 = linalg.generic {indexing_maps = [#map, #map], iterator_types = ["parallel", "parallel", "parallel"]} ins(%604 : tensor<1x1x1536xf32>) outs(%605 : tensor<1x1x1536xf32>) {
    ^bb0(%in: f32, %out: f32):
      %4267 = math.fpowi %in, %c2_i32_167 : f32, i32
      linalg.yield %4267 : f32
    } -> tensor<1x1x1536xf32>
    %607 = tosa.reduce_sum %606 {axis = 2 : i32} : (tensor<1x1x1536xf32>) -> tensor<1x1x1xf32>
    %608 = "tosa.const"() <{values = dense<1.536000e+03> : tensor<1xf32>}> : () -> tensor<1xf32>
    %609 = tosa.reciprocal %608 : (tensor<1xf32>) -> tensor<1xf32>
    %610 = tosa.const_shape  {values = dense<1> : tensor<3xindex>} : () -> !tosa.shape<3>
    %611 = tosa.reshape %609, %610 : (tensor<1xf32>, !tosa.shape<3>) -> tensor<1x1x1xf32>
    %612 = "tosa.const"() <{values = dense<0> : tensor<1xi8>}> : () -> tensor<1xi8>
    %613 = tosa.mul %611, %607, %612 : (tensor<1x1x1xf32>, tensor<1x1x1xf32>, tensor<1xi8>) -> tensor<1x1x1xf32>
    %614 = "tosa.const"() <{values = dense<9.99999997E-7> : tensor<1x1x1xf32>}> : () -> tensor<1x1x1xf32>
    %615 = tosa.add %613, %614 : (tensor<1x1x1xf32>, tensor<1x1x1xf32>) -> tensor<1x1x1xf32>
    %616 = tosa.rsqrt %615 : (tensor<1x1x1xf32>) -> tensor<1x1x1xf32>
    %617 = "tosa.const"() <{values = dense<0> : tensor<1xi8>}> : () -> tensor<1xi8>
    %618 = tosa.mul %604, %616, %617 : (tensor<1x1x1536xf32>, tensor<1x1x1xf32>, tensor<1xi8>) -> tensor<1x1x1536xf32>
    %619 = tosa.const_shape  {values = dense<[1, 1, 1536]> : tensor<3xindex>} : () -> !tosa.shape<3>
    %620 = tosa.reshape %arg57, %619 : (tensor<1536xf32>, !tosa.shape<3>) -> tensor<1x1x1536xf32>
    %621 = "tosa.const"() <{values = dense<0> : tensor<1xi8>}> : () -> tensor<1xi8>
    %622 = tosa.mul %620, %618, %621 : (tensor<1x1x1536xf32>, tensor<1x1x1536xf32>, tensor<1xi8>) -> tensor<1x1x1536xf32>
    %623 = tosa.const_shape  {values = dense<[1, 1536]> : tensor<2xindex>} : () -> !tosa.shape<2>
    %624 = tosa.reshape %622, %623 : (tensor<1x1x1536xf32>, !tosa.shape<2>) -> tensor<1x1536xf32>
    %cst_168 = arith.constant dense<0.000000e+00> : tensor<1x8960xf32>
    %625 = linalg.matmul {cast = #linalg.type_fn<cast_signed>} ins(%624, %arg58 : tensor<1x1536xf32>, tensor<1536x8960xf32>) outs(%cst_168 : tensor<1x8960xf32>) -> tensor<1x8960xf32>
    %626 = tosa.const_shape  {values = dense<[1, 1, 8960]> : tensor<3xindex>} : () -> !tosa.shape<3>
    %627 = tosa.reshape %625, %626 : (tensor<1x8960xf32>, !tosa.shape<3>) -> tensor<1x1x8960xf32>
    %628 = tosa.sigmoid %627 : (tensor<1x1x8960xf32>) -> tensor<1x1x8960xf32>
    %629 = "tosa.const"() <{values = dense<0> : tensor<1xi8>}> : () -> tensor<1xi8>
    %630 = tosa.mul %627, %628, %629 : (tensor<1x1x8960xf32>, tensor<1x1x8960xf32>, tensor<1xi8>) -> tensor<1x1x8960xf32>
    %631 = tosa.const_shape  {values = dense<[1, 1536]> : tensor<2xindex>} : () -> !tosa.shape<2>
    %632 = tosa.reshape %622, %631 : (tensor<1x1x1536xf32>, !tosa.shape<2>) -> tensor<1x1536xf32>
    %cst_169 = arith.constant dense<0.000000e+00> : tensor<1x8960xf32>
    %633 = linalg.matmul {cast = #linalg.type_fn<cast_signed>} ins(%632, %arg59 : tensor<1x1536xf32>, tensor<1536x8960xf32>) outs(%cst_169 : tensor<1x8960xf32>) -> tensor<1x8960xf32>
    %634 = tosa.const_shape  {values = dense<[1, 1, 8960]> : tensor<3xindex>} : () -> !tosa.shape<3>
    %635 = tosa.reshape %633, %634 : (tensor<1x8960xf32>, !tosa.shape<3>) -> tensor<1x1x8960xf32>
    %636 = "tosa.const"() <{values = dense<0> : tensor<1xi8>}> : () -> tensor<1xi8>
    %637 = tosa.mul %630, %635, %636 : (tensor<1x1x8960xf32>, tensor<1x1x8960xf32>, tensor<1xi8>) -> tensor<1x1x8960xf32>
    %638 = tosa.const_shape  {values = dense<[1, 8960]> : tensor<2xindex>} : () -> !tosa.shape<2>
    %639 = tosa.reshape %637, %638 : (tensor<1x1x8960xf32>, !tosa.shape<2>) -> tensor<1x8960xf32>
    %cst_170 = arith.constant dense<0.000000e+00> : tensor<1x1536xf32>
    %640 = linalg.matmul {cast = #linalg.type_fn<cast_signed>} ins(%639, %arg60 : tensor<1x8960xf32>, tensor<8960x1536xf32>) outs(%cst_170 : tensor<1x1536xf32>) -> tensor<1x1536xf32>
    %641 = tosa.const_shape  {values = dense<[1, 1, 1536]> : tensor<3xindex>} : () -> !tosa.shape<3>
    %642 = tosa.reshape %640, %641 : (tensor<1x1536xf32>, !tosa.shape<3>) -> tensor<1x1x1536xf32>
    %643 = tosa.add %604, %642 : (tensor<1x1x1536xf32>, tensor<1x1x1536xf32>) -> tensor<1x1x1536xf32>
    %644 = tensor.empty() : tensor<1x1x1536xf32>
    %c2_i32_171 = arith.constant 2 : i32
    %645 = linalg.generic {indexing_maps = [#map, #map], iterator_types = ["parallel", "parallel", "parallel"]} ins(%643 : tensor<1x1x1536xf32>) outs(%644 : tensor<1x1x1536xf32>) {
    ^bb0(%in: f32, %out: f32):
      %4267 = math.fpowi %in, %c2_i32_171 : f32, i32
      linalg.yield %4267 : f32
    } -> tensor<1x1x1536xf32>
    %646 = tosa.reduce_sum %645 {axis = 2 : i32} : (tensor<1x1x1536xf32>) -> tensor<1x1x1xf32>
    %647 = "tosa.const"() <{values = dense<1.536000e+03> : tensor<1xf32>}> : () -> tensor<1xf32>
    %648 = tosa.reciprocal %647 : (tensor<1xf32>) -> tensor<1xf32>
    %649 = tosa.const_shape  {values = dense<1> : tensor<3xindex>} : () -> !tosa.shape<3>
    %650 = tosa.reshape %648, %649 : (tensor<1xf32>, !tosa.shape<3>) -> tensor<1x1x1xf32>
    %651 = "tosa.const"() <{values = dense<0> : tensor<1xi8>}> : () -> tensor<1xi8>
    %652 = tosa.mul %650, %646, %651 : (tensor<1x1x1xf32>, tensor<1x1x1xf32>, tensor<1xi8>) -> tensor<1x1x1xf32>
    %653 = "tosa.const"() <{values = dense<9.99999997E-7> : tensor<1x1x1xf32>}> : () -> tensor<1x1x1xf32>
    %654 = tosa.add %652, %653 : (tensor<1x1x1xf32>, tensor<1x1x1xf32>) -> tensor<1x1x1xf32>
    %655 = tosa.rsqrt %654 : (tensor<1x1x1xf32>) -> tensor<1x1x1xf32>
    %656 = "tosa.const"() <{values = dense<0> : tensor<1xi8>}> : () -> tensor<1xi8>
    %657 = tosa.mul %643, %655, %656 : (tensor<1x1x1536xf32>, tensor<1x1x1xf32>, tensor<1xi8>) -> tensor<1x1x1536xf32>
    %658 = tosa.const_shape  {values = dense<[1, 1, 1536]> : tensor<3xindex>} : () -> !tosa.shape<3>
    %659 = tosa.reshape %arg61, %658 : (tensor<1536xf32>, !tosa.shape<3>) -> tensor<1x1x1536xf32>
    %660 = "tosa.const"() <{values = dense<0> : tensor<1xi8>}> : () -> tensor<1xi8>
    %661 = tosa.mul %659, %657, %660 : (tensor<1x1x1536xf32>, tensor<1x1x1536xf32>, tensor<1xi8>) -> tensor<1x1x1536xf32>
    %662 = tosa.const_shape  {values = dense<[1, 1536]> : tensor<2xindex>} : () -> !tosa.shape<2>
    %663 = tosa.reshape %661, %662 : (tensor<1x1x1536xf32>, !tosa.shape<2>) -> tensor<1x1536xf32>
    %cst_172 = arith.constant dense<0.000000e+00> : tensor<1x1536xf32>
    %664 = linalg.matmul {cast = #linalg.type_fn<cast_signed>} ins(%663, %arg63 : tensor<1x1536xf32>, tensor<1536x1536xf32>) outs(%cst_172 : tensor<1x1536xf32>) -> tensor<1x1536xf32>
    %665 = tosa.const_shape  {values = dense<[1, 1536]> : tensor<2xindex>} : () -> !tosa.shape<2>
    %666 = tosa.reshape %arg62, %665 : (tensor<1536xf32>, !tosa.shape<2>) -> tensor<1x1536xf32>
    %667 = tosa.add %666, %664 : (tensor<1x1536xf32>, tensor<1x1536xf32>) -> tensor<1x1536xf32>
    %668 = tosa.const_shape  {values = dense<[1, 1, 1536]> : tensor<3xindex>} : () -> !tosa.shape<3>
    %669 = tosa.reshape %667, %668 : (tensor<1x1536xf32>, !tosa.shape<3>) -> tensor<1x1x1536xf32>
    %670 = tosa.const_shape  {values = dense<[1, 1, 12, 128]> : tensor<4xindex>} : () -> !tosa.shape<4>
    %671 = tosa.reshape %669, %670 : (tensor<1x1x1536xf32>, !tosa.shape<4>) -> tensor<1x1x12x128xf32>
    %672 = tosa.const_shape  {values = dense<[1, 12, 1, 128]> : tensor<4xindex>} : () -> !tosa.shape<4>
    %673 = tosa.reshape %671, %672 : (tensor<1x1x12x128xf32>, !tosa.shape<4>) -> tensor<1x12x1x128xf32>
    %674 = tosa.const_shape  {values = dense<[1, 1536]> : tensor<2xindex>} : () -> !tosa.shape<2>
    %675 = tosa.reshape %661, %674 : (tensor<1x1x1536xf32>, !tosa.shape<2>) -> tensor<1x1536xf32>
    %cst_173 = arith.constant dense<0.000000e+00> : tensor<1x256xf32>
    %676 = linalg.matmul {cast = #linalg.type_fn<cast_signed>} ins(%675, %arg65 : tensor<1x1536xf32>, tensor<1536x256xf32>) outs(%cst_173 : tensor<1x256xf32>) -> tensor<1x256xf32>
    %677 = tosa.const_shape  {values = dense<[1, 256]> : tensor<2xindex>} : () -> !tosa.shape<2>
    %678 = tosa.reshape %arg64, %677 : (tensor<256xf32>, !tosa.shape<2>) -> tensor<1x256xf32>
    %679 = tosa.add %678, %676 : (tensor<1x256xf32>, tensor<1x256xf32>) -> tensor<1x256xf32>
    %680 = tosa.const_shape  {values = dense<[1, 1, 256]> : tensor<3xindex>} : () -> !tosa.shape<3>
    %681 = tosa.reshape %679, %680 : (tensor<1x256xf32>, !tosa.shape<3>) -> tensor<1x1x256xf32>
    %682 = tosa.const_shape  {values = dense<[1, 1, 2, 128]> : tensor<4xindex>} : () -> !tosa.shape<4>
    %683 = tosa.reshape %681, %682 : (tensor<1x1x256xf32>, !tosa.shape<4>) -> tensor<1x1x2x128xf32>
    %684 = tosa.const_shape  {values = dense<[1, 2, 1, 128]> : tensor<4xindex>} : () -> !tosa.shape<4>
    %685 = tosa.reshape %683, %684 : (tensor<1x1x2x128xf32>, !tosa.shape<4>) -> tensor<1x2x1x128xf32>
    %686 = tosa.const_shape  {values = dense<[1, 1536]> : tensor<2xindex>} : () -> !tosa.shape<2>
    %687 = tosa.reshape %661, %686 : (tensor<1x1x1536xf32>, !tosa.shape<2>) -> tensor<1x1536xf32>
    %cst_174 = arith.constant dense<0.000000e+00> : tensor<1x256xf32>
    %688 = linalg.matmul {cast = #linalg.type_fn<cast_signed>} ins(%687, %arg67 : tensor<1x1536xf32>, tensor<1536x256xf32>) outs(%cst_174 : tensor<1x256xf32>) -> tensor<1x256xf32>
    %689 = tosa.const_shape  {values = dense<[1, 256]> : tensor<2xindex>} : () -> !tosa.shape<2>
    %690 = tosa.reshape %arg66, %689 : (tensor<256xf32>, !tosa.shape<2>) -> tensor<1x256xf32>
    %691 = tosa.add %690, %688 : (tensor<1x256xf32>, tensor<1x256xf32>) -> tensor<1x256xf32>
    %692 = tosa.const_shape  {values = dense<[1, 1, 256]> : tensor<3xindex>} : () -> !tosa.shape<3>
    %693 = tosa.reshape %691, %692 : (tensor<1x256xf32>, !tosa.shape<3>) -> tensor<1x1x256xf32>
    %694 = tosa.const_shape  {values = dense<[1, 1, 2, 128]> : tensor<4xindex>} : () -> !tosa.shape<4>
    %695 = tosa.reshape %693, %694 : (tensor<1x1x256xf32>, !tosa.shape<4>) -> tensor<1x1x2x128xf32>
    %696 = tosa.const_shape  {values = dense<[1, 2, 1, 128]> : tensor<4xindex>} : () -> !tosa.shape<4>
    %697 = tosa.reshape %695, %696 : (tensor<1x1x2x128xf32>, !tosa.shape<4>) -> tensor<1x2x1x128xf32>
    %698 = tosa.const_shape  {values = dense<[1, 1, 1, 128]> : tensor<4xindex>} : () -> !tosa.shape<4>
    %699 = tosa.reshape %38, %698 : (tensor<1x1x128xf32>, !tosa.shape<4>) -> tensor<1x1x1x128xf32>
    %700 = tosa.const_shape  {values = dense<[1, 1, 1, 128]> : tensor<4xindex>} : () -> !tosa.shape<4>
    %701 = tosa.reshape %43, %700 : (tensor<1x1x128xf32>, !tosa.shape<4>) -> tensor<1x1x1x128xf32>
    %702 = "tosa.const"() <{values = dense<0> : tensor<1xi8>}> : () -> tensor<1xi8>
    %703 = tosa.mul %673, %699, %702 : (tensor<1x12x1x128xf32>, tensor<1x1x1x128xf32>, tensor<1xi8>) -> tensor<1x12x1x128xf32>
    %extracted_slice_175 = tensor.extract_slice %673[0, 0, 0, 0] [1, 12, 1, 64] [1, 1, 1, 1] : tensor<1x12x1x128xf32> to tensor<1x12x1x64xf32>
    %extracted_slice_176 = tensor.extract_slice %673[0, 0, 0, 64] [1, 12, 1, 64] [1, 1, 1, 1] : tensor<1x12x1x128xf32> to tensor<1x12x1x64xf32>
    %704 = "tosa.const"() <{values = dense<0.000000e+00> : tensor<1xf32>}> : () -> tensor<1xf32>
    %705 = "tosa.const"() <{values = dense<0.000000e+00> : tensor<1xf32>}> : () -> tensor<1xf32>
    %706 = tosa.negate %extracted_slice_176, %704, %705 : (tensor<1x12x1x64xf32>, tensor<1xf32>, tensor<1xf32>) -> tensor<1x12x1x64xf32>
    %707 = tensor.empty() : tensor<1x12x1x128xf32>
    %inserted_slice_177 = tensor.insert_slice %706 into %707[0, 0, 0, 0] [1, 12, 1, 64] [1, 1, 1, 1] : tensor<1x12x1x64xf32> into tensor<1x12x1x128xf32>
    %inserted_slice_178 = tensor.insert_slice %extracted_slice_175 into %inserted_slice_177[0, 0, 0, 64] [1, 12, 1, 64] [1, 1, 1, 1] : tensor<1x12x1x64xf32> into tensor<1x12x1x128xf32>
    %708 = "tosa.const"() <{values = dense<0> : tensor<1xi8>}> : () -> tensor<1xi8>
    %709 = tosa.mul %inserted_slice_178, %701, %708 : (tensor<1x12x1x128xf32>, tensor<1x1x1x128xf32>, tensor<1xi8>) -> tensor<1x12x1x128xf32>
    %710 = tosa.add %703, %709 : (tensor<1x12x1x128xf32>, tensor<1x12x1x128xf32>) -> tensor<1x12x1x128xf32>
    %711 = "tosa.const"() <{values = dense<0> : tensor<1xi8>}> : () -> tensor<1xi8>
    %712 = tosa.mul %685, %699, %711 : (tensor<1x2x1x128xf32>, tensor<1x1x1x128xf32>, tensor<1xi8>) -> tensor<1x2x1x128xf32>
    %extracted_slice_179 = tensor.extract_slice %685[0, 0, 0, 0] [1, 2, 1, 64] [1, 1, 1, 1] : tensor<1x2x1x128xf32> to tensor<1x2x1x64xf32>
    %extracted_slice_180 = tensor.extract_slice %685[0, 0, 0, 64] [1, 2, 1, 64] [1, 1, 1, 1] : tensor<1x2x1x128xf32> to tensor<1x2x1x64xf32>
    %713 = "tosa.const"() <{values = dense<0.000000e+00> : tensor<1xf32>}> : () -> tensor<1xf32>
    %714 = "tosa.const"() <{values = dense<0.000000e+00> : tensor<1xf32>}> : () -> tensor<1xf32>
    %715 = tosa.negate %extracted_slice_180, %713, %714 : (tensor<1x2x1x64xf32>, tensor<1xf32>, tensor<1xf32>) -> tensor<1x2x1x64xf32>
    %716 = tensor.empty() : tensor<1x2x1x128xf32>
    %inserted_slice_181 = tensor.insert_slice %715 into %716[0, 0, 0, 0] [1, 2, 1, 64] [1, 1, 1, 1] : tensor<1x2x1x64xf32> into tensor<1x2x1x128xf32>
    %inserted_slice_182 = tensor.insert_slice %extracted_slice_179 into %inserted_slice_181[0, 0, 0, 64] [1, 2, 1, 64] [1, 1, 1, 1] : tensor<1x2x1x64xf32> into tensor<1x2x1x128xf32>
    %717 = "tosa.const"() <{values = dense<0> : tensor<1xi8>}> : () -> tensor<1xi8>
    %718 = tosa.mul %inserted_slice_182, %701, %717 : (tensor<1x2x1x128xf32>, tensor<1x1x1x128xf32>, tensor<1xi8>) -> tensor<1x2x1x128xf32>
    %719 = tosa.add %712, %718 : (tensor<1x2x1x128xf32>, tensor<1x2x1x128xf32>) -> tensor<1x2x1x128xf32>
    %720 = bufferization.to_buffer %arg68 : tensor<1x2x1024x128xf32> to memref<1x2x1024x128xf32>
    %721 = tosa.const_shape  {values = dense<1> : tensor<4xindex>} : () -> !tosa.shape<4>
    %722 = tosa.reshape %arg3, %721 : (tensor<1xi64>, !tosa.shape<4>) -> tensor<1x1x1x1xi64>
    %723 = "tosa.const"() <{values = dense<0> : tensor<1x2x1x128xi64>}> : () -> tensor<1x2x1x128xi64>
    %724 = tosa.add %722, %723 : (tensor<1x1x1x1xi64>, tensor<1x2x1x128xi64>) -> tensor<1x2x1x128xi64>
    %725 = bufferization.to_buffer %724 : tensor<1x2x1x128xi64> to memref<1x2x1x128xi64>
    %726 = bufferization.to_buffer %719 : tensor<1x2x1x128xf32> to memref<1x2x1x128xf32>
    %c0_183 = arith.constant 0 : index
    %c1_184 = arith.constant 1 : index
    %c1_185 = arith.constant 1 : index
    %c2_186 = arith.constant 2 : index
    %c1_187 = arith.constant 1 : index
    %c128_188 = arith.constant 128 : index
    scf.for %arg399 = %c0_183 to %c1_185 step %c1_184 {
      scf.for %arg400 = %c0_183 to %c2_186 step %c1_184 {
        scf.for %arg401 = %c0_183 to %c1_187 step %c1_184 {
          scf.for %arg402 = %c0_183 to %c128_188 step %c1_184 {
            %4267 = memref.load %726[%arg399, %arg400, %arg401, %arg402] : memref<1x2x1x128xf32>
            %4268 = memref.load %725[%arg399, %arg400, %arg401, %arg402] : memref<1x2x1x128xi64>
            %4269 = arith.index_cast %4268 : i64 to index
            memref.store %4267, %720[%arg399, %arg400, %4269, %arg402] : memref<1x2x1024x128xf32>
          }
        }
      }
    }
    %727 = bufferization.to_tensor %720 restrict : memref<1x2x1024x128xf32> to tensor<1x2x1024x128xf32>
    %728 = bufferization.to_buffer %arg69 : tensor<1x2x1024x128xf32> to memref<1x2x1024x128xf32>
    %729 = tosa.const_shape  {values = dense<1> : tensor<4xindex>} : () -> !tosa.shape<4>
    %730 = tosa.reshape %arg3, %729 : (tensor<1xi64>, !tosa.shape<4>) -> tensor<1x1x1x1xi64>
    %731 = "tosa.const"() <{values = dense<0> : tensor<1x2x1x128xi64>}> : () -> tensor<1x2x1x128xi64>
    %732 = tosa.add %730, %731 : (tensor<1x1x1x1xi64>, tensor<1x2x1x128xi64>) -> tensor<1x2x1x128xi64>
    %733 = bufferization.to_buffer %732 : tensor<1x2x1x128xi64> to memref<1x2x1x128xi64>
    %734 = bufferization.to_buffer %697 : tensor<1x2x1x128xf32> to memref<1x2x1x128xf32>
    %c0_189 = arith.constant 0 : index
    %c1_190 = arith.constant 1 : index
    %c1_191 = arith.constant 1 : index
    %c2_192 = arith.constant 2 : index
    %c1_193 = arith.constant 1 : index
    %c128_194 = arith.constant 128 : index
    scf.for %arg399 = %c0_189 to %c1_191 step %c1_190 {
      scf.for %arg400 = %c0_189 to %c2_192 step %c1_190 {
        scf.for %arg401 = %c0_189 to %c1_193 step %c1_190 {
          scf.for %arg402 = %c0_189 to %c128_194 step %c1_190 {
            %4267 = memref.load %734[%arg399, %arg400, %arg401, %arg402] : memref<1x2x1x128xf32>
            %4268 = memref.load %733[%arg399, %arg400, %arg401, %arg402] : memref<1x2x1x128xi64>
            %4269 = arith.index_cast %4268 : i64 to index
            memref.store %4267, %728[%arg399, %arg400, %4269, %arg402] : memref<1x2x1024x128xf32>
          }
        }
      }
    }
    %735 = bufferization.to_tensor %728 restrict : memref<1x2x1024x128xf32> to tensor<1x2x1024x128xf32>
    %736 = tosa.const_shape  {values = dense<[1, 1, 1, 1024]> : tensor<4xindex>} : () -> !tosa.shape<4>
    %737 = tosa.reshape %17, %736 : (tensor<1x1024xi1>, !tosa.shape<4>) -> tensor<1x1x1x1024xi1>
    %cst_195 = arith.constant 0xFF800000 : f32
    %cst_196 = arith.constant 0.000000e+00 : f32
    %738 = tensor.empty() : tensor<1x1x1x1024xf32>
    %splat_197 = tensor.splat %cst_196 : tensor<1x1x1x1024xf32>
    %splat_198 = tensor.splat %cst_195 : tensor<1x1x1x1024xf32>
    %739 = linalg.generic {indexing_maps = [#map1, #map1, #map1, #map1], iterator_types = ["parallel", "parallel", "parallel", "parallel"]} ins(%737, %splat_197, %splat_198 : tensor<1x1x1x1024xi1>, tensor<1x1x1x1024xf32>, tensor<1x1x1x1024xf32>) outs(%738 : tensor<1x1x1x1024xf32>) {
    ^bb0(%in: i1, %in_1253: f32, %in_1254: f32, %out: f32):
      %4267 = arith.select %in, %in_1253, %in_1254 : f32
      linalg.yield %4267 : f32
    } -> tensor<1x1x1x1024xf32>
    %c0_199 = arith.constant 0 : index
    %cst_200 = arith.constant 1.000000e+00 : f32
    %cst_201 = arith.constant 0.0883883461 : f32
    %cst_202 = arith.constant 0.000000e+00 : f32
    %740 = vector.splat %cst_202 : vector<16xf32>
    %cst_203 = arith.constant -1.000000e+30 : f32
    %741 = bufferization.to_buffer %710 : tensor<1x12x1x128xf32> to memref<1x12x1x128xf32>
    %742 = bufferization.to_buffer %727 : tensor<1x2x1024x128xf32> to memref<1x2x1024x128xf32>
    %743 = bufferization.to_buffer %735 : tensor<1x2x1024x128xf32> to memref<1x2x1024x128xf32>
    %744 = bufferization.to_buffer %739 : tensor<1x1x1x1024xf32> to memref<1x1x1x1024xf32>
    %c1_204 = arith.constant 1 : index
    %c12_205 = arith.constant 12 : index
    %c1_206 = arith.constant 1 : index
    %c128_207 = arith.constant 128 : index
    %alloc_208 = memref.alloc() : memref<1x12x1x128xf32>
    %alloc_209 = memref.alloc() : memref<1x12x1xf32>
    %alloc_210 = memref.alloc() : memref<128xf32>
    affine.for %arg399 = 0 to #map2(%c1_204) {
      affine.for %arg400 = 0 to #map2(%c12_205) {
        %c6 = arith.constant 6 : index
        %4267 = arith.divsi %arg400, %c6 : index
        affine.for %arg401 = 0 to #map2(%c1_206) {
          affine.for %arg402 = 0 to #map2(%c128_207) {
            memref.store %cst_202, %alloc_210[%arg402] : memref<128xf32>
          }
          %c1024 = arith.constant 1024 : index
          %4268:2 = affine.for %arg402 = 0 to #map2(%c1024) iter_args(%arg403 = %cst_203, %arg404 = %cst_202) -> (f32, f32) {
            %4269 = affine.for %arg405 = 0 to #map2(%c128_207) step 16 iter_args(%arg406 = %740) -> (vector<16xf32>) {
              %4284 = vector.load %741[%arg399, %arg400, %arg401, %arg405] : memref<1x12x1x128xf32>, vector<16xf32>
              %4285 = vector.load %742[%arg399, %4267, %arg402, %arg405] : memref<1x2x1024x128xf32>, vector<16xf32>
              %4286 = vector.fma %4284, %4285, %arg406 : vector<16xf32>
              affine.yield %4286 : vector<16xf32>
            }
            %4270 = vector.reduction <add>, %4269 : vector<16xf32> into f32
            %4271 = arith.mulf %4270, %cst_201 : f32
            %4272 = memref.load %744[%arg399, %c0_199, %arg401, %arg402] : memref<1x1x1x1024xf32>
            %4273 = arith.addf %4271, %4272 : f32
            %4274 = arith.cmpf ogt, %4273, %arg403 : f32
            %4275 = arith.select %4274, %4273, %arg403 : f32
            %4276 = arith.subf %arg403, %4273 : f32
            %4277 = math.exp %4276 : f32
            %4278 = arith.mulf %4277, %arg404 : f32
            %4279 = arith.addf %4278, %cst_200 : f32
            %4280 = arith.subf %4273, %arg403 : f32
            %4281 = math.exp %4280 : f32
            %4282 = arith.addf %arg404, %4281 : f32
            %4283 = arith.select %4274, %4279, %4282 : f32
            affine.for %arg405 = 0 to #map2(%c128_207) {
              %4284 = memref.load %743[%arg399, %4267, %arg402, %arg405] : memref<1x2x1024x128xf32>
              %4285 = memref.load %alloc_210[%arg405] : memref<128xf32>
              %4286 = arith.mulf %4285, %4277 : f32
              %4287 = arith.addf %4286, %4284 : f32
              %4288 = arith.mulf %4281, %4284 : f32
              %4289 = arith.addf %4288, %4285 : f32
              %4290 = arith.select %4274, %4287, %4289 : f32
              memref.store %4290, %alloc_210[%arg405] : memref<128xf32>
            }
            affine.yield %4275, %4283 : f32, f32
          }
          memref.store %4268#1, %alloc_209[%arg399, %arg400, %arg401] : memref<1x12x1xf32>
          affine.for %arg402 = 0 to #map2(%c128_207) {
            %4269 = memref.load %alloc_210[%arg402] : memref<128xf32>
            %4270 = arith.divf %4269, %4268#1 : f32
            memref.store %4270, %alloc_208[%arg399, %arg400, %arg401, %arg402] : memref<1x12x1x128xf32>
          }
        }
      }
    }
    %745 = bufferization.to_tensor %alloc_208 restrict : memref<1x12x1x128xf32> to tensor<1x12x1x128xf32>
    %746 = bufferization.to_tensor %alloc_209 restrict : memref<1x12x1xf32> to tensor<1x12x1xf32>
    %747 = tosa.const_shape  {values = dense<[1, 1, 1536]> : tensor<3xindex>} : () -> !tosa.shape<3>
    %748 = tosa.reshape %745, %747 : (tensor<1x12x1x128xf32>, !tosa.shape<3>) -> tensor<1x1x1536xf32>
    %749 = tosa.const_shape  {values = dense<[1, 1536]> : tensor<2xindex>} : () -> !tosa.shape<2>
    %750 = tosa.reshape %748, %749 : (tensor<1x1x1536xf32>, !tosa.shape<2>) -> tensor<1x1536xf32>
    %cst_211 = arith.constant dense<0.000000e+00> : tensor<1x1536xf32>
    %751 = linalg.matmul {cast = #linalg.type_fn<cast_signed>} ins(%750, %arg70 : tensor<1x1536xf32>, tensor<1536x1536xf32>) outs(%cst_211 : tensor<1x1536xf32>) -> tensor<1x1536xf32>
    %752 = tosa.const_shape  {values = dense<[1, 1, 1536]> : tensor<3xindex>} : () -> !tosa.shape<3>
    %753 = tosa.reshape %751, %752 : (tensor<1x1536xf32>, !tosa.shape<3>) -> tensor<1x1x1536xf32>
    %754 = tosa.add %643, %753 : (tensor<1x1x1536xf32>, tensor<1x1x1536xf32>) -> tensor<1x1x1536xf32>
    %755 = tensor.empty() : tensor<1x1x1536xf32>
    %c2_i32_212 = arith.constant 2 : i32
    %756 = linalg.generic {indexing_maps = [#map, #map], iterator_types = ["parallel", "parallel", "parallel"]} ins(%754 : tensor<1x1x1536xf32>) outs(%755 : tensor<1x1x1536xf32>) {
    ^bb0(%in: f32, %out: f32):
      %4267 = math.fpowi %in, %c2_i32_212 : f32, i32
      linalg.yield %4267 : f32
    } -> tensor<1x1x1536xf32>
    %757 = tosa.reduce_sum %756 {axis = 2 : i32} : (tensor<1x1x1536xf32>) -> tensor<1x1x1xf32>
    %758 = "tosa.const"() <{values = dense<1.536000e+03> : tensor<1xf32>}> : () -> tensor<1xf32>
    %759 = tosa.reciprocal %758 : (tensor<1xf32>) -> tensor<1xf32>
    %760 = tosa.const_shape  {values = dense<1> : tensor<3xindex>} : () -> !tosa.shape<3>
    %761 = tosa.reshape %759, %760 : (tensor<1xf32>, !tosa.shape<3>) -> tensor<1x1x1xf32>
    %762 = "tosa.const"() <{values = dense<0> : tensor<1xi8>}> : () -> tensor<1xi8>
    %763 = tosa.mul %761, %757, %762 : (tensor<1x1x1xf32>, tensor<1x1x1xf32>, tensor<1xi8>) -> tensor<1x1x1xf32>
    %764 = "tosa.const"() <{values = dense<9.99999997E-7> : tensor<1x1x1xf32>}> : () -> tensor<1x1x1xf32>
    %765 = tosa.add %763, %764 : (tensor<1x1x1xf32>, tensor<1x1x1xf32>) -> tensor<1x1x1xf32>
    %766 = tosa.rsqrt %765 : (tensor<1x1x1xf32>) -> tensor<1x1x1xf32>
    %767 = "tosa.const"() <{values = dense<0> : tensor<1xi8>}> : () -> tensor<1xi8>
    %768 = tosa.mul %754, %766, %767 : (tensor<1x1x1536xf32>, tensor<1x1x1xf32>, tensor<1xi8>) -> tensor<1x1x1536xf32>
    %769 = tosa.const_shape  {values = dense<[1, 1, 1536]> : tensor<3xindex>} : () -> !tosa.shape<3>
    %770 = tosa.reshape %arg71, %769 : (tensor<1536xf32>, !tosa.shape<3>) -> tensor<1x1x1536xf32>
    %771 = "tosa.const"() <{values = dense<0> : tensor<1xi8>}> : () -> tensor<1xi8>
    %772 = tosa.mul %770, %768, %771 : (tensor<1x1x1536xf32>, tensor<1x1x1536xf32>, tensor<1xi8>) -> tensor<1x1x1536xf32>
    %773 = tosa.const_shape  {values = dense<[1, 1536]> : tensor<2xindex>} : () -> !tosa.shape<2>
    %774 = tosa.reshape %772, %773 : (tensor<1x1x1536xf32>, !tosa.shape<2>) -> tensor<1x1536xf32>
    %cst_213 = arith.constant dense<0.000000e+00> : tensor<1x8960xf32>
    %775 = linalg.matmul {cast = #linalg.type_fn<cast_signed>} ins(%774, %arg72 : tensor<1x1536xf32>, tensor<1536x8960xf32>) outs(%cst_213 : tensor<1x8960xf32>) -> tensor<1x8960xf32>
    %776 = tosa.const_shape  {values = dense<[1, 1, 8960]> : tensor<3xindex>} : () -> !tosa.shape<3>
    %777 = tosa.reshape %775, %776 : (tensor<1x8960xf32>, !tosa.shape<3>) -> tensor<1x1x8960xf32>
    %778 = tosa.sigmoid %777 : (tensor<1x1x8960xf32>) -> tensor<1x1x8960xf32>
    %779 = "tosa.const"() <{values = dense<0> : tensor<1xi8>}> : () -> tensor<1xi8>
    %780 = tosa.mul %777, %778, %779 : (tensor<1x1x8960xf32>, tensor<1x1x8960xf32>, tensor<1xi8>) -> tensor<1x1x8960xf32>
    %781 = tosa.const_shape  {values = dense<[1, 1536]> : tensor<2xindex>} : () -> !tosa.shape<2>
    %782 = tosa.reshape %772, %781 : (tensor<1x1x1536xf32>, !tosa.shape<2>) -> tensor<1x1536xf32>
    %cst_214 = arith.constant dense<0.000000e+00> : tensor<1x8960xf32>
    %783 = linalg.matmul {cast = #linalg.type_fn<cast_signed>} ins(%782, %arg73 : tensor<1x1536xf32>, tensor<1536x8960xf32>) outs(%cst_214 : tensor<1x8960xf32>) -> tensor<1x8960xf32>
    %784 = tosa.const_shape  {values = dense<[1, 1, 8960]> : tensor<3xindex>} : () -> !tosa.shape<3>
    %785 = tosa.reshape %783, %784 : (tensor<1x8960xf32>, !tosa.shape<3>) -> tensor<1x1x8960xf32>
    %786 = "tosa.const"() <{values = dense<0> : tensor<1xi8>}> : () -> tensor<1xi8>
    %787 = tosa.mul %780, %785, %786 : (tensor<1x1x8960xf32>, tensor<1x1x8960xf32>, tensor<1xi8>) -> tensor<1x1x8960xf32>
    %788 = tosa.const_shape  {values = dense<[1, 8960]> : tensor<2xindex>} : () -> !tosa.shape<2>
    %789 = tosa.reshape %787, %788 : (tensor<1x1x8960xf32>, !tosa.shape<2>) -> tensor<1x8960xf32>
    %cst_215 = arith.constant dense<0.000000e+00> : tensor<1x1536xf32>
    %790 = linalg.matmul {cast = #linalg.type_fn<cast_signed>} ins(%789, %arg74 : tensor<1x8960xf32>, tensor<8960x1536xf32>) outs(%cst_215 : tensor<1x1536xf32>) -> tensor<1x1536xf32>
    %791 = tosa.const_shape  {values = dense<[1, 1, 1536]> : tensor<3xindex>} : () -> !tosa.shape<3>
    %792 = tosa.reshape %790, %791 : (tensor<1x1536xf32>, !tosa.shape<3>) -> tensor<1x1x1536xf32>
    %793 = tosa.add %754, %792 : (tensor<1x1x1536xf32>, tensor<1x1x1536xf32>) -> tensor<1x1x1536xf32>
    %794 = tensor.empty() : tensor<1x1x1536xf32>
    %c2_i32_216 = arith.constant 2 : i32
    %795 = linalg.generic {indexing_maps = [#map, #map], iterator_types = ["parallel", "parallel", "parallel"]} ins(%793 : tensor<1x1x1536xf32>) outs(%794 : tensor<1x1x1536xf32>) {
    ^bb0(%in: f32, %out: f32):
      %4267 = math.fpowi %in, %c2_i32_216 : f32, i32
      linalg.yield %4267 : f32
    } -> tensor<1x1x1536xf32>
    %796 = tosa.reduce_sum %795 {axis = 2 : i32} : (tensor<1x1x1536xf32>) -> tensor<1x1x1xf32>
    %797 = "tosa.const"() <{values = dense<1.536000e+03> : tensor<1xf32>}> : () -> tensor<1xf32>
    %798 = tosa.reciprocal %797 : (tensor<1xf32>) -> tensor<1xf32>
    %799 = tosa.const_shape  {values = dense<1> : tensor<3xindex>} : () -> !tosa.shape<3>
    %800 = tosa.reshape %798, %799 : (tensor<1xf32>, !tosa.shape<3>) -> tensor<1x1x1xf32>
    %801 = "tosa.const"() <{values = dense<0> : tensor<1xi8>}> : () -> tensor<1xi8>
    %802 = tosa.mul %800, %796, %801 : (tensor<1x1x1xf32>, tensor<1x1x1xf32>, tensor<1xi8>) -> tensor<1x1x1xf32>
    %803 = "tosa.const"() <{values = dense<9.99999997E-7> : tensor<1x1x1xf32>}> : () -> tensor<1x1x1xf32>
    %804 = tosa.add %802, %803 : (tensor<1x1x1xf32>, tensor<1x1x1xf32>) -> tensor<1x1x1xf32>
    %805 = tosa.rsqrt %804 : (tensor<1x1x1xf32>) -> tensor<1x1x1xf32>
    %806 = "tosa.const"() <{values = dense<0> : tensor<1xi8>}> : () -> tensor<1xi8>
    %807 = tosa.mul %793, %805, %806 : (tensor<1x1x1536xf32>, tensor<1x1x1xf32>, tensor<1xi8>) -> tensor<1x1x1536xf32>
    %808 = tosa.const_shape  {values = dense<[1, 1, 1536]> : tensor<3xindex>} : () -> !tosa.shape<3>
    %809 = tosa.reshape %arg75, %808 : (tensor<1536xf32>, !tosa.shape<3>) -> tensor<1x1x1536xf32>
    %810 = "tosa.const"() <{values = dense<0> : tensor<1xi8>}> : () -> tensor<1xi8>
    %811 = tosa.mul %809, %807, %810 : (tensor<1x1x1536xf32>, tensor<1x1x1536xf32>, tensor<1xi8>) -> tensor<1x1x1536xf32>
    %812 = tosa.const_shape  {values = dense<[1, 1536]> : tensor<2xindex>} : () -> !tosa.shape<2>
    %813 = tosa.reshape %811, %812 : (tensor<1x1x1536xf32>, !tosa.shape<2>) -> tensor<1x1536xf32>
    %cst_217 = arith.constant dense<0.000000e+00> : tensor<1x1536xf32>
    %814 = linalg.matmul {cast = #linalg.type_fn<cast_signed>} ins(%813, %arg77 : tensor<1x1536xf32>, tensor<1536x1536xf32>) outs(%cst_217 : tensor<1x1536xf32>) -> tensor<1x1536xf32>
    %815 = tosa.const_shape  {values = dense<[1, 1536]> : tensor<2xindex>} : () -> !tosa.shape<2>
    %816 = tosa.reshape %arg76, %815 : (tensor<1536xf32>, !tosa.shape<2>) -> tensor<1x1536xf32>
    %817 = tosa.add %816, %814 : (tensor<1x1536xf32>, tensor<1x1536xf32>) -> tensor<1x1536xf32>
    %818 = tosa.const_shape  {values = dense<[1, 1, 1536]> : tensor<3xindex>} : () -> !tosa.shape<3>
    %819 = tosa.reshape %817, %818 : (tensor<1x1536xf32>, !tosa.shape<3>) -> tensor<1x1x1536xf32>
    %820 = tosa.const_shape  {values = dense<[1, 1, 12, 128]> : tensor<4xindex>} : () -> !tosa.shape<4>
    %821 = tosa.reshape %819, %820 : (tensor<1x1x1536xf32>, !tosa.shape<4>) -> tensor<1x1x12x128xf32>
    %822 = tosa.const_shape  {values = dense<[1, 12, 1, 128]> : tensor<4xindex>} : () -> !tosa.shape<4>
    %823 = tosa.reshape %821, %822 : (tensor<1x1x12x128xf32>, !tosa.shape<4>) -> tensor<1x12x1x128xf32>
    %824 = tosa.const_shape  {values = dense<[1, 1536]> : tensor<2xindex>} : () -> !tosa.shape<2>
    %825 = tosa.reshape %811, %824 : (tensor<1x1x1536xf32>, !tosa.shape<2>) -> tensor<1x1536xf32>
    %cst_218 = arith.constant dense<0.000000e+00> : tensor<1x256xf32>
    %826 = linalg.matmul {cast = #linalg.type_fn<cast_signed>} ins(%825, %arg79 : tensor<1x1536xf32>, tensor<1536x256xf32>) outs(%cst_218 : tensor<1x256xf32>) -> tensor<1x256xf32>
    %827 = tosa.const_shape  {values = dense<[1, 256]> : tensor<2xindex>} : () -> !tosa.shape<2>
    %828 = tosa.reshape %arg78, %827 : (tensor<256xf32>, !tosa.shape<2>) -> tensor<1x256xf32>
    %829 = tosa.add %828, %826 : (tensor<1x256xf32>, tensor<1x256xf32>) -> tensor<1x256xf32>
    %830 = tosa.const_shape  {values = dense<[1, 1, 256]> : tensor<3xindex>} : () -> !tosa.shape<3>
    %831 = tosa.reshape %829, %830 : (tensor<1x256xf32>, !tosa.shape<3>) -> tensor<1x1x256xf32>
    %832 = tosa.const_shape  {values = dense<[1, 1, 2, 128]> : tensor<4xindex>} : () -> !tosa.shape<4>
    %833 = tosa.reshape %831, %832 : (tensor<1x1x256xf32>, !tosa.shape<4>) -> tensor<1x1x2x128xf32>
    %834 = tosa.const_shape  {values = dense<[1, 2, 1, 128]> : tensor<4xindex>} : () -> !tosa.shape<4>
    %835 = tosa.reshape %833, %834 : (tensor<1x1x2x128xf32>, !tosa.shape<4>) -> tensor<1x2x1x128xf32>
    %836 = tosa.const_shape  {values = dense<[1, 1536]> : tensor<2xindex>} : () -> !tosa.shape<2>
    %837 = tosa.reshape %811, %836 : (tensor<1x1x1536xf32>, !tosa.shape<2>) -> tensor<1x1536xf32>
    %cst_219 = arith.constant dense<0.000000e+00> : tensor<1x256xf32>
    %838 = linalg.matmul {cast = #linalg.type_fn<cast_signed>} ins(%837, %arg81 : tensor<1x1536xf32>, tensor<1536x256xf32>) outs(%cst_219 : tensor<1x256xf32>) -> tensor<1x256xf32>
    %839 = tosa.const_shape  {values = dense<[1, 256]> : tensor<2xindex>} : () -> !tosa.shape<2>
    %840 = tosa.reshape %arg80, %839 : (tensor<256xf32>, !tosa.shape<2>) -> tensor<1x256xf32>
    %841 = tosa.add %840, %838 : (tensor<1x256xf32>, tensor<1x256xf32>) -> tensor<1x256xf32>
    %842 = tosa.const_shape  {values = dense<[1, 1, 256]> : tensor<3xindex>} : () -> !tosa.shape<3>
    %843 = tosa.reshape %841, %842 : (tensor<1x256xf32>, !tosa.shape<3>) -> tensor<1x1x256xf32>
    %844 = tosa.const_shape  {values = dense<[1, 1, 2, 128]> : tensor<4xindex>} : () -> !tosa.shape<4>
    %845 = tosa.reshape %843, %844 : (tensor<1x1x256xf32>, !tosa.shape<4>) -> tensor<1x1x2x128xf32>
    %846 = tosa.const_shape  {values = dense<[1, 2, 1, 128]> : tensor<4xindex>} : () -> !tosa.shape<4>
    %847 = tosa.reshape %845, %846 : (tensor<1x1x2x128xf32>, !tosa.shape<4>) -> tensor<1x2x1x128xf32>
    %848 = tosa.const_shape  {values = dense<[1, 1, 1, 128]> : tensor<4xindex>} : () -> !tosa.shape<4>
    %849 = tosa.reshape %38, %848 : (tensor<1x1x128xf32>, !tosa.shape<4>) -> tensor<1x1x1x128xf32>
    %850 = tosa.const_shape  {values = dense<[1, 1, 1, 128]> : tensor<4xindex>} : () -> !tosa.shape<4>
    %851 = tosa.reshape %43, %850 : (tensor<1x1x128xf32>, !tosa.shape<4>) -> tensor<1x1x1x128xf32>
    %852 = "tosa.const"() <{values = dense<0> : tensor<1xi8>}> : () -> tensor<1xi8>
    %853 = tosa.mul %823, %849, %852 : (tensor<1x12x1x128xf32>, tensor<1x1x1x128xf32>, tensor<1xi8>) -> tensor<1x12x1x128xf32>
    %extracted_slice_220 = tensor.extract_slice %823[0, 0, 0, 0] [1, 12, 1, 64] [1, 1, 1, 1] : tensor<1x12x1x128xf32> to tensor<1x12x1x64xf32>
    %extracted_slice_221 = tensor.extract_slice %823[0, 0, 0, 64] [1, 12, 1, 64] [1, 1, 1, 1] : tensor<1x12x1x128xf32> to tensor<1x12x1x64xf32>
    %854 = "tosa.const"() <{values = dense<0.000000e+00> : tensor<1xf32>}> : () -> tensor<1xf32>
    %855 = "tosa.const"() <{values = dense<0.000000e+00> : tensor<1xf32>}> : () -> tensor<1xf32>
    %856 = tosa.negate %extracted_slice_221, %854, %855 : (tensor<1x12x1x64xf32>, tensor<1xf32>, tensor<1xf32>) -> tensor<1x12x1x64xf32>
    %857 = tensor.empty() : tensor<1x12x1x128xf32>
    %inserted_slice_222 = tensor.insert_slice %856 into %857[0, 0, 0, 0] [1, 12, 1, 64] [1, 1, 1, 1] : tensor<1x12x1x64xf32> into tensor<1x12x1x128xf32>
    %inserted_slice_223 = tensor.insert_slice %extracted_slice_220 into %inserted_slice_222[0, 0, 0, 64] [1, 12, 1, 64] [1, 1, 1, 1] : tensor<1x12x1x64xf32> into tensor<1x12x1x128xf32>
    %858 = "tosa.const"() <{values = dense<0> : tensor<1xi8>}> : () -> tensor<1xi8>
    %859 = tosa.mul %inserted_slice_223, %851, %858 : (tensor<1x12x1x128xf32>, tensor<1x1x1x128xf32>, tensor<1xi8>) -> tensor<1x12x1x128xf32>
    %860 = tosa.add %853, %859 : (tensor<1x12x1x128xf32>, tensor<1x12x1x128xf32>) -> tensor<1x12x1x128xf32>
    %861 = "tosa.const"() <{values = dense<0> : tensor<1xi8>}> : () -> tensor<1xi8>
    %862 = tosa.mul %835, %849, %861 : (tensor<1x2x1x128xf32>, tensor<1x1x1x128xf32>, tensor<1xi8>) -> tensor<1x2x1x128xf32>
    %extracted_slice_224 = tensor.extract_slice %835[0, 0, 0, 0] [1, 2, 1, 64] [1, 1, 1, 1] : tensor<1x2x1x128xf32> to tensor<1x2x1x64xf32>
    %extracted_slice_225 = tensor.extract_slice %835[0, 0, 0, 64] [1, 2, 1, 64] [1, 1, 1, 1] : tensor<1x2x1x128xf32> to tensor<1x2x1x64xf32>
    %863 = "tosa.const"() <{values = dense<0.000000e+00> : tensor<1xf32>}> : () -> tensor<1xf32>
    %864 = "tosa.const"() <{values = dense<0.000000e+00> : tensor<1xf32>}> : () -> tensor<1xf32>
    %865 = tosa.negate %extracted_slice_225, %863, %864 : (tensor<1x2x1x64xf32>, tensor<1xf32>, tensor<1xf32>) -> tensor<1x2x1x64xf32>
    %866 = tensor.empty() : tensor<1x2x1x128xf32>
    %inserted_slice_226 = tensor.insert_slice %865 into %866[0, 0, 0, 0] [1, 2, 1, 64] [1, 1, 1, 1] : tensor<1x2x1x64xf32> into tensor<1x2x1x128xf32>
    %inserted_slice_227 = tensor.insert_slice %extracted_slice_224 into %inserted_slice_226[0, 0, 0, 64] [1, 2, 1, 64] [1, 1, 1, 1] : tensor<1x2x1x64xf32> into tensor<1x2x1x128xf32>
    %867 = "tosa.const"() <{values = dense<0> : tensor<1xi8>}> : () -> tensor<1xi8>
    %868 = tosa.mul %inserted_slice_227, %851, %867 : (tensor<1x2x1x128xf32>, tensor<1x1x1x128xf32>, tensor<1xi8>) -> tensor<1x2x1x128xf32>
    %869 = tosa.add %862, %868 : (tensor<1x2x1x128xf32>, tensor<1x2x1x128xf32>) -> tensor<1x2x1x128xf32>
    %870 = bufferization.to_buffer %arg82 : tensor<1x2x1024x128xf32> to memref<1x2x1024x128xf32>
    %871 = tosa.const_shape  {values = dense<1> : tensor<4xindex>} : () -> !tosa.shape<4>
    %872 = tosa.reshape %arg3, %871 : (tensor<1xi64>, !tosa.shape<4>) -> tensor<1x1x1x1xi64>
    %873 = "tosa.const"() <{values = dense<0> : tensor<1x2x1x128xi64>}> : () -> tensor<1x2x1x128xi64>
    %874 = tosa.add %872, %873 : (tensor<1x1x1x1xi64>, tensor<1x2x1x128xi64>) -> tensor<1x2x1x128xi64>
    %875 = bufferization.to_buffer %874 : tensor<1x2x1x128xi64> to memref<1x2x1x128xi64>
    %876 = bufferization.to_buffer %869 : tensor<1x2x1x128xf32> to memref<1x2x1x128xf32>
    %c0_228 = arith.constant 0 : index
    %c1_229 = arith.constant 1 : index
    %c1_230 = arith.constant 1 : index
    %c2_231 = arith.constant 2 : index
    %c1_232 = arith.constant 1 : index
    %c128_233 = arith.constant 128 : index
    scf.for %arg399 = %c0_228 to %c1_230 step %c1_229 {
      scf.for %arg400 = %c0_228 to %c2_231 step %c1_229 {
        scf.for %arg401 = %c0_228 to %c1_232 step %c1_229 {
          scf.for %arg402 = %c0_228 to %c128_233 step %c1_229 {
            %4267 = memref.load %876[%arg399, %arg400, %arg401, %arg402] : memref<1x2x1x128xf32>
            %4268 = memref.load %875[%arg399, %arg400, %arg401, %arg402] : memref<1x2x1x128xi64>
            %4269 = arith.index_cast %4268 : i64 to index
            memref.store %4267, %870[%arg399, %arg400, %4269, %arg402] : memref<1x2x1024x128xf32>
          }
        }
      }
    }
    %877 = bufferization.to_tensor %870 restrict : memref<1x2x1024x128xf32> to tensor<1x2x1024x128xf32>
    %878 = bufferization.to_buffer %arg83 : tensor<1x2x1024x128xf32> to memref<1x2x1024x128xf32>
    %879 = tosa.const_shape  {values = dense<1> : tensor<4xindex>} : () -> !tosa.shape<4>
    %880 = tosa.reshape %arg3, %879 : (tensor<1xi64>, !tosa.shape<4>) -> tensor<1x1x1x1xi64>
    %881 = "tosa.const"() <{values = dense<0> : tensor<1x2x1x128xi64>}> : () -> tensor<1x2x1x128xi64>
    %882 = tosa.add %880, %881 : (tensor<1x1x1x1xi64>, tensor<1x2x1x128xi64>) -> tensor<1x2x1x128xi64>
    %883 = bufferization.to_buffer %882 : tensor<1x2x1x128xi64> to memref<1x2x1x128xi64>
    %884 = bufferization.to_buffer %847 : tensor<1x2x1x128xf32> to memref<1x2x1x128xf32>
    %c0_234 = arith.constant 0 : index
    %c1_235 = arith.constant 1 : index
    %c1_236 = arith.constant 1 : index
    %c2_237 = arith.constant 2 : index
    %c1_238 = arith.constant 1 : index
    %c128_239 = arith.constant 128 : index
    scf.for %arg399 = %c0_234 to %c1_236 step %c1_235 {
      scf.for %arg400 = %c0_234 to %c2_237 step %c1_235 {
…
    %3959 = tosa.reshape %arg369, %3958 : (tensor<1536xf32>, !tosa.shape<3>) -> tensor<1x1x1536xf32>
    %3960 = "tosa.const"() <{values = dense<0> : tensor<1xi8>}> : () -> tensor<1xi8>
    %3961 = tosa.mul %3959, %3957, %3960 : (tensor<1x1x1536xf32>, tensor<1x1x1536xf32>, tensor<1xi8>) -> tensor<1x1x1536xf32>
    %3962 = tosa.const_shape  {values = dense<[1, 1536]> : tensor<2xindex>} : () -> !tosa.shape<2>
    %3963 = tosa.reshape %3961, %3962 : (tensor<1x1x1536xf32>, !tosa.shape<2>) -> tensor<1x1536xf32>
    %cst_1162 = arith.constant dense<0.000000e+00> : tensor<1x1536xf32>
    %3964 = linalg.matmul {cast = #linalg.type_fn<cast_signed>} ins(%3963, %arg371 : tensor<1x1536xf32>, tensor<1536x1536xf32>) outs(%cst_1162 : tensor<1x1536xf32>) -> tensor<1x1536xf32>
    %3965 = tosa.const_shape  {values = dense<[1, 1536]> : tensor<2xindex>} : () -> !tosa.shape<2>
    %3966 = tosa.reshape %arg370, %3965 : (tensor<1536xf32>, !tosa.shape<2>) -> tensor<1x1536xf32>
    %3967 = tosa.add %3966, %3964 : (tensor<1x1536xf32>, tensor<1x1536xf32>) -> tensor<1x1536xf32>
    %3968 = tosa.const_shape  {values = dense<[1, 1, 1536]> : tensor<3xindex>} : () -> !tosa.shape<3>
    %3969 = tosa.reshape %3967, %3968 : (tensor<1x1536xf32>, !tosa.shape<3>) -> tensor<1x1x1536xf32>
    %3970 = tosa.const_shape  {values = dense<[1, 1, 12, 128]> : tensor<4xindex>} : () -> !tosa.shape<4>
    %3971 = tosa.reshape %3969, %3970 : (tensor<1x1x1536xf32>, !tosa.shape<4>) -> tensor<1x1x12x128xf32>
    %3972 = tosa.const_shape  {values = dense<[1, 12, 1, 128]> : tensor<4xindex>} : () -> !tosa.shape<4>
    %3973 = tosa.reshape %3971, %3972 : (tensor<1x1x12x128xf32>, !tosa.shape<4>) -> tensor<1x12x1x128xf32>
    %3974 = tosa.const_shape  {values = dense<[1, 1536]> : tensor<2xindex>} : () -> !tosa.shape<2>
    %3975 = tosa.reshape %3961, %3974 : (tensor<1x1x1536xf32>, !tosa.shape<2>) -> tensor<1x1536xf32>
    %cst_1163 = arith.constant dense<0.000000e+00> : tensor<1x256xf32>
    %3976 = linalg.matmul {cast = #linalg.type_fn<cast_signed>} ins(%3975, %arg373 : tensor<1x1536xf32>, tensor<1536x256xf32>) outs(%cst_1163 : tensor<1x256xf32>) -> tensor<1x256xf32>
    %3977 = tosa.const_shape  {values = dense<[1, 256]> : tensor<2xindex>} : () -> !tosa.shape<2>
    %3978 = tosa.reshape %arg372, %3977 : (tensor<256xf32>, !tosa.shape<2>) -> tensor<1x256xf32>
    %3979 = tosa.add %3978, %3976 : (tensor<1x256xf32>, tensor<1x256xf32>) -> tensor<1x256xf32>
    %3980 = tosa.const_shape  {values = dense<[1, 1, 256]> : tensor<3xindex>} : () -> !tosa.shape<3>
    %3981 = tosa.reshape %3979, %3980 : (tensor<1x256xf32>, !tosa.shape<3>) -> tensor<1x1x256xf32>
    %3982 = tosa.const_shape  {values = dense<[1, 1, 2, 128]> : tensor<4xindex>} : () -> !tosa.shape<4>
    %3983 = tosa.reshape %3981, %3982 : (tensor<1x1x256xf32>, !tosa.shape<4>) -> tensor<1x1x2x128xf32>
    %3984 = tosa.const_shape  {values = dense<[1, 2, 1, 128]> : tensor<4xindex>} : () -> !tosa.shape<4>
    %3985 = tosa.reshape %3983, %3984 : (tensor<1x1x2x128xf32>, !tosa.shape<4>) -> tensor<1x2x1x128xf32>
    %3986 = tosa.const_shape  {values = dense<[1, 1536]> : tensor<2xindex>} : () -> !tosa.shape<2>
    %3987 = tosa.reshape %3961, %3986 : (tensor<1x1x1536xf32>, !tosa.shape<2>) -> tensor<1x1536xf32>
    %cst_1164 = arith.constant dense<0.000000e+00> : tensor<1x256xf32>
    %3988 = linalg.matmul {cast = #linalg.type_fn<cast_signed>} ins(%3987, %arg375 : tensor<1x1536xf32>, tensor<1536x256xf32>) outs(%cst_1164 : tensor<1x256xf32>) -> tensor<1x256xf32>
    %3989 = tosa.const_shape  {values = dense<[1, 256]> : tensor<2xindex>} : () -> !tosa.shape<2>
    %3990 = tosa.reshape %arg374, %3989 : (tensor<256xf32>, !tosa.shape<2>) -> tensor<1x256xf32>
    %3991 = tosa.add %3990, %3988 : (tensor<1x256xf32>, tensor<1x256xf32>) -> tensor<1x256xf32>
    %3992 = tosa.const_shape  {values = dense<[1, 1, 256]> : tensor<3xindex>} : () -> !tosa.shape<3>
    %3993 = tosa.reshape %3991, %3992 : (tensor<1x256xf32>, !tosa.shape<3>) -> tensor<1x1x256xf32>
    %3994 = tosa.const_shape  {values = dense<[1, 1, 2, 128]> : tensor<4xindex>} : () -> !tosa.shape<4>
    %3995 = tosa.reshape %3993, %3994 : (tensor<1x1x256xf32>, !tosa.shape<4>) -> tensor<1x1x2x128xf32>
    %3996 = tosa.const_shape  {values = dense<[1, 2, 1, 128]> : tensor<4xindex>} : () -> !tosa.shape<4>
    %3997 = tosa.reshape %3995, %3996 : (tensor<1x1x2x128xf32>, !tosa.shape<4>) -> tensor<1x2x1x128xf32>
    %3998 = tosa.const_shape  {values = dense<[1, 1, 1, 128]> : tensor<4xindex>} : () -> !tosa.shape<4>
    %3999 = tosa.reshape %38, %3998 : (tensor<1x1x128xf32>, !tosa.shape<4>) -> tensor<1x1x1x128xf32>
    %4000 = tosa.const_shape  {values = dense<[1, 1, 1, 128]> : tensor<4xindex>} : () -> !tosa.shape<4>
    %4001 = tosa.reshape %43, %4000 : (tensor<1x1x128xf32>, !tosa.shape<4>) -> tensor<1x1x1x128xf32>
    %4002 = "tosa.const"() <{values = dense<0> : tensor<1xi8>}> : () -> tensor<1xi8>
    %4003 = tosa.mul %3973, %3999, %4002 : (tensor<1x12x1x128xf32>, tensor<1x1x1x128xf32>, tensor<1xi8>) -> tensor<1x12x1x128xf32>
    %extracted_slice_1165 = tensor.extract_slice %3973[0, 0, 0, 0] [1, 12, 1, 64] [1, 1, 1, 1] : tensor<1x12x1x128xf32> to tensor<1x12x1x64xf32>
    %extracted_slice_1166 = tensor.extract_slice %3973[0, 0, 0, 64] [1, 12, 1, 64] [1, 1, 1, 1] : tensor<1x12x1x128xf32> to tensor<1x12x1x64xf32>
    %4004 = "tosa.const"() <{values = dense<0.000000e+00> : tensor<1xf32>}> : () -> tensor<1xf32>
    %4005 = "tosa.const"() <{values = dense<0.000000e+00> : tensor<1xf32>}> : () -> tensor<1xf32>
    %4006 = tosa.negate %extracted_slice_1166, %4004, %4005 : (tensor<1x12x1x64xf32>, tensor<1xf32>, tensor<1xf32>) -> tensor<1x12x1x64xf32>
    %4007 = tensor.empty() : tensor<1x12x1x128xf32>
    %inserted_slice_1167 = tensor.insert_slice %4006 into %4007[0, 0, 0, 0] [1, 12, 1, 64] [1, 1, 1, 1] : tensor<1x12x1x64xf32> into tensor<1x12x1x128xf32>
    %inserted_slice_1168 = tensor.insert_slice %extracted_slice_1165 into %inserted_slice_1167[0, 0, 0, 64] [1, 12, 1, 64] [1, 1, 1, 1] : tensor<1x12x1x64xf32> into tensor<1x12x1x128xf32>
    %4008 = "tosa.const"() <{values = dense<0> : tensor<1xi8>}> : () -> tensor<1xi8>
    %4009 = tosa.mul %inserted_slice_1168, %4001, %4008 : (tensor<1x12x1x128xf32>, tensor<1x1x1x128xf32>, tensor<1xi8>) -> tensor<1x12x1x128xf32>
    %4010 = tosa.add %4003, %4009 : (tensor<1x12x1x128xf32>, tensor<1x12x1x128xf32>) -> tensor<1x12x1x128xf32>
    %4011 = "tosa.const"() <{values = dense<0> : tensor<1xi8>}> : () -> tensor<1xi8>
    %4012 = tosa.mul %3985, %3999, %4011 : (tensor<1x2x1x128xf32>, tensor<1x1x1x128xf32>, tensor<1xi8>) -> tensor<1x2x1x128xf32>
    %extracted_slice_1169 = tensor.extract_slice %3985[0, 0, 0, 0] [1, 2, 1, 64] [1, 1, 1, 1] : tensor<1x2x1x128xf32> to tensor<1x2x1x64xf32>
    %extracted_slice_1170 = tensor.extract_slice %3985[0, 0, 0, 64] [1, 2, 1, 64] [1, 1, 1, 1] : tensor<1x2x1x128xf32> to tensor<1x2x1x64xf32>
    %4013 = "tosa.const"() <{values = dense<0.000000e+00> : tensor<1xf32>}> : () -> tensor<1xf32>
    %4014 = "tosa.const"() <{values = dense<0.000000e+00> : tensor<1xf32>}> : () -> tensor<1xf32>
    %4015 = tosa.negate %extracted_slice_1170, %4013, %4014 : (tensor<1x2x1x64xf32>, tensor<1xf32>, tensor<1xf32>) -> tensor<1x2x1x64xf32>
    %4016 = tensor.empty() : tensor<1x2x1x128xf32>
    %inserted_slice_1171 = tensor.insert_slice %4015 into %4016[0, 0, 0, 0] [1, 2, 1, 64] [1, 1, 1, 1] : tensor<1x2x1x64xf32> into tensor<1x2x1x128xf32>
    %inserted_slice_1172 = tensor.insert_slice %extracted_slice_1169 into %inserted_slice_1171[0, 0, 0, 64] [1, 2, 1, 64] [1, 1, 1, 1] : tensor<1x2x1x64xf32> into tensor<1x2x1x128xf32>
    %4017 = "tosa.const"() <{values = dense<0> : tensor<1xi8>}> : () -> tensor<1xi8>
    %4018 = tosa.mul %inserted_slice_1172, %4001, %4017 : (tensor<1x2x1x128xf32>, tensor<1x1x1x128xf32>, tensor<1xi8>) -> tensor<1x2x1x128xf32>
    %4019 = tosa.add %4012, %4018 : (tensor<1x2x1x128xf32>, tensor<1x2x1x128xf32>) -> tensor<1x2x1x128xf32>
    %4020 = bufferization.to_buffer %arg376 : tensor<1x2x1024x128xf32> to memref<1x2x1024x128xf32>
    %4021 = tosa.const_shape  {values = dense<1> : tensor<4xindex>} : () -> !tosa.shape<4>
    %4022 = tosa.reshape %arg3, %4021 : (tensor<1xi64>, !tosa.shape<4>) -> tensor<1x1x1x1xi64>
    %4023 = "tosa.const"() <{values = dense<0> : tensor<1x2x1x128xi64>}> : () -> tensor<1x2x1x128xi64>
    %4024 = tosa.add %4022, %4023 : (tensor<1x1x1x1xi64>, tensor<1x2x1x128xi64>) -> tensor<1x2x1x128xi64>
    %4025 = bufferization.to_buffer %4024 : tensor<1x2x1x128xi64> to memref<1x2x1x128xi64>
    %4026 = bufferization.to_buffer %4019 : tensor<1x2x1x128xf32> to memref<1x2x1x128xf32>
    %c0_1173 = arith.constant 0 : index
    %c1_1174 = arith.constant 1 : index
    %c1_1175 = arith.constant 1 : index
    %c2_1176 = arith.constant 2 : index
    %c1_1177 = arith.constant 1 : index
    %c128_1178 = arith.constant 128 : index
    scf.for %arg399 = %c0_1173 to %c1_1175 step %c1_1174 {
      scf.for %arg400 = %c0_1173 to %c2_1176 step %c1_1174 {
        scf.for %arg401 = %c0_1173 to %c1_1177 step %c1_1174 {
          scf.for %arg402 = %c0_1173 to %c128_1178 step %c1_1174 {
            %4267 = memref.load %4026[%arg399, %arg400, %arg401, %arg402] : memref<1x2x1x128xf32>
            %4268 = memref.load %4025[%arg399, %arg400, %arg401, %arg402] : memref<1x2x1x128xi64>
            %4269 = arith.index_cast %4268 : i64 to index
            memref.store %4267, %4020[%arg399, %arg400, %4269, %arg402] : memref<1x2x1024x128xf32>
          }
        }
      }
    }
    %4027 = bufferization.to_tensor %4020 restrict : memref<1x2x1024x128xf32> to tensor<1x2x1024x128xf32>
    %4028 = bufferization.to_buffer %arg377 : tensor<1x2x1024x128xf32> to memref<1x2x1024x128xf32>
    %4029 = tosa.const_shape  {values = dense<1> : tensor<4xindex>} : () -> !tosa.shape<4>
    %4030 = tosa.reshape %arg3, %4029 : (tensor<1xi64>, !tosa.shape<4>) -> tensor<1x1x1x1xi64>
    %4031 = "tosa.const"() <{values = dense<0> : tensor<1x2x1x128xi64>}> : () -> tensor<1x2x1x128xi64>
    %4032 = tosa.add %4030, %4031 : (tensor<1x1x1x1xi64>, tensor<1x2x1x128xi64>) -> tensor<1x2x1x128xi64>
    %4033 = bufferization.to_buffer %4032 : tensor<1x2x1x128xi64> to memref<1x2x1x128xi64>
    %4034 = bufferization.to_buffer %3997 : tensor<1x2x1x128xf32> to memref<1x2x1x128xf32>
    %c0_1179 = arith.constant 0 : index
    %c1_1180 = arith.constant 1 : index
    %c1_1181 = arith.constant 1 : index
    %c2_1182 = arith.constant 2 : index
    %c1_1183 = arith.constant 1 : index
    %c128_1184 = arith.constant 128 : index
    scf.for %arg399 = %c0_1179 to %c1_1181 step %c1_1180 {
      scf.for %arg400 = %c0_1179 to %c2_1182 step %c1_1180 {
        scf.for %arg401 = %c0_1179 to %c1_1183 step %c1_1180 {
          scf.for %arg402 = %c0_1179 to %c128_1184 step %c1_1180 {
            %4267 = memref.load %4034[%arg399, %arg400, %arg401, %arg402] : memref<1x2x1x128xf32>
            %4268 = memref.load %4033[%arg399, %arg400, %arg401, %arg402] : memref<1x2x1x128xi64>
            %4269 = arith.index_cast %4268 : i64 to index
            memref.store %4267, %4028[%arg399, %arg400, %4269, %arg402] : memref<1x2x1024x128xf32>
          }
        }
      }
    }
    %4035 = bufferization.to_tensor %4028 restrict : memref<1x2x1024x128xf32> to tensor<1x2x1024x128xf32>
    %4036 = tosa.const_shape  {values = dense<[1, 1, 1, 1024]> : tensor<4xindex>} : () -> !tosa.shape<4>
    %4037 = tosa.reshape %17, %4036 : (tensor<1x1024xi1>, !tosa.shape<4>) -> tensor<1x1x1x1024xi1>
    %cst_1185 = arith.constant 0xFF800000 : f32
    %cst_1186 = arith.constant 0.000000e+00 : f32
    %4038 = tensor.empty() : tensor<1x1x1x1024xf32>
    %splat_1187 = tensor.splat %cst_1186 : tensor<1x1x1x1024xf32>
    %splat_1188 = tensor.splat %cst_1185 : tensor<1x1x1x1024xf32>
    %4039 = linalg.generic {indexing_maps = [#map1, #map1, #map1, #map1], iterator_types = ["parallel", "parallel", "parallel", "parallel"]} ins(%4037, %splat_1187, %splat_1188 : tensor<1x1x1x1024xi1>, tensor<1x1x1x1024xf32>, tensor<1x1x1x1024xf32>) outs(%4038 : tensor<1x1x1x1024xf32>) {
    ^bb0(%in: i1, %in_1253: f32, %in_1254: f32, %out: f32):
      %4267 = arith.select %in, %in_1253, %in_1254 : f32
      linalg.yield %4267 : f32
    } -> tensor<1x1x1x1024xf32>
    %c0_1189 = arith.constant 0 : index
    %cst_1190 = arith.constant 1.000000e+00 : f32
    %cst_1191 = arith.constant 0.0883883461 : f32
    %cst_1192 = arith.constant 0.000000e+00 : f32
    %4040 = vector.splat %cst_1192 : vector<16xf32>
    %cst_1193 = arith.constant -1.000000e+30 : f32
    %4041 = bufferization.to_buffer %4010 : tensor<1x12x1x128xf32> to memref<1x12x1x128xf32>
    %4042 = bufferization.to_buffer %4027 : tensor<1x2x1024x128xf32> to memref<1x2x1024x128xf32>
    %4043 = bufferization.to_buffer %4035 : tensor<1x2x1024x128xf32> to memref<1x2x1024x128xf32>
    %4044 = bufferization.to_buffer %4039 : tensor<1x1x1x1024xf32> to memref<1x1x1x1024xf32>
    %c1_1194 = arith.constant 1 : index
    %c12_1195 = arith.constant 12 : index
    %c1_1196 = arith.constant 1 : index
    %c128_1197 = arith.constant 128 : index
    %alloc_1198 = memref.alloc() : memref<1x12x1x128xf32>
    %alloc_1199 = memref.alloc() : memref<1x12x1xf32>
    %alloc_1200 = memref.alloc() : memref<128xf32>
    affine.for %arg399 = 0 to #map2(%c1_1194) {
      affine.for %arg400 = 0 to #map2(%c12_1195) {
        %c6 = arith.constant 6 : index
        %4267 = arith.divsi %arg400, %c6 : index
        affine.for %arg401 = 0 to #map2(%c1_1196) {
          affine.for %arg402 = 0 to #map2(%c128_1197) {
            memref.store %cst_1192, %alloc_1200[%arg402] : memref<128xf32>
          }
          %c1024 = arith.constant 1024 : index
          %4268:2 = affine.for %arg402 = 0 to #map2(%c1024) iter_args(%arg403 = %cst_1193, %arg404 = %cst_1192) -> (f32, f32) {
            %4269 = affine.for %arg405 = 0 to #map2(%c128_1197) step 16 iter_args(%arg406 = %4040) -> (vector<16xf32>) {
              %4284 = vector.load %4041[%arg399, %arg400, %arg401, %arg405] : memref<1x12x1x128xf32>, vector<16xf32>
              %4285 = vector.load %4042[%arg399, %4267, %arg402, %arg405] : memref<1x2x1024x128xf32>, vector<16xf32>
              %4286 = vector.fma %4284, %4285, %arg406 : vector<16xf32>
              affine.yield %4286 : vector<16xf32>
            }
            %4270 = vector.reduction <add>, %4269 : vector<16xf32> into f32
            %4271 = arith.mulf %4270, %cst_1191 : f32
            %4272 = memref.load %4044[%arg399, %c0_1189, %arg401, %arg402] : memref<1x1x1x1024xf32>
            %4273 = arith.addf %4271, %4272 : f32
            %4274 = arith.cmpf ogt, %4273, %arg403 : f32
            %4275 = arith.select %4274, %4273, %arg403 : f32
            %4276 = arith.subf %arg403, %4273 : f32
            %4277 = math.exp %4276 : f32
            %4278 = arith.mulf %4277, %arg404 : f32
            %4279 = arith.addf %4278, %cst_1190 : f32
            %4280 = arith.subf %4273, %arg403 : f32
            %4281 = math.exp %4280 : f32
            %4282 = arith.addf %arg404, %4281 : f32
            %4283 = arith.select %4274, %4279, %4282 : f32
            affine.for %arg405 = 0 to #map2(%c128_1197) {
              %4284 = memref.load %4043[%arg399, %4267, %arg402, %arg405] : memref<1x2x1024x128xf32>
              %4285 = memref.load %alloc_1200[%arg405] : memref<128xf32>
              %4286 = arith.mulf %4285, %4277 : f32
              %4287 = arith.addf %4286, %4284 : f32
              %4288 = arith.mulf %4281, %4284 : f32
              %4289 = arith.addf %4288, %4285 : f32
              %4290 = arith.select %4274, %4287, %4289 : f32
              memref.store %4290, %alloc_1200[%arg405] : memref<128xf32>
            }
            affine.yield %4275, %4283 : f32, f32
          }
          memref.store %4268#1, %alloc_1199[%arg399, %arg400, %arg401] : memref<1x12x1xf32>
          affine.for %arg402 = 0 to #map2(%c128_1197) {
            %4269 = memref.load %alloc_1200[%arg402] : memref<128xf32>
            %4270 = arith.divf %4269, %4268#1 : f32
            memref.store %4270, %alloc_1198[%arg399, %arg400, %arg401, %arg402] : memref<1x12x1x128xf32>
          }
        }
      }
    }
    %4045 = bufferization.to_tensor %alloc_1198 restrict : memref<1x12x1x128xf32> to tensor<1x12x1x128xf32>
    %4046 = bufferization.to_tensor %alloc_1199 restrict : memref<1x12x1xf32> to tensor<1x12x1xf32>
    %4047 = tosa.const_shape  {values = dense<[1, 1, 1536]> : tensor<3xindex>} : () -> !tosa.shape<3>
    %4048 = tosa.reshape %4045, %4047 : (tensor<1x12x1x128xf32>, !tosa.shape<3>) -> tensor<1x1x1536xf32>
    %4049 = tosa.const_shape  {values = dense<[1, 1536]> : tensor<2xindex>} : () -> !tosa.shape<2>
    %4050 = tosa.reshape %4048, %4049 : (tensor<1x1x1536xf32>, !tosa.shape<2>) -> tensor<1x1536xf32>
    %cst_1201 = arith.constant dense<0.000000e+00> : tensor<1x1536xf32>
    %4051 = linalg.matmul {cast = #linalg.type_fn<cast_signed>} ins(%4050, %arg378 : tensor<1x1536xf32>, tensor<1536x1536xf32>) outs(%cst_1201 : tensor<1x1536xf32>) -> tensor<1x1536xf32>
    %4052 = tosa.const_shape  {values = dense<[1, 1, 1536]> : tensor<3xindex>} : () -> !tosa.shape<3>
    %4053 = tosa.reshape %4051, %4052 : (tensor<1x1536xf32>, !tosa.shape<3>) -> tensor<1x1x1536xf32>
    %4054 = tosa.add %3943, %4053 : (tensor<1x1x1536xf32>, tensor<1x1x1536xf32>) -> tensor<1x1x1536xf32>
    %4055 = tensor.empty() : tensor<1x1x1536xf32>
    %c2_i32_1202 = arith.constant 2 : i32
    %4056 = linalg.generic {indexing_maps = [#map, #map], iterator_types = ["parallel", "parallel", "parallel"]} ins(%4054 : tensor<1x1x1536xf32>) outs(%4055 : tensor<1x1x1536xf32>) {
    ^bb0(%in: f32, %out: f32):
      %4267 = math.fpowi %in, %c2_i32_1202 : f32, i32
      linalg.yield %4267 : f32
    } -> tensor<1x1x1536xf32>
    %4057 = tosa.reduce_sum %4056 {axis = 2 : i32} : (tensor<1x1x1536xf32>) -> tensor<1x1x1xf32>
    %4058 = "tosa.const"() <{values = dense<1.536000e+03> : tensor<1xf32>}> : () -> tensor<1xf32>
    %4059 = tosa.reciprocal %4058 : (tensor<1xf32>) -> tensor<1xf32>
    %4060 = tosa.const_shape  {values = dense<1> : tensor<3xindex>} : () -> !tosa.shape<3>
    %4061 = tosa.reshape %4059, %4060 : (tensor<1xf32>, !tosa.shape<3>) -> tensor<1x1x1xf32>
    %4062 = "tosa.const"() <{values = dense<0> : tensor<1xi8>}> : () -> tensor<1xi8>
    %4063 = tosa.mul %4061, %4057, %4062 : (tensor<1x1x1xf32>, tensor<1x1x1xf32>, tensor<1xi8>) -> tensor<1x1x1xf32>
    %4064 = "tosa.const"() <{values = dense<9.99999997E-7> : tensor<1x1x1xf32>}> : () -> tensor<1x1x1xf32>
    %4065 = tosa.add %4063, %4064 : (tensor<1x1x1xf32>, tensor<1x1x1xf32>) -> tensor<1x1x1xf32>
    %4066 = tosa.rsqrt %4065 : (tensor<1x1x1xf32>) -> tensor<1x1x1xf32>
    %4067 = "tosa.const"() <{values = dense<0> : tensor<1xi8>}> : () -> tensor<1xi8>
    %4068 = tosa.mul %4054, %4066, %4067 : (tensor<1x1x1536xf32>, tensor<1x1x1xf32>, tensor<1xi8>) -> tensor<1x1x1536xf32>
    %4069 = tosa.const_shape  {values = dense<[1, 1, 1536]> : tensor<3xindex>} : () -> !tosa.shape<3>
    %4070 = tosa.reshape %arg379, %4069 : (tensor<1536xf32>, !tosa.shape<3>) -> tensor<1x1x1536xf32>
    %4071 = "tosa.const"() <{values = dense<0> : tensor<1xi8>}> : () -> tensor<1xi8>
    %4072 = tosa.mul %4070, %4068, %4071 : (tensor<1x1x1536xf32>, tensor<1x1x1536xf32>, tensor<1xi8>) -> tensor<1x1x1536xf32>
    %4073 = tosa.const_shape  {values = dense<[1, 1536]> : tensor<2xindex>} : () -> !tosa.shape<2>
    %4074 = tosa.reshape %4072, %4073 : (tensor<1x1x1536xf32>, !tosa.shape<2>) -> tensor<1x1536xf32>
    %cst_1203 = arith.constant dense<0.000000e+00> : tensor<1x8960xf32>
    %4075 = linalg.matmul {cast = #linalg.type_fn<cast_signed>} ins(%4074, %arg380 : tensor<1x1536xf32>, tensor<1536x8960xf32>) outs(%cst_1203 : tensor<1x8960xf32>) -> tensor<1x8960xf32>
    %4076 = tosa.const_shape  {values = dense<[1, 1, 8960]> : tensor<3xindex>} : () -> !tosa.shape<3>
    %4077 = tosa.reshape %4075, %4076 : (tensor<1x8960xf32>, !tosa.shape<3>) -> tensor<1x1x8960xf32>
    %4078 = tosa.sigmoid %4077 : (tensor<1x1x8960xf32>) -> tensor<1x1x8960xf32>
    %4079 = "tosa.const"() <{values = dense<0> : tensor<1xi8>}> : () -> tensor<1xi8>
    %4080 = tosa.mul %4077, %4078, %4079 : (tensor<1x1x8960xf32>, tensor<1x1x8960xf32>, tensor<1xi8>) -> tensor<1x1x8960xf32>
    %4081 = tosa.const_shape  {values = dense<[1, 1536]> : tensor<2xindex>} : () -> !tosa.shape<2>
    %4082 = tosa.reshape %4072, %4081 : (tensor<1x1x1536xf32>, !tosa.shape<2>) -> tensor<1x1536xf32>
    %cst_1204 = arith.constant dense<0.000000e+00> : tensor<1x8960xf32>
    %4083 = linalg.matmul {cast = #linalg.type_fn<cast_signed>} ins(%4082, %arg381 : tensor<1x1536xf32>, tensor<1536x8960xf32>) outs(%cst_1204 : tensor<1x8960xf32>) -> tensor<1x8960xf32>
    %4084 = tosa.const_shape  {values = dense<[1, 1, 8960]> : tensor<3xindex>} : () -> !tosa.shape<3>
    %4085 = tosa.reshape %4083, %4084 : (tensor<1x8960xf32>, !tosa.shape<3>) -> tensor<1x1x8960xf32>
    %4086 = "tosa.const"() <{values = dense<0> : tensor<1xi8>}> : () -> tensor<1xi8>
    %4087 = tosa.mul %4080, %4085, %4086 : (tensor<1x1x8960xf32>, tensor<1x1x8960xf32>, tensor<1xi8>) -> tensor<1x1x8960xf32>
    %4088 = tosa.const_shape  {values = dense<[1, 8960]> : tensor<2xindex>} : () -> !tosa.shape<2>
    %4089 = tosa.reshape %4087, %4088 : (tensor<1x1x8960xf32>, !tosa.shape<2>) -> tensor<1x8960xf32>
    %cst_1205 = arith.constant dense<0.000000e+00> : tensor<1x1536xf32>
    %4090 = linalg.matmul {cast = #linalg.type_fn<cast_signed>} ins(%4089, %arg382 : tensor<1x8960xf32>, tensor<8960x1536xf32>) outs(%cst_1205 : tensor<1x1536xf32>) -> tensor<1x1536xf32>
    %4091 = tosa.const_shape  {values = dense<[1, 1, 1536]> : tensor<3xindex>} : () -> !tosa.shape<3>
    %4092 = tosa.reshape %4090, %4091 : (tensor<1x1536xf32>, !tosa.shape<3>) -> tensor<1x1x1536xf32>
    %4093 = tosa.add %4054, %4092 : (tensor<1x1x1536xf32>, tensor<1x1x1536xf32>) -> tensor<1x1x1536xf32>
    %4094 = tensor.empty() : tensor<1x1x1536xf32>
    %c2_i32_1206 = arith.constant 2 : i32
    %4095 = linalg.generic {indexing_maps = [#map, #map], iterator_types = ["parallel", "parallel", "parallel"]} ins(%4093 : tensor<1x1x1536xf32>) outs(%4094 : tensor<1x1x1536xf32>) {
    ^bb0(%in: f32, %out: f32):
      %4267 = math.fpowi %in, %c2_i32_1206 : f32, i32
      linalg.yield %4267 : f32
    } -> tensor<1x1x1536xf32>
    %4096 = tosa.reduce_sum %4095 {axis = 2 : i32} : (tensor<1x1x1536xf32>) -> tensor<1x1x1xf32>
    %4097 = "tosa.const"() <{values = dense<1.536000e+03> : tensor<1xf32>}> : () -> tensor<1xf32>
    %4098 = tosa.reciprocal %4097 : (tensor<1xf32>) -> tensor<1xf32>
    %4099 = tosa.const_shape  {values = dense<1> : tensor<3xindex>} : () -> !tosa.shape<3>
    %4100 = tosa.reshape %4098, %4099 : (tensor<1xf32>, !tosa.shape<3>) -> tensor<1x1x1xf32>
    %4101 = "tosa.const"() <{values = dense<0> : tensor<1xi8>}> : () -> tensor<1xi8>
    %4102 = tosa.mul %4100, %4096, %4101 : (tensor<1x1x1xf32>, tensor<1x1x1xf32>, tensor<1xi8>) -> tensor<1x1x1xf32>
    %4103 = "tosa.const"() <{values = dense<9.99999997E-7> : tensor<1x1x1xf32>}> : () -> tensor<1x1x1xf32>
    %4104 = tosa.add %4102, %4103 : (tensor<1x1x1xf32>, tensor<1x1x1xf32>) -> tensor<1x1x1xf32>
    %4105 = tosa.rsqrt %4104 : (tensor<1x1x1xf32>) -> tensor<1x1x1xf32>
    %4106 = "tosa.const"() <{values = dense<0> : tensor<1xi8>}> : () -> tensor<1xi8>
    %4107 = tosa.mul %4093, %4105, %4106 : (tensor<1x1x1536xf32>, tensor<1x1x1xf32>, tensor<1xi8>) -> tensor<1x1x1536xf32>
    %4108 = tosa.const_shape  {values = dense<[1, 1, 1536]> : tensor<3xindex>} : () -> !tosa.shape<3>
    %4109 = tosa.reshape %arg383, %4108 : (tensor<1536xf32>, !tosa.shape<3>) -> tensor<1x1x1536xf32>
    %4110 = "tosa.const"() <{values = dense<0> : tensor<1xi8>}> : () -> tensor<1xi8>
    %4111 = tosa.mul %4109, %4107, %4110 : (tensor<1x1x1536xf32>, tensor<1x1x1536xf32>, tensor<1xi8>) -> tensor<1x1x1536xf32>
    %4112 = tosa.const_shape  {values = dense<[1, 1536]> : tensor<2xindex>} : () -> !tosa.shape<2>
    %4113 = tosa.reshape %4111, %4112 : (tensor<1x1x1536xf32>, !tosa.shape<2>) -> tensor<1x1536xf32>
    %cst_1207 = arith.constant dense<0.000000e+00> : tensor<1x1536xf32>
    %4114 = linalg.matmul {cast = #linalg.type_fn<cast_signed>} ins(%4113, %arg385 : tensor<1x1536xf32>, tensor<1536x1536xf32>) outs(%cst_1207 : tensor<1x1536xf32>) -> tensor<1x1536xf32>
    %4115 = tosa.const_shape  {values = dense<[1, 1536]> : tensor<2xindex>} : () -> !tosa.shape<2>
    %4116 = tosa.reshape %arg384, %4115 : (tensor<1536xf32>, !tosa.shape<2>) -> tensor<1x1536xf32>
    %4117 = tosa.add %4116, %4114 : (tensor<1x1536xf32>, tensor<1x1536xf32>) -> tensor<1x1536xf32>
    %4118 = tosa.const_shape  {values = dense<[1, 1, 1536]> : tensor<3xindex>} : () -> !tosa.shape<3>
    %4119 = tosa.reshape %4117, %4118 : (tensor<1x1536xf32>, !tosa.shape<3>) -> tensor<1x1x1536xf32>
    %4120 = tosa.const_shape  {values = dense<[1, 1, 12, 128]> : tensor<4xindex>} : () -> !tosa.shape<4>
    %4121 = tosa.reshape %4119, %4120 : (tensor<1x1x1536xf32>, !tosa.shape<4>) -> tensor<1x1x12x128xf32>
    %4122 = tosa.const_shape  {values = dense<[1, 12, 1, 128]> : tensor<4xindex>} : () -> !tosa.shape<4>
    %4123 = tosa.reshape %4121, %4122 : (tensor<1x1x12x128xf32>, !tosa.shape<4>) -> tensor<1x12x1x128xf32>
    %4124 = tosa.const_shape  {values = dense<[1, 1536]> : tensor<2xindex>} : () -> !tosa.shape<2>
    %4125 = tosa.reshape %4111, %4124 : (tensor<1x1x1536xf32>, !tosa.shape<2>) -> tensor<1x1536xf32>
    %cst_1208 = arith.constant dense<0.000000e+00> : tensor<1x256xf32>
    %4126 = linalg.matmul {cast = #linalg.type_fn<cast_signed>} ins(%4125, %arg387 : tensor<1x1536xf32>, tensor<1536x256xf32>) outs(%cst_1208 : tensor<1x256xf32>) -> tensor<1x256xf32>
    %4127 = tosa.const_shape  {values = dense<[1, 256]> : tensor<2xindex>} : () -> !tosa.shape<2>
    %4128 = tosa.reshape %arg386, %4127 : (tensor<256xf32>, !tosa.shape<2>) -> tensor<1x256xf32>
    %4129 = tosa.add %4128, %4126 : (tensor<1x256xf32>, tensor<1x256xf32>) -> tensor<1x256xf32>
    %4130 = tosa.const_shape  {values = dense<[1, 1, 256]> : tensor<3xindex>} : () -> !tosa.shape<3>
    %4131 = tosa.reshape %4129, %4130 : (tensor<1x256xf32>, !tosa.shape<3>) -> tensor<1x1x256xf32>
    %4132 = tosa.const_shape  {values = dense<[1, 1, 2, 128]> : tensor<4xindex>} : () -> !tosa.shape<4>
    %4133 = tosa.reshape %4131, %4132 : (tensor<1x1x256xf32>, !tosa.shape<4>) -> tensor<1x1x2x128xf32>
    %4134 = tosa.const_shape  {values = dense<[1, 2, 1, 128]> : tensor<4xindex>} : () -> !tosa.shape<4>
    %4135 = tosa.reshape %4133, %4134 : (tensor<1x1x2x128xf32>, !tosa.shape<4>) -> tensor<1x2x1x128xf32>
    %4136 = tosa.const_shape  {values = dense<[1, 1536]> : tensor<2xindex>} : () -> !tosa.shape<2>
    %4137 = tosa.reshape %4111, %4136 : (tensor<1x1x1536xf32>, !tosa.shape<2>) -> tensor<1x1536xf32>
    %cst_1209 = arith.constant dense<0.000000e+00> : tensor<1x256xf32>
    %4138 = linalg.matmul {cast = #linalg.type_fn<cast_signed>} ins(%4137, %arg389 : tensor<1x1536xf32>, tensor<1536x256xf32>) outs(%cst_1209 : tensor<1x256xf32>) -> tensor<1x256xf32>
    %4139 = tosa.const_shape  {values = dense<[1, 256]> : tensor<2xindex>} : () -> !tosa.shape<2>
    %4140 = tosa.reshape %arg388, %4139 : (tensor<256xf32>, !tosa.shape<2>) -> tensor<1x256xf32>
    %4141 = tosa.add %4140, %4138 : (tensor<1x256xf32>, tensor<1x256xf32>) -> tensor<1x256xf32>
    %4142 = tosa.const_shape  {values = dense<[1, 1, 256]> : tensor<3xindex>} : () -> !tosa.shape<3>
    %4143 = tosa.reshape %4141, %4142 : (tensor<1x256xf32>, !tosa.shape<3>) -> tensor<1x1x256xf32>
    %4144 = tosa.const_shape  {values = dense<[1, 1, 2, 128]> : tensor<4xindex>} : () -> !tosa.shape<4>
    %4145 = tosa.reshape %4143, %4144 : (tensor<1x1x256xf32>, !tosa.shape<4>) -> tensor<1x1x2x128xf32>
    %4146 = tosa.const_shape  {values = dense<[1, 2, 1, 128]> : tensor<4xindex>} : () -> !tosa.shape<4>
    %4147 = tosa.reshape %4145, %4146 : (tensor<1x1x2x128xf32>, !tosa.shape<4>) -> tensor<1x2x1x128xf32>
    %4148 = tosa.const_shape  {values = dense<[1, 1, 1, 128]> : tensor<4xindex>} : () -> !tosa.shape<4>
    %4149 = tosa.reshape %38, %4148 : (tensor<1x1x128xf32>, !tosa.shape<4>) -> tensor<1x1x1x128xf32>
    %4150 = tosa.const_shape  {values = dense<[1, 1, 1, 128]> : tensor<4xindex>} : () -> !tosa.shape<4>
    %4151 = tosa.reshape %43, %4150 : (tensor<1x1x128xf32>, !tosa.shape<4>) -> tensor<1x1x1x128xf32>
    %4152 = "tosa.const"() <{values = dense<0> : tensor<1xi8>}> : () -> tensor<1xi8>
    %4153 = tosa.mul %4123, %4149, %4152 : (tensor<1x12x1x128xf32>, tensor<1x1x1x128xf32>, tensor<1xi8>) -> tensor<1x12x1x128xf32>
    %extracted_slice_1210 = tensor.extract_slice %4123[0, 0, 0, 0] [1, 12, 1, 64] [1, 1, 1, 1] : tensor<1x12x1x128xf32> to tensor<1x12x1x64xf32>
    %extracted_slice_1211 = tensor.extract_slice %4123[0, 0, 0, 64] [1, 12, 1, 64] [1, 1, 1, 1] : tensor<1x12x1x128xf32> to tensor<1x12x1x64xf32>
    %4154 = "tosa.const"() <{values = dense<0.000000e+00> : tensor<1xf32>}> : () -> tensor<1xf32>
    %4155 = "tosa.const"() <{values = dense<0.000000e+00> : tensor<1xf32>}> : () -> tensor<1xf32>
    %4156 = tosa.negate %extracted_slice_1211, %4154, %4155 : (tensor<1x12x1x64xf32>, tensor<1xf32>, tensor<1xf32>) -> tensor<1x12x1x64xf32>
    %4157 = tensor.empty() : tensor<1x12x1x128xf32>
    %inserted_slice_1212 = tensor.insert_slice %4156 into %4157[0, 0, 0, 0] [1, 12, 1, 64] [1, 1, 1, 1] : tensor<1x12x1x64xf32> into tensor<1x12x1x128xf32>
    %inserted_slice_1213 = tensor.insert_slice %extracted_slice_1210 into %inserted_slice_1212[0, 0, 0, 64] [1, 12, 1, 64] [1, 1, 1, 1] : tensor<1x12x1x64xf32> into tensor<1x12x1x128xf32>
    %4158 = "tosa.const"() <{values = dense<0> : tensor<1xi8>}> : () -> tensor<1xi8>
    %4159 = tosa.mul %inserted_slice_1213, %4151, %4158 : (tensor<1x12x1x128xf32>, tensor<1x1x1x128xf32>, tensor<1xi8>) -> tensor<1x12x1x128xf32>
    %4160 = tosa.add %4153, %4159 : (tensor<1x12x1x128xf32>, tensor<1x12x1x128xf32>) -> tensor<1x12x1x128xf32>
    %4161 = "tosa.const"() <{values = dense<0> : tensor<1xi8>}> : () -> tensor<1xi8>
    %4162 = tosa.mul %4135, %4149, %4161 : (tensor<1x2x1x128xf32>, tensor<1x1x1x128xf32>, tensor<1xi8>) -> tensor<1x2x1x128xf32>
    %extracted_slice_1214 = tensor.extract_slice %4135[0, 0, 0, 0] [1, 2, 1, 64] [1, 1, 1, 1] : tensor<1x2x1x128xf32> to tensor<1x2x1x64xf32>
    %extracted_slice_1215 = tensor.extract_slice %4135[0, 0, 0, 64] [1, 2, 1, 64] [1, 1, 1, 1] : tensor<1x2x1x128xf32> to tensor<1x2x1x64xf32>
    %4163 = "tosa.const"() <{values = dense<0.000000e+00> : tensor<1xf32>}> : () -> tensor<1xf32>
    %4164 = "tosa.const"() <{values = dense<0.000000e+00> : tensor<1xf32>}> : () -> tensor<1xf32>
    %4165 = tosa.negate %extracted_slice_1215, %4163, %4164 : (tensor<1x2x1x64xf32>, tensor<1xf32>, tensor<1xf32>) -> tensor<1x2x1x64xf32>
    %4166 = tensor.empty() : tensor<1x2x1x128xf32>
    %inserted_slice_1216 = tensor.insert_slice %4165 into %4166[0, 0, 0, 0] [1, 2, 1, 64] [1, 1, 1, 1] : tensor<1x2x1x64xf32> into tensor<1x2x1x128xf32>
    %inserted_slice_1217 = tensor.insert_slice %extracted_slice_1214 into %inserted_slice_1216[0, 0, 0, 64] [1, 2, 1, 64] [1, 1, 1, 1] : tensor<1x2x1x64xf32> into tensor<1x2x1x128xf32>
    %4167 = "tosa.const"() <{values = dense<0> : tensor<1xi8>}> : () -> tensor<1xi8>
    %4168 = tosa.mul %inserted_slice_1217, %4151, %4167 : (tensor<1x2x1x128xf32>, tensor<1x1x1x128xf32>, tensor<1xi8>) -> tensor<1x2x1x128xf32>
    %4169 = tosa.add %4162, %4168 : (tensor<1x2x1x128xf32>, tensor<1x2x1x128xf32>) -> tensor<1x2x1x128xf32>
    %4170 = bufferization.to_buffer %arg390 : tensor<1x2x1024x128xf32> to memref<1x2x1024x128xf32>
    %4171 = tosa.const_shape  {values = dense<1> : tensor<4xindex>} : () -> !tosa.shape<4>
    %4172 = tosa.reshape %arg3, %4171 : (tensor<1xi64>, !tosa.shape<4>) -> tensor<1x1x1x1xi64>
    %4173 = "tosa.const"() <{values = dense<0> : tensor<1x2x1x128xi64>}> : () -> tensor<1x2x1x128xi64>
    %4174 = tosa.add %4172, %4173 : (tensor<1x1x1x1xi64>, tensor<1x2x1x128xi64>) -> tensor<1x2x1x128xi64>
    %4175 = bufferization.to_buffer %4174 : tensor<1x2x1x128xi64> to memref<1x2x1x128xi64>
    %4176 = bufferization.to_buffer %4169 : tensor<1x2x1x128xf32> to memref<1x2x1x128xf32>
    %c0_1218 = arith.constant 0 : index
    %c1_1219 = arith.constant 1 : index
    %c1_1220 = arith.constant 1 : index
    %c2_1221 = arith.constant 2 : index
    %c1_1222 = arith.constant 1 : index
    %c128_1223 = arith.constant 128 : index
    scf.for %arg399 = %c0_1218 to %c1_1220 step %c1_1219 {
      scf.for %arg400 = %c0_1218 to %c2_1221 step %c1_1219 {
        scf.for %arg401 = %c0_1218 to %c1_1222 step %c1_1219 {
          scf.for %arg402 = %c0_1218 to %c128_1223 step %c1_1219 {
            %4267 = memref.load %4176[%arg399, %arg400, %arg401, %arg402] : memref<1x2x1x128xf32>
            %4268 = memref.load %4175[%arg399, %arg400, %arg401, %arg402] : memref<1x2x1x128xi64>
            %4269 = arith.index_cast %4268 : i64 to index
            memref.store %4267, %4170[%arg399, %arg400, %4269, %arg402] : memref<1x2x1024x128xf32>
          }
        }
      }
    }
    %4177 = bufferization.to_tensor %4170 restrict : memref<1x2x1024x128xf32> to tensor<1x2x1024x128xf32>
    %4178 = bufferization.to_buffer %arg391 : tensor<1x2x1024x128xf32> to memref<1x2x1024x128xf32>
    %4179 = tosa.const_shape  {values = dense<1> : tensor<4xindex>} : () -> !tosa.shape<4>
    %4180 = tosa.reshape %arg3, %4179 : (tensor<1xi64>, !tosa.shape<4>) -> tensor<1x1x1x1xi64>
    %4181 = "tosa.const"() <{values = dense<0> : tensor<1x2x1x128xi64>}> : () -> tensor<1x2x1x128xi64>
    %4182 = tosa.add %4180, %4181 : (tensor<1x1x1x1xi64>, tensor<1x2x1x128xi64>) -> tensor<1x2x1x128xi64>
    %4183 = bufferization.to_buffer %4182 : tensor<1x2x1x128xi64> to memref<1x2x1x128xi64>
    %4184 = bufferization.to_buffer %4147 : tensor<1x2x1x128xf32> to memref<1x2x1x128xf32>
    %c0_1224 = arith.constant 0 : index
    %c1_1225 = arith.constant 1 : index
    %c1_1226 = arith.constant 1 : index
    %c2_1227 = arith.constant 2 : index
    %c1_1228 = arith.constant 1 : index
    %c128_1229 = arith.constant 128 : index
    scf.for %arg399 = %c0_1224 to %c1_1226 step %c1_1225 {
      scf.for %arg400 = %c0_1224 to %c2_1227 step %c1_1225 {
        scf.for %arg401 = %c0_1224 to %c1_1228 step %c1_1225 {
          scf.for %arg402 = %c0_1224 to %c128_1229 step %c1_1225 {
            %4267 = memref.load %4184[%arg399, %arg400, %arg401, %arg402] : memref<1x2x1x128xf32>
            %4268 = memref.load %4183[%arg399, %arg400, %arg401, %arg402] : memref<1x2x1x128xi64>
            %4269 = arith.index_cast %4268 : i64 to index
            memref.store %4267, %4178[%arg399, %arg400, %4269, %arg402] : memref<1x2x1024x128xf32>
          }
        }
      }
    }
    %4185 = bufferization.to_tensor %4178 restrict : memref<1x2x1024x128xf32> to tensor<1x2x1024x128xf32>
    %4186 = tosa.const_shape  {values = dense<[1, 1, 1, 1024]> : tensor<4xindex>} : () -> !tosa.shape<4>
    %4187 = tosa.reshape %17, %4186 : (tensor<1x1024xi1>, !tosa.shape<4>) -> tensor<1x1x1x1024xi1>
    %cst_1230 = arith.constant 0xFF800000 : f32
    %cst_1231 = arith.constant 0.000000e+00 : f32
    %4188 = tensor.empty() : tensor<1x1x1x1024xf32>
    %splat_1232 = tensor.splat %cst_1231 : tensor<1x1x1x1024xf32>
    %splat_1233 = tensor.splat %cst_1230 : tensor<1x1x1x1024xf32>
    %4189 = linalg.generic {indexing_maps = [#map1, #map1, #map1, #map1], iterator_types = ["parallel", "parallel", "parallel", "parallel"]} ins(%4187, %splat_1232, %splat_1233 : tensor<1x1x1x1024xi1>, tensor<1x1x1x1024xf32>, tensor<1x1x1x1024xf32>) outs(%4188 : tensor<1x1x1x1024xf32>) {
    ^bb0(%in: i1, %in_1253: f32, %in_1254: f32, %out: f32):
      %4267 = arith.select %in, %in_1253, %in_1254 : f32
      linalg.yield %4267 : f32
    } -> tensor<1x1x1x1024xf32>
    %c0_1234 = arith.constant 0 : index
    %cst_1235 = arith.constant 1.000000e+00 : f32
    %cst_1236 = arith.constant 0.0883883461 : f32
    %cst_1237 = arith.constant 0.000000e+00 : f32
    %4190 = vector.splat %cst_1237 : vector<16xf32>
    %cst_1238 = arith.constant -1.000000e+30 : f32
    %4191 = bufferization.to_buffer %4160 : tensor<1x12x1x128xf32> to memref<1x12x1x128xf32>
    %4192 = bufferization.to_buffer %4177 : tensor<1x2x1024x128xf32> to memref<1x2x1024x128xf32>
    %4193 = bufferization.to_buffer %4185 : tensor<1x2x1024x128xf32> to memref<1x2x1024x128xf32>
    %4194 = bufferization.to_buffer %4189 : tensor<1x1x1x1024xf32> to memref<1x1x1x1024xf32>
    %c1_1239 = arith.constant 1 : index
    %c12_1240 = arith.constant 12 : index
    %c1_1241 = arith.constant 1 : index
    %c128_1242 = arith.constant 128 : index
    %alloc_1243 = memref.alloc() : memref<1x12x1x128xf32>
    %alloc_1244 = memref.alloc() : memref<1x12x1xf32>
    %alloc_1245 = memref.alloc() : memref<128xf32>
    affine.for %arg399 = 0 to #map2(%c1_1239) {
      affine.for %arg400 = 0 to #map2(%c12_1240) {
        %c6 = arith.constant 6 : index
        %4267 = arith.divsi %arg400, %c6 : index
        affine.for %arg401 = 0 to #map2(%c1_1241) {
          affine.for %arg402 = 0 to #map2(%c128_1242) {
            memref.store %cst_1237, %alloc_1245[%arg402] : memref<128xf32>
          }
          %c1024 = arith.constant 1024 : index
          %4268:2 = affine.for %arg402 = 0 to #map2(%c1024) iter_args(%arg403 = %cst_1238, %arg404 = %cst_1237) -> (f32, f32) {
            %4269 = affine.for %arg405 = 0 to #map2(%c128_1242) step 16 iter_args(%arg406 = %4190) -> (vector<16xf32>) {
              %4284 = vector.load %4191[%arg399, %arg400, %arg401, %arg405] : memref<1x12x1x128xf32>, vector<16xf32>
              %4285 = vector.load %4192[%arg399, %4267, %arg402, %arg405] : memref<1x2x1024x128xf32>, vector<16xf32>
              %4286 = vector.fma %4284, %4285, %arg406 : vector<16xf32>
              affine.yield %4286 : vector<16xf32>
            }
            %4270 = vector.reduction <add>, %4269 : vector<16xf32> into f32
            %4271 = arith.mulf %4270, %cst_1236 : f32
            %4272 = memref.load %4194[%arg399, %c0_1234, %arg401, %arg402] : memref<1x1x1x1024xf32>
            %4273 = arith.addf %4271, %4272 : f32
            %4274 = arith.cmpf ogt, %4273, %arg403 : f32
            %4275 = arith.select %4274, %4273, %arg403 : f32
            %4276 = arith.subf %arg403, %4273 : f32
            %4277 = math.exp %4276 : f32
            %4278 = arith.mulf %4277, %arg404 : f32
            %4279 = arith.addf %4278, %cst_1235 : f32
            %4280 = arith.subf %4273, %arg403 : f32
            %4281 = math.exp %4280 : f32
            %4282 = arith.addf %arg404, %4281 : f32
            %4283 = arith.select %4274, %4279, %4282 : f32
            affine.for %arg405 = 0 to #map2(%c128_1242) {
              %4284 = memref.load %4193[%arg399, %4267, %arg402, %arg405] : memref<1x2x1024x128xf32>
              %4285 = memref.load %alloc_1245[%arg405] : memref<128xf32>
              %4286 = arith.mulf %4285, %4277 : f32
              %4287 = arith.addf %4286, %4284 : f32
              %4288 = arith.mulf %4281, %4284 : f32
              %4289 = arith.addf %4288, %4285 : f32
              %4290 = arith.select %4274, %4287, %4289 : f32
              memref.store %4290, %alloc_1245[%arg405] : memref<128xf32>
            }
            affine.yield %4275, %4283 : f32, f32
          }
          memref.store %4268#1, %alloc_1244[%arg399, %arg400, %arg401] : memref<1x12x1xf32>
          affine.for %arg402 = 0 to #map2(%c128_1242) {
            %4269 = memref.load %alloc_1245[%arg402] : memref<128xf32>
            %4270 = arith.divf %4269, %4268#1 : f32
            memref.store %4270, %alloc_1243[%arg399, %arg400, %arg401, %arg402] : memref<1x12x1x128xf32>
          }
        }
      }
    }
    %4195 = bufferization.to_tensor %alloc_1243 restrict : memref<1x12x1x128xf32> to tensor<1x12x1x128xf32>
    %4196 = bufferization.to_tensor %alloc_1244 restrict : memref<1x12x1xf32> to tensor<1x12x1xf32>
    %4197 = tosa.const_shape  {values = dense<[1, 1, 1536]> : tensor<3xindex>} : () -> !tosa.shape<3>
    %4198 = tosa.reshape %4195, %4197 : (tensor<1x12x1x128xf32>, !tosa.shape<3>) -> tensor<1x1x1536xf32>
    %4199 = tosa.const_shape  {values = dense<[1, 1536]> : tensor<2xindex>} : () -> !tosa.shape<2>
    %4200 = tosa.reshape %4198, %4199 : (tensor<1x1x1536xf32>, !tosa.shape<2>) -> tensor<1x1536xf32>
    %cst_1246 = arith.constant dense<0.000000e+00> : tensor<1x1536xf32>
    %4201 = linalg.matmul {cast = #linalg.type_fn<cast_signed>} ins(%4200, %arg392 : tensor<1x1536xf32>, tensor<1536x1536xf32>) outs(%cst_1246 : tensor<1x1536xf32>) -> tensor<1x1536xf32>
    %4202 = tosa.const_shape  {values = dense<[1, 1, 1536]> : tensor<3xindex>} : () -> !tosa.shape<3>
    %4203 = tosa.reshape %4201, %4202 : (tensor<1x1536xf32>, !tosa.shape<3>) -> tensor<1x1x1536xf32>
    %4204 = tosa.add %4093, %4203 : (tensor<1x1x1536xf32>, tensor<1x1x1536xf32>) -> tensor<1x1x1536xf32>
    %4205 = tensor.empty() : tensor<1x1x1536xf32>
    %c2_i32_1247 = arith.constant 2 : i32
    %4206 = linalg.generic {indexing_maps = [#map, #map], iterator_types = ["parallel", "parallel", "parallel"]} ins(%4204 : tensor<1x1x1536xf32>) outs(%4205 : tensor<1x1x1536xf32>) {
    ^bb0(%in: f32, %out: f32):
      %4267 = math.fpowi %in, %c2_i32_1247 : f32, i32
      linalg.yield %4267 : f32
    } -> tensor<1x1x1536xf32>
    %4207 = tosa.reduce_sum %4206 {axis = 2 : i32} : (tensor<1x1x1536xf32>) -> tensor<1x1x1xf32>
    %4208 = "tosa.const"() <{values = dense<1.536000e+03> : tensor<1xf32>}> : () -> tensor<1xf32>
    %4209 = tosa.reciprocal %4208 : (tensor<1xf32>) -> tensor<1xf32>
    %4210 = tosa.const_shape  {values = dense<1> : tensor<3xindex>} : () -> !tosa.shape<3>
    %4211 = tosa.reshape %4209, %4210 : (tensor<1xf32>, !tosa.shape<3>) -> tensor<1x1x1xf32>
    %4212 = "tosa.const"() <{values = dense<0> : tensor<1xi8>}> : () -> tensor<1xi8>
    %4213 = tosa.mul %4211, %4207, %4212 : (tensor<1x1x1xf32>, tensor<1x1x1xf32>, tensor<1xi8>) -> tensor<1x1x1xf32>
    %4214 = "tosa.const"() <{values = dense<9.99999997E-7> : tensor<1x1x1xf32>}> : () -> tensor<1x1x1xf32>
    %4215 = tosa.add %4213, %4214 : (tensor<1x1x1xf32>, tensor<1x1x1xf32>) -> tensor<1x1x1xf32>
    %4216 = tosa.rsqrt %4215 : (tensor<1x1x1xf32>) -> tensor<1x1x1xf32>
    %4217 = "tosa.const"() <{values = dense<0> : tensor<1xi8>}> : () -> tensor<1xi8>
    %4218 = tosa.mul %4204, %4216, %4217 : (tensor<1x1x1536xf32>, tensor<1x1x1xf32>, tensor<1xi8>) -> tensor<1x1x1536xf32>
    %4219 = tosa.const_shape  {values = dense<[1, 1, 1536]> : tensor<3xindex>} : () -> !tosa.shape<3>
    %4220 = tosa.reshape %arg393, %4219 : (tensor<1536xf32>, !tosa.shape<3>) -> tensor<1x1x1536xf32>
    %4221 = "tosa.const"() <{values = dense<0> : tensor<1xi8>}> : () -> tensor<1xi8>
    %4222 = tosa.mul %4220, %4218, %4221 : (tensor<1x1x1536xf32>, tensor<1x1x1536xf32>, tensor<1xi8>) -> tensor<1x1x1536xf32>
    %4223 = tosa.const_shape  {values = dense<[1, 1536]> : tensor<2xindex>} : () -> !tosa.shape<2>
    %4224 = tosa.reshape %4222, %4223 : (tensor<1x1x1536xf32>, !tosa.shape<2>) -> tensor<1x1536xf32>
    %cst_1248 = arith.constant dense<0.000000e+00> : tensor<1x8960xf32>
    %4225 = linalg.matmul {cast = #linalg.type_fn<cast_signed>} ins(%4224, %arg394 : tensor<1x1536xf32>, tensor<1536x8960xf32>) outs(%cst_1248 : tensor<1x8960xf32>) -> tensor<1x8960xf32>
    %4226 = tosa.const_shape  {values = dense<[1, 1, 8960]> : tensor<3xindex>} : () -> !tosa.shape<3>
    %4227 = tosa.reshape %4225, %4226 : (tensor<1x8960xf32>, !tosa.shape<3>) -> tensor<1x1x8960xf32>
    %4228 = tosa.sigmoid %4227 : (tensor<1x1x8960xf32>) -> tensor<1x1x8960xf32>
    %4229 = "tosa.const"() <{values = dense<0> : tensor<1xi8>}> : () -> tensor<1xi8>
    %4230 = tosa.mul %4227, %4228, %4229 : (tensor<1x1x8960xf32>, tensor<1x1x8960xf32>, tensor<1xi8>) -> tensor<1x1x8960xf32>
    %4231 = tosa.const_shape  {values = dense<[1, 1536]> : tensor<2xindex>} : () -> !tosa.shape<2>
    %4232 = tosa.reshape %4222, %4231 : (tensor<1x1x1536xf32>, !tosa.shape<2>) -> tensor<1x1536xf32>
    %cst_1249 = arith.constant dense<0.000000e+00> : tensor<1x8960xf32>
    %4233 = linalg.matmul {cast = #linalg.type_fn<cast_signed>} ins(%4232, %arg395 : tensor<1x1536xf32>, tensor<1536x8960xf32>) outs(%cst_1249 : tensor<1x8960xf32>) -> tensor<1x8960xf32>
    %4234 = tosa.const_shape  {values = dense<[1, 1, 8960]> : tensor<3xindex>} : () -> !tosa.shape<3>
    %4235 = tosa.reshape %4233, %4234 : (tensor<1x8960xf32>, !tosa.shape<3>) -> tensor<1x1x8960xf32>
    %4236 = "tosa.const"() <{values = dense<0> : tensor<1xi8>}> : () -> tensor<1xi8>
    %4237 = tosa.mul %4230, %4235, %4236 : (tensor<1x1x8960xf32>, tensor<1x1x8960xf32>, tensor<1xi8>) -> tensor<1x1x8960xf32>
    %4238 = tosa.const_shape  {values = dense<[1, 8960]> : tensor<2xindex>} : () -> !tosa.shape<2>
    %4239 = tosa.reshape %4237, %4238 : (tensor<1x1x8960xf32>, !tosa.shape<2>) -> tensor<1x8960xf32>
    %cst_1250 = arith.constant dense<0.000000e+00> : tensor<1x1536xf32>
    %4240 = linalg.matmul {cast = #linalg.type_fn<cast_signed>} ins(%4239, %arg396 : tensor<1x8960xf32>, tensor<8960x1536xf32>) outs(%cst_1250 : tensor<1x1536xf32>) -> tensor<1x1536xf32>
    %4241 = tosa.const_shape  {values = dense<[1, 1, 1536]> : tensor<3xindex>} : () -> !tosa.shape<3>
    %4242 = tosa.reshape %4240, %4241 : (tensor<1x1536xf32>, !tosa.shape<3>) -> tensor<1x1x1536xf32>
    %4243 = tosa.add %4204, %4242 : (tensor<1x1x1536xf32>, tensor<1x1x1536xf32>) -> tensor<1x1x1536xf32>
    %4244 = tensor.empty() : tensor<1x1x1536xf32>
    %c2_i32_1251 = arith.constant 2 : i32
    %4245 = linalg.generic {indexing_maps = [#map, #map], iterator_types = ["parallel", "parallel", "parallel"]} ins(%4243 : tensor<1x1x1536xf32>) outs(%4244 : tensor<1x1x1536xf32>) {
    ^bb0(%in: f32, %out: f32):
      %4267 = math.fpowi %in, %c2_i32_1251 : f32, i32
      linalg.yield %4267 : f32
    } -> tensor<1x1x1536xf32>
    %4246 = tosa.reduce_sum %4245 {axis = 2 : i32} : (tensor<1x1x1536xf32>) -> tensor<1x1x1xf32>
    %4247 = "tosa.const"() <{values = dense<1.536000e+03> : tensor<1xf32>}> : () -> tensor<1xf32>
    %4248 = tosa.reciprocal %4247 : (tensor<1xf32>) -> tensor<1xf32>
    %4249 = tosa.const_shape  {values = dense<1> : tensor<3xindex>} : () -> !tosa.shape<3>
    %4250 = tosa.reshape %4248, %4249 : (tensor<1xf32>, !tosa.shape<3>) -> tensor<1x1x1xf32>
    %4251 = "tosa.const"() <{values = dense<0> : tensor<1xi8>}> : () -> tensor<1xi8>
    %4252 = tosa.mul %4250, %4246, %4251 : (tensor<1x1x1xf32>, tensor<1x1x1xf32>, tensor<1xi8>) -> tensor<1x1x1xf32>
    %4253 = "tosa.const"() <{values = dense<9.99999997E-7> : tensor<1x1x1xf32>}> : () -> tensor<1x1x1xf32>
    %4254 = tosa.add %4252, %4253 : (tensor<1x1x1xf32>, tensor<1x1x1xf32>) -> tensor<1x1x1xf32>
    %4255 = tosa.rsqrt %4254 : (tensor<1x1x1xf32>) -> tensor<1x1x1xf32>
    %4256 = "tosa.const"() <{values = dense<0> : tensor<1xi8>}> : () -> tensor<1xi8>
    %4257 = tosa.mul %4243, %4255, %4256 : (tensor<1x1x1536xf32>, tensor<1x1x1xf32>, tensor<1xi8>) -> tensor<1x1x1536xf32>
    %4258 = tosa.const_shape  {values = dense<[1, 1, 1536]> : tensor<3xindex>} : () -> !tosa.shape<3>
    %4259 = tosa.reshape %arg397, %4258 : (tensor<1536xf32>, !tosa.shape<3>) -> tensor<1x1x1536xf32>
    %4260 = "tosa.const"() <{values = dense<0> : tensor<1xi8>}> : () -> tensor<1xi8>
    %4261 = tosa.mul %4259, %4257, %4260 : (tensor<1x1x1536xf32>, tensor<1x1x1536xf32>, tensor<1xi8>) -> tensor<1x1x1536xf32>
    %4262 = tosa.const_shape  {values = dense<[1, 1536]> : tensor<2xindex>} : () -> !tosa.shape<2>
    %4263 = tosa.reshape %4261, %4262 : (tensor<1x1x1536xf32>, !tosa.shape<2>) -> tensor<1x1536xf32>
    %cst_1252 = arith.constant dense<0.000000e+00> : tensor<1x151936xf32>
    %4264 = linalg.matmul {cast = #linalg.type_fn<cast_signed>} ins(%4263, %arg398 : tensor<1x1536xf32>, tensor<1536x151936xf32>) outs(%cst_1252 : tensor<1x151936xf32>) -> tensor<1x151936xf32>
    %4265 = tosa.const_shape  {values = dense<[1, 1, 151936]> : tensor<3xindex>} : () -> !tosa.shape<3>
    %4266 = tosa.reshape %4264, %4265 : (tensor<1x151936xf32>, !tosa.shape<3>) -> tensor<1x1x151936xf32>
    return %127, %135, %277, %285, %427, %435, %577, %585, %727, %735, %877, %885, %1027, %1035, %1177, %1185, %1327, %1335, %1477, %1485, %1627, %1635, %1777, %1785, %1927, %1935, %2077, %2085, %2227, %2235, %2377, %2385, %2527, %2535, %2677, %2685, %2827, %2835, %2977, %2985, %3127, %3135, %3277, %3285, %3427, %3435, %3577, %3585, %3727, %3735, %3877, %3885, %4027, %4035, %4177, %4185, %4266 : tensor<1x2x1024x128xf32>, tensor<1x2x1024x128xf32>, tensor<1x2x1024x128xf32>, tensor<1x2x1024x128xf32>, tensor<1x2x1024x128xf32>, tensor<1x2x1024x128xf32>, tensor<1x2x1024x128xf32>, tensor<1x2x1024x128xf32>, tensor<1x2x1024x128xf32>, tensor<1x2x1024x128xf32>, tensor<1x2x1024x128xf32>, tensor<1x2x1024x128xf32>, tensor<1x2x1024x128xf32>, tensor<1x2x1024x128xf32>, tensor<1x2x1024x128xf32>, tensor<1x2x1024x128xf32>, tensor<1x2x1024x128xf32>, tensor<1x2x1024x128xf32>, tensor<1x2x1024x128xf32>, tensor<1x2x1024x128xf32>, tensor<1x2x1024x128xf32>, tensor<1x2x1024x128xf32>, tensor<1x2x1024x128xf32>, tensor<1x2x1024x128xf32>, tensor<1x2x1024x128xf32>, tensor<1x2x1024x128xf32>, tensor<1x2x1024x128xf32>, tensor<1x2x1024x128xf32>, tensor<1x2x1024x128xf32>, tensor<1x2x1024x128xf32>, tensor<1x2x1024x128xf32>, tensor<1x2x1024x128xf32>, tensor<1x2x1024x128xf32>, tensor<1x2x1024x128xf32>, tensor<1x2x1024x128xf32>, tensor<1x2x1024x128xf32>, tensor<1x2x1024x128xf32>, tensor<1x2x1024x128xf32>, tensor<1x2x1024x128xf32>, tensor<1x2x1024x128xf32>, tensor<1x2x1024x128xf32>, tensor<1x2x1024x128xf32>, tensor<1x2x1024x128xf32>, tensor<1x2x1024x128xf32>, tensor<1x2x1024x128xf32>, tensor<1x2x1024x128xf32>, tensor<1x2x1024x128xf32>, tensor<1x2x1024x128xf32>, tensor<1x2x1024x128xf32>, tensor<1x2x1024x128xf32>, tensor<1x2x1024x128xf32>, tensor<1x2x1024x128xf32>, tensor<1x2x1024x128xf32>, tensor<1x2x1024x128xf32>, tensor<1x2x1024x128xf32>, tensor<1x2x1024x128xf32>, tensor<1x1x151936xf32>
  }
}
