module {
  func.func private @subgraph0(memref<1x3x224x224xf32, strided<[150528, 50176, 224, 1], offset: ?>>, memref<16x3x3x3xf32, strided<[27, 9, 3, 1], offset: ?>>, memref<16xf32, strided<[1], offset: ?>>, memref<16xf32, strided<[1], offset: ?>>, memref<16xf32, strided<[1], offset: ?>>, memref<16xf32, strided<[1], offset: ?>>, memref<16x1x3x3xf32, strided<[9, 9, 3, 1], offset: ?>>, memref<16xf32, strided<[1], offset: ?>>, memref<16xf32, strided<[1], offset: ?>>, memref<16xf32, strided<[1], offset: ?>>, memref<16xf32, strided<[1], offset: ?>>, memref<8x16x1x1xf32, strided<[16, 1, 1, 1], offset: ?>>, memref<8xf32, strided<[1], offset: ?>>, memref<16x8x1x1xf32, strided<[8, 1, 1, 1], offset: ?>>, memref<16xf32, strided<[1], offset: ?>>, memref<16x16x1x1xf32, strided<[16, 1, 1, 1], offset: ?>>, memref<16xf32, strided<[1], offset: ?>>, memref<16xf32, strided<[1], offset: ?>>, memref<16xf32, strided<[1], offset: ?>>, memref<16xf32, strided<[1], offset: ?>>, memref<72x16x1x1xf32, strided<[16, 1, 1, 1], offset: ?>>, memref<72xf32, strided<[1], offset: ?>>, memref<72xf32, strided<[1], offset: ?>>, memref<72xf32, strided<[1], offset: ?>>, memref<72xf32, strided<[1], offset: ?>>, memref<72x1x3x3xf32, strided<[9, 9, 3, 1], offset: ?>>, memref<72xf32, strided<[1], offset: ?>>, memref<72xf32, strided<[1], offset: ?>>, memref<72xf32, strided<[1], offset: ?>>, memref<72xf32, strided<[1], offset: ?>>, memref<24x72x1x1xf32, strided<[72, 1, 1, 1], offset: ?>>, memref<24xf32, strided<[1], offset: ?>>, memref<24xf32, strided<[1], offset: ?>>, memref<24xf32, strided<[1], offset: ?>>, memref<24xf32, strided<[1], offset: ?>>, memref<88x24x1x1xf32, strided<[24, 1, 1, 1], offset: ?>>, memref<88xf32, strided<[1], offset: ?>>, memref<88xf32, strided<[1], offset: ?>>, memref<88xf32, strided<[1], offset: ?>>, memref<88xf32, strided<[1], offset: ?>>, memref<88x1x3x3xf32, strided<[9, 9, 3, 1], offset: ?>>, memref<88xf32, strided<[1], offset: ?>>, memref<88xf32, strided<[1], offset: ?>>, memref<88xf32, strided<[1], offset: ?>>, memref<88xf32, strided<[1], offset: ?>>, memref<24x88x1x1xf32, strided<[88, 1, 1, 1], offset: ?>>, memref<24xf32, strided<[1], offset: ?>>, memref<24xf32, strided<[1], offset: ?>>, memref<24xf32, strided<[1], offset: ?>>, memref<24xf32, strided<[1], offset: ?>>, memref<96x24x1x1xf32, strided<[24, 1, 1, 1], offset: ?>>, memref<96xf32, strided<[1], offset: ?>>, memref<96xf32, strided<[1], offset: ?>>, memref<96xf32, strided<[1], offset: ?>>, memref<96xf32, strided<[1], offset: ?>>, memref<96x1x5x5xf32, strided<[25, 25, 5, 1], offset: ?>>, memref<96xf32, strided<[1], offset: ?>>, memref<96xf32, strided<[1], offset: ?>>, memref<96xf32, strided<[1], offset: ?>>, memref<96xf32, strided<[1], offset: ?>>, memref<24x96x1x1xf32, strided<[96, 1, 1, 1], offset: ?>>, memref<24xf32, strided<[1], offset: ?>>, memref<96x24x1x1xf32, strided<[24, 1, 1, 1], offset: ?>>, memref<96xf32, strided<[1], offset: ?>>, memref<40x96x1x1xf32, strided<[96, 1, 1, 1], offset: ?>>, memref<40xf32, strided<[1], offset: ?>>, memref<40xf32, strided<[1], offset: ?>>, memref<40xf32, strided<[1], offset: ?>>, memref<40xf32, strided<[1], offset: ?>>, memref<240x40x1x1xf32, strided<[40, 1, 1, 1], offset: ?>>, memref<240xf32, strided<[1], offset: ?>>, memref<240xf32, strided<[1], offset: ?>>, memref<240xf32, strided<[1], offset: ?>>, memref<240xf32, strided<[1], offset: ?>>, memref<240x1x5x5xf32, strided<[25, 25, 5, 1], offset: ?>>, memref<240xf32, strided<[1], offset: ?>>, memref<240xf32, strided<[1], offset: ?>>, memref<240xf32, strided<[1], offset: ?>>, memref<240xf32, strided<[1], offset: ?>>, memref<64x240x1x1xf32, strided<[240, 1, 1, 1], offset: ?>>, memref<64xf32, strided<[1], offset: ?>>, memref<240x64x1x1xf32, strided<[64, 1, 1, 1], offset: ?>>, memref<240xf32, strided<[1], offset: ?>>, memref<40x240x1x1xf32, strided<[240, 1, 1, 1], offset: ?>>, memref<40xf32, strided<[1], offset: ?>>, memref<40xf32, strided<[1], offset: ?>>, memref<40xf32, strided<[1], offset: ?>>, memref<40xf32, strided<[1], offset: ?>>, memref<240x40x1x1xf32, strided<[40, 1, 1, 1], offset: ?>>, memref<240xf32, strided<[1], offset: ?>>, memref<240xf32, strided<[1], offset: ?>>, memref<240xf32, strided<[1], offset: ?>>, memref<240xf32, strided<[1], offset: ?>>, memref<240x1x5x5xf32, strided<[25, 25, 5, 1], offset: ?>>, memref<240xf32, strided<[1], offset: ?>>, memref<240xf32, strided<[1], offset: ?>>, memref<240xf32, strided<[1], offset: ?>>, memref<240xf32, strided<[1], offset: ?>>, memref<64x240x1x1xf32, strided<[240, 1, 1, 1], offset: ?>>, memref<64xf32, strided<[1], offset: ?>>, memref<240x64x1x1xf32, strided<[64, 1, 1, 1], offset: ?>>, memref<240xf32, strided<[1], offset: ?>>, memref<40x240x1x1xf32, strided<[240, 1, 1, 1], offset: ?>>, memref<40xf32, strided<[1], offset: ?>>, memref<40xf32, strided<[1], offset: ?>>, memref<40xf32, strided<[1], offset: ?>>, memref<40xf32, strided<[1], offset: ?>>, memref<120x40x1x1xf32, strided<[40, 1, 1, 1], offset: ?>>, memref<120xf32, strided<[1], offset: ?>>, memref<120xf32, strided<[1], offset: ?>>, memref<120xf32, strided<[1], offset: ?>>, memref<120xf32, strided<[1], offset: ?>>, memref<120x1x5x5xf32, strided<[25, 25, 5, 1], offset: ?>>, memref<120xf32, strided<[1], offset: ?>>, memref<120xf32, strided<[1], offset: ?>>, memref<120xf32, strided<[1], offset: ?>>, memref<120xf32, strided<[1], offset: ?>>, memref<32x120x1x1xf32, strided<[120, 1, 1, 1], offset: ?>>, memref<32xf32, strided<[1], offset: ?>>, memref<120x32x1x1xf32, strided<[32, 1, 1, 1], offset: ?>>, memref<120xf32, strided<[1], offset: ?>>, memref<48x120x1x1xf32, strided<[120, 1, 1, 1], offset: ?>>, memref<48xf32, strided<[1], offset: ?>>, memref<48xf32, strided<[1], offset: ?>>, memref<48xf32, strided<[1], offset: ?>>, memref<48xf32, strided<[1], offset: ?>>, memref<144x48x1x1xf32, strided<[48, 1, 1, 1], offset: ?>>, memref<144xf32, strided<[1], offset: ?>>, memref<144xf32, strided<[1], offset: ?>>, memref<144xf32, strided<[1], offset: ?>>, memref<144xf32, strided<[1], offset: ?>>, memref<144x1x5x5xf32, strided<[25, 25, 5, 1], offset: ?>>, memref<144xf32, strided<[1], offset: ?>>, memref<144xf32, strided<[1], offset: ?>>, memref<144xf32, strided<[1], offset: ?>>, memref<144xf32, strided<[1], offset: ?>>, memref<40x144x1x1xf32, strided<[144, 1, 1, 1], offset: ?>>, memref<40xf32, strided<[1], offset: ?>>, memref<144x40x1x1xf32, strided<[40, 1, 1, 1], offset: ?>>, memref<144xf32, strided<[1], offset: ?>>, memref<48x144x1x1xf32, strided<[144, 1, 1, 1], offset: ?>>, memref<48xf32, strided<[1], offset: ?>>, memref<48xf32, strided<[1], offset: ?>>, memref<48xf32, strided<[1], offset: ?>>, memref<48xf32, strided<[1], offset: ?>>, memref<288x48x1x1xf32, strided<[48, 1, 1, 1], offset: ?>>, memref<288xf32, strided<[1], offset: ?>>, memref<288xf32, strided<[1], offset: ?>>, memref<288xf32, strided<[1], offset: ?>>, memref<288xf32, strided<[1], offset: ?>>, memref<288x1x5x5xf32, strided<[25, 25, 5, 1], offset: ?>>, memref<288xf32, strided<[1], offset: ?>>, memref<288xf32, strided<[1], offset: ?>>, memref<288xf32, strided<[1], offset: ?>>, memref<288xf32, strided<[1], offset: ?>>, memref<72x288x1x1xf32, strided<[288, 1, 1, 1], offset: ?>>, memref<72xf32, strided<[1], offset: ?>>, memref<288x72x1x1xf32, strided<[72, 1, 1, 1], offset: ?>>, memref<288xf32, strided<[1], offset: ?>>, memref<96x288x1x1xf32, strided<[288, 1, 1, 1], offset: ?>>, memref<96xf32, strided<[1], offset: ?>>, memref<96xf32, strided<[1], offset: ?>>, memref<96xf32, strided<[1], offset: ?>>, memref<96xf32, strided<[1], offset: ?>>, memref<576x96x1x1xf32, strided<[96, 1, 1, 1], offset: ?>>, memref<576xf32, strided<[1], offset: ?>>, memref<576xf32, strided<[1], offset: ?>>, memref<576xf32, strided<[1], offset: ?>>, memref<576xf32, strided<[1], offset: ?>>, memref<576x1x5x5xf32, strided<[25, 25, 5, 1], offset: ?>>, memref<576xf32, strided<[1], offset: ?>>, memref<576xf32, strided<[1], offset: ?>>, memref<576xf32, strided<[1], offset: ?>>, memref<576xf32, strided<[1], offset: ?>>, memref<144x576x1x1xf32, strided<[576, 1, 1, 1], offset: ?>>, memref<144xf32, strided<[1], offset: ?>>, memref<576x144x1x1xf32, strided<[144, 1, 1, 1], offset: ?>>, memref<576xf32, strided<[1], offset: ?>>, memref<96x576x1x1xf32, strided<[576, 1, 1, 1], offset: ?>>, memref<96xf32, strided<[1], offset: ?>>, memref<96xf32, strided<[1], offset: ?>>, memref<96xf32, strided<[1], offset: ?>>, memref<96xf32, strided<[1], offset: ?>>, memref<576x96x1x1xf32, strided<[96, 1, 1, 1], offset: ?>>, memref<576xf32, strided<[1], offset: ?>>, memref<576xf32, strided<[1], offset: ?>>, memref<576xf32, strided<[1], offset: ?>>, memref<576xf32, strided<[1], offset: ?>>, memref<576x1x5x5xf32, strided<[25, 25, 5, 1], offset: ?>>, memref<576xf32, strided<[1], offset: ?>>, memref<576xf32, strided<[1], offset: ?>>, memref<576xf32, strided<[1], offset: ?>>, memref<576xf32, strided<[1], offset: ?>>, memref<144x576x1x1xf32, strided<[576, 1, 1, 1], offset: ?>>, memref<144xf32, strided<[1], offset: ?>>, memref<576x144x1x1xf32, strided<[144, 1, 1, 1], offset: ?>>, memref<576xf32, strided<[1], offset: ?>>, memref<96x576x1x1xf32, strided<[576, 1, 1, 1], offset: ?>>, memref<96xf32, strided<[1], offset: ?>>, memref<96xf32, strided<[1], offset: ?>>, memref<96xf32, strided<[1], offset: ?>>, memref<96xf32, strided<[1], offset: ?>>, memref<576x96x1x1xf32, strided<[96, 1, 1, 1], offset: ?>>, memref<576xf32, strided<[1], offset: ?>>, memref<576xf32, strided<[1], offset: ?>>, memref<576xf32, strided<[1], offset: ?>>, memref<576xf32, strided<[1], offset: ?>>, memref<1024x576xf32, strided<[576, 1], offset: ?>>, memref<1024xf32, strided<[1], offset: ?>>, memref<1000x1024xf32, strided<[1024, 1], offset: ?>>, memref<1000xf32, strided<[1], offset: ?>>) -> memref<1x1000xf32>
  func.func @forward(%arg0: memref<2554968xf32>, %arg1: memref<34xi64>, %arg2: memref<1x3x224x224xf32>) -> memref<1x1000xf32> {
    %subview = memref.subview %arg0[0] [432] [1] : memref<2554968xf32> to memref<432xf32>
    %expand_shape = memref.expand_shape %subview [[0, 1, 2, 3]] : memref<432xf32> into memref<16x3x3x3xf32>
    %subview_0 = memref.subview %arg0[432] [16] [1] : memref<2554968xf32> to memref<16xf32, strided<[1], offset: 432>>
    %subview_1 = memref.subview %arg0[448] [16] [1] : memref<2554968xf32> to memref<16xf32, strided<[1], offset: 448>>
    %subview_2 = memref.subview %arg0[464] [144] [1] : memref<2554968xf32> to memref<144xf32, strided<[1], offset: 464>>
    %expand_shape_3 = memref.expand_shape %subview_2 [[0, 1, 2, 3]] : memref<144xf32, strided<[1], offset: 464>> into memref<16x1x3x3xf32, strided<[9, 9, 3, 1], offset: 464>>
    %subview_4 = memref.subview %arg0[608] [16] [1] : memref<2554968xf32> to memref<16xf32, strided<[1], offset: 608>>
    %subview_5 = memref.subview %arg0[624] [16] [1] : memref<2554968xf32> to memref<16xf32, strided<[1], offset: 624>>
    %subview_6 = memref.subview %arg0[640] [128] [1] : memref<2554968xf32> to memref<128xf32, strided<[1], offset: 640>>
    %expand_shape_7 = memref.expand_shape %subview_6 [[0, 1, 2, 3]] : memref<128xf32, strided<[1], offset: 640>> into memref<8x16x1x1xf32, strided<[16, 1, 1, 1], offset: 640>>
    %subview_8 = memref.subview %arg0[768] [8] [1] : memref<2554968xf32> to memref<8xf32, strided<[1], offset: 768>>
    %subview_9 = memref.subview %arg0[776] [128] [1] : memref<2554968xf32> to memref<128xf32, strided<[1], offset: 776>>
    %expand_shape_10 = memref.expand_shape %subview_9 [[0, 1, 2, 3]] : memref<128xf32, strided<[1], offset: 776>> into memref<16x8x1x1xf32, strided<[8, 1, 1, 1], offset: 776>>
    %subview_11 = memref.subview %arg0[904] [16] [1] : memref<2554968xf32> to memref<16xf32, strided<[1], offset: 904>>
    %subview_12 = memref.subview %arg0[920] [256] [1] : memref<2554968xf32> to memref<256xf32, strided<[1], offset: 920>>
    %expand_shape_13 = memref.expand_shape %subview_12 [[0, 1, 2, 3]] : memref<256xf32, strided<[1], offset: 920>> into memref<16x16x1x1xf32, strided<[16, 1, 1, 1], offset: 920>>
    %subview_14 = memref.subview %arg0[1176] [16] [1] : memref<2554968xf32> to memref<16xf32, strided<[1], offset: 1176>>
    %subview_15 = memref.subview %arg0[1192] [16] [1] : memref<2554968xf32> to memref<16xf32, strided<[1], offset: 1192>>
    %subview_16 = memref.subview %arg0[1208] [1152] [1] : memref<2554968xf32> to memref<1152xf32, strided<[1], offset: 1208>>
    %expand_shape_17 = memref.expand_shape %subview_16 [[0, 1, 2, 3]] : memref<1152xf32, strided<[1], offset: 1208>> into memref<72x16x1x1xf32, strided<[16, 1, 1, 1], offset: 1208>>
    %subview_18 = memref.subview %arg0[2360] [72] [1] : memref<2554968xf32> to memref<72xf32, strided<[1], offset: 2360>>
    %subview_19 = memref.subview %arg0[2432] [72] [1] : memref<2554968xf32> to memref<72xf32, strided<[1], offset: 2432>>
    %subview_20 = memref.subview %arg0[2504] [648] [1] : memref<2554968xf32> to memref<648xf32, strided<[1], offset: 2504>>
    %expand_shape_21 = memref.expand_shape %subview_20 [[0, 1, 2, 3]] : memref<648xf32, strided<[1], offset: 2504>> into memref<72x1x3x3xf32, strided<[9, 9, 3, 1], offset: 2504>>
    %subview_22 = memref.subview %arg0[3152] [72] [1] : memref<2554968xf32> to memref<72xf32, strided<[1], offset: 3152>>
    %subview_23 = memref.subview %arg0[3224] [72] [1] : memref<2554968xf32> to memref<72xf32, strided<[1], offset: 3224>>
    %subview_24 = memref.subview %arg0[3296] [1728] [1] : memref<2554968xf32> to memref<1728xf32, strided<[1], offset: 3296>>
    %expand_shape_25 = memref.expand_shape %subview_24 [[0, 1, 2, 3]] : memref<1728xf32, strided<[1], offset: 3296>> into memref<24x72x1x1xf32, strided<[72, 1, 1, 1], offset: 3296>>
    %subview_26 = memref.subview %arg0[5024] [24] [1] : memref<2554968xf32> to memref<24xf32, strided<[1], offset: 5024>>
    %subview_27 = memref.subview %arg0[5048] [24] [1] : memref<2554968xf32> to memref<24xf32, strided<[1], offset: 5048>>
    %subview_28 = memref.subview %arg0[5072] [2112] [1] : memref<2554968xf32> to memref<2112xf32, strided<[1], offset: 5072>>
    %expand_shape_29 = memref.expand_shape %subview_28 [[0, 1, 2, 3]] : memref<2112xf32, strided<[1], offset: 5072>> into memref<88x24x1x1xf32, strided<[24, 1, 1, 1], offset: 5072>>
    %subview_30 = memref.subview %arg0[7184] [88] [1] : memref<2554968xf32> to memref<88xf32, strided<[1], offset: 7184>>
    %subview_31 = memref.subview %arg0[7272] [88] [1] : memref<2554968xf32> to memref<88xf32, strided<[1], offset: 7272>>
    %subview_32 = memref.subview %arg0[7360] [792] [1] : memref<2554968xf32> to memref<792xf32, strided<[1], offset: 7360>>
    %expand_shape_33 = memref.expand_shape %subview_32 [[0, 1, 2, 3]] : memref<792xf32, strided<[1], offset: 7360>> into memref<88x1x3x3xf32, strided<[9, 9, 3, 1], offset: 7360>>
    %subview_34 = memref.subview %arg0[8152] [88] [1] : memref<2554968xf32> to memref<88xf32, strided<[1], offset: 8152>>
    %subview_35 = memref.subview %arg0[8240] [88] [1] : memref<2554968xf32> to memref<88xf32, strided<[1], offset: 8240>>
    %subview_36 = memref.subview %arg0[8328] [2112] [1] : memref<2554968xf32> to memref<2112xf32, strided<[1], offset: 8328>>
    %expand_shape_37 = memref.expand_shape %subview_36 [[0, 1, 2, 3]] : memref<2112xf32, strided<[1], offset: 8328>> into memref<24x88x1x1xf32, strided<[88, 1, 1, 1], offset: 8328>>
    %subview_38 = memref.subview %arg0[10440] [24] [1] : memref<2554968xf32> to memref<24xf32, strided<[1], offset: 10440>>
    %subview_39 = memref.subview %arg0[10464] [24] [1] : memref<2554968xf32> to memref<24xf32, strided<[1], offset: 10464>>
    %subview_40 = memref.subview %arg0[10488] [2304] [1] : memref<2554968xf32> to memref<2304xf32, strided<[1], offset: 10488>>
    %expand_shape_41 = memref.expand_shape %subview_40 [[0, 1, 2, 3]] : memref<2304xf32, strided<[1], offset: 10488>> into memref<96x24x1x1xf32, strided<[24, 1, 1, 1], offset: 10488>>
    %subview_42 = memref.subview %arg0[12792] [96] [1] : memref<2554968xf32> to memref<96xf32, strided<[1], offset: 12792>>
    %subview_43 = memref.subview %arg0[12888] [96] [1] : memref<2554968xf32> to memref<96xf32, strided<[1], offset: 12888>>
    %subview_44 = memref.subview %arg0[12984] [2400] [1] : memref<2554968xf32> to memref<2400xf32, strided<[1], offset: 12984>>
    %expand_shape_45 = memref.expand_shape %subview_44 [[0, 1, 2, 3]] : memref<2400xf32, strided<[1], offset: 12984>> into memref<96x1x5x5xf32, strided<[25, 25, 5, 1], offset: 12984>>
    %subview_46 = memref.subview %arg0[15384] [96] [1] : memref<2554968xf32> to memref<96xf32, strided<[1], offset: 15384>>
    %subview_47 = memref.subview %arg0[15480] [96] [1] : memref<2554968xf32> to memref<96xf32, strided<[1], offset: 15480>>
    %subview_48 = memref.subview %arg0[15576] [2304] [1] : memref<2554968xf32> to memref<2304xf32, strided<[1], offset: 15576>>
    %expand_shape_49 = memref.expand_shape %subview_48 [[0, 1, 2, 3]] : memref<2304xf32, strided<[1], offset: 15576>> into memref<24x96x1x1xf32, strided<[96, 1, 1, 1], offset: 15576>>
    %subview_50 = memref.subview %arg0[17880] [24] [1] : memref<2554968xf32> to memref<24xf32, strided<[1], offset: 17880>>
    %subview_51 = memref.subview %arg0[17904] [2304] [1] : memref<2554968xf32> to memref<2304xf32, strided<[1], offset: 17904>>
    %expand_shape_52 = memref.expand_shape %subview_51 [[0, 1, 2, 3]] : memref<2304xf32, strided<[1], offset: 17904>> into memref<96x24x1x1xf32, strided<[24, 1, 1, 1], offset: 17904>>
    %subview_53 = memref.subview %arg0[20208] [96] [1] : memref<2554968xf32> to memref<96xf32, strided<[1], offset: 20208>>
    %subview_54 = memref.subview %arg0[20304] [3840] [1] : memref<2554968xf32> to memref<3840xf32, strided<[1], offset: 20304>>
    %expand_shape_55 = memref.expand_shape %subview_54 [[0, 1, 2, 3]] : memref<3840xf32, strided<[1], offset: 20304>> into memref<40x96x1x1xf32, strided<[96, 1, 1, 1], offset: 20304>>
    %subview_56 = memref.subview %arg0[24144] [40] [1] : memref<2554968xf32> to memref<40xf32, strided<[1], offset: 24144>>
    %subview_57 = memref.subview %arg0[24184] [40] [1] : memref<2554968xf32> to memref<40xf32, strided<[1], offset: 24184>>
    %subview_58 = memref.subview %arg0[24224] [9600] [1] : memref<2554968xf32> to memref<9600xf32, strided<[1], offset: 24224>>
    %expand_shape_59 = memref.expand_shape %subview_58 [[0, 1, 2, 3]] : memref<9600xf32, strided<[1], offset: 24224>> into memref<240x40x1x1xf32, strided<[40, 1, 1, 1], offset: 24224>>
    %subview_60 = memref.subview %arg0[33824] [240] [1] : memref<2554968xf32> to memref<240xf32, strided<[1], offset: 33824>>
    %subview_61 = memref.subview %arg0[34064] [240] [1] : memref<2554968xf32> to memref<240xf32, strided<[1], offset: 34064>>
    %subview_62 = memref.subview %arg0[34304] [6000] [1] : memref<2554968xf32> to memref<6000xf32, strided<[1], offset: 34304>>
    %expand_shape_63 = memref.expand_shape %subview_62 [[0, 1, 2, 3]] : memref<6000xf32, strided<[1], offset: 34304>> into memref<240x1x5x5xf32, strided<[25, 25, 5, 1], offset: 34304>>
    %subview_64 = memref.subview %arg0[40304] [240] [1] : memref<2554968xf32> to memref<240xf32, strided<[1], offset: 40304>>
    %subview_65 = memref.subview %arg0[40544] [240] [1] : memref<2554968xf32> to memref<240xf32, strided<[1], offset: 40544>>
    %subview_66 = memref.subview %arg0[40784] [15360] [1] : memref<2554968xf32> to memref<15360xf32, strided<[1], offset: 40784>>
    %expand_shape_67 = memref.expand_shape %subview_66 [[0, 1, 2, 3]] : memref<15360xf32, strided<[1], offset: 40784>> into memref<64x240x1x1xf32, strided<[240, 1, 1, 1], offset: 40784>>
    %subview_68 = memref.subview %arg0[56144] [64] [1] : memref<2554968xf32> to memref<64xf32, strided<[1], offset: 56144>>
    %subview_69 = memref.subview %arg0[56208] [15360] [1] : memref<2554968xf32> to memref<15360xf32, strided<[1], offset: 56208>>
    %expand_shape_70 = memref.expand_shape %subview_69 [[0, 1, 2, 3]] : memref<15360xf32, strided<[1], offset: 56208>> into memref<240x64x1x1xf32, strided<[64, 1, 1, 1], offset: 56208>>
    %subview_71 = memref.subview %arg0[71568] [240] [1] : memref<2554968xf32> to memref<240xf32, strided<[1], offset: 71568>>
    %subview_72 = memref.subview %arg0[71808] [9600] [1] : memref<2554968xf32> to memref<9600xf32, strided<[1], offset: 71808>>
    %expand_shape_73 = memref.expand_shape %subview_72 [[0, 1, 2, 3]] : memref<9600xf32, strided<[1], offset: 71808>> into memref<40x240x1x1xf32, strided<[240, 1, 1, 1], offset: 71808>>
    %subview_74 = memref.subview %arg0[81408] [40] [1] : memref<2554968xf32> to memref<40xf32, strided<[1], offset: 81408>>
    %subview_75 = memref.subview %arg0[81448] [40] [1] : memref<2554968xf32> to memref<40xf32, strided<[1], offset: 81448>>
    %subview_76 = memref.subview %arg0[81488] [9600] [1] : memref<2554968xf32> to memref<9600xf32, strided<[1], offset: 81488>>
    %expand_shape_77 = memref.expand_shape %subview_76 [[0, 1, 2, 3]] : memref<9600xf32, strided<[1], offset: 81488>> into memref<240x40x1x1xf32, strided<[40, 1, 1, 1], offset: 81488>>
    %subview_78 = memref.subview %arg0[91088] [240] [1] : memref<2554968xf32> to memref<240xf32, strided<[1], offset: 91088>>
    %subview_79 = memref.subview %arg0[91328] [240] [1] : memref<2554968xf32> to memref<240xf32, strided<[1], offset: 91328>>
    %subview_80 = memref.subview %arg0[91568] [6000] [1] : memref<2554968xf32> to memref<6000xf32, strided<[1], offset: 91568>>
    %expand_shape_81 = memref.expand_shape %subview_80 [[0, 1, 2, 3]] : memref<6000xf32, strided<[1], offset: 91568>> into memref<240x1x5x5xf32, strided<[25, 25, 5, 1], offset: 91568>>
    %subview_82 = memref.subview %arg0[97568] [240] [1] : memref<2554968xf32> to memref<240xf32, strided<[1], offset: 97568>>
    %subview_83 = memref.subview %arg0[97808] [240] [1] : memref<2554968xf32> to memref<240xf32, strided<[1], offset: 97808>>
    %subview_84 = memref.subview %arg0[98048] [15360] [1] : memref<2554968xf32> to memref<15360xf32, strided<[1], offset: 98048>>
    %expand_shape_85 = memref.expand_shape %subview_84 [[0, 1, 2, 3]] : memref<15360xf32, strided<[1], offset: 98048>> into memref<64x240x1x1xf32, strided<[240, 1, 1, 1], offset: 98048>>
    %subview_86 = memref.subview %arg0[113408] [64] [1] : memref<2554968xf32> to memref<64xf32, strided<[1], offset: 113408>>
    %subview_87 = memref.subview %arg0[113472] [15360] [1] : memref<2554968xf32> to memref<15360xf32, strided<[1], offset: 113472>>
    %expand_shape_88 = memref.expand_shape %subview_87 [[0, 1, 2, 3]] : memref<15360xf32, strided<[1], offset: 113472>> into memref<240x64x1x1xf32, strided<[64, 1, 1, 1], offset: 113472>>
    %subview_89 = memref.subview %arg0[128832] [240] [1] : memref<2554968xf32> to memref<240xf32, strided<[1], offset: 128832>>
    %subview_90 = memref.subview %arg0[129072] [9600] [1] : memref<2554968xf32> to memref<9600xf32, strided<[1], offset: 129072>>
    %expand_shape_91 = memref.expand_shape %subview_90 [[0, 1, 2, 3]] : memref<9600xf32, strided<[1], offset: 129072>> into memref<40x240x1x1xf32, strided<[240, 1, 1, 1], offset: 129072>>
    %subview_92 = memref.subview %arg0[138672] [40] [1] : memref<2554968xf32> to memref<40xf32, strided<[1], offset: 138672>>
    %subview_93 = memref.subview %arg0[138712] [40] [1] : memref<2554968xf32> to memref<40xf32, strided<[1], offset: 138712>>
    %subview_94 = memref.subview %arg0[138752] [4800] [1] : memref<2554968xf32> to memref<4800xf32, strided<[1], offset: 138752>>
    %expand_shape_95 = memref.expand_shape %subview_94 [[0, 1, 2, 3]] : memref<4800xf32, strided<[1], offset: 138752>> into memref<120x40x1x1xf32, strided<[40, 1, 1, 1], offset: 138752>>
    %subview_96 = memref.subview %arg0[143552] [120] [1] : memref<2554968xf32> to memref<120xf32, strided<[1], offset: 143552>>
    %subview_97 = memref.subview %arg0[143672] [120] [1] : memref<2554968xf32> to memref<120xf32, strided<[1], offset: 143672>>
    %subview_98 = memref.subview %arg0[143792] [3000] [1] : memref<2554968xf32> to memref<3000xf32, strided<[1], offset: 143792>>
    %expand_shape_99 = memref.expand_shape %subview_98 [[0, 1, 2, 3]] : memref<3000xf32, strided<[1], offset: 143792>> into memref<120x1x5x5xf32, strided<[25, 25, 5, 1], offset: 143792>>
    %subview_100 = memref.subview %arg0[146792] [120] [1] : memref<2554968xf32> to memref<120xf32, strided<[1], offset: 146792>>
    %subview_101 = memref.subview %arg0[146912] [120] [1] : memref<2554968xf32> to memref<120xf32, strided<[1], offset: 146912>>
    %subview_102 = memref.subview %arg0[147032] [3840] [1] : memref<2554968xf32> to memref<3840xf32, strided<[1], offset: 147032>>
    %expand_shape_103 = memref.expand_shape %subview_102 [[0, 1, 2, 3]] : memref<3840xf32, strided<[1], offset: 147032>> into memref<32x120x1x1xf32, strided<[120, 1, 1, 1], offset: 147032>>
    %subview_104 = memref.subview %arg0[150872] [32] [1] : memref<2554968xf32> to memref<32xf32, strided<[1], offset: 150872>>
    %subview_105 = memref.subview %arg0[150904] [3840] [1] : memref<2554968xf32> to memref<3840xf32, strided<[1], offset: 150904>>
    %expand_shape_106 = memref.expand_shape %subview_105 [[0, 1, 2, 3]] : memref<3840xf32, strided<[1], offset: 150904>> into memref<120x32x1x1xf32, strided<[32, 1, 1, 1], offset: 150904>>
    %subview_107 = memref.subview %arg0[154744] [120] [1] : memref<2554968xf32> to memref<120xf32, strided<[1], offset: 154744>>
    %subview_108 = memref.subview %arg0[154864] [5760] [1] : memref<2554968xf32> to memref<5760xf32, strided<[1], offset: 154864>>
    %expand_shape_109 = memref.expand_shape %subview_108 [[0, 1, 2, 3]] : memref<5760xf32, strided<[1], offset: 154864>> into memref<48x120x1x1xf32, strided<[120, 1, 1, 1], offset: 154864>>
    %subview_110 = memref.subview %arg0[160624] [48] [1] : memref<2554968xf32> to memref<48xf32, strided<[1], offset: 160624>>
    %subview_111 = memref.subview %arg0[160672] [48] [1] : memref<2554968xf32> to memref<48xf32, strided<[1], offset: 160672>>
    %subview_112 = memref.subview %arg0[160720] [6912] [1] : memref<2554968xf32> to memref<6912xf32, strided<[1], offset: 160720>>
    %expand_shape_113 = memref.expand_shape %subview_112 [[0, 1, 2, 3]] : memref<6912xf32, strided<[1], offset: 160720>> into memref<144x48x1x1xf32, strided<[48, 1, 1, 1], offset: 160720>>
    %subview_114 = memref.subview %arg0[167632] [144] [1] : memref<2554968xf32> to memref<144xf32, strided<[1], offset: 167632>>
    %subview_115 = memref.subview %arg0[167776] [144] [1] : memref<2554968xf32> to memref<144xf32, strided<[1], offset: 167776>>
    %subview_116 = memref.subview %arg0[167920] [3600] [1] : memref<2554968xf32> to memref<3600xf32, strided<[1], offset: 167920>>
    %expand_shape_117 = memref.expand_shape %subview_116 [[0, 1, 2, 3]] : memref<3600xf32, strided<[1], offset: 167920>> into memref<144x1x5x5xf32, strided<[25, 25, 5, 1], offset: 167920>>
    %subview_118 = memref.subview %arg0[171520] [144] [1] : memref<2554968xf32> to memref<144xf32, strided<[1], offset: 171520>>
    %subview_119 = memref.subview %arg0[171664] [144] [1] : memref<2554968xf32> to memref<144xf32, strided<[1], offset: 171664>>
    %subview_120 = memref.subview %arg0[171808] [5760] [1] : memref<2554968xf32> to memref<5760xf32, strided<[1], offset: 171808>>
    %expand_shape_121 = memref.expand_shape %subview_120 [[0, 1, 2, 3]] : memref<5760xf32, strided<[1], offset: 171808>> into memref<40x144x1x1xf32, strided<[144, 1, 1, 1], offset: 171808>>
    %subview_122 = memref.subview %arg0[177568] [40] [1] : memref<2554968xf32> to memref<40xf32, strided<[1], offset: 177568>>
    %subview_123 = memref.subview %arg0[177608] [5760] [1] : memref<2554968xf32> to memref<5760xf32, strided<[1], offset: 177608>>
    %expand_shape_124 = memref.expand_shape %subview_123 [[0, 1, 2, 3]] : memref<5760xf32, strided<[1], offset: 177608>> into memref<144x40x1x1xf32, strided<[40, 1, 1, 1], offset: 177608>>
    %subview_125 = memref.subview %arg0[183368] [144] [1] : memref<2554968xf32> to memref<144xf32, strided<[1], offset: 183368>>
    %subview_126 = memref.subview %arg0[183512] [6912] [1] : memref<2554968xf32> to memref<6912xf32, strided<[1], offset: 183512>>
    %expand_shape_127 = memref.expand_shape %subview_126 [[0, 1, 2, 3]] : memref<6912xf32, strided<[1], offset: 183512>> into memref<48x144x1x1xf32, strided<[144, 1, 1, 1], offset: 183512>>
    %subview_128 = memref.subview %arg0[190424] [48] [1] : memref<2554968xf32> to memref<48xf32, strided<[1], offset: 190424>>
    %subview_129 = memref.subview %arg0[190472] [48] [1] : memref<2554968xf32> to memref<48xf32, strided<[1], offset: 190472>>
    %subview_130 = memref.subview %arg0[190520] [13824] [1] : memref<2554968xf32> to memref<13824xf32, strided<[1], offset: 190520>>
    %expand_shape_131 = memref.expand_shape %subview_130 [[0, 1, 2, 3]] : memref<13824xf32, strided<[1], offset: 190520>> into memref<288x48x1x1xf32, strided<[48, 1, 1, 1], offset: 190520>>
    %subview_132 = memref.subview %arg0[204344] [288] [1] : memref<2554968xf32> to memref<288xf32, strided<[1], offset: 204344>>
    %subview_133 = memref.subview %arg0[204632] [288] [1] : memref<2554968xf32> to memref<288xf32, strided<[1], offset: 204632>>
    %subview_134 = memref.subview %arg0[204920] [7200] [1] : memref<2554968xf32> to memref<7200xf32, strided<[1], offset: 204920>>
    %expand_shape_135 = memref.expand_shape %subview_134 [[0, 1, 2, 3]] : memref<7200xf32, strided<[1], offset: 204920>> into memref<288x1x5x5xf32, strided<[25, 25, 5, 1], offset: 204920>>
    %subview_136 = memref.subview %arg0[212120] [288] [1] : memref<2554968xf32> to memref<288xf32, strided<[1], offset: 212120>>
    %subview_137 = memref.subview %arg0[212408] [288] [1] : memref<2554968xf32> to memref<288xf32, strided<[1], offset: 212408>>
    %subview_138 = memref.subview %arg0[212696] [20736] [1] : memref<2554968xf32> to memref<20736xf32, strided<[1], offset: 212696>>
    %expand_shape_139 = memref.expand_shape %subview_138 [[0, 1, 2, 3]] : memref<20736xf32, strided<[1], offset: 212696>> into memref<72x288x1x1xf32, strided<[288, 1, 1, 1], offset: 212696>>
    %subview_140 = memref.subview %arg0[233432] [72] [1] : memref<2554968xf32> to memref<72xf32, strided<[1], offset: 233432>>
    %subview_141 = memref.subview %arg0[233504] [20736] [1] : memref<2554968xf32> to memref<20736xf32, strided<[1], offset: 233504>>
    %expand_shape_142 = memref.expand_shape %subview_141 [[0, 1, 2, 3]] : memref<20736xf32, strided<[1], offset: 233504>> into memref<288x72x1x1xf32, strided<[72, 1, 1, 1], offset: 233504>>
    %subview_143 = memref.subview %arg0[254240] [288] [1] : memref<2554968xf32> to memref<288xf32, strided<[1], offset: 254240>>
    %subview_144 = memref.subview %arg0[254528] [27648] [1] : memref<2554968xf32> to memref<27648xf32, strided<[1], offset: 254528>>
    %expand_shape_145 = memref.expand_shape %subview_144 [[0, 1, 2, 3]] : memref<27648xf32, strided<[1], offset: 254528>> into memref<96x288x1x1xf32, strided<[288, 1, 1, 1], offset: 254528>>
    %subview_146 = memref.subview %arg0[282176] [96] [1] : memref<2554968xf32> to memref<96xf32, strided<[1], offset: 282176>>
    %subview_147 = memref.subview %arg0[282272] [96] [1] : memref<2554968xf32> to memref<96xf32, strided<[1], offset: 282272>>
    %subview_148 = memref.subview %arg0[282368] [55296] [1] : memref<2554968xf32> to memref<55296xf32, strided<[1], offset: 282368>>
    %expand_shape_149 = memref.expand_shape %subview_148 [[0, 1, 2, 3]] : memref<55296xf32, strided<[1], offset: 282368>> into memref<576x96x1x1xf32, strided<[96, 1, 1, 1], offset: 282368>>
    %subview_150 = memref.subview %arg0[337664] [576] [1] : memref<2554968xf32> to memref<576xf32, strided<[1], offset: 337664>>
    %subview_151 = memref.subview %arg0[338240] [576] [1] : memref<2554968xf32> to memref<576xf32, strided<[1], offset: 338240>>
    %subview_152 = memref.subview %arg0[338816] [14400] [1] : memref<2554968xf32> to memref<14400xf32, strided<[1], offset: 338816>>
    %expand_shape_153 = memref.expand_shape %subview_152 [[0, 1, 2, 3]] : memref<14400xf32, strided<[1], offset: 338816>> into memref<576x1x5x5xf32, strided<[25, 25, 5, 1], offset: 338816>>
    %subview_154 = memref.subview %arg0[353216] [576] [1] : memref<2554968xf32> to memref<576xf32, strided<[1], offset: 353216>>
    %subview_155 = memref.subview %arg0[353792] [576] [1] : memref<2554968xf32> to memref<576xf32, strided<[1], offset: 353792>>
    %subview_156 = memref.subview %arg0[354368] [82944] [1] : memref<2554968xf32> to memref<82944xf32, strided<[1], offset: 354368>>
    %expand_shape_157 = memref.expand_shape %subview_156 [[0, 1, 2, 3]] : memref<82944xf32, strided<[1], offset: 354368>> into memref<144x576x1x1xf32, strided<[576, 1, 1, 1], offset: 354368>>
    %subview_158 = memref.subview %arg0[437312] [144] [1] : memref<2554968xf32> to memref<144xf32, strided<[1], offset: 437312>>
    %subview_159 = memref.subview %arg0[437456] [82944] [1] : memref<2554968xf32> to memref<82944xf32, strided<[1], offset: 437456>>
    %expand_shape_160 = memref.expand_shape %subview_159 [[0, 1, 2, 3]] : memref<82944xf32, strided<[1], offset: 437456>> into memref<576x144x1x1xf32, strided<[144, 1, 1, 1], offset: 437456>>
    %subview_161 = memref.subview %arg0[520400] [576] [1] : memref<2554968xf32> to memref<576xf32, strided<[1], offset: 520400>>
    %subview_162 = memref.subview %arg0[520976] [55296] [1] : memref<2554968xf32> to memref<55296xf32, strided<[1], offset: 520976>>
    %expand_shape_163 = memref.expand_shape %subview_162 [[0, 1, 2, 3]] : memref<55296xf32, strided<[1], offset: 520976>> into memref<96x576x1x1xf32, strided<[576, 1, 1, 1], offset: 520976>>
    %subview_164 = memref.subview %arg0[576272] [96] [1] : memref<2554968xf32> to memref<96xf32, strided<[1], offset: 576272>>
    %subview_165 = memref.subview %arg0[576368] [96] [1] : memref<2554968xf32> to memref<96xf32, strided<[1], offset: 576368>>
    %subview_166 = memref.subview %arg0[576464] [55296] [1] : memref<2554968xf32> to memref<55296xf32, strided<[1], offset: 576464>>
    %expand_shape_167 = memref.expand_shape %subview_166 [[0, 1, 2, 3]] : memref<55296xf32, strided<[1], offset: 576464>> into memref<576x96x1x1xf32, strided<[96, 1, 1, 1], offset: 576464>>
    %subview_168 = memref.subview %arg0[631760] [576] [1] : memref<2554968xf32> to memref<576xf32, strided<[1], offset: 631760>>
    %subview_169 = memref.subview %arg0[632336] [576] [1] : memref<2554968xf32> to memref<576xf32, strided<[1], offset: 632336>>
    %subview_170 = memref.subview %arg0[632912] [14400] [1] : memref<2554968xf32> to memref<14400xf32, strided<[1], offset: 632912>>
    %expand_shape_171 = memref.expand_shape %subview_170 [[0, 1, 2, 3]] : memref<14400xf32, strided<[1], offset: 632912>> into memref<576x1x5x5xf32, strided<[25, 25, 5, 1], offset: 632912>>
    %subview_172 = memref.subview %arg0[647312] [576] [1] : memref<2554968xf32> to memref<576xf32, strided<[1], offset: 647312>>
    %subview_173 = memref.subview %arg0[647888] [576] [1] : memref<2554968xf32> to memref<576xf32, strided<[1], offset: 647888>>
    %subview_174 = memref.subview %arg0[648464] [82944] [1] : memref<2554968xf32> to memref<82944xf32, strided<[1], offset: 648464>>
    %expand_shape_175 = memref.expand_shape %subview_174 [[0, 1, 2, 3]] : memref<82944xf32, strided<[1], offset: 648464>> into memref<144x576x1x1xf32, strided<[576, 1, 1, 1], offset: 648464>>
    %subview_176 = memref.subview %arg0[731408] [144] [1] : memref<2554968xf32> to memref<144xf32, strided<[1], offset: 731408>>
    %subview_177 = memref.subview %arg0[731552] [82944] [1] : memref<2554968xf32> to memref<82944xf32, strided<[1], offset: 731552>>
    %expand_shape_178 = memref.expand_shape %subview_177 [[0, 1, 2, 3]] : memref<82944xf32, strided<[1], offset: 731552>> into memref<576x144x1x1xf32, strided<[144, 1, 1, 1], offset: 731552>>
    %subview_179 = memref.subview %arg0[814496] [576] [1] : memref<2554968xf32> to memref<576xf32, strided<[1], offset: 814496>>
    %subview_180 = memref.subview %arg0[815072] [55296] [1] : memref<2554968xf32> to memref<55296xf32, strided<[1], offset: 815072>>
    %expand_shape_181 = memref.expand_shape %subview_180 [[0, 1, 2, 3]] : memref<55296xf32, strided<[1], offset: 815072>> into memref<96x576x1x1xf32, strided<[576, 1, 1, 1], offset: 815072>>
    %subview_182 = memref.subview %arg0[870368] [96] [1] : memref<2554968xf32> to memref<96xf32, strided<[1], offset: 870368>>
    %subview_183 = memref.subview %arg0[870464] [96] [1] : memref<2554968xf32> to memref<96xf32, strided<[1], offset: 870464>>
    %subview_184 = memref.subview %arg0[870560] [55296] [1] : memref<2554968xf32> to memref<55296xf32, strided<[1], offset: 870560>>
    %expand_shape_185 = memref.expand_shape %subview_184 [[0, 1, 2, 3]] : memref<55296xf32, strided<[1], offset: 870560>> into memref<576x96x1x1xf32, strided<[96, 1, 1, 1], offset: 870560>>
    %subview_186 = memref.subview %arg0[925856] [576] [1] : memref<2554968xf32> to memref<576xf32, strided<[1], offset: 925856>>
    %subview_187 = memref.subview %arg0[926432] [576] [1] : memref<2554968xf32> to memref<576xf32, strided<[1], offset: 926432>>
    %subview_188 = memref.subview %arg0[927008] [589824] [1] : memref<2554968xf32> to memref<589824xf32, strided<[1], offset: 927008>>
    %expand_shape_189 = memref.expand_shape %subview_188 [[0, 1]] : memref<589824xf32, strided<[1], offset: 927008>> into memref<1024x576xf32, strided<[576, 1], offset: 927008>>
    %subview_190 = memref.subview %arg0[1516832] [1024] [1] : memref<2554968xf32> to memref<1024xf32, strided<[1], offset: 1516832>>
    %subview_191 = memref.subview %arg0[1517856] [1024000] [1] : memref<2554968xf32> to memref<1024000xf32, strided<[1], offset: 1517856>>
    %expand_shape_192 = memref.expand_shape %subview_191 [[0, 1]] : memref<1024000xf32, strided<[1], offset: 1517856>> into memref<1000x1024xf32, strided<[1024, 1], offset: 1517856>>
    %subview_193 = memref.subview %arg0[2541856] [1000] [1] : memref<2554968xf32> to memref<1000xf32, strided<[1], offset: 2541856>>
    %subview_194 = memref.subview %arg0[2542856] [16] [1] : memref<2554968xf32> to memref<16xf32, strided<[1], offset: 2542856>>
    %subview_195 = memref.subview %arg0[2542872] [16] [1] : memref<2554968xf32> to memref<16xf32, strided<[1], offset: 2542872>>
    %subview_196 = memref.subview %arg1[0] [1] [1] : memref<34xi64> to memref<1xi64>
    %subview_197 = memref.subview %arg0[2542888] [16] [1] : memref<2554968xf32> to memref<16xf32, strided<[1], offset: 2542888>>
    %subview_198 = memref.subview %arg0[2542904] [16] [1] : memref<2554968xf32> to memref<16xf32, strided<[1], offset: 2542904>>
    %subview_199 = memref.subview %arg1[1] [1] [1] : memref<34xi64> to memref<1xi64, strided<[1], offset: 1>>
    %subview_200 = memref.subview %arg0[2542920] [16] [1] : memref<2554968xf32> to memref<16xf32, strided<[1], offset: 2542920>>
    %subview_201 = memref.subview %arg0[2542936] [16] [1] : memref<2554968xf32> to memref<16xf32, strided<[1], offset: 2542936>>
    %subview_202 = memref.subview %arg1[2] [1] [1] : memref<34xi64> to memref<1xi64, strided<[1], offset: 2>>
    %subview_203 = memref.subview %arg0[2542952] [72] [1] : memref<2554968xf32> to memref<72xf32, strided<[1], offset: 2542952>>
    %subview_204 = memref.subview %arg0[2543024] [72] [1] : memref<2554968xf32> to memref<72xf32, strided<[1], offset: 2543024>>
    %subview_205 = memref.subview %arg1[3] [1] [1] : memref<34xi64> to memref<1xi64, strided<[1], offset: 3>>
    %subview_206 = memref.subview %arg0[2543096] [72] [1] : memref<2554968xf32> to memref<72xf32, strided<[1], offset: 2543096>>
    %subview_207 = memref.subview %arg0[2543168] [72] [1] : memref<2554968xf32> to memref<72xf32, strided<[1], offset: 2543168>>
    %subview_208 = memref.subview %arg1[4] [1] [1] : memref<34xi64> to memref<1xi64, strided<[1], offset: 4>>
    %subview_209 = memref.subview %arg0[2543240] [24] [1] : memref<2554968xf32> to memref<24xf32, strided<[1], offset: 2543240>>
    %subview_210 = memref.subview %arg0[2543264] [24] [1] : memref<2554968xf32> to memref<24xf32, strided<[1], offset: 2543264>>
    %subview_211 = memref.subview %arg1[5] [1] [1] : memref<34xi64> to memref<1xi64, strided<[1], offset: 5>>
    %subview_212 = memref.subview %arg0[2543288] [88] [1] : memref<2554968xf32> to memref<88xf32, strided<[1], offset: 2543288>>
    %subview_213 = memref.subview %arg0[2543376] [88] [1] : memref<2554968xf32> to memref<88xf32, strided<[1], offset: 2543376>>
    %subview_214 = memref.subview %arg1[6] [1] [1] : memref<34xi64> to memref<1xi64, strided<[1], offset: 6>>
    %subview_215 = memref.subview %arg0[2543464] [88] [1] : memref<2554968xf32> to memref<88xf32, strided<[1], offset: 2543464>>
    %subview_216 = memref.subview %arg0[2543552] [88] [1] : memref<2554968xf32> to memref<88xf32, strided<[1], offset: 2543552>>
    %subview_217 = memref.subview %arg1[7] [1] [1] : memref<34xi64> to memref<1xi64, strided<[1], offset: 7>>
    %subview_218 = memref.subview %arg0[2543640] [24] [1] : memref<2554968xf32> to memref<24xf32, strided<[1], offset: 2543640>>
    %subview_219 = memref.subview %arg0[2543664] [24] [1] : memref<2554968xf32> to memref<24xf32, strided<[1], offset: 2543664>>
    %subview_220 = memref.subview %arg1[8] [1] [1] : memref<34xi64> to memref<1xi64, strided<[1], offset: 8>>
    %subview_221 = memref.subview %arg0[2543688] [96] [1] : memref<2554968xf32> to memref<96xf32, strided<[1], offset: 2543688>>
    %subview_222 = memref.subview %arg0[2543784] [96] [1] : memref<2554968xf32> to memref<96xf32, strided<[1], offset: 2543784>>
    %subview_223 = memref.subview %arg1[9] [1] [1] : memref<34xi64> to memref<1xi64, strided<[1], offset: 9>>
    %subview_224 = memref.subview %arg0[2543880] [96] [1] : memref<2554968xf32> to memref<96xf32, strided<[1], offset: 2543880>>
    %subview_225 = memref.subview %arg0[2543976] [96] [1] : memref<2554968xf32> to memref<96xf32, strided<[1], offset: 2543976>>
    %subview_226 = memref.subview %arg1[10] [1] [1] : memref<34xi64> to memref<1xi64, strided<[1], offset: 10>>
    %subview_227 = memref.subview %arg0[2544072] [40] [1] : memref<2554968xf32> to memref<40xf32, strided<[1], offset: 2544072>>
    %subview_228 = memref.subview %arg0[2544112] [40] [1] : memref<2554968xf32> to memref<40xf32, strided<[1], offset: 2544112>>
    %subview_229 = memref.subview %arg1[11] [1] [1] : memref<34xi64> to memref<1xi64, strided<[1], offset: 11>>
    %subview_230 = memref.subview %arg0[2544152] [240] [1] : memref<2554968xf32> to memref<240xf32, strided<[1], offset: 2544152>>
    %subview_231 = memref.subview %arg0[2544392] [240] [1] : memref<2554968xf32> to memref<240xf32, strided<[1], offset: 2544392>>
    %subview_232 = memref.subview %arg1[12] [1] [1] : memref<34xi64> to memref<1xi64, strided<[1], offset: 12>>
    %subview_233 = memref.subview %arg0[2544632] [240] [1] : memref<2554968xf32> to memref<240xf32, strided<[1], offset: 2544632>>
    %subview_234 = memref.subview %arg0[2544872] [240] [1] : memref<2554968xf32> to memref<240xf32, strided<[1], offset: 2544872>>
    %subview_235 = memref.subview %arg1[13] [1] [1] : memref<34xi64> to memref<1xi64, strided<[1], offset: 13>>
    %subview_236 = memref.subview %arg0[2545112] [40] [1] : memref<2554968xf32> to memref<40xf32, strided<[1], offset: 2545112>>
    %subview_237 = memref.subview %arg0[2545152] [40] [1] : memref<2554968xf32> to memref<40xf32, strided<[1], offset: 2545152>>
    %subview_238 = memref.subview %arg1[14] [1] [1] : memref<34xi64> to memref<1xi64, strided<[1], offset: 14>>
    %subview_239 = memref.subview %arg0[2545192] [240] [1] : memref<2554968xf32> to memref<240xf32, strided<[1], offset: 2545192>>
    %subview_240 = memref.subview %arg0[2545432] [240] [1] : memref<2554968xf32> to memref<240xf32, strided<[1], offset: 2545432>>
    %subview_241 = memref.subview %arg1[15] [1] [1] : memref<34xi64> to memref<1xi64, strided<[1], offset: 15>>
    %subview_242 = memref.subview %arg0[2545672] [240] [1] : memref<2554968xf32> to memref<240xf32, strided<[1], offset: 2545672>>
    %subview_243 = memref.subview %arg0[2545912] [240] [1] : memref<2554968xf32> to memref<240xf32, strided<[1], offset: 2545912>>
    %subview_244 = memref.subview %arg1[16] [1] [1] : memref<34xi64> to memref<1xi64, strided<[1], offset: 16>>
    %subview_245 = memref.subview %arg0[2546152] [40] [1] : memref<2554968xf32> to memref<40xf32, strided<[1], offset: 2546152>>
    %subview_246 = memref.subview %arg0[2546192] [40] [1] : memref<2554968xf32> to memref<40xf32, strided<[1], offset: 2546192>>
    %subview_247 = memref.subview %arg1[17] [1] [1] : memref<34xi64> to memref<1xi64, strided<[1], offset: 17>>
    %subview_248 = memref.subview %arg0[2546232] [120] [1] : memref<2554968xf32> to memref<120xf32, strided<[1], offset: 2546232>>
    %subview_249 = memref.subview %arg0[2546352] [120] [1] : memref<2554968xf32> to memref<120xf32, strided<[1], offset: 2546352>>
    %subview_250 = memref.subview %arg1[18] [1] [1] : memref<34xi64> to memref<1xi64, strided<[1], offset: 18>>
    %subview_251 = memref.subview %arg0[2546472] [120] [1] : memref<2554968xf32> to memref<120xf32, strided<[1], offset: 2546472>>
    %subview_252 = memref.subview %arg0[2546592] [120] [1] : memref<2554968xf32> to memref<120xf32, strided<[1], offset: 2546592>>
    %subview_253 = memref.subview %arg1[19] [1] [1] : memref<34xi64> to memref<1xi64, strided<[1], offset: 19>>
    %subview_254 = memref.subview %arg0[2546712] [48] [1] : memref<2554968xf32> to memref<48xf32, strided<[1], offset: 2546712>>
    %subview_255 = memref.subview %arg0[2546760] [48] [1] : memref<2554968xf32> to memref<48xf32, strided<[1], offset: 2546760>>
    %subview_256 = memref.subview %arg1[20] [1] [1] : memref<34xi64> to memref<1xi64, strided<[1], offset: 20>>
    %subview_257 = memref.subview %arg0[2546808] [144] [1] : memref<2554968xf32> to memref<144xf32, strided<[1], offset: 2546808>>
    %subview_258 = memref.subview %arg0[2546952] [144] [1] : memref<2554968xf32> to memref<144xf32, strided<[1], offset: 2546952>>
    %subview_259 = memref.subview %arg1[21] [1] [1] : memref<34xi64> to memref<1xi64, strided<[1], offset: 21>>
    %subview_260 = memref.subview %arg0[2547096] [144] [1] : memref<2554968xf32> to memref<144xf32, strided<[1], offset: 2547096>>
    %subview_261 = memref.subview %arg0[2547240] [144] [1] : memref<2554968xf32> to memref<144xf32, strided<[1], offset: 2547240>>
    %subview_262 = memref.subview %arg1[22] [1] [1] : memref<34xi64> to memref<1xi64, strided<[1], offset: 22>>
    %subview_263 = memref.subview %arg0[2547384] [48] [1] : memref<2554968xf32> to memref<48xf32, strided<[1], offset: 2547384>>
    %subview_264 = memref.subview %arg0[2547432] [48] [1] : memref<2554968xf32> to memref<48xf32, strided<[1], offset: 2547432>>
    %subview_265 = memref.subview %arg1[23] [1] [1] : memref<34xi64> to memref<1xi64, strided<[1], offset: 23>>
    %subview_266 = memref.subview %arg0[2547480] [288] [1] : memref<2554968xf32> to memref<288xf32, strided<[1], offset: 2547480>>
    %subview_267 = memref.subview %arg0[2547768] [288] [1] : memref<2554968xf32> to memref<288xf32, strided<[1], offset: 2547768>>
    %subview_268 = memref.subview %arg1[24] [1] [1] : memref<34xi64> to memref<1xi64, strided<[1], offset: 24>>
    %subview_269 = memref.subview %arg0[2548056] [288] [1] : memref<2554968xf32> to memref<288xf32, strided<[1], offset: 2548056>>
    %subview_270 = memref.subview %arg0[2548344] [288] [1] : memref<2554968xf32> to memref<288xf32, strided<[1], offset: 2548344>>
    %subview_271 = memref.subview %arg1[25] [1] [1] : memref<34xi64> to memref<1xi64, strided<[1], offset: 25>>
    %subview_272 = memref.subview %arg0[2548632] [96] [1] : memref<2554968xf32> to memref<96xf32, strided<[1], offset: 2548632>>
    %subview_273 = memref.subview %arg0[2548728] [96] [1] : memref<2554968xf32> to memref<96xf32, strided<[1], offset: 2548728>>
    %subview_274 = memref.subview %arg1[26] [1] [1] : memref<34xi64> to memref<1xi64, strided<[1], offset: 26>>
    %subview_275 = memref.subview %arg0[2548824] [576] [1] : memref<2554968xf32> to memref<576xf32, strided<[1], offset: 2548824>>
    %subview_276 = memref.subview %arg0[2549400] [576] [1] : memref<2554968xf32> to memref<576xf32, strided<[1], offset: 2549400>>
    %subview_277 = memref.subview %arg1[27] [1] [1] : memref<34xi64> to memref<1xi64, strided<[1], offset: 27>>
    %subview_278 = memref.subview %arg0[2549976] [576] [1] : memref<2554968xf32> to memref<576xf32, strided<[1], offset: 2549976>>
    %subview_279 = memref.subview %arg0[2550552] [576] [1] : memref<2554968xf32> to memref<576xf32, strided<[1], offset: 2550552>>
    %subview_280 = memref.subview %arg1[28] [1] [1] : memref<34xi64> to memref<1xi64, strided<[1], offset: 28>>
    %subview_281 = memref.subview %arg0[2551128] [96] [1] : memref<2554968xf32> to memref<96xf32, strided<[1], offset: 2551128>>
    %subview_282 = memref.subview %arg0[2551224] [96] [1] : memref<2554968xf32> to memref<96xf32, strided<[1], offset: 2551224>>
    %subview_283 = memref.subview %arg1[29] [1] [1] : memref<34xi64> to memref<1xi64, strided<[1], offset: 29>>
    %subview_284 = memref.subview %arg0[2551320] [576] [1] : memref<2554968xf32> to memref<576xf32, strided<[1], offset: 2551320>>
    %subview_285 = memref.subview %arg0[2551896] [576] [1] : memref<2554968xf32> to memref<576xf32, strided<[1], offset: 2551896>>
    %subview_286 = memref.subview %arg1[30] [1] [1] : memref<34xi64> to memref<1xi64, strided<[1], offset: 30>>
    %subview_287 = memref.subview %arg0[2552472] [576] [1] : memref<2554968xf32> to memref<576xf32, strided<[1], offset: 2552472>>
    %subview_288 = memref.subview %arg0[2553048] [576] [1] : memref<2554968xf32> to memref<576xf32, strided<[1], offset: 2553048>>
    %subview_289 = memref.subview %arg1[31] [1] [1] : memref<34xi64> to memref<1xi64, strided<[1], offset: 31>>
    %subview_290 = memref.subview %arg0[2553624] [96] [1] : memref<2554968xf32> to memref<96xf32, strided<[1], offset: 2553624>>
    %subview_291 = memref.subview %arg0[2553720] [96] [1] : memref<2554968xf32> to memref<96xf32, strided<[1], offset: 2553720>>
    %subview_292 = memref.subview %arg1[32] [1] [1] : memref<34xi64> to memref<1xi64, strided<[1], offset: 32>>
    %subview_293 = memref.subview %arg0[2553816] [576] [1] : memref<2554968xf32> to memref<576xf32, strided<[1], offset: 2553816>>
    %subview_294 = memref.subview %arg0[2554392] [576] [1] : memref<2554968xf32> to memref<576xf32, strided<[1], offset: 2554392>>
    %subview_295 = memref.subview %arg1[33] [1] [1] : memref<34xi64> to memref<1xi64, strided<[1], offset: 33>>
    %cast = memref.cast %arg2 : memref<1x3x224x224xf32> to memref<1x3x224x224xf32, strided<[150528, 50176, 224, 1], offset: ?>>
    %cast_296 = memref.cast %expand_shape : memref<16x3x3x3xf32> to memref<16x3x3x3xf32, strided<[27, 9, 3, 1], offset: ?>>
    %cast_297 = memref.cast %subview_194 : memref<16xf32, strided<[1], offset: 2542856>> to memref<16xf32, strided<[1], offset: ?>>
    %cast_298 = memref.cast %subview_195 : memref<16xf32, strided<[1], offset: 2542872>> to memref<16xf32, strided<[1], offset: ?>>
    %cast_299 = memref.cast %subview_0 : memref<16xf32, strided<[1], offset: 432>> to memref<16xf32, strided<[1], offset: ?>>
    %cast_300 = memref.cast %subview_1 : memref<16xf32, strided<[1], offset: 448>> to memref<16xf32, strided<[1], offset: ?>>
    %cast_301 = memref.cast %expand_shape_3 : memref<16x1x3x3xf32, strided<[9, 9, 3, 1], offset: 464>> to memref<16x1x3x3xf32, strided<[9, 9, 3, 1], offset: ?>>
    %cast_302 = memref.cast %subview_197 : memref<16xf32, strided<[1], offset: 2542888>> to memref<16xf32, strided<[1], offset: ?>>
    %cast_303 = memref.cast %subview_198 : memref<16xf32, strided<[1], offset: 2542904>> to memref<16xf32, strided<[1], offset: ?>>
    %cast_304 = memref.cast %subview_4 : memref<16xf32, strided<[1], offset: 608>> to memref<16xf32, strided<[1], offset: ?>>
    %cast_305 = memref.cast %subview_5 : memref<16xf32, strided<[1], offset: 624>> to memref<16xf32, strided<[1], offset: ?>>
    %cast_306 = memref.cast %expand_shape_7 : memref<8x16x1x1xf32, strided<[16, 1, 1, 1], offset: 640>> to memref<8x16x1x1xf32, strided<[16, 1, 1, 1], offset: ?>>
    %cast_307 = memref.cast %subview_8 : memref<8xf32, strided<[1], offset: 768>> to memref<8xf32, strided<[1], offset: ?>>
    %cast_308 = memref.cast %expand_shape_10 : memref<16x8x1x1xf32, strided<[8, 1, 1, 1], offset: 776>> to memref<16x8x1x1xf32, strided<[8, 1, 1, 1], offset: ?>>
    %cast_309 = memref.cast %subview_11 : memref<16xf32, strided<[1], offset: 904>> to memref<16xf32, strided<[1], offset: ?>>
    %cast_310 = memref.cast %expand_shape_13 : memref<16x16x1x1xf32, strided<[16, 1, 1, 1], offset: 920>> to memref<16x16x1x1xf32, strided<[16, 1, 1, 1], offset: ?>>
    %cast_311 = memref.cast %subview_200 : memref<16xf32, strided<[1], offset: 2542920>> to memref<16xf32, strided<[1], offset: ?>>
    %cast_312 = memref.cast %subview_201 : memref<16xf32, strided<[1], offset: 2542936>> to memref<16xf32, strided<[1], offset: ?>>
    %cast_313 = memref.cast %subview_14 : memref<16xf32, strided<[1], offset: 1176>> to memref<16xf32, strided<[1], offset: ?>>
    %cast_314 = memref.cast %subview_15 : memref<16xf32, strided<[1], offset: 1192>> to memref<16xf32, strided<[1], offset: ?>>
    %cast_315 = memref.cast %expand_shape_17 : memref<72x16x1x1xf32, strided<[16, 1, 1, 1], offset: 1208>> to memref<72x16x1x1xf32, strided<[16, 1, 1, 1], offset: ?>>
    %cast_316 = memref.cast %subview_203 : memref<72xf32, strided<[1], offset: 2542952>> to memref<72xf32, strided<[1], offset: ?>>
    %cast_317 = memref.cast %subview_204 : memref<72xf32, strided<[1], offset: 2543024>> to memref<72xf32, strided<[1], offset: ?>>
    %cast_318 = memref.cast %subview_18 : memref<72xf32, strided<[1], offset: 2360>> to memref<72xf32, strided<[1], offset: ?>>
    %cast_319 = memref.cast %subview_19 : memref<72xf32, strided<[1], offset: 2432>> to memref<72xf32, strided<[1], offset: ?>>
    %cast_320 = memref.cast %expand_shape_21 : memref<72x1x3x3xf32, strided<[9, 9, 3, 1], offset: 2504>> to memref<72x1x3x3xf32, strided<[9, 9, 3, 1], offset: ?>>
    %cast_321 = memref.cast %subview_206 : memref<72xf32, strided<[1], offset: 2543096>> to memref<72xf32, strided<[1], offset: ?>>
    %cast_322 = memref.cast %subview_207 : memref<72xf32, strided<[1], offset: 2543168>> to memref<72xf32, strided<[1], offset: ?>>
    %cast_323 = memref.cast %subview_22 : memref<72xf32, strided<[1], offset: 3152>> to memref<72xf32, strided<[1], offset: ?>>
    %cast_324 = memref.cast %subview_23 : memref<72xf32, strided<[1], offset: 3224>> to memref<72xf32, strided<[1], offset: ?>>
    %cast_325 = memref.cast %expand_shape_25 : memref<24x72x1x1xf32, strided<[72, 1, 1, 1], offset: 3296>> to memref<24x72x1x1xf32, strided<[72, 1, 1, 1], offset: ?>>
    %cast_326 = memref.cast %subview_209 : memref<24xf32, strided<[1], offset: 2543240>> to memref<24xf32, strided<[1], offset: ?>>
    %cast_327 = memref.cast %subview_210 : memref<24xf32, strided<[1], offset: 2543264>> to memref<24xf32, strided<[1], offset: ?>>
    %cast_328 = memref.cast %subview_26 : memref<24xf32, strided<[1], offset: 5024>> to memref<24xf32, strided<[1], offset: ?>>
    %cast_329 = memref.cast %subview_27 : memref<24xf32, strided<[1], offset: 5048>> to memref<24xf32, strided<[1], offset: ?>>
    %cast_330 = memref.cast %expand_shape_29 : memref<88x24x1x1xf32, strided<[24, 1, 1, 1], offset: 5072>> to memref<88x24x1x1xf32, strided<[24, 1, 1, 1], offset: ?>>
    %cast_331 = memref.cast %subview_212 : memref<88xf32, strided<[1], offset: 2543288>> to memref<88xf32, strided<[1], offset: ?>>
    %cast_332 = memref.cast %subview_213 : memref<88xf32, strided<[1], offset: 2543376>> to memref<88xf32, strided<[1], offset: ?>>
    %cast_333 = memref.cast %subview_30 : memref<88xf32, strided<[1], offset: 7184>> to memref<88xf32, strided<[1], offset: ?>>
    %cast_334 = memref.cast %subview_31 : memref<88xf32, strided<[1], offset: 7272>> to memref<88xf32, strided<[1], offset: ?>>
    %cast_335 = memref.cast %expand_shape_33 : memref<88x1x3x3xf32, strided<[9, 9, 3, 1], offset: 7360>> to memref<88x1x3x3xf32, strided<[9, 9, 3, 1], offset: ?>>
    %cast_336 = memref.cast %subview_215 : memref<88xf32, strided<[1], offset: 2543464>> to memref<88xf32, strided<[1], offset: ?>>
    %cast_337 = memref.cast %subview_216 : memref<88xf32, strided<[1], offset: 2543552>> to memref<88xf32, strided<[1], offset: ?>>
    %cast_338 = memref.cast %subview_34 : memref<88xf32, strided<[1], offset: 8152>> to memref<88xf32, strided<[1], offset: ?>>
    %cast_339 = memref.cast %subview_35 : memref<88xf32, strided<[1], offset: 8240>> to memref<88xf32, strided<[1], offset: ?>>
    %cast_340 = memref.cast %expand_shape_37 : memref<24x88x1x1xf32, strided<[88, 1, 1, 1], offset: 8328>> to memref<24x88x1x1xf32, strided<[88, 1, 1, 1], offset: ?>>
    %cast_341 = memref.cast %subview_218 : memref<24xf32, strided<[1], offset: 2543640>> to memref<24xf32, strided<[1], offset: ?>>
    %cast_342 = memref.cast %subview_219 : memref<24xf32, strided<[1], offset: 2543664>> to memref<24xf32, strided<[1], offset: ?>>
    %cast_343 = memref.cast %subview_38 : memref<24xf32, strided<[1], offset: 10440>> to memref<24xf32, strided<[1], offset: ?>>
    %cast_344 = memref.cast %subview_39 : memref<24xf32, strided<[1], offset: 10464>> to memref<24xf32, strided<[1], offset: ?>>
    %cast_345 = memref.cast %expand_shape_41 : memref<96x24x1x1xf32, strided<[24, 1, 1, 1], offset: 10488>> to memref<96x24x1x1xf32, strided<[24, 1, 1, 1], offset: ?>>
    %cast_346 = memref.cast %subview_221 : memref<96xf32, strided<[1], offset: 2543688>> to memref<96xf32, strided<[1], offset: ?>>
    %cast_347 = memref.cast %subview_222 : memref<96xf32, strided<[1], offset: 2543784>> to memref<96xf32, strided<[1], offset: ?>>
    %cast_348 = memref.cast %subview_42 : memref<96xf32, strided<[1], offset: 12792>> to memref<96xf32, strided<[1], offset: ?>>
    %cast_349 = memref.cast %subview_43 : memref<96xf32, strided<[1], offset: 12888>> to memref<96xf32, strided<[1], offset: ?>>
    %cast_350 = memref.cast %expand_shape_45 : memref<96x1x5x5xf32, strided<[25, 25, 5, 1], offset: 12984>> to memref<96x1x5x5xf32, strided<[25, 25, 5, 1], offset: ?>>
    %cast_351 = memref.cast %subview_224 : memref<96xf32, strided<[1], offset: 2543880>> to memref<96xf32, strided<[1], offset: ?>>
    %cast_352 = memref.cast %subview_225 : memref<96xf32, strided<[1], offset: 2543976>> to memref<96xf32, strided<[1], offset: ?>>
    %cast_353 = memref.cast %subview_46 : memref<96xf32, strided<[1], offset: 15384>> to memref<96xf32, strided<[1], offset: ?>>
    %cast_354 = memref.cast %subview_47 : memref<96xf32, strided<[1], offset: 15480>> to memref<96xf32, strided<[1], offset: ?>>
    %cast_355 = memref.cast %expand_shape_49 : memref<24x96x1x1xf32, strided<[96, 1, 1, 1], offset: 15576>> to memref<24x96x1x1xf32, strided<[96, 1, 1, 1], offset: ?>>
    %cast_356 = memref.cast %subview_50 : memref<24xf32, strided<[1], offset: 17880>> to memref<24xf32, strided<[1], offset: ?>>
    %cast_357 = memref.cast %expand_shape_52 : memref<96x24x1x1xf32, strided<[24, 1, 1, 1], offset: 17904>> to memref<96x24x1x1xf32, strided<[24, 1, 1, 1], offset: ?>>
    %cast_358 = memref.cast %subview_53 : memref<96xf32, strided<[1], offset: 20208>> to memref<96xf32, strided<[1], offset: ?>>
    %cast_359 = memref.cast %expand_shape_55 : memref<40x96x1x1xf32, strided<[96, 1, 1, 1], offset: 20304>> to memref<40x96x1x1xf32, strided<[96, 1, 1, 1], offset: ?>>
    %cast_360 = memref.cast %subview_227 : memref<40xf32, strided<[1], offset: 2544072>> to memref<40xf32, strided<[1], offset: ?>>
    %cast_361 = memref.cast %subview_228 : memref<40xf32, strided<[1], offset: 2544112>> to memref<40xf32, strided<[1], offset: ?>>
    %cast_362 = memref.cast %subview_56 : memref<40xf32, strided<[1], offset: 24144>> to memref<40xf32, strided<[1], offset: ?>>
    %cast_363 = memref.cast %subview_57 : memref<40xf32, strided<[1], offset: 24184>> to memref<40xf32, strided<[1], offset: ?>>
    %cast_364 = memref.cast %expand_shape_59 : memref<240x40x1x1xf32, strided<[40, 1, 1, 1], offset: 24224>> to memref<240x40x1x1xf32, strided<[40, 1, 1, 1], offset: ?>>
    %cast_365 = memref.cast %subview_230 : memref<240xf32, strided<[1], offset: 2544152>> to memref<240xf32, strided<[1], offset: ?>>
    %cast_366 = memref.cast %subview_231 : memref<240xf32, strided<[1], offset: 2544392>> to memref<240xf32, strided<[1], offset: ?>>
    %cast_367 = memref.cast %subview_60 : memref<240xf32, strided<[1], offset: 33824>> to memref<240xf32, strided<[1], offset: ?>>
    %cast_368 = memref.cast %subview_61 : memref<240xf32, strided<[1], offset: 34064>> to memref<240xf32, strided<[1], offset: ?>>
    %cast_369 = memref.cast %expand_shape_63 : memref<240x1x5x5xf32, strided<[25, 25, 5, 1], offset: 34304>> to memref<240x1x5x5xf32, strided<[25, 25, 5, 1], offset: ?>>
    %cast_370 = memref.cast %subview_233 : memref<240xf32, strided<[1], offset: 2544632>> to memref<240xf32, strided<[1], offset: ?>>
    %cast_371 = memref.cast %subview_234 : memref<240xf32, strided<[1], offset: 2544872>> to memref<240xf32, strided<[1], offset: ?>>
    %cast_372 = memref.cast %subview_64 : memref<240xf32, strided<[1], offset: 40304>> to memref<240xf32, strided<[1], offset: ?>>
    %cast_373 = memref.cast %subview_65 : memref<240xf32, strided<[1], offset: 40544>> to memref<240xf32, strided<[1], offset: ?>>
    %cast_374 = memref.cast %expand_shape_67 : memref<64x240x1x1xf32, strided<[240, 1, 1, 1], offset: 40784>> to memref<64x240x1x1xf32, strided<[240, 1, 1, 1], offset: ?>>
    %cast_375 = memref.cast %subview_68 : memref<64xf32, strided<[1], offset: 56144>> to memref<64xf32, strided<[1], offset: ?>>
    %cast_376 = memref.cast %expand_shape_70 : memref<240x64x1x1xf32, strided<[64, 1, 1, 1], offset: 56208>> to memref<240x64x1x1xf32, strided<[64, 1, 1, 1], offset: ?>>
    %cast_377 = memref.cast %subview_71 : memref<240xf32, strided<[1], offset: 71568>> to memref<240xf32, strided<[1], offset: ?>>
    %cast_378 = memref.cast %expand_shape_73 : memref<40x240x1x1xf32, strided<[240, 1, 1, 1], offset: 71808>> to memref<40x240x1x1xf32, strided<[240, 1, 1, 1], offset: ?>>
    %cast_379 = memref.cast %subview_236 : memref<40xf32, strided<[1], offset: 2545112>> to memref<40xf32, strided<[1], offset: ?>>
    %cast_380 = memref.cast %subview_237 : memref<40xf32, strided<[1], offset: 2545152>> to memref<40xf32, strided<[1], offset: ?>>
    %cast_381 = memref.cast %subview_74 : memref<40xf32, strided<[1], offset: 81408>> to memref<40xf32, strided<[1], offset: ?>>
    %cast_382 = memref.cast %subview_75 : memref<40xf32, strided<[1], offset: 81448>> to memref<40xf32, strided<[1], offset: ?>>
    %cast_383 = memref.cast %expand_shape_77 : memref<240x40x1x1xf32, strided<[40, 1, 1, 1], offset: 81488>> to memref<240x40x1x1xf32, strided<[40, 1, 1, 1], offset: ?>>
    %cast_384 = memref.cast %subview_239 : memref<240xf32, strided<[1], offset: 2545192>> to memref<240xf32, strided<[1], offset: ?>>
    %cast_385 = memref.cast %subview_240 : memref<240xf32, strided<[1], offset: 2545432>> to memref<240xf32, strided<[1], offset: ?>>
    %cast_386 = memref.cast %subview_78 : memref<240xf32, strided<[1], offset: 91088>> to memref<240xf32, strided<[1], offset: ?>>
    %cast_387 = memref.cast %subview_79 : memref<240xf32, strided<[1], offset: 91328>> to memref<240xf32, strided<[1], offset: ?>>
    %cast_388 = memref.cast %expand_shape_81 : memref<240x1x5x5xf32, strided<[25, 25, 5, 1], offset: 91568>> to memref<240x1x5x5xf32, strided<[25, 25, 5, 1], offset: ?>>
    %cast_389 = memref.cast %subview_242 : memref<240xf32, strided<[1], offset: 2545672>> to memref<240xf32, strided<[1], offset: ?>>
    %cast_390 = memref.cast %subview_243 : memref<240xf32, strided<[1], offset: 2545912>> to memref<240xf32, strided<[1], offset: ?>>
    %cast_391 = memref.cast %subview_82 : memref<240xf32, strided<[1], offset: 97568>> to memref<240xf32, strided<[1], offset: ?>>
    %cast_392 = memref.cast %subview_83 : memref<240xf32, strided<[1], offset: 97808>> to memref<240xf32, strided<[1], offset: ?>>
    %cast_393 = memref.cast %expand_shape_85 : memref<64x240x1x1xf32, strided<[240, 1, 1, 1], offset: 98048>> to memref<64x240x1x1xf32, strided<[240, 1, 1, 1], offset: ?>>
    %cast_394 = memref.cast %subview_86 : memref<64xf32, strided<[1], offset: 113408>> to memref<64xf32, strided<[1], offset: ?>>
    %cast_395 = memref.cast %expand_shape_88 : memref<240x64x1x1xf32, strided<[64, 1, 1, 1], offset: 113472>> to memref<240x64x1x1xf32, strided<[64, 1, 1, 1], offset: ?>>
    %cast_396 = memref.cast %subview_89 : memref<240xf32, strided<[1], offset: 128832>> to memref<240xf32, strided<[1], offset: ?>>
    %cast_397 = memref.cast %expand_shape_91 : memref<40x240x1x1xf32, strided<[240, 1, 1, 1], offset: 129072>> to memref<40x240x1x1xf32, strided<[240, 1, 1, 1], offset: ?>>
    %cast_398 = memref.cast %subview_245 : memref<40xf32, strided<[1], offset: 2546152>> to memref<40xf32, strided<[1], offset: ?>>
    %cast_399 = memref.cast %subview_246 : memref<40xf32, strided<[1], offset: 2546192>> to memref<40xf32, strided<[1], offset: ?>>
    %cast_400 = memref.cast %subview_92 : memref<40xf32, strided<[1], offset: 138672>> to memref<40xf32, strided<[1], offset: ?>>
    %cast_401 = memref.cast %subview_93 : memref<40xf32, strided<[1], offset: 138712>> to memref<40xf32, strided<[1], offset: ?>>
    %cast_402 = memref.cast %expand_shape_95 : memref<120x40x1x1xf32, strided<[40, 1, 1, 1], offset: 138752>> to memref<120x40x1x1xf32, strided<[40, 1, 1, 1], offset: ?>>
    %cast_403 = memref.cast %subview_248 : memref<120xf32, strided<[1], offset: 2546232>> to memref<120xf32, strided<[1], offset: ?>>
    %cast_404 = memref.cast %subview_249 : memref<120xf32, strided<[1], offset: 2546352>> to memref<120xf32, strided<[1], offset: ?>>
    %cast_405 = memref.cast %subview_96 : memref<120xf32, strided<[1], offset: 143552>> to memref<120xf32, strided<[1], offset: ?>>
    %cast_406 = memref.cast %subview_97 : memref<120xf32, strided<[1], offset: 143672>> to memref<120xf32, strided<[1], offset: ?>>
    %cast_407 = memref.cast %expand_shape_99 : memref<120x1x5x5xf32, strided<[25, 25, 5, 1], offset: 143792>> to memref<120x1x5x5xf32, strided<[25, 25, 5, 1], offset: ?>>
    %cast_408 = memref.cast %subview_251 : memref<120xf32, strided<[1], offset: 2546472>> to memref<120xf32, strided<[1], offset: ?>>
    %cast_409 = memref.cast %subview_252 : memref<120xf32, strided<[1], offset: 2546592>> to memref<120xf32, strided<[1], offset: ?>>
    %cast_410 = memref.cast %subview_100 : memref<120xf32, strided<[1], offset: 146792>> to memref<120xf32, strided<[1], offset: ?>>
    %cast_411 = memref.cast %subview_101 : memref<120xf32, strided<[1], offset: 146912>> to memref<120xf32, strided<[1], offset: ?>>
    %cast_412 = memref.cast %expand_shape_103 : memref<32x120x1x1xf32, strided<[120, 1, 1, 1], offset: 147032>> to memref<32x120x1x1xf32, strided<[120, 1, 1, 1], offset: ?>>
    %cast_413 = memref.cast %subview_104 : memref<32xf32, strided<[1], offset: 150872>> to memref<32xf32, strided<[1], offset: ?>>
    %cast_414 = memref.cast %expand_shape_106 : memref<120x32x1x1xf32, strided<[32, 1, 1, 1], offset: 150904>> to memref<120x32x1x1xf32, strided<[32, 1, 1, 1], offset: ?>>
    %cast_415 = memref.cast %subview_107 : memref<120xf32, strided<[1], offset: 154744>> to memref<120xf32, strided<[1], offset: ?>>
    %cast_416 = memref.cast %expand_shape_109 : memref<48x120x1x1xf32, strided<[120, 1, 1, 1], offset: 154864>> to memref<48x120x1x1xf32, strided<[120, 1, 1, 1], offset: ?>>
    %cast_417 = memref.cast %subview_254 : memref<48xf32, strided<[1], offset: 2546712>> to memref<48xf32, strided<[1], offset: ?>>
    %cast_418 = memref.cast %subview_255 : memref<48xf32, strided<[1], offset: 2546760>> to memref<48xf32, strided<[1], offset: ?>>
    %cast_419 = memref.cast %subview_110 : memref<48xf32, strided<[1], offset: 160624>> to memref<48xf32, strided<[1], offset: ?>>
    %cast_420 = memref.cast %subview_111 : memref<48xf32, strided<[1], offset: 160672>> to memref<48xf32, strided<[1], offset: ?>>
    %cast_421 = memref.cast %expand_shape_113 : memref<144x48x1x1xf32, strided<[48, 1, 1, 1], offset: 160720>> to memref<144x48x1x1xf32, strided<[48, 1, 1, 1], offset: ?>>
    %cast_422 = memref.cast %subview_257 : memref<144xf32, strided<[1], offset: 2546808>> to memref<144xf32, strided<[1], offset: ?>>
    %cast_423 = memref.cast %subview_258 : memref<144xf32, strided<[1], offset: 2546952>> to memref<144xf32, strided<[1], offset: ?>>
    %cast_424 = memref.cast %subview_114 : memref<144xf32, strided<[1], offset: 167632>> to memref<144xf32, strided<[1], offset: ?>>
    %cast_425 = memref.cast %subview_115 : memref<144xf32, strided<[1], offset: 167776>> to memref<144xf32, strided<[1], offset: ?>>
    %cast_426 = memref.cast %expand_shape_117 : memref<144x1x5x5xf32, strided<[25, 25, 5, 1], offset: 167920>> to memref<144x1x5x5xf32, strided<[25, 25, 5, 1], offset: ?>>
    %cast_427 = memref.cast %subview_260 : memref<144xf32, strided<[1], offset: 2547096>> to memref<144xf32, strided<[1], offset: ?>>
    %cast_428 = memref.cast %subview_261 : memref<144xf32, strided<[1], offset: 2547240>> to memref<144xf32, strided<[1], offset: ?>>
    %cast_429 = memref.cast %subview_118 : memref<144xf32, strided<[1], offset: 171520>> to memref<144xf32, strided<[1], offset: ?>>
    %cast_430 = memref.cast %subview_119 : memref<144xf32, strided<[1], offset: 171664>> to memref<144xf32, strided<[1], offset: ?>>
    %cast_431 = memref.cast %expand_shape_121 : memref<40x144x1x1xf32, strided<[144, 1, 1, 1], offset: 171808>> to memref<40x144x1x1xf32, strided<[144, 1, 1, 1], offset: ?>>
    %cast_432 = memref.cast %subview_122 : memref<40xf32, strided<[1], offset: 177568>> to memref<40xf32, strided<[1], offset: ?>>
    %cast_433 = memref.cast %expand_shape_124 : memref<144x40x1x1xf32, strided<[40, 1, 1, 1], offset: 177608>> to memref<144x40x1x1xf32, strided<[40, 1, 1, 1], offset: ?>>
    %cast_434 = memref.cast %subview_125 : memref<144xf32, strided<[1], offset: 183368>> to memref<144xf32, strided<[1], offset: ?>>
    %cast_435 = memref.cast %expand_shape_127 : memref<48x144x1x1xf32, strided<[144, 1, 1, 1], offset: 183512>> to memref<48x144x1x1xf32, strided<[144, 1, 1, 1], offset: ?>>
    %cast_436 = memref.cast %subview_263 : memref<48xf32, strided<[1], offset: 2547384>> to memref<48xf32, strided<[1], offset: ?>>
    %cast_437 = memref.cast %subview_264 : memref<48xf32, strided<[1], offset: 2547432>> to memref<48xf32, strided<[1], offset: ?>>
    %cast_438 = memref.cast %subview_128 : memref<48xf32, strided<[1], offset: 190424>> to memref<48xf32, strided<[1], offset: ?>>
    %cast_439 = memref.cast %subview_129 : memref<48xf32, strided<[1], offset: 190472>> to memref<48xf32, strided<[1], offset: ?>>
    %cast_440 = memref.cast %expand_shape_131 : memref<288x48x1x1xf32, strided<[48, 1, 1, 1], offset: 190520>> to memref<288x48x1x1xf32, strided<[48, 1, 1, 1], offset: ?>>
    %cast_441 = memref.cast %subview_266 : memref<288xf32, strided<[1], offset: 2547480>> to memref<288xf32, strided<[1], offset: ?>>
    %cast_442 = memref.cast %subview_267 : memref<288xf32, strided<[1], offset: 2547768>> to memref<288xf32, strided<[1], offset: ?>>
    %cast_443 = memref.cast %subview_132 : memref<288xf32, strided<[1], offset: 204344>> to memref<288xf32, strided<[1], offset: ?>>
    %cast_444 = memref.cast %subview_133 : memref<288xf32, strided<[1], offset: 204632>> to memref<288xf32, strided<[1], offset: ?>>
    %cast_445 = memref.cast %expand_shape_135 : memref<288x1x5x5xf32, strided<[25, 25, 5, 1], offset: 204920>> to memref<288x1x5x5xf32, strided<[25, 25, 5, 1], offset: ?>>
    %cast_446 = memref.cast %subview_269 : memref<288xf32, strided<[1], offset: 2548056>> to memref<288xf32, strided<[1], offset: ?>>
    %cast_447 = memref.cast %subview_270 : memref<288xf32, strided<[1], offset: 2548344>> to memref<288xf32, strided<[1], offset: ?>>
    %cast_448 = memref.cast %subview_136 : memref<288xf32, strided<[1], offset: 212120>> to memref<288xf32, strided<[1], offset: ?>>
    %cast_449 = memref.cast %subview_137 : memref<288xf32, strided<[1], offset: 212408>> to memref<288xf32, strided<[1], offset: ?>>
    %cast_450 = memref.cast %expand_shape_139 : memref<72x288x1x1xf32, strided<[288, 1, 1, 1], offset: 212696>> to memref<72x288x1x1xf32, strided<[288, 1, 1, 1], offset: ?>>
    %cast_451 = memref.cast %subview_140 : memref<72xf32, strided<[1], offset: 233432>> to memref<72xf32, strided<[1], offset: ?>>
    %cast_452 = memref.cast %expand_shape_142 : memref<288x72x1x1xf32, strided<[72, 1, 1, 1], offset: 233504>> to memref<288x72x1x1xf32, strided<[72, 1, 1, 1], offset: ?>>
    %cast_453 = memref.cast %subview_143 : memref<288xf32, strided<[1], offset: 254240>> to memref<288xf32, strided<[1], offset: ?>>
    %cast_454 = memref.cast %expand_shape_145 : memref<96x288x1x1xf32, strided<[288, 1, 1, 1], offset: 254528>> to memref<96x288x1x1xf32, strided<[288, 1, 1, 1], offset: ?>>
    %cast_455 = memref.cast %subview_272 : memref<96xf32, strided<[1], offset: 2548632>> to memref<96xf32, strided<[1], offset: ?>>
    %cast_456 = memref.cast %subview_273 : memref<96xf32, strided<[1], offset: 2548728>> to memref<96xf32, strided<[1], offset: ?>>
    %cast_457 = memref.cast %subview_146 : memref<96xf32, strided<[1], offset: 282176>> to memref<96xf32, strided<[1], offset: ?>>
    %cast_458 = memref.cast %subview_147 : memref<96xf32, strided<[1], offset: 282272>> to memref<96xf32, strided<[1], offset: ?>>
    %cast_459 = memref.cast %expand_shape_149 : memref<576x96x1x1xf32, strided<[96, 1, 1, 1], offset: 282368>> to memref<576x96x1x1xf32, strided<[96, 1, 1, 1], offset: ?>>
    %cast_460 = memref.cast %subview_275 : memref<576xf32, strided<[1], offset: 2548824>> to memref<576xf32, strided<[1], offset: ?>>
    %cast_461 = memref.cast %subview_276 : memref<576xf32, strided<[1], offset: 2549400>> to memref<576xf32, strided<[1], offset: ?>>
    %cast_462 = memref.cast %subview_150 : memref<576xf32, strided<[1], offset: 337664>> to memref<576xf32, strided<[1], offset: ?>>
    %cast_463 = memref.cast %subview_151 : memref<576xf32, strided<[1], offset: 338240>> to memref<576xf32, strided<[1], offset: ?>>
    %cast_464 = memref.cast %expand_shape_153 : memref<576x1x5x5xf32, strided<[25, 25, 5, 1], offset: 338816>> to memref<576x1x5x5xf32, strided<[25, 25, 5, 1], offset: ?>>
    %cast_465 = memref.cast %subview_278 : memref<576xf32, strided<[1], offset: 2549976>> to memref<576xf32, strided<[1], offset: ?>>
    %cast_466 = memref.cast %subview_279 : memref<576xf32, strided<[1], offset: 2550552>> to memref<576xf32, strided<[1], offset: ?>>
    %cast_467 = memref.cast %subview_154 : memref<576xf32, strided<[1], offset: 353216>> to memref<576xf32, strided<[1], offset: ?>>
    %cast_468 = memref.cast %subview_155 : memref<576xf32, strided<[1], offset: 353792>> to memref<576xf32, strided<[1], offset: ?>>
    %cast_469 = memref.cast %expand_shape_157 : memref<144x576x1x1xf32, strided<[576, 1, 1, 1], offset: 354368>> to memref<144x576x1x1xf32, strided<[576, 1, 1, 1], offset: ?>>
    %cast_470 = memref.cast %subview_158 : memref<144xf32, strided<[1], offset: 437312>> to memref<144xf32, strided<[1], offset: ?>>
    %cast_471 = memref.cast %expand_shape_160 : memref<576x144x1x1xf32, strided<[144, 1, 1, 1], offset: 437456>> to memref<576x144x1x1xf32, strided<[144, 1, 1, 1], offset: ?>>
    %cast_472 = memref.cast %subview_161 : memref<576xf32, strided<[1], offset: 520400>> to memref<576xf32, strided<[1], offset: ?>>
    %cast_473 = memref.cast %expand_shape_163 : memref<96x576x1x1xf32, strided<[576, 1, 1, 1], offset: 520976>> to memref<96x576x1x1xf32, strided<[576, 1, 1, 1], offset: ?>>
    %cast_474 = memref.cast %subview_281 : memref<96xf32, strided<[1], offset: 2551128>> to memref<96xf32, strided<[1], offset: ?>>
    %cast_475 = memref.cast %subview_282 : memref<96xf32, strided<[1], offset: 2551224>> to memref<96xf32, strided<[1], offset: ?>>
    %cast_476 = memref.cast %subview_164 : memref<96xf32, strided<[1], offset: 576272>> to memref<96xf32, strided<[1], offset: ?>>
    %cast_477 = memref.cast %subview_165 : memref<96xf32, strided<[1], offset: 576368>> to memref<96xf32, strided<[1], offset: ?>>
    %cast_478 = memref.cast %expand_shape_167 : memref<576x96x1x1xf32, strided<[96, 1, 1, 1], offset: 576464>> to memref<576x96x1x1xf32, strided<[96, 1, 1, 1], offset: ?>>
    %cast_479 = memref.cast %subview_284 : memref<576xf32, strided<[1], offset: 2551320>> to memref<576xf32, strided<[1], offset: ?>>
    %cast_480 = memref.cast %subview_285 : memref<576xf32, strided<[1], offset: 2551896>> to memref<576xf32, strided<[1], offset: ?>>
    %cast_481 = memref.cast %subview_168 : memref<576xf32, strided<[1], offset: 631760>> to memref<576xf32, strided<[1], offset: ?>>
    %cast_482 = memref.cast %subview_169 : memref<576xf32, strided<[1], offset: 632336>> to memref<576xf32, strided<[1], offset: ?>>
    %cast_483 = memref.cast %expand_shape_171 : memref<576x1x5x5xf32, strided<[25, 25, 5, 1], offset: 632912>> to memref<576x1x5x5xf32, strided<[25, 25, 5, 1], offset: ?>>
    %cast_484 = memref.cast %subview_287 : memref<576xf32, strided<[1], offset: 2552472>> to memref<576xf32, strided<[1], offset: ?>>
    %cast_485 = memref.cast %subview_288 : memref<576xf32, strided<[1], offset: 2553048>> to memref<576xf32, strided<[1], offset: ?>>
    %cast_486 = memref.cast %subview_172 : memref<576xf32, strided<[1], offset: 647312>> to memref<576xf32, strided<[1], offset: ?>>
    %cast_487 = memref.cast %subview_173 : memref<576xf32, strided<[1], offset: 647888>> to memref<576xf32, strided<[1], offset: ?>>
    %cast_488 = memref.cast %expand_shape_175 : memref<144x576x1x1xf32, strided<[576, 1, 1, 1], offset: 648464>> to memref<144x576x1x1xf32, strided<[576, 1, 1, 1], offset: ?>>
    %cast_489 = memref.cast %subview_176 : memref<144xf32, strided<[1], offset: 731408>> to memref<144xf32, strided<[1], offset: ?>>
    %cast_490 = memref.cast %expand_shape_178 : memref<576x144x1x1xf32, strided<[144, 1, 1, 1], offset: 731552>> to memref<576x144x1x1xf32, strided<[144, 1, 1, 1], offset: ?>>
    %cast_491 = memref.cast %subview_179 : memref<576xf32, strided<[1], offset: 814496>> to memref<576xf32, strided<[1], offset: ?>>
    %cast_492 = memref.cast %expand_shape_181 : memref<96x576x1x1xf32, strided<[576, 1, 1, 1], offset: 815072>> to memref<96x576x1x1xf32, strided<[576, 1, 1, 1], offset: ?>>
    %cast_493 = memref.cast %subview_290 : memref<96xf32, strided<[1], offset: 2553624>> to memref<96xf32, strided<[1], offset: ?>>
    %cast_494 = memref.cast %subview_291 : memref<96xf32, strided<[1], offset: 2553720>> to memref<96xf32, strided<[1], offset: ?>>
    %cast_495 = memref.cast %subview_182 : memref<96xf32, strided<[1], offset: 870368>> to memref<96xf32, strided<[1], offset: ?>>
    %cast_496 = memref.cast %subview_183 : memref<96xf32, strided<[1], offset: 870464>> to memref<96xf32, strided<[1], offset: ?>>
    %cast_497 = memref.cast %expand_shape_185 : memref<576x96x1x1xf32, strided<[96, 1, 1, 1], offset: 870560>> to memref<576x96x1x1xf32, strided<[96, 1, 1, 1], offset: ?>>
    %cast_498 = memref.cast %subview_293 : memref<576xf32, strided<[1], offset: 2553816>> to memref<576xf32, strided<[1], offset: ?>>
    %cast_499 = memref.cast %subview_294 : memref<576xf32, strided<[1], offset: 2554392>> to memref<576xf32, strided<[1], offset: ?>>
    %cast_500 = memref.cast %subview_186 : memref<576xf32, strided<[1], offset: 925856>> to memref<576xf32, strided<[1], offset: ?>>
    %cast_501 = memref.cast %subview_187 : memref<576xf32, strided<[1], offset: 926432>> to memref<576xf32, strided<[1], offset: ?>>
    %cast_502 = memref.cast %expand_shape_189 : memref<1024x576xf32, strided<[576, 1], offset: 927008>> to memref<1024x576xf32, strided<[576, 1], offset: ?>>
    %cast_503 = memref.cast %subview_190 : memref<1024xf32, strided<[1], offset: 1516832>> to memref<1024xf32, strided<[1], offset: ?>>
    %cast_504 = memref.cast %expand_shape_192 : memref<1000x1024xf32, strided<[1024, 1], offset: 1517856>> to memref<1000x1024xf32, strided<[1024, 1], offset: ?>>
    %cast_505 = memref.cast %subview_193 : memref<1000xf32, strided<[1], offset: 2541856>> to memref<1000xf32, strided<[1], offset: ?>>
    %0 = call @subgraph0(%cast, %cast_296, %cast_297, %cast_298, %cast_299, %cast_300, %cast_301, %cast_302, %cast_303, %cast_304, %cast_305, %cast_306, %cast_307, %cast_308, %cast_309, %cast_310, %cast_311, %cast_312, %cast_313, %cast_314, %cast_315, %cast_316, %cast_317, %cast_318, %cast_319, %cast_320, %cast_321, %cast_322, %cast_323, %cast_324, %cast_325, %cast_326, %cast_327, %cast_328, %cast_329, %cast_330, %cast_331, %cast_332, %cast_333, %cast_334, %cast_335, %cast_336, %cast_337, %cast_338, %cast_339, %cast_340, %cast_341, %cast_342, %cast_343, %cast_344, %cast_345, %cast_346, %cast_347, %cast_348, %cast_349, %cast_350, %cast_351, %cast_352, %cast_353, %cast_354, %cast_355, %cast_356, %cast_357, %cast_358, %cast_359, %cast_360, %cast_361, %cast_362, %cast_363, %cast_364, %cast_365, %cast_366, %cast_367, %cast_368, %cast_369, %cast_370, %cast_371, %cast_372, %cast_373, %cast_374, %cast_375, %cast_376, %cast_377, %cast_378, %cast_379, %cast_380, %cast_381, %cast_382, %cast_383, %cast_384, %cast_385, %cast_386, %cast_387, %cast_388, %cast_389, %cast_390, %cast_391, %cast_392, %cast_393, %cast_394, %cast_395, %cast_396, %cast_397, %cast_398, %cast_399, %cast_400, %cast_401, %cast_402, %cast_403, %cast_404, %cast_405, %cast_406, %cast_407, %cast_408, %cast_409, %cast_410, %cast_411, %cast_412, %cast_413, %cast_414, %cast_415, %cast_416, %cast_417, %cast_418, %cast_419, %cast_420, %cast_421, %cast_422, %cast_423, %cast_424, %cast_425, %cast_426, %cast_427, %cast_428, %cast_429, %cast_430, %cast_431, %cast_432, %cast_433, %cast_434, %cast_435, %cast_436, %cast_437, %cast_438, %cast_439, %cast_440, %cast_441, %cast_442, %cast_443, %cast_444, %cast_445, %cast_446, %cast_447, %cast_448, %cast_449, %cast_450, %cast_451, %cast_452, %cast_453, %cast_454, %cast_455, %cast_456, %cast_457, %cast_458, %cast_459, %cast_460, %cast_461, %cast_462, %cast_463, %cast_464, %cast_465, %cast_466, %cast_467, %cast_468, %cast_469, %cast_470, %cast_471, %cast_472, %cast_473, %cast_474, %cast_475, %cast_476, %cast_477, %cast_478, %cast_479, %cast_480, %cast_481, %cast_482, %cast_483, %cast_484, %cast_485, %cast_486, %cast_487, %cast_488, %cast_489, %cast_490, %cast_491, %cast_492, %cast_493, %cast_494, %cast_495, %cast_496, %cast_497, %cast_498, %cast_499, %cast_500, %cast_501, %cast_502, %cast_503, %cast_504, %cast_505) : (memref<1x3x224x224xf32, strided<[150528, 50176, 224, 1], offset: ?>>, memref<16x3x3x3xf32, strided<[27, 9, 3, 1], offset: ?>>, memref<16xf32, strided<[1], offset: ?>>, memref<16xf32, strided<[1], offset: ?>>, memref<16xf32, strided<[1], offset: ?>>, memref<16xf32, strided<[1], offset: ?>>, memref<16x1x3x3xf32, strided<[9, 9, 3, 1], offset: ?>>, memref<16xf32, strided<[1], offset: ?>>, memref<16xf32, strided<[1], offset: ?>>, memref<16xf32, strided<[1], offset: ?>>, memref<16xf32, strided<[1], offset: ?>>, memref<8x16x1x1xf32, strided<[16, 1, 1, 1], offset: ?>>, memref<8xf32, strided<[1], offset: ?>>, memref<16x8x1x1xf32, strided<[8, 1, 1, 1], offset: ?>>, memref<16xf32, strided<[1], offset: ?>>, memref<16x16x1x1xf32, strided<[16, 1, 1, 1], offset: ?>>, memref<16xf32, strided<[1], offset: ?>>, memref<16xf32, strided<[1], offset: ?>>, memref<16xf32, strided<[1], offset: ?>>, memref<16xf32, strided<[1], offset: ?>>, memref<72x16x1x1xf32, strided<[16, 1, 1, 1], offset: ?>>, memref<72xf32, strided<[1], offset: ?>>, memref<72xf32, strided<[1], offset: ?>>, memref<72xf32, strided<[1], offset: ?>>, memref<72xf32, strided<[1], offset: ?>>, memref<72x1x3x3xf32, strided<[9, 9, 3, 1], offset: ?>>, memref<72xf32, strided<[1], offset: ?>>, memref<72xf32, strided<[1], offset: ?>>, memref<72xf32, strided<[1], offset: ?>>, memref<72xf32, strided<[1], offset: ?>>, memref<24x72x1x1xf32, strided<[72, 1, 1, 1], offset: ?>>, memref<24xf32, strided<[1], offset: ?>>, memref<24xf32, strided<[1], offset: ?>>, memref<24xf32, strided<[1], offset: ?>>, memref<24xf32, strided<[1], offset: ?>>, memref<88x24x1x1xf32, strided<[24, 1, 1, 1], offset: ?>>, memref<88xf32, strided<[1], offset: ?>>, memref<88xf32, strided<[1], offset: ?>>, memref<88xf32, strided<[1], offset: ?>>, memref<88xf32, strided<[1], offset: ?>>, memref<88x1x3x3xf32, strided<[9, 9, 3, 1], offset: ?>>, memref<88xf32, strided<[1], offset: ?>>, memref<88xf32, strided<[1], offset: ?>>, memref<88xf32, strided<[1], offset: ?>>, memref<88xf32, strided<[1], offset: ?>>, memref<24x88x1x1xf32, strided<[88, 1, 1, 1], offset: ?>>, memref<24xf32, strided<[1], offset: ?>>, memref<24xf32, strided<[1], offset: ?>>, memref<24xf32, strided<[1], offset: ?>>, memref<24xf32, strided<[1], offset: ?>>, memref<96x24x1x1xf32, strided<[24, 1, 1, 1], offset: ?>>, memref<96xf32, strided<[1], offset: ?>>, memref<96xf32, strided<[1], offset: ?>>, memref<96xf32, strided<[1], offset: ?>>, memref<96xf32, strided<[1], offset: ?>>, memref<96x1x5x5xf32, strided<[25, 25, 5, 1], offset: ?>>, memref<96xf32, strided<[1], offset: ?>>, memref<96xf32, strided<[1], offset: ?>>, memref<96xf32, strided<[1], offset: ?>>, memref<96xf32, strided<[1], offset: ?>>, memref<24x96x1x1xf32, strided<[96, 1, 1, 1], offset: ?>>, memref<24xf32, strided<[1], offset: ?>>, memref<96x24x1x1xf32, strided<[24, 1, 1, 1], offset: ?>>, memref<96xf32, strided<[1], offset: ?>>, memref<40x96x1x1xf32, strided<[96, 1, 1, 1], offset: ?>>, memref<40xf32, strided<[1], offset: ?>>, memref<40xf32, strided<[1], offset: ?>>, memref<40xf32, strided<[1], offset: ?>>, memref<40xf32, strided<[1], offset: ?>>, memref<240x40x1x1xf32, strided<[40, 1, 1, 1], offset: ?>>, memref<240xf32, strided<[1], offset: ?>>, memref<240xf32, strided<[1], offset: ?>>, memref<240xf32, strided<[1], offset: ?>>, memref<240xf32, strided<[1], offset: ?>>, memref<240x1x5x5xf32, strided<[25, 25, 5, 1], offset: ?>>, memref<240xf32, strided<[1], offset: ?>>, memref<240xf32, strided<[1], offset: ?>>, memref<240xf32, strided<[1], offset: ?>>, memref<240xf32, strided<[1], offset: ?>>, memref<64x240x1x1xf32, strided<[240, 1, 1, 1], offset: ?>>, memref<64xf32, strided<[1], offset: ?>>, memref<240x64x1x1xf32, strided<[64, 1, 1, 1], offset: ?>>, memref<240xf32, strided<[1], offset: ?>>, memref<40x240x1x1xf32, strided<[240, 1, 1, 1], offset: ?>>, memref<40xf32, strided<[1], offset: ?>>, memref<40xf32, strided<[1], offset: ?>>, memref<40xf32, strided<[1], offset: ?>>, memref<40xf32, strided<[1], offset: ?>>, memref<240x40x1x1xf32, strided<[40, 1, 1, 1], offset: ?>>, memref<240xf32, strided<[1], offset: ?>>, memref<240xf32, strided<[1], offset: ?>>, memref<240xf32, strided<[1], offset: ?>>, memref<240xf32, strided<[1], offset: ?>>, memref<240x1x5x5xf32, strided<[25, 25, 5, 1], offset: ?>>, memref<240xf32, strided<[1], offset: ?>>, memref<240xf32, strided<[1], offset: ?>>, memref<240xf32, strided<[1], offset: ?>>, memref<240xf32, strided<[1], offset: ?>>, memref<64x240x1x1xf32, strided<[240, 1, 1, 1], offset: ?>>, memref<64xf32, strided<[1], offset: ?>>, memref<240x64x1x1xf32, strided<[64, 1, 1, 1], offset: ?>>, memref<240xf32, strided<[1], offset: ?>>, memref<40x240x1x1xf32, strided<[240, 1, 1, 1], offset: ?>>, memref<40xf32, strided<[1], offset: ?>>, memref<40xf32, strided<[1], offset: ?>>, memref<40xf32, strided<[1], offset: ?>>, memref<40xf32, strided<[1], offset: ?>>, memref<120x40x1x1xf32, strided<[40, 1, 1, 1], offset: ?>>, memref<120xf32, strided<[1], offset: ?>>, memref<120xf32, strided<[1], offset: ?>>, memref<120xf32, strided<[1], offset: ?>>, memref<120xf32, strided<[1], offset: ?>>, memref<120x1x5x5xf32, strided<[25, 25, 5, 1], offset: ?>>, memref<120xf32, strided<[1], offset: ?>>, memref<120xf32, strided<[1], offset: ?>>, memref<120xf32, strided<[1], offset: ?>>, memref<120xf32, strided<[1], offset: ?>>, memref<32x120x1x1xf32, strided<[120, 1, 1, 1], offset: ?>>, memref<32xf32, strided<[1], offset: ?>>, memref<120x32x1x1xf32, strided<[32, 1, 1, 1], offset: ?>>, memref<120xf32, strided<[1], offset: ?>>, memref<48x120x1x1xf32, strided<[120, 1, 1, 1], offset: ?>>, memref<48xf32, strided<[1], offset: ?>>, memref<48xf32, strided<[1], offset: ?>>, memref<48xf32, strided<[1], offset: ?>>, memref<48xf32, strided<[1], offset: ?>>, memref<144x48x1x1xf32, strided<[48, 1, 1, 1], offset: ?>>, memref<144xf32, strided<[1], offset: ?>>, memref<144xf32, strided<[1], offset: ?>>, memref<144xf32, strided<[1], offset: ?>>, memref<144xf32, strided<[1], offset: ?>>, memref<144x1x5x5xf32, strided<[25, 25, 5, 1], offset: ?>>, memref<144xf32, strided<[1], offset: ?>>, memref<144xf32, strided<[1], offset: ?>>, memref<144xf32, strided<[1], offset: ?>>, memref<144xf32, strided<[1], offset: ?>>, memref<40x144x1x1xf32, strided<[144, 1, 1, 1], offset: ?>>, memref<40xf32, strided<[1], offset: ?>>, memref<144x40x1x1xf32, strided<[40, 1, 1, 1], offset: ?>>, memref<144xf32, strided<[1], offset: ?>>, memref<48x144x1x1xf32, strided<[144, 1, 1, 1], offset: ?>>, memref<48xf32, strided<[1], offset: ?>>, memref<48xf32, strided<[1], offset: ?>>, memref<48xf32, strided<[1], offset: ?>>, memref<48xf32, strided<[1], offset: ?>>, memref<288x48x1x1xf32, strided<[48, 1, 1, 1], offset: ?>>, memref<288xf32, strided<[1], offset: ?>>, memref<288xf32, strided<[1], offset: ?>>, memref<288xf32, strided<[1], offset: ?>>, memref<288xf32, strided<[1], offset: ?>>, memref<288x1x5x5xf32, strided<[25, 25, 5, 1], offset: ?>>, memref<288xf32, strided<[1], offset: ?>>, memref<288xf32, strided<[1], offset: ?>>, memref<288xf32, strided<[1], offset: ?>>, memref<288xf32, strided<[1], offset: ?>>, memref<72x288x1x1xf32, strided<[288, 1, 1, 1], offset: ?>>, memref<72xf32, strided<[1], offset: ?>>, memref<288x72x1x1xf32, strided<[72, 1, 1, 1], offset: ?>>, memref<288xf32, strided<[1], offset: ?>>, memref<96x288x1x1xf32, strided<[288, 1, 1, 1], offset: ?>>, memref<96xf32, strided<[1], offset: ?>>, memref<96xf32, strided<[1], offset: ?>>, memref<96xf32, strided<[1], offset: ?>>, memref<96xf32, strided<[1], offset: ?>>, memref<576x96x1x1xf32, strided<[96, 1, 1, 1], offset: ?>>, memref<576xf32, strided<[1], offset: ?>>, memref<576xf32, strided<[1], offset: ?>>, memref<576xf32, strided<[1], offset: ?>>, memref<576xf32, strided<[1], offset: ?>>, memref<576x1x5x5xf32, strided<[25, 25, 5, 1], offset: ?>>, memref<576xf32, strided<[1], offset: ?>>, memref<576xf32, strided<[1], offset: ?>>, memref<576xf32, strided<[1], offset: ?>>, memref<576xf32, strided<[1], offset: ?>>, memref<144x576x1x1xf32, strided<[576, 1, 1, 1], offset: ?>>, memref<144xf32, strided<[1], offset: ?>>, memref<576x144x1x1xf32, strided<[144, 1, 1, 1], offset: ?>>, memref<576xf32, strided<[1], offset: ?>>, memref<96x576x1x1xf32, strided<[576, 1, 1, 1], offset: ?>>, memref<96xf32, strided<[1], offset: ?>>, memref<96xf32, strided<[1], offset: ?>>, memref<96xf32, strided<[1], offset: ?>>, memref<96xf32, strided<[1], offset: ?>>, memref<576x96x1x1xf32, strided<[96, 1, 1, 1], offset: ?>>, memref<576xf32, strided<[1], offset: ?>>, memref<576xf32, strided<[1], offset: ?>>, memref<576xf32, strided<[1], offset: ?>>, memref<576xf32, strided<[1], offset: ?>>, memref<576x1x5x5xf32, strided<[25, 25, 5, 1], offset: ?>>, memref<576xf32, strided<[1], offset: ?>>, memref<576xf32, strided<[1], offset: ?>>, memref<576xf32, strided<[1], offset: ?>>, memref<576xf32, strided<[1], offset: ?>>, memref<144x576x1x1xf32, strided<[576, 1, 1, 1], offset: ?>>, memref<144xf32, strided<[1], offset: ?>>, memref<576x144x1x1xf32, strided<[144, 1, 1, 1], offset: ?>>, memref<576xf32, strided<[1], offset: ?>>, memref<96x576x1x1xf32, strided<[576, 1, 1, 1], offset: ?>>, memref<96xf32, strided<[1], offset: ?>>, memref<96xf32, strided<[1], offset: ?>>, memref<96xf32, strided<[1], offset: ?>>, memref<96xf32, strided<[1], offset: ?>>, memref<576x96x1x1xf32, strided<[96, 1, 1, 1], offset: ?>>, memref<576xf32, strided<[1], offset: ?>>, memref<576xf32, strided<[1], offset: ?>>, memref<576xf32, strided<[1], offset: ?>>, memref<576xf32, strided<[1], offset: ?>>, memref<1024x576xf32, strided<[576, 1], offset: ?>>, memref<1024xf32, strided<[1], offset: ?>>, memref<1000x1024xf32, strided<[1024, 1], offset: ?>>, memref<1000xf32, strided<[1], offset: ?>>) -> memref<1x1000xf32>
    return %0 : memref<1x1000xf32>
  }
}

