#map = affine_map<(d0, d1) -> (0, d1)>
#map1 = affine_map<(d0, d1) -> (d0, d1)>
#map2 = affine_map<(d0, d1, d2) -> (d0, d1)>
#map3 = affine_map<(d0, d1, d2) -> (d0, d1, d2)>
#map4 = affine_map<(d0) -> (d0)>
#map5 = affine_map<(d0, d1, d2) -> (d1)>
#map6 = affine_map<(d0, d1, d2) -> (d0, d2)>
#map7 = affine_map<(d0, d1, d2, d3) -> (0, 0, 0, d3)>
#map8 = affine_map<(d0, d1, d2, d3) -> (0, 0, d2, d3)>
#map9 = affine_map<(d0, d1, d2, d3) -> (d0, d1, d2, d3)>
#map10 = affine_map<(d0) -> (0)>
#map11 = affine_map<(d0, d1, d2) -> (0, 0, 0)>
#map12 = affine_map<(d0, d1, d2) -> (0, d1, 0)>
#map13 = affine_map<(d0, d1, d2) -> (0, d1, d2)>
#map14 = affine_map<(d0, d1, d2) -> (0, 0, d2)>
#map15 = affine_map<(d0, d1) -> (d1, d0)>
#map16 = affine_map<(d0, d1, d2, d3) -> (d0, d2, d1, d3)>
#map17 = affine_map<(d0, d1, d2) -> (d0, 0, d1, d2)>
#map18 = affine_map<(d0, d1) -> (0, d0, d1)>
#map19 = affine_map<(d0, d1, d2, d3) -> (0, d1, d2, d3)>
#map20 = affine_map<(d0, d1, d2, d3) -> (d0, d1, d3, d2)>
#map21 = affine_map<(d0, d1, d2, d3) -> (0, d1, d2, 0)>
module {
  memref.global "private" constant @__constant_1x40xi64 : memref<1x40xi64> = dense<[[0, 1, 2, 3, 4, 5, 6, 7, 8, 9, 10, 11, 12, 13, 14, 15, 16, 17, 18, 19, 20, 21, 22, 23, 24, 25, 26, 27, 28, 29, 30, 31, 32, 33, 34, 35, 36, 37, 38, 39]]> {alignment = 64 : i64}
  memref.global "private" constant @__constant_40xi64_0 : memref<40xi64> = dense<[0, 1, 2, 3, 4, 5, 6, 7, 8, 9, 10, 11, 12, 13, 14, 15, 16, 17, 18, 19, 20, 21, 22, 23, 24, 25, 26, 27, 28, 29, 30, 31, 32, 33, 34, 35, 36, 37, 38, 39]> {alignment = 64 : i64}
  memref.global "private" constant @__constant_40x40xf32 : memref<40x40xf32> = dense<-3.40282347E+38> {alignment = 64 : i64}
  memref.global "private" constant @__constant_40xi64 : memref<40xi64> = dense<1> {alignment = 64 : i64}
  memref.global "private" constant @__constant_1x1x1x40xi1 : memref<1x1x1x40xi1> = dense<true> {alignment = 64 : i64}
  memref.global "private" constant @__constant_1x1x40x40xi1 : memref<1x1x40x40xi1> = dense<false> {alignment = 64 : i64}
  memref.global "private" constant @__constant_1x1x40x40xf32 : memref<1x1x40x40xf32> = dense<1.000000e+00> {alignment = 64 : i64}
  memref.global "private" constant @__constant_1xf32 : memref<1xf32> = dense<4.096000e+03> {alignment = 64 : i64}
  memref.global "private" constant @__constant_1x40x1xf32 : memref<1x40x1xf32> = dense<9.99999974E-6> {alignment = 64 : i64}
  memref.global "private" constant @__constant_40x4096xf32 : memref<40x4096xf32> = dense<0.000000e+00> {alignment = 64 : i64}
  memref.global "private" constant @__constant_1x32x40x40xf32 : memref<1x32x40x40xf32> = dense<11.3137083> {alignment = 64 : i64}
  memref.global "private" constant @__constant_40x11008xf32 : memref<40x11008xf32> = dense<0.000000e+00> {alignment = 64 : i64}
  memref.global "private" constant @__constant_40x32000xf32 : memref<40x32000xf32> = dense<0.000000e+00> {alignment = 64 : i64}
  func.func @subgraph0(%arg0: tensor<32000x4096xf32>, %arg1: tensor<1x40xi64>, %arg2: tensor<4096xf32>, %arg3: tensor<4096x4096xf32>, %arg4: tensor<4096x4096xf32>, %arg5: tensor<4096x4096xf32>, %arg6: tensor<1x1x2048x128xf32>, %arg7: tensor<1x1x2048x128xf32>, %arg8: tensor<4096x4096xf32>, %arg9: tensor<4096xf32>, %arg10: tensor<11008x4096xf32>, %arg11: tensor<11008x4096xf32>, %arg12: tensor<4096x11008xf32>, %arg13: tensor<4096xf32>, %arg14: tensor<4096x4096xf32>, %arg15: tensor<4096x4096xf32>, %arg16: tensor<4096x4096xf32>, %arg17: tensor<1x1x2048x128xf32>, %arg18: tensor<1x1x2048x128xf32>, %arg19: tensor<4096x4096xf32>, %arg20: tensor<4096xf32>, %arg21: tensor<11008x4096xf32>, %arg22: tensor<11008x4096xf32>, %arg23: tensor<4096x11008xf32>, %arg24: tensor<4096xf32>, %arg25: tensor<4096x4096xf32>, %arg26: tensor<4096x4096xf32>, %arg27: tensor<4096x4096xf32>, %arg28: tensor<1x1x2048x128xf32>, %arg29: tensor<1x1x2048x128xf32>, %arg30: tensor<4096x4096xf32>, %arg31: tensor<4096xf32>, %arg32: tensor<11008x4096xf32>, %arg33: tensor<11008x4096xf32>, %arg34: tensor<4096x11008xf32>, %arg35: tensor<4096xf32>, %arg36: tensor<4096x4096xf32>, %arg37: tensor<4096x4096xf32>, %arg38: tensor<4096x4096xf32>, %arg39: tensor<1x1x2048x128xf32>, %arg40: tensor<1x1x2048x128xf32>, %arg41: tensor<4096x4096xf32>, %arg42: tensor<4096xf32>, %arg43: tensor<11008x4096xf32>, %arg44: tensor<11008x4096xf32>, %arg45: tensor<4096x11008xf32>, %arg46: tensor<4096xf32>, %arg47: tensor<4096x4096xf32>, %arg48: tensor<4096x4096xf32>, %arg49: tensor<4096x4096xf32>, %arg50: tensor<1x1x2048x128xf32>, %arg51: tensor<1x1x2048x128xf32>, %arg52: tensor<4096x4096xf32>, %arg53: tensor<4096xf32>, %arg54: tensor<11008x4096xf32>, %arg55: tensor<11008x4096xf32>, %arg56: tensor<4096x11008xf32>, %arg57: tensor<4096xf32>, %arg58: tensor<4096x4096xf32>, %arg59: tensor<4096x4096xf32>, %arg60: tensor<4096x4096xf32>, %arg61: tensor<1x1x2048x128xf32>, %arg62: tensor<1x1x2048x128xf32>, %arg63: tensor<4096x4096xf32>, %arg64: tensor<4096xf32>, %arg65: tensor<11008x4096xf32>, %arg66: tensor<11008x4096xf32>, %arg67: tensor<4096x11008xf32>, %arg68: tensor<4096xf32>, %arg69: tensor<4096x4096xf32>, %arg70: tensor<4096x4096xf32>, %arg71: tensor<4096x4096xf32>, %arg72: tensor<1x1x2048x128xf32>, %arg73: tensor<1x1x2048x128xf32>, %arg74: tensor<4096x4096xf32>, %arg75: tensor<4096xf32>, %arg76: tensor<11008x4096xf32>, %arg77: tensor<11008x4096xf32>, %arg78: tensor<4096x11008xf32>, %arg79: tensor<4096xf32>, %arg80: tensor<4096x4096xf32>, %arg81: tensor<4096x4096xf32>, %arg82: tensor<4096x4096xf32>, %arg83: tensor<1x1x2048x128xf32>, %arg84: tensor<1x1x2048x128xf32>, %arg85: tensor<4096x4096xf32>, %arg86: tensor<4096xf32>, %arg87: tensor<11008x4096xf32>, %arg88: tensor<11008x4096xf32>, %arg89: tensor<4096x11008xf32>, %arg90: tensor<4096xf32>, %arg91: tensor<4096x4096xf32>, %arg92: tensor<4096x4096xf32>, %arg93: tensor<4096x4096xf32>, %arg94: tensor<1x1x2048x128xf32>, %arg95: tensor<1x1x2048x128xf32>, %arg96: tensor<4096x4096xf32>, %arg97: tensor<4096xf32>, %arg98: tensor<11008x4096xf32>, %arg99: tensor<11008x4096xf32>, %arg100: tensor<4096x11008xf32>, %arg101: tensor<4096xf32>, %arg102: tensor<4096x4096xf32>, %arg103: tensor<4096x4096xf32>, %arg104: tensor<4096x4096xf32>, %arg105: tensor<1x1x2048x128xf32>, %arg106: tensor<1x1x2048x128xf32>, %arg107: tensor<4096x4096xf32>, %arg108: tensor<4096xf32>, %arg109: tensor<11008x4096xf32>, %arg110: tensor<11008x4096xf32>, %arg111: tensor<4096x11008xf32>, %arg112: tensor<4096xf32>, %arg113: tensor<4096x4096xf32>, %arg114: tensor<4096x4096xf32>, %arg115: tensor<4096x4096xf32>, %arg116: tensor<1x1x2048x128xf32>, %arg117: tensor<1x1x2048x128xf32>, %arg118: tensor<4096x4096xf32>, %arg119: tensor<4096xf32>, %arg120: tensor<11008x4096xf32>, %arg121: tensor<11008x4096xf32>, %arg122: tensor<4096x11008xf32>, %arg123: tensor<4096xf32>, %arg124: tensor<4096x4096xf32>, %arg125: tensor<4096x4096xf32>, %arg126: tensor<4096x4096xf32>, %arg127: tensor<1x1x2048x128xf32>, %arg128: tensor<1x1x2048x128xf32>, %arg129: tensor<4096x4096xf32>, %arg130: tensor<4096xf32>, %arg131: tensor<11008x4096xf32>, %arg132: tensor<11008x4096xf32>, %arg133: tensor<4096x11008xf32>, %arg134: tensor<4096xf32>, %arg135: tensor<4096x4096xf32>, %arg136: tensor<4096x4096xf32>, %arg137: tensor<4096x4096xf32>, %arg138: tensor<1x1x2048x128xf32>, %arg139: tensor<1x1x2048x128xf32>, %arg140: tensor<4096x4096xf32>, %arg141: tensor<4096xf32>, %arg142: tensor<11008x4096xf32>, %arg143: tensor<11008x4096xf32>, %arg144: tensor<4096x11008xf32>, %arg145: tensor<4096xf32>, %arg146: tensor<4096x4096xf32>, %arg147: tensor<4096x4096xf32>, %arg148: tensor<4096x4096xf32>, %arg149: tensor<1x1x2048x128xf32>, %arg150: tensor<1x1x2048x128xf32>, %arg151: tensor<4096x4096xf32>, %arg152: tensor<4096xf32>, %arg153: tensor<11008x4096xf32>, %arg154: tensor<11008x4096xf32>, %arg155: tensor<4096x11008xf32>, %arg156: tensor<4096xf32>, %arg157: tensor<4096x4096xf32>, %arg158: tensor<4096x4096xf32>, %arg159: tensor<4096x4096xf32>, %arg160: tensor<1x1x2048x128xf32>, %arg161: tensor<1x1x2048x128xf32>, %arg162: tensor<4096x4096xf32>, %arg163: tensor<4096xf32>, %arg164: tensor<11008x4096xf32>, %arg165: tensor<11008x4096xf32>, %arg166: tensor<4096x11008xf32>, %arg167: tensor<4096xf32>, %arg168: tensor<4096x4096xf32>, %arg169: tensor<4096x4096xf32>, %arg170: tensor<4096x4096xf32>, %arg171: tensor<1x1x2048x128xf32>, %arg172: tensor<1x1x2048x128xf32>, %arg173: tensor<4096x4096xf32>, %arg174: tensor<4096xf32>, %arg175: tensor<11008x4096xf32>, %arg176: tensor<11008x4096xf32>, %arg177: tensor<4096x11008xf32>, %arg178: tensor<4096xf32>, %arg179: tensor<4096x4096xf32>, %arg180: tensor<4096x4096xf32>, %arg181: tensor<4096x4096xf32>, %arg182: tensor<1x1x2048x128xf32>, %arg183: tensor<1x1x2048x128xf32>, %arg184: tensor<4096x4096xf32>, %arg185: tensor<4096xf32>, %arg186: tensor<11008x4096xf32>, %arg187: tensor<11008x4096xf32>, %arg188: tensor<4096x11008xf32>, %arg189: tensor<4096xf32>, %arg190: tensor<4096x4096xf32>, %arg191: tensor<4096x4096xf32>, %arg192: tensor<4096x4096xf32>, %arg193: tensor<1x1x2048x128xf32>, %arg194: tensor<1x1x2048x128xf32>, %arg195: tensor<4096x4096xf32>, %arg196: tensor<4096xf32>, %arg197: tensor<11008x4096xf32>, %arg198: tensor<11008x4096xf32>, %arg199: tensor<4096x11008xf32>, %arg200: tensor<4096xf32>, %arg201: tensor<4096x4096xf32>, %arg202: tensor<4096x4096xf32>, %arg203: tensor<4096x4096xf32>, %arg204: tensor<1x1x2048x128xf32>, %arg205: tensor<1x1x2048x128xf32>, %arg206: tensor<4096x4096xf32>, %arg207: tensor<4096xf32>, %arg208: tensor<11008x4096xf32>, %arg209: tensor<11008x4096xf32>, %arg210: tensor<4096x11008xf32>, %arg211: tensor<4096xf32>, %arg212: tensor<4096x4096xf32>, %arg213: tensor<4096x4096xf32>, %arg214: tensor<4096x4096xf32>, %arg215: tensor<1x1x2048x128xf32>, %arg216: tensor<1x1x2048x128xf32>, %arg217: tensor<4096x4096xf32>, %arg218: tensor<4096xf32>, %arg219: tensor<11008x4096xf32>, %arg220: tensor<11008x4096xf32>, %arg221: tensor<4096x11008xf32>, %arg222: tensor<4096xf32>, %arg223: tensor<4096x4096xf32>, %arg224: tensor<4096x4096xf32>, %arg225: tensor<4096x4096xf32>, %arg226: tensor<1x1x2048x128xf32>, %arg227: tensor<1x1x2048x128xf32>, %arg228: tensor<4096x4096xf32>, %arg229: tensor<4096xf32>, %arg230: tensor<11008x4096xf32>, %arg231: tensor<11008x4096xf32>, %arg232: tensor<4096x11008xf32>, %arg233: tensor<4096xf32>, %arg234: tensor<4096x4096xf32>, %arg235: tensor<4096x4096xf32>, %arg236: tensor<4096x4096xf32>, %arg237: tensor<1x1x2048x128xf32>, %arg238: tensor<1x1x2048x128xf32>, %arg239: tensor<4096x4096xf32>, %arg240: tensor<4096xf32>, %arg241: tensor<11008x4096xf32>, %arg242: tensor<11008x4096xf32>, %arg243: tensor<4096x11008xf32>, %arg244: tensor<4096xf32>, %arg245: tensor<4096x4096xf32>, %arg246: tensor<4096x4096xf32>, %arg247: tensor<4096x4096xf32>, %arg248: tensor<1x1x2048x128xf32>, %arg249: tensor<1x1x2048x128xf32>, %arg250: tensor<4096x4096xf32>, %arg251: tensor<4096xf32>, %arg252: tensor<11008x4096xf32>, %arg253: tensor<11008x4096xf32>, %arg254: tensor<4096x11008xf32>, %arg255: tensor<4096xf32>, %arg256: tensor<4096x4096xf32>, %arg257: tensor<4096x4096xf32>, %arg258: tensor<4096x4096xf32>, %arg259: tensor<1x1x2048x128xf32>, %arg260: tensor<1x1x2048x128xf32>, %arg261: tensor<4096x4096xf32>, %arg262: tensor<4096xf32>, %arg263: tensor<11008x4096xf32>, %arg264: tensor<11008x4096xf32>, %arg265: tensor<4096x11008xf32>, %arg266: tensor<4096xf32>, %arg267: tensor<4096x4096xf32>, %arg268: tensor<4096x4096xf32>, %arg269: tensor<4096x4096xf32>, %arg270: tensor<1x1x2048x128xf32>, %arg271: tensor<1x1x2048x128xf32>, %arg272: tensor<4096x4096xf32>, %arg273: tensor<4096xf32>, %arg274: tensor<11008x4096xf32>, %arg275: tensor<11008x4096xf32>, %arg276: tensor<4096x11008xf32>, %arg277: tensor<4096xf32>, %arg278: tensor<4096x4096xf32>, %arg279: tensor<4096x4096xf32>, %arg280: tensor<4096x4096xf32>, %arg281: tensor<1x1x2048x128xf32>, %arg282: tensor<1x1x2048x128xf32>, %arg283: tensor<4096x4096xf32>, %arg284: tensor<4096xf32>, %arg285: tensor<11008x4096xf32>, %arg286: tensor<11008x4096xf32>, %arg287: tensor<4096x11008xf32>, %arg288: tensor<4096xf32>, %arg289: tensor<4096x4096xf32>, %arg290: tensor<4096x4096xf32>, %arg291: tensor<4096x4096xf32>, %arg292: tensor<1x1x2048x128xf32>, %arg293: tensor<1x1x2048x128xf32>, %arg294: tensor<4096x4096xf32>, %arg295: tensor<4096xf32>, %arg296: tensor<11008x4096xf32>, %arg297: tensor<11008x4096xf32>, %arg298: tensor<4096x11008xf32>, %arg299: tensor<4096xf32>, %arg300: tensor<4096x4096xf32>, %arg301: tensor<4096x4096xf32>, %arg302: tensor<4096x4096xf32>, %arg303: tensor<1x1x2048x128xf32>, %arg304: tensor<1x1x2048x128xf32>, %arg305: tensor<4096x4096xf32>, %arg306: tensor<4096xf32>, %arg307: tensor<11008x4096xf32>, %arg308: tensor<11008x4096xf32>, %arg309: tensor<4096x11008xf32>, %arg310: tensor<4096xf32>, %arg311: tensor<4096x4096xf32>, %arg312: tensor<4096x4096xf32>, %arg313: tensor<4096x4096xf32>, %arg314: tensor<1x1x2048x128xf32>, %arg315: tensor<1x1x2048x128xf32>, %arg316: tensor<4096x4096xf32>, %arg317: tensor<4096xf32>, %arg318: tensor<11008x4096xf32>, %arg319: tensor<11008x4096xf32>, %arg320: tensor<4096x11008xf32>, %arg321: tensor<4096xf32>, %arg322: tensor<4096x4096xf32>, %arg323: tensor<4096x4096xf32>, %arg324: tensor<4096x4096xf32>, %arg325: tensor<1x1x2048x128xf32>, %arg326: tensor<1x1x2048x128xf32>, %arg327: tensor<4096x4096xf32>, %arg328: tensor<4096xf32>, %arg329: tensor<11008x4096xf32>, %arg330: tensor<11008x4096xf32>, %arg331: tensor<4096x11008xf32>, %arg332: tensor<4096xf32>, %arg333: tensor<4096x4096xf32>, %arg334: tensor<4096x4096xf32>, %arg335: tensor<4096x4096xf32>, %arg336: tensor<1x1x2048x128xf32>, %arg337: tensor<1x1x2048x128xf32>, %arg338: tensor<4096x4096xf32>, %arg339: tensor<4096xf32>, %arg340: tensor<11008x4096xf32>, %arg341: tensor<11008x4096xf32>, %arg342: tensor<4096x11008xf32>, %arg343: tensor<4096xf32>, %arg344: tensor<4096x4096xf32>, %arg345: tensor<4096x4096xf32>, %arg346: tensor<4096x4096xf32>, %arg347: tensor<1x1x2048x128xf32>, %arg348: tensor<1x1x2048x128xf32>, %arg349: tensor<4096x4096xf32>, %arg350: tensor<4096xf32>, %arg351: tensor<11008x4096xf32>, %arg352: tensor<11008x4096xf32>, %arg353: tensor<4096x11008xf32>, %arg354: tensor<4096xf32>, %arg355: tensor<32000x4096xf32>) -> (tensor<1x40x4096xf32>, tensor<1x40x32000xf32>) {
    %0 = bufferization.to_memref %arg355 : memref<32000x4096xf32, strided<[?, ?], offset: ?>>
    %1 = bufferization.to_memref %arg354 : memref<4096xf32, strided<[?], offset: ?>>
    %2 = bufferization.to_memref %arg353 : memref<4096x11008xf32, strided<[?, ?], offset: ?>>
    %3 = bufferization.to_memref %arg352 : memref<11008x4096xf32, strided<[?, ?], offset: ?>>
    %4 = bufferization.to_memref %arg351 : memref<11008x4096xf32, strided<[?, ?], offset: ?>>
    %5 = bufferization.to_memref %arg350 : memref<4096xf32, strided<[?], offset: ?>>
    %6 = bufferization.to_memref %arg349 : memref<4096x4096xf32, strided<[?, ?], offset: ?>>
    %7 = bufferization.to_memref %arg348 : memref<1x1x2048x128xf32, strided<[?, ?, ?, ?], offset: ?>>
    %8 = bufferization.to_memref %arg347 : memref<1x1x2048x128xf32, strided<[?, ?, ?, ?], offset: ?>>
    %9 = bufferization.to_memref %arg346 : memref<4096x4096xf32, strided<[?, ?], offset: ?>>
    %10 = bufferization.to_memref %arg345 : memref<4096x4096xf32, strided<[?, ?], offset: ?>>
    %11 = bufferization.to_memref %arg344 : memref<4096x4096xf32, strided<[?, ?], offset: ?>>
    %12 = bufferization.to_memref %arg343 : memref<4096xf32, strided<[?], offset: ?>>
    %13 = bufferization.to_memref %arg342 : memref<4096x11008xf32, strided<[?, ?], offset: ?>>
    %14 = bufferization.to_memref %arg341 : memref<11008x4096xf32, strided<[?, ?], offset: ?>>
    %15 = bufferization.to_memref %arg340 : memref<11008x4096xf32, strided<[?, ?], offset: ?>>
    %16 = bufferization.to_memref %arg339 : memref<4096xf32, strided<[?], offset: ?>>
    %17 = bufferization.to_memref %arg338 : memref<4096x4096xf32, strided<[?, ?], offset: ?>>
    %18 = bufferization.to_memref %arg337 : memref<1x1x2048x128xf32, strided<[?, ?, ?, ?], offset: ?>>
    %19 = bufferization.to_memref %arg336 : memref<1x1x2048x128xf32, strided<[?, ?, ?, ?], offset: ?>>
    %20 = bufferization.to_memref %arg335 : memref<4096x4096xf32, strided<[?, ?], offset: ?>>
    %21 = bufferization.to_memref %arg334 : memref<4096x4096xf32, strided<[?, ?], offset: ?>>
    %22 = bufferization.to_memref %arg333 : memref<4096x4096xf32, strided<[?, ?], offset: ?>>
    %23 = bufferization.to_memref %arg332 : memref<4096xf32, strided<[?], offset: ?>>
    %24 = bufferization.to_memref %arg331 : memref<4096x11008xf32, strided<[?, ?], offset: ?>>
    %25 = bufferization.to_memref %arg330 : memref<11008x4096xf32, strided<[?, ?], offset: ?>>
    %26 = bufferization.to_memref %arg329 : memref<11008x4096xf32, strided<[?, ?], offset: ?>>
    %27 = bufferization.to_memref %arg328 : memref<4096xf32, strided<[?], offset: ?>>
    %28 = bufferization.to_memref %arg327 : memref<4096x4096xf32, strided<[?, ?], offset: ?>>
    %29 = bufferization.to_memref %arg326 : memref<1x1x2048x128xf32, strided<[?, ?, ?, ?], offset: ?>>
    %30 = bufferization.to_memref %arg325 : memref<1x1x2048x128xf32, strided<[?, ?, ?, ?], offset: ?>>
    %31 = bufferization.to_memref %arg324 : memref<4096x4096xf32, strided<[?, ?], offset: ?>>
    %32 = bufferization.to_memref %arg323 : memref<4096x4096xf32, strided<[?, ?], offset: ?>>
    %33 = bufferization.to_memref %arg322 : memref<4096x4096xf32, strided<[?, ?], offset: ?>>
    %34 = bufferization.to_memref %arg321 : memref<4096xf32, strided<[?], offset: ?>>
    %35 = bufferization.to_memref %arg320 : memref<4096x11008xf32, strided<[?, ?], offset: ?>>
    %36 = bufferization.to_memref %arg319 : memref<11008x4096xf32, strided<[?, ?], offset: ?>>
    %37 = bufferization.to_memref %arg318 : memref<11008x4096xf32, strided<[?, ?], offset: ?>>
    %38 = bufferization.to_memref %arg317 : memref<4096xf32, strided<[?], offset: ?>>
    %39 = bufferization.to_memref %arg316 : memref<4096x4096xf32, strided<[?, ?], offset: ?>>
    %40 = bufferization.to_memref %arg315 : memref<1x1x2048x128xf32, strided<[?, ?, ?, ?], offset: ?>>
    %41 = bufferization.to_memref %arg314 : memref<1x1x2048x128xf32, strided<[?, ?, ?, ?], offset: ?>>
    %42 = bufferization.to_memref %arg313 : memref<4096x4096xf32, strided<[?, ?], offset: ?>>
    %43 = bufferization.to_memref %arg312 : memref<4096x4096xf32, strided<[?, ?], offset: ?>>
    %44 = bufferization.to_memref %arg311 : memref<4096x4096xf32, strided<[?, ?], offset: ?>>
    %45 = bufferization.to_memref %arg310 : memref<4096xf32, strided<[?], offset: ?>>
    %46 = bufferization.to_memref %arg309 : memref<4096x11008xf32, strided<[?, ?], offset: ?>>
    %47 = bufferization.to_memref %arg308 : memref<11008x4096xf32, strided<[?, ?], offset: ?>>
    %48 = bufferization.to_memref %arg307 : memref<11008x4096xf32, strided<[?, ?], offset: ?>>
    %49 = bufferization.to_memref %arg306 : memref<4096xf32, strided<[?], offset: ?>>
    %50 = bufferization.to_memref %arg305 : memref<4096x4096xf32, strided<[?, ?], offset: ?>>
    %51 = bufferization.to_memref %arg304 : memref<1x1x2048x128xf32, strided<[?, ?, ?, ?], offset: ?>>
    %52 = bufferization.to_memref %arg303 : memref<1x1x2048x128xf32, strided<[?, ?, ?, ?], offset: ?>>
    %53 = bufferization.to_memref %arg302 : memref<4096x4096xf32, strided<[?, ?], offset: ?>>
    %54 = bufferization.to_memref %arg301 : memref<4096x4096xf32, strided<[?, ?], offset: ?>>
    %55 = bufferization.to_memref %arg300 : memref<4096x4096xf32, strided<[?, ?], offset: ?>>
    %56 = bufferization.to_memref %arg299 : memref<4096xf32, strided<[?], offset: ?>>
    %57 = bufferization.to_memref %arg298 : memref<4096x11008xf32, strided<[?, ?], offset: ?>>
    %58 = bufferization.to_memref %arg297 : memref<11008x4096xf32, strided<[?, ?], offset: ?>>
    %59 = bufferization.to_memref %arg296 : memref<11008x4096xf32, strided<[?, ?], offset: ?>>
    %60 = bufferization.to_memref %arg295 : memref<4096xf32, strided<[?], offset: ?>>
    %61 = bufferization.to_memref %arg294 : memref<4096x4096xf32, strided<[?, ?], offset: ?>>
    %62 = bufferization.to_memref %arg293 : memref<1x1x2048x128xf32, strided<[?, ?, ?, ?], offset: ?>>
    %63 = bufferization.to_memref %arg292 : memref<1x1x2048x128xf32, strided<[?, ?, ?, ?], offset: ?>>
    %64 = bufferization.to_memref %arg291 : memref<4096x4096xf32, strided<[?, ?], offset: ?>>
    %65 = bufferization.to_memref %arg290 : memref<4096x4096xf32, strided<[?, ?], offset: ?>>
    %66 = bufferization.to_memref %arg289 : memref<4096x4096xf32, strided<[?, ?], offset: ?>>
    %67 = bufferization.to_memref %arg288 : memref<4096xf32, strided<[?], offset: ?>>
    %68 = bufferization.to_memref %arg287 : memref<4096x11008xf32, strided<[?, ?], offset: ?>>
    %69 = bufferization.to_memref %arg286 : memref<11008x4096xf32, strided<[?, ?], offset: ?>>
    %70 = bufferization.to_memref %arg285 : memref<11008x4096xf32, strided<[?, ?], offset: ?>>
    %71 = bufferization.to_memref %arg284 : memref<4096xf32, strided<[?], offset: ?>>
    %72 = bufferization.to_memref %arg283 : memref<4096x4096xf32, strided<[?, ?], offset: ?>>
    %73 = bufferization.to_memref %arg282 : memref<1x1x2048x128xf32, strided<[?, ?, ?, ?], offset: ?>>
    %74 = bufferization.to_memref %arg281 : memref<1x1x2048x128xf32, strided<[?, ?, ?, ?], offset: ?>>
    %75 = bufferization.to_memref %arg280 : memref<4096x4096xf32, strided<[?, ?], offset: ?>>
    %76 = bufferization.to_memref %arg279 : memref<4096x4096xf32, strided<[?, ?], offset: ?>>
    %77 = bufferization.to_memref %arg278 : memref<4096x4096xf32, strided<[?, ?], offset: ?>>
    %78 = bufferization.to_memref %arg277 : memref<4096xf32, strided<[?], offset: ?>>
    %79 = bufferization.to_memref %arg276 : memref<4096x11008xf32, strided<[?, ?], offset: ?>>
    %80 = bufferization.to_memref %arg275 : memref<11008x4096xf32, strided<[?, ?], offset: ?>>
    %81 = bufferization.to_memref %arg274 : memref<11008x4096xf32, strided<[?, ?], offset: ?>>
    %82 = bufferization.to_memref %arg273 : memref<4096xf32, strided<[?], offset: ?>>
    %83 = bufferization.to_memref %arg272 : memref<4096x4096xf32, strided<[?, ?], offset: ?>>
    %84 = bufferization.to_memref %arg271 : memref<1x1x2048x128xf32, strided<[?, ?, ?, ?], offset: ?>>
    %85 = bufferization.to_memref %arg270 : memref<1x1x2048x128xf32, strided<[?, ?, ?, ?], offset: ?>>
    %86 = bufferization.to_memref %arg269 : memref<4096x4096xf32, strided<[?, ?], offset: ?>>
    %87 = bufferization.to_memref %arg268 : memref<4096x4096xf32, strided<[?, ?], offset: ?>>
    %88 = bufferization.to_memref %arg267 : memref<4096x4096xf32, strided<[?, ?], offset: ?>>
    %89 = bufferization.to_memref %arg266 : memref<4096xf32, strided<[?], offset: ?>>
    %90 = bufferization.to_memref %arg265 : memref<4096x11008xf32, strided<[?, ?], offset: ?>>
    %91 = bufferization.to_memref %arg264 : memref<11008x4096xf32, strided<[?, ?], offset: ?>>
    %92 = bufferization.to_memref %arg263 : memref<11008x4096xf32, strided<[?, ?], offset: ?>>
    %93 = bufferization.to_memref %arg262 : memref<4096xf32, strided<[?], offset: ?>>
    %94 = bufferization.to_memref %arg261 : memref<4096x4096xf32, strided<[?, ?], offset: ?>>
    %95 = bufferization.to_memref %arg260 : memref<1x1x2048x128xf32, strided<[?, ?, ?, ?], offset: ?>>
    %96 = bufferization.to_memref %arg259 : memref<1x1x2048x128xf32, strided<[?, ?, ?, ?], offset: ?>>
    %97 = bufferization.to_memref %arg258 : memref<4096x4096xf32, strided<[?, ?], offset: ?>>
    %98 = bufferization.to_memref %arg257 : memref<4096x4096xf32, strided<[?, ?], offset: ?>>
    %99 = bufferization.to_memref %arg256 : memref<4096x4096xf32, strided<[?, ?], offset: ?>>
    %100 = bufferization.to_memref %arg255 : memref<4096xf32, strided<[?], offset: ?>>
    %101 = bufferization.to_memref %arg254 : memref<4096x11008xf32, strided<[?, ?], offset: ?>>
    %102 = bufferization.to_memref %arg253 : memref<11008x4096xf32, strided<[?, ?], offset: ?>>
    %103 = bufferization.to_memref %arg252 : memref<11008x4096xf32, strided<[?, ?], offset: ?>>
    %104 = bufferization.to_memref %arg251 : memref<4096xf32, strided<[?], offset: ?>>
    %105 = bufferization.to_memref %arg250 : memref<4096x4096xf32, strided<[?, ?], offset: ?>>
    %106 = bufferization.to_memref %arg249 : memref<1x1x2048x128xf32, strided<[?, ?, ?, ?], offset: ?>>
    %107 = bufferization.to_memref %arg248 : memref<1x1x2048x128xf32, strided<[?, ?, ?, ?], offset: ?>>
    %108 = bufferization.to_memref %arg247 : memref<4096x4096xf32, strided<[?, ?], offset: ?>>
    %109 = bufferization.to_memref %arg246 : memref<4096x4096xf32, strided<[?, ?], offset: ?>>
    %110 = bufferization.to_memref %arg245 : memref<4096x4096xf32, strided<[?, ?], offset: ?>>
    %111 = bufferization.to_memref %arg244 : memref<4096xf32, strided<[?], offset: ?>>
    %112 = bufferization.to_memref %arg243 : memref<4096x11008xf32, strided<[?, ?], offset: ?>>
    %113 = bufferization.to_memref %arg242 : memref<11008x4096xf32, strided<[?, ?], offset: ?>>
    %114 = bufferization.to_memref %arg241 : memref<11008x4096xf32, strided<[?, ?], offset: ?>>
    %115 = bufferization.to_memref %arg240 : memref<4096xf32, strided<[?], offset: ?>>
    %116 = bufferization.to_memref %arg239 : memref<4096x4096xf32, strided<[?, ?], offset: ?>>
    %117 = bufferization.to_memref %arg238 : memref<1x1x2048x128xf32, strided<[?, ?, ?, ?], offset: ?>>
    %118 = bufferization.to_memref %arg237 : memref<1x1x2048x128xf32, strided<[?, ?, ?, ?], offset: ?>>
    %119 = bufferization.to_memref %arg236 : memref<4096x4096xf32, strided<[?, ?], offset: ?>>
    %120 = bufferization.to_memref %arg235 : memref<4096x4096xf32, strided<[?, ?], offset: ?>>
    %121 = bufferization.to_memref %arg234 : memref<4096x4096xf32, strided<[?, ?], offset: ?>>
    %122 = bufferization.to_memref %arg233 : memref<4096xf32, strided<[?], offset: ?>>
    %123 = bufferization.to_memref %arg232 : memref<4096x11008xf32, strided<[?, ?], offset: ?>>
    %124 = bufferization.to_memref %arg231 : memref<11008x4096xf32, strided<[?, ?], offset: ?>>
    %125 = bufferization.to_memref %arg230 : memref<11008x4096xf32, strided<[?, ?], offset: ?>>
    %126 = bufferization.to_memref %arg229 : memref<4096xf32, strided<[?], offset: ?>>
    %127 = bufferization.to_memref %arg228 : memref<4096x4096xf32, strided<[?, ?], offset: ?>>
    %128 = bufferization.to_memref %arg227 : memref<1x1x2048x128xf32, strided<[?, ?, ?, ?], offset: ?>>
    %129 = bufferization.to_memref %arg226 : memref<1x1x2048x128xf32, strided<[?, ?, ?, ?], offset: ?>>
    %130 = bufferization.to_memref %arg225 : memref<4096x4096xf32, strided<[?, ?], offset: ?>>
    %131 = bufferization.to_memref %arg224 : memref<4096x4096xf32, strided<[?, ?], offset: ?>>
    %132 = bufferization.to_memref %arg223 : memref<4096x4096xf32, strided<[?, ?], offset: ?>>
    %133 = bufferization.to_memref %arg222 : memref<4096xf32, strided<[?], offset: ?>>
    %134 = bufferization.to_memref %arg221 : memref<4096x11008xf32, strided<[?, ?], offset: ?>>
    %135 = bufferization.to_memref %arg220 : memref<11008x4096xf32, strided<[?, ?], offset: ?>>
    %136 = bufferization.to_memref %arg219 : memref<11008x4096xf32, strided<[?, ?], offset: ?>>
    %137 = bufferization.to_memref %arg218 : memref<4096xf32, strided<[?], offset: ?>>
    %138 = bufferization.to_memref %arg217 : memref<4096x4096xf32, strided<[?, ?], offset: ?>>
    %139 = bufferization.to_memref %arg216 : memref<1x1x2048x128xf32, strided<[?, ?, ?, ?], offset: ?>>
    %140 = bufferization.to_memref %arg215 : memref<1x1x2048x128xf32, strided<[?, ?, ?, ?], offset: ?>>
    %141 = bufferization.to_memref %arg214 : memref<4096x4096xf32, strided<[?, ?], offset: ?>>
    %142 = bufferization.to_memref %arg213 : memref<4096x4096xf32, strided<[?, ?], offset: ?>>
    %143 = bufferization.to_memref %arg212 : memref<4096x4096xf32, strided<[?, ?], offset: ?>>
    %144 = bufferization.to_memref %arg211 : memref<4096xf32, strided<[?], offset: ?>>
    %145 = bufferization.to_memref %arg210 : memref<4096x11008xf32, strided<[?, ?], offset: ?>>
    %146 = bufferization.to_memref %arg209 : memref<11008x4096xf32, strided<[?, ?], offset: ?>>
    %147 = bufferization.to_memref %arg208 : memref<11008x4096xf32, strided<[?, ?], offset: ?>>
    %148 = bufferization.to_memref %arg207 : memref<4096xf32, strided<[?], offset: ?>>
    %149 = bufferization.to_memref %arg206 : memref<4096x4096xf32, strided<[?, ?], offset: ?>>
    %150 = bufferization.to_memref %arg205 : memref<1x1x2048x128xf32, strided<[?, ?, ?, ?], offset: ?>>
    %151 = bufferization.to_memref %arg204 : memref<1x1x2048x128xf32, strided<[?, ?, ?, ?], offset: ?>>
    %152 = bufferization.to_memref %arg203 : memref<4096x4096xf32, strided<[?, ?], offset: ?>>
    %153 = bufferization.to_memref %arg202 : memref<4096x4096xf32, strided<[?, ?], offset: ?>>
    %154 = bufferization.to_memref %arg201 : memref<4096x4096xf32, strided<[?, ?], offset: ?>>
    %155 = bufferization.to_memref %arg200 : memref<4096xf32, strided<[?], offset: ?>>
    %156 = bufferization.to_memref %arg199 : memref<4096x11008xf32, strided<[?, ?], offset: ?>>
    %157 = bufferization.to_memref %arg198 : memref<11008x4096xf32, strided<[?, ?], offset: ?>>
    %158 = bufferization.to_memref %arg197 : memref<11008x4096xf32, strided<[?, ?], offset: ?>>
    %159 = bufferization.to_memref %arg196 : memref<4096xf32, strided<[?], offset: ?>>
    %160 = bufferization.to_memref %arg195 : memref<4096x4096xf32, strided<[?, ?], offset: ?>>
    %161 = bufferization.to_memref %arg194 : memref<1x1x2048x128xf32, strided<[?, ?, ?, ?], offset: ?>>
    %162 = bufferization.to_memref %arg193 : memref<1x1x2048x128xf32, strided<[?, ?, ?, ?], offset: ?>>
    %163 = bufferization.to_memref %arg192 : memref<4096x4096xf32, strided<[?, ?], offset: ?>>
    %164 = bufferization.to_memref %arg191 : memref<4096x4096xf32, strided<[?, ?], offset: ?>>
    %165 = bufferization.to_memref %arg190 : memref<4096x4096xf32, strided<[?, ?], offset: ?>>
    %166 = bufferization.to_memref %arg189 : memref<4096xf32, strided<[?], offset: ?>>
    %167 = bufferization.to_memref %arg188 : memref<4096x11008xf32, strided<[?, ?], offset: ?>>
    %168 = bufferization.to_memref %arg187 : memref<11008x4096xf32, strided<[?, ?], offset: ?>>
    %169 = bufferization.to_memref %arg186 : memref<11008x4096xf32, strided<[?, ?], offset: ?>>
    %170 = bufferization.to_memref %arg185 : memref<4096xf32, strided<[?], offset: ?>>
    %171 = bufferization.to_memref %arg184 : memref<4096x4096xf32, strided<[?, ?], offset: ?>>
    %172 = bufferization.to_memref %arg183 : memref<1x1x2048x128xf32, strided<[?, ?, ?, ?], offset: ?>>
    %173 = bufferization.to_memref %arg182 : memref<1x1x2048x128xf32, strided<[?, ?, ?, ?], offset: ?>>
    %174 = bufferization.to_memref %arg181 : memref<4096x4096xf32, strided<[?, ?], offset: ?>>
    %175 = bufferization.to_memref %arg180 : memref<4096x4096xf32, strided<[?, ?], offset: ?>>
    %176 = bufferization.to_memref %arg179 : memref<4096x4096xf32, strided<[?, ?], offset: ?>>
    %177 = bufferization.to_memref %arg178 : memref<4096xf32, strided<[?], offset: ?>>
    %178 = bufferization.to_memref %arg177 : memref<4096x11008xf32, strided<[?, ?], offset: ?>>
    %179 = bufferization.to_memref %arg176 : memref<11008x4096xf32, strided<[?, ?], offset: ?>>
    %180 = bufferization.to_memref %arg175 : memref<11008x4096xf32, strided<[?, ?], offset: ?>>
    %181 = bufferization.to_memref %arg174 : memref<4096xf32, strided<[?], offset: ?>>
    %182 = bufferization.to_memref %arg173 : memref<4096x4096xf32, strided<[?, ?], offset: ?>>
    %183 = bufferization.to_memref %arg172 : memref<1x1x2048x128xf32, strided<[?, ?, ?, ?], offset: ?>>
    %184 = bufferization.to_memref %arg171 : memref<1x1x2048x128xf32, strided<[?, ?, ?, ?], offset: ?>>
    %185 = bufferization.to_memref %arg170 : memref<4096x4096xf32, strided<[?, ?], offset: ?>>
    %186 = bufferization.to_memref %arg169 : memref<4096x4096xf32, strided<[?, ?], offset: ?>>
    %187 = bufferization.to_memref %arg168 : memref<4096x4096xf32, strided<[?, ?], offset: ?>>
    %188 = bufferization.to_memref %arg167 : memref<4096xf32, strided<[?], offset: ?>>
    %189 = bufferization.to_memref %arg166 : memref<4096x11008xf32, strided<[?, ?], offset: ?>>
    %190 = bufferization.to_memref %arg165 : memref<11008x4096xf32, strided<[?, ?], offset: ?>>
    %191 = bufferization.to_memref %arg164 : memref<11008x4096xf32, strided<[?, ?], offset: ?>>
    %192 = bufferization.to_memref %arg163 : memref<4096xf32, strided<[?], offset: ?>>
    %193 = bufferization.to_memref %arg162 : memref<4096x4096xf32, strided<[?, ?], offset: ?>>
    %194 = bufferization.to_memref %arg161 : memref<1x1x2048x128xf32, strided<[?, ?, ?, ?], offset: ?>>
    %195 = bufferization.to_memref %arg160 : memref<1x1x2048x128xf32, strided<[?, ?, ?, ?], offset: ?>>
    %196 = bufferization.to_memref %arg159 : memref<4096x4096xf32, strided<[?, ?], offset: ?>>
    %197 = bufferization.to_memref %arg158 : memref<4096x4096xf32, strided<[?, ?], offset: ?>>
    %198 = bufferization.to_memref %arg157 : memref<4096x4096xf32, strided<[?, ?], offset: ?>>
    %199 = bufferization.to_memref %arg156 : memref<4096xf32, strided<[?], offset: ?>>
    %200 = bufferization.to_memref %arg155 : memref<4096x11008xf32, strided<[?, ?], offset: ?>>
    %201 = bufferization.to_memref %arg154 : memref<11008x4096xf32, strided<[?, ?], offset: ?>>
    %202 = bufferization.to_memref %arg153 : memref<11008x4096xf32, strided<[?, ?], offset: ?>>
    %203 = bufferization.to_memref %arg152 : memref<4096xf32, strided<[?], offset: ?>>
    %204 = bufferization.to_memref %arg151 : memref<4096x4096xf32, strided<[?, ?], offset: ?>>
    %205 = bufferization.to_memref %arg150 : memref<1x1x2048x128xf32, strided<[?, ?, ?, ?], offset: ?>>
    %206 = bufferization.to_memref %arg149 : memref<1x1x2048x128xf32, strided<[?, ?, ?, ?], offset: ?>>
    %207 = bufferization.to_memref %arg148 : memref<4096x4096xf32, strided<[?, ?], offset: ?>>
    %208 = bufferization.to_memref %arg147 : memref<4096x4096xf32, strided<[?, ?], offset: ?>>
    %209 = bufferization.to_memref %arg146 : memref<4096x4096xf32, strided<[?, ?], offset: ?>>
    %210 = bufferization.to_memref %arg145 : memref<4096xf32, strided<[?], offset: ?>>
    %211 = bufferization.to_memref %arg144 : memref<4096x11008xf32, strided<[?, ?], offset: ?>>
    %212 = bufferization.to_memref %arg143 : memref<11008x4096xf32, strided<[?, ?], offset: ?>>
    %213 = bufferization.to_memref %arg142 : memref<11008x4096xf32, strided<[?, ?], offset: ?>>
    %214 = bufferization.to_memref %arg141 : memref<4096xf32, strided<[?], offset: ?>>
    %215 = bufferization.to_memref %arg140 : memref<4096x4096xf32, strided<[?, ?], offset: ?>>
    %216 = bufferization.to_memref %arg139 : memref<1x1x2048x128xf32, strided<[?, ?, ?, ?], offset: ?>>
    %217 = bufferization.to_memref %arg138 : memref<1x1x2048x128xf32, strided<[?, ?, ?, ?], offset: ?>>
    %218 = bufferization.to_memref %arg137 : memref<4096x4096xf32, strided<[?, ?], offset: ?>>
    %219 = bufferization.to_memref %arg136 : memref<4096x4096xf32, strided<[?, ?], offset: ?>>
    %220 = bufferization.to_memref %arg135 : memref<4096x4096xf32, strided<[?, ?], offset: ?>>
    %221 = bufferization.to_memref %arg134 : memref<4096xf32, strided<[?], offset: ?>>
    %222 = bufferization.to_memref %arg133 : memref<4096x11008xf32, strided<[?, ?], offset: ?>>
    %223 = bufferization.to_memref %arg132 : memref<11008x4096xf32, strided<[?, ?], offset: ?>>
    %224 = bufferization.to_memref %arg131 : memref<11008x4096xf32, strided<[?, ?], offset: ?>>
    %225 = bufferization.to_memref %arg130 : memref<4096xf32, strided<[?], offset: ?>>
    %226 = bufferization.to_memref %arg129 : memref<4096x4096xf32, strided<[?, ?], offset: ?>>
    %227 = bufferization.to_memref %arg128 : memref<1x1x2048x128xf32, strided<[?, ?, ?, ?], offset: ?>>
    %228 = bufferization.to_memref %arg127 : memref<1x1x2048x128xf32, strided<[?, ?, ?, ?], offset: ?>>
    %229 = bufferization.to_memref %arg126 : memref<4096x4096xf32, strided<[?, ?], offset: ?>>
    %230 = bufferization.to_memref %arg125 : memref<4096x4096xf32, strided<[?, ?], offset: ?>>
    %231 = bufferization.to_memref %arg124 : memref<4096x4096xf32, strided<[?, ?], offset: ?>>
    %232 = bufferization.to_memref %arg123 : memref<4096xf32, strided<[?], offset: ?>>
    %233 = bufferization.to_memref %arg122 : memref<4096x11008xf32, strided<[?, ?], offset: ?>>
    %234 = bufferization.to_memref %arg121 : memref<11008x4096xf32, strided<[?, ?], offset: ?>>
    %235 = bufferization.to_memref %arg120 : memref<11008x4096xf32, strided<[?, ?], offset: ?>>
    %236 = bufferization.to_memref %arg119 : memref<4096xf32, strided<[?], offset: ?>>
    %237 = bufferization.to_memref %arg118 : memref<4096x4096xf32, strided<[?, ?], offset: ?>>
    %238 = bufferization.to_memref %arg117 : memref<1x1x2048x128xf32, strided<[?, ?, ?, ?], offset: ?>>
    %239 = bufferization.to_memref %arg116 : memref<1x1x2048x128xf32, strided<[?, ?, ?, ?], offset: ?>>
    %240 = bufferization.to_memref %arg115 : memref<4096x4096xf32, strided<[?, ?], offset: ?>>
    %241 = bufferization.to_memref %arg114 : memref<4096x4096xf32, strided<[?, ?], offset: ?>>
    %242 = bufferization.to_memref %arg113 : memref<4096x4096xf32, strided<[?, ?], offset: ?>>
    %243 = bufferization.to_memref %arg112 : memref<4096xf32, strided<[?], offset: ?>>
    %244 = bufferization.to_memref %arg111 : memref<4096x11008xf32, strided<[?, ?], offset: ?>>
    %245 = bufferization.to_memref %arg110 : memref<11008x4096xf32, strided<[?, ?], offset: ?>>
    %246 = bufferization.to_memref %arg109 : memref<11008x4096xf32, strided<[?, ?], offset: ?>>
    %247 = bufferization.to_memref %arg108 : memref<4096xf32, strided<[?], offset: ?>>
    %248 = bufferization.to_memref %arg107 : memref<4096x4096xf32, strided<[?, ?], offset: ?>>
    %249 = bufferization.to_memref %arg106 : memref<1x1x2048x128xf32, strided<[?, ?, ?, ?], offset: ?>>
    %250 = bufferization.to_memref %arg105 : memref<1x1x2048x128xf32, strided<[?, ?, ?, ?], offset: ?>>
    %251 = bufferization.to_memref %arg104 : memref<4096x4096xf32, strided<[?, ?], offset: ?>>
    %252 = bufferization.to_memref %arg103 : memref<4096x4096xf32, strided<[?, ?], offset: ?>>
    %253 = bufferization.to_memref %arg102 : memref<4096x4096xf32, strided<[?, ?], offset: ?>>
    %254 = bufferization.to_memref %arg101 : memref<4096xf32, strided<[?], offset: ?>>
    %255 = bufferization.to_memref %arg100 : memref<4096x11008xf32, strided<[?, ?], offset: ?>>
    %256 = bufferization.to_memref %arg99 : memref<11008x4096xf32, strided<[?, ?], offset: ?>>
    %257 = bufferization.to_memref %arg98 : memref<11008x4096xf32, strided<[?, ?], offset: ?>>
    %258 = bufferization.to_memref %arg97 : memref<4096xf32, strided<[?], offset: ?>>
    %259 = bufferization.to_memref %arg96 : memref<4096x4096xf32, strided<[?, ?], offset: ?>>
    %260 = bufferization.to_memref %arg95 : memref<1x1x2048x128xf32, strided<[?, ?, ?, ?], offset: ?>>
    %261 = bufferization.to_memref %arg94 : memref<1x1x2048x128xf32, strided<[?, ?, ?, ?], offset: ?>>
    %262 = bufferization.to_memref %arg93 : memref<4096x4096xf32, strided<[?, ?], offset: ?>>
    %263 = bufferization.to_memref %arg92 : memref<4096x4096xf32, strided<[?, ?], offset: ?>>
    %264 = bufferization.to_memref %arg91 : memref<4096x4096xf32, strided<[?, ?], offset: ?>>
    %265 = bufferization.to_memref %arg90 : memref<4096xf32, strided<[?], offset: ?>>
    %266 = bufferization.to_memref %arg89 : memref<4096x11008xf32, strided<[?, ?], offset: ?>>
    %267 = bufferization.to_memref %arg88 : memref<11008x4096xf32, strided<[?, ?], offset: ?>>
    %268 = bufferization.to_memref %arg87 : memref<11008x4096xf32, strided<[?, ?], offset: ?>>
    %269 = bufferization.to_memref %arg86 : memref<4096xf32, strided<[?], offset: ?>>
    %270 = bufferization.to_memref %arg85 : memref<4096x4096xf32, strided<[?, ?], offset: ?>>
    %271 = bufferization.to_memref %arg84 : memref<1x1x2048x128xf32, strided<[?, ?, ?, ?], offset: ?>>
    %272 = bufferization.to_memref %arg83 : memref<1x1x2048x128xf32, strided<[?, ?, ?, ?], offset: ?>>
    %273 = bufferization.to_memref %arg82 : memref<4096x4096xf32, strided<[?, ?], offset: ?>>
    %274 = bufferization.to_memref %arg81 : memref<4096x4096xf32, strided<[?, ?], offset: ?>>
    %275 = bufferization.to_memref %arg80 : memref<4096x4096xf32, strided<[?, ?], offset: ?>>
    %276 = bufferization.to_memref %arg79 : memref<4096xf32, strided<[?], offset: ?>>
    %277 = bufferization.to_memref %arg78 : memref<4096x11008xf32, strided<[?, ?], offset: ?>>
    %278 = bufferization.to_memref %arg77 : memref<11008x4096xf32, strided<[?, ?], offset: ?>>
    %279 = bufferization.to_memref %arg76 : memref<11008x4096xf32, strided<[?, ?], offset: ?>>
    %280 = bufferization.to_memref %arg75 : memref<4096xf32, strided<[?], offset: ?>>
    %281 = bufferization.to_memref %arg74 : memref<4096x4096xf32, strided<[?, ?], offset: ?>>
    %282 = bufferization.to_memref %arg73 : memref<1x1x2048x128xf32, strided<[?, ?, ?, ?], offset: ?>>
    %283 = bufferization.to_memref %arg72 : memref<1x1x2048x128xf32, strided<[?, ?, ?, ?], offset: ?>>
    %284 = bufferization.to_memref %arg71 : memref<4096x4096xf32, strided<[?, ?], offset: ?>>
    %285 = bufferization.to_memref %arg70 : memref<4096x4096xf32, strided<[?, ?], offset: ?>>
    %286 = bufferization.to_memref %arg69 : memref<4096x4096xf32, strided<[?, ?], offset: ?>>
    %287 = bufferization.to_memref %arg68 : memref<4096xf32, strided<[?], offset: ?>>
    %288 = bufferization.to_memref %arg67 : memref<4096x11008xf32, strided<[?, ?], offset: ?>>
    %289 = bufferization.to_memref %arg66 : memref<11008x4096xf32, strided<[?, ?], offset: ?>>
    %290 = bufferization.to_memref %arg65 : memref<11008x4096xf32, strided<[?, ?], offset: ?>>
    %291 = bufferization.to_memref %arg64 : memref<4096xf32, strided<[?], offset: ?>>
    %292 = bufferization.to_memref %arg63 : memref<4096x4096xf32, strided<[?, ?], offset: ?>>
    %293 = bufferization.to_memref %arg62 : memref<1x1x2048x128xf32, strided<[?, ?, ?, ?], offset: ?>>
    %294 = bufferization.to_memref %arg61 : memref<1x1x2048x128xf32, strided<[?, ?, ?, ?], offset: ?>>
    %295 = bufferization.to_memref %arg60 : memref<4096x4096xf32, strided<[?, ?], offset: ?>>
    %296 = bufferization.to_memref %arg59 : memref<4096x4096xf32, strided<[?, ?], offset: ?>>
    %297 = bufferization.to_memref %arg58 : memref<4096x4096xf32, strided<[?, ?], offset: ?>>
    %298 = bufferization.to_memref %arg57 : memref<4096xf32, strided<[?], offset: ?>>
    %299 = bufferization.to_memref %arg56 : memref<4096x11008xf32, strided<[?, ?], offset: ?>>
    %300 = bufferization.to_memref %arg55 : memref<11008x4096xf32, strided<[?, ?], offset: ?>>
    %301 = bufferization.to_memref %arg54 : memref<11008x4096xf32, strided<[?, ?], offset: ?>>
    %302 = bufferization.to_memref %arg53 : memref<4096xf32, strided<[?], offset: ?>>
    %303 = bufferization.to_memref %arg52 : memref<4096x4096xf32, strided<[?, ?], offset: ?>>
    %304 = bufferization.to_memref %arg51 : memref<1x1x2048x128xf32, strided<[?, ?, ?, ?], offset: ?>>
    %305 = bufferization.to_memref %arg50 : memref<1x1x2048x128xf32, strided<[?, ?, ?, ?], offset: ?>>
    %306 = bufferization.to_memref %arg49 : memref<4096x4096xf32, strided<[?, ?], offset: ?>>
    %307 = bufferization.to_memref %arg48 : memref<4096x4096xf32, strided<[?, ?], offset: ?>>
    %308 = bufferization.to_memref %arg47 : memref<4096x4096xf32, strided<[?, ?], offset: ?>>
    %309 = bufferization.to_memref %arg46 : memref<4096xf32, strided<[?], offset: ?>>
    %310 = bufferization.to_memref %arg45 : memref<4096x11008xf32, strided<[?, ?], offset: ?>>
    %311 = bufferization.to_memref %arg44 : memref<11008x4096xf32, strided<[?, ?], offset: ?>>
    %312 = bufferization.to_memref %arg43 : memref<11008x4096xf32, strided<[?, ?], offset: ?>>
    %313 = bufferization.to_memref %arg42 : memref<4096xf32, strided<[?], offset: ?>>
    %314 = bufferization.to_memref %arg41 : memref<4096x4096xf32, strided<[?, ?], offset: ?>>
    %315 = bufferization.to_memref %arg40 : memref<1x1x2048x128xf32, strided<[?, ?, ?, ?], offset: ?>>
    %316 = bufferization.to_memref %arg39 : memref<1x1x2048x128xf32, strided<[?, ?, ?, ?], offset: ?>>
    %317 = bufferization.to_memref %arg38 : memref<4096x4096xf32, strided<[?, ?], offset: ?>>
    %318 = bufferization.to_memref %arg37 : memref<4096x4096xf32, strided<[?, ?], offset: ?>>
    %319 = bufferization.to_memref %arg36 : memref<4096x4096xf32, strided<[?, ?], offset: ?>>
    %320 = bufferization.to_memref %arg35 : memref<4096xf32, strided<[?], offset: ?>>
    %321 = bufferization.to_memref %arg34 : memref<4096x11008xf32, strided<[?, ?], offset: ?>>
    %322 = bufferization.to_memref %arg33 : memref<11008x4096xf32, strided<[?, ?], offset: ?>>
    %323 = bufferization.to_memref %arg32 : memref<11008x4096xf32, strided<[?, ?], offset: ?>>
    %324 = bufferization.to_memref %arg31 : memref<4096xf32, strided<[?], offset: ?>>
    %325 = bufferization.to_memref %arg30 : memref<4096x4096xf32, strided<[?, ?], offset: ?>>
    %326 = bufferization.to_memref %arg29 : memref<1x1x2048x128xf32, strided<[?, ?, ?, ?], offset: ?>>
    %327 = bufferization.to_memref %arg28 : memref<1x1x2048x128xf32, strided<[?, ?, ?, ?], offset: ?>>
    %328 = bufferization.to_memref %arg27 : memref<4096x4096xf32, strided<[?, ?], offset: ?>>
    %329 = bufferization.to_memref %arg26 : memref<4096x4096xf32, strided<[?, ?], offset: ?>>
    %330 = bufferization.to_memref %arg25 : memref<4096x4096xf32, strided<[?, ?], offset: ?>>
    %331 = bufferization.to_memref %arg24 : memref<4096xf32, strided<[?], offset: ?>>
    %332 = bufferization.to_memref %arg23 : memref<4096x11008xf32, strided<[?, ?], offset: ?>>
    %333 = bufferization.to_memref %arg22 : memref<11008x4096xf32, strided<[?, ?], offset: ?>>
    %334 = bufferization.to_memref %arg21 : memref<11008x4096xf32, strided<[?, ?], offset: ?>>
    %335 = bufferization.to_memref %arg20 : memref<4096xf32, strided<[?], offset: ?>>
    %336 = bufferization.to_memref %arg19 : memref<4096x4096xf32, strided<[?, ?], offset: ?>>
    %337 = bufferization.to_memref %arg18 : memref<1x1x2048x128xf32, strided<[?, ?, ?, ?], offset: ?>>
    %338 = bufferization.to_memref %arg17 : memref<1x1x2048x128xf32, strided<[?, ?, ?, ?], offset: ?>>
    %339 = bufferization.to_memref %arg16 : memref<4096x4096xf32, strided<[?, ?], offset: ?>>
    %340 = bufferization.to_memref %arg15 : memref<4096x4096xf32, strided<[?, ?], offset: ?>>
    %341 = bufferization.to_memref %arg14 : memref<4096x4096xf32, strided<[?, ?], offset: ?>>
    %342 = bufferization.to_memref %arg13 : memref<4096xf32, strided<[?], offset: ?>>
    %343 = bufferization.to_memref %arg12 : memref<4096x11008xf32, strided<[?, ?], offset: ?>>
    %344 = bufferization.to_memref %arg11 : memref<11008x4096xf32, strided<[?, ?], offset: ?>>
    %345 = bufferization.to_memref %arg10 : memref<11008x4096xf32, strided<[?, ?], offset: ?>>
    %346 = bufferization.to_memref %arg9 : memref<4096xf32, strided<[?], offset: ?>>
    %347 = bufferization.to_memref %arg8 : memref<4096x4096xf32, strided<[?, ?], offset: ?>>
    %348 = bufferization.to_memref %arg7 : memref<1x1x2048x128xf32, strided<[?, ?, ?, ?], offset: ?>>
    %349 = bufferization.to_memref %arg6 : memref<1x1x2048x128xf32, strided<[?, ?, ?, ?], offset: ?>>
    %350 = bufferization.to_memref %arg5 : memref<4096x4096xf32, strided<[?, ?], offset: ?>>
    %351 = bufferization.to_memref %arg4 : memref<4096x4096xf32, strided<[?, ?], offset: ?>>
    %352 = bufferization.to_memref %arg3 : memref<4096x4096xf32, strided<[?, ?], offset: ?>>
    %353 = bufferization.to_memref %arg2 : memref<4096xf32, strided<[?], offset: ?>>
    %354 = bufferization.to_memref %arg0 : memref<32000x4096xf32, strided<[?, ?], offset: ?>>
    %355 = bufferization.to_memref %arg1 : memref<1x40xi64, strided<[?, ?], offset: ?>>
    %356 = memref.get_global @__constant_40x32000xf32 : memref<40x32000xf32>
    %357 = memref.get_global @__constant_40x11008xf32 : memref<40x11008xf32>
    %358 = memref.get_global @__constant_1x32x40x40xf32 : memref<1x32x40x40xf32>
    %359 = memref.get_global @__constant_40x4096xf32 : memref<40x4096xf32>
    %360 = memref.get_global @__constant_1x40x1xf32 : memref<1x40x1xf32>
    %cst = arith.constant 1.000000e+00 : f32
    %361 = memref.get_global @__constant_1xf32 : memref<1xf32>
    %c2_i32 = arith.constant 2 : i32
    %cst_0 = arith.constant -3.40282347E+38 : f32
    %362 = memref.get_global @__constant_1x1x40x40xf32 : memref<1x1x40x40xf32>
    %363 = memref.get_global @__constant_1x1x40x40xi1 : memref<1x1x40x40xi1>
    %364 = memref.get_global @__constant_1x1x1x40xi1 : memref<1x1x1x40xi1>
    %cst_1 = arith.constant 0.000000e+00 : f32
    %365 = memref.get_global @__constant_40xi64 : memref<40xi64>
    %366 = memref.get_global @__constant_40x40xf32 : memref<40x40xf32>
    %367 = memref.get_global @__constant_40xi64_0 : memref<40xi64>
    %368 = memref.get_global @__constant_1x40xi64 : memref<1x40xi64>
    %alloc = memref.alloc() {alignment = 64 : i64} : memref<1x40xi32>
    linalg.generic {indexing_maps = [#map, #map1], iterator_types = ["parallel", "parallel"]} ins(%355 : memref<1x40xi64, strided<[?, ?], offset: ?>>) outs(%alloc : memref<1x40xi32>) {
    ^bb0(%in: i64, %out: i32):
      %371 = arith.trunci %in : i64 to i32
      linalg.yield %371 : i32
    }
    %expand_shape = memref.expand_shape %354 [[0, 1], [2]] : memref<32000x4096xf32, strided<[?, ?], offset: ?>> into memref<1x32000x4096xf32, strided<[?, ?, ?], offset: ?>>
    %alloc_2 = memref.alloc() {alignment = 64 : i64} : memref<1x40x4096xf32>
    linalg.generic {indexing_maps = [#map2, #map3], iterator_types = ["parallel", "parallel", "parallel"]} ins(%alloc : memref<1x40xi32>) outs(%alloc_2 : memref<1x40x4096xf32>) {
    ^bb0(%in: i32, %out: f32):
      %371 = linalg.index 0 : index
      %372 = arith.index_cast %in : i32 to index
      %373 = linalg.index 2 : index
      %374 = memref.load %expand_shape[%371, %372, %373] : memref<1x32000x4096xf32, strided<[?, ?, ?], offset: ?>>
      linalg.yield %374 : f32
    }
    %alloc_3 = memref.alloc() {alignment = 64 : i64} : memref<40xi64>
    linalg.generic {indexing_maps = [#map4, #map4, #map4], iterator_types = ["parallel"]} ins(%367, %365 : memref<40xi64>, memref<40xi64>) outs(%alloc_3 : memref<40xi64>) {
    ^bb0(%in: i64, %in_3451: i64, %out: i64):
      %371 = arith.addi %in, %in_3451 : i64
      linalg.yield %371 : i64
    }
    %expand_shape_4 = memref.expand_shape %alloc_3 [[0, 1]] : memref<40xi64> into memref<40x1xi64>
    %alloc_5 = memref.alloc() {alignment = 64 : i64} : memref<40x40xi1>
    linalg.generic {indexing_maps = [#map5, #map6, #map2], iterator_types = ["parallel", "parallel", "reduction"]} ins(%367, %expand_shape_4 : memref<40xi64>, memref<40x1xi64>) outs(%alloc_5 : memref<40x40xi1>) {
    ^bb0(%in: i64, %in_3451: i64, %out: i1):
      %371 = arith.cmpi slt, %in, %in_3451 : i64
      linalg.yield %371 : i1
    }
    %alloc_6 = memref.alloc() {alignment = 64 : i64} : memref<40x40xf32>
    linalg.generic {indexing_maps = [#map1, #map1, #map1], iterator_types = ["parallel", "parallel"]} ins(%alloc_5, %366 : memref<40x40xi1>, memref<40x40xf32>) outs(%alloc_6 : memref<40x40xf32>) {
    ^bb0(%in: i1, %in_3451: f32, %out: f32):
      %371 = arith.select %in, %cst_1, %in_3451 : f32
      linalg.yield %371 : f32
    }
    %alloc_7 = memref.alloc() {alignment = 64 : i64} : memref<1x1x40x40xi1>
    linalg.generic {indexing_maps = [#map7, #map8, #map9], iterator_types = ["parallel", "parallel", "parallel", "parallel"]} ins(%364, %363 : memref<1x1x1x40xi1>, memref<1x1x40x40xi1>) outs(%alloc_7 : memref<1x1x40x40xi1>) {
    ^bb0(%in: i1, %in_3451: i1, %out: i1):
      %371 = arith.addi %in, %in_3451 : i1
      linalg.yield %371 : i1
    }
    %alloc_8 = memref.alloc() {alignment = 64 : i64} : memref<1x1x40x40xf32>
    linalg.generic {indexing_maps = [#map8, #map9], iterator_types = ["parallel", "parallel", "parallel", "parallel"]} ins(%alloc_7 : memref<1x1x40x40xi1>) outs(%alloc_8 : memref<1x1x40x40xf32>) {
    ^bb0(%in: i1, %out: f32):
      %371 = arith.uitofp %in : i1 to f32
      linalg.yield %371 : f32
    }
    %alloc_9 = memref.alloc() {alignment = 64 : i64} : memref<1x1x40x40xf32>
    linalg.generic {indexing_maps = [#map8, #map8, #map9], iterator_types = ["parallel", "parallel", "parallel", "parallel"]} ins(%362, %alloc_8 : memref<1x1x40x40xf32>, memref<1x1x40x40xf32>) outs(%alloc_9 : memref<1x1x40x40xf32>) {
    ^bb0(%in: f32, %in_3451: f32, %out: f32):
      %371 = arith.subf %in, %in_3451 : f32
      linalg.yield %371 : f32
    }
    %alloc_10 = memref.alloc() {alignment = 64 : i64} : memref<1x1x40x40xi1>
    linalg.generic {indexing_maps = [#map8, #map9], iterator_types = ["parallel", "parallel", "parallel", "parallel"]} ins(%alloc_9 : memref<1x1x40x40xf32>) outs(%alloc_10 : memref<1x1x40x40xi1>) {
    ^bb0(%in: f32, %out: i1):
      %371 = arith.cmpf une, %in, %cst_1 : f32
      linalg.yield %371 : i1
    }
    %alloc_11 = memref.alloc() {alignment = 64 : i64} : memref<1x1x40x40xf32>
    linalg.generic {indexing_maps = [#map9, #map9, #map9], iterator_types = ["parallel", "parallel", "parallel", "parallel"]} ins(%alloc_10, %alloc_9 : memref<1x1x40x40xi1>, memref<1x1x40x40xf32>) outs(%alloc_11 : memref<1x1x40x40xf32>) {
    ^bb0(%in: i1, %in_3451: f32, %out: f32):
      %371 = arith.select %in, %cst_0, %in_3451 : f32
      linalg.yield %371 : f32
    }
    %expand_shape_12 = memref.expand_shape %alloc_6 [[0, 1, 2], [3]] : memref<40x40xf32> into memref<1x1x40x40xf32>
    %alloc_13 = memref.alloc() {alignment = 64 : i64} : memref<1x1x40x40xf32>
    linalg.generic {indexing_maps = [#map8, #map8, #map9], iterator_types = ["parallel", "parallel", "parallel", "parallel"]} ins(%alloc_11, %expand_shape_12 : memref<1x1x40x40xf32>, memref<1x1x40x40xf32>) outs(%alloc_13 : memref<1x1x40x40xf32>) {
    ^bb0(%in: f32, %in_3451: f32, %out: f32):
      %371 = arith.addf %in, %in_3451 : f32
      linalg.yield %371 : f32
    }
    %alloc_14 = memref.alloc() {alignment = 64 : i64} : memref<1x40x4096xf32>
    linalg.generic {indexing_maps = [#map3, #map3], iterator_types = ["parallel", "parallel", "parallel"]} ins(%alloc_2 : memref<1x40x4096xf32>) outs(%alloc_14 : memref<1x40x4096xf32>) {
    ^bb0(%in: f32, %out: f32):
      %371 = math.fpowi %in, %c2_i32 : f32, i32
      linalg.yield %371 : f32
    }
    %alloc_15 = memref.alloc() {alignment = 64 : i64} : memref<1x40xf32>
    linalg.fill ins(%cst_1 : f32) outs(%alloc_15 : memref<1x40xf32>)
    linalg.reduce ins(%alloc_14 : memref<1x40x4096xf32>) outs(%alloc_15 : memref<1x40xf32>) dimensions = [2] 
      (%in: f32, %init: f32) {
        %371 = arith.addf %in, %init : f32
        linalg.yield %371 : f32
      }
    %expand_shape_16 = memref.expand_shape %alloc_15 [[0], [1, 2]] : memref<1x40xf32> into memref<1x40x1xf32>
    %alloc_17 = memref.alloc() {alignment = 64 : i64} : memref<1xf32>
    linalg.generic {indexing_maps = [#map10, #map4], iterator_types = ["parallel"]} ins(%361 : memref<1xf32>) outs(%alloc_17 : memref<1xf32>) {
    ^bb0(%in: f32, %out: f32):
      %371 = arith.divf %cst, %in : f32
      linalg.yield %371 : f32
    }
    %expand_shape_18 = memref.expand_shape %alloc_17 [[0, 1, 2]] : memref<1xf32> into memref<1x1x1xf32>
    %alloc_19 = memref.alloc() {alignment = 64 : i64} : memref<1x40x1xf32>
    linalg.generic {indexing_maps = [#map11, #map12, #map3], iterator_types = ["parallel", "parallel", "parallel"]} ins(%expand_shape_18, %expand_shape_16 : memref<1x1x1xf32>, memref<1x40x1xf32>) outs(%alloc_19 : memref<1x40x1xf32>) {
    ^bb0(%in: f32, %in_3451: f32, %out: f32):
      %371 = arith.mulf %in, %in_3451 : f32
      linalg.yield %371 : f32
    }
    %alloc_20 = memref.alloc() {alignment = 64 : i64} : memref<1x40x1xf32>
    linalg.generic {indexing_maps = [#map12, #map12, #map3], iterator_types = ["parallel", "parallel", "parallel"]} ins(%alloc_19, %360 : memref<1x40x1xf32>, memref<1x40x1xf32>) outs(%alloc_20 : memref<1x40x1xf32>) {
    ^bb0(%in: f32, %in_3451: f32, %out: f32):
      %371 = arith.addf %in, %in_3451 : f32
      linalg.yield %371 : f32
    }
    %alloc_21 = memref.alloc() {alignment = 64 : i64} : memref<1x40x1xf32>
    linalg.generic {indexing_maps = [#map12, #map3], iterator_types = ["parallel", "parallel", "parallel"]} ins(%alloc_20 : memref<1x40x1xf32>) outs(%alloc_21 : memref<1x40x1xf32>) {
    ^bb0(%in: f32, %out: f32):
      %371 = math.rsqrt %in : f32
      linalg.yield %371 : f32
    }
    %alloc_22 = memref.alloc() {alignment = 64 : i64} : memref<1x40x4096xf32>
    linalg.generic {indexing_maps = [#map13, #map12, #map3], iterator_types = ["parallel", "parallel", "parallel"]} ins(%alloc_2, %alloc_21 : memref<1x40x4096xf32>, memref<1x40x1xf32>) outs(%alloc_22 : memref<1x40x4096xf32>) {
    ^bb0(%in: f32, %in_3451: f32, %out: f32):
      %371 = arith.mulf %in, %in_3451 : f32
      linalg.yield %371 : f32
    }
    %expand_shape_23 = memref.expand_shape %353 [[0, 1, 2]] : memref<4096xf32, strided<[?], offset: ?>> into memref<1x1x4096xf32, strided<[?, ?, ?], offset: ?>>
    %alloc_24 = memref.alloc() {alignment = 64 : i64} : memref<1x40x4096xf32>
    linalg.generic {indexing_maps = [#map14, #map13, #map3], iterator_types = ["parallel", "parallel", "parallel"]} ins(%expand_shape_23, %alloc_22 : memref<1x1x4096xf32, strided<[?, ?, ?], offset: ?>>, memref<1x40x4096xf32>) outs(%alloc_24 : memref<1x40x4096xf32>) {
    ^bb0(%in: f32, %in_3451: f32, %out: f32):
      %371 = arith.mulf %in, %in_3451 : f32
      linalg.yield %371 : f32
    }
    %alloc_25 = memref.alloc() {alignment = 64 : i64} : memref<4096x4096xf32>
    linalg.generic {indexing_maps = [#map15, #map1], iterator_types = ["parallel", "parallel"]} ins(%352 : memref<4096x4096xf32, strided<[?, ?], offset: ?>>) outs(%alloc_25 : memref<4096x4096xf32>) {
    ^bb0(%in: f32, %out: f32):
      linalg.yield %in : f32
    }
    %collapse_shape = memref.collapse_shape %alloc_24 [[0, 1], [2]] : memref<1x40x4096xf32> into memref<40x4096xf32>
    %alloc_26 = memref.alloc() {alignment = 64 : i64} : memref<40x4096xf32>
    memref.copy %359, %alloc_26 : memref<40x4096xf32> to memref<40x4096xf32>
    linalg.matmul {cast = #linalg.type_fn<cast_signed>} ins(%collapse_shape, %alloc_25 : memref<40x4096xf32>, memref<4096x4096xf32>) outs(%alloc_26 : memref<40x4096xf32>)
    %alloc_27 = memref.alloc() {alignment = 64 : i64} : memref<4096x4096xf32>
    linalg.generic {indexing_maps = [#map15, #map1], iterator_types = ["parallel", "parallel"]} ins(%351 : memref<4096x4096xf32, strided<[?, ?], offset: ?>>) outs(%alloc_27 : memref<4096x4096xf32>) {
    ^bb0(%in: f32, %out: f32):
      linalg.yield %in : f32
    }
    %collapse_shape_28 = memref.collapse_shape %alloc_24 [[0, 1], [2]] : memref<1x40x4096xf32> into memref<40x4096xf32>
    %alloc_29 = memref.alloc() {alignment = 64 : i64} : memref<40x4096xf32>
    memref.copy %359, %alloc_29 : memref<40x4096xf32> to memref<40x4096xf32>
    linalg.matmul {cast = #linalg.type_fn<cast_signed>} ins(%collapse_shape_28, %alloc_27 : memref<40x4096xf32>, memref<4096x4096xf32>) outs(%alloc_29 : memref<40x4096xf32>)
    %alloc_30 = memref.alloc() {alignment = 64 : i64} : memref<4096x4096xf32>
    linalg.generic {indexing_maps = [#map15, #map1], iterator_types = ["parallel", "parallel"]} ins(%350 : memref<4096x4096xf32, strided<[?, ?], offset: ?>>) outs(%alloc_30 : memref<4096x4096xf32>) {
    ^bb0(%in: f32, %out: f32):
      linalg.yield %in : f32
    }
    %collapse_shape_31 = memref.collapse_shape %alloc_24 [[0, 1], [2]] : memref<1x40x4096xf32> into memref<40x4096xf32>
    %alloc_32 = memref.alloc() {alignment = 64 : i64} : memref<40x4096xf32>
    memref.copy %359, %alloc_32 : memref<40x4096xf32> to memref<40x4096xf32>
    linalg.matmul {cast = #linalg.type_fn<cast_signed>} ins(%collapse_shape_31, %alloc_30 : memref<40x4096xf32>, memref<4096x4096xf32>) outs(%alloc_32 : memref<40x4096xf32>)
    %expand_shape_33 = memref.expand_shape %alloc_26 [[0, 1], [2, 3]] : memref<40x4096xf32> into memref<1x40x32x128xf32>
    %alloc_34 = memref.alloc() {alignment = 64 : i64} : memref<1x32x40x128xf32>
    linalg.generic {indexing_maps = [#map16, #map9], iterator_types = ["parallel", "parallel", "parallel", "parallel"]} ins(%expand_shape_33 : memref<1x40x32x128xf32>) outs(%alloc_34 : memref<1x32x40x128xf32>) {
    ^bb0(%in: f32, %out: f32):
      linalg.yield %in : f32
    }
    %expand_shape_35 = memref.expand_shape %alloc_29 [[0, 1], [2, 3]] : memref<40x4096xf32> into memref<1x40x32x128xf32>
    %alloc_36 = memref.alloc() {alignment = 64 : i64} : memref<1x32x40x128xf32>
    linalg.generic {indexing_maps = [#map16, #map9], iterator_types = ["parallel", "parallel", "parallel", "parallel"]} ins(%expand_shape_35 : memref<1x40x32x128xf32>) outs(%alloc_36 : memref<1x32x40x128xf32>) {
    ^bb0(%in: f32, %out: f32):
      linalg.yield %in : f32
    }
    %expand_shape_37 = memref.expand_shape %alloc_32 [[0, 1], [2, 3]] : memref<40x4096xf32> into memref<1x40x32x128xf32>
    %alloc_38 = memref.alloc() {alignment = 64 : i64} : memref<1x32x40x128xf32>
    linalg.generic {indexing_maps = [#map16, #map9], iterator_types = ["parallel", "parallel", "parallel", "parallel"]} ins(%expand_shape_37 : memref<1x40x32x128xf32>) outs(%alloc_38 : memref<1x32x40x128xf32>) {
    ^bb0(%in: f32, %out: f32):
      linalg.yield %in : f32
    }
    %subview = memref.subview %349[0, 0, 0, 0] [1, 1, 40, 128] [1, 1, 1, 1] : memref<1x1x2048x128xf32, strided<[?, ?, ?, ?], offset: ?>> to memref<1x1x40x128xf32, strided<[?, ?, ?, ?], offset: ?>>
    %subview_39 = memref.subview %348[0, 0, 0, 0] [1, 1, 40, 128] [1, 1, 1, 1] : memref<1x1x2048x128xf32, strided<[?, ?, ?, ?], offset: ?>> to memref<1x1x40x128xf32, strided<[?, ?, ?, ?], offset: ?>>
    %alloc_40 = memref.alloc() {alignment = 64 : i64} : memref<1x40x128xf32>
    linalg.generic {indexing_maps = [#map17, #map3], iterator_types = ["parallel", "parallel", "parallel"]} ins(%subview : memref<1x1x40x128xf32, strided<[?, ?, ?, ?], offset: ?>>) outs(%alloc_40 : memref<1x40x128xf32>) {
    ^bb0(%in: f32, %out: f32):
      linalg.yield %in : f32
    }
    %alloc_41 = memref.alloc() {alignment = 64 : i64} : memref<40x128xf32>
    linalg.generic {indexing_maps = [#map18, #map1], iterator_types = ["parallel", "parallel"]} ins(%alloc_40 : memref<1x40x128xf32>) outs(%alloc_41 : memref<40x128xf32>) {
    ^bb0(%in: f32, %out: f32):
      linalg.yield %in : f32
    }
    %alloc_42 = memref.alloc() {alignment = 64 : i64} : memref<1x40x128xf32>
    linalg.generic {indexing_maps = [#map17, #map3], iterator_types = ["parallel", "parallel", "parallel"]} ins(%subview_39 : memref<1x1x40x128xf32, strided<[?, ?, ?, ?], offset: ?>>) outs(%alloc_42 : memref<1x40x128xf32>) {
    ^bb0(%in: f32, %out: f32):
      linalg.yield %in : f32
    }
    %alloc_43 = memref.alloc() {alignment = 64 : i64} : memref<40x128xf32>
    linalg.generic {indexing_maps = [#map18, #map1], iterator_types = ["parallel", "parallel"]} ins(%alloc_42 : memref<1x40x128xf32>) outs(%alloc_43 : memref<40x128xf32>) {
    ^bb0(%in: f32, %out: f32):
      linalg.yield %in : f32
    }
    %alloc_44 = memref.alloc() {alignment = 64 : i64} : memref<1x40x128xf32>
    linalg.generic {indexing_maps = [#map2, #map3], iterator_types = ["parallel", "parallel", "parallel"]} ins(%368 : memref<1x40xi64>) outs(%alloc_44 : memref<1x40x128xf32>) {
    ^bb0(%in: i64, %out: f32):
      %371 = arith.index_cast %in : i64 to index
      %372 = linalg.index 2 : index
      %373 = memref.load %alloc_41[%371, %372] : memref<40x128xf32>
      linalg.yield %373 : f32
    }
    %expand_shape_45 = memref.expand_shape %alloc_44 [[0, 1], [2], [3]] : memref<1x40x128xf32> into memref<1x1x40x128xf32>
    %alloc_46 = memref.alloc() {alignment = 64 : i64} : memref<1x40x128xf32>
    linalg.generic {indexing_maps = [#map2, #map3], iterator_types = ["parallel", "parallel", "parallel"]} ins(%368 : memref<1x40xi64>) outs(%alloc_46 : memref<1x40x128xf32>) {
    ^bb0(%in: i64, %out: f32):
      %371 = arith.index_cast %in : i64 to index
      %372 = linalg.index 2 : index
      %373 = memref.load %alloc_43[%371, %372] : memref<40x128xf32>
      linalg.yield %373 : f32
    }
    %expand_shape_47 = memref.expand_shape %alloc_46 [[0, 1], [2], [3]] : memref<1x40x128xf32> into memref<1x1x40x128xf32>
    %alloc_48 = memref.alloc() {alignment = 64 : i64} : memref<1x32x40x128xf32>
    linalg.generic {indexing_maps = [#map19, #map8, #map9], iterator_types = ["parallel", "parallel", "parallel", "parallel"]} ins(%alloc_34, %expand_shape_45 : memref<1x32x40x128xf32>, memref<1x1x40x128xf32>) outs(%alloc_48 : memref<1x32x40x128xf32>) {
    ^bb0(%in: f32, %in_3451: f32, %out: f32):
      %371 = arith.mulf %in, %in_3451 : f32
      linalg.yield %371 : f32
    }
    %subview_49 = memref.subview %alloc_34[0, 0, 0, 0] [1, 32, 40, 64] [1, 1, 1, 1] : memref<1x32x40x128xf32> to memref<1x32x40x64xf32, strided<[163840, 5120, 128, 1]>>
    %subview_50 = memref.subview %alloc_34[0, 0, 0, 64] [1, 32, 40, 64] [1, 1, 1, 1] : memref<1x32x40x128xf32> to memref<1x32x40x64xf32, strided<[163840, 5120, 128, 1], offset: 64>>
    %alloc_51 = memref.alloc() {alignment = 64 : i64} : memref<1x32x40x64xf32>
    linalg.generic {indexing_maps = [#map19, #map9], iterator_types = ["parallel", "parallel", "parallel", "parallel"]} ins(%subview_50 : memref<1x32x40x64xf32, strided<[163840, 5120, 128, 1], offset: 64>>) outs(%alloc_51 : memref<1x32x40x64xf32>) {
    ^bb0(%in: f32, %out: f32):
      %371 = arith.negf %in : f32
      linalg.yield %371 : f32
    }
    %alloc_52 = memref.alloc() {alignment = 64 : i64} : memref<1x32x40x128xf32>
    %subview_53 = memref.subview %alloc_52[0, 0, 0, 0] [1, 32, 40, 64] [1, 1, 1, 1] : memref<1x32x40x128xf32> to memref<1x32x40x64xf32, strided<[163840, 5120, 128, 1]>>
    memref.copy %alloc_51, %subview_53 : memref<1x32x40x64xf32> to memref<1x32x40x64xf32, strided<[163840, 5120, 128, 1]>>
    %subview_54 = memref.subview %alloc_52[0, 0, 0, 64] [1, 32, 40, 64] [1, 1, 1, 1] : memref<1x32x40x128xf32> to memref<1x32x40x64xf32, strided<[163840, 5120, 128, 1], offset: 64>>
    memref.copy %subview_49, %subview_54 : memref<1x32x40x64xf32, strided<[163840, 5120, 128, 1]>> to memref<1x32x40x64xf32, strided<[163840, 5120, 128, 1], offset: 64>>
    %alloc_55 = memref.alloc() {alignment = 64 : i64} : memref<1x32x40x128xf32>
    linalg.generic {indexing_maps = [#map19, #map8, #map9], iterator_types = ["parallel", "parallel", "parallel", "parallel"]} ins(%alloc_52, %expand_shape_47 : memref<1x32x40x128xf32>, memref<1x1x40x128xf32>) outs(%alloc_55 : memref<1x32x40x128xf32>) {
    ^bb0(%in: f32, %in_3451: f32, %out: f32):
      %371 = arith.mulf %in, %in_3451 : f32
      linalg.yield %371 : f32
    }
    %alloc_56 = memref.alloc() {alignment = 64 : i64} : memref<1x32x40x128xf32>
    linalg.generic {indexing_maps = [#map19, #map19, #map9], iterator_types = ["parallel", "parallel", "parallel", "parallel"]} ins(%alloc_48, %alloc_55 : memref<1x32x40x128xf32>, memref<1x32x40x128xf32>) outs(%alloc_56 : memref<1x32x40x128xf32>) {
    ^bb0(%in: f32, %in_3451: f32, %out: f32):
      %371 = arith.addf %in, %in_3451 : f32
      linalg.yield %371 : f32
    }
    %alloc_57 = memref.alloc() {alignment = 64 : i64} : memref<1x32x40x128xf32>
    linalg.generic {indexing_maps = [#map19, #map8, #map9], iterator_types = ["parallel", "parallel", "parallel", "parallel"]} ins(%alloc_36, %expand_shape_45 : memref<1x32x40x128xf32>, memref<1x1x40x128xf32>) outs(%alloc_57 : memref<1x32x40x128xf32>) {
    ^bb0(%in: f32, %in_3451: f32, %out: f32):
      %371 = arith.mulf %in, %in_3451 : f32
      linalg.yield %371 : f32
    }
    %subview_58 = memref.subview %alloc_36[0, 0, 0, 0] [1, 32, 40, 64] [1, 1, 1, 1] : memref<1x32x40x128xf32> to memref<1x32x40x64xf32, strided<[163840, 5120, 128, 1]>>
    %subview_59 = memref.subview %alloc_36[0, 0, 0, 64] [1, 32, 40, 64] [1, 1, 1, 1] : memref<1x32x40x128xf32> to memref<1x32x40x64xf32, strided<[163840, 5120, 128, 1], offset: 64>>
    %alloc_60 = memref.alloc() {alignment = 64 : i64} : memref<1x32x40x64xf32>
    linalg.generic {indexing_maps = [#map19, #map9], iterator_types = ["parallel", "parallel", "parallel", "parallel"]} ins(%subview_59 : memref<1x32x40x64xf32, strided<[163840, 5120, 128, 1], offset: 64>>) outs(%alloc_60 : memref<1x32x40x64xf32>) {
    ^bb0(%in: f32, %out: f32):
      %371 = arith.negf %in : f32
      linalg.yield %371 : f32
    }
    %alloc_61 = memref.alloc() {alignment = 64 : i64} : memref<1x32x40x128xf32>
    %subview_62 = memref.subview %alloc_61[0, 0, 0, 0] [1, 32, 40, 64] [1, 1, 1, 1] : memref<1x32x40x128xf32> to memref<1x32x40x64xf32, strided<[163840, 5120, 128, 1]>>
    memref.copy %alloc_60, %subview_62 : memref<1x32x40x64xf32> to memref<1x32x40x64xf32, strided<[163840, 5120, 128, 1]>>
    %subview_63 = memref.subview %alloc_61[0, 0, 0, 64] [1, 32, 40, 64] [1, 1, 1, 1] : memref<1x32x40x128xf32> to memref<1x32x40x64xf32, strided<[163840, 5120, 128, 1], offset: 64>>
    memref.copy %subview_58, %subview_63 : memref<1x32x40x64xf32, strided<[163840, 5120, 128, 1]>> to memref<1x32x40x64xf32, strided<[163840, 5120, 128, 1], offset: 64>>
    %alloc_64 = memref.alloc() {alignment = 64 : i64} : memref<1x32x40x128xf32>
    linalg.generic {indexing_maps = [#map19, #map8, #map9], iterator_types = ["parallel", "parallel", "parallel", "parallel"]} ins(%alloc_61, %expand_shape_47 : memref<1x32x40x128xf32>, memref<1x1x40x128xf32>) outs(%alloc_64 : memref<1x32x40x128xf32>) {
    ^bb0(%in: f32, %in_3451: f32, %out: f32):
      %371 = arith.mulf %in, %in_3451 : f32
      linalg.yield %371 : f32
    }
    %alloc_65 = memref.alloc() {alignment = 64 : i64} : memref<1x32x40x128xf32>
    linalg.generic {indexing_maps = [#map19, #map19, #map9], iterator_types = ["parallel", "parallel", "parallel", "parallel"]} ins(%alloc_57, %alloc_64 : memref<1x32x40x128xf32>, memref<1x32x40x128xf32>) outs(%alloc_65 : memref<1x32x40x128xf32>) {
    ^bb0(%in: f32, %in_3451: f32, %out: f32):
      %371 = arith.addf %in, %in_3451 : f32
      linalg.yield %371 : f32
    }
    %alloc_66 = memref.alloc() {alignment = 64 : i64} : memref<1x32x128x40xf32>
    linalg.generic {indexing_maps = [#map20, #map9], iterator_types = ["parallel", "parallel", "parallel", "parallel"]} ins(%alloc_65 : memref<1x32x40x128xf32>) outs(%alloc_66 : memref<1x32x128x40xf32>) {
    ^bb0(%in: f32, %out: f32):
      linalg.yield %in : f32
    }
    %collapse_shape_67 = memref.collapse_shape %alloc_56 [[0, 1], [2], [3]] : memref<1x32x40x128xf32> into memref<32x40x128xf32>
    %collapse_shape_68 = memref.collapse_shape %alloc_66 [[0, 1], [2], [3]] : memref<1x32x128x40xf32> into memref<32x128x40xf32>
    %alloc_69 = memref.alloc() {alignment = 64 : i64} : memref<32x40x40xf32>
    linalg.fill ins(%cst_1 : f32) outs(%alloc_69 : memref<32x40x40xf32>)
    linalg.batch_matmul ins(%collapse_shape_67, %collapse_shape_68 : memref<32x40x128xf32>, memref<32x128x40xf32>) outs(%alloc_69 : memref<32x40x40xf32>)
    %expand_shape_70 = memref.expand_shape %alloc_69 [[0, 1], [2], [3]] : memref<32x40x40xf32> into memref<1x32x40x40xf32>
    %alloc_71 = memref.alloc() {alignment = 64 : i64} : memref<1x32x40x40xf32>
    linalg.generic {indexing_maps = [#map19, #map9], iterator_types = ["parallel", "parallel", "parallel", "parallel"]} ins(%358 : memref<1x32x40x40xf32>) outs(%alloc_71 : memref<1x32x40x40xf32>) {
    ^bb0(%in: f32, %out: f32):
      %371 = arith.divf %cst, %in : f32
      linalg.yield %371 : f32
    }
    %alloc_72 = memref.alloc() {alignment = 64 : i64} : memref<1x32x40x40xf32>
    linalg.generic {indexing_maps = [#map19, #map19, #map9], iterator_types = ["parallel", "parallel", "parallel", "parallel"]} ins(%expand_shape_70, %alloc_71 : memref<1x32x40x40xf32>, memref<1x32x40x40xf32>) outs(%alloc_72 : memref<1x32x40x40xf32>) {
    ^bb0(%in: f32, %in_3451: f32, %out: f32):
      %371 = arith.mulf %in, %in_3451 : f32
      linalg.yield %371 : f32
    }
    %alloc_73 = memref.alloc() {alignment = 64 : i64} : memref<1x32x40x40xf32>
    linalg.generic {indexing_maps = [#map19, #map8, #map9], iterator_types = ["parallel", "parallel", "parallel", "parallel"]} ins(%alloc_72, %alloc_13 : memref<1x32x40x40xf32>, memref<1x1x40x40xf32>) outs(%alloc_73 : memref<1x32x40x40xf32>) {
    ^bb0(%in: f32, %in_3451: f32, %out: f32):
      %371 = arith.addf %in, %in_3451 : f32
      linalg.yield %371 : f32
    }
    %alloc_74 = memref.alloc() {alignment = 64 : i64} : memref<1x32x40xf32>
    linalg.fill ins(%cst_0 : f32) outs(%alloc_74 : memref<1x32x40xf32>)
    linalg.reduce ins(%alloc_73 : memref<1x32x40x40xf32>) outs(%alloc_74 : memref<1x32x40xf32>) dimensions = [3] 
      (%in: f32, %init: f32) {
        %371 = arith.cmpf ugt, %in, %init : f32
        %372 = arith.select %371, %in, %init : f32
        %373 = arith.cmpf uno, %init, %init : f32
        %374 = arith.select %373, %init, %372 : f32
        linalg.yield %374 : f32
      }
    %expand_shape_75 = memref.expand_shape %alloc_74 [[0], [1], [2, 3]] : memref<1x32x40xf32> into memref<1x32x40x1xf32>
    %alloc_76 = memref.alloc() {alignment = 64 : i64} : memref<1x32x40x40xf32>
    linalg.generic {indexing_maps = [#map19, #map21, #map9], iterator_types = ["parallel", "parallel", "parallel", "parallel"]} ins(%alloc_73, %expand_shape_75 : memref<1x32x40x40xf32>, memref<1x32x40x1xf32>) outs(%alloc_76 : memref<1x32x40x40xf32>) {
    ^bb0(%in: f32, %in_3451: f32, %out: f32):
      %371 = arith.subf %in, %in_3451 : f32
      linalg.yield %371 : f32
    }
    %alloc_77 = memref.alloc() {alignment = 64 : i64} : memref<1x32x40x40xf32>
    linalg.generic {indexing_maps = [#map19, #map9], iterator_types = ["parallel", "parallel", "parallel", "parallel"]} ins(%alloc_76 : memref<1x32x40x40xf32>) outs(%alloc_77 : memref<1x32x40x40xf32>) {
    ^bb0(%in: f32, %out: f32):
      %371 = math.exp %in : f32
      linalg.yield %371 : f32
    }
    %alloc_78 = memref.alloc() {alignment = 64 : i64} : memref<1x32x40xf32>
    linalg.fill ins(%cst_1 : f32) outs(%alloc_78 : memref<1x32x40xf32>)
    linalg.reduce ins(%alloc_77 : memref<1x32x40x40xf32>) outs(%alloc_78 : memref<1x32x40xf32>) dimensions = [3] 
      (%in: f32, %init: f32) {
        %371 = arith.addf %in, %init : f32
        linalg.yield %371 : f32
      }
    %expand_shape_79 = memref.expand_shape %alloc_78 [[0], [1], [2, 3]] : memref<1x32x40xf32> into memref<1x32x40x1xf32>
    %alloc_80 = memref.alloc() {alignment = 64 : i64} : memref<1x32x40x1xf32>
    linalg.generic {indexing_maps = [#map21, #map9], iterator_types = ["parallel", "parallel", "parallel", "parallel"]} ins(%expand_shape_79 : memref<1x32x40x1xf32>) outs(%alloc_80 : memref<1x32x40x1xf32>) {
    ^bb0(%in: f32, %out: f32):
      %371 = arith.divf %cst, %in : f32
      linalg.yield %371 : f32
    }
    %alloc_81 = memref.alloc() {alignment = 64 : i64} : memref<1x32x40x40xf32>
    linalg.generic {indexing_maps = [#map19, #map21, #map9], iterator_types = ["parallel", "parallel", "parallel", "parallel"]} ins(%alloc_77, %alloc_80 : memref<1x32x40x40xf32>, memref<1x32x40x1xf32>) outs(%alloc_81 : memref<1x32x40x40xf32>) {
    ^bb0(%in: f32, %in_3451: f32, %out: f32):
      %371 = arith.mulf %in, %in_3451 : f32
      linalg.yield %371 : f32
    }
    %collapse_shape_82 = memref.collapse_shape %alloc_81 [[0, 1], [2], [3]] : memref<1x32x40x40xf32> into memref<32x40x40xf32>
    %collapse_shape_83 = memref.collapse_shape %alloc_38 [[0, 1], [2], [3]] : memref<1x32x40x128xf32> into memref<32x40x128xf32>
    %alloc_84 = memref.alloc() {alignment = 64 : i64} : memref<32x40x128xf32>
    linalg.fill ins(%cst_1 : f32) outs(%alloc_84 : memref<32x40x128xf32>)
    linalg.batch_matmul ins(%collapse_shape_82, %collapse_shape_83 : memref<32x40x40xf32>, memref<32x40x128xf32>) outs(%alloc_84 : memref<32x40x128xf32>)
    %expand_shape_85 = memref.expand_shape %alloc_84 [[0, 1], [2], [3]] : memref<32x40x128xf32> into memref<1x32x40x128xf32>
    %alloc_86 = memref.alloc() {alignment = 64 : i64} : memref<1x40x32x128xf32>
    linalg.generic {indexing_maps = [#map16, #map9], iterator_types = ["parallel", "parallel", "parallel", "parallel"]} ins(%expand_shape_85 : memref<1x32x40x128xf32>) outs(%alloc_86 : memref<1x40x32x128xf32>) {
    ^bb0(%in: f32, %out: f32):
      linalg.yield %in : f32
    }
    %alloc_87 = memref.alloc() {alignment = 64 : i64} : memref<4096x4096xf32>
    linalg.generic {indexing_maps = [#map15, #map1], iterator_types = ["parallel", "parallel"]} ins(%347 : memref<4096x4096xf32, strided<[?, ?], offset: ?>>) outs(%alloc_87 : memref<4096x4096xf32>) {
    ^bb0(%in: f32, %out: f32):
      linalg.yield %in : f32
    }
    %collapse_shape_88 = memref.collapse_shape %alloc_86 [[0, 1], [2, 3]] : memref<1x40x32x128xf32> into memref<40x4096xf32>
    %alloc_89 = memref.alloc() {alignment = 64 : i64} : memref<40x4096xf32>
    memref.copy %359, %alloc_89 : memref<40x4096xf32> to memref<40x4096xf32>
    linalg.matmul {cast = #linalg.type_fn<cast_signed>} ins(%collapse_shape_88, %alloc_87 : memref<40x4096xf32>, memref<4096x4096xf32>) outs(%alloc_89 : memref<40x4096xf32>)
    %expand_shape_90 = memref.expand_shape %alloc_89 [[0, 1], [2]] : memref<40x4096xf32> into memref<1x40x4096xf32>
    %alloc_91 = memref.alloc() {alignment = 64 : i64} : memref<1x40x4096xf32>
    linalg.generic {indexing_maps = [#map13, #map13, #map3], iterator_types = ["parallel", "parallel", "parallel"]} ins(%alloc_2, %expand_shape_90 : memref<1x40x4096xf32>, memref<1x40x4096xf32>) outs(%alloc_91 : memref<1x40x4096xf32>) {
    ^bb0(%in: f32, %in_3451: f32, %out: f32):
      %371 = arith.addf %in, %in_3451 : f32
      linalg.yield %371 : f32
    }
    %alloc_92 = memref.alloc() {alignment = 64 : i64} : memref<1x40x4096xf32>
    linalg.generic {indexing_maps = [#map3, #map3], iterator_types = ["parallel", "parallel", "parallel"]} ins(%alloc_91 : memref<1x40x4096xf32>) outs(%alloc_92 : memref<1x40x4096xf32>) {
    ^bb0(%in: f32, %out: f32):
      %371 = math.fpowi %in, %c2_i32 : f32, i32
      linalg.yield %371 : f32
    }
    %alloc_93 = memref.alloc() {alignment = 64 : i64} : memref<1x40xf32>
    linalg.fill ins(%cst_1 : f32) outs(%alloc_93 : memref<1x40xf32>)
    linalg.reduce ins(%alloc_92 : memref<1x40x4096xf32>) outs(%alloc_93 : memref<1x40xf32>) dimensions = [2] 
      (%in: f32, %init: f32) {
        %371 = arith.addf %in, %init : f32
        linalg.yield %371 : f32
      }
    %expand_shape_94 = memref.expand_shape %alloc_93 [[0], [1, 2]] : memref<1x40xf32> into memref<1x40x1xf32>
    %alloc_95 = memref.alloc() {alignment = 64 : i64} : memref<1xf32>
    linalg.generic {indexing_maps = [#map10, #map4], iterator_types = ["parallel"]} ins(%361 : memref<1xf32>) outs(%alloc_95 : memref<1xf32>) {
    ^bb0(%in: f32, %out: f32):
      %371 = arith.divf %cst, %in : f32
      linalg.yield %371 : f32
    }
    %expand_shape_96 = memref.expand_shape %alloc_95 [[0, 1, 2]] : memref<1xf32> into memref<1x1x1xf32>
    %alloc_97 = memref.alloc() {alignment = 64 : i64} : memref<1x40x1xf32>
    linalg.generic {indexing_maps = [#map11, #map12, #map3], iterator_types = ["parallel", "parallel", "parallel"]} ins(%expand_shape_96, %expand_shape_94 : memref<1x1x1xf32>, memref<1x40x1xf32>) outs(%alloc_97 : memref<1x40x1xf32>) {
    ^bb0(%in: f32, %in_3451: f32, %out: f32):
      %371 = arith.mulf %in, %in_3451 : f32
      linalg.yield %371 : f32
    }
    %alloc_98 = memref.alloc() {alignment = 64 : i64} : memref<1x40x1xf32>
    linalg.generic {indexing_maps = [#map12, #map12, #map3], iterator_types = ["parallel", "parallel", "parallel"]} ins(%alloc_97, %360 : memref<1x40x1xf32>, memref<1x40x1xf32>) outs(%alloc_98 : memref<1x40x1xf32>) {
    ^bb0(%in: f32, %in_3451: f32, %out: f32):
      %371 = arith.addf %in, %in_3451 : f32
      linalg.yield %371 : f32
    }
    %alloc_99 = memref.alloc() {alignment = 64 : i64} : memref<1x40x1xf32>
    linalg.generic {indexing_maps = [#map12, #map3], iterator_types = ["parallel", "parallel", "parallel"]} ins(%alloc_98 : memref<1x40x1xf32>) outs(%alloc_99 : memref<1x40x1xf32>) {
    ^bb0(%in: f32, %out: f32):
      %371 = math.rsqrt %in : f32
      linalg.yield %371 : f32
    }
    %alloc_100 = memref.alloc() {alignment = 64 : i64} : memref<1x40x4096xf32>
    linalg.generic {indexing_maps = [#map13, #map12, #map3], iterator_types = ["parallel", "parallel", "parallel"]} ins(%alloc_91, %alloc_99 : memref<1x40x4096xf32>, memref<1x40x1xf32>) outs(%alloc_100 : memref<1x40x4096xf32>) {
    ^bb0(%in: f32, %in_3451: f32, %out: f32):
      %371 = arith.mulf %in, %in_3451 : f32
      linalg.yield %371 : f32
    }
    %expand_shape_101 = memref.expand_shape %346 [[0, 1, 2]] : memref<4096xf32, strided<[?], offset: ?>> into memref<1x1x4096xf32, strided<[?, ?, ?], offset: ?>>
    %alloc_102 = memref.alloc() {alignment = 64 : i64} : memref<1x40x4096xf32>
    linalg.generic {indexing_maps = [#map14, #map13, #map3], iterator_types = ["parallel", "parallel", "parallel"]} ins(%expand_shape_101, %alloc_100 : memref<1x1x4096xf32, strided<[?, ?, ?], offset: ?>>, memref<1x40x4096xf32>) outs(%alloc_102 : memref<1x40x4096xf32>) {
    ^bb0(%in: f32, %in_3451: f32, %out: f32):
      %371 = arith.mulf %in, %in_3451 : f32
      linalg.yield %371 : f32
    }
    %alloc_103 = memref.alloc() {alignment = 64 : i64} : memref<4096x11008xf32>
    linalg.generic {indexing_maps = [#map15, #map1], iterator_types = ["parallel", "parallel"]} ins(%345 : memref<11008x4096xf32, strided<[?, ?], offset: ?>>) outs(%alloc_103 : memref<4096x11008xf32>) {
    ^bb0(%in: f32, %out: f32):
      linalg.yield %in : f32
    }
    %collapse_shape_104 = memref.collapse_shape %alloc_102 [[0, 1], [2]] : memref<1x40x4096xf32> into memref<40x4096xf32>
    %alloc_105 = memref.alloc() {alignment = 64 : i64} : memref<40x11008xf32>
    memref.copy %357, %alloc_105 : memref<40x11008xf32> to memref<40x11008xf32>
    linalg.matmul {cast = #linalg.type_fn<cast_signed>} ins(%collapse_shape_104, %alloc_103 : memref<40x4096xf32>, memref<4096x11008xf32>) outs(%alloc_105 : memref<40x11008xf32>)
    %expand_shape_106 = memref.expand_shape %alloc_105 [[0, 1], [2]] : memref<40x11008xf32> into memref<1x40x11008xf32>
    %alloc_107 = memref.alloc() {alignment = 64 : i64} : memref<1x40x11008xf32>
    linalg.generic {indexing_maps = [#map13, #map3], iterator_types = ["parallel", "parallel", "parallel"]} ins(%expand_shape_106 : memref<1x40x11008xf32>) outs(%alloc_107 : memref<1x40x11008xf32>) {
    ^bb0(%in: f32, %out: f32):
      %371 = arith.negf %in : f32
      %372 = math.exp %371 : f32
      %373 = arith.addf %372, %cst : f32
      %374 = arith.divf %cst, %373 : f32
      linalg.yield %374 : f32
    }
    %alloc_108 = memref.alloc() {alignment = 64 : i64} : memref<1x40x11008xf32>
    linalg.generic {indexing_maps = [#map13, #map13, #map3], iterator_types = ["parallel", "parallel", "parallel"]} ins(%expand_shape_106, %alloc_107 : memref<1x40x11008xf32>, memref<1x40x11008xf32>) outs(%alloc_108 : memref<1x40x11008xf32>) {
    ^bb0(%in: f32, %in_3451: f32, %out: f32):
      %371 = arith.mulf %in, %in_3451 : f32
      linalg.yield %371 : f32
    }
    %alloc_109 = memref.alloc() {alignment = 64 : i64} : memref<4096x11008xf32>
    linalg.generic {indexing_maps = [#map15, #map1], iterator_types = ["parallel", "parallel"]} ins(%344 : memref<11008x4096xf32, strided<[?, ?], offset: ?>>) outs(%alloc_109 : memref<4096x11008xf32>) {
    ^bb0(%in: f32, %out: f32):
      linalg.yield %in : f32
    }
    %collapse_shape_110 = memref.collapse_shape %alloc_102 [[0, 1], [2]] : memref<1x40x4096xf32> into memref<40x4096xf32>
    %alloc_111 = memref.alloc() {alignment = 64 : i64} : memref<40x11008xf32>
    memref.copy %357, %alloc_111 : memref<40x11008xf32> to memref<40x11008xf32>
    linalg.matmul {cast = #linalg.type_fn<cast_signed>} ins(%collapse_shape_110, %alloc_109 : memref<40x4096xf32>, memref<4096x11008xf32>) outs(%alloc_111 : memref<40x11008xf32>)
    %expand_shape_112 = memref.expand_shape %alloc_111 [[0, 1], [2]] : memref<40x11008xf32> into memref<1x40x11008xf32>
    %alloc_113 = memref.alloc() {alignment = 64 : i64} : memref<1x40x11008xf32>
    linalg.generic {indexing_maps = [#map13, #map13, #map3], iterator_types = ["parallel", "parallel", "parallel"]} ins(%alloc_108, %expand_shape_112 : memref<1x40x11008xf32>, memref<1x40x11008xf32>) outs(%alloc_113 : memref<1x40x11008xf32>) {
    ^bb0(%in: f32, %in_3451: f32, %out: f32):
      %371 = arith.mulf %in, %in_3451 : f32
      linalg.yield %371 : f32
    }
    %alloc_114 = memref.alloc() {alignment = 64 : i64} : memref<11008x4096xf32>
    linalg.generic {indexing_maps = [#map15, #map1], iterator_types = ["parallel", "parallel"]} ins(%343 : memref<4096x11008xf32, strided<[?, ?], offset: ?>>) outs(%alloc_114 : memref<11008x4096xf32>) {
    ^bb0(%in: f32, %out: f32):
      linalg.yield %in : f32
    }
    %collapse_shape_115 = memref.collapse_shape %alloc_113 [[0, 1], [2]] : memref<1x40x11008xf32> into memref<40x11008xf32>
    %alloc_116 = memref.alloc() {alignment = 64 : i64} : memref<40x4096xf32>
    memref.copy %359, %alloc_116 : memref<40x4096xf32> to memref<40x4096xf32>
    linalg.matmul {cast = #linalg.type_fn<cast_signed>} ins(%collapse_shape_115, %alloc_114 : memref<40x11008xf32>, memref<11008x4096xf32>) outs(%alloc_116 : memref<40x4096xf32>)
    %expand_shape_117 = memref.expand_shape %alloc_116 [[0, 1], [2]] : memref<40x4096xf32> into memref<1x40x4096xf32>
    %alloc_118 = memref.alloc() {alignment = 64 : i64} : memref<1x40x4096xf32>
    linalg.generic {indexing_maps = [#map13, #map13, #map3], iterator_types = ["parallel", "parallel", "parallel"]} ins(%alloc_91, %expand_shape_117 : memref<1x40x4096xf32>, memref<1x40x4096xf32>) outs(%alloc_118 : memref<1x40x4096xf32>) {
    ^bb0(%in: f32, %in_3451: f32, %out: f32):
      %371 = arith.addf %in, %in_3451 : f32
      linalg.yield %371 : f32
    }
    %alloc_119 = memref.alloc() {alignment = 64 : i64} : memref<1x40x4096xf32>
    linalg.generic {indexing_maps = [#map3, #map3], iterator_types = ["parallel", "parallel", "parallel"]} ins(%alloc_118 : memref<1x40x4096xf32>) outs(%alloc_119 : memref<1x40x4096xf32>) {
    ^bb0(%in: f32, %out: f32):
      %371 = math.fpowi %in, %c2_i32 : f32, i32
      linalg.yield %371 : f32
    }
    %alloc_120 = memref.alloc() {alignment = 64 : i64} : memref<1x40xf32>
    linalg.fill ins(%cst_1 : f32) outs(%alloc_120 : memref<1x40xf32>)
    linalg.reduce ins(%alloc_119 : memref<1x40x4096xf32>) outs(%alloc_120 : memref<1x40xf32>) dimensions = [2] 
      (%in: f32, %init: f32) {
        %371 = arith.addf %in, %init : f32
        linalg.yield %371 : f32
      }
    %expand_shape_121 = memref.expand_shape %alloc_120 [[0], [1, 2]] : memref<1x40xf32> into memref<1x40x1xf32>
    %alloc_122 = memref.alloc() {alignment = 64 : i64} : memref<1xf32>
    linalg.generic {indexing_maps = [#map10, #map4], iterator_types = ["parallel"]} ins(%361 : memref<1xf32>) outs(%alloc_122 : memref<1xf32>) {
    ^bb0(%in: f32, %out: f32):
      %371 = arith.divf %cst, %in : f32
      linalg.yield %371 : f32
    }
    %expand_shape_123 = memref.expand_shape %alloc_122 [[0, 1, 2]] : memref<1xf32> into memref<1x1x1xf32>
    %alloc_124 = memref.alloc() {alignment = 64 : i64} : memref<1x40x1xf32>
    linalg.generic {indexing_maps = [#map11, #map12, #map3], iterator_types = ["parallel", "parallel", "parallel"]} ins(%expand_shape_123, %expand_shape_121 : memref<1x1x1xf32>, memref<1x40x1xf32>) outs(%alloc_124 : memref<1x40x1xf32>) {
    ^bb0(%in: f32, %in_3451: f32, %out: f32):
      %371 = arith.mulf %in, %in_3451 : f32
      linalg.yield %371 : f32
    }
    %alloc_125 = memref.alloc() {alignment = 64 : i64} : memref<1x40x1xf32>
    linalg.generic {indexing_maps = [#map12, #map12, #map3], iterator_types = ["parallel", "parallel", "parallel"]} ins(%alloc_124, %360 : memref<1x40x1xf32>, memref<1x40x1xf32>) outs(%alloc_125 : memref<1x40x1xf32>) {
    ^bb0(%in: f32, %in_3451: f32, %out: f32):
      %371 = arith.addf %in, %in_3451 : f32
      linalg.yield %371 : f32
    }
    %alloc_126 = memref.alloc() {alignment = 64 : i64} : memref<1x40x1xf32>
    linalg.generic {indexing_maps = [#map12, #map3], iterator_types = ["parallel", "parallel", "parallel"]} ins(%alloc_125 : memref<1x40x1xf32>) outs(%alloc_126 : memref<1x40x1xf32>) {
    ^bb0(%in: f32, %out: f32):
      %371 = math.rsqrt %in : f32
      linalg.yield %371 : f32
    }
    %alloc_127 = memref.alloc() {alignment = 64 : i64} : memref<1x40x4096xf32>
    linalg.generic {indexing_maps = [#map13, #map12, #map3], iterator_types = ["parallel", "parallel", "parallel"]} ins(%alloc_118, %alloc_126 : memref<1x40x4096xf32>, memref<1x40x1xf32>) outs(%alloc_127 : memref<1x40x4096xf32>) {
    ^bb0(%in: f32, %in_3451: f32, %out: f32):
      %371 = arith.mulf %in, %in_3451 : f32
      linalg.yield %371 : f32
    }
    %expand_shape_128 = memref.expand_shape %342 [[0, 1, 2]] : memref<4096xf32, strided<[?], offset: ?>> into memref<1x1x4096xf32, strided<[?, ?, ?], offset: ?>>
    %alloc_129 = memref.alloc() {alignment = 64 : i64} : memref<1x40x4096xf32>
    linalg.generic {indexing_maps = [#map14, #map13, #map3], iterator_types = ["parallel", "parallel", "parallel"]} ins(%expand_shape_128, %alloc_127 : memref<1x1x4096xf32, strided<[?, ?, ?], offset: ?>>, memref<1x40x4096xf32>) outs(%alloc_129 : memref<1x40x4096xf32>) {
    ^bb0(%in: f32, %in_3451: f32, %out: f32):
      %371 = arith.mulf %in, %in_3451 : f32
      linalg.yield %371 : f32
    }
    %alloc_130 = memref.alloc() {alignment = 64 : i64} : memref<4096x4096xf32>
    linalg.generic {indexing_maps = [#map15, #map1], iterator_types = ["parallel", "parallel"]} ins(%341 : memref<4096x4096xf32, strided<[?, ?], offset: ?>>) outs(%alloc_130 : memref<4096x4096xf32>) {
    ^bb0(%in: f32, %out: f32):
      linalg.yield %in : f32
    }
    %collapse_shape_131 = memref.collapse_shape %alloc_129 [[0, 1], [2]] : memref<1x40x4096xf32> into memref<40x4096xf32>
    %alloc_132 = memref.alloc() {alignment = 64 : i64} : memref<40x4096xf32>
    memref.copy %359, %alloc_132 : memref<40x4096xf32> to memref<40x4096xf32>
    linalg.matmul {cast = #linalg.type_fn<cast_signed>} ins(%collapse_shape_131, %alloc_130 : memref<40x4096xf32>, memref<4096x4096xf32>) outs(%alloc_132 : memref<40x4096xf32>)
    %alloc_133 = memref.alloc() {alignment = 64 : i64} : memref<4096x4096xf32>
    linalg.generic {indexing_maps = [#map15, #map1], iterator_types = ["parallel", "parallel"]} ins(%340 : memref<4096x4096xf32, strided<[?, ?], offset: ?>>) outs(%alloc_133 : memref<4096x4096xf32>) {
    ^bb0(%in: f32, %out: f32):
      linalg.yield %in : f32
    }
    %collapse_shape_134 = memref.collapse_shape %alloc_129 [[0, 1], [2]] : memref<1x40x4096xf32> into memref<40x4096xf32>
    %alloc_135 = memref.alloc() {alignment = 64 : i64} : memref<40x4096xf32>
    memref.copy %359, %alloc_135 : memref<40x4096xf32> to memref<40x4096xf32>
    linalg.matmul {cast = #linalg.type_fn<cast_signed>} ins(%collapse_shape_134, %alloc_133 : memref<40x4096xf32>, memref<4096x4096xf32>) outs(%alloc_135 : memref<40x4096xf32>)
    %alloc_136 = memref.alloc() {alignment = 64 : i64} : memref<4096x4096xf32>
    linalg.generic {indexing_maps = [#map15, #map1], iterator_types = ["parallel", "parallel"]} ins(%339 : memref<4096x4096xf32, strided<[?, ?], offset: ?>>) outs(%alloc_136 : memref<4096x4096xf32>) {
    ^bb0(%in: f32, %out: f32):
      linalg.yield %in : f32
    }
    %collapse_shape_137 = memref.collapse_shape %alloc_129 [[0, 1], [2]] : memref<1x40x4096xf32> into memref<40x4096xf32>
    %alloc_138 = memref.alloc() {alignment = 64 : i64} : memref<40x4096xf32>
    memref.copy %359, %alloc_138 : memref<40x4096xf32> to memref<40x4096xf32>
    linalg.matmul {cast = #linalg.type_fn<cast_signed>} ins(%collapse_shape_137, %alloc_136 : memref<40x4096xf32>, memref<4096x4096xf32>) outs(%alloc_138 : memref<40x4096xf32>)
    %expand_shape_139 = memref.expand_shape %alloc_132 [[0, 1], [2, 3]] : memref<40x4096xf32> into memref<1x40x32x128xf32>
    %alloc_140 = memref.alloc() {alignment = 64 : i64} : memref<1x32x40x128xf32>
    linalg.generic {indexing_maps = [#map16, #map9], iterator_types = ["parallel", "parallel", "parallel", "parallel"]} ins(%expand_shape_139 : memref<1x40x32x128xf32>) outs(%alloc_140 : memref<1x32x40x128xf32>) {
    ^bb0(%in: f32, %out: f32):
      linalg.yield %in : f32
    }
    %expand_shape_141 = memref.expand_shape %alloc_135 [[0, 1], [2, 3]] : memref<40x4096xf32> into memref<1x40x32x128xf32>
    %alloc_142 = memref.alloc() {alignment = 64 : i64} : memref<1x32x40x128xf32>
    linalg.generic {indexing_maps = [#map16, #map9], iterator_types = ["parallel", "parallel", "parallel", "parallel"]} ins(%expand_shape_141 : memref<1x40x32x128xf32>) outs(%alloc_142 : memref<1x32x40x128xf32>) {
    ^bb0(%in: f32, %out: f32):
      linalg.yield %in : f32
    }
    %expand_shape_143 = memref.expand_shape %alloc_138 [[0, 1], [2, 3]] : memref<40x4096xf32> into memref<1x40x32x128xf32>
    %alloc_144 = memref.alloc() {alignment = 64 : i64} : memref<1x32x40x128xf32>
    linalg.generic {indexing_maps = [#map16, #map9], iterator_types = ["parallel", "parallel", "parallel", "parallel"]} ins(%expand_shape_143 : memref<1x40x32x128xf32>) outs(%alloc_144 : memref<1x32x40x128xf32>) {
    ^bb0(%in: f32, %out: f32):
      linalg.yield %in : f32
    }
    %subview_145 = memref.subview %338[0, 0, 0, 0] [1, 1, 40, 128] [1, 1, 1, 1] : memref<1x1x2048x128xf32, strided<[?, ?, ?, ?], offset: ?>> to memref<1x1x40x128xf32, strided<[?, ?, ?, ?], offset: ?>>
    %subview_146 = memref.subview %337[0, 0, 0, 0] [1, 1, 40, 128] [1, 1, 1, 1] : memref<1x1x2048x128xf32, strided<[?, ?, ?, ?], offset: ?>> to memref<1x1x40x128xf32, strided<[?, ?, ?, ?], offset: ?>>
    %alloc_147 = memref.alloc() {alignment = 64 : i64} : memref<1x40x128xf32>
    linalg.generic {indexing_maps = [#map17, #map3], iterator_types = ["parallel", "parallel", "parallel"]} ins(%subview_145 : memref<1x1x40x128xf32, strided<[?, ?, ?, ?], offset: ?>>) outs(%alloc_147 : memref<1x40x128xf32>) {
    ^bb0(%in: f32, %out: f32):
      linalg.yield %in : f32
    }
    %alloc_148 = memref.alloc() {alignment = 64 : i64} : memref<40x128xf32>
    linalg.generic {indexing_maps = [#map18, #map1], iterator_types = ["parallel", "parallel"]} ins(%alloc_147 : memref<1x40x128xf32>) outs(%alloc_148 : memref<40x128xf32>) {
    ^bb0(%in: f32, %out: f32):
      linalg.yield %in : f32
    }
    %alloc_149 = memref.alloc() {alignment = 64 : i64} : memref<1x40x128xf32>
    linalg.generic {indexing_maps = [#map17, #map3], iterator_types = ["parallel", "parallel", "parallel"]} ins(%subview_146 : memref<1x1x40x128xf32, strided<[?, ?, ?, ?], offset: ?>>) outs(%alloc_149 : memref<1x40x128xf32>) {
    ^bb0(%in: f32, %out: f32):
      linalg.yield %in : f32
    }
    %alloc_150 = memref.alloc() {alignment = 64 : i64} : memref<40x128xf32>
    linalg.generic {indexing_maps = [#map18, #map1], iterator_types = ["parallel", "parallel"]} ins(%alloc_149 : memref<1x40x128xf32>) outs(%alloc_150 : memref<40x128xf32>) {
    ^bb0(%in: f32, %out: f32):
      linalg.yield %in : f32
    }
    %alloc_151 = memref.alloc() {alignment = 64 : i64} : memref<1x40x128xf32>
    linalg.generic {indexing_maps = [#map2, #map3], iterator_types = ["parallel", "parallel", "parallel"]} ins(%368 : memref<1x40xi64>) outs(%alloc_151 : memref<1x40x128xf32>) {
    ^bb0(%in: i64, %out: f32):
      %371 = arith.index_cast %in : i64 to index
      %372 = linalg.index 2 : index
      %373 = memref.load %alloc_148[%371, %372] : memref<40x128xf32>
      linalg.yield %373 : f32
    }
    %expand_shape_152 = memref.expand_shape %alloc_151 [[0, 1], [2], [3]] : memref<1x40x128xf32> into memref<1x1x40x128xf32>
    %alloc_153 = memref.alloc() {alignment = 64 : i64} : memref<1x40x128xf32>
    linalg.generic {indexing_maps = [#map2, #map3], iterator_types = ["parallel", "parallel", "parallel"]} ins(%368 : memref<1x40xi64>) outs(%alloc_153 : memref<1x40x128xf32>) {
    ^bb0(%in: i64, %out: f32):
      %371 = arith.index_cast %in : i64 to index
      %372 = linalg.index 2 : index
      %373 = memref.load %alloc_150[%371, %372] : memref<40x128xf32>
      linalg.yield %373 : f32
    }
    %expand_shape_154 = memref.expand_shape %alloc_153 [[0, 1], [2], [3]] : memref<1x40x128xf32> into memref<1x1x40x128xf32>
    %alloc_155 = memref.alloc() {alignment = 64 : i64} : memref<1x32x40x128xf32>
    linalg.generic {indexing_maps = [#map19, #map8, #map9], iterator_types = ["parallel", "parallel", "parallel", "parallel"]} ins(%alloc_140, %expand_shape_152 : memref<1x32x40x128xf32>, memref<1x1x40x128xf32>) outs(%alloc_155 : memref<1x32x40x128xf32>) {
    ^bb0(%in: f32, %in_3451: f32, %out: f32):
      %371 = arith.mulf %in, %in_3451 : f32
      linalg.yield %371 : f32
    }
    %subview_156 = memref.subview %alloc_140[0, 0, 0, 0] [1, 32, 40, 64] [1, 1, 1, 1] : memref<1x32x40x128xf32> to memref<1x32x40x64xf32, strided<[163840, 5120, 128, 1]>>
    %subview_157 = memref.subview %alloc_140[0, 0, 0, 64] [1, 32, 40, 64] [1, 1, 1, 1] : memref<1x32x40x128xf32> to memref<1x32x40x64xf32, strided<[163840, 5120, 128, 1], offset: 64>>
    %alloc_158 = memref.alloc() {alignment = 64 : i64} : memref<1x32x40x64xf32>
    linalg.generic {indexing_maps = [#map19, #map9], iterator_types = ["parallel", "parallel", "parallel", "parallel"]} ins(%subview_157 : memref<1x32x40x64xf32, strided<[163840, 5120, 128, 1], offset: 64>>) outs(%alloc_158 : memref<1x32x40x64xf32>) {
    ^bb0(%in: f32, %out: f32):
      %371 = arith.negf %in : f32
      linalg.yield %371 : f32
    }
    %alloc_159 = memref.alloc() {alignment = 64 : i64} : memref<1x32x40x128xf32>
    %subview_160 = memref.subview %alloc_159[0, 0, 0, 0] [1, 32, 40, 64] [1, 1, 1, 1] : memref<1x32x40x128xf32> to memref<1x32x40x64xf32, strided<[163840, 5120, 128, 1]>>
    memref.copy %alloc_158, %subview_160 : memref<1x32x40x64xf32> to memref<1x32x40x64xf32, strided<[163840, 5120, 128, 1]>>
    %subview_161 = memref.subview %alloc_159[0, 0, 0, 64] [1, 32, 40, 64] [1, 1, 1, 1] : memref<1x32x40x128xf32> to memref<1x32x40x64xf32, strided<[163840, 5120, 128, 1], offset: 64>>
    memref.copy %subview_156, %subview_161 : memref<1x32x40x64xf32, strided<[163840, 5120, 128, 1]>> to memref<1x32x40x64xf32, strided<[163840, 5120, 128, 1], offset: 64>>
    %alloc_162 = memref.alloc() {alignment = 64 : i64} : memref<1x32x40x128xf32>
    linalg.generic {indexing_maps = [#map19, #map8, #map9], iterator_types = ["parallel", "parallel", "parallel", "parallel"]} ins(%alloc_159, %expand_shape_154 : memref<1x32x40x128xf32>, memref<1x1x40x128xf32>) outs(%alloc_162 : memref<1x32x40x128xf32>) {
    ^bb0(%in: f32, %in_3451: f32, %out: f32):
      %371 = arith.mulf %in, %in_3451 : f32
      linalg.yield %371 : f32
    }
    %alloc_163 = memref.alloc() {alignment = 64 : i64} : memref<1x32x40x128xf32>
    linalg.generic {indexing_maps = [#map19, #map19, #map9], iterator_types = ["parallel", "parallel", "parallel", "parallel"]} ins(%alloc_155, %alloc_162 : memref<1x32x40x128xf32>, memref<1x32x40x128xf32>) outs(%alloc_163 : memref<1x32x40x128xf32>) {
    ^bb0(%in: f32, %in_3451: f32, %out: f32):
      %371 = arith.addf %in, %in_3451 : f32
      linalg.yield %371 : f32
    }
    %alloc_164 = memref.alloc() {alignment = 64 : i64} : memref<1x32x40x128xf32>
    linalg.generic {indexing_maps = [#map19, #map8, #map9], iterator_types = ["parallel", "parallel", "parallel", "parallel"]} ins(%alloc_142, %expand_shape_152 : memref<1x32x40x128xf32>, memref<1x1x40x128xf32>) outs(%alloc_164 : memref<1x32x40x128xf32>) {
    ^bb0(%in: f32, %in_3451: f32, %out: f32):
      %371 = arith.mulf %in, %in_3451 : f32
      linalg.yield %371 : f32
    }
    %subview_165 = memref.subview %alloc_142[0, 0, 0, 0] [1, 32, 40, 64] [1, 1, 1, 1] : memref<1x32x40x128xf32> to memref<1x32x40x64xf32, strided<[163840, 5120, 128, 1]>>
    %subview_166 = memref.subview %alloc_142[0, 0, 0, 64] [1, 32, 40, 64] [1, 1, 1, 1] : memref<1x32x40x128xf32> to memref<1x32x40x64xf32, strided<[163840, 5120, 128, 1], offset: 64>>
    %alloc_167 = memref.alloc() {alignment = 64 : i64} : memref<1x32x40x64xf32>
    linalg.generic {indexing_maps = [#map19, #map9], iterator_types = ["parallel", "parallel", "parallel", "parallel"]} ins(%subview_166 : memref<1x32x40x64xf32, strided<[163840, 5120, 128, 1], offset: 64>>) outs(%alloc_167 : memref<1x32x40x64xf32>) {
    ^bb0(%in: f32, %out: f32):
      %371 = arith.negf %in : f32
      linalg.yield %371 : f32
    }
    %alloc_168 = memref.alloc() {alignment = 64 : i64} : memref<1x32x40x128xf32>
    %subview_169 = memref.subview %alloc_168[0, 0, 0, 0] [1, 32, 40, 64] [1, 1, 1, 1] : memref<1x32x40x128xf32> to memref<1x32x40x64xf32, strided<[163840, 5120, 128, 1]>>
    memref.copy %alloc_167, %subview_169 : memref<1x32x40x64xf32> to memref<1x32x40x64xf32, strided<[163840, 5120, 128, 1]>>
    %subview_170 = memref.subview %alloc_168[0, 0, 0, 64] [1, 32, 40, 64] [1, 1, 1, 1] : memref<1x32x40x128xf32> to memref<1x32x40x64xf32, strided<[163840, 5120, 128, 1], offset: 64>>
    memref.copy %subview_165, %subview_170 : memref<1x32x40x64xf32, strided<[163840, 5120, 128, 1]>> to memref<1x32x40x64xf32, strided<[163840, 5120, 128, 1], offset: 64>>
    %alloc_171 = memref.alloc() {alignment = 64 : i64} : memref<1x32x40x128xf32>
    linalg.generic {indexing_maps = [#map19, #map8, #map9], iterator_types = ["parallel", "parallel", "parallel", "parallel"]} ins(%alloc_168, %expand_shape_154 : memref<1x32x40x128xf32>, memref<1x1x40x128xf32>) outs(%alloc_171 : memref<1x32x40x128xf32>) {
    ^bb0(%in: f32, %in_3451: f32, %out: f32):
      %371 = arith.mulf %in, %in_3451 : f32
      linalg.yield %371 : f32
    }
    %alloc_172 = memref.alloc() {alignment = 64 : i64} : memref<1x32x40x128xf32>
    linalg.generic {indexing_maps = [#map19, #map19, #map9], iterator_types = ["parallel", "parallel", "parallel", "parallel"]} ins(%alloc_164, %alloc_171 : memref<1x32x40x128xf32>, memref<1x32x40x128xf32>) outs(%alloc_172 : memref<1x32x40x128xf32>) {
    ^bb0(%in: f32, %in_3451: f32, %out: f32):
      %371 = arith.addf %in, %in_3451 : f32
      linalg.yield %371 : f32
    }
    %alloc_173 = memref.alloc() {alignment = 64 : i64} : memref<1x32x128x40xf32>
    linalg.generic {indexing_maps = [#map20, #map9], iterator_types = ["parallel", "parallel", "parallel", "parallel"]} ins(%alloc_172 : memref<1x32x40x128xf32>) outs(%alloc_173 : memref<1x32x128x40xf32>) {
    ^bb0(%in: f32, %out: f32):
      linalg.yield %in : f32
    }
    %collapse_shape_174 = memref.collapse_shape %alloc_163 [[0, 1], [2], [3]] : memref<1x32x40x128xf32> into memref<32x40x128xf32>
    %collapse_shape_175 = memref.collapse_shape %alloc_173 [[0, 1], [2], [3]] : memref<1x32x128x40xf32> into memref<32x128x40xf32>
    %alloc_176 = memref.alloc() {alignment = 64 : i64} : memref<32x40x40xf32>
    linalg.fill ins(%cst_1 : f32) outs(%alloc_176 : memref<32x40x40xf32>)
    linalg.batch_matmul ins(%collapse_shape_174, %collapse_shape_175 : memref<32x40x128xf32>, memref<32x128x40xf32>) outs(%alloc_176 : memref<32x40x40xf32>)
    %expand_shape_177 = memref.expand_shape %alloc_176 [[0, 1], [2], [3]] : memref<32x40x40xf32> into memref<1x32x40x40xf32>
    %alloc_178 = memref.alloc() {alignment = 64 : i64} : memref<1x32x40x40xf32>
    linalg.generic {indexing_maps = [#map19, #map9], iterator_types = ["parallel", "parallel", "parallel", "parallel"]} ins(%358 : memref<1x32x40x40xf32>) outs(%alloc_178 : memref<1x32x40x40xf32>) {
    ^bb0(%in: f32, %out: f32):
      %371 = arith.divf %cst, %in : f32
      linalg.yield %371 : f32
    }
    %alloc_179 = memref.alloc() {alignment = 64 : i64} : memref<1x32x40x40xf32>
    linalg.generic {indexing_maps = [#map19, #map19, #map9], iterator_types = ["parallel", "parallel", "parallel", "parallel"]} ins(%expand_shape_177, %alloc_178 : memref<1x32x40x40xf32>, memref<1x32x40x40xf32>) outs(%alloc_179 : memref<1x32x40x40xf32>) {
    ^bb0(%in: f32, %in_3451: f32, %out: f32):
      %371 = arith.mulf %in, %in_3451 : f32
      linalg.yield %371 : f32
    }
    %alloc_180 = memref.alloc() {alignment = 64 : i64} : memref<1x32x40x40xf32>
    linalg.generic {indexing_maps = [#map19, #map8, #map9], iterator_types = ["parallel", "parallel", "parallel", "parallel"]} ins(%alloc_179, %alloc_13 : memref<1x32x40x40xf32>, memref<1x1x40x40xf32>) outs(%alloc_180 : memref<1x32x40x40xf32>) {
    ^bb0(%in: f32, %in_3451: f32, %out: f32):
      %371 = arith.addf %in, %in_3451 : f32
      linalg.yield %371 : f32
    }
    %alloc_181 = memref.alloc() {alignment = 64 : i64} : memref<1x32x40xf32>
    linalg.fill ins(%cst_0 : f32) outs(%alloc_181 : memref<1x32x40xf32>)
    linalg.reduce ins(%alloc_180 : memref<1x32x40x40xf32>) outs(%alloc_181 : memref<1x32x40xf32>) dimensions = [3] 
      (%in: f32, %init: f32) {
        %371 = arith.cmpf ugt, %in, %init : f32
        %372 = arith.select %371, %in, %init : f32
        %373 = arith.cmpf uno, %init, %init : f32
        %374 = arith.select %373, %init, %372 : f32
        linalg.yield %374 : f32
      }
    %expand_shape_182 = memref.expand_shape %alloc_181 [[0], [1], [2, 3]] : memref<1x32x40xf32> into memref<1x32x40x1xf32>
    %alloc_183 = memref.alloc() {alignment = 64 : i64} : memref<1x32x40x40xf32>
    linalg.generic {indexing_maps = [#map19, #map21, #map9], iterator_types = ["parallel", "parallel", "parallel", "parallel"]} ins(%alloc_180, %expand_shape_182 : memref<1x32x40x40xf32>, memref<1x32x40x1xf32>) outs(%alloc_183 : memref<1x32x40x40xf32>) {
    ^bb0(%in: f32, %in_3451: f32, %out: f32):
      %371 = arith.subf %in, %in_3451 : f32
      linalg.yield %371 : f32
    }
    %alloc_184 = memref.alloc() {alignment = 64 : i64} : memref<1x32x40x40xf32>
    linalg.generic {indexing_maps = [#map19, #map9], iterator_types = ["parallel", "parallel", "parallel", "parallel"]} ins(%alloc_183 : memref<1x32x40x40xf32>) outs(%alloc_184 : memref<1x32x40x40xf32>) {
    ^bb0(%in: f32, %out: f32):
      %371 = math.exp %in : f32
      linalg.yield %371 : f32
    }
    %alloc_185 = memref.alloc() {alignment = 64 : i64} : memref<1x32x40xf32>
    linalg.fill ins(%cst_1 : f32) outs(%alloc_185 : memref<1x32x40xf32>)
    linalg.reduce ins(%alloc_184 : memref<1x32x40x40xf32>) outs(%alloc_185 : memref<1x32x40xf32>) dimensions = [3] 
      (%in: f32, %init: f32) {
        %371 = arith.addf %in, %init : f32
        linalg.yield %371 : f32
      }
    %expand_shape_186 = memref.expand_shape %alloc_185 [[0], [1], [2, 3]] : memref<1x32x40xf32> into memref<1x32x40x1xf32>
    %alloc_187 = memref.alloc() {alignment = 64 : i64} : memref<1x32x40x1xf32>
    linalg.generic {indexing_maps = [#map21, #map9], iterator_types = ["parallel", "parallel", "parallel", "parallel"]} ins(%expand_shape_186 : memref<1x32x40x1xf32>) outs(%alloc_187 : memref<1x32x40x1xf32>) {
    ^bb0(%in: f32, %out: f32):
      %371 = arith.divf %cst, %in : f32
      linalg.yield %371 : f32
    }
    %alloc_188 = memref.alloc() {alignment = 64 : i64} : memref<1x32x40x40xf32>
    linalg.generic {indexing_maps = [#map19, #map21, #map9], iterator_types = ["parallel", "parallel", "parallel", "parallel"]} ins(%alloc_184, %alloc_187 : memref<1x32x40x40xf32>, memref<1x32x40x1xf32>) outs(%alloc_188 : memref<1x32x40x40xf32>) {
    ^bb0(%in: f32, %in_3451: f32, %out: f32):
      %371 = arith.mulf %in, %in_3451 : f32
      linalg.yield %371 : f32
    }
    %collapse_shape_189 = memref.collapse_shape %alloc_188 [[0, 1], [2], [3]] : memref<1x32x40x40xf32> into memref<32x40x40xf32>
    %collapse_shape_190 = memref.collapse_shape %alloc_144 [[0, 1], [2], [3]] : memref<1x32x40x128xf32> into memref<32x40x128xf32>
    %alloc_191 = memref.alloc() {alignment = 64 : i64} : memref<32x40x128xf32>
    linalg.fill ins(%cst_1 : f32) outs(%alloc_191 : memref<32x40x128xf32>)
    linalg.batch_matmul ins(%collapse_shape_189, %collapse_shape_190 : memref<32x40x40xf32>, memref<32x40x128xf32>) outs(%alloc_191 : memref<32x40x128xf32>)
    %expand_shape_192 = memref.expand_shape %alloc_191 [[0, 1], [2], [3]] : memref<32x40x128xf32> into memref<1x32x40x128xf32>
    %alloc_193 = memref.alloc() {alignment = 64 : i64} : memref<1x40x32x128xf32>
    linalg.generic {indexing_maps = [#map16, #map9], iterator_types = ["parallel", "parallel", "parallel", "parallel"]} ins(%expand_shape_192 : memref<1x32x40x128xf32>) outs(%alloc_193 : memref<1x40x32x128xf32>) {
    ^bb0(%in: f32, %out: f32):
      linalg.yield %in : f32
    }
    %alloc_194 = memref.alloc() {alignment = 64 : i64} : memref<4096x4096xf32>
    linalg.generic {indexing_maps = [#map15, #map1], iterator_types = ["parallel", "parallel"]} ins(%336 : memref<4096x4096xf32, strided<[?, ?], offset: ?>>) outs(%alloc_194 : memref<4096x4096xf32>) {
    ^bb0(%in: f32, %out: f32):
      linalg.yield %in : f32
    }
    %collapse_shape_195 = memref.collapse_shape %alloc_193 [[0, 1], [2, 3]] : memref<1x40x32x128xf32> into memref<40x4096xf32>
    %alloc_196 = memref.alloc() {alignment = 64 : i64} : memref<40x4096xf32>
    memref.copy %359, %alloc_196 : memref<40x4096xf32> to memref<40x4096xf32>
    linalg.matmul {cast = #linalg.type_fn<cast_signed>} ins(%collapse_shape_195, %alloc_194 : memref<40x4096xf32>, memref<4096x4096xf32>) outs(%alloc_196 : memref<40x4096xf32>)
    %expand_shape_197 = memref.expand_shape %alloc_196 [[0, 1], [2]] : memref<40x4096xf32> into memref<1x40x4096xf32>
    %alloc_198 = memref.alloc() {alignment = 64 : i64} : memref<1x40x4096xf32>
    linalg.generic {indexing_maps = [#map13, #map13, #map3], iterator_types = ["parallel", "parallel", "parallel"]} ins(%alloc_118, %expand_shape_197 : memref<1x40x4096xf32>, memref<1x40x4096xf32>) outs(%alloc_198 : memref<1x40x4096xf32>) {
    ^bb0(%in: f32, %in_3451: f32, %out: f32):
      %371 = arith.addf %in, %in_3451 : f32
      linalg.yield %371 : f32
    }
    %alloc_199 = memref.alloc() {alignment = 64 : i64} : memref<1x40x4096xf32>
    linalg.generic {indexing_maps = [#map3, #map3], iterator_types = ["parallel", "parallel", "parallel"]} ins(%alloc_198 : memref<1x40x4096xf32>) outs(%alloc_199 : memref<1x40x4096xf32>) {
    ^bb0(%in: f32, %out: f32):
      %371 = math.fpowi %in, %c2_i32 : f32, i32
      linalg.yield %371 : f32
    }
    %alloc_200 = memref.alloc() {alignment = 64 : i64} : memref<1x40xf32>
    linalg.fill ins(%cst_1 : f32) outs(%alloc_200 : memref<1x40xf32>)
    linalg.reduce ins(%alloc_199 : memref<1x40x4096xf32>) outs(%alloc_200 : memref<1x40xf32>) dimensions = [2] 
      (%in: f32, %init: f32) {
        %371 = arith.addf %in, %init : f32
        linalg.yield %371 : f32
      }
    %expand_shape_201 = memref.expand_shape %alloc_200 [[0], [1, 2]] : memref<1x40xf32> into memref<1x40x1xf32>
    %alloc_202 = memref.alloc() {alignment = 64 : i64} : memref<1xf32>
    linalg.generic {indexing_maps = [#map10, #map4], iterator_types = ["parallel"]} ins(%361 : memref<1xf32>) outs(%alloc_202 : memref<1xf32>) {
    ^bb0(%in: f32, %out: f32):
      %371 = arith.divf %cst, %in : f32
      linalg.yield %371 : f32
    }
    %expand_shape_203 = memref.expand_shape %alloc_202 [[0, 1, 2]] : memref<1xf32> into memref<1x1x1xf32>
    %alloc_204 = memref.alloc() {alignment = 64 : i64} : memref<1x40x1xf32>
    linalg.generic {indexing_maps = [#map11, #map12, #map3], iterator_types = ["parallel", "parallel", "parallel"]} ins(%expand_shape_203, %expand_shape_201 : memref<1x1x1xf32>, memref<1x40x1xf32>) outs(%alloc_204 : memref<1x40x1xf32>) {
    ^bb0(%in: f32, %in_3451: f32, %out: f32):
      %371 = arith.mulf %in, %in_3451 : f32
      linalg.yield %371 : f32
    }
    %alloc_205 = memref.alloc() {alignment = 64 : i64} : memref<1x40x1xf32>
    linalg.generic {indexing_maps = [#map12, #map12, #map3], iterator_types = ["parallel", "parallel", "parallel"]} ins(%alloc_204, %360 : memref<1x40x1xf32>, memref<1x40x1xf32>) outs(%alloc_205 : memref<1x40x1xf32>) {
    ^bb0(%in: f32, %in_3451: f32, %out: f32):
      %371 = arith.addf %in, %in_3451 : f32
      linalg.yield %371 : f32
    }
    %alloc_206 = memref.alloc() {alignment = 64 : i64} : memref<1x40x1xf32>
    linalg.generic {indexing_maps = [#map12, #map3], iterator_types = ["parallel", "parallel", "parallel"]} ins(%alloc_205 : memref<1x40x1xf32>) outs(%alloc_206 : memref<1x40x1xf32>) {
    ^bb0(%in: f32, %out: f32):
      %371 = math.rsqrt %in : f32
      linalg.yield %371 : f32
    }
    %alloc_207 = memref.alloc() {alignment = 64 : i64} : memref<1x40x4096xf32>
    linalg.generic {indexing_maps = [#map13, #map12, #map3], iterator_types = ["parallel", "parallel", "parallel"]} ins(%alloc_198, %alloc_206 : memref<1x40x4096xf32>, memref<1x40x1xf32>) outs(%alloc_207 : memref<1x40x4096xf32>) {
    ^bb0(%in: f32, %in_3451: f32, %out: f32):
      %371 = arith.mulf %in, %in_3451 : f32
      linalg.yield %371 : f32
    }
    %expand_shape_208 = memref.expand_shape %335 [[0, 1, 2]] : memref<4096xf32, strided<[?], offset: ?>> into memref<1x1x4096xf32, strided<[?, ?, ?], offset: ?>>
    %alloc_209 = memref.alloc() {alignment = 64 : i64} : memref<1x40x4096xf32>
    linalg.generic {indexing_maps = [#map14, #map13, #map3], iterator_types = ["parallel", "parallel", "parallel"]} ins(%expand_shape_208, %alloc_207 : memref<1x1x4096xf32, strided<[?, ?, ?], offset: ?>>, memref<1x40x4096xf32>) outs(%alloc_209 : memref<1x40x4096xf32>) {
    ^bb0(%in: f32, %in_3451: f32, %out: f32):
      %371 = arith.mulf %in, %in_3451 : f32
      linalg.yield %371 : f32
    }
    %alloc_210 = memref.alloc() {alignment = 64 : i64} : memref<4096x11008xf32>
    linalg.generic {indexing_maps = [#map15, #map1], iterator_types = ["parallel", "parallel"]} ins(%334 : memref<11008x4096xf32, strided<[?, ?], offset: ?>>) outs(%alloc_210 : memref<4096x11008xf32>) {
    ^bb0(%in: f32, %out: f32):
      linalg.yield %in : f32
    }
    %collapse_shape_211 = memref.collapse_shape %alloc_209 [[0, 1], [2]] : memref<1x40x4096xf32> into memref<40x4096xf32>
    %alloc_212 = memref.alloc() {alignment = 64 : i64} : memref<40x11008xf32>
    memref.copy %357, %alloc_212 : memref<40x11008xf32> to memref<40x11008xf32>
    linalg.matmul {cast = #linalg.type_fn<cast_signed>} ins(%collapse_shape_211, %alloc_210 : memref<40x4096xf32>, memref<4096x11008xf32>) outs(%alloc_212 : memref<40x11008xf32>)
    %expand_shape_213 = memref.expand_shape %alloc_212 [[0, 1], [2]] : memref<40x11008xf32> into memref<1x40x11008xf32>
    %alloc_214 = memref.alloc() {alignment = 64 : i64} : memref<1x40x11008xf32>
    linalg.generic {indexing_maps = [#map13, #map3], iterator_types = ["parallel", "parallel", "parallel"]} ins(%expand_shape_213 : memref<1x40x11008xf32>) outs(%alloc_214 : memref<1x40x11008xf32>) {
    ^bb0(%in: f32, %out: f32):
      %371 = arith.negf %in : f32
      %372 = math.exp %371 : f32
      %373 = arith.addf %372, %cst : f32
      %374 = arith.divf %cst, %373 : f32
      linalg.yield %374 : f32
    }
    %alloc_215 = memref.alloc() {alignment = 64 : i64} : memref<1x40x11008xf32>
    linalg.generic {indexing_maps = [#map13, #map13, #map3], iterator_types = ["parallel", "parallel", "parallel"]} ins(%expand_shape_213, %alloc_214 : memref<1x40x11008xf32>, memref<1x40x11008xf32>) outs(%alloc_215 : memref<1x40x11008xf32>) {
    ^bb0(%in: f32, %in_3451: f32, %out: f32):
      %371 = arith.mulf %in, %in_3451 : f32
      linalg.yield %371 : f32
    }
    %alloc_216 = memref.alloc() {alignment = 64 : i64} : memref<4096x11008xf32>
    linalg.generic {indexing_maps = [#map15, #map1], iterator_types = ["parallel", "parallel"]} ins(%333 : memref<11008x4096xf32, strided<[?, ?], offset: ?>>) outs(%alloc_216 : memref<4096x11008xf32>) {
    ^bb0(%in: f32, %out: f32):
      linalg.yield %in : f32
    }
    %collapse_shape_217 = memref.collapse_shape %alloc_209 [[0, 1], [2]] : memref<1x40x4096xf32> into memref<40x4096xf32>
    %alloc_218 = memref.alloc() {alignment = 64 : i64} : memref<40x11008xf32>
    memref.copy %357, %alloc_218 : memref<40x11008xf32> to memref<40x11008xf32>
    linalg.matmul {cast = #linalg.type_fn<cast_signed>} ins(%collapse_shape_217, %alloc_216 : memref<40x4096xf32>, memref<4096x11008xf32>) outs(%alloc_218 : memref<40x11008xf32>)
    %expand_shape_219 = memref.expand_shape %alloc_218 [[0, 1], [2]] : memref<40x11008xf32> into memref<1x40x11008xf32>
    %alloc_220 = memref.alloc() {alignment = 64 : i64} : memref<1x40x11008xf32>
    linalg.generic {indexing_maps = [#map13, #map13, #map3], iterator_types = ["parallel", "parallel", "parallel"]} ins(%alloc_215, %expand_shape_219 : memref<1x40x11008xf32>, memref<1x40x11008xf32>) outs(%alloc_220 : memref<1x40x11008xf32>) {
    ^bb0(%in: f32, %in_3451: f32, %out: f32):
      %371 = arith.mulf %in, %in_3451 : f32
      linalg.yield %371 : f32
    }
    %alloc_221 = memref.alloc() {alignment = 64 : i64} : memref<11008x4096xf32>
    linalg.generic {indexing_maps = [#map15, #map1], iterator_types = ["parallel", "parallel"]} ins(%332 : memref<4096x11008xf32, strided<[?, ?], offset: ?>>) outs(%alloc_221 : memref<11008x4096xf32>) {
    ^bb0(%in: f32, %out: f32):
      linalg.yield %in : f32
    }
    %collapse_shape_222 = memref.collapse_shape %alloc_220 [[0, 1], [2]] : memref<1x40x11008xf32> into memref<40x11008xf32>
    %alloc_223 = memref.alloc() {alignment = 64 : i64} : memref<40x4096xf32>
    memref.copy %359, %alloc_223 : memref<40x4096xf32> to memref<40x4096xf32>
    linalg.matmul {cast = #linalg.type_fn<cast_signed>} ins(%collapse_shape_222, %alloc_221 : memref<40x11008xf32>, memref<11008x4096xf32>) outs(%alloc_223 : memref<40x4096xf32>)
    %expand_shape_224 = memref.expand_shape %alloc_223 [[0, 1], [2]] : memref<40x4096xf32> into memref<1x40x4096xf32>
    %alloc_225 = memref.alloc() {alignment = 64 : i64} : memref<1x40x4096xf32>
    linalg.generic {indexing_maps = [#map13, #map13, #map3], iterator_types = ["parallel", "parallel", "parallel"]} ins(%alloc_198, %expand_shape_224 : memref<1x40x4096xf32>, memref<1x40x4096xf32>) outs(%alloc_225 : memref<1x40x4096xf32>) {
    ^bb0(%in: f32, %in_3451: f32, %out: f32):
      %371 = arith.addf %in, %in_3451 : f32
      linalg.yield %371 : f32
    }
    %alloc_226 = memref.alloc() {alignment = 64 : i64} : memref<1x40x4096xf32>
    linalg.generic {indexing_maps = [#map3, #map3], iterator_types = ["parallel", "parallel", "parallel"]} ins(%alloc_225 : memref<1x40x4096xf32>) outs(%alloc_226 : memref<1x40x4096xf32>) {
    ^bb0(%in: f32, %out: f32):
      %371 = math.fpowi %in, %c2_i32 : f32, i32
      linalg.yield %371 : f32
    }
    %alloc_227 = memref.alloc() {alignment = 64 : i64} : memref<1x40xf32>
    linalg.fill ins(%cst_1 : f32) outs(%alloc_227 : memref<1x40xf32>)
    linalg.reduce ins(%alloc_226 : memref<1x40x4096xf32>) outs(%alloc_227 : memref<1x40xf32>) dimensions = [2] 
      (%in: f32, %init: f32) {
        %371 = arith.addf %in, %init : f32
        linalg.yield %371 : f32
      }
    %expand_shape_228 = memref.expand_shape %alloc_227 [[0], [1, 2]] : memref<1x40xf32> into memref<1x40x1xf32>
    %alloc_229 = memref.alloc() {alignment = 64 : i64} : memref<1xf32>
    linalg.generic {indexing_maps = [#map10, #map4], iterator_types = ["parallel"]} ins(%361 : memref<1xf32>) outs(%alloc_229 : memref<1xf32>) {
    ^bb0(%in: f32, %out: f32):
      %371 = arith.divf %cst, %in : f32
      linalg.yield %371 : f32
    }
    %expand_shape_230 = memref.expand_shape %alloc_229 [[0, 1, 2]] : memref<1xf32> into memref<1x1x1xf32>
    %alloc_231 = memref.alloc() {alignment = 64 : i64} : memref<1x40x1xf32>
    linalg.generic {indexing_maps = [#map11, #map12, #map3], iterator_types = ["parallel", "parallel", "parallel"]} ins(%expand_shape_230, %expand_shape_228 : memref<1x1x1xf32>, memref<1x40x1xf32>) outs(%alloc_231 : memref<1x40x1xf32>) {
    ^bb0(%in: f32, %in_3451: f32, %out: f32):
      %371 = arith.mulf %in, %in_3451 : f32
      linalg.yield %371 : f32
    }
    %alloc_232 = memref.alloc() {alignment = 64 : i64} : memref<1x40x1xf32>
    linalg.generic {indexing_maps = [#map12, #map12, #map3], iterator_types = ["parallel", "parallel", "parallel"]} ins(%alloc_231, %360 : memref<1x40x1xf32>, memref<1x40x1xf32>) outs(%alloc_232 : memref<1x40x1xf32>) {
    ^bb0(%in: f32, %in_3451: f32, %out: f32):
      %371 = arith.addf %in, %in_3451 : f32
      linalg.yield %371 : f32
    }
    %alloc_233 = memref.alloc() {alignment = 64 : i64} : memref<1x40x1xf32>
    linalg.generic {indexing_maps = [#map12, #map3], iterator_types = ["parallel", "parallel", "parallel"]} ins(%alloc_232 : memref<1x40x1xf32>) outs(%alloc_233 : memref<1x40x1xf32>) {
    ^bb0(%in: f32, %out: f32):
      %371 = math.rsqrt %in : f32
      linalg.yield %371 : f32
    }
    %alloc_234 = memref.alloc() {alignment = 64 : i64} : memref<1x40x4096xf32>
    linalg.generic {indexing_maps = [#map13, #map12, #map3], iterator_types = ["parallel", "parallel", "parallel"]} ins(%alloc_225, %alloc_233 : memref<1x40x4096xf32>, memref<1x40x1xf32>) outs(%alloc_234 : memref<1x40x4096xf32>) {
    ^bb0(%in: f32, %in_3451: f32, %out: f32):
      %371 = arith.mulf %in, %in_3451 : f32
      linalg.yield %371 : f32
    }
    %expand_shape_235 = memref.expand_shape %331 [[0, 1, 2]] : memref<4096xf32, strided<[?], offset: ?>> into memref<1x1x4096xf32, strided<[?, ?, ?], offset: ?>>
    %alloc_236 = memref.alloc() {alignment = 64 : i64} : memref<1x40x4096xf32>
    linalg.generic {indexing_maps = [#map14, #map13, #map3], iterator_types = ["parallel", "parallel", "parallel"]} ins(%expand_shape_235, %alloc_234 : memref<1x1x4096xf32, strided<[?, ?, ?], offset: ?>>, memref<1x40x4096xf32>) outs(%alloc_236 : memref<1x40x4096xf32>) {
    ^bb0(%in: f32, %in_3451: f32, %out: f32):
      %371 = arith.mulf %in, %in_3451 : f32
      linalg.yield %371 : f32
    }
    %alloc_237 = memref.alloc() {alignment = 64 : i64} : memref<4096x4096xf32>
    linalg.generic {indexing_maps = [#map15, #map1], iterator_types = ["parallel", "parallel"]} ins(%330 : memref<4096x4096xf32, strided<[?, ?], offset: ?>>) outs(%alloc_237 : memref<4096x4096xf32>) {
    ^bb0(%in: f32, %out: f32):
      linalg.yield %in : f32
    }
    %collapse_shape_238 = memref.collapse_shape %alloc_236 [[0, 1], [2]] : memref<1x40x4096xf32> into memref<40x4096xf32>
    %alloc_239 = memref.alloc() {alignment = 64 : i64} : memref<40x4096xf32>
    memref.copy %359, %alloc_239 : memref<40x4096xf32> to memref<40x4096xf32>
    linalg.matmul {cast = #linalg.type_fn<cast_signed>} ins(%collapse_shape_238, %alloc_237 : memref<40x4096xf32>, memref<4096x4096xf32>) outs(%alloc_239 : memref<40x4096xf32>)
    %alloc_240 = memref.alloc() {alignment = 64 : i64} : memref<4096x4096xf32>
    linalg.generic {indexing_maps = [#map15, #map1], iterator_types = ["parallel", "parallel"]} ins(%329 : memref<4096x4096xf32, strided<[?, ?], offset: ?>>) outs(%alloc_240 : memref<4096x4096xf32>) {
    ^bb0(%in: f32, %out: f32):
      linalg.yield %in : f32
    }
    %collapse_shape_241 = memref.collapse_shape %alloc_236 [[0, 1], [2]] : memref<1x40x4096xf32> into memref<40x4096xf32>
    %alloc_242 = memref.alloc() {alignment = 64 : i64} : memref<40x4096xf32>
    memref.copy %359, %alloc_242 : memref<40x4096xf32> to memref<40x4096xf32>
    linalg.matmul {cast = #linalg.type_fn<cast_signed>} ins(%collapse_shape_241, %alloc_240 : memref<40x4096xf32>, memref<4096x4096xf32>) outs(%alloc_242 : memref<40x4096xf32>)
    %alloc_243 = memref.alloc() {alignment = 64 : i64} : memref<4096x4096xf32>
    linalg.generic {indexing_maps = [#map15, #map1], iterator_types = ["parallel", "parallel"]} ins(%328 : memref<4096x4096xf32, strided<[?, ?], offset: ?>>) outs(%alloc_243 : memref<4096x4096xf32>) {
    ^bb0(%in: f32, %out: f32):
      linalg.yield %in : f32
    }
    %collapse_shape_244 = memref.collapse_shape %alloc_236 [[0, 1], [2]] : memref<1x40x4096xf32> into memref<40x4096xf32>
    %alloc_245 = memref.alloc() {alignment = 64 : i64} : memref<40x4096xf32>
    memref.copy %359, %alloc_245 : memref<40x4096xf32> to memref<40x4096xf32>
    linalg.matmul {cast = #linalg.type_fn<cast_signed>} ins(%collapse_shape_244, %alloc_243 : memref<40x4096xf32>, memref<4096x4096xf32>) outs(%alloc_245 : memref<40x4096xf32>)
    %expand_shape_246 = memref.expand_shape %alloc_239 [[0, 1], [2, 3]] : memref<40x4096xf32> into memref<1x40x32x128xf32>
    %alloc_247 = memref.alloc() {alignment = 64 : i64} : memref<1x32x40x128xf32>
    linalg.generic {indexing_maps = [#map16, #map9], iterator_types = ["parallel", "parallel", "parallel", "parallel"]} ins(%expand_shape_246 : memref<1x40x32x128xf32>) outs(%alloc_247 : memref<1x32x40x128xf32>) {
    ^bb0(%in: f32, %out: f32):
      linalg.yield %in : f32
    }
    %expand_shape_248 = memref.expand_shape %alloc_242 [[0, 1], [2, 3]] : memref<40x4096xf32> into memref<1x40x32x128xf32>
    %alloc_249 = memref.alloc() {alignment = 64 : i64} : memref<1x32x40x128xf32>
    linalg.generic {indexing_maps = [#map16, #map9], iterator_types = ["parallel", "parallel", "parallel", "parallel"]} ins(%expand_shape_248 : memref<1x40x32x128xf32>) outs(%alloc_249 : memref<1x32x40x128xf32>) {
    ^bb0(%in: f32, %out: f32):
      linalg.yield %in : f32
    }
    %expand_shape_250 = memref.expand_shape %alloc_245 [[0, 1], [2, 3]] : memref<40x4096xf32> into memref<1x40x32x128xf32>
    %alloc_251 = memref.alloc() {alignment = 64 : i64} : memref<1x32x40x128xf32>
    linalg.generic {indexing_maps = [#map16, #map9], iterator_types = ["parallel", "parallel", "parallel", "parallel"]} ins(%expand_shape_250 : memref<1x40x32x128xf32>) outs(%alloc_251 : memref<1x32x40x128xf32>) {
    ^bb0(%in: f32, %out: f32):
      linalg.yield %in : f32
    }
    %subview_252 = memref.subview %327[0, 0, 0, 0] [1, 1, 40, 128] [1, 1, 1, 1] : memref<1x1x2048x128xf32, strided<[?, ?, ?, ?], offset: ?>> to memref<1x1x40x128xf32, strided<[?, ?, ?, ?], offset: ?>>
    %subview_253 = memref.subview %326[0, 0, 0, 0] [1, 1, 40, 128] [1, 1, 1, 1] : memref<1x1x2048x128xf32, strided<[?, ?, ?, ?], offset: ?>> to memref<1x1x40x128xf32, strided<[?, ?, ?, ?], offset: ?>>
    %alloc_254 = memref.alloc() {alignment = 64 : i64} : memref<1x40x128xf32>
    linalg.generic {indexing_maps = [#map17, #map3], iterator_types = ["parallel", "parallel", "parallel"]} ins(%subview_252 : memref<1x1x40x128xf32, strided<[?, ?, ?, ?], offset: ?>>) outs(%alloc_254 : memref<1x40x128xf32>) {
    ^bb0(%in: f32, %out: f32):
      linalg.yield %in : f32
    }
    %alloc_255 = memref.alloc() {alignment = 64 : i64} : memref<40x128xf32>
    linalg.generic {indexing_maps = [#map18, #map1], iterator_types = ["parallel", "parallel"]} ins(%alloc_254 : memref<1x40x128xf32>) outs(%alloc_255 : memref<40x128xf32>) {
    ^bb0(%in: f32, %out: f32):
      linalg.yield %in : f32
    }
    %alloc_256 = memref.alloc() {alignment = 64 : i64} : memref<1x40x128xf32>
    linalg.generic {indexing_maps = [#map17, #map3], iterator_types = ["parallel", "parallel", "parallel"]} ins(%subview_253 : memref<1x1x40x128xf32, strided<[?, ?, ?, ?], offset: ?>>) outs(%alloc_256 : memref<1x40x128xf32>) {
    ^bb0(%in: f32, %out: f32):
      linalg.yield %in : f32
    }
    %alloc_257 = memref.alloc() {alignment = 64 : i64} : memref<40x128xf32>
    linalg.generic {indexing_maps = [#map18, #map1], iterator_types = ["parallel", "parallel"]} ins(%alloc_256 : memref<1x40x128xf32>) outs(%alloc_257 : memref<40x128xf32>) {
    ^bb0(%in: f32, %out: f32):
      linalg.yield %in : f32
    }
    %alloc_258 = memref.alloc() {alignment = 64 : i64} : memref<1x40x128xf32>
    linalg.generic {indexing_maps = [#map2, #map3], iterator_types = ["parallel", "parallel", "parallel"]} ins(%368 : memref<1x40xi64>) outs(%alloc_258 : memref<1x40x128xf32>) {
    ^bb0(%in: i64, %out: f32):
      %371 = arith.index_cast %in : i64 to index
      %372 = linalg.index 2 : index
      %373 = memref.load %alloc_255[%371, %372] : memref<40x128xf32>
      linalg.yield %373 : f32
    }
    %expand_shape_259 = memref.expand_shape %alloc_258 [[0, 1], [2], [3]] : memref<1x40x128xf32> into memref<1x1x40x128xf32>
    %alloc_260 = memref.alloc() {alignment = 64 : i64} : memref<1x40x128xf32>
    linalg.generic {indexing_maps = [#map2, #map3], iterator_types = ["parallel", "parallel", "parallel"]} ins(%368 : memref<1x40xi64>) outs(%alloc_260 : memref<1x40x128xf32>) {
    ^bb0(%in: i64, %out: f32):
      %371 = arith.index_cast %in : i64 to index
      %372 = linalg.index 2 : index
      %373 = memref.load %alloc_257[%371, %372] : memref<40x128xf32>
      linalg.yield %373 : f32
    }
    %expand_shape_261 = memref.expand_shape %alloc_260 [[0, 1], [2], [3]] : memref<1x40x128xf32> into memref<1x1x40x128xf32>
    %alloc_262 = memref.alloc() {alignment = 64 : i64} : memref<1x32x40x128xf32>
    linalg.generic {indexing_maps = [#map19, #map8, #map9], iterator_types = ["parallel", "parallel", "parallel", "parallel"]} ins(%alloc_247, %expand_shape_259 : memref<1x32x40x128xf32>, memref<1x1x40x128xf32>) outs(%alloc_262 : memref<1x32x40x128xf32>) {
    ^bb0(%in: f32, %in_3451: f32, %out: f32):
      %371 = arith.mulf %in, %in_3451 : f32
      linalg.yield %371 : f32
    }
    %subview_263 = memref.subview %alloc_247[0, 0, 0, 0] [1, 32, 40, 64] [1, 1, 1, 1] : memref<1x32x40x128xf32> to memref<1x32x40x64xf32, strided<[163840, 5120, 128, 1]>>
    %subview_264 = memref.subview %alloc_247[0, 0, 0, 64] [1, 32, 40, 64] [1, 1, 1, 1] : memref<1x32x40x128xf32> to memref<1x32x40x64xf32, strided<[163840, 5120, 128, 1], offset: 64>>
    %alloc_265 = memref.alloc() {alignment = 64 : i64} : memref<1x32x40x64xf32>
    linalg.generic {indexing_maps = [#map19, #map9], iterator_types = ["parallel", "parallel", "parallel", "parallel"]} ins(%subview_264 : memref<1x32x40x64xf32, strided<[163840, 5120, 128, 1], offset: 64>>) outs(%alloc_265 : memref<1x32x40x64xf32>) {
    ^bb0(%in: f32, %out: f32):
      %371 = arith.negf %in : f32
      linalg.yield %371 : f32
    }
    %alloc_266 = memref.alloc() {alignment = 64 : i64} : memref<1x32x40x128xf32>
    %subview_267 = memref.subview %alloc_266[0, 0, 0, 0] [1, 32, 40, 64] [1, 1, 1, 1] : memref<1x32x40x128xf32> to memref<1x32x40x64xf32, strided<[163840, 5120, 128, 1]>>
    memref.copy %alloc_265, %subview_267 : memref<1x32x40x64xf32> to memref<1x32x40x64xf32, strided<[163840, 5120, 128, 1]>>
    %subview_268 = memref.subview %alloc_266[0, 0, 0, 64] [1, 32, 40, 64] [1, 1, 1, 1] : memref<1x32x40x128xf32> to memref<1x32x40x64xf32, strided<[163840, 5120, 128, 1], offset: 64>>
    memref.copy %subview_263, %subview_268 : memref<1x32x40x64xf32, strided<[163840, 5120, 128, 1]>> to memref<1x32x40x64xf32, strided<[163840, 5120, 128, 1], offset: 64>>
    %alloc_269 = memref.alloc() {alignment = 64 : i64} : memref<1x32x40x128xf32>
    linalg.generic {indexing_maps = [#map19, #map8, #map9], iterator_types = ["parallel", "parallel", "parallel", "parallel"]} ins(%alloc_266, %expand_shape_261 : memref<1x32x40x128xf32>, memref<1x1x40x128xf32>) outs(%alloc_269 : memref<1x32x40x128xf32>) {
    ^bb0(%in: f32, %in_3451: f32, %out: f32):
      %371 = arith.mulf %in, %in_3451 : f32
      linalg.yield %371 : f32
    }
    %alloc_270 = memref.alloc() {alignment = 64 : i64} : memref<1x32x40x128xf32>
    linalg.generic {indexing_maps = [#map19, #map19, #map9], iterator_types = ["parallel", "parallel", "parallel", "parallel"]} ins(%alloc_262, %alloc_269 : memref<1x32x40x128xf32>, memref<1x32x40x128xf32>) outs(%alloc_270 : memref<1x32x40x128xf32>) {
    ^bb0(%in: f32, %in_3451: f32, %out: f32):
      %371 = arith.addf %in, %in_3451 : f32
      linalg.yield %371 : f32
    }
    %alloc_271 = memref.alloc() {alignment = 64 : i64} : memref<1x32x40x128xf32>
    linalg.generic {indexing_maps = [#map19, #map8, #map9], iterator_types = ["parallel", "parallel", "parallel", "parallel"]} ins(%alloc_249, %expand_shape_259 : memref<1x32x40x128xf32>, memref<1x1x40x128xf32>) outs(%alloc_271 : memref<1x32x40x128xf32>) {
    ^bb0(%in: f32, %in_3451: f32, %out: f32):
      %371 = arith.mulf %in, %in_3451 : f32
      linalg.yield %371 : f32
    }
    %subview_272 = memref.subview %alloc_249[0, 0, 0, 0] [1, 32, 40, 64] [1, 1, 1, 1] : memref<1x32x40x128xf32> to memref<1x32x40x64xf32, strided<[163840, 5120, 128, 1]>>
    %subview_273 = memref.subview %alloc_249[0, 0, 0, 64] [1, 32, 40, 64] [1, 1, 1, 1] : memref<1x32x40x128xf32> to memref<1x32x40x64xf32, strided<[163840, 5120, 128, 1], offset: 64>>
    %alloc_274 = memref.alloc() {alignment = 64 : i64} : memref<1x32x40x64xf32>
    linalg.generic {indexing_maps = [#map19, #map9], iterator_types = ["parallel", "parallel", "parallel", "parallel"]} ins(%subview_273 : memref<1x32x40x64xf32, strided<[163840, 5120, 128, 1], offset: 64>>) outs(%alloc_274 : memref<1x32x40x64xf32>) {
    ^bb0(%in: f32, %out: f32):
      %371 = arith.negf %in : f32
      linalg.yield %371 : f32
    }
    %alloc_275 = memref.alloc() {alignment = 64 : i64} : memref<1x32x40x128xf32>
    %subview_276 = memref.subview %alloc_275[0, 0, 0, 0] [1, 32, 40, 64] [1, 1, 1, 1] : memref<1x32x40x128xf32> to memref<1x32x40x64xf32, strided<[163840, 5120, 128, 1]>>
    memref.copy %alloc_274, %subview_276 : memref<1x32x40x64xf32> to memref<1x32x40x64xf32, strided<[163840, 5120, 128, 1]>>
    %subview_277 = memref.subview %alloc_275[0, 0, 0, 64] [1, 32, 40, 64] [1, 1, 1, 1] : memref<1x32x40x128xf32> to memref<1x32x40x64xf32, strided<[163840, 5120, 128, 1], offset: 64>>
    memref.copy %subview_272, %subview_277 : memref<1x32x40x64xf32, strided<[163840, 5120, 128, 1]>> to memref<1x32x40x64xf32, strided<[163840, 5120, 128, 1], offset: 64>>
    %alloc_278 = memref.alloc() {alignment = 64 : i64} : memref<1x32x40x128xf32>
    linalg.generic {indexing_maps = [#map19, #map8, #map9], iterator_types = ["parallel", "parallel", "parallel", "parallel"]} ins(%alloc_275, %expand_shape_261 : memref<1x32x40x128xf32>, memref<1x1x40x128xf32>) outs(%alloc_278 : memref<1x32x40x128xf32>) {
    ^bb0(%in: f32, %in_3451: f32, %out: f32):
      %371 = arith.mulf %in, %in_3451 : f32
      linalg.yield %371 : f32
    }
    %alloc_279 = memref.alloc() {alignment = 64 : i64} : memref<1x32x40x128xf32>
    linalg.generic {indexing_maps = [#map19, #map19, #map9], iterator_types = ["parallel", "parallel", "parallel", "parallel"]} ins(%alloc_271, %alloc_278 : memref<1x32x40x128xf32>, memref<1x32x40x128xf32>) outs(%alloc_279 : memref<1x32x40x128xf32>) {
    ^bb0(%in: f32, %in_3451: f32, %out: f32):
      %371 = arith.addf %in, %in_3451 : f32
      linalg.yield %371 : f32
    }
    %alloc_280 = memref.alloc() {alignment = 64 : i64} : memref<1x32x128x40xf32>
    linalg.generic {indexing_maps = [#map20, #map9], iterator_types = ["parallel", "parallel", "parallel", "parallel"]} ins(%alloc_279 : memref<1x32x40x128xf32>) outs(%alloc_280 : memref<1x32x128x40xf32>) {
    ^bb0(%in: f32, %out: f32):
      linalg.yield %in : f32
    }
    %collapse_shape_281 = memref.collapse_shape %alloc_270 [[0, 1], [2], [3]] : memref<1x32x40x128xf32> into memref<32x40x128xf32>
    %collapse_shape_282 = memref.collapse_shape %alloc_280 [[0, 1], [2], [3]] : memref<1x32x128x40xf32> into memref<32x128x40xf32>
    %alloc_283 = memref.alloc() {alignment = 64 : i64} : memref<32x40x40xf32>
    linalg.fill ins(%cst_1 : f32) outs(%alloc_283 : memref<32x40x40xf32>)
    linalg.batch_matmul ins(%collapse_shape_281, %collapse_shape_282 : memref<32x40x128xf32>, memref<32x128x40xf32>) outs(%alloc_283 : memref<32x40x40xf32>)
    %expand_shape_284 = memref.expand_shape %alloc_283 [[0, 1], [2], [3]] : memref<32x40x40xf32> into memref<1x32x40x40xf32>
    %alloc_285 = memref.alloc() {alignment = 64 : i64} : memref<1x32x40x40xf32>
    linalg.generic {indexing_maps = [#map19, #map9], iterator_types = ["parallel", "parallel", "parallel", "parallel"]} ins(%358 : memref<1x32x40x40xf32>) outs(%alloc_285 : memref<1x32x40x40xf32>) {
    ^bb0(%in: f32, %out: f32):
      %371 = arith.divf %cst, %in : f32
      linalg.yield %371 : f32
    }
    %alloc_286 = memref.alloc() {alignment = 64 : i64} : memref<1x32x40x40xf32>
    linalg.generic {indexing_maps = [#map19, #map19, #map9], iterator_types = ["parallel", "parallel", "parallel", "parallel"]} ins(%expand_shape_284, %alloc_285 : memref<1x32x40x40xf32>, memref<1x32x40x40xf32>) outs(%alloc_286 : memref<1x32x40x40xf32>) {
    ^bb0(%in: f32, %in_3451: f32, %out: f32):
      %371 = arith.mulf %in, %in_3451 : f32
      linalg.yield %371 : f32
    }
    %alloc_287 = memref.alloc() {alignment = 64 : i64} : memref<1x32x40x40xf32>
    linalg.generic {indexing_maps = [#map19, #map8, #map9], iterator_types = ["parallel", "parallel", "parallel", "parallel"]} ins(%alloc_286, %alloc_13 : memref<1x32x40x40xf32>, memref<1x1x40x40xf32>) outs(%alloc_287 : memref<1x32x40x40xf32>) {
    ^bb0(%in: f32, %in_3451: f32, %out: f32):
      %371 = arith.addf %in, %in_3451 : f32
      linalg.yield %371 : f32
    }
    %alloc_288 = memref.alloc() {alignment = 64 : i64} : memref<1x32x40xf32>
    linalg.fill ins(%cst_0 : f32) outs(%alloc_288 : memref<1x32x40xf32>)
    linalg.reduce ins(%alloc_287 : memref<1x32x40x40xf32>) outs(%alloc_288 : memref<1x32x40xf32>) dimensions = [3] 
      (%in: f32, %init: f32) {
        %371 = arith.cmpf ugt, %in, %init : f32
        %372 = arith.select %371, %in, %init : f32
        %373 = arith.cmpf uno, %init, %init : f32
        %374 = arith.select %373, %init, %372 : f32
        linalg.yield %374 : f32
      }
    %expand_shape_289 = memref.expand_shape %alloc_288 [[0], [1], [2, 3]] : memref<1x32x40xf32> into memref<1x32x40x1xf32>
    %alloc_290 = memref.alloc() {alignment = 64 : i64} : memref<1x32x40x40xf32>
    linalg.generic {indexing_maps = [#map19, #map21, #map9], iterator_types = ["parallel", "parallel", "parallel", "parallel"]} ins(%alloc_287, %expand_shape_289 : memref<1x32x40x40xf32>, memref<1x32x40x1xf32>) outs(%alloc_290 : memref<1x32x40x40xf32>) {
    ^bb0(%in: f32, %in_3451: f32, %out: f32):
      %371 = arith.subf %in, %in_3451 : f32
      linalg.yield %371 : f32
    }
    %alloc_291 = memref.alloc() {alignment = 64 : i64} : memref<1x32x40x40xf32>
    linalg.generic {indexing_maps = [#map19, #map9], iterator_types = ["parallel", "parallel", "parallel", "parallel"]} ins(%alloc_290 : memref<1x32x40x40xf32>) outs(%alloc_291 : memref<1x32x40x40xf32>) {
    ^bb0(%in: f32, %out: f32):
      %371 = math.exp %in : f32
      linalg.yield %371 : f32
    }
    %alloc_292 = memref.alloc() {alignment = 64 : i64} : memref<1x32x40xf32>
    linalg.fill ins(%cst_1 : f32) outs(%alloc_292 : memref<1x32x40xf32>)
    linalg.reduce ins(%alloc_291 : memref<1x32x40x40xf32>) outs(%alloc_292 : memref<1x32x40xf32>) dimensions = [3] 
      (%in: f32, %init: f32) {
        %371 = arith.addf %in, %init : f32
        linalg.yield %371 : f32
      }
    %expand_shape_293 = memref.expand_shape %alloc_292 [[0], [1], [2, 3]] : memref<1x32x40xf32> into memref<1x32x40x1xf32>
    %alloc_294 = memref.alloc() {alignment = 64 : i64} : memref<1x32x40x1xf32>
    linalg.generic {indexing_maps = [#map21, #map9], iterator_types = ["parallel", "parallel", "parallel", "parallel"]} ins(%expand_shape_293 : memref<1x32x40x1xf32>) outs(%alloc_294 : memref<1x32x40x1xf32>) {
    ^bb0(%in: f32, %out: f32):
      %371 = arith.divf %cst, %in : f32
      linalg.yield %371 : f32
    }
    %alloc_295 = memref.alloc() {alignment = 64 : i64} : memref<1x32x40x40xf32>
    linalg.generic {indexing_maps = [#map19, #map21, #map9], iterator_types = ["parallel", "parallel", "parallel", "parallel"]} ins(%alloc_291, %alloc_294 : memref<1x32x40x40xf32>, memref<1x32x40x1xf32>) outs(%alloc_295 : memref<1x32x40x40xf32>) {
    ^bb0(%in: f32, %in_3451: f32, %out: f32):
      %371 = arith.mulf %in, %in_3451 : f32
      linalg.yield %371 : f32
    }
    %collapse_shape_296 = memref.collapse_shape %alloc_295 [[0, 1], [2], [3]] : memref<1x32x40x40xf32> into memref<32x40x40xf32>
    %collapse_shape_297 = memref.collapse_shape %alloc_251 [[0, 1], [2], [3]] : memref<1x32x40x128xf32> into memref<32x40x128xf32>
    %alloc_298 = memref.alloc() {alignment = 64 : i64} : memref<32x40x128xf32>
    linalg.fill ins(%cst_1 : f32) outs(%alloc_298 : memref<32x40x128xf32>)
    linalg.batch_matmul ins(%collapse_shape_296, %collapse_shape_297 : memref<32x40x40xf32>, memref<32x40x128xf32>) outs(%alloc_298 : memref<32x40x128xf32>)
    %expand_shape_299 = memref.expand_shape %alloc_298 [[0, 1], [2], [3]] : memref<32x40x128xf32> into memref<1x32x40x128xf32>
    %alloc_300 = memref.alloc() {alignment = 64 : i64} : memref<1x40x32x128xf32>
    linalg.generic {indexing_maps = [#map16, #map9], iterator_types = ["parallel", "parallel", "parallel", "parallel"]} ins(%expand_shape_299 : memref<1x32x40x128xf32>) outs(%alloc_300 : memref<1x40x32x128xf32>) {
    ^bb0(%in: f32, %out: f32):
      linalg.yield %in : f32
    }
    %alloc_301 = memref.alloc() {alignment = 64 : i64} : memref<4096x4096xf32>
    linalg.generic {indexing_maps = [#map15, #map1], iterator_types = ["parallel", "parallel"]} ins(%325 : memref<4096x4096xf32, strided<[?, ?], offset: ?>>) outs(%alloc_301 : memref<4096x4096xf32>) {
    ^bb0(%in: f32, %out: f32):
      linalg.yield %in : f32
    }
    %collapse_shape_302 = memref.collapse_shape %alloc_300 [[0, 1], [2, 3]] : memref<1x40x32x128xf32> into memref<40x4096xf32>
    %alloc_303 = memref.alloc() {alignment = 64 : i64} : memref<40x4096xf32>
    memref.copy %359, %alloc_303 : memref<40x4096xf32> to memref<40x4096xf32>
    linalg.matmul {cast = #linalg.type_fn<cast_signed>} ins(%collapse_shape_302, %alloc_301 : memref<40x4096xf32>, memref<4096x4096xf32>) outs(%alloc_303 : memref<40x4096xf32>)
    %expand_shape_304 = memref.expand_shape %alloc_303 [[0, 1], [2]] : memref<40x4096xf32> into memref<1x40x4096xf32>
    %alloc_305 = memref.alloc() {alignment = 64 : i64} : memref<1x40x4096xf32>
    linalg.generic {indexing_maps = [#map13, #map13, #map3], iterator_types = ["parallel", "parallel", "parallel"]} ins(%alloc_225, %expand_shape_304 : memref<1x40x4096xf32>, memref<1x40x4096xf32>) outs(%alloc_305 : memref<1x40x4096xf32>) {
    ^bb0(%in: f32, %in_3451: f32, %out: f32):
      %371 = arith.addf %in, %in_3451 : f32
      linalg.yield %371 : f32
    }
    %alloc_306 = memref.alloc() {alignment = 64 : i64} : memref<1x40x4096xf32>
    linalg.generic {indexing_maps = [#map3, #map3], iterator_types = ["parallel", "parallel", "parallel"]} ins(%alloc_305 : memref<1x40x4096xf32>) outs(%alloc_306 : memref<1x40x4096xf32>) {
    ^bb0(%in: f32, %out: f32):
      %371 = math.fpowi %in, %c2_i32 : f32, i32
      linalg.yield %371 : f32
    }
    %alloc_307 = memref.alloc() {alignment = 64 : i64} : memref<1x40xf32>
    linalg.fill ins(%cst_1 : f32) outs(%alloc_307 : memref<1x40xf32>)
    linalg.reduce ins(%alloc_306 : memref<1x40x4096xf32>) outs(%alloc_307 : memref<1x40xf32>) dimensions = [2] 
      (%in: f32, %init: f32) {
        %371 = arith.addf %in, %init : f32
        linalg.yield %371 : f32
      }
    %expand_shape_308 = memref.expand_shape %alloc_307 [[0], [1, 2]] : memref<1x40xf32> into memref<1x40x1xf32>
    %alloc_309 = memref.alloc() {alignment = 64 : i64} : memref<1xf32>
    linalg.generic {indexing_maps = [#map10, #map4], iterator_types = ["parallel"]} ins(%361 : memref<1xf32>) outs(%alloc_309 : memref<1xf32>) {
    ^bb0(%in: f32, %out: f32):
      %371 = arith.divf %cst, %in : f32
      linalg.yield %371 : f32
    }
    %expand_shape_310 = memref.expand_shape %alloc_309 [[0, 1, 2]] : memref<1xf32> into memref<1x1x1xf32>
    %alloc_311 = memref.alloc() {alignment = 64 : i64} : memref<1x40x1xf32>
    linalg.generic {indexing_maps = [#map11, #map12, #map3], iterator_types = ["parallel", "parallel", "parallel"]} ins(%expand_shape_310, %expand_shape_308 : memref<1x1x1xf32>, memref<1x40x1xf32>) outs(%alloc_311 : memref<1x40x1xf32>) {
    ^bb0(%in: f32, %in_3451: f32, %out: f32):
      %371 = arith.mulf %in, %in_3451 : f32
      linalg.yield %371 : f32
    }
    %alloc_312 = memref.alloc() {alignment = 64 : i64} : memref<1x40x1xf32>
    linalg.generic {indexing_maps = [#map12, #map12, #map3], iterator_types = ["parallel", "parallel", "parallel"]} ins(%alloc_311, %360 : memref<1x40x1xf32>, memref<1x40x1xf32>) outs(%alloc_312 : memref<1x40x1xf32>) {
    ^bb0(%in: f32, %in_3451: f32, %out: f32):
      %371 = arith.addf %in, %in_3451 : f32
      linalg.yield %371 : f32
    }
    %alloc_313 = memref.alloc() {alignment = 64 : i64} : memref<1x40x1xf32>
    linalg.generic {indexing_maps = [#map12, #map3], iterator_types = ["parallel", "parallel", "parallel"]} ins(%alloc_312 : memref<1x40x1xf32>) outs(%alloc_313 : memref<1x40x1xf32>) {
    ^bb0(%in: f32, %out: f32):
      %371 = math.rsqrt %in : f32
      linalg.yield %371 : f32
    }
    %alloc_314 = memref.alloc() {alignment = 64 : i64} : memref<1x40x4096xf32>
    linalg.generic {indexing_maps = [#map13, #map12, #map3], iterator_types = ["parallel", "parallel", "parallel"]} ins(%alloc_305, %alloc_313 : memref<1x40x4096xf32>, memref<1x40x1xf32>) outs(%alloc_314 : memref<1x40x4096xf32>) {
    ^bb0(%in: f32, %in_3451: f32, %out: f32):
      %371 = arith.mulf %in, %in_3451 : f32
      linalg.yield %371 : f32
    }
    %expand_shape_315 = memref.expand_shape %324 [[0, 1, 2]] : memref<4096xf32, strided<[?], offset: ?>> into memref<1x1x4096xf32, strided<[?, ?, ?], offset: ?>>
    %alloc_316 = memref.alloc() {alignment = 64 : i64} : memref<1x40x4096xf32>
    linalg.generic {indexing_maps = [#map14, #map13, #map3], iterator_types = ["parallel", "parallel", "parallel"]} ins(%expand_shape_315, %alloc_314 : memref<1x1x4096xf32, strided<[?, ?, ?], offset: ?>>, memref<1x40x4096xf32>) outs(%alloc_316 : memref<1x40x4096xf32>) {
    ^bb0(%in: f32, %in_3451: f32, %out: f32):
      %371 = arith.mulf %in, %in_3451 : f32
      linalg.yield %371 : f32
    }
    %alloc_317 = memref.alloc() {alignment = 64 : i64} : memref<4096x11008xf32>
    linalg.generic {indexing_maps = [#map15, #map1], iterator_types = ["parallel", "parallel"]} ins(%323 : memref<11008x4096xf32, strided<[?, ?], offset: ?>>) outs(%alloc_317 : memref<4096x11008xf32>) {
    ^bb0(%in: f32, %out: f32):
      linalg.yield %in : f32
    }
    %collapse_shape_318 = memref.collapse_shape %alloc_316 [[0, 1], [2]] : memref<1x40x4096xf32> into memref<40x4096xf32>
    %alloc_319 = memref.alloc() {alignment = 64 : i64} : memref<40x11008xf32>
    memref.copy %357, %alloc_319 : memref<40x11008xf32> to memref<40x11008xf32>
    linalg.matmul {cast = #linalg.type_fn<cast_signed>} ins(%collapse_shape_318, %alloc_317 : memref<40x4096xf32>, memref<4096x11008xf32>) outs(%alloc_319 : memref<40x11008xf32>)
    %expand_shape_320 = memref.expand_shape %alloc_319 [[0, 1], [2]] : memref<40x11008xf32> into memref<1x40x11008xf32>
    %alloc_321 = memref.alloc() {alignment = 64 : i64} : memref<1x40x11008xf32>
    linalg.generic {indexing_maps = [#map13, #map3], iterator_types = ["parallel", "parallel", "parallel"]} ins(%expand_shape_320 : memref<1x40x11008xf32>) outs(%alloc_321 : memref<1x40x11008xf32>) {
    ^bb0(%in: f32, %out: f32):
      %371 = arith.negf %in : f32
      %372 = math.exp %371 : f32
      %373 = arith.addf %372, %cst : f32
      %374 = arith.divf %cst, %373 : f32
      linalg.yield %374 : f32
    }
    %alloc_322 = memref.alloc() {alignment = 64 : i64} : memref<1x40x11008xf32>
    linalg.generic {indexing_maps = [#map13, #map13, #map3], iterator_types = ["parallel", "parallel", "parallel"]} ins(%expand_shape_320, %alloc_321 : memref<1x40x11008xf32>, memref<1x40x11008xf32>) outs(%alloc_322 : memref<1x40x11008xf32>) {
    ^bb0(%in: f32, %in_3451: f32, %out: f32):
      %371 = arith.mulf %in, %in_3451 : f32
      linalg.yield %371 : f32
    }
    %alloc_323 = memref.alloc() {alignment = 64 : i64} : memref<4096x11008xf32>
    linalg.generic {indexing_maps = [#map15, #map1], iterator_types = ["parallel", "parallel"]} ins(%322 : memref<11008x4096xf32, strided<[?, ?], offset: ?>>) outs(%alloc_323 : memref<4096x11008xf32>) {
    ^bb0(%in: f32, %out: f32):
      linalg.yield %in : f32
    }
    %collapse_shape_324 = memref.collapse_shape %alloc_316 [[0, 1], [2]] : memref<1x40x4096xf32> into memref<40x4096xf32>
    %alloc_325 = memref.alloc() {alignment = 64 : i64} : memref<40x11008xf32>
    memref.copy %357, %alloc_325 : memref<40x11008xf32> to memref<40x11008xf32>
    linalg.matmul {cast = #linalg.type_fn<cast_signed>} ins(%collapse_shape_324, %alloc_323 : memref<40x4096xf32>, memref<4096x11008xf32>) outs(%alloc_325 : memref<40x11008xf32>)
    %expand_shape_326 = memref.expand_shape %alloc_325 [[0, 1], [2]] : memref<40x11008xf32> into memref<1x40x11008xf32>
    %alloc_327 = memref.alloc() {alignment = 64 : i64} : memref<1x40x11008xf32>
    linalg.generic {indexing_maps = [#map13, #map13, #map3], iterator_types = ["parallel", "parallel", "parallel"]} ins(%alloc_322, %expand_shape_326 : memref<1x40x11008xf32>, memref<1x40x11008xf32>) outs(%alloc_327 : memref<1x40x11008xf32>) {
    ^bb0(%in: f32, %in_3451: f32, %out: f32):
      %371 = arith.mulf %in, %in_3451 : f32
      linalg.yield %371 : f32
    }
    %alloc_328 = memref.alloc() {alignment = 64 : i64} : memref<11008x4096xf32>
    linalg.generic {indexing_maps = [#map15, #map1], iterator_types = ["parallel", "parallel"]} ins(%321 : memref<4096x11008xf32, strided<[?, ?], offset: ?>>) outs(%alloc_328 : memref<11008x4096xf32>) {
    ^bb0(%in: f32, %out: f32):
      linalg.yield %in : f32
    }
    %collapse_shape_329 = memref.collapse_shape %alloc_327 [[0, 1], [2]] : memref<1x40x11008xf32> into memref<40x11008xf32>
    %alloc_330 = memref.alloc() {alignment = 64 : i64} : memref<40x4096xf32>
    memref.copy %359, %alloc_330 : memref<40x4096xf32> to memref<40x4096xf32>
    linalg.matmul {cast = #linalg.type_fn<cast_signed>} ins(%collapse_shape_329, %alloc_328 : memref<40x11008xf32>, memref<11008x4096xf32>) outs(%alloc_330 : memref<40x4096xf32>)
    %expand_shape_331 = memref.expand_shape %alloc_330 [[0, 1], [2]] : memref<40x4096xf32> into memref<1x40x4096xf32>
    %alloc_332 = memref.alloc() {alignment = 64 : i64} : memref<1x40x4096xf32>
…
    linalg.generic {indexing_maps = [#map19, #map21, #map9], iterator_types = ["parallel", "parallel", "parallel", "parallel"]} ins(%alloc_3283, %expand_shape_3285 : memref<1x32x40x40xf32>, memref<1x32x40x1xf32>) outs(%alloc_3286 : memref<1x32x40x40xf32>) {
    ^bb0(%in: f32, %in_3451: f32, %out: f32):
      %371 = arith.subf %in, %in_3451 : f32
      linalg.yield %371 : f32
    }
    %alloc_3287 = memref.alloc() {alignment = 64 : i64} : memref<1x32x40x40xf32>
    linalg.generic {indexing_maps = [#map19, #map9], iterator_types = ["parallel", "parallel", "parallel", "parallel"]} ins(%alloc_3286 : memref<1x32x40x40xf32>) outs(%alloc_3287 : memref<1x32x40x40xf32>) {
    ^bb0(%in: f32, %out: f32):
      %371 = math.exp %in : f32
      linalg.yield %371 : f32
    }
    %alloc_3288 = memref.alloc() {alignment = 64 : i64} : memref<1x32x40xf32>
    linalg.fill ins(%cst_1 : f32) outs(%alloc_3288 : memref<1x32x40xf32>)
    linalg.reduce ins(%alloc_3287 : memref<1x32x40x40xf32>) outs(%alloc_3288 : memref<1x32x40xf32>) dimensions = [3] 
      (%in: f32, %init: f32) {
        %371 = arith.addf %in, %init : f32
        linalg.yield %371 : f32
      }
    %expand_shape_3289 = memref.expand_shape %alloc_3288 [[0], [1], [2, 3]] : memref<1x32x40xf32> into memref<1x32x40x1xf32>
    %alloc_3290 = memref.alloc() {alignment = 64 : i64} : memref<1x32x40x1xf32>
    linalg.generic {indexing_maps = [#map21, #map9], iterator_types = ["parallel", "parallel", "parallel", "parallel"]} ins(%expand_shape_3289 : memref<1x32x40x1xf32>) outs(%alloc_3290 : memref<1x32x40x1xf32>) {
    ^bb0(%in: f32, %out: f32):
      %371 = arith.divf %cst, %in : f32
      linalg.yield %371 : f32
    }
    %alloc_3291 = memref.alloc() {alignment = 64 : i64} : memref<1x32x40x40xf32>
    linalg.generic {indexing_maps = [#map19, #map21, #map9], iterator_types = ["parallel", "parallel", "parallel", "parallel"]} ins(%alloc_3287, %alloc_3290 : memref<1x32x40x40xf32>, memref<1x32x40x1xf32>) outs(%alloc_3291 : memref<1x32x40x40xf32>) {
    ^bb0(%in: f32, %in_3451: f32, %out: f32):
      %371 = arith.mulf %in, %in_3451 : f32
      linalg.yield %371 : f32
    }
    %collapse_shape_3292 = memref.collapse_shape %alloc_3291 [[0, 1], [2], [3]] : memref<1x32x40x40xf32> into memref<32x40x40xf32>
    %collapse_shape_3293 = memref.collapse_shape %alloc_3247 [[0, 1], [2], [3]] : memref<1x32x40x128xf32> into memref<32x40x128xf32>
    %alloc_3294 = memref.alloc() {alignment = 64 : i64} : memref<32x40x128xf32>
    linalg.fill ins(%cst_1 : f32) outs(%alloc_3294 : memref<32x40x128xf32>)
    linalg.batch_matmul ins(%collapse_shape_3292, %collapse_shape_3293 : memref<32x40x40xf32>, memref<32x40x128xf32>) outs(%alloc_3294 : memref<32x40x128xf32>)
    %expand_shape_3295 = memref.expand_shape %alloc_3294 [[0, 1], [2], [3]] : memref<32x40x128xf32> into memref<1x32x40x128xf32>
    %alloc_3296 = memref.alloc() {alignment = 64 : i64} : memref<1x40x32x128xf32>
    linalg.generic {indexing_maps = [#map16, #map9], iterator_types = ["parallel", "parallel", "parallel", "parallel"]} ins(%expand_shape_3295 : memref<1x32x40x128xf32>) outs(%alloc_3296 : memref<1x40x32x128xf32>) {
    ^bb0(%in: f32, %out: f32):
      linalg.yield %in : f32
    }
    %alloc_3297 = memref.alloc() {alignment = 64 : i64} : memref<4096x4096xf32>
    linalg.generic {indexing_maps = [#map15, #map1], iterator_types = ["parallel", "parallel"]} ins(%17 : memref<4096x4096xf32, strided<[?, ?], offset: ?>>) outs(%alloc_3297 : memref<4096x4096xf32>) {
    ^bb0(%in: f32, %out: f32):
      linalg.yield %in : f32
    }
    %collapse_shape_3298 = memref.collapse_shape %alloc_3296 [[0, 1], [2, 3]] : memref<1x40x32x128xf32> into memref<40x4096xf32>
    %alloc_3299 = memref.alloc() {alignment = 64 : i64} : memref<40x4096xf32>
    memref.copy %359, %alloc_3299 : memref<40x4096xf32> to memref<40x4096xf32>
    linalg.matmul {cast = #linalg.type_fn<cast_signed>} ins(%collapse_shape_3298, %alloc_3297 : memref<40x4096xf32>, memref<4096x4096xf32>) outs(%alloc_3299 : memref<40x4096xf32>)
    %expand_shape_3300 = memref.expand_shape %alloc_3299 [[0, 1], [2]] : memref<40x4096xf32> into memref<1x40x4096xf32>
    %alloc_3301 = memref.alloc() {alignment = 64 : i64} : memref<1x40x4096xf32>
    linalg.generic {indexing_maps = [#map13, #map13, #map3], iterator_types = ["parallel", "parallel", "parallel"]} ins(%alloc_3221, %expand_shape_3300 : memref<1x40x4096xf32>, memref<1x40x4096xf32>) outs(%alloc_3301 : memref<1x40x4096xf32>) {
    ^bb0(%in: f32, %in_3451: f32, %out: f32):
      %371 = arith.addf %in, %in_3451 : f32
      linalg.yield %371 : f32
    }
    %alloc_3302 = memref.alloc() {alignment = 64 : i64} : memref<1x40x4096xf32>
    linalg.generic {indexing_maps = [#map3, #map3], iterator_types = ["parallel", "parallel", "parallel"]} ins(%alloc_3301 : memref<1x40x4096xf32>) outs(%alloc_3302 : memref<1x40x4096xf32>) {
    ^bb0(%in: f32, %out: f32):
      %371 = math.fpowi %in, %c2_i32 : f32, i32
      linalg.yield %371 : f32
    }
    %alloc_3303 = memref.alloc() {alignment = 64 : i64} : memref<1x40xf32>
    linalg.fill ins(%cst_1 : f32) outs(%alloc_3303 : memref<1x40xf32>)
    linalg.reduce ins(%alloc_3302 : memref<1x40x4096xf32>) outs(%alloc_3303 : memref<1x40xf32>) dimensions = [2] 
      (%in: f32, %init: f32) {
        %371 = arith.addf %in, %init : f32
        linalg.yield %371 : f32
      }
    %expand_shape_3304 = memref.expand_shape %alloc_3303 [[0], [1, 2]] : memref<1x40xf32> into memref<1x40x1xf32>
    %alloc_3305 = memref.alloc() {alignment = 64 : i64} : memref<1xf32>
    linalg.generic {indexing_maps = [#map10, #map4], iterator_types = ["parallel"]} ins(%361 : memref<1xf32>) outs(%alloc_3305 : memref<1xf32>) {
    ^bb0(%in: f32, %out: f32):
      %371 = arith.divf %cst, %in : f32
      linalg.yield %371 : f32
    }
    %expand_shape_3306 = memref.expand_shape %alloc_3305 [[0, 1, 2]] : memref<1xf32> into memref<1x1x1xf32>
    %alloc_3307 = memref.alloc() {alignment = 64 : i64} : memref<1x40x1xf32>
    linalg.generic {indexing_maps = [#map11, #map12, #map3], iterator_types = ["parallel", "parallel", "parallel"]} ins(%expand_shape_3306, %expand_shape_3304 : memref<1x1x1xf32>, memref<1x40x1xf32>) outs(%alloc_3307 : memref<1x40x1xf32>) {
    ^bb0(%in: f32, %in_3451: f32, %out: f32):
      %371 = arith.mulf %in, %in_3451 : f32
      linalg.yield %371 : f32
    }
    %alloc_3308 = memref.alloc() {alignment = 64 : i64} : memref<1x40x1xf32>
    linalg.generic {indexing_maps = [#map12, #map12, #map3], iterator_types = ["parallel", "parallel", "parallel"]} ins(%alloc_3307, %360 : memref<1x40x1xf32>, memref<1x40x1xf32>) outs(%alloc_3308 : memref<1x40x1xf32>) {
    ^bb0(%in: f32, %in_3451: f32, %out: f32):
      %371 = arith.addf %in, %in_3451 : f32
      linalg.yield %371 : f32
    }
    %alloc_3309 = memref.alloc() {alignment = 64 : i64} : memref<1x40x1xf32>
    linalg.generic {indexing_maps = [#map12, #map3], iterator_types = ["parallel", "parallel", "parallel"]} ins(%alloc_3308 : memref<1x40x1xf32>) outs(%alloc_3309 : memref<1x40x1xf32>) {
    ^bb0(%in: f32, %out: f32):
      %371 = math.rsqrt %in : f32
      linalg.yield %371 : f32
    }
    %alloc_3310 = memref.alloc() {alignment = 64 : i64} : memref<1x40x4096xf32>
    linalg.generic {indexing_maps = [#map13, #map12, #map3], iterator_types = ["parallel", "parallel", "parallel"]} ins(%alloc_3301, %alloc_3309 : memref<1x40x4096xf32>, memref<1x40x1xf32>) outs(%alloc_3310 : memref<1x40x4096xf32>) {
    ^bb0(%in: f32, %in_3451: f32, %out: f32):
      %371 = arith.mulf %in, %in_3451 : f32
      linalg.yield %371 : f32
    }
    %expand_shape_3311 = memref.expand_shape %16 [[0, 1, 2]] : memref<4096xf32, strided<[?], offset: ?>> into memref<1x1x4096xf32, strided<[?, ?, ?], offset: ?>>
    %alloc_3312 = memref.alloc() {alignment = 64 : i64} : memref<1x40x4096xf32>
    linalg.generic {indexing_maps = [#map14, #map13, #map3], iterator_types = ["parallel", "parallel", "parallel"]} ins(%expand_shape_3311, %alloc_3310 : memref<1x1x4096xf32, strided<[?, ?, ?], offset: ?>>, memref<1x40x4096xf32>) outs(%alloc_3312 : memref<1x40x4096xf32>) {
    ^bb0(%in: f32, %in_3451: f32, %out: f32):
      %371 = arith.mulf %in, %in_3451 : f32
      linalg.yield %371 : f32
    }
    %alloc_3313 = memref.alloc() {alignment = 64 : i64} : memref<4096x11008xf32>
    linalg.generic {indexing_maps = [#map15, #map1], iterator_types = ["parallel", "parallel"]} ins(%15 : memref<11008x4096xf32, strided<[?, ?], offset: ?>>) outs(%alloc_3313 : memref<4096x11008xf32>) {
    ^bb0(%in: f32, %out: f32):
      linalg.yield %in : f32
    }
    %collapse_shape_3314 = memref.collapse_shape %alloc_3312 [[0, 1], [2]] : memref<1x40x4096xf32> into memref<40x4096xf32>
    %alloc_3315 = memref.alloc() {alignment = 64 : i64} : memref<40x11008xf32>
    memref.copy %357, %alloc_3315 : memref<40x11008xf32> to memref<40x11008xf32>
    linalg.matmul {cast = #linalg.type_fn<cast_signed>} ins(%collapse_shape_3314, %alloc_3313 : memref<40x4096xf32>, memref<4096x11008xf32>) outs(%alloc_3315 : memref<40x11008xf32>)
    %expand_shape_3316 = memref.expand_shape %alloc_3315 [[0, 1], [2]] : memref<40x11008xf32> into memref<1x40x11008xf32>
    %alloc_3317 = memref.alloc() {alignment = 64 : i64} : memref<1x40x11008xf32>
    linalg.generic {indexing_maps = [#map13, #map3], iterator_types = ["parallel", "parallel", "parallel"]} ins(%expand_shape_3316 : memref<1x40x11008xf32>) outs(%alloc_3317 : memref<1x40x11008xf32>) {
    ^bb0(%in: f32, %out: f32):
      %371 = arith.negf %in : f32
      %372 = math.exp %371 : f32
      %373 = arith.addf %372, %cst : f32
      %374 = arith.divf %cst, %373 : f32
      linalg.yield %374 : f32
    }
    %alloc_3318 = memref.alloc() {alignment = 64 : i64} : memref<1x40x11008xf32>
    linalg.generic {indexing_maps = [#map13, #map13, #map3], iterator_types = ["parallel", "parallel", "parallel"]} ins(%expand_shape_3316, %alloc_3317 : memref<1x40x11008xf32>, memref<1x40x11008xf32>) outs(%alloc_3318 : memref<1x40x11008xf32>) {
    ^bb0(%in: f32, %in_3451: f32, %out: f32):
      %371 = arith.mulf %in, %in_3451 : f32
      linalg.yield %371 : f32
    }
    %alloc_3319 = memref.alloc() {alignment = 64 : i64} : memref<4096x11008xf32>
    linalg.generic {indexing_maps = [#map15, #map1], iterator_types = ["parallel", "parallel"]} ins(%14 : memref<11008x4096xf32, strided<[?, ?], offset: ?>>) outs(%alloc_3319 : memref<4096x11008xf32>) {
    ^bb0(%in: f32, %out: f32):
      linalg.yield %in : f32
    }
    %collapse_shape_3320 = memref.collapse_shape %alloc_3312 [[0, 1], [2]] : memref<1x40x4096xf32> into memref<40x4096xf32>
    %alloc_3321 = memref.alloc() {alignment = 64 : i64} : memref<40x11008xf32>
    memref.copy %357, %alloc_3321 : memref<40x11008xf32> to memref<40x11008xf32>
    linalg.matmul {cast = #linalg.type_fn<cast_signed>} ins(%collapse_shape_3320, %alloc_3319 : memref<40x4096xf32>, memref<4096x11008xf32>) outs(%alloc_3321 : memref<40x11008xf32>)
    %expand_shape_3322 = memref.expand_shape %alloc_3321 [[0, 1], [2]] : memref<40x11008xf32> into memref<1x40x11008xf32>
    %alloc_3323 = memref.alloc() {alignment = 64 : i64} : memref<1x40x11008xf32>
    linalg.generic {indexing_maps = [#map13, #map13, #map3], iterator_types = ["parallel", "parallel", "parallel"]} ins(%alloc_3318, %expand_shape_3322 : memref<1x40x11008xf32>, memref<1x40x11008xf32>) outs(%alloc_3323 : memref<1x40x11008xf32>) {
    ^bb0(%in: f32, %in_3451: f32, %out: f32):
      %371 = arith.mulf %in, %in_3451 : f32
      linalg.yield %371 : f32
    }
    %alloc_3324 = memref.alloc() {alignment = 64 : i64} : memref<11008x4096xf32>
    linalg.generic {indexing_maps = [#map15, #map1], iterator_types = ["parallel", "parallel"]} ins(%13 : memref<4096x11008xf32, strided<[?, ?], offset: ?>>) outs(%alloc_3324 : memref<11008x4096xf32>) {
    ^bb0(%in: f32, %out: f32):
      linalg.yield %in : f32
    }
    %collapse_shape_3325 = memref.collapse_shape %alloc_3323 [[0, 1], [2]] : memref<1x40x11008xf32> into memref<40x11008xf32>
    %alloc_3326 = memref.alloc() {alignment = 64 : i64} : memref<40x4096xf32>
    memref.copy %359, %alloc_3326 : memref<40x4096xf32> to memref<40x4096xf32>
    linalg.matmul {cast = #linalg.type_fn<cast_signed>} ins(%collapse_shape_3325, %alloc_3324 : memref<40x11008xf32>, memref<11008x4096xf32>) outs(%alloc_3326 : memref<40x4096xf32>)
    %expand_shape_3327 = memref.expand_shape %alloc_3326 [[0, 1], [2]] : memref<40x4096xf32> into memref<1x40x4096xf32>
    %alloc_3328 = memref.alloc() {alignment = 64 : i64} : memref<1x40x4096xf32>
    linalg.generic {indexing_maps = [#map13, #map13, #map3], iterator_types = ["parallel", "parallel", "parallel"]} ins(%alloc_3301, %expand_shape_3327 : memref<1x40x4096xf32>, memref<1x40x4096xf32>) outs(%alloc_3328 : memref<1x40x4096xf32>) {
    ^bb0(%in: f32, %in_3451: f32, %out: f32):
      %371 = arith.addf %in, %in_3451 : f32
      linalg.yield %371 : f32
    }
    %alloc_3329 = memref.alloc() {alignment = 64 : i64} : memref<1x40x4096xf32>
    linalg.generic {indexing_maps = [#map3, #map3], iterator_types = ["parallel", "parallel", "parallel"]} ins(%alloc_3328 : memref<1x40x4096xf32>) outs(%alloc_3329 : memref<1x40x4096xf32>) {
    ^bb0(%in: f32, %out: f32):
      %371 = math.fpowi %in, %c2_i32 : f32, i32
      linalg.yield %371 : f32
    }
    %alloc_3330 = memref.alloc() {alignment = 64 : i64} : memref<1x40xf32>
    linalg.fill ins(%cst_1 : f32) outs(%alloc_3330 : memref<1x40xf32>)
    linalg.reduce ins(%alloc_3329 : memref<1x40x4096xf32>) outs(%alloc_3330 : memref<1x40xf32>) dimensions = [2] 
      (%in: f32, %init: f32) {
        %371 = arith.addf %in, %init : f32
        linalg.yield %371 : f32
      }
    %expand_shape_3331 = memref.expand_shape %alloc_3330 [[0], [1, 2]] : memref<1x40xf32> into memref<1x40x1xf32>
    %alloc_3332 = memref.alloc() {alignment = 64 : i64} : memref<1xf32>
    linalg.generic {indexing_maps = [#map10, #map4], iterator_types = ["parallel"]} ins(%361 : memref<1xf32>) outs(%alloc_3332 : memref<1xf32>) {
    ^bb0(%in: f32, %out: f32):
      %371 = arith.divf %cst, %in : f32
      linalg.yield %371 : f32
    }
    %expand_shape_3333 = memref.expand_shape %alloc_3332 [[0, 1, 2]] : memref<1xf32> into memref<1x1x1xf32>
    %alloc_3334 = memref.alloc() {alignment = 64 : i64} : memref<1x40x1xf32>
    linalg.generic {indexing_maps = [#map11, #map12, #map3], iterator_types = ["parallel", "parallel", "parallel"]} ins(%expand_shape_3333, %expand_shape_3331 : memref<1x1x1xf32>, memref<1x40x1xf32>) outs(%alloc_3334 : memref<1x40x1xf32>) {
    ^bb0(%in: f32, %in_3451: f32, %out: f32):
      %371 = arith.mulf %in, %in_3451 : f32
      linalg.yield %371 : f32
    }
    %alloc_3335 = memref.alloc() {alignment = 64 : i64} : memref<1x40x1xf32>
    linalg.generic {indexing_maps = [#map12, #map12, #map3], iterator_types = ["parallel", "parallel", "parallel"]} ins(%alloc_3334, %360 : memref<1x40x1xf32>, memref<1x40x1xf32>) outs(%alloc_3335 : memref<1x40x1xf32>) {
    ^bb0(%in: f32, %in_3451: f32, %out: f32):
      %371 = arith.addf %in, %in_3451 : f32
      linalg.yield %371 : f32
    }
    %alloc_3336 = memref.alloc() {alignment = 64 : i64} : memref<1x40x1xf32>
    linalg.generic {indexing_maps = [#map12, #map3], iterator_types = ["parallel", "parallel", "parallel"]} ins(%alloc_3335 : memref<1x40x1xf32>) outs(%alloc_3336 : memref<1x40x1xf32>) {
    ^bb0(%in: f32, %out: f32):
      %371 = math.rsqrt %in : f32
      linalg.yield %371 : f32
    }
    %alloc_3337 = memref.alloc() {alignment = 64 : i64} : memref<1x40x4096xf32>
    linalg.generic {indexing_maps = [#map13, #map12, #map3], iterator_types = ["parallel", "parallel", "parallel"]} ins(%alloc_3328, %alloc_3336 : memref<1x40x4096xf32>, memref<1x40x1xf32>) outs(%alloc_3337 : memref<1x40x4096xf32>) {
    ^bb0(%in: f32, %in_3451: f32, %out: f32):
      %371 = arith.mulf %in, %in_3451 : f32
      linalg.yield %371 : f32
    }
    %expand_shape_3338 = memref.expand_shape %12 [[0, 1, 2]] : memref<4096xf32, strided<[?], offset: ?>> into memref<1x1x4096xf32, strided<[?, ?, ?], offset: ?>>
    %alloc_3339 = memref.alloc() {alignment = 64 : i64} : memref<1x40x4096xf32>
    linalg.generic {indexing_maps = [#map14, #map13, #map3], iterator_types = ["parallel", "parallel", "parallel"]} ins(%expand_shape_3338, %alloc_3337 : memref<1x1x4096xf32, strided<[?, ?, ?], offset: ?>>, memref<1x40x4096xf32>) outs(%alloc_3339 : memref<1x40x4096xf32>) {
    ^bb0(%in: f32, %in_3451: f32, %out: f32):
      %371 = arith.mulf %in, %in_3451 : f32
      linalg.yield %371 : f32
    }
    %alloc_3340 = memref.alloc() {alignment = 64 : i64} : memref<4096x4096xf32>
    linalg.generic {indexing_maps = [#map15, #map1], iterator_types = ["parallel", "parallel"]} ins(%11 : memref<4096x4096xf32, strided<[?, ?], offset: ?>>) outs(%alloc_3340 : memref<4096x4096xf32>) {
    ^bb0(%in: f32, %out: f32):
      linalg.yield %in : f32
    }
    %collapse_shape_3341 = memref.collapse_shape %alloc_3339 [[0, 1], [2]] : memref<1x40x4096xf32> into memref<40x4096xf32>
    %alloc_3342 = memref.alloc() {alignment = 64 : i64} : memref<40x4096xf32>
    memref.copy %359, %alloc_3342 : memref<40x4096xf32> to memref<40x4096xf32>
    linalg.matmul {cast = #linalg.type_fn<cast_signed>} ins(%collapse_shape_3341, %alloc_3340 : memref<40x4096xf32>, memref<4096x4096xf32>) outs(%alloc_3342 : memref<40x4096xf32>)
    %alloc_3343 = memref.alloc() {alignment = 64 : i64} : memref<4096x4096xf32>
    linalg.generic {indexing_maps = [#map15, #map1], iterator_types = ["parallel", "parallel"]} ins(%10 : memref<4096x4096xf32, strided<[?, ?], offset: ?>>) outs(%alloc_3343 : memref<4096x4096xf32>) {
    ^bb0(%in: f32, %out: f32):
      linalg.yield %in : f32
    }
    %collapse_shape_3344 = memref.collapse_shape %alloc_3339 [[0, 1], [2]] : memref<1x40x4096xf32> into memref<40x4096xf32>
    %alloc_3345 = memref.alloc() {alignment = 64 : i64} : memref<40x4096xf32>
    memref.copy %359, %alloc_3345 : memref<40x4096xf32> to memref<40x4096xf32>
    linalg.matmul {cast = #linalg.type_fn<cast_signed>} ins(%collapse_shape_3344, %alloc_3343 : memref<40x4096xf32>, memref<4096x4096xf32>) outs(%alloc_3345 : memref<40x4096xf32>)
    %alloc_3346 = memref.alloc() {alignment = 64 : i64} : memref<4096x4096xf32>
    linalg.generic {indexing_maps = [#map15, #map1], iterator_types = ["parallel", "parallel"]} ins(%9 : memref<4096x4096xf32, strided<[?, ?], offset: ?>>) outs(%alloc_3346 : memref<4096x4096xf32>) {
    ^bb0(%in: f32, %out: f32):
      linalg.yield %in : f32
    }
    %collapse_shape_3347 = memref.collapse_shape %alloc_3339 [[0, 1], [2]] : memref<1x40x4096xf32> into memref<40x4096xf32>
    %alloc_3348 = memref.alloc() {alignment = 64 : i64} : memref<40x4096xf32>
    memref.copy %359, %alloc_3348 : memref<40x4096xf32> to memref<40x4096xf32>
    linalg.matmul {cast = #linalg.type_fn<cast_signed>} ins(%collapse_shape_3347, %alloc_3346 : memref<40x4096xf32>, memref<4096x4096xf32>) outs(%alloc_3348 : memref<40x4096xf32>)
    %expand_shape_3349 = memref.expand_shape %alloc_3342 [[0, 1], [2, 3]] : memref<40x4096xf32> into memref<1x40x32x128xf32>
    %alloc_3350 = memref.alloc() {alignment = 64 : i64} : memref<1x32x40x128xf32>
    linalg.generic {indexing_maps = [#map16, #map9], iterator_types = ["parallel", "parallel", "parallel", "parallel"]} ins(%expand_shape_3349 : memref<1x40x32x128xf32>) outs(%alloc_3350 : memref<1x32x40x128xf32>) {
    ^bb0(%in: f32, %out: f32):
      linalg.yield %in : f32
    }
    %expand_shape_3351 = memref.expand_shape %alloc_3345 [[0, 1], [2, 3]] : memref<40x4096xf32> into memref<1x40x32x128xf32>
    %alloc_3352 = memref.alloc() {alignment = 64 : i64} : memref<1x32x40x128xf32>
    linalg.generic {indexing_maps = [#map16, #map9], iterator_types = ["parallel", "parallel", "parallel", "parallel"]} ins(%expand_shape_3351 : memref<1x40x32x128xf32>) outs(%alloc_3352 : memref<1x32x40x128xf32>) {
    ^bb0(%in: f32, %out: f32):
      linalg.yield %in : f32
    }
    %expand_shape_3353 = memref.expand_shape %alloc_3348 [[0, 1], [2, 3]] : memref<40x4096xf32> into memref<1x40x32x128xf32>
    %alloc_3354 = memref.alloc() {alignment = 64 : i64} : memref<1x32x40x128xf32>
    linalg.generic {indexing_maps = [#map16, #map9], iterator_types = ["parallel", "parallel", "parallel", "parallel"]} ins(%expand_shape_3353 : memref<1x40x32x128xf32>) outs(%alloc_3354 : memref<1x32x40x128xf32>) {
    ^bb0(%in: f32, %out: f32):
      linalg.yield %in : f32
    }
    %subview_3355 = memref.subview %8[0, 0, 0, 0] [1, 1, 40, 128] [1, 1, 1, 1] : memref<1x1x2048x128xf32, strided<[?, ?, ?, ?], offset: ?>> to memref<1x1x40x128xf32, strided<[?, ?, ?, ?], offset: ?>>
    %subview_3356 = memref.subview %7[0, 0, 0, 0] [1, 1, 40, 128] [1, 1, 1, 1] : memref<1x1x2048x128xf32, strided<[?, ?, ?, ?], offset: ?>> to memref<1x1x40x128xf32, strided<[?, ?, ?, ?], offset: ?>>
    %alloc_3357 = memref.alloc() {alignment = 64 : i64} : memref<1x40x128xf32>
    linalg.generic {indexing_maps = [#map17, #map3], iterator_types = ["parallel", "parallel", "parallel"]} ins(%subview_3355 : memref<1x1x40x128xf32, strided<[?, ?, ?, ?], offset: ?>>) outs(%alloc_3357 : memref<1x40x128xf32>) {
    ^bb0(%in: f32, %out: f32):
      linalg.yield %in : f32
    }
    %alloc_3358 = memref.alloc() {alignment = 64 : i64} : memref<40x128xf32>
    linalg.generic {indexing_maps = [#map18, #map1], iterator_types = ["parallel", "parallel"]} ins(%alloc_3357 : memref<1x40x128xf32>) outs(%alloc_3358 : memref<40x128xf32>) {
    ^bb0(%in: f32, %out: f32):
      linalg.yield %in : f32
    }
    %alloc_3359 = memref.alloc() {alignment = 64 : i64} : memref<1x40x128xf32>
    linalg.generic {indexing_maps = [#map17, #map3], iterator_types = ["parallel", "parallel", "parallel"]} ins(%subview_3356 : memref<1x1x40x128xf32, strided<[?, ?, ?, ?], offset: ?>>) outs(%alloc_3359 : memref<1x40x128xf32>) {
    ^bb0(%in: f32, %out: f32):
      linalg.yield %in : f32
    }
    %alloc_3360 = memref.alloc() {alignment = 64 : i64} : memref<40x128xf32>
    linalg.generic {indexing_maps = [#map18, #map1], iterator_types = ["parallel", "parallel"]} ins(%alloc_3359 : memref<1x40x128xf32>) outs(%alloc_3360 : memref<40x128xf32>) {
    ^bb0(%in: f32, %out: f32):
      linalg.yield %in : f32
    }
    %alloc_3361 = memref.alloc() {alignment = 64 : i64} : memref<1x40x128xf32>
    linalg.generic {indexing_maps = [#map2, #map3], iterator_types = ["parallel", "parallel", "parallel"]} ins(%368 : memref<1x40xi64>) outs(%alloc_3361 : memref<1x40x128xf32>) {
    ^bb0(%in: i64, %out: f32):
      %371 = arith.index_cast %in : i64 to index
      %372 = linalg.index 2 : index
      %373 = memref.load %alloc_3358[%371, %372] : memref<40x128xf32>
      linalg.yield %373 : f32
    }
    %expand_shape_3362 = memref.expand_shape %alloc_3361 [[0, 1], [2], [3]] : memref<1x40x128xf32> into memref<1x1x40x128xf32>
    %alloc_3363 = memref.alloc() {alignment = 64 : i64} : memref<1x40x128xf32>
    linalg.generic {indexing_maps = [#map2, #map3], iterator_types = ["parallel", "parallel", "parallel"]} ins(%368 : memref<1x40xi64>) outs(%alloc_3363 : memref<1x40x128xf32>) {
    ^bb0(%in: i64, %out: f32):
      %371 = arith.index_cast %in : i64 to index
      %372 = linalg.index 2 : index
      %373 = memref.load %alloc_3360[%371, %372] : memref<40x128xf32>
      linalg.yield %373 : f32
    }
    %expand_shape_3364 = memref.expand_shape %alloc_3363 [[0, 1], [2], [3]] : memref<1x40x128xf32> into memref<1x1x40x128xf32>
    %alloc_3365 = memref.alloc() {alignment = 64 : i64} : memref<1x32x40x128xf32>
    linalg.generic {indexing_maps = [#map19, #map8, #map9], iterator_types = ["parallel", "parallel", "parallel", "parallel"]} ins(%alloc_3350, %expand_shape_3362 : memref<1x32x40x128xf32>, memref<1x1x40x128xf32>) outs(%alloc_3365 : memref<1x32x40x128xf32>) {
    ^bb0(%in: f32, %in_3451: f32, %out: f32):
      %371 = arith.mulf %in, %in_3451 : f32
      linalg.yield %371 : f32
    }
    %subview_3366 = memref.subview %alloc_3350[0, 0, 0, 0] [1, 32, 40, 64] [1, 1, 1, 1] : memref<1x32x40x128xf32> to memref<1x32x40x64xf32, strided<[163840, 5120, 128, 1]>>
    %subview_3367 = memref.subview %alloc_3350[0, 0, 0, 64] [1, 32, 40, 64] [1, 1, 1, 1] : memref<1x32x40x128xf32> to memref<1x32x40x64xf32, strided<[163840, 5120, 128, 1], offset: 64>>
    %alloc_3368 = memref.alloc() {alignment = 64 : i64} : memref<1x32x40x64xf32>
    linalg.generic {indexing_maps = [#map19, #map9], iterator_types = ["parallel", "parallel", "parallel", "parallel"]} ins(%subview_3367 : memref<1x32x40x64xf32, strided<[163840, 5120, 128, 1], offset: 64>>) outs(%alloc_3368 : memref<1x32x40x64xf32>) {
    ^bb0(%in: f32, %out: f32):
      %371 = arith.negf %in : f32
      linalg.yield %371 : f32
    }
    %alloc_3369 = memref.alloc() {alignment = 64 : i64} : memref<1x32x40x128xf32>
    %subview_3370 = memref.subview %alloc_3369[0, 0, 0, 0] [1, 32, 40, 64] [1, 1, 1, 1] : memref<1x32x40x128xf32> to memref<1x32x40x64xf32, strided<[163840, 5120, 128, 1]>>
    memref.copy %alloc_3368, %subview_3370 : memref<1x32x40x64xf32> to memref<1x32x40x64xf32, strided<[163840, 5120, 128, 1]>>
    %subview_3371 = memref.subview %alloc_3369[0, 0, 0, 64] [1, 32, 40, 64] [1, 1, 1, 1] : memref<1x32x40x128xf32> to memref<1x32x40x64xf32, strided<[163840, 5120, 128, 1], offset: 64>>
    memref.copy %subview_3366, %subview_3371 : memref<1x32x40x64xf32, strided<[163840, 5120, 128, 1]>> to memref<1x32x40x64xf32, strided<[163840, 5120, 128, 1], offset: 64>>
    %alloc_3372 = memref.alloc() {alignment = 64 : i64} : memref<1x32x40x128xf32>
    linalg.generic {indexing_maps = [#map19, #map8, #map9], iterator_types = ["parallel", "parallel", "parallel", "parallel"]} ins(%alloc_3369, %expand_shape_3364 : memref<1x32x40x128xf32>, memref<1x1x40x128xf32>) outs(%alloc_3372 : memref<1x32x40x128xf32>) {
    ^bb0(%in: f32, %in_3451: f32, %out: f32):
      %371 = arith.mulf %in, %in_3451 : f32
      linalg.yield %371 : f32
    }
    %alloc_3373 = memref.alloc() {alignment = 64 : i64} : memref<1x32x40x128xf32>
    linalg.generic {indexing_maps = [#map19, #map19, #map9], iterator_types = ["parallel", "parallel", "parallel", "parallel"]} ins(%alloc_3365, %alloc_3372 : memref<1x32x40x128xf32>, memref<1x32x40x128xf32>) outs(%alloc_3373 : memref<1x32x40x128xf32>) {
    ^bb0(%in: f32, %in_3451: f32, %out: f32):
      %371 = arith.addf %in, %in_3451 : f32
      linalg.yield %371 : f32
    }
    %alloc_3374 = memref.alloc() {alignment = 64 : i64} : memref<1x32x40x128xf32>
    linalg.generic {indexing_maps = [#map19, #map8, #map9], iterator_types = ["parallel", "parallel", "parallel", "parallel"]} ins(%alloc_3352, %expand_shape_3362 : memref<1x32x40x128xf32>, memref<1x1x40x128xf32>) outs(%alloc_3374 : memref<1x32x40x128xf32>) {
    ^bb0(%in: f32, %in_3451: f32, %out: f32):
      %371 = arith.mulf %in, %in_3451 : f32
      linalg.yield %371 : f32
    }
    %subview_3375 = memref.subview %alloc_3352[0, 0, 0, 0] [1, 32, 40, 64] [1, 1, 1, 1] : memref<1x32x40x128xf32> to memref<1x32x40x64xf32, strided<[163840, 5120, 128, 1]>>
    %subview_3376 = memref.subview %alloc_3352[0, 0, 0, 64] [1, 32, 40, 64] [1, 1, 1, 1] : memref<1x32x40x128xf32> to memref<1x32x40x64xf32, strided<[163840, 5120, 128, 1], offset: 64>>
    %alloc_3377 = memref.alloc() {alignment = 64 : i64} : memref<1x32x40x64xf32>
    linalg.generic {indexing_maps = [#map19, #map9], iterator_types = ["parallel", "parallel", "parallel", "parallel"]} ins(%subview_3376 : memref<1x32x40x64xf32, strided<[163840, 5120, 128, 1], offset: 64>>) outs(%alloc_3377 : memref<1x32x40x64xf32>) {
    ^bb0(%in: f32, %out: f32):
      %371 = arith.negf %in : f32
      linalg.yield %371 : f32
    }
    %alloc_3378 = memref.alloc() {alignment = 64 : i64} : memref<1x32x40x128xf32>
    %subview_3379 = memref.subview %alloc_3378[0, 0, 0, 0] [1, 32, 40, 64] [1, 1, 1, 1] : memref<1x32x40x128xf32> to memref<1x32x40x64xf32, strided<[163840, 5120, 128, 1]>>
    memref.copy %alloc_3377, %subview_3379 : memref<1x32x40x64xf32> to memref<1x32x40x64xf32, strided<[163840, 5120, 128, 1]>>
    %subview_3380 = memref.subview %alloc_3378[0, 0, 0, 64] [1, 32, 40, 64] [1, 1, 1, 1] : memref<1x32x40x128xf32> to memref<1x32x40x64xf32, strided<[163840, 5120, 128, 1], offset: 64>>
    memref.copy %subview_3375, %subview_3380 : memref<1x32x40x64xf32, strided<[163840, 5120, 128, 1]>> to memref<1x32x40x64xf32, strided<[163840, 5120, 128, 1], offset: 64>>
    %alloc_3381 = memref.alloc() {alignment = 64 : i64} : memref<1x32x40x128xf32>
    linalg.generic {indexing_maps = [#map19, #map8, #map9], iterator_types = ["parallel", "parallel", "parallel", "parallel"]} ins(%alloc_3378, %expand_shape_3364 : memref<1x32x40x128xf32>, memref<1x1x40x128xf32>) outs(%alloc_3381 : memref<1x32x40x128xf32>) {
    ^bb0(%in: f32, %in_3451: f32, %out: f32):
      %371 = arith.mulf %in, %in_3451 : f32
      linalg.yield %371 : f32
    }
    %alloc_3382 = memref.alloc() {alignment = 64 : i64} : memref<1x32x40x128xf32>
    linalg.generic {indexing_maps = [#map19, #map19, #map9], iterator_types = ["parallel", "parallel", "parallel", "parallel"]} ins(%alloc_3374, %alloc_3381 : memref<1x32x40x128xf32>, memref<1x32x40x128xf32>) outs(%alloc_3382 : memref<1x32x40x128xf32>) {
    ^bb0(%in: f32, %in_3451: f32, %out: f32):
      %371 = arith.addf %in, %in_3451 : f32
      linalg.yield %371 : f32
    }
    %alloc_3383 = memref.alloc() {alignment = 64 : i64} : memref<1x32x128x40xf32>
    linalg.generic {indexing_maps = [#map20, #map9], iterator_types = ["parallel", "parallel", "parallel", "parallel"]} ins(%alloc_3382 : memref<1x32x40x128xf32>) outs(%alloc_3383 : memref<1x32x128x40xf32>) {
    ^bb0(%in: f32, %out: f32):
      linalg.yield %in : f32
    }
    %collapse_shape_3384 = memref.collapse_shape %alloc_3373 [[0, 1], [2], [3]] : memref<1x32x40x128xf32> into memref<32x40x128xf32>
    %collapse_shape_3385 = memref.collapse_shape %alloc_3383 [[0, 1], [2], [3]] : memref<1x32x128x40xf32> into memref<32x128x40xf32>
    %alloc_3386 = memref.alloc() {alignment = 64 : i64} : memref<32x40x40xf32>
    linalg.fill ins(%cst_1 : f32) outs(%alloc_3386 : memref<32x40x40xf32>)
    linalg.batch_matmul ins(%collapse_shape_3384, %collapse_shape_3385 : memref<32x40x128xf32>, memref<32x128x40xf32>) outs(%alloc_3386 : memref<32x40x40xf32>)
    %expand_shape_3387 = memref.expand_shape %alloc_3386 [[0, 1], [2], [3]] : memref<32x40x40xf32> into memref<1x32x40x40xf32>
    %alloc_3388 = memref.alloc() {alignment = 64 : i64} : memref<1x32x40x40xf32>
    linalg.generic {indexing_maps = [#map19, #map9], iterator_types = ["parallel", "parallel", "parallel", "parallel"]} ins(%358 : memref<1x32x40x40xf32>) outs(%alloc_3388 : memref<1x32x40x40xf32>) {
    ^bb0(%in: f32, %out: f32):
      %371 = arith.divf %cst, %in : f32
      linalg.yield %371 : f32
    }
    %alloc_3389 = memref.alloc() {alignment = 64 : i64} : memref<1x32x40x40xf32>
    linalg.generic {indexing_maps = [#map19, #map19, #map9], iterator_types = ["parallel", "parallel", "parallel", "parallel"]} ins(%expand_shape_3387, %alloc_3388 : memref<1x32x40x40xf32>, memref<1x32x40x40xf32>) outs(%alloc_3389 : memref<1x32x40x40xf32>) {
    ^bb0(%in: f32, %in_3451: f32, %out: f32):
      %371 = arith.mulf %in, %in_3451 : f32
      linalg.yield %371 : f32
    }
    %alloc_3390 = memref.alloc() {alignment = 64 : i64} : memref<1x32x40x40xf32>
    linalg.generic {indexing_maps = [#map19, #map8, #map9], iterator_types = ["parallel", "parallel", "parallel", "parallel"]} ins(%alloc_3389, %alloc_13 : memref<1x32x40x40xf32>, memref<1x1x40x40xf32>) outs(%alloc_3390 : memref<1x32x40x40xf32>) {
    ^bb0(%in: f32, %in_3451: f32, %out: f32):
      %371 = arith.addf %in, %in_3451 : f32
      linalg.yield %371 : f32
    }
    %alloc_3391 = memref.alloc() {alignment = 64 : i64} : memref<1x32x40xf32>
    linalg.fill ins(%cst_0 : f32) outs(%alloc_3391 : memref<1x32x40xf32>)
    linalg.reduce ins(%alloc_3390 : memref<1x32x40x40xf32>) outs(%alloc_3391 : memref<1x32x40xf32>) dimensions = [3] 
      (%in: f32, %init: f32) {
        %371 = arith.cmpf ugt, %in, %init : f32
        %372 = arith.select %371, %in, %init : f32
        %373 = arith.cmpf uno, %init, %init : f32
        %374 = arith.select %373, %init, %372 : f32
        linalg.yield %374 : f32
      }
    %expand_shape_3392 = memref.expand_shape %alloc_3391 [[0], [1], [2, 3]] : memref<1x32x40xf32> into memref<1x32x40x1xf32>
    %alloc_3393 = memref.alloc() {alignment = 64 : i64} : memref<1x32x40x40xf32>
    linalg.generic {indexing_maps = [#map19, #map21, #map9], iterator_types = ["parallel", "parallel", "parallel", "parallel"]} ins(%alloc_3390, %expand_shape_3392 : memref<1x32x40x40xf32>, memref<1x32x40x1xf32>) outs(%alloc_3393 : memref<1x32x40x40xf32>) {
    ^bb0(%in: f32, %in_3451: f32, %out: f32):
      %371 = arith.subf %in, %in_3451 : f32
      linalg.yield %371 : f32
    }
    %alloc_3394 = memref.alloc() {alignment = 64 : i64} : memref<1x32x40x40xf32>
    linalg.generic {indexing_maps = [#map19, #map9], iterator_types = ["parallel", "parallel", "parallel", "parallel"]} ins(%alloc_3393 : memref<1x32x40x40xf32>) outs(%alloc_3394 : memref<1x32x40x40xf32>) {
    ^bb0(%in: f32, %out: f32):
      %371 = math.exp %in : f32
      linalg.yield %371 : f32
    }
    %alloc_3395 = memref.alloc() {alignment = 64 : i64} : memref<1x32x40xf32>
    linalg.fill ins(%cst_1 : f32) outs(%alloc_3395 : memref<1x32x40xf32>)
    linalg.reduce ins(%alloc_3394 : memref<1x32x40x40xf32>) outs(%alloc_3395 : memref<1x32x40xf32>) dimensions = [3] 
      (%in: f32, %init: f32) {
        %371 = arith.addf %in, %init : f32
        linalg.yield %371 : f32
      }
    %expand_shape_3396 = memref.expand_shape %alloc_3395 [[0], [1], [2, 3]] : memref<1x32x40xf32> into memref<1x32x40x1xf32>
    %alloc_3397 = memref.alloc() {alignment = 64 : i64} : memref<1x32x40x1xf32>
    linalg.generic {indexing_maps = [#map21, #map9], iterator_types = ["parallel", "parallel", "parallel", "parallel"]} ins(%expand_shape_3396 : memref<1x32x40x1xf32>) outs(%alloc_3397 : memref<1x32x40x1xf32>) {
    ^bb0(%in: f32, %out: f32):
      %371 = arith.divf %cst, %in : f32
      linalg.yield %371 : f32
    }
    %alloc_3398 = memref.alloc() {alignment = 64 : i64} : memref<1x32x40x40xf32>
    linalg.generic {indexing_maps = [#map19, #map21, #map9], iterator_types = ["parallel", "parallel", "parallel", "parallel"]} ins(%alloc_3394, %alloc_3397 : memref<1x32x40x40xf32>, memref<1x32x40x1xf32>) outs(%alloc_3398 : memref<1x32x40x40xf32>) {
    ^bb0(%in: f32, %in_3451: f32, %out: f32):
      %371 = arith.mulf %in, %in_3451 : f32
      linalg.yield %371 : f32
    }
    %collapse_shape_3399 = memref.collapse_shape %alloc_3398 [[0, 1], [2], [3]] : memref<1x32x40x40xf32> into memref<32x40x40xf32>
    %collapse_shape_3400 = memref.collapse_shape %alloc_3354 [[0, 1], [2], [3]] : memref<1x32x40x128xf32> into memref<32x40x128xf32>
    %alloc_3401 = memref.alloc() {alignment = 64 : i64} : memref<32x40x128xf32>
    linalg.fill ins(%cst_1 : f32) outs(%alloc_3401 : memref<32x40x128xf32>)
    linalg.batch_matmul ins(%collapse_shape_3399, %collapse_shape_3400 : memref<32x40x40xf32>, memref<32x40x128xf32>) outs(%alloc_3401 : memref<32x40x128xf32>)
    %expand_shape_3402 = memref.expand_shape %alloc_3401 [[0, 1], [2], [3]] : memref<32x40x128xf32> into memref<1x32x40x128xf32>
    %alloc_3403 = memref.alloc() {alignment = 64 : i64} : memref<1x40x32x128xf32>
    linalg.generic {indexing_maps = [#map16, #map9], iterator_types = ["parallel", "parallel", "parallel", "parallel"]} ins(%expand_shape_3402 : memref<1x32x40x128xf32>) outs(%alloc_3403 : memref<1x40x32x128xf32>) {
    ^bb0(%in: f32, %out: f32):
      linalg.yield %in : f32
    }
    %alloc_3404 = memref.alloc() {alignment = 64 : i64} : memref<4096x4096xf32>
    linalg.generic {indexing_maps = [#map15, #map1], iterator_types = ["parallel", "parallel"]} ins(%6 : memref<4096x4096xf32, strided<[?, ?], offset: ?>>) outs(%alloc_3404 : memref<4096x4096xf32>) {
    ^bb0(%in: f32, %out: f32):
      linalg.yield %in : f32
    }
    %collapse_shape_3405 = memref.collapse_shape %alloc_3403 [[0, 1], [2, 3]] : memref<1x40x32x128xf32> into memref<40x4096xf32>
    %alloc_3406 = memref.alloc() {alignment = 64 : i64} : memref<40x4096xf32>
    memref.copy %359, %alloc_3406 : memref<40x4096xf32> to memref<40x4096xf32>
    linalg.matmul {cast = #linalg.type_fn<cast_signed>} ins(%collapse_shape_3405, %alloc_3404 : memref<40x4096xf32>, memref<4096x4096xf32>) outs(%alloc_3406 : memref<40x4096xf32>)
    %expand_shape_3407 = memref.expand_shape %alloc_3406 [[0, 1], [2]] : memref<40x4096xf32> into memref<1x40x4096xf32>
    %alloc_3408 = memref.alloc() {alignment = 64 : i64} : memref<1x40x4096xf32>
    linalg.generic {indexing_maps = [#map13, #map13, #map3], iterator_types = ["parallel", "parallel", "parallel"]} ins(%alloc_3328, %expand_shape_3407 : memref<1x40x4096xf32>, memref<1x40x4096xf32>) outs(%alloc_3408 : memref<1x40x4096xf32>) {
    ^bb0(%in: f32, %in_3451: f32, %out: f32):
      %371 = arith.addf %in, %in_3451 : f32
      linalg.yield %371 : f32
    }
    %alloc_3409 = memref.alloc() {alignment = 64 : i64} : memref<1x40x4096xf32>
    linalg.generic {indexing_maps = [#map3, #map3], iterator_types = ["parallel", "parallel", "parallel"]} ins(%alloc_3408 : memref<1x40x4096xf32>) outs(%alloc_3409 : memref<1x40x4096xf32>) {
    ^bb0(%in: f32, %out: f32):
      %371 = math.fpowi %in, %c2_i32 : f32, i32
      linalg.yield %371 : f32
    }
    %alloc_3410 = memref.alloc() {alignment = 64 : i64} : memref<1x40xf32>
    linalg.fill ins(%cst_1 : f32) outs(%alloc_3410 : memref<1x40xf32>)
    linalg.reduce ins(%alloc_3409 : memref<1x40x4096xf32>) outs(%alloc_3410 : memref<1x40xf32>) dimensions = [2] 
      (%in: f32, %init: f32) {
        %371 = arith.addf %in, %init : f32
        linalg.yield %371 : f32
      }
    %expand_shape_3411 = memref.expand_shape %alloc_3410 [[0], [1, 2]] : memref<1x40xf32> into memref<1x40x1xf32>
    %alloc_3412 = memref.alloc() {alignment = 64 : i64} : memref<1xf32>
    linalg.generic {indexing_maps = [#map10, #map4], iterator_types = ["parallel"]} ins(%361 : memref<1xf32>) outs(%alloc_3412 : memref<1xf32>) {
    ^bb0(%in: f32, %out: f32):
      %371 = arith.divf %cst, %in : f32
      linalg.yield %371 : f32
    }
    %expand_shape_3413 = memref.expand_shape %alloc_3412 [[0, 1, 2]] : memref<1xf32> into memref<1x1x1xf32>
    %alloc_3414 = memref.alloc() {alignment = 64 : i64} : memref<1x40x1xf32>
    linalg.generic {indexing_maps = [#map11, #map12, #map3], iterator_types = ["parallel", "parallel", "parallel"]} ins(%expand_shape_3413, %expand_shape_3411 : memref<1x1x1xf32>, memref<1x40x1xf32>) outs(%alloc_3414 : memref<1x40x1xf32>) {
    ^bb0(%in: f32, %in_3451: f32, %out: f32):
      %371 = arith.mulf %in, %in_3451 : f32
      linalg.yield %371 : f32
    }
    %alloc_3415 = memref.alloc() {alignment = 64 : i64} : memref<1x40x1xf32>
    linalg.generic {indexing_maps = [#map12, #map12, #map3], iterator_types = ["parallel", "parallel", "parallel"]} ins(%alloc_3414, %360 : memref<1x40x1xf32>, memref<1x40x1xf32>) outs(%alloc_3415 : memref<1x40x1xf32>) {
    ^bb0(%in: f32, %in_3451: f32, %out: f32):
      %371 = arith.addf %in, %in_3451 : f32
      linalg.yield %371 : f32
    }
    %alloc_3416 = memref.alloc() {alignment = 64 : i64} : memref<1x40x1xf32>
    linalg.generic {indexing_maps = [#map12, #map3], iterator_types = ["parallel", "parallel", "parallel"]} ins(%alloc_3415 : memref<1x40x1xf32>) outs(%alloc_3416 : memref<1x40x1xf32>) {
    ^bb0(%in: f32, %out: f32):
      %371 = math.rsqrt %in : f32
      linalg.yield %371 : f32
    }
    %alloc_3417 = memref.alloc() {alignment = 64 : i64} : memref<1x40x4096xf32>
    linalg.generic {indexing_maps = [#map13, #map12, #map3], iterator_types = ["parallel", "parallel", "parallel"]} ins(%alloc_3408, %alloc_3416 : memref<1x40x4096xf32>, memref<1x40x1xf32>) outs(%alloc_3417 : memref<1x40x4096xf32>) {
    ^bb0(%in: f32, %in_3451: f32, %out: f32):
      %371 = arith.mulf %in, %in_3451 : f32
      linalg.yield %371 : f32
    }
    %expand_shape_3418 = memref.expand_shape %5 [[0, 1, 2]] : memref<4096xf32, strided<[?], offset: ?>> into memref<1x1x4096xf32, strided<[?, ?, ?], offset: ?>>
    %alloc_3419 = memref.alloc() {alignment = 64 : i64} : memref<1x40x4096xf32>
    linalg.generic {indexing_maps = [#map14, #map13, #map3], iterator_types = ["parallel", "parallel", "parallel"]} ins(%expand_shape_3418, %alloc_3417 : memref<1x1x4096xf32, strided<[?, ?, ?], offset: ?>>, memref<1x40x4096xf32>) outs(%alloc_3419 : memref<1x40x4096xf32>) {
    ^bb0(%in: f32, %in_3451: f32, %out: f32):
      %371 = arith.mulf %in, %in_3451 : f32
      linalg.yield %371 : f32
    }
    %alloc_3420 = memref.alloc() {alignment = 64 : i64} : memref<4096x11008xf32>
    linalg.generic {indexing_maps = [#map15, #map1], iterator_types = ["parallel", "parallel"]} ins(%4 : memref<11008x4096xf32, strided<[?, ?], offset: ?>>) outs(%alloc_3420 : memref<4096x11008xf32>) {
    ^bb0(%in: f32, %out: f32):
      linalg.yield %in : f32
    }
    %collapse_shape_3421 = memref.collapse_shape %alloc_3419 [[0, 1], [2]] : memref<1x40x4096xf32> into memref<40x4096xf32>
    %alloc_3422 = memref.alloc() {alignment = 64 : i64} : memref<40x11008xf32>
    memref.copy %357, %alloc_3422 : memref<40x11008xf32> to memref<40x11008xf32>
    linalg.matmul {cast = #linalg.type_fn<cast_signed>} ins(%collapse_shape_3421, %alloc_3420 : memref<40x4096xf32>, memref<4096x11008xf32>) outs(%alloc_3422 : memref<40x11008xf32>)
    %expand_shape_3423 = memref.expand_shape %alloc_3422 [[0, 1], [2]] : memref<40x11008xf32> into memref<1x40x11008xf32>
    %alloc_3424 = memref.alloc() {alignment = 64 : i64} : memref<1x40x11008xf32>
    linalg.generic {indexing_maps = [#map13, #map3], iterator_types = ["parallel", "parallel", "parallel"]} ins(%expand_shape_3423 : memref<1x40x11008xf32>) outs(%alloc_3424 : memref<1x40x11008xf32>) {
    ^bb0(%in: f32, %out: f32):
      %371 = arith.negf %in : f32
      %372 = math.exp %371 : f32
      %373 = arith.addf %372, %cst : f32
      %374 = arith.divf %cst, %373 : f32
      linalg.yield %374 : f32
    }
    %alloc_3425 = memref.alloc() {alignment = 64 : i64} : memref<1x40x11008xf32>
    linalg.generic {indexing_maps = [#map13, #map13, #map3], iterator_types = ["parallel", "parallel", "parallel"]} ins(%expand_shape_3423, %alloc_3424 : memref<1x40x11008xf32>, memref<1x40x11008xf32>) outs(%alloc_3425 : memref<1x40x11008xf32>) {
    ^bb0(%in: f32, %in_3451: f32, %out: f32):
      %371 = arith.mulf %in, %in_3451 : f32
      linalg.yield %371 : f32
    }
    %alloc_3426 = memref.alloc() {alignment = 64 : i64} : memref<4096x11008xf32>
    linalg.generic {indexing_maps = [#map15, #map1], iterator_types = ["parallel", "parallel"]} ins(%3 : memref<11008x4096xf32, strided<[?, ?], offset: ?>>) outs(%alloc_3426 : memref<4096x11008xf32>) {
    ^bb0(%in: f32, %out: f32):
      linalg.yield %in : f32
    }
    %collapse_shape_3427 = memref.collapse_shape %alloc_3419 [[0, 1], [2]] : memref<1x40x4096xf32> into memref<40x4096xf32>
    %alloc_3428 = memref.alloc() {alignment = 64 : i64} : memref<40x11008xf32>
    memref.copy %357, %alloc_3428 : memref<40x11008xf32> to memref<40x11008xf32>
    linalg.matmul {cast = #linalg.type_fn<cast_signed>} ins(%collapse_shape_3427, %alloc_3426 : memref<40x4096xf32>, memref<4096x11008xf32>) outs(%alloc_3428 : memref<40x11008xf32>)
    %expand_shape_3429 = memref.expand_shape %alloc_3428 [[0, 1], [2]] : memref<40x11008xf32> into memref<1x40x11008xf32>
    %alloc_3430 = memref.alloc() {alignment = 64 : i64} : memref<1x40x11008xf32>
    linalg.generic {indexing_maps = [#map13, #map13, #map3], iterator_types = ["parallel", "parallel", "parallel"]} ins(%alloc_3425, %expand_shape_3429 : memref<1x40x11008xf32>, memref<1x40x11008xf32>) outs(%alloc_3430 : memref<1x40x11008xf32>) {
    ^bb0(%in: f32, %in_3451: f32, %out: f32):
      %371 = arith.mulf %in, %in_3451 : f32
      linalg.yield %371 : f32
    }
    %alloc_3431 = memref.alloc() {alignment = 64 : i64} : memref<11008x4096xf32>
    linalg.generic {indexing_maps = [#map15, #map1], iterator_types = ["parallel", "parallel"]} ins(%2 : memref<4096x11008xf32, strided<[?, ?], offset: ?>>) outs(%alloc_3431 : memref<11008x4096xf32>) {
    ^bb0(%in: f32, %out: f32):
      linalg.yield %in : f32
    }
    %collapse_shape_3432 = memref.collapse_shape %alloc_3430 [[0, 1], [2]] : memref<1x40x11008xf32> into memref<40x11008xf32>
    %alloc_3433 = memref.alloc() {alignment = 64 : i64} : memref<40x4096xf32>
    memref.copy %359, %alloc_3433 : memref<40x4096xf32> to memref<40x4096xf32>
    linalg.matmul {cast = #linalg.type_fn<cast_signed>} ins(%collapse_shape_3432, %alloc_3431 : memref<40x11008xf32>, memref<11008x4096xf32>) outs(%alloc_3433 : memref<40x4096xf32>)
    %expand_shape_3434 = memref.expand_shape %alloc_3433 [[0, 1], [2]] : memref<40x4096xf32> into memref<1x40x4096xf32>
    %alloc_3435 = memref.alloc() {alignment = 64 : i64} : memref<1x40x4096xf32>
    linalg.generic {indexing_maps = [#map13, #map13, #map3], iterator_types = ["parallel", "parallel", "parallel"]} ins(%alloc_3408, %expand_shape_3434 : memref<1x40x4096xf32>, memref<1x40x4096xf32>) outs(%alloc_3435 : memref<1x40x4096xf32>) {
    ^bb0(%in: f32, %in_3451: f32, %out: f32):
      %371 = arith.addf %in, %in_3451 : f32
      linalg.yield %371 : f32
    }
    %alloc_3436 = memref.alloc() {alignment = 64 : i64} : memref<1x40x4096xf32>
    linalg.generic {indexing_maps = [#map3, #map3], iterator_types = ["parallel", "parallel", "parallel"]} ins(%alloc_3435 : memref<1x40x4096xf32>) outs(%alloc_3436 : memref<1x40x4096xf32>) {
    ^bb0(%in: f32, %out: f32):
      %371 = math.fpowi %in, %c2_i32 : f32, i32
      linalg.yield %371 : f32
    }
    %alloc_3437 = memref.alloc() {alignment = 64 : i64} : memref<1x40xf32>
    linalg.fill ins(%cst_1 : f32) outs(%alloc_3437 : memref<1x40xf32>)
    linalg.reduce ins(%alloc_3436 : memref<1x40x4096xf32>) outs(%alloc_3437 : memref<1x40xf32>) dimensions = [2] 
      (%in: f32, %init: f32) {
        %371 = arith.addf %in, %init : f32
        linalg.yield %371 : f32
      }
    %expand_shape_3438 = memref.expand_shape %alloc_3437 [[0], [1, 2]] : memref<1x40xf32> into memref<1x40x1xf32>
    %alloc_3439 = memref.alloc() {alignment = 64 : i64} : memref<1xf32>
    linalg.generic {indexing_maps = [#map10, #map4], iterator_types = ["parallel"]} ins(%361 : memref<1xf32>) outs(%alloc_3439 : memref<1xf32>) {
    ^bb0(%in: f32, %out: f32):
      %371 = arith.divf %cst, %in : f32
      linalg.yield %371 : f32
    }
    %expand_shape_3440 = memref.expand_shape %alloc_3439 [[0, 1, 2]] : memref<1xf32> into memref<1x1x1xf32>
    %alloc_3441 = memref.alloc() {alignment = 64 : i64} : memref<1x40x1xf32>
    linalg.generic {indexing_maps = [#map11, #map12, #map3], iterator_types = ["parallel", "parallel", "parallel"]} ins(%expand_shape_3440, %expand_shape_3438 : memref<1x1x1xf32>, memref<1x40x1xf32>) outs(%alloc_3441 : memref<1x40x1xf32>) {
    ^bb0(%in: f32, %in_3451: f32, %out: f32):
      %371 = arith.mulf %in, %in_3451 : f32
      linalg.yield %371 : f32
    }
    %alloc_3442 = memref.alloc() {alignment = 64 : i64} : memref<1x40x1xf32>
    linalg.generic {indexing_maps = [#map12, #map12, #map3], iterator_types = ["parallel", "parallel", "parallel"]} ins(%alloc_3441, %360 : memref<1x40x1xf32>, memref<1x40x1xf32>) outs(%alloc_3442 : memref<1x40x1xf32>) {
    ^bb0(%in: f32, %in_3451: f32, %out: f32):
      %371 = arith.addf %in, %in_3451 : f32
      linalg.yield %371 : f32
    }
    %alloc_3443 = memref.alloc() {alignment = 64 : i64} : memref<1x40x1xf32>
    linalg.generic {indexing_maps = [#map12, #map3], iterator_types = ["parallel", "parallel", "parallel"]} ins(%alloc_3442 : memref<1x40x1xf32>) outs(%alloc_3443 : memref<1x40x1xf32>) {
    ^bb0(%in: f32, %out: f32):
      %371 = math.rsqrt %in : f32
      linalg.yield %371 : f32
    }
    %alloc_3444 = memref.alloc() {alignment = 64 : i64} : memref<1x40x4096xf32>
    linalg.generic {indexing_maps = [#map13, #map12, #map3], iterator_types = ["parallel", "parallel", "parallel"]} ins(%alloc_3435, %alloc_3443 : memref<1x40x4096xf32>, memref<1x40x1xf32>) outs(%alloc_3444 : memref<1x40x4096xf32>) {
    ^bb0(%in: f32, %in_3451: f32, %out: f32):
      %371 = arith.mulf %in, %in_3451 : f32
      linalg.yield %371 : f32
    }
    %expand_shape_3445 = memref.expand_shape %1 [[0, 1, 2]] : memref<4096xf32, strided<[?], offset: ?>> into memref<1x1x4096xf32, strided<[?, ?, ?], offset: ?>>
    %alloc_3446 = memref.alloc() {alignment = 64 : i64} : memref<1x40x4096xf32>
    linalg.generic {indexing_maps = [#map14, #map13, #map3], iterator_types = ["parallel", "parallel", "parallel"]} ins(%expand_shape_3445, %alloc_3444 : memref<1x1x4096xf32, strided<[?, ?, ?], offset: ?>>, memref<1x40x4096xf32>) outs(%alloc_3446 : memref<1x40x4096xf32>) {
    ^bb0(%in: f32, %in_3451: f32, %out: f32):
      %371 = arith.mulf %in, %in_3451 : f32
      linalg.yield %371 : f32
    }
    %369 = bufferization.to_tensor %alloc_3446 : memref<1x40x4096xf32>
    %alloc_3447 = memref.alloc() {alignment = 64 : i64} : memref<4096x32000xf32>
    linalg.generic {indexing_maps = [#map15, #map1], iterator_types = ["parallel", "parallel"]} ins(%0 : memref<32000x4096xf32, strided<[?, ?], offset: ?>>) outs(%alloc_3447 : memref<4096x32000xf32>) {
    ^bb0(%in: f32, %out: f32):
      linalg.yield %in : f32
    }
    %collapse_shape_3448 = memref.collapse_shape %alloc_3446 [[0, 1], [2]] : memref<1x40x4096xf32> into memref<40x4096xf32>
    %alloc_3449 = memref.alloc() {alignment = 64 : i64} : memref<40x32000xf32>
    memref.copy %356, %alloc_3449 : memref<40x32000xf32> to memref<40x32000xf32>
    linalg.matmul {cast = #linalg.type_fn<cast_signed>} ins(%collapse_shape_3448, %alloc_3447 : memref<40x4096xf32>, memref<4096x32000xf32>) outs(%alloc_3449 : memref<40x32000xf32>)
    %expand_shape_3450 = memref.expand_shape %alloc_3449 [[0, 1], [2]] : memref<40x32000xf32> into memref<1x40x32000xf32>
    %370 = bufferization.to_tensor %expand_shape_3450 : memref<1x40x32000xf32>
    return %369, %370 : tensor<1x40x4096xf32>, tensor<1x40x32000xf32>
  }
}

