#map = affine_map<(d0, d1, d2) -> (d1)>
#map1 = affine_map<(d0, d1, d2) -> (d0, d2)>
#map2 = affine_map<(d0, d1, d2) -> (d0, d1)>
#map3 = affine_map<(d0, d1) -> (d0, d1)>
#map4 = affine_map<(d0, d1, d2, d3) -> (d0, d1, d2, d3)>
#map5 = affine_map<(d0, d1, d2) -> (d0, d1, d2)>
#map6 = affine_map<(d0, d1, d2) -> (d0, 0, d1, d2)>
#map7 = affine_map<(d0, d1) -> (0, d0, d1)>
module {
  func.func @subgraph0(%arg0: tensor<32000x4096xf32>, %arg1: tensor<1x40xi64>, %arg2: tensor<4096xf32>, %arg3: tensor<4096x4096xf32>, %arg4: tensor<4096x4096xf32>, %arg5: tensor<4096x4096xf32>, %arg6: tensor<1x1x2048x128xf32>, %arg7: tensor<1x1x2048x128xf32>, %arg8: tensor<4096x4096xf32>, %arg9: tensor<4096xf32>, %arg10: tensor<11008x4096xf32>, %arg11: tensor<11008x4096xf32>, %arg12: tensor<4096x11008xf32>, %arg13: tensor<4096xf32>, %arg14: tensor<4096x4096xf32>, %arg15: tensor<4096x4096xf32>, %arg16: tensor<4096x4096xf32>, %arg17: tensor<1x1x2048x128xf32>, %arg18: tensor<1x1x2048x128xf32>, %arg19: tensor<4096x4096xf32>, %arg20: tensor<4096xf32>, %arg21: tensor<11008x4096xf32>, %arg22: tensor<11008x4096xf32>, %arg23: tensor<4096x11008xf32>, %arg24: tensor<4096xf32>, %arg25: tensor<4096x4096xf32>, %arg26: tensor<4096x4096xf32>, %arg27: tensor<4096x4096xf32>, %arg28: tensor<1x1x2048x128xf32>, %arg29: tensor<1x1x2048x128xf32>, %arg30: tensor<4096x4096xf32>, %arg31: tensor<4096xf32>, %arg32: tensor<11008x4096xf32>, %arg33: tensor<11008x4096xf32>, %arg34: tensor<4096x11008xf32>, %arg35: tensor<4096xf32>, %arg36: tensor<4096x4096xf32>, %arg37: tensor<4096x4096xf32>, %arg38: tensor<4096x4096xf32>, %arg39: tensor<1x1x2048x128xf32>, %arg40: tensor<1x1x2048x128xf32>, %arg41: tensor<4096x4096xf32>, %arg42: tensor<4096xf32>, %arg43: tensor<11008x4096xf32>, %arg44: tensor<11008x4096xf32>, %arg45: tensor<4096x11008xf32>, %arg46: tensor<4096xf32>, %arg47: tensor<4096x4096xf32>, %arg48: tensor<4096x4096xf32>, %arg49: tensor<4096x4096xf32>, %arg50: tensor<1x1x2048x128xf32>, %arg51: tensor<1x1x2048x128xf32>, %arg52: tensor<4096x4096xf32>, %arg53: tensor<4096xf32>, %arg54: tensor<11008x4096xf32>, %arg55: tensor<11008x4096xf32>, %arg56: tensor<4096x11008xf32>, %arg57: tensor<4096xf32>, %arg58: tensor<4096x4096xf32>, %arg59: tensor<4096x4096xf32>, %arg60: tensor<4096x4096xf32>, %arg61: tensor<1x1x2048x128xf32>, %arg62: tensor<1x1x2048x128xf32>, %arg63: tensor<4096x4096xf32>, %arg64: tensor<4096xf32>, %arg65: tensor<11008x4096xf32>, %arg66: tensor<11008x4096xf32>, %arg67: tensor<4096x11008xf32>, %arg68: tensor<4096xf32>, %arg69: tensor<4096x4096xf32>, %arg70: tensor<4096x4096xf32>, %arg71: tensor<4096x4096xf32>, %arg72: tensor<1x1x2048x128xf32>, %arg73: tensor<1x1x2048x128xf32>, %arg74: tensor<4096x4096xf32>, %arg75: tensor<4096xf32>, %arg76: tensor<11008x4096xf32>, %arg77: tensor<11008x4096xf32>, %arg78: tensor<4096x11008xf32>, %arg79: tensor<4096xf32>, %arg80: tensor<4096x4096xf32>, %arg81: tensor<4096x4096xf32>, %arg82: tensor<4096x4096xf32>, %arg83: tensor<1x1x2048x128xf32>, %arg84: tensor<1x1x2048x128xf32>, %arg85: tensor<4096x4096xf32>, %arg86: tensor<4096xf32>, %arg87: tensor<11008x4096xf32>, %arg88: tensor<11008x4096xf32>, %arg89: tensor<4096x11008xf32>, %arg90: tensor<4096xf32>, %arg91: tensor<4096x4096xf32>, %arg92: tensor<4096x4096xf32>, %arg93: tensor<4096x4096xf32>, %arg94: tensor<1x1x2048x128xf32>, %arg95: tensor<1x1x2048x128xf32>, %arg96: tensor<4096x4096xf32>, %arg97: tensor<4096xf32>, %arg98: tensor<11008x4096xf32>, %arg99: tensor<11008x4096xf32>, %arg100: tensor<4096x11008xf32>, %arg101: tensor<4096xf32>, %arg102: tensor<4096x4096xf32>, %arg103: tensor<4096x4096xf32>, %arg104: tensor<4096x4096xf32>, %arg105: tensor<1x1x2048x128xf32>, %arg106: tensor<1x1x2048x128xf32>, %arg107: tensor<4096x4096xf32>, %arg108: tensor<4096xf32>, %arg109: tensor<11008x4096xf32>, %arg110: tensor<11008x4096xf32>, %arg111: tensor<4096x11008xf32>, %arg112: tensor<4096xf32>, %arg113: tensor<4096x4096xf32>, %arg114: tensor<4096x4096xf32>, %arg115: tensor<4096x4096xf32>, %arg116: tensor<1x1x2048x128xf32>, %arg117: tensor<1x1x2048x128xf32>, %arg118: tensor<4096x4096xf32>, %arg119: tensor<4096xf32>, %arg120: tensor<11008x4096xf32>, %arg121: tensor<11008x4096xf32>, %arg122: tensor<4096x11008xf32>, %arg123: tensor<4096xf32>, %arg124: tensor<4096x4096xf32>, %arg125: tensor<4096x4096xf32>, %arg126: tensor<4096x4096xf32>, %arg127: tensor<1x1x2048x128xf32>, %arg128: tensor<1x1x2048x128xf32>, %arg129: tensor<4096x4096xf32>, %arg130: tensor<4096xf32>, %arg131: tensor<11008x4096xf32>, %arg132: tensor<11008x4096xf32>, %arg133: tensor<4096x11008xf32>, %arg134: tensor<4096xf32>, %arg135: tensor<4096x4096xf32>, %arg136: tensor<4096x4096xf32>, %arg137: tensor<4096x4096xf32>, %arg138: tensor<1x1x2048x128xf32>, %arg139: tensor<1x1x2048x128xf32>, %arg140: tensor<4096x4096xf32>, %arg141: tensor<4096xf32>, %arg142: tensor<11008x4096xf32>, %arg143: tensor<11008x4096xf32>, %arg144: tensor<4096x11008xf32>, %arg145: tensor<4096xf32>, %arg146: tensor<4096x4096xf32>, %arg147: tensor<4096x4096xf32>, %arg148: tensor<4096x4096xf32>, %arg149: tensor<1x1x2048x128xf32>, %arg150: tensor<1x1x2048x128xf32>, %arg151: tensor<4096x4096xf32>, %arg152: tensor<4096xf32>, %arg153: tensor<11008x4096xf32>, %arg154: tensor<11008x4096xf32>, %arg155: tensor<4096x11008xf32>, %arg156: tensor<4096xf32>, %arg157: tensor<4096x4096xf32>, %arg158: tensor<4096x4096xf32>, %arg159: tensor<4096x4096xf32>, %arg160: tensor<1x1x2048x128xf32>, %arg161: tensor<1x1x2048x128xf32>, %arg162: tensor<4096x4096xf32>, %arg163: tensor<4096xf32>, %arg164: tensor<11008x4096xf32>, %arg165: tensor<11008x4096xf32>, %arg166: tensor<4096x11008xf32>, %arg167: tensor<4096xf32>, %arg168: tensor<4096x4096xf32>, %arg169: tensor<4096x4096xf32>, %arg170: tensor<4096x4096xf32>, %arg171: tensor<1x1x2048x128xf32>, %arg172: tensor<1x1x2048x128xf32>, %arg173: tensor<4096x4096xf32>, %arg174: tensor<4096xf32>, %arg175: tensor<11008x4096xf32>, %arg176: tensor<11008x4096xf32>, %arg177: tensor<4096x11008xf32>, %arg178: tensor<4096xf32>, %arg179: tensor<4096x4096xf32>, %arg180: tensor<4096x4096xf32>, %arg181: tensor<4096x4096xf32>, %arg182: tensor<1x1x2048x128xf32>, %arg183: tensor<1x1x2048x128xf32>, %arg184: tensor<4096x4096xf32>, %arg185: tensor<4096xf32>, %arg186: tensor<11008x4096xf32>, %arg187: tensor<11008x4096xf32>, %arg188: tensor<4096x11008xf32>, %arg189: tensor<4096xf32>, %arg190: tensor<4096x4096xf32>, %arg191: tensor<4096x4096xf32>, %arg192: tensor<4096x4096xf32>, %arg193: tensor<1x1x2048x128xf32>, %arg194: tensor<1x1x2048x128xf32>, %arg195: tensor<4096x4096xf32>, %arg196: tensor<4096xf32>, %arg197: tensor<11008x4096xf32>, %arg198: tensor<11008x4096xf32>, %arg199: tensor<4096x11008xf32>, %arg200: tensor<4096xf32>, %arg201: tensor<4096x4096xf32>, %arg202: tensor<4096x4096xf32>, %arg203: tensor<4096x4096xf32>, %arg204: tensor<1x1x2048x128xf32>, %arg205: tensor<1x1x2048x128xf32>, %arg206: tensor<4096x4096xf32>, %arg207: tensor<4096xf32>, %arg208: tensor<11008x4096xf32>, %arg209: tensor<11008x4096xf32>, %arg210: tensor<4096x11008xf32>, %arg211: tensor<4096xf32>, %arg212: tensor<4096x4096xf32>, %arg213: tensor<4096x4096xf32>, %arg214: tensor<4096x4096xf32>, %arg215: tensor<1x1x2048x128xf32>, %arg216: tensor<1x1x2048x128xf32>, %arg217: tensor<4096x4096xf32>, %arg218: tensor<4096xf32>, %arg219: tensor<11008x4096xf32>, %arg220: tensor<11008x4096xf32>, %arg221: tensor<4096x11008xf32>, %arg222: tensor<4096xf32>, %arg223: tensor<4096x4096xf32>, %arg224: tensor<4096x4096xf32>, %arg225: tensor<4096x4096xf32>, %arg226: tensor<1x1x2048x128xf32>, %arg227: tensor<1x1x2048x128xf32>, %arg228: tensor<4096x4096xf32>, %arg229: tensor<4096xf32>, %arg230: tensor<11008x4096xf32>, %arg231: tensor<11008x4096xf32>, %arg232: tensor<4096x11008xf32>, %arg233: tensor<4096xf32>, %arg234: tensor<4096x4096xf32>, %arg235: tensor<4096x4096xf32>, %arg236: tensor<4096x4096xf32>, %arg237: tensor<1x1x2048x128xf32>, %arg238: tensor<1x1x2048x128xf32>, %arg239: tensor<4096x4096xf32>, %arg240: tensor<4096xf32>, %arg241: tensor<11008x4096xf32>, %arg242: tensor<11008x4096xf32>, %arg243: tensor<4096x11008xf32>, %arg244: tensor<4096xf32>, %arg245: tensor<4096x4096xf32>, %arg246: tensor<4096x4096xf32>, %arg247: tensor<4096x4096xf32>, %arg248: tensor<1x1x2048x128xf32>, %arg249: tensor<1x1x2048x128xf32>, %arg250: tensor<4096x4096xf32>, %arg251: tensor<4096xf32>, %arg252: tensor<11008x4096xf32>, %arg253: tensor<11008x4096xf32>, %arg254: tensor<4096x11008xf32>, %arg255: tensor<4096xf32>, %arg256: tensor<4096x4096xf32>, %arg257: tensor<4096x4096xf32>, %arg258: tensor<4096x4096xf32>, %arg259: tensor<1x1x2048x128xf32>, %arg260: tensor<1x1x2048x128xf32>, %arg261: tensor<4096x4096xf32>, %arg262: tensor<4096xf32>, %arg263: tensor<11008x4096xf32>, %arg264: tensor<11008x4096xf32>, %arg265: tensor<4096x11008xf32>, %arg266: tensor<4096xf32>, %arg267: tensor<4096x4096xf32>, %arg268: tensor<4096x4096xf32>, %arg269: tensor<4096x4096xf32>, %arg270: tensor<1x1x2048x128xf32>, %arg271: tensor<1x1x2048x128xf32>, %arg272: tensor<4096x4096xf32>, %arg273: tensor<4096xf32>, %arg274: tensor<11008x4096xf32>, %arg275: tensor<11008x4096xf32>, %arg276: tensor<4096x11008xf32>, %arg277: tensor<4096xf32>, %arg278: tensor<4096x4096xf32>, %arg279: tensor<4096x4096xf32>, %arg280: tensor<4096x4096xf32>, %arg281: tensor<1x1x2048x128xf32>, %arg282: tensor<1x1x2048x128xf32>, %arg283: tensor<4096x4096xf32>, %arg284: tensor<4096xf32>, %arg285: tensor<11008x4096xf32>, %arg286: tensor<11008x4096xf32>, %arg287: tensor<4096x11008xf32>, %arg288: tensor<4096xf32>, %arg289: tensor<4096x4096xf32>, %arg290: tensor<4096x4096xf32>, %arg291: tensor<4096x4096xf32>, %arg292: tensor<1x1x2048x128xf32>, %arg293: tensor<1x1x2048x128xf32>, %arg294: tensor<4096x4096xf32>, %arg295: tensor<4096xf32>, %arg296: tensor<11008x4096xf32>, %arg297: tensor<11008x4096xf32>, %arg298: tensor<4096x11008xf32>, %arg299: tensor<4096xf32>, %arg300: tensor<4096x4096xf32>, %arg301: tensor<4096x4096xf32>, %arg302: tensor<4096x4096xf32>, %arg303: tensor<1x1x2048x128xf32>, %arg304: tensor<1x1x2048x128xf32>, %arg305: tensor<4096x4096xf32>, %arg306: tensor<4096xf32>, %arg307: tensor<11008x4096xf32>, %arg308: tensor<11008x4096xf32>, %arg309: tensor<4096x11008xf32>, %arg310: tensor<4096xf32>, %arg311: tensor<4096x4096xf32>, %arg312: tensor<4096x4096xf32>, %arg313: tensor<4096x4096xf32>, %arg314: tensor<1x1x2048x128xf32>, %arg315: tensor<1x1x2048x128xf32>, %arg316: tensor<4096x4096xf32>, %arg317: tensor<4096xf32>, %arg318: tensor<11008x4096xf32>, %arg319: tensor<11008x4096xf32>, %arg320: tensor<4096x11008xf32>, %arg321: tensor<4096xf32>, %arg322: tensor<4096x4096xf32>, %arg323: tensor<4096x4096xf32>, %arg324: tensor<4096x4096xf32>, %arg325: tensor<1x1x2048x128xf32>, %arg326: tensor<1x1x2048x128xf32>, %arg327: tensor<4096x4096xf32>, %arg328: tensor<4096xf32>, %arg329: tensor<11008x4096xf32>, %arg330: tensor<11008x4096xf32>, %arg331: tensor<4096x11008xf32>, %arg332: tensor<4096xf32>, %arg333: tensor<4096x4096xf32>, %arg334: tensor<4096x4096xf32>, %arg335: tensor<4096x4096xf32>, %arg336: tensor<1x1x2048x128xf32>, %arg337: tensor<1x1x2048x128xf32>, %arg338: tensor<4096x4096xf32>, %arg339: tensor<4096xf32>, %arg340: tensor<11008x4096xf32>, %arg341: tensor<11008x4096xf32>, %arg342: tensor<4096x11008xf32>, %arg343: tensor<4096xf32>, %arg344: tensor<4096x4096xf32>, %arg345: tensor<4096x4096xf32>, %arg346: tensor<4096x4096xf32>, %arg347: tensor<1x1x2048x128xf32>, %arg348: tensor<1x1x2048x128xf32>, %arg349: tensor<4096x4096xf32>, %arg350: tensor<4096xf32>, %arg351: tensor<11008x4096xf32>, %arg352: tensor<11008x4096xf32>, %arg353: tensor<4096x11008xf32>, %arg354: tensor<4096xf32>, %arg355: tensor<32000x4096xf32>) -> (tensor<1x40x4096xf32>, tensor<1x40x32000xf32>) {
    %0 = "tosa.const"() <{value = dense<[0, 1, 2, 3, 4, 5, 6, 7, 8, 9, 10, 11, 12, 13, 14, 15, 16, 17, 18, 19, 20, 21, 22, 23, 24, 25, 26, 27, 28, 29, 30, 31, 32, 33, 34, 35, 36, 37, 38, 39]> : tensor<40xi64>}> : () -> tensor<40xi64>
    %1 = tosa.reshape %0 {new_shape = array<i64: 1, 40>} : (tensor<40xi64>) -> tensor<1x40xi64>
    %2 = tosa.reshape %1 {new_shape = array<i64: 1, 40>} : (tensor<1x40xi64>) -> tensor<1x40xi64>
    %3 = tosa.cast %arg1 : (tensor<1x40xi64>) -> tensor<1x40xi32>
    %4 = tosa.reshape %arg0 {new_shape = array<i64: 1, 32000, 4096>} : (tensor<32000x4096xf32>) -> tensor<1x32000x4096xf32>
    %5 = tosa.gather %4, %3 : (tensor<1x32000x4096xf32>, tensor<1x40xi32>) -> tensor<1x40x4096xf32>
    %6 = tosa.reshape %5 {new_shape = array<i64: 1, 40, 4096>} : (tensor<1x40x4096xf32>) -> tensor<1x40x4096xf32>
    %cst = arith.constant dense<true> : tensor<1x40xi1>
    %cst_0 = arith.constant dense<-3.40282347E+38> : tensor<40x40xf32>
    %7 = "tosa.const"() <{value = dense<[0, 1, 2, 3, 4, 5, 6, 7, 8, 9, 10, 11, 12, 13, 14, 15, 16, 17, 18, 19, 20, 21, 22, 23, 24, 25, 26, 27, 28, 29, 30, 31, 32, 33, 34, 35, 36, 37, 38, 39]> : tensor<40xi64>}> : () -> tensor<40xi64>
    %8 = "tosa.const"() <{value = dense<1> : tensor<40xi64>}> : () -> tensor<40xi64>
    %9 = tosa.add %7, %8 : (tensor<40xi64>, tensor<40xi64>) -> tensor<40xi64>
    %10 = tosa.reshape %9 {new_shape = array<i64: 40, 1>} : (tensor<40xi64>) -> tensor<40x1xi64>
    %11 = tensor.empty() : tensor<40x40xi1>
    %12 = linalg.generic {indexing_maps = [#map, #map1, #map2], iterator_types = ["parallel", "parallel", "reduction"]} ins(%7, %10 : tensor<40xi64>, tensor<40x1xi64>) outs(%11 : tensor<40x40xi1>) {
    ^bb0(%in: i64, %in_742: i64, %out: i1):
      %4239 = arith.cmpi slt, %in, %in_742 : i64
      linalg.yield %4239 : i1
    } -> tensor<40x40xi1>
    %cst_1 = arith.constant 0.000000e+00 : f32
    %13 = tensor.empty() : tensor<40x40xf32>
    %14 = linalg.generic {indexing_maps = [#map3, #map3, #map3], iterator_types = ["parallel", "parallel"]} ins(%12, %cst_0 : tensor<40x40xi1>, tensor<40x40xf32>) outs(%13 : tensor<40x40xf32>) {
    ^bb0(%in: i1, %in_742: f32, %out: f32):
      %4239 = arith.select %in, %cst_1, %in_742 : f32
      linalg.yield %4239 : f32
    } -> tensor<40x40xf32>
    %extracted_slice = tensor.extract_slice %cst[0, 0] [1, 40] [1, 1] : tensor<1x40xi1> to tensor<1x40xi1>
    %15 = tosa.reshape %extracted_slice {new_shape = array<i64: 1, 1, 40>} : (tensor<1x40xi1>) -> tensor<1x1x40xi1>
    %16 = tosa.reshape %15 {new_shape = array<i64: 1, 1, 1, 40>} : (tensor<1x1x40xi1>) -> tensor<1x1x1x40xi1>
    %extracted_slice_2 = tensor.extract_slice %16[0, 0, 0, 0] [1, 1, 1, 40] [1, 1, 1, 1] : tensor<1x1x1x40xi1> to tensor<1x1x1x40xi1>
    %17 = "tosa.const"() <{value = dense<false> : tensor<1x1x40x40xi1>}> : () -> tensor<1x1x40x40xi1>
    %18 = tosa.add %extracted_slice_2, %17 : (tensor<1x1x1x40xi1>, tensor<1x1x40x40xi1>) -> tensor<1x1x40x40xi1>
    %19 = tosa.cast %18 : (tensor<1x1x40x40xi1>) -> tensor<1x1x40x40xf32>
    %20 = "tosa.const"() <{value = dense<1.000000e+00> : tensor<1x1x40x40xf32>}> : () -> tensor<1x1x40x40xf32>
    %21 = tosa.sub %20, %19 : (tensor<1x1x40x40xf32>, tensor<1x1x40x40xf32>) -> tensor<1x1x40x40xf32>
    %22 = tosa.cast %21 : (tensor<1x1x40x40xf32>) -> tensor<1x1x40x40xi1>
    %cst_3 = arith.constant -3.40282347E+38 : f32
    %23 = tensor.empty() : tensor<1x1x40x40xf32>
    %24 = linalg.generic {indexing_maps = [#map4, #map4, #map4], iterator_types = ["parallel", "parallel", "parallel", "parallel"]} ins(%22, %21 : tensor<1x1x40x40xi1>, tensor<1x1x40x40xf32>) outs(%23 : tensor<1x1x40x40xf32>) {
    ^bb0(%in: i1, %in_742: f32, %out: f32):
      %4239 = arith.select %in, %cst_3, %in_742 : f32
      linalg.yield %4239 : f32
    } -> tensor<1x1x40x40xf32>
    %25 = tosa.reshape %14 {new_shape = array<i64: 1, 40, 40>} : (tensor<40x40xf32>) -> tensor<1x40x40xf32>
    %26 = tosa.reshape %25 {new_shape = array<i64: 1, 1, 40, 40>} : (tensor<1x40x40xf32>) -> tensor<1x1x40x40xf32>
    %extracted_slice_4 = tensor.extract_slice %26[0, 0, 0, 0] [1, 1, 40, 40] [1, 1, 1, 1] : tensor<1x1x40x40xf32> to tensor<1x1x40x40xf32>
    %extracted_slice_5 = tensor.extract_slice %extracted_slice_4[0, 0, 0, 0] [1, 1, 40, 40] [1, 1, 1, 1] : tensor<1x1x40x40xf32> to tensor<1x1x40x40xf32>
    %27 = "tosa.const"() <{value = dense<0.000000e+00> : tensor<1x1x40x40xf32>}> : () -> tensor<1x1x40x40xf32>
    %28 = tosa.add %extracted_slice_5, %27 : (tensor<1x1x40x40xf32>, tensor<1x1x40x40xf32>) -> tensor<1x1x40x40xf32>
    %29 = tosa.add %24, %28 : (tensor<1x1x40x40xf32>, tensor<1x1x40x40xf32>) -> tensor<1x1x40x40xf32>
    %30 = tensor.empty() : tensor<1x40x4096xf32>
    %c2_i32 = arith.constant 2 : i32
    %31 = linalg.generic {indexing_maps = [#map5, #map5], iterator_types = ["parallel", "parallel", "parallel"]} ins(%6 : tensor<1x40x4096xf32>) outs(%30 : tensor<1x40x4096xf32>) {
    ^bb0(%in: f32, %out: f32):
      %4239 = math.fpowi %in, %c2_i32 : f32, i32
      linalg.yield %4239 : f32
    } -> tensor<1x40x4096xf32>
    %32 = tosa.reduce_sum %31 {axis = 2 : i32} : (tensor<1x40x4096xf32>) -> tensor<1x40x1xf32>
    %33 = "tosa.const"() <{value = dense<4.096000e+03> : tensor<1xf32>}> : () -> tensor<1xf32>
    %34 = tosa.reciprocal %33 : (tensor<1xf32>) -> tensor<1xf32>
    %35 = tosa.mul %34, %32 {shift = 0 : i8} : (tensor<1xf32>, tensor<1x40x1xf32>) -> tensor<1x40x1xf32>
    %36 = "tosa.const"() <{value = dense<9.99999997E-7> : tensor<1x40x1xf32>}> : () -> tensor<1x40x1xf32>
    %37 = tosa.add %35, %36 : (tensor<1x40x1xf32>, tensor<1x40x1xf32>) -> tensor<1x40x1xf32>
    %38 = tosa.rsqrt %37 : (tensor<1x40x1xf32>) -> tensor<1x40x1xf32>
    %39 = tosa.mul %6, %38 {shift = 0 : i8} : (tensor<1x40x4096xf32>, tensor<1x40x1xf32>) -> tensor<1x40x4096xf32>
    %40 = tosa.reshape %arg2 {new_shape = array<i64: 1, 1, 4096>} : (tensor<4096xf32>) -> tensor<1x1x4096xf32>
    %41 = tosa.mul %40, %39 {shift = 0 : i8} : (tensor<1x1x4096xf32>, tensor<1x40x4096xf32>) -> tensor<1x40x4096xf32>
    %42 = "tosa.const"() <{value = dense<[1, 0]> : tensor<2xi32>}> : () -> tensor<2xi32>
    %43 = tosa.transpose %arg3, %42 : (tensor<4096x4096xf32>, tensor<2xi32>) -> tensor<4096x4096xf32>
    %44 = tosa.reshape %41 {new_shape = array<i64: 40, 4096>} : (tensor<1x40x4096xf32>) -> tensor<40x4096xf32>
    %cst_6 = arith.constant dense<0.000000e+00> : tensor<40x4096xf32>
    %45 = linalg.matmul {cast = #linalg.type_fn<cast_signed>} ins(%44, %43 : tensor<40x4096xf32>, tensor<4096x4096xf32>) outs(%cst_6 : tensor<40x4096xf32>) -> tensor<40x4096xf32>
    %46 = tosa.reshape %45 {new_shape = array<i64: 1, 40, 4096>} : (tensor<40x4096xf32>) -> tensor<1x40x4096xf32>
    %47 = "tosa.const"() <{value = dense<[1, 0]> : tensor<2xi32>}> : () -> tensor<2xi32>
    %48 = tosa.transpose %arg4, %47 : (tensor<4096x4096xf32>, tensor<2xi32>) -> tensor<4096x4096xf32>
    %49 = tosa.reshape %41 {new_shape = array<i64: 40, 4096>} : (tensor<1x40x4096xf32>) -> tensor<40x4096xf32>
    %cst_7 = arith.constant dense<0.000000e+00> : tensor<40x4096xf32>
    %50 = linalg.matmul {cast = #linalg.type_fn<cast_signed>} ins(%49, %48 : tensor<40x4096xf32>, tensor<4096x4096xf32>) outs(%cst_7 : tensor<40x4096xf32>) -> tensor<40x4096xf32>
    %51 = tosa.reshape %50 {new_shape = array<i64: 1, 40, 4096>} : (tensor<40x4096xf32>) -> tensor<1x40x4096xf32>
    %52 = "tosa.const"() <{value = dense<[1, 0]> : tensor<2xi32>}> : () -> tensor<2xi32>
    %53 = tosa.transpose %arg5, %52 : (tensor<4096x4096xf32>, tensor<2xi32>) -> tensor<4096x4096xf32>
    %54 = tosa.reshape %41 {new_shape = array<i64: 40, 4096>} : (tensor<1x40x4096xf32>) -> tensor<40x4096xf32>
    %cst_8 = arith.constant dense<0.000000e+00> : tensor<40x4096xf32>
    %55 = linalg.matmul {cast = #linalg.type_fn<cast_signed>} ins(%54, %53 : tensor<40x4096xf32>, tensor<4096x4096xf32>) outs(%cst_8 : tensor<40x4096xf32>) -> tensor<40x4096xf32>
    %56 = tosa.reshape %55 {new_shape = array<i64: 1, 40, 4096>} : (tensor<40x4096xf32>) -> tensor<1x40x4096xf32>
    %57 = tosa.reshape %46 {new_shape = array<i64: 1, 40, 32, 128>} : (tensor<1x40x4096xf32>) -> tensor<1x40x32x128xf32>
    %58 = "tosa.const"() <{value = dense<[0, 2, 1, 3]> : tensor<4xi32>}> : () -> tensor<4xi32>
    %59 = tosa.transpose %57, %58 : (tensor<1x40x32x128xf32>, tensor<4xi32>) -> tensor<1x32x40x128xf32>
    %60 = tosa.reshape %51 {new_shape = array<i64: 1, 40, 32, 128>} : (tensor<1x40x4096xf32>) -> tensor<1x40x32x128xf32>
    %61 = "tosa.const"() <{value = dense<[0, 2, 1, 3]> : tensor<4xi32>}> : () -> tensor<4xi32>
    %62 = tosa.transpose %60, %61 : (tensor<1x40x32x128xf32>, tensor<4xi32>) -> tensor<1x32x40x128xf32>
    %63 = tosa.reshape %56 {new_shape = array<i64: 1, 40, 32, 128>} : (tensor<1x40x4096xf32>) -> tensor<1x40x32x128xf32>
    %64 = "tosa.const"() <{value = dense<[0, 2, 1, 3]> : tensor<4xi32>}> : () -> tensor<4xi32>
    %65 = tosa.transpose %63, %64 : (tensor<1x40x32x128xf32>, tensor<4xi32>) -> tensor<1x32x40x128xf32>
    %extracted_slice_9 = tensor.extract_slice %arg6[0, 0, 0, 0] [1, 1, 2048, 128] [1, 1, 1, 1] : tensor<1x1x2048x128xf32> to tensor<1x1x2048x128xf32>
    %extracted_slice_10 = tensor.extract_slice %extracted_slice_9[0, 0, 0, 0] [1, 1, 2048, 128] [1, 1, 1, 1] : tensor<1x1x2048x128xf32> to tensor<1x1x2048x128xf32>
    %extracted_slice_11 = tensor.extract_slice %extracted_slice_10[0, 0, 0, 0] [1, 1, 40, 128] [1, 1, 1, 1] : tensor<1x1x2048x128xf32> to tensor<1x1x40x128xf32>
    %extracted_slice_12 = tensor.extract_slice %arg7[0, 0, 0, 0] [1, 1, 2048, 128] [1, 1, 1, 1] : tensor<1x1x2048x128xf32> to tensor<1x1x2048x128xf32>
    %extracted_slice_13 = tensor.extract_slice %extracted_slice_12[0, 0, 0, 0] [1, 1, 2048, 128] [1, 1, 1, 1] : tensor<1x1x2048x128xf32> to tensor<1x1x2048x128xf32>
    %extracted_slice_14 = tensor.extract_slice %extracted_slice_13[0, 0, 0, 0] [1, 1, 40, 128] [1, 1, 1, 1] : tensor<1x1x2048x128xf32> to tensor<1x1x40x128xf32>
    %66 = tensor.empty() : tensor<1x40x128xf32>
    %67 = linalg.generic {indexing_maps = [#map6, #map5], iterator_types = ["parallel", "parallel", "parallel"]} ins(%extracted_slice_11 : tensor<1x1x40x128xf32>) outs(%66 : tensor<1x40x128xf32>) {
    ^bb0(%in: f32, %out: f32):
      linalg.yield %in : f32
    } -> tensor<1x40x128xf32>
    %68 = tensor.empty() : tensor<40x128xf32>
    %69 = linalg.generic {indexing_maps = [#map7, #map3], iterator_types = ["parallel", "parallel"]} ins(%67 : tensor<1x40x128xf32>) outs(%68 : tensor<40x128xf32>) {
    ^bb0(%in: f32, %out: f32):
      linalg.yield %in : f32
    } -> tensor<40x128xf32>
    %70 = tensor.empty() : tensor<1x40x128xf32>
    %71 = linalg.generic {indexing_maps = [#map6, #map5], iterator_types = ["parallel", "parallel", "parallel"]} ins(%extracted_slice_14 : tensor<1x1x40x128xf32>) outs(%70 : tensor<1x40x128xf32>) {
    ^bb0(%in: f32, %out: f32):
      linalg.yield %in : f32
    } -> tensor<1x40x128xf32>
    %72 = tensor.empty() : tensor<40x128xf32>
    %73 = linalg.generic {indexing_maps = [#map7, #map3], iterator_types = ["parallel", "parallel"]} ins(%71 : tensor<1x40x128xf32>) outs(%72 : tensor<40x128xf32>) {
    ^bb0(%in: f32, %out: f32):
      linalg.yield %in : f32
    } -> tensor<40x128xf32>
    %74 = tensor.empty() : tensor<1x40x128xf32>
    %75 = linalg.generic {indexing_maps = [#map2, #map5], iterator_types = ["parallel", "parallel", "parallel"]} ins(%2 : tensor<1x40xi64>) outs(%74 : tensor<1x40x128xf32>) {
    ^bb0(%in: i64, %out: f32):
      %4239 = arith.index_cast %in : i64 to index
      %4240 = linalg.index 2 : index
      %extracted = tensor.extract %69[%4239, %4240] : tensor<40x128xf32>
      linalg.yield %extracted : f32
    } -> tensor<1x40x128xf32>
    %76 = tosa.reshape %75 {new_shape = array<i64: 1, 1, 40, 128>} : (tensor<1x40x128xf32>) -> tensor<1x1x40x128xf32>
    %77 = tensor.empty() : tensor<1x40x128xf32>
    %78 = linalg.generic {indexing_maps = [#map2, #map5], iterator_types = ["parallel", "parallel", "parallel"]} ins(%2 : tensor<1x40xi64>) outs(%77 : tensor<1x40x128xf32>) {
    ^bb0(%in: i64, %out: f32):
      %4239 = arith.index_cast %in : i64 to index
      %4240 = linalg.index 2 : index
      %extracted = tensor.extract %73[%4239, %4240] : tensor<40x128xf32>
      linalg.yield %extracted : f32
    } -> tensor<1x40x128xf32>
    %79 = tosa.reshape %78 {new_shape = array<i64: 1, 1, 40, 128>} : (tensor<1x40x128xf32>) -> tensor<1x1x40x128xf32>
    %80 = tosa.mul %59, %76 {shift = 0 : i8} : (tensor<1x32x40x128xf32>, tensor<1x1x40x128xf32>) -> tensor<1x32x40x128xf32>
    %extracted_slice_15 = tensor.extract_slice %59[0, 0, 0, 0] [1, 32, 40, 64] [1, 1, 1, 1] : tensor<1x32x40x128xf32> to tensor<1x32x40x64xf32>
    %extracted_slice_16 = tensor.extract_slice %59[0, 0, 0, 64] [1, 32, 40, 64] [1, 1, 1, 1] : tensor<1x32x40x128xf32> to tensor<1x32x40x64xf32>
    %81 = tensor.empty() : tensor<1x32x40x64xf32>
    %82 = linalg.negf ins(%extracted_slice_16 : tensor<1x32x40x64xf32>) outs(%81 : tensor<1x32x40x64xf32>) -> tensor<1x32x40x64xf32>
    %83 = tensor.empty() : tensor<1x32x40x128xf32>
    %inserted_slice = tensor.insert_slice %82 into %83[0, 0, 0, 0] [1, 32, 40, 64] [1, 1, 1, 1] : tensor<1x32x40x64xf32> into tensor<1x32x40x128xf32>
    %inserted_slice_17 = tensor.insert_slice %extracted_slice_15 into %inserted_slice[0, 0, 0, 64] [1, 32, 40, 64] [1, 1, 1, 1] : tensor<1x32x40x64xf32> into tensor<1x32x40x128xf32>
    %84 = tosa.mul %inserted_slice_17, %79 {shift = 0 : i8} : (tensor<1x32x40x128xf32>, tensor<1x1x40x128xf32>) -> tensor<1x32x40x128xf32>
    %85 = tosa.add %80, %84 : (tensor<1x32x40x128xf32>, tensor<1x32x40x128xf32>) -> tensor<1x32x40x128xf32>
    %86 = tosa.mul %62, %76 {shift = 0 : i8} : (tensor<1x32x40x128xf32>, tensor<1x1x40x128xf32>) -> tensor<1x32x40x128xf32>
    %extracted_slice_18 = tensor.extract_slice %62[0, 0, 0, 0] [1, 32, 40, 64] [1, 1, 1, 1] : tensor<1x32x40x128xf32> to tensor<1x32x40x64xf32>
    %extracted_slice_19 = tensor.extract_slice %62[0, 0, 0, 64] [1, 32, 40, 64] [1, 1, 1, 1] : tensor<1x32x40x128xf32> to tensor<1x32x40x64xf32>
    %87 = tensor.empty() : tensor<1x32x40x64xf32>
    %88 = linalg.negf ins(%extracted_slice_19 : tensor<1x32x40x64xf32>) outs(%87 : tensor<1x32x40x64xf32>) -> tensor<1x32x40x64xf32>
    %89 = tensor.empty() : tensor<1x32x40x128xf32>
    %inserted_slice_20 = tensor.insert_slice %88 into %89[0, 0, 0, 0] [1, 32, 40, 64] [1, 1, 1, 1] : tensor<1x32x40x64xf32> into tensor<1x32x40x128xf32>
    %inserted_slice_21 = tensor.insert_slice %extracted_slice_18 into %inserted_slice_20[0, 0, 0, 64] [1, 32, 40, 64] [1, 1, 1, 1] : tensor<1x32x40x64xf32> into tensor<1x32x40x128xf32>
    %90 = tosa.mul %inserted_slice_21, %79 {shift = 0 : i8} : (tensor<1x32x40x128xf32>, tensor<1x1x40x128xf32>) -> tensor<1x32x40x128xf32>
    %91 = tosa.add %86, %90 : (tensor<1x32x40x128xf32>, tensor<1x32x40x128xf32>) -> tensor<1x32x40x128xf32>
    %92 = "tosa.const"() <{value = dense<[0, 1, 3, 2]> : tensor<4xi32>}> : () -> tensor<4xi32>
    %93 = tosa.transpose %91, %92 : (tensor<1x32x40x128xf32>, tensor<4xi32>) -> tensor<1x32x128x40xf32>
    %94 = "tosa.const"() <{value = dense<0.000000e+00> : tensor<1x32x40x128xf32>}> : () -> tensor<1x32x40x128xf32>
    %95 = tosa.add %85, %94 : (tensor<1x32x40x128xf32>, tensor<1x32x40x128xf32>) -> tensor<1x32x40x128xf32>
    %96 = tosa.reshape %95 {new_shape = array<i64: 32, 40, 128>} : (tensor<1x32x40x128xf32>) -> tensor<32x40x128xf32>
    %97 = "tosa.const"() <{value = dense<0.000000e+00> : tensor<1x32x128x40xf32>}> : () -> tensor<1x32x128x40xf32>
    %98 = tosa.add %93, %97 : (tensor<1x32x128x40xf32>, tensor<1x32x128x40xf32>) -> tensor<1x32x128x40xf32>
    %99 = tosa.reshape %98 {new_shape = array<i64: 32, 128, 40>} : (tensor<1x32x128x40xf32>) -> tensor<32x128x40xf32>
    %100 = tosa.matmul %96, %99 : (tensor<32x40x128xf32>, tensor<32x128x40xf32>) -> tensor<32x40x40xf32>
    %101 = tosa.reshape %100 {new_shape = array<i64: 1, 32, 40, 40>} : (tensor<32x40x40xf32>) -> tensor<1x32x40x40xf32>
    %102 = "tosa.const"() <{value = dense<11.3137083> : tensor<1x32x40x40xf32>}> : () -> tensor<1x32x40x40xf32>
    %103 = tosa.reciprocal %102 : (tensor<1x32x40x40xf32>) -> tensor<1x32x40x40xf32>
    %104 = tosa.mul %101, %103 {shift = 0 : i8} : (tensor<1x32x40x40xf32>, tensor<1x32x40x40xf32>) -> tensor<1x32x40x40xf32>
    %105 = tosa.add %104, %29 : (tensor<1x32x40x40xf32>, tensor<1x1x40x40xf32>) -> tensor<1x32x40x40xf32>
    %106 = tosa.reduce_max %105 {axis = 3 : i32} : (tensor<1x32x40x40xf32>) -> tensor<1x32x40x1xf32>
    %107 = tosa.sub %105, %106 : (tensor<1x32x40x40xf32>, tensor<1x32x40x1xf32>) -> tensor<1x32x40x40xf32>
    %108 = tosa.exp %107 : (tensor<1x32x40x40xf32>) -> tensor<1x32x40x40xf32>
    %109 = tosa.reduce_sum %108 {axis = 3 : i32} : (tensor<1x32x40x40xf32>) -> tensor<1x32x40x1xf32>
    %110 = tosa.reciprocal %109 : (tensor<1x32x40x1xf32>) -> tensor<1x32x40x1xf32>
    %111 = tosa.mul %108, %110 {shift = 0 : i8} : (tensor<1x32x40x40xf32>, tensor<1x32x40x1xf32>) -> tensor<1x32x40x40xf32>
    %112 = "tosa.const"() <{value = dense<0.000000e+00> : tensor<1x32x40x40xf32>}> : () -> tensor<1x32x40x40xf32>
    %113 = tosa.add %111, %112 : (tensor<1x32x40x40xf32>, tensor<1x32x40x40xf32>) -> tensor<1x32x40x40xf32>
    %114 = tosa.reshape %113 {new_shape = array<i64: 32, 40, 40>} : (tensor<1x32x40x40xf32>) -> tensor<32x40x40xf32>
    %115 = "tosa.const"() <{value = dense<0.000000e+00> : tensor<1x32x40x128xf32>}> : () -> tensor<1x32x40x128xf32>
    %116 = tosa.add %65, %115 : (tensor<1x32x40x128xf32>, tensor<1x32x40x128xf32>) -> tensor<1x32x40x128xf32>
    %117 = tosa.reshape %116 {new_shape = array<i64: 32, 40, 128>} : (tensor<1x32x40x128xf32>) -> tensor<32x40x128xf32>
    %118 = tosa.matmul %114, %117 : (tensor<32x40x40xf32>, tensor<32x40x128xf32>) -> tensor<32x40x128xf32>
    %119 = tosa.reshape %118 {new_shape = array<i64: 1, 32, 40, 128>} : (tensor<32x40x128xf32>) -> tensor<1x32x40x128xf32>
    %120 = "tosa.const"() <{value = dense<[0, 2, 1, 3]> : tensor<4xi32>}> : () -> tensor<4xi32>
    %121 = tosa.transpose %119, %120 : (tensor<1x32x40x128xf32>, tensor<4xi32>) -> tensor<1x40x32x128xf32>
    %122 = tosa.identity %121 : (tensor<1x40x32x128xf32>) -> tensor<1x40x32x128xf32>
    %123 = tosa.reshape %122 {new_shape = array<i64: 1, 40, 4096>} : (tensor<1x40x32x128xf32>) -> tensor<1x40x4096xf32>
    %124 = "tosa.const"() <{value = dense<[1, 0]> : tensor<2xi32>}> : () -> tensor<2xi32>
    %125 = tosa.transpose %arg8, %124 : (tensor<4096x4096xf32>, tensor<2xi32>) -> tensor<4096x4096xf32>
    %126 = tosa.reshape %123 {new_shape = array<i64: 40, 4096>} : (tensor<1x40x4096xf32>) -> tensor<40x4096xf32>
    %cst_22 = arith.constant dense<0.000000e+00> : tensor<40x4096xf32>
    %127 = linalg.matmul {cast = #linalg.type_fn<cast_signed>} ins(%126, %125 : tensor<40x4096xf32>, tensor<4096x4096xf32>) outs(%cst_22 : tensor<40x4096xf32>) -> tensor<40x4096xf32>
    %128 = tosa.reshape %127 {new_shape = array<i64: 1, 40, 4096>} : (tensor<40x4096xf32>) -> tensor<1x40x4096xf32>
    %129 = tosa.add %6, %128 : (tensor<1x40x4096xf32>, tensor<1x40x4096xf32>) -> tensor<1x40x4096xf32>
    %130 = tensor.empty() : tensor<1x40x4096xf32>
    %c2_i32_23 = arith.constant 2 : i32
    %131 = linalg.generic {indexing_maps = [#map5, #map5], iterator_types = ["parallel", "parallel", "parallel"]} ins(%129 : tensor<1x40x4096xf32>) outs(%130 : tensor<1x40x4096xf32>) {
    ^bb0(%in: f32, %out: f32):
      %4239 = math.fpowi %in, %c2_i32_23 : f32, i32
      linalg.yield %4239 : f32
    } -> tensor<1x40x4096xf32>
    %132 = tosa.reduce_sum %131 {axis = 2 : i32} : (tensor<1x40x4096xf32>) -> tensor<1x40x1xf32>
    %133 = "tosa.const"() <{value = dense<4.096000e+03> : tensor<1xf32>}> : () -> tensor<1xf32>
    %134 = tosa.reciprocal %133 : (tensor<1xf32>) -> tensor<1xf32>
    %135 = tosa.mul %134, %132 {shift = 0 : i8} : (tensor<1xf32>, tensor<1x40x1xf32>) -> tensor<1x40x1xf32>
    %136 = "tosa.const"() <{value = dense<9.99999997E-7> : tensor<1x40x1xf32>}> : () -> tensor<1x40x1xf32>
    %137 = tosa.add %135, %136 : (tensor<1x40x1xf32>, tensor<1x40x1xf32>) -> tensor<1x40x1xf32>
    %138 = tosa.rsqrt %137 : (tensor<1x40x1xf32>) -> tensor<1x40x1xf32>
    %139 = tosa.mul %129, %138 {shift = 0 : i8} : (tensor<1x40x4096xf32>, tensor<1x40x1xf32>) -> tensor<1x40x4096xf32>
    %140 = tosa.reshape %arg9 {new_shape = array<i64: 1, 1, 4096>} : (tensor<4096xf32>) -> tensor<1x1x4096xf32>
    %141 = tosa.mul %140, %139 {shift = 0 : i8} : (tensor<1x1x4096xf32>, tensor<1x40x4096xf32>) -> tensor<1x40x4096xf32>
    %142 = "tosa.const"() <{value = dense<[1, 0]> : tensor<2xi32>}> : () -> tensor<2xi32>
    %143 = tosa.transpose %arg10, %142 : (tensor<11008x4096xf32>, tensor<2xi32>) -> tensor<4096x11008xf32>
    %144 = tosa.reshape %141 {new_shape = array<i64: 40, 4096>} : (tensor<1x40x4096xf32>) -> tensor<40x4096xf32>
    %cst_24 = arith.constant dense<0.000000e+00> : tensor<40x11008xf32>
    %145 = linalg.matmul {cast = #linalg.type_fn<cast_signed>} ins(%144, %143 : tensor<40x4096xf32>, tensor<4096x11008xf32>) outs(%cst_24 : tensor<40x11008xf32>) -> tensor<40x11008xf32>
    %146 = tosa.reshape %145 {new_shape = array<i64: 1, 40, 11008>} : (tensor<40x11008xf32>) -> tensor<1x40x11008xf32>
    %147 = tosa.sigmoid %146 : (tensor<1x40x11008xf32>) -> tensor<1x40x11008xf32>
    %148 = tosa.mul %146, %147 {shift = 0 : i8} : (tensor<1x40x11008xf32>, tensor<1x40x11008xf32>) -> tensor<1x40x11008xf32>
    %149 = "tosa.const"() <{value = dense<[1, 0]> : tensor<2xi32>}> : () -> tensor<2xi32>
    %150 = tosa.transpose %arg11, %149 : (tensor<11008x4096xf32>, tensor<2xi32>) -> tensor<4096x11008xf32>
    %151 = tosa.reshape %141 {new_shape = array<i64: 40, 4096>} : (tensor<1x40x4096xf32>) -> tensor<40x4096xf32>
    %cst_25 = arith.constant dense<0.000000e+00> : tensor<40x11008xf32>
    %152 = linalg.matmul {cast = #linalg.type_fn<cast_signed>} ins(%151, %150 : tensor<40x4096xf32>, tensor<4096x11008xf32>) outs(%cst_25 : tensor<40x11008xf32>) -> tensor<40x11008xf32>
    %153 = tosa.reshape %152 {new_shape = array<i64: 1, 40, 11008>} : (tensor<40x11008xf32>) -> tensor<1x40x11008xf32>
    %154 = tosa.mul %148, %153 {shift = 0 : i8} : (tensor<1x40x11008xf32>, tensor<1x40x11008xf32>) -> tensor<1x40x11008xf32>
    %155 = "tosa.const"() <{value = dense<[1, 0]> : tensor<2xi32>}> : () -> tensor<2xi32>
    %156 = tosa.transpose %arg12, %155 : (tensor<4096x11008xf32>, tensor<2xi32>) -> tensor<11008x4096xf32>
    %157 = tosa.reshape %154 {new_shape = array<i64: 40, 11008>} : (tensor<1x40x11008xf32>) -> tensor<40x11008xf32>
    %cst_26 = arith.constant dense<0.000000e+00> : tensor<40x4096xf32>
    %158 = linalg.matmul {cast = #linalg.type_fn<cast_signed>} ins(%157, %156 : tensor<40x11008xf32>, tensor<11008x4096xf32>) outs(%cst_26 : tensor<40x4096xf32>) -> tensor<40x4096xf32>
    %159 = tosa.reshape %158 {new_shape = array<i64: 1, 40, 4096>} : (tensor<40x4096xf32>) -> tensor<1x40x4096xf32>
    %160 = tosa.add %129, %159 : (tensor<1x40x4096xf32>, tensor<1x40x4096xf32>) -> tensor<1x40x4096xf32>
    %161 = tensor.empty() : tensor<1x40x4096xf32>
    %c2_i32_27 = arith.constant 2 : i32
    %162 = linalg.generic {indexing_maps = [#map5, #map5], iterator_types = ["parallel", "parallel", "parallel"]} ins(%160 : tensor<1x40x4096xf32>) outs(%161 : tensor<1x40x4096xf32>) {
    ^bb0(%in: f32, %out: f32):
      %4239 = math.fpowi %in, %c2_i32_27 : f32, i32
      linalg.yield %4239 : f32
    } -> tensor<1x40x4096xf32>
    %163 = tosa.reduce_sum %162 {axis = 2 : i32} : (tensor<1x40x4096xf32>) -> tensor<1x40x1xf32>
    %164 = "tosa.const"() <{value = dense<4.096000e+03> : tensor<1xf32>}> : () -> tensor<1xf32>
    %165 = tosa.reciprocal %164 : (tensor<1xf32>) -> tensor<1xf32>
    %166 = tosa.mul %165, %163 {shift = 0 : i8} : (tensor<1xf32>, tensor<1x40x1xf32>) -> tensor<1x40x1xf32>
    %167 = "tosa.const"() <{value = dense<9.99999997E-7> : tensor<1x40x1xf32>}> : () -> tensor<1x40x1xf32>
    %168 = tosa.add %166, %167 : (tensor<1x40x1xf32>, tensor<1x40x1xf32>) -> tensor<1x40x1xf32>
    %169 = tosa.rsqrt %168 : (tensor<1x40x1xf32>) -> tensor<1x40x1xf32>
    %170 = tosa.mul %160, %169 {shift = 0 : i8} : (tensor<1x40x4096xf32>, tensor<1x40x1xf32>) -> tensor<1x40x4096xf32>
    %171 = tosa.reshape %arg13 {new_shape = array<i64: 1, 1, 4096>} : (tensor<4096xf32>) -> tensor<1x1x4096xf32>
    %172 = tosa.mul %171, %170 {shift = 0 : i8} : (tensor<1x1x4096xf32>, tensor<1x40x4096xf32>) -> tensor<1x40x4096xf32>
    %173 = "tosa.const"() <{value = dense<[1, 0]> : tensor<2xi32>}> : () -> tensor<2xi32>
    %174 = tosa.transpose %arg14, %173 : (tensor<4096x4096xf32>, tensor<2xi32>) -> tensor<4096x4096xf32>
    %175 = tosa.reshape %172 {new_shape = array<i64: 40, 4096>} : (tensor<1x40x4096xf32>) -> tensor<40x4096xf32>
    %cst_28 = arith.constant dense<0.000000e+00> : tensor<40x4096xf32>
    %176 = linalg.matmul {cast = #linalg.type_fn<cast_signed>} ins(%175, %174 : tensor<40x4096xf32>, tensor<4096x4096xf32>) outs(%cst_28 : tensor<40x4096xf32>) -> tensor<40x4096xf32>
    %177 = tosa.reshape %176 {new_shape = array<i64: 1, 40, 4096>} : (tensor<40x4096xf32>) -> tensor<1x40x4096xf32>
    %178 = "tosa.const"() <{value = dense<[1, 0]> : tensor<2xi32>}> : () -> tensor<2xi32>
    %179 = tosa.transpose %arg15, %178 : (tensor<4096x4096xf32>, tensor<2xi32>) -> tensor<4096x4096xf32>
    %180 = tosa.reshape %172 {new_shape = array<i64: 40, 4096>} : (tensor<1x40x4096xf32>) -> tensor<40x4096xf32>
    %cst_29 = arith.constant dense<0.000000e+00> : tensor<40x4096xf32>
    %181 = linalg.matmul {cast = #linalg.type_fn<cast_signed>} ins(%180, %179 : tensor<40x4096xf32>, tensor<4096x4096xf32>) outs(%cst_29 : tensor<40x4096xf32>) -> tensor<40x4096xf32>
    %182 = tosa.reshape %181 {new_shape = array<i64: 1, 40, 4096>} : (tensor<40x4096xf32>) -> tensor<1x40x4096xf32>
    %183 = "tosa.const"() <{value = dense<[1, 0]> : tensor<2xi32>}> : () -> tensor<2xi32>
    %184 = tosa.transpose %arg16, %183 : (tensor<4096x4096xf32>, tensor<2xi32>) -> tensor<4096x4096xf32>
    %185 = tosa.reshape %172 {new_shape = array<i64: 40, 4096>} : (tensor<1x40x4096xf32>) -> tensor<40x4096xf32>
    %cst_30 = arith.constant dense<0.000000e+00> : tensor<40x4096xf32>
    %186 = linalg.matmul {cast = #linalg.type_fn<cast_signed>} ins(%185, %184 : tensor<40x4096xf32>, tensor<4096x4096xf32>) outs(%cst_30 : tensor<40x4096xf32>) -> tensor<40x4096xf32>
    %187 = tosa.reshape %186 {new_shape = array<i64: 1, 40, 4096>} : (tensor<40x4096xf32>) -> tensor<1x40x4096xf32>
    %188 = tosa.reshape %177 {new_shape = array<i64: 1, 40, 32, 128>} : (tensor<1x40x4096xf32>) -> tensor<1x40x32x128xf32>
    %189 = "tosa.const"() <{value = dense<[0, 2, 1, 3]> : tensor<4xi32>}> : () -> tensor<4xi32>
    %190 = tosa.transpose %188, %189 : (tensor<1x40x32x128xf32>, tensor<4xi32>) -> tensor<1x32x40x128xf32>
    %191 = tosa.reshape %182 {new_shape = array<i64: 1, 40, 32, 128>} : (tensor<1x40x4096xf32>) -> tensor<1x40x32x128xf32>
    %192 = "tosa.const"() <{value = dense<[0, 2, 1, 3]> : tensor<4xi32>}> : () -> tensor<4xi32>
    %193 = tosa.transpose %191, %192 : (tensor<1x40x32x128xf32>, tensor<4xi32>) -> tensor<1x32x40x128xf32>
    %194 = tosa.reshape %187 {new_shape = array<i64: 1, 40, 32, 128>} : (tensor<1x40x4096xf32>) -> tensor<1x40x32x128xf32>
    %195 = "tosa.const"() <{value = dense<[0, 2, 1, 3]> : tensor<4xi32>}> : () -> tensor<4xi32>
    %196 = tosa.transpose %194, %195 : (tensor<1x40x32x128xf32>, tensor<4xi32>) -> tensor<1x32x40x128xf32>
    %extracted_slice_31 = tensor.extract_slice %arg17[0, 0, 0, 0] [1, 1, 2048, 128] [1, 1, 1, 1] : tensor<1x1x2048x128xf32> to tensor<1x1x2048x128xf32>
    %extracted_slice_32 = tensor.extract_slice %extracted_slice_31[0, 0, 0, 0] [1, 1, 2048, 128] [1, 1, 1, 1] : tensor<1x1x2048x128xf32> to tensor<1x1x2048x128xf32>
    %extracted_slice_33 = tensor.extract_slice %extracted_slice_32[0, 0, 0, 0] [1, 1, 40, 128] [1, 1, 1, 1] : tensor<1x1x2048x128xf32> to tensor<1x1x40x128xf32>
    %extracted_slice_34 = tensor.extract_slice %arg18[0, 0, 0, 0] [1, 1, 2048, 128] [1, 1, 1, 1] : tensor<1x1x2048x128xf32> to tensor<1x1x2048x128xf32>
    %extracted_slice_35 = tensor.extract_slice %extracted_slice_34[0, 0, 0, 0] [1, 1, 2048, 128] [1, 1, 1, 1] : tensor<1x1x2048x128xf32> to tensor<1x1x2048x128xf32>
    %extracted_slice_36 = tensor.extract_slice %extracted_slice_35[0, 0, 0, 0] [1, 1, 40, 128] [1, 1, 1, 1] : tensor<1x1x2048x128xf32> to tensor<1x1x40x128xf32>
    %197 = tensor.empty() : tensor<1x40x128xf32>
    %198 = linalg.generic {indexing_maps = [#map6, #map5], iterator_types = ["parallel", "parallel", "parallel"]} ins(%extracted_slice_33 : tensor<1x1x40x128xf32>) outs(%197 : tensor<1x40x128xf32>) {
    ^bb0(%in: f32, %out: f32):
      linalg.yield %in : f32
    } -> tensor<1x40x128xf32>
    %199 = tensor.empty() : tensor<40x128xf32>
    %200 = linalg.generic {indexing_maps = [#map7, #map3], iterator_types = ["parallel", "parallel"]} ins(%198 : tensor<1x40x128xf32>) outs(%199 : tensor<40x128xf32>) {
    ^bb0(%in: f32, %out: f32):
      linalg.yield %in : f32
    } -> tensor<40x128xf32>
    %201 = tensor.empty() : tensor<1x40x128xf32>
    %202 = linalg.generic {indexing_maps = [#map6, #map5], iterator_types = ["parallel", "parallel", "parallel"]} ins(%extracted_slice_36 : tensor<1x1x40x128xf32>) outs(%201 : tensor<1x40x128xf32>) {
    ^bb0(%in: f32, %out: f32):
      linalg.yield %in : f32
    } -> tensor<1x40x128xf32>
    %203 = tensor.empty() : tensor<40x128xf32>
    %204 = linalg.generic {indexing_maps = [#map7, #map3], iterator_types = ["parallel", "parallel"]} ins(%202 : tensor<1x40x128xf32>) outs(%203 : tensor<40x128xf32>) {
    ^bb0(%in: f32, %out: f32):
      linalg.yield %in : f32
    } -> tensor<40x128xf32>
    %205 = tensor.empty() : tensor<1x40x128xf32>
    %206 = linalg.generic {indexing_maps = [#map2, #map5], iterator_types = ["parallel", "parallel", "parallel"]} ins(%2 : tensor<1x40xi64>) outs(%205 : tensor<1x40x128xf32>) {
    ^bb0(%in: i64, %out: f32):
      %4239 = arith.index_cast %in : i64 to index
      %4240 = linalg.index 2 : index
      %extracted = tensor.extract %200[%4239, %4240] : tensor<40x128xf32>
      linalg.yield %extracted : f32
    } -> tensor<1x40x128xf32>
    %207 = tosa.reshape %206 {new_shape = array<i64: 1, 1, 40, 128>} : (tensor<1x40x128xf32>) -> tensor<1x1x40x128xf32>
    %208 = tensor.empty() : tensor<1x40x128xf32>
    %209 = linalg.generic {indexing_maps = [#map2, #map5], iterator_types = ["parallel", "parallel", "parallel"]} ins(%2 : tensor<1x40xi64>) outs(%208 : tensor<1x40x128xf32>) {
    ^bb0(%in: i64, %out: f32):
      %4239 = arith.index_cast %in : i64 to index
      %4240 = linalg.index 2 : index
      %extracted = tensor.extract %204[%4239, %4240] : tensor<40x128xf32>
      linalg.yield %extracted : f32
    } -> tensor<1x40x128xf32>
    %210 = tosa.reshape %209 {new_shape = array<i64: 1, 1, 40, 128>} : (tensor<1x40x128xf32>) -> tensor<1x1x40x128xf32>
    %211 = tosa.mul %190, %207 {shift = 0 : i8} : (tensor<1x32x40x128xf32>, tensor<1x1x40x128xf32>) -> tensor<1x32x40x128xf32>
    %extracted_slice_37 = tensor.extract_slice %190[0, 0, 0, 0] [1, 32, 40, 64] [1, 1, 1, 1] : tensor<1x32x40x128xf32> to tensor<1x32x40x64xf32>
    %extracted_slice_38 = tensor.extract_slice %190[0, 0, 0, 64] [1, 32, 40, 64] [1, 1, 1, 1] : tensor<1x32x40x128xf32> to tensor<1x32x40x64xf32>
    %212 = tensor.empty() : tensor<1x32x40x64xf32>
    %213 = linalg.negf ins(%extracted_slice_38 : tensor<1x32x40x64xf32>) outs(%212 : tensor<1x32x40x64xf32>) -> tensor<1x32x40x64xf32>
    %214 = tensor.empty() : tensor<1x32x40x128xf32>
    %inserted_slice_39 = tensor.insert_slice %213 into %214[0, 0, 0, 0] [1, 32, 40, 64] [1, 1, 1, 1] : tensor<1x32x40x64xf32> into tensor<1x32x40x128xf32>
    %inserted_slice_40 = tensor.insert_slice %extracted_slice_37 into %inserted_slice_39[0, 0, 0, 64] [1, 32, 40, 64] [1, 1, 1, 1] : tensor<1x32x40x64xf32> into tensor<1x32x40x128xf32>
    %215 = tosa.mul %inserted_slice_40, %210 {shift = 0 : i8} : (tensor<1x32x40x128xf32>, tensor<1x1x40x128xf32>) -> tensor<1x32x40x128xf32>
    %216 = tosa.add %211, %215 : (tensor<1x32x40x128xf32>, tensor<1x32x40x128xf32>) -> tensor<1x32x40x128xf32>
    %217 = tosa.mul %193, %207 {shift = 0 : i8} : (tensor<1x32x40x128xf32>, tensor<1x1x40x128xf32>) -> tensor<1x32x40x128xf32>
    %extracted_slice_41 = tensor.extract_slice %193[0, 0, 0, 0] [1, 32, 40, 64] [1, 1, 1, 1] : tensor<1x32x40x128xf32> to tensor<1x32x40x64xf32>
    %extracted_slice_42 = tensor.extract_slice %193[0, 0, 0, 64] [1, 32, 40, 64] [1, 1, 1, 1] : tensor<1x32x40x128xf32> to tensor<1x32x40x64xf32>
    %218 = tensor.empty() : tensor<1x32x40x64xf32>
    %219 = linalg.negf ins(%extracted_slice_42 : tensor<1x32x40x64xf32>) outs(%218 : tensor<1x32x40x64xf32>) -> tensor<1x32x40x64xf32>
    %220 = tensor.empty() : tensor<1x32x40x128xf32>
    %inserted_slice_43 = tensor.insert_slice %219 into %220[0, 0, 0, 0] [1, 32, 40, 64] [1, 1, 1, 1] : tensor<1x32x40x64xf32> into tensor<1x32x40x128xf32>
    %inserted_slice_44 = tensor.insert_slice %extracted_slice_41 into %inserted_slice_43[0, 0, 0, 64] [1, 32, 40, 64] [1, 1, 1, 1] : tensor<1x32x40x64xf32> into tensor<1x32x40x128xf32>
    %221 = tosa.mul %inserted_slice_44, %210 {shift = 0 : i8} : (tensor<1x32x40x128xf32>, tensor<1x1x40x128xf32>) -> tensor<1x32x40x128xf32>
    %222 = tosa.add %217, %221 : (tensor<1x32x40x128xf32>, tensor<1x32x40x128xf32>) -> tensor<1x32x40x128xf32>
    %223 = "tosa.const"() <{value = dense<[0, 1, 3, 2]> : tensor<4xi32>}> : () -> tensor<4xi32>
    %224 = tosa.transpose %222, %223 : (tensor<1x32x40x128xf32>, tensor<4xi32>) -> tensor<1x32x128x40xf32>
    %225 = "tosa.const"() <{value = dense<0.000000e+00> : tensor<1x32x40x128xf32>}> : () -> tensor<1x32x40x128xf32>
    %226 = tosa.add %216, %225 : (tensor<1x32x40x128xf32>, tensor<1x32x40x128xf32>) -> tensor<1x32x40x128xf32>
    %227 = tosa.reshape %226 {new_shape = array<i64: 32, 40, 128>} : (tensor<1x32x40x128xf32>) -> tensor<32x40x128xf32>
    %228 = "tosa.const"() <{value = dense<0.000000e+00> : tensor<1x32x128x40xf32>}> : () -> tensor<1x32x128x40xf32>
    %229 = tosa.add %224, %228 : (tensor<1x32x128x40xf32>, tensor<1x32x128x40xf32>) -> tensor<1x32x128x40xf32>
    %230 = tosa.reshape %229 {new_shape = array<i64: 32, 128, 40>} : (tensor<1x32x128x40xf32>) -> tensor<32x128x40xf32>
    %231 = tosa.matmul %227, %230 : (tensor<32x40x128xf32>, tensor<32x128x40xf32>) -> tensor<32x40x40xf32>
    %232 = tosa.reshape %231 {new_shape = array<i64: 1, 32, 40, 40>} : (tensor<32x40x40xf32>) -> tensor<1x32x40x40xf32>
    %233 = "tosa.const"() <{value = dense<11.3137083> : tensor<1x32x40x40xf32>}> : () -> tensor<1x32x40x40xf32>
    %234 = tosa.reciprocal %233 : (tensor<1x32x40x40xf32>) -> tensor<1x32x40x40xf32>
    %235 = tosa.mul %232, %234 {shift = 0 : i8} : (tensor<1x32x40x40xf32>, tensor<1x32x40x40xf32>) -> tensor<1x32x40x40xf32>
    %236 = tosa.add %235, %29 : (tensor<1x32x40x40xf32>, tensor<1x1x40x40xf32>) -> tensor<1x32x40x40xf32>
    %237 = tosa.reduce_max %236 {axis = 3 : i32} : (tensor<1x32x40x40xf32>) -> tensor<1x32x40x1xf32>
    %238 = tosa.sub %236, %237 : (tensor<1x32x40x40xf32>, tensor<1x32x40x1xf32>) -> tensor<1x32x40x40xf32>
    %239 = tosa.exp %238 : (tensor<1x32x40x40xf32>) -> tensor<1x32x40x40xf32>
    %240 = tosa.reduce_sum %239 {axis = 3 : i32} : (tensor<1x32x40x40xf32>) -> tensor<1x32x40x1xf32>
    %241 = tosa.reciprocal %240 : (tensor<1x32x40x1xf32>) -> tensor<1x32x40x1xf32>
    %242 = tosa.mul %239, %241 {shift = 0 : i8} : (tensor<1x32x40x40xf32>, tensor<1x32x40x1xf32>) -> tensor<1x32x40x40xf32>
    %243 = "tosa.const"() <{value = dense<0.000000e+00> : tensor<1x32x40x40xf32>}> : () -> tensor<1x32x40x40xf32>
    %244 = tosa.add %242, %243 : (tensor<1x32x40x40xf32>, tensor<1x32x40x40xf32>) -> tensor<1x32x40x40xf32>
    %245 = tosa.reshape %244 {new_shape = array<i64: 32, 40, 40>} : (tensor<1x32x40x40xf32>) -> tensor<32x40x40xf32>
    %246 = "tosa.const"() <{value = dense<0.000000e+00> : tensor<1x32x40x128xf32>}> : () -> tensor<1x32x40x128xf32>
    %247 = tosa.add %196, %246 : (tensor<1x32x40x128xf32>, tensor<1x32x40x128xf32>) -> tensor<1x32x40x128xf32>
    %248 = tosa.reshape %247 {new_shape = array<i64: 32, 40, 128>} : (tensor<1x32x40x128xf32>) -> tensor<32x40x128xf32>
    %249 = tosa.matmul %245, %248 : (tensor<32x40x40xf32>, tensor<32x40x128xf32>) -> tensor<32x40x128xf32>
    %250 = tosa.reshape %249 {new_shape = array<i64: 1, 32, 40, 128>} : (tensor<32x40x128xf32>) -> tensor<1x32x40x128xf32>
    %251 = "tosa.const"() <{value = dense<[0, 2, 1, 3]> : tensor<4xi32>}> : () -> tensor<4xi32>
    %252 = tosa.transpose %250, %251 : (tensor<1x32x40x128xf32>, tensor<4xi32>) -> tensor<1x40x32x128xf32>
    %253 = tosa.identity %252 : (tensor<1x40x32x128xf32>) -> tensor<1x40x32x128xf32>
    %254 = tosa.reshape %253 {new_shape = array<i64: 1, 40, 4096>} : (tensor<1x40x32x128xf32>) -> tensor<1x40x4096xf32>
    %255 = "tosa.const"() <{value = dense<[1, 0]> : tensor<2xi32>}> : () -> tensor<2xi32>
    %256 = tosa.transpose %arg19, %255 : (tensor<4096x4096xf32>, tensor<2xi32>) -> tensor<4096x4096xf32>
    %257 = tosa.reshape %254 {new_shape = array<i64: 40, 4096>} : (tensor<1x40x4096xf32>) -> tensor<40x4096xf32>
    %cst_45 = arith.constant dense<0.000000e+00> : tensor<40x4096xf32>
    %258 = linalg.matmul {cast = #linalg.type_fn<cast_signed>} ins(%257, %256 : tensor<40x4096xf32>, tensor<4096x4096xf32>) outs(%cst_45 : tensor<40x4096xf32>) -> tensor<40x4096xf32>
    %259 = tosa.reshape %258 {new_shape = array<i64: 1, 40, 4096>} : (tensor<40x4096xf32>) -> tensor<1x40x4096xf32>
    %260 = tosa.add %160, %259 : (tensor<1x40x4096xf32>, tensor<1x40x4096xf32>) -> tensor<1x40x4096xf32>
    %261 = tensor.empty() : tensor<1x40x4096xf32>
    %c2_i32_46 = arith.constant 2 : i32
    %262 = linalg.generic {indexing_maps = [#map5, #map5], iterator_types = ["parallel", "parallel", "parallel"]} ins(%260 : tensor<1x40x4096xf32>) outs(%261 : tensor<1x40x4096xf32>) {
    ^bb0(%in: f32, %out: f32):
      %4239 = math.fpowi %in, %c2_i32_46 : f32, i32
      linalg.yield %4239 : f32
    } -> tensor<1x40x4096xf32>
    %263 = tosa.reduce_sum %262 {axis = 2 : i32} : (tensor<1x40x4096xf32>) -> tensor<1x40x1xf32>
    %264 = "tosa.const"() <{value = dense<4.096000e+03> : tensor<1xf32>}> : () -> tensor<1xf32>
    %265 = tosa.reciprocal %264 : (tensor<1xf32>) -> tensor<1xf32>
    %266 = tosa.mul %265, %263 {shift = 0 : i8} : (tensor<1xf32>, tensor<1x40x1xf32>) -> tensor<1x40x1xf32>
    %267 = "tosa.const"() <{value = dense<9.99999997E-7> : tensor<1x40x1xf32>}> : () -> tensor<1x40x1xf32>
    %268 = tosa.add %266, %267 : (tensor<1x40x1xf32>, tensor<1x40x1xf32>) -> tensor<1x40x1xf32>
    %269 = tosa.rsqrt %268 : (tensor<1x40x1xf32>) -> tensor<1x40x1xf32>
    %270 = tosa.mul %260, %269 {shift = 0 : i8} : (tensor<1x40x4096xf32>, tensor<1x40x1xf32>) -> tensor<1x40x4096xf32>
    %271 = tosa.reshape %arg20 {new_shape = array<i64: 1, 1, 4096>} : (tensor<4096xf32>) -> tensor<1x1x4096xf32>
    %272 = tosa.mul %271, %270 {shift = 0 : i8} : (tensor<1x1x4096xf32>, tensor<1x40x4096xf32>) -> tensor<1x40x4096xf32>
    %273 = "tosa.const"() <{value = dense<[1, 0]> : tensor<2xi32>}> : () -> tensor<2xi32>
    %274 = tosa.transpose %arg21, %273 : (tensor<11008x4096xf32>, tensor<2xi32>) -> tensor<4096x11008xf32>
    %275 = tosa.reshape %272 {new_shape = array<i64: 40, 4096>} : (tensor<1x40x4096xf32>) -> tensor<40x4096xf32>
    %cst_47 = arith.constant dense<0.000000e+00> : tensor<40x11008xf32>
    %276 = linalg.matmul {cast = #linalg.type_fn<cast_signed>} ins(%275, %274 : tensor<40x4096xf32>, tensor<4096x11008xf32>) outs(%cst_47 : tensor<40x11008xf32>) -> tensor<40x11008xf32>
    %277 = tosa.reshape %276 {new_shape = array<i64: 1, 40, 11008>} : (tensor<40x11008xf32>) -> tensor<1x40x11008xf32>
    %278 = tosa.sigmoid %277 : (tensor<1x40x11008xf32>) -> tensor<1x40x11008xf32>
    %279 = tosa.mul %277, %278 {shift = 0 : i8} : (tensor<1x40x11008xf32>, tensor<1x40x11008xf32>) -> tensor<1x40x11008xf32>
    %280 = "tosa.const"() <{value = dense<[1, 0]> : tensor<2xi32>}> : () -> tensor<2xi32>
    %281 = tosa.transpose %arg22, %280 : (tensor<11008x4096xf32>, tensor<2xi32>) -> tensor<4096x11008xf32>
    %282 = tosa.reshape %272 {new_shape = array<i64: 40, 4096>} : (tensor<1x40x4096xf32>) -> tensor<40x4096xf32>
    %cst_48 = arith.constant dense<0.000000e+00> : tensor<40x11008xf32>
    %283 = linalg.matmul {cast = #linalg.type_fn<cast_signed>} ins(%282, %281 : tensor<40x4096xf32>, tensor<4096x11008xf32>) outs(%cst_48 : tensor<40x11008xf32>) -> tensor<40x11008xf32>
    %284 = tosa.reshape %283 {new_shape = array<i64: 1, 40, 11008>} : (tensor<40x11008xf32>) -> tensor<1x40x11008xf32>
    %285 = tosa.mul %279, %284 {shift = 0 : i8} : (tensor<1x40x11008xf32>, tensor<1x40x11008xf32>) -> tensor<1x40x11008xf32>
    %286 = "tosa.const"() <{value = dense<[1, 0]> : tensor<2xi32>}> : () -> tensor<2xi32>
    %287 = tosa.transpose %arg23, %286 : (tensor<4096x11008xf32>, tensor<2xi32>) -> tensor<11008x4096xf32>
    %288 = tosa.reshape %285 {new_shape = array<i64: 40, 11008>} : (tensor<1x40x11008xf32>) -> tensor<40x11008xf32>
    %cst_49 = arith.constant dense<0.000000e+00> : tensor<40x4096xf32>
    %289 = linalg.matmul {cast = #linalg.type_fn<cast_signed>} ins(%288, %287 : tensor<40x11008xf32>, tensor<11008x4096xf32>) outs(%cst_49 : tensor<40x4096xf32>) -> tensor<40x4096xf32>
    %290 = tosa.reshape %289 {new_shape = array<i64: 1, 40, 4096>} : (tensor<40x4096xf32>) -> tensor<1x40x4096xf32>
    %291 = tosa.add %260, %290 : (tensor<1x40x4096xf32>, tensor<1x40x4096xf32>) -> tensor<1x40x4096xf32>
    %292 = tensor.empty() : tensor<1x40x4096xf32>
    %c2_i32_50 = arith.constant 2 : i32
    %293 = linalg.generic {indexing_maps = [#map5, #map5], iterator_types = ["parallel", "parallel", "parallel"]} ins(%291 : tensor<1x40x4096xf32>) outs(%292 : tensor<1x40x4096xf32>) {
    ^bb0(%in: f32, %out: f32):
      %4239 = math.fpowi %in, %c2_i32_50 : f32, i32
      linalg.yield %4239 : f32
    } -> tensor<1x40x4096xf32>
    %294 = tosa.reduce_sum %293 {axis = 2 : i32} : (tensor<1x40x4096xf32>) -> tensor<1x40x1xf32>
    %295 = "tosa.const"() <{value = dense<4.096000e+03> : tensor<1xf32>}> : () -> tensor<1xf32>
    %296 = tosa.reciprocal %295 : (tensor<1xf32>) -> tensor<1xf32>
    %297 = tosa.mul %296, %294 {shift = 0 : i8} : (tensor<1xf32>, tensor<1x40x1xf32>) -> tensor<1x40x1xf32>
    %298 = "tosa.const"() <{value = dense<9.99999997E-7> : tensor<1x40x1xf32>}> : () -> tensor<1x40x1xf32>
    %299 = tosa.add %297, %298 : (tensor<1x40x1xf32>, tensor<1x40x1xf32>) -> tensor<1x40x1xf32>
    %300 = tosa.rsqrt %299 : (tensor<1x40x1xf32>) -> tensor<1x40x1xf32>
    %301 = tosa.mul %291, %300 {shift = 0 : i8} : (tensor<1x40x4096xf32>, tensor<1x40x1xf32>) -> tensor<1x40x4096xf32>
    %302 = tosa.reshape %arg24 {new_shape = array<i64: 1, 1, 4096>} : (tensor<4096xf32>) -> tensor<1x1x4096xf32>
    %303 = tosa.mul %302, %301 {shift = 0 : i8} : (tensor<1x1x4096xf32>, tensor<1x40x4096xf32>) -> tensor<1x40x4096xf32>
    %304 = "tosa.const"() <{value = dense<[1, 0]> : tensor<2xi32>}> : () -> tensor<2xi32>
    %305 = tosa.transpose %arg25, %304 : (tensor<4096x4096xf32>, tensor<2xi32>) -> tensor<4096x4096xf32>
    %306 = tosa.reshape %303 {new_shape = array<i64: 40, 4096>} : (tensor<1x40x4096xf32>) -> tensor<40x4096xf32>
    %cst_51 = arith.constant dense<0.000000e+00> : tensor<40x4096xf32>
    %307 = linalg.matmul {cast = #linalg.type_fn<cast_signed>} ins(%306, %305 : tensor<40x4096xf32>, tensor<4096x4096xf32>) outs(%cst_51 : tensor<40x4096xf32>) -> tensor<40x4096xf32>
    %308 = tosa.reshape %307 {new_shape = array<i64: 1, 40, 4096>} : (tensor<40x4096xf32>) -> tensor<1x40x4096xf32>
    %309 = "tosa.const"() <{value = dense<[1, 0]> : tensor<2xi32>}> : () -> tensor<2xi32>
    %310 = tosa.transpose %arg26, %309 : (tensor<4096x4096xf32>, tensor<2xi32>) -> tensor<4096x4096xf32>
    %311 = tosa.reshape %303 {new_shape = array<i64: 40, 4096>} : (tensor<1x40x4096xf32>) -> tensor<40x4096xf32>
    %cst_52 = arith.constant dense<0.000000e+00> : tensor<40x4096xf32>
    %312 = linalg.matmul {cast = #linalg.type_fn<cast_signed>} ins(%311, %310 : tensor<40x4096xf32>, tensor<4096x4096xf32>) outs(%cst_52 : tensor<40x4096xf32>) -> tensor<40x4096xf32>
    %313 = tosa.reshape %312 {new_shape = array<i64: 1, 40, 4096>} : (tensor<40x4096xf32>) -> tensor<1x40x4096xf32>
    %314 = "tosa.const"() <{value = dense<[1, 0]> : tensor<2xi32>}> : () -> tensor<2xi32>
    %315 = tosa.transpose %arg27, %314 : (tensor<4096x4096xf32>, tensor<2xi32>) -> tensor<4096x4096xf32>
    %316 = tosa.reshape %303 {new_shape = array<i64: 40, 4096>} : (tensor<1x40x4096xf32>) -> tensor<40x4096xf32>
    %cst_53 = arith.constant dense<0.000000e+00> : tensor<40x4096xf32>
    %317 = linalg.matmul {cast = #linalg.type_fn<cast_signed>} ins(%316, %315 : tensor<40x4096xf32>, tensor<4096x4096xf32>) outs(%cst_53 : tensor<40x4096xf32>) -> tensor<40x4096xf32>
    %318 = tosa.reshape %317 {new_shape = array<i64: 1, 40, 4096>} : (tensor<40x4096xf32>) -> tensor<1x40x4096xf32>
    %319 = tosa.reshape %308 {new_shape = array<i64: 1, 40, 32, 128>} : (tensor<1x40x4096xf32>) -> tensor<1x40x32x128xf32>
    %320 = "tosa.const"() <{value = dense<[0, 2, 1, 3]> : tensor<4xi32>}> : () -> tensor<4xi32>
    %321 = tosa.transpose %319, %320 : (tensor<1x40x32x128xf32>, tensor<4xi32>) -> tensor<1x32x40x128xf32>
    %322 = tosa.reshape %313 {new_shape = array<i64: 1, 40, 32, 128>} : (tensor<1x40x4096xf32>) -> tensor<1x40x32x128xf32>
    %323 = "tosa.const"() <{value = dense<[0, 2, 1, 3]> : tensor<4xi32>}> : () -> tensor<4xi32>
    %324 = tosa.transpose %322, %323 : (tensor<1x40x32x128xf32>, tensor<4xi32>) -> tensor<1x32x40x128xf32>
    %325 = tosa.reshape %318 {new_shape = array<i64: 1, 40, 32, 128>} : (tensor<1x40x4096xf32>) -> tensor<1x40x32x128xf32>
    %326 = "tosa.const"() <{value = dense<[0, 2, 1, 3]> : tensor<4xi32>}> : () -> tensor<4xi32>
    %327 = tosa.transpose %325, %326 : (tensor<1x40x32x128xf32>, tensor<4xi32>) -> tensor<1x32x40x128xf32>
    %extracted_slice_54 = tensor.extract_slice %arg28[0, 0, 0, 0] [1, 1, 2048, 128] [1, 1, 1, 1] : tensor<1x1x2048x128xf32> to tensor<1x1x2048x128xf32>
    %extracted_slice_55 = tensor.extract_slice %extracted_slice_54[0, 0, 0, 0] [1, 1, 2048, 128] [1, 1, 1, 1] : tensor<1x1x2048x128xf32> to tensor<1x1x2048x128xf32>
    %extracted_slice_56 = tensor.extract_slice %extracted_slice_55[0, 0, 0, 0] [1, 1, 40, 128] [1, 1, 1, 1] : tensor<1x1x2048x128xf32> to tensor<1x1x40x128xf32>
    %extracted_slice_57 = tensor.extract_slice %arg29[0, 0, 0, 0] [1, 1, 2048, 128] [1, 1, 1, 1] : tensor<1x1x2048x128xf32> to tensor<1x1x2048x128xf32>
    %extracted_slice_58 = tensor.extract_slice %extracted_slice_57[0, 0, 0, 0] [1, 1, 2048, 128] [1, 1, 1, 1] : tensor<1x1x2048x128xf32> to tensor<1x1x2048x128xf32>
    %extracted_slice_59 = tensor.extract_slice %extracted_slice_58[0, 0, 0, 0] [1, 1, 40, 128] [1, 1, 1, 1] : tensor<1x1x2048x128xf32> to tensor<1x1x40x128xf32>
    %328 = tensor.empty() : tensor<1x40x128xf32>
    %329 = linalg.generic {indexing_maps = [#map6, #map5], iterator_types = ["parallel", "parallel", "parallel"]} ins(%extracted_slice_56 : tensor<1x1x40x128xf32>) outs(%328 : tensor<1x40x128xf32>) {
    ^bb0(%in: f32, %out: f32):
      linalg.yield %in : f32
    } -> tensor<1x40x128xf32>
    %330 = tensor.empty() : tensor<40x128xf32>
    %331 = linalg.generic {indexing_maps = [#map7, #map3], iterator_types = ["parallel", "parallel"]} ins(%329 : tensor<1x40x128xf32>) outs(%330 : tensor<40x128xf32>) {
    ^bb0(%in: f32, %out: f32):
      linalg.yield %in : f32
    } -> tensor<40x128xf32>
    %332 = tensor.empty() : tensor<1x40x128xf32>
    %333 = linalg.generic {indexing_maps = [#map6, #map5], iterator_types = ["parallel", "parallel", "parallel"]} ins(%extracted_slice_59 : tensor<1x1x40x128xf32>) outs(%332 : tensor<1x40x128xf32>) {
    ^bb0(%in: f32, %out: f32):
      linalg.yield %in : f32
    } -> tensor<1x40x128xf32>
    %334 = tensor.empty() : tensor<40x128xf32>
    %335 = linalg.generic {indexing_maps = [#map7, #map3], iterator_types = ["parallel", "parallel"]} ins(%333 : tensor<1x40x128xf32>) outs(%334 : tensor<40x128xf32>) {
    ^bb0(%in: f32, %out: f32):
      linalg.yield %in : f32
    } -> tensor<40x128xf32>
    %336 = tensor.empty() : tensor<1x40x128xf32>
    %337 = linalg.generic {indexing_maps = [#map2, #map5], iterator_types = ["parallel", "parallel", "parallel"]} ins(%2 : tensor<1x40xi64>) outs(%336 : tensor<1x40x128xf32>) {
    ^bb0(%in: i64, %out: f32):
      %4239 = arith.index_cast %in : i64 to index
      %4240 = linalg.index 2 : index
      %extracted = tensor.extract %331[%4239, %4240] : tensor<40x128xf32>
      linalg.yield %extracted : f32
    } -> tensor<1x40x128xf32>
    %338 = tosa.reshape %337 {new_shape = array<i64: 1, 1, 40, 128>} : (tensor<1x40x128xf32>) -> tensor<1x1x40x128xf32>
    %339 = tensor.empty() : tensor<1x40x128xf32>
    %340 = linalg.generic {indexing_maps = [#map2, #map5], iterator_types = ["parallel", "parallel", "parallel"]} ins(%2 : tensor<1x40xi64>) outs(%339 : tensor<1x40x128xf32>) {
    ^bb0(%in: i64, %out: f32):
      %4239 = arith.index_cast %in : i64 to index
      %4240 = linalg.index 2 : index
      %extracted = tensor.extract %335[%4239, %4240] : tensor<40x128xf32>
      linalg.yield %extracted : f32
    } -> tensor<1x40x128xf32>
    %341 = tosa.reshape %340 {new_shape = array<i64: 1, 1, 40, 128>} : (tensor<1x40x128xf32>) -> tensor<1x1x40x128xf32>
    %342 = tosa.mul %321, %338 {shift = 0 : i8} : (tensor<1x32x40x128xf32>, tensor<1x1x40x128xf32>) -> tensor<1x32x40x128xf32>
    %extracted_slice_60 = tensor.extract_slice %321[0, 0, 0, 0] [1, 32, 40, 64] [1, 1, 1, 1] : tensor<1x32x40x128xf32> to tensor<1x32x40x64xf32>
    %extracted_slice_61 = tensor.extract_slice %321[0, 0, 0, 64] [1, 32, 40, 64] [1, 1, 1, 1] : tensor<1x32x40x128xf32> to tensor<1x32x40x64xf32>
    %343 = tensor.empty() : tensor<1x32x40x64xf32>
    %344 = linalg.negf ins(%extracted_slice_61 : tensor<1x32x40x64xf32>) outs(%343 : tensor<1x32x40x64xf32>) -> tensor<1x32x40x64xf32>
    %345 = tensor.empty() : tensor<1x32x40x128xf32>
    %inserted_slice_62 = tensor.insert_slice %344 into %345[0, 0, 0, 0] [1, 32, 40, 64] [1, 1, 1, 1] : tensor<1x32x40x64xf32> into tensor<1x32x40x128xf32>
    %inserted_slice_63 = tensor.insert_slice %extracted_slice_60 into %inserted_slice_62[0, 0, 0, 64] [1, 32, 40, 64] [1, 1, 1, 1] : tensor<1x32x40x64xf32> into tensor<1x32x40x128xf32>
    %346 = tosa.mul %inserted_slice_63, %341 {shift = 0 : i8} : (tensor<1x32x40x128xf32>, tensor<1x1x40x128xf32>) -> tensor<1x32x40x128xf32>
    %347 = tosa.add %342, %346 : (tensor<1x32x40x128xf32>, tensor<1x32x40x128xf32>) -> tensor<1x32x40x128xf32>
    %348 = tosa.mul %324, %338 {shift = 0 : i8} : (tensor<1x32x40x128xf32>, tensor<1x1x40x128xf32>) -> tensor<1x32x40x128xf32>
    %extracted_slice_64 = tensor.extract_slice %324[0, 0, 0, 0] [1, 32, 40, 64] [1, 1, 1, 1] : tensor<1x32x40x128xf32> to tensor<1x32x40x64xf32>
    %extracted_slice_65 = tensor.extract_slice %324[0, 0, 0, 64] [1, 32, 40, 64] [1, 1, 1, 1] : tensor<1x32x40x128xf32> to tensor<1x32x40x64xf32>
    %349 = tensor.empty() : tensor<1x32x40x64xf32>
    %350 = linalg.negf ins(%extracted_slice_65 : tensor<1x32x40x64xf32>) outs(%349 : tensor<1x32x40x64xf32>) -> tensor<1x32x40x64xf32>
    %351 = tensor.empty() : tensor<1x32x40x128xf32>
    %inserted_slice_66 = tensor.insert_slice %350 into %351[0, 0, 0, 0] [1, 32, 40, 64] [1, 1, 1, 1] : tensor<1x32x40x64xf32> into tensor<1x32x40x128xf32>
    %inserted_slice_67 = tensor.insert_slice %extracted_slice_64 into %inserted_slice_66[0, 0, 0, 64] [1, 32, 40, 64] [1, 1, 1, 1] : tensor<1x32x40x64xf32> into tensor<1x32x40x128xf32>
    %352 = tosa.mul %inserted_slice_67, %341 {shift = 0 : i8} : (tensor<1x32x40x128xf32>, tensor<1x1x40x128xf32>) -> tensor<1x32x40x128xf32>
    %353 = tosa.add %348, %352 : (tensor<1x32x40x128xf32>, tensor<1x32x40x128xf32>) -> tensor<1x32x40x128xf32>
    %354 = "tosa.const"() <{value = dense<[0, 1, 3, 2]> : tensor<4xi32>}> : () -> tensor<4xi32>
    %355 = tosa.transpose %353, %354 : (tensor<1x32x40x128xf32>, tensor<4xi32>) -> tensor<1x32x128x40xf32>
    %356 = "tosa.const"() <{value = dense<0.000000e+00> : tensor<1x32x40x128xf32>}> : () -> tensor<1x32x40x128xf32>
    %357 = tosa.add %347, %356 : (tensor<1x32x40x128xf32>, tensor<1x32x40x128xf32>) -> tensor<1x32x40x128xf32>
    %358 = tosa.reshape %357 {new_shape = array<i64: 32, 40, 128>} : (tensor<1x32x40x128xf32>) -> tensor<32x40x128xf32>
    %359 = "tosa.const"() <{value = dense<0.000000e+00> : tensor<1x32x128x40xf32>}> : () -> tensor<1x32x128x40xf32>
    %360 = tosa.add %355, %359 : (tensor<1x32x128x40xf32>, tensor<1x32x128x40xf32>) -> tensor<1x32x128x40xf32>
    %361 = tosa.reshape %360 {new_shape = array<i64: 32, 128, 40>} : (tensor<1x32x128x40xf32>) -> tensor<32x128x40xf32>
    %362 = tosa.matmul %358, %361 : (tensor<32x40x128xf32>, tensor<32x128x40xf32>) -> tensor<32x40x40xf32>
    %363 = tosa.reshape %362 {new_shape = array<i64: 1, 32, 40, 40>} : (tensor<32x40x40xf32>) -> tensor<1x32x40x40xf32>
    %364 = "tosa.const"() <{value = dense<11.3137083> : tensor<1x32x40x40xf32>}> : () -> tensor<1x32x40x40xf32>
    %365 = tosa.reciprocal %364 : (tensor<1x32x40x40xf32>) -> tensor<1x32x40x40xf32>
    %366 = tosa.mul %363, %365 {shift = 0 : i8} : (tensor<1x32x40x40xf32>, tensor<1x32x40x40xf32>) -> tensor<1x32x40x40xf32>
    %367 = tosa.add %366, %29 : (tensor<1x32x40x40xf32>, tensor<1x1x40x40xf32>) -> tensor<1x32x40x40xf32>
    %368 = tosa.reduce_max %367 {axis = 3 : i32} : (tensor<1x32x40x40xf32>) -> tensor<1x32x40x1xf32>
    %369 = tosa.sub %367, %368 : (tensor<1x32x40x40xf32>, tensor<1x32x40x1xf32>) -> tensor<1x32x40x40xf32>
    %370 = tosa.exp %369 : (tensor<1x32x40x40xf32>) -> tensor<1x32x40x40xf32>
    %371 = tosa.reduce_sum %370 {axis = 3 : i32} : (tensor<1x32x40x40xf32>) -> tensor<1x32x40x1xf32>
    %372 = tosa.reciprocal %371 : (tensor<1x32x40x1xf32>) -> tensor<1x32x40x1xf32>
    %373 = tosa.mul %370, %372 {shift = 0 : i8} : (tensor<1x32x40x40xf32>, tensor<1x32x40x1xf32>) -> tensor<1x32x40x40xf32>
    %374 = "tosa.const"() <{value = dense<0.000000e+00> : tensor<1x32x40x40xf32>}> : () -> tensor<1x32x40x40xf32>
    %375 = tosa.add %373, %374 : (tensor<1x32x40x40xf32>, tensor<1x32x40x40xf32>) -> tensor<1x32x40x40xf32>
    %376 = tosa.reshape %375 {new_shape = array<i64: 32, 40, 40>} : (tensor<1x32x40x40xf32>) -> tensor<32x40x40xf32>
    %377 = "tosa.const"() <{value = dense<0.000000e+00> : tensor<1x32x40x128xf32>}> : () -> tensor<1x32x40x128xf32>
    %378 = tosa.add %327, %377 : (tensor<1x32x40x128xf32>, tensor<1x32x40x128xf32>) -> tensor<1x32x40x128xf32>
    %379 = tosa.reshape %378 {new_shape = array<i64: 32, 40, 128>} : (tensor<1x32x40x128xf32>) -> tensor<32x40x128xf32>
    %380 = tosa.matmul %376, %379 : (tensor<32x40x40xf32>, tensor<32x40x128xf32>) -> tensor<32x40x128xf32>
    %381 = tosa.reshape %380 {new_shape = array<i64: 1, 32, 40, 128>} : (tensor<32x40x128xf32>) -> tensor<1x32x40x128xf32>
    %382 = "tosa.const"() <{value = dense<[0, 2, 1, 3]> : tensor<4xi32>}> : () -> tensor<4xi32>
    %383 = tosa.transpose %381, %382 : (tensor<1x32x40x128xf32>, tensor<4xi32>) -> tensor<1x40x32x128xf32>
    %384 = tosa.identity %383 : (tensor<1x40x32x128xf32>) -> tensor<1x40x32x128xf32>
    %385 = tosa.reshape %384 {new_shape = array<i64: 1, 40, 4096>} : (tensor<1x40x32x128xf32>) -> tensor<1x40x4096xf32>
    %386 = "tosa.const"() <{value = dense<[1, 0]> : tensor<2xi32>}> : () -> tensor<2xi32>
    %387 = tosa.transpose %arg30, %386 : (tensor<4096x4096xf32>, tensor<2xi32>) -> tensor<4096x4096xf32>
    %388 = tosa.reshape %385 {new_shape = array<i64: 40, 4096>} : (tensor<1x40x4096xf32>) -> tensor<40x4096xf32>
    %cst_68 = arith.constant dense<0.000000e+00> : tensor<40x4096xf32>
    %389 = linalg.matmul {cast = #linalg.type_fn<cast_signed>} ins(%388, %387 : tensor<40x4096xf32>, tensor<4096x4096xf32>) outs(%cst_68 : tensor<40x4096xf32>) -> tensor<40x4096xf32>
    %390 = tosa.reshape %389 {new_shape = array<i64: 1, 40, 4096>} : (tensor<40x4096xf32>) -> tensor<1x40x4096xf32>
    %391 = tosa.add %291, %390 : (tensor<1x40x4096xf32>, tensor<1x40x4096xf32>) -> tensor<1x40x4096xf32>
    %392 = tensor.empty() : tensor<1x40x4096xf32>
    %c2_i32_69 = arith.constant 2 : i32
    %393 = linalg.generic {indexing_maps = [#map5, #map5], iterator_types = ["parallel", "parallel", "parallel"]} ins(%391 : tensor<1x40x4096xf32>) outs(%392 : tensor<1x40x4096xf32>) {
    ^bb0(%in: f32, %out: f32):
      %4239 = math.fpowi %in, %c2_i32_69 : f32, i32
      linalg.yield %4239 : f32
    } -> tensor<1x40x4096xf32>
    %394 = tosa.reduce_sum %393 {axis = 2 : i32} : (tensor<1x40x4096xf32>) -> tensor<1x40x1xf32>
    %395 = "tosa.const"() <{value = dense<4.096000e+03> : tensor<1xf32>}> : () -> tensor<1xf32>
    %396 = tosa.reciprocal %395 : (tensor<1xf32>) -> tensor<1xf32>
    %397 = tosa.mul %396, %394 {shift = 0 : i8} : (tensor<1xf32>, tensor<1x40x1xf32>) -> tensor<1x40x1xf32>
    %398 = "tosa.const"() <{value = dense<9.99999997E-7> : tensor<1x40x1xf32>}> : () -> tensor<1x40x1xf32>
    %399 = tosa.add %397, %398 : (tensor<1x40x1xf32>, tensor<1x40x1xf32>) -> tensor<1x40x1xf32>
    %400 = tosa.rsqrt %399 : (tensor<1x40x1xf32>) -> tensor<1x40x1xf32>
    %401 = tosa.mul %391, %400 {shift = 0 : i8} : (tensor<1x40x4096xf32>, tensor<1x40x1xf32>) -> tensor<1x40x4096xf32>
    %402 = tosa.reshape %arg31 {new_shape = array<i64: 1, 1, 4096>} : (tensor<4096xf32>) -> tensor<1x1x4096xf32>
    %403 = tosa.mul %402, %401 {shift = 0 : i8} : (tensor<1x1x4096xf32>, tensor<1x40x4096xf32>) -> tensor<1x40x4096xf32>
    %404 = "tosa.const"() <{value = dense<[1, 0]> : tensor<2xi32>}> : () -> tensor<2xi32>
    %405 = tosa.transpose %arg32, %404 : (tensor<11008x4096xf32>, tensor<2xi32>) -> tensor<4096x11008xf32>
    %406 = tosa.reshape %403 {new_shape = array<i64: 40, 4096>} : (tensor<1x40x4096xf32>) -> tensor<40x4096xf32>
    %cst_70 = arith.constant dense<0.000000e+00> : tensor<40x11008xf32>
    %407 = linalg.matmul {cast = #linalg.type_fn<cast_signed>} ins(%406, %405 : tensor<40x4096xf32>, tensor<4096x11008xf32>) outs(%cst_70 : tensor<40x11008xf32>) -> tensor<40x11008xf32>
    %408 = tosa.reshape %407 {new_shape = array<i64: 1, 40, 11008>} : (tensor<40x11008xf32>) -> tensor<1x40x11008xf32>
    %409 = tosa.sigmoid %408 : (tensor<1x40x11008xf32>) -> tensor<1x40x11008xf32>
    %410 = tosa.mul %408, %409 {shift = 0 : i8} : (tensor<1x40x11008xf32>, tensor<1x40x11008xf32>) -> tensor<1x40x11008xf32>
    %411 = "tosa.const"() <{value = dense<[1, 0]> : tensor<2xi32>}> : () -> tensor<2xi32>
    %412 = tosa.transpose %arg33, %411 : (tensor<11008x4096xf32>, tensor<2xi32>) -> tensor<4096x11008xf32>
    %413 = tosa.reshape %403 {new_shape = array<i64: 40, 4096>} : (tensor<1x40x4096xf32>) -> tensor<40x4096xf32>
    %cst_71 = arith.constant dense<0.000000e+00> : tensor<40x11008xf32>
    %414 = linalg.matmul {cast = #linalg.type_fn<cast_signed>} ins(%413, %412 : tensor<40x4096xf32>, tensor<4096x11008xf32>) outs(%cst_71 : tensor<40x11008xf32>) -> tensor<40x11008xf32>
    %415 = tosa.reshape %414 {new_shape = array<i64: 1, 40, 11008>} : (tensor<40x11008xf32>) -> tensor<1x40x11008xf32>
    %416 = tosa.mul %410, %415 {shift = 0 : i8} : (tensor<1x40x11008xf32>, tensor<1x40x11008xf32>) -> tensor<1x40x11008xf32>
    %417 = "tosa.const"() <{value = dense<[1, 0]> : tensor<2xi32>}> : () -> tensor<2xi32>
    %418 = tosa.transpose %arg34, %417 : (tensor<4096x11008xf32>, tensor<2xi32>) -> tensor<11008x4096xf32>
    %419 = tosa.reshape %416 {new_shape = array<i64: 40, 11008>} : (tensor<1x40x11008xf32>) -> tensor<40x11008xf32>
    %cst_72 = arith.constant dense<0.000000e+00> : tensor<40x4096xf32>
    %420 = linalg.matmul {cast = #linalg.type_fn<cast_signed>} ins(%419, %418 : tensor<40x11008xf32>, tensor<11008x4096xf32>) outs(%cst_72 : tensor<40x4096xf32>) -> tensor<40x4096xf32>
    %421 = tosa.reshape %420 {new_shape = array<i64: 1, 40, 4096>} : (tensor<40x4096xf32>) -> tensor<1x40x4096xf32>
    %422 = tosa.add %391, %421 : (tensor<1x40x4096xf32>, tensor<1x40x4096xf32>) -> tensor<1x40x4096xf32>
    %423 = tensor.empty() : tensor<1x40x4096xf32>
    %c2_i32_73 = arith.constant 2 : i32
    %424 = linalg.generic {indexing_maps = [#map5, #map5], iterator_types = ["parallel", "parallel", "parallel"]} ins(%422 : tensor<1x40x4096xf32>) outs(%423 : tensor<1x40x4096xf32>) {
    ^bb0(%in: f32, %out: f32):
      %4239 = math.fpowi %in, %c2_i32_73 : f32, i32
      linalg.yield %4239 : f32
    } -> tensor<1x40x4096xf32>
    %425 = tosa.reduce_sum %424 {axis = 2 : i32} : (tensor<1x40x4096xf32>) -> tensor<1x40x1xf32>
    %426 = "tosa.const"() <{value = dense<4.096000e+03> : tensor<1xf32>}> : () -> tensor<1xf32>
    %427 = tosa.reciprocal %426 : (tensor<1xf32>) -> tensor<1xf32>
    %428 = tosa.mul %427, %425 {shift = 0 : i8} : (tensor<1xf32>, tensor<1x40x1xf32>) -> tensor<1x40x1xf32>
    %429 = "tosa.const"() <{value = dense<9.99999997E-7> : tensor<1x40x1xf32>}> : () -> tensor<1x40x1xf32>
    %430 = tosa.add %428, %429 : (tensor<1x40x1xf32>, tensor<1x40x1xf32>) -> tensor<1x40x1xf32>
    %431 = tosa.rsqrt %430 : (tensor<1x40x1xf32>) -> tensor<1x40x1xf32>
    %432 = tosa.mul %422, %431 {shift = 0 : i8} : (tensor<1x40x4096xf32>, tensor<1x40x1xf32>) -> tensor<1x40x4096xf32>
    %433 = tosa.reshape %arg35 {new_shape = array<i64: 1, 1, 4096>} : (tensor<4096xf32>) -> tensor<1x1x4096xf32>
    %434 = tosa.mul %433, %432 {shift = 0 : i8} : (tensor<1x1x4096xf32>, tensor<1x40x4096xf32>) -> tensor<1x40x4096xf32>
    %435 = "tosa.const"() <{value = dense<[1, 0]> : tensor<2xi32>}> : () -> tensor<2xi32>
    %436 = tosa.transpose %arg36, %435 : (tensor<4096x4096xf32>, tensor<2xi32>) -> tensor<4096x4096xf32>
    %437 = tosa.reshape %434 {new_shape = array<i64: 40, 4096>} : (tensor<1x40x4096xf32>) -> tensor<40x4096xf32>
    %cst_74 = arith.constant dense<0.000000e+00> : tensor<40x4096xf32>
    %438 = linalg.matmul {cast = #linalg.type_fn<cast_signed>} ins(%437, %436 : tensor<40x4096xf32>, tensor<4096x4096xf32>) outs(%cst_74 : tensor<40x4096xf32>) -> tensor<40x4096xf32>
    %439 = tosa.reshape %438 {new_shape = array<i64: 1, 40, 4096>} : (tensor<40x4096xf32>) -> tensor<1x40x4096xf32>
    %440 = "tosa.const"() <{value = dense<[1, 0]> : tensor<2xi32>}> : () -> tensor<2xi32>
    %441 = tosa.transpose %arg37, %440 : (tensor<4096x4096xf32>, tensor<2xi32>) -> tensor<4096x4096xf32>
    %442 = tosa.reshape %434 {new_shape = array<i64: 40, 4096>} : (tensor<1x40x4096xf32>) -> tensor<40x4096xf32>
    %cst_75 = arith.constant dense<0.000000e+00> : tensor<40x4096xf32>
    %443 = linalg.matmul {cast = #linalg.type_fn<cast_signed>} ins(%442, %441 : tensor<40x4096xf32>, tensor<4096x4096xf32>) outs(%cst_75 : tensor<40x4096xf32>) -> tensor<40x4096xf32>
    %444 = tosa.reshape %443 {new_shape = array<i64: 1, 40, 4096>} : (tensor<40x4096xf32>) -> tensor<1x40x4096xf32>
    %445 = "tosa.const"() <{value = dense<[1, 0]> : tensor<2xi32>}> : () -> tensor<2xi32>
    %446 = tosa.transpose %arg38, %445 : (tensor<4096x4096xf32>, tensor<2xi32>) -> tensor<4096x4096xf32>
    %447 = tosa.reshape %434 {new_shape = array<i64: 40, 4096>} : (tensor<1x40x4096xf32>) -> tensor<40x4096xf32>
    %cst_76 = arith.constant dense<0.000000e+00> : tensor<40x4096xf32>
    %448 = linalg.matmul {cast = #linalg.type_fn<cast_signed>} ins(%447, %446 : tensor<40x4096xf32>, tensor<4096x4096xf32>) outs(%cst_76 : tensor<40x4096xf32>) -> tensor<40x4096xf32>
    %449 = tosa.reshape %448 {new_shape = array<i64: 1, 40, 4096>} : (tensor<40x4096xf32>) -> tensor<1x40x4096xf32>
    %450 = tosa.reshape %439 {new_shape = array<i64: 1, 40, 32, 128>} : (tensor<1x40x4096xf32>) -> tensor<1x40x32x128xf32>
    %451 = "tosa.const"() <{value = dense<[0, 2, 1, 3]> : tensor<4xi32>}> : () -> tensor<4xi32>
    %452 = tosa.transpose %450, %451 : (tensor<1x40x32x128xf32>, tensor<4xi32>) -> tensor<1x32x40x128xf32>
    %453 = tosa.reshape %444 {new_shape = array<i64: 1, 40, 32, 128>} : (tensor<1x40x4096xf32>) -> tensor<1x40x32x128xf32>
    %454 = "tosa.const"() <{value = dense<[0, 2, 1, 3]> : tensor<4xi32>}> : () -> tensor<4xi32>
    %455 = tosa.transpose %453, %454 : (tensor<1x40x32x128xf32>, tensor<4xi32>) -> tensor<1x32x40x128xf32>
    %456 = tosa.reshape %449 {new_shape = array<i64: 1, 40, 32, 128>} : (tensor<1x40x4096xf32>) -> tensor<1x40x32x128xf32>
    %457 = "tosa.const"() <{value = dense<[0, 2, 1, 3]> : tensor<4xi32>}> : () -> tensor<4xi32>
    %458 = tosa.transpose %456, %457 : (tensor<1x40x32x128xf32>, tensor<4xi32>) -> tensor<1x32x40x128xf32>
    %extracted_slice_77 = tensor.extract_slice %arg39[0, 0, 0, 0] [1, 1, 2048, 128] [1, 1, 1, 1] : tensor<1x1x2048x128xf32> to tensor<1x1x2048x128xf32>
    %extracted_slice_78 = tensor.extract_slice %extracted_slice_77[0, 0, 0, 0] [1, 1, 2048, 128] [1, 1, 1, 1] : tensor<1x1x2048x128xf32> to tensor<1x1x2048x128xf32>
    %extracted_slice_79 = tensor.extract_slice %extracted_slice_78[0, 0, 0, 0] [1, 1, 40, 128] [1, 1, 1, 1] : tensor<1x1x2048x128xf32> to tensor<1x1x40x128xf32>
    %extracted_slice_80 = tensor.extract_slice %arg40[0, 0, 0, 0] [1, 1, 2048, 128] [1, 1, 1, 1] : tensor<1x1x2048x128xf32> to tensor<1x1x2048x128xf32>
    %extracted_slice_81 = tensor.extract_slice %extracted_slice_80[0, 0, 0, 0] [1, 1, 2048, 128] [1, 1, 1, 1] : tensor<1x1x2048x128xf32> to tensor<1x1x2048x128xf32>
    %extracted_slice_82 = tensor.extract_slice %extracted_slice_81[0, 0, 0, 0] [1, 1, 40, 128] [1, 1, 1, 1] : tensor<1x1x2048x128xf32> to tensor<1x1x40x128xf32>
    %459 = tensor.empty() : tensor<1x40x128xf32>
    %460 = linalg.generic {indexing_maps = [#map6, #map5], iterator_types = ["parallel", "parallel", "parallel"]} ins(%extracted_slice_79 : tensor<1x1x40x128xf32>) outs(%459 : tensor<1x40x128xf32>) {
    ^bb0(%in: f32, %out: f32):
      linalg.yield %in : f32
    } -> tensor<1x40x128xf32>
    %461 = tensor.empty() : tensor<40x128xf32>
    %462 = linalg.generic {indexing_maps = [#map7, #map3], iterator_types = ["parallel", "parallel"]} ins(%460 : tensor<1x40x128xf32>) outs(%461 : tensor<40x128xf32>) {
    ^bb0(%in: f32, %out: f32):
      linalg.yield %in : f32
    } -> tensor<40x128xf32>
    %463 = tensor.empty() : tensor<1x40x128xf32>
    %464 = linalg.generic {indexing_maps = [#map6, #map5], iterator_types = ["parallel", "parallel", "parallel"]} ins(%extracted_slice_82 : tensor<1x1x40x128xf32>) outs(%463 : tensor<1x40x128xf32>) {
    ^bb0(%in: f32, %out: f32):
      linalg.yield %in : f32
    } -> tensor<1x40x128xf32>
    %465 = tensor.empty() : tensor<40x128xf32>
    %466 = linalg.generic {indexing_maps = [#map7, #map3], iterator_types = ["parallel", "parallel"]} ins(%464 : tensor<1x40x128xf32>) outs(%465 : tensor<40x128xf32>) {
    ^bb0(%in: f32, %out: f32):
      linalg.yield %in : f32
    } -> tensor<40x128xf32>
    %467 = tensor.empty() : tensor<1x40x128xf32>
    %468 = linalg.generic {indexing_maps = [#map2, #map5], iterator_types = ["parallel", "parallel", "parallel"]} ins(%2 : tensor<1x40xi64>) outs(%467 : tensor<1x40x128xf32>) {
    ^bb0(%in: i64, %out: f32):
      %4239 = arith.index_cast %in : i64 to index
      %4240 = linalg.index 2 : index
      %extracted = tensor.extract %462[%4239, %4240] : tensor<40x128xf32>
      linalg.yield %extracted : f32
    } -> tensor<1x40x128xf32>
    %469 = tosa.reshape %468 {new_shape = array<i64: 1, 1, 40, 128>} : (tensor<1x40x128xf32>) -> tensor<1x1x40x128xf32>
    %470 = tensor.empty() : tensor<1x40x128xf32>
    %471 = linalg.generic {indexing_maps = [#map2, #map5], iterator_types = ["parallel", "parallel", "parallel"]} ins(%2 : tensor<1x40xi64>) outs(%470 : tensor<1x40x128xf32>) {
    ^bb0(%in: i64, %out: f32):
      %4239 = arith.index_cast %in : i64 to index
      %4240 = linalg.index 2 : index
      %extracted = tensor.extract %466[%4239, %4240] : tensor<40x128xf32>
      linalg.yield %extracted : f32
    } -> tensor<1x40x128xf32>
    %472 = tosa.reshape %471 {new_shape = array<i64: 1, 1, 40, 128>} : (tensor<1x40x128xf32>) -> tensor<1x1x40x128xf32>
    %473 = tosa.mul %452, %469 {shift = 0 : i8} : (tensor<1x32x40x128xf32>, tensor<1x1x40x128xf32>) -> tensor<1x32x40x128xf32>
    %extracted_slice_83 = tensor.extract_slice %452[0, 0, 0, 0] [1, 32, 40, 64] [1, 1, 1, 1] : tensor<1x32x40x128xf32> to tensor<1x32x40x64xf32>
    %extracted_slice_84 = tensor.extract_slice %452[0, 0, 0, 64] [1, 32, 40, 64] [1, 1, 1, 1] : tensor<1x32x40x128xf32> to tensor<1x32x40x64xf32>
    %474 = tensor.empty() : tensor<1x32x40x64xf32>
    %475 = linalg.negf ins(%extracted_slice_84 : tensor<1x32x40x64xf32>) outs(%474 : tensor<1x32x40x64xf32>) -> tensor<1x32x40x64xf32>
    %476 = tensor.empty() : tensor<1x32x40x128xf32>
    %inserted_slice_85 = tensor.insert_slice %475 into %476[0, 0, 0, 0] [1, 32, 40, 64] [1, 1, 1, 1] : tensor<1x32x40x64xf32> into tensor<1x32x40x128xf32>
    %inserted_slice_86 = tensor.insert_slice %extracted_slice_83 into %inserted_slice_85[0, 0, 0, 64] [1, 32, 40, 64] [1, 1, 1, 1] : tensor<1x32x40x64xf32> into tensor<1x32x40x128xf32>
    %477 = tosa.mul %inserted_slice_86, %472 {shift = 0 : i8} : (tensor<1x32x40x128xf32>, tensor<1x1x40x128xf32>) -> tensor<1x32x40x128xf32>
    %478 = tosa.add %473, %477 : (tensor<1x32x40x128xf32>, tensor<1x32x40x128xf32>) -> tensor<1x32x40x128xf32>
    %479 = tosa.mul %455, %469 {shift = 0 : i8} : (tensor<1x32x40x128xf32>, tensor<1x1x40x128xf32>) -> tensor<1x32x40x128xf32>
    %extracted_slice_87 = tensor.extract_slice %455[0, 0, 0, 0] [1, 32, 40, 64] [1, 1, 1, 1] : tensor<1x32x40x128xf32> to tensor<1x32x40x64xf32>
    %extracted_slice_88 = tensor.extract_slice %455[0, 0, 0, 64] [1, 32, 40, 64] [1, 1, 1, 1] : tensor<1x32x40x128xf32> to tensor<1x32x40x64xf32>
    %480 = tensor.empty() : tensor<1x32x40x64xf32>
    %481 = linalg.negf ins(%extracted_slice_88 : tensor<1x32x40x64xf32>) outs(%480 : tensor<1x32x40x64xf32>) -> tensor<1x32x40x64xf32>
    %482 = tensor.empty() : tensor<1x32x40x128xf32>
    %inserted_slice_89 = tensor.insert_slice %481 into %482[0, 0, 0, 0] [1, 32, 40, 64] [1, 1, 1, 1] : tensor<1x32x40x64xf32> into tensor<1x32x40x128xf32>
    %inserted_slice_90 = tensor.insert_slice %extracted_slice_87 into %inserted_slice_89[0, 0, 0, 64] [1, 32, 40, 64] [1, 1, 1, 1] : tensor<1x32x40x64xf32> into tensor<1x32x40x128xf32>
    %483 = tosa.mul %inserted_slice_90, %472 {shift = 0 : i8} : (tensor<1x32x40x128xf32>, tensor<1x1x40x128xf32>) -> tensor<1x32x40x128xf32>
    %484 = tosa.add %479, %483 : (tensor<1x32x40x128xf32>, tensor<1x32x40x128xf32>) -> tensor<1x32x40x128xf32>
    %485 = "tosa.const"() <{value = dense<[0, 1, 3, 2]> : tensor<4xi32>}> : () -> tensor<4xi32>
    %486 = tosa.transpose %484, %485 : (tensor<1x32x40x128xf32>, tensor<4xi32>) -> tensor<1x32x128x40xf32>
    %487 = "tosa.const"() <{value = dense<0.000000e+00> : tensor<1x32x40x128xf32>}> : () -> tensor<1x32x40x128xf32>
    %488 = tosa.add %478, %487 : (tensor<1x32x40x128xf32>, tensor<1x32x40x128xf32>) -> tensor<1x32x40x128xf32>
    %489 = tosa.reshape %488 {new_shape = array<i64: 32, 40, 128>} : (tensor<1x32x40x128xf32>) -> tensor<32x40x128xf32>
    %490 = "tosa.const"() <{value = dense<0.000000e+00> : tensor<1x32x128x40xf32>}> : () -> tensor<1x32x128x40xf32>
    %491 = tosa.add %486, %490 : (tensor<1x32x128x40xf32>, tensor<1x32x128x40xf32>) -> tensor<1x32x128x40xf32>
    %492 = tosa.reshape %491 {new_shape = array<i64: 32, 128, 40>} : (tensor<1x32x128x40xf32>) -> tensor<32x128x40xf32>
    %493 = tosa.matmul %489, %492 : (tensor<32x40x128xf32>, tensor<32x128x40xf32>) -> tensor<32x40x40xf32>
    %494 = tosa.reshape %493 {new_shape = array<i64: 1, 32, 40, 40>} : (tensor<32x40x40xf32>) -> tensor<1x32x40x40xf32>
    %495 = "tosa.const"() <{value = dense<11.3137083> : tensor<1x32x40x40xf32>}> : () -> tensor<1x32x40x40xf32>
    %496 = tosa.reciprocal %495 : (tensor<1x32x40x40xf32>) -> tensor<1x32x40x40xf32>
    %497 = tosa.mul %494, %496 {shift = 0 : i8} : (tensor<1x32x40x40xf32>, tensor<1x32x40x40xf32>) -> tensor<1x32x40x40xf32>
    %498 = tosa.add %497, %29 : (tensor<1x32x40x40xf32>, tensor<1x1x40x40xf32>) -> tensor<1x32x40x40xf32>
    %499 = tosa.reduce_max %498 {axis = 3 : i32} : (tensor<1x32x40x40xf32>) -> tensor<1x32x40x1xf32>
    %500 = tosa.sub %498, %499 : (tensor<1x32x40x40xf32>, tensor<1x32x40x1xf32>) -> tensor<1x32x40x40xf32>
    %501 = tosa.exp %500 : (tensor<1x32x40x40xf32>) -> tensor<1x32x40x40xf32>
    %502 = tosa.reduce_sum %501 {axis = 3 : i32} : (tensor<1x32x40x40xf32>) -> tensor<1x32x40x1xf32>
    %503 = tosa.reciprocal %502 : (tensor<1x32x40x1xf32>) -> tensor<1x32x40x1xf32>
    %504 = tosa.mul %501, %503 {shift = 0 : i8} : (tensor<1x32x40x40xf32>, tensor<1x32x40x1xf32>) -> tensor<1x32x40x40xf32>
    %505 = "tosa.const"() <{value = dense<0.000000e+00> : tensor<1x32x40x40xf32>}> : () -> tensor<1x32x40x40xf32>
    %506 = tosa.add %504, %505 : (tensor<1x32x40x40xf32>, tensor<1x32x40x40xf32>) -> tensor<1x32x40x40xf32>
    %507 = tosa.reshape %506 {new_shape = array<i64: 32, 40, 40>} : (tensor<1x32x40x40xf32>) -> tensor<32x40x40xf32>
    %508 = "tosa.const"() <{value = dense<0.000000e+00> : tensor<1x32x40x128xf32>}> : () -> tensor<1x32x40x128xf32>
    %509 = tosa.add %458, %508 : (tensor<1x32x40x128xf32>, tensor<1x32x40x128xf32>) -> tensor<1x32x40x128xf32>
    %510 = tosa.reshape %509 {new_shape = array<i64: 32, 40, 128>} : (tensor<1x32x40x128xf32>) -> tensor<32x40x128xf32>
    %511 = tosa.matmul %507, %510 : (tensor<32x40x40xf32>, tensor<32x40x128xf32>) -> tensor<32x40x128xf32>
    %512 = tosa.reshape %511 {new_shape = array<i64: 1, 32, 40, 128>} : (tensor<32x40x128xf32>) -> tensor<1x32x40x128xf32>
    %513 = "tosa.const"() <{value = dense<[0, 2, 1, 3]> : tensor<4xi32>}> : () -> tensor<4xi32>
    %514 = tosa.transpose %512, %513 : (tensor<1x32x40x128xf32>, tensor<4xi32>) -> tensor<1x40x32x128xf32>
    %515 = tosa.identity %514 : (tensor<1x40x32x128xf32>) -> tensor<1x40x32x128xf32>
    %516 = tosa.reshape %515 {new_shape = array<i64: 1, 40, 4096>} : (tensor<1x40x32x128xf32>) -> tensor<1x40x4096xf32>
    %517 = "tosa.const"() <{value = dense<[1, 0]> : tensor<2xi32>}> : () -> tensor<2xi32>
    %518 = tosa.transpose %arg41, %517 : (tensor<4096x4096xf32>, tensor<2xi32>) -> tensor<4096x4096xf32>
    %519 = tosa.reshape %516 {new_shape = array<i64: 40, 4096>} : (tensor<1x40x4096xf32>) -> tensor<40x4096xf32>
    %cst_91 = arith.constant dense<0.000000e+00> : tensor<40x4096xf32>
    %520 = linalg.matmul {cast = #linalg.type_fn<cast_signed>} ins(%519, %518 : tensor<40x4096xf32>, tensor<4096x4096xf32>) outs(%cst_91 : tensor<40x4096xf32>) -> tensor<40x4096xf32>
    %521 = tosa.reshape %520 {new_shape = array<i64: 1, 40, 4096>} : (tensor<40x4096xf32>) -> tensor<1x40x4096xf32>
    %522 = tosa.add %422, %521 : (tensor<1x40x4096xf32>, tensor<1x40x4096xf32>) -> tensor<1x40x4096xf32>
    %523 = tensor.empty() : tensor<1x40x4096xf32>
    %c2_i32_92 = arith.constant 2 : i32
    %524 = linalg.generic {indexing_maps = [#map5, #map5], iterator_types = ["parallel", "parallel", "parallel"]} ins(%522 : tensor<1x40x4096xf32>) outs(%523 : tensor<1x40x4096xf32>) {
    ^bb0(%in: f32, %out: f32):
      %4239 = math.fpowi %in, %c2_i32_92 : f32, i32
      linalg.yield %4239 : f32
    } -> tensor<1x40x4096xf32>
    %525 = tosa.reduce_sum %524 {axis = 2 : i32} : (tensor<1x40x4096xf32>) -> tensor<1x40x1xf32>
    %526 = "tosa.const"() <{value = dense<4.096000e+03> : tensor<1xf32>}> : () -> tensor<1xf32>
    %527 = tosa.reciprocal %526 : (tensor<1xf32>) -> tensor<1xf32>
    %528 = tosa.mul %527, %525 {shift = 0 : i8} : (tensor<1xf32>, tensor<1x40x1xf32>) -> tensor<1x40x1xf32>
    %529 = "tosa.const"() <{value = dense<9.99999997E-7> : tensor<1x40x1xf32>}> : () -> tensor<1x40x1xf32>
    %530 = tosa.add %528, %529 : (tensor<1x40x1xf32>, tensor<1x40x1xf32>) -> tensor<1x40x1xf32>
    %531 = tosa.rsqrt %530 : (tensor<1x40x1xf32>) -> tensor<1x40x1xf32>
    %532 = tosa.mul %522, %531 {shift = 0 : i8} : (tensor<1x40x4096xf32>, tensor<1x40x1xf32>) -> tensor<1x40x4096xf32>
    %533 = tosa.reshape %arg42 {new_shape = array<i64: 1, 1, 4096>} : (tensor<4096xf32>) -> tensor<1x1x4096xf32>
    %534 = tosa.mul %533, %532 {shift = 0 : i8} : (tensor<1x1x4096xf32>, tensor<1x40x4096xf32>) -> tensor<1x40x4096xf32>
    %535 = "tosa.const"() <{value = dense<[1, 0]> : tensor<2xi32>}> : () -> tensor<2xi32>
    %536 = tosa.transpose %arg43, %535 : (tensor<11008x4096xf32>, tensor<2xi32>) -> tensor<4096x11008xf32>
    %537 = tosa.reshape %534 {new_shape = array<i64: 40, 4096>} : (tensor<1x40x4096xf32>) -> tensor<40x4096xf32>
    %cst_93 = arith.constant dense<0.000000e+00> : tensor<40x11008xf32>
    %538 = linalg.matmul {cast = #linalg.type_fn<cast_signed>} ins(%537, %536 : tensor<40x4096xf32>, tensor<4096x11008xf32>) outs(%cst_93 : tensor<40x11008xf32>) -> tensor<40x11008xf32>
    %539 = tosa.reshape %538 {new_shape = array<i64: 1, 40, 11008>} : (tensor<40x11008xf32>) -> tensor<1x40x11008xf32>
    %540 = tosa.sigmoid %539 : (tensor<1x40x11008xf32>) -> tensor<1x40x11008xf32>
    %541 = tosa.mul %539, %540 {shift = 0 : i8} : (tensor<1x40x11008xf32>, tensor<1x40x11008xf32>) -> tensor<1x40x11008xf32>
    %542 = "tosa.const"() <{value = dense<[1, 0]> : tensor<2xi32>}> : () -> tensor<2xi32>
    %543 = tosa.transpose %arg44, %542 : (tensor<11008x4096xf32>, tensor<2xi32>) -> tensor<4096x11008xf32>
    %544 = tosa.reshape %534 {new_shape = array<i64: 40, 4096>} : (tensor<1x40x4096xf32>) -> tensor<40x4096xf32>
    %cst_94 = arith.constant dense<0.000000e+00> : tensor<40x11008xf32>
    %545 = linalg.matmul {cast = #linalg.type_fn<cast_signed>} ins(%544, %543 : tensor<40x4096xf32>, tensor<4096x11008xf32>) outs(%cst_94 : tensor<40x11008xf32>) -> tensor<40x11008xf32>
    %546 = tosa.reshape %545 {new_shape = array<i64: 1, 40, 11008>} : (tensor<40x11008xf32>) -> tensor<1x40x11008xf32>
    %547 = tosa.mul %541, %546 {shift = 0 : i8} : (tensor<1x40x11008xf32>, tensor<1x40x11008xf32>) -> tensor<1x40x11008xf32>
    %548 = "tosa.const"() <{value = dense<[1, 0]> : tensor<2xi32>}> : () -> tensor<2xi32>
    %549 = tosa.transpose %arg45, %548 : (tensor<4096x11008xf32>, tensor<2xi32>) -> tensor<11008x4096xf32>
    %550 = tosa.reshape %547 {new_shape = array<i64: 40, 11008>} : (tensor<1x40x11008xf32>) -> tensor<40x11008xf32>
    %cst_95 = arith.constant dense<0.000000e+00> : tensor<40x4096xf32>
    %551 = linalg.matmul {cast = #linalg.type_fn<cast_signed>} ins(%550, %549 : tensor<40x11008xf32>, tensor<11008x4096xf32>) outs(%cst_95 : tensor<40x4096xf32>) -> tensor<40x4096xf32>
    %552 = tosa.reshape %551 {new_shape = array<i64: 1, 40, 4096>} : (tensor<40x4096xf32>) -> tensor<1x40x4096xf32>
    %553 = tosa.add %522, %552 : (tensor<1x40x4096xf32>, tensor<1x40x4096xf32>) -> tensor<1x40x4096xf32>
    %554 = tensor.empty() : tensor<1x40x4096xf32>
    %c2_i32_96 = arith.constant 2 : i32
    %555 = linalg.generic {indexing_maps = [#map5, #map5], iterator_types = ["parallel", "parallel", "parallel"]} ins(%553 : tensor<1x40x4096xf32>) outs(%554 : tensor<1x40x4096xf32>) {
    ^bb0(%in: f32, %out: f32):
      %4239 = math.fpowi %in, %c2_i32_96 : f32, i32
      linalg.yield %4239 : f32
    } -> tensor<1x40x4096xf32>
    %556 = tosa.reduce_sum %555 {axis = 2 : i32} : (tensor<1x40x4096xf32>) -> tensor<1x40x1xf32>
    %557 = "tosa.const"() <{value = dense<4.096000e+03> : tensor<1xf32>}> : () -> tensor<1xf32>
    %558 = tosa.reciprocal %557 : (tensor<1xf32>) -> tensor<1xf32>
    %559 = tosa.mul %558, %556 {shift = 0 : i8} : (tensor<1xf32>, tensor<1x40x1xf32>) -> tensor<1x40x1xf32>
    %560 = "tosa.const"() <{value = dense<9.99999997E-7> : tensor<1x40x1xf32>}> : () -> tensor<1x40x1xf32>
    %561 = tosa.add %559, %560 : (tensor<1x40x1xf32>, tensor<1x40x1xf32>) -> tensor<1x40x1xf32>
    %562 = tosa.rsqrt %561 : (tensor<1x40x1xf32>) -> tensor<1x40x1xf32>
    %563 = tosa.mul %553, %562 {shift = 0 : i8} : (tensor<1x40x4096xf32>, tensor<1x40x1xf32>) -> tensor<1x40x4096xf32>
    %564 = tosa.reshape %arg46 {new_shape = array<i64: 1, 1, 4096>} : (tensor<4096xf32>) -> tensor<1x1x4096xf32>
    %565 = tosa.mul %564, %563 {shift = 0 : i8} : (tensor<1x1x4096xf32>, tensor<1x40x4096xf32>) -> tensor<1x40x4096xf32>
    %566 = "tosa.const"() <{value = dense<[1, 0]> : tensor<2xi32>}> : () -> tensor<2xi32>
    %567 = tosa.transpose %arg47, %566 : (tensor<4096x4096xf32>, tensor<2xi32>) -> tensor<4096x4096xf32>
    %568 = tosa.reshape %565 {new_shape = array<i64: 40, 4096>} : (tensor<1x40x4096xf32>) -> tensor<40x4096xf32>
    %cst_97 = arith.constant dense<0.000000e+00> : tensor<40x4096xf32>
    %569 = linalg.matmul {cast = #linalg.type_fn<cast_signed>} ins(%568, %567 : tensor<40x4096xf32>, tensor<4096x4096xf32>) outs(%cst_97 : tensor<40x4096xf32>) -> tensor<40x4096xf32>
    %570 = tosa.reshape %569 {new_shape = array<i64: 1, 40, 4096>} : (tensor<40x4096xf32>) -> tensor<1x40x4096xf32>
    %571 = "tosa.const"() <{value = dense<[1, 0]> : tensor<2xi32>}> : () -> tensor<2xi32>
    %572 = tosa.transpose %arg48, %571 : (tensor<4096x4096xf32>, tensor<2xi32>) -> tensor<4096x4096xf32>
    %573 = tosa.reshape %565 {new_shape = array<i64: 40, 4096>} : (tensor<1x40x4096xf32>) -> tensor<40x4096xf32>
    %cst_98 = arith.constant dense<0.000000e+00> : tensor<40x4096xf32>
    %574 = linalg.matmul {cast = #linalg.type_fn<cast_signed>} ins(%573, %572 : tensor<40x4096xf32>, tensor<4096x4096xf32>) outs(%cst_98 : tensor<40x4096xf32>) -> tensor<40x4096xf32>
    %575 = tosa.reshape %574 {new_shape = array<i64: 1, 40, 4096>} : (tensor<40x4096xf32>) -> tensor<1x40x4096xf32>
    %576 = "tosa.const"() <{value = dense<[1, 0]> : tensor<2xi32>}> : () -> tensor<2xi32>
    %577 = tosa.transpose %arg49, %576 : (tensor<4096x4096xf32>, tensor<2xi32>) -> tensor<4096x4096xf32>
    %578 = tosa.reshape %565 {new_shape = array<i64: 40, 4096>} : (tensor<1x40x4096xf32>) -> tensor<40x4096xf32>
    %cst_99 = arith.constant dense<0.000000e+00> : tensor<40x4096xf32>
    %579 = linalg.matmul {cast = #linalg.type_fn<cast_signed>} ins(%578, %577 : tensor<40x4096xf32>, tensor<4096x4096xf32>) outs(%cst_99 : tensor<40x4096xf32>) -> tensor<40x4096xf32>
    %580 = tosa.reshape %579 {new_shape = array<i64: 1, 40, 4096>} : (tensor<40x4096xf32>) -> tensor<1x40x4096xf32>
    %581 = tosa.reshape %570 {new_shape = array<i64: 1, 40, 32, 128>} : (tensor<1x40x4096xf32>) -> tensor<1x40x32x128xf32>
    %582 = "tosa.const"() <{value = dense<[0, 2, 1, 3]> : tensor<4xi32>}> : () -> tensor<4xi32>
    %583 = tosa.transpose %581, %582 : (tensor<1x40x32x128xf32>, tensor<4xi32>) -> tensor<1x32x40x128xf32>
    %584 = tosa.reshape %575 {new_shape = array<i64: 1, 40, 32, 128>} : (tensor<1x40x4096xf32>) -> tensor<1x40x32x128xf32>
    %585 = "tosa.const"() <{value = dense<[0, 2, 1, 3]> : tensor<4xi32>}> : () -> tensor<4xi32>
    %586 = tosa.transpose %584, %585 : (tensor<1x40x32x128xf32>, tensor<4xi32>) -> tensor<1x32x40x128xf32>
    %587 = tosa.reshape %580 {new_shape = array<i64: 1, 40, 32, 128>} : (tensor<1x40x4096xf32>) -> tensor<1x40x32x128xf32>
    %588 = "tosa.const"() <{value = dense<[0, 2, 1, 3]> : tensor<4xi32>}> : () -> tensor<4xi32>
    %589 = tosa.transpose %587, %588 : (tensor<1x40x32x128xf32>, tensor<4xi32>) -> tensor<1x32x40x128xf32>
    %extracted_slice_100 = tensor.extract_slice %arg50[0, 0, 0, 0] [1, 1, 2048, 128] [1, 1, 1, 1] : tensor<1x1x2048x128xf32> to tensor<1x1x2048x128xf32>
    %extracted_slice_101 = tensor.extract_slice %extracted_slice_100[0, 0, 0, 0] [1, 1, 2048, 128] [1, 1, 1, 1] : tensor<1x1x2048x128xf32> to tensor<1x1x2048x128xf32>
    %extracted_slice_102 = tensor.extract_slice %extracted_slice_101[0, 0, 0, 0] [1, 1, 40, 128] [1, 1, 1, 1] : tensor<1x1x2048x128xf32> to tensor<1x1x40x128xf32>
    %extracted_slice_103 = tensor.extract_slice %arg51[0, 0, 0, 0] [1, 1, 2048, 128] [1, 1, 1, 1] : tensor<1x1x2048x128xf32> to tensor<1x1x2048x128xf32>
    %extracted_slice_104 = tensor.extract_slice %extracted_slice_103[0, 0, 0, 0] [1, 1, 2048, 128] [1, 1, 1, 1] : tensor<1x1x2048x128xf32> to tensor<1x1x2048x128xf32>
    %extracted_slice_105 = tensor.extract_slice %extracted_slice_104[0, 0, 0, 0] [1, 1, 40, 128] [1, 1, 1, 1] : tensor<1x1x2048x128xf32> to tensor<1x1x40x128xf32>
    %590 = tensor.empty() : tensor<1x40x128xf32>
    %591 = linalg.generic {indexing_maps = [#map6, #map5], iterator_types = ["parallel", "parallel", "parallel"]} ins(%extracted_slice_102 : tensor<1x1x40x128xf32>) outs(%590 : tensor<1x40x128xf32>) {
    ^bb0(%in: f32, %out: f32):
      linalg.yield %in : f32
    } -> tensor<1x40x128xf32>
    %592 = tensor.empty() : tensor<40x128xf32>
    %593 = linalg.generic {indexing_maps = [#map7, #map3], iterator_types = ["parallel", "parallel"]} ins(%591 : tensor<1x40x128xf32>) outs(%592 : tensor<40x128xf32>) {
    ^bb0(%in: f32, %out: f32):
      linalg.yield %in : f32
    } -> tensor<40x128xf32>
    %594 = tensor.empty() : tensor<1x40x128xf32>
    %595 = linalg.generic {indexing_maps = [#map6, #map5], iterator_types = ["parallel", "parallel", "parallel"]} ins(%extracted_slice_105 : tensor<1x1x40x128xf32>) outs(%594 : tensor<1x40x128xf32>) {
    ^bb0(%in: f32, %out: f32):
      linalg.yield %in : f32
    } -> tensor<1x40x128xf32>
    %596 = tensor.empty() : tensor<40x128xf32>
    %597 = linalg.generic {indexing_maps = [#map7, #map3], iterator_types = ["parallel", "parallel"]} ins(%595 : tensor<1x40x128xf32>) outs(%596 : tensor<40x128xf32>) {
    ^bb0(%in: f32, %out: f32):
      linalg.yield %in : f32
    } -> tensor<40x128xf32>
    %598 = tensor.empty() : tensor<1x40x128xf32>
    %599 = linalg.generic {indexing_maps = [#map2, #map5], iterator_types = ["parallel", "parallel", "parallel"]} ins(%2 : tensor<1x40xi64>) outs(%598 : tensor<1x40x128xf32>) {
    ^bb0(%in: i64, %out: f32):
      %4239 = arith.index_cast %in : i64 to index
      %4240 = linalg.index 2 : index
      %extracted = tensor.extract %593[%4239, %4240] : tensor<40x128xf32>
      linalg.yield %extracted : f32
    } -> tensor<1x40x128xf32>
    %600 = tosa.reshape %599 {new_shape = array<i64: 1, 1, 40, 128>} : (tensor<1x40x128xf32>) -> tensor<1x1x40x128xf32>
    %601 = tensor.empty() : tensor<1x40x128xf32>
    %602 = linalg.generic {indexing_maps = [#map2, #map5], iterator_types = ["parallel", "parallel", "parallel"]} ins(%2 : tensor<1x40xi64>) outs(%601 : tensor<1x40x128xf32>) {
    ^bb0(%in: i64, %out: f32):
      %4239 = arith.index_cast %in : i64 to index
      %4240 = linalg.index 2 : index
      %extracted = tensor.extract %597[%4239, %4240] : tensor<40x128xf32>
      linalg.yield %extracted : f32
    } -> tensor<1x40x128xf32>
    %603 = tosa.reshape %602 {new_shape = array<i64: 1, 1, 40, 128>} : (tensor<1x40x128xf32>) -> tensor<1x1x40x128xf32>
    %604 = tosa.mul %583, %600 {shift = 0 : i8} : (tensor<1x32x40x128xf32>, tensor<1x1x40x128xf32>) -> tensor<1x32x40x128xf32>
    %extracted_slice_106 = tensor.extract_slice %583[0, 0, 0, 0] [1, 32, 40, 64] [1, 1, 1, 1] : tensor<1x32x40x128xf32> to tensor<1x32x40x64xf32>
    %extracted_slice_107 = tensor.extract_slice %583[0, 0, 0, 64] [1, 32, 40, 64] [1, 1, 1, 1] : tensor<1x32x40x128xf32> to tensor<1x32x40x64xf32>
    %605 = tensor.empty() : tensor<1x32x40x64xf32>
    %606 = linalg.negf ins(%extracted_slice_107 : tensor<1x32x40x64xf32>) outs(%605 : tensor<1x32x40x64xf32>) -> tensor<1x32x40x64xf32>
    %607 = tensor.empty() : tensor<1x32x40x128xf32>
    %inserted_slice_108 = tensor.insert_slice %606 into %607[0, 0, 0, 0] [1, 32, 40, 64] [1, 1, 1, 1] : tensor<1x32x40x64xf32> into tensor<1x32x40x128xf32>
    %inserted_slice_109 = tensor.insert_slice %extracted_slice_106 into %inserted_slice_108[0, 0, 0, 64] [1, 32, 40, 64] [1, 1, 1, 1] : tensor<1x32x40x64xf32> into tensor<1x32x40x128xf32>
    %608 = tosa.mul %inserted_slice_109, %603 {shift = 0 : i8} : (tensor<1x32x40x128xf32>, tensor<1x1x40x128xf32>) -> tensor<1x32x40x128xf32>
    %609 = tosa.add %604, %608 : (tensor<1x32x40x128xf32>, tensor<1x32x40x128xf32>) -> tensor<1x32x40x128xf32>
    %610 = tosa.mul %586, %600 {shift = 0 : i8} : (tensor<1x32x40x128xf32>, tensor<1x1x40x128xf32>) -> tensor<1x32x40x128xf32>
    %extracted_slice_110 = tensor.extract_slice %586[0, 0, 0, 0] [1, 32, 40, 64] [1, 1, 1, 1] : tensor<1x32x40x128xf32> to tensor<1x32x40x64xf32>
    %extracted_slice_111 = tensor.extract_slice %586[0, 0, 0, 64] [1, 32, 40, 64] [1, 1, 1, 1] : tensor<1x32x40x128xf32> to tensor<1x32x40x64xf32>
    %611 = tensor.empty() : tensor<1x32x40x64xf32>
    %612 = linalg.negf ins(%extracted_slice_111 : tensor<1x32x40x64xf32>) outs(%611 : tensor<1x32x40x64xf32>) -> tensor<1x32x40x64xf32>
    %613 = tensor.empty() : tensor<1x32x40x128xf32>
    %inserted_slice_112 = tensor.insert_slice %612 into %613[0, 0, 0, 0] [1, 32, 40, 64] [1, 1, 1, 1] : tensor<1x32x40x64xf32> into tensor<1x32x40x128xf32>
    %inserted_slice_113 = tensor.insert_slice %extracted_slice_110 into %inserted_slice_112[0, 0, 0, 64] [1, 32, 40, 64] [1, 1, 1, 1] : tensor<1x32x40x64xf32> into tensor<1x32x40x128xf32>
    %614 = tosa.mul %inserted_slice_113, %603 {shift = 0 : i8} : (tensor<1x32x40x128xf32>, tensor<1x1x40x128xf32>) -> tensor<1x32x40x128xf32>
    %615 = tosa.add %610, %614 : (tensor<1x32x40x128xf32>, tensor<1x32x40x128xf32>) -> tensor<1x32x40x128xf32>
    %616 = "tosa.const"() <{value = dense<[0, 1, 3, 2]> : tensor<4xi32>}> : () -> tensor<4xi32>
    %617 = tosa.transpose %615, %616 : (tensor<1x32x40x128xf32>, tensor<4xi32>) -> tensor<1x32x128x40xf32>
    %618 = "tosa.const"() <{value = dense<0.000000e+00> : tensor<1x32x40x128xf32>}> : () -> tensor<1x32x40x128xf32>
    %619 = tosa.add %609, %618 : (tensor<1x32x40x128xf32>, tensor<1x32x40x128xf32>) -> tensor<1x32x40x128xf32>
    %620 = tosa.reshape %619 {new_shape = array<i64: 32, 40, 128>} : (tensor<1x32x40x128xf32>) -> tensor<32x40x128xf32>
    %621 = "tosa.const"() <{value = dense<0.000000e+00> : tensor<1x32x128x40xf32>}> : () -> tensor<1x32x128x40xf32>
    %622 = tosa.add %617, %621 : (tensor<1x32x128x40xf32>, tensor<1x32x128x40xf32>) -> tensor<1x32x128x40xf32>
    %623 = tosa.reshape %622 {new_shape = array<i64: 32, 128, 40>} : (tensor<1x32x128x40xf32>) -> tensor<32x128x40xf32>
    %624 = tosa.matmul %620, %623 : (tensor<32x40x128xf32>, tensor<32x128x40xf32>) -> tensor<32x40x40xf32>
    %625 = tosa.reshape %624 {new_shape = array<i64: 1, 32, 40, 40>} : (tensor<32x40x40xf32>) -> tensor<1x32x40x40xf32>
    %626 = "tosa.const"() <{value = dense<11.3137083> : tensor<1x32x40x40xf32>}> : () -> tensor<1x32x40x40xf32>
    %627 = tosa.reciprocal %626 : (tensor<1x32x40x40xf32>) -> tensor<1x32x40x40xf32>
    %628 = tosa.mul %625, %627 {shift = 0 : i8} : (tensor<1x32x40x40xf32>, tensor<1x32x40x40xf32>) -> tensor<1x32x40x40xf32>
    %629 = tosa.add %628, %29 : (tensor<1x32x40x40xf32>, tensor<1x1x40x40xf32>) -> tensor<1x32x40x40xf32>
    %630 = tosa.reduce_max %629 {axis = 3 : i32} : (tensor<1x32x40x40xf32>) -> tensor<1x32x40x1xf32>
    %631 = tosa.sub %629, %630 : (tensor<1x32x40x40xf32>, tensor<1x32x40x1xf32>) -> tensor<1x32x40x40xf32>
    %632 = tosa.exp %631 : (tensor<1x32x40x40xf32>) -> tensor<1x32x40x40xf32>
    %633 = tosa.reduce_sum %632 {axis = 3 : i32} : (tensor<1x32x40x40xf32>) -> tensor<1x32x40x1xf32>
    %634 = tosa.reciprocal %633 : (tensor<1x32x40x1xf32>) -> tensor<1x32x40x1xf32>
    %635 = tosa.mul %632, %634 {shift = 0 : i8} : (tensor<1x32x40x40xf32>, tensor<1x32x40x1xf32>) -> tensor<1x32x40x40xf32>
    %636 = "tosa.const"() <{value = dense<0.000000e+00> : tensor<1x32x40x40xf32>}> : () -> tensor<1x32x40x40xf32>
    %637 = tosa.add %635, %636 : (tensor<1x32x40x40xf32>, tensor<1x32x40x40xf32>) -> tensor<1x32x40x40xf32>
    %638 = tosa.reshape %637 {new_shape = array<i64: 32, 40, 40>} : (tensor<1x32x40x40xf32>) -> tensor<32x40x40xf32>
    %639 = "tosa.const"() <{value = dense<0.000000e+00> : tensor<1x32x40x128xf32>}> : () -> tensor<1x32x40x128xf32>
    %640 = tosa.add %589, %639 : (tensor<1x32x40x128xf32>, tensor<1x32x40x128xf32>) -> tensor<1x32x40x128xf32>
    %641 = tosa.reshape %640 {new_shape = array<i64: 32, 40, 128>} : (tensor<1x32x40x128xf32>) -> tensor<32x40x128xf32>
    %642 = tosa.matmul %638, %641 : (tensor<32x40x40xf32>, tensor<32x40x128xf32>) -> tensor<32x40x128xf32>
    %643 = tosa.reshape %642 {new_shape = array<i64: 1, 32, 40, 128>} : (tensor<32x40x128xf32>) -> tensor<1x32x40x128xf32>
    %644 = "tosa.const"() <{value = dense<[0, 2, 1, 3]> : tensor<4xi32>}> : () -> tensor<4xi32>
    %645 = tosa.transpose %643, %644 : (tensor<1x32x40x128xf32>, tensor<4xi32>) -> tensor<1x40x32x128xf32>
    %646 = tosa.identity %645 : (tensor<1x40x32x128xf32>) -> tensor<1x40x32x128xf32>
    %647 = tosa.reshape %646 {new_shape = array<i64: 1, 40, 4096>} : (tensor<1x40x32x128xf32>) -> tensor<1x40x4096xf32>
    %648 = "tosa.const"() <{value = dense<[1, 0]> : tensor<2xi32>}> : () -> tensor<2xi32>
    %649 = tosa.transpose %arg52, %648 : (tensor<4096x4096xf32>, tensor<2xi32>) -> tensor<4096x4096xf32>
    %650 = tosa.reshape %647 {new_shape = array<i64: 40, 4096>} : (tensor<1x40x4096xf32>) -> tensor<40x4096xf32>
    %cst_114 = arith.constant dense<0.000000e+00> : tensor<40x4096xf32>
    %651 = linalg.matmul {cast = #linalg.type_fn<cast_signed>} ins(%650, %649 : tensor<40x4096xf32>, tensor<4096x4096xf32>) outs(%cst_114 : tensor<40x4096xf32>) -> tensor<40x4096xf32>
    %652 = tosa.reshape %651 {new_shape = array<i64: 1, 40, 4096>} : (tensor<40x4096xf32>) -> tensor<1x40x4096xf32>
    %653 = tosa.add %553, %652 : (tensor<1x40x4096xf32>, tensor<1x40x4096xf32>) -> tensor<1x40x4096xf32>
    %654 = tensor.empty() : tensor<1x40x4096xf32>
    %c2_i32_115 = arith.constant 2 : i32
    %655 = linalg.generic {indexing_maps = [#map5, #map5], iterator_types = ["parallel", "parallel", "parallel"]} ins(%653 : tensor<1x40x4096xf32>) outs(%654 : tensor<1x40x4096xf32>) {
    ^bb0(%in: f32, %out: f32):
      %4239 = math.fpowi %in, %c2_i32_115 : f32, i32
      linalg.yield %4239 : f32
    } -> tensor<1x40x4096xf32>
    %656 = tosa.reduce_sum %655 {axis = 2 : i32} : (tensor<1x40x4096xf32>) -> tensor<1x40x1xf32>
    %657 = "tosa.const"() <{value = dense<4.096000e+03> : tensor<1xf32>}> : () -> tensor<1xf32>
    %658 = tosa.reciprocal %657 : (tensor<1xf32>) -> tensor<1xf32>
    %659 = tosa.mul %658, %656 {shift = 0 : i8} : (tensor<1xf32>, tensor<1x40x1xf32>) -> tensor<1x40x1xf32>
    %660 = "tosa.const"() <{value = dense<9.99999997E-7> : tensor<1x40x1xf32>}> : () -> tensor<1x40x1xf32>
    %661 = tosa.add %659, %660 : (tensor<1x40x1xf32>, tensor<1x40x1xf32>) -> tensor<1x40x1xf32>
    %662 = tosa.rsqrt %661 : (tensor<1x40x1xf32>) -> tensor<1x40x1xf32>
    %663 = tosa.mul %653, %662 {shift = 0 : i8} : (tensor<1x40x4096xf32>, tensor<1x40x1xf32>) -> tensor<1x40x4096xf32>
    %664 = tosa.reshape %arg53 {new_shape = array<i64: 1, 1, 4096>} : (tensor<4096xf32>) -> tensor<1x1x4096xf32>
    %665 = tosa.mul %664, %663 {shift = 0 : i8} : (tensor<1x1x4096xf32>, tensor<1x40x4096xf32>) -> tensor<1x40x4096xf32>
    %666 = "tosa.const"() <{value = dense<[1, 0]> : tensor<2xi32>}> : () -> tensor<2xi32>
    %667 = tosa.transpose %arg54, %666 : (tensor<11008x4096xf32>, tensor<2xi32>) -> tensor<4096x11008xf32>
    %668 = tosa.reshape %665 {new_shape = array<i64: 40, 4096>} : (tensor<1x40x4096xf32>) -> tensor<40x4096xf32>
    %cst_116 = arith.constant dense<0.000000e+00> : tensor<40x11008xf32>
    %669 = linalg.matmul {cast = #linalg.type_fn<cast_signed>} ins(%668, %667 : tensor<40x4096xf32>, tensor<4096x11008xf32>) outs(%cst_116 : tensor<40x11008xf32>) -> tensor<40x11008xf32>
    %670 = tosa.reshape %669 {new_shape = array<i64: 1, 40, 11008>} : (tensor<40x11008xf32>) -> tensor<1x40x11008xf32>
    %671 = tosa.sigmoid %670 : (tensor<1x40x11008xf32>) -> tensor<1x40x11008xf32>
    %672 = tosa.mul %670, %671 {shift = 0 : i8} : (tensor<1x40x11008xf32>, tensor<1x40x11008xf32>) -> tensor<1x40x11008xf32>
    %673 = "tosa.const"() <{value = dense<[1, 0]> : tensor<2xi32>}> : () -> tensor<2xi32>
    %674 = tosa.transpose %arg55, %673 : (tensor<11008x4096xf32>, tensor<2xi32>) -> tensor<4096x11008xf32>
    %675 = tosa.reshape %665 {new_shape = array<i64: 40, 4096>} : (tensor<1x40x4096xf32>) -> tensor<40x4096xf32>
    %cst_117 = arith.constant dense<0.000000e+00> : tensor<40x11008xf32>
    %676 = linalg.matmul {cast = #linalg.type_fn<cast_signed>} ins(%675, %674 : tensor<40x4096xf32>, tensor<4096x11008xf32>) outs(%cst_117 : tensor<40x11008xf32>) -> tensor<40x11008xf32>
    %677 = tosa.reshape %676 {new_shape = array<i64: 1, 40, 11008>} : (tensor<40x11008xf32>) -> tensor<1x40x11008xf32>
    %678 = tosa.mul %672, %677 {shift = 0 : i8} : (tensor<1x40x11008xf32>, tensor<1x40x11008xf32>) -> tensor<1x40x11008xf32>
    %679 = "tosa.const"() <{value = dense<[1, 0]> : tensor<2xi32>}> : () -> tensor<2xi32>
    %680 = tosa.transpose %arg56, %679 : (tensor<4096x11008xf32>, tensor<2xi32>) -> tensor<11008x4096xf32>
    %681 = tosa.reshape %678 {new_shape = array<i64: 40, 11008>} : (tensor<1x40x11008xf32>) -> tensor<40x11008xf32>
    %cst_118 = arith.constant dense<0.000000e+00> : tensor<40x4096xf32>
    %682 = linalg.matmul {cast = #linalg.type_fn<cast_signed>} ins(%681, %680 : tensor<40x11008xf32>, tensor<11008x4096xf32>) outs(%cst_118 : tensor<40x4096xf32>) -> tensor<40x4096xf32>
    %683 = tosa.reshape %682 {new_shape = array<i64: 1, 40, 4096>} : (tensor<40x4096xf32>) -> tensor<1x40x4096xf32>
    %684 = tosa.add %653, %683 : (tensor<1x40x4096xf32>, tensor<1x40x4096xf32>) -> tensor<1x40x4096xf32>
    %685 = tensor.empty() : tensor<1x40x4096xf32>
    %c2_i32_119 = arith.constant 2 : i32
    %686 = linalg.generic {indexing_maps = [#map5, #map5], iterator_types = ["parallel", "parallel", "parallel"]} ins(%684 : tensor<1x40x4096xf32>) outs(%685 : tensor<1x40x4096xf32>) {
    ^bb0(%in: f32, %out: f32):
      %4239 = math.fpowi %in, %c2_i32_119 : f32, i32
      linalg.yield %4239 : f32
    } -> tensor<1x40x4096xf32>
    %687 = tosa.reduce_sum %686 {axis = 2 : i32} : (tensor<1x40x4096xf32>) -> tensor<1x40x1xf32>
    %688 = "tosa.const"() <{value = dense<4.096000e+03> : tensor<1xf32>}> : () -> tensor<1xf32>
    %689 = tosa.reciprocal %688 : (tensor<1xf32>) -> tensor<1xf32>
    %690 = tosa.mul %689, %687 {shift = 0 : i8} : (tensor<1xf32>, tensor<1x40x1xf32>) -> tensor<1x40x1xf32>
    %691 = "tosa.const"() <{value = dense<9.99999997E-7> : tensor<1x40x1xf32>}> : () -> tensor<1x40x1xf32>
    %692 = tosa.add %690, %691 : (tensor<1x40x1xf32>, tensor<1x40x1xf32>) -> tensor<1x40x1xf32>
    %693 = tosa.rsqrt %692 : (tensor<1x40x1xf32>) -> tensor<1x40x1xf32>
    %694 = tosa.mul %684, %693 {shift = 0 : i8} : (tensor<1x40x4096xf32>, tensor<1x40x1xf32>) -> tensor<1x40x4096xf32>
    %695 = tosa.reshape %arg57 {new_shape = array<i64: 1, 1, 4096>} : (tensor<4096xf32>) -> tensor<1x1x4096xf32>
    %696 = tosa.mul %695, %694 {shift = 0 : i8} : (tensor<1x1x4096xf32>, tensor<1x40x4096xf32>) -> tensor<1x40x4096xf32>
    %697 = "tosa.const"() <{value = dense<[1, 0]> : tensor<2xi32>}> : () -> tensor<2xi32>
    %698 = tosa.transpose %arg58, %697 : (tensor<4096x4096xf32>, tensor<2xi32>) -> tensor<4096x4096xf32>
    %699 = tosa.reshape %696 {new_shape = array<i64: 40, 4096>} : (tensor<1x40x4096xf32>) -> tensor<40x4096xf32>
    %cst_120 = arith.constant dense<0.000000e+00> : tensor<40x4096xf32>
    %700 = linalg.matmul {cast = #linalg.type_fn<cast_signed>} ins(%699, %698 : tensor<40x4096xf32>, tensor<4096x4096xf32>) outs(%cst_120 : tensor<40x4096xf32>) -> tensor<40x4096xf32>
    %701 = tosa.reshape %700 {new_shape = array<i64: 1, 40, 4096>} : (tensor<40x4096xf32>) -> tensor<1x40x4096xf32>
    %702 = "tosa.const"() <{value = dense<[1, 0]> : tensor<2xi32>}> : () -> tensor<2xi32>
    %703 = tosa.transpose %arg59, %702 : (tensor<4096x4096xf32>, tensor<2xi32>) -> tensor<4096x4096xf32>
    %704 = tosa.reshape %696 {new_shape = array<i64: 40, 4096>} : (tensor<1x40x4096xf32>) -> tensor<40x4096xf32>
    %cst_121 = arith.constant dense<0.000000e+00> : tensor<40x4096xf32>
    %705 = linalg.matmul {cast = #linalg.type_fn<cast_signed>} ins(%704, %703 : tensor<40x4096xf32>, tensor<4096x4096xf32>) outs(%cst_121 : tensor<40x4096xf32>) -> tensor<40x4096xf32>
    %706 = tosa.reshape %705 {new_shape = array<i64: 1, 40, 4096>} : (tensor<40x4096xf32>) -> tensor<1x40x4096xf32>
    %707 = "tosa.const"() <{value = dense<[1, 0]> : tensor<2xi32>}> : () -> tensor<2xi32>
    %708 = tosa.transpose %arg60, %707 : (tensor<4096x4096xf32>, tensor<2xi32>) -> tensor<4096x4096xf32>
    %709 = tosa.reshape %696 {new_shape = array<i64: 40, 4096>} : (tensor<1x40x4096xf32>) -> tensor<40x4096xf32>
    %cst_122 = arith.constant dense<0.000000e+00> : tensor<40x4096xf32>
    %710 = linalg.matmul {cast = #linalg.type_fn<cast_signed>} ins(%709, %708 : tensor<40x4096xf32>, tensor<4096x4096xf32>) outs(%cst_122 : tensor<40x4096xf32>) -> tensor<40x4096xf32>
    %711 = tosa.reshape %710 {new_shape = array<i64: 1, 40, 4096>} : (tensor<40x4096xf32>) -> tensor<1x40x4096xf32>
    %712 = tosa.reshape %701 {new_shape = array<i64: 1, 40, 32, 128>} : (tensor<1x40x4096xf32>) -> tensor<1x40x32x128xf32>
    %713 = "tosa.const"() <{value = dense<[0, 2, 1, 3]> : tensor<4xi32>}> : () -> tensor<4xi32>
    %714 = tosa.transpose %712, %713 : (tensor<1x40x32x128xf32>, tensor<4xi32>) -> tensor<1x32x40x128xf32>
    %715 = tosa.reshape %706 {new_shape = array<i64: 1, 40, 32, 128>} : (tensor<1x40x4096xf32>) -> tensor<1x40x32x128xf32>
    %716 = "tosa.const"() <{value = dense<[0, 2, 1, 3]> : tensor<4xi32>}> : () -> tensor<4xi32>
    %717 = tosa.transpose %715, %716 : (tensor<1x40x32x128xf32>, tensor<4xi32>) -> tensor<1x32x40x128xf32>
    %718 = tosa.reshape %711 {new_shape = array<i64: 1, 40, 32, 128>} : (tensor<1x40x4096xf32>) -> tensor<1x40x32x128xf32>
    %719 = "tosa.const"() <{value = dense<[0, 2, 1, 3]> : tensor<4xi32>}> : () -> tensor<4xi32>
    %720 = tosa.transpose %718, %719 : (tensor<1x40x32x128xf32>, tensor<4xi32>) -> tensor<1x32x40x128xf32>
    %extracted_slice_123 = tensor.extract_slice %arg61[0, 0, 0, 0] [1, 1, 2048, 128] [1, 1, 1, 1] : tensor<1x1x2048x128xf32> to tensor<1x1x2048x128xf32>
    %extracted_slice_124 = tensor.extract_slice %extracted_slice_123[0, 0, 0, 0] [1, 1, 2048, 128] [1, 1, 1, 1] : tensor<1x1x2048x128xf32> to tensor<1x1x2048x128xf32>
    %extracted_slice_125 = tensor.extract_slice %extracted_slice_124[0, 0, 0, 0] [1, 1, 40, 128] [1, 1, 1, 1] : tensor<1x1x2048x128xf32> to tensor<1x1x40x128xf32>
    %extracted_slice_126 = tensor.extract_slice %arg62[0, 0, 0, 0] [1, 1, 2048, 128] [1, 1, 1, 1] : tensor<1x1x2048x128xf32> to tensor<1x1x2048x128xf32>
    %extracted_slice_127 = tensor.extract_slice %extracted_slice_126[0, 0, 0, 0] [1, 1, 2048, 128] [1, 1, 1, 1] : tensor<1x1x2048x128xf32> to tensor<1x1x2048x128xf32>
    %extracted_slice_128 = tensor.extract_slice %extracted_slice_127[0, 0, 0, 0] [1, 1, 40, 128] [1, 1, 1, 1] : tensor<1x1x2048x128xf32> to tensor<1x1x40x128xf32>
    %721 = tensor.empty() : tensor<1x40x128xf32>
    %722 = linalg.generic {indexing_maps = [#map6, #map5], iterator_types = ["parallel", "parallel", "parallel"]} ins(%extracted_slice_125 : tensor<1x1x40x128xf32>) outs(%721 : tensor<1x40x128xf32>) {
    ^bb0(%in: f32, %out: f32):
      linalg.yield %in : f32
    } -> tensor<1x40x128xf32>
    %723 = tensor.empty() : tensor<40x128xf32>
    %724 = linalg.generic {indexing_maps = [#map7, #map3], iterator_types = ["parallel", "parallel"]} ins(%722 : tensor<1x40x128xf32>) outs(%723 : tensor<40x128xf32>) {
    ^bb0(%in: f32, %out: f32):
      linalg.yield %in : f32
    } -> tensor<40x128xf32>
    %725 = tensor.empty() : tensor<1x40x128xf32>
    %726 = linalg.generic {indexing_maps = [#map6, #map5], iterator_types = ["parallel", "parallel", "parallel"]} ins(%extracted_slice_128 : tensor<1x1x40x128xf32>) outs(%725 : tensor<1x40x128xf32>) {
    ^bb0(%in: f32, %out: f32):
      linalg.yield %in : f32
    } -> tensor<1x40x128xf32>
    %727 = tensor.empty() : tensor<40x128xf32>
    %728 = linalg.generic {indexing_maps = [#map7, #map3], iterator_types = ["parallel", "parallel"]} ins(%726 : tensor<1x40x128xf32>) outs(%727 : tensor<40x128xf32>) {
    ^bb0(%in: f32, %out: f32):
      linalg.yield %in : f32
    } -> tensor<40x128xf32>
    %729 = tensor.empty() : tensor<1x40x128xf32>
    %730 = linalg.generic {indexing_maps = [#map2, #map5], iterator_types = ["parallel", "parallel", "parallel"]} ins(%2 : tensor<1x40xi64>) outs(%729 : tensor<1x40x128xf32>) {
    ^bb0(%in: i64, %out: f32):
      %4239 = arith.index_cast %in : i64 to index
      %4240 = linalg.index 2 : index
      %extracted = tensor.extract %724[%4239, %4240] : tensor<40x128xf32>
      linalg.yield %extracted : f32
    } -> tensor<1x40x128xf32>
    %731 = tosa.reshape %730 {new_shape = array<i64: 1, 1, 40, 128>} : (tensor<1x40x128xf32>) -> tensor<1x1x40x128xf32>
    %732 = tensor.empty() : tensor<1x40x128xf32>
    %733 = linalg.generic {indexing_maps = [#map2, #map5], iterator_types = ["parallel", "parallel", "parallel"]} ins(%2 : tensor<1x40xi64>) outs(%732 : tensor<1x40x128xf32>) {
    ^bb0(%in: i64, %out: f32):
      %4239 = arith.index_cast %in : i64 to index
      %4240 = linalg.index 2 : index
      %extracted = tensor.extract %728[%4239, %4240] : tensor<40x128xf32>
      linalg.yield %extracted : f32
    } -> tensor<1x40x128xf32>
    %734 = tosa.reshape %733 {new_shape = array<i64: 1, 1, 40, 128>} : (tensor<1x40x128xf32>) -> tensor<1x1x40x128xf32>
    %735 = tosa.mul %714, %731 {shift = 0 : i8} : (tensor<1x32x40x128xf32>, tensor<1x1x40x128xf32>) -> tensor<1x32x40x128xf32>
    %extracted_slice_129 = tensor.extract_slice %714[0, 0, 0, 0] [1, 32, 40, 64] [1, 1, 1, 1] : tensor<1x32x40x128xf32> to tensor<1x32x40x64xf32>
    %extracted_slice_130 = tensor.extract_slice %714[0, 0, 0, 64] [1, 32, 40, 64] [1, 1, 1, 1] : tensor<1x32x40x128xf32> to tensor<1x32x40x64xf32>
    %736 = tensor.empty() : tensor<1x32x40x64xf32>
    %737 = linalg.negf ins(%extracted_slice_130 : tensor<1x32x40x64xf32>) outs(%736 : tensor<1x32x40x64xf32>) -> tensor<1x32x40x64xf32>
    %738 = tensor.empty() : tensor<1x32x40x128xf32>
    %inserted_slice_131 = tensor.insert_slice %737 into %738[0, 0, 0, 0] [1, 32, 40, 64] [1, 1, 1, 1] : tensor<1x32x40x64xf32> into tensor<1x32x40x128xf32>
    %inserted_slice_132 = tensor.insert_slice %extracted_slice_129 into %inserted_slice_131[0, 0, 0, 64] [1, 32, 40, 64] [1, 1, 1, 1] : tensor<1x32x40x64xf32> into tensor<1x32x40x128xf32>
    %739 = tosa.mul %inserted_slice_132, %734 {shift = 0 : i8} : (tensor<1x32x40x128xf32>, tensor<1x1x40x128xf32>) -> tensor<1x32x40x128xf32>
    %740 = tosa.add %735, %739 : (tensor<1x32x40x128xf32>, tensor<1x32x40x128xf32>) -> tensor<1x32x40x128xf32>
    %741 = tosa.mul %717, %731 {shift = 0 : i8} : (tensor<1x32x40x128xf32>, tensor<1x1x40x128xf32>) -> tensor<1x32x40x128xf32>
    %extracted_slice_133 = tensor.extract_slice %717[0, 0, 0, 0] [1, 32, 40, 64] [1, 1, 1, 1] : tensor<1x32x40x128xf32> to tensor<1x32x40x64xf32>
    %extracted_slice_134 = tensor.extract_slice %717[0, 0, 0, 64] [1, 32, 40, 64] [1, 1, 1, 1] : tensor<1x32x40x128xf32> to tensor<1x32x40x64xf32>
    %742 = tensor.empty() : tensor<1x32x40x64xf32>
    %743 = linalg.negf ins(%extracted_slice_134 : tensor<1x32x40x64xf32>) outs(%742 : tensor<1x32x40x64xf32>) -> tensor<1x32x40x64xf32>
    %744 = tensor.empty() : tensor<1x32x40x128xf32>
    %inserted_slice_135 = tensor.insert_slice %743 into %744[0, 0, 0, 0] [1, 32, 40, 64] [1, 1, 1, 1] : tensor<1x32x40x64xf32> into tensor<1x32x40x128xf32>
    %inserted_slice_136 = tensor.insert_slice %extracted_slice_133 into %inserted_slice_135[0, 0, 0, 64] [1, 32, 40, 64] [1, 1, 1, 1] : tensor<1x32x40x64xf32> into tensor<1x32x40x128xf32>
    %745 = tosa.mul %inserted_slice_136, %734 {shift = 0 : i8} : (tensor<1x32x40x128xf32>, tensor<1x1x40x128xf32>) -> tensor<1x32x40x128xf32>
    %746 = tosa.add %741, %745 : (tensor<1x32x40x128xf32>, tensor<1x32x40x128xf32>) -> tensor<1x32x40x128xf32>
    %747 = "tosa.const"() <{value = dense<[0, 1, 3, 2]> : tensor<4xi32>}> : () -> tensor<4xi32>
    %748 = tosa.transpose %746, %747 : (tensor<1x32x40x128xf32>, tensor<4xi32>) -> tensor<1x32x128x40xf32>
    %749 = "tosa.const"() <{value = dense<0.000000e+00> : tensor<1x32x40x128xf32>}> : () -> tensor<1x32x40x128xf32>
    %750 = tosa.add %740, %749 : (tensor<1x32x40x128xf32>, tensor<1x32x40x128xf32>) -> tensor<1x32x40x128xf32>
    %751 = tosa.reshape %750 {new_shape = array<i64: 32, 40, 128>} : (tensor<1x32x40x128xf32>) -> tensor<32x40x128xf32>
    %752 = "tosa.const"() <{value = dense<0.000000e+00> : tensor<1x32x128x40xf32>}> : () -> tensor<1x32x128x40xf32>
    %753 = tosa.add %748, %752 : (tensor<1x32x128x40xf32>, tensor<1x32x128x40xf32>) -> tensor<1x32x128x40xf32>
    %754 = tosa.reshape %753 {new_shape = array<i64: 32, 128, 40>} : (tensor<1x32x128x40xf32>) -> tensor<32x128x40xf32>
    %755 = tosa.matmul %751, %754 : (tensor<32x40x128xf32>, tensor<32x128x40xf32>) -> tensor<32x40x40xf32>
    %756 = tosa.reshape %755 {new_shape = array<i64: 1, 32, 40, 40>} : (tensor<32x40x40xf32>) -> tensor<1x32x40x40xf32>
    %757 = "tosa.const"() <{value = dense<11.3137083> : tensor<1x32x40x40xf32>}> : () -> tensor<1x32x40x40xf32>
    %758 = tosa.reciprocal %757 : (tensor<1x32x40x40xf32>) -> tensor<1x32x40x40xf32>
    %759 = tosa.mul %756, %758 {shift = 0 : i8} : (tensor<1x32x40x40xf32>, tensor<1x32x40x40xf32>) -> tensor<1x32x40x40xf32>
    %760 = tosa.add %759, %29 : (tensor<1x32x40x40xf32>, tensor<1x1x40x40xf32>) -> tensor<1x32x40x40xf32>
    %761 = tosa.reduce_max %760 {axis = 3 : i32} : (tensor<1x32x40x40xf32>) -> tensor<1x32x40x1xf32>
    %762 = tosa.sub %760, %761 : (tensor<1x32x40x40xf32>, tensor<1x32x40x1xf32>) -> tensor<1x32x40x40xf32>
    %763 = tosa.exp %762 : (tensor<1x32x40x40xf32>) -> tensor<1x32x40x40xf32>
    %764 = tosa.reduce_sum %763 {axis = 3 : i32} : (tensor<1x32x40x40xf32>) -> tensor<1x32x40x1xf32>
    %765 = tosa.reciprocal %764 : (tensor<1x32x40x1xf32>) -> tensor<1x32x40x1xf32>
    %766 = tosa.mul %763, %765 {shift = 0 : i8} : (tensor<1x32x40x40xf32>, tensor<1x32x40x1xf32>) -> tensor<1x32x40x40xf32>
    %767 = "tosa.const"() <{value = dense<0.000000e+00> : tensor<1x32x40x40xf32>}> : () -> tensor<1x32x40x40xf32>
    %768 = tosa.add %766, %767 : (tensor<1x32x40x40xf32>, tensor<1x32x40x40xf32>) -> tensor<1x32x40x40xf32>
    %769 = tosa.reshape %768 {new_shape = array<i64: 32, 40, 40>} : (tensor<1x32x40x40xf32>) -> tensor<32x40x40xf32>
    %770 = "tosa.const"() <{value = dense<0.000000e+00> : tensor<1x32x40x128xf32>}> : () -> tensor<1x32x40x128xf32>
    %771 = tosa.add %720, %770 : (tensor<1x32x40x128xf32>, tensor<1x32x40x128xf32>) -> tensor<1x32x40x128xf32>
    %772 = tosa.reshape %771 {new_shape = array<i64: 32, 40, 128>} : (tensor<1x32x40x128xf32>) -> tensor<32x40x128xf32>
    %773 = tosa.matmul %769, %772 : (tensor<32x40x40xf32>, tensor<32x40x128xf32>) -> tensor<32x40x128xf32>
    %774 = tosa.reshape %773 {new_shape = array<i64: 1, 32, 40, 128>} : (tensor<32x40x128xf32>) -> tensor<1x32x40x128xf32>
    %775 = "tosa.const"() <{value = dense<[0, 2, 1, 3]> : tensor<4xi32>}> : () -> tensor<4xi32>
    %776 = tosa.transpose %774, %775 : (tensor<1x32x40x128xf32>, tensor<4xi32>) -> tensor<1x40x32x128xf32>
    %777 = tosa.identity %776 : (tensor<1x40x32x128xf32>) -> tensor<1x40x32x128xf32>
    %778 = tosa.reshape %777 {new_shape = array<i64: 1, 40, 4096>} : (tensor<1x40x32x128xf32>) -> tensor<1x40x4096xf32>
    %779 = "tosa.const"() <{value = dense<[1, 0]> : tensor<2xi32>}> : () -> tensor<2xi32>
    %780 = tosa.transpose %arg63, %779 : (tensor<4096x4096xf32>, tensor<2xi32>) -> tensor<4096x4096xf32>
    %781 = tosa.reshape %778 {new_shape = array<i64: 40, 4096>} : (tensor<1x40x4096xf32>) -> tensor<40x4096xf32>
    %cst_137 = arith.constant dense<0.000000e+00> : tensor<40x4096xf32>
    %782 = linalg.matmul {cast = #linalg.type_fn<cast_signed>} ins(%781, %780 : tensor<40x4096xf32>, tensor<4096x4096xf32>) outs(%cst_137 : tensor<40x4096xf32>) -> tensor<40x4096xf32>
    %783 = tosa.reshape %782 {new_shape = array<i64: 1, 40, 4096>} : (tensor<40x4096xf32>) -> tensor<1x40x4096xf32>
    %784 = tosa.add %684, %783 : (tensor<1x40x4096xf32>, tensor<1x40x4096xf32>) -> tensor<1x40x4096xf32>
    %785 = tensor.empty() : tensor<1x40x4096xf32>
    %c2_i32_138 = arith.constant 2 : i32
    %786 = linalg.generic {indexing_maps = [#map5, #map5], iterator_types = ["parallel", "parallel", "parallel"]} ins(%784 : tensor<1x40x4096xf32>) outs(%785 : tensor<1x40x4096xf32>) {
    ^bb0(%in: f32, %out: f32):
      %4239 = math.fpowi %in, %c2_i32_138 : f32, i32
      linalg.yield %4239 : f32
    } -> tensor<1x40x4096xf32>
    %787 = tosa.reduce_sum %786 {axis = 2 : i32} : (tensor<1x40x4096xf32>) -> tensor<1x40x1xf32>
    %788 = "tosa.const"() <{value = dense<4.096000e+03> : tensor<1xf32>}> : () -> tensor<1xf32>
    %789 = tosa.reciprocal %788 : (tensor<1xf32>) -> tensor<1xf32>
    %790 = tosa.mul %789, %787 {shift = 0 : i8} : (tensor<1xf32>, tensor<1x40x1xf32>) -> tensor<1x40x1xf32>
    %791 = "tosa.const"() <{value = dense<9.99999997E-7> : tensor<1x40x1xf32>}> : () -> tensor<1x40x1xf32>
    %792 = tosa.add %790, %791 : (tensor<1x40x1xf32>, tensor<1x40x1xf32>) -> tensor<1x40x1xf32>
    %793 = tosa.rsqrt %792 : (tensor<1x40x1xf32>) -> tensor<1x40x1xf32>
    %794 = tosa.mul %784, %793 {shift = 0 : i8} : (tensor<1x40x4096xf32>, tensor<1x40x1xf32>) -> tensor<1x40x4096xf32>
    %795 = tosa.reshape %arg64 {new_shape = array<i64: 1, 1, 4096>} : (tensor<4096xf32>) -> tensor<1x1x4096xf32>
    %796 = tosa.mul %795, %794 {shift = 0 : i8} : (tensor<1x1x4096xf32>, tensor<1x40x4096xf32>) -> tensor<1x40x4096xf32>
    %797 = "tosa.const"() <{value = dense<[1, 0]> : tensor<2xi32>}> : () -> tensor<2xi32>
    %798 = tosa.transpose %arg65, %797 : (tensor<11008x4096xf32>, tensor<2xi32>) -> tensor<4096x11008xf32>
    %799 = tosa.reshape %796 {new_shape = array<i64: 40, 4096>} : (tensor<1x40x4096xf32>) -> tensor<40x4096xf32>
    %cst_139 = arith.constant dense<0.000000e+00> : tensor<40x11008xf32>
    %800 = linalg.matmul {cast = #linalg.type_fn<cast_signed>} ins(%799, %798 : tensor<40x4096xf32>, tensor<4096x11008xf32>) outs(%cst_139 : tensor<40x11008xf32>) -> tensor<40x11008xf32>
    %801 = tosa.reshape %800 {new_shape = array<i64: 1, 40, 11008>} : (tensor<40x11008xf32>) -> tensor<1x40x11008xf32>
    %802 = tosa.sigmoid %801 : (tensor<1x40x11008xf32>) -> tensor<1x40x11008xf32>
    %803 = tosa.mul %801, %802 {shift = 0 : i8} : (tensor<1x40x11008xf32>, tensor<1x40x11008xf32>) -> tensor<1x40x11008xf32>
    %804 = "tosa.const"() <{value = dense<[1, 0]> : tensor<2xi32>}> : () -> tensor<2xi32>
    %805 = tosa.transpose %arg66, %804 : (tensor<11008x4096xf32>, tensor<2xi32>) -> tensor<4096x11008xf32>
    %806 = tosa.reshape %796 {new_shape = array<i64: 40, 4096>} : (tensor<1x40x4096xf32>) -> tensor<40x4096xf32>
    %cst_140 = arith.constant dense<0.000000e+00> : tensor<40x11008xf32>
    %807 = linalg.matmul {cast = #linalg.type_fn<cast_signed>} ins(%806, %805 : tensor<40x4096xf32>, tensor<4096x11008xf32>) outs(%cst_140 : tensor<40x11008xf32>) -> tensor<40x11008xf32>
    %808 = tosa.reshape %807 {new_shape = array<i64: 1, 40, 11008>} : (tensor<40x11008xf32>) -> tensor<1x40x11008xf32>
    %809 = tosa.mul %803, %808 {shift = 0 : i8} : (tensor<1x40x11008xf32>, tensor<1x40x11008xf32>) -> tensor<1x40x11008xf32>
    %810 = "tosa.const"() <{value = dense<[1, 0]> : tensor<2xi32>}> : () -> tensor<2xi32>
    %811 = tosa.transpose %arg67, %810 : (tensor<4096x11008xf32>, tensor<2xi32>) -> tensor<11008x4096xf32>
    %812 = tosa.reshape %809 {new_shape = array<i64: 40, 11008>} : (tensor<1x40x11008xf32>) -> tensor<40x11008xf32>
    %cst_141 = arith.constant dense<0.000000e+00> : tensor<40x4096xf32>
    %813 = linalg.matmul {cast = #linalg.type_fn<cast_signed>} ins(%812, %811 : tensor<40x11008xf32>, tensor<11008x4096xf32>) outs(%cst_141 : tensor<40x4096xf32>) -> tensor<40x4096xf32>
    %814 = tosa.reshape %813 {new_shape = array<i64: 1, 40, 4096>} : (tensor<40x4096xf32>) -> tensor<1x40x4096xf32>
    %815 = tosa.add %784, %814 : (tensor<1x40x4096xf32>, tensor<1x40x4096xf32>) -> tensor<1x40x4096xf32>
    %816 = tensor.empty() : tensor<1x40x4096xf32>
    %c2_i32_142 = arith.constant 2 : i32
    %817 = linalg.generic {indexing_maps = [#map5, #map5], iterator_types = ["parallel", "parallel", "parallel"]} ins(%815 : tensor<1x40x4096xf32>) outs(%816 : tensor<1x40x4096xf32>) {
    ^bb0(%in: f32, %out: f32):
      %4239 = math.fpowi %in, %c2_i32_142 : f32, i32
      linalg.yield %4239 : f32
    } -> tensor<1x40x4096xf32>
    %818 = tosa.reduce_sum %817 {axis = 2 : i32} : (tensor<1x40x4096xf32>) -> tensor<1x40x1xf32>
    %819 = "tosa.const"() <{value = dense<4.096000e+03> : tensor<1xf32>}> : () -> tensor<1xf32>
    %820 = tosa.reciprocal %819 : (tensor<1xf32>) -> tensor<1xf32>
    %821 = tosa.mul %820, %818 {shift = 0 : i8} : (tensor<1xf32>, tensor<1x40x1xf32>) -> tensor<1x40x1xf32>
    %822 = "tosa.const"() <{value = dense<9.99999997E-7> : tensor<1x40x1xf32>}> : () -> tensor<1x40x1xf32>
    %823 = tosa.add %821, %822 : (tensor<1x40x1xf32>, tensor<1x40x1xf32>) -> tensor<1x40x1xf32>
    %824 = tosa.rsqrt %823 : (tensor<1x40x1xf32>) -> tensor<1x40x1xf32>
    %825 = tosa.mul %815, %824 {shift = 0 : i8} : (tensor<1x40x4096xf32>, tensor<1x40x1xf32>) -> tensor<1x40x4096xf32>
    %826 = tosa.reshape %arg68 {new_shape = array<i64: 1, 1, 4096>} : (tensor<4096xf32>) -> tensor<1x1x4096xf32>
    %827 = tosa.mul %826, %825 {shift = 0 : i8} : (tensor<1x1x4096xf32>, tensor<1x40x4096xf32>) -> tensor<1x40x4096xf32>
    %828 = "tosa.const"() <{value = dense<[1, 0]> : tensor<2xi32>}> : () -> tensor<2xi32>
    %829 = tosa.transpose %arg69, %828 : (tensor<4096x4096xf32>, tensor<2xi32>) -> tensor<4096x4096xf32>
    %830 = tosa.reshape %827 {new_shape = array<i64: 40, 4096>} : (tensor<1x40x4096xf32>) -> tensor<40x4096xf32>
    %cst_143 = arith.constant dense<0.000000e+00> : tensor<40x4096xf32>
    %831 = linalg.matmul {cast = #linalg.type_fn<cast_signed>} ins(%830, %829 : tensor<40x4096xf32>, tensor<4096x4096xf32>) outs(%cst_143 : tensor<40x4096xf32>) -> tensor<40x4096xf32>
    %832 = tosa.reshape %831 {new_shape = array<i64: 1, 40, 4096>} : (tensor<40x4096xf32>) -> tensor<1x40x4096xf32>
    %833 = "tosa.const"() <{value = dense<[1, 0]> : tensor<2xi32>}> : () -> tensor<2xi32>
    %834 = tosa.transpose %arg70, %833 : (tensor<4096x4096xf32>, tensor<2xi32>) -> tensor<4096x4096xf32>
    %835 = tosa.reshape %827 {new_shape = array<i64: 40, 4096>} : (tensor<1x40x4096xf32>) -> tensor<40x4096xf32>
    %cst_144 = arith.constant dense<0.000000e+00> : tensor<40x4096xf32>
    %836 = linalg.matmul {cast = #linalg.type_fn<cast_signed>} ins(%835, %834 : tensor<40x4096xf32>, tensor<4096x4096xf32>) outs(%cst_144 : tensor<40x4096xf32>) -> tensor<40x4096xf32>
    %837 = tosa.reshape %836 {new_shape = array<i64: 1, 40, 4096>} : (tensor<40x4096xf32>) -> tensor<1x40x4096xf32>
    %838 = "tosa.const"() <{value = dense<[1, 0]> : tensor<2xi32>}> : () -> tensor<2xi32>
    %839 = tosa.transpose %arg71, %838 : (tensor<4096x4096xf32>, tensor<2xi32>) -> tensor<4096x4096xf32>
    %840 = tosa.reshape %827 {new_shape = array<i64: 40, 4096>} : (tensor<1x40x4096xf32>) -> tensor<40x4096xf32>
    %cst_145 = arith.constant dense<0.000000e+00> : tensor<40x4096xf32>
    %841 = linalg.matmul {cast = #linalg.type_fn<cast_signed>} ins(%840, %839 : tensor<40x4096xf32>, tensor<4096x4096xf32>) outs(%cst_145 : tensor<40x4096xf32>) -> tensor<40x4096xf32>
    %842 = tosa.reshape %841 {new_shape = array<i64: 1, 40, 4096>} : (tensor<40x4096xf32>) -> tensor<1x40x4096xf32>
    %843 = tosa.reshape %832 {new_shape = array<i64: 1, 40, 32, 128>} : (tensor<1x40x4096xf32>) -> tensor<1x40x32x128xf32>
    %844 = "tosa.const"() <{value = dense<[0, 2, 1, 3]> : tensor<4xi32>}> : () -> tensor<4xi32>
    %845 = tosa.transpose %843, %844 : (tensor<1x40x32x128xf32>, tensor<4xi32>) -> tensor<1x32x40x128xf32>
    %846 = tosa.reshape %837 {new_shape = array<i64: 1, 40, 32, 128>} : (tensor<1x40x4096xf32>) -> tensor<1x40x32x128xf32>
    %847 = "tosa.const"() <{value = dense<[0, 2, 1, 3]> : tensor<4xi32>}> : () -> tensor<4xi32>
    %848 = tosa.transpose %846, %847 : (tensor<1x40x32x128xf32>, tensor<4xi32>) -> tensor<1x32x40x128xf32>
    %849 = tosa.reshape %842 {new_shape = array<i64: 1, 40, 32, 128>} : (tensor<1x40x4096xf32>) -> tensor<1x40x32x128xf32>
    %850 = "tosa.const"() <{value = dense<[0, 2, 1, 3]> : tensor<4xi32>}> : () -> tensor<4xi32>
    %851 = tosa.transpose %849, %850 : (tensor<1x40x32x128xf32>, tensor<4xi32>) -> tensor<1x32x40x128xf32>
    %extracted_slice_146 = tensor.extract_slice %arg72[0, 0, 0, 0] [1, 1, 2048, 128] [1, 1, 1, 1] : tensor<1x1x2048x128xf32> to tensor<1x1x2048x128xf32>
    %extracted_slice_147 = tensor.extract_slice %extracted_slice_146[0, 0, 0, 0] [1, 1, 2048, 128] [1, 1, 1, 1] : tensor<1x1x2048x128xf32> to tensor<1x1x2048x128xf32>
    %extracted_slice_148 = tensor.extract_slice %extracted_slice_147[0, 0, 0, 0] [1, 1, 40, 128] [1, 1, 1, 1] : tensor<1x1x2048x128xf32> to tensor<1x1x40x128xf32>
    %extracted_slice_149 = tensor.extract_slice %arg73[0, 0, 0, 0] [1, 1, 2048, 128] [1, 1, 1, 1] : tensor<1x1x2048x128xf32> to tensor<1x1x2048x128xf32>
    %extracted_slice_150 = tensor.extract_slice %extracted_slice_149[0, 0, 0, 0] [1, 1, 2048, 128] [1, 1, 1, 1] : tensor<1x1x2048x128xf32> to tensor<1x1x2048x128xf32>
    %extracted_slice_151 = tensor.extract_slice %extracted_slice_150[0, 0, 0, 0] [1, 1, 40, 128] [1, 1, 1, 1] : tensor<1x1x2048x128xf32> to tensor<1x1x40x128xf32>
    %852 = tensor.empty() : tensor<1x40x128xf32>
    %853 = linalg.generic {indexing_maps = [#map6, #map5], iterator_types = ["parallel", "parallel", "parallel"]} ins(%extracted_slice_148 : tensor<1x1x40x128xf32>) outs(%852 : tensor<1x40x128xf32>) {
    ^bb0(%in: f32, %out: f32):
      linalg.yield %in : f32
    } -> tensor<1x40x128xf32>
    %854 = tensor.empty() : tensor<40x128xf32>
    %855 = linalg.generic {indexing_maps = [#map7, #map3], iterator_types = ["parallel", "parallel"]} ins(%853 : tensor<1x40x128xf32>) outs(%854 : tensor<40x128xf32>) {
    ^bb0(%in: f32, %out: f32):
      linalg.yield %in : f32
    } -> tensor<40x128xf32>
    %856 = tensor.empty() : tensor<1x40x128xf32>
    %857 = linalg.generic {indexing_maps = [#map6, #map5], iterator_types = ["parallel", "parallel", "parallel"]} ins(%extracted_slice_151 : tensor<1x1x40x128xf32>) outs(%856 : tensor<1x40x128xf32>) {
    ^bb0(%in: f32, %out: f32):
      linalg.yield %in : f32
    } -> tensor<1x40x128xf32>
    %858 = tensor.empty() : tensor<40x128xf32>
    %859 = linalg.generic {indexing_maps = [#map7, #map3], iterator_types = ["parallel", "parallel"]} ins(%857 : tensor<1x40x128xf32>) outs(%858 : tensor<40x128xf32>) {
    ^bb0(%in: f32, %out: f32):
      linalg.yield %in : f32
    } -> tensor<40x128xf32>
    %860 = tensor.empty() : tensor<1x40x128xf32>
    %861 = linalg.generic {indexing_maps = [#map2, #map5], iterator_types = ["parallel", "parallel", "parallel"]} ins(%2 : tensor<1x40xi64>) outs(%860 : tensor<1x40x128xf32>) {
    ^bb0(%in: i64, %out: f32):
      %4239 = arith.index_cast %in : i64 to index
      %4240 = linalg.index 2 : index
      %extracted = tensor.extract %855[%4239, %4240] : tensor<40x128xf32>
      linalg.yield %extracted : f32
    } -> tensor<1x40x128xf32>
    %862 = tosa.reshape %861 {new_shape = array<i64: 1, 1, 40, 128>} : (tensor<1x40x128xf32>) -> tensor<1x1x40x128xf32>
    %863 = tensor.empty() : tensor<1x40x128xf32>
    %864 = linalg.generic {indexing_maps = [#map2, #map5], iterator_types = ["parallel", "parallel", "parallel"]} ins(%2 : tensor<1x40xi64>) outs(%863 : tensor<1x40x128xf32>) {
    ^bb0(%in: i64, %out: f32):
      %4239 = arith.index_cast %in : i64 to index
      %4240 = linalg.index 2 : index
      %extracted = tensor.extract %859[%4239, %4240] : tensor<40x128xf32>
      linalg.yield %extracted : f32
    } -> tensor<1x40x128xf32>
    %865 = tosa.reshape %864 {new_shape = array<i64: 1, 1, 40, 128>} : (tensor<1x40x128xf32>) -> tensor<1x1x40x128xf32>
    %866 = tosa.mul %845, %862 {shift = 0 : i8} : (tensor<1x32x40x128xf32>, tensor<1x1x40x128xf32>) -> tensor<1x32x40x128xf32>
    %extracted_slice_152 = tensor.extract_slice %845[0, 0, 0, 0] [1, 32, 40, 64] [1, 1, 1, 1] : tensor<1x32x40x128xf32> to tensor<1x32x40x64xf32>
    %extracted_slice_153 = tensor.extract_slice %845[0, 0, 0, 64] [1, 32, 40, 64] [1, 1, 1, 1] : tensor<1x32x40x128xf32> to tensor<1x32x40x64xf32>
    %867 = tensor.empty() : tensor<1x32x40x64xf32>
    %868 = linalg.negf ins(%extracted_slice_153 : tensor<1x32x40x64xf32>) outs(%867 : tensor<1x32x40x64xf32>) -> tensor<1x32x40x64xf32>
    %869 = tensor.empty() : tensor<1x32x40x128xf32>
    %inserted_slice_154 = tensor.insert_slice %868 into %869[0, 0, 0, 0] [1, 32, 40, 64] [1, 1, 1, 1] : tensor<1x32x40x64xf32> into tensor<1x32x40x128xf32>
    %inserted_slice_155 = tensor.insert_slice %extracted_slice_152 into %inserted_slice_154[0, 0, 0, 64] [1, 32, 40, 64] [1, 1, 1, 1] : tensor<1x32x40x64xf32> into tensor<1x32x40x128xf32>
    %870 = tosa.mul %inserted_slice_155, %865 {shift = 0 : i8} : (tensor<1x32x40x128xf32>, tensor<1x1x40x128xf32>) -> tensor<1x32x40x128xf32>
    %871 = tosa.add %866, %870 : (tensor<1x32x40x128xf32>, tensor<1x32x40x128xf32>) -> tensor<1x32x40x128xf32>
    %872 = tosa.mul %848, %862 {shift = 0 : i8} : (tensor<1x32x40x128xf32>, tensor<1x1x40x128xf32>) -> tensor<1x32x40x128xf32>
    %extracted_slice_156 = tensor.extract_slice %848[0, 0, 0, 0] [1, 32, 40, 64] [1, 1, 1, 1] : tensor<1x32x40x128xf32> to tensor<1x32x40x64xf32>
    %extracted_slice_157 = tensor.extract_slice %848[0, 0, 0, 64] [1, 32, 40, 64] [1, 1, 1, 1] : tensor<1x32x40x128xf32> to tensor<1x32x40x64xf32>
    %873 = tensor.empty() : tensor<1x32x40x64xf32>
    %874 = linalg.negf ins(%extracted_slice_157 : tensor<1x32x40x64xf32>) outs(%873 : tensor<1x32x40x64xf32>) -> tensor<1x32x40x64xf32>
    %875 = tensor.empty() : tensor<1x32x40x128xf32>
    %inserted_slice_158 = tensor.insert_slice %874 into %875[0, 0, 0, 0] [1, 32, 40, 64] [1, 1, 1, 1] : tensor<1x32x40x64xf32> into tensor<1x32x40x128xf32>
    %inserted_slice_159 = tensor.insert_slice %extracted_slice_156 into %inserted_slice_158[0, 0, 0, 64] [1, 32, 40, 64] [1, 1, 1, 1] : tensor<1x32x40x64xf32> into tensor<1x32x40x128xf32>
    %876 = tosa.mul %inserted_slice_159, %865 {shift = 0 : i8} : (tensor<1x32x40x128xf32>, tensor<1x1x40x128xf32>) -> tensor<1x32x40x128xf32>
    %877 = tosa.add %872, %876 : (tensor<1x32x40x128xf32>, tensor<1x32x40x128xf32>) -> tensor<1x32x40x128xf32>
    %878 = "tosa.const"() <{value = dense<[0, 1, 3, 2]> : tensor<4xi32>}> : () -> tensor<4xi32>
    %879 = tosa.transpose %877, %878 : (tensor<1x32x40x128xf32>, tensor<4xi32>) -> tensor<1x32x128x40xf32>
    %880 = "tosa.const"() <{value = dense<0.000000e+00> : tensor<1x32x40x128xf32>}> : () -> tensor<1x32x40x128xf32>
    %881 = tosa.add %871, %880 : (tensor<1x32x40x128xf32>, tensor<1x32x40x128xf32>) -> tensor<1x32x40x128xf32>
    %882 = tosa.reshape %881 {new_shape = array<i64: 32, 40, 128>} : (tensor<1x32x40x128xf32>) -> tensor<32x40x128xf32>
    %883 = "tosa.const"() <{value = dense<0.000000e+00> : tensor<1x32x128x40xf32>}> : () -> tensor<1x32x128x40xf32>
    %884 = tosa.add %879, %883 : (tensor<1x32x128x40xf32>, tensor<1x32x128x40xf32>) -> tensor<1x32x128x40xf32>
    %885 = tosa.reshape %884 {new_shape = array<i64: 32, 128, 40>} : (tensor<1x32x128x40xf32>) -> tensor<32x128x40xf32>
    %886 = tosa.matmul %882, %885 : (tensor<32x40x128xf32>, tensor<32x128x40xf32>) -> tensor<32x40x40xf32>
    %887 = tosa.reshape %886 {new_shape = array<i64: 1, 32, 40, 40>} : (tensor<32x40x40xf32>) -> tensor<1x32x40x40xf32>
    %888 = "tosa.const"() <{value = dense<11.3137083> : tensor<1x32x40x40xf32>}> : () -> tensor<1x32x40x40xf32>
    %889 = tosa.reciprocal %888 : (tensor<1x32x40x40xf32>) -> tensor<1x32x40x40xf32>
    %890 = tosa.mul %887, %889 {shift = 0 : i8} : (tensor<1x32x40x40xf32>, tensor<1x32x40x40xf32>) -> tensor<1x32x40x40xf32>
    %891 = tosa.add %890, %29 : (tensor<1x32x40x40xf32>, tensor<1x1x40x40xf32>) -> tensor<1x32x40x40xf32>
    %892 = tosa.reduce_max %891 {axis = 3 : i32} : (tensor<1x32x40x40xf32>) -> tensor<1x32x40x1xf32>
    %893 = tosa.sub %891, %892 : (tensor<1x32x40x40xf32>, tensor<1x32x40x1xf32>) -> tensor<1x32x40x40xf32>
    %894 = tosa.exp %893 : (tensor<1x32x40x40xf32>) -> tensor<1x32x40x40xf32>
    %895 = tosa.reduce_sum %894 {axis = 3 : i32} : (tensor<1x32x40x40xf32>) -> tensor<1x32x40x1xf32>
    %896 = tosa.reciprocal %895 : (tensor<1x32x40x1xf32>) -> tensor<1x32x40x1xf32>
    %897 = tosa.mul %894, %896 {shift = 0 : i8} : (tensor<1x32x40x40xf32>, tensor<1x32x40x1xf32>) -> tensor<1x32x40x40xf32>
    %898 = "tosa.const"() <{value = dense<0.000000e+00> : tensor<1x32x40x40xf32>}> : () -> tensor<1x32x40x40xf32>
    %899 = tosa.add %897, %898 : (tensor<1x32x40x40xf32>, tensor<1x32x40x40xf32>) -> tensor<1x32x40x40xf32>
    %900 = tosa.reshape %899 {new_shape = array<i64: 32, 40, 40>} : (tensor<1x32x40x40xf32>) -> tensor<32x40x40xf32>
    %901 = "tosa.const"() <{value = dense<0.000000e+00> : tensor<1x32x40x128xf32>}> : () -> tensor<1x32x40x128xf32>
    %902 = tosa.add %851, %901 : (tensor<1x32x40x128xf32>, tensor<1x32x40x128xf32>) -> tensor<1x32x40x128xf32>
    %903 = tosa.reshape %902 {new_shape = array<i64: 32, 40, 128>} : (tensor<1x32x40x128xf32>) -> tensor<32x40x128xf32>
    %904 = tosa.matmul %900, %903 : (tensor<32x40x40xf32>, tensor<32x40x128xf32>) -> tensor<32x40x128xf32>
    %905 = tosa.reshape %904 {new_shape = array<i64: 1, 32, 40, 128>} : (tensor<32x40x128xf32>) -> tensor<1x32x40x128xf32>
    %906 = "tosa.const"() <{value = dense<[0, 2, 1, 3]> : tensor<4xi32>}> : () -> tensor<4xi32>
    %907 = tosa.transpose %905, %906 : (tensor<1x32x40x128xf32>, tensor<4xi32>) -> tensor<1x40x32x128xf32>
    %908 = tosa.identity %907 : (tensor<1x40x32x128xf32>) -> tensor<1x40x32x128xf32>
    %909 = tosa.reshape %908 {new_shape = array<i64: 1, 40, 4096>} : (tensor<1x40x32x128xf32>) -> tensor<1x40x4096xf32>
    %910 = "tosa.const"() <{value = dense<[1, 0]> : tensor<2xi32>}> : () -> tensor<2xi32>
    %911 = tosa.transpose %arg74, %910 : (tensor<4096x4096xf32>, tensor<2xi32>) -> tensor<4096x4096xf32>
    %912 = tosa.reshape %909 {new_shape = array<i64: 40, 4096>} : (tensor<1x40x4096xf32>) -> tensor<40x4096xf32>
    %cst_160 = arith.constant dense<0.000000e+00> : tensor<40x4096xf32>
    %913 = linalg.matmul {cast = #linalg.type_fn<cast_signed>} ins(%912, %911 : tensor<40x4096xf32>, tensor<4096x4096xf32>) outs(%cst_160 : tensor<40x4096xf32>) -> tensor<40x4096xf32>
    %914 = tosa.reshape %913 {new_shape = array<i64: 1, 40, 4096>} : (tensor<40x4096xf32>) -> tensor<1x40x4096xf32>
    %915 = tosa.add %815, %914 : (tensor<1x40x4096xf32>, tensor<1x40x4096xf32>) -> tensor<1x40x4096xf32>
    %916 = tensor.empty() : tensor<1x40x4096xf32>
    %c2_i32_161 = arith.constant 2 : i32
    %917 = linalg.generic {indexing_maps = [#map5, #map5], iterator_types = ["parallel", "parallel", "parallel"]} ins(%915 : tensor<1x40x4096xf32>) outs(%916 : tensor<1x40x4096xf32>) {
    ^bb0(%in: f32, %out: f32):
      %4239 = math.fpowi %in, %c2_i32_161 : f32, i32
      linalg.yield %4239 : f32
    } -> tensor<1x40x4096xf32>
    %918 = tosa.reduce_sum %917 {axis = 2 : i32} : (tensor<1x40x4096xf32>) -> tensor<1x40x1xf32>
    %919 = "tosa.const"() <{value = dense<4.096000e+03> : tensor<1xf32>}> : () -> tensor<1xf32>
    %920 = tosa.reciprocal %919 : (tensor<1xf32>) -> tensor<1xf32>
    %921 = tosa.mul %920, %918 {shift = 0 : i8} : (tensor<1xf32>, tensor<1x40x1xf32>) -> tensor<1x40x1xf32>
    %922 = "tosa.const"() <{value = dense<9.99999997E-7> : tensor<1x40x1xf32>}> : () -> tensor<1x40x1xf32>
    %923 = tosa.add %921, %922 : (tensor<1x40x1xf32>, tensor<1x40x1xf32>) -> tensor<1x40x1xf32>
    %924 = tosa.rsqrt %923 : (tensor<1x40x1xf32>) -> tensor<1x40x1xf32>
    %925 = tosa.mul %915, %924 {shift = 0 : i8} : (tensor<1x40x4096xf32>, tensor<1x40x1xf32>) -> tensor<1x40x4096xf32>
    %926 = tosa.reshape %arg75 {new_shape = array<i64: 1, 1, 4096>} : (tensor<4096xf32>) -> tensor<1x1x4096xf32>
    %927 = tosa.mul %926, %925 {shift = 0 : i8} : (tensor<1x1x4096xf32>, tensor<1x40x4096xf32>) -> tensor<1x40x4096xf32>
    %928 = "tosa.const"() <{value = dense<[1, 0]> : tensor<2xi32>}> : () -> tensor<2xi32>
    %929 = tosa.transpose %arg76, %928 : (tensor<11008x4096xf32>, tensor<2xi32>) -> tensor<4096x11008xf32>
    %930 = tosa.reshape %927 {new_shape = array<i64: 40, 4096>} : (tensor<1x40x4096xf32>) -> tensor<40x4096xf32>
    %cst_162 = arith.constant dense<0.000000e+00> : tensor<40x11008xf32>
    %931 = linalg.matmul {cast = #linalg.type_fn<cast_signed>} ins(%930, %929 : tensor<40x4096xf32>, tensor<4096x11008xf32>) outs(%cst_162 : tensor<40x11008xf32>) -> tensor<40x11008xf32>
    %932 = tosa.reshape %931 {new_shape = array<i64: 1, 40, 11008>} : (tensor<40x11008xf32>) -> tensor<1x40x11008xf32>
    %933 = tosa.sigmoid %932 : (tensor<1x40x11008xf32>) -> tensor<1x40x11008xf32>
    %934 = tosa.mul %932, %933 {shift = 0 : i8} : (tensor<1x40x11008xf32>, tensor<1x40x11008xf32>) -> tensor<1x40x11008xf32>
    %935 = "tosa.const"() <{value = dense<[1, 0]> : tensor<2xi32>}> : () -> tensor<2xi32>
    %936 = tosa.transpose %arg77, %935 : (tensor<11008x4096xf32>, tensor<2xi32>) -> tensor<4096x11008xf32>
    %937 = tosa.reshape %927 {new_shape = array<i64: 40, 4096>} : (tensor<1x40x4096xf32>) -> tensor<40x4096xf32>
    %cst_163 = arith.constant dense<0.000000e+00> : tensor<40x11008xf32>
    %938 = linalg.matmul {cast = #linalg.type_fn<cast_signed>} ins(%937, %936 : tensor<40x4096xf32>, tensor<4096x11008xf32>) outs(%cst_163 : tensor<40x11008xf32>) -> tensor<40x11008xf32>
    %939 = tosa.reshape %938 {new_shape = array<i64: 1, 40, 11008>} : (tensor<40x11008xf32>) -> tensor<1x40x11008xf32>
    %940 = tosa.mul %934, %939 {shift = 0 : i8} : (tensor<1x40x11008xf32>, tensor<1x40x11008xf32>) -> tensor<1x40x11008xf32>
    %941 = "tosa.const"() <{value = dense<[1, 0]> : tensor<2xi32>}> : () -> tensor<2xi32>
    %942 = tosa.transpose %arg78, %941 : (tensor<4096x11008xf32>, tensor<2xi32>) -> tensor<11008x4096xf32>
    %943 = tosa.reshape %940 {new_shape = array<i64: 40, 11008>} : (tensor<1x40x11008xf32>) -> tensor<40x11008xf32>
    %cst_164 = arith.constant dense<0.000000e+00> : tensor<40x4096xf32>
    %944 = linalg.matmul {cast = #linalg.type_fn<cast_signed>} ins(%943, %942 : tensor<40x11008xf32>, tensor<11008x4096xf32>) outs(%cst_164 : tensor<40x4096xf32>) -> tensor<40x4096xf32>
    %945 = tosa.reshape %944 {new_shape = array<i64: 1, 40, 4096>} : (tensor<40x4096xf32>) -> tensor<1x40x4096xf32>
    %946 = tosa.add %915, %945 : (tensor<1x40x4096xf32>, tensor<1x40x4096xf32>) -> tensor<1x40x4096xf32>
    %947 = tensor.empty() : tensor<1x40x4096xf32>
    %c2_i32_165 = arith.constant 2 : i32
    %948 = linalg.generic {indexing_maps = [#map5, #map5], iterator_types = ["parallel", "parallel", "parallel"]} ins(%946 : tensor<1x40x4096xf32>) outs(%947 : tensor<1x40x4096xf32>) {
    ^bb0(%in: f32, %out: f32):
      %4239 = math.fpowi %in, %c2_i32_165 : f32, i32
      linalg.yield %4239 : f32
    } -> tensor<1x40x4096xf32>
    %949 = tosa.reduce_sum %948 {axis = 2 : i32} : (tensor<1x40x4096xf32>) -> tensor<1x40x1xf32>
    %950 = "tosa.const"() <{value = dense<4.096000e+03> : tensor<1xf32>}> : () -> tensor<1xf32>
    %951 = tosa.reciprocal %950 : (tensor<1xf32>) -> tensor<1xf32>
    %952 = tosa.mul %951, %949 {shift = 0 : i8} : (tensor<1xf32>, tensor<1x40x1xf32>) -> tensor<1x40x1xf32>
    %953 = "tosa.const"() <{value = dense<9.99999997E-7> : tensor<1x40x1xf32>}> : () -> tensor<1x40x1xf32>
    %954 = tosa.add %952, %953 : (tensor<1x40x1xf32>, tensor<1x40x1xf32>) -> tensor<1x40x1xf32>
    %955 = tosa.rsqrt %954 : (tensor<1x40x1xf32>) -> tensor<1x40x1xf32>
    %956 = tosa.mul %946, %955 {shift = 0 : i8} : (tensor<1x40x4096xf32>, tensor<1x40x1xf32>) -> tensor<1x40x4096xf32>
    %957 = tosa.reshape %arg79 {new_shape = array<i64: 1, 1, 4096>} : (tensor<4096xf32>) -> tensor<1x1x4096xf32>
    %958 = tosa.mul %957, %956 {shift = 0 : i8} : (tensor<1x1x4096xf32>, tensor<1x40x4096xf32>) -> tensor<1x40x4096xf32>
    %959 = "tosa.const"() <{value = dense<[1, 0]> : tensor<2xi32>}> : () -> tensor<2xi32>
    %960 = tosa.transpose %arg80, %959 : (tensor<4096x4096xf32>, tensor<2xi32>) -> tensor<4096x4096xf32>
    %961 = tosa.reshape %958 {new_shape = array<i64: 40, 4096>} : (tensor<1x40x4096xf32>) -> tensor<40x4096xf32>
    %cst_166 = arith.constant dense<0.000000e+00> : tensor<40x4096xf32>
    %962 = linalg.matmul {cast = #linalg.type_fn<cast_signed>} ins(%961, %960 : tensor<40x4096xf32>, tensor<4096x4096xf32>) outs(%cst_166 : tensor<40x4096xf32>) -> tensor<40x4096xf32>
    %963 = tosa.reshape %962 {new_shape = array<i64: 1, 40, 4096>} : (tensor<40x4096xf32>) -> tensor<1x40x4096xf32>
    %964 = "tosa.const"() <{value = dense<[1, 0]> : tensor<2xi32>}> : () -> tensor<2xi32>
    %965 = tosa.transpose %arg81, %964 : (tensor<4096x4096xf32>, tensor<2xi32>) -> tensor<4096x4096xf32>
    %966 = tosa.reshape %958 {new_shape = array<i64: 40, 4096>} : (tensor<1x40x4096xf32>) -> tensor<40x4096xf32>
    %cst_167 = arith.constant dense<0.000000e+00> : tensor<40x4096xf32>
    %967 = linalg.matmul {cast = #linalg.type_fn<cast_signed>} ins(%966, %965 : tensor<40x4096xf32>, tensor<4096x4096xf32>) outs(%cst_167 : tensor<40x4096xf32>) -> tensor<40x4096xf32>
    %968 = tosa.reshape %967 {new_shape = array<i64: 1, 40, 4096>} : (tensor<40x4096xf32>) -> tensor<1x40x4096xf32>
    %969 = "tosa.const"() <{value = dense<[1, 0]> : tensor<2xi32>}> : () -> tensor<2xi32>
    %970 = tosa.transpose %arg82, %969 : (tensor<4096x4096xf32>, tensor<2xi32>) -> tensor<4096x4096xf32>
    %971 = tosa.reshape %958 {new_shape = array<i64: 40, 4096>} : (tensor<1x40x4096xf32>) -> tensor<40x4096xf32>
    %cst_168 = arith.constant dense<0.000000e+00> : tensor<40x4096xf32>
    %972 = linalg.matmul {cast = #linalg.type_fn<cast_signed>} ins(%971, %970 : tensor<40x4096xf32>, tensor<4096x4096xf32>) outs(%cst_168 : tensor<40x4096xf32>) -> tensor<40x4096xf32>
    %973 = tosa.reshape %972 {new_shape = array<i64: 1, 40, 4096>} : (tensor<40x4096xf32>) -> tensor<1x40x4096xf32>
    %974 = tosa.reshape %963 {new_shape = array<i64: 1, 40, 32, 128>} : (tensor<1x40x4096xf32>) -> tensor<1x40x32x128xf32>
    %975 = "tosa.const"() <{value = dense<[0, 2, 1, 3]> : tensor<4xi32>}> : () -> tensor<4xi32>
    %976 = tosa.transpose %974, %975 : (tensor<1x40x32x128xf32>, tensor<4xi32>) -> tensor<1x32x40x128xf32>
    %977 = tosa.reshape %968 {new_shape = array<i64: 1, 40, 32, 128>} : (tensor<1x40x4096xf32>) -> tensor<1x40x32x128xf32>
…
    %inserted_slice_684 = tensor.insert_slice %extracted_slice_681 into %inserted_slice_683[0, 0, 0, 64] [1, 32, 40, 64] [1, 1, 1, 1] : tensor<1x32x40x64xf32> into tensor<1x32x40x128xf32>
    %3883 = tosa.mul %inserted_slice_684, %3878 {shift = 0 : i8} : (tensor<1x32x40x128xf32>, tensor<1x1x40x128xf32>) -> tensor<1x32x40x128xf32>
    %3884 = tosa.add %3879, %3883 : (tensor<1x32x40x128xf32>, tensor<1x32x40x128xf32>) -> tensor<1x32x40x128xf32>
    %3885 = tosa.mul %3861, %3875 {shift = 0 : i8} : (tensor<1x32x40x128xf32>, tensor<1x1x40x128xf32>) -> tensor<1x32x40x128xf32>
    %extracted_slice_685 = tensor.extract_slice %3861[0, 0, 0, 0] [1, 32, 40, 64] [1, 1, 1, 1] : tensor<1x32x40x128xf32> to tensor<1x32x40x64xf32>
    %extracted_slice_686 = tensor.extract_slice %3861[0, 0, 0, 64] [1, 32, 40, 64] [1, 1, 1, 1] : tensor<1x32x40x128xf32> to tensor<1x32x40x64xf32>
    %3886 = tensor.empty() : tensor<1x32x40x64xf32>
    %3887 = linalg.negf ins(%extracted_slice_686 : tensor<1x32x40x64xf32>) outs(%3886 : tensor<1x32x40x64xf32>) -> tensor<1x32x40x64xf32>
    %3888 = tensor.empty() : tensor<1x32x40x128xf32>
    %inserted_slice_687 = tensor.insert_slice %3887 into %3888[0, 0, 0, 0] [1, 32, 40, 64] [1, 1, 1, 1] : tensor<1x32x40x64xf32> into tensor<1x32x40x128xf32>
    %inserted_slice_688 = tensor.insert_slice %extracted_slice_685 into %inserted_slice_687[0, 0, 0, 64] [1, 32, 40, 64] [1, 1, 1, 1] : tensor<1x32x40x64xf32> into tensor<1x32x40x128xf32>
    %3889 = tosa.mul %inserted_slice_688, %3878 {shift = 0 : i8} : (tensor<1x32x40x128xf32>, tensor<1x1x40x128xf32>) -> tensor<1x32x40x128xf32>
    %3890 = tosa.add %3885, %3889 : (tensor<1x32x40x128xf32>, tensor<1x32x40x128xf32>) -> tensor<1x32x40x128xf32>
    %3891 = "tosa.const"() <{value = dense<[0, 1, 3, 2]> : tensor<4xi32>}> : () -> tensor<4xi32>
    %3892 = tosa.transpose %3890, %3891 : (tensor<1x32x40x128xf32>, tensor<4xi32>) -> tensor<1x32x128x40xf32>
    %3893 = "tosa.const"() <{value = dense<0.000000e+00> : tensor<1x32x40x128xf32>}> : () -> tensor<1x32x40x128xf32>
    %3894 = tosa.add %3884, %3893 : (tensor<1x32x40x128xf32>, tensor<1x32x40x128xf32>) -> tensor<1x32x40x128xf32>
    %3895 = tosa.reshape %3894 {new_shape = array<i64: 32, 40, 128>} : (tensor<1x32x40x128xf32>) -> tensor<32x40x128xf32>
    %3896 = "tosa.const"() <{value = dense<0.000000e+00> : tensor<1x32x128x40xf32>}> : () -> tensor<1x32x128x40xf32>
    %3897 = tosa.add %3892, %3896 : (tensor<1x32x128x40xf32>, tensor<1x32x128x40xf32>) -> tensor<1x32x128x40xf32>
    %3898 = tosa.reshape %3897 {new_shape = array<i64: 32, 128, 40>} : (tensor<1x32x128x40xf32>) -> tensor<32x128x40xf32>
    %3899 = tosa.matmul %3895, %3898 : (tensor<32x40x128xf32>, tensor<32x128x40xf32>) -> tensor<32x40x40xf32>
    %3900 = tosa.reshape %3899 {new_shape = array<i64: 1, 32, 40, 40>} : (tensor<32x40x40xf32>) -> tensor<1x32x40x40xf32>
    %3901 = "tosa.const"() <{value = dense<11.3137083> : tensor<1x32x40x40xf32>}> : () -> tensor<1x32x40x40xf32>
    %3902 = tosa.reciprocal %3901 : (tensor<1x32x40x40xf32>) -> tensor<1x32x40x40xf32>
    %3903 = tosa.mul %3900, %3902 {shift = 0 : i8} : (tensor<1x32x40x40xf32>, tensor<1x32x40x40xf32>) -> tensor<1x32x40x40xf32>
    %3904 = tosa.add %3903, %29 : (tensor<1x32x40x40xf32>, tensor<1x1x40x40xf32>) -> tensor<1x32x40x40xf32>
    %3905 = tosa.reduce_max %3904 {axis = 3 : i32} : (tensor<1x32x40x40xf32>) -> tensor<1x32x40x1xf32>
    %3906 = tosa.sub %3904, %3905 : (tensor<1x32x40x40xf32>, tensor<1x32x40x1xf32>) -> tensor<1x32x40x40xf32>
    %3907 = tosa.exp %3906 : (tensor<1x32x40x40xf32>) -> tensor<1x32x40x40xf32>
    %3908 = tosa.reduce_sum %3907 {axis = 3 : i32} : (tensor<1x32x40x40xf32>) -> tensor<1x32x40x1xf32>
    %3909 = tosa.reciprocal %3908 : (tensor<1x32x40x1xf32>) -> tensor<1x32x40x1xf32>
    %3910 = tosa.mul %3907, %3909 {shift = 0 : i8} : (tensor<1x32x40x40xf32>, tensor<1x32x40x1xf32>) -> tensor<1x32x40x40xf32>
    %3911 = "tosa.const"() <{value = dense<0.000000e+00> : tensor<1x32x40x40xf32>}> : () -> tensor<1x32x40x40xf32>
    %3912 = tosa.add %3910, %3911 : (tensor<1x32x40x40xf32>, tensor<1x32x40x40xf32>) -> tensor<1x32x40x40xf32>
    %3913 = tosa.reshape %3912 {new_shape = array<i64: 32, 40, 40>} : (tensor<1x32x40x40xf32>) -> tensor<32x40x40xf32>
    %3914 = "tosa.const"() <{value = dense<0.000000e+00> : tensor<1x32x40x128xf32>}> : () -> tensor<1x32x40x128xf32>
    %3915 = tosa.add %3864, %3914 : (tensor<1x32x40x128xf32>, tensor<1x32x40x128xf32>) -> tensor<1x32x40x128xf32>
    %3916 = tosa.reshape %3915 {new_shape = array<i64: 32, 40, 128>} : (tensor<1x32x40x128xf32>) -> tensor<32x40x128xf32>
    %3917 = tosa.matmul %3913, %3916 : (tensor<32x40x40xf32>, tensor<32x40x128xf32>) -> tensor<32x40x128xf32>
    %3918 = tosa.reshape %3917 {new_shape = array<i64: 1, 32, 40, 128>} : (tensor<32x40x128xf32>) -> tensor<1x32x40x128xf32>
    %3919 = "tosa.const"() <{value = dense<[0, 2, 1, 3]> : tensor<4xi32>}> : () -> tensor<4xi32>
    %3920 = tosa.transpose %3918, %3919 : (tensor<1x32x40x128xf32>, tensor<4xi32>) -> tensor<1x40x32x128xf32>
    %3921 = tosa.identity %3920 : (tensor<1x40x32x128xf32>) -> tensor<1x40x32x128xf32>
    %3922 = tosa.reshape %3921 {new_shape = array<i64: 1, 40, 4096>} : (tensor<1x40x32x128xf32>) -> tensor<1x40x4096xf32>
    %3923 = "tosa.const"() <{value = dense<[1, 0]> : tensor<2xi32>}> : () -> tensor<2xi32>
    %3924 = tosa.transpose %arg327, %3923 : (tensor<4096x4096xf32>, tensor<2xi32>) -> tensor<4096x4096xf32>
    %3925 = tosa.reshape %3922 {new_shape = array<i64: 40, 4096>} : (tensor<1x40x4096xf32>) -> tensor<40x4096xf32>
    %cst_689 = arith.constant dense<0.000000e+00> : tensor<40x4096xf32>
    %3926 = linalg.matmul {cast = #linalg.type_fn<cast_signed>} ins(%3925, %3924 : tensor<40x4096xf32>, tensor<4096x4096xf32>) outs(%cst_689 : tensor<40x4096xf32>) -> tensor<40x4096xf32>
    %3927 = tosa.reshape %3926 {new_shape = array<i64: 1, 40, 4096>} : (tensor<40x4096xf32>) -> tensor<1x40x4096xf32>
    %3928 = tosa.add %3828, %3927 : (tensor<1x40x4096xf32>, tensor<1x40x4096xf32>) -> tensor<1x40x4096xf32>
    %3929 = tensor.empty() : tensor<1x40x4096xf32>
    %c2_i32_690 = arith.constant 2 : i32
    %3930 = linalg.generic {indexing_maps = [#map5, #map5], iterator_types = ["parallel", "parallel", "parallel"]} ins(%3928 : tensor<1x40x4096xf32>) outs(%3929 : tensor<1x40x4096xf32>) {
    ^bb0(%in: f32, %out: f32):
      %4239 = math.fpowi %in, %c2_i32_690 : f32, i32
      linalg.yield %4239 : f32
    } -> tensor<1x40x4096xf32>
    %3931 = tosa.reduce_sum %3930 {axis = 2 : i32} : (tensor<1x40x4096xf32>) -> tensor<1x40x1xf32>
    %3932 = "tosa.const"() <{value = dense<4.096000e+03> : tensor<1xf32>}> : () -> tensor<1xf32>
    %3933 = tosa.reciprocal %3932 : (tensor<1xf32>) -> tensor<1xf32>
    %3934 = tosa.mul %3933, %3931 {shift = 0 : i8} : (tensor<1xf32>, tensor<1x40x1xf32>) -> tensor<1x40x1xf32>
    %3935 = "tosa.const"() <{value = dense<9.99999997E-7> : tensor<1x40x1xf32>}> : () -> tensor<1x40x1xf32>
    %3936 = tosa.add %3934, %3935 : (tensor<1x40x1xf32>, tensor<1x40x1xf32>) -> tensor<1x40x1xf32>
    %3937 = tosa.rsqrt %3936 : (tensor<1x40x1xf32>) -> tensor<1x40x1xf32>
    %3938 = tosa.mul %3928, %3937 {shift = 0 : i8} : (tensor<1x40x4096xf32>, tensor<1x40x1xf32>) -> tensor<1x40x4096xf32>
    %3939 = tosa.reshape %arg328 {new_shape = array<i64: 1, 1, 4096>} : (tensor<4096xf32>) -> tensor<1x1x4096xf32>
    %3940 = tosa.mul %3939, %3938 {shift = 0 : i8} : (tensor<1x1x4096xf32>, tensor<1x40x4096xf32>) -> tensor<1x40x4096xf32>
    %3941 = "tosa.const"() <{value = dense<[1, 0]> : tensor<2xi32>}> : () -> tensor<2xi32>
    %3942 = tosa.transpose %arg329, %3941 : (tensor<11008x4096xf32>, tensor<2xi32>) -> tensor<4096x11008xf32>
    %3943 = tosa.reshape %3940 {new_shape = array<i64: 40, 4096>} : (tensor<1x40x4096xf32>) -> tensor<40x4096xf32>
    %cst_691 = arith.constant dense<0.000000e+00> : tensor<40x11008xf32>
    %3944 = linalg.matmul {cast = #linalg.type_fn<cast_signed>} ins(%3943, %3942 : tensor<40x4096xf32>, tensor<4096x11008xf32>) outs(%cst_691 : tensor<40x11008xf32>) -> tensor<40x11008xf32>
    %3945 = tosa.reshape %3944 {new_shape = array<i64: 1, 40, 11008>} : (tensor<40x11008xf32>) -> tensor<1x40x11008xf32>
    %3946 = tosa.sigmoid %3945 : (tensor<1x40x11008xf32>) -> tensor<1x40x11008xf32>
    %3947 = tosa.mul %3945, %3946 {shift = 0 : i8} : (tensor<1x40x11008xf32>, tensor<1x40x11008xf32>) -> tensor<1x40x11008xf32>
    %3948 = "tosa.const"() <{value = dense<[1, 0]> : tensor<2xi32>}> : () -> tensor<2xi32>
    %3949 = tosa.transpose %arg330, %3948 : (tensor<11008x4096xf32>, tensor<2xi32>) -> tensor<4096x11008xf32>
    %3950 = tosa.reshape %3940 {new_shape = array<i64: 40, 4096>} : (tensor<1x40x4096xf32>) -> tensor<40x4096xf32>
    %cst_692 = arith.constant dense<0.000000e+00> : tensor<40x11008xf32>
    %3951 = linalg.matmul {cast = #linalg.type_fn<cast_signed>} ins(%3950, %3949 : tensor<40x4096xf32>, tensor<4096x11008xf32>) outs(%cst_692 : tensor<40x11008xf32>) -> tensor<40x11008xf32>
    %3952 = tosa.reshape %3951 {new_shape = array<i64: 1, 40, 11008>} : (tensor<40x11008xf32>) -> tensor<1x40x11008xf32>
    %3953 = tosa.mul %3947, %3952 {shift = 0 : i8} : (tensor<1x40x11008xf32>, tensor<1x40x11008xf32>) -> tensor<1x40x11008xf32>
    %3954 = "tosa.const"() <{value = dense<[1, 0]> : tensor<2xi32>}> : () -> tensor<2xi32>
    %3955 = tosa.transpose %arg331, %3954 : (tensor<4096x11008xf32>, tensor<2xi32>) -> tensor<11008x4096xf32>
    %3956 = tosa.reshape %3953 {new_shape = array<i64: 40, 11008>} : (tensor<1x40x11008xf32>) -> tensor<40x11008xf32>
    %cst_693 = arith.constant dense<0.000000e+00> : tensor<40x4096xf32>
    %3957 = linalg.matmul {cast = #linalg.type_fn<cast_signed>} ins(%3956, %3955 : tensor<40x11008xf32>, tensor<11008x4096xf32>) outs(%cst_693 : tensor<40x4096xf32>) -> tensor<40x4096xf32>
    %3958 = tosa.reshape %3957 {new_shape = array<i64: 1, 40, 4096>} : (tensor<40x4096xf32>) -> tensor<1x40x4096xf32>
    %3959 = tosa.add %3928, %3958 : (tensor<1x40x4096xf32>, tensor<1x40x4096xf32>) -> tensor<1x40x4096xf32>
    %3960 = tensor.empty() : tensor<1x40x4096xf32>
    %c2_i32_694 = arith.constant 2 : i32
    %3961 = linalg.generic {indexing_maps = [#map5, #map5], iterator_types = ["parallel", "parallel", "parallel"]} ins(%3959 : tensor<1x40x4096xf32>) outs(%3960 : tensor<1x40x4096xf32>) {
    ^bb0(%in: f32, %out: f32):
      %4239 = math.fpowi %in, %c2_i32_694 : f32, i32
      linalg.yield %4239 : f32
    } -> tensor<1x40x4096xf32>
    %3962 = tosa.reduce_sum %3961 {axis = 2 : i32} : (tensor<1x40x4096xf32>) -> tensor<1x40x1xf32>
    %3963 = "tosa.const"() <{value = dense<4.096000e+03> : tensor<1xf32>}> : () -> tensor<1xf32>
    %3964 = tosa.reciprocal %3963 : (tensor<1xf32>) -> tensor<1xf32>
    %3965 = tosa.mul %3964, %3962 {shift = 0 : i8} : (tensor<1xf32>, tensor<1x40x1xf32>) -> tensor<1x40x1xf32>
    %3966 = "tosa.const"() <{value = dense<9.99999997E-7> : tensor<1x40x1xf32>}> : () -> tensor<1x40x1xf32>
    %3967 = tosa.add %3965, %3966 : (tensor<1x40x1xf32>, tensor<1x40x1xf32>) -> tensor<1x40x1xf32>
    %3968 = tosa.rsqrt %3967 : (tensor<1x40x1xf32>) -> tensor<1x40x1xf32>
    %3969 = tosa.mul %3959, %3968 {shift = 0 : i8} : (tensor<1x40x4096xf32>, tensor<1x40x1xf32>) -> tensor<1x40x4096xf32>
    %3970 = tosa.reshape %arg332 {new_shape = array<i64: 1, 1, 4096>} : (tensor<4096xf32>) -> tensor<1x1x4096xf32>
    %3971 = tosa.mul %3970, %3969 {shift = 0 : i8} : (tensor<1x1x4096xf32>, tensor<1x40x4096xf32>) -> tensor<1x40x4096xf32>
    %3972 = "tosa.const"() <{value = dense<[1, 0]> : tensor<2xi32>}> : () -> tensor<2xi32>
    %3973 = tosa.transpose %arg333, %3972 : (tensor<4096x4096xf32>, tensor<2xi32>) -> tensor<4096x4096xf32>
    %3974 = tosa.reshape %3971 {new_shape = array<i64: 40, 4096>} : (tensor<1x40x4096xf32>) -> tensor<40x4096xf32>
    %cst_695 = arith.constant dense<0.000000e+00> : tensor<40x4096xf32>
    %3975 = linalg.matmul {cast = #linalg.type_fn<cast_signed>} ins(%3974, %3973 : tensor<40x4096xf32>, tensor<4096x4096xf32>) outs(%cst_695 : tensor<40x4096xf32>) -> tensor<40x4096xf32>
    %3976 = tosa.reshape %3975 {new_shape = array<i64: 1, 40, 4096>} : (tensor<40x4096xf32>) -> tensor<1x40x4096xf32>
    %3977 = "tosa.const"() <{value = dense<[1, 0]> : tensor<2xi32>}> : () -> tensor<2xi32>
    %3978 = tosa.transpose %arg334, %3977 : (tensor<4096x4096xf32>, tensor<2xi32>) -> tensor<4096x4096xf32>
    %3979 = tosa.reshape %3971 {new_shape = array<i64: 40, 4096>} : (tensor<1x40x4096xf32>) -> tensor<40x4096xf32>
    %cst_696 = arith.constant dense<0.000000e+00> : tensor<40x4096xf32>
    %3980 = linalg.matmul {cast = #linalg.type_fn<cast_signed>} ins(%3979, %3978 : tensor<40x4096xf32>, tensor<4096x4096xf32>) outs(%cst_696 : tensor<40x4096xf32>) -> tensor<40x4096xf32>
    %3981 = tosa.reshape %3980 {new_shape = array<i64: 1, 40, 4096>} : (tensor<40x4096xf32>) -> tensor<1x40x4096xf32>
    %3982 = "tosa.const"() <{value = dense<[1, 0]> : tensor<2xi32>}> : () -> tensor<2xi32>
    %3983 = tosa.transpose %arg335, %3982 : (tensor<4096x4096xf32>, tensor<2xi32>) -> tensor<4096x4096xf32>
    %3984 = tosa.reshape %3971 {new_shape = array<i64: 40, 4096>} : (tensor<1x40x4096xf32>) -> tensor<40x4096xf32>
    %cst_697 = arith.constant dense<0.000000e+00> : tensor<40x4096xf32>
    %3985 = linalg.matmul {cast = #linalg.type_fn<cast_signed>} ins(%3984, %3983 : tensor<40x4096xf32>, tensor<4096x4096xf32>) outs(%cst_697 : tensor<40x4096xf32>) -> tensor<40x4096xf32>
    %3986 = tosa.reshape %3985 {new_shape = array<i64: 1, 40, 4096>} : (tensor<40x4096xf32>) -> tensor<1x40x4096xf32>
    %3987 = tosa.reshape %3976 {new_shape = array<i64: 1, 40, 32, 128>} : (tensor<1x40x4096xf32>) -> tensor<1x40x32x128xf32>
    %3988 = "tosa.const"() <{value = dense<[0, 2, 1, 3]> : tensor<4xi32>}> : () -> tensor<4xi32>
    %3989 = tosa.transpose %3987, %3988 : (tensor<1x40x32x128xf32>, tensor<4xi32>) -> tensor<1x32x40x128xf32>
    %3990 = tosa.reshape %3981 {new_shape = array<i64: 1, 40, 32, 128>} : (tensor<1x40x4096xf32>) -> tensor<1x40x32x128xf32>
    %3991 = "tosa.const"() <{value = dense<[0, 2, 1, 3]> : tensor<4xi32>}> : () -> tensor<4xi32>
    %3992 = tosa.transpose %3990, %3991 : (tensor<1x40x32x128xf32>, tensor<4xi32>) -> tensor<1x32x40x128xf32>
    %3993 = tosa.reshape %3986 {new_shape = array<i64: 1, 40, 32, 128>} : (tensor<1x40x4096xf32>) -> tensor<1x40x32x128xf32>
    %3994 = "tosa.const"() <{value = dense<[0, 2, 1, 3]> : tensor<4xi32>}> : () -> tensor<4xi32>
    %3995 = tosa.transpose %3993, %3994 : (tensor<1x40x32x128xf32>, tensor<4xi32>) -> tensor<1x32x40x128xf32>
    %extracted_slice_698 = tensor.extract_slice %arg336[0, 0, 0, 0] [1, 1, 2048, 128] [1, 1, 1, 1] : tensor<1x1x2048x128xf32> to tensor<1x1x2048x128xf32>
    %extracted_slice_699 = tensor.extract_slice %extracted_slice_698[0, 0, 0, 0] [1, 1, 2048, 128] [1, 1, 1, 1] : tensor<1x1x2048x128xf32> to tensor<1x1x2048x128xf32>
    %extracted_slice_700 = tensor.extract_slice %extracted_slice_699[0, 0, 0, 0] [1, 1, 40, 128] [1, 1, 1, 1] : tensor<1x1x2048x128xf32> to tensor<1x1x40x128xf32>
    %extracted_slice_701 = tensor.extract_slice %arg337[0, 0, 0, 0] [1, 1, 2048, 128] [1, 1, 1, 1] : tensor<1x1x2048x128xf32> to tensor<1x1x2048x128xf32>
    %extracted_slice_702 = tensor.extract_slice %extracted_slice_701[0, 0, 0, 0] [1, 1, 2048, 128] [1, 1, 1, 1] : tensor<1x1x2048x128xf32> to tensor<1x1x2048x128xf32>
    %extracted_slice_703 = tensor.extract_slice %extracted_slice_702[0, 0, 0, 0] [1, 1, 40, 128] [1, 1, 1, 1] : tensor<1x1x2048x128xf32> to tensor<1x1x40x128xf32>
    %3996 = tensor.empty() : tensor<1x40x128xf32>
    %3997 = linalg.generic {indexing_maps = [#map6, #map5], iterator_types = ["parallel", "parallel", "parallel"]} ins(%extracted_slice_700 : tensor<1x1x40x128xf32>) outs(%3996 : tensor<1x40x128xf32>) {
    ^bb0(%in: f32, %out: f32):
      linalg.yield %in : f32
    } -> tensor<1x40x128xf32>
    %3998 = tensor.empty() : tensor<40x128xf32>
    %3999 = linalg.generic {indexing_maps = [#map7, #map3], iterator_types = ["parallel", "parallel"]} ins(%3997 : tensor<1x40x128xf32>) outs(%3998 : tensor<40x128xf32>) {
    ^bb0(%in: f32, %out: f32):
      linalg.yield %in : f32
    } -> tensor<40x128xf32>
    %4000 = tensor.empty() : tensor<1x40x128xf32>
    %4001 = linalg.generic {indexing_maps = [#map6, #map5], iterator_types = ["parallel", "parallel", "parallel"]} ins(%extracted_slice_703 : tensor<1x1x40x128xf32>) outs(%4000 : tensor<1x40x128xf32>) {
    ^bb0(%in: f32, %out: f32):
      linalg.yield %in : f32
    } -> tensor<1x40x128xf32>
    %4002 = tensor.empty() : tensor<40x128xf32>
    %4003 = linalg.generic {indexing_maps = [#map7, #map3], iterator_types = ["parallel", "parallel"]} ins(%4001 : tensor<1x40x128xf32>) outs(%4002 : tensor<40x128xf32>) {
    ^bb0(%in: f32, %out: f32):
      linalg.yield %in : f32
    } -> tensor<40x128xf32>
    %4004 = tensor.empty() : tensor<1x40x128xf32>
    %4005 = linalg.generic {indexing_maps = [#map2, #map5], iterator_types = ["parallel", "parallel", "parallel"]} ins(%2 : tensor<1x40xi64>) outs(%4004 : tensor<1x40x128xf32>) {
    ^bb0(%in: i64, %out: f32):
      %4239 = arith.index_cast %in : i64 to index
      %4240 = linalg.index 2 : index
      %extracted = tensor.extract %3999[%4239, %4240] : tensor<40x128xf32>
      linalg.yield %extracted : f32
    } -> tensor<1x40x128xf32>
    %4006 = tosa.reshape %4005 {new_shape = array<i64: 1, 1, 40, 128>} : (tensor<1x40x128xf32>) -> tensor<1x1x40x128xf32>
    %4007 = tensor.empty() : tensor<1x40x128xf32>
    %4008 = linalg.generic {indexing_maps = [#map2, #map5], iterator_types = ["parallel", "parallel", "parallel"]} ins(%2 : tensor<1x40xi64>) outs(%4007 : tensor<1x40x128xf32>) {
    ^bb0(%in: i64, %out: f32):
      %4239 = arith.index_cast %in : i64 to index
      %4240 = linalg.index 2 : index
      %extracted = tensor.extract %4003[%4239, %4240] : tensor<40x128xf32>
      linalg.yield %extracted : f32
    } -> tensor<1x40x128xf32>
    %4009 = tosa.reshape %4008 {new_shape = array<i64: 1, 1, 40, 128>} : (tensor<1x40x128xf32>) -> tensor<1x1x40x128xf32>
    %4010 = tosa.mul %3989, %4006 {shift = 0 : i8} : (tensor<1x32x40x128xf32>, tensor<1x1x40x128xf32>) -> tensor<1x32x40x128xf32>
    %extracted_slice_704 = tensor.extract_slice %3989[0, 0, 0, 0] [1, 32, 40, 64] [1, 1, 1, 1] : tensor<1x32x40x128xf32> to tensor<1x32x40x64xf32>
    %extracted_slice_705 = tensor.extract_slice %3989[0, 0, 0, 64] [1, 32, 40, 64] [1, 1, 1, 1] : tensor<1x32x40x128xf32> to tensor<1x32x40x64xf32>
    %4011 = tensor.empty() : tensor<1x32x40x64xf32>
    %4012 = linalg.negf ins(%extracted_slice_705 : tensor<1x32x40x64xf32>) outs(%4011 : tensor<1x32x40x64xf32>) -> tensor<1x32x40x64xf32>
    %4013 = tensor.empty() : tensor<1x32x40x128xf32>
    %inserted_slice_706 = tensor.insert_slice %4012 into %4013[0, 0, 0, 0] [1, 32, 40, 64] [1, 1, 1, 1] : tensor<1x32x40x64xf32> into tensor<1x32x40x128xf32>
    %inserted_slice_707 = tensor.insert_slice %extracted_slice_704 into %inserted_slice_706[0, 0, 0, 64] [1, 32, 40, 64] [1, 1, 1, 1] : tensor<1x32x40x64xf32> into tensor<1x32x40x128xf32>
    %4014 = tosa.mul %inserted_slice_707, %4009 {shift = 0 : i8} : (tensor<1x32x40x128xf32>, tensor<1x1x40x128xf32>) -> tensor<1x32x40x128xf32>
    %4015 = tosa.add %4010, %4014 : (tensor<1x32x40x128xf32>, tensor<1x32x40x128xf32>) -> tensor<1x32x40x128xf32>
    %4016 = tosa.mul %3992, %4006 {shift = 0 : i8} : (tensor<1x32x40x128xf32>, tensor<1x1x40x128xf32>) -> tensor<1x32x40x128xf32>
    %extracted_slice_708 = tensor.extract_slice %3992[0, 0, 0, 0] [1, 32, 40, 64] [1, 1, 1, 1] : tensor<1x32x40x128xf32> to tensor<1x32x40x64xf32>
    %extracted_slice_709 = tensor.extract_slice %3992[0, 0, 0, 64] [1, 32, 40, 64] [1, 1, 1, 1] : tensor<1x32x40x128xf32> to tensor<1x32x40x64xf32>
    %4017 = tensor.empty() : tensor<1x32x40x64xf32>
    %4018 = linalg.negf ins(%extracted_slice_709 : tensor<1x32x40x64xf32>) outs(%4017 : tensor<1x32x40x64xf32>) -> tensor<1x32x40x64xf32>
    %4019 = tensor.empty() : tensor<1x32x40x128xf32>
    %inserted_slice_710 = tensor.insert_slice %4018 into %4019[0, 0, 0, 0] [1, 32, 40, 64] [1, 1, 1, 1] : tensor<1x32x40x64xf32> into tensor<1x32x40x128xf32>
    %inserted_slice_711 = tensor.insert_slice %extracted_slice_708 into %inserted_slice_710[0, 0, 0, 64] [1, 32, 40, 64] [1, 1, 1, 1] : tensor<1x32x40x64xf32> into tensor<1x32x40x128xf32>
    %4020 = tosa.mul %inserted_slice_711, %4009 {shift = 0 : i8} : (tensor<1x32x40x128xf32>, tensor<1x1x40x128xf32>) -> tensor<1x32x40x128xf32>
    %4021 = tosa.add %4016, %4020 : (tensor<1x32x40x128xf32>, tensor<1x32x40x128xf32>) -> tensor<1x32x40x128xf32>
    %4022 = "tosa.const"() <{value = dense<[0, 1, 3, 2]> : tensor<4xi32>}> : () -> tensor<4xi32>
    %4023 = tosa.transpose %4021, %4022 : (tensor<1x32x40x128xf32>, tensor<4xi32>) -> tensor<1x32x128x40xf32>
    %4024 = "tosa.const"() <{value = dense<0.000000e+00> : tensor<1x32x40x128xf32>}> : () -> tensor<1x32x40x128xf32>
    %4025 = tosa.add %4015, %4024 : (tensor<1x32x40x128xf32>, tensor<1x32x40x128xf32>) -> tensor<1x32x40x128xf32>
    %4026 = tosa.reshape %4025 {new_shape = array<i64: 32, 40, 128>} : (tensor<1x32x40x128xf32>) -> tensor<32x40x128xf32>
    %4027 = "tosa.const"() <{value = dense<0.000000e+00> : tensor<1x32x128x40xf32>}> : () -> tensor<1x32x128x40xf32>
    %4028 = tosa.add %4023, %4027 : (tensor<1x32x128x40xf32>, tensor<1x32x128x40xf32>) -> tensor<1x32x128x40xf32>
    %4029 = tosa.reshape %4028 {new_shape = array<i64: 32, 128, 40>} : (tensor<1x32x128x40xf32>) -> tensor<32x128x40xf32>
    %4030 = tosa.matmul %4026, %4029 : (tensor<32x40x128xf32>, tensor<32x128x40xf32>) -> tensor<32x40x40xf32>
    %4031 = tosa.reshape %4030 {new_shape = array<i64: 1, 32, 40, 40>} : (tensor<32x40x40xf32>) -> tensor<1x32x40x40xf32>
    %4032 = "tosa.const"() <{value = dense<11.3137083> : tensor<1x32x40x40xf32>}> : () -> tensor<1x32x40x40xf32>
    %4033 = tosa.reciprocal %4032 : (tensor<1x32x40x40xf32>) -> tensor<1x32x40x40xf32>
    %4034 = tosa.mul %4031, %4033 {shift = 0 : i8} : (tensor<1x32x40x40xf32>, tensor<1x32x40x40xf32>) -> tensor<1x32x40x40xf32>
    %4035 = tosa.add %4034, %29 : (tensor<1x32x40x40xf32>, tensor<1x1x40x40xf32>) -> tensor<1x32x40x40xf32>
    %4036 = tosa.reduce_max %4035 {axis = 3 : i32} : (tensor<1x32x40x40xf32>) -> tensor<1x32x40x1xf32>
    %4037 = tosa.sub %4035, %4036 : (tensor<1x32x40x40xf32>, tensor<1x32x40x1xf32>) -> tensor<1x32x40x40xf32>
    %4038 = tosa.exp %4037 : (tensor<1x32x40x40xf32>) -> tensor<1x32x40x40xf32>
    %4039 = tosa.reduce_sum %4038 {axis = 3 : i32} : (tensor<1x32x40x40xf32>) -> tensor<1x32x40x1xf32>
    %4040 = tosa.reciprocal %4039 : (tensor<1x32x40x1xf32>) -> tensor<1x32x40x1xf32>
    %4041 = tosa.mul %4038, %4040 {shift = 0 : i8} : (tensor<1x32x40x40xf32>, tensor<1x32x40x1xf32>) -> tensor<1x32x40x40xf32>
    %4042 = "tosa.const"() <{value = dense<0.000000e+00> : tensor<1x32x40x40xf32>}> : () -> tensor<1x32x40x40xf32>
    %4043 = tosa.add %4041, %4042 : (tensor<1x32x40x40xf32>, tensor<1x32x40x40xf32>) -> tensor<1x32x40x40xf32>
    %4044 = tosa.reshape %4043 {new_shape = array<i64: 32, 40, 40>} : (tensor<1x32x40x40xf32>) -> tensor<32x40x40xf32>
    %4045 = "tosa.const"() <{value = dense<0.000000e+00> : tensor<1x32x40x128xf32>}> : () -> tensor<1x32x40x128xf32>
    %4046 = tosa.add %3995, %4045 : (tensor<1x32x40x128xf32>, tensor<1x32x40x128xf32>) -> tensor<1x32x40x128xf32>
    %4047 = tosa.reshape %4046 {new_shape = array<i64: 32, 40, 128>} : (tensor<1x32x40x128xf32>) -> tensor<32x40x128xf32>
    %4048 = tosa.matmul %4044, %4047 : (tensor<32x40x40xf32>, tensor<32x40x128xf32>) -> tensor<32x40x128xf32>
    %4049 = tosa.reshape %4048 {new_shape = array<i64: 1, 32, 40, 128>} : (tensor<32x40x128xf32>) -> tensor<1x32x40x128xf32>
    %4050 = "tosa.const"() <{value = dense<[0, 2, 1, 3]> : tensor<4xi32>}> : () -> tensor<4xi32>
    %4051 = tosa.transpose %4049, %4050 : (tensor<1x32x40x128xf32>, tensor<4xi32>) -> tensor<1x40x32x128xf32>
    %4052 = tosa.identity %4051 : (tensor<1x40x32x128xf32>) -> tensor<1x40x32x128xf32>
    %4053 = tosa.reshape %4052 {new_shape = array<i64: 1, 40, 4096>} : (tensor<1x40x32x128xf32>) -> tensor<1x40x4096xf32>
    %4054 = "tosa.const"() <{value = dense<[1, 0]> : tensor<2xi32>}> : () -> tensor<2xi32>
    %4055 = tosa.transpose %arg338, %4054 : (tensor<4096x4096xf32>, tensor<2xi32>) -> tensor<4096x4096xf32>
    %4056 = tosa.reshape %4053 {new_shape = array<i64: 40, 4096>} : (tensor<1x40x4096xf32>) -> tensor<40x4096xf32>
    %cst_712 = arith.constant dense<0.000000e+00> : tensor<40x4096xf32>
    %4057 = linalg.matmul {cast = #linalg.type_fn<cast_signed>} ins(%4056, %4055 : tensor<40x4096xf32>, tensor<4096x4096xf32>) outs(%cst_712 : tensor<40x4096xf32>) -> tensor<40x4096xf32>
    %4058 = tosa.reshape %4057 {new_shape = array<i64: 1, 40, 4096>} : (tensor<40x4096xf32>) -> tensor<1x40x4096xf32>
    %4059 = tosa.add %3959, %4058 : (tensor<1x40x4096xf32>, tensor<1x40x4096xf32>) -> tensor<1x40x4096xf32>
    %4060 = tensor.empty() : tensor<1x40x4096xf32>
    %c2_i32_713 = arith.constant 2 : i32
    %4061 = linalg.generic {indexing_maps = [#map5, #map5], iterator_types = ["parallel", "parallel", "parallel"]} ins(%4059 : tensor<1x40x4096xf32>) outs(%4060 : tensor<1x40x4096xf32>) {
    ^bb0(%in: f32, %out: f32):
      %4239 = math.fpowi %in, %c2_i32_713 : f32, i32
      linalg.yield %4239 : f32
    } -> tensor<1x40x4096xf32>
    %4062 = tosa.reduce_sum %4061 {axis = 2 : i32} : (tensor<1x40x4096xf32>) -> tensor<1x40x1xf32>
    %4063 = "tosa.const"() <{value = dense<4.096000e+03> : tensor<1xf32>}> : () -> tensor<1xf32>
    %4064 = tosa.reciprocal %4063 : (tensor<1xf32>) -> tensor<1xf32>
    %4065 = tosa.mul %4064, %4062 {shift = 0 : i8} : (tensor<1xf32>, tensor<1x40x1xf32>) -> tensor<1x40x1xf32>
    %4066 = "tosa.const"() <{value = dense<9.99999997E-7> : tensor<1x40x1xf32>}> : () -> tensor<1x40x1xf32>
    %4067 = tosa.add %4065, %4066 : (tensor<1x40x1xf32>, tensor<1x40x1xf32>) -> tensor<1x40x1xf32>
    %4068 = tosa.rsqrt %4067 : (tensor<1x40x1xf32>) -> tensor<1x40x1xf32>
    %4069 = tosa.mul %4059, %4068 {shift = 0 : i8} : (tensor<1x40x4096xf32>, tensor<1x40x1xf32>) -> tensor<1x40x4096xf32>
    %4070 = tosa.reshape %arg339 {new_shape = array<i64: 1, 1, 4096>} : (tensor<4096xf32>) -> tensor<1x1x4096xf32>
    %4071 = tosa.mul %4070, %4069 {shift = 0 : i8} : (tensor<1x1x4096xf32>, tensor<1x40x4096xf32>) -> tensor<1x40x4096xf32>
    %4072 = "tosa.const"() <{value = dense<[1, 0]> : tensor<2xi32>}> : () -> tensor<2xi32>
    %4073 = tosa.transpose %arg340, %4072 : (tensor<11008x4096xf32>, tensor<2xi32>) -> tensor<4096x11008xf32>
    %4074 = tosa.reshape %4071 {new_shape = array<i64: 40, 4096>} : (tensor<1x40x4096xf32>) -> tensor<40x4096xf32>
    %cst_714 = arith.constant dense<0.000000e+00> : tensor<40x11008xf32>
    %4075 = linalg.matmul {cast = #linalg.type_fn<cast_signed>} ins(%4074, %4073 : tensor<40x4096xf32>, tensor<4096x11008xf32>) outs(%cst_714 : tensor<40x11008xf32>) -> tensor<40x11008xf32>
    %4076 = tosa.reshape %4075 {new_shape = array<i64: 1, 40, 11008>} : (tensor<40x11008xf32>) -> tensor<1x40x11008xf32>
    %4077 = tosa.sigmoid %4076 : (tensor<1x40x11008xf32>) -> tensor<1x40x11008xf32>
    %4078 = tosa.mul %4076, %4077 {shift = 0 : i8} : (tensor<1x40x11008xf32>, tensor<1x40x11008xf32>) -> tensor<1x40x11008xf32>
    %4079 = "tosa.const"() <{value = dense<[1, 0]> : tensor<2xi32>}> : () -> tensor<2xi32>
    %4080 = tosa.transpose %arg341, %4079 : (tensor<11008x4096xf32>, tensor<2xi32>) -> tensor<4096x11008xf32>
    %4081 = tosa.reshape %4071 {new_shape = array<i64: 40, 4096>} : (tensor<1x40x4096xf32>) -> tensor<40x4096xf32>
    %cst_715 = arith.constant dense<0.000000e+00> : tensor<40x11008xf32>
    %4082 = linalg.matmul {cast = #linalg.type_fn<cast_signed>} ins(%4081, %4080 : tensor<40x4096xf32>, tensor<4096x11008xf32>) outs(%cst_715 : tensor<40x11008xf32>) -> tensor<40x11008xf32>
    %4083 = tosa.reshape %4082 {new_shape = array<i64: 1, 40, 11008>} : (tensor<40x11008xf32>) -> tensor<1x40x11008xf32>
    %4084 = tosa.mul %4078, %4083 {shift = 0 : i8} : (tensor<1x40x11008xf32>, tensor<1x40x11008xf32>) -> tensor<1x40x11008xf32>
    %4085 = "tosa.const"() <{value = dense<[1, 0]> : tensor<2xi32>}> : () -> tensor<2xi32>
    %4086 = tosa.transpose %arg342, %4085 : (tensor<4096x11008xf32>, tensor<2xi32>) -> tensor<11008x4096xf32>
    %4087 = tosa.reshape %4084 {new_shape = array<i64: 40, 11008>} : (tensor<1x40x11008xf32>) -> tensor<40x11008xf32>
    %cst_716 = arith.constant dense<0.000000e+00> : tensor<40x4096xf32>
    %4088 = linalg.matmul {cast = #linalg.type_fn<cast_signed>} ins(%4087, %4086 : tensor<40x11008xf32>, tensor<11008x4096xf32>) outs(%cst_716 : tensor<40x4096xf32>) -> tensor<40x4096xf32>
    %4089 = tosa.reshape %4088 {new_shape = array<i64: 1, 40, 4096>} : (tensor<40x4096xf32>) -> tensor<1x40x4096xf32>
    %4090 = tosa.add %4059, %4089 : (tensor<1x40x4096xf32>, tensor<1x40x4096xf32>) -> tensor<1x40x4096xf32>
    %4091 = tensor.empty() : tensor<1x40x4096xf32>
    %c2_i32_717 = arith.constant 2 : i32
    %4092 = linalg.generic {indexing_maps = [#map5, #map5], iterator_types = ["parallel", "parallel", "parallel"]} ins(%4090 : tensor<1x40x4096xf32>) outs(%4091 : tensor<1x40x4096xf32>) {
    ^bb0(%in: f32, %out: f32):
      %4239 = math.fpowi %in, %c2_i32_717 : f32, i32
      linalg.yield %4239 : f32
    } -> tensor<1x40x4096xf32>
    %4093 = tosa.reduce_sum %4092 {axis = 2 : i32} : (tensor<1x40x4096xf32>) -> tensor<1x40x1xf32>
    %4094 = "tosa.const"() <{value = dense<4.096000e+03> : tensor<1xf32>}> : () -> tensor<1xf32>
    %4095 = tosa.reciprocal %4094 : (tensor<1xf32>) -> tensor<1xf32>
    %4096 = tosa.mul %4095, %4093 {shift = 0 : i8} : (tensor<1xf32>, tensor<1x40x1xf32>) -> tensor<1x40x1xf32>
    %4097 = "tosa.const"() <{value = dense<9.99999997E-7> : tensor<1x40x1xf32>}> : () -> tensor<1x40x1xf32>
    %4098 = tosa.add %4096, %4097 : (tensor<1x40x1xf32>, tensor<1x40x1xf32>) -> tensor<1x40x1xf32>
    %4099 = tosa.rsqrt %4098 : (tensor<1x40x1xf32>) -> tensor<1x40x1xf32>
    %4100 = tosa.mul %4090, %4099 {shift = 0 : i8} : (tensor<1x40x4096xf32>, tensor<1x40x1xf32>) -> tensor<1x40x4096xf32>
    %4101 = tosa.reshape %arg343 {new_shape = array<i64: 1, 1, 4096>} : (tensor<4096xf32>) -> tensor<1x1x4096xf32>
    %4102 = tosa.mul %4101, %4100 {shift = 0 : i8} : (tensor<1x1x4096xf32>, tensor<1x40x4096xf32>) -> tensor<1x40x4096xf32>
    %4103 = "tosa.const"() <{value = dense<[1, 0]> : tensor<2xi32>}> : () -> tensor<2xi32>
    %4104 = tosa.transpose %arg344, %4103 : (tensor<4096x4096xf32>, tensor<2xi32>) -> tensor<4096x4096xf32>
    %4105 = tosa.reshape %4102 {new_shape = array<i64: 40, 4096>} : (tensor<1x40x4096xf32>) -> tensor<40x4096xf32>
    %cst_718 = arith.constant dense<0.000000e+00> : tensor<40x4096xf32>
    %4106 = linalg.matmul {cast = #linalg.type_fn<cast_signed>} ins(%4105, %4104 : tensor<40x4096xf32>, tensor<4096x4096xf32>) outs(%cst_718 : tensor<40x4096xf32>) -> tensor<40x4096xf32>
    %4107 = tosa.reshape %4106 {new_shape = array<i64: 1, 40, 4096>} : (tensor<40x4096xf32>) -> tensor<1x40x4096xf32>
    %4108 = "tosa.const"() <{value = dense<[1, 0]> : tensor<2xi32>}> : () -> tensor<2xi32>
    %4109 = tosa.transpose %arg345, %4108 : (tensor<4096x4096xf32>, tensor<2xi32>) -> tensor<4096x4096xf32>
    %4110 = tosa.reshape %4102 {new_shape = array<i64: 40, 4096>} : (tensor<1x40x4096xf32>) -> tensor<40x4096xf32>
    %cst_719 = arith.constant dense<0.000000e+00> : tensor<40x4096xf32>
    %4111 = linalg.matmul {cast = #linalg.type_fn<cast_signed>} ins(%4110, %4109 : tensor<40x4096xf32>, tensor<4096x4096xf32>) outs(%cst_719 : tensor<40x4096xf32>) -> tensor<40x4096xf32>
    %4112 = tosa.reshape %4111 {new_shape = array<i64: 1, 40, 4096>} : (tensor<40x4096xf32>) -> tensor<1x40x4096xf32>
    %4113 = "tosa.const"() <{value = dense<[1, 0]> : tensor<2xi32>}> : () -> tensor<2xi32>
    %4114 = tosa.transpose %arg346, %4113 : (tensor<4096x4096xf32>, tensor<2xi32>) -> tensor<4096x4096xf32>
    %4115 = tosa.reshape %4102 {new_shape = array<i64: 40, 4096>} : (tensor<1x40x4096xf32>) -> tensor<40x4096xf32>
    %cst_720 = arith.constant dense<0.000000e+00> : tensor<40x4096xf32>
    %4116 = linalg.matmul {cast = #linalg.type_fn<cast_signed>} ins(%4115, %4114 : tensor<40x4096xf32>, tensor<4096x4096xf32>) outs(%cst_720 : tensor<40x4096xf32>) -> tensor<40x4096xf32>
    %4117 = tosa.reshape %4116 {new_shape = array<i64: 1, 40, 4096>} : (tensor<40x4096xf32>) -> tensor<1x40x4096xf32>
    %4118 = tosa.reshape %4107 {new_shape = array<i64: 1, 40, 32, 128>} : (tensor<1x40x4096xf32>) -> tensor<1x40x32x128xf32>
    %4119 = "tosa.const"() <{value = dense<[0, 2, 1, 3]> : tensor<4xi32>}> : () -> tensor<4xi32>
    %4120 = tosa.transpose %4118, %4119 : (tensor<1x40x32x128xf32>, tensor<4xi32>) -> tensor<1x32x40x128xf32>
    %4121 = tosa.reshape %4112 {new_shape = array<i64: 1, 40, 32, 128>} : (tensor<1x40x4096xf32>) -> tensor<1x40x32x128xf32>
    %4122 = "tosa.const"() <{value = dense<[0, 2, 1, 3]> : tensor<4xi32>}> : () -> tensor<4xi32>
    %4123 = tosa.transpose %4121, %4122 : (tensor<1x40x32x128xf32>, tensor<4xi32>) -> tensor<1x32x40x128xf32>
    %4124 = tosa.reshape %4117 {new_shape = array<i64: 1, 40, 32, 128>} : (tensor<1x40x4096xf32>) -> tensor<1x40x32x128xf32>
    %4125 = "tosa.const"() <{value = dense<[0, 2, 1, 3]> : tensor<4xi32>}> : () -> tensor<4xi32>
    %4126 = tosa.transpose %4124, %4125 : (tensor<1x40x32x128xf32>, tensor<4xi32>) -> tensor<1x32x40x128xf32>
    %extracted_slice_721 = tensor.extract_slice %arg347[0, 0, 0, 0] [1, 1, 2048, 128] [1, 1, 1, 1] : tensor<1x1x2048x128xf32> to tensor<1x1x2048x128xf32>
    %extracted_slice_722 = tensor.extract_slice %extracted_slice_721[0, 0, 0, 0] [1, 1, 2048, 128] [1, 1, 1, 1] : tensor<1x1x2048x128xf32> to tensor<1x1x2048x128xf32>
    %extracted_slice_723 = tensor.extract_slice %extracted_slice_722[0, 0, 0, 0] [1, 1, 40, 128] [1, 1, 1, 1] : tensor<1x1x2048x128xf32> to tensor<1x1x40x128xf32>
    %extracted_slice_724 = tensor.extract_slice %arg348[0, 0, 0, 0] [1, 1, 2048, 128] [1, 1, 1, 1] : tensor<1x1x2048x128xf32> to tensor<1x1x2048x128xf32>
    %extracted_slice_725 = tensor.extract_slice %extracted_slice_724[0, 0, 0, 0] [1, 1, 2048, 128] [1, 1, 1, 1] : tensor<1x1x2048x128xf32> to tensor<1x1x2048x128xf32>
    %extracted_slice_726 = tensor.extract_slice %extracted_slice_725[0, 0, 0, 0] [1, 1, 40, 128] [1, 1, 1, 1] : tensor<1x1x2048x128xf32> to tensor<1x1x40x128xf32>
    %4127 = tensor.empty() : tensor<1x40x128xf32>
    %4128 = linalg.generic {indexing_maps = [#map6, #map5], iterator_types = ["parallel", "parallel", "parallel"]} ins(%extracted_slice_723 : tensor<1x1x40x128xf32>) outs(%4127 : tensor<1x40x128xf32>) {
    ^bb0(%in: f32, %out: f32):
      linalg.yield %in : f32
    } -> tensor<1x40x128xf32>
    %4129 = tensor.empty() : tensor<40x128xf32>
    %4130 = linalg.generic {indexing_maps = [#map7, #map3], iterator_types = ["parallel", "parallel"]} ins(%4128 : tensor<1x40x128xf32>) outs(%4129 : tensor<40x128xf32>) {
    ^bb0(%in: f32, %out: f32):
      linalg.yield %in : f32
    } -> tensor<40x128xf32>
    %4131 = tensor.empty() : tensor<1x40x128xf32>
    %4132 = linalg.generic {indexing_maps = [#map6, #map5], iterator_types = ["parallel", "parallel", "parallel"]} ins(%extracted_slice_726 : tensor<1x1x40x128xf32>) outs(%4131 : tensor<1x40x128xf32>) {
    ^bb0(%in: f32, %out: f32):
      linalg.yield %in : f32
    } -> tensor<1x40x128xf32>
    %4133 = tensor.empty() : tensor<40x128xf32>
    %4134 = linalg.generic {indexing_maps = [#map7, #map3], iterator_types = ["parallel", "parallel"]} ins(%4132 : tensor<1x40x128xf32>) outs(%4133 : tensor<40x128xf32>) {
    ^bb0(%in: f32, %out: f32):
      linalg.yield %in : f32
    } -> tensor<40x128xf32>
    %4135 = tensor.empty() : tensor<1x40x128xf32>
    %4136 = linalg.generic {indexing_maps = [#map2, #map5], iterator_types = ["parallel", "parallel", "parallel"]} ins(%2 : tensor<1x40xi64>) outs(%4135 : tensor<1x40x128xf32>) {
    ^bb0(%in: i64, %out: f32):
      %4239 = arith.index_cast %in : i64 to index
      %4240 = linalg.index 2 : index
      %extracted = tensor.extract %4130[%4239, %4240] : tensor<40x128xf32>
      linalg.yield %extracted : f32
    } -> tensor<1x40x128xf32>
    %4137 = tosa.reshape %4136 {new_shape = array<i64: 1, 1, 40, 128>} : (tensor<1x40x128xf32>) -> tensor<1x1x40x128xf32>
    %4138 = tensor.empty() : tensor<1x40x128xf32>
    %4139 = linalg.generic {indexing_maps = [#map2, #map5], iterator_types = ["parallel", "parallel", "parallel"]} ins(%2 : tensor<1x40xi64>) outs(%4138 : tensor<1x40x128xf32>) {
    ^bb0(%in: i64, %out: f32):
      %4239 = arith.index_cast %in : i64 to index
      %4240 = linalg.index 2 : index
      %extracted = tensor.extract %4134[%4239, %4240] : tensor<40x128xf32>
      linalg.yield %extracted : f32
    } -> tensor<1x40x128xf32>
    %4140 = tosa.reshape %4139 {new_shape = array<i64: 1, 1, 40, 128>} : (tensor<1x40x128xf32>) -> tensor<1x1x40x128xf32>
    %4141 = tosa.mul %4120, %4137 {shift = 0 : i8} : (tensor<1x32x40x128xf32>, tensor<1x1x40x128xf32>) -> tensor<1x32x40x128xf32>
    %extracted_slice_727 = tensor.extract_slice %4120[0, 0, 0, 0] [1, 32, 40, 64] [1, 1, 1, 1] : tensor<1x32x40x128xf32> to tensor<1x32x40x64xf32>
    %extracted_slice_728 = tensor.extract_slice %4120[0, 0, 0, 64] [1, 32, 40, 64] [1, 1, 1, 1] : tensor<1x32x40x128xf32> to tensor<1x32x40x64xf32>
    %4142 = tensor.empty() : tensor<1x32x40x64xf32>
    %4143 = linalg.negf ins(%extracted_slice_728 : tensor<1x32x40x64xf32>) outs(%4142 : tensor<1x32x40x64xf32>) -> tensor<1x32x40x64xf32>
    %4144 = tensor.empty() : tensor<1x32x40x128xf32>
    %inserted_slice_729 = tensor.insert_slice %4143 into %4144[0, 0, 0, 0] [1, 32, 40, 64] [1, 1, 1, 1] : tensor<1x32x40x64xf32> into tensor<1x32x40x128xf32>
    %inserted_slice_730 = tensor.insert_slice %extracted_slice_727 into %inserted_slice_729[0, 0, 0, 64] [1, 32, 40, 64] [1, 1, 1, 1] : tensor<1x32x40x64xf32> into tensor<1x32x40x128xf32>
    %4145 = tosa.mul %inserted_slice_730, %4140 {shift = 0 : i8} : (tensor<1x32x40x128xf32>, tensor<1x1x40x128xf32>) -> tensor<1x32x40x128xf32>
    %4146 = tosa.add %4141, %4145 : (tensor<1x32x40x128xf32>, tensor<1x32x40x128xf32>) -> tensor<1x32x40x128xf32>
    %4147 = tosa.mul %4123, %4137 {shift = 0 : i8} : (tensor<1x32x40x128xf32>, tensor<1x1x40x128xf32>) -> tensor<1x32x40x128xf32>
    %extracted_slice_731 = tensor.extract_slice %4123[0, 0, 0, 0] [1, 32, 40, 64] [1, 1, 1, 1] : tensor<1x32x40x128xf32> to tensor<1x32x40x64xf32>
    %extracted_slice_732 = tensor.extract_slice %4123[0, 0, 0, 64] [1, 32, 40, 64] [1, 1, 1, 1] : tensor<1x32x40x128xf32> to tensor<1x32x40x64xf32>
    %4148 = tensor.empty() : tensor<1x32x40x64xf32>
    %4149 = linalg.negf ins(%extracted_slice_732 : tensor<1x32x40x64xf32>) outs(%4148 : tensor<1x32x40x64xf32>) -> tensor<1x32x40x64xf32>
    %4150 = tensor.empty() : tensor<1x32x40x128xf32>
    %inserted_slice_733 = tensor.insert_slice %4149 into %4150[0, 0, 0, 0] [1, 32, 40, 64] [1, 1, 1, 1] : tensor<1x32x40x64xf32> into tensor<1x32x40x128xf32>
    %inserted_slice_734 = tensor.insert_slice %extracted_slice_731 into %inserted_slice_733[0, 0, 0, 64] [1, 32, 40, 64] [1, 1, 1, 1] : tensor<1x32x40x64xf32> into tensor<1x32x40x128xf32>
    %4151 = tosa.mul %inserted_slice_734, %4140 {shift = 0 : i8} : (tensor<1x32x40x128xf32>, tensor<1x1x40x128xf32>) -> tensor<1x32x40x128xf32>
    %4152 = tosa.add %4147, %4151 : (tensor<1x32x40x128xf32>, tensor<1x32x40x128xf32>) -> tensor<1x32x40x128xf32>
    %4153 = "tosa.const"() <{value = dense<[0, 1, 3, 2]> : tensor<4xi32>}> : () -> tensor<4xi32>
    %4154 = tosa.transpose %4152, %4153 : (tensor<1x32x40x128xf32>, tensor<4xi32>) -> tensor<1x32x128x40xf32>
    %4155 = "tosa.const"() <{value = dense<0.000000e+00> : tensor<1x32x40x128xf32>}> : () -> tensor<1x32x40x128xf32>
    %4156 = tosa.add %4146, %4155 : (tensor<1x32x40x128xf32>, tensor<1x32x40x128xf32>) -> tensor<1x32x40x128xf32>
    %4157 = tosa.reshape %4156 {new_shape = array<i64: 32, 40, 128>} : (tensor<1x32x40x128xf32>) -> tensor<32x40x128xf32>
    %4158 = "tosa.const"() <{value = dense<0.000000e+00> : tensor<1x32x128x40xf32>}> : () -> tensor<1x32x128x40xf32>
    %4159 = tosa.add %4154, %4158 : (tensor<1x32x128x40xf32>, tensor<1x32x128x40xf32>) -> tensor<1x32x128x40xf32>
    %4160 = tosa.reshape %4159 {new_shape = array<i64: 32, 128, 40>} : (tensor<1x32x128x40xf32>) -> tensor<32x128x40xf32>
    %4161 = tosa.matmul %4157, %4160 : (tensor<32x40x128xf32>, tensor<32x128x40xf32>) -> tensor<32x40x40xf32>
    %4162 = tosa.reshape %4161 {new_shape = array<i64: 1, 32, 40, 40>} : (tensor<32x40x40xf32>) -> tensor<1x32x40x40xf32>
    %4163 = "tosa.const"() <{value = dense<11.3137083> : tensor<1x32x40x40xf32>}> : () -> tensor<1x32x40x40xf32>
    %4164 = tosa.reciprocal %4163 : (tensor<1x32x40x40xf32>) -> tensor<1x32x40x40xf32>
    %4165 = tosa.mul %4162, %4164 {shift = 0 : i8} : (tensor<1x32x40x40xf32>, tensor<1x32x40x40xf32>) -> tensor<1x32x40x40xf32>
    %4166 = tosa.add %4165, %29 : (tensor<1x32x40x40xf32>, tensor<1x1x40x40xf32>) -> tensor<1x32x40x40xf32>
    %4167 = tosa.reduce_max %4166 {axis = 3 : i32} : (tensor<1x32x40x40xf32>) -> tensor<1x32x40x1xf32>
    %4168 = tosa.sub %4166, %4167 : (tensor<1x32x40x40xf32>, tensor<1x32x40x1xf32>) -> tensor<1x32x40x40xf32>
    %4169 = tosa.exp %4168 : (tensor<1x32x40x40xf32>) -> tensor<1x32x40x40xf32>
    %4170 = tosa.reduce_sum %4169 {axis = 3 : i32} : (tensor<1x32x40x40xf32>) -> tensor<1x32x40x1xf32>
    %4171 = tosa.reciprocal %4170 : (tensor<1x32x40x1xf32>) -> tensor<1x32x40x1xf32>
    %4172 = tosa.mul %4169, %4171 {shift = 0 : i8} : (tensor<1x32x40x40xf32>, tensor<1x32x40x1xf32>) -> tensor<1x32x40x40xf32>
    %4173 = "tosa.const"() <{value = dense<0.000000e+00> : tensor<1x32x40x40xf32>}> : () -> tensor<1x32x40x40xf32>
    %4174 = tosa.add %4172, %4173 : (tensor<1x32x40x40xf32>, tensor<1x32x40x40xf32>) -> tensor<1x32x40x40xf32>
    %4175 = tosa.reshape %4174 {new_shape = array<i64: 32, 40, 40>} : (tensor<1x32x40x40xf32>) -> tensor<32x40x40xf32>
    %4176 = "tosa.const"() <{value = dense<0.000000e+00> : tensor<1x32x40x128xf32>}> : () -> tensor<1x32x40x128xf32>
    %4177 = tosa.add %4126, %4176 : (tensor<1x32x40x128xf32>, tensor<1x32x40x128xf32>) -> tensor<1x32x40x128xf32>
    %4178 = tosa.reshape %4177 {new_shape = array<i64: 32, 40, 128>} : (tensor<1x32x40x128xf32>) -> tensor<32x40x128xf32>
    %4179 = tosa.matmul %4175, %4178 : (tensor<32x40x40xf32>, tensor<32x40x128xf32>) -> tensor<32x40x128xf32>
    %4180 = tosa.reshape %4179 {new_shape = array<i64: 1, 32, 40, 128>} : (tensor<32x40x128xf32>) -> tensor<1x32x40x128xf32>
    %4181 = "tosa.const"() <{value = dense<[0, 2, 1, 3]> : tensor<4xi32>}> : () -> tensor<4xi32>
    %4182 = tosa.transpose %4180, %4181 : (tensor<1x32x40x128xf32>, tensor<4xi32>) -> tensor<1x40x32x128xf32>
    %4183 = tosa.identity %4182 : (tensor<1x40x32x128xf32>) -> tensor<1x40x32x128xf32>
    %4184 = tosa.reshape %4183 {new_shape = array<i64: 1, 40, 4096>} : (tensor<1x40x32x128xf32>) -> tensor<1x40x4096xf32>
    %4185 = "tosa.const"() <{value = dense<[1, 0]> : tensor<2xi32>}> : () -> tensor<2xi32>
    %4186 = tosa.transpose %arg349, %4185 : (tensor<4096x4096xf32>, tensor<2xi32>) -> tensor<4096x4096xf32>
    %4187 = tosa.reshape %4184 {new_shape = array<i64: 40, 4096>} : (tensor<1x40x4096xf32>) -> tensor<40x4096xf32>
    %cst_735 = arith.constant dense<0.000000e+00> : tensor<40x4096xf32>
    %4188 = linalg.matmul {cast = #linalg.type_fn<cast_signed>} ins(%4187, %4186 : tensor<40x4096xf32>, tensor<4096x4096xf32>) outs(%cst_735 : tensor<40x4096xf32>) -> tensor<40x4096xf32>
    %4189 = tosa.reshape %4188 {new_shape = array<i64: 1, 40, 4096>} : (tensor<40x4096xf32>) -> tensor<1x40x4096xf32>
    %4190 = tosa.add %4090, %4189 : (tensor<1x40x4096xf32>, tensor<1x40x4096xf32>) -> tensor<1x40x4096xf32>
    %4191 = tensor.empty() : tensor<1x40x4096xf32>
    %c2_i32_736 = arith.constant 2 : i32
    %4192 = linalg.generic {indexing_maps = [#map5, #map5], iterator_types = ["parallel", "parallel", "parallel"]} ins(%4190 : tensor<1x40x4096xf32>) outs(%4191 : tensor<1x40x4096xf32>) {
    ^bb0(%in: f32, %out: f32):
      %4239 = math.fpowi %in, %c2_i32_736 : f32, i32
      linalg.yield %4239 : f32
    } -> tensor<1x40x4096xf32>
    %4193 = tosa.reduce_sum %4192 {axis = 2 : i32} : (tensor<1x40x4096xf32>) -> tensor<1x40x1xf32>
    %4194 = "tosa.const"() <{value = dense<4.096000e+03> : tensor<1xf32>}> : () -> tensor<1xf32>
    %4195 = tosa.reciprocal %4194 : (tensor<1xf32>) -> tensor<1xf32>
    %4196 = tosa.mul %4195, %4193 {shift = 0 : i8} : (tensor<1xf32>, tensor<1x40x1xf32>) -> tensor<1x40x1xf32>
    %4197 = "tosa.const"() <{value = dense<9.99999997E-7> : tensor<1x40x1xf32>}> : () -> tensor<1x40x1xf32>
    %4198 = tosa.add %4196, %4197 : (tensor<1x40x1xf32>, tensor<1x40x1xf32>) -> tensor<1x40x1xf32>
    %4199 = tosa.rsqrt %4198 : (tensor<1x40x1xf32>) -> tensor<1x40x1xf32>
    %4200 = tosa.mul %4190, %4199 {shift = 0 : i8} : (tensor<1x40x4096xf32>, tensor<1x40x1xf32>) -> tensor<1x40x4096xf32>
    %4201 = tosa.reshape %arg350 {new_shape = array<i64: 1, 1, 4096>} : (tensor<4096xf32>) -> tensor<1x1x4096xf32>
    %4202 = tosa.mul %4201, %4200 {shift = 0 : i8} : (tensor<1x1x4096xf32>, tensor<1x40x4096xf32>) -> tensor<1x40x4096xf32>
    %4203 = "tosa.const"() <{value = dense<[1, 0]> : tensor<2xi32>}> : () -> tensor<2xi32>
    %4204 = tosa.transpose %arg351, %4203 : (tensor<11008x4096xf32>, tensor<2xi32>) -> tensor<4096x11008xf32>
    %4205 = tosa.reshape %4202 {new_shape = array<i64: 40, 4096>} : (tensor<1x40x4096xf32>) -> tensor<40x4096xf32>
    %cst_737 = arith.constant dense<0.000000e+00> : tensor<40x11008xf32>
    %4206 = linalg.matmul {cast = #linalg.type_fn<cast_signed>} ins(%4205, %4204 : tensor<40x4096xf32>, tensor<4096x11008xf32>) outs(%cst_737 : tensor<40x11008xf32>) -> tensor<40x11008xf32>
    %4207 = tosa.reshape %4206 {new_shape = array<i64: 1, 40, 11008>} : (tensor<40x11008xf32>) -> tensor<1x40x11008xf32>
    %4208 = tosa.sigmoid %4207 : (tensor<1x40x11008xf32>) -> tensor<1x40x11008xf32>
    %4209 = tosa.mul %4207, %4208 {shift = 0 : i8} : (tensor<1x40x11008xf32>, tensor<1x40x11008xf32>) -> tensor<1x40x11008xf32>
    %4210 = "tosa.const"() <{value = dense<[1, 0]> : tensor<2xi32>}> : () -> tensor<2xi32>
    %4211 = tosa.transpose %arg352, %4210 : (tensor<11008x4096xf32>, tensor<2xi32>) -> tensor<4096x11008xf32>
    %4212 = tosa.reshape %4202 {new_shape = array<i64: 40, 4096>} : (tensor<1x40x4096xf32>) -> tensor<40x4096xf32>
    %cst_738 = arith.constant dense<0.000000e+00> : tensor<40x11008xf32>
    %4213 = linalg.matmul {cast = #linalg.type_fn<cast_signed>} ins(%4212, %4211 : tensor<40x4096xf32>, tensor<4096x11008xf32>) outs(%cst_738 : tensor<40x11008xf32>) -> tensor<40x11008xf32>
    %4214 = tosa.reshape %4213 {new_shape = array<i64: 1, 40, 11008>} : (tensor<40x11008xf32>) -> tensor<1x40x11008xf32>
    %4215 = tosa.mul %4209, %4214 {shift = 0 : i8} : (tensor<1x40x11008xf32>, tensor<1x40x11008xf32>) -> tensor<1x40x11008xf32>
    %4216 = "tosa.const"() <{value = dense<[1, 0]> : tensor<2xi32>}> : () -> tensor<2xi32>
    %4217 = tosa.transpose %arg353, %4216 : (tensor<4096x11008xf32>, tensor<2xi32>) -> tensor<11008x4096xf32>
    %4218 = tosa.reshape %4215 {new_shape = array<i64: 40, 11008>} : (tensor<1x40x11008xf32>) -> tensor<40x11008xf32>
    %cst_739 = arith.constant dense<0.000000e+00> : tensor<40x4096xf32>
    %4219 = linalg.matmul {cast = #linalg.type_fn<cast_signed>} ins(%4218, %4217 : tensor<40x11008xf32>, tensor<11008x4096xf32>) outs(%cst_739 : tensor<40x4096xf32>) -> tensor<40x4096xf32>
    %4220 = tosa.reshape %4219 {new_shape = array<i64: 1, 40, 4096>} : (tensor<40x4096xf32>) -> tensor<1x40x4096xf32>
    %4221 = tosa.add %4190, %4220 : (tensor<1x40x4096xf32>, tensor<1x40x4096xf32>) -> tensor<1x40x4096xf32>
    %4222 = tensor.empty() : tensor<1x40x4096xf32>
    %c2_i32_740 = arith.constant 2 : i32
    %4223 = linalg.generic {indexing_maps = [#map5, #map5], iterator_types = ["parallel", "parallel", "parallel"]} ins(%4221 : tensor<1x40x4096xf32>) outs(%4222 : tensor<1x40x4096xf32>) {
    ^bb0(%in: f32, %out: f32):
      %4239 = math.fpowi %in, %c2_i32_740 : f32, i32
      linalg.yield %4239 : f32
    } -> tensor<1x40x4096xf32>
    %4224 = tosa.reduce_sum %4223 {axis = 2 : i32} : (tensor<1x40x4096xf32>) -> tensor<1x40x1xf32>
    %4225 = "tosa.const"() <{value = dense<4.096000e+03> : tensor<1xf32>}> : () -> tensor<1xf32>
    %4226 = tosa.reciprocal %4225 : (tensor<1xf32>) -> tensor<1xf32>
    %4227 = tosa.mul %4226, %4224 {shift = 0 : i8} : (tensor<1xf32>, tensor<1x40x1xf32>) -> tensor<1x40x1xf32>
    %4228 = "tosa.const"() <{value = dense<9.99999997E-7> : tensor<1x40x1xf32>}> : () -> tensor<1x40x1xf32>
    %4229 = tosa.add %4227, %4228 : (tensor<1x40x1xf32>, tensor<1x40x1xf32>) -> tensor<1x40x1xf32>
    %4230 = tosa.rsqrt %4229 : (tensor<1x40x1xf32>) -> tensor<1x40x1xf32>
    %4231 = tosa.mul %4221, %4230 {shift = 0 : i8} : (tensor<1x40x4096xf32>, tensor<1x40x1xf32>) -> tensor<1x40x4096xf32>
    %4232 = tosa.reshape %arg354 {new_shape = array<i64: 1, 1, 4096>} : (tensor<4096xf32>) -> tensor<1x1x4096xf32>
    %4233 = tosa.mul %4232, %4231 {shift = 0 : i8} : (tensor<1x1x4096xf32>, tensor<1x40x4096xf32>) -> tensor<1x40x4096xf32>
    %4234 = "tosa.const"() <{value = dense<[1, 0]> : tensor<2xi32>}> : () -> tensor<2xi32>
    %4235 = tosa.transpose %arg355, %4234 : (tensor<32000x4096xf32>, tensor<2xi32>) -> tensor<4096x32000xf32>
    %4236 = tosa.reshape %4233 {new_shape = array<i64: 40, 4096>} : (tensor<1x40x4096xf32>) -> tensor<40x4096xf32>
    %cst_741 = arith.constant dense<0.000000e+00> : tensor<40x32000xf32>
    %4237 = linalg.matmul {cast = #linalg.type_fn<cast_signed>} ins(%4236, %4235 : tensor<40x4096xf32>, tensor<4096x32000xf32>) outs(%cst_741 : tensor<40x32000xf32>) -> tensor<40x32000xf32>
    %4238 = tosa.reshape %4237 {new_shape = array<i64: 1, 40, 32000>} : (tensor<40x32000xf32>) -> tensor<1x40x32000xf32>
    return %4233, %4238 : tensor<1x40x4096xf32>, tensor<1x40x32000xf32>
  }
}

