#map = affine_map<(d0, d1, d2) -> (d1)>
#map1 = affine_map<(d0, d1, d2) -> (d0, d2)>
#map2 = affine_map<(d0, d1, d2) -> (d0, d1)>
#map3 = affine_map<(d0, d1) -> (d0, d1)>
#map4 = affine_map<(d0, d1, d2, d3) -> (d0, d1, d2, d3)>
#map5 = affine_map<(d0, d1, d2) -> (d0, d1, d2)>
#map6 = affine_map<(d0, d1, d2, d3) -> (d0, d1, d2)>
#map7 = affine_map<(d0, d1, d2, d3) -> (d0, d1, d3)>
#map8 = affine_map<(d0, d1) -> (d1, d0)>
#map9 = affine_map<(d0, d1, d2, d3) -> (d0, d2, d1, d3)>
#map10 = affine_map<(d0, d1, d2) -> (d0, 0, d1, d2)>
#map11 = affine_map<(d0, d1) -> (0, d0, d1)>
#map12 = affine_map<(d0, d1, d2, d3) -> (d0, d1, d3, d2)>
#map13 = affine_map<(d0, d1, d2, d3) -> (d0, d1, d2, 0)>
module {
  func.func @forward(%arg0: tensor<6755192832xbf16>, %arg1: tensor<1x40xi64>) -> (tensor<1x40x32000xf32>, tensor<1x40x4096xbf16>) {
    %extracted_slice = tensor.extract_slice %arg0[0] [4096] [1] : tensor<6755192832xbf16> to tensor<4096xbf16>
    %extracted_slice_0 = tensor.extract_slice %arg0[4096] [4096] [1] : tensor<6755192832xbf16> to tensor<4096xbf16>
    %extracted_slice_1 = tensor.extract_slice %arg0[8192] [4096] [1] : tensor<6755192832xbf16> to tensor<4096xbf16>
    %extracted_slice_2 = tensor.extract_slice %arg0[12288] [4096] [1] : tensor<6755192832xbf16> to tensor<4096xbf16>
    %extracted_slice_3 = tensor.extract_slice %arg0[16384] [4096] [1] : tensor<6755192832xbf16> to tensor<4096xbf16>
    %extracted_slice_4 = tensor.extract_slice %arg0[20480] [4096] [1] : tensor<6755192832xbf16> to tensor<4096xbf16>
    %extracted_slice_5 = tensor.extract_slice %arg0[24576] [4096] [1] : tensor<6755192832xbf16> to tensor<4096xbf16>
    %extracted_slice_6 = tensor.extract_slice %arg0[28672] [4096] [1] : tensor<6755192832xbf16> to tensor<4096xbf16>
    %extracted_slice_7 = tensor.extract_slice %arg0[32768] [4096] [1] : tensor<6755192832xbf16> to tensor<4096xbf16>
    %extracted_slice_8 = tensor.extract_slice %arg0[36864] [4096] [1] : tensor<6755192832xbf16> to tensor<4096xbf16>
    %extracted_slice_9 = tensor.extract_slice %arg0[40960] [4096] [1] : tensor<6755192832xbf16> to tensor<4096xbf16>
    %extracted_slice_10 = tensor.extract_slice %arg0[45056] [4096] [1] : tensor<6755192832xbf16> to tensor<4096xbf16>
    %extracted_slice_11 = tensor.extract_slice %arg0[49152] [4096] [1] : tensor<6755192832xbf16> to tensor<4096xbf16>
    %extracted_slice_12 = tensor.extract_slice %arg0[53248] [4096] [1] : tensor<6755192832xbf16> to tensor<4096xbf16>
    %extracted_slice_13 = tensor.extract_slice %arg0[57344] [4096] [1] : tensor<6755192832xbf16> to tensor<4096xbf16>
    %extracted_slice_14 = tensor.extract_slice %arg0[61440] [4096] [1] : tensor<6755192832xbf16> to tensor<4096xbf16>
    %extracted_slice_15 = tensor.extract_slice %arg0[65536] [4096] [1] : tensor<6755192832xbf16> to tensor<4096xbf16>
    %extracted_slice_16 = tensor.extract_slice %arg0[69632] [4096] [1] : tensor<6755192832xbf16> to tensor<4096xbf16>
    %extracted_slice_17 = tensor.extract_slice %arg0[73728] [4096] [1] : tensor<6755192832xbf16> to tensor<4096xbf16>
    %extracted_slice_18 = tensor.extract_slice %arg0[77824] [4096] [1] : tensor<6755192832xbf16> to tensor<4096xbf16>
    %extracted_slice_19 = tensor.extract_slice %arg0[81920] [4096] [1] : tensor<6755192832xbf16> to tensor<4096xbf16>
    %extracted_slice_20 = tensor.extract_slice %arg0[86016] [4096] [1] : tensor<6755192832xbf16> to tensor<4096xbf16>
    %extracted_slice_21 = tensor.extract_slice %arg0[90112] [4096] [1] : tensor<6755192832xbf16> to tensor<4096xbf16>
    %extracted_slice_22 = tensor.extract_slice %arg0[94208] [4096] [1] : tensor<6755192832xbf16> to tensor<4096xbf16>
    %extracted_slice_23 = tensor.extract_slice %arg0[98304] [4096] [1] : tensor<6755192832xbf16> to tensor<4096xbf16>
    %extracted_slice_24 = tensor.extract_slice %arg0[102400] [4096] [1] : tensor<6755192832xbf16> to tensor<4096xbf16>
    %extracted_slice_25 = tensor.extract_slice %arg0[106496] [4096] [1] : tensor<6755192832xbf16> to tensor<4096xbf16>
    %extracted_slice_26 = tensor.extract_slice %arg0[110592] [4096] [1] : tensor<6755192832xbf16> to tensor<4096xbf16>
    %extracted_slice_27 = tensor.extract_slice %arg0[114688] [4096] [1] : tensor<6755192832xbf16> to tensor<4096xbf16>
    %extracted_slice_28 = tensor.extract_slice %arg0[118784] [4096] [1] : tensor<6755192832xbf16> to tensor<4096xbf16>
    %extracted_slice_29 = tensor.extract_slice %arg0[122880] [4096] [1] : tensor<6755192832xbf16> to tensor<4096xbf16>
    %extracted_slice_30 = tensor.extract_slice %arg0[126976] [4096] [1] : tensor<6755192832xbf16> to tensor<4096xbf16>
    %extracted_slice_31 = tensor.extract_slice %arg0[131072] [4096] [1] : tensor<6755192832xbf16> to tensor<4096xbf16>
    %extracted_slice_32 = tensor.extract_slice %arg0[135168] [4096] [1] : tensor<6755192832xbf16> to tensor<4096xbf16>
    %extracted_slice_33 = tensor.extract_slice %arg0[139264] [4096] [1] : tensor<6755192832xbf16> to tensor<4096xbf16>
    %extracted_slice_34 = tensor.extract_slice %arg0[143360] [4096] [1] : tensor<6755192832xbf16> to tensor<4096xbf16>
    %extracted_slice_35 = tensor.extract_slice %arg0[147456] [4096] [1] : tensor<6755192832xbf16> to tensor<4096xbf16>
    %extracted_slice_36 = tensor.extract_slice %arg0[151552] [4096] [1] : tensor<6755192832xbf16> to tensor<4096xbf16>
    %extracted_slice_37 = tensor.extract_slice %arg0[155648] [4096] [1] : tensor<6755192832xbf16> to tensor<4096xbf16>
    %extracted_slice_38 = tensor.extract_slice %arg0[159744] [4096] [1] : tensor<6755192832xbf16> to tensor<4096xbf16>
    %extracted_slice_39 = tensor.extract_slice %arg0[163840] [4096] [1] : tensor<6755192832xbf16> to tensor<4096xbf16>
    %extracted_slice_40 = tensor.extract_slice %arg0[167936] [4096] [1] : tensor<6755192832xbf16> to tensor<4096xbf16>
    %extracted_slice_41 = tensor.extract_slice %arg0[172032] [4096] [1] : tensor<6755192832xbf16> to tensor<4096xbf16>
    %extracted_slice_42 = tensor.extract_slice %arg0[176128] [4096] [1] : tensor<6755192832xbf16> to tensor<4096xbf16>
    %extracted_slice_43 = tensor.extract_slice %arg0[180224] [4096] [1] : tensor<6755192832xbf16> to tensor<4096xbf16>
    %extracted_slice_44 = tensor.extract_slice %arg0[184320] [4096] [1] : tensor<6755192832xbf16> to tensor<4096xbf16>
    %extracted_slice_45 = tensor.extract_slice %arg0[188416] [4096] [1] : tensor<6755192832xbf16> to tensor<4096xbf16>
    %extracted_slice_46 = tensor.extract_slice %arg0[192512] [4096] [1] : tensor<6755192832xbf16> to tensor<4096xbf16>
    %extracted_slice_47 = tensor.extract_slice %arg0[196608] [4096] [1] : tensor<6755192832xbf16> to tensor<4096xbf16>
    %extracted_slice_48 = tensor.extract_slice %arg0[200704] [4096] [1] : tensor<6755192832xbf16> to tensor<4096xbf16>
    %extracted_slice_49 = tensor.extract_slice %arg0[204800] [4096] [1] : tensor<6755192832xbf16> to tensor<4096xbf16>
    %extracted_slice_50 = tensor.extract_slice %arg0[208896] [4096] [1] : tensor<6755192832xbf16> to tensor<4096xbf16>
    %extracted_slice_51 = tensor.extract_slice %arg0[212992] [4096] [1] : tensor<6755192832xbf16> to tensor<4096xbf16>
    %extracted_slice_52 = tensor.extract_slice %arg0[217088] [4096] [1] : tensor<6755192832xbf16> to tensor<4096xbf16>
    %extracted_slice_53 = tensor.extract_slice %arg0[221184] [4096] [1] : tensor<6755192832xbf16> to tensor<4096xbf16>
    %extracted_slice_54 = tensor.extract_slice %arg0[225280] [4096] [1] : tensor<6755192832xbf16> to tensor<4096xbf16>
    %extracted_slice_55 = tensor.extract_slice %arg0[229376] [4096] [1] : tensor<6755192832xbf16> to tensor<4096xbf16>
    %extracted_slice_56 = tensor.extract_slice %arg0[233472] [4096] [1] : tensor<6755192832xbf16> to tensor<4096xbf16>
    %extracted_slice_57 = tensor.extract_slice %arg0[237568] [4096] [1] : tensor<6755192832xbf16> to tensor<4096xbf16>
    %extracted_slice_58 = tensor.extract_slice %arg0[241664] [4096] [1] : tensor<6755192832xbf16> to tensor<4096xbf16>
    %extracted_slice_59 = tensor.extract_slice %arg0[245760] [4096] [1] : tensor<6755192832xbf16> to tensor<4096xbf16>
    %extracted_slice_60 = tensor.extract_slice %arg0[249856] [4096] [1] : tensor<6755192832xbf16> to tensor<4096xbf16>
    %extracted_slice_61 = tensor.extract_slice %arg0[253952] [4096] [1] : tensor<6755192832xbf16> to tensor<4096xbf16>
    %extracted_slice_62 = tensor.extract_slice %arg0[258048] [4096] [1] : tensor<6755192832xbf16> to tensor<4096xbf16>
    %extracted_slice_63 = tensor.extract_slice %arg0[262144] [4096] [1] : tensor<6755192832xbf16> to tensor<4096xbf16>
    %extracted_slice_64 = tensor.extract_slice %arg0[266240] [131072000] [1] : tensor<6755192832xbf16> to tensor<131072000xbf16>
    %expanded = tensor.expand_shape %extracted_slice_64 [[0, 1]] : tensor<131072000xbf16> into tensor<32000x4096xbf16>
    %extracted_slice_65 = tensor.extract_slice %arg0[131338240] [16777216] [1] : tensor<6755192832xbf16> to tensor<16777216xbf16>
    %expanded_66 = tensor.expand_shape %extracted_slice_65 [[0, 1]] : tensor<16777216xbf16> into tensor<4096x4096xbf16>
    %extracted_slice_67 = tensor.extract_slice %arg0[148115456] [16777216] [1] : tensor<6755192832xbf16> to tensor<16777216xbf16>
    %expanded_68 = tensor.expand_shape %extracted_slice_67 [[0, 1]] : tensor<16777216xbf16> into tensor<4096x4096xbf16>
    %extracted_slice_69 = tensor.extract_slice %arg0[164892672] [16777216] [1] : tensor<6755192832xbf16> to tensor<16777216xbf16>
    %expanded_70 = tensor.expand_shape %extracted_slice_69 [[0, 1]] : tensor<16777216xbf16> into tensor<4096x4096xbf16>
    %extracted_slice_71 = tensor.extract_slice %arg0[181669888] [16777216] [1] : tensor<6755192832xbf16> to tensor<16777216xbf16>
    %expanded_72 = tensor.expand_shape %extracted_slice_71 [[0, 1]] : tensor<16777216xbf16> into tensor<4096x4096xbf16>
    %extracted_slice_73 = tensor.extract_slice %arg0[198447104] [45088768] [1] : tensor<6755192832xbf16> to tensor<45088768xbf16>
    %expanded_74 = tensor.expand_shape %extracted_slice_73 [[0, 1]] : tensor<45088768xbf16> into tensor<11008x4096xbf16>
    %extracted_slice_75 = tensor.extract_slice %arg0[243535872] [45088768] [1] : tensor<6755192832xbf16> to tensor<45088768xbf16>
    %expanded_76 = tensor.expand_shape %extracted_slice_75 [[0, 1]] : tensor<45088768xbf16> into tensor<11008x4096xbf16>
    %extracted_slice_77 = tensor.extract_slice %arg0[288624640] [45088768] [1] : tensor<6755192832xbf16> to tensor<45088768xbf16>
    %expanded_78 = tensor.expand_shape %extracted_slice_77 [[0, 1]] : tensor<45088768xbf16> into tensor<4096x11008xbf16>
    %extracted_slice_79 = tensor.extract_slice %arg0[333713408] [16777216] [1] : tensor<6755192832xbf16> to tensor<16777216xbf16>
    %expanded_80 = tensor.expand_shape %extracted_slice_79 [[0, 1]] : tensor<16777216xbf16> into tensor<4096x4096xbf16>
    %extracted_slice_81 = tensor.extract_slice %arg0[350490624] [16777216] [1] : tensor<6755192832xbf16> to tensor<16777216xbf16>
    %expanded_82 = tensor.expand_shape %extracted_slice_81 [[0, 1]] : tensor<16777216xbf16> into tensor<4096x4096xbf16>
    %extracted_slice_83 = tensor.extract_slice %arg0[367267840] [16777216] [1] : tensor<6755192832xbf16> to tensor<16777216xbf16>
    %expanded_84 = tensor.expand_shape %extracted_slice_83 [[0, 1]] : tensor<16777216xbf16> into tensor<4096x4096xbf16>
    %extracted_slice_85 = tensor.extract_slice %arg0[384045056] [16777216] [1] : tensor<6755192832xbf16> to tensor<16777216xbf16>
    %expanded_86 = tensor.expand_shape %extracted_slice_85 [[0, 1]] : tensor<16777216xbf16> into tensor<4096x4096xbf16>
    %extracted_slice_87 = tensor.extract_slice %arg0[400822272] [45088768] [1] : tensor<6755192832xbf16> to tensor<45088768xbf16>
    %expanded_88 = tensor.expand_shape %extracted_slice_87 [[0, 1]] : tensor<45088768xbf16> into tensor<11008x4096xbf16>
    %extracted_slice_89 = tensor.extract_slice %arg0[445911040] [45088768] [1] : tensor<6755192832xbf16> to tensor<45088768xbf16>
    %expanded_90 = tensor.expand_shape %extracted_slice_89 [[0, 1]] : tensor<45088768xbf16> into tensor<11008x4096xbf16>
    %extracted_slice_91 = tensor.extract_slice %arg0[490999808] [45088768] [1] : tensor<6755192832xbf16> to tensor<45088768xbf16>
    %expanded_92 = tensor.expand_shape %extracted_slice_91 [[0, 1]] : tensor<45088768xbf16> into tensor<4096x11008xbf16>
    %extracted_slice_93 = tensor.extract_slice %arg0[536088576] [16777216] [1] : tensor<6755192832xbf16> to tensor<16777216xbf16>
    %expanded_94 = tensor.expand_shape %extracted_slice_93 [[0, 1]] : tensor<16777216xbf16> into tensor<4096x4096xbf16>
    %extracted_slice_95 = tensor.extract_slice %arg0[552865792] [16777216] [1] : tensor<6755192832xbf16> to tensor<16777216xbf16>
    %expanded_96 = tensor.expand_shape %extracted_slice_95 [[0, 1]] : tensor<16777216xbf16> into tensor<4096x4096xbf16>
    %extracted_slice_97 = tensor.extract_slice %arg0[569643008] [16777216] [1] : tensor<6755192832xbf16> to tensor<16777216xbf16>
    %expanded_98 = tensor.expand_shape %extracted_slice_97 [[0, 1]] : tensor<16777216xbf16> into tensor<4096x4096xbf16>
    %extracted_slice_99 = tensor.extract_slice %arg0[586420224] [16777216] [1] : tensor<6755192832xbf16> to tensor<16777216xbf16>
    %expanded_100 = tensor.expand_shape %extracted_slice_99 [[0, 1]] : tensor<16777216xbf16> into tensor<4096x4096xbf16>
    %extracted_slice_101 = tensor.extract_slice %arg0[603197440] [45088768] [1] : tensor<6755192832xbf16> to tensor<45088768xbf16>
    %expanded_102 = tensor.expand_shape %extracted_slice_101 [[0, 1]] : tensor<45088768xbf16> into tensor<11008x4096xbf16>
    %extracted_slice_103 = tensor.extract_slice %arg0[648286208] [45088768] [1] : tensor<6755192832xbf16> to tensor<45088768xbf16>
    %expanded_104 = tensor.expand_shape %extracted_slice_103 [[0, 1]] : tensor<45088768xbf16> into tensor<11008x4096xbf16>
    %extracted_slice_105 = tensor.extract_slice %arg0[693374976] [45088768] [1] : tensor<6755192832xbf16> to tensor<45088768xbf16>
    %expanded_106 = tensor.expand_shape %extracted_slice_105 [[0, 1]] : tensor<45088768xbf16> into tensor<4096x11008xbf16>
    %extracted_slice_107 = tensor.extract_slice %arg0[738463744] [16777216] [1] : tensor<6755192832xbf16> to tensor<16777216xbf16>
    %expanded_108 = tensor.expand_shape %extracted_slice_107 [[0, 1]] : tensor<16777216xbf16> into tensor<4096x4096xbf16>
    %extracted_slice_109 = tensor.extract_slice %arg0[755240960] [16777216] [1] : tensor<6755192832xbf16> to tensor<16777216xbf16>
    %expanded_110 = tensor.expand_shape %extracted_slice_109 [[0, 1]] : tensor<16777216xbf16> into tensor<4096x4096xbf16>
    %extracted_slice_111 = tensor.extract_slice %arg0[772018176] [16777216] [1] : tensor<6755192832xbf16> to tensor<16777216xbf16>
    %expanded_112 = tensor.expand_shape %extracted_slice_111 [[0, 1]] : tensor<16777216xbf16> into tensor<4096x4096xbf16>
    %extracted_slice_113 = tensor.extract_slice %arg0[788795392] [16777216] [1] : tensor<6755192832xbf16> to tensor<16777216xbf16>
    %expanded_114 = tensor.expand_shape %extracted_slice_113 [[0, 1]] : tensor<16777216xbf16> into tensor<4096x4096xbf16>
    %extracted_slice_115 = tensor.extract_slice %arg0[805572608] [45088768] [1] : tensor<6755192832xbf16> to tensor<45088768xbf16>
    %expanded_116 = tensor.expand_shape %extracted_slice_115 [[0, 1]] : tensor<45088768xbf16> into tensor<11008x4096xbf16>
    %extracted_slice_117 = tensor.extract_slice %arg0[850661376] [45088768] [1] : tensor<6755192832xbf16> to tensor<45088768xbf16>
    %expanded_118 = tensor.expand_shape %extracted_slice_117 [[0, 1]] : tensor<45088768xbf16> into tensor<11008x4096xbf16>
    %extracted_slice_119 = tensor.extract_slice %arg0[895750144] [45088768] [1] : tensor<6755192832xbf16> to tensor<45088768xbf16>
    %expanded_120 = tensor.expand_shape %extracted_slice_119 [[0, 1]] : tensor<45088768xbf16> into tensor<4096x11008xbf16>
    %extracted_slice_121 = tensor.extract_slice %arg0[940838912] [16777216] [1] : tensor<6755192832xbf16> to tensor<16777216xbf16>
    %expanded_122 = tensor.expand_shape %extracted_slice_121 [[0, 1]] : tensor<16777216xbf16> into tensor<4096x4096xbf16>
    %extracted_slice_123 = tensor.extract_slice %arg0[957616128] [16777216] [1] : tensor<6755192832xbf16> to tensor<16777216xbf16>
    %expanded_124 = tensor.expand_shape %extracted_slice_123 [[0, 1]] : tensor<16777216xbf16> into tensor<4096x4096xbf16>
    %extracted_slice_125 = tensor.extract_slice %arg0[974393344] [16777216] [1] : tensor<6755192832xbf16> to tensor<16777216xbf16>
    %expanded_126 = tensor.expand_shape %extracted_slice_125 [[0, 1]] : tensor<16777216xbf16> into tensor<4096x4096xbf16>
    %extracted_slice_127 = tensor.extract_slice %arg0[991170560] [16777216] [1] : tensor<6755192832xbf16> to tensor<16777216xbf16>
    %expanded_128 = tensor.expand_shape %extracted_slice_127 [[0, 1]] : tensor<16777216xbf16> into tensor<4096x4096xbf16>
    %extracted_slice_129 = tensor.extract_slice %arg0[1007947776] [45088768] [1] : tensor<6755192832xbf16> to tensor<45088768xbf16>
    %expanded_130 = tensor.expand_shape %extracted_slice_129 [[0, 1]] : tensor<45088768xbf16> into tensor<11008x4096xbf16>
    %extracted_slice_131 = tensor.extract_slice %arg0[1053036544] [45088768] [1] : tensor<6755192832xbf16> to tensor<45088768xbf16>
    %expanded_132 = tensor.expand_shape %extracted_slice_131 [[0, 1]] : tensor<45088768xbf16> into tensor<11008x4096xbf16>
    %extracted_slice_133 = tensor.extract_slice %arg0[1098125312] [45088768] [1] : tensor<6755192832xbf16> to tensor<45088768xbf16>
    %expanded_134 = tensor.expand_shape %extracted_slice_133 [[0, 1]] : tensor<45088768xbf16> into tensor<4096x11008xbf16>
    %extracted_slice_135 = tensor.extract_slice %arg0[1143214080] [16777216] [1] : tensor<6755192832xbf16> to tensor<16777216xbf16>
    %expanded_136 = tensor.expand_shape %extracted_slice_135 [[0, 1]] : tensor<16777216xbf16> into tensor<4096x4096xbf16>
    %extracted_slice_137 = tensor.extract_slice %arg0[1159991296] [16777216] [1] : tensor<6755192832xbf16> to tensor<16777216xbf16>
    %expanded_138 = tensor.expand_shape %extracted_slice_137 [[0, 1]] : tensor<16777216xbf16> into tensor<4096x4096xbf16>
    %extracted_slice_139 = tensor.extract_slice %arg0[1176768512] [16777216] [1] : tensor<6755192832xbf16> to tensor<16777216xbf16>
    %expanded_140 = tensor.expand_shape %extracted_slice_139 [[0, 1]] : tensor<16777216xbf16> into tensor<4096x4096xbf16>
    %extracted_slice_141 = tensor.extract_slice %arg0[1193545728] [16777216] [1] : tensor<6755192832xbf16> to tensor<16777216xbf16>
    %expanded_142 = tensor.expand_shape %extracted_slice_141 [[0, 1]] : tensor<16777216xbf16> into tensor<4096x4096xbf16>
    %extracted_slice_143 = tensor.extract_slice %arg0[1210322944] [45088768] [1] : tensor<6755192832xbf16> to tensor<45088768xbf16>
    %expanded_144 = tensor.expand_shape %extracted_slice_143 [[0, 1]] : tensor<45088768xbf16> into tensor<11008x4096xbf16>
    %extracted_slice_145 = tensor.extract_slice %arg0[1255411712] [45088768] [1] : tensor<6755192832xbf16> to tensor<45088768xbf16>
    %expanded_146 = tensor.expand_shape %extracted_slice_145 [[0, 1]] : tensor<45088768xbf16> into tensor<11008x4096xbf16>
    %extracted_slice_147 = tensor.extract_slice %arg0[1300500480] [45088768] [1] : tensor<6755192832xbf16> to tensor<45088768xbf16>
    %expanded_148 = tensor.expand_shape %extracted_slice_147 [[0, 1]] : tensor<45088768xbf16> into tensor<4096x11008xbf16>
    %extracted_slice_149 = tensor.extract_slice %arg0[1345589248] [16777216] [1] : tensor<6755192832xbf16> to tensor<16777216xbf16>
    %expanded_150 = tensor.expand_shape %extracted_slice_149 [[0, 1]] : tensor<16777216xbf16> into tensor<4096x4096xbf16>
    %extracted_slice_151 = tensor.extract_slice %arg0[1362366464] [16777216] [1] : tensor<6755192832xbf16> to tensor<16777216xbf16>
    %expanded_152 = tensor.expand_shape %extracted_slice_151 [[0, 1]] : tensor<16777216xbf16> into tensor<4096x4096xbf16>
    %extracted_slice_153 = tensor.extract_slice %arg0[1379143680] [16777216] [1] : tensor<6755192832xbf16> to tensor<16777216xbf16>
    %expanded_154 = tensor.expand_shape %extracted_slice_153 [[0, 1]] : tensor<16777216xbf16> into tensor<4096x4096xbf16>
    %extracted_slice_155 = tensor.extract_slice %arg0[1395920896] [16777216] [1] : tensor<6755192832xbf16> to tensor<16777216xbf16>
    %expanded_156 = tensor.expand_shape %extracted_slice_155 [[0, 1]] : tensor<16777216xbf16> into tensor<4096x4096xbf16>
    %extracted_slice_157 = tensor.extract_slice %arg0[1412698112] [45088768] [1] : tensor<6755192832xbf16> to tensor<45088768xbf16>
    %expanded_158 = tensor.expand_shape %extracted_slice_157 [[0, 1]] : tensor<45088768xbf16> into tensor<11008x4096xbf16>
    %extracted_slice_159 = tensor.extract_slice %arg0[1457786880] [45088768] [1] : tensor<6755192832xbf16> to tensor<45088768xbf16>
    %expanded_160 = tensor.expand_shape %extracted_slice_159 [[0, 1]] : tensor<45088768xbf16> into tensor<11008x4096xbf16>
    %extracted_slice_161 = tensor.extract_slice %arg0[1502875648] [45088768] [1] : tensor<6755192832xbf16> to tensor<45088768xbf16>
    %expanded_162 = tensor.expand_shape %extracted_slice_161 [[0, 1]] : tensor<45088768xbf16> into tensor<4096x11008xbf16>
    %extracted_slice_163 = tensor.extract_slice %arg0[1547964416] [16777216] [1] : tensor<6755192832xbf16> to tensor<16777216xbf16>
    %expanded_164 = tensor.expand_shape %extracted_slice_163 [[0, 1]] : tensor<16777216xbf16> into tensor<4096x4096xbf16>
    %extracted_slice_165 = tensor.extract_slice %arg0[1564741632] [16777216] [1] : tensor<6755192832xbf16> to tensor<16777216xbf16>
    %expanded_166 = tensor.expand_shape %extracted_slice_165 [[0, 1]] : tensor<16777216xbf16> into tensor<4096x4096xbf16>
    %extracted_slice_167 = tensor.extract_slice %arg0[1581518848] [16777216] [1] : tensor<6755192832xbf16> to tensor<16777216xbf16>
    %expanded_168 = tensor.expand_shape %extracted_slice_167 [[0, 1]] : tensor<16777216xbf16> into tensor<4096x4096xbf16>
    %extracted_slice_169 = tensor.extract_slice %arg0[1598296064] [16777216] [1] : tensor<6755192832xbf16> to tensor<16777216xbf16>
    %expanded_170 = tensor.expand_shape %extracted_slice_169 [[0, 1]] : tensor<16777216xbf16> into tensor<4096x4096xbf16>
    %extracted_slice_171 = tensor.extract_slice %arg0[1615073280] [45088768] [1] : tensor<6755192832xbf16> to tensor<45088768xbf16>
    %expanded_172 = tensor.expand_shape %extracted_slice_171 [[0, 1]] : tensor<45088768xbf16> into tensor<11008x4096xbf16>
    %extracted_slice_173 = tensor.extract_slice %arg0[1660162048] [45088768] [1] : tensor<6755192832xbf16> to tensor<45088768xbf16>
    %expanded_174 = tensor.expand_shape %extracted_slice_173 [[0, 1]] : tensor<45088768xbf16> into tensor<11008x4096xbf16>
    %extracted_slice_175 = tensor.extract_slice %arg0[1705250816] [45088768] [1] : tensor<6755192832xbf16> to tensor<45088768xbf16>
    %expanded_176 = tensor.expand_shape %extracted_slice_175 [[0, 1]] : tensor<45088768xbf16> into tensor<4096x11008xbf16>
    %extracted_slice_177 = tensor.extract_slice %arg0[1750339584] [16777216] [1] : tensor<6755192832xbf16> to tensor<16777216xbf16>
    %expanded_178 = tensor.expand_shape %extracted_slice_177 [[0, 1]] : tensor<16777216xbf16> into tensor<4096x4096xbf16>
    %extracted_slice_179 = tensor.extract_slice %arg0[1767116800] [16777216] [1] : tensor<6755192832xbf16> to tensor<16777216xbf16>
    %expanded_180 = tensor.expand_shape %extracted_slice_179 [[0, 1]] : tensor<16777216xbf16> into tensor<4096x4096xbf16>
    %extracted_slice_181 = tensor.extract_slice %arg0[1783894016] [16777216] [1] : tensor<6755192832xbf16> to tensor<16777216xbf16>
    %expanded_182 = tensor.expand_shape %extracted_slice_181 [[0, 1]] : tensor<16777216xbf16> into tensor<4096x4096xbf16>
    %extracted_slice_183 = tensor.extract_slice %arg0[1800671232] [16777216] [1] : tensor<6755192832xbf16> to tensor<16777216xbf16>
    %expanded_184 = tensor.expand_shape %extracted_slice_183 [[0, 1]] : tensor<16777216xbf16> into tensor<4096x4096xbf16>
    %extracted_slice_185 = tensor.extract_slice %arg0[1817448448] [45088768] [1] : tensor<6755192832xbf16> to tensor<45088768xbf16>
    %expanded_186 = tensor.expand_shape %extracted_slice_185 [[0, 1]] : tensor<45088768xbf16> into tensor<11008x4096xbf16>
    %extracted_slice_187 = tensor.extract_slice %arg0[1862537216] [45088768] [1] : tensor<6755192832xbf16> to tensor<45088768xbf16>
    %expanded_188 = tensor.expand_shape %extracted_slice_187 [[0, 1]] : tensor<45088768xbf16> into tensor<11008x4096xbf16>
    %extracted_slice_189 = tensor.extract_slice %arg0[1907625984] [45088768] [1] : tensor<6755192832xbf16> to tensor<45088768xbf16>
    %expanded_190 = tensor.expand_shape %extracted_slice_189 [[0, 1]] : tensor<45088768xbf16> into tensor<4096x11008xbf16>
    %extracted_slice_191 = tensor.extract_slice %arg0[1952714752] [16777216] [1] : tensor<6755192832xbf16> to tensor<16777216xbf16>
    %expanded_192 = tensor.expand_shape %extracted_slice_191 [[0, 1]] : tensor<16777216xbf16> into tensor<4096x4096xbf16>
    %extracted_slice_193 = tensor.extract_slice %arg0[1969491968] [16777216] [1] : tensor<6755192832xbf16> to tensor<16777216xbf16>
    %expanded_194 = tensor.expand_shape %extracted_slice_193 [[0, 1]] : tensor<16777216xbf16> into tensor<4096x4096xbf16>
    %extracted_slice_195 = tensor.extract_slice %arg0[1986269184] [16777216] [1] : tensor<6755192832xbf16> to tensor<16777216xbf16>
    %expanded_196 = tensor.expand_shape %extracted_slice_195 [[0, 1]] : tensor<16777216xbf16> into tensor<4096x4096xbf16>
    %extracted_slice_197 = tensor.extract_slice %arg0[2003046400] [16777216] [1] : tensor<6755192832xbf16> to tensor<16777216xbf16>
    %expanded_198 = tensor.expand_shape %extracted_slice_197 [[0, 1]] : tensor<16777216xbf16> into tensor<4096x4096xbf16>
    %extracted_slice_199 = tensor.extract_slice %arg0[2019823616] [45088768] [1] : tensor<6755192832xbf16> to tensor<45088768xbf16>
    %expanded_200 = tensor.expand_shape %extracted_slice_199 [[0, 1]] : tensor<45088768xbf16> into tensor<11008x4096xbf16>
    %extracted_slice_201 = tensor.extract_slice %arg0[2064912384] [45088768] [1] : tensor<6755192832xbf16> to tensor<45088768xbf16>
    %expanded_202 = tensor.expand_shape %extracted_slice_201 [[0, 1]] : tensor<45088768xbf16> into tensor<11008x4096xbf16>
    %extracted_slice_203 = tensor.extract_slice %arg0[2110001152] [45088768] [1] : tensor<6755192832xbf16> to tensor<45088768xbf16>
    %expanded_204 = tensor.expand_shape %extracted_slice_203 [[0, 1]] : tensor<45088768xbf16> into tensor<4096x11008xbf16>
    %extracted_slice_205 = tensor.extract_slice %arg0[2155089920] [16777216] [1] : tensor<6755192832xbf16> to tensor<16777216xbf16>
    %expanded_206 = tensor.expand_shape %extracted_slice_205 [[0, 1]] : tensor<16777216xbf16> into tensor<4096x4096xbf16>
    %extracted_slice_207 = tensor.extract_slice %arg0[2171867136] [16777216] [1] : tensor<6755192832xbf16> to tensor<16777216xbf16>
    %expanded_208 = tensor.expand_shape %extracted_slice_207 [[0, 1]] : tensor<16777216xbf16> into tensor<4096x4096xbf16>
    %extracted_slice_209 = tensor.extract_slice %arg0[2188644352] [16777216] [1] : tensor<6755192832xbf16> to tensor<16777216xbf16>
    %expanded_210 = tensor.expand_shape %extracted_slice_209 [[0, 1]] : tensor<16777216xbf16> into tensor<4096x4096xbf16>
    %extracted_slice_211 = tensor.extract_slice %arg0[2205421568] [16777216] [1] : tensor<6755192832xbf16> to tensor<16777216xbf16>
    %expanded_212 = tensor.expand_shape %extracted_slice_211 [[0, 1]] : tensor<16777216xbf16> into tensor<4096x4096xbf16>
    %extracted_slice_213 = tensor.extract_slice %arg0[2222198784] [45088768] [1] : tensor<6755192832xbf16> to tensor<45088768xbf16>
    %expanded_214 = tensor.expand_shape %extracted_slice_213 [[0, 1]] : tensor<45088768xbf16> into tensor<11008x4096xbf16>
    %extracted_slice_215 = tensor.extract_slice %arg0[2267287552] [45088768] [1] : tensor<6755192832xbf16> to tensor<45088768xbf16>
    %expanded_216 = tensor.expand_shape %extracted_slice_215 [[0, 1]] : tensor<45088768xbf16> into tensor<11008x4096xbf16>
    %extracted_slice_217 = tensor.extract_slice %arg0[2312376320] [45088768] [1] : tensor<6755192832xbf16> to tensor<45088768xbf16>
    %expanded_218 = tensor.expand_shape %extracted_slice_217 [[0, 1]] : tensor<45088768xbf16> into tensor<4096x11008xbf16>
    %extracted_slice_219 = tensor.extract_slice %arg0[2357465088] [16777216] [1] : tensor<6755192832xbf16> to tensor<16777216xbf16>
    %expanded_220 = tensor.expand_shape %extracted_slice_219 [[0, 1]] : tensor<16777216xbf16> into tensor<4096x4096xbf16>
    %extracted_slice_221 = tensor.extract_slice %arg0[2374242304] [16777216] [1] : tensor<6755192832xbf16> to tensor<16777216xbf16>
    %expanded_222 = tensor.expand_shape %extracted_slice_221 [[0, 1]] : tensor<16777216xbf16> into tensor<4096x4096xbf16>
    %extracted_slice_223 = tensor.extract_slice %arg0[2391019520] [16777216] [1] : tensor<6755192832xbf16> to tensor<16777216xbf16>
    %expanded_224 = tensor.expand_shape %extracted_slice_223 [[0, 1]] : tensor<16777216xbf16> into tensor<4096x4096xbf16>
    %extracted_slice_225 = tensor.extract_slice %arg0[2407796736] [16777216] [1] : tensor<6755192832xbf16> to tensor<16777216xbf16>
    %expanded_226 = tensor.expand_shape %extracted_slice_225 [[0, 1]] : tensor<16777216xbf16> into tensor<4096x4096xbf16>
    %extracted_slice_227 = tensor.extract_slice %arg0[2424573952] [45088768] [1] : tensor<6755192832xbf16> to tensor<45088768xbf16>
    %expanded_228 = tensor.expand_shape %extracted_slice_227 [[0, 1]] : tensor<45088768xbf16> into tensor<11008x4096xbf16>
    %extracted_slice_229 = tensor.extract_slice %arg0[2469662720] [45088768] [1] : tensor<6755192832xbf16> to tensor<45088768xbf16>
    %expanded_230 = tensor.expand_shape %extracted_slice_229 [[0, 1]] : tensor<45088768xbf16> into tensor<11008x4096xbf16>
    %extracted_slice_231 = tensor.extract_slice %arg0[2514751488] [45088768] [1] : tensor<6755192832xbf16> to tensor<45088768xbf16>
    %expanded_232 = tensor.expand_shape %extracted_slice_231 [[0, 1]] : tensor<45088768xbf16> into tensor<4096x11008xbf16>
    %extracted_slice_233 = tensor.extract_slice %arg0[2559840256] [16777216] [1] : tensor<6755192832xbf16> to tensor<16777216xbf16>
    %expanded_234 = tensor.expand_shape %extracted_slice_233 [[0, 1]] : tensor<16777216xbf16> into tensor<4096x4096xbf16>
    %extracted_slice_235 = tensor.extract_slice %arg0[2576617472] [16777216] [1] : tensor<6755192832xbf16> to tensor<16777216xbf16>
    %expanded_236 = tensor.expand_shape %extracted_slice_235 [[0, 1]] : tensor<16777216xbf16> into tensor<4096x4096xbf16>
    %extracted_slice_237 = tensor.extract_slice %arg0[2593394688] [16777216] [1] : tensor<6755192832xbf16> to tensor<16777216xbf16>
    %expanded_238 = tensor.expand_shape %extracted_slice_237 [[0, 1]] : tensor<16777216xbf16> into tensor<4096x4096xbf16>
    %extracted_slice_239 = tensor.extract_slice %arg0[2610171904] [16777216] [1] : tensor<6755192832xbf16> to tensor<16777216xbf16>
    %expanded_240 = tensor.expand_shape %extracted_slice_239 [[0, 1]] : tensor<16777216xbf16> into tensor<4096x4096xbf16>
    %extracted_slice_241 = tensor.extract_slice %arg0[2626949120] [45088768] [1] : tensor<6755192832xbf16> to tensor<45088768xbf16>
    %expanded_242 = tensor.expand_shape %extracted_slice_241 [[0, 1]] : tensor<45088768xbf16> into tensor<11008x4096xbf16>
    %extracted_slice_243 = tensor.extract_slice %arg0[2672037888] [45088768] [1] : tensor<6755192832xbf16> to tensor<45088768xbf16>
    %expanded_244 = tensor.expand_shape %extracted_slice_243 [[0, 1]] : tensor<45088768xbf16> into tensor<11008x4096xbf16>
    %extracted_slice_245 = tensor.extract_slice %arg0[2717126656] [45088768] [1] : tensor<6755192832xbf16> to tensor<45088768xbf16>
    %expanded_246 = tensor.expand_shape %extracted_slice_245 [[0, 1]] : tensor<45088768xbf16> into tensor<4096x11008xbf16>
    %extracted_slice_247 = tensor.extract_slice %arg0[2762215424] [16777216] [1] : tensor<6755192832xbf16> to tensor<16777216xbf16>
    %expanded_248 = tensor.expand_shape %extracted_slice_247 [[0, 1]] : tensor<16777216xbf16> into tensor<4096x4096xbf16>
    %extracted_slice_249 = tensor.extract_slice %arg0[2778992640] [16777216] [1] : tensor<6755192832xbf16> to tensor<16777216xbf16>
    %expanded_250 = tensor.expand_shape %extracted_slice_249 [[0, 1]] : tensor<16777216xbf16> into tensor<4096x4096xbf16>
    %extracted_slice_251 = tensor.extract_slice %arg0[2795769856] [16777216] [1] : tensor<6755192832xbf16> to tensor<16777216xbf16>
    %expanded_252 = tensor.expand_shape %extracted_slice_251 [[0, 1]] : tensor<16777216xbf16> into tensor<4096x4096xbf16>
    %extracted_slice_253 = tensor.extract_slice %arg0[2812547072] [16777216] [1] : tensor<6755192832xbf16> to tensor<16777216xbf16>
    %expanded_254 = tensor.expand_shape %extracted_slice_253 [[0, 1]] : tensor<16777216xbf16> into tensor<4096x4096xbf16>
    %extracted_slice_255 = tensor.extract_slice %arg0[2829324288] [45088768] [1] : tensor<6755192832xbf16> to tensor<45088768xbf16>
    %expanded_256 = tensor.expand_shape %extracted_slice_255 [[0, 1]] : tensor<45088768xbf16> into tensor<11008x4096xbf16>
    %extracted_slice_257 = tensor.extract_slice %arg0[2874413056] [45088768] [1] : tensor<6755192832xbf16> to tensor<45088768xbf16>
    %expanded_258 = tensor.expand_shape %extracted_slice_257 [[0, 1]] : tensor<45088768xbf16> into tensor<11008x4096xbf16>
    %extracted_slice_259 = tensor.extract_slice %arg0[2919501824] [45088768] [1] : tensor<6755192832xbf16> to tensor<45088768xbf16>
    %expanded_260 = tensor.expand_shape %extracted_slice_259 [[0, 1]] : tensor<45088768xbf16> into tensor<4096x11008xbf16>
    %extracted_slice_261 = tensor.extract_slice %arg0[2964590592] [16777216] [1] : tensor<6755192832xbf16> to tensor<16777216xbf16>
    %expanded_262 = tensor.expand_shape %extracted_slice_261 [[0, 1]] : tensor<16777216xbf16> into tensor<4096x4096xbf16>
    %extracted_slice_263 = tensor.extract_slice %arg0[2981367808] [16777216] [1] : tensor<6755192832xbf16> to tensor<16777216xbf16>
    %expanded_264 = tensor.expand_shape %extracted_slice_263 [[0, 1]] : tensor<16777216xbf16> into tensor<4096x4096xbf16>
    %extracted_slice_265 = tensor.extract_slice %arg0[2998145024] [16777216] [1] : tensor<6755192832xbf16> to tensor<16777216xbf16>
    %expanded_266 = tensor.expand_shape %extracted_slice_265 [[0, 1]] : tensor<16777216xbf16> into tensor<4096x4096xbf16>
    %extracted_slice_267 = tensor.extract_slice %arg0[3014922240] [16777216] [1] : tensor<6755192832xbf16> to tensor<16777216xbf16>
    %expanded_268 = tensor.expand_shape %extracted_slice_267 [[0, 1]] : tensor<16777216xbf16> into tensor<4096x4096xbf16>
    %extracted_slice_269 = tensor.extract_slice %arg0[3031699456] [45088768] [1] : tensor<6755192832xbf16> to tensor<45088768xbf16>
    %expanded_270 = tensor.expand_shape %extracted_slice_269 [[0, 1]] : tensor<45088768xbf16> into tensor<11008x4096xbf16>
    %extracted_slice_271 = tensor.extract_slice %arg0[3076788224] [45088768] [1] : tensor<6755192832xbf16> to tensor<45088768xbf16>
    %expanded_272 = tensor.expand_shape %extracted_slice_271 [[0, 1]] : tensor<45088768xbf16> into tensor<11008x4096xbf16>
    %extracted_slice_273 = tensor.extract_slice %arg0[3121876992] [45088768] [1] : tensor<6755192832xbf16> to tensor<45088768xbf16>
    %expanded_274 = tensor.expand_shape %extracted_slice_273 [[0, 1]] : tensor<45088768xbf16> into tensor<4096x11008xbf16>
    %extracted_slice_275 = tensor.extract_slice %arg0[3166965760] [16777216] [1] : tensor<6755192832xbf16> to tensor<16777216xbf16>
    %expanded_276 = tensor.expand_shape %extracted_slice_275 [[0, 1]] : tensor<16777216xbf16> into tensor<4096x4096xbf16>
    %extracted_slice_277 = tensor.extract_slice %arg0[3183742976] [16777216] [1] : tensor<6755192832xbf16> to tensor<16777216xbf16>
    %expanded_278 = tensor.expand_shape %extracted_slice_277 [[0, 1]] : tensor<16777216xbf16> into tensor<4096x4096xbf16>
    %extracted_slice_279 = tensor.extract_slice %arg0[3200520192] [16777216] [1] : tensor<6755192832xbf16> to tensor<16777216xbf16>
    %expanded_280 = tensor.expand_shape %extracted_slice_279 [[0, 1]] : tensor<16777216xbf16> into tensor<4096x4096xbf16>
    %extracted_slice_281 = tensor.extract_slice %arg0[3217297408] [16777216] [1] : tensor<6755192832xbf16> to tensor<16777216xbf16>
    %expanded_282 = tensor.expand_shape %extracted_slice_281 [[0, 1]] : tensor<16777216xbf16> into tensor<4096x4096xbf16>
    %extracted_slice_283 = tensor.extract_slice %arg0[3234074624] [45088768] [1] : tensor<6755192832xbf16> to tensor<45088768xbf16>
    %expanded_284 = tensor.expand_shape %extracted_slice_283 [[0, 1]] : tensor<45088768xbf16> into tensor<11008x4096xbf16>
    %extracted_slice_285 = tensor.extract_slice %arg0[3279163392] [45088768] [1] : tensor<6755192832xbf16> to tensor<45088768xbf16>
    %expanded_286 = tensor.expand_shape %extracted_slice_285 [[0, 1]] : tensor<45088768xbf16> into tensor<11008x4096xbf16>
    %extracted_slice_287 = tensor.extract_slice %arg0[3324252160] [45088768] [1] : tensor<6755192832xbf16> to tensor<45088768xbf16>
    %expanded_288 = tensor.expand_shape %extracted_slice_287 [[0, 1]] : tensor<45088768xbf16> into tensor<4096x11008xbf16>
    %extracted_slice_289 = tensor.extract_slice %arg0[3369340928] [16777216] [1] : tensor<6755192832xbf16> to tensor<16777216xbf16>
    %expanded_290 = tensor.expand_shape %extracted_slice_289 [[0, 1]] : tensor<16777216xbf16> into tensor<4096x4096xbf16>
    %extracted_slice_291 = tensor.extract_slice %arg0[3386118144] [16777216] [1] : tensor<6755192832xbf16> to tensor<16777216xbf16>
    %expanded_292 = tensor.expand_shape %extracted_slice_291 [[0, 1]] : tensor<16777216xbf16> into tensor<4096x4096xbf16>
    %extracted_slice_293 = tensor.extract_slice %arg0[3402895360] [16777216] [1] : tensor<6755192832xbf16> to tensor<16777216xbf16>
    %expanded_294 = tensor.expand_shape %extracted_slice_293 [[0, 1]] : tensor<16777216xbf16> into tensor<4096x4096xbf16>
    %extracted_slice_295 = tensor.extract_slice %arg0[3419672576] [16777216] [1] : tensor<6755192832xbf16> to tensor<16777216xbf16>
    %expanded_296 = tensor.expand_shape %extracted_slice_295 [[0, 1]] : tensor<16777216xbf16> into tensor<4096x4096xbf16>
    %extracted_slice_297 = tensor.extract_slice %arg0[3436449792] [45088768] [1] : tensor<6755192832xbf16> to tensor<45088768xbf16>
    %expanded_298 = tensor.expand_shape %extracted_slice_297 [[0, 1]] : tensor<45088768xbf16> into tensor<11008x4096xbf16>
    %extracted_slice_299 = tensor.extract_slice %arg0[3481538560] [45088768] [1] : tensor<6755192832xbf16> to tensor<45088768xbf16>
    %expanded_300 = tensor.expand_shape %extracted_slice_299 [[0, 1]] : tensor<45088768xbf16> into tensor<11008x4096xbf16>
    %extracted_slice_301 = tensor.extract_slice %arg0[3526627328] [45088768] [1] : tensor<6755192832xbf16> to tensor<45088768xbf16>
    %expanded_302 = tensor.expand_shape %extracted_slice_301 [[0, 1]] : tensor<45088768xbf16> into tensor<4096x11008xbf16>
    %extracted_slice_303 = tensor.extract_slice %arg0[3571716096] [16777216] [1] : tensor<6755192832xbf16> to tensor<16777216xbf16>
    %expanded_304 = tensor.expand_shape %extracted_slice_303 [[0, 1]] : tensor<16777216xbf16> into tensor<4096x4096xbf16>
    %extracted_slice_305 = tensor.extract_slice %arg0[3588493312] [16777216] [1] : tensor<6755192832xbf16> to tensor<16777216xbf16>
    %expanded_306 = tensor.expand_shape %extracted_slice_305 [[0, 1]] : tensor<16777216xbf16> into tensor<4096x4096xbf16>
    %extracted_slice_307 = tensor.extract_slice %arg0[3605270528] [16777216] [1] : tensor<6755192832xbf16> to tensor<16777216xbf16>
    %expanded_308 = tensor.expand_shape %extracted_slice_307 [[0, 1]] : tensor<16777216xbf16> into tensor<4096x4096xbf16>
    %extracted_slice_309 = tensor.extract_slice %arg0[3622047744] [16777216] [1] : tensor<6755192832xbf16> to tensor<16777216xbf16>
    %expanded_310 = tensor.expand_shape %extracted_slice_309 [[0, 1]] : tensor<16777216xbf16> into tensor<4096x4096xbf16>
    %extracted_slice_311 = tensor.extract_slice %arg0[3638824960] [45088768] [1] : tensor<6755192832xbf16> to tensor<45088768xbf16>
    %expanded_312 = tensor.expand_shape %extracted_slice_311 [[0, 1]] : tensor<45088768xbf16> into tensor<11008x4096xbf16>
    %extracted_slice_313 = tensor.extract_slice %arg0[3683913728] [45088768] [1] : tensor<6755192832xbf16> to tensor<45088768xbf16>
    %expanded_314 = tensor.expand_shape %extracted_slice_313 [[0, 1]] : tensor<45088768xbf16> into tensor<11008x4096xbf16>
    %extracted_slice_315 = tensor.extract_slice %arg0[3729002496] [45088768] [1] : tensor<6755192832xbf16> to tensor<45088768xbf16>
    %expanded_316 = tensor.expand_shape %extracted_slice_315 [[0, 1]] : tensor<45088768xbf16> into tensor<4096x11008xbf16>
    %extracted_slice_317 = tensor.extract_slice %arg0[3774091264] [16777216] [1] : tensor<6755192832xbf16> to tensor<16777216xbf16>
    %expanded_318 = tensor.expand_shape %extracted_slice_317 [[0, 1]] : tensor<16777216xbf16> into tensor<4096x4096xbf16>
    %extracted_slice_319 = tensor.extract_slice %arg0[3790868480] [16777216] [1] : tensor<6755192832xbf16> to tensor<16777216xbf16>
    %expanded_320 = tensor.expand_shape %extracted_slice_319 [[0, 1]] : tensor<16777216xbf16> into tensor<4096x4096xbf16>
    %extracted_slice_321 = tensor.extract_slice %arg0[3807645696] [16777216] [1] : tensor<6755192832xbf16> to tensor<16777216xbf16>
    %expanded_322 = tensor.expand_shape %extracted_slice_321 [[0, 1]] : tensor<16777216xbf16> into tensor<4096x4096xbf16>
    %extracted_slice_323 = tensor.extract_slice %arg0[3824422912] [16777216] [1] : tensor<6755192832xbf16> to tensor<16777216xbf16>
    %expanded_324 = tensor.expand_shape %extracted_slice_323 [[0, 1]] : tensor<16777216xbf16> into tensor<4096x4096xbf16>
    %extracted_slice_325 = tensor.extract_slice %arg0[3841200128] [45088768] [1] : tensor<6755192832xbf16> to tensor<45088768xbf16>
    %expanded_326 = tensor.expand_shape %extracted_slice_325 [[0, 1]] : tensor<45088768xbf16> into tensor<11008x4096xbf16>
    %extracted_slice_327 = tensor.extract_slice %arg0[3886288896] [45088768] [1] : tensor<6755192832xbf16> to tensor<45088768xbf16>
    %expanded_328 = tensor.expand_shape %extracted_slice_327 [[0, 1]] : tensor<45088768xbf16> into tensor<11008x4096xbf16>
    %extracted_slice_329 = tensor.extract_slice %arg0[3931377664] [45088768] [1] : tensor<6755192832xbf16> to tensor<45088768xbf16>
    %expanded_330 = tensor.expand_shape %extracted_slice_329 [[0, 1]] : tensor<45088768xbf16> into tensor<4096x11008xbf16>
    %extracted_slice_331 = tensor.extract_slice %arg0[3976466432] [16777216] [1] : tensor<6755192832xbf16> to tensor<16777216xbf16>
    %expanded_332 = tensor.expand_shape %extracted_slice_331 [[0, 1]] : tensor<16777216xbf16> into tensor<4096x4096xbf16>
    %extracted_slice_333 = tensor.extract_slice %arg0[3993243648] [16777216] [1] : tensor<6755192832xbf16> to tensor<16777216xbf16>
    %expanded_334 = tensor.expand_shape %extracted_slice_333 [[0, 1]] : tensor<16777216xbf16> into tensor<4096x4096xbf16>
    %extracted_slice_335 = tensor.extract_slice %arg0[4010020864] [16777216] [1] : tensor<6755192832xbf16> to tensor<16777216xbf16>
    %expanded_336 = tensor.expand_shape %extracted_slice_335 [[0, 1]] : tensor<16777216xbf16> into tensor<4096x4096xbf16>
    %extracted_slice_337 = tensor.extract_slice %arg0[4026798080] [16777216] [1] : tensor<6755192832xbf16> to tensor<16777216xbf16>
    %expanded_338 = tensor.expand_shape %extracted_slice_337 [[0, 1]] : tensor<16777216xbf16> into tensor<4096x4096xbf16>
    %extracted_slice_339 = tensor.extract_slice %arg0[4043575296] [45088768] [1] : tensor<6755192832xbf16> to tensor<45088768xbf16>
    %expanded_340 = tensor.expand_shape %extracted_slice_339 [[0, 1]] : tensor<45088768xbf16> into tensor<11008x4096xbf16>
    %extracted_slice_341 = tensor.extract_slice %arg0[4088664064] [45088768] [1] : tensor<6755192832xbf16> to tensor<45088768xbf16>
    %expanded_342 = tensor.expand_shape %extracted_slice_341 [[0, 1]] : tensor<45088768xbf16> into tensor<11008x4096xbf16>
    %extracted_slice_343 = tensor.extract_slice %arg0[4133752832] [45088768] [1] : tensor<6755192832xbf16> to tensor<45088768xbf16>
    %expanded_344 = tensor.expand_shape %extracted_slice_343 [[0, 1]] : tensor<45088768xbf16> into tensor<4096x11008xbf16>
    %extracted_slice_345 = tensor.extract_slice %arg0[4178841600] [16777216] [1] : tensor<6755192832xbf16> to tensor<16777216xbf16>
    %expanded_346 = tensor.expand_shape %extracted_slice_345 [[0, 1]] : tensor<16777216xbf16> into tensor<4096x4096xbf16>
    %extracted_slice_347 = tensor.extract_slice %arg0[4195618816] [16777216] [1] : tensor<6755192832xbf16> to tensor<16777216xbf16>
    %expanded_348 = tensor.expand_shape %extracted_slice_347 [[0, 1]] : tensor<16777216xbf16> into tensor<4096x4096xbf16>
    %extracted_slice_349 = tensor.extract_slice %arg0[4212396032] [16777216] [1] : tensor<6755192832xbf16> to tensor<16777216xbf16>
    %expanded_350 = tensor.expand_shape %extracted_slice_349 [[0, 1]] : tensor<16777216xbf16> into tensor<4096x4096xbf16>
    %extracted_slice_351 = tensor.extract_slice %arg0[4229173248] [16777216] [1] : tensor<6755192832xbf16> to tensor<16777216xbf16>
    %expanded_352 = tensor.expand_shape %extracted_slice_351 [[0, 1]] : tensor<16777216xbf16> into tensor<4096x4096xbf16>
    %extracted_slice_353 = tensor.extract_slice %arg0[4245950464] [45088768] [1] : tensor<6755192832xbf16> to tensor<45088768xbf16>
    %expanded_354 = tensor.expand_shape %extracted_slice_353 [[0, 1]] : tensor<45088768xbf16> into tensor<11008x4096xbf16>
    %extracted_slice_355 = tensor.extract_slice %arg0[4291039232] [45088768] [1] : tensor<6755192832xbf16> to tensor<45088768xbf16>
    %expanded_356 = tensor.expand_shape %extracted_slice_355 [[0, 1]] : tensor<45088768xbf16> into tensor<11008x4096xbf16>
    %extracted_slice_357 = tensor.extract_slice %arg0[4336128000] [45088768] [1] : tensor<6755192832xbf16> to tensor<45088768xbf16>
    %expanded_358 = tensor.expand_shape %extracted_slice_357 [[0, 1]] : tensor<45088768xbf16> into tensor<4096x11008xbf16>
    %extracted_slice_359 = tensor.extract_slice %arg0[4381216768] [16777216] [1] : tensor<6755192832xbf16> to tensor<16777216xbf16>
    %expanded_360 = tensor.expand_shape %extracted_slice_359 [[0, 1]] : tensor<16777216xbf16> into tensor<4096x4096xbf16>
    %extracted_slice_361 = tensor.extract_slice %arg0[4397993984] [16777216] [1] : tensor<6755192832xbf16> to tensor<16777216xbf16>
    %expanded_362 = tensor.expand_shape %extracted_slice_361 [[0, 1]] : tensor<16777216xbf16> into tensor<4096x4096xbf16>
    %extracted_slice_363 = tensor.extract_slice %arg0[4414771200] [16777216] [1] : tensor<6755192832xbf16> to tensor<16777216xbf16>
    %expanded_364 = tensor.expand_shape %extracted_slice_363 [[0, 1]] : tensor<16777216xbf16> into tensor<4096x4096xbf16>
    %extracted_slice_365 = tensor.extract_slice %arg0[4431548416] [16777216] [1] : tensor<6755192832xbf16> to tensor<16777216xbf16>
    %expanded_366 = tensor.expand_shape %extracted_slice_365 [[0, 1]] : tensor<16777216xbf16> into tensor<4096x4096xbf16>
    %extracted_slice_367 = tensor.extract_slice %arg0[4448325632] [45088768] [1] : tensor<6755192832xbf16> to tensor<45088768xbf16>
    %expanded_368 = tensor.expand_shape %extracted_slice_367 [[0, 1]] : tensor<45088768xbf16> into tensor<11008x4096xbf16>
    %extracted_slice_369 = tensor.extract_slice %arg0[4493414400] [45088768] [1] : tensor<6755192832xbf16> to tensor<45088768xbf16>
    %expanded_370 = tensor.expand_shape %extracted_slice_369 [[0, 1]] : tensor<45088768xbf16> into tensor<11008x4096xbf16>
    %extracted_slice_371 = tensor.extract_slice %arg0[4538503168] [45088768] [1] : tensor<6755192832xbf16> to tensor<45088768xbf16>
    %expanded_372 = tensor.expand_shape %extracted_slice_371 [[0, 1]] : tensor<45088768xbf16> into tensor<4096x11008xbf16>
    %extracted_slice_373 = tensor.extract_slice %arg0[4583591936] [16777216] [1] : tensor<6755192832xbf16> to tensor<16777216xbf16>
    %expanded_374 = tensor.expand_shape %extracted_slice_373 [[0, 1]] : tensor<16777216xbf16> into tensor<4096x4096xbf16>
    %extracted_slice_375 = tensor.extract_slice %arg0[4600369152] [16777216] [1] : tensor<6755192832xbf16> to tensor<16777216xbf16>
    %expanded_376 = tensor.expand_shape %extracted_slice_375 [[0, 1]] : tensor<16777216xbf16> into tensor<4096x4096xbf16>
    %extracted_slice_377 = tensor.extract_slice %arg0[4617146368] [16777216] [1] : tensor<6755192832xbf16> to tensor<16777216xbf16>
    %expanded_378 = tensor.expand_shape %extracted_slice_377 [[0, 1]] : tensor<16777216xbf16> into tensor<4096x4096xbf16>
    %extracted_slice_379 = tensor.extract_slice %arg0[4633923584] [16777216] [1] : tensor<6755192832xbf16> to tensor<16777216xbf16>
    %expanded_380 = tensor.expand_shape %extracted_slice_379 [[0, 1]] : tensor<16777216xbf16> into tensor<4096x4096xbf16>
    %extracted_slice_381 = tensor.extract_slice %arg0[4650700800] [45088768] [1] : tensor<6755192832xbf16> to tensor<45088768xbf16>
    %expanded_382 = tensor.expand_shape %extracted_slice_381 [[0, 1]] : tensor<45088768xbf16> into tensor<11008x4096xbf16>
    %extracted_slice_383 = tensor.extract_slice %arg0[4695789568] [45088768] [1] : tensor<6755192832xbf16> to tensor<45088768xbf16>
    %expanded_384 = tensor.expand_shape %extracted_slice_383 [[0, 1]] : tensor<45088768xbf16> into tensor<11008x4096xbf16>
    %extracted_slice_385 = tensor.extract_slice %arg0[4740878336] [45088768] [1] : tensor<6755192832xbf16> to tensor<45088768xbf16>
    %expanded_386 = tensor.expand_shape %extracted_slice_385 [[0, 1]] : tensor<45088768xbf16> into tensor<4096x11008xbf16>
    %extracted_slice_387 = tensor.extract_slice %arg0[4785967104] [16777216] [1] : tensor<6755192832xbf16> to tensor<16777216xbf16>
    %expanded_388 = tensor.expand_shape %extracted_slice_387 [[0, 1]] : tensor<16777216xbf16> into tensor<4096x4096xbf16>
    %extracted_slice_389 = tensor.extract_slice %arg0[4802744320] [16777216] [1] : tensor<6755192832xbf16> to tensor<16777216xbf16>
    %expanded_390 = tensor.expand_shape %extracted_slice_389 [[0, 1]] : tensor<16777216xbf16> into tensor<4096x4096xbf16>
    %extracted_slice_391 = tensor.extract_slice %arg0[4819521536] [16777216] [1] : tensor<6755192832xbf16> to tensor<16777216xbf16>
    %expanded_392 = tensor.expand_shape %extracted_slice_391 [[0, 1]] : tensor<16777216xbf16> into tensor<4096x4096xbf16>
    %extracted_slice_393 = tensor.extract_slice %arg0[4836298752] [16777216] [1] : tensor<6755192832xbf16> to tensor<16777216xbf16>
    %expanded_394 = tensor.expand_shape %extracted_slice_393 [[0, 1]] : tensor<16777216xbf16> into tensor<4096x4096xbf16>
    %extracted_slice_395 = tensor.extract_slice %arg0[4853075968] [45088768] [1] : tensor<6755192832xbf16> to tensor<45088768xbf16>
    %expanded_396 = tensor.expand_shape %extracted_slice_395 [[0, 1]] : tensor<45088768xbf16> into tensor<11008x4096xbf16>
    %extracted_slice_397 = tensor.extract_slice %arg0[4898164736] [45088768] [1] : tensor<6755192832xbf16> to tensor<45088768xbf16>
    %expanded_398 = tensor.expand_shape %extracted_slice_397 [[0, 1]] : tensor<45088768xbf16> into tensor<11008x4096xbf16>
    %extracted_slice_399 = tensor.extract_slice %arg0[4943253504] [45088768] [1] : tensor<6755192832xbf16> to tensor<45088768xbf16>
    %expanded_400 = tensor.expand_shape %extracted_slice_399 [[0, 1]] : tensor<45088768xbf16> into tensor<4096x11008xbf16>
    %extracted_slice_401 = tensor.extract_slice %arg0[4988342272] [16777216] [1] : tensor<6755192832xbf16> to tensor<16777216xbf16>
    %expanded_402 = tensor.expand_shape %extracted_slice_401 [[0, 1]] : tensor<16777216xbf16> into tensor<4096x4096xbf16>
    %extracted_slice_403 = tensor.extract_slice %arg0[5005119488] [16777216] [1] : tensor<6755192832xbf16> to tensor<16777216xbf16>
    %expanded_404 = tensor.expand_shape %extracted_slice_403 [[0, 1]] : tensor<16777216xbf16> into tensor<4096x4096xbf16>
    %extracted_slice_405 = tensor.extract_slice %arg0[5021896704] [16777216] [1] : tensor<6755192832xbf16> to tensor<16777216xbf16>
    %expanded_406 = tensor.expand_shape %extracted_slice_405 [[0, 1]] : tensor<16777216xbf16> into tensor<4096x4096xbf16>
    %extracted_slice_407 = tensor.extract_slice %arg0[5038673920] [16777216] [1] : tensor<6755192832xbf16> to tensor<16777216xbf16>
    %expanded_408 = tensor.expand_shape %extracted_slice_407 [[0, 1]] : tensor<16777216xbf16> into tensor<4096x4096xbf16>
    %extracted_slice_409 = tensor.extract_slice %arg0[5055451136] [45088768] [1] : tensor<6755192832xbf16> to tensor<45088768xbf16>
    %expanded_410 = tensor.expand_shape %extracted_slice_409 [[0, 1]] : tensor<45088768xbf16> into tensor<11008x4096xbf16>
    %extracted_slice_411 = tensor.extract_slice %arg0[5100539904] [45088768] [1] : tensor<6755192832xbf16> to tensor<45088768xbf16>
    %expanded_412 = tensor.expand_shape %extracted_slice_411 [[0, 1]] : tensor<45088768xbf16> into tensor<11008x4096xbf16>
    %extracted_slice_413 = tensor.extract_slice %arg0[5145628672] [45088768] [1] : tensor<6755192832xbf16> to tensor<45088768xbf16>
    %expanded_414 = tensor.expand_shape %extracted_slice_413 [[0, 1]] : tensor<45088768xbf16> into tensor<4096x11008xbf16>
    %extracted_slice_415 = tensor.extract_slice %arg0[5190717440] [16777216] [1] : tensor<6755192832xbf16> to tensor<16777216xbf16>
    %expanded_416 = tensor.expand_shape %extracted_slice_415 [[0, 1]] : tensor<16777216xbf16> into tensor<4096x4096xbf16>
    %extracted_slice_417 = tensor.extract_slice %arg0[5207494656] [16777216] [1] : tensor<6755192832xbf16> to tensor<16777216xbf16>
    %expanded_418 = tensor.expand_shape %extracted_slice_417 [[0, 1]] : tensor<16777216xbf16> into tensor<4096x4096xbf16>
    %extracted_slice_419 = tensor.extract_slice %arg0[5224271872] [16777216] [1] : tensor<6755192832xbf16> to tensor<16777216xbf16>
    %expanded_420 = tensor.expand_shape %extracted_slice_419 [[0, 1]] : tensor<16777216xbf16> into tensor<4096x4096xbf16>
    %extracted_slice_421 = tensor.extract_slice %arg0[5241049088] [16777216] [1] : tensor<6755192832xbf16> to tensor<16777216xbf16>
    %expanded_422 = tensor.expand_shape %extracted_slice_421 [[0, 1]] : tensor<16777216xbf16> into tensor<4096x4096xbf16>
    %extracted_slice_423 = tensor.extract_slice %arg0[5257826304] [45088768] [1] : tensor<6755192832xbf16> to tensor<45088768xbf16>
    %expanded_424 = tensor.expand_shape %extracted_slice_423 [[0, 1]] : tensor<45088768xbf16> into tensor<11008x4096xbf16>
    %extracted_slice_425 = tensor.extract_slice %arg0[5302915072] [45088768] [1] : tensor<6755192832xbf16> to tensor<45088768xbf16>
    %expanded_426 = tensor.expand_shape %extracted_slice_425 [[0, 1]] : tensor<45088768xbf16> into tensor<11008x4096xbf16>
    %extracted_slice_427 = tensor.extract_slice %arg0[5348003840] [45088768] [1] : tensor<6755192832xbf16> to tensor<45088768xbf16>
    %expanded_428 = tensor.expand_shape %extracted_slice_427 [[0, 1]] : tensor<45088768xbf16> into tensor<4096x11008xbf16>
    %extracted_slice_429 = tensor.extract_slice %arg0[5393092608] [16777216] [1] : tensor<6755192832xbf16> to tensor<16777216xbf16>
    %expanded_430 = tensor.expand_shape %extracted_slice_429 [[0, 1]] : tensor<16777216xbf16> into tensor<4096x4096xbf16>
    %extracted_slice_431 = tensor.extract_slice %arg0[5409869824] [16777216] [1] : tensor<6755192832xbf16> to tensor<16777216xbf16>
    %expanded_432 = tensor.expand_shape %extracted_slice_431 [[0, 1]] : tensor<16777216xbf16> into tensor<4096x4096xbf16>
    %extracted_slice_433 = tensor.extract_slice %arg0[5426647040] [16777216] [1] : tensor<6755192832xbf16> to tensor<16777216xbf16>
    %expanded_434 = tensor.expand_shape %extracted_slice_433 [[0, 1]] : tensor<16777216xbf16> into tensor<4096x4096xbf16>
    %extracted_slice_435 = tensor.extract_slice %arg0[5443424256] [16777216] [1] : tensor<6755192832xbf16> to tensor<16777216xbf16>
    %expanded_436 = tensor.expand_shape %extracted_slice_435 [[0, 1]] : tensor<16777216xbf16> into tensor<4096x4096xbf16>
    %extracted_slice_437 = tensor.extract_slice %arg0[5460201472] [45088768] [1] : tensor<6755192832xbf16> to tensor<45088768xbf16>
    %expanded_438 = tensor.expand_shape %extracted_slice_437 [[0, 1]] : tensor<45088768xbf16> into tensor<11008x4096xbf16>
    %extracted_slice_439 = tensor.extract_slice %arg0[5505290240] [45088768] [1] : tensor<6755192832xbf16> to tensor<45088768xbf16>
    %expanded_440 = tensor.expand_shape %extracted_slice_439 [[0, 1]] : tensor<45088768xbf16> into tensor<11008x4096xbf16>
    %extracted_slice_441 = tensor.extract_slice %arg0[5550379008] [45088768] [1] : tensor<6755192832xbf16> to tensor<45088768xbf16>
    %expanded_442 = tensor.expand_shape %extracted_slice_441 [[0, 1]] : tensor<45088768xbf16> into tensor<4096x11008xbf16>
    %extracted_slice_443 = tensor.extract_slice %arg0[5595467776] [16777216] [1] : tensor<6755192832xbf16> to tensor<16777216xbf16>
    %expanded_444 = tensor.expand_shape %extracted_slice_443 [[0, 1]] : tensor<16777216xbf16> into tensor<4096x4096xbf16>
    %extracted_slice_445 = tensor.extract_slice %arg0[5612244992] [16777216] [1] : tensor<6755192832xbf16> to tensor<16777216xbf16>
    %expanded_446 = tensor.expand_shape %extracted_slice_445 [[0, 1]] : tensor<16777216xbf16> into tensor<4096x4096xbf16>
    %extracted_slice_447 = tensor.extract_slice %arg0[5629022208] [16777216] [1] : tensor<6755192832xbf16> to tensor<16777216xbf16>
    %expanded_448 = tensor.expand_shape %extracted_slice_447 [[0, 1]] : tensor<16777216xbf16> into tensor<4096x4096xbf16>
    %extracted_slice_449 = tensor.extract_slice %arg0[5645799424] [16777216] [1] : tensor<6755192832xbf16> to tensor<16777216xbf16>
    %expanded_450 = tensor.expand_shape %extracted_slice_449 [[0, 1]] : tensor<16777216xbf16> into tensor<4096x4096xbf16>
    %extracted_slice_451 = tensor.extract_slice %arg0[5662576640] [45088768] [1] : tensor<6755192832xbf16> to tensor<45088768xbf16>
    %expanded_452 = tensor.expand_shape %extracted_slice_451 [[0, 1]] : tensor<45088768xbf16> into tensor<11008x4096xbf16>
    %extracted_slice_453 = tensor.extract_slice %arg0[5707665408] [45088768] [1] : tensor<6755192832xbf16> to tensor<45088768xbf16>
    %expanded_454 = tensor.expand_shape %extracted_slice_453 [[0, 1]] : tensor<45088768xbf16> into tensor<11008x4096xbf16>
    %extracted_slice_455 = tensor.extract_slice %arg0[5752754176] [45088768] [1] : tensor<6755192832xbf16> to tensor<45088768xbf16>
    %expanded_456 = tensor.expand_shape %extracted_slice_455 [[0, 1]] : tensor<45088768xbf16> into tensor<4096x11008xbf16>
    %extracted_slice_457 = tensor.extract_slice %arg0[5797842944] [16777216] [1] : tensor<6755192832xbf16> to tensor<16777216xbf16>
    %expanded_458 = tensor.expand_shape %extracted_slice_457 [[0, 1]] : tensor<16777216xbf16> into tensor<4096x4096xbf16>
    %extracted_slice_459 = tensor.extract_slice %arg0[5814620160] [16777216] [1] : tensor<6755192832xbf16> to tensor<16777216xbf16>
    %expanded_460 = tensor.expand_shape %extracted_slice_459 [[0, 1]] : tensor<16777216xbf16> into tensor<4096x4096xbf16>
    %extracted_slice_461 = tensor.extract_slice %arg0[5831397376] [16777216] [1] : tensor<6755192832xbf16> to tensor<16777216xbf16>
    %expanded_462 = tensor.expand_shape %extracted_slice_461 [[0, 1]] : tensor<16777216xbf16> into tensor<4096x4096xbf16>
    %extracted_slice_463 = tensor.extract_slice %arg0[5848174592] [16777216] [1] : tensor<6755192832xbf16> to tensor<16777216xbf16>
    %expanded_464 = tensor.expand_shape %extracted_slice_463 [[0, 1]] : tensor<16777216xbf16> into tensor<4096x4096xbf16>
    %extracted_slice_465 = tensor.extract_slice %arg0[5864951808] [45088768] [1] : tensor<6755192832xbf16> to tensor<45088768xbf16>
    %expanded_466 = tensor.expand_shape %extracted_slice_465 [[0, 1]] : tensor<45088768xbf16> into tensor<11008x4096xbf16>
    %extracted_slice_467 = tensor.extract_slice %arg0[5910040576] [45088768] [1] : tensor<6755192832xbf16> to tensor<45088768xbf16>
    %expanded_468 = tensor.expand_shape %extracted_slice_467 [[0, 1]] : tensor<45088768xbf16> into tensor<11008x4096xbf16>
    %extracted_slice_469 = tensor.extract_slice %arg0[5955129344] [45088768] [1] : tensor<6755192832xbf16> to tensor<45088768xbf16>
    %expanded_470 = tensor.expand_shape %extracted_slice_469 [[0, 1]] : tensor<45088768xbf16> into tensor<4096x11008xbf16>
    %extracted_slice_471 = tensor.extract_slice %arg0[6000218112] [16777216] [1] : tensor<6755192832xbf16> to tensor<16777216xbf16>
    %expanded_472 = tensor.expand_shape %extracted_slice_471 [[0, 1]] : tensor<16777216xbf16> into tensor<4096x4096xbf16>
    %extracted_slice_473 = tensor.extract_slice %arg0[6016995328] [16777216] [1] : tensor<6755192832xbf16> to tensor<16777216xbf16>
    %expanded_474 = tensor.expand_shape %extracted_slice_473 [[0, 1]] : tensor<16777216xbf16> into tensor<4096x4096xbf16>
    %extracted_slice_475 = tensor.extract_slice %arg0[6033772544] [16777216] [1] : tensor<6755192832xbf16> to tensor<16777216xbf16>
    %expanded_476 = tensor.expand_shape %extracted_slice_475 [[0, 1]] : tensor<16777216xbf16> into tensor<4096x4096xbf16>
    %extracted_slice_477 = tensor.extract_slice %arg0[6050549760] [16777216] [1] : tensor<6755192832xbf16> to tensor<16777216xbf16>
    %expanded_478 = tensor.expand_shape %extracted_slice_477 [[0, 1]] : tensor<16777216xbf16> into tensor<4096x4096xbf16>
    %extracted_slice_479 = tensor.extract_slice %arg0[6067326976] [45088768] [1] : tensor<6755192832xbf16> to tensor<45088768xbf16>
    %expanded_480 = tensor.expand_shape %extracted_slice_479 [[0, 1]] : tensor<45088768xbf16> into tensor<11008x4096xbf16>
    %extracted_slice_481 = tensor.extract_slice %arg0[6112415744] [45088768] [1] : tensor<6755192832xbf16> to tensor<45088768xbf16>
    %expanded_482 = tensor.expand_shape %extracted_slice_481 [[0, 1]] : tensor<45088768xbf16> into tensor<11008x4096xbf16>
    %extracted_slice_483 = tensor.extract_slice %arg0[6157504512] [45088768] [1] : tensor<6755192832xbf16> to tensor<45088768xbf16>
    %expanded_484 = tensor.expand_shape %extracted_slice_483 [[0, 1]] : tensor<45088768xbf16> into tensor<4096x11008xbf16>
    %extracted_slice_485 = tensor.extract_slice %arg0[6202593280] [16777216] [1] : tensor<6755192832xbf16> to tensor<16777216xbf16>
    %expanded_486 = tensor.expand_shape %extracted_slice_485 [[0, 1]] : tensor<16777216xbf16> into tensor<4096x4096xbf16>
    %extracted_slice_487 = tensor.extract_slice %arg0[6219370496] [16777216] [1] : tensor<6755192832xbf16> to tensor<16777216xbf16>
    %expanded_488 = tensor.expand_shape %extracted_slice_487 [[0, 1]] : tensor<16777216xbf16> into tensor<4096x4096xbf16>
    %extracted_slice_489 = tensor.extract_slice %arg0[6236147712] [16777216] [1] : tensor<6755192832xbf16> to tensor<16777216xbf16>
    %expanded_490 = tensor.expand_shape %extracted_slice_489 [[0, 1]] : tensor<16777216xbf16> into tensor<4096x4096xbf16>
    %extracted_slice_491 = tensor.extract_slice %arg0[6252924928] [16777216] [1] : tensor<6755192832xbf16> to tensor<16777216xbf16>
    %expanded_492 = tensor.expand_shape %extracted_slice_491 [[0, 1]] : tensor<16777216xbf16> into tensor<4096x4096xbf16>
    %extracted_slice_493 = tensor.extract_slice %arg0[6269702144] [45088768] [1] : tensor<6755192832xbf16> to tensor<45088768xbf16>
    %expanded_494 = tensor.expand_shape %extracted_slice_493 [[0, 1]] : tensor<45088768xbf16> into tensor<11008x4096xbf16>
    %extracted_slice_495 = tensor.extract_slice %arg0[6314790912] [45088768] [1] : tensor<6755192832xbf16> to tensor<45088768xbf16>
    %expanded_496 = tensor.expand_shape %extracted_slice_495 [[0, 1]] : tensor<45088768xbf16> into tensor<11008x4096xbf16>
    %extracted_slice_497 = tensor.extract_slice %arg0[6359879680] [45088768] [1] : tensor<6755192832xbf16> to tensor<45088768xbf16>
    %expanded_498 = tensor.expand_shape %extracted_slice_497 [[0, 1]] : tensor<45088768xbf16> into tensor<4096x11008xbf16>
    %extracted_slice_499 = tensor.extract_slice %arg0[6404968448] [16777216] [1] : tensor<6755192832xbf16> to tensor<16777216xbf16>
    %expanded_500 = tensor.expand_shape %extracted_slice_499 [[0, 1]] : tensor<16777216xbf16> into tensor<4096x4096xbf16>
    %extracted_slice_501 = tensor.extract_slice %arg0[6421745664] [16777216] [1] : tensor<6755192832xbf16> to tensor<16777216xbf16>
    %expanded_502 = tensor.expand_shape %extracted_slice_501 [[0, 1]] : tensor<16777216xbf16> into tensor<4096x4096xbf16>
    %extracted_slice_503 = tensor.extract_slice %arg0[6438522880] [16777216] [1] : tensor<6755192832xbf16> to tensor<16777216xbf16>
    %expanded_504 = tensor.expand_shape %extracted_slice_503 [[0, 1]] : tensor<16777216xbf16> into tensor<4096x4096xbf16>
    %extracted_slice_505 = tensor.extract_slice %arg0[6455300096] [16777216] [1] : tensor<6755192832xbf16> to tensor<16777216xbf16>
    %expanded_506 = tensor.expand_shape %extracted_slice_505 [[0, 1]] : tensor<16777216xbf16> into tensor<4096x4096xbf16>
    %extracted_slice_507 = tensor.extract_slice %arg0[6472077312] [45088768] [1] : tensor<6755192832xbf16> to tensor<45088768xbf16>
    %expanded_508 = tensor.expand_shape %extracted_slice_507 [[0, 1]] : tensor<45088768xbf16> into tensor<11008x4096xbf16>
    %extracted_slice_509 = tensor.extract_slice %arg0[6517166080] [45088768] [1] : tensor<6755192832xbf16> to tensor<45088768xbf16>
    %expanded_510 = tensor.expand_shape %extracted_slice_509 [[0, 1]] : tensor<45088768xbf16> into tensor<11008x4096xbf16>
    %extracted_slice_511 = tensor.extract_slice %arg0[6562254848] [45088768] [1] : tensor<6755192832xbf16> to tensor<45088768xbf16>
    %expanded_512 = tensor.expand_shape %extracted_slice_511 [[0, 1]] : tensor<45088768xbf16> into tensor<4096x11008xbf16>
    %extracted_slice_513 = tensor.extract_slice %arg0[6607343616] [131072000] [1] : tensor<6755192832xbf16> to tensor<131072000xbf16>
    %expanded_514 = tensor.expand_shape %extracted_slice_513 [[0, 1]] : tensor<131072000xbf16> into tensor<32000x4096xbf16>
    %extracted_slice_515 = tensor.extract_slice %arg0[6738415616] [262144] [1] : tensor<6755192832xbf16> to tensor<262144xbf16>
    %expanded_516 = tensor.expand_shape %extracted_slice_515 [[0, 1, 2, 3]] : tensor<262144xbf16> into tensor<1x1x2048x128xbf16>
    %extracted_slice_517 = tensor.extract_slice %arg0[6738677760] [262144] [1] : tensor<6755192832xbf16> to tensor<262144xbf16>
    %expanded_518 = tensor.expand_shape %extracted_slice_517 [[0, 1, 2, 3]] : tensor<262144xbf16> into tensor<1x1x2048x128xbf16>
    %extracted_slice_519 = tensor.extract_slice %arg0[6738939904] [262144] [1] : tensor<6755192832xbf16> to tensor<262144xbf16>
    %expanded_520 = tensor.expand_shape %extracted_slice_519 [[0, 1, 2, 3]] : tensor<262144xbf16> into tensor<1x1x2048x128xbf16>
    %extracted_slice_521 = tensor.extract_slice %arg0[6739202048] [262144] [1] : tensor<6755192832xbf16> to tensor<262144xbf16>
    %expanded_522 = tensor.expand_shape %extracted_slice_521 [[0, 1, 2, 3]] : tensor<262144xbf16> into tensor<1x1x2048x128xbf16>
    %extracted_slice_523 = tensor.extract_slice %arg0[6739464192] [262144] [1] : tensor<6755192832xbf16> to tensor<262144xbf16>
    %expanded_524 = tensor.expand_shape %extracted_slice_523 [[0, 1, 2, 3]] : tensor<262144xbf16> into tensor<1x1x2048x128xbf16>
    %extracted_slice_525 = tensor.extract_slice %arg0[6739726336] [262144] [1] : tensor<6755192832xbf16> to tensor<262144xbf16>
    %expanded_526 = tensor.expand_shape %extracted_slice_525 [[0, 1, 2, 3]] : tensor<262144xbf16> into tensor<1x1x2048x128xbf16>
    %extracted_slice_527 = tensor.extract_slice %arg0[6739988480] [262144] [1] : tensor<6755192832xbf16> to tensor<262144xbf16>
    %expanded_528 = tensor.expand_shape %extracted_slice_527 [[0, 1, 2, 3]] : tensor<262144xbf16> into tensor<1x1x2048x128xbf16>
    %extracted_slice_529 = tensor.extract_slice %arg0[6740250624] [262144] [1] : tensor<6755192832xbf16> to tensor<262144xbf16>
    %expanded_530 = tensor.expand_shape %extracted_slice_529 [[0, 1, 2, 3]] : tensor<262144xbf16> into tensor<1x1x2048x128xbf16>
    %extracted_slice_531 = tensor.extract_slice %arg0[6740512768] [262144] [1] : tensor<6755192832xbf16> to tensor<262144xbf16>
    %expanded_532 = tensor.expand_shape %extracted_slice_531 [[0, 1, 2, 3]] : tensor<262144xbf16> into tensor<1x1x2048x128xbf16>
    %extracted_slice_533 = tensor.extract_slice %arg0[6740774912] [262144] [1] : tensor<6755192832xbf16> to tensor<262144xbf16>
    %expanded_534 = tensor.expand_shape %extracted_slice_533 [[0, 1, 2, 3]] : tensor<262144xbf16> into tensor<1x1x2048x128xbf16>
    %extracted_slice_535 = tensor.extract_slice %arg0[6741037056] [262144] [1] : tensor<6755192832xbf16> to tensor<262144xbf16>
    %expanded_536 = tensor.expand_shape %extracted_slice_535 [[0, 1, 2, 3]] : tensor<262144xbf16> into tensor<1x1x2048x128xbf16>
    %extracted_slice_537 = tensor.extract_slice %arg0[6741299200] [262144] [1] : tensor<6755192832xbf16> to tensor<262144xbf16>
    %expanded_538 = tensor.expand_shape %extracted_slice_537 [[0, 1, 2, 3]] : tensor<262144xbf16> into tensor<1x1x2048x128xbf16>
    %extracted_slice_539 = tensor.extract_slice %arg0[6741561344] [262144] [1] : tensor<6755192832xbf16> to tensor<262144xbf16>
    %expanded_540 = tensor.expand_shape %extracted_slice_539 [[0, 1, 2, 3]] : tensor<262144xbf16> into tensor<1x1x2048x128xbf16>
    %extracted_slice_541 = tensor.extract_slice %arg0[6741823488] [262144] [1] : tensor<6755192832xbf16> to tensor<262144xbf16>
    %expanded_542 = tensor.expand_shape %extracted_slice_541 [[0, 1, 2, 3]] : tensor<262144xbf16> into tensor<1x1x2048x128xbf16>
    %extracted_slice_543 = tensor.extract_slice %arg0[6742085632] [262144] [1] : tensor<6755192832xbf16> to tensor<262144xbf16>
    %expanded_544 = tensor.expand_shape %extracted_slice_543 [[0, 1, 2, 3]] : tensor<262144xbf16> into tensor<1x1x2048x128xbf16>
    %extracted_slice_545 = tensor.extract_slice %arg0[6742347776] [262144] [1] : tensor<6755192832xbf16> to tensor<262144xbf16>
    %expanded_546 = tensor.expand_shape %extracted_slice_545 [[0, 1, 2, 3]] : tensor<262144xbf16> into tensor<1x1x2048x128xbf16>
    %extracted_slice_547 = tensor.extract_slice %arg0[6742609920] [262144] [1] : tensor<6755192832xbf16> to tensor<262144xbf16>
    %expanded_548 = tensor.expand_shape %extracted_slice_547 [[0, 1, 2, 3]] : tensor<262144xbf16> into tensor<1x1x2048x128xbf16>
    %extracted_slice_549 = tensor.extract_slice %arg0[6742872064] [262144] [1] : tensor<6755192832xbf16> to tensor<262144xbf16>
    %expanded_550 = tensor.expand_shape %extracted_slice_549 [[0, 1, 2, 3]] : tensor<262144xbf16> into tensor<1x1x2048x128xbf16>
    %extracted_slice_551 = tensor.extract_slice %arg0[6743134208] [262144] [1] : tensor<6755192832xbf16> to tensor<262144xbf16>
    %expanded_552 = tensor.expand_shape %extracted_slice_551 [[0, 1, 2, 3]] : tensor<262144xbf16> into tensor<1x1x2048x128xbf16>
    %extracted_slice_553 = tensor.extract_slice %arg0[6743396352] [262144] [1] : tensor<6755192832xbf16> to tensor<262144xbf16>
    %expanded_554 = tensor.expand_shape %extracted_slice_553 [[0, 1, 2, 3]] : tensor<262144xbf16> into tensor<1x1x2048x128xbf16>
    %extracted_slice_555 = tensor.extract_slice %arg0[6743658496] [262144] [1] : tensor<6755192832xbf16> to tensor<262144xbf16>
    %expanded_556 = tensor.expand_shape %extracted_slice_555 [[0, 1, 2, 3]] : tensor<262144xbf16> into tensor<1x1x2048x128xbf16>
    %extracted_slice_557 = tensor.extract_slice %arg0[6743920640] [262144] [1] : tensor<6755192832xbf16> to tensor<262144xbf16>
    %expanded_558 = tensor.expand_shape %extracted_slice_557 [[0, 1, 2, 3]] : tensor<262144xbf16> into tensor<1x1x2048x128xbf16>
    %extracted_slice_559 = tensor.extract_slice %arg0[6744182784] [262144] [1] : tensor<6755192832xbf16> to tensor<262144xbf16>
    %expanded_560 = tensor.expand_shape %extracted_slice_559 [[0, 1, 2, 3]] : tensor<262144xbf16> into tensor<1x1x2048x128xbf16>
    %extracted_slice_561 = tensor.extract_slice %arg0[6744444928] [262144] [1] : tensor<6755192832xbf16> to tensor<262144xbf16>
    %expanded_562 = tensor.expand_shape %extracted_slice_561 [[0, 1, 2, 3]] : tensor<262144xbf16> into tensor<1x1x2048x128xbf16>
    %extracted_slice_563 = tensor.extract_slice %arg0[6744707072] [262144] [1] : tensor<6755192832xbf16> to tensor<262144xbf16>
    %expanded_564 = tensor.expand_shape %extracted_slice_563 [[0, 1, 2, 3]] : tensor<262144xbf16> into tensor<1x1x2048x128xbf16>
    %extracted_slice_565 = tensor.extract_slice %arg0[6744969216] [262144] [1] : tensor<6755192832xbf16> to tensor<262144xbf16>
    %expanded_566 = tensor.expand_shape %extracted_slice_565 [[0, 1, 2, 3]] : tensor<262144xbf16> into tensor<1x1x2048x128xbf16>
    %extracted_slice_567 = tensor.extract_slice %arg0[6745231360] [262144] [1] : tensor<6755192832xbf16> to tensor<262144xbf16>
    %expanded_568 = tensor.expand_shape %extracted_slice_567 [[0, 1, 2, 3]] : tensor<262144xbf16> into tensor<1x1x2048x128xbf16>
    %extracted_slice_569 = tensor.extract_slice %arg0[6745493504] [262144] [1] : tensor<6755192832xbf16> to tensor<262144xbf16>
    %expanded_570 = tensor.expand_shape %extracted_slice_569 [[0, 1, 2, 3]] : tensor<262144xbf16> into tensor<1x1x2048x128xbf16>
    %extracted_slice_571 = tensor.extract_slice %arg0[6745755648] [262144] [1] : tensor<6755192832xbf16> to tensor<262144xbf16>
    %expanded_572 = tensor.expand_shape %extracted_slice_571 [[0, 1, 2, 3]] : tensor<262144xbf16> into tensor<1x1x2048x128xbf16>
    %extracted_slice_573 = tensor.extract_slice %arg0[6746017792] [262144] [1] : tensor<6755192832xbf16> to tensor<262144xbf16>
    %expanded_574 = tensor.expand_shape %extracted_slice_573 [[0, 1, 2, 3]] : tensor<262144xbf16> into tensor<1x1x2048x128xbf16>
    %extracted_slice_575 = tensor.extract_slice %arg0[6746279936] [262144] [1] : tensor<6755192832xbf16> to tensor<262144xbf16>
    %expanded_576 = tensor.expand_shape %extracted_slice_575 [[0, 1, 2, 3]] : tensor<262144xbf16> into tensor<1x1x2048x128xbf16>
    %extracted_slice_577 = tensor.extract_slice %arg0[6746542080] [262144] [1] : tensor<6755192832xbf16> to tensor<262144xbf16>
    %expanded_578 = tensor.expand_shape %extracted_slice_577 [[0, 1, 2, 3]] : tensor<262144xbf16> into tensor<1x1x2048x128xbf16>
    %extracted_slice_579 = tensor.extract_slice %arg0[6746804224] [262144] [1] : tensor<6755192832xbf16> to tensor<262144xbf16>
    %expanded_580 = tensor.expand_shape %extracted_slice_579 [[0, 1, 2, 3]] : tensor<262144xbf16> into tensor<1x1x2048x128xbf16>
    %extracted_slice_581 = tensor.extract_slice %arg0[6747066368] [262144] [1] : tensor<6755192832xbf16> to tensor<262144xbf16>
    %expanded_582 = tensor.expand_shape %extracted_slice_581 [[0, 1, 2, 3]] : tensor<262144xbf16> into tensor<1x1x2048x128xbf16>
    %extracted_slice_583 = tensor.extract_slice %arg0[6747328512] [262144] [1] : tensor<6755192832xbf16> to tensor<262144xbf16>
    %expanded_584 = tensor.expand_shape %extracted_slice_583 [[0, 1, 2, 3]] : tensor<262144xbf16> into tensor<1x1x2048x128xbf16>
    %extracted_slice_585 = tensor.extract_slice %arg0[6747590656] [262144] [1] : tensor<6755192832xbf16> to tensor<262144xbf16>
    %expanded_586 = tensor.expand_shape %extracted_slice_585 [[0, 1, 2, 3]] : tensor<262144xbf16> into tensor<1x1x2048x128xbf16>
    %extracted_slice_587 = tensor.extract_slice %arg0[6747852800] [262144] [1] : tensor<6755192832xbf16> to tensor<262144xbf16>
    %expanded_588 = tensor.expand_shape %extracted_slice_587 [[0, 1, 2, 3]] : tensor<262144xbf16> into tensor<1x1x2048x128xbf16>
    %extracted_slice_589 = tensor.extract_slice %arg0[6748114944] [262144] [1] : tensor<6755192832xbf16> to tensor<262144xbf16>
    %expanded_590 = tensor.expand_shape %extracted_slice_589 [[0, 1, 2, 3]] : tensor<262144xbf16> into tensor<1x1x2048x128xbf16>
    %extracted_slice_591 = tensor.extract_slice %arg0[6748377088] [262144] [1] : tensor<6755192832xbf16> to tensor<262144xbf16>
    %expanded_592 = tensor.expand_shape %extracted_slice_591 [[0, 1, 2, 3]] : tensor<262144xbf16> into tensor<1x1x2048x128xbf16>
    %extracted_slice_593 = tensor.extract_slice %arg0[6748639232] [262144] [1] : tensor<6755192832xbf16> to tensor<262144xbf16>
    %expanded_594 = tensor.expand_shape %extracted_slice_593 [[0, 1, 2, 3]] : tensor<262144xbf16> into tensor<1x1x2048x128xbf16>
    %extracted_slice_595 = tensor.extract_slice %arg0[6748901376] [262144] [1] : tensor<6755192832xbf16> to tensor<262144xbf16>
    %expanded_596 = tensor.expand_shape %extracted_slice_595 [[0, 1, 2, 3]] : tensor<262144xbf16> into tensor<1x1x2048x128xbf16>
    %extracted_slice_597 = tensor.extract_slice %arg0[6749163520] [262144] [1] : tensor<6755192832xbf16> to tensor<262144xbf16>
    %expanded_598 = tensor.expand_shape %extracted_slice_597 [[0, 1, 2, 3]] : tensor<262144xbf16> into tensor<1x1x2048x128xbf16>
    %extracted_slice_599 = tensor.extract_slice %arg0[6749425664] [262144] [1] : tensor<6755192832xbf16> to tensor<262144xbf16>
    %expanded_600 = tensor.expand_shape %extracted_slice_599 [[0, 1, 2, 3]] : tensor<262144xbf16> into tensor<1x1x2048x128xbf16>
    %extracted_slice_601 = tensor.extract_slice %arg0[6749687808] [262144] [1] : tensor<6755192832xbf16> to tensor<262144xbf16>
    %expanded_602 = tensor.expand_shape %extracted_slice_601 [[0, 1, 2, 3]] : tensor<262144xbf16> into tensor<1x1x2048x128xbf16>
    %extracted_slice_603 = tensor.extract_slice %arg0[6749949952] [262144] [1] : tensor<6755192832xbf16> to tensor<262144xbf16>
    %expanded_604 = tensor.expand_shape %extracted_slice_603 [[0, 1, 2, 3]] : tensor<262144xbf16> into tensor<1x1x2048x128xbf16>
    %extracted_slice_605 = tensor.extract_slice %arg0[6750212096] [262144] [1] : tensor<6755192832xbf16> to tensor<262144xbf16>
    %expanded_606 = tensor.expand_shape %extracted_slice_605 [[0, 1, 2, 3]] : tensor<262144xbf16> into tensor<1x1x2048x128xbf16>
    %extracted_slice_607 = tensor.extract_slice %arg0[6750474240] [262144] [1] : tensor<6755192832xbf16> to tensor<262144xbf16>
    %expanded_608 = tensor.expand_shape %extracted_slice_607 [[0, 1, 2, 3]] : tensor<262144xbf16> into tensor<1x1x2048x128xbf16>
    %extracted_slice_609 = tensor.extract_slice %arg0[6750736384] [262144] [1] : tensor<6755192832xbf16> to tensor<262144xbf16>
    %expanded_610 = tensor.expand_shape %extracted_slice_609 [[0, 1, 2, 3]] : tensor<262144xbf16> into tensor<1x1x2048x128xbf16>
    %extracted_slice_611 = tensor.extract_slice %arg0[6750998528] [262144] [1] : tensor<6755192832xbf16> to tensor<262144xbf16>
    %expanded_612 = tensor.expand_shape %extracted_slice_611 [[0, 1, 2, 3]] : tensor<262144xbf16> into tensor<1x1x2048x128xbf16>
    %extracted_slice_613 = tensor.extract_slice %arg0[6751260672] [262144] [1] : tensor<6755192832xbf16> to tensor<262144xbf16>
    %expanded_614 = tensor.expand_shape %extracted_slice_613 [[0, 1, 2, 3]] : tensor<262144xbf16> into tensor<1x1x2048x128xbf16>
    %extracted_slice_615 = tensor.extract_slice %arg0[6751522816] [262144] [1] : tensor<6755192832xbf16> to tensor<262144xbf16>
    %expanded_616 = tensor.expand_shape %extracted_slice_615 [[0, 1, 2, 3]] : tensor<262144xbf16> into tensor<1x1x2048x128xbf16>
    %extracted_slice_617 = tensor.extract_slice %arg0[6751784960] [262144] [1] : tensor<6755192832xbf16> to tensor<262144xbf16>
    %expanded_618 = tensor.expand_shape %extracted_slice_617 [[0, 1, 2, 3]] : tensor<262144xbf16> into tensor<1x1x2048x128xbf16>
    %extracted_slice_619 = tensor.extract_slice %arg0[6752047104] [262144] [1] : tensor<6755192832xbf16> to tensor<262144xbf16>
    %expanded_620 = tensor.expand_shape %extracted_slice_619 [[0, 1, 2, 3]] : tensor<262144xbf16> into tensor<1x1x2048x128xbf16>
    %extracted_slice_621 = tensor.extract_slice %arg0[6752309248] [262144] [1] : tensor<6755192832xbf16> to tensor<262144xbf16>
    %expanded_622 = tensor.expand_shape %extracted_slice_621 [[0, 1, 2, 3]] : tensor<262144xbf16> into tensor<1x1x2048x128xbf16>
    %extracted_slice_623 = tensor.extract_slice %arg0[6752571392] [262144] [1] : tensor<6755192832xbf16> to tensor<262144xbf16>
    %expanded_624 = tensor.expand_shape %extracted_slice_623 [[0, 1, 2, 3]] : tensor<262144xbf16> into tensor<1x1x2048x128xbf16>
    %extracted_slice_625 = tensor.extract_slice %arg0[6752833536] [262144] [1] : tensor<6755192832xbf16> to tensor<262144xbf16>
    %expanded_626 = tensor.expand_shape %extracted_slice_625 [[0, 1, 2, 3]] : tensor<262144xbf16> into tensor<1x1x2048x128xbf16>
    %extracted_slice_627 = tensor.extract_slice %arg0[6753095680] [262144] [1] : tensor<6755192832xbf16> to tensor<262144xbf16>
    %expanded_628 = tensor.expand_shape %extracted_slice_627 [[0, 1, 2, 3]] : tensor<262144xbf16> into tensor<1x1x2048x128xbf16>
    %extracted_slice_629 = tensor.extract_slice %arg0[6753357824] [262144] [1] : tensor<6755192832xbf16> to tensor<262144xbf16>
    %expanded_630 = tensor.expand_shape %extracted_slice_629 [[0, 1, 2, 3]] : tensor<262144xbf16> into tensor<1x1x2048x128xbf16>
    %extracted_slice_631 = tensor.extract_slice %arg0[6753619968] [262144] [1] : tensor<6755192832xbf16> to tensor<262144xbf16>
    %expanded_632 = tensor.expand_shape %extracted_slice_631 [[0, 1, 2, 3]] : tensor<262144xbf16> into tensor<1x1x2048x128xbf16>
    %extracted_slice_633 = tensor.extract_slice %arg0[6753882112] [262144] [1] : tensor<6755192832xbf16> to tensor<262144xbf16>
    %expanded_634 = tensor.expand_shape %extracted_slice_633 [[0, 1, 2, 3]] : tensor<262144xbf16> into tensor<1x1x2048x128xbf16>
    %extracted_slice_635 = tensor.extract_slice %arg0[6754144256] [262144] [1] : tensor<6755192832xbf16> to tensor<262144xbf16>
    %expanded_636 = tensor.expand_shape %extracted_slice_635 [[0, 1, 2, 3]] : tensor<262144xbf16> into tensor<1x1x2048x128xbf16>
    %extracted_slice_637 = tensor.extract_slice %arg0[6754406400] [262144] [1] : tensor<6755192832xbf16> to tensor<262144xbf16>
    %expanded_638 = tensor.expand_shape %extracted_slice_637 [[0, 1, 2, 3]] : tensor<262144xbf16> into tensor<1x1x2048x128xbf16>
    %extracted_slice_639 = tensor.extract_slice %arg0[6754668544] [262144] [1] : tensor<6755192832xbf16> to tensor<262144xbf16>
    %expanded_640 = tensor.expand_shape %extracted_slice_639 [[0, 1, 2, 3]] : tensor<262144xbf16> into tensor<1x1x2048x128xbf16>
    %extracted_slice_641 = tensor.extract_slice %arg0[6754930688] [262144] [1] : tensor<6755192832xbf16> to tensor<262144xbf16>
    %expanded_642 = tensor.expand_shape %extracted_slice_641 [[0, 1, 2, 3]] : tensor<262144xbf16> into tensor<1x1x2048x128xbf16>
    %cst = arith.constant dense<[0, 1, 2, 3, 4, 5, 6, 7, 8, 9, 10, 11, 12, 13, 14, 15, 16, 17, 18, 19, 20, 21, 22, 23, 24, 25, 26, 27, 28, 29, 30, 31, 32, 33, 34, 35, 36, 37, 38, 39]> : tensor<40xi64>
    %0 = tosa.reshape %cst {new_shape = array<i64: 1, 40>} : (tensor<40xi64>) -> tensor<1x40xi64>
    %1 = tosa.reshape %0 {new_shape = array<i64: 1, 40>} : (tensor<1x40xi64>) -> tensor<1x40xi64>
    %2 = tosa.cast %arg1 : (tensor<1x40xi64>) -> tensor<1x40xi32>
    %3 = tosa.reshape %expanded {new_shape = array<i64: 1, 32000, 4096>} : (tensor<32000x4096xbf16>) -> tensor<1x32000x4096xbf16>
    %4 = tosa.gather %3, %2 : (tensor<1x32000x4096xbf16>, tensor<1x40xi32>) -> tensor<1x40x4096xbf16>
    %5 = tosa.reshape %4 {new_shape = array<i64: 1, 40, 4096>} : (tensor<1x40x4096xbf16>) -> tensor<1x40x4096xbf16>
    %cst_643 = arith.constant dense<true> : tensor<1x40xi1>
    %cst_644 = arith.constant dense<-3.38953139E+38> : tensor<40x40xf32>
    %cst_645 = arith.constant dense<[0, 1, 2, 3, 4, 5, 6, 7, 8, 9, 10, 11, 12, 13, 14, 15, 16, 17, 18, 19, 20, 21, 22, 23, 24, 25, 26, 27, 28, 29, 30, 31, 32, 33, 34, 35, 36, 37, 38, 39]> : tensor<40xi64>
    %6 = "tosa.const"() <{value = dense<1> : tensor<40xi64>}> : () -> tensor<40xi64>
    %7 = tosa.add %cst_645, %6 : (tensor<40xi64>, tensor<40xi64>) -> tensor<40xi64>
    %8 = tosa.reshape %7 {new_shape = array<i64: 40, 1>} : (tensor<40xi64>) -> tensor<40x1xi64>
    %9 = tensor.empty() : tensor<40x40xi1>
    %10 = linalg.generic {indexing_maps = [#map, #map1, #map2], iterator_types = ["parallel", "parallel", "reduction"]} ins(%cst_645, %8 : tensor<40xi64>, tensor<40x1xi64>) outs(%9 : tensor<40x40xi1>) {
    ^bb0(%in: i64, %in_1454: i64, %out: i1):
      %4564 = arith.cmpi slt, %in, %in_1454 : i64
      linalg.yield %4564 : i1
    } -> tensor<40x40xi1>
    %cst_646 = arith.constant 0.000000e+00 : f32
    %11 = tensor.empty() : tensor<40x40xf32>
    %12 = linalg.generic {indexing_maps = [#map3, #map3, #map3], iterator_types = ["parallel", "parallel"]} ins(%cst_644, %10 : tensor<40x40xf32>, tensor<40x40xi1>) outs(%11 : tensor<40x40xf32>) {
    ^bb0(%in: f32, %in_1454: i1, %out: f32):
      %4564 = arith.select %in_1454, %cst_646, %in : f32
      linalg.yield %4564 : f32
    } -> tensor<40x40xf32>
    %13 = tensor.empty() : tensor<40x40xbf16>
    %14 = linalg.generic {indexing_maps = [#map3, #map3], iterator_types = ["parallel", "parallel"]} ins(%12 : tensor<40x40xf32>) outs(%13 : tensor<40x40xbf16>) {
    ^bb0(%in: f32, %out: bf16):
      %4564 = arith.truncf %in : f32 to bf16
      linalg.yield %4564 : bf16
    } -> tensor<40x40xbf16>
    %15 = tosa.reshape %14 {new_shape = array<i64: 1, 40, 40>} : (tensor<40x40xbf16>) -> tensor<1x40x40xbf16>
    %16 = tosa.reshape %15 {new_shape = array<i64: 1, 1, 40, 40>} : (tensor<1x40x40xbf16>) -> tensor<1x1x40x40xbf16>
    %extracted_slice_647 = tensor.extract_slice %16[0, 0, 0, 0] [1, 1, 40, 40] [1, 1, 1, 1] : tensor<1x1x40x40xbf16> to tensor<1x1x40x40xbf16>
    %extracted_slice_648 = tensor.extract_slice %extracted_slice_647[0, 0, 0, 0] [1, 1, 40, 40] [1, 1, 1, 1] : tensor<1x1x40x40xbf16> to tensor<1x1x40x40xbf16>
    %17 = "tosa.const"() <{value = dense<0.000000e+00> : tensor<1x1x40x40xbf16>}> : () -> tensor<1x1x40x40xbf16>
    %18 = tosa.add %extracted_slice_648, %17 : (tensor<1x1x40x40xbf16>, tensor<1x1x40x40xbf16>) -> tensor<1x1x40x40xbf16>
    %extracted_slice_649 = tensor.extract_slice %cst_643[0, 0] [1, 40] [1, 1] : tensor<1x40xi1> to tensor<1x40xi1>
    %19 = tosa.reshape %extracted_slice_649 {new_shape = array<i64: 1, 1, 40>} : (tensor<1x40xi1>) -> tensor<1x1x40xi1>
    %20 = tosa.reshape %19 {new_shape = array<i64: 1, 1, 1, 40>} : (tensor<1x1x40xi1>) -> tensor<1x1x1x40xi1>
    %extracted_slice_650 = tensor.extract_slice %20[0, 0, 0, 0] [1, 1, 1, 40] [1, 1, 1, 1] : tensor<1x1x1x40xi1> to tensor<1x1x1x40xi1>
    %21 = "tosa.const"() <{value = dense<false> : tensor<1x1x40x40xi1>}> : () -> tensor<1x1x40x40xi1>
    %22 = tosa.add %extracted_slice_650, %21 : (tensor<1x1x1x40xi1>, tensor<1x1x40x40xi1>) -> tensor<1x1x40x40xi1>
    %23 = tensor.empty() : tensor<1x1x40x40xbf16>
    %24 = linalg.generic {indexing_maps = [#map4, #map4], iterator_types = ["parallel", "parallel", "parallel", "parallel"]} ins(%22 : tensor<1x1x40x40xi1>) outs(%23 : tensor<1x1x40x40xbf16>) {
    ^bb0(%in: i1, %out: bf16):
      %4564 = arith.extui %in : i1 to i16
      %4565 = arith.sitofp %4564 : i16 to bf16
      linalg.yield %4565 : bf16
    } -> tensor<1x1x40x40xbf16>
    %cst_651 = arith.constant 1.000000e+00 : bf16
    %25 = tensor.empty() : tensor<1x1x40x40xbf16>
    %26 = linalg.generic {indexing_maps = [#map4, #map4], iterator_types = ["parallel", "parallel", "parallel", "parallel"]} ins(%24 : tensor<1x1x40x40xbf16>) outs(%25 : tensor<1x1x40x40xbf16>) {
    ^bb0(%in: bf16, %out: bf16):
      %4564 = arith.subf %cst_651, %in : bf16
      linalg.yield %4564 : bf16
    } -> tensor<1x1x40x40xbf16>
    %27 = tensor.empty() : tensor<1x1x40x40xi1>
    %28 = linalg.generic {indexing_maps = [#map4, #map4], iterator_types = ["parallel", "parallel", "parallel", "parallel"]} ins(%26 : tensor<1x1x40x40xbf16>) outs(%27 : tensor<1x1x40x40xi1>) {
    ^bb0(%in: bf16, %out: i1):
      %4564 = arith.fptosi %in : bf16 to i16
      %4565 = arith.trunci %4564 : i16 to i1
      linalg.yield %4565 : i1
    } -> tensor<1x1x40x40xi1>
    %cst_652 = arith.constant -3.389530e+38 : bf16
    %29 = tensor.empty() : tensor<1x1x40x40xbf16>
    %30 = linalg.generic {indexing_maps = [#map4, #map4, #map4], iterator_types = ["parallel", "parallel", "parallel", "parallel"]} ins(%26, %28 : tensor<1x1x40x40xbf16>, tensor<1x1x40x40xi1>) outs(%29 : tensor<1x1x40x40xbf16>) {
    ^bb0(%in: bf16, %in_1454: i1, %out: bf16):
      %4564 = arith.select %in_1454, %cst_652, %in : bf16
      linalg.yield %4564 : bf16
    } -> tensor<1x1x40x40xbf16>
    %31 = tosa.add %30, %18 : (tensor<1x1x40x40xbf16>, tensor<1x1x40x40xbf16>) -> tensor<1x1x40x40xbf16>
    %32 = tensor.empty() : tensor<1x40x4096xf32>
    %33 = linalg.generic {indexing_maps = [#map5, #map5], iterator_types = ["parallel", "parallel", "parallel"]} ins(%5 : tensor<1x40x4096xbf16>) outs(%32 : tensor<1x40x4096xf32>) {
    ^bb0(%in: bf16, %out: f32):
      %4564 = arith.extf %in : bf16 to f32
      linalg.yield %4564 : f32
    } -> tensor<1x40x4096xf32>
    %34 = tensor.empty() : tensor<1x40x4096xf32>
    %c2_i32 = arith.constant 2 : i32
    %35 = linalg.generic {indexing_maps = [#map5, #map5], iterator_types = ["parallel", "parallel", "parallel"]} ins(%33 : tensor<1x40x4096xf32>) outs(%34 : tensor<1x40x4096xf32>) {
    ^bb0(%in: f32, %out: f32):
      %4564 = math.fpowi %in, %c2_i32 : f32, i32
      linalg.yield %4564 : f32
    } -> tensor<1x40x4096xf32>
    %cst_653 = arith.constant dense<0.000000e+00> : tensor<1x40x1xf32>
    %36 = linalg.generic {indexing_maps = [#map6, #map7], iterator_types = ["parallel", "parallel", "reduction", "parallel"]} ins(%35 : tensor<1x40x4096xf32>) outs(%cst_653 : tensor<1x40x1xf32>) {
    ^bb0(%in: f32, %out: f32):
      %cst_1454 = arith.constant 4.096000e+03 : f32
      %4564 = arith.divf %in, %cst_1454 : f32
      %4565 = arith.addf %4564, %out : f32
      linalg.yield %4565 : f32
    } -> tensor<1x40x1xf32>
    %37 = "tosa.const"() <{value = dense<9.99999974E-6> : tensor<1x40x1xf32>}> : () -> tensor<1x40x1xf32>
    %38 = tosa.add %36, %37 : (tensor<1x40x1xf32>, tensor<1x40x1xf32>) -> tensor<1x40x1xf32>
    %39 = tosa.rsqrt %38 : (tensor<1x40x1xf32>) -> tensor<1x40x1xf32>
    %40 = tosa.mul %33, %39 {shift = 0 : i8} : (tensor<1x40x4096xf32>, tensor<1x40x1xf32>) -> tensor<1x40x4096xf32>
    %41 = tensor.empty() : tensor<1x40x4096xbf16>
    %42 = linalg.generic {indexing_maps = [#map5, #map5], iterator_types = ["parallel", "parallel", "parallel"]} ins(%40 : tensor<1x40x4096xf32>) outs(%41 : tensor<1x40x4096xbf16>) {
    ^bb0(%in: f32, %out: bf16):
      %4564 = arith.truncf %in : f32 to bf16
      linalg.yield %4564 : bf16
    } -> tensor<1x40x4096xbf16>
    %43 = tosa.reshape %extracted_slice {new_shape = array<i64: 1, 1, 4096>} : (tensor<4096xbf16>) -> tensor<1x1x4096xbf16>
    %44 = tosa.mul %43, %42 {shift = 0 : i8} : (tensor<1x1x4096xbf16>, tensor<1x40x4096xbf16>) -> tensor<1x40x4096xbf16>
    %45 = tensor.empty() : tensor<4096x4096xbf16>
    %46 = linalg.generic {indexing_maps = [#map3, #map8], iterator_types = ["parallel", "parallel"]} ins(%expanded_66 : tensor<4096x4096xbf16>) outs(%45 : tensor<4096x4096xbf16>) {
    ^bb0(%in: bf16, %out: bf16):
      linalg.yield %in : bf16
    } -> tensor<4096x4096xbf16>
    %47 = tosa.reshape %44 {new_shape = array<i64: 40, 4096>} : (tensor<1x40x4096xbf16>) -> tensor<40x4096xbf16>
    %cst_654 = arith.constant dense<0.000000e+00> : tensor<40x4096xbf16>
    %48 = linalg.matmul {cast = #linalg.type_fn<cast_signed>} ins(%47, %46 : tensor<40x4096xbf16>, tensor<4096x4096xbf16>) outs(%cst_654 : tensor<40x4096xbf16>) -> tensor<40x4096xbf16>
    %49 = tosa.reshape %48 {new_shape = array<i64: 1, 40, 4096>} : (tensor<40x4096xbf16>) -> tensor<1x40x4096xbf16>
    %50 = tensor.empty() : tensor<4096x4096xbf16>
    %51 = linalg.generic {indexing_maps = [#map3, #map8], iterator_types = ["parallel", "parallel"]} ins(%expanded_68 : tensor<4096x4096xbf16>) outs(%50 : tensor<4096x4096xbf16>) {
    ^bb0(%in: bf16, %out: bf16):
      linalg.yield %in : bf16
    } -> tensor<4096x4096xbf16>
    %52 = tosa.reshape %44 {new_shape = array<i64: 40, 4096>} : (tensor<1x40x4096xbf16>) -> tensor<40x4096xbf16>
    %cst_655 = arith.constant dense<0.000000e+00> : tensor<40x4096xbf16>
    %53 = linalg.matmul {cast = #linalg.type_fn<cast_signed>} ins(%52, %51 : tensor<40x4096xbf16>, tensor<4096x4096xbf16>) outs(%cst_655 : tensor<40x4096xbf16>) -> tensor<40x4096xbf16>
    %54 = tosa.reshape %53 {new_shape = array<i64: 1, 40, 4096>} : (tensor<40x4096xbf16>) -> tensor<1x40x4096xbf16>
    %55 = tensor.empty() : tensor<4096x4096xbf16>
    %56 = linalg.generic {indexing_maps = [#map3, #map8], iterator_types = ["parallel", "parallel"]} ins(%expanded_70 : tensor<4096x4096xbf16>) outs(%55 : tensor<4096x4096xbf16>) {
    ^bb0(%in: bf16, %out: bf16):
      linalg.yield %in : bf16
    } -> tensor<4096x4096xbf16>
    %57 = tosa.reshape %44 {new_shape = array<i64: 40, 4096>} : (tensor<1x40x4096xbf16>) -> tensor<40x4096xbf16>
    %cst_656 = arith.constant dense<0.000000e+00> : tensor<40x4096xbf16>
    %58 = linalg.matmul {cast = #linalg.type_fn<cast_signed>} ins(%57, %56 : tensor<40x4096xbf16>, tensor<4096x4096xbf16>) outs(%cst_656 : tensor<40x4096xbf16>) -> tensor<40x4096xbf16>
    %59 = tosa.reshape %58 {new_shape = array<i64: 1, 40, 4096>} : (tensor<40x4096xbf16>) -> tensor<1x40x4096xbf16>
    %60 = tosa.reshape %49 {new_shape = array<i64: 1, 40, 32, 128>} : (tensor<1x40x4096xbf16>) -> tensor<1x40x32x128xbf16>
    %61 = tensor.empty() : tensor<1x32x40x128xbf16>
    %62 = linalg.generic {indexing_maps = [#map9, #map4], iterator_types = ["parallel", "parallel", "parallel", "parallel"]} ins(%60 : tensor<1x40x32x128xbf16>) outs(%61 : tensor<1x32x40x128xbf16>) {
    ^bb0(%in: bf16, %out: bf16):
      linalg.yield %in : bf16
    } -> tensor<1x32x40x128xbf16>
    %63 = tosa.reshape %54 {new_shape = array<i64: 1, 40, 32, 128>} : (tensor<1x40x4096xbf16>) -> tensor<1x40x32x128xbf16>
    %64 = tensor.empty() : tensor<1x32x40x128xbf16>
    %65 = linalg.generic {indexing_maps = [#map9, #map4], iterator_types = ["parallel", "parallel", "parallel", "parallel"]} ins(%63 : tensor<1x40x32x128xbf16>) outs(%64 : tensor<1x32x40x128xbf16>) {
    ^bb0(%in: bf16, %out: bf16):
      linalg.yield %in : bf16
    } -> tensor<1x32x40x128xbf16>
    %66 = tosa.reshape %59 {new_shape = array<i64: 1, 40, 32, 128>} : (tensor<1x40x4096xbf16>) -> tensor<1x40x32x128xbf16>
    %67 = tensor.empty() : tensor<1x32x40x128xbf16>
    %68 = linalg.generic {indexing_maps = [#map9, #map4], iterator_types = ["parallel", "parallel", "parallel", "parallel"]} ins(%66 : tensor<1x40x32x128xbf16>) outs(%67 : tensor<1x32x40x128xbf16>) {
    ^bb0(%in: bf16, %out: bf16):
      linalg.yield %in : bf16
    } -> tensor<1x32x40x128xbf16>
    %extracted_slice_657 = tensor.extract_slice %expanded_516[0, 0, 0, 0] [1, 1, 2048, 128] [1, 1, 1, 1] : tensor<1x1x2048x128xbf16> to tensor<1x1x2048x128xbf16>
    %extracted_slice_658 = tensor.extract_slice %extracted_slice_657[0, 0, 0, 0] [1, 1, 2048, 128] [1, 1, 1, 1] : tensor<1x1x2048x128xbf16> to tensor<1x1x2048x128xbf16>
    %extracted_slice_659 = tensor.extract_slice %extracted_slice_658[0, 0, 0, 0] [1, 1, 40, 128] [1, 1, 1, 1] : tensor<1x1x2048x128xbf16> to tensor<1x1x40x128xbf16>
    %extracted_slice_660 = tensor.extract_slice %expanded_518[0, 0, 0, 0] [1, 1, 2048, 128] [1, 1, 1, 1] : tensor<1x1x2048x128xbf16> to tensor<1x1x2048x128xbf16>
    %extracted_slice_661 = tensor.extract_slice %extracted_slice_660[0, 0, 0, 0] [1, 1, 2048, 128] [1, 1, 1, 1] : tensor<1x1x2048x128xbf16> to tensor<1x1x2048x128xbf16>
    %extracted_slice_662 = tensor.extract_slice %extracted_slice_661[0, 0, 0, 0] [1, 1, 40, 128] [1, 1, 1, 1] : tensor<1x1x2048x128xbf16> to tensor<1x1x40x128xbf16>
    %69 = tensor.empty() : tensor<1x40x128xbf16>
    %70 = tensor.collapse_shape %extracted_slice_659 [[0,1],[2],[3]] : tensor<1x1x40x128xbf16> into tensor<1x40x128xbf16>
    %71 = tensor.empty() : tensor<40x128xbf16>
    %72 = linalg.generic {indexing_maps = [#map11, #map3], iterator_types = ["parallel", "parallel"]} ins(%70 : tensor<1x40x128xbf16>) outs(%71 : tensor<40x128xbf16>) {
    ^bb0(%in: bf16, %out: bf16):
      linalg.yield %in : bf16
    } -> tensor<40x128xbf16>
    %73 = tensor.empty() : tensor<1x40x128xbf16>
    %74  = tensor.collapse_shape %extracted_slice_662 [[0,1],[2],[3]] : tensor<1x1x40x128xbf16> into tensor<1x40x128xbf16>
    %75 = tensor.empty() : tensor<40x128xbf16>
    %76 = linalg.generic {indexing_maps = [#map11, #map3], iterator_types = ["parallel", "parallel"]} ins(%74 : tensor<1x40x128xbf16>) outs(%75 : tensor<40x128xbf16>) {
    ^bb0(%in: bf16, %out: bf16):
      linalg.yield %in : bf16
    } -> tensor<40x128xbf16>
    %77 = tensor.empty() : tensor<1x40x128xbf16>
    %78 = linalg.generic {indexing_maps = [#map2, #map5], iterator_types = ["parallel", "parallel", "parallel"]} ins(%1 : tensor<1x40xi64>) outs(%77 : tensor<1x40x128xbf16>) {
    ^bb0(%in: i64, %out: bf16):
      %4564 = arith.index_cast %in : i64 to index
      %4565 = linalg.index 2 : index
      %extracted = tensor.extract %72[%4564, %4565] : tensor<40x128xbf16>
      linalg.yield %extracted : bf16
    } -> tensor<1x40x128xbf16>
    %79 = tosa.reshape %78 {new_shape = array<i64: 1, 1, 40, 128>} : (tensor<1x40x128xbf16>) -> tensor<1x1x40x128xbf16>
    %80 = tensor.empty() : tensor<1x40x128xbf16>
    %81 = linalg.generic {indexing_maps = [#map2, #map5], iterator_types = ["parallel", "parallel", "parallel"]} ins(%1 : tensor<1x40xi64>) outs(%80 : tensor<1x40x128xbf16>) {
    ^bb0(%in: i64, %out: bf16):
      %4564 = arith.index_cast %in : i64 to index
      %4565 = linalg.index 2 : index
      %extracted = tensor.extract %76[%4564, %4565] : tensor<40x128xbf16>
      linalg.yield %extracted : bf16
    } -> tensor<1x40x128xbf16>
    %82 = tosa.reshape %81 {new_shape = array<i64: 1, 1, 40, 128>} : (tensor<1x40x128xbf16>) -> tensor<1x1x40x128xbf16>
    %83 = tosa.mul %62, %79 {shift = 0 : i8} : (tensor<1x32x40x128xbf16>, tensor<1x1x40x128xbf16>) -> tensor<1x32x40x128xbf16>
    %extracted_slice_663 = tensor.extract_slice %62[0, 0, 0, 0] [1, 32, 40, 64] [1, 1, 1, 1] : tensor<1x32x40x128xbf16> to tensor<1x32x40x64xbf16>
    %extracted_slice_664 = tensor.extract_slice %62[0, 0, 0, 64] [1, 32, 40, 64] [1, 1, 1, 1] : tensor<1x32x40x128xbf16> to tensor<1x32x40x64xbf16>
    %84 = tensor.empty() : tensor<1x32x40x64xbf16>
    %85 = linalg.generic {indexing_maps = [#map4, #map4], iterator_types = ["parallel", "parallel", "parallel", "parallel"]} ins(%extracted_slice_664 : tensor<1x32x40x64xbf16>) outs(%84 : tensor<1x32x40x64xbf16>) {
    ^bb0(%in: bf16, %out: bf16):
      %4564 = arith.negf %in : bf16
      linalg.yield %4564 : bf16
    } -> tensor<1x32x40x64xbf16>
    %86 = tensor.empty() : tensor<1x32x40x128xbf16>
    %inserted_slice = tensor.insert_slice %85 into %86[0, 0, 0, 0] [1, 32, 40, 64] [1, 1, 1, 1] : tensor<1x32x40x64xbf16> into tensor<1x32x40x128xbf16>
    %inserted_slice_665 = tensor.insert_slice %extracted_slice_663 into %inserted_slice[0, 0, 0, 64] [1, 32, 40, 64] [1, 1, 1, 1] : tensor<1x32x40x64xbf16> into tensor<1x32x40x128xbf16>
    %87 = tosa.mul %inserted_slice_665, %82 {shift = 0 : i8} : (tensor<1x32x40x128xbf16>, tensor<1x1x40x128xbf16>) -> tensor<1x32x40x128xbf16>
    %88 = tosa.add %83, %87 : (tensor<1x32x40x128xbf16>, tensor<1x32x40x128xbf16>) -> tensor<1x32x40x128xbf16>
    %89 = tosa.mul %65, %79 {shift = 0 : i8} : (tensor<1x32x40x128xbf16>, tensor<1x1x40x128xbf16>) -> tensor<1x32x40x128xbf16>
    %extracted_slice_666 = tensor.extract_slice %65[0, 0, 0, 0] [1, 32, 40, 64] [1, 1, 1, 1] : tensor<1x32x40x128xbf16> to tensor<1x32x40x64xbf16>
    %extracted_slice_667 = tensor.extract_slice %65[0, 0, 0, 64] [1, 32, 40, 64] [1, 1, 1, 1] : tensor<1x32x40x128xbf16> to tensor<1x32x40x64xbf16>
    %90 = tensor.empty() : tensor<1x32x40x64xbf16>
    %91 = linalg.generic {indexing_maps = [#map4, #map4], iterator_types = ["parallel", "parallel", "parallel", "parallel"]} ins(%extracted_slice_667 : tensor<1x32x40x64xbf16>) outs(%90 : tensor<1x32x40x64xbf16>) {
    ^bb0(%in: bf16, %out: bf16):
      %4564 = arith.negf %in : bf16
      linalg.yield %4564 : bf16
    } -> tensor<1x32x40x64xbf16>
    %92 = tensor.empty() : tensor<1x32x40x128xbf16>
    %inserted_slice_668 = tensor.insert_slice %91 into %92[0, 0, 0, 0] [1, 32, 40, 64] [1, 1, 1, 1] : tensor<1x32x40x64xbf16> into tensor<1x32x40x128xbf16>
    %inserted_slice_669 = tensor.insert_slice %extracted_slice_666 into %inserted_slice_668[0, 0, 0, 64] [1, 32, 40, 64] [1, 1, 1, 1] : tensor<1x32x40x64xbf16> into tensor<1x32x40x128xbf16>
    %93 = tosa.mul %inserted_slice_669, %82 {shift = 0 : i8} : (tensor<1x32x40x128xbf16>, tensor<1x1x40x128xbf16>) -> tensor<1x32x40x128xbf16>
    %94 = tosa.add %89, %93 : (tensor<1x32x40x128xbf16>, tensor<1x32x40x128xbf16>) -> tensor<1x32x40x128xbf16>
    %95 = tensor.empty() : tensor<1x32x128x40xbf16>
    %96 = linalg.generic {indexing_maps = [#map12, #map4], iterator_types = ["parallel", "parallel", "parallel", "parallel"]} ins(%94 : tensor<1x32x40x128xbf16>) outs(%95 : tensor<1x32x128x40xbf16>) {
    ^bb0(%in: bf16, %out: bf16):
      linalg.yield %in : bf16
    } -> tensor<1x32x128x40xbf16>
    %97 = "tosa.const"() <{value = dense<0.000000e+00> : tensor<1x32x40x128xbf16>}> : () -> tensor<1x32x40x128xbf16>
    %98 = tosa.add %88, %97 : (tensor<1x32x40x128xbf16>, tensor<1x32x40x128xbf16>) -> tensor<1x32x40x128xbf16>
    %99 = tosa.reshape %98 {new_shape = array<i64: 32, 40, 128>} : (tensor<1x32x40x128xbf16>) -> tensor<32x40x128xbf16>
    %100 = "tosa.const"() <{value = dense<0.000000e+00> : tensor<1x32x128x40xbf16>}> : () -> tensor<1x32x128x40xbf16>
    %101 = tosa.add %96, %100 : (tensor<1x32x128x40xbf16>, tensor<1x32x128x40xbf16>) -> tensor<1x32x128x40xbf16>
    %102 = tosa.reshape %101 {new_shape = array<i64: 32, 128, 40>} : (tensor<1x32x128x40xbf16>) -> tensor<32x128x40xbf16>
    %103 = tosa.matmul %99, %102 : (tensor<32x40x128xbf16>, tensor<32x128x40xbf16>) -> tensor<32x40x40xbf16>
    %104 = tosa.reshape %103 {new_shape = array<i64: 1, 32, 40, 40>} : (tensor<32x40x40xbf16>) -> tensor<1x32x40x40xbf16>
    %105 = "tosa.const"() <{value = dense<1.131250e+01> : tensor<1x32x40x40xbf16>}> : () -> tensor<1x32x40x40xbf16>
    %106 = tosa.reciprocal %105 : (tensor<1x32x40x40xbf16>) -> tensor<1x32x40x40xbf16>
    %107 = tosa.mul %104, %106 {shift = 0 : i8} : (tensor<1x32x40x40xbf16>, tensor<1x32x40x40xbf16>) -> tensor<1x32x40x40xbf16>
    %108 = tosa.add %107, %31 : (tensor<1x32x40x40xbf16>, tensor<1x1x40x40xbf16>) -> tensor<1x32x40x40xbf16>
    %109 = tensor.empty() : tensor<1x32x40x40xf32>
    %110 = linalg.generic {indexing_maps = [#map4, #map4], iterator_types = ["parallel", "parallel", "parallel", "parallel"]} ins(%108 : tensor<1x32x40x40xbf16>) outs(%109 : tensor<1x32x40x40xf32>) {
    ^bb0(%in: bf16, %out: f32):
      %4564 = arith.extf %in : bf16 to f32
      linalg.yield %4564 : f32
    } -> tensor<1x32x40x40xf32>
    %111 = tensor.empty() : tensor<1x32x40x1xf32>
    %112 = linalg.generic {indexing_maps = [#map4], iterator_types = ["parallel", "parallel", "parallel", "parallel"]} outs(%111 : tensor<1x32x40x1xf32>) {
    ^bb0(%out: f32):
      %cst_1454 = arith.constant 0xFF800000 : f32
      linalg.yield %cst_1454 : f32
    } -> tensor<1x32x40x1xf32>
    %113 = linalg.generic {indexing_maps = [#map4, #map13], iterator_types = ["parallel", "parallel", "parallel", "reduction"]} ins(%110 : tensor<1x32x40x40xf32>) outs(%111 : tensor<1x32x40x1xf32>) {
    ^bb0(%in: f32, %out: f32):
      %4564 = arith.maximumf %in, %out : f32
      linalg.yield %4564 : f32
    } -> tensor<1x32x40x1xf32>
    %114 = tensor.empty() : tensor<1x32x40x40xf32>
    %115 = linalg.generic {indexing_maps = [#map4, #map13, #map4], iterator_types = ["parallel", "parallel", "parallel", "parallel"]} ins(%110, %113 : tensor<1x32x40x40xf32>, tensor<1x32x40x1xf32>) outs(%114 : tensor<1x32x40x40xf32>) {
    ^bb0(%in: f32, %in_1454: f32, %out: f32):
      %4564 = arith.subf %in, %in_1454 : f32
      %4565 = math.exp %4564 : f32
      linalg.yield %4565 : f32
    } -> tensor<1x32x40x40xf32>
    %116 = tensor.empty() : tensor<1x32x40x1xf32>
    %117 = linalg.generic {indexing_maps = [#map4], iterator_types = ["parallel", "parallel", "parallel", "parallel"]} outs(%116 : tensor<1x32x40x1xf32>) {
    ^bb0(%out: f32):
      %cst_1454 = arith.constant 0.000000e+00 : f32
      linalg.yield %cst_1454 : f32
    } -> tensor<1x32x40x1xf32>
    %118 = linalg.generic {indexing_maps = [#map4, #map13], iterator_types = ["parallel", "parallel", "parallel", "reduction"]} ins(%115 : tensor<1x32x40x40xf32>) outs(%117 : tensor<1x32x40x1xf32>) {
    ^bb0(%in: f32, %out: f32):
      %4564 = arith.addf %in, %out : f32
      linalg.yield %4564 : f32
    } -> tensor<1x32x40x1xf32>
    %119 = tensor.empty() : tensor<1x32x40x40xf32>
    %120 = linalg.generic {indexing_maps = [#map4, #map13, #map4], iterator_types = ["parallel", "parallel", "parallel", "parallel"]} ins(%115, %118 : tensor<1x32x40x40xf32>, tensor<1x32x40x1xf32>) outs(%119 : tensor<1x32x40x40xf32>) {
    ^bb0(%in: f32, %in_1454: f32, %out: f32):
      %4564 = arith.divf %in, %in_1454 : f32
      linalg.yield %4564 : f32
    } -> tensor<1x32x40x40xf32>
    %121 = tensor.empty() : tensor<1x32x40x40xbf16>
    %122 = linalg.generic {indexing_maps = [#map4, #map4], iterator_types = ["parallel", "parallel", "parallel", "parallel"]} ins(%120 : tensor<1x32x40x40xf32>) outs(%121 : tensor<1x32x40x40xbf16>) {
    ^bb0(%in: f32, %out: bf16):
      %4564 = arith.truncf %in : f32 to bf16
      linalg.yield %4564 : bf16
    } -> tensor<1x32x40x40xbf16>
    %123 = "tosa.const"() <{value = dense<0.000000e+00> : tensor<1x32x40x40xbf16>}> : () -> tensor<1x32x40x40xbf16>
    %124 = tosa.add %122, %123 : (tensor<1x32x40x40xbf16>, tensor<1x32x40x40xbf16>) -> tensor<1x32x40x40xbf16>
    %125 = tosa.reshape %124 {new_shape = array<i64: 32, 40, 40>} : (tensor<1x32x40x40xbf16>) -> tensor<32x40x40xbf16>
    %126 = "tosa.const"() <{value = dense<0.000000e+00> : tensor<1x32x40x128xbf16>}> : () -> tensor<1x32x40x128xbf16>
    %127 = tosa.add %68, %126 : (tensor<1x32x40x128xbf16>, tensor<1x32x40x128xbf16>) -> tensor<1x32x40x128xbf16>
    %128 = tosa.reshape %127 {new_shape = array<i64: 32, 40, 128>} : (tensor<1x32x40x128xbf16>) -> tensor<32x40x128xbf16>
    %129 = tosa.matmul %125, %128 : (tensor<32x40x40xbf16>, tensor<32x40x128xbf16>) -> tensor<32x40x128xbf16>
    %130 = tosa.reshape %129 {new_shape = array<i64: 1, 32, 40, 128>} : (tensor<32x40x128xbf16>) -> tensor<1x32x40x128xbf16>
    %131 = tensor.empty() : tensor<1x40x32x128xbf16>
    %132 = linalg.generic {indexing_maps = [#map9, #map4], iterator_types = ["parallel", "parallel", "parallel", "parallel"]} ins(%130 : tensor<1x32x40x128xbf16>) outs(%131 : tensor<1x40x32x128xbf16>) {
    ^bb0(%in: bf16, %out: bf16):
      linalg.yield %in : bf16
    } -> tensor<1x40x32x128xbf16>
    %133 = tosa.identity %132 : (tensor<1x40x32x128xbf16>) -> tensor<1x40x32x128xbf16>
    %134 = tosa.reshape %133 {new_shape = array<i64: 1, 40, 4096>} : (tensor<1x40x32x128xbf16>) -> tensor<1x40x4096xbf16>
    %135 = tensor.empty() : tensor<4096x4096xbf16>
    %136 = linalg.generic {indexing_maps = [#map3, #map8], iterator_types = ["parallel", "parallel"]} ins(%expanded_72 : tensor<4096x4096xbf16>) outs(%135 : tensor<4096x4096xbf16>) {
    ^bb0(%in: bf16, %out: bf16):
      linalg.yield %in : bf16
    } -> tensor<4096x4096xbf16>
    %137 = tosa.reshape %134 {new_shape = array<i64: 40, 4096>} : (tensor<1x40x4096xbf16>) -> tensor<40x4096xbf16>
    %cst_670 = arith.constant dense<0.000000e+00> : tensor<40x4096xbf16>
    %138 = linalg.matmul {cast = #linalg.type_fn<cast_signed>} ins(%137, %136 : tensor<40x4096xbf16>, tensor<4096x4096xbf16>) outs(%cst_670 : tensor<40x4096xbf16>) -> tensor<40x4096xbf16>
    %139 = tosa.reshape %138 {new_shape = array<i64: 1, 40, 4096>} : (tensor<40x4096xbf16>) -> tensor<1x40x4096xbf16>
    %140 = tosa.add %5, %139 : (tensor<1x40x4096xbf16>, tensor<1x40x4096xbf16>) -> tensor<1x40x4096xbf16>
    %141 = tensor.empty() : tensor<1x40x4096xf32>
    %142 = linalg.generic {indexing_maps = [#map5, #map5], iterator_types = ["parallel", "parallel", "parallel"]} ins(%140 : tensor<1x40x4096xbf16>) outs(%141 : tensor<1x40x4096xf32>) {
    ^bb0(%in: bf16, %out: f32):
      %4564 = arith.extf %in : bf16 to f32
      linalg.yield %4564 : f32
    } -> tensor<1x40x4096xf32>
    %143 = tensor.empty() : tensor<1x40x4096xf32>
    %c2_i32_671 = arith.constant 2 : i32
    %144 = linalg.generic {indexing_maps = [#map5, #map5], iterator_types = ["parallel", "parallel", "parallel"]} ins(%142 : tensor<1x40x4096xf32>) outs(%143 : tensor<1x40x4096xf32>) {
    ^bb0(%in: f32, %out: f32):
      %4564 = math.fpowi %in, %c2_i32_671 : f32, i32
      linalg.yield %4564 : f32
    } -> tensor<1x40x4096xf32>
    %cst_672 = arith.constant dense<0.000000e+00> : tensor<1x40x1xf32>
    %145 = linalg.generic {indexing_maps = [#map6, #map7], iterator_types = ["parallel", "parallel", "reduction", "parallel"]} ins(%144 : tensor<1x40x4096xf32>) outs(%cst_672 : tensor<1x40x1xf32>) {
    ^bb0(%in: f32, %out: f32):
      %cst_1454 = arith.constant 4.096000e+03 : f32
      %4564 = arith.divf %in, %cst_1454 : f32
      %4565 = arith.addf %4564, %out : f32
      linalg.yield %4565 : f32
    } -> tensor<1x40x1xf32>
    %146 = "tosa.const"() <{value = dense<9.99999974E-6> : tensor<1x40x1xf32>}> : () -> tensor<1x40x1xf32>
    %147 = tosa.add %145, %146 : (tensor<1x40x1xf32>, tensor<1x40x1xf32>) -> tensor<1x40x1xf32>
    %148 = tosa.rsqrt %147 : (tensor<1x40x1xf32>) -> tensor<1x40x1xf32>
    %149 = tosa.mul %142, %148 {shift = 0 : i8} : (tensor<1x40x4096xf32>, tensor<1x40x1xf32>) -> tensor<1x40x4096xf32>
    %150 = tensor.empty() : tensor<1x40x4096xbf16>
    %151 = linalg.generic {indexing_maps = [#map5, #map5], iterator_types = ["parallel", "parallel", "parallel"]} ins(%149 : tensor<1x40x4096xf32>) outs(%150 : tensor<1x40x4096xbf16>) {
    ^bb0(%in: f32, %out: bf16):
      %4564 = arith.truncf %in : f32 to bf16
      linalg.yield %4564 : bf16
    } -> tensor<1x40x4096xbf16>
    %152 = tosa.reshape %extracted_slice_0 {new_shape = array<i64: 1, 1, 4096>} : (tensor<4096xbf16>) -> tensor<1x1x4096xbf16>
    %153 = tosa.mul %152, %151 {shift = 0 : i8} : (tensor<1x1x4096xbf16>, tensor<1x40x4096xbf16>) -> tensor<1x40x4096xbf16>
    %154 = tensor.empty() : tensor<4096x11008xbf16>
    %155 = linalg.generic {indexing_maps = [#map3, #map8], iterator_types = ["parallel", "parallel"]} ins(%expanded_74 : tensor<11008x4096xbf16>) outs(%154 : tensor<4096x11008xbf16>) {
    ^bb0(%in: bf16, %out: bf16):
      linalg.yield %in : bf16
    } -> tensor<4096x11008xbf16>
    %156 = tosa.reshape %153 {new_shape = array<i64: 40, 4096>} : (tensor<1x40x4096xbf16>) -> tensor<40x4096xbf16>
    %cst_673 = arith.constant dense<0.000000e+00> : tensor<40x11008xbf16>
    %157 = linalg.matmul {cast = #linalg.type_fn<cast_signed>} ins(%156, %155 : tensor<40x4096xbf16>, tensor<4096x11008xbf16>) outs(%cst_673 : tensor<40x11008xbf16>) -> tensor<40x11008xbf16>
    %158 = tosa.reshape %157 {new_shape = array<i64: 1, 40, 11008>} : (tensor<40x11008xbf16>) -> tensor<1x40x11008xbf16>
    %159 = tensor.empty() : tensor<1x40x11008xbf16>
    %160 = linalg.generic {indexing_maps = [#map5, #map5], iterator_types = ["parallel", "parallel", "parallel"]} ins(%158 : tensor<1x40x11008xbf16>) outs(%159 : tensor<1x40x11008xbf16>) {
    ^bb0(%in: bf16, %out: bf16):
      %4564 = arith.negf %in : bf16
      %4565 = math.exp %4564 : bf16
      %cst_1454 = arith.constant 1.000000e+00 : bf16
      %4566 = arith.addf %cst_1454, %4565 : bf16
      %4567 = arith.divf %in, %4566 : bf16
      linalg.yield %4567 : bf16
    } -> tensor<1x40x11008xbf16>
    %161 = tensor.empty() : tensor<4096x11008xbf16>
    %162 = linalg.generic {indexing_maps = [#map3, #map8], iterator_types = ["parallel", "parallel"]} ins(%expanded_76 : tensor<11008x4096xbf16>) outs(%161 : tensor<4096x11008xbf16>) {
    ^bb0(%in: bf16, %out: bf16):
      linalg.yield %in : bf16
    } -> tensor<4096x11008xbf16>
    %163 = tosa.reshape %153 {new_shape = array<i64: 40, 4096>} : (tensor<1x40x4096xbf16>) -> tensor<40x4096xbf16>
    %cst_674 = arith.constant dense<0.000000e+00> : tensor<40x11008xbf16>
    %164 = linalg.matmul {cast = #linalg.type_fn<cast_signed>} ins(%163, %162 : tensor<40x4096xbf16>, tensor<4096x11008xbf16>) outs(%cst_674 : tensor<40x11008xbf16>) -> tensor<40x11008xbf16>
    %165 = tosa.reshape %164 {new_shape = array<i64: 1, 40, 11008>} : (tensor<40x11008xbf16>) -> tensor<1x40x11008xbf16>
    %166 = tosa.mul %160, %165 {shift = 0 : i8} : (tensor<1x40x11008xbf16>, tensor<1x40x11008xbf16>) -> tensor<1x40x11008xbf16>
    %167 = tensor.empty() : tensor<11008x4096xbf16>
    %168 = linalg.generic {indexing_maps = [#map3, #map8], iterator_types = ["parallel", "parallel"]} ins(%expanded_78 : tensor<4096x11008xbf16>) outs(%167 : tensor<11008x4096xbf16>) {
    ^bb0(%in: bf16, %out: bf16):
      linalg.yield %in : bf16
    } -> tensor<11008x4096xbf16>
    %169 = tosa.reshape %166 {new_shape = array<i64: 40, 11008>} : (tensor<1x40x11008xbf16>) -> tensor<40x11008xbf16>
    %cst_675 = arith.constant dense<0.000000e+00> : tensor<40x4096xbf16>
    %170 = linalg.matmul {cast = #linalg.type_fn<cast_signed>} ins(%169, %168 : tensor<40x11008xbf16>, tensor<11008x4096xbf16>) outs(%cst_675 : tensor<40x4096xbf16>) -> tensor<40x4096xbf16>
    %171 = tosa.reshape %170 {new_shape = array<i64: 1, 40, 4096>} : (tensor<40x4096xbf16>) -> tensor<1x40x4096xbf16>
    %172 = tosa.add %140, %171 : (tensor<1x40x4096xbf16>, tensor<1x40x4096xbf16>) -> tensor<1x40x4096xbf16>
    %173 = tensor.empty() : tensor<1x40x4096xf32>
    %174 = linalg.generic {indexing_maps = [#map5, #map5], iterator_types = ["parallel", "parallel", "parallel"]} ins(%172 : tensor<1x40x4096xbf16>) outs(%173 : tensor<1x40x4096xf32>) {
    ^bb0(%in: bf16, %out: f32):
      %4564 = arith.extf %in : bf16 to f32
      linalg.yield %4564 : f32
    } -> tensor<1x40x4096xf32>
    %175 = tensor.empty() : tensor<1x40x4096xf32>
    %c2_i32_676 = arith.constant 2 : i32
    %176 = linalg.generic {indexing_maps = [#map5, #map5], iterator_types = ["parallel", "parallel", "parallel"]} ins(%174 : tensor<1x40x4096xf32>) outs(%175 : tensor<1x40x4096xf32>) {
    ^bb0(%in: f32, %out: f32):
      %4564 = math.fpowi %in, %c2_i32_676 : f32, i32
      linalg.yield %4564 : f32
    } -> tensor<1x40x4096xf32>
    %cst_677 = arith.constant dense<0.000000e+00> : tensor<1x40x1xf32>
    %177 = linalg.generic {indexing_maps = [#map6, #map7], iterator_types = ["parallel", "parallel", "reduction", "parallel"]} ins(%176 : tensor<1x40x4096xf32>) outs(%cst_677 : tensor<1x40x1xf32>) {
    ^bb0(%in: f32, %out: f32):
      %cst_1454 = arith.constant 4.096000e+03 : f32
      %4564 = arith.divf %in, %cst_1454 : f32
      %4565 = arith.addf %4564, %out : f32
      linalg.yield %4565 : f32
    } -> tensor<1x40x1xf32>
    %178 = "tosa.const"() <{value = dense<9.99999974E-6> : tensor<1x40x1xf32>}> : () -> tensor<1x40x1xf32>
    %179 = tosa.add %177, %178 : (tensor<1x40x1xf32>, tensor<1x40x1xf32>) -> tensor<1x40x1xf32>
    %180 = tosa.rsqrt %179 : (tensor<1x40x1xf32>) -> tensor<1x40x1xf32>
    %181 = tosa.mul %174, %180 {shift = 0 : i8} : (tensor<1x40x4096xf32>, tensor<1x40x1xf32>) -> tensor<1x40x4096xf32>
    %182 = tensor.empty() : tensor<1x40x4096xbf16>
    %183 = linalg.generic {indexing_maps = [#map5, #map5], iterator_types = ["parallel", "parallel", "parallel"]} ins(%181 : tensor<1x40x4096xf32>) outs(%182 : tensor<1x40x4096xbf16>) {
    ^bb0(%in: f32, %out: bf16):
      %4564 = arith.truncf %in : f32 to bf16
      linalg.yield %4564 : bf16
    } -> tensor<1x40x4096xbf16>
    %184 = tosa.reshape %extracted_slice_1 {new_shape = array<i64: 1, 1, 4096>} : (tensor<4096xbf16>) -> tensor<1x1x4096xbf16>
    %185 = tosa.mul %184, %183 {shift = 0 : i8} : (tensor<1x1x4096xbf16>, tensor<1x40x4096xbf16>) -> tensor<1x40x4096xbf16>
    %186 = tensor.empty() : tensor<4096x4096xbf16>
    %187 = linalg.generic {indexing_maps = [#map3, #map8], iterator_types = ["parallel", "parallel"]} ins(%expanded_80 : tensor<4096x4096xbf16>) outs(%186 : tensor<4096x4096xbf16>) {
    ^bb0(%in: bf16, %out: bf16):
      linalg.yield %in : bf16
    } -> tensor<4096x4096xbf16>
    %188 = tosa.reshape %185 {new_shape = array<i64: 40, 4096>} : (tensor<1x40x4096xbf16>) -> tensor<40x4096xbf16>
    %cst_678 = arith.constant dense<0.000000e+00> : tensor<40x4096xbf16>
    %189 = linalg.matmul {cast = #linalg.type_fn<cast_signed>} ins(%188, %187 : tensor<40x4096xbf16>, tensor<4096x4096xbf16>) outs(%cst_678 : tensor<40x4096xbf16>) -> tensor<40x4096xbf16>
    %190 = tosa.reshape %189 {new_shape = array<i64: 1, 40, 4096>} : (tensor<40x4096xbf16>) -> tensor<1x40x4096xbf16>
    %191 = tensor.empty() : tensor<4096x4096xbf16>
    %192 = linalg.generic {indexing_maps = [#map3, #map8], iterator_types = ["parallel", "parallel"]} ins(%expanded_82 : tensor<4096x4096xbf16>) outs(%191 : tensor<4096x4096xbf16>) {
    ^bb0(%in: bf16, %out: bf16):
      linalg.yield %in : bf16
    } -> tensor<4096x4096xbf16>
    %193 = tosa.reshape %185 {new_shape = array<i64: 40, 4096>} : (tensor<1x40x4096xbf16>) -> tensor<40x4096xbf16>
    %cst_679 = arith.constant dense<0.000000e+00> : tensor<40x4096xbf16>
    %194 = linalg.matmul {cast = #linalg.type_fn<cast_signed>} ins(%193, %192 : tensor<40x4096xbf16>, tensor<4096x4096xbf16>) outs(%cst_679 : tensor<40x4096xbf16>) -> tensor<40x4096xbf16>
    %195 = tosa.reshape %194 {new_shape = array<i64: 1, 40, 4096>} : (tensor<40x4096xbf16>) -> tensor<1x40x4096xbf16>
    %196 = tensor.empty() : tensor<4096x4096xbf16>
    %197 = linalg.generic {indexing_maps = [#map3, #map8], iterator_types = ["parallel", "parallel"]} ins(%expanded_84 : tensor<4096x4096xbf16>) outs(%196 : tensor<4096x4096xbf16>) {
    ^bb0(%in: bf16, %out: bf16):
      linalg.yield %in : bf16
    } -> tensor<4096x4096xbf16>
    %198 = tosa.reshape %185 {new_shape = array<i64: 40, 4096>} : (tensor<1x40x4096xbf16>) -> tensor<40x4096xbf16>
    %cst_680 = arith.constant dense<0.000000e+00> : tensor<40x4096xbf16>
    %199 = linalg.matmul {cast = #linalg.type_fn<cast_signed>} ins(%198, %197 : tensor<40x4096xbf16>, tensor<4096x4096xbf16>) outs(%cst_680 : tensor<40x4096xbf16>) -> tensor<40x4096xbf16>
    %200 = tosa.reshape %199 {new_shape = array<i64: 1, 40, 4096>} : (tensor<40x4096xbf16>) -> tensor<1x40x4096xbf16>
    %201 = tosa.reshape %190 {new_shape = array<i64: 1, 40, 32, 128>} : (tensor<1x40x4096xbf16>) -> tensor<1x40x32x128xbf16>
    %202 = tensor.empty() : tensor<1x32x40x128xbf16>
    %203 = linalg.generic {indexing_maps = [#map9, #map4], iterator_types = ["parallel", "parallel", "parallel", "parallel"]} ins(%201 : tensor<1x40x32x128xbf16>) outs(%202 : tensor<1x32x40x128xbf16>) {
    ^bb0(%in: bf16, %out: bf16):
      linalg.yield %in : bf16
    } -> tensor<1x32x40x128xbf16>
    %204 = tosa.reshape %195 {new_shape = array<i64: 1, 40, 32, 128>} : (tensor<1x40x4096xbf16>) -> tensor<1x40x32x128xbf16>
    %205 = tensor.empty() : tensor<1x32x40x128xbf16>
    %206 = linalg.generic {indexing_maps = [#map9, #map4], iterator_types = ["parallel", "parallel", "parallel", "parallel"]} ins(%204 : tensor<1x40x32x128xbf16>) outs(%205 : tensor<1x32x40x128xbf16>) {
    ^bb0(%in: bf16, %out: bf16):
      linalg.yield %in : bf16
    } -> tensor<1x32x40x128xbf16>
    %207 = tosa.reshape %200 {new_shape = array<i64: 1, 40, 32, 128>} : (tensor<1x40x4096xbf16>) -> tensor<1x40x32x128xbf16>
    %208 = tensor.empty() : tensor<1x32x40x128xbf16>
    %209 = linalg.generic {indexing_maps = [#map9, #map4], iterator_types = ["parallel", "parallel", "parallel", "parallel"]} ins(%207 : tensor<1x40x32x128xbf16>) outs(%208 : tensor<1x32x40x128xbf16>) {
    ^bb0(%in: bf16, %out: bf16):
      linalg.yield %in : bf16
    } -> tensor<1x32x40x128xbf16>
    %extracted_slice_681 = tensor.extract_slice %expanded_520[0, 0, 0, 0] [1, 1, 2048, 128] [1, 1, 1, 1] : tensor<1x1x2048x128xbf16> to tensor<1x1x2048x128xbf16>
    %extracted_slice_682 = tensor.extract_slice %extracted_slice_681[0, 0, 0, 0] [1, 1, 2048, 128] [1, 1, 1, 1] : tensor<1x1x2048x128xbf16> to tensor<1x1x2048x128xbf16>
    %extracted_slice_683 = tensor.extract_slice %extracted_slice_682[0, 0, 0, 0] [1, 1, 40, 128] [1, 1, 1, 1] : tensor<1x1x2048x128xbf16> to tensor<1x1x40x128xbf16>
    %extracted_slice_684 = tensor.extract_slice %expanded_522[0, 0, 0, 0] [1, 1, 2048, 128] [1, 1, 1, 1] : tensor<1x1x2048x128xbf16> to tensor<1x1x2048x128xbf16>
    %extracted_slice_685 = tensor.extract_slice %extracted_slice_684[0, 0, 0, 0] [1, 1, 2048, 128] [1, 1, 1, 1] : tensor<1x1x2048x128xbf16> to tensor<1x1x2048x128xbf16>
    %extracted_slice_686 = tensor.extract_slice %extracted_slice_685[0, 0, 0, 0] [1, 1, 40, 128] [1, 1, 1, 1] : tensor<1x1x2048x128xbf16> to tensor<1x1x40x128xbf16>
    %210 = tensor.empty() : tensor<1x40x128xbf16>
    %211  = tensor.collapse_shape %extracted_slice_683 [[0,1],[2],[3]] : tensor<1x1x40x128xbf16> into tensor<1x40x128xbf16>
    %212 = tensor.empty() : tensor<40x128xbf16>
    %213 = linalg.generic {indexing_maps = [#map11, #map3], iterator_types = ["parallel", "parallel"]} ins(%211 : tensor<1x40x128xbf16>) outs(%212 : tensor<40x128xbf16>) {
    ^bb0(%in: bf16, %out: bf16):
      linalg.yield %in : bf16
    } -> tensor<40x128xbf16>
    %214 = tensor.empty() : tensor<1x40x128xbf16>
    %215  = tensor.collapse_shape %extracted_slice_686 [[0,1],[2],[3]] : tensor<1x1x40x128xbf16> into tensor<1x40x128xbf16>
    %216 = tensor.empty() : tensor<40x128xbf16>
    %217 = linalg.generic {indexing_maps = [#map11, #map3], iterator_types = ["parallel", "parallel"]} ins(%215 : tensor<1x40x128xbf16>) outs(%216 : tensor<40x128xbf16>) {
    ^bb0(%in: bf16, %out: bf16):
      linalg.yield %in : bf16
    } -> tensor<40x128xbf16>
    %218 = tensor.empty() : tensor<1x40x128xbf16>
    %219 = linalg.generic {indexing_maps = [#map2, #map5], iterator_types = ["parallel", "parallel", "parallel"]} ins(%1 : tensor<1x40xi64>) outs(%218 : tensor<1x40x128xbf16>) {
    ^bb0(%in: i64, %out: bf16):
      %4564 = arith.index_cast %in : i64 to index
      %4565 = linalg.index 2 : index
      %extracted = tensor.extract %213[%4564, %4565] : tensor<40x128xbf16>
      linalg.yield %extracted : bf16
    } -> tensor<1x40x128xbf16>
    %220 = tosa.reshape %219 {new_shape = array<i64: 1, 1, 40, 128>} : (tensor<1x40x128xbf16>) -> tensor<1x1x40x128xbf16>
    %221 = tensor.empty() : tensor<1x40x128xbf16>
    %222 = linalg.generic {indexing_maps = [#map2, #map5], iterator_types = ["parallel", "parallel", "parallel"]} ins(%1 : tensor<1x40xi64>) outs(%221 : tensor<1x40x128xbf16>) {
    ^bb0(%in: i64, %out: bf16):
      %4564 = arith.index_cast %in : i64 to index
      %4565 = linalg.index 2 : index
      %extracted = tensor.extract %217[%4564, %4565] : tensor<40x128xbf16>
      linalg.yield %extracted : bf16
    } -> tensor<1x40x128xbf16>
    %223 = tosa.reshape %222 {new_shape = array<i64: 1, 1, 40, 128>} : (tensor<1x40x128xbf16>) -> tensor<1x1x40x128xbf16>
    %224 = tosa.mul %203, %220 {shift = 0 : i8} : (tensor<1x32x40x128xbf16>, tensor<1x1x40x128xbf16>) -> tensor<1x32x40x128xbf16>
    %extracted_slice_687 = tensor.extract_slice %203[0, 0, 0, 0] [1, 32, 40, 64] [1, 1, 1, 1] : tensor<1x32x40x128xbf16> to tensor<1x32x40x64xbf16>
    %extracted_slice_688 = tensor.extract_slice %203[0, 0, 0, 64] [1, 32, 40, 64] [1, 1, 1, 1] : tensor<1x32x40x128xbf16> to tensor<1x32x40x64xbf16>
    %225 = tensor.empty() : tensor<1x32x40x64xbf16>
    %226 = linalg.generic {indexing_maps = [#map4, #map4], iterator_types = ["parallel", "parallel", "parallel", "parallel"]} ins(%extracted_slice_688 : tensor<1x32x40x64xbf16>) outs(%225 : tensor<1x32x40x64xbf16>) {
    ^bb0(%in: bf16, %out: bf16):
      %4564 = arith.negf %in : bf16
      linalg.yield %4564 : bf16
    } -> tensor<1x32x40x64xbf16>
    %227 = tensor.empty() : tensor<1x32x40x128xbf16>
    %inserted_slice_689 = tensor.insert_slice %226 into %227[0, 0, 0, 0] [1, 32, 40, 64] [1, 1, 1, 1] : tensor<1x32x40x64xbf16> into tensor<1x32x40x128xbf16>
    %inserted_slice_690 = tensor.insert_slice %extracted_slice_687 into %inserted_slice_689[0, 0, 0, 64] [1, 32, 40, 64] [1, 1, 1, 1] : tensor<1x32x40x64xbf16> into tensor<1x32x40x128xbf16>
    %228 = tosa.mul %inserted_slice_690, %223 {shift = 0 : i8} : (tensor<1x32x40x128xbf16>, tensor<1x1x40x128xbf16>) -> tensor<1x32x40x128xbf16>
    %229 = tosa.add %224, %228 : (tensor<1x32x40x128xbf16>, tensor<1x32x40x128xbf16>) -> tensor<1x32x40x128xbf16>
    %230 = tosa.mul %206, %220 {shift = 0 : i8} : (tensor<1x32x40x128xbf16>, tensor<1x1x40x128xbf16>) -> tensor<1x32x40x128xbf16>
    %extracted_slice_691 = tensor.extract_slice %206[0, 0, 0, 0] [1, 32, 40, 64] [1, 1, 1, 1] : tensor<1x32x40x128xbf16> to tensor<1x32x40x64xbf16>
    %extracted_slice_692 = tensor.extract_slice %206[0, 0, 0, 64] [1, 32, 40, 64] [1, 1, 1, 1] : tensor<1x32x40x128xbf16> to tensor<1x32x40x64xbf16>
    %231 = tensor.empty() : tensor<1x32x40x64xbf16>
    %232 = linalg.generic {indexing_maps = [#map4, #map4], iterator_types = ["parallel", "parallel", "parallel", "parallel"]} ins(%extracted_slice_692 : tensor<1x32x40x64xbf16>) outs(%231 : tensor<1x32x40x64xbf16>) {
    ^bb0(%in: bf16, %out: bf16):
      %4564 = arith.negf %in : bf16
      linalg.yield %4564 : bf16
    } -> tensor<1x32x40x64xbf16>
    %233 = tensor.empty() : tensor<1x32x40x128xbf16>
    %inserted_slice_693 = tensor.insert_slice %232 into %233[0, 0, 0, 0] [1, 32, 40, 64] [1, 1, 1, 1] : tensor<1x32x40x64xbf16> into tensor<1x32x40x128xbf16>
    %inserted_slice_694 = tensor.insert_slice %extracted_slice_691 into %inserted_slice_693[0, 0, 0, 64] [1, 32, 40, 64] [1, 1, 1, 1] : tensor<1x32x40x64xbf16> into tensor<1x32x40x128xbf16>
    %234 = tosa.mul %inserted_slice_694, %223 {shift = 0 : i8} : (tensor<1x32x40x128xbf16>, tensor<1x1x40x128xbf16>) -> tensor<1x32x40x128xbf16>
    %235 = tosa.add %230, %234 : (tensor<1x32x40x128xbf16>, tensor<1x32x40x128xbf16>) -> tensor<1x32x40x128xbf16>
    %236 = tensor.empty() : tensor<1x32x128x40xbf16>
    %237 = linalg.generic {indexing_maps = [#map12, #map4], iterator_types = ["parallel", "parallel", "parallel", "parallel"]} ins(%235 : tensor<1x32x40x128xbf16>) outs(%236 : tensor<1x32x128x40xbf16>) {
    ^bb0(%in: bf16, %out: bf16):
      linalg.yield %in : bf16
    } -> tensor<1x32x128x40xbf16>
    %238 = "tosa.const"() <{value = dense<0.000000e+00> : tensor<1x32x40x128xbf16>}> : () -> tensor<1x32x40x128xbf16>
    %239 = tosa.add %229, %238 : (tensor<1x32x40x128xbf16>, tensor<1x32x40x128xbf16>) -> tensor<1x32x40x128xbf16>
    %240 = tosa.reshape %239 {new_shape = array<i64: 32, 40, 128>} : (tensor<1x32x40x128xbf16>) -> tensor<32x40x128xbf16>
    %241 = "tosa.const"() <{value = dense<0.000000e+00> : tensor<1x32x128x40xbf16>}> : () -> tensor<1x32x128x40xbf16>
    %242 = tosa.add %237, %241 : (tensor<1x32x128x40xbf16>, tensor<1x32x128x40xbf16>) -> tensor<1x32x128x40xbf16>
    %243 = tosa.reshape %242 {new_shape = array<i64: 32, 128, 40>} : (tensor<1x32x128x40xbf16>) -> tensor<32x128x40xbf16>
    %244 = tosa.matmul %240, %243 : (tensor<32x40x128xbf16>, tensor<32x128x40xbf16>) -> tensor<32x40x40xbf16>
    %245 = tosa.reshape %244 {new_shape = array<i64: 1, 32, 40, 40>} : (tensor<32x40x40xbf16>) -> tensor<1x32x40x40xbf16>
    %246 = "tosa.const"() <{value = dense<1.131250e+01> : tensor<1x32x40x40xbf16>}> : () -> tensor<1x32x40x40xbf16>
    %247 = tosa.reciprocal %246 : (tensor<1x32x40x40xbf16>) -> tensor<1x32x40x40xbf16>
    %248 = tosa.mul %245, %247 {shift = 0 : i8} : (tensor<1x32x40x40xbf16>, tensor<1x32x40x40xbf16>) -> tensor<1x32x40x40xbf16>
    %249 = tosa.add %248, %31 : (tensor<1x32x40x40xbf16>, tensor<1x1x40x40xbf16>) -> tensor<1x32x40x40xbf16>
    %250 = tensor.empty() : tensor<1x32x40x40xf32>
    %251 = linalg.generic {indexing_maps = [#map4, #map4], iterator_types = ["parallel", "parallel", "parallel", "parallel"]} ins(%249 : tensor<1x32x40x40xbf16>) outs(%250 : tensor<1x32x40x40xf32>) {
    ^bb0(%in: bf16, %out: f32):
      %4564 = arith.extf %in : bf16 to f32
      linalg.yield %4564 : f32
    } -> tensor<1x32x40x40xf32>
    %252 = tensor.empty() : tensor<1x32x40x1xf32>
    %253 = linalg.generic {indexing_maps = [#map4], iterator_types = ["parallel", "parallel", "parallel", "parallel"]} outs(%252 : tensor<1x32x40x1xf32>) {
    ^bb0(%out: f32):
      %cst_1454 = arith.constant 0xFF800000 : f32
      linalg.yield %cst_1454 : f32
    } -> tensor<1x32x40x1xf32>
    %254 = linalg.generic {indexing_maps = [#map4, #map13], iterator_types = ["parallel", "parallel", "parallel", "reduction"]} ins(%251 : tensor<1x32x40x40xf32>) outs(%252 : tensor<1x32x40x1xf32>) {
    ^bb0(%in: f32, %out: f32):
      %4564 = arith.maximumf %in, %out : f32
      linalg.yield %4564 : f32
    } -> tensor<1x32x40x1xf32>
    %255 = tensor.empty() : tensor<1x32x40x40xf32>
    %256 = linalg.generic {indexing_maps = [#map4, #map13, #map4], iterator_types = ["parallel", "parallel", "parallel", "parallel"]} ins(%251, %254 : tensor<1x32x40x40xf32>, tensor<1x32x40x1xf32>) outs(%255 : tensor<1x32x40x40xf32>) {
    ^bb0(%in: f32, %in_1454: f32, %out: f32):
      %4564 = arith.subf %in, %in_1454 : f32
      %4565 = math.exp %4564 : f32
      linalg.yield %4565 : f32
    } -> tensor<1x32x40x40xf32>
    %257 = tensor.empty() : tensor<1x32x40x1xf32>
    %258 = linalg.generic {indexing_maps = [#map4], iterator_types = ["parallel", "parallel", "parallel", "parallel"]} outs(%257 : tensor<1x32x40x1xf32>) {
    ^bb0(%out: f32):
      %cst_1454 = arith.constant 0.000000e+00 : f32
      linalg.yield %cst_1454 : f32
    } -> tensor<1x32x40x1xf32>
    %259 = linalg.generic {indexing_maps = [#map4, #map13], iterator_types = ["parallel", "parallel", "parallel", "reduction"]} ins(%256 : tensor<1x32x40x40xf32>) outs(%258 : tensor<1x32x40x1xf32>) {
    ^bb0(%in: f32, %out: f32):
      %4564 = arith.addf %in, %out : f32
      linalg.yield %4564 : f32
    } -> tensor<1x32x40x1xf32>
    %260 = tensor.empty() : tensor<1x32x40x40xf32>
    %261 = linalg.generic {indexing_maps = [#map4, #map13, #map4], iterator_types = ["parallel", "parallel", "parallel", "parallel"]} ins(%256, %259 : tensor<1x32x40x40xf32>, tensor<1x32x40x1xf32>) outs(%260 : tensor<1x32x40x40xf32>) {
    ^bb0(%in: f32, %in_1454: f32, %out: f32):
      %4564 = arith.divf %in, %in_1454 : f32
      linalg.yield %4564 : f32
    } -> tensor<1x32x40x40xf32>
    %262 = tensor.empty() : tensor<1x32x40x40xbf16>
    %263 = linalg.generic {indexing_maps = [#map4, #map4], iterator_types = ["parallel", "parallel", "parallel", "parallel"]} ins(%261 : tensor<1x32x40x40xf32>) outs(%262 : tensor<1x32x40x40xbf16>) {
    ^bb0(%in: f32, %out: bf16):
      %4564 = arith.truncf %in : f32 to bf16
      linalg.yield %4564 : bf16
    } -> tensor<1x32x40x40xbf16>
    %264 = "tosa.const"() <{value = dense<0.000000e+00> : tensor<1x32x40x40xbf16>}> : () -> tensor<1x32x40x40xbf16>
    %265 = tosa.add %263, %264 : (tensor<1x32x40x40xbf16>, tensor<1x32x40x40xbf16>) -> tensor<1x32x40x40xbf16>
    %266 = tosa.reshape %265 {new_shape = array<i64: 32, 40, 40>} : (tensor<1x32x40x40xbf16>) -> tensor<32x40x40xbf16>
    %267 = "tosa.const"() <{value = dense<0.000000e+00> : tensor<1x32x40x128xbf16>}> : () -> tensor<1x32x40x128xbf16>
    %268 = tosa.add %209, %267 : (tensor<1x32x40x128xbf16>, tensor<1x32x40x128xbf16>) -> tensor<1x32x40x128xbf16>
    %269 = tosa.reshape %268 {new_shape = array<i64: 32, 40, 128>} : (tensor<1x32x40x128xbf16>) -> tensor<32x40x128xbf16>
    %270 = tosa.matmul %266, %269 : (tensor<32x40x40xbf16>, tensor<32x40x128xbf16>) -> tensor<32x40x128xbf16>
    %271 = tosa.reshape %270 {new_shape = array<i64: 1, 32, 40, 128>} : (tensor<32x40x128xbf16>) -> tensor<1x32x40x128xbf16>
    %272 = tensor.empty() : tensor<1x40x32x128xbf16>
    %273 = linalg.generic {indexing_maps = [#map9, #map4], iterator_types = ["parallel", "parallel", "parallel", "parallel"]} ins(%271 : tensor<1x32x40x128xbf16>) outs(%272 : tensor<1x40x32x128xbf16>) {
    ^bb0(%in: bf16, %out: bf16):
      linalg.yield %in : bf16
    } -> tensor<1x40x32x128xbf16>
    %274 = tosa.identity %273 : (tensor<1x40x32x128xbf16>) -> tensor<1x40x32x128xbf16>
    %275 = tosa.reshape %274 {new_shape = array<i64: 1, 40, 4096>} : (tensor<1x40x32x128xbf16>) -> tensor<1x40x4096xbf16>
    %276 = tensor.empty() : tensor<4096x4096xbf16>
    %277 = linalg.generic {indexing_maps = [#map3, #map8], iterator_types = ["parallel", "parallel"]} ins(%expanded_86 : tensor<4096x4096xbf16>) outs(%276 : tensor<4096x4096xbf16>) {
    ^bb0(%in: bf16, %out: bf16):
      linalg.yield %in : bf16
    } -> tensor<4096x4096xbf16>
    %278 = tosa.reshape %275 {new_shape = array<i64: 40, 4096>} : (tensor<1x40x4096xbf16>) -> tensor<40x4096xbf16>
    %cst_695 = arith.constant dense<0.000000e+00> : tensor<40x4096xbf16>
    %279 = linalg.matmul {cast = #linalg.type_fn<cast_signed>} ins(%278, %277 : tensor<40x4096xbf16>, tensor<4096x4096xbf16>) outs(%cst_695 : tensor<40x4096xbf16>) -> tensor<40x4096xbf16>
    %280 = tosa.reshape %279 {new_shape = array<i64: 1, 40, 4096>} : (tensor<40x4096xbf16>) -> tensor<1x40x4096xbf16>
    %281 = tosa.add %172, %280 : (tensor<1x40x4096xbf16>, tensor<1x40x4096xbf16>) -> tensor<1x40x4096xbf16>
    %282 = tensor.empty() : tensor<1x40x4096xf32>
    %283 = linalg.generic {indexing_maps = [#map5, #map5], iterator_types = ["parallel", "parallel", "parallel"]} ins(%281 : tensor<1x40x4096xbf16>) outs(%282 : tensor<1x40x4096xf32>) {
    ^bb0(%in: bf16, %out: f32):
      %4564 = arith.extf %in : bf16 to f32
      linalg.yield %4564 : f32
    } -> tensor<1x40x4096xf32>
    %284 = tensor.empty() : tensor<1x40x4096xf32>
    %c2_i32_696 = arith.constant 2 : i32
    %285 = linalg.generic {indexing_maps = [#map5, #map5], iterator_types = ["parallel", "parallel", "parallel"]} ins(%283 : tensor<1x40x4096xf32>) outs(%284 : tensor<1x40x4096xf32>) {
    ^bb0(%in: f32, %out: f32):
      %4564 = math.fpowi %in, %c2_i32_696 : f32, i32
      linalg.yield %4564 : f32
    } -> tensor<1x40x4096xf32>
    %cst_697 = arith.constant dense<0.000000e+00> : tensor<1x40x1xf32>
    %286 = linalg.generic {indexing_maps = [#map6, #map7], iterator_types = ["parallel", "parallel", "reduction", "parallel"]} ins(%285 : tensor<1x40x4096xf32>) outs(%cst_697 : tensor<1x40x1xf32>) {
    ^bb0(%in: f32, %out: f32):
      %cst_1454 = arith.constant 4.096000e+03 : f32
      %4564 = arith.divf %in, %cst_1454 : f32
      %4565 = arith.addf %4564, %out : f32
      linalg.yield %4565 : f32
    } -> tensor<1x40x1xf32>
    %287 = "tosa.const"() <{value = dense<9.99999974E-6> : tensor<1x40x1xf32>}> : () -> tensor<1x40x1xf32>
    %288 = tosa.add %286, %287 : (tensor<1x40x1xf32>, tensor<1x40x1xf32>) -> tensor<1x40x1xf32>
    %289 = tosa.rsqrt %288 : (tensor<1x40x1xf32>) -> tensor<1x40x1xf32>
    %290 = tosa.mul %283, %289 {shift = 0 : i8} : (tensor<1x40x4096xf32>, tensor<1x40x1xf32>) -> tensor<1x40x4096xf32>
    %291 = tensor.empty() : tensor<1x40x4096xbf16>
    %292 = linalg.generic {indexing_maps = [#map5, #map5], iterator_types = ["parallel", "parallel", "parallel"]} ins(%290 : tensor<1x40x4096xf32>) outs(%291 : tensor<1x40x4096xbf16>) {
    ^bb0(%in: f32, %out: bf16):
      %4564 = arith.truncf %in : f32 to bf16
      linalg.yield %4564 : bf16
    } -> tensor<1x40x4096xbf16>
    %293 = tosa.reshape %extracted_slice_2 {new_shape = array<i64: 1, 1, 4096>} : (tensor<4096xbf16>) -> tensor<1x1x4096xbf16>
    %294 = tosa.mul %293, %292 {shift = 0 : i8} : (tensor<1x1x4096xbf16>, tensor<1x40x4096xbf16>) -> tensor<1x40x4096xbf16>
    %295 = tensor.empty() : tensor<4096x11008xbf16>
    %296 = linalg.generic {indexing_maps = [#map3, #map8], iterator_types = ["parallel", "parallel"]} ins(%expanded_88 : tensor<11008x4096xbf16>) outs(%295 : tensor<4096x11008xbf16>) {
    ^bb0(%in: bf16, %out: bf16):
      linalg.yield %in : bf16
    } -> tensor<4096x11008xbf16>
    %297 = tosa.reshape %294 {new_shape = array<i64: 40, 4096>} : (tensor<1x40x4096xbf16>) -> tensor<40x4096xbf16>
    %cst_698 = arith.constant dense<0.000000e+00> : tensor<40x11008xbf16>
    %298 = linalg.matmul {cast = #linalg.type_fn<cast_signed>} ins(%297, %296 : tensor<40x4096xbf16>, tensor<4096x11008xbf16>) outs(%cst_698 : tensor<40x11008xbf16>) -> tensor<40x11008xbf16>
    %299 = tosa.reshape %298 {new_shape = array<i64: 1, 40, 11008>} : (tensor<40x11008xbf16>) -> tensor<1x40x11008xbf16>
    %300 = tensor.empty() : tensor<1x40x11008xbf16>
    %301 = linalg.generic {indexing_maps = [#map5, #map5], iterator_types = ["parallel", "parallel", "parallel"]} ins(%299 : tensor<1x40x11008xbf16>) outs(%300 : tensor<1x40x11008xbf16>) {
    ^bb0(%in: bf16, %out: bf16):
      %4564 = arith.negf %in : bf16
      %4565 = math.exp %4564 : bf16
      %cst_1454 = arith.constant 1.000000e+00 : bf16
      %4566 = arith.addf %cst_1454, %4565 : bf16
      %4567 = arith.divf %in, %4566 : bf16
      linalg.yield %4567 : bf16
    } -> tensor<1x40x11008xbf16>
    %302 = tensor.empty() : tensor<4096x11008xbf16>
    %303 = linalg.generic {indexing_maps = [#map3, #map8], iterator_types = ["parallel", "parallel"]} ins(%expanded_90 : tensor<11008x4096xbf16>) outs(%302 : tensor<4096x11008xbf16>) {
    ^bb0(%in: bf16, %out: bf16):
      linalg.yield %in : bf16
    } -> tensor<4096x11008xbf16>
    %304 = tosa.reshape %294 {new_shape = array<i64: 40, 4096>} : (tensor<1x40x4096xbf16>) -> tensor<40x4096xbf16>
    %cst_699 = arith.constant dense<0.000000e+00> : tensor<40x11008xbf16>
    %305 = linalg.matmul {cast = #linalg.type_fn<cast_signed>} ins(%304, %303 : tensor<40x4096xbf16>, tensor<4096x11008xbf16>) outs(%cst_699 : tensor<40x11008xbf16>) -> tensor<40x11008xbf16>
    %306 = tosa.reshape %305 {new_shape = array<i64: 1, 40, 11008>} : (tensor<40x11008xbf16>) -> tensor<1x40x11008xbf16>
    %307 = tosa.mul %301, %306 {shift = 0 : i8} : (tensor<1x40x11008xbf16>, tensor<1x40x11008xbf16>) -> tensor<1x40x11008xbf16>
    %308 = tensor.empty() : tensor<11008x4096xbf16>
    %309 = linalg.generic {indexing_maps = [#map3, #map8], iterator_types = ["parallel", "parallel"]} ins(%expanded_92 : tensor<4096x11008xbf16>) outs(%308 : tensor<11008x4096xbf16>) {
    ^bb0(%in: bf16, %out: bf16):
      linalg.yield %in : bf16
    } -> tensor<11008x4096xbf16>
    %310 = tosa.reshape %307 {new_shape = array<i64: 40, 11008>} : (tensor<1x40x11008xbf16>) -> tensor<40x11008xbf16>
    %cst_700 = arith.constant dense<0.000000e+00> : tensor<40x4096xbf16>
    %311 = linalg.matmul {cast = #linalg.type_fn<cast_signed>} ins(%310, %309 : tensor<40x11008xbf16>, tensor<11008x4096xbf16>) outs(%cst_700 : tensor<40x4096xbf16>) -> tensor<40x4096xbf16>
    %312 = tosa.reshape %311 {new_shape = array<i64: 1, 40, 4096>} : (tensor<40x4096xbf16>) -> tensor<1x40x4096xbf16>
    %313 = tosa.add %281, %312 : (tensor<1x40x4096xbf16>, tensor<1x40x4096xbf16>) -> tensor<1x40x4096xbf16>
    %314 = tensor.empty() : tensor<1x40x4096xf32>
    %315 = linalg.generic {indexing_maps = [#map5, #map5], iterator_types = ["parallel", "parallel", "parallel"]} ins(%313 : tensor<1x40x4096xbf16>) outs(%314 : tensor<1x40x4096xf32>) {
    ^bb0(%in: bf16, %out: f32):
      %4564 = arith.extf %in : bf16 to f32
      linalg.yield %4564 : f32
    } -> tensor<1x40x4096xf32>
    %316 = tensor.empty() : tensor<1x40x4096xf32>
    %c2_i32_701 = arith.constant 2 : i32
    %317 = linalg.generic {indexing_maps = [#map5, #map5], iterator_types = ["parallel", "parallel", "parallel"]} ins(%315 : tensor<1x40x4096xf32>) outs(%316 : tensor<1x40x4096xf32>) {
    ^bb0(%in: f32, %out: f32):
      %4564 = math.fpowi %in, %c2_i32_701 : f32, i32
      linalg.yield %4564 : f32
    } -> tensor<1x40x4096xf32>
    %cst_702 = arith.constant dense<0.000000e+00> : tensor<1x40x1xf32>
    %318 = linalg.generic {indexing_maps = [#map6, #map7], iterator_types = ["parallel", "parallel", "reduction", "parallel"]} ins(%317 : tensor<1x40x4096xf32>) outs(%cst_702 : tensor<1x40x1xf32>) {
    ^bb0(%in: f32, %out: f32):
      %cst_1454 = arith.constant 4.096000e+03 : f32
      %4564 = arith.divf %in, %cst_1454 : f32
      %4565 = arith.addf %4564, %out : f32
      linalg.yield %4565 : f32
    } -> tensor<1x40x1xf32>
    %319 = "tosa.const"() <{value = dense<9.99999974E-6> : tensor<1x40x1xf32>}> : () -> tensor<1x40x1xf32>
    %320 = tosa.add %318, %319 : (tensor<1x40x1xf32>, tensor<1x40x1xf32>) -> tensor<1x40x1xf32>
    %321 = tosa.rsqrt %320 : (tensor<1x40x1xf32>) -> tensor<1x40x1xf32>
    %322 = tosa.mul %315, %321 {shift = 0 : i8} : (tensor<1x40x4096xf32>, tensor<1x40x1xf32>) -> tensor<1x40x4096xf32>
    %323 = tensor.empty() : tensor<1x40x4096xbf16>
    %324 = linalg.generic {indexing_maps = [#map5, #map5], iterator_types = ["parallel", "parallel", "parallel"]} ins(%322 : tensor<1x40x4096xf32>) outs(%323 : tensor<1x40x4096xbf16>) {
    ^bb0(%in: f32, %out: bf16):
      %4564 = arith.truncf %in : f32 to bf16
      linalg.yield %4564 : bf16
    } -> tensor<1x40x4096xbf16>
    %325 = tosa.reshape %extracted_slice_3 {new_shape = array<i64: 1, 1, 4096>} : (tensor<4096xbf16>) -> tensor<1x1x4096xbf16>
    %326 = tosa.mul %325, %324 {shift = 0 : i8} : (tensor<1x1x4096xbf16>, tensor<1x40x4096xbf16>) -> tensor<1x40x4096xbf16>
    %327 = tensor.empty() : tensor<4096x4096xbf16>
    %328 = linalg.generic {indexing_maps = [#map3, #map8], iterator_types = ["parallel", "parallel"]} ins(%expanded_94 : tensor<4096x4096xbf16>) outs(%327 : tensor<4096x4096xbf16>) {
    ^bb0(%in: bf16, %out: bf16):
      linalg.yield %in : bf16
    } -> tensor<4096x4096xbf16>
    %329 = tosa.reshape %326 {new_shape = array<i64: 40, 4096>} : (tensor<1x40x4096xbf16>) -> tensor<40x4096xbf16>
    %cst_703 = arith.constant dense<0.000000e+00> : tensor<40x4096xbf16>
    %330 = linalg.matmul {cast = #linalg.type_fn<cast_signed>} ins(%329, %328 : tensor<40x4096xbf16>, tensor<4096x4096xbf16>) outs(%cst_703 : tensor<40x4096xbf16>) -> tensor<40x4096xbf16>
    %331 = tosa.reshape %330 {new_shape = array<i64: 1, 40, 4096>} : (tensor<40x4096xbf16>) -> tensor<1x40x4096xbf16>
    %332 = tensor.empty() : tensor<4096x4096xbf16>
    %333 = linalg.generic {indexing_maps = [#map3, #map8], iterator_types = ["parallel", "parallel"]} ins(%expanded_96 : tensor<4096x4096xbf16>) outs(%332 : tensor<4096x4096xbf16>) {
    ^bb0(%in: bf16, %out: bf16):
      linalg.yield %in : bf16
    } -> tensor<4096x4096xbf16>
    %334 = tosa.reshape %326 {new_shape = array<i64: 40, 4096>} : (tensor<1x40x4096xbf16>) -> tensor<40x4096xbf16>
    %cst_704 = arith.constant dense<0.000000e+00> : tensor<40x4096xbf16>
    %335 = linalg.matmul {cast = #linalg.type_fn<cast_signed>} ins(%334, %333 : tensor<40x4096xbf16>, tensor<4096x4096xbf16>) outs(%cst_704 : tensor<40x4096xbf16>) -> tensor<40x4096xbf16>
    %336 = tosa.reshape %335 {new_shape = array<i64: 1, 40, 4096>} : (tensor<40x4096xbf16>) -> tensor<1x40x4096xbf16>
    %337 = tensor.empty() : tensor<4096x4096xbf16>
    %338 = linalg.generic {indexing_maps = [#map3, #map8], iterator_types = ["parallel", "parallel"]} ins(%expanded_98 : tensor<4096x4096xbf16>) outs(%337 : tensor<4096x4096xbf16>) {
    ^bb0(%in: bf16, %out: bf16):
      linalg.yield %in : bf16
    } -> tensor<4096x4096xbf16>
    %339 = tosa.reshape %326 {new_shape = array<i64: 40, 4096>} : (tensor<1x40x4096xbf16>) -> tensor<40x4096xbf16>
    %cst_705 = arith.constant dense<0.000000e+00> : tensor<40x4096xbf16>
    %340 = linalg.matmul {cast = #linalg.type_fn<cast_signed>} ins(%339, %338 : tensor<40x4096xbf16>, tensor<4096x4096xbf16>) outs(%cst_705 : tensor<40x4096xbf16>) -> tensor<40x4096xbf16>
    %341 = tosa.reshape %340 {new_shape = array<i64: 1, 40, 4096>} : (tensor<40x4096xbf16>) -> tensor<1x40x4096xbf16>
    %342 = tosa.reshape %331 {new_shape = array<i64: 1, 40, 32, 128>} : (tensor<1x40x4096xbf16>) -> tensor<1x40x32x128xbf16>
    %343 = tensor.empty() : tensor<1x32x40x128xbf16>
    %344 = linalg.generic {indexing_maps = [#map9, #map4], iterator_types = ["parallel", "parallel", "parallel", "parallel"]} ins(%342 : tensor<1x40x32x128xbf16>) outs(%343 : tensor<1x32x40x128xbf16>) {
    ^bb0(%in: bf16, %out: bf16):
      linalg.yield %in : bf16
    } -> tensor<1x32x40x128xbf16>
    %345 = tosa.reshape %336 {new_shape = array<i64: 1, 40, 32, 128>} : (tensor<1x40x4096xbf16>) -> tensor<1x40x32x128xbf16>
    %346 = tensor.empty() : tensor<1x32x40x128xbf16>
    %347 = linalg.generic {indexing_maps = [#map9, #map4], iterator_types = ["parallel", "parallel", "parallel", "parallel"]} ins(%345 : tensor<1x40x32x128xbf16>) outs(%346 : tensor<1x32x40x128xbf16>) {
    ^bb0(%in: bf16, %out: bf16):
      linalg.yield %in : bf16
    } -> tensor<1x32x40x128xbf16>
    %348 = tosa.reshape %341 {new_shape = array<i64: 1, 40, 32, 128>} : (tensor<1x40x4096xbf16>) -> tensor<1x40x32x128xbf16>
    %349 = tensor.empty() : tensor<1x32x40x128xbf16>
    %350 = linalg.generic {indexing_maps = [#map9, #map4], iterator_types = ["parallel", "parallel", "parallel", "parallel"]} ins(%348 : tensor<1x40x32x128xbf16>) outs(%349 : tensor<1x32x40x128xbf16>) {
    ^bb0(%in: bf16, %out: bf16):
      linalg.yield %in : bf16
    } -> tensor<1x32x40x128xbf16>
    %extracted_slice_706 = tensor.extract_slice %expanded_524[0, 0, 0, 0] [1, 1, 2048, 128] [1, 1, 1, 1] : tensor<1x1x2048x128xbf16> to tensor<1x1x2048x128xbf16>
    %extracted_slice_707 = tensor.extract_slice %extracted_slice_706[0, 0, 0, 0] [1, 1, 2048, 128] [1, 1, 1, 1] : tensor<1x1x2048x128xbf16> to tensor<1x1x2048x128xbf16>
    %extracted_slice_708 = tensor.extract_slice %extracted_slice_707[0, 0, 0, 0] [1, 1, 40, 128] [1, 1, 1, 1] : tensor<1x1x2048x128xbf16> to tensor<1x1x40x128xbf16>
    %extracted_slice_709 = tensor.extract_slice %expanded_526[0, 0, 0, 0] [1, 1, 2048, 128] [1, 1, 1, 1] : tensor<1x1x2048x128xbf16> to tensor<1x1x2048x128xbf16>
    %extracted_slice_710 = tensor.extract_slice %extracted_slice_709[0, 0, 0, 0] [1, 1, 2048, 128] [1, 1, 1, 1] : tensor<1x1x2048x128xbf16> to tensor<1x1x2048x128xbf16>
    %extracted_slice_711 = tensor.extract_slice %extracted_slice_710[0, 0, 0, 0] [1, 1, 40, 128] [1, 1, 1, 1] : tensor<1x1x2048x128xbf16> to tensor<1x1x40x128xbf16>
    %351 = tensor.empty() : tensor<1x40x128xbf16>
    %352  = tensor.collapse_shape %extracted_slice_708 [[0,1],[2],[3]] : tensor<1x1x40x128xbf16> into tensor<1x40x128xbf16>
    %353 = tensor.empty() : tensor<40x128xbf16>
    %354 = linalg.generic {indexing_maps = [#map11, #map3], iterator_types = ["parallel", "parallel"]} ins(%352 : tensor<1x40x128xbf16>) outs(%353 : tensor<40x128xbf16>) {
    ^bb0(%in: bf16, %out: bf16):
      linalg.yield %in : bf16
    } -> tensor<40x128xbf16>
    %355 = tensor.empty() : tensor<1x40x128xbf16>
    %356  = tensor.collapse_shape %extracted_slice_711 [[0,1],[2],[3]] : tensor<1x1x40x128xbf16> into tensor<1x40x128xbf16>
    %357 = tensor.empty() : tensor<40x128xbf16>
    %358 = linalg.generic {indexing_maps = [#map11, #map3], iterator_types = ["parallel", "parallel"]} ins(%356 : tensor<1x40x128xbf16>) outs(%357 : tensor<40x128xbf16>) {
    ^bb0(%in: bf16, %out: bf16):
      linalg.yield %in : bf16
    } -> tensor<40x128xbf16>
    %359 = tensor.empty() : tensor<1x40x128xbf16>
    %360 = linalg.generic {indexing_maps = [#map2, #map5], iterator_types = ["parallel", "parallel", "parallel"]} ins(%1 : tensor<1x40xi64>) outs(%359 : tensor<1x40x128xbf16>) {
    ^bb0(%in: i64, %out: bf16):
      %4564 = arith.index_cast %in : i64 to index
      %4565 = linalg.index 2 : index
      %extracted = tensor.extract %354[%4564, %4565] : tensor<40x128xbf16>
      linalg.yield %extracted : bf16
    } -> tensor<1x40x128xbf16>
    %361 = tosa.reshape %360 {new_shape = array<i64: 1, 1, 40, 128>} : (tensor<1x40x128xbf16>) -> tensor<1x1x40x128xbf16>
    %362 = tensor.empty() : tensor<1x40x128xbf16>
    %363 = linalg.generic {indexing_maps = [#map2, #map5], iterator_types = ["parallel", "parallel", "parallel"]} ins(%1 : tensor<1x40xi64>) outs(%362 : tensor<1x40x128xbf16>) {
    ^bb0(%in: i64, %out: bf16):
      %4564 = arith.index_cast %in : i64 to index
      %4565 = linalg.index 2 : index
      %extracted = tensor.extract %358[%4564, %4565] : tensor<40x128xbf16>
      linalg.yield %extracted : bf16
    } -> tensor<1x40x128xbf16>
    %364 = tosa.reshape %363 {new_shape = array<i64: 1, 1, 40, 128>} : (tensor<1x40x128xbf16>) -> tensor<1x1x40x128xbf16>
    %365 = tosa.mul %344, %361 {shift = 0 : i8} : (tensor<1x32x40x128xbf16>, tensor<1x1x40x128xbf16>) -> tensor<1x32x40x128xbf16>
    %extracted_slice_712 = tensor.extract_slice %344[0, 0, 0, 0] [1, 32, 40, 64] [1, 1, 1, 1] : tensor<1x32x40x128xbf16> to tensor<1x32x40x64xbf16>
    %extracted_slice_713 = tensor.extract_slice %344[0, 0, 0, 64] [1, 32, 40, 64] [1, 1, 1, 1] : tensor<1x32x40x128xbf16> to tensor<1x32x40x64xbf16>
    %366 = tensor.empty() : tensor<1x32x40x64xbf16>
    %367 = linalg.generic {indexing_maps = [#map4, #map4], iterator_types = ["parallel", "parallel", "parallel", "parallel"]} ins(%extracted_slice_713 : tensor<1x32x40x64xbf16>) outs(%366 : tensor<1x32x40x64xbf16>) {
    ^bb0(%in: bf16, %out: bf16):
      %4564 = arith.negf %in : bf16
      linalg.yield %4564 : bf16
    } -> tensor<1x32x40x64xbf16>
    %368 = tensor.empty() : tensor<1x32x40x128xbf16>
    %inserted_slice_714 = tensor.insert_slice %367 into %368[0, 0, 0, 0] [1, 32, 40, 64] [1, 1, 1, 1] : tensor<1x32x40x64xbf16> into tensor<1x32x40x128xbf16>
    %inserted_slice_715 = tensor.insert_slice %extracted_slice_712 into %inserted_slice_714[0, 0, 0, 64] [1, 32, 40, 64] [1, 1, 1, 1] : tensor<1x32x40x64xbf16> into tensor<1x32x40x128xbf16>
    %369 = tosa.mul %inserted_slice_715, %364 {shift = 0 : i8} : (tensor<1x32x40x128xbf16>, tensor<1x1x40x128xbf16>) -> tensor<1x32x40x128xbf16>
    %370 = tosa.add %365, %369 : (tensor<1x32x40x128xbf16>, tensor<1x32x40x128xbf16>) -> tensor<1x32x40x128xbf16>
    %371 = tosa.mul %347, %361 {shift = 0 : i8} : (tensor<1x32x40x128xbf16>, tensor<1x1x40x128xbf16>) -> tensor<1x32x40x128xbf16>
    %extracted_slice_716 = tensor.extract_slice %347[0, 0, 0, 0] [1, 32, 40, 64] [1, 1, 1, 1] : tensor<1x32x40x128xbf16> to tensor<1x32x40x64xbf16>
    %extracted_slice_717 = tensor.extract_slice %347[0, 0, 0, 64] [1, 32, 40, 64] [1, 1, 1, 1] : tensor<1x32x40x128xbf16> to tensor<1x32x40x64xbf16>
…
    %4289 = tosa.reshape %4288 {new_shape = array<i64: 1, 40, 4096>} : (tensor<40x4096xbf16>) -> tensor<1x40x4096xbf16>
    %4290 = tosa.reshape %4279 {new_shape = array<i64: 1, 40, 32, 128>} : (tensor<1x40x4096xbf16>) -> tensor<1x40x32x128xbf16>
    %4291 = tensor.empty() : tensor<1x32x40x128xbf16>
    %4292 = linalg.generic {indexing_maps = [#map9, #map4], iterator_types = ["parallel", "parallel", "parallel", "parallel"]} ins(%4290 : tensor<1x40x32x128xbf16>) outs(%4291 : tensor<1x32x40x128xbf16>) {
    ^bb0(%in: bf16, %out: bf16):
      linalg.yield %in : bf16
    } -> tensor<1x32x40x128xbf16>
    %4293 = tosa.reshape %4284 {new_shape = array<i64: 1, 40, 32, 128>} : (tensor<1x40x4096xbf16>) -> tensor<1x40x32x128xbf16>
    %4294 = tensor.empty() : tensor<1x32x40x128xbf16>
    %4295 = linalg.generic {indexing_maps = [#map9, #map4], iterator_types = ["parallel", "parallel", "parallel", "parallel"]} ins(%4293 : tensor<1x40x32x128xbf16>) outs(%4294 : tensor<1x32x40x128xbf16>) {
    ^bb0(%in: bf16, %out: bf16):
      linalg.yield %in : bf16
    } -> tensor<1x32x40x128xbf16>
    %4296 = tosa.reshape %4289 {new_shape = array<i64: 1, 40, 32, 128>} : (tensor<1x40x4096xbf16>) -> tensor<1x40x32x128xbf16>
    %4297 = tensor.empty() : tensor<1x32x40x128xbf16>
    %4298 = linalg.generic {indexing_maps = [#map9, #map4], iterator_types = ["parallel", "parallel", "parallel", "parallel"]} ins(%4296 : tensor<1x40x32x128xbf16>) outs(%4297 : tensor<1x32x40x128xbf16>) {
    ^bb0(%in: bf16, %out: bf16):
      linalg.yield %in : bf16
    } -> tensor<1x32x40x128xbf16>
    %extracted_slice_1406 = tensor.extract_slice %expanded_636[0, 0, 0, 0] [1, 1, 2048, 128] [1, 1, 1, 1] : tensor<1x1x2048x128xbf16> to tensor<1x1x2048x128xbf16>
    %extracted_slice_1407 = tensor.extract_slice %extracted_slice_1406[0, 0, 0, 0] [1, 1, 2048, 128] [1, 1, 1, 1] : tensor<1x1x2048x128xbf16> to tensor<1x1x2048x128xbf16>
    %extracted_slice_1408 = tensor.extract_slice %extracted_slice_1407[0, 0, 0, 0] [1, 1, 40, 128] [1, 1, 1, 1] : tensor<1x1x2048x128xbf16> to tensor<1x1x40x128xbf16>
    %extracted_slice_1409 = tensor.extract_slice %expanded_638[0, 0, 0, 0] [1, 1, 2048, 128] [1, 1, 1, 1] : tensor<1x1x2048x128xbf16> to tensor<1x1x2048x128xbf16>
    %extracted_slice_1410 = tensor.extract_slice %extracted_slice_1409[0, 0, 0, 0] [1, 1, 2048, 128] [1, 1, 1, 1] : tensor<1x1x2048x128xbf16> to tensor<1x1x2048x128xbf16>
    %extracted_slice_1411 = tensor.extract_slice %extracted_slice_1410[0, 0, 0, 0] [1, 1, 40, 128] [1, 1, 1, 1] : tensor<1x1x2048x128xbf16> to tensor<1x1x40x128xbf16>
    %4299 = tensor.empty() : tensor<1x40x128xbf16>
    %4300  = tensor.collapse_shape %extracted_slice_1408 [[0,1],[2],[3]] : tensor<1x1x40x128xbf16> into tensor<1x40x128xbf16>
    %4301 = tensor.empty() : tensor<40x128xbf16>
    %4302 = linalg.generic {indexing_maps = [#map11, #map3], iterator_types = ["parallel", "parallel"]} ins(%4300 : tensor<1x40x128xbf16>) outs(%4301 : tensor<40x128xbf16>) {
    ^bb0(%in: bf16, %out: bf16):
      linalg.yield %in : bf16
    } -> tensor<40x128xbf16>
    %4303 = tensor.empty() : tensor<1x40x128xbf16>
    %4304  = tensor.collapse_shape %extracted_slice_1411 [[0,1],[2],[3]] : tensor<1x1x40x128xbf16> into tensor<1x40x128xbf16>
    %4305 = tensor.empty() : tensor<40x128xbf16>
    %4306 = linalg.generic {indexing_maps = [#map11, #map3], iterator_types = ["parallel", "parallel"]} ins(%4304 : tensor<1x40x128xbf16>) outs(%4305 : tensor<40x128xbf16>) {
    ^bb0(%in: bf16, %out: bf16):
      linalg.yield %in : bf16
    } -> tensor<40x128xbf16>
    %4307 = tensor.empty() : tensor<1x40x128xbf16>
    %4308 = linalg.generic {indexing_maps = [#map2, #map5], iterator_types = ["parallel", "parallel", "parallel"]} ins(%1 : tensor<1x40xi64>) outs(%4307 : tensor<1x40x128xbf16>) {
    ^bb0(%in: i64, %out: bf16):
      %4564 = arith.index_cast %in : i64 to index
      %4565 = linalg.index 2 : index
      %extracted = tensor.extract %4302[%4564, %4565] : tensor<40x128xbf16>
      linalg.yield %extracted : bf16
    } -> tensor<1x40x128xbf16>
    %4309 = tosa.reshape %4308 {new_shape = array<i64: 1, 1, 40, 128>} : (tensor<1x40x128xbf16>) -> tensor<1x1x40x128xbf16>
    %4310 = tensor.empty() : tensor<1x40x128xbf16>
    %4311 = linalg.generic {indexing_maps = [#map2, #map5], iterator_types = ["parallel", "parallel", "parallel"]} ins(%1 : tensor<1x40xi64>) outs(%4310 : tensor<1x40x128xbf16>) {
    ^bb0(%in: i64, %out: bf16):
      %4564 = arith.index_cast %in : i64 to index
      %4565 = linalg.index 2 : index
      %extracted = tensor.extract %4306[%4564, %4565] : tensor<40x128xbf16>
      linalg.yield %extracted : bf16
    } -> tensor<1x40x128xbf16>
    %4312 = tosa.reshape %4311 {new_shape = array<i64: 1, 1, 40, 128>} : (tensor<1x40x128xbf16>) -> tensor<1x1x40x128xbf16>
    %4313 = tosa.mul %4292, %4309 {shift = 0 : i8} : (tensor<1x32x40x128xbf16>, tensor<1x1x40x128xbf16>) -> tensor<1x32x40x128xbf16>
    %extracted_slice_1412 = tensor.extract_slice %4292[0, 0, 0, 0] [1, 32, 40, 64] [1, 1, 1, 1] : tensor<1x32x40x128xbf16> to tensor<1x32x40x64xbf16>
    %extracted_slice_1413 = tensor.extract_slice %4292[0, 0, 0, 64] [1, 32, 40, 64] [1, 1, 1, 1] : tensor<1x32x40x128xbf16> to tensor<1x32x40x64xbf16>
    %4314 = tensor.empty() : tensor<1x32x40x64xbf16>
    %4315 = linalg.generic {indexing_maps = [#map4, #map4], iterator_types = ["parallel", "parallel", "parallel", "parallel"]} ins(%extracted_slice_1413 : tensor<1x32x40x64xbf16>) outs(%4314 : tensor<1x32x40x64xbf16>) {
    ^bb0(%in: bf16, %out: bf16):
      %4564 = arith.negf %in : bf16
      linalg.yield %4564 : bf16
    } -> tensor<1x32x40x64xbf16>
    %4316 = tensor.empty() : tensor<1x32x40x128xbf16>
    %inserted_slice_1414 = tensor.insert_slice %4315 into %4316[0, 0, 0, 0] [1, 32, 40, 64] [1, 1, 1, 1] : tensor<1x32x40x64xbf16> into tensor<1x32x40x128xbf16>
    %inserted_slice_1415 = tensor.insert_slice %extracted_slice_1412 into %inserted_slice_1414[0, 0, 0, 64] [1, 32, 40, 64] [1, 1, 1, 1] : tensor<1x32x40x64xbf16> into tensor<1x32x40x128xbf16>
    %4317 = tosa.mul %inserted_slice_1415, %4312 {shift = 0 : i8} : (tensor<1x32x40x128xbf16>, tensor<1x1x40x128xbf16>) -> tensor<1x32x40x128xbf16>
    %4318 = tosa.add %4313, %4317 : (tensor<1x32x40x128xbf16>, tensor<1x32x40x128xbf16>) -> tensor<1x32x40x128xbf16>
    %4319 = tosa.mul %4295, %4309 {shift = 0 : i8} : (tensor<1x32x40x128xbf16>, tensor<1x1x40x128xbf16>) -> tensor<1x32x40x128xbf16>
    %extracted_slice_1416 = tensor.extract_slice %4295[0, 0, 0, 0] [1, 32, 40, 64] [1, 1, 1, 1] : tensor<1x32x40x128xbf16> to tensor<1x32x40x64xbf16>
    %extracted_slice_1417 = tensor.extract_slice %4295[0, 0, 0, 64] [1, 32, 40, 64] [1, 1, 1, 1] : tensor<1x32x40x128xbf16> to tensor<1x32x40x64xbf16>
    %4320 = tensor.empty() : tensor<1x32x40x64xbf16>
    %4321 = linalg.generic {indexing_maps = [#map4, #map4], iterator_types = ["parallel", "parallel", "parallel", "parallel"]} ins(%extracted_slice_1417 : tensor<1x32x40x64xbf16>) outs(%4320 : tensor<1x32x40x64xbf16>) {
    ^bb0(%in: bf16, %out: bf16):
      %4564 = arith.negf %in : bf16
      linalg.yield %4564 : bf16
    } -> tensor<1x32x40x64xbf16>
    %4322 = tensor.empty() : tensor<1x32x40x128xbf16>
    %inserted_slice_1418 = tensor.insert_slice %4321 into %4322[0, 0, 0, 0] [1, 32, 40, 64] [1, 1, 1, 1] : tensor<1x32x40x64xbf16> into tensor<1x32x40x128xbf16>
    %inserted_slice_1419 = tensor.insert_slice %extracted_slice_1416 into %inserted_slice_1418[0, 0, 0, 64] [1, 32, 40, 64] [1, 1, 1, 1] : tensor<1x32x40x64xbf16> into tensor<1x32x40x128xbf16>
    %4323 = tosa.mul %inserted_slice_1419, %4312 {shift = 0 : i8} : (tensor<1x32x40x128xbf16>, tensor<1x1x40x128xbf16>) -> tensor<1x32x40x128xbf16>
    %4324 = tosa.add %4319, %4323 : (tensor<1x32x40x128xbf16>, tensor<1x32x40x128xbf16>) -> tensor<1x32x40x128xbf16>
    %4325 = tensor.empty() : tensor<1x32x128x40xbf16>
    %4326 = linalg.generic {indexing_maps = [#map12, #map4], iterator_types = ["parallel", "parallel", "parallel", "parallel"]} ins(%4324 : tensor<1x32x40x128xbf16>) outs(%4325 : tensor<1x32x128x40xbf16>) {
    ^bb0(%in: bf16, %out: bf16):
      linalg.yield %in : bf16
    } -> tensor<1x32x128x40xbf16>
    %4327 = "tosa.const"() <{value = dense<0.000000e+00> : tensor<1x32x40x128xbf16>}> : () -> tensor<1x32x40x128xbf16>
    %4328 = tosa.add %4318, %4327 : (tensor<1x32x40x128xbf16>, tensor<1x32x40x128xbf16>) -> tensor<1x32x40x128xbf16>
    %4329 = tosa.reshape %4328 {new_shape = array<i64: 32, 40, 128>} : (tensor<1x32x40x128xbf16>) -> tensor<32x40x128xbf16>
    %4330 = "tosa.const"() <{value = dense<0.000000e+00> : tensor<1x32x128x40xbf16>}> : () -> tensor<1x32x128x40xbf16>
    %4331 = tosa.add %4326, %4330 : (tensor<1x32x128x40xbf16>, tensor<1x32x128x40xbf16>) -> tensor<1x32x128x40xbf16>
    %4332 = tosa.reshape %4331 {new_shape = array<i64: 32, 128, 40>} : (tensor<1x32x128x40xbf16>) -> tensor<32x128x40xbf16>
    %4333 = tosa.matmul %4329, %4332 : (tensor<32x40x128xbf16>, tensor<32x128x40xbf16>) -> tensor<32x40x40xbf16>
    %4334 = tosa.reshape %4333 {new_shape = array<i64: 1, 32, 40, 40>} : (tensor<32x40x40xbf16>) -> tensor<1x32x40x40xbf16>
    %4335 = "tosa.const"() <{value = dense<1.131250e+01> : tensor<1x32x40x40xbf16>}> : () -> tensor<1x32x40x40xbf16>
    %4336 = tosa.reciprocal %4335 : (tensor<1x32x40x40xbf16>) -> tensor<1x32x40x40xbf16>
    %4337 = tosa.mul %4334, %4336 {shift = 0 : i8} : (tensor<1x32x40x40xbf16>, tensor<1x32x40x40xbf16>) -> tensor<1x32x40x40xbf16>
    %4338 = tosa.add %4337, %31 : (tensor<1x32x40x40xbf16>, tensor<1x1x40x40xbf16>) -> tensor<1x32x40x40xbf16>
    %4339 = tensor.empty() : tensor<1x32x40x40xf32>
    %4340 = linalg.generic {indexing_maps = [#map4, #map4], iterator_types = ["parallel", "parallel", "parallel", "parallel"]} ins(%4338 : tensor<1x32x40x40xbf16>) outs(%4339 : tensor<1x32x40x40xf32>) {
    ^bb0(%in: bf16, %out: f32):
      %4564 = arith.extf %in : bf16 to f32
      linalg.yield %4564 : f32
    } -> tensor<1x32x40x40xf32>
    %4341 = tensor.empty() : tensor<1x32x40x1xf32>
    %4342 = linalg.generic {indexing_maps = [#map4], iterator_types = ["parallel", "parallel", "parallel", "parallel"]} outs(%4341 : tensor<1x32x40x1xf32>) {
    ^bb0(%out: f32):
      %cst_1454 = arith.constant 0xFF800000 : f32
      linalg.yield %cst_1454 : f32
    } -> tensor<1x32x40x1xf32>
    %4343 = linalg.generic {indexing_maps = [#map4, #map13], iterator_types = ["parallel", "parallel", "parallel", "reduction"]} ins(%4340 : tensor<1x32x40x40xf32>) outs(%4341 : tensor<1x32x40x1xf32>) {
    ^bb0(%in: f32, %out: f32):
      %4564 = arith.maximumf %in, %out : f32
      linalg.yield %4564 : f32
    } -> tensor<1x32x40x1xf32>
    %4344 = tensor.empty() : tensor<1x32x40x40xf32>
    %4345 = linalg.generic {indexing_maps = [#map4, #map13, #map4], iterator_types = ["parallel", "parallel", "parallel", "parallel"]} ins(%4340, %4343 : tensor<1x32x40x40xf32>, tensor<1x32x40x1xf32>) outs(%4344 : tensor<1x32x40x40xf32>) {
    ^bb0(%in: f32, %in_1454: f32, %out: f32):
      %4564 = arith.subf %in, %in_1454 : f32
      %4565 = math.exp %4564 : f32
      linalg.yield %4565 : f32
    } -> tensor<1x32x40x40xf32>
    %4346 = tensor.empty() : tensor<1x32x40x1xf32>
    %4347 = linalg.generic {indexing_maps = [#map4], iterator_types = ["parallel", "parallel", "parallel", "parallel"]} outs(%4346 : tensor<1x32x40x1xf32>) {
    ^bb0(%out: f32):
      %cst_1454 = arith.constant 0.000000e+00 : f32
      linalg.yield %cst_1454 : f32
    } -> tensor<1x32x40x1xf32>
    %4348 = linalg.generic {indexing_maps = [#map4, #map13], iterator_types = ["parallel", "parallel", "parallel", "reduction"]} ins(%4345 : tensor<1x32x40x40xf32>) outs(%4347 : tensor<1x32x40x1xf32>) {
    ^bb0(%in: f32, %out: f32):
      %4564 = arith.addf %in, %out : f32
      linalg.yield %4564 : f32
    } -> tensor<1x32x40x1xf32>
    %4349 = tensor.empty() : tensor<1x32x40x40xf32>
    %4350 = linalg.generic {indexing_maps = [#map4, #map13, #map4], iterator_types = ["parallel", "parallel", "parallel", "parallel"]} ins(%4345, %4348 : tensor<1x32x40x40xf32>, tensor<1x32x40x1xf32>) outs(%4349 : tensor<1x32x40x40xf32>) {
    ^bb0(%in: f32, %in_1454: f32, %out: f32):
      %4564 = arith.divf %in, %in_1454 : f32
      linalg.yield %4564 : f32
    } -> tensor<1x32x40x40xf32>
    %4351 = tensor.empty() : tensor<1x32x40x40xbf16>
    %4352 = linalg.generic {indexing_maps = [#map4, #map4], iterator_types = ["parallel", "parallel", "parallel", "parallel"]} ins(%4350 : tensor<1x32x40x40xf32>) outs(%4351 : tensor<1x32x40x40xbf16>) {
    ^bb0(%in: f32, %out: bf16):
      %4564 = arith.truncf %in : f32 to bf16
      linalg.yield %4564 : bf16
    } -> tensor<1x32x40x40xbf16>
    %4353 = "tosa.const"() <{value = dense<0.000000e+00> : tensor<1x32x40x40xbf16>}> : () -> tensor<1x32x40x40xbf16>
    %4354 = tosa.add %4352, %4353 : (tensor<1x32x40x40xbf16>, tensor<1x32x40x40xbf16>) -> tensor<1x32x40x40xbf16>
    %4355 = tosa.reshape %4354 {new_shape = array<i64: 32, 40, 40>} : (tensor<1x32x40x40xbf16>) -> tensor<32x40x40xbf16>
    %4356 = "tosa.const"() <{value = dense<0.000000e+00> : tensor<1x32x40x128xbf16>}> : () -> tensor<1x32x40x128xbf16>
    %4357 = tosa.add %4298, %4356 : (tensor<1x32x40x128xbf16>, tensor<1x32x40x128xbf16>) -> tensor<1x32x40x128xbf16>
    %4358 = tosa.reshape %4357 {new_shape = array<i64: 32, 40, 128>} : (tensor<1x32x40x128xbf16>) -> tensor<32x40x128xbf16>
    %4359 = tosa.matmul %4355, %4358 : (tensor<32x40x40xbf16>, tensor<32x40x128xbf16>) -> tensor<32x40x128xbf16>
    %4360 = tosa.reshape %4359 {new_shape = array<i64: 1, 32, 40, 128>} : (tensor<32x40x128xbf16>) -> tensor<1x32x40x128xbf16>
    %4361 = tensor.empty() : tensor<1x40x32x128xbf16>
    %4362 = linalg.generic {indexing_maps = [#map9, #map4], iterator_types = ["parallel", "parallel", "parallel", "parallel"]} ins(%4360 : tensor<1x32x40x128xbf16>) outs(%4361 : tensor<1x40x32x128xbf16>) {
    ^bb0(%in: bf16, %out: bf16):
      linalg.yield %in : bf16
    } -> tensor<1x40x32x128xbf16>
    %4363 = tosa.identity %4362 : (tensor<1x40x32x128xbf16>) -> tensor<1x40x32x128xbf16>
    %4364 = tosa.reshape %4363 {new_shape = array<i64: 1, 40, 4096>} : (tensor<1x40x32x128xbf16>) -> tensor<1x40x4096xbf16>
    %4365 = tensor.empty() : tensor<4096x4096xbf16>
    %4366 = linalg.generic {indexing_maps = [#map3, #map8], iterator_types = ["parallel", "parallel"]} ins(%expanded_492 : tensor<4096x4096xbf16>) outs(%4365 : tensor<4096x4096xbf16>) {
    ^bb0(%in: bf16, %out: bf16):
      linalg.yield %in : bf16
    } -> tensor<4096x4096xbf16>
    %4367 = tosa.reshape %4364 {new_shape = array<i64: 40, 4096>} : (tensor<1x40x4096xbf16>) -> tensor<40x4096xbf16>
    %cst_1420 = arith.constant dense<0.000000e+00> : tensor<40x4096xbf16>
    %4368 = linalg.matmul {cast = #linalg.type_fn<cast_signed>} ins(%4367, %4366 : tensor<40x4096xbf16>, tensor<4096x4096xbf16>) outs(%cst_1420 : tensor<40x4096xbf16>) -> tensor<40x4096xbf16>
    %4369 = tosa.reshape %4368 {new_shape = array<i64: 1, 40, 4096>} : (tensor<40x4096xbf16>) -> tensor<1x40x4096xbf16>
    %4370 = tosa.add %4261, %4369 : (tensor<1x40x4096xbf16>, tensor<1x40x4096xbf16>) -> tensor<1x40x4096xbf16>
    %4371 = tensor.empty() : tensor<1x40x4096xf32>
    %4372 = linalg.generic {indexing_maps = [#map5, #map5], iterator_types = ["parallel", "parallel", "parallel"]} ins(%4370 : tensor<1x40x4096xbf16>) outs(%4371 : tensor<1x40x4096xf32>) {
    ^bb0(%in: bf16, %out: f32):
      %4564 = arith.extf %in : bf16 to f32
      linalg.yield %4564 : f32
    } -> tensor<1x40x4096xf32>
    %4373 = tensor.empty() : tensor<1x40x4096xf32>
    %c2_i32_1421 = arith.constant 2 : i32
    %4374 = linalg.generic {indexing_maps = [#map5, #map5], iterator_types = ["parallel", "parallel", "parallel"]} ins(%4372 : tensor<1x40x4096xf32>) outs(%4373 : tensor<1x40x4096xf32>) {
    ^bb0(%in: f32, %out: f32):
      %4564 = math.fpowi %in, %c2_i32_1421 : f32, i32
      linalg.yield %4564 : f32
    } -> tensor<1x40x4096xf32>
    %cst_1422 = arith.constant dense<0.000000e+00> : tensor<1x40x1xf32>
    %4375 = linalg.generic {indexing_maps = [#map6, #map7], iterator_types = ["parallel", "parallel", "reduction", "parallel"]} ins(%4374 : tensor<1x40x4096xf32>) outs(%cst_1422 : tensor<1x40x1xf32>) {
    ^bb0(%in: f32, %out: f32):
      %cst_1454 = arith.constant 4.096000e+03 : f32
      %4564 = arith.divf %in, %cst_1454 : f32
      %4565 = arith.addf %4564, %out : f32
      linalg.yield %4565 : f32
    } -> tensor<1x40x1xf32>
    %4376 = "tosa.const"() <{value = dense<9.99999974E-6> : tensor<1x40x1xf32>}> : () -> tensor<1x40x1xf32>
    %4377 = tosa.add %4375, %4376 : (tensor<1x40x1xf32>, tensor<1x40x1xf32>) -> tensor<1x40x1xf32>
    %4378 = tosa.rsqrt %4377 : (tensor<1x40x1xf32>) -> tensor<1x40x1xf32>
    %4379 = tosa.mul %4372, %4378 {shift = 0 : i8} : (tensor<1x40x4096xf32>, tensor<1x40x1xf32>) -> tensor<1x40x4096xf32>
    %4380 = tensor.empty() : tensor<1x40x4096xbf16>
    %4381 = linalg.generic {indexing_maps = [#map5, #map5], iterator_types = ["parallel", "parallel", "parallel"]} ins(%4379 : tensor<1x40x4096xf32>) outs(%4380 : tensor<1x40x4096xbf16>) {
    ^bb0(%in: f32, %out: bf16):
      %4564 = arith.truncf %in : f32 to bf16
      linalg.yield %4564 : bf16
    } -> tensor<1x40x4096xbf16>
    %4382 = tosa.reshape %extracted_slice_60 {new_shape = array<i64: 1, 1, 4096>} : (tensor<4096xbf16>) -> tensor<1x1x4096xbf16>
    %4383 = tosa.mul %4382, %4381 {shift = 0 : i8} : (tensor<1x1x4096xbf16>, tensor<1x40x4096xbf16>) -> tensor<1x40x4096xbf16>
    %4384 = tensor.empty() : tensor<4096x11008xbf16>
    %4385 = linalg.generic {indexing_maps = [#map3, #map8], iterator_types = ["parallel", "parallel"]} ins(%expanded_494 : tensor<11008x4096xbf16>) outs(%4384 : tensor<4096x11008xbf16>) {
    ^bb0(%in: bf16, %out: bf16):
      linalg.yield %in : bf16
    } -> tensor<4096x11008xbf16>
    %4386 = tosa.reshape %4383 {new_shape = array<i64: 40, 4096>} : (tensor<1x40x4096xbf16>) -> tensor<40x4096xbf16>
    %cst_1423 = arith.constant dense<0.000000e+00> : tensor<40x11008xbf16>
    %4387 = linalg.matmul {cast = #linalg.type_fn<cast_signed>} ins(%4386, %4385 : tensor<40x4096xbf16>, tensor<4096x11008xbf16>) outs(%cst_1423 : tensor<40x11008xbf16>) -> tensor<40x11008xbf16>
    %4388 = tosa.reshape %4387 {new_shape = array<i64: 1, 40, 11008>} : (tensor<40x11008xbf16>) -> tensor<1x40x11008xbf16>
    %4389 = tensor.empty() : tensor<1x40x11008xbf16>
    %4390 = linalg.generic {indexing_maps = [#map5, #map5], iterator_types = ["parallel", "parallel", "parallel"]} ins(%4388 : tensor<1x40x11008xbf16>) outs(%4389 : tensor<1x40x11008xbf16>) {
    ^bb0(%in: bf16, %out: bf16):
      %4564 = arith.negf %in : bf16
      %4565 = math.exp %4564 : bf16
      %cst_1454 = arith.constant 1.000000e+00 : bf16
      %4566 = arith.addf %cst_1454, %4565 : bf16
      %4567 = arith.divf %in, %4566 : bf16
      linalg.yield %4567 : bf16
    } -> tensor<1x40x11008xbf16>
    %4391 = tensor.empty() : tensor<4096x11008xbf16>
    %4392 = linalg.generic {indexing_maps = [#map3, #map8], iterator_types = ["parallel", "parallel"]} ins(%expanded_496 : tensor<11008x4096xbf16>) outs(%4391 : tensor<4096x11008xbf16>) {
    ^bb0(%in: bf16, %out: bf16):
      linalg.yield %in : bf16
    } -> tensor<4096x11008xbf16>
    %4393 = tosa.reshape %4383 {new_shape = array<i64: 40, 4096>} : (tensor<1x40x4096xbf16>) -> tensor<40x4096xbf16>
    %cst_1424 = arith.constant dense<0.000000e+00> : tensor<40x11008xbf16>
    %4394 = linalg.matmul {cast = #linalg.type_fn<cast_signed>} ins(%4393, %4392 : tensor<40x4096xbf16>, tensor<4096x11008xbf16>) outs(%cst_1424 : tensor<40x11008xbf16>) -> tensor<40x11008xbf16>
    %4395 = tosa.reshape %4394 {new_shape = array<i64: 1, 40, 11008>} : (tensor<40x11008xbf16>) -> tensor<1x40x11008xbf16>
    %4396 = tosa.mul %4390, %4395 {shift = 0 : i8} : (tensor<1x40x11008xbf16>, tensor<1x40x11008xbf16>) -> tensor<1x40x11008xbf16>
    %4397 = tensor.empty() : tensor<11008x4096xbf16>
    %4398 = linalg.generic {indexing_maps = [#map3, #map8], iterator_types = ["parallel", "parallel"]} ins(%expanded_498 : tensor<4096x11008xbf16>) outs(%4397 : tensor<11008x4096xbf16>) {
    ^bb0(%in: bf16, %out: bf16):
      linalg.yield %in : bf16
    } -> tensor<11008x4096xbf16>
    %4399 = tosa.reshape %4396 {new_shape = array<i64: 40, 11008>} : (tensor<1x40x11008xbf16>) -> tensor<40x11008xbf16>
    %cst_1425 = arith.constant dense<0.000000e+00> : tensor<40x4096xbf16>
    %4400 = linalg.matmul {cast = #linalg.type_fn<cast_signed>} ins(%4399, %4398 : tensor<40x11008xbf16>, tensor<11008x4096xbf16>) outs(%cst_1425 : tensor<40x4096xbf16>) -> tensor<40x4096xbf16>
    %4401 = tosa.reshape %4400 {new_shape = array<i64: 1, 40, 4096>} : (tensor<40x4096xbf16>) -> tensor<1x40x4096xbf16>
    %4402 = tosa.add %4370, %4401 : (tensor<1x40x4096xbf16>, tensor<1x40x4096xbf16>) -> tensor<1x40x4096xbf16>
    %4403 = tensor.empty() : tensor<1x40x4096xf32>
    %4404 = linalg.generic {indexing_maps = [#map5, #map5], iterator_types = ["parallel", "parallel", "parallel"]} ins(%4402 : tensor<1x40x4096xbf16>) outs(%4403 : tensor<1x40x4096xf32>) {
    ^bb0(%in: bf16, %out: f32):
      %4564 = arith.extf %in : bf16 to f32
      linalg.yield %4564 : f32
    } -> tensor<1x40x4096xf32>
    %4405 = tensor.empty() : tensor<1x40x4096xf32>
    %c2_i32_1426 = arith.constant 2 : i32
    %4406 = linalg.generic {indexing_maps = [#map5, #map5], iterator_types = ["parallel", "parallel", "parallel"]} ins(%4404 : tensor<1x40x4096xf32>) outs(%4405 : tensor<1x40x4096xf32>) {
    ^bb0(%in: f32, %out: f32):
      %4564 = math.fpowi %in, %c2_i32_1426 : f32, i32
      linalg.yield %4564 : f32
    } -> tensor<1x40x4096xf32>
    %cst_1427 = arith.constant dense<0.000000e+00> : tensor<1x40x1xf32>
    %4407 = linalg.generic {indexing_maps = [#map6, #map7], iterator_types = ["parallel", "parallel", "reduction", "parallel"]} ins(%4406 : tensor<1x40x4096xf32>) outs(%cst_1427 : tensor<1x40x1xf32>) {
    ^bb0(%in: f32, %out: f32):
      %cst_1454 = arith.constant 4.096000e+03 : f32
      %4564 = arith.divf %in, %cst_1454 : f32
      %4565 = arith.addf %4564, %out : f32
      linalg.yield %4565 : f32
    } -> tensor<1x40x1xf32>
    %4408 = "tosa.const"() <{value = dense<9.99999974E-6> : tensor<1x40x1xf32>}> : () -> tensor<1x40x1xf32>
    %4409 = tosa.add %4407, %4408 : (tensor<1x40x1xf32>, tensor<1x40x1xf32>) -> tensor<1x40x1xf32>
    %4410 = tosa.rsqrt %4409 : (tensor<1x40x1xf32>) -> tensor<1x40x1xf32>
    %4411 = tosa.mul %4404, %4410 {shift = 0 : i8} : (tensor<1x40x4096xf32>, tensor<1x40x1xf32>) -> tensor<1x40x4096xf32>
    %4412 = tensor.empty() : tensor<1x40x4096xbf16>
    %4413 = linalg.generic {indexing_maps = [#map5, #map5], iterator_types = ["parallel", "parallel", "parallel"]} ins(%4411 : tensor<1x40x4096xf32>) outs(%4412 : tensor<1x40x4096xbf16>) {
    ^bb0(%in: f32, %out: bf16):
      %4564 = arith.truncf %in : f32 to bf16
      linalg.yield %4564 : bf16
    } -> tensor<1x40x4096xbf16>
    %4414 = tosa.reshape %extracted_slice_61 {new_shape = array<i64: 1, 1, 4096>} : (tensor<4096xbf16>) -> tensor<1x1x4096xbf16>
    %4415 = tosa.mul %4414, %4413 {shift = 0 : i8} : (tensor<1x1x4096xbf16>, tensor<1x40x4096xbf16>) -> tensor<1x40x4096xbf16>
    %4416 = tensor.empty() : tensor<4096x4096xbf16>
    %4417 = linalg.generic {indexing_maps = [#map3, #map8], iterator_types = ["parallel", "parallel"]} ins(%expanded_500 : tensor<4096x4096xbf16>) outs(%4416 : tensor<4096x4096xbf16>) {
    ^bb0(%in: bf16, %out: bf16):
      linalg.yield %in : bf16
    } -> tensor<4096x4096xbf16>
    %4418 = tosa.reshape %4415 {new_shape = array<i64: 40, 4096>} : (tensor<1x40x4096xbf16>) -> tensor<40x4096xbf16>
    %cst_1428 = arith.constant dense<0.000000e+00> : tensor<40x4096xbf16>
    %4419 = linalg.matmul {cast = #linalg.type_fn<cast_signed>} ins(%4418, %4417 : tensor<40x4096xbf16>, tensor<4096x4096xbf16>) outs(%cst_1428 : tensor<40x4096xbf16>) -> tensor<40x4096xbf16>
    %4420 = tosa.reshape %4419 {new_shape = array<i64: 1, 40, 4096>} : (tensor<40x4096xbf16>) -> tensor<1x40x4096xbf16>
    %4421 = tensor.empty() : tensor<4096x4096xbf16>
    %4422 = linalg.generic {indexing_maps = [#map3, #map8], iterator_types = ["parallel", "parallel"]} ins(%expanded_502 : tensor<4096x4096xbf16>) outs(%4421 : tensor<4096x4096xbf16>) {
    ^bb0(%in: bf16, %out: bf16):
      linalg.yield %in : bf16
    } -> tensor<4096x4096xbf16>
    %4423 = tosa.reshape %4415 {new_shape = array<i64: 40, 4096>} : (tensor<1x40x4096xbf16>) -> tensor<40x4096xbf16>
    %cst_1429 = arith.constant dense<0.000000e+00> : tensor<40x4096xbf16>
    %4424 = linalg.matmul {cast = #linalg.type_fn<cast_signed>} ins(%4423, %4422 : tensor<40x4096xbf16>, tensor<4096x4096xbf16>) outs(%cst_1429 : tensor<40x4096xbf16>) -> tensor<40x4096xbf16>
    %4425 = tosa.reshape %4424 {new_shape = array<i64: 1, 40, 4096>} : (tensor<40x4096xbf16>) -> tensor<1x40x4096xbf16>
    %4426 = tensor.empty() : tensor<4096x4096xbf16>
    %4427 = linalg.generic {indexing_maps = [#map3, #map8], iterator_types = ["parallel", "parallel"]} ins(%expanded_504 : tensor<4096x4096xbf16>) outs(%4426 : tensor<4096x4096xbf16>) {
    ^bb0(%in: bf16, %out: bf16):
      linalg.yield %in : bf16
    } -> tensor<4096x4096xbf16>
    %4428 = tosa.reshape %4415 {new_shape = array<i64: 40, 4096>} : (tensor<1x40x4096xbf16>) -> tensor<40x4096xbf16>
    %cst_1430 = arith.constant dense<0.000000e+00> : tensor<40x4096xbf16>
    %4429 = linalg.matmul {cast = #linalg.type_fn<cast_signed>} ins(%4428, %4427 : tensor<40x4096xbf16>, tensor<4096x4096xbf16>) outs(%cst_1430 : tensor<40x4096xbf16>) -> tensor<40x4096xbf16>
    %4430 = tosa.reshape %4429 {new_shape = array<i64: 1, 40, 4096>} : (tensor<40x4096xbf16>) -> tensor<1x40x4096xbf16>
    %4431 = tosa.reshape %4420 {new_shape = array<i64: 1, 40, 32, 128>} : (tensor<1x40x4096xbf16>) -> tensor<1x40x32x128xbf16>
    %4432 = tensor.empty() : tensor<1x32x40x128xbf16>
    %4433 = linalg.generic {indexing_maps = [#map9, #map4], iterator_types = ["parallel", "parallel", "parallel", "parallel"]} ins(%4431 : tensor<1x40x32x128xbf16>) outs(%4432 : tensor<1x32x40x128xbf16>) {
    ^bb0(%in: bf16, %out: bf16):
      linalg.yield %in : bf16
    } -> tensor<1x32x40x128xbf16>
    %4434 = tosa.reshape %4425 {new_shape = array<i64: 1, 40, 32, 128>} : (tensor<1x40x4096xbf16>) -> tensor<1x40x32x128xbf16>
    %4435 = tensor.empty() : tensor<1x32x40x128xbf16>
    %4436 = linalg.generic {indexing_maps = [#map9, #map4], iterator_types = ["parallel", "parallel", "parallel", "parallel"]} ins(%4434 : tensor<1x40x32x128xbf16>) outs(%4435 : tensor<1x32x40x128xbf16>) {
    ^bb0(%in: bf16, %out: bf16):
      linalg.yield %in : bf16
    } -> tensor<1x32x40x128xbf16>
    %4437 = tosa.reshape %4430 {new_shape = array<i64: 1, 40, 32, 128>} : (tensor<1x40x4096xbf16>) -> tensor<1x40x32x128xbf16>
    %4438 = tensor.empty() : tensor<1x32x40x128xbf16>
    %4439 = linalg.generic {indexing_maps = [#map9, #map4], iterator_types = ["parallel", "parallel", "parallel", "parallel"]} ins(%4437 : tensor<1x40x32x128xbf16>) outs(%4438 : tensor<1x32x40x128xbf16>) {
    ^bb0(%in: bf16, %out: bf16):
      linalg.yield %in : bf16
    } -> tensor<1x32x40x128xbf16>
    %extracted_slice_1431 = tensor.extract_slice %expanded_640[0, 0, 0, 0] [1, 1, 2048, 128] [1, 1, 1, 1] : tensor<1x1x2048x128xbf16> to tensor<1x1x2048x128xbf16>
    %extracted_slice_1432 = tensor.extract_slice %extracted_slice_1431[0, 0, 0, 0] [1, 1, 2048, 128] [1, 1, 1, 1] : tensor<1x1x2048x128xbf16> to tensor<1x1x2048x128xbf16>
    %extracted_slice_1433 = tensor.extract_slice %extracted_slice_1432[0, 0, 0, 0] [1, 1, 40, 128] [1, 1, 1, 1] : tensor<1x1x2048x128xbf16> to tensor<1x1x40x128xbf16>
    %extracted_slice_1434 = tensor.extract_slice %expanded_642[0, 0, 0, 0] [1, 1, 2048, 128] [1, 1, 1, 1] : tensor<1x1x2048x128xbf16> to tensor<1x1x2048x128xbf16>
    %extracted_slice_1435 = tensor.extract_slice %extracted_slice_1434[0, 0, 0, 0] [1, 1, 2048, 128] [1, 1, 1, 1] : tensor<1x1x2048x128xbf16> to tensor<1x1x2048x128xbf16>
    %extracted_slice_1436 = tensor.extract_slice %extracted_slice_1435[0, 0, 0, 0] [1, 1, 40, 128] [1, 1, 1, 1] : tensor<1x1x2048x128xbf16> to tensor<1x1x40x128xbf16>
    %4440 = tensor.empty() : tensor<1x40x128xbf16>
    %4441  = tensor.collapse_shape %extracted_slice_1433 [[0,1],[2],[3]] : tensor<1x1x40x128xbf16> into tensor<1x40x128xbf16>
    %4442 = tensor.empty() : tensor<40x128xbf16>
    %4443 = linalg.generic {indexing_maps = [#map11, #map3], iterator_types = ["parallel", "parallel"]} ins(%4441 : tensor<1x40x128xbf16>) outs(%4442 : tensor<40x128xbf16>) {
    ^bb0(%in: bf16, %out: bf16):
      linalg.yield %in : bf16
    } -> tensor<40x128xbf16>
    %4444 = tensor.empty() : tensor<1x40x128xbf16>
    %4445  = tensor.collapse_shape %extracted_slice_1436 [[0,1],[2],[3]] : tensor<1x1x40x128xbf16> into tensor<1x40x128xbf16>
    %4446 = tensor.empty() : tensor<40x128xbf16>
    %4447 = linalg.generic {indexing_maps = [#map11, #map3], iterator_types = ["parallel", "parallel"]} ins(%4445 : tensor<1x40x128xbf16>) outs(%4446 : tensor<40x128xbf16>) {
    ^bb0(%in: bf16, %out: bf16):
      linalg.yield %in : bf16
    } -> tensor<40x128xbf16>
    %4448 = tensor.empty() : tensor<1x40x128xbf16>
    %4449 = linalg.generic {indexing_maps = [#map2, #map5], iterator_types = ["parallel", "parallel", "parallel"]} ins(%1 : tensor<1x40xi64>) outs(%4448 : tensor<1x40x128xbf16>) {
    ^bb0(%in: i64, %out: bf16):
      %4564 = arith.index_cast %in : i64 to index
      %4565 = linalg.index 2 : index
      %extracted = tensor.extract %4443[%4564, %4565] : tensor<40x128xbf16>
      linalg.yield %extracted : bf16
    } -> tensor<1x40x128xbf16>
    %4450 = tosa.reshape %4449 {new_shape = array<i64: 1, 1, 40, 128>} : (tensor<1x40x128xbf16>) -> tensor<1x1x40x128xbf16>
    %4451 = tensor.empty() : tensor<1x40x128xbf16>
    %4452 = linalg.generic {indexing_maps = [#map2, #map5], iterator_types = ["parallel", "parallel", "parallel"]} ins(%1 : tensor<1x40xi64>) outs(%4451 : tensor<1x40x128xbf16>) {
    ^bb0(%in: i64, %out: bf16):
      %4564 = arith.index_cast %in : i64 to index
      %4565 = linalg.index 2 : index
      %extracted = tensor.extract %4447[%4564, %4565] : tensor<40x128xbf16>
      linalg.yield %extracted : bf16
    } -> tensor<1x40x128xbf16>
    %4453 = tosa.reshape %4452 {new_shape = array<i64: 1, 1, 40, 128>} : (tensor<1x40x128xbf16>) -> tensor<1x1x40x128xbf16>
    %4454 = tosa.mul %4433, %4450 {shift = 0 : i8} : (tensor<1x32x40x128xbf16>, tensor<1x1x40x128xbf16>) -> tensor<1x32x40x128xbf16>
    %extracted_slice_1437 = tensor.extract_slice %4433[0, 0, 0, 0] [1, 32, 40, 64] [1, 1, 1, 1] : tensor<1x32x40x128xbf16> to tensor<1x32x40x64xbf16>
    %extracted_slice_1438 = tensor.extract_slice %4433[0, 0, 0, 64] [1, 32, 40, 64] [1, 1, 1, 1] : tensor<1x32x40x128xbf16> to tensor<1x32x40x64xbf16>
    %4455 = tensor.empty() : tensor<1x32x40x64xbf16>
    %4456 = linalg.generic {indexing_maps = [#map4, #map4], iterator_types = ["parallel", "parallel", "parallel", "parallel"]} ins(%extracted_slice_1438 : tensor<1x32x40x64xbf16>) outs(%4455 : tensor<1x32x40x64xbf16>) {
    ^bb0(%in: bf16, %out: bf16):
      %4564 = arith.negf %in : bf16
      linalg.yield %4564 : bf16
    } -> tensor<1x32x40x64xbf16>
    %4457 = tensor.empty() : tensor<1x32x40x128xbf16>
    %inserted_slice_1439 = tensor.insert_slice %4456 into %4457[0, 0, 0, 0] [1, 32, 40, 64] [1, 1, 1, 1] : tensor<1x32x40x64xbf16> into tensor<1x32x40x128xbf16>
    %inserted_slice_1440 = tensor.insert_slice %extracted_slice_1437 into %inserted_slice_1439[0, 0, 0, 64] [1, 32, 40, 64] [1, 1, 1, 1] : tensor<1x32x40x64xbf16> into tensor<1x32x40x128xbf16>
    %4458 = tosa.mul %inserted_slice_1440, %4453 {shift = 0 : i8} : (tensor<1x32x40x128xbf16>, tensor<1x1x40x128xbf16>) -> tensor<1x32x40x128xbf16>
    %4459 = tosa.add %4454, %4458 : (tensor<1x32x40x128xbf16>, tensor<1x32x40x128xbf16>) -> tensor<1x32x40x128xbf16>
    %4460 = tosa.mul %4436, %4450 {shift = 0 : i8} : (tensor<1x32x40x128xbf16>, tensor<1x1x40x128xbf16>) -> tensor<1x32x40x128xbf16>
    %extracted_slice_1441 = tensor.extract_slice %4436[0, 0, 0, 0] [1, 32, 40, 64] [1, 1, 1, 1] : tensor<1x32x40x128xbf16> to tensor<1x32x40x64xbf16>
    %extracted_slice_1442 = tensor.extract_slice %4436[0, 0, 0, 64] [1, 32, 40, 64] [1, 1, 1, 1] : tensor<1x32x40x128xbf16> to tensor<1x32x40x64xbf16>
    %4461 = tensor.empty() : tensor<1x32x40x64xbf16>
    %4462 = linalg.generic {indexing_maps = [#map4, #map4], iterator_types = ["parallel", "parallel", "parallel", "parallel"]} ins(%extracted_slice_1442 : tensor<1x32x40x64xbf16>) outs(%4461 : tensor<1x32x40x64xbf16>) {
    ^bb0(%in: bf16, %out: bf16):
      %4564 = arith.negf %in : bf16
      linalg.yield %4564 : bf16
    } -> tensor<1x32x40x64xbf16>
    %4463 = tensor.empty() : tensor<1x32x40x128xbf16>
    %inserted_slice_1443 = tensor.insert_slice %4462 into %4463[0, 0, 0, 0] [1, 32, 40, 64] [1, 1, 1, 1] : tensor<1x32x40x64xbf16> into tensor<1x32x40x128xbf16>
    %inserted_slice_1444 = tensor.insert_slice %extracted_slice_1441 into %inserted_slice_1443[0, 0, 0, 64] [1, 32, 40, 64] [1, 1, 1, 1] : tensor<1x32x40x64xbf16> into tensor<1x32x40x128xbf16>
    %4464 = tosa.mul %inserted_slice_1444, %4453 {shift = 0 : i8} : (tensor<1x32x40x128xbf16>, tensor<1x1x40x128xbf16>) -> tensor<1x32x40x128xbf16>
    %4465 = tosa.add %4460, %4464 : (tensor<1x32x40x128xbf16>, tensor<1x32x40x128xbf16>) -> tensor<1x32x40x128xbf16>
    %4466 = tensor.empty() : tensor<1x32x128x40xbf16>
    %4467 = linalg.generic {indexing_maps = [#map12, #map4], iterator_types = ["parallel", "parallel", "parallel", "parallel"]} ins(%4465 : tensor<1x32x40x128xbf16>) outs(%4466 : tensor<1x32x128x40xbf16>) {
    ^bb0(%in: bf16, %out: bf16):
      linalg.yield %in : bf16
    } -> tensor<1x32x128x40xbf16>
    %4468 = "tosa.const"() <{value = dense<0.000000e+00> : tensor<1x32x40x128xbf16>}> : () -> tensor<1x32x40x128xbf16>
    %4469 = tosa.add %4459, %4468 : (tensor<1x32x40x128xbf16>, tensor<1x32x40x128xbf16>) -> tensor<1x32x40x128xbf16>
    %4470 = tosa.reshape %4469 {new_shape = array<i64: 32, 40, 128>} : (tensor<1x32x40x128xbf16>) -> tensor<32x40x128xbf16>
    %4471 = "tosa.const"() <{value = dense<0.000000e+00> : tensor<1x32x128x40xbf16>}> : () -> tensor<1x32x128x40xbf16>
    %4472 = tosa.add %4467, %4471 : (tensor<1x32x128x40xbf16>, tensor<1x32x128x40xbf16>) -> tensor<1x32x128x40xbf16>
    %4473 = tosa.reshape %4472 {new_shape = array<i64: 32, 128, 40>} : (tensor<1x32x128x40xbf16>) -> tensor<32x128x40xbf16>
    %4474 = tosa.matmul %4470, %4473 : (tensor<32x40x128xbf16>, tensor<32x128x40xbf16>) -> tensor<32x40x40xbf16>
    %4475 = tosa.reshape %4474 {new_shape = array<i64: 1, 32, 40, 40>} : (tensor<32x40x40xbf16>) -> tensor<1x32x40x40xbf16>
    %4476 = "tosa.const"() <{value = dense<1.131250e+01> : tensor<1x32x40x40xbf16>}> : () -> tensor<1x32x40x40xbf16>
    %4477 = tosa.reciprocal %4476 : (tensor<1x32x40x40xbf16>) -> tensor<1x32x40x40xbf16>
    %4478 = tosa.mul %4475, %4477 {shift = 0 : i8} : (tensor<1x32x40x40xbf16>, tensor<1x32x40x40xbf16>) -> tensor<1x32x40x40xbf16>
    %4479 = tosa.add %4478, %31 : (tensor<1x32x40x40xbf16>, tensor<1x1x40x40xbf16>) -> tensor<1x32x40x40xbf16>
    %4480 = tensor.empty() : tensor<1x32x40x40xf32>
    %4481 = linalg.generic {indexing_maps = [#map4, #map4], iterator_types = ["parallel", "parallel", "parallel", "parallel"]} ins(%4479 : tensor<1x32x40x40xbf16>) outs(%4480 : tensor<1x32x40x40xf32>) {
    ^bb0(%in: bf16, %out: f32):
      %4564 = arith.extf %in : bf16 to f32
      linalg.yield %4564 : f32
    } -> tensor<1x32x40x40xf32>
    %4482 = tensor.empty() : tensor<1x32x40x1xf32>
    %4483 = linalg.generic {indexing_maps = [#map4], iterator_types = ["parallel", "parallel", "parallel", "parallel"]} outs(%4482 : tensor<1x32x40x1xf32>) {
    ^bb0(%out: f32):
      %cst_1454 = arith.constant 0xFF800000 : f32
      linalg.yield %cst_1454 : f32
    } -> tensor<1x32x40x1xf32>
    %4484 = linalg.generic {indexing_maps = [#map4, #map13], iterator_types = ["parallel", "parallel", "parallel", "reduction"]} ins(%4481 : tensor<1x32x40x40xf32>) outs(%4482 : tensor<1x32x40x1xf32>) {
    ^bb0(%in: f32, %out: f32):
      %4564 = arith.maximumf %in, %out : f32
      linalg.yield %4564 : f32
    } -> tensor<1x32x40x1xf32>
    %4485 = tensor.empty() : tensor<1x32x40x40xf32>
    %4486 = linalg.generic {indexing_maps = [#map4, #map13, #map4], iterator_types = ["parallel", "parallel", "parallel", "parallel"]} ins(%4481, %4484 : tensor<1x32x40x40xf32>, tensor<1x32x40x1xf32>) outs(%4485 : tensor<1x32x40x40xf32>) {
    ^bb0(%in: f32, %in_1454: f32, %out: f32):
      %4564 = arith.subf %in, %in_1454 : f32
      %4565 = math.exp %4564 : f32
      linalg.yield %4565 : f32
    } -> tensor<1x32x40x40xf32>
    %4487 = tensor.empty() : tensor<1x32x40x1xf32>
    %4488 = linalg.generic {indexing_maps = [#map4], iterator_types = ["parallel", "parallel", "parallel", "parallel"]} outs(%4487 : tensor<1x32x40x1xf32>) {
    ^bb0(%out: f32):
      %cst_1454 = arith.constant 0.000000e+00 : f32
      linalg.yield %cst_1454 : f32
    } -> tensor<1x32x40x1xf32>
    %4489 = linalg.generic {indexing_maps = [#map4, #map13], iterator_types = ["parallel", "parallel", "parallel", "reduction"]} ins(%4486 : tensor<1x32x40x40xf32>) outs(%4488 : tensor<1x32x40x1xf32>) {
    ^bb0(%in: f32, %out: f32):
      %4564 = arith.addf %in, %out : f32
      linalg.yield %4564 : f32
    } -> tensor<1x32x40x1xf32>
    %4490 = tensor.empty() : tensor<1x32x40x40xf32>
    %4491 = linalg.generic {indexing_maps = [#map4, #map13, #map4], iterator_types = ["parallel", "parallel", "parallel", "parallel"]} ins(%4486, %4489 : tensor<1x32x40x40xf32>, tensor<1x32x40x1xf32>) outs(%4490 : tensor<1x32x40x40xf32>) {
    ^bb0(%in: f32, %in_1454: f32, %out: f32):
      %4564 = arith.divf %in, %in_1454 : f32
      linalg.yield %4564 : f32
    } -> tensor<1x32x40x40xf32>
    %4492 = tensor.empty() : tensor<1x32x40x40xbf16>
    %4493 = linalg.generic {indexing_maps = [#map4, #map4], iterator_types = ["parallel", "parallel", "parallel", "parallel"]} ins(%4491 : tensor<1x32x40x40xf32>) outs(%4492 : tensor<1x32x40x40xbf16>) {
    ^bb0(%in: f32, %out: bf16):
      %4564 = arith.truncf %in : f32 to bf16
      linalg.yield %4564 : bf16
    } -> tensor<1x32x40x40xbf16>
    %4494 = "tosa.const"() <{value = dense<0.000000e+00> : tensor<1x32x40x40xbf16>}> : () -> tensor<1x32x40x40xbf16>
    %4495 = tosa.add %4493, %4494 : (tensor<1x32x40x40xbf16>, tensor<1x32x40x40xbf16>) -> tensor<1x32x40x40xbf16>
    %4496 = tosa.reshape %4495 {new_shape = array<i64: 32, 40, 40>} : (tensor<1x32x40x40xbf16>) -> tensor<32x40x40xbf16>
    %4497 = "tosa.const"() <{value = dense<0.000000e+00> : tensor<1x32x40x128xbf16>}> : () -> tensor<1x32x40x128xbf16>
    %4498 = tosa.add %4439, %4497 : (tensor<1x32x40x128xbf16>, tensor<1x32x40x128xbf16>) -> tensor<1x32x40x128xbf16>
    %4499 = tosa.reshape %4498 {new_shape = array<i64: 32, 40, 128>} : (tensor<1x32x40x128xbf16>) -> tensor<32x40x128xbf16>
    %4500 = tosa.matmul %4496, %4499 : (tensor<32x40x40xbf16>, tensor<32x40x128xbf16>) -> tensor<32x40x128xbf16>
    %4501 = tosa.reshape %4500 {new_shape = array<i64: 1, 32, 40, 128>} : (tensor<32x40x128xbf16>) -> tensor<1x32x40x128xbf16>
    %4502 = tensor.empty() : tensor<1x40x32x128xbf16>
    %4503 = linalg.generic {indexing_maps = [#map9, #map4], iterator_types = ["parallel", "parallel", "parallel", "parallel"]} ins(%4501 : tensor<1x32x40x128xbf16>) outs(%4502 : tensor<1x40x32x128xbf16>) {
    ^bb0(%in: bf16, %out: bf16):
      linalg.yield %in : bf16
    } -> tensor<1x40x32x128xbf16>
    %4504 = tosa.identity %4503 : (tensor<1x40x32x128xbf16>) -> tensor<1x40x32x128xbf16>
    %4505 = tosa.reshape %4504 {new_shape = array<i64: 1, 40, 4096>} : (tensor<1x40x32x128xbf16>) -> tensor<1x40x4096xbf16>
    %4506 = tensor.empty() : tensor<4096x4096xbf16>
    %4507 = linalg.generic {indexing_maps = [#map3, #map8], iterator_types = ["parallel", "parallel"]} ins(%expanded_506 : tensor<4096x4096xbf16>) outs(%4506 : tensor<4096x4096xbf16>) {
    ^bb0(%in: bf16, %out: bf16):
      linalg.yield %in : bf16
    } -> tensor<4096x4096xbf16>
    %4508 = tosa.reshape %4505 {new_shape = array<i64: 40, 4096>} : (tensor<1x40x4096xbf16>) -> tensor<40x4096xbf16>
    %cst_1445 = arith.constant dense<0.000000e+00> : tensor<40x4096xbf16>
    %4509 = linalg.matmul {cast = #linalg.type_fn<cast_signed>} ins(%4508, %4507 : tensor<40x4096xbf16>, tensor<4096x4096xbf16>) outs(%cst_1445 : tensor<40x4096xbf16>) -> tensor<40x4096xbf16>
    %4510 = tosa.reshape %4509 {new_shape = array<i64: 1, 40, 4096>} : (tensor<40x4096xbf16>) -> tensor<1x40x4096xbf16>
    %4511 = tosa.add %4402, %4510 : (tensor<1x40x4096xbf16>, tensor<1x40x4096xbf16>) -> tensor<1x40x4096xbf16>
    %4512 = tensor.empty() : tensor<1x40x4096xf32>
    %4513 = linalg.generic {indexing_maps = [#map5, #map5], iterator_types = ["parallel", "parallel", "parallel"]} ins(%4511 : tensor<1x40x4096xbf16>) outs(%4512 : tensor<1x40x4096xf32>) {
    ^bb0(%in: bf16, %out: f32):
      %4564 = arith.extf %in : bf16 to f32
      linalg.yield %4564 : f32
    } -> tensor<1x40x4096xf32>
    %4514 = tensor.empty() : tensor<1x40x4096xf32>
    %c2_i32_1446 = arith.constant 2 : i32
    %4515 = linalg.generic {indexing_maps = [#map5, #map5], iterator_types = ["parallel", "parallel", "parallel"]} ins(%4513 : tensor<1x40x4096xf32>) outs(%4514 : tensor<1x40x4096xf32>) {
    ^bb0(%in: f32, %out: f32):
      %4564 = math.fpowi %in, %c2_i32_1446 : f32, i32
      linalg.yield %4564 : f32
    } -> tensor<1x40x4096xf32>
    %cst_1447 = arith.constant dense<0.000000e+00> : tensor<1x40x1xf32>
    %4516 = linalg.generic {indexing_maps = [#map6, #map7], iterator_types = ["parallel", "parallel", "reduction", "parallel"]} ins(%4515 : tensor<1x40x4096xf32>) outs(%cst_1447 : tensor<1x40x1xf32>) {
    ^bb0(%in: f32, %out: f32):
      %cst_1454 = arith.constant 4.096000e+03 : f32
      %4564 = arith.divf %in, %cst_1454 : f32
      %4565 = arith.addf %4564, %out : f32
      linalg.yield %4565 : f32
    } -> tensor<1x40x1xf32>
    %4517 = "tosa.const"() <{value = dense<9.99999974E-6> : tensor<1x40x1xf32>}> : () -> tensor<1x40x1xf32>
    %4518 = tosa.add %4516, %4517 : (tensor<1x40x1xf32>, tensor<1x40x1xf32>) -> tensor<1x40x1xf32>
    %4519 = tosa.rsqrt %4518 : (tensor<1x40x1xf32>) -> tensor<1x40x1xf32>
    %4520 = tosa.mul %4513, %4519 {shift = 0 : i8} : (tensor<1x40x4096xf32>, tensor<1x40x1xf32>) -> tensor<1x40x4096xf32>
    %4521 = tensor.empty() : tensor<1x40x4096xbf16>
    %4522 = linalg.generic {indexing_maps = [#map5, #map5], iterator_types = ["parallel", "parallel", "parallel"]} ins(%4520 : tensor<1x40x4096xf32>) outs(%4521 : tensor<1x40x4096xbf16>) {
    ^bb0(%in: f32, %out: bf16):
      %4564 = arith.truncf %in : f32 to bf16
      linalg.yield %4564 : bf16
    } -> tensor<1x40x4096xbf16>
    %4523 = tosa.reshape %extracted_slice_62 {new_shape = array<i64: 1, 1, 4096>} : (tensor<4096xbf16>) -> tensor<1x1x4096xbf16>
    %4524 = tosa.mul %4523, %4522 {shift = 0 : i8} : (tensor<1x1x4096xbf16>, tensor<1x40x4096xbf16>) -> tensor<1x40x4096xbf16>
    %4525 = tensor.empty() : tensor<4096x11008xbf16>
    %4526 = linalg.generic {indexing_maps = [#map3, #map8], iterator_types = ["parallel", "parallel"]} ins(%expanded_508 : tensor<11008x4096xbf16>) outs(%4525 : tensor<4096x11008xbf16>) {
    ^bb0(%in: bf16, %out: bf16):
      linalg.yield %in : bf16
    } -> tensor<4096x11008xbf16>
    %4527 = tosa.reshape %4524 {new_shape = array<i64: 40, 4096>} : (tensor<1x40x4096xbf16>) -> tensor<40x4096xbf16>
    %cst_1448 = arith.constant dense<0.000000e+00> : tensor<40x11008xbf16>
    %4528 = linalg.matmul {cast = #linalg.type_fn<cast_signed>} ins(%4527, %4526 : tensor<40x4096xbf16>, tensor<4096x11008xbf16>) outs(%cst_1448 : tensor<40x11008xbf16>) -> tensor<40x11008xbf16>
    %4529 = tosa.reshape %4528 {new_shape = array<i64: 1, 40, 11008>} : (tensor<40x11008xbf16>) -> tensor<1x40x11008xbf16>
    %4530 = tensor.empty() : tensor<1x40x11008xbf16>
    %4531 = linalg.generic {indexing_maps = [#map5, #map5], iterator_types = ["parallel", "parallel", "parallel"]} ins(%4529 : tensor<1x40x11008xbf16>) outs(%4530 : tensor<1x40x11008xbf16>) {
    ^bb0(%in: bf16, %out: bf16):
      %4564 = arith.negf %in : bf16
      %4565 = math.exp %4564 : bf16
      %cst_1454 = arith.constant 1.000000e+00 : bf16
      %4566 = arith.addf %cst_1454, %4565 : bf16
      %4567 = arith.divf %in, %4566 : bf16
      linalg.yield %4567 : bf16
    } -> tensor<1x40x11008xbf16>
    %4532 = tensor.empty() : tensor<4096x11008xbf16>
    %4533 = linalg.generic {indexing_maps = [#map3, #map8], iterator_types = ["parallel", "parallel"]} ins(%expanded_510 : tensor<11008x4096xbf16>) outs(%4532 : tensor<4096x11008xbf16>) {
    ^bb0(%in: bf16, %out: bf16):
      linalg.yield %in : bf16
    } -> tensor<4096x11008xbf16>
    %4534 = tosa.reshape %4524 {new_shape = array<i64: 40, 4096>} : (tensor<1x40x4096xbf16>) -> tensor<40x4096xbf16>
    %cst_1449 = arith.constant dense<0.000000e+00> : tensor<40x11008xbf16>
    %4535 = linalg.matmul {cast = #linalg.type_fn<cast_signed>} ins(%4534, %4533 : tensor<40x4096xbf16>, tensor<4096x11008xbf16>) outs(%cst_1449 : tensor<40x11008xbf16>) -> tensor<40x11008xbf16>
    %4536 = tosa.reshape %4535 {new_shape = array<i64: 1, 40, 11008>} : (tensor<40x11008xbf16>) -> tensor<1x40x11008xbf16>
    %4537 = tosa.mul %4531, %4536 {shift = 0 : i8} : (tensor<1x40x11008xbf16>, tensor<1x40x11008xbf16>) -> tensor<1x40x11008xbf16>
    %4538 = tensor.empty() : tensor<11008x4096xbf16>
    %4539 = linalg.generic {indexing_maps = [#map3, #map8], iterator_types = ["parallel", "parallel"]} ins(%expanded_512 : tensor<4096x11008xbf16>) outs(%4538 : tensor<11008x4096xbf16>) {
    ^bb0(%in: bf16, %out: bf16):
      linalg.yield %in : bf16
    } -> tensor<11008x4096xbf16>
    %4540 = tosa.reshape %4537 {new_shape = array<i64: 40, 11008>} : (tensor<1x40x11008xbf16>) -> tensor<40x11008xbf16>
    %cst_1450 = arith.constant dense<0.000000e+00> : tensor<40x4096xbf16>
    %4541 = linalg.matmul {cast = #linalg.type_fn<cast_signed>} ins(%4540, %4539 : tensor<40x11008xbf16>, tensor<11008x4096xbf16>) outs(%cst_1450 : tensor<40x4096xbf16>) -> tensor<40x4096xbf16>
    %4542 = tosa.reshape %4541 {new_shape = array<i64: 1, 40, 4096>} : (tensor<40x4096xbf16>) -> tensor<1x40x4096xbf16>
    %4543 = tosa.add %4511, %4542 : (tensor<1x40x4096xbf16>, tensor<1x40x4096xbf16>) -> tensor<1x40x4096xbf16>
    %4544 = tensor.empty() : tensor<1x40x4096xf32>
    %4545 = linalg.generic {indexing_maps = [#map5, #map5], iterator_types = ["parallel", "parallel", "parallel"]} ins(%4543 : tensor<1x40x4096xbf16>) outs(%4544 : tensor<1x40x4096xf32>) {
    ^bb0(%in: bf16, %out: f32):
      %4564 = arith.extf %in : bf16 to f32
      linalg.yield %4564 : f32
    } -> tensor<1x40x4096xf32>
    %4546 = tensor.empty() : tensor<1x40x4096xf32>
    %c2_i32_1451 = arith.constant 2 : i32
    %4547 = linalg.generic {indexing_maps = [#map5, #map5], iterator_types = ["parallel", "parallel", "parallel"]} ins(%4545 : tensor<1x40x4096xf32>) outs(%4546 : tensor<1x40x4096xf32>) {
    ^bb0(%in: f32, %out: f32):
      %4564 = math.fpowi %in, %c2_i32_1451 : f32, i32
      linalg.yield %4564 : f32
    } -> tensor<1x40x4096xf32>
    %cst_1452 = arith.constant dense<0.000000e+00> : tensor<1x40x1xf32>
    %4548 = linalg.generic {indexing_maps = [#map6, #map7], iterator_types = ["parallel", "parallel", "reduction", "parallel"]} ins(%4547 : tensor<1x40x4096xf32>) outs(%cst_1452 : tensor<1x40x1xf32>) {
    ^bb0(%in: f32, %out: f32):
      %cst_1454 = arith.constant 4.096000e+03 : f32
      %4564 = arith.divf %in, %cst_1454 : f32
      %4565 = arith.addf %4564, %out : f32
      linalg.yield %4565 : f32
    } -> tensor<1x40x1xf32>
    %4549 = "tosa.const"() <{value = dense<9.99999974E-6> : tensor<1x40x1xf32>}> : () -> tensor<1x40x1xf32>
    %4550 = tosa.add %4548, %4549 : (tensor<1x40x1xf32>, tensor<1x40x1xf32>) -> tensor<1x40x1xf32>
    %4551 = tosa.rsqrt %4550 : (tensor<1x40x1xf32>) -> tensor<1x40x1xf32>
    %4552 = tosa.mul %4545, %4551 {shift = 0 : i8} : (tensor<1x40x4096xf32>, tensor<1x40x1xf32>) -> tensor<1x40x4096xf32>
    %4553 = tensor.empty() : tensor<1x40x4096xbf16>
    %4554 = linalg.generic {indexing_maps = [#map5, #map5], iterator_types = ["parallel", "parallel", "parallel"]} ins(%4552 : tensor<1x40x4096xf32>) outs(%4553 : tensor<1x40x4096xbf16>) {
    ^bb0(%in: f32, %out: bf16):
      %4564 = arith.truncf %in : f32 to bf16
      linalg.yield %4564 : bf16
    } -> tensor<1x40x4096xbf16>
    %4555 = tosa.reshape %extracted_slice_63 {new_shape = array<i64: 1, 1, 4096>} : (tensor<4096xbf16>) -> tensor<1x1x4096xbf16>
    %4556 = tosa.mul %4555, %4554 {shift = 0 : i8} : (tensor<1x1x4096xbf16>, tensor<1x40x4096xbf16>) -> tensor<1x40x4096xbf16>
    %4557 = tensor.empty() : tensor<4096x32000xbf16>
    %4558 = linalg.generic {indexing_maps = [#map3, #map8], iterator_types = ["parallel", "parallel"]} ins(%expanded_514 : tensor<32000x4096xbf16>) outs(%4557 : tensor<4096x32000xbf16>) {
    ^bb0(%in: bf16, %out: bf16):
      linalg.yield %in : bf16
    } -> tensor<4096x32000xbf16>
    %4559 = tosa.reshape %4556 {new_shape = array<i64: 40, 4096>} : (tensor<1x40x4096xbf16>) -> tensor<40x4096xbf16>
    %cst_1453 = arith.constant dense<0.000000e+00> : tensor<40x32000xbf16>
    %4560 = linalg.matmul {cast = #linalg.type_fn<cast_signed>} ins(%4559, %4558 : tensor<40x4096xbf16>, tensor<4096x32000xbf16>) outs(%cst_1453 : tensor<40x32000xbf16>) -> tensor<40x32000xbf16>
    %4561 = tosa.reshape %4560 {new_shape = array<i64: 1, 40, 32000>} : (tensor<40x32000xbf16>) -> tensor<1x40x32000xbf16>
    %4562 = tensor.empty() : tensor<1x40x32000xf32>
    %4563 = linalg.generic {indexing_maps = [#map5, #map5], iterator_types = ["parallel", "parallel", "parallel"]} ins(%4561 : tensor<1x40x32000xbf16>) outs(%4562 : tensor<1x40x32000xf32>) {
    ^bb0(%in: bf16, %out: f32):
      %4564 = arith.extf %in : bf16 to f32
      linalg.yield %4564 : f32
    } -> tensor<1x40x32000xf32>
    return %4563, %4556 : tensor<1x40x32000xf32>, tensor<1x40x4096xbf16>
  }
}

