#map = affine_map<(d0, d1) -> (d0, d1)>
#map1 = affine_map<(d0, d1, d2) -> (d0, d1)>
#map2 = affine_map<(d0, d1, d2) -> (d0, d1, d2)>
#map3 = affine_map<(d0) -> (d0)>
#map4 = affine_map<(d0, d1, d2) -> (d1)>
#map5 = affine_map<(d0, d1, d2) -> (d0, d2)>
#map6 = affine_map<(d0, d1, d2, d3) -> (d0, d1, d3)>
#map7 = affine_map<(d0, d1, d2, d3) -> (d0, d1, d2, d3)>
#map8 = affine_map<(d0, d1, d2, d3) -> (d0, d1, d2)>
#map9 = affine_map<(d0, d1) -> (d1, d0)>
#map10 = affine_map<(d0, d1, d2, d3) -> (d0, d2, d1, d3)>
#map11 = affine_map<(d0, d1, d2) -> (d0, 0, d1, d2)>
#map12 = affine_map<(d0, d1) -> (0, d0, d1)>
#map13 = affine_map<(d0, d1, d2, d3) -> (d0, d2, d3)>
#map14 = affine_map<(d0, d1, d2, d3) -> (d0, d1, d3, d2)>
#map15 = affine_map<(d0, d1, d2, d3) -> (d0, d1, d2, 0)>
module {
  func.func @forward(%arg0: tensor<6755192832xf32> {bufferization.writable = false}, %arg1: tensor<1x80xi64>) -> tensor<1x80x32000xf32> {
    %extracted_slice = tensor.extract_slice %arg0[0] [4096] [1] : tensor<6755192832xf32> to tensor<4096xf32>
    %extracted_slice_0 = tensor.extract_slice %arg0[4096] [4096] [1] : tensor<6755192832xf32> to tensor<4096xf32>
    %extracted_slice_1 = tensor.extract_slice %arg0[8192] [4096] [1] : tensor<6755192832xf32> to tensor<4096xf32>
    %extracted_slice_2 = tensor.extract_slice %arg0[12288] [4096] [1] : tensor<6755192832xf32> to tensor<4096xf32>
    %extracted_slice_3 = tensor.extract_slice %arg0[16384] [4096] [1] : tensor<6755192832xf32> to tensor<4096xf32>
    %extracted_slice_4 = tensor.extract_slice %arg0[20480] [4096] [1] : tensor<6755192832xf32> to tensor<4096xf32>
    %extracted_slice_5 = tensor.extract_slice %arg0[24576] [4096] [1] : tensor<6755192832xf32> to tensor<4096xf32>
    %extracted_slice_6 = tensor.extract_slice %arg0[28672] [4096] [1] : tensor<6755192832xf32> to tensor<4096xf32>
    %extracted_slice_7 = tensor.extract_slice %arg0[32768] [4096] [1] : tensor<6755192832xf32> to tensor<4096xf32>
    %extracted_slice_8 = tensor.extract_slice %arg0[36864] [4096] [1] : tensor<6755192832xf32> to tensor<4096xf32>
    %extracted_slice_9 = tensor.extract_slice %arg0[40960] [4096] [1] : tensor<6755192832xf32> to tensor<4096xf32>
    %extracted_slice_10 = tensor.extract_slice %arg0[45056] [4096] [1] : tensor<6755192832xf32> to tensor<4096xf32>
    %extracted_slice_11 = tensor.extract_slice %arg0[49152] [4096] [1] : tensor<6755192832xf32> to tensor<4096xf32>
    %extracted_slice_12 = tensor.extract_slice %arg0[53248] [4096] [1] : tensor<6755192832xf32> to tensor<4096xf32>
    %extracted_slice_13 = tensor.extract_slice %arg0[57344] [4096] [1] : tensor<6755192832xf32> to tensor<4096xf32>
    %extracted_slice_14 = tensor.extract_slice %arg0[61440] [4096] [1] : tensor<6755192832xf32> to tensor<4096xf32>
    %extracted_slice_15 = tensor.extract_slice %arg0[65536] [4096] [1] : tensor<6755192832xf32> to tensor<4096xf32>
    %extracted_slice_16 = tensor.extract_slice %arg0[69632] [4096] [1] : tensor<6755192832xf32> to tensor<4096xf32>
    %extracted_slice_17 = tensor.extract_slice %arg0[73728] [4096] [1] : tensor<6755192832xf32> to tensor<4096xf32>
    %extracted_slice_18 = tensor.extract_slice %arg0[77824] [4096] [1] : tensor<6755192832xf32> to tensor<4096xf32>
    %extracted_slice_19 = tensor.extract_slice %arg0[81920] [4096] [1] : tensor<6755192832xf32> to tensor<4096xf32>
    %extracted_slice_20 = tensor.extract_slice %arg0[86016] [4096] [1] : tensor<6755192832xf32> to tensor<4096xf32>
    %extracted_slice_21 = tensor.extract_slice %arg0[90112] [4096] [1] : tensor<6755192832xf32> to tensor<4096xf32>
    %extracted_slice_22 = tensor.extract_slice %arg0[94208] [4096] [1] : tensor<6755192832xf32> to tensor<4096xf32>
    %extracted_slice_23 = tensor.extract_slice %arg0[98304] [4096] [1] : tensor<6755192832xf32> to tensor<4096xf32>
    %extracted_slice_24 = tensor.extract_slice %arg0[102400] [4096] [1] : tensor<6755192832xf32> to tensor<4096xf32>
    %extracted_slice_25 = tensor.extract_slice %arg0[106496] [4096] [1] : tensor<6755192832xf32> to tensor<4096xf32>
    %extracted_slice_26 = tensor.extract_slice %arg0[110592] [4096] [1] : tensor<6755192832xf32> to tensor<4096xf32>
    %extracted_slice_27 = tensor.extract_slice %arg0[114688] [4096] [1] : tensor<6755192832xf32> to tensor<4096xf32>
    %extracted_slice_28 = tensor.extract_slice %arg0[118784] [4096] [1] : tensor<6755192832xf32> to tensor<4096xf32>
    %extracted_slice_29 = tensor.extract_slice %arg0[122880] [4096] [1] : tensor<6755192832xf32> to tensor<4096xf32>
    %extracted_slice_30 = tensor.extract_slice %arg0[126976] [4096] [1] : tensor<6755192832xf32> to tensor<4096xf32>
    %extracted_slice_31 = tensor.extract_slice %arg0[131072] [4096] [1] : tensor<6755192832xf32> to tensor<4096xf32>
    %extracted_slice_32 = tensor.extract_slice %arg0[135168] [4096] [1] : tensor<6755192832xf32> to tensor<4096xf32>
    %extracted_slice_33 = tensor.extract_slice %arg0[139264] [4096] [1] : tensor<6755192832xf32> to tensor<4096xf32>
    %extracted_slice_34 = tensor.extract_slice %arg0[143360] [4096] [1] : tensor<6755192832xf32> to tensor<4096xf32>
    %extracted_slice_35 = tensor.extract_slice %arg0[147456] [4096] [1] : tensor<6755192832xf32> to tensor<4096xf32>
    %extracted_slice_36 = tensor.extract_slice %arg0[151552] [4096] [1] : tensor<6755192832xf32> to tensor<4096xf32>
    %extracted_slice_37 = tensor.extract_slice %arg0[155648] [4096] [1] : tensor<6755192832xf32> to tensor<4096xf32>
    %extracted_slice_38 = tensor.extract_slice %arg0[159744] [4096] [1] : tensor<6755192832xf32> to tensor<4096xf32>
    %extracted_slice_39 = tensor.extract_slice %arg0[163840] [4096] [1] : tensor<6755192832xf32> to tensor<4096xf32>
    %extracted_slice_40 = tensor.extract_slice %arg0[167936] [4096] [1] : tensor<6755192832xf32> to tensor<4096xf32>
    %extracted_slice_41 = tensor.extract_slice %arg0[172032] [4096] [1] : tensor<6755192832xf32> to tensor<4096xf32>
    %extracted_slice_42 = tensor.extract_slice %arg0[176128] [4096] [1] : tensor<6755192832xf32> to tensor<4096xf32>
    %extracted_slice_43 = tensor.extract_slice %arg0[180224] [4096] [1] : tensor<6755192832xf32> to tensor<4096xf32>
    %extracted_slice_44 = tensor.extract_slice %arg0[184320] [4096] [1] : tensor<6755192832xf32> to tensor<4096xf32>
    %extracted_slice_45 = tensor.extract_slice %arg0[188416] [4096] [1] : tensor<6755192832xf32> to tensor<4096xf32>
    %extracted_slice_46 = tensor.extract_slice %arg0[192512] [4096] [1] : tensor<6755192832xf32> to tensor<4096xf32>
    %extracted_slice_47 = tensor.extract_slice %arg0[196608] [4096] [1] : tensor<6755192832xf32> to tensor<4096xf32>
    %extracted_slice_48 = tensor.extract_slice %arg0[200704] [4096] [1] : tensor<6755192832xf32> to tensor<4096xf32>
    %extracted_slice_49 = tensor.extract_slice %arg0[204800] [4096] [1] : tensor<6755192832xf32> to tensor<4096xf32>
    %extracted_slice_50 = tensor.extract_slice %arg0[208896] [4096] [1] : tensor<6755192832xf32> to tensor<4096xf32>
    %extracted_slice_51 = tensor.extract_slice %arg0[212992] [4096] [1] : tensor<6755192832xf32> to tensor<4096xf32>
    %extracted_slice_52 = tensor.extract_slice %arg0[217088] [4096] [1] : tensor<6755192832xf32> to tensor<4096xf32>
    %extracted_slice_53 = tensor.extract_slice %arg0[221184] [4096] [1] : tensor<6755192832xf32> to tensor<4096xf32>
    %extracted_slice_54 = tensor.extract_slice %arg0[225280] [4096] [1] : tensor<6755192832xf32> to tensor<4096xf32>
    %extracted_slice_55 = tensor.extract_slice %arg0[229376] [4096] [1] : tensor<6755192832xf32> to tensor<4096xf32>
    %extracted_slice_56 = tensor.extract_slice %arg0[233472] [4096] [1] : tensor<6755192832xf32> to tensor<4096xf32>
    %extracted_slice_57 = tensor.extract_slice %arg0[237568] [4096] [1] : tensor<6755192832xf32> to tensor<4096xf32>
    %extracted_slice_58 = tensor.extract_slice %arg0[241664] [4096] [1] : tensor<6755192832xf32> to tensor<4096xf32>
    %extracted_slice_59 = tensor.extract_slice %arg0[245760] [4096] [1] : tensor<6755192832xf32> to tensor<4096xf32>
    %extracted_slice_60 = tensor.extract_slice %arg0[249856] [4096] [1] : tensor<6755192832xf32> to tensor<4096xf32>
    %extracted_slice_61 = tensor.extract_slice %arg0[253952] [4096] [1] : tensor<6755192832xf32> to tensor<4096xf32>
    %extracted_slice_62 = tensor.extract_slice %arg0[258048] [4096] [1] : tensor<6755192832xf32> to tensor<4096xf32>
    %extracted_slice_63 = tensor.extract_slice %arg0[262144] [4096] [1] : tensor<6755192832xf32> to tensor<4096xf32>
    %extracted_slice_64 = tensor.extract_slice %arg0[266240] [131072000] [1] : tensor<6755192832xf32> to tensor<131072000xf32>
    %expanded = tensor.expand_shape %extracted_slice_64 [[0, 1]] : tensor<131072000xf32> into tensor<32000x4096xf32>
    %extracted_slice_65 = tensor.extract_slice %arg0[131338240] [16777216] [1] : tensor<6755192832xf32> to tensor<16777216xf32>
    %expanded_66 = tensor.expand_shape %extracted_slice_65 [[0, 1]] : tensor<16777216xf32> into tensor<4096x4096xf32>
    %extracted_slice_67 = tensor.extract_slice %arg0[148115456] [16777216] [1] : tensor<6755192832xf32> to tensor<16777216xf32>
    %expanded_68 = tensor.expand_shape %extracted_slice_67 [[0, 1]] : tensor<16777216xf32> into tensor<4096x4096xf32>
    %extracted_slice_69 = tensor.extract_slice %arg0[164892672] [16777216] [1] : tensor<6755192832xf32> to tensor<16777216xf32>
    %expanded_70 = tensor.expand_shape %extracted_slice_69 [[0, 1]] : tensor<16777216xf32> into tensor<4096x4096xf32>
    %extracted_slice_71 = tensor.extract_slice %arg0[181669888] [16777216] [1] : tensor<6755192832xf32> to tensor<16777216xf32>
    %expanded_72 = tensor.expand_shape %extracted_slice_71 [[0, 1]] : tensor<16777216xf32> into tensor<4096x4096xf32>
    %extracted_slice_73 = tensor.extract_slice %arg0[198447104] [45088768] [1] : tensor<6755192832xf32> to tensor<45088768xf32>
    %expanded_74 = tensor.expand_shape %extracted_slice_73 [[0, 1]] : tensor<45088768xf32> into tensor<11008x4096xf32>
    %extracted_slice_75 = tensor.extract_slice %arg0[243535872] [45088768] [1] : tensor<6755192832xf32> to tensor<45088768xf32>
    %expanded_76 = tensor.expand_shape %extracted_slice_75 [[0, 1]] : tensor<45088768xf32> into tensor<11008x4096xf32>
    %extracted_slice_77 = tensor.extract_slice %arg0[288624640] [45088768] [1] : tensor<6755192832xf32> to tensor<45088768xf32>
    %expanded_78 = tensor.expand_shape %extracted_slice_77 [[0, 1]] : tensor<45088768xf32> into tensor<4096x11008xf32>
    %extracted_slice_79 = tensor.extract_slice %arg0[333713408] [16777216] [1] : tensor<6755192832xf32> to tensor<16777216xf32>
    %expanded_80 = tensor.expand_shape %extracted_slice_79 [[0, 1]] : tensor<16777216xf32> into tensor<4096x4096xf32>
    %extracted_slice_81 = tensor.extract_slice %arg0[350490624] [16777216] [1] : tensor<6755192832xf32> to tensor<16777216xf32>
    %expanded_82 = tensor.expand_shape %extracted_slice_81 [[0, 1]] : tensor<16777216xf32> into tensor<4096x4096xf32>
    %extracted_slice_83 = tensor.extract_slice %arg0[367267840] [16777216] [1] : tensor<6755192832xf32> to tensor<16777216xf32>
    %expanded_84 = tensor.expand_shape %extracted_slice_83 [[0, 1]] : tensor<16777216xf32> into tensor<4096x4096xf32>
    %extracted_slice_85 = tensor.extract_slice %arg0[384045056] [16777216] [1] : tensor<6755192832xf32> to tensor<16777216xf32>
    %expanded_86 = tensor.expand_shape %extracted_slice_85 [[0, 1]] : tensor<16777216xf32> into tensor<4096x4096xf32>
    %extracted_slice_87 = tensor.extract_slice %arg0[400822272] [45088768] [1] : tensor<6755192832xf32> to tensor<45088768xf32>
    %expanded_88 = tensor.expand_shape %extracted_slice_87 [[0, 1]] : tensor<45088768xf32> into tensor<11008x4096xf32>
    %extracted_slice_89 = tensor.extract_slice %arg0[445911040] [45088768] [1] : tensor<6755192832xf32> to tensor<45088768xf32>
    %expanded_90 = tensor.expand_shape %extracted_slice_89 [[0, 1]] : tensor<45088768xf32> into tensor<11008x4096xf32>
    %extracted_slice_91 = tensor.extract_slice %arg0[490999808] [45088768] [1] : tensor<6755192832xf32> to tensor<45088768xf32>
    %expanded_92 = tensor.expand_shape %extracted_slice_91 [[0, 1]] : tensor<45088768xf32> into tensor<4096x11008xf32>
    %extracted_slice_93 = tensor.extract_slice %arg0[536088576] [16777216] [1] : tensor<6755192832xf32> to tensor<16777216xf32>
    %expanded_94 = tensor.expand_shape %extracted_slice_93 [[0, 1]] : tensor<16777216xf32> into tensor<4096x4096xf32>
    %extracted_slice_95 = tensor.extract_slice %arg0[552865792] [16777216] [1] : tensor<6755192832xf32> to tensor<16777216xf32>
    %expanded_96 = tensor.expand_shape %extracted_slice_95 [[0, 1]] : tensor<16777216xf32> into tensor<4096x4096xf32>
    %extracted_slice_97 = tensor.extract_slice %arg0[569643008] [16777216] [1] : tensor<6755192832xf32> to tensor<16777216xf32>
    %expanded_98 = tensor.expand_shape %extracted_slice_97 [[0, 1]] : tensor<16777216xf32> into tensor<4096x4096xf32>
    %extracted_slice_99 = tensor.extract_slice %arg0[586420224] [16777216] [1] : tensor<6755192832xf32> to tensor<16777216xf32>
    %expanded_100 = tensor.expand_shape %extracted_slice_99 [[0, 1]] : tensor<16777216xf32> into tensor<4096x4096xf32>
    %extracted_slice_101 = tensor.extract_slice %arg0[603197440] [45088768] [1] : tensor<6755192832xf32> to tensor<45088768xf32>
    %expanded_102 = tensor.expand_shape %extracted_slice_101 [[0, 1]] : tensor<45088768xf32> into tensor<11008x4096xf32>
    %extracted_slice_103 = tensor.extract_slice %arg0[648286208] [45088768] [1] : tensor<6755192832xf32> to tensor<45088768xf32>
    %expanded_104 = tensor.expand_shape %extracted_slice_103 [[0, 1]] : tensor<45088768xf32> into tensor<11008x4096xf32>
    %extracted_slice_105 = tensor.extract_slice %arg0[693374976] [45088768] [1] : tensor<6755192832xf32> to tensor<45088768xf32>
    %expanded_106 = tensor.expand_shape %extracted_slice_105 [[0, 1]] : tensor<45088768xf32> into tensor<4096x11008xf32>
    %extracted_slice_107 = tensor.extract_slice %arg0[738463744] [16777216] [1] : tensor<6755192832xf32> to tensor<16777216xf32>
    %expanded_108 = tensor.expand_shape %extracted_slice_107 [[0, 1]] : tensor<16777216xf32> into tensor<4096x4096xf32>
    %extracted_slice_109 = tensor.extract_slice %arg0[755240960] [16777216] [1] : tensor<6755192832xf32> to tensor<16777216xf32>
    %expanded_110 = tensor.expand_shape %extracted_slice_109 [[0, 1]] : tensor<16777216xf32> into tensor<4096x4096xf32>
    %extracted_slice_111 = tensor.extract_slice %arg0[772018176] [16777216] [1] : tensor<6755192832xf32> to tensor<16777216xf32>
    %expanded_112 = tensor.expand_shape %extracted_slice_111 [[0, 1]] : tensor<16777216xf32> into tensor<4096x4096xf32>
    %extracted_slice_113 = tensor.extract_slice %arg0[788795392] [16777216] [1] : tensor<6755192832xf32> to tensor<16777216xf32>
    %expanded_114 = tensor.expand_shape %extracted_slice_113 [[0, 1]] : tensor<16777216xf32> into tensor<4096x4096xf32>
    %extracted_slice_115 = tensor.extract_slice %arg0[805572608] [45088768] [1] : tensor<6755192832xf32> to tensor<45088768xf32>
    %expanded_116 = tensor.expand_shape %extracted_slice_115 [[0, 1]] : tensor<45088768xf32> into tensor<11008x4096xf32>
    %extracted_slice_117 = tensor.extract_slice %arg0[850661376] [45088768] [1] : tensor<6755192832xf32> to tensor<45088768xf32>
    %expanded_118 = tensor.expand_shape %extracted_slice_117 [[0, 1]] : tensor<45088768xf32> into tensor<11008x4096xf32>
    %extracted_slice_119 = tensor.extract_slice %arg0[895750144] [45088768] [1] : tensor<6755192832xf32> to tensor<45088768xf32>
    %expanded_120 = tensor.expand_shape %extracted_slice_119 [[0, 1]] : tensor<45088768xf32> into tensor<4096x11008xf32>
    %extracted_slice_121 = tensor.extract_slice %arg0[940838912] [16777216] [1] : tensor<6755192832xf32> to tensor<16777216xf32>
    %expanded_122 = tensor.expand_shape %extracted_slice_121 [[0, 1]] : tensor<16777216xf32> into tensor<4096x4096xf32>
    %extracted_slice_123 = tensor.extract_slice %arg0[957616128] [16777216] [1] : tensor<6755192832xf32> to tensor<16777216xf32>
    %expanded_124 = tensor.expand_shape %extracted_slice_123 [[0, 1]] : tensor<16777216xf32> into tensor<4096x4096xf32>
    %extracted_slice_125 = tensor.extract_slice %arg0[974393344] [16777216] [1] : tensor<6755192832xf32> to tensor<16777216xf32>
    %expanded_126 = tensor.expand_shape %extracted_slice_125 [[0, 1]] : tensor<16777216xf32> into tensor<4096x4096xf32>
    %extracted_slice_127 = tensor.extract_slice %arg0[991170560] [16777216] [1] : tensor<6755192832xf32> to tensor<16777216xf32>
    %expanded_128 = tensor.expand_shape %extracted_slice_127 [[0, 1]] : tensor<16777216xf32> into tensor<4096x4096xf32>
    %extracted_slice_129 = tensor.extract_slice %arg0[1007947776] [45088768] [1] : tensor<6755192832xf32> to tensor<45088768xf32>
    %expanded_130 = tensor.expand_shape %extracted_slice_129 [[0, 1]] : tensor<45088768xf32> into tensor<11008x4096xf32>
    %extracted_slice_131 = tensor.extract_slice %arg0[1053036544] [45088768] [1] : tensor<6755192832xf32> to tensor<45088768xf32>
    %expanded_132 = tensor.expand_shape %extracted_slice_131 [[0, 1]] : tensor<45088768xf32> into tensor<11008x4096xf32>
    %extracted_slice_133 = tensor.extract_slice %arg0[1098125312] [45088768] [1] : tensor<6755192832xf32> to tensor<45088768xf32>
    %expanded_134 = tensor.expand_shape %extracted_slice_133 [[0, 1]] : tensor<45088768xf32> into tensor<4096x11008xf32>
    %extracted_slice_135 = tensor.extract_slice %arg0[1143214080] [16777216] [1] : tensor<6755192832xf32> to tensor<16777216xf32>
    %expanded_136 = tensor.expand_shape %extracted_slice_135 [[0, 1]] : tensor<16777216xf32> into tensor<4096x4096xf32>
    %extracted_slice_137 = tensor.extract_slice %arg0[1159991296] [16777216] [1] : tensor<6755192832xf32> to tensor<16777216xf32>
    %expanded_138 = tensor.expand_shape %extracted_slice_137 [[0, 1]] : tensor<16777216xf32> into tensor<4096x4096xf32>
    %extracted_slice_139 = tensor.extract_slice %arg0[1176768512] [16777216] [1] : tensor<6755192832xf32> to tensor<16777216xf32>
    %expanded_140 = tensor.expand_shape %extracted_slice_139 [[0, 1]] : tensor<16777216xf32> into tensor<4096x4096xf32>
    %extracted_slice_141 = tensor.extract_slice %arg0[1193545728] [16777216] [1] : tensor<6755192832xf32> to tensor<16777216xf32>
    %expanded_142 = tensor.expand_shape %extracted_slice_141 [[0, 1]] : tensor<16777216xf32> into tensor<4096x4096xf32>
    %extracted_slice_143 = tensor.extract_slice %arg0[1210322944] [45088768] [1] : tensor<6755192832xf32> to tensor<45088768xf32>
    %expanded_144 = tensor.expand_shape %extracted_slice_143 [[0, 1]] : tensor<45088768xf32> into tensor<11008x4096xf32>
    %extracted_slice_145 = tensor.extract_slice %arg0[1255411712] [45088768] [1] : tensor<6755192832xf32> to tensor<45088768xf32>
    %expanded_146 = tensor.expand_shape %extracted_slice_145 [[0, 1]] : tensor<45088768xf32> into tensor<11008x4096xf32>
    %extracted_slice_147 = tensor.extract_slice %arg0[1300500480] [45088768] [1] : tensor<6755192832xf32> to tensor<45088768xf32>
    %expanded_148 = tensor.expand_shape %extracted_slice_147 [[0, 1]] : tensor<45088768xf32> into tensor<4096x11008xf32>
    %extracted_slice_149 = tensor.extract_slice %arg0[1345589248] [16777216] [1] : tensor<6755192832xf32> to tensor<16777216xf32>
    %expanded_150 = tensor.expand_shape %extracted_slice_149 [[0, 1]] : tensor<16777216xf32> into tensor<4096x4096xf32>
    %extracted_slice_151 = tensor.extract_slice %arg0[1362366464] [16777216] [1] : tensor<6755192832xf32> to tensor<16777216xf32>
    %expanded_152 = tensor.expand_shape %extracted_slice_151 [[0, 1]] : tensor<16777216xf32> into tensor<4096x4096xf32>
    %extracted_slice_153 = tensor.extract_slice %arg0[1379143680] [16777216] [1] : tensor<6755192832xf32> to tensor<16777216xf32>
    %expanded_154 = tensor.expand_shape %extracted_slice_153 [[0, 1]] : tensor<16777216xf32> into tensor<4096x4096xf32>
    %extracted_slice_155 = tensor.extract_slice %arg0[1395920896] [16777216] [1] : tensor<6755192832xf32> to tensor<16777216xf32>
    %expanded_156 = tensor.expand_shape %extracted_slice_155 [[0, 1]] : tensor<16777216xf32> into tensor<4096x4096xf32>
    %extracted_slice_157 = tensor.extract_slice %arg0[1412698112] [45088768] [1] : tensor<6755192832xf32> to tensor<45088768xf32>
    %expanded_158 = tensor.expand_shape %extracted_slice_157 [[0, 1]] : tensor<45088768xf32> into tensor<11008x4096xf32>
    %extracted_slice_159 = tensor.extract_slice %arg0[1457786880] [45088768] [1] : tensor<6755192832xf32> to tensor<45088768xf32>
    %expanded_160 = tensor.expand_shape %extracted_slice_159 [[0, 1]] : tensor<45088768xf32> into tensor<11008x4096xf32>
    %extracted_slice_161 = tensor.extract_slice %arg0[1502875648] [45088768] [1] : tensor<6755192832xf32> to tensor<45088768xf32>
    %expanded_162 = tensor.expand_shape %extracted_slice_161 [[0, 1]] : tensor<45088768xf32> into tensor<4096x11008xf32>
    %extracted_slice_163 = tensor.extract_slice %arg0[1547964416] [16777216] [1] : tensor<6755192832xf32> to tensor<16777216xf32>
    %expanded_164 = tensor.expand_shape %extracted_slice_163 [[0, 1]] : tensor<16777216xf32> into tensor<4096x4096xf32>
    %extracted_slice_165 = tensor.extract_slice %arg0[1564741632] [16777216] [1] : tensor<6755192832xf32> to tensor<16777216xf32>
    %expanded_166 = tensor.expand_shape %extracted_slice_165 [[0, 1]] : tensor<16777216xf32> into tensor<4096x4096xf32>
    %extracted_slice_167 = tensor.extract_slice %arg0[1581518848] [16777216] [1] : tensor<6755192832xf32> to tensor<16777216xf32>
    %expanded_168 = tensor.expand_shape %extracted_slice_167 [[0, 1]] : tensor<16777216xf32> into tensor<4096x4096xf32>
    %extracted_slice_169 = tensor.extract_slice %arg0[1598296064] [16777216] [1] : tensor<6755192832xf32> to tensor<16777216xf32>
    %expanded_170 = tensor.expand_shape %extracted_slice_169 [[0, 1]] : tensor<16777216xf32> into tensor<4096x4096xf32>
    %extracted_slice_171 = tensor.extract_slice %arg0[1615073280] [45088768] [1] : tensor<6755192832xf32> to tensor<45088768xf32>
    %expanded_172 = tensor.expand_shape %extracted_slice_171 [[0, 1]] : tensor<45088768xf32> into tensor<11008x4096xf32>
    %extracted_slice_173 = tensor.extract_slice %arg0[1660162048] [45088768] [1] : tensor<6755192832xf32> to tensor<45088768xf32>
    %expanded_174 = tensor.expand_shape %extracted_slice_173 [[0, 1]] : tensor<45088768xf32> into tensor<11008x4096xf32>
    %extracted_slice_175 = tensor.extract_slice %arg0[1705250816] [45088768] [1] : tensor<6755192832xf32> to tensor<45088768xf32>
    %expanded_176 = tensor.expand_shape %extracted_slice_175 [[0, 1]] : tensor<45088768xf32> into tensor<4096x11008xf32>
    %extracted_slice_177 = tensor.extract_slice %arg0[1750339584] [16777216] [1] : tensor<6755192832xf32> to tensor<16777216xf32>
    %expanded_178 = tensor.expand_shape %extracted_slice_177 [[0, 1]] : tensor<16777216xf32> into tensor<4096x4096xf32>
    %extracted_slice_179 = tensor.extract_slice %arg0[1767116800] [16777216] [1] : tensor<6755192832xf32> to tensor<16777216xf32>
    %expanded_180 = tensor.expand_shape %extracted_slice_179 [[0, 1]] : tensor<16777216xf32> into tensor<4096x4096xf32>
    %extracted_slice_181 = tensor.extract_slice %arg0[1783894016] [16777216] [1] : tensor<6755192832xf32> to tensor<16777216xf32>
    %expanded_182 = tensor.expand_shape %extracted_slice_181 [[0, 1]] : tensor<16777216xf32> into tensor<4096x4096xf32>
    %extracted_slice_183 = tensor.extract_slice %arg0[1800671232] [16777216] [1] : tensor<6755192832xf32> to tensor<16777216xf32>
    %expanded_184 = tensor.expand_shape %extracted_slice_183 [[0, 1]] : tensor<16777216xf32> into tensor<4096x4096xf32>
    %extracted_slice_185 = tensor.extract_slice %arg0[1817448448] [45088768] [1] : tensor<6755192832xf32> to tensor<45088768xf32>
    %expanded_186 = tensor.expand_shape %extracted_slice_185 [[0, 1]] : tensor<45088768xf32> into tensor<11008x4096xf32>
    %extracted_slice_187 = tensor.extract_slice %arg0[1862537216] [45088768] [1] : tensor<6755192832xf32> to tensor<45088768xf32>
    %expanded_188 = tensor.expand_shape %extracted_slice_187 [[0, 1]] : tensor<45088768xf32> into tensor<11008x4096xf32>
    %extracted_slice_189 = tensor.extract_slice %arg0[1907625984] [45088768] [1] : tensor<6755192832xf32> to tensor<45088768xf32>
    %expanded_190 = tensor.expand_shape %extracted_slice_189 [[0, 1]] : tensor<45088768xf32> into tensor<4096x11008xf32>
    %extracted_slice_191 = tensor.extract_slice %arg0[1952714752] [16777216] [1] : tensor<6755192832xf32> to tensor<16777216xf32>
    %expanded_192 = tensor.expand_shape %extracted_slice_191 [[0, 1]] : tensor<16777216xf32> into tensor<4096x4096xf32>
    %extracted_slice_193 = tensor.extract_slice %arg0[1969491968] [16777216] [1] : tensor<6755192832xf32> to tensor<16777216xf32>
    %expanded_194 = tensor.expand_shape %extracted_slice_193 [[0, 1]] : tensor<16777216xf32> into tensor<4096x4096xf32>
    %extracted_slice_195 = tensor.extract_slice %arg0[1986269184] [16777216] [1] : tensor<6755192832xf32> to tensor<16777216xf32>
    %expanded_196 = tensor.expand_shape %extracted_slice_195 [[0, 1]] : tensor<16777216xf32> into tensor<4096x4096xf32>
    %extracted_slice_197 = tensor.extract_slice %arg0[2003046400] [16777216] [1] : tensor<6755192832xf32> to tensor<16777216xf32>
    %expanded_198 = tensor.expand_shape %extracted_slice_197 [[0, 1]] : tensor<16777216xf32> into tensor<4096x4096xf32>
    %extracted_slice_199 = tensor.extract_slice %arg0[2019823616] [45088768] [1] : tensor<6755192832xf32> to tensor<45088768xf32>
    %expanded_200 = tensor.expand_shape %extracted_slice_199 [[0, 1]] : tensor<45088768xf32> into tensor<11008x4096xf32>
    %extracted_slice_201 = tensor.extract_slice %arg0[2064912384] [45088768] [1] : tensor<6755192832xf32> to tensor<45088768xf32>
    %expanded_202 = tensor.expand_shape %extracted_slice_201 [[0, 1]] : tensor<45088768xf32> into tensor<11008x4096xf32>
    %extracted_slice_203 = tensor.extract_slice %arg0[2110001152] [45088768] [1] : tensor<6755192832xf32> to tensor<45088768xf32>
    %expanded_204 = tensor.expand_shape %extracted_slice_203 [[0, 1]] : tensor<45088768xf32> into tensor<4096x11008xf32>
    %extracted_slice_205 = tensor.extract_slice %arg0[2155089920] [16777216] [1] : tensor<6755192832xf32> to tensor<16777216xf32>
    %expanded_206 = tensor.expand_shape %extracted_slice_205 [[0, 1]] : tensor<16777216xf32> into tensor<4096x4096xf32>
    %extracted_slice_207 = tensor.extract_slice %arg0[2171867136] [16777216] [1] : tensor<6755192832xf32> to tensor<16777216xf32>
    %expanded_208 = tensor.expand_shape %extracted_slice_207 [[0, 1]] : tensor<16777216xf32> into tensor<4096x4096xf32>
    %extracted_slice_209 = tensor.extract_slice %arg0[2188644352] [16777216] [1] : tensor<6755192832xf32> to tensor<16777216xf32>
    %expanded_210 = tensor.expand_shape %extracted_slice_209 [[0, 1]] : tensor<16777216xf32> into tensor<4096x4096xf32>
    %extracted_slice_211 = tensor.extract_slice %arg0[2205421568] [16777216] [1] : tensor<6755192832xf32> to tensor<16777216xf32>
    %expanded_212 = tensor.expand_shape %extracted_slice_211 [[0, 1]] : tensor<16777216xf32> into tensor<4096x4096xf32>
    %extracted_slice_213 = tensor.extract_slice %arg0[2222198784] [45088768] [1] : tensor<6755192832xf32> to tensor<45088768xf32>
    %expanded_214 = tensor.expand_shape %extracted_slice_213 [[0, 1]] : tensor<45088768xf32> into tensor<11008x4096xf32>
    %extracted_slice_215 = tensor.extract_slice %arg0[2267287552] [45088768] [1] : tensor<6755192832xf32> to tensor<45088768xf32>
    %expanded_216 = tensor.expand_shape %extracted_slice_215 [[0, 1]] : tensor<45088768xf32> into tensor<11008x4096xf32>
    %extracted_slice_217 = tensor.extract_slice %arg0[2312376320] [45088768] [1] : tensor<6755192832xf32> to tensor<45088768xf32>
    %expanded_218 = tensor.expand_shape %extracted_slice_217 [[0, 1]] : tensor<45088768xf32> into tensor<4096x11008xf32>
    %extracted_slice_219 = tensor.extract_slice %arg0[2357465088] [16777216] [1] : tensor<6755192832xf32> to tensor<16777216xf32>
    %expanded_220 = tensor.expand_shape %extracted_slice_219 [[0, 1]] : tensor<16777216xf32> into tensor<4096x4096xf32>
    %extracted_slice_221 = tensor.extract_slice %arg0[2374242304] [16777216] [1] : tensor<6755192832xf32> to tensor<16777216xf32>
    %expanded_222 = tensor.expand_shape %extracted_slice_221 [[0, 1]] : tensor<16777216xf32> into tensor<4096x4096xf32>
    %extracted_slice_223 = tensor.extract_slice %arg0[2391019520] [16777216] [1] : tensor<6755192832xf32> to tensor<16777216xf32>
    %expanded_224 = tensor.expand_shape %extracted_slice_223 [[0, 1]] : tensor<16777216xf32> into tensor<4096x4096xf32>
    %extracted_slice_225 = tensor.extract_slice %arg0[2407796736] [16777216] [1] : tensor<6755192832xf32> to tensor<16777216xf32>
    %expanded_226 = tensor.expand_shape %extracted_slice_225 [[0, 1]] : tensor<16777216xf32> into tensor<4096x4096xf32>
    %extracted_slice_227 = tensor.extract_slice %arg0[2424573952] [45088768] [1] : tensor<6755192832xf32> to tensor<45088768xf32>
    %expanded_228 = tensor.expand_shape %extracted_slice_227 [[0, 1]] : tensor<45088768xf32> into tensor<11008x4096xf32>
    %extracted_slice_229 = tensor.extract_slice %arg0[2469662720] [45088768] [1] : tensor<6755192832xf32> to tensor<45088768xf32>
    %expanded_230 = tensor.expand_shape %extracted_slice_229 [[0, 1]] : tensor<45088768xf32> into tensor<11008x4096xf32>
    %extracted_slice_231 = tensor.extract_slice %arg0[2514751488] [45088768] [1] : tensor<6755192832xf32> to tensor<45088768xf32>
    %expanded_232 = tensor.expand_shape %extracted_slice_231 [[0, 1]] : tensor<45088768xf32> into tensor<4096x11008xf32>
    %extracted_slice_233 = tensor.extract_slice %arg0[2559840256] [16777216] [1] : tensor<6755192832xf32> to tensor<16777216xf32>
    %expanded_234 = tensor.expand_shape %extracted_slice_233 [[0, 1]] : tensor<16777216xf32> into tensor<4096x4096xf32>
    %extracted_slice_235 = tensor.extract_slice %arg0[2576617472] [16777216] [1] : tensor<6755192832xf32> to tensor<16777216xf32>
    %expanded_236 = tensor.expand_shape %extracted_slice_235 [[0, 1]] : tensor<16777216xf32> into tensor<4096x4096xf32>
    %extracted_slice_237 = tensor.extract_slice %arg0[2593394688] [16777216] [1] : tensor<6755192832xf32> to tensor<16777216xf32>
    %expanded_238 = tensor.expand_shape %extracted_slice_237 [[0, 1]] : tensor<16777216xf32> into tensor<4096x4096xf32>
    %extracted_slice_239 = tensor.extract_slice %arg0[2610171904] [16777216] [1] : tensor<6755192832xf32> to tensor<16777216xf32>
    %expanded_240 = tensor.expand_shape %extracted_slice_239 [[0, 1]] : tensor<16777216xf32> into tensor<4096x4096xf32>
    %extracted_slice_241 = tensor.extract_slice %arg0[2626949120] [45088768] [1] : tensor<6755192832xf32> to tensor<45088768xf32>
    %expanded_242 = tensor.expand_shape %extracted_slice_241 [[0, 1]] : tensor<45088768xf32> into tensor<11008x4096xf32>
    %extracted_slice_243 = tensor.extract_slice %arg0[2672037888] [45088768] [1] : tensor<6755192832xf32> to tensor<45088768xf32>
    %expanded_244 = tensor.expand_shape %extracted_slice_243 [[0, 1]] : tensor<45088768xf32> into tensor<11008x4096xf32>
    %extracted_slice_245 = tensor.extract_slice %arg0[2717126656] [45088768] [1] : tensor<6755192832xf32> to tensor<45088768xf32>
    %expanded_246 = tensor.expand_shape %extracted_slice_245 [[0, 1]] : tensor<45088768xf32> into tensor<4096x11008xf32>
    %extracted_slice_247 = tensor.extract_slice %arg0[2762215424] [16777216] [1] : tensor<6755192832xf32> to tensor<16777216xf32>
    %expanded_248 = tensor.expand_shape %extracted_slice_247 [[0, 1]] : tensor<16777216xf32> into tensor<4096x4096xf32>
    %extracted_slice_249 = tensor.extract_slice %arg0[2778992640] [16777216] [1] : tensor<6755192832xf32> to tensor<16777216xf32>
    %expanded_250 = tensor.expand_shape %extracted_slice_249 [[0, 1]] : tensor<16777216xf32> into tensor<4096x4096xf32>
    %extracted_slice_251 = tensor.extract_slice %arg0[2795769856] [16777216] [1] : tensor<6755192832xf32> to tensor<16777216xf32>
    %expanded_252 = tensor.expand_shape %extracted_slice_251 [[0, 1]] : tensor<16777216xf32> into tensor<4096x4096xf32>
    %extracted_slice_253 = tensor.extract_slice %arg0[2812547072] [16777216] [1] : tensor<6755192832xf32> to tensor<16777216xf32>
    %expanded_254 = tensor.expand_shape %extracted_slice_253 [[0, 1]] : tensor<16777216xf32> into tensor<4096x4096xf32>
    %extracted_slice_255 = tensor.extract_slice %arg0[2829324288] [45088768] [1] : tensor<6755192832xf32> to tensor<45088768xf32>
    %expanded_256 = tensor.expand_shape %extracted_slice_255 [[0, 1]] : tensor<45088768xf32> into tensor<11008x4096xf32>
    %extracted_slice_257 = tensor.extract_slice %arg0[2874413056] [45088768] [1] : tensor<6755192832xf32> to tensor<45088768xf32>
    %expanded_258 = tensor.expand_shape %extracted_slice_257 [[0, 1]] : tensor<45088768xf32> into tensor<11008x4096xf32>
    %extracted_slice_259 = tensor.extract_slice %arg0[2919501824] [45088768] [1] : tensor<6755192832xf32> to tensor<45088768xf32>
    %expanded_260 = tensor.expand_shape %extracted_slice_259 [[0, 1]] : tensor<45088768xf32> into tensor<4096x11008xf32>
    %extracted_slice_261 = tensor.extract_slice %arg0[2964590592] [16777216] [1] : tensor<6755192832xf32> to tensor<16777216xf32>
    %expanded_262 = tensor.expand_shape %extracted_slice_261 [[0, 1]] : tensor<16777216xf32> into tensor<4096x4096xf32>
    %extracted_slice_263 = tensor.extract_slice %arg0[2981367808] [16777216] [1] : tensor<6755192832xf32> to tensor<16777216xf32>
    %expanded_264 = tensor.expand_shape %extracted_slice_263 [[0, 1]] : tensor<16777216xf32> into tensor<4096x4096xf32>
    %extracted_slice_265 = tensor.extract_slice %arg0[2998145024] [16777216] [1] : tensor<6755192832xf32> to tensor<16777216xf32>
    %expanded_266 = tensor.expand_shape %extracted_slice_265 [[0, 1]] : tensor<16777216xf32> into tensor<4096x4096xf32>
    %extracted_slice_267 = tensor.extract_slice %arg0[3014922240] [16777216] [1] : tensor<6755192832xf32> to tensor<16777216xf32>
    %expanded_268 = tensor.expand_shape %extracted_slice_267 [[0, 1]] : tensor<16777216xf32> into tensor<4096x4096xf32>
    %extracted_slice_269 = tensor.extract_slice %arg0[3031699456] [45088768] [1] : tensor<6755192832xf32> to tensor<45088768xf32>
    %expanded_270 = tensor.expand_shape %extracted_slice_269 [[0, 1]] : tensor<45088768xf32> into tensor<11008x4096xf32>
    %extracted_slice_271 = tensor.extract_slice %arg0[3076788224] [45088768] [1] : tensor<6755192832xf32> to tensor<45088768xf32>
    %expanded_272 = tensor.expand_shape %extracted_slice_271 [[0, 1]] : tensor<45088768xf32> into tensor<11008x4096xf32>
    %extracted_slice_273 = tensor.extract_slice %arg0[3121876992] [45088768] [1] : tensor<6755192832xf32> to tensor<45088768xf32>
    %expanded_274 = tensor.expand_shape %extracted_slice_273 [[0, 1]] : tensor<45088768xf32> into tensor<4096x11008xf32>
    %extracted_slice_275 = tensor.extract_slice %arg0[3166965760] [16777216] [1] : tensor<6755192832xf32> to tensor<16777216xf32>
    %expanded_276 = tensor.expand_shape %extracted_slice_275 [[0, 1]] : tensor<16777216xf32> into tensor<4096x4096xf32>
    %extracted_slice_277 = tensor.extract_slice %arg0[3183742976] [16777216] [1] : tensor<6755192832xf32> to tensor<16777216xf32>
    %expanded_278 = tensor.expand_shape %extracted_slice_277 [[0, 1]] : tensor<16777216xf32> into tensor<4096x4096xf32>
    %extracted_slice_279 = tensor.extract_slice %arg0[3200520192] [16777216] [1] : tensor<6755192832xf32> to tensor<16777216xf32>
    %expanded_280 = tensor.expand_shape %extracted_slice_279 [[0, 1]] : tensor<16777216xf32> into tensor<4096x4096xf32>
    %extracted_slice_281 = tensor.extract_slice %arg0[3217297408] [16777216] [1] : tensor<6755192832xf32> to tensor<16777216xf32>
    %expanded_282 = tensor.expand_shape %extracted_slice_281 [[0, 1]] : tensor<16777216xf32> into tensor<4096x4096xf32>
    %extracted_slice_283 = tensor.extract_slice %arg0[3234074624] [45088768] [1] : tensor<6755192832xf32> to tensor<45088768xf32>
    %expanded_284 = tensor.expand_shape %extracted_slice_283 [[0, 1]] : tensor<45088768xf32> into tensor<11008x4096xf32>
    %extracted_slice_285 = tensor.extract_slice %arg0[3279163392] [45088768] [1] : tensor<6755192832xf32> to tensor<45088768xf32>
    %expanded_286 = tensor.expand_shape %extracted_slice_285 [[0, 1]] : tensor<45088768xf32> into tensor<11008x4096xf32>
    %extracted_slice_287 = tensor.extract_slice %arg0[3324252160] [45088768] [1] : tensor<6755192832xf32> to tensor<45088768xf32>
    %expanded_288 = tensor.expand_shape %extracted_slice_287 [[0, 1]] : tensor<45088768xf32> into tensor<4096x11008xf32>
    %extracted_slice_289 = tensor.extract_slice %arg0[3369340928] [16777216] [1] : tensor<6755192832xf32> to tensor<16777216xf32>
    %expanded_290 = tensor.expand_shape %extracted_slice_289 [[0, 1]] : tensor<16777216xf32> into tensor<4096x4096xf32>
    %extracted_slice_291 = tensor.extract_slice %arg0[3386118144] [16777216] [1] : tensor<6755192832xf32> to tensor<16777216xf32>
    %expanded_292 = tensor.expand_shape %extracted_slice_291 [[0, 1]] : tensor<16777216xf32> into tensor<4096x4096xf32>
    %extracted_slice_293 = tensor.extract_slice %arg0[3402895360] [16777216] [1] : tensor<6755192832xf32> to tensor<16777216xf32>
    %expanded_294 = tensor.expand_shape %extracted_slice_293 [[0, 1]] : tensor<16777216xf32> into tensor<4096x4096xf32>
    %extracted_slice_295 = tensor.extract_slice %arg0[3419672576] [16777216] [1] : tensor<6755192832xf32> to tensor<16777216xf32>
    %expanded_296 = tensor.expand_shape %extracted_slice_295 [[0, 1]] : tensor<16777216xf32> into tensor<4096x4096xf32>
    %extracted_slice_297 = tensor.extract_slice %arg0[3436449792] [45088768] [1] : tensor<6755192832xf32> to tensor<45088768xf32>
    %expanded_298 = tensor.expand_shape %extracted_slice_297 [[0, 1]] : tensor<45088768xf32> into tensor<11008x4096xf32>
    %extracted_slice_299 = tensor.extract_slice %arg0[3481538560] [45088768] [1] : tensor<6755192832xf32> to tensor<45088768xf32>
    %expanded_300 = tensor.expand_shape %extracted_slice_299 [[0, 1]] : tensor<45088768xf32> into tensor<11008x4096xf32>
    %extracted_slice_301 = tensor.extract_slice %arg0[3526627328] [45088768] [1] : tensor<6755192832xf32> to tensor<45088768xf32>
    %expanded_302 = tensor.expand_shape %extracted_slice_301 [[0, 1]] : tensor<45088768xf32> into tensor<4096x11008xf32>
    %extracted_slice_303 = tensor.extract_slice %arg0[3571716096] [16777216] [1] : tensor<6755192832xf32> to tensor<16777216xf32>
    %expanded_304 = tensor.expand_shape %extracted_slice_303 [[0, 1]] : tensor<16777216xf32> into tensor<4096x4096xf32>
    %extracted_slice_305 = tensor.extract_slice %arg0[3588493312] [16777216] [1] : tensor<6755192832xf32> to tensor<16777216xf32>
    %expanded_306 = tensor.expand_shape %extracted_slice_305 [[0, 1]] : tensor<16777216xf32> into tensor<4096x4096xf32>
    %extracted_slice_307 = tensor.extract_slice %arg0[3605270528] [16777216] [1] : tensor<6755192832xf32> to tensor<16777216xf32>
    %expanded_308 = tensor.expand_shape %extracted_slice_307 [[0, 1]] : tensor<16777216xf32> into tensor<4096x4096xf32>
    %extracted_slice_309 = tensor.extract_slice %arg0[3622047744] [16777216] [1] : tensor<6755192832xf32> to tensor<16777216xf32>
    %expanded_310 = tensor.expand_shape %extracted_slice_309 [[0, 1]] : tensor<16777216xf32> into tensor<4096x4096xf32>
    %extracted_slice_311 = tensor.extract_slice %arg0[3638824960] [45088768] [1] : tensor<6755192832xf32> to tensor<45088768xf32>
    %expanded_312 = tensor.expand_shape %extracted_slice_311 [[0, 1]] : tensor<45088768xf32> into tensor<11008x4096xf32>
    %extracted_slice_313 = tensor.extract_slice %arg0[3683913728] [45088768] [1] : tensor<6755192832xf32> to tensor<45088768xf32>
    %expanded_314 = tensor.expand_shape %extracted_slice_313 [[0, 1]] : tensor<45088768xf32> into tensor<11008x4096xf32>
    %extracted_slice_315 = tensor.extract_slice %arg0[3729002496] [45088768] [1] : tensor<6755192832xf32> to tensor<45088768xf32>
    %expanded_316 = tensor.expand_shape %extracted_slice_315 [[0, 1]] : tensor<45088768xf32> into tensor<4096x11008xf32>
    %extracted_slice_317 = tensor.extract_slice %arg0[3774091264] [16777216] [1] : tensor<6755192832xf32> to tensor<16777216xf32>
    %expanded_318 = tensor.expand_shape %extracted_slice_317 [[0, 1]] : tensor<16777216xf32> into tensor<4096x4096xf32>
    %extracted_slice_319 = tensor.extract_slice %arg0[3790868480] [16777216] [1] : tensor<6755192832xf32> to tensor<16777216xf32>
    %expanded_320 = tensor.expand_shape %extracted_slice_319 [[0, 1]] : tensor<16777216xf32> into tensor<4096x4096xf32>
    %extracted_slice_321 = tensor.extract_slice %arg0[3807645696] [16777216] [1] : tensor<6755192832xf32> to tensor<16777216xf32>
    %expanded_322 = tensor.expand_shape %extracted_slice_321 [[0, 1]] : tensor<16777216xf32> into tensor<4096x4096xf32>
    %extracted_slice_323 = tensor.extract_slice %arg0[3824422912] [16777216] [1] : tensor<6755192832xf32> to tensor<16777216xf32>
    %expanded_324 = tensor.expand_shape %extracted_slice_323 [[0, 1]] : tensor<16777216xf32> into tensor<4096x4096xf32>
    %extracted_slice_325 = tensor.extract_slice %arg0[3841200128] [45088768] [1] : tensor<6755192832xf32> to tensor<45088768xf32>
    %expanded_326 = tensor.expand_shape %extracted_slice_325 [[0, 1]] : tensor<45088768xf32> into tensor<11008x4096xf32>
    %extracted_slice_327 = tensor.extract_slice %arg0[3886288896] [45088768] [1] : tensor<6755192832xf32> to tensor<45088768xf32>
    %expanded_328 = tensor.expand_shape %extracted_slice_327 [[0, 1]] : tensor<45088768xf32> into tensor<11008x4096xf32>
    %extracted_slice_329 = tensor.extract_slice %arg0[3931377664] [45088768] [1] : tensor<6755192832xf32> to tensor<45088768xf32>
    %expanded_330 = tensor.expand_shape %extracted_slice_329 [[0, 1]] : tensor<45088768xf32> into tensor<4096x11008xf32>
    %extracted_slice_331 = tensor.extract_slice %arg0[3976466432] [16777216] [1] : tensor<6755192832xf32> to tensor<16777216xf32>
    %expanded_332 = tensor.expand_shape %extracted_slice_331 [[0, 1]] : tensor<16777216xf32> into tensor<4096x4096xf32>
    %extracted_slice_333 = tensor.extract_slice %arg0[3993243648] [16777216] [1] : tensor<6755192832xf32> to tensor<16777216xf32>
    %expanded_334 = tensor.expand_shape %extracted_slice_333 [[0, 1]] : tensor<16777216xf32> into tensor<4096x4096xf32>
    %extracted_slice_335 = tensor.extract_slice %arg0[4010020864] [16777216] [1] : tensor<6755192832xf32> to tensor<16777216xf32>
    %expanded_336 = tensor.expand_shape %extracted_slice_335 [[0, 1]] : tensor<16777216xf32> into tensor<4096x4096xf32>
    %extracted_slice_337 = tensor.extract_slice %arg0[4026798080] [16777216] [1] : tensor<6755192832xf32> to tensor<16777216xf32>
    %expanded_338 = tensor.expand_shape %extracted_slice_337 [[0, 1]] : tensor<16777216xf32> into tensor<4096x4096xf32>
    %extracted_slice_339 = tensor.extract_slice %arg0[4043575296] [45088768] [1] : tensor<6755192832xf32> to tensor<45088768xf32>
    %expanded_340 = tensor.expand_shape %extracted_slice_339 [[0, 1]] : tensor<45088768xf32> into tensor<11008x4096xf32>
    %extracted_slice_341 = tensor.extract_slice %arg0[4088664064] [45088768] [1] : tensor<6755192832xf32> to tensor<45088768xf32>
    %expanded_342 = tensor.expand_shape %extracted_slice_341 [[0, 1]] : tensor<45088768xf32> into tensor<11008x4096xf32>
    %extracted_slice_343 = tensor.extract_slice %arg0[4133752832] [45088768] [1] : tensor<6755192832xf32> to tensor<45088768xf32>
    %expanded_344 = tensor.expand_shape %extracted_slice_343 [[0, 1]] : tensor<45088768xf32> into tensor<4096x11008xf32>
    %extracted_slice_345 = tensor.extract_slice %arg0[4178841600] [16777216] [1] : tensor<6755192832xf32> to tensor<16777216xf32>
    %expanded_346 = tensor.expand_shape %extracted_slice_345 [[0, 1]] : tensor<16777216xf32> into tensor<4096x4096xf32>
    %extracted_slice_347 = tensor.extract_slice %arg0[4195618816] [16777216] [1] : tensor<6755192832xf32> to tensor<16777216xf32>
    %expanded_348 = tensor.expand_shape %extracted_slice_347 [[0, 1]] : tensor<16777216xf32> into tensor<4096x4096xf32>
    %extracted_slice_349 = tensor.extract_slice %arg0[4212396032] [16777216] [1] : tensor<6755192832xf32> to tensor<16777216xf32>
    %expanded_350 = tensor.expand_shape %extracted_slice_349 [[0, 1]] : tensor<16777216xf32> into tensor<4096x4096xf32>
    %extracted_slice_351 = tensor.extract_slice %arg0[4229173248] [16777216] [1] : tensor<6755192832xf32> to tensor<16777216xf32>
    %expanded_352 = tensor.expand_shape %extracted_slice_351 [[0, 1]] : tensor<16777216xf32> into tensor<4096x4096xf32>
    %extracted_slice_353 = tensor.extract_slice %arg0[4245950464] [45088768] [1] : tensor<6755192832xf32> to tensor<45088768xf32>
    %expanded_354 = tensor.expand_shape %extracted_slice_353 [[0, 1]] : tensor<45088768xf32> into tensor<11008x4096xf32>
    %extracted_slice_355 = tensor.extract_slice %arg0[4291039232] [45088768] [1] : tensor<6755192832xf32> to tensor<45088768xf32>
    %expanded_356 = tensor.expand_shape %extracted_slice_355 [[0, 1]] : tensor<45088768xf32> into tensor<11008x4096xf32>
    %extracted_slice_357 = tensor.extract_slice %arg0[4336128000] [45088768] [1] : tensor<6755192832xf32> to tensor<45088768xf32>
    %expanded_358 = tensor.expand_shape %extracted_slice_357 [[0, 1]] : tensor<45088768xf32> into tensor<4096x11008xf32>
    %extracted_slice_359 = tensor.extract_slice %arg0[4381216768] [16777216] [1] : tensor<6755192832xf32> to tensor<16777216xf32>
    %expanded_360 = tensor.expand_shape %extracted_slice_359 [[0, 1]] : tensor<16777216xf32> into tensor<4096x4096xf32>
    %extracted_slice_361 = tensor.extract_slice %arg0[4397993984] [16777216] [1] : tensor<6755192832xf32> to tensor<16777216xf32>
    %expanded_362 = tensor.expand_shape %extracted_slice_361 [[0, 1]] : tensor<16777216xf32> into tensor<4096x4096xf32>
    %extracted_slice_363 = tensor.extract_slice %arg0[4414771200] [16777216] [1] : tensor<6755192832xf32> to tensor<16777216xf32>
    %expanded_364 = tensor.expand_shape %extracted_slice_363 [[0, 1]] : tensor<16777216xf32> into tensor<4096x4096xf32>
    %extracted_slice_365 = tensor.extract_slice %arg0[4431548416] [16777216] [1] : tensor<6755192832xf32> to tensor<16777216xf32>
    %expanded_366 = tensor.expand_shape %extracted_slice_365 [[0, 1]] : tensor<16777216xf32> into tensor<4096x4096xf32>
    %extracted_slice_367 = tensor.extract_slice %arg0[4448325632] [45088768] [1] : tensor<6755192832xf32> to tensor<45088768xf32>
    %expanded_368 = tensor.expand_shape %extracted_slice_367 [[0, 1]] : tensor<45088768xf32> into tensor<11008x4096xf32>
    %extracted_slice_369 = tensor.extract_slice %arg0[4493414400] [45088768] [1] : tensor<6755192832xf32> to tensor<45088768xf32>
    %expanded_370 = tensor.expand_shape %extracted_slice_369 [[0, 1]] : tensor<45088768xf32> into tensor<11008x4096xf32>
    %extracted_slice_371 = tensor.extract_slice %arg0[4538503168] [45088768] [1] : tensor<6755192832xf32> to tensor<45088768xf32>
    %expanded_372 = tensor.expand_shape %extracted_slice_371 [[0, 1]] : tensor<45088768xf32> into tensor<4096x11008xf32>
    %extracted_slice_373 = tensor.extract_slice %arg0[4583591936] [16777216] [1] : tensor<6755192832xf32> to tensor<16777216xf32>
    %expanded_374 = tensor.expand_shape %extracted_slice_373 [[0, 1]] : tensor<16777216xf32> into tensor<4096x4096xf32>
    %extracted_slice_375 = tensor.extract_slice %arg0[4600369152] [16777216] [1] : tensor<6755192832xf32> to tensor<16777216xf32>
    %expanded_376 = tensor.expand_shape %extracted_slice_375 [[0, 1]] : tensor<16777216xf32> into tensor<4096x4096xf32>
    %extracted_slice_377 = tensor.extract_slice %arg0[4617146368] [16777216] [1] : tensor<6755192832xf32> to tensor<16777216xf32>
    %expanded_378 = tensor.expand_shape %extracted_slice_377 [[0, 1]] : tensor<16777216xf32> into tensor<4096x4096xf32>
    %extracted_slice_379 = tensor.extract_slice %arg0[4633923584] [16777216] [1] : tensor<6755192832xf32> to tensor<16777216xf32>
    %expanded_380 = tensor.expand_shape %extracted_slice_379 [[0, 1]] : tensor<16777216xf32> into tensor<4096x4096xf32>
    %extracted_slice_381 = tensor.extract_slice %arg0[4650700800] [45088768] [1] : tensor<6755192832xf32> to tensor<45088768xf32>
    %expanded_382 = tensor.expand_shape %extracted_slice_381 [[0, 1]] : tensor<45088768xf32> into tensor<11008x4096xf32>
    %extracted_slice_383 = tensor.extract_slice %arg0[4695789568] [45088768] [1] : tensor<6755192832xf32> to tensor<45088768xf32>
    %expanded_384 = tensor.expand_shape %extracted_slice_383 [[0, 1]] : tensor<45088768xf32> into tensor<11008x4096xf32>
    %extracted_slice_385 = tensor.extract_slice %arg0[4740878336] [45088768] [1] : tensor<6755192832xf32> to tensor<45088768xf32>
    %expanded_386 = tensor.expand_shape %extracted_slice_385 [[0, 1]] : tensor<45088768xf32> into tensor<4096x11008xf32>
    %extracted_slice_387 = tensor.extract_slice %arg0[4785967104] [16777216] [1] : tensor<6755192832xf32> to tensor<16777216xf32>
    %expanded_388 = tensor.expand_shape %extracted_slice_387 [[0, 1]] : tensor<16777216xf32> into tensor<4096x4096xf32>
    %extracted_slice_389 = tensor.extract_slice %arg0[4802744320] [16777216] [1] : tensor<6755192832xf32> to tensor<16777216xf32>
    %expanded_390 = tensor.expand_shape %extracted_slice_389 [[0, 1]] : tensor<16777216xf32> into tensor<4096x4096xf32>
    %extracted_slice_391 = tensor.extract_slice %arg0[4819521536] [16777216] [1] : tensor<6755192832xf32> to tensor<16777216xf32>
    %expanded_392 = tensor.expand_shape %extracted_slice_391 [[0, 1]] : tensor<16777216xf32> into tensor<4096x4096xf32>
    %extracted_slice_393 = tensor.extract_slice %arg0[4836298752] [16777216] [1] : tensor<6755192832xf32> to tensor<16777216xf32>
    %expanded_394 = tensor.expand_shape %extracted_slice_393 [[0, 1]] : tensor<16777216xf32> into tensor<4096x4096xf32>
    %extracted_slice_395 = tensor.extract_slice %arg0[4853075968] [45088768] [1] : tensor<6755192832xf32> to tensor<45088768xf32>
    %expanded_396 = tensor.expand_shape %extracted_slice_395 [[0, 1]] : tensor<45088768xf32> into tensor<11008x4096xf32>
    %extracted_slice_397 = tensor.extract_slice %arg0[4898164736] [45088768] [1] : tensor<6755192832xf32> to tensor<45088768xf32>
    %expanded_398 = tensor.expand_shape %extracted_slice_397 [[0, 1]] : tensor<45088768xf32> into tensor<11008x4096xf32>
    %extracted_slice_399 = tensor.extract_slice %arg0[4943253504] [45088768] [1] : tensor<6755192832xf32> to tensor<45088768xf32>
    %expanded_400 = tensor.expand_shape %extracted_slice_399 [[0, 1]] : tensor<45088768xf32> into tensor<4096x11008xf32>
    %extracted_slice_401 = tensor.extract_slice %arg0[4988342272] [16777216] [1] : tensor<6755192832xf32> to tensor<16777216xf32>
    %expanded_402 = tensor.expand_shape %extracted_slice_401 [[0, 1]] : tensor<16777216xf32> into tensor<4096x4096xf32>
    %extracted_slice_403 = tensor.extract_slice %arg0[5005119488] [16777216] [1] : tensor<6755192832xf32> to tensor<16777216xf32>
    %expanded_404 = tensor.expand_shape %extracted_slice_403 [[0, 1]] : tensor<16777216xf32> into tensor<4096x4096xf32>
    %extracted_slice_405 = tensor.extract_slice %arg0[5021896704] [16777216] [1] : tensor<6755192832xf32> to tensor<16777216xf32>
    %expanded_406 = tensor.expand_shape %extracted_slice_405 [[0, 1]] : tensor<16777216xf32> into tensor<4096x4096xf32>
    %extracted_slice_407 = tensor.extract_slice %arg0[5038673920] [16777216] [1] : tensor<6755192832xf32> to tensor<16777216xf32>
    %expanded_408 = tensor.expand_shape %extracted_slice_407 [[0, 1]] : tensor<16777216xf32> into tensor<4096x4096xf32>
    %extracted_slice_409 = tensor.extract_slice %arg0[5055451136] [45088768] [1] : tensor<6755192832xf32> to tensor<45088768xf32>
    %expanded_410 = tensor.expand_shape %extracted_slice_409 [[0, 1]] : tensor<45088768xf32> into tensor<11008x4096xf32>
    %extracted_slice_411 = tensor.extract_slice %arg0[5100539904] [45088768] [1] : tensor<6755192832xf32> to tensor<45088768xf32>
    %expanded_412 = tensor.expand_shape %extracted_slice_411 [[0, 1]] : tensor<45088768xf32> into tensor<11008x4096xf32>
    %extracted_slice_413 = tensor.extract_slice %arg0[5145628672] [45088768] [1] : tensor<6755192832xf32> to tensor<45088768xf32>
    %expanded_414 = tensor.expand_shape %extracted_slice_413 [[0, 1]] : tensor<45088768xf32> into tensor<4096x11008xf32>
    %extracted_slice_415 = tensor.extract_slice %arg0[5190717440] [16777216] [1] : tensor<6755192832xf32> to tensor<16777216xf32>
    %expanded_416 = tensor.expand_shape %extracted_slice_415 [[0, 1]] : tensor<16777216xf32> into tensor<4096x4096xf32>
    %extracted_slice_417 = tensor.extract_slice %arg0[5207494656] [16777216] [1] : tensor<6755192832xf32> to tensor<16777216xf32>
    %expanded_418 = tensor.expand_shape %extracted_slice_417 [[0, 1]] : tensor<16777216xf32> into tensor<4096x4096xf32>
    %extracted_slice_419 = tensor.extract_slice %arg0[5224271872] [16777216] [1] : tensor<6755192832xf32> to tensor<16777216xf32>
    %expanded_420 = tensor.expand_shape %extracted_slice_419 [[0, 1]] : tensor<16777216xf32> into tensor<4096x4096xf32>
    %extracted_slice_421 = tensor.extract_slice %arg0[5241049088] [16777216] [1] : tensor<6755192832xf32> to tensor<16777216xf32>
    %expanded_422 = tensor.expand_shape %extracted_slice_421 [[0, 1]] : tensor<16777216xf32> into tensor<4096x4096xf32>
    %extracted_slice_423 = tensor.extract_slice %arg0[5257826304] [45088768] [1] : tensor<6755192832xf32> to tensor<45088768xf32>
    %expanded_424 = tensor.expand_shape %extracted_slice_423 [[0, 1]] : tensor<45088768xf32> into tensor<11008x4096xf32>
    %extracted_slice_425 = tensor.extract_slice %arg0[5302915072] [45088768] [1] : tensor<6755192832xf32> to tensor<45088768xf32>
    %expanded_426 = tensor.expand_shape %extracted_slice_425 [[0, 1]] : tensor<45088768xf32> into tensor<11008x4096xf32>
    %extracted_slice_427 = tensor.extract_slice %arg0[5348003840] [45088768] [1] : tensor<6755192832xf32> to tensor<45088768xf32>
    %expanded_428 = tensor.expand_shape %extracted_slice_427 [[0, 1]] : tensor<45088768xf32> into tensor<4096x11008xf32>
    %extracted_slice_429 = tensor.extract_slice %arg0[5393092608] [16777216] [1] : tensor<6755192832xf32> to tensor<16777216xf32>
    %expanded_430 = tensor.expand_shape %extracted_slice_429 [[0, 1]] : tensor<16777216xf32> into tensor<4096x4096xf32>
    %extracted_slice_431 = tensor.extract_slice %arg0[5409869824] [16777216] [1] : tensor<6755192832xf32> to tensor<16777216xf32>
    %expanded_432 = tensor.expand_shape %extracted_slice_431 [[0, 1]] : tensor<16777216xf32> into tensor<4096x4096xf32>
    %extracted_slice_433 = tensor.extract_slice %arg0[5426647040] [16777216] [1] : tensor<6755192832xf32> to tensor<16777216xf32>
    %expanded_434 = tensor.expand_shape %extracted_slice_433 [[0, 1]] : tensor<16777216xf32> into tensor<4096x4096xf32>
    %extracted_slice_435 = tensor.extract_slice %arg0[5443424256] [16777216] [1] : tensor<6755192832xf32> to tensor<16777216xf32>
    %expanded_436 = tensor.expand_shape %extracted_slice_435 [[0, 1]] : tensor<16777216xf32> into tensor<4096x4096xf32>
    %extracted_slice_437 = tensor.extract_slice %arg0[5460201472] [45088768] [1] : tensor<6755192832xf32> to tensor<45088768xf32>
    %expanded_438 = tensor.expand_shape %extracted_slice_437 [[0, 1]] : tensor<45088768xf32> into tensor<11008x4096xf32>
    %extracted_slice_439 = tensor.extract_slice %arg0[5505290240] [45088768] [1] : tensor<6755192832xf32> to tensor<45088768xf32>
    %expanded_440 = tensor.expand_shape %extracted_slice_439 [[0, 1]] : tensor<45088768xf32> into tensor<11008x4096xf32>
    %extracted_slice_441 = tensor.extract_slice %arg0[5550379008] [45088768] [1] : tensor<6755192832xf32> to tensor<45088768xf32>
    %expanded_442 = tensor.expand_shape %extracted_slice_441 [[0, 1]] : tensor<45088768xf32> into tensor<4096x11008xf32>
    %extracted_slice_443 = tensor.extract_slice %arg0[5595467776] [16777216] [1] : tensor<6755192832xf32> to tensor<16777216xf32>
    %expanded_444 = tensor.expand_shape %extracted_slice_443 [[0, 1]] : tensor<16777216xf32> into tensor<4096x4096xf32>
    %extracted_slice_445 = tensor.extract_slice %arg0[5612244992] [16777216] [1] : tensor<6755192832xf32> to tensor<16777216xf32>
    %expanded_446 = tensor.expand_shape %extracted_slice_445 [[0, 1]] : tensor<16777216xf32> into tensor<4096x4096xf32>
    %extracted_slice_447 = tensor.extract_slice %arg0[5629022208] [16777216] [1] : tensor<6755192832xf32> to tensor<16777216xf32>
    %expanded_448 = tensor.expand_shape %extracted_slice_447 [[0, 1]] : tensor<16777216xf32> into tensor<4096x4096xf32>
    %extracted_slice_449 = tensor.extract_slice %arg0[5645799424] [16777216] [1] : tensor<6755192832xf32> to tensor<16777216xf32>
    %expanded_450 = tensor.expand_shape %extracted_slice_449 [[0, 1]] : tensor<16777216xf32> into tensor<4096x4096xf32>
    %extracted_slice_451 = tensor.extract_slice %arg0[5662576640] [45088768] [1] : tensor<6755192832xf32> to tensor<45088768xf32>
    %expanded_452 = tensor.expand_shape %extracted_slice_451 [[0, 1]] : tensor<45088768xf32> into tensor<11008x4096xf32>
    %extracted_slice_453 = tensor.extract_slice %arg0[5707665408] [45088768] [1] : tensor<6755192832xf32> to tensor<45088768xf32>
    %expanded_454 = tensor.expand_shape %extracted_slice_453 [[0, 1]] : tensor<45088768xf32> into tensor<11008x4096xf32>
    %extracted_slice_455 = tensor.extract_slice %arg0[5752754176] [45088768] [1] : tensor<6755192832xf32> to tensor<45088768xf32>
    %expanded_456 = tensor.expand_shape %extracted_slice_455 [[0, 1]] : tensor<45088768xf32> into tensor<4096x11008xf32>
    %extracted_slice_457 = tensor.extract_slice %arg0[5797842944] [16777216] [1] : tensor<6755192832xf32> to tensor<16777216xf32>
    %expanded_458 = tensor.expand_shape %extracted_slice_457 [[0, 1]] : tensor<16777216xf32> into tensor<4096x4096xf32>
    %extracted_slice_459 = tensor.extract_slice %arg0[5814620160] [16777216] [1] : tensor<6755192832xf32> to tensor<16777216xf32>
    %expanded_460 = tensor.expand_shape %extracted_slice_459 [[0, 1]] : tensor<16777216xf32> into tensor<4096x4096xf32>
    %extracted_slice_461 = tensor.extract_slice %arg0[5831397376] [16777216] [1] : tensor<6755192832xf32> to tensor<16777216xf32>
    %expanded_462 = tensor.expand_shape %extracted_slice_461 [[0, 1]] : tensor<16777216xf32> into tensor<4096x4096xf32>
    %extracted_slice_463 = tensor.extract_slice %arg0[5848174592] [16777216] [1] : tensor<6755192832xf32> to tensor<16777216xf32>
    %expanded_464 = tensor.expand_shape %extracted_slice_463 [[0, 1]] : tensor<16777216xf32> into tensor<4096x4096xf32>
    %extracted_slice_465 = tensor.extract_slice %arg0[5864951808] [45088768] [1] : tensor<6755192832xf32> to tensor<45088768xf32>
    %expanded_466 = tensor.expand_shape %extracted_slice_465 [[0, 1]] : tensor<45088768xf32> into tensor<11008x4096xf32>
    %extracted_slice_467 = tensor.extract_slice %arg0[5910040576] [45088768] [1] : tensor<6755192832xf32> to tensor<45088768xf32>
    %expanded_468 = tensor.expand_shape %extracted_slice_467 [[0, 1]] : tensor<45088768xf32> into tensor<11008x4096xf32>
    %extracted_slice_469 = tensor.extract_slice %arg0[5955129344] [45088768] [1] : tensor<6755192832xf32> to tensor<45088768xf32>
    %expanded_470 = tensor.expand_shape %extracted_slice_469 [[0, 1]] : tensor<45088768xf32> into tensor<4096x11008xf32>
    %extracted_slice_471 = tensor.extract_slice %arg0[6000218112] [16777216] [1] : tensor<6755192832xf32> to tensor<16777216xf32>
    %expanded_472 = tensor.expand_shape %extracted_slice_471 [[0, 1]] : tensor<16777216xf32> into tensor<4096x4096xf32>
    %extracted_slice_473 = tensor.extract_slice %arg0[6016995328] [16777216] [1] : tensor<6755192832xf32> to tensor<16777216xf32>
    %expanded_474 = tensor.expand_shape %extracted_slice_473 [[0, 1]] : tensor<16777216xf32> into tensor<4096x4096xf32>
    %extracted_slice_475 = tensor.extract_slice %arg0[6033772544] [16777216] [1] : tensor<6755192832xf32> to tensor<16777216xf32>
    %expanded_476 = tensor.expand_shape %extracted_slice_475 [[0, 1]] : tensor<16777216xf32> into tensor<4096x4096xf32>
    %extracted_slice_477 = tensor.extract_slice %arg0[6050549760] [16777216] [1] : tensor<6755192832xf32> to tensor<16777216xf32>
    %expanded_478 = tensor.expand_shape %extracted_slice_477 [[0, 1]] : tensor<16777216xf32> into tensor<4096x4096xf32>
    %extracted_slice_479 = tensor.extract_slice %arg0[6067326976] [45088768] [1] : tensor<6755192832xf32> to tensor<45088768xf32>
    %expanded_480 = tensor.expand_shape %extracted_slice_479 [[0, 1]] : tensor<45088768xf32> into tensor<11008x4096xf32>
    %extracted_slice_481 = tensor.extract_slice %arg0[6112415744] [45088768] [1] : tensor<6755192832xf32> to tensor<45088768xf32>
    %expanded_482 = tensor.expand_shape %extracted_slice_481 [[0, 1]] : tensor<45088768xf32> into tensor<11008x4096xf32>
    %extracted_slice_483 = tensor.extract_slice %arg0[6157504512] [45088768] [1] : tensor<6755192832xf32> to tensor<45088768xf32>
    %expanded_484 = tensor.expand_shape %extracted_slice_483 [[0, 1]] : tensor<45088768xf32> into tensor<4096x11008xf32>
    %extracted_slice_485 = tensor.extract_slice %arg0[6202593280] [16777216] [1] : tensor<6755192832xf32> to tensor<16777216xf32>
    %expanded_486 = tensor.expand_shape %extracted_slice_485 [[0, 1]] : tensor<16777216xf32> into tensor<4096x4096xf32>
    %extracted_slice_487 = tensor.extract_slice %arg0[6219370496] [16777216] [1] : tensor<6755192832xf32> to tensor<16777216xf32>
    %expanded_488 = tensor.expand_shape %extracted_slice_487 [[0, 1]] : tensor<16777216xf32> into tensor<4096x4096xf32>
    %extracted_slice_489 = tensor.extract_slice %arg0[6236147712] [16777216] [1] : tensor<6755192832xf32> to tensor<16777216xf32>
    %expanded_490 = tensor.expand_shape %extracted_slice_489 [[0, 1]] : tensor<16777216xf32> into tensor<4096x4096xf32>
    %extracted_slice_491 = tensor.extract_slice %arg0[6252924928] [16777216] [1] : tensor<6755192832xf32> to tensor<16777216xf32>
    %expanded_492 = tensor.expand_shape %extracted_slice_491 [[0, 1]] : tensor<16777216xf32> into tensor<4096x4096xf32>
    %extracted_slice_493 = tensor.extract_slice %arg0[6269702144] [45088768] [1] : tensor<6755192832xf32> to tensor<45088768xf32>
    %expanded_494 = tensor.expand_shape %extracted_slice_493 [[0, 1]] : tensor<45088768xf32> into tensor<11008x4096xf32>
    %extracted_slice_495 = tensor.extract_slice %arg0[6314790912] [45088768] [1] : tensor<6755192832xf32> to tensor<45088768xf32>
    %expanded_496 = tensor.expand_shape %extracted_slice_495 [[0, 1]] : tensor<45088768xf32> into tensor<11008x4096xf32>
    %extracted_slice_497 = tensor.extract_slice %arg0[6359879680] [45088768] [1] : tensor<6755192832xf32> to tensor<45088768xf32>
    %expanded_498 = tensor.expand_shape %extracted_slice_497 [[0, 1]] : tensor<45088768xf32> into tensor<4096x11008xf32>
    %extracted_slice_499 = tensor.extract_slice %arg0[6404968448] [16777216] [1] : tensor<6755192832xf32> to tensor<16777216xf32>
    %expanded_500 = tensor.expand_shape %extracted_slice_499 [[0, 1]] : tensor<16777216xf32> into tensor<4096x4096xf32>
    %extracted_slice_501 = tensor.extract_slice %arg0[6421745664] [16777216] [1] : tensor<6755192832xf32> to tensor<16777216xf32>
    %expanded_502 = tensor.expand_shape %extracted_slice_501 [[0, 1]] : tensor<16777216xf32> into tensor<4096x4096xf32>
    %extracted_slice_503 = tensor.extract_slice %arg0[6438522880] [16777216] [1] : tensor<6755192832xf32> to tensor<16777216xf32>
    %expanded_504 = tensor.expand_shape %extracted_slice_503 [[0, 1]] : tensor<16777216xf32> into tensor<4096x4096xf32>
    %extracted_slice_505 = tensor.extract_slice %arg0[6455300096] [16777216] [1] : tensor<6755192832xf32> to tensor<16777216xf32>
    %expanded_506 = tensor.expand_shape %extracted_slice_505 [[0, 1]] : tensor<16777216xf32> into tensor<4096x4096xf32>
    %extracted_slice_507 = tensor.extract_slice %arg0[6472077312] [45088768] [1] : tensor<6755192832xf32> to tensor<45088768xf32>
    %expanded_508 = tensor.expand_shape %extracted_slice_507 [[0, 1]] : tensor<45088768xf32> into tensor<11008x4096xf32>
    %extracted_slice_509 = tensor.extract_slice %arg0[6517166080] [45088768] [1] : tensor<6755192832xf32> to tensor<45088768xf32>
    %expanded_510 = tensor.expand_shape %extracted_slice_509 [[0, 1]] : tensor<45088768xf32> into tensor<11008x4096xf32>
    %extracted_slice_511 = tensor.extract_slice %arg0[6562254848] [45088768] [1] : tensor<6755192832xf32> to tensor<45088768xf32>
    %expanded_512 = tensor.expand_shape %extracted_slice_511 [[0, 1]] : tensor<45088768xf32> into tensor<4096x11008xf32>
    %extracted_slice_513 = tensor.extract_slice %arg0[6607343616] [131072000] [1] : tensor<6755192832xf32> to tensor<131072000xf32>
    %expanded_514 = tensor.expand_shape %extracted_slice_513 [[0, 1]] : tensor<131072000xf32> into tensor<32000x4096xf32>
    %extracted_slice_515 = tensor.extract_slice %arg0[6738415616] [262144] [1] : tensor<6755192832xf32> to tensor<262144xf32>
    %expanded_516 = tensor.expand_shape %extracted_slice_515 [[0, 1, 2, 3]] : tensor<262144xf32> into tensor<1x1x2048x128xf32>
    %extracted_slice_517 = tensor.extract_slice %arg0[6738677760] [262144] [1] : tensor<6755192832xf32> to tensor<262144xf32>
    %expanded_518 = tensor.expand_shape %extracted_slice_517 [[0, 1, 2, 3]] : tensor<262144xf32> into tensor<1x1x2048x128xf32>
    %extracted_slice_519 = tensor.extract_slice %arg0[6738939904] [262144] [1] : tensor<6755192832xf32> to tensor<262144xf32>
    %expanded_520 = tensor.expand_shape %extracted_slice_519 [[0, 1, 2, 3]] : tensor<262144xf32> into tensor<1x1x2048x128xf32>
    %extracted_slice_521 = tensor.extract_slice %arg0[6739202048] [262144] [1] : tensor<6755192832xf32> to tensor<262144xf32>
    %expanded_522 = tensor.expand_shape %extracted_slice_521 [[0, 1, 2, 3]] : tensor<262144xf32> into tensor<1x1x2048x128xf32>
    %extracted_slice_523 = tensor.extract_slice %arg0[6739464192] [262144] [1] : tensor<6755192832xf32> to tensor<262144xf32>
    %expanded_524 = tensor.expand_shape %extracted_slice_523 [[0, 1, 2, 3]] : tensor<262144xf32> into tensor<1x1x2048x128xf32>
    %extracted_slice_525 = tensor.extract_slice %arg0[6739726336] [262144] [1] : tensor<6755192832xf32> to tensor<262144xf32>
    %expanded_526 = tensor.expand_shape %extracted_slice_525 [[0, 1, 2, 3]] : tensor<262144xf32> into tensor<1x1x2048x128xf32>
    %extracted_slice_527 = tensor.extract_slice %arg0[6739988480] [262144] [1] : tensor<6755192832xf32> to tensor<262144xf32>
    %expanded_528 = tensor.expand_shape %extracted_slice_527 [[0, 1, 2, 3]] : tensor<262144xf32> into tensor<1x1x2048x128xf32>
    %extracted_slice_529 = tensor.extract_slice %arg0[6740250624] [262144] [1] : tensor<6755192832xf32> to tensor<262144xf32>
    %expanded_530 = tensor.expand_shape %extracted_slice_529 [[0, 1, 2, 3]] : tensor<262144xf32> into tensor<1x1x2048x128xf32>
    %extracted_slice_531 = tensor.extract_slice %arg0[6740512768] [262144] [1] : tensor<6755192832xf32> to tensor<262144xf32>
    %expanded_532 = tensor.expand_shape %extracted_slice_531 [[0, 1, 2, 3]] : tensor<262144xf32> into tensor<1x1x2048x128xf32>
    %extracted_slice_533 = tensor.extract_slice %arg0[6740774912] [262144] [1] : tensor<6755192832xf32> to tensor<262144xf32>
    %expanded_534 = tensor.expand_shape %extracted_slice_533 [[0, 1, 2, 3]] : tensor<262144xf32> into tensor<1x1x2048x128xf32>
    %extracted_slice_535 = tensor.extract_slice %arg0[6741037056] [262144] [1] : tensor<6755192832xf32> to tensor<262144xf32>
    %expanded_536 = tensor.expand_shape %extracted_slice_535 [[0, 1, 2, 3]] : tensor<262144xf32> into tensor<1x1x2048x128xf32>
    %extracted_slice_537 = tensor.extract_slice %arg0[6741299200] [262144] [1] : tensor<6755192832xf32> to tensor<262144xf32>
    %expanded_538 = tensor.expand_shape %extracted_slice_537 [[0, 1, 2, 3]] : tensor<262144xf32> into tensor<1x1x2048x128xf32>
    %extracted_slice_539 = tensor.extract_slice %arg0[6741561344] [262144] [1] : tensor<6755192832xf32> to tensor<262144xf32>
    %expanded_540 = tensor.expand_shape %extracted_slice_539 [[0, 1, 2, 3]] : tensor<262144xf32> into tensor<1x1x2048x128xf32>
    %extracted_slice_541 = tensor.extract_slice %arg0[6741823488] [262144] [1] : tensor<6755192832xf32> to tensor<262144xf32>
    %expanded_542 = tensor.expand_shape %extracted_slice_541 [[0, 1, 2, 3]] : tensor<262144xf32> into tensor<1x1x2048x128xf32>
    %extracted_slice_543 = tensor.extract_slice %arg0[6742085632] [262144] [1] : tensor<6755192832xf32> to tensor<262144xf32>
    %expanded_544 = tensor.expand_shape %extracted_slice_543 [[0, 1, 2, 3]] : tensor<262144xf32> into tensor<1x1x2048x128xf32>
    %extracted_slice_545 = tensor.extract_slice %arg0[6742347776] [262144] [1] : tensor<6755192832xf32> to tensor<262144xf32>
    %expanded_546 = tensor.expand_shape %extracted_slice_545 [[0, 1, 2, 3]] : tensor<262144xf32> into tensor<1x1x2048x128xf32>
    %extracted_slice_547 = tensor.extract_slice %arg0[6742609920] [262144] [1] : tensor<6755192832xf32> to tensor<262144xf32>
    %expanded_548 = tensor.expand_shape %extracted_slice_547 [[0, 1, 2, 3]] : tensor<262144xf32> into tensor<1x1x2048x128xf32>
    %extracted_slice_549 = tensor.extract_slice %arg0[6742872064] [262144] [1] : tensor<6755192832xf32> to tensor<262144xf32>
    %expanded_550 = tensor.expand_shape %extracted_slice_549 [[0, 1, 2, 3]] : tensor<262144xf32> into tensor<1x1x2048x128xf32>
    %extracted_slice_551 = tensor.extract_slice %arg0[6743134208] [262144] [1] : tensor<6755192832xf32> to tensor<262144xf32>
    %expanded_552 = tensor.expand_shape %extracted_slice_551 [[0, 1, 2, 3]] : tensor<262144xf32> into tensor<1x1x2048x128xf32>
    %extracted_slice_553 = tensor.extract_slice %arg0[6743396352] [262144] [1] : tensor<6755192832xf32> to tensor<262144xf32>
    %expanded_554 = tensor.expand_shape %extracted_slice_553 [[0, 1, 2, 3]] : tensor<262144xf32> into tensor<1x1x2048x128xf32>
    %extracted_slice_555 = tensor.extract_slice %arg0[6743658496] [262144] [1] : tensor<6755192832xf32> to tensor<262144xf32>
    %expanded_556 = tensor.expand_shape %extracted_slice_555 [[0, 1, 2, 3]] : tensor<262144xf32> into tensor<1x1x2048x128xf32>
    %extracted_slice_557 = tensor.extract_slice %arg0[6743920640] [262144] [1] : tensor<6755192832xf32> to tensor<262144xf32>
    %expanded_558 = tensor.expand_shape %extracted_slice_557 [[0, 1, 2, 3]] : tensor<262144xf32> into tensor<1x1x2048x128xf32>
    %extracted_slice_559 = tensor.extract_slice %arg0[6744182784] [262144] [1] : tensor<6755192832xf32> to tensor<262144xf32>
    %expanded_560 = tensor.expand_shape %extracted_slice_559 [[0, 1, 2, 3]] : tensor<262144xf32> into tensor<1x1x2048x128xf32>
    %extracted_slice_561 = tensor.extract_slice %arg0[6744444928] [262144] [1] : tensor<6755192832xf32> to tensor<262144xf32>
    %expanded_562 = tensor.expand_shape %extracted_slice_561 [[0, 1, 2, 3]] : tensor<262144xf32> into tensor<1x1x2048x128xf32>
    %extracted_slice_563 = tensor.extract_slice %arg0[6744707072] [262144] [1] : tensor<6755192832xf32> to tensor<262144xf32>
    %expanded_564 = tensor.expand_shape %extracted_slice_563 [[0, 1, 2, 3]] : tensor<262144xf32> into tensor<1x1x2048x128xf32>
    %extracted_slice_565 = tensor.extract_slice %arg0[6744969216] [262144] [1] : tensor<6755192832xf32> to tensor<262144xf32>
    %expanded_566 = tensor.expand_shape %extracted_slice_565 [[0, 1, 2, 3]] : tensor<262144xf32> into tensor<1x1x2048x128xf32>
    %extracted_slice_567 = tensor.extract_slice %arg0[6745231360] [262144] [1] : tensor<6755192832xf32> to tensor<262144xf32>
    %expanded_568 = tensor.expand_shape %extracted_slice_567 [[0, 1, 2, 3]] : tensor<262144xf32> into tensor<1x1x2048x128xf32>
    %extracted_slice_569 = tensor.extract_slice %arg0[6745493504] [262144] [1] : tensor<6755192832xf32> to tensor<262144xf32>
    %expanded_570 = tensor.expand_shape %extracted_slice_569 [[0, 1, 2, 3]] : tensor<262144xf32> into tensor<1x1x2048x128xf32>
    %extracted_slice_571 = tensor.extract_slice %arg0[6745755648] [262144] [1] : tensor<6755192832xf32> to tensor<262144xf32>
    %expanded_572 = tensor.expand_shape %extracted_slice_571 [[0, 1, 2, 3]] : tensor<262144xf32> into tensor<1x1x2048x128xf32>
    %extracted_slice_573 = tensor.extract_slice %arg0[6746017792] [262144] [1] : tensor<6755192832xf32> to tensor<262144xf32>
    %expanded_574 = tensor.expand_shape %extracted_slice_573 [[0, 1, 2, 3]] : tensor<262144xf32> into tensor<1x1x2048x128xf32>
    %extracted_slice_575 = tensor.extract_slice %arg0[6746279936] [262144] [1] : tensor<6755192832xf32> to tensor<262144xf32>
    %expanded_576 = tensor.expand_shape %extracted_slice_575 [[0, 1, 2, 3]] : tensor<262144xf32> into tensor<1x1x2048x128xf32>
    %extracted_slice_577 = tensor.extract_slice %arg0[6746542080] [262144] [1] : tensor<6755192832xf32> to tensor<262144xf32>
    %expanded_578 = tensor.expand_shape %extracted_slice_577 [[0, 1, 2, 3]] : tensor<262144xf32> into tensor<1x1x2048x128xf32>
    %extracted_slice_579 = tensor.extract_slice %arg0[6746804224] [262144] [1] : tensor<6755192832xf32> to tensor<262144xf32>
    %expanded_580 = tensor.expand_shape %extracted_slice_579 [[0, 1, 2, 3]] : tensor<262144xf32> into tensor<1x1x2048x128xf32>
    %extracted_slice_581 = tensor.extract_slice %arg0[6747066368] [262144] [1] : tensor<6755192832xf32> to tensor<262144xf32>
    %expanded_582 = tensor.expand_shape %extracted_slice_581 [[0, 1, 2, 3]] : tensor<262144xf32> into tensor<1x1x2048x128xf32>
    %extracted_slice_583 = tensor.extract_slice %arg0[6747328512] [262144] [1] : tensor<6755192832xf32> to tensor<262144xf32>
    %expanded_584 = tensor.expand_shape %extracted_slice_583 [[0, 1, 2, 3]] : tensor<262144xf32> into tensor<1x1x2048x128xf32>
    %extracted_slice_585 = tensor.extract_slice %arg0[6747590656] [262144] [1] : tensor<6755192832xf32> to tensor<262144xf32>
    %expanded_586 = tensor.expand_shape %extracted_slice_585 [[0, 1, 2, 3]] : tensor<262144xf32> into tensor<1x1x2048x128xf32>
    %extracted_slice_587 = tensor.extract_slice %arg0[6747852800] [262144] [1] : tensor<6755192832xf32> to tensor<262144xf32>
    %expanded_588 = tensor.expand_shape %extracted_slice_587 [[0, 1, 2, 3]] : tensor<262144xf32> into tensor<1x1x2048x128xf32>
    %extracted_slice_589 = tensor.extract_slice %arg0[6748114944] [262144] [1] : tensor<6755192832xf32> to tensor<262144xf32>
    %expanded_590 = tensor.expand_shape %extracted_slice_589 [[0, 1, 2, 3]] : tensor<262144xf32> into tensor<1x1x2048x128xf32>
    %extracted_slice_591 = tensor.extract_slice %arg0[6748377088] [262144] [1] : tensor<6755192832xf32> to tensor<262144xf32>
    %expanded_592 = tensor.expand_shape %extracted_slice_591 [[0, 1, 2, 3]] : tensor<262144xf32> into tensor<1x1x2048x128xf32>
    %extracted_slice_593 = tensor.extract_slice %arg0[6748639232] [262144] [1] : tensor<6755192832xf32> to tensor<262144xf32>
    %expanded_594 = tensor.expand_shape %extracted_slice_593 [[0, 1, 2, 3]] : tensor<262144xf32> into tensor<1x1x2048x128xf32>
    %extracted_slice_595 = tensor.extract_slice %arg0[6748901376] [262144] [1] : tensor<6755192832xf32> to tensor<262144xf32>
    %expanded_596 = tensor.expand_shape %extracted_slice_595 [[0, 1, 2, 3]] : tensor<262144xf32> into tensor<1x1x2048x128xf32>
    %extracted_slice_597 = tensor.extract_slice %arg0[6749163520] [262144] [1] : tensor<6755192832xf32> to tensor<262144xf32>
    %expanded_598 = tensor.expand_shape %extracted_slice_597 [[0, 1, 2, 3]] : tensor<262144xf32> into tensor<1x1x2048x128xf32>
    %extracted_slice_599 = tensor.extract_slice %arg0[6749425664] [262144] [1] : tensor<6755192832xf32> to tensor<262144xf32>
    %expanded_600 = tensor.expand_shape %extracted_slice_599 [[0, 1, 2, 3]] : tensor<262144xf32> into tensor<1x1x2048x128xf32>
    %extracted_slice_601 = tensor.extract_slice %arg0[6749687808] [262144] [1] : tensor<6755192832xf32> to tensor<262144xf32>
    %expanded_602 = tensor.expand_shape %extracted_slice_601 [[0, 1, 2, 3]] : tensor<262144xf32> into tensor<1x1x2048x128xf32>
    %extracted_slice_603 = tensor.extract_slice %arg0[6749949952] [262144] [1] : tensor<6755192832xf32> to tensor<262144xf32>
    %expanded_604 = tensor.expand_shape %extracted_slice_603 [[0, 1, 2, 3]] : tensor<262144xf32> into tensor<1x1x2048x128xf32>
    %extracted_slice_605 = tensor.extract_slice %arg0[6750212096] [262144] [1] : tensor<6755192832xf32> to tensor<262144xf32>
    %expanded_606 = tensor.expand_shape %extracted_slice_605 [[0, 1, 2, 3]] : tensor<262144xf32> into tensor<1x1x2048x128xf32>
    %extracted_slice_607 = tensor.extract_slice %arg0[6750474240] [262144] [1] : tensor<6755192832xf32> to tensor<262144xf32>
    %expanded_608 = tensor.expand_shape %extracted_slice_607 [[0, 1, 2, 3]] : tensor<262144xf32> into tensor<1x1x2048x128xf32>
    %extracted_slice_609 = tensor.extract_slice %arg0[6750736384] [262144] [1] : tensor<6755192832xf32> to tensor<262144xf32>
    %expanded_610 = tensor.expand_shape %extracted_slice_609 [[0, 1, 2, 3]] : tensor<262144xf32> into tensor<1x1x2048x128xf32>
    %extracted_slice_611 = tensor.extract_slice %arg0[6750998528] [262144] [1] : tensor<6755192832xf32> to tensor<262144xf32>
    %expanded_612 = tensor.expand_shape %extracted_slice_611 [[0, 1, 2, 3]] : tensor<262144xf32> into tensor<1x1x2048x128xf32>
    %extracted_slice_613 = tensor.extract_slice %arg0[6751260672] [262144] [1] : tensor<6755192832xf32> to tensor<262144xf32>
    %expanded_614 = tensor.expand_shape %extracted_slice_613 [[0, 1, 2, 3]] : tensor<262144xf32> into tensor<1x1x2048x128xf32>
    %extracted_slice_615 = tensor.extract_slice %arg0[6751522816] [262144] [1] : tensor<6755192832xf32> to tensor<262144xf32>
    %expanded_616 = tensor.expand_shape %extracted_slice_615 [[0, 1, 2, 3]] : tensor<262144xf32> into tensor<1x1x2048x128xf32>
    %extracted_slice_617 = tensor.extract_slice %arg0[6751784960] [262144] [1] : tensor<6755192832xf32> to tensor<262144xf32>
    %expanded_618 = tensor.expand_shape %extracted_slice_617 [[0, 1, 2, 3]] : tensor<262144xf32> into tensor<1x1x2048x128xf32>
    %extracted_slice_619 = tensor.extract_slice %arg0[6752047104] [262144] [1] : tensor<6755192832xf32> to tensor<262144xf32>
    %expanded_620 = tensor.expand_shape %extracted_slice_619 [[0, 1, 2, 3]] : tensor<262144xf32> into tensor<1x1x2048x128xf32>
    %extracted_slice_621 = tensor.extract_slice %arg0[6752309248] [262144] [1] : tensor<6755192832xf32> to tensor<262144xf32>
    %expanded_622 = tensor.expand_shape %extracted_slice_621 [[0, 1, 2, 3]] : tensor<262144xf32> into tensor<1x1x2048x128xf32>
    %extracted_slice_623 = tensor.extract_slice %arg0[6752571392] [262144] [1] : tensor<6755192832xf32> to tensor<262144xf32>
    %expanded_624 = tensor.expand_shape %extracted_slice_623 [[0, 1, 2, 3]] : tensor<262144xf32> into tensor<1x1x2048x128xf32>
    %extracted_slice_625 = tensor.extract_slice %arg0[6752833536] [262144] [1] : tensor<6755192832xf32> to tensor<262144xf32>
    %expanded_626 = tensor.expand_shape %extracted_slice_625 [[0, 1, 2, 3]] : tensor<262144xf32> into tensor<1x1x2048x128xf32>
    %extracted_slice_627 = tensor.extract_slice %arg0[6753095680] [262144] [1] : tensor<6755192832xf32> to tensor<262144xf32>
    %expanded_628 = tensor.expand_shape %extracted_slice_627 [[0, 1, 2, 3]] : tensor<262144xf32> into tensor<1x1x2048x128xf32>
    %extracted_slice_629 = tensor.extract_slice %arg0[6753357824] [262144] [1] : tensor<6755192832xf32> to tensor<262144xf32>
    %expanded_630 = tensor.expand_shape %extracted_slice_629 [[0, 1, 2, 3]] : tensor<262144xf32> into tensor<1x1x2048x128xf32>
    %extracted_slice_631 = tensor.extract_slice %arg0[6753619968] [262144] [1] : tensor<6755192832xf32> to tensor<262144xf32>
    %expanded_632 = tensor.expand_shape %extracted_slice_631 [[0, 1, 2, 3]] : tensor<262144xf32> into tensor<1x1x2048x128xf32>
    %extracted_slice_633 = tensor.extract_slice %arg0[6753882112] [262144] [1] : tensor<6755192832xf32> to tensor<262144xf32>
    %expanded_634 = tensor.expand_shape %extracted_slice_633 [[0, 1, 2, 3]] : tensor<262144xf32> into tensor<1x1x2048x128xf32>
    %extracted_slice_635 = tensor.extract_slice %arg0[6754144256] [262144] [1] : tensor<6755192832xf32> to tensor<262144xf32>
    %expanded_636 = tensor.expand_shape %extracted_slice_635 [[0, 1, 2, 3]] : tensor<262144xf32> into tensor<1x1x2048x128xf32>
    %extracted_slice_637 = tensor.extract_slice %arg0[6754406400] [262144] [1] : tensor<6755192832xf32> to tensor<262144xf32>
    %expanded_638 = tensor.expand_shape %extracted_slice_637 [[0, 1, 2, 3]] : tensor<262144xf32> into tensor<1x1x2048x128xf32>
    %extracted_slice_639 = tensor.extract_slice %arg0[6754668544] [262144] [1] : tensor<6755192832xf32> to tensor<262144xf32>
    %expanded_640 = tensor.expand_shape %extracted_slice_639 [[0, 1, 2, 3]] : tensor<262144xf32> into tensor<1x1x2048x128xf32>
    %extracted_slice_641 = tensor.extract_slice %arg0[6754930688] [262144] [1] : tensor<6755192832xf32> to tensor<262144xf32>
    %expanded_642 = tensor.expand_shape %extracted_slice_641 [[0, 1, 2, 3]] : tensor<262144xf32> into tensor<1x1x2048x128xf32>
    %cst = arith.constant dense<[0, 1, 2, 3, 4, 5, 6, 7, 8, 9, 10, 11, 12, 13, 14, 15, 16, 17, 18, 19, 20, 21, 22, 23, 24, 25, 26, 27, 28, 29, 30, 31, 32, 33, 34, 35, 36, 37, 38, 39, 40, 41, 42, 43, 44, 45, 46, 47, 48, 49, 50, 51, 52, 53, 54, 55, 56, 57, 58, 59, 60, 61, 62, 63, 64, 65, 66, 67, 68, 69, 70, 71, 72, 73, 74, 75, 76, 77, 78, 79]> : tensor<80xi64>
    %cst_643 = arith.constant dense<[[0, 1, 2, 3, 4, 5, 6, 7, 8, 9, 10, 11, 12, 13, 14, 15, 16, 17, 18, 19, 20, 21, 22, 23, 24, 25, 26, 27, 28, 29, 30, 31, 32, 33, 34, 35, 36, 37, 38, 39, 40, 41, 42, 43, 44, 45, 46, 47, 48, 49, 50, 51, 52, 53, 54, 55, 56, 57, 58, 59, 60, 61, 62, 63, 64, 65, 66, 67, 68, 69, 70, 71, 72, 73, 74, 75, 76, 77, 78, 79]]> : tensor<1x80xi64>
    %0 = tensor.empty() : tensor<1x80xi32>
    %1 = linalg.generic {indexing_maps = [#map, #map], iterator_types = ["parallel", "parallel"]} ins(%arg1 : tensor<1x80xi64>) outs(%0 : tensor<1x80xi32>) {
    ^bb0(%in: i64, %out: i32):
      %3652 = arith.trunci %in : i64 to i32
      linalg.yield %3652 : i32
    } -> tensor<1x80xi32>
    %expanded_644 = tensor.expand_shape %expanded [[0, 1], [2]] : tensor<32000x4096xf32> into tensor<1x32000x4096xf32>
    %2 = tensor.empty() : tensor<1x80x4096xf32>
    %3 = linalg.generic {indexing_maps = [#map1, #map2], iterator_types = ["parallel", "parallel", "parallel"]} ins(%1 : tensor<1x80xi32>) outs(%2 : tensor<1x80x4096xf32>) {
    ^bb0(%in: i32, %out: f32):
      %3652 = linalg.index 0 : index
      %3653 = arith.index_cast %in : i32 to index
      %3654 = linalg.index 2 : index
      %extracted = tensor.extract %expanded_644[%3652, %3653, %3654] : tensor<1x32000x4096xf32>
      linalg.yield %extracted : f32
    } -> tensor<1x80x4096xf32>
    %cst_645 = arith.constant dense<true> : tensor<1x80xi1>
    %cst_646 = arith.constant dense<-3.40282347E+38> : tensor<80x80xf32>
    %cst_647 = arith.constant dense<[0, 1, 2, 3, 4, 5, 6, 7, 8, 9, 10, 11, 12, 13, 14, 15, 16, 17, 18, 19, 20, 21, 22, 23, 24, 25, 26, 27, 28, 29, 30, 31, 32, 33, 34, 35, 36, 37, 38, 39, 40, 41, 42, 43, 44, 45, 46, 47, 48, 49, 50, 51, 52, 53, 54, 55, 56, 57, 58, 59, 60, 61, 62, 63, 64, 65, 66, 67, 68, 69, 70, 71, 72, 73, 74, 75, 76, 77, 78, 79]> : tensor<80xi64>
    %cst_648 = arith.constant dense<1> : tensor<80xi64>
    %4 = tensor.empty() : tensor<80xi64>
    %5 = linalg.generic {indexing_maps = [#map3, #map3, #map3], iterator_types = ["parallel"]} ins(%cst_647, %cst_648 : tensor<80xi64>, tensor<80xi64>) outs(%4 : tensor<80xi64>) {
    ^bb0(%in: i64, %in_2684: i64, %out: i64):
      %3652 = arith.addi %in, %in_2684 : i64
      linalg.yield %3652 : i64
    } -> tensor<80xi64>
    %expanded_649 = tensor.expand_shape %5 [[0, 1]] : tensor<80xi64> into tensor<80x1xi64>
    %6 = tensor.empty() : tensor<80x80xi1>
    %7 = linalg.generic {indexing_maps = [#map4, #map5, #map1], iterator_types = ["parallel", "parallel", "reduction"]} ins(%cst_647, %expanded_649 : tensor<80xi64>, tensor<80x1xi64>) outs(%6 : tensor<80x80xi1>) {
    ^bb0(%in: i64, %in_2684: i64, %out: i1):
      %3652 = arith.cmpi slt, %in, %in_2684 : i64
      linalg.yield %3652 : i1
    } -> tensor<80x80xi1>
    %cst_650 = arith.constant 0.000000e+00 : f32
    %8 = tensor.empty() : tensor<80x80xf32>
    %9 = linalg.generic {indexing_maps = [#map, #map, #map], iterator_types = ["parallel", "parallel"]} ins(%cst_646, %7 : tensor<80x80xf32>, tensor<80x80xi1>) outs(%8 : tensor<80x80xf32>) {
    ^bb0(%in: f32, %in_2684: i1, %out: f32):
      %3652 = arith.select %in_2684, %cst_650, %in : f32
      linalg.yield %3652 : f32
    } -> tensor<80x80xf32>
    %cst_651 = arith.constant dense<true> : tensor<1x80xi1>
    %expanded_652 = tensor.expand_shape %cst_651 [[0, 1], [2]] : tensor<1x80xi1> into tensor<1x1x80xi1>
    %expanded_653 = tensor.expand_shape %expanded_652 [[0], [1, 2], [3]] : tensor<1x1x80xi1> into tensor<1x1x1x80xi1>
    %cst_654 = arith.constant dense<false> : tensor<1x1x80x80xi1>
    %10 = tensor.empty() : tensor<1x1x80x80xi1>
    %collapsed = tensor.collapse_shape %expanded_653 [[0], [1, 2], [3]] : tensor<1x1x1x80xi1> into tensor<1x1x80xi1>
    %11 = linalg.generic {indexing_maps = [#map6, #map7, #map7], iterator_types = ["parallel", "parallel", "parallel", "parallel"]} ins(%collapsed, %cst_654 : tensor<1x1x80xi1>, tensor<1x1x80x80xi1>) outs(%10 : tensor<1x1x80x80xi1>) {
    ^bb0(%in: i1, %in_2684: i1, %out: i1):
      %3652 = arith.addi %in, %in_2684 : i1
      linalg.yield %3652 : i1
    } -> tensor<1x1x80x80xi1>
    %12 = tensor.empty() : tensor<1x1x80x80xf32>
    %13 = linalg.generic {indexing_maps = [#map7, #map7], iterator_types = ["parallel", "parallel", "parallel", "parallel"]} ins(%11 : tensor<1x1x80x80xi1>) outs(%12 : tensor<1x1x80x80xf32>) {
    ^bb0(%in: i1, %out: f32):
      %3652 = arith.extui %in : i1 to i32
      %3653 = arith.sitofp %3652 : i32 to f32
      linalg.yield %3653 : f32
    } -> tensor<1x1x80x80xf32>
    %cst_655 = arith.constant 1.000000e+00 : f32
    %14 = tensor.empty() : tensor<1x1x80x80xf32>
    %15 = linalg.generic {indexing_maps = [#map7, #map7], iterator_types = ["parallel", "parallel", "parallel", "parallel"]} ins(%13 : tensor<1x1x80x80xf32>) outs(%14 : tensor<1x1x80x80xf32>) {
    ^bb0(%in: f32, %out: f32):
      %3652 = arith.subf %cst_655, %in : f32
      linalg.yield %3652 : f32
    } -> tensor<1x1x80x80xf32>
    %16 = tensor.empty() : tensor<1x1x80x80xi1>
    %17 = linalg.generic {indexing_maps = [#map7, #map7], iterator_types = ["parallel", "parallel", "parallel", "parallel"]} ins(%15 : tensor<1x1x80x80xf32>) outs(%16 : tensor<1x1x80x80xi1>) {
    ^bb0(%in: f32, %out: i1):
      %3652 = arith.fptosi %in : f32 to i32
      %3653 = arith.trunci %3652 : i32 to i1
      linalg.yield %3653 : i1
    } -> tensor<1x1x80x80xi1>
    %cst_656 = arith.constant -3.40282347E+38 : f32
    %18 = tensor.empty() : tensor<1x1x80x80xf32>
    %19 = linalg.generic {indexing_maps = [#map7, #map7, #map7], iterator_types = ["parallel", "parallel", "parallel", "parallel"]} ins(%15, %17 : tensor<1x1x80x80xf32>, tensor<1x1x80x80xi1>) outs(%18 : tensor<1x1x80x80xf32>) {
    ^bb0(%in: f32, %in_2684: i1, %out: f32):
      %3652 = arith.select %in_2684, %cst_656, %in : f32
      linalg.yield %3652 : f32
    } -> tensor<1x1x80x80xf32>
    %expanded_657 = tensor.expand_shape %9 [[0, 1], [2]] : tensor<80x80xf32> into tensor<1x80x80xf32>
    %expanded_658 = tensor.expand_shape %expanded_657 [[0, 1], [2], [3]] : tensor<1x80x80xf32> into tensor<1x1x80x80xf32>
    %cst_659 = arith.constant dense<0.000000e+00> : tensor<1x1x80x80xf32>
    %20 = tensor.empty() : tensor<1x1x80x80xf32>
    %21 = linalg.generic {indexing_maps = [#map7, #map7, #map7], iterator_types = ["parallel", "parallel", "parallel", "parallel"]} ins(%19, %expanded_658 : tensor<1x1x80x80xf32>, tensor<1x1x80x80xf32>) outs(%20 : tensor<1x1x80x80xf32>) {
    ^bb0(%in: f32, %in_2684: f32, %out: f32):
      %3652 = arith.addf %in, %in_2684 : f32
      linalg.yield %3652 : f32
    } -> tensor<1x1x80x80xf32>
    %22 = tensor.empty() : tensor<1x80x4096xf32>
    %cst_660 = arith.constant 2.000000e+00 : f32
    %23 = linalg.generic {indexing_maps = [#map2, #map2], iterator_types = ["parallel", "parallel", "parallel"]} ins(%3 : tensor<1x80x4096xf32>) outs(%22 : tensor<1x80x4096xf32>) {
    ^bb0(%in: f32, %out: f32):
      %3652 = math.powf %in, %cst_660 : f32
      linalg.yield %3652 : f32
    } -> tensor<1x80x4096xf32>
    %cst_661 = arith.constant dense<0.000000e+00> : tensor<1x80x1xf32>
    %24 = linalg.generic {indexing_maps = [#map8, #map6], iterator_types = ["parallel", "parallel", "reduction", "parallel"]} ins(%23 : tensor<1x80x4096xf32>) outs(%cst_661 : tensor<1x80x1xf32>) {
    ^bb0(%in: f32, %out: f32):
      %cst_2684 = arith.constant 4.096000e+03 : f32
      %3652 = arith.divf %in, %cst_2684 : f32
      %3653 = arith.addf %3652, %out : f32
      linalg.yield %3653 : f32
    } -> tensor<1x80x1xf32>
    %cst_662 = arith.constant dense<9.99999974E-6> : tensor<1x80x1xf32>
    %25 = tensor.empty() : tensor<1x80x1xf32>
    %26 = linalg.generic {indexing_maps = [#map2, #map2, #map2], iterator_types = ["parallel", "parallel", "parallel"]} ins(%24, %cst_662 : tensor<1x80x1xf32>, tensor<1x80x1xf32>) outs(%25 : tensor<1x80x1xf32>) {
    ^bb0(%in: f32, %in_2684: f32, %out: f32):
      %3652 = arith.addf %in, %in_2684 : f32
      linalg.yield %3652 : f32
    } -> tensor<1x80x1xf32>
    %27 = tensor.empty() : tensor<1x80x1xf32>
    %28 = linalg.generic {indexing_maps = [#map2, #map2], iterator_types = ["parallel", "parallel", "parallel"]} ins(%26 : tensor<1x80x1xf32>) outs(%27 : tensor<1x80x1xf32>) {
    ^bb0(%in: f32, %out: f32):
      %3652 = math.rsqrt %in : f32
      linalg.yield %3652 : f32
    } -> tensor<1x80x1xf32>
    %29 = tensor.empty() : tensor<1x80x4096xf32>
    %collapsed_663 = tensor.collapse_shape %28 [[0], [1, 2]] : tensor<1x80x1xf32> into tensor<1x80xf32>
    %30 = linalg.generic {indexing_maps = [#map2, #map1, #map2], iterator_types = ["parallel", "parallel", "parallel"]} ins(%3, %collapsed_663 : tensor<1x80x4096xf32>, tensor<1x80xf32>) outs(%29 : tensor<1x80x4096xf32>) {
    ^bb0(%in: f32, %in_2684: f32, %out: f32):
      %3652 = arith.mulf %in, %in_2684 : f32
      linalg.yield %3652 : f32
    } -> tensor<1x80x4096xf32>
    %expanded_664 = tensor.expand_shape %extracted_slice [[0, 1, 2]] : tensor<4096xf32> into tensor<1x1x4096xf32>
    %31 = tensor.empty() : tensor<1x80x4096xf32>
    %collapsed_665 = tensor.collapse_shape %expanded_664 [[0, 1], [2]] : tensor<1x1x4096xf32> into tensor<1x4096xf32>
    %32 = linalg.generic {indexing_maps = [#map5, #map2, #map2], iterator_types = ["parallel", "parallel", "parallel"]} ins(%collapsed_665, %30 : tensor<1x4096xf32>, tensor<1x80x4096xf32>) outs(%31 : tensor<1x80x4096xf32>) {
    ^bb0(%in: f32, %in_2684: f32, %out: f32):
      %3652 = arith.mulf %in, %in_2684 : f32
      linalg.yield %3652 : f32
    } -> tensor<1x80x4096xf32>
    %33 = tensor.empty() : tensor<4096x4096xf32>
    %34 = linalg.generic {indexing_maps = [#map, #map9], iterator_types = ["parallel", "parallel"]} ins(%expanded_66 : tensor<4096x4096xf32>) outs(%33 : tensor<4096x4096xf32>) {
    ^bb0(%in: f32, %out: f32):
      linalg.yield %in : f32
    } -> tensor<4096x4096xf32>
    %collapsed_666 = tensor.collapse_shape %32 [[0, 1], [2]] : tensor<1x80x4096xf32> into tensor<80x4096xf32>
    %cst_667 = arith.constant dense<0.000000e+00> : tensor<80x4096xf32>
    %35 = linalg.matmul {cast = #linalg.type_fn<cast_signed>} ins(%collapsed_666, %34 : tensor<80x4096xf32>, tensor<4096x4096xf32>) outs(%cst_667 : tensor<80x4096xf32>) -> tensor<80x4096xf32>
    %expanded_668 = tensor.expand_shape %35 [[0, 1], [2]] : tensor<80x4096xf32> into tensor<1x80x4096xf32>
    %36 = tensor.empty() : tensor<4096x4096xf32>
    %37 = linalg.generic {indexing_maps = [#map, #map9], iterator_types = ["parallel", "parallel"]} ins(%expanded_68 : tensor<4096x4096xf32>) outs(%36 : tensor<4096x4096xf32>) {
    ^bb0(%in: f32, %out: f32):
      linalg.yield %in : f32
    } -> tensor<4096x4096xf32>
    %collapsed_669 = tensor.collapse_shape %32 [[0, 1], [2]] : tensor<1x80x4096xf32> into tensor<80x4096xf32>
    %cst_670 = arith.constant dense<0.000000e+00> : tensor<80x4096xf32>
    %38 = linalg.matmul {cast = #linalg.type_fn<cast_signed>} ins(%collapsed_669, %37 : tensor<80x4096xf32>, tensor<4096x4096xf32>) outs(%cst_670 : tensor<80x4096xf32>) -> tensor<80x4096xf32>
    %expanded_671 = tensor.expand_shape %38 [[0, 1], [2]] : tensor<80x4096xf32> into tensor<1x80x4096xf32>
    %39 = tensor.empty() : tensor<4096x4096xf32>
    %40 = linalg.generic {indexing_maps = [#map, #map9], iterator_types = ["parallel", "parallel"]} ins(%expanded_70 : tensor<4096x4096xf32>) outs(%39 : tensor<4096x4096xf32>) {
    ^bb0(%in: f32, %out: f32):
      linalg.yield %in : f32
    } -> tensor<4096x4096xf32>
    %collapsed_672 = tensor.collapse_shape %32 [[0, 1], [2]] : tensor<1x80x4096xf32> into tensor<80x4096xf32>
    %cst_673 = arith.constant dense<0.000000e+00> : tensor<80x4096xf32>
    %41 = linalg.matmul {cast = #linalg.type_fn<cast_signed>} ins(%collapsed_672, %40 : tensor<80x4096xf32>, tensor<4096x4096xf32>) outs(%cst_673 : tensor<80x4096xf32>) -> tensor<80x4096xf32>
    %expanded_674 = tensor.expand_shape %41 [[0, 1], [2]] : tensor<80x4096xf32> into tensor<1x80x4096xf32>
    %expanded_675 = tensor.expand_shape %expanded_668 [[0], [1], [2, 3]] : tensor<1x80x4096xf32> into tensor<1x80x32x128xf32>
    %42 = tensor.empty() : tensor<1x32x80x128xf32>
    %43 = linalg.generic {indexing_maps = [#map10, #map7], iterator_types = ["parallel", "parallel", "parallel", "parallel"]} ins(%expanded_675 : tensor<1x80x32x128xf32>) outs(%42 : tensor<1x32x80x128xf32>) {
    ^bb0(%in: f32, %out: f32):
      linalg.yield %in : f32
    } -> tensor<1x32x80x128xf32>
    %expanded_676 = tensor.expand_shape %expanded_671 [[0], [1], [2, 3]] : tensor<1x80x4096xf32> into tensor<1x80x32x128xf32>
    %44 = tensor.empty() : tensor<1x32x80x128xf32>
    %45 = linalg.generic {indexing_maps = [#map10, #map7], iterator_types = ["parallel", "parallel", "parallel", "parallel"]} ins(%expanded_676 : tensor<1x80x32x128xf32>) outs(%44 : tensor<1x32x80x128xf32>) {
    ^bb0(%in: f32, %out: f32):
      linalg.yield %in : f32
    } -> tensor<1x32x80x128xf32>
    %expanded_677 = tensor.expand_shape %expanded_674 [[0], [1], [2, 3]] : tensor<1x80x4096xf32> into tensor<1x80x32x128xf32>
    %46 = tensor.empty() : tensor<1x32x80x128xf32>
    %47 = linalg.generic {indexing_maps = [#map10, #map7], iterator_types = ["parallel", "parallel", "parallel", "parallel"]} ins(%expanded_677 : tensor<1x80x32x128xf32>) outs(%46 : tensor<1x32x80x128xf32>) {
    ^bb0(%in: f32, %out: f32):
      linalg.yield %in : f32
    } -> tensor<1x32x80x128xf32>
    %extracted_slice_678 = tensor.extract_slice %expanded_516[0, 0, 0, 0] [1, 1, 80, 128] [1, 1, 1, 1] : tensor<1x1x2048x128xf32> to tensor<1x1x80x128xf32>
    %extracted_slice_679 = tensor.extract_slice %expanded_518[0, 0, 0, 0] [1, 1, 80, 128] [1, 1, 1, 1] : tensor<1x1x2048x128xf32> to tensor<1x1x80x128xf32>
    %48 = tensor.empty() : tensor<1x80x128xf32>
    %49 = linalg.generic {indexing_maps = [#map11, #map2], iterator_types = ["parallel", "parallel", "parallel"]} ins(%extracted_slice_678 : tensor<1x1x80x128xf32>) outs(%48 : tensor<1x80x128xf32>) {
    ^bb0(%in: f32, %out: f32):
      linalg.yield %in : f32
    } -> tensor<1x80x128xf32>
    %50 = tensor.empty() : tensor<80x128xf32>
    %51 = linalg.generic {indexing_maps = [#map12, #map], iterator_types = ["parallel", "parallel"]} ins(%49 : tensor<1x80x128xf32>) outs(%50 : tensor<80x128xf32>) {
    ^bb0(%in: f32, %out: f32):
      linalg.yield %in : f32
    } -> tensor<80x128xf32>
    %52 = tensor.empty() : tensor<1x80x128xf32>
    %53 = linalg.generic {indexing_maps = [#map11, #map2], iterator_types = ["parallel", "parallel", "parallel"]} ins(%extracted_slice_679 : tensor<1x1x80x128xf32>) outs(%52 : tensor<1x80x128xf32>) {
    ^bb0(%in: f32, %out: f32):
      linalg.yield %in : f32
    } -> tensor<1x80x128xf32>
    %54 = tensor.empty() : tensor<80x128xf32>
    %55 = linalg.generic {indexing_maps = [#map12, #map], iterator_types = ["parallel", "parallel"]} ins(%53 : tensor<1x80x128xf32>) outs(%54 : tensor<80x128xf32>) {
    ^bb0(%in: f32, %out: f32):
      linalg.yield %in : f32
    } -> tensor<80x128xf32>
    %56 = tensor.empty() : tensor<1x80x128xf32>
    %57 = linalg.generic {indexing_maps = [#map1, #map2], iterator_types = ["parallel", "parallel", "parallel"]} ins(%cst_643 : tensor<1x80xi64>) outs(%56 : tensor<1x80x128xf32>) {
    ^bb0(%in: i64, %out: f32):
      %3652 = arith.index_cast %in : i64 to index
      %3653 = linalg.index 2 : index
      %extracted = tensor.extract %51[%3652, %3653] : tensor<80x128xf32>
      linalg.yield %extracted : f32
    } -> tensor<1x80x128xf32>
    %expanded_680 = tensor.expand_shape %57 [[0, 1], [2], [3]] : tensor<1x80x128xf32> into tensor<1x1x80x128xf32>
    %58 = tensor.empty() : tensor<1x80x128xf32>
    %59 = linalg.generic {indexing_maps = [#map1, #map2], iterator_types = ["parallel", "parallel", "parallel"]} ins(%cst_643 : tensor<1x80xi64>) outs(%58 : tensor<1x80x128xf32>) {
    ^bb0(%in: i64, %out: f32):
      %3652 = arith.index_cast %in : i64 to index
      %3653 = linalg.index 2 : index
      %extracted = tensor.extract %55[%3652, %3653] : tensor<80x128xf32>
      linalg.yield %extracted : f32
    } -> tensor<1x80x128xf32>
    %expanded_681 = tensor.expand_shape %59 [[0, 1], [2], [3]] : tensor<1x80x128xf32> into tensor<1x1x80x128xf32>
    %60 = tensor.empty() : tensor<1x32x80x128xf32>
    %61 = linalg.generic {indexing_maps = [#map7, #map13, #map7], iterator_types = ["parallel", "parallel", "parallel", "parallel"]} ins(%43, %57 : tensor<1x32x80x128xf32>, tensor<1x80x128xf32>) outs(%60 : tensor<1x32x80x128xf32>) {
    ^bb0(%in: f32, %in_2684: f32, %out: f32):
      %3652 = arith.mulf %in, %in_2684 : f32
      linalg.yield %3652 : f32
    } -> tensor<1x32x80x128xf32>
    %extracted_slice_682 = tensor.extract_slice %43[0, 0, 0, 0] [1, 32, 80, 64] [1, 1, 1, 1] : tensor<1x32x80x128xf32> to tensor<1x32x80x64xf32>
    %extracted_slice_683 = tensor.extract_slice %43[0, 0, 0, 64] [1, 32, 80, 64] [1, 1, 1, 1] : tensor<1x32x80x128xf32> to tensor<1x32x80x64xf32>
    %62 = tensor.empty() : tensor<1x32x80x64xf32>
    %63 = linalg.generic {indexing_maps = [#map7, #map7], iterator_types = ["parallel", "parallel", "parallel", "parallel"]} ins(%extracted_slice_683 : tensor<1x32x80x64xf32>) outs(%62 : tensor<1x32x80x64xf32>) {
    ^bb0(%in: f32, %out: f32):
      %3652 = arith.negf %in : f32
      linalg.yield %3652 : f32
    } -> tensor<1x32x80x64xf32>
    %64 = tensor.empty() : tensor<1x32x80x128xf32>
    %inserted_slice = tensor.insert_slice %63 into %64[0, 0, 0, 0] [1, 32, 80, 64] [1, 1, 1, 1] : tensor<1x32x80x64xf32> into tensor<1x32x80x128xf32>
    %inserted_slice_684 = tensor.insert_slice %extracted_slice_682 into %inserted_slice[0, 0, 0, 64] [1, 32, 80, 64] [1, 1, 1, 1] : tensor<1x32x80x64xf32> into tensor<1x32x80x128xf32>
    %65 = tensor.empty() : tensor<1x32x80x128xf32>
    %66 = linalg.generic {indexing_maps = [#map7, #map13, #map7], iterator_types = ["parallel", "parallel", "parallel", "parallel"]} ins(%inserted_slice_684, %59 : tensor<1x32x80x128xf32>, tensor<1x80x128xf32>) outs(%65 : tensor<1x32x80x128xf32>) {
    ^bb0(%in: f32, %in_2684: f32, %out: f32):
      %3652 = arith.mulf %in, %in_2684 : f32
      linalg.yield %3652 : f32
    } -> tensor<1x32x80x128xf32>
    %67 = tensor.empty() : tensor<1x32x80x128xf32>
    %68 = linalg.generic {indexing_maps = [#map7, #map7, #map7], iterator_types = ["parallel", "parallel", "parallel", "parallel"]} ins(%61, %66 : tensor<1x32x80x128xf32>, tensor<1x32x80x128xf32>) outs(%67 : tensor<1x32x80x128xf32>) {
    ^bb0(%in: f32, %in_2684: f32, %out: f32):
      %3652 = arith.addf %in, %in_2684 : f32
      linalg.yield %3652 : f32
    } -> tensor<1x32x80x128xf32>
    %69 = tensor.empty() : tensor<1x32x80x128xf32>
    %70 = linalg.generic {indexing_maps = [#map7, #map13, #map7], iterator_types = ["parallel", "parallel", "parallel", "parallel"]} ins(%45, %57 : tensor<1x32x80x128xf32>, tensor<1x80x128xf32>) outs(%69 : tensor<1x32x80x128xf32>) {
    ^bb0(%in: f32, %in_2684: f32, %out: f32):
      %3652 = arith.mulf %in, %in_2684 : f32
      linalg.yield %3652 : f32
    } -> tensor<1x32x80x128xf32>
    %extracted_slice_685 = tensor.extract_slice %45[0, 0, 0, 0] [1, 32, 80, 64] [1, 1, 1, 1] : tensor<1x32x80x128xf32> to tensor<1x32x80x64xf32>
    %extracted_slice_686 = tensor.extract_slice %45[0, 0, 0, 64] [1, 32, 80, 64] [1, 1, 1, 1] : tensor<1x32x80x128xf32> to tensor<1x32x80x64xf32>
    %71 = tensor.empty() : tensor<1x32x80x64xf32>
    %72 = linalg.generic {indexing_maps = [#map7, #map7], iterator_types = ["parallel", "parallel", "parallel", "parallel"]} ins(%extracted_slice_686 : tensor<1x32x80x64xf32>) outs(%71 : tensor<1x32x80x64xf32>) {
    ^bb0(%in: f32, %out: f32):
      %3652 = arith.negf %in : f32
      linalg.yield %3652 : f32
    } -> tensor<1x32x80x64xf32>
    %73 = tensor.empty() : tensor<1x32x80x128xf32>
    %inserted_slice_687 = tensor.insert_slice %72 into %73[0, 0, 0, 0] [1, 32, 80, 64] [1, 1, 1, 1] : tensor<1x32x80x64xf32> into tensor<1x32x80x128xf32>
    %inserted_slice_688 = tensor.insert_slice %extracted_slice_685 into %inserted_slice_687[0, 0, 0, 64] [1, 32, 80, 64] [1, 1, 1, 1] : tensor<1x32x80x64xf32> into tensor<1x32x80x128xf32>
    %74 = tensor.empty() : tensor<1x32x80x128xf32>
    %75 = linalg.generic {indexing_maps = [#map7, #map13, #map7], iterator_types = ["parallel", "parallel", "parallel", "parallel"]} ins(%inserted_slice_688, %59 : tensor<1x32x80x128xf32>, tensor<1x80x128xf32>) outs(%74 : tensor<1x32x80x128xf32>) {
    ^bb0(%in: f32, %in_2684: f32, %out: f32):
      %3652 = arith.mulf %in, %in_2684 : f32
      linalg.yield %3652 : f32
    } -> tensor<1x32x80x128xf32>
    %76 = tensor.empty() : tensor<1x32x80x128xf32>
    %77 = linalg.generic {indexing_maps = [#map7, #map7, #map7], iterator_types = ["parallel", "parallel", "parallel", "parallel"]} ins(%70, %75 : tensor<1x32x80x128xf32>, tensor<1x32x80x128xf32>) outs(%76 : tensor<1x32x80x128xf32>) {
    ^bb0(%in: f32, %in_2684: f32, %out: f32):
      %3652 = arith.addf %in, %in_2684 : f32
      linalg.yield %3652 : f32
    } -> tensor<1x32x80x128xf32>
    %78 = tensor.empty() : tensor<1x32x128x80xf32>
    %79 = linalg.generic {indexing_maps = [#map14, #map7], iterator_types = ["parallel", "parallel", "parallel", "parallel"]} ins(%77 : tensor<1x32x80x128xf32>) outs(%78 : tensor<1x32x128x80xf32>) {
    ^bb0(%in: f32, %out: f32):
      linalg.yield %in : f32
    } -> tensor<1x32x128x80xf32>
    %cst_689 = arith.constant dense<0.000000e+00> : tensor<1x32x80x128xf32>
    %collapsed_690 = tensor.collapse_shape %68 [[0, 1], [2], [3]] : tensor<1x32x80x128xf32> into tensor<32x80x128xf32>
    %cst_691 = arith.constant dense<0.000000e+00> : tensor<1x32x128x80xf32>
    %collapsed_692 = tensor.collapse_shape %79 [[0, 1], [2], [3]] : tensor<1x32x128x80xf32> into tensor<32x128x80xf32>
    %cst_693 = arith.constant 0.000000e+00 : f32
    %80 = tensor.empty() : tensor<32x80x80xf32>
    %81 = linalg.fill ins(%cst_693 : f32) outs(%80 : tensor<32x80x80xf32>) -> tensor<32x80x80xf32>
    %82 = linalg.batch_matmul ins(%collapsed_690, %collapsed_692 : tensor<32x80x128xf32>, tensor<32x128x80xf32>) outs(%81 : tensor<32x80x80xf32>) -> tensor<32x80x80xf32>
    %expanded_694 = tensor.expand_shape %82 [[0, 1], [2], [3]] : tensor<32x80x80xf32> into tensor<1x32x80x80xf32>
    %cst_695 = arith.constant dense<11.3137083> : tensor<1x32x80x80xf32>
    %83 = tensor.empty() : tensor<1x32x80x80xf32>
    %84 = linalg.generic {indexing_maps = [#map7, #map7], iterator_types = ["parallel", "parallel", "parallel", "parallel"]} ins(%cst_695 : tensor<1x32x80x80xf32>) outs(%83 : tensor<1x32x80x80xf32>) {
    ^bb0(%in: f32, %out: f32):
      %cst_2684 = arith.constant 1.000000e+00 : f32
      %3652 = arith.divf %cst_2684, %in : f32
      linalg.yield %3652 : f32
    } -> tensor<1x32x80x80xf32>
    %85 = tensor.empty() : tensor<1x32x80x80xf32>
    %86 = linalg.generic {indexing_maps = [#map7, #map7, #map7], iterator_types = ["parallel", "parallel", "parallel", "parallel"]} ins(%expanded_694, %84 : tensor<1x32x80x80xf32>, tensor<1x32x80x80xf32>) outs(%85 : tensor<1x32x80x80xf32>) {
    ^bb0(%in: f32, %in_2684: f32, %out: f32):
      %3652 = arith.mulf %in, %in_2684 : f32
      linalg.yield %3652 : f32
    } -> tensor<1x32x80x80xf32>
    %87 = tensor.empty() : tensor<1x32x80x80xf32>
    %collapsed_696 = tensor.collapse_shape %21 [[0, 1], [2], [3]] : tensor<1x1x80x80xf32> into tensor<1x80x80xf32>
    %88 = linalg.generic {indexing_maps = [#map7, #map13, #map7], iterator_types = ["parallel", "parallel", "parallel", "parallel"]} ins(%86, %collapsed_696 : tensor<1x32x80x80xf32>, tensor<1x80x80xf32>) outs(%87 : tensor<1x32x80x80xf32>) {
    ^bb0(%in: f32, %in_2684: f32, %out: f32):
      %3652 = arith.addf %in, %in_2684 : f32
      linalg.yield %3652 : f32
    } -> tensor<1x32x80x80xf32>
    %89 = tensor.empty() : tensor<1x32x80x1xf32>
    %90 = linalg.generic {indexing_maps = [#map7], iterator_types = ["parallel", "parallel", "parallel", "parallel"]} outs(%89 : tensor<1x32x80x1xf32>) {
    ^bb0(%out: f32):
      %cst_2684 = arith.constant 0xFF800000 : f32
      linalg.yield %cst_2684 : f32
    } -> tensor<1x32x80x1xf32>
    %91 = linalg.generic {indexing_maps = [#map7, #map15], iterator_types = ["parallel", "parallel", "parallel", "reduction"]} ins(%88 : tensor<1x32x80x80xf32>) outs(%89 : tensor<1x32x80x1xf32>) {
    ^bb0(%in: f32, %out: f32):
      %3652 = arith.maximumf %in, %out : f32
      linalg.yield %3652 : f32
    } -> tensor<1x32x80x1xf32>
    %92 = tensor.empty() : tensor<1x32x80x80xf32>
    %93 = linalg.generic {indexing_maps = [#map7, #map15, #map7], iterator_types = ["parallel", "parallel", "parallel", "parallel"]} ins(%88, %91 : tensor<1x32x80x80xf32>, tensor<1x32x80x1xf32>) outs(%92 : tensor<1x32x80x80xf32>) {
    ^bb0(%in: f32, %in_2684: f32, %out: f32):
      %3652 = arith.subf %in, %in_2684 : f32
      %3653 = math.exp %3652 : f32
      linalg.yield %3653 : f32
    } -> tensor<1x32x80x80xf32>
    %94 = tensor.empty() : tensor<1x32x80x1xf32>
    %95 = linalg.generic {indexing_maps = [#map7], iterator_types = ["parallel", "parallel", "parallel", "parallel"]} outs(%94 : tensor<1x32x80x1xf32>) {
    ^bb0(%out: f32):
      %cst_2684 = arith.constant 0.000000e+00 : f32
      linalg.yield %cst_2684 : f32
    } -> tensor<1x32x80x1xf32>
    %96 = linalg.generic {indexing_maps = [#map7, #map15], iterator_types = ["parallel", "parallel", "parallel", "reduction"]} ins(%93 : tensor<1x32x80x80xf32>) outs(%95 : tensor<1x32x80x1xf32>) {
    ^bb0(%in: f32, %out: f32):
      %3652 = arith.addf %in, %out : f32
      linalg.yield %3652 : f32
    } -> tensor<1x32x80x1xf32>
    %97 = tensor.empty() : tensor<1x32x80x80xf32>
    %98 = linalg.generic {indexing_maps = [#map7, #map15, #map7], iterator_types = ["parallel", "parallel", "parallel", "parallel"]} ins(%93, %96 : tensor<1x32x80x80xf32>, tensor<1x32x80x1xf32>) outs(%97 : tensor<1x32x80x80xf32>) {
    ^bb0(%in: f32, %in_2684: f32, %out: f32):
      %3652 = arith.divf %in, %in_2684 : f32
      linalg.yield %3652 : f32
    } -> tensor<1x32x80x80xf32>
    %cst_697 = arith.constant dense<0.000000e+00> : tensor<1x32x80x80xf32>
    %collapsed_698 = tensor.collapse_shape %98 [[0, 1], [2], [3]] : tensor<1x32x80x80xf32> into tensor<32x80x80xf32>
    %cst_699 = arith.constant dense<0.000000e+00> : tensor<1x32x80x128xf32>
    %collapsed_700 = tensor.collapse_shape %47 [[0, 1], [2], [3]] : tensor<1x32x80x128xf32> into tensor<32x80x128xf32>
    %cst_701 = arith.constant 0.000000e+00 : f32
    %99 = tensor.empty() : tensor<32x80x128xf32>
    %100 = linalg.fill ins(%cst_701 : f32) outs(%99 : tensor<32x80x128xf32>) -> tensor<32x80x128xf32>
    %101 = linalg.batch_matmul ins(%collapsed_698, %collapsed_700 : tensor<32x80x80xf32>, tensor<32x80x128xf32>) outs(%100 : tensor<32x80x128xf32>) -> tensor<32x80x128xf32>
    %expanded_702 = tensor.expand_shape %101 [[0, 1], [2], [3]] : tensor<32x80x128xf32> into tensor<1x32x80x128xf32>
    %102 = tensor.empty() : tensor<1x80x32x128xf32>
    %103 = linalg.generic {indexing_maps = [#map10, #map7], iterator_types = ["parallel", "parallel", "parallel", "parallel"]} ins(%expanded_702 : tensor<1x32x80x128xf32>) outs(%102 : tensor<1x80x32x128xf32>) {
    ^bb0(%in: f32, %out: f32):
      linalg.yield %in : f32
    } -> tensor<1x80x32x128xf32>
    %collapsed_703 = tensor.collapse_shape %103 [[0], [1], [2, 3]] : tensor<1x80x32x128xf32> into tensor<1x80x4096xf32>
    %104 = tensor.empty() : tensor<4096x4096xf32>
    %105 = linalg.generic {indexing_maps = [#map, #map9], iterator_types = ["parallel", "parallel"]} ins(%expanded_72 : tensor<4096x4096xf32>) outs(%104 : tensor<4096x4096xf32>) {
    ^bb0(%in: f32, %out: f32):
      linalg.yield %in : f32
    } -> tensor<4096x4096xf32>
    %collapsed_704 = tensor.collapse_shape %collapsed_703 [[0, 1], [2]] : tensor<1x80x4096xf32> into tensor<80x4096xf32>
    %cst_705 = arith.constant dense<0.000000e+00> : tensor<80x4096xf32>
    %106 = linalg.matmul {cast = #linalg.type_fn<cast_signed>} ins(%collapsed_704, %105 : tensor<80x4096xf32>, tensor<4096x4096xf32>) outs(%cst_705 : tensor<80x4096xf32>) -> tensor<80x4096xf32>
    %expanded_706 = tensor.expand_shape %106 [[0, 1], [2]] : tensor<80x4096xf32> into tensor<1x80x4096xf32>
    %107 = tensor.empty() : tensor<1x80x4096xf32>
    %108 = linalg.generic {indexing_maps = [#map2, #map2, #map2], iterator_types = ["parallel", "parallel", "parallel"]} ins(%3, %expanded_706 : tensor<1x80x4096xf32>, tensor<1x80x4096xf32>) outs(%107 : tensor<1x80x4096xf32>) {
    ^bb0(%in: f32, %in_2684: f32, %out: f32):
      %3652 = arith.addf %in, %in_2684 : f32
      linalg.yield %3652 : f32
    } -> tensor<1x80x4096xf32>
    %109 = tensor.empty() : tensor<1x80x4096xf32>
    %cst_707 = arith.constant 2.000000e+00 : f32
    %110 = linalg.generic {indexing_maps = [#map2, #map2], iterator_types = ["parallel", "parallel", "parallel"]} ins(%108 : tensor<1x80x4096xf32>) outs(%109 : tensor<1x80x4096xf32>) {
    ^bb0(%in: f32, %out: f32):
      %3652 = math.powf %in, %cst_707 : f32
      linalg.yield %3652 : f32
    } -> tensor<1x80x4096xf32>
    %cst_708 = arith.constant dense<0.000000e+00> : tensor<1x80x1xf32>
    %111 = linalg.generic {indexing_maps = [#map8, #map6], iterator_types = ["parallel", "parallel", "reduction", "parallel"]} ins(%110 : tensor<1x80x4096xf32>) outs(%cst_708 : tensor<1x80x1xf32>) {
    ^bb0(%in: f32, %out: f32):
      %cst_2684 = arith.constant 4.096000e+03 : f32
      %3652 = arith.divf %in, %cst_2684 : f32
      %3653 = arith.addf %3652, %out : f32
      linalg.yield %3653 : f32
    } -> tensor<1x80x1xf32>
    %cst_709 = arith.constant dense<9.99999974E-6> : tensor<1x80x1xf32>
    %112 = tensor.empty() : tensor<1x80x1xf32>
    %113 = linalg.generic {indexing_maps = [#map2, #map2, #map2], iterator_types = ["parallel", "parallel", "parallel"]} ins(%111, %cst_709 : tensor<1x80x1xf32>, tensor<1x80x1xf32>) outs(%112 : tensor<1x80x1xf32>) {
    ^bb0(%in: f32, %in_2684: f32, %out: f32):
      %3652 = arith.addf %in, %in_2684 : f32
      linalg.yield %3652 : f32
    } -> tensor<1x80x1xf32>
    %114 = tensor.empty() : tensor<1x80x1xf32>
    %115 = linalg.generic {indexing_maps = [#map2, #map2], iterator_types = ["parallel", "parallel", "parallel"]} ins(%113 : tensor<1x80x1xf32>) outs(%114 : tensor<1x80x1xf32>) {
    ^bb0(%in: f32, %out: f32):
      %3652 = math.rsqrt %in : f32
      linalg.yield %3652 : f32
    } -> tensor<1x80x1xf32>
    %116 = tensor.empty() : tensor<1x80x4096xf32>
    %collapsed_710 = tensor.collapse_shape %115 [[0], [1, 2]] : tensor<1x80x1xf32> into tensor<1x80xf32>
    %117 = linalg.generic {indexing_maps = [#map2, #map1, #map2], iterator_types = ["parallel", "parallel", "parallel"]} ins(%108, %collapsed_710 : tensor<1x80x4096xf32>, tensor<1x80xf32>) outs(%116 : tensor<1x80x4096xf32>) {
    ^bb0(%in: f32, %in_2684: f32, %out: f32):
      %3652 = arith.mulf %in, %in_2684 : f32
      linalg.yield %3652 : f32
    } -> tensor<1x80x4096xf32>
    %expanded_711 = tensor.expand_shape %extracted_slice_0 [[0, 1, 2]] : tensor<4096xf32> into tensor<1x1x4096xf32>
    %118 = tensor.empty() : tensor<1x80x4096xf32>
    %collapsed_712 = tensor.collapse_shape %expanded_711 [[0, 1], [2]] : tensor<1x1x4096xf32> into tensor<1x4096xf32>
    %119 = linalg.generic {indexing_maps = [#map5, #map2, #map2], iterator_types = ["parallel", "parallel", "parallel"]} ins(%collapsed_712, %117 : tensor<1x4096xf32>, tensor<1x80x4096xf32>) outs(%118 : tensor<1x80x4096xf32>) {
    ^bb0(%in: f32, %in_2684: f32, %out: f32):
      %3652 = arith.mulf %in, %in_2684 : f32
      linalg.yield %3652 : f32
    } -> tensor<1x80x4096xf32>
    %120 = tensor.empty() : tensor<4096x11008xf32>
    %121 = linalg.generic {indexing_maps = [#map, #map9], iterator_types = ["parallel", "parallel"]} ins(%expanded_74 : tensor<11008x4096xf32>) outs(%120 : tensor<4096x11008xf32>) {
    ^bb0(%in: f32, %out: f32):
      linalg.yield %in : f32
    } -> tensor<4096x11008xf32>
    %collapsed_713 = tensor.collapse_shape %119 [[0, 1], [2]] : tensor<1x80x4096xf32> into tensor<80x4096xf32>
    %cst_714 = arith.constant dense<0.000000e+00> : tensor<80x11008xf32>
    %122 = linalg.matmul {cast = #linalg.type_fn<cast_signed>} ins(%collapsed_713, %121 : tensor<80x4096xf32>, tensor<4096x11008xf32>) outs(%cst_714 : tensor<80x11008xf32>) -> tensor<80x11008xf32>
    %expanded_715 = tensor.expand_shape %122 [[0, 1], [2]] : tensor<80x11008xf32> into tensor<1x80x11008xf32>
    %123 = tensor.empty() : tensor<1x80x11008xf32>
    %124 = linalg.generic {indexing_maps = [#map2, #map2], iterator_types = ["parallel", "parallel", "parallel"]} ins(%expanded_715 : tensor<1x80x11008xf32>) outs(%123 : tensor<1x80x11008xf32>) {
    ^bb0(%in: f32, %out: f32):
      %3652 = arith.negf %in : f32
      %3653 = math.exp %3652 : f32
      %cst_2684 = arith.constant 1.000000e+00 : f32
      %3654 = arith.addf %cst_2684, %3653 : f32
      %3655 = arith.divf %in, %3654 : f32
      linalg.yield %3655 : f32
    } -> tensor<1x80x11008xf32>
    %125 = tensor.empty() : tensor<4096x11008xf32>
    %126 = linalg.generic {indexing_maps = [#map, #map9], iterator_types = ["parallel", "parallel"]} ins(%expanded_76 : tensor<11008x4096xf32>) outs(%125 : tensor<4096x11008xf32>) {
    ^bb0(%in: f32, %out: f32):
      linalg.yield %in : f32
    } -> tensor<4096x11008xf32>
    %collapsed_716 = tensor.collapse_shape %119 [[0, 1], [2]] : tensor<1x80x4096xf32> into tensor<80x4096xf32>
    %cst_717 = arith.constant dense<0.000000e+00> : tensor<80x11008xf32>
    %127 = linalg.matmul {cast = #linalg.type_fn<cast_signed>} ins(%collapsed_716, %126 : tensor<80x4096xf32>, tensor<4096x11008xf32>) outs(%cst_717 : tensor<80x11008xf32>) -> tensor<80x11008xf32>
    %expanded_718 = tensor.expand_shape %127 [[0, 1], [2]] : tensor<80x11008xf32> into tensor<1x80x11008xf32>
    %128 = tensor.empty() : tensor<1x80x11008xf32>
    %129 = linalg.generic {indexing_maps = [#map2, #map2, #map2], iterator_types = ["parallel", "parallel", "parallel"]} ins(%124, %expanded_718 : tensor<1x80x11008xf32>, tensor<1x80x11008xf32>) outs(%128 : tensor<1x80x11008xf32>) {
    ^bb0(%in: f32, %in_2684: f32, %out: f32):
      %3652 = arith.mulf %in, %in_2684 : f32
      linalg.yield %3652 : f32
    } -> tensor<1x80x11008xf32>
    %130 = tensor.empty() : tensor<11008x4096xf32>
    %131 = linalg.generic {indexing_maps = [#map, #map9], iterator_types = ["parallel", "parallel"]} ins(%expanded_78 : tensor<4096x11008xf32>) outs(%130 : tensor<11008x4096xf32>) {
    ^bb0(%in: f32, %out: f32):
      linalg.yield %in : f32
    } -> tensor<11008x4096xf32>
    %collapsed_719 = tensor.collapse_shape %129 [[0, 1], [2]] : tensor<1x80x11008xf32> into tensor<80x11008xf32>
    %cst_720 = arith.constant dense<0.000000e+00> : tensor<80x4096xf32>
    %132 = linalg.matmul {cast = #linalg.type_fn<cast_signed>} ins(%collapsed_719, %131 : tensor<80x11008xf32>, tensor<11008x4096xf32>) outs(%cst_720 : tensor<80x4096xf32>) -> tensor<80x4096xf32>
    %expanded_721 = tensor.expand_shape %132 [[0, 1], [2]] : tensor<80x4096xf32> into tensor<1x80x4096xf32>
    %133 = tensor.empty() : tensor<1x80x4096xf32>
    %134 = linalg.generic {indexing_maps = [#map2, #map2, #map2], iterator_types = ["parallel", "parallel", "parallel"]} ins(%108, %expanded_721 : tensor<1x80x4096xf32>, tensor<1x80x4096xf32>) outs(%133 : tensor<1x80x4096xf32>) {
    ^bb0(%in: f32, %in_2684: f32, %out: f32):
      %3652 = arith.addf %in, %in_2684 : f32
      linalg.yield %3652 : f32
    } -> tensor<1x80x4096xf32>
    %135 = tensor.empty() : tensor<1x80x4096xf32>
    %cst_722 = arith.constant 2.000000e+00 : f32
    %136 = linalg.generic {indexing_maps = [#map2, #map2], iterator_types = ["parallel", "parallel", "parallel"]} ins(%134 : tensor<1x80x4096xf32>) outs(%135 : tensor<1x80x4096xf32>) {
    ^bb0(%in: f32, %out: f32):
      %3652 = math.powf %in, %cst_722 : f32
      linalg.yield %3652 : f32
    } -> tensor<1x80x4096xf32>
    %cst_723 = arith.constant dense<0.000000e+00> : tensor<1x80x1xf32>
    %137 = linalg.generic {indexing_maps = [#map8, #map6], iterator_types = ["parallel", "parallel", "reduction", "parallel"]} ins(%136 : tensor<1x80x4096xf32>) outs(%cst_723 : tensor<1x80x1xf32>) {
    ^bb0(%in: f32, %out: f32):
      %cst_2684 = arith.constant 4.096000e+03 : f32
      %3652 = arith.divf %in, %cst_2684 : f32
      %3653 = arith.addf %3652, %out : f32
      linalg.yield %3653 : f32
    } -> tensor<1x80x1xf32>
    %cst_724 = arith.constant dense<9.99999974E-6> : tensor<1x80x1xf32>
    %138 = tensor.empty() : tensor<1x80x1xf32>
    %139 = linalg.generic {indexing_maps = [#map2, #map2, #map2], iterator_types = ["parallel", "parallel", "parallel"]} ins(%137, %cst_724 : tensor<1x80x1xf32>, tensor<1x80x1xf32>) outs(%138 : tensor<1x80x1xf32>) {
    ^bb0(%in: f32, %in_2684: f32, %out: f32):
      %3652 = arith.addf %in, %in_2684 : f32
      linalg.yield %3652 : f32
    } -> tensor<1x80x1xf32>
    %140 = tensor.empty() : tensor<1x80x1xf32>
    %141 = linalg.generic {indexing_maps = [#map2, #map2], iterator_types = ["parallel", "parallel", "parallel"]} ins(%139 : tensor<1x80x1xf32>) outs(%140 : tensor<1x80x1xf32>) {
    ^bb0(%in: f32, %out: f32):
      %3652 = math.rsqrt %in : f32
      linalg.yield %3652 : f32
    } -> tensor<1x80x1xf32>
    %142 = tensor.empty() : tensor<1x80x4096xf32>
    %collapsed_725 = tensor.collapse_shape %141 [[0], [1, 2]] : tensor<1x80x1xf32> into tensor<1x80xf32>
    %143 = linalg.generic {indexing_maps = [#map2, #map1, #map2], iterator_types = ["parallel", "parallel", "parallel"]} ins(%134, %collapsed_725 : tensor<1x80x4096xf32>, tensor<1x80xf32>) outs(%142 : tensor<1x80x4096xf32>) {
    ^bb0(%in: f32, %in_2684: f32, %out: f32):
      %3652 = arith.mulf %in, %in_2684 : f32
      linalg.yield %3652 : f32
    } -> tensor<1x80x4096xf32>
    %expanded_726 = tensor.expand_shape %extracted_slice_1 [[0, 1, 2]] : tensor<4096xf32> into tensor<1x1x4096xf32>
    %144 = tensor.empty() : tensor<1x80x4096xf32>
    %collapsed_727 = tensor.collapse_shape %expanded_726 [[0, 1], [2]] : tensor<1x1x4096xf32> into tensor<1x4096xf32>
    %145 = linalg.generic {indexing_maps = [#map5, #map2, #map2], iterator_types = ["parallel", "parallel", "parallel"]} ins(%collapsed_727, %143 : tensor<1x4096xf32>, tensor<1x80x4096xf32>) outs(%144 : tensor<1x80x4096xf32>) {
    ^bb0(%in: f32, %in_2684: f32, %out: f32):
      %3652 = arith.mulf %in, %in_2684 : f32
      linalg.yield %3652 : f32
    } -> tensor<1x80x4096xf32>
    %146 = tensor.empty() : tensor<4096x4096xf32>
    %147 = linalg.generic {indexing_maps = [#map, #map9], iterator_types = ["parallel", "parallel"]} ins(%expanded_80 : tensor<4096x4096xf32>) outs(%146 : tensor<4096x4096xf32>) {
    ^bb0(%in: f32, %out: f32):
      linalg.yield %in : f32
    } -> tensor<4096x4096xf32>
    %collapsed_728 = tensor.collapse_shape %145 [[0, 1], [2]] : tensor<1x80x4096xf32> into tensor<80x4096xf32>
    %cst_729 = arith.constant dense<0.000000e+00> : tensor<80x4096xf32>
    %148 = linalg.matmul {cast = #linalg.type_fn<cast_signed>} ins(%collapsed_728, %147 : tensor<80x4096xf32>, tensor<4096x4096xf32>) outs(%cst_729 : tensor<80x4096xf32>) -> tensor<80x4096xf32>
    %expanded_730 = tensor.expand_shape %148 [[0, 1], [2]] : tensor<80x4096xf32> into tensor<1x80x4096xf32>
    %149 = tensor.empty() : tensor<4096x4096xf32>
    %150 = linalg.generic {indexing_maps = [#map, #map9], iterator_types = ["parallel", "parallel"]} ins(%expanded_82 : tensor<4096x4096xf32>) outs(%149 : tensor<4096x4096xf32>) {
    ^bb0(%in: f32, %out: f32):
      linalg.yield %in : f32
    } -> tensor<4096x4096xf32>
    %collapsed_731 = tensor.collapse_shape %145 [[0, 1], [2]] : tensor<1x80x4096xf32> into tensor<80x4096xf32>
    %cst_732 = arith.constant dense<0.000000e+00> : tensor<80x4096xf32>
    %151 = linalg.matmul {cast = #linalg.type_fn<cast_signed>} ins(%collapsed_731, %150 : tensor<80x4096xf32>, tensor<4096x4096xf32>) outs(%cst_732 : tensor<80x4096xf32>) -> tensor<80x4096xf32>
    %expanded_733 = tensor.expand_shape %151 [[0, 1], [2]] : tensor<80x4096xf32> into tensor<1x80x4096xf32>
    %152 = tensor.empty() : tensor<4096x4096xf32>
    %153 = linalg.generic {indexing_maps = [#map, #map9], iterator_types = ["parallel", "parallel"]} ins(%expanded_84 : tensor<4096x4096xf32>) outs(%152 : tensor<4096x4096xf32>) {
    ^bb0(%in: f32, %out: f32):
      linalg.yield %in : f32
    } -> tensor<4096x4096xf32>
    %collapsed_734 = tensor.collapse_shape %145 [[0, 1], [2]] : tensor<1x80x4096xf32> into tensor<80x4096xf32>
    %cst_735 = arith.constant dense<0.000000e+00> : tensor<80x4096xf32>
    %154 = linalg.matmul {cast = #linalg.type_fn<cast_signed>} ins(%collapsed_734, %153 : tensor<80x4096xf32>, tensor<4096x4096xf32>) outs(%cst_735 : tensor<80x4096xf32>) -> tensor<80x4096xf32>
    %expanded_736 = tensor.expand_shape %154 [[0, 1], [2]] : tensor<80x4096xf32> into tensor<1x80x4096xf32>
    %expanded_737 = tensor.expand_shape %expanded_730 [[0], [1], [2, 3]] : tensor<1x80x4096xf32> into tensor<1x80x32x128xf32>
    %155 = tensor.empty() : tensor<1x32x80x128xf32>
    %156 = linalg.generic {indexing_maps = [#map10, #map7], iterator_types = ["parallel", "parallel", "parallel", "parallel"]} ins(%expanded_737 : tensor<1x80x32x128xf32>) outs(%155 : tensor<1x32x80x128xf32>) {
    ^bb0(%in: f32, %out: f32):
      linalg.yield %in : f32
    } -> tensor<1x32x80x128xf32>
    %expanded_738 = tensor.expand_shape %expanded_733 [[0], [1], [2, 3]] : tensor<1x80x4096xf32> into tensor<1x80x32x128xf32>
    %157 = tensor.empty() : tensor<1x32x80x128xf32>
    %158 = linalg.generic {indexing_maps = [#map10, #map7], iterator_types = ["parallel", "parallel", "parallel", "parallel"]} ins(%expanded_738 : tensor<1x80x32x128xf32>) outs(%157 : tensor<1x32x80x128xf32>) {
    ^bb0(%in: f32, %out: f32):
      linalg.yield %in : f32
    } -> tensor<1x32x80x128xf32>
    %expanded_739 = tensor.expand_shape %expanded_736 [[0], [1], [2, 3]] : tensor<1x80x4096xf32> into tensor<1x80x32x128xf32>
    %159 = tensor.empty() : tensor<1x32x80x128xf32>
    %160 = linalg.generic {indexing_maps = [#map10, #map7], iterator_types = ["parallel", "parallel", "parallel", "parallel"]} ins(%expanded_739 : tensor<1x80x32x128xf32>) outs(%159 : tensor<1x32x80x128xf32>) {
    ^bb0(%in: f32, %out: f32):
      linalg.yield %in : f32
    } -> tensor<1x32x80x128xf32>
    %extracted_slice_740 = tensor.extract_slice %expanded_520[0, 0, 0, 0] [1, 1, 80, 128] [1, 1, 1, 1] : tensor<1x1x2048x128xf32> to tensor<1x1x80x128xf32>
    %extracted_slice_741 = tensor.extract_slice %expanded_522[0, 0, 0, 0] [1, 1, 80, 128] [1, 1, 1, 1] : tensor<1x1x2048x128xf32> to tensor<1x1x80x128xf32>
    %161 = tensor.empty() : tensor<1x80x128xf32>
    %162 = linalg.generic {indexing_maps = [#map11, #map2], iterator_types = ["parallel", "parallel", "parallel"]} ins(%extracted_slice_740 : tensor<1x1x80x128xf32>) outs(%161 : tensor<1x80x128xf32>) {
    ^bb0(%in: f32, %out: f32):
      linalg.yield %in : f32
    } -> tensor<1x80x128xf32>
    %163 = tensor.empty() : tensor<80x128xf32>
    %164 = linalg.generic {indexing_maps = [#map12, #map], iterator_types = ["parallel", "parallel"]} ins(%162 : tensor<1x80x128xf32>) outs(%163 : tensor<80x128xf32>) {
    ^bb0(%in: f32, %out: f32):
      linalg.yield %in : f32
    } -> tensor<80x128xf32>
    %165 = tensor.empty() : tensor<1x80x128xf32>
    %166 = linalg.generic {indexing_maps = [#map11, #map2], iterator_types = ["parallel", "parallel", "parallel"]} ins(%extracted_slice_741 : tensor<1x1x80x128xf32>) outs(%165 : tensor<1x80x128xf32>) {
    ^bb0(%in: f32, %out: f32):
      linalg.yield %in : f32
    } -> tensor<1x80x128xf32>
    %167 = tensor.empty() : tensor<80x128xf32>
    %168 = linalg.generic {indexing_maps = [#map12, #map], iterator_types = ["parallel", "parallel"]} ins(%166 : tensor<1x80x128xf32>) outs(%167 : tensor<80x128xf32>) {
    ^bb0(%in: f32, %out: f32):
      linalg.yield %in : f32
    } -> tensor<80x128xf32>
    %169 = tensor.empty() : tensor<1x80x128xf32>
    %170 = linalg.generic {indexing_maps = [#map1, #map2], iterator_types = ["parallel", "parallel", "parallel"]} ins(%cst_643 : tensor<1x80xi64>) outs(%169 : tensor<1x80x128xf32>) {
    ^bb0(%in: i64, %out: f32):
      %3652 = arith.index_cast %in : i64 to index
      %3653 = linalg.index 2 : index
      %extracted = tensor.extract %164[%3652, %3653] : tensor<80x128xf32>
      linalg.yield %extracted : f32
    } -> tensor<1x80x128xf32>
    %expanded_742 = tensor.expand_shape %170 [[0, 1], [2], [3]] : tensor<1x80x128xf32> into tensor<1x1x80x128xf32>
    %171 = tensor.empty() : tensor<1x80x128xf32>
    %172 = linalg.generic {indexing_maps = [#map1, #map2], iterator_types = ["parallel", "parallel", "parallel"]} ins(%cst_643 : tensor<1x80xi64>) outs(%171 : tensor<1x80x128xf32>) {
    ^bb0(%in: i64, %out: f32):
      %3652 = arith.index_cast %in : i64 to index
      %3653 = linalg.index 2 : index
      %extracted = tensor.extract %168[%3652, %3653] : tensor<80x128xf32>
      linalg.yield %extracted : f32
    } -> tensor<1x80x128xf32>
    %expanded_743 = tensor.expand_shape %172 [[0, 1], [2], [3]] : tensor<1x80x128xf32> into tensor<1x1x80x128xf32>
    %173 = tensor.empty() : tensor<1x32x80x128xf32>
    %174 = linalg.generic {indexing_maps = [#map7, #map13, #map7], iterator_types = ["parallel", "parallel", "parallel", "parallel"]} ins(%156, %170 : tensor<1x32x80x128xf32>, tensor<1x80x128xf32>) outs(%173 : tensor<1x32x80x128xf32>) {
    ^bb0(%in: f32, %in_2684: f32, %out: f32):
      %3652 = arith.mulf %in, %in_2684 : f32
      linalg.yield %3652 : f32
    } -> tensor<1x32x80x128xf32>
    %extracted_slice_744 = tensor.extract_slice %156[0, 0, 0, 0] [1, 32, 80, 64] [1, 1, 1, 1] : tensor<1x32x80x128xf32> to tensor<1x32x80x64xf32>
    %extracted_slice_745 = tensor.extract_slice %156[0, 0, 0, 64] [1, 32, 80, 64] [1, 1, 1, 1] : tensor<1x32x80x128xf32> to tensor<1x32x80x64xf32>
    %175 = tensor.empty() : tensor<1x32x80x64xf32>
    %176 = linalg.generic {indexing_maps = [#map7, #map7], iterator_types = ["parallel", "parallel", "parallel", "parallel"]} ins(%extracted_slice_745 : tensor<1x32x80x64xf32>) outs(%175 : tensor<1x32x80x64xf32>) {
    ^bb0(%in: f32, %out: f32):
      %3652 = arith.negf %in : f32
      linalg.yield %3652 : f32
    } -> tensor<1x32x80x64xf32>
    %177 = tensor.empty() : tensor<1x32x80x128xf32>
    %inserted_slice_746 = tensor.insert_slice %176 into %177[0, 0, 0, 0] [1, 32, 80, 64] [1, 1, 1, 1] : tensor<1x32x80x64xf32> into tensor<1x32x80x128xf32>
    %inserted_slice_747 = tensor.insert_slice %extracted_slice_744 into %inserted_slice_746[0, 0, 0, 64] [1, 32, 80, 64] [1, 1, 1, 1] : tensor<1x32x80x64xf32> into tensor<1x32x80x128xf32>
    %178 = tensor.empty() : tensor<1x32x80x128xf32>
    %179 = linalg.generic {indexing_maps = [#map7, #map13, #map7], iterator_types = ["parallel", "parallel", "parallel", "parallel"]} ins(%inserted_slice_747, %172 : tensor<1x32x80x128xf32>, tensor<1x80x128xf32>) outs(%178 : tensor<1x32x80x128xf32>) {
    ^bb0(%in: f32, %in_2684: f32, %out: f32):
      %3652 = arith.mulf %in, %in_2684 : f32
      linalg.yield %3652 : f32
    } -> tensor<1x32x80x128xf32>
    %180 = tensor.empty() : tensor<1x32x80x128xf32>
    %181 = linalg.generic {indexing_maps = [#map7, #map7, #map7], iterator_types = ["parallel", "parallel", "parallel", "parallel"]} ins(%174, %179 : tensor<1x32x80x128xf32>, tensor<1x32x80x128xf32>) outs(%180 : tensor<1x32x80x128xf32>) {
    ^bb0(%in: f32, %in_2684: f32, %out: f32):
      %3652 = arith.addf %in, %in_2684 : f32
      linalg.yield %3652 : f32
    } -> tensor<1x32x80x128xf32>
    %182 = tensor.empty() : tensor<1x32x80x128xf32>
    %183 = linalg.generic {indexing_maps = [#map7, #map13, #map7], iterator_types = ["parallel", "parallel", "parallel", "parallel"]} ins(%158, %170 : tensor<1x32x80x128xf32>, tensor<1x80x128xf32>) outs(%182 : tensor<1x32x80x128xf32>) {
    ^bb0(%in: f32, %in_2684: f32, %out: f32):
      %3652 = arith.mulf %in, %in_2684 : f32
      linalg.yield %3652 : f32
    } -> tensor<1x32x80x128xf32>
    %extracted_slice_748 = tensor.extract_slice %158[0, 0, 0, 0] [1, 32, 80, 64] [1, 1, 1, 1] : tensor<1x32x80x128xf32> to tensor<1x32x80x64xf32>
    %extracted_slice_749 = tensor.extract_slice %158[0, 0, 0, 64] [1, 32, 80, 64] [1, 1, 1, 1] : tensor<1x32x80x128xf32> to tensor<1x32x80x64xf32>
    %184 = tensor.empty() : tensor<1x32x80x64xf32>
    %185 = linalg.generic {indexing_maps = [#map7, #map7], iterator_types = ["parallel", "parallel", "parallel", "parallel"]} ins(%extracted_slice_749 : tensor<1x32x80x64xf32>) outs(%184 : tensor<1x32x80x64xf32>) {
    ^bb0(%in: f32, %out: f32):
      %3652 = arith.negf %in : f32
      linalg.yield %3652 : f32
    } -> tensor<1x32x80x64xf32>
    %186 = tensor.empty() : tensor<1x32x80x128xf32>
    %inserted_slice_750 = tensor.insert_slice %185 into %186[0, 0, 0, 0] [1, 32, 80, 64] [1, 1, 1, 1] : tensor<1x32x80x64xf32> into tensor<1x32x80x128xf32>
    %inserted_slice_751 = tensor.insert_slice %extracted_slice_748 into %inserted_slice_750[0, 0, 0, 64] [1, 32, 80, 64] [1, 1, 1, 1] : tensor<1x32x80x64xf32> into tensor<1x32x80x128xf32>
    %187 = tensor.empty() : tensor<1x32x80x128xf32>
    %188 = linalg.generic {indexing_maps = [#map7, #map13, #map7], iterator_types = ["parallel", "parallel", "parallel", "parallel"]} ins(%inserted_slice_751, %172 : tensor<1x32x80x128xf32>, tensor<1x80x128xf32>) outs(%187 : tensor<1x32x80x128xf32>) {
    ^bb0(%in: f32, %in_2684: f32, %out: f32):
      %3652 = arith.mulf %in, %in_2684 : f32
      linalg.yield %3652 : f32
    } -> tensor<1x32x80x128xf32>
    %189 = tensor.empty() : tensor<1x32x80x128xf32>
    %190 = linalg.generic {indexing_maps = [#map7, #map7, #map7], iterator_types = ["parallel", "parallel", "parallel", "parallel"]} ins(%183, %188 : tensor<1x32x80x128xf32>, tensor<1x32x80x128xf32>) outs(%189 : tensor<1x32x80x128xf32>) {
    ^bb0(%in: f32, %in_2684: f32, %out: f32):
      %3652 = arith.addf %in, %in_2684 : f32
      linalg.yield %3652 : f32
    } -> tensor<1x32x80x128xf32>
    %191 = tensor.empty() : tensor<1x32x128x80xf32>
    %192 = linalg.generic {indexing_maps = [#map14, #map7], iterator_types = ["parallel", "parallel", "parallel", "parallel"]} ins(%190 : tensor<1x32x80x128xf32>) outs(%191 : tensor<1x32x128x80xf32>) {
    ^bb0(%in: f32, %out: f32):
      linalg.yield %in : f32
    } -> tensor<1x32x128x80xf32>
    %cst_752 = arith.constant dense<0.000000e+00> : tensor<1x32x80x128xf32>
    %collapsed_753 = tensor.collapse_shape %181 [[0, 1], [2], [3]] : tensor<1x32x80x128xf32> into tensor<32x80x128xf32>
    %cst_754 = arith.constant dense<0.000000e+00> : tensor<1x32x128x80xf32>
    %collapsed_755 = tensor.collapse_shape %192 [[0, 1], [2], [3]] : tensor<1x32x128x80xf32> into tensor<32x128x80xf32>
    %cst_756 = arith.constant 0.000000e+00 : f32
    %193 = tensor.empty() : tensor<32x80x80xf32>
    %194 = linalg.fill ins(%cst_756 : f32) outs(%193 : tensor<32x80x80xf32>) -> tensor<32x80x80xf32>
    %195 = linalg.batch_matmul ins(%collapsed_753, %collapsed_755 : tensor<32x80x128xf32>, tensor<32x128x80xf32>) outs(%194 : tensor<32x80x80xf32>) -> tensor<32x80x80xf32>
    %expanded_757 = tensor.expand_shape %195 [[0, 1], [2], [3]] : tensor<32x80x80xf32> into tensor<1x32x80x80xf32>
    %cst_758 = arith.constant dense<11.3137083> : tensor<1x32x80x80xf32>
    %196 = tensor.empty() : tensor<1x32x80x80xf32>
    %197 = linalg.generic {indexing_maps = [#map7, #map7], iterator_types = ["parallel", "parallel", "parallel", "parallel"]} ins(%cst_758 : tensor<1x32x80x80xf32>) outs(%196 : tensor<1x32x80x80xf32>) {
    ^bb0(%in: f32, %out: f32):
      %cst_2684 = arith.constant 1.000000e+00 : f32
      %3652 = arith.divf %cst_2684, %in : f32
      linalg.yield %3652 : f32
    } -> tensor<1x32x80x80xf32>
    %198 = tensor.empty() : tensor<1x32x80x80xf32>
    %199 = linalg.generic {indexing_maps = [#map7, #map7, #map7], iterator_types = ["parallel", "parallel", "parallel", "parallel"]} ins(%expanded_757, %197 : tensor<1x32x80x80xf32>, tensor<1x32x80x80xf32>) outs(%198 : tensor<1x32x80x80xf32>) {
    ^bb0(%in: f32, %in_2684: f32, %out: f32):
      %3652 = arith.mulf %in, %in_2684 : f32
      linalg.yield %3652 : f32
    } -> tensor<1x32x80x80xf32>
    %200 = tensor.empty() : tensor<1x32x80x80xf32>
    %collapsed_759 = tensor.collapse_shape %21 [[0, 1], [2], [3]] : tensor<1x1x80x80xf32> into tensor<1x80x80xf32>
    %201 = linalg.generic {indexing_maps = [#map7, #map13, #map7], iterator_types = ["parallel", "parallel", "parallel", "parallel"]} ins(%199, %collapsed_759 : tensor<1x32x80x80xf32>, tensor<1x80x80xf32>) outs(%200 : tensor<1x32x80x80xf32>) {
    ^bb0(%in: f32, %in_2684: f32, %out: f32):
      %3652 = arith.addf %in, %in_2684 : f32
      linalg.yield %3652 : f32
    } -> tensor<1x32x80x80xf32>
    %202 = tensor.empty() : tensor<1x32x80x1xf32>
    %203 = linalg.generic {indexing_maps = [#map7], iterator_types = ["parallel", "parallel", "parallel", "parallel"]} outs(%202 : tensor<1x32x80x1xf32>) {
    ^bb0(%out: f32):
      %cst_2684 = arith.constant 0xFF800000 : f32
      linalg.yield %cst_2684 : f32
    } -> tensor<1x32x80x1xf32>
    %204 = linalg.generic {indexing_maps = [#map7, #map15], iterator_types = ["parallel", "parallel", "parallel", "reduction"]} ins(%201 : tensor<1x32x80x80xf32>) outs(%202 : tensor<1x32x80x1xf32>) {
    ^bb0(%in: f32, %out: f32):
      %3652 = arith.maximumf %in, %out : f32
      linalg.yield %3652 : f32
    } -> tensor<1x32x80x1xf32>
    %205 = tensor.empty() : tensor<1x32x80x80xf32>
    %206 = linalg.generic {indexing_maps = [#map7, #map15, #map7], iterator_types = ["parallel", "parallel", "parallel", "parallel"]} ins(%201, %204 : tensor<1x32x80x80xf32>, tensor<1x32x80x1xf32>) outs(%205 : tensor<1x32x80x80xf32>) {
    ^bb0(%in: f32, %in_2684: f32, %out: f32):
      %3652 = arith.subf %in, %in_2684 : f32
      %3653 = math.exp %3652 : f32
      linalg.yield %3653 : f32
    } -> tensor<1x32x80x80xf32>
    %207 = tensor.empty() : tensor<1x32x80x1xf32>
    %208 = linalg.generic {indexing_maps = [#map7], iterator_types = ["parallel", "parallel", "parallel", "parallel"]} outs(%207 : tensor<1x32x80x1xf32>) {
    ^bb0(%out: f32):
      %cst_2684 = arith.constant 0.000000e+00 : f32
      linalg.yield %cst_2684 : f32
    } -> tensor<1x32x80x1xf32>
    %209 = linalg.generic {indexing_maps = [#map7, #map15], iterator_types = ["parallel", "parallel", "parallel", "reduction"]} ins(%206 : tensor<1x32x80x80xf32>) outs(%208 : tensor<1x32x80x1xf32>) {
    ^bb0(%in: f32, %out: f32):
      %3652 = arith.addf %in, %out : f32
      linalg.yield %3652 : f32
    } -> tensor<1x32x80x1xf32>
    %210 = tensor.empty() : tensor<1x32x80x80xf32>
    %211 = linalg.generic {indexing_maps = [#map7, #map15, #map7], iterator_types = ["parallel", "parallel", "parallel", "parallel"]} ins(%206, %209 : tensor<1x32x80x80xf32>, tensor<1x32x80x1xf32>) outs(%210 : tensor<1x32x80x80xf32>) {
    ^bb0(%in: f32, %in_2684: f32, %out: f32):
      %3652 = arith.divf %in, %in_2684 : f32
      linalg.yield %3652 : f32
    } -> tensor<1x32x80x80xf32>
    %cst_760 = arith.constant dense<0.000000e+00> : tensor<1x32x80x80xf32>
    %collapsed_761 = tensor.collapse_shape %211 [[0, 1], [2], [3]] : tensor<1x32x80x80xf32> into tensor<32x80x80xf32>
    %cst_762 = arith.constant dense<0.000000e+00> : tensor<1x32x80x128xf32>
    %collapsed_763 = tensor.collapse_shape %160 [[0, 1], [2], [3]] : tensor<1x32x80x128xf32> into tensor<32x80x128xf32>
    %cst_764 = arith.constant 0.000000e+00 : f32
    %212 = tensor.empty() : tensor<32x80x128xf32>
    %213 = linalg.fill ins(%cst_764 : f32) outs(%212 : tensor<32x80x128xf32>) -> tensor<32x80x128xf32>
    %214 = linalg.batch_matmul ins(%collapsed_761, %collapsed_763 : tensor<32x80x80xf32>, tensor<32x80x128xf32>) outs(%213 : tensor<32x80x128xf32>) -> tensor<32x80x128xf32>
    %expanded_765 = tensor.expand_shape %214 [[0, 1], [2], [3]] : tensor<32x80x128xf32> into tensor<1x32x80x128xf32>
    %215 = tensor.empty() : tensor<1x80x32x128xf32>
    %216 = linalg.generic {indexing_maps = [#map10, #map7], iterator_types = ["parallel", "parallel", "parallel", "parallel"]} ins(%expanded_765 : tensor<1x32x80x128xf32>) outs(%215 : tensor<1x80x32x128xf32>) {
    ^bb0(%in: f32, %out: f32):
      linalg.yield %in : f32
    } -> tensor<1x80x32x128xf32>
    %collapsed_766 = tensor.collapse_shape %216 [[0], [1], [2, 3]] : tensor<1x80x32x128xf32> into tensor<1x80x4096xf32>
    %217 = tensor.empty() : tensor<4096x4096xf32>
    %218 = linalg.generic {indexing_maps = [#map, #map9], iterator_types = ["parallel", "parallel"]} ins(%expanded_86 : tensor<4096x4096xf32>) outs(%217 : tensor<4096x4096xf32>) {
    ^bb0(%in: f32, %out: f32):
      linalg.yield %in : f32
    } -> tensor<4096x4096xf32>
    %collapsed_767 = tensor.collapse_shape %collapsed_766 [[0, 1], [2]] : tensor<1x80x4096xf32> into tensor<80x4096xf32>
    %cst_768 = arith.constant dense<0.000000e+00> : tensor<80x4096xf32>
    %219 = linalg.matmul {cast = #linalg.type_fn<cast_signed>} ins(%collapsed_767, %218 : tensor<80x4096xf32>, tensor<4096x4096xf32>) outs(%cst_768 : tensor<80x4096xf32>) -> tensor<80x4096xf32>
    %expanded_769 = tensor.expand_shape %219 [[0, 1], [2]] : tensor<80x4096xf32> into tensor<1x80x4096xf32>
    %220 = tensor.empty() : tensor<1x80x4096xf32>
    %221 = linalg.generic {indexing_maps = [#map2, #map2, #map2], iterator_types = ["parallel", "parallel", "parallel"]} ins(%134, %expanded_769 : tensor<1x80x4096xf32>, tensor<1x80x4096xf32>) outs(%220 : tensor<1x80x4096xf32>) {
    ^bb0(%in: f32, %in_2684: f32, %out: f32):
      %3652 = arith.addf %in, %in_2684 : f32
      linalg.yield %3652 : f32
    } -> tensor<1x80x4096xf32>
    %222 = tensor.empty() : tensor<1x80x4096xf32>
    %cst_770 = arith.constant 2.000000e+00 : f32
    %223 = linalg.generic {indexing_maps = [#map2, #map2], iterator_types = ["parallel", "parallel", "parallel"]} ins(%221 : tensor<1x80x4096xf32>) outs(%222 : tensor<1x80x4096xf32>) {
    ^bb0(%in: f32, %out: f32):
      %3652 = math.powf %in, %cst_770 : f32
      linalg.yield %3652 : f32
    } -> tensor<1x80x4096xf32>
    %cst_771 = arith.constant dense<0.000000e+00> : tensor<1x80x1xf32>
    %224 = linalg.generic {indexing_maps = [#map8, #map6], iterator_types = ["parallel", "parallel", "reduction", "parallel"]} ins(%223 : tensor<1x80x4096xf32>) outs(%cst_771 : tensor<1x80x1xf32>) {
    ^bb0(%in: f32, %out: f32):
      %cst_2684 = arith.constant 4.096000e+03 : f32
      %3652 = arith.divf %in, %cst_2684 : f32
      %3653 = arith.addf %3652, %out : f32
      linalg.yield %3653 : f32
    } -> tensor<1x80x1xf32>
    %cst_772 = arith.constant dense<9.99999974E-6> : tensor<1x80x1xf32>
    %225 = tensor.empty() : tensor<1x80x1xf32>
    %226 = linalg.generic {indexing_maps = [#map2, #map2, #map2], iterator_types = ["parallel", "parallel", "parallel"]} ins(%224, %cst_772 : tensor<1x80x1xf32>, tensor<1x80x1xf32>) outs(%225 : tensor<1x80x1xf32>) {
    ^bb0(%in: f32, %in_2684: f32, %out: f32):
      %3652 = arith.addf %in, %in_2684 : f32
      linalg.yield %3652 : f32
    } -> tensor<1x80x1xf32>
    %227 = tensor.empty() : tensor<1x80x1xf32>
    %228 = linalg.generic {indexing_maps = [#map2, #map2], iterator_types = ["parallel", "parallel", "parallel"]} ins(%226 : tensor<1x80x1xf32>) outs(%227 : tensor<1x80x1xf32>) {
    ^bb0(%in: f32, %out: f32):
      %3652 = math.rsqrt %in : f32
      linalg.yield %3652 : f32
    } -> tensor<1x80x1xf32>
    %229 = tensor.empty() : tensor<1x80x4096xf32>
    %collapsed_773 = tensor.collapse_shape %228 [[0], [1, 2]] : tensor<1x80x1xf32> into tensor<1x80xf32>
    %230 = linalg.generic {indexing_maps = [#map2, #map1, #map2], iterator_types = ["parallel", "parallel", "parallel"]} ins(%221, %collapsed_773 : tensor<1x80x4096xf32>, tensor<1x80xf32>) outs(%229 : tensor<1x80x4096xf32>) {
    ^bb0(%in: f32, %in_2684: f32, %out: f32):
      %3652 = arith.mulf %in, %in_2684 : f32
      linalg.yield %3652 : f32
    } -> tensor<1x80x4096xf32>
    %expanded_774 = tensor.expand_shape %extracted_slice_2 [[0, 1, 2]] : tensor<4096xf32> into tensor<1x1x4096xf32>
    %231 = tensor.empty() : tensor<1x80x4096xf32>
    %collapsed_775 = tensor.collapse_shape %expanded_774 [[0, 1], [2]] : tensor<1x1x4096xf32> into tensor<1x4096xf32>
    %232 = linalg.generic {indexing_maps = [#map5, #map2, #map2], iterator_types = ["parallel", "parallel", "parallel"]} ins(%collapsed_775, %230 : tensor<1x4096xf32>, tensor<1x80x4096xf32>) outs(%231 : tensor<1x80x4096xf32>) {
    ^bb0(%in: f32, %in_2684: f32, %out: f32):
      %3652 = arith.mulf %in, %in_2684 : f32
      linalg.yield %3652 : f32
    } -> tensor<1x80x4096xf32>
    %233 = tensor.empty() : tensor<4096x11008xf32>
    %234 = linalg.generic {indexing_maps = [#map, #map9], iterator_types = ["parallel", "parallel"]} ins(%expanded_88 : tensor<11008x4096xf32>) outs(%233 : tensor<4096x11008xf32>) {
    ^bb0(%in: f32, %out: f32):
      linalg.yield %in : f32
    } -> tensor<4096x11008xf32>
    %collapsed_776 = tensor.collapse_shape %232 [[0, 1], [2]] : tensor<1x80x4096xf32> into tensor<80x4096xf32>
    %cst_777 = arith.constant dense<0.000000e+00> : tensor<80x11008xf32>
    %235 = linalg.matmul {cast = #linalg.type_fn<cast_signed>} ins(%collapsed_776, %234 : tensor<80x4096xf32>, tensor<4096x11008xf32>) outs(%cst_777 : tensor<80x11008xf32>) -> tensor<80x11008xf32>
    %expanded_778 = tensor.expand_shape %235 [[0, 1], [2]] : tensor<80x11008xf32> into tensor<1x80x11008xf32>
    %236 = tensor.empty() : tensor<1x80x11008xf32>
    %237 = linalg.generic {indexing_maps = [#map2, #map2], iterator_types = ["parallel", "parallel", "parallel"]} ins(%expanded_778 : tensor<1x80x11008xf32>) outs(%236 : tensor<1x80x11008xf32>) {
    ^bb0(%in: f32, %out: f32):
      %3652 = arith.negf %in : f32
      %3653 = math.exp %3652 : f32
      %cst_2684 = arith.constant 1.000000e+00 : f32
      %3654 = arith.addf %cst_2684, %3653 : f32
      %3655 = arith.divf %in, %3654 : f32
      linalg.yield %3655 : f32
    } -> tensor<1x80x11008xf32>
    %238 = tensor.empty() : tensor<4096x11008xf32>
    %239 = linalg.generic {indexing_maps = [#map, #map9], iterator_types = ["parallel", "parallel"]} ins(%expanded_90 : tensor<11008x4096xf32>) outs(%238 : tensor<4096x11008xf32>) {
    ^bb0(%in: f32, %out: f32):
      linalg.yield %in : f32
    } -> tensor<4096x11008xf32>
    %collapsed_779 = tensor.collapse_shape %232 [[0, 1], [2]] : tensor<1x80x4096xf32> into tensor<80x4096xf32>
    %cst_780 = arith.constant dense<0.000000e+00> : tensor<80x11008xf32>
    %240 = linalg.matmul {cast = #linalg.type_fn<cast_signed>} ins(%collapsed_779, %239 : tensor<80x4096xf32>, tensor<4096x11008xf32>) outs(%cst_780 : tensor<80x11008xf32>) -> tensor<80x11008xf32>
    %expanded_781 = tensor.expand_shape %240 [[0, 1], [2]] : tensor<80x11008xf32> into tensor<1x80x11008xf32>
    %241 = tensor.empty() : tensor<1x80x11008xf32>
    %242 = linalg.generic {indexing_maps = [#map2, #map2, #map2], iterator_types = ["parallel", "parallel", "parallel"]} ins(%237, %expanded_781 : tensor<1x80x11008xf32>, tensor<1x80x11008xf32>) outs(%241 : tensor<1x80x11008xf32>) {
    ^bb0(%in: f32, %in_2684: f32, %out: f32):
      %3652 = arith.mulf %in, %in_2684 : f32
      linalg.yield %3652 : f32
    } -> tensor<1x80x11008xf32>
    %243 = tensor.empty() : tensor<11008x4096xf32>
    %244 = linalg.generic {indexing_maps = [#map, #map9], iterator_types = ["parallel", "parallel"]} ins(%expanded_92 : tensor<4096x11008xf32>) outs(%243 : tensor<11008x4096xf32>) {
    ^bb0(%in: f32, %out: f32):
      linalg.yield %in : f32
    } -> tensor<11008x4096xf32>
    %collapsed_782 = tensor.collapse_shape %242 [[0, 1], [2]] : tensor<1x80x11008xf32> into tensor<80x11008xf32>
    %cst_783 = arith.constant dense<0.000000e+00> : tensor<80x4096xf32>
    %245 = linalg.matmul {cast = #linalg.type_fn<cast_signed>} ins(%collapsed_782, %244 : tensor<80x11008xf32>, tensor<11008x4096xf32>) outs(%cst_783 : tensor<80x4096xf32>) -> tensor<80x4096xf32>
    %expanded_784 = tensor.expand_shape %245 [[0, 1], [2]] : tensor<80x4096xf32> into tensor<1x80x4096xf32>
    %246 = tensor.empty() : tensor<1x80x4096xf32>
    %247 = linalg.generic {indexing_maps = [#map2, #map2, #map2], iterator_types = ["parallel", "parallel", "parallel"]} ins(%221, %expanded_784 : tensor<1x80x4096xf32>, tensor<1x80x4096xf32>) outs(%246 : tensor<1x80x4096xf32>) {
    ^bb0(%in: f32, %in_2684: f32, %out: f32):
      %3652 = arith.addf %in, %in_2684 : f32
      linalg.yield %3652 : f32
    } -> tensor<1x80x4096xf32>
    %248 = tensor.empty() : tensor<1x80x4096xf32>
    %cst_785 = arith.constant 2.000000e+00 : f32
    %249 = linalg.generic {indexing_maps = [#map2, #map2], iterator_types = ["parallel", "parallel", "parallel"]} ins(%247 : tensor<1x80x4096xf32>) outs(%248 : tensor<1x80x4096xf32>) {
    ^bb0(%in: f32, %out: f32):
      %3652 = math.powf %in, %cst_785 : f32
      linalg.yield %3652 : f32
    } -> tensor<1x80x4096xf32>
    %cst_786 = arith.constant dense<0.000000e+00> : tensor<1x80x1xf32>
    %250 = linalg.generic {indexing_maps = [#map8, #map6], iterator_types = ["parallel", "parallel", "reduction", "parallel"]} ins(%249 : tensor<1x80x4096xf32>) outs(%cst_786 : tensor<1x80x1xf32>) {
    ^bb0(%in: f32, %out: f32):
      %cst_2684 = arith.constant 4.096000e+03 : f32
      %3652 = arith.divf %in, %cst_2684 : f32
      %3653 = arith.addf %3652, %out : f32
      linalg.yield %3653 : f32
    } -> tensor<1x80x1xf32>
    %cst_787 = arith.constant dense<9.99999974E-6> : tensor<1x80x1xf32>
    %251 = tensor.empty() : tensor<1x80x1xf32>
    %252 = linalg.generic {indexing_maps = [#map2, #map2, #map2], iterator_types = ["parallel", "parallel", "parallel"]} ins(%250, %cst_787 : tensor<1x80x1xf32>, tensor<1x80x1xf32>) outs(%251 : tensor<1x80x1xf32>) {
    ^bb0(%in: f32, %in_2684: f32, %out: f32):
      %3652 = arith.addf %in, %in_2684 : f32
      linalg.yield %3652 : f32
    } -> tensor<1x80x1xf32>
    %253 = tensor.empty() : tensor<1x80x1xf32>
    %254 = linalg.generic {indexing_maps = [#map2, #map2], iterator_types = ["parallel", "parallel", "parallel"]} ins(%252 : tensor<1x80x1xf32>) outs(%253 : tensor<1x80x1xf32>) {
    ^bb0(%in: f32, %out: f32):
      %3652 = math.rsqrt %in : f32
      linalg.yield %3652 : f32
    } -> tensor<1x80x1xf32>
    %255 = tensor.empty() : tensor<1x80x4096xf32>
    %collapsed_788 = tensor.collapse_shape %254 [[0], [1, 2]] : tensor<1x80x1xf32> into tensor<1x80xf32>
    %256 = linalg.generic {indexing_maps = [#map2, #map1, #map2], iterator_types = ["parallel", "parallel", "parallel"]} ins(%247, %collapsed_788 : tensor<1x80x4096xf32>, tensor<1x80xf32>) outs(%255 : tensor<1x80x4096xf32>) {
    ^bb0(%in: f32, %in_2684: f32, %out: f32):
      %3652 = arith.mulf %in, %in_2684 : f32
      linalg.yield %3652 : f32
    } -> tensor<1x80x4096xf32>
    %expanded_789 = tensor.expand_shape %extracted_slice_3 [[0, 1, 2]] : tensor<4096xf32> into tensor<1x1x4096xf32>
    %257 = tensor.empty() : tensor<1x80x4096xf32>
    %collapsed_790 = tensor.collapse_shape %expanded_789 [[0, 1], [2]] : tensor<1x1x4096xf32> into tensor<1x4096xf32>
    %258 = linalg.generic {indexing_maps = [#map5, #map2, #map2], iterator_types = ["parallel", "parallel", "parallel"]} ins(%collapsed_790, %256 : tensor<1x4096xf32>, tensor<1x80x4096xf32>) outs(%257 : tensor<1x80x4096xf32>) {
    ^bb0(%in: f32, %in_2684: f32, %out: f32):
      %3652 = arith.mulf %in, %in_2684 : f32
      linalg.yield %3652 : f32
    } -> tensor<1x80x4096xf32>
    %259 = tensor.empty() : tensor<4096x4096xf32>
    %260 = linalg.generic {indexing_maps = [#map, #map9], iterator_types = ["parallel", "parallel"]} ins(%expanded_94 : tensor<4096x4096xf32>) outs(%259 : tensor<4096x4096xf32>) {
    ^bb0(%in: f32, %out: f32):
      linalg.yield %in : f32
    } -> tensor<4096x4096xf32>
    %collapsed_791 = tensor.collapse_shape %258 [[0, 1], [2]] : tensor<1x80x4096xf32> into tensor<80x4096xf32>
    %cst_792 = arith.constant dense<0.000000e+00> : tensor<80x4096xf32>
    %261 = linalg.matmul {cast = #linalg.type_fn<cast_signed>} ins(%collapsed_791, %260 : tensor<80x4096xf32>, tensor<4096x4096xf32>) outs(%cst_792 : tensor<80x4096xf32>) -> tensor<80x4096xf32>
    %expanded_793 = tensor.expand_shape %261 [[0, 1], [2]] : tensor<80x4096xf32> into tensor<1x80x4096xf32>
    %262 = tensor.empty() : tensor<4096x4096xf32>
    %263 = linalg.generic {indexing_maps = [#map, #map9], iterator_types = ["parallel", "parallel"]} ins(%expanded_96 : tensor<4096x4096xf32>) outs(%262 : tensor<4096x4096xf32>) {
    ^bb0(%in: f32, %out: f32):
      linalg.yield %in : f32
…
    ^bb0(%in: f32, %in_2684: f32, %out: f32):
      %3652 = arith.mulf %in, %in_2684 : f32
      linalg.yield %3652 : f32
    } -> tensor<1x32x80x128xf32>
    %extracted_slice_2575 = tensor.extract_slice %3435[0, 0, 0, 0] [1, 32, 80, 64] [1, 1, 1, 1] : tensor<1x32x80x128xf32> to tensor<1x32x80x64xf32>
    %extracted_slice_2576 = tensor.extract_slice %3435[0, 0, 0, 64] [1, 32, 80, 64] [1, 1, 1, 1] : tensor<1x32x80x128xf32> to tensor<1x32x80x64xf32>
    %3461 = tensor.empty() : tensor<1x32x80x64xf32>
    %3462 = linalg.generic {indexing_maps = [#map7, #map7], iterator_types = ["parallel", "parallel", "parallel", "parallel"]} ins(%extracted_slice_2576 : tensor<1x32x80x64xf32>) outs(%3461 : tensor<1x32x80x64xf32>) {
    ^bb0(%in: f32, %out: f32):
      %3652 = arith.negf %in : f32
      linalg.yield %3652 : f32
    } -> tensor<1x32x80x64xf32>
    %3463 = tensor.empty() : tensor<1x32x80x128xf32>
    %inserted_slice_2577 = tensor.insert_slice %3462 into %3463[0, 0, 0, 0] [1, 32, 80, 64] [1, 1, 1, 1] : tensor<1x32x80x64xf32> into tensor<1x32x80x128xf32>
    %inserted_slice_2578 = tensor.insert_slice %extracted_slice_2575 into %inserted_slice_2577[0, 0, 0, 64] [1, 32, 80, 64] [1, 1, 1, 1] : tensor<1x32x80x64xf32> into tensor<1x32x80x128xf32>
    %3464 = tensor.empty() : tensor<1x32x80x128xf32>
    %3465 = linalg.generic {indexing_maps = [#map7, #map13, #map7], iterator_types = ["parallel", "parallel", "parallel", "parallel"]} ins(%inserted_slice_2578, %3449 : tensor<1x32x80x128xf32>, tensor<1x80x128xf32>) outs(%3464 : tensor<1x32x80x128xf32>) {
    ^bb0(%in: f32, %in_2684: f32, %out: f32):
      %3652 = arith.mulf %in, %in_2684 : f32
      linalg.yield %3652 : f32
    } -> tensor<1x32x80x128xf32>
    %3466 = tensor.empty() : tensor<1x32x80x128xf32>
    %3467 = linalg.generic {indexing_maps = [#map7, #map7, #map7], iterator_types = ["parallel", "parallel", "parallel", "parallel"]} ins(%3460, %3465 : tensor<1x32x80x128xf32>, tensor<1x32x80x128xf32>) outs(%3466 : tensor<1x32x80x128xf32>) {
    ^bb0(%in: f32, %in_2684: f32, %out: f32):
      %3652 = arith.addf %in, %in_2684 : f32
      linalg.yield %3652 : f32
    } -> tensor<1x32x80x128xf32>
    %3468 = tensor.empty() : tensor<1x32x128x80xf32>
    %3469 = linalg.generic {indexing_maps = [#map14, #map7], iterator_types = ["parallel", "parallel", "parallel", "parallel"]} ins(%3467 : tensor<1x32x80x128xf32>) outs(%3468 : tensor<1x32x128x80xf32>) {
    ^bb0(%in: f32, %out: f32):
      linalg.yield %in : f32
    } -> tensor<1x32x128x80xf32>
    %cst_2579 = arith.constant dense<0.000000e+00> : tensor<1x32x80x128xf32>
    %collapsed_2580 = tensor.collapse_shape %3458 [[0, 1], [2], [3]] : tensor<1x32x80x128xf32> into tensor<32x80x128xf32>
    %cst_2581 = arith.constant dense<0.000000e+00> : tensor<1x32x128x80xf32>
    %collapsed_2582 = tensor.collapse_shape %3469 [[0, 1], [2], [3]] : tensor<1x32x128x80xf32> into tensor<32x128x80xf32>
    %cst_2583 = arith.constant 0.000000e+00 : f32
    %3470 = tensor.empty() : tensor<32x80x80xf32>
    %3471 = linalg.fill ins(%cst_2583 : f32) outs(%3470 : tensor<32x80x80xf32>) -> tensor<32x80x80xf32>
    %3472 = linalg.batch_matmul ins(%collapsed_2580, %collapsed_2582 : tensor<32x80x128xf32>, tensor<32x128x80xf32>) outs(%3471 : tensor<32x80x80xf32>) -> tensor<32x80x80xf32>
    %expanded_2584 = tensor.expand_shape %3472 [[0, 1], [2], [3]] : tensor<32x80x80xf32> into tensor<1x32x80x80xf32>
    %cst_2585 = arith.constant dense<11.3137083> : tensor<1x32x80x80xf32>
    %3473 = tensor.empty() : tensor<1x32x80x80xf32>
    %3474 = linalg.generic {indexing_maps = [#map7, #map7], iterator_types = ["parallel", "parallel", "parallel", "parallel"]} ins(%cst_2585 : tensor<1x32x80x80xf32>) outs(%3473 : tensor<1x32x80x80xf32>) {
    ^bb0(%in: f32, %out: f32):
      %cst_2684 = arith.constant 1.000000e+00 : f32
      %3652 = arith.divf %cst_2684, %in : f32
      linalg.yield %3652 : f32
    } -> tensor<1x32x80x80xf32>
    %3475 = tensor.empty() : tensor<1x32x80x80xf32>
    %3476 = linalg.generic {indexing_maps = [#map7, #map7, #map7], iterator_types = ["parallel", "parallel", "parallel", "parallel"]} ins(%expanded_2584, %3474 : tensor<1x32x80x80xf32>, tensor<1x32x80x80xf32>) outs(%3475 : tensor<1x32x80x80xf32>) {
    ^bb0(%in: f32, %in_2684: f32, %out: f32):
      %3652 = arith.mulf %in, %in_2684 : f32
      linalg.yield %3652 : f32
    } -> tensor<1x32x80x80xf32>
    %3477 = tensor.empty() : tensor<1x32x80x80xf32>
    %collapsed_2586 = tensor.collapse_shape %21 [[0, 1], [2], [3]] : tensor<1x1x80x80xf32> into tensor<1x80x80xf32>
    %3478 = linalg.generic {indexing_maps = [#map7, #map13, #map7], iterator_types = ["parallel", "parallel", "parallel", "parallel"]} ins(%3476, %collapsed_2586 : tensor<1x32x80x80xf32>, tensor<1x80x80xf32>) outs(%3477 : tensor<1x32x80x80xf32>) {
    ^bb0(%in: f32, %in_2684: f32, %out: f32):
      %3652 = arith.addf %in, %in_2684 : f32
      linalg.yield %3652 : f32
    } -> tensor<1x32x80x80xf32>
    %3479 = tensor.empty() : tensor<1x32x80x1xf32>
    %3480 = linalg.generic {indexing_maps = [#map7], iterator_types = ["parallel", "parallel", "parallel", "parallel"]} outs(%3479 : tensor<1x32x80x1xf32>) {
    ^bb0(%out: f32):
      %cst_2684 = arith.constant 0xFF800000 : f32
      linalg.yield %cst_2684 : f32
    } -> tensor<1x32x80x1xf32>
    %3481 = linalg.generic {indexing_maps = [#map7, #map15], iterator_types = ["parallel", "parallel", "parallel", "reduction"]} ins(%3478 : tensor<1x32x80x80xf32>) outs(%3479 : tensor<1x32x80x1xf32>) {
    ^bb0(%in: f32, %out: f32):
      %3652 = arith.maximumf %in, %out : f32
      linalg.yield %3652 : f32
    } -> tensor<1x32x80x1xf32>
    %3482 = tensor.empty() : tensor<1x32x80x80xf32>
    %3483 = linalg.generic {indexing_maps = [#map7, #map15, #map7], iterator_types = ["parallel", "parallel", "parallel", "parallel"]} ins(%3478, %3481 : tensor<1x32x80x80xf32>, tensor<1x32x80x1xf32>) outs(%3482 : tensor<1x32x80x80xf32>) {
    ^bb0(%in: f32, %in_2684: f32, %out: f32):
      %3652 = arith.subf %in, %in_2684 : f32
      %3653 = math.exp %3652 : f32
      linalg.yield %3653 : f32
    } -> tensor<1x32x80x80xf32>
    %3484 = tensor.empty() : tensor<1x32x80x1xf32>
    %3485 = linalg.generic {indexing_maps = [#map7], iterator_types = ["parallel", "parallel", "parallel", "parallel"]} outs(%3484 : tensor<1x32x80x1xf32>) {
    ^bb0(%out: f32):
      %cst_2684 = arith.constant 0.000000e+00 : f32
      linalg.yield %cst_2684 : f32
    } -> tensor<1x32x80x1xf32>
    %3486 = linalg.generic {indexing_maps = [#map7, #map15], iterator_types = ["parallel", "parallel", "parallel", "reduction"]} ins(%3483 : tensor<1x32x80x80xf32>) outs(%3485 : tensor<1x32x80x1xf32>) {
    ^bb0(%in: f32, %out: f32):
      %3652 = arith.addf %in, %out : f32
      linalg.yield %3652 : f32
    } -> tensor<1x32x80x1xf32>
    %3487 = tensor.empty() : tensor<1x32x80x80xf32>
    %3488 = linalg.generic {indexing_maps = [#map7, #map15, #map7], iterator_types = ["parallel", "parallel", "parallel", "parallel"]} ins(%3483, %3486 : tensor<1x32x80x80xf32>, tensor<1x32x80x1xf32>) outs(%3487 : tensor<1x32x80x80xf32>) {
    ^bb0(%in: f32, %in_2684: f32, %out: f32):
      %3652 = arith.divf %in, %in_2684 : f32
      linalg.yield %3652 : f32
    } -> tensor<1x32x80x80xf32>
    %cst_2587 = arith.constant dense<0.000000e+00> : tensor<1x32x80x80xf32>
    %collapsed_2588 = tensor.collapse_shape %3488 [[0, 1], [2], [3]] : tensor<1x32x80x80xf32> into tensor<32x80x80xf32>
    %cst_2589 = arith.constant dense<0.000000e+00> : tensor<1x32x80x128xf32>
    %collapsed_2590 = tensor.collapse_shape %3437 [[0, 1], [2], [3]] : tensor<1x32x80x128xf32> into tensor<32x80x128xf32>
    %cst_2591 = arith.constant 0.000000e+00 : f32
    %3489 = tensor.empty() : tensor<32x80x128xf32>
    %3490 = linalg.fill ins(%cst_2591 : f32) outs(%3489 : tensor<32x80x128xf32>) -> tensor<32x80x128xf32>
    %3491 = linalg.batch_matmul ins(%collapsed_2588, %collapsed_2590 : tensor<32x80x80xf32>, tensor<32x80x128xf32>) outs(%3490 : tensor<32x80x128xf32>) -> tensor<32x80x128xf32>
    %expanded_2592 = tensor.expand_shape %3491 [[0, 1], [2], [3]] : tensor<32x80x128xf32> into tensor<1x32x80x128xf32>
    %3492 = tensor.empty() : tensor<1x80x32x128xf32>
    %3493 = linalg.generic {indexing_maps = [#map10, #map7], iterator_types = ["parallel", "parallel", "parallel", "parallel"]} ins(%expanded_2592 : tensor<1x32x80x128xf32>) outs(%3492 : tensor<1x80x32x128xf32>) {
    ^bb0(%in: f32, %out: f32):
      linalg.yield %in : f32
    } -> tensor<1x80x32x128xf32>
    %collapsed_2593 = tensor.collapse_shape %3493 [[0], [1], [2, 3]] : tensor<1x80x32x128xf32> into tensor<1x80x4096xf32>
    %3494 = tensor.empty() : tensor<4096x4096xf32>
    %3495 = linalg.generic {indexing_maps = [#map, #map9], iterator_types = ["parallel", "parallel"]} ins(%expanded_492 : tensor<4096x4096xf32>) outs(%3494 : tensor<4096x4096xf32>) {
    ^bb0(%in: f32, %out: f32):
      linalg.yield %in : f32
    } -> tensor<4096x4096xf32>
    %collapsed_2594 = tensor.collapse_shape %collapsed_2593 [[0, 1], [2]] : tensor<1x80x4096xf32> into tensor<80x4096xf32>
    %cst_2595 = arith.constant dense<0.000000e+00> : tensor<80x4096xf32>
    %3496 = linalg.matmul {cast = #linalg.type_fn<cast_signed>} ins(%collapsed_2594, %3495 : tensor<80x4096xf32>, tensor<4096x4096xf32>) outs(%cst_2595 : tensor<80x4096xf32>) -> tensor<80x4096xf32>
    %expanded_2596 = tensor.expand_shape %3496 [[0, 1], [2]] : tensor<80x4096xf32> into tensor<1x80x4096xf32>
    %3497 = tensor.empty() : tensor<1x80x4096xf32>
    %3498 = linalg.generic {indexing_maps = [#map2, #map2, #map2], iterator_types = ["parallel", "parallel", "parallel"]} ins(%3411, %expanded_2596 : tensor<1x80x4096xf32>, tensor<1x80x4096xf32>) outs(%3497 : tensor<1x80x4096xf32>) {
    ^bb0(%in: f32, %in_2684: f32, %out: f32):
      %3652 = arith.addf %in, %in_2684 : f32
      linalg.yield %3652 : f32
    } -> tensor<1x80x4096xf32>
    %3499 = tensor.empty() : tensor<1x80x4096xf32>
    %cst_2597 = arith.constant 2.000000e+00 : f32
    %3500 = linalg.generic {indexing_maps = [#map2, #map2], iterator_types = ["parallel", "parallel", "parallel"]} ins(%3498 : tensor<1x80x4096xf32>) outs(%3499 : tensor<1x80x4096xf32>) {
    ^bb0(%in: f32, %out: f32):
      %3652 = math.powf %in, %cst_2597 : f32
      linalg.yield %3652 : f32
    } -> tensor<1x80x4096xf32>
    %cst_2598 = arith.constant dense<0.000000e+00> : tensor<1x80x1xf32>
    %3501 = linalg.generic {indexing_maps = [#map8, #map6], iterator_types = ["parallel", "parallel", "reduction", "parallel"]} ins(%3500 : tensor<1x80x4096xf32>) outs(%cst_2598 : tensor<1x80x1xf32>) {
    ^bb0(%in: f32, %out: f32):
      %cst_2684 = arith.constant 4.096000e+03 : f32
      %3652 = arith.divf %in, %cst_2684 : f32
      %3653 = arith.addf %3652, %out : f32
      linalg.yield %3653 : f32
    } -> tensor<1x80x1xf32>
    %cst_2599 = arith.constant dense<9.99999974E-6> : tensor<1x80x1xf32>
    %3502 = tensor.empty() : tensor<1x80x1xf32>
    %3503 = linalg.generic {indexing_maps = [#map2, #map2, #map2], iterator_types = ["parallel", "parallel", "parallel"]} ins(%3501, %cst_2599 : tensor<1x80x1xf32>, tensor<1x80x1xf32>) outs(%3502 : tensor<1x80x1xf32>) {
    ^bb0(%in: f32, %in_2684: f32, %out: f32):
      %3652 = arith.addf %in, %in_2684 : f32
      linalg.yield %3652 : f32
    } -> tensor<1x80x1xf32>
    %3504 = tensor.empty() : tensor<1x80x1xf32>
    %3505 = linalg.generic {indexing_maps = [#map2, #map2], iterator_types = ["parallel", "parallel", "parallel"]} ins(%3503 : tensor<1x80x1xf32>) outs(%3504 : tensor<1x80x1xf32>) {
    ^bb0(%in: f32, %out: f32):
      %3652 = math.rsqrt %in : f32
      linalg.yield %3652 : f32
    } -> tensor<1x80x1xf32>
    %3506 = tensor.empty() : tensor<1x80x4096xf32>
    %collapsed_2600 = tensor.collapse_shape %3505 [[0], [1, 2]] : tensor<1x80x1xf32> into tensor<1x80xf32>
    %3507 = linalg.generic {indexing_maps = [#map2, #map1, #map2], iterator_types = ["parallel", "parallel", "parallel"]} ins(%3498, %collapsed_2600 : tensor<1x80x4096xf32>, tensor<1x80xf32>) outs(%3506 : tensor<1x80x4096xf32>) {
    ^bb0(%in: f32, %in_2684: f32, %out: f32):
      %3652 = arith.mulf %in, %in_2684 : f32
      linalg.yield %3652 : f32
    } -> tensor<1x80x4096xf32>
    %expanded_2601 = tensor.expand_shape %extracted_slice_60 [[0, 1, 2]] : tensor<4096xf32> into tensor<1x1x4096xf32>
    %3508 = tensor.empty() : tensor<1x80x4096xf32>
    %collapsed_2602 = tensor.collapse_shape %expanded_2601 [[0, 1], [2]] : tensor<1x1x4096xf32> into tensor<1x4096xf32>
    %3509 = linalg.generic {indexing_maps = [#map5, #map2, #map2], iterator_types = ["parallel", "parallel", "parallel"]} ins(%collapsed_2602, %3507 : tensor<1x4096xf32>, tensor<1x80x4096xf32>) outs(%3508 : tensor<1x80x4096xf32>) {
    ^bb0(%in: f32, %in_2684: f32, %out: f32):
      %3652 = arith.mulf %in, %in_2684 : f32
      linalg.yield %3652 : f32
    } -> tensor<1x80x4096xf32>
    %3510 = tensor.empty() : tensor<4096x11008xf32>
    %3511 = linalg.generic {indexing_maps = [#map, #map9], iterator_types = ["parallel", "parallel"]} ins(%expanded_494 : tensor<11008x4096xf32>) outs(%3510 : tensor<4096x11008xf32>) {
    ^bb0(%in: f32, %out: f32):
      linalg.yield %in : f32
    } -> tensor<4096x11008xf32>
    %collapsed_2603 = tensor.collapse_shape %3509 [[0, 1], [2]] : tensor<1x80x4096xf32> into tensor<80x4096xf32>
    %cst_2604 = arith.constant dense<0.000000e+00> : tensor<80x11008xf32>
    %3512 = linalg.matmul {cast = #linalg.type_fn<cast_signed>} ins(%collapsed_2603, %3511 : tensor<80x4096xf32>, tensor<4096x11008xf32>) outs(%cst_2604 : tensor<80x11008xf32>) -> tensor<80x11008xf32>
    %expanded_2605 = tensor.expand_shape %3512 [[0, 1], [2]] : tensor<80x11008xf32> into tensor<1x80x11008xf32>
    %3513 = tensor.empty() : tensor<1x80x11008xf32>
    %3514 = linalg.generic {indexing_maps = [#map2, #map2], iterator_types = ["parallel", "parallel", "parallel"]} ins(%expanded_2605 : tensor<1x80x11008xf32>) outs(%3513 : tensor<1x80x11008xf32>) {
    ^bb0(%in: f32, %out: f32):
      %3652 = arith.negf %in : f32
      %3653 = math.exp %3652 : f32
      %cst_2684 = arith.constant 1.000000e+00 : f32
      %3654 = arith.addf %cst_2684, %3653 : f32
      %3655 = arith.divf %in, %3654 : f32
      linalg.yield %3655 : f32
    } -> tensor<1x80x11008xf32>
    %3515 = tensor.empty() : tensor<4096x11008xf32>
    %3516 = linalg.generic {indexing_maps = [#map, #map9], iterator_types = ["parallel", "parallel"]} ins(%expanded_496 : tensor<11008x4096xf32>) outs(%3515 : tensor<4096x11008xf32>) {
    ^bb0(%in: f32, %out: f32):
      linalg.yield %in : f32
    } -> tensor<4096x11008xf32>
    %collapsed_2606 = tensor.collapse_shape %3509 [[0, 1], [2]] : tensor<1x80x4096xf32> into tensor<80x4096xf32>
    %cst_2607 = arith.constant dense<0.000000e+00> : tensor<80x11008xf32>
    %3517 = linalg.matmul {cast = #linalg.type_fn<cast_signed>} ins(%collapsed_2606, %3516 : tensor<80x4096xf32>, tensor<4096x11008xf32>) outs(%cst_2607 : tensor<80x11008xf32>) -> tensor<80x11008xf32>
    %expanded_2608 = tensor.expand_shape %3517 [[0, 1], [2]] : tensor<80x11008xf32> into tensor<1x80x11008xf32>
    %3518 = tensor.empty() : tensor<1x80x11008xf32>
    %3519 = linalg.generic {indexing_maps = [#map2, #map2, #map2], iterator_types = ["parallel", "parallel", "parallel"]} ins(%3514, %expanded_2608 : tensor<1x80x11008xf32>, tensor<1x80x11008xf32>) outs(%3518 : tensor<1x80x11008xf32>) {
    ^bb0(%in: f32, %in_2684: f32, %out: f32):
      %3652 = arith.mulf %in, %in_2684 : f32
      linalg.yield %3652 : f32
    } -> tensor<1x80x11008xf32>
    %3520 = tensor.empty() : tensor<11008x4096xf32>
    %3521 = linalg.generic {indexing_maps = [#map, #map9], iterator_types = ["parallel", "parallel"]} ins(%expanded_498 : tensor<4096x11008xf32>) outs(%3520 : tensor<11008x4096xf32>) {
    ^bb0(%in: f32, %out: f32):
      linalg.yield %in : f32
    } -> tensor<11008x4096xf32>
    %collapsed_2609 = tensor.collapse_shape %3519 [[0, 1], [2]] : tensor<1x80x11008xf32> into tensor<80x11008xf32>
    %cst_2610 = arith.constant dense<0.000000e+00> : tensor<80x4096xf32>
    %3522 = linalg.matmul {cast = #linalg.type_fn<cast_signed>} ins(%collapsed_2609, %3521 : tensor<80x11008xf32>, tensor<11008x4096xf32>) outs(%cst_2610 : tensor<80x4096xf32>) -> tensor<80x4096xf32>
    %expanded_2611 = tensor.expand_shape %3522 [[0, 1], [2]] : tensor<80x4096xf32> into tensor<1x80x4096xf32>
    %3523 = tensor.empty() : tensor<1x80x4096xf32>
    %3524 = linalg.generic {indexing_maps = [#map2, #map2, #map2], iterator_types = ["parallel", "parallel", "parallel"]} ins(%3498, %expanded_2611 : tensor<1x80x4096xf32>, tensor<1x80x4096xf32>) outs(%3523 : tensor<1x80x4096xf32>) {
    ^bb0(%in: f32, %in_2684: f32, %out: f32):
      %3652 = arith.addf %in, %in_2684 : f32
      linalg.yield %3652 : f32
    } -> tensor<1x80x4096xf32>
    %3525 = tensor.empty() : tensor<1x80x4096xf32>
    %cst_2612 = arith.constant 2.000000e+00 : f32
    %3526 = linalg.generic {indexing_maps = [#map2, #map2], iterator_types = ["parallel", "parallel", "parallel"]} ins(%3524 : tensor<1x80x4096xf32>) outs(%3525 : tensor<1x80x4096xf32>) {
    ^bb0(%in: f32, %out: f32):
      %3652 = math.powf %in, %cst_2612 : f32
      linalg.yield %3652 : f32
    } -> tensor<1x80x4096xf32>
    %cst_2613 = arith.constant dense<0.000000e+00> : tensor<1x80x1xf32>
    %3527 = linalg.generic {indexing_maps = [#map8, #map6], iterator_types = ["parallel", "parallel", "reduction", "parallel"]} ins(%3526 : tensor<1x80x4096xf32>) outs(%cst_2613 : tensor<1x80x1xf32>) {
    ^bb0(%in: f32, %out: f32):
      %cst_2684 = arith.constant 4.096000e+03 : f32
      %3652 = arith.divf %in, %cst_2684 : f32
      %3653 = arith.addf %3652, %out : f32
      linalg.yield %3653 : f32
    } -> tensor<1x80x1xf32>
    %cst_2614 = arith.constant dense<9.99999974E-6> : tensor<1x80x1xf32>
    %3528 = tensor.empty() : tensor<1x80x1xf32>
    %3529 = linalg.generic {indexing_maps = [#map2, #map2, #map2], iterator_types = ["parallel", "parallel", "parallel"]} ins(%3527, %cst_2614 : tensor<1x80x1xf32>, tensor<1x80x1xf32>) outs(%3528 : tensor<1x80x1xf32>) {
    ^bb0(%in: f32, %in_2684: f32, %out: f32):
      %3652 = arith.addf %in, %in_2684 : f32
      linalg.yield %3652 : f32
    } -> tensor<1x80x1xf32>
    %3530 = tensor.empty() : tensor<1x80x1xf32>
    %3531 = linalg.generic {indexing_maps = [#map2, #map2], iterator_types = ["parallel", "parallel", "parallel"]} ins(%3529 : tensor<1x80x1xf32>) outs(%3530 : tensor<1x80x1xf32>) {
    ^bb0(%in: f32, %out: f32):
      %3652 = math.rsqrt %in : f32
      linalg.yield %3652 : f32
    } -> tensor<1x80x1xf32>
    %3532 = tensor.empty() : tensor<1x80x4096xf32>
    %collapsed_2615 = tensor.collapse_shape %3531 [[0], [1, 2]] : tensor<1x80x1xf32> into tensor<1x80xf32>
    %3533 = linalg.generic {indexing_maps = [#map2, #map1, #map2], iterator_types = ["parallel", "parallel", "parallel"]} ins(%3524, %collapsed_2615 : tensor<1x80x4096xf32>, tensor<1x80xf32>) outs(%3532 : tensor<1x80x4096xf32>) {
    ^bb0(%in: f32, %in_2684: f32, %out: f32):
      %3652 = arith.mulf %in, %in_2684 : f32
      linalg.yield %3652 : f32
    } -> tensor<1x80x4096xf32>
    %expanded_2616 = tensor.expand_shape %extracted_slice_61 [[0, 1, 2]] : tensor<4096xf32> into tensor<1x1x4096xf32>
    %3534 = tensor.empty() : tensor<1x80x4096xf32>
    %collapsed_2617 = tensor.collapse_shape %expanded_2616 [[0, 1], [2]] : tensor<1x1x4096xf32> into tensor<1x4096xf32>
    %3535 = linalg.generic {indexing_maps = [#map5, #map2, #map2], iterator_types = ["parallel", "parallel", "parallel"]} ins(%collapsed_2617, %3533 : tensor<1x4096xf32>, tensor<1x80x4096xf32>) outs(%3534 : tensor<1x80x4096xf32>) {
    ^bb0(%in: f32, %in_2684: f32, %out: f32):
      %3652 = arith.mulf %in, %in_2684 : f32
      linalg.yield %3652 : f32
    } -> tensor<1x80x4096xf32>
    %3536 = tensor.empty() : tensor<4096x4096xf32>
    %3537 = linalg.generic {indexing_maps = [#map, #map9], iterator_types = ["parallel", "parallel"]} ins(%expanded_500 : tensor<4096x4096xf32>) outs(%3536 : tensor<4096x4096xf32>) {
    ^bb0(%in: f32, %out: f32):
      linalg.yield %in : f32
    } -> tensor<4096x4096xf32>
    %collapsed_2618 = tensor.collapse_shape %3535 [[0, 1], [2]] : tensor<1x80x4096xf32> into tensor<80x4096xf32>
    %cst_2619 = arith.constant dense<0.000000e+00> : tensor<80x4096xf32>
    %3538 = linalg.matmul {cast = #linalg.type_fn<cast_signed>} ins(%collapsed_2618, %3537 : tensor<80x4096xf32>, tensor<4096x4096xf32>) outs(%cst_2619 : tensor<80x4096xf32>) -> tensor<80x4096xf32>
    %expanded_2620 = tensor.expand_shape %3538 [[0, 1], [2]] : tensor<80x4096xf32> into tensor<1x80x4096xf32>
    %3539 = tensor.empty() : tensor<4096x4096xf32>
    %3540 = linalg.generic {indexing_maps = [#map, #map9], iterator_types = ["parallel", "parallel"]} ins(%expanded_502 : tensor<4096x4096xf32>) outs(%3539 : tensor<4096x4096xf32>) {
    ^bb0(%in: f32, %out: f32):
      linalg.yield %in : f32
    } -> tensor<4096x4096xf32>
    %collapsed_2621 = tensor.collapse_shape %3535 [[0, 1], [2]] : tensor<1x80x4096xf32> into tensor<80x4096xf32>
    %cst_2622 = arith.constant dense<0.000000e+00> : tensor<80x4096xf32>
    %3541 = linalg.matmul {cast = #linalg.type_fn<cast_signed>} ins(%collapsed_2621, %3540 : tensor<80x4096xf32>, tensor<4096x4096xf32>) outs(%cst_2622 : tensor<80x4096xf32>) -> tensor<80x4096xf32>
    %expanded_2623 = tensor.expand_shape %3541 [[0, 1], [2]] : tensor<80x4096xf32> into tensor<1x80x4096xf32>
    %3542 = tensor.empty() : tensor<4096x4096xf32>
    %3543 = linalg.generic {indexing_maps = [#map, #map9], iterator_types = ["parallel", "parallel"]} ins(%expanded_504 : tensor<4096x4096xf32>) outs(%3542 : tensor<4096x4096xf32>) {
    ^bb0(%in: f32, %out: f32):
      linalg.yield %in : f32
    } -> tensor<4096x4096xf32>
    %collapsed_2624 = tensor.collapse_shape %3535 [[0, 1], [2]] : tensor<1x80x4096xf32> into tensor<80x4096xf32>
    %cst_2625 = arith.constant dense<0.000000e+00> : tensor<80x4096xf32>
    %3544 = linalg.matmul {cast = #linalg.type_fn<cast_signed>} ins(%collapsed_2624, %3543 : tensor<80x4096xf32>, tensor<4096x4096xf32>) outs(%cst_2625 : tensor<80x4096xf32>) -> tensor<80x4096xf32>
    %expanded_2626 = tensor.expand_shape %3544 [[0, 1], [2]] : tensor<80x4096xf32> into tensor<1x80x4096xf32>
    %expanded_2627 = tensor.expand_shape %expanded_2620 [[0], [1], [2, 3]] : tensor<1x80x4096xf32> into tensor<1x80x32x128xf32>
    %3545 = tensor.empty() : tensor<1x32x80x128xf32>
    %3546 = linalg.generic {indexing_maps = [#map10, #map7], iterator_types = ["parallel", "parallel", "parallel", "parallel"]} ins(%expanded_2627 : tensor<1x80x32x128xf32>) outs(%3545 : tensor<1x32x80x128xf32>) {
    ^bb0(%in: f32, %out: f32):
      linalg.yield %in : f32
    } -> tensor<1x32x80x128xf32>
    %expanded_2628 = tensor.expand_shape %expanded_2623 [[0], [1], [2, 3]] : tensor<1x80x4096xf32> into tensor<1x80x32x128xf32>
    %3547 = tensor.empty() : tensor<1x32x80x128xf32>
    %3548 = linalg.generic {indexing_maps = [#map10, #map7], iterator_types = ["parallel", "parallel", "parallel", "parallel"]} ins(%expanded_2628 : tensor<1x80x32x128xf32>) outs(%3547 : tensor<1x32x80x128xf32>) {
    ^bb0(%in: f32, %out: f32):
      linalg.yield %in : f32
    } -> tensor<1x32x80x128xf32>
    %expanded_2629 = tensor.expand_shape %expanded_2626 [[0], [1], [2, 3]] : tensor<1x80x4096xf32> into tensor<1x80x32x128xf32>
    %3549 = tensor.empty() : tensor<1x32x80x128xf32>
    %3550 = linalg.generic {indexing_maps = [#map10, #map7], iterator_types = ["parallel", "parallel", "parallel", "parallel"]} ins(%expanded_2629 : tensor<1x80x32x128xf32>) outs(%3549 : tensor<1x32x80x128xf32>) {
    ^bb0(%in: f32, %out: f32):
      linalg.yield %in : f32
    } -> tensor<1x32x80x128xf32>
    %extracted_slice_2630 = tensor.extract_slice %expanded_640[0, 0, 0, 0] [1, 1, 80, 128] [1, 1, 1, 1] : tensor<1x1x2048x128xf32> to tensor<1x1x80x128xf32>
    %extracted_slice_2631 = tensor.extract_slice %expanded_642[0, 0, 0, 0] [1, 1, 80, 128] [1, 1, 1, 1] : tensor<1x1x2048x128xf32> to tensor<1x1x80x128xf32>
    %3551 = tensor.empty() : tensor<1x80x128xf32>
    %3552 = linalg.generic {indexing_maps = [#map11, #map2], iterator_types = ["parallel", "parallel", "parallel"]} ins(%extracted_slice_2630 : tensor<1x1x80x128xf32>) outs(%3551 : tensor<1x80x128xf32>) {
    ^bb0(%in: f32, %out: f32):
      linalg.yield %in : f32
    } -> tensor<1x80x128xf32>
    %3553 = tensor.empty() : tensor<80x128xf32>
    %3554 = linalg.generic {indexing_maps = [#map12, #map], iterator_types = ["parallel", "parallel"]} ins(%3552 : tensor<1x80x128xf32>) outs(%3553 : tensor<80x128xf32>) {
    ^bb0(%in: f32, %out: f32):
      linalg.yield %in : f32
    } -> tensor<80x128xf32>
    %3555 = tensor.empty() : tensor<1x80x128xf32>
    %3556 = linalg.generic {indexing_maps = [#map11, #map2], iterator_types = ["parallel", "parallel", "parallel"]} ins(%extracted_slice_2631 : tensor<1x1x80x128xf32>) outs(%3555 : tensor<1x80x128xf32>) {
    ^bb0(%in: f32, %out: f32):
      linalg.yield %in : f32
    } -> tensor<1x80x128xf32>
    %3557 = tensor.empty() : tensor<80x128xf32>
    %3558 = linalg.generic {indexing_maps = [#map12, #map], iterator_types = ["parallel", "parallel"]} ins(%3556 : tensor<1x80x128xf32>) outs(%3557 : tensor<80x128xf32>) {
    ^bb0(%in: f32, %out: f32):
      linalg.yield %in : f32
    } -> tensor<80x128xf32>
    %3559 = tensor.empty() : tensor<1x80x128xf32>
    %3560 = linalg.generic {indexing_maps = [#map1, #map2], iterator_types = ["parallel", "parallel", "parallel"]} ins(%cst_643 : tensor<1x80xi64>) outs(%3559 : tensor<1x80x128xf32>) {
    ^bb0(%in: i64, %out: f32):
      %3652 = arith.index_cast %in : i64 to index
      %3653 = linalg.index 2 : index
      %extracted = tensor.extract %3554[%3652, %3653] : tensor<80x128xf32>
      linalg.yield %extracted : f32
    } -> tensor<1x80x128xf32>
    %expanded_2632 = tensor.expand_shape %3560 [[0, 1], [2], [3]] : tensor<1x80x128xf32> into tensor<1x1x80x128xf32>
    %3561 = tensor.empty() : tensor<1x80x128xf32>
    %3562 = linalg.generic {indexing_maps = [#map1, #map2], iterator_types = ["parallel", "parallel", "parallel"]} ins(%cst_643 : tensor<1x80xi64>) outs(%3561 : tensor<1x80x128xf32>) {
    ^bb0(%in: i64, %out: f32):
      %3652 = arith.index_cast %in : i64 to index
      %3653 = linalg.index 2 : index
      %extracted = tensor.extract %3558[%3652, %3653] : tensor<80x128xf32>
      linalg.yield %extracted : f32
    } -> tensor<1x80x128xf32>
    %expanded_2633 = tensor.expand_shape %3562 [[0, 1], [2], [3]] : tensor<1x80x128xf32> into tensor<1x1x80x128xf32>
    %3563 = tensor.empty() : tensor<1x32x80x128xf32>
    %3564 = linalg.generic {indexing_maps = [#map7, #map13, #map7], iterator_types = ["parallel", "parallel", "parallel", "parallel"]} ins(%3546, %3560 : tensor<1x32x80x128xf32>, tensor<1x80x128xf32>) outs(%3563 : tensor<1x32x80x128xf32>) {
    ^bb0(%in: f32, %in_2684: f32, %out: f32):
      %3652 = arith.mulf %in, %in_2684 : f32
      linalg.yield %3652 : f32
    } -> tensor<1x32x80x128xf32>
    %extracted_slice_2634 = tensor.extract_slice %3546[0, 0, 0, 0] [1, 32, 80, 64] [1, 1, 1, 1] : tensor<1x32x80x128xf32> to tensor<1x32x80x64xf32>
    %extracted_slice_2635 = tensor.extract_slice %3546[0, 0, 0, 64] [1, 32, 80, 64] [1, 1, 1, 1] : tensor<1x32x80x128xf32> to tensor<1x32x80x64xf32>
    %3565 = tensor.empty() : tensor<1x32x80x64xf32>
    %3566 = linalg.generic {indexing_maps = [#map7, #map7], iterator_types = ["parallel", "parallel", "parallel", "parallel"]} ins(%extracted_slice_2635 : tensor<1x32x80x64xf32>) outs(%3565 : tensor<1x32x80x64xf32>) {
    ^bb0(%in: f32, %out: f32):
      %3652 = arith.negf %in : f32
      linalg.yield %3652 : f32
    } -> tensor<1x32x80x64xf32>
    %3567 = tensor.empty() : tensor<1x32x80x128xf32>
    %inserted_slice_2636 = tensor.insert_slice %3566 into %3567[0, 0, 0, 0] [1, 32, 80, 64] [1, 1, 1, 1] : tensor<1x32x80x64xf32> into tensor<1x32x80x128xf32>
    %inserted_slice_2637 = tensor.insert_slice %extracted_slice_2634 into %inserted_slice_2636[0, 0, 0, 64] [1, 32, 80, 64] [1, 1, 1, 1] : tensor<1x32x80x64xf32> into tensor<1x32x80x128xf32>
    %3568 = tensor.empty() : tensor<1x32x80x128xf32>
    %3569 = linalg.generic {indexing_maps = [#map7, #map13, #map7], iterator_types = ["parallel", "parallel", "parallel", "parallel"]} ins(%inserted_slice_2637, %3562 : tensor<1x32x80x128xf32>, tensor<1x80x128xf32>) outs(%3568 : tensor<1x32x80x128xf32>) {
    ^bb0(%in: f32, %in_2684: f32, %out: f32):
      %3652 = arith.mulf %in, %in_2684 : f32
      linalg.yield %3652 : f32
    } -> tensor<1x32x80x128xf32>
    %3570 = tensor.empty() : tensor<1x32x80x128xf32>
    %3571 = linalg.generic {indexing_maps = [#map7, #map7, #map7], iterator_types = ["parallel", "parallel", "parallel", "parallel"]} ins(%3564, %3569 : tensor<1x32x80x128xf32>, tensor<1x32x80x128xf32>) outs(%3570 : tensor<1x32x80x128xf32>) {
    ^bb0(%in: f32, %in_2684: f32, %out: f32):
      %3652 = arith.addf %in, %in_2684 : f32
      linalg.yield %3652 : f32
    } -> tensor<1x32x80x128xf32>
    %3572 = tensor.empty() : tensor<1x32x80x128xf32>
    %3573 = linalg.generic {indexing_maps = [#map7, #map13, #map7], iterator_types = ["parallel", "parallel", "parallel", "parallel"]} ins(%3548, %3560 : tensor<1x32x80x128xf32>, tensor<1x80x128xf32>) outs(%3572 : tensor<1x32x80x128xf32>) {
    ^bb0(%in: f32, %in_2684: f32, %out: f32):
      %3652 = arith.mulf %in, %in_2684 : f32
      linalg.yield %3652 : f32
    } -> tensor<1x32x80x128xf32>
    %extracted_slice_2638 = tensor.extract_slice %3548[0, 0, 0, 0] [1, 32, 80, 64] [1, 1, 1, 1] : tensor<1x32x80x128xf32> to tensor<1x32x80x64xf32>
    %extracted_slice_2639 = tensor.extract_slice %3548[0, 0, 0, 64] [1, 32, 80, 64] [1, 1, 1, 1] : tensor<1x32x80x128xf32> to tensor<1x32x80x64xf32>
    %3574 = tensor.empty() : tensor<1x32x80x64xf32>
    %3575 = linalg.generic {indexing_maps = [#map7, #map7], iterator_types = ["parallel", "parallel", "parallel", "parallel"]} ins(%extracted_slice_2639 : tensor<1x32x80x64xf32>) outs(%3574 : tensor<1x32x80x64xf32>) {
    ^bb0(%in: f32, %out: f32):
      %3652 = arith.negf %in : f32
      linalg.yield %3652 : f32
    } -> tensor<1x32x80x64xf32>
    %3576 = tensor.empty() : tensor<1x32x80x128xf32>
    %inserted_slice_2640 = tensor.insert_slice %3575 into %3576[0, 0, 0, 0] [1, 32, 80, 64] [1, 1, 1, 1] : tensor<1x32x80x64xf32> into tensor<1x32x80x128xf32>
    %inserted_slice_2641 = tensor.insert_slice %extracted_slice_2638 into %inserted_slice_2640[0, 0, 0, 64] [1, 32, 80, 64] [1, 1, 1, 1] : tensor<1x32x80x64xf32> into tensor<1x32x80x128xf32>
    %3577 = tensor.empty() : tensor<1x32x80x128xf32>
    %3578 = linalg.generic {indexing_maps = [#map7, #map13, #map7], iterator_types = ["parallel", "parallel", "parallel", "parallel"]} ins(%inserted_slice_2641, %3562 : tensor<1x32x80x128xf32>, tensor<1x80x128xf32>) outs(%3577 : tensor<1x32x80x128xf32>) {
    ^bb0(%in: f32, %in_2684: f32, %out: f32):
      %3652 = arith.mulf %in, %in_2684 : f32
      linalg.yield %3652 : f32
    } -> tensor<1x32x80x128xf32>
    %3579 = tensor.empty() : tensor<1x32x80x128xf32>
    %3580 = linalg.generic {indexing_maps = [#map7, #map7, #map7], iterator_types = ["parallel", "parallel", "parallel", "parallel"]} ins(%3573, %3578 : tensor<1x32x80x128xf32>, tensor<1x32x80x128xf32>) outs(%3579 : tensor<1x32x80x128xf32>) {
    ^bb0(%in: f32, %in_2684: f32, %out: f32):
      %3652 = arith.addf %in, %in_2684 : f32
      linalg.yield %3652 : f32
    } -> tensor<1x32x80x128xf32>
    %3581 = tensor.empty() : tensor<1x32x128x80xf32>
    %3582 = linalg.generic {indexing_maps = [#map14, #map7], iterator_types = ["parallel", "parallel", "parallel", "parallel"]} ins(%3580 : tensor<1x32x80x128xf32>) outs(%3581 : tensor<1x32x128x80xf32>) {
    ^bb0(%in: f32, %out: f32):
      linalg.yield %in : f32
    } -> tensor<1x32x128x80xf32>
    %cst_2642 = arith.constant dense<0.000000e+00> : tensor<1x32x80x128xf32>
    %collapsed_2643 = tensor.collapse_shape %3571 [[0, 1], [2], [3]] : tensor<1x32x80x128xf32> into tensor<32x80x128xf32>
    %cst_2644 = arith.constant dense<0.000000e+00> : tensor<1x32x128x80xf32>
    %collapsed_2645 = tensor.collapse_shape %3582 [[0, 1], [2], [3]] : tensor<1x32x128x80xf32> into tensor<32x128x80xf32>
    %cst_2646 = arith.constant 0.000000e+00 : f32
    %3583 = tensor.empty() : tensor<32x80x80xf32>
    %3584 = linalg.fill ins(%cst_2646 : f32) outs(%3583 : tensor<32x80x80xf32>) -> tensor<32x80x80xf32>
    %3585 = linalg.batch_matmul ins(%collapsed_2643, %collapsed_2645 : tensor<32x80x128xf32>, tensor<32x128x80xf32>) outs(%3584 : tensor<32x80x80xf32>) -> tensor<32x80x80xf32>
    %expanded_2647 = tensor.expand_shape %3585 [[0, 1], [2], [3]] : tensor<32x80x80xf32> into tensor<1x32x80x80xf32>
    %cst_2648 = arith.constant dense<11.3137083> : tensor<1x32x80x80xf32>
    %3586 = tensor.empty() : tensor<1x32x80x80xf32>
    %3587 = linalg.generic {indexing_maps = [#map7, #map7], iterator_types = ["parallel", "parallel", "parallel", "parallel"]} ins(%cst_2648 : tensor<1x32x80x80xf32>) outs(%3586 : tensor<1x32x80x80xf32>) {
    ^bb0(%in: f32, %out: f32):
      %cst_2684 = arith.constant 1.000000e+00 : f32
      %3652 = arith.divf %cst_2684, %in : f32
      linalg.yield %3652 : f32
    } -> tensor<1x32x80x80xf32>
    %3588 = tensor.empty() : tensor<1x32x80x80xf32>
    %3589 = linalg.generic {indexing_maps = [#map7, #map7, #map7], iterator_types = ["parallel", "parallel", "parallel", "parallel"]} ins(%expanded_2647, %3587 : tensor<1x32x80x80xf32>, tensor<1x32x80x80xf32>) outs(%3588 : tensor<1x32x80x80xf32>) {
    ^bb0(%in: f32, %in_2684: f32, %out: f32):
      %3652 = arith.mulf %in, %in_2684 : f32
      linalg.yield %3652 : f32
    } -> tensor<1x32x80x80xf32>
    %3590 = tensor.empty() : tensor<1x32x80x80xf32>
    %collapsed_2649 = tensor.collapse_shape %21 [[0, 1], [2], [3]] : tensor<1x1x80x80xf32> into tensor<1x80x80xf32>
    %3591 = linalg.generic {indexing_maps = [#map7, #map13, #map7], iterator_types = ["parallel", "parallel", "parallel", "parallel"]} ins(%3589, %collapsed_2649 : tensor<1x32x80x80xf32>, tensor<1x80x80xf32>) outs(%3590 : tensor<1x32x80x80xf32>) {
    ^bb0(%in: f32, %in_2684: f32, %out: f32):
      %3652 = arith.addf %in, %in_2684 : f32
      linalg.yield %3652 : f32
    } -> tensor<1x32x80x80xf32>
    %3592 = tensor.empty() : tensor<1x32x80x1xf32>
    %3593 = linalg.generic {indexing_maps = [#map7], iterator_types = ["parallel", "parallel", "parallel", "parallel"]} outs(%3592 : tensor<1x32x80x1xf32>) {
    ^bb0(%out: f32):
      %cst_2684 = arith.constant 0xFF800000 : f32
      linalg.yield %cst_2684 : f32
    } -> tensor<1x32x80x1xf32>
    %3594 = linalg.generic {indexing_maps = [#map7, #map15], iterator_types = ["parallel", "parallel", "parallel", "reduction"]} ins(%3591 : tensor<1x32x80x80xf32>) outs(%3592 : tensor<1x32x80x1xf32>) {
    ^bb0(%in: f32, %out: f32):
      %3652 = arith.maximumf %in, %out : f32
      linalg.yield %3652 : f32
    } -> tensor<1x32x80x1xf32>
    %3595 = tensor.empty() : tensor<1x32x80x80xf32>
    %3596 = linalg.generic {indexing_maps = [#map7, #map15, #map7], iterator_types = ["parallel", "parallel", "parallel", "parallel"]} ins(%3591, %3594 : tensor<1x32x80x80xf32>, tensor<1x32x80x1xf32>) outs(%3595 : tensor<1x32x80x80xf32>) {
    ^bb0(%in: f32, %in_2684: f32, %out: f32):
      %3652 = arith.subf %in, %in_2684 : f32
      %3653 = math.exp %3652 : f32
      linalg.yield %3653 : f32
    } -> tensor<1x32x80x80xf32>
    %3597 = tensor.empty() : tensor<1x32x80x1xf32>
    %3598 = linalg.generic {indexing_maps = [#map7], iterator_types = ["parallel", "parallel", "parallel", "parallel"]} outs(%3597 : tensor<1x32x80x1xf32>) {
    ^bb0(%out: f32):
      %cst_2684 = arith.constant 0.000000e+00 : f32
      linalg.yield %cst_2684 : f32
    } -> tensor<1x32x80x1xf32>
    %3599 = linalg.generic {indexing_maps = [#map7, #map15], iterator_types = ["parallel", "parallel", "parallel", "reduction"]} ins(%3596 : tensor<1x32x80x80xf32>) outs(%3598 : tensor<1x32x80x1xf32>) {
    ^bb0(%in: f32, %out: f32):
      %3652 = arith.addf %in, %out : f32
      linalg.yield %3652 : f32
    } -> tensor<1x32x80x1xf32>
    %3600 = tensor.empty() : tensor<1x32x80x80xf32>
    %3601 = linalg.generic {indexing_maps = [#map7, #map15, #map7], iterator_types = ["parallel", "parallel", "parallel", "parallel"]} ins(%3596, %3599 : tensor<1x32x80x80xf32>, tensor<1x32x80x1xf32>) outs(%3600 : tensor<1x32x80x80xf32>) {
    ^bb0(%in: f32, %in_2684: f32, %out: f32):
      %3652 = arith.divf %in, %in_2684 : f32
      linalg.yield %3652 : f32
    } -> tensor<1x32x80x80xf32>
    %cst_2650 = arith.constant dense<0.000000e+00> : tensor<1x32x80x80xf32>
    %collapsed_2651 = tensor.collapse_shape %3601 [[0, 1], [2], [3]] : tensor<1x32x80x80xf32> into tensor<32x80x80xf32>
    %cst_2652 = arith.constant dense<0.000000e+00> : tensor<1x32x80x128xf32>
    %collapsed_2653 = tensor.collapse_shape %3550 [[0, 1], [2], [3]] : tensor<1x32x80x128xf32> into tensor<32x80x128xf32>
    %cst_2654 = arith.constant 0.000000e+00 : f32
    %3602 = tensor.empty() : tensor<32x80x128xf32>
    %3603 = linalg.fill ins(%cst_2654 : f32) outs(%3602 : tensor<32x80x128xf32>) -> tensor<32x80x128xf32>
    %3604 = linalg.batch_matmul ins(%collapsed_2651, %collapsed_2653 : tensor<32x80x80xf32>, tensor<32x80x128xf32>) outs(%3603 : tensor<32x80x128xf32>) -> tensor<32x80x128xf32>
    %expanded_2655 = tensor.expand_shape %3604 [[0, 1], [2], [3]] : tensor<32x80x128xf32> into tensor<1x32x80x128xf32>
    %3605 = tensor.empty() : tensor<1x80x32x128xf32>
    %3606 = linalg.generic {indexing_maps = [#map10, #map7], iterator_types = ["parallel", "parallel", "parallel", "parallel"]} ins(%expanded_2655 : tensor<1x32x80x128xf32>) outs(%3605 : tensor<1x80x32x128xf32>) {
    ^bb0(%in: f32, %out: f32):
      linalg.yield %in : f32
    } -> tensor<1x80x32x128xf32>
    %collapsed_2656 = tensor.collapse_shape %3606 [[0], [1], [2, 3]] : tensor<1x80x32x128xf32> into tensor<1x80x4096xf32>
    %3607 = tensor.empty() : tensor<4096x4096xf32>
    %3608 = linalg.generic {indexing_maps = [#map, #map9], iterator_types = ["parallel", "parallel"]} ins(%expanded_506 : tensor<4096x4096xf32>) outs(%3607 : tensor<4096x4096xf32>) {
    ^bb0(%in: f32, %out: f32):
      linalg.yield %in : f32
    } -> tensor<4096x4096xf32>
    %collapsed_2657 = tensor.collapse_shape %collapsed_2656 [[0, 1], [2]] : tensor<1x80x4096xf32> into tensor<80x4096xf32>
    %cst_2658 = arith.constant dense<0.000000e+00> : tensor<80x4096xf32>
    %3609 = linalg.matmul {cast = #linalg.type_fn<cast_signed>} ins(%collapsed_2657, %3608 : tensor<80x4096xf32>, tensor<4096x4096xf32>) outs(%cst_2658 : tensor<80x4096xf32>) -> tensor<80x4096xf32>
    %expanded_2659 = tensor.expand_shape %3609 [[0, 1], [2]] : tensor<80x4096xf32> into tensor<1x80x4096xf32>
    %3610 = tensor.empty() : tensor<1x80x4096xf32>
    %3611 = linalg.generic {indexing_maps = [#map2, #map2, #map2], iterator_types = ["parallel", "parallel", "parallel"]} ins(%3524, %expanded_2659 : tensor<1x80x4096xf32>, tensor<1x80x4096xf32>) outs(%3610 : tensor<1x80x4096xf32>) {
    ^bb0(%in: f32, %in_2684: f32, %out: f32):
      %3652 = arith.addf %in, %in_2684 : f32
      linalg.yield %3652 : f32
    } -> tensor<1x80x4096xf32>
    %3612 = tensor.empty() : tensor<1x80x4096xf32>
    %cst_2660 = arith.constant 2.000000e+00 : f32
    %3613 = linalg.generic {indexing_maps = [#map2, #map2], iterator_types = ["parallel", "parallel", "parallel"]} ins(%3611 : tensor<1x80x4096xf32>) outs(%3612 : tensor<1x80x4096xf32>) {
    ^bb0(%in: f32, %out: f32):
      %3652 = math.powf %in, %cst_2660 : f32
      linalg.yield %3652 : f32
    } -> tensor<1x80x4096xf32>
    %cst_2661 = arith.constant dense<0.000000e+00> : tensor<1x80x1xf32>
    %3614 = linalg.generic {indexing_maps = [#map8, #map6], iterator_types = ["parallel", "parallel", "reduction", "parallel"]} ins(%3613 : tensor<1x80x4096xf32>) outs(%cst_2661 : tensor<1x80x1xf32>) {
    ^bb0(%in: f32, %out: f32):
      %cst_2684 = arith.constant 4.096000e+03 : f32
      %3652 = arith.divf %in, %cst_2684 : f32
      %3653 = arith.addf %3652, %out : f32
      linalg.yield %3653 : f32
    } -> tensor<1x80x1xf32>
    %cst_2662 = arith.constant dense<9.99999974E-6> : tensor<1x80x1xf32>
    %3615 = tensor.empty() : tensor<1x80x1xf32>
    %3616 = linalg.generic {indexing_maps = [#map2, #map2, #map2], iterator_types = ["parallel", "parallel", "parallel"]} ins(%3614, %cst_2662 : tensor<1x80x1xf32>, tensor<1x80x1xf32>) outs(%3615 : tensor<1x80x1xf32>) {
    ^bb0(%in: f32, %in_2684: f32, %out: f32):
      %3652 = arith.addf %in, %in_2684 : f32
      linalg.yield %3652 : f32
    } -> tensor<1x80x1xf32>
    %3617 = tensor.empty() : tensor<1x80x1xf32>
    %3618 = linalg.generic {indexing_maps = [#map2, #map2], iterator_types = ["parallel", "parallel", "parallel"]} ins(%3616 : tensor<1x80x1xf32>) outs(%3617 : tensor<1x80x1xf32>) {
    ^bb0(%in: f32, %out: f32):
      %3652 = math.rsqrt %in : f32
      linalg.yield %3652 : f32
    } -> tensor<1x80x1xf32>
    %3619 = tensor.empty() : tensor<1x80x4096xf32>
    %collapsed_2663 = tensor.collapse_shape %3618 [[0], [1, 2]] : tensor<1x80x1xf32> into tensor<1x80xf32>
    %3620 = linalg.generic {indexing_maps = [#map2, #map1, #map2], iterator_types = ["parallel", "parallel", "parallel"]} ins(%3611, %collapsed_2663 : tensor<1x80x4096xf32>, tensor<1x80xf32>) outs(%3619 : tensor<1x80x4096xf32>) {
    ^bb0(%in: f32, %in_2684: f32, %out: f32):
      %3652 = arith.mulf %in, %in_2684 : f32
      linalg.yield %3652 : f32
    } -> tensor<1x80x4096xf32>
    %expanded_2664 = tensor.expand_shape %extracted_slice_62 [[0, 1, 2]] : tensor<4096xf32> into tensor<1x1x4096xf32>
    %3621 = tensor.empty() : tensor<1x80x4096xf32>
    %collapsed_2665 = tensor.collapse_shape %expanded_2664 [[0, 1], [2]] : tensor<1x1x4096xf32> into tensor<1x4096xf32>
    %3622 = linalg.generic {indexing_maps = [#map5, #map2, #map2], iterator_types = ["parallel", "parallel", "parallel"]} ins(%collapsed_2665, %3620 : tensor<1x4096xf32>, tensor<1x80x4096xf32>) outs(%3621 : tensor<1x80x4096xf32>) {
    ^bb0(%in: f32, %in_2684: f32, %out: f32):
      %3652 = arith.mulf %in, %in_2684 : f32
      linalg.yield %3652 : f32
    } -> tensor<1x80x4096xf32>
    %3623 = tensor.empty() : tensor<4096x11008xf32>
    %3624 = linalg.generic {indexing_maps = [#map, #map9], iterator_types = ["parallel", "parallel"]} ins(%expanded_508 : tensor<11008x4096xf32>) outs(%3623 : tensor<4096x11008xf32>) {
    ^bb0(%in: f32, %out: f32):
      linalg.yield %in : f32
    } -> tensor<4096x11008xf32>
    %collapsed_2666 = tensor.collapse_shape %3622 [[0, 1], [2]] : tensor<1x80x4096xf32> into tensor<80x4096xf32>
    %cst_2667 = arith.constant dense<0.000000e+00> : tensor<80x11008xf32>
    %3625 = linalg.matmul {cast = #linalg.type_fn<cast_signed>} ins(%collapsed_2666, %3624 : tensor<80x4096xf32>, tensor<4096x11008xf32>) outs(%cst_2667 : tensor<80x11008xf32>) -> tensor<80x11008xf32>
    %expanded_2668 = tensor.expand_shape %3625 [[0, 1], [2]] : tensor<80x11008xf32> into tensor<1x80x11008xf32>
    %3626 = tensor.empty() : tensor<1x80x11008xf32>
    %3627 = linalg.generic {indexing_maps = [#map2, #map2], iterator_types = ["parallel", "parallel", "parallel"]} ins(%expanded_2668 : tensor<1x80x11008xf32>) outs(%3626 : tensor<1x80x11008xf32>) {
    ^bb0(%in: f32, %out: f32):
      %3652 = arith.negf %in : f32
      %3653 = math.exp %3652 : f32
      %cst_2684 = arith.constant 1.000000e+00 : f32
      %3654 = arith.addf %cst_2684, %3653 : f32
      %3655 = arith.divf %in, %3654 : f32
      linalg.yield %3655 : f32
    } -> tensor<1x80x11008xf32>
    %3628 = tensor.empty() : tensor<4096x11008xf32>
    %3629 = linalg.generic {indexing_maps = [#map, #map9], iterator_types = ["parallel", "parallel"]} ins(%expanded_510 : tensor<11008x4096xf32>) outs(%3628 : tensor<4096x11008xf32>) {
    ^bb0(%in: f32, %out: f32):
      linalg.yield %in : f32
    } -> tensor<4096x11008xf32>
    %collapsed_2669 = tensor.collapse_shape %3622 [[0, 1], [2]] : tensor<1x80x4096xf32> into tensor<80x4096xf32>
    %cst_2670 = arith.constant dense<0.000000e+00> : tensor<80x11008xf32>
    %3630 = linalg.matmul {cast = #linalg.type_fn<cast_signed>} ins(%collapsed_2669, %3629 : tensor<80x4096xf32>, tensor<4096x11008xf32>) outs(%cst_2670 : tensor<80x11008xf32>) -> tensor<80x11008xf32>
    %expanded_2671 = tensor.expand_shape %3630 [[0, 1], [2]] : tensor<80x11008xf32> into tensor<1x80x11008xf32>
    %3631 = tensor.empty() : tensor<1x80x11008xf32>
    %3632 = linalg.generic {indexing_maps = [#map2, #map2, #map2], iterator_types = ["parallel", "parallel", "parallel"]} ins(%3627, %expanded_2671 : tensor<1x80x11008xf32>, tensor<1x80x11008xf32>) outs(%3631 : tensor<1x80x11008xf32>) {
    ^bb0(%in: f32, %in_2684: f32, %out: f32):
      %3652 = arith.mulf %in, %in_2684 : f32
      linalg.yield %3652 : f32
    } -> tensor<1x80x11008xf32>
    %3633 = tensor.empty() : tensor<11008x4096xf32>
    %3634 = linalg.generic {indexing_maps = [#map, #map9], iterator_types = ["parallel", "parallel"]} ins(%expanded_512 : tensor<4096x11008xf32>) outs(%3633 : tensor<11008x4096xf32>) {
    ^bb0(%in: f32, %out: f32):
      linalg.yield %in : f32
    } -> tensor<11008x4096xf32>
    %collapsed_2672 = tensor.collapse_shape %3632 [[0, 1], [2]] : tensor<1x80x11008xf32> into tensor<80x11008xf32>
    %cst_2673 = arith.constant dense<0.000000e+00> : tensor<80x4096xf32>
    %3635 = linalg.matmul {cast = #linalg.type_fn<cast_signed>} ins(%collapsed_2672, %3634 : tensor<80x11008xf32>, tensor<11008x4096xf32>) outs(%cst_2673 : tensor<80x4096xf32>) -> tensor<80x4096xf32>
    %expanded_2674 = tensor.expand_shape %3635 [[0, 1], [2]] : tensor<80x4096xf32> into tensor<1x80x4096xf32>
    %3636 = tensor.empty() : tensor<1x80x4096xf32>
    %3637 = linalg.generic {indexing_maps = [#map2, #map2, #map2], iterator_types = ["parallel", "parallel", "parallel"]} ins(%3611, %expanded_2674 : tensor<1x80x4096xf32>, tensor<1x80x4096xf32>) outs(%3636 : tensor<1x80x4096xf32>) {
    ^bb0(%in: f32, %in_2684: f32, %out: f32):
      %3652 = arith.addf %in, %in_2684 : f32
      linalg.yield %3652 : f32
    } -> tensor<1x80x4096xf32>
    %3638 = tensor.empty() : tensor<1x80x4096xf32>
    %cst_2675 = arith.constant 2.000000e+00 : f32
    %3639 = linalg.generic {indexing_maps = [#map2, #map2], iterator_types = ["parallel", "parallel", "parallel"]} ins(%3637 : tensor<1x80x4096xf32>) outs(%3638 : tensor<1x80x4096xf32>) {
    ^bb0(%in: f32, %out: f32):
      %3652 = math.powf %in, %cst_2675 : f32
      linalg.yield %3652 : f32
    } -> tensor<1x80x4096xf32>
    %cst_2676 = arith.constant dense<0.000000e+00> : tensor<1x80x1xf32>
    %3640 = linalg.generic {indexing_maps = [#map8, #map6], iterator_types = ["parallel", "parallel", "reduction", "parallel"]} ins(%3639 : tensor<1x80x4096xf32>) outs(%cst_2676 : tensor<1x80x1xf32>) {
    ^bb0(%in: f32, %out: f32):
      %cst_2684 = arith.constant 4.096000e+03 : f32
      %3652 = arith.divf %in, %cst_2684 : f32
      %3653 = arith.addf %3652, %out : f32
      linalg.yield %3653 : f32
    } -> tensor<1x80x1xf32>
    %cst_2677 = arith.constant dense<9.99999974E-6> : tensor<1x80x1xf32>
    %3641 = tensor.empty() : tensor<1x80x1xf32>
    %3642 = linalg.generic {indexing_maps = [#map2, #map2, #map2], iterator_types = ["parallel", "parallel", "parallel"]} ins(%3640, %cst_2677 : tensor<1x80x1xf32>, tensor<1x80x1xf32>) outs(%3641 : tensor<1x80x1xf32>) {
    ^bb0(%in: f32, %in_2684: f32, %out: f32):
      %3652 = arith.addf %in, %in_2684 : f32
      linalg.yield %3652 : f32
    } -> tensor<1x80x1xf32>
    %3643 = tensor.empty() : tensor<1x80x1xf32>
    %3644 = linalg.generic {indexing_maps = [#map2, #map2], iterator_types = ["parallel", "parallel", "parallel"]} ins(%3642 : tensor<1x80x1xf32>) outs(%3643 : tensor<1x80x1xf32>) {
    ^bb0(%in: f32, %out: f32):
      %3652 = math.rsqrt %in : f32
      linalg.yield %3652 : f32
    } -> tensor<1x80x1xf32>
    %3645 = tensor.empty() : tensor<1x80x4096xf32>
    %collapsed_2678 = tensor.collapse_shape %3644 [[0], [1, 2]] : tensor<1x80x1xf32> into tensor<1x80xf32>
    %3646 = linalg.generic {indexing_maps = [#map2, #map1, #map2], iterator_types = ["parallel", "parallel", "parallel"]} ins(%3637, %collapsed_2678 : tensor<1x80x4096xf32>, tensor<1x80xf32>) outs(%3645 : tensor<1x80x4096xf32>) {
    ^bb0(%in: f32, %in_2684: f32, %out: f32):
      %3652 = arith.mulf %in, %in_2684 : f32
      linalg.yield %3652 : f32
    } -> tensor<1x80x4096xf32>
    %expanded_2679 = tensor.expand_shape %extracted_slice_63 [[0, 1, 2]] : tensor<4096xf32> into tensor<1x1x4096xf32>
    %3647 = tensor.empty() : tensor<1x80x4096xf32>
    %collapsed_2680 = tensor.collapse_shape %expanded_2679 [[0, 1], [2]] : tensor<1x1x4096xf32> into tensor<1x4096xf32>
    %3648 = linalg.generic {indexing_maps = [#map5, #map2, #map2], iterator_types = ["parallel", "parallel", "parallel"]} ins(%collapsed_2680, %3646 : tensor<1x4096xf32>, tensor<1x80x4096xf32>) outs(%3647 : tensor<1x80x4096xf32>) {
    ^bb0(%in: f32, %in_2684: f32, %out: f32):
      %3652 = arith.mulf %in, %in_2684 : f32
      linalg.yield %3652 : f32
    } -> tensor<1x80x4096xf32>
    %3649 = tensor.empty() : tensor<4096x32000xf32>
    %3650 = linalg.generic {indexing_maps = [#map, #map9], iterator_types = ["parallel", "parallel"]} ins(%expanded_514 : tensor<32000x4096xf32>) outs(%3649 : tensor<4096x32000xf32>) {
    ^bb0(%in: f32, %out: f32):
      linalg.yield %in : f32
    } -> tensor<4096x32000xf32>
    %collapsed_2681 = tensor.collapse_shape %3648 [[0, 1], [2]] : tensor<1x80x4096xf32> into tensor<80x4096xf32>
    %cst_2682 = arith.constant dense<0.000000e+00> : tensor<80x32000xf32>
    %3651 = linalg.matmul {cast = #linalg.type_fn<cast_signed>} ins(%collapsed_2681, %3650 : tensor<80x4096xf32>, tensor<4096x32000xf32>) outs(%cst_2682 : tensor<80x32000xf32>) -> tensor<80x32000xf32>
    %expanded_2683 = tensor.expand_shape %3651 [[0, 1], [2]] : tensor<80x32000xf32> into tensor<1x80x32000xf32>
    return %expanded_2683 : tensor<1x80x32000xf32>
  }
}

