#map = affine_map<(d0, d1, d2) -> (d1)>
#map1 = affine_map<(d0, d1, d2) -> (d0, d2)>
#map2 = affine_map<(d0, d1, d2) -> (d0, d1)>
#map3 = affine_map<(d0, d1) -> (d0, d1)>
#map4 = affine_map<(d0, d1, d2, d3) -> (d0, d1, d2, d3)>
#map5 = affine_map<(d0, d1, d2) -> (d0, d1, d2)>
#map6 = affine_map<(d0, d1, d2) -> (d0, 0, d1, d2)>
#map7 = affine_map<(d0, d1) -> (0, d0, d1)>
module {
  func.func @subgraph0(%arg0: tensor<32000x4096xf32>, %arg1: tensor<1x40xi64>, %arg2: tensor<4096xf32>, %arg3: tensor<4096x4096xf32>, %arg4: tensor<4096x4096xf32>, %arg5: tensor<4096x4096xf32>, %arg6: tensor<1x1x2048x128xf32>, %arg7: tensor<1x1x2048x128xf32>, %arg8: tensor<4096x4096xf32>, %arg9: tensor<4096xf32>, %arg10: tensor<11008x4096xf32>, %arg11: tensor<11008x4096xf32>, %arg12: tensor<4096x11008xf32>, %arg13: tensor<4096xf32>, %arg14: tensor<4096x4096xf32>, %arg15: tensor<4096x4096xf32>, %arg16: tensor<4096x4096xf32>, %arg17: tensor<1x1x2048x128xf32>, %arg18: tensor<1x1x2048x128xf32>, %arg19: tensor<4096x4096xf32>, %arg20: tensor<4096xf32>, %arg21: tensor<11008x4096xf32>, %arg22: tensor<11008x4096xf32>, %arg23: tensor<4096x11008xf32>, %arg24: tensor<4096xf32>, %arg25: tensor<4096x4096xf32>, %arg26: tensor<4096x4096xf32>, %arg27: tensor<4096x4096xf32>, %arg28: tensor<1x1x2048x128xf32>, %arg29: tensor<1x1x2048x128xf32>, %arg30: tensor<4096x4096xf32>, %arg31: tensor<4096xf32>, %arg32: tensor<11008x4096xf32>, %arg33: tensor<11008x4096xf32>, %arg34: tensor<4096x11008xf32>, %arg35: tensor<4096xf32>, %arg36: tensor<4096x4096xf32>, %arg37: tensor<4096x4096xf32>, %arg38: tensor<4096x4096xf32>, %arg39: tensor<1x1x2048x128xf32>, %arg40: tensor<1x1x2048x128xf32>, %arg41: tensor<4096x4096xf32>, %arg42: tensor<4096xf32>, %arg43: tensor<11008x4096xf32>, %arg44: tensor<11008x4096xf32>, %arg45: tensor<4096x11008xf32>, %arg46: tensor<4096xf32>, %arg47: tensor<4096x4096xf32>, %arg48: tensor<4096x4096xf32>, %arg49: tensor<4096x4096xf32>, %arg50: tensor<1x1x2048x128xf32>, %arg51: tensor<1x1x2048x128xf32>, %arg52: tensor<4096x4096xf32>, %arg53: tensor<4096xf32>, %arg54: tensor<11008x4096xf32>, %arg55: tensor<11008x4096xf32>, %arg56: tensor<4096x11008xf32>, %arg57: tensor<4096xf32>, %arg58: tensor<4096x4096xf32>, %arg59: tensor<4096x4096xf32>, %arg60: tensor<4096x4096xf32>, %arg61: tensor<1x1x2048x128xf32>, %arg62: tensor<1x1x2048x128xf32>, %arg63: tensor<4096x4096xf32>, %arg64: tensor<4096xf32>, %arg65: tensor<11008x4096xf32>, %arg66: tensor<11008x4096xf32>, %arg67: tensor<4096x11008xf32>, %arg68: tensor<4096xf32>, %arg69: tensor<4096x4096xf32>, %arg70: tensor<4096x4096xf32>, %arg71: tensor<4096x4096xf32>, %arg72: tensor<1x1x2048x128xf32>, %arg73: tensor<1x1x2048x128xf32>, %arg74: tensor<4096x4096xf32>, %arg75: tensor<4096xf32>, %arg76: tensor<11008x4096xf32>, %arg77: tensor<11008x4096xf32>, %arg78: tensor<4096x11008xf32>, %arg79: tensor<4096xf32>, %arg80: tensor<4096x4096xf32>, %arg81: tensor<4096x4096xf32>, %arg82: tensor<4096x4096xf32>, %arg83: tensor<1x1x2048x128xf32>, %arg84: tensor<1x1x2048x128xf32>, %arg85: tensor<4096x4096xf32>, %arg86: tensor<4096xf32>, %arg87: tensor<11008x4096xf32>, %arg88: tensor<11008x4096xf32>, %arg89: tensor<4096x11008xf32>, %arg90: tensor<4096xf32>, %arg91: tensor<4096x4096xf32>, %arg92: tensor<4096x4096xf32>, %arg93: tensor<4096x4096xf32>, %arg94: tensor<1x1x2048x128xf32>, %arg95: tensor<1x1x2048x128xf32>, %arg96: tensor<4096x4096xf32>, %arg97: tensor<4096xf32>, %arg98: tensor<11008x4096xf32>, %arg99: tensor<11008x4096xf32>, %arg100: tensor<4096x11008xf32>, %arg101: tensor<4096xf32>, %arg102: tensor<4096x4096xf32>, %arg103: tensor<4096x4096xf32>, %arg104: tensor<4096x4096xf32>, %arg105: tensor<1x1x2048x128xf32>, %arg106: tensor<1x1x2048x128xf32>, %arg107: tensor<4096x4096xf32>, %arg108: tensor<4096xf32>, %arg109: tensor<11008x4096xf32>, %arg110: tensor<11008x4096xf32>, %arg111: tensor<4096x11008xf32>, %arg112: tensor<4096xf32>, %arg113: tensor<4096x4096xf32>, %arg114: tensor<4096x4096xf32>, %arg115: tensor<4096x4096xf32>, %arg116: tensor<1x1x2048x128xf32>, %arg117: tensor<1x1x2048x128xf32>, %arg118: tensor<4096x4096xf32>, %arg119: tensor<4096xf32>, %arg120: tensor<11008x4096xf32>, %arg121: tensor<11008x4096xf32>, %arg122: tensor<4096x11008xf32>, %arg123: tensor<4096xf32>, %arg124: tensor<4096x4096xf32>, %arg125: tensor<4096x4096xf32>, %arg126: tensor<4096x4096xf32>, %arg127: tensor<1x1x2048x128xf32>, %arg128: tensor<1x1x2048x128xf32>, %arg129: tensor<4096x4096xf32>, %arg130: tensor<4096xf32>, %arg131: tensor<11008x4096xf32>, %arg132: tensor<11008x4096xf32>, %arg133: tensor<4096x11008xf32>, %arg134: tensor<4096xf32>, %arg135: tensor<4096x4096xf32>, %arg136: tensor<4096x4096xf32>, %arg137: tensor<4096x4096xf32>, %arg138: tensor<1x1x2048x128xf32>, %arg139: tensor<1x1x2048x128xf32>, %arg140: tensor<4096x4096xf32>, %arg141: tensor<4096xf32>, %arg142: tensor<11008x4096xf32>, %arg143: tensor<11008x4096xf32>, %arg144: tensor<4096x11008xf32>, %arg145: tensor<4096xf32>, %arg146: tensor<4096x4096xf32>, %arg147: tensor<4096x4096xf32>, %arg148: tensor<4096x4096xf32>, %arg149: tensor<1x1x2048x128xf32>, %arg150: tensor<1x1x2048x128xf32>, %arg151: tensor<4096x4096xf32>, %arg152: tensor<4096xf32>, %arg153: tensor<11008x4096xf32>, %arg154: tensor<11008x4096xf32>, %arg155: tensor<4096x11008xf32>, %arg156: tensor<4096xf32>, %arg157: tensor<4096x4096xf32>, %arg158: tensor<4096x4096xf32>, %arg159: tensor<4096x4096xf32>, %arg160: tensor<1x1x2048x128xf32>, %arg161: tensor<1x1x2048x128xf32>, %arg162: tensor<4096x4096xf32>, %arg163: tensor<4096xf32>, %arg164: tensor<11008x4096xf32>, %arg165: tensor<11008x4096xf32>, %arg166: tensor<4096x11008xf32>, %arg167: tensor<4096xf32>, %arg168: tensor<4096x4096xf32>, %arg169: tensor<4096x4096xf32>, %arg170: tensor<4096x4096xf32>, %arg171: tensor<1x1x2048x128xf32>, %arg172: tensor<1x1x2048x128xf32>, %arg173: tensor<4096x4096xf32>, %arg174: tensor<4096xf32>, %arg175: tensor<11008x4096xf32>, %arg176: tensor<11008x4096xf32>, %arg177: tensor<4096x11008xf32>, %arg178: tensor<4096xf32>, %arg179: tensor<4096x4096xf32>, %arg180: tensor<4096x4096xf32>, %arg181: tensor<4096x4096xf32>, %arg182: tensor<1x1x2048x128xf32>, %arg183: tensor<1x1x2048x128xf32>, %arg184: tensor<4096x4096xf32>, %arg185: tensor<4096xf32>, %arg186: tensor<11008x4096xf32>, %arg187: tensor<11008x4096xf32>, %arg188: tensor<4096x11008xf32>, %arg189: tensor<4096xf32>, %arg190: tensor<4096x4096xf32>, %arg191: tensor<4096x4096xf32>, %arg192: tensor<4096x4096xf32>, %arg193: tensor<1x1x2048x128xf32>, %arg194: tensor<1x1x2048x128xf32>, %arg195: tensor<4096x4096xf32>, %arg196: tensor<4096xf32>, %arg197: tensor<11008x4096xf32>, %arg198: tensor<11008x4096xf32>, %arg199: tensor<4096x11008xf32>, %arg200: tensor<4096xf32>, %arg201: tensor<4096x4096xf32>, %arg202: tensor<4096x4096xf32>, %arg203: tensor<4096x4096xf32>, %arg204: tensor<1x1x2048x128xf32>, %arg205: tensor<1x1x2048x128xf32>, %arg206: tensor<4096x4096xf32>, %arg207: tensor<4096xf32>, %arg208: tensor<11008x4096xf32>, %arg209: tensor<11008x4096xf32>, %arg210: tensor<4096x11008xf32>, %arg211: tensor<4096xf32>, %arg212: tensor<4096x4096xf32>, %arg213: tensor<4096x4096xf32>, %arg214: tensor<4096x4096xf32>, %arg215: tensor<1x1x2048x128xf32>, %arg216: tensor<1x1x2048x128xf32>, %arg217: tensor<4096x4096xf32>, %arg218: tensor<4096xf32>, %arg219: tensor<11008x4096xf32>, %arg220: tensor<11008x4096xf32>, %arg221: tensor<4096x11008xf32>, %arg222: tensor<4096xf32>, %arg223: tensor<4096x4096xf32>, %arg224: tensor<4096x4096xf32>, %arg225: tensor<4096x4096xf32>, %arg226: tensor<1x1x2048x128xf32>, %arg227: tensor<1x1x2048x128xf32>, %arg228: tensor<4096x4096xf32>, %arg229: tensor<4096xf32>, %arg230: tensor<11008x4096xf32>, %arg231: tensor<11008x4096xf32>, %arg232: tensor<4096x11008xf32>, %arg233: tensor<4096xf32>, %arg234: tensor<4096x4096xf32>, %arg235: tensor<4096x4096xf32>, %arg236: tensor<4096x4096xf32>, %arg237: tensor<1x1x2048x128xf32>, %arg238: tensor<1x1x2048x128xf32>, %arg239: tensor<4096x4096xf32>, %arg240: tensor<4096xf32>, %arg241: tensor<11008x4096xf32>, %arg242: tensor<11008x4096xf32>, %arg243: tensor<4096x11008xf32>, %arg244: tensor<4096xf32>, %arg245: tensor<4096x4096xf32>, %arg246: tensor<4096x4096xf32>, %arg247: tensor<4096x4096xf32>, %arg248: tensor<1x1x2048x128xf32>, %arg249: tensor<1x1x2048x128xf32>, %arg250: tensor<4096x4096xf32>, %arg251: tensor<4096xf32>, %arg252: tensor<11008x4096xf32>, %arg253: tensor<11008x4096xf32>, %arg254: tensor<4096x11008xf32>, %arg255: tensor<4096xf32>, %arg256: tensor<4096x4096xf32>, %arg257: tensor<4096x4096xf32>, %arg258: tensor<4096x4096xf32>, %arg259: tensor<1x1x2048x128xf32>, %arg260: tensor<1x1x2048x128xf32>, %arg261: tensor<4096x4096xf32>, %arg262: tensor<4096xf32>, %arg263: tensor<11008x4096xf32>, %arg264: tensor<11008x4096xf32>, %arg265: tensor<4096x11008xf32>, %arg266: tensor<4096xf32>, %arg267: tensor<4096x4096xf32>, %arg268: tensor<4096x4096xf32>, %arg269: tensor<4096x4096xf32>, %arg270: tensor<1x1x2048x128xf32>, %arg271: tensor<1x1x2048x128xf32>, %arg272: tensor<4096x4096xf32>, %arg273: tensor<4096xf32>, %arg274: tensor<11008x4096xf32>, %arg275: tensor<11008x4096xf32>, %arg276: tensor<4096x11008xf32>, %arg277: tensor<4096xf32>, %arg278: tensor<4096x4096xf32>, %arg279: tensor<4096x4096xf32>, %arg280: tensor<4096x4096xf32>, %arg281: tensor<1x1x2048x128xf32>, %arg282: tensor<1x1x2048x128xf32>, %arg283: tensor<4096x4096xf32>, %arg284: tensor<4096xf32>, %arg285: tensor<11008x4096xf32>, %arg286: tensor<11008x4096xf32>, %arg287: tensor<4096x11008xf32>, %arg288: tensor<4096xf32>, %arg289: tensor<4096x4096xf32>, %arg290: tensor<4096x4096xf32>, %arg291: tensor<4096x4096xf32>, %arg292: tensor<1x1x2048x128xf32>, %arg293: tensor<1x1x2048x128xf32>, %arg294: tensor<4096x4096xf32>, %arg295: tensor<4096xf32>, %arg296: tensor<11008x4096xf32>, %arg297: tensor<11008x4096xf32>, %arg298: tensor<4096x11008xf32>, %arg299: tensor<4096xf32>, %arg300: tensor<4096x4096xf32>, %arg301: tensor<4096x4096xf32>, %arg302: tensor<4096x4096xf32>, %arg303: tensor<1x1x2048x128xf32>, %arg304: tensor<1x1x2048x128xf32>, %arg305: tensor<4096x4096xf32>, %arg306: tensor<4096xf32>, %arg307: tensor<11008x4096xf32>, %arg308: tensor<11008x4096xf32>, %arg309: tensor<4096x11008xf32>, %arg310: tensor<4096xf32>, %arg311: tensor<4096x4096xf32>, %arg312: tensor<4096x4096xf32>, %arg313: tensor<4096x4096xf32>, %arg314: tensor<1x1x2048x128xf32>, %arg315: tensor<1x1x2048x128xf32>, %arg316: tensor<4096x4096xf32>, %arg317: tensor<4096xf32>, %arg318: tensor<11008x4096xf32>, %arg319: tensor<11008x4096xf32>, %arg320: tensor<4096x11008xf32>, %arg321: tensor<4096xf32>, %arg322: tensor<4096x4096xf32>, %arg323: tensor<4096x4096xf32>, %arg324: tensor<4096x4096xf32>, %arg325: tensor<1x1x2048x128xf32>, %arg326: tensor<1x1x2048x128xf32>, %arg327: tensor<4096x4096xf32>, %arg328: tensor<4096xf32>, %arg329: tensor<11008x4096xf32>, %arg330: tensor<11008x4096xf32>, %arg331: tensor<4096x11008xf32>, %arg332: tensor<4096xf32>, %arg333: tensor<4096x4096xf32>, %arg334: tensor<4096x4096xf32>, %arg335: tensor<4096x4096xf32>, %arg336: tensor<1x1x2048x128xf32>, %arg337: tensor<1x1x2048x128xf32>, %arg338: tensor<4096x4096xf32>, %arg339: tensor<4096xf32>, %arg340: tensor<11008x4096xf32>, %arg341: tensor<11008x4096xf32>, %arg342: tensor<4096x11008xf32>, %arg343: tensor<4096xf32>, %arg344: tensor<4096x4096xf32>, %arg345: tensor<4096x4096xf32>, %arg346: tensor<4096x4096xf32>, %arg347: tensor<1x1x2048x128xf32>, %arg348: tensor<1x1x2048x128xf32>, %arg349: tensor<4096x4096xf32>, %arg350: tensor<4096xf32>, %arg351: tensor<11008x4096xf32>, %arg352: tensor<11008x4096xf32>, %arg353: tensor<4096x11008xf32>, %arg354: tensor<4096xf32>, %arg355: tensor<32000x4096xf32>) -> (tensor<1x40x4096xf32>, tensor<1x40x32000xf32>) {
    %0 = "tosa.const"() <{value = dense<[0, 1, 2, 3, 4, 5, 6, 7, 8, 9, 10, 11, 12, 13, 14, 15, 16, 17, 18, 19, 20, 21, 22, 23, 24, 25, 26, 27, 28, 29, 30, 31, 32, 33, 34, 35, 36, 37, 38, 39]> : tensor<40xi64>}> : () -> tensor<40xi64>
    %1 = tosa.reshape %0 {new_shape = array<i64: 1, 40>} : (tensor<40xi64>) -> tensor<1x40xi64>
    %2 = tosa.reshape %1 {new_shape = array<i64: 1, 40>} : (tensor<1x40xi64>) -> tensor<1x40xi64>
    %3 = tosa.cast %arg1 : (tensor<1x40xi64>) -> tensor<1x40xi32>
    %4 = tosa.reshape %arg0 {new_shape = array<i64: 1, 32000, 4096>} : (tensor<32000x4096xf32>) -> tensor<1x32000x4096xf32>
    %5 = tosa.gather %4, %3 : (tensor<1x32000x4096xf32>, tensor<1x40xi32>) -> tensor<1x40x4096xf32>
    %6 = tosa.reshape %5 {new_shape = array<i64: 1, 40, 4096>} : (tensor<1x40x4096xf32>) -> tensor<1x40x4096xf32>
    %cst = arith.constant dense<true> : tensor<1x40xi1>
    %cst_0 = arith.constant dense<-3.40282347E+38> : tensor<40x40xf32>
    %7 = "tosa.const"() <{value = dense<[0, 1, 2, 3, 4, 5, 6, 7, 8, 9, 10, 11, 12, 13, 14, 15, 16, 17, 18, 19, 20, 21, 22, 23, 24, 25, 26, 27, 28, 29, 30, 31, 32, 33, 34, 35, 36, 37, 38, 39]> : tensor<40xi64>}> : () -> tensor<40xi64>
    %8 = "tosa.const"() <{value = dense<1> : tensor<40xi64>}> : () -> tensor<40xi64>
    %9 = tosa.add %7, %8 : (tensor<40xi64>, tensor<40xi64>) -> tensor<40xi64>
    %10 = tosa.reshape %9 {new_shape = array<i64: 40, 1>} : (tensor<40xi64>) -> tensor<40x1xi64>
    %11 = tensor.empty() : tensor<40x40xi1>
    %12 = linalg.generic {indexing_maps = [#map, #map1, #map2], iterator_types = ["parallel", "parallel", "reduction"]} ins(%7, %10 : tensor<40xi64>, tensor<40x1xi64>) outs(%11 : tensor<40x40xi1>) {
    ^bb0(%in: i64, %in_742: i64, %out: i1):
      %4175 = arith.cmpi slt, %in, %in_742 : i64
      linalg.yield %4175 : i1
    } -> tensor<40x40xi1>
    %cst_1 = arith.constant 0.000000e+00 : f32
    %13 = tensor.empty() : tensor<40x40xf32>
    %14 = linalg.generic {indexing_maps = [#map3, #map3, #map3], iterator_types = ["parallel", "parallel"]} ins(%12, %cst_0 : tensor<40x40xi1>, tensor<40x40xf32>) outs(%13 : tensor<40x40xf32>) {
    ^bb0(%in: i1, %in_742: f32, %out: f32):
      %4175 = arith.select %in, %cst_1, %in_742 : f32
      linalg.yield %4175 : f32
    } -> tensor<40x40xf32>
    %extracted_slice = tensor.extract_slice %cst[0, 0] [1, 40] [1, 1] : tensor<1x40xi1> to tensor<1x40xi1>
    %15 = tosa.reshape %extracted_slice {new_shape = array<i64: 1, 1, 40>} : (tensor<1x40xi1>) -> tensor<1x1x40xi1>
    %16 = tosa.reshape %15 {new_shape = array<i64: 1, 1, 1, 40>} : (tensor<1x1x40xi1>) -> tensor<1x1x1x40xi1>
    %extracted_slice_2 = tensor.extract_slice %16[0, 0, 0, 0] [1, 1, 1, 40] [1, 1, 1, 1] : tensor<1x1x1x40xi1> to tensor<1x1x1x40xi1>
    %17 = "tosa.const"() <{value = dense<false> : tensor<1x1x40x40xi1>}> : () -> tensor<1x1x40x40xi1>
    %18 = tosa.add %extracted_slice_2, %17 : (tensor<1x1x1x40xi1>, tensor<1x1x40x40xi1>) -> tensor<1x1x40x40xi1>
    %19 = tosa.cast %18 : (tensor<1x1x40x40xi1>) -> tensor<1x1x40x40xf32>
    %20 = "tosa.const"() <{value = dense<1.000000e+00> : tensor<1x1x40x40xf32>}> : () -> tensor<1x1x40x40xf32>
    %21 = tosa.sub %20, %19 : (tensor<1x1x40x40xf32>, tensor<1x1x40x40xf32>) -> tensor<1x1x40x40xf32>
    %22 = tosa.cast %21 : (tensor<1x1x40x40xf32>) -> tensor<1x1x40x40xi1>
    %cst_3 = arith.constant -3.40282347E+38 : f32
    %23 = tensor.empty() : tensor<1x1x40x40xf32>
    %24 = linalg.generic {indexing_maps = [#map4, #map4, #map4], iterator_types = ["parallel", "parallel", "parallel", "parallel"]} ins(%22, %21 : tensor<1x1x40x40xi1>, tensor<1x1x40x40xf32>) outs(%23 : tensor<1x1x40x40xf32>) {
    ^bb0(%in: i1, %in_742: f32, %out: f32):
      %4175 = arith.select %in, %cst_3, %in_742 : f32
      linalg.yield %4175 : f32
    } -> tensor<1x1x40x40xf32>
    %25 = tosa.reshape %14 {new_shape = array<i64: 1, 40, 40>} : (tensor<40x40xf32>) -> tensor<1x40x40xf32>
    %26 = tosa.reshape %25 {new_shape = array<i64: 1, 1, 40, 40>} : (tensor<1x40x40xf32>) -> tensor<1x1x40x40xf32>
    %extracted_slice_4 = tensor.extract_slice %26[0, 0, 0, 0] [1, 1, 40, 40] [1, 1, 1, 1] : tensor<1x1x40x40xf32> to tensor<1x1x40x40xf32>
    %extracted_slice_5 = tensor.extract_slice %extracted_slice_4[0, 0, 0, 0] [1, 1, 40, 40] [1, 1, 1, 1] : tensor<1x1x40x40xf32> to tensor<1x1x40x40xf32>
    %27 = "tosa.const"() <{value = dense<0.000000e+00> : tensor<1x1x40x40xf32>}> : () -> tensor<1x1x40x40xf32>
    %28 = tosa.add %extracted_slice_5, %27 : (tensor<1x1x40x40xf32>, tensor<1x1x40x40xf32>) -> tensor<1x1x40x40xf32>
    %29 = tosa.add %24, %28 : (tensor<1x1x40x40xf32>, tensor<1x1x40x40xf32>) -> tensor<1x1x40x40xf32>
    // RMSNorm begins
    %30 = tensor.empty() : tensor<1x40x4096xf32>
    %c2_i32 = arith.constant 2 : i32
    %31 = linalg.generic {indexing_maps = [#map5, #map5], iterator_types = ["parallel", "parallel", "parallel"]} ins(%6 : tensor<1x40x4096xf32>) outs(%30 : tensor<1x40x4096xf32>) {
    ^bb0(%in: f32, %out: f32):
      %4175 = math.fpowi %in, %c2_i32 : f32, i32
      linalg.yield %4175 : f32
    } -> tensor<1x40x4096xf32>
    %32 = tosa.reduce_sum %31 {axis = 2 : i32} : (tensor<1x40x4096xf32>) -> tensor<1x40x1xf32>
    %33 = "tosa.const"() <{value = dense<4.096000e+03> : tensor<1xf32>}> : () -> tensor<1xf32>
    %34 = tosa.reciprocal %33 : (tensor<1xf32>) -> tensor<1xf32>
    %35 = tosa.mul %34, %32 {shift = 0 : i8} : (tensor<1xf32>, tensor<1x40x1xf32>) -> tensor<1x40x1xf32>
    %36 = "tosa.const"() <{value = dense<9.99999974E-6> : tensor<1x40x1xf32>}> : () -> tensor<1x40x1xf32>
    %37 = tosa.add %35, %36 : (tensor<1x40x1xf32>, tensor<1x40x1xf32>) -> tensor<1x40x1xf32>
    %38 = tosa.rsqrt %37 : (tensor<1x40x1xf32>) -> tensor<1x40x1xf32>
    %39 = tosa.mul %6, %38 {shift = 0 : i8} : (tensor<1x40x4096xf32>, tensor<1x40x1xf32>) -> tensor<1x40x4096xf32>
    %40 = tosa.reshape %arg2 {new_shape = array<i64: 1, 1, 4096>} : (tensor<4096xf32>) -> tensor<1x1x4096xf32>
    // %41 is the input matrix X after embedding,
    // then there are three consecutive similar codes representing the calculation of Q, K, V (%46, %51, %56):
    %41 = tosa.mul %40, %39 {shift = 0 : i8} : (tensor<1x1x4096xf32>, tensor<1x40x4096xf32>) -> tensor<1x40x4096xf32>
    
    %42 = "tosa.const"() <{value = dense<[1, 0]> : tensor<2xi32>}> : () -> tensor<2xi32>
    %43 = tosa.transpose %arg3, %42 : (tensor<4096x4096xf32>, tensor<2xi32>) -> tensor<4096x4096xf32>
    %44 = tosa.reshape %41 {new_shape = array<i64: 40, 4096>} : (tensor<1x40x4096xf32>) -> tensor<40x4096xf32>
    %cst_6 = arith.constant dense<0.000000e+00> : tensor<40x4096xf32>
    %45 = linalg.matmul {cast = #linalg.type_fn<cast_signed>} ins(%44, %43 : tensor<40x4096xf32>, tensor<4096x4096xf32>) outs(%cst_6 : tensor<40x4096xf32>) -> tensor<40x4096xf32>
    %46 = tosa.reshape %45 {new_shape = array<i64: 1, 40, 4096>} : (tensor<40x4096xf32>) -> tensor<1x40x4096xf32>
    
    %47 = "tosa.const"() <{value = dense<[1, 0]> : tensor<2xi32>}> : () -> tensor<2xi32>
    %48 = tosa.transpose %arg4, %47 : (tensor<4096x4096xf32>, tensor<2xi32>) -> tensor<4096x4096xf32>
    %49 = tosa.reshape %41 {new_shape = array<i64: 40, 4096>} : (tensor<1x40x4096xf32>) -> tensor<40x4096xf32>
    %cst_7 = arith.constant dense<0.000000e+00> : tensor<40x4096xf32>
    %50 = linalg.matmul {cast = #linalg.type_fn<cast_signed>} ins(%49, %48 : tensor<40x4096xf32>, tensor<4096x4096xf32>) outs(%cst_7 : tensor<40x4096xf32>) -> tensor<40x4096xf32>
    %51 = tosa.reshape %50 {new_shape = array<i64: 1, 40, 4096>} : (tensor<40x4096xf32>) -> tensor<1x40x4096xf32>
    
    %52 = "tosa.const"() <{value = dense<[1, 0]> : tensor<2xi32>}> : () -> tensor<2xi32>
    %53 = tosa.transpose %arg5, %52 : (tensor<4096x4096xf32>, tensor<2xi32>) -> tensor<4096x4096xf32>
    %54 = tosa.reshape %41 {new_shape = array<i64: 40, 4096>} : (tensor<1x40x4096xf32>) -> tensor<40x4096xf32>
    %cst_8 = arith.constant dense<0.000000e+00> : tensor<40x4096xf32>
    %55 = linalg.matmul {cast = #linalg.type_fn<cast_signed>} ins(%54, %53 : tensor<40x4096xf32>, tensor<4096x4096xf32>) outs(%cst_8 : tensor<40x4096xf32>) -> tensor<40x4096xf32>
    %56 = tosa.reshape %55 {new_shape = array<i64: 1, 40, 4096>} : (tensor<40x4096xf32>) -> tensor<1x40x4096xf32>
    // completed the calculation of Q, K, V; dimensions is (batch, seq_len, num_heads, head_dims)
    // transpose Q, K, V dimensions for RoPE and dot product

    // // begin of RoPE
    %57 = tosa.reshape %46 {new_shape = array<i64: 1, 40, 32, 128>} : (tensor<1x40x4096xf32>) -> tensor<1x40x32x128xf32>
    %58 = "tosa.const"() <{value = dense<[0, 2, 1, 3]> : tensor<4xi32>}> : () -> tensor<4xi32>
    %59 = tosa.transpose %57, %58 : (tensor<1x40x32x128xf32>, tensor<4xi32>) -> tensor<1x32x40x128xf32>
    
    %60 = tosa.reshape %51 {new_shape = array<i64: 1, 40, 32, 128>} : (tensor<1x40x4096xf32>) -> tensor<1x40x32x128xf32>
    %61 = "tosa.const"() <{value = dense<[0, 2, 1, 3]> : tensor<4xi32>}> : () -> tensor<4xi32>
    %62 = tosa.transpose %60, %61 : (tensor<1x40x32x128xf32>, tensor<4xi32>) -> tensor<1x32x40x128xf32>
    
    %63 = tosa.reshape %56 {new_shape = array<i64: 1, 40, 32, 128>} : (tensor<1x40x4096xf32>) -> tensor<1x40x32x128xf32>
    %64 = "tosa.const"() <{value = dense<[0, 2, 1, 3]> : tensor<4xi32>}> : () -> tensor<4xi32>
    %65 = tosa.transpose %63, %64 : (tensor<1x40x32x128xf32>, tensor<4xi32>) -> tensor<1x32x40x128xf32>
    
    %extracted_slice_9 = tensor.extract_slice %arg6[0, 0, 0, 0] [1, 1, 2048, 128] [1, 1, 1, 1] : tensor<1x1x2048x128xf32> to tensor<1x1x2048x128xf32>
    %extracted_slice_10 = tensor.extract_slice %extracted_slice_9[0, 0, 0, 0] [1, 1, 2048, 128] [1, 1, 1, 1] : tensor<1x1x2048x128xf32> to tensor<1x1x2048x128xf32>
    %extracted_slice_11 = tensor.extract_slice %extracted_slice_10[0, 0, 0, 0] [1, 1, 40, 128] [1, 1, 1, 1] : tensor<1x1x2048x128xf32> to tensor<1x1x40x128xf32>
    %extracted_slice_12 = tensor.extract_slice %arg7[0, 0, 0, 0] [1, 1, 2048, 128] [1, 1, 1, 1] : tensor<1x1x2048x128xf32> to tensor<1x1x2048x128xf32>
    %extracted_slice_13 = tensor.extract_slice %extracted_slice_12[0, 0, 0, 0] [1, 1, 2048, 128] [1, 1, 1, 1] : tensor<1x1x2048x128xf32> to tensor<1x1x2048x128xf32>
    %extracted_slice_14 = tensor.extract_slice %extracted_slice_13[0, 0, 0, 0] [1, 1, 40, 128] [1, 1, 1, 1] : tensor<1x1x2048x128xf32> to tensor<1x1x40x128xf32>
    %66 = tensor.empty() : tensor<1x40x128xf32>
    %67 = linalg.generic {indexing_maps = [#map6, #map5], iterator_types = ["parallel", "parallel", "parallel"]} ins(%extracted_slice_11 : tensor<1x1x40x128xf32>) outs(%66 : tensor<1x40x128xf32>) {
    ^bb0(%in: f32, %out: f32):
      linalg.yield %in : f32
    } -> tensor<1x40x128xf32>
    %68 = tensor.empty() : tensor<40x128xf32>
    %69 = linalg.generic {indexing_maps = [#map7, #map3], iterator_types = ["parallel", "parallel"]} ins(%67 : tensor<1x40x128xf32>) outs(%68 : tensor<40x128xf32>) {
    ^bb0(%in: f32, %out: f32):
      linalg.yield %in : f32
    } -> tensor<40x128xf32>
    %70 = tensor.empty() : tensor<1x40x128xf32>
    %71 = linalg.generic {indexing_maps = [#map6, #map5], iterator_types = ["parallel", "parallel", "parallel"]} ins(%extracted_slice_14 : tensor<1x1x40x128xf32>) outs(%70 : tensor<1x40x128xf32>) {
    ^bb0(%in: f32, %out: f32):
      linalg.yield %in : f32
    } -> tensor<1x40x128xf32>
    %72 = tensor.empty() : tensor<40x128xf32>
    %73 = linalg.generic {indexing_maps = [#map7, #map3], iterator_types = ["parallel", "parallel"]} ins(%71 : tensor<1x40x128xf32>) outs(%72 : tensor<40x128xf32>) {
    ^bb0(%in: f32, %out: f32):
      linalg.yield %in : f32
    } -> tensor<40x128xf32>
    // precompute_theta_pos_frequencies function, which is used to calculating special values ​​of RoPE according to: https://hyper.ai/wiki/29220
    %74 = tensor.empty() : tensor<1x40x128xf32>
    %75 = linalg.generic {indexing_maps = [#map2, #map5], iterator_types = ["parallel", "parallel", "parallel"]} ins(%2 : tensor<1x40xi64>) outs(%74 : tensor<1x40x128xf32>) {
    ^bb0(%in: i64, %out: f32):
      %4175 = arith.index_cast %in : i64 to index
      %4176 = linalg.index 2 : index
      %extracted = tensor.extract %69[%4175, %4176] : tensor<40x128xf32>
      linalg.yield %extracted : f32
    } -> tensor<1x40x128xf32>
    %76 = tosa.reshape %75 {new_shape = array<i64: 1, 1, 40, 128>} : (tensor<1x40x128xf32>) -> tensor<1x1x40x128xf32>
    %77 = tensor.empty() : tensor<1x40x128xf32>
    %78 = linalg.generic {indexing_maps = [#map2, #map5], iterator_types = ["parallel", "parallel", "parallel"]} ins(%2 : tensor<1x40xi64>) outs(%77 : tensor<1x40x128xf32>) {
    ^bb0(%in: i64, %out: f32):
      %4175 = arith.index_cast %in : i64 to index
      %4176 = linalg.index 2 : index
      %extracted = tensor.extract %73[%4175, %4176] : tensor<40x128xf32>
      linalg.yield %extracted : f32
    } -> tensor<1x40x128xf32>
    %79 = tosa.reshape %78 {new_shape = array<i64: 1, 1, 40, 128>} : (tensor<1x40x128xf32>) -> tensor<1x1x40x128xf32>
    %80 = tosa.mul %59, %76 {shift = 0 : i8} : (tensor<1x32x40x128xf32>, tensor<1x1x40x128xf32>) -> tensor<1x32x40x128xf32>
    %extracted_slice_15 = tensor.extract_slice %59[0, 0, 0, 0] [1, 32, 40, 64] [1, 1, 1, 1] : tensor<1x32x40x128xf32> to tensor<1x32x40x64xf32>
    %extracted_slice_16 = tensor.extract_slice %59[0, 0, 0, 64] [1, 32, 40, 64] [1, 1, 1, 1] : tensor<1x32x40x128xf32> to tensor<1x32x40x64xf32>
    %81 = tosa.negate %extracted_slice_16 : (tensor<1x32x40x64xf32>) -> tensor<1x32x40x64xf32>
    %82 = tensor.empty() : tensor<1x32x40x128xf32>
    %inserted_slice = tensor.insert_slice %81 into %82[0, 0, 0, 0] [1, 32, 40, 64] [1, 1, 1, 1] : tensor<1x32x40x64xf32> into tensor<1x32x40x128xf32>
    %inserted_slice_17 = tensor.insert_slice %extracted_slice_15 into %inserted_slice[0, 0, 0, 64] [1, 32, 40, 64] [1, 1, 1, 1] : tensor<1x32x40x64xf32> into tensor<1x32x40x128xf32>
    %83 = tosa.mul %inserted_slice_17, %79 {shift = 0 : i8} : (tensor<1x32x40x128xf32>, tensor<1x1x40x128xf32>) -> tensor<1x32x40x128xf32>
    %84 = tosa.add %80, %83 : (tensor<1x32x40x128xf32>, tensor<1x32x40x128xf32>) -> tensor<1x32x40x128xf32>
    %85 = tosa.mul %62, %76 {shift = 0 : i8} : (tensor<1x32x40x128xf32>, tensor<1x1x40x128xf32>) -> tensor<1x32x40x128xf32>
    %extracted_slice_18 = tensor.extract_slice %62[0, 0, 0, 0] [1, 32, 40, 64] [1, 1, 1, 1] : tensor<1x32x40x128xf32> to tensor<1x32x40x64xf32>
    %extracted_slice_19 = tensor.extract_slice %62[0, 0, 0, 64] [1, 32, 40, 64] [1, 1, 1, 1] : tensor<1x32x40x128xf32> to tensor<1x32x40x64xf32>
    %86 = tosa.negate %extracted_slice_19 : (tensor<1x32x40x64xf32>) -> tensor<1x32x40x64xf32>
    %87 = tensor.empty() : tensor<1x32x40x128xf32>
    %inserted_slice_20 = tensor.insert_slice %86 into %87[0, 0, 0, 0] [1, 32, 40, 64] [1, 1, 1, 1] : tensor<1x32x40x64xf32> into tensor<1x32x40x128xf32>
    %inserted_slice_21 = tensor.insert_slice %extracted_slice_18 into %inserted_slice_20[0, 0, 0, 64] [1, 32, 40, 64] [1, 1, 1, 1] : tensor<1x32x40x64xf32> into tensor<1x32x40x128xf32>
    // end of RoPE, begin of Softmax(QK/sqrt(d_k)):
    %88 = tosa.mul %inserted_slice_21, %79 {shift = 0 : i8} : (tensor<1x32x40x128xf32>, tensor<1x1x40x128xf32>) -> tensor<1x32x40x128xf32>
    %89 = tosa.add %85, %88 : (tensor<1x32x40x128xf32>, tensor<1x32x40x128xf32>) -> tensor<1x32x40x128xf32>
    %90 = "tosa.const"() <{value = dense<[0, 1, 3, 2]> : tensor<4xi32>}> : () -> tensor<4xi32>
    %91 = tosa.transpose %89, %90 : (tensor<1x32x40x128xf32>, tensor<4xi32>) -> tensor<1x32x128x40xf32>
    %92 = "tosa.const"() <{value = dense<0.000000e+00> : tensor<1x32x40x128xf32>}> : () -> tensor<1x32x40x128xf32>
    %93 = tosa.add %84, %92 : (tensor<1x32x40x128xf32>, tensor<1x32x40x128xf32>) -> tensor<1x32x40x128xf32>
    %94 = tosa.reshape %93 {new_shape = array<i64: 32, 40, 128>} : (tensor<1x32x40x128xf32>) -> tensor<32x40x128xf32>
    %95 = "tosa.const"() <{value = dense<0.000000e+00> : tensor<1x32x128x40xf32>}> : () -> tensor<1x32x128x40xf32>
    %96 = tosa.add %91, %95 : (tensor<1x32x128x40xf32>, tensor<1x32x128x40xf32>) -> tensor<1x32x128x40xf32>
    %97 = tosa.reshape %96 {new_shape = array<i64: 32, 128, 40>} : (tensor<1x32x128x40xf32>) -> tensor<32x128x40xf32>
    %98 = tosa.matmul %94, %97 : (tensor<32x40x128xf32>, tensor<32x128x40xf32>) -> tensor<32x40x40xf32>
    %99 = tosa.reshape %98 {new_shape = array<i64: 1, 32, 40, 40>} : (tensor<32x40x40xf32>) -> tensor<1x32x40x40xf32>
    %100 = "tosa.const"() <{value = dense<11.3137083> : tensor<1x32x40x40xf32>}> : () -> tensor<1x32x40x40xf32>
    %101 = tosa.reciprocal %100 : (tensor<1x32x40x40xf32>) -> tensor<1x32x40x40xf32>
    %102 = tosa.mul %99, %101 {shift = 0 : i8} : (tensor<1x32x40x40xf32>, tensor<1x32x40x40xf32>) -> tensor<1x32x40x40xf32>
    %103 = tosa.add %102, %29 : (tensor<1x32x40x40xf32>, tensor<1x1x40x40xf32>) -> tensor<1x32x40x40xf32>
    %104 = tosa.reduce_max %103 {axis = 3 : i32} : (tensor<1x32x40x40xf32>) -> tensor<1x32x40x1xf32>
    %105 = tosa.sub %103, %104 : (tensor<1x32x40x40xf32>, tensor<1x32x40x1xf32>) -> tensor<1x32x40x40xf32>
    %106 = tosa.exp %105 : (tensor<1x32x40x40xf32>) -> tensor<1x32x40x40xf32>
    %107 = tosa.reduce_sum %106 {axis = 3 : i32} : (tensor<1x32x40x40xf32>) -> tensor<1x32x40x1xf32>
    %108 = tosa.reciprocal %107 : (tensor<1x32x40x1xf32>) -> tensor<1x32x40x1xf32>
    %109 = tosa.mul %106, %108 {shift = 0 : i8} : (tensor<1x32x40x40xf32>, tensor<1x32x40x1xf32>) -> tensor<1x32x40x40xf32>
    // end of Softmax(QK/sqrt(d_k)), begin of matmul with V
    %110 = "tosa.const"() <{value = dense<0.000000e+00> : tensor<1x32x40x40xf32>}> : () -> tensor<1x32x40x40xf32>
    %111 = tosa.add %109, %110 : (tensor<1x32x40x40xf32>, tensor<1x32x40x40xf32>) -> tensor<1x32x40x40xf32>
    %112 = tosa.reshape %111 {new_shape = array<i64: 32, 40, 40>} : (tensor<1x32x40x40xf32>) -> tensor<32x40x40xf32>
    %113 = "tosa.const"() <{value = dense<0.000000e+00> : tensor<1x32x40x128xf32>}> : () -> tensor<1x32x40x128xf32>
    %114 = tosa.add %65, %113 : (tensor<1x32x40x128xf32>, tensor<1x32x40x128xf32>) -> tensor<1x32x40x128xf32>
    %115 = tosa.reshape %114 {new_shape = array<i64: 32, 40, 128>} : (tensor<1x32x40x128xf32>) -> tensor<32x40x128xf32>
    %116 = tosa.matmul %112, %115 : (tensor<32x40x40xf32>, tensor<32x40x128xf32>) -> tensor<32x40x128xf32>
    %117 = tosa.reshape %116 {new_shape = array<i64: 1, 32, 40, 128>} : (tensor<32x40x128xf32>) -> tensor<1x32x40x128xf32>
    // complete one head Softmax(QK/sqrt(d_k)), collect all heads.
    %118 = "tosa.const"() <{value = dense<[0, 2, 1, 3]> : tensor<4xi32>}> : () -> tensor<4xi32>
    %119 = tosa.transpose %117, %118 : (tensor<1x32x40x128xf32>, tensor<4xi32>) -> tensor<1x40x32x128xf32>
    %120 = tosa.identity %119 : (tensor<1x40x32x128xf32>) -> tensor<1x40x32x128xf32>
    %121 = tosa.reshape %120 {new_shape = array<i64: 1, 40, 4096>} : (tensor<1x40x32x128xf32>) -> tensor<1x40x4096xf32>
    %122 = "tosa.const"() <{value = dense<[1, 0]> : tensor<2xi32>}> : () -> tensor<2xi32>
    %123 = tosa.transpose %arg8, %122 : (tensor<4096x4096xf32>, tensor<2xi32>) -> tensor<4096x4096xf32>
    %124 = tosa.reshape %121 {new_shape = array<i64: 40, 4096>} : (tensor<1x40x4096xf32>) -> tensor<40x4096xf32>
    %cst_22 = arith.constant dense<0.000000e+00> : tensor<40x4096xf32>
    %125 = linalg.matmul {cast = #linalg.type_fn<cast_signed>} ins(%124, %123 : tensor<40x4096xf32>, tensor<4096x4096xf32>) outs(%cst_22 : tensor<40x4096xf32>) -> tensor<40x4096xf32>
    %126 = tosa.reshape %125 {new_shape = array<i64: 1, 40, 4096>} : (tensor<40x4096xf32>) -> tensor<1x40x4096xf32>
    %127 = tosa.add %6, %126 : (tensor<1x40x4096xf32>, tensor<1x40x4096xf32>) -> tensor<1x40x4096xf32>
    // end of GQA(Group Query Attention) block, begin of FFN block(RMSNorm --> SwiGLU).
    %128 = tensor.empty() : tensor<1x40x4096xf32>
    %c2_i32_23 = arith.constant 2 : i32
    %129 = linalg.generic {indexing_maps = [#map5, #map5], iterator_types = ["parallel", "parallel", "parallel"]} ins(%127 : tensor<1x40x4096xf32>) outs(%128 : tensor<1x40x4096xf32>) {
    ^bb0(%in: f32, %out: f32):
      %4175 = math.fpowi %in, %c2_i32_23 : f32, i32
      linalg.yield %4175 : f32
    } -> tensor<1x40x4096xf32>
    %130 = tosa.reduce_sum %129 {axis = 2 : i32} : (tensor<1x40x4096xf32>) -> tensor<1x40x1xf32>
    %131 = "tosa.const"() <{value = dense<4.096000e+03> : tensor<1xf32>}> : () -> tensor<1xf32>
    %132 = tosa.reciprocal %131 : (tensor<1xf32>) -> tensor<1xf32>
    %133 = tosa.mul %132, %130 {shift = 0 : i8} : (tensor<1xf32>, tensor<1x40x1xf32>) -> tensor<1x40x1xf32>
    %134 = "tosa.const"() <{value = dense<9.99999974E-6> : tensor<1x40x1xf32>}> : () -> tensor<1x40x1xf32>
    %135 = tosa.add %133, %134 : (tensor<1x40x1xf32>, tensor<1x40x1xf32>) -> tensor<1x40x1xf32>
    %136 = tosa.rsqrt %135 : (tensor<1x40x1xf32>) -> tensor<1x40x1xf32>
    %137 = tosa.mul %127, %136 {shift = 0 : i8} : (tensor<1x40x4096xf32>, tensor<1x40x1xf32>) -> tensor<1x40x4096xf32>
    %138 = tosa.reshape %arg9 {new_shape = array<i64: 1, 1, 4096>} : (tensor<4096xf32>) -> tensor<1x1x4096xf32>
    %139 = tosa.mul %138, %137 {shift = 0 : i8} : (tensor<1x1x4096xf32>, tensor<1x40x4096xf32>) -> tensor<1x40x4096xf32>
    %140 = "tosa.const"() <{value = dense<[1, 0]> : tensor<2xi32>}> : () -> tensor<2xi32>
    %141 = tosa.transpose %arg10, %140 : (tensor<11008x4096xf32>, tensor<2xi32>) -> tensor<4096x11008xf32>
    %142 = tosa.reshape %139 {new_shape = array<i64: 40, 4096>} : (tensor<1x40x4096xf32>) -> tensor<40x4096xf32>
    %cst_24 = arith.constant dense<0.000000e+00> : tensor<40x11008xf32>
    %143 = linalg.matmul {cast = #linalg.type_fn<cast_signed>} ins(%142, %141 : tensor<40x4096xf32>, tensor<4096x11008xf32>) outs(%cst_24 : tensor<40x11008xf32>) -> tensor<40x11008xf32>
    %144 = tosa.reshape %143 {new_shape = array<i64: 1, 40, 11008>} : (tensor<40x11008xf32>) -> tensor<1x40x11008xf32>
    %145 = tosa.sigmoid %144 : (tensor<1x40x11008xf32>) -> tensor<1x40x11008xf32>
    %146 = tosa.mul %144, %145 {shift = 0 : i8} : (tensor<1x40x11008xf32>, tensor<1x40x11008xf32>) -> tensor<1x40x11008xf32>
    %147 = "tosa.const"() <{value = dense<[1, 0]> : tensor<2xi32>}> : () -> tensor<2xi32>
    %148 = tosa.transpose %arg11, %147 : (tensor<11008x4096xf32>, tensor<2xi32>) -> tensor<4096x11008xf32>
    %149 = tosa.reshape %139 {new_shape = array<i64: 40, 4096>} : (tensor<1x40x4096xf32>) -> tensor<40x4096xf32>
    %cst_25 = arith.constant dense<0.000000e+00> : tensor<40x11008xf32>
    %150 = linalg.matmul {cast = #linalg.type_fn<cast_signed>} ins(%149, %148 : tensor<40x4096xf32>, tensor<4096x11008xf32>) outs(%cst_25 : tensor<40x11008xf32>) -> tensor<40x11008xf32>
    %151 = tosa.reshape %150 {new_shape = array<i64: 1, 40, 11008>} : (tensor<40x11008xf32>) -> tensor<1x40x11008xf32>
    %152 = tosa.mul %146, %151 {shift = 0 : i8} : (tensor<1x40x11008xf32>, tensor<1x40x11008xf32>) -> tensor<1x40x11008xf32>
    %153 = "tosa.const"() <{value = dense<[1, 0]> : tensor<2xi32>}> : () -> tensor<2xi32>
    %154 = tosa.transpose %arg12, %153 : (tensor<4096x11008xf32>, tensor<2xi32>) -> tensor<11008x4096xf32>
    %155 = tosa.reshape %152 {new_shape = array<i64: 40, 11008>} : (tensor<1x40x11008xf32>) -> tensor<40x11008xf32>
    %cst_26 = arith.constant dense<0.000000e+00> : tensor<40x4096xf32>
    %156 = linalg.matmul {cast = #linalg.type_fn<cast_signed>} ins(%155, %154 : tensor<40x11008xf32>, tensor<11008x4096xf32>) outs(%cst_26 : tensor<40x4096xf32>) -> tensor<40x4096xf32>
    %157 = tosa.reshape %156 {new_shape = array<i64: 1, 40, 4096>} : (tensor<40x4096xf32>) -> tensor<1x40x4096xf32>
    %158 = tosa.add %127, %157 : (tensor<1x40x4096xf32>, tensor<1x40x4096xf32>) -> tensor<1x40x4096xf32>
    // end of last decoder block, begin of new decoder block.
    %159 = tensor.empty() : tensor<1x40x4096xf32>
    %c2_i32_27 = arith.constant 2 : i32
    %160 = linalg.generic {indexing_maps = [#map5, #map5], iterator_types = ["parallel", "parallel", "parallel"]} ins(%158 : tensor<1x40x4096xf32>) outs(%159 : tensor<1x40x4096xf32>) {
    ^bb0(%in: f32, %out: f32):
      %4175 = math.fpowi %in, %c2_i32_27 : f32, i32
      linalg.yield %4175 : f32
    } -> tensor<1x40x4096xf32>
    %161 = tosa.reduce_sum %160 {axis = 2 : i32} : (tensor<1x40x4096xf32>) -> tensor<1x40x1xf32>
    %162 = "tosa.const"() <{value = dense<4.096000e+03> : tensor<1xf32>}> : () -> tensor<1xf32>
    %163 = tosa.reciprocal %162 : (tensor<1xf32>) -> tensor<1xf32>
    %164 = tosa.mul %163, %161 {shift = 0 : i8} : (tensor<1xf32>, tensor<1x40x1xf32>) -> tensor<1x40x1xf32>
    %165 = "tosa.const"() <{value = dense<9.99999974E-6> : tensor<1x40x1xf32>}> : () -> tensor<1x40x1xf32>
    %166 = tosa.add %164, %165 : (tensor<1x40x1xf32>, tensor<1x40x1xf32>) -> tensor<1x40x1xf32>
    %167 = tosa.rsqrt %166 : (tensor<1x40x1xf32>) -> tensor<1x40x1xf32>
    %168 = tosa.mul %158, %167 {shift = 0 : i8} : (tensor<1x40x4096xf32>, tensor<1x40x1xf32>) -> tensor<1x40x4096xf32>
    %169 = tosa.reshape %arg13 {new_shape = array<i64: 1, 1, 4096>} : (tensor<4096xf32>) -> tensor<1x1x4096xf32>
    // %170 is the input matrix X after embedding, 
    // then there are three consecutive similar code block representing the calculation of Q, K, V (%175, %180, %185):
    %170 = tosa.mul %169, %168 {shift = 0 : i8} : (tensor<1x1x4096xf32>, tensor<1x40x4096xf32>) -> tensor<1x40x4096xf32>
    
    %171 = "tosa.const"() <{value = dense<[1, 0]> : tensor<2xi32>}> : () -> tensor<2xi32>
    %172 = tosa.transpose %arg14, %171 : (tensor<4096x4096xf32>, tensor<2xi32>) -> tensor<4096x4096xf32>
    %173 = tosa.reshape %170 {new_shape = array<i64: 40, 4096>} : (tensor<1x40x4096xf32>) -> tensor<40x4096xf32>
    %cst_28 = arith.constant dense<0.000000e+00> : tensor<40x4096xf32>
    %174 = linalg.matmul {cast = #linalg.type_fn<cast_signed>} ins(%173, %172 : tensor<40x4096xf32>, tensor<4096x4096xf32>) outs(%cst_28 : tensor<40x4096xf32>) -> tensor<40x4096xf32>
    %175 = tosa.reshape %174 {new_shape = array<i64: 1, 40, 4096>} : (tensor<40x4096xf32>) -> tensor<1x40x4096xf32>

    %176 = "tosa.const"() <{value = dense<[1, 0]> : tensor<2xi32>}> : () -> tensor<2xi32>
    %177 = tosa.transpose %arg15, %176 : (tensor<4096x4096xf32>, tensor<2xi32>) -> tensor<4096x4096xf32>
    %178 = tosa.reshape %170 {new_shape = array<i64: 40, 4096>} : (tensor<1x40x4096xf32>) -> tensor<40x4096xf32>
    %cst_29 = arith.constant dense<0.000000e+00> : tensor<40x4096xf32>
    %179 = linalg.matmul {cast = #linalg.type_fn<cast_signed>} ins(%178, %177 : tensor<40x4096xf32>, tensor<4096x4096xf32>) outs(%cst_29 : tensor<40x4096xf32>) -> tensor<40x4096xf32>
    %180 = tosa.reshape %179 {new_shape = array<i64: 1, 40, 4096>} : (tensor<40x4096xf32>) -> tensor<1x40x4096xf32>

    %181 = "tosa.const"() <{value = dense<[1, 0]> : tensor<2xi32>}> : () -> tensor<2xi32>
    %182 = tosa.transpose %arg16, %181 : (tensor<4096x4096xf32>, tensor<2xi32>) -> tensor<4096x4096xf32>
    %183 = tosa.reshape %170 {new_shape = array<i64: 40, 4096>} : (tensor<1x40x4096xf32>) -> tensor<40x4096xf32>
    %cst_30 = arith.constant dense<0.000000e+00> : tensor<40x4096xf32>
    %184 = linalg.matmul {cast = #linalg.type_fn<cast_signed>} ins(%183, %182 : tensor<40x4096xf32>, tensor<4096x4096xf32>) outs(%cst_30 : tensor<40x4096xf32>) -> tensor<40x4096xf32>
    %185 = tosa.reshape %184 {new_shape = array<i64: 1, 40, 4096>} : (tensor<40x4096xf32>) -> tensor<1x40x4096xf32>
    // completed the calculation of Q, K, V above.
    %186 = tosa.reshape %175 {new_shape = array<i64: 1, 40, 32, 128>} : (tensor<1x40x4096xf32>) -> tensor<1x40x32x128xf32>
    %187 = "tosa.const"() <{value = dense<[0, 2, 1, 3]> : tensor<4xi32>}> : () -> tensor<4xi32>
    %188 = tosa.transpose %186, %187 : (tensor<1x40x32x128xf32>, tensor<4xi32>) -> tensor<1x32x40x128xf32>

    %189 = tosa.reshape %180 {new_shape = array<i64: 1, 40, 32, 128>} : (tensor<1x40x4096xf32>) -> tensor<1x40x32x128xf32>
    %190 = "tosa.const"() <{value = dense<[0, 2, 1, 3]> : tensor<4xi32>}> : () -> tensor<4xi32>
    %191 = tosa.transpose %189, %190 : (tensor<1x40x32x128xf32>, tensor<4xi32>) -> tensor<1x32x40x128xf32>
    
    %192 = tosa.reshape %185 {new_shape = array<i64: 1, 40, 32, 128>} : (tensor<1x40x4096xf32>) -> tensor<1x40x32x128xf32>
    %193 = "tosa.const"() <{value = dense<[0, 2, 1, 3]> : tensor<4xi32>}> : () -> tensor<4xi32>
    %194 = tosa.transpose %192, %193 : (tensor<1x40x32x128xf32>, tensor<4xi32>) -> tensor<1x32x40x128xf32>
    
    %extracted_slice_31 = tensor.extract_slice %arg17[0, 0, 0, 0] [1, 1, 2048, 128] [1, 1, 1, 1] : tensor<1x1x2048x128xf32> to tensor<1x1x2048x128xf32>
    %extracted_slice_32 = tensor.extract_slice %extracted_slice_31[0, 0, 0, 0] [1, 1, 2048, 128] [1, 1, 1, 1] : tensor<1x1x2048x128xf32> to tensor<1x1x2048x128xf32>
    %extracted_slice_33 = tensor.extract_slice %extracted_slice_32[0, 0, 0, 0] [1, 1, 40, 128] [1, 1, 1, 1] : tensor<1x1x2048x128xf32> to tensor<1x1x40x128xf32>
    %extracted_slice_34 = tensor.extract_slice %arg18[0, 0, 0, 0] [1, 1, 2048, 128] [1, 1, 1, 1] : tensor<1x1x2048x128xf32> to tensor<1x1x2048x128xf32>
    %extracted_slice_35 = tensor.extract_slice %extracted_slice_34[0, 0, 0, 0] [1, 1, 2048, 128] [1, 1, 1, 1] : tensor<1x1x2048x128xf32> to tensor<1x1x2048x128xf32>
    %extracted_slice_36 = tensor.extract_slice %extracted_slice_35[0, 0, 0, 0] [1, 1, 40, 128] [1, 1, 1, 1] : tensor<1x1x2048x128xf32> to tensor<1x1x40x128xf32>
    %195 = tensor.empty() : tensor<1x40x128xf32>
    %196 = linalg.generic {indexing_maps = [#map6, #map5], iterator_types = ["parallel", "parallel", "parallel"]} ins(%extracted_slice_33 : tensor<1x1x40x128xf32>) outs(%195 : tensor<1x40x128xf32>) {
    ^bb0(%in: f32, %out: f32):
      linalg.yield %in : f32
    } -> tensor<1x40x128xf32>
    %197 = tensor.empty() : tensor<40x128xf32>
    // #map2 = affine_map<(d0, d1, d2) -> (d0, d1)>
    // #map3 = affine_map<(d0, d1) -> (d0, d1)>
    // #map4 = affine_map<(d0, d1, d2, d3) -> (d0, d1, d2, d3)>
    // #map5 = affine_map<(d0, d1, d2) -> (d0, d1, d2)>
    // #map6 = affine_map<(d0, d1, d2) -> (d0, 0, d1, d2)>
    // #map7 = affine_map<(d0, d1) -> (0, d0, d1)>
    %198 = linalg.generic {indexing_maps = [#map7, #map3], iterator_types = ["parallel", "parallel"]} ins(%196 : tensor<1x40x128xf32>) outs(%197 : tensor<40x128xf32>) {
    ^bb0(%in: f32, %out: f32):
      linalg.yield %in : f32
    } -> tensor<40x128xf32>
    %199 = tensor.empty() : tensor<1x40x128xf32>
    %200 = linalg.generic {indexing_maps = [#map6, #map5], iterator_types = ["parallel", "parallel", "parallel"]} ins(%extracted_slice_36 : tensor<1x1x40x128xf32>) outs(%199 : tensor<1x40x128xf32>) {
    ^bb0(%in: f32, %out: f32):
      linalg.yield %in : f32
    } -> tensor<1x40x128xf32>
    %201 = tensor.empty() : tensor<40x128xf32>
    %202 = linalg.generic {indexing_maps = [#map7, #map3], iterator_types = ["parallel", "parallel"]} ins(%200 : tensor<1x40x128xf32>) outs(%201 : tensor<40x128xf32>) {
    ^bb0(%in: f32, %out: f32):
      linalg.yield %in : f32
    } -> tensor<40x128xf32>
    %203 = tensor.empty() : tensor<1x40x128xf32>
    %204 = linalg.generic {indexing_maps = [#map2, #map5], iterator_types = ["parallel", "parallel", "parallel"]} ins(%2 : tensor<1x40xi64>) outs(%203 : tensor<1x40x128xf32>) {
    ^bb0(%in: i64, %out: f32):
      %4175 = arith.index_cast %in : i64 to index
      %4176 = linalg.index 2 : index
      %extracted = tensor.extract %198[%4175, %4176] : tensor<40x128xf32>
      linalg.yield %extracted : f32
    } -> tensor<1x40x128xf32>
    %205 = tosa.reshape %204 {new_shape = array<i64: 1, 1, 40, 128>} : (tensor<1x40x128xf32>) -> tensor<1x1x40x128xf32>
    %206 = tensor.empty() : tensor<1x40x128xf32>
    %207 = linalg.generic {indexing_maps = [#map2, #map5], iterator_types = ["parallel", "parallel", "parallel"]} ins(%2 : tensor<1x40xi64>) outs(%206 : tensor<1x40x128xf32>) {
    ^bb0(%in: i64, %out: f32):
      %4175 = arith.index_cast %in : i64 to index
      %4176 = linalg.index 2 : index
      %extracted = tensor.extract %202[%4175, %4176] : tensor<40x128xf32>
      linalg.yield %extracted : f32
    } -> tensor<1x40x128xf32>
    %208 = tosa.reshape %207 {new_shape = array<i64: 1, 1, 40, 128>} : (tensor<1x40x128xf32>) -> tensor<1x1x40x128xf32>
    %209 = tosa.mul %188, %205 {shift = 0 : i8} : (tensor<1x32x40x128xf32>, tensor<1x1x40x128xf32>) -> tensor<1x32x40x128xf32>
    %extracted_slice_37 = tensor.extract_slice %188[0, 0, 0, 0] [1, 32, 40, 64] [1, 1, 1, 1] : tensor<1x32x40x128xf32> to tensor<1x32x40x64xf32>
    %extracted_slice_38 = tensor.extract_slice %188[0, 0, 0, 64] [1, 32, 40, 64] [1, 1, 1, 1] : tensor<1x32x40x128xf32> to tensor<1x32x40x64xf32>
    %210 = tosa.negate %extracted_slice_38 : (tensor<1x32x40x64xf32>) -> tensor<1x32x40x64xf32>
    %211 = tensor.empty() : tensor<1x32x40x128xf32>
    %inserted_slice_39 = tensor.insert_slice %210 into %211[0, 0, 0, 0] [1, 32, 40, 64] [1, 1, 1, 1] : tensor<1x32x40x64xf32> into tensor<1x32x40x128xf32>
    %inserted_slice_40 = tensor.insert_slice %extracted_slice_37 into %inserted_slice_39[0, 0, 0, 64] [1, 32, 40, 64] [1, 1, 1, 1] : tensor<1x32x40x64xf32> into tensor<1x32x40x128xf32>
    %212 = tosa.mul %inserted_slice_40, %208 {shift = 0 : i8} : (tensor<1x32x40x128xf32>, tensor<1x1x40x128xf32>) -> tensor<1x32x40x128xf32>
    %213 = tosa.add %209, %212 : (tensor<1x32x40x128xf32>, tensor<1x32x40x128xf32>) -> tensor<1x32x40x128xf32>
    
    %214 = tosa.mul %191, %205 {shift = 0 : i8} : (tensor<1x32x40x128xf32>, tensor<1x1x40x128xf32>) -> tensor<1x32x40x128xf32>
    %extracted_slice_41 = tensor.extract_slice %191[0, 0, 0, 0] [1, 32, 40, 64] [1, 1, 1, 1] : tensor<1x32x40x128xf32> to tensor<1x32x40x64xf32>
    %extracted_slice_42 = tensor.extract_slice %191[0, 0, 0, 64] [1, 32, 40, 64] [1, 1, 1, 1] : tensor<1x32x40x128xf32> to tensor<1x32x40x64xf32>
    %215 = tosa.negate %extracted_slice_42 : (tensor<1x32x40x64xf32>) -> tensor<1x32x40x64xf32>
    %216 = tensor.empty() : tensor<1x32x40x128xf32>
    %inserted_slice_43 = tensor.insert_slice %215 into %216[0, 0, 0, 0] [1, 32, 40, 64] [1, 1, 1, 1] : tensor<1x32x40x64xf32> into tensor<1x32x40x128xf32>
    %inserted_slice_44 = tensor.insert_slice %extracted_slice_41 into %inserted_slice_43[0, 0, 0, 64] [1, 32, 40, 64] [1, 1, 1, 1] : tensor<1x32x40x64xf32> into tensor<1x32x40x128xf32>
    %217 = tosa.mul %inserted_slice_44, %208 {shift = 0 : i8} : (tensor<1x32x40x128xf32>, tensor<1x1x40x128xf32>) -> tensor<1x32x40x128xf32>
    %218 = tosa.add %214, %217 : (tensor<1x32x40x128xf32>, tensor<1x32x40x128xf32>) -> tensor<1x32x40x128xf32>
    
    %219 = "tosa.const"() <{value = dense<[0, 1, 3, 2]> : tensor<4xi32>}> : () -> tensor<4xi32>
    %220 = tosa.transpose %218, %219 : (tensor<1x32x40x128xf32>, tensor<4xi32>) -> tensor<1x32x128x40xf32>
    %221 = "tosa.const"() <{value = dense<0.000000e+00> : tensor<1x32x40x128xf32>}> : () -> tensor<1x32x40x128xf32>
    %222 = tosa.add %213, %221 : (tensor<1x32x40x128xf32>, tensor<1x32x40x128xf32>) -> tensor<1x32x40x128xf32>
    %223 = tosa.reshape %222 {new_shape = array<i64: 32, 40, 128>} : (tensor<1x32x40x128xf32>) -> tensor<32x40x128xf32>
    %224 = "tosa.const"() <{value = dense<0.000000e+00> : tensor<1x32x128x40xf32>}> : () -> tensor<1x32x128x40xf32>
    %225 = tosa.add %220, %224 : (tensor<1x32x128x40xf32>, tensor<1x32x128x40xf32>) -> tensor<1x32x128x40xf32>
    %226 = tosa.reshape %225 {new_shape = array<i64: 32, 128, 40>} : (tensor<1x32x128x40xf32>) -> tensor<32x128x40xf32>
    %227 = tosa.matmul %223, %226 : (tensor<32x40x128xf32>, tensor<32x128x40xf32>) -> tensor<32x40x40xf32>
    %228 = tosa.reshape %227 {new_shape = array<i64: 1, 32, 40, 40>} : (tensor<32x40x40xf32>) -> tensor<1x32x40x40xf32>
    %229 = "tosa.const"() <{value = dense<11.3137083> : tensor<1x32x40x40xf32>}> : () -> tensor<1x32x40x40xf32>
    %230 = tosa.reciprocal %229 : (tensor<1x32x40x40xf32>) -> tensor<1x32x40x40xf32>
    %231 = tosa.mul %228, %230 {shift = 0 : i8} : (tensor<1x32x40x40xf32>, tensor<1x32x40x40xf32>) -> tensor<1x32x40x40xf32>
    %232 = tosa.add %231, %29 : (tensor<1x32x40x40xf32>, tensor<1x1x40x40xf32>) -> tensor<1x32x40x40xf32>
    %233 = tosa.reduce_max %232 {axis = 3 : i32} : (tensor<1x32x40x40xf32>) -> tensor<1x32x40x1xf32>
    %234 = tosa.sub %232, %233 : (tensor<1x32x40x40xf32>, tensor<1x32x40x1xf32>) -> tensor<1x32x40x40xf32>
    %235 = tosa.exp %234 : (tensor<1x32x40x40xf32>) -> tensor<1x32x40x40xf32>
    %236 = tosa.reduce_sum %235 {axis = 3 : i32} : (tensor<1x32x40x40xf32>) -> tensor<1x32x40x1xf32>
    %237 = tosa.reciprocal %236 : (tensor<1x32x40x1xf32>) -> tensor<1x32x40x1xf32>
    %238 = tosa.mul %235, %237 {shift = 0 : i8} : (tensor<1x32x40x40xf32>, tensor<1x32x40x1xf32>) -> tensor<1x32x40x40xf32>
    %239 = "tosa.const"() <{value = dense<0.000000e+00> : tensor<1x32x40x40xf32>}> : () -> tensor<1x32x40x40xf32>
    %240 = tosa.add %238, %239 : (tensor<1x32x40x40xf32>, tensor<1x32x40x40xf32>) -> tensor<1x32x40x40xf32>
    %241 = tosa.reshape %240 {new_shape = array<i64: 32, 40, 40>} : (tensor<1x32x40x40xf32>) -> tensor<32x40x40xf32>
    %242 = "tosa.const"() <{value = dense<0.000000e+00> : tensor<1x32x40x128xf32>}> : () -> tensor<1x32x40x128xf32>
    %243 = tosa.add %194, %242 : (tensor<1x32x40x128xf32>, tensor<1x32x40x128xf32>) -> tensor<1x32x40x128xf32>
    %244 = tosa.reshape %243 {new_shape = array<i64: 32, 40, 128>} : (tensor<1x32x40x128xf32>) -> tensor<32x40x128xf32>
    %245 = tosa.matmul %241, %244 : (tensor<32x40x40xf32>, tensor<32x40x128xf32>) -> tensor<32x40x128xf32>
    %246 = tosa.reshape %245 {new_shape = array<i64: 1, 32, 40, 128>} : (tensor<32x40x128xf32>) -> tensor<1x32x40x128xf32>
    %247 = "tosa.const"() <{value = dense<[0, 2, 1, 3]> : tensor<4xi32>}> : () -> tensor<4xi32>
    %248 = tosa.transpose %246, %247 : (tensor<1x32x40x128xf32>, tensor<4xi32>) -> tensor<1x40x32x128xf32>
    %249 = tosa.identity %248 : (tensor<1x40x32x128xf32>) -> tensor<1x40x32x128xf32>
    %250 = tosa.reshape %249 {new_shape = array<i64: 1, 40, 4096>} : (tensor<1x40x32x128xf32>) -> tensor<1x40x4096xf32>
    %251 = "tosa.const"() <{value = dense<[1, 0]> : tensor<2xi32>}> : () -> tensor<2xi32>
    %252 = tosa.transpose %arg19, %251 : (tensor<4096x4096xf32>, tensor<2xi32>) -> tensor<4096x4096xf32>
    %253 = tosa.reshape %250 {new_shape = array<i64: 40, 4096>} : (tensor<1x40x4096xf32>) -> tensor<40x4096xf32>
    %cst_45 = arith.constant dense<0.000000e+00> : tensor<40x4096xf32>
    %254 = linalg.matmul {cast = #linalg.type_fn<cast_signed>} ins(%253, %252 : tensor<40x4096xf32>, tensor<4096x4096xf32>) outs(%cst_45 : tensor<40x4096xf32>) -> tensor<40x4096xf32>
    %255 = tosa.reshape %254 {new_shape = array<i64: 1, 40, 4096>} : (tensor<40x4096xf32>) -> tensor<1x40x4096xf32>
    %256 = tosa.add %158, %255 : (tensor<1x40x4096xf32>, tensor<1x40x4096xf32>) -> tensor<1x40x4096xf32>
    %257 = tensor.empty() : tensor<1x40x4096xf32>
    %c2_i32_46 = arith.constant 2 : i32
    %258 = linalg.generic {indexing_maps = [#map5, #map5], iterator_types = ["parallel", "parallel", "parallel"]} ins(%256 : tensor<1x40x4096xf32>) outs(%257 : tensor<1x40x4096xf32>) {
    ^bb0(%in: f32, %out: f32):
      %4175 = math.fpowi %in, %c2_i32_46 : f32, i32
      linalg.yield %4175 : f32
    } -> tensor<1x40x4096xf32>
    %259 = tosa.reduce_sum %258 {axis = 2 : i32} : (tensor<1x40x4096xf32>) -> tensor<1x40x1xf32>
    %260 = "tosa.const"() <{value = dense<4.096000e+03> : tensor<1xf32>}> : () -> tensor<1xf32>
    %261 = tosa.reciprocal %260 : (tensor<1xf32>) -> tensor<1xf32>
    %262 = tosa.mul %261, %259 {shift = 0 : i8} : (tensor<1xf32>, tensor<1x40x1xf32>) -> tensor<1x40x1xf32>
    %263 = "tosa.const"() <{value = dense<9.99999974E-6> : tensor<1x40x1xf32>}> : () -> tensor<1x40x1xf32>
    %264 = tosa.add %262, %263 : (tensor<1x40x1xf32>, tensor<1x40x1xf32>) -> tensor<1x40x1xf32>
    %265 = tosa.rsqrt %264 : (tensor<1x40x1xf32>) -> tensor<1x40x1xf32>
    %266 = tosa.mul %256, %265 {shift = 0 : i8} : (tensor<1x40x4096xf32>, tensor<1x40x1xf32>) -> tensor<1x40x4096xf32>
    %267 = tosa.reshape %arg20 {new_shape = array<i64: 1, 1, 4096>} : (tensor<4096xf32>) -> tensor<1x1x4096xf32>
    %268 = tosa.mul %267, %266 {shift = 0 : i8} : (tensor<1x1x4096xf32>, tensor<1x40x4096xf32>) -> tensor<1x40x4096xf32>
    %269 = "tosa.const"() <{value = dense<[1, 0]> : tensor<2xi32>}> : () -> tensor<2xi32>
    %270 = tosa.transpose %arg21, %269 : (tensor<11008x4096xf32>, tensor<2xi32>) -> tensor<4096x11008xf32>
    %271 = tosa.reshape %268 {new_shape = array<i64: 40, 4096>} : (tensor<1x40x4096xf32>) -> tensor<40x4096xf32>
    %cst_47 = arith.constant dense<0.000000e+00> : tensor<40x11008xf32>
    %272 = linalg.matmul {cast = #linalg.type_fn<cast_signed>} ins(%271, %270 : tensor<40x4096xf32>, tensor<4096x11008xf32>) outs(%cst_47 : tensor<40x11008xf32>) -> tensor<40x11008xf32>
    %273 = tosa.reshape %272 {new_shape = array<i64: 1, 40, 11008>} : (tensor<40x11008xf32>) -> tensor<1x40x11008xf32>
    %274 = tosa.sigmoid %273 : (tensor<1x40x11008xf32>) -> tensor<1x40x11008xf32>
    %275 = tosa.mul %273, %274 {shift = 0 : i8} : (tensor<1x40x11008xf32>, tensor<1x40x11008xf32>) -> tensor<1x40x11008xf32>
    %276 = "tosa.const"() <{value = dense<[1, 0]> : tensor<2xi32>}> : () -> tensor<2xi32>
    %277 = tosa.transpose %arg22, %276 : (tensor<11008x4096xf32>, tensor<2xi32>) -> tensor<4096x11008xf32>
    %278 = tosa.reshape %268 {new_shape = array<i64: 40, 4096>} : (tensor<1x40x4096xf32>) -> tensor<40x4096xf32>
    %cst_48 = arith.constant dense<0.000000e+00> : tensor<40x11008xf32>
    %279 = linalg.matmul {cast = #linalg.type_fn<cast_signed>} ins(%278, %277 : tensor<40x4096xf32>, tensor<4096x11008xf32>) outs(%cst_48 : tensor<40x11008xf32>) -> tensor<40x11008xf32>
    %280 = tosa.reshape %279 {new_shape = array<i64: 1, 40, 11008>} : (tensor<40x11008xf32>) -> tensor<1x40x11008xf32>
    %281 = tosa.mul %275, %280 {shift = 0 : i8} : (tensor<1x40x11008xf32>, tensor<1x40x11008xf32>) -> tensor<1x40x11008xf32>
    %282 = "tosa.const"() <{value = dense<[1, 0]> : tensor<2xi32>}> : () -> tensor<2xi32>
    %283 = tosa.transpose %arg23, %282 : (tensor<4096x11008xf32>, tensor<2xi32>) -> tensor<11008x4096xf32>
    %284 = tosa.reshape %281 {new_shape = array<i64: 40, 11008>} : (tensor<1x40x11008xf32>) -> tensor<40x11008xf32>
    %cst_49 = arith.constant dense<0.000000e+00> : tensor<40x4096xf32>
    %285 = linalg.matmul {cast = #linalg.type_fn<cast_signed>} ins(%284, %283 : tensor<40x11008xf32>, tensor<11008x4096xf32>) outs(%cst_49 : tensor<40x4096xf32>) -> tensor<40x4096xf32>
    %286 = tosa.reshape %285 {new_shape = array<i64: 1, 40, 4096>} : (tensor<40x4096xf32>) -> tensor<1x40x4096xf32>
    %287 = tosa.add %256, %286 : (tensor<1x40x4096xf32>, tensor<1x40x4096xf32>) -> tensor<1x40x4096xf32>
    %288 = tensor.empty() : tensor<1x40x4096xf32>
    %c2_i32_50 = arith.constant 2 : i32
    %289 = linalg.generic {indexing_maps = [#map5, #map5], iterator_types = ["parallel", "parallel", "parallel"]} ins(%287 : tensor<1x40x4096xf32>) outs(%288 : tensor<1x40x4096xf32>) {
    ^bb0(%in: f32, %out: f32):
      %4175 = math.fpowi %in, %c2_i32_50 : f32, i32
      linalg.yield %4175 : f32
    } -> tensor<1x40x4096xf32>
    %290 = tosa.reduce_sum %289 {axis = 2 : i32} : (tensor<1x40x4096xf32>) -> tensor<1x40x1xf32>
    %291 = "tosa.const"() <{value = dense<4.096000e+03> : tensor<1xf32>}> : () -> tensor<1xf32>
    %292 = tosa.reciprocal %291 : (tensor<1xf32>) -> tensor<1xf32>
    %293 = tosa.mul %292, %290 {shift = 0 : i8} : (tensor<1xf32>, tensor<1x40x1xf32>) -> tensor<1x40x1xf32>
    %294 = "tosa.const"() <{value = dense<9.99999974E-6> : tensor<1x40x1xf32>}> : () -> tensor<1x40x1xf32>
    %295 = tosa.add %293, %294 : (tensor<1x40x1xf32>, tensor<1x40x1xf32>) -> tensor<1x40x1xf32>
    %296 = tosa.rsqrt %295 : (tensor<1x40x1xf32>) -> tensor<1x40x1xf32>
    %297 = tosa.mul %287, %296 {shift = 0 : i8} : (tensor<1x40x4096xf32>, tensor<1x40x1xf32>) -> tensor<1x40x4096xf32>
    %298 = tosa.reshape %arg24 {new_shape = array<i64: 1, 1, 4096>} : (tensor<4096xf32>) -> tensor<1x1x4096xf32>
    %299 = tosa.mul %298, %297 {shift = 0 : i8} : (tensor<1x1x4096xf32>, tensor<1x40x4096xf32>) -> tensor<1x40x4096xf32>
    %300 = "tosa.const"() <{value = dense<[1, 0]> : tensor<2xi32>}> : () -> tensor<2xi32>
    %301 = tosa.transpose %arg25, %300 : (tensor<4096x4096xf32>, tensor<2xi32>) -> tensor<4096x4096xf32>
    %302 = tosa.reshape %299 {new_shape = array<i64: 40, 4096>} : (tensor<1x40x4096xf32>) -> tensor<40x4096xf32>
    %cst_51 = arith.constant dense<0.000000e+00> : tensor<40x4096xf32>
    %303 = linalg.matmul {cast = #linalg.type_fn<cast_signed>} ins(%302, %301 : tensor<40x4096xf32>, tensor<4096x4096xf32>) outs(%cst_51 : tensor<40x4096xf32>) -> tensor<40x4096xf32>
    %304 = tosa.reshape %303 {new_shape = array<i64: 1, 40, 4096>} : (tensor<40x4096xf32>) -> tensor<1x40x4096xf32>
    %305 = "tosa.const"() <{value = dense<[1, 0]> : tensor<2xi32>}> : () -> tensor<2xi32>
    %306 = tosa.transpose %arg26, %305 : (tensor<4096x4096xf32>, tensor<2xi32>) -> tensor<4096x4096xf32>
    %307 = tosa.reshape %299 {new_shape = array<i64: 40, 4096>} : (tensor<1x40x4096xf32>) -> tensor<40x4096xf32>
    %cst_52 = arith.constant dense<0.000000e+00> : tensor<40x4096xf32>
    %308 = linalg.matmul {cast = #linalg.type_fn<cast_signed>} ins(%307, %306 : tensor<40x4096xf32>, tensor<4096x4096xf32>) outs(%cst_52 : tensor<40x4096xf32>) -> tensor<40x4096xf32>
    %309 = tosa.reshape %308 {new_shape = array<i64: 1, 40, 4096>} : (tensor<40x4096xf32>) -> tensor<1x40x4096xf32>
    %310 = "tosa.const"() <{value = dense<[1, 0]> : tensor<2xi32>}> : () -> tensor<2xi32>
    %311 = tosa.transpose %arg27, %310 : (tensor<4096x4096xf32>, tensor<2xi32>) -> tensor<4096x4096xf32>
    %312 = tosa.reshape %299 {new_shape = array<i64: 40, 4096>} : (tensor<1x40x4096xf32>) -> tensor<40x4096xf32>
    %cst_53 = arith.constant dense<0.000000e+00> : tensor<40x4096xf32>
    %313 = linalg.matmul {cast = #linalg.type_fn<cast_signed>} ins(%312, %311 : tensor<40x4096xf32>, tensor<4096x4096xf32>) outs(%cst_53 : tensor<40x4096xf32>) -> tensor<40x4096xf32>
    %314 = tosa.reshape %313 {new_shape = array<i64: 1, 40, 4096>} : (tensor<40x4096xf32>) -> tensor<1x40x4096xf32>
    %315 = tosa.reshape %304 {new_shape = array<i64: 1, 40, 32, 128>} : (tensor<1x40x4096xf32>) -> tensor<1x40x32x128xf32>
    %316 = "tosa.const"() <{value = dense<[0, 2, 1, 3]> : tensor<4xi32>}> : () -> tensor<4xi32>
    %317 = tosa.transpose %315, %316 : (tensor<1x40x32x128xf32>, tensor<4xi32>) -> tensor<1x32x40x128xf32>
    %318 = tosa.reshape %309 {new_shape = array<i64: 1, 40, 32, 128>} : (tensor<1x40x4096xf32>) -> tensor<1x40x32x128xf32>
    %319 = "tosa.const"() <{value = dense<[0, 2, 1, 3]> : tensor<4xi32>}> : () -> tensor<4xi32>
    %320 = tosa.transpose %318, %319 : (tensor<1x40x32x128xf32>, tensor<4xi32>) -> tensor<1x32x40x128xf32>
    %321 = tosa.reshape %314 {new_shape = array<i64: 1, 40, 32, 128>} : (tensor<1x40x4096xf32>) -> tensor<1x40x32x128xf32>
    %322 = "tosa.const"() <{value = dense<[0, 2, 1, 3]> : tensor<4xi32>}> : () -> tensor<4xi32>
    %323 = tosa.transpose %321, %322 : (tensor<1x40x32x128xf32>, tensor<4xi32>) -> tensor<1x32x40x128xf32>
    %extracted_slice_54 = tensor.extract_slice %arg28[0, 0, 0, 0] [1, 1, 2048, 128] [1, 1, 1, 1] : tensor<1x1x2048x128xf32> to tensor<1x1x2048x128xf32>
    %extracted_slice_55 = tensor.extract_slice %extracted_slice_54[0, 0, 0, 0] [1, 1, 2048, 128] [1, 1, 1, 1] : tensor<1x1x2048x128xf32> to tensor<1x1x2048x128xf32>
    %extracted_slice_56 = tensor.extract_slice %extracted_slice_55[0, 0, 0, 0] [1, 1, 40, 128] [1, 1, 1, 1] : tensor<1x1x2048x128xf32> to tensor<1x1x40x128xf32>
    %extracted_slice_57 = tensor.extract_slice %arg29[0, 0, 0, 0] [1, 1, 2048, 128] [1, 1, 1, 1] : tensor<1x1x2048x128xf32> to tensor<1x1x2048x128xf32>
    %extracted_slice_58 = tensor.extract_slice %extracted_slice_57[0, 0, 0, 0] [1, 1, 2048, 128] [1, 1, 1, 1] : tensor<1x1x2048x128xf32> to tensor<1x1x2048x128xf32>
    %extracted_slice_59 = tensor.extract_slice %extracted_slice_58[0, 0, 0, 0] [1, 1, 40, 128] [1, 1, 1, 1] : tensor<1x1x2048x128xf32> to tensor<1x1x40x128xf32>
    %324 = tensor.empty() : tensor<1x40x128xf32>
    %325 = linalg.generic {indexing_maps = [#map6, #map5], iterator_types = ["parallel", "parallel", "parallel"]} ins(%extracted_slice_56 : tensor<1x1x40x128xf32>) outs(%324 : tensor<1x40x128xf32>) {
    ^bb0(%in: f32, %out: f32):
      linalg.yield %in : f32
    } -> tensor<1x40x128xf32>
    %326 = tensor.empty() : tensor<40x128xf32>
    %327 = linalg.generic {indexing_maps = [#map7, #map3], iterator_types = ["parallel", "parallel"]} ins(%325 : tensor<1x40x128xf32>) outs(%326 : tensor<40x128xf32>) {
    ^bb0(%in: f32, %out: f32):
      linalg.yield %in : f32
    } -> tensor<40x128xf32>
    %328 = tensor.empty() : tensor<1x40x128xf32>
    %329 = linalg.generic {indexing_maps = [#map6, #map5], iterator_types = ["parallel", "parallel", "parallel"]} ins(%extracted_slice_59 : tensor<1x1x40x128xf32>) outs(%328 : tensor<1x40x128xf32>) {
    ^bb0(%in: f32, %out: f32):
      linalg.yield %in : f32
    } -> tensor<1x40x128xf32>
    %330 = tensor.empty() : tensor<40x128xf32>
    %331 = linalg.generic {indexing_maps = [#map7, #map3], iterator_types = ["parallel", "parallel"]} ins(%329 : tensor<1x40x128xf32>) outs(%330 : tensor<40x128xf32>) {
    ^bb0(%in: f32, %out: f32):
      linalg.yield %in : f32
    } -> tensor<40x128xf32>
    %332 = tensor.empty() : tensor<1x40x128xf32>
    %333 = linalg.generic {indexing_maps = [#map2, #map5], iterator_types = ["parallel", "parallel", "parallel"]} ins(%2 : tensor<1x40xi64>) outs(%332 : tensor<1x40x128xf32>) {
    ^bb0(%in: i64, %out: f32):
      %4175 = arith.index_cast %in : i64 to index
      %4176 = linalg.index 2 : index
      %extracted = tensor.extract %327[%4175, %4176] : tensor<40x128xf32>
      linalg.yield %extracted : f32
    } -> tensor<1x40x128xf32>
    %334 = tosa.reshape %333 {new_shape = array<i64: 1, 1, 40, 128>} : (tensor<1x40x128xf32>) -> tensor<1x1x40x128xf32>
    %335 = tensor.empty() : tensor<1x40x128xf32>
    %336 = linalg.generic {indexing_maps = [#map2, #map5], iterator_types = ["parallel", "parallel", "parallel"]} ins(%2 : tensor<1x40xi64>) outs(%335 : tensor<1x40x128xf32>) {
    ^bb0(%in: i64, %out: f32):
      %4175 = arith.index_cast %in : i64 to index
      %4176 = linalg.index 2 : index
      %extracted = tensor.extract %331[%4175, %4176] : tensor<40x128xf32>
      linalg.yield %extracted : f32
    } -> tensor<1x40x128xf32>
    %337 = tosa.reshape %336 {new_shape = array<i64: 1, 1, 40, 128>} : (tensor<1x40x128xf32>) -> tensor<1x1x40x128xf32>
    %338 = tosa.mul %317, %334 {shift = 0 : i8} : (tensor<1x32x40x128xf32>, tensor<1x1x40x128xf32>) -> tensor<1x32x40x128xf32>
    %extracted_slice_60 = tensor.extract_slice %317[0, 0, 0, 0] [1, 32, 40, 64] [1, 1, 1, 1] : tensor<1x32x40x128xf32> to tensor<1x32x40x64xf32>
    %extracted_slice_61 = tensor.extract_slice %317[0, 0, 0, 64] [1, 32, 40, 64] [1, 1, 1, 1] : tensor<1x32x40x128xf32> to tensor<1x32x40x64xf32>
    %339 = tosa.negate %extracted_slice_61 : (tensor<1x32x40x64xf32>) -> tensor<1x32x40x64xf32>
    %340 = tensor.empty() : tensor<1x32x40x128xf32>
    %inserted_slice_62 = tensor.insert_slice %339 into %340[0, 0, 0, 0] [1, 32, 40, 64] [1, 1, 1, 1] : tensor<1x32x40x64xf32> into tensor<1x32x40x128xf32>
    %inserted_slice_63 = tensor.insert_slice %extracted_slice_60 into %inserted_slice_62[0, 0, 0, 64] [1, 32, 40, 64] [1, 1, 1, 1] : tensor<1x32x40x64xf32> into tensor<1x32x40x128xf32>
    %341 = tosa.mul %inserted_slice_63, %337 {shift = 0 : i8} : (tensor<1x32x40x128xf32>, tensor<1x1x40x128xf32>) -> tensor<1x32x40x128xf32>
    %342 = tosa.add %338, %341 : (tensor<1x32x40x128xf32>, tensor<1x32x40x128xf32>) -> tensor<1x32x40x128xf32>
    %343 = tosa.mul %320, %334 {shift = 0 : i8} : (tensor<1x32x40x128xf32>, tensor<1x1x40x128xf32>) -> tensor<1x32x40x128xf32>
    %extracted_slice_64 = tensor.extract_slice %320[0, 0, 0, 0] [1, 32, 40, 64] [1, 1, 1, 1] : tensor<1x32x40x128xf32> to tensor<1x32x40x64xf32>
    %extracted_slice_65 = tensor.extract_slice %320[0, 0, 0, 64] [1, 32, 40, 64] [1, 1, 1, 1] : tensor<1x32x40x128xf32> to tensor<1x32x40x64xf32>
    %344 = tosa.negate %extracted_slice_65 : (tensor<1x32x40x64xf32>) -> tensor<1x32x40x64xf32>
    %345 = tensor.empty() : tensor<1x32x40x128xf32>
    %inserted_slice_66 = tensor.insert_slice %344 into %345[0, 0, 0, 0] [1, 32, 40, 64] [1, 1, 1, 1] : tensor<1x32x40x64xf32> into tensor<1x32x40x128xf32>
    %inserted_slice_67 = tensor.insert_slice %extracted_slice_64 into %inserted_slice_66[0, 0, 0, 64] [1, 32, 40, 64] [1, 1, 1, 1] : tensor<1x32x40x64xf32> into tensor<1x32x40x128xf32>
    %346 = tosa.mul %inserted_slice_67, %337 {shift = 0 : i8} : (tensor<1x32x40x128xf32>, tensor<1x1x40x128xf32>) -> tensor<1x32x40x128xf32>
    %347 = tosa.add %343, %346 : (tensor<1x32x40x128xf32>, tensor<1x32x40x128xf32>) -> tensor<1x32x40x128xf32>
    %348 = "tosa.const"() <{value = dense<[0, 1, 3, 2]> : tensor<4xi32>}> : () -> tensor<4xi32>
    %349 = tosa.transpose %347, %348 : (tensor<1x32x40x128xf32>, tensor<4xi32>) -> tensor<1x32x128x40xf32>
    %350 = "tosa.const"() <{value = dense<0.000000e+00> : tensor<1x32x40x128xf32>}> : () -> tensor<1x32x40x128xf32>
    %351 = tosa.add %342, %350 : (tensor<1x32x40x128xf32>, tensor<1x32x40x128xf32>) -> tensor<1x32x40x128xf32>
    %352 = tosa.reshape %351 {new_shape = array<i64: 32, 40, 128>} : (tensor<1x32x40x128xf32>) -> tensor<32x40x128xf32>
    %353 = "tosa.const"() <{value = dense<0.000000e+00> : tensor<1x32x128x40xf32>}> : () -> tensor<1x32x128x40xf32>
    %354 = tosa.add %349, %353 : (tensor<1x32x128x40xf32>, tensor<1x32x128x40xf32>) -> tensor<1x32x128x40xf32>
    %355 = tosa.reshape %354 {new_shape = array<i64: 32, 128, 40>} : (tensor<1x32x128x40xf32>) -> tensor<32x128x40xf32>
    %356 = tosa.matmul %352, %355 : (tensor<32x40x128xf32>, tensor<32x128x40xf32>) -> tensor<32x40x40xf32>
    %357 = tosa.reshape %356 {new_shape = array<i64: 1, 32, 40, 40>} : (tensor<32x40x40xf32>) -> tensor<1x32x40x40xf32>
    %358 = "tosa.const"() <{value = dense<11.3137083> : tensor<1x32x40x40xf32>}> : () -> tensor<1x32x40x40xf32>
    %359 = tosa.reciprocal %358 : (tensor<1x32x40x40xf32>) -> tensor<1x32x40x40xf32>
    %360 = tosa.mul %357, %359 {shift = 0 : i8} : (tensor<1x32x40x40xf32>, tensor<1x32x40x40xf32>) -> tensor<1x32x40x40xf32>
    %361 = tosa.add %360, %29 : (tensor<1x32x40x40xf32>, tensor<1x1x40x40xf32>) -> tensor<1x32x40x40xf32>
    %362 = tosa.reduce_max %361 {axis = 3 : i32} : (tensor<1x32x40x40xf32>) -> tensor<1x32x40x1xf32>
    %363 = tosa.sub %361, %362 : (tensor<1x32x40x40xf32>, tensor<1x32x40x1xf32>) -> tensor<1x32x40x40xf32>
    %364 = tosa.exp %363 : (tensor<1x32x40x40xf32>) -> tensor<1x32x40x40xf32>
    %365 = tosa.reduce_sum %364 {axis = 3 : i32} : (tensor<1x32x40x40xf32>) -> tensor<1x32x40x1xf32>
    %366 = tosa.reciprocal %365 : (tensor<1x32x40x1xf32>) -> tensor<1x32x40x1xf32>
    %367 = tosa.mul %364, %366 {shift = 0 : i8} : (tensor<1x32x40x40xf32>, tensor<1x32x40x1xf32>) -> tensor<1x32x40x40xf32>
    %368 = "tosa.const"() <{value = dense<0.000000e+00> : tensor<1x32x40x40xf32>}> : () -> tensor<1x32x40x40xf32>
    %369 = tosa.add %367, %368 : (tensor<1x32x40x40xf32>, tensor<1x32x40x40xf32>) -> tensor<1x32x40x40xf32>
    %370 = tosa.reshape %369 {new_shape = array<i64: 32, 40, 40>} : (tensor<1x32x40x40xf32>) -> tensor<32x40x40xf32>
    %371 = "tosa.const"() <{value = dense<0.000000e+00> : tensor<1x32x40x128xf32>}> : () -> tensor<1x32x40x128xf32>
    %372 = tosa.add %323, %371 : (tensor<1x32x40x128xf32>, tensor<1x32x40x128xf32>) -> tensor<1x32x40x128xf32>
    %373 = tosa.reshape %372 {new_shape = array<i64: 32, 40, 128>} : (tensor<1x32x40x128xf32>) -> tensor<32x40x128xf32>
    %374 = tosa.matmul %370, %373 : (tensor<32x40x40xf32>, tensor<32x40x128xf32>) -> tensor<32x40x128xf32>
    %375 = tosa.reshape %374 {new_shape = array<i64: 1, 32, 40, 128>} : (tensor<32x40x128xf32>) -> tensor<1x32x40x128xf32>
    %376 = "tosa.const"() <{value = dense<[0, 2, 1, 3]> : tensor<4xi32>}> : () -> tensor<4xi32>
    %377 = tosa.transpose %375, %376 : (tensor<1x32x40x128xf32>, tensor<4xi32>) -> tensor<1x40x32x128xf32>
    %378 = tosa.identity %377 : (tensor<1x40x32x128xf32>) -> tensor<1x40x32x128xf32>
    %379 = tosa.reshape %378 {new_shape = array<i64: 1, 40, 4096>} : (tensor<1x40x32x128xf32>) -> tensor<1x40x4096xf32>
    %380 = "tosa.const"() <{value = dense<[1, 0]> : tensor<2xi32>}> : () -> tensor<2xi32>
    %381 = tosa.transpose %arg30, %380 : (tensor<4096x4096xf32>, tensor<2xi32>) -> tensor<4096x4096xf32>
    %382 = tosa.reshape %379 {new_shape = array<i64: 40, 4096>} : (tensor<1x40x4096xf32>) -> tensor<40x4096xf32>
    %cst_68 = arith.constant dense<0.000000e+00> : tensor<40x4096xf32>
    %383 = linalg.matmul {cast = #linalg.type_fn<cast_signed>} ins(%382, %381 : tensor<40x4096xf32>, tensor<4096x4096xf32>) outs(%cst_68 : tensor<40x4096xf32>) -> tensor<40x4096xf32>
    %384 = tosa.reshape %383 {new_shape = array<i64: 1, 40, 4096>} : (tensor<40x4096xf32>) -> tensor<1x40x4096xf32>
    %385 = tosa.add %287, %384 : (tensor<1x40x4096xf32>, tensor<1x40x4096xf32>) -> tensor<1x40x4096xf32>
    %386 = tensor.empty() : tensor<1x40x4096xf32>
    %c2_i32_69 = arith.constant 2 : i32
    %387 = linalg.generic {indexing_maps = [#map5, #map5], iterator_types = ["parallel", "parallel", "parallel"]} ins(%385 : tensor<1x40x4096xf32>) outs(%386 : tensor<1x40x4096xf32>) {
    ^bb0(%in: f32, %out: f32):
      %4175 = math.fpowi %in, %c2_i32_69 : f32, i32
      linalg.yield %4175 : f32
    } -> tensor<1x40x4096xf32>
    %388 = tosa.reduce_sum %387 {axis = 2 : i32} : (tensor<1x40x4096xf32>) -> tensor<1x40x1xf32>
    %389 = "tosa.const"() <{value = dense<4.096000e+03> : tensor<1xf32>}> : () -> tensor<1xf32>
    %390 = tosa.reciprocal %389 : (tensor<1xf32>) -> tensor<1xf32>
    %391 = tosa.mul %390, %388 {shift = 0 : i8} : (tensor<1xf32>, tensor<1x40x1xf32>) -> tensor<1x40x1xf32>
    %392 = "tosa.const"() <{value = dense<9.99999974E-6> : tensor<1x40x1xf32>}> : () -> tensor<1x40x1xf32>
    %393 = tosa.add %391, %392 : (tensor<1x40x1xf32>, tensor<1x40x1xf32>) -> tensor<1x40x1xf32>
    %394 = tosa.rsqrt %393 : (tensor<1x40x1xf32>) -> tensor<1x40x1xf32>
    %395 = tosa.mul %385, %394 {shift = 0 : i8} : (tensor<1x40x4096xf32>, tensor<1x40x1xf32>) -> tensor<1x40x4096xf32>
    %396 = tosa.reshape %arg31 {new_shape = array<i64: 1, 1, 4096>} : (tensor<4096xf32>) -> tensor<1x1x4096xf32>
    %397 = tosa.mul %396, %395 {shift = 0 : i8} : (tensor<1x1x4096xf32>, tensor<1x40x4096xf32>) -> tensor<1x40x4096xf32>
    %398 = "tosa.const"() <{value = dense<[1, 0]> : tensor<2xi32>}> : () -> tensor<2xi32>
    %399 = tosa.transpose %arg32, %398 : (tensor<11008x4096xf32>, tensor<2xi32>) -> tensor<4096x11008xf32>
    %400 = tosa.reshape %397 {new_shape = array<i64: 40, 4096>} : (tensor<1x40x4096xf32>) -> tensor<40x4096xf32>
    %cst_70 = arith.constant dense<0.000000e+00> : tensor<40x11008xf32>
    %401 = linalg.matmul {cast = #linalg.type_fn<cast_signed>} ins(%400, %399 : tensor<40x4096xf32>, tensor<4096x11008xf32>) outs(%cst_70 : tensor<40x11008xf32>) -> tensor<40x11008xf32>
    %402 = tosa.reshape %401 {new_shape = array<i64: 1, 40, 11008>} : (tensor<40x11008xf32>) -> tensor<1x40x11008xf32>
    %403 = tosa.sigmoid %402 : (tensor<1x40x11008xf32>) -> tensor<1x40x11008xf32>
    %404 = tosa.mul %402, %403 {shift = 0 : i8} : (tensor<1x40x11008xf32>, tensor<1x40x11008xf32>) -> tensor<1x40x11008xf32>
    %405 = "tosa.const"() <{value = dense<[1, 0]> : tensor<2xi32>}> : () -> tensor<2xi32>
    %406 = tosa.transpose %arg33, %405 : (tensor<11008x4096xf32>, tensor<2xi32>) -> tensor<4096x11008xf32>
    %407 = tosa.reshape %397 {new_shape = array<i64: 40, 4096>} : (tensor<1x40x4096xf32>) -> tensor<40x4096xf32>
    %cst_71 = arith.constant dense<0.000000e+00> : tensor<40x11008xf32>
    %408 = linalg.matmul {cast = #linalg.type_fn<cast_signed>} ins(%407, %406 : tensor<40x4096xf32>, tensor<4096x11008xf32>) outs(%cst_71 : tensor<40x11008xf32>) -> tensor<40x11008xf32>
    %409 = tosa.reshape %408 {new_shape = array<i64: 1, 40, 11008>} : (tensor<40x11008xf32>) -> tensor<1x40x11008xf32>
    %410 = tosa.mul %404, %409 {shift = 0 : i8} : (tensor<1x40x11008xf32>, tensor<1x40x11008xf32>) -> tensor<1x40x11008xf32>
    %411 = "tosa.const"() <{value = dense<[1, 0]> : tensor<2xi32>}> : () -> tensor<2xi32>
    %412 = tosa.transpose %arg34, %411 : (tensor<4096x11008xf32>, tensor<2xi32>) -> tensor<11008x4096xf32>
    %413 = tosa.reshape %410 {new_shape = array<i64: 40, 11008>} : (tensor<1x40x11008xf32>) -> tensor<40x11008xf32>
    %cst_72 = arith.constant dense<0.000000e+00> : tensor<40x4096xf32>
    %414 = linalg.matmul {cast = #linalg.type_fn<cast_signed>} ins(%413, %412 : tensor<40x11008xf32>, tensor<11008x4096xf32>) outs(%cst_72 : tensor<40x4096xf32>) -> tensor<40x4096xf32>
    %415 = tosa.reshape %414 {new_shape = array<i64: 1, 40, 4096>} : (tensor<40x4096xf32>) -> tensor<1x40x4096xf32>
    %416 = tosa.add %385, %415 : (tensor<1x40x4096xf32>, tensor<1x40x4096xf32>) -> tensor<1x40x4096xf32>
    %417 = tensor.empty() : tensor<1x40x4096xf32>
    %c2_i32_73 = arith.constant 2 : i32
    %418 = linalg.generic {indexing_maps = [#map5, #map5], iterator_types = ["parallel", "parallel", "parallel"]} ins(%416 : tensor<1x40x4096xf32>) outs(%417 : tensor<1x40x4096xf32>) {
    ^bb0(%in: f32, %out: f32):
      %4175 = math.fpowi %in, %c2_i32_73 : f32, i32
      linalg.yield %4175 : f32
    } -> tensor<1x40x4096xf32>
    %419 = tosa.reduce_sum %418 {axis = 2 : i32} : (tensor<1x40x4096xf32>) -> tensor<1x40x1xf32>
    %420 = "tosa.const"() <{value = dense<4.096000e+03> : tensor<1xf32>}> : () -> tensor<1xf32>
    %421 = tosa.reciprocal %420 : (tensor<1xf32>) -> tensor<1xf32>
    %422 = tosa.mul %421, %419 {shift = 0 : i8} : (tensor<1xf32>, tensor<1x40x1xf32>) -> tensor<1x40x1xf32>
    %423 = "tosa.const"() <{value = dense<9.99999974E-6> : tensor<1x40x1xf32>}> : () -> tensor<1x40x1xf32>
    %424 = tosa.add %422, %423 : (tensor<1x40x1xf32>, tensor<1x40x1xf32>) -> tensor<1x40x1xf32>
    %425 = tosa.rsqrt %424 : (tensor<1x40x1xf32>) -> tensor<1x40x1xf32>
    %426 = tosa.mul %416, %425 {shift = 0 : i8} : (tensor<1x40x4096xf32>, tensor<1x40x1xf32>) -> tensor<1x40x4096xf32>
    %427 = tosa.reshape %arg35 {new_shape = array<i64: 1, 1, 4096>} : (tensor<4096xf32>) -> tensor<1x1x4096xf32>
    %428 = tosa.mul %427, %426 {shift = 0 : i8} : (tensor<1x1x4096xf32>, tensor<1x40x4096xf32>) -> tensor<1x40x4096xf32>
    %429 = "tosa.const"() <{value = dense<[1, 0]> : tensor<2xi32>}> : () -> tensor<2xi32>
    %430 = tosa.transpose %arg36, %429 : (tensor<4096x4096xf32>, tensor<2xi32>) -> tensor<4096x4096xf32>
    %431 = tosa.reshape %428 {new_shape = array<i64: 40, 4096>} : (tensor<1x40x4096xf32>) -> tensor<40x4096xf32>
    %cst_74 = arith.constant dense<0.000000e+00> : tensor<40x4096xf32>
    %432 = linalg.matmul {cast = #linalg.type_fn<cast_signed>} ins(%431, %430 : tensor<40x4096xf32>, tensor<4096x4096xf32>) outs(%cst_74 : tensor<40x4096xf32>) -> tensor<40x4096xf32>
    %433 = tosa.reshape %432 {new_shape = array<i64: 1, 40, 4096>} : (tensor<40x4096xf32>) -> tensor<1x40x4096xf32>
    %434 = "tosa.const"() <{value = dense<[1, 0]> : tensor<2xi32>}> : () -> tensor<2xi32>
    %435 = tosa.transpose %arg37, %434 : (tensor<4096x4096xf32>, tensor<2xi32>) -> tensor<4096x4096xf32>
    %436 = tosa.reshape %428 {new_shape = array<i64: 40, 4096>} : (tensor<1x40x4096xf32>) -> tensor<40x4096xf32>
    %cst_75 = arith.constant dense<0.000000e+00> : tensor<40x4096xf32>
    %437 = linalg.matmul {cast = #linalg.type_fn<cast_signed>} ins(%436, %435 : tensor<40x4096xf32>, tensor<4096x4096xf32>) outs(%cst_75 : tensor<40x4096xf32>) -> tensor<40x4096xf32>
    %438 = tosa.reshape %437 {new_shape = array<i64: 1, 40, 4096>} : (tensor<40x4096xf32>) -> tensor<1x40x4096xf32>
    %439 = "tosa.const"() <{value = dense<[1, 0]> : tensor<2xi32>}> : () -> tensor<2xi32>
    %440 = tosa.transpose %arg38, %439 : (tensor<4096x4096xf32>, tensor<2xi32>) -> tensor<4096x4096xf32>
    %441 = tosa.reshape %428 {new_shape = array<i64: 40, 4096>} : (tensor<1x40x4096xf32>) -> tensor<40x4096xf32>
    %cst_76 = arith.constant dense<0.000000e+00> : tensor<40x4096xf32>
    %442 = linalg.matmul {cast = #linalg.type_fn<cast_signed>} ins(%441, %440 : tensor<40x4096xf32>, tensor<4096x4096xf32>) outs(%cst_76 : tensor<40x4096xf32>) -> tensor<40x4096xf32>
    %443 = tosa.reshape %442 {new_shape = array<i64: 1, 40, 4096>} : (tensor<40x4096xf32>) -> tensor<1x40x4096xf32>
    %444 = tosa.reshape %433 {new_shape = array<i64: 1, 40, 32, 128>} : (tensor<1x40x4096xf32>) -> tensor<1x40x32x128xf32>
    %445 = "tosa.const"() <{value = dense<[0, 2, 1, 3]> : tensor<4xi32>}> : () -> tensor<4xi32>
    %446 = tosa.transpose %444, %445 : (tensor<1x40x32x128xf32>, tensor<4xi32>) -> tensor<1x32x40x128xf32>
    %447 = tosa.reshape %438 {new_shape = array<i64: 1, 40, 32, 128>} : (tensor<1x40x4096xf32>) -> tensor<1x40x32x128xf32>
    %448 = "tosa.const"() <{value = dense<[0, 2, 1, 3]> : tensor<4xi32>}> : () -> tensor<4xi32>
    %449 = tosa.transpose %447, %448 : (tensor<1x40x32x128xf32>, tensor<4xi32>) -> tensor<1x32x40x128xf32>
    %450 = tosa.reshape %443 {new_shape = array<i64: 1, 40, 32, 128>} : (tensor<1x40x4096xf32>) -> tensor<1x40x32x128xf32>
    %451 = "tosa.const"() <{value = dense<[0, 2, 1, 3]> : tensor<4xi32>}> : () -> tensor<4xi32>
    %452 = tosa.transpose %450, %451 : (tensor<1x40x32x128xf32>, tensor<4xi32>) -> tensor<1x32x40x128xf32>
    %extracted_slice_77 = tensor.extract_slice %arg39[0, 0, 0, 0] [1, 1, 2048, 128] [1, 1, 1, 1] : tensor<1x1x2048x128xf32> to tensor<1x1x2048x128xf32>
    %extracted_slice_78 = tensor.extract_slice %extracted_slice_77[0, 0, 0, 0] [1, 1, 2048, 128] [1, 1, 1, 1] : tensor<1x1x2048x128xf32> to tensor<1x1x2048x128xf32>
    %extracted_slice_79 = tensor.extract_slice %extracted_slice_78[0, 0, 0, 0] [1, 1, 40, 128] [1, 1, 1, 1] : tensor<1x1x2048x128xf32> to tensor<1x1x40x128xf32>
    %extracted_slice_80 = tensor.extract_slice %arg40[0, 0, 0, 0] [1, 1, 2048, 128] [1, 1, 1, 1] : tensor<1x1x2048x128xf32> to tensor<1x1x2048x128xf32>
    %extracted_slice_81 = tensor.extract_slice %extracted_slice_80[0, 0, 0, 0] [1, 1, 2048, 128] [1, 1, 1, 1] : tensor<1x1x2048x128xf32> to tensor<1x1x2048x128xf32>
    %extracted_slice_82 = tensor.extract_slice %extracted_slice_81[0, 0, 0, 0] [1, 1, 40, 128] [1, 1, 1, 1] : tensor<1x1x2048x128xf32> to tensor<1x1x40x128xf32>
    %453 = tensor.empty() : tensor<1x40x128xf32>
    %454 = linalg.generic {indexing_maps = [#map6, #map5], iterator_types = ["parallel", "parallel", "parallel"]} ins(%extracted_slice_79 : tensor<1x1x40x128xf32>) outs(%453 : tensor<1x40x128xf32>) {
    ^bb0(%in: f32, %out: f32):
      linalg.yield %in : f32
    } -> tensor<1x40x128xf32>
    %455 = tensor.empty() : tensor<40x128xf32>
    %456 = linalg.generic {indexing_maps = [#map7, #map3], iterator_types = ["parallel", "parallel"]} ins(%454 : tensor<1x40x128xf32>) outs(%455 : tensor<40x128xf32>) {
    ^bb0(%in: f32, %out: f32):
      linalg.yield %in : f32
    } -> tensor<40x128xf32>
    %457 = tensor.empty() : tensor<1x40x128xf32>
    %458 = linalg.generic {indexing_maps = [#map6, #map5], iterator_types = ["parallel", "parallel", "parallel"]} ins(%extracted_slice_82 : tensor<1x1x40x128xf32>) outs(%457 : tensor<1x40x128xf32>) {
    ^bb0(%in: f32, %out: f32):
      linalg.yield %in : f32
    } -> tensor<1x40x128xf32>
    %459 = tensor.empty() : tensor<40x128xf32>
    %460 = linalg.generic {indexing_maps = [#map7, #map3], iterator_types = ["parallel", "parallel"]} ins(%458 : tensor<1x40x128xf32>) outs(%459 : tensor<40x128xf32>) {
    ^bb0(%in: f32, %out: f32):
      linalg.yield %in : f32
    } -> tensor<40x128xf32>
    %461 = tensor.empty() : tensor<1x40x128xf32>
    %462 = linalg.generic {indexing_maps = [#map2, #map5], iterator_types = ["parallel", "parallel", "parallel"]} ins(%2 : tensor<1x40xi64>) outs(%461 : tensor<1x40x128xf32>) {
    ^bb0(%in: i64, %out: f32):
      %4175 = arith.index_cast %in : i64 to index
      %4176 = linalg.index 2 : index
      %extracted = tensor.extract %456[%4175, %4176] : tensor<40x128xf32>
      linalg.yield %extracted : f32
    } -> tensor<1x40x128xf32>
    %463 = tosa.reshape %462 {new_shape = array<i64: 1, 1, 40, 128>} : (tensor<1x40x128xf32>) -> tensor<1x1x40x128xf32>
    %464 = tensor.empty() : tensor<1x40x128xf32>
    %465 = linalg.generic {indexing_maps = [#map2, #map5], iterator_types = ["parallel", "parallel", "parallel"]} ins(%2 : tensor<1x40xi64>) outs(%464 : tensor<1x40x128xf32>) {
    ^bb0(%in: i64, %out: f32):
      %4175 = arith.index_cast %in : i64 to index
      %4176 = linalg.index 2 : index
      %extracted = tensor.extract %460[%4175, %4176] : tensor<40x128xf32>
      linalg.yield %extracted : f32
    } -> tensor<1x40x128xf32>
    %466 = tosa.reshape %465 {new_shape = array<i64: 1, 1, 40, 128>} : (tensor<1x40x128xf32>) -> tensor<1x1x40x128xf32>
    %467 = tosa.mul %446, %463 {shift = 0 : i8} : (tensor<1x32x40x128xf32>, tensor<1x1x40x128xf32>) -> tensor<1x32x40x128xf32>
    %extracted_slice_83 = tensor.extract_slice %446[0, 0, 0, 0] [1, 32, 40, 64] [1, 1, 1, 1] : tensor<1x32x40x128xf32> to tensor<1x32x40x64xf32>
    %extracted_slice_84 = tensor.extract_slice %446[0, 0, 0, 64] [1, 32, 40, 64] [1, 1, 1, 1] : tensor<1x32x40x128xf32> to tensor<1x32x40x64xf32>
    %468 = tosa.negate %extracted_slice_84 : (tensor<1x32x40x64xf32>) -> tensor<1x32x40x64xf32>
    %469 = tensor.empty() : tensor<1x32x40x128xf32>
    %inserted_slice_85 = tensor.insert_slice %468 into %469[0, 0, 0, 0] [1, 32, 40, 64] [1, 1, 1, 1] : tensor<1x32x40x64xf32> into tensor<1x32x40x128xf32>
    %inserted_slice_86 = tensor.insert_slice %extracted_slice_83 into %inserted_slice_85[0, 0, 0, 64] [1, 32, 40, 64] [1, 1, 1, 1] : tensor<1x32x40x64xf32> into tensor<1x32x40x128xf32>
    %470 = tosa.mul %inserted_slice_86, %466 {shift = 0 : i8} : (tensor<1x32x40x128xf32>, tensor<1x1x40x128xf32>) -> tensor<1x32x40x128xf32>
    %471 = tosa.add %467, %470 : (tensor<1x32x40x128xf32>, tensor<1x32x40x128xf32>) -> tensor<1x32x40x128xf32>
    %472 = tosa.mul %449, %463 {shift = 0 : i8} : (tensor<1x32x40x128xf32>, tensor<1x1x40x128xf32>) -> tensor<1x32x40x128xf32>
    %extracted_slice_87 = tensor.extract_slice %449[0, 0, 0, 0] [1, 32, 40, 64] [1, 1, 1, 1] : tensor<1x32x40x128xf32> to tensor<1x32x40x64xf32>
    %extracted_slice_88 = tensor.extract_slice %449[0, 0, 0, 64] [1, 32, 40, 64] [1, 1, 1, 1] : tensor<1x32x40x128xf32> to tensor<1x32x40x64xf32>
    %473 = tosa.negate %extracted_slice_88 : (tensor<1x32x40x64xf32>) -> tensor<1x32x40x64xf32>
    %474 = tensor.empty() : tensor<1x32x40x128xf32>
    %inserted_slice_89 = tensor.insert_slice %473 into %474[0, 0, 0, 0] [1, 32, 40, 64] [1, 1, 1, 1] : tensor<1x32x40x64xf32> into tensor<1x32x40x128xf32>
    %inserted_slice_90 = tensor.insert_slice %extracted_slice_87 into %inserted_slice_89[0, 0, 0, 64] [1, 32, 40, 64] [1, 1, 1, 1] : tensor<1x32x40x64xf32> into tensor<1x32x40x128xf32>
    %475 = tosa.mul %inserted_slice_90, %466 {shift = 0 : i8} : (tensor<1x32x40x128xf32>, tensor<1x1x40x128xf32>) -> tensor<1x32x40x128xf32>
    %476 = tosa.add %472, %475 : (tensor<1x32x40x128xf32>, tensor<1x32x40x128xf32>) -> tensor<1x32x40x128xf32>
    %477 = "tosa.const"() <{value = dense<[0, 1, 3, 2]> : tensor<4xi32>}> : () -> tensor<4xi32>
    %478 = tosa.transpose %476, %477 : (tensor<1x32x40x128xf32>, tensor<4xi32>) -> tensor<1x32x128x40xf32>
    %479 = "tosa.const"() <{value = dense<0.000000e+00> : tensor<1x32x40x128xf32>}> : () -> tensor<1x32x40x128xf32>
    %480 = tosa.add %471, %479 : (tensor<1x32x40x128xf32>, tensor<1x32x40x128xf32>) -> tensor<1x32x40x128xf32>
    %481 = tosa.reshape %480 {new_shape = array<i64: 32, 40, 128>} : (tensor<1x32x40x128xf32>) -> tensor<32x40x128xf32>
    %482 = "tosa.const"() <{value = dense<0.000000e+00> : tensor<1x32x128x40xf32>}> : () -> tensor<1x32x128x40xf32>
    %483 = tosa.add %478, %482 : (tensor<1x32x128x40xf32>, tensor<1x32x128x40xf32>) -> tensor<1x32x128x40xf32>
    %484 = tosa.reshape %483 {new_shape = array<i64: 32, 128, 40>} : (tensor<1x32x128x40xf32>) -> tensor<32x128x40xf32>
    %485 = tosa.matmul %481, %484 : (tensor<32x40x128xf32>, tensor<32x128x40xf32>) -> tensor<32x40x40xf32>
    %486 = tosa.reshape %485 {new_shape = array<i64: 1, 32, 40, 40>} : (tensor<32x40x40xf32>) -> tensor<1x32x40x40xf32>
    %487 = "tosa.const"() <{value = dense<11.3137083> : tensor<1x32x40x40xf32>}> : () -> tensor<1x32x40x40xf32>
    %488 = tosa.reciprocal %487 : (tensor<1x32x40x40xf32>) -> tensor<1x32x40x40xf32>
    %489 = tosa.mul %486, %488 {shift = 0 : i8} : (tensor<1x32x40x40xf32>, tensor<1x32x40x40xf32>) -> tensor<1x32x40x40xf32>
    %490 = tosa.add %489, %29 : (tensor<1x32x40x40xf32>, tensor<1x1x40x40xf32>) -> tensor<1x32x40x40xf32>
    %491 = tosa.reduce_max %490 {axis = 3 : i32} : (tensor<1x32x40x40xf32>) -> tensor<1x32x40x1xf32>
    %492 = tosa.sub %490, %491 : (tensor<1x32x40x40xf32>, tensor<1x32x40x1xf32>) -> tensor<1x32x40x40xf32>
    %493 = tosa.exp %492 : (tensor<1x32x40x40xf32>) -> tensor<1x32x40x40xf32>
    %494 = tosa.reduce_sum %493 {axis = 3 : i32} : (tensor<1x32x40x40xf32>) -> tensor<1x32x40x1xf32>
    %495 = tosa.reciprocal %494 : (tensor<1x32x40x1xf32>) -> tensor<1x32x40x1xf32>
    %496 = tosa.mul %493, %495 {shift = 0 : i8} : (tensor<1x32x40x40xf32>, tensor<1x32x40x1xf32>) -> tensor<1x32x40x40xf32>
    %497 = "tosa.const"() <{value = dense<0.000000e+00> : tensor<1x32x40x40xf32>}> : () -> tensor<1x32x40x40xf32>
    %498 = tosa.add %496, %497 : (tensor<1x32x40x40xf32>, tensor<1x32x40x40xf32>) -> tensor<1x32x40x40xf32>
    %499 = tosa.reshape %498 {new_shape = array<i64: 32, 40, 40>} : (tensor<1x32x40x40xf32>) -> tensor<32x40x40xf32>
    %500 = "tosa.const"() <{value = dense<0.000000e+00> : tensor<1x32x40x128xf32>}> : () -> tensor<1x32x40x128xf32>
    %501 = tosa.add %452, %500 : (tensor<1x32x40x128xf32>, tensor<1x32x40x128xf32>) -> tensor<1x32x40x128xf32>
    %502 = tosa.reshape %501 {new_shape = array<i64: 32, 40, 128>} : (tensor<1x32x40x128xf32>) -> tensor<32x40x128xf32>
    %503 = tosa.matmul %499, %502 : (tensor<32x40x40xf32>, tensor<32x40x128xf32>) -> tensor<32x40x128xf32>
    %504 = tosa.reshape %503 {new_shape = array<i64: 1, 32, 40, 128>} : (tensor<32x40x128xf32>) -> tensor<1x32x40x128xf32>
    %505 = "tosa.const"() <{value = dense<[0, 2, 1, 3]> : tensor<4xi32>}> : () -> tensor<4xi32>
    %506 = tosa.transpose %504, %505 : (tensor<1x32x40x128xf32>, tensor<4xi32>) -> tensor<1x40x32x128xf32>
    %507 = tosa.identity %506 : (tensor<1x40x32x128xf32>) -> tensor<1x40x32x128xf32>
    %508 = tosa.reshape %507 {new_shape = array<i64: 1, 40, 4096>} : (tensor<1x40x32x128xf32>) -> tensor<1x40x4096xf32>
    %509 = "tosa.const"() <{value = dense<[1, 0]> : tensor<2xi32>}> : () -> tensor<2xi32>
    %510 = tosa.transpose %arg41, %509 : (tensor<4096x4096xf32>, tensor<2xi32>) -> tensor<4096x4096xf32>
    %511 = tosa.reshape %508 {new_shape = array<i64: 40, 4096>} : (tensor<1x40x4096xf32>) -> tensor<40x4096xf32>
    %cst_91 = arith.constant dense<0.000000e+00> : tensor<40x4096xf32>
    %512 = linalg.matmul {cast = #linalg.type_fn<cast_signed>} ins(%511, %510 : tensor<40x4096xf32>, tensor<4096x4096xf32>) outs(%cst_91 : tensor<40x4096xf32>) -> tensor<40x4096xf32>
    %513 = tosa.reshape %512 {new_shape = array<i64: 1, 40, 4096>} : (tensor<40x4096xf32>) -> tensor<1x40x4096xf32>
    %514 = tosa.add %416, %513 : (tensor<1x40x4096xf32>, tensor<1x40x4096xf32>) -> tensor<1x40x4096xf32>
    %515 = tensor.empty() : tensor<1x40x4096xf32>
    %c2_i32_92 = arith.constant 2 : i32
    %516 = linalg.generic {indexing_maps = [#map5, #map5], iterator_types = ["parallel", "parallel", "parallel"]} ins(%514 : tensor<1x40x4096xf32>) outs(%515 : tensor<1x40x4096xf32>) {
    ^bb0(%in: f32, %out: f32):
      %4175 = math.fpowi %in, %c2_i32_92 : f32, i32
      linalg.yield %4175 : f32
    } -> tensor<1x40x4096xf32>
    %517 = tosa.reduce_sum %516 {axis = 2 : i32} : (tensor<1x40x4096xf32>) -> tensor<1x40x1xf32>
    %518 = "tosa.const"() <{value = dense<4.096000e+03> : tensor<1xf32>}> : () -> tensor<1xf32>
    %519 = tosa.reciprocal %518 : (tensor<1xf32>) -> tensor<1xf32>
    %520 = tosa.mul %519, %517 {shift = 0 : i8} : (tensor<1xf32>, tensor<1x40x1xf32>) -> tensor<1x40x1xf32>
    %521 = "tosa.const"() <{value = dense<9.99999974E-6> : tensor<1x40x1xf32>}> : () -> tensor<1x40x1xf32>
    %522 = tosa.add %520, %521 : (tensor<1x40x1xf32>, tensor<1x40x1xf32>) -> tensor<1x40x1xf32>
    %523 = tosa.rsqrt %522 : (tensor<1x40x1xf32>) -> tensor<1x40x1xf32>
    %524 = tosa.mul %514, %523 {shift = 0 : i8} : (tensor<1x40x4096xf32>, tensor<1x40x1xf32>) -> tensor<1x40x4096xf32>
    %525 = tosa.reshape %arg42 {new_shape = array<i64: 1, 1, 4096>} : (tensor<4096xf32>) -> tensor<1x1x4096xf32>
    %526 = tosa.mul %525, %524 {shift = 0 : i8} : (tensor<1x1x4096xf32>, tensor<1x40x4096xf32>) -> tensor<1x40x4096xf32>
    %527 = "tosa.const"() <{value = dense<[1, 0]> : tensor<2xi32>}> : () -> tensor<2xi32>
    %528 = tosa.transpose %arg43, %527 : (tensor<11008x4096xf32>, tensor<2xi32>) -> tensor<4096x11008xf32>
    %529 = tosa.reshape %526 {new_shape = array<i64: 40, 4096>} : (tensor<1x40x4096xf32>) -> tensor<40x4096xf32>
    %cst_93 = arith.constant dense<0.000000e+00> : tensor<40x11008xf32>
    %530 = linalg.matmul {cast = #linalg.type_fn<cast_signed>} ins(%529, %528 : tensor<40x4096xf32>, tensor<4096x11008xf32>) outs(%cst_93 : tensor<40x11008xf32>) -> tensor<40x11008xf32>
    %531 = tosa.reshape %530 {new_shape = array<i64: 1, 40, 11008>} : (tensor<40x11008xf32>) -> tensor<1x40x11008xf32>
    %532 = tosa.sigmoid %531 : (tensor<1x40x11008xf32>) -> tensor<1x40x11008xf32>
    %533 = tosa.mul %531, %532 {shift = 0 : i8} : (tensor<1x40x11008xf32>, tensor<1x40x11008xf32>) -> tensor<1x40x11008xf32>
    %534 = "tosa.const"() <{value = dense<[1, 0]> : tensor<2xi32>}> : () -> tensor<2xi32>
    %535 = tosa.transpose %arg44, %534 : (tensor<11008x4096xf32>, tensor<2xi32>) -> tensor<4096x11008xf32>
    %536 = tosa.reshape %526 {new_shape = array<i64: 40, 4096>} : (tensor<1x40x4096xf32>) -> tensor<40x4096xf32>
    %cst_94 = arith.constant dense<0.000000e+00> : tensor<40x11008xf32>
    %537 = linalg.matmul {cast = #linalg.type_fn<cast_signed>} ins(%536, %535 : tensor<40x4096xf32>, tensor<4096x11008xf32>) outs(%cst_94 : tensor<40x11008xf32>) -> tensor<40x11008xf32>
    %538 = tosa.reshape %537 {new_shape = array<i64: 1, 40, 11008>} : (tensor<40x11008xf32>) -> tensor<1x40x11008xf32>
    %539 = tosa.mul %533, %538 {shift = 0 : i8} : (tensor<1x40x11008xf32>, tensor<1x40x11008xf32>) -> tensor<1x40x11008xf32>
    %540 = "tosa.const"() <{value = dense<[1, 0]> : tensor<2xi32>}> : () -> tensor<2xi32>
    %541 = tosa.transpose %arg45, %540 : (tensor<4096x11008xf32>, tensor<2xi32>) -> tensor<11008x4096xf32>
    %542 = tosa.reshape %539 {new_shape = array<i64: 40, 11008>} : (tensor<1x40x11008xf32>) -> tensor<40x11008xf32>
    %cst_95 = arith.constant dense<0.000000e+00> : tensor<40x4096xf32>
    %543 = linalg.matmul {cast = #linalg.type_fn<cast_signed>} ins(%542, %541 : tensor<40x11008xf32>, tensor<11008x4096xf32>) outs(%cst_95 : tensor<40x4096xf32>) -> tensor<40x4096xf32>
    %544 = tosa.reshape %543 {new_shape = array<i64: 1, 40, 4096>} : (tensor<40x4096xf32>) -> tensor<1x40x4096xf32>
    %545 = tosa.add %514, %544 : (tensor<1x40x4096xf32>, tensor<1x40x4096xf32>) -> tensor<1x40x4096xf32>
    %546 = tensor.empty() : tensor<1x40x4096xf32>
    %c2_i32_96 = arith.constant 2 : i32
    %547 = linalg.generic {indexing_maps = [#map5, #map5], iterator_types = ["parallel", "parallel", "parallel"]} ins(%545 : tensor<1x40x4096xf32>) outs(%546 : tensor<1x40x4096xf32>) {
    ^bb0(%in: f32, %out: f32):
      %4175 = math.fpowi %in, %c2_i32_96 : f32, i32
      linalg.yield %4175 : f32
    } -> tensor<1x40x4096xf32>
    %548 = tosa.reduce_sum %547 {axis = 2 : i32} : (tensor<1x40x4096xf32>) -> tensor<1x40x1xf32>
    %549 = "tosa.const"() <{value = dense<4.096000e+03> : tensor<1xf32>}> : () -> tensor<1xf32>
    %550 = tosa.reciprocal %549 : (tensor<1xf32>) -> tensor<1xf32>
    %551 = tosa.mul %550, %548 {shift = 0 : i8} : (tensor<1xf32>, tensor<1x40x1xf32>) -> tensor<1x40x1xf32>
    %552 = "tosa.const"() <{value = dense<9.99999974E-6> : tensor<1x40x1xf32>}> : () -> tensor<1x40x1xf32>
    %553 = tosa.add %551, %552 : (tensor<1x40x1xf32>, tensor<1x40x1xf32>) -> tensor<1x40x1xf32>
    %554 = tosa.rsqrt %553 : (tensor<1x40x1xf32>) -> tensor<1x40x1xf32>
    %555 = tosa.mul %545, %554 {shift = 0 : i8} : (tensor<1x40x4096xf32>, tensor<1x40x1xf32>) -> tensor<1x40x4096xf32>
    %556 = tosa.reshape %arg46 {new_shape = array<i64: 1, 1, 4096>} : (tensor<4096xf32>) -> tensor<1x1x4096xf32>
    %557 = tosa.mul %556, %555 {shift = 0 : i8} : (tensor<1x1x4096xf32>, tensor<1x40x4096xf32>) -> tensor<1x40x4096xf32>
    %558 = "tosa.const"() <{value = dense<[1, 0]> : tensor<2xi32>}> : () -> tensor<2xi32>
    %559 = tosa.transpose %arg47, %558 : (tensor<4096x4096xf32>, tensor<2xi32>) -> tensor<4096x4096xf32>
    %560 = tosa.reshape %557 {new_shape = array<i64: 40, 4096>} : (tensor<1x40x4096xf32>) -> tensor<40x4096xf32>
    %cst_97 = arith.constant dense<0.000000e+00> : tensor<40x4096xf32>
    %561 = linalg.matmul {cast = #linalg.type_fn<cast_signed>} ins(%560, %559 : tensor<40x4096xf32>, tensor<4096x4096xf32>) outs(%cst_97 : tensor<40x4096xf32>) -> tensor<40x4096xf32>
    %562 = tosa.reshape %561 {new_shape = array<i64: 1, 40, 4096>} : (tensor<40x4096xf32>) -> tensor<1x40x4096xf32>
    %563 = "tosa.const"() <{value = dense<[1, 0]> : tensor<2xi32>}> : () -> tensor<2xi32>
    %564 = tosa.transpose %arg48, %563 : (tensor<4096x4096xf32>, tensor<2xi32>) -> tensor<4096x4096xf32>
    %565 = tosa.reshape %557 {new_shape = array<i64: 40, 4096>} : (tensor<1x40x4096xf32>) -> tensor<40x4096xf32>
    %cst_98 = arith.constant dense<0.000000e+00> : tensor<40x4096xf32>
    %566 = linalg.matmul {cast = #linalg.type_fn<cast_signed>} ins(%565, %564 : tensor<40x4096xf32>, tensor<4096x4096xf32>) outs(%cst_98 : tensor<40x4096xf32>) -> tensor<40x4096xf32>
    %567 = tosa.reshape %566 {new_shape = array<i64: 1, 40, 4096>} : (tensor<40x4096xf32>) -> tensor<1x40x4096xf32>
    %568 = "tosa.const"() <{value = dense<[1, 0]> : tensor<2xi32>}> : () -> tensor<2xi32>
    %569 = tosa.transpose %arg49, %568 : (tensor<4096x4096xf32>, tensor<2xi32>) -> tensor<4096x4096xf32>
    %570 = tosa.reshape %557 {new_shape = array<i64: 40, 4096>} : (tensor<1x40x4096xf32>) -> tensor<40x4096xf32>
    %cst_99 = arith.constant dense<0.000000e+00> : tensor<40x4096xf32>
    %571 = linalg.matmul {cast = #linalg.type_fn<cast_signed>} ins(%570, %569 : tensor<40x4096xf32>, tensor<4096x4096xf32>) outs(%cst_99 : tensor<40x4096xf32>) -> tensor<40x4096xf32>
    %572 = tosa.reshape %571 {new_shape = array<i64: 1, 40, 4096>} : (tensor<40x4096xf32>) -> tensor<1x40x4096xf32>
    %573 = tosa.reshape %562 {new_shape = array<i64: 1, 40, 32, 128>} : (tensor<1x40x4096xf32>) -> tensor<1x40x32x128xf32>
    %574 = "tosa.const"() <{value = dense<[0, 2, 1, 3]> : tensor<4xi32>}> : () -> tensor<4xi32>
    %575 = tosa.transpose %573, %574 : (tensor<1x40x32x128xf32>, tensor<4xi32>) -> tensor<1x32x40x128xf32>
    %576 = tosa.reshape %567 {new_shape = array<i64: 1, 40, 32, 128>} : (tensor<1x40x4096xf32>) -> tensor<1x40x32x128xf32>
    %577 = "tosa.const"() <{value = dense<[0, 2, 1, 3]> : tensor<4xi32>}> : () -> tensor<4xi32>
    %578 = tosa.transpose %576, %577 : (tensor<1x40x32x128xf32>, tensor<4xi32>) -> tensor<1x32x40x128xf32>
    %579 = tosa.reshape %572 {new_shape = array<i64: 1, 40, 32, 128>} : (tensor<1x40x4096xf32>) -> tensor<1x40x32x128xf32>
    %580 = "tosa.const"() <{value = dense<[0, 2, 1, 3]> : tensor<4xi32>}> : () -> tensor<4xi32>
    %581 = tosa.transpose %579, %580 : (tensor<1x40x32x128xf32>, tensor<4xi32>) -> tensor<1x32x40x128xf32>
    %extracted_slice_100 = tensor.extract_slice %arg50[0, 0, 0, 0] [1, 1, 2048, 128] [1, 1, 1, 1] : tensor<1x1x2048x128xf32> to tensor<1x1x2048x128xf32>
    %extracted_slice_101 = tensor.extract_slice %extracted_slice_100[0, 0, 0, 0] [1, 1, 2048, 128] [1, 1, 1, 1] : tensor<1x1x2048x128xf32> to tensor<1x1x2048x128xf32>
    %extracted_slice_102 = tensor.extract_slice %extracted_slice_101[0, 0, 0, 0] [1, 1, 40, 128] [1, 1, 1, 1] : tensor<1x1x2048x128xf32> to tensor<1x1x40x128xf32>
    %extracted_slice_103 = tensor.extract_slice %arg51[0, 0, 0, 0] [1, 1, 2048, 128] [1, 1, 1, 1] : tensor<1x1x2048x128xf32> to tensor<1x1x2048x128xf32>
    %extracted_slice_104 = tensor.extract_slice %extracted_slice_103[0, 0, 0, 0] [1, 1, 2048, 128] [1, 1, 1, 1] : tensor<1x1x2048x128xf32> to tensor<1x1x2048x128xf32>
    %extracted_slice_105 = tensor.extract_slice %extracted_slice_104[0, 0, 0, 0] [1, 1, 40, 128] [1, 1, 1, 1] : tensor<1x1x2048x128xf32> to tensor<1x1x40x128xf32>
    %582 = tensor.empty() : tensor<1x40x128xf32>
    %583 = linalg.generic {indexing_maps = [#map6, #map5], iterator_types = ["parallel", "parallel", "parallel"]} ins(%extracted_slice_102 : tensor<1x1x40x128xf32>) outs(%582 : tensor<1x40x128xf32>) {
    ^bb0(%in: f32, %out: f32):
      linalg.yield %in : f32
    } -> tensor<1x40x128xf32>
    %584 = tensor.empty() : tensor<40x128xf32>
    %585 = linalg.generic {indexing_maps = [#map7, #map3], iterator_types = ["parallel", "parallel"]} ins(%583 : tensor<1x40x128xf32>) outs(%584 : tensor<40x128xf32>) {
    ^bb0(%in: f32, %out: f32):
      linalg.yield %in : f32
    } -> tensor<40x128xf32>
    %586 = tensor.empty() : tensor<1x40x128xf32>
    %587 = linalg.generic {indexing_maps = [#map6, #map5], iterator_types = ["parallel", "parallel", "parallel"]} ins(%extracted_slice_105 : tensor<1x1x40x128xf32>) outs(%586 : tensor<1x40x128xf32>) {
    ^bb0(%in: f32, %out: f32):
      linalg.yield %in : f32
    } -> tensor<1x40x128xf32>
    %588 = tensor.empty() : tensor<40x128xf32>
    %589 = linalg.generic {indexing_maps = [#map7, #map3], iterator_types = ["parallel", "parallel"]} ins(%587 : tensor<1x40x128xf32>) outs(%588 : tensor<40x128xf32>) {
    ^bb0(%in: f32, %out: f32):
      linalg.yield %in : f32
    } -> tensor<40x128xf32>
    %590 = tensor.empty() : tensor<1x40x128xf32>
    %591 = linalg.generic {indexing_maps = [#map2, #map5], iterator_types = ["parallel", "parallel", "parallel"]} ins(%2 : tensor<1x40xi64>) outs(%590 : tensor<1x40x128xf32>) {
    ^bb0(%in: i64, %out: f32):
      %4175 = arith.index_cast %in : i64 to index
      %4176 = linalg.index 2 : index
      %extracted = tensor.extract %585[%4175, %4176] : tensor<40x128xf32>
      linalg.yield %extracted : f32
    } -> tensor<1x40x128xf32>
    %592 = tosa.reshape %591 {new_shape = array<i64: 1, 1, 40, 128>} : (tensor<1x40x128xf32>) -> tensor<1x1x40x128xf32>
    %593 = tensor.empty() : tensor<1x40x128xf32>
    %594 = linalg.generic {indexing_maps = [#map2, #map5], iterator_types = ["parallel", "parallel", "parallel"]} ins(%2 : tensor<1x40xi64>) outs(%593 : tensor<1x40x128xf32>) {
    ^bb0(%in: i64, %out: f32):
      %4175 = arith.index_cast %in : i64 to index
      %4176 = linalg.index 2 : index
      %extracted = tensor.extract %589[%4175, %4176] : tensor<40x128xf32>
      linalg.yield %extracted : f32
    } -> tensor<1x40x128xf32>
    %595 = tosa.reshape %594 {new_shape = array<i64: 1, 1, 40, 128>} : (tensor<1x40x128xf32>) -> tensor<1x1x40x128xf32>
    %596 = tosa.mul %575, %592 {shift = 0 : i8} : (tensor<1x32x40x128xf32>, tensor<1x1x40x128xf32>) -> tensor<1x32x40x128xf32>
    %extracted_slice_106 = tensor.extract_slice %575[0, 0, 0, 0] [1, 32, 40, 64] [1, 1, 1, 1] : tensor<1x32x40x128xf32> to tensor<1x32x40x64xf32>
    %extracted_slice_107 = tensor.extract_slice %575[0, 0, 0, 64] [1, 32, 40, 64] [1, 1, 1, 1] : tensor<1x32x40x128xf32> to tensor<1x32x40x64xf32>
    %597 = tosa.negate %extracted_slice_107 : (tensor<1x32x40x64xf32>) -> tensor<1x32x40x64xf32>
    %598 = tensor.empty() : tensor<1x32x40x128xf32>
    %inserted_slice_108 = tensor.insert_slice %597 into %598[0, 0, 0, 0] [1, 32, 40, 64] [1, 1, 1, 1] : tensor<1x32x40x64xf32> into tensor<1x32x40x128xf32>
    %inserted_slice_109 = tensor.insert_slice %extracted_slice_106 into %inserted_slice_108[0, 0, 0, 64] [1, 32, 40, 64] [1, 1, 1, 1] : tensor<1x32x40x64xf32> into tensor<1x32x40x128xf32>
    %599 = tosa.mul %inserted_slice_109, %595 {shift = 0 : i8} : (tensor<1x32x40x128xf32>, tensor<1x1x40x128xf32>) -> tensor<1x32x40x128xf32>
    %600 = tosa.add %596, %599 : (tensor<1x32x40x128xf32>, tensor<1x32x40x128xf32>) -> tensor<1x32x40x128xf32>
    %601 = tosa.mul %578, %592 {shift = 0 : i8} : (tensor<1x32x40x128xf32>, tensor<1x1x40x128xf32>) -> tensor<1x32x40x128xf32>
    %extracted_slice_110 = tensor.extract_slice %578[0, 0, 0, 0] [1, 32, 40, 64] [1, 1, 1, 1] : tensor<1x32x40x128xf32> to tensor<1x32x40x64xf32>
    %extracted_slice_111 = tensor.extract_slice %578[0, 0, 0, 64] [1, 32, 40, 64] [1, 1, 1, 1] : tensor<1x32x40x128xf32> to tensor<1x32x40x64xf32>
    %602 = tosa.negate %extracted_slice_111 : (tensor<1x32x40x64xf32>) -> tensor<1x32x40x64xf32>
    %603 = tensor.empty() : tensor<1x32x40x128xf32>
    %inserted_slice_112 = tensor.insert_slice %602 into %603[0, 0, 0, 0] [1, 32, 40, 64] [1, 1, 1, 1] : tensor<1x32x40x64xf32> into tensor<1x32x40x128xf32>
    %inserted_slice_113 = tensor.insert_slice %extracted_slice_110 into %inserted_slice_112[0, 0, 0, 64] [1, 32, 40, 64] [1, 1, 1, 1] : tensor<1x32x40x64xf32> into tensor<1x32x40x128xf32>
    %604 = tosa.mul %inserted_slice_113, %595 {shift = 0 : i8} : (tensor<1x32x40x128xf32>, tensor<1x1x40x128xf32>) -> tensor<1x32x40x128xf32>
    %605 = tosa.add %601, %604 : (tensor<1x32x40x128xf32>, tensor<1x32x40x128xf32>) -> tensor<1x32x40x128xf32>
    %606 = "tosa.const"() <{value = dense<[0, 1, 3, 2]> : tensor<4xi32>}> : () -> tensor<4xi32>
    %607 = tosa.transpose %605, %606 : (tensor<1x32x40x128xf32>, tensor<4xi32>) -> tensor<1x32x128x40xf32>
    %608 = "tosa.const"() <{value = dense<0.000000e+00> : tensor<1x32x40x128xf32>}> : () -> tensor<1x32x40x128xf32>
    %609 = tosa.add %600, %608 : (tensor<1x32x40x128xf32>, tensor<1x32x40x128xf32>) -> tensor<1x32x40x128xf32>
    %610 = tosa.reshape %609 {new_shape = array<i64: 32, 40, 128>} : (tensor<1x32x40x128xf32>) -> tensor<32x40x128xf32>
    %611 = "tosa.const"() <{value = dense<0.000000e+00> : tensor<1x32x128x40xf32>}> : () -> tensor<1x32x128x40xf32>
    %612 = tosa.add %607, %611 : (tensor<1x32x128x40xf32>, tensor<1x32x128x40xf32>) -> tensor<1x32x128x40xf32>
    %613 = tosa.reshape %612 {new_shape = array<i64: 32, 128, 40>} : (tensor<1x32x128x40xf32>) -> tensor<32x128x40xf32>
    %614 = tosa.matmul %610, %613 : (tensor<32x40x128xf32>, tensor<32x128x40xf32>) -> tensor<32x40x40xf32>
    %615 = tosa.reshape %614 {new_shape = array<i64: 1, 32, 40, 40>} : (tensor<32x40x40xf32>) -> tensor<1x32x40x40xf32>
    %616 = "tosa.const"() <{value = dense<11.3137083> : tensor<1x32x40x40xf32>}> : () -> tensor<1x32x40x40xf32>
    %617 = tosa.reciprocal %616 : (tensor<1x32x40x40xf32>) -> tensor<1x32x40x40xf32>
    %618 = tosa.mul %615, %617 {shift = 0 : i8} : (tensor<1x32x40x40xf32>, tensor<1x32x40x40xf32>) -> tensor<1x32x40x40xf32>
    %619 = tosa.add %618, %29 : (tensor<1x32x40x40xf32>, tensor<1x1x40x40xf32>) -> tensor<1x32x40x40xf32>
    %620 = tosa.reduce_max %619 {axis = 3 : i32} : (tensor<1x32x40x40xf32>) -> tensor<1x32x40x1xf32>
    %621 = tosa.sub %619, %620 : (tensor<1x32x40x40xf32>, tensor<1x32x40x1xf32>) -> tensor<1x32x40x40xf32>
    %622 = tosa.exp %621 : (tensor<1x32x40x40xf32>) -> tensor<1x32x40x40xf32>
    %623 = tosa.reduce_sum %622 {axis = 3 : i32} : (tensor<1x32x40x40xf32>) -> tensor<1x32x40x1xf32>
    %624 = tosa.reciprocal %623 : (tensor<1x32x40x1xf32>) -> tensor<1x32x40x1xf32>
    %625 = tosa.mul %622, %624 {shift = 0 : i8} : (tensor<1x32x40x40xf32>, tensor<1x32x40x1xf32>) -> tensor<1x32x40x40xf32>
    %626 = "tosa.const"() <{value = dense<0.000000e+00> : tensor<1x32x40x40xf32>}> : () -> tensor<1x32x40x40xf32>
    %627 = tosa.add %625, %626 : (tensor<1x32x40x40xf32>, tensor<1x32x40x40xf32>) -> tensor<1x32x40x40xf32>
    %628 = tosa.reshape %627 {new_shape = array<i64: 32, 40, 40>} : (tensor<1x32x40x40xf32>) -> tensor<32x40x40xf32>
    %629 = "tosa.const"() <{value = dense<0.000000e+00> : tensor<1x32x40x128xf32>}> : () -> tensor<1x32x40x128xf32>
    %630 = tosa.add %581, %629 : (tensor<1x32x40x128xf32>, tensor<1x32x40x128xf32>) -> tensor<1x32x40x128xf32>
    %631 = tosa.reshape %630 {new_shape = array<i64: 32, 40, 128>} : (tensor<1x32x40x128xf32>) -> tensor<32x40x128xf32>
    %632 = tosa.matmul %628, %631 : (tensor<32x40x40xf32>, tensor<32x40x128xf32>) -> tensor<32x40x128xf32>
    %633 = tosa.reshape %632 {new_shape = array<i64: 1, 32, 40, 128>} : (tensor<32x40x128xf32>) -> tensor<1x32x40x128xf32>
    %634 = "tosa.const"() <{value = dense<[0, 2, 1, 3]> : tensor<4xi32>}> : () -> tensor<4xi32>
    %635 = tosa.transpose %633, %634 : (tensor<1x32x40x128xf32>, tensor<4xi32>) -> tensor<1x40x32x128xf32>
    %636 = tosa.identity %635 : (tensor<1x40x32x128xf32>) -> tensor<1x40x32x128xf32>
    %637 = tosa.reshape %636 {new_shape = array<i64: 1, 40, 4096>} : (tensor<1x40x32x128xf32>) -> tensor<1x40x4096xf32>
    %638 = "tosa.const"() <{value = dense<[1, 0]> : tensor<2xi32>}> : () -> tensor<2xi32>
    %639 = tosa.transpose %arg52, %638 : (tensor<4096x4096xf32>, tensor<2xi32>) -> tensor<4096x4096xf32>
    %640 = tosa.reshape %637 {new_shape = array<i64: 40, 4096>} : (tensor<1x40x4096xf32>) -> tensor<40x4096xf32>
    %cst_114 = arith.constant dense<0.000000e+00> : tensor<40x4096xf32>
    %641 = linalg.matmul {cast = #linalg.type_fn<cast_signed>} ins(%640, %639 : tensor<40x4096xf32>, tensor<4096x4096xf32>) outs(%cst_114 : tensor<40x4096xf32>) -> tensor<40x4096xf32>
    %642 = tosa.reshape %641 {new_shape = array<i64: 1, 40, 4096>} : (tensor<40x4096xf32>) -> tensor<1x40x4096xf32>
    %643 = tosa.add %545, %642 : (tensor<1x40x4096xf32>, tensor<1x40x4096xf32>) -> tensor<1x40x4096xf32>
    %644 = tensor.empty() : tensor<1x40x4096xf32>
    %c2_i32_115 = arith.constant 2 : i32
    %645 = linalg.generic {indexing_maps = [#map5, #map5], iterator_types = ["parallel", "parallel", "parallel"]} ins(%643 : tensor<1x40x4096xf32>) outs(%644 : tensor<1x40x4096xf32>) {
    ^bb0(%in: f32, %out: f32):
      %4175 = math.fpowi %in, %c2_i32_115 : f32, i32
      linalg.yield %4175 : f32
    } -> tensor<1x40x4096xf32>
    %646 = tosa.reduce_sum %645 {axis = 2 : i32} : (tensor<1x40x4096xf32>) -> tensor<1x40x1xf32>
    %647 = "tosa.const"() <{value = dense<4.096000e+03> : tensor<1xf32>}> : () -> tensor<1xf32>
    %648 = tosa.reciprocal %647 : (tensor<1xf32>) -> tensor<1xf32>
    %649 = tosa.mul %648, %646 {shift = 0 : i8} : (tensor<1xf32>, tensor<1x40x1xf32>) -> tensor<1x40x1xf32>
    %650 = "tosa.const"() <{value = dense<9.99999974E-6> : tensor<1x40x1xf32>}> : () -> tensor<1x40x1xf32>
    %651 = tosa.add %649, %650 : (tensor<1x40x1xf32>, tensor<1x40x1xf32>) -> tensor<1x40x1xf32>
    %652 = tosa.rsqrt %651 : (tensor<1x40x1xf32>) -> tensor<1x40x1xf32>
    %653 = tosa.mul %643, %652 {shift = 0 : i8} : (tensor<1x40x4096xf32>, tensor<1x40x1xf32>) -> tensor<1x40x4096xf32>
    %654 = tosa.reshape %arg53 {new_shape = array<i64: 1, 1, 4096>} : (tensor<4096xf32>) -> tensor<1x1x4096xf32>
    %655 = tosa.mul %654, %653 {shift = 0 : i8} : (tensor<1x1x4096xf32>, tensor<1x40x4096xf32>) -> tensor<1x40x4096xf32>
    %656 = "tosa.const"() <{value = dense<[1, 0]> : tensor<2xi32>}> : () -> tensor<2xi32>
    %657 = tosa.transpose %arg54, %656 : (tensor<11008x4096xf32>, tensor<2xi32>) -> tensor<4096x11008xf32>
    %658 = tosa.reshape %655 {new_shape = array<i64: 40, 4096>} : (tensor<1x40x4096xf32>) -> tensor<40x4096xf32>
    %cst_116 = arith.constant dense<0.000000e+00> : tensor<40x11008xf32>
    %659 = linalg.matmul {cast = #linalg.type_fn<cast_signed>} ins(%658, %657 : tensor<40x4096xf32>, tensor<4096x11008xf32>) outs(%cst_116 : tensor<40x11008xf32>) -> tensor<40x11008xf32>
    %660 = tosa.reshape %659 {new_shape = array<i64: 1, 40, 11008>} : (tensor<40x11008xf32>) -> tensor<1x40x11008xf32>
    %661 = tosa.sigmoid %660 : (tensor<1x40x11008xf32>) -> tensor<1x40x11008xf32>
    %662 = tosa.mul %660, %661 {shift = 0 : i8} : (tensor<1x40x11008xf32>, tensor<1x40x11008xf32>) -> tensor<1x40x11008xf32>
    %663 = "tosa.const"() <{value = dense<[1, 0]> : tensor<2xi32>}> : () -> tensor<2xi32>
    %664 = tosa.transpose %arg55, %663 : (tensor<11008x4096xf32>, tensor<2xi32>) -> tensor<4096x11008xf32>
    %665 = tosa.reshape %655 {new_shape = array<i64: 40, 4096>} : (tensor<1x40x4096xf32>) -> tensor<40x4096xf32>
    %cst_117 = arith.constant dense<0.000000e+00> : tensor<40x11008xf32>
    %666 = linalg.matmul {cast = #linalg.type_fn<cast_signed>} ins(%665, %664 : tensor<40x4096xf32>, tensor<4096x11008xf32>) outs(%cst_117 : tensor<40x11008xf32>) -> tensor<40x11008xf32>
    %667 = tosa.reshape %666 {new_shape = array<i64: 1, 40, 11008>} : (tensor<40x11008xf32>) -> tensor<1x40x11008xf32>
    %668 = tosa.mul %662, %667 {shift = 0 : i8} : (tensor<1x40x11008xf32>, tensor<1x40x11008xf32>) -> tensor<1x40x11008xf32>
    %669 = "tosa.const"() <{value = dense<[1, 0]> : tensor<2xi32>}> : () -> tensor<2xi32>
    %670 = tosa.transpose %arg56, %669 : (tensor<4096x11008xf32>, tensor<2xi32>) -> tensor<11008x4096xf32>
    %671 = tosa.reshape %668 {new_shape = array<i64: 40, 11008>} : (tensor<1x40x11008xf32>) -> tensor<40x11008xf32>
    %cst_118 = arith.constant dense<0.000000e+00> : tensor<40x4096xf32>
    %672 = linalg.matmul {cast = #linalg.type_fn<cast_signed>} ins(%671, %670 : tensor<40x11008xf32>, tensor<11008x4096xf32>) outs(%cst_118 : tensor<40x4096xf32>) -> tensor<40x4096xf32>
    %673 = tosa.reshape %672 {new_shape = array<i64: 1, 40, 4096>} : (tensor<40x4096xf32>) -> tensor<1x40x4096xf32>
    %674 = tosa.add %643, %673 : (tensor<1x40x4096xf32>, tensor<1x40x4096xf32>) -> tensor<1x40x4096xf32>
    %675 = tensor.empty() : tensor<1x40x4096xf32>
    %c2_i32_119 = arith.constant 2 : i32
    %676 = linalg.generic {indexing_maps = [#map5, #map5], iterator_types = ["parallel", "parallel", "parallel"]} ins(%674 : tensor<1x40x4096xf32>) outs(%675 : tensor<1x40x4096xf32>) {
    ^bb0(%in: f32, %out: f32):
      %4175 = math.fpowi %in, %c2_i32_119 : f32, i32
      linalg.yield %4175 : f32
    } -> tensor<1x40x4096xf32>
    %677 = tosa.reduce_sum %676 {axis = 2 : i32} : (tensor<1x40x4096xf32>) -> tensor<1x40x1xf32>
    %678 = "tosa.const"() <{value = dense<4.096000e+03> : tensor<1xf32>}> : () -> tensor<1xf32>
    %679 = tosa.reciprocal %678 : (tensor<1xf32>) -> tensor<1xf32>
    %680 = tosa.mul %679, %677 {shift = 0 : i8} : (tensor<1xf32>, tensor<1x40x1xf32>) -> tensor<1x40x1xf32>
    %681 = "tosa.const"() <{value = dense<9.99999974E-6> : tensor<1x40x1xf32>}> : () -> tensor<1x40x1xf32>
    %682 = tosa.add %680, %681 : (tensor<1x40x1xf32>, tensor<1x40x1xf32>) -> tensor<1x40x1xf32>
    %683 = tosa.rsqrt %682 : (tensor<1x40x1xf32>) -> tensor<1x40x1xf32>
    %684 = tosa.mul %674, %683 {shift = 0 : i8} : (tensor<1x40x4096xf32>, tensor<1x40x1xf32>) -> tensor<1x40x4096xf32>
    %685 = tosa.reshape %arg57 {new_shape = array<i64: 1, 1, 4096>} : (tensor<4096xf32>) -> tensor<1x1x4096xf32>
    %686 = tosa.mul %685, %684 {shift = 0 : i8} : (tensor<1x1x4096xf32>, tensor<1x40x4096xf32>) -> tensor<1x40x4096xf32>
    %687 = "tosa.const"() <{value = dense<[1, 0]> : tensor<2xi32>}> : () -> tensor<2xi32>
    %688 = tosa.transpose %arg58, %687 : (tensor<4096x4096xf32>, tensor<2xi32>) -> tensor<4096x4096xf32>
    %689 = tosa.reshape %686 {new_shape = array<i64: 40, 4096>} : (tensor<1x40x4096xf32>) -> tensor<40x4096xf32>
    %cst_120 = arith.constant dense<0.000000e+00> : tensor<40x4096xf32>
    %690 = linalg.matmul {cast = #linalg.type_fn<cast_signed>} ins(%689, %688 : tensor<40x4096xf32>, tensor<4096x4096xf32>) outs(%cst_120 : tensor<40x4096xf32>) -> tensor<40x4096xf32>
    %691 = tosa.reshape %690 {new_shape = array<i64: 1, 40, 4096>} : (tensor<40x4096xf32>) -> tensor<1x40x4096xf32>
    %692 = "tosa.const"() <{value = dense<[1, 0]> : tensor<2xi32>}> : () -> tensor<2xi32>
    %693 = tosa.transpose %arg59, %692 : (tensor<4096x4096xf32>, tensor<2xi32>) -> tensor<4096x4096xf32>
    %694 = tosa.reshape %686 {new_shape = array<i64: 40, 4096>} : (tensor<1x40x4096xf32>) -> tensor<40x4096xf32>
    %cst_121 = arith.constant dense<0.000000e+00> : tensor<40x4096xf32>
    %695 = linalg.matmul {cast = #linalg.type_fn<cast_signed>} ins(%694, %693 : tensor<40x4096xf32>, tensor<4096x4096xf32>) outs(%cst_121 : tensor<40x4096xf32>) -> tensor<40x4096xf32>
    %696 = tosa.reshape %695 {new_shape = array<i64: 1, 40, 4096>} : (tensor<40x4096xf32>) -> tensor<1x40x4096xf32>
    %697 = "tosa.const"() <{value = dense<[1, 0]> : tensor<2xi32>}> : () -> tensor<2xi32>
    %698 = tosa.transpose %arg60, %697 : (tensor<4096x4096xf32>, tensor<2xi32>) -> tensor<4096x4096xf32>
    %699 = tosa.reshape %686 {new_shape = array<i64: 40, 4096>} : (tensor<1x40x4096xf32>) -> tensor<40x4096xf32>
    %cst_122 = arith.constant dense<0.000000e+00> : tensor<40x4096xf32>
    %700 = linalg.matmul {cast = #linalg.type_fn<cast_signed>} ins(%699, %698 : tensor<40x4096xf32>, tensor<4096x4096xf32>) outs(%cst_122 : tensor<40x4096xf32>) -> tensor<40x4096xf32>
    %701 = tosa.reshape %700 {new_shape = array<i64: 1, 40, 4096>} : (tensor<40x4096xf32>) -> tensor<1x40x4096xf32>
    %702 = tosa.reshape %691 {new_shape = array<i64: 1, 40, 32, 128>} : (tensor<1x40x4096xf32>) -> tensor<1x40x32x128xf32>
    %703 = "tosa.const"() <{value = dense<[0, 2, 1, 3]> : tensor<4xi32>}> : () -> tensor<4xi32>
    %704 = tosa.transpose %702, %703 : (tensor<1x40x32x128xf32>, tensor<4xi32>) -> tensor<1x32x40x128xf32>
    %705 = tosa.reshape %696 {new_shape = array<i64: 1, 40, 32, 128>} : (tensor<1x40x4096xf32>) -> tensor<1x40x32x128xf32>
    %706 = "tosa.const"() <{value = dense<[0, 2, 1, 3]> : tensor<4xi32>}> : () -> tensor<4xi32>
    %707 = tosa.transpose %705, %706 : (tensor<1x40x32x128xf32>, tensor<4xi32>) -> tensor<1x32x40x128xf32>
    %708 = tosa.reshape %701 {new_shape = array<i64: 1, 40, 32, 128>} : (tensor<1x40x4096xf32>) -> tensor<1x40x32x128xf32>
    %709 = "tosa.const"() <{value = dense<[0, 2, 1, 3]> : tensor<4xi32>}> : () -> tensor<4xi32>
    %710 = tosa.transpose %708, %709 : (tensor<1x40x32x128xf32>, tensor<4xi32>) -> tensor<1x32x40x128xf32>
    %extracted_slice_123 = tensor.extract_slice %arg61[0, 0, 0, 0] [1, 1, 2048, 128] [1, 1, 1, 1] : tensor<1x1x2048x128xf32> to tensor<1x1x2048x128xf32>
    %extracted_slice_124 = tensor.extract_slice %extracted_slice_123[0, 0, 0, 0] [1, 1, 2048, 128] [1, 1, 1, 1] : tensor<1x1x2048x128xf32> to tensor<1x1x2048x128xf32>
    %extracted_slice_125 = tensor.extract_slice %extracted_slice_124[0, 0, 0, 0] [1, 1, 40, 128] [1, 1, 1, 1] : tensor<1x1x2048x128xf32> to tensor<1x1x40x128xf32>
    %extracted_slice_126 = tensor.extract_slice %arg62[0, 0, 0, 0] [1, 1, 2048, 128] [1, 1, 1, 1] : tensor<1x1x2048x128xf32> to tensor<1x1x2048x128xf32>
    %extracted_slice_127 = tensor.extract_slice %extracted_slice_126[0, 0, 0, 0] [1, 1, 2048, 128] [1, 1, 1, 1] : tensor<1x1x2048x128xf32> to tensor<1x1x2048x128xf32>
    %extracted_slice_128 = tensor.extract_slice %extracted_slice_127[0, 0, 0, 0] [1, 1, 40, 128] [1, 1, 1, 1] : tensor<1x1x2048x128xf32> to tensor<1x1x40x128xf32>
    %711 = tensor.empty() : tensor<1x40x128xf32>
    %712 = linalg.generic {indexing_maps = [#map6, #map5], iterator_types = ["parallel", "parallel", "parallel"]} ins(%extracted_slice_125 : tensor<1x1x40x128xf32>) outs(%711 : tensor<1x40x128xf32>) {
    ^bb0(%in: f32, %out: f32):
      linalg.yield %in : f32
    } -> tensor<1x40x128xf32>
    %713 = tensor.empty() : tensor<40x128xf32>
    %714 = linalg.generic {indexing_maps = [#map7, #map3], iterator_types = ["parallel", "parallel"]} ins(%712 : tensor<1x40x128xf32>) outs(%713 : tensor<40x128xf32>) {
    ^bb0(%in: f32, %out: f32):
      linalg.yield %in : f32
    } -> tensor<40x128xf32>
    %715 = tensor.empty() : tensor<1x40x128xf32>
    %716 = linalg.generic {indexing_maps = [#map6, #map5], iterator_types = ["parallel", "parallel", "parallel"]} ins(%extracted_slice_128 : tensor<1x1x40x128xf32>) outs(%715 : tensor<1x40x128xf32>) {
    ^bb0(%in: f32, %out: f32):
      linalg.yield %in : f32
    } -> tensor<1x40x128xf32>
    %717 = tensor.empty() : tensor<40x128xf32>
    %718 = linalg.generic {indexing_maps = [#map7, #map3], iterator_types = ["parallel", "parallel"]} ins(%716 : tensor<1x40x128xf32>) outs(%717 : tensor<40x128xf32>) {
    ^bb0(%in: f32, %out: f32):
      linalg.yield %in : f32
    } -> tensor<40x128xf32>
    %719 = tensor.empty() : tensor<1x40x128xf32>
    %720 = linalg.generic {indexing_maps = [#map2, #map5], iterator_types = ["parallel", "parallel", "parallel"]} ins(%2 : tensor<1x40xi64>) outs(%719 : tensor<1x40x128xf32>) {
    ^bb0(%in: i64, %out: f32):
      %4175 = arith.index_cast %in : i64 to index
      %4176 = linalg.index 2 : index
      %extracted = tensor.extract %714[%4175, %4176] : tensor<40x128xf32>
      linalg.yield %extracted : f32
    } -> tensor<1x40x128xf32>
    %721 = tosa.reshape %720 {new_shape = array<i64: 1, 1, 40, 128>} : (tensor<1x40x128xf32>) -> tensor<1x1x40x128xf32>
    %722 = tensor.empty() : tensor<1x40x128xf32>
    %723 = linalg.generic {indexing_maps = [#map2, #map5], iterator_types = ["parallel", "parallel", "parallel"]} ins(%2 : tensor<1x40xi64>) outs(%722 : tensor<1x40x128xf32>) {
    ^bb0(%in: i64, %out: f32):
      %4175 = arith.index_cast %in : i64 to index
      %4176 = linalg.index 2 : index
      %extracted = tensor.extract %718[%4175, %4176] : tensor<40x128xf32>
      linalg.yield %extracted : f32
    } -> tensor<1x40x128xf32>
    %724 = tosa.reshape %723 {new_shape = array<i64: 1, 1, 40, 128>} : (tensor<1x40x128xf32>) -> tensor<1x1x40x128xf32>
    %725 = tosa.mul %704, %721 {shift = 0 : i8} : (tensor<1x32x40x128xf32>, tensor<1x1x40x128xf32>) -> tensor<1x32x40x128xf32>
    %extracted_slice_129 = tensor.extract_slice %704[0, 0, 0, 0] [1, 32, 40, 64] [1, 1, 1, 1] : tensor<1x32x40x128xf32> to tensor<1x32x40x64xf32>
    %extracted_slice_130 = tensor.extract_slice %704[0, 0, 0, 64] [1, 32, 40, 64] [1, 1, 1, 1] : tensor<1x32x40x128xf32> to tensor<1x32x40x64xf32>
    %726 = tosa.negate %extracted_slice_130 : (tensor<1x32x40x64xf32>) -> tensor<1x32x40x64xf32>
    %727 = tensor.empty() : tensor<1x32x40x128xf32>
    %inserted_slice_131 = tensor.insert_slice %726 into %727[0, 0, 0, 0] [1, 32, 40, 64] [1, 1, 1, 1] : tensor<1x32x40x64xf32> into tensor<1x32x40x128xf32>
    %inserted_slice_132 = tensor.insert_slice %extracted_slice_129 into %inserted_slice_131[0, 0, 0, 64] [1, 32, 40, 64] [1, 1, 1, 1] : tensor<1x32x40x64xf32> into tensor<1x32x40x128xf32>
    %728 = tosa.mul %inserted_slice_132, %724 {shift = 0 : i8} : (tensor<1x32x40x128xf32>, tensor<1x1x40x128xf32>) -> tensor<1x32x40x128xf32>
    %729 = tosa.add %725, %728 : (tensor<1x32x40x128xf32>, tensor<1x32x40x128xf32>) -> tensor<1x32x40x128xf32>
    %730 = tosa.mul %707, %721 {shift = 0 : i8} : (tensor<1x32x40x128xf32>, tensor<1x1x40x128xf32>) -> tensor<1x32x40x128xf32>
    %extracted_slice_133 = tensor.extract_slice %707[0, 0, 0, 0] [1, 32, 40, 64] [1, 1, 1, 1] : tensor<1x32x40x128xf32> to tensor<1x32x40x64xf32>
    %extracted_slice_134 = tensor.extract_slice %707[0, 0, 0, 64] [1, 32, 40, 64] [1, 1, 1, 1] : tensor<1x32x40x128xf32> to tensor<1x32x40x64xf32>
    %731 = tosa.negate %extracted_slice_134 : (tensor<1x32x40x64xf32>) -> tensor<1x32x40x64xf32>
    %732 = tensor.empty() : tensor<1x32x40x128xf32>
    %inserted_slice_135 = tensor.insert_slice %731 into %732[0, 0, 0, 0] [1, 32, 40, 64] [1, 1, 1, 1] : tensor<1x32x40x64xf32> into tensor<1x32x40x128xf32>
    %inserted_slice_136 = tensor.insert_slice %extracted_slice_133 into %inserted_slice_135[0, 0, 0, 64] [1, 32, 40, 64] [1, 1, 1, 1] : tensor<1x32x40x64xf32> into tensor<1x32x40x128xf32>
    %733 = tosa.mul %inserted_slice_136, %724 {shift = 0 : i8} : (tensor<1x32x40x128xf32>, tensor<1x1x40x128xf32>) -> tensor<1x32x40x128xf32>
    %734 = tosa.add %730, %733 : (tensor<1x32x40x128xf32>, tensor<1x32x40x128xf32>) -> tensor<1x32x40x128xf32>
    %735 = "tosa.const"() <{value = dense<[0, 1, 3, 2]> : tensor<4xi32>}> : () -> tensor<4xi32>
    %736 = tosa.transpose %734, %735 : (tensor<1x32x40x128xf32>, tensor<4xi32>) -> tensor<1x32x128x40xf32>
    %737 = "tosa.const"() <{value = dense<0.000000e+00> : tensor<1x32x40x128xf32>}> : () -> tensor<1x32x40x128xf32>
    %738 = tosa.add %729, %737 : (tensor<1x32x40x128xf32>, tensor<1x32x40x128xf32>) -> tensor<1x32x40x128xf32>
    %739 = tosa.reshape %738 {new_shape = array<i64: 32, 40, 128>} : (tensor<1x32x40x128xf32>) -> tensor<32x40x128xf32>
    %740 = "tosa.const"() <{value = dense<0.000000e+00> : tensor<1x32x128x40xf32>}> : () -> tensor<1x32x128x40xf32>
    %741 = tosa.add %736, %740 : (tensor<1x32x128x40xf32>, tensor<1x32x128x40xf32>) -> tensor<1x32x128x40xf32>
    %742 = tosa.reshape %741 {new_shape = array<i64: 32, 128, 40>} : (tensor<1x32x128x40xf32>) -> tensor<32x128x40xf32>
    %743 = tosa.matmul %739, %742 : (tensor<32x40x128xf32>, tensor<32x128x40xf32>) -> tensor<32x40x40xf32>
    %744 = tosa.reshape %743 {new_shape = array<i64: 1, 32, 40, 40>} : (tensor<32x40x40xf32>) -> tensor<1x32x40x40xf32>
    %745 = "tosa.const"() <{value = dense<11.3137083> : tensor<1x32x40x40xf32>}> : () -> tensor<1x32x40x40xf32>
    %746 = tosa.reciprocal %745 : (tensor<1x32x40x40xf32>) -> tensor<1x32x40x40xf32>
    %747 = tosa.mul %744, %746 {shift = 0 : i8} : (tensor<1x32x40x40xf32>, tensor<1x32x40x40xf32>) -> tensor<1x32x40x40xf32>
    %748 = tosa.add %747, %29 : (tensor<1x32x40x40xf32>, tensor<1x1x40x40xf32>) -> tensor<1x32x40x40xf32>
    %749 = tosa.reduce_max %748 {axis = 3 : i32} : (tensor<1x32x40x40xf32>) -> tensor<1x32x40x1xf32>
    %750 = tosa.sub %748, %749 : (tensor<1x32x40x40xf32>, tensor<1x32x40x1xf32>) -> tensor<1x32x40x40xf32>
    %751 = tosa.exp %750 : (tensor<1x32x40x40xf32>) -> tensor<1x32x40x40xf32>
    %752 = tosa.reduce_sum %751 {axis = 3 : i32} : (tensor<1x32x40x40xf32>) -> tensor<1x32x40x1xf32>
    %753 = tosa.reciprocal %752 : (tensor<1x32x40x1xf32>) -> tensor<1x32x40x1xf32>
    %754 = tosa.mul %751, %753 {shift = 0 : i8} : (tensor<1x32x40x40xf32>, tensor<1x32x40x1xf32>) -> tensor<1x32x40x40xf32>
    %755 = "tosa.const"() <{value = dense<0.000000e+00> : tensor<1x32x40x40xf32>}> : () -> tensor<1x32x40x40xf32>
    %756 = tosa.add %754, %755 : (tensor<1x32x40x40xf32>, tensor<1x32x40x40xf32>) -> tensor<1x32x40x40xf32>
    %757 = tosa.reshape %756 {new_shape = array<i64: 32, 40, 40>} : (tensor<1x32x40x40xf32>) -> tensor<32x40x40xf32>
    %758 = "tosa.const"() <{value = dense<0.000000e+00> : tensor<1x32x40x128xf32>}> : () -> tensor<1x32x40x128xf32>
    %759 = tosa.add %710, %758 : (tensor<1x32x40x128xf32>, tensor<1x32x40x128xf32>) -> tensor<1x32x40x128xf32>
    %760 = tosa.reshape %759 {new_shape = array<i64: 32, 40, 128>} : (tensor<1x32x40x128xf32>) -> tensor<32x40x128xf32>
    %761 = tosa.matmul %757, %760 : (tensor<32x40x40xf32>, tensor<32x40x128xf32>) -> tensor<32x40x128xf32>
    %762 = tosa.reshape %761 {new_shape = array<i64: 1, 32, 40, 128>} : (tensor<32x40x128xf32>) -> tensor<1x32x40x128xf32>
    %763 = "tosa.const"() <{value = dense<[0, 2, 1, 3]> : tensor<4xi32>}> : () -> tensor<4xi32>
    %764 = tosa.transpose %762, %763 : (tensor<1x32x40x128xf32>, tensor<4xi32>) -> tensor<1x40x32x128xf32>
    %765 = tosa.identity %764 : (tensor<1x40x32x128xf32>) -> tensor<1x40x32x128xf32>
    %766 = tosa.reshape %765 {new_shape = array<i64: 1, 40, 4096>} : (tensor<1x40x32x128xf32>) -> tensor<1x40x4096xf32>
    %767 = "tosa.const"() <{value = dense<[1, 0]> : tensor<2xi32>}> : () -> tensor<2xi32>
    %768 = tosa.transpose %arg63, %767 : (tensor<4096x4096xf32>, tensor<2xi32>) -> tensor<4096x4096xf32>
    %769 = tosa.reshape %766 {new_shape = array<i64: 40, 4096>} : (tensor<1x40x4096xf32>) -> tensor<40x4096xf32>
    %cst_137 = arith.constant dense<0.000000e+00> : tensor<40x4096xf32>
    %770 = linalg.matmul {cast = #linalg.type_fn<cast_signed>} ins(%769, %768 : tensor<40x4096xf32>, tensor<4096x4096xf32>) outs(%cst_137 : tensor<40x4096xf32>) -> tensor<40x4096xf32>
    %771 = tosa.reshape %770 {new_shape = array<i64: 1, 40, 4096>} : (tensor<40x4096xf32>) -> tensor<1x40x4096xf32>
    %772 = tosa.add %674, %771 : (tensor<1x40x4096xf32>, tensor<1x40x4096xf32>) -> tensor<1x40x4096xf32>
    %773 = tensor.empty() : tensor<1x40x4096xf32>
    %c2_i32_138 = arith.constant 2 : i32
    %774 = linalg.generic {indexing_maps = [#map5, #map5], iterator_types = ["parallel", "parallel", "parallel"]} ins(%772 : tensor<1x40x4096xf32>) outs(%773 : tensor<1x40x4096xf32>) {
    ^bb0(%in: f32, %out: f32):
      %4175 = math.fpowi %in, %c2_i32_138 : f32, i32
      linalg.yield %4175 : f32
    } -> tensor<1x40x4096xf32>
    %775 = tosa.reduce_sum %774 {axis = 2 : i32} : (tensor<1x40x4096xf32>) -> tensor<1x40x1xf32>
    %776 = "tosa.const"() <{value = dense<4.096000e+03> : tensor<1xf32>}> : () -> tensor<1xf32>
    %777 = tosa.reciprocal %776 : (tensor<1xf32>) -> tensor<1xf32>
    %778 = tosa.mul %777, %775 {shift = 0 : i8} : (tensor<1xf32>, tensor<1x40x1xf32>) -> tensor<1x40x1xf32>
    %779 = "tosa.const"() <{value = dense<9.99999974E-6> : tensor<1x40x1xf32>}> : () -> tensor<1x40x1xf32>
    %780 = tosa.add %778, %779 : (tensor<1x40x1xf32>, tensor<1x40x1xf32>) -> tensor<1x40x1xf32>
    %781 = tosa.rsqrt %780 : (tensor<1x40x1xf32>) -> tensor<1x40x1xf32>
    %782 = tosa.mul %772, %781 {shift = 0 : i8} : (tensor<1x40x4096xf32>, tensor<1x40x1xf32>) -> tensor<1x40x4096xf32>
    %783 = tosa.reshape %arg64 {new_shape = array<i64: 1, 1, 4096>} : (tensor<4096xf32>) -> tensor<1x1x4096xf32>
    %784 = tosa.mul %783, %782 {shift = 0 : i8} : (tensor<1x1x4096xf32>, tensor<1x40x4096xf32>) -> tensor<1x40x4096xf32>
    %785 = "tosa.const"() <{value = dense<[1, 0]> : tensor<2xi32>}> : () -> tensor<2xi32>
    %786 = tosa.transpose %arg65, %785 : (tensor<11008x4096xf32>, tensor<2xi32>) -> tensor<4096x11008xf32>
    %787 = tosa.reshape %784 {new_shape = array<i64: 40, 4096>} : (tensor<1x40x4096xf32>) -> tensor<40x4096xf32>
    %cst_139 = arith.constant dense<0.000000e+00> : tensor<40x11008xf32>
    %788 = linalg.matmul {cast = #linalg.type_fn<cast_signed>} ins(%787, %786 : tensor<40x4096xf32>, tensor<4096x11008xf32>) outs(%cst_139 : tensor<40x11008xf32>) -> tensor<40x11008xf32>
    %789 = tosa.reshape %788 {new_shape = array<i64: 1, 40, 11008>} : (tensor<40x11008xf32>) -> tensor<1x40x11008xf32>
    %790 = tosa.sigmoid %789 : (tensor<1x40x11008xf32>) -> tensor<1x40x11008xf32>
    %791 = tosa.mul %789, %790 {shift = 0 : i8} : (tensor<1x40x11008xf32>, tensor<1x40x11008xf32>) -> tensor<1x40x11008xf32>
    %792 = "tosa.const"() <{value = dense<[1, 0]> : tensor<2xi32>}> : () -> tensor<2xi32>
    %793 = tosa.transpose %arg66, %792 : (tensor<11008x4096xf32>, tensor<2xi32>) -> tensor<4096x11008xf32>
    %794 = tosa.reshape %784 {new_shape = array<i64: 40, 4096>} : (tensor<1x40x4096xf32>) -> tensor<40x4096xf32>
    %cst_140 = arith.constant dense<0.000000e+00> : tensor<40x11008xf32>
    %795 = linalg.matmul {cast = #linalg.type_fn<cast_signed>} ins(%794, %793 : tensor<40x4096xf32>, tensor<4096x11008xf32>) outs(%cst_140 : tensor<40x11008xf32>) -> tensor<40x11008xf32>
    %796 = tosa.reshape %795 {new_shape = array<i64: 1, 40, 11008>} : (tensor<40x11008xf32>) -> tensor<1x40x11008xf32>
    %797 = tosa.mul %791, %796 {shift = 0 : i8} : (tensor<1x40x11008xf32>, tensor<1x40x11008xf32>) -> tensor<1x40x11008xf32>
    %798 = "tosa.const"() <{value = dense<[1, 0]> : tensor<2xi32>}> : () -> tensor<2xi32>
    %799 = tosa.transpose %arg67, %798 : (tensor<4096x11008xf32>, tensor<2xi32>) -> tensor<11008x4096xf32>
    %800 = tosa.reshape %797 {new_shape = array<i64: 40, 11008>} : (tensor<1x40x11008xf32>) -> tensor<40x11008xf32>
    %cst_141 = arith.constant dense<0.000000e+00> : tensor<40x4096xf32>
    %801 = linalg.matmul {cast = #linalg.type_fn<cast_signed>} ins(%800, %799 : tensor<40x11008xf32>, tensor<11008x4096xf32>) outs(%cst_141 : tensor<40x4096xf32>) -> tensor<40x4096xf32>
    %802 = tosa.reshape %801 {new_shape = array<i64: 1, 40, 4096>} : (tensor<40x4096xf32>) -> tensor<1x40x4096xf32>
    %803 = tosa.add %772, %802 : (tensor<1x40x4096xf32>, tensor<1x40x4096xf32>) -> tensor<1x40x4096xf32>
    %804 = tensor.empty() : tensor<1x40x4096xf32>
    %c2_i32_142 = arith.constant 2 : i32
    %805 = linalg.generic {indexing_maps = [#map5, #map5], iterator_types = ["parallel", "parallel", "parallel"]} ins(%803 : tensor<1x40x4096xf32>) outs(%804 : tensor<1x40x4096xf32>) {
    ^bb0(%in: f32, %out: f32):
      %4175 = math.fpowi %in, %c2_i32_142 : f32, i32
      linalg.yield %4175 : f32
    } -> tensor<1x40x4096xf32>
    %806 = tosa.reduce_sum %805 {axis = 2 : i32} : (tensor<1x40x4096xf32>) -> tensor<1x40x1xf32>
    %807 = "tosa.const"() <{value = dense<4.096000e+03> : tensor<1xf32>}> : () -> tensor<1xf32>
    %808 = tosa.reciprocal %807 : (tensor<1xf32>) -> tensor<1xf32>
    %809 = tosa.mul %808, %806 {shift = 0 : i8} : (tensor<1xf32>, tensor<1x40x1xf32>) -> tensor<1x40x1xf32>
    %810 = "tosa.const"() <{value = dense<9.99999974E-6> : tensor<1x40x1xf32>}> : () -> tensor<1x40x1xf32>
    %811 = tosa.add %809, %810 : (tensor<1x40x1xf32>, tensor<1x40x1xf32>) -> tensor<1x40x1xf32>
    %812 = tosa.rsqrt %811 : (tensor<1x40x1xf32>) -> tensor<1x40x1xf32>
    %813 = tosa.mul %803, %812 {shift = 0 : i8} : (tensor<1x40x4096xf32>, tensor<1x40x1xf32>) -> tensor<1x40x4096xf32>
    %814 = tosa.reshape %arg68 {new_shape = array<i64: 1, 1, 4096>} : (tensor<4096xf32>) -> tensor<1x1x4096xf32>
    %815 = tosa.mul %814, %813 {shift = 0 : i8} : (tensor<1x1x4096xf32>, tensor<1x40x4096xf32>) -> tensor<1x40x4096xf32>
    %816 = "tosa.const"() <{value = dense<[1, 0]> : tensor<2xi32>}> : () -> tensor<2xi32>
    %817 = tosa.transpose %arg69, %816 : (tensor<4096x4096xf32>, tensor<2xi32>) -> tensor<4096x4096xf32>
    %818 = tosa.reshape %815 {new_shape = array<i64: 40, 4096>} : (tensor<1x40x4096xf32>) -> tensor<40x4096xf32>
    %cst_143 = arith.constant dense<0.000000e+00> : tensor<40x4096xf32>
    %819 = linalg.matmul {cast = #linalg.type_fn<cast_signed>} ins(%818, %817 : tensor<40x4096xf32>, tensor<4096x4096xf32>) outs(%cst_143 : tensor<40x4096xf32>) -> tensor<40x4096xf32>
    %820 = tosa.reshape %819 {new_shape = array<i64: 1, 40, 4096>} : (tensor<40x4096xf32>) -> tensor<1x40x4096xf32>
    %821 = "tosa.const"() <{value = dense<[1, 0]> : tensor<2xi32>}> : () -> tensor<2xi32>
    %822 = tosa.transpose %arg70, %821 : (tensor<4096x4096xf32>, tensor<2xi32>) -> tensor<4096x4096xf32>
    %823 = tosa.reshape %815 {new_shape = array<i64: 40, 4096>} : (tensor<1x40x4096xf32>) -> tensor<40x4096xf32>
    %cst_144 = arith.constant dense<0.000000e+00> : tensor<40x4096xf32>
    %824 = linalg.matmul {cast = #linalg.type_fn<cast_signed>} ins(%823, %822 : tensor<40x4096xf32>, tensor<4096x4096xf32>) outs(%cst_144 : tensor<40x4096xf32>) -> tensor<40x4096xf32>
    %825 = tosa.reshape %824 {new_shape = array<i64: 1, 40, 4096>} : (tensor<40x4096xf32>) -> tensor<1x40x4096xf32>
    %826 = "tosa.const"() <{value = dense<[1, 0]> : tensor<2xi32>}> : () -> tensor<2xi32>
    %827 = tosa.transpose %arg71, %826 : (tensor<4096x4096xf32>, tensor<2xi32>) -> tensor<4096x4096xf32>
    %828 = tosa.reshape %815 {new_shape = array<i64: 40, 4096>} : (tensor<1x40x4096xf32>) -> tensor<40x4096xf32>
    %cst_145 = arith.constant dense<0.000000e+00> : tensor<40x4096xf32>
    %829 = linalg.matmul {cast = #linalg.type_fn<cast_signed>} ins(%828, %827 : tensor<40x4096xf32>, tensor<4096x4096xf32>) outs(%cst_145 : tensor<40x4096xf32>) -> tensor<40x4096xf32>
    %830 = tosa.reshape %829 {new_shape = array<i64: 1, 40, 4096>} : (tensor<40x4096xf32>) -> tensor<1x40x4096xf32>
    %831 = tosa.reshape %820 {new_shape = array<i64: 1, 40, 32, 128>} : (tensor<1x40x4096xf32>) -> tensor<1x40x32x128xf32>
    %832 = "tosa.const"() <{value = dense<[0, 2, 1, 3]> : tensor<4xi32>}> : () -> tensor<4xi32>
    %833 = tosa.transpose %831, %832 : (tensor<1x40x32x128xf32>, tensor<4xi32>) -> tensor<1x32x40x128xf32>
    %834 = tosa.reshape %825 {new_shape = array<i64: 1, 40, 32, 128>} : (tensor<1x40x4096xf32>) -> tensor<1x40x32x128xf32>
    %835 = "tosa.const"() <{value = dense<[0, 2, 1, 3]> : tensor<4xi32>}> : () -> tensor<4xi32>
    %836 = tosa.transpose %834, %835 : (tensor<1x40x32x128xf32>, tensor<4xi32>) -> tensor<1x32x40x128xf32>
    %837 = tosa.reshape %830 {new_shape = array<i64: 1, 40, 32, 128>} : (tensor<1x40x4096xf32>) -> tensor<1x40x32x128xf32>
    %838 = "tosa.const"() <{value = dense<[0, 2, 1, 3]> : tensor<4xi32>}> : () -> tensor<4xi32>
    %839 = tosa.transpose %837, %838 : (tensor<1x40x32x128xf32>, tensor<4xi32>) -> tensor<1x32x40x128xf32>
    %extracted_slice_146 = tensor.extract_slice %arg72[0, 0, 0, 0] [1, 1, 2048, 128] [1, 1, 1, 1] : tensor<1x1x2048x128xf32> to tensor<1x1x2048x128xf32>
    %extracted_slice_147 = tensor.extract_slice %extracted_slice_146[0, 0, 0, 0] [1, 1, 2048, 128] [1, 1, 1, 1] : tensor<1x1x2048x128xf32> to tensor<1x1x2048x128xf32>
    %extracted_slice_148 = tensor.extract_slice %extracted_slice_147[0, 0, 0, 0] [1, 1, 40, 128] [1, 1, 1, 1] : tensor<1x1x2048x128xf32> to tensor<1x1x40x128xf32>
    %extracted_slice_149 = tensor.extract_slice %arg73[0, 0, 0, 0] [1, 1, 2048, 128] [1, 1, 1, 1] : tensor<1x1x2048x128xf32> to tensor<1x1x2048x128xf32>
    %extracted_slice_150 = tensor.extract_slice %extracted_slice_149[0, 0, 0, 0] [1, 1, 2048, 128] [1, 1, 1, 1] : tensor<1x1x2048x128xf32> to tensor<1x1x2048x128xf32>
    %extracted_slice_151 = tensor.extract_slice %extracted_slice_150[0, 0, 0, 0] [1, 1, 40, 128] [1, 1, 1, 1] : tensor<1x1x2048x128xf32> to tensor<1x1x40x128xf32>
    %840 = tensor.empty() : tensor<1x40x128xf32>
    %841 = linalg.generic {indexing_maps = [#map6, #map5], iterator_types = ["parallel", "parallel", "parallel"]} ins(%extracted_slice_148 : tensor<1x1x40x128xf32>) outs(%840 : tensor<1x40x128xf32>) {
    ^bb0(%in: f32, %out: f32):
      linalg.yield %in : f32
    } -> tensor<1x40x128xf32>
    %842 = tensor.empty() : tensor<40x128xf32>
    %843 = linalg.generic {indexing_maps = [#map7, #map3], iterator_types = ["parallel", "parallel"]} ins(%841 : tensor<1x40x128xf32>) outs(%842 : tensor<40x128xf32>) {
    ^bb0(%in: f32, %out: f32):
      linalg.yield %in : f32
    } -> tensor<40x128xf32>
    %844 = tensor.empty() : tensor<1x40x128xf32>
    %845 = linalg.generic {indexing_maps = [#map6, #map5], iterator_types = ["parallel", "parallel", "parallel"]} ins(%extracted_slice_151 : tensor<1x1x40x128xf32>) outs(%844 : tensor<1x40x128xf32>) {
    ^bb0(%in: f32, %out: f32):
      linalg.yield %in : f32
    } -> tensor<1x40x128xf32>
    %846 = tensor.empty() : tensor<40x128xf32>
    %847 = linalg.generic {indexing_maps = [#map7, #map3], iterator_types = ["parallel", "parallel"]} ins(%845 : tensor<1x40x128xf32>) outs(%846 : tensor<40x128xf32>) {
    ^bb0(%in: f32, %out: f32):
      linalg.yield %in : f32
    } -> tensor<40x128xf32>
    %848 = tensor.empty() : tensor<1x40x128xf32>
    %849 = linalg.generic {indexing_maps = [#map2, #map5], iterator_types = ["parallel", "parallel", "parallel"]} ins(%2 : tensor<1x40xi64>) outs(%848 : tensor<1x40x128xf32>) {
    ^bb0(%in: i64, %out: f32):
      %4175 = arith.index_cast %in : i64 to index
      %4176 = linalg.index 2 : index
      %extracted = tensor.extract %843[%4175, %4176] : tensor<40x128xf32>
      linalg.yield %extracted : f32
    } -> tensor<1x40x128xf32>
    %850 = tosa.reshape %849 {new_shape = array<i64: 1, 1, 40, 128>} : (tensor<1x40x128xf32>) -> tensor<1x1x40x128xf32>
    %851 = tensor.empty() : tensor<1x40x128xf32>
    %852 = linalg.generic {indexing_maps = [#map2, #map5], iterator_types = ["parallel", "parallel", "parallel"]} ins(%2 : tensor<1x40xi64>) outs(%851 : tensor<1x40x128xf32>) {
    ^bb0(%in: i64, %out: f32):
      %4175 = arith.index_cast %in : i64 to index
      %4176 = linalg.index 2 : index
      %extracted = tensor.extract %847[%4175, %4176] : tensor<40x128xf32>
      linalg.yield %extracted : f32
    } -> tensor<1x40x128xf32>
    %853 = tosa.reshape %852 {new_shape = array<i64: 1, 1, 40, 128>} : (tensor<1x40x128xf32>) -> tensor<1x1x40x128xf32>
    %854 = tosa.mul %833, %850 {shift = 0 : i8} : (tensor<1x32x40x128xf32>, tensor<1x1x40x128xf32>) -> tensor<1x32x40x128xf32>
    %extracted_slice_152 = tensor.extract_slice %833[0, 0, 0, 0] [1, 32, 40, 64] [1, 1, 1, 1] : tensor<1x32x40x128xf32> to tensor<1x32x40x64xf32>
    %extracted_slice_153 = tensor.extract_slice %833[0, 0, 0, 64] [1, 32, 40, 64] [1, 1, 1, 1] : tensor<1x32x40x128xf32> to tensor<1x32x40x64xf32>
    %855 = tosa.negate %extracted_slice_153 : (tensor<1x32x40x64xf32>) -> tensor<1x32x40x64xf32>
    %856 = tensor.empty() : tensor<1x32x40x128xf32>
    %inserted_slice_154 = tensor.insert_slice %855 into %856[0, 0, 0, 0] [1, 32, 40, 64] [1, 1, 1, 1] : tensor<1x32x40x64xf32> into tensor<1x32x40x128xf32>
    %inserted_slice_155 = tensor.insert_slice %extracted_slice_152 into %inserted_slice_154[0, 0, 0, 64] [1, 32, 40, 64] [1, 1, 1, 1] : tensor<1x32x40x64xf32> into tensor<1x32x40x128xf32>
    %857 = tosa.mul %inserted_slice_155, %853 {shift = 0 : i8} : (tensor<1x32x40x128xf32>, tensor<1x1x40x128xf32>) -> tensor<1x32x40x128xf32>
    %858 = tosa.add %854, %857 : (tensor<1x32x40x128xf32>, tensor<1x32x40x128xf32>) -> tensor<1x32x40x128xf32>
    %859 = tosa.mul %836, %850 {shift = 0 : i8} : (tensor<1x32x40x128xf32>, tensor<1x1x40x128xf32>) -> tensor<1x32x40x128xf32>
    %extracted_slice_156 = tensor.extract_slice %836[0, 0, 0, 0] [1, 32, 40, 64] [1, 1, 1, 1] : tensor<1x32x40x128xf32> to tensor<1x32x40x64xf32>
    %extracted_slice_157 = tensor.extract_slice %836[0, 0, 0, 64] [1, 32, 40, 64] [1, 1, 1, 1] : tensor<1x32x40x128xf32> to tensor<1x32x40x64xf32>
    %860 = tosa.negate %extracted_slice_157 : (tensor<1x32x40x64xf32>) -> tensor<1x32x40x64xf32>
    %861 = tensor.empty() : tensor<1x32x40x128xf32>
    %inserted_slice_158 = tensor.insert_slice %860 into %861[0, 0, 0, 0] [1, 32, 40, 64] [1, 1, 1, 1] : tensor<1x32x40x64xf32> into tensor<1x32x40x128xf32>
    %inserted_slice_159 = tensor.insert_slice %extracted_slice_156 into %inserted_slice_158[0, 0, 0, 64] [1, 32, 40, 64] [1, 1, 1, 1] : tensor<1x32x40x64xf32> into tensor<1x32x40x128xf32>
    %862 = tosa.mul %inserted_slice_159, %853 {shift = 0 : i8} : (tensor<1x32x40x128xf32>, tensor<1x1x40x128xf32>) -> tensor<1x32x40x128xf32>
    %863 = tosa.add %859, %862 : (tensor<1x32x40x128xf32>, tensor<1x32x40x128xf32>) -> tensor<1x32x40x128xf32>
    %864 = "tosa.const"() <{value = dense<[0, 1, 3, 2]> : tensor<4xi32>}> : () -> tensor<4xi32>
    %865 = tosa.transpose %863, %864 : (tensor<1x32x40x128xf32>, tensor<4xi32>) -> tensor<1x32x128x40xf32>
    %866 = "tosa.const"() <{value = dense<0.000000e+00> : tensor<1x32x40x128xf32>}> : () -> tensor<1x32x40x128xf32>
    %867 = tosa.add %858, %866 : (tensor<1x32x40x128xf32>, tensor<1x32x40x128xf32>) -> tensor<1x32x40x128xf32>
    %868 = tosa.reshape %867 {new_shape = array<i64: 32, 40, 128>} : (tensor<1x32x40x128xf32>) -> tensor<32x40x128xf32>
    %869 = "tosa.const"() <{value = dense<0.000000e+00> : tensor<1x32x128x40xf32>}> : () -> tensor<1x32x128x40xf32>
    %870 = tosa.add %865, %869 : (tensor<1x32x128x40xf32>, tensor<1x32x128x40xf32>) -> tensor<1x32x128x40xf32>
    %871 = tosa.reshape %870 {new_shape = array<i64: 32, 128, 40>} : (tensor<1x32x128x40xf32>) -> tensor<32x128x40xf32>
    %872 = tosa.matmul %868, %871 : (tensor<32x40x128xf32>, tensor<32x128x40xf32>) -> tensor<32x40x40xf32>
    %873 = tosa.reshape %872 {new_shape = array<i64: 1, 32, 40, 40>} : (tensor<32x40x40xf32>) -> tensor<1x32x40x40xf32>
    %874 = "tosa.const"() <{value = dense<11.3137083> : tensor<1x32x40x40xf32>}> : () -> tensor<1x32x40x40xf32>
    %875 = tosa.reciprocal %874 : (tensor<1x32x40x40xf32>) -> tensor<1x32x40x40xf32>
    %876 = tosa.mul %873, %875 {shift = 0 : i8} : (tensor<1x32x40x40xf32>, tensor<1x32x40x40xf32>) -> tensor<1x32x40x40xf32>
    %877 = tosa.add %876, %29 : (tensor<1x32x40x40xf32>, tensor<1x1x40x40xf32>) -> tensor<1x32x40x40xf32>
    %878 = tosa.reduce_max %877 {axis = 3 : i32} : (tensor<1x32x40x40xf32>) -> tensor<1x32x40x1xf32>
    %879 = tosa.sub %877, %878 : (tensor<1x32x40x40xf32>, tensor<1x32x40x1xf32>) -> tensor<1x32x40x40xf32>
    %880 = tosa.exp %879 : (tensor<1x32x40x40xf32>) -> tensor<1x32x40x40xf32>
    %881 = tosa.reduce_sum %880 {axis = 3 : i32} : (tensor<1x32x40x40xf32>) -> tensor<1x32x40x1xf32>
    %882 = tosa.reciprocal %881 : (tensor<1x32x40x1xf32>) -> tensor<1x32x40x1xf32>
    %883 = tosa.mul %880, %882 {shift = 0 : i8} : (tensor<1x32x40x40xf32>, tensor<1x32x40x1xf32>) -> tensor<1x32x40x40xf32>
    %884 = "tosa.const"() <{value = dense<0.000000e+00> : tensor<1x32x40x40xf32>}> : () -> tensor<1x32x40x40xf32>
    %885 = tosa.add %883, %884 : (tensor<1x32x40x40xf32>, tensor<1x32x40x40xf32>) -> tensor<1x32x40x40xf32>
    %886 = tosa.reshape %885 {new_shape = array<i64: 32, 40, 40>} : (tensor<1x32x40x40xf32>) -> tensor<32x40x40xf32>
    %887 = "tosa.const"() <{value = dense<0.000000e+00> : tensor<1x32x40x128xf32>}> : () -> tensor<1x32x40x128xf32>
    %888 = tosa.add %839, %887 : (tensor<1x32x40x128xf32>, tensor<1x32x40x128xf32>) -> tensor<1x32x40x128xf32>
    %889 = tosa.reshape %888 {new_shape = array<i64: 32, 40, 128>} : (tensor<1x32x40x128xf32>) -> tensor<32x40x128xf32>
    %890 = tosa.matmul %886, %889 : (tensor<32x40x40xf32>, tensor<32x40x128xf32>) -> tensor<32x40x128xf32>
    %891 = tosa.reshape %890 {new_shape = array<i64: 1, 32, 40, 128>} : (tensor<32x40x128xf32>) -> tensor<1x32x40x128xf32>
    %892 = "tosa.const"() <{value = dense<[0, 2, 1, 3]> : tensor<4xi32>}> : () -> tensor<4xi32>
    %893 = tosa.transpose %891, %892 : (tensor<1x32x40x128xf32>, tensor<4xi32>) -> tensor<1x40x32x128xf32>
    %894 = tosa.identity %893 : (tensor<1x40x32x128xf32>) -> tensor<1x40x32x128xf32>
    %895 = tosa.reshape %894 {new_shape = array<i64: 1, 40, 4096>} : (tensor<1x40x32x128xf32>) -> tensor<1x40x4096xf32>
    %896 = "tosa.const"() <{value = dense<[1, 0]> : tensor<2xi32>}> : () -> tensor<2xi32>
    %897 = tosa.transpose %arg74, %896 : (tensor<4096x4096xf32>, tensor<2xi32>) -> tensor<4096x4096xf32>
    %898 = tosa.reshape %895 {new_shape = array<i64: 40, 4096>} : (tensor<1x40x4096xf32>) -> tensor<40x4096xf32>
    %cst_160 = arith.constant dense<0.000000e+00> : tensor<40x4096xf32>
    %899 = linalg.matmul {cast = #linalg.type_fn<cast_signed>} ins(%898, %897 : tensor<40x4096xf32>, tensor<4096x4096xf32>) outs(%cst_160 : tensor<40x4096xf32>) -> tensor<40x4096xf32>
    %900 = tosa.reshape %899 {new_shape = array<i64: 1, 40, 4096>} : (tensor<40x4096xf32>) -> tensor<1x40x4096xf32>
    %901 = tosa.add %803, %900 : (tensor<1x40x4096xf32>, tensor<1x40x4096xf32>) -> tensor<1x40x4096xf32>
    %902 = tensor.empty() : tensor<1x40x4096xf32>
    %c2_i32_161 = arith.constant 2 : i32
    %903 = linalg.generic {indexing_maps = [#map5, #map5], iterator_types = ["parallel", "parallel", "parallel"]} ins(%901 : tensor<1x40x4096xf32>) outs(%902 : tensor<1x40x4096xf32>) {
    ^bb0(%in: f32, %out: f32):
      %4175 = math.fpowi %in, %c2_i32_161 : f32, i32
      linalg.yield %4175 : f32
    } -> tensor<1x40x4096xf32>
    %904 = tosa.reduce_sum %903 {axis = 2 : i32} : (tensor<1x40x4096xf32>) -> tensor<1x40x1xf32>
    %905 = "tosa.const"() <{value = dense<4.096000e+03> : tensor<1xf32>}> : () -> tensor<1xf32>
    %906 = tosa.reciprocal %905 : (tensor<1xf32>) -> tensor<1xf32>
    %907 = tosa.mul %906, %904 {shift = 0 : i8} : (tensor<1xf32>, tensor<1x40x1xf32>) -> tensor<1x40x1xf32>
    %908 = "tosa.const"() <{value = dense<9.99999974E-6> : tensor<1x40x1xf32>}> : () -> tensor<1x40x1xf32>
    %909 = tosa.add %907, %908 : (tensor<1x40x1xf32>, tensor<1x40x1xf32>) -> tensor<1x40x1xf32>
    %910 = tosa.rsqrt %909 : (tensor<1x40x1xf32>) -> tensor<1x40x1xf32>
    %911 = tosa.mul %901, %910 {shift = 0 : i8} : (tensor<1x40x4096xf32>, tensor<1x40x1xf32>) -> tensor<1x40x4096xf32>
    %912 = tosa.reshape %arg75 {new_shape = array<i64: 1, 1, 4096>} : (tensor<4096xf32>) -> tensor<1x1x4096xf32>
    %913 = tosa.mul %912, %911 {shift = 0 : i8} : (tensor<1x1x4096xf32>, tensor<1x40x4096xf32>) -> tensor<1x40x4096xf32>
    %914 = "tosa.const"() <{value = dense<[1, 0]> : tensor<2xi32>}> : () -> tensor<2xi32>
    %915 = tosa.transpose %arg76, %914 : (tensor<11008x4096xf32>, tensor<2xi32>) -> tensor<4096x11008xf32>
    %916 = tosa.reshape %913 {new_shape = array<i64: 40, 4096>} : (tensor<1x40x4096xf32>) -> tensor<40x4096xf32>
    %cst_162 = arith.constant dense<0.000000e+00> : tensor<40x11008xf32>
    %917 = linalg.matmul {cast = #linalg.type_fn<cast_signed>} ins(%916, %915 : tensor<40x4096xf32>, tensor<4096x11008xf32>) outs(%cst_162 : tensor<40x11008xf32>) -> tensor<40x11008xf32>
    %918 = tosa.reshape %917 {new_shape = array<i64: 1, 40, 11008>} : (tensor<40x11008xf32>) -> tensor<1x40x11008xf32>
    %919 = tosa.sigmoid %918 : (tensor<1x40x11008xf32>) -> tensor<1x40x11008xf32>
    %920 = tosa.mul %918, %919 {shift = 0 : i8} : (tensor<1x40x11008xf32>, tensor<1x40x11008xf32>) -> tensor<1x40x11008xf32>
    %921 = "tosa.const"() <{value = dense<[1, 0]> : tensor<2xi32>}> : () -> tensor<2xi32>
    %922 = tosa.transpose %arg77, %921 : (tensor<11008x4096xf32>, tensor<2xi32>) -> tensor<4096x11008xf32>
    %923 = tosa.reshape %913 {new_shape = array<i64: 40, 4096>} : (tensor<1x40x4096xf32>) -> tensor<40x4096xf32>
    %cst_163 = arith.constant dense<0.000000e+00> : tensor<40x11008xf32>
    %924 = linalg.matmul {cast = #linalg.type_fn<cast_signed>} ins(%923, %922 : tensor<40x4096xf32>, tensor<4096x11008xf32>) outs(%cst_163 : tensor<40x11008xf32>) -> tensor<40x11008xf32>
    %925 = tosa.reshape %924 {new_shape = array<i64: 1, 40, 11008>} : (tensor<40x11008xf32>) -> tensor<1x40x11008xf32>
    %926 = tosa.mul %920, %925 {shift = 0 : i8} : (tensor<1x40x11008xf32>, tensor<1x40x11008xf32>) -> tensor<1x40x11008xf32>
    %927 = "tosa.const"() <{value = dense<[1, 0]> : tensor<2xi32>}> : () -> tensor<2xi32>
    %928 = tosa.transpose %arg78, %927 : (tensor<4096x11008xf32>, tensor<2xi32>) -> tensor<11008x4096xf32>
    %929 = tosa.reshape %926 {new_shape = array<i64: 40, 11008>} : (tensor<1x40x11008xf32>) -> tensor<40x11008xf32>
    %cst_164 = arith.constant dense<0.000000e+00> : tensor<40x4096xf32>
    %930 = linalg.matmul {cast = #linalg.type_fn<cast_signed>} ins(%929, %928 : tensor<40x11008xf32>, tensor<11008x4096xf32>) outs(%cst_164 : tensor<40x4096xf32>) -> tensor<40x4096xf32>
    %931 = tosa.reshape %930 {new_shape = array<i64: 1, 40, 4096>} : (tensor<40x4096xf32>) -> tensor<1x40x4096xf32>
    %932 = tosa.add %901, %931 : (tensor<1x40x4096xf32>, tensor<1x40x4096xf32>) -> tensor<1x40x4096xf32>
    %933 = tensor.empty() : tensor<1x40x4096xf32>
    %c2_i32_165 = arith.constant 2 : i32
    %934 = linalg.generic {indexing_maps = [#map5, #map5], iterator_types = ["parallel", "parallel", "parallel"]} ins(%932 : tensor<1x40x4096xf32>) outs(%933 : tensor<1x40x4096xf32>) {
    ^bb0(%in: f32, %out: f32):
      %4175 = math.fpowi %in, %c2_i32_165 : f32, i32
      linalg.yield %4175 : f32
    } -> tensor<1x40x4096xf32>
    %935 = tosa.reduce_sum %934 {axis = 2 : i32} : (tensor<1x40x4096xf32>) -> tensor<1x40x1xf32>
    %936 = "tosa.const"() <{value = dense<4.096000e+03> : tensor<1xf32>}> : () -> tensor<1xf32>
    %937 = tosa.reciprocal %936 : (tensor<1xf32>) -> tensor<1xf32>
    %938 = tosa.mul %937, %935 {shift = 0 : i8} : (tensor<1xf32>, tensor<1x40x1xf32>) -> tensor<1x40x1xf32>
    %939 = "tosa.const"() <{value = dense<9.99999974E-6> : tensor<1x40x1xf32>}> : () -> tensor<1x40x1xf32>
    %940 = tosa.add %938, %939 : (tensor<1x40x1xf32>, tensor<1x40x1xf32>) -> tensor<1x40x1xf32>
    %941 = tosa.rsqrt %940 : (tensor<1x40x1xf32>) -> tensor<1x40x1xf32>
    %942 = tosa.mul %932, %941 {shift = 0 : i8} : (tensor<1x40x4096xf32>, tensor<1x40x1xf32>) -> tensor<1x40x4096xf32>
    %943 = tosa.reshape %arg79 {new_shape = array<i64: 1, 1, 4096>} : (tensor<4096xf32>) -> tensor<1x1x4096xf32>
    %944 = tosa.mul %943, %942 {shift = 0 : i8} : (tensor<1x1x4096xf32>, tensor<1x40x4096xf32>) -> tensor<1x40x4096xf32>
    %945 = "tosa.const"() <{value = dense<[1, 0]> : tensor<2xi32>}> : () -> tensor<2xi32>
    %946 = tosa.transpose %arg80, %945 : (tensor<4096x4096xf32>, tensor<2xi32>) -> tensor<4096x4096xf32>
    %947 = tosa.reshape %944 {new_shape = array<i64: 40, 4096>} : (tensor<1x40x4096xf32>) -> tensor<40x4096xf32>
    %cst_166 = arith.constant dense<0.000000e+00> : tensor<40x4096xf32>
    %948 = linalg.matmul {cast = #linalg.type_fn<cast_signed>} ins(%947, %946 : tensor<40x4096xf32>, tensor<4096x4096xf32>) outs(%cst_166 : tensor<40x4096xf32>) -> tensor<40x4096xf32>
    %949 = tosa.reshape %948 {new_shape = array<i64: 1, 40, 4096>} : (tensor<40x4096xf32>) -> tensor<1x40x4096xf32>
    %950 = "tosa.const"() <{value = dense<[1, 0]> : tensor<2xi32>}> : () -> tensor<2xi32>
    %951 = tosa.transpose %arg81, %950 : (tensor<4096x4096xf32>, tensor<2xi32>) -> tensor<4096x4096xf32>
    %952 = tosa.reshape %944 {new_shape = array<i64: 40, 4096>} : (tensor<1x40x4096xf32>) -> tensor<40x4096xf32>
    %cst_167 = arith.constant dense<0.000000e+00> : tensor<40x4096xf32>
    %953 = linalg.matmul {cast = #linalg.type_fn<cast_signed>} ins(%952, %951 : tensor<40x4096xf32>, tensor<4096x4096xf32>) outs(%cst_167 : tensor<40x4096xf32>) -> tensor<40x4096xf32>
    %954 = tosa.reshape %953 {new_shape = array<i64: 1, 40, 4096>} : (tensor<40x4096xf32>) -> tensor<1x40x4096xf32>
    %955 = "tosa.const"() <{value = dense<[1, 0]> : tensor<2xi32>}> : () -> tensor<2xi32>
    %956 = tosa.transpose %arg82, %955 : (tensor<4096x4096xf32>, tensor<2xi32>) -> tensor<4096x4096xf32>
    %957 = tosa.reshape %944 {new_shape = array<i64: 40, 4096>} : (tensor<1x40x4096xf32>) -> tensor<40x4096xf32>
    %cst_168 = arith.constant dense<0.000000e+00> : tensor<40x4096xf32>
    %958 = linalg.matmul {cast = #linalg.type_fn<cast_signed>} ins(%957, %956 : tensor<40x4096xf32>, tensor<4096x4096xf32>) outs(%cst_168 : tensor<40x4096xf32>) -> tensor<40x4096xf32>
    %959 = tosa.reshape %958 {new_shape = array<i64: 1, 40, 4096>} : (tensor<40x4096xf32>) -> tensor<1x40x4096xf32>
    %960 = tosa.reshape %949 {new_shape = array<i64: 1, 40, 32, 128>} : (tensor<1x40x4096xf32>) -> tensor<1x40x32x128xf32>
    %961 = "tosa.const"() <{value = dense<[0, 2, 1, 3]> : tensor<4xi32>}> : () -> tensor<4xi32>
…
    %extracted_slice_682 = tensor.extract_slice %3800[0, 0, 0, 64] [1, 32, 40, 64] [1, 1, 1, 1] : tensor<1x32x40x128xf32> to tensor<1x32x40x64xf32>
    %3822 = tosa.negate %extracted_slice_682 : (tensor<1x32x40x64xf32>) -> tensor<1x32x40x64xf32>
    %3823 = tensor.empty() : tensor<1x32x40x128xf32>
    %inserted_slice_683 = tensor.insert_slice %3822 into %3823[0, 0, 0, 0] [1, 32, 40, 64] [1, 1, 1, 1] : tensor<1x32x40x64xf32> into tensor<1x32x40x128xf32>
    %inserted_slice_684 = tensor.insert_slice %extracted_slice_681 into %inserted_slice_683[0, 0, 0, 64] [1, 32, 40, 64] [1, 1, 1, 1] : tensor<1x32x40x64xf32> into tensor<1x32x40x128xf32>
    %3824 = tosa.mul %inserted_slice_684, %3820 {shift = 0 : i8} : (tensor<1x32x40x128xf32>, tensor<1x1x40x128xf32>) -> tensor<1x32x40x128xf32>
    %3825 = tosa.add %3821, %3824 : (tensor<1x32x40x128xf32>, tensor<1x32x40x128xf32>) -> tensor<1x32x40x128xf32>
    %3826 = tosa.mul %3803, %3817 {shift = 0 : i8} : (tensor<1x32x40x128xf32>, tensor<1x1x40x128xf32>) -> tensor<1x32x40x128xf32>
    %extracted_slice_685 = tensor.extract_slice %3803[0, 0, 0, 0] [1, 32, 40, 64] [1, 1, 1, 1] : tensor<1x32x40x128xf32> to tensor<1x32x40x64xf32>
    %extracted_slice_686 = tensor.extract_slice %3803[0, 0, 0, 64] [1, 32, 40, 64] [1, 1, 1, 1] : tensor<1x32x40x128xf32> to tensor<1x32x40x64xf32>
    %3827 = tosa.negate %extracted_slice_686 : (tensor<1x32x40x64xf32>) -> tensor<1x32x40x64xf32>
    %3828 = tensor.empty() : tensor<1x32x40x128xf32>
    %inserted_slice_687 = tensor.insert_slice %3827 into %3828[0, 0, 0, 0] [1, 32, 40, 64] [1, 1, 1, 1] : tensor<1x32x40x64xf32> into tensor<1x32x40x128xf32>
    %inserted_slice_688 = tensor.insert_slice %extracted_slice_685 into %inserted_slice_687[0, 0, 0, 64] [1, 32, 40, 64] [1, 1, 1, 1] : tensor<1x32x40x64xf32> into tensor<1x32x40x128xf32>
    %3829 = tosa.mul %inserted_slice_688, %3820 {shift = 0 : i8} : (tensor<1x32x40x128xf32>, tensor<1x1x40x128xf32>) -> tensor<1x32x40x128xf32>
    %3830 = tosa.add %3826, %3829 : (tensor<1x32x40x128xf32>, tensor<1x32x40x128xf32>) -> tensor<1x32x40x128xf32>
    %3831 = "tosa.const"() <{value = dense<[0, 1, 3, 2]> : tensor<4xi32>}> : () -> tensor<4xi32>
    %3832 = tosa.transpose %3830, %3831 : (tensor<1x32x40x128xf32>, tensor<4xi32>) -> tensor<1x32x128x40xf32>
    %3833 = "tosa.const"() <{value = dense<0.000000e+00> : tensor<1x32x40x128xf32>}> : () -> tensor<1x32x40x128xf32>
    %3834 = tosa.add %3825, %3833 : (tensor<1x32x40x128xf32>, tensor<1x32x40x128xf32>) -> tensor<1x32x40x128xf32>
    %3835 = tosa.reshape %3834 {new_shape = array<i64: 32, 40, 128>} : (tensor<1x32x40x128xf32>) -> tensor<32x40x128xf32>
    %3836 = "tosa.const"() <{value = dense<0.000000e+00> : tensor<1x32x128x40xf32>}> : () -> tensor<1x32x128x40xf32>
    %3837 = tosa.add %3832, %3836 : (tensor<1x32x128x40xf32>, tensor<1x32x128x40xf32>) -> tensor<1x32x128x40xf32>
    %3838 = tosa.reshape %3837 {new_shape = array<i64: 32, 128, 40>} : (tensor<1x32x128x40xf32>) -> tensor<32x128x40xf32>
    %3839 = tosa.matmul %3835, %3838 : (tensor<32x40x128xf32>, tensor<32x128x40xf32>) -> tensor<32x40x40xf32>
    %3840 = tosa.reshape %3839 {new_shape = array<i64: 1, 32, 40, 40>} : (tensor<32x40x40xf32>) -> tensor<1x32x40x40xf32>
    %3841 = "tosa.const"() <{value = dense<11.3137083> : tensor<1x32x40x40xf32>}> : () -> tensor<1x32x40x40xf32>
    %3842 = tosa.reciprocal %3841 : (tensor<1x32x40x40xf32>) -> tensor<1x32x40x40xf32>
    %3843 = tosa.mul %3840, %3842 {shift = 0 : i8} : (tensor<1x32x40x40xf32>, tensor<1x32x40x40xf32>) -> tensor<1x32x40x40xf32>
    %3844 = tosa.add %3843, %29 : (tensor<1x32x40x40xf32>, tensor<1x1x40x40xf32>) -> tensor<1x32x40x40xf32>
    %3845 = tosa.reduce_max %3844 {axis = 3 : i32} : (tensor<1x32x40x40xf32>) -> tensor<1x32x40x1xf32>
    %3846 = tosa.sub %3844, %3845 : (tensor<1x32x40x40xf32>, tensor<1x32x40x1xf32>) -> tensor<1x32x40x40xf32>
    %3847 = tosa.exp %3846 : (tensor<1x32x40x40xf32>) -> tensor<1x32x40x40xf32>
    %3848 = tosa.reduce_sum %3847 {axis = 3 : i32} : (tensor<1x32x40x40xf32>) -> tensor<1x32x40x1xf32>
    %3849 = tosa.reciprocal %3848 : (tensor<1x32x40x1xf32>) -> tensor<1x32x40x1xf32>
    %3850 = tosa.mul %3847, %3849 {shift = 0 : i8} : (tensor<1x32x40x40xf32>, tensor<1x32x40x1xf32>) -> tensor<1x32x40x40xf32>
    %3851 = "tosa.const"() <{value = dense<0.000000e+00> : tensor<1x32x40x40xf32>}> : () -> tensor<1x32x40x40xf32>
    %3852 = tosa.add %3850, %3851 : (tensor<1x32x40x40xf32>, tensor<1x32x40x40xf32>) -> tensor<1x32x40x40xf32>
    %3853 = tosa.reshape %3852 {new_shape = array<i64: 32, 40, 40>} : (tensor<1x32x40x40xf32>) -> tensor<32x40x40xf32>
    %3854 = "tosa.const"() <{value = dense<0.000000e+00> : tensor<1x32x40x128xf32>}> : () -> tensor<1x32x40x128xf32>
    %3855 = tosa.add %3806, %3854 : (tensor<1x32x40x128xf32>, tensor<1x32x40x128xf32>) -> tensor<1x32x40x128xf32>
    %3856 = tosa.reshape %3855 {new_shape = array<i64: 32, 40, 128>} : (tensor<1x32x40x128xf32>) -> tensor<32x40x128xf32>
    %3857 = tosa.matmul %3853, %3856 : (tensor<32x40x40xf32>, tensor<32x40x128xf32>) -> tensor<32x40x128xf32>
    %3858 = tosa.reshape %3857 {new_shape = array<i64: 1, 32, 40, 128>} : (tensor<32x40x128xf32>) -> tensor<1x32x40x128xf32>
    %3859 = "tosa.const"() <{value = dense<[0, 2, 1, 3]> : tensor<4xi32>}> : () -> tensor<4xi32>
    %3860 = tosa.transpose %3858, %3859 : (tensor<1x32x40x128xf32>, tensor<4xi32>) -> tensor<1x40x32x128xf32>
    %3861 = tosa.identity %3860 : (tensor<1x40x32x128xf32>) -> tensor<1x40x32x128xf32>
    %3862 = tosa.reshape %3861 {new_shape = array<i64: 1, 40, 4096>} : (tensor<1x40x32x128xf32>) -> tensor<1x40x4096xf32>
    %3863 = "tosa.const"() <{value = dense<[1, 0]> : tensor<2xi32>}> : () -> tensor<2xi32>
    %3864 = tosa.transpose %arg327, %3863 : (tensor<4096x4096xf32>, tensor<2xi32>) -> tensor<4096x4096xf32>
    %3865 = tosa.reshape %3862 {new_shape = array<i64: 40, 4096>} : (tensor<1x40x4096xf32>) -> tensor<40x4096xf32>
    %cst_689 = arith.constant dense<0.000000e+00> : tensor<40x4096xf32>
    %3866 = linalg.matmul {cast = #linalg.type_fn<cast_signed>} ins(%3865, %3864 : tensor<40x4096xf32>, tensor<4096x4096xf32>) outs(%cst_689 : tensor<40x4096xf32>) -> tensor<40x4096xf32>
    %3867 = tosa.reshape %3866 {new_shape = array<i64: 1, 40, 4096>} : (tensor<40x4096xf32>) -> tensor<1x40x4096xf32>
    %3868 = tosa.add %3770, %3867 : (tensor<1x40x4096xf32>, tensor<1x40x4096xf32>) -> tensor<1x40x4096xf32>
    %3869 = tensor.empty() : tensor<1x40x4096xf32>
    %c2_i32_690 = arith.constant 2 : i32
    %3870 = linalg.generic {indexing_maps = [#map5, #map5], iterator_types = ["parallel", "parallel", "parallel"]} ins(%3868 : tensor<1x40x4096xf32>) outs(%3869 : tensor<1x40x4096xf32>) {
    ^bb0(%in: f32, %out: f32):
      %4175 = math.fpowi %in, %c2_i32_690 : f32, i32
      linalg.yield %4175 : f32
    } -> tensor<1x40x4096xf32>
    %3871 = tosa.reduce_sum %3870 {axis = 2 : i32} : (tensor<1x40x4096xf32>) -> tensor<1x40x1xf32>
    %3872 = "tosa.const"() <{value = dense<4.096000e+03> : tensor<1xf32>}> : () -> tensor<1xf32>
    %3873 = tosa.reciprocal %3872 : (tensor<1xf32>) -> tensor<1xf32>
    %3874 = tosa.mul %3873, %3871 {shift = 0 : i8} : (tensor<1xf32>, tensor<1x40x1xf32>) -> tensor<1x40x1xf32>
    %3875 = "tosa.const"() <{value = dense<9.99999974E-6> : tensor<1x40x1xf32>}> : () -> tensor<1x40x1xf32>
    %3876 = tosa.add %3874, %3875 : (tensor<1x40x1xf32>, tensor<1x40x1xf32>) -> tensor<1x40x1xf32>
    %3877 = tosa.rsqrt %3876 : (tensor<1x40x1xf32>) -> tensor<1x40x1xf32>
    %3878 = tosa.mul %3868, %3877 {shift = 0 : i8} : (tensor<1x40x4096xf32>, tensor<1x40x1xf32>) -> tensor<1x40x4096xf32>
    %3879 = tosa.reshape %arg328 {new_shape = array<i64: 1, 1, 4096>} : (tensor<4096xf32>) -> tensor<1x1x4096xf32>
    %3880 = tosa.mul %3879, %3878 {shift = 0 : i8} : (tensor<1x1x4096xf32>, tensor<1x40x4096xf32>) -> tensor<1x40x4096xf32>
    %3881 = "tosa.const"() <{value = dense<[1, 0]> : tensor<2xi32>}> : () -> tensor<2xi32>
    %3882 = tosa.transpose %arg329, %3881 : (tensor<11008x4096xf32>, tensor<2xi32>) -> tensor<4096x11008xf32>
    %3883 = tosa.reshape %3880 {new_shape = array<i64: 40, 4096>} : (tensor<1x40x4096xf32>) -> tensor<40x4096xf32>
    %cst_691 = arith.constant dense<0.000000e+00> : tensor<40x11008xf32>
    %3884 = linalg.matmul {cast = #linalg.type_fn<cast_signed>} ins(%3883, %3882 : tensor<40x4096xf32>, tensor<4096x11008xf32>) outs(%cst_691 : tensor<40x11008xf32>) -> tensor<40x11008xf32>
    %3885 = tosa.reshape %3884 {new_shape = array<i64: 1, 40, 11008>} : (tensor<40x11008xf32>) -> tensor<1x40x11008xf32>
    %3886 = tosa.sigmoid %3885 : (tensor<1x40x11008xf32>) -> tensor<1x40x11008xf32>
    %3887 = tosa.mul %3885, %3886 {shift = 0 : i8} : (tensor<1x40x11008xf32>, tensor<1x40x11008xf32>) -> tensor<1x40x11008xf32>
    %3888 = "tosa.const"() <{value = dense<[1, 0]> : tensor<2xi32>}> : () -> tensor<2xi32>
    %3889 = tosa.transpose %arg330, %3888 : (tensor<11008x4096xf32>, tensor<2xi32>) -> tensor<4096x11008xf32>
    %3890 = tosa.reshape %3880 {new_shape = array<i64: 40, 4096>} : (tensor<1x40x4096xf32>) -> tensor<40x4096xf32>
    %cst_692 = arith.constant dense<0.000000e+00> : tensor<40x11008xf32>
    %3891 = linalg.matmul {cast = #linalg.type_fn<cast_signed>} ins(%3890, %3889 : tensor<40x4096xf32>, tensor<4096x11008xf32>) outs(%cst_692 : tensor<40x11008xf32>) -> tensor<40x11008xf32>
    %3892 = tosa.reshape %3891 {new_shape = array<i64: 1, 40, 11008>} : (tensor<40x11008xf32>) -> tensor<1x40x11008xf32>
    %3893 = tosa.mul %3887, %3892 {shift = 0 : i8} : (tensor<1x40x11008xf32>, tensor<1x40x11008xf32>) -> tensor<1x40x11008xf32>
    %3894 = "tosa.const"() <{value = dense<[1, 0]> : tensor<2xi32>}> : () -> tensor<2xi32>
    %3895 = tosa.transpose %arg331, %3894 : (tensor<4096x11008xf32>, tensor<2xi32>) -> tensor<11008x4096xf32>
    %3896 = tosa.reshape %3893 {new_shape = array<i64: 40, 11008>} : (tensor<1x40x11008xf32>) -> tensor<40x11008xf32>
    %cst_693 = arith.constant dense<0.000000e+00> : tensor<40x4096xf32>
    %3897 = linalg.matmul {cast = #linalg.type_fn<cast_signed>} ins(%3896, %3895 : tensor<40x11008xf32>, tensor<11008x4096xf32>) outs(%cst_693 : tensor<40x4096xf32>) -> tensor<40x4096xf32>
    %3898 = tosa.reshape %3897 {new_shape = array<i64: 1, 40, 4096>} : (tensor<40x4096xf32>) -> tensor<1x40x4096xf32>
    %3899 = tosa.add %3868, %3898 : (tensor<1x40x4096xf32>, tensor<1x40x4096xf32>) -> tensor<1x40x4096xf32>
    %3900 = tensor.empty() : tensor<1x40x4096xf32>
    %c2_i32_694 = arith.constant 2 : i32
    %3901 = linalg.generic {indexing_maps = [#map5, #map5], iterator_types = ["parallel", "parallel", "parallel"]} ins(%3899 : tensor<1x40x4096xf32>) outs(%3900 : tensor<1x40x4096xf32>) {
    ^bb0(%in: f32, %out: f32):
      %4175 = math.fpowi %in, %c2_i32_694 : f32, i32
      linalg.yield %4175 : f32
    } -> tensor<1x40x4096xf32>
    %3902 = tosa.reduce_sum %3901 {axis = 2 : i32} : (tensor<1x40x4096xf32>) -> tensor<1x40x1xf32>
    %3903 = "tosa.const"() <{value = dense<4.096000e+03> : tensor<1xf32>}> : () -> tensor<1xf32>
    %3904 = tosa.reciprocal %3903 : (tensor<1xf32>) -> tensor<1xf32>
    %3905 = tosa.mul %3904, %3902 {shift = 0 : i8} : (tensor<1xf32>, tensor<1x40x1xf32>) -> tensor<1x40x1xf32>
    %3906 = "tosa.const"() <{value = dense<9.99999974E-6> : tensor<1x40x1xf32>}> : () -> tensor<1x40x1xf32>
    %3907 = tosa.add %3905, %3906 : (tensor<1x40x1xf32>, tensor<1x40x1xf32>) -> tensor<1x40x1xf32>
    %3908 = tosa.rsqrt %3907 : (tensor<1x40x1xf32>) -> tensor<1x40x1xf32>
    %3909 = tosa.mul %3899, %3908 {shift = 0 : i8} : (tensor<1x40x4096xf32>, tensor<1x40x1xf32>) -> tensor<1x40x4096xf32>
    %3910 = tosa.reshape %arg332 {new_shape = array<i64: 1, 1, 4096>} : (tensor<4096xf32>) -> tensor<1x1x4096xf32>
    %3911 = tosa.mul %3910, %3909 {shift = 0 : i8} : (tensor<1x1x4096xf32>, tensor<1x40x4096xf32>) -> tensor<1x40x4096xf32>
    %3912 = "tosa.const"() <{value = dense<[1, 0]> : tensor<2xi32>}> : () -> tensor<2xi32>
    %3913 = tosa.transpose %arg333, %3912 : (tensor<4096x4096xf32>, tensor<2xi32>) -> tensor<4096x4096xf32>
    %3914 = tosa.reshape %3911 {new_shape = array<i64: 40, 4096>} : (tensor<1x40x4096xf32>) -> tensor<40x4096xf32>
    %cst_695 = arith.constant dense<0.000000e+00> : tensor<40x4096xf32>
    %3915 = linalg.matmul {cast = #linalg.type_fn<cast_signed>} ins(%3914, %3913 : tensor<40x4096xf32>, tensor<4096x4096xf32>) outs(%cst_695 : tensor<40x4096xf32>) -> tensor<40x4096xf32>
    %3916 = tosa.reshape %3915 {new_shape = array<i64: 1, 40, 4096>} : (tensor<40x4096xf32>) -> tensor<1x40x4096xf32>
    %3917 = "tosa.const"() <{value = dense<[1, 0]> : tensor<2xi32>}> : () -> tensor<2xi32>
    %3918 = tosa.transpose %arg334, %3917 : (tensor<4096x4096xf32>, tensor<2xi32>) -> tensor<4096x4096xf32>
    %3919 = tosa.reshape %3911 {new_shape = array<i64: 40, 4096>} : (tensor<1x40x4096xf32>) -> tensor<40x4096xf32>
    %cst_696 = arith.constant dense<0.000000e+00> : tensor<40x4096xf32>
    %3920 = linalg.matmul {cast = #linalg.type_fn<cast_signed>} ins(%3919, %3918 : tensor<40x4096xf32>, tensor<4096x4096xf32>) outs(%cst_696 : tensor<40x4096xf32>) -> tensor<40x4096xf32>
    %3921 = tosa.reshape %3920 {new_shape = array<i64: 1, 40, 4096>} : (tensor<40x4096xf32>) -> tensor<1x40x4096xf32>
    %3922 = "tosa.const"() <{value = dense<[1, 0]> : tensor<2xi32>}> : () -> tensor<2xi32>
    %3923 = tosa.transpose %arg335, %3922 : (tensor<4096x4096xf32>, tensor<2xi32>) -> tensor<4096x4096xf32>
    %3924 = tosa.reshape %3911 {new_shape = array<i64: 40, 4096>} : (tensor<1x40x4096xf32>) -> tensor<40x4096xf32>
    %cst_697 = arith.constant dense<0.000000e+00> : tensor<40x4096xf32>
    %3925 = linalg.matmul {cast = #linalg.type_fn<cast_signed>} ins(%3924, %3923 : tensor<40x4096xf32>, tensor<4096x4096xf32>) outs(%cst_697 : tensor<40x4096xf32>) -> tensor<40x4096xf32>
    %3926 = tosa.reshape %3925 {new_shape = array<i64: 1, 40, 4096>} : (tensor<40x4096xf32>) -> tensor<1x40x4096xf32>
    %3927 = tosa.reshape %3916 {new_shape = array<i64: 1, 40, 32, 128>} : (tensor<1x40x4096xf32>) -> tensor<1x40x32x128xf32>
    %3928 = "tosa.const"() <{value = dense<[0, 2, 1, 3]> : tensor<4xi32>}> : () -> tensor<4xi32>
    %3929 = tosa.transpose %3927, %3928 : (tensor<1x40x32x128xf32>, tensor<4xi32>) -> tensor<1x32x40x128xf32>
    %3930 = tosa.reshape %3921 {new_shape = array<i64: 1, 40, 32, 128>} : (tensor<1x40x4096xf32>) -> tensor<1x40x32x128xf32>
    %3931 = "tosa.const"() <{value = dense<[0, 2, 1, 3]> : tensor<4xi32>}> : () -> tensor<4xi32>
    %3932 = tosa.transpose %3930, %3931 : (tensor<1x40x32x128xf32>, tensor<4xi32>) -> tensor<1x32x40x128xf32>
    %3933 = tosa.reshape %3926 {new_shape = array<i64: 1, 40, 32, 128>} : (tensor<1x40x4096xf32>) -> tensor<1x40x32x128xf32>
    %3934 = "tosa.const"() <{value = dense<[0, 2, 1, 3]> : tensor<4xi32>}> : () -> tensor<4xi32>
    %3935 = tosa.transpose %3933, %3934 : (tensor<1x40x32x128xf32>, tensor<4xi32>) -> tensor<1x32x40x128xf32>
    %extracted_slice_698 = tensor.extract_slice %arg336[0, 0, 0, 0] [1, 1, 2048, 128] [1, 1, 1, 1] : tensor<1x1x2048x128xf32> to tensor<1x1x2048x128xf32>
    %extracted_slice_699 = tensor.extract_slice %extracted_slice_698[0, 0, 0, 0] [1, 1, 2048, 128] [1, 1, 1, 1] : tensor<1x1x2048x128xf32> to tensor<1x1x2048x128xf32>
    %extracted_slice_700 = tensor.extract_slice %extracted_slice_699[0, 0, 0, 0] [1, 1, 40, 128] [1, 1, 1, 1] : tensor<1x1x2048x128xf32> to tensor<1x1x40x128xf32>
    %extracted_slice_701 = tensor.extract_slice %arg337[0, 0, 0, 0] [1, 1, 2048, 128] [1, 1, 1, 1] : tensor<1x1x2048x128xf32> to tensor<1x1x2048x128xf32>
    %extracted_slice_702 = tensor.extract_slice %extracted_slice_701[0, 0, 0, 0] [1, 1, 2048, 128] [1, 1, 1, 1] : tensor<1x1x2048x128xf32> to tensor<1x1x2048x128xf32>
    %extracted_slice_703 = tensor.extract_slice %extracted_slice_702[0, 0, 0, 0] [1, 1, 40, 128] [1, 1, 1, 1] : tensor<1x1x2048x128xf32> to tensor<1x1x40x128xf32>
    %3936 = tensor.empty() : tensor<1x40x128xf32>
    %3937 = linalg.generic {indexing_maps = [#map6, #map5], iterator_types = ["parallel", "parallel", "parallel"]} ins(%extracted_slice_700 : tensor<1x1x40x128xf32>) outs(%3936 : tensor<1x40x128xf32>) {
    ^bb0(%in: f32, %out: f32):
      linalg.yield %in : f32
    } -> tensor<1x40x128xf32>
    %3938 = tensor.empty() : tensor<40x128xf32>
    %3939 = linalg.generic {indexing_maps = [#map7, #map3], iterator_types = ["parallel", "parallel"]} ins(%3937 : tensor<1x40x128xf32>) outs(%3938 : tensor<40x128xf32>) {
    ^bb0(%in: f32, %out: f32):
      linalg.yield %in : f32
    } -> tensor<40x128xf32>
    %3940 = tensor.empty() : tensor<1x40x128xf32>
    %3941 = linalg.generic {indexing_maps = [#map6, #map5], iterator_types = ["parallel", "parallel", "parallel"]} ins(%extracted_slice_703 : tensor<1x1x40x128xf32>) outs(%3940 : tensor<1x40x128xf32>) {
    ^bb0(%in: f32, %out: f32):
      linalg.yield %in : f32
    } -> tensor<1x40x128xf32>
    %3942 = tensor.empty() : tensor<40x128xf32>
    %3943 = linalg.generic {indexing_maps = [#map7, #map3], iterator_types = ["parallel", "parallel"]} ins(%3941 : tensor<1x40x128xf32>) outs(%3942 : tensor<40x128xf32>) {
    ^bb0(%in: f32, %out: f32):
      linalg.yield %in : f32
    } -> tensor<40x128xf32>
    %3944 = tensor.empty() : tensor<1x40x128xf32>
    %3945 = linalg.generic {indexing_maps = [#map2, #map5], iterator_types = ["parallel", "parallel", "parallel"]} ins(%2 : tensor<1x40xi64>) outs(%3944 : tensor<1x40x128xf32>) {
    ^bb0(%in: i64, %out: f32):
      %4175 = arith.index_cast %in : i64 to index
      %4176 = linalg.index 2 : index
      %extracted = tensor.extract %3939[%4175, %4176] : tensor<40x128xf32>
      linalg.yield %extracted : f32
    } -> tensor<1x40x128xf32>
    %3946 = tosa.reshape %3945 {new_shape = array<i64: 1, 1, 40, 128>} : (tensor<1x40x128xf32>) -> tensor<1x1x40x128xf32>
    %3947 = tensor.empty() : tensor<1x40x128xf32>
    %3948 = linalg.generic {indexing_maps = [#map2, #map5], iterator_types = ["parallel", "parallel", "parallel"]} ins(%2 : tensor<1x40xi64>) outs(%3947 : tensor<1x40x128xf32>) {
    ^bb0(%in: i64, %out: f32):
      %4175 = arith.index_cast %in : i64 to index
      %4176 = linalg.index 2 : index
      %extracted = tensor.extract %3943[%4175, %4176] : tensor<40x128xf32>
      linalg.yield %extracted : f32
    } -> tensor<1x40x128xf32>
    %3949 = tosa.reshape %3948 {new_shape = array<i64: 1, 1, 40, 128>} : (tensor<1x40x128xf32>) -> tensor<1x1x40x128xf32>
    %3950 = tosa.mul %3929, %3946 {shift = 0 : i8} : (tensor<1x32x40x128xf32>, tensor<1x1x40x128xf32>) -> tensor<1x32x40x128xf32>
    %extracted_slice_704 = tensor.extract_slice %3929[0, 0, 0, 0] [1, 32, 40, 64] [1, 1, 1, 1] : tensor<1x32x40x128xf32> to tensor<1x32x40x64xf32>
    %extracted_slice_705 = tensor.extract_slice %3929[0, 0, 0, 64] [1, 32, 40, 64] [1, 1, 1, 1] : tensor<1x32x40x128xf32> to tensor<1x32x40x64xf32>
    %3951 = tosa.negate %extracted_slice_705 : (tensor<1x32x40x64xf32>) -> tensor<1x32x40x64xf32>
    %3952 = tensor.empty() : tensor<1x32x40x128xf32>
    %inserted_slice_706 = tensor.insert_slice %3951 into %3952[0, 0, 0, 0] [1, 32, 40, 64] [1, 1, 1, 1] : tensor<1x32x40x64xf32> into tensor<1x32x40x128xf32>
    %inserted_slice_707 = tensor.insert_slice %extracted_slice_704 into %inserted_slice_706[0, 0, 0, 64] [1, 32, 40, 64] [1, 1, 1, 1] : tensor<1x32x40x64xf32> into tensor<1x32x40x128xf32>
    %3953 = tosa.mul %inserted_slice_707, %3949 {shift = 0 : i8} : (tensor<1x32x40x128xf32>, tensor<1x1x40x128xf32>) -> tensor<1x32x40x128xf32>
    %3954 = tosa.add %3950, %3953 : (tensor<1x32x40x128xf32>, tensor<1x32x40x128xf32>) -> tensor<1x32x40x128xf32>
    %3955 = tosa.mul %3932, %3946 {shift = 0 : i8} : (tensor<1x32x40x128xf32>, tensor<1x1x40x128xf32>) -> tensor<1x32x40x128xf32>
    %extracted_slice_708 = tensor.extract_slice %3932[0, 0, 0, 0] [1, 32, 40, 64] [1, 1, 1, 1] : tensor<1x32x40x128xf32> to tensor<1x32x40x64xf32>
    %extracted_slice_709 = tensor.extract_slice %3932[0, 0, 0, 64] [1, 32, 40, 64] [1, 1, 1, 1] : tensor<1x32x40x128xf32> to tensor<1x32x40x64xf32>
    %3956 = tosa.negate %extracted_slice_709 : (tensor<1x32x40x64xf32>) -> tensor<1x32x40x64xf32>
    %3957 = tensor.empty() : tensor<1x32x40x128xf32>
    %inserted_slice_710 = tensor.insert_slice %3956 into %3957[0, 0, 0, 0] [1, 32, 40, 64] [1, 1, 1, 1] : tensor<1x32x40x64xf32> into tensor<1x32x40x128xf32>
    %inserted_slice_711 = tensor.insert_slice %extracted_slice_708 into %inserted_slice_710[0, 0, 0, 64] [1, 32, 40, 64] [1, 1, 1, 1] : tensor<1x32x40x64xf32> into tensor<1x32x40x128xf32>
    %3958 = tosa.mul %inserted_slice_711, %3949 {shift = 0 : i8} : (tensor<1x32x40x128xf32>, tensor<1x1x40x128xf32>) -> tensor<1x32x40x128xf32>
    %3959 = tosa.add %3955, %3958 : (tensor<1x32x40x128xf32>, tensor<1x32x40x128xf32>) -> tensor<1x32x40x128xf32>
    %3960 = "tosa.const"() <{value = dense<[0, 1, 3, 2]> : tensor<4xi32>}> : () -> tensor<4xi32>
    %3961 = tosa.transpose %3959, %3960 : (tensor<1x32x40x128xf32>, tensor<4xi32>) -> tensor<1x32x128x40xf32>
    %3962 = "tosa.const"() <{value = dense<0.000000e+00> : tensor<1x32x40x128xf32>}> : () -> tensor<1x32x40x128xf32>
    %3963 = tosa.add %3954, %3962 : (tensor<1x32x40x128xf32>, tensor<1x32x40x128xf32>) -> tensor<1x32x40x128xf32>
    %3964 = tosa.reshape %3963 {new_shape = array<i64: 32, 40, 128>} : (tensor<1x32x40x128xf32>) -> tensor<32x40x128xf32>
    %3965 = "tosa.const"() <{value = dense<0.000000e+00> : tensor<1x32x128x40xf32>}> : () -> tensor<1x32x128x40xf32>
    %3966 = tosa.add %3961, %3965 : (tensor<1x32x128x40xf32>, tensor<1x32x128x40xf32>) -> tensor<1x32x128x40xf32>
    %3967 = tosa.reshape %3966 {new_shape = array<i64: 32, 128, 40>} : (tensor<1x32x128x40xf32>) -> tensor<32x128x40xf32>
    %3968 = tosa.matmul %3964, %3967 : (tensor<32x40x128xf32>, tensor<32x128x40xf32>) -> tensor<32x40x40xf32>
    %3969 = tosa.reshape %3968 {new_shape = array<i64: 1, 32, 40, 40>} : (tensor<32x40x40xf32>) -> tensor<1x32x40x40xf32>
    %3970 = "tosa.const"() <{value = dense<11.3137083> : tensor<1x32x40x40xf32>}> : () -> tensor<1x32x40x40xf32>
    %3971 = tosa.reciprocal %3970 : (tensor<1x32x40x40xf32>) -> tensor<1x32x40x40xf32>
    %3972 = tosa.mul %3969, %3971 {shift = 0 : i8} : (tensor<1x32x40x40xf32>, tensor<1x32x40x40xf32>) -> tensor<1x32x40x40xf32>
    %3973 = tosa.add %3972, %29 : (tensor<1x32x40x40xf32>, tensor<1x1x40x40xf32>) -> tensor<1x32x40x40xf32>
    %3974 = tosa.reduce_max %3973 {axis = 3 : i32} : (tensor<1x32x40x40xf32>) -> tensor<1x32x40x1xf32>
    %3975 = tosa.sub %3973, %3974 : (tensor<1x32x40x40xf32>, tensor<1x32x40x1xf32>) -> tensor<1x32x40x40xf32>
    %3976 = tosa.exp %3975 : (tensor<1x32x40x40xf32>) -> tensor<1x32x40x40xf32>
    %3977 = tosa.reduce_sum %3976 {axis = 3 : i32} : (tensor<1x32x40x40xf32>) -> tensor<1x32x40x1xf32>
    %3978 = tosa.reciprocal %3977 : (tensor<1x32x40x1xf32>) -> tensor<1x32x40x1xf32>
    %3979 = tosa.mul %3976, %3978 {shift = 0 : i8} : (tensor<1x32x40x40xf32>, tensor<1x32x40x1xf32>) -> tensor<1x32x40x40xf32>
    %3980 = "tosa.const"() <{value = dense<0.000000e+00> : tensor<1x32x40x40xf32>}> : () -> tensor<1x32x40x40xf32>
    %3981 = tosa.add %3979, %3980 : (tensor<1x32x40x40xf32>, tensor<1x32x40x40xf32>) -> tensor<1x32x40x40xf32>
    %3982 = tosa.reshape %3981 {new_shape = array<i64: 32, 40, 40>} : (tensor<1x32x40x40xf32>) -> tensor<32x40x40xf32>
    %3983 = "tosa.const"() <{value = dense<0.000000e+00> : tensor<1x32x40x128xf32>}> : () -> tensor<1x32x40x128xf32>
    %3984 = tosa.add %3935, %3983 : (tensor<1x32x40x128xf32>, tensor<1x32x40x128xf32>) -> tensor<1x32x40x128xf32>
    %3985 = tosa.reshape %3984 {new_shape = array<i64: 32, 40, 128>} : (tensor<1x32x40x128xf32>) -> tensor<32x40x128xf32>
    %3986 = tosa.matmul %3982, %3985 : (tensor<32x40x40xf32>, tensor<32x40x128xf32>) -> tensor<32x40x128xf32>
    %3987 = tosa.reshape %3986 {new_shape = array<i64: 1, 32, 40, 128>} : (tensor<32x40x128xf32>) -> tensor<1x32x40x128xf32>
    %3988 = "tosa.const"() <{value = dense<[0, 2, 1, 3]> : tensor<4xi32>}> : () -> tensor<4xi32>
    %3989 = tosa.transpose %3987, %3988 : (tensor<1x32x40x128xf32>, tensor<4xi32>) -> tensor<1x40x32x128xf32>
    %3990 = tosa.identity %3989 : (tensor<1x40x32x128xf32>) -> tensor<1x40x32x128xf32>
    %3991 = tosa.reshape %3990 {new_shape = array<i64: 1, 40, 4096>} : (tensor<1x40x32x128xf32>) -> tensor<1x40x4096xf32>
    %3992 = "tosa.const"() <{value = dense<[1, 0]> : tensor<2xi32>}> : () -> tensor<2xi32>
    %3993 = tosa.transpose %arg338, %3992 : (tensor<4096x4096xf32>, tensor<2xi32>) -> tensor<4096x4096xf32>
    %3994 = tosa.reshape %3991 {new_shape = array<i64: 40, 4096>} : (tensor<1x40x4096xf32>) -> tensor<40x4096xf32>
    %cst_712 = arith.constant dense<0.000000e+00> : tensor<40x4096xf32>
    %3995 = linalg.matmul {cast = #linalg.type_fn<cast_signed>} ins(%3994, %3993 : tensor<40x4096xf32>, tensor<4096x4096xf32>) outs(%cst_712 : tensor<40x4096xf32>) -> tensor<40x4096xf32>
    %3996 = tosa.reshape %3995 {new_shape = array<i64: 1, 40, 4096>} : (tensor<40x4096xf32>) -> tensor<1x40x4096xf32>
    %3997 = tosa.add %3899, %3996 : (tensor<1x40x4096xf32>, tensor<1x40x4096xf32>) -> tensor<1x40x4096xf32>
    %3998 = tensor.empty() : tensor<1x40x4096xf32>
    %c2_i32_713 = arith.constant 2 : i32
    %3999 = linalg.generic {indexing_maps = [#map5, #map5], iterator_types = ["parallel", "parallel", "parallel"]} ins(%3997 : tensor<1x40x4096xf32>) outs(%3998 : tensor<1x40x4096xf32>) {
    ^bb0(%in: f32, %out: f32):
      %4175 = math.fpowi %in, %c2_i32_713 : f32, i32
      linalg.yield %4175 : f32
    } -> tensor<1x40x4096xf32>
    %4000 = tosa.reduce_sum %3999 {axis = 2 : i32} : (tensor<1x40x4096xf32>) -> tensor<1x40x1xf32>
    %4001 = "tosa.const"() <{value = dense<4.096000e+03> : tensor<1xf32>}> : () -> tensor<1xf32>
    %4002 = tosa.reciprocal %4001 : (tensor<1xf32>) -> tensor<1xf32>
    %4003 = tosa.mul %4002, %4000 {shift = 0 : i8} : (tensor<1xf32>, tensor<1x40x1xf32>) -> tensor<1x40x1xf32>
    %4004 = "tosa.const"() <{value = dense<9.99999974E-6> : tensor<1x40x1xf32>}> : () -> tensor<1x40x1xf32>
    %4005 = tosa.add %4003, %4004 : (tensor<1x40x1xf32>, tensor<1x40x1xf32>) -> tensor<1x40x1xf32>
    %4006 = tosa.rsqrt %4005 : (tensor<1x40x1xf32>) -> tensor<1x40x1xf32>
    %4007 = tosa.mul %3997, %4006 {shift = 0 : i8} : (tensor<1x40x4096xf32>, tensor<1x40x1xf32>) -> tensor<1x40x4096xf32>
    %4008 = tosa.reshape %arg339 {new_shape = array<i64: 1, 1, 4096>} : (tensor<4096xf32>) -> tensor<1x1x4096xf32>
    %4009 = tosa.mul %4008, %4007 {shift = 0 : i8} : (tensor<1x1x4096xf32>, tensor<1x40x4096xf32>) -> tensor<1x40x4096xf32>
    %4010 = "tosa.const"() <{value = dense<[1, 0]> : tensor<2xi32>}> : () -> tensor<2xi32>
    %4011 = tosa.transpose %arg340, %4010 : (tensor<11008x4096xf32>, tensor<2xi32>) -> tensor<4096x11008xf32>
    %4012 = tosa.reshape %4009 {new_shape = array<i64: 40, 4096>} : (tensor<1x40x4096xf32>) -> tensor<40x4096xf32>
    %cst_714 = arith.constant dense<0.000000e+00> : tensor<40x11008xf32>
    %4013 = linalg.matmul {cast = #linalg.type_fn<cast_signed>} ins(%4012, %4011 : tensor<40x4096xf32>, tensor<4096x11008xf32>) outs(%cst_714 : tensor<40x11008xf32>) -> tensor<40x11008xf32>
    %4014 = tosa.reshape %4013 {new_shape = array<i64: 1, 40, 11008>} : (tensor<40x11008xf32>) -> tensor<1x40x11008xf32>
    %4015 = tosa.sigmoid %4014 : (tensor<1x40x11008xf32>) -> tensor<1x40x11008xf32>
    %4016 = tosa.mul %4014, %4015 {shift = 0 : i8} : (tensor<1x40x11008xf32>, tensor<1x40x11008xf32>) -> tensor<1x40x11008xf32>
    %4017 = "tosa.const"() <{value = dense<[1, 0]> : tensor<2xi32>}> : () -> tensor<2xi32>
    %4018 = tosa.transpose %arg341, %4017 : (tensor<11008x4096xf32>, tensor<2xi32>) -> tensor<4096x11008xf32>
    %4019 = tosa.reshape %4009 {new_shape = array<i64: 40, 4096>} : (tensor<1x40x4096xf32>) -> tensor<40x4096xf32>
    %cst_715 = arith.constant dense<0.000000e+00> : tensor<40x11008xf32>
    %4020 = linalg.matmul {cast = #linalg.type_fn<cast_signed>} ins(%4019, %4018 : tensor<40x4096xf32>, tensor<4096x11008xf32>) outs(%cst_715 : tensor<40x11008xf32>) -> tensor<40x11008xf32>
    %4021 = tosa.reshape %4020 {new_shape = array<i64: 1, 40, 11008>} : (tensor<40x11008xf32>) -> tensor<1x40x11008xf32>
    %4022 = tosa.mul %4016, %4021 {shift = 0 : i8} : (tensor<1x40x11008xf32>, tensor<1x40x11008xf32>) -> tensor<1x40x11008xf32>
    %4023 = "tosa.const"() <{value = dense<[1, 0]> : tensor<2xi32>}> : () -> tensor<2xi32>
    %4024 = tosa.transpose %arg342, %4023 : (tensor<4096x11008xf32>, tensor<2xi32>) -> tensor<11008x4096xf32>
    %4025 = tosa.reshape %4022 {new_shape = array<i64: 40, 11008>} : (tensor<1x40x11008xf32>) -> tensor<40x11008xf32>
    %cst_716 = arith.constant dense<0.000000e+00> : tensor<40x4096xf32>
    %4026 = linalg.matmul {cast = #linalg.type_fn<cast_signed>} ins(%4025, %4024 : tensor<40x11008xf32>, tensor<11008x4096xf32>) outs(%cst_716 : tensor<40x4096xf32>) -> tensor<40x4096xf32>
    %4027 = tosa.reshape %4026 {new_shape = array<i64: 1, 40, 4096>} : (tensor<40x4096xf32>) -> tensor<1x40x4096xf32>
    %4028 = tosa.add %3997, %4027 : (tensor<1x40x4096xf32>, tensor<1x40x4096xf32>) -> tensor<1x40x4096xf32>
    %4029 = tensor.empty() : tensor<1x40x4096xf32>
    %c2_i32_717 = arith.constant 2 : i32
    %4030 = linalg.generic {indexing_maps = [#map5, #map5], iterator_types = ["parallel", "parallel", "parallel"]} ins(%4028 : tensor<1x40x4096xf32>) outs(%4029 : tensor<1x40x4096xf32>) {
    ^bb0(%in: f32, %out: f32):
      %4175 = math.fpowi %in, %c2_i32_717 : f32, i32
      linalg.yield %4175 : f32
    } -> tensor<1x40x4096xf32>
    %4031 = tosa.reduce_sum %4030 {axis = 2 : i32} : (tensor<1x40x4096xf32>) -> tensor<1x40x1xf32>
    %4032 = "tosa.const"() <{value = dense<4.096000e+03> : tensor<1xf32>}> : () -> tensor<1xf32>
    %4033 = tosa.reciprocal %4032 : (tensor<1xf32>) -> tensor<1xf32>
    %4034 = tosa.mul %4033, %4031 {shift = 0 : i8} : (tensor<1xf32>, tensor<1x40x1xf32>) -> tensor<1x40x1xf32>
    %4035 = "tosa.const"() <{value = dense<9.99999974E-6> : tensor<1x40x1xf32>}> : () -> tensor<1x40x1xf32>
    %4036 = tosa.add %4034, %4035 : (tensor<1x40x1xf32>, tensor<1x40x1xf32>) -> tensor<1x40x1xf32>
    %4037 = tosa.rsqrt %4036 : (tensor<1x40x1xf32>) -> tensor<1x40x1xf32>
    %4038 = tosa.mul %4028, %4037 {shift = 0 : i8} : (tensor<1x40x4096xf32>, tensor<1x40x1xf32>) -> tensor<1x40x4096xf32>
    %4039 = tosa.reshape %arg343 {new_shape = array<i64: 1, 1, 4096>} : (tensor<4096xf32>) -> tensor<1x1x4096xf32>
    %4040 = tosa.mul %4039, %4038 {shift = 0 : i8} : (tensor<1x1x4096xf32>, tensor<1x40x4096xf32>) -> tensor<1x40x4096xf32>
    %4041 = "tosa.const"() <{value = dense<[1, 0]> : tensor<2xi32>}> : () -> tensor<2xi32>
    %4042 = tosa.transpose %arg344, %4041 : (tensor<4096x4096xf32>, tensor<2xi32>) -> tensor<4096x4096xf32>
    %4043 = tosa.reshape %4040 {new_shape = array<i64: 40, 4096>} : (tensor<1x40x4096xf32>) -> tensor<40x4096xf32>
    %cst_718 = arith.constant dense<0.000000e+00> : tensor<40x4096xf32>
    %4044 = linalg.matmul {cast = #linalg.type_fn<cast_signed>} ins(%4043, %4042 : tensor<40x4096xf32>, tensor<4096x4096xf32>) outs(%cst_718 : tensor<40x4096xf32>) -> tensor<40x4096xf32>
    %4045 = tosa.reshape %4044 {new_shape = array<i64: 1, 40, 4096>} : (tensor<40x4096xf32>) -> tensor<1x40x4096xf32>
    %4046 = "tosa.const"() <{value = dense<[1, 0]> : tensor<2xi32>}> : () -> tensor<2xi32>
    %4047 = tosa.transpose %arg345, %4046 : (tensor<4096x4096xf32>, tensor<2xi32>) -> tensor<4096x4096xf32>
    %4048 = tosa.reshape %4040 {new_shape = array<i64: 40, 4096>} : (tensor<1x40x4096xf32>) -> tensor<40x4096xf32>
    %cst_719 = arith.constant dense<0.000000e+00> : tensor<40x4096xf32>
    %4049 = linalg.matmul {cast = #linalg.type_fn<cast_signed>} ins(%4048, %4047 : tensor<40x4096xf32>, tensor<4096x4096xf32>) outs(%cst_719 : tensor<40x4096xf32>) -> tensor<40x4096xf32>
    %4050 = tosa.reshape %4049 {new_shape = array<i64: 1, 40, 4096>} : (tensor<40x4096xf32>) -> tensor<1x40x4096xf32>
    %4051 = "tosa.const"() <{value = dense<[1, 0]> : tensor<2xi32>}> : () -> tensor<2xi32>
    %4052 = tosa.transpose %arg346, %4051 : (tensor<4096x4096xf32>, tensor<2xi32>) -> tensor<4096x4096xf32>
    %4053 = tosa.reshape %4040 {new_shape = array<i64: 40, 4096>} : (tensor<1x40x4096xf32>) -> tensor<40x4096xf32>
    %cst_720 = arith.constant dense<0.000000e+00> : tensor<40x4096xf32>
    %4054 = linalg.matmul {cast = #linalg.type_fn<cast_signed>} ins(%4053, %4052 : tensor<40x4096xf32>, tensor<4096x4096xf32>) outs(%cst_720 : tensor<40x4096xf32>) -> tensor<40x4096xf32>
    %4055 = tosa.reshape %4054 {new_shape = array<i64: 1, 40, 4096>} : (tensor<40x4096xf32>) -> tensor<1x40x4096xf32>
    %4056 = tosa.reshape %4045 {new_shape = array<i64: 1, 40, 32, 128>} : (tensor<1x40x4096xf32>) -> tensor<1x40x32x128xf32>
    %4057 = "tosa.const"() <{value = dense<[0, 2, 1, 3]> : tensor<4xi32>}> : () -> tensor<4xi32>
    %4058 = tosa.transpose %4056, %4057 : (tensor<1x40x32x128xf32>, tensor<4xi32>) -> tensor<1x32x40x128xf32>
    %4059 = tosa.reshape %4050 {new_shape = array<i64: 1, 40, 32, 128>} : (tensor<1x40x4096xf32>) -> tensor<1x40x32x128xf32>
    %4060 = "tosa.const"() <{value = dense<[0, 2, 1, 3]> : tensor<4xi32>}> : () -> tensor<4xi32>
    %4061 = tosa.transpose %4059, %4060 : (tensor<1x40x32x128xf32>, tensor<4xi32>) -> tensor<1x32x40x128xf32>
    %4062 = tosa.reshape %4055 {new_shape = array<i64: 1, 40, 32, 128>} : (tensor<1x40x4096xf32>) -> tensor<1x40x32x128xf32>
    %4063 = "tosa.const"() <{value = dense<[0, 2, 1, 3]> : tensor<4xi32>}> : () -> tensor<4xi32>
    %4064 = tosa.transpose %4062, %4063 : (tensor<1x40x32x128xf32>, tensor<4xi32>) -> tensor<1x32x40x128xf32>
    %extracted_slice_721 = tensor.extract_slice %arg347[0, 0, 0, 0] [1, 1, 2048, 128] [1, 1, 1, 1] : tensor<1x1x2048x128xf32> to tensor<1x1x2048x128xf32>
    %extracted_slice_722 = tensor.extract_slice %extracted_slice_721[0, 0, 0, 0] [1, 1, 2048, 128] [1, 1, 1, 1] : tensor<1x1x2048x128xf32> to tensor<1x1x2048x128xf32>
    %extracted_slice_723 = tensor.extract_slice %extracted_slice_722[0, 0, 0, 0] [1, 1, 40, 128] [1, 1, 1, 1] : tensor<1x1x2048x128xf32> to tensor<1x1x40x128xf32>
    %extracted_slice_724 = tensor.extract_slice %arg348[0, 0, 0, 0] [1, 1, 2048, 128] [1, 1, 1, 1] : tensor<1x1x2048x128xf32> to tensor<1x1x2048x128xf32>
    %extracted_slice_725 = tensor.extract_slice %extracted_slice_724[0, 0, 0, 0] [1, 1, 2048, 128] [1, 1, 1, 1] : tensor<1x1x2048x128xf32> to tensor<1x1x2048x128xf32>
    %extracted_slice_726 = tensor.extract_slice %extracted_slice_725[0, 0, 0, 0] [1, 1, 40, 128] [1, 1, 1, 1] : tensor<1x1x2048x128xf32> to tensor<1x1x40x128xf32>
    %4065 = tensor.empty() : tensor<1x40x128xf32>
    %4066 = linalg.generic {indexing_maps = [#map6, #map5], iterator_types = ["parallel", "parallel", "parallel"]} ins(%extracted_slice_723 : tensor<1x1x40x128xf32>) outs(%4065 : tensor<1x40x128xf32>) {
    ^bb0(%in: f32, %out: f32):
      linalg.yield %in : f32
    } -> tensor<1x40x128xf32>
    %4067 = tensor.empty() : tensor<40x128xf32>
    %4068 = linalg.generic {indexing_maps = [#map7, #map3], iterator_types = ["parallel", "parallel"]} ins(%4066 : tensor<1x40x128xf32>) outs(%4067 : tensor<40x128xf32>) {
    ^bb0(%in: f32, %out: f32):
      linalg.yield %in : f32
    } -> tensor<40x128xf32>
    %4069 = tensor.empty() : tensor<1x40x128xf32>
    %4070 = linalg.generic {indexing_maps = [#map6, #map5], iterator_types = ["parallel", "parallel", "parallel"]} ins(%extracted_slice_726 : tensor<1x1x40x128xf32>) outs(%4069 : tensor<1x40x128xf32>) {
    ^bb0(%in: f32, %out: f32):
      linalg.yield %in : f32
    } -> tensor<1x40x128xf32>
    %4071 = tensor.empty() : tensor<40x128xf32>
    %4072 = linalg.generic {indexing_maps = [#map7, #map3], iterator_types = ["parallel", "parallel"]} ins(%4070 : tensor<1x40x128xf32>) outs(%4071 : tensor<40x128xf32>) {
    ^bb0(%in: f32, %out: f32):
      linalg.yield %in : f32
    } -> tensor<40x128xf32>
    %4073 = tensor.empty() : tensor<1x40x128xf32>
    %4074 = linalg.generic {indexing_maps = [#map2, #map5], iterator_types = ["parallel", "parallel", "parallel"]} ins(%2 : tensor<1x40xi64>) outs(%4073 : tensor<1x40x128xf32>) {
    ^bb0(%in: i64, %out: f32):
      %4175 = arith.index_cast %in : i64 to index
      %4176 = linalg.index 2 : index
      %extracted = tensor.extract %4068[%4175, %4176] : tensor<40x128xf32>
      linalg.yield %extracted : f32
    } -> tensor<1x40x128xf32>
    %4075 = tosa.reshape %4074 {new_shape = array<i64: 1, 1, 40, 128>} : (tensor<1x40x128xf32>) -> tensor<1x1x40x128xf32>
    %4076 = tensor.empty() : tensor<1x40x128xf32>
    %4077 = linalg.generic {indexing_maps = [#map2, #map5], iterator_types = ["parallel", "parallel", "parallel"]} ins(%2 : tensor<1x40xi64>) outs(%4076 : tensor<1x40x128xf32>) {
    ^bb0(%in: i64, %out: f32):
      %4175 = arith.index_cast %in : i64 to index
      %4176 = linalg.index 2 : index
      %extracted = tensor.extract %4072[%4175, %4176] : tensor<40x128xf32>
      linalg.yield %extracted : f32
    } -> tensor<1x40x128xf32>
    %4078 = tosa.reshape %4077 {new_shape = array<i64: 1, 1, 40, 128>} : (tensor<1x40x128xf32>) -> tensor<1x1x40x128xf32>
    %4079 = tosa.mul %4058, %4075 {shift = 0 : i8} : (tensor<1x32x40x128xf32>, tensor<1x1x40x128xf32>) -> tensor<1x32x40x128xf32>
    %extracted_slice_727 = tensor.extract_slice %4058[0, 0, 0, 0] [1, 32, 40, 64] [1, 1, 1, 1] : tensor<1x32x40x128xf32> to tensor<1x32x40x64xf32>
    %extracted_slice_728 = tensor.extract_slice %4058[0, 0, 0, 64] [1, 32, 40, 64] [1, 1, 1, 1] : tensor<1x32x40x128xf32> to tensor<1x32x40x64xf32>
    %4080 = tosa.negate %extracted_slice_728 : (tensor<1x32x40x64xf32>) -> tensor<1x32x40x64xf32>
    %4081 = tensor.empty() : tensor<1x32x40x128xf32>
    %inserted_slice_729 = tensor.insert_slice %4080 into %4081[0, 0, 0, 0] [1, 32, 40, 64] [1, 1, 1, 1] : tensor<1x32x40x64xf32> into tensor<1x32x40x128xf32>
    %inserted_slice_730 = tensor.insert_slice %extracted_slice_727 into %inserted_slice_729[0, 0, 0, 64] [1, 32, 40, 64] [1, 1, 1, 1] : tensor<1x32x40x64xf32> into tensor<1x32x40x128xf32>
    %4082 = tosa.mul %inserted_slice_730, %4078 {shift = 0 : i8} : (tensor<1x32x40x128xf32>, tensor<1x1x40x128xf32>) -> tensor<1x32x40x128xf32>
    %4083 = tosa.add %4079, %4082 : (tensor<1x32x40x128xf32>, tensor<1x32x40x128xf32>) -> tensor<1x32x40x128xf32>
    %4084 = tosa.mul %4061, %4075 {shift = 0 : i8} : (tensor<1x32x40x128xf32>, tensor<1x1x40x128xf32>) -> tensor<1x32x40x128xf32>
    %extracted_slice_731 = tensor.extract_slice %4061[0, 0, 0, 0] [1, 32, 40, 64] [1, 1, 1, 1] : tensor<1x32x40x128xf32> to tensor<1x32x40x64xf32>
    %extracted_slice_732 = tensor.extract_slice %4061[0, 0, 0, 64] [1, 32, 40, 64] [1, 1, 1, 1] : tensor<1x32x40x128xf32> to tensor<1x32x40x64xf32>
    %4085 = tosa.negate %extracted_slice_732 : (tensor<1x32x40x64xf32>) -> tensor<1x32x40x64xf32>
    %4086 = tensor.empty() : tensor<1x32x40x128xf32>
    %inserted_slice_733 = tensor.insert_slice %4085 into %4086[0, 0, 0, 0] [1, 32, 40, 64] [1, 1, 1, 1] : tensor<1x32x40x64xf32> into tensor<1x32x40x128xf32>
    %inserted_slice_734 = tensor.insert_slice %extracted_slice_731 into %inserted_slice_733[0, 0, 0, 64] [1, 32, 40, 64] [1, 1, 1, 1] : tensor<1x32x40x64xf32> into tensor<1x32x40x128xf32>
    %4087 = tosa.mul %inserted_slice_734, %4078 {shift = 0 : i8} : (tensor<1x32x40x128xf32>, tensor<1x1x40x128xf32>) -> tensor<1x32x40x128xf32>
    %4088 = tosa.add %4084, %4087 : (tensor<1x32x40x128xf32>, tensor<1x32x40x128xf32>) -> tensor<1x32x40x128xf32>
    %4089 = "tosa.const"() <{value = dense<[0, 1, 3, 2]> : tensor<4xi32>}> : () -> tensor<4xi32>
    %4090 = tosa.transpose %4088, %4089 : (tensor<1x32x40x128xf32>, tensor<4xi32>) -> tensor<1x32x128x40xf32>
    %4091 = "tosa.const"() <{value = dense<0.000000e+00> : tensor<1x32x40x128xf32>}> : () -> tensor<1x32x40x128xf32>
    %4092 = tosa.add %4083, %4091 : (tensor<1x32x40x128xf32>, tensor<1x32x40x128xf32>) -> tensor<1x32x40x128xf32>
    %4093 = tosa.reshape %4092 {new_shape = array<i64: 32, 40, 128>} : (tensor<1x32x40x128xf32>) -> tensor<32x40x128xf32>
    %4094 = "tosa.const"() <{value = dense<0.000000e+00> : tensor<1x32x128x40xf32>}> : () -> tensor<1x32x128x40xf32>
    %4095 = tosa.add %4090, %4094 : (tensor<1x32x128x40xf32>, tensor<1x32x128x40xf32>) -> tensor<1x32x128x40xf32>
    %4096 = tosa.reshape %4095 {new_shape = array<i64: 32, 128, 40>} : (tensor<1x32x128x40xf32>) -> tensor<32x128x40xf32>
    %4097 = tosa.matmul %4093, %4096 : (tensor<32x40x128xf32>, tensor<32x128x40xf32>) -> tensor<32x40x40xf32>
    %4098 = tosa.reshape %4097 {new_shape = array<i64: 1, 32, 40, 40>} : (tensor<32x40x40xf32>) -> tensor<1x32x40x40xf32>
    %4099 = "tosa.const"() <{value = dense<11.3137083> : tensor<1x32x40x40xf32>}> : () -> tensor<1x32x40x40xf32>
    %4100 = tosa.reciprocal %4099 : (tensor<1x32x40x40xf32>) -> tensor<1x32x40x40xf32>
    %4101 = tosa.mul %4098, %4100 {shift = 0 : i8} : (tensor<1x32x40x40xf32>, tensor<1x32x40x40xf32>) -> tensor<1x32x40x40xf32>
    %4102 = tosa.add %4101, %29 : (tensor<1x32x40x40xf32>, tensor<1x1x40x40xf32>) -> tensor<1x32x40x40xf32>
    %4103 = tosa.reduce_max %4102 {axis = 3 : i32} : (tensor<1x32x40x40xf32>) -> tensor<1x32x40x1xf32>
    %4104 = tosa.sub %4102, %4103 : (tensor<1x32x40x40xf32>, tensor<1x32x40x1xf32>) -> tensor<1x32x40x40xf32>
    %4105 = tosa.exp %4104 : (tensor<1x32x40x40xf32>) -> tensor<1x32x40x40xf32>
    %4106 = tosa.reduce_sum %4105 {axis = 3 : i32} : (tensor<1x32x40x40xf32>) -> tensor<1x32x40x1xf32>
    %4107 = tosa.reciprocal %4106 : (tensor<1x32x40x1xf32>) -> tensor<1x32x40x1xf32>
    %4108 = tosa.mul %4105, %4107 {shift = 0 : i8} : (tensor<1x32x40x40xf32>, tensor<1x32x40x1xf32>) -> tensor<1x32x40x40xf32>
    %4109 = "tosa.const"() <{value = dense<0.000000e+00> : tensor<1x32x40x40xf32>}> : () -> tensor<1x32x40x40xf32>
    %4110 = tosa.add %4108, %4109 : (tensor<1x32x40x40xf32>, tensor<1x32x40x40xf32>) -> tensor<1x32x40x40xf32>
    %4111 = tosa.reshape %4110 {new_shape = array<i64: 32, 40, 40>} : (tensor<1x32x40x40xf32>) -> tensor<32x40x40xf32>
    %4112 = "tosa.const"() <{value = dense<0.000000e+00> : tensor<1x32x40x128xf32>}> : () -> tensor<1x32x40x128xf32>
    %4113 = tosa.add %4064, %4112 : (tensor<1x32x40x128xf32>, tensor<1x32x40x128xf32>) -> tensor<1x32x40x128xf32>
    %4114 = tosa.reshape %4113 {new_shape = array<i64: 32, 40, 128>} : (tensor<1x32x40x128xf32>) -> tensor<32x40x128xf32>
    %4115 = tosa.matmul %4111, %4114 : (tensor<32x40x40xf32>, tensor<32x40x128xf32>) -> tensor<32x40x128xf32>
    %4116 = tosa.reshape %4115 {new_shape = array<i64: 1, 32, 40, 128>} : (tensor<32x40x128xf32>) -> tensor<1x32x40x128xf32>
    %4117 = "tosa.const"() <{value = dense<[0, 2, 1, 3]> : tensor<4xi32>}> : () -> tensor<4xi32>
    %4118 = tosa.transpose %4116, %4117 : (tensor<1x32x40x128xf32>, tensor<4xi32>) -> tensor<1x40x32x128xf32>
    %4119 = tosa.identity %4118 : (tensor<1x40x32x128xf32>) -> tensor<1x40x32x128xf32>
    %4120 = tosa.reshape %4119 {new_shape = array<i64: 1, 40, 4096>} : (tensor<1x40x32x128xf32>) -> tensor<1x40x4096xf32>
    %4121 = "tosa.const"() <{value = dense<[1, 0]> : tensor<2xi32>}> : () -> tensor<2xi32>
    %4122 = tosa.transpose %arg349, %4121 : (tensor<4096x4096xf32>, tensor<2xi32>) -> tensor<4096x4096xf32>
    %4123 = tosa.reshape %4120 {new_shape = array<i64: 40, 4096>} : (tensor<1x40x4096xf32>) -> tensor<40x4096xf32>
    %cst_735 = arith.constant dense<0.000000e+00> : tensor<40x4096xf32>
    %4124 = linalg.matmul {cast = #linalg.type_fn<cast_signed>} ins(%4123, %4122 : tensor<40x4096xf32>, tensor<4096x4096xf32>) outs(%cst_735 : tensor<40x4096xf32>) -> tensor<40x4096xf32>
    %4125 = tosa.reshape %4124 {new_shape = array<i64: 1, 40, 4096>} : (tensor<40x4096xf32>) -> tensor<1x40x4096xf32>
    %4126 = tosa.add %4028, %4125 : (tensor<1x40x4096xf32>, tensor<1x40x4096xf32>) -> tensor<1x40x4096xf32>
    %4127 = tensor.empty() : tensor<1x40x4096xf32>
    %c2_i32_736 = arith.constant 2 : i32
    %4128 = linalg.generic {indexing_maps = [#map5, #map5], iterator_types = ["parallel", "parallel", "parallel"]} ins(%4126 : tensor<1x40x4096xf32>) outs(%4127 : tensor<1x40x4096xf32>) {
    ^bb0(%in: f32, %out: f32):
      %4175 = math.fpowi %in, %c2_i32_736 : f32, i32
      linalg.yield %4175 : f32
    } -> tensor<1x40x4096xf32>
    %4129 = tosa.reduce_sum %4128 {axis = 2 : i32} : (tensor<1x40x4096xf32>) -> tensor<1x40x1xf32>
    %4130 = "tosa.const"() <{value = dense<4.096000e+03> : tensor<1xf32>}> : () -> tensor<1xf32>
    %4131 = tosa.reciprocal %4130 : (tensor<1xf32>) -> tensor<1xf32>
    %4132 = tosa.mul %4131, %4129 {shift = 0 : i8} : (tensor<1xf32>, tensor<1x40x1xf32>) -> tensor<1x40x1xf32>
    %4133 = "tosa.const"() <{value = dense<9.99999974E-6> : tensor<1x40x1xf32>}> : () -> tensor<1x40x1xf32>
    %4134 = tosa.add %4132, %4133 : (tensor<1x40x1xf32>, tensor<1x40x1xf32>) -> tensor<1x40x1xf32>
    %4135 = tosa.rsqrt %4134 : (tensor<1x40x1xf32>) -> tensor<1x40x1xf32>
    %4136 = tosa.mul %4126, %4135 {shift = 0 : i8} : (tensor<1x40x4096xf32>, tensor<1x40x1xf32>) -> tensor<1x40x4096xf32>
    %4137 = tosa.reshape %arg350 {new_shape = array<i64: 1, 1, 4096>} : (tensor<4096xf32>) -> tensor<1x1x4096xf32>
    %4138 = tosa.mul %4137, %4136 {shift = 0 : i8} : (tensor<1x1x4096xf32>, tensor<1x40x4096xf32>) -> tensor<1x40x4096xf32>
    %4139 = "tosa.const"() <{value = dense<[1, 0]> : tensor<2xi32>}> : () -> tensor<2xi32>
    %4140 = tosa.transpose %arg351, %4139 : (tensor<11008x4096xf32>, tensor<2xi32>) -> tensor<4096x11008xf32>
    %4141 = tosa.reshape %4138 {new_shape = array<i64: 40, 4096>} : (tensor<1x40x4096xf32>) -> tensor<40x4096xf32>
    %cst_737 = arith.constant dense<0.000000e+00> : tensor<40x11008xf32>
    %4142 = linalg.matmul {cast = #linalg.type_fn<cast_signed>} ins(%4141, %4140 : tensor<40x4096xf32>, tensor<4096x11008xf32>) outs(%cst_737 : tensor<40x11008xf32>) -> tensor<40x11008xf32>
    %4143 = tosa.reshape %4142 {new_shape = array<i64: 1, 40, 11008>} : (tensor<40x11008xf32>) -> tensor<1x40x11008xf32>
    %4144 = tosa.sigmoid %4143 : (tensor<1x40x11008xf32>) -> tensor<1x40x11008xf32>
    %4145 = tosa.mul %4143, %4144 {shift = 0 : i8} : (tensor<1x40x11008xf32>, tensor<1x40x11008xf32>) -> tensor<1x40x11008xf32>
    %4146 = "tosa.const"() <{value = dense<[1, 0]> : tensor<2xi32>}> : () -> tensor<2xi32>
    %4147 = tosa.transpose %arg352, %4146 : (tensor<11008x4096xf32>, tensor<2xi32>) -> tensor<4096x11008xf32>
    %4148 = tosa.reshape %4138 {new_shape = array<i64: 40, 4096>} : (tensor<1x40x4096xf32>) -> tensor<40x4096xf32>
    %cst_738 = arith.constant dense<0.000000e+00> : tensor<40x11008xf32>
    %4149 = linalg.matmul {cast = #linalg.type_fn<cast_signed>} ins(%4148, %4147 : tensor<40x4096xf32>, tensor<4096x11008xf32>) outs(%cst_738 : tensor<40x11008xf32>) -> tensor<40x11008xf32>
    %4150 = tosa.reshape %4149 {new_shape = array<i64: 1, 40, 11008>} : (tensor<40x11008xf32>) -> tensor<1x40x11008xf32>
    %4151 = tosa.mul %4145, %4150 {shift = 0 : i8} : (tensor<1x40x11008xf32>, tensor<1x40x11008xf32>) -> tensor<1x40x11008xf32>
    %4152 = "tosa.const"() <{value = dense<[1, 0]> : tensor<2xi32>}> : () -> tensor<2xi32>
    %4153 = tosa.transpose %arg353, %4152 : (tensor<4096x11008xf32>, tensor<2xi32>) -> tensor<11008x4096xf32>
    %4154 = tosa.reshape %4151 {new_shape = array<i64: 40, 11008>} : (tensor<1x40x11008xf32>) -> tensor<40x11008xf32>
    %cst_739 = arith.constant dense<0.000000e+00> : tensor<40x4096xf32>
    %4155 = linalg.matmul {cast = #linalg.type_fn<cast_signed>} ins(%4154, %4153 : tensor<40x11008xf32>, tensor<11008x4096xf32>) outs(%cst_739 : tensor<40x4096xf32>) -> tensor<40x4096xf32>
    %4156 = tosa.reshape %4155 {new_shape = array<i64: 1, 40, 4096>} : (tensor<40x4096xf32>) -> tensor<1x40x4096xf32>
    %4157 = tosa.add %4126, %4156 : (tensor<1x40x4096xf32>, tensor<1x40x4096xf32>) -> tensor<1x40x4096xf32>
    %4158 = tensor.empty() : tensor<1x40x4096xf32>
    %c2_i32_740 = arith.constant 2 : i32
    %4159 = linalg.generic {indexing_maps = [#map5, #map5], iterator_types = ["parallel", "parallel", "parallel"]} ins(%4157 : tensor<1x40x4096xf32>) outs(%4158 : tensor<1x40x4096xf32>) {
    ^bb0(%in: f32, %out: f32):
      %4175 = math.fpowi %in, %c2_i32_740 : f32, i32
      linalg.yield %4175 : f32
    } -> tensor<1x40x4096xf32>
    %4160 = tosa.reduce_sum %4159 {axis = 2 : i32} : (tensor<1x40x4096xf32>) -> tensor<1x40x1xf32>
    %4161 = "tosa.const"() <{value = dense<4.096000e+03> : tensor<1xf32>}> : () -> tensor<1xf32>
    %4162 = tosa.reciprocal %4161 : (tensor<1xf32>) -> tensor<1xf32>
    %4163 = tosa.mul %4162, %4160 {shift = 0 : i8} : (tensor<1xf32>, tensor<1x40x1xf32>) -> tensor<1x40x1xf32>
    %4164 = "tosa.const"() <{value = dense<9.99999974E-6> : tensor<1x40x1xf32>}> : () -> tensor<1x40x1xf32>
    %4165 = tosa.add %4163, %4164 : (tensor<1x40x1xf32>, tensor<1x40x1xf32>) -> tensor<1x40x1xf32>
    %4166 = tosa.rsqrt %4165 : (tensor<1x40x1xf32>) -> tensor<1x40x1xf32>
    %4167 = tosa.mul %4157, %4166 {shift = 0 : i8} : (tensor<1x40x4096xf32>, tensor<1x40x1xf32>) -> tensor<1x40x4096xf32>
    %4168 = tosa.reshape %arg354 {new_shape = array<i64: 1, 1, 4096>} : (tensor<4096xf32>) -> tensor<1x1x4096xf32>
    %4169 = tosa.mul %4168, %4167 {shift = 0 : i8} : (tensor<1x1x4096xf32>, tensor<1x40x4096xf32>) -> tensor<1x40x4096xf32>
    %4170 = "tosa.const"() <{value = dense<[1, 0]> : tensor<2xi32>}> : () -> tensor<2xi32>
    %4171 = tosa.transpose %arg355, %4170 : (tensor<32000x4096xf32>, tensor<2xi32>) -> tensor<4096x32000xf32>
    %4172 = tosa.reshape %4169 {new_shape = array<i64: 40, 4096>} : (tensor<1x40x4096xf32>) -> tensor<40x4096xf32>
    %cst_741 = arith.constant dense<0.000000e+00> : tensor<40x32000xf32>
    %4173 = linalg.matmul {cast = #linalg.type_fn<cast_signed>} ins(%4172, %4171 : tensor<40x4096xf32>, tensor<4096x32000xf32>) outs(%cst_741 : tensor<40x32000xf32>) -> tensor<40x32000xf32>
    %4174 = tosa.reshape %4173 {new_shape = array<i64: 1, 40, 32000>} : (tensor<40x32000xf32>) -> tensor<1x40x32000xf32>
    return %4169, %4174 : tensor<1x40x4096xf32>, tensor<1x40x32000xf32>
  }
}

