#map = affine_map<(d0, d1, d2) -> (d1)>
#map1 = affine_map<(d0, d1, d2) -> (d0, d2)>
#map2 = affine_map<(d0, d1, d2) -> (d0, d1)>
#map3 = affine_map<(d0, d1) -> (d0, d1)>
#map4 = affine_map<(d0, d1, d2, d3) -> (d0, d1, d2, d3)>
#map5 = affine_map<(d0, d1, d2) -> (d0, d1, d2)>
#map6 = affine_map<(d0, d1, d2, d3) -> (d0, d1, d2)>
#map7 = affine_map<(d0, d1, d2, d3) -> (d0, d1, d3)>
#map8 = affine_map<(d0, d1) -> (d1, d0)>
#map9 = affine_map<(d0, d1, d2, d3) -> (d0, d2, d1, d3)>
#map10 = affine_map<(d0, d1, d2) -> (d0, 0, d1, d2)>
#map11 = affine_map<(d0, d1) -> (0, d0, d1)>
#map12 = affine_map<(d0, d1, d2, d3) -> (d0, d1, d3, d2)>
#map13 = affine_map<(d0, d1, d2, d3) -> (d0, d1, d2, 0)>
"builtin.module"() ({
  "func.func"() <{function_type = (tensor<6755192832xbf16>, tensor<1x40xi64>) -> (tensor<1x40x32000xf32>, tensor<1x40x4096xbf16>), sym_name = "forward"}> ({
  ^bb0(%arg0: tensor<6755192832xbf16>, %arg1: tensor<1x40xi64>):
    %0 = "tensor.extract_slice"(%arg0) <{operandSegmentSizes = array<i32: 1, 0, 0, 0>, static_offsets = array<i64: 0>, static_sizes = array<i64: 4096>, static_strides = array<i64: 1>}> : (tensor<6755192832xbf16>) -> tensor<4096xbf16>
    %1 = "tensor.extract_slice"(%arg0) <{operandSegmentSizes = array<i32: 1, 0, 0, 0>, static_offsets = array<i64: 4096>, static_sizes = array<i64: 4096>, static_strides = array<i64: 1>}> : (tensor<6755192832xbf16>) -> tensor<4096xbf16>
    %2 = "tensor.extract_slice"(%arg0) <{operandSegmentSizes = array<i32: 1, 0, 0, 0>, static_offsets = array<i64: 8192>, static_sizes = array<i64: 4096>, static_strides = array<i64: 1>}> : (tensor<6755192832xbf16>) -> tensor<4096xbf16>
    %3 = "tensor.extract_slice"(%arg0) <{operandSegmentSizes = array<i32: 1, 0, 0, 0>, static_offsets = array<i64: 12288>, static_sizes = array<i64: 4096>, static_strides = array<i64: 1>}> : (tensor<6755192832xbf16>) -> tensor<4096xbf16>
    %4 = "tensor.extract_slice"(%arg0) <{operandSegmentSizes = array<i32: 1, 0, 0, 0>, static_offsets = array<i64: 16384>, static_sizes = array<i64: 4096>, static_strides = array<i64: 1>}> : (tensor<6755192832xbf16>) -> tensor<4096xbf16>
    %5 = "tensor.extract_slice"(%arg0) <{operandSegmentSizes = array<i32: 1, 0, 0, 0>, static_offsets = array<i64: 20480>, static_sizes = array<i64: 4096>, static_strides = array<i64: 1>}> : (tensor<6755192832xbf16>) -> tensor<4096xbf16>
    %6 = "tensor.extract_slice"(%arg0) <{operandSegmentSizes = array<i32: 1, 0, 0, 0>, static_offsets = array<i64: 24576>, static_sizes = array<i64: 4096>, static_strides = array<i64: 1>}> : (tensor<6755192832xbf16>) -> tensor<4096xbf16>
    %7 = "tensor.extract_slice"(%arg0) <{operandSegmentSizes = array<i32: 1, 0, 0, 0>, static_offsets = array<i64: 28672>, static_sizes = array<i64: 4096>, static_strides = array<i64: 1>}> : (tensor<6755192832xbf16>) -> tensor<4096xbf16>
    %8 = "tensor.extract_slice"(%arg0) <{operandSegmentSizes = array<i32: 1, 0, 0, 0>, static_offsets = array<i64: 32768>, static_sizes = array<i64: 4096>, static_strides = array<i64: 1>}> : (tensor<6755192832xbf16>) -> tensor<4096xbf16>
    %9 = "tensor.extract_slice"(%arg0) <{operandSegmentSizes = array<i32: 1, 0, 0, 0>, static_offsets = array<i64: 36864>, static_sizes = array<i64: 4096>, static_strides = array<i64: 1>}> : (tensor<6755192832xbf16>) -> tensor<4096xbf16>
    %10 = "tensor.extract_slice"(%arg0) <{operandSegmentSizes = array<i32: 1, 0, 0, 0>, static_offsets = array<i64: 40960>, static_sizes = array<i64: 4096>, static_strides = array<i64: 1>}> : (tensor<6755192832xbf16>) -> tensor<4096xbf16>
    %11 = "tensor.extract_slice"(%arg0) <{operandSegmentSizes = array<i32: 1, 0, 0, 0>, static_offsets = array<i64: 45056>, static_sizes = array<i64: 4096>, static_strides = array<i64: 1>}> : (tensor<6755192832xbf16>) -> tensor<4096xbf16>
    %12 = "tensor.extract_slice"(%arg0) <{operandSegmentSizes = array<i32: 1, 0, 0, 0>, static_offsets = array<i64: 49152>, static_sizes = array<i64: 4096>, static_strides = array<i64: 1>}> : (tensor<6755192832xbf16>) -> tensor<4096xbf16>
    %13 = "tensor.extract_slice"(%arg0) <{operandSegmentSizes = array<i32: 1, 0, 0, 0>, static_offsets = array<i64: 53248>, static_sizes = array<i64: 4096>, static_strides = array<i64: 1>}> : (tensor<6755192832xbf16>) -> tensor<4096xbf16>
    %14 = "tensor.extract_slice"(%arg0) <{operandSegmentSizes = array<i32: 1, 0, 0, 0>, static_offsets = array<i64: 57344>, static_sizes = array<i64: 4096>, static_strides = array<i64: 1>}> : (tensor<6755192832xbf16>) -> tensor<4096xbf16>
    %15 = "tensor.extract_slice"(%arg0) <{operandSegmentSizes = array<i32: 1, 0, 0, 0>, static_offsets = array<i64: 61440>, static_sizes = array<i64: 4096>, static_strides = array<i64: 1>}> : (tensor<6755192832xbf16>) -> tensor<4096xbf16>
    %16 = "tensor.extract_slice"(%arg0) <{operandSegmentSizes = array<i32: 1, 0, 0, 0>, static_offsets = array<i64: 65536>, static_sizes = array<i64: 4096>, static_strides = array<i64: 1>}> : (tensor<6755192832xbf16>) -> tensor<4096xbf16>
    %17 = "tensor.extract_slice"(%arg0) <{operandSegmentSizes = array<i32: 1, 0, 0, 0>, static_offsets = array<i64: 69632>, static_sizes = array<i64: 4096>, static_strides = array<i64: 1>}> : (tensor<6755192832xbf16>) -> tensor<4096xbf16>
    %18 = "tensor.extract_slice"(%arg0) <{operandSegmentSizes = array<i32: 1, 0, 0, 0>, static_offsets = array<i64: 73728>, static_sizes = array<i64: 4096>, static_strides = array<i64: 1>}> : (tensor<6755192832xbf16>) -> tensor<4096xbf16>
    %19 = "tensor.extract_slice"(%arg0) <{operandSegmentSizes = array<i32: 1, 0, 0, 0>, static_offsets = array<i64: 77824>, static_sizes = array<i64: 4096>, static_strides = array<i64: 1>}> : (tensor<6755192832xbf16>) -> tensor<4096xbf16>
    %20 = "tensor.extract_slice"(%arg0) <{operandSegmentSizes = array<i32: 1, 0, 0, 0>, static_offsets = array<i64: 81920>, static_sizes = array<i64: 4096>, static_strides = array<i64: 1>}> : (tensor<6755192832xbf16>) -> tensor<4096xbf16>
    %21 = "tensor.extract_slice"(%arg0) <{operandSegmentSizes = array<i32: 1, 0, 0, 0>, static_offsets = array<i64: 86016>, static_sizes = array<i64: 4096>, static_strides = array<i64: 1>}> : (tensor<6755192832xbf16>) -> tensor<4096xbf16>
    %22 = "tensor.extract_slice"(%arg0) <{operandSegmentSizes = array<i32: 1, 0, 0, 0>, static_offsets = array<i64: 90112>, static_sizes = array<i64: 4096>, static_strides = array<i64: 1>}> : (tensor<6755192832xbf16>) -> tensor<4096xbf16>
    %23 = "tensor.extract_slice"(%arg0) <{operandSegmentSizes = array<i32: 1, 0, 0, 0>, static_offsets = array<i64: 94208>, static_sizes = array<i64: 4096>, static_strides = array<i64: 1>}> : (tensor<6755192832xbf16>) -> tensor<4096xbf16>
    %24 = "tensor.extract_slice"(%arg0) <{operandSegmentSizes = array<i32: 1, 0, 0, 0>, static_offsets = array<i64: 98304>, static_sizes = array<i64: 4096>, static_strides = array<i64: 1>}> : (tensor<6755192832xbf16>) -> tensor<4096xbf16>
    %25 = "tensor.extract_slice"(%arg0) <{operandSegmentSizes = array<i32: 1, 0, 0, 0>, static_offsets = array<i64: 102400>, static_sizes = array<i64: 4096>, static_strides = array<i64: 1>}> : (tensor<6755192832xbf16>) -> tensor<4096xbf16>
    %26 = "tensor.extract_slice"(%arg0) <{operandSegmentSizes = array<i32: 1, 0, 0, 0>, static_offsets = array<i64: 106496>, static_sizes = array<i64: 4096>, static_strides = array<i64: 1>}> : (tensor<6755192832xbf16>) -> tensor<4096xbf16>
    %27 = "tensor.extract_slice"(%arg0) <{operandSegmentSizes = array<i32: 1, 0, 0, 0>, static_offsets = array<i64: 110592>, static_sizes = array<i64: 4096>, static_strides = array<i64: 1>}> : (tensor<6755192832xbf16>) -> tensor<4096xbf16>
    %28 = "tensor.extract_slice"(%arg0) <{operandSegmentSizes = array<i32: 1, 0, 0, 0>, static_offsets = array<i64: 114688>, static_sizes = array<i64: 4096>, static_strides = array<i64: 1>}> : (tensor<6755192832xbf16>) -> tensor<4096xbf16>
    %29 = "tensor.extract_slice"(%arg0) <{operandSegmentSizes = array<i32: 1, 0, 0, 0>, static_offsets = array<i64: 118784>, static_sizes = array<i64: 4096>, static_strides = array<i64: 1>}> : (tensor<6755192832xbf16>) -> tensor<4096xbf16>
    %30 = "tensor.extract_slice"(%arg0) <{operandSegmentSizes = array<i32: 1, 0, 0, 0>, static_offsets = array<i64: 122880>, static_sizes = array<i64: 4096>, static_strides = array<i64: 1>}> : (tensor<6755192832xbf16>) -> tensor<4096xbf16>
    %31 = "tensor.extract_slice"(%arg0) <{operandSegmentSizes = array<i32: 1, 0, 0, 0>, static_offsets = array<i64: 126976>, static_sizes = array<i64: 4096>, static_strides = array<i64: 1>}> : (tensor<6755192832xbf16>) -> tensor<4096xbf16>
    %32 = "tensor.extract_slice"(%arg0) <{operandSegmentSizes = array<i32: 1, 0, 0, 0>, static_offsets = array<i64: 131072>, static_sizes = array<i64: 4096>, static_strides = array<i64: 1>}> : (tensor<6755192832xbf16>) -> tensor<4096xbf16>
    %33 = "tensor.extract_slice"(%arg0) <{operandSegmentSizes = array<i32: 1, 0, 0, 0>, static_offsets = array<i64: 135168>, static_sizes = array<i64: 4096>, static_strides = array<i64: 1>}> : (tensor<6755192832xbf16>) -> tensor<4096xbf16>
    %34 = "tensor.extract_slice"(%arg0) <{operandSegmentSizes = array<i32: 1, 0, 0, 0>, static_offsets = array<i64: 139264>, static_sizes = array<i64: 4096>, static_strides = array<i64: 1>}> : (tensor<6755192832xbf16>) -> tensor<4096xbf16>
    %35 = "tensor.extract_slice"(%arg0) <{operandSegmentSizes = array<i32: 1, 0, 0, 0>, static_offsets = array<i64: 143360>, static_sizes = array<i64: 4096>, static_strides = array<i64: 1>}> : (tensor<6755192832xbf16>) -> tensor<4096xbf16>
    %36 = "tensor.extract_slice"(%arg0) <{operandSegmentSizes = array<i32: 1, 0, 0, 0>, static_offsets = array<i64: 147456>, static_sizes = array<i64: 4096>, static_strides = array<i64: 1>}> : (tensor<6755192832xbf16>) -> tensor<4096xbf16>
    %37 = "tensor.extract_slice"(%arg0) <{operandSegmentSizes = array<i32: 1, 0, 0, 0>, static_offsets = array<i64: 151552>, static_sizes = array<i64: 4096>, static_strides = array<i64: 1>}> : (tensor<6755192832xbf16>) -> tensor<4096xbf16>
    %38 = "tensor.extract_slice"(%arg0) <{operandSegmentSizes = array<i32: 1, 0, 0, 0>, static_offsets = array<i64: 155648>, static_sizes = array<i64: 4096>, static_strides = array<i64: 1>}> : (tensor<6755192832xbf16>) -> tensor<4096xbf16>
    %39 = "tensor.extract_slice"(%arg0) <{operandSegmentSizes = array<i32: 1, 0, 0, 0>, static_offsets = array<i64: 159744>, static_sizes = array<i64: 4096>, static_strides = array<i64: 1>}> : (tensor<6755192832xbf16>) -> tensor<4096xbf16>
    %40 = "tensor.extract_slice"(%arg0) <{operandSegmentSizes = array<i32: 1, 0, 0, 0>, static_offsets = array<i64: 163840>, static_sizes = array<i64: 4096>, static_strides = array<i64: 1>}> : (tensor<6755192832xbf16>) -> tensor<4096xbf16>
    %41 = "tensor.extract_slice"(%arg0) <{operandSegmentSizes = array<i32: 1, 0, 0, 0>, static_offsets = array<i64: 167936>, static_sizes = array<i64: 4096>, static_strides = array<i64: 1>}> : (tensor<6755192832xbf16>) -> tensor<4096xbf16>
    %42 = "tensor.extract_slice"(%arg0) <{operandSegmentSizes = array<i32: 1, 0, 0, 0>, static_offsets = array<i64: 172032>, static_sizes = array<i64: 4096>, static_strides = array<i64: 1>}> : (tensor<6755192832xbf16>) -> tensor<4096xbf16>
    %43 = "tensor.extract_slice"(%arg0) <{operandSegmentSizes = array<i32: 1, 0, 0, 0>, static_offsets = array<i64: 176128>, static_sizes = array<i64: 4096>, static_strides = array<i64: 1>}> : (tensor<6755192832xbf16>) -> tensor<4096xbf16>
    %44 = "tensor.extract_slice"(%arg0) <{operandSegmentSizes = array<i32: 1, 0, 0, 0>, static_offsets = array<i64: 180224>, static_sizes = array<i64: 4096>, static_strides = array<i64: 1>}> : (tensor<6755192832xbf16>) -> tensor<4096xbf16>
    %45 = "tensor.extract_slice"(%arg0) <{operandSegmentSizes = array<i32: 1, 0, 0, 0>, static_offsets = array<i64: 184320>, static_sizes = array<i64: 4096>, static_strides = array<i64: 1>}> : (tensor<6755192832xbf16>) -> tensor<4096xbf16>
    %46 = "tensor.extract_slice"(%arg0) <{operandSegmentSizes = array<i32: 1, 0, 0, 0>, static_offsets = array<i64: 188416>, static_sizes = array<i64: 4096>, static_strides = array<i64: 1>}> : (tensor<6755192832xbf16>) -> tensor<4096xbf16>
    %47 = "tensor.extract_slice"(%arg0) <{operandSegmentSizes = array<i32: 1, 0, 0, 0>, static_offsets = array<i64: 192512>, static_sizes = array<i64: 4096>, static_strides = array<i64: 1>}> : (tensor<6755192832xbf16>) -> tensor<4096xbf16>
    %48 = "tensor.extract_slice"(%arg0) <{operandSegmentSizes = array<i32: 1, 0, 0, 0>, static_offsets = array<i64: 196608>, static_sizes = array<i64: 4096>, static_strides = array<i64: 1>}> : (tensor<6755192832xbf16>) -> tensor<4096xbf16>
    %49 = "tensor.extract_slice"(%arg0) <{operandSegmentSizes = array<i32: 1, 0, 0, 0>, static_offsets = array<i64: 200704>, static_sizes = array<i64: 4096>, static_strides = array<i64: 1>}> : (tensor<6755192832xbf16>) -> tensor<4096xbf16>
    %50 = "tensor.extract_slice"(%arg0) <{operandSegmentSizes = array<i32: 1, 0, 0, 0>, static_offsets = array<i64: 204800>, static_sizes = array<i64: 4096>, static_strides = array<i64: 1>}> : (tensor<6755192832xbf16>) -> tensor<4096xbf16>
    %51 = "tensor.extract_slice"(%arg0) <{operandSegmentSizes = array<i32: 1, 0, 0, 0>, static_offsets = array<i64: 208896>, static_sizes = array<i64: 4096>, static_strides = array<i64: 1>}> : (tensor<6755192832xbf16>) -> tensor<4096xbf16>
    %52 = "tensor.extract_slice"(%arg0) <{operandSegmentSizes = array<i32: 1, 0, 0, 0>, static_offsets = array<i64: 212992>, static_sizes = array<i64: 4096>, static_strides = array<i64: 1>}> : (tensor<6755192832xbf16>) -> tensor<4096xbf16>
    %53 = "tensor.extract_slice"(%arg0) <{operandSegmentSizes = array<i32: 1, 0, 0, 0>, static_offsets = array<i64: 217088>, static_sizes = array<i64: 4096>, static_strides = array<i64: 1>}> : (tensor<6755192832xbf16>) -> tensor<4096xbf16>
    %54 = "tensor.extract_slice"(%arg0) <{operandSegmentSizes = array<i32: 1, 0, 0, 0>, static_offsets = array<i64: 221184>, static_sizes = array<i64: 4096>, static_strides = array<i64: 1>}> : (tensor<6755192832xbf16>) -> tensor<4096xbf16>
    %55 = "tensor.extract_slice"(%arg0) <{operandSegmentSizes = array<i32: 1, 0, 0, 0>, static_offsets = array<i64: 225280>, static_sizes = array<i64: 4096>, static_strides = array<i64: 1>}> : (tensor<6755192832xbf16>) -> tensor<4096xbf16>
    %56 = "tensor.extract_slice"(%arg0) <{operandSegmentSizes = array<i32: 1, 0, 0, 0>, static_offsets = array<i64: 229376>, static_sizes = array<i64: 4096>, static_strides = array<i64: 1>}> : (tensor<6755192832xbf16>) -> tensor<4096xbf16>
    %57 = "tensor.extract_slice"(%arg0) <{operandSegmentSizes = array<i32: 1, 0, 0, 0>, static_offsets = array<i64: 233472>, static_sizes = array<i64: 4096>, static_strides = array<i64: 1>}> : (tensor<6755192832xbf16>) -> tensor<4096xbf16>
    %58 = "tensor.extract_slice"(%arg0) <{operandSegmentSizes = array<i32: 1, 0, 0, 0>, static_offsets = array<i64: 237568>, static_sizes = array<i64: 4096>, static_strides = array<i64: 1>}> : (tensor<6755192832xbf16>) -> tensor<4096xbf16>
    %59 = "tensor.extract_slice"(%arg0) <{operandSegmentSizes = array<i32: 1, 0, 0, 0>, static_offsets = array<i64: 241664>, static_sizes = array<i64: 4096>, static_strides = array<i64: 1>}> : (tensor<6755192832xbf16>) -> tensor<4096xbf16>
    %60 = "tensor.extract_slice"(%arg0) <{operandSegmentSizes = array<i32: 1, 0, 0, 0>, static_offsets = array<i64: 245760>, static_sizes = array<i64: 4096>, static_strides = array<i64: 1>}> : (tensor<6755192832xbf16>) -> tensor<4096xbf16>
    %61 = "tensor.extract_slice"(%arg0) <{operandSegmentSizes = array<i32: 1, 0, 0, 0>, static_offsets = array<i64: 249856>, static_sizes = array<i64: 4096>, static_strides = array<i64: 1>}> : (tensor<6755192832xbf16>) -> tensor<4096xbf16>
    %62 = "tensor.extract_slice"(%arg0) <{operandSegmentSizes = array<i32: 1, 0, 0, 0>, static_offsets = array<i64: 253952>, static_sizes = array<i64: 4096>, static_strides = array<i64: 1>}> : (tensor<6755192832xbf16>) -> tensor<4096xbf16>
    %63 = "tensor.extract_slice"(%arg0) <{operandSegmentSizes = array<i32: 1, 0, 0, 0>, static_offsets = array<i64: 258048>, static_sizes = array<i64: 4096>, static_strides = array<i64: 1>}> : (tensor<6755192832xbf16>) -> tensor<4096xbf16>
    %64 = "tensor.extract_slice"(%arg0) <{operandSegmentSizes = array<i32: 1, 0, 0, 0>, static_offsets = array<i64: 262144>, static_sizes = array<i64: 4096>, static_strides = array<i64: 1>}> : (tensor<6755192832xbf16>) -> tensor<4096xbf16>
    %65 = "tensor.extract_slice"(%arg0) <{operandSegmentSizes = array<i32: 1, 0, 0, 0>, static_offsets = array<i64: 266240>, static_sizes = array<i64: 131072000>, static_strides = array<i64: 1>}> : (tensor<6755192832xbf16>) -> tensor<131072000xbf16>
    %66 = "tensor.expand_shape"(%65) <{reassociation = [[0, 1]]}> : (tensor<131072000xbf16>) -> tensor<32000x4096xbf16>
    %67 = "tensor.extract_slice"(%arg0) <{operandSegmentSizes = array<i32: 1, 0, 0, 0>, static_offsets = array<i64: 131338240>, static_sizes = array<i64: 16777216>, static_strides = array<i64: 1>}> : (tensor<6755192832xbf16>) -> tensor<16777216xbf16>
    %68 = "tensor.expand_shape"(%67) <{reassociation = [[0, 1]]}> : (tensor<16777216xbf16>) -> tensor<4096x4096xbf16>
    %69 = "tensor.extract_slice"(%arg0) <{operandSegmentSizes = array<i32: 1, 0, 0, 0>, static_offsets = array<i64: 148115456>, static_sizes = array<i64: 16777216>, static_strides = array<i64: 1>}> : (tensor<6755192832xbf16>) -> tensor<16777216xbf16>
    %70 = "tensor.expand_shape"(%69) <{reassociation = [[0, 1]]}> : (tensor<16777216xbf16>) -> tensor<4096x4096xbf16>
    %71 = "tensor.extract_slice"(%arg0) <{operandSegmentSizes = array<i32: 1, 0, 0, 0>, static_offsets = array<i64: 164892672>, static_sizes = array<i64: 16777216>, static_strides = array<i64: 1>}> : (tensor<6755192832xbf16>) -> tensor<16777216xbf16>
    %72 = "tensor.expand_shape"(%71) <{reassociation = [[0, 1]]}> : (tensor<16777216xbf16>) -> tensor<4096x4096xbf16>
    %73 = "tensor.extract_slice"(%arg0) <{operandSegmentSizes = array<i32: 1, 0, 0, 0>, static_offsets = array<i64: 181669888>, static_sizes = array<i64: 16777216>, static_strides = array<i64: 1>}> : (tensor<6755192832xbf16>) -> tensor<16777216xbf16>
    %74 = "tensor.expand_shape"(%73) <{reassociation = [[0, 1]]}> : (tensor<16777216xbf16>) -> tensor<4096x4096xbf16>
    %75 = "tensor.extract_slice"(%arg0) <{operandSegmentSizes = array<i32: 1, 0, 0, 0>, static_offsets = array<i64: 198447104>, static_sizes = array<i64: 45088768>, static_strides = array<i64: 1>}> : (tensor<6755192832xbf16>) -> tensor<45088768xbf16>
    %76 = "tensor.expand_shape"(%75) <{reassociation = [[0, 1]]}> : (tensor<45088768xbf16>) -> tensor<11008x4096xbf16>
    %77 = "tensor.extract_slice"(%arg0) <{operandSegmentSizes = array<i32: 1, 0, 0, 0>, static_offsets = array<i64: 243535872>, static_sizes = array<i64: 45088768>, static_strides = array<i64: 1>}> : (tensor<6755192832xbf16>) -> tensor<45088768xbf16>
    %78 = "tensor.expand_shape"(%77) <{reassociation = [[0, 1]]}> : (tensor<45088768xbf16>) -> tensor<11008x4096xbf16>
    %79 = "tensor.extract_slice"(%arg0) <{operandSegmentSizes = array<i32: 1, 0, 0, 0>, static_offsets = array<i64: 288624640>, static_sizes = array<i64: 45088768>, static_strides = array<i64: 1>}> : (tensor<6755192832xbf16>) -> tensor<45088768xbf16>
    %80 = "tensor.expand_shape"(%79) <{reassociation = [[0, 1]]}> : (tensor<45088768xbf16>) -> tensor<4096x11008xbf16>
    %81 = "tensor.extract_slice"(%arg0) <{operandSegmentSizes = array<i32: 1, 0, 0, 0>, static_offsets = array<i64: 333713408>, static_sizes = array<i64: 16777216>, static_strides = array<i64: 1>}> : (tensor<6755192832xbf16>) -> tensor<16777216xbf16>
    %82 = "tensor.expand_shape"(%81) <{reassociation = [[0, 1]]}> : (tensor<16777216xbf16>) -> tensor<4096x4096xbf16>
    %83 = "tensor.extract_slice"(%arg0) <{operandSegmentSizes = array<i32: 1, 0, 0, 0>, static_offsets = array<i64: 350490624>, static_sizes = array<i64: 16777216>, static_strides = array<i64: 1>}> : (tensor<6755192832xbf16>) -> tensor<16777216xbf16>
    %84 = "tensor.expand_shape"(%83) <{reassociation = [[0, 1]]}> : (tensor<16777216xbf16>) -> tensor<4096x4096xbf16>
    %85 = "tensor.extract_slice"(%arg0) <{operandSegmentSizes = array<i32: 1, 0, 0, 0>, static_offsets = array<i64: 367267840>, static_sizes = array<i64: 16777216>, static_strides = array<i64: 1>}> : (tensor<6755192832xbf16>) -> tensor<16777216xbf16>
    %86 = "tensor.expand_shape"(%85) <{reassociation = [[0, 1]]}> : (tensor<16777216xbf16>) -> tensor<4096x4096xbf16>
    %87 = "tensor.extract_slice"(%arg0) <{operandSegmentSizes = array<i32: 1, 0, 0, 0>, static_offsets = array<i64: 384045056>, static_sizes = array<i64: 16777216>, static_strides = array<i64: 1>}> : (tensor<6755192832xbf16>) -> tensor<16777216xbf16>
    %88 = "tensor.expand_shape"(%87) <{reassociation = [[0, 1]]}> : (tensor<16777216xbf16>) -> tensor<4096x4096xbf16>
    %89 = "tensor.extract_slice"(%arg0) <{operandSegmentSizes = array<i32: 1, 0, 0, 0>, static_offsets = array<i64: 400822272>, static_sizes = array<i64: 45088768>, static_strides = array<i64: 1>}> : (tensor<6755192832xbf16>) -> tensor<45088768xbf16>
    %90 = "tensor.expand_shape"(%89) <{reassociation = [[0, 1]]}> : (tensor<45088768xbf16>) -> tensor<11008x4096xbf16>
    %91 = "tensor.extract_slice"(%arg0) <{operandSegmentSizes = array<i32: 1, 0, 0, 0>, static_offsets = array<i64: 445911040>, static_sizes = array<i64: 45088768>, static_strides = array<i64: 1>}> : (tensor<6755192832xbf16>) -> tensor<45088768xbf16>
    %92 = "tensor.expand_shape"(%91) <{reassociation = [[0, 1]]}> : (tensor<45088768xbf16>) -> tensor<11008x4096xbf16>
    %93 = "tensor.extract_slice"(%arg0) <{operandSegmentSizes = array<i32: 1, 0, 0, 0>, static_offsets = array<i64: 490999808>, static_sizes = array<i64: 45088768>, static_strides = array<i64: 1>}> : (tensor<6755192832xbf16>) -> tensor<45088768xbf16>
    %94 = "tensor.expand_shape"(%93) <{reassociation = [[0, 1]]}> : (tensor<45088768xbf16>) -> tensor<4096x11008xbf16>
    %95 = "tensor.extract_slice"(%arg0) <{operandSegmentSizes = array<i32: 1, 0, 0, 0>, static_offsets = array<i64: 536088576>, static_sizes = array<i64: 16777216>, static_strides = array<i64: 1>}> : (tensor<6755192832xbf16>) -> tensor<16777216xbf16>
    %96 = "tensor.expand_shape"(%95) <{reassociation = [[0, 1]]}> : (tensor<16777216xbf16>) -> tensor<4096x4096xbf16>
    %97 = "tensor.extract_slice"(%arg0) <{operandSegmentSizes = array<i32: 1, 0, 0, 0>, static_offsets = array<i64: 552865792>, static_sizes = array<i64: 16777216>, static_strides = array<i64: 1>}> : (tensor<6755192832xbf16>) -> tensor<16777216xbf16>
    %98 = "tensor.expand_shape"(%97) <{reassociation = [[0, 1]]}> : (tensor<16777216xbf16>) -> tensor<4096x4096xbf16>
    %99 = "tensor.extract_slice"(%arg0) <{operandSegmentSizes = array<i32: 1, 0, 0, 0>, static_offsets = array<i64: 569643008>, static_sizes = array<i64: 16777216>, static_strides = array<i64: 1>}> : (tensor<6755192832xbf16>) -> tensor<16777216xbf16>
    %100 = "tensor.expand_shape"(%99) <{reassociation = [[0, 1]]}> : (tensor<16777216xbf16>) -> tensor<4096x4096xbf16>
    %101 = "tensor.extract_slice"(%arg0) <{operandSegmentSizes = array<i32: 1, 0, 0, 0>, static_offsets = array<i64: 586420224>, static_sizes = array<i64: 16777216>, static_strides = array<i64: 1>}> : (tensor<6755192832xbf16>) -> tensor<16777216xbf16>
    %102 = "tensor.expand_shape"(%101) <{reassociation = [[0, 1]]}> : (tensor<16777216xbf16>) -> tensor<4096x4096xbf16>
    %103 = "tensor.extract_slice"(%arg0) <{operandSegmentSizes = array<i32: 1, 0, 0, 0>, static_offsets = array<i64: 603197440>, static_sizes = array<i64: 45088768>, static_strides = array<i64: 1>}> : (tensor<6755192832xbf16>) -> tensor<45088768xbf16>
    %104 = "tensor.expand_shape"(%103) <{reassociation = [[0, 1]]}> : (tensor<45088768xbf16>) -> tensor<11008x4096xbf16>
    %105 = "tensor.extract_slice"(%arg0) <{operandSegmentSizes = array<i32: 1, 0, 0, 0>, static_offsets = array<i64: 648286208>, static_sizes = array<i64: 45088768>, static_strides = array<i64: 1>}> : (tensor<6755192832xbf16>) -> tensor<45088768xbf16>
    %106 = "tensor.expand_shape"(%105) <{reassociation = [[0, 1]]}> : (tensor<45088768xbf16>) -> tensor<11008x4096xbf16>
    %107 = "tensor.extract_slice"(%arg0) <{operandSegmentSizes = array<i32: 1, 0, 0, 0>, static_offsets = array<i64: 693374976>, static_sizes = array<i64: 45088768>, static_strides = array<i64: 1>}> : (tensor<6755192832xbf16>) -> tensor<45088768xbf16>
    %108 = "tensor.expand_shape"(%107) <{reassociation = [[0, 1]]}> : (tensor<45088768xbf16>) -> tensor<4096x11008xbf16>
    %109 = "tensor.extract_slice"(%arg0) <{operandSegmentSizes = array<i32: 1, 0, 0, 0>, static_offsets = array<i64: 738463744>, static_sizes = array<i64: 16777216>, static_strides = array<i64: 1>}> : (tensor<6755192832xbf16>) -> tensor<16777216xbf16>
    %110 = "tensor.expand_shape"(%109) <{reassociation = [[0, 1]]}> : (tensor<16777216xbf16>) -> tensor<4096x4096xbf16>
    %111 = "tensor.extract_slice"(%arg0) <{operandSegmentSizes = array<i32: 1, 0, 0, 0>, static_offsets = array<i64: 755240960>, static_sizes = array<i64: 16777216>, static_strides = array<i64: 1>}> : (tensor<6755192832xbf16>) -> tensor<16777216xbf16>
    %112 = "tensor.expand_shape"(%111) <{reassociation = [[0, 1]]}> : (tensor<16777216xbf16>) -> tensor<4096x4096xbf16>
    %113 = "tensor.extract_slice"(%arg0) <{operandSegmentSizes = array<i32: 1, 0, 0, 0>, static_offsets = array<i64: 772018176>, static_sizes = array<i64: 16777216>, static_strides = array<i64: 1>}> : (tensor<6755192832xbf16>) -> tensor<16777216xbf16>
    %114 = "tensor.expand_shape"(%113) <{reassociation = [[0, 1]]}> : (tensor<16777216xbf16>) -> tensor<4096x4096xbf16>
    %115 = "tensor.extract_slice"(%arg0) <{operandSegmentSizes = array<i32: 1, 0, 0, 0>, static_offsets = array<i64: 788795392>, static_sizes = array<i64: 16777216>, static_strides = array<i64: 1>}> : (tensor<6755192832xbf16>) -> tensor<16777216xbf16>
    %116 = "tensor.expand_shape"(%115) <{reassociation = [[0, 1]]}> : (tensor<16777216xbf16>) -> tensor<4096x4096xbf16>
    %117 = "tensor.extract_slice"(%arg0) <{operandSegmentSizes = array<i32: 1, 0, 0, 0>, static_offsets = array<i64: 805572608>, static_sizes = array<i64: 45088768>, static_strides = array<i64: 1>}> : (tensor<6755192832xbf16>) -> tensor<45088768xbf16>
    %118 = "tensor.expand_shape"(%117) <{reassociation = [[0, 1]]}> : (tensor<45088768xbf16>) -> tensor<11008x4096xbf16>
    %119 = "tensor.extract_slice"(%arg0) <{operandSegmentSizes = array<i32: 1, 0, 0, 0>, static_offsets = array<i64: 850661376>, static_sizes = array<i64: 45088768>, static_strides = array<i64: 1>}> : (tensor<6755192832xbf16>) -> tensor<45088768xbf16>
    %120 = "tensor.expand_shape"(%119) <{reassociation = [[0, 1]]}> : (tensor<45088768xbf16>) -> tensor<11008x4096xbf16>
    %121 = "tensor.extract_slice"(%arg0) <{operandSegmentSizes = array<i32: 1, 0, 0, 0>, static_offsets = array<i64: 895750144>, static_sizes = array<i64: 45088768>, static_strides = array<i64: 1>}> : (tensor<6755192832xbf16>) -> tensor<45088768xbf16>
    %122 = "tensor.expand_shape"(%121) <{reassociation = [[0, 1]]}> : (tensor<45088768xbf16>) -> tensor<4096x11008xbf16>
    %123 = "tensor.extract_slice"(%arg0) <{operandSegmentSizes = array<i32: 1, 0, 0, 0>, static_offsets = array<i64: 940838912>, static_sizes = array<i64: 16777216>, static_strides = array<i64: 1>}> : (tensor<6755192832xbf16>) -> tensor<16777216xbf16>
    %124 = "tensor.expand_shape"(%123) <{reassociation = [[0, 1]]}> : (tensor<16777216xbf16>) -> tensor<4096x4096xbf16>
    %125 = "tensor.extract_slice"(%arg0) <{operandSegmentSizes = array<i32: 1, 0, 0, 0>, static_offsets = array<i64: 957616128>, static_sizes = array<i64: 16777216>, static_strides = array<i64: 1>}> : (tensor<6755192832xbf16>) -> tensor<16777216xbf16>
    %126 = "tensor.expand_shape"(%125) <{reassociation = [[0, 1]]}> : (tensor<16777216xbf16>) -> tensor<4096x4096xbf16>
    %127 = "tensor.extract_slice"(%arg0) <{operandSegmentSizes = array<i32: 1, 0, 0, 0>, static_offsets = array<i64: 974393344>, static_sizes = array<i64: 16777216>, static_strides = array<i64: 1>}> : (tensor<6755192832xbf16>) -> tensor<16777216xbf16>
    %128 = "tensor.expand_shape"(%127) <{reassociation = [[0, 1]]}> : (tensor<16777216xbf16>) -> tensor<4096x4096xbf16>
    %129 = "tensor.extract_slice"(%arg0) <{operandSegmentSizes = array<i32: 1, 0, 0, 0>, static_offsets = array<i64: 991170560>, static_sizes = array<i64: 16777216>, static_strides = array<i64: 1>}> : (tensor<6755192832xbf16>) -> tensor<16777216xbf16>
    %130 = "tensor.expand_shape"(%129) <{reassociation = [[0, 1]]}> : (tensor<16777216xbf16>) -> tensor<4096x4096xbf16>
    %131 = "tensor.extract_slice"(%arg0) <{operandSegmentSizes = array<i32: 1, 0, 0, 0>, static_offsets = array<i64: 1007947776>, static_sizes = array<i64: 45088768>, static_strides = array<i64: 1>}> : (tensor<6755192832xbf16>) -> tensor<45088768xbf16>
    %132 = "tensor.expand_shape"(%131) <{reassociation = [[0, 1]]}> : (tensor<45088768xbf16>) -> tensor<11008x4096xbf16>
    %133 = "tensor.extract_slice"(%arg0) <{operandSegmentSizes = array<i32: 1, 0, 0, 0>, static_offsets = array<i64: 1053036544>, static_sizes = array<i64: 45088768>, static_strides = array<i64: 1>}> : (tensor<6755192832xbf16>) -> tensor<45088768xbf16>
    %134 = "tensor.expand_shape"(%133) <{reassociation = [[0, 1]]}> : (tensor<45088768xbf16>) -> tensor<11008x4096xbf16>
    %135 = "tensor.extract_slice"(%arg0) <{operandSegmentSizes = array<i32: 1, 0, 0, 0>, static_offsets = array<i64: 1098125312>, static_sizes = array<i64: 45088768>, static_strides = array<i64: 1>}> : (tensor<6755192832xbf16>) -> tensor<45088768xbf16>
    %136 = "tensor.expand_shape"(%135) <{reassociation = [[0, 1]]}> : (tensor<45088768xbf16>) -> tensor<4096x11008xbf16>
    %137 = "tensor.extract_slice"(%arg0) <{operandSegmentSizes = array<i32: 1, 0, 0, 0>, static_offsets = array<i64: 1143214080>, static_sizes = array<i64: 16777216>, static_strides = array<i64: 1>}> : (tensor<6755192832xbf16>) -> tensor<16777216xbf16>
    %138 = "tensor.expand_shape"(%137) <{reassociation = [[0, 1]]}> : (tensor<16777216xbf16>) -> tensor<4096x4096xbf16>
    %139 = "tensor.extract_slice"(%arg0) <{operandSegmentSizes = array<i32: 1, 0, 0, 0>, static_offsets = array<i64: 1159991296>, static_sizes = array<i64: 16777216>, static_strides = array<i64: 1>}> : (tensor<6755192832xbf16>) -> tensor<16777216xbf16>
    %140 = "tensor.expand_shape"(%139) <{reassociation = [[0, 1]]}> : (tensor<16777216xbf16>) -> tensor<4096x4096xbf16>
    %141 = "tensor.extract_slice"(%arg0) <{operandSegmentSizes = array<i32: 1, 0, 0, 0>, static_offsets = array<i64: 1176768512>, static_sizes = array<i64: 16777216>, static_strides = array<i64: 1>}> : (tensor<6755192832xbf16>) -> tensor<16777216xbf16>
    %142 = "tensor.expand_shape"(%141) <{reassociation = [[0, 1]]}> : (tensor<16777216xbf16>) -> tensor<4096x4096xbf16>
    %143 = "tensor.extract_slice"(%arg0) <{operandSegmentSizes = array<i32: 1, 0, 0, 0>, static_offsets = array<i64: 1193545728>, static_sizes = array<i64: 16777216>, static_strides = array<i64: 1>}> : (tensor<6755192832xbf16>) -> tensor<16777216xbf16>
    %144 = "tensor.expand_shape"(%143) <{reassociation = [[0, 1]]}> : (tensor<16777216xbf16>) -> tensor<4096x4096xbf16>
    %145 = "tensor.extract_slice"(%arg0) <{operandSegmentSizes = array<i32: 1, 0, 0, 0>, static_offsets = array<i64: 1210322944>, static_sizes = array<i64: 45088768>, static_strides = array<i64: 1>}> : (tensor<6755192832xbf16>) -> tensor<45088768xbf16>
    %146 = "tensor.expand_shape"(%145) <{reassociation = [[0, 1]]}> : (tensor<45088768xbf16>) -> tensor<11008x4096xbf16>
    %147 = "tensor.extract_slice"(%arg0) <{operandSegmentSizes = array<i32: 1, 0, 0, 0>, static_offsets = array<i64: 1255411712>, static_sizes = array<i64: 45088768>, static_strides = array<i64: 1>}> : (tensor<6755192832xbf16>) -> tensor<45088768xbf16>
    %148 = "tensor.expand_shape"(%147) <{reassociation = [[0, 1]]}> : (tensor<45088768xbf16>) -> tensor<11008x4096xbf16>
    %149 = "tensor.extract_slice"(%arg0) <{operandSegmentSizes = array<i32: 1, 0, 0, 0>, static_offsets = array<i64: 1300500480>, static_sizes = array<i64: 45088768>, static_strides = array<i64: 1>}> : (tensor<6755192832xbf16>) -> tensor<45088768xbf16>
    %150 = "tensor.expand_shape"(%149) <{reassociation = [[0, 1]]}> : (tensor<45088768xbf16>) -> tensor<4096x11008xbf16>
    %151 = "tensor.extract_slice"(%arg0) <{operandSegmentSizes = array<i32: 1, 0, 0, 0>, static_offsets = array<i64: 1345589248>, static_sizes = array<i64: 16777216>, static_strides = array<i64: 1>}> : (tensor<6755192832xbf16>) -> tensor<16777216xbf16>
    %152 = "tensor.expand_shape"(%151) <{reassociation = [[0, 1]]}> : (tensor<16777216xbf16>) -> tensor<4096x4096xbf16>
    %153 = "tensor.extract_slice"(%arg0) <{operandSegmentSizes = array<i32: 1, 0, 0, 0>, static_offsets = array<i64: 1362366464>, static_sizes = array<i64: 16777216>, static_strides = array<i64: 1>}> : (tensor<6755192832xbf16>) -> tensor<16777216xbf16>
    %154 = "tensor.expand_shape"(%153) <{reassociation = [[0, 1]]}> : (tensor<16777216xbf16>) -> tensor<4096x4096xbf16>
    %155 = "tensor.extract_slice"(%arg0) <{operandSegmentSizes = array<i32: 1, 0, 0, 0>, static_offsets = array<i64: 1379143680>, static_sizes = array<i64: 16777216>, static_strides = array<i64: 1>}> : (tensor<6755192832xbf16>) -> tensor<16777216xbf16>
    %156 = "tensor.expand_shape"(%155) <{reassociation = [[0, 1]]}> : (tensor<16777216xbf16>) -> tensor<4096x4096xbf16>
    %157 = "tensor.extract_slice"(%arg0) <{operandSegmentSizes = array<i32: 1, 0, 0, 0>, static_offsets = array<i64: 1395920896>, static_sizes = array<i64: 16777216>, static_strides = array<i64: 1>}> : (tensor<6755192832xbf16>) -> tensor<16777216xbf16>
    %158 = "tensor.expand_shape"(%157) <{reassociation = [[0, 1]]}> : (tensor<16777216xbf16>) -> tensor<4096x4096xbf16>
    %159 = "tensor.extract_slice"(%arg0) <{operandSegmentSizes = array<i32: 1, 0, 0, 0>, static_offsets = array<i64: 1412698112>, static_sizes = array<i64: 45088768>, static_strides = array<i64: 1>}> : (tensor<6755192832xbf16>) -> tensor<45088768xbf16>
    %160 = "tensor.expand_shape"(%159) <{reassociation = [[0, 1]]}> : (tensor<45088768xbf16>) -> tensor<11008x4096xbf16>
    %161 = "tensor.extract_slice"(%arg0) <{operandSegmentSizes = array<i32: 1, 0, 0, 0>, static_offsets = array<i64: 1457786880>, static_sizes = array<i64: 45088768>, static_strides = array<i64: 1>}> : (tensor<6755192832xbf16>) -> tensor<45088768xbf16>
    %162 = "tensor.expand_shape"(%161) <{reassociation = [[0, 1]]}> : (tensor<45088768xbf16>) -> tensor<11008x4096xbf16>
    %163 = "tensor.extract_slice"(%arg0) <{operandSegmentSizes = array<i32: 1, 0, 0, 0>, static_offsets = array<i64: 1502875648>, static_sizes = array<i64: 45088768>, static_strides = array<i64: 1>}> : (tensor<6755192832xbf16>) -> tensor<45088768xbf16>
    %164 = "tensor.expand_shape"(%163) <{reassociation = [[0, 1]]}> : (tensor<45088768xbf16>) -> tensor<4096x11008xbf16>
    %165 = "tensor.extract_slice"(%arg0) <{operandSegmentSizes = array<i32: 1, 0, 0, 0>, static_offsets = array<i64: 1547964416>, static_sizes = array<i64: 16777216>, static_strides = array<i64: 1>}> : (tensor<6755192832xbf16>) -> tensor<16777216xbf16>
    %166 = "tensor.expand_shape"(%165) <{reassociation = [[0, 1]]}> : (tensor<16777216xbf16>) -> tensor<4096x4096xbf16>
    %167 = "tensor.extract_slice"(%arg0) <{operandSegmentSizes = array<i32: 1, 0, 0, 0>, static_offsets = array<i64: 1564741632>, static_sizes = array<i64: 16777216>, static_strides = array<i64: 1>}> : (tensor<6755192832xbf16>) -> tensor<16777216xbf16>
    %168 = "tensor.expand_shape"(%167) <{reassociation = [[0, 1]]}> : (tensor<16777216xbf16>) -> tensor<4096x4096xbf16>
    %169 = "tensor.extract_slice"(%arg0) <{operandSegmentSizes = array<i32: 1, 0, 0, 0>, static_offsets = array<i64: 1581518848>, static_sizes = array<i64: 16777216>, static_strides = array<i64: 1>}> : (tensor<6755192832xbf16>) -> tensor<16777216xbf16>
    %170 = "tensor.expand_shape"(%169) <{reassociation = [[0, 1]]}> : (tensor<16777216xbf16>) -> tensor<4096x4096xbf16>
    %171 = "tensor.extract_slice"(%arg0) <{operandSegmentSizes = array<i32: 1, 0, 0, 0>, static_offsets = array<i64: 1598296064>, static_sizes = array<i64: 16777216>, static_strides = array<i64: 1>}> : (tensor<6755192832xbf16>) -> tensor<16777216xbf16>
    %172 = "tensor.expand_shape"(%171) <{reassociation = [[0, 1]]}> : (tensor<16777216xbf16>) -> tensor<4096x4096xbf16>
    %173 = "tensor.extract_slice"(%arg0) <{operandSegmentSizes = array<i32: 1, 0, 0, 0>, static_offsets = array<i64: 1615073280>, static_sizes = array<i64: 45088768>, static_strides = array<i64: 1>}> : (tensor<6755192832xbf16>) -> tensor<45088768xbf16>
    %174 = "tensor.expand_shape"(%173) <{reassociation = [[0, 1]]}> : (tensor<45088768xbf16>) -> tensor<11008x4096xbf16>
    %175 = "tensor.extract_slice"(%arg0) <{operandSegmentSizes = array<i32: 1, 0, 0, 0>, static_offsets = array<i64: 1660162048>, static_sizes = array<i64: 45088768>, static_strides = array<i64: 1>}> : (tensor<6755192832xbf16>) -> tensor<45088768xbf16>
    %176 = "tensor.expand_shape"(%175) <{reassociation = [[0, 1]]}> : (tensor<45088768xbf16>) -> tensor<11008x4096xbf16>
    %177 = "tensor.extract_slice"(%arg0) <{operandSegmentSizes = array<i32: 1, 0, 0, 0>, static_offsets = array<i64: 1705250816>, static_sizes = array<i64: 45088768>, static_strides = array<i64: 1>}> : (tensor<6755192832xbf16>) -> tensor<45088768xbf16>
    %178 = "tensor.expand_shape"(%177) <{reassociation = [[0, 1]]}> : (tensor<45088768xbf16>) -> tensor<4096x11008xbf16>
    %179 = "tensor.extract_slice"(%arg0) <{operandSegmentSizes = array<i32: 1, 0, 0, 0>, static_offsets = array<i64: 1750339584>, static_sizes = array<i64: 16777216>, static_strides = array<i64: 1>}> : (tensor<6755192832xbf16>) -> tensor<16777216xbf16>
    %180 = "tensor.expand_shape"(%179) <{reassociation = [[0, 1]]}> : (tensor<16777216xbf16>) -> tensor<4096x4096xbf16>
    %181 = "tensor.extract_slice"(%arg0) <{operandSegmentSizes = array<i32: 1, 0, 0, 0>, static_offsets = array<i64: 1767116800>, static_sizes = array<i64: 16777216>, static_strides = array<i64: 1>}> : (tensor<6755192832xbf16>) -> tensor<16777216xbf16>
    %182 = "tensor.expand_shape"(%181) <{reassociation = [[0, 1]]}> : (tensor<16777216xbf16>) -> tensor<4096x4096xbf16>
    %183 = "tensor.extract_slice"(%arg0) <{operandSegmentSizes = array<i32: 1, 0, 0, 0>, static_offsets = array<i64: 1783894016>, static_sizes = array<i64: 16777216>, static_strides = array<i64: 1>}> : (tensor<6755192832xbf16>) -> tensor<16777216xbf16>
    %184 = "tensor.expand_shape"(%183) <{reassociation = [[0, 1]]}> : (tensor<16777216xbf16>) -> tensor<4096x4096xbf16>
    %185 = "tensor.extract_slice"(%arg0) <{operandSegmentSizes = array<i32: 1, 0, 0, 0>, static_offsets = array<i64: 1800671232>, static_sizes = array<i64: 16777216>, static_strides = array<i64: 1>}> : (tensor<6755192832xbf16>) -> tensor<16777216xbf16>
    %186 = "tensor.expand_shape"(%185) <{reassociation = [[0, 1]]}> : (tensor<16777216xbf16>) -> tensor<4096x4096xbf16>
    %187 = "tensor.extract_slice"(%arg0) <{operandSegmentSizes = array<i32: 1, 0, 0, 0>, static_offsets = array<i64: 1817448448>, static_sizes = array<i64: 45088768>, static_strides = array<i64: 1>}> : (tensor<6755192832xbf16>) -> tensor<45088768xbf16>
    %188 = "tensor.expand_shape"(%187) <{reassociation = [[0, 1]]}> : (tensor<45088768xbf16>) -> tensor<11008x4096xbf16>
    %189 = "tensor.extract_slice"(%arg0) <{operandSegmentSizes = array<i32: 1, 0, 0, 0>, static_offsets = array<i64: 1862537216>, static_sizes = array<i64: 45088768>, static_strides = array<i64: 1>}> : (tensor<6755192832xbf16>) -> tensor<45088768xbf16>
    %190 = "tensor.expand_shape"(%189) <{reassociation = [[0, 1]]}> : (tensor<45088768xbf16>) -> tensor<11008x4096xbf16>
    %191 = "tensor.extract_slice"(%arg0) <{operandSegmentSizes = array<i32: 1, 0, 0, 0>, static_offsets = array<i64: 1907625984>, static_sizes = array<i64: 45088768>, static_strides = array<i64: 1>}> : (tensor<6755192832xbf16>) -> tensor<45088768xbf16>
    %192 = "tensor.expand_shape"(%191) <{reassociation = [[0, 1]]}> : (tensor<45088768xbf16>) -> tensor<4096x11008xbf16>
    %193 = "tensor.extract_slice"(%arg0) <{operandSegmentSizes = array<i32: 1, 0, 0, 0>, static_offsets = array<i64: 1952714752>, static_sizes = array<i64: 16777216>, static_strides = array<i64: 1>}> : (tensor<6755192832xbf16>) -> tensor<16777216xbf16>
    %194 = "tensor.expand_shape"(%193) <{reassociation = [[0, 1]]}> : (tensor<16777216xbf16>) -> tensor<4096x4096xbf16>
    %195 = "tensor.extract_slice"(%arg0) <{operandSegmentSizes = array<i32: 1, 0, 0, 0>, static_offsets = array<i64: 1969491968>, static_sizes = array<i64: 16777216>, static_strides = array<i64: 1>}> : (tensor<6755192832xbf16>) -> tensor<16777216xbf16>
    %196 = "tensor.expand_shape"(%195) <{reassociation = [[0, 1]]}> : (tensor<16777216xbf16>) -> tensor<4096x4096xbf16>
    %197 = "tensor.extract_slice"(%arg0) <{operandSegmentSizes = array<i32: 1, 0, 0, 0>, static_offsets = array<i64: 1986269184>, static_sizes = array<i64: 16777216>, static_strides = array<i64: 1>}> : (tensor<6755192832xbf16>) -> tensor<16777216xbf16>
    %198 = "tensor.expand_shape"(%197) <{reassociation = [[0, 1]]}> : (tensor<16777216xbf16>) -> tensor<4096x4096xbf16>
    %199 = "tensor.extract_slice"(%arg0) <{operandSegmentSizes = array<i32: 1, 0, 0, 0>, static_offsets = array<i64: 2003046400>, static_sizes = array<i64: 16777216>, static_strides = array<i64: 1>}> : (tensor<6755192832xbf16>) -> tensor<16777216xbf16>
    %200 = "tensor.expand_shape"(%199) <{reassociation = [[0, 1]]}> : (tensor<16777216xbf16>) -> tensor<4096x4096xbf16>
    %201 = "tensor.extract_slice"(%arg0) <{operandSegmentSizes = array<i32: 1, 0, 0, 0>, static_offsets = array<i64: 2019823616>, static_sizes = array<i64: 45088768>, static_strides = array<i64: 1>}> : (tensor<6755192832xbf16>) -> tensor<45088768xbf16>
    %202 = "tensor.expand_shape"(%201) <{reassociation = [[0, 1]]}> : (tensor<45088768xbf16>) -> tensor<11008x4096xbf16>
    %203 = "tensor.extract_slice"(%arg0) <{operandSegmentSizes = array<i32: 1, 0, 0, 0>, static_offsets = array<i64: 2064912384>, static_sizes = array<i64: 45088768>, static_strides = array<i64: 1>}> : (tensor<6755192832xbf16>) -> tensor<45088768xbf16>
    %204 = "tensor.expand_shape"(%203) <{reassociation = [[0, 1]]}> : (tensor<45088768xbf16>) -> tensor<11008x4096xbf16>
    %205 = "tensor.extract_slice"(%arg0) <{operandSegmentSizes = array<i32: 1, 0, 0, 0>, static_offsets = array<i64: 2110001152>, static_sizes = array<i64: 45088768>, static_strides = array<i64: 1>}> : (tensor<6755192832xbf16>) -> tensor<45088768xbf16>
    %206 = "tensor.expand_shape"(%205) <{reassociation = [[0, 1]]}> : (tensor<45088768xbf16>) -> tensor<4096x11008xbf16>
    %207 = "tensor.extract_slice"(%arg0) <{operandSegmentSizes = array<i32: 1, 0, 0, 0>, static_offsets = array<i64: 2155089920>, static_sizes = array<i64: 16777216>, static_strides = array<i64: 1>}> : (tensor<6755192832xbf16>) -> tensor<16777216xbf16>
    %208 = "tensor.expand_shape"(%207) <{reassociation = [[0, 1]]}> : (tensor<16777216xbf16>) -> tensor<4096x4096xbf16>
    %209 = "tensor.extract_slice"(%arg0) <{operandSegmentSizes = array<i32: 1, 0, 0, 0>, static_offsets = array<i64: 2171867136>, static_sizes = array<i64: 16777216>, static_strides = array<i64: 1>}> : (tensor<6755192832xbf16>) -> tensor<16777216xbf16>
    %210 = "tensor.expand_shape"(%209) <{reassociation = [[0, 1]]}> : (tensor<16777216xbf16>) -> tensor<4096x4096xbf16>
    %211 = "tensor.extract_slice"(%arg0) <{operandSegmentSizes = array<i32: 1, 0, 0, 0>, static_offsets = array<i64: 2188644352>, static_sizes = array<i64: 16777216>, static_strides = array<i64: 1>}> : (tensor<6755192832xbf16>) -> tensor<16777216xbf16>
    %212 = "tensor.expand_shape"(%211) <{reassociation = [[0, 1]]}> : (tensor<16777216xbf16>) -> tensor<4096x4096xbf16>
    %213 = "tensor.extract_slice"(%arg0) <{operandSegmentSizes = array<i32: 1, 0, 0, 0>, static_offsets = array<i64: 2205421568>, static_sizes = array<i64: 16777216>, static_strides = array<i64: 1>}> : (tensor<6755192832xbf16>) -> tensor<16777216xbf16>
    %214 = "tensor.expand_shape"(%213) <{reassociation = [[0, 1]]}> : (tensor<16777216xbf16>) -> tensor<4096x4096xbf16>
    %215 = "tensor.extract_slice"(%arg0) <{operandSegmentSizes = array<i32: 1, 0, 0, 0>, static_offsets = array<i64: 2222198784>, static_sizes = array<i64: 45088768>, static_strides = array<i64: 1>}> : (tensor<6755192832xbf16>) -> tensor<45088768xbf16>
    %216 = "tensor.expand_shape"(%215) <{reassociation = [[0, 1]]}> : (tensor<45088768xbf16>) -> tensor<11008x4096xbf16>
    %217 = "tensor.extract_slice"(%arg0) <{operandSegmentSizes = array<i32: 1, 0, 0, 0>, static_offsets = array<i64: 2267287552>, static_sizes = array<i64: 45088768>, static_strides = array<i64: 1>}> : (tensor<6755192832xbf16>) -> tensor<45088768xbf16>
    %218 = "tensor.expand_shape"(%217) <{reassociation = [[0, 1]]}> : (tensor<45088768xbf16>) -> tensor<11008x4096xbf16>
    %219 = "tensor.extract_slice"(%arg0) <{operandSegmentSizes = array<i32: 1, 0, 0, 0>, static_offsets = array<i64: 2312376320>, static_sizes = array<i64: 45088768>, static_strides = array<i64: 1>}> : (tensor<6755192832xbf16>) -> tensor<45088768xbf16>
    %220 = "tensor.expand_shape"(%219) <{reassociation = [[0, 1]]}> : (tensor<45088768xbf16>) -> tensor<4096x11008xbf16>
    %221 = "tensor.extract_slice"(%arg0) <{operandSegmentSizes = array<i32: 1, 0, 0, 0>, static_offsets = array<i64: 2357465088>, static_sizes = array<i64: 16777216>, static_strides = array<i64: 1>}> : (tensor<6755192832xbf16>) -> tensor<16777216xbf16>
    %222 = "tensor.expand_shape"(%221) <{reassociation = [[0, 1]]}> : (tensor<16777216xbf16>) -> tensor<4096x4096xbf16>
    %223 = "tensor.extract_slice"(%arg0) <{operandSegmentSizes = array<i32: 1, 0, 0, 0>, static_offsets = array<i64: 2374242304>, static_sizes = array<i64: 16777216>, static_strides = array<i64: 1>}> : (tensor<6755192832xbf16>) -> tensor<16777216xbf16>
    %224 = "tensor.expand_shape"(%223) <{reassociation = [[0, 1]]}> : (tensor<16777216xbf16>) -> tensor<4096x4096xbf16>
    %225 = "tensor.extract_slice"(%arg0) <{operandSegmentSizes = array<i32: 1, 0, 0, 0>, static_offsets = array<i64: 2391019520>, static_sizes = array<i64: 16777216>, static_strides = array<i64: 1>}> : (tensor<6755192832xbf16>) -> tensor<16777216xbf16>
    %226 = "tensor.expand_shape"(%225) <{reassociation = [[0, 1]]}> : (tensor<16777216xbf16>) -> tensor<4096x4096xbf16>
    %227 = "tensor.extract_slice"(%arg0) <{operandSegmentSizes = array<i32: 1, 0, 0, 0>, static_offsets = array<i64: 2407796736>, static_sizes = array<i64: 16777216>, static_strides = array<i64: 1>}> : (tensor<6755192832xbf16>) -> tensor<16777216xbf16>
    %228 = "tensor.expand_shape"(%227) <{reassociation = [[0, 1]]}> : (tensor<16777216xbf16>) -> tensor<4096x4096xbf16>
    %229 = "tensor.extract_slice"(%arg0) <{operandSegmentSizes = array<i32: 1, 0, 0, 0>, static_offsets = array<i64: 2424573952>, static_sizes = array<i64: 45088768>, static_strides = array<i64: 1>}> : (tensor<6755192832xbf16>) -> tensor<45088768xbf16>
    %230 = "tensor.expand_shape"(%229) <{reassociation = [[0, 1]]}> : (tensor<45088768xbf16>) -> tensor<11008x4096xbf16>
    %231 = "tensor.extract_slice"(%arg0) <{operandSegmentSizes = array<i32: 1, 0, 0, 0>, static_offsets = array<i64: 2469662720>, static_sizes = array<i64: 45088768>, static_strides = array<i64: 1>}> : (tensor<6755192832xbf16>) -> tensor<45088768xbf16>
    %232 = "tensor.expand_shape"(%231) <{reassociation = [[0, 1]]}> : (tensor<45088768xbf16>) -> tensor<11008x4096xbf16>
    %233 = "tensor.extract_slice"(%arg0) <{operandSegmentSizes = array<i32: 1, 0, 0, 0>, static_offsets = array<i64: 2514751488>, static_sizes = array<i64: 45088768>, static_strides = array<i64: 1>}> : (tensor<6755192832xbf16>) -> tensor<45088768xbf16>
    %234 = "tensor.expand_shape"(%233) <{reassociation = [[0, 1]]}> : (tensor<45088768xbf16>) -> tensor<4096x11008xbf16>
    %235 = "tensor.extract_slice"(%arg0) <{operandSegmentSizes = array<i32: 1, 0, 0, 0>, static_offsets = array<i64: 2559840256>, static_sizes = array<i64: 16777216>, static_strides = array<i64: 1>}> : (tensor<6755192832xbf16>) -> tensor<16777216xbf16>
    %236 = "tensor.expand_shape"(%235) <{reassociation = [[0, 1]]}> : (tensor<16777216xbf16>) -> tensor<4096x4096xbf16>
    %237 = "tensor.extract_slice"(%arg0) <{operandSegmentSizes = array<i32: 1, 0, 0, 0>, static_offsets = array<i64: 2576617472>, static_sizes = array<i64: 16777216>, static_strides = array<i64: 1>}> : (tensor<6755192832xbf16>) -> tensor<16777216xbf16>
    %238 = "tensor.expand_shape"(%237) <{reassociation = [[0, 1]]}> : (tensor<16777216xbf16>) -> tensor<4096x4096xbf16>
    %239 = "tensor.extract_slice"(%arg0) <{operandSegmentSizes = array<i32: 1, 0, 0, 0>, static_offsets = array<i64: 2593394688>, static_sizes = array<i64: 16777216>, static_strides = array<i64: 1>}> : (tensor<6755192832xbf16>) -> tensor<16777216xbf16>
    %240 = "tensor.expand_shape"(%239) <{reassociation = [[0, 1]]}> : (tensor<16777216xbf16>) -> tensor<4096x4096xbf16>
    %241 = "tensor.extract_slice"(%arg0) <{operandSegmentSizes = array<i32: 1, 0, 0, 0>, static_offsets = array<i64: 2610171904>, static_sizes = array<i64: 16777216>, static_strides = array<i64: 1>}> : (tensor<6755192832xbf16>) -> tensor<16777216xbf16>
    %242 = "tensor.expand_shape"(%241) <{reassociation = [[0, 1]]}> : (tensor<16777216xbf16>) -> tensor<4096x4096xbf16>
    %243 = "tensor.extract_slice"(%arg0) <{operandSegmentSizes = array<i32: 1, 0, 0, 0>, static_offsets = array<i64: 2626949120>, static_sizes = array<i64: 45088768>, static_strides = array<i64: 1>}> : (tensor<6755192832xbf16>) -> tensor<45088768xbf16>
    %244 = "tensor.expand_shape"(%243) <{reassociation = [[0, 1]]}> : (tensor<45088768xbf16>) -> tensor<11008x4096xbf16>
    %245 = "tensor.extract_slice"(%arg0) <{operandSegmentSizes = array<i32: 1, 0, 0, 0>, static_offsets = array<i64: 2672037888>, static_sizes = array<i64: 45088768>, static_strides = array<i64: 1>}> : (tensor<6755192832xbf16>) -> tensor<45088768xbf16>
    %246 = "tensor.expand_shape"(%245) <{reassociation = [[0, 1]]}> : (tensor<45088768xbf16>) -> tensor<11008x4096xbf16>
    %247 = "tensor.extract_slice"(%arg0) <{operandSegmentSizes = array<i32: 1, 0, 0, 0>, static_offsets = array<i64: 2717126656>, static_sizes = array<i64: 45088768>, static_strides = array<i64: 1>}> : (tensor<6755192832xbf16>) -> tensor<45088768xbf16>
    %248 = "tensor.expand_shape"(%247) <{reassociation = [[0, 1]]}> : (tensor<45088768xbf16>) -> tensor<4096x11008xbf16>
    %249 = "tensor.extract_slice"(%arg0) <{operandSegmentSizes = array<i32: 1, 0, 0, 0>, static_offsets = array<i64: 2762215424>, static_sizes = array<i64: 16777216>, static_strides = array<i64: 1>}> : (tensor<6755192832xbf16>) -> tensor<16777216xbf16>
    %250 = "tensor.expand_shape"(%249) <{reassociation = [[0, 1]]}> : (tensor<16777216xbf16>) -> tensor<4096x4096xbf16>
    %251 = "tensor.extract_slice"(%arg0) <{operandSegmentSizes = array<i32: 1, 0, 0, 0>, static_offsets = array<i64: 2778992640>, static_sizes = array<i64: 16777216>, static_strides = array<i64: 1>}> : (tensor<6755192832xbf16>) -> tensor<16777216xbf16>
    %252 = "tensor.expand_shape"(%251) <{reassociation = [[0, 1]]}> : (tensor<16777216xbf16>) -> tensor<4096x4096xbf16>
    %253 = "tensor.extract_slice"(%arg0) <{operandSegmentSizes = array<i32: 1, 0, 0, 0>, static_offsets = array<i64: 2795769856>, static_sizes = array<i64: 16777216>, static_strides = array<i64: 1>}> : (tensor<6755192832xbf16>) -> tensor<16777216xbf16>
    %254 = "tensor.expand_shape"(%253) <{reassociation = [[0, 1]]}> : (tensor<16777216xbf16>) -> tensor<4096x4096xbf16>
    %255 = "tensor.extract_slice"(%arg0) <{operandSegmentSizes = array<i32: 1, 0, 0, 0>, static_offsets = array<i64: 2812547072>, static_sizes = array<i64: 16777216>, static_strides = array<i64: 1>}> : (tensor<6755192832xbf16>) -> tensor<16777216xbf16>
    %256 = "tensor.expand_shape"(%255) <{reassociation = [[0, 1]]}> : (tensor<16777216xbf16>) -> tensor<4096x4096xbf16>
    %257 = "tensor.extract_slice"(%arg0) <{operandSegmentSizes = array<i32: 1, 0, 0, 0>, static_offsets = array<i64: 2829324288>, static_sizes = array<i64: 45088768>, static_strides = array<i64: 1>}> : (tensor<6755192832xbf16>) -> tensor<45088768xbf16>
    %258 = "tensor.expand_shape"(%257) <{reassociation = [[0, 1]]}> : (tensor<45088768xbf16>) -> tensor<11008x4096xbf16>
    %259 = "tensor.extract_slice"(%arg0) <{operandSegmentSizes = array<i32: 1, 0, 0, 0>, static_offsets = array<i64: 2874413056>, static_sizes = array<i64: 45088768>, static_strides = array<i64: 1>}> : (tensor<6755192832xbf16>) -> tensor<45088768xbf16>
    %260 = "tensor.expand_shape"(%259) <{reassociation = [[0, 1]]}> : (tensor<45088768xbf16>) -> tensor<11008x4096xbf16>
    %261 = "tensor.extract_slice"(%arg0) <{operandSegmentSizes = array<i32: 1, 0, 0, 0>, static_offsets = array<i64: 2919501824>, static_sizes = array<i64: 45088768>, static_strides = array<i64: 1>}> : (tensor<6755192832xbf16>) -> tensor<45088768xbf16>
    %262 = "tensor.expand_shape"(%261) <{reassociation = [[0, 1]]}> : (tensor<45088768xbf16>) -> tensor<4096x11008xbf16>
    %263 = "tensor.extract_slice"(%arg0) <{operandSegmentSizes = array<i32: 1, 0, 0, 0>, static_offsets = array<i64: 2964590592>, static_sizes = array<i64: 16777216>, static_strides = array<i64: 1>}> : (tensor<6755192832xbf16>) -> tensor<16777216xbf16>
    %264 = "tensor.expand_shape"(%263) <{reassociation = [[0, 1]]}> : (tensor<16777216xbf16>) -> tensor<4096x4096xbf16>
    %265 = "tensor.extract_slice"(%arg0) <{operandSegmentSizes = array<i32: 1, 0, 0, 0>, static_offsets = array<i64: 2981367808>, static_sizes = array<i64: 16777216>, static_strides = array<i64: 1>}> : (tensor<6755192832xbf16>) -> tensor<16777216xbf16>
    %266 = "tensor.expand_shape"(%265) <{reassociation = [[0, 1]]}> : (tensor<16777216xbf16>) -> tensor<4096x4096xbf16>
    %267 = "tensor.extract_slice"(%arg0) <{operandSegmentSizes = array<i32: 1, 0, 0, 0>, static_offsets = array<i64: 2998145024>, static_sizes = array<i64: 16777216>, static_strides = array<i64: 1>}> : (tensor<6755192832xbf16>) -> tensor<16777216xbf16>
    %268 = "tensor.expand_shape"(%267) <{reassociation = [[0, 1]]}> : (tensor<16777216xbf16>) -> tensor<4096x4096xbf16>
    %269 = "tensor.extract_slice"(%arg0) <{operandSegmentSizes = array<i32: 1, 0, 0, 0>, static_offsets = array<i64: 3014922240>, static_sizes = array<i64: 16777216>, static_strides = array<i64: 1>}> : (tensor<6755192832xbf16>) -> tensor<16777216xbf16>
    %270 = "tensor.expand_shape"(%269) <{reassociation = [[0, 1]]}> : (tensor<16777216xbf16>) -> tensor<4096x4096xbf16>
    %271 = "tensor.extract_slice"(%arg0) <{operandSegmentSizes = array<i32: 1, 0, 0, 0>, static_offsets = array<i64: 3031699456>, static_sizes = array<i64: 45088768>, static_strides = array<i64: 1>}> : (tensor<6755192832xbf16>) -> tensor<45088768xbf16>
    %272 = "tensor.expand_shape"(%271) <{reassociation = [[0, 1]]}> : (tensor<45088768xbf16>) -> tensor<11008x4096xbf16>
    %273 = "tensor.extract_slice"(%arg0) <{operandSegmentSizes = array<i32: 1, 0, 0, 0>, static_offsets = array<i64: 3076788224>, static_sizes = array<i64: 45088768>, static_strides = array<i64: 1>}> : (tensor<6755192832xbf16>) -> tensor<45088768xbf16>
    %274 = "tensor.expand_shape"(%273) <{reassociation = [[0, 1]]}> : (tensor<45088768xbf16>) -> tensor<11008x4096xbf16>
    %275 = "tensor.extract_slice"(%arg0) <{operandSegmentSizes = array<i32: 1, 0, 0, 0>, static_offsets = array<i64: 3121876992>, static_sizes = array<i64: 45088768>, static_strides = array<i64: 1>}> : (tensor<6755192832xbf16>) -> tensor<45088768xbf16>
    %276 = "tensor.expand_shape"(%275) <{reassociation = [[0, 1]]}> : (tensor<45088768xbf16>) -> tensor<4096x11008xbf16>
    %277 = "tensor.extract_slice"(%arg0) <{operandSegmentSizes = array<i32: 1, 0, 0, 0>, static_offsets = array<i64: 3166965760>, static_sizes = array<i64: 16777216>, static_strides = array<i64: 1>}> : (tensor<6755192832xbf16>) -> tensor<16777216xbf16>
    %278 = "tensor.expand_shape"(%277) <{reassociation = [[0, 1]]}> : (tensor<16777216xbf16>) -> tensor<4096x4096xbf16>
    %279 = "tensor.extract_slice"(%arg0) <{operandSegmentSizes = array<i32: 1, 0, 0, 0>, static_offsets = array<i64: 3183742976>, static_sizes = array<i64: 16777216>, static_strides = array<i64: 1>}> : (tensor<6755192832xbf16>) -> tensor<16777216xbf16>
    %280 = "tensor.expand_shape"(%279) <{reassociation = [[0, 1]]}> : (tensor<16777216xbf16>) -> tensor<4096x4096xbf16>
    %281 = "tensor.extract_slice"(%arg0) <{operandSegmentSizes = array<i32: 1, 0, 0, 0>, static_offsets = array<i64: 3200520192>, static_sizes = array<i64: 16777216>, static_strides = array<i64: 1>}> : (tensor<6755192832xbf16>) -> tensor<16777216xbf16>
    %282 = "tensor.expand_shape"(%281) <{reassociation = [[0, 1]]}> : (tensor<16777216xbf16>) -> tensor<4096x4096xbf16>
    %283 = "tensor.extract_slice"(%arg0) <{operandSegmentSizes = array<i32: 1, 0, 0, 0>, static_offsets = array<i64: 3217297408>, static_sizes = array<i64: 16777216>, static_strides = array<i64: 1>}> : (tensor<6755192832xbf16>) -> tensor<16777216xbf16>
    %284 = "tensor.expand_shape"(%283) <{reassociation = [[0, 1]]}> : (tensor<16777216xbf16>) -> tensor<4096x4096xbf16>
    %285 = "tensor.extract_slice"(%arg0) <{operandSegmentSizes = array<i32: 1, 0, 0, 0>, static_offsets = array<i64: 3234074624>, static_sizes = array<i64: 45088768>, static_strides = array<i64: 1>}> : (tensor<6755192832xbf16>) -> tensor<45088768xbf16>
    %286 = "tensor.expand_shape"(%285) <{reassociation = [[0, 1]]}> : (tensor<45088768xbf16>) -> tensor<11008x4096xbf16>
    %287 = "tensor.extract_slice"(%arg0) <{operandSegmentSizes = array<i32: 1, 0, 0, 0>, static_offsets = array<i64: 3279163392>, static_sizes = array<i64: 45088768>, static_strides = array<i64: 1>}> : (tensor<6755192832xbf16>) -> tensor<45088768xbf16>
    %288 = "tensor.expand_shape"(%287) <{reassociation = [[0, 1]]}> : (tensor<45088768xbf16>) -> tensor<11008x4096xbf16>
    %289 = "tensor.extract_slice"(%arg0) <{operandSegmentSizes = array<i32: 1, 0, 0, 0>, static_offsets = array<i64: 3324252160>, static_sizes = array<i64: 45088768>, static_strides = array<i64: 1>}> : (tensor<6755192832xbf16>) -> tensor<45088768xbf16>
    %290 = "tensor.expand_shape"(%289) <{reassociation = [[0, 1]]}> : (tensor<45088768xbf16>) -> tensor<4096x11008xbf16>
    %291 = "tensor.extract_slice"(%arg0) <{operandSegmentSizes = array<i32: 1, 0, 0, 0>, static_offsets = array<i64: 3369340928>, static_sizes = array<i64: 16777216>, static_strides = array<i64: 1>}> : (tensor<6755192832xbf16>) -> tensor<16777216xbf16>
    %292 = "tensor.expand_shape"(%291) <{reassociation = [[0, 1]]}> : (tensor<16777216xbf16>) -> tensor<4096x4096xbf16>
    %293 = "tensor.extract_slice"(%arg0) <{operandSegmentSizes = array<i32: 1, 0, 0, 0>, static_offsets = array<i64: 3386118144>, static_sizes = array<i64: 16777216>, static_strides = array<i64: 1>}> : (tensor<6755192832xbf16>) -> tensor<16777216xbf16>
    %294 = "tensor.expand_shape"(%293) <{reassociation = [[0, 1]]}> : (tensor<16777216xbf16>) -> tensor<4096x4096xbf16>
    %295 = "tensor.extract_slice"(%arg0) <{operandSegmentSizes = array<i32: 1, 0, 0, 0>, static_offsets = array<i64: 3402895360>, static_sizes = array<i64: 16777216>, static_strides = array<i64: 1>}> : (tensor<6755192832xbf16>) -> tensor<16777216xbf16>
    %296 = "tensor.expand_shape"(%295) <{reassociation = [[0, 1]]}> : (tensor<16777216xbf16>) -> tensor<4096x4096xbf16>
    %297 = "tensor.extract_slice"(%arg0) <{operandSegmentSizes = array<i32: 1, 0, 0, 0>, static_offsets = array<i64: 3419672576>, static_sizes = array<i64: 16777216>, static_strides = array<i64: 1>}> : (tensor<6755192832xbf16>) -> tensor<16777216xbf16>
    %298 = "tensor.expand_shape"(%297) <{reassociation = [[0, 1]]}> : (tensor<16777216xbf16>) -> tensor<4096x4096xbf16>
    %299 = "tensor.extract_slice"(%arg0) <{operandSegmentSizes = array<i32: 1, 0, 0, 0>, static_offsets = array<i64: 3436449792>, static_sizes = array<i64: 45088768>, static_strides = array<i64: 1>}> : (tensor<6755192832xbf16>) -> tensor<45088768xbf16>
    %300 = "tensor.expand_shape"(%299) <{reassociation = [[0, 1]]}> : (tensor<45088768xbf16>) -> tensor<11008x4096xbf16>
    %301 = "tensor.extract_slice"(%arg0) <{operandSegmentSizes = array<i32: 1, 0, 0, 0>, static_offsets = array<i64: 3481538560>, static_sizes = array<i64: 45088768>, static_strides = array<i64: 1>}> : (tensor<6755192832xbf16>) -> tensor<45088768xbf16>
    %302 = "tensor.expand_shape"(%301) <{reassociation = [[0, 1]]}> : (tensor<45088768xbf16>) -> tensor<11008x4096xbf16>
    %303 = "tensor.extract_slice"(%arg0) <{operandSegmentSizes = array<i32: 1, 0, 0, 0>, static_offsets = array<i64: 3526627328>, static_sizes = array<i64: 45088768>, static_strides = array<i64: 1>}> : (tensor<6755192832xbf16>) -> tensor<45088768xbf16>
    %304 = "tensor.expand_shape"(%303) <{reassociation = [[0, 1]]}> : (tensor<45088768xbf16>) -> tensor<4096x11008xbf16>
    %305 = "tensor.extract_slice"(%arg0) <{operandSegmentSizes = array<i32: 1, 0, 0, 0>, static_offsets = array<i64: 3571716096>, static_sizes = array<i64: 16777216>, static_strides = array<i64: 1>}> : (tensor<6755192832xbf16>) -> tensor<16777216xbf16>
    %306 = "tensor.expand_shape"(%305) <{reassociation = [[0, 1]]}> : (tensor<16777216xbf16>) -> tensor<4096x4096xbf16>
    %307 = "tensor.extract_slice"(%arg0) <{operandSegmentSizes = array<i32: 1, 0, 0, 0>, static_offsets = array<i64: 3588493312>, static_sizes = array<i64: 16777216>, static_strides = array<i64: 1>}> : (tensor<6755192832xbf16>) -> tensor<16777216xbf16>
    %308 = "tensor.expand_shape"(%307) <{reassociation = [[0, 1]]}> : (tensor<16777216xbf16>) -> tensor<4096x4096xbf16>
    %309 = "tensor.extract_slice"(%arg0) <{operandSegmentSizes = array<i32: 1, 0, 0, 0>, static_offsets = array<i64: 3605270528>, static_sizes = array<i64: 16777216>, static_strides = array<i64: 1>}> : (tensor<6755192832xbf16>) -> tensor<16777216xbf16>
    %310 = "tensor.expand_shape"(%309) <{reassociation = [[0, 1]]}> : (tensor<16777216xbf16>) -> tensor<4096x4096xbf16>
    %311 = "tensor.extract_slice"(%arg0) <{operandSegmentSizes = array<i32: 1, 0, 0, 0>, static_offsets = array<i64: 3622047744>, static_sizes = array<i64: 16777216>, static_strides = array<i64: 1>}> : (tensor<6755192832xbf16>) -> tensor<16777216xbf16>
    %312 = "tensor.expand_shape"(%311) <{reassociation = [[0, 1]]}> : (tensor<16777216xbf16>) -> tensor<4096x4096xbf16>
    %313 = "tensor.extract_slice"(%arg0) <{operandSegmentSizes = array<i32: 1, 0, 0, 0>, static_offsets = array<i64: 3638824960>, static_sizes = array<i64: 45088768>, static_strides = array<i64: 1>}> : (tensor<6755192832xbf16>) -> tensor<45088768xbf16>
    %314 = "tensor.expand_shape"(%313) <{reassociation = [[0, 1]]}> : (tensor<45088768xbf16>) -> tensor<11008x4096xbf16>
    %315 = "tensor.extract_slice"(%arg0) <{operandSegmentSizes = array<i32: 1, 0, 0, 0>, static_offsets = array<i64: 3683913728>, static_sizes = array<i64: 45088768>, static_strides = array<i64: 1>}> : (tensor<6755192832xbf16>) -> tensor<45088768xbf16>
    %316 = "tensor.expand_shape"(%315) <{reassociation = [[0, 1]]}> : (tensor<45088768xbf16>) -> tensor<11008x4096xbf16>
    %317 = "tensor.extract_slice"(%arg0) <{operandSegmentSizes = array<i32: 1, 0, 0, 0>, static_offsets = array<i64: 3729002496>, static_sizes = array<i64: 45088768>, static_strides = array<i64: 1>}> : (tensor<6755192832xbf16>) -> tensor<45088768xbf16>
    %318 = "tensor.expand_shape"(%317) <{reassociation = [[0, 1]]}> : (tensor<45088768xbf16>) -> tensor<4096x11008xbf16>
    %319 = "tensor.extract_slice"(%arg0) <{operandSegmentSizes = array<i32: 1, 0, 0, 0>, static_offsets = array<i64: 3774091264>, static_sizes = array<i64: 16777216>, static_strides = array<i64: 1>}> : (tensor<6755192832xbf16>) -> tensor<16777216xbf16>
    %320 = "tensor.expand_shape"(%319) <{reassociation = [[0, 1]]}> : (tensor<16777216xbf16>) -> tensor<4096x4096xbf16>
    %321 = "tensor.extract_slice"(%arg0) <{operandSegmentSizes = array<i32: 1, 0, 0, 0>, static_offsets = array<i64: 3790868480>, static_sizes = array<i64: 16777216>, static_strides = array<i64: 1>}> : (tensor<6755192832xbf16>) -> tensor<16777216xbf16>
    %322 = "tensor.expand_shape"(%321) <{reassociation = [[0, 1]]}> : (tensor<16777216xbf16>) -> tensor<4096x4096xbf16>
    %323 = "tensor.extract_slice"(%arg0) <{operandSegmentSizes = array<i32: 1, 0, 0, 0>, static_offsets = array<i64: 3807645696>, static_sizes = array<i64: 16777216>, static_strides = array<i64: 1>}> : (tensor<6755192832xbf16>) -> tensor<16777216xbf16>
    %324 = "tensor.expand_shape"(%323) <{reassociation = [[0, 1]]}> : (tensor<16777216xbf16>) -> tensor<4096x4096xbf16>
    %325 = "tensor.extract_slice"(%arg0) <{operandSegmentSizes = array<i32: 1, 0, 0, 0>, static_offsets = array<i64: 3824422912>, static_sizes = array<i64: 16777216>, static_strides = array<i64: 1>}> : (tensor<6755192832xbf16>) -> tensor<16777216xbf16>
    %326 = "tensor.expand_shape"(%325) <{reassociation = [[0, 1]]}> : (tensor<16777216xbf16>) -> tensor<4096x4096xbf16>
    %327 = "tensor.extract_slice"(%arg0) <{operandSegmentSizes = array<i32: 1, 0, 0, 0>, static_offsets = array<i64: 3841200128>, static_sizes = array<i64: 45088768>, static_strides = array<i64: 1>}> : (tensor<6755192832xbf16>) -> tensor<45088768xbf16>
    %328 = "tensor.expand_shape"(%327) <{reassociation = [[0, 1]]}> : (tensor<45088768xbf16>) -> tensor<11008x4096xbf16>
    %329 = "tensor.extract_slice"(%arg0) <{operandSegmentSizes = array<i32: 1, 0, 0, 0>, static_offsets = array<i64: 3886288896>, static_sizes = array<i64: 45088768>, static_strides = array<i64: 1>}> : (tensor<6755192832xbf16>) -> tensor<45088768xbf16>
    %330 = "tensor.expand_shape"(%329) <{reassociation = [[0, 1]]}> : (tensor<45088768xbf16>) -> tensor<11008x4096xbf16>
    %331 = "tensor.extract_slice"(%arg0) <{operandSegmentSizes = array<i32: 1, 0, 0, 0>, static_offsets = array<i64: 3931377664>, static_sizes = array<i64: 45088768>, static_strides = array<i64: 1>}> : (tensor<6755192832xbf16>) -> tensor<45088768xbf16>
    %332 = "tensor.expand_shape"(%331) <{reassociation = [[0, 1]]}> : (tensor<45088768xbf16>) -> tensor<4096x11008xbf16>
    %333 = "tensor.extract_slice"(%arg0) <{operandSegmentSizes = array<i32: 1, 0, 0, 0>, static_offsets = array<i64: 3976466432>, static_sizes = array<i64: 16777216>, static_strides = array<i64: 1>}> : (tensor<6755192832xbf16>) -> tensor<16777216xbf16>
    %334 = "tensor.expand_shape"(%333) <{reassociation = [[0, 1]]}> : (tensor<16777216xbf16>) -> tensor<4096x4096xbf16>
    %335 = "tensor.extract_slice"(%arg0) <{operandSegmentSizes = array<i32: 1, 0, 0, 0>, static_offsets = array<i64: 3993243648>, static_sizes = array<i64: 16777216>, static_strides = array<i64: 1>}> : (tensor<6755192832xbf16>) -> tensor<16777216xbf16>
    %336 = "tensor.expand_shape"(%335) <{reassociation = [[0, 1]]}> : (tensor<16777216xbf16>) -> tensor<4096x4096xbf16>
    %337 = "tensor.extract_slice"(%arg0) <{operandSegmentSizes = array<i32: 1, 0, 0, 0>, static_offsets = array<i64: 4010020864>, static_sizes = array<i64: 16777216>, static_strides = array<i64: 1>}> : (tensor<6755192832xbf16>) -> tensor<16777216xbf16>
    %338 = "tensor.expand_shape"(%337) <{reassociation = [[0, 1]]}> : (tensor<16777216xbf16>) -> tensor<4096x4096xbf16>
    %339 = "tensor.extract_slice"(%arg0) <{operandSegmentSizes = array<i32: 1, 0, 0, 0>, static_offsets = array<i64: 4026798080>, static_sizes = array<i64: 16777216>, static_strides = array<i64: 1>}> : (tensor<6755192832xbf16>) -> tensor<16777216xbf16>
    %340 = "tensor.expand_shape"(%339) <{reassociation = [[0, 1]]}> : (tensor<16777216xbf16>) -> tensor<4096x4096xbf16>
    %341 = "tensor.extract_slice"(%arg0) <{operandSegmentSizes = array<i32: 1, 0, 0, 0>, static_offsets = array<i64: 4043575296>, static_sizes = array<i64: 45088768>, static_strides = array<i64: 1>}> : (tensor<6755192832xbf16>) -> tensor<45088768xbf16>
    %342 = "tensor.expand_shape"(%341) <{reassociation = [[0, 1]]}> : (tensor<45088768xbf16>) -> tensor<11008x4096xbf16>
    %343 = "tensor.extract_slice"(%arg0) <{operandSegmentSizes = array<i32: 1, 0, 0, 0>, static_offsets = array<i64: 4088664064>, static_sizes = array<i64: 45088768>, static_strides = array<i64: 1>}> : (tensor<6755192832xbf16>) -> tensor<45088768xbf16>
    %344 = "tensor.expand_shape"(%343) <{reassociation = [[0, 1]]}> : (tensor<45088768xbf16>) -> tensor<11008x4096xbf16>
    %345 = "tensor.extract_slice"(%arg0) <{operandSegmentSizes = array<i32: 1, 0, 0, 0>, static_offsets = array<i64: 4133752832>, static_sizes = array<i64: 45088768>, static_strides = array<i64: 1>}> : (tensor<6755192832xbf16>) -> tensor<45088768xbf16>
    %346 = "tensor.expand_shape"(%345) <{reassociation = [[0, 1]]}> : (tensor<45088768xbf16>) -> tensor<4096x11008xbf16>
    %347 = "tensor.extract_slice"(%arg0) <{operandSegmentSizes = array<i32: 1, 0, 0, 0>, static_offsets = array<i64: 4178841600>, static_sizes = array<i64: 16777216>, static_strides = array<i64: 1>}> : (tensor<6755192832xbf16>) -> tensor<16777216xbf16>
    %348 = "tensor.expand_shape"(%347) <{reassociation = [[0, 1]]}> : (tensor<16777216xbf16>) -> tensor<4096x4096xbf16>
    %349 = "tensor.extract_slice"(%arg0) <{operandSegmentSizes = array<i32: 1, 0, 0, 0>, static_offsets = array<i64: 4195618816>, static_sizes = array<i64: 16777216>, static_strides = array<i64: 1>}> : (tensor<6755192832xbf16>) -> tensor<16777216xbf16>
    %350 = "tensor.expand_shape"(%349) <{reassociation = [[0, 1]]}> : (tensor<16777216xbf16>) -> tensor<4096x4096xbf16>
    %351 = "tensor.extract_slice"(%arg0) <{operandSegmentSizes = array<i32: 1, 0, 0, 0>, static_offsets = array<i64: 4212396032>, static_sizes = array<i64: 16777216>, static_strides = array<i64: 1>}> : (tensor<6755192832xbf16>) -> tensor<16777216xbf16>
    %352 = "tensor.expand_shape"(%351) <{reassociation = [[0, 1]]}> : (tensor<16777216xbf16>) -> tensor<4096x4096xbf16>
    %353 = "tensor.extract_slice"(%arg0) <{operandSegmentSizes = array<i32: 1, 0, 0, 0>, static_offsets = array<i64: 4229173248>, static_sizes = array<i64: 16777216>, static_strides = array<i64: 1>}> : (tensor<6755192832xbf16>) -> tensor<16777216xbf16>
    %354 = "tensor.expand_shape"(%353) <{reassociation = [[0, 1]]}> : (tensor<16777216xbf16>) -> tensor<4096x4096xbf16>
    %355 = "tensor.extract_slice"(%arg0) <{operandSegmentSizes = array<i32: 1, 0, 0, 0>, static_offsets = array<i64: 4245950464>, static_sizes = array<i64: 45088768>, static_strides = array<i64: 1>}> : (tensor<6755192832xbf16>) -> tensor<45088768xbf16>
    %356 = "tensor.expand_shape"(%355) <{reassociation = [[0, 1]]}> : (tensor<45088768xbf16>) -> tensor<11008x4096xbf16>
    %357 = "tensor.extract_slice"(%arg0) <{operandSegmentSizes = array<i32: 1, 0, 0, 0>, static_offsets = array<i64: 4291039232>, static_sizes = array<i64: 45088768>, static_strides = array<i64: 1>}> : (tensor<6755192832xbf16>) -> tensor<45088768xbf16>
    %358 = "tensor.expand_shape"(%357) <{reassociation = [[0, 1]]}> : (tensor<45088768xbf16>) -> tensor<11008x4096xbf16>
    %359 = "tensor.extract_slice"(%arg0) <{operandSegmentSizes = array<i32: 1, 0, 0, 0>, static_offsets = array<i64: 4336128000>, static_sizes = array<i64: 45088768>, static_strides = array<i64: 1>}> : (tensor<6755192832xbf16>) -> tensor<45088768xbf16>
    %360 = "tensor.expand_shape"(%359) <{reassociation = [[0, 1]]}> : (tensor<45088768xbf16>) -> tensor<4096x11008xbf16>
    %361 = "tensor.extract_slice"(%arg0) <{operandSegmentSizes = array<i32: 1, 0, 0, 0>, static_offsets = array<i64: 4381216768>, static_sizes = array<i64: 16777216>, static_strides = array<i64: 1>}> : (tensor<6755192832xbf16>) -> tensor<16777216xbf16>
    %362 = "tensor.expand_shape"(%361) <{reassociation = [[0, 1]]}> : (tensor<16777216xbf16>) -> tensor<4096x4096xbf16>
    %363 = "tensor.extract_slice"(%arg0) <{operandSegmentSizes = array<i32: 1, 0, 0, 0>, static_offsets = array<i64: 4397993984>, static_sizes = array<i64: 16777216>, static_strides = array<i64: 1>}> : (tensor<6755192832xbf16>) -> tensor<16777216xbf16>
    %364 = "tensor.expand_shape"(%363) <{reassociation = [[0, 1]]}> : (tensor<16777216xbf16>) -> tensor<4096x4096xbf16>
    %365 = "tensor.extract_slice"(%arg0) <{operandSegmentSizes = array<i32: 1, 0, 0, 0>, static_offsets = array<i64: 4414771200>, static_sizes = array<i64: 16777216>, static_strides = array<i64: 1>}> : (tensor<6755192832xbf16>) -> tensor<16777216xbf16>
    %366 = "tensor.expand_shape"(%365) <{reassociation = [[0, 1]]}> : (tensor<16777216xbf16>) -> tensor<4096x4096xbf16>
    %367 = "tensor.extract_slice"(%arg0) <{operandSegmentSizes = array<i32: 1, 0, 0, 0>, static_offsets = array<i64: 4431548416>, static_sizes = array<i64: 16777216>, static_strides = array<i64: 1>}> : (tensor<6755192832xbf16>) -> tensor<16777216xbf16>
    %368 = "tensor.expand_shape"(%367) <{reassociation = [[0, 1]]}> : (tensor<16777216xbf16>) -> tensor<4096x4096xbf16>
    %369 = "tensor.extract_slice"(%arg0) <{operandSegmentSizes = array<i32: 1, 0, 0, 0>, static_offsets = array<i64: 4448325632>, static_sizes = array<i64: 45088768>, static_strides = array<i64: 1>}> : (tensor<6755192832xbf16>) -> tensor<45088768xbf16>
    %370 = "tensor.expand_shape"(%369) <{reassociation = [[0, 1]]}> : (tensor<45088768xbf16>) -> tensor<11008x4096xbf16>
    %371 = "tensor.extract_slice"(%arg0) <{operandSegmentSizes = array<i32: 1, 0, 0, 0>, static_offsets = array<i64: 4493414400>, static_sizes = array<i64: 45088768>, static_strides = array<i64: 1>}> : (tensor<6755192832xbf16>) -> tensor<45088768xbf16>
    %372 = "tensor.expand_shape"(%371) <{reassociation = [[0, 1]]}> : (tensor<45088768xbf16>) -> tensor<11008x4096xbf16>
    %373 = "tensor.extract_slice"(%arg0) <{operandSegmentSizes = array<i32: 1, 0, 0, 0>, static_offsets = array<i64: 4538503168>, static_sizes = array<i64: 45088768>, static_strides = array<i64: 1>}> : (tensor<6755192832xbf16>) -> tensor<45088768xbf16>
    %374 = "tensor.expand_shape"(%373) <{reassociation = [[0, 1]]}> : (tensor<45088768xbf16>) -> tensor<4096x11008xbf16>
    %375 = "tensor.extract_slice"(%arg0) <{operandSegmentSizes = array<i32: 1, 0, 0, 0>, static_offsets = array<i64: 4583591936>, static_sizes = array<i64: 16777216>, static_strides = array<i64: 1>}> : (tensor<6755192832xbf16>) -> tensor<16777216xbf16>
    %376 = "tensor.expand_shape"(%375) <{reassociation = [[0, 1]]}> : (tensor<16777216xbf16>) -> tensor<4096x4096xbf16>
    %377 = "tensor.extract_slice"(%arg0) <{operandSegmentSizes = array<i32: 1, 0, 0, 0>, static_offsets = array<i64: 4600369152>, static_sizes = array<i64: 16777216>, static_strides = array<i64: 1>}> : (tensor<6755192832xbf16>) -> tensor<16777216xbf16>
    %378 = "tensor.expand_shape"(%377) <{reassociation = [[0, 1]]}> : (tensor<16777216xbf16>) -> tensor<4096x4096xbf16>
    %379 = "tensor.extract_slice"(%arg0) <{operandSegmentSizes = array<i32: 1, 0, 0, 0>, static_offsets = array<i64: 4617146368>, static_sizes = array<i64: 16777216>, static_strides = array<i64: 1>}> : (tensor<6755192832xbf16>) -> tensor<16777216xbf16>
    %380 = "tensor.expand_shape"(%379) <{reassociation = [[0, 1]]}> : (tensor<16777216xbf16>) -> tensor<4096x4096xbf16>
    %381 = "tensor.extract_slice"(%arg0) <{operandSegmentSizes = array<i32: 1, 0, 0, 0>, static_offsets = array<i64: 4633923584>, static_sizes = array<i64: 16777216>, static_strides = array<i64: 1>}> : (tensor<6755192832xbf16>) -> tensor<16777216xbf16>
    %382 = "tensor.expand_shape"(%381) <{reassociation = [[0, 1]]}> : (tensor<16777216xbf16>) -> tensor<4096x4096xbf16>
    %383 = "tensor.extract_slice"(%arg0) <{operandSegmentSizes = array<i32: 1, 0, 0, 0>, static_offsets = array<i64: 4650700800>, static_sizes = array<i64: 45088768>, static_strides = array<i64: 1>}> : (tensor<6755192832xbf16>) -> tensor<45088768xbf16>
    %384 = "tensor.expand_shape"(%383) <{reassociation = [[0, 1]]}> : (tensor<45088768xbf16>) -> tensor<11008x4096xbf16>
    %385 = "tensor.extract_slice"(%arg0) <{operandSegmentSizes = array<i32: 1, 0, 0, 0>, static_offsets = array<i64: 4695789568>, static_sizes = array<i64: 45088768>, static_strides = array<i64: 1>}> : (tensor<6755192832xbf16>) -> tensor<45088768xbf16>
    %386 = "tensor.expand_shape"(%385) <{reassociation = [[0, 1]]}> : (tensor<45088768xbf16>) -> tensor<11008x4096xbf16>
    %387 = "tensor.extract_slice"(%arg0) <{operandSegmentSizes = array<i32: 1, 0, 0, 0>, static_offsets = array<i64: 4740878336>, static_sizes = array<i64: 45088768>, static_strides = array<i64: 1>}> : (tensor<6755192832xbf16>) -> tensor<45088768xbf16>
    %388 = "tensor.expand_shape"(%387) <{reassociation = [[0, 1]]}> : (tensor<45088768xbf16>) -> tensor<4096x11008xbf16>
    %389 = "tensor.extract_slice"(%arg0) <{operandSegmentSizes = array<i32: 1, 0, 0, 0>, static_offsets = array<i64: 4785967104>, static_sizes = array<i64: 16777216>, static_strides = array<i64: 1>}> : (tensor<6755192832xbf16>) -> tensor<16777216xbf16>
    %390 = "tensor.expand_shape"(%389) <{reassociation = [[0, 1]]}> : (tensor<16777216xbf16>) -> tensor<4096x4096xbf16>
    %391 = "tensor.extract_slice"(%arg0) <{operandSegmentSizes = array<i32: 1, 0, 0, 0>, static_offsets = array<i64: 4802744320>, static_sizes = array<i64: 16777216>, static_strides = array<i64: 1>}> : (tensor<6755192832xbf16>) -> tensor<16777216xbf16>
    %392 = "tensor.expand_shape"(%391) <{reassociation = [[0, 1]]}> : (tensor<16777216xbf16>) -> tensor<4096x4096xbf16>
    %393 = "tensor.extract_slice"(%arg0) <{operandSegmentSizes = array<i32: 1, 0, 0, 0>, static_offsets = array<i64: 4819521536>, static_sizes = array<i64: 16777216>, static_strides = array<i64: 1>}> : (tensor<6755192832xbf16>) -> tensor<16777216xbf16>
    %394 = "tensor.expand_shape"(%393) <{reassociation = [[0, 1]]}> : (tensor<16777216xbf16>) -> tensor<4096x4096xbf16>
    %395 = "tensor.extract_slice"(%arg0) <{operandSegmentSizes = array<i32: 1, 0, 0, 0>, static_offsets = array<i64: 4836298752>, static_sizes = array<i64: 16777216>, static_strides = array<i64: 1>}> : (tensor<6755192832xbf16>) -> tensor<16777216xbf16>
    %396 = "tensor.expand_shape"(%395) <{reassociation = [[0, 1]]}> : (tensor<16777216xbf16>) -> tensor<4096x4096xbf16>
    %397 = "tensor.extract_slice"(%arg0) <{operandSegmentSizes = array<i32: 1, 0, 0, 0>, static_offsets = array<i64: 4853075968>, static_sizes = array<i64: 45088768>, static_strides = array<i64: 1>}> : (tensor<6755192832xbf16>) -> tensor<45088768xbf16>
    %398 = "tensor.expand_shape"(%397) <{reassociation = [[0, 1]]}> : (tensor<45088768xbf16>) -> tensor<11008x4096xbf16>
    %399 = "tensor.extract_slice"(%arg0) <{operandSegmentSizes = array<i32: 1, 0, 0, 0>, static_offsets = array<i64: 4898164736>, static_sizes = array<i64: 45088768>, static_strides = array<i64: 1>}> : (tensor<6755192832xbf16>) -> tensor<45088768xbf16>
    %400 = "tensor.expand_shape"(%399) <{reassociation = [[0, 1]]}> : (tensor<45088768xbf16>) -> tensor<11008x4096xbf16>
    %401 = "tensor.extract_slice"(%arg0) <{operandSegmentSizes = array<i32: 1, 0, 0, 0>, static_offsets = array<i64: 4943253504>, static_sizes = array<i64: 45088768>, static_strides = array<i64: 1>}> : (tensor<6755192832xbf16>) -> tensor<45088768xbf16>
    %402 = "tensor.expand_shape"(%401) <{reassociation = [[0, 1]]}> : (tensor<45088768xbf16>) -> tensor<4096x11008xbf16>
    %403 = "tensor.extract_slice"(%arg0) <{operandSegmentSizes = array<i32: 1, 0, 0, 0>, static_offsets = array<i64: 4988342272>, static_sizes = array<i64: 16777216>, static_strides = array<i64: 1>}> : (tensor<6755192832xbf16>) -> tensor<16777216xbf16>
    %404 = "tensor.expand_shape"(%403) <{reassociation = [[0, 1]]}> : (tensor<16777216xbf16>) -> tensor<4096x4096xbf16>
    %405 = "tensor.extract_slice"(%arg0) <{operandSegmentSizes = array<i32: 1, 0, 0, 0>, static_offsets = array<i64: 5005119488>, static_sizes = array<i64: 16777216>, static_strides = array<i64: 1>}> : (tensor<6755192832xbf16>) -> tensor<16777216xbf16>
    %406 = "tensor.expand_shape"(%405) <{reassociation = [[0, 1]]}> : (tensor<16777216xbf16>) -> tensor<4096x4096xbf16>
    %407 = "tensor.extract_slice"(%arg0) <{operandSegmentSizes = array<i32: 1, 0, 0, 0>, static_offsets = array<i64: 5021896704>, static_sizes = array<i64: 16777216>, static_strides = array<i64: 1>}> : (tensor<6755192832xbf16>) -> tensor<16777216xbf16>
    %408 = "tensor.expand_shape"(%407) <{reassociation = [[0, 1]]}> : (tensor<16777216xbf16>) -> tensor<4096x4096xbf16>
    %409 = "tensor.extract_slice"(%arg0) <{operandSegmentSizes = array<i32: 1, 0, 0, 0>, static_offsets = array<i64: 5038673920>, static_sizes = array<i64: 16777216>, static_strides = array<i64: 1>}> : (tensor<6755192832xbf16>) -> tensor<16777216xbf16>
    %410 = "tensor.expand_shape"(%409) <{reassociation = [[0, 1]]}> : (tensor<16777216xbf16>) -> tensor<4096x4096xbf16>
    %411 = "tensor.extract_slice"(%arg0) <{operandSegmentSizes = array<i32: 1, 0, 0, 0>, static_offsets = array<i64: 5055451136>, static_sizes = array<i64: 45088768>, static_strides = array<i64: 1>}> : (tensor<6755192832xbf16>) -> tensor<45088768xbf16>
    %412 = "tensor.expand_shape"(%411) <{reassociation = [[0, 1]]}> : (tensor<45088768xbf16>) -> tensor<11008x4096xbf16>
    %413 = "tensor.extract_slice"(%arg0) <{operandSegmentSizes = array<i32: 1, 0, 0, 0>, static_offsets = array<i64: 5100539904>, static_sizes = array<i64: 45088768>, static_strides = array<i64: 1>}> : (tensor<6755192832xbf16>) -> tensor<45088768xbf16>
    %414 = "tensor.expand_shape"(%413) <{reassociation = [[0, 1]]}> : (tensor<45088768xbf16>) -> tensor<11008x4096xbf16>
    %415 = "tensor.extract_slice"(%arg0) <{operandSegmentSizes = array<i32: 1, 0, 0, 0>, static_offsets = array<i64: 5145628672>, static_sizes = array<i64: 45088768>, static_strides = array<i64: 1>}> : (tensor<6755192832xbf16>) -> tensor<45088768xbf16>
    %416 = "tensor.expand_shape"(%415) <{reassociation = [[0, 1]]}> : (tensor<45088768xbf16>) -> tensor<4096x11008xbf16>
    %417 = "tensor.extract_slice"(%arg0) <{operandSegmentSizes = array<i32: 1, 0, 0, 0>, static_offsets = array<i64: 5190717440>, static_sizes = array<i64: 16777216>, static_strides = array<i64: 1>}> : (tensor<6755192832xbf16>) -> tensor<16777216xbf16>
    %418 = "tensor.expand_shape"(%417) <{reassociation = [[0, 1]]}> : (tensor<16777216xbf16>) -> tensor<4096x4096xbf16>
    %419 = "tensor.extract_slice"(%arg0) <{operandSegmentSizes = array<i32: 1, 0, 0, 0>, static_offsets = array<i64: 5207494656>, static_sizes = array<i64: 16777216>, static_strides = array<i64: 1>}> : (tensor<6755192832xbf16>) -> tensor<16777216xbf16>
    %420 = "tensor.expand_shape"(%419) <{reassociation = [[0, 1]]}> : (tensor<16777216xbf16>) -> tensor<4096x4096xbf16>
    %421 = "tensor.extract_slice"(%arg0) <{operandSegmentSizes = array<i32: 1, 0, 0, 0>, static_offsets = array<i64: 5224271872>, static_sizes = array<i64: 16777216>, static_strides = array<i64: 1>}> : (tensor<6755192832xbf16>) -> tensor<16777216xbf16>
    %422 = "tensor.expand_shape"(%421) <{reassociation = [[0, 1]]}> : (tensor<16777216xbf16>) -> tensor<4096x4096xbf16>
    %423 = "tensor.extract_slice"(%arg0) <{operandSegmentSizes = array<i32: 1, 0, 0, 0>, static_offsets = array<i64: 5241049088>, static_sizes = array<i64: 16777216>, static_strides = array<i64: 1>}> : (tensor<6755192832xbf16>) -> tensor<16777216xbf16>
    %424 = "tensor.expand_shape"(%423) <{reassociation = [[0, 1]]}> : (tensor<16777216xbf16>) -> tensor<4096x4096xbf16>
    %425 = "tensor.extract_slice"(%arg0) <{operandSegmentSizes = array<i32: 1, 0, 0, 0>, static_offsets = array<i64: 5257826304>, static_sizes = array<i64: 45088768>, static_strides = array<i64: 1>}> : (tensor<6755192832xbf16>) -> tensor<45088768xbf16>
    %426 = "tensor.expand_shape"(%425) <{reassociation = [[0, 1]]}> : (tensor<45088768xbf16>) -> tensor<11008x4096xbf16>
    %427 = "tensor.extract_slice"(%arg0) <{operandSegmentSizes = array<i32: 1, 0, 0, 0>, static_offsets = array<i64: 5302915072>, static_sizes = array<i64: 45088768>, static_strides = array<i64: 1>}> : (tensor<6755192832xbf16>) -> tensor<45088768xbf16>
    %428 = "tensor.expand_shape"(%427) <{reassociation = [[0, 1]]}> : (tensor<45088768xbf16>) -> tensor<11008x4096xbf16>
    %429 = "tensor.extract_slice"(%arg0) <{operandSegmentSizes = array<i32: 1, 0, 0, 0>, static_offsets = array<i64: 5348003840>, static_sizes = array<i64: 45088768>, static_strides = array<i64: 1>}> : (tensor<6755192832xbf16>) -> tensor<45088768xbf16>
    %430 = "tensor.expand_shape"(%429) <{reassociation = [[0, 1]]}> : (tensor<45088768xbf16>) -> tensor<4096x11008xbf16>
    %431 = "tensor.extract_slice"(%arg0) <{operandSegmentSizes = array<i32: 1, 0, 0, 0>, static_offsets = array<i64: 5393092608>, static_sizes = array<i64: 16777216>, static_strides = array<i64: 1>}> : (tensor<6755192832xbf16>) -> tensor<16777216xbf16>
    %432 = "tensor.expand_shape"(%431) <{reassociation = [[0, 1]]}> : (tensor<16777216xbf16>) -> tensor<4096x4096xbf16>
    %433 = "tensor.extract_slice"(%arg0) <{operandSegmentSizes = array<i32: 1, 0, 0, 0>, static_offsets = array<i64: 5409869824>, static_sizes = array<i64: 16777216>, static_strides = array<i64: 1>}> : (tensor<6755192832xbf16>) -> tensor<16777216xbf16>
    %434 = "tensor.expand_shape"(%433) <{reassociation = [[0, 1]]}> : (tensor<16777216xbf16>) -> tensor<4096x4096xbf16>
    %435 = "tensor.extract_slice"(%arg0) <{operandSegmentSizes = array<i32: 1, 0, 0, 0>, static_offsets = array<i64: 5426647040>, static_sizes = array<i64: 16777216>, static_strides = array<i64: 1>}> : (tensor<6755192832xbf16>) -> tensor<16777216xbf16>
    %436 = "tensor.expand_shape"(%435) <{reassociation = [[0, 1]]}> : (tensor<16777216xbf16>) -> tensor<4096x4096xbf16>
    %437 = "tensor.extract_slice"(%arg0) <{operandSegmentSizes = array<i32: 1, 0, 0, 0>, static_offsets = array<i64: 5443424256>, static_sizes = array<i64: 16777216>, static_strides = array<i64: 1>}> : (tensor<6755192832xbf16>) -> tensor<16777216xbf16>
    %438 = "tensor.expand_shape"(%437) <{reassociation = [[0, 1]]}> : (tensor<16777216xbf16>) -> tensor<4096x4096xbf16>
    %439 = "tensor.extract_slice"(%arg0) <{operandSegmentSizes = array<i32: 1, 0, 0, 0>, static_offsets = array<i64: 5460201472>, static_sizes = array<i64: 45088768>, static_strides = array<i64: 1>}> : (tensor<6755192832xbf16>) -> tensor<45088768xbf16>
    %440 = "tensor.expand_shape"(%439) <{reassociation = [[0, 1]]}> : (tensor<45088768xbf16>) -> tensor<11008x4096xbf16>
    %441 = "tensor.extract_slice"(%arg0) <{operandSegmentSizes = array<i32: 1, 0, 0, 0>, static_offsets = array<i64: 5505290240>, static_sizes = array<i64: 45088768>, static_strides = array<i64: 1>}> : (tensor<6755192832xbf16>) -> tensor<45088768xbf16>
    %442 = "tensor.expand_shape"(%441) <{reassociation = [[0, 1]]}> : (tensor<45088768xbf16>) -> tensor<11008x4096xbf16>
    %443 = "tensor.extract_slice"(%arg0) <{operandSegmentSizes = array<i32: 1, 0, 0, 0>, static_offsets = array<i64: 5550379008>, static_sizes = array<i64: 45088768>, static_strides = array<i64: 1>}> : (tensor<6755192832xbf16>) -> tensor<45088768xbf16>
    %444 = "tensor.expand_shape"(%443) <{reassociation = [[0, 1]]}> : (tensor<45088768xbf16>) -> tensor<4096x11008xbf16>
    %445 = "tensor.extract_slice"(%arg0) <{operandSegmentSizes = array<i32: 1, 0, 0, 0>, static_offsets = array<i64: 5595467776>, static_sizes = array<i64: 16777216>, static_strides = array<i64: 1>}> : (tensor<6755192832xbf16>) -> tensor<16777216xbf16>
    %446 = "tensor.expand_shape"(%445) <{reassociation = [[0, 1]]}> : (tensor<16777216xbf16>) -> tensor<4096x4096xbf16>
    %447 = "tensor.extract_slice"(%arg0) <{operandSegmentSizes = array<i32: 1, 0, 0, 0>, static_offsets = array<i64: 5612244992>, static_sizes = array<i64: 16777216>, static_strides = array<i64: 1>}> : (tensor<6755192832xbf16>) -> tensor<16777216xbf16>
    %448 = "tensor.expand_shape"(%447) <{reassociation = [[0, 1]]}> : (tensor<16777216xbf16>) -> tensor<4096x4096xbf16>
    %449 = "tensor.extract_slice"(%arg0) <{operandSegmentSizes = array<i32: 1, 0, 0, 0>, static_offsets = array<i64: 5629022208>, static_sizes = array<i64: 16777216>, static_strides = array<i64: 1>}> : (tensor<6755192832xbf16>) -> tensor<16777216xbf16>
    %450 = "tensor.expand_shape"(%449) <{reassociation = [[0, 1]]}> : (tensor<16777216xbf16>) -> tensor<4096x4096xbf16>
    %451 = "tensor.extract_slice"(%arg0) <{operandSegmentSizes = array<i32: 1, 0, 0, 0>, static_offsets = array<i64: 5645799424>, static_sizes = array<i64: 16777216>, static_strides = array<i64: 1>}> : (tensor<6755192832xbf16>) -> tensor<16777216xbf16>
    %452 = "tensor.expand_shape"(%451) <{reassociation = [[0, 1]]}> : (tensor<16777216xbf16>) -> tensor<4096x4096xbf16>
    %453 = "tensor.extract_slice"(%arg0) <{operandSegmentSizes = array<i32: 1, 0, 0, 0>, static_offsets = array<i64: 5662576640>, static_sizes = array<i64: 45088768>, static_strides = array<i64: 1>}> : (tensor<6755192832xbf16>) -> tensor<45088768xbf16>
    %454 = "tensor.expand_shape"(%453) <{reassociation = [[0, 1]]}> : (tensor<45088768xbf16>) -> tensor<11008x4096xbf16>
    %455 = "tensor.extract_slice"(%arg0) <{operandSegmentSizes = array<i32: 1, 0, 0, 0>, static_offsets = array<i64: 5707665408>, static_sizes = array<i64: 45088768>, static_strides = array<i64: 1>}> : (tensor<6755192832xbf16>) -> tensor<45088768xbf16>
    %456 = "tensor.expand_shape"(%455) <{reassociation = [[0, 1]]}> : (tensor<45088768xbf16>) -> tensor<11008x4096xbf16>
    %457 = "tensor.extract_slice"(%arg0) <{operandSegmentSizes = array<i32: 1, 0, 0, 0>, static_offsets = array<i64: 5752754176>, static_sizes = array<i64: 45088768>, static_strides = array<i64: 1>}> : (tensor<6755192832xbf16>) -> tensor<45088768xbf16>
    %458 = "tensor.expand_shape"(%457) <{reassociation = [[0, 1]]}> : (tensor<45088768xbf16>) -> tensor<4096x11008xbf16>
    %459 = "tensor.extract_slice"(%arg0) <{operandSegmentSizes = array<i32: 1, 0, 0, 0>, static_offsets = array<i64: 5797842944>, static_sizes = array<i64: 16777216>, static_strides = array<i64: 1>}> : (tensor<6755192832xbf16>) -> tensor<16777216xbf16>
    %460 = "tensor.expand_shape"(%459) <{reassociation = [[0, 1]]}> : (tensor<16777216xbf16>) -> tensor<4096x4096xbf16>
    %461 = "tensor.extract_slice"(%arg0) <{operandSegmentSizes = array<i32: 1, 0, 0, 0>, static_offsets = array<i64: 5814620160>, static_sizes = array<i64: 16777216>, static_strides = array<i64: 1>}> : (tensor<6755192832xbf16>) -> tensor<16777216xbf16>
    %462 = "tensor.expand_shape"(%461) <{reassociation = [[0, 1]]}> : (tensor<16777216xbf16>) -> tensor<4096x4096xbf16>
    %463 = "tensor.extract_slice"(%arg0) <{operandSegmentSizes = array<i32: 1, 0, 0, 0>, static_offsets = array<i64: 5831397376>, static_sizes = array<i64: 16777216>, static_strides = array<i64: 1>}> : (tensor<6755192832xbf16>) -> tensor<16777216xbf16>
    %464 = "tensor.expand_shape"(%463) <{reassociation = [[0, 1]]}> : (tensor<16777216xbf16>) -> tensor<4096x4096xbf16>
    %465 = "tensor.extract_slice"(%arg0) <{operandSegmentSizes = array<i32: 1, 0, 0, 0>, static_offsets = array<i64: 5848174592>, static_sizes = array<i64: 16777216>, static_strides = array<i64: 1>}> : (tensor<6755192832xbf16>) -> tensor<16777216xbf16>
    %466 = "tensor.expand_shape"(%465) <{reassociation = [[0, 1]]}> : (tensor<16777216xbf16>) -> tensor<4096x4096xbf16>
    %467 = "tensor.extract_slice"(%arg0) <{operandSegmentSizes = array<i32: 1, 0, 0, 0>, static_offsets = array<i64: 5864951808>, static_sizes = array<i64: 45088768>, static_strides = array<i64: 1>}> : (tensor<6755192832xbf16>) -> tensor<45088768xbf16>
    %468 = "tensor.expand_shape"(%467) <{reassociation = [[0, 1]]}> : (tensor<45088768xbf16>) -> tensor<11008x4096xbf16>
    %469 = "tensor.extract_slice"(%arg0) <{operandSegmentSizes = array<i32: 1, 0, 0, 0>, static_offsets = array<i64: 5910040576>, static_sizes = array<i64: 45088768>, static_strides = array<i64: 1>}> : (tensor<6755192832xbf16>) -> tensor<45088768xbf16>
    %470 = "tensor.expand_shape"(%469) <{reassociation = [[0, 1]]}> : (tensor<45088768xbf16>) -> tensor<11008x4096xbf16>
    %471 = "tensor.extract_slice"(%arg0) <{operandSegmentSizes = array<i32: 1, 0, 0, 0>, static_offsets = array<i64: 5955129344>, static_sizes = array<i64: 45088768>, static_strides = array<i64: 1>}> : (tensor<6755192832xbf16>) -> tensor<45088768xbf16>
    %472 = "tensor.expand_shape"(%471) <{reassociation = [[0, 1]]}> : (tensor<45088768xbf16>) -> tensor<4096x11008xbf16>
    %473 = "tensor.extract_slice"(%arg0) <{operandSegmentSizes = array<i32: 1, 0, 0, 0>, static_offsets = array<i64: 6000218112>, static_sizes = array<i64: 16777216>, static_strides = array<i64: 1>}> : (tensor<6755192832xbf16>) -> tensor<16777216xbf16>
    %474 = "tensor.expand_shape"(%473) <{reassociation = [[0, 1]]}> : (tensor<16777216xbf16>) -> tensor<4096x4096xbf16>
    %475 = "tensor.extract_slice"(%arg0) <{operandSegmentSizes = array<i32: 1, 0, 0, 0>, static_offsets = array<i64: 6016995328>, static_sizes = array<i64: 16777216>, static_strides = array<i64: 1>}> : (tensor<6755192832xbf16>) -> tensor<16777216xbf16>
    %476 = "tensor.expand_shape"(%475) <{reassociation = [[0, 1]]}> : (tensor<16777216xbf16>) -> tensor<4096x4096xbf16>
    %477 = "tensor.extract_slice"(%arg0) <{operandSegmentSizes = array<i32: 1, 0, 0, 0>, static_offsets = array<i64: 6033772544>, static_sizes = array<i64: 16777216>, static_strides = array<i64: 1>}> : (tensor<6755192832xbf16>) -> tensor<16777216xbf16>
    %478 = "tensor.expand_shape"(%477) <{reassociation = [[0, 1]]}> : (tensor<16777216xbf16>) -> tensor<4096x4096xbf16>
    %479 = "tensor.extract_slice"(%arg0) <{operandSegmentSizes = array<i32: 1, 0, 0, 0>, static_offsets = array<i64: 6050549760>, static_sizes = array<i64: 16777216>, static_strides = array<i64: 1>}> : (tensor<6755192832xbf16>) -> tensor<16777216xbf16>
    %480 = "tensor.expand_shape"(%479) <{reassociation = [[0, 1]]}> : (tensor<16777216xbf16>) -> tensor<4096x4096xbf16>
    %481 = "tensor.extract_slice"(%arg0) <{operandSegmentSizes = array<i32: 1, 0, 0, 0>, static_offsets = array<i64: 6067326976>, static_sizes = array<i64: 45088768>, static_strides = array<i64: 1>}> : (tensor<6755192832xbf16>) -> tensor<45088768xbf16>
    %482 = "tensor.expand_shape"(%481) <{reassociation = [[0, 1]]}> : (tensor<45088768xbf16>) -> tensor<11008x4096xbf16>
    %483 = "tensor.extract_slice"(%arg0) <{operandSegmentSizes = array<i32: 1, 0, 0, 0>, static_offsets = array<i64: 6112415744>, static_sizes = array<i64: 45088768>, static_strides = array<i64: 1>}> : (tensor<6755192832xbf16>) -> tensor<45088768xbf16>
    %484 = "tensor.expand_shape"(%483) <{reassociation = [[0, 1]]}> : (tensor<45088768xbf16>) -> tensor<11008x4096xbf16>
    %485 = "tensor.extract_slice"(%arg0) <{operandSegmentSizes = array<i32: 1, 0, 0, 0>, static_offsets = array<i64: 6157504512>, static_sizes = array<i64: 45088768>, static_strides = array<i64: 1>}> : (tensor<6755192832xbf16>) -> tensor<45088768xbf16>
    %486 = "tensor.expand_shape"(%485) <{reassociation = [[0, 1]]}> : (tensor<45088768xbf16>) -> tensor<4096x11008xbf16>
    %487 = "tensor.extract_slice"(%arg0) <{operandSegmentSizes = array<i32: 1, 0, 0, 0>, static_offsets = array<i64: 6202593280>, static_sizes = array<i64: 16777216>, static_strides = array<i64: 1>}> : (tensor<6755192832xbf16>) -> tensor<16777216xbf16>
    %488 = "tensor.expand_shape"(%487) <{reassociation = [[0, 1]]}> : (tensor<16777216xbf16>) -> tensor<4096x4096xbf16>
    %489 = "tensor.extract_slice"(%arg0) <{operandSegmentSizes = array<i32: 1, 0, 0, 0>, static_offsets = array<i64: 6219370496>, static_sizes = array<i64: 16777216>, static_strides = array<i64: 1>}> : (tensor<6755192832xbf16>) -> tensor<16777216xbf16>
    %490 = "tensor.expand_shape"(%489) <{reassociation = [[0, 1]]}> : (tensor<16777216xbf16>) -> tensor<4096x4096xbf16>
    %491 = "tensor.extract_slice"(%arg0) <{operandSegmentSizes = array<i32: 1, 0, 0, 0>, static_offsets = array<i64: 6236147712>, static_sizes = array<i64: 16777216>, static_strides = array<i64: 1>}> : (tensor<6755192832xbf16>) -> tensor<16777216xbf16>
    %492 = "tensor.expand_shape"(%491) <{reassociation = [[0, 1]]}> : (tensor<16777216xbf16>) -> tensor<4096x4096xbf16>
    %493 = "tensor.extract_slice"(%arg0) <{operandSegmentSizes = array<i32: 1, 0, 0, 0>, static_offsets = array<i64: 6252924928>, static_sizes = array<i64: 16777216>, static_strides = array<i64: 1>}> : (tensor<6755192832xbf16>) -> tensor<16777216xbf16>
    %494 = "tensor.expand_shape"(%493) <{reassociation = [[0, 1]]}> : (tensor<16777216xbf16>) -> tensor<4096x4096xbf16>
    %495 = "tensor.extract_slice"(%arg0) <{operandSegmentSizes = array<i32: 1, 0, 0, 0>, static_offsets = array<i64: 6269702144>, static_sizes = array<i64: 45088768>, static_strides = array<i64: 1>}> : (tensor<6755192832xbf16>) -> tensor<45088768xbf16>
    %496 = "tensor.expand_shape"(%495) <{reassociation = [[0, 1]]}> : (tensor<45088768xbf16>) -> tensor<11008x4096xbf16>
    %497 = "tensor.extract_slice"(%arg0) <{operandSegmentSizes = array<i32: 1, 0, 0, 0>, static_offsets = array<i64: 6314790912>, static_sizes = array<i64: 45088768>, static_strides = array<i64: 1>}> : (tensor<6755192832xbf16>) -> tensor<45088768xbf16>
    %498 = "tensor.expand_shape"(%497) <{reassociation = [[0, 1]]}> : (tensor<45088768xbf16>) -> tensor<11008x4096xbf16>
    %499 = "tensor.extract_slice"(%arg0) <{operandSegmentSizes = array<i32: 1, 0, 0, 0>, static_offsets = array<i64: 6359879680>, static_sizes = array<i64: 45088768>, static_strides = array<i64: 1>}> : (tensor<6755192832xbf16>) -> tensor<45088768xbf16>
    %500 = "tensor.expand_shape"(%499) <{reassociation = [[0, 1]]}> : (tensor<45088768xbf16>) -> tensor<4096x11008xbf16>
    %501 = "tensor.extract_slice"(%arg0) <{operandSegmentSizes = array<i32: 1, 0, 0, 0>, static_offsets = array<i64: 6404968448>, static_sizes = array<i64: 16777216>, static_strides = array<i64: 1>}> : (tensor<6755192832xbf16>) -> tensor<16777216xbf16>
    %502 = "tensor.expand_shape"(%501) <{reassociation = [[0, 1]]}> : (tensor<16777216xbf16>) -> tensor<4096x4096xbf16>
    %503 = "tensor.extract_slice"(%arg0) <{operandSegmentSizes = array<i32: 1, 0, 0, 0>, static_offsets = array<i64: 6421745664>, static_sizes = array<i64: 16777216>, static_strides = array<i64: 1>}> : (tensor<6755192832xbf16>) -> tensor<16777216xbf16>
    %504 = "tensor.expand_shape"(%503) <{reassociation = [[0, 1]]}> : (tensor<16777216xbf16>) -> tensor<4096x4096xbf16>
    %505 = "tensor.extract_slice"(%arg0) <{operandSegmentSizes = array<i32: 1, 0, 0, 0>, static_offsets = array<i64: 6438522880>, static_sizes = array<i64: 16777216>, static_strides = array<i64: 1>}> : (tensor<6755192832xbf16>) -> tensor<16777216xbf16>
    %506 = "tensor.expand_shape"(%505) <{reassociation = [[0, 1]]}> : (tensor<16777216xbf16>) -> tensor<4096x4096xbf16>
    %507 = "tensor.extract_slice"(%arg0) <{operandSegmentSizes = array<i32: 1, 0, 0, 0>, static_offsets = array<i64: 6455300096>, static_sizes = array<i64: 16777216>, static_strides = array<i64: 1>}> : (tensor<6755192832xbf16>) -> tensor<16777216xbf16>
    %508 = "tensor.expand_shape"(%507) <{reassociation = [[0, 1]]}> : (tensor<16777216xbf16>) -> tensor<4096x4096xbf16>
    %509 = "tensor.extract_slice"(%arg0) <{operandSegmentSizes = array<i32: 1, 0, 0, 0>, static_offsets = array<i64: 6472077312>, static_sizes = array<i64: 45088768>, static_strides = array<i64: 1>}> : (tensor<6755192832xbf16>) -> tensor<45088768xbf16>
    %510 = "tensor.expand_shape"(%509) <{reassociation = [[0, 1]]}> : (tensor<45088768xbf16>) -> tensor<11008x4096xbf16>
    %511 = "tensor.extract_slice"(%arg0) <{operandSegmentSizes = array<i32: 1, 0, 0, 0>, static_offsets = array<i64: 6517166080>, static_sizes = array<i64: 45088768>, static_strides = array<i64: 1>}> : (tensor<6755192832xbf16>) -> tensor<45088768xbf16>
    %512 = "tensor.expand_shape"(%511) <{reassociation = [[0, 1]]}> : (tensor<45088768xbf16>) -> tensor<11008x4096xbf16>
    %513 = "tensor.extract_slice"(%arg0) <{operandSegmentSizes = array<i32: 1, 0, 0, 0>, static_offsets = array<i64: 6562254848>, static_sizes = array<i64: 45088768>, static_strides = array<i64: 1>}> : (tensor<6755192832xbf16>) -> tensor<45088768xbf16>
    %514 = "tensor.expand_shape"(%513) <{reassociation = [[0, 1]]}> : (tensor<45088768xbf16>) -> tensor<4096x11008xbf16>
    %515 = "tensor.extract_slice"(%arg0) <{operandSegmentSizes = array<i32: 1, 0, 0, 0>, static_offsets = array<i64: 6607343616>, static_sizes = array<i64: 131072000>, static_strides = array<i64: 1>}> : (tensor<6755192832xbf16>) -> tensor<131072000xbf16>
    %516 = "tensor.expand_shape"(%515) <{reassociation = [[0, 1]]}> : (tensor<131072000xbf16>) -> tensor<32000x4096xbf16>
    %517 = "tensor.extract_slice"(%arg0) <{operandSegmentSizes = array<i32: 1, 0, 0, 0>, static_offsets = array<i64: 6738415616>, static_sizes = array<i64: 262144>, static_strides = array<i64: 1>}> : (tensor<6755192832xbf16>) -> tensor<262144xbf16>
    %518 = "tensor.expand_shape"(%517) <{reassociation = [[0, 1, 2, 3]]}> : (tensor<262144xbf16>) -> tensor<1x1x2048x128xbf16>
    %519 = "tensor.extract_slice"(%arg0) <{operandSegmentSizes = array<i32: 1, 0, 0, 0>, static_offsets = array<i64: 6738677760>, static_sizes = array<i64: 262144>, static_strides = array<i64: 1>}> : (tensor<6755192832xbf16>) -> tensor<262144xbf16>
    %520 = "tensor.expand_shape"(%519) <{reassociation = [[0, 1, 2, 3]]}> : (tensor<262144xbf16>) -> tensor<1x1x2048x128xbf16>
    %521 = "tensor.extract_slice"(%arg0) <{operandSegmentSizes = array<i32: 1, 0, 0, 0>, static_offsets = array<i64: 6738939904>, static_sizes = array<i64: 262144>, static_strides = array<i64: 1>}> : (tensor<6755192832xbf16>) -> tensor<262144xbf16>
    %522 = "tensor.expand_shape"(%521) <{reassociation = [[0, 1, 2, 3]]}> : (tensor<262144xbf16>) -> tensor<1x1x2048x128xbf16>
    %523 = "tensor.extract_slice"(%arg0) <{operandSegmentSizes = array<i32: 1, 0, 0, 0>, static_offsets = array<i64: 6739202048>, static_sizes = array<i64: 262144>, static_strides = array<i64: 1>}> : (tensor<6755192832xbf16>) -> tensor<262144xbf16>
    %524 = "tensor.expand_shape"(%523) <{reassociation = [[0, 1, 2, 3]]}> : (tensor<262144xbf16>) -> tensor<1x1x2048x128xbf16>
    %525 = "tensor.extract_slice"(%arg0) <{operandSegmentSizes = array<i32: 1, 0, 0, 0>, static_offsets = array<i64: 6739464192>, static_sizes = array<i64: 262144>, static_strides = array<i64: 1>}> : (tensor<6755192832xbf16>) -> tensor<262144xbf16>
    %526 = "tensor.expand_shape"(%525) <{reassociation = [[0, 1, 2, 3]]}> : (tensor<262144xbf16>) -> tensor<1x1x2048x128xbf16>
    %527 = "tensor.extract_slice"(%arg0) <{operandSegmentSizes = array<i32: 1, 0, 0, 0>, static_offsets = array<i64: 6739726336>, static_sizes = array<i64: 262144>, static_strides = array<i64: 1>}> : (tensor<6755192832xbf16>) -> tensor<262144xbf16>
    %528 = "tensor.expand_shape"(%527) <{reassociation = [[0, 1, 2, 3]]}> : (tensor<262144xbf16>) -> tensor<1x1x2048x128xbf16>
    %529 = "tensor.extract_slice"(%arg0) <{operandSegmentSizes = array<i32: 1, 0, 0, 0>, static_offsets = array<i64: 6739988480>, static_sizes = array<i64: 262144>, static_strides = array<i64: 1>}> : (tensor<6755192832xbf16>) -> tensor<262144xbf16>
    %530 = "tensor.expand_shape"(%529) <{reassociation = [[0, 1, 2, 3]]}> : (tensor<262144xbf16>) -> tensor<1x1x2048x128xbf16>
    %531 = "tensor.extract_slice"(%arg0) <{operandSegmentSizes = array<i32: 1, 0, 0, 0>, static_offsets = array<i64: 6740250624>, static_sizes = array<i64: 262144>, static_strides = array<i64: 1>}> : (tensor<6755192832xbf16>) -> tensor<262144xbf16>
    %532 = "tensor.expand_shape"(%531) <{reassociation = [[0, 1, 2, 3]]}> : (tensor<262144xbf16>) -> tensor<1x1x2048x128xbf16>
    %533 = "tensor.extract_slice"(%arg0) <{operandSegmentSizes = array<i32: 1, 0, 0, 0>, static_offsets = array<i64: 6740512768>, static_sizes = array<i64: 262144>, static_strides = array<i64: 1>}> : (tensor<6755192832xbf16>) -> tensor<262144xbf16>
    %534 = "tensor.expand_shape"(%533) <{reassociation = [[0, 1, 2, 3]]}> : (tensor<262144xbf16>) -> tensor<1x1x2048x128xbf16>
    %535 = "tensor.extract_slice"(%arg0) <{operandSegmentSizes = array<i32: 1, 0, 0, 0>, static_offsets = array<i64: 6740774912>, static_sizes = array<i64: 262144>, static_strides = array<i64: 1>}> : (tensor<6755192832xbf16>) -> tensor<262144xbf16>
    %536 = "tensor.expand_shape"(%535) <{reassociation = [[0, 1, 2, 3]]}> : (tensor<262144xbf16>) -> tensor<1x1x2048x128xbf16>
    %537 = "tensor.extract_slice"(%arg0) <{operandSegmentSizes = array<i32: 1, 0, 0, 0>, static_offsets = array<i64: 6741037056>, static_sizes = array<i64: 262144>, static_strides = array<i64: 1>}> : (tensor<6755192832xbf16>) -> tensor<262144xbf16>
    %538 = "tensor.expand_shape"(%537) <{reassociation = [[0, 1, 2, 3]]}> : (tensor<262144xbf16>) -> tensor<1x1x2048x128xbf16>
    %539 = "tensor.extract_slice"(%arg0) <{operandSegmentSizes = array<i32: 1, 0, 0, 0>, static_offsets = array<i64: 6741299200>, static_sizes = array<i64: 262144>, static_strides = array<i64: 1>}> : (tensor<6755192832xbf16>) -> tensor<262144xbf16>
    %540 = "tensor.expand_shape"(%539) <{reassociation = [[0, 1, 2, 3]]}> : (tensor<262144xbf16>) -> tensor<1x1x2048x128xbf16>
    %541 = "tensor.extract_slice"(%arg0) <{operandSegmentSizes = array<i32: 1, 0, 0, 0>, static_offsets = array<i64: 6741561344>, static_sizes = array<i64: 262144>, static_strides = array<i64: 1>}> : (tensor<6755192832xbf16>) -> tensor<262144xbf16>
    %542 = "tensor.expand_shape"(%541) <{reassociation = [[0, 1, 2, 3]]}> : (tensor<262144xbf16>) -> tensor<1x1x2048x128xbf16>
    %543 = "tensor.extract_slice"(%arg0) <{operandSegmentSizes = array<i32: 1, 0, 0, 0>, static_offsets = array<i64: 6741823488>, static_sizes = array<i64: 262144>, static_strides = array<i64: 1>}> : (tensor<6755192832xbf16>) -> tensor<262144xbf16>
    %544 = "tensor.expand_shape"(%543) <{reassociation = [[0, 1, 2, 3]]}> : (tensor<262144xbf16>) -> tensor<1x1x2048x128xbf16>
    %545 = "tensor.extract_slice"(%arg0) <{operandSegmentSizes = array<i32: 1, 0, 0, 0>, static_offsets = array<i64: 6742085632>, static_sizes = array<i64: 262144>, static_strides = array<i64: 1>}> : (tensor<6755192832xbf16>) -> tensor<262144xbf16>
    %546 = "tensor.expand_shape"(%545) <{reassociation = [[0, 1, 2, 3]]}> : (tensor<262144xbf16>) -> tensor<1x1x2048x128xbf16>
    %547 = "tensor.extract_slice"(%arg0) <{operandSegmentSizes = array<i32: 1, 0, 0, 0>, static_offsets = array<i64: 6742347776>, static_sizes = array<i64: 262144>, static_strides = array<i64: 1>}> : (tensor<6755192832xbf16>) -> tensor<262144xbf16>
    %548 = "tensor.expand_shape"(%547) <{reassociation = [[0, 1, 2, 3]]}> : (tensor<262144xbf16>) -> tensor<1x1x2048x128xbf16>
    %549 = "tensor.extract_slice"(%arg0) <{operandSegmentSizes = array<i32: 1, 0, 0, 0>, static_offsets = array<i64: 6742609920>, static_sizes = array<i64: 262144>, static_strides = array<i64: 1>}> : (tensor<6755192832xbf16>) -> tensor<262144xbf16>
    %550 = "tensor.expand_shape"(%549) <{reassociation = [[0, 1, 2, 3]]}> : (tensor<262144xbf16>) -> tensor<1x1x2048x128xbf16>
    %551 = "tensor.extract_slice"(%arg0) <{operandSegmentSizes = array<i32: 1, 0, 0, 0>, static_offsets = array<i64: 6742872064>, static_sizes = array<i64: 262144>, static_strides = array<i64: 1>}> : (tensor<6755192832xbf16>) -> tensor<262144xbf16>
    %552 = "tensor.expand_shape"(%551) <{reassociation = [[0, 1, 2, 3]]}> : (tensor<262144xbf16>) -> tensor<1x1x2048x128xbf16>
    %553 = "tensor.extract_slice"(%arg0) <{operandSegmentSizes = array<i32: 1, 0, 0, 0>, static_offsets = array<i64: 6743134208>, static_sizes = array<i64: 262144>, static_strides = array<i64: 1>}> : (tensor<6755192832xbf16>) -> tensor<262144xbf16>
    %554 = "tensor.expand_shape"(%553) <{reassociation = [[0, 1, 2, 3]]}> : (tensor<262144xbf16>) -> tensor<1x1x2048x128xbf16>
    %555 = "tensor.extract_slice"(%arg0) <{operandSegmentSizes = array<i32: 1, 0, 0, 0>, static_offsets = array<i64: 6743396352>, static_sizes = array<i64: 262144>, static_strides = array<i64: 1>}> : (tensor<6755192832xbf16>) -> tensor<262144xbf16>
    %556 = "tensor.expand_shape"(%555) <{reassociation = [[0, 1, 2, 3]]}> : (tensor<262144xbf16>) -> tensor<1x1x2048x128xbf16>
    %557 = "tensor.extract_slice"(%arg0) <{operandSegmentSizes = array<i32: 1, 0, 0, 0>, static_offsets = array<i64: 6743658496>, static_sizes = array<i64: 262144>, static_strides = array<i64: 1>}> : (tensor<6755192832xbf16>) -> tensor<262144xbf16>
    %558 = "tensor.expand_shape"(%557) <{reassociation = [[0, 1, 2, 3]]}> : (tensor<262144xbf16>) -> tensor<1x1x2048x128xbf16>
    %559 = "tensor.extract_slice"(%arg0) <{operandSegmentSizes = array<i32: 1, 0, 0, 0>, static_offsets = array<i64: 6743920640>, static_sizes = array<i64: 262144>, static_strides = array<i64: 1>}> : (tensor<6755192832xbf16>) -> tensor<262144xbf16>
    %560 = "tensor.expand_shape"(%559) <{reassociation = [[0, 1, 2, 3]]}> : (tensor<262144xbf16>) -> tensor<1x1x2048x128xbf16>
    %561 = "tensor.extract_slice"(%arg0) <{operandSegmentSizes = array<i32: 1, 0, 0, 0>, static_offsets = array<i64: 6744182784>, static_sizes = array<i64: 262144>, static_strides = array<i64: 1>}> : (tensor<6755192832xbf16>) -> tensor<262144xbf16>
    %562 = "tensor.expand_shape"(%561) <{reassociation = [[0, 1, 2, 3]]}> : (tensor<262144xbf16>) -> tensor<1x1x2048x128xbf16>
    %563 = "tensor.extract_slice"(%arg0) <{operandSegmentSizes = array<i32: 1, 0, 0, 0>, static_offsets = array<i64: 6744444928>, static_sizes = array<i64: 262144>, static_strides = array<i64: 1>}> : (tensor<6755192832xbf16>) -> tensor<262144xbf16>
    %564 = "tensor.expand_shape"(%563) <{reassociation = [[0, 1, 2, 3]]}> : (tensor<262144xbf16>) -> tensor<1x1x2048x128xbf16>
    %565 = "tensor.extract_slice"(%arg0) <{operandSegmentSizes = array<i32: 1, 0, 0, 0>, static_offsets = array<i64: 6744707072>, static_sizes = array<i64: 262144>, static_strides = array<i64: 1>}> : (tensor<6755192832xbf16>) -> tensor<262144xbf16>
    %566 = "tensor.expand_shape"(%565) <{reassociation = [[0, 1, 2, 3]]}> : (tensor<262144xbf16>) -> tensor<1x1x2048x128xbf16>
    %567 = "tensor.extract_slice"(%arg0) <{operandSegmentSizes = array<i32: 1, 0, 0, 0>, static_offsets = array<i64: 6744969216>, static_sizes = array<i64: 262144>, static_strides = array<i64: 1>}> : (tensor<6755192832xbf16>) -> tensor<262144xbf16>
    %568 = "tensor.expand_shape"(%567) <{reassociation = [[0, 1, 2, 3]]}> : (tensor<262144xbf16>) -> tensor<1x1x2048x128xbf16>
    %569 = "tensor.extract_slice"(%arg0) <{operandSegmentSizes = array<i32: 1, 0, 0, 0>, static_offsets = array<i64: 6745231360>, static_sizes = array<i64: 262144>, static_strides = array<i64: 1>}> : (tensor<6755192832xbf16>) -> tensor<262144xbf16>
    %570 = "tensor.expand_shape"(%569) <{reassociation = [[0, 1, 2, 3]]}> : (tensor<262144xbf16>) -> tensor<1x1x2048x128xbf16>
    %571 = "tensor.extract_slice"(%arg0) <{operandSegmentSizes = array<i32: 1, 0, 0, 0>, static_offsets = array<i64: 6745493504>, static_sizes = array<i64: 262144>, static_strides = array<i64: 1>}> : (tensor<6755192832xbf16>) -> tensor<262144xbf16>
    %572 = "tensor.expand_shape"(%571) <{reassociation = [[0, 1, 2, 3]]}> : (tensor<262144xbf16>) -> tensor<1x1x2048x128xbf16>
    %573 = "tensor.extract_slice"(%arg0) <{operandSegmentSizes = array<i32: 1, 0, 0, 0>, static_offsets = array<i64: 6745755648>, static_sizes = array<i64: 262144>, static_strides = array<i64: 1>}> : (tensor<6755192832xbf16>) -> tensor<262144xbf16>
    %574 = "tensor.expand_shape"(%573) <{reassociation = [[0, 1, 2, 3]]}> : (tensor<262144xbf16>) -> tensor<1x1x2048x128xbf16>
    %575 = "tensor.extract_slice"(%arg0) <{operandSegmentSizes = array<i32: 1, 0, 0, 0>, static_offsets = array<i64: 6746017792>, static_sizes = array<i64: 262144>, static_strides = array<i64: 1>}> : (tensor<6755192832xbf16>) -> tensor<262144xbf16>
    %576 = "tensor.expand_shape"(%575) <{reassociation = [[0, 1, 2, 3]]}> : (tensor<262144xbf16>) -> tensor<1x1x2048x128xbf16>
    %577 = "tensor.extract_slice"(%arg0) <{operandSegmentSizes = array<i32: 1, 0, 0, 0>, static_offsets = array<i64: 6746279936>, static_sizes = array<i64: 262144>, static_strides = array<i64: 1>}> : (tensor<6755192832xbf16>) -> tensor<262144xbf16>
    %578 = "tensor.expand_shape"(%577) <{reassociation = [[0, 1, 2, 3]]}> : (tensor<262144xbf16>) -> tensor<1x1x2048x128xbf16>
    %579 = "tensor.extract_slice"(%arg0) <{operandSegmentSizes = array<i32: 1, 0, 0, 0>, static_offsets = array<i64: 6746542080>, static_sizes = array<i64: 262144>, static_strides = array<i64: 1>}> : (tensor<6755192832xbf16>) -> tensor<262144xbf16>
    %580 = "tensor.expand_shape"(%579) <{reassociation = [[0, 1, 2, 3]]}> : (tensor<262144xbf16>) -> tensor<1x1x2048x128xbf16>
    %581 = "tensor.extract_slice"(%arg0) <{operandSegmentSizes = array<i32: 1, 0, 0, 0>, static_offsets = array<i64: 6746804224>, static_sizes = array<i64: 262144>, static_strides = array<i64: 1>}> : (tensor<6755192832xbf16>) -> tensor<262144xbf16>
    %582 = "tensor.expand_shape"(%581) <{reassociation = [[0, 1, 2, 3]]}> : (tensor<262144xbf16>) -> tensor<1x1x2048x128xbf16>
    %583 = "tensor.extract_slice"(%arg0) <{operandSegmentSizes = array<i32: 1, 0, 0, 0>, static_offsets = array<i64: 6747066368>, static_sizes = array<i64: 262144>, static_strides = array<i64: 1>}> : (tensor<6755192832xbf16>) -> tensor<262144xbf16>
    %584 = "tensor.expand_shape"(%583) <{reassociation = [[0, 1, 2, 3]]}> : (tensor<262144xbf16>) -> tensor<1x1x2048x128xbf16>
    %585 = "tensor.extract_slice"(%arg0) <{operandSegmentSizes = array<i32: 1, 0, 0, 0>, static_offsets = array<i64: 6747328512>, static_sizes = array<i64: 262144>, static_strides = array<i64: 1>}> : (tensor<6755192832xbf16>) -> tensor<262144xbf16>
    %586 = "tensor.expand_shape"(%585) <{reassociation = [[0, 1, 2, 3]]}> : (tensor<262144xbf16>) -> tensor<1x1x2048x128xbf16>
    %587 = "tensor.extract_slice"(%arg0) <{operandSegmentSizes = array<i32: 1, 0, 0, 0>, static_offsets = array<i64: 6747590656>, static_sizes = array<i64: 262144>, static_strides = array<i64: 1>}> : (tensor<6755192832xbf16>) -> tensor<262144xbf16>
    %588 = "tensor.expand_shape"(%587) <{reassociation = [[0, 1, 2, 3]]}> : (tensor<262144xbf16>) -> tensor<1x1x2048x128xbf16>
    %589 = "tensor.extract_slice"(%arg0) <{operandSegmentSizes = array<i32: 1, 0, 0, 0>, static_offsets = array<i64: 6747852800>, static_sizes = array<i64: 262144>, static_strides = array<i64: 1>}> : (tensor<6755192832xbf16>) -> tensor<262144xbf16>
    %590 = "tensor.expand_shape"(%589) <{reassociation = [[0, 1, 2, 3]]}> : (tensor<262144xbf16>) -> tensor<1x1x2048x128xbf16>
    %591 = "tensor.extract_slice"(%arg0) <{operandSegmentSizes = array<i32: 1, 0, 0, 0>, static_offsets = array<i64: 6748114944>, static_sizes = array<i64: 262144>, static_strides = array<i64: 1>}> : (tensor<6755192832xbf16>) -> tensor<262144xbf16>
    %592 = "tensor.expand_shape"(%591) <{reassociation = [[0, 1, 2, 3]]}> : (tensor<262144xbf16>) -> tensor<1x1x2048x128xbf16>
    %593 = "tensor.extract_slice"(%arg0) <{operandSegmentSizes = array<i32: 1, 0, 0, 0>, static_offsets = array<i64: 6748377088>, static_sizes = array<i64: 262144>, static_strides = array<i64: 1>}> : (tensor<6755192832xbf16>) -> tensor<262144xbf16>
    %594 = "tensor.expand_shape"(%593) <{reassociation = [[0, 1, 2, 3]]}> : (tensor<262144xbf16>) -> tensor<1x1x2048x128xbf16>
    %595 = "tensor.extract_slice"(%arg0) <{operandSegmentSizes = array<i32: 1, 0, 0, 0>, static_offsets = array<i64: 6748639232>, static_sizes = array<i64: 262144>, static_strides = array<i64: 1>}> : (tensor<6755192832xbf16>) -> tensor<262144xbf16>
    %596 = "tensor.expand_shape"(%595) <{reassociation = [[0, 1, 2, 3]]}> : (tensor<262144xbf16>) -> tensor<1x1x2048x128xbf16>
    %597 = "tensor.extract_slice"(%arg0) <{operandSegmentSizes = array<i32: 1, 0, 0, 0>, static_offsets = array<i64: 6748901376>, static_sizes = array<i64: 262144>, static_strides = array<i64: 1>}> : (tensor<6755192832xbf16>) -> tensor<262144xbf16>
    %598 = "tensor.expand_shape"(%597) <{reassociation = [[0, 1, 2, 3]]}> : (tensor<262144xbf16>) -> tensor<1x1x2048x128xbf16>
    %599 = "tensor.extract_slice"(%arg0) <{operandSegmentSizes = array<i32: 1, 0, 0, 0>, static_offsets = array<i64: 6749163520>, static_sizes = array<i64: 262144>, static_strides = array<i64: 1>}> : (tensor<6755192832xbf16>) -> tensor<262144xbf16>
    %600 = "tensor.expand_shape"(%599) <{reassociation = [[0, 1, 2, 3]]}> : (tensor<262144xbf16>) -> tensor<1x1x2048x128xbf16>
    %601 = "tensor.extract_slice"(%arg0) <{operandSegmentSizes = array<i32: 1, 0, 0, 0>, static_offsets = array<i64: 6749425664>, static_sizes = array<i64: 262144>, static_strides = array<i64: 1>}> : (tensor<6755192832xbf16>) -> tensor<262144xbf16>
    %602 = "tensor.expand_shape"(%601) <{reassociation = [[0, 1, 2, 3]]}> : (tensor<262144xbf16>) -> tensor<1x1x2048x128xbf16>
    %603 = "tensor.extract_slice"(%arg0) <{operandSegmentSizes = array<i32: 1, 0, 0, 0>, static_offsets = array<i64: 6749687808>, static_sizes = array<i64: 262144>, static_strides = array<i64: 1>}> : (tensor<6755192832xbf16>) -> tensor<262144xbf16>
    %604 = "tensor.expand_shape"(%603) <{reassociation = [[0, 1, 2, 3]]}> : (tensor<262144xbf16>) -> tensor<1x1x2048x128xbf16>
    %605 = "tensor.extract_slice"(%arg0) <{operandSegmentSizes = array<i32: 1, 0, 0, 0>, static_offsets = array<i64: 6749949952>, static_sizes = array<i64: 262144>, static_strides = array<i64: 1>}> : (tensor<6755192832xbf16>) -> tensor<262144xbf16>
    %606 = "tensor.expand_shape"(%605) <{reassociation = [[0, 1, 2, 3]]}> : (tensor<262144xbf16>) -> tensor<1x1x2048x128xbf16>
    %607 = "tensor.extract_slice"(%arg0) <{operandSegmentSizes = array<i32: 1, 0, 0, 0>, static_offsets = array<i64: 6750212096>, static_sizes = array<i64: 262144>, static_strides = array<i64: 1>}> : (tensor<6755192832xbf16>) -> tensor<262144xbf16>
    %608 = "tensor.expand_shape"(%607) <{reassociation = [[0, 1, 2, 3]]}> : (tensor<262144xbf16>) -> tensor<1x1x2048x128xbf16>
    %609 = "tensor.extract_slice"(%arg0) <{operandSegmentSizes = array<i32: 1, 0, 0, 0>, static_offsets = array<i64: 6750474240>, static_sizes = array<i64: 262144>, static_strides = array<i64: 1>}> : (tensor<6755192832xbf16>) -> tensor<262144xbf16>
    %610 = "tensor.expand_shape"(%609) <{reassociation = [[0, 1, 2, 3]]}> : (tensor<262144xbf16>) -> tensor<1x1x2048x128xbf16>
    %611 = "tensor.extract_slice"(%arg0) <{operandSegmentSizes = array<i32: 1, 0, 0, 0>, static_offsets = array<i64: 6750736384>, static_sizes = array<i64: 262144>, static_strides = array<i64: 1>}> : (tensor<6755192832xbf16>) -> tensor<262144xbf16>
    %612 = "tensor.expand_shape"(%611) <{reassociation = [[0, 1, 2, 3]]}> : (tensor<262144xbf16>) -> tensor<1x1x2048x128xbf16>
    %613 = "tensor.extract_slice"(%arg0) <{operandSegmentSizes = array<i32: 1, 0, 0, 0>, static_offsets = array<i64: 6750998528>, static_sizes = array<i64: 262144>, static_strides = array<i64: 1>}> : (tensor<6755192832xbf16>) -> tensor<262144xbf16>
    %614 = "tensor.expand_shape"(%613) <{reassociation = [[0, 1, 2, 3]]}> : (tensor<262144xbf16>) -> tensor<1x1x2048x128xbf16>
    %615 = "tensor.extract_slice"(%arg0) <{operandSegmentSizes = array<i32: 1, 0, 0, 0>, static_offsets = array<i64: 6751260672>, static_sizes = array<i64: 262144>, static_strides = array<i64: 1>}> : (tensor<6755192832xbf16>) -> tensor<262144xbf16>
    %616 = "tensor.expand_shape"(%615) <{reassociation = [[0, 1, 2, 3]]}> : (tensor<262144xbf16>) -> tensor<1x1x2048x128xbf16>
    %617 = "tensor.extract_slice"(%arg0) <{operandSegmentSizes = array<i32: 1, 0, 0, 0>, static_offsets = array<i64: 6751522816>, static_sizes = array<i64: 262144>, static_strides = array<i64: 1>}> : (tensor<6755192832xbf16>) -> tensor<262144xbf16>
    %618 = "tensor.expand_shape"(%617) <{reassociation = [[0, 1, 2, 3]]}> : (tensor<262144xbf16>) -> tensor<1x1x2048x128xbf16>
    %619 = "tensor.extract_slice"(%arg0) <{operandSegmentSizes = array<i32: 1, 0, 0, 0>, static_offsets = array<i64: 6751784960>, static_sizes = array<i64: 262144>, static_strides = array<i64: 1>}> : (tensor<6755192832xbf16>) -> tensor<262144xbf16>
    %620 = "tensor.expand_shape"(%619) <{reassociation = [[0, 1, 2, 3]]}> : (tensor<262144xbf16>) -> tensor<1x1x2048x128xbf16>
    %621 = "tensor.extract_slice"(%arg0) <{operandSegmentSizes = array<i32: 1, 0, 0, 0>, static_offsets = array<i64: 6752047104>, static_sizes = array<i64: 262144>, static_strides = array<i64: 1>}> : (tensor<6755192832xbf16>) -> tensor<262144xbf16>
    %622 = "tensor.expand_shape"(%621) <{reassociation = [[0, 1, 2, 3]]}> : (tensor<262144xbf16>) -> tensor<1x1x2048x128xbf16>
    %623 = "tensor.extract_slice"(%arg0) <{operandSegmentSizes = array<i32: 1, 0, 0, 0>, static_offsets = array<i64: 6752309248>, static_sizes = array<i64: 262144>, static_strides = array<i64: 1>}> : (tensor<6755192832xbf16>) -> tensor<262144xbf16>
    %624 = "tensor.expand_shape"(%623) <{reassociation = [[0, 1, 2, 3]]}> : (tensor<262144xbf16>) -> tensor<1x1x2048x128xbf16>
    %625 = "tensor.extract_slice"(%arg0) <{operandSegmentSizes = array<i32: 1, 0, 0, 0>, static_offsets = array<i64: 6752571392>, static_sizes = array<i64: 262144>, static_strides = array<i64: 1>}> : (tensor<6755192832xbf16>) -> tensor<262144xbf16>
    %626 = "tensor.expand_shape"(%625) <{reassociation = [[0, 1, 2, 3]]}> : (tensor<262144xbf16>) -> tensor<1x1x2048x128xbf16>
    %627 = "tensor.extract_slice"(%arg0) <{operandSegmentSizes = array<i32: 1, 0, 0, 0>, static_offsets = array<i64: 6752833536>, static_sizes = array<i64: 262144>, static_strides = array<i64: 1>}> : (tensor<6755192832xbf16>) -> tensor<262144xbf16>
    %628 = "tensor.expand_shape"(%627) <{reassociation = [[0, 1, 2, 3]]}> : (tensor<262144xbf16>) -> tensor<1x1x2048x128xbf16>
    %629 = "tensor.extract_slice"(%arg0) <{operandSegmentSizes = array<i32: 1, 0, 0, 0>, static_offsets = array<i64: 6753095680>, static_sizes = array<i64: 262144>, static_strides = array<i64: 1>}> : (tensor<6755192832xbf16>) -> tensor<262144xbf16>
    %630 = "tensor.expand_shape"(%629) <{reassociation = [[0, 1, 2, 3]]}> : (tensor<262144xbf16>) -> tensor<1x1x2048x128xbf16>
    %631 = "tensor.extract_slice"(%arg0) <{operandSegmentSizes = array<i32: 1, 0, 0, 0>, static_offsets = array<i64: 6753357824>, static_sizes = array<i64: 262144>, static_strides = array<i64: 1>}> : (tensor<6755192832xbf16>) -> tensor<262144xbf16>
    %632 = "tensor.expand_shape"(%631) <{reassociation = [[0, 1, 2, 3]]}> : (tensor<262144xbf16>) -> tensor<1x1x2048x128xbf16>
    %633 = "tensor.extract_slice"(%arg0) <{operandSegmentSizes = array<i32: 1, 0, 0, 0>, static_offsets = array<i64: 6753619968>, static_sizes = array<i64: 262144>, static_strides = array<i64: 1>}> : (tensor<6755192832xbf16>) -> tensor<262144xbf16>
    %634 = "tensor.expand_shape"(%633) <{reassociation = [[0, 1, 2, 3]]}> : (tensor<262144xbf16>) -> tensor<1x1x2048x128xbf16>
    %635 = "tensor.extract_slice"(%arg0) <{operandSegmentSizes = array<i32: 1, 0, 0, 0>, static_offsets = array<i64: 6753882112>, static_sizes = array<i64: 262144>, static_strides = array<i64: 1>}> : (tensor<6755192832xbf16>) -> tensor<262144xbf16>
    %636 = "tensor.expand_shape"(%635) <{reassociation = [[0, 1, 2, 3]]}> : (tensor<262144xbf16>) -> tensor<1x1x2048x128xbf16>
    %637 = "tensor.extract_slice"(%arg0) <{operandSegmentSizes = array<i32: 1, 0, 0, 0>, static_offsets = array<i64: 6754144256>, static_sizes = array<i64: 262144>, static_strides = array<i64: 1>}> : (tensor<6755192832xbf16>) -> tensor<262144xbf16>
    %638 = "tensor.expand_shape"(%637) <{reassociation = [[0, 1, 2, 3]]}> : (tensor<262144xbf16>) -> tensor<1x1x2048x128xbf16>
    %639 = "tensor.extract_slice"(%arg0) <{operandSegmentSizes = array<i32: 1, 0, 0, 0>, static_offsets = array<i64: 6754406400>, static_sizes = array<i64: 262144>, static_strides = array<i64: 1>}> : (tensor<6755192832xbf16>) -> tensor<262144xbf16>
    %640 = "tensor.expand_shape"(%639) <{reassociation = [[0, 1, 2, 3]]}> : (tensor<262144xbf16>) -> tensor<1x1x2048x128xbf16>
    %641 = "tensor.extract_slice"(%arg0) <{operandSegmentSizes = array<i32: 1, 0, 0, 0>, static_offsets = array<i64: 6754668544>, static_sizes = array<i64: 262144>, static_strides = array<i64: 1>}> : (tensor<6755192832xbf16>) -> tensor<262144xbf16>
    %642 = "tensor.expand_shape"(%641) <{reassociation = [[0, 1, 2, 3]]}> : (tensor<262144xbf16>) -> tensor<1x1x2048x128xbf16>
    %643 = "tensor.extract_slice"(%arg0) <{operandSegmentSizes = array<i32: 1, 0, 0, 0>, static_offsets = array<i64: 6754930688>, static_sizes = array<i64: 262144>, static_strides = array<i64: 1>}> : (tensor<6755192832xbf16>) -> tensor<262144xbf16>
    %644 = "tensor.expand_shape"(%643) <{reassociation = [[0, 1, 2, 3]]}> : (tensor<262144xbf16>) -> tensor<1x1x2048x128xbf16>
    %645 = "arith.constant"() <{value = dense<[0, 1, 2, 3, 4, 5, 6, 7, 8, 9, 10, 11, 12, 13, 14, 15, 16, 17, 18, 19, 20, 21, 22, 23, 24, 25, 26, 27, 28, 29, 30, 31, 32, 33, 34, 35, 36, 37, 38, 39]> : tensor<40xi64>}> : () -> tensor<40xi64>
    %646 = "tosa.reshape"(%645) <{new_shape = array<i64: 1, 40>}> : (tensor<40xi64>) -> tensor<1x40xi64>
    %647 = "tosa.reshape"(%646) <{new_shape = array<i64: 1, 40>}> : (tensor<1x40xi64>) -> tensor<1x40xi64>
    %648 = "tosa.cast"(%arg1) : (tensor<1x40xi64>) -> tensor<1x40xi32>
    %649 = "tosa.reshape"(%66) <{new_shape = array<i64: 1, 32000, 4096>}> : (tensor<32000x4096xbf16>) -> tensor<1x32000x4096xbf16>
    %650 = "tosa.gather"(%649, %648) : (tensor<1x32000x4096xbf16>, tensor<1x40xi32>) -> tensor<1x40x4096xbf16>
    %651 = "tosa.reshape"(%650) <{new_shape = array<i64: 1, 40, 4096>}> : (tensor<1x40x4096xbf16>) -> tensor<1x40x4096xbf16>
    %652 = "arith.constant"() <{value = dense<true> : tensor<1x40xi1>}> : () -> tensor<1x40xi1>
    %653 = "arith.constant"() <{value = dense<-3.38953139E+38> : tensor<40x40xf32>}> : () -> tensor<40x40xf32>
    %654 = "arith.constant"() <{value = dense<[0, 1, 2, 3, 4, 5, 6, 7, 8, 9, 10, 11, 12, 13, 14, 15, 16, 17, 18, 19, 20, 21, 22, 23, 24, 25, 26, 27, 28, 29, 30, 31, 32, 33, 34, 35, 36, 37, 38, 39]> : tensor<40xi64>}> : () -> tensor<40xi64>
    %655 = "tosa.const"() <{value = dense<1> : tensor<40xi64>}> : () -> tensor<40xi64>
    %656 = "tosa.add"(%654, %655) : (tensor<40xi64>, tensor<40xi64>) -> tensor<40xi64>
    %657 = "tosa.reshape"(%656) <{new_shape = array<i64: 40, 1>}> : (tensor<40xi64>) -> tensor<40x1xi64>
    %658 = "tensor.empty"() : () -> tensor<40x40xi1>
    %659 = "linalg.generic"(%654, %657, %658) <{indexing_maps = [#map, #map1, #map2], iterator_types = [#linalg.iterator_type<parallel>, #linalg.iterator_type<parallel>, #linalg.iterator_type<reduction>], operandSegmentSizes = array<i32: 2, 1>}> ({
    ^bb0(%arg2: i64, %arg3: i64, %arg4: i1):
      %6023 = "arith.cmpi"(%arg2, %arg3) <{predicate = 2 : i64}> : (i64, i64) -> i1
      "linalg.yield"(%6023) : (i1) -> ()
    }) : (tensor<40xi64>, tensor<40x1xi64>, tensor<40x40xi1>) -> tensor<40x40xi1>
    %660 = "arith.constant"() <{value = 0.000000e+00 : f32}> : () -> f32
    %661 = "tensor.empty"() : () -> tensor<40x40xf32>
    %662 = "linalg.generic"(%653, %659, %661) <{indexing_maps = [#map3, #map3, #map3], iterator_types = [#linalg.iterator_type<parallel>, #linalg.iterator_type<parallel>], operandSegmentSizes = array<i32: 2, 1>}> ({
    ^bb0(%arg2: f32, %arg3: i1, %arg4: f32):
      %6023 = "arith.select"(%arg3, %660, %arg2) : (i1, f32, f32) -> f32
      "linalg.yield"(%6023) : (f32) -> ()
    }) : (tensor<40x40xf32>, tensor<40x40xi1>, tensor<40x40xf32>) -> tensor<40x40xf32>
    %663 = "tensor.empty"() : () -> tensor<40x40xbf16>
    %664 = "linalg.generic"(%662, %663) <{indexing_maps = [#map3, #map3], iterator_types = [#linalg.iterator_type<parallel>, #linalg.iterator_type<parallel>], operandSegmentSizes = array<i32: 1, 1>}> ({
    ^bb0(%arg2: f32, %arg3: bf16):
      %6023 = "arith.truncf"(%arg2) : (f32) -> bf16
      "linalg.yield"(%6023) : (bf16) -> ()
    }) : (tensor<40x40xf32>, tensor<40x40xbf16>) -> tensor<40x40xbf16>
    %665 = "tosa.reshape"(%664) <{new_shape = array<i64: 1, 40, 40>}> : (tensor<40x40xbf16>) -> tensor<1x40x40xbf16>
    %666 = "tosa.reshape"(%665) <{new_shape = array<i64: 1, 1, 40, 40>}> : (tensor<1x40x40xbf16>) -> tensor<1x1x40x40xbf16>
    %667 = "tensor.extract_slice"(%666) <{operandSegmentSizes = array<i32: 1, 0, 0, 0>, static_offsets = array<i64: 0, 0, 0, 0>, static_sizes = array<i64: 1, 1, 40, 40>, static_strides = array<i64: 1, 1, 1, 1>}> : (tensor<1x1x40x40xbf16>) -> tensor<1x1x40x40xbf16>
    %668 = "tensor.extract_slice"(%667) <{operandSegmentSizes = array<i32: 1, 0, 0, 0>, static_offsets = array<i64: 0, 0, 0, 0>, static_sizes = array<i64: 1, 1, 40, 40>, static_strides = array<i64: 1, 1, 1, 1>}> : (tensor<1x1x40x40xbf16>) -> tensor<1x1x40x40xbf16>
    %669 = "tosa.const"() <{value = dense<0.000000e+00> : tensor<1x1x40x40xbf16>}> : () -> tensor<1x1x40x40xbf16>
    %670 = "tosa.add"(%668, %669) : (tensor<1x1x40x40xbf16>, tensor<1x1x40x40xbf16>) -> tensor<1x1x40x40xbf16>
    %671 = "tensor.extract_slice"(%652) <{operandSegmentSizes = array<i32: 1, 0, 0, 0>, static_offsets = array<i64: 0, 0>, static_sizes = array<i64: 1, 40>, static_strides = array<i64: 1, 1>}> : (tensor<1x40xi1>) -> tensor<1x40xi1>
    %672 = "tosa.reshape"(%671) <{new_shape = array<i64: 1, 1, 40>}> : (tensor<1x40xi1>) -> tensor<1x1x40xi1>
    %673 = "tosa.reshape"(%672) <{new_shape = array<i64: 1, 1, 1, 40>}> : (tensor<1x1x40xi1>) -> tensor<1x1x1x40xi1>
    %674 = "tensor.extract_slice"(%673) <{operandSegmentSizes = array<i32: 1, 0, 0, 0>, static_offsets = array<i64: 0, 0, 0, 0>, static_sizes = array<i64: 1, 1, 1, 40>, static_strides = array<i64: 1, 1, 1, 1>}> : (tensor<1x1x1x40xi1>) -> tensor<1x1x1x40xi1>
    %675 = "tosa.const"() <{value = dense<false> : tensor<1x1x40x40xi1>}> : () -> tensor<1x1x40x40xi1>
    %676 = "tosa.add"(%674, %675) : (tensor<1x1x1x40xi1>, tensor<1x1x40x40xi1>) -> tensor<1x1x40x40xi1>
    %677 = "tensor.empty"() : () -> tensor<1x1x40x40xbf16>
    %678 = "linalg.generic"(%676, %677) <{indexing_maps = [#map4, #map4], iterator_types = [#linalg.iterator_type<parallel>, #linalg.iterator_type<parallel>, #linalg.iterator_type<parallel>, #linalg.iterator_type<parallel>], operandSegmentSizes = array<i32: 1, 1>}> ({
    ^bb0(%arg2: i1, %arg3: bf16):
      %6023 = "arith.extui"(%arg2) : (i1) -> i16
      %6024 = "arith.sitofp"(%6023) : (i16) -> bf16
      "linalg.yield"(%6024) : (bf16) -> ()
    }) : (tensor<1x1x40x40xi1>, tensor<1x1x40x40xbf16>) -> tensor<1x1x40x40xbf16>
    %679 = "arith.constant"() <{value = 1.000000e+00 : bf16}> : () -> bf16
    %680 = "tensor.empty"() : () -> tensor<1x1x40x40xbf16>
    %681 = "linalg.generic"(%678, %680) <{indexing_maps = [#map4, #map4], iterator_types = [#linalg.iterator_type<parallel>, #linalg.iterator_type<parallel>, #linalg.iterator_type<parallel>, #linalg.iterator_type<parallel>], operandSegmentSizes = array<i32: 1, 1>}> ({
    ^bb0(%arg2: bf16, %arg3: bf16):
      %6023 = "arith.subf"(%679, %arg2) <{fastmath = #arith.fastmath<none>}> : (bf16, bf16) -> bf16
      "linalg.yield"(%6023) : (bf16) -> ()
    }) : (tensor<1x1x40x40xbf16>, tensor<1x1x40x40xbf16>) -> tensor<1x1x40x40xbf16>
    %682 = "tensor.empty"() : () -> tensor<1x1x40x40xi1>
    %683 = "linalg.generic"(%681, %682) <{indexing_maps = [#map4, #map4], iterator_types = [#linalg.iterator_type<parallel>, #linalg.iterator_type<parallel>, #linalg.iterator_type<parallel>, #linalg.iterator_type<parallel>], operandSegmentSizes = array<i32: 1, 1>}> ({
    ^bb0(%arg2: bf16, %arg3: i1):
      %6023 = "arith.fptosi"(%arg2) : (bf16) -> i16
      %6024 = "arith.trunci"(%6023) : (i16) -> i1
      "linalg.yield"(%6024) : (i1) -> ()
    }) : (tensor<1x1x40x40xbf16>, tensor<1x1x40x40xi1>) -> tensor<1x1x40x40xi1>
    %684 = "arith.constant"() <{value = -3.389530e+38 : bf16}> : () -> bf16
    %685 = "tensor.empty"() : () -> tensor<1x1x40x40xbf16>
    %686 = "linalg.generic"(%681, %683, %685) <{indexing_maps = [#map4, #map4, #map4], iterator_types = [#linalg.iterator_type<parallel>, #linalg.iterator_type<parallel>, #linalg.iterator_type<parallel>, #linalg.iterator_type<parallel>], operandSegmentSizes = array<i32: 2, 1>}> ({
    ^bb0(%arg2: bf16, %arg3: i1, %arg4: bf16):
      %6023 = "arith.select"(%arg3, %684, %arg2) : (i1, bf16, bf16) -> bf16
      "linalg.yield"(%6023) : (bf16) -> ()
    }) : (tensor<1x1x40x40xbf16>, tensor<1x1x40x40xi1>, tensor<1x1x40x40xbf16>) -> tensor<1x1x40x40xbf16>
    %687 = "tosa.add"(%686, %670) : (tensor<1x1x40x40xbf16>, tensor<1x1x40x40xbf16>) -> tensor<1x1x40x40xbf16>
    %688 = "tensor.empty"() : () -> tensor<1x40x4096xf32>
    %689 = "linalg.generic"(%651, %688) <{indexing_maps = [#map5, #map5], iterator_types = [#linalg.iterator_type<parallel>, #linalg.iterator_type<parallel>, #linalg.iterator_type<parallel>], operandSegmentSizes = array<i32: 1, 1>}> ({
    ^bb0(%arg2: bf16, %arg3: f32):
      %6023 = "arith.extf"(%arg2) : (bf16) -> f32
      "linalg.yield"(%6023) : (f32) -> ()
    }) : (tensor<1x40x4096xbf16>, tensor<1x40x4096xf32>) -> tensor<1x40x4096xf32>
    %690 = "tensor.empty"() : () -> tensor<1x40x4096xf32>
    %691 = "arith.constant"() <{value = 2 : i32}> : () -> i32
    %692 = "linalg.generic"(%689, %690) <{indexing_maps = [#map5, #map5], iterator_types = [#linalg.iterator_type<parallel>, #linalg.iterator_type<parallel>, #linalg.iterator_type<parallel>], operandSegmentSizes = array<i32: 1, 1>}> ({
    ^bb0(%arg2: f32, %arg3: f32):
      %6023 = "math.fpowi"(%arg2, %691) <{fastmath = #arith.fastmath<none>}> : (f32, i32) -> f32
      "linalg.yield"(%6023) : (f32) -> ()
    }) : (tensor<1x40x4096xf32>, tensor<1x40x4096xf32>) -> tensor<1x40x4096xf32>
    %693 = "arith.constant"() <{value = dense<0.000000e+00> : tensor<1x40x1xf32>}> : () -> tensor<1x40x1xf32>
    %694 = "linalg.generic"(%692, %693) <{indexing_maps = [#map6, #map7], iterator_types = [#linalg.iterator_type<parallel>, #linalg.iterator_type<parallel>, #linalg.iterator_type<reduction>, #linalg.iterator_type<parallel>], operandSegmentSizes = array<i32: 1, 1>}> ({
    ^bb0(%arg2: f32, %arg3: f32):
      %6023 = "arith.constant"() <{value = 4.096000e+03 : f32}> : () -> f32
      %6024 = "arith.divf"(%arg2, %6023) <{fastmath = #arith.fastmath<none>}> : (f32, f32) -> f32
      %6025 = "arith.addf"(%6024, %arg3) <{fastmath = #arith.fastmath<none>}> : (f32, f32) -> f32
      "linalg.yield"(%6025) : (f32) -> ()
    }) : (tensor<1x40x4096xf32>, tensor<1x40x1xf32>) -> tensor<1x40x1xf32>
    %695 = "tosa.const"() <{value = dense<9.99999974E-6> : tensor<1x40x1xf32>}> : () -> tensor<1x40x1xf32>
    %696 = "tosa.add"(%694, %695) : (tensor<1x40x1xf32>, tensor<1x40x1xf32>) -> tensor<1x40x1xf32>
    %697 = "tosa.rsqrt"(%696) : (tensor<1x40x1xf32>) -> tensor<1x40x1xf32>
    %698 = "tosa.mul"(%689, %697) <{shift = 0 : i8}> : (tensor<1x40x4096xf32>, tensor<1x40x1xf32>) -> tensor<1x40x4096xf32>
    %699 = "tensor.empty"() : () -> tensor<1x40x4096xbf16>
    %700 = "linalg.generic"(%698, %699) <{indexing_maps = [#map5, #map5], iterator_types = [#linalg.iterator_type<parallel>, #linalg.iterator_type<parallel>, #linalg.iterator_type<parallel>], operandSegmentSizes = array<i32: 1, 1>}> ({
    ^bb0(%arg2: f32, %arg3: bf16):
      %6023 = "arith.truncf"(%arg2) : (f32) -> bf16
      "linalg.yield"(%6023) : (bf16) -> ()
    }) : (tensor<1x40x4096xf32>, tensor<1x40x4096xbf16>) -> tensor<1x40x4096xbf16>
    %701 = "tosa.reshape"(%0) <{new_shape = array<i64: 1, 1, 4096>}> : (tensor<4096xbf16>) -> tensor<1x1x4096xbf16>
    %702 = "tosa.mul"(%701, %700) <{shift = 0 : i8}> : (tensor<1x1x4096xbf16>, tensor<1x40x4096xbf16>) -> tensor<1x40x4096xbf16>
    %703 = "tensor.empty"() : () -> tensor<4096x4096xbf16>
    %704 = "linalg.generic"(%68, %703) <{indexing_maps = [#map3, #map8], iterator_types = [#linalg.iterator_type<parallel>, #linalg.iterator_type<parallel>], operandSegmentSizes = array<i32: 1, 1>}> ({
    ^bb0(%arg2: bf16, %arg3: bf16):
      "linalg.yield"(%arg2) : (bf16) -> ()
    }) : (tensor<4096x4096xbf16>, tensor<4096x4096xbf16>) -> tensor<4096x4096xbf16>
    %705 = "tosa.reshape"(%702) <{new_shape = array<i64: 40, 4096>}> : (tensor<1x40x4096xbf16>) -> tensor<40x4096xbf16>
    %706 = "arith.constant"() <{value = dense<0.000000e+00> : tensor<40x4096xbf16>}> : () -> tensor<40x4096xbf16>
    %707 = "linalg.matmul"(%705, %704, %706) <{cast = #linalg.type_fn<cast_signed>, operandSegmentSizes = array<i32: 2, 1>}> ({
    ^bb0(%arg2: bf16, %arg3: bf16, %arg4: bf16):
      %6023 = "arith.mulf"(%arg2, %arg3) <{fastmath = #arith.fastmath<none>}> : (bf16, bf16) -> bf16
      %6024 = "arith.addf"(%arg4, %6023) <{fastmath = #arith.fastmath<none>}> : (bf16, bf16) -> bf16
      "linalg.yield"(%6024) : (bf16) -> ()
    }) : (tensor<40x4096xbf16>, tensor<4096x4096xbf16>, tensor<40x4096xbf16>) -> tensor<40x4096xbf16>
    %708 = "tosa.reshape"(%707) <{new_shape = array<i64: 1, 40, 4096>}> : (tensor<40x4096xbf16>) -> tensor<1x40x4096xbf16>
    %709 = "tensor.empty"() : () -> tensor<4096x4096xbf16>
    %710 = "linalg.generic"(%70, %709) <{indexing_maps = [#map3, #map8], iterator_types = [#linalg.iterator_type<parallel>, #linalg.iterator_type<parallel>], operandSegmentSizes = array<i32: 1, 1>}> ({
    ^bb0(%arg2: bf16, %arg3: bf16):
      "linalg.yield"(%arg2) : (bf16) -> ()
    }) : (tensor<4096x4096xbf16>, tensor<4096x4096xbf16>) -> tensor<4096x4096xbf16>
    %711 = "tosa.reshape"(%702) <{new_shape = array<i64: 40, 4096>}> : (tensor<1x40x4096xbf16>) -> tensor<40x4096xbf16>
    %712 = "arith.constant"() <{value = dense<0.000000e+00> : tensor<40x4096xbf16>}> : () -> tensor<40x4096xbf16>
    %713 = "linalg.matmul"(%711, %710, %712) <{cast = #linalg.type_fn<cast_signed>, operandSegmentSizes = array<i32: 2, 1>}> ({
    ^bb0(%arg2: bf16, %arg3: bf16, %arg4: bf16):
      %6023 = "arith.mulf"(%arg2, %arg3) <{fastmath = #arith.fastmath<none>}> : (bf16, bf16) -> bf16
      %6024 = "arith.addf"(%arg4, %6023) <{fastmath = #arith.fastmath<none>}> : (bf16, bf16) -> bf16
      "linalg.yield"(%6024) : (bf16) -> ()
    }) : (tensor<40x4096xbf16>, tensor<4096x4096xbf16>, tensor<40x4096xbf16>) -> tensor<40x4096xbf16>
    %714 = "tosa.reshape"(%713) <{new_shape = array<i64: 1, 40, 4096>}> : (tensor<40x4096xbf16>) -> tensor<1x40x4096xbf16>
    %715 = "tensor.empty"() : () -> tensor<4096x4096xbf16>
    %716 = "linalg.generic"(%72, %715) <{indexing_maps = [#map3, #map8], iterator_types = [#linalg.iterator_type<parallel>, #linalg.iterator_type<parallel>], operandSegmentSizes = array<i32: 1, 1>}> ({
    ^bb0(%arg2: bf16, %arg3: bf16):
      "linalg.yield"(%arg2) : (bf16) -> ()
    }) : (tensor<4096x4096xbf16>, tensor<4096x4096xbf16>) -> tensor<4096x4096xbf16>
    %717 = "tosa.reshape"(%702) <{new_shape = array<i64: 40, 4096>}> : (tensor<1x40x4096xbf16>) -> tensor<40x4096xbf16>
    %718 = "arith.constant"() <{value = dense<0.000000e+00> : tensor<40x4096xbf16>}> : () -> tensor<40x4096xbf16>
    %719 = "linalg.matmul"(%717, %716, %718) <{cast = #linalg.type_fn<cast_signed>, operandSegmentSizes = array<i32: 2, 1>}> ({
    ^bb0(%arg2: bf16, %arg3: bf16, %arg4: bf16):
      %6023 = "arith.mulf"(%arg2, %arg3) <{fastmath = #arith.fastmath<none>}> : (bf16, bf16) -> bf16
      %6024 = "arith.addf"(%arg4, %6023) <{fastmath = #arith.fastmath<none>}> : (bf16, bf16) -> bf16
      "linalg.yield"(%6024) : (bf16) -> ()
    }) : (tensor<40x4096xbf16>, tensor<4096x4096xbf16>, tensor<40x4096xbf16>) -> tensor<40x4096xbf16>
    %720 = "tosa.reshape"(%719) <{new_shape = array<i64: 1, 40, 4096>}> : (tensor<40x4096xbf16>) -> tensor<1x40x4096xbf16>
    %721 = "tosa.reshape"(%708) <{new_shape = array<i64: 1, 40, 32, 128>}> : (tensor<1x40x4096xbf16>) -> tensor<1x40x32x128xbf16>
    %722 = "tensor.empty"() : () -> tensor<1x32x40x128xbf16>
    %723 = "linalg.generic"(%721, %722) <{indexing_maps = [#map9, #map4], iterator_types = [#linalg.iterator_type<parallel>, #linalg.iterator_type<parallel>, #linalg.iterator_type<parallel>, #linalg.iterator_type<parallel>], operandSegmentSizes = array<i32: 1, 1>}> ({
    ^bb0(%arg2: bf16, %arg3: bf16):
      "linalg.yield"(%arg2) : (bf16) -> ()
    }) : (tensor<1x40x32x128xbf16>, tensor<1x32x40x128xbf16>) -> tensor<1x32x40x128xbf16>
    %724 = "tosa.reshape"(%714) <{new_shape = array<i64: 1, 40, 32, 128>}> : (tensor<1x40x4096xbf16>) -> tensor<1x40x32x128xbf16>
    %725 = "tensor.empty"() : () -> tensor<1x32x40x128xbf16>
    %726 = "linalg.generic"(%724, %725) <{indexing_maps = [#map9, #map4], iterator_types = [#linalg.iterator_type<parallel>, #linalg.iterator_type<parallel>, #linalg.iterator_type<parallel>, #linalg.iterator_type<parallel>], operandSegmentSizes = array<i32: 1, 1>}> ({
    ^bb0(%arg2: bf16, %arg3: bf16):
      "linalg.yield"(%arg2) : (bf16) -> ()
    }) : (tensor<1x40x32x128xbf16>, tensor<1x32x40x128xbf16>) -> tensor<1x32x40x128xbf16>
    %727 = "tosa.reshape"(%720) <{new_shape = array<i64: 1, 40, 32, 128>}> : (tensor<1x40x4096xbf16>) -> tensor<1x40x32x128xbf16>
    %728 = "tensor.empty"() : () -> tensor<1x32x40x128xbf16>
    %729 = "linalg.generic"(%727, %728) <{indexing_maps = [#map9, #map4], iterator_types = [#linalg.iterator_type<parallel>, #linalg.iterator_type<parallel>, #linalg.iterator_type<parallel>, #linalg.iterator_type<parallel>], operandSegmentSizes = array<i32: 1, 1>}> ({
    ^bb0(%arg2: bf16, %arg3: bf16):
      "linalg.yield"(%arg2) : (bf16) -> ()
    }) : (tensor<1x40x32x128xbf16>, tensor<1x32x40x128xbf16>) -> tensor<1x32x40x128xbf16>
    %730 = "tensor.extract_slice"(%518) <{operandSegmentSizes = array<i32: 1, 0, 0, 0>, static_offsets = array<i64: 0, 0, 0, 0>, static_sizes = array<i64: 1, 1, 2048, 128>, static_strides = array<i64: 1, 1, 1, 1>}> : (tensor<1x1x2048x128xbf16>) -> tensor<1x1x2048x128xbf16>
    %731 = "tensor.extract_slice"(%730) <{operandSegmentSizes = array<i32: 1, 0, 0, 0>, static_offsets = array<i64: 0, 0, 0, 0>, static_sizes = array<i64: 1, 1, 2048, 128>, static_strides = array<i64: 1, 1, 1, 1>}> : (tensor<1x1x2048x128xbf16>) -> tensor<1x1x2048x128xbf16>
    %732 = "tensor.extract_slice"(%731) <{operandSegmentSizes = array<i32: 1, 0, 0, 0>, static_offsets = array<i64: 0, 0, 0, 0>, static_sizes = array<i64: 1, 1, 40, 128>, static_strides = array<i64: 1, 1, 1, 1>}> : (tensor<1x1x2048x128xbf16>) -> tensor<1x1x40x128xbf16>
    %733 = "tensor.extract_slice"(%520) <{operandSegmentSizes = array<i32: 1, 0, 0, 0>, static_offsets = array<i64: 0, 0, 0, 0>, static_sizes = array<i64: 1, 1, 2048, 128>, static_strides = array<i64: 1, 1, 1, 1>}> : (tensor<1x1x2048x128xbf16>) -> tensor<1x1x2048x128xbf16>
    %734 = "tensor.extract_slice"(%733) <{operandSegmentSizes = array<i32: 1, 0, 0, 0>, static_offsets = array<i64: 0, 0, 0, 0>, static_sizes = array<i64: 1, 1, 2048, 128>, static_strides = array<i64: 1, 1, 1, 1>}> : (tensor<1x1x2048x128xbf16>) -> tensor<1x1x2048x128xbf16>
    %735 = "tensor.extract_slice"(%734) <{operandSegmentSizes = array<i32: 1, 0, 0, 0>, static_offsets = array<i64: 0, 0, 0, 0>, static_sizes = array<i64: 1, 1, 40, 128>, static_strides = array<i64: 1, 1, 1, 1>}> : (tensor<1x1x2048x128xbf16>) -> tensor<1x1x40x128xbf16>
    %736 = "tensor.empty"() : () -> tensor<1x40x128xbf16>
    %737 = "linalg.generic"(%732, %736) <{indexing_maps = [#map10, #map5], iterator_types = [#linalg.iterator_type<parallel>, #linalg.iterator_type<parallel>, #linalg.iterator_type<parallel>], operandSegmentSizes = array<i32: 1, 1>}> ({
    ^bb0(%arg2: bf16, %arg3: bf16):
      "linalg.yield"(%arg2) : (bf16) -> ()
    }) : (tensor<1x1x40x128xbf16>, tensor<1x40x128xbf16>) -> tensor<1x40x128xbf16>
    %738 = "tensor.empty"() : () -> tensor<40x128xbf16>
    %739 = "linalg.generic"(%737, %738) <{indexing_maps = [#map11, #map3], iterator_types = [#linalg.iterator_type<parallel>, #linalg.iterator_type<parallel>], operandSegmentSizes = array<i32: 1, 1>}> ({
    ^bb0(%arg2: bf16, %arg3: bf16):
      "linalg.yield"(%arg2) : (bf16) -> ()
    }) : (tensor<1x40x128xbf16>, tensor<40x128xbf16>) -> tensor<40x128xbf16>
    %740 = "tensor.empty"() : () -> tensor<1x40x128xbf16>
    %741 = "linalg.generic"(%735, %740) <{indexing_maps = [#map10, #map5], iterator_types = [#linalg.iterator_type<parallel>, #linalg.iterator_type<parallel>, #linalg.iterator_type<parallel>], operandSegmentSizes = array<i32: 1, 1>}> ({
    ^bb0(%arg2: bf16, %arg3: bf16):
      "linalg.yield"(%arg2) : (bf16) -> ()
    }) : (tensor<1x1x40x128xbf16>, tensor<1x40x128xbf16>) -> tensor<1x40x128xbf16>
    %742 = "tensor.empty"() : () -> tensor<40x128xbf16>
    %743 = "linalg.generic"(%741, %742) <{indexing_maps = [#map11, #map3], iterator_types = [#linalg.iterator_type<parallel>, #linalg.iterator_type<parallel>], operandSegmentSizes = array<i32: 1, 1>}> ({
    ^bb0(%arg2: bf16, %arg3: bf16):
      "linalg.yield"(%arg2) : (bf16) -> ()
    }) : (tensor<1x40x128xbf16>, tensor<40x128xbf16>) -> tensor<40x128xbf16>
    %744 = "tensor.empty"() : () -> tensor<1x40x128xbf16>
    %745 = "linalg.generic"(%647, %744) <{indexing_maps = [#map2, #map5], iterator_types = [#linalg.iterator_type<parallel>, #linalg.iterator_type<parallel>, #linalg.iterator_type<parallel>], operandSegmentSizes = array<i32: 1, 1>}> ({
    ^bb0(%arg2: i64, %arg3: bf16):
      %6023 = "arith.index_cast"(%arg2) : (i64) -> index
      %6024 = "linalg.index"() <{dim = 2 : i64}> : () -> index
      %6025 = "tensor.extract"(%739, %6023, %6024) : (tensor<40x128xbf16>, index, index) -> bf16
      "linalg.yield"(%6025) : (bf16) -> ()
    }) : (tensor<1x40xi64>, tensor<1x40x128xbf16>) -> tensor<1x40x128xbf16>
    %746 = "tosa.reshape"(%745) <{new_shape = array<i64: 1, 1, 40, 128>}> : (tensor<1x40x128xbf16>) -> tensor<1x1x40x128xbf16>
    %747 = "tensor.empty"() : () -> tensor<1x40x128xbf16>
    %748 = "linalg.generic"(%647, %747) <{indexing_maps = [#map2, #map5], iterator_types = [#linalg.iterator_type<parallel>, #linalg.iterator_type<parallel>, #linalg.iterator_type<parallel>], operandSegmentSizes = array<i32: 1, 1>}> ({
    ^bb0(%arg2: i64, %arg3: bf16):
      %6023 = "arith.index_cast"(%arg2) : (i64) -> index
      %6024 = "linalg.index"() <{dim = 2 : i64}> : () -> index
      %6025 = "tensor.extract"(%743, %6023, %6024) : (tensor<40x128xbf16>, index, index) -> bf16
      "linalg.yield"(%6025) : (bf16) -> ()
    }) : (tensor<1x40xi64>, tensor<1x40x128xbf16>) -> tensor<1x40x128xbf16>
    %749 = "tosa.reshape"(%748) <{new_shape = array<i64: 1, 1, 40, 128>}> : (tensor<1x40x128xbf16>) -> tensor<1x1x40x128xbf16>
    %750 = "tosa.mul"(%723, %746) <{shift = 0 : i8}> : (tensor<1x32x40x128xbf16>, tensor<1x1x40x128xbf16>) -> tensor<1x32x40x128xbf16>
    %751 = "tensor.extract_slice"(%723) <{operandSegmentSizes = array<i32: 1, 0, 0, 0>, static_offsets = array<i64: 0, 0, 0, 0>, static_sizes = array<i64: 1, 32, 40, 64>, static_strides = array<i64: 1, 1, 1, 1>}> : (tensor<1x32x40x128xbf16>) -> tensor<1x32x40x64xbf16>
    %752 = "tensor.extract_slice"(%723) <{operandSegmentSizes = array<i32: 1, 0, 0, 0>, static_offsets = array<i64: 0, 0, 0, 64>, static_sizes = array<i64: 1, 32, 40, 64>, static_strides = array<i64: 1, 1, 1, 1>}> : (tensor<1x32x40x128xbf16>) -> tensor<1x32x40x64xbf16>
    %753 = "tensor.empty"() : () -> tensor<1x32x40x64xbf16>
    %754 = "linalg.generic"(%752, %753) <{indexing_maps = [#map4, #map4], iterator_types = [#linalg.iterator_type<parallel>, #linalg.iterator_type<parallel>, #linalg.iterator_type<parallel>, #linalg.iterator_type<parallel>], operandSegmentSizes = array<i32: 1, 1>}> ({
    ^bb0(%arg2: bf16, %arg3: bf16):
      %6023 = "arith.negf"(%arg2) <{fastmath = #arith.fastmath<none>}> : (bf16) -> bf16
      "linalg.yield"(%6023) : (bf16) -> ()
    }) : (tensor<1x32x40x64xbf16>, tensor<1x32x40x64xbf16>) -> tensor<1x32x40x64xbf16>
    %755 = "tensor.empty"() : () -> tensor<1x32x40x128xbf16>
    %756 = "tensor.insert_slice"(%754, %755) <{operandSegmentSizes = array<i32: 1, 1, 0, 0, 0>, static_offsets = array<i64: 0, 0, 0, 0>, static_sizes = array<i64: 1, 32, 40, 64>, static_strides = array<i64: 1, 1, 1, 1>}> : (tensor<1x32x40x64xbf16>, tensor<1x32x40x128xbf16>) -> tensor<1x32x40x128xbf16>
    %757 = "tensor.insert_slice"(%751, %756) <{operandSegmentSizes = array<i32: 1, 1, 0, 0, 0>, static_offsets = array<i64: 0, 0, 0, 64>, static_sizes = array<i64: 1, 32, 40, 64>, static_strides = array<i64: 1, 1, 1, 1>}> : (tensor<1x32x40x64xbf16>, tensor<1x32x40x128xbf16>) -> tensor<1x32x40x128xbf16>
    %758 = "tosa.mul"(%757, %749) <{shift = 0 : i8}> : (tensor<1x32x40x128xbf16>, tensor<1x1x40x128xbf16>) -> tensor<1x32x40x128xbf16>
    %759 = "tosa.add"(%750, %758) : (tensor<1x32x40x128xbf16>, tensor<1x32x40x128xbf16>) -> tensor<1x32x40x128xbf16>
    %760 = "tosa.mul"(%726, %746) <{shift = 0 : i8}> : (tensor<1x32x40x128xbf16>, tensor<1x1x40x128xbf16>) -> tensor<1x32x40x128xbf16>
    %761 = "tensor.extract_slice"(%726) <{operandSegmentSizes = array<i32: 1, 0, 0, 0>, static_offsets = array<i64: 0, 0, 0, 0>, static_sizes = array<i64: 1, 32, 40, 64>, static_strides = array<i64: 1, 1, 1, 1>}> : (tensor<1x32x40x128xbf16>) -> tensor<1x32x40x64xbf16>
    %762 = "tensor.extract_slice"(%726) <{operandSegmentSizes = array<i32: 1, 0, 0, 0>, static_offsets = array<i64: 0, 0, 0, 64>, static_sizes = array<i64: 1, 32, 40, 64>, static_strides = array<i64: 1, 1, 1, 1>}> : (tensor<1x32x40x128xbf16>) -> tensor<1x32x40x64xbf16>
    %763 = "tensor.empty"() : () -> tensor<1x32x40x64xbf16>
    %764 = "linalg.generic"(%762, %763) <{indexing_maps = [#map4, #map4], iterator_types = [#linalg.iterator_type<parallel>, #linalg.iterator_type<parallel>, #linalg.iterator_type<parallel>, #linalg.iterator_type<parallel>], operandSegmentSizes = array<i32: 1, 1>}> ({
    ^bb0(%arg2: bf16, %arg3: bf16):
      %6023 = "arith.negf"(%arg2) <{fastmath = #arith.fastmath<none>}> : (bf16) -> bf16
      "linalg.yield"(%6023) : (bf16) -> ()
    }) : (tensor<1x32x40x64xbf16>, tensor<1x32x40x64xbf16>) -> tensor<1x32x40x64xbf16>
    %765 = "tensor.empty"() : () -> tensor<1x32x40x128xbf16>
…
      %6024 = "arith.addf"(%arg4, %6023) <{fastmath = #arith.fastmath<none>}> : (bf16, bf16) -> bf16
      "linalg.yield"(%6024) : (bf16) -> ()
    }) : (tensor<40x4096xbf16>, tensor<4096x4096xbf16>, tensor<40x4096xbf16>) -> tensor<40x4096xbf16>
    %5795 = "tosa.reshape"(%5794) <{new_shape = array<i64: 1, 40, 4096>}> : (tensor<40x4096xbf16>) -> tensor<1x40x4096xbf16>
    %5796 = "tosa.add"(%5667, %5795) : (tensor<1x40x4096xbf16>, tensor<1x40x4096xbf16>) -> tensor<1x40x4096xbf16>
    %5797 = "tensor.empty"() : () -> tensor<1x40x4096xf32>
    %5798 = "linalg.generic"(%5796, %5797) <{indexing_maps = [#map5, #map5], iterator_types = [#linalg.iterator_type<parallel>, #linalg.iterator_type<parallel>, #linalg.iterator_type<parallel>], operandSegmentSizes = array<i32: 1, 1>}> ({
    ^bb0(%arg2: bf16, %arg3: f32):
      %6023 = "arith.extf"(%arg2) : (bf16) -> f32
      "linalg.yield"(%6023) : (f32) -> ()
    }) : (tensor<1x40x4096xbf16>, tensor<1x40x4096xf32>) -> tensor<1x40x4096xf32>
    %5799 = "tensor.empty"() : () -> tensor<1x40x4096xf32>
    %5800 = "arith.constant"() <{value = 2 : i32}> : () -> i32
    %5801 = "linalg.generic"(%5798, %5799) <{indexing_maps = [#map5, #map5], iterator_types = [#linalg.iterator_type<parallel>, #linalg.iterator_type<parallel>, #linalg.iterator_type<parallel>], operandSegmentSizes = array<i32: 1, 1>}> ({
    ^bb0(%arg2: f32, %arg3: f32):
      %6023 = "math.fpowi"(%arg2, %5800) <{fastmath = #arith.fastmath<none>}> : (f32, i32) -> f32
      "linalg.yield"(%6023) : (f32) -> ()
    }) : (tensor<1x40x4096xf32>, tensor<1x40x4096xf32>) -> tensor<1x40x4096xf32>
    %5802 = "arith.constant"() <{value = dense<0.000000e+00> : tensor<1x40x1xf32>}> : () -> tensor<1x40x1xf32>
    %5803 = "linalg.generic"(%5801, %5802) <{indexing_maps = [#map6, #map7], iterator_types = [#linalg.iterator_type<parallel>, #linalg.iterator_type<parallel>, #linalg.iterator_type<reduction>, #linalg.iterator_type<parallel>], operandSegmentSizes = array<i32: 1, 1>}> ({
    ^bb0(%arg2: f32, %arg3: f32):
      %6023 = "arith.constant"() <{value = 4.096000e+03 : f32}> : () -> f32
      %6024 = "arith.divf"(%arg2, %6023) <{fastmath = #arith.fastmath<none>}> : (f32, f32) -> f32
      %6025 = "arith.addf"(%6024, %arg3) <{fastmath = #arith.fastmath<none>}> : (f32, f32) -> f32
      "linalg.yield"(%6025) : (f32) -> ()
    }) : (tensor<1x40x4096xf32>, tensor<1x40x1xf32>) -> tensor<1x40x1xf32>
    %5804 = "tosa.const"() <{value = dense<9.99999974E-6> : tensor<1x40x1xf32>}> : () -> tensor<1x40x1xf32>
    %5805 = "tosa.add"(%5803, %5804) : (tensor<1x40x1xf32>, tensor<1x40x1xf32>) -> tensor<1x40x1xf32>
    %5806 = "tosa.rsqrt"(%5805) : (tensor<1x40x1xf32>) -> tensor<1x40x1xf32>
    %5807 = "tosa.mul"(%5798, %5806) <{shift = 0 : i8}> : (tensor<1x40x4096xf32>, tensor<1x40x1xf32>) -> tensor<1x40x4096xf32>
    %5808 = "tensor.empty"() : () -> tensor<1x40x4096xbf16>
    %5809 = "linalg.generic"(%5807, %5808) <{indexing_maps = [#map5, #map5], iterator_types = [#linalg.iterator_type<parallel>, #linalg.iterator_type<parallel>, #linalg.iterator_type<parallel>], operandSegmentSizes = array<i32: 1, 1>}> ({
    ^bb0(%arg2: f32, %arg3: bf16):
      %6023 = "arith.truncf"(%arg2) : (f32) -> bf16
      "linalg.yield"(%6023) : (bf16) -> ()
    }) : (tensor<1x40x4096xf32>, tensor<1x40x4096xbf16>) -> tensor<1x40x4096xbf16>
    %5810 = "tosa.reshape"(%61) <{new_shape = array<i64: 1, 1, 4096>}> : (tensor<4096xbf16>) -> tensor<1x1x4096xbf16>
    %5811 = "tosa.mul"(%5810, %5809) <{shift = 0 : i8}> : (tensor<1x1x4096xbf16>, tensor<1x40x4096xbf16>) -> tensor<1x40x4096xbf16>
    %5812 = "tensor.empty"() : () -> tensor<4096x11008xbf16>
    %5813 = "linalg.generic"(%496, %5812) <{indexing_maps = [#map3, #map8], iterator_types = [#linalg.iterator_type<parallel>, #linalg.iterator_type<parallel>], operandSegmentSizes = array<i32: 1, 1>}> ({
    ^bb0(%arg2: bf16, %arg3: bf16):
      "linalg.yield"(%arg2) : (bf16) -> ()
    }) : (tensor<11008x4096xbf16>, tensor<4096x11008xbf16>) -> tensor<4096x11008xbf16>
    %5814 = "tosa.reshape"(%5811) <{new_shape = array<i64: 40, 4096>}> : (tensor<1x40x4096xbf16>) -> tensor<40x4096xbf16>
    %5815 = "arith.constant"() <{value = dense<0.000000e+00> : tensor<40x11008xbf16>}> : () -> tensor<40x11008xbf16>
    %5816 = "linalg.matmul"(%5814, %5813, %5815) <{cast = #linalg.type_fn<cast_signed>, operandSegmentSizes = array<i32: 2, 1>}> ({
    ^bb0(%arg2: bf16, %arg3: bf16, %arg4: bf16):
      %6023 = "arith.mulf"(%arg2, %arg3) <{fastmath = #arith.fastmath<none>}> : (bf16, bf16) -> bf16
      %6024 = "arith.addf"(%arg4, %6023) <{fastmath = #arith.fastmath<none>}> : (bf16, bf16) -> bf16
      "linalg.yield"(%6024) : (bf16) -> ()
    }) : (tensor<40x4096xbf16>, tensor<4096x11008xbf16>, tensor<40x11008xbf16>) -> tensor<40x11008xbf16>
    %5817 = "tosa.reshape"(%5816) <{new_shape = array<i64: 1, 40, 11008>}> : (tensor<40x11008xbf16>) -> tensor<1x40x11008xbf16>
    %5818 = "tensor.empty"() : () -> tensor<1x40x11008xbf16>
    %5819 = "linalg.generic"(%5817, %5818) <{indexing_maps = [#map5, #map5], iterator_types = [#linalg.iterator_type<parallel>, #linalg.iterator_type<parallel>, #linalg.iterator_type<parallel>], operandSegmentSizes = array<i32: 1, 1>}> ({
    ^bb0(%arg2: bf16, %arg3: bf16):
      %6023 = "arith.negf"(%arg2) <{fastmath = #arith.fastmath<none>}> : (bf16) -> bf16
      %6024 = "math.exp"(%6023) <{fastmath = #arith.fastmath<none>}> : (bf16) -> bf16
      %6025 = "arith.constant"() <{value = 1.000000e+00 : bf16}> : () -> bf16
      %6026 = "arith.addf"(%6025, %6024) <{fastmath = #arith.fastmath<none>}> : (bf16, bf16) -> bf16
      %6027 = "arith.divf"(%arg2, %6026) <{fastmath = #arith.fastmath<none>}> : (bf16, bf16) -> bf16
      "linalg.yield"(%6027) : (bf16) -> ()
    }) : (tensor<1x40x11008xbf16>, tensor<1x40x11008xbf16>) -> tensor<1x40x11008xbf16>
    %5820 = "tensor.empty"() : () -> tensor<4096x11008xbf16>
    %5821 = "linalg.generic"(%498, %5820) <{indexing_maps = [#map3, #map8], iterator_types = [#linalg.iterator_type<parallel>, #linalg.iterator_type<parallel>], operandSegmentSizes = array<i32: 1, 1>}> ({
    ^bb0(%arg2: bf16, %arg3: bf16):
      "linalg.yield"(%arg2) : (bf16) -> ()
    }) : (tensor<11008x4096xbf16>, tensor<4096x11008xbf16>) -> tensor<4096x11008xbf16>
    %5822 = "tosa.reshape"(%5811) <{new_shape = array<i64: 40, 4096>}> : (tensor<1x40x4096xbf16>) -> tensor<40x4096xbf16>
    %5823 = "arith.constant"() <{value = dense<0.000000e+00> : tensor<40x11008xbf16>}> : () -> tensor<40x11008xbf16>
    %5824 = "linalg.matmul"(%5822, %5821, %5823) <{cast = #linalg.type_fn<cast_signed>, operandSegmentSizes = array<i32: 2, 1>}> ({
    ^bb0(%arg2: bf16, %arg3: bf16, %arg4: bf16):
      %6023 = "arith.mulf"(%arg2, %arg3) <{fastmath = #arith.fastmath<none>}> : (bf16, bf16) -> bf16
      %6024 = "arith.addf"(%arg4, %6023) <{fastmath = #arith.fastmath<none>}> : (bf16, bf16) -> bf16
      "linalg.yield"(%6024) : (bf16) -> ()
    }) : (tensor<40x4096xbf16>, tensor<4096x11008xbf16>, tensor<40x11008xbf16>) -> tensor<40x11008xbf16>
    %5825 = "tosa.reshape"(%5824) <{new_shape = array<i64: 1, 40, 11008>}> : (tensor<40x11008xbf16>) -> tensor<1x40x11008xbf16>
    %5826 = "tosa.mul"(%5819, %5825) <{shift = 0 : i8}> : (tensor<1x40x11008xbf16>, tensor<1x40x11008xbf16>) -> tensor<1x40x11008xbf16>
    %5827 = "tensor.empty"() : () -> tensor<11008x4096xbf16>
    %5828 = "linalg.generic"(%500, %5827) <{indexing_maps = [#map3, #map8], iterator_types = [#linalg.iterator_type<parallel>, #linalg.iterator_type<parallel>], operandSegmentSizes = array<i32: 1, 1>}> ({
    ^bb0(%arg2: bf16, %arg3: bf16):
      "linalg.yield"(%arg2) : (bf16) -> ()
    }) : (tensor<4096x11008xbf16>, tensor<11008x4096xbf16>) -> tensor<11008x4096xbf16>
    %5829 = "tosa.reshape"(%5826) <{new_shape = array<i64: 40, 11008>}> : (tensor<1x40x11008xbf16>) -> tensor<40x11008xbf16>
    %5830 = "arith.constant"() <{value = dense<0.000000e+00> : tensor<40x4096xbf16>}> : () -> tensor<40x4096xbf16>
    %5831 = "linalg.matmul"(%5829, %5828, %5830) <{cast = #linalg.type_fn<cast_signed>, operandSegmentSizes = array<i32: 2, 1>}> ({
    ^bb0(%arg2: bf16, %arg3: bf16, %arg4: bf16):
      %6023 = "arith.mulf"(%arg2, %arg3) <{fastmath = #arith.fastmath<none>}> : (bf16, bf16) -> bf16
      %6024 = "arith.addf"(%arg4, %6023) <{fastmath = #arith.fastmath<none>}> : (bf16, bf16) -> bf16
      "linalg.yield"(%6024) : (bf16) -> ()
    }) : (tensor<40x11008xbf16>, tensor<11008x4096xbf16>, tensor<40x4096xbf16>) -> tensor<40x4096xbf16>
    %5832 = "tosa.reshape"(%5831) <{new_shape = array<i64: 1, 40, 4096>}> : (tensor<40x4096xbf16>) -> tensor<1x40x4096xbf16>
    %5833 = "tosa.add"(%5796, %5832) : (tensor<1x40x4096xbf16>, tensor<1x40x4096xbf16>) -> tensor<1x40x4096xbf16>
    %5834 = "tensor.empty"() : () -> tensor<1x40x4096xf32>
    %5835 = "linalg.generic"(%5833, %5834) <{indexing_maps = [#map5, #map5], iterator_types = [#linalg.iterator_type<parallel>, #linalg.iterator_type<parallel>, #linalg.iterator_type<parallel>], operandSegmentSizes = array<i32: 1, 1>}> ({
    ^bb0(%arg2: bf16, %arg3: f32):
      %6023 = "arith.extf"(%arg2) : (bf16) -> f32
      "linalg.yield"(%6023) : (f32) -> ()
    }) : (tensor<1x40x4096xbf16>, tensor<1x40x4096xf32>) -> tensor<1x40x4096xf32>
    %5836 = "tensor.empty"() : () -> tensor<1x40x4096xf32>
    %5837 = "arith.constant"() <{value = 2 : i32}> : () -> i32
    %5838 = "linalg.generic"(%5835, %5836) <{indexing_maps = [#map5, #map5], iterator_types = [#linalg.iterator_type<parallel>, #linalg.iterator_type<parallel>, #linalg.iterator_type<parallel>], operandSegmentSizes = array<i32: 1, 1>}> ({
    ^bb0(%arg2: f32, %arg3: f32):
      %6023 = "math.fpowi"(%arg2, %5837) <{fastmath = #arith.fastmath<none>}> : (f32, i32) -> f32
      "linalg.yield"(%6023) : (f32) -> ()
    }) : (tensor<1x40x4096xf32>, tensor<1x40x4096xf32>) -> tensor<1x40x4096xf32>
    %5839 = "arith.constant"() <{value = dense<0.000000e+00> : tensor<1x40x1xf32>}> : () -> tensor<1x40x1xf32>
    %5840 = "linalg.generic"(%5838, %5839) <{indexing_maps = [#map6, #map7], iterator_types = [#linalg.iterator_type<parallel>, #linalg.iterator_type<parallel>, #linalg.iterator_type<reduction>, #linalg.iterator_type<parallel>], operandSegmentSizes = array<i32: 1, 1>}> ({
    ^bb0(%arg2: f32, %arg3: f32):
      %6023 = "arith.constant"() <{value = 4.096000e+03 : f32}> : () -> f32
      %6024 = "arith.divf"(%arg2, %6023) <{fastmath = #arith.fastmath<none>}> : (f32, f32) -> f32
      %6025 = "arith.addf"(%6024, %arg3) <{fastmath = #arith.fastmath<none>}> : (f32, f32) -> f32
      "linalg.yield"(%6025) : (f32) -> ()
    }) : (tensor<1x40x4096xf32>, tensor<1x40x1xf32>) -> tensor<1x40x1xf32>
    %5841 = "tosa.const"() <{value = dense<9.99999974E-6> : tensor<1x40x1xf32>}> : () -> tensor<1x40x1xf32>
    %5842 = "tosa.add"(%5840, %5841) : (tensor<1x40x1xf32>, tensor<1x40x1xf32>) -> tensor<1x40x1xf32>
    %5843 = "tosa.rsqrt"(%5842) : (tensor<1x40x1xf32>) -> tensor<1x40x1xf32>
    %5844 = "tosa.mul"(%5835, %5843) <{shift = 0 : i8}> : (tensor<1x40x4096xf32>, tensor<1x40x1xf32>) -> tensor<1x40x4096xf32>
    %5845 = "tensor.empty"() : () -> tensor<1x40x4096xbf16>
    %5846 = "linalg.generic"(%5844, %5845) <{indexing_maps = [#map5, #map5], iterator_types = [#linalg.iterator_type<parallel>, #linalg.iterator_type<parallel>, #linalg.iterator_type<parallel>], operandSegmentSizes = array<i32: 1, 1>}> ({
    ^bb0(%arg2: f32, %arg3: bf16):
      %6023 = "arith.truncf"(%arg2) : (f32) -> bf16
      "linalg.yield"(%6023) : (bf16) -> ()
    }) : (tensor<1x40x4096xf32>, tensor<1x40x4096xbf16>) -> tensor<1x40x4096xbf16>
    %5847 = "tosa.reshape"(%62) <{new_shape = array<i64: 1, 1, 4096>}> : (tensor<4096xbf16>) -> tensor<1x1x4096xbf16>
    %5848 = "tosa.mul"(%5847, %5846) <{shift = 0 : i8}> : (tensor<1x1x4096xbf16>, tensor<1x40x4096xbf16>) -> tensor<1x40x4096xbf16>
    %5849 = "tensor.empty"() : () -> tensor<4096x4096xbf16>
    %5850 = "linalg.generic"(%502, %5849) <{indexing_maps = [#map3, #map8], iterator_types = [#linalg.iterator_type<parallel>, #linalg.iterator_type<parallel>], operandSegmentSizes = array<i32: 1, 1>}> ({
    ^bb0(%arg2: bf16, %arg3: bf16):
      "linalg.yield"(%arg2) : (bf16) -> ()
    }) : (tensor<4096x4096xbf16>, tensor<4096x4096xbf16>) -> tensor<4096x4096xbf16>
    %5851 = "tosa.reshape"(%5848) <{new_shape = array<i64: 40, 4096>}> : (tensor<1x40x4096xbf16>) -> tensor<40x4096xbf16>
    %5852 = "arith.constant"() <{value = dense<0.000000e+00> : tensor<40x4096xbf16>}> : () -> tensor<40x4096xbf16>
    %5853 = "linalg.matmul"(%5851, %5850, %5852) <{cast = #linalg.type_fn<cast_signed>, operandSegmentSizes = array<i32: 2, 1>}> ({
    ^bb0(%arg2: bf16, %arg3: bf16, %arg4: bf16):
      %6023 = "arith.mulf"(%arg2, %arg3) <{fastmath = #arith.fastmath<none>}> : (bf16, bf16) -> bf16
      %6024 = "arith.addf"(%arg4, %6023) <{fastmath = #arith.fastmath<none>}> : (bf16, bf16) -> bf16
      "linalg.yield"(%6024) : (bf16) -> ()
    }) : (tensor<40x4096xbf16>, tensor<4096x4096xbf16>, tensor<40x4096xbf16>) -> tensor<40x4096xbf16>
    %5854 = "tosa.reshape"(%5853) <{new_shape = array<i64: 1, 40, 4096>}> : (tensor<40x4096xbf16>) -> tensor<1x40x4096xbf16>
    %5855 = "tensor.empty"() : () -> tensor<4096x4096xbf16>
    %5856 = "linalg.generic"(%504, %5855) <{indexing_maps = [#map3, #map8], iterator_types = [#linalg.iterator_type<parallel>, #linalg.iterator_type<parallel>], operandSegmentSizes = array<i32: 1, 1>}> ({
    ^bb0(%arg2: bf16, %arg3: bf16):
      "linalg.yield"(%arg2) : (bf16) -> ()
    }) : (tensor<4096x4096xbf16>, tensor<4096x4096xbf16>) -> tensor<4096x4096xbf16>
    %5857 = "tosa.reshape"(%5848) <{new_shape = array<i64: 40, 4096>}> : (tensor<1x40x4096xbf16>) -> tensor<40x4096xbf16>
    %5858 = "arith.constant"() <{value = dense<0.000000e+00> : tensor<40x4096xbf16>}> : () -> tensor<40x4096xbf16>
    %5859 = "linalg.matmul"(%5857, %5856, %5858) <{cast = #linalg.type_fn<cast_signed>, operandSegmentSizes = array<i32: 2, 1>}> ({
    ^bb0(%arg2: bf16, %arg3: bf16, %arg4: bf16):
      %6023 = "arith.mulf"(%arg2, %arg3) <{fastmath = #arith.fastmath<none>}> : (bf16, bf16) -> bf16
      %6024 = "arith.addf"(%arg4, %6023) <{fastmath = #arith.fastmath<none>}> : (bf16, bf16) -> bf16
      "linalg.yield"(%6024) : (bf16) -> ()
    }) : (tensor<40x4096xbf16>, tensor<4096x4096xbf16>, tensor<40x4096xbf16>) -> tensor<40x4096xbf16>
    %5860 = "tosa.reshape"(%5859) <{new_shape = array<i64: 1, 40, 4096>}> : (tensor<40x4096xbf16>) -> tensor<1x40x4096xbf16>
    %5861 = "tensor.empty"() : () -> tensor<4096x4096xbf16>
    %5862 = "linalg.generic"(%506, %5861) <{indexing_maps = [#map3, #map8], iterator_types = [#linalg.iterator_type<parallel>, #linalg.iterator_type<parallel>], operandSegmentSizes = array<i32: 1, 1>}> ({
    ^bb0(%arg2: bf16, %arg3: bf16):
      "linalg.yield"(%arg2) : (bf16) -> ()
    }) : (tensor<4096x4096xbf16>, tensor<4096x4096xbf16>) -> tensor<4096x4096xbf16>
    %5863 = "tosa.reshape"(%5848) <{new_shape = array<i64: 40, 4096>}> : (tensor<1x40x4096xbf16>) -> tensor<40x4096xbf16>
    %5864 = "arith.constant"() <{value = dense<0.000000e+00> : tensor<40x4096xbf16>}> : () -> tensor<40x4096xbf16>
    %5865 = "linalg.matmul"(%5863, %5862, %5864) <{cast = #linalg.type_fn<cast_signed>, operandSegmentSizes = array<i32: 2, 1>}> ({
    ^bb0(%arg2: bf16, %arg3: bf16, %arg4: bf16):
      %6023 = "arith.mulf"(%arg2, %arg3) <{fastmath = #arith.fastmath<none>}> : (bf16, bf16) -> bf16
      %6024 = "arith.addf"(%arg4, %6023) <{fastmath = #arith.fastmath<none>}> : (bf16, bf16) -> bf16
      "linalg.yield"(%6024) : (bf16) -> ()
    }) : (tensor<40x4096xbf16>, tensor<4096x4096xbf16>, tensor<40x4096xbf16>) -> tensor<40x4096xbf16>
    %5866 = "tosa.reshape"(%5865) <{new_shape = array<i64: 1, 40, 4096>}> : (tensor<40x4096xbf16>) -> tensor<1x40x4096xbf16>
    %5867 = "tosa.reshape"(%5854) <{new_shape = array<i64: 1, 40, 32, 128>}> : (tensor<1x40x4096xbf16>) -> tensor<1x40x32x128xbf16>
    %5868 = "tensor.empty"() : () -> tensor<1x32x40x128xbf16>
    %5869 = "linalg.generic"(%5867, %5868) <{indexing_maps = [#map9, #map4], iterator_types = [#linalg.iterator_type<parallel>, #linalg.iterator_type<parallel>, #linalg.iterator_type<parallel>, #linalg.iterator_type<parallel>], operandSegmentSizes = array<i32: 1, 1>}> ({
    ^bb0(%arg2: bf16, %arg3: bf16):
      "linalg.yield"(%arg2) : (bf16) -> ()
    }) : (tensor<1x40x32x128xbf16>, tensor<1x32x40x128xbf16>) -> tensor<1x32x40x128xbf16>
    %5870 = "tosa.reshape"(%5860) <{new_shape = array<i64: 1, 40, 32, 128>}> : (tensor<1x40x4096xbf16>) -> tensor<1x40x32x128xbf16>
    %5871 = "tensor.empty"() : () -> tensor<1x32x40x128xbf16>
    %5872 = "linalg.generic"(%5870, %5871) <{indexing_maps = [#map9, #map4], iterator_types = [#linalg.iterator_type<parallel>, #linalg.iterator_type<parallel>, #linalg.iterator_type<parallel>, #linalg.iterator_type<parallel>], operandSegmentSizes = array<i32: 1, 1>}> ({
    ^bb0(%arg2: bf16, %arg3: bf16):
      "linalg.yield"(%arg2) : (bf16) -> ()
    }) : (tensor<1x40x32x128xbf16>, tensor<1x32x40x128xbf16>) -> tensor<1x32x40x128xbf16>
    %5873 = "tosa.reshape"(%5866) <{new_shape = array<i64: 1, 40, 32, 128>}> : (tensor<1x40x4096xbf16>) -> tensor<1x40x32x128xbf16>
    %5874 = "tensor.empty"() : () -> tensor<1x32x40x128xbf16>
    %5875 = "linalg.generic"(%5873, %5874) <{indexing_maps = [#map9, #map4], iterator_types = [#linalg.iterator_type<parallel>, #linalg.iterator_type<parallel>, #linalg.iterator_type<parallel>, #linalg.iterator_type<parallel>], operandSegmentSizes = array<i32: 1, 1>}> ({
    ^bb0(%arg2: bf16, %arg3: bf16):
      "linalg.yield"(%arg2) : (bf16) -> ()
    }) : (tensor<1x40x32x128xbf16>, tensor<1x32x40x128xbf16>) -> tensor<1x32x40x128xbf16>
    %5876 = "tensor.extract_slice"(%642) <{operandSegmentSizes = array<i32: 1, 0, 0, 0>, static_offsets = array<i64: 0, 0, 0, 0>, static_sizes = array<i64: 1, 1, 2048, 128>, static_strides = array<i64: 1, 1, 1, 1>}> : (tensor<1x1x2048x128xbf16>) -> tensor<1x1x2048x128xbf16>
    %5877 = "tensor.extract_slice"(%5876) <{operandSegmentSizes = array<i32: 1, 0, 0, 0>, static_offsets = array<i64: 0, 0, 0, 0>, static_sizes = array<i64: 1, 1, 2048, 128>, static_strides = array<i64: 1, 1, 1, 1>}> : (tensor<1x1x2048x128xbf16>) -> tensor<1x1x2048x128xbf16>
    %5878 = "tensor.extract_slice"(%5877) <{operandSegmentSizes = array<i32: 1, 0, 0, 0>, static_offsets = array<i64: 0, 0, 0, 0>, static_sizes = array<i64: 1, 1, 40, 128>, static_strides = array<i64: 1, 1, 1, 1>}> : (tensor<1x1x2048x128xbf16>) -> tensor<1x1x40x128xbf16>
    %5879 = "tensor.extract_slice"(%644) <{operandSegmentSizes = array<i32: 1, 0, 0, 0>, static_offsets = array<i64: 0, 0, 0, 0>, static_sizes = array<i64: 1, 1, 2048, 128>, static_strides = array<i64: 1, 1, 1, 1>}> : (tensor<1x1x2048x128xbf16>) -> tensor<1x1x2048x128xbf16>
    %5880 = "tensor.extract_slice"(%5879) <{operandSegmentSizes = array<i32: 1, 0, 0, 0>, static_offsets = array<i64: 0, 0, 0, 0>, static_sizes = array<i64: 1, 1, 2048, 128>, static_strides = array<i64: 1, 1, 1, 1>}> : (tensor<1x1x2048x128xbf16>) -> tensor<1x1x2048x128xbf16>
    %5881 = "tensor.extract_slice"(%5880) <{operandSegmentSizes = array<i32: 1, 0, 0, 0>, static_offsets = array<i64: 0, 0, 0, 0>, static_sizes = array<i64: 1, 1, 40, 128>, static_strides = array<i64: 1, 1, 1, 1>}> : (tensor<1x1x2048x128xbf16>) -> tensor<1x1x40x128xbf16>
    %5882 = "tensor.empty"() : () -> tensor<1x40x128xbf16>
    %5883 = "linalg.generic"(%5878, %5882) <{indexing_maps = [#map10, #map5], iterator_types = [#linalg.iterator_type<parallel>, #linalg.iterator_type<parallel>, #linalg.iterator_type<parallel>], operandSegmentSizes = array<i32: 1, 1>}> ({
    ^bb0(%arg2: bf16, %arg3: bf16):
      "linalg.yield"(%arg2) : (bf16) -> ()
    }) : (tensor<1x1x40x128xbf16>, tensor<1x40x128xbf16>) -> tensor<1x40x128xbf16>
    %5884 = "tensor.empty"() : () -> tensor<40x128xbf16>
    %5885 = "linalg.generic"(%5883, %5884) <{indexing_maps = [#map11, #map3], iterator_types = [#linalg.iterator_type<parallel>, #linalg.iterator_type<parallel>], operandSegmentSizes = array<i32: 1, 1>}> ({
    ^bb0(%arg2: bf16, %arg3: bf16):
      "linalg.yield"(%arg2) : (bf16) -> ()
    }) : (tensor<1x40x128xbf16>, tensor<40x128xbf16>) -> tensor<40x128xbf16>
    %5886 = "tensor.empty"() : () -> tensor<1x40x128xbf16>
    %5887 = "linalg.generic"(%5881, %5886) <{indexing_maps = [#map10, #map5], iterator_types = [#linalg.iterator_type<parallel>, #linalg.iterator_type<parallel>, #linalg.iterator_type<parallel>], operandSegmentSizes = array<i32: 1, 1>}> ({
    ^bb0(%arg2: bf16, %arg3: bf16):
      "linalg.yield"(%arg2) : (bf16) -> ()
    }) : (tensor<1x1x40x128xbf16>, tensor<1x40x128xbf16>) -> tensor<1x40x128xbf16>
    %5888 = "tensor.empty"() : () -> tensor<40x128xbf16>
    %5889 = "linalg.generic"(%5887, %5888) <{indexing_maps = [#map11, #map3], iterator_types = [#linalg.iterator_type<parallel>, #linalg.iterator_type<parallel>], operandSegmentSizes = array<i32: 1, 1>}> ({
    ^bb0(%arg2: bf16, %arg3: bf16):
      "linalg.yield"(%arg2) : (bf16) -> ()
    }) : (tensor<1x40x128xbf16>, tensor<40x128xbf16>) -> tensor<40x128xbf16>
    %5890 = "tensor.empty"() : () -> tensor<1x40x128xbf16>
    %5891 = "linalg.generic"(%647, %5890) <{indexing_maps = [#map2, #map5], iterator_types = [#linalg.iterator_type<parallel>, #linalg.iterator_type<parallel>, #linalg.iterator_type<parallel>], operandSegmentSizes = array<i32: 1, 1>}> ({
    ^bb0(%arg2: i64, %arg3: bf16):
      %6023 = "arith.index_cast"(%arg2) : (i64) -> index
      %6024 = "linalg.index"() <{dim = 2 : i64}> : () -> index
      %6025 = "tensor.extract"(%5885, %6023, %6024) : (tensor<40x128xbf16>, index, index) -> bf16
      "linalg.yield"(%6025) : (bf16) -> ()
    }) : (tensor<1x40xi64>, tensor<1x40x128xbf16>) -> tensor<1x40x128xbf16>
    %5892 = "tosa.reshape"(%5891) <{new_shape = array<i64: 1, 1, 40, 128>}> : (tensor<1x40x128xbf16>) -> tensor<1x1x40x128xbf16>
    %5893 = "tensor.empty"() : () -> tensor<1x40x128xbf16>
    %5894 = "linalg.generic"(%647, %5893) <{indexing_maps = [#map2, #map5], iterator_types = [#linalg.iterator_type<parallel>, #linalg.iterator_type<parallel>, #linalg.iterator_type<parallel>], operandSegmentSizes = array<i32: 1, 1>}> ({
    ^bb0(%arg2: i64, %arg3: bf16):
      %6023 = "arith.index_cast"(%arg2) : (i64) -> index
      %6024 = "linalg.index"() <{dim = 2 : i64}> : () -> index
      %6025 = "tensor.extract"(%5889, %6023, %6024) : (tensor<40x128xbf16>, index, index) -> bf16
      "linalg.yield"(%6025) : (bf16) -> ()
    }) : (tensor<1x40xi64>, tensor<1x40x128xbf16>) -> tensor<1x40x128xbf16>
    %5895 = "tosa.reshape"(%5894) <{new_shape = array<i64: 1, 1, 40, 128>}> : (tensor<1x40x128xbf16>) -> tensor<1x1x40x128xbf16>
    %5896 = "tosa.mul"(%5869, %5892) <{shift = 0 : i8}> : (tensor<1x32x40x128xbf16>, tensor<1x1x40x128xbf16>) -> tensor<1x32x40x128xbf16>
    %5897 = "tensor.extract_slice"(%5869) <{operandSegmentSizes = array<i32: 1, 0, 0, 0>, static_offsets = array<i64: 0, 0, 0, 0>, static_sizes = array<i64: 1, 32, 40, 64>, static_strides = array<i64: 1, 1, 1, 1>}> : (tensor<1x32x40x128xbf16>) -> tensor<1x32x40x64xbf16>
    %5898 = "tensor.extract_slice"(%5869) <{operandSegmentSizes = array<i32: 1, 0, 0, 0>, static_offsets = array<i64: 0, 0, 0, 64>, static_sizes = array<i64: 1, 32, 40, 64>, static_strides = array<i64: 1, 1, 1, 1>}> : (tensor<1x32x40x128xbf16>) -> tensor<1x32x40x64xbf16>
    %5899 = "tensor.empty"() : () -> tensor<1x32x40x64xbf16>
    %5900 = "linalg.generic"(%5898, %5899) <{indexing_maps = [#map4, #map4], iterator_types = [#linalg.iterator_type<parallel>, #linalg.iterator_type<parallel>, #linalg.iterator_type<parallel>, #linalg.iterator_type<parallel>], operandSegmentSizes = array<i32: 1, 1>}> ({
    ^bb0(%arg2: bf16, %arg3: bf16):
      %6023 = "arith.negf"(%arg2) <{fastmath = #arith.fastmath<none>}> : (bf16) -> bf16
      "linalg.yield"(%6023) : (bf16) -> ()
    }) : (tensor<1x32x40x64xbf16>, tensor<1x32x40x64xbf16>) -> tensor<1x32x40x64xbf16>
    %5901 = "tensor.empty"() : () -> tensor<1x32x40x128xbf16>
    %5902 = "tensor.insert_slice"(%5900, %5901) <{operandSegmentSizes = array<i32: 1, 1, 0, 0, 0>, static_offsets = array<i64: 0, 0, 0, 0>, static_sizes = array<i64: 1, 32, 40, 64>, static_strides = array<i64: 1, 1, 1, 1>}> : (tensor<1x32x40x64xbf16>, tensor<1x32x40x128xbf16>) -> tensor<1x32x40x128xbf16>
    %5903 = "tensor.insert_slice"(%5897, %5902) <{operandSegmentSizes = array<i32: 1, 1, 0, 0, 0>, static_offsets = array<i64: 0, 0, 0, 64>, static_sizes = array<i64: 1, 32, 40, 64>, static_strides = array<i64: 1, 1, 1, 1>}> : (tensor<1x32x40x64xbf16>, tensor<1x32x40x128xbf16>) -> tensor<1x32x40x128xbf16>
    %5904 = "tosa.mul"(%5903, %5895) <{shift = 0 : i8}> : (tensor<1x32x40x128xbf16>, tensor<1x1x40x128xbf16>) -> tensor<1x32x40x128xbf16>
    %5905 = "tosa.add"(%5896, %5904) : (tensor<1x32x40x128xbf16>, tensor<1x32x40x128xbf16>) -> tensor<1x32x40x128xbf16>
    %5906 = "tosa.mul"(%5872, %5892) <{shift = 0 : i8}> : (tensor<1x32x40x128xbf16>, tensor<1x1x40x128xbf16>) -> tensor<1x32x40x128xbf16>
    %5907 = "tensor.extract_slice"(%5872) <{operandSegmentSizes = array<i32: 1, 0, 0, 0>, static_offsets = array<i64: 0, 0, 0, 0>, static_sizes = array<i64: 1, 32, 40, 64>, static_strides = array<i64: 1, 1, 1, 1>}> : (tensor<1x32x40x128xbf16>) -> tensor<1x32x40x64xbf16>
    %5908 = "tensor.extract_slice"(%5872) <{operandSegmentSizes = array<i32: 1, 0, 0, 0>, static_offsets = array<i64: 0, 0, 0, 64>, static_sizes = array<i64: 1, 32, 40, 64>, static_strides = array<i64: 1, 1, 1, 1>}> : (tensor<1x32x40x128xbf16>) -> tensor<1x32x40x64xbf16>
    %5909 = "tensor.empty"() : () -> tensor<1x32x40x64xbf16>
    %5910 = "linalg.generic"(%5908, %5909) <{indexing_maps = [#map4, #map4], iterator_types = [#linalg.iterator_type<parallel>, #linalg.iterator_type<parallel>, #linalg.iterator_type<parallel>, #linalg.iterator_type<parallel>], operandSegmentSizes = array<i32: 1, 1>}> ({
    ^bb0(%arg2: bf16, %arg3: bf16):
      %6023 = "arith.negf"(%arg2) <{fastmath = #arith.fastmath<none>}> : (bf16) -> bf16
      "linalg.yield"(%6023) : (bf16) -> ()
    }) : (tensor<1x32x40x64xbf16>, tensor<1x32x40x64xbf16>) -> tensor<1x32x40x64xbf16>
    %5911 = "tensor.empty"() : () -> tensor<1x32x40x128xbf16>
    %5912 = "tensor.insert_slice"(%5910, %5911) <{operandSegmentSizes = array<i32: 1, 1, 0, 0, 0>, static_offsets = array<i64: 0, 0, 0, 0>, static_sizes = array<i64: 1, 32, 40, 64>, static_strides = array<i64: 1, 1, 1, 1>}> : (tensor<1x32x40x64xbf16>, tensor<1x32x40x128xbf16>) -> tensor<1x32x40x128xbf16>
    %5913 = "tensor.insert_slice"(%5907, %5912) <{operandSegmentSizes = array<i32: 1, 1, 0, 0, 0>, static_offsets = array<i64: 0, 0, 0, 64>, static_sizes = array<i64: 1, 32, 40, 64>, static_strides = array<i64: 1, 1, 1, 1>}> : (tensor<1x32x40x64xbf16>, tensor<1x32x40x128xbf16>) -> tensor<1x32x40x128xbf16>
    %5914 = "tosa.mul"(%5913, %5895) <{shift = 0 : i8}> : (tensor<1x32x40x128xbf16>, tensor<1x1x40x128xbf16>) -> tensor<1x32x40x128xbf16>
    %5915 = "tosa.add"(%5906, %5914) : (tensor<1x32x40x128xbf16>, tensor<1x32x40x128xbf16>) -> tensor<1x32x40x128xbf16>
    %5916 = "tensor.empty"() : () -> tensor<1x32x128x40xbf16>
    %5917 = "linalg.generic"(%5915, %5916) <{indexing_maps = [#map12, #map4], iterator_types = [#linalg.iterator_type<parallel>, #linalg.iterator_type<parallel>, #linalg.iterator_type<parallel>, #linalg.iterator_type<parallel>], operandSegmentSizes = array<i32: 1, 1>}> ({
    ^bb0(%arg2: bf16, %arg3: bf16):
      "linalg.yield"(%arg2) : (bf16) -> ()
    }) : (tensor<1x32x40x128xbf16>, tensor<1x32x128x40xbf16>) -> tensor<1x32x128x40xbf16>
    %5918 = "tosa.const"() <{value = dense<0.000000e+00> : tensor<1x32x40x128xbf16>}> : () -> tensor<1x32x40x128xbf16>
    %5919 = "tosa.add"(%5905, %5918) : (tensor<1x32x40x128xbf16>, tensor<1x32x40x128xbf16>) -> tensor<1x32x40x128xbf16>
    %5920 = "tosa.reshape"(%5919) <{new_shape = array<i64: 32, 40, 128>}> : (tensor<1x32x40x128xbf16>) -> tensor<32x40x128xbf16>
    %5921 = "tosa.const"() <{value = dense<0.000000e+00> : tensor<1x32x128x40xbf16>}> : () -> tensor<1x32x128x40xbf16>
    %5922 = "tosa.add"(%5917, %5921) : (tensor<1x32x128x40xbf16>, tensor<1x32x128x40xbf16>) -> tensor<1x32x128x40xbf16>
    %5923 = "tosa.reshape"(%5922) <{new_shape = array<i64: 32, 128, 40>}> : (tensor<1x32x128x40xbf16>) -> tensor<32x128x40xbf16>
    %5924 = "tosa.matmul"(%5920, %5923) : (tensor<32x40x128xbf16>, tensor<32x128x40xbf16>) -> tensor<32x40x40xbf16>
    %5925 = "tosa.reshape"(%5924) <{new_shape = array<i64: 1, 32, 40, 40>}> : (tensor<32x40x40xbf16>) -> tensor<1x32x40x40xbf16>
    %5926 = "tosa.const"() <{value = dense<1.131250e+01> : tensor<1x32x40x40xbf16>}> : () -> tensor<1x32x40x40xbf16>
    %5927 = "tosa.reciprocal"(%5926) : (tensor<1x32x40x40xbf16>) -> tensor<1x32x40x40xbf16>
    %5928 = "tosa.mul"(%5925, %5927) <{shift = 0 : i8}> : (tensor<1x32x40x40xbf16>, tensor<1x32x40x40xbf16>) -> tensor<1x32x40x40xbf16>
    %5929 = "tosa.add"(%5928, %687) : (tensor<1x32x40x40xbf16>, tensor<1x1x40x40xbf16>) -> tensor<1x32x40x40xbf16>
    %5930 = "tensor.empty"() : () -> tensor<1x32x40x40xf32>
    %5931 = "linalg.generic"(%5929, %5930) <{indexing_maps = [#map4, #map4], iterator_types = [#linalg.iterator_type<parallel>, #linalg.iterator_type<parallel>, #linalg.iterator_type<parallel>, #linalg.iterator_type<parallel>], operandSegmentSizes = array<i32: 1, 1>}> ({
    ^bb0(%arg2: bf16, %arg3: f32):
      %6023 = "arith.extf"(%arg2) : (bf16) -> f32
      "linalg.yield"(%6023) : (f32) -> ()
    }) : (tensor<1x32x40x40xbf16>, tensor<1x32x40x40xf32>) -> tensor<1x32x40x40xf32>
    %5932 = "tensor.empty"() : () -> tensor<1x32x40x1xf32>
    %5933 = "linalg.generic"(%5932) <{indexing_maps = [#map4], iterator_types = [#linalg.iterator_type<parallel>, #linalg.iterator_type<parallel>, #linalg.iterator_type<parallel>, #linalg.iterator_type<parallel>], operandSegmentSizes = array<i32: 0, 1>}> ({
    ^bb0(%arg2: f32):
      %6023 = "arith.constant"() <{value = 0xFF800000 : f32}> : () -> f32
      "linalg.yield"(%6023) : (f32) -> ()
    }) : (tensor<1x32x40x1xf32>) -> tensor<1x32x40x1xf32>
    %5934 = "linalg.generic"(%5931, %5932) <{indexing_maps = [#map4, #map13], iterator_types = [#linalg.iterator_type<parallel>, #linalg.iterator_type<parallel>, #linalg.iterator_type<parallel>, #linalg.iterator_type<reduction>], operandSegmentSizes = array<i32: 1, 1>}> ({
    ^bb0(%arg2: f32, %arg3: f32):
      %6023 = "arith.maximumf"(%arg2, %arg3) <{fastmath = #arith.fastmath<none>}> : (f32, f32) -> f32
      "linalg.yield"(%6023) : (f32) -> ()
    }) : (tensor<1x32x40x40xf32>, tensor<1x32x40x1xf32>) -> tensor<1x32x40x1xf32>
    %5935 = "tensor.empty"() : () -> tensor<1x32x40x40xf32>
    %5936 = "linalg.generic"(%5931, %5934, %5935) <{indexing_maps = [#map4, #map13, #map4], iterator_types = [#linalg.iterator_type<parallel>, #linalg.iterator_type<parallel>, #linalg.iterator_type<parallel>, #linalg.iterator_type<parallel>], operandSegmentSizes = array<i32: 2, 1>}> ({
    ^bb0(%arg2: f32, %arg3: f32, %arg4: f32):
      %6023 = "arith.subf"(%arg2, %arg3) <{fastmath = #arith.fastmath<none>}> : (f32, f32) -> f32
      %6024 = "math.exp"(%6023) <{fastmath = #arith.fastmath<none>}> : (f32) -> f32
      "linalg.yield"(%6024) : (f32) -> ()
    }) : (tensor<1x32x40x40xf32>, tensor<1x32x40x1xf32>, tensor<1x32x40x40xf32>) -> tensor<1x32x40x40xf32>
    %5937 = "tensor.empty"() : () -> tensor<1x32x40x1xf32>
    %5938 = "linalg.generic"(%5937) <{indexing_maps = [#map4], iterator_types = [#linalg.iterator_type<parallel>, #linalg.iterator_type<parallel>, #linalg.iterator_type<parallel>, #linalg.iterator_type<parallel>], operandSegmentSizes = array<i32: 0, 1>}> ({
    ^bb0(%arg2: f32):
      %6023 = "arith.constant"() <{value = 0.000000e+00 : f32}> : () -> f32
      "linalg.yield"(%6023) : (f32) -> ()
    }) : (tensor<1x32x40x1xf32>) -> tensor<1x32x40x1xf32>
    %5939 = "linalg.generic"(%5936, %5938) <{indexing_maps = [#map4, #map13], iterator_types = [#linalg.iterator_type<parallel>, #linalg.iterator_type<parallel>, #linalg.iterator_type<parallel>, #linalg.iterator_type<reduction>], operandSegmentSizes = array<i32: 1, 1>}> ({
    ^bb0(%arg2: f32, %arg3: f32):
      %6023 = "arith.addf"(%arg2, %arg3) <{fastmath = #arith.fastmath<none>}> : (f32, f32) -> f32
      "linalg.yield"(%6023) : (f32) -> ()
    }) : (tensor<1x32x40x40xf32>, tensor<1x32x40x1xf32>) -> tensor<1x32x40x1xf32>
    %5940 = "tensor.empty"() : () -> tensor<1x32x40x40xf32>
    %5941 = "linalg.generic"(%5936, %5939, %5940) <{indexing_maps = [#map4, #map13, #map4], iterator_types = [#linalg.iterator_type<parallel>, #linalg.iterator_type<parallel>, #linalg.iterator_type<parallel>, #linalg.iterator_type<parallel>], operandSegmentSizes = array<i32: 2, 1>}> ({
    ^bb0(%arg2: f32, %arg3: f32, %arg4: f32):
      %6023 = "arith.divf"(%arg2, %arg3) <{fastmath = #arith.fastmath<none>}> : (f32, f32) -> f32
      "linalg.yield"(%6023) : (f32) -> ()
    }) : (tensor<1x32x40x40xf32>, tensor<1x32x40x1xf32>, tensor<1x32x40x40xf32>) -> tensor<1x32x40x40xf32>
    %5942 = "tensor.empty"() : () -> tensor<1x32x40x40xbf16>
    %5943 = "linalg.generic"(%5941, %5942) <{indexing_maps = [#map4, #map4], iterator_types = [#linalg.iterator_type<parallel>, #linalg.iterator_type<parallel>, #linalg.iterator_type<parallel>, #linalg.iterator_type<parallel>], operandSegmentSizes = array<i32: 1, 1>}> ({
    ^bb0(%arg2: f32, %arg3: bf16):
      %6023 = "arith.truncf"(%arg2) : (f32) -> bf16
      "linalg.yield"(%6023) : (bf16) -> ()
    }) : (tensor<1x32x40x40xf32>, tensor<1x32x40x40xbf16>) -> tensor<1x32x40x40xbf16>
    %5944 = "tosa.const"() <{value = dense<0.000000e+00> : tensor<1x32x40x40xbf16>}> : () -> tensor<1x32x40x40xbf16>
    %5945 = "tosa.add"(%5943, %5944) : (tensor<1x32x40x40xbf16>, tensor<1x32x40x40xbf16>) -> tensor<1x32x40x40xbf16>
    %5946 = "tosa.reshape"(%5945) <{new_shape = array<i64: 32, 40, 40>}> : (tensor<1x32x40x40xbf16>) -> tensor<32x40x40xbf16>
    %5947 = "tosa.const"() <{value = dense<0.000000e+00> : tensor<1x32x40x128xbf16>}> : () -> tensor<1x32x40x128xbf16>
    %5948 = "tosa.add"(%5875, %5947) : (tensor<1x32x40x128xbf16>, tensor<1x32x40x128xbf16>) -> tensor<1x32x40x128xbf16>
    %5949 = "tosa.reshape"(%5948) <{new_shape = array<i64: 32, 40, 128>}> : (tensor<1x32x40x128xbf16>) -> tensor<32x40x128xbf16>
    %5950 = "tosa.matmul"(%5946, %5949) : (tensor<32x40x40xbf16>, tensor<32x40x128xbf16>) -> tensor<32x40x128xbf16>
    %5951 = "tosa.reshape"(%5950) <{new_shape = array<i64: 1, 32, 40, 128>}> : (tensor<32x40x128xbf16>) -> tensor<1x32x40x128xbf16>
    %5952 = "tensor.empty"() : () -> tensor<1x40x32x128xbf16>
    %5953 = "linalg.generic"(%5951, %5952) <{indexing_maps = [#map9, #map4], iterator_types = [#linalg.iterator_type<parallel>, #linalg.iterator_type<parallel>, #linalg.iterator_type<parallel>, #linalg.iterator_type<parallel>], operandSegmentSizes = array<i32: 1, 1>}> ({
    ^bb0(%arg2: bf16, %arg3: bf16):
      "linalg.yield"(%arg2) : (bf16) -> ()
    }) : (tensor<1x32x40x128xbf16>, tensor<1x40x32x128xbf16>) -> tensor<1x40x32x128xbf16>
    %5954 = "tosa.identity"(%5953) : (tensor<1x40x32x128xbf16>) -> tensor<1x40x32x128xbf16>
    %5955 = "tosa.reshape"(%5954) <{new_shape = array<i64: 1, 40, 4096>}> : (tensor<1x40x32x128xbf16>) -> tensor<1x40x4096xbf16>
    %5956 = "tensor.empty"() : () -> tensor<4096x4096xbf16>
    %5957 = "linalg.generic"(%508, %5956) <{indexing_maps = [#map3, #map8], iterator_types = [#linalg.iterator_type<parallel>, #linalg.iterator_type<parallel>], operandSegmentSizes = array<i32: 1, 1>}> ({
    ^bb0(%arg2: bf16, %arg3: bf16):
      "linalg.yield"(%arg2) : (bf16) -> ()
    }) : (tensor<4096x4096xbf16>, tensor<4096x4096xbf16>) -> tensor<4096x4096xbf16>
    %5958 = "tosa.reshape"(%5955) <{new_shape = array<i64: 40, 4096>}> : (tensor<1x40x4096xbf16>) -> tensor<40x4096xbf16>
    %5959 = "arith.constant"() <{value = dense<0.000000e+00> : tensor<40x4096xbf16>}> : () -> tensor<40x4096xbf16>
    %5960 = "linalg.matmul"(%5958, %5957, %5959) <{cast = #linalg.type_fn<cast_signed>, operandSegmentSizes = array<i32: 2, 1>}> ({
    ^bb0(%arg2: bf16, %arg3: bf16, %arg4: bf16):
      %6023 = "arith.mulf"(%arg2, %arg3) <{fastmath = #arith.fastmath<none>}> : (bf16, bf16) -> bf16
      %6024 = "arith.addf"(%arg4, %6023) <{fastmath = #arith.fastmath<none>}> : (bf16, bf16) -> bf16
      "linalg.yield"(%6024) : (bf16) -> ()
    }) : (tensor<40x4096xbf16>, tensor<4096x4096xbf16>, tensor<40x4096xbf16>) -> tensor<40x4096xbf16>
    %5961 = "tosa.reshape"(%5960) <{new_shape = array<i64: 1, 40, 4096>}> : (tensor<40x4096xbf16>) -> tensor<1x40x4096xbf16>
    %5962 = "tosa.add"(%5833, %5961) : (tensor<1x40x4096xbf16>, tensor<1x40x4096xbf16>) -> tensor<1x40x4096xbf16>
    %5963 = "tensor.empty"() : () -> tensor<1x40x4096xf32>
    %5964 = "linalg.generic"(%5962, %5963) <{indexing_maps = [#map5, #map5], iterator_types = [#linalg.iterator_type<parallel>, #linalg.iterator_type<parallel>, #linalg.iterator_type<parallel>], operandSegmentSizes = array<i32: 1, 1>}> ({
    ^bb0(%arg2: bf16, %arg3: f32):
      %6023 = "arith.extf"(%arg2) : (bf16) -> f32
      "linalg.yield"(%6023) : (f32) -> ()
    }) : (tensor<1x40x4096xbf16>, tensor<1x40x4096xf32>) -> tensor<1x40x4096xf32>
    %5965 = "tensor.empty"() : () -> tensor<1x40x4096xf32>
    %5966 = "arith.constant"() <{value = 2 : i32}> : () -> i32
    %5967 = "linalg.generic"(%5964, %5965) <{indexing_maps = [#map5, #map5], iterator_types = [#linalg.iterator_type<parallel>, #linalg.iterator_type<parallel>, #linalg.iterator_type<parallel>], operandSegmentSizes = array<i32: 1, 1>}> ({
    ^bb0(%arg2: f32, %arg3: f32):
      %6023 = "math.fpowi"(%arg2, %5966) <{fastmath = #arith.fastmath<none>}> : (f32, i32) -> f32
      "linalg.yield"(%6023) : (f32) -> ()
    }) : (tensor<1x40x4096xf32>, tensor<1x40x4096xf32>) -> tensor<1x40x4096xf32>
    %5968 = "arith.constant"() <{value = dense<0.000000e+00> : tensor<1x40x1xf32>}> : () -> tensor<1x40x1xf32>
    %5969 = "linalg.generic"(%5967, %5968) <{indexing_maps = [#map6, #map7], iterator_types = [#linalg.iterator_type<parallel>, #linalg.iterator_type<parallel>, #linalg.iterator_type<reduction>, #linalg.iterator_type<parallel>], operandSegmentSizes = array<i32: 1, 1>}> ({
    ^bb0(%arg2: f32, %arg3: f32):
      %6023 = "arith.constant"() <{value = 4.096000e+03 : f32}> : () -> f32
      %6024 = "arith.divf"(%arg2, %6023) <{fastmath = #arith.fastmath<none>}> : (f32, f32) -> f32
      %6025 = "arith.addf"(%6024, %arg3) <{fastmath = #arith.fastmath<none>}> : (f32, f32) -> f32
      "linalg.yield"(%6025) : (f32) -> ()
    }) : (tensor<1x40x4096xf32>, tensor<1x40x1xf32>) -> tensor<1x40x1xf32>
    %5970 = "tosa.const"() <{value = dense<9.99999974E-6> : tensor<1x40x1xf32>}> : () -> tensor<1x40x1xf32>
    %5971 = "tosa.add"(%5969, %5970) : (tensor<1x40x1xf32>, tensor<1x40x1xf32>) -> tensor<1x40x1xf32>
    %5972 = "tosa.rsqrt"(%5971) : (tensor<1x40x1xf32>) -> tensor<1x40x1xf32>
    %5973 = "tosa.mul"(%5964, %5972) <{shift = 0 : i8}> : (tensor<1x40x4096xf32>, tensor<1x40x1xf32>) -> tensor<1x40x4096xf32>
    %5974 = "tensor.empty"() : () -> tensor<1x40x4096xbf16>
    %5975 = "linalg.generic"(%5973, %5974) <{indexing_maps = [#map5, #map5], iterator_types = [#linalg.iterator_type<parallel>, #linalg.iterator_type<parallel>, #linalg.iterator_type<parallel>], operandSegmentSizes = array<i32: 1, 1>}> ({
    ^bb0(%arg2: f32, %arg3: bf16):
      %6023 = "arith.truncf"(%arg2) : (f32) -> bf16
      "linalg.yield"(%6023) : (bf16) -> ()
    }) : (tensor<1x40x4096xf32>, tensor<1x40x4096xbf16>) -> tensor<1x40x4096xbf16>
    %5976 = "tosa.reshape"(%63) <{new_shape = array<i64: 1, 1, 4096>}> : (tensor<4096xbf16>) -> tensor<1x1x4096xbf16>
    %5977 = "tosa.mul"(%5976, %5975) <{shift = 0 : i8}> : (tensor<1x1x4096xbf16>, tensor<1x40x4096xbf16>) -> tensor<1x40x4096xbf16>
    %5978 = "tensor.empty"() : () -> tensor<4096x11008xbf16>
    %5979 = "linalg.generic"(%510, %5978) <{indexing_maps = [#map3, #map8], iterator_types = [#linalg.iterator_type<parallel>, #linalg.iterator_type<parallel>], operandSegmentSizes = array<i32: 1, 1>}> ({
    ^bb0(%arg2: bf16, %arg3: bf16):
      "linalg.yield"(%arg2) : (bf16) -> ()
    }) : (tensor<11008x4096xbf16>, tensor<4096x11008xbf16>) -> tensor<4096x11008xbf16>
    %5980 = "tosa.reshape"(%5977) <{new_shape = array<i64: 40, 4096>}> : (tensor<1x40x4096xbf16>) -> tensor<40x4096xbf16>
    %5981 = "arith.constant"() <{value = dense<0.000000e+00> : tensor<40x11008xbf16>}> : () -> tensor<40x11008xbf16>
    %5982 = "linalg.matmul"(%5980, %5979, %5981) <{cast = #linalg.type_fn<cast_signed>, operandSegmentSizes = array<i32: 2, 1>}> ({
    ^bb0(%arg2: bf16, %arg3: bf16, %arg4: bf16):
      %6023 = "arith.mulf"(%arg2, %arg3) <{fastmath = #arith.fastmath<none>}> : (bf16, bf16) -> bf16
      %6024 = "arith.addf"(%arg4, %6023) <{fastmath = #arith.fastmath<none>}> : (bf16, bf16) -> bf16
      "linalg.yield"(%6024) : (bf16) -> ()
    }) : (tensor<40x4096xbf16>, tensor<4096x11008xbf16>, tensor<40x11008xbf16>) -> tensor<40x11008xbf16>
    %5983 = "tosa.reshape"(%5982) <{new_shape = array<i64: 1, 40, 11008>}> : (tensor<40x11008xbf16>) -> tensor<1x40x11008xbf16>
    %5984 = "tensor.empty"() : () -> tensor<1x40x11008xbf16>
    %5985 = "linalg.generic"(%5983, %5984) <{indexing_maps = [#map5, #map5], iterator_types = [#linalg.iterator_type<parallel>, #linalg.iterator_type<parallel>, #linalg.iterator_type<parallel>], operandSegmentSizes = array<i32: 1, 1>}> ({
    ^bb0(%arg2: bf16, %arg3: bf16):
      %6023 = "arith.negf"(%arg2) <{fastmath = #arith.fastmath<none>}> : (bf16) -> bf16
      %6024 = "math.exp"(%6023) <{fastmath = #arith.fastmath<none>}> : (bf16) -> bf16
      %6025 = "arith.constant"() <{value = 1.000000e+00 : bf16}> : () -> bf16
      %6026 = "arith.addf"(%6025, %6024) <{fastmath = #arith.fastmath<none>}> : (bf16, bf16) -> bf16
      %6027 = "arith.divf"(%arg2, %6026) <{fastmath = #arith.fastmath<none>}> : (bf16, bf16) -> bf16
      "linalg.yield"(%6027) : (bf16) -> ()
    }) : (tensor<1x40x11008xbf16>, tensor<1x40x11008xbf16>) -> tensor<1x40x11008xbf16>
    %5986 = "tensor.empty"() : () -> tensor<4096x11008xbf16>
    %5987 = "linalg.generic"(%512, %5986) <{indexing_maps = [#map3, #map8], iterator_types = [#linalg.iterator_type<parallel>, #linalg.iterator_type<parallel>], operandSegmentSizes = array<i32: 1, 1>}> ({
    ^bb0(%arg2: bf16, %arg3: bf16):
      "linalg.yield"(%arg2) : (bf16) -> ()
    }) : (tensor<11008x4096xbf16>, tensor<4096x11008xbf16>) -> tensor<4096x11008xbf16>
    %5988 = "tosa.reshape"(%5977) <{new_shape = array<i64: 40, 4096>}> : (tensor<1x40x4096xbf16>) -> tensor<40x4096xbf16>
    %5989 = "arith.constant"() <{value = dense<0.000000e+00> : tensor<40x11008xbf16>}> : () -> tensor<40x11008xbf16>
    %5990 = "linalg.matmul"(%5988, %5987, %5989) <{cast = #linalg.type_fn<cast_signed>, operandSegmentSizes = array<i32: 2, 1>}> ({
    ^bb0(%arg2: bf16, %arg3: bf16, %arg4: bf16):
      %6023 = "arith.mulf"(%arg2, %arg3) <{fastmath = #arith.fastmath<none>}> : (bf16, bf16) -> bf16
      %6024 = "arith.addf"(%arg4, %6023) <{fastmath = #arith.fastmath<none>}> : (bf16, bf16) -> bf16
      "linalg.yield"(%6024) : (bf16) -> ()
    }) : (tensor<40x4096xbf16>, tensor<4096x11008xbf16>, tensor<40x11008xbf16>) -> tensor<40x11008xbf16>
    %5991 = "tosa.reshape"(%5990) <{new_shape = array<i64: 1, 40, 11008>}> : (tensor<40x11008xbf16>) -> tensor<1x40x11008xbf16>
    %5992 = "tosa.mul"(%5985, %5991) <{shift = 0 : i8}> : (tensor<1x40x11008xbf16>, tensor<1x40x11008xbf16>) -> tensor<1x40x11008xbf16>
    %5993 = "tensor.empty"() : () -> tensor<11008x4096xbf16>
    %5994 = "linalg.generic"(%514, %5993) <{indexing_maps = [#map3, #map8], iterator_types = [#linalg.iterator_type<parallel>, #linalg.iterator_type<parallel>], operandSegmentSizes = array<i32: 1, 1>}> ({
    ^bb0(%arg2: bf16, %arg3: bf16):
      "linalg.yield"(%arg2) : (bf16) -> ()
    }) : (tensor<4096x11008xbf16>, tensor<11008x4096xbf16>) -> tensor<11008x4096xbf16>
    %5995 = "tosa.reshape"(%5992) <{new_shape = array<i64: 40, 11008>}> : (tensor<1x40x11008xbf16>) -> tensor<40x11008xbf16>
    %5996 = "arith.constant"() <{value = dense<0.000000e+00> : tensor<40x4096xbf16>}> : () -> tensor<40x4096xbf16>
    %5997 = "linalg.matmul"(%5995, %5994, %5996) <{cast = #linalg.type_fn<cast_signed>, operandSegmentSizes = array<i32: 2, 1>}> ({
    ^bb0(%arg2: bf16, %arg3: bf16, %arg4: bf16):
      %6023 = "arith.mulf"(%arg2, %arg3) <{fastmath = #arith.fastmath<none>}> : (bf16, bf16) -> bf16
      %6024 = "arith.addf"(%arg4, %6023) <{fastmath = #arith.fastmath<none>}> : (bf16, bf16) -> bf16
      "linalg.yield"(%6024) : (bf16) -> ()
    }) : (tensor<40x11008xbf16>, tensor<11008x4096xbf16>, tensor<40x4096xbf16>) -> tensor<40x4096xbf16>
    %5998 = "tosa.reshape"(%5997) <{new_shape = array<i64: 1, 40, 4096>}> : (tensor<40x4096xbf16>) -> tensor<1x40x4096xbf16>
    %5999 = "tosa.add"(%5962, %5998) : (tensor<1x40x4096xbf16>, tensor<1x40x4096xbf16>) -> tensor<1x40x4096xbf16>
    %6000 = "tensor.empty"() : () -> tensor<1x40x4096xf32>
    %6001 = "linalg.generic"(%5999, %6000) <{indexing_maps = [#map5, #map5], iterator_types = [#linalg.iterator_type<parallel>, #linalg.iterator_type<parallel>, #linalg.iterator_type<parallel>], operandSegmentSizes = array<i32: 1, 1>}> ({
    ^bb0(%arg2: bf16, %arg3: f32):
      %6023 = "arith.extf"(%arg2) : (bf16) -> f32
      "linalg.yield"(%6023) : (f32) -> ()
    }) : (tensor<1x40x4096xbf16>, tensor<1x40x4096xf32>) -> tensor<1x40x4096xf32>
    %6002 = "tensor.empty"() : () -> tensor<1x40x4096xf32>
    %6003 = "arith.constant"() <{value = 2 : i32}> : () -> i32
    %6004 = "linalg.generic"(%6001, %6002) <{indexing_maps = [#map5, #map5], iterator_types = [#linalg.iterator_type<parallel>, #linalg.iterator_type<parallel>, #linalg.iterator_type<parallel>], operandSegmentSizes = array<i32: 1, 1>}> ({
    ^bb0(%arg2: f32, %arg3: f32):
      %6023 = "math.fpowi"(%arg2, %6003) <{fastmath = #arith.fastmath<none>}> : (f32, i32) -> f32
      "linalg.yield"(%6023) : (f32) -> ()
    }) : (tensor<1x40x4096xf32>, tensor<1x40x4096xf32>) -> tensor<1x40x4096xf32>
    %6005 = "arith.constant"() <{value = dense<0.000000e+00> : tensor<1x40x1xf32>}> : () -> tensor<1x40x1xf32>
    %6006 = "linalg.generic"(%6004, %6005) <{indexing_maps = [#map6, #map7], iterator_types = [#linalg.iterator_type<parallel>, #linalg.iterator_type<parallel>, #linalg.iterator_type<reduction>, #linalg.iterator_type<parallel>], operandSegmentSizes = array<i32: 1, 1>}> ({
    ^bb0(%arg2: f32, %arg3: f32):
      %6023 = "arith.constant"() <{value = 4.096000e+03 : f32}> : () -> f32
      %6024 = "arith.divf"(%arg2, %6023) <{fastmath = #arith.fastmath<none>}> : (f32, f32) -> f32
      %6025 = "arith.addf"(%6024, %arg3) <{fastmath = #arith.fastmath<none>}> : (f32, f32) -> f32
      "linalg.yield"(%6025) : (f32) -> ()
    }) : (tensor<1x40x4096xf32>, tensor<1x40x1xf32>) -> tensor<1x40x1xf32>
    %6007 = "tosa.const"() <{value = dense<9.99999974E-6> : tensor<1x40x1xf32>}> : () -> tensor<1x40x1xf32>
    %6008 = "tosa.add"(%6006, %6007) : (tensor<1x40x1xf32>, tensor<1x40x1xf32>) -> tensor<1x40x1xf32>
    %6009 = "tosa.rsqrt"(%6008) : (tensor<1x40x1xf32>) -> tensor<1x40x1xf32>
    %6010 = "tosa.mul"(%6001, %6009) <{shift = 0 : i8}> : (tensor<1x40x4096xf32>, tensor<1x40x1xf32>) -> tensor<1x40x4096xf32>
    %6011 = "tensor.empty"() : () -> tensor<1x40x4096xbf16>
    %6012 = "linalg.generic"(%6010, %6011) <{indexing_maps = [#map5, #map5], iterator_types = [#linalg.iterator_type<parallel>, #linalg.iterator_type<parallel>, #linalg.iterator_type<parallel>], operandSegmentSizes = array<i32: 1, 1>}> ({
    ^bb0(%arg2: f32, %arg3: bf16):
      %6023 = "arith.truncf"(%arg2) : (f32) -> bf16
      "linalg.yield"(%6023) : (bf16) -> ()
    }) : (tensor<1x40x4096xf32>, tensor<1x40x4096xbf16>) -> tensor<1x40x4096xbf16>
    %6013 = "tosa.reshape"(%64) <{new_shape = array<i64: 1, 1, 4096>}> : (tensor<4096xbf16>) -> tensor<1x1x4096xbf16>
    %6014 = "tosa.mul"(%6013, %6012) <{shift = 0 : i8}> : (tensor<1x1x4096xbf16>, tensor<1x40x4096xbf16>) -> tensor<1x40x4096xbf16>
    %6015 = "tensor.empty"() : () -> tensor<4096x32000xbf16>
    %6016 = "linalg.generic"(%516, %6015) <{indexing_maps = [#map3, #map8], iterator_types = [#linalg.iterator_type<parallel>, #linalg.iterator_type<parallel>], operandSegmentSizes = array<i32: 1, 1>}> ({
    ^bb0(%arg2: bf16, %arg3: bf16):
      "linalg.yield"(%arg2) : (bf16) -> ()
    }) : (tensor<32000x4096xbf16>, tensor<4096x32000xbf16>) -> tensor<4096x32000xbf16>
    %6017 = "tosa.reshape"(%6014) <{new_shape = array<i64: 40, 4096>}> : (tensor<1x40x4096xbf16>) -> tensor<40x4096xbf16>
    %6018 = "arith.constant"() <{value = dense<0.000000e+00> : tensor<40x32000xbf16>}> : () -> tensor<40x32000xbf16>
    %6019 = "linalg.matmul"(%6017, %6016, %6018) <{cast = #linalg.type_fn<cast_signed>, operandSegmentSizes = array<i32: 2, 1>}> ({
    ^bb0(%arg2: bf16, %arg3: bf16, %arg4: bf16):
      %6023 = "arith.mulf"(%arg2, %arg3) <{fastmath = #arith.fastmath<none>}> : (bf16, bf16) -> bf16
      %6024 = "arith.addf"(%arg4, %6023) <{fastmath = #arith.fastmath<none>}> : (bf16, bf16) -> bf16
      "linalg.yield"(%6024) : (bf16) -> ()
    }) : (tensor<40x4096xbf16>, tensor<4096x32000xbf16>, tensor<40x32000xbf16>) -> tensor<40x32000xbf16>
    %6020 = "tosa.reshape"(%6019) <{new_shape = array<i64: 1, 40, 32000>}> : (tensor<40x32000xbf16>) -> tensor<1x40x32000xbf16>
    %6021 = "tensor.empty"() : () -> tensor<1x40x32000xf32>
    %6022 = "linalg.generic"(%6020, %6021) <{indexing_maps = [#map5, #map5], iterator_types = [#linalg.iterator_type<parallel>, #linalg.iterator_type<parallel>, #linalg.iterator_type<parallel>], operandSegmentSizes = array<i32: 1, 1>}> ({
    ^bb0(%arg2: bf16, %arg3: f32):
      %6023 = "arith.extf"(%arg2) : (bf16) -> f32
      "linalg.yield"(%6023) : (f32) -> ()
    }) : (tensor<1x40x32000xbf16>, tensor<1x40x32000xf32>) -> tensor<1x40x32000xf32>
    "func.return"(%6022, %6014) : (tensor<1x40x32000xf32>, tensor<1x40x4096xbf16>) -> ()
  }) : () -> ()
}) : () -> ()

