2023-12-28 09:22:12.217214: I tensorflow/core/util/port.cc:113] oneDNN custom operations are on. You may see slightly different numerical results due to floating-point round-off errors from different computation orders. To turn them off, set the environment variable `TF_ENABLE_ONEDNN_OPTS=0`.
2023-12-28 09:22:12.261455: E external/local_xla/xla/stream_executor/cuda/cuda_dnn.cc:9261] Unable to register cuDNN factory: Attempting to register factory for plugin cuDNN when one has already been registered
2023-12-28 09:22:12.261497: E external/local_xla/xla/stream_executor/cuda/cuda_fft.cc:607] Unable to register cuFFT factory: Attempting to register factory for plugin cuFFT when one has already been registered
2023-12-28 09:22:12.263036: E external/local_xla/xla/stream_executor/cuda/cuda_blas.cc:1515] Unable to register cuBLAS factory: Attempting to register factory for plugin cuBLAS when one has already been registered
2023-12-28 09:22:12.270570: I tensorflow/core/platform/cpu_feature_guard.cc:182] This TensorFlow binary is optimized to use available CPU instructions in performance-critical operations.
To enable the following instructions: AVX2 AVX512F AVX512_VNNI FMA, in other operations, rebuild TensorFlow with the appropriate compiler flags.
2023-12-28 09:22:13.290523: W tensorflow/compiler/tf2tensorrt/utils/py_utils.cc:38] TF-TRT Warning: Could not find TensorRT
You are using the default legacy behaviour of the <class 'transformers.models.llama.tokenization_llama.LlamaTokenizer'>. If you see this, DO NOT PANIC! This is expected, and simply means that the `legacy` (previous) behavior will be used so nothing changes for you. If you want to use the new behaviour, set `legacy=False`. This should only be set if you understand what it means, and thouroughly read the reason why this was added as explained in https://github.com/huggingface/transformers/pull/24565
Loading checkpoint shards:   0%|          | 0/2 [00:00<?, ?it/s]Loading checkpoint shards:  50%|█████     | 1/2 [00:08<00:08,  8.42s/it]Loading checkpoint shards: 100%|██████████| 2/2 [00:11<00:00,  5.20s/it]Loading checkpoint shards: 100%|██████████| 2/2 [00:11<00:00,  5.69s/it]
#map = affine_map<(d0, d1, d2) -> (d0, d1)>
#map1 = affine_map<(d0, d1, d2) -> (d0, d1, d2)>
#map2 = affine_map<(d0, d1, d2) -> (d1)>
#map3 = affine_map<(d0, d1, d2) -> (d0, d2)>
#map4 = affine_map<(d0, d1) -> (d0, d1)>
#map5 = affine_map<(d0, d1, d2, d3) -> (d0, d1, d2, d3)>
#map6 = affine_map<(d0, d1, d2, d3) -> (d0, d1, d2)>
#map7 = affine_map<(d0, d1, d2, d3) -> (d0, d1, d3)>
#map8 = affine_map<(d0, d1, d2) -> (d2)>
#map9 = affine_map<(d0, d1) -> (d1, d0)>
#map10 = affine_map<(d0, d1, d2, d3) -> (d0, d2, d1, d3)>
#map11 = affine_map<(d0, d1, d2) -> (d0, 0, d1, d2)>
#map12 = affine_map<(d0, d1) -> (0, d0, d1)>
#map13 = affine_map<(d0, d1, d2, d3, d4) -> (d0, d4, d2, d3)>
#map14 = affine_map<(d0, d1, d2, d3, d4) -> (d0, d1, d2, d3)>
#map15 = affine_map<(d0, d1, d2, d3) -> (d0, d1, d3, d2)>
#map16 = affine_map<(d0, d1, d2, d3) -> (d0, d1, d2, 0)>
module {
  func.func @forward(%arg0: tensor<6755192832xf32>, %arg1: tensor<1x40xi64>) -> (tensor<1x40x32000xf32>, tensor<1x40x4096xf32>) {
    %extracted_slice = tensor.extract_slice %arg0[0] [4096] [1] : tensor<6755192832xf32> to tensor<4096xf32>
    %extracted_slice_0 = tensor.extract_slice %arg0[4096] [4096] [1] : tensor<6755192832xf32> to tensor<4096xf32>
    %extracted_slice_1 = tensor.extract_slice %arg0[8192] [4096] [1] : tensor<6755192832xf32> to tensor<4096xf32>
    %extracted_slice_2 = tensor.extract_slice %arg0[12288] [4096] [1] : tensor<6755192832xf32> to tensor<4096xf32>
    %extracted_slice_3 = tensor.extract_slice %arg0[16384] [4096] [1] : tensor<6755192832xf32> to tensor<4096xf32>
    %extracted_slice_4 = tensor.extract_slice %arg0[20480] [4096] [1] : tensor<6755192832xf32> to tensor<4096xf32>
    %extracted_slice_5 = tensor.extract_slice %arg0[24576] [4096] [1] : tensor<6755192832xf32> to tensor<4096xf32>
    %extracted_slice_6 = tensor.extract_slice %arg0[28672] [4096] [1] : tensor<6755192832xf32> to tensor<4096xf32>
    %extracted_slice_7 = tensor.extract_slice %arg0[32768] [4096] [1] : tensor<6755192832xf32> to tensor<4096xf32>
    %extracted_slice_8 = tensor.extract_slice %arg0[36864] [4096] [1] : tensor<6755192832xf32> to tensor<4096xf32>
    %extracted_slice_9 = tensor.extract_slice %arg0[40960] [4096] [1] : tensor<6755192832xf32> to tensor<4096xf32>
    %extracted_slice_10 = tensor.extract_slice %arg0[45056] [4096] [1] : tensor<6755192832xf32> to tensor<4096xf32>
    %extracted_slice_11 = tensor.extract_slice %arg0[49152] [4096] [1] : tensor<6755192832xf32> to tensor<4096xf32>
    %extracted_slice_12 = tensor.extract_slice %arg0[53248] [4096] [1] : tensor<6755192832xf32> to tensor<4096xf32>
    %extracted_slice_13 = tensor.extract_slice %arg0[57344] [4096] [1] : tensor<6755192832xf32> to tensor<4096xf32>
    %extracted_slice_14 = tensor.extract_slice %arg0[61440] [4096] [1] : tensor<6755192832xf32> to tensor<4096xf32>
    %extracted_slice_15 = tensor.extract_slice %arg0[65536] [4096] [1] : tensor<6755192832xf32> to tensor<4096xf32>
    %extracted_slice_16 = tensor.extract_slice %arg0[69632] [4096] [1] : tensor<6755192832xf32> to tensor<4096xf32>
    %extracted_slice_17 = tensor.extract_slice %arg0[73728] [4096] [1] : tensor<6755192832xf32> to tensor<4096xf32>
    %extracted_slice_18 = tensor.extract_slice %arg0[77824] [4096] [1] : tensor<6755192832xf32> to tensor<4096xf32>
    %extracted_slice_19 = tensor.extract_slice %arg0[81920] [4096] [1] : tensor<6755192832xf32> to tensor<4096xf32>
    %extracted_slice_20 = tensor.extract_slice %arg0[86016] [4096] [1] : tensor<6755192832xf32> to tensor<4096xf32>
    %extracted_slice_21 = tensor.extract_slice %arg0[90112] [4096] [1] : tensor<6755192832xf32> to tensor<4096xf32>
    %extracted_slice_22 = tensor.extract_slice %arg0[94208] [4096] [1] : tensor<6755192832xf32> to tensor<4096xf32>
    %extracted_slice_23 = tensor.extract_slice %arg0[98304] [4096] [1] : tensor<6755192832xf32> to tensor<4096xf32>
    %extracted_slice_24 = tensor.extract_slice %arg0[102400] [4096] [1] : tensor<6755192832xf32> to tensor<4096xf32>
    %extracted_slice_25 = tensor.extract_slice %arg0[106496] [4096] [1] : tensor<6755192832xf32> to tensor<4096xf32>
    %extracted_slice_26 = tensor.extract_slice %arg0[110592] [4096] [1] : tensor<6755192832xf32> to tensor<4096xf32>
    %extracted_slice_27 = tensor.extract_slice %arg0[114688] [4096] [1] : tensor<6755192832xf32> to tensor<4096xf32>
    %extracted_slice_28 = tensor.extract_slice %arg0[118784] [4096] [1] : tensor<6755192832xf32> to tensor<4096xf32>
    %extracted_slice_29 = tensor.extract_slice %arg0[122880] [4096] [1] : tensor<6755192832xf32> to tensor<4096xf32>
    %extracted_slice_30 = tensor.extract_slice %arg0[126976] [4096] [1] : tensor<6755192832xf32> to tensor<4096xf32>
    %extracted_slice_31 = tensor.extract_slice %arg0[131072] [4096] [1] : tensor<6755192832xf32> to tensor<4096xf32>
    %extracted_slice_32 = tensor.extract_slice %arg0[135168] [4096] [1] : tensor<6755192832xf32> to tensor<4096xf32>
    %extracted_slice_33 = tensor.extract_slice %arg0[139264] [4096] [1] : tensor<6755192832xf32> to tensor<4096xf32>
    %extracted_slice_34 = tensor.extract_slice %arg0[143360] [4096] [1] : tensor<6755192832xf32> to tensor<4096xf32>
    %extracted_slice_35 = tensor.extract_slice %arg0[147456] [4096] [1] : tensor<6755192832xf32> to tensor<4096xf32>
    %extracted_slice_36 = tensor.extract_slice %arg0[151552] [4096] [1] : tensor<6755192832xf32> to tensor<4096xf32>
    %extracted_slice_37 = tensor.extract_slice %arg0[155648] [4096] [1] : tensor<6755192832xf32> to tensor<4096xf32>
    %extracted_slice_38 = tensor.extract_slice %arg0[159744] [4096] [1] : tensor<6755192832xf32> to tensor<4096xf32>
    %extracted_slice_39 = tensor.extract_slice %arg0[163840] [4096] [1] : tensor<6755192832xf32> to tensor<4096xf32>
    %extracted_slice_40 = tensor.extract_slice %arg0[167936] [4096] [1] : tensor<6755192832xf32> to tensor<4096xf32>
    %extracted_slice_41 = tensor.extract_slice %arg0[172032] [4096] [1] : tensor<6755192832xf32> to tensor<4096xf32>
    %extracted_slice_42 = tensor.extract_slice %arg0[176128] [4096] [1] : tensor<6755192832xf32> to tensor<4096xf32>
    %extracted_slice_43 = tensor.extract_slice %arg0[180224] [4096] [1] : tensor<6755192832xf32> to tensor<4096xf32>
    %extracted_slice_44 = tensor.extract_slice %arg0[184320] [4096] [1] : tensor<6755192832xf32> to tensor<4096xf32>
    %extracted_slice_45 = tensor.extract_slice %arg0[188416] [4096] [1] : tensor<6755192832xf32> to tensor<4096xf32>
    %extracted_slice_46 = tensor.extract_slice %arg0[192512] [4096] [1] : tensor<6755192832xf32> to tensor<4096xf32>
    %extracted_slice_47 = tensor.extract_slice %arg0[196608] [4096] [1] : tensor<6755192832xf32> to tensor<4096xf32>
    %extracted_slice_48 = tensor.extract_slice %arg0[200704] [4096] [1] : tensor<6755192832xf32> to tensor<4096xf32>
    %extracted_slice_49 = tensor.extract_slice %arg0[204800] [4096] [1] : tensor<6755192832xf32> to tensor<4096xf32>
    %extracted_slice_50 = tensor.extract_slice %arg0[208896] [4096] [1] : tensor<6755192832xf32> to tensor<4096xf32>
    %extracted_slice_51 = tensor.extract_slice %arg0[212992] [4096] [1] : tensor<6755192832xf32> to tensor<4096xf32>
    %extracted_slice_52 = tensor.extract_slice %arg0[217088] [4096] [1] : tensor<6755192832xf32> to tensor<4096xf32>
    %extracted_slice_53 = tensor.extract_slice %arg0[221184] [4096] [1] : tensor<6755192832xf32> to tensor<4096xf32>
    %extracted_slice_54 = tensor.extract_slice %arg0[225280] [4096] [1] : tensor<6755192832xf32> to tensor<4096xf32>
    %extracted_slice_55 = tensor.extract_slice %arg0[229376] [4096] [1] : tensor<6755192832xf32> to tensor<4096xf32>
    %extracted_slice_56 = tensor.extract_slice %arg0[233472] [4096] [1] : tensor<6755192832xf32> to tensor<4096xf32>
    %extracted_slice_57 = tensor.extract_slice %arg0[237568] [4096] [1] : tensor<6755192832xf32> to tensor<4096xf32>
    %extracted_slice_58 = tensor.extract_slice %arg0[241664] [4096] [1] : tensor<6755192832xf32> to tensor<4096xf32>
    %extracted_slice_59 = tensor.extract_slice %arg0[245760] [4096] [1] : tensor<6755192832xf32> to tensor<4096xf32>
    %extracted_slice_60 = tensor.extract_slice %arg0[249856] [4096] [1] : tensor<6755192832xf32> to tensor<4096xf32>
    %extracted_slice_61 = tensor.extract_slice %arg0[253952] [4096] [1] : tensor<6755192832xf32> to tensor<4096xf32>
    %extracted_slice_62 = tensor.extract_slice %arg0[258048] [4096] [1] : tensor<6755192832xf32> to tensor<4096xf32>
    %extracted_slice_63 = tensor.extract_slice %arg0[262144] [4096] [1] : tensor<6755192832xf32> to tensor<4096xf32>
    %extracted_slice_64 = tensor.extract_slice %arg0[266240] [131072000] [1] : tensor<6755192832xf32> to tensor<131072000xf32>
    %expanded = tensor.expand_shape %extracted_slice_64 [[0, 1]] : tensor<131072000xf32> into tensor<32000x4096xf32>
    %extracted_slice_65 = tensor.extract_slice %arg0[131338240] [16777216] [1] : tensor<6755192832xf32> to tensor<16777216xf32>
    %expanded_66 = tensor.expand_shape %extracted_slice_65 [[0, 1]] : tensor<16777216xf32> into tensor<4096x4096xf32>
    %extracted_slice_67 = tensor.extract_slice %arg0[148115456] [16777216] [1] : tensor<6755192832xf32> to tensor<16777216xf32>
    %expanded_68 = tensor.expand_shape %extracted_slice_67 [[0, 1]] : tensor<16777216xf32> into tensor<4096x4096xf32>
    %extracted_slice_69 = tensor.extract_slice %arg0[164892672] [16777216] [1] : tensor<6755192832xf32> to tensor<16777216xf32>
    %expanded_70 = tensor.expand_shape %extracted_slice_69 [[0, 1]] : tensor<16777216xf32> into tensor<4096x4096xf32>
    %extracted_slice_71 = tensor.extract_slice %arg0[181669888] [16777216] [1] : tensor<6755192832xf32> to tensor<16777216xf32>
    %expanded_72 = tensor.expand_shape %extracted_slice_71 [[0, 1]] : tensor<16777216xf32> into tensor<4096x4096xf32>
    %extracted_slice_73 = tensor.extract_slice %arg0[198447104] [45088768] [1] : tensor<6755192832xf32> to tensor<45088768xf32>
    %expanded_74 = tensor.expand_shape %extracted_slice_73 [[0, 1]] : tensor<45088768xf32> into tensor<11008x4096xf32>
    %extracted_slice_75 = tensor.extract_slice %arg0[243535872] [45088768] [1] : tensor<6755192832xf32> to tensor<45088768xf32>
    %expanded_76 = tensor.expand_shape %extracted_slice_75 [[0, 1]] : tensor<45088768xf32> into tensor<11008x4096xf32>
    %extracted_slice_77 = tensor.extract_slice %arg0[288624640] [45088768] [1] : tensor<6755192832xf32> to tensor<45088768xf32>
    %expanded_78 = tensor.expand_shape %extracted_slice_77 [[0, 1]] : tensor<45088768xf32> into tensor<4096x11008xf32>
    %extracted_slice_79 = tensor.extract_slice %arg0[333713408] [16777216] [1] : tensor<6755192832xf32> to tensor<16777216xf32>
    %expanded_80 = tensor.expand_shape %extracted_slice_79 [[0, 1]] : tensor<16777216xf32> into tensor<4096x4096xf32>
    %extracted_slice_81 = tensor.extract_slice %arg0[350490624] [16777216] [1] : tensor<6755192832xf32> to tensor<16777216xf32>
    %expanded_82 = tensor.expand_shape %extracted_slice_81 [[0, 1]] : tensor<16777216xf32> into tensor<4096x4096xf32>
    %extracted_slice_83 = tensor.extract_slice %arg0[367267840] [16777216] [1] : tensor<6755192832xf32> to tensor<16777216xf32>
    %expanded_84 = tensor.expand_shape %extracted_slice_83 [[0, 1]] : tensor<16777216xf32> into tensor<4096x4096xf32>
    %extracted_slice_85 = tensor.extract_slice %arg0[384045056] [16777216] [1] : tensor<6755192832xf32> to tensor<16777216xf32>
    %expanded_86 = tensor.expand_shape %extracted_slice_85 [[0, 1]] : tensor<16777216xf32> into tensor<4096x4096xf32>
    %extracted_slice_87 = tensor.extract_slice %arg0[400822272] [45088768] [1] : tensor<6755192832xf32> to tensor<45088768xf32>
    %expanded_88 = tensor.expand_shape %extracted_slice_87 [[0, 1]] : tensor<45088768xf32> into tensor<11008x4096xf32>
    %extracted_slice_89 = tensor.extract_slice %arg0[445911040] [45088768] [1] : tensor<6755192832xf32> to tensor<45088768xf32>
    %expanded_90 = tensor.expand_shape %extracted_slice_89 [[0, 1]] : tensor<45088768xf32> into tensor<11008x4096xf32>
    %extracted_slice_91 = tensor.extract_slice %arg0[490999808] [45088768] [1] : tensor<6755192832xf32> to tensor<45088768xf32>
    %expanded_92 = tensor.expand_shape %extracted_slice_91 [[0, 1]] : tensor<45088768xf32> into tensor<4096x11008xf32>
    %extracted_slice_93 = tensor.extract_slice %arg0[536088576] [16777216] [1] : tensor<6755192832xf32> to tensor<16777216xf32>
    %expanded_94 = tensor.expand_shape %extracted_slice_93 [[0, 1]] : tensor<16777216xf32> into tensor<4096x4096xf32>
    %extracted_slice_95 = tensor.extract_slice %arg0[552865792] [16777216] [1] : tensor<6755192832xf32> to tensor<16777216xf32>
    %expanded_96 = tensor.expand_shape %extracted_slice_95 [[0, 1]] : tensor<16777216xf32> into tensor<4096x4096xf32>
    %extracted_slice_97 = tensor.extract_slice %arg0[569643008] [16777216] [1] : tensor<6755192832xf32> to tensor<16777216xf32>
    %expanded_98 = tensor.expand_shape %extracted_slice_97 [[0, 1]] : tensor<16777216xf32> into tensor<4096x4096xf32>
    %extracted_slice_99 = tensor.extract_slice %arg0[586420224] [16777216] [1] : tensor<6755192832xf32> to tensor<16777216xf32>
    %expanded_100 = tensor.expand_shape %extracted_slice_99 [[0, 1]] : tensor<16777216xf32> into tensor<4096x4096xf32>
    %extracted_slice_101 = tensor.extract_slice %arg0[603197440] [45088768] [1] : tensor<6755192832xf32> to tensor<45088768xf32>
    %expanded_102 = tensor.expand_shape %extracted_slice_101 [[0, 1]] : tensor<45088768xf32> into tensor<11008x4096xf32>
    %extracted_slice_103 = tensor.extract_slice %arg0[648286208] [45088768] [1] : tensor<6755192832xf32> to tensor<45088768xf32>
    %expanded_104 = tensor.expand_shape %extracted_slice_103 [[0, 1]] : tensor<45088768xf32> into tensor<11008x4096xf32>
    %extracted_slice_105 = tensor.extract_slice %arg0[693374976] [45088768] [1] : tensor<6755192832xf32> to tensor<45088768xf32>
    %expanded_106 = tensor.expand_shape %extracted_slice_105 [[0, 1]] : tensor<45088768xf32> into tensor<4096x11008xf32>
    %extracted_slice_107 = tensor.extract_slice %arg0[738463744] [16777216] [1] : tensor<6755192832xf32> to tensor<16777216xf32>
    %expanded_108 = tensor.expand_shape %extracted_slice_107 [[0, 1]] : tensor<16777216xf32> into tensor<4096x4096xf32>
    %extracted_slice_109 = tensor.extract_slice %arg0[755240960] [16777216] [1] : tensor<6755192832xf32> to tensor<16777216xf32>
    %expanded_110 = tensor.expand_shape %extracted_slice_109 [[0, 1]] : tensor<16777216xf32> into tensor<4096x4096xf32>
    %extracted_slice_111 = tensor.extract_slice %arg0[772018176] [16777216] [1] : tensor<6755192832xf32> to tensor<16777216xf32>
    %expanded_112 = tensor.expand_shape %extracted_slice_111 [[0, 1]] : tensor<16777216xf32> into tensor<4096x4096xf32>
    %extracted_slice_113 = tensor.extract_slice %arg0[788795392] [16777216] [1] : tensor<6755192832xf32> to tensor<16777216xf32>
    %expanded_114 = tensor.expand_shape %extracted_slice_113 [[0, 1]] : tensor<16777216xf32> into tensor<4096x4096xf32>
    %extracted_slice_115 = tensor.extract_slice %arg0[805572608] [45088768] [1] : tensor<6755192832xf32> to tensor<45088768xf32>
    %expanded_116 = tensor.expand_shape %extracted_slice_115 [[0, 1]] : tensor<45088768xf32> into tensor<11008x4096xf32>
    %extracted_slice_117 = tensor.extract_slice %arg0[850661376] [45088768] [1] : tensor<6755192832xf32> to tensor<45088768xf32>
    %expanded_118 = tensor.expand_shape %extracted_slice_117 [[0, 1]] : tensor<45088768xf32> into tensor<11008x4096xf32>
    %extracted_slice_119 = tensor.extract_slice %arg0[895750144] [45088768] [1] : tensor<6755192832xf32> to tensor<45088768xf32>
    %expanded_120 = tensor.expand_shape %extracted_slice_119 [[0, 1]] : tensor<45088768xf32> into tensor<4096x11008xf32>
    %extracted_slice_121 = tensor.extract_slice %arg0[940838912] [16777216] [1] : tensor<6755192832xf32> to tensor<16777216xf32>
    %expanded_122 = tensor.expand_shape %extracted_slice_121 [[0, 1]] : tensor<16777216xf32> into tensor<4096x4096xf32>
    %extracted_slice_123 = tensor.extract_slice %arg0[957616128] [16777216] [1] : tensor<6755192832xf32> to tensor<16777216xf32>
    %expanded_124 = tensor.expand_shape %extracted_slice_123 [[0, 1]] : tensor<16777216xf32> into tensor<4096x4096xf32>
    %extracted_slice_125 = tensor.extract_slice %arg0[974393344] [16777216] [1] : tensor<6755192832xf32> to tensor<16777216xf32>
    %expanded_126 = tensor.expand_shape %extracted_slice_125 [[0, 1]] : tensor<16777216xf32> into tensor<4096x4096xf32>
    %extracted_slice_127 = tensor.extract_slice %arg0[991170560] [16777216] [1] : tensor<6755192832xf32> to tensor<16777216xf32>
    %expanded_128 = tensor.expand_shape %extracted_slice_127 [[0, 1]] : tensor<16777216xf32> into tensor<4096x4096xf32>
    %extracted_slice_129 = tensor.extract_slice %arg0[1007947776] [45088768] [1] : tensor<6755192832xf32> to tensor<45088768xf32>
    %expanded_130 = tensor.expand_shape %extracted_slice_129 [[0, 1]] : tensor<45088768xf32> into tensor<11008x4096xf32>
    %extracted_slice_131 = tensor.extract_slice %arg0[1053036544] [45088768] [1] : tensor<6755192832xf32> to tensor<45088768xf32>
    %expanded_132 = tensor.expand_shape %extracted_slice_131 [[0, 1]] : tensor<45088768xf32> into tensor<11008x4096xf32>
    %extracted_slice_133 = tensor.extract_slice %arg0[1098125312] [45088768] [1] : tensor<6755192832xf32> to tensor<45088768xf32>
    %expanded_134 = tensor.expand_shape %extracted_slice_133 [[0, 1]] : tensor<45088768xf32> into tensor<4096x11008xf32>
    %extracted_slice_135 = tensor.extract_slice %arg0[1143214080] [16777216] [1] : tensor<6755192832xf32> to tensor<16777216xf32>
    %expanded_136 = tensor.expand_shape %extracted_slice_135 [[0, 1]] : tensor<16777216xf32> into tensor<4096x4096xf32>
    %extracted_slice_137 = tensor.extract_slice %arg0[1159991296] [16777216] [1] : tensor<6755192832xf32> to tensor<16777216xf32>
    %expanded_138 = tensor.expand_shape %extracted_slice_137 [[0, 1]] : tensor<16777216xf32> into tensor<4096x4096xf32>
    %extracted_slice_139 = tensor.extract_slice %arg0[1176768512] [16777216] [1] : tensor<6755192832xf32> to tensor<16777216xf32>
    %expanded_140 = tensor.expand_shape %extracted_slice_139 [[0, 1]] : tensor<16777216xf32> into tensor<4096x4096xf32>
    %extracted_slice_141 = tensor.extract_slice %arg0[1193545728] [16777216] [1] : tensor<6755192832xf32> to tensor<16777216xf32>
    %expanded_142 = tensor.expand_shape %extracted_slice_141 [[0, 1]] : tensor<16777216xf32> into tensor<4096x4096xf32>
    %extracted_slice_143 = tensor.extract_slice %arg0[1210322944] [45088768] [1] : tensor<6755192832xf32> to tensor<45088768xf32>
    %expanded_144 = tensor.expand_shape %extracted_slice_143 [[0, 1]] : tensor<45088768xf32> into tensor<11008x4096xf32>
    %extracted_slice_145 = tensor.extract_slice %arg0[1255411712] [45088768] [1] : tensor<6755192832xf32> to tensor<45088768xf32>
    %expanded_146 = tensor.expand_shape %extracted_slice_145 [[0, 1]] : tensor<45088768xf32> into tensor<11008x4096xf32>
    %extracted_slice_147 = tensor.extract_slice %arg0[1300500480] [45088768] [1] : tensor<6755192832xf32> to tensor<45088768xf32>
    %expanded_148 = tensor.expand_shape %extracted_slice_147 [[0, 1]] : tensor<45088768xf32> into tensor<4096x11008xf32>
    %extracted_slice_149 = tensor.extract_slice %arg0[1345589248] [16777216] [1] : tensor<6755192832xf32> to tensor<16777216xf32>
    %expanded_150 = tensor.expand_shape %extracted_slice_149 [[0, 1]] : tensor<16777216xf32> into tensor<4096x4096xf32>
    %extracted_slice_151 = tensor.extract_slice %arg0[1362366464] [16777216] [1] : tensor<6755192832xf32> to tensor<16777216xf32>
    %expanded_152 = tensor.expand_shape %extracted_slice_151 [[0, 1]] : tensor<16777216xf32> into tensor<4096x4096xf32>
    %extracted_slice_153 = tensor.extract_slice %arg0[1379143680] [16777216] [1] : tensor<6755192832xf32> to tensor<16777216xf32>
    %expanded_154 = tensor.expand_shape %extracted_slice_153 [[0, 1]] : tensor<16777216xf32> into tensor<4096x4096xf32>
    %extracted_slice_155 = tensor.extract_slice %arg0[1395920896] [16777216] [1] : tensor<6755192832xf32> to tensor<16777216xf32>
    %expanded_156 = tensor.expand_shape %extracted_slice_155 [[0, 1]] : tensor<16777216xf32> into tensor<4096x4096xf32>
    %extracted_slice_157 = tensor.extract_slice %arg0[1412698112] [45088768] [1] : tensor<6755192832xf32> to tensor<45088768xf32>
    %expanded_158 = tensor.expand_shape %extracted_slice_157 [[0, 1]] : tensor<45088768xf32> into tensor<11008x4096xf32>
    %extracted_slice_159 = tensor.extract_slice %arg0[1457786880] [45088768] [1] : tensor<6755192832xf32> to tensor<45088768xf32>
    %expanded_160 = tensor.expand_shape %extracted_slice_159 [[0, 1]] : tensor<45088768xf32> into tensor<11008x4096xf32>
    %extracted_slice_161 = tensor.extract_slice %arg0[1502875648] [45088768] [1] : tensor<6755192832xf32> to tensor<45088768xf32>
    %expanded_162 = tensor.expand_shape %extracted_slice_161 [[0, 1]] : tensor<45088768xf32> into tensor<4096x11008xf32>
    %extracted_slice_163 = tensor.extract_slice %arg0[1547964416] [16777216] [1] : tensor<6755192832xf32> to tensor<16777216xf32>
    %expanded_164 = tensor.expand_shape %extracted_slice_163 [[0, 1]] : tensor<16777216xf32> into tensor<4096x4096xf32>
    %extracted_slice_165 = tensor.extract_slice %arg0[1564741632] [16777216] [1] : tensor<6755192832xf32> to tensor<16777216xf32>
    %expanded_166 = tensor.expand_shape %extracted_slice_165 [[0, 1]] : tensor<16777216xf32> into tensor<4096x4096xf32>
    %extracted_slice_167 = tensor.extract_slice %arg0[1581518848] [16777216] [1] : tensor<6755192832xf32> to tensor<16777216xf32>
    %expanded_168 = tensor.expand_shape %extracted_slice_167 [[0, 1]] : tensor<16777216xf32> into tensor<4096x4096xf32>
    %extracted_slice_169 = tensor.extract_slice %arg0[1598296064] [16777216] [1] : tensor<6755192832xf32> to tensor<16777216xf32>
    %expanded_170 = tensor.expand_shape %extracted_slice_169 [[0, 1]] : tensor<16777216xf32> into tensor<4096x4096xf32>
    %extracted_slice_171 = tensor.extract_slice %arg0[1615073280] [45088768] [1] : tensor<6755192832xf32> to tensor<45088768xf32>
    %expanded_172 = tensor.expand_shape %extracted_slice_171 [[0, 1]] : tensor<45088768xf32> into tensor<11008x4096xf32>
    %extracted_slice_173 = tensor.extract_slice %arg0[1660162048] [45088768] [1] : tensor<6755192832xf32> to tensor<45088768xf32>
    %expanded_174 = tensor.expand_shape %extracted_slice_173 [[0, 1]] : tensor<45088768xf32> into tensor<11008x4096xf32>
    %extracted_slice_175 = tensor.extract_slice %arg0[1705250816] [45088768] [1] : tensor<6755192832xf32> to tensor<45088768xf32>
    %expanded_176 = tensor.expand_shape %extracted_slice_175 [[0, 1]] : tensor<45088768xf32> into tensor<4096x11008xf32>
    %extracted_slice_177 = tensor.extract_slice %arg0[1750339584] [16777216] [1] : tensor<6755192832xf32> to tensor<16777216xf32>
    %expanded_178 = tensor.expand_shape %extracted_slice_177 [[0, 1]] : tensor<16777216xf32> into tensor<4096x4096xf32>
    %extracted_slice_179 = tensor.extract_slice %arg0[1767116800] [16777216] [1] : tensor<6755192832xf32> to tensor<16777216xf32>
    %expanded_180 = tensor.expand_shape %extracted_slice_179 [[0, 1]] : tensor<16777216xf32> into tensor<4096x4096xf32>
    %extracted_slice_181 = tensor.extract_slice %arg0[1783894016] [16777216] [1] : tensor<6755192832xf32> to tensor<16777216xf32>
    %expanded_182 = tensor.expand_shape %extracted_slice_181 [[0, 1]] : tensor<16777216xf32> into tensor<4096x4096xf32>
    %extracted_slice_183 = tensor.extract_slice %arg0[1800671232] [16777216] [1] : tensor<6755192832xf32> to tensor<16777216xf32>
    %expanded_184 = tensor.expand_shape %extracted_slice_183 [[0, 1]] : tensor<16777216xf32> into tensor<4096x4096xf32>
    %extracted_slice_185 = tensor.extract_slice %arg0[1817448448] [45088768] [1] : tensor<6755192832xf32> to tensor<45088768xf32>
    %expanded_186 = tensor.expand_shape %extracted_slice_185 [[0, 1]] : tensor<45088768xf32> into tensor<11008x4096xf32>
    %extracted_slice_187 = tensor.extract_slice %arg0[1862537216] [45088768] [1] : tensor<6755192832xf32> to tensor<45088768xf32>
    %expanded_188 = tensor.expand_shape %extracted_slice_187 [[0, 1]] : tensor<45088768xf32> into tensor<11008x4096xf32>
    %extracted_slice_189 = tensor.extract_slice %arg0[1907625984] [45088768] [1] : tensor<6755192832xf32> to tensor<45088768xf32>
    %expanded_190 = tensor.expand_shape %extracted_slice_189 [[0, 1]] : tensor<45088768xf32> into tensor<4096x11008xf32>
    %extracted_slice_191 = tensor.extract_slice %arg0[1952714752] [16777216] [1] : tensor<6755192832xf32> to tensor<16777216xf32>
    %expanded_192 = tensor.expand_shape %extracted_slice_191 [[0, 1]] : tensor<16777216xf32> into tensor<4096x4096xf32>
    %extracted_slice_193 = tensor.extract_slice %arg0[1969491968] [16777216] [1] : tensor<6755192832xf32> to tensor<16777216xf32>
    %expanded_194 = tensor.expand_shape %extracted_slice_193 [[0, 1]] : tensor<16777216xf32> into tensor<4096x4096xf32>
    %extracted_slice_195 = tensor.extract_slice %arg0[1986269184] [16777216] [1] : tensor<6755192832xf32> to tensor<16777216xf32>
    %expanded_196 = tensor.expand_shape %extracted_slice_195 [[0, 1]] : tensor<16777216xf32> into tensor<4096x4096xf32>
    %extracted_slice_197 = tensor.extract_slice %arg0[2003046400] [16777216] [1] : tensor<6755192832xf32> to tensor<16777216xf32>
    %expanded_198 = tensor.expand_shape %extracted_slice_197 [[0, 1]] : tensor<16777216xf32> into tensor<4096x4096xf32>
    %extracted_slice_199 = tensor.extract_slice %arg0[2019823616] [45088768] [1] : tensor<6755192832xf32> to tensor<45088768xf32>
    %expanded_200 = tensor.expand_shape %extracted_slice_199 [[0, 1]] : tensor<45088768xf32> into tensor<11008x4096xf32>
    %extracted_slice_201 = tensor.extract_slice %arg0[2064912384] [45088768] [1] : tensor<6755192832xf32> to tensor<45088768xf32>
    %expanded_202 = tensor.expand_shape %extracted_slice_201 [[0, 1]] : tensor<45088768xf32> into tensor<11008x4096xf32>
    %extracted_slice_203 = tensor.extract_slice %arg0[2110001152] [45088768] [1] : tensor<6755192832xf32> to tensor<45088768xf32>
    %expanded_204 = tensor.expand_shape %extracted_slice_203 [[0, 1]] : tensor<45088768xf32> into tensor<4096x11008xf32>
    %extracted_slice_205 = tensor.extract_slice %arg0[2155089920] [16777216] [1] : tensor<6755192832xf32> to tensor<16777216xf32>
    %expanded_206 = tensor.expand_shape %extracted_slice_205 [[0, 1]] : tensor<16777216xf32> into tensor<4096x4096xf32>
    %extracted_slice_207 = tensor.extract_slice %arg0[2171867136] [16777216] [1] : tensor<6755192832xf32> to tensor<16777216xf32>
    %expanded_208 = tensor.expand_shape %extracted_slice_207 [[0, 1]] : tensor<16777216xf32> into tensor<4096x4096xf32>
    %extracted_slice_209 = tensor.extract_slice %arg0[2188644352] [16777216] [1] : tensor<6755192832xf32> to tensor<16777216xf32>
    %expanded_210 = tensor.expand_shape %extracted_slice_209 [[0, 1]] : tensor<16777216xf32> into tensor<4096x4096xf32>
    %extracted_slice_211 = tensor.extract_slice %arg0[2205421568] [16777216] [1] : tensor<6755192832xf32> to tensor<16777216xf32>
    %expanded_212 = tensor.expand_shape %extracted_slice_211 [[0, 1]] : tensor<16777216xf32> into tensor<4096x4096xf32>
    %extracted_slice_213 = tensor.extract_slice %arg0[2222198784] [45088768] [1] : tensor<6755192832xf32> to tensor<45088768xf32>
    %expanded_214 = tensor.expand_shape %extracted_slice_213 [[0, 1]] : tensor<45088768xf32> into tensor<11008x4096xf32>
    %extracted_slice_215 = tensor.extract_slice %arg0[2267287552] [45088768] [1] : tensor<6755192832xf32> to tensor<45088768xf32>
    %expanded_216 = tensor.expand_shape %extracted_slice_215 [[0, 1]] : tensor<45088768xf32> into tensor<11008x4096xf32>
    %extracted_slice_217 = tensor.extract_slice %arg0[2312376320] [45088768] [1] : tensor<6755192832xf32> to tensor<45088768xf32>
    %expanded_218 = tensor.expand_shape %extracted_slice_217 [[0, 1]] : tensor<45088768xf32> into tensor<4096x11008xf32>
    %extracted_slice_219 = tensor.extract_slice %arg0[2357465088] [16777216] [1] : tensor<6755192832xf32> to tensor<16777216xf32>
    %expanded_220 = tensor.expand_shape %extracted_slice_219 [[0, 1]] : tensor<16777216xf32> into tensor<4096x4096xf32>
    %extracted_slice_221 = tensor.extract_slice %arg0[2374242304] [16777216] [1] : tensor<6755192832xf32> to tensor<16777216xf32>
    %expanded_222 = tensor.expand_shape %extracted_slice_221 [[0, 1]] : tensor<16777216xf32> into tensor<4096x4096xf32>
    %extracted_slice_223 = tensor.extract_slice %arg0[2391019520] [16777216] [1] : tensor<6755192832xf32> to tensor<16777216xf32>
    %expanded_224 = tensor.expand_shape %extracted_slice_223 [[0, 1]] : tensor<16777216xf32> into tensor<4096x4096xf32>
    %extracted_slice_225 = tensor.extract_slice %arg0[2407796736] [16777216] [1] : tensor<6755192832xf32> to tensor<16777216xf32>
    %expanded_226 = tensor.expand_shape %extracted_slice_225 [[0, 1]] : tensor<16777216xf32> into tensor<4096x4096xf32>
    %extracted_slice_227 = tensor.extract_slice %arg0[2424573952] [45088768] [1] : tensor<6755192832xf32> to tensor<45088768xf32>
    %expanded_228 = tensor.expand_shape %extracted_slice_227 [[0, 1]] : tensor<45088768xf32> into tensor<11008x4096xf32>
    %extracted_slice_229 = tensor.extract_slice %arg0[2469662720] [45088768] [1] : tensor<6755192832xf32> to tensor<45088768xf32>
    %expanded_230 = tensor.expand_shape %extracted_slice_229 [[0, 1]] : tensor<45088768xf32> into tensor<11008x4096xf32>
    %extracted_slice_231 = tensor.extract_slice %arg0[2514751488] [45088768] [1] : tensor<6755192832xf32> to tensor<45088768xf32>
    %expanded_232 = tensor.expand_shape %extracted_slice_231 [[0, 1]] : tensor<45088768xf32> into tensor<4096x11008xf32>
    %extracted_slice_233 = tensor.extract_slice %arg0[2559840256] [16777216] [1] : tensor<6755192832xf32> to tensor<16777216xf32>
    %expanded_234 = tensor.expand_shape %extracted_slice_233 [[0, 1]] : tensor<16777216xf32> into tensor<4096x4096xf32>
    %extracted_slice_235 = tensor.extract_slice %arg0[2576617472] [16777216] [1] : tensor<6755192832xf32> to tensor<16777216xf32>
    %expanded_236 = tensor.expand_shape %extracted_slice_235 [[0, 1]] : tensor<16777216xf32> into tensor<4096x4096xf32>
    %extracted_slice_237 = tensor.extract_slice %arg0[2593394688] [16777216] [1] : tensor<6755192832xf32> to tensor<16777216xf32>
    %expanded_238 = tensor.expand_shape %extracted_slice_237 [[0, 1]] : tensor<16777216xf32> into tensor<4096x4096xf32>
    %extracted_slice_239 = tensor.extract_slice %arg0[2610171904] [16777216] [1] : tensor<6755192832xf32> to tensor<16777216xf32>
    %expanded_240 = tensor.expand_shape %extracted_slice_239 [[0, 1]] : tensor<16777216xf32> into tensor<4096x4096xf32>
    %extracted_slice_241 = tensor.extract_slice %arg0[2626949120] [45088768] [1] : tensor<6755192832xf32> to tensor<45088768xf32>
    %expanded_242 = tensor.expand_shape %extracted_slice_241 [[0, 1]] : tensor<45088768xf32> into tensor<11008x4096xf32>
    %extracted_slice_243 = tensor.extract_slice %arg0[2672037888] [45088768] [1] : tensor<6755192832xf32> to tensor<45088768xf32>
    %expanded_244 = tensor.expand_shape %extracted_slice_243 [[0, 1]] : tensor<45088768xf32> into tensor<11008x4096xf32>
    %extracted_slice_245 = tensor.extract_slice %arg0[2717126656] [45088768] [1] : tensor<6755192832xf32> to tensor<45088768xf32>
    %expanded_246 = tensor.expand_shape %extracted_slice_245 [[0, 1]] : tensor<45088768xf32> into tensor<4096x11008xf32>
    %extracted_slice_247 = tensor.extract_slice %arg0[2762215424] [16777216] [1] : tensor<6755192832xf32> to tensor<16777216xf32>
    %expanded_248 = tensor.expand_shape %extracted_slice_247 [[0, 1]] : tensor<16777216xf32> into tensor<4096x4096xf32>
    %extracted_slice_249 = tensor.extract_slice %arg0[2778992640] [16777216] [1] : tensor<6755192832xf32> to tensor<16777216xf32>
    %expanded_250 = tensor.expand_shape %extracted_slice_249 [[0, 1]] : tensor<16777216xf32> into tensor<4096x4096xf32>
    %extracted_slice_251 = tensor.extract_slice %arg0[2795769856] [16777216] [1] : tensor<6755192832xf32> to tensor<16777216xf32>
    %expanded_252 = tensor.expand_shape %extracted_slice_251 [[0, 1]] : tensor<16777216xf32> into tensor<4096x4096xf32>
    %extracted_slice_253 = tensor.extract_slice %arg0[2812547072] [16777216] [1] : tensor<6755192832xf32> to tensor<16777216xf32>
    %expanded_254 = tensor.expand_shape %extracted_slice_253 [[0, 1]] : tensor<16777216xf32> into tensor<4096x4096xf32>
    %extracted_slice_255 = tensor.extract_slice %arg0[2829324288] [45088768] [1] : tensor<6755192832xf32> to tensor<45088768xf32>
    %expanded_256 = tensor.expand_shape %extracted_slice_255 [[0, 1]] : tensor<45088768xf32> into tensor<11008x4096xf32>
    %extracted_slice_257 = tensor.extract_slice %arg0[2874413056] [45088768] [1] : tensor<6755192832xf32> to tensor<45088768xf32>
    %expanded_258 = tensor.expand_shape %extracted_slice_257 [[0, 1]] : tensor<45088768xf32> into tensor<11008x4096xf32>
    %extracted_slice_259 = tensor.extract_slice %arg0[2919501824] [45088768] [1] : tensor<6755192832xf32> to tensor<45088768xf32>
    %expanded_260 = tensor.expand_shape %extracted_slice_259 [[0, 1]] : tensor<45088768xf32> into tensor<4096x11008xf32>
    %extracted_slice_261 = tensor.extract_slice %arg0[2964590592] [16777216] [1] : tensor<6755192832xf32> to tensor<16777216xf32>
    %expanded_262 = tensor.expand_shape %extracted_slice_261 [[0, 1]] : tensor<16777216xf32> into tensor<4096x4096xf32>
    %extracted_slice_263 = tensor.extract_slice %arg0[2981367808] [16777216] [1] : tensor<6755192832xf32> to tensor<16777216xf32>
    %expanded_264 = tensor.expand_shape %extracted_slice_263 [[0, 1]] : tensor<16777216xf32> into tensor<4096x4096xf32>
    %extracted_slice_265 = tensor.extract_slice %arg0[2998145024] [16777216] [1] : tensor<6755192832xf32> to tensor<16777216xf32>
    %expanded_266 = tensor.expand_shape %extracted_slice_265 [[0, 1]] : tensor<16777216xf32> into tensor<4096x4096xf32>
    %extracted_slice_267 = tensor.extract_slice %arg0[3014922240] [16777216] [1] : tensor<6755192832xf32> to tensor<16777216xf32>
    %expanded_268 = tensor.expand_shape %extracted_slice_267 [[0, 1]] : tensor<16777216xf32> into tensor<4096x4096xf32>
    %extracted_slice_269 = tensor.extract_slice %arg0[3031699456] [45088768] [1] : tensor<6755192832xf32> to tensor<45088768xf32>
    %expanded_270 = tensor.expand_shape %extracted_slice_269 [[0, 1]] : tensor<45088768xf32> into tensor<11008x4096xf32>
    %extracted_slice_271 = tensor.extract_slice %arg0[3076788224] [45088768] [1] : tensor<6755192832xf32> to tensor<45088768xf32>
    %expanded_272 = tensor.expand_shape %extracted_slice_271 [[0, 1]] : tensor<45088768xf32> into tensor<11008x4096xf32>
    %extracted_slice_273 = tensor.extract_slice %arg0[3121876992] [45088768] [1] : tensor<6755192832xf32> to tensor<45088768xf32>
    %expanded_274 = tensor.expand_shape %extracted_slice_273 [[0, 1]] : tensor<45088768xf32> into tensor<4096x11008xf32>
    %extracted_slice_275 = tensor.extract_slice %arg0[3166965760] [16777216] [1] : tensor<6755192832xf32> to tensor<16777216xf32>
    %expanded_276 = tensor.expand_shape %extracted_slice_275 [[0, 1]] : tensor<16777216xf32> into tensor<4096x4096xf32>
    %extracted_slice_277 = tensor.extract_slice %arg0[3183742976] [16777216] [1] : tensor<6755192832xf32> to tensor<16777216xf32>
    %expanded_278 = tensor.expand_shape %extracted_slice_277 [[0, 1]] : tensor<16777216xf32> into tensor<4096x4096xf32>
    %extracted_slice_279 = tensor.extract_slice %arg0[3200520192] [16777216] [1] : tensor<6755192832xf32> to tensor<16777216xf32>
    %expanded_280 = tensor.expand_shape %extracted_slice_279 [[0, 1]] : tensor<16777216xf32> into tensor<4096x4096xf32>
    %extracted_slice_281 = tensor.extract_slice %arg0[3217297408] [16777216] [1] : tensor<6755192832xf32> to tensor<16777216xf32>
    %expanded_282 = tensor.expand_shape %extracted_slice_281 [[0, 1]] : tensor<16777216xf32> into tensor<4096x4096xf32>
    %extracted_slice_283 = tensor.extract_slice %arg0[3234074624] [45088768] [1] : tensor<6755192832xf32> to tensor<45088768xf32>
    %expanded_284 = tensor.expand_shape %extracted_slice_283 [[0, 1]] : tensor<45088768xf32> into tensor<11008x4096xf32>
    %extracted_slice_285 = tensor.extract_slice %arg0[3279163392] [45088768] [1] : tensor<6755192832xf32> to tensor<45088768xf32>
    %expanded_286 = tensor.expand_shape %extracted_slice_285 [[0, 1]] : tensor<45088768xf32> into tensor<11008x4096xf32>
    %extracted_slice_287 = tensor.extract_slice %arg0[3324252160] [45088768] [1] : tensor<6755192832xf32> to tensor<45088768xf32>
    %expanded_288 = tensor.expand_shape %extracted_slice_287 [[0, 1]] : tensor<45088768xf32> into tensor<4096x11008xf32>
    %extracted_slice_289 = tensor.extract_slice %arg0[3369340928] [16777216] [1] : tensor<6755192832xf32> to tensor<16777216xf32>
    %expanded_290 = tensor.expand_shape %extracted_slice_289 [[0, 1]] : tensor<16777216xf32> into tensor<4096x4096xf32>
    %extracted_slice_291 = tensor.extract_slice %arg0[3386118144] [16777216] [1] : tensor<6755192832xf32> to tensor<16777216xf32>
    %expanded_292 = tensor.expand_shape %extracted_slice_291 [[0, 1]] : tensor<16777216xf32> into tensor<4096x4096xf32>
    %extracted_slice_293 = tensor.extract_slice %arg0[3402895360] [16777216] [1] : tensor<6755192832xf32> to tensor<16777216xf32>
    %expanded_294 = tensor.expand_shape %extracted_slice_293 [[0, 1]] : tensor<16777216xf32> into tensor<4096x4096xf32>
    %extracted_slice_295 = tensor.extract_slice %arg0[3419672576] [16777216] [1] : tensor<6755192832xf32> to tensor<16777216xf32>
    %expanded_296 = tensor.expand_shape %extracted_slice_295 [[0, 1]] : tensor<16777216xf32> into tensor<4096x4096xf32>
    %extracted_slice_297 = tensor.extract_slice %arg0[3436449792] [45088768] [1] : tensor<6755192832xf32> to tensor<45088768xf32>
    %expanded_298 = tensor.expand_shape %extracted_slice_297 [[0, 1]] : tensor<45088768xf32> into tensor<11008x4096xf32>
    %extracted_slice_299 = tensor.extract_slice %arg0[3481538560] [45088768] [1] : tensor<6755192832xf32> to tensor<45088768xf32>
    %expanded_300 = tensor.expand_shape %extracted_slice_299 [[0, 1]] : tensor<45088768xf32> into tensor<11008x4096xf32>
    %extracted_slice_301 = tensor.extract_slice %arg0[3526627328] [45088768] [1] : tensor<6755192832xf32> to tensor<45088768xf32>
    %expanded_302 = tensor.expand_shape %extracted_slice_301 [[0, 1]] : tensor<45088768xf32> into tensor<4096x11008xf32>
    %extracted_slice_303 = tensor.extract_slice %arg0[3571716096] [16777216] [1] : tensor<6755192832xf32> to tensor<16777216xf32>
    %expanded_304 = tensor.expand_shape %extracted_slice_303 [[0, 1]] : tensor<16777216xf32> into tensor<4096x4096xf32>
    %extracted_slice_305 = tensor.extract_slice %arg0[3588493312] [16777216] [1] : tensor<6755192832xf32> to tensor<16777216xf32>
    %expanded_306 = tensor.expand_shape %extracted_slice_305 [[0, 1]] : tensor<16777216xf32> into tensor<4096x4096xf32>
    %extracted_slice_307 = tensor.extract_slice %arg0[3605270528] [16777216] [1] : tensor<6755192832xf32> to tensor<16777216xf32>
    %expanded_308 = tensor.expand_shape %extracted_slice_307 [[0, 1]] : tensor<16777216xf32> into tensor<4096x4096xf32>
    %extracted_slice_309 = tensor.extract_slice %arg0[3622047744] [16777216] [1] : tensor<6755192832xf32> to tensor<16777216xf32>
    %expanded_310 = tensor.expand_shape %extracted_slice_309 [[0, 1]] : tensor<16777216xf32> into tensor<4096x4096xf32>
    %extracted_slice_311 = tensor.extract_slice %arg0[3638824960] [45088768] [1] : tensor<6755192832xf32> to tensor<45088768xf32>
    %expanded_312 = tensor.expand_shape %extracted_slice_311 [[0, 1]] : tensor<45088768xf32> into tensor<11008x4096xf32>
    %extracted_slice_313 = tensor.extract_slice %arg0[3683913728] [45088768] [1] : tensor<6755192832xf32> to tensor<45088768xf32>
    %expanded_314 = tensor.expand_shape %extracted_slice_313 [[0, 1]] : tensor<45088768xf32> into tensor<11008x4096xf32>
    %extracted_slice_315 = tensor.extract_slice %arg0[3729002496] [45088768] [1] : tensor<6755192832xf32> to tensor<45088768xf32>
    %expanded_316 = tensor.expand_shape %extracted_slice_315 [[0, 1]] : tensor<45088768xf32> into tensor<4096x11008xf32>
    %extracted_slice_317 = tensor.extract_slice %arg0[3774091264] [16777216] [1] : tensor<6755192832xf32> to tensor<16777216xf32>
    %expanded_318 = tensor.expand_shape %extracted_slice_317 [[0, 1]] : tensor<16777216xf32> into tensor<4096x4096xf32>
    %extracted_slice_319 = tensor.extract_slice %arg0[3790868480] [16777216] [1] : tensor<6755192832xf32> to tensor<16777216xf32>
    %expanded_320 = tensor.expand_shape %extracted_slice_319 [[0, 1]] : tensor<16777216xf32> into tensor<4096x4096xf32>
    %extracted_slice_321 = tensor.extract_slice %arg0[3807645696] [16777216] [1] : tensor<6755192832xf32> to tensor<16777216xf32>
    %expanded_322 = tensor.expand_shape %extracted_slice_321 [[0, 1]] : tensor<16777216xf32> into tensor<4096x4096xf32>
    %extracted_slice_323 = tensor.extract_slice %arg0[3824422912] [16777216] [1] : tensor<6755192832xf32> to tensor<16777216xf32>
    %expanded_324 = tensor.expand_shape %extracted_slice_323 [[0, 1]] : tensor<16777216xf32> into tensor<4096x4096xf32>
    %extracted_slice_325 = tensor.extract_slice %arg0[3841200128] [45088768] [1] : tensor<6755192832xf32> to tensor<45088768xf32>
    %expanded_326 = tensor.expand_shape %extracted_slice_325 [[0, 1]] : tensor<45088768xf32> into tensor<11008x4096xf32>
    %extracted_slice_327 = tensor.extract_slice %arg0[3886288896] [45088768] [1] : tensor<6755192832xf32> to tensor<45088768xf32>
    %expanded_328 = tensor.expand_shape %extracted_slice_327 [[0, 1]] : tensor<45088768xf32> into tensor<11008x4096xf32>
    %extracted_slice_329 = tensor.extract_slice %arg0[3931377664] [45088768] [1] : tensor<6755192832xf32> to tensor<45088768xf32>
    %expanded_330 = tensor.expand_shape %extracted_slice_329 [[0, 1]] : tensor<45088768xf32> into tensor<4096x11008xf32>
    %extracted_slice_331 = tensor.extract_slice %arg0[3976466432] [16777216] [1] : tensor<6755192832xf32> to tensor<16777216xf32>
    %expanded_332 = tensor.expand_shape %extracted_slice_331 [[0, 1]] : tensor<16777216xf32> into tensor<4096x4096xf32>
    %extracted_slice_333 = tensor.extract_slice %arg0[3993243648] [16777216] [1] : tensor<6755192832xf32> to tensor<16777216xf32>
    %expanded_334 = tensor.expand_shape %extracted_slice_333 [[0, 1]] : tensor<16777216xf32> into tensor<4096x4096xf32>
    %extracted_slice_335 = tensor.extract_slice %arg0[4010020864] [16777216] [1] : tensor<6755192832xf32> to tensor<16777216xf32>
    %expanded_336 = tensor.expand_shape %extracted_slice_335 [[0, 1]] : tensor<16777216xf32> into tensor<4096x4096xf32>
    %extracted_slice_337 = tensor.extract_slice %arg0[4026798080] [16777216] [1] : tensor<6755192832xf32> to tensor<16777216xf32>
    %expanded_338 = tensor.expand_shape %extracted_slice_337 [[0, 1]] : tensor<16777216xf32> into tensor<4096x4096xf32>
    %extracted_slice_339 = tensor.extract_slice %arg0[4043575296] [45088768] [1] : tensor<6755192832xf32> to tensor<45088768xf32>
    %expanded_340 = tensor.expand_shape %extracted_slice_339 [[0, 1]] : tensor<45088768xf32> into tensor<11008x4096xf32>
    %extracted_slice_341 = tensor.extract_slice %arg0[4088664064] [45088768] [1] : tensor<6755192832xf32> to tensor<45088768xf32>
    %expanded_342 = tensor.expand_shape %extracted_slice_341 [[0, 1]] : tensor<45088768xf32> into tensor<11008x4096xf32>
    %extracted_slice_343 = tensor.extract_slice %arg0[4133752832] [45088768] [1] : tensor<6755192832xf32> to tensor<45088768xf32>
    %expanded_344 = tensor.expand_shape %extracted_slice_343 [[0, 1]] : tensor<45088768xf32> into tensor<4096x11008xf32>
    %extracted_slice_345 = tensor.extract_slice %arg0[4178841600] [16777216] [1] : tensor<6755192832xf32> to tensor<16777216xf32>
    %expanded_346 = tensor.expand_shape %extracted_slice_345 [[0, 1]] : tensor<16777216xf32> into tensor<4096x4096xf32>
    %extracted_slice_347 = tensor.extract_slice %arg0[4195618816] [16777216] [1] : tensor<6755192832xf32> to tensor<16777216xf32>
    %expanded_348 = tensor.expand_shape %extracted_slice_347 [[0, 1]] : tensor<16777216xf32> into tensor<4096x4096xf32>
    %extracted_slice_349 = tensor.extract_slice %arg0[4212396032] [16777216] [1] : tensor<6755192832xf32> to tensor<16777216xf32>
    %expanded_350 = tensor.expand_shape %extracted_slice_349 [[0, 1]] : tensor<16777216xf32> into tensor<4096x4096xf32>
    %extracted_slice_351 = tensor.extract_slice %arg0[4229173248] [16777216] [1] : tensor<6755192832xf32> to tensor<16777216xf32>
    %expanded_352 = tensor.expand_shape %extracted_slice_351 [[0, 1]] : tensor<16777216xf32> into tensor<4096x4096xf32>
    %extracted_slice_353 = tensor.extract_slice %arg0[4245950464] [45088768] [1] : tensor<6755192832xf32> to tensor<45088768xf32>
    %expanded_354 = tensor.expand_shape %extracted_slice_353 [[0, 1]] : tensor<45088768xf32> into tensor<11008x4096xf32>
    %extracted_slice_355 = tensor.extract_slice %arg0[4291039232] [45088768] [1] : tensor<6755192832xf32> to tensor<45088768xf32>
    %expanded_356 = tensor.expand_shape %extracted_slice_355 [[0, 1]] : tensor<45088768xf32> into tensor<11008x4096xf32>
    %extracted_slice_357 = tensor.extract_slice %arg0[4336128000] [45088768] [1] : tensor<6755192832xf32> to tensor<45088768xf32>
    %expanded_358 = tensor.expand_shape %extracted_slice_357 [[0, 1]] : tensor<45088768xf32> into tensor<4096x11008xf32>
    %extracted_slice_359 = tensor.extract_slice %arg0[4381216768] [16777216] [1] : tensor<6755192832xf32> to tensor<16777216xf32>
    %expanded_360 = tensor.expand_shape %extracted_slice_359 [[0, 1]] : tensor<16777216xf32> into tensor<4096x4096xf32>
    %extracted_slice_361 = tensor.extract_slice %arg0[4397993984] [16777216] [1] : tensor<6755192832xf32> to tensor<16777216xf32>
    %expanded_362 = tensor.expand_shape %extracted_slice_361 [[0, 1]] : tensor<16777216xf32> into tensor<4096x4096xf32>
    %extracted_slice_363 = tensor.extract_slice %arg0[4414771200] [16777216] [1] : tensor<6755192832xf32> to tensor<16777216xf32>
    %expanded_364 = tensor.expand_shape %extracted_slice_363 [[0, 1]] : tensor<16777216xf32> into tensor<4096x4096xf32>
    %extracted_slice_365 = tensor.extract_slice %arg0[4431548416] [16777216] [1] : tensor<6755192832xf32> to tensor<16777216xf32>
    %expanded_366 = tensor.expand_shape %extracted_slice_365 [[0, 1]] : tensor<16777216xf32> into tensor<4096x4096xf32>
    %extracted_slice_367 = tensor.extract_slice %arg0[4448325632] [45088768] [1] : tensor<6755192832xf32> to tensor<45088768xf32>
    %expanded_368 = tensor.expand_shape %extracted_slice_367 [[0, 1]] : tensor<45088768xf32> into tensor<11008x4096xf32>
    %extracted_slice_369 = tensor.extract_slice %arg0[4493414400] [45088768] [1] : tensor<6755192832xf32> to tensor<45088768xf32>
    %expanded_370 = tensor.expand_shape %extracted_slice_369 [[0, 1]] : tensor<45088768xf32> into tensor<11008x4096xf32>
    %extracted_slice_371 = tensor.extract_slice %arg0[4538503168] [45088768] [1] : tensor<6755192832xf32> to tensor<45088768xf32>
    %expanded_372 = tensor.expand_shape %extracted_slice_371 [[0, 1]] : tensor<45088768xf32> into tensor<4096x11008xf32>
    %extracted_slice_373 = tensor.extract_slice %arg0[4583591936] [16777216] [1] : tensor<6755192832xf32> to tensor<16777216xf32>
    %expanded_374 = tensor.expand_shape %extracted_slice_373 [[0, 1]] : tensor<16777216xf32> into tensor<4096x4096xf32>
    %extracted_slice_375 = tensor.extract_slice %arg0[4600369152] [16777216] [1] : tensor<6755192832xf32> to tensor<16777216xf32>
    %expanded_376 = tensor.expand_shape %extracted_slice_375 [[0, 1]] : tensor<16777216xf32> into tensor<4096x4096xf32>
    %extracted_slice_377 = tensor.extract_slice %arg0[4617146368] [16777216] [1] : tensor<6755192832xf32> to tensor<16777216xf32>
    %expanded_378 = tensor.expand_shape %extracted_slice_377 [[0, 1]] : tensor<16777216xf32> into tensor<4096x4096xf32>
    %extracted_slice_379 = tensor.extract_slice %arg0[4633923584] [16777216] [1] : tensor<6755192832xf32> to tensor<16777216xf32>
    %expanded_380 = tensor.expand_shape %extracted_slice_379 [[0, 1]] : tensor<16777216xf32> into tensor<4096x4096xf32>
    %extracted_slice_381 = tensor.extract_slice %arg0[4650700800] [45088768] [1] : tensor<6755192832xf32> to tensor<45088768xf32>
    %expanded_382 = tensor.expand_shape %extracted_slice_381 [[0, 1]] : tensor<45088768xf32> into tensor<11008x4096xf32>
    %extracted_slice_383 = tensor.extract_slice %arg0[4695789568] [45088768] [1] : tensor<6755192832xf32> to tensor<45088768xf32>
    %expanded_384 = tensor.expand_shape %extracted_slice_383 [[0, 1]] : tensor<45088768xf32> into tensor<11008x4096xf32>
    %extracted_slice_385 = tensor.extract_slice %arg0[4740878336] [45088768] [1] : tensor<6755192832xf32> to tensor<45088768xf32>
    %expanded_386 = tensor.expand_shape %extracted_slice_385 [[0, 1]] : tensor<45088768xf32> into tensor<4096x11008xf32>
    %extracted_slice_387 = tensor.extract_slice %arg0[4785967104] [16777216] [1] : tensor<6755192832xf32> to tensor<16777216xf32>
    %expanded_388 = tensor.expand_shape %extracted_slice_387 [[0, 1]] : tensor<16777216xf32> into tensor<4096x4096xf32>
    %extracted_slice_389 = tensor.extract_slice %arg0[4802744320] [16777216] [1] : tensor<6755192832xf32> to tensor<16777216xf32>
    %expanded_390 = tensor.expand_shape %extracted_slice_389 [[0, 1]] : tensor<16777216xf32> into tensor<4096x4096xf32>
    %extracted_slice_391 = tensor.extract_slice %arg0[4819521536] [16777216] [1] : tensor<6755192832xf32> to tensor<16777216xf32>
    %expanded_392 = tensor.expand_shape %extracted_slice_391 [[0, 1]] : tensor<16777216xf32> into tensor<4096x4096xf32>
    %extracted_slice_393 = tensor.extract_slice %arg0[4836298752] [16777216] [1] : tensor<6755192832xf32> to tensor<16777216xf32>
    %expanded_394 = tensor.expand_shape %extracted_slice_393 [[0, 1]] : tensor<16777216xf32> into tensor<4096x4096xf32>
    %extracted_slice_395 = tensor.extract_slice %arg0[4853075968] [45088768] [1] : tensor<6755192832xf32> to tensor<45088768xf32>
    %expanded_396 = tensor.expand_shape %extracted_slice_395 [[0, 1]] : tensor<45088768xf32> into tensor<11008x4096xf32>
    %extracted_slice_397 = tensor.extract_slice %arg0[4898164736] [45088768] [1] : tensor<6755192832xf32> to tensor<45088768xf32>
    %expanded_398 = tensor.expand_shape %extracted_slice_397 [[0, 1]] : tensor<45088768xf32> into tensor<11008x4096xf32>
    %extracted_slice_399 = tensor.extract_slice %arg0[4943253504] [45088768] [1] : tensor<6755192832xf32> to tensor<45088768xf32>
    %expanded_400 = tensor.expand_shape %extracted_slice_399 [[0, 1]] : tensor<45088768xf32> into tensor<4096x11008xf32>
    %extracted_slice_401 = tensor.extract_slice %arg0[4988342272] [16777216] [1] : tensor<6755192832xf32> to tensor<16777216xf32>
    %expanded_402 = tensor.expand_shape %extracted_slice_401 [[0, 1]] : tensor<16777216xf32> into tensor<4096x4096xf32>
    %extracted_slice_403 = tensor.extract_slice %arg0[5005119488] [16777216] [1] : tensor<6755192832xf32> to tensor<16777216xf32>
    %expanded_404 = tensor.expand_shape %extracted_slice_403 [[0, 1]] : tensor<16777216xf32> into tensor<4096x4096xf32>
    %extracted_slice_405 = tensor.extract_slice %arg0[5021896704] [16777216] [1] : tensor<6755192832xf32> to tensor<16777216xf32>
    %expanded_406 = tensor.expand_shape %extracted_slice_405 [[0, 1]] : tensor<16777216xf32> into tensor<4096x4096xf32>
    %extracted_slice_407 = tensor.extract_slice %arg0[5038673920] [16777216] [1] : tensor<6755192832xf32> to tensor<16777216xf32>
    %expanded_408 = tensor.expand_shape %extracted_slice_407 [[0, 1]] : tensor<16777216xf32> into tensor<4096x4096xf32>
    %extracted_slice_409 = tensor.extract_slice %arg0[5055451136] [45088768] [1] : tensor<6755192832xf32> to tensor<45088768xf32>
    %expanded_410 = tensor.expand_shape %extracted_slice_409 [[0, 1]] : tensor<45088768xf32> into tensor<11008x4096xf32>
    %extracted_slice_411 = tensor.extract_slice %arg0[5100539904] [45088768] [1] : tensor<6755192832xf32> to tensor<45088768xf32>
    %expanded_412 = tensor.expand_shape %extracted_slice_411 [[0, 1]] : tensor<45088768xf32> into tensor<11008x4096xf32>
    %extracted_slice_413 = tensor.extract_slice %arg0[5145628672] [45088768] [1] : tensor<6755192832xf32> to tensor<45088768xf32>
    %expanded_414 = tensor.expand_shape %extracted_slice_413 [[0, 1]] : tensor<45088768xf32> into tensor<4096x11008xf32>
    %extracted_slice_415 = tensor.extract_slice %arg0[5190717440] [16777216] [1] : tensor<6755192832xf32> to tensor<16777216xf32>
    %expanded_416 = tensor.expand_shape %extracted_slice_415 [[0, 1]] : tensor<16777216xf32> into tensor<4096x4096xf32>
    %extracted_slice_417 = tensor.extract_slice %arg0[5207494656] [16777216] [1] : tensor<6755192832xf32> to tensor<16777216xf32>
    %expanded_418 = tensor.expand_shape %extracted_slice_417 [[0, 1]] : tensor<16777216xf32> into tensor<4096x4096xf32>
    %extracted_slice_419 = tensor.extract_slice %arg0[5224271872] [16777216] [1] : tensor<6755192832xf32> to tensor<16777216xf32>
    %expanded_420 = tensor.expand_shape %extracted_slice_419 [[0, 1]] : tensor<16777216xf32> into tensor<4096x4096xf32>
    %extracted_slice_421 = tensor.extract_slice %arg0[5241049088] [16777216] [1] : tensor<6755192832xf32> to tensor<16777216xf32>
    %expanded_422 = tensor.expand_shape %extracted_slice_421 [[0, 1]] : tensor<16777216xf32> into tensor<4096x4096xf32>
    %extracted_slice_423 = tensor.extract_slice %arg0[5257826304] [45088768] [1] : tensor<6755192832xf32> to tensor<45088768xf32>
    %expanded_424 = tensor.expand_shape %extracted_slice_423 [[0, 1]] : tensor<45088768xf32> into tensor<11008x4096xf32>
    %extracted_slice_425 = tensor.extract_slice %arg0[5302915072] [45088768] [1] : tensor<6755192832xf32> to tensor<45088768xf32>
    %expanded_426 = tensor.expand_shape %extracted_slice_425 [[0, 1]] : tensor<45088768xf32> into tensor<11008x4096xf32>
    %extracted_slice_427 = tensor.extract_slice %arg0[5348003840] [45088768] [1] : tensor<6755192832xf32> to tensor<45088768xf32>
    %expanded_428 = tensor.expand_shape %extracted_slice_427 [[0, 1]] : tensor<45088768xf32> into tensor<4096x11008xf32>
    %extracted_slice_429 = tensor.extract_slice %arg0[5393092608] [16777216] [1] : tensor<6755192832xf32> to tensor<16777216xf32>
    %expanded_430 = tensor.expand_shape %extracted_slice_429 [[0, 1]] : tensor<16777216xf32> into tensor<4096x4096xf32>
    %extracted_slice_431 = tensor.extract_slice %arg0[5409869824] [16777216] [1] : tensor<6755192832xf32> to tensor<16777216xf32>
    %expanded_432 = tensor.expand_shape %extracted_slice_431 [[0, 1]] : tensor<16777216xf32> into tensor<4096x4096xf32>
    %extracted_slice_433 = tensor.extract_slice %arg0[5426647040] [16777216] [1] : tensor<6755192832xf32> to tensor<16777216xf32>
    %expanded_434 = tensor.expand_shape %extracted_slice_433 [[0, 1]] : tensor<16777216xf32> into tensor<4096x4096xf32>
    %extracted_slice_435 = tensor.extract_slice %arg0[5443424256] [16777216] [1] : tensor<6755192832xf32> to tensor<16777216xf32>
    %expanded_436 = tensor.expand_shape %extracted_slice_435 [[0, 1]] : tensor<16777216xf32> into tensor<4096x4096xf32>
    %extracted_slice_437 = tensor.extract_slice %arg0[5460201472] [45088768] [1] : tensor<6755192832xf32> to tensor<45088768xf32>
    %expanded_438 = tensor.expand_shape %extracted_slice_437 [[0, 1]] : tensor<45088768xf32> into tensor<11008x4096xf32>
    %extracted_slice_439 = tensor.extract_slice %arg0[5505290240] [45088768] [1] : tensor<6755192832xf32> to tensor<45088768xf32>
    %expanded_440 = tensor.expand_shape %extracted_slice_439 [[0, 1]] : tensor<45088768xf32> into tensor<11008x4096xf32>
    %extracted_slice_441 = tensor.extract_slice %arg0[5550379008] [45088768] [1] : tensor<6755192832xf32> to tensor<45088768xf32>
    %expanded_442 = tensor.expand_shape %extracted_slice_441 [[0, 1]] : tensor<45088768xf32> into tensor<4096x11008xf32>
    %extracted_slice_443 = tensor.extract_slice %arg0[5595467776] [16777216] [1] : tensor<6755192832xf32> to tensor<16777216xf32>
    %expanded_444 = tensor.expand_shape %extracted_slice_443 [[0, 1]] : tensor<16777216xf32> into tensor<4096x4096xf32>
    %extracted_slice_445 = tensor.extract_slice %arg0[5612244992] [16777216] [1] : tensor<6755192832xf32> to tensor<16777216xf32>
    %expanded_446 = tensor.expand_shape %extracted_slice_445 [[0, 1]] : tensor<16777216xf32> into tensor<4096x4096xf32>
    %extracted_slice_447 = tensor.extract_slice %arg0[5629022208] [16777216] [1] : tensor<6755192832xf32> to tensor<16777216xf32>
    %expanded_448 = tensor.expand_shape %extracted_slice_447 [[0, 1]] : tensor<16777216xf32> into tensor<4096x4096xf32>
    %extracted_slice_449 = tensor.extract_slice %arg0[5645799424] [16777216] [1] : tensor<6755192832xf32> to tensor<16777216xf32>
    %expanded_450 = tensor.expand_shape %extracted_slice_449 [[0, 1]] : tensor<16777216xf32> into tensor<4096x4096xf32>
    %extracted_slice_451 = tensor.extract_slice %arg0[5662576640] [45088768] [1] : tensor<6755192832xf32> to tensor<45088768xf32>
    %expanded_452 = tensor.expand_shape %extracted_slice_451 [[0, 1]] : tensor<45088768xf32> into tensor<11008x4096xf32>
    %extracted_slice_453 = tensor.extract_slice %arg0[5707665408] [45088768] [1] : tensor<6755192832xf32> to tensor<45088768xf32>
    %expanded_454 = tensor.expand_shape %extracted_slice_453 [[0, 1]] : tensor<45088768xf32> into tensor<11008x4096xf32>
    %extracted_slice_455 = tensor.extract_slice %arg0[5752754176] [45088768] [1] : tensor<6755192832xf32> to tensor<45088768xf32>
    %expanded_456 = tensor.expand_shape %extracted_slice_455 [[0, 1]] : tensor<45088768xf32> into tensor<4096x11008xf32>
    %extracted_slice_457 = tensor.extract_slice %arg0[5797842944] [16777216] [1] : tensor<6755192832xf32> to tensor<16777216xf32>
    %expanded_458 = tensor.expand_shape %extracted_slice_457 [[0, 1]] : tensor<16777216xf32> into tensor<4096x4096xf32>
    %extracted_slice_459 = tensor.extract_slice %arg0[5814620160] [16777216] [1] : tensor<6755192832xf32> to tensor<16777216xf32>
    %expanded_460 = tensor.expand_shape %extracted_slice_459 [[0, 1]] : tensor<16777216xf32> into tensor<4096x4096xf32>
    %extracted_slice_461 = tensor.extract_slice %arg0[5831397376] [16777216] [1] : tensor<6755192832xf32> to tensor<16777216xf32>
    %expanded_462 = tensor.expand_shape %extracted_slice_461 [[0, 1]] : tensor<16777216xf32> into tensor<4096x4096xf32>
    %extracted_slice_463 = tensor.extract_slice %arg0[5848174592] [16777216] [1] : tensor<6755192832xf32> to tensor<16777216xf32>
    %expanded_464 = tensor.expand_shape %extracted_slice_463 [[0, 1]] : tensor<16777216xf32> into tensor<4096x4096xf32>
    %extracted_slice_465 = tensor.extract_slice %arg0[5864951808] [45088768] [1] : tensor<6755192832xf32> to tensor<45088768xf32>
    %expanded_466 = tensor.expand_shape %extracted_slice_465 [[0, 1]] : tensor<45088768xf32> into tensor<11008x4096xf32>
    %extracted_slice_467 = tensor.extract_slice %arg0[5910040576] [45088768] [1] : tensor<6755192832xf32> to tensor<45088768xf32>
    %expanded_468 = tensor.expand_shape %extracted_slice_467 [[0, 1]] : tensor<45088768xf32> into tensor<11008x4096xf32>
    %extracted_slice_469 = tensor.extract_slice %arg0[5955129344] [45088768] [1] : tensor<6755192832xf32> to tensor<45088768xf32>
    %expanded_470 = tensor.expand_shape %extracted_slice_469 [[0, 1]] : tensor<45088768xf32> into tensor<4096x11008xf32>
    %extracted_slice_471 = tensor.extract_slice %arg0[6000218112] [16777216] [1] : tensor<6755192832xf32> to tensor<16777216xf32>
    %expanded_472 = tensor.expand_shape %extracted_slice_471 [[0, 1]] : tensor<16777216xf32> into tensor<4096x4096xf32>
    %extracted_slice_473 = tensor.extract_slice %arg0[6016995328] [16777216] [1] : tensor<6755192832xf32> to tensor<16777216xf32>
    %expanded_474 = tensor.expand_shape %extracted_slice_473 [[0, 1]] : tensor<16777216xf32> into tensor<4096x4096xf32>
    %extracted_slice_475 = tensor.extract_slice %arg0[6033772544] [16777216] [1] : tensor<6755192832xf32> to tensor<16777216xf32>
    %expanded_476 = tensor.expand_shape %extracted_slice_475 [[0, 1]] : tensor<16777216xf32> into tensor<4096x4096xf32>
    %extracted_slice_477 = tensor.extract_slice %arg0[6050549760] [16777216] [1] : tensor<6755192832xf32> to tensor<16777216xf32>
    %expanded_478 = tensor.expand_shape %extracted_slice_477 [[0, 1]] : tensor<16777216xf32> into tensor<4096x4096xf32>
    %extracted_slice_479 = tensor.extract_slice %arg0[6067326976] [45088768] [1] : tensor<6755192832xf32> to tensor<45088768xf32>
    %expanded_480 = tensor.expand_shape %extracted_slice_479 [[0, 1]] : tensor<45088768xf32> into tensor<11008x4096xf32>
    %extracted_slice_481 = tensor.extract_slice %arg0[6112415744] [45088768] [1] : tensor<6755192832xf32> to tensor<45088768xf32>
    %expanded_482 = tensor.expand_shape %extracted_slice_481 [[0, 1]] : tensor<45088768xf32> into tensor<11008x4096xf32>
    %extracted_slice_483 = tensor.extract_slice %arg0[6157504512] [45088768] [1] : tensor<6755192832xf32> to tensor<45088768xf32>
    %expanded_484 = tensor.expand_shape %extracted_slice_483 [[0, 1]] : tensor<45088768xf32> into tensor<4096x11008xf32>
    %extracted_slice_485 = tensor.extract_slice %arg0[6202593280] [16777216] [1] : tensor<6755192832xf32> to tensor<16777216xf32>
    %expanded_486 = tensor.expand_shape %extracted_slice_485 [[0, 1]] : tensor<16777216xf32> into tensor<4096x4096xf32>
    %extracted_slice_487 = tensor.extract_slice %arg0[6219370496] [16777216] [1] : tensor<6755192832xf32> to tensor<16777216xf32>
    %expanded_488 = tensor.expand_shape %extracted_slice_487 [[0, 1]] : tensor<16777216xf32> into tensor<4096x4096xf32>
    %extracted_slice_489 = tensor.extract_slice %arg0[6236147712] [16777216] [1] : tensor<6755192832xf32> to tensor<16777216xf32>
    %expanded_490 = tensor.expand_shape %extracted_slice_489 [[0, 1]] : tensor<16777216xf32> into tensor<4096x4096xf32>
    %extracted_slice_491 = tensor.extract_slice %arg0[6252924928] [16777216] [1] : tensor<6755192832xf32> to tensor<16777216xf32>
    %expanded_492 = tensor.expand_shape %extracted_slice_491 [[0, 1]] : tensor<16777216xf32> into tensor<4096x4096xf32>
    %extracted_slice_493 = tensor.extract_slice %arg0[6269702144] [45088768] [1] : tensor<6755192832xf32> to tensor<45088768xf32>
    %expanded_494 = tensor.expand_shape %extracted_slice_493 [[0, 1]] : tensor<45088768xf32> into tensor<11008x4096xf32>
    %extracted_slice_495 = tensor.extract_slice %arg0[6314790912] [45088768] [1] : tensor<6755192832xf32> to tensor<45088768xf32>
    %expanded_496 = tensor.expand_shape %extracted_slice_495 [[0, 1]] : tensor<45088768xf32> into tensor<11008x4096xf32>
    %extracted_slice_497 = tensor.extract_slice %arg0[6359879680] [45088768] [1] : tensor<6755192832xf32> to tensor<45088768xf32>
    %expanded_498 = tensor.expand_shape %extracted_slice_497 [[0, 1]] : tensor<45088768xf32> into tensor<4096x11008xf32>
    %extracted_slice_499 = tensor.extract_slice %arg0[6404968448] [16777216] [1] : tensor<6755192832xf32> to tensor<16777216xf32>
    %expanded_500 = tensor.expand_shape %extracted_slice_499 [[0, 1]] : tensor<16777216xf32> into tensor<4096x4096xf32>
    %extracted_slice_501 = tensor.extract_slice %arg0[6421745664] [16777216] [1] : tensor<6755192832xf32> to tensor<16777216xf32>
    %expanded_502 = tensor.expand_shape %extracted_slice_501 [[0, 1]] : tensor<16777216xf32> into tensor<4096x4096xf32>
    %extracted_slice_503 = tensor.extract_slice %arg0[6438522880] [16777216] [1] : tensor<6755192832xf32> to tensor<16777216xf32>
    %expanded_504 = tensor.expand_shape %extracted_slice_503 [[0, 1]] : tensor<16777216xf32> into tensor<4096x4096xf32>
    %extracted_slice_505 = tensor.extract_slice %arg0[6455300096] [16777216] [1] : tensor<6755192832xf32> to tensor<16777216xf32>
    %expanded_506 = tensor.expand_shape %extracted_slice_505 [[0, 1]] : tensor<16777216xf32> into tensor<4096x4096xf32>
    %extracted_slice_507 = tensor.extract_slice %arg0[6472077312] [45088768] [1] : tensor<6755192832xf32> to tensor<45088768xf32>
    %expanded_508 = tensor.expand_shape %extracted_slice_507 [[0, 1]] : tensor<45088768xf32> into tensor<11008x4096xf32>
    %extracted_slice_509 = tensor.extract_slice %arg0[6517166080] [45088768] [1] : tensor<6755192832xf32> to tensor<45088768xf32>
    %expanded_510 = tensor.expand_shape %extracted_slice_509 [[0, 1]] : tensor<45088768xf32> into tensor<11008x4096xf32>
    %extracted_slice_511 = tensor.extract_slice %arg0[6562254848] [45088768] [1] : tensor<6755192832xf32> to tensor<45088768xf32>
    %expanded_512 = tensor.expand_shape %extracted_slice_511 [[0, 1]] : tensor<45088768xf32> into tensor<4096x11008xf32>
    %extracted_slice_513 = tensor.extract_slice %arg0[6607343616] [131072000] [1] : tensor<6755192832xf32> to tensor<131072000xf32>
    %expanded_514 = tensor.expand_shape %extracted_slice_513 [[0, 1]] : tensor<131072000xf32> into tensor<32000x4096xf32>
    %extracted_slice_515 = tensor.extract_slice %arg0[6738415616] [262144] [1] : tensor<6755192832xf32> to tensor<262144xf32>
    %expanded_516 = tensor.expand_shape %extracted_slice_515 [[0, 1, 2, 3]] : tensor<262144xf32> into tensor<1x1x2048x128xf32>
    %extracted_slice_517 = tensor.extract_slice %arg0[6738677760] [262144] [1] : tensor<6755192832xf32> to tensor<262144xf32>
    %expanded_518 = tensor.expand_shape %extracted_slice_517 [[0, 1, 2, 3]] : tensor<262144xf32> into tensor<1x1x2048x128xf32>
    %extracted_slice_519 = tensor.extract_slice %arg0[6738939904] [262144] [1] : tensor<6755192832xf32> to tensor<262144xf32>
    %expanded_520 = tensor.expand_shape %extracted_slice_519 [[0, 1, 2, 3]] : tensor<262144xf32> into tensor<1x1x2048x128xf32>
    %extracted_slice_521 = tensor.extract_slice %arg0[6739202048] [262144] [1] : tensor<6755192832xf32> to tensor<262144xf32>
    %expanded_522 = tensor.expand_shape %extracted_slice_521 [[0, 1, 2, 3]] : tensor<262144xf32> into tensor<1x1x2048x128xf32>
    %extracted_slice_523 = tensor.extract_slice %arg0[6739464192] [262144] [1] : tensor<6755192832xf32> to tensor<262144xf32>
    %expanded_524 = tensor.expand_shape %extracted_slice_523 [[0, 1, 2, 3]] : tensor<262144xf32> into tensor<1x1x2048x128xf32>
    %extracted_slice_525 = tensor.extract_slice %arg0[6739726336] [262144] [1] : tensor<6755192832xf32> to tensor<262144xf32>
    %expanded_526 = tensor.expand_shape %extracted_slice_525 [[0, 1, 2, 3]] : tensor<262144xf32> into tensor<1x1x2048x128xf32>
    %extracted_slice_527 = tensor.extract_slice %arg0[6739988480] [262144] [1] : tensor<6755192832xf32> to tensor<262144xf32>
    %expanded_528 = tensor.expand_shape %extracted_slice_527 [[0, 1, 2, 3]] : tensor<262144xf32> into tensor<1x1x2048x128xf32>
    %extracted_slice_529 = tensor.extract_slice %arg0[6740250624] [262144] [1] : tensor<6755192832xf32> to tensor<262144xf32>
    %expanded_530 = tensor.expand_shape %extracted_slice_529 [[0, 1, 2, 3]] : tensor<262144xf32> into tensor<1x1x2048x128xf32>
    %extracted_slice_531 = tensor.extract_slice %arg0[6740512768] [262144] [1] : tensor<6755192832xf32> to tensor<262144xf32>
    %expanded_532 = tensor.expand_shape %extracted_slice_531 [[0, 1, 2, 3]] : tensor<262144xf32> into tensor<1x1x2048x128xf32>
    %extracted_slice_533 = tensor.extract_slice %arg0[6740774912] [262144] [1] : tensor<6755192832xf32> to tensor<262144xf32>
    %expanded_534 = tensor.expand_shape %extracted_slice_533 [[0, 1, 2, 3]] : tensor<262144xf32> into tensor<1x1x2048x128xf32>
    %extracted_slice_535 = tensor.extract_slice %arg0[6741037056] [262144] [1] : tensor<6755192832xf32> to tensor<262144xf32>
    %expanded_536 = tensor.expand_shape %extracted_slice_535 [[0, 1, 2, 3]] : tensor<262144xf32> into tensor<1x1x2048x128xf32>
    %extracted_slice_537 = tensor.extract_slice %arg0[6741299200] [262144] [1] : tensor<6755192832xf32> to tensor<262144xf32>
    %expanded_538 = tensor.expand_shape %extracted_slice_537 [[0, 1, 2, 3]] : tensor<262144xf32> into tensor<1x1x2048x128xf32>
    %extracted_slice_539 = tensor.extract_slice %arg0[6741561344] [262144] [1] : tensor<6755192832xf32> to tensor<262144xf32>
    %expanded_540 = tensor.expand_shape %extracted_slice_539 [[0, 1, 2, 3]] : tensor<262144xf32> into tensor<1x1x2048x128xf32>
    %extracted_slice_541 = tensor.extract_slice %arg0[6741823488] [262144] [1] : tensor<6755192832xf32> to tensor<262144xf32>
    %expanded_542 = tensor.expand_shape %extracted_slice_541 [[0, 1, 2, 3]] : tensor<262144xf32> into tensor<1x1x2048x128xf32>
    %extracted_slice_543 = tensor.extract_slice %arg0[6742085632] [262144] [1] : tensor<6755192832xf32> to tensor<262144xf32>
    %expanded_544 = tensor.expand_shape %extracted_slice_543 [[0, 1, 2, 3]] : tensor<262144xf32> into tensor<1x1x2048x128xf32>
    %extracted_slice_545 = tensor.extract_slice %arg0[6742347776] [262144] [1] : tensor<6755192832xf32> to tensor<262144xf32>
    %expanded_546 = tensor.expand_shape %extracted_slice_545 [[0, 1, 2, 3]] : tensor<262144xf32> into tensor<1x1x2048x128xf32>
    %extracted_slice_547 = tensor.extract_slice %arg0[6742609920] [262144] [1] : tensor<6755192832xf32> to tensor<262144xf32>
    %expanded_548 = tensor.expand_shape %extracted_slice_547 [[0, 1, 2, 3]] : tensor<262144xf32> into tensor<1x1x2048x128xf32>
    %extracted_slice_549 = tensor.extract_slice %arg0[6742872064] [262144] [1] : tensor<6755192832xf32> to tensor<262144xf32>
    %expanded_550 = tensor.expand_shape %extracted_slice_549 [[0, 1, 2, 3]] : tensor<262144xf32> into tensor<1x1x2048x128xf32>
    %extracted_slice_551 = tensor.extract_slice %arg0[6743134208] [262144] [1] : tensor<6755192832xf32> to tensor<262144xf32>
    %expanded_552 = tensor.expand_shape %extracted_slice_551 [[0, 1, 2, 3]] : tensor<262144xf32> into tensor<1x1x2048x128xf32>
    %extracted_slice_553 = tensor.extract_slice %arg0[6743396352] [262144] [1] : tensor<6755192832xf32> to tensor<262144xf32>
    %expanded_554 = tensor.expand_shape %extracted_slice_553 [[0, 1, 2, 3]] : tensor<262144xf32> into tensor<1x1x2048x128xf32>
    %extracted_slice_555 = tensor.extract_slice %arg0[6743658496] [262144] [1] : tensor<6755192832xf32> to tensor<262144xf32>
    %expanded_556 = tensor.expand_shape %extracted_slice_555 [[0, 1, 2, 3]] : tensor<262144xf32> into tensor<1x1x2048x128xf32>
    %extracted_slice_557 = tensor.extract_slice %arg0[6743920640] [262144] [1] : tensor<6755192832xf32> to tensor<262144xf32>
    %expanded_558 = tensor.expand_shape %extracted_slice_557 [[0, 1, 2, 3]] : tensor<262144xf32> into tensor<1x1x2048x128xf32>
    %extracted_slice_559 = tensor.extract_slice %arg0[6744182784] [262144] [1] : tensor<6755192832xf32> to tensor<262144xf32>
    %expanded_560 = tensor.expand_shape %extracted_slice_559 [[0, 1, 2, 3]] : tensor<262144xf32> into tensor<1x1x2048x128xf32>
    %extracted_slice_561 = tensor.extract_slice %arg0[6744444928] [262144] [1] : tensor<6755192832xf32> to tensor<262144xf32>
    %expanded_562 = tensor.expand_shape %extracted_slice_561 [[0, 1, 2, 3]] : tensor<262144xf32> into tensor<1x1x2048x128xf32>
    %extracted_slice_563 = tensor.extract_slice %arg0[6744707072] [262144] [1] : tensor<6755192832xf32> to tensor<262144xf32>
    %expanded_564 = tensor.expand_shape %extracted_slice_563 [[0, 1, 2, 3]] : tensor<262144xf32> into tensor<1x1x2048x128xf32>
    %extracted_slice_565 = tensor.extract_slice %arg0[6744969216] [262144] [1] : tensor<6755192832xf32> to tensor<262144xf32>
    %expanded_566 = tensor.expand_shape %extracted_slice_565 [[0, 1, 2, 3]] : tensor<262144xf32> into tensor<1x1x2048x128xf32>
    %extracted_slice_567 = tensor.extract_slice %arg0[6745231360] [262144] [1] : tensor<6755192832xf32> to tensor<262144xf32>
    %expanded_568 = tensor.expand_shape %extracted_slice_567 [[0, 1, 2, 3]] : tensor<262144xf32> into tensor<1x1x2048x128xf32>
    %extracted_slice_569 = tensor.extract_slice %arg0[6745493504] [262144] [1] : tensor<6755192832xf32> to tensor<262144xf32>
    %expanded_570 = tensor.expand_shape %extracted_slice_569 [[0, 1, 2, 3]] : tensor<262144xf32> into tensor<1x1x2048x128xf32>
    %extracted_slice_571 = tensor.extract_slice %arg0[6745755648] [262144] [1] : tensor<6755192832xf32> to tensor<262144xf32>
    %expanded_572 = tensor.expand_shape %extracted_slice_571 [[0, 1, 2, 3]] : tensor<262144xf32> into tensor<1x1x2048x128xf32>
    %extracted_slice_573 = tensor.extract_slice %arg0[6746017792] [262144] [1] : tensor<6755192832xf32> to tensor<262144xf32>
    %expanded_574 = tensor.expand_shape %extracted_slice_573 [[0, 1, 2, 3]] : tensor<262144xf32> into tensor<1x1x2048x128xf32>
    %extracted_slice_575 = tensor.extract_slice %arg0[6746279936] [262144] [1] : tensor<6755192832xf32> to tensor<262144xf32>
    %expanded_576 = tensor.expand_shape %extracted_slice_575 [[0, 1, 2, 3]] : tensor<262144xf32> into tensor<1x1x2048x128xf32>
    %extracted_slice_577 = tensor.extract_slice %arg0[6746542080] [262144] [1] : tensor<6755192832xf32> to tensor<262144xf32>
    %expanded_578 = tensor.expand_shape %extracted_slice_577 [[0, 1, 2, 3]] : tensor<262144xf32> into tensor<1x1x2048x128xf32>
    %extracted_slice_579 = tensor.extract_slice %arg0[6746804224] [262144] [1] : tensor<6755192832xf32> to tensor<262144xf32>
    %expanded_580 = tensor.expand_shape %extracted_slice_579 [[0, 1, 2, 3]] : tensor<262144xf32> into tensor<1x1x2048x128xf32>
    %extracted_slice_581 = tensor.extract_slice %arg0[6747066368] [262144] [1] : tensor<6755192832xf32> to tensor<262144xf32>
    %expanded_582 = tensor.expand_shape %extracted_slice_581 [[0, 1, 2, 3]] : tensor<262144xf32> into tensor<1x1x2048x128xf32>
    %extracted_slice_583 = tensor.extract_slice %arg0[6747328512] [262144] [1] : tensor<6755192832xf32> to tensor<262144xf32>
    %expanded_584 = tensor.expand_shape %extracted_slice_583 [[0, 1, 2, 3]] : tensor<262144xf32> into tensor<1x1x2048x128xf32>
    %extracted_slice_585 = tensor.extract_slice %arg0[6747590656] [262144] [1] : tensor<6755192832xf32> to tensor<262144xf32>
    %expanded_586 = tensor.expand_shape %extracted_slice_585 [[0, 1, 2, 3]] : tensor<262144xf32> into tensor<1x1x2048x128xf32>
    %extracted_slice_587 = tensor.extract_slice %arg0[6747852800] [262144] [1] : tensor<6755192832xf32> to tensor<262144xf32>
    %expanded_588 = tensor.expand_shape %extracted_slice_587 [[0, 1, 2, 3]] : tensor<262144xf32> into tensor<1x1x2048x128xf32>
    %extracted_slice_589 = tensor.extract_slice %arg0[6748114944] [262144] [1] : tensor<6755192832xf32> to tensor<262144xf32>
    %expanded_590 = tensor.expand_shape %extracted_slice_589 [[0, 1, 2, 3]] : tensor<262144xf32> into tensor<1x1x2048x128xf32>
    %extracted_slice_591 = tensor.extract_slice %arg0[6748377088] [262144] [1] : tensor<6755192832xf32> to tensor<262144xf32>
    %expanded_592 = tensor.expand_shape %extracted_slice_591 [[0, 1, 2, 3]] : tensor<262144xf32> into tensor<1x1x2048x128xf32>
    %extracted_slice_593 = tensor.extract_slice %arg0[6748639232] [262144] [1] : tensor<6755192832xf32> to tensor<262144xf32>
    %expanded_594 = tensor.expand_shape %extracted_slice_593 [[0, 1, 2, 3]] : tensor<262144xf32> into tensor<1x1x2048x128xf32>
    %extracted_slice_595 = tensor.extract_slice %arg0[6748901376] [262144] [1] : tensor<6755192832xf32> to tensor<262144xf32>
    %expanded_596 = tensor.expand_shape %extracted_slice_595 [[0, 1, 2, 3]] : tensor<262144xf32> into tensor<1x1x2048x128xf32>
    %extracted_slice_597 = tensor.extract_slice %arg0[6749163520] [262144] [1] : tensor<6755192832xf32> to tensor<262144xf32>
    %expanded_598 = tensor.expand_shape %extracted_slice_597 [[0, 1, 2, 3]] : tensor<262144xf32> into tensor<1x1x2048x128xf32>
    %extracted_slice_599 = tensor.extract_slice %arg0[6749425664] [262144] [1] : tensor<6755192832xf32> to tensor<262144xf32>
    %expanded_600 = tensor.expand_shape %extracted_slice_599 [[0, 1, 2, 3]] : tensor<262144xf32> into tensor<1x1x2048x128xf32>
    %extracted_slice_601 = tensor.extract_slice %arg0[6749687808] [262144] [1] : tensor<6755192832xf32> to tensor<262144xf32>
    %expanded_602 = tensor.expand_shape %extracted_slice_601 [[0, 1, 2, 3]] : tensor<262144xf32> into tensor<1x1x2048x128xf32>
    %extracted_slice_603 = tensor.extract_slice %arg0[6749949952] [262144] [1] : tensor<6755192832xf32> to tensor<262144xf32>
    %expanded_604 = tensor.expand_shape %extracted_slice_603 [[0, 1, 2, 3]] : tensor<262144xf32> into tensor<1x1x2048x128xf32>
    %extracted_slice_605 = tensor.extract_slice %arg0[6750212096] [262144] [1] : tensor<6755192832xf32> to tensor<262144xf32>
    %expanded_606 = tensor.expand_shape %extracted_slice_605 [[0, 1, 2, 3]] : tensor<262144xf32> into tensor<1x1x2048x128xf32>
    %extracted_slice_607 = tensor.extract_slice %arg0[6750474240] [262144] [1] : tensor<6755192832xf32> to tensor<262144xf32>
    %expanded_608 = tensor.expand_shape %extracted_slice_607 [[0, 1, 2, 3]] : tensor<262144xf32> into tensor<1x1x2048x128xf32>
    %extracted_slice_609 = tensor.extract_slice %arg0[6750736384] [262144] [1] : tensor<6755192832xf32> to tensor<262144xf32>
    %expanded_610 = tensor.expand_shape %extracted_slice_609 [[0, 1, 2, 3]] : tensor<262144xf32> into tensor<1x1x2048x128xf32>
    %extracted_slice_611 = tensor.extract_slice %arg0[6750998528] [262144] [1] : tensor<6755192832xf32> to tensor<262144xf32>
    %expanded_612 = tensor.expand_shape %extracted_slice_611 [[0, 1, 2, 3]] : tensor<262144xf32> into tensor<1x1x2048x128xf32>
    %extracted_slice_613 = tensor.extract_slice %arg0[6751260672] [262144] [1] : tensor<6755192832xf32> to tensor<262144xf32>
    %expanded_614 = tensor.expand_shape %extracted_slice_613 [[0, 1, 2, 3]] : tensor<262144xf32> into tensor<1x1x2048x128xf32>
    %extracted_slice_615 = tensor.extract_slice %arg0[6751522816] [262144] [1] : tensor<6755192832xf32> to tensor<262144xf32>
    %expanded_616 = tensor.expand_shape %extracted_slice_615 [[0, 1, 2, 3]] : tensor<262144xf32> into tensor<1x1x2048x128xf32>
    %extracted_slice_617 = tensor.extract_slice %arg0[6751784960] [262144] [1] : tensor<6755192832xf32> to tensor<262144xf32>
    %expanded_618 = tensor.expand_shape %extracted_slice_617 [[0, 1, 2, 3]] : tensor<262144xf32> into tensor<1x1x2048x128xf32>
    %extracted_slice_619 = tensor.extract_slice %arg0[6752047104] [262144] [1] : tensor<6755192832xf32> to tensor<262144xf32>
    %expanded_620 = tensor.expand_shape %extracted_slice_619 [[0, 1, 2, 3]] : tensor<262144xf32> into tensor<1x1x2048x128xf32>
    %extracted_slice_621 = tensor.extract_slice %arg0[6752309248] [262144] [1] : tensor<6755192832xf32> to tensor<262144xf32>
    %expanded_622 = tensor.expand_shape %extracted_slice_621 [[0, 1, 2, 3]] : tensor<262144xf32> into tensor<1x1x2048x128xf32>
    %extracted_slice_623 = tensor.extract_slice %arg0[6752571392] [262144] [1] : tensor<6755192832xf32> to tensor<262144xf32>
    %expanded_624 = tensor.expand_shape %extracted_slice_623 [[0, 1, 2, 3]] : tensor<262144xf32> into tensor<1x1x2048x128xf32>
    %extracted_slice_625 = tensor.extract_slice %arg0[6752833536] [262144] [1] : tensor<6755192832xf32> to tensor<262144xf32>
    %expanded_626 = tensor.expand_shape %extracted_slice_625 [[0, 1, 2, 3]] : tensor<262144xf32> into tensor<1x1x2048x128xf32>
    %extracted_slice_627 = tensor.extract_slice %arg0[6753095680] [262144] [1] : tensor<6755192832xf32> to tensor<262144xf32>
    %expanded_628 = tensor.expand_shape %extracted_slice_627 [[0, 1, 2, 3]] : tensor<262144xf32> into tensor<1x1x2048x128xf32>
    %extracted_slice_629 = tensor.extract_slice %arg0[6753357824] [262144] [1] : tensor<6755192832xf32> to tensor<262144xf32>
    %expanded_630 = tensor.expand_shape %extracted_slice_629 [[0, 1, 2, 3]] : tensor<262144xf32> into tensor<1x1x2048x128xf32>
    %extracted_slice_631 = tensor.extract_slice %arg0[6753619968] [262144] [1] : tensor<6755192832xf32> to tensor<262144xf32>
    %expanded_632 = tensor.expand_shape %extracted_slice_631 [[0, 1, 2, 3]] : tensor<262144xf32> into tensor<1x1x2048x128xf32>
    %extracted_slice_633 = tensor.extract_slice %arg0[6753882112] [262144] [1] : tensor<6755192832xf32> to tensor<262144xf32>
    %expanded_634 = tensor.expand_shape %extracted_slice_633 [[0, 1, 2, 3]] : tensor<262144xf32> into tensor<1x1x2048x128xf32>
    %extracted_slice_635 = tensor.extract_slice %arg0[6754144256] [262144] [1] : tensor<6755192832xf32> to tensor<262144xf32>
    %expanded_636 = tensor.expand_shape %extracted_slice_635 [[0, 1, 2, 3]] : tensor<262144xf32> into tensor<1x1x2048x128xf32>
    %extracted_slice_637 = tensor.extract_slice %arg0[6754406400] [262144] [1] : tensor<6755192832xf32> to tensor<262144xf32>
    %expanded_638 = tensor.expand_shape %extracted_slice_637 [[0, 1, 2, 3]] : tensor<262144xf32> into tensor<1x1x2048x128xf32>
    %extracted_slice_639 = tensor.extract_slice %arg0[6754668544] [262144] [1] : tensor<6755192832xf32> to tensor<262144xf32>
    %expanded_640 = tensor.expand_shape %extracted_slice_639 [[0, 1, 2, 3]] : tensor<262144xf32> into tensor<1x1x2048x128xf32>
    %extracted_slice_641 = tensor.extract_slice %arg0[6754930688] [262144] [1] : tensor<6755192832xf32> to tensor<262144xf32>
    %expanded_642 = tensor.expand_shape %extracted_slice_641 [[0, 1, 2, 3]] : tensor<262144xf32> into tensor<1x1x2048x128xf32>
    %cst = arith.constant dense<[0, 1, 2, 3, 4, 5, 6, 7, 8, 9, 10, 11, 12, 13, 14, 15, 16, 17, 18, 19, 20, 21, 22, 23, 24, 25, 26, 27, 28, 29, 30, 31, 32, 33, 34, 35, 36, 37, 38, 39]> : tensor<40xi64>
    %0 = tosa.reshape %cst {new_shape = array<i64: 1, 40>} : (tensor<40xi64>) -> tensor<1x40xi64>
    %1 = tosa.reshape %0 {new_shape = array<i64: 1, 40>} : (tensor<1x40xi64>) -> tensor<1x40xi64>
    %2 = tensor.empty() : tensor<1x40x4096xf32>
    %3 = linalg.generic {indexing_maps = [#map, #map1], iterator_types = ["parallel", "parallel", "parallel"]} ins(%arg1 : tensor<1x40xi64>) outs(%2 : tensor<1x40x4096xf32>) {
    ^bb0(%in: i64, %out: f32):
      %4844 = arith.index_cast %in : i64 to index
      %4845 = linalg.index 2 : index
      %extracted = tensor.extract %expanded[%4844, %4845] : tensor<32000x4096xf32>
      linalg.yield %extracted : f32
    } -> tensor<1x40x4096xf32>
    %cst_643 = arith.constant dense<true> : tensor<1x40xi1>
    %cst_644 = arith.constant dense<-3.40282347E+38> : tensor<40x40xf32>
    %cst_645 = arith.constant dense<[0, 1, 2, 3, 4, 5, 6, 7, 8, 9, 10, 11, 12, 13, 14, 15, 16, 17, 18, 19, 20, 21, 22, 23, 24, 25, 26, 27, 28, 29, 30, 31, 32, 33, 34, 35, 36, 37, 38, 39]> : tensor<40xi64>
    %cst_646 = arith.constant dense<1> : tensor<i64>
    %4 = tosa.add %cst_645, %cst_646 : (tensor<40xi64>, tensor<i64>) -> tensor<40xi64>
    %5 = tosa.reshape %4 {new_shape = array<i64: 40, 1>} : (tensor<40xi64>) -> tensor<40x1xi64>
    %6 = tensor.empty() : tensor<40x40xi1>
    %7 = linalg.generic {indexing_maps = [#map2, #map3, #map], iterator_types = ["parallel", "parallel", "reduction"]} ins(%cst_645, %5 : tensor<40xi64>, tensor<40x1xi64>) outs(%6 : tensor<40x40xi1>) {
    ^bb0(%in: i64, %in_1922: i64, %out: i1):
      %4844 = arith.cmpi slt, %in, %in_1922 : i64
      linalg.yield %4844 : i1
    } -> tensor<40x40xi1>
    %cst_647 = arith.constant 0.000000e+00 : f32
    %8 = tensor.empty() : tensor<40x40xf32>
    %9 = linalg.generic {indexing_maps = [#map4, #map4, #map4], iterator_types = ["parallel", "parallel"]} ins(%cst_644, %7 : tensor<40x40xf32>, tensor<40x40xi1>) outs(%8 : tensor<40x40xf32>) {
    ^bb0(%in: f32, %in_1922: i1, %out: f32):
      %4844 = arith.select %in_1922, %cst_647, %in : f32
      linalg.yield %4844 : f32
    } -> tensor<40x40xf32>
    %extracted_slice_648 = tensor.extract_slice %cst_643[0, 0] [1, 40] [1, 1] : tensor<1x40xi1> to tensor<1x40xi1>
    %10 = tosa.reshape %extracted_slice_648 {new_shape = array<i64: 1, 1, 40>} : (tensor<1x40xi1>) -> tensor<1x1x40xi1>
    %11 = tosa.reshape %10 {new_shape = array<i64: 1, 1, 1, 40>} : (tensor<1x1x40xi1>) -> tensor<1x1x1x40xi1>
    %extracted_slice_649 = tensor.extract_slice %11[0, 0, 0, 0] [1, 1, 1, 40] [1, 1, 1, 1] : tensor<1x1x1x40xi1> to tensor<1x1x1x40xi1>
    %12 = tensor.empty() : tensor<1x1x40x40xi1>
    %extracted_slice_650 = tensor.extract_slice %extracted_slice_649[0, 0, 0, 0] [1, 1, 1, 40] [1, 1, 1, 1] : tensor<1x1x1x40xi1> to tensor<1x1x1x40xi1>
    %inserted_slice = tensor.insert_slice %extracted_slice_650 into %12[0, 0, 0, 0] [1, 1, 1, 40] [1, 1, 1, 1] : tensor<1x1x1x40xi1> into tensor<1x1x40x40xi1>
    %extracted_slice_651 = tensor.extract_slice %extracted_slice_649[0, 0, 0, 0] [1, 1, 1, 40] [1, 1, 1, 1] : tensor<1x1x1x40xi1> to tensor<1x1x1x40xi1>
    %inserted_slice_652 = tensor.insert_slice %extracted_slice_651 into %inserted_slice[0, 0, 1, 0] [1, 1, 1, 40] [1, 1, 1, 1] : tensor<1x1x1x40xi1> into tensor<1x1x40x40xi1>
    %extracted_slice_653 = tensor.extract_slice %extracted_slice_649[0, 0, 0, 0] [1, 1, 1, 40] [1, 1, 1, 1] : tensor<1x1x1x40xi1> to tensor<1x1x1x40xi1>
    %inserted_slice_654 = tensor.insert_slice %extracted_slice_653 into %inserted_slice_652[0, 0, 2, 0] [1, 1, 1, 40] [1, 1, 1, 1] : tensor<1x1x1x40xi1> into tensor<1x1x40x40xi1>
    %extracted_slice_655 = tensor.extract_slice %extracted_slice_649[0, 0, 0, 0] [1, 1, 1, 40] [1, 1, 1, 1] : tensor<1x1x1x40xi1> to tensor<1x1x1x40xi1>
    %inserted_slice_656 = tensor.insert_slice %extracted_slice_655 into %inserted_slice_654[0, 0, 3, 0] [1, 1, 1, 40] [1, 1, 1, 1] : tensor<1x1x1x40xi1> into tensor<1x1x40x40xi1>
    %extracted_slice_657 = tensor.extract_slice %extracted_slice_649[0, 0, 0, 0] [1, 1, 1, 40] [1, 1, 1, 1] : tensor<1x1x1x40xi1> to tensor<1x1x1x40xi1>
    %inserted_slice_658 = tensor.insert_slice %extracted_slice_657 into %inserted_slice_656[0, 0, 4, 0] [1, 1, 1, 40] [1, 1, 1, 1] : tensor<1x1x1x40xi1> into tensor<1x1x40x40xi1>
    %extracted_slice_659 = tensor.extract_slice %extracted_slice_649[0, 0, 0, 0] [1, 1, 1, 40] [1, 1, 1, 1] : tensor<1x1x1x40xi1> to tensor<1x1x1x40xi1>
    %inserted_slice_660 = tensor.insert_slice %extracted_slice_659 into %inserted_slice_658[0, 0, 5, 0] [1, 1, 1, 40] [1, 1, 1, 1] : tensor<1x1x1x40xi1> into tensor<1x1x40x40xi1>
    %extracted_slice_661 = tensor.extract_slice %extracted_slice_649[0, 0, 0, 0] [1, 1, 1, 40] [1, 1, 1, 1] : tensor<1x1x1x40xi1> to tensor<1x1x1x40xi1>
    %inserted_slice_662 = tensor.insert_slice %extracted_slice_661 into %inserted_slice_660[0, 0, 6, 0] [1, 1, 1, 40] [1, 1, 1, 1] : tensor<1x1x1x40xi1> into tensor<1x1x40x40xi1>
    %extracted_slice_663 = tensor.extract_slice %extracted_slice_649[0, 0, 0, 0] [1, 1, 1, 40] [1, 1, 1, 1] : tensor<1x1x1x40xi1> to tensor<1x1x1x40xi1>
    %inserted_slice_664 = tensor.insert_slice %extracted_slice_663 into %inserted_slice_662[0, 0, 7, 0] [1, 1, 1, 40] [1, 1, 1, 1] : tensor<1x1x1x40xi1> into tensor<1x1x40x40xi1>
    %extracted_slice_665 = tensor.extract_slice %extracted_slice_649[0, 0, 0, 0] [1, 1, 1, 40] [1, 1, 1, 1] : tensor<1x1x1x40xi1> to tensor<1x1x1x40xi1>
    %inserted_slice_666 = tensor.insert_slice %extracted_slice_665 into %inserted_slice_664[0, 0, 8, 0] [1, 1, 1, 40] [1, 1, 1, 1] : tensor<1x1x1x40xi1> into tensor<1x1x40x40xi1>
    %extracted_slice_667 = tensor.extract_slice %extracted_slice_649[0, 0, 0, 0] [1, 1, 1, 40] [1, 1, 1, 1] : tensor<1x1x1x40xi1> to tensor<1x1x1x40xi1>
    %inserted_slice_668 = tensor.insert_slice %extracted_slice_667 into %inserted_slice_666[0, 0, 9, 0] [1, 1, 1, 40] [1, 1, 1, 1] : tensor<1x1x1x40xi1> into tensor<1x1x40x40xi1>
    %extracted_slice_669 = tensor.extract_slice %extracted_slice_649[0, 0, 0, 0] [1, 1, 1, 40] [1, 1, 1, 1] : tensor<1x1x1x40xi1> to tensor<1x1x1x40xi1>
    %inserted_slice_670 = tensor.insert_slice %extracted_slice_669 into %inserted_slice_668[0, 0, 10, 0] [1, 1, 1, 40] [1, 1, 1, 1] : tensor<1x1x1x40xi1> into tensor<1x1x40x40xi1>
    %extracted_slice_671 = tensor.extract_slice %extracted_slice_649[0, 0, 0, 0] [1, 1, 1, 40] [1, 1, 1, 1] : tensor<1x1x1x40xi1> to tensor<1x1x1x40xi1>
    %inserted_slice_672 = tensor.insert_slice %extracted_slice_671 into %inserted_slice_670[0, 0, 11, 0] [1, 1, 1, 40] [1, 1, 1, 1] : tensor<1x1x1x40xi1> into tensor<1x1x40x40xi1>
    %extracted_slice_673 = tensor.extract_slice %extracted_slice_649[0, 0, 0, 0] [1, 1, 1, 40] [1, 1, 1, 1] : tensor<1x1x1x40xi1> to tensor<1x1x1x40xi1>
    %inserted_slice_674 = tensor.insert_slice %extracted_slice_673 into %inserted_slice_672[0, 0, 12, 0] [1, 1, 1, 40] [1, 1, 1, 1] : tensor<1x1x1x40xi1> into tensor<1x1x40x40xi1>
    %extracted_slice_675 = tensor.extract_slice %extracted_slice_649[0, 0, 0, 0] [1, 1, 1, 40] [1, 1, 1, 1] : tensor<1x1x1x40xi1> to tensor<1x1x1x40xi1>
    %inserted_slice_676 = tensor.insert_slice %extracted_slice_675 into %inserted_slice_674[0, 0, 13, 0] [1, 1, 1, 40] [1, 1, 1, 1] : tensor<1x1x1x40xi1> into tensor<1x1x40x40xi1>
    %extracted_slice_677 = tensor.extract_slice %extracted_slice_649[0, 0, 0, 0] [1, 1, 1, 40] [1, 1, 1, 1] : tensor<1x1x1x40xi1> to tensor<1x1x1x40xi1>
    %inserted_slice_678 = tensor.insert_slice %extracted_slice_677 into %inserted_slice_676[0, 0, 14, 0] [1, 1, 1, 40] [1, 1, 1, 1] : tensor<1x1x1x40xi1> into tensor<1x1x40x40xi1>
    %extracted_slice_679 = tensor.extract_slice %extracted_slice_649[0, 0, 0, 0] [1, 1, 1, 40] [1, 1, 1, 1] : tensor<1x1x1x40xi1> to tensor<1x1x1x40xi1>
    %inserted_slice_680 = tensor.insert_slice %extracted_slice_679 into %inserted_slice_678[0, 0, 15, 0] [1, 1, 1, 40] [1, 1, 1, 1] : tensor<1x1x1x40xi1> into tensor<1x1x40x40xi1>
    %extracted_slice_681 = tensor.extract_slice %extracted_slice_649[0, 0, 0, 0] [1, 1, 1, 40] [1, 1, 1, 1] : tensor<1x1x1x40xi1> to tensor<1x1x1x40xi1>
    %inserted_slice_682 = tensor.insert_slice %extracted_slice_681 into %inserted_slice_680[0, 0, 16, 0] [1, 1, 1, 40] [1, 1, 1, 1] : tensor<1x1x1x40xi1> into tensor<1x1x40x40xi1>
    %extracted_slice_683 = tensor.extract_slice %extracted_slice_649[0, 0, 0, 0] [1, 1, 1, 40] [1, 1, 1, 1] : tensor<1x1x1x40xi1> to tensor<1x1x1x40xi1>
    %inserted_slice_684 = tensor.insert_slice %extracted_slice_683 into %inserted_slice_682[0, 0, 17, 0] [1, 1, 1, 40] [1, 1, 1, 1] : tensor<1x1x1x40xi1> into tensor<1x1x40x40xi1>
    %extracted_slice_685 = tensor.extract_slice %extracted_slice_649[0, 0, 0, 0] [1, 1, 1, 40] [1, 1, 1, 1] : tensor<1x1x1x40xi1> to tensor<1x1x1x40xi1>
    %inserted_slice_686 = tensor.insert_slice %extracted_slice_685 into %inserted_slice_684[0, 0, 18, 0] [1, 1, 1, 40] [1, 1, 1, 1] : tensor<1x1x1x40xi1> into tensor<1x1x40x40xi1>
    %extracted_slice_687 = tensor.extract_slice %extracted_slice_649[0, 0, 0, 0] [1, 1, 1, 40] [1, 1, 1, 1] : tensor<1x1x1x40xi1> to tensor<1x1x1x40xi1>
    %inserted_slice_688 = tensor.insert_slice %extracted_slice_687 into %inserted_slice_686[0, 0, 19, 0] [1, 1, 1, 40] [1, 1, 1, 1] : tensor<1x1x1x40xi1> into tensor<1x1x40x40xi1>
    %extracted_slice_689 = tensor.extract_slice %extracted_slice_649[0, 0, 0, 0] [1, 1, 1, 40] [1, 1, 1, 1] : tensor<1x1x1x40xi1> to tensor<1x1x1x40xi1>
    %inserted_slice_690 = tensor.insert_slice %extracted_slice_689 into %inserted_slice_688[0, 0, 20, 0] [1, 1, 1, 40] [1, 1, 1, 1] : tensor<1x1x1x40xi1> into tensor<1x1x40x40xi1>
    %extracted_slice_691 = tensor.extract_slice %extracted_slice_649[0, 0, 0, 0] [1, 1, 1, 40] [1, 1, 1, 1] : tensor<1x1x1x40xi1> to tensor<1x1x1x40xi1>
    %inserted_slice_692 = tensor.insert_slice %extracted_slice_691 into %inserted_slice_690[0, 0, 21, 0] [1, 1, 1, 40] [1, 1, 1, 1] : tensor<1x1x1x40xi1> into tensor<1x1x40x40xi1>
    %extracted_slice_693 = tensor.extract_slice %extracted_slice_649[0, 0, 0, 0] [1, 1, 1, 40] [1, 1, 1, 1] : tensor<1x1x1x40xi1> to tensor<1x1x1x40xi1>
    %inserted_slice_694 = tensor.insert_slice %extracted_slice_693 into %inserted_slice_692[0, 0, 22, 0] [1, 1, 1, 40] [1, 1, 1, 1] : tensor<1x1x1x40xi1> into tensor<1x1x40x40xi1>
    %extracted_slice_695 = tensor.extract_slice %extracted_slice_649[0, 0, 0, 0] [1, 1, 1, 40] [1, 1, 1, 1] : tensor<1x1x1x40xi1> to tensor<1x1x1x40xi1>
    %inserted_slice_696 = tensor.insert_slice %extracted_slice_695 into %inserted_slice_694[0, 0, 23, 0] [1, 1, 1, 40] [1, 1, 1, 1] : tensor<1x1x1x40xi1> into tensor<1x1x40x40xi1>
    %extracted_slice_697 = tensor.extract_slice %extracted_slice_649[0, 0, 0, 0] [1, 1, 1, 40] [1, 1, 1, 1] : tensor<1x1x1x40xi1> to tensor<1x1x1x40xi1>
    %inserted_slice_698 = tensor.insert_slice %extracted_slice_697 into %inserted_slice_696[0, 0, 24, 0] [1, 1, 1, 40] [1, 1, 1, 1] : tensor<1x1x1x40xi1> into tensor<1x1x40x40xi1>
    %extracted_slice_699 = tensor.extract_slice %extracted_slice_649[0, 0, 0, 0] [1, 1, 1, 40] [1, 1, 1, 1] : tensor<1x1x1x40xi1> to tensor<1x1x1x40xi1>
    %inserted_slice_700 = tensor.insert_slice %extracted_slice_699 into %inserted_slice_698[0, 0, 25, 0] [1, 1, 1, 40] [1, 1, 1, 1] : tensor<1x1x1x40xi1> into tensor<1x1x40x40xi1>
    %extracted_slice_701 = tensor.extract_slice %extracted_slice_649[0, 0, 0, 0] [1, 1, 1, 40] [1, 1, 1, 1] : tensor<1x1x1x40xi1> to tensor<1x1x1x40xi1>
    %inserted_slice_702 = tensor.insert_slice %extracted_slice_701 into %inserted_slice_700[0, 0, 26, 0] [1, 1, 1, 40] [1, 1, 1, 1] : tensor<1x1x1x40xi1> into tensor<1x1x40x40xi1>
    %extracted_slice_703 = tensor.extract_slice %extracted_slice_649[0, 0, 0, 0] [1, 1, 1, 40] [1, 1, 1, 1] : tensor<1x1x1x40xi1> to tensor<1x1x1x40xi1>
    %inserted_slice_704 = tensor.insert_slice %extracted_slice_703 into %inserted_slice_702[0, 0, 27, 0] [1, 1, 1, 40] [1, 1, 1, 1] : tensor<1x1x1x40xi1> into tensor<1x1x40x40xi1>
    %extracted_slice_705 = tensor.extract_slice %extracted_slice_649[0, 0, 0, 0] [1, 1, 1, 40] [1, 1, 1, 1] : tensor<1x1x1x40xi1> to tensor<1x1x1x40xi1>
    %inserted_slice_706 = tensor.insert_slice %extracted_slice_705 into %inserted_slice_704[0, 0, 28, 0] [1, 1, 1, 40] [1, 1, 1, 1] : tensor<1x1x1x40xi1> into tensor<1x1x40x40xi1>
    %extracted_slice_707 = tensor.extract_slice %extracted_slice_649[0, 0, 0, 0] [1, 1, 1, 40] [1, 1, 1, 1] : tensor<1x1x1x40xi1> to tensor<1x1x1x40xi1>
    %inserted_slice_708 = tensor.insert_slice %extracted_slice_707 into %inserted_slice_706[0, 0, 29, 0] [1, 1, 1, 40] [1, 1, 1, 1] : tensor<1x1x1x40xi1> into tensor<1x1x40x40xi1>
    %extracted_slice_709 = tensor.extract_slice %extracted_slice_649[0, 0, 0, 0] [1, 1, 1, 40] [1, 1, 1, 1] : tensor<1x1x1x40xi1> to tensor<1x1x1x40xi1>
    %inserted_slice_710 = tensor.insert_slice %extracted_slice_709 into %inserted_slice_708[0, 0, 30, 0] [1, 1, 1, 40] [1, 1, 1, 1] : tensor<1x1x1x40xi1> into tensor<1x1x40x40xi1>
    %extracted_slice_711 = tensor.extract_slice %extracted_slice_649[0, 0, 0, 0] [1, 1, 1, 40] [1, 1, 1, 1] : tensor<1x1x1x40xi1> to tensor<1x1x1x40xi1>
    %inserted_slice_712 = tensor.insert_slice %extracted_slice_711 into %inserted_slice_710[0, 0, 31, 0] [1, 1, 1, 40] [1, 1, 1, 1] : tensor<1x1x1x40xi1> into tensor<1x1x40x40xi1>
    %extracted_slice_713 = tensor.extract_slice %extracted_slice_649[0, 0, 0, 0] [1, 1, 1, 40] [1, 1, 1, 1] : tensor<1x1x1x40xi1> to tensor<1x1x1x40xi1>
    %inserted_slice_714 = tensor.insert_slice %extracted_slice_713 into %inserted_slice_712[0, 0, 32, 0] [1, 1, 1, 40] [1, 1, 1, 1] : tensor<1x1x1x40xi1> into tensor<1x1x40x40xi1>
    %extracted_slice_715 = tensor.extract_slice %extracted_slice_649[0, 0, 0, 0] [1, 1, 1, 40] [1, 1, 1, 1] : tensor<1x1x1x40xi1> to tensor<1x1x1x40xi1>
    %inserted_slice_716 = tensor.insert_slice %extracted_slice_715 into %inserted_slice_714[0, 0, 33, 0] [1, 1, 1, 40] [1, 1, 1, 1] : tensor<1x1x1x40xi1> into tensor<1x1x40x40xi1>
    %extracted_slice_717 = tensor.extract_slice %extracted_slice_649[0, 0, 0, 0] [1, 1, 1, 40] [1, 1, 1, 1] : tensor<1x1x1x40xi1> to tensor<1x1x1x40xi1>
    %inserted_slice_718 = tensor.insert_slice %extracted_slice_717 into %inserted_slice_716[0, 0, 34, 0] [1, 1, 1, 40] [1, 1, 1, 1] : tensor<1x1x1x40xi1> into tensor<1x1x40x40xi1>
    %extracted_slice_719 = tensor.extract_slice %extracted_slice_649[0, 0, 0, 0] [1, 1, 1, 40] [1, 1, 1, 1] : tensor<1x1x1x40xi1> to tensor<1x1x1x40xi1>
    %inserted_slice_720 = tensor.insert_slice %extracted_slice_719 into %inserted_slice_718[0, 0, 35, 0] [1, 1, 1, 40] [1, 1, 1, 1] : tensor<1x1x1x40xi1> into tensor<1x1x40x40xi1>
    %extracted_slice_721 = tensor.extract_slice %extracted_slice_649[0, 0, 0, 0] [1, 1, 1, 40] [1, 1, 1, 1] : tensor<1x1x1x40xi1> to tensor<1x1x1x40xi1>
    %inserted_slice_722 = tensor.insert_slice %extracted_slice_721 into %inserted_slice_720[0, 0, 36, 0] [1, 1, 1, 40] [1, 1, 1, 1] : tensor<1x1x1x40xi1> into tensor<1x1x40x40xi1>
    %extracted_slice_723 = tensor.extract_slice %extracted_slice_649[0, 0, 0, 0] [1, 1, 1, 40] [1, 1, 1, 1] : tensor<1x1x1x40xi1> to tensor<1x1x1x40xi1>
    %inserted_slice_724 = tensor.insert_slice %extracted_slice_723 into %inserted_slice_722[0, 0, 37, 0] [1, 1, 1, 40] [1, 1, 1, 1] : tensor<1x1x1x40xi1> into tensor<1x1x40x40xi1>
    %extracted_slice_725 = tensor.extract_slice %extracted_slice_649[0, 0, 0, 0] [1, 1, 1, 40] [1, 1, 1, 1] : tensor<1x1x1x40xi1> to tensor<1x1x1x40xi1>
    %inserted_slice_726 = tensor.insert_slice %extracted_slice_725 into %inserted_slice_724[0, 0, 38, 0] [1, 1, 1, 40] [1, 1, 1, 1] : tensor<1x1x1x40xi1> into tensor<1x1x40x40xi1>
    %extracted_slice_727 = tensor.extract_slice %extracted_slice_649[0, 0, 0, 0] [1, 1, 1, 40] [1, 1, 1, 1] : tensor<1x1x1x40xi1> to tensor<1x1x1x40xi1>
    %inserted_slice_728 = tensor.insert_slice %extracted_slice_727 into %inserted_slice_726[0, 0, 39, 0] [1, 1, 1, 40] [1, 1, 1, 1] : tensor<1x1x1x40xi1> into tensor<1x1x40x40xi1>
    %13 = tensor.empty() : tensor<1x1x40x40xf32>
    %14 = linalg.generic {indexing_maps = [#map5, #map5], iterator_types = ["parallel", "parallel", "parallel", "parallel"]} ins(%inserted_slice_728 : tensor<1x1x40x40xi1>) outs(%13 : tensor<1x1x40x40xf32>) {
    ^bb0(%in: i1, %out: f32):
      %4844 = arith.extui %in : i1 to i32
      %4845 = arith.sitofp %4844 : i32 to f32
      linalg.yield %4845 : f32
    } -> tensor<1x1x40x40xf32>
    %cst_729 = arith.constant 1.000000e+00 : f32
    %15 = tensor.empty() : tensor<1x1x40x40xf32>
    %16 = linalg.generic {indexing_maps = [#map5, #map5], iterator_types = ["parallel", "parallel", "parallel", "parallel"]} ins(%14 : tensor<1x1x40x40xf32>) outs(%15 : tensor<1x1x40x40xf32>) {
    ^bb0(%in: f32, %out: f32):
      %4844 = arith.subf %cst_729, %in : f32
      linalg.yield %4844 : f32
    } -> tensor<1x1x40x40xf32>
    %17 = tensor.empty() : tensor<1x1x40x40xi1>
    %18 = linalg.generic {indexing_maps = [#map5, #map5], iterator_types = ["parallel", "parallel", "parallel", "parallel"]} ins(%16 : tensor<1x1x40x40xf32>) outs(%17 : tensor<1x1x40x40xi1>) {
    ^bb0(%in: f32, %out: i1):
      %4844 = arith.fptosi %in : f32 to i32
      %4845 = arith.trunci %4844 : i32 to i1
      linalg.yield %4845 : i1
    } -> tensor<1x1x40x40xi1>
    %cst_730 = arith.constant -3.40282347E+38 : f32
    %19 = tensor.empty() : tensor<1x1x40x40xf32>
    %20 = linalg.generic {indexing_maps = [#map5, #map5, #map5], iterator_types = ["parallel", "parallel", "parallel", "parallel"]} ins(%16, %18 : tensor<1x1x40x40xf32>, tensor<1x1x40x40xi1>) outs(%19 : tensor<1x1x40x40xf32>) {
    ^bb0(%in: f32, %in_1922: i1, %out: f32):
      %4844 = arith.select %in_1922, %cst_730, %in : f32
      linalg.yield %4844 : f32
    } -> tensor<1x1x40x40xf32>
    %21 = tosa.reshape %9 {new_shape = array<i64: 1, 40, 40>} : (tensor<40x40xf32>) -> tensor<1x40x40xf32>
    %22 = tosa.reshape %21 {new_shape = array<i64: 1, 1, 40, 40>} : (tensor<1x40x40xf32>) -> tensor<1x1x40x40xf32>
    %extracted_slice_731 = tensor.extract_slice %22[0, 0, 0, 0] [1, 1, 40, 40] [1, 1, 1, 1] : tensor<1x1x40x40xf32> to tensor<1x1x40x40xf32>
    %extracted_slice_732 = tensor.extract_slice %extracted_slice_731[0, 0, 0, 0] [1, 1, 40, 40] [1, 1, 1, 1] : tensor<1x1x40x40xf32> to tensor<1x1x40x40xf32>
    %23 = tensor.empty() : tensor<1x1x40x40xf32>
    %extracted_slice_733 = tensor.extract_slice %extracted_slice_732[0, 0, 0, 0] [1, 1, 40, 40] [1, 1, 1, 1] : tensor<1x1x40x40xf32> to tensor<1x1x40x40xf32>
    %inserted_slice_734 = tensor.insert_slice %extracted_slice_733 into %23[0, 0, 0, 0] [1, 1, 40, 40] [1, 1, 1, 1] : tensor<1x1x40x40xf32> into tensor<1x1x40x40xf32>
    %24 = tosa.add %20, %inserted_slice_734 : (tensor<1x1x40x40xf32>, tensor<1x1x40x40xf32>) -> tensor<1x1x40x40xf32>
    %25 = tensor.empty() : tensor<1x40x4096xf32>
    %c2_i32 = arith.constant 2 : i32
    %26 = linalg.generic {indexing_maps = [#map1, #map1], iterator_types = ["parallel", "parallel", "parallel"]} ins(%3 : tensor<1x40x4096xf32>) outs(%25 : tensor<1x40x4096xf32>) {
    ^bb0(%in: f32, %out: f32):
      %4844 = math.fpowi %in, %c2_i32 : f32, i32
      linalg.yield %4844 : f32
    } -> tensor<1x40x4096xf32>
    %cst_735 = arith.constant dense<0.000000e+00> : tensor<1x40x1xf32>
    %27 = linalg.generic {indexing_maps = [#map6, #map7], iterator_types = ["parallel", "parallel", "reduction", "parallel"]} ins(%26 : tensor<1x40x4096xf32>) outs(%cst_735 : tensor<1x40x1xf32>) {
    ^bb0(%in: f32, %out: f32):
      %cst_1922 = arith.constant 4.096000e+03 : f32
      %4844 = arith.divf %in, %cst_1922 : f32
      %4845 = arith.addf %4844, %out : f32
      linalg.yield %4845 : f32
    } -> tensor<1x40x1xf32>
    %cst_736 = arith.constant dense<9.99999997E-7> : tensor<f32>
    %28 = tosa.add %27, %cst_736 : (tensor<1x40x1xf32>, tensor<f32>) -> tensor<1x40x1xf32>
    %29 = tensor.empty() : tensor<1x40x1xf32>
    %30 = linalg.generic {indexing_maps = [#map1, #map1], iterator_types = ["parallel", "parallel", "parallel"]} ins(%28 : tensor<1x40x1xf32>) outs(%29 : tensor<1x40x1xf32>) {
    ^bb0(%in: f32, %out: f32):
      %4844 = math.rsqrt %in : f32
      linalg.yield %4844 : f32
    } -> tensor<1x40x1xf32>
    %31 = tensor.empty() : tensor<1x40x4096xf32>
    %32 = tensor.empty() : tensor<1x40x4096xf32>
    %33 = linalg.generic {indexing_maps = [#map7, #map6], iterator_types = ["parallel", "parallel", "parallel", "reduction"]} ins(%30 : tensor<1x40x1xf32>) outs(%32 : tensor<1x40x4096xf32>) {
    ^bb0(%in: f32, %out: f32):
      linalg.yield %in : f32
    } -> tensor<1x40x4096xf32>
    %34 = linalg.generic {indexing_maps = [#map1, #map1, #map1], iterator_types = ["parallel", "parallel", "parallel"]} ins(%3, %33 : tensor<1x40x4096xf32>, tensor<1x40x4096xf32>) outs(%31 : tensor<1x40x4096xf32>) {
    ^bb0(%in: f32, %in_1922: f32, %out: f32):
      %4844 = arith.mulf %in, %in_1922 : f32
      linalg.yield %4844 : f32
    } -> tensor<1x40x4096xf32>
    %35 = tensor.empty() : tensor<1x40x4096xf32>
    %36 = tensor.empty() : tensor<1x40x4096xf32>
    %37 = linalg.generic {indexing_maps = [#map8, #map1], iterator_types = ["parallel", "parallel", "parallel"]} ins(%extracted_slice : tensor<4096xf32>) outs(%36 : tensor<1x40x4096xf32>) {
    ^bb0(%in: f32, %out: f32):
      linalg.yield %in : f32
    } -> tensor<1x40x4096xf32>
    %38 = linalg.generic {indexing_maps = [#map1, #map1, #map1], iterator_types = ["parallel", "parallel", "parallel"]} ins(%37, %34 : tensor<1x40x4096xf32>, tensor<1x40x4096xf32>) outs(%35 : tensor<1x40x4096xf32>) {
    ^bb0(%in: f32, %in_1922: f32, %out: f32):
      %4844 = arith.mulf %in, %in_1922 : f32
      linalg.yield %4844 : f32
    } -> tensor<1x40x4096xf32>
    %39 = tensor.empty() : tensor<4096x4096xf32>
    %40 = linalg.generic {indexing_maps = [#map4, #map9], iterator_types = ["parallel", "parallel"]} ins(%expanded_66 : tensor<4096x4096xf32>) outs(%39 : tensor<4096x4096xf32>) {
    ^bb0(%in: f32, %out: f32):
      linalg.yield %in : f32
    } -> tensor<4096x4096xf32>
    %41 = tosa.reshape %38 {new_shape = array<i64: 40, 4096>} : (tensor<1x40x4096xf32>) -> tensor<40x4096xf32>
    %cst_737 = arith.constant dense<0.000000e+00> : tensor<40x4096xf32>
    %42 = linalg.matmul {cast = #linalg.type_fn<cast_signed>} ins(%41, %40 : tensor<40x4096xf32>, tensor<4096x4096xf32>) outs(%cst_737 : tensor<40x4096xf32>) -> tensor<40x4096xf32>
    %43 = tosa.reshape %42 {new_shape = array<i64: 1, 40, 4096>} : (tensor<40x4096xf32>) -> tensor<1x40x4096xf32>
    %44 = tensor.empty() : tensor<4096x4096xf32>
    %45 = linalg.generic {indexing_maps = [#map4, #map9], iterator_types = ["parallel", "parallel"]} ins(%expanded_68 : tensor<4096x4096xf32>) outs(%44 : tensor<4096x4096xf32>) {
    ^bb0(%in: f32, %out: f32):
      linalg.yield %in : f32
    } -> tensor<4096x4096xf32>
    %46 = tosa.reshape %38 {new_shape = array<i64: 40, 4096>} : (tensor<1x40x4096xf32>) -> tensor<40x4096xf32>
    %cst_738 = arith.constant dense<0.000000e+00> : tensor<40x4096xf32>
    %47 = linalg.matmul {cast = #linalg.type_fn<cast_signed>} ins(%46, %45 : tensor<40x4096xf32>, tensor<4096x4096xf32>) outs(%cst_738 : tensor<40x4096xf32>) -> tensor<40x4096xf32>
    %48 = tosa.reshape %47 {new_shape = array<i64: 1, 40, 4096>} : (tensor<40x4096xf32>) -> tensor<1x40x4096xf32>
    %49 = tensor.empty() : tensor<4096x4096xf32>
    %50 = linalg.generic {indexing_maps = [#map4, #map9], iterator_types = ["parallel", "parallel"]} ins(%expanded_70 : tensor<4096x4096xf32>) outs(%49 : tensor<4096x4096xf32>) {
    ^bb0(%in: f32, %out: f32):
      linalg.yield %in : f32
    } -> tensor<4096x4096xf32>
    %51 = tosa.reshape %38 {new_shape = array<i64: 40, 4096>} : (tensor<1x40x4096xf32>) -> tensor<40x4096xf32>
    %cst_739 = arith.constant dense<0.000000e+00> : tensor<40x4096xf32>
    %52 = linalg.matmul {cast = #linalg.type_fn<cast_signed>} ins(%51, %50 : tensor<40x4096xf32>, tensor<4096x4096xf32>) outs(%cst_739 : tensor<40x4096xf32>) -> tensor<40x4096xf32>
    %53 = tosa.reshape %52 {new_shape = array<i64: 1, 40, 4096>} : (tensor<40x4096xf32>) -> tensor<1x40x4096xf32>
    %54 = tosa.reshape %43 {new_shape = array<i64: 1, 40, 32, 128>} : (tensor<1x40x4096xf32>) -> tensor<1x40x32x128xf32>
    %55 = tensor.empty() : tensor<1x32x40x128xf32>
    %56 = linalg.generic {indexing_maps = [#map10, #map5], iterator_types = ["parallel", "parallel", "parallel", "parallel"]} ins(%54 : tensor<1x40x32x128xf32>) outs(%55 : tensor<1x32x40x128xf32>) {
    ^bb0(%in: f32, %out: f32):
      linalg.yield %in : f32
    } -> tensor<1x32x40x128xf32>
    %57 = tosa.reshape %48 {new_shape = array<i64: 1, 40, 32, 128>} : (tensor<1x40x4096xf32>) -> tensor<1x40x32x128xf32>
    %58 = tensor.empty() : tensor<1x32x40x128xf32>
    %59 = linalg.generic {indexing_maps = [#map10, #map5], iterator_types = ["parallel", "parallel", "parallel", "parallel"]} ins(%57 : tensor<1x40x32x128xf32>) outs(%58 : tensor<1x32x40x128xf32>) {
    ^bb0(%in: f32, %out: f32):
      linalg.yield %in : f32
    } -> tensor<1x32x40x128xf32>
    %60 = tosa.reshape %53 {new_shape = array<i64: 1, 40, 32, 128>} : (tensor<1x40x4096xf32>) -> tensor<1x40x32x128xf32>
    %61 = tensor.empty() : tensor<1x32x40x128xf32>
    %62 = linalg.generic {indexing_maps = [#map10, #map5], iterator_types = ["parallel", "parallel", "parallel", "parallel"]} ins(%60 : tensor<1x40x32x128xf32>) outs(%61 : tensor<1x32x40x128xf32>) {
    ^bb0(%in: f32, %out: f32):
      linalg.yield %in : f32
    } -> tensor<1x32x40x128xf32>
    %extracted_slice_740 = tensor.extract_slice %expanded_516[0, 0, 0, 0] [1, 1, 2048, 128] [1, 1, 1, 1] : tensor<1x1x2048x128xf32> to tensor<1x1x2048x128xf32>
    %extracted_slice_741 = tensor.extract_slice %extracted_slice_740[0, 0, 0, 0] [1, 1, 2048, 128] [1, 1, 1, 1] : tensor<1x1x2048x128xf32> to tensor<1x1x2048x128xf32>
    %extracted_slice_742 = tensor.extract_slice %extracted_slice_741[0, 0, 0, 0] [1, 1, 40, 128] [1, 1, 1, 1] : tensor<1x1x2048x128xf32> to tensor<1x1x40x128xf32>
    %extracted_slice_743 = tensor.extract_slice %expanded_518[0, 0, 0, 0] [1, 1, 2048, 128] [1, 1, 1, 1] : tensor<1x1x2048x128xf32> to tensor<1x1x2048x128xf32>
    %extracted_slice_744 = tensor.extract_slice %extracted_slice_743[0, 0, 0, 0] [1, 1, 2048, 128] [1, 1, 1, 1] : tensor<1x1x2048x128xf32> to tensor<1x1x2048x128xf32>
    %extracted_slice_745 = tensor.extract_slice %extracted_slice_744[0, 0, 0, 0] [1, 1, 40, 128] [1, 1, 1, 1] : tensor<1x1x2048x128xf32> to tensor<1x1x40x128xf32>
    %63 = tensor.empty() : tensor<1x40x128xf32>
    %64 = linalg.generic {indexing_maps = [#map11, #map1], iterator_types = ["parallel", "parallel", "parallel"]} ins(%extracted_slice_742 : tensor<1x1x40x128xf32>) outs(%63 : tensor<1x40x128xf32>) {
    ^bb0(%in: f32, %out: f32):
      linalg.yield %in : f32
    } -> tensor<1x40x128xf32>
    %65 = tensor.empty() : tensor<40x128xf32>
    %66 = linalg.generic {indexing_maps = [#map12, #map4], iterator_types = ["parallel", "parallel"]} ins(%64 : tensor<1x40x128xf32>) outs(%65 : tensor<40x128xf32>) {
    ^bb0(%in: f32, %out: f32):
      linalg.yield %in : f32
    } -> tensor<40x128xf32>
    %67 = tensor.empty() : tensor<1x40x128xf32>
    %68 = linalg.generic {indexing_maps = [#map11, #map1], iterator_types = ["parallel", "parallel", "parallel"]} ins(%extracted_slice_745 : tensor<1x1x40x128xf32>) outs(%67 : tensor<1x40x128xf32>) {
    ^bb0(%in: f32, %out: f32):
      linalg.yield %in : f32
    } -> tensor<1x40x128xf32>
    %69 = tensor.empty() : tensor<40x128xf32>
    %70 = linalg.generic {indexing_maps = [#map12, #map4], iterator_types = ["parallel", "parallel"]} ins(%68 : tensor<1x40x128xf32>) outs(%69 : tensor<40x128xf32>) {
    ^bb0(%in: f32, %out: f32):
      linalg.yield %in : f32
    } -> tensor<40x128xf32>
    %71 = tensor.empty() : tensor<1x40x128xf32>
    %72 = linalg.generic {indexing_maps = [#map, #map1], iterator_types = ["parallel", "parallel", "parallel"]} ins(%1 : tensor<1x40xi64>) outs(%71 : tensor<1x40x128xf32>) {
    ^bb0(%in: i64, %out: f32):
      %4844 = arith.index_cast %in : i64 to index
      %4845 = linalg.index 2 : index
      %extracted = tensor.extract %66[%4844, %4845] : tensor<40x128xf32>
      linalg.yield %extracted : f32
    } -> tensor<1x40x128xf32>
    %73 = tosa.reshape %72 {new_shape = array<i64: 1, 1, 40, 128>} : (tensor<1x40x128xf32>) -> tensor<1x1x40x128xf32>
    %74 = tensor.empty() : tensor<1x40x128xf32>
    %75 = linalg.generic {indexing_maps = [#map, #map1], iterator_types = ["parallel", "parallel", "parallel"]} ins(%1 : tensor<1x40xi64>) outs(%74 : tensor<1x40x128xf32>) {
    ^bb0(%in: i64, %out: f32):
      %4844 = arith.index_cast %in : i64 to index
      %4845 = linalg.index 2 : index
      %extracted = tensor.extract %70[%4844, %4845] : tensor<40x128xf32>
      linalg.yield %extracted : f32
    } -> tensor<1x40x128xf32>
    %76 = tosa.reshape %75 {new_shape = array<i64: 1, 1, 40, 128>} : (tensor<1x40x128xf32>) -> tensor<1x1x40x128xf32>
    %77 = tensor.empty() : tensor<1x32x40x128xf32>
    %78 = tensor.empty() : tensor<1x32x40x128xf32>
    %79 = linalg.generic {indexing_maps = [#map13, #map14], iterator_types = ["parallel", "parallel", "parallel", "parallel", "reduction"]} ins(%73 : tensor<1x1x40x128xf32>) outs(%78 : tensor<1x32x40x128xf32>) {
    ^bb0(%in: f32, %out: f32):
      linalg.yield %in : f32
    } -> tensor<1x32x40x128xf32>
    %80 = linalg.generic {indexing_maps = [#map5, #map5, #map5], iterator_types = ["parallel", "parallel", "parallel", "parallel"]} ins(%56, %79 : tensor<1x32x40x128xf32>, tensor<1x32x40x128xf32>) outs(%77 : tensor<1x32x40x128xf32>) {
    ^bb0(%in: f32, %in_1922: f32, %out: f32):
      %4844 = arith.mulf %in, %in_1922 : f32
      linalg.yield %4844 : f32
    } -> tensor<1x32x40x128xf32>
    %extracted_slice_746 = tensor.extract_slice %56[0, 0, 0, 0] [1, 32, 40, 64] [1, 1, 1, 1] : tensor<1x32x40x128xf32> to tensor<1x32x40x64xf32>
    %extracted_slice_747 = tensor.extract_slice %56[0, 0, 0, 64] [1, 32, 40, 64] [1, 1, 1, 1] : tensor<1x32x40x128xf32> to tensor<1x32x40x64xf32>
    %81 = tensor.empty() : tensor<1x32x40x64xf32>
    %82 = linalg.generic {indexing_maps = [#map5, #map5], iterator_types = ["parallel", "parallel", "parallel", "parallel"]} ins(%extracted_slice_747 : tensor<1x32x40x64xf32>) outs(%81 : tensor<1x32x40x64xf32>) {
    ^bb0(%in: f32, %out: f32):
      %4844 = arith.negf %in : f32
      linalg.yield %4844 : f32
    } -> tensor<1x32x40x64xf32>
    %83 = tensor.empty() : tensor<1x32x40x128xf32>
    %inserted_slice_748 = tensor.insert_slice %82 into %83[0, 0, 0, 0] [1, 32, 40, 64] [1, 1, 1, 1] : tensor<1x32x40x64xf32> into tensor<1x32x40x128xf32>
    %inserted_slice_749 = tensor.insert_slice %extracted_slice_746 into %inserted_slice_748[0, 0, 0, 64] [1, 32, 40, 64] [1, 1, 1, 1] : tensor<1x32x40x64xf32> into tensor<1x32x40x128xf32>
    %84 = tensor.empty() : tensor<1x32x40x128xf32>
    %85 = tensor.empty() : tensor<1x32x40x128xf32>
    %86 = linalg.generic {indexing_maps = [#map13, #map14], iterator_types = ["parallel", "parallel", "parallel", "parallel", "reduction"]} ins(%76 : tensor<1x1x40x128xf32>) outs(%85 : tensor<1x32x40x128xf32>) {
    ^bb0(%in: f32, %out: f32):
      linalg.yield %in : f32
    } -> tensor<1x32x40x128xf32>
    %87 = linalg.generic {indexing_maps = [#map5, #map5, #map5], iterator_types = ["parallel", "parallel", "parallel", "parallel"]} ins(%inserted_slice_749, %86 : tensor<1x32x40x128xf32>, tensor<1x32x40x128xf32>) outs(%84 : tensor<1x32x40x128xf32>) {
    ^bb0(%in: f32, %in_1922: f32, %out: f32):
      %4844 = arith.mulf %in, %in_1922 : f32
      linalg.yield %4844 : f32
    } -> tensor<1x32x40x128xf32>
    %88 = tosa.add %80, %87 : (tensor<1x32x40x128xf32>, tensor<1x32x40x128xf32>) -> tensor<1x32x40x128xf32>
    %89 = tensor.empty() : tensor<1x32x40x128xf32>
    %90 = tensor.empty() : tensor<1x32x40x128xf32>
    %91 = linalg.generic {indexing_maps = [#map13, #map14], iterator_types = ["parallel", "parallel", "parallel", "parallel", "reduction"]} ins(%73 : tensor<1x1x40x128xf32>) outs(%90 : tensor<1x32x40x128xf32>) {
    ^bb0(%in: f32, %out: f32):
      linalg.yield %in : f32
    } -> tensor<1x32x40x128xf32>
    %92 = linalg.generic {indexing_maps = [#map5, #map5, #map5], iterator_types = ["parallel", "parallel", "parallel", "parallel"]} ins(%59, %91 : tensor<1x32x40x128xf32>, tensor<1x32x40x128xf32>) outs(%89 : tensor<1x32x40x128xf32>) {
    ^bb0(%in: f32, %in_1922: f32, %out: f32):
      %4844 = arith.mulf %in, %in_1922 : f32
      linalg.yield %4844 : f32
    } -> tensor<1x32x40x128xf32>
    %extracted_slice_750 = tensor.extract_slice %59[0, 0, 0, 0] [1, 32, 40, 64] [1, 1, 1, 1] : tensor<1x32x40x128xf32> to tensor<1x32x40x64xf32>
    %extracted_slice_751 = tensor.extract_slice %59[0, 0, 0, 64] [1, 32, 40, 64] [1, 1, 1, 1] : tensor<1x32x40x128xf32> to tensor<1x32x40x64xf32>
    %93 = tensor.empty() : tensor<1x32x40x64xf32>
    %94 = linalg.generic {indexing_maps = [#map5, #map5], iterator_types = ["parallel", "parallel", "parallel", "parallel"]} ins(%extracted_slice_751 : tensor<1x32x40x64xf32>) outs(%93 : tensor<1x32x40x64xf32>) {
    ^bb0(%in: f32, %out: f32):
      %4844 = arith.negf %in : f32
      linalg.yield %4844 : f32
    } -> tensor<1x32x40x64xf32>
    %95 = tensor.empty() : tensor<1x32x40x128xf32>
    %inserted_slice_752 = tensor.insert_slice %94 into %95[0, 0, 0, 0] [1, 32, 40, 64] [1, 1, 1, 1] : tensor<1x32x40x64xf32> into tensor<1x32x40x128xf32>
    %inserted_slice_753 = tensor.insert_slice %extracted_slice_750 into %inserted_slice_752[0, 0, 0, 64] [1, 32, 40, 64] [1, 1, 1, 1] : tensor<1x32x40x64xf32> into tensor<1x32x40x128xf32>
    %96 = tensor.empty() : tensor<1x32x40x128xf32>
    %97 = tensor.empty() : tensor<1x32x40x128xf32>
    %98 = linalg.generic {indexing_maps = [#map13, #map14], iterator_types = ["parallel", "parallel", "parallel", "parallel", "reduction"]} ins(%76 : tensor<1x1x40x128xf32>) outs(%97 : tensor<1x32x40x128xf32>) {
    ^bb0(%in: f32, %out: f32):
      linalg.yield %in : f32
    } -> tensor<1x32x40x128xf32>
    %99 = linalg.generic {indexing_maps = [#map5, #map5, #map5], iterator_types = ["parallel", "parallel", "parallel", "parallel"]} ins(%inserted_slice_753, %98 : tensor<1x32x40x128xf32>, tensor<1x32x40x128xf32>) outs(%96 : tensor<1x32x40x128xf32>) {
    ^bb0(%in: f32, %in_1922: f32, %out: f32):
      %4844 = arith.mulf %in, %in_1922 : f32
      linalg.yield %4844 : f32
    } -> tensor<1x32x40x128xf32>
    %100 = tosa.add %92, %99 : (tensor<1x32x40x128xf32>, tensor<1x32x40x128xf32>) -> tensor<1x32x40x128xf32>
    %101 = tensor.empty() : tensor<1x32x128x40xf32>
    %102 = linalg.generic {indexing_maps = [#map15, #map5], iterator_types = ["parallel", "parallel", "parallel", "parallel"]} ins(%100 : tensor<1x32x40x128xf32>) outs(%101 : tensor<1x32x128x40xf32>) {
    ^bb0(%in: f32, %out: f32):
      linalg.yield %in : f32
    } -> tensor<1x32x128x40xf32>
    %103 = tensor.empty() : tensor<1x32x40x128xf32>
    %extracted_slice_754 = tensor.extract_slice %88[0, 0, 0, 0] [1, 32, 40, 128] [1, 1, 1, 1] : tensor<1x32x40x128xf32> to tensor<1x32x40x128xf32>
    %inserted_slice_755 = tensor.insert_slice %extracted_slice_754 into %103[0, 0, 0, 0] [1, 32, 40, 128] [1, 1, 1, 1] : tensor<1x32x40x128xf32> into tensor<1x32x40x128xf32>
    %104 = tosa.reshape %inserted_slice_755 {new_shape = array<i64: 32, 40, 128>} : (tensor<1x32x40x128xf32>) -> tensor<32x40x128xf32>
    %105 = tensor.empty() : tensor<1x32x128x40xf32>
    %extracted_slice_756 = tensor.extract_slice %102[0, 0, 0, 0] [1, 32, 128, 40] [1, 1, 1, 1] : tensor<1x32x128x40xf32> to tensor<1x32x128x40xf32>
    %inserted_slice_757 = tensor.insert_slice %extracted_slice_756 into %105[0, 0, 0, 0] [1, 32, 128, 40] [1, 1, 1, 1] : tensor<1x32x128x40xf32> into tensor<1x32x128x40xf32>
    %106 = tosa.reshape %inserted_slice_757 {new_shape = array<i64: 32, 128, 40>} : (tensor<1x32x128x40xf32>) -> tensor<32x128x40xf32>
    %107 = tensor.empty() : tensor<32x40x40xf32>
    %108 = linalg.generic {indexing_maps = [#map1], iterator_types = ["parallel", "parallel", "parallel"]} outs(%107 : tensor<32x40x40xf32>) {
    ^bb0(%out: f32):
      %cst_1922 = arith.constant 0.000000e+00 : f32
      linalg.yield %cst_1922 : f32
    } -> tensor<32x40x40xf32>
    %109 = linalg.batch_matmul ins(%104, %106 : tensor<32x40x128xf32>, tensor<32x128x40xf32>) outs(%108 : tensor<32x40x40xf32>) -> tensor<32x40x40xf32>
    %110 = tosa.reshape %109 {new_shape = array<i64: 1, 32, 40, 40>} : (tensor<32x40x40xf32>) -> tensor<1x32x40x40xf32>
    %cst_758 = arith.constant 11.3137083 : f32
    %111 = tensor.empty() : tensor<1x32x40x40xf32>
    %112 = linalg.generic {indexing_maps = [#map5, #map5], iterator_types = ["parallel", "parallel", "parallel", "parallel"]} ins(%110 : tensor<1x32x40x40xf32>) outs(%111 : tensor<1x32x40x40xf32>) {
    ^bb0(%in: f32, %out: f32):
      %4844 = arith.divf %in, %cst_758 : f32
      linalg.yield %4844 : f32
    } -> tensor<1x32x40x40xf32>
    %113 = tosa.add %112, %24 : (tensor<1x32x40x40xf32>, tensor<1x1x40x40xf32>) -> tensor<1x32x40x40xf32>
    %114 = tensor.empty() : tensor<1x32x40x1xf32>
    %115 = linalg.generic {indexing_maps = [#map5], iterator_types = ["parallel", "parallel", "parallel", "parallel"]} outs(%114 : tensor<1x32x40x1xf32>) {
    ^bb0(%out: f32):
      %cst_1922 = arith.constant 0xFF800000 : f32
      linalg.yield %cst_1922 : f32
    } -> tensor<1x32x40x1xf32>
    %116 = linalg.generic {indexing_maps = [#map5, #map16], iterator_types = ["parallel", "parallel", "parallel", "reduction"]} ins(%113 : tensor<1x32x40x40xf32>) outs(%115 : tensor<1x32x40x1xf32>) {
    ^bb0(%in: f32, %out: f32):
      %4844 = arith.maximumf %in, %out : f32
      linalg.yield %4844 : f32
    } -> tensor<1x32x40x1xf32>
    %117 = tensor.empty() : tensor<1x32x40x40xf32>
    %118 = linalg.generic {indexing_maps = [#map5, #map16, #map5], iterator_types = ["parallel", "parallel", "parallel", "parallel"]} ins(%113, %116 : tensor<1x32x40x40xf32>, tensor<1x32x40x1xf32>) outs(%117 : tensor<1x32x40x40xf32>) {
    ^bb0(%in: f32, %in_1922: f32, %out: f32):
      %4844 = arith.subf %in, %in_1922 : f32
      %4845 = math.exp %4844 : f32
      linalg.yield %4845 : f32
    } -> tensor<1x32x40x40xf32>
    %119 = tensor.empty() : tensor<1x32x40x1xf32>
    %120 = linalg.generic {indexing_maps = [#map5], iterator_types = ["parallel", "parallel", "parallel", "parallel"]} outs(%119 : tensor<1x32x40x1xf32>) {
    ^bb0(%out: f32):
      %cst_1922 = arith.constant 0.000000e+00 : f32
      linalg.yield %cst_1922 : f32
    } -> tensor<1x32x40x1xf32>
    %121 = linalg.generic {indexing_maps = [#map5, #map16], iterator_types = ["parallel", "parallel", "parallel", "reduction"]} ins(%118 : tensor<1x32x40x40xf32>) outs(%120 : tensor<1x32x40x1xf32>) {
    ^bb0(%in: f32, %out: f32):
      %4844 = arith.addf %in, %out : f32
      linalg.yield %4844 : f32
    } -> tensor<1x32x40x1xf32>
    %122 = tensor.empty() : tensor<1x32x40x40xf32>
    %123 = linalg.generic {indexing_maps = [#map5, #map16, #map5], iterator_types = ["parallel", "parallel", "parallel", "parallel"]} ins(%118, %121 : tensor<1x32x40x40xf32>, tensor<1x32x40x1xf32>) outs(%122 : tensor<1x32x40x40xf32>) {
    ^bb0(%in: f32, %in_1922: f32, %out: f32):
      %4844 = arith.divf %in, %in_1922 : f32
      linalg.yield %4844 : f32
    } -> tensor<1x32x40x40xf32>
    %124 = tensor.empty() : tensor<1x32x40x40xf32>
    %extracted_slice_759 = tensor.extract_slice %123[0, 0, 0, 0] [1, 32, 40, 40] [1, 1, 1, 1] : tensor<1x32x40x40xf32> to tensor<1x32x40x40xf32>
    %inserted_slice_760 = tensor.insert_slice %extracted_slice_759 into %124[0, 0, 0, 0] [1, 32, 40, 40] [1, 1, 1, 1] : tensor<1x32x40x40xf32> into tensor<1x32x40x40xf32>
    %125 = tosa.reshape %inserted_slice_760 {new_shape = array<i64: 32, 40, 40>} : (tensor<1x32x40x40xf32>) -> tensor<32x40x40xf32>
    %126 = tensor.empty() : tensor<1x32x40x128xf32>
    %extracted_slice_761 = tensor.extract_slice %62[0, 0, 0, 0] [1, 32, 40, 128] [1, 1, 1, 1] : tensor<1x32x40x128xf32> to tensor<1x32x40x128xf32>
    %inserted_slice_762 = tensor.insert_slice %extracted_slice_761 into %126[0, 0, 0, 0] [1, 32, 40, 128] [1, 1, 1, 1] : tensor<1x32x40x128xf32> into tensor<1x32x40x128xf32>
    %127 = tosa.reshape %inserted_slice_762 {new_shape = array<i64: 32, 40, 128>} : (tensor<1x32x40x128xf32>) -> tensor<32x40x128xf32>
    %128 = tensor.empty() : tensor<32x40x128xf32>
    %129 = linalg.generic {indexing_maps = [#map1], iterator_types = ["parallel", "parallel", "parallel"]} outs(%128 : tensor<32x40x128xf32>) {
    ^bb0(%out: f32):
      %cst_1922 = arith.constant 0.000000e+00 : f32
      linalg.yield %cst_1922 : f32
    } -> tensor<32x40x128xf32>
    %130 = linalg.batch_matmul ins(%125, %127 : tensor<32x40x40xf32>, tensor<32x40x128xf32>) outs(%129 : tensor<32x40x128xf32>) -> tensor<32x40x128xf32>
    %131 = tosa.reshape %130 {new_shape = array<i64: 1, 32, 40, 128>} : (tensor<32x40x128xf32>) -> tensor<1x32x40x128xf32>
    %132 = tensor.empty() : tensor<1x40x32x128xf32>
    %133 = linalg.generic {indexing_maps = [#map10, #map5], iterator_types = ["parallel", "parallel", "parallel", "parallel"]} ins(%131 : tensor<1x32x40x128xf32>) outs(%132 : tensor<1x40x32x128xf32>) {
    ^bb0(%in: f32, %out: f32):
      linalg.yield %in : f32
    } -> tensor<1x40x32x128xf32>
    %extracted_slice_763 = tensor.extract_slice %133[0, 0, 0, 0] [1, 40, 32, 128] [1, 1, 1, 1] : tensor<1x40x32x128xf32> to tensor<1x40x32x128xf32>
    %134 = tosa.reshape %extracted_slice_763 {new_shape = array<i64: 1, 40, 4096>} : (tensor<1x40x32x128xf32>) -> tensor<1x40x4096xf32>
    %135 = tensor.empty() : tensor<4096x4096xf32>
    %136 = linalg.generic {indexing_maps = [#map4, #map9], iterator_types = ["parallel", "parallel"]} ins(%expanded_72 : tensor<4096x4096xf32>) outs(%135 : tensor<4096x4096xf32>) {
    ^bb0(%in: f32, %out: f32):
      linalg.yield %in : f32
    } -> tensor<4096x4096xf32>
    %137 = tosa.reshape %134 {new_shape = array<i64: 40, 4096>} : (tensor<1x40x4096xf32>) -> tensor<40x4096xf32>
    %cst_764 = arith.constant dense<0.000000e+00> : tensor<40x4096xf32>
    %138 = linalg.matmul {cast = #linalg.type_fn<cast_signed>} ins(%137, %136 : tensor<40x4096xf32>, tensor<4096x4096xf32>) outs(%cst_764 : tensor<40x4096xf32>) -> tensor<40x4096xf32>
    %139 = tosa.reshape %138 {new_shape = array<i64: 1, 40, 4096>} : (tensor<40x4096xf32>) -> tensor<1x40x4096xf32>
    %140 = tosa.add %3, %139 : (tensor<1x40x4096xf32>, tensor<1x40x4096xf32>) -> tensor<1x40x4096xf32>
    %141 = tensor.empty() : tensor<1x40x4096xf32>
    %c2_i32_765 = arith.constant 2 : i32
    %142 = linalg.generic {indexing_maps = [#map1, #map1], iterator_types = ["parallel", "parallel", "parallel"]} ins(%140 : tensor<1x40x4096xf32>) outs(%141 : tensor<1x40x4096xf32>) {
    ^bb0(%in: f32, %out: f32):
      %4844 = math.fpowi %in, %c2_i32_765 : f32, i32
      linalg.yield %4844 : f32
    } -> tensor<1x40x4096xf32>
    %cst_766 = arith.constant dense<0.000000e+00> : tensor<1x40x1xf32>
    %143 = linalg.generic {indexing_maps = [#map6, #map7], iterator_types = ["parallel", "parallel", "reduction", "parallel"]} ins(%142 : tensor<1x40x4096xf32>) outs(%cst_766 : tensor<1x40x1xf32>) {
    ^bb0(%in: f32, %out: f32):
      %cst_1922 = arith.constant 4.096000e+03 : f32
      %4844 = arith.divf %in, %cst_1922 : f32
      %4845 = arith.addf %4844, %out : f32
      linalg.yield %4845 : f32
    } -> tensor<1x40x1xf32>
    %cst_767 = arith.constant dense<9.99999997E-7> : tensor<f32>
    %144 = tosa.add %143, %cst_767 : (tensor<1x40x1xf32>, tensor<f32>) -> tensor<1x40x1xf32>
    %145 = tensor.empty() : tensor<1x40x1xf32>
    %146 = linalg.generic {indexing_maps = [#map1, #map1], iterator_types = ["parallel", "parallel", "parallel"]} ins(%144 : tensor<1x40x1xf32>) outs(%145 : tensor<1x40x1xf32>) {
    ^bb0(%in: f32, %out: f32):
      %4844 = math.rsqrt %in : f32
      linalg.yield %4844 : f32
    } -> tensor<1x40x1xf32>
    %147 = tensor.empty() : tensor<1x40x4096xf32>
    %148 = tensor.empty() : tensor<1x40x4096xf32>
    %149 = linalg.generic {indexing_maps = [#map7, #map6], iterator_types = ["parallel", "parallel", "parallel", "reduction"]} ins(%146 : tensor<1x40x1xf32>) outs(%148 : tensor<1x40x4096xf32>) {
    ^bb0(%in: f32, %out: f32):
      linalg.yield %in : f32
    } -> tensor<1x40x4096xf32>
    %150 = linalg.generic {indexing_maps = [#map1, #map1, #map1], iterator_types = ["parallel", "parallel", "parallel"]} ins(%140, %149 : tensor<1x40x4096xf32>, tensor<1x40x4096xf32>) outs(%147 : tensor<1x40x4096xf32>) {
    ^bb0(%in: f32, %in_1922: f32, %out: f32):
      %4844 = arith.mulf %in, %in_1922 : f32
      linalg.yield %4844 : f32
    } -> tensor<1x40x4096xf32>
    %151 = tensor.empty() : tensor<1x40x4096xf32>
    %152 = tensor.empty() : tensor<1x40x4096xf32>
    %153 = linalg.generic {indexing_maps = [#map8, #map1], iterator_types = ["parallel", "parallel", "parallel"]} ins(%extracted_slice_0 : tensor<4096xf32>) outs(%152 : tensor<1x40x4096xf32>) {
    ^bb0(%in: f32, %out: f32):
      linalg.yield %in : f32
    } -> tensor<1x40x4096xf32>
    %154 = linalg.generic {indexing_maps = [#map1, #map1, #map1], iterator_types = ["parallel", "parallel", "parallel"]} ins(%153, %150 : tensor<1x40x4096xf32>, tensor<1x40x4096xf32>) outs(%151 : tensor<1x40x4096xf32>) {
    ^bb0(%in: f32, %in_1922: f32, %out: f32):
      %4844 = arith.mulf %in, %in_1922 : f32
      linalg.yield %4844 : f32
    } -> tensor<1x40x4096xf32>
    %155 = tensor.empty() : tensor<4096x11008xf32>
    %156 = linalg.generic {indexing_maps = [#map4, #map9], iterator_types = ["parallel", "parallel"]} ins(%expanded_74 : tensor<11008x4096xf32>) outs(%155 : tensor<4096x11008xf32>) {
    ^bb0(%in: f32, %out: f32):
      linalg.yield %in : f32
    } -> tensor<4096x11008xf32>
    %157 = tosa.reshape %154 {new_shape = array<i64: 40, 4096>} : (tensor<1x40x4096xf32>) -> tensor<40x4096xf32>
    %cst_768 = arith.constant dense<0.000000e+00> : tensor<40x11008xf32>
    %158 = linalg.matmul {cast = #linalg.type_fn<cast_signed>} ins(%157, %156 : tensor<40x4096xf32>, tensor<4096x11008xf32>) outs(%cst_768 : tensor<40x11008xf32>) -> tensor<40x11008xf32>
    %159 = tosa.reshape %158 {new_shape = array<i64: 1, 40, 11008>} : (tensor<40x11008xf32>) -> tensor<1x40x11008xf32>
    %160 = tensor.empty() : tensor<1x40x11008xf32>
    %161 = linalg.generic {indexing_maps = [#map1, #map1], iterator_types = ["parallel", "parallel", "parallel"]} ins(%159 : tensor<1x40x11008xf32>) outs(%160 : tensor<1x40x11008xf32>) {
    ^bb0(%in: f32, %out: f32):
      %4844 = arith.negf %in : f32
      %4845 = math.exp %4844 : f32
      %cst_1922 = arith.constant 1.000000e+00 : f32
      %4846 = arith.addf %cst_1922, %4845 : f32
      %4847 = arith.divf %in, %4846 : f32
      linalg.yield %4847 : f32
    } -> tensor<1x40x11008xf32>
    %162 = tensor.empty() : tensor<4096x11008xf32>
    %163 = linalg.generic {indexing_maps = [#map4, #map9], iterator_types = ["parallel", "parallel"]} ins(%expanded_76 : tensor<11008x4096xf32>) outs(%162 : tensor<4096x11008xf32>) {
    ^bb0(%in: f32, %out: f32):
      linalg.yield %in : f32
    } -> tensor<4096x11008xf32>
    %164 = tosa.reshape %154 {new_shape = array<i64: 40, 4096>} : (tensor<1x40x4096xf32>) -> tensor<40x4096xf32>
    %cst_769 = arith.constant dense<0.000000e+00> : tensor<40x11008xf32>
    %165 = linalg.matmul {cast = #linalg.type_fn<cast_signed>} ins(%164, %163 : tensor<40x4096xf32>, tensor<4096x11008xf32>) outs(%cst_769 : tensor<40x11008xf32>) -> tensor<40x11008xf32>
    %166 = tosa.reshape %165 {new_shape = array<i64: 1, 40, 11008>} : (tensor<40x11008xf32>) -> tensor<1x40x11008xf32>
    %167 = tensor.empty() : tensor<1x40x11008xf32>
    %168 = linalg.generic {indexing_maps = [#map1, #map1, #map1], iterator_types = ["parallel", "parallel", "parallel"]} ins(%161, %166 : tensor<1x40x11008xf32>, tensor<1x40x11008xf32>) outs(%167 : tensor<1x40x11008xf32>) {
    ^bb0(%in: f32, %in_1922: f32, %out: f32):
      %4844 = arith.mulf %in, %in_1922 : f32
      linalg.yield %4844 : f32
    } -> tensor<1x40x11008xf32>
    %169 = tensor.empty() : tensor<11008x4096xf32>
    %170 = linalg.generic {indexing_maps = [#map4, #map9], iterator_types = ["parallel", "parallel"]} ins(%expanded_78 : tensor<4096x11008xf32>) outs(%169 : tensor<11008x4096xf32>) {
    ^bb0(%in: f32, %out: f32):
      linalg.yield %in : f32
    } -> tensor<11008x4096xf32>
    %171 = tosa.reshape %168 {new_shape = array<i64: 40, 11008>} : (tensor<1x40x11008xf32>) -> tensor<40x11008xf32>
    %cst_770 = arith.constant dense<0.000000e+00> : tensor<40x4096xf32>
    %172 = linalg.matmul {cast = #linalg.type_fn<cast_signed>} ins(%171, %170 : tensor<40x11008xf32>, tensor<11008x4096xf32>) outs(%cst_770 : tensor<40x4096xf32>) -> tensor<40x4096xf32>
    %173 = tosa.reshape %172 {new_shape = array<i64: 1, 40, 4096>} : (tensor<40x4096xf32>) -> tensor<1x40x4096xf32>
    %174 = tosa.add %140, %173 : (tensor<1x40x4096xf32>, tensor<1x40x4096xf32>) -> tensor<1x40x4096xf32>
    %175 = tensor.empty() : tensor<1x40x4096xf32>
    %c2_i32_771 = arith.constant 2 : i32
    %176 = linalg.generic {indexing_maps = [#map1, #map1], iterator_types = ["parallel", "parallel", "parallel"]} ins(%174 : tensor<1x40x4096xf32>) outs(%175 : tensor<1x40x4096xf32>) {
    ^bb0(%in: f32, %out: f32):
      %4844 = math.fpowi %in, %c2_i32_771 : f32, i32
      linalg.yield %4844 : f32
    } -> tensor<1x40x4096xf32>
    %cst_772 = arith.constant dense<0.000000e+00> : tensor<1x40x1xf32>
    %177 = linalg.generic {indexing_maps = [#map6, #map7], iterator_types = ["parallel", "parallel", "reduction", "parallel"]} ins(%176 : tensor<1x40x4096xf32>) outs(%cst_772 : tensor<1x40x1xf32>) {
    ^bb0(%in: f32, %out: f32):
      %cst_1922 = arith.constant 4.096000e+03 : f32
      %4844 = arith.divf %in, %cst_1922 : f32
      %4845 = arith.addf %4844, %out : f32
      linalg.yield %4845 : f32
    } -> tensor<1x40x1xf32>
    %cst_773 = arith.constant dense<9.99999997E-7> : tensor<f32>
    %178 = tosa.add %177, %cst_773 : (tensor<1x40x1xf32>, tensor<f32>) -> tensor<1x40x1xf32>
    %179 = tensor.empty() : tensor<1x40x1xf32>
    %180 = linalg.generic {indexing_maps = [#map1, #map1], iterator_types = ["parallel", "parallel", "parallel"]} ins(%178 : tensor<1x40x1xf32>) outs(%179 : tensor<1x40x1xf32>) {
    ^bb0(%in: f32, %out: f32):
      %4844 = math.rsqrt %in : f32
      linalg.yield %4844 : f32
    } -> tensor<1x40x1xf32>
    %181 = tensor.empty() : tensor<1x40x4096xf32>
    %182 = tensor.empty() : tensor<1x40x4096xf32>
    %183 = linalg.generic {indexing_maps = [#map7, #map6], iterator_types = ["parallel", "parallel", "parallel", "reduction"]} ins(%180 : tensor<1x40x1xf32>) outs(%182 : tensor<1x40x4096xf32>) {
    ^bb0(%in: f32, %out: f32):
      linalg.yield %in : f32
    } -> tensor<1x40x4096xf32>
    %184 = linalg.generic {indexing_maps = [#map1, #map1, #map1], iterator_types = ["parallel", "parallel", "parallel"]} ins(%174, %183 : tensor<1x40x4096xf32>, tensor<1x40x4096xf32>) outs(%181 : tensor<1x40x4096xf32>) {
    ^bb0(%in: f32, %in_1922: f32, %out: f32):
      %4844 = arith.mulf %in, %in_1922 : f32
      linalg.yield %4844 : f32
    } -> tensor<1x40x4096xf32>
    %185 = tensor.empty() : tensor<1x40x4096xf32>
    %186 = tensor.empty() : tensor<1x40x4096xf32>
    %187 = linalg.generic {indexing_maps = [#map8, #map1], iterator_types = ["parallel", "parallel", "parallel"]} ins(%extracted_slice_1 : tensor<4096xf32>) outs(%186 : tensor<1x40x4096xf32>) {
    ^bb0(%in: f32, %out: f32):
      linalg.yield %in : f32
    } -> tensor<1x40x4096xf32>
    %188 = linalg.generic {indexing_maps = [#map1, #map1, #map1], iterator_types = ["parallel", "parallel", "parallel"]} ins(%187, %184 : tensor<1x40x4096xf32>, tensor<1x40x4096xf32>) outs(%185 : tensor<1x40x4096xf32>) {
    ^bb0(%in: f32, %in_1922: f32, %out: f32):
      %4844 = arith.mulf %in, %in_1922 : f32
      linalg.yield %4844 : f32
    } -> tensor<1x40x4096xf32>
    %189 = tensor.empty() : tensor<4096x4096xf32>
    %190 = linalg.generic {indexing_maps = [#map4, #map9], iterator_types = ["parallel", "parallel"]} ins(%expanded_80 : tensor<4096x4096xf32>) outs(%189 : tensor<4096x4096xf32>) {
    ^bb0(%in: f32, %out: f32):
      linalg.yield %in : f32
    } -> tensor<4096x4096xf32>
    %191 = tosa.reshape %188 {new_shape = array<i64: 40, 4096>} : (tensor<1x40x4096xf32>) -> tensor<40x4096xf32>
    %cst_774 = arith.constant dense<0.000000e+00> : tensor<40x4096xf32>
    %192 = linalg.matmul {cast = #linalg.type_fn<cast_signed>} ins(%191, %190 : tensor<40x4096xf32>, tensor<4096x4096xf32>) outs(%cst_774 : tensor<40x4096xf32>) -> tensor<40x4096xf32>
    %193 = tosa.reshape %192 {new_shape = array<i64: 1, 40, 4096>} : (tensor<40x4096xf32>) -> tensor<1x40x4096xf32>
    %194 = tensor.empty() : tensor<4096x4096xf32>
    %195 = linalg.generic {indexing_maps = [#map4, #map9], iterator_types = ["parallel", "parallel"]} ins(%expanded_82 : tensor<4096x4096xf32>) outs(%194 : tensor<4096x4096xf32>) {
    ^bb0(%in: f32, %out: f32):
      linalg.yield %in : f32
    } -> tensor<4096x4096xf32>
    %196 = tosa.reshape %188 {new_shape = array<i64: 40, 4096>} : (tensor<1x40x4096xf32>) -> tensor<40x4096xf32>
    %cst_775 = arith.constant dense<0.000000e+00> : tensor<40x4096xf32>
    %197 = linalg.matmul {cast = #linalg.type_fn<cast_signed>} ins(%196, %195 : tensor<40x4096xf32>, tensor<4096x4096xf32>) outs(%cst_775 : tensor<40x4096xf32>) -> tensor<40x4096xf32>
    %198 = tosa.reshape %197 {new_shape = array<i64: 1, 40, 4096>} : (tensor<40x4096xf32>) -> tensor<1x40x4096xf32>
    %199 = tensor.empty() : tensor<4096x4096xf32>
    %200 = linalg.generic {indexing_maps = [#map4, #map9], iterator_types = ["parallel", "parallel"]} ins(%expanded_84 : tensor<4096x4096xf32>) outs(%199 : tensor<4096x4096xf32>) {
    ^bb0(%in: f32, %out: f32):
      linalg.yield %in : f32
    } -> tensor<4096x4096xf32>
    %201 = tosa.reshape %188 {new_shape = array<i64: 40, 4096>} : (tensor<1x40x4096xf32>) -> tensor<40x4096xf32>
    %cst_776 = arith.constant dense<0.000000e+00> : tensor<40x4096xf32>
    %202 = linalg.matmul {cast = #linalg.type_fn<cast_signed>} ins(%201, %200 : tensor<40x4096xf32>, tensor<4096x4096xf32>) outs(%cst_776 : tensor<40x4096xf32>) -> tensor<40x4096xf32>
    %203 = tosa.reshape %202 {new_shape = array<i64: 1, 40, 4096>} : (tensor<40x4096xf32>) -> tensor<1x40x4096xf32>
    %204 = tosa.reshape %193 {new_shape = array<i64: 1, 40, 32, 128>} : (tensor<1x40x4096xf32>) -> tensor<1x40x32x128xf32>
    %205 = tensor.empty() : tensor<1x32x40x128xf32>
    %206 = linalg.generic {indexing_maps = [#map10, #map5], iterator_types = ["parallel", "parallel", "parallel", "parallel"]} ins(%204 : tensor<1x40x32x128xf32>) outs(%205 : tensor<1x32x40x128xf32>) {
    ^bb0(%in: f32, %out: f32):
      linalg.yield %in : f32
    } -> tensor<1x32x40x128xf32>
    %207 = tosa.reshape %198 {new_shape = array<i64: 1, 40, 32, 128>} : (tensor<1x40x4096xf32>) -> tensor<1x40x32x128xf32>
    %208 = tensor.empty() : tensor<1x32x40x128xf32>
    %209 = linalg.generic {indexing_maps = [#map10, #map5], iterator_types = ["parallel", "parallel", "parallel", "parallel"]} ins(%207 : tensor<1x40x32x128xf32>) outs(%208 : tensor<1x32x40x128xf32>) {
    ^bb0(%in: f32, %out: f32):
      linalg.yield %in : f32
    } -> tensor<1x32x40x128xf32>
    %210 = tosa.reshape %203 {new_shape = array<i64: 1, 40, 32, 128>} : (tensor<1x40x4096xf32>) -> tensor<1x40x32x128xf32>
    %211 = tensor.empty() : tensor<1x32x40x128xf32>
    %212 = linalg.generic {indexing_maps = [#map10, #map5], iterator_types = ["parallel", "parallel", "parallel", "parallel"]} ins(%210 : tensor<1x40x32x128xf32>) outs(%211 : tensor<1x32x40x128xf32>) {
    ^bb0(%in: f32, %out: f32):
      linalg.yield %in : f32
    } -> tensor<1x32x40x128xf32>
    %extracted_slice_777 = tensor.extract_slice %expanded_520[0, 0, 0, 0] [1, 1, 2048, 128] [1, 1, 1, 1] : tensor<1x1x2048x128xf32> to tensor<1x1x2048x128xf32>
    %extracted_slice_778 = tensor.extract_slice %extracted_slice_777[0, 0, 0, 0] [1, 1, 2048, 128] [1, 1, 1, 1] : tensor<1x1x2048x128xf32> to tensor<1x1x2048x128xf32>
    %extracted_slice_779 = tensor.extract_slice %extracted_slice_778[0, 0, 0, 0] [1, 1, 40, 128] [1, 1, 1, 1] : tensor<1x1x2048x128xf32> to tensor<1x1x40x128xf32>
    %extracted_slice_780 = tensor.extract_slice %expanded_522[0, 0, 0, 0] [1, 1, 2048, 128] [1, 1, 1, 1] : tensor<1x1x2048x128xf32> to tensor<1x1x2048x128xf32>
    %extracted_slice_781 = tensor.extract_slice %extracted_slice_780[0, 0, 0, 0] [1, 1, 2048, 128] [1, 1, 1, 1] : tensor<1x1x2048x128xf32> to tensor<1x1x2048x128xf32>
    %extracted_slice_782 = tensor.extract_slice %extracted_slice_781[0, 0, 0, 0] [1, 1, 40, 128] [1, 1, 1, 1] : tensor<1x1x2048x128xf32> to tensor<1x1x40x128xf32>
    %213 = tensor.empty() : tensor<1x40x128xf32>
    %214 = linalg.generic {indexing_maps = [#map11, #map1], iterator_types = ["parallel", "parallel", "parallel"]} ins(%extracted_slice_779 : tensor<1x1x40x128xf32>) outs(%213 : tensor<1x40x128xf32>) {
    ^bb0(%in: f32, %out: f32):
      linalg.yield %in : f32
    } -> tensor<1x40x128xf32>
    %215 = tensor.empty() : tensor<40x128xf32>
    %216 = linalg.generic {indexing_maps = [#map12, #map4], iterator_types = ["parallel", "parallel"]} ins(%214 : tensor<1x40x128xf32>) outs(%215 : tensor<40x128xf32>) {
    ^bb0(%in: f32, %out: f32):
      linalg.yield %in : f32
    } -> tensor<40x128xf32>
    %217 = tensor.empty() : tensor<1x40x128xf32>
    %218 = linalg.generic {indexing_maps = [#map11, #map1], iterator_types = ["parallel", "parallel", "parallel"]} ins(%extracted_slice_782 : tensor<1x1x40x128xf32>) outs(%217 : tensor<1x40x128xf32>) {
    ^bb0(%in: f32, %out: f32):
      linalg.yield %in : f32
    } -> tensor<1x40x128xf32>
    %219 = tensor.empty() : tensor<40x128xf32>
    %220 = linalg.generic {indexing_maps = [#map12, #map4], iterator_types = ["parallel", "parallel"]} ins(%218 : tensor<1x40x128xf32>) outs(%219 : tensor<40x128xf32>) {
    ^bb0(%in: f32, %out: f32):
      linalg.yield %in : f32
    } -> tensor<40x128xf32>
    %221 = tensor.empty() : tensor<1x40x128xf32>
    %222 = linalg.generic {indexing_maps = [#map, #map1], iterator_types = ["parallel", "parallel", "parallel"]} ins(%1 : tensor<1x40xi64>) outs(%221 : tensor<1x40x128xf32>) {
    ^bb0(%in: i64, %out: f32):
      %4844 = arith.index_cast %in : i64 to index
      %4845 = linalg.index 2 : index
      %extracted = tensor.extract %216[%4844, %4845] : tensor<40x128xf32>
      linalg.yield %extracted : f32
    } -> tensor<1x40x128xf32>
    %223 = tosa.reshape %222 {new_shape = array<i64: 1, 1, 40, 128>} : (tensor<1x40x128xf32>) -> tensor<1x1x40x128xf32>
    %224 = tensor.empty() : tensor<1x40x128xf32>
    %225 = linalg.generic {indexing_maps = [#map, #map1], iterator_types = ["parallel", "parallel", "parallel"]} ins(%1 : tensor<1x40xi64>) outs(%224 : tensor<1x40x128xf32>) {
    ^bb0(%in: i64, %out: f32):
      %4844 = arith.index_cast %in : i64 to index
      %4845 = linalg.index 2 : index
      %extracted = tensor.extract %220[%4844, %4845] : tensor<40x128xf32>
      linalg.yield %extracted : f32
    } -> tensor<1x40x128xf32>
    %226 = tosa.reshape %225 {new_shape = array<i64: 1, 1, 40, 128>} : (tensor<1x40x128xf32>) -> tensor<1x1x40x128xf32>
    %227 = tensor.empty() : tensor<1x32x40x128xf32>
    %228 = tensor.empty() : tensor<1x32x40x128xf32>
    %229 = linalg.generic {indexing_maps = [#map13, #map14], iterator_types = ["parallel", "parallel", "parallel", "parallel", "reduction"]} ins(%223 : tensor<1x1x40x128xf32>) outs(%228 : tensor<1x32x40x128xf32>) {
    ^bb0(%in: f32, %out: f32):
      linalg.yield %in : f32
    } -> tensor<1x32x40x128xf32>
    %230 = linalg.generic {indexing_maps = [#map5, #map5, #map5], iterator_types = ["parallel", "parallel", "parallel", "parallel"]} ins(%206, %229 : tensor<1x32x40x128xf32>, tensor<1x32x40x128xf32>) outs(%227 : tensor<1x32x40x128xf32>) {
    ^bb0(%in: f32, %in_1922: f32, %out: f32):
      %4844 = arith.mulf %in, %in_1922 : f32
      linalg.yield %4844 : f32
    } -> tensor<1x32x40x128xf32>
    %extracted_slice_783 = tensor.extract_slice %206[0, 0, 0, 0] [1, 32, 40, 64] [1, 1, 1, 1] : tensor<1x32x40x128xf32> to tensor<1x32x40x64xf32>
    %extracted_slice_784 = tensor.extract_slice %206[0, 0, 0, 64] [1, 32, 40, 64] [1, 1, 1, 1] : tensor<1x32x40x128xf32> to tensor<1x32x40x64xf32>
    %231 = tensor.empty() : tensor<1x32x40x64xf32>
    %232 = linalg.generic {indexing_maps = [#map5, #map5], iterator_types = ["parallel", "parallel", "parallel", "parallel"]} ins(%extracted_slice_784 : tensor<1x32x40x64xf32>) outs(%231 : tensor<1x32x40x64xf32>) {
    ^bb0(%in: f32, %out: f32):
      %4844 = arith.negf %in : f32
      linalg.yield %4844 : f32
    } -> tensor<1x32x40x64xf32>
    %233 = tensor.empty() : tensor<1x32x40x128xf32>
    %inserted_slice_785 = tensor.insert_slice %232 into %233[0, 0, 0, 0] [1, 32, 40, 64] [1, 1, 1, 1] : tensor<1x32x40x64xf32> into tensor<1x32x40x128xf32>
    %inserted_slice_786 = tensor.insert_slice %extracted_slice_783 into %inserted_slice_785[0, 0, 0, 64] [1, 32, 40, 64] [1, 1, 1, 1] : tensor<1x32x40x64xf32> into tensor<1x32x40x128xf32>
    %234 = tensor.empty() : tensor<1x32x40x128xf32>
    %235 = tensor.empty() : tensor<1x32x40x128xf32>
    %236 = linalg.generic {indexing_maps = [#map13, #map14], iterator_types = ["parallel", "parallel", "parallel", "parallel", "reduction"]} ins(%226 : tensor<1x1x40x128xf32>) outs(%235 : tensor<1x32x40x128xf32>) {
    ^bb0(%in: f32, %out: f32):
      linalg.yield %in : f32
    } -> tensor<1x32x40x128xf32>
    %237 = linalg.generic {indexing_maps = [#map5, #map5, #map5], iterator_types = ["parallel", "parallel", "parallel", "parallel"]} ins(%inserted_slice_786, %236 : tensor<1x32x40x128xf32>, tensor<1x32x40x128xf32>) outs(%234 : tensor<1x32x40x128xf32>) {
    ^bb0(%in: f32, %in_1922: f32, %out: f32):
      %4844 = arith.mulf %in, %in_1922 : f32
      linalg.yield %4844 : f32
    } -> tensor<1x32x40x128xf32>
    %238 = tosa.add %230, %237 : (tensor<1x32x40x128xf32>, tensor<1x32x40x128xf32>) -> tensor<1x32x40x128xf32>
    %239 = tensor.empty() : tensor<1x32x40x128xf32>
    %240 = tensor.empty() : tensor<1x32x40x128xf32>
    %241 = linalg.generic {indexing_maps = [#map13, #map14], iterator_types = ["parallel", "parallel", "parallel", "parallel", "reduction"]} ins(%223 : tensor<1x1x40x128xf32>) outs(%240 : tensor<1x32x40x128xf32>) {
    ^bb0(%in: f32, %out: f32):
      linalg.yield %in : f32
    } -> tensor<1x32x40x128xf32>
    %242 = linalg.generic {indexing_maps = [#map5, #map5, #map5], iterator_types = ["parallel", "parallel", "parallel", "parallel"]} ins(%209, %241 : tensor<1x32x40x128xf32>, tensor<1x32x40x128xf32>) outs(%239 : tensor<1x32x40x128xf32>) {
    ^bb0(%in: f32, %in_1922: f32, %out: f32):
      %4844 = arith.mulf %in, %in_1922 : f32
      linalg.yield %4844 : f32
    } -> tensor<1x32x40x128xf32>
    %extracted_slice_787 = tensor.extract_slice %209[0, 0, 0, 0] [1, 32, 40, 64] [1, 1, 1, 1] : tensor<1x32x40x128xf32> to tensor<1x32x40x64xf32>
    %extracted_slice_788 = tensor.extract_slice %209[0, 0, 0, 64] [1, 32, 40, 64] [1, 1, 1, 1] : tensor<1x32x40x128xf32> to tensor<1x32x40x64xf32>
    %243 = tensor.empty() : tensor<1x32x40x64xf32>
    %244 = linalg.generic {indexing_maps = [#map5, #map5], iterator_types = ["parallel", "parallel", "parallel", "parallel"]} ins(%extracted_slice_788 : tensor<1x32x40x64xf32>) outs(%243 : tensor<1x32x40x64xf32>) {
    ^bb0(%in: f32, %out: f32):
      %4844 = arith.negf %in : f32
      linalg.yield %4844 : f32
    } -> tensor<1x32x40x64xf32>
    %245 = tensor.empty() : tensor<1x32x40x128xf32>
    %inserted_slice_789 = tensor.insert_slice %244 into %245[0, 0, 0, 0] [1, 32, 40, 64] [1, 1, 1, 1] : tensor<1x32x40x64xf32> into tensor<1x32x40x128xf32>
    %inserted_slice_790 = tensor.insert_slice %extracted_slice_787 into %inserted_slice_789[0, 0, 0, 64] [1, 32, 40, 64] [1, 1, 1, 1] : tensor<1x32x40x64xf32> into tensor<1x32x40x128xf32>
    %246 = tensor.empty() : tensor<1x32x40x128xf32>
    %247 = tensor.empty() : tensor<1x32x40x128xf32>
    %248 = linalg.generic {indexing_maps = [#map13, #map14], iterator_types = ["parallel", "parallel", "parallel", "parallel", "reduction"]} ins(%226 : tensor<1x1x40x128xf32>) outs(%247 : tensor<1x32x40x128xf32>) {
    ^bb0(%in: f32, %out: f32):
      linalg.yield %in : f32
    } -> tensor<1x32x40x128xf32>
    %249 = linalg.generic {indexing_maps = [#map5, #map5, #map5], iterator_types = ["parallel", "parallel", "parallel", "parallel"]} ins(%inserted_slice_790, %248 : tensor<1x32x40x128xf32>, tensor<1x32x40x128xf32>) outs(%246 : tensor<1x32x40x128xf32>) {
    ^bb0(%in: f32, %in_1922: f32, %out: f32):
      %4844 = arith.mulf %in, %in_1922 : f32
      linalg.yield %4844 : f32
    } -> tensor<1x32x40x128xf32>
    %250 = tosa.add %242, %249 : (tensor<1x32x40x128xf32>, tensor<1x32x40x128xf32>) -> tensor<1x32x40x128xf32>
    %251 = tensor.empty() : tensor<1x32x128x40xf32>
    %252 = linalg.generic {indexing_maps = [#map15, #map5], iterator_types = ["parallel", "parallel", "parallel", "parallel"]} ins(%250 : tensor<1x32x40x128xf32>) outs(%251 : tensor<1x32x128x40xf32>) {
    ^bb0(%in: f32, %out: f32):
      linalg.yield %in : f32
    } -> tensor<1x32x128x40xf32>
    %253 = tensor.empty() : tensor<1x32x40x128xf32>
    %extracted_slice_791 = tensor.extract_slice %238[0, 0, 0, 0] [1, 32, 40, 128] [1, 1, 1, 1] : tensor<1x32x40x128xf32> to tensor<1x32x40x128xf32>
    %inserted_slice_792 = tensor.insert_slice %extracted_slice_791 into %253[0, 0, 0, 0] [1, 32, 40, 128] [1, 1, 1, 1] : tensor<1x32x40x128xf32> into tensor<1x32x40x128xf32>
    %254 = tosa.reshape %inserted_slice_792 {new_shape = array<i64: 32, 40, 128>} : (tensor<1x32x40x128xf32>) -> tensor<32x40x128xf32>
    %255 = tensor.empty() : tensor<1x32x128x40xf32>
    %extracted_slice_793 = tensor.extract_slice %252[0, 0, 0, 0] [1, 32, 128, 40] [1, 1, 1, 1] : tensor<1x32x128x40xf32> to tensor<1x32x128x40xf32>
    %inserted_slice_794 = tensor.insert_slice %extracted_slice_793 into %255[0, 0, 0, 0] [1, 32, 128, 40] [1, 1, 1, 1] : tensor<1x32x128x40xf32> into tensor<1x32x128x40xf32>
    %256 = tosa.reshape %inserted_slice_794 {new_shape = array<i64: 32, 128, 40>} : (tensor<1x32x128x40xf32>) -> tensor<32x128x40xf32>
    %257 = tensor.empty() : tensor<32x40x40xf32>
    %258 = linalg.generic {indexing_maps = [#map1], iterator_types = ["parallel", "parallel", "parallel"]} outs(%257 : tensor<32x40x40xf32>) {
    ^bb0(%out: f32):
…
      %4844 = arith.mulf %in, %in_1922 : f32
      linalg.yield %4844 : f32
    } -> tensor<1x32x40x128xf32>
    %4600 = tosa.add %4592, %4599 : (tensor<1x32x40x128xf32>, tensor<1x32x40x128xf32>) -> tensor<1x32x40x128xf32>
    %4601 = tensor.empty() : tensor<1x32x128x40xf32>
    %4602 = linalg.generic {indexing_maps = [#map15, #map5], iterator_types = ["parallel", "parallel", "parallel", "parallel"]} ins(%4600 : tensor<1x32x40x128xf32>) outs(%4601 : tensor<1x32x128x40xf32>) {
    ^bb0(%in: f32, %out: f32):
      linalg.yield %in : f32
    } -> tensor<1x32x128x40xf32>
    %4603 = tensor.empty() : tensor<1x32x40x128xf32>
    %extracted_slice_1864 = tensor.extract_slice %4588[0, 0, 0, 0] [1, 32, 40, 128] [1, 1, 1, 1] : tensor<1x32x40x128xf32> to tensor<1x32x40x128xf32>
    %inserted_slice_1865 = tensor.insert_slice %extracted_slice_1864 into %4603[0, 0, 0, 0] [1, 32, 40, 128] [1, 1, 1, 1] : tensor<1x32x40x128xf32> into tensor<1x32x40x128xf32>
    %4604 = tosa.reshape %inserted_slice_1865 {new_shape = array<i64: 32, 40, 128>} : (tensor<1x32x40x128xf32>) -> tensor<32x40x128xf32>
    %4605 = tensor.empty() : tensor<1x32x128x40xf32>
    %extracted_slice_1866 = tensor.extract_slice %4602[0, 0, 0, 0] [1, 32, 128, 40] [1, 1, 1, 1] : tensor<1x32x128x40xf32> to tensor<1x32x128x40xf32>
    %inserted_slice_1867 = tensor.insert_slice %extracted_slice_1866 into %4605[0, 0, 0, 0] [1, 32, 128, 40] [1, 1, 1, 1] : tensor<1x32x128x40xf32> into tensor<1x32x128x40xf32>
    %4606 = tosa.reshape %inserted_slice_1867 {new_shape = array<i64: 32, 128, 40>} : (tensor<1x32x128x40xf32>) -> tensor<32x128x40xf32>
    %4607 = tensor.empty() : tensor<32x40x40xf32>
    %4608 = linalg.generic {indexing_maps = [#map1], iterator_types = ["parallel", "parallel", "parallel"]} outs(%4607 : tensor<32x40x40xf32>) {
    ^bb0(%out: f32):
      %cst_1922 = arith.constant 0.000000e+00 : f32
      linalg.yield %cst_1922 : f32
    } -> tensor<32x40x40xf32>
    %4609 = linalg.batch_matmul ins(%4604, %4606 : tensor<32x40x128xf32>, tensor<32x128x40xf32>) outs(%4608 : tensor<32x40x40xf32>) -> tensor<32x40x40xf32>
    %4610 = tosa.reshape %4609 {new_shape = array<i64: 1, 32, 40, 40>} : (tensor<32x40x40xf32>) -> tensor<1x32x40x40xf32>
    %cst_1868 = arith.constant 11.3137083 : f32
    %4611 = tensor.empty() : tensor<1x32x40x40xf32>
    %4612 = linalg.generic {indexing_maps = [#map5, #map5], iterator_types = ["parallel", "parallel", "parallel", "parallel"]} ins(%4610 : tensor<1x32x40x40xf32>) outs(%4611 : tensor<1x32x40x40xf32>) {
    ^bb0(%in: f32, %out: f32):
      %4844 = arith.divf %in, %cst_1868 : f32
      linalg.yield %4844 : f32
    } -> tensor<1x32x40x40xf32>
    %4613 = tosa.add %4612, %24 : (tensor<1x32x40x40xf32>, tensor<1x1x40x40xf32>) -> tensor<1x32x40x40xf32>
    %4614 = tensor.empty() : tensor<1x32x40x1xf32>
    %4615 = linalg.generic {indexing_maps = [#map5], iterator_types = ["parallel", "parallel", "parallel", "parallel"]} outs(%4614 : tensor<1x32x40x1xf32>) {
    ^bb0(%out: f32):
      %cst_1922 = arith.constant 0xFF800000 : f32
      linalg.yield %cst_1922 : f32
    } -> tensor<1x32x40x1xf32>
    %4616 = linalg.generic {indexing_maps = [#map5, #map16], iterator_types = ["parallel", "parallel", "parallel", "reduction"]} ins(%4613 : tensor<1x32x40x40xf32>) outs(%4615 : tensor<1x32x40x1xf32>) {
    ^bb0(%in: f32, %out: f32):
      %4844 = arith.maximumf %in, %out : f32
      linalg.yield %4844 : f32
    } -> tensor<1x32x40x1xf32>
    %4617 = tensor.empty() : tensor<1x32x40x40xf32>
    %4618 = linalg.generic {indexing_maps = [#map5, #map16, #map5], iterator_types = ["parallel", "parallel", "parallel", "parallel"]} ins(%4613, %4616 : tensor<1x32x40x40xf32>, tensor<1x32x40x1xf32>) outs(%4617 : tensor<1x32x40x40xf32>) {
    ^bb0(%in: f32, %in_1922: f32, %out: f32):
      %4844 = arith.subf %in, %in_1922 : f32
      %4845 = math.exp %4844 : f32
      linalg.yield %4845 : f32
    } -> tensor<1x32x40x40xf32>
    %4619 = tensor.empty() : tensor<1x32x40x1xf32>
    %4620 = linalg.generic {indexing_maps = [#map5], iterator_types = ["parallel", "parallel", "parallel", "parallel"]} outs(%4619 : tensor<1x32x40x1xf32>) {
    ^bb0(%out: f32):
      %cst_1922 = arith.constant 0.000000e+00 : f32
      linalg.yield %cst_1922 : f32
    } -> tensor<1x32x40x1xf32>
    %4621 = linalg.generic {indexing_maps = [#map5, #map16], iterator_types = ["parallel", "parallel", "parallel", "reduction"]} ins(%4618 : tensor<1x32x40x40xf32>) outs(%4620 : tensor<1x32x40x1xf32>) {
    ^bb0(%in: f32, %out: f32):
      %4844 = arith.addf %in, %out : f32
      linalg.yield %4844 : f32
    } -> tensor<1x32x40x1xf32>
    %4622 = tensor.empty() : tensor<1x32x40x40xf32>
    %4623 = linalg.generic {indexing_maps = [#map5, #map16, #map5], iterator_types = ["parallel", "parallel", "parallel", "parallel"]} ins(%4618, %4621 : tensor<1x32x40x40xf32>, tensor<1x32x40x1xf32>) outs(%4622 : tensor<1x32x40x40xf32>) {
    ^bb0(%in: f32, %in_1922: f32, %out: f32):
      %4844 = arith.divf %in, %in_1922 : f32
      linalg.yield %4844 : f32
    } -> tensor<1x32x40x40xf32>
    %4624 = tensor.empty() : tensor<1x32x40x40xf32>
    %extracted_slice_1869 = tensor.extract_slice %4623[0, 0, 0, 0] [1, 32, 40, 40] [1, 1, 1, 1] : tensor<1x32x40x40xf32> to tensor<1x32x40x40xf32>
    %inserted_slice_1870 = tensor.insert_slice %extracted_slice_1869 into %4624[0, 0, 0, 0] [1, 32, 40, 40] [1, 1, 1, 1] : tensor<1x32x40x40xf32> into tensor<1x32x40x40xf32>
    %4625 = tosa.reshape %inserted_slice_1870 {new_shape = array<i64: 32, 40, 40>} : (tensor<1x32x40x40xf32>) -> tensor<32x40x40xf32>
    %4626 = tensor.empty() : tensor<1x32x40x128xf32>
    %extracted_slice_1871 = tensor.extract_slice %4562[0, 0, 0, 0] [1, 32, 40, 128] [1, 1, 1, 1] : tensor<1x32x40x128xf32> to tensor<1x32x40x128xf32>
    %inserted_slice_1872 = tensor.insert_slice %extracted_slice_1871 into %4626[0, 0, 0, 0] [1, 32, 40, 128] [1, 1, 1, 1] : tensor<1x32x40x128xf32> into tensor<1x32x40x128xf32>
    %4627 = tosa.reshape %inserted_slice_1872 {new_shape = array<i64: 32, 40, 128>} : (tensor<1x32x40x128xf32>) -> tensor<32x40x128xf32>
    %4628 = tensor.empty() : tensor<32x40x128xf32>
    %4629 = linalg.generic {indexing_maps = [#map1], iterator_types = ["parallel", "parallel", "parallel"]} outs(%4628 : tensor<32x40x128xf32>) {
    ^bb0(%out: f32):
      %cst_1922 = arith.constant 0.000000e+00 : f32
      linalg.yield %cst_1922 : f32
    } -> tensor<32x40x128xf32>
    %4630 = linalg.batch_matmul ins(%4625, %4627 : tensor<32x40x40xf32>, tensor<32x40x128xf32>) outs(%4629 : tensor<32x40x128xf32>) -> tensor<32x40x128xf32>
    %4631 = tosa.reshape %4630 {new_shape = array<i64: 1, 32, 40, 128>} : (tensor<32x40x128xf32>) -> tensor<1x32x40x128xf32>
    %4632 = tensor.empty() : tensor<1x40x32x128xf32>
    %4633 = linalg.generic {indexing_maps = [#map10, #map5], iterator_types = ["parallel", "parallel", "parallel", "parallel"]} ins(%4631 : tensor<1x32x40x128xf32>) outs(%4632 : tensor<1x40x32x128xf32>) {
    ^bb0(%in: f32, %out: f32):
      linalg.yield %in : f32
    } -> tensor<1x40x32x128xf32>
    %extracted_slice_1873 = tensor.extract_slice %4633[0, 0, 0, 0] [1, 40, 32, 128] [1, 1, 1, 1] : tensor<1x40x32x128xf32> to tensor<1x40x32x128xf32>
    %4634 = tosa.reshape %extracted_slice_1873 {new_shape = array<i64: 1, 40, 4096>} : (tensor<1x40x32x128xf32>) -> tensor<1x40x4096xf32>
    %4635 = tensor.empty() : tensor<4096x4096xf32>
    %4636 = linalg.generic {indexing_maps = [#map4, #map9], iterator_types = ["parallel", "parallel"]} ins(%expanded_492 : tensor<4096x4096xf32>) outs(%4635 : tensor<4096x4096xf32>) {
    ^bb0(%in: f32, %out: f32):
      linalg.yield %in : f32
    } -> tensor<4096x4096xf32>
    %4637 = tosa.reshape %4634 {new_shape = array<i64: 40, 4096>} : (tensor<1x40x4096xf32>) -> tensor<40x4096xf32>
    %cst_1874 = arith.constant dense<0.000000e+00> : tensor<40x4096xf32>
    %4638 = linalg.matmul {cast = #linalg.type_fn<cast_signed>} ins(%4637, %4636 : tensor<40x4096xf32>, tensor<4096x4096xf32>) outs(%cst_1874 : tensor<40x4096xf32>) -> tensor<40x4096xf32>
    %4639 = tosa.reshape %4638 {new_shape = array<i64: 1, 40, 4096>} : (tensor<40x4096xf32>) -> tensor<1x40x4096xf32>
    %4640 = tosa.add %4524, %4639 : (tensor<1x40x4096xf32>, tensor<1x40x4096xf32>) -> tensor<1x40x4096xf32>
    %4641 = tensor.empty() : tensor<1x40x4096xf32>
    %c2_i32_1875 = arith.constant 2 : i32
    %4642 = linalg.generic {indexing_maps = [#map1, #map1], iterator_types = ["parallel", "parallel", "parallel"]} ins(%4640 : tensor<1x40x4096xf32>) outs(%4641 : tensor<1x40x4096xf32>) {
    ^bb0(%in: f32, %out: f32):
      %4844 = math.fpowi %in, %c2_i32_1875 : f32, i32
      linalg.yield %4844 : f32
    } -> tensor<1x40x4096xf32>
    %cst_1876 = arith.constant dense<0.000000e+00> : tensor<1x40x1xf32>
    %4643 = linalg.generic {indexing_maps = [#map6, #map7], iterator_types = ["parallel", "parallel", "reduction", "parallel"]} ins(%4642 : tensor<1x40x4096xf32>) outs(%cst_1876 : tensor<1x40x1xf32>) {
    ^bb0(%in: f32, %out: f32):
      %cst_1922 = arith.constant 4.096000e+03 : f32
      %4844 = arith.divf %in, %cst_1922 : f32
      %4845 = arith.addf %4844, %out : f32
      linalg.yield %4845 : f32
    } -> tensor<1x40x1xf32>
    %cst_1877 = arith.constant dense<9.99999997E-7> : tensor<f32>
    %4644 = tosa.add %4643, %cst_1877 : (tensor<1x40x1xf32>, tensor<f32>) -> tensor<1x40x1xf32>
    %4645 = tensor.empty() : tensor<1x40x1xf32>
    %4646 = linalg.generic {indexing_maps = [#map1, #map1], iterator_types = ["parallel", "parallel", "parallel"]} ins(%4644 : tensor<1x40x1xf32>) outs(%4645 : tensor<1x40x1xf32>) {
    ^bb0(%in: f32, %out: f32):
      %4844 = math.rsqrt %in : f32
      linalg.yield %4844 : f32
    } -> tensor<1x40x1xf32>
    %4647 = tensor.empty() : tensor<1x40x4096xf32>
    %4648 = tensor.empty() : tensor<1x40x4096xf32>
    %4649 = linalg.generic {indexing_maps = [#map7, #map6], iterator_types = ["parallel", "parallel", "parallel", "reduction"]} ins(%4646 : tensor<1x40x1xf32>) outs(%4648 : tensor<1x40x4096xf32>) {
    ^bb0(%in: f32, %out: f32):
      linalg.yield %in : f32
    } -> tensor<1x40x4096xf32>
    %4650 = linalg.generic {indexing_maps = [#map1, #map1, #map1], iterator_types = ["parallel", "parallel", "parallel"]} ins(%4640, %4649 : tensor<1x40x4096xf32>, tensor<1x40x4096xf32>) outs(%4647 : tensor<1x40x4096xf32>) {
    ^bb0(%in: f32, %in_1922: f32, %out: f32):
      %4844 = arith.mulf %in, %in_1922 : f32
      linalg.yield %4844 : f32
    } -> tensor<1x40x4096xf32>
    %4651 = tensor.empty() : tensor<1x40x4096xf32>
    %4652 = tensor.empty() : tensor<1x40x4096xf32>
    %4653 = linalg.generic {indexing_maps = [#map8, #map1], iterator_types = ["parallel", "parallel", "parallel"]} ins(%extracted_slice_60 : tensor<4096xf32>) outs(%4652 : tensor<1x40x4096xf32>) {
    ^bb0(%in: f32, %out: f32):
      linalg.yield %in : f32
    } -> tensor<1x40x4096xf32>
    %4654 = linalg.generic {indexing_maps = [#map1, #map1, #map1], iterator_types = ["parallel", "parallel", "parallel"]} ins(%4653, %4650 : tensor<1x40x4096xf32>, tensor<1x40x4096xf32>) outs(%4651 : tensor<1x40x4096xf32>) {
    ^bb0(%in: f32, %in_1922: f32, %out: f32):
      %4844 = arith.mulf %in, %in_1922 : f32
      linalg.yield %4844 : f32
    } -> tensor<1x40x4096xf32>
    %4655 = tensor.empty() : tensor<4096x11008xf32>
    %4656 = linalg.generic {indexing_maps = [#map4, #map9], iterator_types = ["parallel", "parallel"]} ins(%expanded_494 : tensor<11008x4096xf32>) outs(%4655 : tensor<4096x11008xf32>) {
    ^bb0(%in: f32, %out: f32):
      linalg.yield %in : f32
    } -> tensor<4096x11008xf32>
    %4657 = tosa.reshape %4654 {new_shape = array<i64: 40, 4096>} : (tensor<1x40x4096xf32>) -> tensor<40x4096xf32>
    %cst_1878 = arith.constant dense<0.000000e+00> : tensor<40x11008xf32>
    %4658 = linalg.matmul {cast = #linalg.type_fn<cast_signed>} ins(%4657, %4656 : tensor<40x4096xf32>, tensor<4096x11008xf32>) outs(%cst_1878 : tensor<40x11008xf32>) -> tensor<40x11008xf32>
    %4659 = tosa.reshape %4658 {new_shape = array<i64: 1, 40, 11008>} : (tensor<40x11008xf32>) -> tensor<1x40x11008xf32>
    %4660 = tensor.empty() : tensor<1x40x11008xf32>
    %4661 = linalg.generic {indexing_maps = [#map1, #map1], iterator_types = ["parallel", "parallel", "parallel"]} ins(%4659 : tensor<1x40x11008xf32>) outs(%4660 : tensor<1x40x11008xf32>) {
    ^bb0(%in: f32, %out: f32):
      %4844 = arith.negf %in : f32
      %4845 = math.exp %4844 : f32
      %cst_1922 = arith.constant 1.000000e+00 : f32
      %4846 = arith.addf %cst_1922, %4845 : f32
      %4847 = arith.divf %in, %4846 : f32
      linalg.yield %4847 : f32
    } -> tensor<1x40x11008xf32>
    %4662 = tensor.empty() : tensor<4096x11008xf32>
    %4663 = linalg.generic {indexing_maps = [#map4, #map9], iterator_types = ["parallel", "parallel"]} ins(%expanded_496 : tensor<11008x4096xf32>) outs(%4662 : tensor<4096x11008xf32>) {
    ^bb0(%in: f32, %out: f32):
      linalg.yield %in : f32
    } -> tensor<4096x11008xf32>
    %4664 = tosa.reshape %4654 {new_shape = array<i64: 40, 4096>} : (tensor<1x40x4096xf32>) -> tensor<40x4096xf32>
    %cst_1879 = arith.constant dense<0.000000e+00> : tensor<40x11008xf32>
    %4665 = linalg.matmul {cast = #linalg.type_fn<cast_signed>} ins(%4664, %4663 : tensor<40x4096xf32>, tensor<4096x11008xf32>) outs(%cst_1879 : tensor<40x11008xf32>) -> tensor<40x11008xf32>
    %4666 = tosa.reshape %4665 {new_shape = array<i64: 1, 40, 11008>} : (tensor<40x11008xf32>) -> tensor<1x40x11008xf32>
    %4667 = tensor.empty() : tensor<1x40x11008xf32>
    %4668 = linalg.generic {indexing_maps = [#map1, #map1, #map1], iterator_types = ["parallel", "parallel", "parallel"]} ins(%4661, %4666 : tensor<1x40x11008xf32>, tensor<1x40x11008xf32>) outs(%4667 : tensor<1x40x11008xf32>) {
    ^bb0(%in: f32, %in_1922: f32, %out: f32):
      %4844 = arith.mulf %in, %in_1922 : f32
      linalg.yield %4844 : f32
    } -> tensor<1x40x11008xf32>
    %4669 = tensor.empty() : tensor<11008x4096xf32>
    %4670 = linalg.generic {indexing_maps = [#map4, #map9], iterator_types = ["parallel", "parallel"]} ins(%expanded_498 : tensor<4096x11008xf32>) outs(%4669 : tensor<11008x4096xf32>) {
    ^bb0(%in: f32, %out: f32):
      linalg.yield %in : f32
    } -> tensor<11008x4096xf32>
    %4671 = tosa.reshape %4668 {new_shape = array<i64: 40, 11008>} : (tensor<1x40x11008xf32>) -> tensor<40x11008xf32>
    %cst_1880 = arith.constant dense<0.000000e+00> : tensor<40x4096xf32>
    %4672 = linalg.matmul {cast = #linalg.type_fn<cast_signed>} ins(%4671, %4670 : tensor<40x11008xf32>, tensor<11008x4096xf32>) outs(%cst_1880 : tensor<40x4096xf32>) -> tensor<40x4096xf32>
    %4673 = tosa.reshape %4672 {new_shape = array<i64: 1, 40, 4096>} : (tensor<40x4096xf32>) -> tensor<1x40x4096xf32>
    %4674 = tosa.add %4640, %4673 : (tensor<1x40x4096xf32>, tensor<1x40x4096xf32>) -> tensor<1x40x4096xf32>
    %4675 = tensor.empty() : tensor<1x40x4096xf32>
    %c2_i32_1881 = arith.constant 2 : i32
    %4676 = linalg.generic {indexing_maps = [#map1, #map1], iterator_types = ["parallel", "parallel", "parallel"]} ins(%4674 : tensor<1x40x4096xf32>) outs(%4675 : tensor<1x40x4096xf32>) {
    ^bb0(%in: f32, %out: f32):
      %4844 = math.fpowi %in, %c2_i32_1881 : f32, i32
      linalg.yield %4844 : f32
    } -> tensor<1x40x4096xf32>
    %cst_1882 = arith.constant dense<0.000000e+00> : tensor<1x40x1xf32>
    %4677 = linalg.generic {indexing_maps = [#map6, #map7], iterator_types = ["parallel", "parallel", "reduction", "parallel"]} ins(%4676 : tensor<1x40x4096xf32>) outs(%cst_1882 : tensor<1x40x1xf32>) {
    ^bb0(%in: f32, %out: f32):
      %cst_1922 = arith.constant 4.096000e+03 : f32
      %4844 = arith.divf %in, %cst_1922 : f32
      %4845 = arith.addf %4844, %out : f32
      linalg.yield %4845 : f32
    } -> tensor<1x40x1xf32>
    %cst_1883 = arith.constant dense<9.99999997E-7> : tensor<f32>
    %4678 = tosa.add %4677, %cst_1883 : (tensor<1x40x1xf32>, tensor<f32>) -> tensor<1x40x1xf32>
    %4679 = tensor.empty() : tensor<1x40x1xf32>
    %4680 = linalg.generic {indexing_maps = [#map1, #map1], iterator_types = ["parallel", "parallel", "parallel"]} ins(%4678 : tensor<1x40x1xf32>) outs(%4679 : tensor<1x40x1xf32>) {
    ^bb0(%in: f32, %out: f32):
      %4844 = math.rsqrt %in : f32
      linalg.yield %4844 : f32
    } -> tensor<1x40x1xf32>
    %4681 = tensor.empty() : tensor<1x40x4096xf32>
    %4682 = tensor.empty() : tensor<1x40x4096xf32>
    %4683 = linalg.generic {indexing_maps = [#map7, #map6], iterator_types = ["parallel", "parallel", "parallel", "reduction"]} ins(%4680 : tensor<1x40x1xf32>) outs(%4682 : tensor<1x40x4096xf32>) {
    ^bb0(%in: f32, %out: f32):
      linalg.yield %in : f32
    } -> tensor<1x40x4096xf32>
    %4684 = linalg.generic {indexing_maps = [#map1, #map1, #map1], iterator_types = ["parallel", "parallel", "parallel"]} ins(%4674, %4683 : tensor<1x40x4096xf32>, tensor<1x40x4096xf32>) outs(%4681 : tensor<1x40x4096xf32>) {
    ^bb0(%in: f32, %in_1922: f32, %out: f32):
      %4844 = arith.mulf %in, %in_1922 : f32
      linalg.yield %4844 : f32
    } -> tensor<1x40x4096xf32>
    %4685 = tensor.empty() : tensor<1x40x4096xf32>
    %4686 = tensor.empty() : tensor<1x40x4096xf32>
    %4687 = linalg.generic {indexing_maps = [#map8, #map1], iterator_types = ["parallel", "parallel", "parallel"]} ins(%extracted_slice_61 : tensor<4096xf32>) outs(%4686 : tensor<1x40x4096xf32>) {
    ^bb0(%in: f32, %out: f32):
      linalg.yield %in : f32
    } -> tensor<1x40x4096xf32>
    %4688 = linalg.generic {indexing_maps = [#map1, #map1, #map1], iterator_types = ["parallel", "parallel", "parallel"]} ins(%4687, %4684 : tensor<1x40x4096xf32>, tensor<1x40x4096xf32>) outs(%4685 : tensor<1x40x4096xf32>) {
    ^bb0(%in: f32, %in_1922: f32, %out: f32):
      %4844 = arith.mulf %in, %in_1922 : f32
      linalg.yield %4844 : f32
    } -> tensor<1x40x4096xf32>
    %4689 = tensor.empty() : tensor<4096x4096xf32>
    %4690 = linalg.generic {indexing_maps = [#map4, #map9], iterator_types = ["parallel", "parallel"]} ins(%expanded_500 : tensor<4096x4096xf32>) outs(%4689 : tensor<4096x4096xf32>) {
    ^bb0(%in: f32, %out: f32):
      linalg.yield %in : f32
    } -> tensor<4096x4096xf32>
    %4691 = tosa.reshape %4688 {new_shape = array<i64: 40, 4096>} : (tensor<1x40x4096xf32>) -> tensor<40x4096xf32>
    %cst_1884 = arith.constant dense<0.000000e+00> : tensor<40x4096xf32>
    %4692 = linalg.matmul {cast = #linalg.type_fn<cast_signed>} ins(%4691, %4690 : tensor<40x4096xf32>, tensor<4096x4096xf32>) outs(%cst_1884 : tensor<40x4096xf32>) -> tensor<40x4096xf32>
    %4693 = tosa.reshape %4692 {new_shape = array<i64: 1, 40, 4096>} : (tensor<40x4096xf32>) -> tensor<1x40x4096xf32>
    %4694 = tensor.empty() : tensor<4096x4096xf32>
    %4695 = linalg.generic {indexing_maps = [#map4, #map9], iterator_types = ["parallel", "parallel"]} ins(%expanded_502 : tensor<4096x4096xf32>) outs(%4694 : tensor<4096x4096xf32>) {
    ^bb0(%in: f32, %out: f32):
      linalg.yield %in : f32
    } -> tensor<4096x4096xf32>
    %4696 = tosa.reshape %4688 {new_shape = array<i64: 40, 4096>} : (tensor<1x40x4096xf32>) -> tensor<40x4096xf32>
    %cst_1885 = arith.constant dense<0.000000e+00> : tensor<40x4096xf32>
    %4697 = linalg.matmul {cast = #linalg.type_fn<cast_signed>} ins(%4696, %4695 : tensor<40x4096xf32>, tensor<4096x4096xf32>) outs(%cst_1885 : tensor<40x4096xf32>) -> tensor<40x4096xf32>
    %4698 = tosa.reshape %4697 {new_shape = array<i64: 1, 40, 4096>} : (tensor<40x4096xf32>) -> tensor<1x40x4096xf32>
    %4699 = tensor.empty() : tensor<4096x4096xf32>
    %4700 = linalg.generic {indexing_maps = [#map4, #map9], iterator_types = ["parallel", "parallel"]} ins(%expanded_504 : tensor<4096x4096xf32>) outs(%4699 : tensor<4096x4096xf32>) {
    ^bb0(%in: f32, %out: f32):
      linalg.yield %in : f32
    } -> tensor<4096x4096xf32>
    %4701 = tosa.reshape %4688 {new_shape = array<i64: 40, 4096>} : (tensor<1x40x4096xf32>) -> tensor<40x4096xf32>
    %cst_1886 = arith.constant dense<0.000000e+00> : tensor<40x4096xf32>
    %4702 = linalg.matmul {cast = #linalg.type_fn<cast_signed>} ins(%4701, %4700 : tensor<40x4096xf32>, tensor<4096x4096xf32>) outs(%cst_1886 : tensor<40x4096xf32>) -> tensor<40x4096xf32>
    %4703 = tosa.reshape %4702 {new_shape = array<i64: 1, 40, 4096>} : (tensor<40x4096xf32>) -> tensor<1x40x4096xf32>
    %4704 = tosa.reshape %4693 {new_shape = array<i64: 1, 40, 32, 128>} : (tensor<1x40x4096xf32>) -> tensor<1x40x32x128xf32>
    %4705 = tensor.empty() : tensor<1x32x40x128xf32>
    %4706 = linalg.generic {indexing_maps = [#map10, #map5], iterator_types = ["parallel", "parallel", "parallel", "parallel"]} ins(%4704 : tensor<1x40x32x128xf32>) outs(%4705 : tensor<1x32x40x128xf32>) {
    ^bb0(%in: f32, %out: f32):
      linalg.yield %in : f32
    } -> tensor<1x32x40x128xf32>
    %4707 = tosa.reshape %4698 {new_shape = array<i64: 1, 40, 32, 128>} : (tensor<1x40x4096xf32>) -> tensor<1x40x32x128xf32>
    %4708 = tensor.empty() : tensor<1x32x40x128xf32>
    %4709 = linalg.generic {indexing_maps = [#map10, #map5], iterator_types = ["parallel", "parallel", "parallel", "parallel"]} ins(%4707 : tensor<1x40x32x128xf32>) outs(%4708 : tensor<1x32x40x128xf32>) {
    ^bb0(%in: f32, %out: f32):
      linalg.yield %in : f32
    } -> tensor<1x32x40x128xf32>
    %4710 = tosa.reshape %4703 {new_shape = array<i64: 1, 40, 32, 128>} : (tensor<1x40x4096xf32>) -> tensor<1x40x32x128xf32>
    %4711 = tensor.empty() : tensor<1x32x40x128xf32>
    %4712 = linalg.generic {indexing_maps = [#map10, #map5], iterator_types = ["parallel", "parallel", "parallel", "parallel"]} ins(%4710 : tensor<1x40x32x128xf32>) outs(%4711 : tensor<1x32x40x128xf32>) {
    ^bb0(%in: f32, %out: f32):
      linalg.yield %in : f32
    } -> tensor<1x32x40x128xf32>
    %extracted_slice_1887 = tensor.extract_slice %expanded_640[0, 0, 0, 0] [1, 1, 2048, 128] [1, 1, 1, 1] : tensor<1x1x2048x128xf32> to tensor<1x1x2048x128xf32>
    %extracted_slice_1888 = tensor.extract_slice %extracted_slice_1887[0, 0, 0, 0] [1, 1, 2048, 128] [1, 1, 1, 1] : tensor<1x1x2048x128xf32> to tensor<1x1x2048x128xf32>
    %extracted_slice_1889 = tensor.extract_slice %extracted_slice_1888[0, 0, 0, 0] [1, 1, 40, 128] [1, 1, 1, 1] : tensor<1x1x2048x128xf32> to tensor<1x1x40x128xf32>
    %extracted_slice_1890 = tensor.extract_slice %expanded_642[0, 0, 0, 0] [1, 1, 2048, 128] [1, 1, 1, 1] : tensor<1x1x2048x128xf32> to tensor<1x1x2048x128xf32>
    %extracted_slice_1891 = tensor.extract_slice %extracted_slice_1890[0, 0, 0, 0] [1, 1, 2048, 128] [1, 1, 1, 1] : tensor<1x1x2048x128xf32> to tensor<1x1x2048x128xf32>
    %extracted_slice_1892 = tensor.extract_slice %extracted_slice_1891[0, 0, 0, 0] [1, 1, 40, 128] [1, 1, 1, 1] : tensor<1x1x2048x128xf32> to tensor<1x1x40x128xf32>
    %4713 = tensor.empty() : tensor<1x40x128xf32>
    %4714 = linalg.generic {indexing_maps = [#map11, #map1], iterator_types = ["parallel", "parallel", "parallel"]} ins(%extracted_slice_1889 : tensor<1x1x40x128xf32>) outs(%4713 : tensor<1x40x128xf32>) {
    ^bb0(%in: f32, %out: f32):
      linalg.yield %in : f32
    } -> tensor<1x40x128xf32>
    %4715 = tensor.empty() : tensor<40x128xf32>
    %4716 = linalg.generic {indexing_maps = [#map12, #map4], iterator_types = ["parallel", "parallel"]} ins(%4714 : tensor<1x40x128xf32>) outs(%4715 : tensor<40x128xf32>) {
    ^bb0(%in: f32, %out: f32):
      linalg.yield %in : f32
    } -> tensor<40x128xf32>
    %4717 = tensor.empty() : tensor<1x40x128xf32>
    %4718 = linalg.generic {indexing_maps = [#map11, #map1], iterator_types = ["parallel", "parallel", "parallel"]} ins(%extracted_slice_1892 : tensor<1x1x40x128xf32>) outs(%4717 : tensor<1x40x128xf32>) {
    ^bb0(%in: f32, %out: f32):
      linalg.yield %in : f32
    } -> tensor<1x40x128xf32>
    %4719 = tensor.empty() : tensor<40x128xf32>
    %4720 = linalg.generic {indexing_maps = [#map12, #map4], iterator_types = ["parallel", "parallel"]} ins(%4718 : tensor<1x40x128xf32>) outs(%4719 : tensor<40x128xf32>) {
    ^bb0(%in: f32, %out: f32):
      linalg.yield %in : f32
    } -> tensor<40x128xf32>
    %4721 = tensor.empty() : tensor<1x40x128xf32>
    %4722 = linalg.generic {indexing_maps = [#map, #map1], iterator_types = ["parallel", "parallel", "parallel"]} ins(%1 : tensor<1x40xi64>) outs(%4721 : tensor<1x40x128xf32>) {
    ^bb0(%in: i64, %out: f32):
      %4844 = arith.index_cast %in : i64 to index
      %4845 = linalg.index 2 : index
      %extracted = tensor.extract %4716[%4844, %4845] : tensor<40x128xf32>
      linalg.yield %extracted : f32
    } -> tensor<1x40x128xf32>
    %4723 = tosa.reshape %4722 {new_shape = array<i64: 1, 1, 40, 128>} : (tensor<1x40x128xf32>) -> tensor<1x1x40x128xf32>
    %4724 = tensor.empty() : tensor<1x40x128xf32>
    %4725 = linalg.generic {indexing_maps = [#map, #map1], iterator_types = ["parallel", "parallel", "parallel"]} ins(%1 : tensor<1x40xi64>) outs(%4724 : tensor<1x40x128xf32>) {
    ^bb0(%in: i64, %out: f32):
      %4844 = arith.index_cast %in : i64 to index
      %4845 = linalg.index 2 : index
      %extracted = tensor.extract %4720[%4844, %4845] : tensor<40x128xf32>
      linalg.yield %extracted : f32
    } -> tensor<1x40x128xf32>
    %4726 = tosa.reshape %4725 {new_shape = array<i64: 1, 1, 40, 128>} : (tensor<1x40x128xf32>) -> tensor<1x1x40x128xf32>
    %4727 = tensor.empty() : tensor<1x32x40x128xf32>
    %4728 = tensor.empty() : tensor<1x32x40x128xf32>
    %4729 = linalg.generic {indexing_maps = [#map13, #map14], iterator_types = ["parallel", "parallel", "parallel", "parallel", "reduction"]} ins(%4723 : tensor<1x1x40x128xf32>) outs(%4728 : tensor<1x32x40x128xf32>) {
    ^bb0(%in: f32, %out: f32):
      linalg.yield %in : f32
    } -> tensor<1x32x40x128xf32>
    %4730 = linalg.generic {indexing_maps = [#map5, #map5, #map5], iterator_types = ["parallel", "parallel", "parallel", "parallel"]} ins(%4706, %4729 : tensor<1x32x40x128xf32>, tensor<1x32x40x128xf32>) outs(%4727 : tensor<1x32x40x128xf32>) {
    ^bb0(%in: f32, %in_1922: f32, %out: f32):
      %4844 = arith.mulf %in, %in_1922 : f32
      linalg.yield %4844 : f32
    } -> tensor<1x32x40x128xf32>
    %extracted_slice_1893 = tensor.extract_slice %4706[0, 0, 0, 0] [1, 32, 40, 64] [1, 1, 1, 1] : tensor<1x32x40x128xf32> to tensor<1x32x40x64xf32>
    %extracted_slice_1894 = tensor.extract_slice %4706[0, 0, 0, 64] [1, 32, 40, 64] [1, 1, 1, 1] : tensor<1x32x40x128xf32> to tensor<1x32x40x64xf32>
    %4731 = tensor.empty() : tensor<1x32x40x64xf32>
    %4732 = linalg.generic {indexing_maps = [#map5, #map5], iterator_types = ["parallel", "parallel", "parallel", "parallel"]} ins(%extracted_slice_1894 : tensor<1x32x40x64xf32>) outs(%4731 : tensor<1x32x40x64xf32>) {
    ^bb0(%in: f32, %out: f32):
      %4844 = arith.negf %in : f32
      linalg.yield %4844 : f32
    } -> tensor<1x32x40x64xf32>
    %4733 = tensor.empty() : tensor<1x32x40x128xf32>
    %inserted_slice_1895 = tensor.insert_slice %4732 into %4733[0, 0, 0, 0] [1, 32, 40, 64] [1, 1, 1, 1] : tensor<1x32x40x64xf32> into tensor<1x32x40x128xf32>
    %inserted_slice_1896 = tensor.insert_slice %extracted_slice_1893 into %inserted_slice_1895[0, 0, 0, 64] [1, 32, 40, 64] [1, 1, 1, 1] : tensor<1x32x40x64xf32> into tensor<1x32x40x128xf32>
    %4734 = tensor.empty() : tensor<1x32x40x128xf32>
    %4735 = tensor.empty() : tensor<1x32x40x128xf32>
    %4736 = linalg.generic {indexing_maps = [#map13, #map14], iterator_types = ["parallel", "parallel", "parallel", "parallel", "reduction"]} ins(%4726 : tensor<1x1x40x128xf32>) outs(%4735 : tensor<1x32x40x128xf32>) {
    ^bb0(%in: f32, %out: f32):
      linalg.yield %in : f32
    } -> tensor<1x32x40x128xf32>
    %4737 = linalg.generic {indexing_maps = [#map5, #map5, #map5], iterator_types = ["parallel", "parallel", "parallel", "parallel"]} ins(%inserted_slice_1896, %4736 : tensor<1x32x40x128xf32>, tensor<1x32x40x128xf32>) outs(%4734 : tensor<1x32x40x128xf32>) {
    ^bb0(%in: f32, %in_1922: f32, %out: f32):
      %4844 = arith.mulf %in, %in_1922 : f32
      linalg.yield %4844 : f32
    } -> tensor<1x32x40x128xf32>
    %4738 = tosa.add %4730, %4737 : (tensor<1x32x40x128xf32>, tensor<1x32x40x128xf32>) -> tensor<1x32x40x128xf32>
    %4739 = tensor.empty() : tensor<1x32x40x128xf32>
    %4740 = tensor.empty() : tensor<1x32x40x128xf32>
    %4741 = linalg.generic {indexing_maps = [#map13, #map14], iterator_types = ["parallel", "parallel", "parallel", "parallel", "reduction"]} ins(%4723 : tensor<1x1x40x128xf32>) outs(%4740 : tensor<1x32x40x128xf32>) {
    ^bb0(%in: f32, %out: f32):
      linalg.yield %in : f32
    } -> tensor<1x32x40x128xf32>
    %4742 = linalg.generic {indexing_maps = [#map5, #map5, #map5], iterator_types = ["parallel", "parallel", "parallel", "parallel"]} ins(%4709, %4741 : tensor<1x32x40x128xf32>, tensor<1x32x40x128xf32>) outs(%4739 : tensor<1x32x40x128xf32>) {
    ^bb0(%in: f32, %in_1922: f32, %out: f32):
      %4844 = arith.mulf %in, %in_1922 : f32
      linalg.yield %4844 : f32
    } -> tensor<1x32x40x128xf32>
    %extracted_slice_1897 = tensor.extract_slice %4709[0, 0, 0, 0] [1, 32, 40, 64] [1, 1, 1, 1] : tensor<1x32x40x128xf32> to tensor<1x32x40x64xf32>
    %extracted_slice_1898 = tensor.extract_slice %4709[0, 0, 0, 64] [1, 32, 40, 64] [1, 1, 1, 1] : tensor<1x32x40x128xf32> to tensor<1x32x40x64xf32>
    %4743 = tensor.empty() : tensor<1x32x40x64xf32>
    %4744 = linalg.generic {indexing_maps = [#map5, #map5], iterator_types = ["parallel", "parallel", "parallel", "parallel"]} ins(%extracted_slice_1898 : tensor<1x32x40x64xf32>) outs(%4743 : tensor<1x32x40x64xf32>) {
    ^bb0(%in: f32, %out: f32):
      %4844 = arith.negf %in : f32
      linalg.yield %4844 : f32
    } -> tensor<1x32x40x64xf32>
    %4745 = tensor.empty() : tensor<1x32x40x128xf32>
    %inserted_slice_1899 = tensor.insert_slice %4744 into %4745[0, 0, 0, 0] [1, 32, 40, 64] [1, 1, 1, 1] : tensor<1x32x40x64xf32> into tensor<1x32x40x128xf32>
    %inserted_slice_1900 = tensor.insert_slice %extracted_slice_1897 into %inserted_slice_1899[0, 0, 0, 64] [1, 32, 40, 64] [1, 1, 1, 1] : tensor<1x32x40x64xf32> into tensor<1x32x40x128xf32>
    %4746 = tensor.empty() : tensor<1x32x40x128xf32>
    %4747 = tensor.empty() : tensor<1x32x40x128xf32>
    %4748 = linalg.generic {indexing_maps = [#map13, #map14], iterator_types = ["parallel", "parallel", "parallel", "parallel", "reduction"]} ins(%4726 : tensor<1x1x40x128xf32>) outs(%4747 : tensor<1x32x40x128xf32>) {
    ^bb0(%in: f32, %out: f32):
      linalg.yield %in : f32
    } -> tensor<1x32x40x128xf32>
    %4749 = linalg.generic {indexing_maps = [#map5, #map5, #map5], iterator_types = ["parallel", "parallel", "parallel", "parallel"]} ins(%inserted_slice_1900, %4748 : tensor<1x32x40x128xf32>, tensor<1x32x40x128xf32>) outs(%4746 : tensor<1x32x40x128xf32>) {
    ^bb0(%in: f32, %in_1922: f32, %out: f32):
      %4844 = arith.mulf %in, %in_1922 : f32
      linalg.yield %4844 : f32
    } -> tensor<1x32x40x128xf32>
    %4750 = tosa.add %4742, %4749 : (tensor<1x32x40x128xf32>, tensor<1x32x40x128xf32>) -> tensor<1x32x40x128xf32>
    %4751 = tensor.empty() : tensor<1x32x128x40xf32>
    %4752 = linalg.generic {indexing_maps = [#map15, #map5], iterator_types = ["parallel", "parallel", "parallel", "parallel"]} ins(%4750 : tensor<1x32x40x128xf32>) outs(%4751 : tensor<1x32x128x40xf32>) {
    ^bb0(%in: f32, %out: f32):
      linalg.yield %in : f32
    } -> tensor<1x32x128x40xf32>
    %4753 = tensor.empty() : tensor<1x32x40x128xf32>
    %extracted_slice_1901 = tensor.extract_slice %4738[0, 0, 0, 0] [1, 32, 40, 128] [1, 1, 1, 1] : tensor<1x32x40x128xf32> to tensor<1x32x40x128xf32>
    %inserted_slice_1902 = tensor.insert_slice %extracted_slice_1901 into %4753[0, 0, 0, 0] [1, 32, 40, 128] [1, 1, 1, 1] : tensor<1x32x40x128xf32> into tensor<1x32x40x128xf32>
    %4754 = tosa.reshape %inserted_slice_1902 {new_shape = array<i64: 32, 40, 128>} : (tensor<1x32x40x128xf32>) -> tensor<32x40x128xf32>
    %4755 = tensor.empty() : tensor<1x32x128x40xf32>
    %extracted_slice_1903 = tensor.extract_slice %4752[0, 0, 0, 0] [1, 32, 128, 40] [1, 1, 1, 1] : tensor<1x32x128x40xf32> to tensor<1x32x128x40xf32>
    %inserted_slice_1904 = tensor.insert_slice %extracted_slice_1903 into %4755[0, 0, 0, 0] [1, 32, 128, 40] [1, 1, 1, 1] : tensor<1x32x128x40xf32> into tensor<1x32x128x40xf32>
    %4756 = tosa.reshape %inserted_slice_1904 {new_shape = array<i64: 32, 128, 40>} : (tensor<1x32x128x40xf32>) -> tensor<32x128x40xf32>
    %4757 = tensor.empty() : tensor<32x40x40xf32>
    %4758 = linalg.generic {indexing_maps = [#map1], iterator_types = ["parallel", "parallel", "parallel"]} outs(%4757 : tensor<32x40x40xf32>) {
    ^bb0(%out: f32):
      %cst_1922 = arith.constant 0.000000e+00 : f32
      linalg.yield %cst_1922 : f32
    } -> tensor<32x40x40xf32>
    %4759 = linalg.batch_matmul ins(%4754, %4756 : tensor<32x40x128xf32>, tensor<32x128x40xf32>) outs(%4758 : tensor<32x40x40xf32>) -> tensor<32x40x40xf32>
    %4760 = tosa.reshape %4759 {new_shape = array<i64: 1, 32, 40, 40>} : (tensor<32x40x40xf32>) -> tensor<1x32x40x40xf32>
    %cst_1905 = arith.constant 11.3137083 : f32
    %4761 = tensor.empty() : tensor<1x32x40x40xf32>
    %4762 = linalg.generic {indexing_maps = [#map5, #map5], iterator_types = ["parallel", "parallel", "parallel", "parallel"]} ins(%4760 : tensor<1x32x40x40xf32>) outs(%4761 : tensor<1x32x40x40xf32>) {
    ^bb0(%in: f32, %out: f32):
      %4844 = arith.divf %in, %cst_1905 : f32
      linalg.yield %4844 : f32
    } -> tensor<1x32x40x40xf32>
    %4763 = tosa.add %4762, %24 : (tensor<1x32x40x40xf32>, tensor<1x1x40x40xf32>) -> tensor<1x32x40x40xf32>
    %4764 = tensor.empty() : tensor<1x32x40x1xf32>
    %4765 = linalg.generic {indexing_maps = [#map5], iterator_types = ["parallel", "parallel", "parallel", "parallel"]} outs(%4764 : tensor<1x32x40x1xf32>) {
    ^bb0(%out: f32):
      %cst_1922 = arith.constant 0xFF800000 : f32
      linalg.yield %cst_1922 : f32
    } -> tensor<1x32x40x1xf32>
    %4766 = linalg.generic {indexing_maps = [#map5, #map16], iterator_types = ["parallel", "parallel", "parallel", "reduction"]} ins(%4763 : tensor<1x32x40x40xf32>) outs(%4765 : tensor<1x32x40x1xf32>) {
    ^bb0(%in: f32, %out: f32):
      %4844 = arith.maximumf %in, %out : f32
      linalg.yield %4844 : f32
    } -> tensor<1x32x40x1xf32>
    %4767 = tensor.empty() : tensor<1x32x40x40xf32>
    %4768 = linalg.generic {indexing_maps = [#map5, #map16, #map5], iterator_types = ["parallel", "parallel", "parallel", "parallel"]} ins(%4763, %4766 : tensor<1x32x40x40xf32>, tensor<1x32x40x1xf32>) outs(%4767 : tensor<1x32x40x40xf32>) {
    ^bb0(%in: f32, %in_1922: f32, %out: f32):
      %4844 = arith.subf %in, %in_1922 : f32
      %4845 = math.exp %4844 : f32
      linalg.yield %4845 : f32
    } -> tensor<1x32x40x40xf32>
    %4769 = tensor.empty() : tensor<1x32x40x1xf32>
    %4770 = linalg.generic {indexing_maps = [#map5], iterator_types = ["parallel", "parallel", "parallel", "parallel"]} outs(%4769 : tensor<1x32x40x1xf32>) {
    ^bb0(%out: f32):
      %cst_1922 = arith.constant 0.000000e+00 : f32
      linalg.yield %cst_1922 : f32
    } -> tensor<1x32x40x1xf32>
    %4771 = linalg.generic {indexing_maps = [#map5, #map16], iterator_types = ["parallel", "parallel", "parallel", "reduction"]} ins(%4768 : tensor<1x32x40x40xf32>) outs(%4770 : tensor<1x32x40x1xf32>) {
    ^bb0(%in: f32, %out: f32):
      %4844 = arith.addf %in, %out : f32
      linalg.yield %4844 : f32
    } -> tensor<1x32x40x1xf32>
    %4772 = tensor.empty() : tensor<1x32x40x40xf32>
    %4773 = linalg.generic {indexing_maps = [#map5, #map16, #map5], iterator_types = ["parallel", "parallel", "parallel", "parallel"]} ins(%4768, %4771 : tensor<1x32x40x40xf32>, tensor<1x32x40x1xf32>) outs(%4772 : tensor<1x32x40x40xf32>) {
    ^bb0(%in: f32, %in_1922: f32, %out: f32):
      %4844 = arith.divf %in, %in_1922 : f32
      linalg.yield %4844 : f32
    } -> tensor<1x32x40x40xf32>
    %4774 = tensor.empty() : tensor<1x32x40x40xf32>
    %extracted_slice_1906 = tensor.extract_slice %4773[0, 0, 0, 0] [1, 32, 40, 40] [1, 1, 1, 1] : tensor<1x32x40x40xf32> to tensor<1x32x40x40xf32>
    %inserted_slice_1907 = tensor.insert_slice %extracted_slice_1906 into %4774[0, 0, 0, 0] [1, 32, 40, 40] [1, 1, 1, 1] : tensor<1x32x40x40xf32> into tensor<1x32x40x40xf32>
    %4775 = tosa.reshape %inserted_slice_1907 {new_shape = array<i64: 32, 40, 40>} : (tensor<1x32x40x40xf32>) -> tensor<32x40x40xf32>
    %4776 = tensor.empty() : tensor<1x32x40x128xf32>
    %extracted_slice_1908 = tensor.extract_slice %4712[0, 0, 0, 0] [1, 32, 40, 128] [1, 1, 1, 1] : tensor<1x32x40x128xf32> to tensor<1x32x40x128xf32>
    %inserted_slice_1909 = tensor.insert_slice %extracted_slice_1908 into %4776[0, 0, 0, 0] [1, 32, 40, 128] [1, 1, 1, 1] : tensor<1x32x40x128xf32> into tensor<1x32x40x128xf32>
    %4777 = tosa.reshape %inserted_slice_1909 {new_shape = array<i64: 32, 40, 128>} : (tensor<1x32x40x128xf32>) -> tensor<32x40x128xf32>
    %4778 = tensor.empty() : tensor<32x40x128xf32>
    %4779 = linalg.generic {indexing_maps = [#map1], iterator_types = ["parallel", "parallel", "parallel"]} outs(%4778 : tensor<32x40x128xf32>) {
    ^bb0(%out: f32):
      %cst_1922 = arith.constant 0.000000e+00 : f32
      linalg.yield %cst_1922 : f32
    } -> tensor<32x40x128xf32>
    %4780 = linalg.batch_matmul ins(%4775, %4777 : tensor<32x40x40xf32>, tensor<32x40x128xf32>) outs(%4779 : tensor<32x40x128xf32>) -> tensor<32x40x128xf32>
    %4781 = tosa.reshape %4780 {new_shape = array<i64: 1, 32, 40, 128>} : (tensor<32x40x128xf32>) -> tensor<1x32x40x128xf32>
    %4782 = tensor.empty() : tensor<1x40x32x128xf32>
    %4783 = linalg.generic {indexing_maps = [#map10, #map5], iterator_types = ["parallel", "parallel", "parallel", "parallel"]} ins(%4781 : tensor<1x32x40x128xf32>) outs(%4782 : tensor<1x40x32x128xf32>) {
    ^bb0(%in: f32, %out: f32):
      linalg.yield %in : f32
    } -> tensor<1x40x32x128xf32>
    %extracted_slice_1910 = tensor.extract_slice %4783[0, 0, 0, 0] [1, 40, 32, 128] [1, 1, 1, 1] : tensor<1x40x32x128xf32> to tensor<1x40x32x128xf32>
    %4784 = tosa.reshape %extracted_slice_1910 {new_shape = array<i64: 1, 40, 4096>} : (tensor<1x40x32x128xf32>) -> tensor<1x40x4096xf32>
    %4785 = tensor.empty() : tensor<4096x4096xf32>
    %4786 = linalg.generic {indexing_maps = [#map4, #map9], iterator_types = ["parallel", "parallel"]} ins(%expanded_506 : tensor<4096x4096xf32>) outs(%4785 : tensor<4096x4096xf32>) {
    ^bb0(%in: f32, %out: f32):
      linalg.yield %in : f32
    } -> tensor<4096x4096xf32>
    %4787 = tosa.reshape %4784 {new_shape = array<i64: 40, 4096>} : (tensor<1x40x4096xf32>) -> tensor<40x4096xf32>
    %cst_1911 = arith.constant dense<0.000000e+00> : tensor<40x4096xf32>
    %4788 = linalg.matmul {cast = #linalg.type_fn<cast_signed>} ins(%4787, %4786 : tensor<40x4096xf32>, tensor<4096x4096xf32>) outs(%cst_1911 : tensor<40x4096xf32>) -> tensor<40x4096xf32>
    %4789 = tosa.reshape %4788 {new_shape = array<i64: 1, 40, 4096>} : (tensor<40x4096xf32>) -> tensor<1x40x4096xf32>
    %4790 = tosa.add %4674, %4789 : (tensor<1x40x4096xf32>, tensor<1x40x4096xf32>) -> tensor<1x40x4096xf32>
    %4791 = tensor.empty() : tensor<1x40x4096xf32>
    %c2_i32_1912 = arith.constant 2 : i32
    %4792 = linalg.generic {indexing_maps = [#map1, #map1], iterator_types = ["parallel", "parallel", "parallel"]} ins(%4790 : tensor<1x40x4096xf32>) outs(%4791 : tensor<1x40x4096xf32>) {
    ^bb0(%in: f32, %out: f32):
      %4844 = math.fpowi %in, %c2_i32_1912 : f32, i32
      linalg.yield %4844 : f32
    } -> tensor<1x40x4096xf32>
    %cst_1913 = arith.constant dense<0.000000e+00> : tensor<1x40x1xf32>
    %4793 = linalg.generic {indexing_maps = [#map6, #map7], iterator_types = ["parallel", "parallel", "reduction", "parallel"]} ins(%4792 : tensor<1x40x4096xf32>) outs(%cst_1913 : tensor<1x40x1xf32>) {
    ^bb0(%in: f32, %out: f32):
      %cst_1922 = arith.constant 4.096000e+03 : f32
      %4844 = arith.divf %in, %cst_1922 : f32
      %4845 = arith.addf %4844, %out : f32
      linalg.yield %4845 : f32
    } -> tensor<1x40x1xf32>
    %cst_1914 = arith.constant dense<9.99999997E-7> : tensor<f32>
    %4794 = tosa.add %4793, %cst_1914 : (tensor<1x40x1xf32>, tensor<f32>) -> tensor<1x40x1xf32>
    %4795 = tensor.empty() : tensor<1x40x1xf32>
    %4796 = linalg.generic {indexing_maps = [#map1, #map1], iterator_types = ["parallel", "parallel", "parallel"]} ins(%4794 : tensor<1x40x1xf32>) outs(%4795 : tensor<1x40x1xf32>) {
    ^bb0(%in: f32, %out: f32):
      %4844 = math.rsqrt %in : f32
      linalg.yield %4844 : f32
    } -> tensor<1x40x1xf32>
    %4797 = tensor.empty() : tensor<1x40x4096xf32>
    %4798 = tensor.empty() : tensor<1x40x4096xf32>
    %4799 = linalg.generic {indexing_maps = [#map7, #map6], iterator_types = ["parallel", "parallel", "parallel", "reduction"]} ins(%4796 : tensor<1x40x1xf32>) outs(%4798 : tensor<1x40x4096xf32>) {
    ^bb0(%in: f32, %out: f32):
      linalg.yield %in : f32
    } -> tensor<1x40x4096xf32>
    %4800 = linalg.generic {indexing_maps = [#map1, #map1, #map1], iterator_types = ["parallel", "parallel", "parallel"]} ins(%4790, %4799 : tensor<1x40x4096xf32>, tensor<1x40x4096xf32>) outs(%4797 : tensor<1x40x4096xf32>) {
    ^bb0(%in: f32, %in_1922: f32, %out: f32):
      %4844 = arith.mulf %in, %in_1922 : f32
      linalg.yield %4844 : f32
    } -> tensor<1x40x4096xf32>
    %4801 = tensor.empty() : tensor<1x40x4096xf32>
    %4802 = tensor.empty() : tensor<1x40x4096xf32>
    %4803 = linalg.generic {indexing_maps = [#map8, #map1], iterator_types = ["parallel", "parallel", "parallel"]} ins(%extracted_slice_62 : tensor<4096xf32>) outs(%4802 : tensor<1x40x4096xf32>) {
    ^bb0(%in: f32, %out: f32):
      linalg.yield %in : f32
    } -> tensor<1x40x4096xf32>
    %4804 = linalg.generic {indexing_maps = [#map1, #map1, #map1], iterator_types = ["parallel", "parallel", "parallel"]} ins(%4803, %4800 : tensor<1x40x4096xf32>, tensor<1x40x4096xf32>) outs(%4801 : tensor<1x40x4096xf32>) {
    ^bb0(%in: f32, %in_1922: f32, %out: f32):
      %4844 = arith.mulf %in, %in_1922 : f32
      linalg.yield %4844 : f32
    } -> tensor<1x40x4096xf32>
    %4805 = tensor.empty() : tensor<4096x11008xf32>
    %4806 = linalg.generic {indexing_maps = [#map4, #map9], iterator_types = ["parallel", "parallel"]} ins(%expanded_508 : tensor<11008x4096xf32>) outs(%4805 : tensor<4096x11008xf32>) {
    ^bb0(%in: f32, %out: f32):
      linalg.yield %in : f32
    } -> tensor<4096x11008xf32>
    %4807 = tosa.reshape %4804 {new_shape = array<i64: 40, 4096>} : (tensor<1x40x4096xf32>) -> tensor<40x4096xf32>
    %cst_1915 = arith.constant dense<0.000000e+00> : tensor<40x11008xf32>
    %4808 = linalg.matmul {cast = #linalg.type_fn<cast_signed>} ins(%4807, %4806 : tensor<40x4096xf32>, tensor<4096x11008xf32>) outs(%cst_1915 : tensor<40x11008xf32>) -> tensor<40x11008xf32>
    %4809 = tosa.reshape %4808 {new_shape = array<i64: 1, 40, 11008>} : (tensor<40x11008xf32>) -> tensor<1x40x11008xf32>
    %4810 = tensor.empty() : tensor<1x40x11008xf32>
    %4811 = linalg.generic {indexing_maps = [#map1, #map1], iterator_types = ["parallel", "parallel", "parallel"]} ins(%4809 : tensor<1x40x11008xf32>) outs(%4810 : tensor<1x40x11008xf32>) {
    ^bb0(%in: f32, %out: f32):
      %4844 = arith.negf %in : f32
      %4845 = math.exp %4844 : f32
      %cst_1922 = arith.constant 1.000000e+00 : f32
      %4846 = arith.addf %cst_1922, %4845 : f32
      %4847 = arith.divf %in, %4846 : f32
      linalg.yield %4847 : f32
    } -> tensor<1x40x11008xf32>
    %4812 = tensor.empty() : tensor<4096x11008xf32>
    %4813 = linalg.generic {indexing_maps = [#map4, #map9], iterator_types = ["parallel", "parallel"]} ins(%expanded_510 : tensor<11008x4096xf32>) outs(%4812 : tensor<4096x11008xf32>) {
    ^bb0(%in: f32, %out: f32):
      linalg.yield %in : f32
    } -> tensor<4096x11008xf32>
    %4814 = tosa.reshape %4804 {new_shape = array<i64: 40, 4096>} : (tensor<1x40x4096xf32>) -> tensor<40x4096xf32>
    %cst_1916 = arith.constant dense<0.000000e+00> : tensor<40x11008xf32>
    %4815 = linalg.matmul {cast = #linalg.type_fn<cast_signed>} ins(%4814, %4813 : tensor<40x4096xf32>, tensor<4096x11008xf32>) outs(%cst_1916 : tensor<40x11008xf32>) -> tensor<40x11008xf32>
    %4816 = tosa.reshape %4815 {new_shape = array<i64: 1, 40, 11008>} : (tensor<40x11008xf32>) -> tensor<1x40x11008xf32>
    %4817 = tensor.empty() : tensor<1x40x11008xf32>
    %4818 = linalg.generic {indexing_maps = [#map1, #map1, #map1], iterator_types = ["parallel", "parallel", "parallel"]} ins(%4811, %4816 : tensor<1x40x11008xf32>, tensor<1x40x11008xf32>) outs(%4817 : tensor<1x40x11008xf32>) {
    ^bb0(%in: f32, %in_1922: f32, %out: f32):
      %4844 = arith.mulf %in, %in_1922 : f32
      linalg.yield %4844 : f32
    } -> tensor<1x40x11008xf32>
    %4819 = tensor.empty() : tensor<11008x4096xf32>
    %4820 = linalg.generic {indexing_maps = [#map4, #map9], iterator_types = ["parallel", "parallel"]} ins(%expanded_512 : tensor<4096x11008xf32>) outs(%4819 : tensor<11008x4096xf32>) {
    ^bb0(%in: f32, %out: f32):
      linalg.yield %in : f32
    } -> tensor<11008x4096xf32>
    %4821 = tosa.reshape %4818 {new_shape = array<i64: 40, 11008>} : (tensor<1x40x11008xf32>) -> tensor<40x11008xf32>
    %cst_1917 = arith.constant dense<0.000000e+00> : tensor<40x4096xf32>
    %4822 = linalg.matmul {cast = #linalg.type_fn<cast_signed>} ins(%4821, %4820 : tensor<40x11008xf32>, tensor<11008x4096xf32>) outs(%cst_1917 : tensor<40x4096xf32>) -> tensor<40x4096xf32>
    %4823 = tosa.reshape %4822 {new_shape = array<i64: 1, 40, 4096>} : (tensor<40x4096xf32>) -> tensor<1x40x4096xf32>
    %4824 = tosa.add %4790, %4823 : (tensor<1x40x4096xf32>, tensor<1x40x4096xf32>) -> tensor<1x40x4096xf32>
    %4825 = tensor.empty() : tensor<1x40x4096xf32>
    %c2_i32_1918 = arith.constant 2 : i32
    %4826 = linalg.generic {indexing_maps = [#map1, #map1], iterator_types = ["parallel", "parallel", "parallel"]} ins(%4824 : tensor<1x40x4096xf32>) outs(%4825 : tensor<1x40x4096xf32>) {
    ^bb0(%in: f32, %out: f32):
      %4844 = math.fpowi %in, %c2_i32_1918 : f32, i32
      linalg.yield %4844 : f32
    } -> tensor<1x40x4096xf32>
    %cst_1919 = arith.constant dense<0.000000e+00> : tensor<1x40x1xf32>
    %4827 = linalg.generic {indexing_maps = [#map6, #map7], iterator_types = ["parallel", "parallel", "reduction", "parallel"]} ins(%4826 : tensor<1x40x4096xf32>) outs(%cst_1919 : tensor<1x40x1xf32>) {
    ^bb0(%in: f32, %out: f32):
      %cst_1922 = arith.constant 4.096000e+03 : f32
      %4844 = arith.divf %in, %cst_1922 : f32
      %4845 = arith.addf %4844, %out : f32
      linalg.yield %4845 : f32
    } -> tensor<1x40x1xf32>
    %cst_1920 = arith.constant dense<9.99999997E-7> : tensor<f32>
    %4828 = tosa.add %4827, %cst_1920 : (tensor<1x40x1xf32>, tensor<f32>) -> tensor<1x40x1xf32>
    %4829 = tensor.empty() : tensor<1x40x1xf32>
    %4830 = linalg.generic {indexing_maps = [#map1, #map1], iterator_types = ["parallel", "parallel", "parallel"]} ins(%4828 : tensor<1x40x1xf32>) outs(%4829 : tensor<1x40x1xf32>) {
    ^bb0(%in: f32, %out: f32):
      %4844 = math.rsqrt %in : f32
      linalg.yield %4844 : f32
    } -> tensor<1x40x1xf32>
    %4831 = tensor.empty() : tensor<1x40x4096xf32>
    %4832 = tensor.empty() : tensor<1x40x4096xf32>
    %4833 = linalg.generic {indexing_maps = [#map7, #map6], iterator_types = ["parallel", "parallel", "parallel", "reduction"]} ins(%4830 : tensor<1x40x1xf32>) outs(%4832 : tensor<1x40x4096xf32>) {
    ^bb0(%in: f32, %out: f32):
      linalg.yield %in : f32
    } -> tensor<1x40x4096xf32>
    %4834 = linalg.generic {indexing_maps = [#map1, #map1, #map1], iterator_types = ["parallel", "parallel", "parallel"]} ins(%4824, %4833 : tensor<1x40x4096xf32>, tensor<1x40x4096xf32>) outs(%4831 : tensor<1x40x4096xf32>) {
    ^bb0(%in: f32, %in_1922: f32, %out: f32):
      %4844 = arith.mulf %in, %in_1922 : f32
      linalg.yield %4844 : f32
    } -> tensor<1x40x4096xf32>
    %4835 = tensor.empty() : tensor<1x40x4096xf32>
    %4836 = tensor.empty() : tensor<1x40x4096xf32>
    %4837 = linalg.generic {indexing_maps = [#map8, #map1], iterator_types = ["parallel", "parallel", "parallel"]} ins(%extracted_slice_63 : tensor<4096xf32>) outs(%4836 : tensor<1x40x4096xf32>) {
    ^bb0(%in: f32, %out: f32):
      linalg.yield %in : f32
    } -> tensor<1x40x4096xf32>
    %4838 = linalg.generic {indexing_maps = [#map1, #map1, #map1], iterator_types = ["parallel", "parallel", "parallel"]} ins(%4837, %4834 : tensor<1x40x4096xf32>, tensor<1x40x4096xf32>) outs(%4835 : tensor<1x40x4096xf32>) {
    ^bb0(%in: f32, %in_1922: f32, %out: f32):
      %4844 = arith.mulf %in, %in_1922 : f32
      linalg.yield %4844 : f32
    } -> tensor<1x40x4096xf32>
    %4839 = tensor.empty() : tensor<4096x32000xf32>
    %4840 = linalg.generic {indexing_maps = [#map4, #map9], iterator_types = ["parallel", "parallel"]} ins(%expanded_514 : tensor<32000x4096xf32>) outs(%4839 : tensor<4096x32000xf32>) {
    ^bb0(%in: f32, %out: f32):
      linalg.yield %in : f32
    } -> tensor<4096x32000xf32>
    %4841 = tosa.reshape %4838 {new_shape = array<i64: 40, 4096>} : (tensor<1x40x4096xf32>) -> tensor<40x4096xf32>
    %cst_1921 = arith.constant dense<0.000000e+00> : tensor<40x32000xf32>
    %4842 = linalg.matmul {cast = #linalg.type_fn<cast_signed>} ins(%4841, %4840 : tensor<40x4096xf32>, tensor<4096x32000xf32>) outs(%cst_1921 : tensor<40x32000xf32>) -> tensor<40x32000xf32>
    %4843 = tosa.reshape %4842 {new_shape = array<i64: 1, 40, 32000>} : (tensor<40x32000xf32>) -> tensor<1x40x32000xf32>
    return %4843, %4838 : tensor<1x40x32000xf32>, tensor<1x40x4096xf32>
  }
}

python: /root/buddy-mlir/llvm/llvm/include/llvm/ADT/SmallVector.h:294: T& llvm::SmallVectorTemplateCommon<T, <template-parameter-1-2> >::operator[](llvm::SmallVectorTemplateCommon<T, <template-parameter-1-2> >::size_type) [with T = llvm::SmallVector<long int, 2>; <template-parameter-1-2> = void; llvm::SmallVectorTemplateCommon<T, <template-parameter-1-2> >::reference = llvm::SmallVector<long int, 2>&; llvm::SmallVectorTemplateCommon<T, <template-parameter-1-2> >::size_type = long unsigned int]: Assertion `idx < size()' failed.
