module {
  func.func @forward(%arg0: tensor<4096xf32>, %arg1: tensor<4096xf32>, %arg2: tensor<4096xf32>, %arg3: tensor<4096xf32>, %arg4: tensor<4096xf32>, %arg5: tensor<4096xf32>, %arg6: tensor<4096xf32>, %arg7: tensor<4096xf32>, %arg8: tensor<4096xf32>, %arg9: tensor<4096xf32>, %arg10: tensor<4096xf32>, %arg11: tensor<4096xf32>, %arg12: tensor<4096xf32>, %arg13: tensor<4096xf32>, %arg14: tensor<4096xf32>, %arg15: tensor<4096xf32>, %arg16: tensor<4096xf32>, %arg17: tensor<4096xf32>, %arg18: tensor<4096xf32>, %arg19: tensor<4096xf32>, %arg20: tensor<4096xf32>, %arg21: tensor<4096xf32>, %arg22: tensor<4096xf32>, %arg23: tensor<4096xf32>, %arg24: tensor<4096xf32>, %arg25: tensor<4096xf32>, %arg26: tensor<4096xf32>, %arg27: tensor<4096xf32>, %arg28: tensor<4096xf32>, %arg29: tensor<4096xf32>, %arg30: tensor<4096xf32>, %arg31: tensor<4096xf32>, %arg32: tensor<4096xf32>, %arg33: tensor<4096xf32>, %arg34: tensor<4096xf32>, %arg35: tensor<4096xf32>, %arg36: tensor<4096xf32>, %arg37: tensor<4096xf32>, %arg38: tensor<4096xf32>, %arg39: tensor<4096xf32>, %arg40: tensor<4096xf32>, %arg41: tensor<4096xf32>, %arg42: tensor<4096xf32>, %arg43: tensor<4096xf32>, %arg44: tensor<4096xf32>, %arg45: tensor<4096xf32>, %arg46: tensor<4096xf32>, %arg47: tensor<4096xf32>, %arg48: tensor<4096xf32>, %arg49: tensor<4096xf32>, %arg50: tensor<4096xf32>, %arg51: tensor<4096xf32>, %arg52: tensor<4096xf32>, %arg53: tensor<4096xf32>, %arg54: tensor<4096xf32>, %arg55: tensor<4096xf32>, %arg56: tensor<4096xf32>, %arg57: tensor<4096xf32>, %arg58: tensor<4096xf32>, %arg59: tensor<4096xf32>, %arg60: tensor<4096xf32>, %arg61: tensor<4096xf32>, %arg62: tensor<4096xf32>, %arg63: tensor<4096xf32>, %arg64: tensor<4096xf32>, %arg65: tensor<32000x4096xf32>, %arg66: tensor<4096x4096xf32>, %arg67: tensor<4096x4096xf32>, %arg68: tensor<4096x4096xf32>, %arg69: tensor<4096x4096xf32>, %arg70: tensor<11008x4096xf32>, %arg71: tensor<11008x4096xf32>, %arg72: tensor<4096x11008xf32>, %arg73: tensor<4096x4096xf32>, %arg74: tensor<4096x4096xf32>, %arg75: tensor<4096x4096xf32>, %arg76: tensor<4096x4096xf32>, %arg77: tensor<11008x4096xf32>, %arg78: tensor<11008x4096xf32>, %arg79: tensor<4096x11008xf32>, %arg80: tensor<4096x4096xf32>, %arg81: tensor<4096x4096xf32>, %arg82: tensor<4096x4096xf32>, %arg83: tensor<4096x4096xf32>, %arg84: tensor<11008x4096xf32>, %arg85: tensor<11008x4096xf32>, %arg86: tensor<4096x11008xf32>, %arg87: tensor<4096x4096xf32>, %arg88: tensor<4096x4096xf32>, %arg89: tensor<4096x4096xf32>, %arg90: tensor<4096x4096xf32>, %arg91: tensor<11008x4096xf32>, %arg92: tensor<11008x4096xf32>, %arg93: tensor<4096x11008xf32>, %arg94: tensor<4096x4096xf32>, %arg95: tensor<4096x4096xf32>, %arg96: tensor<4096x4096xf32>, %arg97: tensor<4096x4096xf32>, %arg98: tensor<11008x4096xf32>, %arg99: tensor<11008x4096xf32>, %arg100: tensor<4096x11008xf32>, %arg101: tensor<4096x4096xf32>, %arg102: tensor<4096x4096xf32>, %arg103: tensor<4096x4096xf32>, %arg104: tensor<4096x4096xf32>, %arg105: tensor<11008x4096xf32>, %arg106: tensor<11008x4096xf32>, %arg107: tensor<4096x11008xf32>, %arg108: tensor<4096x4096xf32>, %arg109: tensor<4096x4096xf32>, %arg110: tensor<4096x4096xf32>, %arg111: tensor<4096x4096xf32>, %arg112: tensor<11008x4096xf32>, %arg113: tensor<11008x4096xf32>, %arg114: tensor<4096x11008xf32>, %arg115: tensor<4096x4096xf32>, %arg116: tensor<4096x4096xf32>, %arg117: tensor<4096x4096xf32>, %arg118: tensor<4096x4096xf32>, %arg119: tensor<11008x4096xf32>, %arg120: tensor<11008x4096xf32>, %arg121: tensor<4096x11008xf32>, %arg122: tensor<4096x4096xf32>, %arg123: tensor<4096x4096xf32>, %arg124: tensor<4096x4096xf32>, %arg125: tensor<4096x4096xf32>, %arg126: tensor<11008x4096xf32>, %arg127: tensor<11008x4096xf32>, %arg128: tensor<4096x11008xf32>, %arg129: tensor<4096x4096xf32>, %arg130: tensor<4096x4096xf32>, %arg131: tensor<4096x4096xf32>, %arg132: tensor<4096x4096xf32>, %arg133: tensor<11008x4096xf32>, %arg134: tensor<11008x4096xf32>, %arg135: tensor<4096x11008xf32>, %arg136: tensor<4096x4096xf32>, %arg137: tensor<4096x4096xf32>, %arg138: tensor<4096x4096xf32>, %arg139: tensor<4096x4096xf32>, %arg140: tensor<11008x4096xf32>, %arg141: tensor<11008x4096xf32>, %arg142: tensor<4096x11008xf32>, %arg143: tensor<4096x4096xf32>, %arg144: tensor<4096x4096xf32>, %arg145: tensor<4096x4096xf32>, %arg146: tensor<4096x4096xf32>, %arg147: tensor<11008x4096xf32>, %arg148: tensor<11008x4096xf32>, %arg149: tensor<4096x11008xf32>, %arg150: tensor<4096x4096xf32>, %arg151: tensor<4096x4096xf32>, %arg152: tensor<4096x4096xf32>, %arg153: tensor<4096x4096xf32>, %arg154: tensor<11008x4096xf32>, %arg155: tensor<11008x4096xf32>, %arg156: tensor<4096x11008xf32>, %arg157: tensor<4096x4096xf32>, %arg158: tensor<4096x4096xf32>, %arg159: tensor<4096x4096xf32>, %arg160: tensor<4096x4096xf32>, %arg161: tensor<11008x4096xf32>, %arg162: tensor<11008x4096xf32>, %arg163: tensor<4096x11008xf32>, %arg164: tensor<4096x4096xf32>, %arg165: tensor<4096x4096xf32>, %arg166: tensor<4096x4096xf32>, %arg167: tensor<4096x4096xf32>, %arg168: tensor<11008x4096xf32>, %arg169: tensor<11008x4096xf32>, %arg170: tensor<4096x11008xf32>, %arg171: tensor<4096x4096xf32>, %arg172: tensor<4096x4096xf32>, %arg173: tensor<4096x4096xf32>, %arg174: tensor<4096x4096xf32>, %arg175: tensor<11008x4096xf32>, %arg176: tensor<11008x4096xf32>, %arg177: tensor<4096x11008xf32>, %arg178: tensor<4096x4096xf32>, %arg179: tensor<4096x4096xf32>, %arg180: tensor<4096x4096xf32>, %arg181: tensor<4096x4096xf32>, %arg182: tensor<11008x4096xf32>, %arg183: tensor<11008x4096xf32>, %arg184: tensor<4096x11008xf32>, %arg185: tensor<4096x4096xf32>, %arg186: tensor<4096x4096xf32>, %arg187: tensor<4096x4096xf32>, %arg188: tensor<4096x4096xf32>, %arg189: tensor<11008x4096xf32>, %arg190: tensor<11008x4096xf32>, %arg191: tensor<4096x11008xf32>, %arg192: tensor<4096x4096xf32>, %arg193: tensor<4096x4096xf32>, %arg194: tensor<4096x4096xf32>, %arg195: tensor<4096x4096xf32>, %arg196: tensor<11008x4096xf32>, %arg197: tensor<11008x4096xf32>, %arg198: tensor<4096x11008xf32>, %arg199: tensor<4096x4096xf32>, %arg200: tensor<4096x4096xf32>, %arg201: tensor<4096x4096xf32>, %arg202: tensor<4096x4096xf32>, %arg203: tensor<11008x4096xf32>, %arg204: tensor<11008x4096xf32>, %arg205: tensor<4096x11008xf32>, %arg206: tensor<4096x4096xf32>, %arg207: tensor<4096x4096xf32>, %arg208: tensor<4096x4096xf32>, %arg209: tensor<4096x4096xf32>, %arg210: tensor<11008x4096xf32>, %arg211: tensor<11008x4096xf32>, %arg212: tensor<4096x11008xf32>, %arg213: tensor<4096x4096xf32>, %arg214: tensor<4096x4096xf32>, %arg215: tensor<4096x4096xf32>, %arg216: tensor<4096x4096xf32>, %arg217: tensor<11008x4096xf32>, %arg218: tensor<11008x4096xf32>, %arg219: tensor<4096x11008xf32>, %arg220: tensor<4096x4096xf32>, %arg221: tensor<4096x4096xf32>, %arg222: tensor<4096x4096xf32>, %arg223: tensor<4096x4096xf32>, %arg224: tensor<11008x4096xf32>, %arg225: tensor<11008x4096xf32>, %arg226: tensor<4096x11008xf32>, %arg227: tensor<4096x4096xf32>, %arg228: tensor<4096x4096xf32>, %arg229: tensor<4096x4096xf32>, %arg230: tensor<4096x4096xf32>, %arg231: tensor<11008x4096xf32>, %arg232: tensor<11008x4096xf32>, %arg233: tensor<4096x11008xf32>, %arg234: tensor<4096x4096xf32>, %arg235: tensor<4096x4096xf32>, %arg236: tensor<4096x4096xf32>, %arg237: tensor<4096x4096xf32>, %arg238: tensor<11008x4096xf32>, %arg239: tensor<11008x4096xf32>, %arg240: tensor<4096x11008xf32>, %arg241: tensor<4096x4096xf32>, %arg242: tensor<4096x4096xf32>, %arg243: tensor<4096x4096xf32>, %arg244: tensor<4096x4096xf32>, %arg245: tensor<11008x4096xf32>, %arg246: tensor<11008x4096xf32>, %arg247: tensor<4096x11008xf32>, %arg248: tensor<4096x4096xf32>, %arg249: tensor<4096x4096xf32>, %arg250: tensor<4096x4096xf32>, %arg251: tensor<4096x4096xf32>, %arg252: tensor<11008x4096xf32>, %arg253: tensor<11008x4096xf32>, %arg254: tensor<4096x11008xf32>, %arg255: tensor<4096x4096xf32>, %arg256: tensor<4096x4096xf32>, %arg257: tensor<4096x4096xf32>, %arg258: tensor<4096x4096xf32>, %arg259: tensor<11008x4096xf32>, %arg260: tensor<11008x4096xf32>, %arg261: tensor<4096x11008xf32>, %arg262: tensor<4096x4096xf32>, %arg263: tensor<4096x4096xf32>, %arg264: tensor<4096x4096xf32>, %arg265: tensor<4096x4096xf32>, %arg266: tensor<11008x4096xf32>, %arg267: tensor<11008x4096xf32>, %arg268: tensor<4096x11008xf32>, %arg269: tensor<4096x4096xf32>, %arg270: tensor<4096x4096xf32>, %arg271: tensor<4096x4096xf32>, %arg272: tensor<4096x4096xf32>, %arg273: tensor<11008x4096xf32>, %arg274: tensor<11008x4096xf32>, %arg275: tensor<4096x11008xf32>, %arg276: tensor<4096x4096xf32>, %arg277: tensor<4096x4096xf32>, %arg278: tensor<4096x4096xf32>, %arg279: tensor<4096x4096xf32>, %arg280: tensor<11008x4096xf32>, %arg281: tensor<11008x4096xf32>, %arg282: tensor<4096x11008xf32>, %arg283: tensor<4096x4096xf32>, %arg284: tensor<4096x4096xf32>, %arg285: tensor<4096x4096xf32>, %arg286: tensor<4096x4096xf32>, %arg287: tensor<11008x4096xf32>, %arg288: tensor<11008x4096xf32>, %arg289: tensor<4096x11008xf32>, %arg290: tensor<32000x4096xf32>, %arg291: tensor<1x1x2048x128xf32>, %arg292: tensor<1x1x2048x128xf32>, %arg293: tensor<1x1x2048x128xf32>, %arg294: tensor<1x1x2048x128xf32>, %arg295: tensor<1x1x2048x128xf32>, %arg296: tensor<1x1x2048x128xf32>, %arg297: tensor<1x1x2048x128xf32>, %arg298: tensor<1x1x2048x128xf32>, %arg299: tensor<1x1x2048x128xf32>, %arg300: tensor<1x1x2048x128xf32>, %arg301: tensor<1x1x2048x128xf32>, %arg302: tensor<1x1x2048x128xf32>, %arg303: tensor<1x1x2048x128xf32>, %arg304: tensor<1x1x2048x128xf32>, %arg305: tensor<1x1x2048x128xf32>, %arg306: tensor<1x1x2048x128xf32>, %arg307: tensor<1x1x2048x128xf32>, %arg308: tensor<1x1x2048x128xf32>, %arg309: tensor<1x1x2048x128xf32>, %arg310: tensor<1x1x2048x128xf32>, %arg311: tensor<1x1x2048x128xf32>, %arg312: tensor<1x1x2048x128xf32>, %arg313: tensor<1x1x2048x128xf32>, %arg314: tensor<1x1x2048x128xf32>, %arg315: tensor<1x1x2048x128xf32>, %arg316: tensor<1x1x2048x128xf32>, %arg317: tensor<1x1x2048x128xf32>, %arg318: tensor<1x1x2048x128xf32>, %arg319: tensor<1x1x2048x128xf32>, %arg320: tensor<1x1x2048x128xf32>, %arg321: tensor<1x1x2048x128xf32>, %arg322: tensor<1x1x2048x128xf32>, %arg323: tensor<1x1x2048x128xf32>, %arg324: tensor<1x1x2048x128xf32>, %arg325: tensor<1x1x2048x128xf32>, %arg326: tensor<1x1x2048x128xf32>, %arg327: tensor<1x1x2048x128xf32>, %arg328: tensor<1x1x2048x128xf32>, %arg329: tensor<1x1x2048x128xf32>, %arg330: tensor<1x1x2048x128xf32>, %arg331: tensor<1x1x2048x128xf32>, %arg332: tensor<1x1x2048x128xf32>, %arg333: tensor<1x1x2048x128xf32>, %arg334: tensor<1x1x2048x128xf32>, %arg335: tensor<1x1x2048x128xf32>, %arg336: tensor<1x1x2048x128xf32>, %arg337: tensor<1x1x2048x128xf32>, %arg338: tensor<1x1x2048x128xf32>, %arg339: tensor<1x1x2048x128xf32>, %arg340: tensor<1x1x2048x128xf32>, %arg341: tensor<1x1x2048x128xf32>, %arg342: tensor<1x1x2048x128xf32>, %arg343: tensor<1x1x2048x128xf32>, %arg344: tensor<1x1x2048x128xf32>, %arg345: tensor<1x1x2048x128xf32>, %arg346: tensor<1x1x2048x128xf32>, %arg347: tensor<1x1x2048x128xf32>, %arg348: tensor<1x1x2048x128xf32>, %arg349: tensor<1x1x2048x128xf32>, %arg350: tensor<1x1x2048x128xf32>, %arg351: tensor<1x1x2048x128xf32>, %arg352: tensor<1x1x2048x128xf32>, %arg353: tensor<1x1x2048x128xf32>, %arg354: tensor<1x1x2048x128xf32>, %arg355: tensor<1x13xi64>) -> tensor<13xi64>{
    %cst = arith.constant dense<[0, 1, 2, 3, 4, 5, 6, 7, 8, 9, 10, 11, 12]> : tensor<13xi64>
    %0 = "tosa.reshape"(%cst) {new_shape = array<i64: 1, 13>} : (tensor<13xi64>) -> tensor<1x13xi64>
    %cst_0 = arith.constant dense<[0, 1, 2, 3, 4, 5, 6, 7, 8, 9, 10, 11, 12]> : tensor<13xi64>
    return %cst_0 : tensor<13xi64>
  }
}

