#map = affine_map<(d0, d1, d2) -> (d1)>
#map1 = affine_map<(d0, d1, d2) -> (d0, d2)>
#map2 = affine_map<(d0, d1, d2) -> (d0, d1)>
#map3 = affine_map<(d0, d1) -> (d0, d1)>
#map4 = affine_map<(d0, d1, d2, d3) -> (d0, d1, d2, d3)>
#map5 = affine_map<(d0, d1, d2) -> (d0, d1, d2)>
#map6 = affine_map<(d0, d1, d2, d3) -> (d0, d1, d2)>
#map7 = affine_map<(d0, d1, d2, d3) -> (d0, d1, d3)>
#map8 = affine_map<(d0, d1) -> (d1, d0)>
#map9 = affine_map<(d0, d1, d2, d3) -> (d0, d2, d1, d3)>
#map10 = affine_map<(d0, d1, d2) -> (d0, 0, d1, d2)>
#map11 = affine_map<(d0, d1) -> (0, d0, d1)>
#map12 = affine_map<(d0, d1, d2, d3) -> (d0, d1, d3, d2)>
#map13 = affine_map<(d0, d1, d2, d3) -> (d0, d1, d2, 0)>
module {
  func.func @forward(%arg0: tensor<6755192832xf32>, %arg1: tensor<1x80xi64>) -> tensor<1x80x32000xf32> {
    %extracted_slice = tensor.extract_slice %arg0[0] [4096] [1] : tensor<6755192832xf32> to tensor<4096xf32>
    %extracted_slice_0 = tensor.extract_slice %arg0[4096] [4096] [1] : tensor<6755192832xf32> to tensor<4096xf32>
    %extracted_slice_1 = tensor.extract_slice %arg0[8192] [4096] [1] : tensor<6755192832xf32> to tensor<4096xf32>
    %extracted_slice_2 = tensor.extract_slice %arg0[12288] [4096] [1] : tensor<6755192832xf32> to tensor<4096xf32>
    %extracted_slice_3 = tensor.extract_slice %arg0[16384] [4096] [1] : tensor<6755192832xf32> to tensor<4096xf32>
    %extracted_slice_4 = tensor.extract_slice %arg0[20480] [4096] [1] : tensor<6755192832xf32> to tensor<4096xf32>
    %extracted_slice_5 = tensor.extract_slice %arg0[24576] [4096] [1] : tensor<6755192832xf32> to tensor<4096xf32>
    %extracted_slice_6 = tensor.extract_slice %arg0[28672] [4096] [1] : tensor<6755192832xf32> to tensor<4096xf32>
    %extracted_slice_7 = tensor.extract_slice %arg0[32768] [4096] [1] : tensor<6755192832xf32> to tensor<4096xf32>
    %extracted_slice_8 = tensor.extract_slice %arg0[36864] [4096] [1] : tensor<6755192832xf32> to tensor<4096xf32>
    %extracted_slice_9 = tensor.extract_slice %arg0[40960] [4096] [1] : tensor<6755192832xf32> to tensor<4096xf32>
    %extracted_slice_10 = tensor.extract_slice %arg0[45056] [4096] [1] : tensor<6755192832xf32> to tensor<4096xf32>
    %extracted_slice_11 = tensor.extract_slice %arg0[49152] [4096] [1] : tensor<6755192832xf32> to tensor<4096xf32>
    %extracted_slice_12 = tensor.extract_slice %arg0[53248] [4096] [1] : tensor<6755192832xf32> to tensor<4096xf32>
    %extracted_slice_13 = tensor.extract_slice %arg0[57344] [4096] [1] : tensor<6755192832xf32> to tensor<4096xf32>
    %extracted_slice_14 = tensor.extract_slice %arg0[61440] [4096] [1] : tensor<6755192832xf32> to tensor<4096xf32>
    %extracted_slice_15 = tensor.extract_slice %arg0[65536] [4096] [1] : tensor<6755192832xf32> to tensor<4096xf32>
    %extracted_slice_16 = tensor.extract_slice %arg0[69632] [4096] [1] : tensor<6755192832xf32> to tensor<4096xf32>
    %extracted_slice_17 = tensor.extract_slice %arg0[73728] [4096] [1] : tensor<6755192832xf32> to tensor<4096xf32>
    %extracted_slice_18 = tensor.extract_slice %arg0[77824] [4096] [1] : tensor<6755192832xf32> to tensor<4096xf32>
    %extracted_slice_19 = tensor.extract_slice %arg0[81920] [4096] [1] : tensor<6755192832xf32> to tensor<4096xf32>
    %extracted_slice_20 = tensor.extract_slice %arg0[86016] [4096] [1] : tensor<6755192832xf32> to tensor<4096xf32>
    %extracted_slice_21 = tensor.extract_slice %arg0[90112] [4096] [1] : tensor<6755192832xf32> to tensor<4096xf32>
    %extracted_slice_22 = tensor.extract_slice %arg0[94208] [4096] [1] : tensor<6755192832xf32> to tensor<4096xf32>
    %extracted_slice_23 = tensor.extract_slice %arg0[98304] [4096] [1] : tensor<6755192832xf32> to tensor<4096xf32>
    %extracted_slice_24 = tensor.extract_slice %arg0[102400] [4096] [1] : tensor<6755192832xf32> to tensor<4096xf32>
    %extracted_slice_25 = tensor.extract_slice %arg0[106496] [4096] [1] : tensor<6755192832xf32> to tensor<4096xf32>
    %extracted_slice_26 = tensor.extract_slice %arg0[110592] [4096] [1] : tensor<6755192832xf32> to tensor<4096xf32>
    %extracted_slice_27 = tensor.extract_slice %arg0[114688] [4096] [1] : tensor<6755192832xf32> to tensor<4096xf32>
    %extracted_slice_28 = tensor.extract_slice %arg0[118784] [4096] [1] : tensor<6755192832xf32> to tensor<4096xf32>
    %extracted_slice_29 = tensor.extract_slice %arg0[122880] [4096] [1] : tensor<6755192832xf32> to tensor<4096xf32>
    %extracted_slice_30 = tensor.extract_slice %arg0[126976] [4096] [1] : tensor<6755192832xf32> to tensor<4096xf32>
    %extracted_slice_31 = tensor.extract_slice %arg0[131072] [4096] [1] : tensor<6755192832xf32> to tensor<4096xf32>
    %extracted_slice_32 = tensor.extract_slice %arg0[135168] [4096] [1] : tensor<6755192832xf32> to tensor<4096xf32>
    %extracted_slice_33 = tensor.extract_slice %arg0[139264] [4096] [1] : tensor<6755192832xf32> to tensor<4096xf32>
    %extracted_slice_34 = tensor.extract_slice %arg0[143360] [4096] [1] : tensor<6755192832xf32> to tensor<4096xf32>
    %extracted_slice_35 = tensor.extract_slice %arg0[147456] [4096] [1] : tensor<6755192832xf32> to tensor<4096xf32>
    %extracted_slice_36 = tensor.extract_slice %arg0[151552] [4096] [1] : tensor<6755192832xf32> to tensor<4096xf32>
    %extracted_slice_37 = tensor.extract_slice %arg0[155648] [4096] [1] : tensor<6755192832xf32> to tensor<4096xf32>
    %extracted_slice_38 = tensor.extract_slice %arg0[159744] [4096] [1] : tensor<6755192832xf32> to tensor<4096xf32>
    %extracted_slice_39 = tensor.extract_slice %arg0[163840] [4096] [1] : tensor<6755192832xf32> to tensor<4096xf32>
    %extracted_slice_40 = tensor.extract_slice %arg0[167936] [4096] [1] : tensor<6755192832xf32> to tensor<4096xf32>
    %extracted_slice_41 = tensor.extract_slice %arg0[172032] [4096] [1] : tensor<6755192832xf32> to tensor<4096xf32>
    %extracted_slice_42 = tensor.extract_slice %arg0[176128] [4096] [1] : tensor<6755192832xf32> to tensor<4096xf32>
    %extracted_slice_43 = tensor.extract_slice %arg0[180224] [4096] [1] : tensor<6755192832xf32> to tensor<4096xf32>
    %extracted_slice_44 = tensor.extract_slice %arg0[184320] [4096] [1] : tensor<6755192832xf32> to tensor<4096xf32>
    %extracted_slice_45 = tensor.extract_slice %arg0[188416] [4096] [1] : tensor<6755192832xf32> to tensor<4096xf32>
    %extracted_slice_46 = tensor.extract_slice %arg0[192512] [4096] [1] : tensor<6755192832xf32> to tensor<4096xf32>
    %extracted_slice_47 = tensor.extract_slice %arg0[196608] [4096] [1] : tensor<6755192832xf32> to tensor<4096xf32>
    %extracted_slice_48 = tensor.extract_slice %arg0[200704] [4096] [1] : tensor<6755192832xf32> to tensor<4096xf32>
    %extracted_slice_49 = tensor.extract_slice %arg0[204800] [4096] [1] : tensor<6755192832xf32> to tensor<4096xf32>
    %extracted_slice_50 = tensor.extract_slice %arg0[208896] [4096] [1] : tensor<6755192832xf32> to tensor<4096xf32>
    %extracted_slice_51 = tensor.extract_slice %arg0[212992] [4096] [1] : tensor<6755192832xf32> to tensor<4096xf32>
    %extracted_slice_52 = tensor.extract_slice %arg0[217088] [4096] [1] : tensor<6755192832xf32> to tensor<4096xf32>
    %extracted_slice_53 = tensor.extract_slice %arg0[221184] [4096] [1] : tensor<6755192832xf32> to tensor<4096xf32>
    %extracted_slice_54 = tensor.extract_slice %arg0[225280] [4096] [1] : tensor<6755192832xf32> to tensor<4096xf32>
    %extracted_slice_55 = tensor.extract_slice %arg0[229376] [4096] [1] : tensor<6755192832xf32> to tensor<4096xf32>
    %extracted_slice_56 = tensor.extract_slice %arg0[233472] [4096] [1] : tensor<6755192832xf32> to tensor<4096xf32>
    %extracted_slice_57 = tensor.extract_slice %arg0[237568] [4096] [1] : tensor<6755192832xf32> to tensor<4096xf32>
    %extracted_slice_58 = tensor.extract_slice %arg0[241664] [4096] [1] : tensor<6755192832xf32> to tensor<4096xf32>
    %extracted_slice_59 = tensor.extract_slice %arg0[245760] [4096] [1] : tensor<6755192832xf32> to tensor<4096xf32>
    %extracted_slice_60 = tensor.extract_slice %arg0[249856] [4096] [1] : tensor<6755192832xf32> to tensor<4096xf32>
    %extracted_slice_61 = tensor.extract_slice %arg0[253952] [4096] [1] : tensor<6755192832xf32> to tensor<4096xf32>
    %extracted_slice_62 = tensor.extract_slice %arg0[258048] [4096] [1] : tensor<6755192832xf32> to tensor<4096xf32>
    %extracted_slice_63 = tensor.extract_slice %arg0[262144] [4096] [1] : tensor<6755192832xf32> to tensor<4096xf32>
    %extracted_slice_64 = tensor.extract_slice %arg0[266240] [131072000] [1] : tensor<6755192832xf32> to tensor<131072000xf32>
    %expanded = tensor.expand_shape %extracted_slice_64 [[0, 1]] : tensor<131072000xf32> into tensor<32000x4096xf32>
    %extracted_slice_65 = tensor.extract_slice %arg0[131338240] [16777216] [1] : tensor<6755192832xf32> to tensor<16777216xf32>
    %expanded_66 = tensor.expand_shape %extracted_slice_65 [[0, 1]] : tensor<16777216xf32> into tensor<4096x4096xf32>
    %extracted_slice_67 = tensor.extract_slice %arg0[148115456] [16777216] [1] : tensor<6755192832xf32> to tensor<16777216xf32>
    %expanded_68 = tensor.expand_shape %extracted_slice_67 [[0, 1]] : tensor<16777216xf32> into tensor<4096x4096xf32>
    %extracted_slice_69 = tensor.extract_slice %arg0[164892672] [16777216] [1] : tensor<6755192832xf32> to tensor<16777216xf32>
    %expanded_70 = tensor.expand_shape %extracted_slice_69 [[0, 1]] : tensor<16777216xf32> into tensor<4096x4096xf32>
    %extracted_slice_71 = tensor.extract_slice %arg0[181669888] [16777216] [1] : tensor<6755192832xf32> to tensor<16777216xf32>
    %expanded_72 = tensor.expand_shape %extracted_slice_71 [[0, 1]] : tensor<16777216xf32> into tensor<4096x4096xf32>
    %extracted_slice_73 = tensor.extract_slice %arg0[198447104] [45088768] [1] : tensor<6755192832xf32> to tensor<45088768xf32>
    %expanded_74 = tensor.expand_shape %extracted_slice_73 [[0, 1]] : tensor<45088768xf32> into tensor<11008x4096xf32>
    %extracted_slice_75 = tensor.extract_slice %arg0[243535872] [45088768] [1] : tensor<6755192832xf32> to tensor<45088768xf32>
    %expanded_76 = tensor.expand_shape %extracted_slice_75 [[0, 1]] : tensor<45088768xf32> into tensor<11008x4096xf32>
    %extracted_slice_77 = tensor.extract_slice %arg0[288624640] [45088768] [1] : tensor<6755192832xf32> to tensor<45088768xf32>
    %expanded_78 = tensor.expand_shape %extracted_slice_77 [[0, 1]] : tensor<45088768xf32> into tensor<4096x11008xf32>
    %extracted_slice_79 = tensor.extract_slice %arg0[333713408] [16777216] [1] : tensor<6755192832xf32> to tensor<16777216xf32>
    %expanded_80 = tensor.expand_shape %extracted_slice_79 [[0, 1]] : tensor<16777216xf32> into tensor<4096x4096xf32>
    %extracted_slice_81 = tensor.extract_slice %arg0[350490624] [16777216] [1] : tensor<6755192832xf32> to tensor<16777216xf32>
    %expanded_82 = tensor.expand_shape %extracted_slice_81 [[0, 1]] : tensor<16777216xf32> into tensor<4096x4096xf32>
    %extracted_slice_83 = tensor.extract_slice %arg0[367267840] [16777216] [1] : tensor<6755192832xf32> to tensor<16777216xf32>
    %expanded_84 = tensor.expand_shape %extracted_slice_83 [[0, 1]] : tensor<16777216xf32> into tensor<4096x4096xf32>
    %extracted_slice_85 = tensor.extract_slice %arg0[384045056] [16777216] [1] : tensor<6755192832xf32> to tensor<16777216xf32>
    %expanded_86 = tensor.expand_shape %extracted_slice_85 [[0, 1]] : tensor<16777216xf32> into tensor<4096x4096xf32>
    %extracted_slice_87 = tensor.extract_slice %arg0[400822272] [45088768] [1] : tensor<6755192832xf32> to tensor<45088768xf32>
    %expanded_88 = tensor.expand_shape %extracted_slice_87 [[0, 1]] : tensor<45088768xf32> into tensor<11008x4096xf32>
    %extracted_slice_89 = tensor.extract_slice %arg0[445911040] [45088768] [1] : tensor<6755192832xf32> to tensor<45088768xf32>
    %expanded_90 = tensor.expand_shape %extracted_slice_89 [[0, 1]] : tensor<45088768xf32> into tensor<11008x4096xf32>
    %extracted_slice_91 = tensor.extract_slice %arg0[490999808] [45088768] [1] : tensor<6755192832xf32> to tensor<45088768xf32>
    %expanded_92 = tensor.expand_shape %extracted_slice_91 [[0, 1]] : tensor<45088768xf32> into tensor<4096x11008xf32>
    %extracted_slice_93 = tensor.extract_slice %arg0[536088576] [16777216] [1] : tensor<6755192832xf32> to tensor<16777216xf32>
    %expanded_94 = tensor.expand_shape %extracted_slice_93 [[0, 1]] : tensor<16777216xf32> into tensor<4096x4096xf32>
    %extracted_slice_95 = tensor.extract_slice %arg0[552865792] [16777216] [1] : tensor<6755192832xf32> to tensor<16777216xf32>
    %expanded_96 = tensor.expand_shape %extracted_slice_95 [[0, 1]] : tensor<16777216xf32> into tensor<4096x4096xf32>
    %extracted_slice_97 = tensor.extract_slice %arg0[569643008] [16777216] [1] : tensor<6755192832xf32> to tensor<16777216xf32>
    %expanded_98 = tensor.expand_shape %extracted_slice_97 [[0, 1]] : tensor<16777216xf32> into tensor<4096x4096xf32>
    %extracted_slice_99 = tensor.extract_slice %arg0[586420224] [16777216] [1] : tensor<6755192832xf32> to tensor<16777216xf32>
    %expanded_100 = tensor.expand_shape %extracted_slice_99 [[0, 1]] : tensor<16777216xf32> into tensor<4096x4096xf32>
    %extracted_slice_101 = tensor.extract_slice %arg0[603197440] [45088768] [1] : tensor<6755192832xf32> to tensor<45088768xf32>
    %expanded_102 = tensor.expand_shape %extracted_slice_101 [[0, 1]] : tensor<45088768xf32> into tensor<11008x4096xf32>
    %extracted_slice_103 = tensor.extract_slice %arg0[648286208] [45088768] [1] : tensor<6755192832xf32> to tensor<45088768xf32>
    %expanded_104 = tensor.expand_shape %extracted_slice_103 [[0, 1]] : tensor<45088768xf32> into tensor<11008x4096xf32>
    %extracted_slice_105 = tensor.extract_slice %arg0[693374976] [45088768] [1] : tensor<6755192832xf32> to tensor<45088768xf32>
    %expanded_106 = tensor.expand_shape %extracted_slice_105 [[0, 1]] : tensor<45088768xf32> into tensor<4096x11008xf32>
    %extracted_slice_107 = tensor.extract_slice %arg0[738463744] [16777216] [1] : tensor<6755192832xf32> to tensor<16777216xf32>
    %expanded_108 = tensor.expand_shape %extracted_slice_107 [[0, 1]] : tensor<16777216xf32> into tensor<4096x4096xf32>
    %extracted_slice_109 = tensor.extract_slice %arg0[755240960] [16777216] [1] : tensor<6755192832xf32> to tensor<16777216xf32>
    %expanded_110 = tensor.expand_shape %extracted_slice_109 [[0, 1]] : tensor<16777216xf32> into tensor<4096x4096xf32>
    %extracted_slice_111 = tensor.extract_slice %arg0[772018176] [16777216] [1] : tensor<6755192832xf32> to tensor<16777216xf32>
    %expanded_112 = tensor.expand_shape %extracted_slice_111 [[0, 1]] : tensor<16777216xf32> into tensor<4096x4096xf32>
    %extracted_slice_113 = tensor.extract_slice %arg0[788795392] [16777216] [1] : tensor<6755192832xf32> to tensor<16777216xf32>
    %expanded_114 = tensor.expand_shape %extracted_slice_113 [[0, 1]] : tensor<16777216xf32> into tensor<4096x4096xf32>
    %extracted_slice_115 = tensor.extract_slice %arg0[805572608] [45088768] [1] : tensor<6755192832xf32> to tensor<45088768xf32>
    %expanded_116 = tensor.expand_shape %extracted_slice_115 [[0, 1]] : tensor<45088768xf32> into tensor<11008x4096xf32>
    %extracted_slice_117 = tensor.extract_slice %arg0[850661376] [45088768] [1] : tensor<6755192832xf32> to tensor<45088768xf32>
    %expanded_118 = tensor.expand_shape %extracted_slice_117 [[0, 1]] : tensor<45088768xf32> into tensor<11008x4096xf32>
    %extracted_slice_119 = tensor.extract_slice %arg0[895750144] [45088768] [1] : tensor<6755192832xf32> to tensor<45088768xf32>
    %expanded_120 = tensor.expand_shape %extracted_slice_119 [[0, 1]] : tensor<45088768xf32> into tensor<4096x11008xf32>
    %extracted_slice_121 = tensor.extract_slice %arg0[940838912] [16777216] [1] : tensor<6755192832xf32> to tensor<16777216xf32>
    %expanded_122 = tensor.expand_shape %extracted_slice_121 [[0, 1]] : tensor<16777216xf32> into tensor<4096x4096xf32>
    %extracted_slice_123 = tensor.extract_slice %arg0[957616128] [16777216] [1] : tensor<6755192832xf32> to tensor<16777216xf32>
    %expanded_124 = tensor.expand_shape %extracted_slice_123 [[0, 1]] : tensor<16777216xf32> into tensor<4096x4096xf32>
    %extracted_slice_125 = tensor.extract_slice %arg0[974393344] [16777216] [1] : tensor<6755192832xf32> to tensor<16777216xf32>
    %expanded_126 = tensor.expand_shape %extracted_slice_125 [[0, 1]] : tensor<16777216xf32> into tensor<4096x4096xf32>
    %extracted_slice_127 = tensor.extract_slice %arg0[991170560] [16777216] [1] : tensor<6755192832xf32> to tensor<16777216xf32>
    %expanded_128 = tensor.expand_shape %extracted_slice_127 [[0, 1]] : tensor<16777216xf32> into tensor<4096x4096xf32>
    %extracted_slice_129 = tensor.extract_slice %arg0[1007947776] [45088768] [1] : tensor<6755192832xf32> to tensor<45088768xf32>
    %expanded_130 = tensor.expand_shape %extracted_slice_129 [[0, 1]] : tensor<45088768xf32> into tensor<11008x4096xf32>
    %extracted_slice_131 = tensor.extract_slice %arg0[1053036544] [45088768] [1] : tensor<6755192832xf32> to tensor<45088768xf32>
    %expanded_132 = tensor.expand_shape %extracted_slice_131 [[0, 1]] : tensor<45088768xf32> into tensor<11008x4096xf32>
    %extracted_slice_133 = tensor.extract_slice %arg0[1098125312] [45088768] [1] : tensor<6755192832xf32> to tensor<45088768xf32>
    %expanded_134 = tensor.expand_shape %extracted_slice_133 [[0, 1]] : tensor<45088768xf32> into tensor<4096x11008xf32>
    %extracted_slice_135 = tensor.extract_slice %arg0[1143214080] [16777216] [1] : tensor<6755192832xf32> to tensor<16777216xf32>
    %expanded_136 = tensor.expand_shape %extracted_slice_135 [[0, 1]] : tensor<16777216xf32> into tensor<4096x4096xf32>
    %extracted_slice_137 = tensor.extract_slice %arg0[1159991296] [16777216] [1] : tensor<6755192832xf32> to tensor<16777216xf32>
    %expanded_138 = tensor.expand_shape %extracted_slice_137 [[0, 1]] : tensor<16777216xf32> into tensor<4096x4096xf32>
    %extracted_slice_139 = tensor.extract_slice %arg0[1176768512] [16777216] [1] : tensor<6755192832xf32> to tensor<16777216xf32>
    %expanded_140 = tensor.expand_shape %extracted_slice_139 [[0, 1]] : tensor<16777216xf32> into tensor<4096x4096xf32>
    %extracted_slice_141 = tensor.extract_slice %arg0[1193545728] [16777216] [1] : tensor<6755192832xf32> to tensor<16777216xf32>
    %expanded_142 = tensor.expand_shape %extracted_slice_141 [[0, 1]] : tensor<16777216xf32> into tensor<4096x4096xf32>
    %extracted_slice_143 = tensor.extract_slice %arg0[1210322944] [45088768] [1] : tensor<6755192832xf32> to tensor<45088768xf32>
    %expanded_144 = tensor.expand_shape %extracted_slice_143 [[0, 1]] : tensor<45088768xf32> into tensor<11008x4096xf32>
    %extracted_slice_145 = tensor.extract_slice %arg0[1255411712] [45088768] [1] : tensor<6755192832xf32> to tensor<45088768xf32>
    %expanded_146 = tensor.expand_shape %extracted_slice_145 [[0, 1]] : tensor<45088768xf32> into tensor<11008x4096xf32>
    %extracted_slice_147 = tensor.extract_slice %arg0[1300500480] [45088768] [1] : tensor<6755192832xf32> to tensor<45088768xf32>
    %expanded_148 = tensor.expand_shape %extracted_slice_147 [[0, 1]] : tensor<45088768xf32> into tensor<4096x11008xf32>
    %extracted_slice_149 = tensor.extract_slice %arg0[1345589248] [16777216] [1] : tensor<6755192832xf32> to tensor<16777216xf32>
    %expanded_150 = tensor.expand_shape %extracted_slice_149 [[0, 1]] : tensor<16777216xf32> into tensor<4096x4096xf32>
    %extracted_slice_151 = tensor.extract_slice %arg0[1362366464] [16777216] [1] : tensor<6755192832xf32> to tensor<16777216xf32>
    %expanded_152 = tensor.expand_shape %extracted_slice_151 [[0, 1]] : tensor<16777216xf32> into tensor<4096x4096xf32>
    %extracted_slice_153 = tensor.extract_slice %arg0[1379143680] [16777216] [1] : tensor<6755192832xf32> to tensor<16777216xf32>
    %expanded_154 = tensor.expand_shape %extracted_slice_153 [[0, 1]] : tensor<16777216xf32> into tensor<4096x4096xf32>
    %extracted_slice_155 = tensor.extract_slice %arg0[1395920896] [16777216] [1] : tensor<6755192832xf32> to tensor<16777216xf32>
    %expanded_156 = tensor.expand_shape %extracted_slice_155 [[0, 1]] : tensor<16777216xf32> into tensor<4096x4096xf32>
    %extracted_slice_157 = tensor.extract_slice %arg0[1412698112] [45088768] [1] : tensor<6755192832xf32> to tensor<45088768xf32>
    %expanded_158 = tensor.expand_shape %extracted_slice_157 [[0, 1]] : tensor<45088768xf32> into tensor<11008x4096xf32>
    %extracted_slice_159 = tensor.extract_slice %arg0[1457786880] [45088768] [1] : tensor<6755192832xf32> to tensor<45088768xf32>
    %expanded_160 = tensor.expand_shape %extracted_slice_159 [[0, 1]] : tensor<45088768xf32> into tensor<11008x4096xf32>
    %extracted_slice_161 = tensor.extract_slice %arg0[1502875648] [45088768] [1] : tensor<6755192832xf32> to tensor<45088768xf32>
    %expanded_162 = tensor.expand_shape %extracted_slice_161 [[0, 1]] : tensor<45088768xf32> into tensor<4096x11008xf32>
    %extracted_slice_163 = tensor.extract_slice %arg0[1547964416] [16777216] [1] : tensor<6755192832xf32> to tensor<16777216xf32>
    %expanded_164 = tensor.expand_shape %extracted_slice_163 [[0, 1]] : tensor<16777216xf32> into tensor<4096x4096xf32>
    %extracted_slice_165 = tensor.extract_slice %arg0[1564741632] [16777216] [1] : tensor<6755192832xf32> to tensor<16777216xf32>
    %expanded_166 = tensor.expand_shape %extracted_slice_165 [[0, 1]] : tensor<16777216xf32> into tensor<4096x4096xf32>
    %extracted_slice_167 = tensor.extract_slice %arg0[1581518848] [16777216] [1] : tensor<6755192832xf32> to tensor<16777216xf32>
    %expanded_168 = tensor.expand_shape %extracted_slice_167 [[0, 1]] : tensor<16777216xf32> into tensor<4096x4096xf32>
    %extracted_slice_169 = tensor.extract_slice %arg0[1598296064] [16777216] [1] : tensor<6755192832xf32> to tensor<16777216xf32>
    %expanded_170 = tensor.expand_shape %extracted_slice_169 [[0, 1]] : tensor<16777216xf32> into tensor<4096x4096xf32>
    %extracted_slice_171 = tensor.extract_slice %arg0[1615073280] [45088768] [1] : tensor<6755192832xf32> to tensor<45088768xf32>
    %expanded_172 = tensor.expand_shape %extracted_slice_171 [[0, 1]] : tensor<45088768xf32> into tensor<11008x4096xf32>
    %extracted_slice_173 = tensor.extract_slice %arg0[1660162048] [45088768] [1] : tensor<6755192832xf32> to tensor<45088768xf32>
    %expanded_174 = tensor.expand_shape %extracted_slice_173 [[0, 1]] : tensor<45088768xf32> into tensor<11008x4096xf32>
    %extracted_slice_175 = tensor.extract_slice %arg0[1705250816] [45088768] [1] : tensor<6755192832xf32> to tensor<45088768xf32>
    %expanded_176 = tensor.expand_shape %extracted_slice_175 [[0, 1]] : tensor<45088768xf32> into tensor<4096x11008xf32>
    %extracted_slice_177 = tensor.extract_slice %arg0[1750339584] [16777216] [1] : tensor<6755192832xf32> to tensor<16777216xf32>
    %expanded_178 = tensor.expand_shape %extracted_slice_177 [[0, 1]] : tensor<16777216xf32> into tensor<4096x4096xf32>
    %extracted_slice_179 = tensor.extract_slice %arg0[1767116800] [16777216] [1] : tensor<6755192832xf32> to tensor<16777216xf32>
    %expanded_180 = tensor.expand_shape %extracted_slice_179 [[0, 1]] : tensor<16777216xf32> into tensor<4096x4096xf32>
    %extracted_slice_181 = tensor.extract_slice %arg0[1783894016] [16777216] [1] : tensor<6755192832xf32> to tensor<16777216xf32>
    %expanded_182 = tensor.expand_shape %extracted_slice_181 [[0, 1]] : tensor<16777216xf32> into tensor<4096x4096xf32>
    %extracted_slice_183 = tensor.extract_slice %arg0[1800671232] [16777216] [1] : tensor<6755192832xf32> to tensor<16777216xf32>
    %expanded_184 = tensor.expand_shape %extracted_slice_183 [[0, 1]] : tensor<16777216xf32> into tensor<4096x4096xf32>
    %extracted_slice_185 = tensor.extract_slice %arg0[1817448448] [45088768] [1] : tensor<6755192832xf32> to tensor<45088768xf32>
    %expanded_186 = tensor.expand_shape %extracted_slice_185 [[0, 1]] : tensor<45088768xf32> into tensor<11008x4096xf32>
    %extracted_slice_187 = tensor.extract_slice %arg0[1862537216] [45088768] [1] : tensor<6755192832xf32> to tensor<45088768xf32>
    %expanded_188 = tensor.expand_shape %extracted_slice_187 [[0, 1]] : tensor<45088768xf32> into tensor<11008x4096xf32>
    %extracted_slice_189 = tensor.extract_slice %arg0[1907625984] [45088768] [1] : tensor<6755192832xf32> to tensor<45088768xf32>
    %expanded_190 = tensor.expand_shape %extracted_slice_189 [[0, 1]] : tensor<45088768xf32> into tensor<4096x11008xf32>
    %extracted_slice_191 = tensor.extract_slice %arg0[1952714752] [16777216] [1] : tensor<6755192832xf32> to tensor<16777216xf32>
    %expanded_192 = tensor.expand_shape %extracted_slice_191 [[0, 1]] : tensor<16777216xf32> into tensor<4096x4096xf32>
    %extracted_slice_193 = tensor.extract_slice %arg0[1969491968] [16777216] [1] : tensor<6755192832xf32> to tensor<16777216xf32>
    %expanded_194 = tensor.expand_shape %extracted_slice_193 [[0, 1]] : tensor<16777216xf32> into tensor<4096x4096xf32>
    %extracted_slice_195 = tensor.extract_slice %arg0[1986269184] [16777216] [1] : tensor<6755192832xf32> to tensor<16777216xf32>
    %expanded_196 = tensor.expand_shape %extracted_slice_195 [[0, 1]] : tensor<16777216xf32> into tensor<4096x4096xf32>
    %extracted_slice_197 = tensor.extract_slice %arg0[2003046400] [16777216] [1] : tensor<6755192832xf32> to tensor<16777216xf32>
    %expanded_198 = tensor.expand_shape %extracted_slice_197 [[0, 1]] : tensor<16777216xf32> into tensor<4096x4096xf32>
    %extracted_slice_199 = tensor.extract_slice %arg0[2019823616] [45088768] [1] : tensor<6755192832xf32> to tensor<45088768xf32>
    %expanded_200 = tensor.expand_shape %extracted_slice_199 [[0, 1]] : tensor<45088768xf32> into tensor<11008x4096xf32>
    %extracted_slice_201 = tensor.extract_slice %arg0[2064912384] [45088768] [1] : tensor<6755192832xf32> to tensor<45088768xf32>
    %expanded_202 = tensor.expand_shape %extracted_slice_201 [[0, 1]] : tensor<45088768xf32> into tensor<11008x4096xf32>
    %extracted_slice_203 = tensor.extract_slice %arg0[2110001152] [45088768] [1] : tensor<6755192832xf32> to tensor<45088768xf32>
    %expanded_204 = tensor.expand_shape %extracted_slice_203 [[0, 1]] : tensor<45088768xf32> into tensor<4096x11008xf32>
    %extracted_slice_205 = tensor.extract_slice %arg0[2155089920] [16777216] [1] : tensor<6755192832xf32> to tensor<16777216xf32>
    %expanded_206 = tensor.expand_shape %extracted_slice_205 [[0, 1]] : tensor<16777216xf32> into tensor<4096x4096xf32>
    %extracted_slice_207 = tensor.extract_slice %arg0[2171867136] [16777216] [1] : tensor<6755192832xf32> to tensor<16777216xf32>
    %expanded_208 = tensor.expand_shape %extracted_slice_207 [[0, 1]] : tensor<16777216xf32> into tensor<4096x4096xf32>
    %extracted_slice_209 = tensor.extract_slice %arg0[2188644352] [16777216] [1] : tensor<6755192832xf32> to tensor<16777216xf32>
    %expanded_210 = tensor.expand_shape %extracted_slice_209 [[0, 1]] : tensor<16777216xf32> into tensor<4096x4096xf32>
    %extracted_slice_211 = tensor.extract_slice %arg0[2205421568] [16777216] [1] : tensor<6755192832xf32> to tensor<16777216xf32>
    %expanded_212 = tensor.expand_shape %extracted_slice_211 [[0, 1]] : tensor<16777216xf32> into tensor<4096x4096xf32>
    %extracted_slice_213 = tensor.extract_slice %arg0[2222198784] [45088768] [1] : tensor<6755192832xf32> to tensor<45088768xf32>
    %expanded_214 = tensor.expand_shape %extracted_slice_213 [[0, 1]] : tensor<45088768xf32> into tensor<11008x4096xf32>
    %extracted_slice_215 = tensor.extract_slice %arg0[2267287552] [45088768] [1] : tensor<6755192832xf32> to tensor<45088768xf32>
    %expanded_216 = tensor.expand_shape %extracted_slice_215 [[0, 1]] : tensor<45088768xf32> into tensor<11008x4096xf32>
    %extracted_slice_217 = tensor.extract_slice %arg0[2312376320] [45088768] [1] : tensor<6755192832xf32> to tensor<45088768xf32>
    %expanded_218 = tensor.expand_shape %extracted_slice_217 [[0, 1]] : tensor<45088768xf32> into tensor<4096x11008xf32>
    %extracted_slice_219 = tensor.extract_slice %arg0[2357465088] [16777216] [1] : tensor<6755192832xf32> to tensor<16777216xf32>
    %expanded_220 = tensor.expand_shape %extracted_slice_219 [[0, 1]] : tensor<16777216xf32> into tensor<4096x4096xf32>
    %extracted_slice_221 = tensor.extract_slice %arg0[2374242304] [16777216] [1] : tensor<6755192832xf32> to tensor<16777216xf32>
    %expanded_222 = tensor.expand_shape %extracted_slice_221 [[0, 1]] : tensor<16777216xf32> into tensor<4096x4096xf32>
    %extracted_slice_223 = tensor.extract_slice %arg0[2391019520] [16777216] [1] : tensor<6755192832xf32> to tensor<16777216xf32>
    %expanded_224 = tensor.expand_shape %extracted_slice_223 [[0, 1]] : tensor<16777216xf32> into tensor<4096x4096xf32>
    %extracted_slice_225 = tensor.extract_slice %arg0[2407796736] [16777216] [1] : tensor<6755192832xf32> to tensor<16777216xf32>
    %expanded_226 = tensor.expand_shape %extracted_slice_225 [[0, 1]] : tensor<16777216xf32> into tensor<4096x4096xf32>
    %extracted_slice_227 = tensor.extract_slice %arg0[2424573952] [45088768] [1] : tensor<6755192832xf32> to tensor<45088768xf32>
    %expanded_228 = tensor.expand_shape %extracted_slice_227 [[0, 1]] : tensor<45088768xf32> into tensor<11008x4096xf32>
    %extracted_slice_229 = tensor.extract_slice %arg0[2469662720] [45088768] [1] : tensor<6755192832xf32> to tensor<45088768xf32>
    %expanded_230 = tensor.expand_shape %extracted_slice_229 [[0, 1]] : tensor<45088768xf32> into tensor<11008x4096xf32>
    %extracted_slice_231 = tensor.extract_slice %arg0[2514751488] [45088768] [1] : tensor<6755192832xf32> to tensor<45088768xf32>
    %expanded_232 = tensor.expand_shape %extracted_slice_231 [[0, 1]] : tensor<45088768xf32> into tensor<4096x11008xf32>
    %extracted_slice_233 = tensor.extract_slice %arg0[2559840256] [16777216] [1] : tensor<6755192832xf32> to tensor<16777216xf32>
    %expanded_234 = tensor.expand_shape %extracted_slice_233 [[0, 1]] : tensor<16777216xf32> into tensor<4096x4096xf32>
    %extracted_slice_235 = tensor.extract_slice %arg0[2576617472] [16777216] [1] : tensor<6755192832xf32> to tensor<16777216xf32>
    %expanded_236 = tensor.expand_shape %extracted_slice_235 [[0, 1]] : tensor<16777216xf32> into tensor<4096x4096xf32>
    %extracted_slice_237 = tensor.extract_slice %arg0[2593394688] [16777216] [1] : tensor<6755192832xf32> to tensor<16777216xf32>
    %expanded_238 = tensor.expand_shape %extracted_slice_237 [[0, 1]] : tensor<16777216xf32> into tensor<4096x4096xf32>
    %extracted_slice_239 = tensor.extract_slice %arg0[2610171904] [16777216] [1] : tensor<6755192832xf32> to tensor<16777216xf32>
    %expanded_240 = tensor.expand_shape %extracted_slice_239 [[0, 1]] : tensor<16777216xf32> into tensor<4096x4096xf32>
    %extracted_slice_241 = tensor.extract_slice %arg0[2626949120] [45088768] [1] : tensor<6755192832xf32> to tensor<45088768xf32>
    %expanded_242 = tensor.expand_shape %extracted_slice_241 [[0, 1]] : tensor<45088768xf32> into tensor<11008x4096xf32>
    %extracted_slice_243 = tensor.extract_slice %arg0[2672037888] [45088768] [1] : tensor<6755192832xf32> to tensor<45088768xf32>
    %expanded_244 = tensor.expand_shape %extracted_slice_243 [[0, 1]] : tensor<45088768xf32> into tensor<11008x4096xf32>
    %extracted_slice_245 = tensor.extract_slice %arg0[2717126656] [45088768] [1] : tensor<6755192832xf32> to tensor<45088768xf32>
    %expanded_246 = tensor.expand_shape %extracted_slice_245 [[0, 1]] : tensor<45088768xf32> into tensor<4096x11008xf32>
    %extracted_slice_247 = tensor.extract_slice %arg0[2762215424] [16777216] [1] : tensor<6755192832xf32> to tensor<16777216xf32>
    %expanded_248 = tensor.expand_shape %extracted_slice_247 [[0, 1]] : tensor<16777216xf32> into tensor<4096x4096xf32>
    %extracted_slice_249 = tensor.extract_slice %arg0[2778992640] [16777216] [1] : tensor<6755192832xf32> to tensor<16777216xf32>
    %expanded_250 = tensor.expand_shape %extracted_slice_249 [[0, 1]] : tensor<16777216xf32> into tensor<4096x4096xf32>
    %extracted_slice_251 = tensor.extract_slice %arg0[2795769856] [16777216] [1] : tensor<6755192832xf32> to tensor<16777216xf32>
    %expanded_252 = tensor.expand_shape %extracted_slice_251 [[0, 1]] : tensor<16777216xf32> into tensor<4096x4096xf32>
    %extracted_slice_253 = tensor.extract_slice %arg0[2812547072] [16777216] [1] : tensor<6755192832xf32> to tensor<16777216xf32>
    %expanded_254 = tensor.expand_shape %extracted_slice_253 [[0, 1]] : tensor<16777216xf32> into tensor<4096x4096xf32>
    %extracted_slice_255 = tensor.extract_slice %arg0[2829324288] [45088768] [1] : tensor<6755192832xf32> to tensor<45088768xf32>
    %expanded_256 = tensor.expand_shape %extracted_slice_255 [[0, 1]] : tensor<45088768xf32> into tensor<11008x4096xf32>
    %extracted_slice_257 = tensor.extract_slice %arg0[2874413056] [45088768] [1] : tensor<6755192832xf32> to tensor<45088768xf32>
    %expanded_258 = tensor.expand_shape %extracted_slice_257 [[0, 1]] : tensor<45088768xf32> into tensor<11008x4096xf32>
    %extracted_slice_259 = tensor.extract_slice %arg0[2919501824] [45088768] [1] : tensor<6755192832xf32> to tensor<45088768xf32>
    %expanded_260 = tensor.expand_shape %extracted_slice_259 [[0, 1]] : tensor<45088768xf32> into tensor<4096x11008xf32>
    %extracted_slice_261 = tensor.extract_slice %arg0[2964590592] [16777216] [1] : tensor<6755192832xf32> to tensor<16777216xf32>
    %expanded_262 = tensor.expand_shape %extracted_slice_261 [[0, 1]] : tensor<16777216xf32> into tensor<4096x4096xf32>
    %extracted_slice_263 = tensor.extract_slice %arg0[2981367808] [16777216] [1] : tensor<6755192832xf32> to tensor<16777216xf32>
    %expanded_264 = tensor.expand_shape %extracted_slice_263 [[0, 1]] : tensor<16777216xf32> into tensor<4096x4096xf32>
    %extracted_slice_265 = tensor.extract_slice %arg0[2998145024] [16777216] [1] : tensor<6755192832xf32> to tensor<16777216xf32>
    %expanded_266 = tensor.expand_shape %extracted_slice_265 [[0, 1]] : tensor<16777216xf32> into tensor<4096x4096xf32>
    %extracted_slice_267 = tensor.extract_slice %arg0[3014922240] [16777216] [1] : tensor<6755192832xf32> to tensor<16777216xf32>
    %expanded_268 = tensor.expand_shape %extracted_slice_267 [[0, 1]] : tensor<16777216xf32> into tensor<4096x4096xf32>
    %extracted_slice_269 = tensor.extract_slice %arg0[3031699456] [45088768] [1] : tensor<6755192832xf32> to tensor<45088768xf32>
    %expanded_270 = tensor.expand_shape %extracted_slice_269 [[0, 1]] : tensor<45088768xf32> into tensor<11008x4096xf32>
    %extracted_slice_271 = tensor.extract_slice %arg0[3076788224] [45088768] [1] : tensor<6755192832xf32> to tensor<45088768xf32>
    %expanded_272 = tensor.expand_shape %extracted_slice_271 [[0, 1]] : tensor<45088768xf32> into tensor<11008x4096xf32>
    %extracted_slice_273 = tensor.extract_slice %arg0[3121876992] [45088768] [1] : tensor<6755192832xf32> to tensor<45088768xf32>
    %expanded_274 = tensor.expand_shape %extracted_slice_273 [[0, 1]] : tensor<45088768xf32> into tensor<4096x11008xf32>
    %extracted_slice_275 = tensor.extract_slice %arg0[3166965760] [16777216] [1] : tensor<6755192832xf32> to tensor<16777216xf32>
    %expanded_276 = tensor.expand_shape %extracted_slice_275 [[0, 1]] : tensor<16777216xf32> into tensor<4096x4096xf32>
    %extracted_slice_277 = tensor.extract_slice %arg0[3183742976] [16777216] [1] : tensor<6755192832xf32> to tensor<16777216xf32>
    %expanded_278 = tensor.expand_shape %extracted_slice_277 [[0, 1]] : tensor<16777216xf32> into tensor<4096x4096xf32>
    %extracted_slice_279 = tensor.extract_slice %arg0[3200520192] [16777216] [1] : tensor<6755192832xf32> to tensor<16777216xf32>
    %expanded_280 = tensor.expand_shape %extracted_slice_279 [[0, 1]] : tensor<16777216xf32> into tensor<4096x4096xf32>
    %extracted_slice_281 = tensor.extract_slice %arg0[3217297408] [16777216] [1] : tensor<6755192832xf32> to tensor<16777216xf32>
    %expanded_282 = tensor.expand_shape %extracted_slice_281 [[0, 1]] : tensor<16777216xf32> into tensor<4096x4096xf32>
    %extracted_slice_283 = tensor.extract_slice %arg0[3234074624] [45088768] [1] : tensor<6755192832xf32> to tensor<45088768xf32>
    %expanded_284 = tensor.expand_shape %extracted_slice_283 [[0, 1]] : tensor<45088768xf32> into tensor<11008x4096xf32>
    %extracted_slice_285 = tensor.extract_slice %arg0[3279163392] [45088768] [1] : tensor<6755192832xf32> to tensor<45088768xf32>
    %expanded_286 = tensor.expand_shape %extracted_slice_285 [[0, 1]] : tensor<45088768xf32> into tensor<11008x4096xf32>
    %extracted_slice_287 = tensor.extract_slice %arg0[3324252160] [45088768] [1] : tensor<6755192832xf32> to tensor<45088768xf32>
    %expanded_288 = tensor.expand_shape %extracted_slice_287 [[0, 1]] : tensor<45088768xf32> into tensor<4096x11008xf32>
    %extracted_slice_289 = tensor.extract_slice %arg0[3369340928] [16777216] [1] : tensor<6755192832xf32> to tensor<16777216xf32>
    %expanded_290 = tensor.expand_shape %extracted_slice_289 [[0, 1]] : tensor<16777216xf32> into tensor<4096x4096xf32>
    %extracted_slice_291 = tensor.extract_slice %arg0[3386118144] [16777216] [1] : tensor<6755192832xf32> to tensor<16777216xf32>
    %expanded_292 = tensor.expand_shape %extracted_slice_291 [[0, 1]] : tensor<16777216xf32> into tensor<4096x4096xf32>
    %extracted_slice_293 = tensor.extract_slice %arg0[3402895360] [16777216] [1] : tensor<6755192832xf32> to tensor<16777216xf32>
    %expanded_294 = tensor.expand_shape %extracted_slice_293 [[0, 1]] : tensor<16777216xf32> into tensor<4096x4096xf32>
    %extracted_slice_295 = tensor.extract_slice %arg0[3419672576] [16777216] [1] : tensor<6755192832xf32> to tensor<16777216xf32>
    %expanded_296 = tensor.expand_shape %extracted_slice_295 [[0, 1]] : tensor<16777216xf32> into tensor<4096x4096xf32>
    %extracted_slice_297 = tensor.extract_slice %arg0[3436449792] [45088768] [1] : tensor<6755192832xf32> to tensor<45088768xf32>
    %expanded_298 = tensor.expand_shape %extracted_slice_297 [[0, 1]] : tensor<45088768xf32> into tensor<11008x4096xf32>
    %extracted_slice_299 = tensor.extract_slice %arg0[3481538560] [45088768] [1] : tensor<6755192832xf32> to tensor<45088768xf32>
    %expanded_300 = tensor.expand_shape %extracted_slice_299 [[0, 1]] : tensor<45088768xf32> into tensor<11008x4096xf32>
    %extracted_slice_301 = tensor.extract_slice %arg0[3526627328] [45088768] [1] : tensor<6755192832xf32> to tensor<45088768xf32>
    %expanded_302 = tensor.expand_shape %extracted_slice_301 [[0, 1]] : tensor<45088768xf32> into tensor<4096x11008xf32>
    %extracted_slice_303 = tensor.extract_slice %arg0[3571716096] [16777216] [1] : tensor<6755192832xf32> to tensor<16777216xf32>
    %expanded_304 = tensor.expand_shape %extracted_slice_303 [[0, 1]] : tensor<16777216xf32> into tensor<4096x4096xf32>
    %extracted_slice_305 = tensor.extract_slice %arg0[3588493312] [16777216] [1] : tensor<6755192832xf32> to tensor<16777216xf32>
    %expanded_306 = tensor.expand_shape %extracted_slice_305 [[0, 1]] : tensor<16777216xf32> into tensor<4096x4096xf32>
    %extracted_slice_307 = tensor.extract_slice %arg0[3605270528] [16777216] [1] : tensor<6755192832xf32> to tensor<16777216xf32>
    %expanded_308 = tensor.expand_shape %extracted_slice_307 [[0, 1]] : tensor<16777216xf32> into tensor<4096x4096xf32>
    %extracted_slice_309 = tensor.extract_slice %arg0[3622047744] [16777216] [1] : tensor<6755192832xf32> to tensor<16777216xf32>
    %expanded_310 = tensor.expand_shape %extracted_slice_309 [[0, 1]] : tensor<16777216xf32> into tensor<4096x4096xf32>
    %extracted_slice_311 = tensor.extract_slice %arg0[3638824960] [45088768] [1] : tensor<6755192832xf32> to tensor<45088768xf32>
    %expanded_312 = tensor.expand_shape %extracted_slice_311 [[0, 1]] : tensor<45088768xf32> into tensor<11008x4096xf32>
    %extracted_slice_313 = tensor.extract_slice %arg0[3683913728] [45088768] [1] : tensor<6755192832xf32> to tensor<45088768xf32>
    %expanded_314 = tensor.expand_shape %extracted_slice_313 [[0, 1]] : tensor<45088768xf32> into tensor<11008x4096xf32>
    %extracted_slice_315 = tensor.extract_slice %arg0[3729002496] [45088768] [1] : tensor<6755192832xf32> to tensor<45088768xf32>
    %expanded_316 = tensor.expand_shape %extracted_slice_315 [[0, 1]] : tensor<45088768xf32> into tensor<4096x11008xf32>
    %extracted_slice_317 = tensor.extract_slice %arg0[3774091264] [16777216] [1] : tensor<6755192832xf32> to tensor<16777216xf32>
    %expanded_318 = tensor.expand_shape %extracted_slice_317 [[0, 1]] : tensor<16777216xf32> into tensor<4096x4096xf32>
    %extracted_slice_319 = tensor.extract_slice %arg0[3790868480] [16777216] [1] : tensor<6755192832xf32> to tensor<16777216xf32>
    %expanded_320 = tensor.expand_shape %extracted_slice_319 [[0, 1]] : tensor<16777216xf32> into tensor<4096x4096xf32>
    %extracted_slice_321 = tensor.extract_slice %arg0[3807645696] [16777216] [1] : tensor<6755192832xf32> to tensor<16777216xf32>
    %expanded_322 = tensor.expand_shape %extracted_slice_321 [[0, 1]] : tensor<16777216xf32> into tensor<4096x4096xf32>
    %extracted_slice_323 = tensor.extract_slice %arg0[3824422912] [16777216] [1] : tensor<6755192832xf32> to tensor<16777216xf32>
    %expanded_324 = tensor.expand_shape %extracted_slice_323 [[0, 1]] : tensor<16777216xf32> into tensor<4096x4096xf32>
    %extracted_slice_325 = tensor.extract_slice %arg0[3841200128] [45088768] [1] : tensor<6755192832xf32> to tensor<45088768xf32>
    %expanded_326 = tensor.expand_shape %extracted_slice_325 [[0, 1]] : tensor<45088768xf32> into tensor<11008x4096xf32>
    %extracted_slice_327 = tensor.extract_slice %arg0[3886288896] [45088768] [1] : tensor<6755192832xf32> to tensor<45088768xf32>
    %expanded_328 = tensor.expand_shape %extracted_slice_327 [[0, 1]] : tensor<45088768xf32> into tensor<11008x4096xf32>
    %extracted_slice_329 = tensor.extract_slice %arg0[3931377664] [45088768] [1] : tensor<6755192832xf32> to tensor<45088768xf32>
    %expanded_330 = tensor.expand_shape %extracted_slice_329 [[0, 1]] : tensor<45088768xf32> into tensor<4096x11008xf32>
    %extracted_slice_331 = tensor.extract_slice %arg0[3976466432] [16777216] [1] : tensor<6755192832xf32> to tensor<16777216xf32>
    %expanded_332 = tensor.expand_shape %extracted_slice_331 [[0, 1]] : tensor<16777216xf32> into tensor<4096x4096xf32>
    %extracted_slice_333 = tensor.extract_slice %arg0[3993243648] [16777216] [1] : tensor<6755192832xf32> to tensor<16777216xf32>
    %expanded_334 = tensor.expand_shape %extracted_slice_333 [[0, 1]] : tensor<16777216xf32> into tensor<4096x4096xf32>
    %extracted_slice_335 = tensor.extract_slice %arg0[4010020864] [16777216] [1] : tensor<6755192832xf32> to tensor<16777216xf32>
    %expanded_336 = tensor.expand_shape %extracted_slice_335 [[0, 1]] : tensor<16777216xf32> into tensor<4096x4096xf32>
    %extracted_slice_337 = tensor.extract_slice %arg0[4026798080] [16777216] [1] : tensor<6755192832xf32> to tensor<16777216xf32>
    %expanded_338 = tensor.expand_shape %extracted_slice_337 [[0, 1]] : tensor<16777216xf32> into tensor<4096x4096xf32>
    %extracted_slice_339 = tensor.extract_slice %arg0[4043575296] [45088768] [1] : tensor<6755192832xf32> to tensor<45088768xf32>
    %expanded_340 = tensor.expand_shape %extracted_slice_339 [[0, 1]] : tensor<45088768xf32> into tensor<11008x4096xf32>
    %extracted_slice_341 = tensor.extract_slice %arg0[4088664064] [45088768] [1] : tensor<6755192832xf32> to tensor<45088768xf32>
    %expanded_342 = tensor.expand_shape %extracted_slice_341 [[0, 1]] : tensor<45088768xf32> into tensor<11008x4096xf32>
    %extracted_slice_343 = tensor.extract_slice %arg0[4133752832] [45088768] [1] : tensor<6755192832xf32> to tensor<45088768xf32>
    %expanded_344 = tensor.expand_shape %extracted_slice_343 [[0, 1]] : tensor<45088768xf32> into tensor<4096x11008xf32>
    %extracted_slice_345 = tensor.extract_slice %arg0[4178841600] [16777216] [1] : tensor<6755192832xf32> to tensor<16777216xf32>
    %expanded_346 = tensor.expand_shape %extracted_slice_345 [[0, 1]] : tensor<16777216xf32> into tensor<4096x4096xf32>
    %extracted_slice_347 = tensor.extract_slice %arg0[4195618816] [16777216] [1] : tensor<6755192832xf32> to tensor<16777216xf32>
    %expanded_348 = tensor.expand_shape %extracted_slice_347 [[0, 1]] : tensor<16777216xf32> into tensor<4096x4096xf32>
    %extracted_slice_349 = tensor.extract_slice %arg0[4212396032] [16777216] [1] : tensor<6755192832xf32> to tensor<16777216xf32>
    %expanded_350 = tensor.expand_shape %extracted_slice_349 [[0, 1]] : tensor<16777216xf32> into tensor<4096x4096xf32>
    %extracted_slice_351 = tensor.extract_slice %arg0[4229173248] [16777216] [1] : tensor<6755192832xf32> to tensor<16777216xf32>
    %expanded_352 = tensor.expand_shape %extracted_slice_351 [[0, 1]] : tensor<16777216xf32> into tensor<4096x4096xf32>
    %extracted_slice_353 = tensor.extract_slice %arg0[4245950464] [45088768] [1] : tensor<6755192832xf32> to tensor<45088768xf32>
    %expanded_354 = tensor.expand_shape %extracted_slice_353 [[0, 1]] : tensor<45088768xf32> into tensor<11008x4096xf32>
    %extracted_slice_355 = tensor.extract_slice %arg0[4291039232] [45088768] [1] : tensor<6755192832xf32> to tensor<45088768xf32>
    %expanded_356 = tensor.expand_shape %extracted_slice_355 [[0, 1]] : tensor<45088768xf32> into tensor<11008x4096xf32>
    %extracted_slice_357 = tensor.extract_slice %arg0[4336128000] [45088768] [1] : tensor<6755192832xf32> to tensor<45088768xf32>
    %expanded_358 = tensor.expand_shape %extracted_slice_357 [[0, 1]] : tensor<45088768xf32> into tensor<4096x11008xf32>
    %extracted_slice_359 = tensor.extract_slice %arg0[4381216768] [16777216] [1] : tensor<6755192832xf32> to tensor<16777216xf32>
    %expanded_360 = tensor.expand_shape %extracted_slice_359 [[0, 1]] : tensor<16777216xf32> into tensor<4096x4096xf32>
    %extracted_slice_361 = tensor.extract_slice %arg0[4397993984] [16777216] [1] : tensor<6755192832xf32> to tensor<16777216xf32>
    %expanded_362 = tensor.expand_shape %extracted_slice_361 [[0, 1]] : tensor<16777216xf32> into tensor<4096x4096xf32>
    %extracted_slice_363 = tensor.extract_slice %arg0[4414771200] [16777216] [1] : tensor<6755192832xf32> to tensor<16777216xf32>
    %expanded_364 = tensor.expand_shape %extracted_slice_363 [[0, 1]] : tensor<16777216xf32> into tensor<4096x4096xf32>
    %extracted_slice_365 = tensor.extract_slice %arg0[4431548416] [16777216] [1] : tensor<6755192832xf32> to tensor<16777216xf32>
    %expanded_366 = tensor.expand_shape %extracted_slice_365 [[0, 1]] : tensor<16777216xf32> into tensor<4096x4096xf32>
    %extracted_slice_367 = tensor.extract_slice %arg0[4448325632] [45088768] [1] : tensor<6755192832xf32> to tensor<45088768xf32>
    %expanded_368 = tensor.expand_shape %extracted_slice_367 [[0, 1]] : tensor<45088768xf32> into tensor<11008x4096xf32>
    %extracted_slice_369 = tensor.extract_slice %arg0[4493414400] [45088768] [1] : tensor<6755192832xf32> to tensor<45088768xf32>
    %expanded_370 = tensor.expand_shape %extracted_slice_369 [[0, 1]] : tensor<45088768xf32> into tensor<11008x4096xf32>
    %extracted_slice_371 = tensor.extract_slice %arg0[4538503168] [45088768] [1] : tensor<6755192832xf32> to tensor<45088768xf32>
    %expanded_372 = tensor.expand_shape %extracted_slice_371 [[0, 1]] : tensor<45088768xf32> into tensor<4096x11008xf32>
    %extracted_slice_373 = tensor.extract_slice %arg0[4583591936] [16777216] [1] : tensor<6755192832xf32> to tensor<16777216xf32>
    %expanded_374 = tensor.expand_shape %extracted_slice_373 [[0, 1]] : tensor<16777216xf32> into tensor<4096x4096xf32>
    %extracted_slice_375 = tensor.extract_slice %arg0[4600369152] [16777216] [1] : tensor<6755192832xf32> to tensor<16777216xf32>
    %expanded_376 = tensor.expand_shape %extracted_slice_375 [[0, 1]] : tensor<16777216xf32> into tensor<4096x4096xf32>
    %extracted_slice_377 = tensor.extract_slice %arg0[4617146368] [16777216] [1] : tensor<6755192832xf32> to tensor<16777216xf32>
    %expanded_378 = tensor.expand_shape %extracted_slice_377 [[0, 1]] : tensor<16777216xf32> into tensor<4096x4096xf32>
    %extracted_slice_379 = tensor.extract_slice %arg0[4633923584] [16777216] [1] : tensor<6755192832xf32> to tensor<16777216xf32>
    %expanded_380 = tensor.expand_shape %extracted_slice_379 [[0, 1]] : tensor<16777216xf32> into tensor<4096x4096xf32>
    %extracted_slice_381 = tensor.extract_slice %arg0[4650700800] [45088768] [1] : tensor<6755192832xf32> to tensor<45088768xf32>
    %expanded_382 = tensor.expand_shape %extracted_slice_381 [[0, 1]] : tensor<45088768xf32> into tensor<11008x4096xf32>
    %extracted_slice_383 = tensor.extract_slice %arg0[4695789568] [45088768] [1] : tensor<6755192832xf32> to tensor<45088768xf32>
    %expanded_384 = tensor.expand_shape %extracted_slice_383 [[0, 1]] : tensor<45088768xf32> into tensor<11008x4096xf32>
    %extracted_slice_385 = tensor.extract_slice %arg0[4740878336] [45088768] [1] : tensor<6755192832xf32> to tensor<45088768xf32>
    %expanded_386 = tensor.expand_shape %extracted_slice_385 [[0, 1]] : tensor<45088768xf32> into tensor<4096x11008xf32>
    %extracted_slice_387 = tensor.extract_slice %arg0[4785967104] [16777216] [1] : tensor<6755192832xf32> to tensor<16777216xf32>
    %expanded_388 = tensor.expand_shape %extracted_slice_387 [[0, 1]] : tensor<16777216xf32> into tensor<4096x4096xf32>
    %extracted_slice_389 = tensor.extract_slice %arg0[4802744320] [16777216] [1] : tensor<6755192832xf32> to tensor<16777216xf32>
    %expanded_390 = tensor.expand_shape %extracted_slice_389 [[0, 1]] : tensor<16777216xf32> into tensor<4096x4096xf32>
    %extracted_slice_391 = tensor.extract_slice %arg0[4819521536] [16777216] [1] : tensor<6755192832xf32> to tensor<16777216xf32>
    %expanded_392 = tensor.expand_shape %extracted_slice_391 [[0, 1]] : tensor<16777216xf32> into tensor<4096x4096xf32>
    %extracted_slice_393 = tensor.extract_slice %arg0[4836298752] [16777216] [1] : tensor<6755192832xf32> to tensor<16777216xf32>
    %expanded_394 = tensor.expand_shape %extracted_slice_393 [[0, 1]] : tensor<16777216xf32> into tensor<4096x4096xf32>
    %extracted_slice_395 = tensor.extract_slice %arg0[4853075968] [45088768] [1] : tensor<6755192832xf32> to tensor<45088768xf32>
    %expanded_396 = tensor.expand_shape %extracted_slice_395 [[0, 1]] : tensor<45088768xf32> into tensor<11008x4096xf32>
    %extracted_slice_397 = tensor.extract_slice %arg0[4898164736] [45088768] [1] : tensor<6755192832xf32> to tensor<45088768xf32>
    %expanded_398 = tensor.expand_shape %extracted_slice_397 [[0, 1]] : tensor<45088768xf32> into tensor<11008x4096xf32>
    %extracted_slice_399 = tensor.extract_slice %arg0[4943253504] [45088768] [1] : tensor<6755192832xf32> to tensor<45088768xf32>
    %expanded_400 = tensor.expand_shape %extracted_slice_399 [[0, 1]] : tensor<45088768xf32> into tensor<4096x11008xf32>
    %extracted_slice_401 = tensor.extract_slice %arg0[4988342272] [16777216] [1] : tensor<6755192832xf32> to tensor<16777216xf32>
    %expanded_402 = tensor.expand_shape %extracted_slice_401 [[0, 1]] : tensor<16777216xf32> into tensor<4096x4096xf32>
    %extracted_slice_403 = tensor.extract_slice %arg0[5005119488] [16777216] [1] : tensor<6755192832xf32> to tensor<16777216xf32>
    %expanded_404 = tensor.expand_shape %extracted_slice_403 [[0, 1]] : tensor<16777216xf32> into tensor<4096x4096xf32>
    %extracted_slice_405 = tensor.extract_slice %arg0[5021896704] [16777216] [1] : tensor<6755192832xf32> to tensor<16777216xf32>
    %expanded_406 = tensor.expand_shape %extracted_slice_405 [[0, 1]] : tensor<16777216xf32> into tensor<4096x4096xf32>
    %extracted_slice_407 = tensor.extract_slice %arg0[5038673920] [16777216] [1] : tensor<6755192832xf32> to tensor<16777216xf32>
    %expanded_408 = tensor.expand_shape %extracted_slice_407 [[0, 1]] : tensor<16777216xf32> into tensor<4096x4096xf32>
    %extracted_slice_409 = tensor.extract_slice %arg0[5055451136] [45088768] [1] : tensor<6755192832xf32> to tensor<45088768xf32>
    %expanded_410 = tensor.expand_shape %extracted_slice_409 [[0, 1]] : tensor<45088768xf32> into tensor<11008x4096xf32>
    %extracted_slice_411 = tensor.extract_slice %arg0[5100539904] [45088768] [1] : tensor<6755192832xf32> to tensor<45088768xf32>
    %expanded_412 = tensor.expand_shape %extracted_slice_411 [[0, 1]] : tensor<45088768xf32> into tensor<11008x4096xf32>
    %extracted_slice_413 = tensor.extract_slice %arg0[5145628672] [45088768] [1] : tensor<6755192832xf32> to tensor<45088768xf32>
    %expanded_414 = tensor.expand_shape %extracted_slice_413 [[0, 1]] : tensor<45088768xf32> into tensor<4096x11008xf32>
    %extracted_slice_415 = tensor.extract_slice %arg0[5190717440] [16777216] [1] : tensor<6755192832xf32> to tensor<16777216xf32>
    %expanded_416 = tensor.expand_shape %extracted_slice_415 [[0, 1]] : tensor<16777216xf32> into tensor<4096x4096xf32>
    %extracted_slice_417 = tensor.extract_slice %arg0[5207494656] [16777216] [1] : tensor<6755192832xf32> to tensor<16777216xf32>
    %expanded_418 = tensor.expand_shape %extracted_slice_417 [[0, 1]] : tensor<16777216xf32> into tensor<4096x4096xf32>
    %extracted_slice_419 = tensor.extract_slice %arg0[5224271872] [16777216] [1] : tensor<6755192832xf32> to tensor<16777216xf32>
    %expanded_420 = tensor.expand_shape %extracted_slice_419 [[0, 1]] : tensor<16777216xf32> into tensor<4096x4096xf32>
    %extracted_slice_421 = tensor.extract_slice %arg0[5241049088] [16777216] [1] : tensor<6755192832xf32> to tensor<16777216xf32>
    %expanded_422 = tensor.expand_shape %extracted_slice_421 [[0, 1]] : tensor<16777216xf32> into tensor<4096x4096xf32>
    %extracted_slice_423 = tensor.extract_slice %arg0[5257826304] [45088768] [1] : tensor<6755192832xf32> to tensor<45088768xf32>
    %expanded_424 = tensor.expand_shape %extracted_slice_423 [[0, 1]] : tensor<45088768xf32> into tensor<11008x4096xf32>
    %extracted_slice_425 = tensor.extract_slice %arg0[5302915072] [45088768] [1] : tensor<6755192832xf32> to tensor<45088768xf32>
    %expanded_426 = tensor.expand_shape %extracted_slice_425 [[0, 1]] : tensor<45088768xf32> into tensor<11008x4096xf32>
    %extracted_slice_427 = tensor.extract_slice %arg0[5348003840] [45088768] [1] : tensor<6755192832xf32> to tensor<45088768xf32>
    %expanded_428 = tensor.expand_shape %extracted_slice_427 [[0, 1]] : tensor<45088768xf32> into tensor<4096x11008xf32>
    %extracted_slice_429 = tensor.extract_slice %arg0[5393092608] [16777216] [1] : tensor<6755192832xf32> to tensor<16777216xf32>
    %expanded_430 = tensor.expand_shape %extracted_slice_429 [[0, 1]] : tensor<16777216xf32> into tensor<4096x4096xf32>
    %extracted_slice_431 = tensor.extract_slice %arg0[5409869824] [16777216] [1] : tensor<6755192832xf32> to tensor<16777216xf32>
    %expanded_432 = tensor.expand_shape %extracted_slice_431 [[0, 1]] : tensor<16777216xf32> into tensor<4096x4096xf32>
    %extracted_slice_433 = tensor.extract_slice %arg0[5426647040] [16777216] [1] : tensor<6755192832xf32> to tensor<16777216xf32>
    %expanded_434 = tensor.expand_shape %extracted_slice_433 [[0, 1]] : tensor<16777216xf32> into tensor<4096x4096xf32>
    %extracted_slice_435 = tensor.extract_slice %arg0[5443424256] [16777216] [1] : tensor<6755192832xf32> to tensor<16777216xf32>
    %expanded_436 = tensor.expand_shape %extracted_slice_435 [[0, 1]] : tensor<16777216xf32> into tensor<4096x4096xf32>
    %extracted_slice_437 = tensor.extract_slice %arg0[5460201472] [45088768] [1] : tensor<6755192832xf32> to tensor<45088768xf32>
    %expanded_438 = tensor.expand_shape %extracted_slice_437 [[0, 1]] : tensor<45088768xf32> into tensor<11008x4096xf32>
    %extracted_slice_439 = tensor.extract_slice %arg0[5505290240] [45088768] [1] : tensor<6755192832xf32> to tensor<45088768xf32>
    %expanded_440 = tensor.expand_shape %extracted_slice_439 [[0, 1]] : tensor<45088768xf32> into tensor<11008x4096xf32>
    %extracted_slice_441 = tensor.extract_slice %arg0[5550379008] [45088768] [1] : tensor<6755192832xf32> to tensor<45088768xf32>
    %expanded_442 = tensor.expand_shape %extracted_slice_441 [[0, 1]] : tensor<45088768xf32> into tensor<4096x11008xf32>
    %extracted_slice_443 = tensor.extract_slice %arg0[5595467776] [16777216] [1] : tensor<6755192832xf32> to tensor<16777216xf32>
    %expanded_444 = tensor.expand_shape %extracted_slice_443 [[0, 1]] : tensor<16777216xf32> into tensor<4096x4096xf32>
    %extracted_slice_445 = tensor.extract_slice %arg0[5612244992] [16777216] [1] : tensor<6755192832xf32> to tensor<16777216xf32>
    %expanded_446 = tensor.expand_shape %extracted_slice_445 [[0, 1]] : tensor<16777216xf32> into tensor<4096x4096xf32>
    %extracted_slice_447 = tensor.extract_slice %arg0[5629022208] [16777216] [1] : tensor<6755192832xf32> to tensor<16777216xf32>
    %expanded_448 = tensor.expand_shape %extracted_slice_447 [[0, 1]] : tensor<16777216xf32> into tensor<4096x4096xf32>
    %extracted_slice_449 = tensor.extract_slice %arg0[5645799424] [16777216] [1] : tensor<6755192832xf32> to tensor<16777216xf32>
    %expanded_450 = tensor.expand_shape %extracted_slice_449 [[0, 1]] : tensor<16777216xf32> into tensor<4096x4096xf32>
    %extracted_slice_451 = tensor.extract_slice %arg0[5662576640] [45088768] [1] : tensor<6755192832xf32> to tensor<45088768xf32>
    %expanded_452 = tensor.expand_shape %extracted_slice_451 [[0, 1]] : tensor<45088768xf32> into tensor<11008x4096xf32>
    %extracted_slice_453 = tensor.extract_slice %arg0[5707665408] [45088768] [1] : tensor<6755192832xf32> to tensor<45088768xf32>
    %expanded_454 = tensor.expand_shape %extracted_slice_453 [[0, 1]] : tensor<45088768xf32> into tensor<11008x4096xf32>
    %extracted_slice_455 = tensor.extract_slice %arg0[5752754176] [45088768] [1] : tensor<6755192832xf32> to tensor<45088768xf32>
    %expanded_456 = tensor.expand_shape %extracted_slice_455 [[0, 1]] : tensor<45088768xf32> into tensor<4096x11008xf32>
    %extracted_slice_457 = tensor.extract_slice %arg0[5797842944] [16777216] [1] : tensor<6755192832xf32> to tensor<16777216xf32>
    %expanded_458 = tensor.expand_shape %extracted_slice_457 [[0, 1]] : tensor<16777216xf32> into tensor<4096x4096xf32>
    %extracted_slice_459 = tensor.extract_slice %arg0[5814620160] [16777216] [1] : tensor<6755192832xf32> to tensor<16777216xf32>
    %expanded_460 = tensor.expand_shape %extracted_slice_459 [[0, 1]] : tensor<16777216xf32> into tensor<4096x4096xf32>
    %extracted_slice_461 = tensor.extract_slice %arg0[5831397376] [16777216] [1] : tensor<6755192832xf32> to tensor<16777216xf32>
    %expanded_462 = tensor.expand_shape %extracted_slice_461 [[0, 1]] : tensor<16777216xf32> into tensor<4096x4096xf32>
    %extracted_slice_463 = tensor.extract_slice %arg0[5848174592] [16777216] [1] : tensor<6755192832xf32> to tensor<16777216xf32>
    %expanded_464 = tensor.expand_shape %extracted_slice_463 [[0, 1]] : tensor<16777216xf32> into tensor<4096x4096xf32>
    %extracted_slice_465 = tensor.extract_slice %arg0[5864951808] [45088768] [1] : tensor<6755192832xf32> to tensor<45088768xf32>
    %expanded_466 = tensor.expand_shape %extracted_slice_465 [[0, 1]] : tensor<45088768xf32> into tensor<11008x4096xf32>
    %extracted_slice_467 = tensor.extract_slice %arg0[5910040576] [45088768] [1] : tensor<6755192832xf32> to tensor<45088768xf32>
    %expanded_468 = tensor.expand_shape %extracted_slice_467 [[0, 1]] : tensor<45088768xf32> into tensor<11008x4096xf32>
    %extracted_slice_469 = tensor.extract_slice %arg0[5955129344] [45088768] [1] : tensor<6755192832xf32> to tensor<45088768xf32>
    %expanded_470 = tensor.expand_shape %extracted_slice_469 [[0, 1]] : tensor<45088768xf32> into tensor<4096x11008xf32>
    %extracted_slice_471 = tensor.extract_slice %arg0[6000218112] [16777216] [1] : tensor<6755192832xf32> to tensor<16777216xf32>
    %expanded_472 = tensor.expand_shape %extracted_slice_471 [[0, 1]] : tensor<16777216xf32> into tensor<4096x4096xf32>
    %extracted_slice_473 = tensor.extract_slice %arg0[6016995328] [16777216] [1] : tensor<6755192832xf32> to tensor<16777216xf32>
    %expanded_474 = tensor.expand_shape %extracted_slice_473 [[0, 1]] : tensor<16777216xf32> into tensor<4096x4096xf32>
    %extracted_slice_475 = tensor.extract_slice %arg0[6033772544] [16777216] [1] : tensor<6755192832xf32> to tensor<16777216xf32>
    %expanded_476 = tensor.expand_shape %extracted_slice_475 [[0, 1]] : tensor<16777216xf32> into tensor<4096x4096xf32>
    %extracted_slice_477 = tensor.extract_slice %arg0[6050549760] [16777216] [1] : tensor<6755192832xf32> to tensor<16777216xf32>
    %expanded_478 = tensor.expand_shape %extracted_slice_477 [[0, 1]] : tensor<16777216xf32> into tensor<4096x4096xf32>
    %extracted_slice_479 = tensor.extract_slice %arg0[6067326976] [45088768] [1] : tensor<6755192832xf32> to tensor<45088768xf32>
    %expanded_480 = tensor.expand_shape %extracted_slice_479 [[0, 1]] : tensor<45088768xf32> into tensor<11008x4096xf32>
    %extracted_slice_481 = tensor.extract_slice %arg0[6112415744] [45088768] [1] : tensor<6755192832xf32> to tensor<45088768xf32>
    %expanded_482 = tensor.expand_shape %extracted_slice_481 [[0, 1]] : tensor<45088768xf32> into tensor<11008x4096xf32>
    %extracted_slice_483 = tensor.extract_slice %arg0[6157504512] [45088768] [1] : tensor<6755192832xf32> to tensor<45088768xf32>
    %expanded_484 = tensor.expand_shape %extracted_slice_483 [[0, 1]] : tensor<45088768xf32> into tensor<4096x11008xf32>
    %extracted_slice_485 = tensor.extract_slice %arg0[6202593280] [16777216] [1] : tensor<6755192832xf32> to tensor<16777216xf32>
    %expanded_486 = tensor.expand_shape %extracted_slice_485 [[0, 1]] : tensor<16777216xf32> into tensor<4096x4096xf32>
    %extracted_slice_487 = tensor.extract_slice %arg0[6219370496] [16777216] [1] : tensor<6755192832xf32> to tensor<16777216xf32>
    %expanded_488 = tensor.expand_shape %extracted_slice_487 [[0, 1]] : tensor<16777216xf32> into tensor<4096x4096xf32>
    %extracted_slice_489 = tensor.extract_slice %arg0[6236147712] [16777216] [1] : tensor<6755192832xf32> to tensor<16777216xf32>
    %expanded_490 = tensor.expand_shape %extracted_slice_489 [[0, 1]] : tensor<16777216xf32> into tensor<4096x4096xf32>
    %extracted_slice_491 = tensor.extract_slice %arg0[6252924928] [16777216] [1] : tensor<6755192832xf32> to tensor<16777216xf32>
    %expanded_492 = tensor.expand_shape %extracted_slice_491 [[0, 1]] : tensor<16777216xf32> into tensor<4096x4096xf32>
    %extracted_slice_493 = tensor.extract_slice %arg0[6269702144] [45088768] [1] : tensor<6755192832xf32> to tensor<45088768xf32>
    %expanded_494 = tensor.expand_shape %extracted_slice_493 [[0, 1]] : tensor<45088768xf32> into tensor<11008x4096xf32>
    %extracted_slice_495 = tensor.extract_slice %arg0[6314790912] [45088768] [1] : tensor<6755192832xf32> to tensor<45088768xf32>
    %expanded_496 = tensor.expand_shape %extracted_slice_495 [[0, 1]] : tensor<45088768xf32> into tensor<11008x4096xf32>
    %extracted_slice_497 = tensor.extract_slice %arg0[6359879680] [45088768] [1] : tensor<6755192832xf32> to tensor<45088768xf32>
    %expanded_498 = tensor.expand_shape %extracted_slice_497 [[0, 1]] : tensor<45088768xf32> into tensor<4096x11008xf32>
    %extracted_slice_499 = tensor.extract_slice %arg0[6404968448] [16777216] [1] : tensor<6755192832xf32> to tensor<16777216xf32>
    %expanded_500 = tensor.expand_shape %extracted_slice_499 [[0, 1]] : tensor<16777216xf32> into tensor<4096x4096xf32>
    %extracted_slice_501 = tensor.extract_slice %arg0[6421745664] [16777216] [1] : tensor<6755192832xf32> to tensor<16777216xf32>
    %expanded_502 = tensor.expand_shape %extracted_slice_501 [[0, 1]] : tensor<16777216xf32> into tensor<4096x4096xf32>
    %extracted_slice_503 = tensor.extract_slice %arg0[6438522880] [16777216] [1] : tensor<6755192832xf32> to tensor<16777216xf32>
    %expanded_504 = tensor.expand_shape %extracted_slice_503 [[0, 1]] : tensor<16777216xf32> into tensor<4096x4096xf32>
    %extracted_slice_505 = tensor.extract_slice %arg0[6455300096] [16777216] [1] : tensor<6755192832xf32> to tensor<16777216xf32>
    %expanded_506 = tensor.expand_shape %extracted_slice_505 [[0, 1]] : tensor<16777216xf32> into tensor<4096x4096xf32>
    %extracted_slice_507 = tensor.extract_slice %arg0[6472077312] [45088768] [1] : tensor<6755192832xf32> to tensor<45088768xf32>
    %expanded_508 = tensor.expand_shape %extracted_slice_507 [[0, 1]] : tensor<45088768xf32> into tensor<11008x4096xf32>
    %extracted_slice_509 = tensor.extract_slice %arg0[6517166080] [45088768] [1] : tensor<6755192832xf32> to tensor<45088768xf32>
    %expanded_510 = tensor.expand_shape %extracted_slice_509 [[0, 1]] : tensor<45088768xf32> into tensor<11008x4096xf32>
    %extracted_slice_511 = tensor.extract_slice %arg0[6562254848] [45088768] [1] : tensor<6755192832xf32> to tensor<45088768xf32>
    %expanded_512 = tensor.expand_shape %extracted_slice_511 [[0, 1]] : tensor<45088768xf32> into tensor<4096x11008xf32>
    %extracted_slice_513 = tensor.extract_slice %arg0[6607343616] [131072000] [1] : tensor<6755192832xf32> to tensor<131072000xf32>
    %expanded_514 = tensor.expand_shape %extracted_slice_513 [[0, 1]] : tensor<131072000xf32> into tensor<32000x4096xf32>
    %extracted_slice_515 = tensor.extract_slice %arg0[6738415616] [262144] [1] : tensor<6755192832xf32> to tensor<262144xf32>
    %expanded_516 = tensor.expand_shape %extracted_slice_515 [[0, 1, 2, 3]] : tensor<262144xf32> into tensor<1x1x2048x128xf32>
    %extracted_slice_517 = tensor.extract_slice %arg0[6738677760] [262144] [1] : tensor<6755192832xf32> to tensor<262144xf32>
    %expanded_518 = tensor.expand_shape %extracted_slice_517 [[0, 1, 2, 3]] : tensor<262144xf32> into tensor<1x1x2048x128xf32>
    %extracted_slice_519 = tensor.extract_slice %arg0[6738939904] [262144] [1] : tensor<6755192832xf32> to tensor<262144xf32>
    %expanded_520 = tensor.expand_shape %extracted_slice_519 [[0, 1, 2, 3]] : tensor<262144xf32> into tensor<1x1x2048x128xf32>
    %extracted_slice_521 = tensor.extract_slice %arg0[6739202048] [262144] [1] : tensor<6755192832xf32> to tensor<262144xf32>
    %expanded_522 = tensor.expand_shape %extracted_slice_521 [[0, 1, 2, 3]] : tensor<262144xf32> into tensor<1x1x2048x128xf32>
    %extracted_slice_523 = tensor.extract_slice %arg0[6739464192] [262144] [1] : tensor<6755192832xf32> to tensor<262144xf32>
    %expanded_524 = tensor.expand_shape %extracted_slice_523 [[0, 1, 2, 3]] : tensor<262144xf32> into tensor<1x1x2048x128xf32>
    %extracted_slice_525 = tensor.extract_slice %arg0[6739726336] [262144] [1] : tensor<6755192832xf32> to tensor<262144xf32>
    %expanded_526 = tensor.expand_shape %extracted_slice_525 [[0, 1, 2, 3]] : tensor<262144xf32> into tensor<1x1x2048x128xf32>
    %extracted_slice_527 = tensor.extract_slice %arg0[6739988480] [262144] [1] : tensor<6755192832xf32> to tensor<262144xf32>
    %expanded_528 = tensor.expand_shape %extracted_slice_527 [[0, 1, 2, 3]] : tensor<262144xf32> into tensor<1x1x2048x128xf32>
    %extracted_slice_529 = tensor.extract_slice %arg0[6740250624] [262144] [1] : tensor<6755192832xf32> to tensor<262144xf32>
    %expanded_530 = tensor.expand_shape %extracted_slice_529 [[0, 1, 2, 3]] : tensor<262144xf32> into tensor<1x1x2048x128xf32>
    %extracted_slice_531 = tensor.extract_slice %arg0[6740512768] [262144] [1] : tensor<6755192832xf32> to tensor<262144xf32>
    %expanded_532 = tensor.expand_shape %extracted_slice_531 [[0, 1, 2, 3]] : tensor<262144xf32> into tensor<1x1x2048x128xf32>
    %extracted_slice_533 = tensor.extract_slice %arg0[6740774912] [262144] [1] : tensor<6755192832xf32> to tensor<262144xf32>
    %expanded_534 = tensor.expand_shape %extracted_slice_533 [[0, 1, 2, 3]] : tensor<262144xf32> into tensor<1x1x2048x128xf32>
    %extracted_slice_535 = tensor.extract_slice %arg0[6741037056] [262144] [1] : tensor<6755192832xf32> to tensor<262144xf32>
    %expanded_536 = tensor.expand_shape %extracted_slice_535 [[0, 1, 2, 3]] : tensor<262144xf32> into tensor<1x1x2048x128xf32>
    %extracted_slice_537 = tensor.extract_slice %arg0[6741299200] [262144] [1] : tensor<6755192832xf32> to tensor<262144xf32>
    %expanded_538 = tensor.expand_shape %extracted_slice_537 [[0, 1, 2, 3]] : tensor<262144xf32> into tensor<1x1x2048x128xf32>
    %extracted_slice_539 = tensor.extract_slice %arg0[6741561344] [262144] [1] : tensor<6755192832xf32> to tensor<262144xf32>
    %expanded_540 = tensor.expand_shape %extracted_slice_539 [[0, 1, 2, 3]] : tensor<262144xf32> into tensor<1x1x2048x128xf32>
    %extracted_slice_541 = tensor.extract_slice %arg0[6741823488] [262144] [1] : tensor<6755192832xf32> to tensor<262144xf32>
    %expanded_542 = tensor.expand_shape %extracted_slice_541 [[0, 1, 2, 3]] : tensor<262144xf32> into tensor<1x1x2048x128xf32>
    %extracted_slice_543 = tensor.extract_slice %arg0[6742085632] [262144] [1] : tensor<6755192832xf32> to tensor<262144xf32>
    %expanded_544 = tensor.expand_shape %extracted_slice_543 [[0, 1, 2, 3]] : tensor<262144xf32> into tensor<1x1x2048x128xf32>
    %extracted_slice_545 = tensor.extract_slice %arg0[6742347776] [262144] [1] : tensor<6755192832xf32> to tensor<262144xf32>
    %expanded_546 = tensor.expand_shape %extracted_slice_545 [[0, 1, 2, 3]] : tensor<262144xf32> into tensor<1x1x2048x128xf32>
    %extracted_slice_547 = tensor.extract_slice %arg0[6742609920] [262144] [1] : tensor<6755192832xf32> to tensor<262144xf32>
    %expanded_548 = tensor.expand_shape %extracted_slice_547 [[0, 1, 2, 3]] : tensor<262144xf32> into tensor<1x1x2048x128xf32>
    %extracted_slice_549 = tensor.extract_slice %arg0[6742872064] [262144] [1] : tensor<6755192832xf32> to tensor<262144xf32>
    %expanded_550 = tensor.expand_shape %extracted_slice_549 [[0, 1, 2, 3]] : tensor<262144xf32> into tensor<1x1x2048x128xf32>
    %extracted_slice_551 = tensor.extract_slice %arg0[6743134208] [262144] [1] : tensor<6755192832xf32> to tensor<262144xf32>
    %expanded_552 = tensor.expand_shape %extracted_slice_551 [[0, 1, 2, 3]] : tensor<262144xf32> into tensor<1x1x2048x128xf32>
    %extracted_slice_553 = tensor.extract_slice %arg0[6743396352] [262144] [1] : tensor<6755192832xf32> to tensor<262144xf32>
    %expanded_554 = tensor.expand_shape %extracted_slice_553 [[0, 1, 2, 3]] : tensor<262144xf32> into tensor<1x1x2048x128xf32>
    %extracted_slice_555 = tensor.extract_slice %arg0[6743658496] [262144] [1] : tensor<6755192832xf32> to tensor<262144xf32>
    %expanded_556 = tensor.expand_shape %extracted_slice_555 [[0, 1, 2, 3]] : tensor<262144xf32> into tensor<1x1x2048x128xf32>
    %extracted_slice_557 = tensor.extract_slice %arg0[6743920640] [262144] [1] : tensor<6755192832xf32> to tensor<262144xf32>
    %expanded_558 = tensor.expand_shape %extracted_slice_557 [[0, 1, 2, 3]] : tensor<262144xf32> into tensor<1x1x2048x128xf32>
    %extracted_slice_559 = tensor.extract_slice %arg0[6744182784] [262144] [1] : tensor<6755192832xf32> to tensor<262144xf32>
    %expanded_560 = tensor.expand_shape %extracted_slice_559 [[0, 1, 2, 3]] : tensor<262144xf32> into tensor<1x1x2048x128xf32>
    %extracted_slice_561 = tensor.extract_slice %arg0[6744444928] [262144] [1] : tensor<6755192832xf32> to tensor<262144xf32>
    %expanded_562 = tensor.expand_shape %extracted_slice_561 [[0, 1, 2, 3]] : tensor<262144xf32> into tensor<1x1x2048x128xf32>
    %extracted_slice_563 = tensor.extract_slice %arg0[6744707072] [262144] [1] : tensor<6755192832xf32> to tensor<262144xf32>
    %expanded_564 = tensor.expand_shape %extracted_slice_563 [[0, 1, 2, 3]] : tensor<262144xf32> into tensor<1x1x2048x128xf32>
    %extracted_slice_565 = tensor.extract_slice %arg0[6744969216] [262144] [1] : tensor<6755192832xf32> to tensor<262144xf32>
    %expanded_566 = tensor.expand_shape %extracted_slice_565 [[0, 1, 2, 3]] : tensor<262144xf32> into tensor<1x1x2048x128xf32>
    %extracted_slice_567 = tensor.extract_slice %arg0[6745231360] [262144] [1] : tensor<6755192832xf32> to tensor<262144xf32>
    %expanded_568 = tensor.expand_shape %extracted_slice_567 [[0, 1, 2, 3]] : tensor<262144xf32> into tensor<1x1x2048x128xf32>
    %extracted_slice_569 = tensor.extract_slice %arg0[6745493504] [262144] [1] : tensor<6755192832xf32> to tensor<262144xf32>
    %expanded_570 = tensor.expand_shape %extracted_slice_569 [[0, 1, 2, 3]] : tensor<262144xf32> into tensor<1x1x2048x128xf32>
    %extracted_slice_571 = tensor.extract_slice %arg0[6745755648] [262144] [1] : tensor<6755192832xf32> to tensor<262144xf32>
    %expanded_572 = tensor.expand_shape %extracted_slice_571 [[0, 1, 2, 3]] : tensor<262144xf32> into tensor<1x1x2048x128xf32>
    %extracted_slice_573 = tensor.extract_slice %arg0[6746017792] [262144] [1] : tensor<6755192832xf32> to tensor<262144xf32>
    %expanded_574 = tensor.expand_shape %extracted_slice_573 [[0, 1, 2, 3]] : tensor<262144xf32> into tensor<1x1x2048x128xf32>
    %extracted_slice_575 = tensor.extract_slice %arg0[6746279936] [262144] [1] : tensor<6755192832xf32> to tensor<262144xf32>
    %expanded_576 = tensor.expand_shape %extracted_slice_575 [[0, 1, 2, 3]] : tensor<262144xf32> into tensor<1x1x2048x128xf32>
    %extracted_slice_577 = tensor.extract_slice %arg0[6746542080] [262144] [1] : tensor<6755192832xf32> to tensor<262144xf32>
    %expanded_578 = tensor.expand_shape %extracted_slice_577 [[0, 1, 2, 3]] : tensor<262144xf32> into tensor<1x1x2048x128xf32>
    %extracted_slice_579 = tensor.extract_slice %arg0[6746804224] [262144] [1] : tensor<6755192832xf32> to tensor<262144xf32>
    %expanded_580 = tensor.expand_shape %extracted_slice_579 [[0, 1, 2, 3]] : tensor<262144xf32> into tensor<1x1x2048x128xf32>
    %extracted_slice_581 = tensor.extract_slice %arg0[6747066368] [262144] [1] : tensor<6755192832xf32> to tensor<262144xf32>
    %expanded_582 = tensor.expand_shape %extracted_slice_581 [[0, 1, 2, 3]] : tensor<262144xf32> into tensor<1x1x2048x128xf32>
    %extracted_slice_583 = tensor.extract_slice %arg0[6747328512] [262144] [1] : tensor<6755192832xf32> to tensor<262144xf32>
    %expanded_584 = tensor.expand_shape %extracted_slice_583 [[0, 1, 2, 3]] : tensor<262144xf32> into tensor<1x1x2048x128xf32>
    %extracted_slice_585 = tensor.extract_slice %arg0[6747590656] [262144] [1] : tensor<6755192832xf32> to tensor<262144xf32>
    %expanded_586 = tensor.expand_shape %extracted_slice_585 [[0, 1, 2, 3]] : tensor<262144xf32> into tensor<1x1x2048x128xf32>
    %extracted_slice_587 = tensor.extract_slice %arg0[6747852800] [262144] [1] : tensor<6755192832xf32> to tensor<262144xf32>
    %expanded_588 = tensor.expand_shape %extracted_slice_587 [[0, 1, 2, 3]] : tensor<262144xf32> into tensor<1x1x2048x128xf32>
    %extracted_slice_589 = tensor.extract_slice %arg0[6748114944] [262144] [1] : tensor<6755192832xf32> to tensor<262144xf32>
    %expanded_590 = tensor.expand_shape %extracted_slice_589 [[0, 1, 2, 3]] : tensor<262144xf32> into tensor<1x1x2048x128xf32>
    %extracted_slice_591 = tensor.extract_slice %arg0[6748377088] [262144] [1] : tensor<6755192832xf32> to tensor<262144xf32>
    %expanded_592 = tensor.expand_shape %extracted_slice_591 [[0, 1, 2, 3]] : tensor<262144xf32> into tensor<1x1x2048x128xf32>
    %extracted_slice_593 = tensor.extract_slice %arg0[6748639232] [262144] [1] : tensor<6755192832xf32> to tensor<262144xf32>
    %expanded_594 = tensor.expand_shape %extracted_slice_593 [[0, 1, 2, 3]] : tensor<262144xf32> into tensor<1x1x2048x128xf32>
    %extracted_slice_595 = tensor.extract_slice %arg0[6748901376] [262144] [1] : tensor<6755192832xf32> to tensor<262144xf32>
    %expanded_596 = tensor.expand_shape %extracted_slice_595 [[0, 1, 2, 3]] : tensor<262144xf32> into tensor<1x1x2048x128xf32>
    %extracted_slice_597 = tensor.extract_slice %arg0[6749163520] [262144] [1] : tensor<6755192832xf32> to tensor<262144xf32>
    %expanded_598 = tensor.expand_shape %extracted_slice_597 [[0, 1, 2, 3]] : tensor<262144xf32> into tensor<1x1x2048x128xf32>
    %extracted_slice_599 = tensor.extract_slice %arg0[6749425664] [262144] [1] : tensor<6755192832xf32> to tensor<262144xf32>
    %expanded_600 = tensor.expand_shape %extracted_slice_599 [[0, 1, 2, 3]] : tensor<262144xf32> into tensor<1x1x2048x128xf32>
    %extracted_slice_601 = tensor.extract_slice %arg0[6749687808] [262144] [1] : tensor<6755192832xf32> to tensor<262144xf32>
    %expanded_602 = tensor.expand_shape %extracted_slice_601 [[0, 1, 2, 3]] : tensor<262144xf32> into tensor<1x1x2048x128xf32>
    %extracted_slice_603 = tensor.extract_slice %arg0[6749949952] [262144] [1] : tensor<6755192832xf32> to tensor<262144xf32>
    %expanded_604 = tensor.expand_shape %extracted_slice_603 [[0, 1, 2, 3]] : tensor<262144xf32> into tensor<1x1x2048x128xf32>
    %extracted_slice_605 = tensor.extract_slice %arg0[6750212096] [262144] [1] : tensor<6755192832xf32> to tensor<262144xf32>
    %expanded_606 = tensor.expand_shape %extracted_slice_605 [[0, 1, 2, 3]] : tensor<262144xf32> into tensor<1x1x2048x128xf32>
    %extracted_slice_607 = tensor.extract_slice %arg0[6750474240] [262144] [1] : tensor<6755192832xf32> to tensor<262144xf32>
    %expanded_608 = tensor.expand_shape %extracted_slice_607 [[0, 1, 2, 3]] : tensor<262144xf32> into tensor<1x1x2048x128xf32>
    %extracted_slice_609 = tensor.extract_slice %arg0[6750736384] [262144] [1] : tensor<6755192832xf32> to tensor<262144xf32>
    %expanded_610 = tensor.expand_shape %extracted_slice_609 [[0, 1, 2, 3]] : tensor<262144xf32> into tensor<1x1x2048x128xf32>
    %extracted_slice_611 = tensor.extract_slice %arg0[6750998528] [262144] [1] : tensor<6755192832xf32> to tensor<262144xf32>
    %expanded_612 = tensor.expand_shape %extracted_slice_611 [[0, 1, 2, 3]] : tensor<262144xf32> into tensor<1x1x2048x128xf32>
    %extracted_slice_613 = tensor.extract_slice %arg0[6751260672] [262144] [1] : tensor<6755192832xf32> to tensor<262144xf32>
    %expanded_614 = tensor.expand_shape %extracted_slice_613 [[0, 1, 2, 3]] : tensor<262144xf32> into tensor<1x1x2048x128xf32>
    %extracted_slice_615 = tensor.extract_slice %arg0[6751522816] [262144] [1] : tensor<6755192832xf32> to tensor<262144xf32>
    %expanded_616 = tensor.expand_shape %extracted_slice_615 [[0, 1, 2, 3]] : tensor<262144xf32> into tensor<1x1x2048x128xf32>
    %extracted_slice_617 = tensor.extract_slice %arg0[6751784960] [262144] [1] : tensor<6755192832xf32> to tensor<262144xf32>
    %expanded_618 = tensor.expand_shape %extracted_slice_617 [[0, 1, 2, 3]] : tensor<262144xf32> into tensor<1x1x2048x128xf32>
    %extracted_slice_619 = tensor.extract_slice %arg0[6752047104] [262144] [1] : tensor<6755192832xf32> to tensor<262144xf32>
    %expanded_620 = tensor.expand_shape %extracted_slice_619 [[0, 1, 2, 3]] : tensor<262144xf32> into tensor<1x1x2048x128xf32>
    %extracted_slice_621 = tensor.extract_slice %arg0[6752309248] [262144] [1] : tensor<6755192832xf32> to tensor<262144xf32>
    %expanded_622 = tensor.expand_shape %extracted_slice_621 [[0, 1, 2, 3]] : tensor<262144xf32> into tensor<1x1x2048x128xf32>
    %extracted_slice_623 = tensor.extract_slice %arg0[6752571392] [262144] [1] : tensor<6755192832xf32> to tensor<262144xf32>
    %expanded_624 = tensor.expand_shape %extracted_slice_623 [[0, 1, 2, 3]] : tensor<262144xf32> into tensor<1x1x2048x128xf32>
    %extracted_slice_625 = tensor.extract_slice %arg0[6752833536] [262144] [1] : tensor<6755192832xf32> to tensor<262144xf32>
    %expanded_626 = tensor.expand_shape %extracted_slice_625 [[0, 1, 2, 3]] : tensor<262144xf32> into tensor<1x1x2048x128xf32>
    %extracted_slice_627 = tensor.extract_slice %arg0[6753095680] [262144] [1] : tensor<6755192832xf32> to tensor<262144xf32>
    %expanded_628 = tensor.expand_shape %extracted_slice_627 [[0, 1, 2, 3]] : tensor<262144xf32> into tensor<1x1x2048x128xf32>
    %extracted_slice_629 = tensor.extract_slice %arg0[6753357824] [262144] [1] : tensor<6755192832xf32> to tensor<262144xf32>
    %expanded_630 = tensor.expand_shape %extracted_slice_629 [[0, 1, 2, 3]] : tensor<262144xf32> into tensor<1x1x2048x128xf32>
    %extracted_slice_631 = tensor.extract_slice %arg0[6753619968] [262144] [1] : tensor<6755192832xf32> to tensor<262144xf32>
    %expanded_632 = tensor.expand_shape %extracted_slice_631 [[0, 1, 2, 3]] : tensor<262144xf32> into tensor<1x1x2048x128xf32>
    %extracted_slice_633 = tensor.extract_slice %arg0[6753882112] [262144] [1] : tensor<6755192832xf32> to tensor<262144xf32>
    %expanded_634 = tensor.expand_shape %extracted_slice_633 [[0, 1, 2, 3]] : tensor<262144xf32> into tensor<1x1x2048x128xf32>
    %extracted_slice_635 = tensor.extract_slice %arg0[6754144256] [262144] [1] : tensor<6755192832xf32> to tensor<262144xf32>
    %expanded_636 = tensor.expand_shape %extracted_slice_635 [[0, 1, 2, 3]] : tensor<262144xf32> into tensor<1x1x2048x128xf32>
    %extracted_slice_637 = tensor.extract_slice %arg0[6754406400] [262144] [1] : tensor<6755192832xf32> to tensor<262144xf32>
    %expanded_638 = tensor.expand_shape %extracted_slice_637 [[0, 1, 2, 3]] : tensor<262144xf32> into tensor<1x1x2048x128xf32>
    %extracted_slice_639 = tensor.extract_slice %arg0[6754668544] [262144] [1] : tensor<6755192832xf32> to tensor<262144xf32>
    %expanded_640 = tensor.expand_shape %extracted_slice_639 [[0, 1, 2, 3]] : tensor<262144xf32> into tensor<1x1x2048x128xf32>
    %extracted_slice_641 = tensor.extract_slice %arg0[6754930688] [262144] [1] : tensor<6755192832xf32> to tensor<262144xf32>
    %expanded_642 = tensor.expand_shape %extracted_slice_641 [[0, 1, 2, 3]] : tensor<262144xf32> into tensor<1x1x2048x128xf32>
    %cst = arith.constant dense<[0, 1, 2, 3, 4, 5, 6, 7, 8, 9, 10, 11, 12, 13, 14, 15, 16, 17, 18, 19, 20, 21, 22, 23, 24, 25, 26, 27, 28, 29, 30, 31, 32, 33, 34, 35, 36, 37, 38, 39, 40, 41, 42, 43, 44, 45, 46, 47, 48, 49, 50, 51, 52, 53, 54, 55, 56, 57, 58, 59, 60, 61, 62, 63, 64, 65, 66, 67, 68, 69, 70, 71, 72, 73, 74, 75, 76, 77, 78, 79]> : tensor<80xi64>
    %0 = "tosa.reshape"(%cst) {new_shape = array<i64: 1, 80>} : (tensor<80xi64>) -> tensor<1x80xi64>
    %1 = "tosa.reshape"(%0) {new_shape = array<i64: 1, 80>} : (tensor<1x80xi64>) -> tensor<1x80xi64>
    %2 = "tosa.cast"(%arg1) : (tensor<1x80xi64>) -> tensor<1x80xi32>
    %3 = "tosa.reshape"(%expanded) {new_shape = array<i64: 1, 32000, 4096>} : (tensor<32000x4096xf32>) -> tensor<1x32000x4096xf32>
    %4 = "tosa.gather"(%3, %2) : (tensor<1x32000x4096xf32>, tensor<1x80xi32>) -> tensor<1x80x4096xf32>
    %5 = "tosa.reshape"(%4) {new_shape = array<i64: 1, 80, 4096>} : (tensor<1x80x4096xf32>) -> tensor<1x80x4096xf32>
    %cst_643 = arith.constant dense<true> : tensor<1x80xi1>
    %cst_644 = arith.constant dense<-3.40282347E+38> : tensor<80x80xf32>
    %cst_645 = arith.constant dense<[0, 1, 2, 3, 4, 5, 6, 7, 8, 9, 10, 11, 12, 13, 14, 15, 16, 17, 18, 19, 20, 21, 22, 23, 24, 25, 26, 27, 28, 29, 30, 31, 32, 33, 34, 35, 36, 37, 38, 39, 40, 41, 42, 43, 44, 45, 46, 47, 48, 49, 50, 51, 52, 53, 54, 55, 56, 57, 58, 59, 60, 61, 62, 63, 64, 65, 66, 67, 68, 69, 70, 71, 72, 73, 74, 75, 76, 77, 78, 79]> : tensor<80xi64>
    %6 = "tosa.const"() {value = dense<1> : tensor<80xi64>} : () -> tensor<80xi64>
    %7 = "tosa.add"(%cst_645, %6) : (tensor<80xi64>, tensor<80xi64>) -> tensor<80xi64>
    %8 = "tosa.reshape"(%7) {new_shape = array<i64: 80, 1>} : (tensor<80xi64>) -> tensor<80x1xi64>
    %9 = tensor.empty() : tensor<80x80xi1>
    %10 = linalg.generic {indexing_maps = [#map, #map1, #map2], iterator_types = ["parallel", "parallel", "reduction"]} ins(%cst_645, %8 : tensor<80xi64>, tensor<80x1xi64>) outs(%9 : tensor<80x80xi1>) {
    ^bb0(%in: i64, %in_1454: i64, %out: i1):
      %4172 = arith.cmpi slt, %in, %in_1454 : i64
      linalg.yield %4172 : i1
    } -> tensor<80x80xi1>
    %cst_646 = arith.constant 0.000000e+00 : f32
    %11 = tensor.empty() : tensor<80x80xf32>
    %12 = linalg.generic {indexing_maps = [#map3, #map3, #map3], iterator_types = ["parallel", "parallel"]} ins(%cst_644, %10 : tensor<80x80xf32>, tensor<80x80xi1>) outs(%11 : tensor<80x80xf32>) {
    ^bb0(%in: f32, %in_1454: i1, %out: f32):
      %4172 = arith.select %in_1454, %cst_646, %in : f32
      linalg.yield %4172 : f32
    } -> tensor<80x80xf32>
    %extracted_slice_647 = tensor.extract_slice %cst_643[0, 0] [1, 80] [1, 1] : tensor<1x80xi1> to tensor<1x80xi1>
    %13 = "tosa.reshape"(%extracted_slice_647) {new_shape = array<i64: 1, 1, 80>} : (tensor<1x80xi1>) -> tensor<1x1x80xi1>
    %14 = "tosa.reshape"(%13) {new_shape = array<i64: 1, 1, 1, 80>} : (tensor<1x1x80xi1>) -> tensor<1x1x1x80xi1>
    %extracted_slice_648 = tensor.extract_slice %14[0, 0, 0, 0] [1, 1, 1, 80] [1, 1, 1, 1] : tensor<1x1x1x80xi1> to tensor<1x1x1x80xi1>
    %15 = "tosa.const"() {value = dense<false> : tensor<1x1x80x80xi1>} : () -> tensor<1x1x80x80xi1>
    %16 = "tosa.add"(%extracted_slice_648, %15) : (tensor<1x1x1x80xi1>, tensor<1x1x80x80xi1>) -> tensor<1x1x80x80xi1>
    %17 = tensor.empty() : tensor<1x1x80x80xf32>
    %18 = linalg.generic {indexing_maps = [#map4, #map4], iterator_types = ["parallel", "parallel", "parallel", "parallel"]} ins(%16 : tensor<1x1x80x80xi1>) outs(%17 : tensor<1x1x80x80xf32>) {
    ^bb0(%in: i1, %out: f32):
      %4172 = arith.extui %in : i1 to i32
      %4173 = arith.sitofp %4172 : i32 to f32
      linalg.yield %4173 : f32
    } -> tensor<1x1x80x80xf32>
    %cst_649 = arith.constant 1.000000e+00 : f32
    %19 = tensor.empty() : tensor<1x1x80x80xf32>
    %20 = linalg.generic {indexing_maps = [#map4, #map4], iterator_types = ["parallel", "parallel", "parallel", "parallel"]} ins(%18 : tensor<1x1x80x80xf32>) outs(%19 : tensor<1x1x80x80xf32>) {
    ^bb0(%in: f32, %out: f32):
      %4172 = arith.subf %cst_649, %in : f32
      linalg.yield %4172 : f32
    } -> tensor<1x1x80x80xf32>
    %21 = tensor.empty() : tensor<1x1x80x80xi1>
    %22 = linalg.generic {indexing_maps = [#map4, #map4], iterator_types = ["parallel", "parallel", "parallel", "parallel"]} ins(%20 : tensor<1x1x80x80xf32>) outs(%21 : tensor<1x1x80x80xi1>) {
    ^bb0(%in: f32, %out: i1):
      %4172 = arith.fptosi %in : f32 to i32
      %4173 = arith.trunci %4172 : i32 to i1
      linalg.yield %4173 : i1
    } -> tensor<1x1x80x80xi1>
    %cst_650 = arith.constant -3.40282347E+38 : f32
    %23 = tensor.empty() : tensor<1x1x80x80xf32>
    %24 = linalg.generic {indexing_maps = [#map4, #map4, #map4], iterator_types = ["parallel", "parallel", "parallel", "parallel"]} ins(%20, %22 : tensor<1x1x80x80xf32>, tensor<1x1x80x80xi1>) outs(%23 : tensor<1x1x80x80xf32>) {
    ^bb0(%in: f32, %in_1454: i1, %out: f32):
      %4172 = arith.select %in_1454, %cst_650, %in : f32
      linalg.yield %4172 : f32
    } -> tensor<1x1x80x80xf32>
    %25 = "tosa.reshape"(%12) {new_shape = array<i64: 1, 80, 80>} : (tensor<80x80xf32>) -> tensor<1x80x80xf32>
    %26 = "tosa.reshape"(%25) {new_shape = array<i64: 1, 1, 80, 80>} : (tensor<1x80x80xf32>) -> tensor<1x1x80x80xf32>
    %extracted_slice_651 = tensor.extract_slice %26[0, 0, 0, 0] [1, 1, 80, 80] [1, 1, 1, 1] : tensor<1x1x80x80xf32> to tensor<1x1x80x80xf32>
    %extracted_slice_652 = tensor.extract_slice %extracted_slice_651[0, 0, 0, 0] [1, 1, 80, 80] [1, 1, 1, 1] : tensor<1x1x80x80xf32> to tensor<1x1x80x80xf32>
    %27 = "tosa.const"() {value = dense<0.000000e+00> : tensor<1x1x80x80xf32>} : () -> tensor<1x1x80x80xf32>
    %28 = "tosa.add"(%extracted_slice_652, %27) : (tensor<1x1x80x80xf32>, tensor<1x1x80x80xf32>) -> tensor<1x1x80x80xf32>
    %29 = "tosa.add"(%24, %28) : (tensor<1x1x80x80xf32>, tensor<1x1x80x80xf32>) -> tensor<1x1x80x80xf32>
    %30 = tensor.empty() : tensor<1x80x4096xf32>
    %c2_i32 = arith.constant 2 : i32
    %31 = linalg.generic {indexing_maps = [#map5, #map5], iterator_types = ["parallel", "parallel", "parallel"]} ins(%5 : tensor<1x80x4096xf32>) outs(%30 : tensor<1x80x4096xf32>) {
    ^bb0(%in: f32, %out: f32):
      %4172 = math.fpowi %in, %c2_i32 : f32, i32
      linalg.yield %4172 : f32
    } -> tensor<1x80x4096xf32>
    %cst_653 = arith.constant dense<0.000000e+00> : tensor<1x80x1xf32>
    %32 = linalg.generic {indexing_maps = [#map6, #map7], iterator_types = ["parallel", "parallel", "reduction", "parallel"]} ins(%31 : tensor<1x80x4096xf32>) outs(%cst_653 : tensor<1x80x1xf32>) {
    ^bb0(%in: f32, %out: f32):
      %cst_1454 = arith.constant 4.096000e+03 : f32
      %4172 = arith.divf %in, %cst_1454 : f32
      %4173 = arith.addf %4172, %out : f32
      linalg.yield %4173 : f32
    } -> tensor<1x80x1xf32>
    %33 = "tosa.const"() {value = dense<9.99999997E-7> : tensor<1x80x1xf32>} : () -> tensor<1x80x1xf32>
    %34 = "tosa.add"(%32, %33) : (tensor<1x80x1xf32>, tensor<1x80x1xf32>) -> tensor<1x80x1xf32>
    %35 = "tosa.rsqrt"(%34) : (tensor<1x80x1xf32>) -> tensor<1x80x1xf32>
    %36 = "tosa.mul"(%5, %35) {shift = 0 : i32} : (tensor<1x80x4096xf32>, tensor<1x80x1xf32>) -> tensor<1x80x4096xf32>
    %37 = "tosa.reshape"(%extracted_slice) {new_shape = array<i64: 1, 1, 4096>} : (tensor<4096xf32>) -> tensor<1x1x4096xf32>
    %38 = "tosa.mul"(%37, %36) {shift = 0 : i32} : (tensor<1x1x4096xf32>, tensor<1x80x4096xf32>) -> tensor<1x80x4096xf32>
    %39 = tensor.empty() : tensor<4096x4096xf32>
    %40 = linalg.generic {indexing_maps = [#map3, #map8], iterator_types = ["parallel", "parallel"]} ins(%expanded_66 : tensor<4096x4096xf32>) outs(%39 : tensor<4096x4096xf32>) {
    ^bb0(%in: f32, %out: f32):
      linalg.yield %in : f32
    } -> tensor<4096x4096xf32>
    %41 = "tosa.reshape"(%38) {new_shape = array<i64: 80, 4096>} : (tensor<1x80x4096xf32>) -> tensor<80x4096xf32>
    %cst_654 = arith.constant dense<0.000000e+00> : tensor<80x4096xf32>
    %42 = linalg.matmul {cast = #linalg.type_fn<cast_signed>} ins(%41, %40 : tensor<80x4096xf32>, tensor<4096x4096xf32>) outs(%cst_654 : tensor<80x4096xf32>) -> tensor<80x4096xf32>
    %43 = "tosa.reshape"(%42) {new_shape = array<i64: 1, 80, 4096>} : (tensor<80x4096xf32>) -> tensor<1x80x4096xf32>
    %44 = tensor.empty() : tensor<4096x4096xf32>
    %45 = linalg.generic {indexing_maps = [#map3, #map8], iterator_types = ["parallel", "parallel"]} ins(%expanded_68 : tensor<4096x4096xf32>) outs(%44 : tensor<4096x4096xf32>) {
    ^bb0(%in: f32, %out: f32):
      linalg.yield %in : f32
    } -> tensor<4096x4096xf32>
    %46 = "tosa.reshape"(%38) {new_shape = array<i64: 80, 4096>} : (tensor<1x80x4096xf32>) -> tensor<80x4096xf32>
    %cst_655 = arith.constant dense<0.000000e+00> : tensor<80x4096xf32>
    %47 = linalg.matmul {cast = #linalg.type_fn<cast_signed>} ins(%46, %45 : tensor<80x4096xf32>, tensor<4096x4096xf32>) outs(%cst_655 : tensor<80x4096xf32>) -> tensor<80x4096xf32>
    %48 = "tosa.reshape"(%47) {new_shape = array<i64: 1, 80, 4096>} : (tensor<80x4096xf32>) -> tensor<1x80x4096xf32>
    %49 = tensor.empty() : tensor<4096x4096xf32>
    %50 = linalg.generic {indexing_maps = [#map3, #map8], iterator_types = ["parallel", "parallel"]} ins(%expanded_70 : tensor<4096x4096xf32>) outs(%49 : tensor<4096x4096xf32>) {
    ^bb0(%in: f32, %out: f32):
      linalg.yield %in : f32
    } -> tensor<4096x4096xf32>
    %51 = "tosa.reshape"(%38) {new_shape = array<i64: 80, 4096>} : (tensor<1x80x4096xf32>) -> tensor<80x4096xf32>
    %cst_656 = arith.constant dense<0.000000e+00> : tensor<80x4096xf32>
    %52 = linalg.matmul {cast = #linalg.type_fn<cast_signed>} ins(%51, %50 : tensor<80x4096xf32>, tensor<4096x4096xf32>) outs(%cst_656 : tensor<80x4096xf32>) -> tensor<80x4096xf32>
    %53 = "tosa.reshape"(%52) {new_shape = array<i64: 1, 80, 4096>} : (tensor<80x4096xf32>) -> tensor<1x80x4096xf32>
    %54 = "tosa.reshape"(%43) {new_shape = array<i64: 1, 80, 32, 128>} : (tensor<1x80x4096xf32>) -> tensor<1x80x32x128xf32>
    %55 = tensor.empty() : tensor<1x32x80x128xf32>
    %56 = linalg.generic {indexing_maps = [#map9, #map4], iterator_types = ["parallel", "parallel", "parallel", "parallel"]} ins(%54 : tensor<1x80x32x128xf32>) outs(%55 : tensor<1x32x80x128xf32>) {
    ^bb0(%in: f32, %out: f32):
      linalg.yield %in : f32
    } -> tensor<1x32x80x128xf32>
    %57 = "tosa.reshape"(%48) {new_shape = array<i64: 1, 80, 32, 128>} : (tensor<1x80x4096xf32>) -> tensor<1x80x32x128xf32>
    %58 = tensor.empty() : tensor<1x32x80x128xf32>
    %59 = linalg.generic {indexing_maps = [#map9, #map4], iterator_types = ["parallel", "parallel", "parallel", "parallel"]} ins(%57 : tensor<1x80x32x128xf32>) outs(%58 : tensor<1x32x80x128xf32>) {
    ^bb0(%in: f32, %out: f32):
      linalg.yield %in : f32
    } -> tensor<1x32x80x128xf32>
    %60 = "tosa.reshape"(%53) {new_shape = array<i64: 1, 80, 32, 128>} : (tensor<1x80x4096xf32>) -> tensor<1x80x32x128xf32>
    %61 = tensor.empty() : tensor<1x32x80x128xf32>
    %62 = linalg.generic {indexing_maps = [#map9, #map4], iterator_types = ["parallel", "parallel", "parallel", "parallel"]} ins(%60 : tensor<1x80x32x128xf32>) outs(%61 : tensor<1x32x80x128xf32>) {
    ^bb0(%in: f32, %out: f32):
      linalg.yield %in : f32
    } -> tensor<1x32x80x128xf32>
    %extracted_slice_657 = tensor.extract_slice %expanded_516[0, 0, 0, 0] [1, 1, 2048, 128] [1, 1, 1, 1] : tensor<1x1x2048x128xf32> to tensor<1x1x2048x128xf32>
    %extracted_slice_658 = tensor.extract_slice %extracted_slice_657[0, 0, 0, 0] [1, 1, 2048, 128] [1, 1, 1, 1] : tensor<1x1x2048x128xf32> to tensor<1x1x2048x128xf32>
    %extracted_slice_659 = tensor.extract_slice %extracted_slice_658[0, 0, 0, 0] [1, 1, 80, 128] [1, 1, 1, 1] : tensor<1x1x2048x128xf32> to tensor<1x1x80x128xf32>
    %extracted_slice_660 = tensor.extract_slice %expanded_518[0, 0, 0, 0] [1, 1, 2048, 128] [1, 1, 1, 1] : tensor<1x1x2048x128xf32> to tensor<1x1x2048x128xf32>
    %extracted_slice_661 = tensor.extract_slice %extracted_slice_660[0, 0, 0, 0] [1, 1, 2048, 128] [1, 1, 1, 1] : tensor<1x1x2048x128xf32> to tensor<1x1x2048x128xf32>
    %extracted_slice_662 = tensor.extract_slice %extracted_slice_661[0, 0, 0, 0] [1, 1, 80, 128] [1, 1, 1, 1] : tensor<1x1x2048x128xf32> to tensor<1x1x80x128xf32>
    %63 = tensor.empty() : tensor<1x80x128xf32>
    %64 = linalg.generic {indexing_maps = [#map10, #map5], iterator_types = ["parallel", "parallel", "parallel"]} ins(%extracted_slice_659 : tensor<1x1x80x128xf32>) outs(%63 : tensor<1x80x128xf32>) {
    ^bb0(%in: f32, %out: f32):
      linalg.yield %in : f32
    } -> tensor<1x80x128xf32>
    %65 = tensor.empty() : tensor<80x128xf32>
    %66 = linalg.generic {indexing_maps = [#map11, #map3], iterator_types = ["parallel", "parallel"]} ins(%64 : tensor<1x80x128xf32>) outs(%65 : tensor<80x128xf32>) {
    ^bb0(%in: f32, %out: f32):
      linalg.yield %in : f32
    } -> tensor<80x128xf32>
    %67 = tensor.empty() : tensor<1x80x128xf32>
    %68 = linalg.generic {indexing_maps = [#map10, #map5], iterator_types = ["parallel", "parallel", "parallel"]} ins(%extracted_slice_662 : tensor<1x1x80x128xf32>) outs(%67 : tensor<1x80x128xf32>) {
    ^bb0(%in: f32, %out: f32):
      linalg.yield %in : f32
    } -> tensor<1x80x128xf32>
    %69 = tensor.empty() : tensor<80x128xf32>
    %70 = linalg.generic {indexing_maps = [#map11, #map3], iterator_types = ["parallel", "parallel"]} ins(%68 : tensor<1x80x128xf32>) outs(%69 : tensor<80x128xf32>) {
    ^bb0(%in: f32, %out: f32):
      linalg.yield %in : f32
    } -> tensor<80x128xf32>
    %71 = tensor.empty() : tensor<1x80x128xf32>
    %72 = linalg.generic {indexing_maps = [#map2, #map5], iterator_types = ["parallel", "parallel", "parallel"]} ins(%1 : tensor<1x80xi64>) outs(%71 : tensor<1x80x128xf32>) {
    ^bb0(%in: i64, %out: f32):
      %4172 = arith.index_cast %in : i64 to index
      %4173 = linalg.index 2 : index
      %extracted = tensor.extract %66[%4172, %4173] : tensor<80x128xf32>
      linalg.yield %extracted : f32
    } -> tensor<1x80x128xf32>
    %73 = "tosa.reshape"(%72) {new_shape = array<i64: 1, 1, 80, 128>} : (tensor<1x80x128xf32>) -> tensor<1x1x80x128xf32>
    %74 = tensor.empty() : tensor<1x80x128xf32>
    %75 = linalg.generic {indexing_maps = [#map2, #map5], iterator_types = ["parallel", "parallel", "parallel"]} ins(%1 : tensor<1x80xi64>) outs(%74 : tensor<1x80x128xf32>) {
    ^bb0(%in: i64, %out: f32):
      %4172 = arith.index_cast %in : i64 to index
      %4173 = linalg.index 2 : index
      %extracted = tensor.extract %70[%4172, %4173] : tensor<80x128xf32>
      linalg.yield %extracted : f32
    } -> tensor<1x80x128xf32>
    %76 = "tosa.reshape"(%75) {new_shape = array<i64: 1, 1, 80, 128>} : (tensor<1x80x128xf32>) -> tensor<1x1x80x128xf32>
    %77 = "tosa.mul"(%56, %73) {shift = 0 : i32} : (tensor<1x32x80x128xf32>, tensor<1x1x80x128xf32>) -> tensor<1x32x80x128xf32>
    %extracted_slice_663 = tensor.extract_slice %56[0, 0, 0, 0] [1, 32, 80, 64] [1, 1, 1, 1] : tensor<1x32x80x128xf32> to tensor<1x32x80x64xf32>
    %extracted_slice_664 = tensor.extract_slice %56[0, 0, 0, 64] [1, 32, 80, 64] [1, 1, 1, 1] : tensor<1x32x80x128xf32> to tensor<1x32x80x64xf32>
    %78 = tensor.empty() : tensor<1x32x80x64xf32>
    %79 = linalg.generic {indexing_maps = [#map4, #map4], iterator_types = ["parallel", "parallel", "parallel", "parallel"]} ins(%extracted_slice_664 : tensor<1x32x80x64xf32>) outs(%78 : tensor<1x32x80x64xf32>) {
    ^bb0(%in: f32, %out: f32):
      %4172 = arith.negf %in : f32
      linalg.yield %4172 : f32
    } -> tensor<1x32x80x64xf32>
    %80 = tensor.empty() : tensor<1x32x80x128xf32>
    %inserted_slice = tensor.insert_slice %79 into %80[0, 0, 0, 0] [1, 32, 80, 64] [1, 1, 1, 1] : tensor<1x32x80x64xf32> into tensor<1x32x80x128xf32>
    %inserted_slice_665 = tensor.insert_slice %extracted_slice_663 into %inserted_slice[0, 0, 0, 64] [1, 32, 80, 64] [1, 1, 1, 1] : tensor<1x32x80x64xf32> into tensor<1x32x80x128xf32>
    %81 = "tosa.mul"(%inserted_slice_665, %76) {shift = 0 : i32} : (tensor<1x32x80x128xf32>, tensor<1x1x80x128xf32>) -> tensor<1x32x80x128xf32>
    %82 = "tosa.add"(%77, %81) : (tensor<1x32x80x128xf32>, tensor<1x32x80x128xf32>) -> tensor<1x32x80x128xf32>
    %83 = "tosa.mul"(%59, %73) {shift = 0 : i32} : (tensor<1x32x80x128xf32>, tensor<1x1x80x128xf32>) -> tensor<1x32x80x128xf32>
    %extracted_slice_666 = tensor.extract_slice %59[0, 0, 0, 0] [1, 32, 80, 64] [1, 1, 1, 1] : tensor<1x32x80x128xf32> to tensor<1x32x80x64xf32>
    %extracted_slice_667 = tensor.extract_slice %59[0, 0, 0, 64] [1, 32, 80, 64] [1, 1, 1, 1] : tensor<1x32x80x128xf32> to tensor<1x32x80x64xf32>
    %84 = tensor.empty() : tensor<1x32x80x64xf32>
    %85 = linalg.generic {indexing_maps = [#map4, #map4], iterator_types = ["parallel", "parallel", "parallel", "parallel"]} ins(%extracted_slice_667 : tensor<1x32x80x64xf32>) outs(%84 : tensor<1x32x80x64xf32>) {
    ^bb0(%in: f32, %out: f32):
      %4172 = arith.negf %in : f32
      linalg.yield %4172 : f32
    } -> tensor<1x32x80x64xf32>
    %86 = tensor.empty() : tensor<1x32x80x128xf32>
    %inserted_slice_668 = tensor.insert_slice %85 into %86[0, 0, 0, 0] [1, 32, 80, 64] [1, 1, 1, 1] : tensor<1x32x80x64xf32> into tensor<1x32x80x128xf32>
    %inserted_slice_669 = tensor.insert_slice %extracted_slice_666 into %inserted_slice_668[0, 0, 0, 64] [1, 32, 80, 64] [1, 1, 1, 1] : tensor<1x32x80x64xf32> into tensor<1x32x80x128xf32>
    %87 = "tosa.mul"(%inserted_slice_669, %76) {shift = 0 : i32} : (tensor<1x32x80x128xf32>, tensor<1x1x80x128xf32>) -> tensor<1x32x80x128xf32>
    %88 = "tosa.add"(%83, %87) : (tensor<1x32x80x128xf32>, tensor<1x32x80x128xf32>) -> tensor<1x32x80x128xf32>
    %89 = tensor.empty() : tensor<1x32x128x80xf32>
    %90 = linalg.generic {indexing_maps = [#map12, #map4], iterator_types = ["parallel", "parallel", "parallel", "parallel"]} ins(%88 : tensor<1x32x80x128xf32>) outs(%89 : tensor<1x32x128x80xf32>) {
    ^bb0(%in: f32, %out: f32):
      linalg.yield %in : f32
    } -> tensor<1x32x128x80xf32>
    %91 = "tosa.const"() {value = dense<0.000000e+00> : tensor<1x32x80x128xf32>} : () -> tensor<1x32x80x128xf32>
    %92 = "tosa.add"(%82, %91) : (tensor<1x32x80x128xf32>, tensor<1x32x80x128xf32>) -> tensor<1x32x80x128xf32>
    %93 = "tosa.reshape"(%92) {new_shape = array<i64: 32, 80, 128>} : (tensor<1x32x80x128xf32>) -> tensor<32x80x128xf32>
    %94 = "tosa.const"() {value = dense<0.000000e+00> : tensor<1x32x128x80xf32>} : () -> tensor<1x32x128x80xf32>
    %95 = "tosa.add"(%90, %94) : (tensor<1x32x128x80xf32>, tensor<1x32x128x80xf32>) -> tensor<1x32x128x80xf32>
    %96 = "tosa.reshape"(%95) {new_shape = array<i64: 32, 128, 80>} : (tensor<1x32x128x80xf32>) -> tensor<32x128x80xf32>
    %97 = "tosa.matmul"(%93, %96) : (tensor<32x80x128xf32>, tensor<32x128x80xf32>) -> tensor<32x80x80xf32>
    %98 = "tosa.reshape"(%97) {new_shape = array<i64: 1, 32, 80, 80>} : (tensor<32x80x80xf32>) -> tensor<1x32x80x80xf32>
    %99 = "tosa.const"() {value = dense<11.3137083> : tensor<1x32x80x80xf32>} : () -> tensor<1x32x80x80xf32>
    %100 = "tosa.reciprocal"(%99) : (tensor<1x32x80x80xf32>) -> tensor<1x32x80x80xf32>
    %101 = "tosa.mul"(%98, %100) {shift = 0 : i32} : (tensor<1x32x80x80xf32>, tensor<1x32x80x80xf32>) -> tensor<1x32x80x80xf32>
    %102 = "tosa.add"(%101, %29) : (tensor<1x32x80x80xf32>, tensor<1x1x80x80xf32>) -> tensor<1x32x80x80xf32>
    %103 = tensor.empty() : tensor<1x32x80x1xf32>
    %104 = linalg.generic {indexing_maps = [#map4], iterator_types = ["parallel", "parallel", "parallel", "parallel"]} outs(%103 : tensor<1x32x80x1xf32>) {
    ^bb0(%out: f32):
      %cst_1454 = arith.constant 0xFF800000 : f32
      linalg.yield %cst_1454 : f32
    } -> tensor<1x32x80x1xf32>
    %105 = linalg.generic {indexing_maps = [#map4, #map13], iterator_types = ["parallel", "parallel", "parallel", "reduction"]} ins(%102 : tensor<1x32x80x80xf32>) outs(%103 : tensor<1x32x80x1xf32>) {
    ^bb0(%in: f32, %out: f32):
      %4172 = arith.maxf %in, %out : f32
      linalg.yield %4172 : f32
    } -> tensor<1x32x80x1xf32>
    %106 = tensor.empty() : tensor<1x32x80x80xf32>
    %107 = linalg.generic {indexing_maps = [#map4, #map13, #map4], iterator_types = ["parallel", "parallel", "parallel", "parallel"]} ins(%102, %105 : tensor<1x32x80x80xf32>, tensor<1x32x80x1xf32>) outs(%106 : tensor<1x32x80x80xf32>) {
    ^bb0(%in: f32, %in_1454: f32, %out: f32):
      %4172 = arith.subf %in, %in_1454 : f32
      %4173 = math.exp %4172 : f32
      linalg.yield %4173 : f32
    } -> tensor<1x32x80x80xf32>
    %108 = tensor.empty() : tensor<1x32x80x1xf32>
    %109 = linalg.generic {indexing_maps = [#map4], iterator_types = ["parallel", "parallel", "parallel", "parallel"]} outs(%108 : tensor<1x32x80x1xf32>) {
    ^bb0(%out: f32):
      %cst_1454 = arith.constant 0.000000e+00 : f32
      linalg.yield %cst_1454 : f32
    } -> tensor<1x32x80x1xf32>
    %110 = linalg.generic {indexing_maps = [#map4, #map13], iterator_types = ["parallel", "parallel", "parallel", "reduction"]} ins(%107 : tensor<1x32x80x80xf32>) outs(%109 : tensor<1x32x80x1xf32>) {
    ^bb0(%in: f32, %out: f32):
      %4172 = arith.addf %in, %out : f32
      linalg.yield %4172 : f32
    } -> tensor<1x32x80x1xf32>
    %111 = tensor.empty() : tensor<1x32x80x80xf32>
    %112 = linalg.generic {indexing_maps = [#map4, #map13, #map4], iterator_types = ["parallel", "parallel", "parallel", "parallel"]} ins(%107, %110 : tensor<1x32x80x80xf32>, tensor<1x32x80x1xf32>) outs(%111 : tensor<1x32x80x80xf32>) {
    ^bb0(%in: f32, %in_1454: f32, %out: f32):
      %4172 = arith.divf %in, %in_1454 : f32
      linalg.yield %4172 : f32
    } -> tensor<1x32x80x80xf32>
    %113 = "tosa.const"() {value = dense<0.000000e+00> : tensor<1x32x80x80xf32>} : () -> tensor<1x32x80x80xf32>
    %114 = "tosa.add"(%112, %113) : (tensor<1x32x80x80xf32>, tensor<1x32x80x80xf32>) -> tensor<1x32x80x80xf32>
    %115 = "tosa.reshape"(%114) {new_shape = array<i64: 32, 80, 80>} : (tensor<1x32x80x80xf32>) -> tensor<32x80x80xf32>
    %116 = "tosa.const"() {value = dense<0.000000e+00> : tensor<1x32x80x128xf32>} : () -> tensor<1x32x80x128xf32>
    %117 = "tosa.add"(%62, %116) : (tensor<1x32x80x128xf32>, tensor<1x32x80x128xf32>) -> tensor<1x32x80x128xf32>
    %118 = "tosa.reshape"(%117) {new_shape = array<i64: 32, 80, 128>} : (tensor<1x32x80x128xf32>) -> tensor<32x80x128xf32>
    %119 = "tosa.matmul"(%115, %118) : (tensor<32x80x80xf32>, tensor<32x80x128xf32>) -> tensor<32x80x128xf32>
    %120 = "tosa.reshape"(%119) {new_shape = array<i64: 1, 32, 80, 128>} : (tensor<32x80x128xf32>) -> tensor<1x32x80x128xf32>
    %121 = tensor.empty() : tensor<1x80x32x128xf32>
    %122 = linalg.generic {indexing_maps = [#map9, #map4], iterator_types = ["parallel", "parallel", "parallel", "parallel"]} ins(%120 : tensor<1x32x80x128xf32>) outs(%121 : tensor<1x80x32x128xf32>) {
    ^bb0(%in: f32, %out: f32):
      linalg.yield %in : f32
    } -> tensor<1x80x32x128xf32>
    %123 = "tosa.identity"(%122) : (tensor<1x80x32x128xf32>) -> tensor<1x80x32x128xf32>
    %124 = "tosa.reshape"(%123) {new_shape = array<i64: 1, 80, 4096>} : (tensor<1x80x32x128xf32>) -> tensor<1x80x4096xf32>
    %125 = tensor.empty() : tensor<4096x4096xf32>
    %126 = linalg.generic {indexing_maps = [#map3, #map8], iterator_types = ["parallel", "parallel"]} ins(%expanded_72 : tensor<4096x4096xf32>) outs(%125 : tensor<4096x4096xf32>) {
    ^bb0(%in: f32, %out: f32):
      linalg.yield %in : f32
    } -> tensor<4096x4096xf32>
    %127 = "tosa.reshape"(%124) {new_shape = array<i64: 80, 4096>} : (tensor<1x80x4096xf32>) -> tensor<80x4096xf32>
    %cst_670 = arith.constant dense<0.000000e+00> : tensor<80x4096xf32>
    %128 = linalg.matmul {cast = #linalg.type_fn<cast_signed>} ins(%127, %126 : tensor<80x4096xf32>, tensor<4096x4096xf32>) outs(%cst_670 : tensor<80x4096xf32>) -> tensor<80x4096xf32>
    %129 = "tosa.reshape"(%128) {new_shape = array<i64: 1, 80, 4096>} : (tensor<80x4096xf32>) -> tensor<1x80x4096xf32>
    %130 = "tosa.add"(%5, %129) : (tensor<1x80x4096xf32>, tensor<1x80x4096xf32>) -> tensor<1x80x4096xf32>
    %131 = tensor.empty() : tensor<1x80x4096xf32>
    %c2_i32_671 = arith.constant 2 : i32
    %132 = linalg.generic {indexing_maps = [#map5, #map5], iterator_types = ["parallel", "parallel", "parallel"]} ins(%130 : tensor<1x80x4096xf32>) outs(%131 : tensor<1x80x4096xf32>) {
    ^bb0(%in: f32, %out: f32):
      %4172 = math.fpowi %in, %c2_i32_671 : f32, i32
      linalg.yield %4172 : f32
    } -> tensor<1x80x4096xf32>
    %cst_672 = arith.constant dense<0.000000e+00> : tensor<1x80x1xf32>
    %133 = linalg.generic {indexing_maps = [#map6, #map7], iterator_types = ["parallel", "parallel", "reduction", "parallel"]} ins(%132 : tensor<1x80x4096xf32>) outs(%cst_672 : tensor<1x80x1xf32>) {
    ^bb0(%in: f32, %out: f32):
      %cst_1454 = arith.constant 4.096000e+03 : f32
      %4172 = arith.divf %in, %cst_1454 : f32
      %4173 = arith.addf %4172, %out : f32
      linalg.yield %4173 : f32
    } -> tensor<1x80x1xf32>
    %134 = "tosa.const"() {value = dense<9.99999997E-7> : tensor<1x80x1xf32>} : () -> tensor<1x80x1xf32>
    %135 = "tosa.add"(%133, %134) : (tensor<1x80x1xf32>, tensor<1x80x1xf32>) -> tensor<1x80x1xf32>
    %136 = "tosa.rsqrt"(%135) : (tensor<1x80x1xf32>) -> tensor<1x80x1xf32>
    %137 = "tosa.mul"(%130, %136) {shift = 0 : i32} : (tensor<1x80x4096xf32>, tensor<1x80x1xf32>) -> tensor<1x80x4096xf32>
    %138 = "tosa.reshape"(%extracted_slice_0) {new_shape = array<i64: 1, 1, 4096>} : (tensor<4096xf32>) -> tensor<1x1x4096xf32>
    %139 = "tosa.mul"(%138, %137) {shift = 0 : i32} : (tensor<1x1x4096xf32>, tensor<1x80x4096xf32>) -> tensor<1x80x4096xf32>
    %140 = tensor.empty() : tensor<4096x11008xf32>
    %141 = linalg.generic {indexing_maps = [#map3, #map8], iterator_types = ["parallel", "parallel"]} ins(%expanded_74 : tensor<11008x4096xf32>) outs(%140 : tensor<4096x11008xf32>) {
    ^bb0(%in: f32, %out: f32):
      linalg.yield %in : f32
    } -> tensor<4096x11008xf32>
    %142 = "tosa.reshape"(%139) {new_shape = array<i64: 80, 4096>} : (tensor<1x80x4096xf32>) -> tensor<80x4096xf32>
    %cst_673 = arith.constant dense<0.000000e+00> : tensor<80x11008xf32>
    %143 = linalg.matmul {cast = #linalg.type_fn<cast_signed>} ins(%142, %141 : tensor<80x4096xf32>, tensor<4096x11008xf32>) outs(%cst_673 : tensor<80x11008xf32>) -> tensor<80x11008xf32>
    %144 = "tosa.reshape"(%143) {new_shape = array<i64: 1, 80, 11008>} : (tensor<80x11008xf32>) -> tensor<1x80x11008xf32>
    %145 = tensor.empty() : tensor<1x80x11008xf32>
    %146 = linalg.generic {indexing_maps = [#map5, #map5], iterator_types = ["parallel", "parallel", "parallel"]} ins(%144 : tensor<1x80x11008xf32>) outs(%145 : tensor<1x80x11008xf32>) {
    ^bb0(%in: f32, %out: f32):
      %4172 = arith.negf %in : f32
      %4173 = math.exp %4172 : f32
      %cst_1454 = arith.constant 1.000000e+00 : f32
      %4174 = arith.addf %cst_1454, %4173 : f32
      %4175 = arith.divf %in, %4174 : f32
      linalg.yield %4175 : f32
    } -> tensor<1x80x11008xf32>
    %147 = tensor.empty() : tensor<4096x11008xf32>
    %148 = linalg.generic {indexing_maps = [#map3, #map8], iterator_types = ["parallel", "parallel"]} ins(%expanded_76 : tensor<11008x4096xf32>) outs(%147 : tensor<4096x11008xf32>) {
    ^bb0(%in: f32, %out: f32):
      linalg.yield %in : f32
    } -> tensor<4096x11008xf32>
    %149 = "tosa.reshape"(%139) {new_shape = array<i64: 80, 4096>} : (tensor<1x80x4096xf32>) -> tensor<80x4096xf32>
    %cst_674 = arith.constant dense<0.000000e+00> : tensor<80x11008xf32>
    %150 = linalg.matmul {cast = #linalg.type_fn<cast_signed>} ins(%149, %148 : tensor<80x4096xf32>, tensor<4096x11008xf32>) outs(%cst_674 : tensor<80x11008xf32>) -> tensor<80x11008xf32>
    %151 = "tosa.reshape"(%150) {new_shape = array<i64: 1, 80, 11008>} : (tensor<80x11008xf32>) -> tensor<1x80x11008xf32>
    %152 = "tosa.mul"(%146, %151) {shift = 0 : i32} : (tensor<1x80x11008xf32>, tensor<1x80x11008xf32>) -> tensor<1x80x11008xf32>
    %153 = tensor.empty() : tensor<11008x4096xf32>
    %154 = linalg.generic {indexing_maps = [#map3, #map8], iterator_types = ["parallel", "parallel"]} ins(%expanded_78 : tensor<4096x11008xf32>) outs(%153 : tensor<11008x4096xf32>) {
    ^bb0(%in: f32, %out: f32):
      linalg.yield %in : f32
    } -> tensor<11008x4096xf32>
    %155 = "tosa.reshape"(%152) {new_shape = array<i64: 80, 11008>} : (tensor<1x80x11008xf32>) -> tensor<80x11008xf32>
    %cst_675 = arith.constant dense<0.000000e+00> : tensor<80x4096xf32>
    %156 = linalg.matmul {cast = #linalg.type_fn<cast_signed>} ins(%155, %154 : tensor<80x11008xf32>, tensor<11008x4096xf32>) outs(%cst_675 : tensor<80x4096xf32>) -> tensor<80x4096xf32>
    %157 = "tosa.reshape"(%156) {new_shape = array<i64: 1, 80, 4096>} : (tensor<80x4096xf32>) -> tensor<1x80x4096xf32>
    %158 = "tosa.add"(%130, %157) : (tensor<1x80x4096xf32>, tensor<1x80x4096xf32>) -> tensor<1x80x4096xf32>
    %159 = tensor.empty() : tensor<1x80x4096xf32>
    %c2_i32_676 = arith.constant 2 : i32
    %160 = linalg.generic {indexing_maps = [#map5, #map5], iterator_types = ["parallel", "parallel", "parallel"]} ins(%158 : tensor<1x80x4096xf32>) outs(%159 : tensor<1x80x4096xf32>) {
    ^bb0(%in: f32, %out: f32):
      %4172 = math.fpowi %in, %c2_i32_676 : f32, i32
      linalg.yield %4172 : f32
    } -> tensor<1x80x4096xf32>
    %cst_677 = arith.constant dense<0.000000e+00> : tensor<1x80x1xf32>
    %161 = linalg.generic {indexing_maps = [#map6, #map7], iterator_types = ["parallel", "parallel", "reduction", "parallel"]} ins(%160 : tensor<1x80x4096xf32>) outs(%cst_677 : tensor<1x80x1xf32>) {
    ^bb0(%in: f32, %out: f32):
      %cst_1454 = arith.constant 4.096000e+03 : f32
      %4172 = arith.divf %in, %cst_1454 : f32
      %4173 = arith.addf %4172, %out : f32
      linalg.yield %4173 : f32
    } -> tensor<1x80x1xf32>
    %162 = "tosa.const"() {value = dense<9.99999997E-7> : tensor<1x80x1xf32>} : () -> tensor<1x80x1xf32>
    %163 = "tosa.add"(%161, %162) : (tensor<1x80x1xf32>, tensor<1x80x1xf32>) -> tensor<1x80x1xf32>
    %164 = "tosa.rsqrt"(%163) : (tensor<1x80x1xf32>) -> tensor<1x80x1xf32>
    %165 = "tosa.mul"(%158, %164) {shift = 0 : i32} : (tensor<1x80x4096xf32>, tensor<1x80x1xf32>) -> tensor<1x80x4096xf32>
    %166 = "tosa.reshape"(%extracted_slice_1) {new_shape = array<i64: 1, 1, 4096>} : (tensor<4096xf32>) -> tensor<1x1x4096xf32>
    %167 = "tosa.mul"(%166, %165) {shift = 0 : i32} : (tensor<1x1x4096xf32>, tensor<1x80x4096xf32>) -> tensor<1x80x4096xf32>
    %168 = tensor.empty() : tensor<4096x4096xf32>
    %169 = linalg.generic {indexing_maps = [#map3, #map8], iterator_types = ["parallel", "parallel"]} ins(%expanded_80 : tensor<4096x4096xf32>) outs(%168 : tensor<4096x4096xf32>) {
    ^bb0(%in: f32, %out: f32):
      linalg.yield %in : f32
    } -> tensor<4096x4096xf32>
    %170 = "tosa.reshape"(%167) {new_shape = array<i64: 80, 4096>} : (tensor<1x80x4096xf32>) -> tensor<80x4096xf32>
    %cst_678 = arith.constant dense<0.000000e+00> : tensor<80x4096xf32>
    %171 = linalg.matmul {cast = #linalg.type_fn<cast_signed>} ins(%170, %169 : tensor<80x4096xf32>, tensor<4096x4096xf32>) outs(%cst_678 : tensor<80x4096xf32>) -> tensor<80x4096xf32>
    %172 = "tosa.reshape"(%171) {new_shape = array<i64: 1, 80, 4096>} : (tensor<80x4096xf32>) -> tensor<1x80x4096xf32>
    %173 = tensor.empty() : tensor<4096x4096xf32>
    %174 = linalg.generic {indexing_maps = [#map3, #map8], iterator_types = ["parallel", "parallel"]} ins(%expanded_82 : tensor<4096x4096xf32>) outs(%173 : tensor<4096x4096xf32>) {
    ^bb0(%in: f32, %out: f32):
      linalg.yield %in : f32
    } -> tensor<4096x4096xf32>
    %175 = "tosa.reshape"(%167) {new_shape = array<i64: 80, 4096>} : (tensor<1x80x4096xf32>) -> tensor<80x4096xf32>
    %cst_679 = arith.constant dense<0.000000e+00> : tensor<80x4096xf32>
    %176 = linalg.matmul {cast = #linalg.type_fn<cast_signed>} ins(%175, %174 : tensor<80x4096xf32>, tensor<4096x4096xf32>) outs(%cst_679 : tensor<80x4096xf32>) -> tensor<80x4096xf32>
    %177 = "tosa.reshape"(%176) {new_shape = array<i64: 1, 80, 4096>} : (tensor<80x4096xf32>) -> tensor<1x80x4096xf32>
    %178 = tensor.empty() : tensor<4096x4096xf32>
    %179 = linalg.generic {indexing_maps = [#map3, #map8], iterator_types = ["parallel", "parallel"]} ins(%expanded_84 : tensor<4096x4096xf32>) outs(%178 : tensor<4096x4096xf32>) {
    ^bb0(%in: f32, %out: f32):
      linalg.yield %in : f32
    } -> tensor<4096x4096xf32>
    %180 = "tosa.reshape"(%167) {new_shape = array<i64: 80, 4096>} : (tensor<1x80x4096xf32>) -> tensor<80x4096xf32>
    %cst_680 = arith.constant dense<0.000000e+00> : tensor<80x4096xf32>
    %181 = linalg.matmul {cast = #linalg.type_fn<cast_signed>} ins(%180, %179 : tensor<80x4096xf32>, tensor<4096x4096xf32>) outs(%cst_680 : tensor<80x4096xf32>) -> tensor<80x4096xf32>
    %182 = "tosa.reshape"(%181) {new_shape = array<i64: 1, 80, 4096>} : (tensor<80x4096xf32>) -> tensor<1x80x4096xf32>
    %183 = "tosa.reshape"(%172) {new_shape = array<i64: 1, 80, 32, 128>} : (tensor<1x80x4096xf32>) -> tensor<1x80x32x128xf32>
    %184 = tensor.empty() : tensor<1x32x80x128xf32>
    %185 = linalg.generic {indexing_maps = [#map9, #map4], iterator_types = ["parallel", "parallel", "parallel", "parallel"]} ins(%183 : tensor<1x80x32x128xf32>) outs(%184 : tensor<1x32x80x128xf32>) {
    ^bb0(%in: f32, %out: f32):
      linalg.yield %in : f32
    } -> tensor<1x32x80x128xf32>
    %186 = "tosa.reshape"(%177) {new_shape = array<i64: 1, 80, 32, 128>} : (tensor<1x80x4096xf32>) -> tensor<1x80x32x128xf32>
    %187 = tensor.empty() : tensor<1x32x80x128xf32>
    %188 = linalg.generic {indexing_maps = [#map9, #map4], iterator_types = ["parallel", "parallel", "parallel", "parallel"]} ins(%186 : tensor<1x80x32x128xf32>) outs(%187 : tensor<1x32x80x128xf32>) {
    ^bb0(%in: f32, %out: f32):
      linalg.yield %in : f32
    } -> tensor<1x32x80x128xf32>
    %189 = "tosa.reshape"(%182) {new_shape = array<i64: 1, 80, 32, 128>} : (tensor<1x80x4096xf32>) -> tensor<1x80x32x128xf32>
    %190 = tensor.empty() : tensor<1x32x80x128xf32>
    %191 = linalg.generic {indexing_maps = [#map9, #map4], iterator_types = ["parallel", "parallel", "parallel", "parallel"]} ins(%189 : tensor<1x80x32x128xf32>) outs(%190 : tensor<1x32x80x128xf32>) {
    ^bb0(%in: f32, %out: f32):
      linalg.yield %in : f32
    } -> tensor<1x32x80x128xf32>
    %extracted_slice_681 = tensor.extract_slice %expanded_520[0, 0, 0, 0] [1, 1, 2048, 128] [1, 1, 1, 1] : tensor<1x1x2048x128xf32> to tensor<1x1x2048x128xf32>
    %extracted_slice_682 = tensor.extract_slice %extracted_slice_681[0, 0, 0, 0] [1, 1, 2048, 128] [1, 1, 1, 1] : tensor<1x1x2048x128xf32> to tensor<1x1x2048x128xf32>
    %extracted_slice_683 = tensor.extract_slice %extracted_slice_682[0, 0, 0, 0] [1, 1, 80, 128] [1, 1, 1, 1] : tensor<1x1x2048x128xf32> to tensor<1x1x80x128xf32>
    %extracted_slice_684 = tensor.extract_slice %expanded_522[0, 0, 0, 0] [1, 1, 2048, 128] [1, 1, 1, 1] : tensor<1x1x2048x128xf32> to tensor<1x1x2048x128xf32>
    %extracted_slice_685 = tensor.extract_slice %extracted_slice_684[0, 0, 0, 0] [1, 1, 2048, 128] [1, 1, 1, 1] : tensor<1x1x2048x128xf32> to tensor<1x1x2048x128xf32>
    %extracted_slice_686 = tensor.extract_slice %extracted_slice_685[0, 0, 0, 0] [1, 1, 80, 128] [1, 1, 1, 1] : tensor<1x1x2048x128xf32> to tensor<1x1x80x128xf32>
    %192 = tensor.empty() : tensor<1x80x128xf32>
    %193 = linalg.generic {indexing_maps = [#map10, #map5], iterator_types = ["parallel", "parallel", "parallel"]} ins(%extracted_slice_683 : tensor<1x1x80x128xf32>) outs(%192 : tensor<1x80x128xf32>) {
    ^bb0(%in: f32, %out: f32):
      linalg.yield %in : f32
    } -> tensor<1x80x128xf32>
    %194 = tensor.empty() : tensor<80x128xf32>
    %195 = linalg.generic {indexing_maps = [#map11, #map3], iterator_types = ["parallel", "parallel"]} ins(%193 : tensor<1x80x128xf32>) outs(%194 : tensor<80x128xf32>) {
    ^bb0(%in: f32, %out: f32):
      linalg.yield %in : f32
    } -> tensor<80x128xf32>
    %196 = tensor.empty() : tensor<1x80x128xf32>
    %197 = linalg.generic {indexing_maps = [#map10, #map5], iterator_types = ["parallel", "parallel", "parallel"]} ins(%extracted_slice_686 : tensor<1x1x80x128xf32>) outs(%196 : tensor<1x80x128xf32>) {
    ^bb0(%in: f32, %out: f32):
      linalg.yield %in : f32
    } -> tensor<1x80x128xf32>
    %198 = tensor.empty() : tensor<80x128xf32>
    %199 = linalg.generic {indexing_maps = [#map11, #map3], iterator_types = ["parallel", "parallel"]} ins(%197 : tensor<1x80x128xf32>) outs(%198 : tensor<80x128xf32>) {
    ^bb0(%in: f32, %out: f32):
      linalg.yield %in : f32
    } -> tensor<80x128xf32>
    %200 = tensor.empty() : tensor<1x80x128xf32>
    %201 = linalg.generic {indexing_maps = [#map2, #map5], iterator_types = ["parallel", "parallel", "parallel"]} ins(%1 : tensor<1x80xi64>) outs(%200 : tensor<1x80x128xf32>) {
    ^bb0(%in: i64, %out: f32):
      %4172 = arith.index_cast %in : i64 to index
      %4173 = linalg.index 2 : index
      %extracted = tensor.extract %195[%4172, %4173] : tensor<80x128xf32>
      linalg.yield %extracted : f32
    } -> tensor<1x80x128xf32>
    %202 = "tosa.reshape"(%201) {new_shape = array<i64: 1, 1, 80, 128>} : (tensor<1x80x128xf32>) -> tensor<1x1x80x128xf32>
    %203 = tensor.empty() : tensor<1x80x128xf32>
    %204 = linalg.generic {indexing_maps = [#map2, #map5], iterator_types = ["parallel", "parallel", "parallel"]} ins(%1 : tensor<1x80xi64>) outs(%203 : tensor<1x80x128xf32>) {
    ^bb0(%in: i64, %out: f32):
      %4172 = arith.index_cast %in : i64 to index
      %4173 = linalg.index 2 : index
      %extracted = tensor.extract %199[%4172, %4173] : tensor<80x128xf32>
      linalg.yield %extracted : f32
    } -> tensor<1x80x128xf32>
    %205 = "tosa.reshape"(%204) {new_shape = array<i64: 1, 1, 80, 128>} : (tensor<1x80x128xf32>) -> tensor<1x1x80x128xf32>
    %206 = "tosa.mul"(%185, %202) {shift = 0 : i32} : (tensor<1x32x80x128xf32>, tensor<1x1x80x128xf32>) -> tensor<1x32x80x128xf32>
    %extracted_slice_687 = tensor.extract_slice %185[0, 0, 0, 0] [1, 32, 80, 64] [1, 1, 1, 1] : tensor<1x32x80x128xf32> to tensor<1x32x80x64xf32>
    %extracted_slice_688 = tensor.extract_slice %185[0, 0, 0, 64] [1, 32, 80, 64] [1, 1, 1, 1] : tensor<1x32x80x128xf32> to tensor<1x32x80x64xf32>
    %207 = tensor.empty() : tensor<1x32x80x64xf32>
    %208 = linalg.generic {indexing_maps = [#map4, #map4], iterator_types = ["parallel", "parallel", "parallel", "parallel"]} ins(%extracted_slice_688 : tensor<1x32x80x64xf32>) outs(%207 : tensor<1x32x80x64xf32>) {
    ^bb0(%in: f32, %out: f32):
      %4172 = arith.negf %in : f32
      linalg.yield %4172 : f32
    } -> tensor<1x32x80x64xf32>
    %209 = tensor.empty() : tensor<1x32x80x128xf32>
    %inserted_slice_689 = tensor.insert_slice %208 into %209[0, 0, 0, 0] [1, 32, 80, 64] [1, 1, 1, 1] : tensor<1x32x80x64xf32> into tensor<1x32x80x128xf32>
    %inserted_slice_690 = tensor.insert_slice %extracted_slice_687 into %inserted_slice_689[0, 0, 0, 64] [1, 32, 80, 64] [1, 1, 1, 1] : tensor<1x32x80x64xf32> into tensor<1x32x80x128xf32>
    %210 = "tosa.mul"(%inserted_slice_690, %205) {shift = 0 : i32} : (tensor<1x32x80x128xf32>, tensor<1x1x80x128xf32>) -> tensor<1x32x80x128xf32>
    %211 = "tosa.add"(%206, %210) : (tensor<1x32x80x128xf32>, tensor<1x32x80x128xf32>) -> tensor<1x32x80x128xf32>
    %212 = "tosa.mul"(%188, %202) {shift = 0 : i32} : (tensor<1x32x80x128xf32>, tensor<1x1x80x128xf32>) -> tensor<1x32x80x128xf32>
    %extracted_slice_691 = tensor.extract_slice %188[0, 0, 0, 0] [1, 32, 80, 64] [1, 1, 1, 1] : tensor<1x32x80x128xf32> to tensor<1x32x80x64xf32>
    %extracted_slice_692 = tensor.extract_slice %188[0, 0, 0, 64] [1, 32, 80, 64] [1, 1, 1, 1] : tensor<1x32x80x128xf32> to tensor<1x32x80x64xf32>
    %213 = tensor.empty() : tensor<1x32x80x64xf32>
    %214 = linalg.generic {indexing_maps = [#map4, #map4], iterator_types = ["parallel", "parallel", "parallel", "parallel"]} ins(%extracted_slice_692 : tensor<1x32x80x64xf32>) outs(%213 : tensor<1x32x80x64xf32>) {
    ^bb0(%in: f32, %out: f32):
      %4172 = arith.negf %in : f32
      linalg.yield %4172 : f32
    } -> tensor<1x32x80x64xf32>
    %215 = tensor.empty() : tensor<1x32x80x128xf32>
    %inserted_slice_693 = tensor.insert_slice %214 into %215[0, 0, 0, 0] [1, 32, 80, 64] [1, 1, 1, 1] : tensor<1x32x80x64xf32> into tensor<1x32x80x128xf32>
    %inserted_slice_694 = tensor.insert_slice %extracted_slice_691 into %inserted_slice_693[0, 0, 0, 64] [1, 32, 80, 64] [1, 1, 1, 1] : tensor<1x32x80x64xf32> into tensor<1x32x80x128xf32>
    %216 = "tosa.mul"(%inserted_slice_694, %205) {shift = 0 : i32} : (tensor<1x32x80x128xf32>, tensor<1x1x80x128xf32>) -> tensor<1x32x80x128xf32>
    %217 = "tosa.add"(%212, %216) : (tensor<1x32x80x128xf32>, tensor<1x32x80x128xf32>) -> tensor<1x32x80x128xf32>
    %218 = tensor.empty() : tensor<1x32x128x80xf32>
    %219 = linalg.generic {indexing_maps = [#map12, #map4], iterator_types = ["parallel", "parallel", "parallel", "parallel"]} ins(%217 : tensor<1x32x80x128xf32>) outs(%218 : tensor<1x32x128x80xf32>) {
    ^bb0(%in: f32, %out: f32):
      linalg.yield %in : f32
    } -> tensor<1x32x128x80xf32>
    %220 = "tosa.const"() {value = dense<0.000000e+00> : tensor<1x32x80x128xf32>} : () -> tensor<1x32x80x128xf32>
    %221 = "tosa.add"(%211, %220) : (tensor<1x32x80x128xf32>, tensor<1x32x80x128xf32>) -> tensor<1x32x80x128xf32>
    %222 = "tosa.reshape"(%221) {new_shape = array<i64: 32, 80, 128>} : (tensor<1x32x80x128xf32>) -> tensor<32x80x128xf32>
    %223 = "tosa.const"() {value = dense<0.000000e+00> : tensor<1x32x128x80xf32>} : () -> tensor<1x32x128x80xf32>
    %224 = "tosa.add"(%219, %223) : (tensor<1x32x128x80xf32>, tensor<1x32x128x80xf32>) -> tensor<1x32x128x80xf32>
    %225 = "tosa.reshape"(%224) {new_shape = array<i64: 32, 128, 80>} : (tensor<1x32x128x80xf32>) -> tensor<32x128x80xf32>
    %226 = "tosa.matmul"(%222, %225) : (tensor<32x80x128xf32>, tensor<32x128x80xf32>) -> tensor<32x80x80xf32>
    %227 = "tosa.reshape"(%226) {new_shape = array<i64: 1, 32, 80, 80>} : (tensor<32x80x80xf32>) -> tensor<1x32x80x80xf32>
    %228 = "tosa.const"() {value = dense<11.3137083> : tensor<1x32x80x80xf32>} : () -> tensor<1x32x80x80xf32>
    %229 = "tosa.reciprocal"(%228) : (tensor<1x32x80x80xf32>) -> tensor<1x32x80x80xf32>
    %230 = "tosa.mul"(%227, %229) {shift = 0 : i32} : (tensor<1x32x80x80xf32>, tensor<1x32x80x80xf32>) -> tensor<1x32x80x80xf32>
    %231 = "tosa.add"(%230, %29) : (tensor<1x32x80x80xf32>, tensor<1x1x80x80xf32>) -> tensor<1x32x80x80xf32>
    %232 = tensor.empty() : tensor<1x32x80x1xf32>
    %233 = linalg.generic {indexing_maps = [#map4], iterator_types = ["parallel", "parallel", "parallel", "parallel"]} outs(%232 : tensor<1x32x80x1xf32>) {
    ^bb0(%out: f32):
      %cst_1454 = arith.constant 0xFF800000 : f32
      linalg.yield %cst_1454 : f32
    } -> tensor<1x32x80x1xf32>
    %234 = linalg.generic {indexing_maps = [#map4, #map13], iterator_types = ["parallel", "parallel", "parallel", "reduction"]} ins(%231 : tensor<1x32x80x80xf32>) outs(%232 : tensor<1x32x80x1xf32>) {
    ^bb0(%in: f32, %out: f32):
      %4172 = arith.maxf %in, %out : f32
      linalg.yield %4172 : f32
    } -> tensor<1x32x80x1xf32>
    %235 = tensor.empty() : tensor<1x32x80x80xf32>
    %236 = linalg.generic {indexing_maps = [#map4, #map13, #map4], iterator_types = ["parallel", "parallel", "parallel", "parallel"]} ins(%231, %234 : tensor<1x32x80x80xf32>, tensor<1x32x80x1xf32>) outs(%235 : tensor<1x32x80x80xf32>) {
    ^bb0(%in: f32, %in_1454: f32, %out: f32):
      %4172 = arith.subf %in, %in_1454 : f32
      %4173 = math.exp %4172 : f32
      linalg.yield %4173 : f32
    } -> tensor<1x32x80x80xf32>
    %237 = tensor.empty() : tensor<1x32x80x1xf32>
    %238 = linalg.generic {indexing_maps = [#map4], iterator_types = ["parallel", "parallel", "parallel", "parallel"]} outs(%237 : tensor<1x32x80x1xf32>) {
    ^bb0(%out: f32):
      %cst_1454 = arith.constant 0.000000e+00 : f32
      linalg.yield %cst_1454 : f32
    } -> tensor<1x32x80x1xf32>
    %239 = linalg.generic {indexing_maps = [#map4, #map13], iterator_types = ["parallel", "parallel", "parallel", "reduction"]} ins(%236 : tensor<1x32x80x80xf32>) outs(%238 : tensor<1x32x80x1xf32>) {
    ^bb0(%in: f32, %out: f32):
      %4172 = arith.addf %in, %out : f32
      linalg.yield %4172 : f32
    } -> tensor<1x32x80x1xf32>
    %240 = tensor.empty() : tensor<1x32x80x80xf32>
    %241 = linalg.generic {indexing_maps = [#map4, #map13, #map4], iterator_types = ["parallel", "parallel", "parallel", "parallel"]} ins(%236, %239 : tensor<1x32x80x80xf32>, tensor<1x32x80x1xf32>) outs(%240 : tensor<1x32x80x80xf32>) {
    ^bb0(%in: f32, %in_1454: f32, %out: f32):
      %4172 = arith.divf %in, %in_1454 : f32
      linalg.yield %4172 : f32
    } -> tensor<1x32x80x80xf32>
    %242 = "tosa.const"() {value = dense<0.000000e+00> : tensor<1x32x80x80xf32>} : () -> tensor<1x32x80x80xf32>
    %243 = "tosa.add"(%241, %242) : (tensor<1x32x80x80xf32>, tensor<1x32x80x80xf32>) -> tensor<1x32x80x80xf32>
    %244 = "tosa.reshape"(%243) {new_shape = array<i64: 32, 80, 80>} : (tensor<1x32x80x80xf32>) -> tensor<32x80x80xf32>
    %245 = "tosa.const"() {value = dense<0.000000e+00> : tensor<1x32x80x128xf32>} : () -> tensor<1x32x80x128xf32>
    %246 = "tosa.add"(%191, %245) : (tensor<1x32x80x128xf32>, tensor<1x32x80x128xf32>) -> tensor<1x32x80x128xf32>
    %247 = "tosa.reshape"(%246) {new_shape = array<i64: 32, 80, 128>} : (tensor<1x32x80x128xf32>) -> tensor<32x80x128xf32>
    %248 = "tosa.matmul"(%244, %247) : (tensor<32x80x80xf32>, tensor<32x80x128xf32>) -> tensor<32x80x128xf32>
    %249 = "tosa.reshape"(%248) {new_shape = array<i64: 1, 32, 80, 128>} : (tensor<32x80x128xf32>) -> tensor<1x32x80x128xf32>
    %250 = tensor.empty() : tensor<1x80x32x128xf32>
    %251 = linalg.generic {indexing_maps = [#map9, #map4], iterator_types = ["parallel", "parallel", "parallel", "parallel"]} ins(%249 : tensor<1x32x80x128xf32>) outs(%250 : tensor<1x80x32x128xf32>) {
    ^bb0(%in: f32, %out: f32):
      linalg.yield %in : f32
    } -> tensor<1x80x32x128xf32>
    %252 = "tosa.identity"(%251) : (tensor<1x80x32x128xf32>) -> tensor<1x80x32x128xf32>
    %253 = "tosa.reshape"(%252) {new_shape = array<i64: 1, 80, 4096>} : (tensor<1x80x32x128xf32>) -> tensor<1x80x4096xf32>
    %254 = tensor.empty() : tensor<4096x4096xf32>
    %255 = linalg.generic {indexing_maps = [#map3, #map8], iterator_types = ["parallel", "parallel"]} ins(%expanded_86 : tensor<4096x4096xf32>) outs(%254 : tensor<4096x4096xf32>) {
    ^bb0(%in: f32, %out: f32):
      linalg.yield %in : f32
    } -> tensor<4096x4096xf32>
    %256 = "tosa.reshape"(%253) {new_shape = array<i64: 80, 4096>} : (tensor<1x80x4096xf32>) -> tensor<80x4096xf32>
    %cst_695 = arith.constant dense<0.000000e+00> : tensor<80x4096xf32>
    %257 = linalg.matmul {cast = #linalg.type_fn<cast_signed>} ins(%256, %255 : tensor<80x4096xf32>, tensor<4096x4096xf32>) outs(%cst_695 : tensor<80x4096xf32>) -> tensor<80x4096xf32>
    %258 = "tosa.reshape"(%257) {new_shape = array<i64: 1, 80, 4096>} : (tensor<80x4096xf32>) -> tensor<1x80x4096xf32>
    %259 = "tosa.add"(%158, %258) : (tensor<1x80x4096xf32>, tensor<1x80x4096xf32>) -> tensor<1x80x4096xf32>
    %260 = tensor.empty() : tensor<1x80x4096xf32>
    %c2_i32_696 = arith.constant 2 : i32
    %261 = linalg.generic {indexing_maps = [#map5, #map5], iterator_types = ["parallel", "parallel", "parallel"]} ins(%259 : tensor<1x80x4096xf32>) outs(%260 : tensor<1x80x4096xf32>) {
    ^bb0(%in: f32, %out: f32):
      %4172 = math.fpowi %in, %c2_i32_696 : f32, i32
      linalg.yield %4172 : f32
    } -> tensor<1x80x4096xf32>
    %cst_697 = arith.constant dense<0.000000e+00> : tensor<1x80x1xf32>
    %262 = linalg.generic {indexing_maps = [#map6, #map7], iterator_types = ["parallel", "parallel", "reduction", "parallel"]} ins(%261 : tensor<1x80x4096xf32>) outs(%cst_697 : tensor<1x80x1xf32>) {
    ^bb0(%in: f32, %out: f32):
      %cst_1454 = arith.constant 4.096000e+03 : f32
      %4172 = arith.divf %in, %cst_1454 : f32
      %4173 = arith.addf %4172, %out : f32
      linalg.yield %4173 : f32
    } -> tensor<1x80x1xf32>
    %263 = "tosa.const"() {value = dense<9.99999997E-7> : tensor<1x80x1xf32>} : () -> tensor<1x80x1xf32>
    %264 = "tosa.add"(%262, %263) : (tensor<1x80x1xf32>, tensor<1x80x1xf32>) -> tensor<1x80x1xf32>
    %265 = "tosa.rsqrt"(%264) : (tensor<1x80x1xf32>) -> tensor<1x80x1xf32>
    %266 = "tosa.mul"(%259, %265) {shift = 0 : i32} : (tensor<1x80x4096xf32>, tensor<1x80x1xf32>) -> tensor<1x80x4096xf32>
    %267 = "tosa.reshape"(%extracted_slice_2) {new_shape = array<i64: 1, 1, 4096>} : (tensor<4096xf32>) -> tensor<1x1x4096xf32>
    %268 = "tosa.mul"(%267, %266) {shift = 0 : i32} : (tensor<1x1x4096xf32>, tensor<1x80x4096xf32>) -> tensor<1x80x4096xf32>
    %269 = tensor.empty() : tensor<4096x11008xf32>
    %270 = linalg.generic {indexing_maps = [#map3, #map8], iterator_types = ["parallel", "parallel"]} ins(%expanded_88 : tensor<11008x4096xf32>) outs(%269 : tensor<4096x11008xf32>) {
    ^bb0(%in: f32, %out: f32):
      linalg.yield %in : f32
    } -> tensor<4096x11008xf32>
    %271 = "tosa.reshape"(%268) {new_shape = array<i64: 80, 4096>} : (tensor<1x80x4096xf32>) -> tensor<80x4096xf32>
    %cst_698 = arith.constant dense<0.000000e+00> : tensor<80x11008xf32>
    %272 = linalg.matmul {cast = #linalg.type_fn<cast_signed>} ins(%271, %270 : tensor<80x4096xf32>, tensor<4096x11008xf32>) outs(%cst_698 : tensor<80x11008xf32>) -> tensor<80x11008xf32>
    %273 = "tosa.reshape"(%272) {new_shape = array<i64: 1, 80, 11008>} : (tensor<80x11008xf32>) -> tensor<1x80x11008xf32>
    %274 = tensor.empty() : tensor<1x80x11008xf32>
    %275 = linalg.generic {indexing_maps = [#map5, #map5], iterator_types = ["parallel", "parallel", "parallel"]} ins(%273 : tensor<1x80x11008xf32>) outs(%274 : tensor<1x80x11008xf32>) {
    ^bb0(%in: f32, %out: f32):
      %4172 = arith.negf %in : f32
      %4173 = math.exp %4172 : f32
      %cst_1454 = arith.constant 1.000000e+00 : f32
      %4174 = arith.addf %cst_1454, %4173 : f32
      %4175 = arith.divf %in, %4174 : f32
      linalg.yield %4175 : f32
    } -> tensor<1x80x11008xf32>
    %276 = tensor.empty() : tensor<4096x11008xf32>
    %277 = linalg.generic {indexing_maps = [#map3, #map8], iterator_types = ["parallel", "parallel"]} ins(%expanded_90 : tensor<11008x4096xf32>) outs(%276 : tensor<4096x11008xf32>) {
    ^bb0(%in: f32, %out: f32):
      linalg.yield %in : f32
    } -> tensor<4096x11008xf32>
    %278 = "tosa.reshape"(%268) {new_shape = array<i64: 80, 4096>} : (tensor<1x80x4096xf32>) -> tensor<80x4096xf32>
    %cst_699 = arith.constant dense<0.000000e+00> : tensor<80x11008xf32>
    %279 = linalg.matmul {cast = #linalg.type_fn<cast_signed>} ins(%278, %277 : tensor<80x4096xf32>, tensor<4096x11008xf32>) outs(%cst_699 : tensor<80x11008xf32>) -> tensor<80x11008xf32>
    %280 = "tosa.reshape"(%279) {new_shape = array<i64: 1, 80, 11008>} : (tensor<80x11008xf32>) -> tensor<1x80x11008xf32>
    %281 = "tosa.mul"(%275, %280) {shift = 0 : i32} : (tensor<1x80x11008xf32>, tensor<1x80x11008xf32>) -> tensor<1x80x11008xf32>
    %282 = tensor.empty() : tensor<11008x4096xf32>
    %283 = linalg.generic {indexing_maps = [#map3, #map8], iterator_types = ["parallel", "parallel"]} ins(%expanded_92 : tensor<4096x11008xf32>) outs(%282 : tensor<11008x4096xf32>) {
    ^bb0(%in: f32, %out: f32):
      linalg.yield %in : f32
    } -> tensor<11008x4096xf32>
    %284 = "tosa.reshape"(%281) {new_shape = array<i64: 80, 11008>} : (tensor<1x80x11008xf32>) -> tensor<80x11008xf32>
    %cst_700 = arith.constant dense<0.000000e+00> : tensor<80x4096xf32>
    %285 = linalg.matmul {cast = #linalg.type_fn<cast_signed>} ins(%284, %283 : tensor<80x11008xf32>, tensor<11008x4096xf32>) outs(%cst_700 : tensor<80x4096xf32>) -> tensor<80x4096xf32>
    %286 = "tosa.reshape"(%285) {new_shape = array<i64: 1, 80, 4096>} : (tensor<80x4096xf32>) -> tensor<1x80x4096xf32>
    %287 = "tosa.add"(%259, %286) : (tensor<1x80x4096xf32>, tensor<1x80x4096xf32>) -> tensor<1x80x4096xf32>
    %288 = tensor.empty() : tensor<1x80x4096xf32>
    %c2_i32_701 = arith.constant 2 : i32
    %289 = linalg.generic {indexing_maps = [#map5, #map5], iterator_types = ["parallel", "parallel", "parallel"]} ins(%287 : tensor<1x80x4096xf32>) outs(%288 : tensor<1x80x4096xf32>) {
    ^bb0(%in: f32, %out: f32):
      %4172 = math.fpowi %in, %c2_i32_701 : f32, i32
      linalg.yield %4172 : f32
    } -> tensor<1x80x4096xf32>
    %cst_702 = arith.constant dense<0.000000e+00> : tensor<1x80x1xf32>
    %290 = linalg.generic {indexing_maps = [#map6, #map7], iterator_types = ["parallel", "parallel", "reduction", "parallel"]} ins(%289 : tensor<1x80x4096xf32>) outs(%cst_702 : tensor<1x80x1xf32>) {
    ^bb0(%in: f32, %out: f32):
      %cst_1454 = arith.constant 4.096000e+03 : f32
      %4172 = arith.divf %in, %cst_1454 : f32
      %4173 = arith.addf %4172, %out : f32
      linalg.yield %4173 : f32
    } -> tensor<1x80x1xf32>
    %291 = "tosa.const"() {value = dense<9.99999997E-7> : tensor<1x80x1xf32>} : () -> tensor<1x80x1xf32>
    %292 = "tosa.add"(%290, %291) : (tensor<1x80x1xf32>, tensor<1x80x1xf32>) -> tensor<1x80x1xf32>
    %293 = "tosa.rsqrt"(%292) : (tensor<1x80x1xf32>) -> tensor<1x80x1xf32>
    %294 = "tosa.mul"(%287, %293) {shift = 0 : i32} : (tensor<1x80x4096xf32>, tensor<1x80x1xf32>) -> tensor<1x80x4096xf32>
    %295 = "tosa.reshape"(%extracted_slice_3) {new_shape = array<i64: 1, 1, 4096>} : (tensor<4096xf32>) -> tensor<1x1x4096xf32>
    %296 = "tosa.mul"(%295, %294) {shift = 0 : i32} : (tensor<1x1x4096xf32>, tensor<1x80x4096xf32>) -> tensor<1x80x4096xf32>
    %297 = tensor.empty() : tensor<4096x4096xf32>
    %298 = linalg.generic {indexing_maps = [#map3, #map8], iterator_types = ["parallel", "parallel"]} ins(%expanded_94 : tensor<4096x4096xf32>) outs(%297 : tensor<4096x4096xf32>) {
    ^bb0(%in: f32, %out: f32):
      linalg.yield %in : f32
    } -> tensor<4096x4096xf32>
    %299 = "tosa.reshape"(%296) {new_shape = array<i64: 80, 4096>} : (tensor<1x80x4096xf32>) -> tensor<80x4096xf32>
    %cst_703 = arith.constant dense<0.000000e+00> : tensor<80x4096xf32>
    %300 = linalg.matmul {cast = #linalg.type_fn<cast_signed>} ins(%299, %298 : tensor<80x4096xf32>, tensor<4096x4096xf32>) outs(%cst_703 : tensor<80x4096xf32>) -> tensor<80x4096xf32>
    %301 = "tosa.reshape"(%300) {new_shape = array<i64: 1, 80, 4096>} : (tensor<80x4096xf32>) -> tensor<1x80x4096xf32>
    %302 = tensor.empty() : tensor<4096x4096xf32>
    %303 = linalg.generic {indexing_maps = [#map3, #map8], iterator_types = ["parallel", "parallel"]} ins(%expanded_96 : tensor<4096x4096xf32>) outs(%302 : tensor<4096x4096xf32>) {
    ^bb0(%in: f32, %out: f32):
      linalg.yield %in : f32
    } -> tensor<4096x4096xf32>
    %304 = "tosa.reshape"(%296) {new_shape = array<i64: 80, 4096>} : (tensor<1x80x4096xf32>) -> tensor<80x4096xf32>
    %cst_704 = arith.constant dense<0.000000e+00> : tensor<80x4096xf32>
    %305 = linalg.matmul {cast = #linalg.type_fn<cast_signed>} ins(%304, %303 : tensor<80x4096xf32>, tensor<4096x4096xf32>) outs(%cst_704 : tensor<80x4096xf32>) -> tensor<80x4096xf32>
    %306 = "tosa.reshape"(%305) {new_shape = array<i64: 1, 80, 4096>} : (tensor<80x4096xf32>) -> tensor<1x80x4096xf32>
    %307 = tensor.empty() : tensor<4096x4096xf32>
    %308 = linalg.generic {indexing_maps = [#map3, #map8], iterator_types = ["parallel", "parallel"]} ins(%expanded_98 : tensor<4096x4096xf32>) outs(%307 : tensor<4096x4096xf32>) {
    ^bb0(%in: f32, %out: f32):
      linalg.yield %in : f32
    } -> tensor<4096x4096xf32>
    %309 = "tosa.reshape"(%296) {new_shape = array<i64: 80, 4096>} : (tensor<1x80x4096xf32>) -> tensor<80x4096xf32>
    %cst_705 = arith.constant dense<0.000000e+00> : tensor<80x4096xf32>
    %310 = linalg.matmul {cast = #linalg.type_fn<cast_signed>} ins(%309, %308 : tensor<80x4096xf32>, tensor<4096x4096xf32>) outs(%cst_705 : tensor<80x4096xf32>) -> tensor<80x4096xf32>
    %311 = "tosa.reshape"(%310) {new_shape = array<i64: 1, 80, 4096>} : (tensor<80x4096xf32>) -> tensor<1x80x4096xf32>
    %312 = "tosa.reshape"(%301) {new_shape = array<i64: 1, 80, 32, 128>} : (tensor<1x80x4096xf32>) -> tensor<1x80x32x128xf32>
    %313 = tensor.empty() : tensor<1x32x80x128xf32>
    %314 = linalg.generic {indexing_maps = [#map9, #map4], iterator_types = ["parallel", "parallel", "parallel", "parallel"]} ins(%312 : tensor<1x80x32x128xf32>) outs(%313 : tensor<1x32x80x128xf32>) {
    ^bb0(%in: f32, %out: f32):
      linalg.yield %in : f32
    } -> tensor<1x32x80x128xf32>
    %315 = "tosa.reshape"(%306) {new_shape = array<i64: 1, 80, 32, 128>} : (tensor<1x80x4096xf32>) -> tensor<1x80x32x128xf32>
    %316 = tensor.empty() : tensor<1x32x80x128xf32>
    %317 = linalg.generic {indexing_maps = [#map9, #map4], iterator_types = ["parallel", "parallel", "parallel", "parallel"]} ins(%315 : tensor<1x80x32x128xf32>) outs(%316 : tensor<1x32x80x128xf32>) {
    ^bb0(%in: f32, %out: f32):
      linalg.yield %in : f32
    } -> tensor<1x32x80x128xf32>
    %318 = "tosa.reshape"(%311) {new_shape = array<i64: 1, 80, 32, 128>} : (tensor<1x80x4096xf32>) -> tensor<1x80x32x128xf32>
    %319 = tensor.empty() : tensor<1x32x80x128xf32>
    %320 = linalg.generic {indexing_maps = [#map9, #map4], iterator_types = ["parallel", "parallel", "parallel", "parallel"]} ins(%318 : tensor<1x80x32x128xf32>) outs(%319 : tensor<1x32x80x128xf32>) {
    ^bb0(%in: f32, %out: f32):
      linalg.yield %in : f32
    } -> tensor<1x32x80x128xf32>
    %extracted_slice_706 = tensor.extract_slice %expanded_524[0, 0, 0, 0] [1, 1, 2048, 128] [1, 1, 1, 1] : tensor<1x1x2048x128xf32> to tensor<1x1x2048x128xf32>
    %extracted_slice_707 = tensor.extract_slice %extracted_slice_706[0, 0, 0, 0] [1, 1, 2048, 128] [1, 1, 1, 1] : tensor<1x1x2048x128xf32> to tensor<1x1x2048x128xf32>
    %extracted_slice_708 = tensor.extract_slice %extracted_slice_707[0, 0, 0, 0] [1, 1, 80, 128] [1, 1, 1, 1] : tensor<1x1x2048x128xf32> to tensor<1x1x80x128xf32>
    %extracted_slice_709 = tensor.extract_slice %expanded_526[0, 0, 0, 0] [1, 1, 2048, 128] [1, 1, 1, 1] : tensor<1x1x2048x128xf32> to tensor<1x1x2048x128xf32>
    %extracted_slice_710 = tensor.extract_slice %extracted_slice_709[0, 0, 0, 0] [1, 1, 2048, 128] [1, 1, 1, 1] : tensor<1x1x2048x128xf32> to tensor<1x1x2048x128xf32>
    %extracted_slice_711 = tensor.extract_slice %extracted_slice_710[0, 0, 0, 0] [1, 1, 80, 128] [1, 1, 1, 1] : tensor<1x1x2048x128xf32> to tensor<1x1x80x128xf32>
    %321 = tensor.empty() : tensor<1x80x128xf32>
    %322 = linalg.generic {indexing_maps = [#map10, #map5], iterator_types = ["parallel", "parallel", "parallel"]} ins(%extracted_slice_708 : tensor<1x1x80x128xf32>) outs(%321 : tensor<1x80x128xf32>) {
    ^bb0(%in: f32, %out: f32):
      linalg.yield %in : f32
    } -> tensor<1x80x128xf32>
    %323 = tensor.empty() : tensor<80x128xf32>
    %324 = linalg.generic {indexing_maps = [#map11, #map3], iterator_types = ["parallel", "parallel"]} ins(%322 : tensor<1x80x128xf32>) outs(%323 : tensor<80x128xf32>) {
    ^bb0(%in: f32, %out: f32):
      linalg.yield %in : f32
    } -> tensor<80x128xf32>
    %325 = tensor.empty() : tensor<1x80x128xf32>
    %326 = linalg.generic {indexing_maps = [#map10, #map5], iterator_types = ["parallel", "parallel", "parallel"]} ins(%extracted_slice_711 : tensor<1x1x80x128xf32>) outs(%325 : tensor<1x80x128xf32>) {
    ^bb0(%in: f32, %out: f32):
      linalg.yield %in : f32
    } -> tensor<1x80x128xf32>
    %327 = tensor.empty() : tensor<80x128xf32>
    %328 = linalg.generic {indexing_maps = [#map11, #map3], iterator_types = ["parallel", "parallel"]} ins(%326 : tensor<1x80x128xf32>) outs(%327 : tensor<80x128xf32>) {
    ^bb0(%in: f32, %out: f32):
      linalg.yield %in : f32
    } -> tensor<80x128xf32>
    %329 = tensor.empty() : tensor<1x80x128xf32>
    %330 = linalg.generic {indexing_maps = [#map2, #map5], iterator_types = ["parallel", "parallel", "parallel"]} ins(%1 : tensor<1x80xi64>) outs(%329 : tensor<1x80x128xf32>) {
    ^bb0(%in: i64, %out: f32):
      %4172 = arith.index_cast %in : i64 to index
      %4173 = linalg.index 2 : index
      %extracted = tensor.extract %324[%4172, %4173] : tensor<80x128xf32>
      linalg.yield %extracted : f32
    } -> tensor<1x80x128xf32>
    %331 = "tosa.reshape"(%330) {new_shape = array<i64: 1, 1, 80, 128>} : (tensor<1x80x128xf32>) -> tensor<1x1x80x128xf32>
    %332 = tensor.empty() : tensor<1x80x128xf32>
    %333 = linalg.generic {indexing_maps = [#map2, #map5], iterator_types = ["parallel", "parallel", "parallel"]} ins(%1 : tensor<1x80xi64>) outs(%332 : tensor<1x80x128xf32>) {
    ^bb0(%in: i64, %out: f32):
      %4172 = arith.index_cast %in : i64 to index
      %4173 = linalg.index 2 : index
      %extracted = tensor.extract %328[%4172, %4173] : tensor<80x128xf32>
      linalg.yield %extracted : f32
    } -> tensor<1x80x128xf32>
    %334 = "tosa.reshape"(%333) {new_shape = array<i64: 1, 1, 80, 128>} : (tensor<1x80x128xf32>) -> tensor<1x1x80x128xf32>
    %335 = "tosa.mul"(%314, %331) {shift = 0 : i32} : (tensor<1x32x80x128xf32>, tensor<1x1x80x128xf32>) -> tensor<1x32x80x128xf32>
    %extracted_slice_712 = tensor.extract_slice %314[0, 0, 0, 0] [1, 32, 80, 64] [1, 1, 1, 1] : tensor<1x32x80x128xf32> to tensor<1x32x80x64xf32>
    %extracted_slice_713 = tensor.extract_slice %314[0, 0, 0, 64] [1, 32, 80, 64] [1, 1, 1, 1] : tensor<1x32x80x128xf32> to tensor<1x32x80x64xf32>
    %336 = tensor.empty() : tensor<1x32x80x64xf32>
    %337 = linalg.generic {indexing_maps = [#map4, #map4], iterator_types = ["parallel", "parallel", "parallel", "parallel"]} ins(%extracted_slice_713 : tensor<1x32x80x64xf32>) outs(%336 : tensor<1x32x80x64xf32>) {
    ^bb0(%in: f32, %out: f32):
      %4172 = arith.negf %in : f32
      linalg.yield %4172 : f32
    } -> tensor<1x32x80x64xf32>
    %338 = tensor.empty() : tensor<1x32x80x128xf32>
    %inserted_slice_714 = tensor.insert_slice %337 into %338[0, 0, 0, 0] [1, 32, 80, 64] [1, 1, 1, 1] : tensor<1x32x80x64xf32> into tensor<1x32x80x128xf32>
    %inserted_slice_715 = tensor.insert_slice %extracted_slice_712 into %inserted_slice_714[0, 0, 0, 64] [1, 32, 80, 64] [1, 1, 1, 1] : tensor<1x32x80x64xf32> into tensor<1x32x80x128xf32>
    %339 = "tosa.mul"(%inserted_slice_715, %334) {shift = 0 : i32} : (tensor<1x32x80x128xf32>, tensor<1x1x80x128xf32>) -> tensor<1x32x80x128xf32>
    %340 = "tosa.add"(%335, %339) : (tensor<1x32x80x128xf32>, tensor<1x32x80x128xf32>) -> tensor<1x32x80x128xf32>
    %341 = "tosa.mul"(%317, %331) {shift = 0 : i32} : (tensor<1x32x80x128xf32>, tensor<1x1x80x128xf32>) -> tensor<1x32x80x128xf32>
    %extracted_slice_716 = tensor.extract_slice %317[0, 0, 0, 0] [1, 32, 80, 64] [1, 1, 1, 1] : tensor<1x32x80x128xf32> to tensor<1x32x80x64xf32>
    %extracted_slice_717 = tensor.extract_slice %317[0, 0, 0, 64] [1, 32, 80, 64] [1, 1, 1, 1] : tensor<1x32x80x128xf32> to tensor<1x32x80x64xf32>
    %342 = tensor.empty() : tensor<1x32x80x64xf32>
    %343 = linalg.generic {indexing_maps = [#map4, #map4], iterator_types = ["parallel", "parallel", "parallel", "parallel"]} ins(%extracted_slice_717 : tensor<1x32x80x64xf32>) outs(%342 : tensor<1x32x80x64xf32>) {
    ^bb0(%in: f32, %out: f32):
      %4172 = arith.negf %in : f32
      linalg.yield %4172 : f32
    } -> tensor<1x32x80x64xf32>
    %344 = tensor.empty() : tensor<1x32x80x128xf32>
    %inserted_slice_718 = tensor.insert_slice %343 into %344[0, 0, 0, 0] [1, 32, 80, 64] [1, 1, 1, 1] : tensor<1x32x80x64xf32> into tensor<1x32x80x128xf32>
    %inserted_slice_719 = tensor.insert_slice %extracted_slice_716 into %inserted_slice_718[0, 0, 0, 64] [1, 32, 80, 64] [1, 1, 1, 1] : tensor<1x32x80x64xf32> into tensor<1x32x80x128xf32>
    %345 = "tosa.mul"(%inserted_slice_719, %334) {shift = 0 : i32} : (tensor<1x32x80x128xf32>, tensor<1x1x80x128xf32>) -> tensor<1x32x80x128xf32>
    %346 = "tosa.add"(%341, %345) : (tensor<1x32x80x128xf32>, tensor<1x32x80x128xf32>) -> tensor<1x32x80x128xf32>
    %347 = tensor.empty() : tensor<1x32x128x80xf32>
    %348 = linalg.generic {indexing_maps = [#map12, #map4], iterator_types = ["parallel", "parallel", "parallel", "parallel"]} ins(%346 : tensor<1x32x80x128xf32>) outs(%347 : tensor<1x32x128x80xf32>) {
    ^bb0(%in: f32, %out: f32):
      linalg.yield %in : f32
    } -> tensor<1x32x128x80xf32>
    %349 = "tosa.const"() {value = dense<0.000000e+00> : tensor<1x32x80x128xf32>} : () -> tensor<1x32x80x128xf32>
    %350 = "tosa.add"(%340, %349) : (tensor<1x32x80x128xf32>, tensor<1x32x80x128xf32>) -> tensor<1x32x80x128xf32>
    %351 = "tosa.reshape"(%350) {new_shape = array<i64: 32, 80, 128>} : (tensor<1x32x80x128xf32>) -> tensor<32x80x128xf32>
    %352 = "tosa.const"() {value = dense<0.000000e+00> : tensor<1x32x128x80xf32>} : () -> tensor<1x32x128x80xf32>
    %353 = "tosa.add"(%348, %352) : (tensor<1x32x128x80xf32>, tensor<1x32x128x80xf32>) -> tensor<1x32x128x80xf32>
    %354 = "tosa.reshape"(%353) {new_shape = array<i64: 32, 128, 80>} : (tensor<1x32x128x80xf32>) -> tensor<32x128x80xf32>
    %355 = "tosa.matmul"(%351, %354) : (tensor<32x80x128xf32>, tensor<32x128x80xf32>) -> tensor<32x80x80xf32>
    %356 = "tosa.reshape"(%355) {new_shape = array<i64: 1, 32, 80, 80>} : (tensor<32x80x80xf32>) -> tensor<1x32x80x80xf32>
    %357 = "tosa.const"() {value = dense<11.3137083> : tensor<1x32x80x80xf32>} : () -> tensor<1x32x80x80xf32>
    %358 = "tosa.reciprocal"(%357) : (tensor<1x32x80x80xf32>) -> tensor<1x32x80x80xf32>
    %359 = "tosa.mul"(%356, %358) {shift = 0 : i32} : (tensor<1x32x80x80xf32>, tensor<1x32x80x80xf32>) -> tensor<1x32x80x80xf32>
    %360 = "tosa.add"(%359, %29) : (tensor<1x32x80x80xf32>, tensor<1x1x80x80xf32>) -> tensor<1x32x80x80xf32>
    %361 = tensor.empty() : tensor<1x32x80x1xf32>
    %362 = linalg.generic {indexing_maps = [#map4], iterator_types = ["parallel", "parallel", "parallel", "parallel"]} outs(%361 : tensor<1x32x80x1xf32>) {
    ^bb0(%out: f32):
      %cst_1454 = arith.constant 0xFF800000 : f32
      linalg.yield %cst_1454 : f32
    } -> tensor<1x32x80x1xf32>
    %363 = linalg.generic {indexing_maps = [#map4, #map13], iterator_types = ["parallel", "parallel", "parallel", "reduction"]} ins(%360 : tensor<1x32x80x80xf32>) outs(%361 : tensor<1x32x80x1xf32>) {
    ^bb0(%in: f32, %out: f32):
      %4172 = arith.maxf %in, %out : f32
      linalg.yield %4172 : f32
    } -> tensor<1x32x80x1xf32>
    %364 = tensor.empty() : tensor<1x32x80x80xf32>
    %365 = linalg.generic {indexing_maps = [#map4, #map13, #map4], iterator_types = ["parallel", "parallel", "parallel", "parallel"]} ins(%360, %363 : tensor<1x32x80x80xf32>, tensor<1x32x80x1xf32>) outs(%364 : tensor<1x32x80x80xf32>) {
    ^bb0(%in: f32, %in_1454: f32, %out: f32):
      %4172 = arith.subf %in, %in_1454 : f32
      %4173 = math.exp %4172 : f32
      linalg.yield %4173 : f32
    } -> tensor<1x32x80x80xf32>
    %366 = tensor.empty() : tensor<1x32x80x1xf32>
    %367 = linalg.generic {indexing_maps = [#map4], iterator_types = ["parallel", "parallel", "parallel", "parallel"]} outs(%366 : tensor<1x32x80x1xf32>) {
    ^bb0(%out: f32):
      %cst_1454 = arith.constant 0.000000e+00 : f32
      linalg.yield %cst_1454 : f32
    } -> tensor<1x32x80x1xf32>
    %368 = linalg.generic {indexing_maps = [#map4, #map13], iterator_types = ["parallel", "parallel", "parallel", "reduction"]} ins(%365 : tensor<1x32x80x80xf32>) outs(%367 : tensor<1x32x80x1xf32>) {
    ^bb0(%in: f32, %out: f32):
      %4172 = arith.addf %in, %out : f32
      linalg.yield %4172 : f32
    } -> tensor<1x32x80x1xf32>
    %369 = tensor.empty() : tensor<1x32x80x80xf32>
    %370 = linalg.generic {indexing_maps = [#map4, #map13, #map4], iterator_types = ["parallel", "parallel", "parallel", "parallel"]} ins(%365, %368 : tensor<1x32x80x80xf32>, tensor<1x32x80x1xf32>) outs(%369 : tensor<1x32x80x80xf32>) {
    ^bb0(%in: f32, %in_1454: f32, %out: f32):
      %4172 = arith.divf %in, %in_1454 : f32
      linalg.yield %4172 : f32
    } -> tensor<1x32x80x80xf32>
    %371 = "tosa.const"() {value = dense<0.000000e+00> : tensor<1x32x80x80xf32>} : () -> tensor<1x32x80x80xf32>
    %372 = "tosa.add"(%370, %371) : (tensor<1x32x80x80xf32>, tensor<1x32x80x80xf32>) -> tensor<1x32x80x80xf32>
    %373 = "tosa.reshape"(%372) {new_shape = array<i64: 32, 80, 80>} : (tensor<1x32x80x80xf32>) -> tensor<32x80x80xf32>
    %374 = "tosa.const"() {value = dense<0.000000e+00> : tensor<1x32x80x128xf32>} : () -> tensor<1x32x80x128xf32>
    %375 = "tosa.add"(%320, %374) : (tensor<1x32x80x128xf32>, tensor<1x32x80x128xf32>) -> tensor<1x32x80x128xf32>
    %376 = "tosa.reshape"(%375) {new_shape = array<i64: 32, 80, 128>} : (tensor<1x32x80x128xf32>) -> tensor<32x80x128xf32>
    %377 = "tosa.matmul"(%373, %376) : (tensor<32x80x80xf32>, tensor<32x80x128xf32>) -> tensor<32x80x128xf32>
    %378 = "tosa.reshape"(%377) {new_shape = array<i64: 1, 32, 80, 128>} : (tensor<32x80x128xf32>) -> tensor<1x32x80x128xf32>
    %379 = tensor.empty() : tensor<1x80x32x128xf32>
…
      linalg.yield %in : f32
    } -> tensor<11008x4096xf32>
    %3896 = "tosa.reshape"(%3893) {new_shape = array<i64: 80, 11008>} : (tensor<1x80x11008xf32>) -> tensor<80x11008xf32>
    %cst_1400 = arith.constant dense<0.000000e+00> : tensor<80x4096xf32>
    %3897 = linalg.matmul {cast = #linalg.type_fn<cast_signed>} ins(%3896, %3895 : tensor<80x11008xf32>, tensor<11008x4096xf32>) outs(%cst_1400 : tensor<80x4096xf32>) -> tensor<80x4096xf32>
    %3898 = "tosa.reshape"(%3897) {new_shape = array<i64: 1, 80, 4096>} : (tensor<80x4096xf32>) -> tensor<1x80x4096xf32>
    %3899 = "tosa.add"(%3871, %3898) : (tensor<1x80x4096xf32>, tensor<1x80x4096xf32>) -> tensor<1x80x4096xf32>
    %3900 = tensor.empty() : tensor<1x80x4096xf32>
    %c2_i32_1401 = arith.constant 2 : i32
    %3901 = linalg.generic {indexing_maps = [#map5, #map5], iterator_types = ["parallel", "parallel", "parallel"]} ins(%3899 : tensor<1x80x4096xf32>) outs(%3900 : tensor<1x80x4096xf32>) {
    ^bb0(%in: f32, %out: f32):
      %4172 = math.fpowi %in, %c2_i32_1401 : f32, i32
      linalg.yield %4172 : f32
    } -> tensor<1x80x4096xf32>
    %cst_1402 = arith.constant dense<0.000000e+00> : tensor<1x80x1xf32>
    %3902 = linalg.generic {indexing_maps = [#map6, #map7], iterator_types = ["parallel", "parallel", "reduction", "parallel"]} ins(%3901 : tensor<1x80x4096xf32>) outs(%cst_1402 : tensor<1x80x1xf32>) {
    ^bb0(%in: f32, %out: f32):
      %cst_1454 = arith.constant 4.096000e+03 : f32
      %4172 = arith.divf %in, %cst_1454 : f32
      %4173 = arith.addf %4172, %out : f32
      linalg.yield %4173 : f32
    } -> tensor<1x80x1xf32>
    %3903 = "tosa.const"() {value = dense<9.99999997E-7> : tensor<1x80x1xf32>} : () -> tensor<1x80x1xf32>
    %3904 = "tosa.add"(%3902, %3903) : (tensor<1x80x1xf32>, tensor<1x80x1xf32>) -> tensor<1x80x1xf32>
    %3905 = "tosa.rsqrt"(%3904) : (tensor<1x80x1xf32>) -> tensor<1x80x1xf32>
    %3906 = "tosa.mul"(%3899, %3905) {shift = 0 : i32} : (tensor<1x80x4096xf32>, tensor<1x80x1xf32>) -> tensor<1x80x4096xf32>
    %3907 = "tosa.reshape"(%extracted_slice_59) {new_shape = array<i64: 1, 1, 4096>} : (tensor<4096xf32>) -> tensor<1x1x4096xf32>
    %3908 = "tosa.mul"(%3907, %3906) {shift = 0 : i32} : (tensor<1x1x4096xf32>, tensor<1x80x4096xf32>) -> tensor<1x80x4096xf32>
    %3909 = tensor.empty() : tensor<4096x4096xf32>
    %3910 = linalg.generic {indexing_maps = [#map3, #map8], iterator_types = ["parallel", "parallel"]} ins(%expanded_486 : tensor<4096x4096xf32>) outs(%3909 : tensor<4096x4096xf32>) {
    ^bb0(%in: f32, %out: f32):
      linalg.yield %in : f32
    } -> tensor<4096x4096xf32>
    %3911 = "tosa.reshape"(%3908) {new_shape = array<i64: 80, 4096>} : (tensor<1x80x4096xf32>) -> tensor<80x4096xf32>
    %cst_1403 = arith.constant dense<0.000000e+00> : tensor<80x4096xf32>
    %3912 = linalg.matmul {cast = #linalg.type_fn<cast_signed>} ins(%3911, %3910 : tensor<80x4096xf32>, tensor<4096x4096xf32>) outs(%cst_1403 : tensor<80x4096xf32>) -> tensor<80x4096xf32>
    %3913 = "tosa.reshape"(%3912) {new_shape = array<i64: 1, 80, 4096>} : (tensor<80x4096xf32>) -> tensor<1x80x4096xf32>
    %3914 = tensor.empty() : tensor<4096x4096xf32>
    %3915 = linalg.generic {indexing_maps = [#map3, #map8], iterator_types = ["parallel", "parallel"]} ins(%expanded_488 : tensor<4096x4096xf32>) outs(%3914 : tensor<4096x4096xf32>) {
    ^bb0(%in: f32, %out: f32):
      linalg.yield %in : f32
    } -> tensor<4096x4096xf32>
    %3916 = "tosa.reshape"(%3908) {new_shape = array<i64: 80, 4096>} : (tensor<1x80x4096xf32>) -> tensor<80x4096xf32>
    %cst_1404 = arith.constant dense<0.000000e+00> : tensor<80x4096xf32>
    %3917 = linalg.matmul {cast = #linalg.type_fn<cast_signed>} ins(%3916, %3915 : tensor<80x4096xf32>, tensor<4096x4096xf32>) outs(%cst_1404 : tensor<80x4096xf32>) -> tensor<80x4096xf32>
    %3918 = "tosa.reshape"(%3917) {new_shape = array<i64: 1, 80, 4096>} : (tensor<80x4096xf32>) -> tensor<1x80x4096xf32>
    %3919 = tensor.empty() : tensor<4096x4096xf32>
    %3920 = linalg.generic {indexing_maps = [#map3, #map8], iterator_types = ["parallel", "parallel"]} ins(%expanded_490 : tensor<4096x4096xf32>) outs(%3919 : tensor<4096x4096xf32>) {
    ^bb0(%in: f32, %out: f32):
      linalg.yield %in : f32
    } -> tensor<4096x4096xf32>
    %3921 = "tosa.reshape"(%3908) {new_shape = array<i64: 80, 4096>} : (tensor<1x80x4096xf32>) -> tensor<80x4096xf32>
    %cst_1405 = arith.constant dense<0.000000e+00> : tensor<80x4096xf32>
    %3922 = linalg.matmul {cast = #linalg.type_fn<cast_signed>} ins(%3921, %3920 : tensor<80x4096xf32>, tensor<4096x4096xf32>) outs(%cst_1405 : tensor<80x4096xf32>) -> tensor<80x4096xf32>
    %3923 = "tosa.reshape"(%3922) {new_shape = array<i64: 1, 80, 4096>} : (tensor<80x4096xf32>) -> tensor<1x80x4096xf32>
    %3924 = "tosa.reshape"(%3913) {new_shape = array<i64: 1, 80, 32, 128>} : (tensor<1x80x4096xf32>) -> tensor<1x80x32x128xf32>
    %3925 = tensor.empty() : tensor<1x32x80x128xf32>
    %3926 = linalg.generic {indexing_maps = [#map9, #map4], iterator_types = ["parallel", "parallel", "parallel", "parallel"]} ins(%3924 : tensor<1x80x32x128xf32>) outs(%3925 : tensor<1x32x80x128xf32>) {
    ^bb0(%in: f32, %out: f32):
      linalg.yield %in : f32
    } -> tensor<1x32x80x128xf32>
    %3927 = "tosa.reshape"(%3918) {new_shape = array<i64: 1, 80, 32, 128>} : (tensor<1x80x4096xf32>) -> tensor<1x80x32x128xf32>
    %3928 = tensor.empty() : tensor<1x32x80x128xf32>
    %3929 = linalg.generic {indexing_maps = [#map9, #map4], iterator_types = ["parallel", "parallel", "parallel", "parallel"]} ins(%3927 : tensor<1x80x32x128xf32>) outs(%3928 : tensor<1x32x80x128xf32>) {
    ^bb0(%in: f32, %out: f32):
      linalg.yield %in : f32
    } -> tensor<1x32x80x128xf32>
    %3930 = "tosa.reshape"(%3923) {new_shape = array<i64: 1, 80, 32, 128>} : (tensor<1x80x4096xf32>) -> tensor<1x80x32x128xf32>
    %3931 = tensor.empty() : tensor<1x32x80x128xf32>
    %3932 = linalg.generic {indexing_maps = [#map9, #map4], iterator_types = ["parallel", "parallel", "parallel", "parallel"]} ins(%3930 : tensor<1x80x32x128xf32>) outs(%3931 : tensor<1x32x80x128xf32>) {
    ^bb0(%in: f32, %out: f32):
      linalg.yield %in : f32
    } -> tensor<1x32x80x128xf32>
    %extracted_slice_1406 = tensor.extract_slice %expanded_636[0, 0, 0, 0] [1, 1, 2048, 128] [1, 1, 1, 1] : tensor<1x1x2048x128xf32> to tensor<1x1x2048x128xf32>
    %extracted_slice_1407 = tensor.extract_slice %extracted_slice_1406[0, 0, 0, 0] [1, 1, 2048, 128] [1, 1, 1, 1] : tensor<1x1x2048x128xf32> to tensor<1x1x2048x128xf32>
    %extracted_slice_1408 = tensor.extract_slice %extracted_slice_1407[0, 0, 0, 0] [1, 1, 80, 128] [1, 1, 1, 1] : tensor<1x1x2048x128xf32> to tensor<1x1x80x128xf32>
    %extracted_slice_1409 = tensor.extract_slice %expanded_638[0, 0, 0, 0] [1, 1, 2048, 128] [1, 1, 1, 1] : tensor<1x1x2048x128xf32> to tensor<1x1x2048x128xf32>
    %extracted_slice_1410 = tensor.extract_slice %extracted_slice_1409[0, 0, 0, 0] [1, 1, 2048, 128] [1, 1, 1, 1] : tensor<1x1x2048x128xf32> to tensor<1x1x2048x128xf32>
    %extracted_slice_1411 = tensor.extract_slice %extracted_slice_1410[0, 0, 0, 0] [1, 1, 80, 128] [1, 1, 1, 1] : tensor<1x1x2048x128xf32> to tensor<1x1x80x128xf32>
    %3933 = tensor.empty() : tensor<1x80x128xf32>
    %3934 = linalg.generic {indexing_maps = [#map10, #map5], iterator_types = ["parallel", "parallel", "parallel"]} ins(%extracted_slice_1408 : tensor<1x1x80x128xf32>) outs(%3933 : tensor<1x80x128xf32>) {
    ^bb0(%in: f32, %out: f32):
      linalg.yield %in : f32
    } -> tensor<1x80x128xf32>
    %3935 = tensor.empty() : tensor<80x128xf32>
    %3936 = linalg.generic {indexing_maps = [#map11, #map3], iterator_types = ["parallel", "parallel"]} ins(%3934 : tensor<1x80x128xf32>) outs(%3935 : tensor<80x128xf32>) {
    ^bb0(%in: f32, %out: f32):
      linalg.yield %in : f32
    } -> tensor<80x128xf32>
    %3937 = tensor.empty() : tensor<1x80x128xf32>
    %3938 = linalg.generic {indexing_maps = [#map10, #map5], iterator_types = ["parallel", "parallel", "parallel"]} ins(%extracted_slice_1411 : tensor<1x1x80x128xf32>) outs(%3937 : tensor<1x80x128xf32>) {
    ^bb0(%in: f32, %out: f32):
      linalg.yield %in : f32
    } -> tensor<1x80x128xf32>
    %3939 = tensor.empty() : tensor<80x128xf32>
    %3940 = linalg.generic {indexing_maps = [#map11, #map3], iterator_types = ["parallel", "parallel"]} ins(%3938 : tensor<1x80x128xf32>) outs(%3939 : tensor<80x128xf32>) {
    ^bb0(%in: f32, %out: f32):
      linalg.yield %in : f32
    } -> tensor<80x128xf32>
    %3941 = tensor.empty() : tensor<1x80x128xf32>
    %3942 = linalg.generic {indexing_maps = [#map2, #map5], iterator_types = ["parallel", "parallel", "parallel"]} ins(%1 : tensor<1x80xi64>) outs(%3941 : tensor<1x80x128xf32>) {
    ^bb0(%in: i64, %out: f32):
      %4172 = arith.index_cast %in : i64 to index
      %4173 = linalg.index 2 : index
      %extracted = tensor.extract %3936[%4172, %4173] : tensor<80x128xf32>
      linalg.yield %extracted : f32
    } -> tensor<1x80x128xf32>
    %3943 = "tosa.reshape"(%3942) {new_shape = array<i64: 1, 1, 80, 128>} : (tensor<1x80x128xf32>) -> tensor<1x1x80x128xf32>
    %3944 = tensor.empty() : tensor<1x80x128xf32>
    %3945 = linalg.generic {indexing_maps = [#map2, #map5], iterator_types = ["parallel", "parallel", "parallel"]} ins(%1 : tensor<1x80xi64>) outs(%3944 : tensor<1x80x128xf32>) {
    ^bb0(%in: i64, %out: f32):
      %4172 = arith.index_cast %in : i64 to index
      %4173 = linalg.index 2 : index
      %extracted = tensor.extract %3940[%4172, %4173] : tensor<80x128xf32>
      linalg.yield %extracted : f32
    } -> tensor<1x80x128xf32>
    %3946 = "tosa.reshape"(%3945) {new_shape = array<i64: 1, 1, 80, 128>} : (tensor<1x80x128xf32>) -> tensor<1x1x80x128xf32>
    %3947 = "tosa.mul"(%3926, %3943) {shift = 0 : i32} : (tensor<1x32x80x128xf32>, tensor<1x1x80x128xf32>) -> tensor<1x32x80x128xf32>
    %extracted_slice_1412 = tensor.extract_slice %3926[0, 0, 0, 0] [1, 32, 80, 64] [1, 1, 1, 1] : tensor<1x32x80x128xf32> to tensor<1x32x80x64xf32>
    %extracted_slice_1413 = tensor.extract_slice %3926[0, 0, 0, 64] [1, 32, 80, 64] [1, 1, 1, 1] : tensor<1x32x80x128xf32> to tensor<1x32x80x64xf32>
    %3948 = tensor.empty() : tensor<1x32x80x64xf32>
    %3949 = linalg.generic {indexing_maps = [#map4, #map4], iterator_types = ["parallel", "parallel", "parallel", "parallel"]} ins(%extracted_slice_1413 : tensor<1x32x80x64xf32>) outs(%3948 : tensor<1x32x80x64xf32>) {
    ^bb0(%in: f32, %out: f32):
      %4172 = arith.negf %in : f32
      linalg.yield %4172 : f32
    } -> tensor<1x32x80x64xf32>
    %3950 = tensor.empty() : tensor<1x32x80x128xf32>
    %inserted_slice_1414 = tensor.insert_slice %3949 into %3950[0, 0, 0, 0] [1, 32, 80, 64] [1, 1, 1, 1] : tensor<1x32x80x64xf32> into tensor<1x32x80x128xf32>
    %inserted_slice_1415 = tensor.insert_slice %extracted_slice_1412 into %inserted_slice_1414[0, 0, 0, 64] [1, 32, 80, 64] [1, 1, 1, 1] : tensor<1x32x80x64xf32> into tensor<1x32x80x128xf32>
    %3951 = "tosa.mul"(%inserted_slice_1415, %3946) {shift = 0 : i32} : (tensor<1x32x80x128xf32>, tensor<1x1x80x128xf32>) -> tensor<1x32x80x128xf32>
    %3952 = "tosa.add"(%3947, %3951) : (tensor<1x32x80x128xf32>, tensor<1x32x80x128xf32>) -> tensor<1x32x80x128xf32>
    %3953 = "tosa.mul"(%3929, %3943) {shift = 0 : i32} : (tensor<1x32x80x128xf32>, tensor<1x1x80x128xf32>) -> tensor<1x32x80x128xf32>
    %extracted_slice_1416 = tensor.extract_slice %3929[0, 0, 0, 0] [1, 32, 80, 64] [1, 1, 1, 1] : tensor<1x32x80x128xf32> to tensor<1x32x80x64xf32>
    %extracted_slice_1417 = tensor.extract_slice %3929[0, 0, 0, 64] [1, 32, 80, 64] [1, 1, 1, 1] : tensor<1x32x80x128xf32> to tensor<1x32x80x64xf32>
    %3954 = tensor.empty() : tensor<1x32x80x64xf32>
    %3955 = linalg.generic {indexing_maps = [#map4, #map4], iterator_types = ["parallel", "parallel", "parallel", "parallel"]} ins(%extracted_slice_1417 : tensor<1x32x80x64xf32>) outs(%3954 : tensor<1x32x80x64xf32>) {
    ^bb0(%in: f32, %out: f32):
      %4172 = arith.negf %in : f32
      linalg.yield %4172 : f32
    } -> tensor<1x32x80x64xf32>
    %3956 = tensor.empty() : tensor<1x32x80x128xf32>
    %inserted_slice_1418 = tensor.insert_slice %3955 into %3956[0, 0, 0, 0] [1, 32, 80, 64] [1, 1, 1, 1] : tensor<1x32x80x64xf32> into tensor<1x32x80x128xf32>
    %inserted_slice_1419 = tensor.insert_slice %extracted_slice_1416 into %inserted_slice_1418[0, 0, 0, 64] [1, 32, 80, 64] [1, 1, 1, 1] : tensor<1x32x80x64xf32> into tensor<1x32x80x128xf32>
    %3957 = "tosa.mul"(%inserted_slice_1419, %3946) {shift = 0 : i32} : (tensor<1x32x80x128xf32>, tensor<1x1x80x128xf32>) -> tensor<1x32x80x128xf32>
    %3958 = "tosa.add"(%3953, %3957) : (tensor<1x32x80x128xf32>, tensor<1x32x80x128xf32>) -> tensor<1x32x80x128xf32>
    %3959 = tensor.empty() : tensor<1x32x128x80xf32>
    %3960 = linalg.generic {indexing_maps = [#map12, #map4], iterator_types = ["parallel", "parallel", "parallel", "parallel"]} ins(%3958 : tensor<1x32x80x128xf32>) outs(%3959 : tensor<1x32x128x80xf32>) {
    ^bb0(%in: f32, %out: f32):
      linalg.yield %in : f32
    } -> tensor<1x32x128x80xf32>
    %3961 = "tosa.const"() {value = dense<0.000000e+00> : tensor<1x32x80x128xf32>} : () -> tensor<1x32x80x128xf32>
    %3962 = "tosa.add"(%3952, %3961) : (tensor<1x32x80x128xf32>, tensor<1x32x80x128xf32>) -> tensor<1x32x80x128xf32>
    %3963 = "tosa.reshape"(%3962) {new_shape = array<i64: 32, 80, 128>} : (tensor<1x32x80x128xf32>) -> tensor<32x80x128xf32>
    %3964 = "tosa.const"() {value = dense<0.000000e+00> : tensor<1x32x128x80xf32>} : () -> tensor<1x32x128x80xf32>
    %3965 = "tosa.add"(%3960, %3964) : (tensor<1x32x128x80xf32>, tensor<1x32x128x80xf32>) -> tensor<1x32x128x80xf32>
    %3966 = "tosa.reshape"(%3965) {new_shape = array<i64: 32, 128, 80>} : (tensor<1x32x128x80xf32>) -> tensor<32x128x80xf32>
    %3967 = "tosa.matmul"(%3963, %3966) : (tensor<32x80x128xf32>, tensor<32x128x80xf32>) -> tensor<32x80x80xf32>
    %3968 = "tosa.reshape"(%3967) {new_shape = array<i64: 1, 32, 80, 80>} : (tensor<32x80x80xf32>) -> tensor<1x32x80x80xf32>
    %3969 = "tosa.const"() {value = dense<11.3137083> : tensor<1x32x80x80xf32>} : () -> tensor<1x32x80x80xf32>
    %3970 = "tosa.reciprocal"(%3969) : (tensor<1x32x80x80xf32>) -> tensor<1x32x80x80xf32>
    %3971 = "tosa.mul"(%3968, %3970) {shift = 0 : i32} : (tensor<1x32x80x80xf32>, tensor<1x32x80x80xf32>) -> tensor<1x32x80x80xf32>
    %3972 = "tosa.add"(%3971, %29) : (tensor<1x32x80x80xf32>, tensor<1x1x80x80xf32>) -> tensor<1x32x80x80xf32>
    %3973 = tensor.empty() : tensor<1x32x80x1xf32>
    %3974 = linalg.generic {indexing_maps = [#map4], iterator_types = ["parallel", "parallel", "parallel", "parallel"]} outs(%3973 : tensor<1x32x80x1xf32>) {
    ^bb0(%out: f32):
      %cst_1454 = arith.constant 0xFF800000 : f32
      linalg.yield %cst_1454 : f32
    } -> tensor<1x32x80x1xf32>
    %3975 = linalg.generic {indexing_maps = [#map4, #map13], iterator_types = ["parallel", "parallel", "parallel", "reduction"]} ins(%3972 : tensor<1x32x80x80xf32>) outs(%3973 : tensor<1x32x80x1xf32>) {
    ^bb0(%in: f32, %out: f32):
      %4172 = arith.maxf %in, %out : f32
      linalg.yield %4172 : f32
    } -> tensor<1x32x80x1xf32>
    %3976 = tensor.empty() : tensor<1x32x80x80xf32>
    %3977 = linalg.generic {indexing_maps = [#map4, #map13, #map4], iterator_types = ["parallel", "parallel", "parallel", "parallel"]} ins(%3972, %3975 : tensor<1x32x80x80xf32>, tensor<1x32x80x1xf32>) outs(%3976 : tensor<1x32x80x80xf32>) {
    ^bb0(%in: f32, %in_1454: f32, %out: f32):
      %4172 = arith.subf %in, %in_1454 : f32
      %4173 = math.exp %4172 : f32
      linalg.yield %4173 : f32
    } -> tensor<1x32x80x80xf32>
    %3978 = tensor.empty() : tensor<1x32x80x1xf32>
    %3979 = linalg.generic {indexing_maps = [#map4], iterator_types = ["parallel", "parallel", "parallel", "parallel"]} outs(%3978 : tensor<1x32x80x1xf32>) {
    ^bb0(%out: f32):
      %cst_1454 = arith.constant 0.000000e+00 : f32
      linalg.yield %cst_1454 : f32
    } -> tensor<1x32x80x1xf32>
    %3980 = linalg.generic {indexing_maps = [#map4, #map13], iterator_types = ["parallel", "parallel", "parallel", "reduction"]} ins(%3977 : tensor<1x32x80x80xf32>) outs(%3979 : tensor<1x32x80x1xf32>) {
    ^bb0(%in: f32, %out: f32):
      %4172 = arith.addf %in, %out : f32
      linalg.yield %4172 : f32
    } -> tensor<1x32x80x1xf32>
    %3981 = tensor.empty() : tensor<1x32x80x80xf32>
    %3982 = linalg.generic {indexing_maps = [#map4, #map13, #map4], iterator_types = ["parallel", "parallel", "parallel", "parallel"]} ins(%3977, %3980 : tensor<1x32x80x80xf32>, tensor<1x32x80x1xf32>) outs(%3981 : tensor<1x32x80x80xf32>) {
    ^bb0(%in: f32, %in_1454: f32, %out: f32):
      %4172 = arith.divf %in, %in_1454 : f32
      linalg.yield %4172 : f32
    } -> tensor<1x32x80x80xf32>
    %3983 = "tosa.const"() {value = dense<0.000000e+00> : tensor<1x32x80x80xf32>} : () -> tensor<1x32x80x80xf32>
    %3984 = "tosa.add"(%3982, %3983) : (tensor<1x32x80x80xf32>, tensor<1x32x80x80xf32>) -> tensor<1x32x80x80xf32>
    %3985 = "tosa.reshape"(%3984) {new_shape = array<i64: 32, 80, 80>} : (tensor<1x32x80x80xf32>) -> tensor<32x80x80xf32>
    %3986 = "tosa.const"() {value = dense<0.000000e+00> : tensor<1x32x80x128xf32>} : () -> tensor<1x32x80x128xf32>
    %3987 = "tosa.add"(%3932, %3986) : (tensor<1x32x80x128xf32>, tensor<1x32x80x128xf32>) -> tensor<1x32x80x128xf32>
    %3988 = "tosa.reshape"(%3987) {new_shape = array<i64: 32, 80, 128>} : (tensor<1x32x80x128xf32>) -> tensor<32x80x128xf32>
    %3989 = "tosa.matmul"(%3985, %3988) : (tensor<32x80x80xf32>, tensor<32x80x128xf32>) -> tensor<32x80x128xf32>
    %3990 = "tosa.reshape"(%3989) {new_shape = array<i64: 1, 32, 80, 128>} : (tensor<32x80x128xf32>) -> tensor<1x32x80x128xf32>
    %3991 = tensor.empty() : tensor<1x80x32x128xf32>
    %3992 = linalg.generic {indexing_maps = [#map9, #map4], iterator_types = ["parallel", "parallel", "parallel", "parallel"]} ins(%3990 : tensor<1x32x80x128xf32>) outs(%3991 : tensor<1x80x32x128xf32>) {
    ^bb0(%in: f32, %out: f32):
      linalg.yield %in : f32
    } -> tensor<1x80x32x128xf32>
    %3993 = "tosa.identity"(%3992) : (tensor<1x80x32x128xf32>) -> tensor<1x80x32x128xf32>
    %3994 = "tosa.reshape"(%3993) {new_shape = array<i64: 1, 80, 4096>} : (tensor<1x80x32x128xf32>) -> tensor<1x80x4096xf32>
    %3995 = tensor.empty() : tensor<4096x4096xf32>
    %3996 = linalg.generic {indexing_maps = [#map3, #map8], iterator_types = ["parallel", "parallel"]} ins(%expanded_492 : tensor<4096x4096xf32>) outs(%3995 : tensor<4096x4096xf32>) {
    ^bb0(%in: f32, %out: f32):
      linalg.yield %in : f32
    } -> tensor<4096x4096xf32>
    %3997 = "tosa.reshape"(%3994) {new_shape = array<i64: 80, 4096>} : (tensor<1x80x4096xf32>) -> tensor<80x4096xf32>
    %cst_1420 = arith.constant dense<0.000000e+00> : tensor<80x4096xf32>
    %3998 = linalg.matmul {cast = #linalg.type_fn<cast_signed>} ins(%3997, %3996 : tensor<80x4096xf32>, tensor<4096x4096xf32>) outs(%cst_1420 : tensor<80x4096xf32>) -> tensor<80x4096xf32>
    %3999 = "tosa.reshape"(%3998) {new_shape = array<i64: 1, 80, 4096>} : (tensor<80x4096xf32>) -> tensor<1x80x4096xf32>
    %4000 = "tosa.add"(%3899, %3999) : (tensor<1x80x4096xf32>, tensor<1x80x4096xf32>) -> tensor<1x80x4096xf32>
    %4001 = tensor.empty() : tensor<1x80x4096xf32>
    %c2_i32_1421 = arith.constant 2 : i32
    %4002 = linalg.generic {indexing_maps = [#map5, #map5], iterator_types = ["parallel", "parallel", "parallel"]} ins(%4000 : tensor<1x80x4096xf32>) outs(%4001 : tensor<1x80x4096xf32>) {
    ^bb0(%in: f32, %out: f32):
      %4172 = math.fpowi %in, %c2_i32_1421 : f32, i32
      linalg.yield %4172 : f32
    } -> tensor<1x80x4096xf32>
    %cst_1422 = arith.constant dense<0.000000e+00> : tensor<1x80x1xf32>
    %4003 = linalg.generic {indexing_maps = [#map6, #map7], iterator_types = ["parallel", "parallel", "reduction", "parallel"]} ins(%4002 : tensor<1x80x4096xf32>) outs(%cst_1422 : tensor<1x80x1xf32>) {
    ^bb0(%in: f32, %out: f32):
      %cst_1454 = arith.constant 4.096000e+03 : f32
      %4172 = arith.divf %in, %cst_1454 : f32
      %4173 = arith.addf %4172, %out : f32
      linalg.yield %4173 : f32
    } -> tensor<1x80x1xf32>
    %4004 = "tosa.const"() {value = dense<9.99999997E-7> : tensor<1x80x1xf32>} : () -> tensor<1x80x1xf32>
    %4005 = "tosa.add"(%4003, %4004) : (tensor<1x80x1xf32>, tensor<1x80x1xf32>) -> tensor<1x80x1xf32>
    %4006 = "tosa.rsqrt"(%4005) : (tensor<1x80x1xf32>) -> tensor<1x80x1xf32>
    %4007 = "tosa.mul"(%4000, %4006) {shift = 0 : i32} : (tensor<1x80x4096xf32>, tensor<1x80x1xf32>) -> tensor<1x80x4096xf32>
    %4008 = "tosa.reshape"(%extracted_slice_60) {new_shape = array<i64: 1, 1, 4096>} : (tensor<4096xf32>) -> tensor<1x1x4096xf32>
    %4009 = "tosa.mul"(%4008, %4007) {shift = 0 : i32} : (tensor<1x1x4096xf32>, tensor<1x80x4096xf32>) -> tensor<1x80x4096xf32>
    %4010 = tensor.empty() : tensor<4096x11008xf32>
    %4011 = linalg.generic {indexing_maps = [#map3, #map8], iterator_types = ["parallel", "parallel"]} ins(%expanded_494 : tensor<11008x4096xf32>) outs(%4010 : tensor<4096x11008xf32>) {
    ^bb0(%in: f32, %out: f32):
      linalg.yield %in : f32
    } -> tensor<4096x11008xf32>
    %4012 = "tosa.reshape"(%4009) {new_shape = array<i64: 80, 4096>} : (tensor<1x80x4096xf32>) -> tensor<80x4096xf32>
    %cst_1423 = arith.constant dense<0.000000e+00> : tensor<80x11008xf32>
    %4013 = linalg.matmul {cast = #linalg.type_fn<cast_signed>} ins(%4012, %4011 : tensor<80x4096xf32>, tensor<4096x11008xf32>) outs(%cst_1423 : tensor<80x11008xf32>) -> tensor<80x11008xf32>
    %4014 = "tosa.reshape"(%4013) {new_shape = array<i64: 1, 80, 11008>} : (tensor<80x11008xf32>) -> tensor<1x80x11008xf32>
    %4015 = tensor.empty() : tensor<1x80x11008xf32>
    %4016 = linalg.generic {indexing_maps = [#map5, #map5], iterator_types = ["parallel", "parallel", "parallel"]} ins(%4014 : tensor<1x80x11008xf32>) outs(%4015 : tensor<1x80x11008xf32>) {
    ^bb0(%in: f32, %out: f32):
      %4172 = arith.negf %in : f32
      %4173 = math.exp %4172 : f32
      %cst_1454 = arith.constant 1.000000e+00 : f32
      %4174 = arith.addf %cst_1454, %4173 : f32
      %4175 = arith.divf %in, %4174 : f32
      linalg.yield %4175 : f32
    } -> tensor<1x80x11008xf32>
    %4017 = tensor.empty() : tensor<4096x11008xf32>
    %4018 = linalg.generic {indexing_maps = [#map3, #map8], iterator_types = ["parallel", "parallel"]} ins(%expanded_496 : tensor<11008x4096xf32>) outs(%4017 : tensor<4096x11008xf32>) {
    ^bb0(%in: f32, %out: f32):
      linalg.yield %in : f32
    } -> tensor<4096x11008xf32>
    %4019 = "tosa.reshape"(%4009) {new_shape = array<i64: 80, 4096>} : (tensor<1x80x4096xf32>) -> tensor<80x4096xf32>
    %cst_1424 = arith.constant dense<0.000000e+00> : tensor<80x11008xf32>
    %4020 = linalg.matmul {cast = #linalg.type_fn<cast_signed>} ins(%4019, %4018 : tensor<80x4096xf32>, tensor<4096x11008xf32>) outs(%cst_1424 : tensor<80x11008xf32>) -> tensor<80x11008xf32>
    %4021 = "tosa.reshape"(%4020) {new_shape = array<i64: 1, 80, 11008>} : (tensor<80x11008xf32>) -> tensor<1x80x11008xf32>
    %4022 = "tosa.mul"(%4016, %4021) {shift = 0 : i32} : (tensor<1x80x11008xf32>, tensor<1x80x11008xf32>) -> tensor<1x80x11008xf32>
    %4023 = tensor.empty() : tensor<11008x4096xf32>
    %4024 = linalg.generic {indexing_maps = [#map3, #map8], iterator_types = ["parallel", "parallel"]} ins(%expanded_498 : tensor<4096x11008xf32>) outs(%4023 : tensor<11008x4096xf32>) {
    ^bb0(%in: f32, %out: f32):
      linalg.yield %in : f32
    } -> tensor<11008x4096xf32>
    %4025 = "tosa.reshape"(%4022) {new_shape = array<i64: 80, 11008>} : (tensor<1x80x11008xf32>) -> tensor<80x11008xf32>
    %cst_1425 = arith.constant dense<0.000000e+00> : tensor<80x4096xf32>
    %4026 = linalg.matmul {cast = #linalg.type_fn<cast_signed>} ins(%4025, %4024 : tensor<80x11008xf32>, tensor<11008x4096xf32>) outs(%cst_1425 : tensor<80x4096xf32>) -> tensor<80x4096xf32>
    %4027 = "tosa.reshape"(%4026) {new_shape = array<i64: 1, 80, 4096>} : (tensor<80x4096xf32>) -> tensor<1x80x4096xf32>
    %4028 = "tosa.add"(%4000, %4027) : (tensor<1x80x4096xf32>, tensor<1x80x4096xf32>) -> tensor<1x80x4096xf32>
    %4029 = tensor.empty() : tensor<1x80x4096xf32>
    %c2_i32_1426 = arith.constant 2 : i32
    %4030 = linalg.generic {indexing_maps = [#map5, #map5], iterator_types = ["parallel", "parallel", "parallel"]} ins(%4028 : tensor<1x80x4096xf32>) outs(%4029 : tensor<1x80x4096xf32>) {
    ^bb0(%in: f32, %out: f32):
      %4172 = math.fpowi %in, %c2_i32_1426 : f32, i32
      linalg.yield %4172 : f32
    } -> tensor<1x80x4096xf32>
    %cst_1427 = arith.constant dense<0.000000e+00> : tensor<1x80x1xf32>
    %4031 = linalg.generic {indexing_maps = [#map6, #map7], iterator_types = ["parallel", "parallel", "reduction", "parallel"]} ins(%4030 : tensor<1x80x4096xf32>) outs(%cst_1427 : tensor<1x80x1xf32>) {
    ^bb0(%in: f32, %out: f32):
      %cst_1454 = arith.constant 4.096000e+03 : f32
      %4172 = arith.divf %in, %cst_1454 : f32
      %4173 = arith.addf %4172, %out : f32
      linalg.yield %4173 : f32
    } -> tensor<1x80x1xf32>
    %4032 = "tosa.const"() {value = dense<9.99999997E-7> : tensor<1x80x1xf32>} : () -> tensor<1x80x1xf32>
    %4033 = "tosa.add"(%4031, %4032) : (tensor<1x80x1xf32>, tensor<1x80x1xf32>) -> tensor<1x80x1xf32>
    %4034 = "tosa.rsqrt"(%4033) : (tensor<1x80x1xf32>) -> tensor<1x80x1xf32>
    %4035 = "tosa.mul"(%4028, %4034) {shift = 0 : i32} : (tensor<1x80x4096xf32>, tensor<1x80x1xf32>) -> tensor<1x80x4096xf32>
    %4036 = "tosa.reshape"(%extracted_slice_61) {new_shape = array<i64: 1, 1, 4096>} : (tensor<4096xf32>) -> tensor<1x1x4096xf32>
    %4037 = "tosa.mul"(%4036, %4035) {shift = 0 : i32} : (tensor<1x1x4096xf32>, tensor<1x80x4096xf32>) -> tensor<1x80x4096xf32>
    %4038 = tensor.empty() : tensor<4096x4096xf32>
    %4039 = linalg.generic {indexing_maps = [#map3, #map8], iterator_types = ["parallel", "parallel"]} ins(%expanded_500 : tensor<4096x4096xf32>) outs(%4038 : tensor<4096x4096xf32>) {
    ^bb0(%in: f32, %out: f32):
      linalg.yield %in : f32
    } -> tensor<4096x4096xf32>
    %4040 = "tosa.reshape"(%4037) {new_shape = array<i64: 80, 4096>} : (tensor<1x80x4096xf32>) -> tensor<80x4096xf32>
    %cst_1428 = arith.constant dense<0.000000e+00> : tensor<80x4096xf32>
    %4041 = linalg.matmul {cast = #linalg.type_fn<cast_signed>} ins(%4040, %4039 : tensor<80x4096xf32>, tensor<4096x4096xf32>) outs(%cst_1428 : tensor<80x4096xf32>) -> tensor<80x4096xf32>
    %4042 = "tosa.reshape"(%4041) {new_shape = array<i64: 1, 80, 4096>} : (tensor<80x4096xf32>) -> tensor<1x80x4096xf32>
    %4043 = tensor.empty() : tensor<4096x4096xf32>
    %4044 = linalg.generic {indexing_maps = [#map3, #map8], iterator_types = ["parallel", "parallel"]} ins(%expanded_502 : tensor<4096x4096xf32>) outs(%4043 : tensor<4096x4096xf32>) {
    ^bb0(%in: f32, %out: f32):
      linalg.yield %in : f32
    } -> tensor<4096x4096xf32>
    %4045 = "tosa.reshape"(%4037) {new_shape = array<i64: 80, 4096>} : (tensor<1x80x4096xf32>) -> tensor<80x4096xf32>
    %cst_1429 = arith.constant dense<0.000000e+00> : tensor<80x4096xf32>
    %4046 = linalg.matmul {cast = #linalg.type_fn<cast_signed>} ins(%4045, %4044 : tensor<80x4096xf32>, tensor<4096x4096xf32>) outs(%cst_1429 : tensor<80x4096xf32>) -> tensor<80x4096xf32>
    %4047 = "tosa.reshape"(%4046) {new_shape = array<i64: 1, 80, 4096>} : (tensor<80x4096xf32>) -> tensor<1x80x4096xf32>
    %4048 = tensor.empty() : tensor<4096x4096xf32>
    %4049 = linalg.generic {indexing_maps = [#map3, #map8], iterator_types = ["parallel", "parallel"]} ins(%expanded_504 : tensor<4096x4096xf32>) outs(%4048 : tensor<4096x4096xf32>) {
    ^bb0(%in: f32, %out: f32):
      linalg.yield %in : f32
    } -> tensor<4096x4096xf32>
    %4050 = "tosa.reshape"(%4037) {new_shape = array<i64: 80, 4096>} : (tensor<1x80x4096xf32>) -> tensor<80x4096xf32>
    %cst_1430 = arith.constant dense<0.000000e+00> : tensor<80x4096xf32>
    %4051 = linalg.matmul {cast = #linalg.type_fn<cast_signed>} ins(%4050, %4049 : tensor<80x4096xf32>, tensor<4096x4096xf32>) outs(%cst_1430 : tensor<80x4096xf32>) -> tensor<80x4096xf32>
    %4052 = "tosa.reshape"(%4051) {new_shape = array<i64: 1, 80, 4096>} : (tensor<80x4096xf32>) -> tensor<1x80x4096xf32>
    %4053 = "tosa.reshape"(%4042) {new_shape = array<i64: 1, 80, 32, 128>} : (tensor<1x80x4096xf32>) -> tensor<1x80x32x128xf32>
    %4054 = tensor.empty() : tensor<1x32x80x128xf32>
    %4055 = linalg.generic {indexing_maps = [#map9, #map4], iterator_types = ["parallel", "parallel", "parallel", "parallel"]} ins(%4053 : tensor<1x80x32x128xf32>) outs(%4054 : tensor<1x32x80x128xf32>) {
    ^bb0(%in: f32, %out: f32):
      linalg.yield %in : f32
    } -> tensor<1x32x80x128xf32>
    %4056 = "tosa.reshape"(%4047) {new_shape = array<i64: 1, 80, 32, 128>} : (tensor<1x80x4096xf32>) -> tensor<1x80x32x128xf32>
    %4057 = tensor.empty() : tensor<1x32x80x128xf32>
    %4058 = linalg.generic {indexing_maps = [#map9, #map4], iterator_types = ["parallel", "parallel", "parallel", "parallel"]} ins(%4056 : tensor<1x80x32x128xf32>) outs(%4057 : tensor<1x32x80x128xf32>) {
    ^bb0(%in: f32, %out: f32):
      linalg.yield %in : f32
    } -> tensor<1x32x80x128xf32>
    %4059 = "tosa.reshape"(%4052) {new_shape = array<i64: 1, 80, 32, 128>} : (tensor<1x80x4096xf32>) -> tensor<1x80x32x128xf32>
    %4060 = tensor.empty() : tensor<1x32x80x128xf32>
    %4061 = linalg.generic {indexing_maps = [#map9, #map4], iterator_types = ["parallel", "parallel", "parallel", "parallel"]} ins(%4059 : tensor<1x80x32x128xf32>) outs(%4060 : tensor<1x32x80x128xf32>) {
    ^bb0(%in: f32, %out: f32):
      linalg.yield %in : f32
    } -> tensor<1x32x80x128xf32>
    %extracted_slice_1431 = tensor.extract_slice %expanded_640[0, 0, 0, 0] [1, 1, 2048, 128] [1, 1, 1, 1] : tensor<1x1x2048x128xf32> to tensor<1x1x2048x128xf32>
    %extracted_slice_1432 = tensor.extract_slice %extracted_slice_1431[0, 0, 0, 0] [1, 1, 2048, 128] [1, 1, 1, 1] : tensor<1x1x2048x128xf32> to tensor<1x1x2048x128xf32>
    %extracted_slice_1433 = tensor.extract_slice %extracted_slice_1432[0, 0, 0, 0] [1, 1, 80, 128] [1, 1, 1, 1] : tensor<1x1x2048x128xf32> to tensor<1x1x80x128xf32>
    %extracted_slice_1434 = tensor.extract_slice %expanded_642[0, 0, 0, 0] [1, 1, 2048, 128] [1, 1, 1, 1] : tensor<1x1x2048x128xf32> to tensor<1x1x2048x128xf32>
    %extracted_slice_1435 = tensor.extract_slice %extracted_slice_1434[0, 0, 0, 0] [1, 1, 2048, 128] [1, 1, 1, 1] : tensor<1x1x2048x128xf32> to tensor<1x1x2048x128xf32>
    %extracted_slice_1436 = tensor.extract_slice %extracted_slice_1435[0, 0, 0, 0] [1, 1, 80, 128] [1, 1, 1, 1] : tensor<1x1x2048x128xf32> to tensor<1x1x80x128xf32>
    %4062 = tensor.empty() : tensor<1x80x128xf32>
    %4063 = linalg.generic {indexing_maps = [#map10, #map5], iterator_types = ["parallel", "parallel", "parallel"]} ins(%extracted_slice_1433 : tensor<1x1x80x128xf32>) outs(%4062 : tensor<1x80x128xf32>) {
    ^bb0(%in: f32, %out: f32):
      linalg.yield %in : f32
    } -> tensor<1x80x128xf32>
    %4064 = tensor.empty() : tensor<80x128xf32>
    %4065 = linalg.generic {indexing_maps = [#map11, #map3], iterator_types = ["parallel", "parallel"]} ins(%4063 : tensor<1x80x128xf32>) outs(%4064 : tensor<80x128xf32>) {
    ^bb0(%in: f32, %out: f32):
      linalg.yield %in : f32
    } -> tensor<80x128xf32>
    %4066 = tensor.empty() : tensor<1x80x128xf32>
    %4067 = linalg.generic {indexing_maps = [#map10, #map5], iterator_types = ["parallel", "parallel", "parallel"]} ins(%extracted_slice_1436 : tensor<1x1x80x128xf32>) outs(%4066 : tensor<1x80x128xf32>) {
    ^bb0(%in: f32, %out: f32):
      linalg.yield %in : f32
    } -> tensor<1x80x128xf32>
    %4068 = tensor.empty() : tensor<80x128xf32>
    %4069 = linalg.generic {indexing_maps = [#map11, #map3], iterator_types = ["parallel", "parallel"]} ins(%4067 : tensor<1x80x128xf32>) outs(%4068 : tensor<80x128xf32>) {
    ^bb0(%in: f32, %out: f32):
      linalg.yield %in : f32
    } -> tensor<80x128xf32>
    %4070 = tensor.empty() : tensor<1x80x128xf32>
    %4071 = linalg.generic {indexing_maps = [#map2, #map5], iterator_types = ["parallel", "parallel", "parallel"]} ins(%1 : tensor<1x80xi64>) outs(%4070 : tensor<1x80x128xf32>) {
    ^bb0(%in: i64, %out: f32):
      %4172 = arith.index_cast %in : i64 to index
      %4173 = linalg.index 2 : index
      %extracted = tensor.extract %4065[%4172, %4173] : tensor<80x128xf32>
      linalg.yield %extracted : f32
    } -> tensor<1x80x128xf32>
    %4072 = "tosa.reshape"(%4071) {new_shape = array<i64: 1, 1, 80, 128>} : (tensor<1x80x128xf32>) -> tensor<1x1x80x128xf32>
    %4073 = tensor.empty() : tensor<1x80x128xf32>
    %4074 = linalg.generic {indexing_maps = [#map2, #map5], iterator_types = ["parallel", "parallel", "parallel"]} ins(%1 : tensor<1x80xi64>) outs(%4073 : tensor<1x80x128xf32>) {
    ^bb0(%in: i64, %out: f32):
      %4172 = arith.index_cast %in : i64 to index
      %4173 = linalg.index 2 : index
      %extracted = tensor.extract %4069[%4172, %4173] : tensor<80x128xf32>
      linalg.yield %extracted : f32
    } -> tensor<1x80x128xf32>
    %4075 = "tosa.reshape"(%4074) {new_shape = array<i64: 1, 1, 80, 128>} : (tensor<1x80x128xf32>) -> tensor<1x1x80x128xf32>
    %4076 = "tosa.mul"(%4055, %4072) {shift = 0 : i32} : (tensor<1x32x80x128xf32>, tensor<1x1x80x128xf32>) -> tensor<1x32x80x128xf32>
    %extracted_slice_1437 = tensor.extract_slice %4055[0, 0, 0, 0] [1, 32, 80, 64] [1, 1, 1, 1] : tensor<1x32x80x128xf32> to tensor<1x32x80x64xf32>
    %extracted_slice_1438 = tensor.extract_slice %4055[0, 0, 0, 64] [1, 32, 80, 64] [1, 1, 1, 1] : tensor<1x32x80x128xf32> to tensor<1x32x80x64xf32>
    %4077 = tensor.empty() : tensor<1x32x80x64xf32>
    %4078 = linalg.generic {indexing_maps = [#map4, #map4], iterator_types = ["parallel", "parallel", "parallel", "parallel"]} ins(%extracted_slice_1438 : tensor<1x32x80x64xf32>) outs(%4077 : tensor<1x32x80x64xf32>) {
    ^bb0(%in: f32, %out: f32):
      %4172 = arith.negf %in : f32
      linalg.yield %4172 : f32
    } -> tensor<1x32x80x64xf32>
    %4079 = tensor.empty() : tensor<1x32x80x128xf32>
    %inserted_slice_1439 = tensor.insert_slice %4078 into %4079[0, 0, 0, 0] [1, 32, 80, 64] [1, 1, 1, 1] : tensor<1x32x80x64xf32> into tensor<1x32x80x128xf32>
    %inserted_slice_1440 = tensor.insert_slice %extracted_slice_1437 into %inserted_slice_1439[0, 0, 0, 64] [1, 32, 80, 64] [1, 1, 1, 1] : tensor<1x32x80x64xf32> into tensor<1x32x80x128xf32>
    %4080 = "tosa.mul"(%inserted_slice_1440, %4075) {shift = 0 : i32} : (tensor<1x32x80x128xf32>, tensor<1x1x80x128xf32>) -> tensor<1x32x80x128xf32>
    %4081 = "tosa.add"(%4076, %4080) : (tensor<1x32x80x128xf32>, tensor<1x32x80x128xf32>) -> tensor<1x32x80x128xf32>
    %4082 = "tosa.mul"(%4058, %4072) {shift = 0 : i32} : (tensor<1x32x80x128xf32>, tensor<1x1x80x128xf32>) -> tensor<1x32x80x128xf32>
    %extracted_slice_1441 = tensor.extract_slice %4058[0, 0, 0, 0] [1, 32, 80, 64] [1, 1, 1, 1] : tensor<1x32x80x128xf32> to tensor<1x32x80x64xf32>
    %extracted_slice_1442 = tensor.extract_slice %4058[0, 0, 0, 64] [1, 32, 80, 64] [1, 1, 1, 1] : tensor<1x32x80x128xf32> to tensor<1x32x80x64xf32>
    %4083 = tensor.empty() : tensor<1x32x80x64xf32>
    %4084 = linalg.generic {indexing_maps = [#map4, #map4], iterator_types = ["parallel", "parallel", "parallel", "parallel"]} ins(%extracted_slice_1442 : tensor<1x32x80x64xf32>) outs(%4083 : tensor<1x32x80x64xf32>) {
    ^bb0(%in: f32, %out: f32):
      %4172 = arith.negf %in : f32
      linalg.yield %4172 : f32
    } -> tensor<1x32x80x64xf32>
    %4085 = tensor.empty() : tensor<1x32x80x128xf32>
    %inserted_slice_1443 = tensor.insert_slice %4084 into %4085[0, 0, 0, 0] [1, 32, 80, 64] [1, 1, 1, 1] : tensor<1x32x80x64xf32> into tensor<1x32x80x128xf32>
    %inserted_slice_1444 = tensor.insert_slice %extracted_slice_1441 into %inserted_slice_1443[0, 0, 0, 64] [1, 32, 80, 64] [1, 1, 1, 1] : tensor<1x32x80x64xf32> into tensor<1x32x80x128xf32>
    %4086 = "tosa.mul"(%inserted_slice_1444, %4075) {shift = 0 : i32} : (tensor<1x32x80x128xf32>, tensor<1x1x80x128xf32>) -> tensor<1x32x80x128xf32>
    %4087 = "tosa.add"(%4082, %4086) : (tensor<1x32x80x128xf32>, tensor<1x32x80x128xf32>) -> tensor<1x32x80x128xf32>
    %4088 = tensor.empty() : tensor<1x32x128x80xf32>
    %4089 = linalg.generic {indexing_maps = [#map12, #map4], iterator_types = ["parallel", "parallel", "parallel", "parallel"]} ins(%4087 : tensor<1x32x80x128xf32>) outs(%4088 : tensor<1x32x128x80xf32>) {
    ^bb0(%in: f32, %out: f32):
      linalg.yield %in : f32
    } -> tensor<1x32x128x80xf32>
    %4090 = "tosa.const"() {value = dense<0.000000e+00> : tensor<1x32x80x128xf32>} : () -> tensor<1x32x80x128xf32>
    %4091 = "tosa.add"(%4081, %4090) : (tensor<1x32x80x128xf32>, tensor<1x32x80x128xf32>) -> tensor<1x32x80x128xf32>
    %4092 = "tosa.reshape"(%4091) {new_shape = array<i64: 32, 80, 128>} : (tensor<1x32x80x128xf32>) -> tensor<32x80x128xf32>
    %4093 = "tosa.const"() {value = dense<0.000000e+00> : tensor<1x32x128x80xf32>} : () -> tensor<1x32x128x80xf32>
    %4094 = "tosa.add"(%4089, %4093) : (tensor<1x32x128x80xf32>, tensor<1x32x128x80xf32>) -> tensor<1x32x128x80xf32>
    %4095 = "tosa.reshape"(%4094) {new_shape = array<i64: 32, 128, 80>} : (tensor<1x32x128x80xf32>) -> tensor<32x128x80xf32>
    %4096 = "tosa.matmul"(%4092, %4095) : (tensor<32x80x128xf32>, tensor<32x128x80xf32>) -> tensor<32x80x80xf32>
    %4097 = "tosa.reshape"(%4096) {new_shape = array<i64: 1, 32, 80, 80>} : (tensor<32x80x80xf32>) -> tensor<1x32x80x80xf32>
    %4098 = "tosa.const"() {value = dense<11.3137083> : tensor<1x32x80x80xf32>} : () -> tensor<1x32x80x80xf32>
    %4099 = "tosa.reciprocal"(%4098) : (tensor<1x32x80x80xf32>) -> tensor<1x32x80x80xf32>
    %4100 = "tosa.mul"(%4097, %4099) {shift = 0 : i32} : (tensor<1x32x80x80xf32>, tensor<1x32x80x80xf32>) -> tensor<1x32x80x80xf32>
    %4101 = "tosa.add"(%4100, %29) : (tensor<1x32x80x80xf32>, tensor<1x1x80x80xf32>) -> tensor<1x32x80x80xf32>
    %4102 = tensor.empty() : tensor<1x32x80x1xf32>
    %4103 = linalg.generic {indexing_maps = [#map4], iterator_types = ["parallel", "parallel", "parallel", "parallel"]} outs(%4102 : tensor<1x32x80x1xf32>) {
    ^bb0(%out: f32):
      %cst_1454 = arith.constant 0xFF800000 : f32
      linalg.yield %cst_1454 : f32
    } -> tensor<1x32x80x1xf32>
    %4104 = linalg.generic {indexing_maps = [#map4, #map13], iterator_types = ["parallel", "parallel", "parallel", "reduction"]} ins(%4101 : tensor<1x32x80x80xf32>) outs(%4102 : tensor<1x32x80x1xf32>) {
    ^bb0(%in: f32, %out: f32):
      %4172 = arith.maxf %in, %out : f32
      linalg.yield %4172 : f32
    } -> tensor<1x32x80x1xf32>
    %4105 = tensor.empty() : tensor<1x32x80x80xf32>
    %4106 = linalg.generic {indexing_maps = [#map4, #map13, #map4], iterator_types = ["parallel", "parallel", "parallel", "parallel"]} ins(%4101, %4104 : tensor<1x32x80x80xf32>, tensor<1x32x80x1xf32>) outs(%4105 : tensor<1x32x80x80xf32>) {
    ^bb0(%in: f32, %in_1454: f32, %out: f32):
      %4172 = arith.subf %in, %in_1454 : f32
      %4173 = math.exp %4172 : f32
      linalg.yield %4173 : f32
    } -> tensor<1x32x80x80xf32>
    %4107 = tensor.empty() : tensor<1x32x80x1xf32>
    %4108 = linalg.generic {indexing_maps = [#map4], iterator_types = ["parallel", "parallel", "parallel", "parallel"]} outs(%4107 : tensor<1x32x80x1xf32>) {
    ^bb0(%out: f32):
      %cst_1454 = arith.constant 0.000000e+00 : f32
      linalg.yield %cst_1454 : f32
    } -> tensor<1x32x80x1xf32>
    %4109 = linalg.generic {indexing_maps = [#map4, #map13], iterator_types = ["parallel", "parallel", "parallel", "reduction"]} ins(%4106 : tensor<1x32x80x80xf32>) outs(%4108 : tensor<1x32x80x1xf32>) {
    ^bb0(%in: f32, %out: f32):
      %4172 = arith.addf %in, %out : f32
      linalg.yield %4172 : f32
    } -> tensor<1x32x80x1xf32>
    %4110 = tensor.empty() : tensor<1x32x80x80xf32>
    %4111 = linalg.generic {indexing_maps = [#map4, #map13, #map4], iterator_types = ["parallel", "parallel", "parallel", "parallel"]} ins(%4106, %4109 : tensor<1x32x80x80xf32>, tensor<1x32x80x1xf32>) outs(%4110 : tensor<1x32x80x80xf32>) {
    ^bb0(%in: f32, %in_1454: f32, %out: f32):
      %4172 = arith.divf %in, %in_1454 : f32
      linalg.yield %4172 : f32
    } -> tensor<1x32x80x80xf32>
    %4112 = "tosa.const"() {value = dense<0.000000e+00> : tensor<1x32x80x80xf32>} : () -> tensor<1x32x80x80xf32>
    %4113 = "tosa.add"(%4111, %4112) : (tensor<1x32x80x80xf32>, tensor<1x32x80x80xf32>) -> tensor<1x32x80x80xf32>
    %4114 = "tosa.reshape"(%4113) {new_shape = array<i64: 32, 80, 80>} : (tensor<1x32x80x80xf32>) -> tensor<32x80x80xf32>
    %4115 = "tosa.const"() {value = dense<0.000000e+00> : tensor<1x32x80x128xf32>} : () -> tensor<1x32x80x128xf32>
    %4116 = "tosa.add"(%4061, %4115) : (tensor<1x32x80x128xf32>, tensor<1x32x80x128xf32>) -> tensor<1x32x80x128xf32>
    %4117 = "tosa.reshape"(%4116) {new_shape = array<i64: 32, 80, 128>} : (tensor<1x32x80x128xf32>) -> tensor<32x80x128xf32>
    %4118 = "tosa.matmul"(%4114, %4117) : (tensor<32x80x80xf32>, tensor<32x80x128xf32>) -> tensor<32x80x128xf32>
    %4119 = "tosa.reshape"(%4118) {new_shape = array<i64: 1, 32, 80, 128>} : (tensor<32x80x128xf32>) -> tensor<1x32x80x128xf32>
    %4120 = tensor.empty() : tensor<1x80x32x128xf32>
    %4121 = linalg.generic {indexing_maps = [#map9, #map4], iterator_types = ["parallel", "parallel", "parallel", "parallel"]} ins(%4119 : tensor<1x32x80x128xf32>) outs(%4120 : tensor<1x80x32x128xf32>) {
    ^bb0(%in: f32, %out: f32):
      linalg.yield %in : f32
    } -> tensor<1x80x32x128xf32>
    %4122 = "tosa.identity"(%4121) : (tensor<1x80x32x128xf32>) -> tensor<1x80x32x128xf32>
    %4123 = "tosa.reshape"(%4122) {new_shape = array<i64: 1, 80, 4096>} : (tensor<1x80x32x128xf32>) -> tensor<1x80x4096xf32>
    %4124 = tensor.empty() : tensor<4096x4096xf32>
    %4125 = linalg.generic {indexing_maps = [#map3, #map8], iterator_types = ["parallel", "parallel"]} ins(%expanded_506 : tensor<4096x4096xf32>) outs(%4124 : tensor<4096x4096xf32>) {
    ^bb0(%in: f32, %out: f32):
      linalg.yield %in : f32
    } -> tensor<4096x4096xf32>
    %4126 = "tosa.reshape"(%4123) {new_shape = array<i64: 80, 4096>} : (tensor<1x80x4096xf32>) -> tensor<80x4096xf32>
    %cst_1445 = arith.constant dense<0.000000e+00> : tensor<80x4096xf32>
    %4127 = linalg.matmul {cast = #linalg.type_fn<cast_signed>} ins(%4126, %4125 : tensor<80x4096xf32>, tensor<4096x4096xf32>) outs(%cst_1445 : tensor<80x4096xf32>) -> tensor<80x4096xf32>
    %4128 = "tosa.reshape"(%4127) {new_shape = array<i64: 1, 80, 4096>} : (tensor<80x4096xf32>) -> tensor<1x80x4096xf32>
    %4129 = "tosa.add"(%4028, %4128) : (tensor<1x80x4096xf32>, tensor<1x80x4096xf32>) -> tensor<1x80x4096xf32>
    %4130 = tensor.empty() : tensor<1x80x4096xf32>
    %c2_i32_1446 = arith.constant 2 : i32
    %4131 = linalg.generic {indexing_maps = [#map5, #map5], iterator_types = ["parallel", "parallel", "parallel"]} ins(%4129 : tensor<1x80x4096xf32>) outs(%4130 : tensor<1x80x4096xf32>) {
    ^bb0(%in: f32, %out: f32):
      %4172 = math.fpowi %in, %c2_i32_1446 : f32, i32
      linalg.yield %4172 : f32
    } -> tensor<1x80x4096xf32>
    %cst_1447 = arith.constant dense<0.000000e+00> : tensor<1x80x1xf32>
    %4132 = linalg.generic {indexing_maps = [#map6, #map7], iterator_types = ["parallel", "parallel", "reduction", "parallel"]} ins(%4131 : tensor<1x80x4096xf32>) outs(%cst_1447 : tensor<1x80x1xf32>) {
    ^bb0(%in: f32, %out: f32):
      %cst_1454 = arith.constant 4.096000e+03 : f32
      %4172 = arith.divf %in, %cst_1454 : f32
      %4173 = arith.addf %4172, %out : f32
      linalg.yield %4173 : f32
    } -> tensor<1x80x1xf32>
    %4133 = "tosa.const"() {value = dense<9.99999997E-7> : tensor<1x80x1xf32>} : () -> tensor<1x80x1xf32>
    %4134 = "tosa.add"(%4132, %4133) : (tensor<1x80x1xf32>, tensor<1x80x1xf32>) -> tensor<1x80x1xf32>
    %4135 = "tosa.rsqrt"(%4134) : (tensor<1x80x1xf32>) -> tensor<1x80x1xf32>
    %4136 = "tosa.mul"(%4129, %4135) {shift = 0 : i32} : (tensor<1x80x4096xf32>, tensor<1x80x1xf32>) -> tensor<1x80x4096xf32>
    %4137 = "tosa.reshape"(%extracted_slice_62) {new_shape = array<i64: 1, 1, 4096>} : (tensor<4096xf32>) -> tensor<1x1x4096xf32>
    %4138 = "tosa.mul"(%4137, %4136) {shift = 0 : i32} : (tensor<1x1x4096xf32>, tensor<1x80x4096xf32>) -> tensor<1x80x4096xf32>
    %4139 = tensor.empty() : tensor<4096x11008xf32>
    %4140 = linalg.generic {indexing_maps = [#map3, #map8], iterator_types = ["parallel", "parallel"]} ins(%expanded_508 : tensor<11008x4096xf32>) outs(%4139 : tensor<4096x11008xf32>) {
    ^bb0(%in: f32, %out: f32):
      linalg.yield %in : f32
    } -> tensor<4096x11008xf32>
    %4141 = "tosa.reshape"(%4138) {new_shape = array<i64: 80, 4096>} : (tensor<1x80x4096xf32>) -> tensor<80x4096xf32>
    %cst_1448 = arith.constant dense<0.000000e+00> : tensor<80x11008xf32>
    %4142 = linalg.matmul {cast = #linalg.type_fn<cast_signed>} ins(%4141, %4140 : tensor<80x4096xf32>, tensor<4096x11008xf32>) outs(%cst_1448 : tensor<80x11008xf32>) -> tensor<80x11008xf32>
    %4143 = "tosa.reshape"(%4142) {new_shape = array<i64: 1, 80, 11008>} : (tensor<80x11008xf32>) -> tensor<1x80x11008xf32>
    %4144 = tensor.empty() : tensor<1x80x11008xf32>
    %4145 = linalg.generic {indexing_maps = [#map5, #map5], iterator_types = ["parallel", "parallel", "parallel"]} ins(%4143 : tensor<1x80x11008xf32>) outs(%4144 : tensor<1x80x11008xf32>) {
    ^bb0(%in: f32, %out: f32):
      %4172 = arith.negf %in : f32
      %4173 = math.exp %4172 : f32
      %cst_1454 = arith.constant 1.000000e+00 : f32
      %4174 = arith.addf %cst_1454, %4173 : f32
      %4175 = arith.divf %in, %4174 : f32
      linalg.yield %4175 : f32
    } -> tensor<1x80x11008xf32>
    %4146 = tensor.empty() : tensor<4096x11008xf32>
    %4147 = linalg.generic {indexing_maps = [#map3, #map8], iterator_types = ["parallel", "parallel"]} ins(%expanded_510 : tensor<11008x4096xf32>) outs(%4146 : tensor<4096x11008xf32>) {
    ^bb0(%in: f32, %out: f32):
      linalg.yield %in : f32
    } -> tensor<4096x11008xf32>
    %4148 = "tosa.reshape"(%4138) {new_shape = array<i64: 80, 4096>} : (tensor<1x80x4096xf32>) -> tensor<80x4096xf32>
    %cst_1449 = arith.constant dense<0.000000e+00> : tensor<80x11008xf32>
    %4149 = linalg.matmul {cast = #linalg.type_fn<cast_signed>} ins(%4148, %4147 : tensor<80x4096xf32>, tensor<4096x11008xf32>) outs(%cst_1449 : tensor<80x11008xf32>) -> tensor<80x11008xf32>
    %4150 = "tosa.reshape"(%4149) {new_shape = array<i64: 1, 80, 11008>} : (tensor<80x11008xf32>) -> tensor<1x80x11008xf32>
    %4151 = "tosa.mul"(%4145, %4150) {shift = 0 : i32} : (tensor<1x80x11008xf32>, tensor<1x80x11008xf32>) -> tensor<1x80x11008xf32>
    %4152 = tensor.empty() : tensor<11008x4096xf32>
    %4153 = linalg.generic {indexing_maps = [#map3, #map8], iterator_types = ["parallel", "parallel"]} ins(%expanded_512 : tensor<4096x11008xf32>) outs(%4152 : tensor<11008x4096xf32>) {
    ^bb0(%in: f32, %out: f32):
      linalg.yield %in : f32
    } -> tensor<11008x4096xf32>
    %4154 = "tosa.reshape"(%4151) {new_shape = array<i64: 80, 11008>} : (tensor<1x80x11008xf32>) -> tensor<80x11008xf32>
    %cst_1450 = arith.constant dense<0.000000e+00> : tensor<80x4096xf32>
    %4155 = linalg.matmul {cast = #linalg.type_fn<cast_signed>} ins(%4154, %4153 : tensor<80x11008xf32>, tensor<11008x4096xf32>) outs(%cst_1450 : tensor<80x4096xf32>) -> tensor<80x4096xf32>
    %4156 = "tosa.reshape"(%4155) {new_shape = array<i64: 1, 80, 4096>} : (tensor<80x4096xf32>) -> tensor<1x80x4096xf32>
    %4157 = "tosa.add"(%4129, %4156) : (tensor<1x80x4096xf32>, tensor<1x80x4096xf32>) -> tensor<1x80x4096xf32>
    %4158 = tensor.empty() : tensor<1x80x4096xf32>
    %c2_i32_1451 = arith.constant 2 : i32
    %4159 = linalg.generic {indexing_maps = [#map5, #map5], iterator_types = ["parallel", "parallel", "parallel"]} ins(%4157 : tensor<1x80x4096xf32>) outs(%4158 : tensor<1x80x4096xf32>) {
    ^bb0(%in: f32, %out: f32):
      %4172 = math.fpowi %in, %c2_i32_1451 : f32, i32
      linalg.yield %4172 : f32
    } -> tensor<1x80x4096xf32>
    %cst_1452 = arith.constant dense<0.000000e+00> : tensor<1x80x1xf32>
    %4160 = linalg.generic {indexing_maps = [#map6, #map7], iterator_types = ["parallel", "parallel", "reduction", "parallel"]} ins(%4159 : tensor<1x80x4096xf32>) outs(%cst_1452 : tensor<1x80x1xf32>) {
    ^bb0(%in: f32, %out: f32):
      %cst_1454 = arith.constant 4.096000e+03 : f32
      %4172 = arith.divf %in, %cst_1454 : f32
      %4173 = arith.addf %4172, %out : f32
      linalg.yield %4173 : f32
    } -> tensor<1x80x1xf32>
    %4161 = "tosa.const"() {value = dense<9.99999997E-7> : tensor<1x80x1xf32>} : () -> tensor<1x80x1xf32>
    %4162 = "tosa.add"(%4160, %4161) : (tensor<1x80x1xf32>, tensor<1x80x1xf32>) -> tensor<1x80x1xf32>
    %4163 = "tosa.rsqrt"(%4162) : (tensor<1x80x1xf32>) -> tensor<1x80x1xf32>
    %4164 = "tosa.mul"(%4157, %4163) {shift = 0 : i32} : (tensor<1x80x4096xf32>, tensor<1x80x1xf32>) -> tensor<1x80x4096xf32>
    %4165 = "tosa.reshape"(%extracted_slice_63) {new_shape = array<i64: 1, 1, 4096>} : (tensor<4096xf32>) -> tensor<1x1x4096xf32>
    %4166 = "tosa.mul"(%4165, %4164) {shift = 0 : i32} : (tensor<1x1x4096xf32>, tensor<1x80x4096xf32>) -> tensor<1x80x4096xf32>
    %4167 = tensor.empty() : tensor<4096x32000xf32>
    %4168 = linalg.generic {indexing_maps = [#map3, #map8], iterator_types = ["parallel", "parallel"]} ins(%expanded_514 : tensor<32000x4096xf32>) outs(%4167 : tensor<4096x32000xf32>) {
    ^bb0(%in: f32, %out: f32):
      linalg.yield %in : f32
    } -> tensor<4096x32000xf32>
    %4169 = "tosa.reshape"(%4166) {new_shape = array<i64: 80, 4096>} : (tensor<1x80x4096xf32>) -> tensor<80x4096xf32>
    %cst_1453 = arith.constant dense<0.000000e+00> : tensor<80x32000xf32>
    %4170 = linalg.matmul {cast = #linalg.type_fn<cast_signed>} ins(%4169, %4168 : tensor<80x4096xf32>, tensor<4096x32000xf32>) outs(%cst_1453 : tensor<80x32000xf32>) -> tensor<80x32000xf32>
    %4171 = "tosa.reshape"(%4170) {new_shape = array<i64: 1, 80, 32000>} : (tensor<80x32000xf32>) -> tensor<1x80x32000xf32>
    return %4171 : tensor<1x80x32000xf32>
  }
}
