GraphModule()



def forward(self, primals_1, primals_2, primals_3, primals_4, primals_5, primals_6, primals_7, primals_8, primals_9, primals_10, primals_11, primals_12, primals_13, primals_14, primals_15, primals_16, primals_17, primals_18, primals_19, primals_20, primals_21, primals_22, primals_23, primals_24, primals_25, primals_26, primals_27, primals_28, primals_29, primals_30, primals_31, primals_32, primals_33, primals_34, primals_35, primals_36, primals_37, primals_38, primals_39, primals_40, primals_41, primals_42, primals_43, primals_44, primals_45, primals_46, primals_47, primals_48, primals_49, primals_50, primals_51, primals_52, primals_53, primals_54, primals_55, primals_56, primals_57, primals_58, primals_59, primals_60, primals_61, primals_62, primals_63, primals_64, primals_65, primals_66, primals_67, primals_68, primals_69, primals_70, primals_71, primals_72, primals_73, primals_74, primals_75, primals_76, primals_77, primals_78, primals_79, primals_80, primals_81, primals_82, primals_83, primals_84, primals_85, primals_86, primals_87, primals_88, primals_89, primals_90, primals_91, primals_92, primals_93, primals_94, primals_95, primals_96, primals_97, primals_98, primals_99, primals_100, primals_101, primals_102, primals_103, primals_104, primals_105, primals_106, primals_107, primals_108, primals_109, primals_110, primals_111, primals_112, primals_113, primals_114, primals_115, primals_116, primals_117, primals_118, primals_119, primals_120, primals_121, primals_122, primals_123, primals_124, primals_125, primals_126, primals_127, primals_128, primals_129, primals_130, primals_131, primals_132, primals_133, primals_134, primals_135, primals_136, primals_137, primals_138, primals_139, primals_140, primals_141, primals_142, primals_143, primals_144, primals_145, primals_146, primals_147, primals_148, primals_149, primals_150, primals_151, primals_152, primals_153, primals_154, primals_155, primals_156, primals_157, primals_158, primals_159, primals_160, primals_161, primals_162, primals_163, primals_164, primals_165, primals_166, primals_167, primals_168, primals_169, primals_170, primals_171, primals_172, primals_173, primals_174, primals_175, primals_176, primals_177, primals_178, primals_179, primals_180, primals_181, primals_182, primals_183, primals_184, primals_185, primals_186, primals_187, primals_188, primals_189, primals_190, primals_191, primals_192, primals_193, primals_194, primals_195, primals_196, primals_197, primals_198, primals_199, primals_200, primals_201, primals_202, primals_203, primals_204, primals_205, primals_206, primals_207, primals_208, primals_209, primals_210, primals_211, primals_212, primals_213, primals_214, primals_215, primals_216, primals_217, primals_218, primals_219, primals_220, primals_221, primals_222, primals_223, primals_224, primals_225, primals_226, primals_227, primals_228, primals_229, primals_230, primals_231, primals_232, primals_233, primals_234, primals_235, primals_236, primals_237, primals_238, primals_239, primals_240, primals_241, primals_242, primals_243, primals_244, primals_245, primals_246, primals_247, primals_248, primals_249, primals_250, primals_251, primals_252, primals_253, primals_254, primals_255, primals_256, primals_257, primals_258, primals_259, primals_260, primals_261, primals_262, primals_263, primals_264, primals_265, primals_266, primals_267, primals_268, primals_269, primals_270, primals_271, primals_272, primals_273, primals_274, primals_275, primals_276, primals_277, primals_278, primals_279, primals_280, primals_281, primals_282, primals_283, primals_284, primals_285, primals_286, primals_287, primals_288, primals_289, primals_290, primals_291, primals_292, primals_293, primals_294, primals_295, primals_296, primals_297, primals_298, primals_299, primals_300, primals_301, primals_302, primals_303, primals_304, primals_305, primals_306, primals_307, primals_308, primals_309, primals_310, primals_311, primals_312, primals_313, primals_314, primals_315, primals_316, primals_317, primals_318, primals_319, primals_320, primals_321, primals_322, primals_323, primals_324, primals_325, primals_326, primals_327, primals_328, primals_329, primals_330, primals_331, primals_332, primals_333, primals_334, primals_335, primals_336, primals_337, primals_338, primals_339, primals_340, primals_341, primals_342, primals_343, primals_344, primals_345, primals_346, primals_347, primals_348, primals_349, primals_350, primals_351, primals_352, primals_353, primals_354, primals_355, primals_356):
    arange = torch.ops.aten.arange.start(0, 13, dtype = torch.int64, device = device(type='cpu'), pin_memory = False)
    unsqueeze = torch.ops.aten.unsqueeze.default(arange, 0);  arange = None
    view = torch.ops.aten.view.default(unsqueeze, [-1, 13]);  unsqueeze = None
    embedding = torch.ops.aten.embedding.default(primals_66, primals_356, 0);  primals_66 = None
    ones = torch.ops.aten.ones.default([1, 13], dtype = torch.bool, device = device(type='cpu'), pin_memory = False)
    full = torch.ops.aten.full.default([13, 13], -3.4028234663852886e+38, device = device(type='cpu'), pin_memory = False)
    arange_1 = torch.ops.aten.arange.default(13, device = device(type='cpu'), pin_memory = False)
    add = torch.ops.aten.add.Tensor(arange_1, 1)
    view_1 = torch.ops.aten.view.default(add, [13, 1]);  add = None
    lt = torch.ops.aten.lt.Tensor(arange_1, view_1);  arange_1 = view_1 = None
    masked_fill = torch.ops.aten.masked_fill.Scalar(full, lt, 0);  full = lt = None
    slice_3 = torch.ops.aten.slice.Tensor(ones, 0, 0, 9223372036854775807);  ones = None
    unsqueeze_3 = torch.ops.aten.unsqueeze.default(slice_3, 1);  slice_3 = None
    unsqueeze_4 = torch.ops.aten.unsqueeze.default(unsqueeze_3, 2);  unsqueeze_3 = None
    slice_4 = torch.ops.aten.slice.Tensor(unsqueeze_4, 3, 0, 9223372036854775807);  unsqueeze_4 = None
    expand_1 = torch.ops.aten.expand.default(slice_4, [1, 1, 13, 13]);  slice_4 = None
    _to_copy = torch.ops.aten._to_copy.default(expand_1, dtype = torch.float32);  expand_1 = None
    rsub = torch.ops.aten.rsub.Scalar(_to_copy, 1.0);  _to_copy = None
    _to_copy_1 = torch.ops.aten._to_copy.default(rsub, dtype = torch.bool)
    masked_fill_1 = torch.ops.aten.masked_fill.Scalar(rsub, _to_copy_1, -3.4028234663852886e+38);  rsub = _to_copy_1 = None
    unsqueeze_5 = torch.ops.aten.unsqueeze.default(masked_fill, 0);  masked_fill = None
    unsqueeze_6 = torch.ops.aten.unsqueeze.default(unsqueeze_5, 1);  unsqueeze_5 = None
    slice_5 = torch.ops.aten.slice.Tensor(unsqueeze_6, 2, 0, 9223372036854775807);  unsqueeze_6 = None
    slice_6 = torch.ops.aten.slice.Tensor(slice_5, 3, 0, 9223372036854775807);  slice_5 = None
    expand_2 = torch.ops.aten.expand.default(slice_6, [1, 1, 13, 13]);  slice_6 = None
    add_1 = torch.ops.aten.add.Tensor(masked_fill_1, expand_2);  masked_fill_1 = expand_2 = None
    pow_1 = torch.ops.aten.pow.Tensor_Scalar(embedding, 2)
    mean = torch.ops.aten.mean.dim(pow_1, [-1], True);  pow_1 = None
    add_2 = torch.ops.aten.add.Tensor(mean, 1e-06);  mean = None
    rsqrt = torch.ops.aten.rsqrt.default(add_2);  add_2 = None
    mul = torch.ops.aten.mul.Tensor(embedding, rsqrt)
    mul_1 = torch.ops.aten.mul.Tensor(primals_1, mul)
    t = torch.ops.aten.t.default(primals_67);  primals_67 = None
    view_2 = torch.ops.aten.view.default(mul_1, [13, 4096])
    mm = torch.ops.aten.mm.default(view_2, t)
    view_3 = torch.ops.aten.view.default(mm, [1, 13, 4096]);  mm = None
    t_1 = torch.ops.aten.t.default(primals_68);  primals_68 = None
    view_4 = torch.ops.aten.view.default(mul_1, [13, 4096])
    mm_1 = torch.ops.aten.mm.default(view_4, t_1)
    view_5 = torch.ops.aten.view.default(mm_1, [1, 13, 4096]);  mm_1 = None
    t_2 = torch.ops.aten.t.default(primals_69);  primals_69 = None
    view_6 = torch.ops.aten.view.default(mul_1, [13, 4096]);  mul_1 = None
    mm_2 = torch.ops.aten.mm.default(view_6, t_2)
    view_7 = torch.ops.aten.view.default(mm_2, [1, 13, 4096]);  mm_2 = None
    view_8 = torch.ops.aten.view.default(view_3, [1, 13, 32, 128]);  view_3 = None
    transpose = torch.ops.aten.transpose.int(view_8, 1, 2);  view_8 = None
    view_9 = torch.ops.aten.view.default(view_5, [1, 13, 32, 128]);  view_5 = None
    transpose_1 = torch.ops.aten.transpose.int(view_9, 1, 2);  view_9 = None
    view_10 = torch.ops.aten.view.default(view_7, [1, 13, 32, 128]);  view_7 = None
    transpose_2 = torch.ops.aten.transpose.int(view_10, 1, 2);  view_10 = None
    slice_7 = torch.ops.aten.slice.Tensor(primals_292, 0, 0, 9223372036854775807);  primals_292 = None
    slice_8 = torch.ops.aten.slice.Tensor(slice_7, 1, 0, 9223372036854775807);  slice_7 = None
    slice_9 = torch.ops.aten.slice.Tensor(slice_8, 2, 0, 13);  slice_8 = None
    slice_10 = torch.ops.aten.slice.Tensor(primals_293, 0, 0, 9223372036854775807);  primals_293 = None
    slice_11 = torch.ops.aten.slice.Tensor(slice_10, 1, 0, 9223372036854775807);  slice_10 = None
    slice_12 = torch.ops.aten.slice.Tensor(slice_11, 2, 0, 13);  slice_11 = None
    squeeze = torch.ops.aten.squeeze.dim(slice_9, 1);  slice_9 = None
    squeeze_1 = torch.ops.aten.squeeze.dim(squeeze, 0);  squeeze = None
    squeeze_2 = torch.ops.aten.squeeze.dim(slice_12, 1);  slice_12 = None
    squeeze_3 = torch.ops.aten.squeeze.dim(squeeze_2, 0);  squeeze_2 = None
    index = torch.ops.aten.index.Tensor(squeeze_1, [view]);  squeeze_1 = None
    unsqueeze_7 = torch.ops.aten.unsqueeze.default(index, 1);  index = None
    index_1 = torch.ops.aten.index.Tensor(squeeze_3, [view]);  squeeze_3 = None
    unsqueeze_8 = torch.ops.aten.unsqueeze.default(index_1, 1);  index_1 = None
    mul_2 = torch.ops.aten.mul.Tensor(transpose, unsqueeze_7)
    slice_13 = torch.ops.aten.slice.Tensor(transpose, 3, 0, 64)
    slice_14 = torch.ops.aten.slice.Tensor(transpose, 3, 64, 9223372036854775807);  transpose = None
    neg = torch.ops.aten.neg.default(slice_14);  slice_14 = None
    cat = torch.ops.aten.cat.default([neg, slice_13], -1);  neg = slice_13 = None
    mul_3 = torch.ops.aten.mul.Tensor(cat, unsqueeze_8);  cat = None
    add_3 = torch.ops.aten.add.Tensor(mul_2, mul_3);  mul_2 = mul_3 = None
    mul_4 = torch.ops.aten.mul.Tensor(transpose_1, unsqueeze_7)
    slice_15 = torch.ops.aten.slice.Tensor(transpose_1, 3, 0, 64)
    slice_16 = torch.ops.aten.slice.Tensor(transpose_1, 3, 64, 9223372036854775807);  transpose_1 = None
    neg_1 = torch.ops.aten.neg.default(slice_16);  slice_16 = None
    cat_1 = torch.ops.aten.cat.default([neg_1, slice_15], -1);  neg_1 = slice_15 = None
    mul_5 = torch.ops.aten.mul.Tensor(cat_1, unsqueeze_8);  cat_1 = None
    add_4 = torch.ops.aten.add.Tensor(mul_4, mul_5);  mul_4 = mul_5 = None
    transpose_3 = torch.ops.aten.transpose.int(add_4, 2, 3)
    expand_3 = torch.ops.aten.expand.default(add_3, [1, 32, 13, 128]);  add_3 = None
    view_11 = torch.ops.aten.view.default(expand_3, [32, 13, 128]);  expand_3 = None
    expand_4 = torch.ops.aten.expand.default(transpose_3, [1, 32, 128, 13]);  transpose_3 = None
    view_12 = torch.ops.aten.view.default(expand_4, [32, 128, 13]);  expand_4 = None
    bmm = torch.ops.aten.bmm.default(view_11, view_12)
    view_13 = torch.ops.aten.view.default(bmm, [1, 32, 13, 13]);  bmm = None
    div = torch.ops.aten.div.Tensor(view_13, 11.313708498984761);  view_13 = None
    add_5 = torch.ops.aten.add.Tensor(div, add_1);  div = None
    _softmax = torch.ops.aten._softmax.default(add_5, -1, False);  add_5 = None
    expand_5 = torch.ops.aten.expand.default(_softmax, [1, 32, 13, 13])
    view_14 = torch.ops.aten.view.default(expand_5, [32, 13, 13]);  expand_5 = None
    expand_6 = torch.ops.aten.expand.default(transpose_2, [1, 32, 13, 128])
    view_15 = torch.ops.aten.view.default(expand_6, [32, 13, 128]);  expand_6 = None
    bmm_1 = torch.ops.aten.bmm.default(view_14, view_15)
    view_16 = torch.ops.aten.view.default(bmm_1, [1, 32, 13, 128]);  bmm_1 = None
    transpose_4 = torch.ops.aten.transpose.int(view_16, 1, 2);  view_16 = None
    clone = torch.ops.aten.clone.default(transpose_4, memory_format = torch.contiguous_format);  transpose_4 = None
    view_17 = torch.ops.aten.view.default(clone, [1, 13, 4096]);  clone = None
    t_3 = torch.ops.aten.t.default(primals_70);  primals_70 = None
    view_18 = torch.ops.aten.view.default(view_17, [13, 4096]);  view_17 = None
    mm_3 = torch.ops.aten.mm.default(view_18, t_3)
    view_19 = torch.ops.aten.view.default(mm_3, [1, 13, 4096]);  mm_3 = None
    add_6 = torch.ops.aten.add.Tensor(embedding, view_19);  view_19 = None
    pow_2 = torch.ops.aten.pow.Tensor_Scalar(add_6, 2)
    mean_1 = torch.ops.aten.mean.dim(pow_2, [-1], True);  pow_2 = None
    add_7 = torch.ops.aten.add.Tensor(mean_1, 1e-06);  mean_1 = None
    rsqrt_1 = torch.ops.aten.rsqrt.default(add_7);  add_7 = None
    mul_6 = torch.ops.aten.mul.Tensor(add_6, rsqrt_1)
    mul_7 = torch.ops.aten.mul.Tensor(primals_2, mul_6)
    t_4 = torch.ops.aten.t.default(primals_71);  primals_71 = None
    view_20 = torch.ops.aten.view.default(mul_7, [13, 4096])
    mm_4 = torch.ops.aten.mm.default(view_20, t_4)
    view_21 = torch.ops.aten.view.default(mm_4, [1, 13, 11008]);  mm_4 = None
    silu = torch.ops.aten.silu.default(view_21)
    t_5 = torch.ops.aten.t.default(primals_72);  primals_72 = None
    view_22 = torch.ops.aten.view.default(mul_7, [13, 4096]);  mul_7 = None
    mm_5 = torch.ops.aten.mm.default(view_22, t_5)
    view_23 = torch.ops.aten.view.default(mm_5, [1, 13, 11008]);  mm_5 = None
    mul_8 = torch.ops.aten.mul.Tensor(silu, view_23)
    t_6 = torch.ops.aten.t.default(primals_73);  primals_73 = None
    view_24 = torch.ops.aten.view.default(mul_8, [13, 11008]);  mul_8 = None
    mm_6 = torch.ops.aten.mm.default(view_24, t_6)
    view_25 = torch.ops.aten.view.default(mm_6, [1, 13, 4096]);  mm_6 = None
    add_8 = torch.ops.aten.add.Tensor(add_6, view_25);  view_25 = None
    pow_3 = torch.ops.aten.pow.Tensor_Scalar(add_8, 2)
    mean_2 = torch.ops.aten.mean.dim(pow_3, [-1], True);  pow_3 = None
    add_9 = torch.ops.aten.add.Tensor(mean_2, 1e-06);  mean_2 = None
    rsqrt_2 = torch.ops.aten.rsqrt.default(add_9);  add_9 = None
    mul_9 = torch.ops.aten.mul.Tensor(add_8, rsqrt_2)
    mul_10 = torch.ops.aten.mul.Tensor(primals_3, mul_9)
    t_7 = torch.ops.aten.t.default(primals_74);  primals_74 = None
    view_26 = torch.ops.aten.view.default(mul_10, [13, 4096])
    mm_7 = torch.ops.aten.mm.default(view_26, t_7)
    view_27 = torch.ops.aten.view.default(mm_7, [1, 13, 4096]);  mm_7 = None
    t_8 = torch.ops.aten.t.default(primals_75);  primals_75 = None
    view_28 = torch.ops.aten.view.default(mul_10, [13, 4096])
    mm_8 = torch.ops.aten.mm.default(view_28, t_8)
    view_29 = torch.ops.aten.view.default(mm_8, [1, 13, 4096]);  mm_8 = None
    t_9 = torch.ops.aten.t.default(primals_76);  primals_76 = None
    view_30 = torch.ops.aten.view.default(mul_10, [13, 4096]);  mul_10 = None
    mm_9 = torch.ops.aten.mm.default(view_30, t_9)
    view_31 = torch.ops.aten.view.default(mm_9, [1, 13, 4096]);  mm_9 = None
    view_32 = torch.ops.aten.view.default(view_27, [1, 13, 32, 128]);  view_27 = None
    transpose_5 = torch.ops.aten.transpose.int(view_32, 1, 2);  view_32 = None
    view_33 = torch.ops.aten.view.default(view_29, [1, 13, 32, 128]);  view_29 = None
    transpose_6 = torch.ops.aten.transpose.int(view_33, 1, 2);  view_33 = None
    view_34 = torch.ops.aten.view.default(view_31, [1, 13, 32, 128]);  view_31 = None
    transpose_7 = torch.ops.aten.transpose.int(view_34, 1, 2);  view_34 = None
    slice_17 = torch.ops.aten.slice.Tensor(primals_294, 0, 0, 9223372036854775807);  primals_294 = None
    slice_18 = torch.ops.aten.slice.Tensor(slice_17, 1, 0, 9223372036854775807);  slice_17 = None
    slice_19 = torch.ops.aten.slice.Tensor(slice_18, 2, 0, 13);  slice_18 = None
    slice_20 = torch.ops.aten.slice.Tensor(primals_295, 0, 0, 9223372036854775807);  primals_295 = None
    slice_21 = torch.ops.aten.slice.Tensor(slice_20, 1, 0, 9223372036854775807);  slice_20 = None
    slice_22 = torch.ops.aten.slice.Tensor(slice_21, 2, 0, 13);  slice_21 = None
    squeeze_4 = torch.ops.aten.squeeze.dim(slice_19, 1);  slice_19 = None
    squeeze_5 = torch.ops.aten.squeeze.dim(squeeze_4, 0);  squeeze_4 = None
    squeeze_6 = torch.ops.aten.squeeze.dim(slice_22, 1);  slice_22 = None
    squeeze_7 = torch.ops.aten.squeeze.dim(squeeze_6, 0);  squeeze_6 = None
    index_2 = torch.ops.aten.index.Tensor(squeeze_5, [view]);  squeeze_5 = None
    unsqueeze_9 = torch.ops.aten.unsqueeze.default(index_2, 1);  index_2 = None
    index_3 = torch.ops.aten.index.Tensor(squeeze_7, [view]);  squeeze_7 = None
    unsqueeze_10 = torch.ops.aten.unsqueeze.default(index_3, 1);  index_3 = None
    mul_11 = torch.ops.aten.mul.Tensor(transpose_5, unsqueeze_9)
    slice_23 = torch.ops.aten.slice.Tensor(transpose_5, 3, 0, 64)
    slice_24 = torch.ops.aten.slice.Tensor(transpose_5, 3, 64, 9223372036854775807);  transpose_5 = None
    neg_2 = torch.ops.aten.neg.default(slice_24);  slice_24 = None
    cat_2 = torch.ops.aten.cat.default([neg_2, slice_23], -1);  neg_2 = slice_23 = None
    mul_12 = torch.ops.aten.mul.Tensor(cat_2, unsqueeze_10);  cat_2 = None
    add_10 = torch.ops.aten.add.Tensor(mul_11, mul_12);  mul_11 = mul_12 = None
    mul_13 = torch.ops.aten.mul.Tensor(transpose_6, unsqueeze_9)
    slice_25 = torch.ops.aten.slice.Tensor(transpose_6, 3, 0, 64)
    slice_26 = torch.ops.aten.slice.Tensor(transpose_6, 3, 64, 9223372036854775807);  transpose_6 = None
    neg_3 = torch.ops.aten.neg.default(slice_26);  slice_26 = None
    cat_3 = torch.ops.aten.cat.default([neg_3, slice_25], -1);  neg_3 = slice_25 = None
    mul_14 = torch.ops.aten.mul.Tensor(cat_3, unsqueeze_10);  cat_3 = None
    add_11 = torch.ops.aten.add.Tensor(mul_13, mul_14);  mul_13 = mul_14 = None
    transpose_8 = torch.ops.aten.transpose.int(add_11, 2, 3)
    expand_7 = torch.ops.aten.expand.default(add_10, [1, 32, 13, 128]);  add_10 = None
    view_35 = torch.ops.aten.view.default(expand_7, [32, 13, 128]);  expand_7 = None
    expand_8 = torch.ops.aten.expand.default(transpose_8, [1, 32, 128, 13]);  transpose_8 = None
    view_36 = torch.ops.aten.view.default(expand_8, [32, 128, 13]);  expand_8 = None
    bmm_2 = torch.ops.aten.bmm.default(view_35, view_36)
    view_37 = torch.ops.aten.view.default(bmm_2, [1, 32, 13, 13]);  bmm_2 = None
    div_1 = torch.ops.aten.div.Tensor(view_37, 11.313708498984761);  view_37 = None
    add_12 = torch.ops.aten.add.Tensor(div_1, add_1);  div_1 = None
    _softmax_1 = torch.ops.aten._softmax.default(add_12, -1, False);  add_12 = None
    expand_9 = torch.ops.aten.expand.default(_softmax_1, [1, 32, 13, 13])
    view_38 = torch.ops.aten.view.default(expand_9, [32, 13, 13]);  expand_9 = None
    expand_10 = torch.ops.aten.expand.default(transpose_7, [1, 32, 13, 128])
    view_39 = torch.ops.aten.view.default(expand_10, [32, 13, 128]);  expand_10 = None
    bmm_3 = torch.ops.aten.bmm.default(view_38, view_39)
    view_40 = torch.ops.aten.view.default(bmm_3, [1, 32, 13, 128]);  bmm_3 = None
    transpose_9 = torch.ops.aten.transpose.int(view_40, 1, 2);  view_40 = None
    clone_1 = torch.ops.aten.clone.default(transpose_9, memory_format = torch.contiguous_format);  transpose_9 = None
    view_41 = torch.ops.aten.view.default(clone_1, [1, 13, 4096]);  clone_1 = None
    t_10 = torch.ops.aten.t.default(primals_77);  primals_77 = None
    view_42 = torch.ops.aten.view.default(view_41, [13, 4096]);  view_41 = None
    mm_10 = torch.ops.aten.mm.default(view_42, t_10)
    view_43 = torch.ops.aten.view.default(mm_10, [1, 13, 4096]);  mm_10 = None
    add_13 = torch.ops.aten.add.Tensor(add_8, view_43);  view_43 = None
    pow_4 = torch.ops.aten.pow.Tensor_Scalar(add_13, 2)
    mean_3 = torch.ops.aten.mean.dim(pow_4, [-1], True);  pow_4 = None
    add_14 = torch.ops.aten.add.Tensor(mean_3, 1e-06);  mean_3 = None
    rsqrt_3 = torch.ops.aten.rsqrt.default(add_14);  add_14 = None
    mul_15 = torch.ops.aten.mul.Tensor(add_13, rsqrt_3)
    mul_16 = torch.ops.aten.mul.Tensor(primals_4, mul_15)
    t_11 = torch.ops.aten.t.default(primals_78);  primals_78 = None
    view_44 = torch.ops.aten.view.default(mul_16, [13, 4096])
    mm_11 = torch.ops.aten.mm.default(view_44, t_11)
    view_45 = torch.ops.aten.view.default(mm_11, [1, 13, 11008]);  mm_11 = None
    silu_1 = torch.ops.aten.silu.default(view_45)
    t_12 = torch.ops.aten.t.default(primals_79);  primals_79 = None
    view_46 = torch.ops.aten.view.default(mul_16, [13, 4096]);  mul_16 = None
    mm_12 = torch.ops.aten.mm.default(view_46, t_12)
    view_47 = torch.ops.aten.view.default(mm_12, [1, 13, 11008]);  mm_12 = None
    mul_17 = torch.ops.aten.mul.Tensor(silu_1, view_47)
    t_13 = torch.ops.aten.t.default(primals_80);  primals_80 = None
    view_48 = torch.ops.aten.view.default(mul_17, [13, 11008]);  mul_17 = None
    mm_13 = torch.ops.aten.mm.default(view_48, t_13)
    view_49 = torch.ops.aten.view.default(mm_13, [1, 13, 4096]);  mm_13 = None
    add_15 = torch.ops.aten.add.Tensor(add_13, view_49);  view_49 = None
    pow_5 = torch.ops.aten.pow.Tensor_Scalar(add_15, 2)
    mean_4 = torch.ops.aten.mean.dim(pow_5, [-1], True);  pow_5 = None
    add_16 = torch.ops.aten.add.Tensor(mean_4, 1e-06);  mean_4 = None
    rsqrt_4 = torch.ops.aten.rsqrt.default(add_16);  add_16 = None
    mul_18 = torch.ops.aten.mul.Tensor(add_15, rsqrt_4)
    mul_19 = torch.ops.aten.mul.Tensor(primals_5, mul_18)
    t_14 = torch.ops.aten.t.default(primals_81);  primals_81 = None
    view_50 = torch.ops.aten.view.default(mul_19, [13, 4096])
    mm_14 = torch.ops.aten.mm.default(view_50, t_14)
    view_51 = torch.ops.aten.view.default(mm_14, [1, 13, 4096]);  mm_14 = None
    t_15 = torch.ops.aten.t.default(primals_82);  primals_82 = None
    view_52 = torch.ops.aten.view.default(mul_19, [13, 4096])
    mm_15 = torch.ops.aten.mm.default(view_52, t_15)
    view_53 = torch.ops.aten.view.default(mm_15, [1, 13, 4096]);  mm_15 = None
    t_16 = torch.ops.aten.t.default(primals_83);  primals_83 = None
    view_54 = torch.ops.aten.view.default(mul_19, [13, 4096]);  mul_19 = None
    mm_16 = torch.ops.aten.mm.default(view_54, t_16)
    view_55 = torch.ops.aten.view.default(mm_16, [1, 13, 4096]);  mm_16 = None
    view_56 = torch.ops.aten.view.default(view_51, [1, 13, 32, 128]);  view_51 = None
    transpose_10 = torch.ops.aten.transpose.int(view_56, 1, 2);  view_56 = None
    view_57 = torch.ops.aten.view.default(view_53, [1, 13, 32, 128]);  view_53 = None
    transpose_11 = torch.ops.aten.transpose.int(view_57, 1, 2);  view_57 = None
    view_58 = torch.ops.aten.view.default(view_55, [1, 13, 32, 128]);  view_55 = None
    transpose_12 = torch.ops.aten.transpose.int(view_58, 1, 2);  view_58 = None
    slice_27 = torch.ops.aten.slice.Tensor(primals_296, 0, 0, 9223372036854775807);  primals_296 = None
    slice_28 = torch.ops.aten.slice.Tensor(slice_27, 1, 0, 9223372036854775807);  slice_27 = None
    slice_29 = torch.ops.aten.slice.Tensor(slice_28, 2, 0, 13);  slice_28 = None
    slice_30 = torch.ops.aten.slice.Tensor(primals_297, 0, 0, 9223372036854775807);  primals_297 = None
    slice_31 = torch.ops.aten.slice.Tensor(slice_30, 1, 0, 9223372036854775807);  slice_30 = None
    slice_32 = torch.ops.aten.slice.Tensor(slice_31, 2, 0, 13);  slice_31 = None
    squeeze_8 = torch.ops.aten.squeeze.dim(slice_29, 1);  slice_29 = None
    squeeze_9 = torch.ops.aten.squeeze.dim(squeeze_8, 0);  squeeze_8 = None
    squeeze_10 = torch.ops.aten.squeeze.dim(slice_32, 1);  slice_32 = None
    squeeze_11 = torch.ops.aten.squeeze.dim(squeeze_10, 0);  squeeze_10 = None
    index_4 = torch.ops.aten.index.Tensor(squeeze_9, [view]);  squeeze_9 = None
    unsqueeze_11 = torch.ops.aten.unsqueeze.default(index_4, 1);  index_4 = None
    index_5 = torch.ops.aten.index.Tensor(squeeze_11, [view]);  squeeze_11 = None
    unsqueeze_12 = torch.ops.aten.unsqueeze.default(index_5, 1);  index_5 = None
    mul_20 = torch.ops.aten.mul.Tensor(transpose_10, unsqueeze_11)
    slice_33 = torch.ops.aten.slice.Tensor(transpose_10, 3, 0, 64)
    slice_34 = torch.ops.aten.slice.Tensor(transpose_10, 3, 64, 9223372036854775807);  transpose_10 = None
    neg_4 = torch.ops.aten.neg.default(slice_34);  slice_34 = None
    cat_4 = torch.ops.aten.cat.default([neg_4, slice_33], -1);  neg_4 = slice_33 = None
    mul_21 = torch.ops.aten.mul.Tensor(cat_4, unsqueeze_12);  cat_4 = None
    add_17 = torch.ops.aten.add.Tensor(mul_20, mul_21);  mul_20 = mul_21 = None
    mul_22 = torch.ops.aten.mul.Tensor(transpose_11, unsqueeze_11)
    slice_35 = torch.ops.aten.slice.Tensor(transpose_11, 3, 0, 64)
    slice_36 = torch.ops.aten.slice.Tensor(transpose_11, 3, 64, 9223372036854775807);  transpose_11 = None
    neg_5 = torch.ops.aten.neg.default(slice_36);  slice_36 = None
    cat_5 = torch.ops.aten.cat.default([neg_5, slice_35], -1);  neg_5 = slice_35 = None
    mul_23 = torch.ops.aten.mul.Tensor(cat_5, unsqueeze_12);  cat_5 = None
    add_18 = torch.ops.aten.add.Tensor(mul_22, mul_23);  mul_22 = mul_23 = None
    transpose_13 = torch.ops.aten.transpose.int(add_18, 2, 3)
    expand_11 = torch.ops.aten.expand.default(add_17, [1, 32, 13, 128]);  add_17 = None
    view_59 = torch.ops.aten.view.default(expand_11, [32, 13, 128]);  expand_11 = None
    expand_12 = torch.ops.aten.expand.default(transpose_13, [1, 32, 128, 13]);  transpose_13 = None
    view_60 = torch.ops.aten.view.default(expand_12, [32, 128, 13]);  expand_12 = None
    bmm_4 = torch.ops.aten.bmm.default(view_59, view_60)
    view_61 = torch.ops.aten.view.default(bmm_4, [1, 32, 13, 13]);  bmm_4 = None
    div_2 = torch.ops.aten.div.Tensor(view_61, 11.313708498984761);  view_61 = None
    add_19 = torch.ops.aten.add.Tensor(div_2, add_1);  div_2 = None
    _softmax_2 = torch.ops.aten._softmax.default(add_19, -1, False);  add_19 = None
    expand_13 = torch.ops.aten.expand.default(_softmax_2, [1, 32, 13, 13])
    view_62 = torch.ops.aten.view.default(expand_13, [32, 13, 13]);  expand_13 = None
    expand_14 = torch.ops.aten.expand.default(transpose_12, [1, 32, 13, 128])
    view_63 = torch.ops.aten.view.default(expand_14, [32, 13, 128]);  expand_14 = None
    bmm_5 = torch.ops.aten.bmm.default(view_62, view_63)
    view_64 = torch.ops.aten.view.default(bmm_5, [1, 32, 13, 128]);  bmm_5 = None
    transpose_14 = torch.ops.aten.transpose.int(view_64, 1, 2);  view_64 = None
    clone_2 = torch.ops.aten.clone.default(transpose_14, memory_format = torch.contiguous_format);  transpose_14 = None
    view_65 = torch.ops.aten.view.default(clone_2, [1, 13, 4096]);  clone_2 = None
    t_17 = torch.ops.aten.t.default(primals_84);  primals_84 = None
    view_66 = torch.ops.aten.view.default(view_65, [13, 4096]);  view_65 = None
    mm_17 = torch.ops.aten.mm.default(view_66, t_17)
    view_67 = torch.ops.aten.view.default(mm_17, [1, 13, 4096]);  mm_17 = None
    add_20 = torch.ops.aten.add.Tensor(add_15, view_67);  view_67 = None
    pow_6 = torch.ops.aten.pow.Tensor_Scalar(add_20, 2)
    mean_5 = torch.ops.aten.mean.dim(pow_6, [-1], True);  pow_6 = None
    add_21 = torch.ops.aten.add.Tensor(mean_5, 1e-06);  mean_5 = None
    rsqrt_5 = torch.ops.aten.rsqrt.default(add_21);  add_21 = None
    mul_24 = torch.ops.aten.mul.Tensor(add_20, rsqrt_5)
    mul_25 = torch.ops.aten.mul.Tensor(primals_6, mul_24)
    t_18 = torch.ops.aten.t.default(primals_85);  primals_85 = None
    view_68 = torch.ops.aten.view.default(mul_25, [13, 4096])
    mm_18 = torch.ops.aten.mm.default(view_68, t_18)
    view_69 = torch.ops.aten.view.default(mm_18, [1, 13, 11008]);  mm_18 = None
    silu_2 = torch.ops.aten.silu.default(view_69)
    t_19 = torch.ops.aten.t.default(primals_86);  primals_86 = None
    view_70 = torch.ops.aten.view.default(mul_25, [13, 4096]);  mul_25 = None
    mm_19 = torch.ops.aten.mm.default(view_70, t_19)
    view_71 = torch.ops.aten.view.default(mm_19, [1, 13, 11008]);  mm_19 = None
    mul_26 = torch.ops.aten.mul.Tensor(silu_2, view_71)
    t_20 = torch.ops.aten.t.default(primals_87);  primals_87 = None
    view_72 = torch.ops.aten.view.default(mul_26, [13, 11008]);  mul_26 = None
    mm_20 = torch.ops.aten.mm.default(view_72, t_20)
    view_73 = torch.ops.aten.view.default(mm_20, [1, 13, 4096]);  mm_20 = None
    add_22 = torch.ops.aten.add.Tensor(add_20, view_73);  view_73 = None
    pow_7 = torch.ops.aten.pow.Tensor_Scalar(add_22, 2)
    mean_6 = torch.ops.aten.mean.dim(pow_7, [-1], True);  pow_7 = None
    add_23 = torch.ops.aten.add.Tensor(mean_6, 1e-06);  mean_6 = None
    rsqrt_6 = torch.ops.aten.rsqrt.default(add_23);  add_23 = None
    mul_27 = torch.ops.aten.mul.Tensor(add_22, rsqrt_6)
    mul_28 = torch.ops.aten.mul.Tensor(primals_7, mul_27)
    t_21 = torch.ops.aten.t.default(primals_88);  primals_88 = None
    view_74 = torch.ops.aten.view.default(mul_28, [13, 4096])
    mm_21 = torch.ops.aten.mm.default(view_74, t_21)
    view_75 = torch.ops.aten.view.default(mm_21, [1, 13, 4096]);  mm_21 = None
    t_22 = torch.ops.aten.t.default(primals_89);  primals_89 = None
    view_76 = torch.ops.aten.view.default(mul_28, [13, 4096])
    mm_22 = torch.ops.aten.mm.default(view_76, t_22)
    view_77 = torch.ops.aten.view.default(mm_22, [1, 13, 4096]);  mm_22 = None
    t_23 = torch.ops.aten.t.default(primals_90);  primals_90 = None
    view_78 = torch.ops.aten.view.default(mul_28, [13, 4096]);  mul_28 = None
    mm_23 = torch.ops.aten.mm.default(view_78, t_23)
    view_79 = torch.ops.aten.view.default(mm_23, [1, 13, 4096]);  mm_23 = None
    view_80 = torch.ops.aten.view.default(view_75, [1, 13, 32, 128]);  view_75 = None
    transpose_15 = torch.ops.aten.transpose.int(view_80, 1, 2);  view_80 = None
    view_81 = torch.ops.aten.view.default(view_77, [1, 13, 32, 128]);  view_77 = None
    transpose_16 = torch.ops.aten.transpose.int(view_81, 1, 2);  view_81 = None
    view_82 = torch.ops.aten.view.default(view_79, [1, 13, 32, 128]);  view_79 = None
    transpose_17 = torch.ops.aten.transpose.int(view_82, 1, 2);  view_82 = None
    slice_37 = torch.ops.aten.slice.Tensor(primals_298, 0, 0, 9223372036854775807);  primals_298 = None
    slice_38 = torch.ops.aten.slice.Tensor(slice_37, 1, 0, 9223372036854775807);  slice_37 = None
    slice_39 = torch.ops.aten.slice.Tensor(slice_38, 2, 0, 13);  slice_38 = None
    slice_40 = torch.ops.aten.slice.Tensor(primals_299, 0, 0, 9223372036854775807);  primals_299 = None
    slice_41 = torch.ops.aten.slice.Tensor(slice_40, 1, 0, 9223372036854775807);  slice_40 = None
    slice_42 = torch.ops.aten.slice.Tensor(slice_41, 2, 0, 13);  slice_41 = None
    squeeze_12 = torch.ops.aten.squeeze.dim(slice_39, 1);  slice_39 = None
    squeeze_13 = torch.ops.aten.squeeze.dim(squeeze_12, 0);  squeeze_12 = None
    squeeze_14 = torch.ops.aten.squeeze.dim(slice_42, 1);  slice_42 = None
    squeeze_15 = torch.ops.aten.squeeze.dim(squeeze_14, 0);  squeeze_14 = None
    index_6 = torch.ops.aten.index.Tensor(squeeze_13, [view]);  squeeze_13 = None
    unsqueeze_13 = torch.ops.aten.unsqueeze.default(index_6, 1);  index_6 = None
    index_7 = torch.ops.aten.index.Tensor(squeeze_15, [view]);  squeeze_15 = None
    unsqueeze_14 = torch.ops.aten.unsqueeze.default(index_7, 1);  index_7 = None
    mul_29 = torch.ops.aten.mul.Tensor(transpose_15, unsqueeze_13)
    slice_43 = torch.ops.aten.slice.Tensor(transpose_15, 3, 0, 64)
    slice_44 = torch.ops.aten.slice.Tensor(transpose_15, 3, 64, 9223372036854775807);  transpose_15 = None
    neg_6 = torch.ops.aten.neg.default(slice_44);  slice_44 = None
    cat_6 = torch.ops.aten.cat.default([neg_6, slice_43], -1);  neg_6 = slice_43 = None
    mul_30 = torch.ops.aten.mul.Tensor(cat_6, unsqueeze_14);  cat_6 = None
    add_24 = torch.ops.aten.add.Tensor(mul_29, mul_30);  mul_29 = mul_30 = None
    mul_31 = torch.ops.aten.mul.Tensor(transpose_16, unsqueeze_13)
    slice_45 = torch.ops.aten.slice.Tensor(transpose_16, 3, 0, 64)
    slice_46 = torch.ops.aten.slice.Tensor(transpose_16, 3, 64, 9223372036854775807);  transpose_16 = None
    neg_7 = torch.ops.aten.neg.default(slice_46);  slice_46 = None
    cat_7 = torch.ops.aten.cat.default([neg_7, slice_45], -1);  neg_7 = slice_45 = None
    mul_32 = torch.ops.aten.mul.Tensor(cat_7, unsqueeze_14);  cat_7 = None
    add_25 = torch.ops.aten.add.Tensor(mul_31, mul_32);  mul_31 = mul_32 = None
    transpose_18 = torch.ops.aten.transpose.int(add_25, 2, 3)
    expand_15 = torch.ops.aten.expand.default(add_24, [1, 32, 13, 128]);  add_24 = None
    view_83 = torch.ops.aten.view.default(expand_15, [32, 13, 128]);  expand_15 = None
    expand_16 = torch.ops.aten.expand.default(transpose_18, [1, 32, 128, 13]);  transpose_18 = None
    view_84 = torch.ops.aten.view.default(expand_16, [32, 128, 13]);  expand_16 = None
    bmm_6 = torch.ops.aten.bmm.default(view_83, view_84)
    view_85 = torch.ops.aten.view.default(bmm_6, [1, 32, 13, 13]);  bmm_6 = None
    div_3 = torch.ops.aten.div.Tensor(view_85, 11.313708498984761);  view_85 = None
    add_26 = torch.ops.aten.add.Tensor(div_3, add_1);  div_3 = None
    _softmax_3 = torch.ops.aten._softmax.default(add_26, -1, False);  add_26 = None
    expand_17 = torch.ops.aten.expand.default(_softmax_3, [1, 32, 13, 13])
    view_86 = torch.ops.aten.view.default(expand_17, [32, 13, 13]);  expand_17 = None
    expand_18 = torch.ops.aten.expand.default(transpose_17, [1, 32, 13, 128])
    view_87 = torch.ops.aten.view.default(expand_18, [32, 13, 128]);  expand_18 = None
    bmm_7 = torch.ops.aten.bmm.default(view_86, view_87)
    view_88 = torch.ops.aten.view.default(bmm_7, [1, 32, 13, 128]);  bmm_7 = None
    transpose_19 = torch.ops.aten.transpose.int(view_88, 1, 2);  view_88 = None
    clone_3 = torch.ops.aten.clone.default(transpose_19, memory_format = torch.contiguous_format);  transpose_19 = None
    view_89 = torch.ops.aten.view.default(clone_3, [1, 13, 4096]);  clone_3 = None
    t_24 = torch.ops.aten.t.default(primals_91);  primals_91 = None
    view_90 = torch.ops.aten.view.default(view_89, [13, 4096]);  view_89 = None
    mm_24 = torch.ops.aten.mm.default(view_90, t_24)
    view_91 = torch.ops.aten.view.default(mm_24, [1, 13, 4096]);  mm_24 = None
    add_27 = torch.ops.aten.add.Tensor(add_22, view_91);  view_91 = None
    pow_8 = torch.ops.aten.pow.Tensor_Scalar(add_27, 2)
    mean_7 = torch.ops.aten.mean.dim(pow_8, [-1], True);  pow_8 = None
    add_28 = torch.ops.aten.add.Tensor(mean_7, 1e-06);  mean_7 = None
    rsqrt_7 = torch.ops.aten.rsqrt.default(add_28);  add_28 = None
    mul_33 = torch.ops.aten.mul.Tensor(add_27, rsqrt_7)
    mul_34 = torch.ops.aten.mul.Tensor(primals_8, mul_33)
    t_25 = torch.ops.aten.t.default(primals_92);  primals_92 = None
    view_92 = torch.ops.aten.view.default(mul_34, [13, 4096])
    mm_25 = torch.ops.aten.mm.default(view_92, t_25)
    view_93 = torch.ops.aten.view.default(mm_25, [1, 13, 11008]);  mm_25 = None
    silu_3 = torch.ops.aten.silu.default(view_93)
    t_26 = torch.ops.aten.t.default(primals_93);  primals_93 = None
    view_94 = torch.ops.aten.view.default(mul_34, [13, 4096]);  mul_34 = None
    mm_26 = torch.ops.aten.mm.default(view_94, t_26)
    view_95 = torch.ops.aten.view.default(mm_26, [1, 13, 11008]);  mm_26 = None
    mul_35 = torch.ops.aten.mul.Tensor(silu_3, view_95)
    t_27 = torch.ops.aten.t.default(primals_94);  primals_94 = None
    view_96 = torch.ops.aten.view.default(mul_35, [13, 11008]);  mul_35 = None
    mm_27 = torch.ops.aten.mm.default(view_96, t_27)
    view_97 = torch.ops.aten.view.default(mm_27, [1, 13, 4096]);  mm_27 = None
    add_29 = torch.ops.aten.add.Tensor(add_27, view_97);  view_97 = None
    pow_9 = torch.ops.aten.pow.Tensor_Scalar(add_29, 2)
    mean_8 = torch.ops.aten.mean.dim(pow_9, [-1], True);  pow_9 = None
    add_30 = torch.ops.aten.add.Tensor(mean_8, 1e-06);  mean_8 = None
    rsqrt_8 = torch.ops.aten.rsqrt.default(add_30);  add_30 = None
    mul_36 = torch.ops.aten.mul.Tensor(add_29, rsqrt_8)
    mul_37 = torch.ops.aten.mul.Tensor(primals_9, mul_36)
    t_28 = torch.ops.aten.t.default(primals_95);  primals_95 = None
    view_98 = torch.ops.aten.view.default(mul_37, [13, 4096])
    mm_28 = torch.ops.aten.mm.default(view_98, t_28)
    view_99 = torch.ops.aten.view.default(mm_28, [1, 13, 4096]);  mm_28 = None
    t_29 = torch.ops.aten.t.default(primals_96);  primals_96 = None
    view_100 = torch.ops.aten.view.default(mul_37, [13, 4096])
    mm_29 = torch.ops.aten.mm.default(view_100, t_29)
    view_101 = torch.ops.aten.view.default(mm_29, [1, 13, 4096]);  mm_29 = None
    t_30 = torch.ops.aten.t.default(primals_97);  primals_97 = None
    view_102 = torch.ops.aten.view.default(mul_37, [13, 4096]);  mul_37 = None
    mm_30 = torch.ops.aten.mm.default(view_102, t_30)
    view_103 = torch.ops.aten.view.default(mm_30, [1, 13, 4096]);  mm_30 = None
    view_104 = torch.ops.aten.view.default(view_99, [1, 13, 32, 128]);  view_99 = None
    transpose_20 = torch.ops.aten.transpose.int(view_104, 1, 2);  view_104 = None
    view_105 = torch.ops.aten.view.default(view_101, [1, 13, 32, 128]);  view_101 = None
    transpose_21 = torch.ops.aten.transpose.int(view_105, 1, 2);  view_105 = None
    view_106 = torch.ops.aten.view.default(view_103, [1, 13, 32, 128]);  view_103 = None
    transpose_22 = torch.ops.aten.transpose.int(view_106, 1, 2);  view_106 = None
    slice_47 = torch.ops.aten.slice.Tensor(primals_300, 0, 0, 9223372036854775807);  primals_300 = None
    slice_48 = torch.ops.aten.slice.Tensor(slice_47, 1, 0, 9223372036854775807);  slice_47 = None
    slice_49 = torch.ops.aten.slice.Tensor(slice_48, 2, 0, 13);  slice_48 = None
    slice_50 = torch.ops.aten.slice.Tensor(primals_301, 0, 0, 9223372036854775807);  primals_301 = None
    slice_51 = torch.ops.aten.slice.Tensor(slice_50, 1, 0, 9223372036854775807);  slice_50 = None
    slice_52 = torch.ops.aten.slice.Tensor(slice_51, 2, 0, 13);  slice_51 = None
    squeeze_16 = torch.ops.aten.squeeze.dim(slice_49, 1);  slice_49 = None
    squeeze_17 = torch.ops.aten.squeeze.dim(squeeze_16, 0);  squeeze_16 = None
    squeeze_18 = torch.ops.aten.squeeze.dim(slice_52, 1);  slice_52 = None
    squeeze_19 = torch.ops.aten.squeeze.dim(squeeze_18, 0);  squeeze_18 = None
    index_8 = torch.ops.aten.index.Tensor(squeeze_17, [view]);  squeeze_17 = None
    unsqueeze_15 = torch.ops.aten.unsqueeze.default(index_8, 1);  index_8 = None
    index_9 = torch.ops.aten.index.Tensor(squeeze_19, [view]);  squeeze_19 = None
    unsqueeze_16 = torch.ops.aten.unsqueeze.default(index_9, 1);  index_9 = None
    mul_38 = torch.ops.aten.mul.Tensor(transpose_20, unsqueeze_15)
    slice_53 = torch.ops.aten.slice.Tensor(transpose_20, 3, 0, 64)
    slice_54 = torch.ops.aten.slice.Tensor(transpose_20, 3, 64, 9223372036854775807);  transpose_20 = None
    neg_8 = torch.ops.aten.neg.default(slice_54);  slice_54 = None
    cat_8 = torch.ops.aten.cat.default([neg_8, slice_53], -1);  neg_8 = slice_53 = None
    mul_39 = torch.ops.aten.mul.Tensor(cat_8, unsqueeze_16);  cat_8 = None
    add_31 = torch.ops.aten.add.Tensor(mul_38, mul_39);  mul_38 = mul_39 = None
    mul_40 = torch.ops.aten.mul.Tensor(transpose_21, unsqueeze_15)
    slice_55 = torch.ops.aten.slice.Tensor(transpose_21, 3, 0, 64)
    slice_56 = torch.ops.aten.slice.Tensor(transpose_21, 3, 64, 9223372036854775807);  transpose_21 = None
    neg_9 = torch.ops.aten.neg.default(slice_56);  slice_56 = None
    cat_9 = torch.ops.aten.cat.default([neg_9, slice_55], -1);  neg_9 = slice_55 = None
    mul_41 = torch.ops.aten.mul.Tensor(cat_9, unsqueeze_16);  cat_9 = None
    add_32 = torch.ops.aten.add.Tensor(mul_40, mul_41);  mul_40 = mul_41 = None
    transpose_23 = torch.ops.aten.transpose.int(add_32, 2, 3)
    expand_19 = torch.ops.aten.expand.default(add_31, [1, 32, 13, 128]);  add_31 = None
    view_107 = torch.ops.aten.view.default(expand_19, [32, 13, 128]);  expand_19 = None
    expand_20 = torch.ops.aten.expand.default(transpose_23, [1, 32, 128, 13]);  transpose_23 = None
    view_108 = torch.ops.aten.view.default(expand_20, [32, 128, 13]);  expand_20 = None
    bmm_8 = torch.ops.aten.bmm.default(view_107, view_108)
    view_109 = torch.ops.aten.view.default(bmm_8, [1, 32, 13, 13]);  bmm_8 = None
    div_4 = torch.ops.aten.div.Tensor(view_109, 11.313708498984761);  view_109 = None
    add_33 = torch.ops.aten.add.Tensor(div_4, add_1);  div_4 = None
    _softmax_4 = torch.ops.aten._softmax.default(add_33, -1, False);  add_33 = None
    expand_21 = torch.ops.aten.expand.default(_softmax_4, [1, 32, 13, 13])
    view_110 = torch.ops.aten.view.default(expand_21, [32, 13, 13]);  expand_21 = None
    expand_22 = torch.ops.aten.expand.default(transpose_22, [1, 32, 13, 128])
    view_111 = torch.ops.aten.view.default(expand_22, [32, 13, 128]);  expand_22 = None
    bmm_9 = torch.ops.aten.bmm.default(view_110, view_111)
    view_112 = torch.ops.aten.view.default(bmm_9, [1, 32, 13, 128]);  bmm_9 = None
    transpose_24 = torch.ops.aten.transpose.int(view_112, 1, 2);  view_112 = None
    clone_4 = torch.ops.aten.clone.default(transpose_24, memory_format = torch.contiguous_format);  transpose_24 = None
    view_113 = torch.ops.aten.view.default(clone_4, [1, 13, 4096]);  clone_4 = None
    t_31 = torch.ops.aten.t.default(primals_98);  primals_98 = None
    view_114 = torch.ops.aten.view.default(view_113, [13, 4096]);  view_113 = None
    mm_31 = torch.ops.aten.mm.default(view_114, t_31)
    view_115 = torch.ops.aten.view.default(mm_31, [1, 13, 4096]);  mm_31 = None
    add_34 = torch.ops.aten.add.Tensor(add_29, view_115);  view_115 = None
    pow_10 = torch.ops.aten.pow.Tensor_Scalar(add_34, 2)
    mean_9 = torch.ops.aten.mean.dim(pow_10, [-1], True);  pow_10 = None
    add_35 = torch.ops.aten.add.Tensor(mean_9, 1e-06);  mean_9 = None
    rsqrt_9 = torch.ops.aten.rsqrt.default(add_35);  add_35 = None
    mul_42 = torch.ops.aten.mul.Tensor(add_34, rsqrt_9)
    mul_43 = torch.ops.aten.mul.Tensor(primals_10, mul_42)
    t_32 = torch.ops.aten.t.default(primals_99);  primals_99 = None
    view_116 = torch.ops.aten.view.default(mul_43, [13, 4096])
    mm_32 = torch.ops.aten.mm.default(view_116, t_32)
    view_117 = torch.ops.aten.view.default(mm_32, [1, 13, 11008]);  mm_32 = None
    silu_4 = torch.ops.aten.silu.default(view_117)
    t_33 = torch.ops.aten.t.default(primals_100);  primals_100 = None
    view_118 = torch.ops.aten.view.default(mul_43, [13, 4096]);  mul_43 = None
    mm_33 = torch.ops.aten.mm.default(view_118, t_33)
    view_119 = torch.ops.aten.view.default(mm_33, [1, 13, 11008]);  mm_33 = None
    mul_44 = torch.ops.aten.mul.Tensor(silu_4, view_119)
    t_34 = torch.ops.aten.t.default(primals_101);  primals_101 = None
    view_120 = torch.ops.aten.view.default(mul_44, [13, 11008]);  mul_44 = None
    mm_34 = torch.ops.aten.mm.default(view_120, t_34)
    view_121 = torch.ops.aten.view.default(mm_34, [1, 13, 4096]);  mm_34 = None
    add_36 = torch.ops.aten.add.Tensor(add_34, view_121);  view_121 = None
    pow_11 = torch.ops.aten.pow.Tensor_Scalar(add_36, 2)
    mean_10 = torch.ops.aten.mean.dim(pow_11, [-1], True);  pow_11 = None
    add_37 = torch.ops.aten.add.Tensor(mean_10, 1e-06);  mean_10 = None
    rsqrt_10 = torch.ops.aten.rsqrt.default(add_37);  add_37 = None
    mul_45 = torch.ops.aten.mul.Tensor(add_36, rsqrt_10)
    mul_46 = torch.ops.aten.mul.Tensor(primals_11, mul_45)
    t_35 = torch.ops.aten.t.default(primals_102);  primals_102 = None
    view_122 = torch.ops.aten.view.default(mul_46, [13, 4096])
    mm_35 = torch.ops.aten.mm.default(view_122, t_35)
    view_123 = torch.ops.aten.view.default(mm_35, [1, 13, 4096]);  mm_35 = None
    t_36 = torch.ops.aten.t.default(primals_103);  primals_103 = None
    view_124 = torch.ops.aten.view.default(mul_46, [13, 4096])
    mm_36 = torch.ops.aten.mm.default(view_124, t_36)
    view_125 = torch.ops.aten.view.default(mm_36, [1, 13, 4096]);  mm_36 = None
    t_37 = torch.ops.aten.t.default(primals_104);  primals_104 = None
    view_126 = torch.ops.aten.view.default(mul_46, [13, 4096]);  mul_46 = None
    mm_37 = torch.ops.aten.mm.default(view_126, t_37)
    view_127 = torch.ops.aten.view.default(mm_37, [1, 13, 4096]);  mm_37 = None
    view_128 = torch.ops.aten.view.default(view_123, [1, 13, 32, 128]);  view_123 = None
    transpose_25 = torch.ops.aten.transpose.int(view_128, 1, 2);  view_128 = None
    view_129 = torch.ops.aten.view.default(view_125, [1, 13, 32, 128]);  view_125 = None
    transpose_26 = torch.ops.aten.transpose.int(view_129, 1, 2);  view_129 = None
    view_130 = torch.ops.aten.view.default(view_127, [1, 13, 32, 128]);  view_127 = None
    transpose_27 = torch.ops.aten.transpose.int(view_130, 1, 2);  view_130 = None
    slice_57 = torch.ops.aten.slice.Tensor(primals_302, 0, 0, 9223372036854775807);  primals_302 = None
    slice_58 = torch.ops.aten.slice.Tensor(slice_57, 1, 0, 9223372036854775807);  slice_57 = None
    slice_59 = torch.ops.aten.slice.Tensor(slice_58, 2, 0, 13);  slice_58 = None
    slice_60 = torch.ops.aten.slice.Tensor(primals_303, 0, 0, 9223372036854775807);  primals_303 = None
    slice_61 = torch.ops.aten.slice.Tensor(slice_60, 1, 0, 9223372036854775807);  slice_60 = None
    slice_62 = torch.ops.aten.slice.Tensor(slice_61, 2, 0, 13);  slice_61 = None
    squeeze_20 = torch.ops.aten.squeeze.dim(slice_59, 1);  slice_59 = None
    squeeze_21 = torch.ops.aten.squeeze.dim(squeeze_20, 0);  squeeze_20 = None
    squeeze_22 = torch.ops.aten.squeeze.dim(slice_62, 1);  slice_62 = None
    squeeze_23 = torch.ops.aten.squeeze.dim(squeeze_22, 0);  squeeze_22 = None
    index_10 = torch.ops.aten.index.Tensor(squeeze_21, [view]);  squeeze_21 = None
    unsqueeze_17 = torch.ops.aten.unsqueeze.default(index_10, 1);  index_10 = None
    index_11 = torch.ops.aten.index.Tensor(squeeze_23, [view]);  squeeze_23 = None
    unsqueeze_18 = torch.ops.aten.unsqueeze.default(index_11, 1);  index_11 = None
    mul_47 = torch.ops.aten.mul.Tensor(transpose_25, unsqueeze_17)
    slice_63 = torch.ops.aten.slice.Tensor(transpose_25, 3, 0, 64)
    slice_64 = torch.ops.aten.slice.Tensor(transpose_25, 3, 64, 9223372036854775807);  transpose_25 = None
    neg_10 = torch.ops.aten.neg.default(slice_64);  slice_64 = None
    cat_10 = torch.ops.aten.cat.default([neg_10, slice_63], -1);  neg_10 = slice_63 = None
    mul_48 = torch.ops.aten.mul.Tensor(cat_10, unsqueeze_18);  cat_10 = None
    add_38 = torch.ops.aten.add.Tensor(mul_47, mul_48);  mul_47 = mul_48 = None
    mul_49 = torch.ops.aten.mul.Tensor(transpose_26, unsqueeze_17)
    slice_65 = torch.ops.aten.slice.Tensor(transpose_26, 3, 0, 64)
    slice_66 = torch.ops.aten.slice.Tensor(transpose_26, 3, 64, 9223372036854775807);  transpose_26 = None
    neg_11 = torch.ops.aten.neg.default(slice_66);  slice_66 = None
    cat_11 = torch.ops.aten.cat.default([neg_11, slice_65], -1);  neg_11 = slice_65 = None
    mul_50 = torch.ops.aten.mul.Tensor(cat_11, unsqueeze_18);  cat_11 = None
    add_39 = torch.ops.aten.add.Tensor(mul_49, mul_50);  mul_49 = mul_50 = None
    transpose_28 = torch.ops.aten.transpose.int(add_39, 2, 3)
    expand_23 = torch.ops.aten.expand.default(add_38, [1, 32, 13, 128]);  add_38 = None
    view_131 = torch.ops.aten.view.default(expand_23, [32, 13, 128]);  expand_23 = None
    expand_24 = torch.ops.aten.expand.default(transpose_28, [1, 32, 128, 13]);  transpose_28 = None
    view_132 = torch.ops.aten.view.default(expand_24, [32, 128, 13]);  expand_24 = None
    bmm_10 = torch.ops.aten.bmm.default(view_131, view_132)
    view_133 = torch.ops.aten.view.default(bmm_10, [1, 32, 13, 13]);  bmm_10 = None
    div_5 = torch.ops.aten.div.Tensor(view_133, 11.313708498984761);  view_133 = None
    add_40 = torch.ops.aten.add.Tensor(div_5, add_1);  div_5 = None
    _softmax_5 = torch.ops.aten._softmax.default(add_40, -1, False);  add_40 = None
    expand_25 = torch.ops.aten.expand.default(_softmax_5, [1, 32, 13, 13])
    view_134 = torch.ops.aten.view.default(expand_25, [32, 13, 13]);  expand_25 = None
    expand_26 = torch.ops.aten.expand.default(transpose_27, [1, 32, 13, 128])
    view_135 = torch.ops.aten.view.default(expand_26, [32, 13, 128]);  expand_26 = None
    bmm_11 = torch.ops.aten.bmm.default(view_134, view_135)
    view_136 = torch.ops.aten.view.default(bmm_11, [1, 32, 13, 128]);  bmm_11 = None
    transpose_29 = torch.ops.aten.transpose.int(view_136, 1, 2);  view_136 = None
    clone_5 = torch.ops.aten.clone.default(transpose_29, memory_format = torch.contiguous_format);  transpose_29 = None
    view_137 = torch.ops.aten.view.default(clone_5, [1, 13, 4096]);  clone_5 = None
    t_38 = torch.ops.aten.t.default(primals_105);  primals_105 = None
    view_138 = torch.ops.aten.view.default(view_137, [13, 4096]);  view_137 = None
    mm_38 = torch.ops.aten.mm.default(view_138, t_38)
    view_139 = torch.ops.aten.view.default(mm_38, [1, 13, 4096]);  mm_38 = None
    add_41 = torch.ops.aten.add.Tensor(add_36, view_139);  view_139 = None
    pow_12 = torch.ops.aten.pow.Tensor_Scalar(add_41, 2)
    mean_11 = torch.ops.aten.mean.dim(pow_12, [-1], True);  pow_12 = None
    add_42 = torch.ops.aten.add.Tensor(mean_11, 1e-06);  mean_11 = None
    rsqrt_11 = torch.ops.aten.rsqrt.default(add_42);  add_42 = None
    mul_51 = torch.ops.aten.mul.Tensor(add_41, rsqrt_11)
    mul_52 = torch.ops.aten.mul.Tensor(primals_12, mul_51)
    t_39 = torch.ops.aten.t.default(primals_106);  primals_106 = None
    view_140 = torch.ops.aten.view.default(mul_52, [13, 4096])
    mm_39 = torch.ops.aten.mm.default(view_140, t_39)
    view_141 = torch.ops.aten.view.default(mm_39, [1, 13, 11008]);  mm_39 = None
    silu_5 = torch.ops.aten.silu.default(view_141)
    t_40 = torch.ops.aten.t.default(primals_107);  primals_107 = None
    view_142 = torch.ops.aten.view.default(mul_52, [13, 4096]);  mul_52 = None
    mm_40 = torch.ops.aten.mm.default(view_142, t_40)
    view_143 = torch.ops.aten.view.default(mm_40, [1, 13, 11008]);  mm_40 = None
    mul_53 = torch.ops.aten.mul.Tensor(silu_5, view_143)
    t_41 = torch.ops.aten.t.default(primals_108);  primals_108 = None
    view_144 = torch.ops.aten.view.default(mul_53, [13, 11008]);  mul_53 = None
    mm_41 = torch.ops.aten.mm.default(view_144, t_41)
    view_145 = torch.ops.aten.view.default(mm_41, [1, 13, 4096]);  mm_41 = None
    add_43 = torch.ops.aten.add.Tensor(add_41, view_145);  view_145 = None
    pow_13 = torch.ops.aten.pow.Tensor_Scalar(add_43, 2)
    mean_12 = torch.ops.aten.mean.dim(pow_13, [-1], True);  pow_13 = None
    add_44 = torch.ops.aten.add.Tensor(mean_12, 1e-06);  mean_12 = None
    rsqrt_12 = torch.ops.aten.rsqrt.default(add_44);  add_44 = None
    mul_54 = torch.ops.aten.mul.Tensor(add_43, rsqrt_12)
    mul_55 = torch.ops.aten.mul.Tensor(primals_13, mul_54)
    t_42 = torch.ops.aten.t.default(primals_109);  primals_109 = None
    view_146 = torch.ops.aten.view.default(mul_55, [13, 4096])
    mm_42 = torch.ops.aten.mm.default(view_146, t_42)
    view_147 = torch.ops.aten.view.default(mm_42, [1, 13, 4096]);  mm_42 = None
    t_43 = torch.ops.aten.t.default(primals_110);  primals_110 = None
    view_148 = torch.ops.aten.view.default(mul_55, [13, 4096])
    mm_43 = torch.ops.aten.mm.default(view_148, t_43)
    view_149 = torch.ops.aten.view.default(mm_43, [1, 13, 4096]);  mm_43 = None
    t_44 = torch.ops.aten.t.default(primals_111);  primals_111 = None
    view_150 = torch.ops.aten.view.default(mul_55, [13, 4096]);  mul_55 = None
    mm_44 = torch.ops.aten.mm.default(view_150, t_44)
    view_151 = torch.ops.aten.view.default(mm_44, [1, 13, 4096]);  mm_44 = None
    view_152 = torch.ops.aten.view.default(view_147, [1, 13, 32, 128]);  view_147 = None
    transpose_30 = torch.ops.aten.transpose.int(view_152, 1, 2);  view_152 = None
    view_153 = torch.ops.aten.view.default(view_149, [1, 13, 32, 128]);  view_149 = None
    transpose_31 = torch.ops.aten.transpose.int(view_153, 1, 2);  view_153 = None
    view_154 = torch.ops.aten.view.default(view_151, [1, 13, 32, 128]);  view_151 = None
    transpose_32 = torch.ops.aten.transpose.int(view_154, 1, 2);  view_154 = None
    slice_67 = torch.ops.aten.slice.Tensor(primals_304, 0, 0, 9223372036854775807);  primals_304 = None
    slice_68 = torch.ops.aten.slice.Tensor(slice_67, 1, 0, 9223372036854775807);  slice_67 = None
    slice_69 = torch.ops.aten.slice.Tensor(slice_68, 2, 0, 13);  slice_68 = None
    slice_70 = torch.ops.aten.slice.Tensor(primals_305, 0, 0, 9223372036854775807);  primals_305 = None
    slice_71 = torch.ops.aten.slice.Tensor(slice_70, 1, 0, 9223372036854775807);  slice_70 = None
    slice_72 = torch.ops.aten.slice.Tensor(slice_71, 2, 0, 13);  slice_71 = None
    squeeze_24 = torch.ops.aten.squeeze.dim(slice_69, 1);  slice_69 = None
    squeeze_25 = torch.ops.aten.squeeze.dim(squeeze_24, 0);  squeeze_24 = None
    squeeze_26 = torch.ops.aten.squeeze.dim(slice_72, 1);  slice_72 = None
    squeeze_27 = torch.ops.aten.squeeze.dim(squeeze_26, 0);  squeeze_26 = None
    index_12 = torch.ops.aten.index.Tensor(squeeze_25, [view]);  squeeze_25 = None
    unsqueeze_19 = torch.ops.aten.unsqueeze.default(index_12, 1);  index_12 = None
    index_13 = torch.ops.aten.index.Tensor(squeeze_27, [view]);  squeeze_27 = None
    unsqueeze_20 = torch.ops.aten.unsqueeze.default(index_13, 1);  index_13 = None
    mul_56 = torch.ops.aten.mul.Tensor(transpose_30, unsqueeze_19)
    slice_73 = torch.ops.aten.slice.Tensor(transpose_30, 3, 0, 64)
    slice_74 = torch.ops.aten.slice.Tensor(transpose_30, 3, 64, 9223372036854775807);  transpose_30 = None
    neg_12 = torch.ops.aten.neg.default(slice_74);  slice_74 = None
    cat_12 = torch.ops.aten.cat.default([neg_12, slice_73], -1);  neg_12 = slice_73 = None
    mul_57 = torch.ops.aten.mul.Tensor(cat_12, unsqueeze_20);  cat_12 = None
    add_45 = torch.ops.aten.add.Tensor(mul_56, mul_57);  mul_56 = mul_57 = None
    mul_58 = torch.ops.aten.mul.Tensor(transpose_31, unsqueeze_19)
    slice_75 = torch.ops.aten.slice.Tensor(transpose_31, 3, 0, 64)
    slice_76 = torch.ops.aten.slice.Tensor(transpose_31, 3, 64, 9223372036854775807);  transpose_31 = None
    neg_13 = torch.ops.aten.neg.default(slice_76);  slice_76 = None
    cat_13 = torch.ops.aten.cat.default([neg_13, slice_75], -1);  neg_13 = slice_75 = None
    mul_59 = torch.ops.aten.mul.Tensor(cat_13, unsqueeze_20);  cat_13 = None
    add_46 = torch.ops.aten.add.Tensor(mul_58, mul_59);  mul_58 = mul_59 = None
    transpose_33 = torch.ops.aten.transpose.int(add_46, 2, 3)
    expand_27 = torch.ops.aten.expand.default(add_45, [1, 32, 13, 128]);  add_45 = None
    view_155 = torch.ops.aten.view.default(expand_27, [32, 13, 128]);  expand_27 = None
    expand_28 = torch.ops.aten.expand.default(transpose_33, [1, 32, 128, 13]);  transpose_33 = None
    view_156 = torch.ops.aten.view.default(expand_28, [32, 128, 13]);  expand_28 = None
    bmm_12 = torch.ops.aten.bmm.default(view_155, view_156)
    view_157 = torch.ops.aten.view.default(bmm_12, [1, 32, 13, 13]);  bmm_12 = None
    div_6 = torch.ops.aten.div.Tensor(view_157, 11.313708498984761);  view_157 = None
    add_47 = torch.ops.aten.add.Tensor(div_6, add_1);  div_6 = None
    _softmax_6 = torch.ops.aten._softmax.default(add_47, -1, False);  add_47 = None
    expand_29 = torch.ops.aten.expand.default(_softmax_6, [1, 32, 13, 13])
    view_158 = torch.ops.aten.view.default(expand_29, [32, 13, 13]);  expand_29 = None
    expand_30 = torch.ops.aten.expand.default(transpose_32, [1, 32, 13, 128])
    view_159 = torch.ops.aten.view.default(expand_30, [32, 13, 128]);  expand_30 = None
    bmm_13 = torch.ops.aten.bmm.default(view_158, view_159)
    view_160 = torch.ops.aten.view.default(bmm_13, [1, 32, 13, 128]);  bmm_13 = None
    transpose_34 = torch.ops.aten.transpose.int(view_160, 1, 2);  view_160 = None
    clone_6 = torch.ops.aten.clone.default(transpose_34, memory_format = torch.contiguous_format);  transpose_34 = None
    view_161 = torch.ops.aten.view.default(clone_6, [1, 13, 4096]);  clone_6 = None
    t_45 = torch.ops.aten.t.default(primals_112);  primals_112 = None
    view_162 = torch.ops.aten.view.default(view_161, [13, 4096]);  view_161 = None
    mm_45 = torch.ops.aten.mm.default(view_162, t_45)
    view_163 = torch.ops.aten.view.default(mm_45, [1, 13, 4096]);  mm_45 = None
    add_48 = torch.ops.aten.add.Tensor(add_43, view_163);  view_163 = None
    pow_14 = torch.ops.aten.pow.Tensor_Scalar(add_48, 2)
    mean_13 = torch.ops.aten.mean.dim(pow_14, [-1], True);  pow_14 = None
    add_49 = torch.ops.aten.add.Tensor(mean_13, 1e-06);  mean_13 = None
    rsqrt_13 = torch.ops.aten.rsqrt.default(add_49);  add_49 = None
    mul_60 = torch.ops.aten.mul.Tensor(add_48, rsqrt_13)
    mul_61 = torch.ops.aten.mul.Tensor(primals_14, mul_60)
    t_46 = torch.ops.aten.t.default(primals_113);  primals_113 = None
    view_164 = torch.ops.aten.view.default(mul_61, [13, 4096])
    mm_46 = torch.ops.aten.mm.default(view_164, t_46)
    view_165 = torch.ops.aten.view.default(mm_46, [1, 13, 11008]);  mm_46 = None
    silu_6 = torch.ops.aten.silu.default(view_165)
    t_47 = torch.ops.aten.t.default(primals_114);  primals_114 = None
    view_166 = torch.ops.aten.view.default(mul_61, [13, 4096]);  mul_61 = None
    mm_47 = torch.ops.aten.mm.default(view_166, t_47)
    view_167 = torch.ops.aten.view.default(mm_47, [1, 13, 11008]);  mm_47 = None
    mul_62 = torch.ops.aten.mul.Tensor(silu_6, view_167)
    t_48 = torch.ops.aten.t.default(primals_115);  primals_115 = None
    view_168 = torch.ops.aten.view.default(mul_62, [13, 11008]);  mul_62 = None
    mm_48 = torch.ops.aten.mm.default(view_168, t_48)
    view_169 = torch.ops.aten.view.default(mm_48, [1, 13, 4096]);  mm_48 = None
    add_50 = torch.ops.aten.add.Tensor(add_48, view_169);  view_169 = None
    pow_15 = torch.ops.aten.pow.Tensor_Scalar(add_50, 2)
    mean_14 = torch.ops.aten.mean.dim(pow_15, [-1], True);  pow_15 = None
    add_51 = torch.ops.aten.add.Tensor(mean_14, 1e-06);  mean_14 = None
    rsqrt_14 = torch.ops.aten.rsqrt.default(add_51);  add_51 = None
    mul_63 = torch.ops.aten.mul.Tensor(add_50, rsqrt_14)
    mul_64 = torch.ops.aten.mul.Tensor(primals_15, mul_63)
    t_49 = torch.ops.aten.t.default(primals_116);  primals_116 = None
    view_170 = torch.ops.aten.view.default(mul_64, [13, 4096])
    mm_49 = torch.ops.aten.mm.default(view_170, t_49)
    view_171 = torch.ops.aten.view.default(mm_49, [1, 13, 4096]);  mm_49 = None
    t_50 = torch.ops.aten.t.default(primals_117);  primals_117 = None
    view_172 = torch.ops.aten.view.default(mul_64, [13, 4096])
    mm_50 = torch.ops.aten.mm.default(view_172, t_50)
    view_173 = torch.ops.aten.view.default(mm_50, [1, 13, 4096]);  mm_50 = None
    t_51 = torch.ops.aten.t.default(primals_118);  primals_118 = None
    view_174 = torch.ops.aten.view.default(mul_64, [13, 4096]);  mul_64 = None
    mm_51 = torch.ops.aten.mm.default(view_174, t_51)
    view_175 = torch.ops.aten.view.default(mm_51, [1, 13, 4096]);  mm_51 = None
    view_176 = torch.ops.aten.view.default(view_171, [1, 13, 32, 128]);  view_171 = None
    transpose_35 = torch.ops.aten.transpose.int(view_176, 1, 2);  view_176 = None
    view_177 = torch.ops.aten.view.default(view_173, [1, 13, 32, 128]);  view_173 = None
    transpose_36 = torch.ops.aten.transpose.int(view_177, 1, 2);  view_177 = None
    view_178 = torch.ops.aten.view.default(view_175, [1, 13, 32, 128]);  view_175 = None
    transpose_37 = torch.ops.aten.transpose.int(view_178, 1, 2);  view_178 = None
    slice_77 = torch.ops.aten.slice.Tensor(primals_306, 0, 0, 9223372036854775807);  primals_306 = None
    slice_78 = torch.ops.aten.slice.Tensor(slice_77, 1, 0, 9223372036854775807);  slice_77 = None
    slice_79 = torch.ops.aten.slice.Tensor(slice_78, 2, 0, 13);  slice_78 = None
    slice_80 = torch.ops.aten.slice.Tensor(primals_307, 0, 0, 9223372036854775807);  primals_307 = None
    slice_81 = torch.ops.aten.slice.Tensor(slice_80, 1, 0, 9223372036854775807);  slice_80 = None
    slice_82 = torch.ops.aten.slice.Tensor(slice_81, 2, 0, 13);  slice_81 = None
    squeeze_28 = torch.ops.aten.squeeze.dim(slice_79, 1);  slice_79 = None
    squeeze_29 = torch.ops.aten.squeeze.dim(squeeze_28, 0);  squeeze_28 = None
    squeeze_30 = torch.ops.aten.squeeze.dim(slice_82, 1);  slice_82 = None
    squeeze_31 = torch.ops.aten.squeeze.dim(squeeze_30, 0);  squeeze_30 = None
    index_14 = torch.ops.aten.index.Tensor(squeeze_29, [view]);  squeeze_29 = None
    unsqueeze_21 = torch.ops.aten.unsqueeze.default(index_14, 1);  index_14 = None
    index_15 = torch.ops.aten.index.Tensor(squeeze_31, [view]);  squeeze_31 = None
    unsqueeze_22 = torch.ops.aten.unsqueeze.default(index_15, 1);  index_15 = None
    mul_65 = torch.ops.aten.mul.Tensor(transpose_35, unsqueeze_21)
    slice_83 = torch.ops.aten.slice.Tensor(transpose_35, 3, 0, 64)
    slice_84 = torch.ops.aten.slice.Tensor(transpose_35, 3, 64, 9223372036854775807);  transpose_35 = None
    neg_14 = torch.ops.aten.neg.default(slice_84);  slice_84 = None
    cat_14 = torch.ops.aten.cat.default([neg_14, slice_83], -1);  neg_14 = slice_83 = None
    mul_66 = torch.ops.aten.mul.Tensor(cat_14, unsqueeze_22);  cat_14 = None
    add_52 = torch.ops.aten.add.Tensor(mul_65, mul_66);  mul_65 = mul_66 = None
    mul_67 = torch.ops.aten.mul.Tensor(transpose_36, unsqueeze_21)
    slice_85 = torch.ops.aten.slice.Tensor(transpose_36, 3, 0, 64)
    slice_86 = torch.ops.aten.slice.Tensor(transpose_36, 3, 64, 9223372036854775807);  transpose_36 = None
    neg_15 = torch.ops.aten.neg.default(slice_86);  slice_86 = None
    cat_15 = torch.ops.aten.cat.default([neg_15, slice_85], -1);  neg_15 = slice_85 = None
    mul_68 = torch.ops.aten.mul.Tensor(cat_15, unsqueeze_22);  cat_15 = None
    add_53 = torch.ops.aten.add.Tensor(mul_67, mul_68);  mul_67 = mul_68 = None
    transpose_38 = torch.ops.aten.transpose.int(add_53, 2, 3)
    expand_31 = torch.ops.aten.expand.default(add_52, [1, 32, 13, 128]);  add_52 = None
    view_179 = torch.ops.aten.view.default(expand_31, [32, 13, 128]);  expand_31 = None
    expand_32 = torch.ops.aten.expand.default(transpose_38, [1, 32, 128, 13]);  transpose_38 = None
    view_180 = torch.ops.aten.view.default(expand_32, [32, 128, 13]);  expand_32 = None
    bmm_14 = torch.ops.aten.bmm.default(view_179, view_180)
    view_181 = torch.ops.aten.view.default(bmm_14, [1, 32, 13, 13]);  bmm_14 = None
    div_7 = torch.ops.aten.div.Tensor(view_181, 11.313708498984761);  view_181 = None
    add_54 = torch.ops.aten.add.Tensor(div_7, add_1);  div_7 = None
    _softmax_7 = torch.ops.aten._softmax.default(add_54, -1, False);  add_54 = None
    expand_33 = torch.ops.aten.expand.default(_softmax_7, [1, 32, 13, 13])
    view_182 = torch.ops.aten.view.default(expand_33, [32, 13, 13]);  expand_33 = None
    expand_34 = torch.ops.aten.expand.default(transpose_37, [1, 32, 13, 128])
    view_183 = torch.ops.aten.view.default(expand_34, [32, 13, 128]);  expand_34 = None
    bmm_15 = torch.ops.aten.bmm.default(view_182, view_183)
    view_184 = torch.ops.aten.view.default(bmm_15, [1, 32, 13, 128]);  bmm_15 = None
    transpose_39 = torch.ops.aten.transpose.int(view_184, 1, 2);  view_184 = None
    clone_7 = torch.ops.aten.clone.default(transpose_39, memory_format = torch.contiguous_format);  transpose_39 = None
    view_185 = torch.ops.aten.view.default(clone_7, [1, 13, 4096]);  clone_7 = None
    t_52 = torch.ops.aten.t.default(primals_119);  primals_119 = None
    view_186 = torch.ops.aten.view.default(view_185, [13, 4096]);  view_185 = None
    mm_52 = torch.ops.aten.mm.default(view_186, t_52)
    view_187 = torch.ops.aten.view.default(mm_52, [1, 13, 4096]);  mm_52 = None
    add_55 = torch.ops.aten.add.Tensor(add_50, view_187);  view_187 = None
    pow_16 = torch.ops.aten.pow.Tensor_Scalar(add_55, 2)
    mean_15 = torch.ops.aten.mean.dim(pow_16, [-1], True);  pow_16 = None
    add_56 = torch.ops.aten.add.Tensor(mean_15, 1e-06);  mean_15 = None
    rsqrt_15 = torch.ops.aten.rsqrt.default(add_56);  add_56 = None
    mul_69 = torch.ops.aten.mul.Tensor(add_55, rsqrt_15)
    mul_70 = torch.ops.aten.mul.Tensor(primals_16, mul_69)
    t_53 = torch.ops.aten.t.default(primals_120);  primals_120 = None
    view_188 = torch.ops.aten.view.default(mul_70, [13, 4096])
    mm_53 = torch.ops.aten.mm.default(view_188, t_53)
    view_189 = torch.ops.aten.view.default(mm_53, [1, 13, 11008]);  mm_53 = None
    silu_7 = torch.ops.aten.silu.default(view_189)
    t_54 = torch.ops.aten.t.default(primals_121);  primals_121 = None
    view_190 = torch.ops.aten.view.default(mul_70, [13, 4096]);  mul_70 = None
    mm_54 = torch.ops.aten.mm.default(view_190, t_54)
    view_191 = torch.ops.aten.view.default(mm_54, [1, 13, 11008]);  mm_54 = None
    mul_71 = torch.ops.aten.mul.Tensor(silu_7, view_191)
    t_55 = torch.ops.aten.t.default(primals_122);  primals_122 = None
    view_192 = torch.ops.aten.view.default(mul_71, [13, 11008]);  mul_71 = None
    mm_55 = torch.ops.aten.mm.default(view_192, t_55)
    view_193 = torch.ops.aten.view.default(mm_55, [1, 13, 4096]);  mm_55 = None
    add_57 = torch.ops.aten.add.Tensor(add_55, view_193);  view_193 = None
    pow_17 = torch.ops.aten.pow.Tensor_Scalar(add_57, 2)
    mean_16 = torch.ops.aten.mean.dim(pow_17, [-1], True);  pow_17 = None
    add_58 = torch.ops.aten.add.Tensor(mean_16, 1e-06);  mean_16 = None
    rsqrt_16 = torch.ops.aten.rsqrt.default(add_58);  add_58 = None
    mul_72 = torch.ops.aten.mul.Tensor(add_57, rsqrt_16)
    mul_73 = torch.ops.aten.mul.Tensor(primals_17, mul_72)
    t_56 = torch.ops.aten.t.default(primals_123);  primals_123 = None
    view_194 = torch.ops.aten.view.default(mul_73, [13, 4096])
    mm_56 = torch.ops.aten.mm.default(view_194, t_56)
    view_195 = torch.ops.aten.view.default(mm_56, [1, 13, 4096]);  mm_56 = None
    t_57 = torch.ops.aten.t.default(primals_124);  primals_124 = None
    view_196 = torch.ops.aten.view.default(mul_73, [13, 4096])
    mm_57 = torch.ops.aten.mm.default(view_196, t_57)
    view_197 = torch.ops.aten.view.default(mm_57, [1, 13, 4096]);  mm_57 = None
    t_58 = torch.ops.aten.t.default(primals_125);  primals_125 = None
    view_198 = torch.ops.aten.view.default(mul_73, [13, 4096]);  mul_73 = None
    mm_58 = torch.ops.aten.mm.default(view_198, t_58)
    view_199 = torch.ops.aten.view.default(mm_58, [1, 13, 4096]);  mm_58 = None
    view_200 = torch.ops.aten.view.default(view_195, [1, 13, 32, 128]);  view_195 = None
    transpose_40 = torch.ops.aten.transpose.int(view_200, 1, 2);  view_200 = None
    view_201 = torch.ops.aten.view.default(view_197, [1, 13, 32, 128]);  view_197 = None
    transpose_41 = torch.ops.aten.transpose.int(view_201, 1, 2);  view_201 = None
    view_202 = torch.ops.aten.view.default(view_199, [1, 13, 32, 128]);  view_199 = None
    transpose_42 = torch.ops.aten.transpose.int(view_202, 1, 2);  view_202 = None
    slice_87 = torch.ops.aten.slice.Tensor(primals_308, 0, 0, 9223372036854775807);  primals_308 = None
    slice_88 = torch.ops.aten.slice.Tensor(slice_87, 1, 0, 9223372036854775807);  slice_87 = None
    slice_89 = torch.ops.aten.slice.Tensor(slice_88, 2, 0, 13);  slice_88 = None
    slice_90 = torch.ops.aten.slice.Tensor(primals_309, 0, 0, 9223372036854775807);  primals_309 = None
    slice_91 = torch.ops.aten.slice.Tensor(slice_90, 1, 0, 9223372036854775807);  slice_90 = None
    slice_92 = torch.ops.aten.slice.Tensor(slice_91, 2, 0, 13);  slice_91 = None
    squeeze_32 = torch.ops.aten.squeeze.dim(slice_89, 1);  slice_89 = None
    squeeze_33 = torch.ops.aten.squeeze.dim(squeeze_32, 0);  squeeze_32 = None
    squeeze_34 = torch.ops.aten.squeeze.dim(slice_92, 1);  slice_92 = None
    squeeze_35 = torch.ops.aten.squeeze.dim(squeeze_34, 0);  squeeze_34 = None
    index_16 = torch.ops.aten.index.Tensor(squeeze_33, [view]);  squeeze_33 = None
    unsqueeze_23 = torch.ops.aten.unsqueeze.default(index_16, 1);  index_16 = None
    index_17 = torch.ops.aten.index.Tensor(squeeze_35, [view]);  squeeze_35 = None
    unsqueeze_24 = torch.ops.aten.unsqueeze.default(index_17, 1);  index_17 = None
    mul_74 = torch.ops.aten.mul.Tensor(transpose_40, unsqueeze_23)
    slice_93 = torch.ops.aten.slice.Tensor(transpose_40, 3, 0, 64)
    slice_94 = torch.ops.aten.slice.Tensor(transpose_40, 3, 64, 9223372036854775807);  transpose_40 = None
    neg_16 = torch.ops.aten.neg.default(slice_94);  slice_94 = None
    cat_16 = torch.ops.aten.cat.default([neg_16, slice_93], -1);  neg_16 = slice_93 = None
    mul_75 = torch.ops.aten.mul.Tensor(cat_16, unsqueeze_24);  cat_16 = None
    add_59 = torch.ops.aten.add.Tensor(mul_74, mul_75);  mul_74 = mul_75 = None
    mul_76 = torch.ops.aten.mul.Tensor(transpose_41, unsqueeze_23)
    slice_95 = torch.ops.aten.slice.Tensor(transpose_41, 3, 0, 64)
    slice_96 = torch.ops.aten.slice.Tensor(transpose_41, 3, 64, 9223372036854775807);  transpose_41 = None
    neg_17 = torch.ops.aten.neg.default(slice_96);  slice_96 = None
    cat_17 = torch.ops.aten.cat.default([neg_17, slice_95], -1);  neg_17 = slice_95 = None
    mul_77 = torch.ops.aten.mul.Tensor(cat_17, unsqueeze_24);  cat_17 = None
    add_60 = torch.ops.aten.add.Tensor(mul_76, mul_77);  mul_76 = mul_77 = None
    transpose_43 = torch.ops.aten.transpose.int(add_60, 2, 3)
    expand_35 = torch.ops.aten.expand.default(add_59, [1, 32, 13, 128]);  add_59 = None
    view_203 = torch.ops.aten.view.default(expand_35, [32, 13, 128]);  expand_35 = None
    expand_36 = torch.ops.aten.expand.default(transpose_43, [1, 32, 128, 13]);  transpose_43 = None
    view_204 = torch.ops.aten.view.default(expand_36, [32, 128, 13]);  expand_36 = None
    bmm_16 = torch.ops.aten.bmm.default(view_203, view_204)
    view_205 = torch.ops.aten.view.default(bmm_16, [1, 32, 13, 13]);  bmm_16 = None
    div_8 = torch.ops.aten.div.Tensor(view_205, 11.313708498984761);  view_205 = None
    add_61 = torch.ops.aten.add.Tensor(div_8, add_1);  div_8 = None
    _softmax_8 = torch.ops.aten._softmax.default(add_61, -1, False);  add_61 = None
    expand_37 = torch.ops.aten.expand.default(_softmax_8, [1, 32, 13, 13])
    view_206 = torch.ops.aten.view.default(expand_37, [32, 13, 13]);  expand_37 = None
    expand_38 = torch.ops.aten.expand.default(transpose_42, [1, 32, 13, 128])
    view_207 = torch.ops.aten.view.default(expand_38, [32, 13, 128]);  expand_38 = None
    bmm_17 = torch.ops.aten.bmm.default(view_206, view_207)
    view_208 = torch.ops.aten.view.default(bmm_17, [1, 32, 13, 128]);  bmm_17 = None
    transpose_44 = torch.ops.aten.transpose.int(view_208, 1, 2);  view_208 = None
    clone_8 = torch.ops.aten.clone.default(transpose_44, memory_format = torch.contiguous_format);  transpose_44 = None
    view_209 = torch.ops.aten.view.default(clone_8, [1, 13, 4096]);  clone_8 = None
    t_59 = torch.ops.aten.t.default(primals_126);  primals_126 = None
    view_210 = torch.ops.aten.view.default(view_209, [13, 4096]);  view_209 = None
    mm_59 = torch.ops.aten.mm.default(view_210, t_59)
    view_211 = torch.ops.aten.view.default(mm_59, [1, 13, 4096]);  mm_59 = None
    add_62 = torch.ops.aten.add.Tensor(add_57, view_211);  view_211 = None
    pow_18 = torch.ops.aten.pow.Tensor_Scalar(add_62, 2)
    mean_17 = torch.ops.aten.mean.dim(pow_18, [-1], True);  pow_18 = None
    add_63 = torch.ops.aten.add.Tensor(mean_17, 1e-06);  mean_17 = None
    rsqrt_17 = torch.ops.aten.rsqrt.default(add_63);  add_63 = None
    mul_78 = torch.ops.aten.mul.Tensor(add_62, rsqrt_17)
    mul_79 = torch.ops.aten.mul.Tensor(primals_18, mul_78)
    t_60 = torch.ops.aten.t.default(primals_127);  primals_127 = None
    view_212 = torch.ops.aten.view.default(mul_79, [13, 4096])
    mm_60 = torch.ops.aten.mm.default(view_212, t_60)
    view_213 = torch.ops.aten.view.default(mm_60, [1, 13, 11008]);  mm_60 = None
    silu_8 = torch.ops.aten.silu.default(view_213)
    t_61 = torch.ops.aten.t.default(primals_128);  primals_128 = None
    view_214 = torch.ops.aten.view.default(mul_79, [13, 4096]);  mul_79 = None
    mm_61 = torch.ops.aten.mm.default(view_214, t_61)
    view_215 = torch.ops.aten.view.default(mm_61, [1, 13, 11008]);  mm_61 = None
    mul_80 = torch.ops.aten.mul.Tensor(silu_8, view_215)
    t_62 = torch.ops.aten.t.default(primals_129);  primals_129 = None
    view_216 = torch.ops.aten.view.default(mul_80, [13, 11008]);  mul_80 = None
    mm_62 = torch.ops.aten.mm.default(view_216, t_62)
    view_217 = torch.ops.aten.view.default(mm_62, [1, 13, 4096]);  mm_62 = None
    add_64 = torch.ops.aten.add.Tensor(add_62, view_217);  view_217 = None
    pow_19 = torch.ops.aten.pow.Tensor_Scalar(add_64, 2)
    mean_18 = torch.ops.aten.mean.dim(pow_19, [-1], True);  pow_19 = None
    add_65 = torch.ops.aten.add.Tensor(mean_18, 1e-06);  mean_18 = None
    rsqrt_18 = torch.ops.aten.rsqrt.default(add_65);  add_65 = None
    mul_81 = torch.ops.aten.mul.Tensor(add_64, rsqrt_18)
    mul_82 = torch.ops.aten.mul.Tensor(primals_19, mul_81)
    t_63 = torch.ops.aten.t.default(primals_130);  primals_130 = None
    view_218 = torch.ops.aten.view.default(mul_82, [13, 4096])
    mm_63 = torch.ops.aten.mm.default(view_218, t_63)
    view_219 = torch.ops.aten.view.default(mm_63, [1, 13, 4096]);  mm_63 = None
    t_64 = torch.ops.aten.t.default(primals_131);  primals_131 = None
    view_220 = torch.ops.aten.view.default(mul_82, [13, 4096])
    mm_64 = torch.ops.aten.mm.default(view_220, t_64)
    view_221 = torch.ops.aten.view.default(mm_64, [1, 13, 4096]);  mm_64 = None
    t_65 = torch.ops.aten.t.default(primals_132);  primals_132 = None
    view_222 = torch.ops.aten.view.default(mul_82, [13, 4096]);  mul_82 = None
    mm_65 = torch.ops.aten.mm.default(view_222, t_65)
    view_223 = torch.ops.aten.view.default(mm_65, [1, 13, 4096]);  mm_65 = None
    view_224 = torch.ops.aten.view.default(view_219, [1, 13, 32, 128]);  view_219 = None
    transpose_45 = torch.ops.aten.transpose.int(view_224, 1, 2);  view_224 = None
    view_225 = torch.ops.aten.view.default(view_221, [1, 13, 32, 128]);  view_221 = None
    transpose_46 = torch.ops.aten.transpose.int(view_225, 1, 2);  view_225 = None
    view_226 = torch.ops.aten.view.default(view_223, [1, 13, 32, 128]);  view_223 = None
    transpose_47 = torch.ops.aten.transpose.int(view_226, 1, 2);  view_226 = None
    slice_97 = torch.ops.aten.slice.Tensor(primals_310, 0, 0, 9223372036854775807);  primals_310 = None
    slice_98 = torch.ops.aten.slice.Tensor(slice_97, 1, 0, 9223372036854775807);  slice_97 = None
    slice_99 = torch.ops.aten.slice.Tensor(slice_98, 2, 0, 13);  slice_98 = None
    slice_100 = torch.ops.aten.slice.Tensor(primals_311, 0, 0, 9223372036854775807);  primals_311 = None
    slice_101 = torch.ops.aten.slice.Tensor(slice_100, 1, 0, 9223372036854775807);  slice_100 = None
    slice_102 = torch.ops.aten.slice.Tensor(slice_101, 2, 0, 13);  slice_101 = None
    squeeze_36 = torch.ops.aten.squeeze.dim(slice_99, 1);  slice_99 = None
    squeeze_37 = torch.ops.aten.squeeze.dim(squeeze_36, 0);  squeeze_36 = None
    squeeze_38 = torch.ops.aten.squeeze.dim(slice_102, 1);  slice_102 = None
    squeeze_39 = torch.ops.aten.squeeze.dim(squeeze_38, 0);  squeeze_38 = None
    index_18 = torch.ops.aten.index.Tensor(squeeze_37, [view]);  squeeze_37 = None
    unsqueeze_25 = torch.ops.aten.unsqueeze.default(index_18, 1);  index_18 = None
    index_19 = torch.ops.aten.index.Tensor(squeeze_39, [view]);  squeeze_39 = None
    unsqueeze_26 = torch.ops.aten.unsqueeze.default(index_19, 1);  index_19 = None
    mul_83 = torch.ops.aten.mul.Tensor(transpose_45, unsqueeze_25)
    slice_103 = torch.ops.aten.slice.Tensor(transpose_45, 3, 0, 64)
    slice_104 = torch.ops.aten.slice.Tensor(transpose_45, 3, 64, 9223372036854775807);  transpose_45 = None
    neg_18 = torch.ops.aten.neg.default(slice_104);  slice_104 = None
    cat_18 = torch.ops.aten.cat.default([neg_18, slice_103], -1);  neg_18 = slice_103 = None
    mul_84 = torch.ops.aten.mul.Tensor(cat_18, unsqueeze_26);  cat_18 = None
    add_66 = torch.ops.aten.add.Tensor(mul_83, mul_84);  mul_83 = mul_84 = None
    mul_85 = torch.ops.aten.mul.Tensor(transpose_46, unsqueeze_25)
    slice_105 = torch.ops.aten.slice.Tensor(transpose_46, 3, 0, 64)
    slice_106 = torch.ops.aten.slice.Tensor(transpose_46, 3, 64, 9223372036854775807);  transpose_46 = None
    neg_19 = torch.ops.aten.neg.default(slice_106);  slice_106 = None
    cat_19 = torch.ops.aten.cat.default([neg_19, slice_105], -1);  neg_19 = slice_105 = None
    mul_86 = torch.ops.aten.mul.Tensor(cat_19, unsqueeze_26);  cat_19 = None
    add_67 = torch.ops.aten.add.Tensor(mul_85, mul_86);  mul_85 = mul_86 = None
    transpose_48 = torch.ops.aten.transpose.int(add_67, 2, 3)
    expand_39 = torch.ops.aten.expand.default(add_66, [1, 32, 13, 128]);  add_66 = None
    view_227 = torch.ops.aten.view.default(expand_39, [32, 13, 128]);  expand_39 = None
    expand_40 = torch.ops.aten.expand.default(transpose_48, [1, 32, 128, 13]);  transpose_48 = None
    view_228 = torch.ops.aten.view.default(expand_40, [32, 128, 13]);  expand_40 = None
    bmm_18 = torch.ops.aten.bmm.default(view_227, view_228)
    view_229 = torch.ops.aten.view.default(bmm_18, [1, 32, 13, 13]);  bmm_18 = None
    div_9 = torch.ops.aten.div.Tensor(view_229, 11.313708498984761);  view_229 = None
    add_68 = torch.ops.aten.add.Tensor(div_9, add_1);  div_9 = None
    _softmax_9 = torch.ops.aten._softmax.default(add_68, -1, False);  add_68 = None
    expand_41 = torch.ops.aten.expand.default(_softmax_9, [1, 32, 13, 13])
    view_230 = torch.ops.aten.view.default(expand_41, [32, 13, 13]);  expand_41 = None
    expand_42 = torch.ops.aten.expand.default(transpose_47, [1, 32, 13, 128])
    view_231 = torch.ops.aten.view.default(expand_42, [32, 13, 128]);  expand_42 = None
    bmm_19 = torch.ops.aten.bmm.default(view_230, view_231)
    view_232 = torch.ops.aten.view.default(bmm_19, [1, 32, 13, 128]);  bmm_19 = None
    transpose_49 = torch.ops.aten.transpose.int(view_232, 1, 2);  view_232 = None
    clone_9 = torch.ops.aten.clone.default(transpose_49, memory_format = torch.contiguous_format);  transpose_49 = None
    view_233 = torch.ops.aten.view.default(clone_9, [1, 13, 4096]);  clone_9 = None
    t_66 = torch.ops.aten.t.default(primals_133);  primals_133 = None
    view_234 = torch.ops.aten.view.default(view_233, [13, 4096]);  view_233 = None
    mm_66 = torch.ops.aten.mm.default(view_234, t_66)
    view_235 = torch.ops.aten.view.default(mm_66, [1, 13, 4096]);  mm_66 = None
    add_69 = torch.ops.aten.add.Tensor(add_64, view_235);  view_235 = None
    pow_20 = torch.ops.aten.pow.Tensor_Scalar(add_69, 2)
    mean_19 = torch.ops.aten.mean.dim(pow_20, [-1], True);  pow_20 = None
    add_70 = torch.ops.aten.add.Tensor(mean_19, 1e-06);  mean_19 = None
    rsqrt_19 = torch.ops.aten.rsqrt.default(add_70);  add_70 = None
    mul_87 = torch.ops.aten.mul.Tensor(add_69, rsqrt_19)
    mul_88 = torch.ops.aten.mul.Tensor(primals_20, mul_87)
    t_67 = torch.ops.aten.t.default(primals_134);  primals_134 = None
    view_236 = torch.ops.aten.view.default(mul_88, [13, 4096])
    mm_67 = torch.ops.aten.mm.default(view_236, t_67)
    view_237 = torch.ops.aten.view.default(mm_67, [1, 13, 11008]);  mm_67 = None
    silu_9 = torch.ops.aten.silu.default(view_237)
    t_68 = torch.ops.aten.t.default(primals_135);  primals_135 = None
    view_238 = torch.ops.aten.view.default(mul_88, [13, 4096]);  mul_88 = None
    mm_68 = torch.ops.aten.mm.default(view_238, t_68)
    view_239 = torch.ops.aten.view.default(mm_68, [1, 13, 11008]);  mm_68 = None
    mul_89 = torch.ops.aten.mul.Tensor(silu_9, view_239)
    t_69 = torch.ops.aten.t.default(primals_136);  primals_136 = None
    view_240 = torch.ops.aten.view.default(mul_89, [13, 11008]);  mul_89 = None
    mm_69 = torch.ops.aten.mm.default(view_240, t_69)
    view_241 = torch.ops.aten.view.default(mm_69, [1, 13, 4096]);  mm_69 = None
    add_71 = torch.ops.aten.add.Tensor(add_69, view_241);  view_241 = None
    pow_21 = torch.ops.aten.pow.Tensor_Scalar(add_71, 2)
    mean_20 = torch.ops.aten.mean.dim(pow_21, [-1], True);  pow_21 = None
    add_72 = torch.ops.aten.add.Tensor(mean_20, 1e-06);  mean_20 = None
    rsqrt_20 = torch.ops.aten.rsqrt.default(add_72);  add_72 = None
    mul_90 = torch.ops.aten.mul.Tensor(add_71, rsqrt_20)
    mul_91 = torch.ops.aten.mul.Tensor(primals_21, mul_90)
    t_70 = torch.ops.aten.t.default(primals_137);  primals_137 = None
    view_242 = torch.ops.aten.view.default(mul_91, [13, 4096])
    mm_70 = torch.ops.aten.mm.default(view_242, t_70)
    view_243 = torch.ops.aten.view.default(mm_70, [1, 13, 4096]);  mm_70 = None
    t_71 = torch.ops.aten.t.default(primals_138);  primals_138 = None
    view_244 = torch.ops.aten.view.default(mul_91, [13, 4096])
    mm_71 = torch.ops.aten.mm.default(view_244, t_71)
    view_245 = torch.ops.aten.view.default(mm_71, [1, 13, 4096]);  mm_71 = None
    t_72 = torch.ops.aten.t.default(primals_139);  primals_139 = None
    view_246 = torch.ops.aten.view.default(mul_91, [13, 4096]);  mul_91 = None
    mm_72 = torch.ops.aten.mm.default(view_246, t_72)
    view_247 = torch.ops.aten.view.default(mm_72, [1, 13, 4096]);  mm_72 = None
    view_248 = torch.ops.aten.view.default(view_243, [1, 13, 32, 128]);  view_243 = None
    transpose_50 = torch.ops.aten.transpose.int(view_248, 1, 2);  view_248 = None
    view_249 = torch.ops.aten.view.default(view_245, [1, 13, 32, 128]);  view_245 = None
    transpose_51 = torch.ops.aten.transpose.int(view_249, 1, 2);  view_249 = None
    view_250 = torch.ops.aten.view.default(view_247, [1, 13, 32, 128]);  view_247 = None
    transpose_52 = torch.ops.aten.transpose.int(view_250, 1, 2);  view_250 = None
    slice_107 = torch.ops.aten.slice.Tensor(primals_312, 0, 0, 9223372036854775807);  primals_312 = None
    slice_108 = torch.ops.aten.slice.Tensor(slice_107, 1, 0, 9223372036854775807);  slice_107 = None
    slice_109 = torch.ops.aten.slice.Tensor(slice_108, 2, 0, 13);  slice_108 = None
    slice_110 = torch.ops.aten.slice.Tensor(primals_313, 0, 0, 9223372036854775807);  primals_313 = None
    slice_111 = torch.ops.aten.slice.Tensor(slice_110, 1, 0, 9223372036854775807);  slice_110 = None
    slice_112 = torch.ops.aten.slice.Tensor(slice_111, 2, 0, 13);  slice_111 = None
    squeeze_40 = torch.ops.aten.squeeze.dim(slice_109, 1);  slice_109 = None
    squeeze_41 = torch.ops.aten.squeeze.dim(squeeze_40, 0);  squeeze_40 = None
    squeeze_42 = torch.ops.aten.squeeze.dim(slice_112, 1);  slice_112 = None
    squeeze_43 = torch.ops.aten.squeeze.dim(squeeze_42, 0);  squeeze_42 = None
    index_20 = torch.ops.aten.index.Tensor(squeeze_41, [view]);  squeeze_41 = None
    unsqueeze_27 = torch.ops.aten.unsqueeze.default(index_20, 1);  index_20 = None
    index_21 = torch.ops.aten.index.Tensor(squeeze_43, [view]);  squeeze_43 = None
    unsqueeze_28 = torch.ops.aten.unsqueeze.default(index_21, 1);  index_21 = None
    mul_92 = torch.ops.aten.mul.Tensor(transpose_50, unsqueeze_27)
    slice_113 = torch.ops.aten.slice.Tensor(transpose_50, 3, 0, 64)
    slice_114 = torch.ops.aten.slice.Tensor(transpose_50, 3, 64, 9223372036854775807);  transpose_50 = None
    neg_20 = torch.ops.aten.neg.default(slice_114);  slice_114 = None
    cat_20 = torch.ops.aten.cat.default([neg_20, slice_113], -1);  neg_20 = slice_113 = None
    mul_93 = torch.ops.aten.mul.Tensor(cat_20, unsqueeze_28);  cat_20 = None
    add_73 = torch.ops.aten.add.Tensor(mul_92, mul_93);  mul_92 = mul_93 = None
    mul_94 = torch.ops.aten.mul.Tensor(transpose_51, unsqueeze_27)
    slice_115 = torch.ops.aten.slice.Tensor(transpose_51, 3, 0, 64)
    slice_116 = torch.ops.aten.slice.Tensor(transpose_51, 3, 64, 9223372036854775807);  transpose_51 = None
    neg_21 = torch.ops.aten.neg.default(slice_116);  slice_116 = None
    cat_21 = torch.ops.aten.cat.default([neg_21, slice_115], -1);  neg_21 = slice_115 = None
    mul_95 = torch.ops.aten.mul.Tensor(cat_21, unsqueeze_28);  cat_21 = None
    add_74 = torch.ops.aten.add.Tensor(mul_94, mul_95);  mul_94 = mul_95 = None
    transpose_53 = torch.ops.aten.transpose.int(add_74, 2, 3)
    expand_43 = torch.ops.aten.expand.default(add_73, [1, 32, 13, 128]);  add_73 = None
    view_251 = torch.ops.aten.view.default(expand_43, [32, 13, 128]);  expand_43 = None
    expand_44 = torch.ops.aten.expand.default(transpose_53, [1, 32, 128, 13]);  transpose_53 = None
    view_252 = torch.ops.aten.view.default(expand_44, [32, 128, 13]);  expand_44 = None
    bmm_20 = torch.ops.aten.bmm.default(view_251, view_252)
    view_253 = torch.ops.aten.view.default(bmm_20, [1, 32, 13, 13]);  bmm_20 = None
    div_10 = torch.ops.aten.div.Tensor(view_253, 11.313708498984761);  view_253 = None
    add_75 = torch.ops.aten.add.Tensor(div_10, add_1);  div_10 = None
    _softmax_10 = torch.ops.aten._softmax.default(add_75, -1, False);  add_75 = None
    expand_45 = torch.ops.aten.expand.default(_softmax_10, [1, 32, 13, 13])
    view_254 = torch.ops.aten.view.default(expand_45, [32, 13, 13]);  expand_45 = None
    expand_46 = torch.ops.aten.expand.default(transpose_52, [1, 32, 13, 128])
    view_255 = torch.ops.aten.view.default(expand_46, [32, 13, 128]);  expand_46 = None
    bmm_21 = torch.ops.aten.bmm.default(view_254, view_255)
    view_256 = torch.ops.aten.view.default(bmm_21, [1, 32, 13, 128]);  bmm_21 = None
    transpose_54 = torch.ops.aten.transpose.int(view_256, 1, 2);  view_256 = None
    clone_10 = torch.ops.aten.clone.default(transpose_54, memory_format = torch.contiguous_format);  transpose_54 = None
    view_257 = torch.ops.aten.view.default(clone_10, [1, 13, 4096]);  clone_10 = None
    t_73 = torch.ops.aten.t.default(primals_140);  primals_140 = None
    view_258 = torch.ops.aten.view.default(view_257, [13, 4096]);  view_257 = None
    mm_73 = torch.ops.aten.mm.default(view_258, t_73)
    view_259 = torch.ops.aten.view.default(mm_73, [1, 13, 4096]);  mm_73 = None
    add_76 = torch.ops.aten.add.Tensor(add_71, view_259);  view_259 = None
    pow_22 = torch.ops.aten.pow.Tensor_Scalar(add_76, 2)
    mean_21 = torch.ops.aten.mean.dim(pow_22, [-1], True);  pow_22 = None
    add_77 = torch.ops.aten.add.Tensor(mean_21, 1e-06);  mean_21 = None
    rsqrt_21 = torch.ops.aten.rsqrt.default(add_77);  add_77 = None
    mul_96 = torch.ops.aten.mul.Tensor(add_76, rsqrt_21)
    mul_97 = torch.ops.aten.mul.Tensor(primals_22, mul_96)
    t_74 = torch.ops.aten.t.default(primals_141);  primals_141 = None
    view_260 = torch.ops.aten.view.default(mul_97, [13, 4096])
    mm_74 = torch.ops.aten.mm.default(view_260, t_74)
    view_261 = torch.ops.aten.view.default(mm_74, [1, 13, 11008]);  mm_74 = None
    silu_10 = torch.ops.aten.silu.default(view_261)
    t_75 = torch.ops.aten.t.default(primals_142);  primals_142 = None
    view_262 = torch.ops.aten.view.default(mul_97, [13, 4096]);  mul_97 = None
    mm_75 = torch.ops.aten.mm.default(view_262, t_75)
    view_263 = torch.ops.aten.view.default(mm_75, [1, 13, 11008]);  mm_75 = None
    mul_98 = torch.ops.aten.mul.Tensor(silu_10, view_263)
    t_76 = torch.ops.aten.t.default(primals_143);  primals_143 = None
    view_264 = torch.ops.aten.view.default(mul_98, [13, 11008]);  mul_98 = None
    mm_76 = torch.ops.aten.mm.default(view_264, t_76)
    view_265 = torch.ops.aten.view.default(mm_76, [1, 13, 4096]);  mm_76 = None
    add_78 = torch.ops.aten.add.Tensor(add_76, view_265);  view_265 = None
    pow_23 = torch.ops.aten.pow.Tensor_Scalar(add_78, 2)
    mean_22 = torch.ops.aten.mean.dim(pow_23, [-1], True);  pow_23 = None
    add_79 = torch.ops.aten.add.Tensor(mean_22, 1e-06);  mean_22 = None
    rsqrt_22 = torch.ops.aten.rsqrt.default(add_79);  add_79 = None
    mul_99 = torch.ops.aten.mul.Tensor(add_78, rsqrt_22)
    mul_100 = torch.ops.aten.mul.Tensor(primals_23, mul_99)
    t_77 = torch.ops.aten.t.default(primals_144);  primals_144 = None
    view_266 = torch.ops.aten.view.default(mul_100, [13, 4096])
    mm_77 = torch.ops.aten.mm.default(view_266, t_77)
    view_267 = torch.ops.aten.view.default(mm_77, [1, 13, 4096]);  mm_77 = None
    t_78 = torch.ops.aten.t.default(primals_145);  primals_145 = None
    view_268 = torch.ops.aten.view.default(mul_100, [13, 4096])
    mm_78 = torch.ops.aten.mm.default(view_268, t_78)
    view_269 = torch.ops.aten.view.default(mm_78, [1, 13, 4096]);  mm_78 = None
    t_79 = torch.ops.aten.t.default(primals_146);  primals_146 = None
    view_270 = torch.ops.aten.view.default(mul_100, [13, 4096]);  mul_100 = None
    mm_79 = torch.ops.aten.mm.default(view_270, t_79)
    view_271 = torch.ops.aten.view.default(mm_79, [1, 13, 4096]);  mm_79 = None
    view_272 = torch.ops.aten.view.default(view_267, [1, 13, 32, 128]);  view_267 = None
    transpose_55 = torch.ops.aten.transpose.int(view_272, 1, 2);  view_272 = None
    view_273 = torch.ops.aten.view.default(view_269, [1, 13, 32, 128]);  view_269 = None
    transpose_56 = torch.ops.aten.transpose.int(view_273, 1, 2);  view_273 = None
    view_274 = torch.ops.aten.view.default(view_271, [1, 13, 32, 128]);  view_271 = None
    transpose_57 = torch.ops.aten.transpose.int(view_274, 1, 2);  view_274 = None
    slice_117 = torch.ops.aten.slice.Tensor(primals_314, 0, 0, 9223372036854775807);  primals_314 = None
    slice_118 = torch.ops.aten.slice.Tensor(slice_117, 1, 0, 9223372036854775807);  slice_117 = None
    slice_119 = torch.ops.aten.slice.Tensor(slice_118, 2, 0, 13);  slice_118 = None
    slice_120 = torch.ops.aten.slice.Tensor(primals_315, 0, 0, 9223372036854775807);  primals_315 = None
    slice_121 = torch.ops.aten.slice.Tensor(slice_120, 1, 0, 9223372036854775807);  slice_120 = None
    slice_122 = torch.ops.aten.slice.Tensor(slice_121, 2, 0, 13);  slice_121 = None
    squeeze_44 = torch.ops.aten.squeeze.dim(slice_119, 1);  slice_119 = None
    squeeze_45 = torch.ops.aten.squeeze.dim(squeeze_44, 0);  squeeze_44 = None
    squeeze_46 = torch.ops.aten.squeeze.dim(slice_122, 1);  slice_122 = None
    squeeze_47 = torch.ops.aten.squeeze.dim(squeeze_46, 0);  squeeze_46 = None
    index_22 = torch.ops.aten.index.Tensor(squeeze_45, [view]);  squeeze_45 = None
    unsqueeze_29 = torch.ops.aten.unsqueeze.default(index_22, 1);  index_22 = None
    index_23 = torch.ops.aten.index.Tensor(squeeze_47, [view]);  squeeze_47 = None
    unsqueeze_30 = torch.ops.aten.unsqueeze.default(index_23, 1);  index_23 = None
    mul_101 = torch.ops.aten.mul.Tensor(transpose_55, unsqueeze_29)
    slice_123 = torch.ops.aten.slice.Tensor(transpose_55, 3, 0, 64)
    slice_124 = torch.ops.aten.slice.Tensor(transpose_55, 3, 64, 9223372036854775807);  transpose_55 = None
    neg_22 = torch.ops.aten.neg.default(slice_124);  slice_124 = None
    cat_22 = torch.ops.aten.cat.default([neg_22, slice_123], -1);  neg_22 = slice_123 = None
    mul_102 = torch.ops.aten.mul.Tensor(cat_22, unsqueeze_30);  cat_22 = None
    add_80 = torch.ops.aten.add.Tensor(mul_101, mul_102);  mul_101 = mul_102 = None
    mul_103 = torch.ops.aten.mul.Tensor(transpose_56, unsqueeze_29)
    slice_125 = torch.ops.aten.slice.Tensor(transpose_56, 3, 0, 64)
    slice_126 = torch.ops.aten.slice.Tensor(transpose_56, 3, 64, 9223372036854775807);  transpose_56 = None
    neg_23 = torch.ops.aten.neg.default(slice_126);  slice_126 = None
    cat_23 = torch.ops.aten.cat.default([neg_23, slice_125], -1);  neg_23 = slice_125 = None
    mul_104 = torch.ops.aten.mul.Tensor(cat_23, unsqueeze_30);  cat_23 = None
    add_81 = torch.ops.aten.add.Tensor(mul_103, mul_104);  mul_103 = mul_104 = None
    transpose_58 = torch.ops.aten.transpose.int(add_81, 2, 3)
    expand_47 = torch.ops.aten.expand.default(add_80, [1, 32, 13, 128]);  add_80 = None
    view_275 = torch.ops.aten.view.default(expand_47, [32, 13, 128]);  expand_47 = None
    expand_48 = torch.ops.aten.expand.default(transpose_58, [1, 32, 128, 13]);  transpose_58 = None
    view_276 = torch.ops.aten.view.default(expand_48, [32, 128, 13]);  expand_48 = None
    bmm_22 = torch.ops.aten.bmm.default(view_275, view_276)
    view_277 = torch.ops.aten.view.default(bmm_22, [1, 32, 13, 13]);  bmm_22 = None
    div_11 = torch.ops.aten.div.Tensor(view_277, 11.313708498984761);  view_277 = None
    add_82 = torch.ops.aten.add.Tensor(div_11, add_1);  div_11 = None
    _softmax_11 = torch.ops.aten._softmax.default(add_82, -1, False);  add_82 = None
    expand_49 = torch.ops.aten.expand.default(_softmax_11, [1, 32, 13, 13])
    view_278 = torch.ops.aten.view.default(expand_49, [32, 13, 13]);  expand_49 = None
    expand_50 = torch.ops.aten.expand.default(transpose_57, [1, 32, 13, 128])
    view_279 = torch.ops.aten.view.default(expand_50, [32, 13, 128]);  expand_50 = None
    bmm_23 = torch.ops.aten.bmm.default(view_278, view_279)
    view_280 = torch.ops.aten.view.default(bmm_23, [1, 32, 13, 128]);  bmm_23 = None
    transpose_59 = torch.ops.aten.transpose.int(view_280, 1, 2);  view_280 = None
    clone_11 = torch.ops.aten.clone.default(transpose_59, memory_format = torch.contiguous_format);  transpose_59 = None
    view_281 = torch.ops.aten.view.default(clone_11, [1, 13, 4096]);  clone_11 = None
    t_80 = torch.ops.aten.t.default(primals_147);  primals_147 = None
    view_282 = torch.ops.aten.view.default(view_281, [13, 4096]);  view_281 = None
    mm_80 = torch.ops.aten.mm.default(view_282, t_80)
    view_283 = torch.ops.aten.view.default(mm_80, [1, 13, 4096]);  mm_80 = None
    add_83 = torch.ops.aten.add.Tensor(add_78, view_283);  view_283 = None
    pow_24 = torch.ops.aten.pow.Tensor_Scalar(add_83, 2)
    mean_23 = torch.ops.aten.mean.dim(pow_24, [-1], True);  pow_24 = None
    add_84 = torch.ops.aten.add.Tensor(mean_23, 1e-06);  mean_23 = None
    rsqrt_23 = torch.ops.aten.rsqrt.default(add_84);  add_84 = None
    mul_105 = torch.ops.aten.mul.Tensor(add_83, rsqrt_23)
    mul_106 = torch.ops.aten.mul.Tensor(primals_24, mul_105)
    t_81 = torch.ops.aten.t.default(primals_148);  primals_148 = None
    view_284 = torch.ops.aten.view.default(mul_106, [13, 4096])
    mm_81 = torch.ops.aten.mm.default(view_284, t_81)
    view_285 = torch.ops.aten.view.default(mm_81, [1, 13, 11008]);  mm_81 = None
    silu_11 = torch.ops.aten.silu.default(view_285)
    t_82 = torch.ops.aten.t.default(primals_149);  primals_149 = None
    view_286 = torch.ops.aten.view.default(mul_106, [13, 4096]);  mul_106 = None
    mm_82 = torch.ops.aten.mm.default(view_286, t_82)
    view_287 = torch.ops.aten.view.default(mm_82, [1, 13, 11008]);  mm_82 = None
    mul_107 = torch.ops.aten.mul.Tensor(silu_11, view_287)
    t_83 = torch.ops.aten.t.default(primals_150);  primals_150 = None
    view_288 = torch.ops.aten.view.default(mul_107, [13, 11008]);  mul_107 = None
    mm_83 = torch.ops.aten.mm.default(view_288, t_83)
    view_289 = torch.ops.aten.view.default(mm_83, [1, 13, 4096]);  mm_83 = None
    add_85 = torch.ops.aten.add.Tensor(add_83, view_289);  view_289 = None
    pow_25 = torch.ops.aten.pow.Tensor_Scalar(add_85, 2)
    mean_24 = torch.ops.aten.mean.dim(pow_25, [-1], True);  pow_25 = None
    add_86 = torch.ops.aten.add.Tensor(mean_24, 1e-06);  mean_24 = None
    rsqrt_24 = torch.ops.aten.rsqrt.default(add_86);  add_86 = None
    mul_108 = torch.ops.aten.mul.Tensor(add_85, rsqrt_24)
    mul_109 = torch.ops.aten.mul.Tensor(primals_25, mul_108)
    t_84 = torch.ops.aten.t.default(primals_151);  primals_151 = None
    view_290 = torch.ops.aten.view.default(mul_109, [13, 4096])
    mm_84 = torch.ops.aten.mm.default(view_290, t_84)
    view_291 = torch.ops.aten.view.default(mm_84, [1, 13, 4096]);  mm_84 = None
    t_85 = torch.ops.aten.t.default(primals_152);  primals_152 = None
    view_292 = torch.ops.aten.view.default(mul_109, [13, 4096])
    mm_85 = torch.ops.aten.mm.default(view_292, t_85)
    view_293 = torch.ops.aten.view.default(mm_85, [1, 13, 4096]);  mm_85 = None
    t_86 = torch.ops.aten.t.default(primals_153);  primals_153 = None
    view_294 = torch.ops.aten.view.default(mul_109, [13, 4096]);  mul_109 = None
    mm_86 = torch.ops.aten.mm.default(view_294, t_86)
    view_295 = torch.ops.aten.view.default(mm_86, [1, 13, 4096]);  mm_86 = None
    view_296 = torch.ops.aten.view.default(view_291, [1, 13, 32, 128]);  view_291 = None
    transpose_60 = torch.ops.aten.transpose.int(view_296, 1, 2);  view_296 = None
    view_297 = torch.ops.aten.view.default(view_293, [1, 13, 32, 128]);  view_293 = None
    transpose_61 = torch.ops.aten.transpose.int(view_297, 1, 2);  view_297 = None
    view_298 = torch.ops.aten.view.default(view_295, [1, 13, 32, 128]);  view_295 = None
    transpose_62 = torch.ops.aten.transpose.int(view_298, 1, 2);  view_298 = None
    slice_127 = torch.ops.aten.slice.Tensor(primals_316, 0, 0, 9223372036854775807);  primals_316 = None
    slice_128 = torch.ops.aten.slice.Tensor(slice_127, 1, 0, 9223372036854775807);  slice_127 = None
    slice_129 = torch.ops.aten.slice.Tensor(slice_128, 2, 0, 13);  slice_128 = None
    slice_130 = torch.ops.aten.slice.Tensor(primals_317, 0, 0, 9223372036854775807);  primals_317 = None
    slice_131 = torch.ops.aten.slice.Tensor(slice_130, 1, 0, 9223372036854775807);  slice_130 = None
    slice_132 = torch.ops.aten.slice.Tensor(slice_131, 2, 0, 13);  slice_131 = None
    squeeze_48 = torch.ops.aten.squeeze.dim(slice_129, 1);  slice_129 = None
    squeeze_49 = torch.ops.aten.squeeze.dim(squeeze_48, 0);  squeeze_48 = None
    squeeze_50 = torch.ops.aten.squeeze.dim(slice_132, 1);  slice_132 = None
    squeeze_51 = torch.ops.aten.squeeze.dim(squeeze_50, 0);  squeeze_50 = None
    index_24 = torch.ops.aten.index.Tensor(squeeze_49, [view]);  squeeze_49 = None
    unsqueeze_31 = torch.ops.aten.unsqueeze.default(index_24, 1);  index_24 = None
    index_25 = torch.ops.aten.index.Tensor(squeeze_51, [view]);  squeeze_51 = None
    unsqueeze_32 = torch.ops.aten.unsqueeze.default(index_25, 1);  index_25 = None
    mul_110 = torch.ops.aten.mul.Tensor(transpose_60, unsqueeze_31)
    slice_133 = torch.ops.aten.slice.Tensor(transpose_60, 3, 0, 64)
    slice_134 = torch.ops.aten.slice.Tensor(transpose_60, 3, 64, 9223372036854775807);  transpose_60 = None
    neg_24 = torch.ops.aten.neg.default(slice_134);  slice_134 = None
    cat_24 = torch.ops.aten.cat.default([neg_24, slice_133], -1);  neg_24 = slice_133 = None
    mul_111 = torch.ops.aten.mul.Tensor(cat_24, unsqueeze_32);  cat_24 = None
    add_87 = torch.ops.aten.add.Tensor(mul_110, mul_111);  mul_110 = mul_111 = None
    mul_112 = torch.ops.aten.mul.Tensor(transpose_61, unsqueeze_31)
    slice_135 = torch.ops.aten.slice.Tensor(transpose_61, 3, 0, 64)
    slice_136 = torch.ops.aten.slice.Tensor(transpose_61, 3, 64, 9223372036854775807);  transpose_61 = None
    neg_25 = torch.ops.aten.neg.default(slice_136);  slice_136 = None
    cat_25 = torch.ops.aten.cat.default([neg_25, slice_135], -1);  neg_25 = slice_135 = None
    mul_113 = torch.ops.aten.mul.Tensor(cat_25, unsqueeze_32);  cat_25 = None
    add_88 = torch.ops.aten.add.Tensor(mul_112, mul_113);  mul_112 = mul_113 = None
    transpose_63 = torch.ops.aten.transpose.int(add_88, 2, 3)
    expand_51 = torch.ops.aten.expand.default(add_87, [1, 32, 13, 128]);  add_87 = None
    view_299 = torch.ops.aten.view.default(expand_51, [32, 13, 128]);  expand_51 = None
    expand_52 = torch.ops.aten.expand.default(transpose_63, [1, 32, 128, 13]);  transpose_63 = None
    view_300 = torch.ops.aten.view.default(expand_52, [32, 128, 13]);  expand_52 = None
    bmm_24 = torch.ops.aten.bmm.default(view_299, view_300)
    view_301 = torch.ops.aten.view.default(bmm_24, [1, 32, 13, 13]);  bmm_24 = None
    div_12 = torch.ops.aten.div.Tensor(view_301, 11.313708498984761);  view_301 = None
    add_89 = torch.ops.aten.add.Tensor(div_12, add_1);  div_12 = None
    _softmax_12 = torch.ops.aten._softmax.default(add_89, -1, False);  add_89 = None
    expand_53 = torch.ops.aten.expand.default(_softmax_12, [1, 32, 13, 13])
    view_302 = torch.ops.aten.view.default(expand_53, [32, 13, 13]);  expand_53 = None
    expand_54 = torch.ops.aten.expand.default(transpose_62, [1, 32, 13, 128])
    view_303 = torch.ops.aten.view.default(expand_54, [32, 13, 128]);  expand_54 = None
    bmm_25 = torch.ops.aten.bmm.default(view_302, view_303)
    view_304 = torch.ops.aten.view.default(bmm_25, [1, 32, 13, 128]);  bmm_25 = None
    transpose_64 = torch.ops.aten.transpose.int(view_304, 1, 2);  view_304 = None
    clone_12 = torch.ops.aten.clone.default(transpose_64, memory_format = torch.contiguous_format);  transpose_64 = None
    view_305 = torch.ops.aten.view.default(clone_12, [1, 13, 4096]);  clone_12 = None
    t_87 = torch.ops.aten.t.default(primals_154);  primals_154 = None
    view_306 = torch.ops.aten.view.default(view_305, [13, 4096]);  view_305 = None
    mm_87 = torch.ops.aten.mm.default(view_306, t_87)
    view_307 = torch.ops.aten.view.default(mm_87, [1, 13, 4096]);  mm_87 = None
    add_90 = torch.ops.aten.add.Tensor(add_85, view_307);  view_307 = None
    pow_26 = torch.ops.aten.pow.Tensor_Scalar(add_90, 2)
    mean_25 = torch.ops.aten.mean.dim(pow_26, [-1], True);  pow_26 = None
    add_91 = torch.ops.aten.add.Tensor(mean_25, 1e-06);  mean_25 = None
    rsqrt_25 = torch.ops.aten.rsqrt.default(add_91);  add_91 = None
    mul_114 = torch.ops.aten.mul.Tensor(add_90, rsqrt_25)
    mul_115 = torch.ops.aten.mul.Tensor(primals_26, mul_114)
    t_88 = torch.ops.aten.t.default(primals_155);  primals_155 = None
    view_308 = torch.ops.aten.view.default(mul_115, [13, 4096])
    mm_88 = torch.ops.aten.mm.default(view_308, t_88)
    view_309 = torch.ops.aten.view.default(mm_88, [1, 13, 11008]);  mm_88 = None
    silu_12 = torch.ops.aten.silu.default(view_309)
    t_89 = torch.ops.aten.t.default(primals_156);  primals_156 = None
    view_310 = torch.ops.aten.view.default(mul_115, [13, 4096]);  mul_115 = None
    mm_89 = torch.ops.aten.mm.default(view_310, t_89)
    view_311 = torch.ops.aten.view.default(mm_89, [1, 13, 11008]);  mm_89 = None
    mul_116 = torch.ops.aten.mul.Tensor(silu_12, view_311)
    t_90 = torch.ops.aten.t.default(primals_157);  primals_157 = None
    view_312 = torch.ops.aten.view.default(mul_116, [13, 11008]);  mul_116 = None
    mm_90 = torch.ops.aten.mm.default(view_312, t_90)
    view_313 = torch.ops.aten.view.default(mm_90, [1, 13, 4096]);  mm_90 = None
    add_92 = torch.ops.aten.add.Tensor(add_90, view_313);  view_313 = None
    pow_27 = torch.ops.aten.pow.Tensor_Scalar(add_92, 2)
    mean_26 = torch.ops.aten.mean.dim(pow_27, [-1], True);  pow_27 = None
    add_93 = torch.ops.aten.add.Tensor(mean_26, 1e-06);  mean_26 = None
    rsqrt_26 = torch.ops.aten.rsqrt.default(add_93);  add_93 = None
    mul_117 = torch.ops.aten.mul.Tensor(add_92, rsqrt_26)
    mul_118 = torch.ops.aten.mul.Tensor(primals_27, mul_117)
    t_91 = torch.ops.aten.t.default(primals_158);  primals_158 = None
    view_314 = torch.ops.aten.view.default(mul_118, [13, 4096])
    mm_91 = torch.ops.aten.mm.default(view_314, t_91)
    view_315 = torch.ops.aten.view.default(mm_91, [1, 13, 4096]);  mm_91 = None
    t_92 = torch.ops.aten.t.default(primals_159);  primals_159 = None
    view_316 = torch.ops.aten.view.default(mul_118, [13, 4096])
    mm_92 = torch.ops.aten.mm.default(view_316, t_92)
    view_317 = torch.ops.aten.view.default(mm_92, [1, 13, 4096]);  mm_92 = None
    t_93 = torch.ops.aten.t.default(primals_160);  primals_160 = None
    view_318 = torch.ops.aten.view.default(mul_118, [13, 4096]);  mul_118 = None
    mm_93 = torch.ops.aten.mm.default(view_318, t_93)
    view_319 = torch.ops.aten.view.default(mm_93, [1, 13, 4096]);  mm_93 = None
    view_320 = torch.ops.aten.view.default(view_315, [1, 13, 32, 128]);  view_315 = None
    transpose_65 = torch.ops.aten.transpose.int(view_320, 1, 2);  view_320 = None
    view_321 = torch.ops.aten.view.default(view_317, [1, 13, 32, 128]);  view_317 = None
    transpose_66 = torch.ops.aten.transpose.int(view_321, 1, 2);  view_321 = None
    view_322 = torch.ops.aten.view.default(view_319, [1, 13, 32, 128]);  view_319 = None
    transpose_67 = torch.ops.aten.transpose.int(view_322, 1, 2);  view_322 = None
    slice_137 = torch.ops.aten.slice.Tensor(primals_318, 0, 0, 9223372036854775807);  primals_318 = None
    slice_138 = torch.ops.aten.slice.Tensor(slice_137, 1, 0, 9223372036854775807);  slice_137 = None
    slice_139 = torch.ops.aten.slice.Tensor(slice_138, 2, 0, 13);  slice_138 = None
    slice_140 = torch.ops.aten.slice.Tensor(primals_319, 0, 0, 9223372036854775807);  primals_319 = None
    slice_141 = torch.ops.aten.slice.Tensor(slice_140, 1, 0, 9223372036854775807);  slice_140 = None
    slice_142 = torch.ops.aten.slice.Tensor(slice_141, 2, 0, 13);  slice_141 = None
    squeeze_52 = torch.ops.aten.squeeze.dim(slice_139, 1);  slice_139 = None
    squeeze_53 = torch.ops.aten.squeeze.dim(squeeze_52, 0);  squeeze_52 = None
    squeeze_54 = torch.ops.aten.squeeze.dim(slice_142, 1);  slice_142 = None
    squeeze_55 = torch.ops.aten.squeeze.dim(squeeze_54, 0);  squeeze_54 = None
    index_26 = torch.ops.aten.index.Tensor(squeeze_53, [view]);  squeeze_53 = None
    unsqueeze_33 = torch.ops.aten.unsqueeze.default(index_26, 1);  index_26 = None
    index_27 = torch.ops.aten.index.Tensor(squeeze_55, [view]);  squeeze_55 = None
    unsqueeze_34 = torch.ops.aten.unsqueeze.default(index_27, 1);  index_27 = None
    mul_119 = torch.ops.aten.mul.Tensor(transpose_65, unsqueeze_33)
    slice_143 = torch.ops.aten.slice.Tensor(transpose_65, 3, 0, 64)
    slice_144 = torch.ops.aten.slice.Tensor(transpose_65, 3, 64, 9223372036854775807);  transpose_65 = None
    neg_26 = torch.ops.aten.neg.default(slice_144);  slice_144 = None
    cat_26 = torch.ops.aten.cat.default([neg_26, slice_143], -1);  neg_26 = slice_143 = None
    mul_120 = torch.ops.aten.mul.Tensor(cat_26, unsqueeze_34);  cat_26 = None
    add_94 = torch.ops.aten.add.Tensor(mul_119, mul_120);  mul_119 = mul_120 = None
    mul_121 = torch.ops.aten.mul.Tensor(transpose_66, unsqueeze_33)
    slice_145 = torch.ops.aten.slice.Tensor(transpose_66, 3, 0, 64)
    slice_146 = torch.ops.aten.slice.Tensor(transpose_66, 3, 64, 9223372036854775807);  transpose_66 = None
    neg_27 = torch.ops.aten.neg.default(slice_146);  slice_146 = None
    cat_27 = torch.ops.aten.cat.default([neg_27, slice_145], -1);  neg_27 = slice_145 = None
    mul_122 = torch.ops.aten.mul.Tensor(cat_27, unsqueeze_34);  cat_27 = None
    add_95 = torch.ops.aten.add.Tensor(mul_121, mul_122);  mul_121 = mul_122 = None
    transpose_68 = torch.ops.aten.transpose.int(add_95, 2, 3)
    expand_55 = torch.ops.aten.expand.default(add_94, [1, 32, 13, 128]);  add_94 = None
    view_323 = torch.ops.aten.view.default(expand_55, [32, 13, 128]);  expand_55 = None
    expand_56 = torch.ops.aten.expand.default(transpose_68, [1, 32, 128, 13]);  transpose_68 = None
    view_324 = torch.ops.aten.view.default(expand_56, [32, 128, 13]);  expand_56 = None
    bmm_26 = torch.ops.aten.bmm.default(view_323, view_324)
    view_325 = torch.ops.aten.view.default(bmm_26, [1, 32, 13, 13]);  bmm_26 = None
    div_13 = torch.ops.aten.div.Tensor(view_325, 11.313708498984761);  view_325 = None
    add_96 = torch.ops.aten.add.Tensor(div_13, add_1);  div_13 = None
    _softmax_13 = torch.ops.aten._softmax.default(add_96, -1, False);  add_96 = None
    expand_57 = torch.ops.aten.expand.default(_softmax_13, [1, 32, 13, 13])
    view_326 = torch.ops.aten.view.default(expand_57, [32, 13, 13]);  expand_57 = None
    expand_58 = torch.ops.aten.expand.default(transpose_67, [1, 32, 13, 128])
    view_327 = torch.ops.aten.view.default(expand_58, [32, 13, 128]);  expand_58 = None
    bmm_27 = torch.ops.aten.bmm.default(view_326, view_327)
    view_328 = torch.ops.aten.view.default(bmm_27, [1, 32, 13, 128]);  bmm_27 = None
    transpose_69 = torch.ops.aten.transpose.int(view_328, 1, 2);  view_328 = None
    clone_13 = torch.ops.aten.clone.default(transpose_69, memory_format = torch.contiguous_format);  transpose_69 = None
    view_329 = torch.ops.aten.view.default(clone_13, [1, 13, 4096]);  clone_13 = None
    t_94 = torch.ops.aten.t.default(primals_161);  primals_161 = None
    view_330 = torch.ops.aten.view.default(view_329, [13, 4096]);  view_329 = None
    mm_94 = torch.ops.aten.mm.default(view_330, t_94)
    view_331 = torch.ops.aten.view.default(mm_94, [1, 13, 4096]);  mm_94 = None
    add_97 = torch.ops.aten.add.Tensor(add_92, view_331);  view_331 = None
    pow_28 = torch.ops.aten.pow.Tensor_Scalar(add_97, 2)
    mean_27 = torch.ops.aten.mean.dim(pow_28, [-1], True);  pow_28 = None
    add_98 = torch.ops.aten.add.Tensor(mean_27, 1e-06);  mean_27 = None
    rsqrt_27 = torch.ops.aten.rsqrt.default(add_98);  add_98 = None
    mul_123 = torch.ops.aten.mul.Tensor(add_97, rsqrt_27)
    mul_124 = torch.ops.aten.mul.Tensor(primals_28, mul_123)
    t_95 = torch.ops.aten.t.default(primals_162);  primals_162 = None
    view_332 = torch.ops.aten.view.default(mul_124, [13, 4096])
    mm_95 = torch.ops.aten.mm.default(view_332, t_95)
    view_333 = torch.ops.aten.view.default(mm_95, [1, 13, 11008]);  mm_95 = None
    silu_13 = torch.ops.aten.silu.default(view_333)
    t_96 = torch.ops.aten.t.default(primals_163);  primals_163 = None
    view_334 = torch.ops.aten.view.default(mul_124, [13, 4096]);  mul_124 = None
    mm_96 = torch.ops.aten.mm.default(view_334, t_96)
    view_335 = torch.ops.aten.view.default(mm_96, [1, 13, 11008]);  mm_96 = None
    mul_125 = torch.ops.aten.mul.Tensor(silu_13, view_335)
    t_97 = torch.ops.aten.t.default(primals_164);  primals_164 = None
    view_336 = torch.ops.aten.view.default(mul_125, [13, 11008]);  mul_125 = None
    mm_97 = torch.ops.aten.mm.default(view_336, t_97)
    view_337 = torch.ops.aten.view.default(mm_97, [1, 13, 4096]);  mm_97 = None
    add_99 = torch.ops.aten.add.Tensor(add_97, view_337);  view_337 = None
    pow_29 = torch.ops.aten.pow.Tensor_Scalar(add_99, 2)
    mean_28 = torch.ops.aten.mean.dim(pow_29, [-1], True);  pow_29 = None
    add_100 = torch.ops.aten.add.Tensor(mean_28, 1e-06);  mean_28 = None
    rsqrt_28 = torch.ops.aten.rsqrt.default(add_100);  add_100 = None
    mul_126 = torch.ops.aten.mul.Tensor(add_99, rsqrt_28)
    mul_127 = torch.ops.aten.mul.Tensor(primals_29, mul_126)
    t_98 = torch.ops.aten.t.default(primals_165);  primals_165 = None
    view_338 = torch.ops.aten.view.default(mul_127, [13, 4096])
    mm_98 = torch.ops.aten.mm.default(view_338, t_98)
    view_339 = torch.ops.aten.view.default(mm_98, [1, 13, 4096]);  mm_98 = None
    t_99 = torch.ops.aten.t.default(primals_166);  primals_166 = None
    view_340 = torch.ops.aten.view.default(mul_127, [13, 4096])
    mm_99 = torch.ops.aten.mm.default(view_340, t_99)
    view_341 = torch.ops.aten.view.default(mm_99, [1, 13, 4096]);  mm_99 = None
    t_100 = torch.ops.aten.t.default(primals_167);  primals_167 = None
    view_342 = torch.ops.aten.view.default(mul_127, [13, 4096]);  mul_127 = None
    mm_100 = torch.ops.aten.mm.default(view_342, t_100)
    view_343 = torch.ops.aten.view.default(mm_100, [1, 13, 4096]);  mm_100 = None
    view_344 = torch.ops.aten.view.default(view_339, [1, 13, 32, 128]);  view_339 = None
    transpose_70 = torch.ops.aten.transpose.int(view_344, 1, 2);  view_344 = None
    view_345 = torch.ops.aten.view.default(view_341, [1, 13, 32, 128]);  view_341 = None
    transpose_71 = torch.ops.aten.transpose.int(view_345, 1, 2);  view_345 = None
    view_346 = torch.ops.aten.view.default(view_343, [1, 13, 32, 128]);  view_343 = None
    transpose_72 = torch.ops.aten.transpose.int(view_346, 1, 2);  view_346 = None
    slice_147 = torch.ops.aten.slice.Tensor(primals_320, 0, 0, 9223372036854775807);  primals_320 = None
    slice_148 = torch.ops.aten.slice.Tensor(slice_147, 1, 0, 9223372036854775807);  slice_147 = None
    slice_149 = torch.ops.aten.slice.Tensor(slice_148, 2, 0, 13);  slice_148 = None
    slice_150 = torch.ops.aten.slice.Tensor(primals_321, 0, 0, 9223372036854775807);  primals_321 = None
    slice_151 = torch.ops.aten.slice.Tensor(slice_150, 1, 0, 9223372036854775807);  slice_150 = None
    slice_152 = torch.ops.aten.slice.Tensor(slice_151, 2, 0, 13);  slice_151 = None
    squeeze_56 = torch.ops.aten.squeeze.dim(slice_149, 1);  slice_149 = None
    squeeze_57 = torch.ops.aten.squeeze.dim(squeeze_56, 0);  squeeze_56 = None
    squeeze_58 = torch.ops.aten.squeeze.dim(slice_152, 1);  slice_152 = None
    squeeze_59 = torch.ops.aten.squeeze.dim(squeeze_58, 0);  squeeze_58 = None
    index_28 = torch.ops.aten.index.Tensor(squeeze_57, [view]);  squeeze_57 = None
    unsqueeze_35 = torch.ops.aten.unsqueeze.default(index_28, 1);  index_28 = None
    index_29 = torch.ops.aten.index.Tensor(squeeze_59, [view]);  squeeze_59 = None
    unsqueeze_36 = torch.ops.aten.unsqueeze.default(index_29, 1);  index_29 = None
    mul_128 = torch.ops.aten.mul.Tensor(transpose_70, unsqueeze_35)
    slice_153 = torch.ops.aten.slice.Tensor(transpose_70, 3, 0, 64)
    slice_154 = torch.ops.aten.slice.Tensor(transpose_70, 3, 64, 9223372036854775807);  transpose_70 = None
    neg_28 = torch.ops.aten.neg.default(slice_154);  slice_154 = None
    cat_28 = torch.ops.aten.cat.default([neg_28, slice_153], -1);  neg_28 = slice_153 = None
    mul_129 = torch.ops.aten.mul.Tensor(cat_28, unsqueeze_36);  cat_28 = None
    add_101 = torch.ops.aten.add.Tensor(mul_128, mul_129);  mul_128 = mul_129 = None
    mul_130 = torch.ops.aten.mul.Tensor(transpose_71, unsqueeze_35)
    slice_155 = torch.ops.aten.slice.Tensor(transpose_71, 3, 0, 64)
    slice_156 = torch.ops.aten.slice.Tensor(transpose_71, 3, 64, 9223372036854775807);  transpose_71 = None
    neg_29 = torch.ops.aten.neg.default(slice_156);  slice_156 = None
    cat_29 = torch.ops.aten.cat.default([neg_29, slice_155], -1);  neg_29 = slice_155 = None
    mul_131 = torch.ops.aten.mul.Tensor(cat_29, unsqueeze_36);  cat_29 = None
    add_102 = torch.ops.aten.add.Tensor(mul_130, mul_131);  mul_130 = mul_131 = None
    transpose_73 = torch.ops.aten.transpose.int(add_102, 2, 3)
    expand_59 = torch.ops.aten.expand.default(add_101, [1, 32, 13, 128]);  add_101 = None
    view_347 = torch.ops.aten.view.default(expand_59, [32, 13, 128]);  expand_59 = None
    expand_60 = torch.ops.aten.expand.default(transpose_73, [1, 32, 128, 13]);  transpose_73 = None
    view_348 = torch.ops.aten.view.default(expand_60, [32, 128, 13]);  expand_60 = None
    bmm_28 = torch.ops.aten.bmm.default(view_347, view_348)
    view_349 = torch.ops.aten.view.default(bmm_28, [1, 32, 13, 13]);  bmm_28 = None
    div_14 = torch.ops.aten.div.Tensor(view_349, 11.313708498984761);  view_349 = None
    add_103 = torch.ops.aten.add.Tensor(div_14, add_1);  div_14 = None
    _softmax_14 = torch.ops.aten._softmax.default(add_103, -1, False);  add_103 = None
    expand_61 = torch.ops.aten.expand.default(_softmax_14, [1, 32, 13, 13])
    view_350 = torch.ops.aten.view.default(expand_61, [32, 13, 13]);  expand_61 = None
    expand_62 = torch.ops.aten.expand.default(transpose_72, [1, 32, 13, 128])
    view_351 = torch.ops.aten.view.default(expand_62, [32, 13, 128]);  expand_62 = None
    bmm_29 = torch.ops.aten.bmm.default(view_350, view_351)
    view_352 = torch.ops.aten.view.default(bmm_29, [1, 32, 13, 128]);  bmm_29 = None
    transpose_74 = torch.ops.aten.transpose.int(view_352, 1, 2);  view_352 = None
    clone_14 = torch.ops.aten.clone.default(transpose_74, memory_format = torch.contiguous_format);  transpose_74 = None
    view_353 = torch.ops.aten.view.default(clone_14, [1, 13, 4096]);  clone_14 = None
    t_101 = torch.ops.aten.t.default(primals_168);  primals_168 = None
    view_354 = torch.ops.aten.view.default(view_353, [13, 4096]);  view_353 = None
    mm_101 = torch.ops.aten.mm.default(view_354, t_101)
    view_355 = torch.ops.aten.view.default(mm_101, [1, 13, 4096]);  mm_101 = None
    add_104 = torch.ops.aten.add.Tensor(add_99, view_355);  view_355 = None
    pow_30 = torch.ops.aten.pow.Tensor_Scalar(add_104, 2)
    mean_29 = torch.ops.aten.mean.dim(pow_30, [-1], True);  pow_30 = None
    add_105 = torch.ops.aten.add.Tensor(mean_29, 1e-06);  mean_29 = None
    rsqrt_29 = torch.ops.aten.rsqrt.default(add_105);  add_105 = None
    mul_132 = torch.ops.aten.mul.Tensor(add_104, rsqrt_29)
    mul_133 = torch.ops.aten.mul.Tensor(primals_30, mul_132)
    t_102 = torch.ops.aten.t.default(primals_169);  primals_169 = None
    view_356 = torch.ops.aten.view.default(mul_133, [13, 4096])
    mm_102 = torch.ops.aten.mm.default(view_356, t_102)
    view_357 = torch.ops.aten.view.default(mm_102, [1, 13, 11008]);  mm_102 = None
    silu_14 = torch.ops.aten.silu.default(view_357)
    t_103 = torch.ops.aten.t.default(primals_170);  primals_170 = None
    view_358 = torch.ops.aten.view.default(mul_133, [13, 4096]);  mul_133 = None
    mm_103 = torch.ops.aten.mm.default(view_358, t_103)
    view_359 = torch.ops.aten.view.default(mm_103, [1, 13, 11008]);  mm_103 = None
    mul_134 = torch.ops.aten.mul.Tensor(silu_14, view_359)
    t_104 = torch.ops.aten.t.default(primals_171);  primals_171 = None
    view_360 = torch.ops.aten.view.default(mul_134, [13, 11008]);  mul_134 = None
    mm_104 = torch.ops.aten.mm.default(view_360, t_104)
    view_361 = torch.ops.aten.view.default(mm_104, [1, 13, 4096]);  mm_104 = None
    add_106 = torch.ops.aten.add.Tensor(add_104, view_361);  view_361 = None
    pow_31 = torch.ops.aten.pow.Tensor_Scalar(add_106, 2)
    mean_30 = torch.ops.aten.mean.dim(pow_31, [-1], True);  pow_31 = None
    add_107 = torch.ops.aten.add.Tensor(mean_30, 1e-06);  mean_30 = None
    rsqrt_30 = torch.ops.aten.rsqrt.default(add_107);  add_107 = None
    mul_135 = torch.ops.aten.mul.Tensor(add_106, rsqrt_30)
    mul_136 = torch.ops.aten.mul.Tensor(primals_31, mul_135)
    t_105 = torch.ops.aten.t.default(primals_172);  primals_172 = None
    view_362 = torch.ops.aten.view.default(mul_136, [13, 4096])
    mm_105 = torch.ops.aten.mm.default(view_362, t_105)
    view_363 = torch.ops.aten.view.default(mm_105, [1, 13, 4096]);  mm_105 = None
    t_106 = torch.ops.aten.t.default(primals_173);  primals_173 = None
    view_364 = torch.ops.aten.view.default(mul_136, [13, 4096])
    mm_106 = torch.ops.aten.mm.default(view_364, t_106)
    view_365 = torch.ops.aten.view.default(mm_106, [1, 13, 4096]);  mm_106 = None
    t_107 = torch.ops.aten.t.default(primals_174);  primals_174 = None
    view_366 = torch.ops.aten.view.default(mul_136, [13, 4096]);  mul_136 = None
    mm_107 = torch.ops.aten.mm.default(view_366, t_107)
    view_367 = torch.ops.aten.view.default(mm_107, [1, 13, 4096]);  mm_107 = None
    view_368 = torch.ops.aten.view.default(view_363, [1, 13, 32, 128]);  view_363 = None
    transpose_75 = torch.ops.aten.transpose.int(view_368, 1, 2);  view_368 = None
    view_369 = torch.ops.aten.view.default(view_365, [1, 13, 32, 128]);  view_365 = None
    transpose_76 = torch.ops.aten.transpose.int(view_369, 1, 2);  view_369 = None
    view_370 = torch.ops.aten.view.default(view_367, [1, 13, 32, 128]);  view_367 = None
    transpose_77 = torch.ops.aten.transpose.int(view_370, 1, 2);  view_370 = None
    slice_157 = torch.ops.aten.slice.Tensor(primals_322, 0, 0, 9223372036854775807);  primals_322 = None
    slice_158 = torch.ops.aten.slice.Tensor(slice_157, 1, 0, 9223372036854775807);  slice_157 = None
    slice_159 = torch.ops.aten.slice.Tensor(slice_158, 2, 0, 13);  slice_158 = None
    slice_160 = torch.ops.aten.slice.Tensor(primals_323, 0, 0, 9223372036854775807);  primals_323 = None
    slice_161 = torch.ops.aten.slice.Tensor(slice_160, 1, 0, 9223372036854775807);  slice_160 = None
    slice_162 = torch.ops.aten.slice.Tensor(slice_161, 2, 0, 13);  slice_161 = None
    squeeze_60 = torch.ops.aten.squeeze.dim(slice_159, 1);  slice_159 = None
    squeeze_61 = torch.ops.aten.squeeze.dim(squeeze_60, 0);  squeeze_60 = None
    squeeze_62 = torch.ops.aten.squeeze.dim(slice_162, 1);  slice_162 = None
    squeeze_63 = torch.ops.aten.squeeze.dim(squeeze_62, 0);  squeeze_62 = None
    index_30 = torch.ops.aten.index.Tensor(squeeze_61, [view]);  squeeze_61 = None
    unsqueeze_37 = torch.ops.aten.unsqueeze.default(index_30, 1);  index_30 = None
    index_31 = torch.ops.aten.index.Tensor(squeeze_63, [view]);  squeeze_63 = None
    unsqueeze_38 = torch.ops.aten.unsqueeze.default(index_31, 1);  index_31 = None
    mul_137 = torch.ops.aten.mul.Tensor(transpose_75, unsqueeze_37)
    slice_163 = torch.ops.aten.slice.Tensor(transpose_75, 3, 0, 64)
    slice_164 = torch.ops.aten.slice.Tensor(transpose_75, 3, 64, 9223372036854775807);  transpose_75 = None
    neg_30 = torch.ops.aten.neg.default(slice_164);  slice_164 = None
    cat_30 = torch.ops.aten.cat.default([neg_30, slice_163], -1);  neg_30 = slice_163 = None
    mul_138 = torch.ops.aten.mul.Tensor(cat_30, unsqueeze_38);  cat_30 = None
    add_108 = torch.ops.aten.add.Tensor(mul_137, mul_138);  mul_137 = mul_138 = None
    mul_139 = torch.ops.aten.mul.Tensor(transpose_76, unsqueeze_37)
    slice_165 = torch.ops.aten.slice.Tensor(transpose_76, 3, 0, 64)
    slice_166 = torch.ops.aten.slice.Tensor(transpose_76, 3, 64, 9223372036854775807);  transpose_76 = None
    neg_31 = torch.ops.aten.neg.default(slice_166);  slice_166 = None
    cat_31 = torch.ops.aten.cat.default([neg_31, slice_165], -1);  neg_31 = slice_165 = None
    mul_140 = torch.ops.aten.mul.Tensor(cat_31, unsqueeze_38);  cat_31 = None
    add_109 = torch.ops.aten.add.Tensor(mul_139, mul_140);  mul_139 = mul_140 = None
    transpose_78 = torch.ops.aten.transpose.int(add_109, 2, 3)
    expand_63 = torch.ops.aten.expand.default(add_108, [1, 32, 13, 128]);  add_108 = None
    view_371 = torch.ops.aten.view.default(expand_63, [32, 13, 128]);  expand_63 = None
    expand_64 = torch.ops.aten.expand.default(transpose_78, [1, 32, 128, 13]);  transpose_78 = None
    view_372 = torch.ops.aten.view.default(expand_64, [32, 128, 13]);  expand_64 = None
    bmm_30 = torch.ops.aten.bmm.default(view_371, view_372)
    view_373 = torch.ops.aten.view.default(bmm_30, [1, 32, 13, 13]);  bmm_30 = None
    div_15 = torch.ops.aten.div.Tensor(view_373, 11.313708498984761);  view_373 = None
    add_110 = torch.ops.aten.add.Tensor(div_15, add_1);  div_15 = None
    _softmax_15 = torch.ops.aten._softmax.default(add_110, -1, False);  add_110 = None
    expand_65 = torch.ops.aten.expand.default(_softmax_15, [1, 32, 13, 13])
    view_374 = torch.ops.aten.view.default(expand_65, [32, 13, 13]);  expand_65 = None
    expand_66 = torch.ops.aten.expand.default(transpose_77, [1, 32, 13, 128])
    view_375 = torch.ops.aten.view.default(expand_66, [32, 13, 128]);  expand_66 = None
    bmm_31 = torch.ops.aten.bmm.default(view_374, view_375)
    view_376 = torch.ops.aten.view.default(bmm_31, [1, 32, 13, 128]);  bmm_31 = None
    transpose_79 = torch.ops.aten.transpose.int(view_376, 1, 2);  view_376 = None
    clone_15 = torch.ops.aten.clone.default(transpose_79, memory_format = torch.contiguous_format);  transpose_79 = None
    view_377 = torch.ops.aten.view.default(clone_15, [1, 13, 4096]);  clone_15 = None
    t_108 = torch.ops.aten.t.default(primals_175);  primals_175 = None
    view_378 = torch.ops.aten.view.default(view_377, [13, 4096]);  view_377 = None
    mm_108 = torch.ops.aten.mm.default(view_378, t_108)
    view_379 = torch.ops.aten.view.default(mm_108, [1, 13, 4096]);  mm_108 = None
    add_111 = torch.ops.aten.add.Tensor(add_106, view_379);  view_379 = None
    pow_32 = torch.ops.aten.pow.Tensor_Scalar(add_111, 2)
    mean_31 = torch.ops.aten.mean.dim(pow_32, [-1], True);  pow_32 = None
    add_112 = torch.ops.aten.add.Tensor(mean_31, 1e-06);  mean_31 = None
    rsqrt_31 = torch.ops.aten.rsqrt.default(add_112);  add_112 = None
    mul_141 = torch.ops.aten.mul.Tensor(add_111, rsqrt_31)
    mul_142 = torch.ops.aten.mul.Tensor(primals_32, mul_141)
    t_109 = torch.ops.aten.t.default(primals_176);  primals_176 = None
    view_380 = torch.ops.aten.view.default(mul_142, [13, 4096])
    mm_109 = torch.ops.aten.mm.default(view_380, t_109)
    view_381 = torch.ops.aten.view.default(mm_109, [1, 13, 11008]);  mm_109 = None
    silu_15 = torch.ops.aten.silu.default(view_381)
    t_110 = torch.ops.aten.t.default(primals_177);  primals_177 = None
    view_382 = torch.ops.aten.view.default(mul_142, [13, 4096]);  mul_142 = None
    mm_110 = torch.ops.aten.mm.default(view_382, t_110)
    view_383 = torch.ops.aten.view.default(mm_110, [1, 13, 11008]);  mm_110 = None
    mul_143 = torch.ops.aten.mul.Tensor(silu_15, view_383)
    t_111 = torch.ops.aten.t.default(primals_178);  primals_178 = None
    view_384 = torch.ops.aten.view.default(mul_143, [13, 11008]);  mul_143 = None
    mm_111 = torch.ops.aten.mm.default(view_384, t_111)
    view_385 = torch.ops.aten.view.default(mm_111, [1, 13, 4096]);  mm_111 = None
    add_113 = torch.ops.aten.add.Tensor(add_111, view_385);  view_385 = None
    pow_33 = torch.ops.aten.pow.Tensor_Scalar(add_113, 2)
    mean_32 = torch.ops.aten.mean.dim(pow_33, [-1], True);  pow_33 = None
    add_114 = torch.ops.aten.add.Tensor(mean_32, 1e-06);  mean_32 = None
    rsqrt_32 = torch.ops.aten.rsqrt.default(add_114);  add_114 = None
    mul_144 = torch.ops.aten.mul.Tensor(add_113, rsqrt_32)
    mul_145 = torch.ops.aten.mul.Tensor(primals_33, mul_144)
    t_112 = torch.ops.aten.t.default(primals_179);  primals_179 = None
    view_386 = torch.ops.aten.view.default(mul_145, [13, 4096])
    mm_112 = torch.ops.aten.mm.default(view_386, t_112)
    view_387 = torch.ops.aten.view.default(mm_112, [1, 13, 4096]);  mm_112 = None
    t_113 = torch.ops.aten.t.default(primals_180);  primals_180 = None
    view_388 = torch.ops.aten.view.default(mul_145, [13, 4096])
    mm_113 = torch.ops.aten.mm.default(view_388, t_113)
    view_389 = torch.ops.aten.view.default(mm_113, [1, 13, 4096]);  mm_113 = None
    t_114 = torch.ops.aten.t.default(primals_181);  primals_181 = None
    view_390 = torch.ops.aten.view.default(mul_145, [13, 4096]);  mul_145 = None
    mm_114 = torch.ops.aten.mm.default(view_390, t_114)
    view_391 = torch.ops.aten.view.default(mm_114, [1, 13, 4096]);  mm_114 = None
    view_392 = torch.ops.aten.view.default(view_387, [1, 13, 32, 128]);  view_387 = None
    transpose_80 = torch.ops.aten.transpose.int(view_392, 1, 2);  view_392 = None
    view_393 = torch.ops.aten.view.default(view_389, [1, 13, 32, 128]);  view_389 = None
    transpose_81 = torch.ops.aten.transpose.int(view_393, 1, 2);  view_393 = None
    view_394 = torch.ops.aten.view.default(view_391, [1, 13, 32, 128]);  view_391 = None
    transpose_82 = torch.ops.aten.transpose.int(view_394, 1, 2);  view_394 = None
    slice_167 = torch.ops.aten.slice.Tensor(primals_324, 0, 0, 9223372036854775807);  primals_324 = None
    slice_168 = torch.ops.aten.slice.Tensor(slice_167, 1, 0, 9223372036854775807);  slice_167 = None
    slice_169 = torch.ops.aten.slice.Tensor(slice_168, 2, 0, 13);  slice_168 = None
    slice_170 = torch.ops.aten.slice.Tensor(primals_325, 0, 0, 9223372036854775807);  primals_325 = None
    slice_171 = torch.ops.aten.slice.Tensor(slice_170, 1, 0, 9223372036854775807);  slice_170 = None
    slice_172 = torch.ops.aten.slice.Tensor(slice_171, 2, 0, 13);  slice_171 = None
    squeeze_64 = torch.ops.aten.squeeze.dim(slice_169, 1);  slice_169 = None
    squeeze_65 = torch.ops.aten.squeeze.dim(squeeze_64, 0);  squeeze_64 = None
    squeeze_66 = torch.ops.aten.squeeze.dim(slice_172, 1);  slice_172 = None
    squeeze_67 = torch.ops.aten.squeeze.dim(squeeze_66, 0);  squeeze_66 = None
    index_32 = torch.ops.aten.index.Tensor(squeeze_65, [view]);  squeeze_65 = None
    unsqueeze_39 = torch.ops.aten.unsqueeze.default(index_32, 1);  index_32 = None
    index_33 = torch.ops.aten.index.Tensor(squeeze_67, [view]);  squeeze_67 = None
    unsqueeze_40 = torch.ops.aten.unsqueeze.default(index_33, 1);  index_33 = None
    mul_146 = torch.ops.aten.mul.Tensor(transpose_80, unsqueeze_39)
    slice_173 = torch.ops.aten.slice.Tensor(transpose_80, 3, 0, 64)
    slice_174 = torch.ops.aten.slice.Tensor(transpose_80, 3, 64, 9223372036854775807);  transpose_80 = None
    neg_32 = torch.ops.aten.neg.default(slice_174);  slice_174 = None
    cat_32 = torch.ops.aten.cat.default([neg_32, slice_173], -1);  neg_32 = slice_173 = None
    mul_147 = torch.ops.aten.mul.Tensor(cat_32, unsqueeze_40);  cat_32 = None
    add_115 = torch.ops.aten.add.Tensor(mul_146, mul_147);  mul_146 = mul_147 = None
    mul_148 = torch.ops.aten.mul.Tensor(transpose_81, unsqueeze_39)
    slice_175 = torch.ops.aten.slice.Tensor(transpose_81, 3, 0, 64)
    slice_176 = torch.ops.aten.slice.Tensor(transpose_81, 3, 64, 9223372036854775807);  transpose_81 = None
    neg_33 = torch.ops.aten.neg.default(slice_176);  slice_176 = None
    cat_33 = torch.ops.aten.cat.default([neg_33, slice_175], -1);  neg_33 = slice_175 = None
    mul_149 = torch.ops.aten.mul.Tensor(cat_33, unsqueeze_40);  cat_33 = None
    add_116 = torch.ops.aten.add.Tensor(mul_148, mul_149);  mul_148 = mul_149 = None
    transpose_83 = torch.ops.aten.transpose.int(add_116, 2, 3)
    expand_67 = torch.ops.aten.expand.default(add_115, [1, 32, 13, 128]);  add_115 = None
    view_395 = torch.ops.aten.view.default(expand_67, [32, 13, 128]);  expand_67 = None
    expand_68 = torch.ops.aten.expand.default(transpose_83, [1, 32, 128, 13]);  transpose_83 = None
    view_396 = torch.ops.aten.view.default(expand_68, [32, 128, 13]);  expand_68 = None
    bmm_32 = torch.ops.aten.bmm.default(view_395, view_396)
    view_397 = torch.ops.aten.view.default(bmm_32, [1, 32, 13, 13]);  bmm_32 = None
    div_16 = torch.ops.aten.div.Tensor(view_397, 11.313708498984761);  view_397 = None
    add_117 = torch.ops.aten.add.Tensor(div_16, add_1);  div_16 = None
    _softmax_16 = torch.ops.aten._softmax.default(add_117, -1, False);  add_117 = None
    expand_69 = torch.ops.aten.expand.default(_softmax_16, [1, 32, 13, 13])
    view_398 = torch.ops.aten.view.default(expand_69, [32, 13, 13]);  expand_69 = None
    expand_70 = torch.ops.aten.expand.default(transpose_82, [1, 32, 13, 128])
    view_399 = torch.ops.aten.view.default(expand_70, [32, 13, 128]);  expand_70 = None
    bmm_33 = torch.ops.aten.bmm.default(view_398, view_399)
    view_400 = torch.ops.aten.view.default(bmm_33, [1, 32, 13, 128]);  bmm_33 = None
    transpose_84 = torch.ops.aten.transpose.int(view_400, 1, 2);  view_400 = None
    clone_16 = torch.ops.aten.clone.default(transpose_84, memory_format = torch.contiguous_format);  transpose_84 = None
    view_401 = torch.ops.aten.view.default(clone_16, [1, 13, 4096]);  clone_16 = None
    t_115 = torch.ops.aten.t.default(primals_182);  primals_182 = None
    view_402 = torch.ops.aten.view.default(view_401, [13, 4096]);  view_401 = None
    mm_115 = torch.ops.aten.mm.default(view_402, t_115)
    view_403 = torch.ops.aten.view.default(mm_115, [1, 13, 4096]);  mm_115 = None
    add_118 = torch.ops.aten.add.Tensor(add_113, view_403);  view_403 = None
    pow_34 = torch.ops.aten.pow.Tensor_Scalar(add_118, 2)
    mean_33 = torch.ops.aten.mean.dim(pow_34, [-1], True);  pow_34 = None
    add_119 = torch.ops.aten.add.Tensor(mean_33, 1e-06);  mean_33 = None
    rsqrt_33 = torch.ops.aten.rsqrt.default(add_119);  add_119 = None
    mul_150 = torch.ops.aten.mul.Tensor(add_118, rsqrt_33)
    mul_151 = torch.ops.aten.mul.Tensor(primals_34, mul_150)
    t_116 = torch.ops.aten.t.default(primals_183);  primals_183 = None
    view_404 = torch.ops.aten.view.default(mul_151, [13, 4096])
    mm_116 = torch.ops.aten.mm.default(view_404, t_116)
    view_405 = torch.ops.aten.view.default(mm_116, [1, 13, 11008]);  mm_116 = None
    silu_16 = torch.ops.aten.silu.default(view_405)
    t_117 = torch.ops.aten.t.default(primals_184);  primals_184 = None
    view_406 = torch.ops.aten.view.default(mul_151, [13, 4096]);  mul_151 = None
    mm_117 = torch.ops.aten.mm.default(view_406, t_117)
    view_407 = torch.ops.aten.view.default(mm_117, [1, 13, 11008]);  mm_117 = None
    mul_152 = torch.ops.aten.mul.Tensor(silu_16, view_407)
    t_118 = torch.ops.aten.t.default(primals_185);  primals_185 = None
    view_408 = torch.ops.aten.view.default(mul_152, [13, 11008]);  mul_152 = None
    mm_118 = torch.ops.aten.mm.default(view_408, t_118)
    view_409 = torch.ops.aten.view.default(mm_118, [1, 13, 4096]);  mm_118 = None
    add_120 = torch.ops.aten.add.Tensor(add_118, view_409);  view_409 = None
    pow_35 = torch.ops.aten.pow.Tensor_Scalar(add_120, 2)
    mean_34 = torch.ops.aten.mean.dim(pow_35, [-1], True);  pow_35 = None
    add_121 = torch.ops.aten.add.Tensor(mean_34, 1e-06);  mean_34 = None
    rsqrt_34 = torch.ops.aten.rsqrt.default(add_121);  add_121 = None
    mul_153 = torch.ops.aten.mul.Tensor(add_120, rsqrt_34)
    mul_154 = torch.ops.aten.mul.Tensor(primals_35, mul_153)
    t_119 = torch.ops.aten.t.default(primals_186);  primals_186 = None
    view_410 = torch.ops.aten.view.default(mul_154, [13, 4096])
    mm_119 = torch.ops.aten.mm.default(view_410, t_119)
    view_411 = torch.ops.aten.view.default(mm_119, [1, 13, 4096]);  mm_119 = None
    t_120 = torch.ops.aten.t.default(primals_187);  primals_187 = None
    view_412 = torch.ops.aten.view.default(mul_154, [13, 4096])
    mm_120 = torch.ops.aten.mm.default(view_412, t_120)
    view_413 = torch.ops.aten.view.default(mm_120, [1, 13, 4096]);  mm_120 = None
    t_121 = torch.ops.aten.t.default(primals_188);  primals_188 = None
    view_414 = torch.ops.aten.view.default(mul_154, [13, 4096]);  mul_154 = None
    mm_121 = torch.ops.aten.mm.default(view_414, t_121)
    view_415 = torch.ops.aten.view.default(mm_121, [1, 13, 4096]);  mm_121 = None
    view_416 = torch.ops.aten.view.default(view_411, [1, 13, 32, 128]);  view_411 = None
    transpose_85 = torch.ops.aten.transpose.int(view_416, 1, 2);  view_416 = None
    view_417 = torch.ops.aten.view.default(view_413, [1, 13, 32, 128]);  view_413 = None
    transpose_86 = torch.ops.aten.transpose.int(view_417, 1, 2);  view_417 = None
    view_418 = torch.ops.aten.view.default(view_415, [1, 13, 32, 128]);  view_415 = None
    transpose_87 = torch.ops.aten.transpose.int(view_418, 1, 2);  view_418 = None
    slice_177 = torch.ops.aten.slice.Tensor(primals_326, 0, 0, 9223372036854775807);  primals_326 = None
    slice_178 = torch.ops.aten.slice.Tensor(slice_177, 1, 0, 9223372036854775807);  slice_177 = None
    slice_179 = torch.ops.aten.slice.Tensor(slice_178, 2, 0, 13);  slice_178 = None
    slice_180 = torch.ops.aten.slice.Tensor(primals_327, 0, 0, 9223372036854775807);  primals_327 = None
    slice_181 = torch.ops.aten.slice.Tensor(slice_180, 1, 0, 9223372036854775807);  slice_180 = None
    slice_182 = torch.ops.aten.slice.Tensor(slice_181, 2, 0, 13);  slice_181 = None
    squeeze_68 = torch.ops.aten.squeeze.dim(slice_179, 1);  slice_179 = None
    squeeze_69 = torch.ops.aten.squeeze.dim(squeeze_68, 0);  squeeze_68 = None
    squeeze_70 = torch.ops.aten.squeeze.dim(slice_182, 1);  slice_182 = None
    squeeze_71 = torch.ops.aten.squeeze.dim(squeeze_70, 0);  squeeze_70 = None
    index_34 = torch.ops.aten.index.Tensor(squeeze_69, [view]);  squeeze_69 = None
    unsqueeze_41 = torch.ops.aten.unsqueeze.default(index_34, 1);  index_34 = None
    index_35 = torch.ops.aten.index.Tensor(squeeze_71, [view]);  squeeze_71 = None
    unsqueeze_42 = torch.ops.aten.unsqueeze.default(index_35, 1);  index_35 = None
    mul_155 = torch.ops.aten.mul.Tensor(transpose_85, unsqueeze_41)
    slice_183 = torch.ops.aten.slice.Tensor(transpose_85, 3, 0, 64)
    slice_184 = torch.ops.aten.slice.Tensor(transpose_85, 3, 64, 9223372036854775807);  transpose_85 = None
    neg_34 = torch.ops.aten.neg.default(slice_184);  slice_184 = None
    cat_34 = torch.ops.aten.cat.default([neg_34, slice_183], -1);  neg_34 = slice_183 = None
    mul_156 = torch.ops.aten.mul.Tensor(cat_34, unsqueeze_42);  cat_34 = None
    add_122 = torch.ops.aten.add.Tensor(mul_155, mul_156);  mul_155 = mul_156 = None
    mul_157 = torch.ops.aten.mul.Tensor(transpose_86, unsqueeze_41)
    slice_185 = torch.ops.aten.slice.Tensor(transpose_86, 3, 0, 64)
    slice_186 = torch.ops.aten.slice.Tensor(transpose_86, 3, 64, 9223372036854775807);  transpose_86 = None
    neg_35 = torch.ops.aten.neg.default(slice_186);  slice_186 = None
    cat_35 = torch.ops.aten.cat.default([neg_35, slice_185], -1);  neg_35 = slice_185 = None
    mul_158 = torch.ops.aten.mul.Tensor(cat_35, unsqueeze_42);  cat_35 = None
    add_123 = torch.ops.aten.add.Tensor(mul_157, mul_158);  mul_157 = mul_158 = None
    transpose_88 = torch.ops.aten.transpose.int(add_123, 2, 3)
    expand_71 = torch.ops.aten.expand.default(add_122, [1, 32, 13, 128]);  add_122 = None
    view_419 = torch.ops.aten.view.default(expand_71, [32, 13, 128]);  expand_71 = None
    expand_72 = torch.ops.aten.expand.default(transpose_88, [1, 32, 128, 13]);  transpose_88 = None
    view_420 = torch.ops.aten.view.default(expand_72, [32, 128, 13]);  expand_72 = None
    bmm_34 = torch.ops.aten.bmm.default(view_419, view_420)
    view_421 = torch.ops.aten.view.default(bmm_34, [1, 32, 13, 13]);  bmm_34 = None
    div_17 = torch.ops.aten.div.Tensor(view_421, 11.313708498984761);  view_421 = None
    add_124 = torch.ops.aten.add.Tensor(div_17, add_1);  div_17 = None
    _softmax_17 = torch.ops.aten._softmax.default(add_124, -1, False);  add_124 = None
    expand_73 = torch.ops.aten.expand.default(_softmax_17, [1, 32, 13, 13])
    view_422 = torch.ops.aten.view.default(expand_73, [32, 13, 13]);  expand_73 = None
    expand_74 = torch.ops.aten.expand.default(transpose_87, [1, 32, 13, 128])
    view_423 = torch.ops.aten.view.default(expand_74, [32, 13, 128]);  expand_74 = None
    bmm_35 = torch.ops.aten.bmm.default(view_422, view_423)
    view_424 = torch.ops.aten.view.default(bmm_35, [1, 32, 13, 128]);  bmm_35 = None
    transpose_89 = torch.ops.aten.transpose.int(view_424, 1, 2);  view_424 = None
    clone_17 = torch.ops.aten.clone.default(transpose_89, memory_format = torch.contiguous_format);  transpose_89 = None
    view_425 = torch.ops.aten.view.default(clone_17, [1, 13, 4096]);  clone_17 = None
    t_122 = torch.ops.aten.t.default(primals_189);  primals_189 = None
    view_426 = torch.ops.aten.view.default(view_425, [13, 4096]);  view_425 = None
    mm_122 = torch.ops.aten.mm.default(view_426, t_122)
    view_427 = torch.ops.aten.view.default(mm_122, [1, 13, 4096]);  mm_122 = None
    add_125 = torch.ops.aten.add.Tensor(add_120, view_427);  view_427 = None
    pow_36 = torch.ops.aten.pow.Tensor_Scalar(add_125, 2)
    mean_35 = torch.ops.aten.mean.dim(pow_36, [-1], True);  pow_36 = None
    add_126 = torch.ops.aten.add.Tensor(mean_35, 1e-06);  mean_35 = None
    rsqrt_35 = torch.ops.aten.rsqrt.default(add_126);  add_126 = None
    mul_159 = torch.ops.aten.mul.Tensor(add_125, rsqrt_35)
    mul_160 = torch.ops.aten.mul.Tensor(primals_36, mul_159)
    t_123 = torch.ops.aten.t.default(primals_190);  primals_190 = None
    view_428 = torch.ops.aten.view.default(mul_160, [13, 4096])
    mm_123 = torch.ops.aten.mm.default(view_428, t_123)
    view_429 = torch.ops.aten.view.default(mm_123, [1, 13, 11008]);  mm_123 = None
    silu_17 = torch.ops.aten.silu.default(view_429)
    t_124 = torch.ops.aten.t.default(primals_191);  primals_191 = None
    view_430 = torch.ops.aten.view.default(mul_160, [13, 4096]);  mul_160 = None
    mm_124 = torch.ops.aten.mm.default(view_430, t_124)
    view_431 = torch.ops.aten.view.default(mm_124, [1, 13, 11008]);  mm_124 = None
    mul_161 = torch.ops.aten.mul.Tensor(silu_17, view_431)
    t_125 = torch.ops.aten.t.default(primals_192);  primals_192 = None
    view_432 = torch.ops.aten.view.default(mul_161, [13, 11008]);  mul_161 = None
    mm_125 = torch.ops.aten.mm.default(view_432, t_125)
    view_433 = torch.ops.aten.view.default(mm_125, [1, 13, 4096]);  mm_125 = None
    add_127 = torch.ops.aten.add.Tensor(add_125, view_433);  view_433 = None
    pow_37 = torch.ops.aten.pow.Tensor_Scalar(add_127, 2)
    mean_36 = torch.ops.aten.mean.dim(pow_37, [-1], True);  pow_37 = None
    add_128 = torch.ops.aten.add.Tensor(mean_36, 1e-06);  mean_36 = None
    rsqrt_36 = torch.ops.aten.rsqrt.default(add_128);  add_128 = None
    mul_162 = torch.ops.aten.mul.Tensor(add_127, rsqrt_36)
    mul_163 = torch.ops.aten.mul.Tensor(primals_37, mul_162)
    t_126 = torch.ops.aten.t.default(primals_193);  primals_193 = None
    view_434 = torch.ops.aten.view.default(mul_163, [13, 4096])
    mm_126 = torch.ops.aten.mm.default(view_434, t_126)
    view_435 = torch.ops.aten.view.default(mm_126, [1, 13, 4096]);  mm_126 = None
    t_127 = torch.ops.aten.t.default(primals_194);  primals_194 = None
    view_436 = torch.ops.aten.view.default(mul_163, [13, 4096])
    mm_127 = torch.ops.aten.mm.default(view_436, t_127)
    view_437 = torch.ops.aten.view.default(mm_127, [1, 13, 4096]);  mm_127 = None
    t_128 = torch.ops.aten.t.default(primals_195);  primals_195 = None
    view_438 = torch.ops.aten.view.default(mul_163, [13, 4096]);  mul_163 = None
    mm_128 = torch.ops.aten.mm.default(view_438, t_128)
    view_439 = torch.ops.aten.view.default(mm_128, [1, 13, 4096]);  mm_128 = None
    view_440 = torch.ops.aten.view.default(view_435, [1, 13, 32, 128]);  view_435 = None
    transpose_90 = torch.ops.aten.transpose.int(view_440, 1, 2);  view_440 = None
    view_441 = torch.ops.aten.view.default(view_437, [1, 13, 32, 128]);  view_437 = None
    transpose_91 = torch.ops.aten.transpose.int(view_441, 1, 2);  view_441 = None
    view_442 = torch.ops.aten.view.default(view_439, [1, 13, 32, 128]);  view_439 = None
    transpose_92 = torch.ops.aten.transpose.int(view_442, 1, 2);  view_442 = None
    slice_187 = torch.ops.aten.slice.Tensor(primals_328, 0, 0, 9223372036854775807);  primals_328 = None
    slice_188 = torch.ops.aten.slice.Tensor(slice_187, 1, 0, 9223372036854775807);  slice_187 = None
    slice_189 = torch.ops.aten.slice.Tensor(slice_188, 2, 0, 13);  slice_188 = None
    slice_190 = torch.ops.aten.slice.Tensor(primals_329, 0, 0, 9223372036854775807);  primals_329 = None
    slice_191 = torch.ops.aten.slice.Tensor(slice_190, 1, 0, 9223372036854775807);  slice_190 = None
    slice_192 = torch.ops.aten.slice.Tensor(slice_191, 2, 0, 13);  slice_191 = None
    squeeze_72 = torch.ops.aten.squeeze.dim(slice_189, 1);  slice_189 = None
    squeeze_73 = torch.ops.aten.squeeze.dim(squeeze_72, 0);  squeeze_72 = None
    squeeze_74 = torch.ops.aten.squeeze.dim(slice_192, 1);  slice_192 = None
    squeeze_75 = torch.ops.aten.squeeze.dim(squeeze_74, 0);  squeeze_74 = None
    index_36 = torch.ops.aten.index.Tensor(squeeze_73, [view]);  squeeze_73 = None
    unsqueeze_43 = torch.ops.aten.unsqueeze.default(index_36, 1);  index_36 = None
    index_37 = torch.ops.aten.index.Tensor(squeeze_75, [view]);  squeeze_75 = None
    unsqueeze_44 = torch.ops.aten.unsqueeze.default(index_37, 1);  index_37 = None
    mul_164 = torch.ops.aten.mul.Tensor(transpose_90, unsqueeze_43)
    slice_193 = torch.ops.aten.slice.Tensor(transpose_90, 3, 0, 64)
    slice_194 = torch.ops.aten.slice.Tensor(transpose_90, 3, 64, 9223372036854775807);  transpose_90 = None
    neg_36 = torch.ops.aten.neg.default(slice_194);  slice_194 = None
    cat_36 = torch.ops.aten.cat.default([neg_36, slice_193], -1);  neg_36 = slice_193 = None
    mul_165 = torch.ops.aten.mul.Tensor(cat_36, unsqueeze_44);  cat_36 = None
    add_129 = torch.ops.aten.add.Tensor(mul_164, mul_165);  mul_164 = mul_165 = None
    mul_166 = torch.ops.aten.mul.Tensor(transpose_91, unsqueeze_43)
    slice_195 = torch.ops.aten.slice.Tensor(transpose_91, 3, 0, 64)
    slice_196 = torch.ops.aten.slice.Tensor(transpose_91, 3, 64, 9223372036854775807);  transpose_91 = None
    neg_37 = torch.ops.aten.neg.default(slice_196);  slice_196 = None
    cat_37 = torch.ops.aten.cat.default([neg_37, slice_195], -1);  neg_37 = slice_195 = None
    mul_167 = torch.ops.aten.mul.Tensor(cat_37, unsqueeze_44);  cat_37 = None
    add_130 = torch.ops.aten.add.Tensor(mul_166, mul_167);  mul_166 = mul_167 = None
    transpose_93 = torch.ops.aten.transpose.int(add_130, 2, 3)
    expand_75 = torch.ops.aten.expand.default(add_129, [1, 32, 13, 128]);  add_129 = None
    view_443 = torch.ops.aten.view.default(expand_75, [32, 13, 128]);  expand_75 = None
    expand_76 = torch.ops.aten.expand.default(transpose_93, [1, 32, 128, 13]);  transpose_93 = None
    view_444 = torch.ops.aten.view.default(expand_76, [32, 128, 13]);  expand_76 = None
    bmm_36 = torch.ops.aten.bmm.default(view_443, view_444)
    view_445 = torch.ops.aten.view.default(bmm_36, [1, 32, 13, 13]);  bmm_36 = None
    div_18 = torch.ops.aten.div.Tensor(view_445, 11.313708498984761);  view_445 = None
    add_131 = torch.ops.aten.add.Tensor(div_18, add_1);  div_18 = None
    _softmax_18 = torch.ops.aten._softmax.default(add_131, -1, False);  add_131 = None
    expand_77 = torch.ops.aten.expand.default(_softmax_18, [1, 32, 13, 13])
    view_446 = torch.ops.aten.view.default(expand_77, [32, 13, 13]);  expand_77 = None
    expand_78 = torch.ops.aten.expand.default(transpose_92, [1, 32, 13, 128])
    view_447 = torch.ops.aten.view.default(expand_78, [32, 13, 128]);  expand_78 = None
    bmm_37 = torch.ops.aten.bmm.default(view_446, view_447)
    view_448 = torch.ops.aten.view.default(bmm_37, [1, 32, 13, 128]);  bmm_37 = None
    transpose_94 = torch.ops.aten.transpose.int(view_448, 1, 2);  view_448 = None
    clone_18 = torch.ops.aten.clone.default(transpose_94, memory_format = torch.contiguous_format);  transpose_94 = None
    view_449 = torch.ops.aten.view.default(clone_18, [1, 13, 4096]);  clone_18 = None
    t_129 = torch.ops.aten.t.default(primals_196);  primals_196 = None
    view_450 = torch.ops.aten.view.default(view_449, [13, 4096]);  view_449 = None
    mm_129 = torch.ops.aten.mm.default(view_450, t_129)
    view_451 = torch.ops.aten.view.default(mm_129, [1, 13, 4096]);  mm_129 = None
    add_132 = torch.ops.aten.add.Tensor(add_127, view_451);  view_451 = None
    pow_38 = torch.ops.aten.pow.Tensor_Scalar(add_132, 2)
    mean_37 = torch.ops.aten.mean.dim(pow_38, [-1], True);  pow_38 = None
    add_133 = torch.ops.aten.add.Tensor(mean_37, 1e-06);  mean_37 = None
    rsqrt_37 = torch.ops.aten.rsqrt.default(add_133);  add_133 = None
    mul_168 = torch.ops.aten.mul.Tensor(add_132, rsqrt_37)
    mul_169 = torch.ops.aten.mul.Tensor(primals_38, mul_168)
    t_130 = torch.ops.aten.t.default(primals_197);  primals_197 = None
    view_452 = torch.ops.aten.view.default(mul_169, [13, 4096])
    mm_130 = torch.ops.aten.mm.default(view_452, t_130)
    view_453 = torch.ops.aten.view.default(mm_130, [1, 13, 11008]);  mm_130 = None
    silu_18 = torch.ops.aten.silu.default(view_453)
    t_131 = torch.ops.aten.t.default(primals_198);  primals_198 = None
    view_454 = torch.ops.aten.view.default(mul_169, [13, 4096]);  mul_169 = None
    mm_131 = torch.ops.aten.mm.default(view_454, t_131)
    view_455 = torch.ops.aten.view.default(mm_131, [1, 13, 11008]);  mm_131 = None
    mul_170 = torch.ops.aten.mul.Tensor(silu_18, view_455)
    t_132 = torch.ops.aten.t.default(primals_199);  primals_199 = None
    view_456 = torch.ops.aten.view.default(mul_170, [13, 11008]);  mul_170 = None
    mm_132 = torch.ops.aten.mm.default(view_456, t_132)
    view_457 = torch.ops.aten.view.default(mm_132, [1, 13, 4096]);  mm_132 = None
    add_134 = torch.ops.aten.add.Tensor(add_132, view_457);  view_457 = None
    pow_39 = torch.ops.aten.pow.Tensor_Scalar(add_134, 2)
    mean_38 = torch.ops.aten.mean.dim(pow_39, [-1], True);  pow_39 = None
    add_135 = torch.ops.aten.add.Tensor(mean_38, 1e-06);  mean_38 = None
    rsqrt_38 = torch.ops.aten.rsqrt.default(add_135);  add_135 = None
    mul_171 = torch.ops.aten.mul.Tensor(add_134, rsqrt_38)
    mul_172 = torch.ops.aten.mul.Tensor(primals_39, mul_171)
    t_133 = torch.ops.aten.t.default(primals_200);  primals_200 = None
    view_458 = torch.ops.aten.view.default(mul_172, [13, 4096])
    mm_133 = torch.ops.aten.mm.default(view_458, t_133)
    view_459 = torch.ops.aten.view.default(mm_133, [1, 13, 4096]);  mm_133 = None
    t_134 = torch.ops.aten.t.default(primals_201);  primals_201 = None
    view_460 = torch.ops.aten.view.default(mul_172, [13, 4096])
    mm_134 = torch.ops.aten.mm.default(view_460, t_134)
    view_461 = torch.ops.aten.view.default(mm_134, [1, 13, 4096]);  mm_134 = None
    t_135 = torch.ops.aten.t.default(primals_202);  primals_202 = None
    view_462 = torch.ops.aten.view.default(mul_172, [13, 4096]);  mul_172 = None
    mm_135 = torch.ops.aten.mm.default(view_462, t_135)
    view_463 = torch.ops.aten.view.default(mm_135, [1, 13, 4096]);  mm_135 = None
    view_464 = torch.ops.aten.view.default(view_459, [1, 13, 32, 128]);  view_459 = None
    transpose_95 = torch.ops.aten.transpose.int(view_464, 1, 2);  view_464 = None
    view_465 = torch.ops.aten.view.default(view_461, [1, 13, 32, 128]);  view_461 = None
    transpose_96 = torch.ops.aten.transpose.int(view_465, 1, 2);  view_465 = None
    view_466 = torch.ops.aten.view.default(view_463, [1, 13, 32, 128]);  view_463 = None
    transpose_97 = torch.ops.aten.transpose.int(view_466, 1, 2);  view_466 = None
    slice_197 = torch.ops.aten.slice.Tensor(primals_330, 0, 0, 9223372036854775807);  primals_330 = None
    slice_198 = torch.ops.aten.slice.Tensor(slice_197, 1, 0, 9223372036854775807);  slice_197 = None
    slice_199 = torch.ops.aten.slice.Tensor(slice_198, 2, 0, 13);  slice_198 = None
    slice_200 = torch.ops.aten.slice.Tensor(primals_331, 0, 0, 9223372036854775807);  primals_331 = None
    slice_201 = torch.ops.aten.slice.Tensor(slice_200, 1, 0, 9223372036854775807);  slice_200 = None
    slice_202 = torch.ops.aten.slice.Tensor(slice_201, 2, 0, 13);  slice_201 = None
    squeeze_76 = torch.ops.aten.squeeze.dim(slice_199, 1);  slice_199 = None
    squeeze_77 = torch.ops.aten.squeeze.dim(squeeze_76, 0);  squeeze_76 = None
    squeeze_78 = torch.ops.aten.squeeze.dim(slice_202, 1);  slice_202 = None
    squeeze_79 = torch.ops.aten.squeeze.dim(squeeze_78, 0);  squeeze_78 = None
    index_38 = torch.ops.aten.index.Tensor(squeeze_77, [view]);  squeeze_77 = None
    unsqueeze_45 = torch.ops.aten.unsqueeze.default(index_38, 1);  index_38 = None
    index_39 = torch.ops.aten.index.Tensor(squeeze_79, [view]);  squeeze_79 = None
…
: memref<11008x4096xf32>, %arg135: memref<4096x11008xf32>, %arg136: memref<4096x4096xf32>, %arg137: memref<4096x4096xf32>, %arg138: memref<4096x4096xf32>, %arg139: memref<4096x4096xf32>, %arg140: memref<11008x4096xf32>, %arg141: memref<11008x4096xf32>, %arg142: memref<4096x11008xf32>, %arg143: memref<4096x4096xf32>, %arg144: memref<4096x4096xf32>, %arg145: memref<4096x4096xf32>, %arg146: memref<4096x4096xf32>, %arg147: memref<11008x4096xf32>, %arg148: memref<11008x4096xf32>, %arg149: memref<4096x11008xf32>, %arg150: memref<4096x4096xf32>, %arg151: memref<4096x4096xf32>, %arg152: memref<4096x4096xf32>, %arg153: memref<4096x4096xf32>, %arg154: memref<11008x4096xf32>, %arg155: memref<11008x4096xf32>, %arg156: memref<4096x11008xf32>, %arg157: memref<4096x4096xf32>, %arg158: memref<4096x4096xf32>, %arg159: memref<4096x4096xf32>, %arg160: memref<4096x4096xf32>, %arg161: memref<11008x4096xf32>, %arg162: memref<11008x4096xf32>, %arg163: memref<4096x11008xf32>, %arg164: memref<4096x4096xf32>, %arg165: memref<4096x4096xf32>, %arg166: memref<4096x4096xf32>, %arg167: memref<4096x4096xf32>, %arg168: memref<11008x4096xf32>, %arg169: memref<11008x4096xf32>, %arg170: memref<4096x11008xf32>, %arg171: memref<4096x4096xf32>, %arg172: memref<4096x4096xf32>, %arg173: memref<4096x4096xf32>, %arg174: memref<4096x4096xf32>, %arg175: memref<11008x4096xf32>, %arg176: memref<11008x4096xf32>, %arg177: memref<4096x11008xf32>, %arg178: memref<4096x4096xf32>, %arg179: memref<4096x4096xf32>, %arg180: memref<4096x4096xf32>, %arg181: memref<4096x4096xf32>, %arg182: memref<11008x4096xf32>, %arg183: memref<11008x4096xf32>, %arg184: memref<4096x11008xf32>, %arg185: memref<4096x4096xf32>, %arg186: memref<4096x4096xf32>, %arg187: memref<4096x4096xf32>, %arg188: memref<4096x4096xf32>, %arg189: memref<11008x4096xf32>, %arg190: memref<11008x4096xf32>, %arg191: memref<4096x11008xf32>, %arg192: memref<4096x4096xf32>, %arg193: memref<4096x4096xf32>, %arg194: memref<4096x4096xf32>, %arg195: memref<4096x4096xf32>, %arg196: memref<11008x4096xf32>, %arg197: memref<11008x4096xf32>, %arg198: memref<4096x11008xf32>, %arg199: memref<4096x4096xf32>, %arg200: memref<4096x4096xf32>, %arg201: memref<4096x4096xf32>, %arg202: memref<4096x4096xf32>, %arg203: memref<11008x4096xf32>, %arg204: memref<11008x4096xf32>, %arg205: memref<4096x11008xf32>, %arg206: memref<4096x4096xf32>, %arg207: memref<4096x4096xf32>, %arg208: memref<4096x4096xf32>, %arg209: memref<4096x4096xf32>, %arg210: memref<11008x4096xf32>, %arg211: memref<11008x4096xf32>, %arg212: memref<4096x11008xf32>, %arg213: memref<4096x4096xf32>, %arg214: memref<4096x4096xf32>, %arg215: memref<4096x4096xf32>, %arg216: memref<4096x4096xf32>, %arg217: memref<11008x4096xf32>, %arg218: memref<11008x4096xf32>, %arg219: memref<4096x11008xf32>, %arg220: memref<4096x4096xf32>, %arg221: memref<4096x4096xf32>, %arg222: memref<4096x4096xf32>, %arg223: memref<4096x4096xf32>, %arg224: memref<11008x4096xf32>, %arg225: memref<11008x4096xf32>, %arg226: memref<4096x11008xf32>, %arg227: memref<4096x4096xf32>, %arg228: memref<4096x4096xf32>, %arg229: memref<4096x4096xf32>, %arg230: memref<4096x4096xf32>, %arg231: memref<11008x4096xf32>, %arg232: memref<11008x4096xf32>, %arg233: memref<4096x11008xf32>, %arg234: memref<4096x4096xf32>, %arg235: memref<4096x4096xf32>, %arg236: memref<4096x4096xf32>, %arg237: memref<4096x4096xf32>, %arg238: memref<11008x4096xf32>, %arg239: memref<11008x4096xf32>, %arg240: memref<4096x11008xf32>, %arg241: memref<4096x4096xf32>, %arg242: memref<4096x4096xf32>, %arg243: memref<4096x4096xf32>, %arg244: memref<4096x4096xf32>, %arg245: memref<11008x4096xf32>, %arg246: memref<11008x4096xf32>, %arg247: memref<4096x11008xf32>, %arg248: memref<4096x4096xf32>, %arg249: memref<4096x4096xf32>, %arg250: memref<4096x4096xf32>, %arg251: memref<4096x4096xf32>, %arg252: memref<11008x4096xf32>, %arg253: memref<11008x4096xf32>, %arg254: memref<4096x11008xf32>, %arg255: memref<4096x4096xf32>, %arg256: memref<4096x4096xf32>, %arg257: memref<4096x4096xf32>, %arg258: memref<4096x4096xf32>, %arg259: memref<11008x4096xf32>, %arg260: memref<11008x4096xf32>, %arg261: memref<4096x11008xf32>, %arg262: memref<4096x4096xf32>, %arg263: memref<4096x4096xf32>, %arg264: memref<4096x4096xf32>, %arg265: memref<4096x4096xf32>, %arg266: memref<11008x4096xf32>, %arg267: memref<11008x4096xf32>, %arg268: memref<4096x11008xf32>, %arg269: memref<4096x4096xf32>, %arg270: memref<4096x4096xf32>, %arg271: memref<4096x4096xf32>, %arg272: memref<4096x4096xf32>, %arg273: memref<11008x4096xf32>, %arg274: memref<11008x4096xf32>, %arg275: memref<4096x11008xf32>, %arg276: memref<4096x4096xf32>, %arg277: memref<4096x4096xf32>, %arg278: memref<4096x4096xf32>, %arg279: memref<4096x4096xf32>, %arg280: memref<11008x4096xf32>, %arg281: memref<11008x4096xf32>, %arg282: memref<4096x11008xf32>, %arg283: memref<4096x4096xf32>, %arg284: memref<4096x4096xf32>, %arg285: memref<4096x4096xf32>, %arg286: memref<4096x4096xf32>, %arg287: memref<11008x4096xf32>, %arg288: memref<11008x4096xf32>, %arg289: memref<4096x11008xf32>, %arg290: memref<32000x4096xf32>, %arg291: memref<1x1x2048x128xf32>, %arg292: memref<1x1x2048x128xf32>, %arg293: memref<1x1x2048x128xf32>, %arg294: memref<1x1x2048x128xf32>, %arg295: memref<1x1x2048x128xf32>, %arg296: memref<1x1x2048x128xf32>, %arg297: memref<1x1x2048x128xf32>, %arg298: memref<1x1x2048x128xf32>, %arg299: memref<1x1x2048x128xf32>, %arg300: memref<1x1x2048x128xf32>, %arg301: memref<1x1x2048x128xf32>, %arg302: memref<1x1x2048x128xf32>, %arg303: memref<1x1x2048x128xf32>, %arg304: memref<1x1x2048x128xf32>, %arg305: memref<1x1x2048x128xf32>, %arg306: memref<1x1x2048x128xf32>, %arg307: memref<1x1x2048x128xf32>, %arg308: memref<1x1x2048x128xf32>, %arg309: memref<1x1x2048x128xf32>, %arg310: memref<1x1x2048x128xf32>, %arg311: memref<1x1x2048x128xf32>, %arg312: memref<1x1x2048x128xf32>, %arg313: memref<1x1x2048x128xf32>, %arg314: memref<1x1x2048x128xf32>, %arg315: memref<1x1x2048x128xf32>, %arg316: memref<1x1x2048x128xf32>, %arg317: memref<1x1x2048x128xf32>, %arg318: memref<1x1x2048x128xf32>, %arg319: memref<1x1x2048x128xf32>, %arg320: memref<1x1x2048x128xf32>, %arg321: memref<1x1x2048x128xf32>, %arg322: memref<1x1x2048x128xf32>, %arg323: memref<1x1x2048x128xf32>, %arg324: memref<1x1x2048x128xf32>, %arg325: memref<1x1x2048x128xf32>, %arg326: memref<1x1x2048x128xf32>, %arg327: memref<1x1x2048x128xf32>, %arg328: memref<1x1x2048x128xf32>, %arg329: memref<1x1x2048x128xf32>, %arg330: memref<1x1x2048x128xf32>, %arg331: memref<1x1x2048x128xf32>, %arg332: memref<1x1x2048x128xf32>, %arg333: memref<1x1x2048x128xf32>, %arg334: memref<1x1x2048x128xf32>, %arg335: memref<1x1x2048x128xf32>, %arg336: memref<1x1x2048x128xf32>, %arg337: memref<1x1x2048x128xf32>, %arg338: memref<1x1x2048x128xf32>, %arg339: memref<1x1x2048x128xf32>, %arg340: memref<1x1x2048x128xf32>, %arg341: memref<1x1x2048x128xf32>, %arg342: memref<1x1x2048x128xf32>, %arg343: memref<1x1x2048x128xf32>, %arg344: memref<1x1x2048x128xf32>, %arg345: memref<1x1x2048x128xf32>, %arg346: memref<1x1x2048x128xf32>, %arg347: memref<1x1x2048x128xf32>, %arg348: memref<1x1x2048x128xf32>, %arg349: memref<1x1x2048x128xf32>, %arg350: memref<1x1x2048x128xf32>, %arg351: memref<1x1x2048x128xf32>, %arg352: memref<1x1x2048x128xf32>, %arg353: memref<1x1x2048x128xf32>, %arg354: memref<1x1x2048x128xf32>, %arg355: memref<1x13xi64>) {
    return
  }
}

-------------------------------------------------------------------
Lowering the module to LLVM dialect ...
module attributes {llvm.data_layout = ""} {
  llvm.func @main(%arg0: !llvm.ptr, %arg1: !llvm.ptr, %arg2: i64, %arg3: i64, %arg4: i64, %arg5: !llvm.ptr, %arg6: !llvm.ptr, %arg7: i64, %arg8: i64, %arg9: i64, %arg10: !llvm.ptr, %arg11: !llvm.ptr, %arg12: i64, %arg13: i64, %arg14: i64, %arg15: !llvm.ptr, %arg16: !llvm.ptr, %arg17: i64, %arg18: i64, %arg19: i64, %arg20: !llvm.ptr, %arg21: !llvm.ptr, %arg22: i64, %arg23: i64, %arg24: i64, %arg25: !llvm.ptr, %arg26: !llvm.ptr, %arg27: i64, %arg28: i64, %arg29: i64, %arg30: !llvm.ptr, %arg31: !llvm.ptr, %arg32: i64, %arg33: i64, %arg34: i64, %arg35: !llvm.ptr, %arg36: !llvm.ptr, %arg37: i64, %arg38: i64, %arg39: i64, %arg40: !llvm.ptr, %arg41: !llvm.ptr, %arg42: i64, %arg43: i64, %arg44: i64, %arg45: !llvm.ptr, %arg46: !llvm.ptr, %arg47: i64, %arg48: i64, %arg49: i64, %arg50: !llvm.ptr, %arg51: !llvm.ptr, %arg52: i64, %arg53: i64, %arg54: i64, %arg55: !llvm.ptr, %arg56: !llvm.ptr, %arg57: i64, %arg58: i64, %arg59: i64, %arg60: !llvm.ptr, %arg61: !llvm.ptr, %arg62: i64, %arg63: i64, %arg64: i64, %arg65: !llvm.ptr, %arg66: !llvm.ptr, %arg67: i64, %arg68: i64, %arg69: i64, %arg70: !llvm.ptr, %arg71: !llvm.ptr, %arg72: i64, %arg73: i64, %arg74: i64, %arg75: !llvm.ptr, %arg76: !llvm.ptr, %arg77: i64, %arg78: i64, %arg79: i64, %arg80: !llvm.ptr, %arg81: !llvm.ptr, %arg82: i64, %arg83: i64, %arg84: i64, %arg85: !llvm.ptr, %arg86: !llvm.ptr, %arg87: i64, %arg88: i64, %arg89: i64, %arg90: !llvm.ptr, %arg91: !llvm.ptr, %arg92: i64, %arg93: i64, %arg94: i64, %arg95: !llvm.ptr, %arg96: !llvm.ptr, %arg97: i64, %arg98: i64, %arg99: i64, %arg100: !llvm.ptr, %arg101: !llvm.ptr, %arg102: i64, %arg103: i64, %arg104: i64, %arg105: !llvm.ptr, %arg106: !llvm.ptr, %arg107: i64, %arg108: i64, %arg109: i64, %arg110: !llvm.ptr, %arg111: !llvm.ptr, %arg112: i64, %arg113: i64, %arg114: i64, %arg115: !llvm.ptr, %arg116: !llvm.ptr, %arg117: i64, %arg118: i64, %arg119: i64, %arg120: !llvm.ptr, %arg121: !llvm.ptr, %arg122: i64, %arg123: i64, %arg124: i64, %arg125: !llvm.ptr, %arg126: !llvm.ptr, %arg127: i64, %arg128: i64, %arg129: i64, %arg130: !llvm.ptr, %arg131: !llvm.ptr, %arg132: i64, %arg133: i64, %arg134: i64, %arg135: !llvm.ptr, %arg136: !llvm.ptr, %arg137: i64, %arg138: i64, %arg139: i64, %arg140: !llvm.ptr, %arg141: !llvm.ptr, %arg142: i64, %arg143: i64, %arg144: i64, %arg145: !llvm.ptr, %arg146: !llvm.ptr, %arg147: i64, %arg148: i64, %arg149: i64, %arg150: !llvm.ptr, %arg151: !llvm.ptr, %arg152: i64, %arg153: i64, %arg154: i64, %arg155: !llvm.ptr, %arg156: !llvm.ptr, %arg157: i64, %arg158: i64, %arg159: i64, %arg160: !llvm.ptr, %arg161: !llvm.ptr, %arg162: i64, %arg163: i64, %arg164: i64, %arg165: !llvm.ptr, %arg166: !llvm.ptr, %arg167: i64, %arg168: i64, %arg169: i64, %arg170: !llvm.ptr, %arg171: !llvm.ptr, %arg172: i64, %arg173: i64, %arg174: i64, %arg175: !llvm.ptr, %arg176: !llvm.ptr, %arg177: i64, %arg178: i64, %arg179: i64, %arg180: !llvm.ptr, %arg181: !llvm.ptr, %arg182: i64, %arg183: i64, %arg184: i64, %arg185: !llvm.ptr, %arg186: !llvm.ptr, %arg187: i64, %arg188: i64, %arg189: i64, %arg190: !llvm.ptr, %arg191: !llvm.ptr, %arg192: i64, %arg193: i64, %arg194: i64, %arg195: !llvm.ptr, %arg196: !llvm.ptr, %arg197: i64, %arg198: i64, %arg199: i64, %arg200: !llvm.ptr, %arg201: !llvm.ptr, %arg202: i64, %arg203: i64, %arg204: i64, %arg205: !llvm.ptr, %arg206: !llvm.ptr, %arg207: i64, %arg208: i64, %arg209: i64, %arg210: !llvm.ptr, %arg211: !llvm.ptr, %arg212: i64, %arg213: i64, %arg214: i64, %arg215: !llvm.ptr, %arg216: !llvm.ptr, %arg217: i64, %arg218: i64, %arg219: i64, %arg220: !llvm.ptr, %arg221: !llvm.ptr, %arg222: i64, %arg223: i64, %arg224: i64, %arg225: !llvm.ptr, %arg226: !llvm.ptr, %arg227: i64, %arg228: i64, %arg229: i64, %arg230: !llvm.ptr, %arg231: !llvm.ptr, %arg232: i64, %arg233: i64, %arg234: i64, %arg235: !llvm.ptr, %arg236: !llvm.ptr, %arg237: i64, %arg238: i64, %arg239: i64, %arg240: !llvm.ptr, %arg241: !llvm.ptr, %arg242: i64, %arg243: i64, %arg244: i64, %arg245: !llvm.ptr, %arg246: !llvm.ptr, %arg247: i64, %arg248: i64, %arg249: i64, %arg250: !llvm.ptr, %arg251: !llvm.ptr, %arg252: i64, %arg253: i64, %arg254: i64, %arg255: !llvm.ptr, %arg256: !llvm.ptr, %arg257: i64, %arg258: i64, %arg259: i64, %arg260: !llvm.ptr, %arg261: !llvm.ptr, %arg262: i64, %arg263: i64, %arg264: i64, %arg265: !llvm.ptr, %arg266: !llvm.ptr, %arg267: i64, %arg268: i64, %arg269: i64, %arg270: !llvm.ptr, %arg271: !llvm.ptr, %arg272: i64, %arg273: i64, %arg274: i64, %arg275: !llvm.ptr, %arg276: !llvm.ptr, %arg277: i64, %arg278: i64, %arg279: i64, %arg280: !llvm.ptr, %arg281: !llvm.ptr, %arg282: i64, %arg283: i64, %arg284: i64, %arg285: !llvm.ptr, %arg286: !llvm.ptr, %arg287: i64, %arg288: i64, %arg289: i64, %arg290: !llvm.ptr, %arg291: !llvm.ptr, %arg292: i64, %arg293: i64, %arg294: i64, %arg295: !llvm.ptr, %arg296: !llvm.ptr, %arg297: i64, %arg298: i64, %arg299: i64, %arg300: !llvm.ptr, %arg301: !llvm.ptr, %arg302: i64, %arg303: i64, %arg304: i64, %arg305: !llvm.ptr, %arg306: !llvm.ptr, %arg307: i64, %arg308: i64, %arg309: i64, %arg310: !llvm.ptr, %arg311: !llvm.ptr, %arg312: i64, %arg313: i64, %arg314: i64, %arg315: !llvm.ptr, %arg316: !llvm.ptr, %arg317: i64, %arg318: i64, %arg319: i64, %arg320: !llvm.ptr, %arg321: !llvm.ptr, %arg322: i64, %arg323: i64, %arg324: i64, %arg325: !llvm.ptr, %arg326: !llvm.ptr, %arg327: i64, %arg328: i64, %arg329: i64, %arg330: i64, %arg331: i64, %arg332: !llvm.ptr, %arg333: !llvm.ptr, %arg334: i64, %arg335: i64, %arg336: i64, %arg337: i64, %arg338: i64, %arg339: !llvm.ptr, %arg340: !llvm.ptr, %arg341: i64, %arg342: i64, %arg343: i64, %arg344: i64, %arg345: i64, %arg346: !llvm.ptr, %arg347: !llvm.ptr, %arg348: i64, %arg349: i64, %arg350: i64, %arg351: i64, %arg352: i64, %arg353: !llvm.ptr, %arg354: !llvm.ptr, %arg355: i64, %arg356: i64, %arg357: i64, %arg358: i64, %arg359: i64, %arg360: !llvm.ptr, %arg361: !llvm.ptr, %arg362: i64, %arg363: i64, %arg364: i64, %arg365: i64, %arg366: i64, %arg367: !llvm.ptr, %arg368: !llvm.ptr, %arg369: i64, %arg370: i64, %arg371: i64, %arg372: i64, %arg373: i64, %arg374: !llvm.ptr, %arg375: !llvm.ptr, %arg376: i64, %arg377: i64, %arg378: i64, %arg379: i64, %arg380: i64, %arg381: !llvm.ptr, %arg382: !llvm.ptr, %arg383: i64, %arg384: i64, %arg385: i64, %arg386: i64, %arg387: i64, %arg388: !llvm.ptr, %arg389: !llvm.ptr, %arg390: i64, %arg391: i64, %arg392: i64, %arg393: i64, %arg394: i64, %arg395: !llvm.ptr, %arg396: !llvm.ptr, %arg397: i64, %arg398: i64, %arg399: i64, %arg400: i64, %arg401: i64, %arg402: !llvm.ptr, %arg403: !llvm.ptr, %arg404: i64, %arg405: i64, %arg406: i64, %arg407: i64, %arg408: i64, %arg409: !llvm.ptr, %arg410: !llvm.ptr, %arg411: i64, %arg412: i64, %arg413: i64, %arg414: i64, %arg415: i64, %arg416: !llvm.ptr, %arg417: !llvm.ptr, %arg418: i64, %arg419: i64, %arg420: i64, %arg421: i64, %arg422: i64, %arg423: !llvm.ptr, %arg424: !llvm.ptr, %arg425: i64, %arg426: i64, %arg427: i64, %arg428: i64, %arg429: i64, %arg430: !llvm.ptr, %arg431: !llvm.ptr, %arg432: i64, %arg433: i64, %arg434: i64, %arg435: i64, %arg436: i64, %arg437: !llvm.ptr, %arg438: !llvm.ptr, %arg439: i64, %arg440: i64, %arg441: i64, %arg442: i64, %arg443: i64, %arg444: !llvm.ptr, %arg445: !llvm.ptr, %arg446: i64, %arg447: i64, %arg448: i64, %arg449: i64, %arg450: i64, %arg451: !llvm.ptr, %arg452: !llvm.ptr, %arg453: i64, %arg454: i64, %arg455: i64, %arg456: i64, %arg457: i64, %arg458: !llvm.ptr, %arg459: !llvm.ptr, %arg460: i64, %arg461: i64, %arg462: i64, %arg463: i64, %arg464: i64, %arg465: !llvm.ptr, %arg466: !llvm.ptr, %arg467: i64, %arg468: i64, %arg469: i64, %arg470: i64, %arg471: i64, %arg472: !llvm.ptr, %arg473: !llvm.ptr, %arg474: i64, %arg475: i64, %arg476: i64, %arg477: i64, %arg478: i64, %arg479: !llvm.ptr, %arg480: !llvm.ptr, %arg481: i64, %arg482: i64, %arg483: i64, %arg484: i64, %arg485: i64, %arg486: !llvm.ptr, %arg487: !llvm.ptr, %arg488: i64, %arg489: i64, %arg490: i64, %arg491: i64, %arg492: i64, %arg493: !llvm.ptr, %arg494: !llvm.ptr, %arg495: i64, %arg496: i64, %arg497: i64, %arg498: i64, %arg499: i64, %arg500: !llvm.ptr, %arg501: !llvm.ptr, %arg502: i64, %arg503: i64, %arg504: i64, %arg505: i64, %arg506: i64, %arg507: !llvm.ptr, %arg508: !llvm.ptr, %arg509: i64, %arg510: i64, %arg511: i64, %arg512: i64, %arg513: i64, %arg514: !llvm.ptr, %arg515: !llvm.ptr, %arg516: i64, %arg517: i64, %arg518: i64, %arg519: i64, %arg520: i64, %arg521: !llvm.ptr, %arg522: !llvm.ptr, %arg523: i64, %arg524: i64, %arg525: i64, %arg526: i64, %arg527: i64, %arg528: !llvm.ptr, %arg529: !llvm.ptr, %arg530: i64, %arg531: i64, %arg532: i64, %arg533: i64, %arg534: i64, %arg535: !llvm.ptr, %arg536: !llvm.ptr, %arg537: i64, %arg538: i64, %arg539: i64, %arg540: i64, %arg541: i64, %arg542: !llvm.ptr, %arg543: !llvm.ptr, %arg544: i64, %arg545: i64, %arg546: i64, %arg547: i64, %arg548: i64, %arg549: !llvm.ptr, %arg550: !llvm.ptr, %arg551: i64, %arg552: i64, %arg553: i64, %arg554: i64, %arg555: i64, %arg556: !llvm.ptr, %arg557: !llvm.ptr, %arg558: i64, %arg559: i64, %arg560: i64, %arg561: i64, %arg562: i64, %arg563: !llvm.ptr, %arg564: !llvm.ptr, %arg565: i64, %arg566: i64, %arg567: i64, %arg568: i64, %arg569: i64, %arg570: !llvm.ptr, %arg571: !llvm.ptr, %arg572: i64, %arg573: i64, %arg574: i64, %arg575: i64, %arg576: i64, %arg577: !llvm.ptr, %arg578: !llvm.ptr, %arg579: i64, %arg580: i64, %arg581: i64, %arg582: i64, %arg583: i64, %arg584: !llvm.ptr, %arg585: !llvm.ptr, %arg586: i64, %arg587: i64, %arg588: i64, %arg589: i64, %arg590: i64, %arg591: !llvm.ptr, %arg592: !llvm.ptr, %arg593: i64, %arg594: i64, %arg595: i64, %arg596: i64, %arg597: i64, %arg598: !llvm.ptr, %arg599: !llvm.ptr, %arg600: i64, %arg601: i64, %arg602: i64, %arg603: i64, %arg604: i64, %arg605: !llvm.ptr, %arg606: !llvm.ptr, %arg607: i64, %arg608: i64, %arg609: i64, %arg610: i64, %arg611: i64, %arg612: !llvm.ptr, %arg613: !llvm.ptr, %arg614: i64, %arg615: i64, %arg616: i64, %arg617: i64, %arg618: i64, %arg619: !llvm.ptr, %arg620: !llvm.ptr, %arg621: i64, %arg622: i64, %arg623: i64, %arg624: i64, %arg625: i64, %arg626: !llvm.ptr, %arg627: !llvm.ptr, %arg628: i64, %arg629: i64, %arg630: i64, %arg631: i64, %arg632: i64, %arg633: !llvm.ptr, %arg634: !llvm.ptr, %arg635: i64, %arg636: i64, %arg637: i64, %arg638: i64, %arg639: i64, %arg640: !llvm.ptr, %arg641: !llvm.ptr, %arg642: i64, %arg643: i64, %arg644: i64, %arg645: i64, %arg646: i64, %arg647: !llvm.ptr, %arg648: !llvm.ptr, %arg649: i64, %arg650: i64, %arg651: i64, %arg652: i64, %arg653: i64, %arg654: !llvm.ptr, %arg655: !llvm.ptr, %arg656: i64, %arg657: i64, %arg658: i64, %arg659: i64, %arg660: i64, %arg661: !llvm.ptr, %arg662: !llvm.ptr, %arg663: i64, %arg664: i64, %arg665: i64, %arg666: i64, %arg667: i64, %arg668: !llvm.ptr, %arg669: !llvm.ptr, %arg670: i64, %arg671: i64, %arg672: i64, %arg673: i64, %arg674: i64, %arg675: !llvm.ptr, %arg676: !llvm.ptr, %arg677: i64, %arg678: i64, %arg679: i64, %arg680: i64, %arg681: i64, %arg682: !llvm.ptr, %arg683: !llvm.ptr, %arg684: i64, %arg685: i64, %arg686: i64, %arg687: i64, %arg688: i64, %arg689: !llvm.ptr, %arg690: !llvm.ptr, %arg691: i64, %arg692: i64, %arg693: i64, %arg694: i64, %arg695: i64, %arg696: !llvm.ptr, %arg697: !llvm.ptr, %arg698: i64, %arg699: i64, %arg700: i64, %arg701: i64, %arg702: i64, %arg703: !llvm.ptr, %arg704: !llvm.ptr, %arg705: i64, %arg706: i64, %arg707: i64, %arg708: i64, %arg709: i64, %arg710: !llvm.ptr, %arg711: !llvm.ptr, %arg712: i64, %arg713: i64, %arg714: i64, %arg715: i64, %arg716: i64, %arg717: !llvm.ptr, %arg718: !llvm.ptr, %arg719: i64, %arg720: i64, %arg721: i64, %arg722: i64, %arg723: i64, %arg724: !llvm.ptr, %arg725: !llvm.ptr, %arg726: i64, %arg727: i64, %arg728: i64, %arg729: i64, %arg730: i64, %arg731: !llvm.ptr, %arg732: !llvm.ptr, %arg733: i64, %arg734: i64, %arg735: i64, %arg736: i64, %arg737: i64, %arg738: !llvm.ptr, %arg739: !llvm.ptr, %arg740: i64, %arg741: i64, %arg742: i64, %arg743: i64, %arg744: i64, %arg745: !llvm.ptr, %arg746: !llvm.ptr, %arg747: i64, %arg748: i64, %arg749: i64, %arg750: i64, %arg751: i64, %arg752: !llvm.ptr, %arg753: !llvm.ptr, %arg754: i64, %arg755: i64, %arg756: i64, %arg757: i64, %arg758: i64, %arg759: !llvm.ptr, %arg760: !llvm.ptr, %arg761: i64, %arg762: i64, %arg763: i64, %arg764: i64, %arg765: i64, %arg766: !llvm.ptr, %arg767: !llvm.ptr, %arg768: i64, %arg769: i64, %arg770: i64, %arg771: i64, %arg772: i64, %arg773: !llvm.ptr, %arg774: !llvm.ptr, %arg775: i64, %arg776: i64, %arg777: i64, %arg778: i64, %arg779: i64, %arg780: !llvm.ptr, %arg781: !llvm.ptr, %arg782: i64, %arg783: i64, %arg784: i64, %arg785: i64, %arg786: i64, %arg787: !llvm.ptr, %arg788: !llvm.ptr, %arg789: i64, %arg790: i64, %arg791: i64, %arg792: i64, %arg793: i64, %arg794: !llvm.ptr, %arg795: !llvm.ptr, %arg796: i64, %arg797: i64, %arg798: i64, %arg799: i64, %arg800: i64, %arg801: !llvm.ptr, %arg802: !llvm.ptr, %arg803: i64, %arg804: i64, %arg805: i64, %arg806: i64, %arg807: i64, %arg808: !llvm.ptr, %arg809: !llvm.ptr, %arg810: i64, %arg811: i64, %arg812: i64, %arg813: i64, %arg814: i64, %arg815: !llvm.ptr, %arg816: !llvm.ptr, %arg817: i64, %arg818: i64, %arg819: i64, %arg820: i64, %arg821: i64, %arg822: !llvm.ptr, %arg823: !llvm.ptr, %arg824: i64, %arg825: i64, %arg826: i64, %arg827: i64, %arg828: i64, %arg829: !llvm.ptr, %arg830: !llvm.ptr, %arg831: i64, %arg832: i64, %arg833: i64, %arg834: i64, %arg835: i64, %arg836: !llvm.ptr, %arg837: !llvm.ptr, %arg838: i64, %arg839: i64, %arg840: i64, %arg841: i64, %arg842: i64, %arg843: !llvm.ptr, %arg844: !llvm.ptr, %arg845: i64, %arg846: i64, %arg847: i64, %arg848: i64, %arg849: i64, %arg850: !llvm.ptr, %arg851: !llvm.ptr, %arg852: i64, %arg853: i64, %arg854: i64, %arg855: i64, %arg856: i64, %arg857: !llvm.ptr, %arg858: !llvm.ptr, %arg859: i64, %arg860: i64, %arg861: i64, %arg862: i64, %arg863: i64, %arg864: !llvm.ptr, %arg865: !llvm.ptr, %arg866: i64, %arg867: i64, %arg868: i64, %arg869: i64, %arg870: i64, %arg871: !llvm.ptr, %arg872: !llvm.ptr, %arg873: i64, %arg874: i64, %arg875: i64, %arg876: i64, %arg877: i64, %arg878: !llvm.ptr, %arg879: !llvm.ptr, %arg880: i64, %arg881: i64, %arg882: i64, %arg883: i64, %arg884: i64, %arg885: !llvm.ptr, %arg886: !llvm.ptr, %arg887: i64, %arg888: i64, %arg889: i64, %arg890: i64, %arg891: i64, %arg892: !llvm.ptr, %arg893: !llvm.ptr, %arg894: i64, %arg895: i64, %arg896: i64, %arg897: i64, %arg898: i64, %arg899: !llvm.ptr, %arg900: !llvm.ptr, %arg901: i64, %arg902: i64, %arg903: i64, %arg904: i64, %arg905: i64, %arg906: !llvm.ptr, %arg907: !llvm.ptr, %arg908: i64, %arg909: i64, %arg910: i64, %arg911: i64, %arg912: i64, %arg913: !llvm.ptr, %arg914: !llvm.ptr, %arg915: i64, %arg916: i64, %arg917: i64, %arg918: i64, %arg919: i64, %arg920: !llvm.ptr, %arg921: !llvm.ptr, %arg922: i64, %arg923: i64, %arg924: i64, %arg925: i64, %arg926: i64, %arg927: !llvm.ptr, %arg928: !llvm.ptr, %arg929: i64, %arg930: i64, %arg931: i64, %arg932: i64, %arg933: i64, %arg934: !llvm.ptr, %arg935: !llvm.ptr, %arg936: i64, %arg937: i64, %arg938: i64, %arg939: i64, %arg940: i64, %arg941: !llvm.ptr, %arg942: !llvm.ptr, %arg943: i64, %arg944: i64, %arg945: i64, %arg946: i64, %arg947: i64, %arg948: !llvm.ptr, %arg949: !llvm.ptr, %arg950: i64, %arg951: i64, %arg952: i64, %arg953: i64, %arg954: i64, %arg955: !llvm.ptr, %arg956: !llvm.ptr, %arg957: i64, %arg958: i64, %arg959: i64, %arg960: i64, %arg961: i64, %arg962: !llvm.ptr, %arg963: !llvm.ptr, %arg964: i64, %arg965: i64, %arg966: i64, %arg967: i64, %arg968: i64, %arg969: !llvm.ptr, %arg970: !llvm.ptr, %arg971: i64, %arg972: i64, %arg973: i64, %arg974: i64, %arg975: i64, %arg976: !llvm.ptr, %arg977: !llvm.ptr, %arg978: i64, %arg979: i64, %arg980: i64, %arg981: i64, %arg982: i64, %arg983: !llvm.ptr, %arg984: !llvm.ptr, %arg985: i64, %arg986: i64, %arg987: i64, %arg988: i64, %arg989: i64, %arg990: !llvm.ptr, %arg991: !llvm.ptr, %arg992: i64, %arg993: i64, %arg994: i64, %arg995: i64, %arg996: i64, %arg997: !llvm.ptr, %arg998: !llvm.ptr, %arg999: i64, %arg1000: i64, %arg1001: i64, %arg1002: i64, %arg1003: i64, %arg1004: !llvm.ptr, %arg1005: !llvm.ptr, %arg1006: i64, %arg1007: i64, %arg1008: i64, %arg1009: i64, %arg1010: i64, %arg1011: !llvm.ptr, %arg1012: !llvm.ptr, %arg1013: i64, %arg1014: i64, %arg1015: i64, %arg1016: i64, %arg1017: i64, %arg1018: !llvm.ptr, %arg1019: !llvm.ptr, %arg1020: i64, %arg1021: i64, %arg1022: i64, %arg1023: i64, %arg1024: i64, %arg1025: !llvm.ptr, %arg1026: !llvm.ptr, %arg1027: i64, %arg1028: i64, %arg1029: i64, %arg1030: i64, %arg1031: i64, %arg1032: !llvm.ptr, %arg1033: !llvm.ptr, %arg1034: i64, %arg1035: i64, %arg1036: i64, %arg1037: i64, %arg1038: i64, %arg1039: !llvm.ptr, %arg1040: !llvm.ptr, %arg1041: i64, %arg1042: i64, %arg1043: i64, %arg1044: i64, %arg1045: i64, %arg1046: !llvm.ptr, %arg1047: !llvm.ptr, %arg1048: i64, %arg1049: i64, %arg1050: i64, %arg1051: i64, %arg1052: i64, %arg1053: !llvm.ptr, %arg1054: !llvm.ptr, %arg1055: i64, %arg1056: i64, %arg1057: i64, %arg1058: i64, %arg1059: i64, %arg1060: !llvm.ptr, %arg1061: !llvm.ptr, %arg1062: i64, %arg1063: i64, %arg1064: i64, %arg1065: i64, %arg1066: i64, %arg1067: !llvm.ptr, %arg1068: !llvm.ptr, %arg1069: i64, %arg1070: i64, %arg1071: i64, %arg1072: i64, %arg1073: i64, %arg1074: !llvm.ptr, %arg1075: !llvm.ptr, %arg1076: i64, %arg1077: i64, %arg1078: i64, %arg1079: i64, %arg1080: i64, %arg1081: !llvm.ptr, %arg1082: !llvm.ptr, %arg1083: i64, %arg1084: i64, %arg1085: i64, %arg1086: i64, %arg1087: i64, %arg1088: !llvm.ptr, %arg1089: !llvm.ptr, %arg1090: i64, %arg1091: i64, %arg1092: i64, %arg1093: i64, %arg1094: i64, %arg1095: !llvm.ptr, %arg1096: !llvm.ptr, %arg1097: i64, %arg1098: i64, %arg1099: i64, %arg1100: i64, %arg1101: i64, %arg1102: !llvm.ptr, %arg1103: !llvm.ptr, %arg1104: i64, %arg1105: i64, %arg1106: i64, %arg1107: i64, %arg1108: i64, %arg1109: !llvm.ptr, %arg1110: !llvm.ptr, %arg1111: i64, %arg1112: i64, %arg1113: i64, %arg1114: i64, %arg1115: i64, %arg1116: !llvm.ptr, %arg1117: !llvm.ptr, %arg1118: i64, %arg1119: i64, %arg1120: i64, %arg1121: i64, %arg1122: i64, %arg1123: !llvm.ptr, %arg1124: !llvm.ptr, %arg1125: i64, %arg1126: i64, %arg1127: i64, %arg1128: i64, %arg1129: i64, %arg1130: !llvm.ptr, %arg1131: !llvm.ptr, %arg1132: i64, %arg1133: i64, %arg1134: i64, %arg1135: i64, %arg1136: i64, %arg1137: !llvm.ptr, %arg1138: !llvm.ptr, %arg1139: i64, %arg1140: i64, %arg1141: i64, %arg1142: i64, %arg1143: i64, %arg1144: !llvm.ptr, %arg1145: !llvm.ptr, %arg1146: i64, %arg1147: i64, %arg1148: i64, %arg1149: i64, %arg1150: i64, %arg1151: !llvm.ptr, %arg1152: !llvm.ptr, %arg1153: i64, %arg1154: i64, %arg1155: i64, %arg1156: i64, %arg1157: i64, %arg1158: !llvm.ptr, %arg1159: !llvm.ptr, %arg1160: i64, %arg1161: i64, %arg1162: i64, %arg1163: i64, %arg1164: i64, %arg1165: !llvm.ptr, %arg1166: !llvm.ptr, %arg1167: i64, %arg1168: i64, %arg1169: i64, %arg1170: i64, %arg1171: i64, %arg1172: !llvm.ptr, %arg1173: !llvm.ptr, %arg1174: i64, %arg1175: i64, %arg1176: i64, %arg1177: i64, %arg1178: i64, %arg1179: !llvm.ptr, %arg1180: !llvm.ptr, %arg1181: i64, %arg1182: i64, %arg1183: i64, %arg1184: i64, %arg1185: i64, %arg1186: !llvm.ptr, %arg1187: !llvm.ptr, %arg1188: i64, %arg1189: i64, %arg1190: i64, %arg1191: i64, %arg1192: i64, %arg1193: !llvm.ptr, %arg1194: !llvm.ptr, %arg1195: i64, %arg1196: i64, %arg1197: i64, %arg1198: i64, %arg1199: i64, %arg1200: !llvm.ptr, %arg1201: !llvm.ptr, %arg1202: i64, %arg1203: i64, %arg1204: i64, %arg1205: i64, %arg1206: i64, %arg1207: !llvm.ptr, %arg1208: !llvm.ptr, %arg1209: i64, %arg1210: i64, %arg1211: i64, %arg1212: i64, %arg1213: i64, %arg1214: !llvm.ptr, %arg1215: !llvm.ptr, %arg1216: i64, %arg1217: i64, %arg1218: i64, %arg1219: i64, %arg1220: i64, %arg1221: !llvm.ptr, %arg1222: !llvm.ptr, %arg1223: i64, %arg1224: i64, %arg1225: i64, %arg1226: i64, %arg1227: i64, %arg1228: !llvm.ptr, %arg1229: !llvm.ptr, %arg1230: i64, %arg1231: i64, %arg1232: i64, %arg1233: i64, %arg1234: i64, %arg1235: !llvm.ptr, %arg1236: !llvm.ptr, %arg1237: i64, %arg1238: i64, %arg1239: i64, %arg1240: i64, %arg1241: i64, %arg1242: !llvm.ptr, %arg1243: !llvm.ptr, %arg1244: i64, %arg1245: i64, %arg1246: i64, %arg1247: i64, %arg1248: i64, %arg1249: !llvm.ptr, %arg1250: !llvm.ptr, %arg1251: i64, %arg1252: i64, %arg1253: i64, %arg1254: i64, %arg1255: i64, %arg1256: !llvm.ptr, %arg1257: !llvm.ptr, %arg1258: i64, %arg1259: i64, %arg1260: i64, %arg1261: i64, %arg1262: i64, %arg1263: !llvm.ptr, %arg1264: !llvm.ptr, %arg1265: i64, %arg1266: i64, %arg1267: i64, %arg1268: i64, %arg1269: i64, %arg1270: !llvm.ptr, %arg1271: !llvm.ptr, %arg1272: i64, %arg1273: i64, %arg1274: i64, %arg1275: i64, %arg1276: i64, %arg1277: !llvm.ptr, %arg1278: !llvm.ptr, %arg1279: i64, %arg1280: i64, %arg1281: i64, %arg1282: i64, %arg1283: i64, %arg1284: !llvm.ptr, %arg1285: !llvm.ptr, %arg1286: i64, %arg1287: i64, %arg1288: i64, %arg1289: i64, %arg1290: i64, %arg1291: !llvm.ptr, %arg1292: !llvm.ptr, %arg1293: i64, %arg1294: i64, %arg1295: i64, %arg1296: i64, %arg1297: i64, %arg1298: !llvm.ptr, %arg1299: !llvm.ptr, %arg1300: i64, %arg1301: i64, %arg1302: i64, %arg1303: i64, %arg1304: i64, %arg1305: !llvm.ptr, %arg1306: !llvm.ptr, %arg1307: i64, %arg1308: i64, %arg1309: i64, %arg1310: i64, %arg1311: i64, %arg1312: !llvm.ptr, %arg1313: !llvm.ptr, %arg1314: i64, %arg1315: i64, %arg1316: i64, %arg1317: i64, %arg1318: i64, %arg1319: !llvm.ptr, %arg1320: !llvm.ptr, %arg1321: i64, %arg1322: i64, %arg1323: i64, %arg1324: i64, %arg1325: i64, %arg1326: !llvm.ptr, %arg1327: !llvm.ptr, %arg1328: i64, %arg1329: i64, %arg1330: i64, %arg1331: i64, %arg1332: i64, %arg1333: !llvm.ptr, %arg1334: !llvm.ptr, %arg1335: i64, %arg1336: i64, %arg1337: i64, %arg1338: i64, %arg1339: i64, %arg1340: !llvm.ptr, %arg1341: !llvm.ptr, %arg1342: i64, %arg1343: i64, %arg1344: i64, %arg1345: i64, %arg1346: i64, %arg1347: !llvm.ptr, %arg1348: !llvm.ptr, %arg1349: i64, %arg1350: i64, %arg1351: i64, %arg1352: i64, %arg1353: i64, %arg1354: !llvm.ptr, %arg1355: !llvm.ptr, %arg1356: i64, %arg1357: i64, %arg1358: i64, %arg1359: i64, %arg1360: i64, %arg1361: !llvm.ptr, %arg1362: !llvm.ptr, %arg1363: i64, %arg1364: i64, %arg1365: i64, %arg1366: i64, %arg1367: i64, %arg1368: !llvm.ptr, %arg1369: !llvm.ptr, %arg1370: i64, %arg1371: i64, %arg1372: i64, %arg1373: i64, %arg1374: i64, %arg1375: !llvm.ptr, %arg1376: !llvm.ptr, %arg1377: i64, %arg1378: i64, %arg1379: i64, %arg1380: i64, %arg1381: i64, %arg1382: !llvm.ptr, %arg1383: !llvm.ptr, %arg1384: i64, %arg1385: i64, %arg1386: i64, %arg1387: i64, %arg1388: i64, %arg1389: !llvm.ptr, %arg1390: !llvm.ptr, %arg1391: i64, %arg1392: i64, %arg1393: i64, %arg1394: i64, %arg1395: i64, %arg1396: !llvm.ptr, %arg1397: !llvm.ptr, %arg1398: i64, %arg1399: i64, %arg1400: i64, %arg1401: i64, %arg1402: i64, %arg1403: !llvm.ptr, %arg1404: !llvm.ptr, %arg1405: i64, %arg1406: i64, %arg1407: i64, %arg1408: i64, %arg1409: i64, %arg1410: !llvm.ptr, %arg1411: !llvm.ptr, %arg1412: i64, %arg1413: i64, %arg1414: i64, %arg1415: i64, %arg1416: i64, %arg1417: !llvm.ptr, %arg1418: !llvm.ptr, %arg1419: i64, %arg1420: i64, %arg1421: i64, %arg1422: i64, %arg1423: i64, %arg1424: !llvm.ptr, %arg1425: !llvm.ptr, %arg1426: i64, %arg1427: i64, %arg1428: i64, %arg1429: i64, %arg1430: i64, %arg1431: !llvm.ptr, %arg1432: !llvm.ptr, %arg1433: i64, %arg1434: i64, %arg1435: i64, %arg1436: i64, %arg1437: i64, %arg1438: !llvm.ptr, %arg1439: !llvm.ptr, %arg1440: i64, %arg1441: i64, %arg1442: i64, %arg1443: i64, %arg1444: i64, %arg1445: !llvm.ptr, %arg1446: !llvm.ptr, %arg1447: i64, %arg1448: i64, %arg1449: i64, %arg1450: i64, %arg1451: i64, %arg1452: !llvm.ptr, %arg1453: !llvm.ptr, %arg1454: i64, %arg1455: i64, %arg1456: i64, %arg1457: i64, %arg1458: i64, %arg1459: !llvm.ptr, %arg1460: !llvm.ptr, %arg1461: i64, %arg1462: i64, %arg1463: i64, %arg1464: i64, %arg1465: i64, %arg1466: !llvm.ptr, %arg1467: !llvm.ptr, %arg1468: i64, %arg1469: i64, %arg1470: i64, %arg1471: i64, %arg1472: i64, %arg1473: !llvm.ptr, %arg1474: !llvm.ptr, %arg1475: i64, %arg1476: i64, %arg1477: i64, %arg1478: i64, %arg1479: i64, %arg1480: !llvm.ptr, %arg1481: !llvm.ptr, %arg1482: i64, %arg1483: i64, %arg1484: i64, %arg1485: i64, %arg1486: i64, %arg1487: !llvm.ptr, %arg1488: !llvm.ptr, %arg1489: i64, %arg1490: i64, %arg1491: i64, %arg1492: i64, %arg1493: i64, %arg1494: !llvm.ptr, %arg1495: !llvm.ptr, %arg1496: i64, %arg1497: i64, %arg1498: i64, %arg1499: i64, %arg1500: i64, %arg1501: !llvm.ptr, %arg1502: !llvm.ptr, %arg1503: i64, %arg1504: i64, %arg1505: i64, %arg1506: i64, %arg1507: i64, %arg1508: !llvm.ptr, %arg1509: !llvm.ptr, %arg1510: i64, %arg1511: i64, %arg1512: i64, %arg1513: i64, %arg1514: i64, %arg1515: !llvm.ptr, %arg1516: !llvm.ptr, %arg1517: i64, %arg1518: i64, %arg1519: i64, %arg1520: i64, %arg1521: i64, %arg1522: !llvm.ptr, %arg1523: !llvm.ptr, %arg1524: i64, %arg1525: i64, %arg1526: i64, %arg1527: i64, %arg1528: i64, %arg1529: !llvm.ptr, %arg1530: !llvm.ptr, %arg1531: i64, %arg1532: i64, %arg1533: i64, %arg1534: i64, %arg1535: i64, %arg1536: !llvm.ptr, %arg1537: !llvm.ptr, %arg1538: i64, %arg1539: i64, %arg1540: i64, %arg1541: i64, %arg1542: i64, %arg1543: !llvm.ptr, %arg1544: !llvm.ptr, %arg1545: i64, %arg1546: i64, %arg1547: i64, %arg1548: i64, %arg1549: i64, %arg1550: !llvm.ptr, %arg1551: !llvm.ptr, %arg1552: i64, %arg1553: i64, %arg1554: i64, %arg1555: i64, %arg1556: i64, %arg1557: !llvm.ptr, %arg1558: !llvm.ptr, %arg1559: i64, %arg1560: i64, %arg1561: i64, %arg1562: i64, %arg1563: i64, %arg1564: !llvm.ptr, %arg1565: !llvm.ptr, %arg1566: i64, %arg1567: i64, %arg1568: i64, %arg1569: i64, %arg1570: i64, %arg1571: !llvm.ptr, %arg1572: !llvm.ptr, %arg1573: i64, %arg1574: i64, %arg1575: i64, %arg1576: i64, %arg1577: i64, %arg1578: !llvm.ptr, %arg1579: !llvm.ptr, %arg1580: i64, %arg1581: i64, %arg1582: i64, %arg1583: i64, %arg1584: i64, %arg1585: !llvm.ptr, %arg1586: !llvm.ptr, %arg1587: i64, %arg1588: i64, %arg1589: i64, %arg1590: i64, %arg1591: i64, %arg1592: !llvm.ptr, %arg1593: !llvm.ptr, %arg1594: i64, %arg1595: i64, %arg1596: i64, %arg1597: i64, %arg1598: i64, %arg1599: !llvm.ptr, %arg1600: !llvm.ptr, %arg1601: i64, %arg1602: i64, %arg1603: i64, %arg1604: i64, %arg1605: i64, %arg1606: !llvm.ptr, %arg1607: !llvm.ptr, %arg1608: i64, %arg1609: i64, %arg1610: i64, %arg1611: i64, %arg1612: i64, %arg1613: !llvm.ptr, %arg1614: !llvm.ptr, %arg1615: i64, %arg1616: i64, %arg1617: i64, %arg1618: i64, %arg1619: i64, %arg1620: !llvm.ptr, %arg1621: !llvm.ptr, %arg1622: i64, %arg1623: i64, %arg1624: i64, %arg1625: i64, %arg1626: i64, %arg1627: !llvm.ptr, %arg1628: !llvm.ptr, %arg1629: i64, %arg1630: i64, %arg1631: i64, %arg1632: i64, %arg1633: i64, %arg1634: !llvm.ptr, %arg1635: !llvm.ptr, %arg1636: i64, %arg1637: i64, %arg1638: i64, %arg1639: i64, %arg1640: i64, %arg1641: !llvm.ptr, %arg1642: !llvm.ptr, %arg1643: i64, %arg1644: i64, %arg1645: i64, %arg1646: i64, %arg1647: i64, %arg1648: !llvm.ptr, %arg1649: !llvm.ptr, %arg1650: i64, %arg1651: i64, %arg1652: i64, %arg1653: i64, %arg1654: i64, %arg1655: !llvm.ptr, %arg1656: !llvm.ptr, %arg1657: i64, %arg1658: i64, %arg1659: i64, %arg1660: i64, %arg1661: i64, %arg1662: !llvm.ptr, %arg1663: !llvm.ptr, %arg1664: i64, %arg1665: i64, %arg1666: i64, %arg1667: i64, %arg1668: i64, %arg1669: !llvm.ptr, %arg1670: !llvm.ptr, %arg1671: i64, %arg1672: i64, %arg1673: i64, %arg1674: i64, %arg1675: i64, %arg1676: !llvm.ptr, %arg1677: !llvm.ptr, %arg1678: i64, %arg1679: i64, %arg1680: i64, %arg1681: i64, %arg1682: i64, %arg1683: !llvm.ptr, %arg1684: !llvm.ptr, %arg1685: i64, %arg1686: i64, %arg1687: i64, %arg1688: i64, %arg1689: i64, %arg1690: !llvm.ptr, %arg1691: !llvm.ptr, %arg1692: i64, %arg1693: i64, %arg1694: i64, %arg1695: i64, %arg1696: i64, %arg1697: !llvm.ptr, %arg1698: !llvm.ptr, %arg1699: i64, %arg1700: i64, %arg1701: i64, %arg1702: i64, %arg1703: i64, %arg1704: !llvm.ptr, %arg1705: !llvm.ptr, %arg1706: i64, %arg1707: i64, %arg1708: i64, %arg1709: i64, %arg1710: i64, %arg1711: !llvm.ptr, %arg1712: !llvm.ptr, %arg1713: i64, %arg1714: i64, %arg1715: i64, %arg1716: i64, %arg1717: i64, %arg1718: !llvm.ptr, %arg1719: !llvm.ptr, %arg1720: i64, %arg1721: i64, %arg1722: i64, %arg1723: i64, %arg1724: i64, %arg1725: !llvm.ptr, %arg1726: !llvm.ptr, %arg1727: i64, %arg1728: i64, %arg1729: i64, %arg1730: i64, %arg1731: i64, %arg1732: !llvm.ptr, %arg1733: !llvm.ptr, %arg1734: i64, %arg1735: i64, %arg1736: i64, %arg1737: i64, %arg1738: i64, %arg1739: !llvm.ptr, %arg1740: !llvm.ptr, %arg1741: i64, %arg1742: i64, %arg1743: i64, %arg1744: i64, %arg1745: i64, %arg1746: !llvm.ptr, %arg1747: !llvm.ptr, %arg1748: i64, %arg1749: i64, %arg1750: i64, %arg1751: i64, %arg1752: i64, %arg1753: !llvm.ptr, %arg1754: !llvm.ptr, %arg1755: i64, %arg1756: i64, %arg1757: i64, %arg1758: i64, %arg1759: i64, %arg1760: !llvm.ptr, %arg1761: !llvm.ptr, %arg1762: i64, %arg1763: i64, %arg1764: i64, %arg1765: i64, %arg1766: i64, %arg1767: !llvm.ptr, %arg1768: !llvm.ptr, %arg1769: i64, %arg1770: i64, %arg1771: i64, %arg1772: i64, %arg1773: i64, %arg1774: !llvm.ptr, %arg1775: !llvm.ptr, %arg1776: i64, %arg1777: i64, %arg1778: i64, %arg1779: i64, %arg1780: i64, %arg1781: !llvm.ptr, %arg1782: !llvm.ptr, %arg1783: i64, %arg1784: i64, %arg1785: i64, %arg1786: i64, %arg1787: i64, %arg1788: !llvm.ptr, %arg1789: !llvm.ptr, %arg1790: i64, %arg1791: i64, %arg1792: i64, %arg1793: i64, %arg1794: i64, %arg1795: !llvm.ptr, %arg1796: !llvm.ptr, %arg1797: i64, %arg1798: i64, %arg1799: i64, %arg1800: i64, %arg1801: i64, %arg1802: !llvm.ptr, %arg1803: !llvm.ptr, %arg1804: i64, %arg1805: i64, %arg1806: i64, %arg1807: i64, %arg1808: i64, %arg1809: !llvm.ptr, %arg1810: !llvm.ptr, %arg1811: i64, %arg1812: i64, %arg1813: i64, %arg1814: i64, %arg1815: i64, %arg1816: !llvm.ptr, %arg1817: !llvm.ptr, %arg1818: i64, %arg1819: i64, %arg1820: i64, %arg1821: i64, %arg1822: i64, %arg1823: !llvm.ptr, %arg1824: !llvm.ptr, %arg1825: i64, %arg1826: i64, %arg1827: i64, %arg1828: i64, %arg1829: i64, %arg1830: !llvm.ptr, %arg1831: !llvm.ptr, %arg1832: i64, %arg1833: i64, %arg1834: i64, %arg1835: i64, %arg1836: i64, %arg1837: !llvm.ptr, %arg1838: !llvm.ptr, %arg1839: i64, %arg1840: i64, %arg1841: i64, %arg1842: i64, %arg1843: i64, %arg1844: !llvm.ptr, %arg1845: !llvm.ptr, %arg1846: i64, %arg1847: i64, %arg1848: i64, %arg1849: i64, %arg1850: i64, %arg1851: !llvm.ptr, %arg1852: !llvm.ptr, %arg1853: i64, %arg1854: i64, %arg1855: i64, %arg1856: i64, %arg1857: i64, %arg1858: !llvm.ptr, %arg1859: !llvm.ptr, %arg1860: i64, %arg1861: i64, %arg1862: i64, %arg1863: i64, %arg1864: i64, %arg1865: !llvm.ptr, %arg1866: !llvm.ptr, %arg1867: i64, %arg1868: i64, %arg1869: i64, %arg1870: i64, %arg1871: i64, %arg1872: !llvm.ptr, %arg1873: !llvm.ptr, %arg1874: i64, %arg1875: i64, %arg1876: i64, %arg1877: i64, %arg1878: i64, %arg1879: !llvm.ptr, %arg1880: !llvm.ptr, %arg1881: i64, %arg1882: i64, %arg1883: i64, %arg1884: i64, %arg1885: i64, %arg1886: !llvm.ptr, %arg1887: !llvm.ptr, %arg1888: i64, %arg1889: i64, %arg1890: i64, %arg1891: i64, %arg1892: i64, %arg1893: !llvm.ptr, %arg1894: !llvm.ptr, %arg1895: i64, %arg1896: i64, %arg1897: i64, %arg1898: i64, %arg1899: i64, %arg1900: !llvm.ptr, %arg1901: !llvm.ptr, %arg1902: i64, %arg1903: i64, %arg1904: i64, %arg1905: i64, %arg1906: i64, %arg1907: !llvm.ptr, %arg1908: !llvm.ptr, %arg1909: i64, %arg1910: i64, %arg1911: i64, %arg1912: i64, %arg1913: i64, %arg1914: i64, %arg1915: i64, %arg1916: i64, %arg1917: i64, %arg1918: !llvm.ptr, %arg1919: !llvm.ptr, %arg1920: i64, %arg1921: i64, %arg1922: i64, %arg1923: i64, %arg1924: i64, %arg1925: i64, %arg1926: i64, %arg1927: i64, %arg1928: i64, %arg1929: !llvm.ptr, %arg1930: !llvm.ptr, %arg1931: i64, %arg1932: i64, %arg1933: i64, %arg1934: i64, %arg1935: i64, %arg1936: i64, %arg1937: i64, %arg1938: i64, %arg1939: i64, %arg1940: !llvm.ptr, %arg1941: !llvm.ptr, %arg1942: i64, %arg1943: i64, %arg1944: i64, %arg1945: i64, %arg1946: i64, %arg1947: i64, %arg1948: i64, %arg1949: i64, %arg1950: i64, %arg1951: !llvm.ptr, %arg1952: !llvm.ptr, %arg1953: i64, %arg1954: i64, %arg1955: i64, %arg1956: i64, %arg1957: i64, %arg1958: i64, %arg1959: i64, %arg1960: i64, %arg1961: i64, %arg1962: !llvm.ptr, %arg1963: !llvm.ptr, %arg1964: i64, %arg1965: i64, %arg1966: i64, %arg1967: i64, %arg1968: i64, %arg1969: i64, %arg1970: i64, %arg1971: i64, %arg1972: i64, %arg1973: !llvm.ptr, %arg1974: !llvm.ptr, %arg1975: i64, %arg1976: i64, %arg1977: i64, %arg1978: i64, %arg1979: i64, %arg1980: i64, %arg1981: i64, %arg1982: i64, %arg1983: i64, %arg1984: !llvm.ptr, %arg1985: !llvm.ptr, %arg1986: i64, %arg1987: i64, %arg1988: i64, %arg1989: i64, %arg1990: i64, %arg1991: i64, %arg1992: i64, %arg1993: i64, %arg1994: i64, %arg1995: !llvm.ptr, %arg1996: !llvm.ptr, %arg1997: i64, %arg1998: i64, %arg1999: i64, %arg2000: i64, %arg2001: i64, %arg2002: i64, %arg2003: i64, %arg2004: i64, %arg2005: i64, %arg2006: !llvm.ptr, %arg2007: !llvm.ptr, %arg2008: i64, %arg2009: i64, %arg2010: i64, %arg2011: i64, %arg2012: i64, %arg2013: i64, %arg2014: i64, %arg2015: i64, %arg2016: i64, %arg2017: !llvm.ptr, %arg2018: !llvm.ptr, %arg2019: i64, %arg2020: i64, %arg2021: i64, %arg2022: i64, %arg2023: i64, %arg2024: i64, %arg2025: i64, %arg2026: i64, %arg2027: i64, %arg2028: !llvm.ptr, %arg2029: !llvm.ptr, %arg2030: i64, %arg2031: i64, %arg2032: i64, %arg2033: i64, %arg2034: i64, %arg2035: i64, %arg2036: i64, %arg2037: i64, %arg2038: i64, %arg2039: !llvm.ptr, %arg2040: !llvm.ptr, %arg2041: i64, %arg2042: i64, %arg2043: i64, %arg2044: i64, %arg2045: i64, %arg2046: i64, %arg2047: i64, %arg2048: i64, %arg2049: i64, %arg2050: !llvm.ptr, %arg2051: !llvm.ptr, %arg2052: i64, %arg2053: i64, %arg2054: i64, %arg2055: i64, %arg2056: i64, %arg2057: i64, %arg2058: i64, %arg2059: i64, %arg2060: i64, %arg2061: !llvm.ptr, %arg2062: !llvm.ptr, %arg2063: i64, %arg2064: i64, %arg2065: i64, %arg2066: i64, %arg2067: i64, %arg2068: i64, %arg2069: i64, %arg2070: i64, %arg2071: i64, %arg2072: !llvm.ptr, %arg2073: !llvm.ptr, %arg2074: i64, %arg2075: i64, %arg2076: i64, %arg2077: i64, %arg2078: i64, %arg2079: i64, %arg2080: i64, %arg2081: i64, %arg2082: i64, %arg2083: !llvm.ptr, %arg2084: !llvm.ptr, %arg2085: i64, %arg2086: i64, %arg2087: i64, %arg2088: i64, %arg2089: i64, %arg2090: i64, %arg2091: i64, %arg2092: i64, %arg2093: i64, %arg2094: !llvm.ptr, %arg2095: !llvm.ptr, %arg2096: i64, %arg2097: i64, %arg2098: i64, %arg2099: i64, %arg2100: i64, %arg2101: i64, %arg2102: i64, %arg2103: i64, %arg2104: i64, %arg2105: !llvm.ptr, %arg2106: !llvm.ptr, %arg2107: i64, %arg2108: i64, %arg2109: i64, %arg2110: i64, %arg2111: i64, %arg2112: i64, %arg2113: i64, %arg2114: i64, %arg2115: i64, %arg2116: !llvm.ptr, %arg2117: !llvm.ptr, %arg2118: i64, %arg2119: i64, %arg2120: i64, %arg2121: i64, %arg2122: i64, %arg2123: i64, %arg2124: i64, %arg2125: i64, %arg2126: i64, %arg2127: !llvm.ptr, %arg2128: !llvm.ptr, %arg2129: i64, %arg2130: i64, %arg2131: i64, %arg2132: i64, %arg2133: i64, %arg2134: i64, %arg2135: i64, %arg2136: i64, %arg2137: i64, %arg2138: !llvm.ptr, %arg2139: !llvm.ptr, %arg2140: i64, %arg2141: i64, %arg2142: i64, %arg2143: i64, %arg2144: i64, %arg2145: i64, %arg2146: i64, %arg2147: i64, %arg2148: i64, %arg2149: !llvm.ptr, %arg2150: !llvm.ptr, %arg2151: i64, %arg2152: i64, %arg2153: i64, %arg2154: i64, %arg2155: i64, %arg2156: i64, %arg2157: i64, %arg2158: i64, %arg2159: i64, %arg2160: !llvm.ptr, %arg2161: !llvm.ptr, %arg2162: i64, %arg2163: i64, %arg2164: i64, %arg2165: i64, %arg2166: i64, %arg2167: i64, %arg2168: i64, %arg2169: i64, %arg2170: i64, %arg2171: !llvm.ptr, %arg2172: !llvm.ptr, %arg2173: i64, %arg2174: i64, %arg2175: i64, %arg2176: i64, %arg2177: i64, %arg2178: i64, %arg2179: i64, %arg2180: i64, %arg2181: i64, %arg2182: !llvm.ptr, %arg2183: !llvm.ptr, %arg2184: i64, %arg2185: i64, %arg2186: i64, %arg2187: i64, %arg2188: i64, %arg2189: i64, %arg2190: i64, %arg2191: i64, %arg2192: i64, %arg2193: !llvm.ptr, %arg2194: !llvm.ptr, %arg2195: i64, %arg2196: i64, %arg2197: i64, %arg2198: i64, %arg2199: i64, %arg2200: i64, %arg2201: i64, %arg2202: i64, %arg2203: i64, %arg2204: !llvm.ptr, %arg2205: !llvm.ptr, %arg2206: i64, %arg2207: i64, %arg2208: i64, %arg2209: i64, %arg2210: i64, %arg2211: i64, %arg2212: i64, %arg2213: i64, %arg2214: i64, %arg2215: !llvm.ptr, %arg2216: !llvm.ptr, %arg2217: i64, %arg2218: i64, %arg2219: i64, %arg2220: i64, %arg2221: i64, %arg2222: i64, %arg2223: i64, %arg2224: i64, %arg2225: i64, %arg2226: !llvm.ptr, %arg2227: !llvm.ptr, %arg2228: i64, %arg2229: i64, %arg2230: i64, %arg2231: i64, %arg2232: i64, %arg2233: i64, %arg2234: i64, %arg2235: i64, %arg2236: i64, %arg2237: !llvm.ptr, %arg2238: !llvm.ptr, %arg2239: i64, %arg2240: i64, %arg2241: i64, %arg2242: i64, %arg2243: i64, %arg2244: i64, %arg2245: i64, %arg2246: i64, %arg2247: i64, %arg2248: !llvm.ptr, %arg2249: !llvm.ptr, %arg2250: i64, %arg2251: i64, %arg2252: i64, %arg2253: i64, %arg2254: i64, %arg2255: i64, %arg2256: i64, %arg2257: i64, %arg2258: i64, %arg2259: !llvm.ptr, %arg2260: !llvm.ptr, %arg2261: i64, %arg2262: i64, %arg2263: i64, %arg2264: i64, %arg2265: i64, %arg2266: i64, %arg2267: i64, %arg2268: i64, %arg2269: i64, %arg2270: !llvm.ptr, %arg2271: !llvm.ptr, %arg2272: i64, %arg2273: i64, %arg2274: i64, %arg2275: i64, %arg2276: i64, %arg2277: i64, %arg2278: i64, %arg2279: i64, %arg2280: i64, %arg2281: !llvm.ptr, %arg2282: !llvm.ptr, %arg2283: i64, %arg2284: i64, %arg2285: i64, %arg2286: i64, %arg2287: i64, %arg2288: i64, %arg2289: i64, %arg2290: i64, %arg2291: i64, %arg2292: !llvm.ptr, %arg2293: !llvm.ptr, %arg2294: i64, %arg2295: i64, %arg2296: i64, %arg2297: i64, %arg2298: i64, %arg2299: i64, %arg2300: i64, %arg2301: i64, %arg2302: i64, %arg2303: !llvm.ptr, %arg2304: !llvm.ptr, %arg2305: i64, %arg2306: i64, %arg2307: i64, %arg2308: i64, %arg2309: i64, %arg2310: i64, %arg2311: i64, %arg2312: i64, %arg2313: i64, %arg2314: !llvm.ptr, %arg2315: !llvm.ptr, %arg2316: i64, %arg2317: i64, %arg2318: i64, %arg2319: i64, %arg2320: i64, %arg2321: i64, %arg2322: i64, %arg2323: i64, %arg2324: i64, %arg2325: !llvm.ptr, %arg2326: !llvm.ptr, %arg2327: i64, %arg2328: i64, %arg2329: i64, %arg2330: i64, %arg2331: i64, %arg2332: i64, %arg2333: i64, %arg2334: i64, %arg2335: i64, %arg2336: !llvm.ptr, %arg2337: !llvm.ptr, %arg2338: i64, %arg2339: i64, %arg2340: i64, %arg2341: i64, %arg2342: i64, %arg2343: i64, %arg2344: i64, %arg2345: i64, %arg2346: i64, %arg2347: !llvm.ptr, %arg2348: !llvm.ptr, %arg2349: i64, %arg2350: i64, %arg2351: i64, %arg2352: i64, %arg2353: i64, %arg2354: i64, %arg2355: i64, %arg2356: i64, %arg2357: i64, %arg2358: !llvm.ptr, %arg2359: !llvm.ptr, %arg2360: i64, %arg2361: i64, %arg2362: i64, %arg2363: i64, %arg2364: i64, %arg2365: i64, %arg2366: i64, %arg2367: i64, %arg2368: i64, %arg2369: !llvm.ptr, %arg2370: !llvm.ptr, %arg2371: i64, %arg2372: i64, %arg2373: i64, %arg2374: i64, %arg2375: i64, %arg2376: i64, %arg2377: i64, %arg2378: i64, %arg2379: i64, %arg2380: !llvm.ptr, %arg2381: !llvm.ptr, %arg2382: i64, %arg2383: i64, %arg2384: i64, %arg2385: i64, %arg2386: i64, %arg2387: i64, %arg2388: i64, %arg2389: i64, %arg2390: i64, %arg2391: !llvm.ptr, %arg2392: !llvm.ptr, %arg2393: i64, %arg2394: i64, %arg2395: i64, %arg2396: i64, %arg2397: i64, %arg2398: i64, %arg2399: i64, %arg2400: i64, %arg2401: i64, %arg2402: !llvm.ptr, %arg2403: !llvm.ptr, %arg2404: i64, %arg2405: i64, %arg2406: i64, %arg2407: i64, %arg2408: i64, %arg2409: i64, %arg2410: i64, %arg2411: i64, %arg2412: i64, %arg2413: !llvm.ptr, %arg2414: !llvm.ptr, %arg2415: i64, %arg2416: i64, %arg2417: i64, %arg2418: i64, %arg2419: i64, %arg2420: i64, %arg2421: i64, %arg2422: i64, %arg2423: i64, %arg2424: !llvm.ptr, %arg2425: !llvm.ptr, %arg2426: i64, %arg2427: i64, %arg2428: i64, %arg2429: i64, %arg2430: i64, %arg2431: i64, %arg2432: i64, %arg2433: i64, %arg2434: i64, %arg2435: !llvm.ptr, %arg2436: !llvm.ptr, %arg2437: i64, %arg2438: i64, %arg2439: i64, %arg2440: i64, %arg2441: i64, %arg2442: i64, %arg2443: i64, %arg2444: i64, %arg2445: i64, %arg2446: !llvm.ptr, %arg2447: !llvm.ptr, %arg2448: i64, %arg2449: i64, %arg2450: i64, %arg2451: i64, %arg2452: i64, %arg2453: i64, %arg2454: i64, %arg2455: i64, %arg2456: i64, %arg2457: !llvm.ptr, %arg2458: !llvm.ptr, %arg2459: i64, %arg2460: i64, %arg2461: i64, %arg2462: i64, %arg2463: i64, %arg2464: i64, %arg2465: i64, %arg2466: i64, %arg2467: i64, %arg2468: !llvm.ptr, %arg2469: !llvm.ptr, %arg2470: i64, %arg2471: i64, %arg2472: i64, %arg2473: i64, %arg2474: i64, %arg2475: i64, %arg2476: i64, %arg2477: i64, %arg2478: i64, %arg2479: !llvm.ptr, %arg2480: !llvm.ptr, %arg2481: i64, %arg2482: i64, %arg2483: i64, %arg2484: i64, %arg2485: i64, %arg2486: i64, %arg2487: i64, %arg2488: i64, %arg2489: i64, %arg2490: !llvm.ptr, %arg2491: !llvm.ptr, %arg2492: i64, %arg2493: i64, %arg2494: i64, %arg2495: i64, %arg2496: i64, %arg2497: i64, %arg2498: i64, %arg2499: i64, %arg2500: i64, %arg2501: !llvm.ptr, %arg2502: !llvm.ptr, %arg2503: i64, %arg2504: i64, %arg2505: i64, %arg2506: i64, %arg2507: i64, %arg2508: i64, %arg2509: i64, %arg2510: i64, %arg2511: i64, %arg2512: !llvm.ptr, %arg2513: !llvm.ptr, %arg2514: i64, %arg2515: i64, %arg2516: i64, %arg2517: i64, %arg2518: i64, %arg2519: i64, %arg2520: i64, %arg2521: i64, %arg2522: i64, %arg2523: !llvm.ptr, %arg2524: !llvm.ptr, %arg2525: i64, %arg2526: i64, %arg2527: i64, %arg2528: i64, %arg2529: i64, %arg2530: i64, %arg2531: i64, %arg2532: i64, %arg2533: i64, %arg2534: !llvm.ptr, %arg2535: !llvm.ptr, %arg2536: i64, %arg2537: i64, %arg2538: i64, %arg2539: i64, %arg2540: i64, %arg2541: i64, %arg2542: i64, %arg2543: i64, %arg2544: i64, %arg2545: !llvm.ptr, %arg2546: !llvm.ptr, %arg2547: i64, %arg2548: i64, %arg2549: i64, %arg2550: i64, %arg2551: i64, %arg2552: i64, %arg2553: i64, %arg2554: i64, %arg2555: i64, %arg2556: !llvm.ptr, %arg2557: !llvm.ptr, %arg2558: i64, %arg2559: i64, %arg2560: i64, %arg2561: i64, %arg2562: i64, %arg2563: i64, %arg2564: i64, %arg2565: i64, %arg2566: i64, %arg2567: !llvm.ptr, %arg2568: !llvm.ptr, %arg2569: i64, %arg2570: i64, %arg2571: i64, %arg2572: i64, %arg2573: i64, %arg2574: i64, %arg2575: i64, %arg2576: i64, %arg2577: i64, %arg2578: !llvm.ptr, %arg2579: !llvm.ptr, %arg2580: i64, %arg2581: i64, %arg2582: i64, %arg2583: i64, %arg2584: i64, %arg2585: i64, %arg2586: i64, %arg2587: i64, %arg2588: i64, %arg2589: !llvm.ptr, %arg2590: !llvm.ptr, %arg2591: i64, %arg2592: i64, %arg2593: i64, %arg2594: i64, %arg2595: i64, %arg2596: i64, %arg2597: i64, %arg2598: i64, %arg2599: i64, %arg2600: !llvm.ptr, %arg2601: !llvm.ptr, %arg2602: i64, %arg2603: i64, %arg2604: i64, %arg2605: i64, %arg2606: i64, %arg2607: i64, %arg2608: i64, %arg2609: i64, %arg2610: i64, %arg2611: !llvm.ptr, %arg2612: !llvm.ptr, %arg2613: i64, %arg2614: i64, %arg2615: i64, %arg2616: i64, %arg2617: i64) {
    llvm.return
  }
}

