#map = affine_map<(d0, d1, d2) -> (d0, d1)>
#map1 = affine_map<(d0, d1, d2) -> (d0, d1, d2)>
#map2 = affine_map<(d0, d1, d2) -> (d1)>
#map3 = affine_map<(d0, d1, d2) -> (d0, d2)>
#map4 = affine_map<(d0, d1) -> (d0, d1)>
#map5 = affine_map<(d0, d1, d2, d3) -> (d0, d1, d2, d3)>
#map6 = affine_map<(d0, d1, d2, d3) -> (d0, d1, d2)>
#map7 = affine_map<(d0, d1, d2, d3) -> (d0, d1, d3)>
#map8 = affine_map<(d0, d1, d2) -> (d2)>
#map9 = affine_map<(d0, d1) -> (d1, d0)>
#map10 = affine_map<(d0, d1, d2) -> (d2, d1)>
#map11 = affine_map<(d0, d1, d2, d3) -> (d0, d2, d1, d3)>
#map12 = affine_map<(d0, d1, d2) -> (d0, 0, d1, d2)>
#map13 = affine_map<(d0, d1) -> (0, d0, d1)>
#map14 = affine_map<(d0, d1, d2, d3, d4) -> (d0, d4, d2, d3)>
#map15 = affine_map<(d0, d1, d2, d3, d4) -> (d0, d1, d2, d3)>
#map16 = affine_map<(d0, d1, d2, d3) -> (d0, d1, d3, d2)>
#map17 = affine_map<(d0, d1, d2, d3) -> (d0, d1, d2, 0)>
module {
  func.func @forward(%arg0: tensor<6755192832xf32>, %arg1: tensor<1x80xi64>) -> tensor<1x80x32000xf32> {
    %extracted_slice = tensor.extract_slice %arg0[0] [4096] [1] : tensor<6755192832xf32> to tensor<4096xf32>
    %extracted_slice_0 = tensor.extract_slice %arg0[4096] [4096] [1] : tensor<6755192832xf32> to tensor<4096xf32>
    %extracted_slice_1 = tensor.extract_slice %arg0[8192] [4096] [1] : tensor<6755192832xf32> to tensor<4096xf32>
    %extracted_slice_2 = tensor.extract_slice %arg0[12288] [4096] [1] : tensor<6755192832xf32> to tensor<4096xf32>
    %extracted_slice_3 = tensor.extract_slice %arg0[16384] [4096] [1] : tensor<6755192832xf32> to tensor<4096xf32>
    %extracted_slice_4 = tensor.extract_slice %arg0[20480] [4096] [1] : tensor<6755192832xf32> to tensor<4096xf32>
    %extracted_slice_5 = tensor.extract_slice %arg0[24576] [4096] [1] : tensor<6755192832xf32> to tensor<4096xf32>
    %extracted_slice_6 = tensor.extract_slice %arg0[28672] [4096] [1] : tensor<6755192832xf32> to tensor<4096xf32>
    %extracted_slice_7 = tensor.extract_slice %arg0[32768] [4096] [1] : tensor<6755192832xf32> to tensor<4096xf32>
    %extracted_slice_8 = tensor.extract_slice %arg0[36864] [4096] [1] : tensor<6755192832xf32> to tensor<4096xf32>
    %extracted_slice_9 = tensor.extract_slice %arg0[40960] [4096] [1] : tensor<6755192832xf32> to tensor<4096xf32>
    %extracted_slice_10 = tensor.extract_slice %arg0[45056] [4096] [1] : tensor<6755192832xf32> to tensor<4096xf32>
    %extracted_slice_11 = tensor.extract_slice %arg0[49152] [4096] [1] : tensor<6755192832xf32> to tensor<4096xf32>
    %extracted_slice_12 = tensor.extract_slice %arg0[53248] [4096] [1] : tensor<6755192832xf32> to tensor<4096xf32>
    %extracted_slice_13 = tensor.extract_slice %arg0[57344] [4096] [1] : tensor<6755192832xf32> to tensor<4096xf32>
    %extracted_slice_14 = tensor.extract_slice %arg0[61440] [4096] [1] : tensor<6755192832xf32> to tensor<4096xf32>
    %extracted_slice_15 = tensor.extract_slice %arg0[65536] [4096] [1] : tensor<6755192832xf32> to tensor<4096xf32>
    %extracted_slice_16 = tensor.extract_slice %arg0[69632] [4096] [1] : tensor<6755192832xf32> to tensor<4096xf32>
    %extracted_slice_17 = tensor.extract_slice %arg0[73728] [4096] [1] : tensor<6755192832xf32> to tensor<4096xf32>
    %extracted_slice_18 = tensor.extract_slice %arg0[77824] [4096] [1] : tensor<6755192832xf32> to tensor<4096xf32>
    %extracted_slice_19 = tensor.extract_slice %arg0[81920] [4096] [1] : tensor<6755192832xf32> to tensor<4096xf32>
    %extracted_slice_20 = tensor.extract_slice %arg0[86016] [4096] [1] : tensor<6755192832xf32> to tensor<4096xf32>
    %extracted_slice_21 = tensor.extract_slice %arg0[90112] [4096] [1] : tensor<6755192832xf32> to tensor<4096xf32>
    %extracted_slice_22 = tensor.extract_slice %arg0[94208] [4096] [1] : tensor<6755192832xf32> to tensor<4096xf32>
    %extracted_slice_23 = tensor.extract_slice %arg0[98304] [4096] [1] : tensor<6755192832xf32> to tensor<4096xf32>
    %extracted_slice_24 = tensor.extract_slice %arg0[102400] [4096] [1] : tensor<6755192832xf32> to tensor<4096xf32>
    %extracted_slice_25 = tensor.extract_slice %arg0[106496] [4096] [1] : tensor<6755192832xf32> to tensor<4096xf32>
    %extracted_slice_26 = tensor.extract_slice %arg0[110592] [4096] [1] : tensor<6755192832xf32> to tensor<4096xf32>
    %extracted_slice_27 = tensor.extract_slice %arg0[114688] [4096] [1] : tensor<6755192832xf32> to tensor<4096xf32>
    %extracted_slice_28 = tensor.extract_slice %arg0[118784] [4096] [1] : tensor<6755192832xf32> to tensor<4096xf32>
    %extracted_slice_29 = tensor.extract_slice %arg0[122880] [4096] [1] : tensor<6755192832xf32> to tensor<4096xf32>
    %extracted_slice_30 = tensor.extract_slice %arg0[126976] [4096] [1] : tensor<6755192832xf32> to tensor<4096xf32>
    %extracted_slice_31 = tensor.extract_slice %arg0[131072] [4096] [1] : tensor<6755192832xf32> to tensor<4096xf32>
    %extracted_slice_32 = tensor.extract_slice %arg0[135168] [4096] [1] : tensor<6755192832xf32> to tensor<4096xf32>
    %extracted_slice_33 = tensor.extract_slice %arg0[139264] [4096] [1] : tensor<6755192832xf32> to tensor<4096xf32>
    %extracted_slice_34 = tensor.extract_slice %arg0[143360] [4096] [1] : tensor<6755192832xf32> to tensor<4096xf32>
    %extracted_slice_35 = tensor.extract_slice %arg0[147456] [4096] [1] : tensor<6755192832xf32> to tensor<4096xf32>
    %extracted_slice_36 = tensor.extract_slice %arg0[151552] [4096] [1] : tensor<6755192832xf32> to tensor<4096xf32>
    %extracted_slice_37 = tensor.extract_slice %arg0[155648] [4096] [1] : tensor<6755192832xf32> to tensor<4096xf32>
    %extracted_slice_38 = tensor.extract_slice %arg0[159744] [4096] [1] : tensor<6755192832xf32> to tensor<4096xf32>
    %extracted_slice_39 = tensor.extract_slice %arg0[163840] [4096] [1] : tensor<6755192832xf32> to tensor<4096xf32>
    %extracted_slice_40 = tensor.extract_slice %arg0[167936] [4096] [1] : tensor<6755192832xf32> to tensor<4096xf32>
    %extracted_slice_41 = tensor.extract_slice %arg0[172032] [4096] [1] : tensor<6755192832xf32> to tensor<4096xf32>
    %extracted_slice_42 = tensor.extract_slice %arg0[176128] [4096] [1] : tensor<6755192832xf32> to tensor<4096xf32>
    %extracted_slice_43 = tensor.extract_slice %arg0[180224] [4096] [1] : tensor<6755192832xf32> to tensor<4096xf32>
    %extracted_slice_44 = tensor.extract_slice %arg0[184320] [4096] [1] : tensor<6755192832xf32> to tensor<4096xf32>
    %extracted_slice_45 = tensor.extract_slice %arg0[188416] [4096] [1] : tensor<6755192832xf32> to tensor<4096xf32>
    %extracted_slice_46 = tensor.extract_slice %arg0[192512] [4096] [1] : tensor<6755192832xf32> to tensor<4096xf32>
    %extracted_slice_47 = tensor.extract_slice %arg0[196608] [4096] [1] : tensor<6755192832xf32> to tensor<4096xf32>
    %extracted_slice_48 = tensor.extract_slice %arg0[200704] [4096] [1] : tensor<6755192832xf32> to tensor<4096xf32>
    %extracted_slice_49 = tensor.extract_slice %arg0[204800] [4096] [1] : tensor<6755192832xf32> to tensor<4096xf32>
    %extracted_slice_50 = tensor.extract_slice %arg0[208896] [4096] [1] : tensor<6755192832xf32> to tensor<4096xf32>
    %extracted_slice_51 = tensor.extract_slice %arg0[212992] [4096] [1] : tensor<6755192832xf32> to tensor<4096xf32>
    %extracted_slice_52 = tensor.extract_slice %arg0[217088] [4096] [1] : tensor<6755192832xf32> to tensor<4096xf32>
    %extracted_slice_53 = tensor.extract_slice %arg0[221184] [4096] [1] : tensor<6755192832xf32> to tensor<4096xf32>
    %extracted_slice_54 = tensor.extract_slice %arg0[225280] [4096] [1] : tensor<6755192832xf32> to tensor<4096xf32>
    %extracted_slice_55 = tensor.extract_slice %arg0[229376] [4096] [1] : tensor<6755192832xf32> to tensor<4096xf32>
    %extracted_slice_56 = tensor.extract_slice %arg0[233472] [4096] [1] : tensor<6755192832xf32> to tensor<4096xf32>
    %extracted_slice_57 = tensor.extract_slice %arg0[237568] [4096] [1] : tensor<6755192832xf32> to tensor<4096xf32>
    %extracted_slice_58 = tensor.extract_slice %arg0[241664] [4096] [1] : tensor<6755192832xf32> to tensor<4096xf32>
    %extracted_slice_59 = tensor.extract_slice %arg0[245760] [4096] [1] : tensor<6755192832xf32> to tensor<4096xf32>
    %extracted_slice_60 = tensor.extract_slice %arg0[249856] [4096] [1] : tensor<6755192832xf32> to tensor<4096xf32>
    %extracted_slice_61 = tensor.extract_slice %arg0[253952] [4096] [1] : tensor<6755192832xf32> to tensor<4096xf32>
    %extracted_slice_62 = tensor.extract_slice %arg0[258048] [4096] [1] : tensor<6755192832xf32> to tensor<4096xf32>
    %extracted_slice_63 = tensor.extract_slice %arg0[262144] [4096] [1] : tensor<6755192832xf32> to tensor<4096xf32>
    %extracted_slice_64 = tensor.extract_slice %arg0[266240] [131072000] [1] : tensor<6755192832xf32> to tensor<131072000xf32>
    %expanded = tensor.expand_shape %extracted_slice_64 [[0, 1]] : tensor<131072000xf32> into tensor<32000x4096xf32>
    %extracted_slice_65 = tensor.extract_slice %arg0[131338240] [16777216] [1] : tensor<6755192832xf32> to tensor<16777216xf32>
    %expanded_66 = tensor.expand_shape %extracted_slice_65 [[0, 1]] : tensor<16777216xf32> into tensor<4096x4096xf32>
    %extracted_slice_67 = tensor.extract_slice %arg0[148115456] [16777216] [1] : tensor<6755192832xf32> to tensor<16777216xf32>
    %expanded_68 = tensor.expand_shape %extracted_slice_67 [[0, 1]] : tensor<16777216xf32> into tensor<4096x4096xf32>
    %extracted_slice_69 = tensor.extract_slice %arg0[164892672] [16777216] [1] : tensor<6755192832xf32> to tensor<16777216xf32>
    %expanded_70 = tensor.expand_shape %extracted_slice_69 [[0, 1]] : tensor<16777216xf32> into tensor<4096x4096xf32>
    %extracted_slice_71 = tensor.extract_slice %arg0[181669888] [16777216] [1] : tensor<6755192832xf32> to tensor<16777216xf32>
    %expanded_72 = tensor.expand_shape %extracted_slice_71 [[0, 1]] : tensor<16777216xf32> into tensor<4096x4096xf32>
    %extracted_slice_73 = tensor.extract_slice %arg0[198447104] [45088768] [1] : tensor<6755192832xf32> to tensor<45088768xf32>
    %expanded_74 = tensor.expand_shape %extracted_slice_73 [[0, 1]] : tensor<45088768xf32> into tensor<11008x4096xf32>
    %extracted_slice_75 = tensor.extract_slice %arg0[243535872] [45088768] [1] : tensor<6755192832xf32> to tensor<45088768xf32>
    %expanded_76 = tensor.expand_shape %extracted_slice_75 [[0, 1]] : tensor<45088768xf32> into tensor<11008x4096xf32>
    %extracted_slice_77 = tensor.extract_slice %arg0[288624640] [45088768] [1] : tensor<6755192832xf32> to tensor<45088768xf32>
    %expanded_78 = tensor.expand_shape %extracted_slice_77 [[0, 1]] : tensor<45088768xf32> into tensor<4096x11008xf32>
    %extracted_slice_79 = tensor.extract_slice %arg0[333713408] [16777216] [1] : tensor<6755192832xf32> to tensor<16777216xf32>
    %expanded_80 = tensor.expand_shape %extracted_slice_79 [[0, 1]] : tensor<16777216xf32> into tensor<4096x4096xf32>
    %extracted_slice_81 = tensor.extract_slice %arg0[350490624] [16777216] [1] : tensor<6755192832xf32> to tensor<16777216xf32>
    %expanded_82 = tensor.expand_shape %extracted_slice_81 [[0, 1]] : tensor<16777216xf32> into tensor<4096x4096xf32>
    %extracted_slice_83 = tensor.extract_slice %arg0[367267840] [16777216] [1] : tensor<6755192832xf32> to tensor<16777216xf32>
    %expanded_84 = tensor.expand_shape %extracted_slice_83 [[0, 1]] : tensor<16777216xf32> into tensor<4096x4096xf32>
    %extracted_slice_85 = tensor.extract_slice %arg0[384045056] [16777216] [1] : tensor<6755192832xf32> to tensor<16777216xf32>
    %expanded_86 = tensor.expand_shape %extracted_slice_85 [[0, 1]] : tensor<16777216xf32> into tensor<4096x4096xf32>
    %extracted_slice_87 = tensor.extract_slice %arg0[400822272] [45088768] [1] : tensor<6755192832xf32> to tensor<45088768xf32>
    %expanded_88 = tensor.expand_shape %extracted_slice_87 [[0, 1]] : tensor<45088768xf32> into tensor<11008x4096xf32>
    %extracted_slice_89 = tensor.extract_slice %arg0[445911040] [45088768] [1] : tensor<6755192832xf32> to tensor<45088768xf32>
    %expanded_90 = tensor.expand_shape %extracted_slice_89 [[0, 1]] : tensor<45088768xf32> into tensor<11008x4096xf32>
    %extracted_slice_91 = tensor.extract_slice %arg0[490999808] [45088768] [1] : tensor<6755192832xf32> to tensor<45088768xf32>
    %expanded_92 = tensor.expand_shape %extracted_slice_91 [[0, 1]] : tensor<45088768xf32> into tensor<4096x11008xf32>
    %extracted_slice_93 = tensor.extract_slice %arg0[536088576] [16777216] [1] : tensor<6755192832xf32> to tensor<16777216xf32>
    %expanded_94 = tensor.expand_shape %extracted_slice_93 [[0, 1]] : tensor<16777216xf32> into tensor<4096x4096xf32>
    %extracted_slice_95 = tensor.extract_slice %arg0[552865792] [16777216] [1] : tensor<6755192832xf32> to tensor<16777216xf32>
    %expanded_96 = tensor.expand_shape %extracted_slice_95 [[0, 1]] : tensor<16777216xf32> into tensor<4096x4096xf32>
    %extracted_slice_97 = tensor.extract_slice %arg0[569643008] [16777216] [1] : tensor<6755192832xf32> to tensor<16777216xf32>
    %expanded_98 = tensor.expand_shape %extracted_slice_97 [[0, 1]] : tensor<16777216xf32> into tensor<4096x4096xf32>
    %extracted_slice_99 = tensor.extract_slice %arg0[586420224] [16777216] [1] : tensor<6755192832xf32> to tensor<16777216xf32>
    %expanded_100 = tensor.expand_shape %extracted_slice_99 [[0, 1]] : tensor<16777216xf32> into tensor<4096x4096xf32>
    %extracted_slice_101 = tensor.extract_slice %arg0[603197440] [45088768] [1] : tensor<6755192832xf32> to tensor<45088768xf32>
    %expanded_102 = tensor.expand_shape %extracted_slice_101 [[0, 1]] : tensor<45088768xf32> into tensor<11008x4096xf32>
    %extracted_slice_103 = tensor.extract_slice %arg0[648286208] [45088768] [1] : tensor<6755192832xf32> to tensor<45088768xf32>
    %expanded_104 = tensor.expand_shape %extracted_slice_103 [[0, 1]] : tensor<45088768xf32> into tensor<11008x4096xf32>
    %extracted_slice_105 = tensor.extract_slice %arg0[693374976] [45088768] [1] : tensor<6755192832xf32> to tensor<45088768xf32>
    %expanded_106 = tensor.expand_shape %extracted_slice_105 [[0, 1]] : tensor<45088768xf32> into tensor<4096x11008xf32>
    %extracted_slice_107 = tensor.extract_slice %arg0[738463744] [16777216] [1] : tensor<6755192832xf32> to tensor<16777216xf32>
    %expanded_108 = tensor.expand_shape %extracted_slice_107 [[0, 1]] : tensor<16777216xf32> into tensor<4096x4096xf32>
    %extracted_slice_109 = tensor.extract_slice %arg0[755240960] [16777216] [1] : tensor<6755192832xf32> to tensor<16777216xf32>
    %expanded_110 = tensor.expand_shape %extracted_slice_109 [[0, 1]] : tensor<16777216xf32> into tensor<4096x4096xf32>
    %extracted_slice_111 = tensor.extract_slice %arg0[772018176] [16777216] [1] : tensor<6755192832xf32> to tensor<16777216xf32>
    %expanded_112 = tensor.expand_shape %extracted_slice_111 [[0, 1]] : tensor<16777216xf32> into tensor<4096x4096xf32>
    %extracted_slice_113 = tensor.extract_slice %arg0[788795392] [16777216] [1] : tensor<6755192832xf32> to tensor<16777216xf32>
    %expanded_114 = tensor.expand_shape %extracted_slice_113 [[0, 1]] : tensor<16777216xf32> into tensor<4096x4096xf32>
    %extracted_slice_115 = tensor.extract_slice %arg0[805572608] [45088768] [1] : tensor<6755192832xf32> to tensor<45088768xf32>
    %expanded_116 = tensor.expand_shape %extracted_slice_115 [[0, 1]] : tensor<45088768xf32> into tensor<11008x4096xf32>
    %extracted_slice_117 = tensor.extract_slice %arg0[850661376] [45088768] [1] : tensor<6755192832xf32> to tensor<45088768xf32>
    %expanded_118 = tensor.expand_shape %extracted_slice_117 [[0, 1]] : tensor<45088768xf32> into tensor<11008x4096xf32>
    %extracted_slice_119 = tensor.extract_slice %arg0[895750144] [45088768] [1] : tensor<6755192832xf32> to tensor<45088768xf32>
    %expanded_120 = tensor.expand_shape %extracted_slice_119 [[0, 1]] : tensor<45088768xf32> into tensor<4096x11008xf32>
    %extracted_slice_121 = tensor.extract_slice %arg0[940838912] [16777216] [1] : tensor<6755192832xf32> to tensor<16777216xf32>
    %expanded_122 = tensor.expand_shape %extracted_slice_121 [[0, 1]] : tensor<16777216xf32> into tensor<4096x4096xf32>
    %extracted_slice_123 = tensor.extract_slice %arg0[957616128] [16777216] [1] : tensor<6755192832xf32> to tensor<16777216xf32>
    %expanded_124 = tensor.expand_shape %extracted_slice_123 [[0, 1]] : tensor<16777216xf32> into tensor<4096x4096xf32>
    %extracted_slice_125 = tensor.extract_slice %arg0[974393344] [16777216] [1] : tensor<6755192832xf32> to tensor<16777216xf32>
    %expanded_126 = tensor.expand_shape %extracted_slice_125 [[0, 1]] : tensor<16777216xf32> into tensor<4096x4096xf32>
    %extracted_slice_127 = tensor.extract_slice %arg0[991170560] [16777216] [1] : tensor<6755192832xf32> to tensor<16777216xf32>
    %expanded_128 = tensor.expand_shape %extracted_slice_127 [[0, 1]] : tensor<16777216xf32> into tensor<4096x4096xf32>
    %extracted_slice_129 = tensor.extract_slice %arg0[1007947776] [45088768] [1] : tensor<6755192832xf32> to tensor<45088768xf32>
    %expanded_130 = tensor.expand_shape %extracted_slice_129 [[0, 1]] : tensor<45088768xf32> into tensor<11008x4096xf32>
    %extracted_slice_131 = tensor.extract_slice %arg0[1053036544] [45088768] [1] : tensor<6755192832xf32> to tensor<45088768xf32>
    %expanded_132 = tensor.expand_shape %extracted_slice_131 [[0, 1]] : tensor<45088768xf32> into tensor<11008x4096xf32>
    %extracted_slice_133 = tensor.extract_slice %arg0[1098125312] [45088768] [1] : tensor<6755192832xf32> to tensor<45088768xf32>
    %expanded_134 = tensor.expand_shape %extracted_slice_133 [[0, 1]] : tensor<45088768xf32> into tensor<4096x11008xf32>
    %extracted_slice_135 = tensor.extract_slice %arg0[1143214080] [16777216] [1] : tensor<6755192832xf32> to tensor<16777216xf32>
    %expanded_136 = tensor.expand_shape %extracted_slice_135 [[0, 1]] : tensor<16777216xf32> into tensor<4096x4096xf32>
    %extracted_slice_137 = tensor.extract_slice %arg0[1159991296] [16777216] [1] : tensor<6755192832xf32> to tensor<16777216xf32>
    %expanded_138 = tensor.expand_shape %extracted_slice_137 [[0, 1]] : tensor<16777216xf32> into tensor<4096x4096xf32>
    %extracted_slice_139 = tensor.extract_slice %arg0[1176768512] [16777216] [1] : tensor<6755192832xf32> to tensor<16777216xf32>
    %expanded_140 = tensor.expand_shape %extracted_slice_139 [[0, 1]] : tensor<16777216xf32> into tensor<4096x4096xf32>
    %extracted_slice_141 = tensor.extract_slice %arg0[1193545728] [16777216] [1] : tensor<6755192832xf32> to tensor<16777216xf32>
    %expanded_142 = tensor.expand_shape %extracted_slice_141 [[0, 1]] : tensor<16777216xf32> into tensor<4096x4096xf32>
    %extracted_slice_143 = tensor.extract_slice %arg0[1210322944] [45088768] [1] : tensor<6755192832xf32> to tensor<45088768xf32>
    %expanded_144 = tensor.expand_shape %extracted_slice_143 [[0, 1]] : tensor<45088768xf32> into tensor<11008x4096xf32>
    %extracted_slice_145 = tensor.extract_slice %arg0[1255411712] [45088768] [1] : tensor<6755192832xf32> to tensor<45088768xf32>
    %expanded_146 = tensor.expand_shape %extracted_slice_145 [[0, 1]] : tensor<45088768xf32> into tensor<11008x4096xf32>
    %extracted_slice_147 = tensor.extract_slice %arg0[1300500480] [45088768] [1] : tensor<6755192832xf32> to tensor<45088768xf32>
    %expanded_148 = tensor.expand_shape %extracted_slice_147 [[0, 1]] : tensor<45088768xf32> into tensor<4096x11008xf32>
    %extracted_slice_149 = tensor.extract_slice %arg0[1345589248] [16777216] [1] : tensor<6755192832xf32> to tensor<16777216xf32>
    %expanded_150 = tensor.expand_shape %extracted_slice_149 [[0, 1]] : tensor<16777216xf32> into tensor<4096x4096xf32>
    %extracted_slice_151 = tensor.extract_slice %arg0[1362366464] [16777216] [1] : tensor<6755192832xf32> to tensor<16777216xf32>
    %expanded_152 = tensor.expand_shape %extracted_slice_151 [[0, 1]] : tensor<16777216xf32> into tensor<4096x4096xf32>
    %extracted_slice_153 = tensor.extract_slice %arg0[1379143680] [16777216] [1] : tensor<6755192832xf32> to tensor<16777216xf32>
    %expanded_154 = tensor.expand_shape %extracted_slice_153 [[0, 1]] : tensor<16777216xf32> into tensor<4096x4096xf32>
    %extracted_slice_155 = tensor.extract_slice %arg0[1395920896] [16777216] [1] : tensor<6755192832xf32> to tensor<16777216xf32>
    %expanded_156 = tensor.expand_shape %extracted_slice_155 [[0, 1]] : tensor<16777216xf32> into tensor<4096x4096xf32>
    %extracted_slice_157 = tensor.extract_slice %arg0[1412698112] [45088768] [1] : tensor<6755192832xf32> to tensor<45088768xf32>
    %expanded_158 = tensor.expand_shape %extracted_slice_157 [[0, 1]] : tensor<45088768xf32> into tensor<11008x4096xf32>
    %extracted_slice_159 = tensor.extract_slice %arg0[1457786880] [45088768] [1] : tensor<6755192832xf32> to tensor<45088768xf32>
    %expanded_160 = tensor.expand_shape %extracted_slice_159 [[0, 1]] : tensor<45088768xf32> into tensor<11008x4096xf32>
    %extracted_slice_161 = tensor.extract_slice %arg0[1502875648] [45088768] [1] : tensor<6755192832xf32> to tensor<45088768xf32>
    %expanded_162 = tensor.expand_shape %extracted_slice_161 [[0, 1]] : tensor<45088768xf32> into tensor<4096x11008xf32>
    %extracted_slice_163 = tensor.extract_slice %arg0[1547964416] [16777216] [1] : tensor<6755192832xf32> to tensor<16777216xf32>
    %expanded_164 = tensor.expand_shape %extracted_slice_163 [[0, 1]] : tensor<16777216xf32> into tensor<4096x4096xf32>
    %extracted_slice_165 = tensor.extract_slice %arg0[1564741632] [16777216] [1] : tensor<6755192832xf32> to tensor<16777216xf32>
    %expanded_166 = tensor.expand_shape %extracted_slice_165 [[0, 1]] : tensor<16777216xf32> into tensor<4096x4096xf32>
    %extracted_slice_167 = tensor.extract_slice %arg0[1581518848] [16777216] [1] : tensor<6755192832xf32> to tensor<16777216xf32>
    %expanded_168 = tensor.expand_shape %extracted_slice_167 [[0, 1]] : tensor<16777216xf32> into tensor<4096x4096xf32>
    %extracted_slice_169 = tensor.extract_slice %arg0[1598296064] [16777216] [1] : tensor<6755192832xf32> to tensor<16777216xf32>
    %expanded_170 = tensor.expand_shape %extracted_slice_169 [[0, 1]] : tensor<16777216xf32> into tensor<4096x4096xf32>
    %extracted_slice_171 = tensor.extract_slice %arg0[1615073280] [45088768] [1] : tensor<6755192832xf32> to tensor<45088768xf32>
    %expanded_172 = tensor.expand_shape %extracted_slice_171 [[0, 1]] : tensor<45088768xf32> into tensor<11008x4096xf32>
    %extracted_slice_173 = tensor.extract_slice %arg0[1660162048] [45088768] [1] : tensor<6755192832xf32> to tensor<45088768xf32>
    %expanded_174 = tensor.expand_shape %extracted_slice_173 [[0, 1]] : tensor<45088768xf32> into tensor<11008x4096xf32>
    %extracted_slice_175 = tensor.extract_slice %arg0[1705250816] [45088768] [1] : tensor<6755192832xf32> to tensor<45088768xf32>
    %expanded_176 = tensor.expand_shape %extracted_slice_175 [[0, 1]] : tensor<45088768xf32> into tensor<4096x11008xf32>
    %extracted_slice_177 = tensor.extract_slice %arg0[1750339584] [16777216] [1] : tensor<6755192832xf32> to tensor<16777216xf32>
    %expanded_178 = tensor.expand_shape %extracted_slice_177 [[0, 1]] : tensor<16777216xf32> into tensor<4096x4096xf32>
    %extracted_slice_179 = tensor.extract_slice %arg0[1767116800] [16777216] [1] : tensor<6755192832xf32> to tensor<16777216xf32>
    %expanded_180 = tensor.expand_shape %extracted_slice_179 [[0, 1]] : tensor<16777216xf32> into tensor<4096x4096xf32>
    %extracted_slice_181 = tensor.extract_slice %arg0[1783894016] [16777216] [1] : tensor<6755192832xf32> to tensor<16777216xf32>
    %expanded_182 = tensor.expand_shape %extracted_slice_181 [[0, 1]] : tensor<16777216xf32> into tensor<4096x4096xf32>
    %extracted_slice_183 = tensor.extract_slice %arg0[1800671232] [16777216] [1] : tensor<6755192832xf32> to tensor<16777216xf32>
    %expanded_184 = tensor.expand_shape %extracted_slice_183 [[0, 1]] : tensor<16777216xf32> into tensor<4096x4096xf32>
    %extracted_slice_185 = tensor.extract_slice %arg0[1817448448] [45088768] [1] : tensor<6755192832xf32> to tensor<45088768xf32>
    %expanded_186 = tensor.expand_shape %extracted_slice_185 [[0, 1]] : tensor<45088768xf32> into tensor<11008x4096xf32>
    %extracted_slice_187 = tensor.extract_slice %arg0[1862537216] [45088768] [1] : tensor<6755192832xf32> to tensor<45088768xf32>
    %expanded_188 = tensor.expand_shape %extracted_slice_187 [[0, 1]] : tensor<45088768xf32> into tensor<11008x4096xf32>
    %extracted_slice_189 = tensor.extract_slice %arg0[1907625984] [45088768] [1] : tensor<6755192832xf32> to tensor<45088768xf32>
    %expanded_190 = tensor.expand_shape %extracted_slice_189 [[0, 1]] : tensor<45088768xf32> into tensor<4096x11008xf32>
    %extracted_slice_191 = tensor.extract_slice %arg0[1952714752] [16777216] [1] : tensor<6755192832xf32> to tensor<16777216xf32>
    %expanded_192 = tensor.expand_shape %extracted_slice_191 [[0, 1]] : tensor<16777216xf32> into tensor<4096x4096xf32>
    %extracted_slice_193 = tensor.extract_slice %arg0[1969491968] [16777216] [1] : tensor<6755192832xf32> to tensor<16777216xf32>
    %expanded_194 = tensor.expand_shape %extracted_slice_193 [[0, 1]] : tensor<16777216xf32> into tensor<4096x4096xf32>
    %extracted_slice_195 = tensor.extract_slice %arg0[1986269184] [16777216] [1] : tensor<6755192832xf32> to tensor<16777216xf32>
    %expanded_196 = tensor.expand_shape %extracted_slice_195 [[0, 1]] : tensor<16777216xf32> into tensor<4096x4096xf32>
    %extracted_slice_197 = tensor.extract_slice %arg0[2003046400] [16777216] [1] : tensor<6755192832xf32> to tensor<16777216xf32>
    %expanded_198 = tensor.expand_shape %extracted_slice_197 [[0, 1]] : tensor<16777216xf32> into tensor<4096x4096xf32>
    %extracted_slice_199 = tensor.extract_slice %arg0[2019823616] [45088768] [1] : tensor<6755192832xf32> to tensor<45088768xf32>
    %expanded_200 = tensor.expand_shape %extracted_slice_199 [[0, 1]] : tensor<45088768xf32> into tensor<11008x4096xf32>
    %extracted_slice_201 = tensor.extract_slice %arg0[2064912384] [45088768] [1] : tensor<6755192832xf32> to tensor<45088768xf32>
    %expanded_202 = tensor.expand_shape %extracted_slice_201 [[0, 1]] : tensor<45088768xf32> into tensor<11008x4096xf32>
    %extracted_slice_203 = tensor.extract_slice %arg0[2110001152] [45088768] [1] : tensor<6755192832xf32> to tensor<45088768xf32>
    %expanded_204 = tensor.expand_shape %extracted_slice_203 [[0, 1]] : tensor<45088768xf32> into tensor<4096x11008xf32>
    %extracted_slice_205 = tensor.extract_slice %arg0[2155089920] [16777216] [1] : tensor<6755192832xf32> to tensor<16777216xf32>
    %expanded_206 = tensor.expand_shape %extracted_slice_205 [[0, 1]] : tensor<16777216xf32> into tensor<4096x4096xf32>
    %extracted_slice_207 = tensor.extract_slice %arg0[2171867136] [16777216] [1] : tensor<6755192832xf32> to tensor<16777216xf32>
    %expanded_208 = tensor.expand_shape %extracted_slice_207 [[0, 1]] : tensor<16777216xf32> into tensor<4096x4096xf32>
    %extracted_slice_209 = tensor.extract_slice %arg0[2188644352] [16777216] [1] : tensor<6755192832xf32> to tensor<16777216xf32>
    %expanded_210 = tensor.expand_shape %extracted_slice_209 [[0, 1]] : tensor<16777216xf32> into tensor<4096x4096xf32>
    %extracted_slice_211 = tensor.extract_slice %arg0[2205421568] [16777216] [1] : tensor<6755192832xf32> to tensor<16777216xf32>
    %expanded_212 = tensor.expand_shape %extracted_slice_211 [[0, 1]] : tensor<16777216xf32> into tensor<4096x4096xf32>
    %extracted_slice_213 = tensor.extract_slice %arg0[2222198784] [45088768] [1] : tensor<6755192832xf32> to tensor<45088768xf32>
    %expanded_214 = tensor.expand_shape %extracted_slice_213 [[0, 1]] : tensor<45088768xf32> into tensor<11008x4096xf32>
    %extracted_slice_215 = tensor.extract_slice %arg0[2267287552] [45088768] [1] : tensor<6755192832xf32> to tensor<45088768xf32>
    %expanded_216 = tensor.expand_shape %extracted_slice_215 [[0, 1]] : tensor<45088768xf32> into tensor<11008x4096xf32>
    %extracted_slice_217 = tensor.extract_slice %arg0[2312376320] [45088768] [1] : tensor<6755192832xf32> to tensor<45088768xf32>
    %expanded_218 = tensor.expand_shape %extracted_slice_217 [[0, 1]] : tensor<45088768xf32> into tensor<4096x11008xf32>
    %extracted_slice_219 = tensor.extract_slice %arg0[2357465088] [16777216] [1] : tensor<6755192832xf32> to tensor<16777216xf32>
    %expanded_220 = tensor.expand_shape %extracted_slice_219 [[0, 1]] : tensor<16777216xf32> into tensor<4096x4096xf32>
    %extracted_slice_221 = tensor.extract_slice %arg0[2374242304] [16777216] [1] : tensor<6755192832xf32> to tensor<16777216xf32>
    %expanded_222 = tensor.expand_shape %extracted_slice_221 [[0, 1]] : tensor<16777216xf32> into tensor<4096x4096xf32>
    %extracted_slice_223 = tensor.extract_slice %arg0[2391019520] [16777216] [1] : tensor<6755192832xf32> to tensor<16777216xf32>
    %expanded_224 = tensor.expand_shape %extracted_slice_223 [[0, 1]] : tensor<16777216xf32> into tensor<4096x4096xf32>
    %extracted_slice_225 = tensor.extract_slice %arg0[2407796736] [16777216] [1] : tensor<6755192832xf32> to tensor<16777216xf32>
    %expanded_226 = tensor.expand_shape %extracted_slice_225 [[0, 1]] : tensor<16777216xf32> into tensor<4096x4096xf32>
    %extracted_slice_227 = tensor.extract_slice %arg0[2424573952] [45088768] [1] : tensor<6755192832xf32> to tensor<45088768xf32>
    %expanded_228 = tensor.expand_shape %extracted_slice_227 [[0, 1]] : tensor<45088768xf32> into tensor<11008x4096xf32>
    %extracted_slice_229 = tensor.extract_slice %arg0[2469662720] [45088768] [1] : tensor<6755192832xf32> to tensor<45088768xf32>
    %expanded_230 = tensor.expand_shape %extracted_slice_229 [[0, 1]] : tensor<45088768xf32> into tensor<11008x4096xf32>
    %extracted_slice_231 = tensor.extract_slice %arg0[2514751488] [45088768] [1] : tensor<6755192832xf32> to tensor<45088768xf32>
    %expanded_232 = tensor.expand_shape %extracted_slice_231 [[0, 1]] : tensor<45088768xf32> into tensor<4096x11008xf32>
    %extracted_slice_233 = tensor.extract_slice %arg0[2559840256] [16777216] [1] : tensor<6755192832xf32> to tensor<16777216xf32>
    %expanded_234 = tensor.expand_shape %extracted_slice_233 [[0, 1]] : tensor<16777216xf32> into tensor<4096x4096xf32>
    %extracted_slice_235 = tensor.extract_slice %arg0[2576617472] [16777216] [1] : tensor<6755192832xf32> to tensor<16777216xf32>
    %expanded_236 = tensor.expand_shape %extracted_slice_235 [[0, 1]] : tensor<16777216xf32> into tensor<4096x4096xf32>
    %extracted_slice_237 = tensor.extract_slice %arg0[2593394688] [16777216] [1] : tensor<6755192832xf32> to tensor<16777216xf32>
    %expanded_238 = tensor.expand_shape %extracted_slice_237 [[0, 1]] : tensor<16777216xf32> into tensor<4096x4096xf32>
    %extracted_slice_239 = tensor.extract_slice %arg0[2610171904] [16777216] [1] : tensor<6755192832xf32> to tensor<16777216xf32>
    %expanded_240 = tensor.expand_shape %extracted_slice_239 [[0, 1]] : tensor<16777216xf32> into tensor<4096x4096xf32>
    %extracted_slice_241 = tensor.extract_slice %arg0[2626949120] [45088768] [1] : tensor<6755192832xf32> to tensor<45088768xf32>
    %expanded_242 = tensor.expand_shape %extracted_slice_241 [[0, 1]] : tensor<45088768xf32> into tensor<11008x4096xf32>
    %extracted_slice_243 = tensor.extract_slice %arg0[2672037888] [45088768] [1] : tensor<6755192832xf32> to tensor<45088768xf32>
    %expanded_244 = tensor.expand_shape %extracted_slice_243 [[0, 1]] : tensor<45088768xf32> into tensor<11008x4096xf32>
    %extracted_slice_245 = tensor.extract_slice %arg0[2717126656] [45088768] [1] : tensor<6755192832xf32> to tensor<45088768xf32>
    %expanded_246 = tensor.expand_shape %extracted_slice_245 [[0, 1]] : tensor<45088768xf32> into tensor<4096x11008xf32>
    %extracted_slice_247 = tensor.extract_slice %arg0[2762215424] [16777216] [1] : tensor<6755192832xf32> to tensor<16777216xf32>
    %expanded_248 = tensor.expand_shape %extracted_slice_247 [[0, 1]] : tensor<16777216xf32> into tensor<4096x4096xf32>
    %extracted_slice_249 = tensor.extract_slice %arg0[2778992640] [16777216] [1] : tensor<6755192832xf32> to tensor<16777216xf32>
    %expanded_250 = tensor.expand_shape %extracted_slice_249 [[0, 1]] : tensor<16777216xf32> into tensor<4096x4096xf32>
    %extracted_slice_251 = tensor.extract_slice %arg0[2795769856] [16777216] [1] : tensor<6755192832xf32> to tensor<16777216xf32>
    %expanded_252 = tensor.expand_shape %extracted_slice_251 [[0, 1]] : tensor<16777216xf32> into tensor<4096x4096xf32>
    %extracted_slice_253 = tensor.extract_slice %arg0[2812547072] [16777216] [1] : tensor<6755192832xf32> to tensor<16777216xf32>
    %expanded_254 = tensor.expand_shape %extracted_slice_253 [[0, 1]] : tensor<16777216xf32> into tensor<4096x4096xf32>
    %extracted_slice_255 = tensor.extract_slice %arg0[2829324288] [45088768] [1] : tensor<6755192832xf32> to tensor<45088768xf32>
    %expanded_256 = tensor.expand_shape %extracted_slice_255 [[0, 1]] : tensor<45088768xf32> into tensor<11008x4096xf32>
    %extracted_slice_257 = tensor.extract_slice %arg0[2874413056] [45088768] [1] : tensor<6755192832xf32> to tensor<45088768xf32>
    %expanded_258 = tensor.expand_shape %extracted_slice_257 [[0, 1]] : tensor<45088768xf32> into tensor<11008x4096xf32>
    %extracted_slice_259 = tensor.extract_slice %arg0[2919501824] [45088768] [1] : tensor<6755192832xf32> to tensor<45088768xf32>
    %expanded_260 = tensor.expand_shape %extracted_slice_259 [[0, 1]] : tensor<45088768xf32> into tensor<4096x11008xf32>
    %extracted_slice_261 = tensor.extract_slice %arg0[2964590592] [16777216] [1] : tensor<6755192832xf32> to tensor<16777216xf32>
    %expanded_262 = tensor.expand_shape %extracted_slice_261 [[0, 1]] : tensor<16777216xf32> into tensor<4096x4096xf32>
    %extracted_slice_263 = tensor.extract_slice %arg0[2981367808] [16777216] [1] : tensor<6755192832xf32> to tensor<16777216xf32>
    %expanded_264 = tensor.expand_shape %extracted_slice_263 [[0, 1]] : tensor<16777216xf32> into tensor<4096x4096xf32>
    %extracted_slice_265 = tensor.extract_slice %arg0[2998145024] [16777216] [1] : tensor<6755192832xf32> to tensor<16777216xf32>
    %expanded_266 = tensor.expand_shape %extracted_slice_265 [[0, 1]] : tensor<16777216xf32> into tensor<4096x4096xf32>
    %extracted_slice_267 = tensor.extract_slice %arg0[3014922240] [16777216] [1] : tensor<6755192832xf32> to tensor<16777216xf32>
    %expanded_268 = tensor.expand_shape %extracted_slice_267 [[0, 1]] : tensor<16777216xf32> into tensor<4096x4096xf32>
    %extracted_slice_269 = tensor.extract_slice %arg0[3031699456] [45088768] [1] : tensor<6755192832xf32> to tensor<45088768xf32>
    %expanded_270 = tensor.expand_shape %extracted_slice_269 [[0, 1]] : tensor<45088768xf32> into tensor<11008x4096xf32>
    %extracted_slice_271 = tensor.extract_slice %arg0[3076788224] [45088768] [1] : tensor<6755192832xf32> to tensor<45088768xf32>
    %expanded_272 = tensor.expand_shape %extracted_slice_271 [[0, 1]] : tensor<45088768xf32> into tensor<11008x4096xf32>
    %extracted_slice_273 = tensor.extract_slice %arg0[3121876992] [45088768] [1] : tensor<6755192832xf32> to tensor<45088768xf32>
    %expanded_274 = tensor.expand_shape %extracted_slice_273 [[0, 1]] : tensor<45088768xf32> into tensor<4096x11008xf32>
    %extracted_slice_275 = tensor.extract_slice %arg0[3166965760] [16777216] [1] : tensor<6755192832xf32> to tensor<16777216xf32>
    %expanded_276 = tensor.expand_shape %extracted_slice_275 [[0, 1]] : tensor<16777216xf32> into tensor<4096x4096xf32>
    %extracted_slice_277 = tensor.extract_slice %arg0[3183742976] [16777216] [1] : tensor<6755192832xf32> to tensor<16777216xf32>
    %expanded_278 = tensor.expand_shape %extracted_slice_277 [[0, 1]] : tensor<16777216xf32> into tensor<4096x4096xf32>
    %extracted_slice_279 = tensor.extract_slice %arg0[3200520192] [16777216] [1] : tensor<6755192832xf32> to tensor<16777216xf32>
    %expanded_280 = tensor.expand_shape %extracted_slice_279 [[0, 1]] : tensor<16777216xf32> into tensor<4096x4096xf32>
    %extracted_slice_281 = tensor.extract_slice %arg0[3217297408] [16777216] [1] : tensor<6755192832xf32> to tensor<16777216xf32>
    %expanded_282 = tensor.expand_shape %extracted_slice_281 [[0, 1]] : tensor<16777216xf32> into tensor<4096x4096xf32>
    %extracted_slice_283 = tensor.extract_slice %arg0[3234074624] [45088768] [1] : tensor<6755192832xf32> to tensor<45088768xf32>
    %expanded_284 = tensor.expand_shape %extracted_slice_283 [[0, 1]] : tensor<45088768xf32> into tensor<11008x4096xf32>
    %extracted_slice_285 = tensor.extract_slice %arg0[3279163392] [45088768] [1] : tensor<6755192832xf32> to tensor<45088768xf32>
    %expanded_286 = tensor.expand_shape %extracted_slice_285 [[0, 1]] : tensor<45088768xf32> into tensor<11008x4096xf32>
    %extracted_slice_287 = tensor.extract_slice %arg0[3324252160] [45088768] [1] : tensor<6755192832xf32> to tensor<45088768xf32>
    %expanded_288 = tensor.expand_shape %extracted_slice_287 [[0, 1]] : tensor<45088768xf32> into tensor<4096x11008xf32>
    %extracted_slice_289 = tensor.extract_slice %arg0[3369340928] [16777216] [1] : tensor<6755192832xf32> to tensor<16777216xf32>
    %expanded_290 = tensor.expand_shape %extracted_slice_289 [[0, 1]] : tensor<16777216xf32> into tensor<4096x4096xf32>
    %extracted_slice_291 = tensor.extract_slice %arg0[3386118144] [16777216] [1] : tensor<6755192832xf32> to tensor<16777216xf32>
    %expanded_292 = tensor.expand_shape %extracted_slice_291 [[0, 1]] : tensor<16777216xf32> into tensor<4096x4096xf32>
    %extracted_slice_293 = tensor.extract_slice %arg0[3402895360] [16777216] [1] : tensor<6755192832xf32> to tensor<16777216xf32>
    %expanded_294 = tensor.expand_shape %extracted_slice_293 [[0, 1]] : tensor<16777216xf32> into tensor<4096x4096xf32>
    %extracted_slice_295 = tensor.extract_slice %arg0[3419672576] [16777216] [1] : tensor<6755192832xf32> to tensor<16777216xf32>
    %expanded_296 = tensor.expand_shape %extracted_slice_295 [[0, 1]] : tensor<16777216xf32> into tensor<4096x4096xf32>
    %extracted_slice_297 = tensor.extract_slice %arg0[3436449792] [45088768] [1] : tensor<6755192832xf32> to tensor<45088768xf32>
    %expanded_298 = tensor.expand_shape %extracted_slice_297 [[0, 1]] : tensor<45088768xf32> into tensor<11008x4096xf32>
    %extracted_slice_299 = tensor.extract_slice %arg0[3481538560] [45088768] [1] : tensor<6755192832xf32> to tensor<45088768xf32>
    %expanded_300 = tensor.expand_shape %extracted_slice_299 [[0, 1]] : tensor<45088768xf32> into tensor<11008x4096xf32>
    %extracted_slice_301 = tensor.extract_slice %arg0[3526627328] [45088768] [1] : tensor<6755192832xf32> to tensor<45088768xf32>
    %expanded_302 = tensor.expand_shape %extracted_slice_301 [[0, 1]] : tensor<45088768xf32> into tensor<4096x11008xf32>
    %extracted_slice_303 = tensor.extract_slice %arg0[3571716096] [16777216] [1] : tensor<6755192832xf32> to tensor<16777216xf32>
    %expanded_304 = tensor.expand_shape %extracted_slice_303 [[0, 1]] : tensor<16777216xf32> into tensor<4096x4096xf32>
    %extracted_slice_305 = tensor.extract_slice %arg0[3588493312] [16777216] [1] : tensor<6755192832xf32> to tensor<16777216xf32>
    %expanded_306 = tensor.expand_shape %extracted_slice_305 [[0, 1]] : tensor<16777216xf32> into tensor<4096x4096xf32>
    %extracted_slice_307 = tensor.extract_slice %arg0[3605270528] [16777216] [1] : tensor<6755192832xf32> to tensor<16777216xf32>
    %expanded_308 = tensor.expand_shape %extracted_slice_307 [[0, 1]] : tensor<16777216xf32> into tensor<4096x4096xf32>
    %extracted_slice_309 = tensor.extract_slice %arg0[3622047744] [16777216] [1] : tensor<6755192832xf32> to tensor<16777216xf32>
    %expanded_310 = tensor.expand_shape %extracted_slice_309 [[0, 1]] : tensor<16777216xf32> into tensor<4096x4096xf32>
    %extracted_slice_311 = tensor.extract_slice %arg0[3638824960] [45088768] [1] : tensor<6755192832xf32> to tensor<45088768xf32>
    %expanded_312 = tensor.expand_shape %extracted_slice_311 [[0, 1]] : tensor<45088768xf32> into tensor<11008x4096xf32>
    %extracted_slice_313 = tensor.extract_slice %arg0[3683913728] [45088768] [1] : tensor<6755192832xf32> to tensor<45088768xf32>
    %expanded_314 = tensor.expand_shape %extracted_slice_313 [[0, 1]] : tensor<45088768xf32> into tensor<11008x4096xf32>
    %extracted_slice_315 = tensor.extract_slice %arg0[3729002496] [45088768] [1] : tensor<6755192832xf32> to tensor<45088768xf32>
    %expanded_316 = tensor.expand_shape %extracted_slice_315 [[0, 1]] : tensor<45088768xf32> into tensor<4096x11008xf32>
    %extracted_slice_317 = tensor.extract_slice %arg0[3774091264] [16777216] [1] : tensor<6755192832xf32> to tensor<16777216xf32>
    %expanded_318 = tensor.expand_shape %extracted_slice_317 [[0, 1]] : tensor<16777216xf32> into tensor<4096x4096xf32>
    %extracted_slice_319 = tensor.extract_slice %arg0[3790868480] [16777216] [1] : tensor<6755192832xf32> to tensor<16777216xf32>
    %expanded_320 = tensor.expand_shape %extracted_slice_319 [[0, 1]] : tensor<16777216xf32> into tensor<4096x4096xf32>
    %extracted_slice_321 = tensor.extract_slice %arg0[3807645696] [16777216] [1] : tensor<6755192832xf32> to tensor<16777216xf32>
    %expanded_322 = tensor.expand_shape %extracted_slice_321 [[0, 1]] : tensor<16777216xf32> into tensor<4096x4096xf32>
    %extracted_slice_323 = tensor.extract_slice %arg0[3824422912] [16777216] [1] : tensor<6755192832xf32> to tensor<16777216xf32>
    %expanded_324 = tensor.expand_shape %extracted_slice_323 [[0, 1]] : tensor<16777216xf32> into tensor<4096x4096xf32>
    %extracted_slice_325 = tensor.extract_slice %arg0[3841200128] [45088768] [1] : tensor<6755192832xf32> to tensor<45088768xf32>
    %expanded_326 = tensor.expand_shape %extracted_slice_325 [[0, 1]] : tensor<45088768xf32> into tensor<11008x4096xf32>
    %extracted_slice_327 = tensor.extract_slice %arg0[3886288896] [45088768] [1] : tensor<6755192832xf32> to tensor<45088768xf32>
    %expanded_328 = tensor.expand_shape %extracted_slice_327 [[0, 1]] : tensor<45088768xf32> into tensor<11008x4096xf32>
    %extracted_slice_329 = tensor.extract_slice %arg0[3931377664] [45088768] [1] : tensor<6755192832xf32> to tensor<45088768xf32>
    %expanded_330 = tensor.expand_shape %extracted_slice_329 [[0, 1]] : tensor<45088768xf32> into tensor<4096x11008xf32>
    %extracted_slice_331 = tensor.extract_slice %arg0[3976466432] [16777216] [1] : tensor<6755192832xf32> to tensor<16777216xf32>
    %expanded_332 = tensor.expand_shape %extracted_slice_331 [[0, 1]] : tensor<16777216xf32> into tensor<4096x4096xf32>
    %extracted_slice_333 = tensor.extract_slice %arg0[3993243648] [16777216] [1] : tensor<6755192832xf32> to tensor<16777216xf32>
    %expanded_334 = tensor.expand_shape %extracted_slice_333 [[0, 1]] : tensor<16777216xf32> into tensor<4096x4096xf32>
    %extracted_slice_335 = tensor.extract_slice %arg0[4010020864] [16777216] [1] : tensor<6755192832xf32> to tensor<16777216xf32>
    %expanded_336 = tensor.expand_shape %extracted_slice_335 [[0, 1]] : tensor<16777216xf32> into tensor<4096x4096xf32>
    %extracted_slice_337 = tensor.extract_slice %arg0[4026798080] [16777216] [1] : tensor<6755192832xf32> to tensor<16777216xf32>
    %expanded_338 = tensor.expand_shape %extracted_slice_337 [[0, 1]] : tensor<16777216xf32> into tensor<4096x4096xf32>
    %extracted_slice_339 = tensor.extract_slice %arg0[4043575296] [45088768] [1] : tensor<6755192832xf32> to tensor<45088768xf32>
    %expanded_340 = tensor.expand_shape %extracted_slice_339 [[0, 1]] : tensor<45088768xf32> into tensor<11008x4096xf32>
    %extracted_slice_341 = tensor.extract_slice %arg0[4088664064] [45088768] [1] : tensor<6755192832xf32> to tensor<45088768xf32>
    %expanded_342 = tensor.expand_shape %extracted_slice_341 [[0, 1]] : tensor<45088768xf32> into tensor<11008x4096xf32>
    %extracted_slice_343 = tensor.extract_slice %arg0[4133752832] [45088768] [1] : tensor<6755192832xf32> to tensor<45088768xf32>
    %expanded_344 = tensor.expand_shape %extracted_slice_343 [[0, 1]] : tensor<45088768xf32> into tensor<4096x11008xf32>
    %extracted_slice_345 = tensor.extract_slice %arg0[4178841600] [16777216] [1] : tensor<6755192832xf32> to tensor<16777216xf32>
    %expanded_346 = tensor.expand_shape %extracted_slice_345 [[0, 1]] : tensor<16777216xf32> into tensor<4096x4096xf32>
    %extracted_slice_347 = tensor.extract_slice %arg0[4195618816] [16777216] [1] : tensor<6755192832xf32> to tensor<16777216xf32>
    %expanded_348 = tensor.expand_shape %extracted_slice_347 [[0, 1]] : tensor<16777216xf32> into tensor<4096x4096xf32>
    %extracted_slice_349 = tensor.extract_slice %arg0[4212396032] [16777216] [1] : tensor<6755192832xf32> to tensor<16777216xf32>
    %expanded_350 = tensor.expand_shape %extracted_slice_349 [[0, 1]] : tensor<16777216xf32> into tensor<4096x4096xf32>
    %extracted_slice_351 = tensor.extract_slice %arg0[4229173248] [16777216] [1] : tensor<6755192832xf32> to tensor<16777216xf32>
    %expanded_352 = tensor.expand_shape %extracted_slice_351 [[0, 1]] : tensor<16777216xf32> into tensor<4096x4096xf32>
    %extracted_slice_353 = tensor.extract_slice %arg0[4245950464] [45088768] [1] : tensor<6755192832xf32> to tensor<45088768xf32>
    %expanded_354 = tensor.expand_shape %extracted_slice_353 [[0, 1]] : tensor<45088768xf32> into tensor<11008x4096xf32>
    %extracted_slice_355 = tensor.extract_slice %arg0[4291039232] [45088768] [1] : tensor<6755192832xf32> to tensor<45088768xf32>
    %expanded_356 = tensor.expand_shape %extracted_slice_355 [[0, 1]] : tensor<45088768xf32> into tensor<11008x4096xf32>
    %extracted_slice_357 = tensor.extract_slice %arg0[4336128000] [45088768] [1] : tensor<6755192832xf32> to tensor<45088768xf32>
    %expanded_358 = tensor.expand_shape %extracted_slice_357 [[0, 1]] : tensor<45088768xf32> into tensor<4096x11008xf32>
    %extracted_slice_359 = tensor.extract_slice %arg0[4381216768] [16777216] [1] : tensor<6755192832xf32> to tensor<16777216xf32>
    %expanded_360 = tensor.expand_shape %extracted_slice_359 [[0, 1]] : tensor<16777216xf32> into tensor<4096x4096xf32>
    %extracted_slice_361 = tensor.extract_slice %arg0[4397993984] [16777216] [1] : tensor<6755192832xf32> to tensor<16777216xf32>
    %expanded_362 = tensor.expand_shape %extracted_slice_361 [[0, 1]] : tensor<16777216xf32> into tensor<4096x4096xf32>
    %extracted_slice_363 = tensor.extract_slice %arg0[4414771200] [16777216] [1] : tensor<6755192832xf32> to tensor<16777216xf32>
    %expanded_364 = tensor.expand_shape %extracted_slice_363 [[0, 1]] : tensor<16777216xf32> into tensor<4096x4096xf32>
    %extracted_slice_365 = tensor.extract_slice %arg0[4431548416] [16777216] [1] : tensor<6755192832xf32> to tensor<16777216xf32>
    %expanded_366 = tensor.expand_shape %extracted_slice_365 [[0, 1]] : tensor<16777216xf32> into tensor<4096x4096xf32>
    %extracted_slice_367 = tensor.extract_slice %arg0[4448325632] [45088768] [1] : tensor<6755192832xf32> to tensor<45088768xf32>
    %expanded_368 = tensor.expand_shape %extracted_slice_367 [[0, 1]] : tensor<45088768xf32> into tensor<11008x4096xf32>
    %extracted_slice_369 = tensor.extract_slice %arg0[4493414400] [45088768] [1] : tensor<6755192832xf32> to tensor<45088768xf32>
    %expanded_370 = tensor.expand_shape %extracted_slice_369 [[0, 1]] : tensor<45088768xf32> into tensor<11008x4096xf32>
    %extracted_slice_371 = tensor.extract_slice %arg0[4538503168] [45088768] [1] : tensor<6755192832xf32> to tensor<45088768xf32>
    %expanded_372 = tensor.expand_shape %extracted_slice_371 [[0, 1]] : tensor<45088768xf32> into tensor<4096x11008xf32>
    %extracted_slice_373 = tensor.extract_slice %arg0[4583591936] [16777216] [1] : tensor<6755192832xf32> to tensor<16777216xf32>
    %expanded_374 = tensor.expand_shape %extracted_slice_373 [[0, 1]] : tensor<16777216xf32> into tensor<4096x4096xf32>
    %extracted_slice_375 = tensor.extract_slice %arg0[4600369152] [16777216] [1] : tensor<6755192832xf32> to tensor<16777216xf32>
    %expanded_376 = tensor.expand_shape %extracted_slice_375 [[0, 1]] : tensor<16777216xf32> into tensor<4096x4096xf32>
    %extracted_slice_377 = tensor.extract_slice %arg0[4617146368] [16777216] [1] : tensor<6755192832xf32> to tensor<16777216xf32>
    %expanded_378 = tensor.expand_shape %extracted_slice_377 [[0, 1]] : tensor<16777216xf32> into tensor<4096x4096xf32>
    %extracted_slice_379 = tensor.extract_slice %arg0[4633923584] [16777216] [1] : tensor<6755192832xf32> to tensor<16777216xf32>
    %expanded_380 = tensor.expand_shape %extracted_slice_379 [[0, 1]] : tensor<16777216xf32> into tensor<4096x4096xf32>
    %extracted_slice_381 = tensor.extract_slice %arg0[4650700800] [45088768] [1] : tensor<6755192832xf32> to tensor<45088768xf32>
    %expanded_382 = tensor.expand_shape %extracted_slice_381 [[0, 1]] : tensor<45088768xf32> into tensor<11008x4096xf32>
    %extracted_slice_383 = tensor.extract_slice %arg0[4695789568] [45088768] [1] : tensor<6755192832xf32> to tensor<45088768xf32>
    %expanded_384 = tensor.expand_shape %extracted_slice_383 [[0, 1]] : tensor<45088768xf32> into tensor<11008x4096xf32>
    %extracted_slice_385 = tensor.extract_slice %arg0[4740878336] [45088768] [1] : tensor<6755192832xf32> to tensor<45088768xf32>
    %expanded_386 = tensor.expand_shape %extracted_slice_385 [[0, 1]] : tensor<45088768xf32> into tensor<4096x11008xf32>
    %extracted_slice_387 = tensor.extract_slice %arg0[4785967104] [16777216] [1] : tensor<6755192832xf32> to tensor<16777216xf32>
    %expanded_388 = tensor.expand_shape %extracted_slice_387 [[0, 1]] : tensor<16777216xf32> into tensor<4096x4096xf32>
    %extracted_slice_389 = tensor.extract_slice %arg0[4802744320] [16777216] [1] : tensor<6755192832xf32> to tensor<16777216xf32>
    %expanded_390 = tensor.expand_shape %extracted_slice_389 [[0, 1]] : tensor<16777216xf32> into tensor<4096x4096xf32>
    %extracted_slice_391 = tensor.extract_slice %arg0[4819521536] [16777216] [1] : tensor<6755192832xf32> to tensor<16777216xf32>
    %expanded_392 = tensor.expand_shape %extracted_slice_391 [[0, 1]] : tensor<16777216xf32> into tensor<4096x4096xf32>
    %extracted_slice_393 = tensor.extract_slice %arg0[4836298752] [16777216] [1] : tensor<6755192832xf32> to tensor<16777216xf32>
    %expanded_394 = tensor.expand_shape %extracted_slice_393 [[0, 1]] : tensor<16777216xf32> into tensor<4096x4096xf32>
    %extracted_slice_395 = tensor.extract_slice %arg0[4853075968] [45088768] [1] : tensor<6755192832xf32> to tensor<45088768xf32>
    %expanded_396 = tensor.expand_shape %extracted_slice_395 [[0, 1]] : tensor<45088768xf32> into tensor<11008x4096xf32>
    %extracted_slice_397 = tensor.extract_slice %arg0[4898164736] [45088768] [1] : tensor<6755192832xf32> to tensor<45088768xf32>
    %expanded_398 = tensor.expand_shape %extracted_slice_397 [[0, 1]] : tensor<45088768xf32> into tensor<11008x4096xf32>
    %extracted_slice_399 = tensor.extract_slice %arg0[4943253504] [45088768] [1] : tensor<6755192832xf32> to tensor<45088768xf32>
    %expanded_400 = tensor.expand_shape %extracted_slice_399 [[0, 1]] : tensor<45088768xf32> into tensor<4096x11008xf32>
    %extracted_slice_401 = tensor.extract_slice %arg0[4988342272] [16777216] [1] : tensor<6755192832xf32> to tensor<16777216xf32>
    %expanded_402 = tensor.expand_shape %extracted_slice_401 [[0, 1]] : tensor<16777216xf32> into tensor<4096x4096xf32>
    %extracted_slice_403 = tensor.extract_slice %arg0[5005119488] [16777216] [1] : tensor<6755192832xf32> to tensor<16777216xf32>
    %expanded_404 = tensor.expand_shape %extracted_slice_403 [[0, 1]] : tensor<16777216xf32> into tensor<4096x4096xf32>
    %extracted_slice_405 = tensor.extract_slice %arg0[5021896704] [16777216] [1] : tensor<6755192832xf32> to tensor<16777216xf32>
    %expanded_406 = tensor.expand_shape %extracted_slice_405 [[0, 1]] : tensor<16777216xf32> into tensor<4096x4096xf32>
    %extracted_slice_407 = tensor.extract_slice %arg0[5038673920] [16777216] [1] : tensor<6755192832xf32> to tensor<16777216xf32>
    %expanded_408 = tensor.expand_shape %extracted_slice_407 [[0, 1]] : tensor<16777216xf32> into tensor<4096x4096xf32>
    %extracted_slice_409 = tensor.extract_slice %arg0[5055451136] [45088768] [1] : tensor<6755192832xf32> to tensor<45088768xf32>
    %expanded_410 = tensor.expand_shape %extracted_slice_409 [[0, 1]] : tensor<45088768xf32> into tensor<11008x4096xf32>
    %extracted_slice_411 = tensor.extract_slice %arg0[5100539904] [45088768] [1] : tensor<6755192832xf32> to tensor<45088768xf32>
    %expanded_412 = tensor.expand_shape %extracted_slice_411 [[0, 1]] : tensor<45088768xf32> into tensor<11008x4096xf32>
    %extracted_slice_413 = tensor.extract_slice %arg0[5145628672] [45088768] [1] : tensor<6755192832xf32> to tensor<45088768xf32>
    %expanded_414 = tensor.expand_shape %extracted_slice_413 [[0, 1]] : tensor<45088768xf32> into tensor<4096x11008xf32>
    %extracted_slice_415 = tensor.extract_slice %arg0[5190717440] [16777216] [1] : tensor<6755192832xf32> to tensor<16777216xf32>
    %expanded_416 = tensor.expand_shape %extracted_slice_415 [[0, 1]] : tensor<16777216xf32> into tensor<4096x4096xf32>
    %extracted_slice_417 = tensor.extract_slice %arg0[5207494656] [16777216] [1] : tensor<6755192832xf32> to tensor<16777216xf32>
    %expanded_418 = tensor.expand_shape %extracted_slice_417 [[0, 1]] : tensor<16777216xf32> into tensor<4096x4096xf32>
    %extracted_slice_419 = tensor.extract_slice %arg0[5224271872] [16777216] [1] : tensor<6755192832xf32> to tensor<16777216xf32>
    %expanded_420 = tensor.expand_shape %extracted_slice_419 [[0, 1]] : tensor<16777216xf32> into tensor<4096x4096xf32>
    %extracted_slice_421 = tensor.extract_slice %arg0[5241049088] [16777216] [1] : tensor<6755192832xf32> to tensor<16777216xf32>
    %expanded_422 = tensor.expand_shape %extracted_slice_421 [[0, 1]] : tensor<16777216xf32> into tensor<4096x4096xf32>
    %extracted_slice_423 = tensor.extract_slice %arg0[5257826304] [45088768] [1] : tensor<6755192832xf32> to tensor<45088768xf32>
    %expanded_424 = tensor.expand_shape %extracted_slice_423 [[0, 1]] : tensor<45088768xf32> into tensor<11008x4096xf32>
    %extracted_slice_425 = tensor.extract_slice %arg0[5302915072] [45088768] [1] : tensor<6755192832xf32> to tensor<45088768xf32>
    %expanded_426 = tensor.expand_shape %extracted_slice_425 [[0, 1]] : tensor<45088768xf32> into tensor<11008x4096xf32>
    %extracted_slice_427 = tensor.extract_slice %arg0[5348003840] [45088768] [1] : tensor<6755192832xf32> to tensor<45088768xf32>
    %expanded_428 = tensor.expand_shape %extracted_slice_427 [[0, 1]] : tensor<45088768xf32> into tensor<4096x11008xf32>
    %extracted_slice_429 = tensor.extract_slice %arg0[5393092608] [16777216] [1] : tensor<6755192832xf32> to tensor<16777216xf32>
    %expanded_430 = tensor.expand_shape %extracted_slice_429 [[0, 1]] : tensor<16777216xf32> into tensor<4096x4096xf32>
    %extracted_slice_431 = tensor.extract_slice %arg0[5409869824] [16777216] [1] : tensor<6755192832xf32> to tensor<16777216xf32>
    %expanded_432 = tensor.expand_shape %extracted_slice_431 [[0, 1]] : tensor<16777216xf32> into tensor<4096x4096xf32>
    %extracted_slice_433 = tensor.extract_slice %arg0[5426647040] [16777216] [1] : tensor<6755192832xf32> to tensor<16777216xf32>
    %expanded_434 = tensor.expand_shape %extracted_slice_433 [[0, 1]] : tensor<16777216xf32> into tensor<4096x4096xf32>
    %extracted_slice_435 = tensor.extract_slice %arg0[5443424256] [16777216] [1] : tensor<6755192832xf32> to tensor<16777216xf32>
    %expanded_436 = tensor.expand_shape %extracted_slice_435 [[0, 1]] : tensor<16777216xf32> into tensor<4096x4096xf32>
    %extracted_slice_437 = tensor.extract_slice %arg0[5460201472] [45088768] [1] : tensor<6755192832xf32> to tensor<45088768xf32>
    %expanded_438 = tensor.expand_shape %extracted_slice_437 [[0, 1]] : tensor<45088768xf32> into tensor<11008x4096xf32>
    %extracted_slice_439 = tensor.extract_slice %arg0[5505290240] [45088768] [1] : tensor<6755192832xf32> to tensor<45088768xf32>
    %expanded_440 = tensor.expand_shape %extracted_slice_439 [[0, 1]] : tensor<45088768xf32> into tensor<11008x4096xf32>
    %extracted_slice_441 = tensor.extract_slice %arg0[5550379008] [45088768] [1] : tensor<6755192832xf32> to tensor<45088768xf32>
    %expanded_442 = tensor.expand_shape %extracted_slice_441 [[0, 1]] : tensor<45088768xf32> into tensor<4096x11008xf32>
    %extracted_slice_443 = tensor.extract_slice %arg0[5595467776] [16777216] [1] : tensor<6755192832xf32> to tensor<16777216xf32>
    %expanded_444 = tensor.expand_shape %extracted_slice_443 [[0, 1]] : tensor<16777216xf32> into tensor<4096x4096xf32>
    %extracted_slice_445 = tensor.extract_slice %arg0[5612244992] [16777216] [1] : tensor<6755192832xf32> to tensor<16777216xf32>
    %expanded_446 = tensor.expand_shape %extracted_slice_445 [[0, 1]] : tensor<16777216xf32> into tensor<4096x4096xf32>
    %extracted_slice_447 = tensor.extract_slice %arg0[5629022208] [16777216] [1] : tensor<6755192832xf32> to tensor<16777216xf32>
    %expanded_448 = tensor.expand_shape %extracted_slice_447 [[0, 1]] : tensor<16777216xf32> into tensor<4096x4096xf32>
    %extracted_slice_449 = tensor.extract_slice %arg0[5645799424] [16777216] [1] : tensor<6755192832xf32> to tensor<16777216xf32>
    %expanded_450 = tensor.expand_shape %extracted_slice_449 [[0, 1]] : tensor<16777216xf32> into tensor<4096x4096xf32>
    %extracted_slice_451 = tensor.extract_slice %arg0[5662576640] [45088768] [1] : tensor<6755192832xf32> to tensor<45088768xf32>
    %expanded_452 = tensor.expand_shape %extracted_slice_451 [[0, 1]] : tensor<45088768xf32> into tensor<11008x4096xf32>
    %extracted_slice_453 = tensor.extract_slice %arg0[5707665408] [45088768] [1] : tensor<6755192832xf32> to tensor<45088768xf32>
    %expanded_454 = tensor.expand_shape %extracted_slice_453 [[0, 1]] : tensor<45088768xf32> into tensor<11008x4096xf32>
    %extracted_slice_455 = tensor.extract_slice %arg0[5752754176] [45088768] [1] : tensor<6755192832xf32> to tensor<45088768xf32>
    %expanded_456 = tensor.expand_shape %extracted_slice_455 [[0, 1]] : tensor<45088768xf32> into tensor<4096x11008xf32>
    %extracted_slice_457 = tensor.extract_slice %arg0[5797842944] [16777216] [1] : tensor<6755192832xf32> to tensor<16777216xf32>
    %expanded_458 = tensor.expand_shape %extracted_slice_457 [[0, 1]] : tensor<16777216xf32> into tensor<4096x4096xf32>
    %extracted_slice_459 = tensor.extract_slice %arg0[5814620160] [16777216] [1] : tensor<6755192832xf32> to tensor<16777216xf32>
    %expanded_460 = tensor.expand_shape %extracted_slice_459 [[0, 1]] : tensor<16777216xf32> into tensor<4096x4096xf32>
    %extracted_slice_461 = tensor.extract_slice %arg0[5831397376] [16777216] [1] : tensor<6755192832xf32> to tensor<16777216xf32>
    %expanded_462 = tensor.expand_shape %extracted_slice_461 [[0, 1]] : tensor<16777216xf32> into tensor<4096x4096xf32>
    %extracted_slice_463 = tensor.extract_slice %arg0[5848174592] [16777216] [1] : tensor<6755192832xf32> to tensor<16777216xf32>
    %expanded_464 = tensor.expand_shape %extracted_slice_463 [[0, 1]] : tensor<16777216xf32> into tensor<4096x4096xf32>
    %extracted_slice_465 = tensor.extract_slice %arg0[5864951808] [45088768] [1] : tensor<6755192832xf32> to tensor<45088768xf32>
    %expanded_466 = tensor.expand_shape %extracted_slice_465 [[0, 1]] : tensor<45088768xf32> into tensor<11008x4096xf32>
    %extracted_slice_467 = tensor.extract_slice %arg0[5910040576] [45088768] [1] : tensor<6755192832xf32> to tensor<45088768xf32>
    %expanded_468 = tensor.expand_shape %extracted_slice_467 [[0, 1]] : tensor<45088768xf32> into tensor<11008x4096xf32>
    %extracted_slice_469 = tensor.extract_slice %arg0[5955129344] [45088768] [1] : tensor<6755192832xf32> to tensor<45088768xf32>
    %expanded_470 = tensor.expand_shape %extracted_slice_469 [[0, 1]] : tensor<45088768xf32> into tensor<4096x11008xf32>
    %extracted_slice_471 = tensor.extract_slice %arg0[6000218112] [16777216] [1] : tensor<6755192832xf32> to tensor<16777216xf32>
    %expanded_472 = tensor.expand_shape %extracted_slice_471 [[0, 1]] : tensor<16777216xf32> into tensor<4096x4096xf32>
    %extracted_slice_473 = tensor.extract_slice %arg0[6016995328] [16777216] [1] : tensor<6755192832xf32> to tensor<16777216xf32>
    %expanded_474 = tensor.expand_shape %extracted_slice_473 [[0, 1]] : tensor<16777216xf32> into tensor<4096x4096xf32>
    %extracted_slice_475 = tensor.extract_slice %arg0[6033772544] [16777216] [1] : tensor<6755192832xf32> to tensor<16777216xf32>
    %expanded_476 = tensor.expand_shape %extracted_slice_475 [[0, 1]] : tensor<16777216xf32> into tensor<4096x4096xf32>
    %extracted_slice_477 = tensor.extract_slice %arg0[6050549760] [16777216] [1] : tensor<6755192832xf32> to tensor<16777216xf32>
    %expanded_478 = tensor.expand_shape %extracted_slice_477 [[0, 1]] : tensor<16777216xf32> into tensor<4096x4096xf32>
    %extracted_slice_479 = tensor.extract_slice %arg0[6067326976] [45088768] [1] : tensor<6755192832xf32> to tensor<45088768xf32>
    %expanded_480 = tensor.expand_shape %extracted_slice_479 [[0, 1]] : tensor<45088768xf32> into tensor<11008x4096xf32>
    %extracted_slice_481 = tensor.extract_slice %arg0[6112415744] [45088768] [1] : tensor<6755192832xf32> to tensor<45088768xf32>
    %expanded_482 = tensor.expand_shape %extracted_slice_481 [[0, 1]] : tensor<45088768xf32> into tensor<11008x4096xf32>
    %extracted_slice_483 = tensor.extract_slice %arg0[6157504512] [45088768] [1] : tensor<6755192832xf32> to tensor<45088768xf32>
    %expanded_484 = tensor.expand_shape %extracted_slice_483 [[0, 1]] : tensor<45088768xf32> into tensor<4096x11008xf32>
    %extracted_slice_485 = tensor.extract_slice %arg0[6202593280] [16777216] [1] : tensor<6755192832xf32> to tensor<16777216xf32>
    %expanded_486 = tensor.expand_shape %extracted_slice_485 [[0, 1]] : tensor<16777216xf32> into tensor<4096x4096xf32>
    %extracted_slice_487 = tensor.extract_slice %arg0[6219370496] [16777216] [1] : tensor<6755192832xf32> to tensor<16777216xf32>
    %expanded_488 = tensor.expand_shape %extracted_slice_487 [[0, 1]] : tensor<16777216xf32> into tensor<4096x4096xf32>
    %extracted_slice_489 = tensor.extract_slice %arg0[6236147712] [16777216] [1] : tensor<6755192832xf32> to tensor<16777216xf32>
    %expanded_490 = tensor.expand_shape %extracted_slice_489 [[0, 1]] : tensor<16777216xf32> into tensor<4096x4096xf32>
    %extracted_slice_491 = tensor.extract_slice %arg0[6252924928] [16777216] [1] : tensor<6755192832xf32> to tensor<16777216xf32>
    %expanded_492 = tensor.expand_shape %extracted_slice_491 [[0, 1]] : tensor<16777216xf32> into tensor<4096x4096xf32>
    %extracted_slice_493 = tensor.extract_slice %arg0[6269702144] [45088768] [1] : tensor<6755192832xf32> to tensor<45088768xf32>
    %expanded_494 = tensor.expand_shape %extracted_slice_493 [[0, 1]] : tensor<45088768xf32> into tensor<11008x4096xf32>
    %extracted_slice_495 = tensor.extract_slice %arg0[6314790912] [45088768] [1] : tensor<6755192832xf32> to tensor<45088768xf32>
    %expanded_496 = tensor.expand_shape %extracted_slice_495 [[0, 1]] : tensor<45088768xf32> into tensor<11008x4096xf32>
    %extracted_slice_497 = tensor.extract_slice %arg0[6359879680] [45088768] [1] : tensor<6755192832xf32> to tensor<45088768xf32>
    %expanded_498 = tensor.expand_shape %extracted_slice_497 [[0, 1]] : tensor<45088768xf32> into tensor<4096x11008xf32>
    %extracted_slice_499 = tensor.extract_slice %arg0[6404968448] [16777216] [1] : tensor<6755192832xf32> to tensor<16777216xf32>
    %expanded_500 = tensor.expand_shape %extracted_slice_499 [[0, 1]] : tensor<16777216xf32> into tensor<4096x4096xf32>
    %extracted_slice_501 = tensor.extract_slice %arg0[6421745664] [16777216] [1] : tensor<6755192832xf32> to tensor<16777216xf32>
    %expanded_502 = tensor.expand_shape %extracted_slice_501 [[0, 1]] : tensor<16777216xf32> into tensor<4096x4096xf32>
    %extracted_slice_503 = tensor.extract_slice %arg0[6438522880] [16777216] [1] : tensor<6755192832xf32> to tensor<16777216xf32>
    %expanded_504 = tensor.expand_shape %extracted_slice_503 [[0, 1]] : tensor<16777216xf32> into tensor<4096x4096xf32>
    %extracted_slice_505 = tensor.extract_slice %arg0[6455300096] [16777216] [1] : tensor<6755192832xf32> to tensor<16777216xf32>
    %expanded_506 = tensor.expand_shape %extracted_slice_505 [[0, 1]] : tensor<16777216xf32> into tensor<4096x4096xf32>
    %extracted_slice_507 = tensor.extract_slice %arg0[6472077312] [45088768] [1] : tensor<6755192832xf32> to tensor<45088768xf32>
    %expanded_508 = tensor.expand_shape %extracted_slice_507 [[0, 1]] : tensor<45088768xf32> into tensor<11008x4096xf32>
    %extracted_slice_509 = tensor.extract_slice %arg0[6517166080] [45088768] [1] : tensor<6755192832xf32> to tensor<45088768xf32>
    %expanded_510 = tensor.expand_shape %extracted_slice_509 [[0, 1]] : tensor<45088768xf32> into tensor<11008x4096xf32>
    %extracted_slice_511 = tensor.extract_slice %arg0[6562254848] [45088768] [1] : tensor<6755192832xf32> to tensor<45088768xf32>
    %expanded_512 = tensor.expand_shape %extracted_slice_511 [[0, 1]] : tensor<45088768xf32> into tensor<4096x11008xf32>
    %extracted_slice_513 = tensor.extract_slice %arg0[6607343616] [131072000] [1] : tensor<6755192832xf32> to tensor<131072000xf32>
    %expanded_514 = tensor.expand_shape %extracted_slice_513 [[0, 1]] : tensor<131072000xf32> into tensor<32000x4096xf32>
    %extracted_slice_515 = tensor.extract_slice %arg0[6738415616] [262144] [1] : tensor<6755192832xf32> to tensor<262144xf32>
    %expanded_516 = tensor.expand_shape %extracted_slice_515 [[0, 1, 2, 3]] : tensor<262144xf32> into tensor<1x1x2048x128xf32>
    %extracted_slice_517 = tensor.extract_slice %arg0[6738677760] [262144] [1] : tensor<6755192832xf32> to tensor<262144xf32>
    %expanded_518 = tensor.expand_shape %extracted_slice_517 [[0, 1, 2, 3]] : tensor<262144xf32> into tensor<1x1x2048x128xf32>
    %extracted_slice_519 = tensor.extract_slice %arg0[6738939904] [262144] [1] : tensor<6755192832xf32> to tensor<262144xf32>
    %expanded_520 = tensor.expand_shape %extracted_slice_519 [[0, 1, 2, 3]] : tensor<262144xf32> into tensor<1x1x2048x128xf32>
    %extracted_slice_521 = tensor.extract_slice %arg0[6739202048] [262144] [1] : tensor<6755192832xf32> to tensor<262144xf32>
    %expanded_522 = tensor.expand_shape %extracted_slice_521 [[0, 1, 2, 3]] : tensor<262144xf32> into tensor<1x1x2048x128xf32>
    %extracted_slice_523 = tensor.extract_slice %arg0[6739464192] [262144] [1] : tensor<6755192832xf32> to tensor<262144xf32>
    %expanded_524 = tensor.expand_shape %extracted_slice_523 [[0, 1, 2, 3]] : tensor<262144xf32> into tensor<1x1x2048x128xf32>
    %extracted_slice_525 = tensor.extract_slice %arg0[6739726336] [262144] [1] : tensor<6755192832xf32> to tensor<262144xf32>
    %expanded_526 = tensor.expand_shape %extracted_slice_525 [[0, 1, 2, 3]] : tensor<262144xf32> into tensor<1x1x2048x128xf32>
    %extracted_slice_527 = tensor.extract_slice %arg0[6739988480] [262144] [1] : tensor<6755192832xf32> to tensor<262144xf32>
    %expanded_528 = tensor.expand_shape %extracted_slice_527 [[0, 1, 2, 3]] : tensor<262144xf32> into tensor<1x1x2048x128xf32>
    %extracted_slice_529 = tensor.extract_slice %arg0[6740250624] [262144] [1] : tensor<6755192832xf32> to tensor<262144xf32>
    %expanded_530 = tensor.expand_shape %extracted_slice_529 [[0, 1, 2, 3]] : tensor<262144xf32> into tensor<1x1x2048x128xf32>
    %extracted_slice_531 = tensor.extract_slice %arg0[6740512768] [262144] [1] : tensor<6755192832xf32> to tensor<262144xf32>
    %expanded_532 = tensor.expand_shape %extracted_slice_531 [[0, 1, 2, 3]] : tensor<262144xf32> into tensor<1x1x2048x128xf32>
    %extracted_slice_533 = tensor.extract_slice %arg0[6740774912] [262144] [1] : tensor<6755192832xf32> to tensor<262144xf32>
    %expanded_534 = tensor.expand_shape %extracted_slice_533 [[0, 1, 2, 3]] : tensor<262144xf32> into tensor<1x1x2048x128xf32>
    %extracted_slice_535 = tensor.extract_slice %arg0[6741037056] [262144] [1] : tensor<6755192832xf32> to tensor<262144xf32>
    %expanded_536 = tensor.expand_shape %extracted_slice_535 [[0, 1, 2, 3]] : tensor<262144xf32> into tensor<1x1x2048x128xf32>
    %extracted_slice_537 = tensor.extract_slice %arg0[6741299200] [262144] [1] : tensor<6755192832xf32> to tensor<262144xf32>
    %expanded_538 = tensor.expand_shape %extracted_slice_537 [[0, 1, 2, 3]] : tensor<262144xf32> into tensor<1x1x2048x128xf32>
    %extracted_slice_539 = tensor.extract_slice %arg0[6741561344] [262144] [1] : tensor<6755192832xf32> to tensor<262144xf32>
    %expanded_540 = tensor.expand_shape %extracted_slice_539 [[0, 1, 2, 3]] : tensor<262144xf32> into tensor<1x1x2048x128xf32>
    %extracted_slice_541 = tensor.extract_slice %arg0[6741823488] [262144] [1] : tensor<6755192832xf32> to tensor<262144xf32>
    %expanded_542 = tensor.expand_shape %extracted_slice_541 [[0, 1, 2, 3]] : tensor<262144xf32> into tensor<1x1x2048x128xf32>
    %extracted_slice_543 = tensor.extract_slice %arg0[6742085632] [262144] [1] : tensor<6755192832xf32> to tensor<262144xf32>
    %expanded_544 = tensor.expand_shape %extracted_slice_543 [[0, 1, 2, 3]] : tensor<262144xf32> into tensor<1x1x2048x128xf32>
    %extracted_slice_545 = tensor.extract_slice %arg0[6742347776] [262144] [1] : tensor<6755192832xf32> to tensor<262144xf32>
    %expanded_546 = tensor.expand_shape %extracted_slice_545 [[0, 1, 2, 3]] : tensor<262144xf32> into tensor<1x1x2048x128xf32>
    %extracted_slice_547 = tensor.extract_slice %arg0[6742609920] [262144] [1] : tensor<6755192832xf32> to tensor<262144xf32>
    %expanded_548 = tensor.expand_shape %extracted_slice_547 [[0, 1, 2, 3]] : tensor<262144xf32> into tensor<1x1x2048x128xf32>
    %extracted_slice_549 = tensor.extract_slice %arg0[6742872064] [262144] [1] : tensor<6755192832xf32> to tensor<262144xf32>
    %expanded_550 = tensor.expand_shape %extracted_slice_549 [[0, 1, 2, 3]] : tensor<262144xf32> into tensor<1x1x2048x128xf32>
    %extracted_slice_551 = tensor.extract_slice %arg0[6743134208] [262144] [1] : tensor<6755192832xf32> to tensor<262144xf32>
    %expanded_552 = tensor.expand_shape %extracted_slice_551 [[0, 1, 2, 3]] : tensor<262144xf32> into tensor<1x1x2048x128xf32>
    %extracted_slice_553 = tensor.extract_slice %arg0[6743396352] [262144] [1] : tensor<6755192832xf32> to tensor<262144xf32>
    %expanded_554 = tensor.expand_shape %extracted_slice_553 [[0, 1, 2, 3]] : tensor<262144xf32> into tensor<1x1x2048x128xf32>
    %extracted_slice_555 = tensor.extract_slice %arg0[6743658496] [262144] [1] : tensor<6755192832xf32> to tensor<262144xf32>
    %expanded_556 = tensor.expand_shape %extracted_slice_555 [[0, 1, 2, 3]] : tensor<262144xf32> into tensor<1x1x2048x128xf32>
    %extracted_slice_557 = tensor.extract_slice %arg0[6743920640] [262144] [1] : tensor<6755192832xf32> to tensor<262144xf32>
    %expanded_558 = tensor.expand_shape %extracted_slice_557 [[0, 1, 2, 3]] : tensor<262144xf32> into tensor<1x1x2048x128xf32>
    %extracted_slice_559 = tensor.extract_slice %arg0[6744182784] [262144] [1] : tensor<6755192832xf32> to tensor<262144xf32>
    %expanded_560 = tensor.expand_shape %extracted_slice_559 [[0, 1, 2, 3]] : tensor<262144xf32> into tensor<1x1x2048x128xf32>
    %extracted_slice_561 = tensor.extract_slice %arg0[6744444928] [262144] [1] : tensor<6755192832xf32> to tensor<262144xf32>
    %expanded_562 = tensor.expand_shape %extracted_slice_561 [[0, 1, 2, 3]] : tensor<262144xf32> into tensor<1x1x2048x128xf32>
    %extracted_slice_563 = tensor.extract_slice %arg0[6744707072] [262144] [1] : tensor<6755192832xf32> to tensor<262144xf32>
    %expanded_564 = tensor.expand_shape %extracted_slice_563 [[0, 1, 2, 3]] : tensor<262144xf32> into tensor<1x1x2048x128xf32>
    %extracted_slice_565 = tensor.extract_slice %arg0[6744969216] [262144] [1] : tensor<6755192832xf32> to tensor<262144xf32>
    %expanded_566 = tensor.expand_shape %extracted_slice_565 [[0, 1, 2, 3]] : tensor<262144xf32> into tensor<1x1x2048x128xf32>
    %extracted_slice_567 = tensor.extract_slice %arg0[6745231360] [262144] [1] : tensor<6755192832xf32> to tensor<262144xf32>
    %expanded_568 = tensor.expand_shape %extracted_slice_567 [[0, 1, 2, 3]] : tensor<262144xf32> into tensor<1x1x2048x128xf32>
    %extracted_slice_569 = tensor.extract_slice %arg0[6745493504] [262144] [1] : tensor<6755192832xf32> to tensor<262144xf32>
    %expanded_570 = tensor.expand_shape %extracted_slice_569 [[0, 1, 2, 3]] : tensor<262144xf32> into tensor<1x1x2048x128xf32>
    %extracted_slice_571 = tensor.extract_slice %arg0[6745755648] [262144] [1] : tensor<6755192832xf32> to tensor<262144xf32>
    %expanded_572 = tensor.expand_shape %extracted_slice_571 [[0, 1, 2, 3]] : tensor<262144xf32> into tensor<1x1x2048x128xf32>
    %extracted_slice_573 = tensor.extract_slice %arg0[6746017792] [262144] [1] : tensor<6755192832xf32> to tensor<262144xf32>
    %expanded_574 = tensor.expand_shape %extracted_slice_573 [[0, 1, 2, 3]] : tensor<262144xf32> into tensor<1x1x2048x128xf32>
    %extracted_slice_575 = tensor.extract_slice %arg0[6746279936] [262144] [1] : tensor<6755192832xf32> to tensor<262144xf32>
    %expanded_576 = tensor.expand_shape %extracted_slice_575 [[0, 1, 2, 3]] : tensor<262144xf32> into tensor<1x1x2048x128xf32>
    %extracted_slice_577 = tensor.extract_slice %arg0[6746542080] [262144] [1] : tensor<6755192832xf32> to tensor<262144xf32>
    %expanded_578 = tensor.expand_shape %extracted_slice_577 [[0, 1, 2, 3]] : tensor<262144xf32> into tensor<1x1x2048x128xf32>
    %extracted_slice_579 = tensor.extract_slice %arg0[6746804224] [262144] [1] : tensor<6755192832xf32> to tensor<262144xf32>
    %expanded_580 = tensor.expand_shape %extracted_slice_579 [[0, 1, 2, 3]] : tensor<262144xf32> into tensor<1x1x2048x128xf32>
    %extracted_slice_581 = tensor.extract_slice %arg0[6747066368] [262144] [1] : tensor<6755192832xf32> to tensor<262144xf32>
    %expanded_582 = tensor.expand_shape %extracted_slice_581 [[0, 1, 2, 3]] : tensor<262144xf32> into tensor<1x1x2048x128xf32>
    %extracted_slice_583 = tensor.extract_slice %arg0[6747328512] [262144] [1] : tensor<6755192832xf32> to tensor<262144xf32>
    %expanded_584 = tensor.expand_shape %extracted_slice_583 [[0, 1, 2, 3]] : tensor<262144xf32> into tensor<1x1x2048x128xf32>
    %extracted_slice_585 = tensor.extract_slice %arg0[6747590656] [262144] [1] : tensor<6755192832xf32> to tensor<262144xf32>
    %expanded_586 = tensor.expand_shape %extracted_slice_585 [[0, 1, 2, 3]] : tensor<262144xf32> into tensor<1x1x2048x128xf32>
    %extracted_slice_587 = tensor.extract_slice %arg0[6747852800] [262144] [1] : tensor<6755192832xf32> to tensor<262144xf32>
    %expanded_588 = tensor.expand_shape %extracted_slice_587 [[0, 1, 2, 3]] : tensor<262144xf32> into tensor<1x1x2048x128xf32>
    %extracted_slice_589 = tensor.extract_slice %arg0[6748114944] [262144] [1] : tensor<6755192832xf32> to tensor<262144xf32>
    %expanded_590 = tensor.expand_shape %extracted_slice_589 [[0, 1, 2, 3]] : tensor<262144xf32> into tensor<1x1x2048x128xf32>
    %extracted_slice_591 = tensor.extract_slice %arg0[6748377088] [262144] [1] : tensor<6755192832xf32> to tensor<262144xf32>
    %expanded_592 = tensor.expand_shape %extracted_slice_591 [[0, 1, 2, 3]] : tensor<262144xf32> into tensor<1x1x2048x128xf32>
    %extracted_slice_593 = tensor.extract_slice %arg0[6748639232] [262144] [1] : tensor<6755192832xf32> to tensor<262144xf32>
    %expanded_594 = tensor.expand_shape %extracted_slice_593 [[0, 1, 2, 3]] : tensor<262144xf32> into tensor<1x1x2048x128xf32>
    %extracted_slice_595 = tensor.extract_slice %arg0[6748901376] [262144] [1] : tensor<6755192832xf32> to tensor<262144xf32>
    %expanded_596 = tensor.expand_shape %extracted_slice_595 [[0, 1, 2, 3]] : tensor<262144xf32> into tensor<1x1x2048x128xf32>
    %extracted_slice_597 = tensor.extract_slice %arg0[6749163520] [262144] [1] : tensor<6755192832xf32> to tensor<262144xf32>
    %expanded_598 = tensor.expand_shape %extracted_slice_597 [[0, 1, 2, 3]] : tensor<262144xf32> into tensor<1x1x2048x128xf32>
    %extracted_slice_599 = tensor.extract_slice %arg0[6749425664] [262144] [1] : tensor<6755192832xf32> to tensor<262144xf32>
    %expanded_600 = tensor.expand_shape %extracted_slice_599 [[0, 1, 2, 3]] : tensor<262144xf32> into tensor<1x1x2048x128xf32>
    %extracted_slice_601 = tensor.extract_slice %arg0[6749687808] [262144] [1] : tensor<6755192832xf32> to tensor<262144xf32>
    %expanded_602 = tensor.expand_shape %extracted_slice_601 [[0, 1, 2, 3]] : tensor<262144xf32> into tensor<1x1x2048x128xf32>
    %extracted_slice_603 = tensor.extract_slice %arg0[6749949952] [262144] [1] : tensor<6755192832xf32> to tensor<262144xf32>
    %expanded_604 = tensor.expand_shape %extracted_slice_603 [[0, 1, 2, 3]] : tensor<262144xf32> into tensor<1x1x2048x128xf32>
    %extracted_slice_605 = tensor.extract_slice %arg0[6750212096] [262144] [1] : tensor<6755192832xf32> to tensor<262144xf32>
    %expanded_606 = tensor.expand_shape %extracted_slice_605 [[0, 1, 2, 3]] : tensor<262144xf32> into tensor<1x1x2048x128xf32>
    %extracted_slice_607 = tensor.extract_slice %arg0[6750474240] [262144] [1] : tensor<6755192832xf32> to tensor<262144xf32>
    %expanded_608 = tensor.expand_shape %extracted_slice_607 [[0, 1, 2, 3]] : tensor<262144xf32> into tensor<1x1x2048x128xf32>
    %extracted_slice_609 = tensor.extract_slice %arg0[6750736384] [262144] [1] : tensor<6755192832xf32> to tensor<262144xf32>
    %expanded_610 = tensor.expand_shape %extracted_slice_609 [[0, 1, 2, 3]] : tensor<262144xf32> into tensor<1x1x2048x128xf32>
    %extracted_slice_611 = tensor.extract_slice %arg0[6750998528] [262144] [1] : tensor<6755192832xf32> to tensor<262144xf32>
    %expanded_612 = tensor.expand_shape %extracted_slice_611 [[0, 1, 2, 3]] : tensor<262144xf32> into tensor<1x1x2048x128xf32>
    %extracted_slice_613 = tensor.extract_slice %arg0[6751260672] [262144] [1] : tensor<6755192832xf32> to tensor<262144xf32>
    %expanded_614 = tensor.expand_shape %extracted_slice_613 [[0, 1, 2, 3]] : tensor<262144xf32> into tensor<1x1x2048x128xf32>
    %extracted_slice_615 = tensor.extract_slice %arg0[6751522816] [262144] [1] : tensor<6755192832xf32> to tensor<262144xf32>
    %expanded_616 = tensor.expand_shape %extracted_slice_615 [[0, 1, 2, 3]] : tensor<262144xf32> into tensor<1x1x2048x128xf32>
    %extracted_slice_617 = tensor.extract_slice %arg0[6751784960] [262144] [1] : tensor<6755192832xf32> to tensor<262144xf32>
    %expanded_618 = tensor.expand_shape %extracted_slice_617 [[0, 1, 2, 3]] : tensor<262144xf32> into tensor<1x1x2048x128xf32>
    %extracted_slice_619 = tensor.extract_slice %arg0[6752047104] [262144] [1] : tensor<6755192832xf32> to tensor<262144xf32>
    %expanded_620 = tensor.expand_shape %extracted_slice_619 [[0, 1, 2, 3]] : tensor<262144xf32> into tensor<1x1x2048x128xf32>
    %extracted_slice_621 = tensor.extract_slice %arg0[6752309248] [262144] [1] : tensor<6755192832xf32> to tensor<262144xf32>
    %expanded_622 = tensor.expand_shape %extracted_slice_621 [[0, 1, 2, 3]] : tensor<262144xf32> into tensor<1x1x2048x128xf32>
    %extracted_slice_623 = tensor.extract_slice %arg0[6752571392] [262144] [1] : tensor<6755192832xf32> to tensor<262144xf32>
    %expanded_624 = tensor.expand_shape %extracted_slice_623 [[0, 1, 2, 3]] : tensor<262144xf32> into tensor<1x1x2048x128xf32>
    %extracted_slice_625 = tensor.extract_slice %arg0[6752833536] [262144] [1] : tensor<6755192832xf32> to tensor<262144xf32>
    %expanded_626 = tensor.expand_shape %extracted_slice_625 [[0, 1, 2, 3]] : tensor<262144xf32> into tensor<1x1x2048x128xf32>
    %extracted_slice_627 = tensor.extract_slice %arg0[6753095680] [262144] [1] : tensor<6755192832xf32> to tensor<262144xf32>
    %expanded_628 = tensor.expand_shape %extracted_slice_627 [[0, 1, 2, 3]] : tensor<262144xf32> into tensor<1x1x2048x128xf32>
    %extracted_slice_629 = tensor.extract_slice %arg0[6753357824] [262144] [1] : tensor<6755192832xf32> to tensor<262144xf32>
    %expanded_630 = tensor.expand_shape %extracted_slice_629 [[0, 1, 2, 3]] : tensor<262144xf32> into tensor<1x1x2048x128xf32>
    %extracted_slice_631 = tensor.extract_slice %arg0[6753619968] [262144] [1] : tensor<6755192832xf32> to tensor<262144xf32>
    %expanded_632 = tensor.expand_shape %extracted_slice_631 [[0, 1, 2, 3]] : tensor<262144xf32> into tensor<1x1x2048x128xf32>
    %extracted_slice_633 = tensor.extract_slice %arg0[6753882112] [262144] [1] : tensor<6755192832xf32> to tensor<262144xf32>
    %expanded_634 = tensor.expand_shape %extracted_slice_633 [[0, 1, 2, 3]] : tensor<262144xf32> into tensor<1x1x2048x128xf32>
    %extracted_slice_635 = tensor.extract_slice %arg0[6754144256] [262144] [1] : tensor<6755192832xf32> to tensor<262144xf32>
    %expanded_636 = tensor.expand_shape %extracted_slice_635 [[0, 1, 2, 3]] : tensor<262144xf32> into tensor<1x1x2048x128xf32>
    %extracted_slice_637 = tensor.extract_slice %arg0[6754406400] [262144] [1] : tensor<6755192832xf32> to tensor<262144xf32>
    %expanded_638 = tensor.expand_shape %extracted_slice_637 [[0, 1, 2, 3]] : tensor<262144xf32> into tensor<1x1x2048x128xf32>
    %extracted_slice_639 = tensor.extract_slice %arg0[6754668544] [262144] [1] : tensor<6755192832xf32> to tensor<262144xf32>
    %expanded_640 = tensor.expand_shape %extracted_slice_639 [[0, 1, 2, 3]] : tensor<262144xf32> into tensor<1x1x2048x128xf32>
    %extracted_slice_641 = tensor.extract_slice %arg0[6754930688] [262144] [1] : tensor<6755192832xf32> to tensor<262144xf32>
    %expanded_642 = tensor.expand_shape %extracted_slice_641 [[0, 1, 2, 3]] : tensor<262144xf32> into tensor<1x1x2048x128xf32>
    %cst = arith.constant dense<[0, 1, 2, 3, 4, 5, 6, 7, 8, 9, 10, 11, 12, 13, 14, 15, 16, 17, 18, 19, 20, 21, 22, 23, 24, 25, 26, 27, 28, 29, 30, 31, 32, 33, 34, 35, 36, 37, 38, 39, 40, 41, 42, 43, 44, 45, 46, 47, 48, 49, 50, 51, 52, 53, 54, 55, 56, 57, 58, 59, 60, 61, 62, 63, 64, 65, 66, 67, 68, 69, 70, 71, 72, 73, 74, 75, 76, 77, 78, 79]> : tensor<80xi64>
    %0 = "tosa.reshape"(%cst) {new_shape = array<i64: 1, 80>} : (tensor<80xi64>) -> tensor<1x80xi64>
    %1 = "tosa.reshape"(%0) {new_shape = array<i64: 1, 80>} : (tensor<1x80xi64>) -> tensor<1x80xi64>
    %2 = tensor.empty() : tensor<1x80x4096xf32>
    %3 = linalg.generic {indexing_maps = [#map, #map1], iterator_types = ["parallel", "parallel", "parallel"]} ins(%arg1 : tensor<1x80xi64>) outs(%2 : tensor<1x80x4096xf32>) {
    ^bb0(%in: i64, %out: f32):
      %5230 = arith.index_cast %in : i64 to index
      %5231 = linalg.index 2 : index
      %extracted = tensor.extract %expanded[%5230, %5231] : tensor<32000x4096xf32>
      linalg.yield %extracted : f32
    } -> tensor<1x80x4096xf32>
    %cst_643 = arith.constant dense<true> : tensor<1x80xi1>
    %cst_644 = arith.constant dense<-3.40282347E+38> : tensor<80x80xf32>
    %cst_645 = arith.constant dense<[0, 1, 2, 3, 4, 5, 6, 7, 8, 9, 10, 11, 12, 13, 14, 15, 16, 17, 18, 19, 20, 21, 22, 23, 24, 25, 26, 27, 28, 29, 30, 31, 32, 33, 34, 35, 36, 37, 38, 39, 40, 41, 42, 43, 44, 45, 46, 47, 48, 49, 50, 51, 52, 53, 54, 55, 56, 57, 58, 59, 60, 61, 62, 63, 64, 65, 66, 67, 68, 69, 70, 71, 72, 73, 74, 75, 76, 77, 78, 79]> : tensor<80xi64>
    %cst_646 = arith.constant dense<1> : tensor<i64>
    %4 = "tosa.add"(%cst_645, %cst_646) : (tensor<80xi64>, tensor<i64>) -> tensor<80xi64>
    %5 = "tosa.reshape"(%4) {new_shape = array<i64: 80, 1>} : (tensor<80xi64>) -> tensor<80x1xi64>
    %6 = tensor.empty() : tensor<80x80xi1>
    %7 = linalg.generic {indexing_maps = [#map2, #map3, #map], iterator_types = ["parallel", "parallel", "reduction"]} ins(%cst_645, %5 : tensor<80xi64>, tensor<80x1xi64>) outs(%6 : tensor<80x80xi1>) {
    ^bb0(%in: i64, %in_1777: i64, %out: i1):
      %5230 = arith.cmpi slt, %in, %in_1777 : i64
      linalg.yield %5230 : i1
    } -> tensor<80x80xi1>
    %cst_647 = arith.constant 0.000000e+00 : f32
    %8 = tensor.empty() : tensor<80x80xf32>
    %9 = linalg.generic {indexing_maps = [#map4, #map4, #map4], iterator_types = ["parallel", "parallel"]} ins(%cst_644, %7 : tensor<80x80xf32>, tensor<80x80xi1>) outs(%8 : tensor<80x80xf32>) {
    ^bb0(%in: f32, %in_1777: i1, %out: f32):
      %5230 = arith.select %in_1777, %cst_647, %in : f32
      linalg.yield %5230 : f32
    } -> tensor<80x80xf32>
    %extracted_slice_648 = tensor.extract_slice %cst_643[0, 0] [1, 80] [1, 1] : tensor<1x80xi1> to tensor<1x80xi1>
    %10 = "tosa.reshape"(%extracted_slice_648) {new_shape = array<i64: 1, 1, 80>} : (tensor<1x80xi1>) -> tensor<1x1x80xi1>
    %11 = "tosa.reshape"(%10) {new_shape = array<i64: 1, 1, 1, 80>} : (tensor<1x1x80xi1>) -> tensor<1x1x1x80xi1>
    %extracted_slice_649 = tensor.extract_slice %11[0, 0, 0, 0] [1, 1, 1, 80] [1, 1, 1, 1] : tensor<1x1x1x80xi1> to tensor<1x1x1x80xi1>
    %12 = tensor.empty() : tensor<1x1x80x80xi1>
    %extracted_slice_650 = tensor.extract_slice %extracted_slice_649[0, 0, 0, 0] [1, 1, 1, 80] [1, 1, 1, 1] : tensor<1x1x1x80xi1> to tensor<1x1x1x80xi1>
    %inserted_slice = tensor.insert_slice %extracted_slice_650 into %12[0, 0, 0, 0] [1, 1, 1, 80] [1, 1, 1, 1] : tensor<1x1x1x80xi1> into tensor<1x1x80x80xi1>
    %extracted_slice_651 = tensor.extract_slice %extracted_slice_649[0, 0, 0, 0] [1, 1, 1, 80] [1, 1, 1, 1] : tensor<1x1x1x80xi1> to tensor<1x1x1x80xi1>
    %inserted_slice_652 = tensor.insert_slice %extracted_slice_651 into %inserted_slice[0, 0, 1, 0] [1, 1, 1, 80] [1, 1, 1, 1] : tensor<1x1x1x80xi1> into tensor<1x1x80x80xi1>
    %extracted_slice_653 = tensor.extract_slice %extracted_slice_649[0, 0, 0, 0] [1, 1, 1, 80] [1, 1, 1, 1] : tensor<1x1x1x80xi1> to tensor<1x1x1x80xi1>
    %inserted_slice_654 = tensor.insert_slice %extracted_slice_653 into %inserted_slice_652[0, 0, 2, 0] [1, 1, 1, 80] [1, 1, 1, 1] : tensor<1x1x1x80xi1> into tensor<1x1x80x80xi1>
    %extracted_slice_655 = tensor.extract_slice %extracted_slice_649[0, 0, 0, 0] [1, 1, 1, 80] [1, 1, 1, 1] : tensor<1x1x1x80xi1> to tensor<1x1x1x80xi1>
    %inserted_slice_656 = tensor.insert_slice %extracted_slice_655 into %inserted_slice_654[0, 0, 3, 0] [1, 1, 1, 80] [1, 1, 1, 1] : tensor<1x1x1x80xi1> into tensor<1x1x80x80xi1>
    %extracted_slice_657 = tensor.extract_slice %extracted_slice_649[0, 0, 0, 0] [1, 1, 1, 80] [1, 1, 1, 1] : tensor<1x1x1x80xi1> to tensor<1x1x1x80xi1>
    %inserted_slice_658 = tensor.insert_slice %extracted_slice_657 into %inserted_slice_656[0, 0, 4, 0] [1, 1, 1, 80] [1, 1, 1, 1] : tensor<1x1x1x80xi1> into tensor<1x1x80x80xi1>
    %extracted_slice_659 = tensor.extract_slice %extracted_slice_649[0, 0, 0, 0] [1, 1, 1, 80] [1, 1, 1, 1] : tensor<1x1x1x80xi1> to tensor<1x1x1x80xi1>
    %inserted_slice_660 = tensor.insert_slice %extracted_slice_659 into %inserted_slice_658[0, 0, 5, 0] [1, 1, 1, 80] [1, 1, 1, 1] : tensor<1x1x1x80xi1> into tensor<1x1x80x80xi1>
    %extracted_slice_661 = tensor.extract_slice %extracted_slice_649[0, 0, 0, 0] [1, 1, 1, 80] [1, 1, 1, 1] : tensor<1x1x1x80xi1> to tensor<1x1x1x80xi1>
    %inserted_slice_662 = tensor.insert_slice %extracted_slice_661 into %inserted_slice_660[0, 0, 6, 0] [1, 1, 1, 80] [1, 1, 1, 1] : tensor<1x1x1x80xi1> into tensor<1x1x80x80xi1>
    %extracted_slice_663 = tensor.extract_slice %extracted_slice_649[0, 0, 0, 0] [1, 1, 1, 80] [1, 1, 1, 1] : tensor<1x1x1x80xi1> to tensor<1x1x1x80xi1>
    %inserted_slice_664 = tensor.insert_slice %extracted_slice_663 into %inserted_slice_662[0, 0, 7, 0] [1, 1, 1, 80] [1, 1, 1, 1] : tensor<1x1x1x80xi1> into tensor<1x1x80x80xi1>
    %extracted_slice_665 = tensor.extract_slice %extracted_slice_649[0, 0, 0, 0] [1, 1, 1, 80] [1, 1, 1, 1] : tensor<1x1x1x80xi1> to tensor<1x1x1x80xi1>
    %inserted_slice_666 = tensor.insert_slice %extracted_slice_665 into %inserted_slice_664[0, 0, 8, 0] [1, 1, 1, 80] [1, 1, 1, 1] : tensor<1x1x1x80xi1> into tensor<1x1x80x80xi1>
    %extracted_slice_667 = tensor.extract_slice %extracted_slice_649[0, 0, 0, 0] [1, 1, 1, 80] [1, 1, 1, 1] : tensor<1x1x1x80xi1> to tensor<1x1x1x80xi1>
    %inserted_slice_668 = tensor.insert_slice %extracted_slice_667 into %inserted_slice_666[0, 0, 9, 0] [1, 1, 1, 80] [1, 1, 1, 1] : tensor<1x1x1x80xi1> into tensor<1x1x80x80xi1>
    %extracted_slice_669 = tensor.extract_slice %extracted_slice_649[0, 0, 0, 0] [1, 1, 1, 80] [1, 1, 1, 1] : tensor<1x1x1x80xi1> to tensor<1x1x1x80xi1>
    %inserted_slice_670 = tensor.insert_slice %extracted_slice_669 into %inserted_slice_668[0, 0, 10, 0] [1, 1, 1, 80] [1, 1, 1, 1] : tensor<1x1x1x80xi1> into tensor<1x1x80x80xi1>
    %extracted_slice_671 = tensor.extract_slice %extracted_slice_649[0, 0, 0, 0] [1, 1, 1, 80] [1, 1, 1, 1] : tensor<1x1x1x80xi1> to tensor<1x1x1x80xi1>
    %inserted_slice_672 = tensor.insert_slice %extracted_slice_671 into %inserted_slice_670[0, 0, 11, 0] [1, 1, 1, 80] [1, 1, 1, 1] : tensor<1x1x1x80xi1> into tensor<1x1x80x80xi1>
    %extracted_slice_673 = tensor.extract_slice %extracted_slice_649[0, 0, 0, 0] [1, 1, 1, 80] [1, 1, 1, 1] : tensor<1x1x1x80xi1> to tensor<1x1x1x80xi1>
    %inserted_slice_674 = tensor.insert_slice %extracted_slice_673 into %inserted_slice_672[0, 0, 12, 0] [1, 1, 1, 80] [1, 1, 1, 1] : tensor<1x1x1x80xi1> into tensor<1x1x80x80xi1>
    %extracted_slice_675 = tensor.extract_slice %extracted_slice_649[0, 0, 0, 0] [1, 1, 1, 80] [1, 1, 1, 1] : tensor<1x1x1x80xi1> to tensor<1x1x1x80xi1>
    %inserted_slice_676 = tensor.insert_slice %extracted_slice_675 into %inserted_slice_674[0, 0, 13, 0] [1, 1, 1, 80] [1, 1, 1, 1] : tensor<1x1x1x80xi1> into tensor<1x1x80x80xi1>
    %extracted_slice_677 = tensor.extract_slice %extracted_slice_649[0, 0, 0, 0] [1, 1, 1, 80] [1, 1, 1, 1] : tensor<1x1x1x80xi1> to tensor<1x1x1x80xi1>
    %inserted_slice_678 = tensor.insert_slice %extracted_slice_677 into %inserted_slice_676[0, 0, 14, 0] [1, 1, 1, 80] [1, 1, 1, 1] : tensor<1x1x1x80xi1> into tensor<1x1x80x80xi1>
    %extracted_slice_679 = tensor.extract_slice %extracted_slice_649[0, 0, 0, 0] [1, 1, 1, 80] [1, 1, 1, 1] : tensor<1x1x1x80xi1> to tensor<1x1x1x80xi1>
    %inserted_slice_680 = tensor.insert_slice %extracted_slice_679 into %inserted_slice_678[0, 0, 15, 0] [1, 1, 1, 80] [1, 1, 1, 1] : tensor<1x1x1x80xi1> into tensor<1x1x80x80xi1>
    %extracted_slice_681 = tensor.extract_slice %extracted_slice_649[0, 0, 0, 0] [1, 1, 1, 80] [1, 1, 1, 1] : tensor<1x1x1x80xi1> to tensor<1x1x1x80xi1>
    %inserted_slice_682 = tensor.insert_slice %extracted_slice_681 into %inserted_slice_680[0, 0, 16, 0] [1, 1, 1, 80] [1, 1, 1, 1] : tensor<1x1x1x80xi1> into tensor<1x1x80x80xi1>
    %extracted_slice_683 = tensor.extract_slice %extracted_slice_649[0, 0, 0, 0] [1, 1, 1, 80] [1, 1, 1, 1] : tensor<1x1x1x80xi1> to tensor<1x1x1x80xi1>
    %inserted_slice_684 = tensor.insert_slice %extracted_slice_683 into %inserted_slice_682[0, 0, 17, 0] [1, 1, 1, 80] [1, 1, 1, 1] : tensor<1x1x1x80xi1> into tensor<1x1x80x80xi1>
    %extracted_slice_685 = tensor.extract_slice %extracted_slice_649[0, 0, 0, 0] [1, 1, 1, 80] [1, 1, 1, 1] : tensor<1x1x1x80xi1> to tensor<1x1x1x80xi1>
    %inserted_slice_686 = tensor.insert_slice %extracted_slice_685 into %inserted_slice_684[0, 0, 18, 0] [1, 1, 1, 80] [1, 1, 1, 1] : tensor<1x1x1x80xi1> into tensor<1x1x80x80xi1>
    %extracted_slice_687 = tensor.extract_slice %extracted_slice_649[0, 0, 0, 0] [1, 1, 1, 80] [1, 1, 1, 1] : tensor<1x1x1x80xi1> to tensor<1x1x1x80xi1>
    %inserted_slice_688 = tensor.insert_slice %extracted_slice_687 into %inserted_slice_686[0, 0, 19, 0] [1, 1, 1, 80] [1, 1, 1, 1] : tensor<1x1x1x80xi1> into tensor<1x1x80x80xi1>
    %extracted_slice_689 = tensor.extract_slice %extracted_slice_649[0, 0, 0, 0] [1, 1, 1, 80] [1, 1, 1, 1] : tensor<1x1x1x80xi1> to tensor<1x1x1x80xi1>
    %inserted_slice_690 = tensor.insert_slice %extracted_slice_689 into %inserted_slice_688[0, 0, 20, 0] [1, 1, 1, 80] [1, 1, 1, 1] : tensor<1x1x1x80xi1> into tensor<1x1x80x80xi1>
    %extracted_slice_691 = tensor.extract_slice %extracted_slice_649[0, 0, 0, 0] [1, 1, 1, 80] [1, 1, 1, 1] : tensor<1x1x1x80xi1> to tensor<1x1x1x80xi1>
    %inserted_slice_692 = tensor.insert_slice %extracted_slice_691 into %inserted_slice_690[0, 0, 21, 0] [1, 1, 1, 80] [1, 1, 1, 1] : tensor<1x1x1x80xi1> into tensor<1x1x80x80xi1>
    %extracted_slice_693 = tensor.extract_slice %extracted_slice_649[0, 0, 0, 0] [1, 1, 1, 80] [1, 1, 1, 1] : tensor<1x1x1x80xi1> to tensor<1x1x1x80xi1>
    %inserted_slice_694 = tensor.insert_slice %extracted_slice_693 into %inserted_slice_692[0, 0, 22, 0] [1, 1, 1, 80] [1, 1, 1, 1] : tensor<1x1x1x80xi1> into tensor<1x1x80x80xi1>
    %extracted_slice_695 = tensor.extract_slice %extracted_slice_649[0, 0, 0, 0] [1, 1, 1, 80] [1, 1, 1, 1] : tensor<1x1x1x80xi1> to tensor<1x1x1x80xi1>
    %inserted_slice_696 = tensor.insert_slice %extracted_slice_695 into %inserted_slice_694[0, 0, 23, 0] [1, 1, 1, 80] [1, 1, 1, 1] : tensor<1x1x1x80xi1> into tensor<1x1x80x80xi1>
    %extracted_slice_697 = tensor.extract_slice %extracted_slice_649[0, 0, 0, 0] [1, 1, 1, 80] [1, 1, 1, 1] : tensor<1x1x1x80xi1> to tensor<1x1x1x80xi1>
    %inserted_slice_698 = tensor.insert_slice %extracted_slice_697 into %inserted_slice_696[0, 0, 24, 0] [1, 1, 1, 80] [1, 1, 1, 1] : tensor<1x1x1x80xi1> into tensor<1x1x80x80xi1>
    %extracted_slice_699 = tensor.extract_slice %extracted_slice_649[0, 0, 0, 0] [1, 1, 1, 80] [1, 1, 1, 1] : tensor<1x1x1x80xi1> to tensor<1x1x1x80xi1>
    %inserted_slice_700 = tensor.insert_slice %extracted_slice_699 into %inserted_slice_698[0, 0, 25, 0] [1, 1, 1, 80] [1, 1, 1, 1] : tensor<1x1x1x80xi1> into tensor<1x1x80x80xi1>
    %extracted_slice_701 = tensor.extract_slice %extracted_slice_649[0, 0, 0, 0] [1, 1, 1, 80] [1, 1, 1, 1] : tensor<1x1x1x80xi1> to tensor<1x1x1x80xi1>
    %inserted_slice_702 = tensor.insert_slice %extracted_slice_701 into %inserted_slice_700[0, 0, 26, 0] [1, 1, 1, 80] [1, 1, 1, 1] : tensor<1x1x1x80xi1> into tensor<1x1x80x80xi1>
    %extracted_slice_703 = tensor.extract_slice %extracted_slice_649[0, 0, 0, 0] [1, 1, 1, 80] [1, 1, 1, 1] : tensor<1x1x1x80xi1> to tensor<1x1x1x80xi1>
    %inserted_slice_704 = tensor.insert_slice %extracted_slice_703 into %inserted_slice_702[0, 0, 27, 0] [1, 1, 1, 80] [1, 1, 1, 1] : tensor<1x1x1x80xi1> into tensor<1x1x80x80xi1>
    %extracted_slice_705 = tensor.extract_slice %extracted_slice_649[0, 0, 0, 0] [1, 1, 1, 80] [1, 1, 1, 1] : tensor<1x1x1x80xi1> to tensor<1x1x1x80xi1>
    %inserted_slice_706 = tensor.insert_slice %extracted_slice_705 into %inserted_slice_704[0, 0, 28, 0] [1, 1, 1, 80] [1, 1, 1, 1] : tensor<1x1x1x80xi1> into tensor<1x1x80x80xi1>
    %extracted_slice_707 = tensor.extract_slice %extracted_slice_649[0, 0, 0, 0] [1, 1, 1, 80] [1, 1, 1, 1] : tensor<1x1x1x80xi1> to tensor<1x1x1x80xi1>
    %inserted_slice_708 = tensor.insert_slice %extracted_slice_707 into %inserted_slice_706[0, 0, 29, 0] [1, 1, 1, 80] [1, 1, 1, 1] : tensor<1x1x1x80xi1> into tensor<1x1x80x80xi1>
    %extracted_slice_709 = tensor.extract_slice %extracted_slice_649[0, 0, 0, 0] [1, 1, 1, 80] [1, 1, 1, 1] : tensor<1x1x1x80xi1> to tensor<1x1x1x80xi1>
    %inserted_slice_710 = tensor.insert_slice %extracted_slice_709 into %inserted_slice_708[0, 0, 30, 0] [1, 1, 1, 80] [1, 1, 1, 1] : tensor<1x1x1x80xi1> into tensor<1x1x80x80xi1>
    %extracted_slice_711 = tensor.extract_slice %extracted_slice_649[0, 0, 0, 0] [1, 1, 1, 80] [1, 1, 1, 1] : tensor<1x1x1x80xi1> to tensor<1x1x1x80xi1>
    %inserted_slice_712 = tensor.insert_slice %extracted_slice_711 into %inserted_slice_710[0, 0, 31, 0] [1, 1, 1, 80] [1, 1, 1, 1] : tensor<1x1x1x80xi1> into tensor<1x1x80x80xi1>
    %extracted_slice_713 = tensor.extract_slice %extracted_slice_649[0, 0, 0, 0] [1, 1, 1, 80] [1, 1, 1, 1] : tensor<1x1x1x80xi1> to tensor<1x1x1x80xi1>
    %inserted_slice_714 = tensor.insert_slice %extracted_slice_713 into %inserted_slice_712[0, 0, 32, 0] [1, 1, 1, 80] [1, 1, 1, 1] : tensor<1x1x1x80xi1> into tensor<1x1x80x80xi1>
    %extracted_slice_715 = tensor.extract_slice %extracted_slice_649[0, 0, 0, 0] [1, 1, 1, 80] [1, 1, 1, 1] : tensor<1x1x1x80xi1> to tensor<1x1x1x80xi1>
    %inserted_slice_716 = tensor.insert_slice %extracted_slice_715 into %inserted_slice_714[0, 0, 33, 0] [1, 1, 1, 80] [1, 1, 1, 1] : tensor<1x1x1x80xi1> into tensor<1x1x80x80xi1>
    %extracted_slice_717 = tensor.extract_slice %extracted_slice_649[0, 0, 0, 0] [1, 1, 1, 80] [1, 1, 1, 1] : tensor<1x1x1x80xi1> to tensor<1x1x1x80xi1>
    %inserted_slice_718 = tensor.insert_slice %extracted_slice_717 into %inserted_slice_716[0, 0, 34, 0] [1, 1, 1, 80] [1, 1, 1, 1] : tensor<1x1x1x80xi1> into tensor<1x1x80x80xi1>
    %extracted_slice_719 = tensor.extract_slice %extracted_slice_649[0, 0, 0, 0] [1, 1, 1, 80] [1, 1, 1, 1] : tensor<1x1x1x80xi1> to tensor<1x1x1x80xi1>
    %inserted_slice_720 = tensor.insert_slice %extracted_slice_719 into %inserted_slice_718[0, 0, 35, 0] [1, 1, 1, 80] [1, 1, 1, 1] : tensor<1x1x1x80xi1> into tensor<1x1x80x80xi1>
    %extracted_slice_721 = tensor.extract_slice %extracted_slice_649[0, 0, 0, 0] [1, 1, 1, 80] [1, 1, 1, 1] : tensor<1x1x1x80xi1> to tensor<1x1x1x80xi1>
    %inserted_slice_722 = tensor.insert_slice %extracted_slice_721 into %inserted_slice_720[0, 0, 36, 0] [1, 1, 1, 80] [1, 1, 1, 1] : tensor<1x1x1x80xi1> into tensor<1x1x80x80xi1>
    %extracted_slice_723 = tensor.extract_slice %extracted_slice_649[0, 0, 0, 0] [1, 1, 1, 80] [1, 1, 1, 1] : tensor<1x1x1x80xi1> to tensor<1x1x1x80xi1>
    %inserted_slice_724 = tensor.insert_slice %extracted_slice_723 into %inserted_slice_722[0, 0, 37, 0] [1, 1, 1, 80] [1, 1, 1, 1] : tensor<1x1x1x80xi1> into tensor<1x1x80x80xi1>
    %extracted_slice_725 = tensor.extract_slice %extracted_slice_649[0, 0, 0, 0] [1, 1, 1, 80] [1, 1, 1, 1] : tensor<1x1x1x80xi1> to tensor<1x1x1x80xi1>
    %inserted_slice_726 = tensor.insert_slice %extracted_slice_725 into %inserted_slice_724[0, 0, 38, 0] [1, 1, 1, 80] [1, 1, 1, 1] : tensor<1x1x1x80xi1> into tensor<1x1x80x80xi1>
    %extracted_slice_727 = tensor.extract_slice %extracted_slice_649[0, 0, 0, 0] [1, 1, 1, 80] [1, 1, 1, 1] : tensor<1x1x1x80xi1> to tensor<1x1x1x80xi1>
    %inserted_slice_728 = tensor.insert_slice %extracted_slice_727 into %inserted_slice_726[0, 0, 39, 0] [1, 1, 1, 80] [1, 1, 1, 1] : tensor<1x1x1x80xi1> into tensor<1x1x80x80xi1>
    %extracted_slice_729 = tensor.extract_slice %extracted_slice_649[0, 0, 0, 0] [1, 1, 1, 80] [1, 1, 1, 1] : tensor<1x1x1x80xi1> to tensor<1x1x1x80xi1>
    %inserted_slice_730 = tensor.insert_slice %extracted_slice_729 into %inserted_slice_728[0, 0, 40, 0] [1, 1, 1, 80] [1, 1, 1, 1] : tensor<1x1x1x80xi1> into tensor<1x1x80x80xi1>
    %extracted_slice_731 = tensor.extract_slice %extracted_slice_649[0, 0, 0, 0] [1, 1, 1, 80] [1, 1, 1, 1] : tensor<1x1x1x80xi1> to tensor<1x1x1x80xi1>
    %inserted_slice_732 = tensor.insert_slice %extracted_slice_731 into %inserted_slice_730[0, 0, 41, 0] [1, 1, 1, 80] [1, 1, 1, 1] : tensor<1x1x1x80xi1> into tensor<1x1x80x80xi1>
    %extracted_slice_733 = tensor.extract_slice %extracted_slice_649[0, 0, 0, 0] [1, 1, 1, 80] [1, 1, 1, 1] : tensor<1x1x1x80xi1> to tensor<1x1x1x80xi1>
    %inserted_slice_734 = tensor.insert_slice %extracted_slice_733 into %inserted_slice_732[0, 0, 42, 0] [1, 1, 1, 80] [1, 1, 1, 1] : tensor<1x1x1x80xi1> into tensor<1x1x80x80xi1>
    %extracted_slice_735 = tensor.extract_slice %extracted_slice_649[0, 0, 0, 0] [1, 1, 1, 80] [1, 1, 1, 1] : tensor<1x1x1x80xi1> to tensor<1x1x1x80xi1>
    %inserted_slice_736 = tensor.insert_slice %extracted_slice_735 into %inserted_slice_734[0, 0, 43, 0] [1, 1, 1, 80] [1, 1, 1, 1] : tensor<1x1x1x80xi1> into tensor<1x1x80x80xi1>
    %extracted_slice_737 = tensor.extract_slice %extracted_slice_649[0, 0, 0, 0] [1, 1, 1, 80] [1, 1, 1, 1] : tensor<1x1x1x80xi1> to tensor<1x1x1x80xi1>
    %inserted_slice_738 = tensor.insert_slice %extracted_slice_737 into %inserted_slice_736[0, 0, 44, 0] [1, 1, 1, 80] [1, 1, 1, 1] : tensor<1x1x1x80xi1> into tensor<1x1x80x80xi1>
    %extracted_slice_739 = tensor.extract_slice %extracted_slice_649[0, 0, 0, 0] [1, 1, 1, 80] [1, 1, 1, 1] : tensor<1x1x1x80xi1> to tensor<1x1x1x80xi1>
    %inserted_slice_740 = tensor.insert_slice %extracted_slice_739 into %inserted_slice_738[0, 0, 45, 0] [1, 1, 1, 80] [1, 1, 1, 1] : tensor<1x1x1x80xi1> into tensor<1x1x80x80xi1>
    %extracted_slice_741 = tensor.extract_slice %extracted_slice_649[0, 0, 0, 0] [1, 1, 1, 80] [1, 1, 1, 1] : tensor<1x1x1x80xi1> to tensor<1x1x1x80xi1>
    %inserted_slice_742 = tensor.insert_slice %extracted_slice_741 into %inserted_slice_740[0, 0, 46, 0] [1, 1, 1, 80] [1, 1, 1, 1] : tensor<1x1x1x80xi1> into tensor<1x1x80x80xi1>
    %extracted_slice_743 = tensor.extract_slice %extracted_slice_649[0, 0, 0, 0] [1, 1, 1, 80] [1, 1, 1, 1] : tensor<1x1x1x80xi1> to tensor<1x1x1x80xi1>
    %inserted_slice_744 = tensor.insert_slice %extracted_slice_743 into %inserted_slice_742[0, 0, 47, 0] [1, 1, 1, 80] [1, 1, 1, 1] : tensor<1x1x1x80xi1> into tensor<1x1x80x80xi1>
    %extracted_slice_745 = tensor.extract_slice %extracted_slice_649[0, 0, 0, 0] [1, 1, 1, 80] [1, 1, 1, 1] : tensor<1x1x1x80xi1> to tensor<1x1x1x80xi1>
    %inserted_slice_746 = tensor.insert_slice %extracted_slice_745 into %inserted_slice_744[0, 0, 48, 0] [1, 1, 1, 80] [1, 1, 1, 1] : tensor<1x1x1x80xi1> into tensor<1x1x80x80xi1>
    %extracted_slice_747 = tensor.extract_slice %extracted_slice_649[0, 0, 0, 0] [1, 1, 1, 80] [1, 1, 1, 1] : tensor<1x1x1x80xi1> to tensor<1x1x1x80xi1>
    %inserted_slice_748 = tensor.insert_slice %extracted_slice_747 into %inserted_slice_746[0, 0, 49, 0] [1, 1, 1, 80] [1, 1, 1, 1] : tensor<1x1x1x80xi1> into tensor<1x1x80x80xi1>
    %extracted_slice_749 = tensor.extract_slice %extracted_slice_649[0, 0, 0, 0] [1, 1, 1, 80] [1, 1, 1, 1] : tensor<1x1x1x80xi1> to tensor<1x1x1x80xi1>
    %inserted_slice_750 = tensor.insert_slice %extracted_slice_749 into %inserted_slice_748[0, 0, 50, 0] [1, 1, 1, 80] [1, 1, 1, 1] : tensor<1x1x1x80xi1> into tensor<1x1x80x80xi1>
    %extracted_slice_751 = tensor.extract_slice %extracted_slice_649[0, 0, 0, 0] [1, 1, 1, 80] [1, 1, 1, 1] : tensor<1x1x1x80xi1> to tensor<1x1x1x80xi1>
    %inserted_slice_752 = tensor.insert_slice %extracted_slice_751 into %inserted_slice_750[0, 0, 51, 0] [1, 1, 1, 80] [1, 1, 1, 1] : tensor<1x1x1x80xi1> into tensor<1x1x80x80xi1>
    %extracted_slice_753 = tensor.extract_slice %extracted_slice_649[0, 0, 0, 0] [1, 1, 1, 80] [1, 1, 1, 1] : tensor<1x1x1x80xi1> to tensor<1x1x1x80xi1>
    %inserted_slice_754 = tensor.insert_slice %extracted_slice_753 into %inserted_slice_752[0, 0, 52, 0] [1, 1, 1, 80] [1, 1, 1, 1] : tensor<1x1x1x80xi1> into tensor<1x1x80x80xi1>
    %extracted_slice_755 = tensor.extract_slice %extracted_slice_649[0, 0, 0, 0] [1, 1, 1, 80] [1, 1, 1, 1] : tensor<1x1x1x80xi1> to tensor<1x1x1x80xi1>
    %inserted_slice_756 = tensor.insert_slice %extracted_slice_755 into %inserted_slice_754[0, 0, 53, 0] [1, 1, 1, 80] [1, 1, 1, 1] : tensor<1x1x1x80xi1> into tensor<1x1x80x80xi1>
    %extracted_slice_757 = tensor.extract_slice %extracted_slice_649[0, 0, 0, 0] [1, 1, 1, 80] [1, 1, 1, 1] : tensor<1x1x1x80xi1> to tensor<1x1x1x80xi1>
    %inserted_slice_758 = tensor.insert_slice %extracted_slice_757 into %inserted_slice_756[0, 0, 54, 0] [1, 1, 1, 80] [1, 1, 1, 1] : tensor<1x1x1x80xi1> into tensor<1x1x80x80xi1>
    %extracted_slice_759 = tensor.extract_slice %extracted_slice_649[0, 0, 0, 0] [1, 1, 1, 80] [1, 1, 1, 1] : tensor<1x1x1x80xi1> to tensor<1x1x1x80xi1>
    %inserted_slice_760 = tensor.insert_slice %extracted_slice_759 into %inserted_slice_758[0, 0, 55, 0] [1, 1, 1, 80] [1, 1, 1, 1] : tensor<1x1x1x80xi1> into tensor<1x1x80x80xi1>
    %extracted_slice_761 = tensor.extract_slice %extracted_slice_649[0, 0, 0, 0] [1, 1, 1, 80] [1, 1, 1, 1] : tensor<1x1x1x80xi1> to tensor<1x1x1x80xi1>
    %inserted_slice_762 = tensor.insert_slice %extracted_slice_761 into %inserted_slice_760[0, 0, 56, 0] [1, 1, 1, 80] [1, 1, 1, 1] : tensor<1x1x1x80xi1> into tensor<1x1x80x80xi1>
    %extracted_slice_763 = tensor.extract_slice %extracted_slice_649[0, 0, 0, 0] [1, 1, 1, 80] [1, 1, 1, 1] : tensor<1x1x1x80xi1> to tensor<1x1x1x80xi1>
    %inserted_slice_764 = tensor.insert_slice %extracted_slice_763 into %inserted_slice_762[0, 0, 57, 0] [1, 1, 1, 80] [1, 1, 1, 1] : tensor<1x1x1x80xi1> into tensor<1x1x80x80xi1>
    %extracted_slice_765 = tensor.extract_slice %extracted_slice_649[0, 0, 0, 0] [1, 1, 1, 80] [1, 1, 1, 1] : tensor<1x1x1x80xi1> to tensor<1x1x1x80xi1>
    %inserted_slice_766 = tensor.insert_slice %extracted_slice_765 into %inserted_slice_764[0, 0, 58, 0] [1, 1, 1, 80] [1, 1, 1, 1] : tensor<1x1x1x80xi1> into tensor<1x1x80x80xi1>
    %extracted_slice_767 = tensor.extract_slice %extracted_slice_649[0, 0, 0, 0] [1, 1, 1, 80] [1, 1, 1, 1] : tensor<1x1x1x80xi1> to tensor<1x1x1x80xi1>
    %inserted_slice_768 = tensor.insert_slice %extracted_slice_767 into %inserted_slice_766[0, 0, 59, 0] [1, 1, 1, 80] [1, 1, 1, 1] : tensor<1x1x1x80xi1> into tensor<1x1x80x80xi1>
    %extracted_slice_769 = tensor.extract_slice %extracted_slice_649[0, 0, 0, 0] [1, 1, 1, 80] [1, 1, 1, 1] : tensor<1x1x1x80xi1> to tensor<1x1x1x80xi1>
    %inserted_slice_770 = tensor.insert_slice %extracted_slice_769 into %inserted_slice_768[0, 0, 60, 0] [1, 1, 1, 80] [1, 1, 1, 1] : tensor<1x1x1x80xi1> into tensor<1x1x80x80xi1>
    %extracted_slice_771 = tensor.extract_slice %extracted_slice_649[0, 0, 0, 0] [1, 1, 1, 80] [1, 1, 1, 1] : tensor<1x1x1x80xi1> to tensor<1x1x1x80xi1>
    %inserted_slice_772 = tensor.insert_slice %extracted_slice_771 into %inserted_slice_770[0, 0, 61, 0] [1, 1, 1, 80] [1, 1, 1, 1] : tensor<1x1x1x80xi1> into tensor<1x1x80x80xi1>
    %extracted_slice_773 = tensor.extract_slice %extracted_slice_649[0, 0, 0, 0] [1, 1, 1, 80] [1, 1, 1, 1] : tensor<1x1x1x80xi1> to tensor<1x1x1x80xi1>
    %inserted_slice_774 = tensor.insert_slice %extracted_slice_773 into %inserted_slice_772[0, 0, 62, 0] [1, 1, 1, 80] [1, 1, 1, 1] : tensor<1x1x1x80xi1> into tensor<1x1x80x80xi1>
    %extracted_slice_775 = tensor.extract_slice %extracted_slice_649[0, 0, 0, 0] [1, 1, 1, 80] [1, 1, 1, 1] : tensor<1x1x1x80xi1> to tensor<1x1x1x80xi1>
    %inserted_slice_776 = tensor.insert_slice %extracted_slice_775 into %inserted_slice_774[0, 0, 63, 0] [1, 1, 1, 80] [1, 1, 1, 1] : tensor<1x1x1x80xi1> into tensor<1x1x80x80xi1>
    %extracted_slice_777 = tensor.extract_slice %extracted_slice_649[0, 0, 0, 0] [1, 1, 1, 80] [1, 1, 1, 1] : tensor<1x1x1x80xi1> to tensor<1x1x1x80xi1>
    %inserted_slice_778 = tensor.insert_slice %extracted_slice_777 into %inserted_slice_776[0, 0, 64, 0] [1, 1, 1, 80] [1, 1, 1, 1] : tensor<1x1x1x80xi1> into tensor<1x1x80x80xi1>
    %extracted_slice_779 = tensor.extract_slice %extracted_slice_649[0, 0, 0, 0] [1, 1, 1, 80] [1, 1, 1, 1] : tensor<1x1x1x80xi1> to tensor<1x1x1x80xi1>
    %inserted_slice_780 = tensor.insert_slice %extracted_slice_779 into %inserted_slice_778[0, 0, 65, 0] [1, 1, 1, 80] [1, 1, 1, 1] : tensor<1x1x1x80xi1> into tensor<1x1x80x80xi1>
    %extracted_slice_781 = tensor.extract_slice %extracted_slice_649[0, 0, 0, 0] [1, 1, 1, 80] [1, 1, 1, 1] : tensor<1x1x1x80xi1> to tensor<1x1x1x80xi1>
    %inserted_slice_782 = tensor.insert_slice %extracted_slice_781 into %inserted_slice_780[0, 0, 66, 0] [1, 1, 1, 80] [1, 1, 1, 1] : tensor<1x1x1x80xi1> into tensor<1x1x80x80xi1>
    %extracted_slice_783 = tensor.extract_slice %extracted_slice_649[0, 0, 0, 0] [1, 1, 1, 80] [1, 1, 1, 1] : tensor<1x1x1x80xi1> to tensor<1x1x1x80xi1>
    %inserted_slice_784 = tensor.insert_slice %extracted_slice_783 into %inserted_slice_782[0, 0, 67, 0] [1, 1, 1, 80] [1, 1, 1, 1] : tensor<1x1x1x80xi1> into tensor<1x1x80x80xi1>
    %extracted_slice_785 = tensor.extract_slice %extracted_slice_649[0, 0, 0, 0] [1, 1, 1, 80] [1, 1, 1, 1] : tensor<1x1x1x80xi1> to tensor<1x1x1x80xi1>
    %inserted_slice_786 = tensor.insert_slice %extracted_slice_785 into %inserted_slice_784[0, 0, 68, 0] [1, 1, 1, 80] [1, 1, 1, 1] : tensor<1x1x1x80xi1> into tensor<1x1x80x80xi1>
    %extracted_slice_787 = tensor.extract_slice %extracted_slice_649[0, 0, 0, 0] [1, 1, 1, 80] [1, 1, 1, 1] : tensor<1x1x1x80xi1> to tensor<1x1x1x80xi1>
    %inserted_slice_788 = tensor.insert_slice %extracted_slice_787 into %inserted_slice_786[0, 0, 69, 0] [1, 1, 1, 80] [1, 1, 1, 1] : tensor<1x1x1x80xi1> into tensor<1x1x80x80xi1>
    %extracted_slice_789 = tensor.extract_slice %extracted_slice_649[0, 0, 0, 0] [1, 1, 1, 80] [1, 1, 1, 1] : tensor<1x1x1x80xi1> to tensor<1x1x1x80xi1>
    %inserted_slice_790 = tensor.insert_slice %extracted_slice_789 into %inserted_slice_788[0, 0, 70, 0] [1, 1, 1, 80] [1, 1, 1, 1] : tensor<1x1x1x80xi1> into tensor<1x1x80x80xi1>
    %extracted_slice_791 = tensor.extract_slice %extracted_slice_649[0, 0, 0, 0] [1, 1, 1, 80] [1, 1, 1, 1] : tensor<1x1x1x80xi1> to tensor<1x1x1x80xi1>
    %inserted_slice_792 = tensor.insert_slice %extracted_slice_791 into %inserted_slice_790[0, 0, 71, 0] [1, 1, 1, 80] [1, 1, 1, 1] : tensor<1x1x1x80xi1> into tensor<1x1x80x80xi1>
    %extracted_slice_793 = tensor.extract_slice %extracted_slice_649[0, 0, 0, 0] [1, 1, 1, 80] [1, 1, 1, 1] : tensor<1x1x1x80xi1> to tensor<1x1x1x80xi1>
    %inserted_slice_794 = tensor.insert_slice %extracted_slice_793 into %inserted_slice_792[0, 0, 72, 0] [1, 1, 1, 80] [1, 1, 1, 1] : tensor<1x1x1x80xi1> into tensor<1x1x80x80xi1>
    %extracted_slice_795 = tensor.extract_slice %extracted_slice_649[0, 0, 0, 0] [1, 1, 1, 80] [1, 1, 1, 1] : tensor<1x1x1x80xi1> to tensor<1x1x1x80xi1>
    %inserted_slice_796 = tensor.insert_slice %extracted_slice_795 into %inserted_slice_794[0, 0, 73, 0] [1, 1, 1, 80] [1, 1, 1, 1] : tensor<1x1x1x80xi1> into tensor<1x1x80x80xi1>
    %extracted_slice_797 = tensor.extract_slice %extracted_slice_649[0, 0, 0, 0] [1, 1, 1, 80] [1, 1, 1, 1] : tensor<1x1x1x80xi1> to tensor<1x1x1x80xi1>
    %inserted_slice_798 = tensor.insert_slice %extracted_slice_797 into %inserted_slice_796[0, 0, 74, 0] [1, 1, 1, 80] [1, 1, 1, 1] : tensor<1x1x1x80xi1> into tensor<1x1x80x80xi1>
    %extracted_slice_799 = tensor.extract_slice %extracted_slice_649[0, 0, 0, 0] [1, 1, 1, 80] [1, 1, 1, 1] : tensor<1x1x1x80xi1> to tensor<1x1x1x80xi1>
    %inserted_slice_800 = tensor.insert_slice %extracted_slice_799 into %inserted_slice_798[0, 0, 75, 0] [1, 1, 1, 80] [1, 1, 1, 1] : tensor<1x1x1x80xi1> into tensor<1x1x80x80xi1>
    %extracted_slice_801 = tensor.extract_slice %extracted_slice_649[0, 0, 0, 0] [1, 1, 1, 80] [1, 1, 1, 1] : tensor<1x1x1x80xi1> to tensor<1x1x1x80xi1>
    %inserted_slice_802 = tensor.insert_slice %extracted_slice_801 into %inserted_slice_800[0, 0, 76, 0] [1, 1, 1, 80] [1, 1, 1, 1] : tensor<1x1x1x80xi1> into tensor<1x1x80x80xi1>
    %extracted_slice_803 = tensor.extract_slice %extracted_slice_649[0, 0, 0, 0] [1, 1, 1, 80] [1, 1, 1, 1] : tensor<1x1x1x80xi1> to tensor<1x1x1x80xi1>
    %inserted_slice_804 = tensor.insert_slice %extracted_slice_803 into %inserted_slice_802[0, 0, 77, 0] [1, 1, 1, 80] [1, 1, 1, 1] : tensor<1x1x1x80xi1> into tensor<1x1x80x80xi1>
    %extracted_slice_805 = tensor.extract_slice %extracted_slice_649[0, 0, 0, 0] [1, 1, 1, 80] [1, 1, 1, 1] : tensor<1x1x1x80xi1> to tensor<1x1x1x80xi1>
    %inserted_slice_806 = tensor.insert_slice %extracted_slice_805 into %inserted_slice_804[0, 0, 78, 0] [1, 1, 1, 80] [1, 1, 1, 1] : tensor<1x1x1x80xi1> into tensor<1x1x80x80xi1>
    %extracted_slice_807 = tensor.extract_slice %extracted_slice_649[0, 0, 0, 0] [1, 1, 1, 80] [1, 1, 1, 1] : tensor<1x1x1x80xi1> to tensor<1x1x1x80xi1>
    %inserted_slice_808 = tensor.insert_slice %extracted_slice_807 into %inserted_slice_806[0, 0, 79, 0] [1, 1, 1, 80] [1, 1, 1, 1] : tensor<1x1x1x80xi1> into tensor<1x1x80x80xi1>
    %13 = tensor.empty() : tensor<1x1x80x80xf32>
    %14 = linalg.generic {indexing_maps = [#map5, #map5], iterator_types = ["parallel", "parallel", "parallel", "parallel"]} ins(%inserted_slice_808 : tensor<1x1x80x80xi1>) outs(%13 : tensor<1x1x80x80xf32>) {
    ^bb0(%in: i1, %out: f32):
      %5230 = arith.extui %in : i1 to i32
      %5231 = arith.sitofp %5230 : i32 to f32
      linalg.yield %5231 : f32
    } -> tensor<1x1x80x80xf32>
    %cst_809 = arith.constant 1.000000e+00 : f32
    %15 = tensor.empty() : tensor<1x1x80x80xf32>
    %16 = linalg.generic {indexing_maps = [#map5, #map5], iterator_types = ["parallel", "parallel", "parallel", "parallel"]} ins(%14 : tensor<1x1x80x80xf32>) outs(%15 : tensor<1x1x80x80xf32>) {
    ^bb0(%in: f32, %out: f32):
      %5230 = arith.subf %cst_809, %in : f32
      linalg.yield %5230 : f32
    } -> tensor<1x1x80x80xf32>
    %17 = tensor.empty() : tensor<1x1x80x80xi1>
    %18 = linalg.generic {indexing_maps = [#map5, #map5], iterator_types = ["parallel", "parallel", "parallel", "parallel"]} ins(%16 : tensor<1x1x80x80xf32>) outs(%17 : tensor<1x1x80x80xi1>) {
    ^bb0(%in: f32, %out: i1):
      %5230 = arith.fptosi %in : f32 to i32
      %5231 = arith.trunci %5230 : i32 to i1
      linalg.yield %5231 : i1
    } -> tensor<1x1x80x80xi1>
    %cst_810 = arith.constant -3.40282347E+38 : f32
    %19 = tensor.empty() : tensor<1x1x80x80xf32>
    %20 = linalg.generic {indexing_maps = [#map5, #map5, #map5], iterator_types = ["parallel", "parallel", "parallel", "parallel"]} ins(%16, %18 : tensor<1x1x80x80xf32>, tensor<1x1x80x80xi1>) outs(%19 : tensor<1x1x80x80xf32>) {
    ^bb0(%in: f32, %in_1777: i1, %out: f32):
      %5230 = arith.select %in_1777, %cst_810, %in : f32
      linalg.yield %5230 : f32
    } -> tensor<1x1x80x80xf32>
    %21 = "tosa.reshape"(%9) {new_shape = array<i64: 1, 80, 80>} : (tensor<80x80xf32>) -> tensor<1x80x80xf32>
    %22 = "tosa.reshape"(%21) {new_shape = array<i64: 1, 1, 80, 80>} : (tensor<1x80x80xf32>) -> tensor<1x1x80x80xf32>
    %extracted_slice_811 = tensor.extract_slice %22[0, 0, 0, 0] [1, 1, 80, 80] [1, 1, 1, 1] : tensor<1x1x80x80xf32> to tensor<1x1x80x80xf32>
    %extracted_slice_812 = tensor.extract_slice %extracted_slice_811[0, 0, 0, 0] [1, 1, 80, 80] [1, 1, 1, 1] : tensor<1x1x80x80xf32> to tensor<1x1x80x80xf32>
    %23 = tensor.empty() : tensor<1x1x80x80xf32>
    %extracted_slice_813 = tensor.extract_slice %extracted_slice_812[0, 0, 0, 0] [1, 1, 80, 80] [1, 1, 1, 1] : tensor<1x1x80x80xf32> to tensor<1x1x80x80xf32>
    %inserted_slice_814 = tensor.insert_slice %extracted_slice_813 into %23[0, 0, 0, 0] [1, 1, 80, 80] [1, 1, 1, 1] : tensor<1x1x80x80xf32> into tensor<1x1x80x80xf32>
    %24 = "tosa.add"(%20, %inserted_slice_814) : (tensor<1x1x80x80xf32>, tensor<1x1x80x80xf32>) -> tensor<1x1x80x80xf32>
    %25 = tensor.empty() : tensor<1x80x4096xf32>
    %c2_i32 = arith.constant 2 : i32
    %26 = linalg.generic {indexing_maps = [#map1, #map1], iterator_types = ["parallel", "parallel", "parallel"]} ins(%3 : tensor<1x80x4096xf32>) outs(%25 : tensor<1x80x4096xf32>) {
    ^bb0(%in: f32, %out: f32):
      %5230 = math.fpowi %in, %c2_i32 : f32, i32
      linalg.yield %5230 : f32
    } -> tensor<1x80x4096xf32>
    %cst_815 = arith.constant dense<0.000000e+00> : tensor<1x80x1xf32>
    %27 = linalg.generic {indexing_maps = [#map6, #map7], iterator_types = ["parallel", "parallel", "reduction", "parallel"]} ins(%26 : tensor<1x80x4096xf32>) outs(%cst_815 : tensor<1x80x1xf32>) {
    ^bb0(%in: f32, %out: f32):
      %cst_1777 = arith.constant 4.096000e+03 : f32
      %5230 = arith.divf %in, %cst_1777 : f32
      %5231 = arith.addf %5230, %out : f32
      linalg.yield %5231 : f32
    } -> tensor<1x80x1xf32>
    %cst_816 = arith.constant dense<9.99999997E-7> : tensor<f32>
    %28 = "tosa.add"(%27, %cst_816) : (tensor<1x80x1xf32>, tensor<f32>) -> tensor<1x80x1xf32>
    %29 = tensor.empty() : tensor<1x80x1xf32>
    %30 = linalg.generic {indexing_maps = [#map1, #map1], iterator_types = ["parallel", "parallel", "parallel"]} ins(%28 : tensor<1x80x1xf32>) outs(%29 : tensor<1x80x1xf32>) {
    ^bb0(%in: f32, %out: f32):
      %5230 = math.rsqrt %in : f32
      linalg.yield %5230 : f32
    } -> tensor<1x80x1xf32>
    %31 = tensor.empty() : tensor<1x80x4096xf32>
    %32 = tensor.empty() : tensor<1x80x4096xf32>
    %33 = linalg.generic {indexing_maps = [#map7, #map6], iterator_types = ["parallel", "parallel", "parallel", "reduction"]} ins(%30 : tensor<1x80x1xf32>) outs(%32 : tensor<1x80x4096xf32>) {
    ^bb0(%in: f32, %out: f32):
      linalg.yield %in : f32
    } -> tensor<1x80x4096xf32>
    %34 = linalg.generic {indexing_maps = [#map1, #map1, #map1], iterator_types = ["parallel", "parallel", "parallel"]} ins(%3, %33 : tensor<1x80x4096xf32>, tensor<1x80x4096xf32>) outs(%31 : tensor<1x80x4096xf32>) {
    ^bb0(%in: f32, %in_1777: f32, %out: f32):
      %5230 = arith.mulf %in, %in_1777 : f32
      linalg.yield %5230 : f32
    } -> tensor<1x80x4096xf32>
    %35 = tensor.empty() : tensor<1x80x4096xf32>
    %36 = tensor.empty() : tensor<1x80x4096xf32>
    %37 = linalg.generic {indexing_maps = [#map8, #map1], iterator_types = ["parallel", "parallel", "parallel"]} ins(%extracted_slice : tensor<4096xf32>) outs(%36 : tensor<1x80x4096xf32>) {
    ^bb0(%in: f32, %out: f32):
      linalg.yield %in : f32
    } -> tensor<1x80x4096xf32>
    %38 = linalg.generic {indexing_maps = [#map1, #map1, #map1], iterator_types = ["parallel", "parallel", "parallel"]} ins(%37, %34 : tensor<1x80x4096xf32>, tensor<1x80x4096xf32>) outs(%35 : tensor<1x80x4096xf32>) {
    ^bb0(%in: f32, %in_1777: f32, %out: f32):
      %5230 = arith.mulf %in, %in_1777 : f32
      linalg.yield %5230 : f32
    } -> tensor<1x80x4096xf32>
    %39 = tensor.empty() : tensor<4096x4096xf32>
    %40 = linalg.generic {indexing_maps = [#map4, #map9], iterator_types = ["parallel", "parallel"]} ins(%expanded_66 : tensor<4096x4096xf32>) outs(%39 : tensor<4096x4096xf32>) {
    ^bb0(%in: f32, %out: f32):
      linalg.yield %in : f32
    } -> tensor<4096x4096xf32>
    %41 = "tosa.reshape"(%38) {new_shape = array<i64: 80, 4096>} : (tensor<1x80x4096xf32>) -> tensor<80x4096xf32>
    %42 = tensor.empty() : tensor<80x4096xf32>
    %43 = linalg.generic {indexing_maps = [#map4], iterator_types = ["parallel", "parallel"]} outs(%42 : tensor<80x4096xf32>) {
    ^bb0(%out: f32):
      %cst_1777 = arith.constant 0.000000e+00 : f32
      linalg.yield %cst_1777 : f32
    } -> tensor<80x4096xf32>
    %44 = linalg.generic {indexing_maps = [#map3, #map10, #map], iterator_types = ["parallel", "parallel", "reduction"]} ins(%41, %40 : tensor<80x4096xf32>, tensor<4096x4096xf32>) outs(%43 : tensor<80x4096xf32>) {
    ^bb0(%in: f32, %in_1777: f32, %out: f32):
      %5230 = arith.mulf %in, %in_1777 : f32
      %5231 = arith.addf %5230, %out : f32
      linalg.yield %5231 : f32
    } -> tensor<80x4096xf32>
    %45 = "tosa.reshape"(%44) {new_shape = array<i64: 1, 80, 4096>} : (tensor<80x4096xf32>) -> tensor<1x80x4096xf32>
    %46 = tensor.empty() : tensor<4096x4096xf32>
    %47 = linalg.generic {indexing_maps = [#map4, #map9], iterator_types = ["parallel", "parallel"]} ins(%expanded_68 : tensor<4096x4096xf32>) outs(%46 : tensor<4096x4096xf32>) {
    ^bb0(%in: f32, %out: f32):
      linalg.yield %in : f32
    } -> tensor<4096x4096xf32>
    %48 = "tosa.reshape"(%38) {new_shape = array<i64: 80, 4096>} : (tensor<1x80x4096xf32>) -> tensor<80x4096xf32>
    %49 = tensor.empty() : tensor<80x4096xf32>
    %50 = linalg.generic {indexing_maps = [#map4], iterator_types = ["parallel", "parallel"]} outs(%49 : tensor<80x4096xf32>) {
    ^bb0(%out: f32):
      %cst_1777 = arith.constant 0.000000e+00 : f32
      linalg.yield %cst_1777 : f32
    } -> tensor<80x4096xf32>
    %51 = linalg.generic {indexing_maps = [#map3, #map10, #map], iterator_types = ["parallel", "parallel", "reduction"]} ins(%48, %47 : tensor<80x4096xf32>, tensor<4096x4096xf32>) outs(%50 : tensor<80x4096xf32>) {
    ^bb0(%in: f32, %in_1777: f32, %out: f32):
      %5230 = arith.mulf %in, %in_1777 : f32
      %5231 = arith.addf %5230, %out : f32
      linalg.yield %5231 : f32
    } -> tensor<80x4096xf32>
    %52 = "tosa.reshape"(%51) {new_shape = array<i64: 1, 80, 4096>} : (tensor<80x4096xf32>) -> tensor<1x80x4096xf32>
    %53 = tensor.empty() : tensor<4096x4096xf32>
    %54 = linalg.generic {indexing_maps = [#map4, #map9], iterator_types = ["parallel", "parallel"]} ins(%expanded_70 : tensor<4096x4096xf32>) outs(%53 : tensor<4096x4096xf32>) {
    ^bb0(%in: f32, %out: f32):
      linalg.yield %in : f32
    } -> tensor<4096x4096xf32>
    %55 = "tosa.reshape"(%38) {new_shape = array<i64: 80, 4096>} : (tensor<1x80x4096xf32>) -> tensor<80x4096xf32>
    %56 = tensor.empty() : tensor<80x4096xf32>
    %57 = linalg.generic {indexing_maps = [#map4], iterator_types = ["parallel", "parallel"]} outs(%56 : tensor<80x4096xf32>) {
    ^bb0(%out: f32):
      %cst_1777 = arith.constant 0.000000e+00 : f32
      linalg.yield %cst_1777 : f32
    } -> tensor<80x4096xf32>
    %58 = linalg.generic {indexing_maps = [#map3, #map10, #map], iterator_types = ["parallel", "parallel", "reduction"]} ins(%55, %54 : tensor<80x4096xf32>, tensor<4096x4096xf32>) outs(%57 : tensor<80x4096xf32>) {
    ^bb0(%in: f32, %in_1777: f32, %out: f32):
      %5230 = arith.mulf %in, %in_1777 : f32
      %5231 = arith.addf %5230, %out : f32
      linalg.yield %5231 : f32
    } -> tensor<80x4096xf32>
    %59 = "tosa.reshape"(%58) {new_shape = array<i64: 1, 80, 4096>} : (tensor<80x4096xf32>) -> tensor<1x80x4096xf32>
    %60 = "tosa.reshape"(%45) {new_shape = array<i64: 1, 80, 32, 128>} : (tensor<1x80x4096xf32>) -> tensor<1x80x32x128xf32>
    %61 = tensor.empty() : tensor<1x32x80x128xf32>
    %62 = linalg.generic {indexing_maps = [#map11, #map5], iterator_types = ["parallel", "parallel", "parallel", "parallel"]} ins(%60 : tensor<1x80x32x128xf32>) outs(%61 : tensor<1x32x80x128xf32>) {
    ^bb0(%in: f32, %out: f32):
      linalg.yield %in : f32
    } -> tensor<1x32x80x128xf32>
    %63 = "tosa.reshape"(%52) {new_shape = array<i64: 1, 80, 32, 128>} : (tensor<1x80x4096xf32>) -> tensor<1x80x32x128xf32>
    %64 = tensor.empty() : tensor<1x32x80x128xf32>
    %65 = linalg.generic {indexing_maps = [#map11, #map5], iterator_types = ["parallel", "parallel", "parallel", "parallel"]} ins(%63 : tensor<1x80x32x128xf32>) outs(%64 : tensor<1x32x80x128xf32>) {
    ^bb0(%in: f32, %out: f32):
      linalg.yield %in : f32
    } -> tensor<1x32x80x128xf32>
    %66 = "tosa.reshape"(%59) {new_shape = array<i64: 1, 80, 32, 128>} : (tensor<1x80x4096xf32>) -> tensor<1x80x32x128xf32>
    %67 = tensor.empty() : tensor<1x32x80x128xf32>
    %68 = linalg.generic {indexing_maps = [#map11, #map5], iterator_types = ["parallel", "parallel", "parallel", "parallel"]} ins(%66 : tensor<1x80x32x128xf32>) outs(%67 : tensor<1x32x80x128xf32>) {
    ^bb0(%in: f32, %out: f32):
      linalg.yield %in : f32
    } -> tensor<1x32x80x128xf32>
    %extracted_slice_817 = tensor.extract_slice %expanded_516[0, 0, 0, 0] [1, 1, 2048, 128] [1, 1, 1, 1] : tensor<1x1x2048x128xf32> to tensor<1x1x2048x128xf32>
    %extracted_slice_818 = tensor.extract_slice %extracted_slice_817[0, 0, 0, 0] [1, 1, 2048, 128] [1, 1, 1, 1] : tensor<1x1x2048x128xf32> to tensor<1x1x2048x128xf32>
    %extracted_slice_819 = tensor.extract_slice %extracted_slice_818[0, 0, 0, 0] [1, 1, 80, 128] [1, 1, 1, 1] : tensor<1x1x2048x128xf32> to tensor<1x1x80x128xf32>
    %extracted_slice_820 = tensor.extract_slice %expanded_518[0, 0, 0, 0] [1, 1, 2048, 128] [1, 1, 1, 1] : tensor<1x1x2048x128xf32> to tensor<1x1x2048x128xf32>
    %extracted_slice_821 = tensor.extract_slice %extracted_slice_820[0, 0, 0, 0] [1, 1, 2048, 128] [1, 1, 1, 1] : tensor<1x1x2048x128xf32> to tensor<1x1x2048x128xf32>
    %extracted_slice_822 = tensor.extract_slice %extracted_slice_821[0, 0, 0, 0] [1, 1, 80, 128] [1, 1, 1, 1] : tensor<1x1x2048x128xf32> to tensor<1x1x80x128xf32>
    %69 = tensor.empty() : tensor<1x80x128xf32>
    %70 = linalg.generic {indexing_maps = [#map12, #map1], iterator_types = ["parallel", "parallel", "parallel"]} ins(%extracted_slice_819 : tensor<1x1x80x128xf32>) outs(%69 : tensor<1x80x128xf32>) {
    ^bb0(%in: f32, %out: f32):
      linalg.yield %in : f32
    } -> tensor<1x80x128xf32>
    %71 = tensor.empty() : tensor<80x128xf32>
    %72 = linalg.generic {indexing_maps = [#map13, #map4], iterator_types = ["parallel", "parallel"]} ins(%70 : tensor<1x80x128xf32>) outs(%71 : tensor<80x128xf32>) {
    ^bb0(%in: f32, %out: f32):
      linalg.yield %in : f32
    } -> tensor<80x128xf32>
    %73 = tensor.empty() : tensor<1x80x128xf32>
    %74 = linalg.generic {indexing_maps = [#map12, #map1], iterator_types = ["parallel", "parallel", "parallel"]} ins(%extracted_slice_822 : tensor<1x1x80x128xf32>) outs(%73 : tensor<1x80x128xf32>) {
    ^bb0(%in: f32, %out: f32):
      linalg.yield %in : f32
    } -> tensor<1x80x128xf32>
    %75 = tensor.empty() : tensor<80x128xf32>
    %76 = linalg.generic {indexing_maps = [#map13, #map4], iterator_types = ["parallel", "parallel"]} ins(%74 : tensor<1x80x128xf32>) outs(%75 : tensor<80x128xf32>) {
    ^bb0(%in: f32, %out: f32):
      linalg.yield %in : f32
    } -> tensor<80x128xf32>
    %77 = tensor.empty() : tensor<1x80x128xf32>
    %78 = linalg.generic {indexing_maps = [#map, #map1], iterator_types = ["parallel", "parallel", "parallel"]} ins(%1 : tensor<1x80xi64>) outs(%77 : tensor<1x80x128xf32>) {
    ^bb0(%in: i64, %out: f32):
      %5230 = arith.index_cast %in : i64 to index
      %5231 = linalg.index 2 : index
      %extracted = tensor.extract %72[%5230, %5231] : tensor<80x128xf32>
      linalg.yield %extracted : f32
    } -> tensor<1x80x128xf32>
    %79 = "tosa.reshape"(%78) {new_shape = array<i64: 1, 1, 80, 128>} : (tensor<1x80x128xf32>) -> tensor<1x1x80x128xf32>
    %80 = tensor.empty() : tensor<1x80x128xf32>
    %81 = linalg.generic {indexing_maps = [#map, #map1], iterator_types = ["parallel", "parallel", "parallel"]} ins(%1 : tensor<1x80xi64>) outs(%80 : tensor<1x80x128xf32>) {
    ^bb0(%in: i64, %out: f32):
      %5230 = arith.index_cast %in : i64 to index
      %5231 = linalg.index 2 : index
      %extracted = tensor.extract %76[%5230, %5231] : tensor<80x128xf32>
      linalg.yield %extracted : f32
    } -> tensor<1x80x128xf32>
    %82 = "tosa.reshape"(%81) {new_shape = array<i64: 1, 1, 80, 128>} : (tensor<1x80x128xf32>) -> tensor<1x1x80x128xf32>
    %83 = tensor.empty() : tensor<1x32x80x128xf32>
    %84 = tensor.empty() : tensor<1x32x80x128xf32>
    %85 = linalg.generic {indexing_maps = [#map14, #map15], iterator_types = ["parallel", "parallel", "parallel", "parallel", "reduction"]} ins(%79 : tensor<1x1x80x128xf32>) outs(%84 : tensor<1x32x80x128xf32>) {
    ^bb0(%in: f32, %out: f32):
      linalg.yield %in : f32
    } -> tensor<1x32x80x128xf32>
    %86 = linalg.generic {indexing_maps = [#map5, #map5, #map5], iterator_types = ["parallel", "parallel", "parallel", "parallel"]} ins(%62, %85 : tensor<1x32x80x128xf32>, tensor<1x32x80x128xf32>) outs(%83 : tensor<1x32x80x128xf32>) {
    ^bb0(%in: f32, %in_1777: f32, %out: f32):
      %5230 = arith.mulf %in, %in_1777 : f32
      linalg.yield %5230 : f32
    } -> tensor<1x32x80x128xf32>
    %extracted_slice_823 = tensor.extract_slice %62[0, 0, 0, 0] [1, 32, 80, 64] [1, 1, 1, 1] : tensor<1x32x80x128xf32> to tensor<1x32x80x64xf32>
    %extracted_slice_824 = tensor.extract_slice %62[0, 0, 0, 64] [1, 32, 80, 64] [1, 1, 1, 1] : tensor<1x32x80x128xf32> to tensor<1x32x80x64xf32>
    %87 = tensor.empty() : tensor<1x32x80x64xf32>
    %88 = linalg.generic {indexing_maps = [#map5, #map5], iterator_types = ["parallel", "parallel", "parallel", "parallel"]} ins(%extracted_slice_824 : tensor<1x32x80x64xf32>) outs(%87 : tensor<1x32x80x64xf32>) {
    ^bb0(%in: f32, %out: f32):
      %5230 = arith.negf %in : f32
      linalg.yield %5230 : f32
    } -> tensor<1x32x80x64xf32>
    %89 = tensor.empty() : tensor<1x32x80x128xf32>
    %inserted_slice_825 = tensor.insert_slice %88 into %89[0, 0, 0, 0] [1, 32, 80, 64] [1, 1, 1, 1] : tensor<1x32x80x64xf32> into tensor<1x32x80x128xf32>
    %inserted_slice_826 = tensor.insert_slice %extracted_slice_823 into %inserted_slice_825[0, 0, 0, 64] [1, 32, 80, 64] [1, 1, 1, 1] : tensor<1x32x80x64xf32> into tensor<1x32x80x128xf32>
    %90 = tensor.empty() : tensor<1x32x80x128xf32>
    %91 = tensor.empty() : tensor<1x32x80x128xf32>
    %92 = linalg.generic {indexing_maps = [#map14, #map15], iterator_types = ["parallel", "parallel", "parallel", "parallel", "reduction"]} ins(%82 : tensor<1x1x80x128xf32>) outs(%91 : tensor<1x32x80x128xf32>) {
    ^bb0(%in: f32, %out: f32):
      linalg.yield %in : f32
    } -> tensor<1x32x80x128xf32>
    %93 = linalg.generic {indexing_maps = [#map5, #map5, #map5], iterator_types = ["parallel", "parallel", "parallel", "parallel"]} ins(%inserted_slice_826, %92 : tensor<1x32x80x128xf32>, tensor<1x32x80x128xf32>) outs(%90 : tensor<1x32x80x128xf32>) {
    ^bb0(%in: f32, %in_1777: f32, %out: f32):
      %5230 = arith.mulf %in, %in_1777 : f32
      linalg.yield %5230 : f32
    } -> tensor<1x32x80x128xf32>
    %94 = "tosa.add"(%86, %93) : (tensor<1x32x80x128xf32>, tensor<1x32x80x128xf32>) -> tensor<1x32x80x128xf32>
    %95 = tensor.empty() : tensor<1x32x80x128xf32>
    %96 = tensor.empty() : tensor<1x32x80x128xf32>
    %97 = linalg.generic {indexing_maps = [#map14, #map15], iterator_types = ["parallel", "parallel", "parallel", "parallel", "reduction"]} ins(%79 : tensor<1x1x80x128xf32>) outs(%96 : tensor<1x32x80x128xf32>) {
    ^bb0(%in: f32, %out: f32):
      linalg.yield %in : f32
    } -> tensor<1x32x80x128xf32>
    %98 = linalg.generic {indexing_maps = [#map5, #map5, #map5], iterator_types = ["parallel", "parallel", "parallel", "parallel"]} ins(%65, %97 : tensor<1x32x80x128xf32>, tensor<1x32x80x128xf32>) outs(%95 : tensor<1x32x80x128xf32>) {
    ^bb0(%in: f32, %in_1777: f32, %out: f32):
      %5230 = arith.mulf %in, %in_1777 : f32
      linalg.yield %5230 : f32
    } -> tensor<1x32x80x128xf32>
    %extracted_slice_827 = tensor.extract_slice %65[0, 0, 0, 0] [1, 32, 80, 64] [1, 1, 1, 1] : tensor<1x32x80x128xf32> to tensor<1x32x80x64xf32>
    %extracted_slice_828 = tensor.extract_slice %65[0, 0, 0, 64] [1, 32, 80, 64] [1, 1, 1, 1] : tensor<1x32x80x128xf32> to tensor<1x32x80x64xf32>
    %99 = tensor.empty() : tensor<1x32x80x64xf32>
    %100 = linalg.generic {indexing_maps = [#map5, #map5], iterator_types = ["parallel", "parallel", "parallel", "parallel"]} ins(%extracted_slice_828 : tensor<1x32x80x64xf32>) outs(%99 : tensor<1x32x80x64xf32>) {
    ^bb0(%in: f32, %out: f32):
      %5230 = arith.negf %in : f32
      linalg.yield %5230 : f32
    } -> tensor<1x32x80x64xf32>
    %101 = tensor.empty() : tensor<1x32x80x128xf32>
    %inserted_slice_829 = tensor.insert_slice %100 into %101[0, 0, 0, 0] [1, 32, 80, 64] [1, 1, 1, 1] : tensor<1x32x80x64xf32> into tensor<1x32x80x128xf32>
    %inserted_slice_830 = tensor.insert_slice %extracted_slice_827 into %inserted_slice_829[0, 0, 0, 64] [1, 32, 80, 64] [1, 1, 1, 1] : tensor<1x32x80x64xf32> into tensor<1x32x80x128xf32>
    %102 = tensor.empty() : tensor<1x32x80x128xf32>
    %103 = tensor.empty() : tensor<1x32x80x128xf32>
    %104 = linalg.generic {indexing_maps = [#map14, #map15], iterator_types = ["parallel", "parallel", "parallel", "parallel", "reduction"]} ins(%82 : tensor<1x1x80x128xf32>) outs(%103 : tensor<1x32x80x128xf32>) {
    ^bb0(%in: f32, %out: f32):
      linalg.yield %in : f32
    } -> tensor<1x32x80x128xf32>
    %105 = linalg.generic {indexing_maps = [#map5, #map5, #map5], iterator_types = ["parallel", "parallel", "parallel", "parallel"]} ins(%inserted_slice_830, %104 : tensor<1x32x80x128xf32>, tensor<1x32x80x128xf32>) outs(%102 : tensor<1x32x80x128xf32>) {
    ^bb0(%in: f32, %in_1777: f32, %out: f32):
      %5230 = arith.mulf %in, %in_1777 : f32
      linalg.yield %5230 : f32
    } -> tensor<1x32x80x128xf32>
    %106 = "tosa.add"(%98, %105) : (tensor<1x32x80x128xf32>, tensor<1x32x80x128xf32>) -> tensor<1x32x80x128xf32>
    %107 = tensor.empty() : tensor<1x32x128x80xf32>
    %108 = linalg.generic {indexing_maps = [#map16, #map5], iterator_types = ["parallel", "parallel", "parallel", "parallel"]} ins(%106 : tensor<1x32x80x128xf32>) outs(%107 : tensor<1x32x128x80xf32>) {
    ^bb0(%in: f32, %out: f32):
      linalg.yield %in : f32
    } -> tensor<1x32x128x80xf32>
    %109 = tensor.empty() : tensor<1x32x80x128xf32>
    %extracted_slice_831 = tensor.extract_slice %94[0, 0, 0, 0] [1, 32, 80, 128] [1, 1, 1, 1] : tensor<1x32x80x128xf32> to tensor<1x32x80x128xf32>
    %inserted_slice_832 = tensor.insert_slice %extracted_slice_831 into %109[0, 0, 0, 0] [1, 32, 80, 128] [1, 1, 1, 1] : tensor<1x32x80x128xf32> into tensor<1x32x80x128xf32>
    %110 = "tosa.reshape"(%inserted_slice_832) {new_shape = array<i64: 32, 80, 128>} : (tensor<1x32x80x128xf32>) -> tensor<32x80x128xf32>
    %111 = tensor.empty() : tensor<1x32x128x80xf32>
    %extracted_slice_833 = tensor.extract_slice %108[0, 0, 0, 0] [1, 32, 128, 80] [1, 1, 1, 1] : tensor<1x32x128x80xf32> to tensor<1x32x128x80xf32>
    %inserted_slice_834 = tensor.insert_slice %extracted_slice_833 into %111[0, 0, 0, 0] [1, 32, 128, 80] [1, 1, 1, 1] : tensor<1x32x128x80xf32> into tensor<1x32x128x80xf32>
    %112 = "tosa.reshape"(%inserted_slice_834) {new_shape = array<i64: 32, 128, 80>} : (tensor<1x32x128x80xf32>) -> tensor<32x128x80xf32>
    %113 = tensor.empty() : tensor<32x80x80xf32>
    %114 = linalg.batch_matmul ins(%110, %112 : tensor<32x80x128xf32>, tensor<32x128x80xf32>) outs(%113 : tensor<32x80x80xf32>) -> tensor<32x80x80xf32>
    %115 = "tosa.reshape"(%114) {new_shape = array<i64: 1, 32, 80, 80>} : (tensor<32x80x80xf32>) -> tensor<1x32x80x80xf32>
    %cst_835 = arith.constant 11.3137083 : f32
    %116 = tensor.empty() : tensor<1x32x80x80xf32>
    %117 = linalg.generic {indexing_maps = [#map5, #map5], iterator_types = ["parallel", "parallel", "parallel", "parallel"]} ins(%115 : tensor<1x32x80x80xf32>) outs(%116 : tensor<1x32x80x80xf32>) {
    ^bb0(%in: f32, %out: f32):
      %5230 = arith.divf %in, %cst_835 : f32
      linalg.yield %5230 : f32
    } -> tensor<1x32x80x80xf32>
    %118 = "tosa.add"(%117, %24) : (tensor<1x32x80x80xf32>, tensor<1x1x80x80xf32>) -> tensor<1x32x80x80xf32>
    %119 = tensor.empty() : tensor<1x32x80x1xf32>
    %120 = linalg.generic {indexing_maps = [#map5], iterator_types = ["parallel", "parallel", "parallel", "parallel"]} outs(%119 : tensor<1x32x80x1xf32>) {
    ^bb0(%out: f32):
      %cst_1777 = arith.constant 0xFF800000 : f32
      linalg.yield %cst_1777 : f32
    } -> tensor<1x32x80x1xf32>
    %121 = linalg.generic {indexing_maps = [#map5, #map17], iterator_types = ["parallel", "parallel", "parallel", "reduction"]} ins(%118 : tensor<1x32x80x80xf32>) outs(%119 : tensor<1x32x80x1xf32>) {
    ^bb0(%in: f32, %out: f32):
      %5230 = arith.maxf %in, %out : f32
      linalg.yield %5230 : f32
    } -> tensor<1x32x80x1xf32>
    %122 = tensor.empty() : tensor<1x32x80x80xf32>
    %123 = linalg.generic {indexing_maps = [#map5, #map17, #map5], iterator_types = ["parallel", "parallel", "parallel", "parallel"]} ins(%118, %121 : tensor<1x32x80x80xf32>, tensor<1x32x80x1xf32>) outs(%122 : tensor<1x32x80x80xf32>) {
    ^bb0(%in: f32, %in_1777: f32, %out: f32):
      %5230 = arith.subf %in, %in_1777 : f32
      %5231 = math.exp %5230 : f32
      linalg.yield %5231 : f32
    } -> tensor<1x32x80x80xf32>
    %124 = tensor.empty() : tensor<1x32x80x1xf32>
    %125 = linalg.generic {indexing_maps = [#map5], iterator_types = ["parallel", "parallel", "parallel", "parallel"]} outs(%124 : tensor<1x32x80x1xf32>) {
    ^bb0(%out: f32):
      %cst_1777 = arith.constant 0.000000e+00 : f32
      linalg.yield %cst_1777 : f32
    } -> tensor<1x32x80x1xf32>
    %126 = linalg.generic {indexing_maps = [#map5, #map17], iterator_types = ["parallel", "parallel", "parallel", "reduction"]} ins(%123 : tensor<1x32x80x80xf32>) outs(%125 : tensor<1x32x80x1xf32>) {
    ^bb0(%in: f32, %out: f32):
      %5230 = arith.addf %in, %out : f32
      linalg.yield %5230 : f32
    } -> tensor<1x32x80x1xf32>
    %127 = tensor.empty() : tensor<1x32x80x80xf32>
    %128 = linalg.generic {indexing_maps = [#map5, #map17, #map5], iterator_types = ["parallel", "parallel", "parallel", "parallel"]} ins(%123, %126 : tensor<1x32x80x80xf32>, tensor<1x32x80x1xf32>) outs(%127 : tensor<1x32x80x80xf32>) {
    ^bb0(%in: f32, %in_1777: f32, %out: f32):
      %5230 = arith.divf %in, %in_1777 : f32
      linalg.yield %5230 : f32
    } -> tensor<1x32x80x80xf32>
    %129 = tensor.empty() : tensor<1x32x80x80xf32>
    %extracted_slice_836 = tensor.extract_slice %128[0, 0, 0, 0] [1, 32, 80, 80] [1, 1, 1, 1] : tensor<1x32x80x80xf32> to tensor<1x32x80x80xf32>
    %inserted_slice_837 = tensor.insert_slice %extracted_slice_836 into %129[0, 0, 0, 0] [1, 32, 80, 80] [1, 1, 1, 1] : tensor<1x32x80x80xf32> into tensor<1x32x80x80xf32>
    %130 = "tosa.reshape"(%inserted_slice_837) {new_shape = array<i64: 32, 80, 80>} : (tensor<1x32x80x80xf32>) -> tensor<32x80x80xf32>
    %131 = tensor.empty() : tensor<1x32x80x128xf32>
    %extracted_slice_838 = tensor.extract_slice %68[0, 0, 0, 0] [1, 32, 80, 128] [1, 1, 1, 1] : tensor<1x32x80x128xf32> to tensor<1x32x80x128xf32>
    %inserted_slice_839 = tensor.insert_slice %extracted_slice_838 into %131[0, 0, 0, 0] [1, 32, 80, 128] [1, 1, 1, 1] : tensor<1x32x80x128xf32> into tensor<1x32x80x128xf32>
    %132 = "tosa.reshape"(%inserted_slice_839) {new_shape = array<i64: 32, 80, 128>} : (tensor<1x32x80x128xf32>) -> tensor<32x80x128xf32>
    %133 = tensor.empty() : tensor<32x80x128xf32>
    %134 = linalg.batch_matmul ins(%130, %132 : tensor<32x80x80xf32>, tensor<32x80x128xf32>) outs(%133 : tensor<32x80x128xf32>) -> tensor<32x80x128xf32>
    %135 = "tosa.reshape"(%134) {new_shape = array<i64: 1, 32, 80, 128>} : (tensor<32x80x128xf32>) -> tensor<1x32x80x128xf32>
    %136 = tensor.empty() : tensor<1x80x32x128xf32>
    %137 = linalg.generic {indexing_maps = [#map11, #map5], iterator_types = ["parallel", "parallel", "parallel", "parallel"]} ins(%135 : tensor<1x32x80x128xf32>) outs(%136 : tensor<1x80x32x128xf32>) {
    ^bb0(%in: f32, %out: f32):
      linalg.yield %in : f32
    } -> tensor<1x80x32x128xf32>
    %extracted_slice_840 = tensor.extract_slice %137[0, 0, 0, 0] [1, 80, 32, 128] [1, 1, 1, 1] : tensor<1x80x32x128xf32> to tensor<1x80x32x128xf32>
    %138 = "tosa.reshape"(%extracted_slice_840) {new_shape = array<i64: 1, 80, 4096>} : (tensor<1x80x32x128xf32>) -> tensor<1x80x4096xf32>
    %139 = tensor.empty() : tensor<4096x4096xf32>
    %140 = linalg.generic {indexing_maps = [#map4, #map9], iterator_types = ["parallel", "parallel"]} ins(%expanded_72 : tensor<4096x4096xf32>) outs(%139 : tensor<4096x4096xf32>) {
    ^bb0(%in: f32, %out: f32):
      linalg.yield %in : f32
    } -> tensor<4096x4096xf32>
    %141 = "tosa.reshape"(%138) {new_shape = array<i64: 80, 4096>} : (tensor<1x80x4096xf32>) -> tensor<80x4096xf32>
    %142 = tensor.empty() : tensor<80x4096xf32>
    %143 = linalg.generic {indexing_maps = [#map4], iterator_types = ["parallel", "parallel"]} outs(%142 : tensor<80x4096xf32>) {
    ^bb0(%out: f32):
      %cst_1777 = arith.constant 0.000000e+00 : f32
      linalg.yield %cst_1777 : f32
    } -> tensor<80x4096xf32>
    %144 = linalg.generic {indexing_maps = [#map3, #map10, #map], iterator_types = ["parallel", "parallel", "reduction"]} ins(%141, %140 : tensor<80x4096xf32>, tensor<4096x4096xf32>) outs(%143 : tensor<80x4096xf32>) {
    ^bb0(%in: f32, %in_1777: f32, %out: f32):
      %5230 = arith.mulf %in, %in_1777 : f32
      %5231 = arith.addf %5230, %out : f32
      linalg.yield %5231 : f32
    } -> tensor<80x4096xf32>
    %145 = "tosa.reshape"(%144) {new_shape = array<i64: 1, 80, 4096>} : (tensor<80x4096xf32>) -> tensor<1x80x4096xf32>
    %146 = "tosa.add"(%3, %145) : (tensor<1x80x4096xf32>, tensor<1x80x4096xf32>) -> tensor<1x80x4096xf32>
    %147 = tensor.empty() : tensor<1x80x4096xf32>
    %c2_i32_841 = arith.constant 2 : i32
    %148 = linalg.generic {indexing_maps = [#map1, #map1], iterator_types = ["parallel", "parallel", "parallel"]} ins(%146 : tensor<1x80x4096xf32>) outs(%147 : tensor<1x80x4096xf32>) {
    ^bb0(%in: f32, %out: f32):
      %5230 = math.fpowi %in, %c2_i32_841 : f32, i32
      linalg.yield %5230 : f32
    } -> tensor<1x80x4096xf32>
    %cst_842 = arith.constant dense<0.000000e+00> : tensor<1x80x1xf32>
    %149 = linalg.generic {indexing_maps = [#map6, #map7], iterator_types = ["parallel", "parallel", "reduction", "parallel"]} ins(%148 : tensor<1x80x4096xf32>) outs(%cst_842 : tensor<1x80x1xf32>) {
    ^bb0(%in: f32, %out: f32):
      %cst_1777 = arith.constant 4.096000e+03 : f32
      %5230 = arith.divf %in, %cst_1777 : f32
      %5231 = arith.addf %5230, %out : f32
      linalg.yield %5231 : f32
    } -> tensor<1x80x1xf32>
    %cst_843 = arith.constant dense<9.99999997E-7> : tensor<f32>
    %150 = "tosa.add"(%149, %cst_843) : (tensor<1x80x1xf32>, tensor<f32>) -> tensor<1x80x1xf32>
    %151 = tensor.empty() : tensor<1x80x1xf32>
    %152 = linalg.generic {indexing_maps = [#map1, #map1], iterator_types = ["parallel", "parallel", "parallel"]} ins(%150 : tensor<1x80x1xf32>) outs(%151 : tensor<1x80x1xf32>) {
    ^bb0(%in: f32, %out: f32):
      %5230 = math.rsqrt %in : f32
      linalg.yield %5230 : f32
    } -> tensor<1x80x1xf32>
    %153 = tensor.empty() : tensor<1x80x4096xf32>
    %154 = tensor.empty() : tensor<1x80x4096xf32>
    %155 = linalg.generic {indexing_maps = [#map7, #map6], iterator_types = ["parallel", "parallel", "parallel", "reduction"]} ins(%152 : tensor<1x80x1xf32>) outs(%154 : tensor<1x80x4096xf32>) {
    ^bb0(%in: f32, %out: f32):
      linalg.yield %in : f32
    } -> tensor<1x80x4096xf32>
    %156 = linalg.generic {indexing_maps = [#map1, #map1, #map1], iterator_types = ["parallel", "parallel", "parallel"]} ins(%146, %155 : tensor<1x80x4096xf32>, tensor<1x80x4096xf32>) outs(%153 : tensor<1x80x4096xf32>) {
    ^bb0(%in: f32, %in_1777: f32, %out: f32):
      %5230 = arith.mulf %in, %in_1777 : f32
      linalg.yield %5230 : f32
    } -> tensor<1x80x4096xf32>
    %157 = tensor.empty() : tensor<1x80x4096xf32>
    %158 = tensor.empty() : tensor<1x80x4096xf32>
    %159 = linalg.generic {indexing_maps = [#map8, #map1], iterator_types = ["parallel", "parallel", "parallel"]} ins(%extracted_slice_0 : tensor<4096xf32>) outs(%158 : tensor<1x80x4096xf32>) {
    ^bb0(%in: f32, %out: f32):
      linalg.yield %in : f32
    } -> tensor<1x80x4096xf32>
    %160 = linalg.generic {indexing_maps = [#map1, #map1, #map1], iterator_types = ["parallel", "parallel", "parallel"]} ins(%159, %156 : tensor<1x80x4096xf32>, tensor<1x80x4096xf32>) outs(%157 : tensor<1x80x4096xf32>) {
    ^bb0(%in: f32, %in_1777: f32, %out: f32):
      %5230 = arith.mulf %in, %in_1777 : f32
      linalg.yield %5230 : f32
    } -> tensor<1x80x4096xf32>
    %161 = tensor.empty() : tensor<4096x11008xf32>
    %162 = linalg.generic {indexing_maps = [#map4, #map9], iterator_types = ["parallel", "parallel"]} ins(%expanded_74 : tensor<11008x4096xf32>) outs(%161 : tensor<4096x11008xf32>) {
    ^bb0(%in: f32, %out: f32):
      linalg.yield %in : f32
    } -> tensor<4096x11008xf32>
    %163 = "tosa.reshape"(%160) {new_shape = array<i64: 80, 4096>} : (tensor<1x80x4096xf32>) -> tensor<80x4096xf32>
    %164 = tensor.empty() : tensor<80x11008xf32>
    %165 = linalg.generic {indexing_maps = [#map4], iterator_types = ["parallel", "parallel"]} outs(%164 : tensor<80x11008xf32>) {
    ^bb0(%out: f32):
      %cst_1777 = arith.constant 0.000000e+00 : f32
      linalg.yield %cst_1777 : f32
    } -> tensor<80x11008xf32>
    %166 = linalg.generic {indexing_maps = [#map3, #map10, #map], iterator_types = ["parallel", "parallel", "reduction"]} ins(%163, %162 : tensor<80x4096xf32>, tensor<4096x11008xf32>) outs(%165 : tensor<80x11008xf32>) {
    ^bb0(%in: f32, %in_1777: f32, %out: f32):
      %5230 = arith.mulf %in, %in_1777 : f32
      %5231 = arith.addf %5230, %out : f32
      linalg.yield %5231 : f32
    } -> tensor<80x11008xf32>
    %167 = "tosa.reshape"(%166) {new_shape = array<i64: 1, 80, 11008>} : (tensor<80x11008xf32>) -> tensor<1x80x11008xf32>
    %168 = tensor.empty() : tensor<1x80x11008xf32>
    %169 = linalg.generic {indexing_maps = [#map1, #map1], iterator_types = ["parallel", "parallel", "parallel"]} ins(%167 : tensor<1x80x11008xf32>) outs(%168 : tensor<1x80x11008xf32>) {
    ^bb0(%in: f32, %out: f32):
      %5230 = arith.negf %in : f32
      %5231 = math.exp %5230 : f32
      %cst_1777 = arith.constant 1.000000e+00 : f32
      %5232 = arith.addf %cst_1777, %5231 : f32
      %5233 = arith.divf %in, %5232 : f32
      linalg.yield %5233 : f32
    } -> tensor<1x80x11008xf32>
    %170 = tensor.empty() : tensor<4096x11008xf32>
    %171 = linalg.generic {indexing_maps = [#map4, #map9], iterator_types = ["parallel", "parallel"]} ins(%expanded_76 : tensor<11008x4096xf32>) outs(%170 : tensor<4096x11008xf32>) {
    ^bb0(%in: f32, %out: f32):
      linalg.yield %in : f32
    } -> tensor<4096x11008xf32>
    %172 = "tosa.reshape"(%160) {new_shape = array<i64: 80, 4096>} : (tensor<1x80x4096xf32>) -> tensor<80x4096xf32>
    %173 = tensor.empty() : tensor<80x11008xf32>
    %174 = linalg.generic {indexing_maps = [#map4], iterator_types = ["parallel", "parallel"]} outs(%173 : tensor<80x11008xf32>) {
    ^bb0(%out: f32):
      %cst_1777 = arith.constant 0.000000e+00 : f32
      linalg.yield %cst_1777 : f32
    } -> tensor<80x11008xf32>
    %175 = linalg.generic {indexing_maps = [#map3, #map10, #map], iterator_types = ["parallel", "parallel", "reduction"]} ins(%172, %171 : tensor<80x4096xf32>, tensor<4096x11008xf32>) outs(%174 : tensor<80x11008xf32>) {
    ^bb0(%in: f32, %in_1777: f32, %out: f32):
      %5230 = arith.mulf %in, %in_1777 : f32
      %5231 = arith.addf %5230, %out : f32
      linalg.yield %5231 : f32
    } -> tensor<80x11008xf32>
    %176 = "tosa.reshape"(%175) {new_shape = array<i64: 1, 80, 11008>} : (tensor<80x11008xf32>) -> tensor<1x80x11008xf32>
    %177 = tensor.empty() : tensor<1x80x11008xf32>
    %178 = linalg.generic {indexing_maps = [#map1, #map1, #map1], iterator_types = ["parallel", "parallel", "parallel"]} ins(%169, %176 : tensor<1x80x11008xf32>, tensor<1x80x11008xf32>) outs(%177 : tensor<1x80x11008xf32>) {
    ^bb0(%in: f32, %in_1777: f32, %out: f32):
      %5230 = arith.mulf %in, %in_1777 : f32
      linalg.yield %5230 : f32
    } -> tensor<1x80x11008xf32>
    %179 = tensor.empty() : tensor<11008x4096xf32>
    %180 = linalg.generic {indexing_maps = [#map4, #map9], iterator_types = ["parallel", "parallel"]} ins(%expanded_78 : tensor<4096x11008xf32>) outs(%179 : tensor<11008x4096xf32>) {
    ^bb0(%in: f32, %out: f32):
      linalg.yield %in : f32
    } -> tensor<11008x4096xf32>
    %181 = "tosa.reshape"(%178) {new_shape = array<i64: 80, 11008>} : (tensor<1x80x11008xf32>) -> tensor<80x11008xf32>
    %182 = tensor.empty() : tensor<80x4096xf32>
    %183 = linalg.generic {indexing_maps = [#map4], iterator_types = ["parallel", "parallel"]} outs(%182 : tensor<80x4096xf32>) {
    ^bb0(%out: f32):
      %cst_1777 = arith.constant 0.000000e+00 : f32
      linalg.yield %cst_1777 : f32
    } -> tensor<80x4096xf32>
    %184 = linalg.generic {indexing_maps = [#map3, #map10, #map], iterator_types = ["parallel", "parallel", "reduction"]} ins(%181, %180 : tensor<80x11008xf32>, tensor<11008x4096xf32>) outs(%183 : tensor<80x4096xf32>) {
    ^bb0(%in: f32, %in_1777: f32, %out: f32):
      %5230 = arith.mulf %in, %in_1777 : f32
      %5231 = arith.addf %5230, %out : f32
      linalg.yield %5231 : f32
    } -> tensor<80x4096xf32>
    %185 = "tosa.reshape"(%184) {new_shape = array<i64: 1, 80, 4096>} : (tensor<80x4096xf32>) -> tensor<1x80x4096xf32>
    %186 = "tosa.add"(%146, %185) : (tensor<1x80x4096xf32>, tensor<1x80x4096xf32>) -> tensor<1x80x4096xf32>
    %187 = tensor.empty() : tensor<1x80x4096xf32>
    %c2_i32_844 = arith.constant 2 : i32
    %188 = linalg.generic {indexing_maps = [#map1, #map1], iterator_types = ["parallel", "parallel", "parallel"]} ins(%186 : tensor<1x80x4096xf32>) outs(%187 : tensor<1x80x4096xf32>) {
    ^bb0(%in: f32, %out: f32):
      %5230 = math.fpowi %in, %c2_i32_844 : f32, i32
      linalg.yield %5230 : f32
    } -> tensor<1x80x4096xf32>
    %cst_845 = arith.constant dense<0.000000e+00> : tensor<1x80x1xf32>
    %189 = linalg.generic {indexing_maps = [#map6, #map7], iterator_types = ["parallel", "parallel", "reduction", "parallel"]} ins(%188 : tensor<1x80x4096xf32>) outs(%cst_845 : tensor<1x80x1xf32>) {
    ^bb0(%in: f32, %out: f32):
      %cst_1777 = arith.constant 4.096000e+03 : f32
      %5230 = arith.divf %in, %cst_1777 : f32
      %5231 = arith.addf %5230, %out : f32
      linalg.yield %5231 : f32
    } -> tensor<1x80x1xf32>
    %cst_846 = arith.constant dense<9.99999997E-7> : tensor<f32>
    %190 = "tosa.add"(%189, %cst_846) : (tensor<1x80x1xf32>, tensor<f32>) -> tensor<1x80x1xf32>
    %191 = tensor.empty() : tensor<1x80x1xf32>
    %192 = linalg.generic {indexing_maps = [#map1, #map1], iterator_types = ["parallel", "parallel", "parallel"]} ins(%190 : tensor<1x80x1xf32>) outs(%191 : tensor<1x80x1xf32>) {
    ^bb0(%in: f32, %out: f32):
      %5230 = math.rsqrt %in : f32
      linalg.yield %5230 : f32
    } -> tensor<1x80x1xf32>
    %193 = tensor.empty() : tensor<1x80x4096xf32>
    %194 = tensor.empty() : tensor<1x80x4096xf32>
    %195 = linalg.generic {indexing_maps = [#map7, #map6], iterator_types = ["parallel", "parallel", "parallel", "reduction"]} ins(%192 : tensor<1x80x1xf32>) outs(%194 : tensor<1x80x4096xf32>) {
    ^bb0(%in: f32, %out: f32):
      linalg.yield %in : f32
    } -> tensor<1x80x4096xf32>
    %196 = linalg.generic {indexing_maps = [#map1, #map1, #map1], iterator_types = ["parallel", "parallel", "parallel"]} ins(%186, %195 : tensor<1x80x4096xf32>, tensor<1x80x4096xf32>) outs(%193 : tensor<1x80x4096xf32>) {
    ^bb0(%in: f32, %in_1777: f32, %out: f32):
      %5230 = arith.mulf %in, %in_1777 : f32
      linalg.yield %5230 : f32
    } -> tensor<1x80x4096xf32>
    %197 = tensor.empty() : tensor<1x80x4096xf32>
    %198 = tensor.empty() : tensor<1x80x4096xf32>
    %199 = linalg.generic {indexing_maps = [#map8, #map1], iterator_types = ["parallel", "parallel", "parallel"]} ins(%extracted_slice_1 : tensor<4096xf32>) outs(%198 : tensor<1x80x4096xf32>) {
    ^bb0(%in: f32, %out: f32):
      linalg.yield %in : f32
    } -> tensor<1x80x4096xf32>
    %200 = linalg.generic {indexing_maps = [#map1, #map1, #map1], iterator_types = ["parallel", "parallel", "parallel"]} ins(%199, %196 : tensor<1x80x4096xf32>, tensor<1x80x4096xf32>) outs(%197 : tensor<1x80x4096xf32>) {
    ^bb0(%in: f32, %in_1777: f32, %out: f32):
      %5230 = arith.mulf %in, %in_1777 : f32
      linalg.yield %5230 : f32
    } -> tensor<1x80x4096xf32>
    %201 = tensor.empty() : tensor<4096x4096xf32>
…
    %4986 = linalg.generic {indexing_maps = [#map5, #map17], iterator_types = ["parallel", "parallel", "parallel", "reduction"]} ins(%4983 : tensor<1x32x80x80xf32>) outs(%4985 : tensor<1x32x80x1xf32>) {
    ^bb0(%in: f32, %out: f32):
      %5230 = arith.addf %in, %out : f32
      linalg.yield %5230 : f32
    } -> tensor<1x32x80x1xf32>
    %4987 = tensor.empty() : tensor<1x32x80x80xf32>
    %4988 = linalg.generic {indexing_maps = [#map5, #map17, #map5], iterator_types = ["parallel", "parallel", "parallel", "parallel"]} ins(%4983, %4986 : tensor<1x32x80x80xf32>, tensor<1x32x80x1xf32>) outs(%4987 : tensor<1x32x80x80xf32>) {
    ^bb0(%in: f32, %in_1777: f32, %out: f32):
      %5230 = arith.divf %in, %in_1777 : f32
      linalg.yield %5230 : f32
    } -> tensor<1x32x80x80xf32>
    %4989 = tensor.empty() : tensor<1x32x80x80xf32>
    %extracted_slice_1736 = tensor.extract_slice %4988[0, 0, 0, 0] [1, 32, 80, 80] [1, 1, 1, 1] : tensor<1x32x80x80xf32> to tensor<1x32x80x80xf32>
    %inserted_slice_1737 = tensor.insert_slice %extracted_slice_1736 into %4989[0, 0, 0, 0] [1, 32, 80, 80] [1, 1, 1, 1] : tensor<1x32x80x80xf32> into tensor<1x32x80x80xf32>
    %4990 = "tosa.reshape"(%inserted_slice_1737) {new_shape = array<i64: 32, 80, 80>} : (tensor<1x32x80x80xf32>) -> tensor<32x80x80xf32>
    %4991 = tensor.empty() : tensor<1x32x80x128xf32>
    %extracted_slice_1738 = tensor.extract_slice %4928[0, 0, 0, 0] [1, 32, 80, 128] [1, 1, 1, 1] : tensor<1x32x80x128xf32> to tensor<1x32x80x128xf32>
    %inserted_slice_1739 = tensor.insert_slice %extracted_slice_1738 into %4991[0, 0, 0, 0] [1, 32, 80, 128] [1, 1, 1, 1] : tensor<1x32x80x128xf32> into tensor<1x32x80x128xf32>
    %4992 = "tosa.reshape"(%inserted_slice_1739) {new_shape = array<i64: 32, 80, 128>} : (tensor<1x32x80x128xf32>) -> tensor<32x80x128xf32>
    %4993 = tensor.empty() : tensor<32x80x128xf32>
    %4994 = linalg.batch_matmul ins(%4990, %4992 : tensor<32x80x80xf32>, tensor<32x80x128xf32>) outs(%4993 : tensor<32x80x128xf32>) -> tensor<32x80x128xf32>
    %4995 = "tosa.reshape"(%4994) {new_shape = array<i64: 1, 32, 80, 128>} : (tensor<32x80x128xf32>) -> tensor<1x32x80x128xf32>
    %4996 = tensor.empty() : tensor<1x80x32x128xf32>
    %4997 = linalg.generic {indexing_maps = [#map11, #map5], iterator_types = ["parallel", "parallel", "parallel", "parallel"]} ins(%4995 : tensor<1x32x80x128xf32>) outs(%4996 : tensor<1x80x32x128xf32>) {
    ^bb0(%in: f32, %out: f32):
      linalg.yield %in : f32
    } -> tensor<1x80x32x128xf32>
    %extracted_slice_1740 = tensor.extract_slice %4997[0, 0, 0, 0] [1, 80, 32, 128] [1, 1, 1, 1] : tensor<1x80x32x128xf32> to tensor<1x80x32x128xf32>
    %4998 = "tosa.reshape"(%extracted_slice_1740) {new_shape = array<i64: 1, 80, 4096>} : (tensor<1x80x32x128xf32>) -> tensor<1x80x4096xf32>
    %4999 = tensor.empty() : tensor<4096x4096xf32>
    %5000 = linalg.generic {indexing_maps = [#map4, #map9], iterator_types = ["parallel", "parallel"]} ins(%expanded_492 : tensor<4096x4096xf32>) outs(%4999 : tensor<4096x4096xf32>) {
    ^bb0(%in: f32, %out: f32):
      linalg.yield %in : f32
    } -> tensor<4096x4096xf32>
    %5001 = "tosa.reshape"(%4998) {new_shape = array<i64: 80, 4096>} : (tensor<1x80x4096xf32>) -> tensor<80x4096xf32>
    %5002 = tensor.empty() : tensor<80x4096xf32>
    %5003 = linalg.generic {indexing_maps = [#map4], iterator_types = ["parallel", "parallel"]} outs(%5002 : tensor<80x4096xf32>) {
    ^bb0(%out: f32):
      %cst_1777 = arith.constant 0.000000e+00 : f32
      linalg.yield %cst_1777 : f32
    } -> tensor<80x4096xf32>
    %5004 = linalg.generic {indexing_maps = [#map3, #map10, #map], iterator_types = ["parallel", "parallel", "reduction"]} ins(%5001, %5000 : tensor<80x4096xf32>, tensor<4096x4096xf32>) outs(%5003 : tensor<80x4096xf32>) {
    ^bb0(%in: f32, %in_1777: f32, %out: f32):
      %5230 = arith.mulf %in, %in_1777 : f32
      %5231 = arith.addf %5230, %out : f32
      linalg.yield %5231 : f32
    } -> tensor<80x4096xf32>
    %5005 = "tosa.reshape"(%5004) {new_shape = array<i64: 1, 80, 4096>} : (tensor<80x4096xf32>) -> tensor<1x80x4096xf32>
    %5006 = "tosa.add"(%4884, %5005) : (tensor<1x80x4096xf32>, tensor<1x80x4096xf32>) -> tensor<1x80x4096xf32>
    %5007 = tensor.empty() : tensor<1x80x4096xf32>
    %c2_i32_1741 = arith.constant 2 : i32
    %5008 = linalg.generic {indexing_maps = [#map1, #map1], iterator_types = ["parallel", "parallel", "parallel"]} ins(%5006 : tensor<1x80x4096xf32>) outs(%5007 : tensor<1x80x4096xf32>) {
    ^bb0(%in: f32, %out: f32):
      %5230 = math.fpowi %in, %c2_i32_1741 : f32, i32
      linalg.yield %5230 : f32
    } -> tensor<1x80x4096xf32>
    %cst_1742 = arith.constant dense<0.000000e+00> : tensor<1x80x1xf32>
    %5009 = linalg.generic {indexing_maps = [#map6, #map7], iterator_types = ["parallel", "parallel", "reduction", "parallel"]} ins(%5008 : tensor<1x80x4096xf32>) outs(%cst_1742 : tensor<1x80x1xf32>) {
    ^bb0(%in: f32, %out: f32):
      %cst_1777 = arith.constant 4.096000e+03 : f32
      %5230 = arith.divf %in, %cst_1777 : f32
      %5231 = arith.addf %5230, %out : f32
      linalg.yield %5231 : f32
    } -> tensor<1x80x1xf32>
    %cst_1743 = arith.constant dense<9.99999997E-7> : tensor<f32>
    %5010 = "tosa.add"(%5009, %cst_1743) : (tensor<1x80x1xf32>, tensor<f32>) -> tensor<1x80x1xf32>
    %5011 = tensor.empty() : tensor<1x80x1xf32>
    %5012 = linalg.generic {indexing_maps = [#map1, #map1], iterator_types = ["parallel", "parallel", "parallel"]} ins(%5010 : tensor<1x80x1xf32>) outs(%5011 : tensor<1x80x1xf32>) {
    ^bb0(%in: f32, %out: f32):
      %5230 = math.rsqrt %in : f32
      linalg.yield %5230 : f32
    } -> tensor<1x80x1xf32>
    %5013 = tensor.empty() : tensor<1x80x4096xf32>
    %5014 = tensor.empty() : tensor<1x80x4096xf32>
    %5015 = linalg.generic {indexing_maps = [#map7, #map6], iterator_types = ["parallel", "parallel", "parallel", "reduction"]} ins(%5012 : tensor<1x80x1xf32>) outs(%5014 : tensor<1x80x4096xf32>) {
    ^bb0(%in: f32, %out: f32):
      linalg.yield %in : f32
    } -> tensor<1x80x4096xf32>
    %5016 = linalg.generic {indexing_maps = [#map1, #map1, #map1], iterator_types = ["parallel", "parallel", "parallel"]} ins(%5006, %5015 : tensor<1x80x4096xf32>, tensor<1x80x4096xf32>) outs(%5013 : tensor<1x80x4096xf32>) {
    ^bb0(%in: f32, %in_1777: f32, %out: f32):
      %5230 = arith.mulf %in, %in_1777 : f32
      linalg.yield %5230 : f32
    } -> tensor<1x80x4096xf32>
    %5017 = tensor.empty() : tensor<1x80x4096xf32>
    %5018 = tensor.empty() : tensor<1x80x4096xf32>
    %5019 = linalg.generic {indexing_maps = [#map8, #map1], iterator_types = ["parallel", "parallel", "parallel"]} ins(%extracted_slice_60 : tensor<4096xf32>) outs(%5018 : tensor<1x80x4096xf32>) {
    ^bb0(%in: f32, %out: f32):
      linalg.yield %in : f32
    } -> tensor<1x80x4096xf32>
    %5020 = linalg.generic {indexing_maps = [#map1, #map1, #map1], iterator_types = ["parallel", "parallel", "parallel"]} ins(%5019, %5016 : tensor<1x80x4096xf32>, tensor<1x80x4096xf32>) outs(%5017 : tensor<1x80x4096xf32>) {
    ^bb0(%in: f32, %in_1777: f32, %out: f32):
      %5230 = arith.mulf %in, %in_1777 : f32
      linalg.yield %5230 : f32
    } -> tensor<1x80x4096xf32>
    %5021 = tensor.empty() : tensor<4096x11008xf32>
    %5022 = linalg.generic {indexing_maps = [#map4, #map9], iterator_types = ["parallel", "parallel"]} ins(%expanded_494 : tensor<11008x4096xf32>) outs(%5021 : tensor<4096x11008xf32>) {
    ^bb0(%in: f32, %out: f32):
      linalg.yield %in : f32
    } -> tensor<4096x11008xf32>
    %5023 = "tosa.reshape"(%5020) {new_shape = array<i64: 80, 4096>} : (tensor<1x80x4096xf32>) -> tensor<80x4096xf32>
    %5024 = tensor.empty() : tensor<80x11008xf32>
    %5025 = linalg.generic {indexing_maps = [#map4], iterator_types = ["parallel", "parallel"]} outs(%5024 : tensor<80x11008xf32>) {
    ^bb0(%out: f32):
      %cst_1777 = arith.constant 0.000000e+00 : f32
      linalg.yield %cst_1777 : f32
    } -> tensor<80x11008xf32>
    %5026 = linalg.generic {indexing_maps = [#map3, #map10, #map], iterator_types = ["parallel", "parallel", "reduction"]} ins(%5023, %5022 : tensor<80x4096xf32>, tensor<4096x11008xf32>) outs(%5025 : tensor<80x11008xf32>) {
    ^bb0(%in: f32, %in_1777: f32, %out: f32):
      %5230 = arith.mulf %in, %in_1777 : f32
      %5231 = arith.addf %5230, %out : f32
      linalg.yield %5231 : f32
    } -> tensor<80x11008xf32>
    %5027 = "tosa.reshape"(%5026) {new_shape = array<i64: 1, 80, 11008>} : (tensor<80x11008xf32>) -> tensor<1x80x11008xf32>
    %5028 = tensor.empty() : tensor<1x80x11008xf32>
    %5029 = linalg.generic {indexing_maps = [#map1, #map1], iterator_types = ["parallel", "parallel", "parallel"]} ins(%5027 : tensor<1x80x11008xf32>) outs(%5028 : tensor<1x80x11008xf32>) {
    ^bb0(%in: f32, %out: f32):
      %5230 = arith.negf %in : f32
      %5231 = math.exp %5230 : f32
      %cst_1777 = arith.constant 1.000000e+00 : f32
      %5232 = arith.addf %cst_1777, %5231 : f32
      %5233 = arith.divf %in, %5232 : f32
      linalg.yield %5233 : f32
    } -> tensor<1x80x11008xf32>
    %5030 = tensor.empty() : tensor<4096x11008xf32>
    %5031 = linalg.generic {indexing_maps = [#map4, #map9], iterator_types = ["parallel", "parallel"]} ins(%expanded_496 : tensor<11008x4096xf32>) outs(%5030 : tensor<4096x11008xf32>) {
    ^bb0(%in: f32, %out: f32):
      linalg.yield %in : f32
    } -> tensor<4096x11008xf32>
    %5032 = "tosa.reshape"(%5020) {new_shape = array<i64: 80, 4096>} : (tensor<1x80x4096xf32>) -> tensor<80x4096xf32>
    %5033 = tensor.empty() : tensor<80x11008xf32>
    %5034 = linalg.generic {indexing_maps = [#map4], iterator_types = ["parallel", "parallel"]} outs(%5033 : tensor<80x11008xf32>) {
    ^bb0(%out: f32):
      %cst_1777 = arith.constant 0.000000e+00 : f32
      linalg.yield %cst_1777 : f32
    } -> tensor<80x11008xf32>
    %5035 = linalg.generic {indexing_maps = [#map3, #map10, #map], iterator_types = ["parallel", "parallel", "reduction"]} ins(%5032, %5031 : tensor<80x4096xf32>, tensor<4096x11008xf32>) outs(%5034 : tensor<80x11008xf32>) {
    ^bb0(%in: f32, %in_1777: f32, %out: f32):
      %5230 = arith.mulf %in, %in_1777 : f32
      %5231 = arith.addf %5230, %out : f32
      linalg.yield %5231 : f32
    } -> tensor<80x11008xf32>
    %5036 = "tosa.reshape"(%5035) {new_shape = array<i64: 1, 80, 11008>} : (tensor<80x11008xf32>) -> tensor<1x80x11008xf32>
    %5037 = tensor.empty() : tensor<1x80x11008xf32>
    %5038 = linalg.generic {indexing_maps = [#map1, #map1, #map1], iterator_types = ["parallel", "parallel", "parallel"]} ins(%5029, %5036 : tensor<1x80x11008xf32>, tensor<1x80x11008xf32>) outs(%5037 : tensor<1x80x11008xf32>) {
    ^bb0(%in: f32, %in_1777: f32, %out: f32):
      %5230 = arith.mulf %in, %in_1777 : f32
      linalg.yield %5230 : f32
    } -> tensor<1x80x11008xf32>
    %5039 = tensor.empty() : tensor<11008x4096xf32>
    %5040 = linalg.generic {indexing_maps = [#map4, #map9], iterator_types = ["parallel", "parallel"]} ins(%expanded_498 : tensor<4096x11008xf32>) outs(%5039 : tensor<11008x4096xf32>) {
    ^bb0(%in: f32, %out: f32):
      linalg.yield %in : f32
    } -> tensor<11008x4096xf32>
    %5041 = "tosa.reshape"(%5038) {new_shape = array<i64: 80, 11008>} : (tensor<1x80x11008xf32>) -> tensor<80x11008xf32>
    %5042 = tensor.empty() : tensor<80x4096xf32>
    %5043 = linalg.generic {indexing_maps = [#map4], iterator_types = ["parallel", "parallel"]} outs(%5042 : tensor<80x4096xf32>) {
    ^bb0(%out: f32):
      %cst_1777 = arith.constant 0.000000e+00 : f32
      linalg.yield %cst_1777 : f32
    } -> tensor<80x4096xf32>
    %5044 = linalg.generic {indexing_maps = [#map3, #map10, #map], iterator_types = ["parallel", "parallel", "reduction"]} ins(%5041, %5040 : tensor<80x11008xf32>, tensor<11008x4096xf32>) outs(%5043 : tensor<80x4096xf32>) {
    ^bb0(%in: f32, %in_1777: f32, %out: f32):
      %5230 = arith.mulf %in, %in_1777 : f32
      %5231 = arith.addf %5230, %out : f32
      linalg.yield %5231 : f32
    } -> tensor<80x4096xf32>
    %5045 = "tosa.reshape"(%5044) {new_shape = array<i64: 1, 80, 4096>} : (tensor<80x4096xf32>) -> tensor<1x80x4096xf32>
    %5046 = "tosa.add"(%5006, %5045) : (tensor<1x80x4096xf32>, tensor<1x80x4096xf32>) -> tensor<1x80x4096xf32>
    %5047 = tensor.empty() : tensor<1x80x4096xf32>
    %c2_i32_1744 = arith.constant 2 : i32
    %5048 = linalg.generic {indexing_maps = [#map1, #map1], iterator_types = ["parallel", "parallel", "parallel"]} ins(%5046 : tensor<1x80x4096xf32>) outs(%5047 : tensor<1x80x4096xf32>) {
    ^bb0(%in: f32, %out: f32):
      %5230 = math.fpowi %in, %c2_i32_1744 : f32, i32
      linalg.yield %5230 : f32
    } -> tensor<1x80x4096xf32>
    %cst_1745 = arith.constant dense<0.000000e+00> : tensor<1x80x1xf32>
    %5049 = linalg.generic {indexing_maps = [#map6, #map7], iterator_types = ["parallel", "parallel", "reduction", "parallel"]} ins(%5048 : tensor<1x80x4096xf32>) outs(%cst_1745 : tensor<1x80x1xf32>) {
    ^bb0(%in: f32, %out: f32):
      %cst_1777 = arith.constant 4.096000e+03 : f32
      %5230 = arith.divf %in, %cst_1777 : f32
      %5231 = arith.addf %5230, %out : f32
      linalg.yield %5231 : f32
    } -> tensor<1x80x1xf32>
    %cst_1746 = arith.constant dense<9.99999997E-7> : tensor<f32>
    %5050 = "tosa.add"(%5049, %cst_1746) : (tensor<1x80x1xf32>, tensor<f32>) -> tensor<1x80x1xf32>
    %5051 = tensor.empty() : tensor<1x80x1xf32>
    %5052 = linalg.generic {indexing_maps = [#map1, #map1], iterator_types = ["parallel", "parallel", "parallel"]} ins(%5050 : tensor<1x80x1xf32>) outs(%5051 : tensor<1x80x1xf32>) {
    ^bb0(%in: f32, %out: f32):
      %5230 = math.rsqrt %in : f32
      linalg.yield %5230 : f32
    } -> tensor<1x80x1xf32>
    %5053 = tensor.empty() : tensor<1x80x4096xf32>
    %5054 = tensor.empty() : tensor<1x80x4096xf32>
    %5055 = linalg.generic {indexing_maps = [#map7, #map6], iterator_types = ["parallel", "parallel", "parallel", "reduction"]} ins(%5052 : tensor<1x80x1xf32>) outs(%5054 : tensor<1x80x4096xf32>) {
    ^bb0(%in: f32, %out: f32):
      linalg.yield %in : f32
    } -> tensor<1x80x4096xf32>
    %5056 = linalg.generic {indexing_maps = [#map1, #map1, #map1], iterator_types = ["parallel", "parallel", "parallel"]} ins(%5046, %5055 : tensor<1x80x4096xf32>, tensor<1x80x4096xf32>) outs(%5053 : tensor<1x80x4096xf32>) {
    ^bb0(%in: f32, %in_1777: f32, %out: f32):
      %5230 = arith.mulf %in, %in_1777 : f32
      linalg.yield %5230 : f32
    } -> tensor<1x80x4096xf32>
    %5057 = tensor.empty() : tensor<1x80x4096xf32>
    %5058 = tensor.empty() : tensor<1x80x4096xf32>
    %5059 = linalg.generic {indexing_maps = [#map8, #map1], iterator_types = ["parallel", "parallel", "parallel"]} ins(%extracted_slice_61 : tensor<4096xf32>) outs(%5058 : tensor<1x80x4096xf32>) {
    ^bb0(%in: f32, %out: f32):
      linalg.yield %in : f32
    } -> tensor<1x80x4096xf32>
    %5060 = linalg.generic {indexing_maps = [#map1, #map1, #map1], iterator_types = ["parallel", "parallel", "parallel"]} ins(%5059, %5056 : tensor<1x80x4096xf32>, tensor<1x80x4096xf32>) outs(%5057 : tensor<1x80x4096xf32>) {
    ^bb0(%in: f32, %in_1777: f32, %out: f32):
      %5230 = arith.mulf %in, %in_1777 : f32
      linalg.yield %5230 : f32
    } -> tensor<1x80x4096xf32>
    %5061 = tensor.empty() : tensor<4096x4096xf32>
    %5062 = linalg.generic {indexing_maps = [#map4, #map9], iterator_types = ["parallel", "parallel"]} ins(%expanded_500 : tensor<4096x4096xf32>) outs(%5061 : tensor<4096x4096xf32>) {
    ^bb0(%in: f32, %out: f32):
      linalg.yield %in : f32
    } -> tensor<4096x4096xf32>
    %5063 = "tosa.reshape"(%5060) {new_shape = array<i64: 80, 4096>} : (tensor<1x80x4096xf32>) -> tensor<80x4096xf32>
    %5064 = tensor.empty() : tensor<80x4096xf32>
    %5065 = linalg.generic {indexing_maps = [#map4], iterator_types = ["parallel", "parallel"]} outs(%5064 : tensor<80x4096xf32>) {
    ^bb0(%out: f32):
      %cst_1777 = arith.constant 0.000000e+00 : f32
      linalg.yield %cst_1777 : f32
    } -> tensor<80x4096xf32>
    %5066 = linalg.generic {indexing_maps = [#map3, #map10, #map], iterator_types = ["parallel", "parallel", "reduction"]} ins(%5063, %5062 : tensor<80x4096xf32>, tensor<4096x4096xf32>) outs(%5065 : tensor<80x4096xf32>) {
    ^bb0(%in: f32, %in_1777: f32, %out: f32):
      %5230 = arith.mulf %in, %in_1777 : f32
      %5231 = arith.addf %5230, %out : f32
      linalg.yield %5231 : f32
    } -> tensor<80x4096xf32>
    %5067 = "tosa.reshape"(%5066) {new_shape = array<i64: 1, 80, 4096>} : (tensor<80x4096xf32>) -> tensor<1x80x4096xf32>
    %5068 = tensor.empty() : tensor<4096x4096xf32>
    %5069 = linalg.generic {indexing_maps = [#map4, #map9], iterator_types = ["parallel", "parallel"]} ins(%expanded_502 : tensor<4096x4096xf32>) outs(%5068 : tensor<4096x4096xf32>) {
    ^bb0(%in: f32, %out: f32):
      linalg.yield %in : f32
    } -> tensor<4096x4096xf32>
    %5070 = "tosa.reshape"(%5060) {new_shape = array<i64: 80, 4096>} : (tensor<1x80x4096xf32>) -> tensor<80x4096xf32>
    %5071 = tensor.empty() : tensor<80x4096xf32>
    %5072 = linalg.generic {indexing_maps = [#map4], iterator_types = ["parallel", "parallel"]} outs(%5071 : tensor<80x4096xf32>) {
    ^bb0(%out: f32):
      %cst_1777 = arith.constant 0.000000e+00 : f32
      linalg.yield %cst_1777 : f32
    } -> tensor<80x4096xf32>
    %5073 = linalg.generic {indexing_maps = [#map3, #map10, #map], iterator_types = ["parallel", "parallel", "reduction"]} ins(%5070, %5069 : tensor<80x4096xf32>, tensor<4096x4096xf32>) outs(%5072 : tensor<80x4096xf32>) {
    ^bb0(%in: f32, %in_1777: f32, %out: f32):
      %5230 = arith.mulf %in, %in_1777 : f32
      %5231 = arith.addf %5230, %out : f32
      linalg.yield %5231 : f32
    } -> tensor<80x4096xf32>
    %5074 = "tosa.reshape"(%5073) {new_shape = array<i64: 1, 80, 4096>} : (tensor<80x4096xf32>) -> tensor<1x80x4096xf32>
    %5075 = tensor.empty() : tensor<4096x4096xf32>
    %5076 = linalg.generic {indexing_maps = [#map4, #map9], iterator_types = ["parallel", "parallel"]} ins(%expanded_504 : tensor<4096x4096xf32>) outs(%5075 : tensor<4096x4096xf32>) {
    ^bb0(%in: f32, %out: f32):
      linalg.yield %in : f32
    } -> tensor<4096x4096xf32>
    %5077 = "tosa.reshape"(%5060) {new_shape = array<i64: 80, 4096>} : (tensor<1x80x4096xf32>) -> tensor<80x4096xf32>
    %5078 = tensor.empty() : tensor<80x4096xf32>
    %5079 = linalg.generic {indexing_maps = [#map4], iterator_types = ["parallel", "parallel"]} outs(%5078 : tensor<80x4096xf32>) {
    ^bb0(%out: f32):
      %cst_1777 = arith.constant 0.000000e+00 : f32
      linalg.yield %cst_1777 : f32
    } -> tensor<80x4096xf32>
    %5080 = linalg.generic {indexing_maps = [#map3, #map10, #map], iterator_types = ["parallel", "parallel", "reduction"]} ins(%5077, %5076 : tensor<80x4096xf32>, tensor<4096x4096xf32>) outs(%5079 : tensor<80x4096xf32>) {
    ^bb0(%in: f32, %in_1777: f32, %out: f32):
      %5230 = arith.mulf %in, %in_1777 : f32
      %5231 = arith.addf %5230, %out : f32
      linalg.yield %5231 : f32
    } -> tensor<80x4096xf32>
    %5081 = "tosa.reshape"(%5080) {new_shape = array<i64: 1, 80, 4096>} : (tensor<80x4096xf32>) -> tensor<1x80x4096xf32>
    %5082 = "tosa.reshape"(%5067) {new_shape = array<i64: 1, 80, 32, 128>} : (tensor<1x80x4096xf32>) -> tensor<1x80x32x128xf32>
    %5083 = tensor.empty() : tensor<1x32x80x128xf32>
    %5084 = linalg.generic {indexing_maps = [#map11, #map5], iterator_types = ["parallel", "parallel", "parallel", "parallel"]} ins(%5082 : tensor<1x80x32x128xf32>) outs(%5083 : tensor<1x32x80x128xf32>) {
    ^bb0(%in: f32, %out: f32):
      linalg.yield %in : f32
    } -> tensor<1x32x80x128xf32>
    %5085 = "tosa.reshape"(%5074) {new_shape = array<i64: 1, 80, 32, 128>} : (tensor<1x80x4096xf32>) -> tensor<1x80x32x128xf32>
    %5086 = tensor.empty() : tensor<1x32x80x128xf32>
    %5087 = linalg.generic {indexing_maps = [#map11, #map5], iterator_types = ["parallel", "parallel", "parallel", "parallel"]} ins(%5085 : tensor<1x80x32x128xf32>) outs(%5086 : tensor<1x32x80x128xf32>) {
    ^bb0(%in: f32, %out: f32):
      linalg.yield %in : f32
    } -> tensor<1x32x80x128xf32>
    %5088 = "tosa.reshape"(%5081) {new_shape = array<i64: 1, 80, 32, 128>} : (tensor<1x80x4096xf32>) -> tensor<1x80x32x128xf32>
    %5089 = tensor.empty() : tensor<1x32x80x128xf32>
    %5090 = linalg.generic {indexing_maps = [#map11, #map5], iterator_types = ["parallel", "parallel", "parallel", "parallel"]} ins(%5088 : tensor<1x80x32x128xf32>) outs(%5089 : tensor<1x32x80x128xf32>) {
    ^bb0(%in: f32, %out: f32):
      linalg.yield %in : f32
    } -> tensor<1x32x80x128xf32>
    %extracted_slice_1747 = tensor.extract_slice %expanded_640[0, 0, 0, 0] [1, 1, 2048, 128] [1, 1, 1, 1] : tensor<1x1x2048x128xf32> to tensor<1x1x2048x128xf32>
    %extracted_slice_1748 = tensor.extract_slice %extracted_slice_1747[0, 0, 0, 0] [1, 1, 2048, 128] [1, 1, 1, 1] : tensor<1x1x2048x128xf32> to tensor<1x1x2048x128xf32>
    %extracted_slice_1749 = tensor.extract_slice %extracted_slice_1748[0, 0, 0, 0] [1, 1, 80, 128] [1, 1, 1, 1] : tensor<1x1x2048x128xf32> to tensor<1x1x80x128xf32>
    %extracted_slice_1750 = tensor.extract_slice %expanded_642[0, 0, 0, 0] [1, 1, 2048, 128] [1, 1, 1, 1] : tensor<1x1x2048x128xf32> to tensor<1x1x2048x128xf32>
    %extracted_slice_1751 = tensor.extract_slice %extracted_slice_1750[0, 0, 0, 0] [1, 1, 2048, 128] [1, 1, 1, 1] : tensor<1x1x2048x128xf32> to tensor<1x1x2048x128xf32>
    %extracted_slice_1752 = tensor.extract_slice %extracted_slice_1751[0, 0, 0, 0] [1, 1, 80, 128] [1, 1, 1, 1] : tensor<1x1x2048x128xf32> to tensor<1x1x80x128xf32>
    %5091 = tensor.empty() : tensor<1x80x128xf32>
    %5092 = linalg.generic {indexing_maps = [#map12, #map1], iterator_types = ["parallel", "parallel", "parallel"]} ins(%extracted_slice_1749 : tensor<1x1x80x128xf32>) outs(%5091 : tensor<1x80x128xf32>) {
    ^bb0(%in: f32, %out: f32):
      linalg.yield %in : f32
    } -> tensor<1x80x128xf32>
    %5093 = tensor.empty() : tensor<80x128xf32>
    %5094 = linalg.generic {indexing_maps = [#map13, #map4], iterator_types = ["parallel", "parallel"]} ins(%5092 : tensor<1x80x128xf32>) outs(%5093 : tensor<80x128xf32>) {
    ^bb0(%in: f32, %out: f32):
      linalg.yield %in : f32
    } -> tensor<80x128xf32>
    %5095 = tensor.empty() : tensor<1x80x128xf32>
    %5096 = linalg.generic {indexing_maps = [#map12, #map1], iterator_types = ["parallel", "parallel", "parallel"]} ins(%extracted_slice_1752 : tensor<1x1x80x128xf32>) outs(%5095 : tensor<1x80x128xf32>) {
    ^bb0(%in: f32, %out: f32):
      linalg.yield %in : f32
    } -> tensor<1x80x128xf32>
    %5097 = tensor.empty() : tensor<80x128xf32>
    %5098 = linalg.generic {indexing_maps = [#map13, #map4], iterator_types = ["parallel", "parallel"]} ins(%5096 : tensor<1x80x128xf32>) outs(%5097 : tensor<80x128xf32>) {
    ^bb0(%in: f32, %out: f32):
      linalg.yield %in : f32
    } -> tensor<80x128xf32>
    %5099 = tensor.empty() : tensor<1x80x128xf32>
    %5100 = linalg.generic {indexing_maps = [#map, #map1], iterator_types = ["parallel", "parallel", "parallel"]} ins(%1 : tensor<1x80xi64>) outs(%5099 : tensor<1x80x128xf32>) {
    ^bb0(%in: i64, %out: f32):
      %5230 = arith.index_cast %in : i64 to index
      %5231 = linalg.index 2 : index
      %extracted = tensor.extract %5094[%5230, %5231] : tensor<80x128xf32>
      linalg.yield %extracted : f32
    } -> tensor<1x80x128xf32>
    %5101 = "tosa.reshape"(%5100) {new_shape = array<i64: 1, 1, 80, 128>} : (tensor<1x80x128xf32>) -> tensor<1x1x80x128xf32>
    %5102 = tensor.empty() : tensor<1x80x128xf32>
    %5103 = linalg.generic {indexing_maps = [#map, #map1], iterator_types = ["parallel", "parallel", "parallel"]} ins(%1 : tensor<1x80xi64>) outs(%5102 : tensor<1x80x128xf32>) {
    ^bb0(%in: i64, %out: f32):
      %5230 = arith.index_cast %in : i64 to index
      %5231 = linalg.index 2 : index
      %extracted = tensor.extract %5098[%5230, %5231] : tensor<80x128xf32>
      linalg.yield %extracted : f32
    } -> tensor<1x80x128xf32>
    %5104 = "tosa.reshape"(%5103) {new_shape = array<i64: 1, 1, 80, 128>} : (tensor<1x80x128xf32>) -> tensor<1x1x80x128xf32>
    %5105 = tensor.empty() : tensor<1x32x80x128xf32>
    %5106 = tensor.empty() : tensor<1x32x80x128xf32>
    %5107 = linalg.generic {indexing_maps = [#map14, #map15], iterator_types = ["parallel", "parallel", "parallel", "parallel", "reduction"]} ins(%5101 : tensor<1x1x80x128xf32>) outs(%5106 : tensor<1x32x80x128xf32>) {
    ^bb0(%in: f32, %out: f32):
      linalg.yield %in : f32
    } -> tensor<1x32x80x128xf32>
    %5108 = linalg.generic {indexing_maps = [#map5, #map5, #map5], iterator_types = ["parallel", "parallel", "parallel", "parallel"]} ins(%5084, %5107 : tensor<1x32x80x128xf32>, tensor<1x32x80x128xf32>) outs(%5105 : tensor<1x32x80x128xf32>) {
    ^bb0(%in: f32, %in_1777: f32, %out: f32):
      %5230 = arith.mulf %in, %in_1777 : f32
      linalg.yield %5230 : f32
    } -> tensor<1x32x80x128xf32>
    %extracted_slice_1753 = tensor.extract_slice %5084[0, 0, 0, 0] [1, 32, 80, 64] [1, 1, 1, 1] : tensor<1x32x80x128xf32> to tensor<1x32x80x64xf32>
    %extracted_slice_1754 = tensor.extract_slice %5084[0, 0, 0, 64] [1, 32, 80, 64] [1, 1, 1, 1] : tensor<1x32x80x128xf32> to tensor<1x32x80x64xf32>
    %5109 = tensor.empty() : tensor<1x32x80x64xf32>
    %5110 = linalg.generic {indexing_maps = [#map5, #map5], iterator_types = ["parallel", "parallel", "parallel", "parallel"]} ins(%extracted_slice_1754 : tensor<1x32x80x64xf32>) outs(%5109 : tensor<1x32x80x64xf32>) {
    ^bb0(%in: f32, %out: f32):
      %5230 = arith.negf %in : f32
      linalg.yield %5230 : f32
    } -> tensor<1x32x80x64xf32>
    %5111 = tensor.empty() : tensor<1x32x80x128xf32>
    %inserted_slice_1755 = tensor.insert_slice %5110 into %5111[0, 0, 0, 0] [1, 32, 80, 64] [1, 1, 1, 1] : tensor<1x32x80x64xf32> into tensor<1x32x80x128xf32>
    %inserted_slice_1756 = tensor.insert_slice %extracted_slice_1753 into %inserted_slice_1755[0, 0, 0, 64] [1, 32, 80, 64] [1, 1, 1, 1] : tensor<1x32x80x64xf32> into tensor<1x32x80x128xf32>
    %5112 = tensor.empty() : tensor<1x32x80x128xf32>
    %5113 = tensor.empty() : tensor<1x32x80x128xf32>
    %5114 = linalg.generic {indexing_maps = [#map14, #map15], iterator_types = ["parallel", "parallel", "parallel", "parallel", "reduction"]} ins(%5104 : tensor<1x1x80x128xf32>) outs(%5113 : tensor<1x32x80x128xf32>) {
    ^bb0(%in: f32, %out: f32):
      linalg.yield %in : f32
    } -> tensor<1x32x80x128xf32>
    %5115 = linalg.generic {indexing_maps = [#map5, #map5, #map5], iterator_types = ["parallel", "parallel", "parallel", "parallel"]} ins(%inserted_slice_1756, %5114 : tensor<1x32x80x128xf32>, tensor<1x32x80x128xf32>) outs(%5112 : tensor<1x32x80x128xf32>) {
    ^bb0(%in: f32, %in_1777: f32, %out: f32):
      %5230 = arith.mulf %in, %in_1777 : f32
      linalg.yield %5230 : f32
    } -> tensor<1x32x80x128xf32>
    %5116 = "tosa.add"(%5108, %5115) : (tensor<1x32x80x128xf32>, tensor<1x32x80x128xf32>) -> tensor<1x32x80x128xf32>
    %5117 = tensor.empty() : tensor<1x32x80x128xf32>
    %5118 = tensor.empty() : tensor<1x32x80x128xf32>
    %5119 = linalg.generic {indexing_maps = [#map14, #map15], iterator_types = ["parallel", "parallel", "parallel", "parallel", "reduction"]} ins(%5101 : tensor<1x1x80x128xf32>) outs(%5118 : tensor<1x32x80x128xf32>) {
    ^bb0(%in: f32, %out: f32):
      linalg.yield %in : f32
    } -> tensor<1x32x80x128xf32>
    %5120 = linalg.generic {indexing_maps = [#map5, #map5, #map5], iterator_types = ["parallel", "parallel", "parallel", "parallel"]} ins(%5087, %5119 : tensor<1x32x80x128xf32>, tensor<1x32x80x128xf32>) outs(%5117 : tensor<1x32x80x128xf32>) {
    ^bb0(%in: f32, %in_1777: f32, %out: f32):
      %5230 = arith.mulf %in, %in_1777 : f32
      linalg.yield %5230 : f32
    } -> tensor<1x32x80x128xf32>
    %extracted_slice_1757 = tensor.extract_slice %5087[0, 0, 0, 0] [1, 32, 80, 64] [1, 1, 1, 1] : tensor<1x32x80x128xf32> to tensor<1x32x80x64xf32>
    %extracted_slice_1758 = tensor.extract_slice %5087[0, 0, 0, 64] [1, 32, 80, 64] [1, 1, 1, 1] : tensor<1x32x80x128xf32> to tensor<1x32x80x64xf32>
    %5121 = tensor.empty() : tensor<1x32x80x64xf32>
    %5122 = linalg.generic {indexing_maps = [#map5, #map5], iterator_types = ["parallel", "parallel", "parallel", "parallel"]} ins(%extracted_slice_1758 : tensor<1x32x80x64xf32>) outs(%5121 : tensor<1x32x80x64xf32>) {
    ^bb0(%in: f32, %out: f32):
      %5230 = arith.negf %in : f32
      linalg.yield %5230 : f32
    } -> tensor<1x32x80x64xf32>
    %5123 = tensor.empty() : tensor<1x32x80x128xf32>
    %inserted_slice_1759 = tensor.insert_slice %5122 into %5123[0, 0, 0, 0] [1, 32, 80, 64] [1, 1, 1, 1] : tensor<1x32x80x64xf32> into tensor<1x32x80x128xf32>
    %inserted_slice_1760 = tensor.insert_slice %extracted_slice_1757 into %inserted_slice_1759[0, 0, 0, 64] [1, 32, 80, 64] [1, 1, 1, 1] : tensor<1x32x80x64xf32> into tensor<1x32x80x128xf32>
    %5124 = tensor.empty() : tensor<1x32x80x128xf32>
    %5125 = tensor.empty() : tensor<1x32x80x128xf32>
    %5126 = linalg.generic {indexing_maps = [#map14, #map15], iterator_types = ["parallel", "parallel", "parallel", "parallel", "reduction"]} ins(%5104 : tensor<1x1x80x128xf32>) outs(%5125 : tensor<1x32x80x128xf32>) {
    ^bb0(%in: f32, %out: f32):
      linalg.yield %in : f32
    } -> tensor<1x32x80x128xf32>
    %5127 = linalg.generic {indexing_maps = [#map5, #map5, #map5], iterator_types = ["parallel", "parallel", "parallel", "parallel"]} ins(%inserted_slice_1760, %5126 : tensor<1x32x80x128xf32>, tensor<1x32x80x128xf32>) outs(%5124 : tensor<1x32x80x128xf32>) {
    ^bb0(%in: f32, %in_1777: f32, %out: f32):
      %5230 = arith.mulf %in, %in_1777 : f32
      linalg.yield %5230 : f32
    } -> tensor<1x32x80x128xf32>
    %5128 = "tosa.add"(%5120, %5127) : (tensor<1x32x80x128xf32>, tensor<1x32x80x128xf32>) -> tensor<1x32x80x128xf32>
    %5129 = tensor.empty() : tensor<1x32x128x80xf32>
    %5130 = linalg.generic {indexing_maps = [#map16, #map5], iterator_types = ["parallel", "parallel", "parallel", "parallel"]} ins(%5128 : tensor<1x32x80x128xf32>) outs(%5129 : tensor<1x32x128x80xf32>) {
    ^bb0(%in: f32, %out: f32):
      linalg.yield %in : f32
    } -> tensor<1x32x128x80xf32>
    %5131 = tensor.empty() : tensor<1x32x80x128xf32>
    %extracted_slice_1761 = tensor.extract_slice %5116[0, 0, 0, 0] [1, 32, 80, 128] [1, 1, 1, 1] : tensor<1x32x80x128xf32> to tensor<1x32x80x128xf32>
    %inserted_slice_1762 = tensor.insert_slice %extracted_slice_1761 into %5131[0, 0, 0, 0] [1, 32, 80, 128] [1, 1, 1, 1] : tensor<1x32x80x128xf32> into tensor<1x32x80x128xf32>
    %5132 = "tosa.reshape"(%inserted_slice_1762) {new_shape = array<i64: 32, 80, 128>} : (tensor<1x32x80x128xf32>) -> tensor<32x80x128xf32>
    %5133 = tensor.empty() : tensor<1x32x128x80xf32>
    %extracted_slice_1763 = tensor.extract_slice %5130[0, 0, 0, 0] [1, 32, 128, 80] [1, 1, 1, 1] : tensor<1x32x128x80xf32> to tensor<1x32x128x80xf32>
    %inserted_slice_1764 = tensor.insert_slice %extracted_slice_1763 into %5133[0, 0, 0, 0] [1, 32, 128, 80] [1, 1, 1, 1] : tensor<1x32x128x80xf32> into tensor<1x32x128x80xf32>
    %5134 = "tosa.reshape"(%inserted_slice_1764) {new_shape = array<i64: 32, 128, 80>} : (tensor<1x32x128x80xf32>) -> tensor<32x128x80xf32>
    %5135 = tensor.empty() : tensor<32x80x80xf32>
    %5136 = linalg.batch_matmul ins(%5132, %5134 : tensor<32x80x128xf32>, tensor<32x128x80xf32>) outs(%5135 : tensor<32x80x80xf32>) -> tensor<32x80x80xf32>
    %5137 = "tosa.reshape"(%5136) {new_shape = array<i64: 1, 32, 80, 80>} : (tensor<32x80x80xf32>) -> tensor<1x32x80x80xf32>
    %cst_1765 = arith.constant 11.3137083 : f32
    %5138 = tensor.empty() : tensor<1x32x80x80xf32>
    %5139 = linalg.generic {indexing_maps = [#map5, #map5], iterator_types = ["parallel", "parallel", "parallel", "parallel"]} ins(%5137 : tensor<1x32x80x80xf32>) outs(%5138 : tensor<1x32x80x80xf32>) {
    ^bb0(%in: f32, %out: f32):
      %5230 = arith.divf %in, %cst_1765 : f32
      linalg.yield %5230 : f32
    } -> tensor<1x32x80x80xf32>
    %5140 = "tosa.add"(%5139, %24) : (tensor<1x32x80x80xf32>, tensor<1x1x80x80xf32>) -> tensor<1x32x80x80xf32>
    %5141 = tensor.empty() : tensor<1x32x80x1xf32>
    %5142 = linalg.generic {indexing_maps = [#map5], iterator_types = ["parallel", "parallel", "parallel", "parallel"]} outs(%5141 : tensor<1x32x80x1xf32>) {
    ^bb0(%out: f32):
      %cst_1777 = arith.constant 0xFF800000 : f32
      linalg.yield %cst_1777 : f32
    } -> tensor<1x32x80x1xf32>
    %5143 = linalg.generic {indexing_maps = [#map5, #map17], iterator_types = ["parallel", "parallel", "parallel", "reduction"]} ins(%5140 : tensor<1x32x80x80xf32>) outs(%5141 : tensor<1x32x80x1xf32>) {
    ^bb0(%in: f32, %out: f32):
      %5230 = arith.maxf %in, %out : f32
      linalg.yield %5230 : f32
    } -> tensor<1x32x80x1xf32>
    %5144 = tensor.empty() : tensor<1x32x80x80xf32>
    %5145 = linalg.generic {indexing_maps = [#map5, #map17, #map5], iterator_types = ["parallel", "parallel", "parallel", "parallel"]} ins(%5140, %5143 : tensor<1x32x80x80xf32>, tensor<1x32x80x1xf32>) outs(%5144 : tensor<1x32x80x80xf32>) {
    ^bb0(%in: f32, %in_1777: f32, %out: f32):
      %5230 = arith.subf %in, %in_1777 : f32
      %5231 = math.exp %5230 : f32
      linalg.yield %5231 : f32
    } -> tensor<1x32x80x80xf32>
    %5146 = tensor.empty() : tensor<1x32x80x1xf32>
    %5147 = linalg.generic {indexing_maps = [#map5], iterator_types = ["parallel", "parallel", "parallel", "parallel"]} outs(%5146 : tensor<1x32x80x1xf32>) {
    ^bb0(%out: f32):
      %cst_1777 = arith.constant 0.000000e+00 : f32
      linalg.yield %cst_1777 : f32
    } -> tensor<1x32x80x1xf32>
    %5148 = linalg.generic {indexing_maps = [#map5, #map17], iterator_types = ["parallel", "parallel", "parallel", "reduction"]} ins(%5145 : tensor<1x32x80x80xf32>) outs(%5147 : tensor<1x32x80x1xf32>) {
    ^bb0(%in: f32, %out: f32):
      %5230 = arith.addf %in, %out : f32
      linalg.yield %5230 : f32
    } -> tensor<1x32x80x1xf32>
    %5149 = tensor.empty() : tensor<1x32x80x80xf32>
    %5150 = linalg.generic {indexing_maps = [#map5, #map17, #map5], iterator_types = ["parallel", "parallel", "parallel", "parallel"]} ins(%5145, %5148 : tensor<1x32x80x80xf32>, tensor<1x32x80x1xf32>) outs(%5149 : tensor<1x32x80x80xf32>) {
    ^bb0(%in: f32, %in_1777: f32, %out: f32):
      %5230 = arith.divf %in, %in_1777 : f32
      linalg.yield %5230 : f32
    } -> tensor<1x32x80x80xf32>
    %5151 = tensor.empty() : tensor<1x32x80x80xf32>
    %extracted_slice_1766 = tensor.extract_slice %5150[0, 0, 0, 0] [1, 32, 80, 80] [1, 1, 1, 1] : tensor<1x32x80x80xf32> to tensor<1x32x80x80xf32>
    %inserted_slice_1767 = tensor.insert_slice %extracted_slice_1766 into %5151[0, 0, 0, 0] [1, 32, 80, 80] [1, 1, 1, 1] : tensor<1x32x80x80xf32> into tensor<1x32x80x80xf32>
    %5152 = "tosa.reshape"(%inserted_slice_1767) {new_shape = array<i64: 32, 80, 80>} : (tensor<1x32x80x80xf32>) -> tensor<32x80x80xf32>
    %5153 = tensor.empty() : tensor<1x32x80x128xf32>
    %extracted_slice_1768 = tensor.extract_slice %5090[0, 0, 0, 0] [1, 32, 80, 128] [1, 1, 1, 1] : tensor<1x32x80x128xf32> to tensor<1x32x80x128xf32>
    %inserted_slice_1769 = tensor.insert_slice %extracted_slice_1768 into %5153[0, 0, 0, 0] [1, 32, 80, 128] [1, 1, 1, 1] : tensor<1x32x80x128xf32> into tensor<1x32x80x128xf32>
    %5154 = "tosa.reshape"(%inserted_slice_1769) {new_shape = array<i64: 32, 80, 128>} : (tensor<1x32x80x128xf32>) -> tensor<32x80x128xf32>
    %5155 = tensor.empty() : tensor<32x80x128xf32>
    %5156 = linalg.batch_matmul ins(%5152, %5154 : tensor<32x80x80xf32>, tensor<32x80x128xf32>) outs(%5155 : tensor<32x80x128xf32>) -> tensor<32x80x128xf32>
    %5157 = "tosa.reshape"(%5156) {new_shape = array<i64: 1, 32, 80, 128>} : (tensor<32x80x128xf32>) -> tensor<1x32x80x128xf32>
    %5158 = tensor.empty() : tensor<1x80x32x128xf32>
    %5159 = linalg.generic {indexing_maps = [#map11, #map5], iterator_types = ["parallel", "parallel", "parallel", "parallel"]} ins(%5157 : tensor<1x32x80x128xf32>) outs(%5158 : tensor<1x80x32x128xf32>) {
    ^bb0(%in: f32, %out: f32):
      linalg.yield %in : f32
    } -> tensor<1x80x32x128xf32>
    %extracted_slice_1770 = tensor.extract_slice %5159[0, 0, 0, 0] [1, 80, 32, 128] [1, 1, 1, 1] : tensor<1x80x32x128xf32> to tensor<1x80x32x128xf32>
    %5160 = "tosa.reshape"(%extracted_slice_1770) {new_shape = array<i64: 1, 80, 4096>} : (tensor<1x80x32x128xf32>) -> tensor<1x80x4096xf32>
    %5161 = tensor.empty() : tensor<4096x4096xf32>
    %5162 = linalg.generic {indexing_maps = [#map4, #map9], iterator_types = ["parallel", "parallel"]} ins(%expanded_506 : tensor<4096x4096xf32>) outs(%5161 : tensor<4096x4096xf32>) {
    ^bb0(%in: f32, %out: f32):
      linalg.yield %in : f32
    } -> tensor<4096x4096xf32>
    %5163 = "tosa.reshape"(%5160) {new_shape = array<i64: 80, 4096>} : (tensor<1x80x4096xf32>) -> tensor<80x4096xf32>
    %5164 = tensor.empty() : tensor<80x4096xf32>
    %5165 = linalg.generic {indexing_maps = [#map4], iterator_types = ["parallel", "parallel"]} outs(%5164 : tensor<80x4096xf32>) {
    ^bb0(%out: f32):
      %cst_1777 = arith.constant 0.000000e+00 : f32
      linalg.yield %cst_1777 : f32
    } -> tensor<80x4096xf32>
    %5166 = linalg.generic {indexing_maps = [#map3, #map10, #map], iterator_types = ["parallel", "parallel", "reduction"]} ins(%5163, %5162 : tensor<80x4096xf32>, tensor<4096x4096xf32>) outs(%5165 : tensor<80x4096xf32>) {
    ^bb0(%in: f32, %in_1777: f32, %out: f32):
      %5230 = arith.mulf %in, %in_1777 : f32
      %5231 = arith.addf %5230, %out : f32
      linalg.yield %5231 : f32
    } -> tensor<80x4096xf32>
    %5167 = "tosa.reshape"(%5166) {new_shape = array<i64: 1, 80, 4096>} : (tensor<80x4096xf32>) -> tensor<1x80x4096xf32>
    %5168 = "tosa.add"(%5046, %5167) : (tensor<1x80x4096xf32>, tensor<1x80x4096xf32>) -> tensor<1x80x4096xf32>
    %5169 = tensor.empty() : tensor<1x80x4096xf32>
    %c2_i32_1771 = arith.constant 2 : i32
    %5170 = linalg.generic {indexing_maps = [#map1, #map1], iterator_types = ["parallel", "parallel", "parallel"]} ins(%5168 : tensor<1x80x4096xf32>) outs(%5169 : tensor<1x80x4096xf32>) {
    ^bb0(%in: f32, %out: f32):
      %5230 = math.fpowi %in, %c2_i32_1771 : f32, i32
      linalg.yield %5230 : f32
    } -> tensor<1x80x4096xf32>
    %cst_1772 = arith.constant dense<0.000000e+00> : tensor<1x80x1xf32>
    %5171 = linalg.generic {indexing_maps = [#map6, #map7], iterator_types = ["parallel", "parallel", "reduction", "parallel"]} ins(%5170 : tensor<1x80x4096xf32>) outs(%cst_1772 : tensor<1x80x1xf32>) {
    ^bb0(%in: f32, %out: f32):
      %cst_1777 = arith.constant 4.096000e+03 : f32
      %5230 = arith.divf %in, %cst_1777 : f32
      %5231 = arith.addf %5230, %out : f32
      linalg.yield %5231 : f32
    } -> tensor<1x80x1xf32>
    %cst_1773 = arith.constant dense<9.99999997E-7> : tensor<f32>
    %5172 = "tosa.add"(%5171, %cst_1773) : (tensor<1x80x1xf32>, tensor<f32>) -> tensor<1x80x1xf32>
    %5173 = tensor.empty() : tensor<1x80x1xf32>
    %5174 = linalg.generic {indexing_maps = [#map1, #map1], iterator_types = ["parallel", "parallel", "parallel"]} ins(%5172 : tensor<1x80x1xf32>) outs(%5173 : tensor<1x80x1xf32>) {
    ^bb0(%in: f32, %out: f32):
      %5230 = math.rsqrt %in : f32
      linalg.yield %5230 : f32
    } -> tensor<1x80x1xf32>
    %5175 = tensor.empty() : tensor<1x80x4096xf32>
    %5176 = tensor.empty() : tensor<1x80x4096xf32>
    %5177 = linalg.generic {indexing_maps = [#map7, #map6], iterator_types = ["parallel", "parallel", "parallel", "reduction"]} ins(%5174 : tensor<1x80x1xf32>) outs(%5176 : tensor<1x80x4096xf32>) {
    ^bb0(%in: f32, %out: f32):
      linalg.yield %in : f32
    } -> tensor<1x80x4096xf32>
    %5178 = linalg.generic {indexing_maps = [#map1, #map1, #map1], iterator_types = ["parallel", "parallel", "parallel"]} ins(%5168, %5177 : tensor<1x80x4096xf32>, tensor<1x80x4096xf32>) outs(%5175 : tensor<1x80x4096xf32>) {
    ^bb0(%in: f32, %in_1777: f32, %out: f32):
      %5230 = arith.mulf %in, %in_1777 : f32
      linalg.yield %5230 : f32
    } -> tensor<1x80x4096xf32>
    %5179 = tensor.empty() : tensor<1x80x4096xf32>
    %5180 = tensor.empty() : tensor<1x80x4096xf32>
    %5181 = linalg.generic {indexing_maps = [#map8, #map1], iterator_types = ["parallel", "parallel", "parallel"]} ins(%extracted_slice_62 : tensor<4096xf32>) outs(%5180 : tensor<1x80x4096xf32>) {
    ^bb0(%in: f32, %out: f32):
      linalg.yield %in : f32
    } -> tensor<1x80x4096xf32>
    %5182 = linalg.generic {indexing_maps = [#map1, #map1, #map1], iterator_types = ["parallel", "parallel", "parallel"]} ins(%5181, %5178 : tensor<1x80x4096xf32>, tensor<1x80x4096xf32>) outs(%5179 : tensor<1x80x4096xf32>) {
    ^bb0(%in: f32, %in_1777: f32, %out: f32):
      %5230 = arith.mulf %in, %in_1777 : f32
      linalg.yield %5230 : f32
    } -> tensor<1x80x4096xf32>
    %5183 = tensor.empty() : tensor<4096x11008xf32>
    %5184 = linalg.generic {indexing_maps = [#map4, #map9], iterator_types = ["parallel", "parallel"]} ins(%expanded_508 : tensor<11008x4096xf32>) outs(%5183 : tensor<4096x11008xf32>) {
    ^bb0(%in: f32, %out: f32):
      linalg.yield %in : f32
    } -> tensor<4096x11008xf32>
    %5185 = "tosa.reshape"(%5182) {new_shape = array<i64: 80, 4096>} : (tensor<1x80x4096xf32>) -> tensor<80x4096xf32>
    %5186 = tensor.empty() : tensor<80x11008xf32>
    %5187 = linalg.generic {indexing_maps = [#map4], iterator_types = ["parallel", "parallel"]} outs(%5186 : tensor<80x11008xf32>) {
    ^bb0(%out: f32):
      %cst_1777 = arith.constant 0.000000e+00 : f32
      linalg.yield %cst_1777 : f32
    } -> tensor<80x11008xf32>
    %5188 = linalg.generic {indexing_maps = [#map3, #map10, #map], iterator_types = ["parallel", "parallel", "reduction"]} ins(%5185, %5184 : tensor<80x4096xf32>, tensor<4096x11008xf32>) outs(%5187 : tensor<80x11008xf32>) {
    ^bb0(%in: f32, %in_1777: f32, %out: f32):
      %5230 = arith.mulf %in, %in_1777 : f32
      %5231 = arith.addf %5230, %out : f32
      linalg.yield %5231 : f32
    } -> tensor<80x11008xf32>
    %5189 = "tosa.reshape"(%5188) {new_shape = array<i64: 1, 80, 11008>} : (tensor<80x11008xf32>) -> tensor<1x80x11008xf32>
    %5190 = tensor.empty() : tensor<1x80x11008xf32>
    %5191 = linalg.generic {indexing_maps = [#map1, #map1], iterator_types = ["parallel", "parallel", "parallel"]} ins(%5189 : tensor<1x80x11008xf32>) outs(%5190 : tensor<1x80x11008xf32>) {
    ^bb0(%in: f32, %out: f32):
      %5230 = arith.negf %in : f32
      %5231 = math.exp %5230 : f32
      %cst_1777 = arith.constant 1.000000e+00 : f32
      %5232 = arith.addf %cst_1777, %5231 : f32
      %5233 = arith.divf %in, %5232 : f32
      linalg.yield %5233 : f32
    } -> tensor<1x80x11008xf32>
    %5192 = tensor.empty() : tensor<4096x11008xf32>
    %5193 = linalg.generic {indexing_maps = [#map4, #map9], iterator_types = ["parallel", "parallel"]} ins(%expanded_510 : tensor<11008x4096xf32>) outs(%5192 : tensor<4096x11008xf32>) {
    ^bb0(%in: f32, %out: f32):
      linalg.yield %in : f32
    } -> tensor<4096x11008xf32>
    %5194 = "tosa.reshape"(%5182) {new_shape = array<i64: 80, 4096>} : (tensor<1x80x4096xf32>) -> tensor<80x4096xf32>
    %5195 = tensor.empty() : tensor<80x11008xf32>
    %5196 = linalg.generic {indexing_maps = [#map4], iterator_types = ["parallel", "parallel"]} outs(%5195 : tensor<80x11008xf32>) {
    ^bb0(%out: f32):
      %cst_1777 = arith.constant 0.000000e+00 : f32
      linalg.yield %cst_1777 : f32
    } -> tensor<80x11008xf32>
    %5197 = linalg.generic {indexing_maps = [#map3, #map10, #map], iterator_types = ["parallel", "parallel", "reduction"]} ins(%5194, %5193 : tensor<80x4096xf32>, tensor<4096x11008xf32>) outs(%5196 : tensor<80x11008xf32>) {
    ^bb0(%in: f32, %in_1777: f32, %out: f32):
      %5230 = arith.mulf %in, %in_1777 : f32
      %5231 = arith.addf %5230, %out : f32
      linalg.yield %5231 : f32
    } -> tensor<80x11008xf32>
    %5198 = "tosa.reshape"(%5197) {new_shape = array<i64: 1, 80, 11008>} : (tensor<80x11008xf32>) -> tensor<1x80x11008xf32>
    %5199 = tensor.empty() : tensor<1x80x11008xf32>
    %5200 = linalg.generic {indexing_maps = [#map1, #map1, #map1], iterator_types = ["parallel", "parallel", "parallel"]} ins(%5191, %5198 : tensor<1x80x11008xf32>, tensor<1x80x11008xf32>) outs(%5199 : tensor<1x80x11008xf32>) {
    ^bb0(%in: f32, %in_1777: f32, %out: f32):
      %5230 = arith.mulf %in, %in_1777 : f32
      linalg.yield %5230 : f32
    } -> tensor<1x80x11008xf32>
    %5201 = tensor.empty() : tensor<11008x4096xf32>
    %5202 = linalg.generic {indexing_maps = [#map4, #map9], iterator_types = ["parallel", "parallel"]} ins(%expanded_512 : tensor<4096x11008xf32>) outs(%5201 : tensor<11008x4096xf32>) {
    ^bb0(%in: f32, %out: f32):
      linalg.yield %in : f32
    } -> tensor<11008x4096xf32>
    %5203 = "tosa.reshape"(%5200) {new_shape = array<i64: 80, 11008>} : (tensor<1x80x11008xf32>) -> tensor<80x11008xf32>
    %5204 = tensor.empty() : tensor<80x4096xf32>
    %5205 = linalg.generic {indexing_maps = [#map4], iterator_types = ["parallel", "parallel"]} outs(%5204 : tensor<80x4096xf32>) {
    ^bb0(%out: f32):
      %cst_1777 = arith.constant 0.000000e+00 : f32
      linalg.yield %cst_1777 : f32
    } -> tensor<80x4096xf32>
    %5206 = linalg.generic {indexing_maps = [#map3, #map10, #map], iterator_types = ["parallel", "parallel", "reduction"]} ins(%5203, %5202 : tensor<80x11008xf32>, tensor<11008x4096xf32>) outs(%5205 : tensor<80x4096xf32>) {
    ^bb0(%in: f32, %in_1777: f32, %out: f32):
      %5230 = arith.mulf %in, %in_1777 : f32
      %5231 = arith.addf %5230, %out : f32
      linalg.yield %5231 : f32
    } -> tensor<80x4096xf32>
    %5207 = "tosa.reshape"(%5206) {new_shape = array<i64: 1, 80, 4096>} : (tensor<80x4096xf32>) -> tensor<1x80x4096xf32>
    %5208 = "tosa.add"(%5168, %5207) : (tensor<1x80x4096xf32>, tensor<1x80x4096xf32>) -> tensor<1x80x4096xf32>
    %5209 = tensor.empty() : tensor<1x80x4096xf32>
    %c2_i32_1774 = arith.constant 2 : i32
    %5210 = linalg.generic {indexing_maps = [#map1, #map1], iterator_types = ["parallel", "parallel", "parallel"]} ins(%5208 : tensor<1x80x4096xf32>) outs(%5209 : tensor<1x80x4096xf32>) {
    ^bb0(%in: f32, %out: f32):
      %5230 = math.fpowi %in, %c2_i32_1774 : f32, i32
      linalg.yield %5230 : f32
    } -> tensor<1x80x4096xf32>
    %cst_1775 = arith.constant dense<0.000000e+00> : tensor<1x80x1xf32>
    %5211 = linalg.generic {indexing_maps = [#map6, #map7], iterator_types = ["parallel", "parallel", "reduction", "parallel"]} ins(%5210 : tensor<1x80x4096xf32>) outs(%cst_1775 : tensor<1x80x1xf32>) {
    ^bb0(%in: f32, %out: f32):
      %cst_1777 = arith.constant 4.096000e+03 : f32
      %5230 = arith.divf %in, %cst_1777 : f32
      %5231 = arith.addf %5230, %out : f32
      linalg.yield %5231 : f32
    } -> tensor<1x80x1xf32>
    %cst_1776 = arith.constant dense<9.99999997E-7> : tensor<f32>
    %5212 = "tosa.add"(%5211, %cst_1776) : (tensor<1x80x1xf32>, tensor<f32>) -> tensor<1x80x1xf32>
    %5213 = tensor.empty() : tensor<1x80x1xf32>
    %5214 = linalg.generic {indexing_maps = [#map1, #map1], iterator_types = ["parallel", "parallel", "parallel"]} ins(%5212 : tensor<1x80x1xf32>) outs(%5213 : tensor<1x80x1xf32>) {
    ^bb0(%in: f32, %out: f32):
      %5230 = math.rsqrt %in : f32
      linalg.yield %5230 : f32
    } -> tensor<1x80x1xf32>
    %5215 = tensor.empty() : tensor<1x80x4096xf32>
    %5216 = tensor.empty() : tensor<1x80x4096xf32>
    %5217 = linalg.generic {indexing_maps = [#map7, #map6], iterator_types = ["parallel", "parallel", "parallel", "reduction"]} ins(%5214 : tensor<1x80x1xf32>) outs(%5216 : tensor<1x80x4096xf32>) {
    ^bb0(%in: f32, %out: f32):
      linalg.yield %in : f32
    } -> tensor<1x80x4096xf32>
    %5218 = linalg.generic {indexing_maps = [#map1, #map1, #map1], iterator_types = ["parallel", "parallel", "parallel"]} ins(%5208, %5217 : tensor<1x80x4096xf32>, tensor<1x80x4096xf32>) outs(%5215 : tensor<1x80x4096xf32>) {
    ^bb0(%in: f32, %in_1777: f32, %out: f32):
      %5230 = arith.mulf %in, %in_1777 : f32
      linalg.yield %5230 : f32
    } -> tensor<1x80x4096xf32>
    %5219 = tensor.empty() : tensor<1x80x4096xf32>
    %5220 = tensor.empty() : tensor<1x80x4096xf32>
    %5221 = linalg.generic {indexing_maps = [#map8, #map1], iterator_types = ["parallel", "parallel", "parallel"]} ins(%extracted_slice_63 : tensor<4096xf32>) outs(%5220 : tensor<1x80x4096xf32>) {
    ^bb0(%in: f32, %out: f32):
      linalg.yield %in : f32
    } -> tensor<1x80x4096xf32>
    %5222 = linalg.generic {indexing_maps = [#map1, #map1, #map1], iterator_types = ["parallel", "parallel", "parallel"]} ins(%5221, %5218 : tensor<1x80x4096xf32>, tensor<1x80x4096xf32>) outs(%5219 : tensor<1x80x4096xf32>) {
    ^bb0(%in: f32, %in_1777: f32, %out: f32):
      %5230 = arith.mulf %in, %in_1777 : f32
      linalg.yield %5230 : f32
    } -> tensor<1x80x4096xf32>
    %5223 = tensor.empty() : tensor<4096x32000xf32>
    %5224 = linalg.generic {indexing_maps = [#map4, #map9], iterator_types = ["parallel", "parallel"]} ins(%expanded_514 : tensor<32000x4096xf32>) outs(%5223 : tensor<4096x32000xf32>) {
    ^bb0(%in: f32, %out: f32):
      linalg.yield %in : f32
    } -> tensor<4096x32000xf32>
    %5225 = "tosa.reshape"(%5222) {new_shape = array<i64: 80, 4096>} : (tensor<1x80x4096xf32>) -> tensor<80x4096xf32>
    %5226 = tensor.empty() : tensor<80x32000xf32>
    %5227 = linalg.generic {indexing_maps = [#map4], iterator_types = ["parallel", "parallel"]} outs(%5226 : tensor<80x32000xf32>) {
    ^bb0(%out: f32):
      %cst_1777 = arith.constant 0.000000e+00 : f32
      linalg.yield %cst_1777 : f32
    } -> tensor<80x32000xf32>
    %5228 = linalg.generic {indexing_maps = [#map3, #map10, #map], iterator_types = ["parallel", "parallel", "reduction"]} ins(%5225, %5224 : tensor<80x4096xf32>, tensor<4096x32000xf32>) outs(%5227 : tensor<80x32000xf32>) {
    ^bb0(%in: f32, %in_1777: f32, %out: f32):
      %5230 = arith.mulf %in, %in_1777 : f32
      %5231 = arith.addf %5230, %out : f32
      linalg.yield %5231 : f32
    } -> tensor<80x32000xf32>
    %5229 = "tosa.reshape"(%5228) {new_shape = array<i64: 1, 80, 32000>} : (tensor<80x32000xf32>) -> tensor<1x80x32000xf32>
    return %5229 : tensor<1x80x32000xf32>
  }
}
