module {
  memref.global "private" constant @__constant_1x1x1x80xi1 : memref<1x1x1x80xi1> = dense<true>
  memref.global "private" constant @__constant_xf32 : memref<f32> = dense<9.99999997E-7>
  memref.global "private" constant @__constant_1x80x1xf32 : memref<1x80x1xf32> = dense<0.000000e+00>
  memref.global "private" constant @__constant_xi64 : memref<i64> = dense<1>
  memref.global "private" constant @__constant_80x80xf32 : memref<80x80xf32> = dense<-3.40282347E+38>
  memref.global "private" constant @__constant_1x80xi64 : memref<1x80xi64> = dense<[[0, 1, 2, 3, 4, 5, 6, 7, 8, 9, 10, 11, 12, 13, 14, 15, 16, 17, 18, 19, 20, 21, 22, 23, 24, 25, 26, 27, 28, 29, 30, 31, 32, 33, 34, 35, 36, 37, 38, 39, 40, 41, 42, 43, 44, 45, 46, 47, 48, 49, 50, 51, 52, 53, 54, 55, 56, 57, 58, 59, 60, 61, 62, 63, 64, 65, 66, 67, 68, 69, 70, 71, 72, 73, 74, 75, 76, 77, 78, 79]]>
  memref.global "private" constant @__constant_80xi64 : memref<80xi64> = dense<[0, 1, 2, 3, 4, 5, 6, 7, 8, 9, 10, 11, 12, 13, 14, 15, 16, 17, 18, 19, 20, 21, 22, 23, 24, 25, 26, 27, 28, 29, 30, 31, 32, 33, 34, 35, 36, 37, 38, 39, 40, 41, 42, 43, 44, 45, 46, 47, 48, 49, 50, 51, 52, 53, 54, 55, 56, 57, 58, 59, 60, 61, 62, 63, 64, 65, 66, 67, 68, 69, 70, 71, 72, 73, 74, 75, 76, 77, 78, 79]>
  func.func @forward(%arg0: memref<6755192832xf32>, %arg1: memref<1x80xi64>) -> memref<1x80x4096xf32> {
    %c32000 = arith.constant 32000 : index
    %c11008 = arith.constant 11008 : index
    %c64 = arith.constant 64 : index
    %c128 = arith.constant 128 : index
    %c32 = arith.constant 32 : index
    %c4096 = arith.constant 4096 : index
    %c80 = arith.constant 80 : index
    %c1 = arith.constant 1 : index
    %cst = arith.constant 11.3137083 : f32
    %cst_0 = arith.constant 4.096000e+03 : f32
    %c2_i32 = arith.constant 2 : i32
    %cst_1 = arith.constant -3.40282347E+38 : f32
    %cst_2 = arith.constant 1.000000e+00 : f32
    %cst_3 = arith.constant 0.000000e+00 : f32
    %c0 = arith.constant 0 : index
    %0 = memref.get_global @__constant_80xi64 : memref<80xi64>
    %1 = memref.get_global @__constant_1x80xi64 : memref<1x80xi64>
    %2 = memref.get_global @__constant_80x80xf32 : memref<80x80xf32>
    %3 = memref.get_global @__constant_xi64 : memref<i64>
    %4 = memref.get_global @__constant_1x80x1xf32 : memref<1x80x1xf32>
    %5 = memref.get_global @__constant_xf32 : memref<f32>
    %6 = memref.get_global @__constant_1x1x1x80xi1 : memref<1x1x1x80xi1>
    %base_buffer, %offset, %sizes, %strides = memref.extract_strided_metadata %arg0 : memref<6755192832xf32> -> memref<f32>, index, index, index
    %reinterpret_cast = memref.reinterpret_cast %base_buffer to offset: [0], sizes: [4096], strides: [1] : memref<f32> to memref<4096xf32, strided<[1]>>
    %base_buffer_4, %offset_5, %sizes_6, %strides_7 = memref.extract_strided_metadata %arg0 : memref<6755192832xf32> -> memref<f32>, index, index, index
    %reinterpret_cast_8 = memref.reinterpret_cast %base_buffer_4 to offset: [4096], sizes: [4096], strides: [1] : memref<f32> to memref<4096xf32, strided<[1], offset: 4096>>
    %alloc = memref.alloc() : memref<4096xf32>
    memref.copy %reinterpret_cast_8, %alloc : memref<4096xf32, strided<[1], offset: 4096>> to memref<4096xf32>
    %base_buffer_9, %offset_10, %sizes_11, %strides_12 = memref.extract_strided_metadata %arg0 : memref<6755192832xf32> -> memref<f32>, index, index, index
    %reinterpret_cast_13 = memref.reinterpret_cast %base_buffer_9 to offset: [8192], sizes: [4096], strides: [1] : memref<f32> to memref<4096xf32, strided<[1], offset: 8192>>
    %alloc_14 = memref.alloc() : memref<4096xf32>
    memref.copy %reinterpret_cast_13, %alloc_14 : memref<4096xf32, strided<[1], offset: 8192>> to memref<4096xf32>
    %base_buffer_15, %offset_16, %sizes_17, %strides_18 = memref.extract_strided_metadata %arg0 : memref<6755192832xf32> -> memref<f32>, index, index, index
    %reinterpret_cast_19 = memref.reinterpret_cast %base_buffer_15 to offset: [12288], sizes: [4096], strides: [1] : memref<f32> to memref<4096xf32, strided<[1], offset: 12288>>
    %alloc_20 = memref.alloc() : memref<4096xf32>
    memref.copy %reinterpret_cast_19, %alloc_20 : memref<4096xf32, strided<[1], offset: 12288>> to memref<4096xf32>
    %base_buffer_21, %offset_22, %sizes_23, %strides_24 = memref.extract_strided_metadata %arg0 : memref<6755192832xf32> -> memref<f32>, index, index, index
    %reinterpret_cast_25 = memref.reinterpret_cast %base_buffer_21 to offset: [16384], sizes: [4096], strides: [1] : memref<f32> to memref<4096xf32, strided<[1], offset: 16384>>
    %alloc_26 = memref.alloc() : memref<4096xf32>
    memref.copy %reinterpret_cast_25, %alloc_26 : memref<4096xf32, strided<[1], offset: 16384>> to memref<4096xf32>
    %base_buffer_27, %offset_28, %sizes_29, %strides_30 = memref.extract_strided_metadata %arg0 : memref<6755192832xf32> -> memref<f32>, index, index, index
    %reinterpret_cast_31 = memref.reinterpret_cast %base_buffer_27 to offset: [20480], sizes: [4096], strides: [1] : memref<f32> to memref<4096xf32, strided<[1], offset: 20480>>
    %alloc_32 = memref.alloc() : memref<4096xf32>
    memref.copy %reinterpret_cast_31, %alloc_32 : memref<4096xf32, strided<[1], offset: 20480>> to memref<4096xf32>
    %base_buffer_33, %offset_34, %sizes_35, %strides_36 = memref.extract_strided_metadata %arg0 : memref<6755192832xf32> -> memref<f32>, index, index, index
    %reinterpret_cast_37 = memref.reinterpret_cast %base_buffer_33 to offset: [24576], sizes: [4096], strides: [1] : memref<f32> to memref<4096xf32, strided<[1], offset: 24576>>
    %alloc_38 = memref.alloc() : memref<4096xf32>
    memref.copy %reinterpret_cast_37, %alloc_38 : memref<4096xf32, strided<[1], offset: 24576>> to memref<4096xf32>
    %base_buffer_39, %offset_40, %sizes_41, %strides_42 = memref.extract_strided_metadata %arg0 : memref<6755192832xf32> -> memref<f32>, index, index, index
    %reinterpret_cast_43 = memref.reinterpret_cast %base_buffer_39 to offset: [28672], sizes: [4096], strides: [1] : memref<f32> to memref<4096xf32, strided<[1], offset: 28672>>
    %alloc_44 = memref.alloc() : memref<4096xf32>
    memref.copy %reinterpret_cast_43, %alloc_44 : memref<4096xf32, strided<[1], offset: 28672>> to memref<4096xf32>
    %base_buffer_45, %offset_46, %sizes_47, %strides_48 = memref.extract_strided_metadata %arg0 : memref<6755192832xf32> -> memref<f32>, index, index, index
    %reinterpret_cast_49 = memref.reinterpret_cast %base_buffer_45 to offset: [32768], sizes: [4096], strides: [1] : memref<f32> to memref<4096xf32, strided<[1], offset: 32768>>
    %alloc_50 = memref.alloc() : memref<4096xf32>
    memref.copy %reinterpret_cast_49, %alloc_50 : memref<4096xf32, strided<[1], offset: 32768>> to memref<4096xf32>
    %base_buffer_51, %offset_52, %sizes_53, %strides_54 = memref.extract_strided_metadata %arg0 : memref<6755192832xf32> -> memref<f32>, index, index, index
    %reinterpret_cast_55 = memref.reinterpret_cast %base_buffer_51 to offset: [36864], sizes: [4096], strides: [1] : memref<f32> to memref<4096xf32, strided<[1], offset: 36864>>
    %alloc_56 = memref.alloc() : memref<4096xf32>
    memref.copy %reinterpret_cast_55, %alloc_56 : memref<4096xf32, strided<[1], offset: 36864>> to memref<4096xf32>
    %base_buffer_57, %offset_58, %sizes_59, %strides_60 = memref.extract_strided_metadata %arg0 : memref<6755192832xf32> -> memref<f32>, index, index, index
    %reinterpret_cast_61 = memref.reinterpret_cast %base_buffer_57 to offset: [40960], sizes: [4096], strides: [1] : memref<f32> to memref<4096xf32, strided<[1], offset: 40960>>
    %alloc_62 = memref.alloc() : memref<4096xf32>
    memref.copy %reinterpret_cast_61, %alloc_62 : memref<4096xf32, strided<[1], offset: 40960>> to memref<4096xf32>
    %base_buffer_63, %offset_64, %sizes_65, %strides_66 = memref.extract_strided_metadata %arg0 : memref<6755192832xf32> -> memref<f32>, index, index, index
    %reinterpret_cast_67 = memref.reinterpret_cast %base_buffer_63 to offset: [45056], sizes: [4096], strides: [1] : memref<f32> to memref<4096xf32, strided<[1], offset: 45056>>
    %alloc_68 = memref.alloc() : memref<4096xf32>
    memref.copy %reinterpret_cast_67, %alloc_68 : memref<4096xf32, strided<[1], offset: 45056>> to memref<4096xf32>
    %base_buffer_69, %offset_70, %sizes_71, %strides_72 = memref.extract_strided_metadata %arg0 : memref<6755192832xf32> -> memref<f32>, index, index, index
    %reinterpret_cast_73 = memref.reinterpret_cast %base_buffer_69 to offset: [49152], sizes: [4096], strides: [1] : memref<f32> to memref<4096xf32, strided<[1], offset: 49152>>
    %alloc_74 = memref.alloc() : memref<4096xf32>
    memref.copy %reinterpret_cast_73, %alloc_74 : memref<4096xf32, strided<[1], offset: 49152>> to memref<4096xf32>
    %base_buffer_75, %offset_76, %sizes_77, %strides_78 = memref.extract_strided_metadata %arg0 : memref<6755192832xf32> -> memref<f32>, index, index, index
    %reinterpret_cast_79 = memref.reinterpret_cast %base_buffer_75 to offset: [53248], sizes: [4096], strides: [1] : memref<f32> to memref<4096xf32, strided<[1], offset: 53248>>
    %alloc_80 = memref.alloc() : memref<4096xf32>
    memref.copy %reinterpret_cast_79, %alloc_80 : memref<4096xf32, strided<[1], offset: 53248>> to memref<4096xf32>
    %base_buffer_81, %offset_82, %sizes_83, %strides_84 = memref.extract_strided_metadata %arg0 : memref<6755192832xf32> -> memref<f32>, index, index, index
    %reinterpret_cast_85 = memref.reinterpret_cast %base_buffer_81 to offset: [57344], sizes: [4096], strides: [1] : memref<f32> to memref<4096xf32, strided<[1], offset: 57344>>
    %alloc_86 = memref.alloc() : memref<4096xf32>
    memref.copy %reinterpret_cast_85, %alloc_86 : memref<4096xf32, strided<[1], offset: 57344>> to memref<4096xf32>
    %base_buffer_87, %offset_88, %sizes_89, %strides_90 = memref.extract_strided_metadata %arg0 : memref<6755192832xf32> -> memref<f32>, index, index, index
    %reinterpret_cast_91 = memref.reinterpret_cast %base_buffer_87 to offset: [61440], sizes: [4096], strides: [1] : memref<f32> to memref<4096xf32, strided<[1], offset: 61440>>
    %alloc_92 = memref.alloc() : memref<4096xf32>
    memref.copy %reinterpret_cast_91, %alloc_92 : memref<4096xf32, strided<[1], offset: 61440>> to memref<4096xf32>
    %base_buffer_93, %offset_94, %sizes_95, %strides_96 = memref.extract_strided_metadata %arg0 : memref<6755192832xf32> -> memref<f32>, index, index, index
    %reinterpret_cast_97 = memref.reinterpret_cast %base_buffer_93 to offset: [65536], sizes: [4096], strides: [1] : memref<f32> to memref<4096xf32, strided<[1], offset: 65536>>
    %alloc_98 = memref.alloc() : memref<4096xf32>
    memref.copy %reinterpret_cast_97, %alloc_98 : memref<4096xf32, strided<[1], offset: 65536>> to memref<4096xf32>
    %base_buffer_99, %offset_100, %sizes_101, %strides_102 = memref.extract_strided_metadata %arg0 : memref<6755192832xf32> -> memref<f32>, index, index, index
    %reinterpret_cast_103 = memref.reinterpret_cast %base_buffer_99 to offset: [69632], sizes: [4096], strides: [1] : memref<f32> to memref<4096xf32, strided<[1], offset: 69632>>
    %alloc_104 = memref.alloc() : memref<4096xf32>
    memref.copy %reinterpret_cast_103, %alloc_104 : memref<4096xf32, strided<[1], offset: 69632>> to memref<4096xf32>
    %base_buffer_105, %offset_106, %sizes_107, %strides_108 = memref.extract_strided_metadata %arg0 : memref<6755192832xf32> -> memref<f32>, index, index, index
    %reinterpret_cast_109 = memref.reinterpret_cast %base_buffer_105 to offset: [73728], sizes: [4096], strides: [1] : memref<f32> to memref<4096xf32, strided<[1], offset: 73728>>
    %alloc_110 = memref.alloc() : memref<4096xf32>
    memref.copy %reinterpret_cast_109, %alloc_110 : memref<4096xf32, strided<[1], offset: 73728>> to memref<4096xf32>
    %base_buffer_111, %offset_112, %sizes_113, %strides_114 = memref.extract_strided_metadata %arg0 : memref<6755192832xf32> -> memref<f32>, index, index, index
    %reinterpret_cast_115 = memref.reinterpret_cast %base_buffer_111 to offset: [77824], sizes: [4096], strides: [1] : memref<f32> to memref<4096xf32, strided<[1], offset: 77824>>
    %alloc_116 = memref.alloc() : memref<4096xf32>
    memref.copy %reinterpret_cast_115, %alloc_116 : memref<4096xf32, strided<[1], offset: 77824>> to memref<4096xf32>
    %base_buffer_117, %offset_118, %sizes_119, %strides_120 = memref.extract_strided_metadata %arg0 : memref<6755192832xf32> -> memref<f32>, index, index, index
    %reinterpret_cast_121 = memref.reinterpret_cast %base_buffer_117 to offset: [81920], sizes: [4096], strides: [1] : memref<f32> to memref<4096xf32, strided<[1], offset: 81920>>
    %alloc_122 = memref.alloc() : memref<4096xf32>
    memref.copy %reinterpret_cast_121, %alloc_122 : memref<4096xf32, strided<[1], offset: 81920>> to memref<4096xf32>
    %base_buffer_123, %offset_124, %sizes_125, %strides_126 = memref.extract_strided_metadata %arg0 : memref<6755192832xf32> -> memref<f32>, index, index, index
    %reinterpret_cast_127 = memref.reinterpret_cast %base_buffer_123 to offset: [86016], sizes: [4096], strides: [1] : memref<f32> to memref<4096xf32, strided<[1], offset: 86016>>
    %alloc_128 = memref.alloc() : memref<4096xf32>
    memref.copy %reinterpret_cast_127, %alloc_128 : memref<4096xf32, strided<[1], offset: 86016>> to memref<4096xf32>
    %base_buffer_129, %offset_130, %sizes_131, %strides_132 = memref.extract_strided_metadata %arg0 : memref<6755192832xf32> -> memref<f32>, index, index, index
    %reinterpret_cast_133 = memref.reinterpret_cast %base_buffer_129 to offset: [90112], sizes: [4096], strides: [1] : memref<f32> to memref<4096xf32, strided<[1], offset: 90112>>
    %alloc_134 = memref.alloc() : memref<4096xf32>
    memref.copy %reinterpret_cast_133, %alloc_134 : memref<4096xf32, strided<[1], offset: 90112>> to memref<4096xf32>
    %base_buffer_135, %offset_136, %sizes_137, %strides_138 = memref.extract_strided_metadata %arg0 : memref<6755192832xf32> -> memref<f32>, index, index, index
    %reinterpret_cast_139 = memref.reinterpret_cast %base_buffer_135 to offset: [94208], sizes: [4096], strides: [1] : memref<f32> to memref<4096xf32, strided<[1], offset: 94208>>
    %alloc_140 = memref.alloc() : memref<4096xf32>
    memref.copy %reinterpret_cast_139, %alloc_140 : memref<4096xf32, strided<[1], offset: 94208>> to memref<4096xf32>
    %base_buffer_141, %offset_142, %sizes_143, %strides_144 = memref.extract_strided_metadata %arg0 : memref<6755192832xf32> -> memref<f32>, index, index, index
    %reinterpret_cast_145 = memref.reinterpret_cast %base_buffer_141 to offset: [98304], sizes: [4096], strides: [1] : memref<f32> to memref<4096xf32, strided<[1], offset: 98304>>
    %alloc_146 = memref.alloc() : memref<4096xf32>
    memref.copy %reinterpret_cast_145, %alloc_146 : memref<4096xf32, strided<[1], offset: 98304>> to memref<4096xf32>
    %base_buffer_147, %offset_148, %sizes_149, %strides_150 = memref.extract_strided_metadata %arg0 : memref<6755192832xf32> -> memref<f32>, index, index, index
    %reinterpret_cast_151 = memref.reinterpret_cast %base_buffer_147 to offset: [102400], sizes: [4096], strides: [1] : memref<f32> to memref<4096xf32, strided<[1], offset: 102400>>
    %alloc_152 = memref.alloc() : memref<4096xf32>
    memref.copy %reinterpret_cast_151, %alloc_152 : memref<4096xf32, strided<[1], offset: 102400>> to memref<4096xf32>
    %base_buffer_153, %offset_154, %sizes_155, %strides_156 = memref.extract_strided_metadata %arg0 : memref<6755192832xf32> -> memref<f32>, index, index, index
    %reinterpret_cast_157 = memref.reinterpret_cast %base_buffer_153 to offset: [106496], sizes: [4096], strides: [1] : memref<f32> to memref<4096xf32, strided<[1], offset: 106496>>
    %alloc_158 = memref.alloc() : memref<4096xf32>
    memref.copy %reinterpret_cast_157, %alloc_158 : memref<4096xf32, strided<[1], offset: 106496>> to memref<4096xf32>
    %base_buffer_159, %offset_160, %sizes_161, %strides_162 = memref.extract_strided_metadata %arg0 : memref<6755192832xf32> -> memref<f32>, index, index, index
    %reinterpret_cast_163 = memref.reinterpret_cast %base_buffer_159 to offset: [110592], sizes: [4096], strides: [1] : memref<f32> to memref<4096xf32, strided<[1], offset: 110592>>
    %alloc_164 = memref.alloc() : memref<4096xf32>
    memref.copy %reinterpret_cast_163, %alloc_164 : memref<4096xf32, strided<[1], offset: 110592>> to memref<4096xf32>
    %base_buffer_165, %offset_166, %sizes_167, %strides_168 = memref.extract_strided_metadata %arg0 : memref<6755192832xf32> -> memref<f32>, index, index, index
    %reinterpret_cast_169 = memref.reinterpret_cast %base_buffer_165 to offset: [114688], sizes: [4096], strides: [1] : memref<f32> to memref<4096xf32, strided<[1], offset: 114688>>
    %alloc_170 = memref.alloc() : memref<4096xf32>
    memref.copy %reinterpret_cast_169, %alloc_170 : memref<4096xf32, strided<[1], offset: 114688>> to memref<4096xf32>
    %base_buffer_171, %offset_172, %sizes_173, %strides_174 = memref.extract_strided_metadata %arg0 : memref<6755192832xf32> -> memref<f32>, index, index, index
    %reinterpret_cast_175 = memref.reinterpret_cast %base_buffer_171 to offset: [118784], sizes: [4096], strides: [1] : memref<f32> to memref<4096xf32, strided<[1], offset: 118784>>
    %alloc_176 = memref.alloc() : memref<4096xf32>
    memref.copy %reinterpret_cast_175, %alloc_176 : memref<4096xf32, strided<[1], offset: 118784>> to memref<4096xf32>
    %base_buffer_177, %offset_178, %sizes_179, %strides_180 = memref.extract_strided_metadata %arg0 : memref<6755192832xf32> -> memref<f32>, index, index, index
    %reinterpret_cast_181 = memref.reinterpret_cast %base_buffer_177 to offset: [122880], sizes: [4096], strides: [1] : memref<f32> to memref<4096xf32, strided<[1], offset: 122880>>
    %alloc_182 = memref.alloc() : memref<4096xf32>
    memref.copy %reinterpret_cast_181, %alloc_182 : memref<4096xf32, strided<[1], offset: 122880>> to memref<4096xf32>
    %base_buffer_183, %offset_184, %sizes_185, %strides_186 = memref.extract_strided_metadata %arg0 : memref<6755192832xf32> -> memref<f32>, index, index, index
    %reinterpret_cast_187 = memref.reinterpret_cast %base_buffer_183 to offset: [126976], sizes: [4096], strides: [1] : memref<f32> to memref<4096xf32, strided<[1], offset: 126976>>
    %alloc_188 = memref.alloc() : memref<4096xf32>
    memref.copy %reinterpret_cast_187, %alloc_188 : memref<4096xf32, strided<[1], offset: 126976>> to memref<4096xf32>
    %base_buffer_189, %offset_190, %sizes_191, %strides_192 = memref.extract_strided_metadata %arg0 : memref<6755192832xf32> -> memref<f32>, index, index, index
    %reinterpret_cast_193 = memref.reinterpret_cast %base_buffer_189 to offset: [131072], sizes: [4096], strides: [1] : memref<f32> to memref<4096xf32, strided<[1], offset: 131072>>
    %alloc_194 = memref.alloc() : memref<4096xf32>
    memref.copy %reinterpret_cast_193, %alloc_194 : memref<4096xf32, strided<[1], offset: 131072>> to memref<4096xf32>
    %base_buffer_195, %offset_196, %sizes_197, %strides_198 = memref.extract_strided_metadata %arg0 : memref<6755192832xf32> -> memref<f32>, index, index, index
    %reinterpret_cast_199 = memref.reinterpret_cast %base_buffer_195 to offset: [135168], sizes: [4096], strides: [1] : memref<f32> to memref<4096xf32, strided<[1], offset: 135168>>
    %alloc_200 = memref.alloc() : memref<4096xf32>
    memref.copy %reinterpret_cast_199, %alloc_200 : memref<4096xf32, strided<[1], offset: 135168>> to memref<4096xf32>
    %base_buffer_201, %offset_202, %sizes_203, %strides_204 = memref.extract_strided_metadata %arg0 : memref<6755192832xf32> -> memref<f32>, index, index, index
    %reinterpret_cast_205 = memref.reinterpret_cast %base_buffer_201 to offset: [139264], sizes: [4096], strides: [1] : memref<f32> to memref<4096xf32, strided<[1], offset: 139264>>
    %alloc_206 = memref.alloc() : memref<4096xf32>
    memref.copy %reinterpret_cast_205, %alloc_206 : memref<4096xf32, strided<[1], offset: 139264>> to memref<4096xf32>
    %base_buffer_207, %offset_208, %sizes_209, %strides_210 = memref.extract_strided_metadata %arg0 : memref<6755192832xf32> -> memref<f32>, index, index, index
    %reinterpret_cast_211 = memref.reinterpret_cast %base_buffer_207 to offset: [143360], sizes: [4096], strides: [1] : memref<f32> to memref<4096xf32, strided<[1], offset: 143360>>
    %alloc_212 = memref.alloc() : memref<4096xf32>
    memref.copy %reinterpret_cast_211, %alloc_212 : memref<4096xf32, strided<[1], offset: 143360>> to memref<4096xf32>
    %base_buffer_213, %offset_214, %sizes_215, %strides_216 = memref.extract_strided_metadata %arg0 : memref<6755192832xf32> -> memref<f32>, index, index, index
    %reinterpret_cast_217 = memref.reinterpret_cast %base_buffer_213 to offset: [147456], sizes: [4096], strides: [1] : memref<f32> to memref<4096xf32, strided<[1], offset: 147456>>
    %alloc_218 = memref.alloc() : memref<4096xf32>
    memref.copy %reinterpret_cast_217, %alloc_218 : memref<4096xf32, strided<[1], offset: 147456>> to memref<4096xf32>
    %base_buffer_219, %offset_220, %sizes_221, %strides_222 = memref.extract_strided_metadata %arg0 : memref<6755192832xf32> -> memref<f32>, index, index, index
    %reinterpret_cast_223 = memref.reinterpret_cast %base_buffer_219 to offset: [151552], sizes: [4096], strides: [1] : memref<f32> to memref<4096xf32, strided<[1], offset: 151552>>
    %alloc_224 = memref.alloc() : memref<4096xf32>
    memref.copy %reinterpret_cast_223, %alloc_224 : memref<4096xf32, strided<[1], offset: 151552>> to memref<4096xf32>
    %base_buffer_225, %offset_226, %sizes_227, %strides_228 = memref.extract_strided_metadata %arg0 : memref<6755192832xf32> -> memref<f32>, index, index, index
    %reinterpret_cast_229 = memref.reinterpret_cast %base_buffer_225 to offset: [155648], sizes: [4096], strides: [1] : memref<f32> to memref<4096xf32, strided<[1], offset: 155648>>
    %alloc_230 = memref.alloc() : memref<4096xf32>
    memref.copy %reinterpret_cast_229, %alloc_230 : memref<4096xf32, strided<[1], offset: 155648>> to memref<4096xf32>
    %base_buffer_231, %offset_232, %sizes_233, %strides_234 = memref.extract_strided_metadata %arg0 : memref<6755192832xf32> -> memref<f32>, index, index, index
    %reinterpret_cast_235 = memref.reinterpret_cast %base_buffer_231 to offset: [159744], sizes: [4096], strides: [1] : memref<f32> to memref<4096xf32, strided<[1], offset: 159744>>
    %alloc_236 = memref.alloc() : memref<4096xf32>
    memref.copy %reinterpret_cast_235, %alloc_236 : memref<4096xf32, strided<[1], offset: 159744>> to memref<4096xf32>
    %base_buffer_237, %offset_238, %sizes_239, %strides_240 = memref.extract_strided_metadata %arg0 : memref<6755192832xf32> -> memref<f32>, index, index, index
    %reinterpret_cast_241 = memref.reinterpret_cast %base_buffer_237 to offset: [163840], sizes: [4096], strides: [1] : memref<f32> to memref<4096xf32, strided<[1], offset: 163840>>
    %alloc_242 = memref.alloc() : memref<4096xf32>
    memref.copy %reinterpret_cast_241, %alloc_242 : memref<4096xf32, strided<[1], offset: 163840>> to memref<4096xf32>
    %base_buffer_243, %offset_244, %sizes_245, %strides_246 = memref.extract_strided_metadata %arg0 : memref<6755192832xf32> -> memref<f32>, index, index, index
    %reinterpret_cast_247 = memref.reinterpret_cast %base_buffer_243 to offset: [167936], sizes: [4096], strides: [1] : memref<f32> to memref<4096xf32, strided<[1], offset: 167936>>
    %alloc_248 = memref.alloc() : memref<4096xf32>
    memref.copy %reinterpret_cast_247, %alloc_248 : memref<4096xf32, strided<[1], offset: 167936>> to memref<4096xf32>
    %base_buffer_249, %offset_250, %sizes_251, %strides_252 = memref.extract_strided_metadata %arg0 : memref<6755192832xf32> -> memref<f32>, index, index, index
    %reinterpret_cast_253 = memref.reinterpret_cast %base_buffer_249 to offset: [172032], sizes: [4096], strides: [1] : memref<f32> to memref<4096xf32, strided<[1], offset: 172032>>
    %alloc_254 = memref.alloc() : memref<4096xf32>
    memref.copy %reinterpret_cast_253, %alloc_254 : memref<4096xf32, strided<[1], offset: 172032>> to memref<4096xf32>
    %base_buffer_255, %offset_256, %sizes_257, %strides_258 = memref.extract_strided_metadata %arg0 : memref<6755192832xf32> -> memref<f32>, index, index, index
    %reinterpret_cast_259 = memref.reinterpret_cast %base_buffer_255 to offset: [176128], sizes: [4096], strides: [1] : memref<f32> to memref<4096xf32, strided<[1], offset: 176128>>
    %alloc_260 = memref.alloc() : memref<4096xf32>
    memref.copy %reinterpret_cast_259, %alloc_260 : memref<4096xf32, strided<[1], offset: 176128>> to memref<4096xf32>
    %base_buffer_261, %offset_262, %sizes_263, %strides_264 = memref.extract_strided_metadata %arg0 : memref<6755192832xf32> -> memref<f32>, index, index, index
    %reinterpret_cast_265 = memref.reinterpret_cast %base_buffer_261 to offset: [180224], sizes: [4096], strides: [1] : memref<f32> to memref<4096xf32, strided<[1], offset: 180224>>
    %alloc_266 = memref.alloc() : memref<4096xf32>
    memref.copy %reinterpret_cast_265, %alloc_266 : memref<4096xf32, strided<[1], offset: 180224>> to memref<4096xf32>
    %base_buffer_267, %offset_268, %sizes_269, %strides_270 = memref.extract_strided_metadata %arg0 : memref<6755192832xf32> -> memref<f32>, index, index, index
    %reinterpret_cast_271 = memref.reinterpret_cast %base_buffer_267 to offset: [184320], sizes: [4096], strides: [1] : memref<f32> to memref<4096xf32, strided<[1], offset: 184320>>
    %alloc_272 = memref.alloc() : memref<4096xf32>
    memref.copy %reinterpret_cast_271, %alloc_272 : memref<4096xf32, strided<[1], offset: 184320>> to memref<4096xf32>
    %base_buffer_273, %offset_274, %sizes_275, %strides_276 = memref.extract_strided_metadata %arg0 : memref<6755192832xf32> -> memref<f32>, index, index, index
    %reinterpret_cast_277 = memref.reinterpret_cast %base_buffer_273 to offset: [188416], sizes: [4096], strides: [1] : memref<f32> to memref<4096xf32, strided<[1], offset: 188416>>
    %alloc_278 = memref.alloc() : memref<4096xf32>
    memref.copy %reinterpret_cast_277, %alloc_278 : memref<4096xf32, strided<[1], offset: 188416>> to memref<4096xf32>
    %base_buffer_279, %offset_280, %sizes_281, %strides_282 = memref.extract_strided_metadata %arg0 : memref<6755192832xf32> -> memref<f32>, index, index, index
    %reinterpret_cast_283 = memref.reinterpret_cast %base_buffer_279 to offset: [192512], sizes: [4096], strides: [1] : memref<f32> to memref<4096xf32, strided<[1], offset: 192512>>
    %alloc_284 = memref.alloc() : memref<4096xf32>
    memref.copy %reinterpret_cast_283, %alloc_284 : memref<4096xf32, strided<[1], offset: 192512>> to memref<4096xf32>
    %base_buffer_285, %offset_286, %sizes_287, %strides_288 = memref.extract_strided_metadata %arg0 : memref<6755192832xf32> -> memref<f32>, index, index, index
    %reinterpret_cast_289 = memref.reinterpret_cast %base_buffer_285 to offset: [196608], sizes: [4096], strides: [1] : memref<f32> to memref<4096xf32, strided<[1], offset: 196608>>
    %alloc_290 = memref.alloc() : memref<4096xf32>
    memref.copy %reinterpret_cast_289, %alloc_290 : memref<4096xf32, strided<[1], offset: 196608>> to memref<4096xf32>
    %base_buffer_291, %offset_292, %sizes_293, %strides_294 = memref.extract_strided_metadata %arg0 : memref<6755192832xf32> -> memref<f32>, index, index, index
    %reinterpret_cast_295 = memref.reinterpret_cast %base_buffer_291 to offset: [200704], sizes: [4096], strides: [1] : memref<f32> to memref<4096xf32, strided<[1], offset: 200704>>
    %alloc_296 = memref.alloc() : memref<4096xf32>
    memref.copy %reinterpret_cast_295, %alloc_296 : memref<4096xf32, strided<[1], offset: 200704>> to memref<4096xf32>
    %base_buffer_297, %offset_298, %sizes_299, %strides_300 = memref.extract_strided_metadata %arg0 : memref<6755192832xf32> -> memref<f32>, index, index, index
    %reinterpret_cast_301 = memref.reinterpret_cast %base_buffer_297 to offset: [204800], sizes: [4096], strides: [1] : memref<f32> to memref<4096xf32, strided<[1], offset: 204800>>
    %alloc_302 = memref.alloc() : memref<4096xf32>
    memref.copy %reinterpret_cast_301, %alloc_302 : memref<4096xf32, strided<[1], offset: 204800>> to memref<4096xf32>
    %base_buffer_303, %offset_304, %sizes_305, %strides_306 = memref.extract_strided_metadata %arg0 : memref<6755192832xf32> -> memref<f32>, index, index, index
    %reinterpret_cast_307 = memref.reinterpret_cast %base_buffer_303 to offset: [208896], sizes: [4096], strides: [1] : memref<f32> to memref<4096xf32, strided<[1], offset: 208896>>
    %alloc_308 = memref.alloc() : memref<4096xf32>
    memref.copy %reinterpret_cast_307, %alloc_308 : memref<4096xf32, strided<[1], offset: 208896>> to memref<4096xf32>
    %base_buffer_309, %offset_310, %sizes_311, %strides_312 = memref.extract_strided_metadata %arg0 : memref<6755192832xf32> -> memref<f32>, index, index, index
    %reinterpret_cast_313 = memref.reinterpret_cast %base_buffer_309 to offset: [212992], sizes: [4096], strides: [1] : memref<f32> to memref<4096xf32, strided<[1], offset: 212992>>
    %alloc_314 = memref.alloc() : memref<4096xf32>
    memref.copy %reinterpret_cast_313, %alloc_314 : memref<4096xf32, strided<[1], offset: 212992>> to memref<4096xf32>
    %base_buffer_315, %offset_316, %sizes_317, %strides_318 = memref.extract_strided_metadata %arg0 : memref<6755192832xf32> -> memref<f32>, index, index, index
    %reinterpret_cast_319 = memref.reinterpret_cast %base_buffer_315 to offset: [217088], sizes: [4096], strides: [1] : memref<f32> to memref<4096xf32, strided<[1], offset: 217088>>
    %alloc_320 = memref.alloc() : memref<4096xf32>
    memref.copy %reinterpret_cast_319, %alloc_320 : memref<4096xf32, strided<[1], offset: 217088>> to memref<4096xf32>
    %base_buffer_321, %offset_322, %sizes_323, %strides_324 = memref.extract_strided_metadata %arg0 : memref<6755192832xf32> -> memref<f32>, index, index, index
    %reinterpret_cast_325 = memref.reinterpret_cast %base_buffer_321 to offset: [221184], sizes: [4096], strides: [1] : memref<f32> to memref<4096xf32, strided<[1], offset: 221184>>
    %alloc_326 = memref.alloc() : memref<4096xf32>
    memref.copy %reinterpret_cast_325, %alloc_326 : memref<4096xf32, strided<[1], offset: 221184>> to memref<4096xf32>
    %base_buffer_327, %offset_328, %sizes_329, %strides_330 = memref.extract_strided_metadata %arg0 : memref<6755192832xf32> -> memref<f32>, index, index, index
    %reinterpret_cast_331 = memref.reinterpret_cast %base_buffer_327 to offset: [225280], sizes: [4096], strides: [1] : memref<f32> to memref<4096xf32, strided<[1], offset: 225280>>
    %alloc_332 = memref.alloc() : memref<4096xf32>
    memref.copy %reinterpret_cast_331, %alloc_332 : memref<4096xf32, strided<[1], offset: 225280>> to memref<4096xf32>
    %base_buffer_333, %offset_334, %sizes_335, %strides_336 = memref.extract_strided_metadata %arg0 : memref<6755192832xf32> -> memref<f32>, index, index, index
    %reinterpret_cast_337 = memref.reinterpret_cast %base_buffer_333 to offset: [229376], sizes: [4096], strides: [1] : memref<f32> to memref<4096xf32, strided<[1], offset: 229376>>
    %alloc_338 = memref.alloc() : memref<4096xf32>
    memref.copy %reinterpret_cast_337, %alloc_338 : memref<4096xf32, strided<[1], offset: 229376>> to memref<4096xf32>
    %base_buffer_339, %offset_340, %sizes_341, %strides_342 = memref.extract_strided_metadata %arg0 : memref<6755192832xf32> -> memref<f32>, index, index, index
    %reinterpret_cast_343 = memref.reinterpret_cast %base_buffer_339 to offset: [233472], sizes: [4096], strides: [1] : memref<f32> to memref<4096xf32, strided<[1], offset: 233472>>
    %alloc_344 = memref.alloc() : memref<4096xf32>
    memref.copy %reinterpret_cast_343, %alloc_344 : memref<4096xf32, strided<[1], offset: 233472>> to memref<4096xf32>
    %base_buffer_345, %offset_346, %sizes_347, %strides_348 = memref.extract_strided_metadata %arg0 : memref<6755192832xf32> -> memref<f32>, index, index, index
    %reinterpret_cast_349 = memref.reinterpret_cast %base_buffer_345 to offset: [237568], sizes: [4096], strides: [1] : memref<f32> to memref<4096xf32, strided<[1], offset: 237568>>
    %alloc_350 = memref.alloc() : memref<4096xf32>
    memref.copy %reinterpret_cast_349, %alloc_350 : memref<4096xf32, strided<[1], offset: 237568>> to memref<4096xf32>
    %base_buffer_351, %offset_352, %sizes_353, %strides_354 = memref.extract_strided_metadata %arg0 : memref<6755192832xf32> -> memref<f32>, index, index, index
    %reinterpret_cast_355 = memref.reinterpret_cast %base_buffer_351 to offset: [241664], sizes: [4096], strides: [1] : memref<f32> to memref<4096xf32, strided<[1], offset: 241664>>
    %alloc_356 = memref.alloc() : memref<4096xf32>
    memref.copy %reinterpret_cast_355, %alloc_356 : memref<4096xf32, strided<[1], offset: 241664>> to memref<4096xf32>
    %base_buffer_357, %offset_358, %sizes_359, %strides_360 = memref.extract_strided_metadata %arg0 : memref<6755192832xf32> -> memref<f32>, index, index, index
    %reinterpret_cast_361 = memref.reinterpret_cast %base_buffer_357 to offset: [245760], sizes: [4096], strides: [1] : memref<f32> to memref<4096xf32, strided<[1], offset: 245760>>
    %alloc_362 = memref.alloc() : memref<4096xf32>
    memref.copy %reinterpret_cast_361, %alloc_362 : memref<4096xf32, strided<[1], offset: 245760>> to memref<4096xf32>
    %base_buffer_363, %offset_364, %sizes_365, %strides_366 = memref.extract_strided_metadata %arg0 : memref<6755192832xf32> -> memref<f32>, index, index, index
    %reinterpret_cast_367 = memref.reinterpret_cast %base_buffer_363 to offset: [249856], sizes: [4096], strides: [1] : memref<f32> to memref<4096xf32, strided<[1], offset: 249856>>
    %alloc_368 = memref.alloc() : memref<4096xf32>
    memref.copy %reinterpret_cast_367, %alloc_368 : memref<4096xf32, strided<[1], offset: 249856>> to memref<4096xf32>
    %base_buffer_369, %offset_370, %sizes_371, %strides_372 = memref.extract_strided_metadata %arg0 : memref<6755192832xf32> -> memref<f32>, index, index, index
    %reinterpret_cast_373 = memref.reinterpret_cast %base_buffer_369 to offset: [253952], sizes: [4096], strides: [1] : memref<f32> to memref<4096xf32, strided<[1], offset: 253952>>
    %alloc_374 = memref.alloc() : memref<4096xf32>
    memref.copy %reinterpret_cast_373, %alloc_374 : memref<4096xf32, strided<[1], offset: 253952>> to memref<4096xf32>
    %base_buffer_375, %offset_376, %sizes_377, %strides_378 = memref.extract_strided_metadata %arg0 : memref<6755192832xf32> -> memref<f32>, index, index, index
    %reinterpret_cast_379 = memref.reinterpret_cast %base_buffer_375 to offset: [258048], sizes: [4096], strides: [1] : memref<f32> to memref<4096xf32, strided<[1], offset: 258048>>
    %alloc_380 = memref.alloc() : memref<4096xf32>
    memref.copy %reinterpret_cast_379, %alloc_380 : memref<4096xf32, strided<[1], offset: 258048>> to memref<4096xf32>
    %base_buffer_381, %offset_382, %sizes_383, %strides_384 = memref.extract_strided_metadata %arg0 : memref<6755192832xf32> -> memref<f32>, index, index, index
    %reinterpret_cast_385 = memref.reinterpret_cast %base_buffer_381 to offset: [262144], sizes: [4096], strides: [1] : memref<f32> to memref<4096xf32, strided<[1], offset: 262144>>
    %alloc_386 = memref.alloc() : memref<4096xf32>
    memref.copy %reinterpret_cast_385, %alloc_386 : memref<4096xf32, strided<[1], offset: 262144>> to memref<4096xf32>
    %base_buffer_387, %offset_388, %sizes_389, %strides_390 = memref.extract_strided_metadata %arg0 : memref<6755192832xf32> -> memref<f32>, index, index, index
    %reinterpret_cast_391 = memref.reinterpret_cast %base_buffer_387 to offset: [266240], sizes: [32000, 4096], strides: [4096, 1] : memref<f32> to memref<32000x4096xf32, strided<[4096, 1], offset: 266240>>
    %base_buffer_392, %offset_393, %sizes_394, %strides_395 = memref.extract_strided_metadata %arg0 : memref<6755192832xf32> -> memref<f32>, index, index, index
    %reinterpret_cast_396 = memref.reinterpret_cast %base_buffer_392 to offset: [131338240], sizes: [4096, 4096], strides: [4096, 1] : memref<f32> to memref<4096x4096xf32, strided<[4096, 1], offset: 131338240>>
    %alloc_397 = memref.alloc() : memref<4096x4096xf32>
    memref.copy %reinterpret_cast_396, %alloc_397 : memref<4096x4096xf32, strided<[4096, 1], offset: 131338240>> to memref<4096x4096xf32>
    %base_buffer_398, %offset_399, %sizes_400, %strides_401 = memref.extract_strided_metadata %arg0 : memref<6755192832xf32> -> memref<f32>, index, index, index
    %reinterpret_cast_402 = memref.reinterpret_cast %base_buffer_398 to offset: [148115456], sizes: [4096, 4096], strides: [4096, 1] : memref<f32> to memref<4096x4096xf32, strided<[4096, 1], offset: 148115456>>
    %alloc_403 = memref.alloc() : memref<4096x4096xf32>
    memref.copy %reinterpret_cast_402, %alloc_403 : memref<4096x4096xf32, strided<[4096, 1], offset: 148115456>> to memref<4096x4096xf32>
    %base_buffer_404, %offset_405, %sizes_406, %strides_407 = memref.extract_strided_metadata %arg0 : memref<6755192832xf32> -> memref<f32>, index, index, index
    %reinterpret_cast_408 = memref.reinterpret_cast %base_buffer_404 to offset: [164892672], sizes: [4096, 4096], strides: [4096, 1] : memref<f32> to memref<4096x4096xf32, strided<[4096, 1], offset: 164892672>>
    %alloc_409 = memref.alloc() : memref<4096x4096xf32>
    memref.copy %reinterpret_cast_408, %alloc_409 : memref<4096x4096xf32, strided<[4096, 1], offset: 164892672>> to memref<4096x4096xf32>
    %base_buffer_410, %offset_411, %sizes_412, %strides_413 = memref.extract_strided_metadata %arg0 : memref<6755192832xf32> -> memref<f32>, index, index, index
    %reinterpret_cast_414 = memref.reinterpret_cast %base_buffer_410 to offset: [181669888], sizes: [4096, 4096], strides: [4096, 1] : memref<f32> to memref<4096x4096xf32, strided<[4096, 1], offset: 181669888>>
    %alloc_415 = memref.alloc() : memref<4096x4096xf32>
    memref.copy %reinterpret_cast_414, %alloc_415 : memref<4096x4096xf32, strided<[4096, 1], offset: 181669888>> to memref<4096x4096xf32>
    %base_buffer_416, %offset_417, %sizes_418, %strides_419 = memref.extract_strided_metadata %arg0 : memref<6755192832xf32> -> memref<f32>, index, index, index
    %reinterpret_cast_420 = memref.reinterpret_cast %base_buffer_416 to offset: [198447104], sizes: [11008, 4096], strides: [4096, 1] : memref<f32> to memref<11008x4096xf32, strided<[4096, 1], offset: 198447104>>
    %alloc_421 = memref.alloc() : memref<11008x4096xf32>
    memref.copy %reinterpret_cast_420, %alloc_421 : memref<11008x4096xf32, strided<[4096, 1], offset: 198447104>> to memref<11008x4096xf32>
    %base_buffer_422, %offset_423, %sizes_424, %strides_425 = memref.extract_strided_metadata %arg0 : memref<6755192832xf32> -> memref<f32>, index, index, index
    %reinterpret_cast_426 = memref.reinterpret_cast %base_buffer_422 to offset: [243535872], sizes: [11008, 4096], strides: [4096, 1] : memref<f32> to memref<11008x4096xf32, strided<[4096, 1], offset: 243535872>>
    %alloc_427 = memref.alloc() : memref<11008x4096xf32>
    memref.copy %reinterpret_cast_426, %alloc_427 : memref<11008x4096xf32, strided<[4096, 1], offset: 243535872>> to memref<11008x4096xf32>
    %base_buffer_428, %offset_429, %sizes_430, %strides_431 = memref.extract_strided_metadata %arg0 : memref<6755192832xf32> -> memref<f32>, index, index, index
    %reinterpret_cast_432 = memref.reinterpret_cast %base_buffer_428 to offset: [288624640], sizes: [4096, 11008], strides: [11008, 1] : memref<f32> to memref<4096x11008xf32, strided<[11008, 1], offset: 288624640>>
    %alloc_433 = memref.alloc() : memref<4096x11008xf32>
    memref.copy %reinterpret_cast_432, %alloc_433 : memref<4096x11008xf32, strided<[11008, 1], offset: 288624640>> to memref<4096x11008xf32>
    %base_buffer_434, %offset_435, %sizes_436, %strides_437 = memref.extract_strided_metadata %arg0 : memref<6755192832xf32> -> memref<f32>, index, index, index
    %reinterpret_cast_438 = memref.reinterpret_cast %base_buffer_434 to offset: [333713408], sizes: [4096, 4096], strides: [4096, 1] : memref<f32> to memref<4096x4096xf32, strided<[4096, 1], offset: 333713408>>
    %alloc_439 = memref.alloc() : memref<4096x4096xf32>
    memref.copy %reinterpret_cast_438, %alloc_439 : memref<4096x4096xf32, strided<[4096, 1], offset: 333713408>> to memref<4096x4096xf32>
    %base_buffer_440, %offset_441, %sizes_442, %strides_443 = memref.extract_strided_metadata %arg0 : memref<6755192832xf32> -> memref<f32>, index, index, index
    %reinterpret_cast_444 = memref.reinterpret_cast %base_buffer_440 to offset: [350490624], sizes: [4096, 4096], strides: [4096, 1] : memref<f32> to memref<4096x4096xf32, strided<[4096, 1], offset: 350490624>>
    %alloc_445 = memref.alloc() : memref<4096x4096xf32>
    memref.copy %reinterpret_cast_444, %alloc_445 : memref<4096x4096xf32, strided<[4096, 1], offset: 350490624>> to memref<4096x4096xf32>
    %base_buffer_446, %offset_447, %sizes_448, %strides_449 = memref.extract_strided_metadata %arg0 : memref<6755192832xf32> -> memref<f32>, index, index, index
    %reinterpret_cast_450 = memref.reinterpret_cast %base_buffer_446 to offset: [367267840], sizes: [4096, 4096], strides: [4096, 1] : memref<f32> to memref<4096x4096xf32, strided<[4096, 1], offset: 367267840>>
    %alloc_451 = memref.alloc() : memref<4096x4096xf32>
    memref.copy %reinterpret_cast_450, %alloc_451 : memref<4096x4096xf32, strided<[4096, 1], offset: 367267840>> to memref<4096x4096xf32>
    %base_buffer_452, %offset_453, %sizes_454, %strides_455 = memref.extract_strided_metadata %arg0 : memref<6755192832xf32> -> memref<f32>, index, index, index
    %reinterpret_cast_456 = memref.reinterpret_cast %base_buffer_452 to offset: [384045056], sizes: [4096, 4096], strides: [4096, 1] : memref<f32> to memref<4096x4096xf32, strided<[4096, 1], offset: 384045056>>
    %alloc_457 = memref.alloc() : memref<4096x4096xf32>
    memref.copy %reinterpret_cast_456, %alloc_457 : memref<4096x4096xf32, strided<[4096, 1], offset: 384045056>> to memref<4096x4096xf32>
    %base_buffer_458, %offset_459, %sizes_460, %strides_461 = memref.extract_strided_metadata %arg0 : memref<6755192832xf32> -> memref<f32>, index, index, index
    %reinterpret_cast_462 = memref.reinterpret_cast %base_buffer_458 to offset: [400822272], sizes: [11008, 4096], strides: [4096, 1] : memref<f32> to memref<11008x4096xf32, strided<[4096, 1], offset: 400822272>>
    %alloc_463 = memref.alloc() : memref<11008x4096xf32>
    memref.copy %reinterpret_cast_462, %alloc_463 : memref<11008x4096xf32, strided<[4096, 1], offset: 400822272>> to memref<11008x4096xf32>
    %base_buffer_464, %offset_465, %sizes_466, %strides_467 = memref.extract_strided_metadata %arg0 : memref<6755192832xf32> -> memref<f32>, index, index, index
    %reinterpret_cast_468 = memref.reinterpret_cast %base_buffer_464 to offset: [445911040], sizes: [11008, 4096], strides: [4096, 1] : memref<f32> to memref<11008x4096xf32, strided<[4096, 1], offset: 445911040>>
    %alloc_469 = memref.alloc() : memref<11008x4096xf32>
    memref.copy %reinterpret_cast_468, %alloc_469 : memref<11008x4096xf32, strided<[4096, 1], offset: 445911040>> to memref<11008x4096xf32>
    %base_buffer_470, %offset_471, %sizes_472, %strides_473 = memref.extract_strided_metadata %arg0 : memref<6755192832xf32> -> memref<f32>, index, index, index
    %reinterpret_cast_474 = memref.reinterpret_cast %base_buffer_470 to offset: [490999808], sizes: [4096, 11008], strides: [11008, 1] : memref<f32> to memref<4096x11008xf32, strided<[11008, 1], offset: 490999808>>
    %alloc_475 = memref.alloc() : memref<4096x11008xf32>
    memref.copy %reinterpret_cast_474, %alloc_475 : memref<4096x11008xf32, strided<[11008, 1], offset: 490999808>> to memref<4096x11008xf32>
    %base_buffer_476, %offset_477, %sizes_478, %strides_479 = memref.extract_strided_metadata %arg0 : memref<6755192832xf32> -> memref<f32>, index, index, index
    %reinterpret_cast_480 = memref.reinterpret_cast %base_buffer_476 to offset: [536088576], sizes: [4096, 4096], strides: [4096, 1] : memref<f32> to memref<4096x4096xf32, strided<[4096, 1], offset: 536088576>>
    %alloc_481 = memref.alloc() : memref<4096x4096xf32>
    memref.copy %reinterpret_cast_480, %alloc_481 : memref<4096x4096xf32, strided<[4096, 1], offset: 536088576>> to memref<4096x4096xf32>
    %base_buffer_482, %offset_483, %sizes_484, %strides_485 = memref.extract_strided_metadata %arg0 : memref<6755192832xf32> -> memref<f32>, index, index, index
    %reinterpret_cast_486 = memref.reinterpret_cast %base_buffer_482 to offset: [552865792], sizes: [4096, 4096], strides: [4096, 1] : memref<f32> to memref<4096x4096xf32, strided<[4096, 1], offset: 552865792>>
    %alloc_487 = memref.alloc() : memref<4096x4096xf32>
    memref.copy %reinterpret_cast_486, %alloc_487 : memref<4096x4096xf32, strided<[4096, 1], offset: 552865792>> to memref<4096x4096xf32>
    %base_buffer_488, %offset_489, %sizes_490, %strides_491 = memref.extract_strided_metadata %arg0 : memref<6755192832xf32> -> memref<f32>, index, index, index
    %reinterpret_cast_492 = memref.reinterpret_cast %base_buffer_488 to offset: [569643008], sizes: [4096, 4096], strides: [4096, 1] : memref<f32> to memref<4096x4096xf32, strided<[4096, 1], offset: 569643008>>
    %alloc_493 = memref.alloc() : memref<4096x4096xf32>
    memref.copy %reinterpret_cast_492, %alloc_493 : memref<4096x4096xf32, strided<[4096, 1], offset: 569643008>> to memref<4096x4096xf32>
    %base_buffer_494, %offset_495, %sizes_496, %strides_497 = memref.extract_strided_metadata %arg0 : memref<6755192832xf32> -> memref<f32>, index, index, index
    %reinterpret_cast_498 = memref.reinterpret_cast %base_buffer_494 to offset: [586420224], sizes: [4096, 4096], strides: [4096, 1] : memref<f32> to memref<4096x4096xf32, strided<[4096, 1], offset: 586420224>>
    %alloc_499 = memref.alloc() : memref<4096x4096xf32>
    memref.copy %reinterpret_cast_498, %alloc_499 : memref<4096x4096xf32, strided<[4096, 1], offset: 586420224>> to memref<4096x4096xf32>
    %base_buffer_500, %offset_501, %sizes_502, %strides_503 = memref.extract_strided_metadata %arg0 : memref<6755192832xf32> -> memref<f32>, index, index, index
    %reinterpret_cast_504 = memref.reinterpret_cast %base_buffer_500 to offset: [603197440], sizes: [11008, 4096], strides: [4096, 1] : memref<f32> to memref<11008x4096xf32, strided<[4096, 1], offset: 603197440>>
    %alloc_505 = memref.alloc() : memref<11008x4096xf32>
    memref.copy %reinterpret_cast_504, %alloc_505 : memref<11008x4096xf32, strided<[4096, 1], offset: 603197440>> to memref<11008x4096xf32>
    %base_buffer_506, %offset_507, %sizes_508, %strides_509 = memref.extract_strided_metadata %arg0 : memref<6755192832xf32> -> memref<f32>, index, index, index
    %reinterpret_cast_510 = memref.reinterpret_cast %base_buffer_506 to offset: [648286208], sizes: [11008, 4096], strides: [4096, 1] : memref<f32> to memref<11008x4096xf32, strided<[4096, 1], offset: 648286208>>
    %alloc_511 = memref.alloc() : memref<11008x4096xf32>
    memref.copy %reinterpret_cast_510, %alloc_511 : memref<11008x4096xf32, strided<[4096, 1], offset: 648286208>> to memref<11008x4096xf32>
    %base_buffer_512, %offset_513, %sizes_514, %strides_515 = memref.extract_strided_metadata %arg0 : memref<6755192832xf32> -> memref<f32>, index, index, index
    %reinterpret_cast_516 = memref.reinterpret_cast %base_buffer_512 to offset: [693374976], sizes: [4096, 11008], strides: [11008, 1] : memref<f32> to memref<4096x11008xf32, strided<[11008, 1], offset: 693374976>>
    %alloc_517 = memref.alloc() : memref<4096x11008xf32>
    memref.copy %reinterpret_cast_516, %alloc_517 : memref<4096x11008xf32, strided<[11008, 1], offset: 693374976>> to memref<4096x11008xf32>
    %base_buffer_518, %offset_519, %sizes_520, %strides_521 = memref.extract_strided_metadata %arg0 : memref<6755192832xf32> -> memref<f32>, index, index, index
    %reinterpret_cast_522 = memref.reinterpret_cast %base_buffer_518 to offset: [738463744], sizes: [4096, 4096], strides: [4096, 1] : memref<f32> to memref<4096x4096xf32, strided<[4096, 1], offset: 738463744>>
    %alloc_523 = memref.alloc() : memref<4096x4096xf32>
    memref.copy %reinterpret_cast_522, %alloc_523 : memref<4096x4096xf32, strided<[4096, 1], offset: 738463744>> to memref<4096x4096xf32>
    %base_buffer_524, %offset_525, %sizes_526, %strides_527 = memref.extract_strided_metadata %arg0 : memref<6755192832xf32> -> memref<f32>, index, index, index
    %reinterpret_cast_528 = memref.reinterpret_cast %base_buffer_524 to offset: [755240960], sizes: [4096, 4096], strides: [4096, 1] : memref<f32> to memref<4096x4096xf32, strided<[4096, 1], offset: 755240960>>
    %alloc_529 = memref.alloc() : memref<4096x4096xf32>
    memref.copy %reinterpret_cast_528, %alloc_529 : memref<4096x4096xf32, strided<[4096, 1], offset: 755240960>> to memref<4096x4096xf32>
    %base_buffer_530, %offset_531, %sizes_532, %strides_533 = memref.extract_strided_metadata %arg0 : memref<6755192832xf32> -> memref<f32>, index, index, index
    %reinterpret_cast_534 = memref.reinterpret_cast %base_buffer_530 to offset: [772018176], sizes: [4096, 4096], strides: [4096, 1] : memref<f32> to memref<4096x4096xf32, strided<[4096, 1], offset: 772018176>>
    %alloc_535 = memref.alloc() : memref<4096x4096xf32>
    memref.copy %reinterpret_cast_534, %alloc_535 : memref<4096x4096xf32, strided<[4096, 1], offset: 772018176>> to memref<4096x4096xf32>
    %base_buffer_536, %offset_537, %sizes_538, %strides_539 = memref.extract_strided_metadata %arg0 : memref<6755192832xf32> -> memref<f32>, index, index, index
    %reinterpret_cast_540 = memref.reinterpret_cast %base_buffer_536 to offset: [788795392], sizes: [4096, 4096], strides: [4096, 1] : memref<f32> to memref<4096x4096xf32, strided<[4096, 1], offset: 788795392>>
    %alloc_541 = memref.alloc() : memref<4096x4096xf32>
    memref.copy %reinterpret_cast_540, %alloc_541 : memref<4096x4096xf32, strided<[4096, 1], offset: 788795392>> to memref<4096x4096xf32>
    %base_buffer_542, %offset_543, %sizes_544, %strides_545 = memref.extract_strided_metadata %arg0 : memref<6755192832xf32> -> memref<f32>, index, index, index
    %reinterpret_cast_546 = memref.reinterpret_cast %base_buffer_542 to offset: [805572608], sizes: [11008, 4096], strides: [4096, 1] : memref<f32> to memref<11008x4096xf32, strided<[4096, 1], offset: 805572608>>
    %alloc_547 = memref.alloc() : memref<11008x4096xf32>
    memref.copy %reinterpret_cast_546, %alloc_547 : memref<11008x4096xf32, strided<[4096, 1], offset: 805572608>> to memref<11008x4096xf32>
    %base_buffer_548, %offset_549, %sizes_550, %strides_551 = memref.extract_strided_metadata %arg0 : memref<6755192832xf32> -> memref<f32>, index, index, index
    %reinterpret_cast_552 = memref.reinterpret_cast %base_buffer_548 to offset: [850661376], sizes: [11008, 4096], strides: [4096, 1] : memref<f32> to memref<11008x4096xf32, strided<[4096, 1], offset: 850661376>>
    %alloc_553 = memref.alloc() : memref<11008x4096xf32>
    memref.copy %reinterpret_cast_552, %alloc_553 : memref<11008x4096xf32, strided<[4096, 1], offset: 850661376>> to memref<11008x4096xf32>
    %base_buffer_554, %offset_555, %sizes_556, %strides_557 = memref.extract_strided_metadata %arg0 : memref<6755192832xf32> -> memref<f32>, index, index, index
    %reinterpret_cast_558 = memref.reinterpret_cast %base_buffer_554 to offset: [895750144], sizes: [4096, 11008], strides: [11008, 1] : memref<f32> to memref<4096x11008xf32, strided<[11008, 1], offset: 895750144>>
    %alloc_559 = memref.alloc() : memref<4096x11008xf32>
    memref.copy %reinterpret_cast_558, %alloc_559 : memref<4096x11008xf32, strided<[11008, 1], offset: 895750144>> to memref<4096x11008xf32>
    %base_buffer_560, %offset_561, %sizes_562, %strides_563 = memref.extract_strided_metadata %arg0 : memref<6755192832xf32> -> memref<f32>, index, index, index
    %reinterpret_cast_564 = memref.reinterpret_cast %base_buffer_560 to offset: [940838912], sizes: [4096, 4096], strides: [4096, 1] : memref<f32> to memref<4096x4096xf32, strided<[4096, 1], offset: 940838912>>
    %alloc_565 = memref.alloc() : memref<4096x4096xf32>
    memref.copy %reinterpret_cast_564, %alloc_565 : memref<4096x4096xf32, strided<[4096, 1], offset: 940838912>> to memref<4096x4096xf32>
    %base_buffer_566, %offset_567, %sizes_568, %strides_569 = memref.extract_strided_metadata %arg0 : memref<6755192832xf32> -> memref<f32>, index, index, index
    %reinterpret_cast_570 = memref.reinterpret_cast %base_buffer_566 to offset: [957616128], sizes: [4096, 4096], strides: [4096, 1] : memref<f32> to memref<4096x4096xf32, strided<[4096, 1], offset: 957616128>>
    %alloc_571 = memref.alloc() : memref<4096x4096xf32>
    memref.copy %reinterpret_cast_570, %alloc_571 : memref<4096x4096xf32, strided<[4096, 1], offset: 957616128>> to memref<4096x4096xf32>
    %base_buffer_572, %offset_573, %sizes_574, %strides_575 = memref.extract_strided_metadata %arg0 : memref<6755192832xf32> -> memref<f32>, index, index, index
    %reinterpret_cast_576 = memref.reinterpret_cast %base_buffer_572 to offset: [974393344], sizes: [4096, 4096], strides: [4096, 1] : memref<f32> to memref<4096x4096xf32, strided<[4096, 1], offset: 974393344>>
    %alloc_577 = memref.alloc() : memref<4096x4096xf32>
    memref.copy %reinterpret_cast_576, %alloc_577 : memref<4096x4096xf32, strided<[4096, 1], offset: 974393344>> to memref<4096x4096xf32>
    %base_buffer_578, %offset_579, %sizes_580, %strides_581 = memref.extract_strided_metadata %arg0 : memref<6755192832xf32> -> memref<f32>, index, index, index
    %reinterpret_cast_582 = memref.reinterpret_cast %base_buffer_578 to offset: [991170560], sizes: [4096, 4096], strides: [4096, 1] : memref<f32> to memref<4096x4096xf32, strided<[4096, 1], offset: 991170560>>
    %alloc_583 = memref.alloc() : memref<4096x4096xf32>
    memref.copy %reinterpret_cast_582, %alloc_583 : memref<4096x4096xf32, strided<[4096, 1], offset: 991170560>> to memref<4096x4096xf32>
    %base_buffer_584, %offset_585, %sizes_586, %strides_587 = memref.extract_strided_metadata %arg0 : memref<6755192832xf32> -> memref<f32>, index, index, index
    %reinterpret_cast_588 = memref.reinterpret_cast %base_buffer_584 to offset: [1007947776], sizes: [11008, 4096], strides: [4096, 1] : memref<f32> to memref<11008x4096xf32, strided<[4096, 1], offset: 1007947776>>
    %alloc_589 = memref.alloc() : memref<11008x4096xf32>
    memref.copy %reinterpret_cast_588, %alloc_589 : memref<11008x4096xf32, strided<[4096, 1], offset: 1007947776>> to memref<11008x4096xf32>
    %base_buffer_590, %offset_591, %sizes_592, %strides_593 = memref.extract_strided_metadata %arg0 : memref<6755192832xf32> -> memref<f32>, index, index, index
    %reinterpret_cast_594 = memref.reinterpret_cast %base_buffer_590 to offset: [1053036544], sizes: [11008, 4096], strides: [4096, 1] : memref<f32> to memref<11008x4096xf32, strided<[4096, 1], offset: 1053036544>>
    %alloc_595 = memref.alloc() : memref<11008x4096xf32>
    memref.copy %reinterpret_cast_594, %alloc_595 : memref<11008x4096xf32, strided<[4096, 1], offset: 1053036544>> to memref<11008x4096xf32>
    %base_buffer_596, %offset_597, %sizes_598, %strides_599 = memref.extract_strided_metadata %arg0 : memref<6755192832xf32> -> memref<f32>, index, index, index
    %reinterpret_cast_600 = memref.reinterpret_cast %base_buffer_596 to offset: [1098125312], sizes: [4096, 11008], strides: [11008, 1] : memref<f32> to memref<4096x11008xf32, strided<[11008, 1], offset: 1098125312>>
    %alloc_601 = memref.alloc() : memref<4096x11008xf32>
    memref.copy %reinterpret_cast_600, %alloc_601 : memref<4096x11008xf32, strided<[11008, 1], offset: 1098125312>> to memref<4096x11008xf32>
    %base_buffer_602, %offset_603, %sizes_604, %strides_605 = memref.extract_strided_metadata %arg0 : memref<6755192832xf32> -> memref<f32>, index, index, index
    %reinterpret_cast_606 = memref.reinterpret_cast %base_buffer_602 to offset: [1143214080], sizes: [4096, 4096], strides: [4096, 1] : memref<f32> to memref<4096x4096xf32, strided<[4096, 1], offset: 1143214080>>
    %alloc_607 = memref.alloc() : memref<4096x4096xf32>
    memref.copy %reinterpret_cast_606, %alloc_607 : memref<4096x4096xf32, strided<[4096, 1], offset: 1143214080>> to memref<4096x4096xf32>
    %base_buffer_608, %offset_609, %sizes_610, %strides_611 = memref.extract_strided_metadata %arg0 : memref<6755192832xf32> -> memref<f32>, index, index, index
    %reinterpret_cast_612 = memref.reinterpret_cast %base_buffer_608 to offset: [1159991296], sizes: [4096, 4096], strides: [4096, 1] : memref<f32> to memref<4096x4096xf32, strided<[4096, 1], offset: 1159991296>>
    %alloc_613 = memref.alloc() : memref<4096x4096xf32>
    memref.copy %reinterpret_cast_612, %alloc_613 : memref<4096x4096xf32, strided<[4096, 1], offset: 1159991296>> to memref<4096x4096xf32>
    %base_buffer_614, %offset_615, %sizes_616, %strides_617 = memref.extract_strided_metadata %arg0 : memref<6755192832xf32> -> memref<f32>, index, index, index
    %reinterpret_cast_618 = memref.reinterpret_cast %base_buffer_614 to offset: [1176768512], sizes: [4096, 4096], strides: [4096, 1] : memref<f32> to memref<4096x4096xf32, strided<[4096, 1], offset: 1176768512>>
    %alloc_619 = memref.alloc() : memref<4096x4096xf32>
    memref.copy %reinterpret_cast_618, %alloc_619 : memref<4096x4096xf32, strided<[4096, 1], offset: 1176768512>> to memref<4096x4096xf32>
    %base_buffer_620, %offset_621, %sizes_622, %strides_623 = memref.extract_strided_metadata %arg0 : memref<6755192832xf32> -> memref<f32>, index, index, index
    %reinterpret_cast_624 = memref.reinterpret_cast %base_buffer_620 to offset: [1193545728], sizes: [4096, 4096], strides: [4096, 1] : memref<f32> to memref<4096x4096xf32, strided<[4096, 1], offset: 1193545728>>
    %alloc_625 = memref.alloc() : memref<4096x4096xf32>
    memref.copy %reinterpret_cast_624, %alloc_625 : memref<4096x4096xf32, strided<[4096, 1], offset: 1193545728>> to memref<4096x4096xf32>
    %base_buffer_626, %offset_627, %sizes_628, %strides_629 = memref.extract_strided_metadata %arg0 : memref<6755192832xf32> -> memref<f32>, index, index, index
    %reinterpret_cast_630 = memref.reinterpret_cast %base_buffer_626 to offset: [1210322944], sizes: [11008, 4096], strides: [4096, 1] : memref<f32> to memref<11008x4096xf32, strided<[4096, 1], offset: 1210322944>>
    %alloc_631 = memref.alloc() : memref<11008x4096xf32>
    memref.copy %reinterpret_cast_630, %alloc_631 : memref<11008x4096xf32, strided<[4096, 1], offset: 1210322944>> to memref<11008x4096xf32>
    %base_buffer_632, %offset_633, %sizes_634, %strides_635 = memref.extract_strided_metadata %arg0 : memref<6755192832xf32> -> memref<f32>, index, index, index
    %reinterpret_cast_636 = memref.reinterpret_cast %base_buffer_632 to offset: [1255411712], sizes: [11008, 4096], strides: [4096, 1] : memref<f32> to memref<11008x4096xf32, strided<[4096, 1], offset: 1255411712>>
    %alloc_637 = memref.alloc() : memref<11008x4096xf32>
    memref.copy %reinterpret_cast_636, %alloc_637 : memref<11008x4096xf32, strided<[4096, 1], offset: 1255411712>> to memref<11008x4096xf32>
    %base_buffer_638, %offset_639, %sizes_640, %strides_641 = memref.extract_strided_metadata %arg0 : memref<6755192832xf32> -> memref<f32>, index, index, index
    %reinterpret_cast_642 = memref.reinterpret_cast %base_buffer_638 to offset: [1300500480], sizes: [4096, 11008], strides: [11008, 1] : memref<f32> to memref<4096x11008xf32, strided<[11008, 1], offset: 1300500480>>
    %alloc_643 = memref.alloc() : memref<4096x11008xf32>
    memref.copy %reinterpret_cast_642, %alloc_643 : memref<4096x11008xf32, strided<[11008, 1], offset: 1300500480>> to memref<4096x11008xf32>
    %base_buffer_644, %offset_645, %sizes_646, %strides_647 = memref.extract_strided_metadata %arg0 : memref<6755192832xf32> -> memref<f32>, index, index, index
    %reinterpret_cast_648 = memref.reinterpret_cast %base_buffer_644 to offset: [1345589248], sizes: [4096, 4096], strides: [4096, 1] : memref<f32> to memref<4096x4096xf32, strided<[4096, 1], offset: 1345589248>>
    %alloc_649 = memref.alloc() : memref<4096x4096xf32>
    memref.copy %reinterpret_cast_648, %alloc_649 : memref<4096x4096xf32, strided<[4096, 1], offset: 1345589248>> to memref<4096x4096xf32>
    %base_buffer_650, %offset_651, %sizes_652, %strides_653 = memref.extract_strided_metadata %arg0 : memref<6755192832xf32> -> memref<f32>, index, index, index
    %reinterpret_cast_654 = memref.reinterpret_cast %base_buffer_650 to offset: [1362366464], sizes: [4096, 4096], strides: [4096, 1] : memref<f32> to memref<4096x4096xf32, strided<[4096, 1], offset: 1362366464>>
    %alloc_655 = memref.alloc() : memref<4096x4096xf32>
    memref.copy %reinterpret_cast_654, %alloc_655 : memref<4096x4096xf32, strided<[4096, 1], offset: 1362366464>> to memref<4096x4096xf32>
    %base_buffer_656, %offset_657, %sizes_658, %strides_659 = memref.extract_strided_metadata %arg0 : memref<6755192832xf32> -> memref<f32>, index, index, index
    %reinterpret_cast_660 = memref.reinterpret_cast %base_buffer_656 to offset: [1379143680], sizes: [4096, 4096], strides: [4096, 1] : memref<f32> to memref<4096x4096xf32, strided<[4096, 1], offset: 1379143680>>
    %alloc_661 = memref.alloc() : memref<4096x4096xf32>
    memref.copy %reinterpret_cast_660, %alloc_661 : memref<4096x4096xf32, strided<[4096, 1], offset: 1379143680>> to memref<4096x4096xf32>
    %base_buffer_662, %offset_663, %sizes_664, %strides_665 = memref.extract_strided_metadata %arg0 : memref<6755192832xf32> -> memref<f32>, index, index, index
    %reinterpret_cast_666 = memref.reinterpret_cast %base_buffer_662 to offset: [1395920896], sizes: [4096, 4096], strides: [4096, 1] : memref<f32> to memref<4096x4096xf32, strided<[4096, 1], offset: 1395920896>>
    %alloc_667 = memref.alloc() : memref<4096x4096xf32>
    memref.copy %reinterpret_cast_666, %alloc_667 : memref<4096x4096xf32, strided<[4096, 1], offset: 1395920896>> to memref<4096x4096xf32>
    %base_buffer_668, %offset_669, %sizes_670, %strides_671 = memref.extract_strided_metadata %arg0 : memref<6755192832xf32> -> memref<f32>, index, index, index
    %reinterpret_cast_672 = memref.reinterpret_cast %base_buffer_668 to offset: [1412698112], sizes: [11008, 4096], strides: [4096, 1] : memref<f32> to memref<11008x4096xf32, strided<[4096, 1], offset: 1412698112>>
    %alloc_673 = memref.alloc() : memref<11008x4096xf32>
    memref.copy %reinterpret_cast_672, %alloc_673 : memref<11008x4096xf32, strided<[4096, 1], offset: 1412698112>> to memref<11008x4096xf32>
    %base_buffer_674, %offset_675, %sizes_676, %strides_677 = memref.extract_strided_metadata %arg0 : memref<6755192832xf32> -> memref<f32>, index, index, index
    %reinterpret_cast_678 = memref.reinterpret_cast %base_buffer_674 to offset: [1457786880], sizes: [11008, 4096], strides: [4096, 1] : memref<f32> to memref<11008x4096xf32, strided<[4096, 1], offset: 1457786880>>
    %alloc_679 = memref.alloc() : memref<11008x4096xf32>
    memref.copy %reinterpret_cast_678, %alloc_679 : memref<11008x4096xf32, strided<[4096, 1], offset: 1457786880>> to memref<11008x4096xf32>
    %base_buffer_680, %offset_681, %sizes_682, %strides_683 = memref.extract_strided_metadata %arg0 : memref<6755192832xf32> -> memref<f32>, index, index, index
    %reinterpret_cast_684 = memref.reinterpret_cast %base_buffer_680 to offset: [1502875648], sizes: [4096, 11008], strides: [11008, 1] : memref<f32> to memref<4096x11008xf32, strided<[11008, 1], offset: 1502875648>>
    %alloc_685 = memref.alloc() : memref<4096x11008xf32>
    memref.copy %reinterpret_cast_684, %alloc_685 : memref<4096x11008xf32, strided<[11008, 1], offset: 1502875648>> to memref<4096x11008xf32>
    %base_buffer_686, %offset_687, %sizes_688, %strides_689 = memref.extract_strided_metadata %arg0 : memref<6755192832xf32> -> memref<f32>, index, index, index
    %reinterpret_cast_690 = memref.reinterpret_cast %base_buffer_686 to offset: [1547964416], sizes: [4096, 4096], strides: [4096, 1] : memref<f32> to memref<4096x4096xf32, strided<[4096, 1], offset: 1547964416>>
    %alloc_691 = memref.alloc() : memref<4096x4096xf32>
    memref.copy %reinterpret_cast_690, %alloc_691 : memref<4096x4096xf32, strided<[4096, 1], offset: 1547964416>> to memref<4096x4096xf32>
    %base_buffer_692, %offset_693, %sizes_694, %strides_695 = memref.extract_strided_metadata %arg0 : memref<6755192832xf32> -> memref<f32>, index, index, index
    %reinterpret_cast_696 = memref.reinterpret_cast %base_buffer_692 to offset: [1564741632], sizes: [4096, 4096], strides: [4096, 1] : memref<f32> to memref<4096x4096xf32, strided<[4096, 1], offset: 1564741632>>
    %alloc_697 = memref.alloc() : memref<4096x4096xf32>
    memref.copy %reinterpret_cast_696, %alloc_697 : memref<4096x4096xf32, strided<[4096, 1], offset: 1564741632>> to memref<4096x4096xf32>
    %base_buffer_698, %offset_699, %sizes_700, %strides_701 = memref.extract_strided_metadata %arg0 : memref<6755192832xf32> -> memref<f32>, index, index, index
    %reinterpret_cast_702 = memref.reinterpret_cast %base_buffer_698 to offset: [1581518848], sizes: [4096, 4096], strides: [4096, 1] : memref<f32> to memref<4096x4096xf32, strided<[4096, 1], offset: 1581518848>>
    %alloc_703 = memref.alloc() : memref<4096x4096xf32>
    memref.copy %reinterpret_cast_702, %alloc_703 : memref<4096x4096xf32, strided<[4096, 1], offset: 1581518848>> to memref<4096x4096xf32>
    %base_buffer_704, %offset_705, %sizes_706, %strides_707 = memref.extract_strided_metadata %arg0 : memref<6755192832xf32> -> memref<f32>, index, index, index
    %reinterpret_cast_708 = memref.reinterpret_cast %base_buffer_704 to offset: [1598296064], sizes: [4096, 4096], strides: [4096, 1] : memref<f32> to memref<4096x4096xf32, strided<[4096, 1], offset: 1598296064>>
    %alloc_709 = memref.alloc() : memref<4096x4096xf32>
    memref.copy %reinterpret_cast_708, %alloc_709 : memref<4096x4096xf32, strided<[4096, 1], offset: 1598296064>> to memref<4096x4096xf32>
    %base_buffer_710, %offset_711, %sizes_712, %strides_713 = memref.extract_strided_metadata %arg0 : memref<6755192832xf32> -> memref<f32>, index, index, index
    %reinterpret_cast_714 = memref.reinterpret_cast %base_buffer_710 to offset: [1615073280], sizes: [11008, 4096], strides: [4096, 1] : memref<f32> to memref<11008x4096xf32, strided<[4096, 1], offset: 1615073280>>
    %alloc_715 = memref.alloc() : memref<11008x4096xf32>
    memref.copy %reinterpret_cast_714, %alloc_715 : memref<11008x4096xf32, strided<[4096, 1], offset: 1615073280>> to memref<11008x4096xf32>
    %base_buffer_716, %offset_717, %sizes_718, %strides_719 = memref.extract_strided_metadata %arg0 : memref<6755192832xf32> -> memref<f32>, index, index, index
    %reinterpret_cast_720 = memref.reinterpret_cast %base_buffer_716 to offset: [1660162048], sizes: [11008, 4096], strides: [4096, 1] : memref<f32> to memref<11008x4096xf32, strided<[4096, 1], offset: 1660162048>>
    %alloc_721 = memref.alloc() : memref<11008x4096xf32>
    memref.copy %reinterpret_cast_720, %alloc_721 : memref<11008x4096xf32, strided<[4096, 1], offset: 1660162048>> to memref<11008x4096xf32>
    %base_buffer_722, %offset_723, %sizes_724, %strides_725 = memref.extract_strided_metadata %arg0 : memref<6755192832xf32> -> memref<f32>, index, index, index
    %reinterpret_cast_726 = memref.reinterpret_cast %base_buffer_722 to offset: [1705250816], sizes: [4096, 11008], strides: [11008, 1] : memref<f32> to memref<4096x11008xf32, strided<[11008, 1], offset: 1705250816>>
    %alloc_727 = memref.alloc() : memref<4096x11008xf32>
    memref.copy %reinterpret_cast_726, %alloc_727 : memref<4096x11008xf32, strided<[11008, 1], offset: 1705250816>> to memref<4096x11008xf32>
    %base_buffer_728, %offset_729, %sizes_730, %strides_731 = memref.extract_strided_metadata %arg0 : memref<6755192832xf32> -> memref<f32>, index, index, index
    %reinterpret_cast_732 = memref.reinterpret_cast %base_buffer_728 to offset: [1750339584], sizes: [4096, 4096], strides: [4096, 1] : memref<f32> to memref<4096x4096xf32, strided<[4096, 1], offset: 1750339584>>
    %alloc_733 = memref.alloc() : memref<4096x4096xf32>
    memref.copy %reinterpret_cast_732, %alloc_733 : memref<4096x4096xf32, strided<[4096, 1], offset: 1750339584>> to memref<4096x4096xf32>
    %base_buffer_734, %offset_735, %sizes_736, %strides_737 = memref.extract_strided_metadata %arg0 : memref<6755192832xf32> -> memref<f32>, index, index, index
    %reinterpret_cast_738 = memref.reinterpret_cast %base_buffer_734 to offset: [1767116800], sizes: [4096, 4096], strides: [4096, 1] : memref<f32> to memref<4096x4096xf32, strided<[4096, 1], offset: 1767116800>>
    %alloc_739 = memref.alloc() : memref<4096x4096xf32>
    memref.copy %reinterpret_cast_738, %alloc_739 : memref<4096x4096xf32, strided<[4096, 1], offset: 1767116800>> to memref<4096x4096xf32>
    %base_buffer_740, %offset_741, %sizes_742, %strides_743 = memref.extract_strided_metadata %arg0 : memref<6755192832xf32> -> memref<f32>, index, index, index
    %reinterpret_cast_744 = memref.reinterpret_cast %base_buffer_740 to offset: [1783894016], sizes: [4096, 4096], strides: [4096, 1] : memref<f32> to memref<4096x4096xf32, strided<[4096, 1], offset: 1783894016>>
    %alloc_745 = memref.alloc() : memref<4096x4096xf32>
    memref.copy %reinterpret_cast_744, %alloc_745 : memref<4096x4096xf32, strided<[4096, 1], offset: 1783894016>> to memref<4096x4096xf32>
    %base_buffer_746, %offset_747, %sizes_748, %strides_749 = memref.extract_strided_metadata %arg0 : memref<6755192832xf32> -> memref<f32>, index, index, index
    %reinterpret_cast_750 = memref.reinterpret_cast %base_buffer_746 to offset: [1800671232], sizes: [4096, 4096], strides: [4096, 1] : memref<f32> to memref<4096x4096xf32, strided<[4096, 1], offset: 1800671232>>
    %alloc_751 = memref.alloc() : memref<4096x4096xf32>
    memref.copy %reinterpret_cast_750, %alloc_751 : memref<4096x4096xf32, strided<[4096, 1], offset: 1800671232>> to memref<4096x4096xf32>
    %base_buffer_752, %offset_753, %sizes_754, %strides_755 = memref.extract_strided_metadata %arg0 : memref<6755192832xf32> -> memref<f32>, index, index, index
    %reinterpret_cast_756 = memref.reinterpret_cast %base_buffer_752 to offset: [1817448448], sizes: [11008, 4096], strides: [4096, 1] : memref<f32> to memref<11008x4096xf32, strided<[4096, 1], offset: 1817448448>>
    %alloc_757 = memref.alloc() : memref<11008x4096xf32>
    memref.copy %reinterpret_cast_756, %alloc_757 : memref<11008x4096xf32, strided<[4096, 1], offset: 1817448448>> to memref<11008x4096xf32>
    %base_buffer_758, %offset_759, %sizes_760, %strides_761 = memref.extract_strided_metadata %arg0 : memref<6755192832xf32> -> memref<f32>, index, index, index
    %reinterpret_cast_762 = memref.reinterpret_cast %base_buffer_758 to offset: [1862537216], sizes: [11008, 4096], strides: [4096, 1] : memref<f32> to memref<11008x4096xf32, strided<[4096, 1], offset: 1862537216>>
    %alloc_763 = memref.alloc() : memref<11008x4096xf32>
    memref.copy %reinterpret_cast_762, %alloc_763 : memref<11008x4096xf32, strided<[4096, 1], offset: 1862537216>> to memref<11008x4096xf32>
    %base_buffer_764, %offset_765, %sizes_766, %strides_767 = memref.extract_strided_metadata %arg0 : memref<6755192832xf32> -> memref<f32>, index, index, index
    %reinterpret_cast_768 = memref.reinterpret_cast %base_buffer_764 to offset: [1907625984], sizes: [4096, 11008], strides: [11008, 1] : memref<f32> to memref<4096x11008xf32, strided<[11008, 1], offset: 1907625984>>
    %alloc_769 = memref.alloc() : memref<4096x11008xf32>
    memref.copy %reinterpret_cast_768, %alloc_769 : memref<4096x11008xf32, strided<[11008, 1], offset: 1907625984>> to memref<4096x11008xf32>
    %base_buffer_770, %offset_771, %sizes_772, %strides_773 = memref.extract_strided_metadata %arg0 : memref<6755192832xf32> -> memref<f32>, index, index, index
    %reinterpret_cast_774 = memref.reinterpret_cast %base_buffer_770 to offset: [1952714752], sizes: [4096, 4096], strides: [4096, 1] : memref<f32> to memref<4096x4096xf32, strided<[4096, 1], offset: 1952714752>>
    %alloc_775 = memref.alloc() : memref<4096x4096xf32>
    memref.copy %reinterpret_cast_774, %alloc_775 : memref<4096x4096xf32, strided<[4096, 1], offset: 1952714752>> to memref<4096x4096xf32>
    %base_buffer_776, %offset_777, %sizes_778, %strides_779 = memref.extract_strided_metadata %arg0 : memref<6755192832xf32> -> memref<f32>, index, index, index
    %reinterpret_cast_780 = memref.reinterpret_cast %base_buffer_776 to offset: [1969491968], sizes: [4096, 4096], strides: [4096, 1] : memref<f32> to memref<4096x4096xf32, strided<[4096, 1], offset: 1969491968>>
    %alloc_781 = memref.alloc() : memref<4096x4096xf32>
    memref.copy %reinterpret_cast_780, %alloc_781 : memref<4096x4096xf32, strided<[4096, 1], offset: 1969491968>> to memref<4096x4096xf32>
    %base_buffer_782, %offset_783, %sizes_784, %strides_785 = memref.extract_strided_metadata %arg0 : memref<6755192832xf32> -> memref<f32>, index, index, index
    %reinterpret_cast_786 = memref.reinterpret_cast %base_buffer_782 to offset: [1986269184], sizes: [4096, 4096], strides: [4096, 1] : memref<f32> to memref<4096x4096xf32, strided<[4096, 1], offset: 1986269184>>
    %alloc_787 = memref.alloc() : memref<4096x4096xf32>
    memref.copy %reinterpret_cast_786, %alloc_787 : memref<4096x4096xf32, strided<[4096, 1], offset: 1986269184>> to memref<4096x4096xf32>
    %base_buffer_788, %offset_789, %sizes_790, %strides_791 = memref.extract_strided_metadata %arg0 : memref<6755192832xf32> -> memref<f32>, index, index, index
    %reinterpret_cast_792 = memref.reinterpret_cast %base_buffer_788 to offset: [2003046400], sizes: [4096, 4096], strides: [4096, 1] : memref<f32> to memref<4096x4096xf32, strided<[4096, 1], offset: 2003046400>>
    %alloc_793 = memref.alloc() : memref<4096x4096xf32>
    memref.copy %reinterpret_cast_792, %alloc_793 : memref<4096x4096xf32, strided<[4096, 1], offset: 2003046400>> to memref<4096x4096xf32>
    %base_buffer_794, %offset_795, %sizes_796, %strides_797 = memref.extract_strided_metadata %arg0 : memref<6755192832xf32> -> memref<f32>, index, index, index
    %reinterpret_cast_798 = memref.reinterpret_cast %base_buffer_794 to offset: [2019823616], sizes: [11008, 4096], strides: [4096, 1] : memref<f32> to memref<11008x4096xf32, strided<[4096, 1], offset: 2019823616>>
    %alloc_799 = memref.alloc() : memref<11008x4096xf32>
    memref.copy %reinterpret_cast_798, %alloc_799 : memref<11008x4096xf32, strided<[4096, 1], offset: 2019823616>> to memref<11008x4096xf32>
    %base_buffer_800, %offset_801, %sizes_802, %strides_803 = memref.extract_strided_metadata %arg0 : memref<6755192832xf32> -> memref<f32>, index, index, index
    %reinterpret_cast_804 = memref.reinterpret_cast %base_buffer_800 to offset: [2064912384], sizes: [11008, 4096], strides: [4096, 1] : memref<f32> to memref<11008x4096xf32, strided<[4096, 1], offset: 2064912384>>
    %alloc_805 = memref.alloc() : memref<11008x4096xf32>
    memref.copy %reinterpret_cast_804, %alloc_805 : memref<11008x4096xf32, strided<[4096, 1], offset: 2064912384>> to memref<11008x4096xf32>
    %base_buffer_806, %offset_807, %sizes_808, %strides_809 = memref.extract_strided_metadata %arg0 : memref<6755192832xf32> -> memref<f32>, index, index, index
    %reinterpret_cast_810 = memref.reinterpret_cast %base_buffer_806 to offset: [2110001152], sizes: [4096, 11008], strides: [11008, 1] : memref<f32> to memref<4096x11008xf32, strided<[11008, 1], offset: 2110001152>>
    %alloc_811 = memref.alloc() : memref<4096x11008xf32>
    memref.copy %reinterpret_cast_810, %alloc_811 : memref<4096x11008xf32, strided<[11008, 1], offset: 2110001152>> to memref<4096x11008xf32>
    %base_buffer_812, %offset_813, %sizes_814, %strides_815 = memref.extract_strided_metadata %arg0 : memref<6755192832xf32> -> memref<f32>, index, index, index
    %reinterpret_cast_816 = memref.reinterpret_cast %base_buffer_812 to offset: [2155089920], sizes: [4096, 4096], strides: [4096, 1] : memref<f32> to memref<4096x4096xf32, strided<[4096, 1], offset: 2155089920>>
    %alloc_817 = memref.alloc() : memref<4096x4096xf32>
    memref.copy %reinterpret_cast_816, %alloc_817 : memref<4096x4096xf32, strided<[4096, 1], offset: 2155089920>> to memref<4096x4096xf32>
    %base_buffer_818, %offset_819, %sizes_820, %strides_821 = memref.extract_strided_metadata %arg0 : memref<6755192832xf32> -> memref<f32>, index, index, index
    %reinterpret_cast_822 = memref.reinterpret_cast %base_buffer_818 to offset: [2171867136], sizes: [4096, 4096], strides: [4096, 1] : memref<f32> to memref<4096x4096xf32, strided<[4096, 1], offset: 2171867136>>
    %alloc_823 = memref.alloc() : memref<4096x4096xf32>
    memref.copy %reinterpret_cast_822, %alloc_823 : memref<4096x4096xf32, strided<[4096, 1], offset: 2171867136>> to memref<4096x4096xf32>
    %base_buffer_824, %offset_825, %sizes_826, %strides_827 = memref.extract_strided_metadata %arg0 : memref<6755192832xf32> -> memref<f32>, index, index, index
    %reinterpret_cast_828 = memref.reinterpret_cast %base_buffer_824 to offset: [2188644352], sizes: [4096, 4096], strides: [4096, 1] : memref<f32> to memref<4096x4096xf32, strided<[4096, 1], offset: 2188644352>>
    %alloc_829 = memref.alloc() : memref<4096x4096xf32>
    memref.copy %reinterpret_cast_828, %alloc_829 : memref<4096x4096xf32, strided<[4096, 1], offset: 2188644352>> to memref<4096x4096xf32>
    %base_buffer_830, %offset_831, %sizes_832, %strides_833 = memref.extract_strided_metadata %arg0 : memref<6755192832xf32> -> memref<f32>, index, index, index
    %reinterpret_cast_834 = memref.reinterpret_cast %base_buffer_830 to offset: [2205421568], sizes: [4096, 4096], strides: [4096, 1] : memref<f32> to memref<4096x4096xf32, strided<[4096, 1], offset: 2205421568>>
    %alloc_835 = memref.alloc() : memref<4096x4096xf32>
    memref.copy %reinterpret_cast_834, %alloc_835 : memref<4096x4096xf32, strided<[4096, 1], offset: 2205421568>> to memref<4096x4096xf32>
    %base_buffer_836, %offset_837, %sizes_838, %strides_839 = memref.extract_strided_metadata %arg0 : memref<6755192832xf32> -> memref<f32>, index, index, index
    %reinterpret_cast_840 = memref.reinterpret_cast %base_buffer_836 to offset: [2222198784], sizes: [11008, 4096], strides: [4096, 1] : memref<f32> to memref<11008x4096xf32, strided<[4096, 1], offset: 2222198784>>
    %alloc_841 = memref.alloc() : memref<11008x4096xf32>
    memref.copy %reinterpret_cast_840, %alloc_841 : memref<11008x4096xf32, strided<[4096, 1], offset: 2222198784>> to memref<11008x4096xf32>
    %base_buffer_842, %offset_843, %sizes_844, %strides_845 = memref.extract_strided_metadata %arg0 : memref<6755192832xf32> -> memref<f32>, index, index, index
    %reinterpret_cast_846 = memref.reinterpret_cast %base_buffer_842 to offset: [2267287552], sizes: [11008, 4096], strides: [4096, 1] : memref<f32> to memref<11008x4096xf32, strided<[4096, 1], offset: 2267287552>>
    %alloc_847 = memref.alloc() : memref<11008x4096xf32>
    memref.copy %reinterpret_cast_846, %alloc_847 : memref<11008x4096xf32, strided<[4096, 1], offset: 2267287552>> to memref<11008x4096xf32>
    %base_buffer_848, %offset_849, %sizes_850, %strides_851 = memref.extract_strided_metadata %arg0 : memref<6755192832xf32> -> memref<f32>, index, index, index
    %reinterpret_cast_852 = memref.reinterpret_cast %base_buffer_848 to offset: [2312376320], sizes: [4096, 11008], strides: [11008, 1] : memref<f32> to memref<4096x11008xf32, strided<[11008, 1], offset: 2312376320>>
    %alloc_853 = memref.alloc() : memref<4096x11008xf32>
    memref.copy %reinterpret_cast_852, %alloc_853 : memref<4096x11008xf32, strided<[11008, 1], offset: 2312376320>> to memref<4096x11008xf32>
    %base_buffer_854, %offset_855, %sizes_856, %strides_857 = memref.extract_strided_metadata %arg0 : memref<6755192832xf32> -> memref<f32>, index, index, index
    %reinterpret_cast_858 = memref.reinterpret_cast %base_buffer_854 to offset: [2357465088], sizes: [4096, 4096], strides: [4096, 1] : memref<f32> to memref<4096x4096xf32, strided<[4096, 1], offset: 2357465088>>
    %alloc_859 = memref.alloc() : memref<4096x4096xf32>
    memref.copy %reinterpret_cast_858, %alloc_859 : memref<4096x4096xf32, strided<[4096, 1], offset: 2357465088>> to memref<4096x4096xf32>
    %base_buffer_860, %offset_861, %sizes_862, %strides_863 = memref.extract_strided_metadata %arg0 : memref<6755192832xf32> -> memref<f32>, index, index, index
    %reinterpret_cast_864 = memref.reinterpret_cast %base_buffer_860 to offset: [2374242304], sizes: [4096, 4096], strides: [4096, 1] : memref<f32> to memref<4096x4096xf32, strided<[4096, 1], offset: 2374242304>>
    %alloc_865 = memref.alloc() : memref<4096x4096xf32>
    memref.copy %reinterpret_cast_864, %alloc_865 : memref<4096x4096xf32, strided<[4096, 1], offset: 2374242304>> to memref<4096x4096xf32>
    %base_buffer_866, %offset_867, %sizes_868, %strides_869 = memref.extract_strided_metadata %arg0 : memref<6755192832xf32> -> memref<f32>, index, index, index
    %reinterpret_cast_870 = memref.reinterpret_cast %base_buffer_866 to offset: [2391019520], sizes: [4096, 4096], strides: [4096, 1] : memref<f32> to memref<4096x4096xf32, strided<[4096, 1], offset: 2391019520>>
    %alloc_871 = memref.alloc() : memref<4096x4096xf32>
    memref.copy %reinterpret_cast_870, %alloc_871 : memref<4096x4096xf32, strided<[4096, 1], offset: 2391019520>> to memref<4096x4096xf32>
    %base_buffer_872, %offset_873, %sizes_874, %strides_875 = memref.extract_strided_metadata %arg0 : memref<6755192832xf32> -> memref<f32>, index, index, index
    %reinterpret_cast_876 = memref.reinterpret_cast %base_buffer_872 to offset: [2407796736], sizes: [4096, 4096], strides: [4096, 1] : memref<f32> to memref<4096x4096xf32, strided<[4096, 1], offset: 2407796736>>
    %alloc_877 = memref.alloc() : memref<4096x4096xf32>
    memref.copy %reinterpret_cast_876, %alloc_877 : memref<4096x4096xf32, strided<[4096, 1], offset: 2407796736>> to memref<4096x4096xf32>
    %base_buffer_878, %offset_879, %sizes_880, %strides_881 = memref.extract_strided_metadata %arg0 : memref<6755192832xf32> -> memref<f32>, index, index, index
    %reinterpret_cast_882 = memref.reinterpret_cast %base_buffer_878 to offset: [2424573952], sizes: [11008, 4096], strides: [4096, 1] : memref<f32> to memref<11008x4096xf32, strided<[4096, 1], offset: 2424573952>>
    %alloc_883 = memref.alloc() : memref<11008x4096xf32>
    memref.copy %reinterpret_cast_882, %alloc_883 : memref<11008x4096xf32, strided<[4096, 1], offset: 2424573952>> to memref<11008x4096xf32>
    %base_buffer_884, %offset_885, %sizes_886, %strides_887 = memref.extract_strided_metadata %arg0 : memref<6755192832xf32> -> memref<f32>, index, index, index
    %reinterpret_cast_888 = memref.reinterpret_cast %base_buffer_884 to offset: [2469662720], sizes: [11008, 4096], strides: [4096, 1] : memref<f32> to memref<11008x4096xf32, strided<[4096, 1], offset: 2469662720>>
    %alloc_889 = memref.alloc() : memref<11008x4096xf32>
    memref.copy %reinterpret_cast_888, %alloc_889 : memref<11008x4096xf32, strided<[4096, 1], offset: 2469662720>> to memref<11008x4096xf32>
    %base_buffer_890, %offset_891, %sizes_892, %strides_893 = memref.extract_strided_metadata %arg0 : memref<6755192832xf32> -> memref<f32>, index, index, index
    %reinterpret_cast_894 = memref.reinterpret_cast %base_buffer_890 to offset: [2514751488], sizes: [4096, 11008], strides: [11008, 1] : memref<f32> to memref<4096x11008xf32, strided<[11008, 1], offset: 2514751488>>
    %alloc_895 = memref.alloc() : memref<4096x11008xf32>
    memref.copy %reinterpret_cast_894, %alloc_895 : memref<4096x11008xf32, strided<[11008, 1], offset: 2514751488>> to memref<4096x11008xf32>
    %base_buffer_896, %offset_897, %sizes_898, %strides_899 = memref.extract_strided_metadata %arg0 : memref<6755192832xf32> -> memref<f32>, index, index, index
    %reinterpret_cast_900 = memref.reinterpret_cast %base_buffer_896 to offset: [2559840256], sizes: [4096, 4096], strides: [4096, 1] : memref<f32> to memref<4096x4096xf32, strided<[4096, 1], offset: 2559840256>>
    %alloc_901 = memref.alloc() : memref<4096x4096xf32>
    memref.copy %reinterpret_cast_900, %alloc_901 : memref<4096x4096xf32, strided<[4096, 1], offset: 2559840256>> to memref<4096x4096xf32>
    %base_buffer_902, %offset_903, %sizes_904, %strides_905 = memref.extract_strided_metadata %arg0 : memref<6755192832xf32> -> memref<f32>, index, index, index
    %reinterpret_cast_906 = memref.reinterpret_cast %base_buffer_902 to offset: [2576617472], sizes: [4096, 4096], strides: [4096, 1] : memref<f32> to memref<4096x4096xf32, strided<[4096, 1], offset: 2576617472>>
    %alloc_907 = memref.alloc() : memref<4096x4096xf32>
    memref.copy %reinterpret_cast_906, %alloc_907 : memref<4096x4096xf32, strided<[4096, 1], offset: 2576617472>> to memref<4096x4096xf32>
    %base_buffer_908, %offset_909, %sizes_910, %strides_911 = memref.extract_strided_metadata %arg0 : memref<6755192832xf32> -> memref<f32>, index, index, index
    %reinterpret_cast_912 = memref.reinterpret_cast %base_buffer_908 to offset: [2593394688], sizes: [4096, 4096], strides: [4096, 1] : memref<f32> to memref<4096x4096xf32, strided<[4096, 1], offset: 2593394688>>
    %alloc_913 = memref.alloc() : memref<4096x4096xf32>
    memref.copy %reinterpret_cast_912, %alloc_913 : memref<4096x4096xf32, strided<[4096, 1], offset: 2593394688>> to memref<4096x4096xf32>
    %base_buffer_914, %offset_915, %sizes_916, %strides_917 = memref.extract_strided_metadata %arg0 : memref<6755192832xf32> -> memref<f32>, index, index, index
    %reinterpret_cast_918 = memref.reinterpret_cast %base_buffer_914 to offset: [2610171904], sizes: [4096, 4096], strides: [4096, 1] : memref<f32> to memref<4096x4096xf32, strided<[4096, 1], offset: 2610171904>>
    %alloc_919 = memref.alloc() : memref<4096x4096xf32>
    memref.copy %reinterpret_cast_918, %alloc_919 : memref<4096x4096xf32, strided<[4096, 1], offset: 2610171904>> to memref<4096x4096xf32>
    %base_buffer_920, %offset_921, %sizes_922, %strides_923 = memref.extract_strided_metadata %arg0 : memref<6755192832xf32> -> memref<f32>, index, index, index
    %reinterpret_cast_924 = memref.reinterpret_cast %base_buffer_920 to offset: [2626949120], sizes: [11008, 4096], strides: [4096, 1] : memref<f32> to memref<11008x4096xf32, strided<[4096, 1], offset: 2626949120>>
    %alloc_925 = memref.alloc() : memref<11008x4096xf32>
    memref.copy %reinterpret_cast_924, %alloc_925 : memref<11008x4096xf32, strided<[4096, 1], offset: 2626949120>> to memref<11008x4096xf32>
    %base_buffer_926, %offset_927, %sizes_928, %strides_929 = memref.extract_strided_metadata %arg0 : memref<6755192832xf32> -> memref<f32>, index, index, index
    %reinterpret_cast_930 = memref.reinterpret_cast %base_buffer_926 to offset: [2672037888], sizes: [11008, 4096], strides: [4096, 1] : memref<f32> to memref<11008x4096xf32, strided<[4096, 1], offset: 2672037888>>
    %alloc_931 = memref.alloc() : memref<11008x4096xf32>
    memref.copy %reinterpret_cast_930, %alloc_931 : memref<11008x4096xf32, strided<[4096, 1], offset: 2672037888>> to memref<11008x4096xf32>
    %base_buffer_932, %offset_933, %sizes_934, %strides_935 = memref.extract_strided_metadata %arg0 : memref<6755192832xf32> -> memref<f32>, index, index, index
    %reinterpret_cast_936 = memref.reinterpret_cast %base_buffer_932 to offset: [2717126656], sizes: [4096, 11008], strides: [11008, 1] : memref<f32> to memref<4096x11008xf32, strided<[11008, 1], offset: 2717126656>>
    %alloc_937 = memref.alloc() : memref<4096x11008xf32>
    memref.copy %reinterpret_cast_936, %alloc_937 : memref<4096x11008xf32, strided<[11008, 1], offset: 2717126656>> to memref<4096x11008xf32>
    %base_buffer_938, %offset_939, %sizes_940, %strides_941 = memref.extract_strided_metadata %arg0 : memref<6755192832xf32> -> memref<f32>, index, index, index
    %reinterpret_cast_942 = memref.reinterpret_cast %base_buffer_938 to offset: [2762215424], sizes: [4096, 4096], strides: [4096, 1] : memref<f32> to memref<4096x4096xf32, strided<[4096, 1], offset: 2762215424>>
    %alloc_943 = memref.alloc() : memref<4096x4096xf32>
    memref.copy %reinterpret_cast_942, %alloc_943 : memref<4096x4096xf32, strided<[4096, 1], offset: 2762215424>> to memref<4096x4096xf32>
    %base_buffer_944, %offset_945, %sizes_946, %strides_947 = memref.extract_strided_metadata %arg0 : memref<6755192832xf32> -> memref<f32>, index, index, index
    %reinterpret_cast_948 = memref.reinterpret_cast %base_buffer_944 to offset: [2778992640], sizes: [4096, 4096], strides: [4096, 1] : memref<f32> to memref<4096x4096xf32, strided<[4096, 1], offset: 2778992640>>
    %alloc_949 = memref.alloc() : memref<4096x4096xf32>
    memref.copy %reinterpret_cast_948, %alloc_949 : memref<4096x4096xf32, strided<[4096, 1], offset: 2778992640>> to memref<4096x4096xf32>
    %base_buffer_950, %offset_951, %sizes_952, %strides_953 = memref.extract_strided_metadata %arg0 : memref<6755192832xf32> -> memref<f32>, index, index, index
    %reinterpret_cast_954 = memref.reinterpret_cast %base_buffer_950 to offset: [2795769856], sizes: [4096, 4096], strides: [4096, 1] : memref<f32> to memref<4096x4096xf32, strided<[4096, 1], offset: 2795769856>>
    %alloc_955 = memref.alloc() : memref<4096x4096xf32>
    memref.copy %reinterpret_cast_954, %alloc_955 : memref<4096x4096xf32, strided<[4096, 1], offset: 2795769856>> to memref<4096x4096xf32>
    %base_buffer_956, %offset_957, %sizes_958, %strides_959 = memref.extract_strided_metadata %arg0 : memref<6755192832xf32> -> memref<f32>, index, index, index
    %reinterpret_cast_960 = memref.reinterpret_cast %base_buffer_956 to offset: [2812547072], sizes: [4096, 4096], strides: [4096, 1] : memref<f32> to memref<4096x4096xf32, strided<[4096, 1], offset: 2812547072>>
    %alloc_961 = memref.alloc() : memref<4096x4096xf32>
    memref.copy %reinterpret_cast_960, %alloc_961 : memref<4096x4096xf32, strided<[4096, 1], offset: 2812547072>> to memref<4096x4096xf32>
    %base_buffer_962, %offset_963, %sizes_964, %strides_965 = memref.extract_strided_metadata %arg0 : memref<6755192832xf32> -> memref<f32>, index, index, index
    %reinterpret_cast_966 = memref.reinterpret_cast %base_buffer_962 to offset: [2829324288], sizes: [11008, 4096], strides: [4096, 1] : memref<f32> to memref<11008x4096xf32, strided<[4096, 1], offset: 2829324288>>
    %alloc_967 = memref.alloc() : memref<11008x4096xf32>
    memref.copy %reinterpret_cast_966, %alloc_967 : memref<11008x4096xf32, strided<[4096, 1], offset: 2829324288>> to memref<11008x4096xf32>
    %base_buffer_968, %offset_969, %sizes_970, %strides_971 = memref.extract_strided_metadata %arg0 : memref<6755192832xf32> -> memref<f32>, index, index, index
    %reinterpret_cast_972 = memref.reinterpret_cast %base_buffer_968 to offset: [2874413056], sizes: [11008, 4096], strides: [4096, 1] : memref<f32> to memref<11008x4096xf32, strided<[4096, 1], offset: 2874413056>>
    %alloc_973 = memref.alloc() : memref<11008x4096xf32>
    memref.copy %reinterpret_cast_972, %alloc_973 : memref<11008x4096xf32, strided<[4096, 1], offset: 2874413056>> to memref<11008x4096xf32>
    %base_buffer_974, %offset_975, %sizes_976, %strides_977 = memref.extract_strided_metadata %arg0 : memref<6755192832xf32> -> memref<f32>, index, index, index
    %reinterpret_cast_978 = memref.reinterpret_cast %base_buffer_974 to offset: [2919501824], sizes: [4096, 11008], strides: [11008, 1] : memref<f32> to memref<4096x11008xf32, strided<[11008, 1], offset: 2919501824>>
    %alloc_979 = memref.alloc() : memref<4096x11008xf32>
    memref.copy %reinterpret_cast_978, %alloc_979 : memref<4096x11008xf32, strided<[11008, 1], offset: 2919501824>> to memref<4096x11008xf32>
    %base_buffer_980, %offset_981, %sizes_982, %strides_983 = memref.extract_strided_metadata %arg0 : memref<6755192832xf32> -> memref<f32>, index, index, index
    %reinterpret_cast_984 = memref.reinterpret_cast %base_buffer_980 to offset: [2964590592], sizes: [4096, 4096], strides: [4096, 1] : memref<f32> to memref<4096x4096xf32, strided<[4096, 1], offset: 2964590592>>
    %alloc_985 = memref.alloc() : memref<4096x4096xf32>
    memref.copy %reinterpret_cast_984, %alloc_985 : memref<4096x4096xf32, strided<[4096, 1], offset: 2964590592>> to memref<4096x4096xf32>
    %base_buffer_986, %offset_987, %sizes_988, %strides_989 = memref.extract_strided_metadata %arg0 : memref<6755192832xf32> -> memref<f32>, index, index, index
    %reinterpret_cast_990 = memref.reinterpret_cast %base_buffer_986 to offset: [2981367808], sizes: [4096, 4096], strides: [4096, 1] : memref<f32> to memref<4096x4096xf32, strided<[4096, 1], offset: 2981367808>>
    %alloc_991 = memref.alloc() : memref<4096x4096xf32>
    memref.copy %reinterpret_cast_990, %alloc_991 : memref<4096x4096xf32, strided<[4096, 1], offset: 2981367808>> to memref<4096x4096xf32>
    %base_buffer_992, %offset_993, %sizes_994, %strides_995 = memref.extract_strided_metadata %arg0 : memref<6755192832xf32> -> memref<f32>, index, index, index
    %reinterpret_cast_996 = memref.reinterpret_cast %base_buffer_992 to offset: [2998145024], sizes: [4096, 4096], strides: [4096, 1] : memref<f32> to memref<4096x4096xf32, strided<[4096, 1], offset: 2998145024>>
    %alloc_997 = memref.alloc() : memref<4096x4096xf32>
    memref.copy %reinterpret_cast_996, %alloc_997 : memref<4096x4096xf32, strided<[4096, 1], offset: 2998145024>> to memref<4096x4096xf32>
    %base_buffer_998, %offset_999, %sizes_1000, %strides_1001 = memref.extract_strided_metadata %arg0 : memref<6755192832xf32> -> memref<f32>, index, index, index
    %reinterpret_cast_1002 = memref.reinterpret_cast %base_buffer_998 to offset: [3014922240], sizes: [4096, 4096], strides: [4096, 1] : memref<f32> to memref<4096x4096xf32, strided<[4096, 1], offset: 3014922240>>
    %alloc_1003 = memref.alloc() : memref<4096x4096xf32>
    memref.copy %reinterpret_cast_1002, %alloc_1003 : memref<4096x4096xf32, strided<[4096, 1], offset: 3014922240>> to memref<4096x4096xf32>
    %base_buffer_1004, %offset_1005, %sizes_1006, %strides_1007 = memref.extract_strided_metadata %arg0 : memref<6755192832xf32> -> memref<f32>, index, index, index
    %reinterpret_cast_1008 = memref.reinterpret_cast %base_buffer_1004 to offset: [3031699456], sizes: [11008, 4096], strides: [4096, 1] : memref<f32> to memref<11008x4096xf32, strided<[4096, 1], offset: 3031699456>>
    %alloc_1009 = memref.alloc() : memref<11008x4096xf32>
    memref.copy %reinterpret_cast_1008, %alloc_1009 : memref<11008x4096xf32, strided<[4096, 1], offset: 3031699456>> to memref<11008x4096xf32>
    %base_buffer_1010, %offset_1011, %sizes_1012, %strides_1013 = memref.extract_strided_metadata %arg0 : memref<6755192832xf32> -> memref<f32>, index, index, index
    %reinterpret_cast_1014 = memref.reinterpret_cast %base_buffer_1010 to offset: [3076788224], sizes: [11008, 4096], strides: [4096, 1] : memref<f32> to memref<11008x4096xf32, strided<[4096, 1], offset: 3076788224>>
    %alloc_1015 = memref.alloc() : memref<11008x4096xf32>
    memref.copy %reinterpret_cast_1014, %alloc_1015 : memref<11008x4096xf32, strided<[4096, 1], offset: 3076788224>> to memref<11008x4096xf32>
    %base_buffer_1016, %offset_1017, %sizes_1018, %strides_1019 = memref.extract_strided_metadata %arg0 : memref<6755192832xf32> -> memref<f32>, index, index, index
    %reinterpret_cast_1020 = memref.reinterpret_cast %base_buffer_1016 to offset: [3121876992], sizes: [4096, 11008], strides: [11008, 1] : memref<f32> to memref<4096x11008xf32, strided<[11008, 1], offset: 3121876992>>
    %alloc_1021 = memref.alloc() : memref<4096x11008xf32>
    memref.copy %reinterpret_cast_1020, %alloc_1021 : memref<4096x11008xf32, strided<[11008, 1], offset: 3121876992>> to memref<4096x11008xf32>
    %base_buffer_1022, %offset_1023, %sizes_1024, %strides_1025 = memref.extract_strided_metadata %arg0 : memref<6755192832xf32> -> memref<f32>, index, index, index
    %reinterpret_cast_1026 = memref.reinterpret_cast %base_buffer_1022 to offset: [3166965760], sizes: [4096, 4096], strides: [4096, 1] : memref<f32> to memref<4096x4096xf32, strided<[4096, 1], offset: 3166965760>>
    %alloc_1027 = memref.alloc() : memref<4096x4096xf32>
    memref.copy %reinterpret_cast_1026, %alloc_1027 : memref<4096x4096xf32, strided<[4096, 1], offset: 3166965760>> to memref<4096x4096xf32>
    %base_buffer_1028, %offset_1029, %sizes_1030, %strides_1031 = memref.extract_strided_metadata %arg0 : memref<6755192832xf32> -> memref<f32>, index, index, index
    %reinterpret_cast_1032 = memref.reinterpret_cast %base_buffer_1028 to offset: [3183742976], sizes: [4096, 4096], strides: [4096, 1] : memref<f32> to memref<4096x4096xf32, strided<[4096, 1], offset: 3183742976>>
    %alloc_1033 = memref.alloc() : memref<4096x4096xf32>
    memref.copy %reinterpret_cast_1032, %alloc_1033 : memref<4096x4096xf32, strided<[4096, 1], offset: 3183742976>> to memref<4096x4096xf32>
    %base_buffer_1034, %offset_1035, %sizes_1036, %strides_1037 = memref.extract_strided_metadata %arg0 : memref<6755192832xf32> -> memref<f32>, index, index, index
    %reinterpret_cast_1038 = memref.reinterpret_cast %base_buffer_1034 to offset: [3200520192], sizes: [4096, 4096], strides: [4096, 1] : memref<f32> to memref<4096x4096xf32, strided<[4096, 1], offset: 3200520192>>
    %alloc_1039 = memref.alloc() : memref<4096x4096xf32>
    memref.copy %reinterpret_cast_1038, %alloc_1039 : memref<4096x4096xf32, strided<[4096, 1], offset: 3200520192>> to memref<4096x4096xf32>
    %base_buffer_1040, %offset_1041, %sizes_1042, %strides_1043 = memref.extract_strided_metadata %arg0 : memref<6755192832xf32> -> memref<f32>, index, index, index
    %reinterpret_cast_1044 = memref.reinterpret_cast %base_buffer_1040 to offset: [3217297408], sizes: [4096, 4096], strides: [4096, 1] : memref<f32> to memref<4096x4096xf32, strided<[4096, 1], offset: 3217297408>>
    %alloc_1045 = memref.alloc() : memref<4096x4096xf32>
    memref.copy %reinterpret_cast_1044, %alloc_1045 : memref<4096x4096xf32, strided<[4096, 1], offset: 3217297408>> to memref<4096x4096xf32>
    %base_buffer_1046, %offset_1047, %sizes_1048, %strides_1049 = memref.extract_strided_metadata %arg0 : memref<6755192832xf32> -> memref<f32>, index, index, index
    %reinterpret_cast_1050 = memref.reinterpret_cast %base_buffer_1046 to offset: [3234074624], sizes: [11008, 4096], strides: [4096, 1] : memref<f32> to memref<11008x4096xf32, strided<[4096, 1], offset: 3234074624>>
    %alloc_1051 = memref.alloc() : memref<11008x4096xf32>
    memref.copy %reinterpret_cast_1050, %alloc_1051 : memref<11008x4096xf32, strided<[4096, 1], offset: 3234074624>> to memref<11008x4096xf32>
    %base_buffer_1052, %offset_1053, %sizes_1054, %strides_1055 = memref.extract_strided_metadata %arg0 : memref<6755192832xf32> -> memref<f32>, index, index, index
    %reinterpret_cast_1056 = memref.reinterpret_cast %base_buffer_1052 to offset: [3279163392], sizes: [11008, 4096], strides: [4096, 1] : memref<f32> to memref<11008x4096xf32, strided<[4096, 1], offset: 3279163392>>
    %alloc_1057 = memref.alloc() : memref<11008x4096xf32>
    memref.copy %reinterpret_cast_1056, %alloc_1057 : memref<11008x4096xf32, strided<[4096, 1], offset: 3279163392>> to memref<11008x4096xf32>
    %base_buffer_1058, %offset_1059, %sizes_1060, %strides_1061 = memref.extract_strided_metadata %arg0 : memref<6755192832xf32> -> memref<f32>, index, index, index
    %reinterpret_cast_1062 = memref.reinterpret_cast %base_buffer_1058 to offset: [3324252160], sizes: [4096, 11008], strides: [11008, 1] : memref<f32> to memref<4096x11008xf32, strided<[11008, 1], offset: 3324252160>>
    %alloc_1063 = memref.alloc() : memref<4096x11008xf32>
    memref.copy %reinterpret_cast_1062, %alloc_1063 : memref<4096x11008xf32, strided<[11008, 1], offset: 3324252160>> to memref<4096x11008xf32>
    %base_buffer_1064, %offset_1065, %sizes_1066, %strides_1067 = memref.extract_strided_metadata %arg0 : memref<6755192832xf32> -> memref<f32>, index, index, index
    %reinterpret_cast_1068 = memref.reinterpret_cast %base_buffer_1064 to offset: [3369340928], sizes: [4096, 4096], strides: [4096, 1] : memref<f32> to memref<4096x4096xf32, strided<[4096, 1], offset: 3369340928>>
    %alloc_1069 = memref.alloc() : memref<4096x4096xf32>
    memref.copy %reinterpret_cast_1068, %alloc_1069 : memref<4096x4096xf32, strided<[4096, 1], offset: 3369340928>> to memref<4096x4096xf32>
    %base_buffer_1070, %offset_1071, %sizes_1072, %strides_1073 = memref.extract_strided_metadata %arg0 : memref<6755192832xf32> -> memref<f32>, index, index, index
    %reinterpret_cast_1074 = memref.reinterpret_cast %base_buffer_1070 to offset: [3386118144], sizes: [4096, 4096], strides: [4096, 1] : memref<f32> to memref<4096x4096xf32, strided<[4096, 1], offset: 3386118144>>
    %alloc_1075 = memref.alloc() : memref<4096x4096xf32>
    memref.copy %reinterpret_cast_1074, %alloc_1075 : memref<4096x4096xf32, strided<[4096, 1], offset: 3386118144>> to memref<4096x4096xf32>
    %base_buffer_1076, %offset_1077, %sizes_1078, %strides_1079 = memref.extract_strided_metadata %arg0 : memref<6755192832xf32> -> memref<f32>, index, index, index
    %reinterpret_cast_1080 = memref.reinterpret_cast %base_buffer_1076 to offset: [3402895360], sizes: [4096, 4096], strides: [4096, 1] : memref<f32> to memref<4096x4096xf32, strided<[4096, 1], offset: 3402895360>>
    %alloc_1081 = memref.alloc() : memref<4096x4096xf32>
    memref.copy %reinterpret_cast_1080, %alloc_1081 : memref<4096x4096xf32, strided<[4096, 1], offset: 3402895360>> to memref<4096x4096xf32>
    %base_buffer_1082, %offset_1083, %sizes_1084, %strides_1085 = memref.extract_strided_metadata %arg0 : memref<6755192832xf32> -> memref<f32>, index, index, index
    %reinterpret_cast_1086 = memref.reinterpret_cast %base_buffer_1082 to offset: [3419672576], sizes: [4096, 4096], strides: [4096, 1] : memref<f32> to memref<4096x4096xf32, strided<[4096, 1], offset: 3419672576>>
    %alloc_1087 = memref.alloc() : memref<4096x4096xf32>
    memref.copy %reinterpret_cast_1086, %alloc_1087 : memref<4096x4096xf32, strided<[4096, 1], offset: 3419672576>> to memref<4096x4096xf32>
    %base_buffer_1088, %offset_1089, %sizes_1090, %strides_1091 = memref.extract_strided_metadata %arg0 : memref<6755192832xf32> -> memref<f32>, index, index, index
    %reinterpret_cast_1092 = memref.reinterpret_cast %base_buffer_1088 to offset: [3436449792], sizes: [11008, 4096], strides: [4096, 1] : memref<f32> to memref<11008x4096xf32, strided<[4096, 1], offset: 3436449792>>
    %alloc_1093 = memref.alloc() : memref<11008x4096xf32>
    memref.copy %reinterpret_cast_1092, %alloc_1093 : memref<11008x4096xf32, strided<[4096, 1], offset: 3436449792>> to memref<11008x4096xf32>
    %base_buffer_1094, %offset_1095, %sizes_1096, %strides_1097 = memref.extract_strided_metadata %arg0 : memref<6755192832xf32> -> memref<f32>, index, index, index
    %reinterpret_cast_1098 = memref.reinterpret_cast %base_buffer_1094 to offset: [3481538560], sizes: [11008, 4096], strides: [4096, 1] : memref<f32> to memref<11008x4096xf32, strided<[4096, 1], offset: 3481538560>>
    %alloc_1099 = memref.alloc() : memref<11008x4096xf32>
    memref.copy %reinterpret_cast_1098, %alloc_1099 : memref<11008x4096xf32, strided<[4096, 1], offset: 3481538560>> to memref<11008x4096xf32>
    %base_buffer_1100, %offset_1101, %sizes_1102, %strides_1103 = memref.extract_strided_metadata %arg0 : memref<6755192832xf32> -> memref<f32>, index, index, index
    %reinterpret_cast_1104 = memref.reinterpret_cast %base_buffer_1100 to offset: [3526627328], sizes: [4096, 11008], strides: [11008, 1] : memref<f32> to memref<4096x11008xf32, strided<[11008, 1], offset: 3526627328>>
    %alloc_1105 = memref.alloc() : memref<4096x11008xf32>
    memref.copy %reinterpret_cast_1104, %alloc_1105 : memref<4096x11008xf32, strided<[11008, 1], offset: 3526627328>> to memref<4096x11008xf32>
    %base_buffer_1106, %offset_1107, %sizes_1108, %strides_1109 = memref.extract_strided_metadata %arg0 : memref<6755192832xf32> -> memref<f32>, index, index, index
    %reinterpret_cast_1110 = memref.reinterpret_cast %base_buffer_1106 to offset: [3571716096], sizes: [4096, 4096], strides: [4096, 1] : memref<f32> to memref<4096x4096xf32, strided<[4096, 1], offset: 3571716096>>
    %alloc_1111 = memref.alloc() : memref<4096x4096xf32>
    memref.copy %reinterpret_cast_1110, %alloc_1111 : memref<4096x4096xf32, strided<[4096, 1], offset: 3571716096>> to memref<4096x4096xf32>
    %base_buffer_1112, %offset_1113, %sizes_1114, %strides_1115 = memref.extract_strided_metadata %arg0 : memref<6755192832xf32> -> memref<f32>, index, index, index
    %reinterpret_cast_1116 = memref.reinterpret_cast %base_buffer_1112 to offset: [3588493312], sizes: [4096, 4096], strides: [4096, 1] : memref<f32> to memref<4096x4096xf32, strided<[4096, 1], offset: 3588493312>>
    %alloc_1117 = memref.alloc() : memref<4096x4096xf32>
    memref.copy %reinterpret_cast_1116, %alloc_1117 : memref<4096x4096xf32, strided<[4096, 1], offset: 3588493312>> to memref<4096x4096xf32>
    %base_buffer_1118, %offset_1119, %sizes_1120, %strides_1121 = memref.extract_strided_metadata %arg0 : memref<6755192832xf32> -> memref<f32>, index, index, index
    %reinterpret_cast_1122 = memref.reinterpret_cast %base_buffer_1118 to offset: [3605270528], sizes: [4096, 4096], strides: [4096, 1] : memref<f32> to memref<4096x4096xf32, strided<[4096, 1], offset: 3605270528>>
    %alloc_1123 = memref.alloc() : memref<4096x4096xf32>
    memref.copy %reinterpret_cast_1122, %alloc_1123 : memref<4096x4096xf32, strided<[4096, 1], offset: 3605270528>> to memref<4096x4096xf32>
    %base_buffer_1124, %offset_1125, %sizes_1126, %strides_1127 = memref.extract_strided_metadata %arg0 : memref<6755192832xf32> -> memref<f32>, index, index, index
    %reinterpret_cast_1128 = memref.reinterpret_cast %base_buffer_1124 to offset: [3622047744], sizes: [4096, 4096], strides: [4096, 1] : memref<f32> to memref<4096x4096xf32, strided<[4096, 1], offset: 3622047744>>
    %alloc_1129 = memref.alloc() : memref<4096x4096xf32>
    memref.copy %reinterpret_cast_1128, %alloc_1129 : memref<4096x4096xf32, strided<[4096, 1], offset: 3622047744>> to memref<4096x4096xf32>
    %base_buffer_1130, %offset_1131, %sizes_1132, %strides_1133 = memref.extract_strided_metadata %arg0 : memref<6755192832xf32> -> memref<f32>, index, index, index
    %reinterpret_cast_1134 = memref.reinterpret_cast %base_buffer_1130 to offset: [3638824960], sizes: [11008, 4096], strides: [4096, 1] : memref<f32> to memref<11008x4096xf32, strided<[4096, 1], offset: 3638824960>>
    %alloc_1135 = memref.alloc() : memref<11008x4096xf32>
    memref.copy %reinterpret_cast_1134, %alloc_1135 : memref<11008x4096xf32, strided<[4096, 1], offset: 3638824960>> to memref<11008x4096xf32>
    %base_buffer_1136, %offset_1137, %sizes_1138, %strides_1139 = memref.extract_strided_metadata %arg0 : memref<6755192832xf32> -> memref<f32>, index, index, index
    %reinterpret_cast_1140 = memref.reinterpret_cast %base_buffer_1136 to offset: [3683913728], sizes: [11008, 4096], strides: [4096, 1] : memref<f32> to memref<11008x4096xf32, strided<[4096, 1], offset: 3683913728>>
    %alloc_1141 = memref.alloc() : memref<11008x4096xf32>
    memref.copy %reinterpret_cast_1140, %alloc_1141 : memref<11008x4096xf32, strided<[4096, 1], offset: 3683913728>> to memref<11008x4096xf32>
    %base_buffer_1142, %offset_1143, %sizes_1144, %strides_1145 = memref.extract_strided_metadata %arg0 : memref<6755192832xf32> -> memref<f32>, index, index, index
    %reinterpret_cast_1146 = memref.reinterpret_cast %base_buffer_1142 to offset: [3729002496], sizes: [4096, 11008], strides: [11008, 1] : memref<f32> to memref<4096x11008xf32, strided<[11008, 1], offset: 3729002496>>
    %alloc_1147 = memref.alloc() : memref<4096x11008xf32>
    memref.copy %reinterpret_cast_1146, %alloc_1147 : memref<4096x11008xf32, strided<[11008, 1], offset: 3729002496>> to memref<4096x11008xf32>
    %base_buffer_1148, %offset_1149, %sizes_1150, %strides_1151 = memref.extract_strided_metadata %arg0 : memref<6755192832xf32> -> memref<f32>, index, index, index
    %reinterpret_cast_1152 = memref.reinterpret_cast %base_buffer_1148 to offset: [3774091264], sizes: [4096, 4096], strides: [4096, 1] : memref<f32> to memref<4096x4096xf32, strided<[4096, 1], offset: 3774091264>>
    %alloc_1153 = memref.alloc() : memref<4096x4096xf32>
    memref.copy %reinterpret_cast_1152, %alloc_1153 : memref<4096x4096xf32, strided<[4096, 1], offset: 3774091264>> to memref<4096x4096xf32>
    %base_buffer_1154, %offset_1155, %sizes_1156, %strides_1157 = memref.extract_strided_metadata %arg0 : memref<6755192832xf32> -> memref<f32>, index, index, index
    %reinterpret_cast_1158 = memref.reinterpret_cast %base_buffer_1154 to offset: [3790868480], sizes: [4096, 4096], strides: [4096, 1] : memref<f32> to memref<4096x4096xf32, strided<[4096, 1], offset: 3790868480>>
    %alloc_1159 = memref.alloc() : memref<4096x4096xf32>
    memref.copy %reinterpret_cast_1158, %alloc_1159 : memref<4096x4096xf32, strided<[4096, 1], offset: 3790868480>> to memref<4096x4096xf32>
    %base_buffer_1160, %offset_1161, %sizes_1162, %strides_1163 = memref.extract_strided_metadata %arg0 : memref<6755192832xf32> -> memref<f32>, index, index, index
    %reinterpret_cast_1164 = memref.reinterpret_cast %base_buffer_1160 to offset: [3807645696], sizes: [4096, 4096], strides: [4096, 1] : memref<f32> to memref<4096x4096xf32, strided<[4096, 1], offset: 3807645696>>
    %alloc_1165 = memref.alloc() : memref<4096x4096xf32>
    memref.copy %reinterpret_cast_1164, %alloc_1165 : memref<4096x4096xf32, strided<[4096, 1], offset: 3807645696>> to memref<4096x4096xf32>
    %base_buffer_1166, %offset_1167, %sizes_1168, %strides_1169 = memref.extract_strided_metadata %arg0 : memref<6755192832xf32> -> memref<f32>, index, index, index
    %reinterpret_cast_1170 = memref.reinterpret_cast %base_buffer_1166 to offset: [3824422912], sizes: [4096, 4096], strides: [4096, 1] : memref<f32> to memref<4096x4096xf32, strided<[4096, 1], offset: 3824422912>>
    %alloc_1171 = memref.alloc() : memref<4096x4096xf32>
    memref.copy %reinterpret_cast_1170, %alloc_1171 : memref<4096x4096xf32, strided<[4096, 1], offset: 3824422912>> to memref<4096x4096xf32>
    %base_buffer_1172, %offset_1173, %sizes_1174, %strides_1175 = memref.extract_strided_metadata %arg0 : memref<6755192832xf32> -> memref<f32>, index, index, index
    %reinterpret_cast_1176 = memref.reinterpret_cast %base_buffer_1172 to offset: [3841200128], sizes: [11008, 4096], strides: [4096, 1] : memref<f32> to memref<11008x4096xf32, strided<[4096, 1], offset: 3841200128>>
    %alloc_1177 = memref.alloc() : memref<11008x4096xf32>
    memref.copy %reinterpret_cast_1176, %alloc_1177 : memref<11008x4096xf32, strided<[4096, 1], offset: 3841200128>> to memref<11008x4096xf32>
    %base_buffer_1178, %offset_1179, %sizes_1180, %strides_1181 = memref.extract_strided_metadata %arg0 : memref<6755192832xf32> -> memref<f32>, index, index, index
    %reinterpret_cast_1182 = memref.reinterpret_cast %base_buffer_1178 to offset: [3886288896], sizes: [11008, 4096], strides: [4096, 1] : memref<f32> to memref<11008x4096xf32, strided<[4096, 1], offset: 3886288896>>
    %alloc_1183 = memref.alloc() : memref<11008x4096xf32>
    memref.copy %reinterpret_cast_1182, %alloc_1183 : memref<11008x4096xf32, strided<[4096, 1], offset: 3886288896>> to memref<11008x4096xf32>
    %base_buffer_1184, %offset_1185, %sizes_1186, %strides_1187 = memref.extract_strided_metadata %arg0 : memref<6755192832xf32> -> memref<f32>, index, index, index
    %reinterpret_cast_1188 = memref.reinterpret_cast %base_buffer_1184 to offset: [3931377664], sizes: [4096, 11008], strides: [11008, 1] : memref<f32> to memref<4096x11008xf32, strided<[11008, 1], offset: 3931377664>>
    %alloc_1189 = memref.alloc() : memref<4096x11008xf32>
    memref.copy %reinterpret_cast_1188, %alloc_1189 : memref<4096x11008xf32, strided<[11008, 1], offset: 3931377664>> to memref<4096x11008xf32>
    %base_buffer_1190, %offset_1191, %sizes_1192, %strides_1193 = memref.extract_strided_metadata %arg0 : memref<6755192832xf32> -> memref<f32>, index, index, index
    %reinterpret_cast_1194 = memref.reinterpret_cast %base_buffer_1190 to offset: [3976466432], sizes: [4096, 4096], strides: [4096, 1] : memref<f32> to memref<4096x4096xf32, strided<[4096, 1], offset: 3976466432>>
    %alloc_1195 = memref.alloc() : memref<4096x4096xf32>
    memref.copy %reinterpret_cast_1194, %alloc_1195 : memref<4096x4096xf32, strided<[4096, 1], offset: 3976466432>> to memref<4096x4096xf32>
    %base_buffer_1196, %offset_1197, %sizes_1198, %strides_1199 = memref.extract_strided_metadata %arg0 : memref<6755192832xf32> -> memref<f32>, index, index, index
    %reinterpret_cast_1200 = memref.reinterpret_cast %base_buffer_1196 to offset: [3993243648], sizes: [4096, 4096], strides: [4096, 1] : memref<f32> to memref<4096x4096xf32, strided<[4096, 1], offset: 3993243648>>
    %alloc_1201 = memref.alloc() : memref<4096x4096xf32>
    memref.copy %reinterpret_cast_1200, %alloc_1201 : memref<4096x4096xf32, strided<[4096, 1], offset: 3993243648>> to memref<4096x4096xf32>
    %base_buffer_1202, %offset_1203, %sizes_1204, %strides_1205 = memref.extract_strided_metadata %arg0 : memref<6755192832xf32> -> memref<f32>, index, index, index
    %reinterpret_cast_1206 = memref.reinterpret_cast %base_buffer_1202 to offset: [4010020864], sizes: [4096, 4096], strides: [4096, 1] : memref<f32> to memref<4096x4096xf32, strided<[4096, 1], offset: 4010020864>>
    %alloc_1207 = memref.alloc() : memref<4096x4096xf32>
    memref.copy %reinterpret_cast_1206, %alloc_1207 : memref<4096x4096xf32, strided<[4096, 1], offset: 4010020864>> to memref<4096x4096xf32>
    %base_buffer_1208, %offset_1209, %sizes_1210, %strides_1211 = memref.extract_strided_metadata %arg0 : memref<6755192832xf32> -> memref<f32>, index, index, index
    %reinterpret_cast_1212 = memref.reinterpret_cast %base_buffer_1208 to offset: [4026798080], sizes: [4096, 4096], strides: [4096, 1] : memref<f32> to memref<4096x4096xf32, strided<[4096, 1], offset: 4026798080>>
    %alloc_1213 = memref.alloc() : memref<4096x4096xf32>
    memref.copy %reinterpret_cast_1212, %alloc_1213 : memref<4096x4096xf32, strided<[4096, 1], offset: 4026798080>> to memref<4096x4096xf32>
    %base_buffer_1214, %offset_1215, %sizes_1216, %strides_1217 = memref.extract_strided_metadata %arg0 : memref<6755192832xf32> -> memref<f32>, index, index, index
    %reinterpret_cast_1218 = memref.reinterpret_cast %base_buffer_1214 to offset: [4043575296], sizes: [11008, 4096], strides: [4096, 1] : memref<f32> to memref<11008x4096xf32, strided<[4096, 1], offset: 4043575296>>
    %alloc_1219 = memref.alloc() : memref<11008x4096xf32>
    memref.copy %reinterpret_cast_1218, %alloc_1219 : memref<11008x4096xf32, strided<[4096, 1], offset: 4043575296>> to memref<11008x4096xf32>
    %base_buffer_1220, %offset_1221, %sizes_1222, %strides_1223 = memref.extract_strided_metadata %arg0 : memref<6755192832xf32> -> memref<f32>, index, index, index
    %reinterpret_cast_1224 = memref.reinterpret_cast %base_buffer_1220 to offset: [4088664064], sizes: [11008, 4096], strides: [4096, 1] : memref<f32> to memref<11008x4096xf32, strided<[4096, 1], offset: 4088664064>>
    %alloc_1225 = memref.alloc() : memref<11008x4096xf32>
    memref.copy %reinterpret_cast_1224, %alloc_1225 : memref<11008x4096xf32, strided<[4096, 1], offset: 4088664064>> to memref<11008x4096xf32>
    %base_buffer_1226, %offset_1227, %sizes_1228, %strides_1229 = memref.extract_strided_metadata %arg0 : memref<6755192832xf32> -> memref<f32>, index, index, index
    %reinterpret_cast_1230 = memref.reinterpret_cast %base_buffer_1226 to offset: [4133752832], sizes: [4096, 11008], strides: [11008, 1] : memref<f32> to memref<4096x11008xf32, strided<[11008, 1], offset: 4133752832>>
    %alloc_1231 = memref.alloc() : memref<4096x11008xf32>
    memref.copy %reinterpret_cast_1230, %alloc_1231 : memref<4096x11008xf32, strided<[11008, 1], offset: 4133752832>> to memref<4096x11008xf32>
    %base_buffer_1232, %offset_1233, %sizes_1234, %strides_1235 = memref.extract_strided_metadata %arg0 : memref<6755192832xf32> -> memref<f32>, index, index, index
    %reinterpret_cast_1236 = memref.reinterpret_cast %base_buffer_1232 to offset: [4178841600], sizes: [4096, 4096], strides: [4096, 1] : memref<f32> to memref<4096x4096xf32, strided<[4096, 1], offset: 4178841600>>
    %alloc_1237 = memref.alloc() : memref<4096x4096xf32>
    memref.copy %reinterpret_cast_1236, %alloc_1237 : memref<4096x4096xf32, strided<[4096, 1], offset: 4178841600>> to memref<4096x4096xf32>
    %base_buffer_1238, %offset_1239, %sizes_1240, %strides_1241 = memref.extract_strided_metadata %arg0 : memref<6755192832xf32> -> memref<f32>, index, index, index
    %reinterpret_cast_1242 = memref.reinterpret_cast %base_buffer_1238 to offset: [4195618816], sizes: [4096, 4096], strides: [4096, 1] : memref<f32> to memref<4096x4096xf32, strided<[4096, 1], offset: 4195618816>>
    %alloc_1243 = memref.alloc() : memref<4096x4096xf32>
    memref.copy %reinterpret_cast_1242, %alloc_1243 : memref<4096x4096xf32, strided<[4096, 1], offset: 4195618816>> to memref<4096x4096xf32>
    %base_buffer_1244, %offset_1245, %sizes_1246, %strides_1247 = memref.extract_strided_metadata %arg0 : memref<6755192832xf32> -> memref<f32>, index, index, index
    %reinterpret_cast_1248 = memref.reinterpret_cast %base_buffer_1244 to offset: [4212396032], sizes: [4096, 4096], strides: [4096, 1] : memref<f32> to memref<4096x4096xf32, strided<[4096, 1], offset: 4212396032>>
    %alloc_1249 = memref.alloc() : memref<4096x4096xf32>
    memref.copy %reinterpret_cast_1248, %alloc_1249 : memref<4096x4096xf32, strided<[4096, 1], offset: 4212396032>> to memref<4096x4096xf32>
    %base_buffer_1250, %offset_1251, %sizes_1252, %strides_1253 = memref.extract_strided_metadata %arg0 : memref<6755192832xf32> -> memref<f32>, index, index, index
    %reinterpret_cast_1254 = memref.reinterpret_cast %base_buffer_1250 to offset: [4229173248], sizes: [4096, 4096], strides: [4096, 1] : memref<f32> to memref<4096x4096xf32, strided<[4096, 1], offset: 4229173248>>
    %alloc_1255 = memref.alloc() : memref<4096x4096xf32>
    memref.copy %reinterpret_cast_1254, %alloc_1255 : memref<4096x4096xf32, strided<[4096, 1], offset: 4229173248>> to memref<4096x4096xf32>
    %base_buffer_1256, %offset_1257, %sizes_1258, %strides_1259 = memref.extract_strided_metadata %arg0 : memref<6755192832xf32> -> memref<f32>, index, index, index
    %reinterpret_cast_1260 = memref.reinterpret_cast %base_buffer_1256 to offset: [4245950464], sizes: [11008, 4096], strides: [4096, 1] : memref<f32> to memref<11008x4096xf32, strided<[4096, 1], offset: 4245950464>>
    %alloc_1261 = memref.alloc() : memref<11008x4096xf32>
    memref.copy %reinterpret_cast_1260, %alloc_1261 : memref<11008x4096xf32, strided<[4096, 1], offset: 4245950464>> to memref<11008x4096xf32>
    %base_buffer_1262, %offset_1263, %sizes_1264, %strides_1265 = memref.extract_strided_metadata %arg0 : memref<6755192832xf32> -> memref<f32>, index, index, index
    %reinterpret_cast_1266 = memref.reinterpret_cast %base_buffer_1262 to offset: [4291039232], sizes: [11008, 4096], strides: [4096, 1] : memref<f32> to memref<11008x4096xf32, strided<[4096, 1], offset: 4291039232>>
    %alloc_1267 = memref.alloc() : memref<11008x4096xf32>
    memref.copy %reinterpret_cast_1266, %alloc_1267 : memref<11008x4096xf32, strided<[4096, 1], offset: 4291039232>> to memref<11008x4096xf32>
    %base_buffer_1268, %offset_1269, %sizes_1270, %strides_1271 = memref.extract_strided_metadata %arg0 : memref<6755192832xf32> -> memref<f32>, index, index, index
    %reinterpret_cast_1272 = memref.reinterpret_cast %base_buffer_1268 to offset: [4336128000], sizes: [4096, 11008], strides: [11008, 1] : memref<f32> to memref<4096x11008xf32, strided<[11008, 1], offset: 4336128000>>
    %alloc_1273 = memref.alloc() : memref<4096x11008xf32>
    memref.copy %reinterpret_cast_1272, %alloc_1273 : memref<4096x11008xf32, strided<[11008, 1], offset: 4336128000>> to memref<4096x11008xf32>
    %base_buffer_1274, %offset_1275, %sizes_1276, %strides_1277 = memref.extract_strided_metadata %arg0 : memref<6755192832xf32> -> memref<f32>, index, index, index
    %reinterpret_cast_1278 = memref.reinterpret_cast %base_buffer_1274 to offset: [4381216768], sizes: [4096, 4096], strides: [4096, 1] : memref<f32> to memref<4096x4096xf32, strided<[4096, 1], offset: 4381216768>>
    %alloc_1279 = memref.alloc() : memref<4096x4096xf32>
    memref.copy %reinterpret_cast_1278, %alloc_1279 : memref<4096x4096xf32, strided<[4096, 1], offset: 4381216768>> to memref<4096x4096xf32>
    %base_buffer_1280, %offset_1281, %sizes_1282, %strides_1283 = memref.extract_strided_metadata %arg0 : memref<6755192832xf32> -> memref<f32>, index, index, index
    %reinterpret_cast_1284 = memref.reinterpret_cast %base_buffer_1280 to offset: [4397993984], sizes: [4096, 4096], strides: [4096, 1] : memref<f32> to memref<4096x4096xf32, strided<[4096, 1], offset: 4397993984>>
    %alloc_1285 = memref.alloc() : memref<4096x4096xf32>
    memref.copy %reinterpret_cast_1284, %alloc_1285 : memref<4096x4096xf32, strided<[4096, 1], offset: 4397993984>> to memref<4096x4096xf32>
    %base_buffer_1286, %offset_1287, %sizes_1288, %strides_1289 = memref.extract_strided_metadata %arg0 : memref<6755192832xf32> -> memref<f32>, index, index, index
    %reinterpret_cast_1290 = memref.reinterpret_cast %base_buffer_1286 to offset: [4414771200], sizes: [4096, 4096], strides: [4096, 1] : memref<f32> to memref<4096x4096xf32, strided<[4096, 1], offset: 4414771200>>
    %alloc_1291 = memref.alloc() : memref<4096x4096xf32>
    memref.copy %reinterpret_cast_1290, %alloc_1291 : memref<4096x4096xf32, strided<[4096, 1], offset: 4414771200>> to memref<4096x4096xf32>
    %base_buffer_1292, %offset_1293, %sizes_1294, %strides_1295 = memref.extract_strided_metadata %arg0 : memref<6755192832xf32> -> memref<f32>, index, index, index
    %reinterpret_cast_1296 = memref.reinterpret_cast %base_buffer_1292 to offset: [4431548416], sizes: [4096, 4096], strides: [4096, 1] : memref<f32> to memref<4096x4096xf32, strided<[4096, 1], offset: 4431548416>>
    %alloc_1297 = memref.alloc() : memref<4096x4096xf32>
    memref.copy %reinterpret_cast_1296, %alloc_1297 : memref<4096x4096xf32, strided<[4096, 1], offset: 4431548416>> to memref<4096x4096xf32>
    %base_buffer_1298, %offset_1299, %sizes_1300, %strides_1301 = memref.extract_strided_metadata %arg0 : memref<6755192832xf32> -> memref<f32>, index, index, index
    %reinterpret_cast_1302 = memref.reinterpret_cast %base_buffer_1298 to offset: [4448325632], sizes: [11008, 4096], strides: [4096, 1] : memref<f32> to memref<11008x4096xf32, strided<[4096, 1], offset: 4448325632>>
    %alloc_1303 = memref.alloc() : memref<11008x4096xf32>
    memref.copy %reinterpret_cast_1302, %alloc_1303 : memref<11008x4096xf32, strided<[4096, 1], offset: 4448325632>> to memref<11008x4096xf32>
    %base_buffer_1304, %offset_1305, %sizes_1306, %strides_1307 = memref.extract_strided_metadata %arg0 : memref<6755192832xf32> -> memref<f32>, index, index, index
    %reinterpret_cast_1308 = memref.reinterpret_cast %base_buffer_1304 to offset: [4493414400], sizes: [11008, 4096], strides: [4096, 1] : memref<f32> to memref<11008x4096xf32, strided<[4096, 1], offset: 4493414400>>
    %alloc_1309 = memref.alloc() : memref<11008x4096xf32>
    memref.copy %reinterpret_cast_1308, %alloc_1309 : memref<11008x4096xf32, strided<[4096, 1], offset: 4493414400>> to memref<11008x4096xf32>
    %base_buffer_1310, %offset_1311, %sizes_1312, %strides_1313 = memref.extract_strided_metadata %arg0 : memref<6755192832xf32> -> memref<f32>, index, index, index
    %reinterpret_cast_1314 = memref.reinterpret_cast %base_buffer_1310 to offset: [4538503168], sizes: [4096, 11008], strides: [11008, 1] : memref<f32> to memref<4096x11008xf32, strided<[11008, 1], offset: 4538503168>>
    %alloc_1315 = memref.alloc() : memref<4096x11008xf32>
    memref.copy %reinterpret_cast_1314, %alloc_1315 : memref<4096x11008xf32, strided<[11008, 1], offset: 4538503168>> to memref<4096x11008xf32>
    %base_buffer_1316, %offset_1317, %sizes_1318, %strides_1319 = memref.extract_strided_metadata %arg0 : memref<6755192832xf32> -> memref<f32>, index, index, index
    %reinterpret_cast_1320 = memref.reinterpret_cast %base_buffer_1316 to offset: [4583591936], sizes: [4096, 4096], strides: [4096, 1] : memref<f32> to memref<4096x4096xf32, strided<[4096, 1], offset: 4583591936>>
    %alloc_1321 = memref.alloc() : memref<4096x4096xf32>
    memref.copy %reinterpret_cast_1320, %alloc_1321 : memref<4096x4096xf32, strided<[4096, 1], offset: 4583591936>> to memref<4096x4096xf32>
    %base_buffer_1322, %offset_1323, %sizes_1324, %strides_1325 = memref.extract_strided_metadata %arg0 : memref<6755192832xf32> -> memref<f32>, index, index, index
    %reinterpret_cast_1326 = memref.reinterpret_cast %base_buffer_1322 to offset: [4600369152], sizes: [4096, 4096], strides: [4096, 1] : memref<f32> to memref<4096x4096xf32, strided<[4096, 1], offset: 4600369152>>
    %alloc_1327 = memref.alloc() : memref<4096x4096xf32>
    memref.copy %reinterpret_cast_1326, %alloc_1327 : memref<4096x4096xf32, strided<[4096, 1], offset: 4600369152>> to memref<4096x4096xf32>
    %base_buffer_1328, %offset_1329, %sizes_1330, %strides_1331 = memref.extract_strided_metadata %arg0 : memref<6755192832xf32> -> memref<f32>, index, index, index
    %reinterpret_cast_1332 = memref.reinterpret_cast %base_buffer_1328 to offset: [4617146368], sizes: [4096, 4096], strides: [4096, 1] : memref<f32> to memref<4096x4096xf32, strided<[4096, 1], offset: 4617146368>>
    %alloc_1333 = memref.alloc() : memref<4096x4096xf32>
    memref.copy %reinterpret_cast_1332, %alloc_1333 : memref<4096x4096xf32, strided<[4096, 1], offset: 4617146368>> to memref<4096x4096xf32>
    %base_buffer_1334, %offset_1335, %sizes_1336, %strides_1337 = memref.extract_strided_metadata %arg0 : memref<6755192832xf32> -> memref<f32>, index, index, index
    %reinterpret_cast_1338 = memref.reinterpret_cast %base_buffer_1334 to offset: [4633923584], sizes: [4096, 4096], strides: [4096, 1] : memref<f32> to memref<4096x4096xf32, strided<[4096, 1], offset: 4633923584>>
    %alloc_1339 = memref.alloc() : memref<4096x4096xf32>
    memref.copy %reinterpret_cast_1338, %alloc_1339 : memref<4096x4096xf32, strided<[4096, 1], offset: 4633923584>> to memref<4096x4096xf32>
    %base_buffer_1340, %offset_1341, %sizes_1342, %strides_1343 = memref.extract_strided_metadata %arg0 : memref<6755192832xf32> -> memref<f32>, index, index, index
    %reinterpret_cast_1344 = memref.reinterpret_cast %base_buffer_1340 to offset: [4650700800], sizes: [11008, 4096], strides: [4096, 1] : memref<f32> to memref<11008x4096xf32, strided<[4096, 1], offset: 4650700800>>
    %alloc_1345 = memref.alloc() : memref<11008x4096xf32>
    memref.copy %reinterpret_cast_1344, %alloc_1345 : memref<11008x4096xf32, strided<[4096, 1], offset: 4650700800>> to memref<11008x4096xf32>
    %base_buffer_1346, %offset_1347, %sizes_1348, %strides_1349 = memref.extract_strided_metadata %arg0 : memref<6755192832xf32> -> memref<f32>, index, index, index
    %reinterpret_cast_1350 = memref.reinterpret_cast %base_buffer_1346 to offset: [4695789568], sizes: [11008, 4096], strides: [4096, 1] : memref<f32> to memref<11008x4096xf32, strided<[4096, 1], offset: 4695789568>>
    %alloc_1351 = memref.alloc() : memref<11008x4096xf32>
    memref.copy %reinterpret_cast_1350, %alloc_1351 : memref<11008x4096xf32, strided<[4096, 1], offset: 4695789568>> to memref<11008x4096xf32>
    %base_buffer_1352, %offset_1353, %sizes_1354, %strides_1355 = memref.extract_strided_metadata %arg0 : memref<6755192832xf32> -> memref<f32>, index, index, index
    %reinterpret_cast_1356 = memref.reinterpret_cast %base_buffer_1352 to offset: [4740878336], sizes: [4096, 11008], strides: [11008, 1] : memref<f32> to memref<4096x11008xf32, strided<[11008, 1], offset: 4740878336>>
    %alloc_1357 = memref.alloc() : memref<4096x11008xf32>
    memref.copy %reinterpret_cast_1356, %alloc_1357 : memref<4096x11008xf32, strided<[11008, 1], offset: 4740878336>> to memref<4096x11008xf32>
    %base_buffer_1358, %offset_1359, %sizes_1360, %strides_1361 = memref.extract_strided_metadata %arg0 : memref<6755192832xf32> -> memref<f32>, index, index, index
    %reinterpret_cast_1362 = memref.reinterpret_cast %base_buffer_1358 to offset: [4785967104], sizes: [4096, 4096], strides: [4096, 1] : memref<f32> to memref<4096x4096xf32, strided<[4096, 1], offset: 4785967104>>
    %alloc_1363 = memref.alloc() : memref<4096x4096xf32>
    memref.copy %reinterpret_cast_1362, %alloc_1363 : memref<4096x4096xf32, strided<[4096, 1], offset: 4785967104>> to memref<4096x4096xf32>
    %base_buffer_1364, %offset_1365, %sizes_1366, %strides_1367 = memref.extract_strided_metadata %arg0 : memref<6755192832xf32> -> memref<f32>, index, index, index
    %reinterpret_cast_1368 = memref.reinterpret_cast %base_buffer_1364 to offset: [4802744320], sizes: [4096, 4096], strides: [4096, 1] : memref<f32> to memref<4096x4096xf32, strided<[4096, 1], offset: 4802744320>>
    %alloc_1369 = memref.alloc() : memref<4096x4096xf32>
    memref.copy %reinterpret_cast_1368, %alloc_1369 : memref<4096x4096xf32, strided<[4096, 1], offset: 4802744320>> to memref<4096x4096xf32>
    %base_buffer_1370, %offset_1371, %sizes_1372, %strides_1373 = memref.extract_strided_metadata %arg0 : memref<6755192832xf32> -> memref<f32>, index, index, index
    %reinterpret_cast_1374 = memref.reinterpret_cast %base_buffer_1370 to offset: [4819521536], sizes: [4096, 4096], strides: [4096, 1] : memref<f32> to memref<4096x4096xf32, strided<[4096, 1], offset: 4819521536>>
    %alloc_1375 = memref.alloc() : memref<4096x4096xf32>
    memref.copy %reinterpret_cast_1374, %alloc_1375 : memref<4096x4096xf32, strided<[4096, 1], offset: 4819521536>> to memref<4096x4096xf32>
    %base_buffer_1376, %offset_1377, %sizes_1378, %strides_1379 = memref.extract_strided_metadata %arg0 : memref<6755192832xf32> -> memref<f32>, index, index, index
    %reinterpret_cast_1380 = memref.reinterpret_cast %base_buffer_1376 to offset: [4836298752], sizes: [4096, 4096], strides: [4096, 1] : memref<f32> to memref<4096x4096xf32, strided<[4096, 1], offset: 4836298752>>
    %alloc_1381 = memref.alloc() : memref<4096x4096xf32>
    memref.copy %reinterpret_cast_1380, %alloc_1381 : memref<4096x4096xf32, strided<[4096, 1], offset: 4836298752>> to memref<4096x4096xf32>
    %base_buffer_1382, %offset_1383, %sizes_1384, %strides_1385 = memref.extract_strided_metadata %arg0 : memref<6755192832xf32> -> memref<f32>, index, index, index
    %reinterpret_cast_1386 = memref.reinterpret_cast %base_buffer_1382 to offset: [4853075968], sizes: [11008, 4096], strides: [4096, 1] : memref<f32> to memref<11008x4096xf32, strided<[4096, 1], offset: 4853075968>>
    %alloc_1387 = memref.alloc() : memref<11008x4096xf32>
    memref.copy %reinterpret_cast_1386, %alloc_1387 : memref<11008x4096xf32, strided<[4096, 1], offset: 4853075968>> to memref<11008x4096xf32>
    %base_buffer_1388, %offset_1389, %sizes_1390, %strides_1391 = memref.extract_strided_metadata %arg0 : memref<6755192832xf32> -> memref<f32>, index, index, index
    %reinterpret_cast_1392 = memref.reinterpret_cast %base_buffer_1388 to offset: [4898164736], sizes: [11008, 4096], strides: [4096, 1] : memref<f32> to memref<11008x4096xf32, strided<[4096, 1], offset: 4898164736>>
    %alloc_1393 = memref.alloc() : memref<11008x4096xf32>
    memref.copy %reinterpret_cast_1392, %alloc_1393 : memref<11008x4096xf32, strided<[4096, 1], offset: 4898164736>> to memref<11008x4096xf32>
    %base_buffer_1394, %offset_1395, %sizes_1396, %strides_1397 = memref.extract_strided_metadata %arg0 : memref<6755192832xf32> -> memref<f32>, index, index, index
    %reinterpret_cast_1398 = memref.reinterpret_cast %base_buffer_1394 to offset: [4943253504], sizes: [4096, 11008], strides: [11008, 1] : memref<f32> to memref<4096x11008xf32, strided<[11008, 1], offset: 4943253504>>
    %alloc_1399 = memref.alloc() : memref<4096x11008xf32>
    memref.copy %reinterpret_cast_1398, %alloc_1399 : memref<4096x11008xf32, strided<[11008, 1], offset: 4943253504>> to memref<4096x11008xf32>
    %base_buffer_1400, %offset_1401, %sizes_1402, %strides_1403 = memref.extract_strided_metadata %arg0 : memref<6755192832xf32> -> memref<f32>, index, index, index
    %reinterpret_cast_1404 = memref.reinterpret_cast %base_buffer_1400 to offset: [4988342272], sizes: [4096, 4096], strides: [4096, 1] : memref<f32> to memref<4096x4096xf32, strided<[4096, 1], offset: 4988342272>>
    %alloc_1405 = memref.alloc() : memref<4096x4096xf32>
    memref.copy %reinterpret_cast_1404, %alloc_1405 : memref<4096x4096xf32, strided<[4096, 1], offset: 4988342272>> to memref<4096x4096xf32>
    %base_buffer_1406, %offset_1407, %sizes_1408, %strides_1409 = memref.extract_strided_metadata %arg0 : memref<6755192832xf32> -> memref<f32>, index, index, index
    %reinterpret_cast_1410 = memref.reinterpret_cast %base_buffer_1406 to offset: [5005119488], sizes: [4096, 4096], strides: [4096, 1] : memref<f32> to memref<4096x4096xf32, strided<[4096, 1], offset: 5005119488>>
    %alloc_1411 = memref.alloc() : memref<4096x4096xf32>
    memref.copy %reinterpret_cast_1410, %alloc_1411 : memref<4096x4096xf32, strided<[4096, 1], offset: 5005119488>> to memref<4096x4096xf32>
    %base_buffer_1412, %offset_1413, %sizes_1414, %strides_1415 = memref.extract_strided_metadata %arg0 : memref<6755192832xf32> -> memref<f32>, index, index, index
    %reinterpret_cast_1416 = memref.reinterpret_cast %base_buffer_1412 to offset: [5021896704], sizes: [4096, 4096], strides: [4096, 1] : memref<f32> to memref<4096x4096xf32, strided<[4096, 1], offset: 5021896704>>
    %alloc_1417 = memref.alloc() : memref<4096x4096xf32>
    memref.copy %reinterpret_cast_1416, %alloc_1417 : memref<4096x4096xf32, strided<[4096, 1], offset: 5021896704>> to memref<4096x4096xf32>
    %base_buffer_1418, %offset_1419, %sizes_1420, %strides_1421 = memref.extract_strided_metadata %arg0 : memref<6755192832xf32> -> memref<f32>, index, index, index
    %reinterpret_cast_1422 = memref.reinterpret_cast %base_buffer_1418 to offset: [5038673920], sizes: [4096, 4096], strides: [4096, 1] : memref<f32> to memref<4096x4096xf32, strided<[4096, 1], offset: 5038673920>>
    %alloc_1423 = memref.alloc() : memref<4096x4096xf32>
    memref.copy %reinterpret_cast_1422, %alloc_1423 : memref<4096x4096xf32, strided<[4096, 1], offset: 5038673920>> to memref<4096x4096xf32>
    %base_buffer_1424, %offset_1425, %sizes_1426, %strides_1427 = memref.extract_strided_metadata %arg0 : memref<6755192832xf32> -> memref<f32>, index, index, index
    %reinterpret_cast_1428 = memref.reinterpret_cast %base_buffer_1424 to offset: [5055451136], sizes: [11008, 4096], strides: [4096, 1] : memref<f32> to memref<11008x4096xf32, strided<[4096, 1], offset: 5055451136>>
    %alloc_1429 = memref.alloc() : memref<11008x4096xf32>
    memref.copy %reinterpret_cast_1428, %alloc_1429 : memref<11008x4096xf32, strided<[4096, 1], offset: 5055451136>> to memref<11008x4096xf32>
    %base_buffer_1430, %offset_1431, %sizes_1432, %strides_1433 = memref.extract_strided_metadata %arg0 : memref<6755192832xf32> -> memref<f32>, index, index, index
    %reinterpret_cast_1434 = memref.reinterpret_cast %base_buffer_1430 to offset: [5100539904], sizes: [11008, 4096], strides: [4096, 1] : memref<f32> to memref<11008x4096xf32, strided<[4096, 1], offset: 5100539904>>
    %alloc_1435 = memref.alloc() : memref<11008x4096xf32>
    memref.copy %reinterpret_cast_1434, %alloc_1435 : memref<11008x4096xf32, strided<[4096, 1], offset: 5100539904>> to memref<11008x4096xf32>
    %base_buffer_1436, %offset_1437, %sizes_1438, %strides_1439 = memref.extract_strided_metadata %arg0 : memref<6755192832xf32> -> memref<f32>, index, index, index
    %reinterpret_cast_1440 = memref.reinterpret_cast %base_buffer_1436 to offset: [5145628672], sizes: [4096, 11008], strides: [11008, 1] : memref<f32> to memref<4096x11008xf32, strided<[11008, 1], offset: 5145628672>>
    %alloc_1441 = memref.alloc() : memref<4096x11008xf32>
    memref.copy %reinterpret_cast_1440, %alloc_1441 : memref<4096x11008xf32, strided<[11008, 1], offset: 5145628672>> to memref<4096x11008xf32>
    %base_buffer_1442, %offset_1443, %sizes_1444, %strides_1445 = memref.extract_strided_metadata %arg0 : memref<6755192832xf32> -> memref<f32>, index, index, index
    %reinterpret_cast_1446 = memref.reinterpret_cast %base_buffer_1442 to offset: [5190717440], sizes: [4096, 4096], strides: [4096, 1] : memref<f32> to memref<4096x4096xf32, strided<[4096, 1], offset: 5190717440>>
    %alloc_1447 = memref.alloc() : memref<4096x4096xf32>
    memref.copy %reinterpret_cast_1446, %alloc_1447 : memref<4096x4096xf32, strided<[4096, 1], offset: 5190717440>> to memref<4096x4096xf32>
    %base_buffer_1448, %offset_1449, %sizes_1450, %strides_1451 = memref.extract_strided_metadata %arg0 : memref<6755192832xf32> -> memref<f32>, index, index, index
    %reinterpret_cast_1452 = memref.reinterpret_cast %base_buffer_1448 to offset: [5207494656], sizes: [4096, 4096], strides: [4096, 1] : memref<f32> to memref<4096x4096xf32, strided<[4096, 1], offset: 5207494656>>
    %alloc_1453 = memref.alloc() : memref<4096x4096xf32>
    memref.copy %reinterpret_cast_1452, %alloc_1453 : memref<4096x4096xf32, strided<[4096, 1], offset: 5207494656>> to memref<4096x4096xf32>
    %base_buffer_1454, %offset_1455, %sizes_1456, %strides_1457 = memref.extract_strided_metadata %arg0 : memref<6755192832xf32> -> memref<f32>, index, index, index
    %reinterpret_cast_1458 = memref.reinterpret_cast %base_buffer_1454 to offset: [5224271872], sizes: [4096, 4096], strides: [4096, 1] : memref<f32> to memref<4096x4096xf32, strided<[4096, 1], offset: 5224271872>>
    %alloc_1459 = memref.alloc() : memref<4096x4096xf32>
    memref.copy %reinterpret_cast_1458, %alloc_1459 : memref<4096x4096xf32, strided<[4096, 1], offset: 5224271872>> to memref<4096x4096xf32>
    %base_buffer_1460, %offset_1461, %sizes_1462, %strides_1463 = memref.extract_strided_metadata %arg0 : memref<6755192832xf32> -> memref<f32>, index, index, index
    %reinterpret_cast_1464 = memref.reinterpret_cast %base_buffer_1460 to offset: [5241049088], sizes: [4096, 4096], strides: [4096, 1] : memref<f32> to memref<4096x4096xf32, strided<[4096, 1], offset: 5241049088>>
    %alloc_1465 = memref.alloc() : memref<4096x4096xf32>
    memref.copy %reinterpret_cast_1464, %alloc_1465 : memref<4096x4096xf32, strided<[4096, 1], offset: 5241049088>> to memref<4096x4096xf32>
    %base_buffer_1466, %offset_1467, %sizes_1468, %strides_1469 = memref.extract_strided_metadata %arg0 : memref<6755192832xf32> -> memref<f32>, index, index, index
    %reinterpret_cast_1470 = memref.reinterpret_cast %base_buffer_1466 to offset: [5257826304], sizes: [11008, 4096], strides: [4096, 1] : memref<f32> to memref<11008x4096xf32, strided<[4096, 1], offset: 5257826304>>
    %alloc_1471 = memref.alloc() : memref<11008x4096xf32>
    memref.copy %reinterpret_cast_1470, %alloc_1471 : memref<11008x4096xf32, strided<[4096, 1], offset: 5257826304>> to memref<11008x4096xf32>
    %base_buffer_1472, %offset_1473, %sizes_1474, %strides_1475 = memref.extract_strided_metadata %arg0 : memref<6755192832xf32> -> memref<f32>, index, index, index
    %reinterpret_cast_1476 = memref.reinterpret_cast %base_buffer_1472 to offset: [5302915072], sizes: [11008, 4096], strides: [4096, 1] : memref<f32> to memref<11008x4096xf32, strided<[4096, 1], offset: 5302915072>>
    %alloc_1477 = memref.alloc() : memref<11008x4096xf32>
    memref.copy %reinterpret_cast_1476, %alloc_1477 : memref<11008x4096xf32, strided<[4096, 1], offset: 5302915072>> to memref<11008x4096xf32>
    %base_buffer_1478, %offset_1479, %sizes_1480, %strides_1481 = memref.extract_strided_metadata %arg0 : memref<6755192832xf32> -> memref<f32>, index, index, index
    %reinterpret_cast_1482 = memref.reinterpret_cast %base_buffer_1478 to offset: [5348003840], sizes: [4096, 11008], strides: [11008, 1] : memref<f32> to memref<4096x11008xf32, strided<[11008, 1], offset: 5348003840>>
    %alloc_1483 = memref.alloc() : memref<4096x11008xf32>
    memref.copy %reinterpret_cast_1482, %alloc_1483 : memref<4096x11008xf32, strided<[11008, 1], offset: 5348003840>> to memref<4096x11008xf32>
    %base_buffer_1484, %offset_1485, %sizes_1486, %strides_1487 = memref.extract_strided_metadata %arg0 : memref<6755192832xf32> -> memref<f32>, index, index, index
    %reinterpret_cast_1488 = memref.reinterpret_cast %base_buffer_1484 to offset: [5393092608], sizes: [4096, 4096], strides: [4096, 1] : memref<f32> to memref<4096x4096xf32, strided<[4096, 1], offset: 5393092608>>
    %alloc_1489 = memref.alloc() : memref<4096x4096xf32>
    memref.copy %reinterpret_cast_1488, %alloc_1489 : memref<4096x4096xf32, strided<[4096, 1], offset: 5393092608>> to memref<4096x4096xf32>
    %base_buffer_1490, %offset_1491, %sizes_1492, %strides_1493 = memref.extract_strided_metadata %arg0 : memref<6755192832xf32> -> memref<f32>, index, index, index
    %reinterpret_cast_1494 = memref.reinterpret_cast %base_buffer_1490 to offset: [5409869824], sizes: [4096, 4096], strides: [4096, 1] : memref<f32> to memref<4096x4096xf32, strided<[4096, 1], offset: 5409869824>>
    %alloc_1495 = memref.alloc() : memref<4096x4096xf32>
    memref.copy %reinterpret_cast_1494, %alloc_1495 : memref<4096x4096xf32, strided<[4096, 1], offset: 5409869824>> to memref<4096x4096xf32>
    %base_buffer_1496, %offset_1497, %sizes_1498, %strides_1499 = memref.extract_strided_metadata %arg0 : memref<6755192832xf32> -> memref<f32>, index, index, index
    %reinterpret_cast_1500 = memref.reinterpret_cast %base_buffer_1496 to offset: [5426647040], sizes: [4096, 4096], strides: [4096, 1] : memref<f32> to memref<4096x4096xf32, strided<[4096, 1], offset: 5426647040>>
    %alloc_1501 = memref.alloc() : memref<4096x4096xf32>
    memref.copy %reinterpret_cast_1500, %alloc_1501 : memref<4096x4096xf32, strided<[4096, 1], offset: 5426647040>> to memref<4096x4096xf32>
    %base_buffer_1502, %offset_1503, %sizes_1504, %strides_1505 = memref.extract_strided_metadata %arg0 : memref<6755192832xf32> -> memref<f32>, index, index, index
    %reinterpret_cast_1506 = memref.reinterpret_cast %base_buffer_1502 to offset: [5443424256], sizes: [4096, 4096], strides: [4096, 1] : memref<f32> to memref<4096x4096xf32, strided<[4096, 1], offset: 5443424256>>
    %alloc_1507 = memref.alloc() : memref<4096x4096xf32>
    memref.copy %reinterpret_cast_1506, %alloc_1507 : memref<4096x4096xf32, strided<[4096, 1], offset: 5443424256>> to memref<4096x4096xf32>
    %base_buffer_1508, %offset_1509, %sizes_1510, %strides_1511 = memref.extract_strided_metadata %arg0 : memref<6755192832xf32> -> memref<f32>, index, index, index
    %reinterpret_cast_1512 = memref.reinterpret_cast %base_buffer_1508 to offset: [5460201472], sizes: [11008, 4096], strides: [4096, 1] : memref<f32> to memref<11008x4096xf32, strided<[4096, 1], offset: 5460201472>>
    %alloc_1513 = memref.alloc() : memref<11008x4096xf32>
    memref.copy %reinterpret_cast_1512, %alloc_1513 : memref<11008x4096xf32, strided<[4096, 1], offset: 5460201472>> to memref<11008x4096xf32>
    %base_buffer_1514, %offset_1515, %sizes_1516, %strides_1517 = memref.extract_strided_metadata %arg0 : memref<6755192832xf32> -> memref<f32>, index, index, index
    %reinterpret_cast_1518 = memref.reinterpret_cast %base_buffer_1514 to offset: [5505290240], sizes: [11008, 4096], strides: [4096, 1] : memref<f32> to memref<11008x4096xf32, strided<[4096, 1], offset: 5505290240>>
    %alloc_1519 = memref.alloc() : memref<11008x4096xf32>
    memref.copy %reinterpret_cast_1518, %alloc_1519 : memref<11008x4096xf32, strided<[4096, 1], offset: 5505290240>> to memref<11008x4096xf32>
    %base_buffer_1520, %offset_1521, %sizes_1522, %strides_1523 = memref.extract_strided_metadata %arg0 : memref<6755192832xf32> -> memref<f32>, index, index, index
    %reinterpret_cast_1524 = memref.reinterpret_cast %base_buffer_1520 to offset: [5550379008], sizes: [4096, 11008], strides: [11008, 1] : memref<f32> to memref<4096x11008xf32, strided<[11008, 1], offset: 5550379008>>
    %alloc_1525 = memref.alloc() : memref<4096x11008xf32>
    memref.copy %reinterpret_cast_1524, %alloc_1525 : memref<4096x11008xf32, strided<[11008, 1], offset: 5550379008>> to memref<4096x11008xf32>
    %base_buffer_1526, %offset_1527, %sizes_1528, %strides_1529 = memref.extract_strided_metadata %arg0 : memref<6755192832xf32> -> memref<f32>, index, index, index
    %reinterpret_cast_1530 = memref.reinterpret_cast %base_buffer_1526 to offset: [5595467776], sizes: [4096, 4096], strides: [4096, 1] : memref<f32> to memref<4096x4096xf32, strided<[4096, 1], offset: 5595467776>>
    %alloc_1531 = memref.alloc() : memref<4096x4096xf32>
    memref.copy %reinterpret_cast_1530, %alloc_1531 : memref<4096x4096xf32, strided<[4096, 1], offset: 5595467776>> to memref<4096x4096xf32>
    %base_buffer_1532, %offset_1533, %sizes_1534, %strides_1535 = memref.extract_strided_metadata %arg0 : memref<6755192832xf32> -> memref<f32>, index, index, index
    %reinterpret_cast_1536 = memref.reinterpret_cast %base_buffer_1532 to offset: [5612244992], sizes: [4096, 4096], strides: [4096, 1] : memref<f32> to memref<4096x4096xf32, strided<[4096, 1], offset: 5612244992>>
    %alloc_1537 = memref.alloc() : memref<4096x4096xf32>
    memref.copy %reinterpret_cast_1536, %alloc_1537 : memref<4096x4096xf32, strided<[4096, 1], offset: 5612244992>> to memref<4096x4096xf32>
    %base_buffer_1538, %offset_1539, %sizes_1540, %strides_1541 = memref.extract_strided_metadata %arg0 : memref<6755192832xf32> -> memref<f32>, index, index, index
    %reinterpret_cast_1542 = memref.reinterpret_cast %base_buffer_1538 to offset: [5629022208], sizes: [4096, 4096], strides: [4096, 1] : memref<f32> to memref<4096x4096xf32, strided<[4096, 1], offset: 5629022208>>
    %alloc_1543 = memref.alloc() : memref<4096x4096xf32>
    memref.copy %reinterpret_cast_1542, %alloc_1543 : memref<4096x4096xf32, strided<[4096, 1], offset: 5629022208>> to memref<4096x4096xf32>
    %base_buffer_1544, %offset_1545, %sizes_1546, %strides_1547 = memref.extract_strided_metadata %arg0 : memref<6755192832xf32> -> memref<f32>, index, index, index
    %reinterpret_cast_1548 = memref.reinterpret_cast %base_buffer_1544 to offset: [5645799424], sizes: [4096, 4096], strides: [4096, 1] : memref<f32> to memref<4096x4096xf32, strided<[4096, 1], offset: 5645799424>>
    %alloc_1549 = memref.alloc() : memref<4096x4096xf32>
    memref.copy %reinterpret_cast_1548, %alloc_1549 : memref<4096x4096xf32, strided<[4096, 1], offset: 5645799424>> to memref<4096x4096xf32>
    %base_buffer_1550, %offset_1551, %sizes_1552, %strides_1553 = memref.extract_strided_metadata %arg0 : memref<6755192832xf32> -> memref<f32>, index, index, index
    %reinterpret_cast_1554 = memref.reinterpret_cast %base_buffer_1550 to offset: [5662576640], sizes: [11008, 4096], strides: [4096, 1] : memref<f32> to memref<11008x4096xf32, strided<[4096, 1], offset: 5662576640>>
    %alloc_1555 = memref.alloc() : memref<11008x4096xf32>
    memref.copy %reinterpret_cast_1554, %alloc_1555 : memref<11008x4096xf32, strided<[4096, 1], offset: 5662576640>> to memref<11008x4096xf32>
    %base_buffer_1556, %offset_1557, %sizes_1558, %strides_1559 = memref.extract_strided_metadata %arg0 : memref<6755192832xf32> -> memref<f32>, index, index, index
    %reinterpret_cast_1560 = memref.reinterpret_cast %base_buffer_1556 to offset: [5707665408], sizes: [11008, 4096], strides: [4096, 1] : memref<f32> to memref<11008x4096xf32, strided<[4096, 1], offset: 5707665408>>
    %alloc_1561 = memref.alloc() : memref<11008x4096xf32>
    memref.copy %reinterpret_cast_1560, %alloc_1561 : memref<11008x4096xf32, strided<[4096, 1], offset: 5707665408>> to memref<11008x4096xf32>
    %base_buffer_1562, %offset_1563, %sizes_1564, %strides_1565 = memref.extract_strided_metadata %arg0 : memref<6755192832xf32> -> memref<f32>, index, index, index
    %reinterpret_cast_1566 = memref.reinterpret_cast %base_buffer_1562 to offset: [5752754176], sizes: [4096, 11008], strides: [11008, 1] : memref<f32> to memref<4096x11008xf32, strided<[11008, 1], offset: 5752754176>>
    %alloc_1567 = memref.alloc() : memref<4096x11008xf32>
    memref.copy %reinterpret_cast_1566, %alloc_1567 : memref<4096x11008xf32, strided<[11008, 1], offset: 5752754176>> to memref<4096x11008xf32>
    %base_buffer_1568, %offset_1569, %sizes_1570, %strides_1571 = memref.extract_strided_metadata %arg0 : memref<6755192832xf32> -> memref<f32>, index, index, index
    %reinterpret_cast_1572 = memref.reinterpret_cast %base_buffer_1568 to offset: [5797842944], sizes: [4096, 4096], strides: [4096, 1] : memref<f32> to memref<4096x4096xf32, strided<[4096, 1], offset: 5797842944>>
    %alloc_1573 = memref.alloc() : memref<4096x4096xf32>
    memref.copy %reinterpret_cast_1572, %alloc_1573 : memref<4096x4096xf32, strided<[4096, 1], offset: 5797842944>> to memref<4096x4096xf32>
    %base_buffer_1574, %offset_1575, %sizes_1576, %strides_1577 = memref.extract_strided_metadata %arg0 : memref<6755192832xf32> -> memref<f32>, index, index, index
    %reinterpret_cast_1578 = memref.reinterpret_cast %base_buffer_1574 to offset: [5814620160], sizes: [4096, 4096], strides: [4096, 1] : memref<f32> to memref<4096x4096xf32, strided<[4096, 1], offset: 5814620160>>
    %alloc_1579 = memref.alloc() : memref<4096x4096xf32>
    memref.copy %reinterpret_cast_1578, %alloc_1579 : memref<4096x4096xf32, strided<[4096, 1], offset: 5814620160>> to memref<4096x4096xf32>
    %base_buffer_1580, %offset_1581, %sizes_1582, %strides_1583 = memref.extract_strided_metadata %arg0 : memref<6755192832xf32> -> memref<f32>, index, index, index
…
                      %8 = arith.index_cast %7 : i64 to index
                      %9 = memref.load %alloc_4345[%8, %arg4] : memref<80x128xf32>
                      memref.store %9, %alloc_4348[%arg2, %arg3, %arg4] : memref<1x80x128xf32>
                    }
                    omp.yield
                  }
                  omp.terminator
                }
              }
              omp.yield
            }
            omp.terminator
          }
        }
        omp.yield
      }
      omp.terminator
    }
    %reinterpret_cast_4349 = memref.reinterpret_cast %alloc_4348 to offset: [0], sizes: [1, 1, 80, 128], strides: [10240, 10240, 128, 1] : memref<1x80x128xf32> to memref<1x1x80x128xf32>
    %alloc_4350 = memref.alloc() {alignment = 64 : i64} : memref<1x32x80x128xf32>
    omp.parallel   {
      omp.wsloop   for  (%arg2) : index = (%c0) to (%c1) step (%c1) {
        memref.alloca_scope  {
          omp.parallel   {
            omp.wsloop   for  (%arg3) : index = (%c0) to (%c32) step (%c1) {
              memref.alloca_scope  {
                omp.parallel   {
                  omp.wsloop   for  (%arg4) : index = (%c0) to (%c80) step (%c1) {
                    memref.alloca_scope  {
                      omp.parallel   {
                        omp.wsloop   for  (%arg5) : index = (%c0) to (%c128) step (%c1) {
                          memref.alloca_scope  {
                            omp.parallel   {
                              omp.wsloop   for  (%arg6) : index = (%c0) to (%c1) step (%c1) {
                                memref.alloca_scope  {
                                  %7 = memref.load %reinterpret_cast_4347[%arg2, %arg6, %arg4, %arg5] : memref<1x1x80x128xf32>
                                  memref.store %7, %alloc_4350[%arg2, %arg3, %arg4, %arg5] : memref<1x32x80x128xf32>
                                }
                                omp.yield
                              }
                              omp.terminator
                            }
                          }
                          omp.yield
                        }
                        omp.terminator
                      }
                    }
                    omp.yield
                  }
                  omp.terminator
                }
              }
              omp.yield
            }
            omp.terminator
          }
        }
        omp.yield
      }
      omp.terminator
    }
    %alloc_4351 = memref.alloc() {alignment = 64 : i64} : memref<1x32x80x128xf32>
    omp.parallel   {
      omp.wsloop   for  (%arg2) : index = (%c0) to (%c1) step (%c1) {
        memref.alloca_scope  {
          omp.parallel   {
            omp.wsloop   for  (%arg3) : index = (%c0) to (%c32) step (%c1) {
              memref.alloca_scope  {
                omp.parallel   {
                  omp.wsloop   for  (%arg4) : index = (%c0) to (%c80) step (%c1) {
                    memref.alloca_scope  {
                      omp.parallel   {
                        omp.wsloop   for  (%arg5) : index = (%c0) to (%c128) step (%c1) {
                          memref.alloca_scope  {
                            %7 = memref.load %alloc_4333[%arg2, %arg3, %arg4, %arg5] : memref<1x32x80x128xf32>
                            %8 = memref.load %alloc_4350[%arg2, %arg3, %arg4, %arg5] : memref<1x32x80x128xf32>
                            %9 = arith.mulf %7, %8 : f32
                            memref.store %9, %alloc_4351[%arg2, %arg3, %arg4, %arg5] : memref<1x32x80x128xf32>
                          }
                          omp.yield
                        }
                        omp.terminator
                      }
                    }
                    omp.yield
                  }
                  omp.terminator
                }
              }
              omp.yield
            }
            omp.terminator
          }
        }
        omp.yield
      }
      omp.terminator
    }
    %reinterpret_cast_4352 = memref.reinterpret_cast %alloc_4333 to offset: [0], sizes: [1, 32, 80, 64], strides: [327680, 10240, 128, 1] : memref<1x32x80x128xf32> to memref<1x32x80x64xf32, strided<[327680, 10240, 128, 1]>>
    %reinterpret_cast_4353 = memref.reinterpret_cast %alloc_4333 to offset: [64], sizes: [1, 32, 80, 64], strides: [327680, 10240, 128, 1] : memref<1x32x80x128xf32> to memref<1x32x80x64xf32, strided<[327680, 10240, 128, 1], offset: 64>>
    %alloc_4354 = memref.alloc() : memref<1x32x80x64xf32>
    memref.copy %reinterpret_cast_4353, %alloc_4354 : memref<1x32x80x64xf32, strided<[327680, 10240, 128, 1], offset: 64>> to memref<1x32x80x64xf32>
    %alloc_4355 = memref.alloc() {alignment = 64 : i64} : memref<1x32x80x64xf32>
    omp.parallel   {
      omp.wsloop   for  (%arg2) : index = (%c0) to (%c1) step (%c1) {
        memref.alloca_scope  {
          omp.parallel   {
            omp.wsloop   for  (%arg3) : index = (%c0) to (%c32) step (%c1) {
              memref.alloca_scope  {
                omp.parallel   {
                  omp.wsloop   for  (%arg4) : index = (%c0) to (%c80) step (%c1) {
                    memref.alloca_scope  {
                      omp.parallel   {
                        omp.wsloop   for  (%arg5) : index = (%c0) to (%c64) step (%c1) {
                          memref.alloca_scope  {
                            %7 = memref.load %alloc_4354[%arg2, %arg3, %arg4, %arg5] : memref<1x32x80x64xf32>
                            %8 = arith.negf %7 : f32
                            memref.store %8, %alloc_4355[%arg2, %arg3, %arg4, %arg5] : memref<1x32x80x64xf32>
                          }
                          omp.yield
                        }
                        omp.terminator
                      }
                    }
                    omp.yield
                  }
                  omp.terminator
                }
              }
              omp.yield
            }
            omp.terminator
          }
        }
        omp.yield
      }
      omp.terminator
    }
    %alloc_4356 = memref.alloc() {alignment = 64 : i64} : memref<1x32x80x128xf32>
    %alloc_4357 = memref.alloc() {alignment = 64 : i64} : memref<1x32x80x128xf32>
    memref.copy %alloc_4356, %alloc_4357 : memref<1x32x80x128xf32> to memref<1x32x80x128xf32>
    %reinterpret_cast_4358 = memref.reinterpret_cast %alloc_4357 to offset: [0], sizes: [1, 32, 80, 64], strides: [327680, 10240, 128, 1] : memref<1x32x80x128xf32> to memref<1x32x80x64xf32, strided<[327680, 10240, 128, 1]>>
    memref.copy %alloc_4355, %reinterpret_cast_4358 : memref<1x32x80x64xf32> to memref<1x32x80x64xf32, strided<[327680, 10240, 128, 1]>>
    %alloc_4359 = memref.alloc() {alignment = 64 : i64} : memref<1x32x80x128xf32>
    memref.copy %alloc_4357, %alloc_4359 : memref<1x32x80x128xf32> to memref<1x32x80x128xf32>
    %reinterpret_cast_4360 = memref.reinterpret_cast %alloc_4359 to offset: [64], sizes: [1, 32, 80, 64], strides: [327680, 10240, 128, 1] : memref<1x32x80x128xf32> to memref<1x32x80x64xf32, strided<[327680, 10240, 128, 1], offset: 64>>
    memref.copy %reinterpret_cast_4352, %reinterpret_cast_4360 : memref<1x32x80x64xf32, strided<[327680, 10240, 128, 1]>> to memref<1x32x80x64xf32, strided<[327680, 10240, 128, 1], offset: 64>>
    %alloc_4361 = memref.alloc() {alignment = 64 : i64} : memref<1x32x80x128xf32>
    omp.parallel   {
      omp.wsloop   for  (%arg2) : index = (%c0) to (%c1) step (%c1) {
        memref.alloca_scope  {
          omp.parallel   {
            omp.wsloop   for  (%arg3) : index = (%c0) to (%c32) step (%c1) {
              memref.alloca_scope  {
                omp.parallel   {
                  omp.wsloop   for  (%arg4) : index = (%c0) to (%c80) step (%c1) {
                    memref.alloca_scope  {
                      omp.parallel   {
                        omp.wsloop   for  (%arg5) : index = (%c0) to (%c128) step (%c1) {
                          memref.alloca_scope  {
                            omp.parallel   {
                              omp.wsloop   for  (%arg6) : index = (%c0) to (%c1) step (%c1) {
                                memref.alloca_scope  {
                                  %7 = memref.load %reinterpret_cast_4349[%arg2, %arg6, %arg4, %arg5] : memref<1x1x80x128xf32>
                                  memref.store %7, %alloc_4361[%arg2, %arg3, %arg4, %arg5] : memref<1x32x80x128xf32>
                                }
                                omp.yield
                              }
                              omp.terminator
                            }
                          }
                          omp.yield
                        }
                        omp.terminator
                      }
                    }
                    omp.yield
                  }
                  omp.terminator
                }
              }
              omp.yield
            }
            omp.terminator
          }
        }
        omp.yield
      }
      omp.terminator
    }
    %alloc_4362 = memref.alloc() {alignment = 64 : i64} : memref<1x32x80x128xf32>
    omp.parallel   {
      omp.wsloop   for  (%arg2) : index = (%c0) to (%c1) step (%c1) {
        memref.alloca_scope  {
          omp.parallel   {
            omp.wsloop   for  (%arg3) : index = (%c0) to (%c32) step (%c1) {
              memref.alloca_scope  {
                omp.parallel   {
                  omp.wsloop   for  (%arg4) : index = (%c0) to (%c80) step (%c1) {
                    memref.alloca_scope  {
                      omp.parallel   {
                        omp.wsloop   for  (%arg5) : index = (%c0) to (%c128) step (%c1) {
                          memref.alloca_scope  {
                            %7 = memref.load %alloc_4359[%arg2, %arg3, %arg4, %arg5] : memref<1x32x80x128xf32>
                            %8 = memref.load %alloc_4361[%arg2, %arg3, %arg4, %arg5] : memref<1x32x80x128xf32>
                            %9 = arith.mulf %7, %8 : f32
                            memref.store %9, %alloc_4362[%arg2, %arg3, %arg4, %arg5] : memref<1x32x80x128xf32>
                          }
                          omp.yield
                        }
                        omp.terminator
                      }
                    }
                    omp.yield
                  }
                  omp.terminator
                }
              }
              omp.yield
            }
            omp.terminator
          }
        }
        omp.yield
      }
      omp.terminator
    }
    %alloc_4363 = memref.alloc() {alignment = 64 : i64} : memref<1x32x80x128xf32>
    omp.parallel   {
      omp.wsloop   for  (%arg2) : index = (%c0) to (%c1) step (%c1) {
        memref.alloca_scope  {
          omp.parallel   {
            omp.wsloop   for  (%arg3) : index = (%c0) to (%c32) step (%c1) {
              memref.alloca_scope  {
                omp.parallel   {
                  omp.wsloop   for  (%arg4) : index = (%c0) to (%c80) step (%c1) {
                    memref.alloca_scope  {
                      omp.parallel   {
                        omp.wsloop   for  (%arg5) : index = (%c0) to (%c128) step (%c1) {
                          memref.alloca_scope  {
                            %7 = memref.load %alloc_4351[%arg2, %arg3, %arg4, %arg5] : memref<1x32x80x128xf32>
                            %8 = memref.load %alloc_4362[%arg2, %arg3, %arg4, %arg5] : memref<1x32x80x128xf32>
                            %9 = arith.addf %7, %8 : f32
                            memref.store %9, %alloc_4363[%arg2, %arg3, %arg4, %arg5] : memref<1x32x80x128xf32>
                          }
                          omp.yield
                        }
                        omp.terminator
                      }
                    }
                    omp.yield
                  }
                  omp.terminator
                }
              }
              omp.yield
            }
            omp.terminator
          }
        }
        omp.yield
      }
      omp.terminator
    }
    %alloc_4364 = memref.alloc() {alignment = 64 : i64} : memref<1x32x80x128xf32>
    omp.parallel   {
      omp.wsloop   for  (%arg2) : index = (%c0) to (%c1) step (%c1) {
        memref.alloca_scope  {
          omp.parallel   {
            omp.wsloop   for  (%arg3) : index = (%c0) to (%c32) step (%c1) {
              memref.alloca_scope  {
                omp.parallel   {
                  omp.wsloop   for  (%arg4) : index = (%c0) to (%c80) step (%c1) {
                    memref.alloca_scope  {
                      omp.parallel   {
                        omp.wsloop   for  (%arg5) : index = (%c0) to (%c128) step (%c1) {
                          memref.alloca_scope  {
                            omp.parallel   {
                              omp.wsloop   for  (%arg6) : index = (%c0) to (%c1) step (%c1) {
                                memref.alloca_scope  {
                                  %7 = memref.load %reinterpret_cast_4347[%arg2, %arg6, %arg4, %arg5] : memref<1x1x80x128xf32>
                                  memref.store %7, %alloc_4364[%arg2, %arg3, %arg4, %arg5] : memref<1x32x80x128xf32>
                                }
                                omp.yield
                              }
                              omp.terminator
                            }
                          }
                          omp.yield
                        }
                        omp.terminator
                      }
                    }
                    omp.yield
                  }
                  omp.terminator
                }
              }
              omp.yield
            }
            omp.terminator
          }
        }
        omp.yield
      }
      omp.terminator
    }
    %alloc_4365 = memref.alloc() {alignment = 64 : i64} : memref<1x32x80x128xf32>
    omp.parallel   {
      omp.wsloop   for  (%arg2) : index = (%c0) to (%c1) step (%c1) {
        memref.alloca_scope  {
          omp.parallel   {
            omp.wsloop   for  (%arg3) : index = (%c0) to (%c32) step (%c1) {
              memref.alloca_scope  {
                omp.parallel   {
                  omp.wsloop   for  (%arg4) : index = (%c0) to (%c80) step (%c1) {
                    memref.alloca_scope  {
                      omp.parallel   {
                        omp.wsloop   for  (%arg5) : index = (%c0) to (%c128) step (%c1) {
                          memref.alloca_scope  {
                            %7 = memref.load %alloc_4335[%arg2, %arg3, %arg4, %arg5] : memref<1x32x80x128xf32>
                            %8 = memref.load %alloc_4364[%arg2, %arg3, %arg4, %arg5] : memref<1x32x80x128xf32>
                            %9 = arith.mulf %7, %8 : f32
                            memref.store %9, %alloc_4365[%arg2, %arg3, %arg4, %arg5] : memref<1x32x80x128xf32>
                          }
                          omp.yield
                        }
                        omp.terminator
                      }
                    }
                    omp.yield
                  }
                  omp.terminator
                }
              }
              omp.yield
            }
            omp.terminator
          }
        }
        omp.yield
      }
      omp.terminator
    }
    %reinterpret_cast_4366 = memref.reinterpret_cast %alloc_4335 to offset: [0], sizes: [1, 32, 80, 64], strides: [327680, 10240, 128, 1] : memref<1x32x80x128xf32> to memref<1x32x80x64xf32, strided<[327680, 10240, 128, 1]>>
    %reinterpret_cast_4367 = memref.reinterpret_cast %alloc_4335 to offset: [64], sizes: [1, 32, 80, 64], strides: [327680, 10240, 128, 1] : memref<1x32x80x128xf32> to memref<1x32x80x64xf32, strided<[327680, 10240, 128, 1], offset: 64>>
    %alloc_4368 = memref.alloc() : memref<1x32x80x64xf32>
    memref.copy %reinterpret_cast_4367, %alloc_4368 : memref<1x32x80x64xf32, strided<[327680, 10240, 128, 1], offset: 64>> to memref<1x32x80x64xf32>
    %alloc_4369 = memref.alloc() {alignment = 64 : i64} : memref<1x32x80x64xf32>
    omp.parallel   {
      omp.wsloop   for  (%arg2) : index = (%c0) to (%c1) step (%c1) {
        memref.alloca_scope  {
          omp.parallel   {
            omp.wsloop   for  (%arg3) : index = (%c0) to (%c32) step (%c1) {
              memref.alloca_scope  {
                omp.parallel   {
                  omp.wsloop   for  (%arg4) : index = (%c0) to (%c80) step (%c1) {
                    memref.alloca_scope  {
                      omp.parallel   {
                        omp.wsloop   for  (%arg5) : index = (%c0) to (%c64) step (%c1) {
                          memref.alloca_scope  {
                            %7 = memref.load %alloc_4368[%arg2, %arg3, %arg4, %arg5] : memref<1x32x80x64xf32>
                            %8 = arith.negf %7 : f32
                            memref.store %8, %alloc_4369[%arg2, %arg3, %arg4, %arg5] : memref<1x32x80x64xf32>
                          }
                          omp.yield
                        }
                        omp.terminator
                      }
                    }
                    omp.yield
                  }
                  omp.terminator
                }
              }
              omp.yield
            }
            omp.terminator
          }
        }
        omp.yield
      }
      omp.terminator
    }
    %alloc_4370 = memref.alloc() {alignment = 64 : i64} : memref<1x32x80x128xf32>
    %alloc_4371 = memref.alloc() {alignment = 64 : i64} : memref<1x32x80x128xf32>
    memref.copy %alloc_4370, %alloc_4371 : memref<1x32x80x128xf32> to memref<1x32x80x128xf32>
    %reinterpret_cast_4372 = memref.reinterpret_cast %alloc_4371 to offset: [0], sizes: [1, 32, 80, 64], strides: [327680, 10240, 128, 1] : memref<1x32x80x128xf32> to memref<1x32x80x64xf32, strided<[327680, 10240, 128, 1]>>
    memref.copy %alloc_4369, %reinterpret_cast_4372 : memref<1x32x80x64xf32> to memref<1x32x80x64xf32, strided<[327680, 10240, 128, 1]>>
    %alloc_4373 = memref.alloc() {alignment = 64 : i64} : memref<1x32x80x128xf32>
    memref.copy %alloc_4371, %alloc_4373 : memref<1x32x80x128xf32> to memref<1x32x80x128xf32>
    %reinterpret_cast_4374 = memref.reinterpret_cast %alloc_4373 to offset: [64], sizes: [1, 32, 80, 64], strides: [327680, 10240, 128, 1] : memref<1x32x80x128xf32> to memref<1x32x80x64xf32, strided<[327680, 10240, 128, 1], offset: 64>>
    memref.copy %reinterpret_cast_4366, %reinterpret_cast_4374 : memref<1x32x80x64xf32, strided<[327680, 10240, 128, 1]>> to memref<1x32x80x64xf32, strided<[327680, 10240, 128, 1], offset: 64>>
    %alloc_4375 = memref.alloc() {alignment = 64 : i64} : memref<1x32x80x128xf32>
    omp.parallel   {
      omp.wsloop   for  (%arg2) : index = (%c0) to (%c1) step (%c1) {
        memref.alloca_scope  {
          omp.parallel   {
            omp.wsloop   for  (%arg3) : index = (%c0) to (%c32) step (%c1) {
              memref.alloca_scope  {
                omp.parallel   {
                  omp.wsloop   for  (%arg4) : index = (%c0) to (%c80) step (%c1) {
                    memref.alloca_scope  {
                      omp.parallel   {
                        omp.wsloop   for  (%arg5) : index = (%c0) to (%c128) step (%c1) {
                          memref.alloca_scope  {
                            omp.parallel   {
                              omp.wsloop   for  (%arg6) : index = (%c0) to (%c1) step (%c1) {
                                memref.alloca_scope  {
                                  %7 = memref.load %reinterpret_cast_4349[%arg2, %arg6, %arg4, %arg5] : memref<1x1x80x128xf32>
                                  memref.store %7, %alloc_4375[%arg2, %arg3, %arg4, %arg5] : memref<1x32x80x128xf32>
                                }
                                omp.yield
                              }
                              omp.terminator
                            }
                          }
                          omp.yield
                        }
                        omp.terminator
                      }
                    }
                    omp.yield
                  }
                  omp.terminator
                }
              }
              omp.yield
            }
            omp.terminator
          }
        }
        omp.yield
      }
      omp.terminator
    }
    %alloc_4376 = memref.alloc() {alignment = 64 : i64} : memref<1x32x80x128xf32>
    omp.parallel   {
      omp.wsloop   for  (%arg2) : index = (%c0) to (%c1) step (%c1) {
        memref.alloca_scope  {
          omp.parallel   {
            omp.wsloop   for  (%arg3) : index = (%c0) to (%c32) step (%c1) {
              memref.alloca_scope  {
                omp.parallel   {
                  omp.wsloop   for  (%arg4) : index = (%c0) to (%c80) step (%c1) {
                    memref.alloca_scope  {
                      omp.parallel   {
                        omp.wsloop   for  (%arg5) : index = (%c0) to (%c128) step (%c1) {
                          memref.alloca_scope  {
                            %7 = memref.load %alloc_4373[%arg2, %arg3, %arg4, %arg5] : memref<1x32x80x128xf32>
                            %8 = memref.load %alloc_4375[%arg2, %arg3, %arg4, %arg5] : memref<1x32x80x128xf32>
                            %9 = arith.mulf %7, %8 : f32
                            memref.store %9, %alloc_4376[%arg2, %arg3, %arg4, %arg5] : memref<1x32x80x128xf32>
                          }
                          omp.yield
                        }
                        omp.terminator
                      }
                    }
                    omp.yield
                  }
                  omp.terminator
                }
              }
              omp.yield
            }
            omp.terminator
          }
        }
        omp.yield
      }
      omp.terminator
    }
    %alloc_4377 = memref.alloc() {alignment = 64 : i64} : memref<1x32x80x128xf32>
    omp.parallel   {
      omp.wsloop   for  (%arg2) : index = (%c0) to (%c1) step (%c1) {
        memref.alloca_scope  {
          omp.parallel   {
            omp.wsloop   for  (%arg3) : index = (%c0) to (%c32) step (%c1) {
              memref.alloca_scope  {
                omp.parallel   {
                  omp.wsloop   for  (%arg4) : index = (%c0) to (%c80) step (%c1) {
                    memref.alloca_scope  {
                      omp.parallel   {
                        omp.wsloop   for  (%arg5) : index = (%c0) to (%c128) step (%c1) {
                          memref.alloca_scope  {
                            %7 = memref.load %alloc_4365[%arg2, %arg3, %arg4, %arg5] : memref<1x32x80x128xf32>
                            %8 = memref.load %alloc_4376[%arg2, %arg3, %arg4, %arg5] : memref<1x32x80x128xf32>
                            %9 = arith.addf %7, %8 : f32
                            memref.store %9, %alloc_4377[%arg2, %arg3, %arg4, %arg5] : memref<1x32x80x128xf32>
                          }
                          omp.yield
                        }
                        omp.terminator
                      }
                    }
                    omp.yield
                  }
                  omp.terminator
                }
              }
              omp.yield
            }
            omp.terminator
          }
        }
        omp.yield
      }
      omp.terminator
    }
    %alloc_4378 = memref.alloc() {alignment = 64 : i64} : memref<1x32x128x80xf32>
    omp.parallel   {
      omp.wsloop   for  (%arg2) : index = (%c0) to (%c1) step (%c1) {
        memref.alloca_scope  {
          omp.parallel   {
            omp.wsloop   for  (%arg3) : index = (%c0) to (%c32) step (%c1) {
              memref.alloca_scope  {
                omp.parallel   {
                  omp.wsloop   for  (%arg4) : index = (%c0) to (%c128) step (%c1) {
                    memref.alloca_scope  {
                      omp.parallel   {
                        omp.wsloop   for  (%arg5) : index = (%c0) to (%c80) step (%c1) {
                          memref.alloca_scope  {
                            %7 = memref.load %alloc_4377[%arg2, %arg3, %arg5, %arg4] : memref<1x32x80x128xf32>
                            memref.store %7, %alloc_4378[%arg2, %arg3, %arg4, %arg5] : memref<1x32x128x80xf32>
                          }
                          omp.yield
                        }
                        omp.terminator
                      }
                    }
                    omp.yield
                  }
                  omp.terminator
                }
              }
              omp.yield
            }
            omp.terminator
          }
        }
        omp.yield
      }
      omp.terminator
    }
    %reinterpret_cast_4379 = memref.reinterpret_cast %alloc_4363 to offset: [0], sizes: [32, 80, 128], strides: [10240, 128, 1] : memref<1x32x80x128xf32> to memref<32x80x128xf32>
    %reinterpret_cast_4380 = memref.reinterpret_cast %alloc_4378 to offset: [0], sizes: [32, 128, 80], strides: [10240, 80, 1] : memref<1x32x128x80xf32> to memref<32x128x80xf32>
    %alloc_4381 = memref.alloc() {alignment = 64 : i64} : memref<32x80x80xf32>
    %alloc_4382 = memref.alloc() {alignment = 64 : i64} : memref<32x80x80xf32>
    memref.copy %alloc_4381, %alloc_4382 : memref<32x80x80xf32> to memref<32x80x80xf32>
    omp.parallel   {
      omp.wsloop   for  (%arg2) : index = (%c0) to (%c32) step (%c1) {
        memref.alloca_scope  {
          omp.parallel   {
            omp.wsloop   for  (%arg3) : index = (%c0) to (%c80) step (%c1) {
              memref.alloca_scope  {
                omp.parallel   {
                  omp.wsloop   for  (%arg4) : index = (%c0) to (%c80) step (%c1) {
                    memref.alloca_scope  {
                      scf.for %arg5 = %c0 to %c128 step %c1 {
                        %7 = memref.load %reinterpret_cast_4379[%arg2, %arg3, %arg5] : memref<32x80x128xf32>
                        %8 = memref.load %reinterpret_cast_4380[%arg2, %arg5, %arg4] : memref<32x128x80xf32>
                        %9 = memref.load %alloc_4382[%arg2, %arg3, %arg4] : memref<32x80x80xf32>
                        %10 = arith.mulf %7, %8 : f32
                        %11 = arith.addf %9, %10 : f32
                        memref.store %11, %alloc_4382[%arg2, %arg3, %arg4] : memref<32x80x80xf32>
                      }
                    }
                    omp.yield
                  }
                  omp.terminator
                }
              }
              omp.yield
            }
            omp.terminator
          }
        }
        omp.yield
      }
      omp.terminator
    }
    %reinterpret_cast_4383 = memref.reinterpret_cast %alloc_4382 to offset: [0], sizes: [1, 32, 80, 80], strides: [204800, 6400, 80, 1] : memref<32x80x80xf32> to memref<1x32x80x80xf32>
    %alloc_4384 = memref.alloc() {alignment = 64 : i64} : memref<1x32x80x80xf32>
    omp.parallel   {
      omp.wsloop   for  (%arg2) : index = (%c0) to (%c1) step (%c1) {
        memref.alloca_scope  {
          omp.parallel   {
            omp.wsloop   for  (%arg3) : index = (%c0) to (%c32) step (%c1) {
              memref.alloca_scope  {
                omp.parallel   {
                  omp.wsloop   for  (%arg4) : index = (%c0) to (%c80) step (%c1) {
                    memref.alloca_scope  {
                      omp.parallel   {
                        omp.wsloop   for  (%arg5) : index = (%c0) to (%c80) step (%c1) {
                          memref.alloca_scope  {
                            %7 = memref.load %reinterpret_cast_4383[%arg2, %arg3, %arg4, %arg5] : memref<1x32x80x80xf32>
                            %8 = arith.divf %7, %cst : f32
                            memref.store %8, %alloc_4384[%arg2, %arg3, %arg4, %arg5] : memref<1x32x80x80xf32>
                          }
                          omp.yield
                        }
                        omp.terminator
                      }
                    }
                    omp.yield
                  }
                  omp.terminator
                }
              }
              omp.yield
            }
            omp.terminator
          }
        }
        omp.yield
      }
      omp.terminator
    }
    %reinterpret_cast_4385 = memref.reinterpret_cast %alloc_2169 to offset: [0], sizes: [1, 80, 80], strides: [6400, 80, 1] : memref<1x1x80x80xf32> to memref<1x80x80xf32>
    %alloc_4386 = memref.alloc() {alignment = 64 : i64} : memref<1x32x80x80xf32>
    omp.parallel   {
      omp.wsloop   for  (%arg2) : index = (%c0) to (%c1) step (%c1) {
        memref.alloca_scope  {
          omp.parallel   {
            omp.wsloop   for  (%arg3) : index = (%c0) to (%c32) step (%c1) {
              memref.alloca_scope  {
                omp.parallel   {
                  omp.wsloop   for  (%arg4) : index = (%c0) to (%c80) step (%c1) {
                    memref.alloca_scope  {
                      omp.parallel   {
                        omp.wsloop   for  (%arg5) : index = (%c0) to (%c80) step (%c1) {
                          memref.alloca_scope  {
                            %7 = memref.load %alloc_4384[%arg2, %arg3, %arg4, %arg5] : memref<1x32x80x80xf32>
                            %8 = memref.load %reinterpret_cast_4385[%arg2, %arg4, %arg5] : memref<1x80x80xf32>
                            %9 = arith.addf %7, %8 : f32
                            memref.store %9, %alloc_4386[%arg2, %arg3, %arg4, %arg5] : memref<1x32x80x80xf32>
                          }
                          omp.yield
                        }
                        omp.terminator
                      }
                    }
                    omp.yield
                  }
                  omp.terminator
                }
              }
              omp.yield
            }
            omp.terminator
          }
        }
        omp.yield
      }
      omp.terminator
    }
    %alloc_4387 = memref.alloc() {alignment = 64 : i64} : memref<1x32x80x1xf32>
    %alloc_4388 = memref.alloc() {alignment = 64 : i64} : memref<1x32x80x1xf32>
    memref.copy %alloc_4387, %alloc_4388 : memref<1x32x80x1xf32> to memref<1x32x80x1xf32>
    omp.parallel   {
      omp.wsloop   for  (%arg2) : index = (%c0) to (%c1) step (%c1) {
        memref.alloca_scope  {
          omp.parallel   {
            omp.wsloop   for  (%arg3) : index = (%c0) to (%c32) step (%c1) {
              memref.alloca_scope  {
                omp.parallel   {
                  omp.wsloop   for  (%arg4) : index = (%c0) to (%c80) step (%c1) {
                    memref.alloca_scope  {
                      scf.for %arg5 = %c0 to %c80 step %c1 {
                        %7 = memref.load %alloc_4386[%arg2, %arg3, %arg4, %arg5] : memref<1x32x80x80xf32>
                        %8 = memref.load %alloc_4388[%arg2, %arg3, %arg4, %c0] : memref<1x32x80x1xf32>
                        %9 = arith.cmpf ugt, %7, %8 : f32
                        %10 = arith.select %9, %7, %8 : f32
                        %11 = arith.cmpf uno, %8, %8 : f32
                        %12 = arith.select %11, %8, %10 : f32
                        memref.store %12, %alloc_4388[%arg2, %arg3, %arg4, %c0] : memref<1x32x80x1xf32>
                      }
                    }
                    omp.yield
                  }
                  omp.terminator
                }
              }
              omp.yield
            }
            omp.terminator
          }
        }
        omp.yield
      }
      omp.terminator
    }
    %alloc_4389 = memref.alloc() {alignment = 64 : i64} : memref<1x32x80x80xf32>
    omp.parallel   {
      omp.wsloop   for  (%arg2) : index = (%c0) to (%c1) step (%c1) {
        memref.alloca_scope  {
          omp.parallel   {
            omp.wsloop   for  (%arg3) : index = (%c0) to (%c32) step (%c1) {
              memref.alloca_scope  {
                omp.parallel   {
                  omp.wsloop   for  (%arg4) : index = (%c0) to (%c80) step (%c1) {
                    memref.alloca_scope  {
                      omp.parallel   {
                        omp.wsloop   for  (%arg5) : index = (%c0) to (%c80) step (%c1) {
                          memref.alloca_scope  {
                            %7 = memref.load %alloc_4386[%arg2, %arg3, %arg4, %arg5] : memref<1x32x80x80xf32>
                            %8 = memref.load %alloc_4388[%arg2, %arg3, %arg4, %c0] : memref<1x32x80x1xf32>
                            %9 = arith.subf %7, %8 : f32
                            %10 = math.exp %9 : f32
                            memref.store %10, %alloc_4389[%arg2, %arg3, %arg4, %arg5] : memref<1x32x80x80xf32>
                          }
                          omp.yield
                        }
                        omp.terminator
                      }
                    }
                    omp.yield
                  }
                  omp.terminator
                }
              }
              omp.yield
            }
            omp.terminator
          }
        }
        omp.yield
      }
      omp.terminator
    }
    %alloc_4390 = memref.alloc() {alignment = 64 : i64} : memref<1x32x80x1xf32>
    omp.parallel   {
      omp.wsloop   for  (%arg2) : index = (%c0) to (%c1) step (%c1) {
        memref.alloca_scope  {
          omp.parallel   {
            omp.wsloop   for  (%arg3) : index = (%c0) to (%c32) step (%c1) {
              memref.alloca_scope  {
                omp.parallel   {
                  omp.wsloop   for  (%arg4) : index = (%c0) to (%c80) step (%c1) {
                    memref.alloca_scope  {
                      omp.parallel   {
                        omp.wsloop   for  (%arg5) : index = (%c0) to (%c1) step (%c1) {
                          memref.alloca_scope  {
                            memref.store %cst_3, %alloc_4390[%arg2, %arg3, %arg4, %arg5] : memref<1x32x80x1xf32>
                          }
                          omp.yield
                        }
                        omp.terminator
                      }
                    }
                    omp.yield
                  }
                  omp.terminator
                }
              }
              omp.yield
            }
            omp.terminator
          }
        }
        omp.yield
      }
      omp.terminator
    }
    %alloc_4391 = memref.alloc() {alignment = 64 : i64} : memref<1x32x80x1xf32>
    memref.copy %alloc_4390, %alloc_4391 : memref<1x32x80x1xf32> to memref<1x32x80x1xf32>
    omp.parallel   {
      omp.wsloop   for  (%arg2) : index = (%c0) to (%c1) step (%c1) {
        memref.alloca_scope  {
          omp.parallel   {
            omp.wsloop   for  (%arg3) : index = (%c0) to (%c32) step (%c1) {
              memref.alloca_scope  {
                omp.parallel   {
                  omp.wsloop   for  (%arg4) : index = (%c0) to (%c80) step (%c1) {
                    memref.alloca_scope  {
                      scf.for %arg5 = %c0 to %c80 step %c1 {
                        %7 = memref.load %alloc_4389[%arg2, %arg3, %arg4, %arg5] : memref<1x32x80x80xf32>
                        %8 = memref.load %alloc_4391[%arg2, %arg3, %arg4, %c0] : memref<1x32x80x1xf32>
                        %9 = arith.addf %7, %8 : f32
                        memref.store %9, %alloc_4391[%arg2, %arg3, %arg4, %c0] : memref<1x32x80x1xf32>
                      }
                    }
                    omp.yield
                  }
                  omp.terminator
                }
              }
              omp.yield
            }
            omp.terminator
          }
        }
        omp.yield
      }
      omp.terminator
    }
    %alloc_4392 = memref.alloc() {alignment = 64 : i64} : memref<1x32x80x80xf32>
    omp.parallel   {
      omp.wsloop   for  (%arg2) : index = (%c0) to (%c1) step (%c1) {
        memref.alloca_scope  {
          omp.parallel   {
            omp.wsloop   for  (%arg3) : index = (%c0) to (%c32) step (%c1) {
              memref.alloca_scope  {
                omp.parallel   {
                  omp.wsloop   for  (%arg4) : index = (%c0) to (%c80) step (%c1) {
                    memref.alloca_scope  {
                      omp.parallel   {
                        omp.wsloop   for  (%arg5) : index = (%c0) to (%c80) step (%c1) {
                          memref.alloca_scope  {
                            %7 = memref.load %alloc_4389[%arg2, %arg3, %arg4, %arg5] : memref<1x32x80x80xf32>
                            %8 = memref.load %alloc_4391[%arg2, %arg3, %arg4, %c0] : memref<1x32x80x1xf32>
                            %9 = arith.divf %7, %8 : f32
                            memref.store %9, %alloc_4392[%arg2, %arg3, %arg4, %arg5] : memref<1x32x80x80xf32>
                          }
                          omp.yield
                        }
                        omp.terminator
                      }
                    }
                    omp.yield
                  }
                  omp.terminator
                }
              }
              omp.yield
            }
            omp.terminator
          }
        }
        omp.yield
      }
      omp.terminator
    }
    %reinterpret_cast_4393 = memref.reinterpret_cast %alloc_4392 to offset: [0], sizes: [32, 80, 80], strides: [6400, 80, 1] : memref<1x32x80x80xf32> to memref<32x80x80xf32>
    %reinterpret_cast_4394 = memref.reinterpret_cast %alloc_4337 to offset: [0], sizes: [32, 80, 128], strides: [10240, 128, 1] : memref<1x32x80x128xf32> to memref<32x80x128xf32>
    %alloc_4395 = memref.alloc() {alignment = 64 : i64} : memref<32x80x128xf32>
    %alloc_4396 = memref.alloc() {alignment = 64 : i64} : memref<32x80x128xf32>
    memref.copy %alloc_4395, %alloc_4396 : memref<32x80x128xf32> to memref<32x80x128xf32>
    omp.parallel   {
      omp.wsloop   for  (%arg2) : index = (%c0) to (%c32) step (%c1) {
        memref.alloca_scope  {
          omp.parallel   {
            omp.wsloop   for  (%arg3) : index = (%c0) to (%c80) step (%c1) {
              memref.alloca_scope  {
                omp.parallel   {
                  omp.wsloop   for  (%arg4) : index = (%c0) to (%c128) step (%c1) {
                    memref.alloca_scope  {
                      scf.for %arg5 = %c0 to %c80 step %c1 {
                        %7 = memref.load %reinterpret_cast_4393[%arg2, %arg3, %arg5] : memref<32x80x80xf32>
                        %8 = memref.load %reinterpret_cast_4394[%arg2, %arg5, %arg4] : memref<32x80x128xf32>
                        %9 = memref.load %alloc_4396[%arg2, %arg3, %arg4] : memref<32x80x128xf32>
                        %10 = arith.mulf %7, %8 : f32
                        %11 = arith.addf %9, %10 : f32
                        memref.store %11, %alloc_4396[%arg2, %arg3, %arg4] : memref<32x80x128xf32>
                      }
                    }
                    omp.yield
                  }
                  omp.terminator
                }
              }
              omp.yield
            }
            omp.terminator
          }
        }
        omp.yield
      }
      omp.terminator
    }
    %reinterpret_cast_4397 = memref.reinterpret_cast %alloc_4396 to offset: [0], sizes: [1, 32, 80, 128], strides: [327680, 10240, 128, 1] : memref<32x80x128xf32> to memref<1x32x80x128xf32>
    %alloc_4398 = memref.alloc() {alignment = 64 : i64} : memref<1x80x32x128xf32>
    omp.parallel   {
      omp.wsloop   for  (%arg2) : index = (%c0) to (%c1) step (%c1) {
        memref.alloca_scope  {
          omp.parallel   {
            omp.wsloop   for  (%arg3) : index = (%c0) to (%c80) step (%c1) {
              memref.alloca_scope  {
                omp.parallel   {
                  omp.wsloop   for  (%arg4) : index = (%c0) to (%c32) step (%c1) {
                    memref.alloca_scope  {
                      omp.parallel   {
                        omp.wsloop   for  (%arg5) : index = (%c0) to (%c128) step (%c1) {
                          memref.alloca_scope  {
                            %7 = memref.load %reinterpret_cast_4397[%arg2, %arg4, %arg3, %arg5] : memref<1x32x80x128xf32>
                            memref.store %7, %alloc_4398[%arg2, %arg3, %arg4, %arg5] : memref<1x80x32x128xf32>
                          }
                          omp.yield
                        }
                        omp.terminator
                      }
                    }
                    omp.yield
                  }
                  omp.terminator
                }
              }
              omp.yield
            }
            omp.terminator
          }
        }
        omp.yield
      }
      omp.terminator
    }
    %alloc_4399 = memref.alloc() {alignment = 64 : i64} : memref<4096x4096xf32>
    omp.parallel   {
      omp.wsloop   for  (%arg2) : index = (%c0) to (%c4096) step (%c1) {
        memref.alloca_scope  {
          omp.parallel   {
            omp.wsloop   for  (%arg3) : index = (%c0) to (%c4096) step (%c1) {
              memref.alloca_scope  {
                %7 = memref.load %alloc_1171[%arg2, %arg3] : memref<4096x4096xf32>
                memref.store %7, %alloc_4399[%arg3, %arg2] : memref<4096x4096xf32>
              }
              omp.yield
            }
            omp.terminator
          }
        }
        omp.yield
      }
      omp.terminator
    }
    %reinterpret_cast_4400 = memref.reinterpret_cast %alloc_4398 to offset: [0], sizes: [80, 4096], strides: [4096, 1] : memref<1x80x32x128xf32> to memref<80x4096xf32>
    %alloc_4401 = memref.alloc() {alignment = 64 : i64} : memref<80x4096xf32>
    omp.parallel   {
      omp.wsloop   for  (%arg2) : index = (%c0) to (%c80) step (%c1) {
        memref.alloca_scope  {
          omp.parallel   {
            omp.wsloop   for  (%arg3) : index = (%c0) to (%c4096) step (%c1) {
              memref.alloca_scope  {
                memref.store %cst_3, %alloc_4401[%arg2, %arg3] : memref<80x4096xf32>
              }
              omp.yield
            }
            omp.terminator
          }
        }
        omp.yield
      }
      omp.terminator
    }
    %alloc_4402 = memref.alloc() {alignment = 64 : i64} : memref<80x4096xf32>
    memref.copy %alloc_4401, %alloc_4402 : memref<80x4096xf32> to memref<80x4096xf32>
    omp.parallel   {
      omp.wsloop   for  (%arg2) : index = (%c0) to (%c80) step (%c1) {
        memref.alloca_scope  {
          omp.parallel   {
            omp.wsloop   for  (%arg3) : index = (%c0) to (%c4096) step (%c1) {
              memref.alloca_scope  {
                scf.for %arg4 = %c0 to %c4096 step %c1 {
                  %7 = memref.load %reinterpret_cast_4400[%arg2, %arg4] : memref<80x4096xf32>
                  %8 = memref.load %alloc_4399[%arg4, %arg3] : memref<4096x4096xf32>
                  %9 = memref.load %alloc_4402[%arg2, %arg3] : memref<80x4096xf32>
                  %10 = arith.mulf %7, %8 : f32
                  %11 = arith.addf %10, %9 : f32
                  memref.store %11, %alloc_4402[%arg2, %arg3] : memref<80x4096xf32>
                }
              }
              omp.yield
            }
            omp.terminator
          }
        }
        omp.yield
      }
      omp.terminator
    }
    %reinterpret_cast_4403 = memref.reinterpret_cast %alloc_4402 to offset: [0], sizes: [1, 80, 4096], strides: [327680, 4096, 1] : memref<80x4096xf32> to memref<1x80x4096xf32>
    %alloc_4404 = memref.alloc() {alignment = 64 : i64} : memref<1x80x4096xf32>
    omp.parallel   {
      omp.wsloop   for  (%arg2) : index = (%c0) to (%c1) step (%c1) {
        memref.alloca_scope  {
          omp.parallel   {
            omp.wsloop   for  (%arg3) : index = (%c0) to (%c80) step (%c1) {
              memref.alloca_scope  {
                omp.parallel   {
                  omp.wsloop   for  (%arg4) : index = (%c0) to (%c4096) step (%c1) {
                    memref.alloca_scope  {
                      %7 = memref.load %alloc_4311[%arg2, %arg3, %arg4] : memref<1x80x4096xf32>
                      %8 = memref.load %reinterpret_cast_4403[%arg2, %arg3, %arg4] : memref<1x80x4096xf32>
                      %9 = arith.addf %7, %8 : f32
                      memref.store %9, %alloc_4404[%arg2, %arg3, %arg4] : memref<1x80x4096xf32>
                    }
                    omp.yield
                  }
                  omp.terminator
                }
              }
              omp.yield
            }
            omp.terminator
          }
        }
        omp.yield
      }
      omp.terminator
    }
    %alloc_4405 = memref.alloc() {alignment = 64 : i64} : memref<1x80x4096xf32>
    omp.parallel   {
      omp.wsloop   for  (%arg2) : index = (%c0) to (%c1) step (%c1) {
        memref.alloca_scope  {
          omp.parallel   {
            omp.wsloop   for  (%arg3) : index = (%c0) to (%c80) step (%c1) {
              memref.alloca_scope  {
                omp.parallel   {
                  omp.wsloop   for  (%arg4) : index = (%c0) to (%c4096) step (%c1) {
                    memref.alloca_scope  {
                      %7 = memref.load %alloc_4404[%arg2, %arg3, %arg4] : memref<1x80x4096xf32>
                      %8 = math.fpowi %7, %c2_i32 : f32, i32
                      memref.store %8, %alloc_4405[%arg2, %arg3, %arg4] : memref<1x80x4096xf32>
                    }
                    omp.yield
                  }
                  omp.terminator
                }
              }
              omp.yield
            }
            omp.terminator
          }
        }
        omp.yield
      }
      omp.terminator
    }
    %alloc_4406 = memref.alloc() {alignment = 64 : i64} : memref<1x80x1xf32>
    memref.copy %4, %alloc_4406 : memref<1x80x1xf32> to memref<1x80x1xf32>
    omp.parallel   {
      omp.wsloop   for  (%arg2) : index = (%c0) to (%c1) step (%c1) {
        memref.alloca_scope  {
          omp.parallel   {
            omp.wsloop   for  (%arg3) : index = (%c0) to (%c80) step (%c1) {
              memref.alloca_scope  {
                scf.for %arg4 = %c0 to %c4096 step %c1 {
                  omp.parallel   {
                    omp.wsloop   for  (%arg5) : index = (%c0) to (%c1) step (%c1) {
                      memref.alloca_scope  {
                        %7 = memref.load %alloc_4405[%arg2, %arg3, %arg4] : memref<1x80x4096xf32>
                        %8 = memref.load %alloc_4406[%arg2, %arg3, %arg5] : memref<1x80x1xf32>
                        %9 = arith.divf %7, %cst_0 : f32
                        %10 = arith.addf %9, %8 : f32
                        memref.store %10, %alloc_4406[%arg2, %arg3, %arg5] : memref<1x80x1xf32>
                      }
                      omp.yield
                    }
                    omp.terminator
                  }
                }
              }
              omp.yield
            }
            omp.terminator
          }
        }
        omp.yield
      }
      omp.terminator
    }
    %alloc_4407 = memref.alloc() {alignment = 64 : i64} : memref<1x80x1xf32>
    omp.parallel   {
      omp.wsloop   for  (%arg2) : index = (%c0) to (%c1) step (%c1) {
        memref.alloca_scope  {
          omp.parallel   {
            omp.wsloop   for  (%arg3) : index = (%c0) to (%c80) step (%c1) {
              memref.alloca_scope  {
                omp.parallel   {
                  omp.wsloop   for  (%arg4) : index = (%c0) to (%c1) step (%c1) {
                    memref.alloca_scope  {
                      %7 = memref.load %alloc_4406[%arg2, %arg3, %arg4] : memref<1x80x1xf32>
                      %8 = memref.load %5[] : memref<f32>
                      %9 = arith.addf %7, %8 : f32
                      memref.store %9, %alloc_4407[%arg2, %arg3, %arg4] : memref<1x80x1xf32>
                    }
                    omp.yield
                  }
                  omp.terminator
                }
              }
              omp.yield
            }
            omp.terminator
          }
        }
        omp.yield
      }
      omp.terminator
    }
    %alloc_4408 = memref.alloc() {alignment = 64 : i64} : memref<1x80x1xf32>
    omp.parallel   {
      omp.wsloop   for  (%arg2) : index = (%c0) to (%c1) step (%c1) {
        memref.alloca_scope  {
          omp.parallel   {
            omp.wsloop   for  (%arg3) : index = (%c0) to (%c80) step (%c1) {
              memref.alloca_scope  {
                omp.parallel   {
                  omp.wsloop   for  (%arg4) : index = (%c0) to (%c1) step (%c1) {
                    memref.alloca_scope  {
                      %7 = memref.load %alloc_4407[%arg2, %arg3, %arg4] : memref<1x80x1xf32>
                      %8 = math.rsqrt %7 : f32
                      memref.store %8, %alloc_4408[%arg2, %arg3, %arg4] : memref<1x80x1xf32>
                    }
                    omp.yield
                  }
                  omp.terminator
                }
              }
              omp.yield
            }
            omp.terminator
          }
        }
        omp.yield
      }
      omp.terminator
    }
    %alloc_4409 = memref.alloc() {alignment = 64 : i64} : memref<1x80x4096xf32>
    omp.parallel   {
      omp.wsloop   for  (%arg2) : index = (%c0) to (%c1) step (%c1) {
        memref.alloca_scope  {
          omp.parallel   {
            omp.wsloop   for  (%arg3) : index = (%c0) to (%c80) step (%c1) {
              memref.alloca_scope  {
                omp.parallel   {
                  omp.wsloop   for  (%arg4) : index = (%c0) to (%c4096) step (%c1) {
                    memref.alloca_scope  {
                      omp.parallel   {
                        omp.wsloop   for  (%arg5) : index = (%c0) to (%c1) step (%c1) {
                          memref.alloca_scope  {
                            %7 = memref.load %alloc_4408[%arg2, %arg3, %arg5] : memref<1x80x1xf32>
                            memref.store %7, %alloc_4409[%arg2, %arg3, %arg4] : memref<1x80x4096xf32>
                          }
                          omp.yield
                        }
                        omp.terminator
                      }
                    }
                    omp.yield
                  }
                  omp.terminator
                }
              }
              omp.yield
            }
            omp.terminator
          }
        }
        omp.yield
      }
      omp.terminator
    }
    return %alloc_4409 : memref<1x80x4096xf32>
  }
}

