module {
  func.func private @subgraph0(memref<32000x4096xf32, strided<[4096, 1], offset: ?>>, memref<1x40xi64, strided<[40, 1], offset: ?>>, memref<4096xf32, strided<[1], offset: ?>>, memref<4096x4096xf32, strided<[4096, 1], offset: ?>>, memref<4096x4096xf32, strided<[4096, 1], offset: ?>>, memref<4096x4096xf32, strided<[4096, 1], offset: ?>>, memref<1x1x2048x128xf32, strided<[262144, 262144, 128, 1], offset: ?>>, memref<1x1x2048x128xf32, strided<[262144, 262144, 128, 1], offset: ?>>, memref<4096x4096xf32, strided<[4096, 1], offset: ?>>, memref<4096xf32, strided<[1], offset: ?>>, memref<11008x4096xf32, strided<[4096, 1], offset: ?>>, memref<11008x4096xf32, strided<[4096, 1], offset: ?>>, memref<4096x11008xf32, strided<[11008, 1], offset: ?>>, memref<4096xf32, strided<[1], offset: ?>>, memref<4096x4096xf32, strided<[4096, 1], offset: ?>>, memref<4096x4096xf32, strided<[4096, 1], offset: ?>>, memref<4096x4096xf32, strided<[4096, 1], offset: ?>>, memref<1x1x2048x128xf32, strided<[262144, 262144, 128, 1], offset: ?>>, memref<1x1x2048x128xf32, strided<[262144, 262144, 128, 1], offset: ?>>, memref<4096x4096xf32, strided<[4096, 1], offset: ?>>, memref<4096xf32, strided<[1], offset: ?>>, memref<11008x4096xf32, strided<[4096, 1], offset: ?>>, memref<11008x4096xf32, strided<[4096, 1], offset: ?>>, memref<4096x11008xf32, strided<[11008, 1], offset: ?>>, memref<4096xf32, strided<[1], offset: ?>>, memref<4096x4096xf32, strided<[4096, 1], offset: ?>>, memref<4096x4096xf32, strided<[4096, 1], offset: ?>>, memref<4096x4096xf32, strided<[4096, 1], offset: ?>>, memref<1x1x2048x128xf32, strided<[262144, 262144, 128, 1], offset: ?>>, memref<1x1x2048x128xf32, strided<[262144, 262144, 128, 1], offset: ?>>, memref<4096x4096xf32, strided<[4096, 1], offset: ?>>, memref<4096xf32, strided<[1], offset: ?>>, memref<11008x4096xf32, strided<[4096, 1], offset: ?>>, memref<11008x4096xf32, strided<[4096, 1], offset: ?>>, memref<4096x11008xf32, strided<[11008, 1], offset: ?>>, memref<4096xf32, strided<[1], offset: ?>>, memref<4096x4096xf32, strided<[4096, 1], offset: ?>>, memref<4096x4096xf32, strided<[4096, 1], offset: ?>>, memref<4096x4096xf32, strided<[4096, 1], offset: ?>>, memref<1x1x2048x128xf32, strided<[262144, 262144, 128, 1], offset: ?>>, memref<1x1x2048x128xf32, strided<[262144, 262144, 128, 1], offset: ?>>, memref<4096x4096xf32, strided<[4096, 1], offset: ?>>, memref<4096xf32, strided<[1], offset: ?>>, memref<11008x4096xf32, strided<[4096, 1], offset: ?>>, memref<11008x4096xf32, strided<[4096, 1], offset: ?>>, memref<4096x11008xf32, strided<[11008, 1], offset: ?>>, memref<4096xf32, strided<[1], offset: ?>>, memref<4096x4096xf32, strided<[4096, 1], offset: ?>>, memref<4096x4096xf32, strided<[4096, 1], offset: ?>>, memref<4096x4096xf32, strided<[4096, 1], offset: ?>>, memref<1x1x2048x128xf32, strided<[262144, 262144, 128, 1], offset: ?>>, memref<1x1x2048x128xf32, strided<[262144, 262144, 128, 1], offset: ?>>, memref<4096x4096xf32, strided<[4096, 1], offset: ?>>, memref<4096xf32, strided<[1], offset: ?>>, memref<11008x4096xf32, strided<[4096, 1], offset: ?>>, memref<11008x4096xf32, strided<[4096, 1], offset: ?>>, memref<4096x11008xf32, strided<[11008, 1], offset: ?>>, memref<4096xf32, strided<[1], offset: ?>>, memref<4096x4096xf32, strided<[4096, 1], offset: ?>>, memref<4096x4096xf32, strided<[4096, 1], offset: ?>>, memref<4096x4096xf32, strided<[4096, 1], offset: ?>>, memref<1x1x2048x128xf32, strided<[262144, 262144, 128, 1], offset: ?>>, memref<1x1x2048x128xf32, strided<[262144, 262144, 128, 1], offset: ?>>, memref<4096x4096xf32, strided<[4096, 1], offset: ?>>, memref<4096xf32, strided<[1], offset: ?>>, memref<11008x4096xf32, strided<[4096, 1], offset: ?>>, memref<11008x4096xf32, strided<[4096, 1], offset: ?>>, memref<4096x11008xf32, strided<[11008, 1], offset: ?>>, memref<4096xf32, strided<[1], offset: ?>>, memref<4096x4096xf32, strided<[4096, 1], offset: ?>>, memref<4096x4096xf32, strided<[4096, 1], offset: ?>>, memref<4096x4096xf32, strided<[4096, 1], offset: ?>>, memref<1x1x2048x128xf32, strided<[262144, 262144, 128, 1], offset: ?>>, memref<1x1x2048x128xf32, strided<[262144, 262144, 128, 1], offset: ?>>, memref<4096x4096xf32, strided<[4096, 1], offset: ?>>, memref<4096xf32, strided<[1], offset: ?>>, memref<11008x4096xf32, strided<[4096, 1], offset: ?>>, memref<11008x4096xf32, strided<[4096, 1], offset: ?>>, memref<4096x11008xf32, strided<[11008, 1], offset: ?>>, memref<4096xf32, strided<[1], offset: ?>>, memref<4096x4096xf32, strided<[4096, 1], offset: ?>>, memref<4096x4096xf32, strided<[4096, 1], offset: ?>>, memref<4096x4096xf32, strided<[4096, 1], offset: ?>>, memref<1x1x2048x128xf32, strided<[262144, 262144, 128, 1], offset: ?>>, memref<1x1x2048x128xf32, strided<[262144, 262144, 128, 1], offset: ?>>, memref<4096x4096xf32, strided<[4096, 1], offset: ?>>, memref<4096xf32, strided<[1], offset: ?>>, memref<11008x4096xf32, strided<[4096, 1], offset: ?>>, memref<11008x4096xf32, strided<[4096, 1], offset: ?>>, memref<4096x11008xf32, strided<[11008, 1], offset: ?>>, memref<4096xf32, strided<[1], offset: ?>>, memref<4096x4096xf32, strided<[4096, 1], offset: ?>>, memref<4096x4096xf32, strided<[4096, 1], offset: ?>>, memref<4096x4096xf32, strided<[4096, 1], offset: ?>>, memref<1x1x2048x128xf32, strided<[262144, 262144, 128, 1], offset: ?>>, memref<1x1x2048x128xf32, strided<[262144, 262144, 128, 1], offset: ?>>, memref<4096x4096xf32, strided<[4096, 1], offset: ?>>, memref<4096xf32, strided<[1], offset: ?>>, memref<11008x4096xf32, strided<[4096, 1], offset: ?>>, memref<11008x4096xf32, strided<[4096, 1], offset: ?>>, memref<4096x11008xf32, strided<[11008, 1], offset: ?>>, memref<4096xf32, strided<[1], offset: ?>>, memref<4096x4096xf32, strided<[4096, 1], offset: ?>>, memref<4096x4096xf32, strided<[4096, 1], offset: ?>>, memref<4096x4096xf32, strided<[4096, 1], offset: ?>>, memref<1x1x2048x128xf32, strided<[262144, 262144, 128, 1], offset: ?>>, memref<1x1x2048x128xf32, strided<[262144, 262144, 128, 1], offset: ?>>, memref<4096x4096xf32, strided<[4096, 1], offset: ?>>, memref<4096xf32, strided<[1], offset: ?>>, memref<11008x4096xf32, strided<[4096, 1], offset: ?>>, memref<11008x4096xf32, strided<[4096, 1], offset: ?>>, memref<4096x11008xf32, strided<[11008, 1], offset: ?>>, memref<4096xf32, strided<[1], offset: ?>>, memref<4096x4096xf32, strided<[4096, 1], offset: ?>>, memref<4096x4096xf32, strided<[4096, 1], offset: ?>>, memref<4096x4096xf32, strided<[4096, 1], offset: ?>>, memref<1x1x2048x128xf32, strided<[262144, 262144, 128, 1], offset: ?>>, memref<1x1x2048x128xf32, strided<[262144, 262144, 128, 1], offset: ?>>, memref<4096x4096xf32, strided<[4096, 1], offset: ?>>, memref<4096xf32, strided<[1], offset: ?>>, memref<11008x4096xf32, strided<[4096, 1], offset: ?>>, memref<11008x4096xf32, strided<[4096, 1], offset: ?>>, memref<4096x11008xf32, strided<[11008, 1], offset: ?>>, memref<4096xf32, strided<[1], offset: ?>>, memref<4096x4096xf32, strided<[4096, 1], offset: ?>>, memref<4096x4096xf32, strided<[4096, 1], offset: ?>>, memref<4096x4096xf32, strided<[4096, 1], offset: ?>>, memref<1x1x2048x128xf32, strided<[262144, 262144, 128, 1], offset: ?>>, memref<1x1x2048x128xf32, strided<[262144, 262144, 128, 1], offset: ?>>, memref<4096x4096xf32, strided<[4096, 1], offset: ?>>, memref<4096xf32, strided<[1], offset: ?>>, memref<11008x4096xf32, strided<[4096, 1], offset: ?>>, memref<11008x4096xf32, strided<[4096, 1], offset: ?>>, memref<4096x11008xf32, strided<[11008, 1], offset: ?>>, memref<4096xf32, strided<[1], offset: ?>>, memref<4096x4096xf32, strided<[4096, 1], offset: ?>>, memref<4096x4096xf32, strided<[4096, 1], offset: ?>>, memref<4096x4096xf32, strided<[4096, 1], offset: ?>>, memref<1x1x2048x128xf32, strided<[262144, 262144, 128, 1], offset: ?>>, memref<1x1x2048x128xf32, strided<[262144, 262144, 128, 1], offset: ?>>, memref<4096x4096xf32, strided<[4096, 1], offset: ?>>, memref<4096xf32, strided<[1], offset: ?>>, memref<11008x4096xf32, strided<[4096, 1], offset: ?>>, memref<11008x4096xf32, strided<[4096, 1], offset: ?>>, memref<4096x11008xf32, strided<[11008, 1], offset: ?>>, memref<4096xf32, strided<[1], offset: ?>>, memref<4096x4096xf32, strided<[4096, 1], offset: ?>>, memref<4096x4096xf32, strided<[4096, 1], offset: ?>>, memref<4096x4096xf32, strided<[4096, 1], offset: ?>>, memref<1x1x2048x128xf32, strided<[262144, 262144, 128, 1], offset: ?>>, memref<1x1x2048x128xf32, strided<[262144, 262144, 128, 1], offset: ?>>, memref<4096x4096xf32, strided<[4096, 1], offset: ?>>, memref<4096xf32, strided<[1], offset: ?>>, memref<11008x4096xf32, strided<[4096, 1], offset: ?>>, memref<11008x4096xf32, strided<[4096, 1], offset: ?>>, memref<4096x11008xf32, strided<[11008, 1], offset: ?>>, memref<4096xf32, strided<[1], offset: ?>>, memref<4096x4096xf32, strided<[4096, 1], offset: ?>>, memref<4096x4096xf32, strided<[4096, 1], offset: ?>>, memref<4096x4096xf32, strided<[4096, 1], offset: ?>>, memref<1x1x2048x128xf32, strided<[262144, 262144, 128, 1], offset: ?>>, memref<1x1x2048x128xf32, strided<[262144, 262144, 128, 1], offset: ?>>, memref<4096x4096xf32, strided<[4096, 1], offset: ?>>, memref<4096xf32, strided<[1], offset: ?>>, memref<11008x4096xf32, strided<[4096, 1], offset: ?>>, memref<11008x4096xf32, strided<[4096, 1], offset: ?>>, memref<4096x11008xf32, strided<[11008, 1], offset: ?>>, memref<4096xf32, strided<[1], offset: ?>>, memref<4096x4096xf32, strided<[4096, 1], offset: ?>>, memref<4096x4096xf32, strided<[4096, 1], offset: ?>>, memref<4096x4096xf32, strided<[4096, 1], offset: ?>>, memref<1x1x2048x128xf32, strided<[262144, 262144, 128, 1], offset: ?>>, memref<1x1x2048x128xf32, strided<[262144, 262144, 128, 1], offset: ?>>, memref<4096x4096xf32, strided<[4096, 1], offset: ?>>, memref<4096xf32, strided<[1], offset: ?>>, memref<11008x4096xf32, strided<[4096, 1], offset: ?>>, memref<11008x4096xf32, strided<[4096, 1], offset: ?>>, memref<4096x11008xf32, strided<[11008, 1], offset: ?>>, memref<4096xf32, strided<[1], offset: ?>>, memref<4096x4096xf32, strided<[4096, 1], offset: ?>>, memref<4096x4096xf32, strided<[4096, 1], offset: ?>>, memref<4096x4096xf32, strided<[4096, 1], offset: ?>>, memref<1x1x2048x128xf32, strided<[262144, 262144, 128, 1], offset: ?>>, memref<1x1x2048x128xf32, strided<[262144, 262144, 128, 1], offset: ?>>, memref<4096x4096xf32, strided<[4096, 1], offset: ?>>, memref<4096xf32, strided<[1], offset: ?>>, memref<11008x4096xf32, strided<[4096, 1], offset: ?>>, memref<11008x4096xf32, strided<[4096, 1], offset: ?>>, memref<4096x11008xf32, strided<[11008, 1], offset: ?>>, memref<4096xf32, strided<[1], offset: ?>>, memref<4096x4096xf32, strided<[4096, 1], offset: ?>>, memref<4096x4096xf32, strided<[4096, 1], offset: ?>>, memref<4096x4096xf32, strided<[4096, 1], offset: ?>>, memref<1x1x2048x128xf32, strided<[262144, 262144, 128, 1], offset: ?>>, memref<1x1x2048x128xf32, strided<[262144, 262144, 128, 1], offset: ?>>, memref<4096x4096xf32, strided<[4096, 1], offset: ?>>, memref<4096xf32, strided<[1], offset: ?>>, memref<11008x4096xf32, strided<[4096, 1], offset: ?>>, memref<11008x4096xf32, strided<[4096, 1], offset: ?>>, memref<4096x11008xf32, strided<[11008, 1], offset: ?>>, memref<4096xf32, strided<[1], offset: ?>>, memref<4096x4096xf32, strided<[4096, 1], offset: ?>>, memref<4096x4096xf32, strided<[4096, 1], offset: ?>>, memref<4096x4096xf32, strided<[4096, 1], offset: ?>>, memref<1x1x2048x128xf32, strided<[262144, 262144, 128, 1], offset: ?>>, memref<1x1x2048x128xf32, strided<[262144, 262144, 128, 1], offset: ?>>, memref<4096x4096xf32, strided<[4096, 1], offset: ?>>, memref<4096xf32, strided<[1], offset: ?>>, memref<11008x4096xf32, strided<[4096, 1], offset: ?>>, memref<11008x4096xf32, strided<[4096, 1], offset: ?>>, memref<4096x11008xf32, strided<[11008, 1], offset: ?>>, memref<4096xf32, strided<[1], offset: ?>>, memref<4096x4096xf32, strided<[4096, 1], offset: ?>>, memref<4096x4096xf32, strided<[4096, 1], offset: ?>>, memref<4096x4096xf32, strided<[4096, 1], offset: ?>>, memref<1x1x2048x128xf32, strided<[262144, 262144, 128, 1], offset: ?>>, memref<1x1x2048x128xf32, strided<[262144, 262144, 128, 1], offset: ?>>, memref<4096x4096xf32, strided<[4096, 1], offset: ?>>, memref<4096xf32, strided<[1], offset: ?>>, memref<11008x4096xf32, strided<[4096, 1], offset: ?>>, memref<11008x4096xf32, strided<[4096, 1], offset: ?>>, memref<4096x11008xf32, strided<[11008, 1], offset: ?>>, memref<4096xf32, strided<[1], offset: ?>>, memref<4096x4096xf32, strided<[4096, 1], offset: ?>>, memref<4096x4096xf32, strided<[4096, 1], offset: ?>>, memref<4096x4096xf32, strided<[4096, 1], offset: ?>>, memref<1x1x2048x128xf32, strided<[262144, 262144, 128, 1], offset: ?>>, memref<1x1x2048x128xf32, strided<[262144, 262144, 128, 1], offset: ?>>, memref<4096x4096xf32, strided<[4096, 1], offset: ?>>, memref<4096xf32, strided<[1], offset: ?>>, memref<11008x4096xf32, strided<[4096, 1], offset: ?>>, memref<11008x4096xf32, strided<[4096, 1], offset: ?>>, memref<4096x11008xf32, strided<[11008, 1], offset: ?>>, memref<4096xf32, strided<[1], offset: ?>>, memref<4096x4096xf32, strided<[4096, 1], offset: ?>>, memref<4096x4096xf32, strided<[4096, 1], offset: ?>>, memref<4096x4096xf32, strided<[4096, 1], offset: ?>>, memref<1x1x2048x128xf32, strided<[262144, 262144, 128, 1], offset: ?>>, memref<1x1x2048x128xf32, strided<[262144, 262144, 128, 1], offset: ?>>, memref<4096x4096xf32, strided<[4096, 1], offset: ?>>, memref<4096xf32, strided<[1], offset: ?>>, memref<11008x4096xf32, strided<[4096, 1], offset: ?>>, memref<11008x4096xf32, strided<[4096, 1], offset: ?>>, memref<4096x11008xf32, strided<[11008, 1], offset: ?>>, memref<4096xf32, strided<[1], offset: ?>>, memref<4096x4096xf32, strided<[4096, 1], offset: ?>>, memref<4096x4096xf32, strided<[4096, 1], offset: ?>>, memref<4096x4096xf32, strided<[4096, 1], offset: ?>>, memref<1x1x2048x128xf32, strided<[262144, 262144, 128, 1], offset: ?>>, memref<1x1x2048x128xf32, strided<[262144, 262144, 128, 1], offset: ?>>, memref<4096x4096xf32, strided<[4096, 1], offset: ?>>, memref<4096xf32, strided<[1], offset: ?>>, memref<11008x4096xf32, strided<[4096, 1], offset: ?>>, memref<11008x4096xf32, strided<[4096, 1], offset: ?>>, memref<4096x11008xf32, strided<[11008, 1], offset: ?>>, memref<4096xf32, strided<[1], offset: ?>>, memref<4096x4096xf32, strided<[4096, 1], offset: ?>>, memref<4096x4096xf32, strided<[4096, 1], offset: ?>>, memref<4096x4096xf32, strided<[4096, 1], offset: ?>>, memref<1x1x2048x128xf32, strided<[262144, 262144, 128, 1], offset: ?>>, memref<1x1x2048x128xf32, strided<[262144, 262144, 128, 1], offset: ?>>, memref<4096x4096xf32, strided<[4096, 1], offset: ?>>, memref<4096xf32, strided<[1], offset: ?>>, memref<11008x4096xf32, strided<[4096, 1], offset: ?>>, memref<11008x4096xf32, strided<[4096, 1], offset: ?>>, memref<4096x11008xf32, strided<[11008, 1], offset: ?>>, memref<4096xf32, strided<[1], offset: ?>>, memref<4096x4096xf32, strided<[4096, 1], offset: ?>>, memref<4096x4096xf32, strided<[4096, 1], offset: ?>>, memref<4096x4096xf32, strided<[4096, 1], offset: ?>>, memref<1x1x2048x128xf32, strided<[262144, 262144, 128, 1], offset: ?>>, memref<1x1x2048x128xf32, strided<[262144, 262144, 128, 1], offset: ?>>, memref<4096x4096xf32, strided<[4096, 1], offset: ?>>, memref<4096xf32, strided<[1], offset: ?>>, memref<11008x4096xf32, strided<[4096, 1], offset: ?>>, memref<11008x4096xf32, strided<[4096, 1], offset: ?>>, memref<4096x11008xf32, strided<[11008, 1], offset: ?>>, memref<4096xf32, strided<[1], offset: ?>>, memref<4096x4096xf32, strided<[4096, 1], offset: ?>>, memref<4096x4096xf32, strided<[4096, 1], offset: ?>>, memref<4096x4096xf32, strided<[4096, 1], offset: ?>>, memref<1x1x2048x128xf32, strided<[262144, 262144, 128, 1], offset: ?>>, memref<1x1x2048x128xf32, strided<[262144, 262144, 128, 1], offset: ?>>, memref<4096x4096xf32, strided<[4096, 1], offset: ?>>, memref<4096xf32, strided<[1], offset: ?>>, memref<11008x4096xf32, strided<[4096, 1], offset: ?>>, memref<11008x4096xf32, strided<[4096, 1], offset: ?>>, memref<4096x11008xf32, strided<[11008, 1], offset: ?>>, memref<4096xf32, strided<[1], offset: ?>>, memref<4096x4096xf32, strided<[4096, 1], offset: ?>>, memref<4096x4096xf32, strided<[4096, 1], offset: ?>>, memref<4096x4096xf32, strided<[4096, 1], offset: ?>>, memref<1x1x2048x128xf32, strided<[262144, 262144, 128, 1], offset: ?>>, memref<1x1x2048x128xf32, strided<[262144, 262144, 128, 1], offset: ?>>, memref<4096x4096xf32, strided<[4096, 1], offset: ?>>, memref<4096xf32, strided<[1], offset: ?>>, memref<11008x4096xf32, strided<[4096, 1], offset: ?>>, memref<11008x4096xf32, strided<[4096, 1], offset: ?>>, memref<4096x11008xf32, strided<[11008, 1], offset: ?>>, memref<4096xf32, strided<[1], offset: ?>>, memref<4096x4096xf32, strided<[4096, 1], offset: ?>>, memref<4096x4096xf32, strided<[4096, 1], offset: ?>>, memref<4096x4096xf32, strided<[4096, 1], offset: ?>>, memref<1x1x2048x128xf32, strided<[262144, 262144, 128, 1], offset: ?>>, memref<1x1x2048x128xf32, strided<[262144, 262144, 128, 1], offset: ?>>, memref<4096x4096xf32, strided<[4096, 1], offset: ?>>, memref<4096xf32, strided<[1], offset: ?>>, memref<11008x4096xf32, strided<[4096, 1], offset: ?>>, memref<11008x4096xf32, strided<[4096, 1], offset: ?>>, memref<4096x11008xf32, strided<[11008, 1], offset: ?>>, memref<4096xf32, strided<[1], offset: ?>>, memref<4096x4096xf32, strided<[4096, 1], offset: ?>>, memref<4096x4096xf32, strided<[4096, 1], offset: ?>>, memref<4096x4096xf32, strided<[4096, 1], offset: ?>>, memref<1x1x2048x128xf32, strided<[262144, 262144, 128, 1], offset: ?>>, memref<1x1x2048x128xf32, strided<[262144, 262144, 128, 1], offset: ?>>, memref<4096x4096xf32, strided<[4096, 1], offset: ?>>, memref<4096xf32, strided<[1], offset: ?>>, memref<11008x4096xf32, strided<[4096, 1], offset: ?>>, memref<11008x4096xf32, strided<[4096, 1], offset: ?>>, memref<4096x11008xf32, strided<[11008, 1], offset: ?>>, memref<4096xf32, strided<[1], offset: ?>>, memref<4096x4096xf32, strided<[4096, 1], offset: ?>>, memref<4096x4096xf32, strided<[4096, 1], offset: ?>>, memref<4096x4096xf32, strided<[4096, 1], offset: ?>>, memref<1x1x2048x128xf32, strided<[262144, 262144, 128, 1], offset: ?>>, memref<1x1x2048x128xf32, strided<[262144, 262144, 128, 1], offset: ?>>, memref<4096x4096xf32, strided<[4096, 1], offset: ?>>, memref<4096xf32, strided<[1], offset: ?>>, memref<11008x4096xf32, strided<[4096, 1], offset: ?>>, memref<11008x4096xf32, strided<[4096, 1], offset: ?>>, memref<4096x11008xf32, strided<[11008, 1], offset: ?>>, memref<4096xf32, strided<[1], offset: ?>>, memref<4096x4096xf32, strided<[4096, 1], offset: ?>>, memref<4096x4096xf32, strided<[4096, 1], offset: ?>>, memref<4096x4096xf32, strided<[4096, 1], offset: ?>>, memref<1x1x2048x128xf32, strided<[262144, 262144, 128, 1], offset: ?>>, memref<1x1x2048x128xf32, strided<[262144, 262144, 128, 1], offset: ?>>, memref<4096x4096xf32, strided<[4096, 1], offset: ?>>, memref<4096xf32, strided<[1], offset: ?>>, memref<11008x4096xf32, strided<[4096, 1], offset: ?>>, memref<11008x4096xf32, strided<[4096, 1], offset: ?>>, memref<4096x11008xf32, strided<[11008, 1], offset: ?>>, memref<4096xf32, strided<[1], offset: ?>>, memref<4096x4096xf32, strided<[4096, 1], offset: ?>>, memref<4096x4096xf32, strided<[4096, 1], offset: ?>>, memref<4096x4096xf32, strided<[4096, 1], offset: ?>>, memref<1x1x2048x128xf32, strided<[262144, 262144, 128, 1], offset: ?>>, memref<1x1x2048x128xf32, strided<[262144, 262144, 128, 1], offset: ?>>, memref<4096x4096xf32, strided<[4096, 1], offset: ?>>, memref<4096xf32, strided<[1], offset: ?>>, memref<11008x4096xf32, strided<[4096, 1], offset: ?>>, memref<11008x4096xf32, strided<[4096, 1], offset: ?>>, memref<4096x11008xf32, strided<[11008, 1], offset: ?>>, memref<4096xf32, strided<[1], offset: ?>>, memref<32000x4096xf32, strided<[4096, 1], offset: ?>>) -> (memref<1x40x4096xf32>, memref<1x40x32000xf32>)
  func.func @forward(%arg0: memref<6755192832xf32>, %arg1: memref<1x40xi64>) -> (memref<1x40x4096xf32>, memref<1x40x32000xf32>) {
    %subview = memref.subview %arg0[0] [4096] [1] : memref<6755192832xf32> to memref<4096xf32>
    %subview_0 = memref.subview %arg0[4096] [4096] [1] : memref<6755192832xf32> to memref<4096xf32, strided<[1], offset: 4096>>
    %subview_1 = memref.subview %arg0[8192] [4096] [1] : memref<6755192832xf32> to memref<4096xf32, strided<[1], offset: 8192>>
    %subview_2 = memref.subview %arg0[12288] [4096] [1] : memref<6755192832xf32> to memref<4096xf32, strided<[1], offset: 12288>>
    %subview_3 = memref.subview %arg0[16384] [4096] [1] : memref<6755192832xf32> to memref<4096xf32, strided<[1], offset: 16384>>
    %subview_4 = memref.subview %arg0[20480] [4096] [1] : memref<6755192832xf32> to memref<4096xf32, strided<[1], offset: 20480>>
    %subview_5 = memref.subview %arg0[24576] [4096] [1] : memref<6755192832xf32> to memref<4096xf32, strided<[1], offset: 24576>>
    %subview_6 = memref.subview %arg0[28672] [4096] [1] : memref<6755192832xf32> to memref<4096xf32, strided<[1], offset: 28672>>
    %subview_7 = memref.subview %arg0[32768] [4096] [1] : memref<6755192832xf32> to memref<4096xf32, strided<[1], offset: 32768>>
    %subview_8 = memref.subview %arg0[36864] [4096] [1] : memref<6755192832xf32> to memref<4096xf32, strided<[1], offset: 36864>>
    %subview_9 = memref.subview %arg0[40960] [4096] [1] : memref<6755192832xf32> to memref<4096xf32, strided<[1], offset: 40960>>
    %subview_10 = memref.subview %arg0[45056] [4096] [1] : memref<6755192832xf32> to memref<4096xf32, strided<[1], offset: 45056>>
    %subview_11 = memref.subview %arg0[49152] [4096] [1] : memref<6755192832xf32> to memref<4096xf32, strided<[1], offset: 49152>>
    %subview_12 = memref.subview %arg0[53248] [4096] [1] : memref<6755192832xf32> to memref<4096xf32, strided<[1], offset: 53248>>
    %subview_13 = memref.subview %arg0[57344] [4096] [1] : memref<6755192832xf32> to memref<4096xf32, strided<[1], offset: 57344>>
    %subview_14 = memref.subview %arg0[61440] [4096] [1] : memref<6755192832xf32> to memref<4096xf32, strided<[1], offset: 61440>>
    %subview_15 = memref.subview %arg0[65536] [4096] [1] : memref<6755192832xf32> to memref<4096xf32, strided<[1], offset: 65536>>
    %subview_16 = memref.subview %arg0[69632] [4096] [1] : memref<6755192832xf32> to memref<4096xf32, strided<[1], offset: 69632>>
    %subview_17 = memref.subview %arg0[73728] [4096] [1] : memref<6755192832xf32> to memref<4096xf32, strided<[1], offset: 73728>>
    %subview_18 = memref.subview %arg0[77824] [4096] [1] : memref<6755192832xf32> to memref<4096xf32, strided<[1], offset: 77824>>
    %subview_19 = memref.subview %arg0[81920] [4096] [1] : memref<6755192832xf32> to memref<4096xf32, strided<[1], offset: 81920>>
    %subview_20 = memref.subview %arg0[86016] [4096] [1] : memref<6755192832xf32> to memref<4096xf32, strided<[1], offset: 86016>>
    %subview_21 = memref.subview %arg0[90112] [4096] [1] : memref<6755192832xf32> to memref<4096xf32, strided<[1], offset: 90112>>
    %subview_22 = memref.subview %arg0[94208] [4096] [1] : memref<6755192832xf32> to memref<4096xf32, strided<[1], offset: 94208>>
    %subview_23 = memref.subview %arg0[98304] [4096] [1] : memref<6755192832xf32> to memref<4096xf32, strided<[1], offset: 98304>>
    %subview_24 = memref.subview %arg0[102400] [4096] [1] : memref<6755192832xf32> to memref<4096xf32, strided<[1], offset: 102400>>
    %subview_25 = memref.subview %arg0[106496] [4096] [1] : memref<6755192832xf32> to memref<4096xf32, strided<[1], offset: 106496>>
    %subview_26 = memref.subview %arg0[110592] [4096] [1] : memref<6755192832xf32> to memref<4096xf32, strided<[1], offset: 110592>>
    %subview_27 = memref.subview %arg0[114688] [4096] [1] : memref<6755192832xf32> to memref<4096xf32, strided<[1], offset: 114688>>
    %subview_28 = memref.subview %arg0[118784] [4096] [1] : memref<6755192832xf32> to memref<4096xf32, strided<[1], offset: 118784>>
    %subview_29 = memref.subview %arg0[122880] [4096] [1] : memref<6755192832xf32> to memref<4096xf32, strided<[1], offset: 122880>>
    %subview_30 = memref.subview %arg0[126976] [4096] [1] : memref<6755192832xf32> to memref<4096xf32, strided<[1], offset: 126976>>
    %subview_31 = memref.subview %arg0[131072] [4096] [1] : memref<6755192832xf32> to memref<4096xf32, strided<[1], offset: 131072>>
    %subview_32 = memref.subview %arg0[135168] [4096] [1] : memref<6755192832xf32> to memref<4096xf32, strided<[1], offset: 135168>>
    %subview_33 = memref.subview %arg0[139264] [4096] [1] : memref<6755192832xf32> to memref<4096xf32, strided<[1], offset: 139264>>
    %subview_34 = memref.subview %arg0[143360] [4096] [1] : memref<6755192832xf32> to memref<4096xf32, strided<[1], offset: 143360>>
    %subview_35 = memref.subview %arg0[147456] [4096] [1] : memref<6755192832xf32> to memref<4096xf32, strided<[1], offset: 147456>>
    %subview_36 = memref.subview %arg0[151552] [4096] [1] : memref<6755192832xf32> to memref<4096xf32, strided<[1], offset: 151552>>
    %subview_37 = memref.subview %arg0[155648] [4096] [1] : memref<6755192832xf32> to memref<4096xf32, strided<[1], offset: 155648>>
    %subview_38 = memref.subview %arg0[159744] [4096] [1] : memref<6755192832xf32> to memref<4096xf32, strided<[1], offset: 159744>>
    %subview_39 = memref.subview %arg0[163840] [4096] [1] : memref<6755192832xf32> to memref<4096xf32, strided<[1], offset: 163840>>
    %subview_40 = memref.subview %arg0[167936] [4096] [1] : memref<6755192832xf32> to memref<4096xf32, strided<[1], offset: 167936>>
    %subview_41 = memref.subview %arg0[172032] [4096] [1] : memref<6755192832xf32> to memref<4096xf32, strided<[1], offset: 172032>>
    %subview_42 = memref.subview %arg0[176128] [4096] [1] : memref<6755192832xf32> to memref<4096xf32, strided<[1], offset: 176128>>
    %subview_43 = memref.subview %arg0[180224] [4096] [1] : memref<6755192832xf32> to memref<4096xf32, strided<[1], offset: 180224>>
    %subview_44 = memref.subview %arg0[184320] [4096] [1] : memref<6755192832xf32> to memref<4096xf32, strided<[1], offset: 184320>>
    %subview_45 = memref.subview %arg0[188416] [4096] [1] : memref<6755192832xf32> to memref<4096xf32, strided<[1], offset: 188416>>
    %subview_46 = memref.subview %arg0[192512] [4096] [1] : memref<6755192832xf32> to memref<4096xf32, strided<[1], offset: 192512>>
    %subview_47 = memref.subview %arg0[196608] [4096] [1] : memref<6755192832xf32> to memref<4096xf32, strided<[1], offset: 196608>>
    %subview_48 = memref.subview %arg0[200704] [4096] [1] : memref<6755192832xf32> to memref<4096xf32, strided<[1], offset: 200704>>
    %subview_49 = memref.subview %arg0[204800] [4096] [1] : memref<6755192832xf32> to memref<4096xf32, strided<[1], offset: 204800>>
    %subview_50 = memref.subview %arg0[208896] [4096] [1] : memref<6755192832xf32> to memref<4096xf32, strided<[1], offset: 208896>>
    %subview_51 = memref.subview %arg0[212992] [4096] [1] : memref<6755192832xf32> to memref<4096xf32, strided<[1], offset: 212992>>
    %subview_52 = memref.subview %arg0[217088] [4096] [1] : memref<6755192832xf32> to memref<4096xf32, strided<[1], offset: 217088>>
    %subview_53 = memref.subview %arg0[221184] [4096] [1] : memref<6755192832xf32> to memref<4096xf32, strided<[1], offset: 221184>>
    %subview_54 = memref.subview %arg0[225280] [4096] [1] : memref<6755192832xf32> to memref<4096xf32, strided<[1], offset: 225280>>
    %subview_55 = memref.subview %arg0[229376] [4096] [1] : memref<6755192832xf32> to memref<4096xf32, strided<[1], offset: 229376>>
    %subview_56 = memref.subview %arg0[233472] [4096] [1] : memref<6755192832xf32> to memref<4096xf32, strided<[1], offset: 233472>>
    %subview_57 = memref.subview %arg0[237568] [4096] [1] : memref<6755192832xf32> to memref<4096xf32, strided<[1], offset: 237568>>
    %subview_58 = memref.subview %arg0[241664] [4096] [1] : memref<6755192832xf32> to memref<4096xf32, strided<[1], offset: 241664>>
    %subview_59 = memref.subview %arg0[245760] [4096] [1] : memref<6755192832xf32> to memref<4096xf32, strided<[1], offset: 245760>>
    %subview_60 = memref.subview %arg0[249856] [4096] [1] : memref<6755192832xf32> to memref<4096xf32, strided<[1], offset: 249856>>
    %subview_61 = memref.subview %arg0[253952] [4096] [1] : memref<6755192832xf32> to memref<4096xf32, strided<[1], offset: 253952>>
    %subview_62 = memref.subview %arg0[258048] [4096] [1] : memref<6755192832xf32> to memref<4096xf32, strided<[1], offset: 258048>>
    %subview_63 = memref.subview %arg0[262144] [4096] [1] : memref<6755192832xf32> to memref<4096xf32, strided<[1], offset: 262144>>
    %subview_64 = memref.subview %arg0[266240] [131072000] [1] : memref<6755192832xf32> to memref<131072000xf32, strided<[1], offset: 266240>>
    %expand_shape = memref.expand_shape %subview_64 [[0, 1]] : memref<131072000xf32, strided<[1], offset: 266240>> into memref<32000x4096xf32, strided<[4096, 1], offset: 266240>>
    %subview_65 = memref.subview %arg0[131338240] [16777216] [1] : memref<6755192832xf32> to memref<16777216xf32, strided<[1], offset: 131338240>>
    %expand_shape_66 = memref.expand_shape %subview_65 [[0, 1]] : memref<16777216xf32, strided<[1], offset: 131338240>> into memref<4096x4096xf32, strided<[4096, 1], offset: 131338240>>
    %subview_67 = memref.subview %arg0[148115456] [16777216] [1] : memref<6755192832xf32> to memref<16777216xf32, strided<[1], offset: 148115456>>
    %expand_shape_68 = memref.expand_shape %subview_67 [[0, 1]] : memref<16777216xf32, strided<[1], offset: 148115456>> into memref<4096x4096xf32, strided<[4096, 1], offset: 148115456>>
    %subview_69 = memref.subview %arg0[164892672] [16777216] [1] : memref<6755192832xf32> to memref<16777216xf32, strided<[1], offset: 164892672>>
    %expand_shape_70 = memref.expand_shape %subview_69 [[0, 1]] : memref<16777216xf32, strided<[1], offset: 164892672>> into memref<4096x4096xf32, strided<[4096, 1], offset: 164892672>>
    %subview_71 = memref.subview %arg0[181669888] [16777216] [1] : memref<6755192832xf32> to memref<16777216xf32, strided<[1], offset: 181669888>>
    %expand_shape_72 = memref.expand_shape %subview_71 [[0, 1]] : memref<16777216xf32, strided<[1], offset: 181669888>> into memref<4096x4096xf32, strided<[4096, 1], offset: 181669888>>
    %subview_73 = memref.subview %arg0[198447104] [45088768] [1] : memref<6755192832xf32> to memref<45088768xf32, strided<[1], offset: 198447104>>
    %expand_shape_74 = memref.expand_shape %subview_73 [[0, 1]] : memref<45088768xf32, strided<[1], offset: 198447104>> into memref<11008x4096xf32, strided<[4096, 1], offset: 198447104>>
    %subview_75 = memref.subview %arg0[243535872] [45088768] [1] : memref<6755192832xf32> to memref<45088768xf32, strided<[1], offset: 243535872>>
    %expand_shape_76 = memref.expand_shape %subview_75 [[0, 1]] : memref<45088768xf32, strided<[1], offset: 243535872>> into memref<11008x4096xf32, strided<[4096, 1], offset: 243535872>>
    %subview_77 = memref.subview %arg0[288624640] [45088768] [1] : memref<6755192832xf32> to memref<45088768xf32, strided<[1], offset: 288624640>>
    %expand_shape_78 = memref.expand_shape %subview_77 [[0, 1]] : memref<45088768xf32, strided<[1], offset: 288624640>> into memref<4096x11008xf32, strided<[11008, 1], offset: 288624640>>
    %subview_79 = memref.subview %arg0[333713408] [16777216] [1] : memref<6755192832xf32> to memref<16777216xf32, strided<[1], offset: 333713408>>
    %expand_shape_80 = memref.expand_shape %subview_79 [[0, 1]] : memref<16777216xf32, strided<[1], offset: 333713408>> into memref<4096x4096xf32, strided<[4096, 1], offset: 333713408>>
    %subview_81 = memref.subview %arg0[350490624] [16777216] [1] : memref<6755192832xf32> to memref<16777216xf32, strided<[1], offset: 350490624>>
    %expand_shape_82 = memref.expand_shape %subview_81 [[0, 1]] : memref<16777216xf32, strided<[1], offset: 350490624>> into memref<4096x4096xf32, strided<[4096, 1], offset: 350490624>>
    %subview_83 = memref.subview %arg0[367267840] [16777216] [1] : memref<6755192832xf32> to memref<16777216xf32, strided<[1], offset: 367267840>>
    %expand_shape_84 = memref.expand_shape %subview_83 [[0, 1]] : memref<16777216xf32, strided<[1], offset: 367267840>> into memref<4096x4096xf32, strided<[4096, 1], offset: 367267840>>
    %subview_85 = memref.subview %arg0[384045056] [16777216] [1] : memref<6755192832xf32> to memref<16777216xf32, strided<[1], offset: 384045056>>
    %expand_shape_86 = memref.expand_shape %subview_85 [[0, 1]] : memref<16777216xf32, strided<[1], offset: 384045056>> into memref<4096x4096xf32, strided<[4096, 1], offset: 384045056>>
    %subview_87 = memref.subview %arg0[400822272] [45088768] [1] : memref<6755192832xf32> to memref<45088768xf32, strided<[1], offset: 400822272>>
    %expand_shape_88 = memref.expand_shape %subview_87 [[0, 1]] : memref<45088768xf32, strided<[1], offset: 400822272>> into memref<11008x4096xf32, strided<[4096, 1], offset: 400822272>>
    %subview_89 = memref.subview %arg0[445911040] [45088768] [1] : memref<6755192832xf32> to memref<45088768xf32, strided<[1], offset: 445911040>>
    %expand_shape_90 = memref.expand_shape %subview_89 [[0, 1]] : memref<45088768xf32, strided<[1], offset: 445911040>> into memref<11008x4096xf32, strided<[4096, 1], offset: 445911040>>
    %subview_91 = memref.subview %arg0[490999808] [45088768] [1] : memref<6755192832xf32> to memref<45088768xf32, strided<[1], offset: 490999808>>
    %expand_shape_92 = memref.expand_shape %subview_91 [[0, 1]] : memref<45088768xf32, strided<[1], offset: 490999808>> into memref<4096x11008xf32, strided<[11008, 1], offset: 490999808>>
    %subview_93 = memref.subview %arg0[536088576] [16777216] [1] : memref<6755192832xf32> to memref<16777216xf32, strided<[1], offset: 536088576>>
    %expand_shape_94 = memref.expand_shape %subview_93 [[0, 1]] : memref<16777216xf32, strided<[1], offset: 536088576>> into memref<4096x4096xf32, strided<[4096, 1], offset: 536088576>>
    %subview_95 = memref.subview %arg0[552865792] [16777216] [1] : memref<6755192832xf32> to memref<16777216xf32, strided<[1], offset: 552865792>>
    %expand_shape_96 = memref.expand_shape %subview_95 [[0, 1]] : memref<16777216xf32, strided<[1], offset: 552865792>> into memref<4096x4096xf32, strided<[4096, 1], offset: 552865792>>
    %subview_97 = memref.subview %arg0[569643008] [16777216] [1] : memref<6755192832xf32> to memref<16777216xf32, strided<[1], offset: 569643008>>
    %expand_shape_98 = memref.expand_shape %subview_97 [[0, 1]] : memref<16777216xf32, strided<[1], offset: 569643008>> into memref<4096x4096xf32, strided<[4096, 1], offset: 569643008>>
    %subview_99 = memref.subview %arg0[586420224] [16777216] [1] : memref<6755192832xf32> to memref<16777216xf32, strided<[1], offset: 586420224>>
    %expand_shape_100 = memref.expand_shape %subview_99 [[0, 1]] : memref<16777216xf32, strided<[1], offset: 586420224>> into memref<4096x4096xf32, strided<[4096, 1], offset: 586420224>>
    %subview_101 = memref.subview %arg0[603197440] [45088768] [1] : memref<6755192832xf32> to memref<45088768xf32, strided<[1], offset: 603197440>>
    %expand_shape_102 = memref.expand_shape %subview_101 [[0, 1]] : memref<45088768xf32, strided<[1], offset: 603197440>> into memref<11008x4096xf32, strided<[4096, 1], offset: 603197440>>
    %subview_103 = memref.subview %arg0[648286208] [45088768] [1] : memref<6755192832xf32> to memref<45088768xf32, strided<[1], offset: 648286208>>
    %expand_shape_104 = memref.expand_shape %subview_103 [[0, 1]] : memref<45088768xf32, strided<[1], offset: 648286208>> into memref<11008x4096xf32, strided<[4096, 1], offset: 648286208>>
    %subview_105 = memref.subview %arg0[693374976] [45088768] [1] : memref<6755192832xf32> to memref<45088768xf32, strided<[1], offset: 693374976>>
    %expand_shape_106 = memref.expand_shape %subview_105 [[0, 1]] : memref<45088768xf32, strided<[1], offset: 693374976>> into memref<4096x11008xf32, strided<[11008, 1], offset: 693374976>>
    %subview_107 = memref.subview %arg0[738463744] [16777216] [1] : memref<6755192832xf32> to memref<16777216xf32, strided<[1], offset: 738463744>>
    %expand_shape_108 = memref.expand_shape %subview_107 [[0, 1]] : memref<16777216xf32, strided<[1], offset: 738463744>> into memref<4096x4096xf32, strided<[4096, 1], offset: 738463744>>
    %subview_109 = memref.subview %arg0[755240960] [16777216] [1] : memref<6755192832xf32> to memref<16777216xf32, strided<[1], offset: 755240960>>
    %expand_shape_110 = memref.expand_shape %subview_109 [[0, 1]] : memref<16777216xf32, strided<[1], offset: 755240960>> into memref<4096x4096xf32, strided<[4096, 1], offset: 755240960>>
    %subview_111 = memref.subview %arg0[772018176] [16777216] [1] : memref<6755192832xf32> to memref<16777216xf32, strided<[1], offset: 772018176>>
    %expand_shape_112 = memref.expand_shape %subview_111 [[0, 1]] : memref<16777216xf32, strided<[1], offset: 772018176>> into memref<4096x4096xf32, strided<[4096, 1], offset: 772018176>>
    %subview_113 = memref.subview %arg0[788795392] [16777216] [1] : memref<6755192832xf32> to memref<16777216xf32, strided<[1], offset: 788795392>>
    %expand_shape_114 = memref.expand_shape %subview_113 [[0, 1]] : memref<16777216xf32, strided<[1], offset: 788795392>> into memref<4096x4096xf32, strided<[4096, 1], offset: 788795392>>
    %subview_115 = memref.subview %arg0[805572608] [45088768] [1] : memref<6755192832xf32> to memref<45088768xf32, strided<[1], offset: 805572608>>
    %expand_shape_116 = memref.expand_shape %subview_115 [[0, 1]] : memref<45088768xf32, strided<[1], offset: 805572608>> into memref<11008x4096xf32, strided<[4096, 1], offset: 805572608>>
    %subview_117 = memref.subview %arg0[850661376] [45088768] [1] : memref<6755192832xf32> to memref<45088768xf32, strided<[1], offset: 850661376>>
    %expand_shape_118 = memref.expand_shape %subview_117 [[0, 1]] : memref<45088768xf32, strided<[1], offset: 850661376>> into memref<11008x4096xf32, strided<[4096, 1], offset: 850661376>>
    %subview_119 = memref.subview %arg0[895750144] [45088768] [1] : memref<6755192832xf32> to memref<45088768xf32, strided<[1], offset: 895750144>>
    %expand_shape_120 = memref.expand_shape %subview_119 [[0, 1]] : memref<45088768xf32, strided<[1], offset: 895750144>> into memref<4096x11008xf32, strided<[11008, 1], offset: 895750144>>
    %subview_121 = memref.subview %arg0[940838912] [16777216] [1] : memref<6755192832xf32> to memref<16777216xf32, strided<[1], offset: 940838912>>
    %expand_shape_122 = memref.expand_shape %subview_121 [[0, 1]] : memref<16777216xf32, strided<[1], offset: 940838912>> into memref<4096x4096xf32, strided<[4096, 1], offset: 940838912>>
    %subview_123 = memref.subview %arg0[957616128] [16777216] [1] : memref<6755192832xf32> to memref<16777216xf32, strided<[1], offset: 957616128>>
    %expand_shape_124 = memref.expand_shape %subview_123 [[0, 1]] : memref<16777216xf32, strided<[1], offset: 957616128>> into memref<4096x4096xf32, strided<[4096, 1], offset: 957616128>>
    %subview_125 = memref.subview %arg0[974393344] [16777216] [1] : memref<6755192832xf32> to memref<16777216xf32, strided<[1], offset: 974393344>>
    %expand_shape_126 = memref.expand_shape %subview_125 [[0, 1]] : memref<16777216xf32, strided<[1], offset: 974393344>> into memref<4096x4096xf32, strided<[4096, 1], offset: 974393344>>
    %subview_127 = memref.subview %arg0[991170560] [16777216] [1] : memref<6755192832xf32> to memref<16777216xf32, strided<[1], offset: 991170560>>
    %expand_shape_128 = memref.expand_shape %subview_127 [[0, 1]] : memref<16777216xf32, strided<[1], offset: 991170560>> into memref<4096x4096xf32, strided<[4096, 1], offset: 991170560>>
    %subview_129 = memref.subview %arg0[1007947776] [45088768] [1] : memref<6755192832xf32> to memref<45088768xf32, strided<[1], offset: 1007947776>>
    %expand_shape_130 = memref.expand_shape %subview_129 [[0, 1]] : memref<45088768xf32, strided<[1], offset: 1007947776>> into memref<11008x4096xf32, strided<[4096, 1], offset: 1007947776>>
    %subview_131 = memref.subview %arg0[1053036544] [45088768] [1] : memref<6755192832xf32> to memref<45088768xf32, strided<[1], offset: 1053036544>>
    %expand_shape_132 = memref.expand_shape %subview_131 [[0, 1]] : memref<45088768xf32, strided<[1], offset: 1053036544>> into memref<11008x4096xf32, strided<[4096, 1], offset: 1053036544>>
    %subview_133 = memref.subview %arg0[1098125312] [45088768] [1] : memref<6755192832xf32> to memref<45088768xf32, strided<[1], offset: 1098125312>>
    %expand_shape_134 = memref.expand_shape %subview_133 [[0, 1]] : memref<45088768xf32, strided<[1], offset: 1098125312>> into memref<4096x11008xf32, strided<[11008, 1], offset: 1098125312>>
    %subview_135 = memref.subview %arg0[1143214080] [16777216] [1] : memref<6755192832xf32> to memref<16777216xf32, strided<[1], offset: 1143214080>>
    %expand_shape_136 = memref.expand_shape %subview_135 [[0, 1]] : memref<16777216xf32, strided<[1], offset: 1143214080>> into memref<4096x4096xf32, strided<[4096, 1], offset: 1143214080>>
    %subview_137 = memref.subview %arg0[1159991296] [16777216] [1] : memref<6755192832xf32> to memref<16777216xf32, strided<[1], offset: 1159991296>>
    %expand_shape_138 = memref.expand_shape %subview_137 [[0, 1]] : memref<16777216xf32, strided<[1], offset: 1159991296>> into memref<4096x4096xf32, strided<[4096, 1], offset: 1159991296>>
    %subview_139 = memref.subview %arg0[1176768512] [16777216] [1] : memref<6755192832xf32> to memref<16777216xf32, strided<[1], offset: 1176768512>>
    %expand_shape_140 = memref.expand_shape %subview_139 [[0, 1]] : memref<16777216xf32, strided<[1], offset: 1176768512>> into memref<4096x4096xf32, strided<[4096, 1], offset: 1176768512>>
    %subview_141 = memref.subview %arg0[1193545728] [16777216] [1] : memref<6755192832xf32> to memref<16777216xf32, strided<[1], offset: 1193545728>>
    %expand_shape_142 = memref.expand_shape %subview_141 [[0, 1]] : memref<16777216xf32, strided<[1], offset: 1193545728>> into memref<4096x4096xf32, strided<[4096, 1], offset: 1193545728>>
    %subview_143 = memref.subview %arg0[1210322944] [45088768] [1] : memref<6755192832xf32> to memref<45088768xf32, strided<[1], offset: 1210322944>>
    %expand_shape_144 = memref.expand_shape %subview_143 [[0, 1]] : memref<45088768xf32, strided<[1], offset: 1210322944>> into memref<11008x4096xf32, strided<[4096, 1], offset: 1210322944>>
    %subview_145 = memref.subview %arg0[1255411712] [45088768] [1] : memref<6755192832xf32> to memref<45088768xf32, strided<[1], offset: 1255411712>>
    %expand_shape_146 = memref.expand_shape %subview_145 [[0, 1]] : memref<45088768xf32, strided<[1], offset: 1255411712>> into memref<11008x4096xf32, strided<[4096, 1], offset: 1255411712>>
    %subview_147 = memref.subview %arg0[1300500480] [45088768] [1] : memref<6755192832xf32> to memref<45088768xf32, strided<[1], offset: 1300500480>>
    %expand_shape_148 = memref.expand_shape %subview_147 [[0, 1]] : memref<45088768xf32, strided<[1], offset: 1300500480>> into memref<4096x11008xf32, strided<[11008, 1], offset: 1300500480>>
    %subview_149 = memref.subview %arg0[1345589248] [16777216] [1] : memref<6755192832xf32> to memref<16777216xf32, strided<[1], offset: 1345589248>>
    %expand_shape_150 = memref.expand_shape %subview_149 [[0, 1]] : memref<16777216xf32, strided<[1], offset: 1345589248>> into memref<4096x4096xf32, strided<[4096, 1], offset: 1345589248>>
    %subview_151 = memref.subview %arg0[1362366464] [16777216] [1] : memref<6755192832xf32> to memref<16777216xf32, strided<[1], offset: 1362366464>>
    %expand_shape_152 = memref.expand_shape %subview_151 [[0, 1]] : memref<16777216xf32, strided<[1], offset: 1362366464>> into memref<4096x4096xf32, strided<[4096, 1], offset: 1362366464>>
    %subview_153 = memref.subview %arg0[1379143680] [16777216] [1] : memref<6755192832xf32> to memref<16777216xf32, strided<[1], offset: 1379143680>>
    %expand_shape_154 = memref.expand_shape %subview_153 [[0, 1]] : memref<16777216xf32, strided<[1], offset: 1379143680>> into memref<4096x4096xf32, strided<[4096, 1], offset: 1379143680>>
    %subview_155 = memref.subview %arg0[1395920896] [16777216] [1] : memref<6755192832xf32> to memref<16777216xf32, strided<[1], offset: 1395920896>>
    %expand_shape_156 = memref.expand_shape %subview_155 [[0, 1]] : memref<16777216xf32, strided<[1], offset: 1395920896>> into memref<4096x4096xf32, strided<[4096, 1], offset: 1395920896>>
    %subview_157 = memref.subview %arg0[1412698112] [45088768] [1] : memref<6755192832xf32> to memref<45088768xf32, strided<[1], offset: 1412698112>>
    %expand_shape_158 = memref.expand_shape %subview_157 [[0, 1]] : memref<45088768xf32, strided<[1], offset: 1412698112>> into memref<11008x4096xf32, strided<[4096, 1], offset: 1412698112>>
    %subview_159 = memref.subview %arg0[1457786880] [45088768] [1] : memref<6755192832xf32> to memref<45088768xf32, strided<[1], offset: 1457786880>>
    %expand_shape_160 = memref.expand_shape %subview_159 [[0, 1]] : memref<45088768xf32, strided<[1], offset: 1457786880>> into memref<11008x4096xf32, strided<[4096, 1], offset: 1457786880>>
    %subview_161 = memref.subview %arg0[1502875648] [45088768] [1] : memref<6755192832xf32> to memref<45088768xf32, strided<[1], offset: 1502875648>>
    %expand_shape_162 = memref.expand_shape %subview_161 [[0, 1]] : memref<45088768xf32, strided<[1], offset: 1502875648>> into memref<4096x11008xf32, strided<[11008, 1], offset: 1502875648>>
    %subview_163 = memref.subview %arg0[1547964416] [16777216] [1] : memref<6755192832xf32> to memref<16777216xf32, strided<[1], offset: 1547964416>>
    %expand_shape_164 = memref.expand_shape %subview_163 [[0, 1]] : memref<16777216xf32, strided<[1], offset: 1547964416>> into memref<4096x4096xf32, strided<[4096, 1], offset: 1547964416>>
    %subview_165 = memref.subview %arg0[1564741632] [16777216] [1] : memref<6755192832xf32> to memref<16777216xf32, strided<[1], offset: 1564741632>>
    %expand_shape_166 = memref.expand_shape %subview_165 [[0, 1]] : memref<16777216xf32, strided<[1], offset: 1564741632>> into memref<4096x4096xf32, strided<[4096, 1], offset: 1564741632>>
    %subview_167 = memref.subview %arg0[1581518848] [16777216] [1] : memref<6755192832xf32> to memref<16777216xf32, strided<[1], offset: 1581518848>>
    %expand_shape_168 = memref.expand_shape %subview_167 [[0, 1]] : memref<16777216xf32, strided<[1], offset: 1581518848>> into memref<4096x4096xf32, strided<[4096, 1], offset: 1581518848>>
    %subview_169 = memref.subview %arg0[1598296064] [16777216] [1] : memref<6755192832xf32> to memref<16777216xf32, strided<[1], offset: 1598296064>>
    %expand_shape_170 = memref.expand_shape %subview_169 [[0, 1]] : memref<16777216xf32, strided<[1], offset: 1598296064>> into memref<4096x4096xf32, strided<[4096, 1], offset: 1598296064>>
    %subview_171 = memref.subview %arg0[1615073280] [45088768] [1] : memref<6755192832xf32> to memref<45088768xf32, strided<[1], offset: 1615073280>>
    %expand_shape_172 = memref.expand_shape %subview_171 [[0, 1]] : memref<45088768xf32, strided<[1], offset: 1615073280>> into memref<11008x4096xf32, strided<[4096, 1], offset: 1615073280>>
    %subview_173 = memref.subview %arg0[1660162048] [45088768] [1] : memref<6755192832xf32> to memref<45088768xf32, strided<[1], offset: 1660162048>>
    %expand_shape_174 = memref.expand_shape %subview_173 [[0, 1]] : memref<45088768xf32, strided<[1], offset: 1660162048>> into memref<11008x4096xf32, strided<[4096, 1], offset: 1660162048>>
    %subview_175 = memref.subview %arg0[1705250816] [45088768] [1] : memref<6755192832xf32> to memref<45088768xf32, strided<[1], offset: 1705250816>>
    %expand_shape_176 = memref.expand_shape %subview_175 [[0, 1]] : memref<45088768xf32, strided<[1], offset: 1705250816>> into memref<4096x11008xf32, strided<[11008, 1], offset: 1705250816>>
    %subview_177 = memref.subview %arg0[1750339584] [16777216] [1] : memref<6755192832xf32> to memref<16777216xf32, strided<[1], offset: 1750339584>>
    %expand_shape_178 = memref.expand_shape %subview_177 [[0, 1]] : memref<16777216xf32, strided<[1], offset: 1750339584>> into memref<4096x4096xf32, strided<[4096, 1], offset: 1750339584>>
    %subview_179 = memref.subview %arg0[1767116800] [16777216] [1] : memref<6755192832xf32> to memref<16777216xf32, strided<[1], offset: 1767116800>>
    %expand_shape_180 = memref.expand_shape %subview_179 [[0, 1]] : memref<16777216xf32, strided<[1], offset: 1767116800>> into memref<4096x4096xf32, strided<[4096, 1], offset: 1767116800>>
    %subview_181 = memref.subview %arg0[1783894016] [16777216] [1] : memref<6755192832xf32> to memref<16777216xf32, strided<[1], offset: 1783894016>>
    %expand_shape_182 = memref.expand_shape %subview_181 [[0, 1]] : memref<16777216xf32, strided<[1], offset: 1783894016>> into memref<4096x4096xf32, strided<[4096, 1], offset: 1783894016>>
    %subview_183 = memref.subview %arg0[1800671232] [16777216] [1] : memref<6755192832xf32> to memref<16777216xf32, strided<[1], offset: 1800671232>>
    %expand_shape_184 = memref.expand_shape %subview_183 [[0, 1]] : memref<16777216xf32, strided<[1], offset: 1800671232>> into memref<4096x4096xf32, strided<[4096, 1], offset: 1800671232>>
    %subview_185 = memref.subview %arg0[1817448448] [45088768] [1] : memref<6755192832xf32> to memref<45088768xf32, strided<[1], offset: 1817448448>>
    %expand_shape_186 = memref.expand_shape %subview_185 [[0, 1]] : memref<45088768xf32, strided<[1], offset: 1817448448>> into memref<11008x4096xf32, strided<[4096, 1], offset: 1817448448>>
    %subview_187 = memref.subview %arg0[1862537216] [45088768] [1] : memref<6755192832xf32> to memref<45088768xf32, strided<[1], offset: 1862537216>>
    %expand_shape_188 = memref.expand_shape %subview_187 [[0, 1]] : memref<45088768xf32, strided<[1], offset: 1862537216>> into memref<11008x4096xf32, strided<[4096, 1], offset: 1862537216>>
    %subview_189 = memref.subview %arg0[1907625984] [45088768] [1] : memref<6755192832xf32> to memref<45088768xf32, strided<[1], offset: 1907625984>>
    %expand_shape_190 = memref.expand_shape %subview_189 [[0, 1]] : memref<45088768xf32, strided<[1], offset: 1907625984>> into memref<4096x11008xf32, strided<[11008, 1], offset: 1907625984>>
    %subview_191 = memref.subview %arg0[1952714752] [16777216] [1] : memref<6755192832xf32> to memref<16777216xf32, strided<[1], offset: 1952714752>>
    %expand_shape_192 = memref.expand_shape %subview_191 [[0, 1]] : memref<16777216xf32, strided<[1], offset: 1952714752>> into memref<4096x4096xf32, strided<[4096, 1], offset: 1952714752>>
    %subview_193 = memref.subview %arg0[1969491968] [16777216] [1] : memref<6755192832xf32> to memref<16777216xf32, strided<[1], offset: 1969491968>>
    %expand_shape_194 = memref.expand_shape %subview_193 [[0, 1]] : memref<16777216xf32, strided<[1], offset: 1969491968>> into memref<4096x4096xf32, strided<[4096, 1], offset: 1969491968>>
    %subview_195 = memref.subview %arg0[1986269184] [16777216] [1] : memref<6755192832xf32> to memref<16777216xf32, strided<[1], offset: 1986269184>>
    %expand_shape_196 = memref.expand_shape %subview_195 [[0, 1]] : memref<16777216xf32, strided<[1], offset: 1986269184>> into memref<4096x4096xf32, strided<[4096, 1], offset: 1986269184>>
    %subview_197 = memref.subview %arg0[2003046400] [16777216] [1] : memref<6755192832xf32> to memref<16777216xf32, strided<[1], offset: 2003046400>>
    %expand_shape_198 = memref.expand_shape %subview_197 [[0, 1]] : memref<16777216xf32, strided<[1], offset: 2003046400>> into memref<4096x4096xf32, strided<[4096, 1], offset: 2003046400>>
    %subview_199 = memref.subview %arg0[2019823616] [45088768] [1] : memref<6755192832xf32> to memref<45088768xf32, strided<[1], offset: 2019823616>>
    %expand_shape_200 = memref.expand_shape %subview_199 [[0, 1]] : memref<45088768xf32, strided<[1], offset: 2019823616>> into memref<11008x4096xf32, strided<[4096, 1], offset: 2019823616>>
    %subview_201 = memref.subview %arg0[2064912384] [45088768] [1] : memref<6755192832xf32> to memref<45088768xf32, strided<[1], offset: 2064912384>>
    %expand_shape_202 = memref.expand_shape %subview_201 [[0, 1]] : memref<45088768xf32, strided<[1], offset: 2064912384>> into memref<11008x4096xf32, strided<[4096, 1], offset: 2064912384>>
    %subview_203 = memref.subview %arg0[2110001152] [45088768] [1] : memref<6755192832xf32> to memref<45088768xf32, strided<[1], offset: 2110001152>>
    %expand_shape_204 = memref.expand_shape %subview_203 [[0, 1]] : memref<45088768xf32, strided<[1], offset: 2110001152>> into memref<4096x11008xf32, strided<[11008, 1], offset: 2110001152>>
    %subview_205 = memref.subview %arg0[2155089920] [16777216] [1] : memref<6755192832xf32> to memref<16777216xf32, strided<[1], offset: 2155089920>>
    %expand_shape_206 = memref.expand_shape %subview_205 [[0, 1]] : memref<16777216xf32, strided<[1], offset: 2155089920>> into memref<4096x4096xf32, strided<[4096, 1], offset: 2155089920>>
    %subview_207 = memref.subview %arg0[2171867136] [16777216] [1] : memref<6755192832xf32> to memref<16777216xf32, strided<[1], offset: 2171867136>>
    %expand_shape_208 = memref.expand_shape %subview_207 [[0, 1]] : memref<16777216xf32, strided<[1], offset: 2171867136>> into memref<4096x4096xf32, strided<[4096, 1], offset: 2171867136>>
    %subview_209 = memref.subview %arg0[2188644352] [16777216] [1] : memref<6755192832xf32> to memref<16777216xf32, strided<[1], offset: 2188644352>>
    %expand_shape_210 = memref.expand_shape %subview_209 [[0, 1]] : memref<16777216xf32, strided<[1], offset: 2188644352>> into memref<4096x4096xf32, strided<[4096, 1], offset: 2188644352>>
    %subview_211 = memref.subview %arg0[2205421568] [16777216] [1] : memref<6755192832xf32> to memref<16777216xf32, strided<[1], offset: 2205421568>>
    %expand_shape_212 = memref.expand_shape %subview_211 [[0, 1]] : memref<16777216xf32, strided<[1], offset: 2205421568>> into memref<4096x4096xf32, strided<[4096, 1], offset: 2205421568>>
    %subview_213 = memref.subview %arg0[2222198784] [45088768] [1] : memref<6755192832xf32> to memref<45088768xf32, strided<[1], offset: 2222198784>>
    %expand_shape_214 = memref.expand_shape %subview_213 [[0, 1]] : memref<45088768xf32, strided<[1], offset: 2222198784>> into memref<11008x4096xf32, strided<[4096, 1], offset: 2222198784>>
    %subview_215 = memref.subview %arg0[2267287552] [45088768] [1] : memref<6755192832xf32> to memref<45088768xf32, strided<[1], offset: 2267287552>>
    %expand_shape_216 = memref.expand_shape %subview_215 [[0, 1]] : memref<45088768xf32, strided<[1], offset: 2267287552>> into memref<11008x4096xf32, strided<[4096, 1], offset: 2267287552>>
    %subview_217 = memref.subview %arg0[2312376320] [45088768] [1] : memref<6755192832xf32> to memref<45088768xf32, strided<[1], offset: 2312376320>>
    %expand_shape_218 = memref.expand_shape %subview_217 [[0, 1]] : memref<45088768xf32, strided<[1], offset: 2312376320>> into memref<4096x11008xf32, strided<[11008, 1], offset: 2312376320>>
    %subview_219 = memref.subview %arg0[2357465088] [16777216] [1] : memref<6755192832xf32> to memref<16777216xf32, strided<[1], offset: 2357465088>>
    %expand_shape_220 = memref.expand_shape %subview_219 [[0, 1]] : memref<16777216xf32, strided<[1], offset: 2357465088>> into memref<4096x4096xf32, strided<[4096, 1], offset: 2357465088>>
    %subview_221 = memref.subview %arg0[2374242304] [16777216] [1] : memref<6755192832xf32> to memref<16777216xf32, strided<[1], offset: 2374242304>>
    %expand_shape_222 = memref.expand_shape %subview_221 [[0, 1]] : memref<16777216xf32, strided<[1], offset: 2374242304>> into memref<4096x4096xf32, strided<[4096, 1], offset: 2374242304>>
    %subview_223 = memref.subview %arg0[2391019520] [16777216] [1] : memref<6755192832xf32> to memref<16777216xf32, strided<[1], offset: 2391019520>>
    %expand_shape_224 = memref.expand_shape %subview_223 [[0, 1]] : memref<16777216xf32, strided<[1], offset: 2391019520>> into memref<4096x4096xf32, strided<[4096, 1], offset: 2391019520>>
    %subview_225 = memref.subview %arg0[2407796736] [16777216] [1] : memref<6755192832xf32> to memref<16777216xf32, strided<[1], offset: 2407796736>>
    %expand_shape_226 = memref.expand_shape %subview_225 [[0, 1]] : memref<16777216xf32, strided<[1], offset: 2407796736>> into memref<4096x4096xf32, strided<[4096, 1], offset: 2407796736>>
    %subview_227 = memref.subview %arg0[2424573952] [45088768] [1] : memref<6755192832xf32> to memref<45088768xf32, strided<[1], offset: 2424573952>>
    %expand_shape_228 = memref.expand_shape %subview_227 [[0, 1]] : memref<45088768xf32, strided<[1], offset: 2424573952>> into memref<11008x4096xf32, strided<[4096, 1], offset: 2424573952>>
    %subview_229 = memref.subview %arg0[2469662720] [45088768] [1] : memref<6755192832xf32> to memref<45088768xf32, strided<[1], offset: 2469662720>>
    %expand_shape_230 = memref.expand_shape %subview_229 [[0, 1]] : memref<45088768xf32, strided<[1], offset: 2469662720>> into memref<11008x4096xf32, strided<[4096, 1], offset: 2469662720>>
    %subview_231 = memref.subview %arg0[2514751488] [45088768] [1] : memref<6755192832xf32> to memref<45088768xf32, strided<[1], offset: 2514751488>>
    %expand_shape_232 = memref.expand_shape %subview_231 [[0, 1]] : memref<45088768xf32, strided<[1], offset: 2514751488>> into memref<4096x11008xf32, strided<[11008, 1], offset: 2514751488>>
    %subview_233 = memref.subview %arg0[2559840256] [16777216] [1] : memref<6755192832xf32> to memref<16777216xf32, strided<[1], offset: 2559840256>>
    %expand_shape_234 = memref.expand_shape %subview_233 [[0, 1]] : memref<16777216xf32, strided<[1], offset: 2559840256>> into memref<4096x4096xf32, strided<[4096, 1], offset: 2559840256>>
    %subview_235 = memref.subview %arg0[2576617472] [16777216] [1] : memref<6755192832xf32> to memref<16777216xf32, strided<[1], offset: 2576617472>>
    %expand_shape_236 = memref.expand_shape %subview_235 [[0, 1]] : memref<16777216xf32, strided<[1], offset: 2576617472>> into memref<4096x4096xf32, strided<[4096, 1], offset: 2576617472>>
    %subview_237 = memref.subview %arg0[2593394688] [16777216] [1] : memref<6755192832xf32> to memref<16777216xf32, strided<[1], offset: 2593394688>>
    %expand_shape_238 = memref.expand_shape %subview_237 [[0, 1]] : memref<16777216xf32, strided<[1], offset: 2593394688>> into memref<4096x4096xf32, strided<[4096, 1], offset: 2593394688>>
    %subview_239 = memref.subview %arg0[2610171904] [16777216] [1] : memref<6755192832xf32> to memref<16777216xf32, strided<[1], offset: 2610171904>>
    %expand_shape_240 = memref.expand_shape %subview_239 [[0, 1]] : memref<16777216xf32, strided<[1], offset: 2610171904>> into memref<4096x4096xf32, strided<[4096, 1], offset: 2610171904>>
    %subview_241 = memref.subview %arg0[2626949120] [45088768] [1] : memref<6755192832xf32> to memref<45088768xf32, strided<[1], offset: 2626949120>>
    %expand_shape_242 = memref.expand_shape %subview_241 [[0, 1]] : memref<45088768xf32, strided<[1], offset: 2626949120>> into memref<11008x4096xf32, strided<[4096, 1], offset: 2626949120>>
    %subview_243 = memref.subview %arg0[2672037888] [45088768] [1] : memref<6755192832xf32> to memref<45088768xf32, strided<[1], offset: 2672037888>>
    %expand_shape_244 = memref.expand_shape %subview_243 [[0, 1]] : memref<45088768xf32, strided<[1], offset: 2672037888>> into memref<11008x4096xf32, strided<[4096, 1], offset: 2672037888>>
    %subview_245 = memref.subview %arg0[2717126656] [45088768] [1] : memref<6755192832xf32> to memref<45088768xf32, strided<[1], offset: 2717126656>>
    %expand_shape_246 = memref.expand_shape %subview_245 [[0, 1]] : memref<45088768xf32, strided<[1], offset: 2717126656>> into memref<4096x11008xf32, strided<[11008, 1], offset: 2717126656>>
    %subview_247 = memref.subview %arg0[2762215424] [16777216] [1] : memref<6755192832xf32> to memref<16777216xf32, strided<[1], offset: 2762215424>>
    %expand_shape_248 = memref.expand_shape %subview_247 [[0, 1]] : memref<16777216xf32, strided<[1], offset: 2762215424>> into memref<4096x4096xf32, strided<[4096, 1], offset: 2762215424>>
    %subview_249 = memref.subview %arg0[2778992640] [16777216] [1] : memref<6755192832xf32> to memref<16777216xf32, strided<[1], offset: 2778992640>>
    %expand_shape_250 = memref.expand_shape %subview_249 [[0, 1]] : memref<16777216xf32, strided<[1], offset: 2778992640>> into memref<4096x4096xf32, strided<[4096, 1], offset: 2778992640>>
    %subview_251 = memref.subview %arg0[2795769856] [16777216] [1] : memref<6755192832xf32> to memref<16777216xf32, strided<[1], offset: 2795769856>>
    %expand_shape_252 = memref.expand_shape %subview_251 [[0, 1]] : memref<16777216xf32, strided<[1], offset: 2795769856>> into memref<4096x4096xf32, strided<[4096, 1], offset: 2795769856>>
    %subview_253 = memref.subview %arg0[2812547072] [16777216] [1] : memref<6755192832xf32> to memref<16777216xf32, strided<[1], offset: 2812547072>>
    %expand_shape_254 = memref.expand_shape %subview_253 [[0, 1]] : memref<16777216xf32, strided<[1], offset: 2812547072>> into memref<4096x4096xf32, strided<[4096, 1], offset: 2812547072>>
    %subview_255 = memref.subview %arg0[2829324288] [45088768] [1] : memref<6755192832xf32> to memref<45088768xf32, strided<[1], offset: 2829324288>>
    %expand_shape_256 = memref.expand_shape %subview_255 [[0, 1]] : memref<45088768xf32, strided<[1], offset: 2829324288>> into memref<11008x4096xf32, strided<[4096, 1], offset: 2829324288>>
    %subview_257 = memref.subview %arg0[2874413056] [45088768] [1] : memref<6755192832xf32> to memref<45088768xf32, strided<[1], offset: 2874413056>>
    %expand_shape_258 = memref.expand_shape %subview_257 [[0, 1]] : memref<45088768xf32, strided<[1], offset: 2874413056>> into memref<11008x4096xf32, strided<[4096, 1], offset: 2874413056>>
    %subview_259 = memref.subview %arg0[2919501824] [45088768] [1] : memref<6755192832xf32> to memref<45088768xf32, strided<[1], offset: 2919501824>>
    %expand_shape_260 = memref.expand_shape %subview_259 [[0, 1]] : memref<45088768xf32, strided<[1], offset: 2919501824>> into memref<4096x11008xf32, strided<[11008, 1], offset: 2919501824>>
    %subview_261 = memref.subview %arg0[2964590592] [16777216] [1] : memref<6755192832xf32> to memref<16777216xf32, strided<[1], offset: 2964590592>>
    %expand_shape_262 = memref.expand_shape %subview_261 [[0, 1]] : memref<16777216xf32, strided<[1], offset: 2964590592>> into memref<4096x4096xf32, strided<[4096, 1], offset: 2964590592>>
    %subview_263 = memref.subview %arg0[2981367808] [16777216] [1] : memref<6755192832xf32> to memref<16777216xf32, strided<[1], offset: 2981367808>>
    %expand_shape_264 = memref.expand_shape %subview_263 [[0, 1]] : memref<16777216xf32, strided<[1], offset: 2981367808>> into memref<4096x4096xf32, strided<[4096, 1], offset: 2981367808>>
    %subview_265 = memref.subview %arg0[2998145024] [16777216] [1] : memref<6755192832xf32> to memref<16777216xf32, strided<[1], offset: 2998145024>>
    %expand_shape_266 = memref.expand_shape %subview_265 [[0, 1]] : memref<16777216xf32, strided<[1], offset: 2998145024>> into memref<4096x4096xf32, strided<[4096, 1], offset: 2998145024>>
    %subview_267 = memref.subview %arg0[3014922240] [16777216] [1] : memref<6755192832xf32> to memref<16777216xf32, strided<[1], offset: 3014922240>>
    %expand_shape_268 = memref.expand_shape %subview_267 [[0, 1]] : memref<16777216xf32, strided<[1], offset: 3014922240>> into memref<4096x4096xf32, strided<[4096, 1], offset: 3014922240>>
    %subview_269 = memref.subview %arg0[3031699456] [45088768] [1] : memref<6755192832xf32> to memref<45088768xf32, strided<[1], offset: 3031699456>>
    %expand_shape_270 = memref.expand_shape %subview_269 [[0, 1]] : memref<45088768xf32, strided<[1], offset: 3031699456>> into memref<11008x4096xf32, strided<[4096, 1], offset: 3031699456>>
    %subview_271 = memref.subview %arg0[3076788224] [45088768] [1] : memref<6755192832xf32> to memref<45088768xf32, strided<[1], offset: 3076788224>>
    %expand_shape_272 = memref.expand_shape %subview_271 [[0, 1]] : memref<45088768xf32, strided<[1], offset: 3076788224>> into memref<11008x4096xf32, strided<[4096, 1], offset: 3076788224>>
    %subview_273 = memref.subview %arg0[3121876992] [45088768] [1] : memref<6755192832xf32> to memref<45088768xf32, strided<[1], offset: 3121876992>>
    %expand_shape_274 = memref.expand_shape %subview_273 [[0, 1]] : memref<45088768xf32, strided<[1], offset: 3121876992>> into memref<4096x11008xf32, strided<[11008, 1], offset: 3121876992>>
    %subview_275 = memref.subview %arg0[3166965760] [16777216] [1] : memref<6755192832xf32> to memref<16777216xf32, strided<[1], offset: 3166965760>>
    %expand_shape_276 = memref.expand_shape %subview_275 [[0, 1]] : memref<16777216xf32, strided<[1], offset: 3166965760>> into memref<4096x4096xf32, strided<[4096, 1], offset: 3166965760>>
    %subview_277 = memref.subview %arg0[3183742976] [16777216] [1] : memref<6755192832xf32> to memref<16777216xf32, strided<[1], offset: 3183742976>>
    %expand_shape_278 = memref.expand_shape %subview_277 [[0, 1]] : memref<16777216xf32, strided<[1], offset: 3183742976>> into memref<4096x4096xf32, strided<[4096, 1], offset: 3183742976>>
    %subview_279 = memref.subview %arg0[3200520192] [16777216] [1] : memref<6755192832xf32> to memref<16777216xf32, strided<[1], offset: 3200520192>>
    %expand_shape_280 = memref.expand_shape %subview_279 [[0, 1]] : memref<16777216xf32, strided<[1], offset: 3200520192>> into memref<4096x4096xf32, strided<[4096, 1], offset: 3200520192>>
    %subview_281 = memref.subview %arg0[3217297408] [16777216] [1] : memref<6755192832xf32> to memref<16777216xf32, strided<[1], offset: 3217297408>>
    %expand_shape_282 = memref.expand_shape %subview_281 [[0, 1]] : memref<16777216xf32, strided<[1], offset: 3217297408>> into memref<4096x4096xf32, strided<[4096, 1], offset: 3217297408>>
    %subview_283 = memref.subview %arg0[3234074624] [45088768] [1] : memref<6755192832xf32> to memref<45088768xf32, strided<[1], offset: 3234074624>>
    %expand_shape_284 = memref.expand_shape %subview_283 [[0, 1]] : memref<45088768xf32, strided<[1], offset: 3234074624>> into memref<11008x4096xf32, strided<[4096, 1], offset: 3234074624>>
    %subview_285 = memref.subview %arg0[3279163392] [45088768] [1] : memref<6755192832xf32> to memref<45088768xf32, strided<[1], offset: 3279163392>>
    %expand_shape_286 = memref.expand_shape %subview_285 [[0, 1]] : memref<45088768xf32, strided<[1], offset: 3279163392>> into memref<11008x4096xf32, strided<[4096, 1], offset: 3279163392>>
    %subview_287 = memref.subview %arg0[3324252160] [45088768] [1] : memref<6755192832xf32> to memref<45088768xf32, strided<[1], offset: 3324252160>>
    %expand_shape_288 = memref.expand_shape %subview_287 [[0, 1]] : memref<45088768xf32, strided<[1], offset: 3324252160>> into memref<4096x11008xf32, strided<[11008, 1], offset: 3324252160>>
    %subview_289 = memref.subview %arg0[3369340928] [16777216] [1] : memref<6755192832xf32> to memref<16777216xf32, strided<[1], offset: 3369340928>>
    %expand_shape_290 = memref.expand_shape %subview_289 [[0, 1]] : memref<16777216xf32, strided<[1], offset: 3369340928>> into memref<4096x4096xf32, strided<[4096, 1], offset: 3369340928>>
    %subview_291 = memref.subview %arg0[3386118144] [16777216] [1] : memref<6755192832xf32> to memref<16777216xf32, strided<[1], offset: 3386118144>>
    %expand_shape_292 = memref.expand_shape %subview_291 [[0, 1]] : memref<16777216xf32, strided<[1], offset: 3386118144>> into memref<4096x4096xf32, strided<[4096, 1], offset: 3386118144>>
    %subview_293 = memref.subview %arg0[3402895360] [16777216] [1] : memref<6755192832xf32> to memref<16777216xf32, strided<[1], offset: 3402895360>>
    %expand_shape_294 = memref.expand_shape %subview_293 [[0, 1]] : memref<16777216xf32, strided<[1], offset: 3402895360>> into memref<4096x4096xf32, strided<[4096, 1], offset: 3402895360>>
    %subview_295 = memref.subview %arg0[3419672576] [16777216] [1] : memref<6755192832xf32> to memref<16777216xf32, strided<[1], offset: 3419672576>>
    %expand_shape_296 = memref.expand_shape %subview_295 [[0, 1]] : memref<16777216xf32, strided<[1], offset: 3419672576>> into memref<4096x4096xf32, strided<[4096, 1], offset: 3419672576>>
    %subview_297 = memref.subview %arg0[3436449792] [45088768] [1] : memref<6755192832xf32> to memref<45088768xf32, strided<[1], offset: 3436449792>>
    %expand_shape_298 = memref.expand_shape %subview_297 [[0, 1]] : memref<45088768xf32, strided<[1], offset: 3436449792>> into memref<11008x4096xf32, strided<[4096, 1], offset: 3436449792>>
    %subview_299 = memref.subview %arg0[3481538560] [45088768] [1] : memref<6755192832xf32> to memref<45088768xf32, strided<[1], offset: 3481538560>>
    %expand_shape_300 = memref.expand_shape %subview_299 [[0, 1]] : memref<45088768xf32, strided<[1], offset: 3481538560>> into memref<11008x4096xf32, strided<[4096, 1], offset: 3481538560>>
    %subview_301 = memref.subview %arg0[3526627328] [45088768] [1] : memref<6755192832xf32> to memref<45088768xf32, strided<[1], offset: 3526627328>>
    %expand_shape_302 = memref.expand_shape %subview_301 [[0, 1]] : memref<45088768xf32, strided<[1], offset: 3526627328>> into memref<4096x11008xf32, strided<[11008, 1], offset: 3526627328>>
    %subview_303 = memref.subview %arg0[3571716096] [16777216] [1] : memref<6755192832xf32> to memref<16777216xf32, strided<[1], offset: 3571716096>>
    %expand_shape_304 = memref.expand_shape %subview_303 [[0, 1]] : memref<16777216xf32, strided<[1], offset: 3571716096>> into memref<4096x4096xf32, strided<[4096, 1], offset: 3571716096>>
    %subview_305 = memref.subview %arg0[3588493312] [16777216] [1] : memref<6755192832xf32> to memref<16777216xf32, strided<[1], offset: 3588493312>>
    %expand_shape_306 = memref.expand_shape %subview_305 [[0, 1]] : memref<16777216xf32, strided<[1], offset: 3588493312>> into memref<4096x4096xf32, strided<[4096, 1], offset: 3588493312>>
    %subview_307 = memref.subview %arg0[3605270528] [16777216] [1] : memref<6755192832xf32> to memref<16777216xf32, strided<[1], offset: 3605270528>>
    %expand_shape_308 = memref.expand_shape %subview_307 [[0, 1]] : memref<16777216xf32, strided<[1], offset: 3605270528>> into memref<4096x4096xf32, strided<[4096, 1], offset: 3605270528>>
    %subview_309 = memref.subview %arg0[3622047744] [16777216] [1] : memref<6755192832xf32> to memref<16777216xf32, strided<[1], offset: 3622047744>>
    %expand_shape_310 = memref.expand_shape %subview_309 [[0, 1]] : memref<16777216xf32, strided<[1], offset: 3622047744>> into memref<4096x4096xf32, strided<[4096, 1], offset: 3622047744>>
    %subview_311 = memref.subview %arg0[3638824960] [45088768] [1] : memref<6755192832xf32> to memref<45088768xf32, strided<[1], offset: 3638824960>>
    %expand_shape_312 = memref.expand_shape %subview_311 [[0, 1]] : memref<45088768xf32, strided<[1], offset: 3638824960>> into memref<11008x4096xf32, strided<[4096, 1], offset: 3638824960>>
    %subview_313 = memref.subview %arg0[3683913728] [45088768] [1] : memref<6755192832xf32> to memref<45088768xf32, strided<[1], offset: 3683913728>>
    %expand_shape_314 = memref.expand_shape %subview_313 [[0, 1]] : memref<45088768xf32, strided<[1], offset: 3683913728>> into memref<11008x4096xf32, strided<[4096, 1], offset: 3683913728>>
    %subview_315 = memref.subview %arg0[3729002496] [45088768] [1] : memref<6755192832xf32> to memref<45088768xf32, strided<[1], offset: 3729002496>>
    %expand_shape_316 = memref.expand_shape %subview_315 [[0, 1]] : memref<45088768xf32, strided<[1], offset: 3729002496>> into memref<4096x11008xf32, strided<[11008, 1], offset: 3729002496>>
    %subview_317 = memref.subview %arg0[3774091264] [16777216] [1] : memref<6755192832xf32> to memref<16777216xf32, strided<[1], offset: 3774091264>>
    %expand_shape_318 = memref.expand_shape %subview_317 [[0, 1]] : memref<16777216xf32, strided<[1], offset: 3774091264>> into memref<4096x4096xf32, strided<[4096, 1], offset: 3774091264>>
    %subview_319 = memref.subview %arg0[3790868480] [16777216] [1] : memref<6755192832xf32> to memref<16777216xf32, strided<[1], offset: 3790868480>>
    %expand_shape_320 = memref.expand_shape %subview_319 [[0, 1]] : memref<16777216xf32, strided<[1], offset: 3790868480>> into memref<4096x4096xf32, strided<[4096, 1], offset: 3790868480>>
    %subview_321 = memref.subview %arg0[3807645696] [16777216] [1] : memref<6755192832xf32> to memref<16777216xf32, strided<[1], offset: 3807645696>>
    %expand_shape_322 = memref.expand_shape %subview_321 [[0, 1]] : memref<16777216xf32, strided<[1], offset: 3807645696>> into memref<4096x4096xf32, strided<[4096, 1], offset: 3807645696>>
    %subview_323 = memref.subview %arg0[3824422912] [16777216] [1] : memref<6755192832xf32> to memref<16777216xf32, strided<[1], offset: 3824422912>>
    %expand_shape_324 = memref.expand_shape %subview_323 [[0, 1]] : memref<16777216xf32, strided<[1], offset: 3824422912>> into memref<4096x4096xf32, strided<[4096, 1], offset: 3824422912>>
    %subview_325 = memref.subview %arg0[3841200128] [45088768] [1] : memref<6755192832xf32> to memref<45088768xf32, strided<[1], offset: 3841200128>>
    %expand_shape_326 = memref.expand_shape %subview_325 [[0, 1]] : memref<45088768xf32, strided<[1], offset: 3841200128>> into memref<11008x4096xf32, strided<[4096, 1], offset: 3841200128>>
    %subview_327 = memref.subview %arg0[3886288896] [45088768] [1] : memref<6755192832xf32> to memref<45088768xf32, strided<[1], offset: 3886288896>>
    %expand_shape_328 = memref.expand_shape %subview_327 [[0, 1]] : memref<45088768xf32, strided<[1], offset: 3886288896>> into memref<11008x4096xf32, strided<[4096, 1], offset: 3886288896>>
    %subview_329 = memref.subview %arg0[3931377664] [45088768] [1] : memref<6755192832xf32> to memref<45088768xf32, strided<[1], offset: 3931377664>>
    %expand_shape_330 = memref.expand_shape %subview_329 [[0, 1]] : memref<45088768xf32, strided<[1], offset: 3931377664>> into memref<4096x11008xf32, strided<[11008, 1], offset: 3931377664>>
    %subview_331 = memref.subview %arg0[3976466432] [16777216] [1] : memref<6755192832xf32> to memref<16777216xf32, strided<[1], offset: 3976466432>>
    %expand_shape_332 = memref.expand_shape %subview_331 [[0, 1]] : memref<16777216xf32, strided<[1], offset: 3976466432>> into memref<4096x4096xf32, strided<[4096, 1], offset: 3976466432>>
    %subview_333 = memref.subview %arg0[3993243648] [16777216] [1] : memref<6755192832xf32> to memref<16777216xf32, strided<[1], offset: 3993243648>>
    %expand_shape_334 = memref.expand_shape %subview_333 [[0, 1]] : memref<16777216xf32, strided<[1], offset: 3993243648>> into memref<4096x4096xf32, strided<[4096, 1], offset: 3993243648>>
    %subview_335 = memref.subview %arg0[4010020864] [16777216] [1] : memref<6755192832xf32> to memref<16777216xf32, strided<[1], offset: 4010020864>>
    %expand_shape_336 = memref.expand_shape %subview_335 [[0, 1]] : memref<16777216xf32, strided<[1], offset: 4010020864>> into memref<4096x4096xf32, strided<[4096, 1], offset: 4010020864>>
    %subview_337 = memref.subview %arg0[4026798080] [16777216] [1] : memref<6755192832xf32> to memref<16777216xf32, strided<[1], offset: 4026798080>>
    %expand_shape_338 = memref.expand_shape %subview_337 [[0, 1]] : memref<16777216xf32, strided<[1], offset: 4026798080>> into memref<4096x4096xf32, strided<[4096, 1], offset: 4026798080>>
    %subview_339 = memref.subview %arg0[4043575296] [45088768] [1] : memref<6755192832xf32> to memref<45088768xf32, strided<[1], offset: 4043575296>>
    %expand_shape_340 = memref.expand_shape %subview_339 [[0, 1]] : memref<45088768xf32, strided<[1], offset: 4043575296>> into memref<11008x4096xf32, strided<[4096, 1], offset: 4043575296>>
    %subview_341 = memref.subview %arg0[4088664064] [45088768] [1] : memref<6755192832xf32> to memref<45088768xf32, strided<[1], offset: 4088664064>>
    %expand_shape_342 = memref.expand_shape %subview_341 [[0, 1]] : memref<45088768xf32, strided<[1], offset: 4088664064>> into memref<11008x4096xf32, strided<[4096, 1], offset: 4088664064>>
    %subview_343 = memref.subview %arg0[4133752832] [45088768] [1] : memref<6755192832xf32> to memref<45088768xf32, strided<[1], offset: 4133752832>>
    %expand_shape_344 = memref.expand_shape %subview_343 [[0, 1]] : memref<45088768xf32, strided<[1], offset: 4133752832>> into memref<4096x11008xf32, strided<[11008, 1], offset: 4133752832>>
    %subview_345 = memref.subview %arg0[4178841600] [16777216] [1] : memref<6755192832xf32> to memref<16777216xf32, strided<[1], offset: 4178841600>>
    %expand_shape_346 = memref.expand_shape %subview_345 [[0, 1]] : memref<16777216xf32, strided<[1], offset: 4178841600>> into memref<4096x4096xf32, strided<[4096, 1], offset: 4178841600>>
    %subview_347 = memref.subview %arg0[4195618816] [16777216] [1] : memref<6755192832xf32> to memref<16777216xf32, strided<[1], offset: 4195618816>>
    %expand_shape_348 = memref.expand_shape %subview_347 [[0, 1]] : memref<16777216xf32, strided<[1], offset: 4195618816>> into memref<4096x4096xf32, strided<[4096, 1], offset: 4195618816>>
    %subview_349 = memref.subview %arg0[4212396032] [16777216] [1] : memref<6755192832xf32> to memref<16777216xf32, strided<[1], offset: 4212396032>>
    %expand_shape_350 = memref.expand_shape %subview_349 [[0, 1]] : memref<16777216xf32, strided<[1], offset: 4212396032>> into memref<4096x4096xf32, strided<[4096, 1], offset: 4212396032>>
    %subview_351 = memref.subview %arg0[4229173248] [16777216] [1] : memref<6755192832xf32> to memref<16777216xf32, strided<[1], offset: 4229173248>>
    %expand_shape_352 = memref.expand_shape %subview_351 [[0, 1]] : memref<16777216xf32, strided<[1], offset: 4229173248>> into memref<4096x4096xf32, strided<[4096, 1], offset: 4229173248>>
    %subview_353 = memref.subview %arg0[4245950464] [45088768] [1] : memref<6755192832xf32> to memref<45088768xf32, strided<[1], offset: 4245950464>>
    %expand_shape_354 = memref.expand_shape %subview_353 [[0, 1]] : memref<45088768xf32, strided<[1], offset: 4245950464>> into memref<11008x4096xf32, strided<[4096, 1], offset: 4245950464>>
    %subview_355 = memref.subview %arg0[4291039232] [45088768] [1] : memref<6755192832xf32> to memref<45088768xf32, strided<[1], offset: 4291039232>>
    %expand_shape_356 = memref.expand_shape %subview_355 [[0, 1]] : memref<45088768xf32, strided<[1], offset: 4291039232>> into memref<11008x4096xf32, strided<[4096, 1], offset: 4291039232>>
    %subview_357 = memref.subview %arg0[4336128000] [45088768] [1] : memref<6755192832xf32> to memref<45088768xf32, strided<[1], offset: 4336128000>>
    %expand_shape_358 = memref.expand_shape %subview_357 [[0, 1]] : memref<45088768xf32, strided<[1], offset: 4336128000>> into memref<4096x11008xf32, strided<[11008, 1], offset: 4336128000>>
    %subview_359 = memref.subview %arg0[4381216768] [16777216] [1] : memref<6755192832xf32> to memref<16777216xf32, strided<[1], offset: 4381216768>>
    %expand_shape_360 = memref.expand_shape %subview_359 [[0, 1]] : memref<16777216xf32, strided<[1], offset: 4381216768>> into memref<4096x4096xf32, strided<[4096, 1], offset: 4381216768>>
    %subview_361 = memref.subview %arg0[4397993984] [16777216] [1] : memref<6755192832xf32> to memref<16777216xf32, strided<[1], offset: 4397993984>>
    %expand_shape_362 = memref.expand_shape %subview_361 [[0, 1]] : memref<16777216xf32, strided<[1], offset: 4397993984>> into memref<4096x4096xf32, strided<[4096, 1], offset: 4397993984>>
    %subview_363 = memref.subview %arg0[4414771200] [16777216] [1] : memref<6755192832xf32> to memref<16777216xf32, strided<[1], offset: 4414771200>>
    %expand_shape_364 = memref.expand_shape %subview_363 [[0, 1]] : memref<16777216xf32, strided<[1], offset: 4414771200>> into memref<4096x4096xf32, strided<[4096, 1], offset: 4414771200>>
    %subview_365 = memref.subview %arg0[4431548416] [16777216] [1] : memref<6755192832xf32> to memref<16777216xf32, strided<[1], offset: 4431548416>>
    %expand_shape_366 = memref.expand_shape %subview_365 [[0, 1]] : memref<16777216xf32, strided<[1], offset: 4431548416>> into memref<4096x4096xf32, strided<[4096, 1], offset: 4431548416>>
    %subview_367 = memref.subview %arg0[4448325632] [45088768] [1] : memref<6755192832xf32> to memref<45088768xf32, strided<[1], offset: 4448325632>>
    %expand_shape_368 = memref.expand_shape %subview_367 [[0, 1]] : memref<45088768xf32, strided<[1], offset: 4448325632>> into memref<11008x4096xf32, strided<[4096, 1], offset: 4448325632>>
    %subview_369 = memref.subview %arg0[4493414400] [45088768] [1] : memref<6755192832xf32> to memref<45088768xf32, strided<[1], offset: 4493414400>>
    %expand_shape_370 = memref.expand_shape %subview_369 [[0, 1]] : memref<45088768xf32, strided<[1], offset: 4493414400>> into memref<11008x4096xf32, strided<[4096, 1], offset: 4493414400>>
    %subview_371 = memref.subview %arg0[4538503168] [45088768] [1] : memref<6755192832xf32> to memref<45088768xf32, strided<[1], offset: 4538503168>>
    %expand_shape_372 = memref.expand_shape %subview_371 [[0, 1]] : memref<45088768xf32, strided<[1], offset: 4538503168>> into memref<4096x11008xf32, strided<[11008, 1], offset: 4538503168>>
    %subview_373 = memref.subview %arg0[4583591936] [16777216] [1] : memref<6755192832xf32> to memref<16777216xf32, strided<[1], offset: 4583591936>>
    %expand_shape_374 = memref.expand_shape %subview_373 [[0, 1]] : memref<16777216xf32, strided<[1], offset: 4583591936>> into memref<4096x4096xf32, strided<[4096, 1], offset: 4583591936>>
    %subview_375 = memref.subview %arg0[4600369152] [16777216] [1] : memref<6755192832xf32> to memref<16777216xf32, strided<[1], offset: 4600369152>>
    %expand_shape_376 = memref.expand_shape %subview_375 [[0, 1]] : memref<16777216xf32, strided<[1], offset: 4600369152>> into memref<4096x4096xf32, strided<[4096, 1], offset: 4600369152>>
    %subview_377 = memref.subview %arg0[4617146368] [16777216] [1] : memref<6755192832xf32> to memref<16777216xf32, strided<[1], offset: 4617146368>>
    %expand_shape_378 = memref.expand_shape %subview_377 [[0, 1]] : memref<16777216xf32, strided<[1], offset: 4617146368>> into memref<4096x4096xf32, strided<[4096, 1], offset: 4617146368>>
    %subview_379 = memref.subview %arg0[4633923584] [16777216] [1] : memref<6755192832xf32> to memref<16777216xf32, strided<[1], offset: 4633923584>>
    %expand_shape_380 = memref.expand_shape %subview_379 [[0, 1]] : memref<16777216xf32, strided<[1], offset: 4633923584>> into memref<4096x4096xf32, strided<[4096, 1], offset: 4633923584>>
    %subview_381 = memref.subview %arg0[4650700800] [45088768] [1] : memref<6755192832xf32> to memref<45088768xf32, strided<[1], offset: 4650700800>>
    %expand_shape_382 = memref.expand_shape %subview_381 [[0, 1]] : memref<45088768xf32, strided<[1], offset: 4650700800>> into memref<11008x4096xf32, strided<[4096, 1], offset: 4650700800>>
    %subview_383 = memref.subview %arg0[4695789568] [45088768] [1] : memref<6755192832xf32> to memref<45088768xf32, strided<[1], offset: 4695789568>>
    %expand_shape_384 = memref.expand_shape %subview_383 [[0, 1]] : memref<45088768xf32, strided<[1], offset: 4695789568>> into memref<11008x4096xf32, strided<[4096, 1], offset: 4695789568>>
    %subview_385 = memref.subview %arg0[4740878336] [45088768] [1] : memref<6755192832xf32> to memref<45088768xf32, strided<[1], offset: 4740878336>>
    %expand_shape_386 = memref.expand_shape %subview_385 [[0, 1]] : memref<45088768xf32, strided<[1], offset: 4740878336>> into memref<4096x11008xf32, strided<[11008, 1], offset: 4740878336>>
    %subview_387 = memref.subview %arg0[4785967104] [16777216] [1] : memref<6755192832xf32> to memref<16777216xf32, strided<[1], offset: 4785967104>>
    %expand_shape_388 = memref.expand_shape %subview_387 [[0, 1]] : memref<16777216xf32, strided<[1], offset: 4785967104>> into memref<4096x4096xf32, strided<[4096, 1], offset: 4785967104>>
    %subview_389 = memref.subview %arg0[4802744320] [16777216] [1] : memref<6755192832xf32> to memref<16777216xf32, strided<[1], offset: 4802744320>>
    %expand_shape_390 = memref.expand_shape %subview_389 [[0, 1]] : memref<16777216xf32, strided<[1], offset: 4802744320>> into memref<4096x4096xf32, strided<[4096, 1], offset: 4802744320>>
    %subview_391 = memref.subview %arg0[4819521536] [16777216] [1] : memref<6755192832xf32> to memref<16777216xf32, strided<[1], offset: 4819521536>>
    %expand_shape_392 = memref.expand_shape %subview_391 [[0, 1]] : memref<16777216xf32, strided<[1], offset: 4819521536>> into memref<4096x4096xf32, strided<[4096, 1], offset: 4819521536>>
    %subview_393 = memref.subview %arg0[4836298752] [16777216] [1] : memref<6755192832xf32> to memref<16777216xf32, strided<[1], offset: 4836298752>>
    %expand_shape_394 = memref.expand_shape %subview_393 [[0, 1]] : memref<16777216xf32, strided<[1], offset: 4836298752>> into memref<4096x4096xf32, strided<[4096, 1], offset: 4836298752>>
    %subview_395 = memref.subview %arg0[4853075968] [45088768] [1] : memref<6755192832xf32> to memref<45088768xf32, strided<[1], offset: 4853075968>>
    %expand_shape_396 = memref.expand_shape %subview_395 [[0, 1]] : memref<45088768xf32, strided<[1], offset: 4853075968>> into memref<11008x4096xf32, strided<[4096, 1], offset: 4853075968>>
    %subview_397 = memref.subview %arg0[4898164736] [45088768] [1] : memref<6755192832xf32> to memref<45088768xf32, strided<[1], offset: 4898164736>>
    %expand_shape_398 = memref.expand_shape %subview_397 [[0, 1]] : memref<45088768xf32, strided<[1], offset: 4898164736>> into memref<11008x4096xf32, strided<[4096, 1], offset: 4898164736>>
    %subview_399 = memref.subview %arg0[4943253504] [45088768] [1] : memref<6755192832xf32> to memref<45088768xf32, strided<[1], offset: 4943253504>>
    %expand_shape_400 = memref.expand_shape %subview_399 [[0, 1]] : memref<45088768xf32, strided<[1], offset: 4943253504>> into memref<4096x11008xf32, strided<[11008, 1], offset: 4943253504>>
    %subview_401 = memref.subview %arg0[4988342272] [16777216] [1] : memref<6755192832xf32> to memref<16777216xf32, strided<[1], offset: 4988342272>>
    %expand_shape_402 = memref.expand_shape %subview_401 [[0, 1]] : memref<16777216xf32, strided<[1], offset: 4988342272>> into memref<4096x4096xf32, strided<[4096, 1], offset: 4988342272>>
    %subview_403 = memref.subview %arg0[5005119488] [16777216] [1] : memref<6755192832xf32> to memref<16777216xf32, strided<[1], offset: 5005119488>>
    %expand_shape_404 = memref.expand_shape %subview_403 [[0, 1]] : memref<16777216xf32, strided<[1], offset: 5005119488>> into memref<4096x4096xf32, strided<[4096, 1], offset: 5005119488>>
    %subview_405 = memref.subview %arg0[5021896704] [16777216] [1] : memref<6755192832xf32> to memref<16777216xf32, strided<[1], offset: 5021896704>>
    %expand_shape_406 = memref.expand_shape %subview_405 [[0, 1]] : memref<16777216xf32, strided<[1], offset: 5021896704>> into memref<4096x4096xf32, strided<[4096, 1], offset: 5021896704>>
    %subview_407 = memref.subview %arg0[5038673920] [16777216] [1] : memref<6755192832xf32> to memref<16777216xf32, strided<[1], offset: 5038673920>>
    %expand_shape_408 = memref.expand_shape %subview_407 [[0, 1]] : memref<16777216xf32, strided<[1], offset: 5038673920>> into memref<4096x4096xf32, strided<[4096, 1], offset: 5038673920>>
    %subview_409 = memref.subview %arg0[5055451136] [45088768] [1] : memref<6755192832xf32> to memref<45088768xf32, strided<[1], offset: 5055451136>>
    %expand_shape_410 = memref.expand_shape %subview_409 [[0, 1]] : memref<45088768xf32, strided<[1], offset: 5055451136>> into memref<11008x4096xf32, strided<[4096, 1], offset: 5055451136>>
    %subview_411 = memref.subview %arg0[5100539904] [45088768] [1] : memref<6755192832xf32> to memref<45088768xf32, strided<[1], offset: 5100539904>>
    %expand_shape_412 = memref.expand_shape %subview_411 [[0, 1]] : memref<45088768xf32, strided<[1], offset: 5100539904>> into memref<11008x4096xf32, strided<[4096, 1], offset: 5100539904>>
    %subview_413 = memref.subview %arg0[5145628672] [45088768] [1] : memref<6755192832xf32> to memref<45088768xf32, strided<[1], offset: 5145628672>>
    %expand_shape_414 = memref.expand_shape %subview_413 [[0, 1]] : memref<45088768xf32, strided<[1], offset: 5145628672>> into memref<4096x11008xf32, strided<[11008, 1], offset: 5145628672>>
    %subview_415 = memref.subview %arg0[5190717440] [16777216] [1] : memref<6755192832xf32> to memref<16777216xf32, strided<[1], offset: 5190717440>>
    %expand_shape_416 = memref.expand_shape %subview_415 [[0, 1]] : memref<16777216xf32, strided<[1], offset: 5190717440>> into memref<4096x4096xf32, strided<[4096, 1], offset: 5190717440>>
    %subview_417 = memref.subview %arg0[5207494656] [16777216] [1] : memref<6755192832xf32> to memref<16777216xf32, strided<[1], offset: 5207494656>>
    %expand_shape_418 = memref.expand_shape %subview_417 [[0, 1]] : memref<16777216xf32, strided<[1], offset: 5207494656>> into memref<4096x4096xf32, strided<[4096, 1], offset: 5207494656>>
    %subview_419 = memref.subview %arg0[5224271872] [16777216] [1] : memref<6755192832xf32> to memref<16777216xf32, strided<[1], offset: 5224271872>>
    %expand_shape_420 = memref.expand_shape %subview_419 [[0, 1]] : memref<16777216xf32, strided<[1], offset: 5224271872>> into memref<4096x4096xf32, strided<[4096, 1], offset: 5224271872>>
    %subview_421 = memref.subview %arg0[5241049088] [16777216] [1] : memref<6755192832xf32> to memref<16777216xf32, strided<[1], offset: 5241049088>>
    %expand_shape_422 = memref.expand_shape %subview_421 [[0, 1]] : memref<16777216xf32, strided<[1], offset: 5241049088>> into memref<4096x4096xf32, strided<[4096, 1], offset: 5241049088>>
    %subview_423 = memref.subview %arg0[5257826304] [45088768] [1] : memref<6755192832xf32> to memref<45088768xf32, strided<[1], offset: 5257826304>>
    %expand_shape_424 = memref.expand_shape %subview_423 [[0, 1]] : memref<45088768xf32, strided<[1], offset: 5257826304>> into memref<11008x4096xf32, strided<[4096, 1], offset: 5257826304>>
    %subview_425 = memref.subview %arg0[5302915072] [45088768] [1] : memref<6755192832xf32> to memref<45088768xf32, strided<[1], offset: 5302915072>>
    %expand_shape_426 = memref.expand_shape %subview_425 [[0, 1]] : memref<45088768xf32, strided<[1], offset: 5302915072>> into memref<11008x4096xf32, strided<[4096, 1], offset: 5302915072>>
    %subview_427 = memref.subview %arg0[5348003840] [45088768] [1] : memref<6755192832xf32> to memref<45088768xf32, strided<[1], offset: 5348003840>>
    %expand_shape_428 = memref.expand_shape %subview_427 [[0, 1]] : memref<45088768xf32, strided<[1], offset: 5348003840>> into memref<4096x11008xf32, strided<[11008, 1], offset: 5348003840>>
    %subview_429 = memref.subview %arg0[5393092608] [16777216] [1] : memref<6755192832xf32> to memref<16777216xf32, strided<[1], offset: 5393092608>>
    %expand_shape_430 = memref.expand_shape %subview_429 [[0, 1]] : memref<16777216xf32, strided<[1], offset: 5393092608>> into memref<4096x4096xf32, strided<[4096, 1], offset: 5393092608>>
    %subview_431 = memref.subview %arg0[5409869824] [16777216] [1] : memref<6755192832xf32> to memref<16777216xf32, strided<[1], offset: 5409869824>>
    %expand_shape_432 = memref.expand_shape %subview_431 [[0, 1]] : memref<16777216xf32, strided<[1], offset: 5409869824>> into memref<4096x4096xf32, strided<[4096, 1], offset: 5409869824>>
    %subview_433 = memref.subview %arg0[5426647040] [16777216] [1] : memref<6755192832xf32> to memref<16777216xf32, strided<[1], offset: 5426647040>>
    %expand_shape_434 = memref.expand_shape %subview_433 [[0, 1]] : memref<16777216xf32, strided<[1], offset: 5426647040>> into memref<4096x4096xf32, strided<[4096, 1], offset: 5426647040>>
    %subview_435 = memref.subview %arg0[5443424256] [16777216] [1] : memref<6755192832xf32> to memref<16777216xf32, strided<[1], offset: 5443424256>>
    %expand_shape_436 = memref.expand_shape %subview_435 [[0, 1]] : memref<16777216xf32, strided<[1], offset: 5443424256>> into memref<4096x4096xf32, strided<[4096, 1], offset: 5443424256>>
    %subview_437 = memref.subview %arg0[5460201472] [45088768] [1] : memref<6755192832xf32> to memref<45088768xf32, strided<[1], offset: 5460201472>>
    %expand_shape_438 = memref.expand_shape %subview_437 [[0, 1]] : memref<45088768xf32, strided<[1], offset: 5460201472>> into memref<11008x4096xf32, strided<[4096, 1], offset: 5460201472>>
    %subview_439 = memref.subview %arg0[5505290240] [45088768] [1] : memref<6755192832xf32> to memref<45088768xf32, strided<[1], offset: 5505290240>>
    %expand_shape_440 = memref.expand_shape %subview_439 [[0, 1]] : memref<45088768xf32, strided<[1], offset: 5505290240>> into memref<11008x4096xf32, strided<[4096, 1], offset: 5505290240>>
    %subview_441 = memref.subview %arg0[5550379008] [45088768] [1] : memref<6755192832xf32> to memref<45088768xf32, strided<[1], offset: 5550379008>>
    %expand_shape_442 = memref.expand_shape %subview_441 [[0, 1]] : memref<45088768xf32, strided<[1], offset: 5550379008>> into memref<4096x11008xf32, strided<[11008, 1], offset: 5550379008>>
    %subview_443 = memref.subview %arg0[5595467776] [16777216] [1] : memref<6755192832xf32> to memref<16777216xf32, strided<[1], offset: 5595467776>>
    %expand_shape_444 = memref.expand_shape %subview_443 [[0, 1]] : memref<16777216xf32, strided<[1], offset: 5595467776>> into memref<4096x4096xf32, strided<[4096, 1], offset: 5595467776>>
    %subview_445 = memref.subview %arg0[5612244992] [16777216] [1] : memref<6755192832xf32> to memref<16777216xf32, strided<[1], offset: 5612244992>>
    %expand_shape_446 = memref.expand_shape %subview_445 [[0, 1]] : memref<16777216xf32, strided<[1], offset: 5612244992>> into memref<4096x4096xf32, strided<[4096, 1], offset: 5612244992>>
    %subview_447 = memref.subview %arg0[5629022208] [16777216] [1] : memref<6755192832xf32> to memref<16777216xf32, strided<[1], offset: 5629022208>>
    %expand_shape_448 = memref.expand_shape %subview_447 [[0, 1]] : memref<16777216xf32, strided<[1], offset: 5629022208>> into memref<4096x4096xf32, strided<[4096, 1], offset: 5629022208>>
    %subview_449 = memref.subview %arg0[5645799424] [16777216] [1] : memref<6755192832xf32> to memref<16777216xf32, strided<[1], offset: 5645799424>>
    %expand_shape_450 = memref.expand_shape %subview_449 [[0, 1]] : memref<16777216xf32, strided<[1], offset: 5645799424>> into memref<4096x4096xf32, strided<[4096, 1], offset: 5645799424>>
    %subview_451 = memref.subview %arg0[5662576640] [45088768] [1] : memref<6755192832xf32> to memref<45088768xf32, strided<[1], offset: 5662576640>>
    %expand_shape_452 = memref.expand_shape %subview_451 [[0, 1]] : memref<45088768xf32, strided<[1], offset: 5662576640>> into memref<11008x4096xf32, strided<[4096, 1], offset: 5662576640>>
    %subview_453 = memref.subview %arg0[5707665408] [45088768] [1] : memref<6755192832xf32> to memref<45088768xf32, strided<[1], offset: 5707665408>>
    %expand_shape_454 = memref.expand_shape %subview_453 [[0, 1]] : memref<45088768xf32, strided<[1], offset: 5707665408>> into memref<11008x4096xf32, strided<[4096, 1], offset: 5707665408>>
    %subview_455 = memref.subview %arg0[5752754176] [45088768] [1] : memref<6755192832xf32> to memref<45088768xf32, strided<[1], offset: 5752754176>>
    %expand_shape_456 = memref.expand_shape %subview_455 [[0, 1]] : memref<45088768xf32, strided<[1], offset: 5752754176>> into memref<4096x11008xf32, strided<[11008, 1], offset: 5752754176>>
    %subview_457 = memref.subview %arg0[5797842944] [16777216] [1] : memref<6755192832xf32> to memref<16777216xf32, strided<[1], offset: 5797842944>>
    %expand_shape_458 = memref.expand_shape %subview_457 [[0, 1]] : memref<16777216xf32, strided<[1], offset: 5797842944>> into memref<4096x4096xf32, strided<[4096, 1], offset: 5797842944>>
    %subview_459 = memref.subview %arg0[5814620160] [16777216] [1] : memref<6755192832xf32> to memref<16777216xf32, strided<[1], offset: 5814620160>>
    %expand_shape_460 = memref.expand_shape %subview_459 [[0, 1]] : memref<16777216xf32, strided<[1], offset: 5814620160>> into memref<4096x4096xf32, strided<[4096, 1], offset: 5814620160>>
    %subview_461 = memref.subview %arg0[5831397376] [16777216] [1] : memref<6755192832xf32> to memref<16777216xf32, strided<[1], offset: 5831397376>>
    %expand_shape_462 = memref.expand_shape %subview_461 [[0, 1]] : memref<16777216xf32, strided<[1], offset: 5831397376>> into memref<4096x4096xf32, strided<[4096, 1], offset: 5831397376>>
    %subview_463 = memref.subview %arg0[5848174592] [16777216] [1] : memref<6755192832xf32> to memref<16777216xf32, strided<[1], offset: 5848174592>>
    %expand_shape_464 = memref.expand_shape %subview_463 [[0, 1]] : memref<16777216xf32, strided<[1], offset: 5848174592>> into memref<4096x4096xf32, strided<[4096, 1], offset: 5848174592>>
    %subview_465 = memref.subview %arg0[5864951808] [45088768] [1] : memref<6755192832xf32> to memref<45088768xf32, strided<[1], offset: 5864951808>>
    %expand_shape_466 = memref.expand_shape %subview_465 [[0, 1]] : memref<45088768xf32, strided<[1], offset: 5864951808>> into memref<11008x4096xf32, strided<[4096, 1], offset: 5864951808>>
    %subview_467 = memref.subview %arg0[5910040576] [45088768] [1] : memref<6755192832xf32> to memref<45088768xf32, strided<[1], offset: 5910040576>>
    %expand_shape_468 = memref.expand_shape %subview_467 [[0, 1]] : memref<45088768xf32, strided<[1], offset: 5910040576>> into memref<11008x4096xf32, strided<[4096, 1], offset: 5910040576>>
    %subview_469 = memref.subview %arg0[5955129344] [45088768] [1] : memref<6755192832xf32> to memref<45088768xf32, strided<[1], offset: 5955129344>>
    %expand_shape_470 = memref.expand_shape %subview_469 [[0, 1]] : memref<45088768xf32, strided<[1], offset: 5955129344>> into memref<4096x11008xf32, strided<[11008, 1], offset: 5955129344>>
    %subview_471 = memref.subview %arg0[6000218112] [16777216] [1] : memref<6755192832xf32> to memref<16777216xf32, strided<[1], offset: 6000218112>>
    %expand_shape_472 = memref.expand_shape %subview_471 [[0, 1]] : memref<16777216xf32, strided<[1], offset: 6000218112>> into memref<4096x4096xf32, strided<[4096, 1], offset: 6000218112>>
    %subview_473 = memref.subview %arg0[6016995328] [16777216] [1] : memref<6755192832xf32> to memref<16777216xf32, strided<[1], offset: 6016995328>>
    %expand_shape_474 = memref.expand_shape %subview_473 [[0, 1]] : memref<16777216xf32, strided<[1], offset: 6016995328>> into memref<4096x4096xf32, strided<[4096, 1], offset: 6016995328>>
    %subview_475 = memref.subview %arg0[6033772544] [16777216] [1] : memref<6755192832xf32> to memref<16777216xf32, strided<[1], offset: 6033772544>>
    %expand_shape_476 = memref.expand_shape %subview_475 [[0, 1]] : memref<16777216xf32, strided<[1], offset: 6033772544>> into memref<4096x4096xf32, strided<[4096, 1], offset: 6033772544>>
    %subview_477 = memref.subview %arg0[6050549760] [16777216] [1] : memref<6755192832xf32> to memref<16777216xf32, strided<[1], offset: 6050549760>>
    %expand_shape_478 = memref.expand_shape %subview_477 [[0, 1]] : memref<16777216xf32, strided<[1], offset: 6050549760>> into memref<4096x4096xf32, strided<[4096, 1], offset: 6050549760>>
    %subview_479 = memref.subview %arg0[6067326976] [45088768] [1] : memref<6755192832xf32> to memref<45088768xf32, strided<[1], offset: 6067326976>>
    %expand_shape_480 = memref.expand_shape %subview_479 [[0, 1]] : memref<45088768xf32, strided<[1], offset: 6067326976>> into memref<11008x4096xf32, strided<[4096, 1], offset: 6067326976>>
    %subview_481 = memref.subview %arg0[6112415744] [45088768] [1] : memref<6755192832xf32> to memref<45088768xf32, strided<[1], offset: 6112415744>>
    %expand_shape_482 = memref.expand_shape %subview_481 [[0, 1]] : memref<45088768xf32, strided<[1], offset: 6112415744>> into memref<11008x4096xf32, strided<[4096, 1], offset: 6112415744>>
    %subview_483 = memref.subview %arg0[6157504512] [45088768] [1] : memref<6755192832xf32> to memref<45088768xf32, strided<[1], offset: 6157504512>>
    %expand_shape_484 = memref.expand_shape %subview_483 [[0, 1]] : memref<45088768xf32, strided<[1], offset: 6157504512>> into memref<4096x11008xf32, strided<[11008, 1], offset: 6157504512>>
    %subview_485 = memref.subview %arg0[6202593280] [16777216] [1] : memref<6755192832xf32> to memref<16777216xf32, strided<[1], offset: 6202593280>>
    %expand_shape_486 = memref.expand_shape %subview_485 [[0, 1]] : memref<16777216xf32, strided<[1], offset: 6202593280>> into memref<4096x4096xf32, strided<[4096, 1], offset: 6202593280>>
    %subview_487 = memref.subview %arg0[6219370496] [16777216] [1] : memref<6755192832xf32> to memref<16777216xf32, strided<[1], offset: 6219370496>>
    %expand_shape_488 = memref.expand_shape %subview_487 [[0, 1]] : memref<16777216xf32, strided<[1], offset: 6219370496>> into memref<4096x4096xf32, strided<[4096, 1], offset: 6219370496>>
    %subview_489 = memref.subview %arg0[6236147712] [16777216] [1] : memref<6755192832xf32> to memref<16777216xf32, strided<[1], offset: 6236147712>>
    %expand_shape_490 = memref.expand_shape %subview_489 [[0, 1]] : memref<16777216xf32, strided<[1], offset: 6236147712>> into memref<4096x4096xf32, strided<[4096, 1], offset: 6236147712>>
    %subview_491 = memref.subview %arg0[6252924928] [16777216] [1] : memref<6755192832xf32> to memref<16777216xf32, strided<[1], offset: 6252924928>>
    %expand_shape_492 = memref.expand_shape %subview_491 [[0, 1]] : memref<16777216xf32, strided<[1], offset: 6252924928>> into memref<4096x4096xf32, strided<[4096, 1], offset: 6252924928>>
    %subview_493 = memref.subview %arg0[6269702144] [45088768] [1] : memref<6755192832xf32> to memref<45088768xf32, strided<[1], offset: 6269702144>>
    %expand_shape_494 = memref.expand_shape %subview_493 [[0, 1]] : memref<45088768xf32, strided<[1], offset: 6269702144>> into memref<11008x4096xf32, strided<[4096, 1], offset: 6269702144>>
    %subview_495 = memref.subview %arg0[6314790912] [45088768] [1] : memref<6755192832xf32> to memref<45088768xf32, strided<[1], offset: 6314790912>>
    %expand_shape_496 = memref.expand_shape %subview_495 [[0, 1]] : memref<45088768xf32, strided<[1], offset: 6314790912>> into memref<11008x4096xf32, strided<[4096, 1], offset: 6314790912>>
    %subview_497 = memref.subview %arg0[6359879680] [45088768] [1] : memref<6755192832xf32> to memref<45088768xf32, strided<[1], offset: 6359879680>>
    %expand_shape_498 = memref.expand_shape %subview_497 [[0, 1]] : memref<45088768xf32, strided<[1], offset: 6359879680>> into memref<4096x11008xf32, strided<[11008, 1], offset: 6359879680>>
    %subview_499 = memref.subview %arg0[6404968448] [16777216] [1] : memref<6755192832xf32> to memref<16777216xf32, strided<[1], offset: 6404968448>>
    %expand_shape_500 = memref.expand_shape %subview_499 [[0, 1]] : memref<16777216xf32, strided<[1], offset: 6404968448>> into memref<4096x4096xf32, strided<[4096, 1], offset: 6404968448>>
    %subview_501 = memref.subview %arg0[6421745664] [16777216] [1] : memref<6755192832xf32> to memref<16777216xf32, strided<[1], offset: 6421745664>>
    %expand_shape_502 = memref.expand_shape %subview_501 [[0, 1]] : memref<16777216xf32, strided<[1], offset: 6421745664>> into memref<4096x4096xf32, strided<[4096, 1], offset: 6421745664>>
    %subview_503 = memref.subview %arg0[6438522880] [16777216] [1] : memref<6755192832xf32> to memref<16777216xf32, strided<[1], offset: 6438522880>>
    %expand_shape_504 = memref.expand_shape %subview_503 [[0, 1]] : memref<16777216xf32, strided<[1], offset: 6438522880>> into memref<4096x4096xf32, strided<[4096, 1], offset: 6438522880>>
    %subview_505 = memref.subview %arg0[6455300096] [16777216] [1] : memref<6755192832xf32> to memref<16777216xf32, strided<[1], offset: 6455300096>>
    %expand_shape_506 = memref.expand_shape %subview_505 [[0, 1]] : memref<16777216xf32, strided<[1], offset: 6455300096>> into memref<4096x4096xf32, strided<[4096, 1], offset: 6455300096>>
    %subview_507 = memref.subview %arg0[6472077312] [45088768] [1] : memref<6755192832xf32> to memref<45088768xf32, strided<[1], offset: 6472077312>>
    %expand_shape_508 = memref.expand_shape %subview_507 [[0, 1]] : memref<45088768xf32, strided<[1], offset: 6472077312>> into memref<11008x4096xf32, strided<[4096, 1], offset: 6472077312>>
    %subview_509 = memref.subview %arg0[6517166080] [45088768] [1] : memref<6755192832xf32> to memref<45088768xf32, strided<[1], offset: 6517166080>>
    %expand_shape_510 = memref.expand_shape %subview_509 [[0, 1]] : memref<45088768xf32, strided<[1], offset: 6517166080>> into memref<11008x4096xf32, strided<[4096, 1], offset: 6517166080>>
    %subview_511 = memref.subview %arg0[6562254848] [45088768] [1] : memref<6755192832xf32> to memref<45088768xf32, strided<[1], offset: 6562254848>>
    %expand_shape_512 = memref.expand_shape %subview_511 [[0, 1]] : memref<45088768xf32, strided<[1], offset: 6562254848>> into memref<4096x11008xf32, strided<[11008, 1], offset: 6562254848>>
    %subview_513 = memref.subview %arg0[6607343616] [131072000] [1] : memref<6755192832xf32> to memref<131072000xf32, strided<[1], offset: 6607343616>>
    %expand_shape_514 = memref.expand_shape %subview_513 [[0, 1]] : memref<131072000xf32, strided<[1], offset: 6607343616>> into memref<32000x4096xf32, strided<[4096, 1], offset: 6607343616>>
    %subview_515 = memref.subview %arg0[6738415616] [262144] [1] : memref<6755192832xf32> to memref<262144xf32, strided<[1], offset: 6738415616>>
    %expand_shape_516 = memref.expand_shape %subview_515 [[0, 1, 2, 3]] : memref<262144xf32, strided<[1], offset: 6738415616>> into memref<1x1x2048x128xf32, strided<[262144, 262144, 128, 1], offset: 6738415616>>
    %subview_517 = memref.subview %arg0[6738677760] [262144] [1] : memref<6755192832xf32> to memref<262144xf32, strided<[1], offset: 6738677760>>
    %expand_shape_518 = memref.expand_shape %subview_517 [[0, 1, 2, 3]] : memref<262144xf32, strided<[1], offset: 6738677760>> into memref<1x1x2048x128xf32, strided<[262144, 262144, 128, 1], offset: 6738677760>>
    %subview_519 = memref.subview %arg0[6738939904] [262144] [1] : memref<6755192832xf32> to memref<262144xf32, strided<[1], offset: 6738939904>>
    %expand_shape_520 = memref.expand_shape %subview_519 [[0, 1, 2, 3]] : memref<262144xf32, strided<[1], offset: 6738939904>> into memref<1x1x2048x128xf32, strided<[262144, 262144, 128, 1], offset: 6738939904>>
    %subview_521 = memref.subview %arg0[6739202048] [262144] [1] : memref<6755192832xf32> to memref<262144xf32, strided<[1], offset: 6739202048>>
    %expand_shape_522 = memref.expand_shape %subview_521 [[0, 1, 2, 3]] : memref<262144xf32, strided<[1], offset: 6739202048>> into memref<1x1x2048x128xf32, strided<[262144, 262144, 128, 1], offset: 6739202048>>
    %subview_523 = memref.subview %arg0[6739464192] [262144] [1] : memref<6755192832xf32> to memref<262144xf32, strided<[1], offset: 6739464192>>
    %expand_shape_524 = memref.expand_shape %subview_523 [[0, 1, 2, 3]] : memref<262144xf32, strided<[1], offset: 6739464192>> into memref<1x1x2048x128xf32, strided<[262144, 262144, 128, 1], offset: 6739464192>>
    %subview_525 = memref.subview %arg0[6739726336] [262144] [1] : memref<6755192832xf32> to memref<262144xf32, strided<[1], offset: 6739726336>>
    %expand_shape_526 = memref.expand_shape %subview_525 [[0, 1, 2, 3]] : memref<262144xf32, strided<[1], offset: 6739726336>> into memref<1x1x2048x128xf32, strided<[262144, 262144, 128, 1], offset: 6739726336>>
    %subview_527 = memref.subview %arg0[6739988480] [262144] [1] : memref<6755192832xf32> to memref<262144xf32, strided<[1], offset: 6739988480>>
    %expand_shape_528 = memref.expand_shape %subview_527 [[0, 1, 2, 3]] : memref<262144xf32, strided<[1], offset: 6739988480>> into memref<1x1x2048x128xf32, strided<[262144, 262144, 128, 1], offset: 6739988480>>
    %subview_529 = memref.subview %arg0[6740250624] [262144] [1] : memref<6755192832xf32> to memref<262144xf32, strided<[1], offset: 6740250624>>
    %expand_shape_530 = memref.expand_shape %subview_529 [[0, 1, 2, 3]] : memref<262144xf32, strided<[1], offset: 6740250624>> into memref<1x1x2048x128xf32, strided<[262144, 262144, 128, 1], offset: 6740250624>>
    %subview_531 = memref.subview %arg0[6740512768] [262144] [1] : memref<6755192832xf32> to memref<262144xf32, strided<[1], offset: 6740512768>>
    %expand_shape_532 = memref.expand_shape %subview_531 [[0, 1, 2, 3]] : memref<262144xf32, strided<[1], offset: 6740512768>> into memref<1x1x2048x128xf32, strided<[262144, 262144, 128, 1], offset: 6740512768>>
    %subview_533 = memref.subview %arg0[6740774912] [262144] [1] : memref<6755192832xf32> to memref<262144xf32, strided<[1], offset: 6740774912>>
    %expand_shape_534 = memref.expand_shape %subview_533 [[0, 1, 2, 3]] : memref<262144xf32, strided<[1], offset: 6740774912>> into memref<1x1x2048x128xf32, strided<[262144, 262144, 128, 1], offset: 6740774912>>
    %subview_535 = memref.subview %arg0[6741037056] [262144] [1] : memref<6755192832xf32> to memref<262144xf32, strided<[1], offset: 6741037056>>
    %expand_shape_536 = memref.expand_shape %subview_535 [[0, 1, 2, 3]] : memref<262144xf32, strided<[1], offset: 6741037056>> into memref<1x1x2048x128xf32, strided<[262144, 262144, 128, 1], offset: 6741037056>>
    %subview_537 = memref.subview %arg0[6741299200] [262144] [1] : memref<6755192832xf32> to memref<262144xf32, strided<[1], offset: 6741299200>>
    %expand_shape_538 = memref.expand_shape %subview_537 [[0, 1, 2, 3]] : memref<262144xf32, strided<[1], offset: 6741299200>> into memref<1x1x2048x128xf32, strided<[262144, 262144, 128, 1], offset: 6741299200>>
    %subview_539 = memref.subview %arg0[6741561344] [262144] [1] : memref<6755192832xf32> to memref<262144xf32, strided<[1], offset: 6741561344>>
    %expand_shape_540 = memref.expand_shape %subview_539 [[0, 1, 2, 3]] : memref<262144xf32, strided<[1], offset: 6741561344>> into memref<1x1x2048x128xf32, strided<[262144, 262144, 128, 1], offset: 6741561344>>
    %subview_541 = memref.subview %arg0[6741823488] [262144] [1] : memref<6755192832xf32> to memref<262144xf32, strided<[1], offset: 6741823488>>
    %expand_shape_542 = memref.expand_shape %subview_541 [[0, 1, 2, 3]] : memref<262144xf32, strided<[1], offset: 6741823488>> into memref<1x1x2048x128xf32, strided<[262144, 262144, 128, 1], offset: 6741823488>>
    %subview_543 = memref.subview %arg0[6742085632] [262144] [1] : memref<6755192832xf32> to memref<262144xf32, strided<[1], offset: 6742085632>>
    %expand_shape_544 = memref.expand_shape %subview_543 [[0, 1, 2, 3]] : memref<262144xf32, strided<[1], offset: 6742085632>> into memref<1x1x2048x128xf32, strided<[262144, 262144, 128, 1], offset: 6742085632>>
    %subview_545 = memref.subview %arg0[6742347776] [262144] [1] : memref<6755192832xf32> to memref<262144xf32, strided<[1], offset: 6742347776>>
    %expand_shape_546 = memref.expand_shape %subview_545 [[0, 1, 2, 3]] : memref<262144xf32, strided<[1], offset: 6742347776>> into memref<1x1x2048x128xf32, strided<[262144, 262144, 128, 1], offset: 6742347776>>
    %subview_547 = memref.subview %arg0[6742609920] [262144] [1] : memref<6755192832xf32> to memref<262144xf32, strided<[1], offset: 6742609920>>
    %expand_shape_548 = memref.expand_shape %subview_547 [[0, 1, 2, 3]] : memref<262144xf32, strided<[1], offset: 6742609920>> into memref<1x1x2048x128xf32, strided<[262144, 262144, 128, 1], offset: 6742609920>>
    %subview_549 = memref.subview %arg0[6742872064] [262144] [1] : memref<6755192832xf32> to memref<262144xf32, strided<[1], offset: 6742872064>>
    %expand_shape_550 = memref.expand_shape %subview_549 [[0, 1, 2, 3]] : memref<262144xf32, strided<[1], offset: 6742872064>> into memref<1x1x2048x128xf32, strided<[262144, 262144, 128, 1], offset: 6742872064>>
    %subview_551 = memref.subview %arg0[6743134208] [262144] [1] : memref<6755192832xf32> to memref<262144xf32, strided<[1], offset: 6743134208>>
    %expand_shape_552 = memref.expand_shape %subview_551 [[0, 1, 2, 3]] : memref<262144xf32, strided<[1], offset: 6743134208>> into memref<1x1x2048x128xf32, strided<[262144, 262144, 128, 1], offset: 6743134208>>
    %subview_553 = memref.subview %arg0[6743396352] [262144] [1] : memref<6755192832xf32> to memref<262144xf32, strided<[1], offset: 6743396352>>
    %expand_shape_554 = memref.expand_shape %subview_553 [[0, 1, 2, 3]] : memref<262144xf32, strided<[1], offset: 6743396352>> into memref<1x1x2048x128xf32, strided<[262144, 262144, 128, 1], offset: 6743396352>>
    %subview_555 = memref.subview %arg0[6743658496] [262144] [1] : memref<6755192832xf32> to memref<262144xf32, strided<[1], offset: 6743658496>>
    %expand_shape_556 = memref.expand_shape %subview_555 [[0, 1, 2, 3]] : memref<262144xf32, strided<[1], offset: 6743658496>> into memref<1x1x2048x128xf32, strided<[262144, 262144, 128, 1], offset: 6743658496>>
    %subview_557 = memref.subview %arg0[6743920640] [262144] [1] : memref<6755192832xf32> to memref<262144xf32, strided<[1], offset: 6743920640>>
    %expand_shape_558 = memref.expand_shape %subview_557 [[0, 1, 2, 3]] : memref<262144xf32, strided<[1], offset: 6743920640>> into memref<1x1x2048x128xf32, strided<[262144, 262144, 128, 1], offset: 6743920640>>
    %subview_559 = memref.subview %arg0[6744182784] [262144] [1] : memref<6755192832xf32> to memref<262144xf32, strided<[1], offset: 6744182784>>
    %expand_shape_560 = memref.expand_shape %subview_559 [[0, 1, 2, 3]] : memref<262144xf32, strided<[1], offset: 6744182784>> into memref<1x1x2048x128xf32, strided<[262144, 262144, 128, 1], offset: 6744182784>>
    %subview_561 = memref.subview %arg0[6744444928] [262144] [1] : memref<6755192832xf32> to memref<262144xf32, strided<[1], offset: 6744444928>>
    %expand_shape_562 = memref.expand_shape %subview_561 [[0, 1, 2, 3]] : memref<262144xf32, strided<[1], offset: 6744444928>> into memref<1x1x2048x128xf32, strided<[262144, 262144, 128, 1], offset: 6744444928>>
    %subview_563 = memref.subview %arg0[6744707072] [262144] [1] : memref<6755192832xf32> to memref<262144xf32, strided<[1], offset: 6744707072>>
    %expand_shape_564 = memref.expand_shape %subview_563 [[0, 1, 2, 3]] : memref<262144xf32, strided<[1], offset: 6744707072>> into memref<1x1x2048x128xf32, strided<[262144, 262144, 128, 1], offset: 6744707072>>
    %subview_565 = memref.subview %arg0[6744969216] [262144] [1] : memref<6755192832xf32> to memref<262144xf32, strided<[1], offset: 6744969216>>
    %expand_shape_566 = memref.expand_shape %subview_565 [[0, 1, 2, 3]] : memref<262144xf32, strided<[1], offset: 6744969216>> into memref<1x1x2048x128xf32, strided<[262144, 262144, 128, 1], offset: 6744969216>>
    %subview_567 = memref.subview %arg0[6745231360] [262144] [1] : memref<6755192832xf32> to memref<262144xf32, strided<[1], offset: 6745231360>>
    %expand_shape_568 = memref.expand_shape %subview_567 [[0, 1, 2, 3]] : memref<262144xf32, strided<[1], offset: 6745231360>> into memref<1x1x2048x128xf32, strided<[262144, 262144, 128, 1], offset: 6745231360>>
    %subview_569 = memref.subview %arg0[6745493504] [262144] [1] : memref<6755192832xf32> to memref<262144xf32, strided<[1], offset: 6745493504>>
    %expand_shape_570 = memref.expand_shape %subview_569 [[0, 1, 2, 3]] : memref<262144xf32, strided<[1], offset: 6745493504>> into memref<1x1x2048x128xf32, strided<[262144, 262144, 128, 1], offset: 6745493504>>
    %subview_571 = memref.subview %arg0[6745755648] [262144] [1] : memref<6755192832xf32> to memref<262144xf32, strided<[1], offset: 6745755648>>
    %expand_shape_572 = memref.expand_shape %subview_571 [[0, 1, 2, 3]] : memref<262144xf32, strided<[1], offset: 6745755648>> into memref<1x1x2048x128xf32, strided<[262144, 262144, 128, 1], offset: 6745755648>>
    %subview_573 = memref.subview %arg0[6746017792] [262144] [1] : memref<6755192832xf32> to memref<262144xf32, strided<[1], offset: 6746017792>>
    %expand_shape_574 = memref.expand_shape %subview_573 [[0, 1, 2, 3]] : memref<262144xf32, strided<[1], offset: 6746017792>> into memref<1x1x2048x128xf32, strided<[262144, 262144, 128, 1], offset: 6746017792>>
    %subview_575 = memref.subview %arg0[6746279936] [262144] [1] : memref<6755192832xf32> to memref<262144xf32, strided<[1], offset: 6746279936>>
    %expand_shape_576 = memref.expand_shape %subview_575 [[0, 1, 2, 3]] : memref<262144xf32, strided<[1], offset: 6746279936>> into memref<1x1x2048x128xf32, strided<[262144, 262144, 128, 1], offset: 6746279936>>
    %subview_577 = memref.subview %arg0[6746542080] [262144] [1] : memref<6755192832xf32> to memref<262144xf32, strided<[1], offset: 6746542080>>
    %expand_shape_578 = memref.expand_shape %subview_577 [[0, 1, 2, 3]] : memref<262144xf32, strided<[1], offset: 6746542080>> into memref<1x1x2048x128xf32, strided<[262144, 262144, 128, 1], offset: 6746542080>>
    %subview_579 = memref.subview %arg0[6746804224] [262144] [1] : memref<6755192832xf32> to memref<262144xf32, strided<[1], offset: 6746804224>>
    %expand_shape_580 = memref.expand_shape %subview_579 [[0, 1, 2, 3]] : memref<262144xf32, strided<[1], offset: 6746804224>> into memref<1x1x2048x128xf32, strided<[262144, 262144, 128, 1], offset: 6746804224>>
    %subview_581 = memref.subview %arg0[6747066368] [262144] [1] : memref<6755192832xf32> to memref<262144xf32, strided<[1], offset: 6747066368>>
    %expand_shape_582 = memref.expand_shape %subview_581 [[0, 1, 2, 3]] : memref<262144xf32, strided<[1], offset: 6747066368>> into memref<1x1x2048x128xf32, strided<[262144, 262144, 128, 1], offset: 6747066368>>
    %subview_583 = memref.subview %arg0[6747328512] [262144] [1] : memref<6755192832xf32> to memref<262144xf32, strided<[1], offset: 6747328512>>
    %expand_shape_584 = memref.expand_shape %subview_583 [[0, 1, 2, 3]] : memref<262144xf32, strided<[1], offset: 6747328512>> into memref<1x1x2048x128xf32, strided<[262144, 262144, 128, 1], offset: 6747328512>>
    %subview_585 = memref.subview %arg0[6747590656] [262144] [1] : memref<6755192832xf32> to memref<262144xf32, strided<[1], offset: 6747590656>>
    %expand_shape_586 = memref.expand_shape %subview_585 [[0, 1, 2, 3]] : memref<262144xf32, strided<[1], offset: 6747590656>> into memref<1x1x2048x128xf32, strided<[262144, 262144, 128, 1], offset: 6747590656>>
    %subview_587 = memref.subview %arg0[6747852800] [262144] [1] : memref<6755192832xf32> to memref<262144xf32, strided<[1], offset: 6747852800>>
    %expand_shape_588 = memref.expand_shape %subview_587 [[0, 1, 2, 3]] : memref<262144xf32, strided<[1], offset: 6747852800>> into memref<1x1x2048x128xf32, strided<[262144, 262144, 128, 1], offset: 6747852800>>
    %subview_589 = memref.subview %arg0[6748114944] [262144] [1] : memref<6755192832xf32> to memref<262144xf32, strided<[1], offset: 6748114944>>
    %expand_shape_590 = memref.expand_shape %subview_589 [[0, 1, 2, 3]] : memref<262144xf32, strided<[1], offset: 6748114944>> into memref<1x1x2048x128xf32, strided<[262144, 262144, 128, 1], offset: 6748114944>>
    %subview_591 = memref.subview %arg0[6748377088] [262144] [1] : memref<6755192832xf32> to memref<262144xf32, strided<[1], offset: 6748377088>>
    %expand_shape_592 = memref.expand_shape %subview_591 [[0, 1, 2, 3]] : memref<262144xf32, strided<[1], offset: 6748377088>> into memref<1x1x2048x128xf32, strided<[262144, 262144, 128, 1], offset: 6748377088>>
    %subview_593 = memref.subview %arg0[6748639232] [262144] [1] : memref<6755192832xf32> to memref<262144xf32, strided<[1], offset: 6748639232>>
    %expand_shape_594 = memref.expand_shape %subview_593 [[0, 1, 2, 3]] : memref<262144xf32, strided<[1], offset: 6748639232>> into memref<1x1x2048x128xf32, strided<[262144, 262144, 128, 1], offset: 6748639232>>
    %subview_595 = memref.subview %arg0[6748901376] [262144] [1] : memref<6755192832xf32> to memref<262144xf32, strided<[1], offset: 6748901376>>
    %expand_shape_596 = memref.expand_shape %subview_595 [[0, 1, 2, 3]] : memref<262144xf32, strided<[1], offset: 6748901376>> into memref<1x1x2048x128xf32, strided<[262144, 262144, 128, 1], offset: 6748901376>>
    %subview_597 = memref.subview %arg0[6749163520] [262144] [1] : memref<6755192832xf32> to memref<262144xf32, strided<[1], offset: 6749163520>>
    %expand_shape_598 = memref.expand_shape %subview_597 [[0, 1, 2, 3]] : memref<262144xf32, strided<[1], offset: 6749163520>> into memref<1x1x2048x128xf32, strided<[262144, 262144, 128, 1], offset: 6749163520>>
    %subview_599 = memref.subview %arg0[6749425664] [262144] [1] : memref<6755192832xf32> to memref<262144xf32, strided<[1], offset: 6749425664>>
    %expand_shape_600 = memref.expand_shape %subview_599 [[0, 1, 2, 3]] : memref<262144xf32, strided<[1], offset: 6749425664>> into memref<1x1x2048x128xf32, strided<[262144, 262144, 128, 1], offset: 6749425664>>
    %subview_601 = memref.subview %arg0[6749687808] [262144] [1] : memref<6755192832xf32> to memref<262144xf32, strided<[1], offset: 6749687808>>
    %expand_shape_602 = memref.expand_shape %subview_601 [[0, 1, 2, 3]] : memref<262144xf32, strided<[1], offset: 6749687808>> into memref<1x1x2048x128xf32, strided<[262144, 262144, 128, 1], offset: 6749687808>>
    %subview_603 = memref.subview %arg0[6749949952] [262144] [1] : memref<6755192832xf32> to memref<262144xf32, strided<[1], offset: 6749949952>>
    %expand_shape_604 = memref.expand_shape %subview_603 [[0, 1, 2, 3]] : memref<262144xf32, strided<[1], offset: 6749949952>> into memref<1x1x2048x128xf32, strided<[262144, 262144, 128, 1], offset: 6749949952>>
    %subview_605 = memref.subview %arg0[6750212096] [262144] [1] : memref<6755192832xf32> to memref<262144xf32, strided<[1], offset: 6750212096>>
    %expand_shape_606 = memref.expand_shape %subview_605 [[0, 1, 2, 3]] : memref<262144xf32, strided<[1], offset: 6750212096>> into memref<1x1x2048x128xf32, strided<[262144, 262144, 128, 1], offset: 6750212096>>
    %subview_607 = memref.subview %arg0[6750474240] [262144] [1] : memref<6755192832xf32> to memref<262144xf32, strided<[1], offset: 6750474240>>
    %expand_shape_608 = memref.expand_shape %subview_607 [[0, 1, 2, 3]] : memref<262144xf32, strided<[1], offset: 6750474240>> into memref<1x1x2048x128xf32, strided<[262144, 262144, 128, 1], offset: 6750474240>>
    %subview_609 = memref.subview %arg0[6750736384] [262144] [1] : memref<6755192832xf32> to memref<262144xf32, strided<[1], offset: 6750736384>>
    %expand_shape_610 = memref.expand_shape %subview_609 [[0, 1, 2, 3]] : memref<262144xf32, strided<[1], offset: 6750736384>> into memref<1x1x2048x128xf32, strided<[262144, 262144, 128, 1], offset: 6750736384>>
    %subview_611 = memref.subview %arg0[6750998528] [262144] [1] : memref<6755192832xf32> to memref<262144xf32, strided<[1], offset: 6750998528>>
    %expand_shape_612 = memref.expand_shape %subview_611 [[0, 1, 2, 3]] : memref<262144xf32, strided<[1], offset: 6750998528>> into memref<1x1x2048x128xf32, strided<[262144, 262144, 128, 1], offset: 6750998528>>
    %subview_613 = memref.subview %arg0[6751260672] [262144] [1] : memref<6755192832xf32> to memref<262144xf32, strided<[1], offset: 6751260672>>
    %expand_shape_614 = memref.expand_shape %subview_613 [[0, 1, 2, 3]] : memref<262144xf32, strided<[1], offset: 6751260672>> into memref<1x1x2048x128xf32, strided<[262144, 262144, 128, 1], offset: 6751260672>>
    %subview_615 = memref.subview %arg0[6751522816] [262144] [1] : memref<6755192832xf32> to memref<262144xf32, strided<[1], offset: 6751522816>>
    %expand_shape_616 = memref.expand_shape %subview_615 [[0, 1, 2, 3]] : memref<262144xf32, strided<[1], offset: 6751522816>> into memref<1x1x2048x128xf32, strided<[262144, 262144, 128, 1], offset: 6751522816>>
    %subview_617 = memref.subview %arg0[6751784960] [262144] [1] : memref<6755192832xf32> to memref<262144xf32, strided<[1], offset: 6751784960>>
    %expand_shape_618 = memref.expand_shape %subview_617 [[0, 1, 2, 3]] : memref<262144xf32, strided<[1], offset: 6751784960>> into memref<1x1x2048x128xf32, strided<[262144, 262144, 128, 1], offset: 6751784960>>
    %subview_619 = memref.subview %arg0[6752047104] [262144] [1] : memref<6755192832xf32> to memref<262144xf32, strided<[1], offset: 6752047104>>
    %expand_shape_620 = memref.expand_shape %subview_619 [[0, 1, 2, 3]] : memref<262144xf32, strided<[1], offset: 6752047104>> into memref<1x1x2048x128xf32, strided<[262144, 262144, 128, 1], offset: 6752047104>>
    %subview_621 = memref.subview %arg0[6752309248] [262144] [1] : memref<6755192832xf32> to memref<262144xf32, strided<[1], offset: 6752309248>>
    %expand_shape_622 = memref.expand_shape %subview_621 [[0, 1, 2, 3]] : memref<262144xf32, strided<[1], offset: 6752309248>> into memref<1x1x2048x128xf32, strided<[262144, 262144, 128, 1], offset: 6752309248>>
    %subview_623 = memref.subview %arg0[6752571392] [262144] [1] : memref<6755192832xf32> to memref<262144xf32, strided<[1], offset: 6752571392>>
    %expand_shape_624 = memref.expand_shape %subview_623 [[0, 1, 2, 3]] : memref<262144xf32, strided<[1], offset: 6752571392>> into memref<1x1x2048x128xf32, strided<[262144, 262144, 128, 1], offset: 6752571392>>
    %subview_625 = memref.subview %arg0[6752833536] [262144] [1] : memref<6755192832xf32> to memref<262144xf32, strided<[1], offset: 6752833536>>
    %expand_shape_626 = memref.expand_shape %subview_625 [[0, 1, 2, 3]] : memref<262144xf32, strided<[1], offset: 6752833536>> into memref<1x1x2048x128xf32, strided<[262144, 262144, 128, 1], offset: 6752833536>>
    %subview_627 = memref.subview %arg0[6753095680] [262144] [1] : memref<6755192832xf32> to memref<262144xf32, strided<[1], offset: 6753095680>>
    %expand_shape_628 = memref.expand_shape %subview_627 [[0, 1, 2, 3]] : memref<262144xf32, strided<[1], offset: 6753095680>> into memref<1x1x2048x128xf32, strided<[262144, 262144, 128, 1], offset: 6753095680>>
    %subview_629 = memref.subview %arg0[6753357824] [262144] [1] : memref<6755192832xf32> to memref<262144xf32, strided<[1], offset: 6753357824>>
    %expand_shape_630 = memref.expand_shape %subview_629 [[0, 1, 2, 3]] : memref<262144xf32, strided<[1], offset: 6753357824>> into memref<1x1x2048x128xf32, strided<[262144, 262144, 128, 1], offset: 6753357824>>
    %subview_631 = memref.subview %arg0[6753619968] [262144] [1] : memref<6755192832xf32> to memref<262144xf32, strided<[1], offset: 6753619968>>
    %expand_shape_632 = memref.expand_shape %subview_631 [[0, 1, 2, 3]] : memref<262144xf32, strided<[1], offset: 6753619968>> into memref<1x1x2048x128xf32, strided<[262144, 262144, 128, 1], offset: 6753619968>>
    %subview_633 = memref.subview %arg0[6753882112] [262144] [1] : memref<6755192832xf32> to memref<262144xf32, strided<[1], offset: 6753882112>>
    %expand_shape_634 = memref.expand_shape %subview_633 [[0, 1, 2, 3]] : memref<262144xf32, strided<[1], offset: 6753882112>> into memref<1x1x2048x128xf32, strided<[262144, 262144, 128, 1], offset: 6753882112>>
    %subview_635 = memref.subview %arg0[6754144256] [262144] [1] : memref<6755192832xf32> to memref<262144xf32, strided<[1], offset: 6754144256>>
    %expand_shape_636 = memref.expand_shape %subview_635 [[0, 1, 2, 3]] : memref<262144xf32, strided<[1], offset: 6754144256>> into memref<1x1x2048x128xf32, strided<[262144, 262144, 128, 1], offset: 6754144256>>
    %subview_637 = memref.subview %arg0[6754406400] [262144] [1] : memref<6755192832xf32> to memref<262144xf32, strided<[1], offset: 6754406400>>
    %expand_shape_638 = memref.expand_shape %subview_637 [[0, 1, 2, 3]] : memref<262144xf32, strided<[1], offset: 6754406400>> into memref<1x1x2048x128xf32, strided<[262144, 262144, 128, 1], offset: 6754406400>>
    %subview_639 = memref.subview %arg0[6754668544] [262144] [1] : memref<6755192832xf32> to memref<262144xf32, strided<[1], offset: 6754668544>>
    %expand_shape_640 = memref.expand_shape %subview_639 [[0, 1, 2, 3]] : memref<262144xf32, strided<[1], offset: 6754668544>> into memref<1x1x2048x128xf32, strided<[262144, 262144, 128, 1], offset: 6754668544>>
    %subview_641 = memref.subview %arg0[6754930688] [262144] [1] : memref<6755192832xf32> to memref<262144xf32, strided<[1], offset: 6754930688>>
    %expand_shape_642 = memref.expand_shape %subview_641 [[0, 1, 2, 3]] : memref<262144xf32, strided<[1], offset: 6754930688>> into memref<1x1x2048x128xf32, strided<[262144, 262144, 128, 1], offset: 6754930688>>
    %cast = memref.cast %expand_shape : memref<32000x4096xf32, strided<[4096, 1], offset: 266240>> to memref<32000x4096xf32, strided<[4096, 1], offset: ?>>
    %cast_643 = memref.cast %arg1 : memref<1x40xi64> to memref<1x40xi64, strided<[40, 1], offset: ?>>
    %cast_644 = memref.cast %subview : memref<4096xf32> to memref<4096xf32, strided<[1], offset: ?>>
    %cast_645 = memref.cast %expand_shape_66 : memref<4096x4096xf32, strided<[4096, 1], offset: 131338240>> to memref<4096x4096xf32, strided<[4096, 1], offset: ?>>
    %cast_646 = memref.cast %expand_shape_68 : memref<4096x4096xf32, strided<[4096, 1], offset: 148115456>> to memref<4096x4096xf32, strided<[4096, 1], offset: ?>>
    %cast_647 = memref.cast %expand_shape_70 : memref<4096x4096xf32, strided<[4096, 1], offset: 164892672>> to memref<4096x4096xf32, strided<[4096, 1], offset: ?>>
    %cast_648 = memref.cast %expand_shape_516 : memref<1x1x2048x128xf32, strided<[262144, 262144, 128, 1], offset: 6738415616>> to memref<1x1x2048x128xf32, strided<[262144, 262144, 128, 1], offset: ?>>
    %cast_649 = memref.cast %expand_shape_518 : memref<1x1x2048x128xf32, strided<[262144, 262144, 128, 1], offset: 6738677760>> to memref<1x1x2048x128xf32, strided<[262144, 262144, 128, 1], offset: ?>>
    %cast_650 = memref.cast %expand_shape_72 : memref<4096x4096xf32, strided<[4096, 1], offset: 181669888>> to memref<4096x4096xf32, strided<[4096, 1], offset: ?>>
    %cast_651 = memref.cast %subview_0 : memref<4096xf32, strided<[1], offset: 4096>> to memref<4096xf32, strided<[1], offset: ?>>
    %cast_652 = memref.cast %expand_shape_74 : memref<11008x4096xf32, strided<[4096, 1], offset: 198447104>> to memref<11008x4096xf32, strided<[4096, 1], offset: ?>>
    %cast_653 = memref.cast %expand_shape_76 : memref<11008x4096xf32, strided<[4096, 1], offset: 243535872>> to memref<11008x4096xf32, strided<[4096, 1], offset: ?>>
    %cast_654 = memref.cast %expand_shape_78 : memref<4096x11008xf32, strided<[11008, 1], offset: 288624640>> to memref<4096x11008xf32, strided<[11008, 1], offset: ?>>
    %cast_655 = memref.cast %subview_1 : memref<4096xf32, strided<[1], offset: 8192>> to memref<4096xf32, strided<[1], offset: ?>>
    %cast_656 = memref.cast %expand_shape_80 : memref<4096x4096xf32, strided<[4096, 1], offset: 333713408>> to memref<4096x4096xf32, strided<[4096, 1], offset: ?>>
    %cast_657 = memref.cast %expand_shape_82 : memref<4096x4096xf32, strided<[4096, 1], offset: 350490624>> to memref<4096x4096xf32, strided<[4096, 1], offset: ?>>
    %cast_658 = memref.cast %expand_shape_84 : memref<4096x4096xf32, strided<[4096, 1], offset: 367267840>> to memref<4096x4096xf32, strided<[4096, 1], offset: ?>>
    %cast_659 = memref.cast %expand_shape_520 : memref<1x1x2048x128xf32, strided<[262144, 262144, 128, 1], offset: 6738939904>> to memref<1x1x2048x128xf32, strided<[262144, 262144, 128, 1], offset: ?>>
    %cast_660 = memref.cast %expand_shape_522 : memref<1x1x2048x128xf32, strided<[262144, 262144, 128, 1], offset: 6739202048>> to memref<1x1x2048x128xf32, strided<[262144, 262144, 128, 1], offset: ?>>
    %cast_661 = memref.cast %expand_shape_86 : memref<4096x4096xf32, strided<[4096, 1], offset: 384045056>> to memref<4096x4096xf32, strided<[4096, 1], offset: ?>>
    %cast_662 = memref.cast %subview_2 : memref<4096xf32, strided<[1], offset: 12288>> to memref<4096xf32, strided<[1], offset: ?>>
    %cast_663 = memref.cast %expand_shape_88 : memref<11008x4096xf32, strided<[4096, 1], offset: 400822272>> to memref<11008x4096xf32, strided<[4096, 1], offset: ?>>
    %cast_664 = memref.cast %expand_shape_90 : memref<11008x4096xf32, strided<[4096, 1], offset: 445911040>> to memref<11008x4096xf32, strided<[4096, 1], offset: ?>>
    %cast_665 = memref.cast %expand_shape_92 : memref<4096x11008xf32, strided<[11008, 1], offset: 490999808>> to memref<4096x11008xf32, strided<[11008, 1], offset: ?>>
    %cast_666 = memref.cast %subview_3 : memref<4096xf32, strided<[1], offset: 16384>> to memref<4096xf32, strided<[1], offset: ?>>
    %cast_667 = memref.cast %expand_shape_94 : memref<4096x4096xf32, strided<[4096, 1], offset: 536088576>> to memref<4096x4096xf32, strided<[4096, 1], offset: ?>>
    %cast_668 = memref.cast %expand_shape_96 : memref<4096x4096xf32, strided<[4096, 1], offset: 552865792>> to memref<4096x4096xf32, strided<[4096, 1], offset: ?>>
    %cast_669 = memref.cast %expand_shape_98 : memref<4096x4096xf32, strided<[4096, 1], offset: 569643008>> to memref<4096x4096xf32, strided<[4096, 1], offset: ?>>
    %cast_670 = memref.cast %expand_shape_524 : memref<1x1x2048x128xf32, strided<[262144, 262144, 128, 1], offset: 6739464192>> to memref<1x1x2048x128xf32, strided<[262144, 262144, 128, 1], offset: ?>>
    %cast_671 = memref.cast %expand_shape_526 : memref<1x1x2048x128xf32, strided<[262144, 262144, 128, 1], offset: 6739726336>> to memref<1x1x2048x128xf32, strided<[262144, 262144, 128, 1], offset: ?>>
    %cast_672 = memref.cast %expand_shape_100 : memref<4096x4096xf32, strided<[4096, 1], offset: 586420224>> to memref<4096x4096xf32, strided<[4096, 1], offset: ?>>
    %cast_673 = memref.cast %subview_4 : memref<4096xf32, strided<[1], offset: 20480>> to memref<4096xf32, strided<[1], offset: ?>>
    %cast_674 = memref.cast %expand_shape_102 : memref<11008x4096xf32, strided<[4096, 1], offset: 603197440>> to memref<11008x4096xf32, strided<[4096, 1], offset: ?>>
    %cast_675 = memref.cast %expand_shape_104 : memref<11008x4096xf32, strided<[4096, 1], offset: 648286208>> to memref<11008x4096xf32, strided<[4096, 1], offset: ?>>
    %cast_676 = memref.cast %expand_shape_106 : memref<4096x11008xf32, strided<[11008, 1], offset: 693374976>> to memref<4096x11008xf32, strided<[11008, 1], offset: ?>>
    %cast_677 = memref.cast %subview_5 : memref<4096xf32, strided<[1], offset: 24576>> to memref<4096xf32, strided<[1], offset: ?>>
    %cast_678 = memref.cast %expand_shape_108 : memref<4096x4096xf32, strided<[4096, 1], offset: 738463744>> to memref<4096x4096xf32, strided<[4096, 1], offset: ?>>
    %cast_679 = memref.cast %expand_shape_110 : memref<4096x4096xf32, strided<[4096, 1], offset: 755240960>> to memref<4096x4096xf32, strided<[4096, 1], offset: ?>>
    %cast_680 = memref.cast %expand_shape_112 : memref<4096x4096xf32, strided<[4096, 1], offset: 772018176>> to memref<4096x4096xf32, strided<[4096, 1], offset: ?>>
    %cast_681 = memref.cast %expand_shape_528 : memref<1x1x2048x128xf32, strided<[262144, 262144, 128, 1], offset: 6739988480>> to memref<1x1x2048x128xf32, strided<[262144, 262144, 128, 1], offset: ?>>
    %cast_682 = memref.cast %expand_shape_530 : memref<1x1x2048x128xf32, strided<[262144, 262144, 128, 1], offset: 6740250624>> to memref<1x1x2048x128xf32, strided<[262144, 262144, 128, 1], offset: ?>>
    %cast_683 = memref.cast %expand_shape_114 : memref<4096x4096xf32, strided<[4096, 1], offset: 788795392>> to memref<4096x4096xf32, strided<[4096, 1], offset: ?>>
    %cast_684 = memref.cast %subview_6 : memref<4096xf32, strided<[1], offset: 28672>> to memref<4096xf32, strided<[1], offset: ?>>
    %cast_685 = memref.cast %expand_shape_116 : memref<11008x4096xf32, strided<[4096, 1], offset: 805572608>> to memref<11008x4096xf32, strided<[4096, 1], offset: ?>>
    %cast_686 = memref.cast %expand_shape_118 : memref<11008x4096xf32, strided<[4096, 1], offset: 850661376>> to memref<11008x4096xf32, strided<[4096, 1], offset: ?>>
    %cast_687 = memref.cast %expand_shape_120 : memref<4096x11008xf32, strided<[11008, 1], offset: 895750144>> to memref<4096x11008xf32, strided<[11008, 1], offset: ?>>
    %cast_688 = memref.cast %subview_7 : memref<4096xf32, strided<[1], offset: 32768>> to memref<4096xf32, strided<[1], offset: ?>>
    %cast_689 = memref.cast %expand_shape_122 : memref<4096x4096xf32, strided<[4096, 1], offset: 940838912>> to memref<4096x4096xf32, strided<[4096, 1], offset: ?>>
    %cast_690 = memref.cast %expand_shape_124 : memref<4096x4096xf32, strided<[4096, 1], offset: 957616128>> to memref<4096x4096xf32, strided<[4096, 1], offset: ?>>
    %cast_691 = memref.cast %expand_shape_126 : memref<4096x4096xf32, strided<[4096, 1], offset: 974393344>> to memref<4096x4096xf32, strided<[4096, 1], offset: ?>>
    %cast_692 = memref.cast %expand_shape_532 : memref<1x1x2048x128xf32, strided<[262144, 262144, 128, 1], offset: 6740512768>> to memref<1x1x2048x128xf32, strided<[262144, 262144, 128, 1], offset: ?>>
    %cast_693 = memref.cast %expand_shape_534 : memref<1x1x2048x128xf32, strided<[262144, 262144, 128, 1], offset: 6740774912>> to memref<1x1x2048x128xf32, strided<[262144, 262144, 128, 1], offset: ?>>
    %cast_694 = memref.cast %expand_shape_128 : memref<4096x4096xf32, strided<[4096, 1], offset: 991170560>> to memref<4096x4096xf32, strided<[4096, 1], offset: ?>>
    %cast_695 = memref.cast %subview_8 : memref<4096xf32, strided<[1], offset: 36864>> to memref<4096xf32, strided<[1], offset: ?>>
    %cast_696 = memref.cast %expand_shape_130 : memref<11008x4096xf32, strided<[4096, 1], offset: 1007947776>> to memref<11008x4096xf32, strided<[4096, 1], offset: ?>>
    %cast_697 = memref.cast %expand_shape_132 : memref<11008x4096xf32, strided<[4096, 1], offset: 1053036544>> to memref<11008x4096xf32, strided<[4096, 1], offset: ?>>
    %cast_698 = memref.cast %expand_shape_134 : memref<4096x11008xf32, strided<[11008, 1], offset: 1098125312>> to memref<4096x11008xf32, strided<[11008, 1], offset: ?>>
    %cast_699 = memref.cast %subview_9 : memref<4096xf32, strided<[1], offset: 40960>> to memref<4096xf32, strided<[1], offset: ?>>
    %cast_700 = memref.cast %expand_shape_136 : memref<4096x4096xf32, strided<[4096, 1], offset: 1143214080>> to memref<4096x4096xf32, strided<[4096, 1], offset: ?>>
    %cast_701 = memref.cast %expand_shape_138 : memref<4096x4096xf32, strided<[4096, 1], offset: 1159991296>> to memref<4096x4096xf32, strided<[4096, 1], offset: ?>>
    %cast_702 = memref.cast %expand_shape_140 : memref<4096x4096xf32, strided<[4096, 1], offset: 1176768512>> to memref<4096x4096xf32, strided<[4096, 1], offset: ?>>
    %cast_703 = memref.cast %expand_shape_536 : memref<1x1x2048x128xf32, strided<[262144, 262144, 128, 1], offset: 6741037056>> to memref<1x1x2048x128xf32, strided<[262144, 262144, 128, 1], offset: ?>>
    %cast_704 = memref.cast %expand_shape_538 : memref<1x1x2048x128xf32, strided<[262144, 262144, 128, 1], offset: 6741299200>> to memref<1x1x2048x128xf32, strided<[262144, 262144, 128, 1], offset: ?>>
    %cast_705 = memref.cast %expand_shape_142 : memref<4096x4096xf32, strided<[4096, 1], offset: 1193545728>> to memref<4096x4096xf32, strided<[4096, 1], offset: ?>>
    %cast_706 = memref.cast %subview_10 : memref<4096xf32, strided<[1], offset: 45056>> to memref<4096xf32, strided<[1], offset: ?>>
    %cast_707 = memref.cast %expand_shape_144 : memref<11008x4096xf32, strided<[4096, 1], offset: 1210322944>> to memref<11008x4096xf32, strided<[4096, 1], offset: ?>>
    %cast_708 = memref.cast %expand_shape_146 : memref<11008x4096xf32, strided<[4096, 1], offset: 1255411712>> to memref<11008x4096xf32, strided<[4096, 1], offset: ?>>
    %cast_709 = memref.cast %expand_shape_148 : memref<4096x11008xf32, strided<[11008, 1], offset: 1300500480>> to memref<4096x11008xf32, strided<[11008, 1], offset: ?>>
    %cast_710 = memref.cast %subview_11 : memref<4096xf32, strided<[1], offset: 49152>> to memref<4096xf32, strided<[1], offset: ?>>
    %cast_711 = memref.cast %expand_shape_150 : memref<4096x4096xf32, strided<[4096, 1], offset: 1345589248>> to memref<4096x4096xf32, strided<[4096, 1], offset: ?>>
    %cast_712 = memref.cast %expand_shape_152 : memref<4096x4096xf32, strided<[4096, 1], offset: 1362366464>> to memref<4096x4096xf32, strided<[4096, 1], offset: ?>>
    %cast_713 = memref.cast %expand_shape_154 : memref<4096x4096xf32, strided<[4096, 1], offset: 1379143680>> to memref<4096x4096xf32, strided<[4096, 1], offset: ?>>
    %cast_714 = memref.cast %expand_shape_540 : memref<1x1x2048x128xf32, strided<[262144, 262144, 128, 1], offset: 6741561344>> to memref<1x1x2048x128xf32, strided<[262144, 262144, 128, 1], offset: ?>>
    %cast_715 = memref.cast %expand_shape_542 : memref<1x1x2048x128xf32, strided<[262144, 262144, 128, 1], offset: 6741823488>> to memref<1x1x2048x128xf32, strided<[262144, 262144, 128, 1], offset: ?>>
    %cast_716 = memref.cast %expand_shape_156 : memref<4096x4096xf32, strided<[4096, 1], offset: 1395920896>> to memref<4096x4096xf32, strided<[4096, 1], offset: ?>>
    %cast_717 = memref.cast %subview_12 : memref<4096xf32, strided<[1], offset: 53248>> to memref<4096xf32, strided<[1], offset: ?>>
    %cast_718 = memref.cast %expand_shape_158 : memref<11008x4096xf32, strided<[4096, 1], offset: 1412698112>> to memref<11008x4096xf32, strided<[4096, 1], offset: ?>>
    %cast_719 = memref.cast %expand_shape_160 : memref<11008x4096xf32, strided<[4096, 1], offset: 1457786880>> to memref<11008x4096xf32, strided<[4096, 1], offset: ?>>
    %cast_720 = memref.cast %expand_shape_162 : memref<4096x11008xf32, strided<[11008, 1], offset: 1502875648>> to memref<4096x11008xf32, strided<[11008, 1], offset: ?>>
    %cast_721 = memref.cast %subview_13 : memref<4096xf32, strided<[1], offset: 57344>> to memref<4096xf32, strided<[1], offset: ?>>
    %cast_722 = memref.cast %expand_shape_164 : memref<4096x4096xf32, strided<[4096, 1], offset: 1547964416>> to memref<4096x4096xf32, strided<[4096, 1], offset: ?>>
    %cast_723 = memref.cast %expand_shape_166 : memref<4096x4096xf32, strided<[4096, 1], offset: 1564741632>> to memref<4096x4096xf32, strided<[4096, 1], offset: ?>>
    %cast_724 = memref.cast %expand_shape_168 : memref<4096x4096xf32, strided<[4096, 1], offset: 1581518848>> to memref<4096x4096xf32, strided<[4096, 1], offset: ?>>
    %cast_725 = memref.cast %expand_shape_544 : memref<1x1x2048x128xf32, strided<[262144, 262144, 128, 1], offset: 6742085632>> to memref<1x1x2048x128xf32, strided<[262144, 262144, 128, 1], offset: ?>>
    %cast_726 = memref.cast %expand_shape_546 : memref<1x1x2048x128xf32, strided<[262144, 262144, 128, 1], offset: 6742347776>> to memref<1x1x2048x128xf32, strided<[262144, 262144, 128, 1], offset: ?>>
    %cast_727 = memref.cast %expand_shape_170 : memref<4096x4096xf32, strided<[4096, 1], offset: 1598296064>> to memref<4096x4096xf32, strided<[4096, 1], offset: ?>>
    %cast_728 = memref.cast %subview_14 : memref<4096xf32, strided<[1], offset: 61440>> to memref<4096xf32, strided<[1], offset: ?>>
    %cast_729 = memref.cast %expand_shape_172 : memref<11008x4096xf32, strided<[4096, 1], offset: 1615073280>> to memref<11008x4096xf32, strided<[4096, 1], offset: ?>>
    %cast_730 = memref.cast %expand_shape_174 : memref<11008x4096xf32, strided<[4096, 1], offset: 1660162048>> to memref<11008x4096xf32, strided<[4096, 1], offset: ?>>
    %cast_731 = memref.cast %expand_shape_176 : memref<4096x11008xf32, strided<[11008, 1], offset: 1705250816>> to memref<4096x11008xf32, strided<[11008, 1], offset: ?>>
    %cast_732 = memref.cast %subview_15 : memref<4096xf32, strided<[1], offset: 65536>> to memref<4096xf32, strided<[1], offset: ?>>
    %cast_733 = memref.cast %expand_shape_178 : memref<4096x4096xf32, strided<[4096, 1], offset: 1750339584>> to memref<4096x4096xf32, strided<[4096, 1], offset: ?>>
    %cast_734 = memref.cast %expand_shape_180 : memref<4096x4096xf32, strided<[4096, 1], offset: 1767116800>> to memref<4096x4096xf32, strided<[4096, 1], offset: ?>>
    %cast_735 = memref.cast %expand_shape_182 : memref<4096x4096xf32, strided<[4096, 1], offset: 1783894016>> to memref<4096x4096xf32, strided<[4096, 1], offset: ?>>
    %cast_736 = memref.cast %expand_shape_548 : memref<1x1x2048x128xf32, strided<[262144, 262144, 128, 1], offset: 6742609920>> to memref<1x1x2048x128xf32, strided<[262144, 262144, 128, 1], offset: ?>>
    %cast_737 = memref.cast %expand_shape_550 : memref<1x1x2048x128xf32, strided<[262144, 262144, 128, 1], offset: 6742872064>> to memref<1x1x2048x128xf32, strided<[262144, 262144, 128, 1], offset: ?>>
    %cast_738 = memref.cast %expand_shape_184 : memref<4096x4096xf32, strided<[4096, 1], offset: 1800671232>> to memref<4096x4096xf32, strided<[4096, 1], offset: ?>>
    %cast_739 = memref.cast %subview_16 : memref<4096xf32, strided<[1], offset: 69632>> to memref<4096xf32, strided<[1], offset: ?>>
    %cast_740 = memref.cast %expand_shape_186 : memref<11008x4096xf32, strided<[4096, 1], offset: 1817448448>> to memref<11008x4096xf32, strided<[4096, 1], offset: ?>>
    %cast_741 = memref.cast %expand_shape_188 : memref<11008x4096xf32, strided<[4096, 1], offset: 1862537216>> to memref<11008x4096xf32, strided<[4096, 1], offset: ?>>
    %cast_742 = memref.cast %expand_shape_190 : memref<4096x11008xf32, strided<[11008, 1], offset: 1907625984>> to memref<4096x11008xf32, strided<[11008, 1], offset: ?>>
    %cast_743 = memref.cast %subview_17 : memref<4096xf32, strided<[1], offset: 73728>> to memref<4096xf32, strided<[1], offset: ?>>
    %cast_744 = memref.cast %expand_shape_192 : memref<4096x4096xf32, strided<[4096, 1], offset: 1952714752>> to memref<4096x4096xf32, strided<[4096, 1], offset: ?>>
    %cast_745 = memref.cast %expand_shape_194 : memref<4096x4096xf32, strided<[4096, 1], offset: 1969491968>> to memref<4096x4096xf32, strided<[4096, 1], offset: ?>>
    %cast_746 = memref.cast %expand_shape_196 : memref<4096x4096xf32, strided<[4096, 1], offset: 1986269184>> to memref<4096x4096xf32, strided<[4096, 1], offset: ?>>
    %cast_747 = memref.cast %expand_shape_552 : memref<1x1x2048x128xf32, strided<[262144, 262144, 128, 1], offset: 6743134208>> to memref<1x1x2048x128xf32, strided<[262144, 262144, 128, 1], offset: ?>>
    %cast_748 = memref.cast %expand_shape_554 : memref<1x1x2048x128xf32, strided<[262144, 262144, 128, 1], offset: 6743396352>> to memref<1x1x2048x128xf32, strided<[262144, 262144, 128, 1], offset: ?>>
    %cast_749 = memref.cast %expand_shape_198 : memref<4096x4096xf32, strided<[4096, 1], offset: 2003046400>> to memref<4096x4096xf32, strided<[4096, 1], offset: ?>>
    %cast_750 = memref.cast %subview_18 : memref<4096xf32, strided<[1], offset: 77824>> to memref<4096xf32, strided<[1], offset: ?>>
    %cast_751 = memref.cast %expand_shape_200 : memref<11008x4096xf32, strided<[4096, 1], offset: 2019823616>> to memref<11008x4096xf32, strided<[4096, 1], offset: ?>>
    %cast_752 = memref.cast %expand_shape_202 : memref<11008x4096xf32, strided<[4096, 1], offset: 2064912384>> to memref<11008x4096xf32, strided<[4096, 1], offset: ?>>
    %cast_753 = memref.cast %expand_shape_204 : memref<4096x11008xf32, strided<[11008, 1], offset: 2110001152>> to memref<4096x11008xf32, strided<[11008, 1], offset: ?>>
    %cast_754 = memref.cast %subview_19 : memref<4096xf32, strided<[1], offset: 81920>> to memref<4096xf32, strided<[1], offset: ?>>
    %cast_755 = memref.cast %expand_shape_206 : memref<4096x4096xf32, strided<[4096, 1], offset: 2155089920>> to memref<4096x4096xf32, strided<[4096, 1], offset: ?>>
    %cast_756 = memref.cast %expand_shape_208 : memref<4096x4096xf32, strided<[4096, 1], offset: 2171867136>> to memref<4096x4096xf32, strided<[4096, 1], offset: ?>>
    %cast_757 = memref.cast %expand_shape_210 : memref<4096x4096xf32, strided<[4096, 1], offset: 2188644352>> to memref<4096x4096xf32, strided<[4096, 1], offset: ?>>
    %cast_758 = memref.cast %expand_shape_556 : memref<1x1x2048x128xf32, strided<[262144, 262144, 128, 1], offset: 6743658496>> to memref<1x1x2048x128xf32, strided<[262144, 262144, 128, 1], offset: ?>>
    %cast_759 = memref.cast %expand_shape_558 : memref<1x1x2048x128xf32, strided<[262144, 262144, 128, 1], offset: 6743920640>> to memref<1x1x2048x128xf32, strided<[262144, 262144, 128, 1], offset: ?>>
    %cast_760 = memref.cast %expand_shape_212 : memref<4096x4096xf32, strided<[4096, 1], offset: 2205421568>> to memref<4096x4096xf32, strided<[4096, 1], offset: ?>>
    %cast_761 = memref.cast %subview_20 : memref<4096xf32, strided<[1], offset: 86016>> to memref<4096xf32, strided<[1], offset: ?>>
    %cast_762 = memref.cast %expand_shape_214 : memref<11008x4096xf32, strided<[4096, 1], offset: 2222198784>> to memref<11008x4096xf32, strided<[4096, 1], offset: ?>>
    %cast_763 = memref.cast %expand_shape_216 : memref<11008x4096xf32, strided<[4096, 1], offset: 2267287552>> to memref<11008x4096xf32, strided<[4096, 1], offset: ?>>
    %cast_764 = memref.cast %expand_shape_218 : memref<4096x11008xf32, strided<[11008, 1], offset: 2312376320>> to memref<4096x11008xf32, strided<[11008, 1], offset: ?>>
    %cast_765 = memref.cast %subview_21 : memref<4096xf32, strided<[1], offset: 90112>> to memref<4096xf32, strided<[1], offset: ?>>
    %cast_766 = memref.cast %expand_shape_220 : memref<4096x4096xf32, strided<[4096, 1], offset: 2357465088>> to memref<4096x4096xf32, strided<[4096, 1], offset: ?>>
    %cast_767 = memref.cast %expand_shape_222 : memref<4096x4096xf32, strided<[4096, 1], offset: 2374242304>> to memref<4096x4096xf32, strided<[4096, 1], offset: ?>>
    %cast_768 = memref.cast %expand_shape_224 : memref<4096x4096xf32, strided<[4096, 1], offset: 2391019520>> to memref<4096x4096xf32, strided<[4096, 1], offset: ?>>
    %cast_769 = memref.cast %expand_shape_560 : memref<1x1x2048x128xf32, strided<[262144, 262144, 128, 1], offset: 6744182784>> to memref<1x1x2048x128xf32, strided<[262144, 262144, 128, 1], offset: ?>>
    %cast_770 = memref.cast %expand_shape_562 : memref<1x1x2048x128xf32, strided<[262144, 262144, 128, 1], offset: 6744444928>> to memref<1x1x2048x128xf32, strided<[262144, 262144, 128, 1], offset: ?>>
    %cast_771 = memref.cast %expand_shape_226 : memref<4096x4096xf32, strided<[4096, 1], offset: 2407796736>> to memref<4096x4096xf32, strided<[4096, 1], offset: ?>>
    %cast_772 = memref.cast %subview_22 : memref<4096xf32, strided<[1], offset: 94208>> to memref<4096xf32, strided<[1], offset: ?>>
…
    %cast_841 = memref.cast %expand_shape_316 : memref<4096x11008xf32, strided<[11008, 1], offset: 3729002496>> to memref<4096x11008xf32, strided<[11008, 1], offset: ?>>
    %cast_842 = memref.cast %subview_35 : memref<4096xf32, strided<[1], offset: 147456>> to memref<4096xf32, strided<[1], offset: ?>>
    %cast_843 = memref.cast %expand_shape_318 : memref<4096x4096xf32, strided<[4096, 1], offset: 3774091264>> to memref<4096x4096xf32, strided<[4096, 1], offset: ?>>
    %cast_844 = memref.cast %expand_shape_320 : memref<4096x4096xf32, strided<[4096, 1], offset: 3790868480>> to memref<4096x4096xf32, strided<[4096, 1], offset: ?>>
    %cast_845 = memref.cast %expand_shape_322 : memref<4096x4096xf32, strided<[4096, 1], offset: 3807645696>> to memref<4096x4096xf32, strided<[4096, 1], offset: ?>>
    %cast_846 = memref.cast %expand_shape_588 : memref<1x1x2048x128xf32, strided<[262144, 262144, 128, 1], offset: 6747852800>> to memref<1x1x2048x128xf32, strided<[262144, 262144, 128, 1], offset: ?>>
    %cast_847 = memref.cast %expand_shape_590 : memref<1x1x2048x128xf32, strided<[262144, 262144, 128, 1], offset: 6748114944>> to memref<1x1x2048x128xf32, strided<[262144, 262144, 128, 1], offset: ?>>
    %cast_848 = memref.cast %expand_shape_324 : memref<4096x4096xf32, strided<[4096, 1], offset: 3824422912>> to memref<4096x4096xf32, strided<[4096, 1], offset: ?>>
    %cast_849 = memref.cast %subview_36 : memref<4096xf32, strided<[1], offset: 151552>> to memref<4096xf32, strided<[1], offset: ?>>
    %cast_850 = memref.cast %expand_shape_326 : memref<11008x4096xf32, strided<[4096, 1], offset: 3841200128>> to memref<11008x4096xf32, strided<[4096, 1], offset: ?>>
    %cast_851 = memref.cast %expand_shape_328 : memref<11008x4096xf32, strided<[4096, 1], offset: 3886288896>> to memref<11008x4096xf32, strided<[4096, 1], offset: ?>>
    %cast_852 = memref.cast %expand_shape_330 : memref<4096x11008xf32, strided<[11008, 1], offset: 3931377664>> to memref<4096x11008xf32, strided<[11008, 1], offset: ?>>
    %cast_853 = memref.cast %subview_37 : memref<4096xf32, strided<[1], offset: 155648>> to memref<4096xf32, strided<[1], offset: ?>>
    %cast_854 = memref.cast %expand_shape_332 : memref<4096x4096xf32, strided<[4096, 1], offset: 3976466432>> to memref<4096x4096xf32, strided<[4096, 1], offset: ?>>
    %cast_855 = memref.cast %expand_shape_334 : memref<4096x4096xf32, strided<[4096, 1], offset: 3993243648>> to memref<4096x4096xf32, strided<[4096, 1], offset: ?>>
    %cast_856 = memref.cast %expand_shape_336 : memref<4096x4096xf32, strided<[4096, 1], offset: 4010020864>> to memref<4096x4096xf32, strided<[4096, 1], offset: ?>>
    %cast_857 = memref.cast %expand_shape_592 : memref<1x1x2048x128xf32, strided<[262144, 262144, 128, 1], offset: 6748377088>> to memref<1x1x2048x128xf32, strided<[262144, 262144, 128, 1], offset: ?>>
    %cast_858 = memref.cast %expand_shape_594 : memref<1x1x2048x128xf32, strided<[262144, 262144, 128, 1], offset: 6748639232>> to memref<1x1x2048x128xf32, strided<[262144, 262144, 128, 1], offset: ?>>
    %cast_859 = memref.cast %expand_shape_338 : memref<4096x4096xf32, strided<[4096, 1], offset: 4026798080>> to memref<4096x4096xf32, strided<[4096, 1], offset: ?>>
    %cast_860 = memref.cast %subview_38 : memref<4096xf32, strided<[1], offset: 159744>> to memref<4096xf32, strided<[1], offset: ?>>
    %cast_861 = memref.cast %expand_shape_340 : memref<11008x4096xf32, strided<[4096, 1], offset: 4043575296>> to memref<11008x4096xf32, strided<[4096, 1], offset: ?>>
    %cast_862 = memref.cast %expand_shape_342 : memref<11008x4096xf32, strided<[4096, 1], offset: 4088664064>> to memref<11008x4096xf32, strided<[4096, 1], offset: ?>>
    %cast_863 = memref.cast %expand_shape_344 : memref<4096x11008xf32, strided<[11008, 1], offset: 4133752832>> to memref<4096x11008xf32, strided<[11008, 1], offset: ?>>
    %cast_864 = memref.cast %subview_39 : memref<4096xf32, strided<[1], offset: 163840>> to memref<4096xf32, strided<[1], offset: ?>>
    %cast_865 = memref.cast %expand_shape_346 : memref<4096x4096xf32, strided<[4096, 1], offset: 4178841600>> to memref<4096x4096xf32, strided<[4096, 1], offset: ?>>
    %cast_866 = memref.cast %expand_shape_348 : memref<4096x4096xf32, strided<[4096, 1], offset: 4195618816>> to memref<4096x4096xf32, strided<[4096, 1], offset: ?>>
    %cast_867 = memref.cast %expand_shape_350 : memref<4096x4096xf32, strided<[4096, 1], offset: 4212396032>> to memref<4096x4096xf32, strided<[4096, 1], offset: ?>>
    %cast_868 = memref.cast %expand_shape_596 : memref<1x1x2048x128xf32, strided<[262144, 262144, 128, 1], offset: 6748901376>> to memref<1x1x2048x128xf32, strided<[262144, 262144, 128, 1], offset: ?>>
    %cast_869 = memref.cast %expand_shape_598 : memref<1x1x2048x128xf32, strided<[262144, 262144, 128, 1], offset: 6749163520>> to memref<1x1x2048x128xf32, strided<[262144, 262144, 128, 1], offset: ?>>
    %cast_870 = memref.cast %expand_shape_352 : memref<4096x4096xf32, strided<[4096, 1], offset: 4229173248>> to memref<4096x4096xf32, strided<[4096, 1], offset: ?>>
    %cast_871 = memref.cast %subview_40 : memref<4096xf32, strided<[1], offset: 167936>> to memref<4096xf32, strided<[1], offset: ?>>
    %cast_872 = memref.cast %expand_shape_354 : memref<11008x4096xf32, strided<[4096, 1], offset: 4245950464>> to memref<11008x4096xf32, strided<[4096, 1], offset: ?>>
    %cast_873 = memref.cast %expand_shape_356 : memref<11008x4096xf32, strided<[4096, 1], offset: 4291039232>> to memref<11008x4096xf32, strided<[4096, 1], offset: ?>>
    %cast_874 = memref.cast %expand_shape_358 : memref<4096x11008xf32, strided<[11008, 1], offset: 4336128000>> to memref<4096x11008xf32, strided<[11008, 1], offset: ?>>
    %cast_875 = memref.cast %subview_41 : memref<4096xf32, strided<[1], offset: 172032>> to memref<4096xf32, strided<[1], offset: ?>>
    %cast_876 = memref.cast %expand_shape_360 : memref<4096x4096xf32, strided<[4096, 1], offset: 4381216768>> to memref<4096x4096xf32, strided<[4096, 1], offset: ?>>
    %cast_877 = memref.cast %expand_shape_362 : memref<4096x4096xf32, strided<[4096, 1], offset: 4397993984>> to memref<4096x4096xf32, strided<[4096, 1], offset: ?>>
    %cast_878 = memref.cast %expand_shape_364 : memref<4096x4096xf32, strided<[4096, 1], offset: 4414771200>> to memref<4096x4096xf32, strided<[4096, 1], offset: ?>>
    %cast_879 = memref.cast %expand_shape_600 : memref<1x1x2048x128xf32, strided<[262144, 262144, 128, 1], offset: 6749425664>> to memref<1x1x2048x128xf32, strided<[262144, 262144, 128, 1], offset: ?>>
    %cast_880 = memref.cast %expand_shape_602 : memref<1x1x2048x128xf32, strided<[262144, 262144, 128, 1], offset: 6749687808>> to memref<1x1x2048x128xf32, strided<[262144, 262144, 128, 1], offset: ?>>
    %cast_881 = memref.cast %expand_shape_366 : memref<4096x4096xf32, strided<[4096, 1], offset: 4431548416>> to memref<4096x4096xf32, strided<[4096, 1], offset: ?>>
    %cast_882 = memref.cast %subview_42 : memref<4096xf32, strided<[1], offset: 176128>> to memref<4096xf32, strided<[1], offset: ?>>
    %cast_883 = memref.cast %expand_shape_368 : memref<11008x4096xf32, strided<[4096, 1], offset: 4448325632>> to memref<11008x4096xf32, strided<[4096, 1], offset: ?>>
    %cast_884 = memref.cast %expand_shape_370 : memref<11008x4096xf32, strided<[4096, 1], offset: 4493414400>> to memref<11008x4096xf32, strided<[4096, 1], offset: ?>>
    %cast_885 = memref.cast %expand_shape_372 : memref<4096x11008xf32, strided<[11008, 1], offset: 4538503168>> to memref<4096x11008xf32, strided<[11008, 1], offset: ?>>
    %cast_886 = memref.cast %subview_43 : memref<4096xf32, strided<[1], offset: 180224>> to memref<4096xf32, strided<[1], offset: ?>>
    %cast_887 = memref.cast %expand_shape_374 : memref<4096x4096xf32, strided<[4096, 1], offset: 4583591936>> to memref<4096x4096xf32, strided<[4096, 1], offset: ?>>
    %cast_888 = memref.cast %expand_shape_376 : memref<4096x4096xf32, strided<[4096, 1], offset: 4600369152>> to memref<4096x4096xf32, strided<[4096, 1], offset: ?>>
    %cast_889 = memref.cast %expand_shape_378 : memref<4096x4096xf32, strided<[4096, 1], offset: 4617146368>> to memref<4096x4096xf32, strided<[4096, 1], offset: ?>>
    %cast_890 = memref.cast %expand_shape_604 : memref<1x1x2048x128xf32, strided<[262144, 262144, 128, 1], offset: 6749949952>> to memref<1x1x2048x128xf32, strided<[262144, 262144, 128, 1], offset: ?>>
    %cast_891 = memref.cast %expand_shape_606 : memref<1x1x2048x128xf32, strided<[262144, 262144, 128, 1], offset: 6750212096>> to memref<1x1x2048x128xf32, strided<[262144, 262144, 128, 1], offset: ?>>
    %cast_892 = memref.cast %expand_shape_380 : memref<4096x4096xf32, strided<[4096, 1], offset: 4633923584>> to memref<4096x4096xf32, strided<[4096, 1], offset: ?>>
    %cast_893 = memref.cast %subview_44 : memref<4096xf32, strided<[1], offset: 184320>> to memref<4096xf32, strided<[1], offset: ?>>
    %cast_894 = memref.cast %expand_shape_382 : memref<11008x4096xf32, strided<[4096, 1], offset: 4650700800>> to memref<11008x4096xf32, strided<[4096, 1], offset: ?>>
    %cast_895 = memref.cast %expand_shape_384 : memref<11008x4096xf32, strided<[4096, 1], offset: 4695789568>> to memref<11008x4096xf32, strided<[4096, 1], offset: ?>>
    %cast_896 = memref.cast %expand_shape_386 : memref<4096x11008xf32, strided<[11008, 1], offset: 4740878336>> to memref<4096x11008xf32, strided<[11008, 1], offset: ?>>
    %cast_897 = memref.cast %subview_45 : memref<4096xf32, strided<[1], offset: 188416>> to memref<4096xf32, strided<[1], offset: ?>>
    %cast_898 = memref.cast %expand_shape_388 : memref<4096x4096xf32, strided<[4096, 1], offset: 4785967104>> to memref<4096x4096xf32, strided<[4096, 1], offset: ?>>
    %cast_899 = memref.cast %expand_shape_390 : memref<4096x4096xf32, strided<[4096, 1], offset: 4802744320>> to memref<4096x4096xf32, strided<[4096, 1], offset: ?>>
    %cast_900 = memref.cast %expand_shape_392 : memref<4096x4096xf32, strided<[4096, 1], offset: 4819521536>> to memref<4096x4096xf32, strided<[4096, 1], offset: ?>>
    %cast_901 = memref.cast %expand_shape_608 : memref<1x1x2048x128xf32, strided<[262144, 262144, 128, 1], offset: 6750474240>> to memref<1x1x2048x128xf32, strided<[262144, 262144, 128, 1], offset: ?>>
    %cast_902 = memref.cast %expand_shape_610 : memref<1x1x2048x128xf32, strided<[262144, 262144, 128, 1], offset: 6750736384>> to memref<1x1x2048x128xf32, strided<[262144, 262144, 128, 1], offset: ?>>
    %cast_903 = memref.cast %expand_shape_394 : memref<4096x4096xf32, strided<[4096, 1], offset: 4836298752>> to memref<4096x4096xf32, strided<[4096, 1], offset: ?>>
    %cast_904 = memref.cast %subview_46 : memref<4096xf32, strided<[1], offset: 192512>> to memref<4096xf32, strided<[1], offset: ?>>
    %cast_905 = memref.cast %expand_shape_396 : memref<11008x4096xf32, strided<[4096, 1], offset: 4853075968>> to memref<11008x4096xf32, strided<[4096, 1], offset: ?>>
    %cast_906 = memref.cast %expand_shape_398 : memref<11008x4096xf32, strided<[4096, 1], offset: 4898164736>> to memref<11008x4096xf32, strided<[4096, 1], offset: ?>>
    %cast_907 = memref.cast %expand_shape_400 : memref<4096x11008xf32, strided<[11008, 1], offset: 4943253504>> to memref<4096x11008xf32, strided<[11008, 1], offset: ?>>
    %cast_908 = memref.cast %subview_47 : memref<4096xf32, strided<[1], offset: 196608>> to memref<4096xf32, strided<[1], offset: ?>>
    %cast_909 = memref.cast %expand_shape_402 : memref<4096x4096xf32, strided<[4096, 1], offset: 4988342272>> to memref<4096x4096xf32, strided<[4096, 1], offset: ?>>
    %cast_910 = memref.cast %expand_shape_404 : memref<4096x4096xf32, strided<[4096, 1], offset: 5005119488>> to memref<4096x4096xf32, strided<[4096, 1], offset: ?>>
    %cast_911 = memref.cast %expand_shape_406 : memref<4096x4096xf32, strided<[4096, 1], offset: 5021896704>> to memref<4096x4096xf32, strided<[4096, 1], offset: ?>>
    %cast_912 = memref.cast %expand_shape_612 : memref<1x1x2048x128xf32, strided<[262144, 262144, 128, 1], offset: 6750998528>> to memref<1x1x2048x128xf32, strided<[262144, 262144, 128, 1], offset: ?>>
    %cast_913 = memref.cast %expand_shape_614 : memref<1x1x2048x128xf32, strided<[262144, 262144, 128, 1], offset: 6751260672>> to memref<1x1x2048x128xf32, strided<[262144, 262144, 128, 1], offset: ?>>
    %cast_914 = memref.cast %expand_shape_408 : memref<4096x4096xf32, strided<[4096, 1], offset: 5038673920>> to memref<4096x4096xf32, strided<[4096, 1], offset: ?>>
    %cast_915 = memref.cast %subview_48 : memref<4096xf32, strided<[1], offset: 200704>> to memref<4096xf32, strided<[1], offset: ?>>
    %cast_916 = memref.cast %expand_shape_410 : memref<11008x4096xf32, strided<[4096, 1], offset: 5055451136>> to memref<11008x4096xf32, strided<[4096, 1], offset: ?>>
    %cast_917 = memref.cast %expand_shape_412 : memref<11008x4096xf32, strided<[4096, 1], offset: 5100539904>> to memref<11008x4096xf32, strided<[4096, 1], offset: ?>>
    %cast_918 = memref.cast %expand_shape_414 : memref<4096x11008xf32, strided<[11008, 1], offset: 5145628672>> to memref<4096x11008xf32, strided<[11008, 1], offset: ?>>
    %cast_919 = memref.cast %subview_49 : memref<4096xf32, strided<[1], offset: 204800>> to memref<4096xf32, strided<[1], offset: ?>>
    %cast_920 = memref.cast %expand_shape_416 : memref<4096x4096xf32, strided<[4096, 1], offset: 5190717440>> to memref<4096x4096xf32, strided<[4096, 1], offset: ?>>
    %cast_921 = memref.cast %expand_shape_418 : memref<4096x4096xf32, strided<[4096, 1], offset: 5207494656>> to memref<4096x4096xf32, strided<[4096, 1], offset: ?>>
    %cast_922 = memref.cast %expand_shape_420 : memref<4096x4096xf32, strided<[4096, 1], offset: 5224271872>> to memref<4096x4096xf32, strided<[4096, 1], offset: ?>>
    %cast_923 = memref.cast %expand_shape_616 : memref<1x1x2048x128xf32, strided<[262144, 262144, 128, 1], offset: 6751522816>> to memref<1x1x2048x128xf32, strided<[262144, 262144, 128, 1], offset: ?>>
    %cast_924 = memref.cast %expand_shape_618 : memref<1x1x2048x128xf32, strided<[262144, 262144, 128, 1], offset: 6751784960>> to memref<1x1x2048x128xf32, strided<[262144, 262144, 128, 1], offset: ?>>
    %cast_925 = memref.cast %expand_shape_422 : memref<4096x4096xf32, strided<[4096, 1], offset: 5241049088>> to memref<4096x4096xf32, strided<[4096, 1], offset: ?>>
    %cast_926 = memref.cast %subview_50 : memref<4096xf32, strided<[1], offset: 208896>> to memref<4096xf32, strided<[1], offset: ?>>
    %cast_927 = memref.cast %expand_shape_424 : memref<11008x4096xf32, strided<[4096, 1], offset: 5257826304>> to memref<11008x4096xf32, strided<[4096, 1], offset: ?>>
    %cast_928 = memref.cast %expand_shape_426 : memref<11008x4096xf32, strided<[4096, 1], offset: 5302915072>> to memref<11008x4096xf32, strided<[4096, 1], offset: ?>>
    %cast_929 = memref.cast %expand_shape_428 : memref<4096x11008xf32, strided<[11008, 1], offset: 5348003840>> to memref<4096x11008xf32, strided<[11008, 1], offset: ?>>
    %cast_930 = memref.cast %subview_51 : memref<4096xf32, strided<[1], offset: 212992>> to memref<4096xf32, strided<[1], offset: ?>>
    %cast_931 = memref.cast %expand_shape_430 : memref<4096x4096xf32, strided<[4096, 1], offset: 5393092608>> to memref<4096x4096xf32, strided<[4096, 1], offset: ?>>
    %cast_932 = memref.cast %expand_shape_432 : memref<4096x4096xf32, strided<[4096, 1], offset: 5409869824>> to memref<4096x4096xf32, strided<[4096, 1], offset: ?>>
    %cast_933 = memref.cast %expand_shape_434 : memref<4096x4096xf32, strided<[4096, 1], offset: 5426647040>> to memref<4096x4096xf32, strided<[4096, 1], offset: ?>>
    %cast_934 = memref.cast %expand_shape_620 : memref<1x1x2048x128xf32, strided<[262144, 262144, 128, 1], offset: 6752047104>> to memref<1x1x2048x128xf32, strided<[262144, 262144, 128, 1], offset: ?>>
    %cast_935 = memref.cast %expand_shape_622 : memref<1x1x2048x128xf32, strided<[262144, 262144, 128, 1], offset: 6752309248>> to memref<1x1x2048x128xf32, strided<[262144, 262144, 128, 1], offset: ?>>
    %cast_936 = memref.cast %expand_shape_436 : memref<4096x4096xf32, strided<[4096, 1], offset: 5443424256>> to memref<4096x4096xf32, strided<[4096, 1], offset: ?>>
    %cast_937 = memref.cast %subview_52 : memref<4096xf32, strided<[1], offset: 217088>> to memref<4096xf32, strided<[1], offset: ?>>
    %cast_938 = memref.cast %expand_shape_438 : memref<11008x4096xf32, strided<[4096, 1], offset: 5460201472>> to memref<11008x4096xf32, strided<[4096, 1], offset: ?>>
    %cast_939 = memref.cast %expand_shape_440 : memref<11008x4096xf32, strided<[4096, 1], offset: 5505290240>> to memref<11008x4096xf32, strided<[4096, 1], offset: ?>>
    %cast_940 = memref.cast %expand_shape_442 : memref<4096x11008xf32, strided<[11008, 1], offset: 5550379008>> to memref<4096x11008xf32, strided<[11008, 1], offset: ?>>
    %cast_941 = memref.cast %subview_53 : memref<4096xf32, strided<[1], offset: 221184>> to memref<4096xf32, strided<[1], offset: ?>>
    %cast_942 = memref.cast %expand_shape_444 : memref<4096x4096xf32, strided<[4096, 1], offset: 5595467776>> to memref<4096x4096xf32, strided<[4096, 1], offset: ?>>
    %cast_943 = memref.cast %expand_shape_446 : memref<4096x4096xf32, strided<[4096, 1], offset: 5612244992>> to memref<4096x4096xf32, strided<[4096, 1], offset: ?>>
    %cast_944 = memref.cast %expand_shape_448 : memref<4096x4096xf32, strided<[4096, 1], offset: 5629022208>> to memref<4096x4096xf32, strided<[4096, 1], offset: ?>>
    %cast_945 = memref.cast %expand_shape_624 : memref<1x1x2048x128xf32, strided<[262144, 262144, 128, 1], offset: 6752571392>> to memref<1x1x2048x128xf32, strided<[262144, 262144, 128, 1], offset: ?>>
    %cast_946 = memref.cast %expand_shape_626 : memref<1x1x2048x128xf32, strided<[262144, 262144, 128, 1], offset: 6752833536>> to memref<1x1x2048x128xf32, strided<[262144, 262144, 128, 1], offset: ?>>
    %cast_947 = memref.cast %expand_shape_450 : memref<4096x4096xf32, strided<[4096, 1], offset: 5645799424>> to memref<4096x4096xf32, strided<[4096, 1], offset: ?>>
    %cast_948 = memref.cast %subview_54 : memref<4096xf32, strided<[1], offset: 225280>> to memref<4096xf32, strided<[1], offset: ?>>
    %cast_949 = memref.cast %expand_shape_452 : memref<11008x4096xf32, strided<[4096, 1], offset: 5662576640>> to memref<11008x4096xf32, strided<[4096, 1], offset: ?>>
    %cast_950 = memref.cast %expand_shape_454 : memref<11008x4096xf32, strided<[4096, 1], offset: 5707665408>> to memref<11008x4096xf32, strided<[4096, 1], offset: ?>>
    %cast_951 = memref.cast %expand_shape_456 : memref<4096x11008xf32, strided<[11008, 1], offset: 5752754176>> to memref<4096x11008xf32, strided<[11008, 1], offset: ?>>
    %cast_952 = memref.cast %subview_55 : memref<4096xf32, strided<[1], offset: 229376>> to memref<4096xf32, strided<[1], offset: ?>>
    %cast_953 = memref.cast %expand_shape_458 : memref<4096x4096xf32, strided<[4096, 1], offset: 5797842944>> to memref<4096x4096xf32, strided<[4096, 1], offset: ?>>
    %cast_954 = memref.cast %expand_shape_460 : memref<4096x4096xf32, strided<[4096, 1], offset: 5814620160>> to memref<4096x4096xf32, strided<[4096, 1], offset: ?>>
    %cast_955 = memref.cast %expand_shape_462 : memref<4096x4096xf32, strided<[4096, 1], offset: 5831397376>> to memref<4096x4096xf32, strided<[4096, 1], offset: ?>>
    %cast_956 = memref.cast %expand_shape_628 : memref<1x1x2048x128xf32, strided<[262144, 262144, 128, 1], offset: 6753095680>> to memref<1x1x2048x128xf32, strided<[262144, 262144, 128, 1], offset: ?>>
    %cast_957 = memref.cast %expand_shape_630 : memref<1x1x2048x128xf32, strided<[262144, 262144, 128, 1], offset: 6753357824>> to memref<1x1x2048x128xf32, strided<[262144, 262144, 128, 1], offset: ?>>
    %cast_958 = memref.cast %expand_shape_464 : memref<4096x4096xf32, strided<[4096, 1], offset: 5848174592>> to memref<4096x4096xf32, strided<[4096, 1], offset: ?>>
    %cast_959 = memref.cast %subview_56 : memref<4096xf32, strided<[1], offset: 233472>> to memref<4096xf32, strided<[1], offset: ?>>
    %cast_960 = memref.cast %expand_shape_466 : memref<11008x4096xf32, strided<[4096, 1], offset: 5864951808>> to memref<11008x4096xf32, strided<[4096, 1], offset: ?>>
    %cast_961 = memref.cast %expand_shape_468 : memref<11008x4096xf32, strided<[4096, 1], offset: 5910040576>> to memref<11008x4096xf32, strided<[4096, 1], offset: ?>>
    %cast_962 = memref.cast %expand_shape_470 : memref<4096x11008xf32, strided<[11008, 1], offset: 5955129344>> to memref<4096x11008xf32, strided<[11008, 1], offset: ?>>
    %cast_963 = memref.cast %subview_57 : memref<4096xf32, strided<[1], offset: 237568>> to memref<4096xf32, strided<[1], offset: ?>>
    %cast_964 = memref.cast %expand_shape_472 : memref<4096x4096xf32, strided<[4096, 1], offset: 6000218112>> to memref<4096x4096xf32, strided<[4096, 1], offset: ?>>
    %cast_965 = memref.cast %expand_shape_474 : memref<4096x4096xf32, strided<[4096, 1], offset: 6016995328>> to memref<4096x4096xf32, strided<[4096, 1], offset: ?>>
    %cast_966 = memref.cast %expand_shape_476 : memref<4096x4096xf32, strided<[4096, 1], offset: 6033772544>> to memref<4096x4096xf32, strided<[4096, 1], offset: ?>>
    %cast_967 = memref.cast %expand_shape_632 : memref<1x1x2048x128xf32, strided<[262144, 262144, 128, 1], offset: 6753619968>> to memref<1x1x2048x128xf32, strided<[262144, 262144, 128, 1], offset: ?>>
    %cast_968 = memref.cast %expand_shape_634 : memref<1x1x2048x128xf32, strided<[262144, 262144, 128, 1], offset: 6753882112>> to memref<1x1x2048x128xf32, strided<[262144, 262144, 128, 1], offset: ?>>
    %cast_969 = memref.cast %expand_shape_478 : memref<4096x4096xf32, strided<[4096, 1], offset: 6050549760>> to memref<4096x4096xf32, strided<[4096, 1], offset: ?>>
    %cast_970 = memref.cast %subview_58 : memref<4096xf32, strided<[1], offset: 241664>> to memref<4096xf32, strided<[1], offset: ?>>
    %cast_971 = memref.cast %expand_shape_480 : memref<11008x4096xf32, strided<[4096, 1], offset: 6067326976>> to memref<11008x4096xf32, strided<[4096, 1], offset: ?>>
    %cast_972 = memref.cast %expand_shape_482 : memref<11008x4096xf32, strided<[4096, 1], offset: 6112415744>> to memref<11008x4096xf32, strided<[4096, 1], offset: ?>>
    %cast_973 = memref.cast %expand_shape_484 : memref<4096x11008xf32, strided<[11008, 1], offset: 6157504512>> to memref<4096x11008xf32, strided<[11008, 1], offset: ?>>
    %cast_974 = memref.cast %subview_59 : memref<4096xf32, strided<[1], offset: 245760>> to memref<4096xf32, strided<[1], offset: ?>>
    %cast_975 = memref.cast %expand_shape_486 : memref<4096x4096xf32, strided<[4096, 1], offset: 6202593280>> to memref<4096x4096xf32, strided<[4096, 1], offset: ?>>
    %cast_976 = memref.cast %expand_shape_488 : memref<4096x4096xf32, strided<[4096, 1], offset: 6219370496>> to memref<4096x4096xf32, strided<[4096, 1], offset: ?>>
    %cast_977 = memref.cast %expand_shape_490 : memref<4096x4096xf32, strided<[4096, 1], offset: 6236147712>> to memref<4096x4096xf32, strided<[4096, 1], offset: ?>>
    %cast_978 = memref.cast %expand_shape_636 : memref<1x1x2048x128xf32, strided<[262144, 262144, 128, 1], offset: 6754144256>> to memref<1x1x2048x128xf32, strided<[262144, 262144, 128, 1], offset: ?>>
    %cast_979 = memref.cast %expand_shape_638 : memref<1x1x2048x128xf32, strided<[262144, 262144, 128, 1], offset: 6754406400>> to memref<1x1x2048x128xf32, strided<[262144, 262144, 128, 1], offset: ?>>
    %cast_980 = memref.cast %expand_shape_492 : memref<4096x4096xf32, strided<[4096, 1], offset: 6252924928>> to memref<4096x4096xf32, strided<[4096, 1], offset: ?>>
    %cast_981 = memref.cast %subview_60 : memref<4096xf32, strided<[1], offset: 249856>> to memref<4096xf32, strided<[1], offset: ?>>
    %cast_982 = memref.cast %expand_shape_494 : memref<11008x4096xf32, strided<[4096, 1], offset: 6269702144>> to memref<11008x4096xf32, strided<[4096, 1], offset: ?>>
    %cast_983 = memref.cast %expand_shape_496 : memref<11008x4096xf32, strided<[4096, 1], offset: 6314790912>> to memref<11008x4096xf32, strided<[4096, 1], offset: ?>>
    %cast_984 = memref.cast %expand_shape_498 : memref<4096x11008xf32, strided<[11008, 1], offset: 6359879680>> to memref<4096x11008xf32, strided<[11008, 1], offset: ?>>
    %cast_985 = memref.cast %subview_61 : memref<4096xf32, strided<[1], offset: 253952>> to memref<4096xf32, strided<[1], offset: ?>>
    %cast_986 = memref.cast %expand_shape_500 : memref<4096x4096xf32, strided<[4096, 1], offset: 6404968448>> to memref<4096x4096xf32, strided<[4096, 1], offset: ?>>
    %cast_987 = memref.cast %expand_shape_502 : memref<4096x4096xf32, strided<[4096, 1], offset: 6421745664>> to memref<4096x4096xf32, strided<[4096, 1], offset: ?>>
    %cast_988 = memref.cast %expand_shape_504 : memref<4096x4096xf32, strided<[4096, 1], offset: 6438522880>> to memref<4096x4096xf32, strided<[4096, 1], offset: ?>>
    %cast_989 = memref.cast %expand_shape_640 : memref<1x1x2048x128xf32, strided<[262144, 262144, 128, 1], offset: 6754668544>> to memref<1x1x2048x128xf32, strided<[262144, 262144, 128, 1], offset: ?>>
    %cast_990 = memref.cast %expand_shape_642 : memref<1x1x2048x128xf32, strided<[262144, 262144, 128, 1], offset: 6754930688>> to memref<1x1x2048x128xf32, strided<[262144, 262144, 128, 1], offset: ?>>
    %cast_991 = memref.cast %expand_shape_506 : memref<4096x4096xf32, strided<[4096, 1], offset: 6455300096>> to memref<4096x4096xf32, strided<[4096, 1], offset: ?>>
    %cast_992 = memref.cast %subview_62 : memref<4096xf32, strided<[1], offset: 258048>> to memref<4096xf32, strided<[1], offset: ?>>
    %cast_993 = memref.cast %expand_shape_508 : memref<11008x4096xf32, strided<[4096, 1], offset: 6472077312>> to memref<11008x4096xf32, strided<[4096, 1], offset: ?>>
    %cast_994 = memref.cast %expand_shape_510 : memref<11008x4096xf32, strided<[4096, 1], offset: 6517166080>> to memref<11008x4096xf32, strided<[4096, 1], offset: ?>>
    %cast_995 = memref.cast %expand_shape_512 : memref<4096x11008xf32, strided<[11008, 1], offset: 6562254848>> to memref<4096x11008xf32, strided<[11008, 1], offset: ?>>
    %cast_996 = memref.cast %subview_63 : memref<4096xf32, strided<[1], offset: 262144>> to memref<4096xf32, strided<[1], offset: ?>>
    %cast_997 = memref.cast %expand_shape_514 : memref<32000x4096xf32, strided<[4096, 1], offset: 6607343616>> to memref<32000x4096xf32, strided<[4096, 1], offset: ?>>
    %0:2 = call @subgraph0(%cast, %cast_643, %cast_644, %cast_645, %cast_646, %cast_647, %cast_648, %cast_649, %cast_650, %cast_651, %cast_652, %cast_653, %cast_654, %cast_655, %cast_656, %cast_657, %cast_658, %cast_659, %cast_660, %cast_661, %cast_662, %cast_663, %cast_664, %cast_665, %cast_666, %cast_667, %cast_668, %cast_669, %cast_670, %cast_671, %cast_672, %cast_673, %cast_674, %cast_675, %cast_676, %cast_677, %cast_678, %cast_679, %cast_680, %cast_681, %cast_682, %cast_683, %cast_684, %cast_685, %cast_686, %cast_687, %cast_688, %cast_689, %cast_690, %cast_691, %cast_692, %cast_693, %cast_694, %cast_695, %cast_696, %cast_697, %cast_698, %cast_699, %cast_700, %cast_701, %cast_702, %cast_703, %cast_704, %cast_705, %cast_706, %cast_707, %cast_708, %cast_709, %cast_710, %cast_711, %cast_712, %cast_713, %cast_714, %cast_715, %cast_716, %cast_717, %cast_718, %cast_719, %cast_720, %cast_721, %cast_722, %cast_723, %cast_724, %cast_725, %cast_726, %cast_727, %cast_728, %cast_729, %cast_730, %cast_731, %cast_732, %cast_733, %cast_734, %cast_735, %cast_736, %cast_737, %cast_738, %cast_739, %cast_740, %cast_741, %cast_742, %cast_743, %cast_744, %cast_745, %cast_746, %cast_747, %cast_748, %cast_749, %cast_750, %cast_751, %cast_752, %cast_753, %cast_754, %cast_755, %cast_756, %cast_757, %cast_758, %cast_759, %cast_760, %cast_761, %cast_762, %cast_763, %cast_764, %cast_765, %cast_766, %cast_767, %cast_768, %cast_769, %cast_770, %cast_771, %cast_772, %cast_773, %cast_774, %cast_775, %cast_776, %cast_777, %cast_778, %cast_779, %cast_780, %cast_781, %cast_782, %cast_783, %cast_784, %cast_785, %cast_786, %cast_787, %cast_788, %cast_789, %cast_790, %cast_791, %cast_792, %cast_793, %cast_794, %cast_795, %cast_796, %cast_797, %cast_798, %cast_799, %cast_800, %cast_801, %cast_802, %cast_803, %cast_804, %cast_805, %cast_806, %cast_807, %cast_808, %cast_809, %cast_810, %cast_811, %cast_812, %cast_813, %cast_814, %cast_815, %cast_816, %cast_817, %cast_818, %cast_819, %cast_820, %cast_821, %cast_822, %cast_823, %cast_824, %cast_825, %cast_826, %cast_827, %cast_828, %cast_829, %cast_830, %cast_831, %cast_832, %cast_833, %cast_834, %cast_835, %cast_836, %cast_837, %cast_838, %cast_839, %cast_840, %cast_841, %cast_842, %cast_843, %cast_844, %cast_845, %cast_846, %cast_847, %cast_848, %cast_849, %cast_850, %cast_851, %cast_852, %cast_853, %cast_854, %cast_855, %cast_856, %cast_857, %cast_858, %cast_859, %cast_860, %cast_861, %cast_862, %cast_863, %cast_864, %cast_865, %cast_866, %cast_867, %cast_868, %cast_869, %cast_870, %cast_871, %cast_872, %cast_873, %cast_874, %cast_875, %cast_876, %cast_877, %cast_878, %cast_879, %cast_880, %cast_881, %cast_882, %cast_883, %cast_884, %cast_885, %cast_886, %cast_887, %cast_888, %cast_889, %cast_890, %cast_891, %cast_892, %cast_893, %cast_894, %cast_895, %cast_896, %cast_897, %cast_898, %cast_899, %cast_900, %cast_901, %cast_902, %cast_903, %cast_904, %cast_905, %cast_906, %cast_907, %cast_908, %cast_909, %cast_910, %cast_911, %cast_912, %cast_913, %cast_914, %cast_915, %cast_916, %cast_917, %cast_918, %cast_919, %cast_920, %cast_921, %cast_922, %cast_923, %cast_924, %cast_925, %cast_926, %cast_927, %cast_928, %cast_929, %cast_930, %cast_931, %cast_932, %cast_933, %cast_934, %cast_935, %cast_936, %cast_937, %cast_938, %cast_939, %cast_940, %cast_941, %cast_942, %cast_943, %cast_944, %cast_945, %cast_946, %cast_947, %cast_948, %cast_949, %cast_950, %cast_951, %cast_952, %cast_953, %cast_954, %cast_955, %cast_956, %cast_957, %cast_958, %cast_959, %cast_960, %cast_961, %cast_962, %cast_963, %cast_964, %cast_965, %cast_966, %cast_967, %cast_968, %cast_969, %cast_970, %cast_971, %cast_972, %cast_973, %cast_974, %cast_975, %cast_976, %cast_977, %cast_978, %cast_979, %cast_980, %cast_981, %cast_982, %cast_983, %cast_984, %cast_985, %cast_986, %cast_987, %cast_988, %cast_989, %cast_990, %cast_991, %cast_992, %cast_993, %cast_994, %cast_995, %cast_996, %cast_997) : (memref<32000x4096xf32, strided<[4096, 1], offset: ?>>, memref<1x40xi64, strided<[40, 1], offset: ?>>, memref<4096xf32, strided<[1], offset: ?>>, memref<4096x4096xf32, strided<[4096, 1], offset: ?>>, memref<4096x4096xf32, strided<[4096, 1], offset: ?>>, memref<4096x4096xf32, strided<[4096, 1], offset: ?>>, memref<1x1x2048x128xf32, strided<[262144, 262144, 128, 1], offset: ?>>, memref<1x1x2048x128xf32, strided<[262144, 262144, 128, 1], offset: ?>>, memref<4096x4096xf32, strided<[4096, 1], offset: ?>>, memref<4096xf32, strided<[1], offset: ?>>, memref<11008x4096xf32, strided<[4096, 1], offset: ?>>, memref<11008x4096xf32, strided<[4096, 1], offset: ?>>, memref<4096x11008xf32, strided<[11008, 1], offset: ?>>, memref<4096xf32, strided<[1], offset: ?>>, memref<4096x4096xf32, strided<[4096, 1], offset: ?>>, memref<4096x4096xf32, strided<[4096, 1], offset: ?>>, memref<4096x4096xf32, strided<[4096, 1], offset: ?>>, memref<1x1x2048x128xf32, strided<[262144, 262144, 128, 1], offset: ?>>, memref<1x1x2048x128xf32, strided<[262144, 262144, 128, 1], offset: ?>>, memref<4096x4096xf32, strided<[4096, 1], offset: ?>>, memref<4096xf32, strided<[1], offset: ?>>, memref<11008x4096xf32, strided<[4096, 1], offset: ?>>, memref<11008x4096xf32, strided<[4096, 1], offset: ?>>, memref<4096x11008xf32, strided<[11008, 1], offset: ?>>, memref<4096xf32, strided<[1], offset: ?>>, memref<4096x4096xf32, strided<[4096, 1], offset: ?>>, memref<4096x4096xf32, strided<[4096, 1], offset: ?>>, memref<4096x4096xf32, strided<[4096, 1], offset: ?>>, memref<1x1x2048x128xf32, strided<[262144, 262144, 128, 1], offset: ?>>, memref<1x1x2048x128xf32, strided<[262144, 262144, 128, 1], offset: ?>>, memref<4096x4096xf32, strided<[4096, 1], offset: ?>>, memref<4096xf32, strided<[1], offset: ?>>, memref<11008x4096xf32, strided<[4096, 1], offset: ?>>, memref<11008x4096xf32, strided<[4096, 1], offset: ?>>, memref<4096x11008xf32, strided<[11008, 1], offset: ?>>, memref<4096xf32, strided<[1], offset: ?>>, memref<4096x4096xf32, strided<[4096, 1], offset: ?>>, memref<4096x4096xf32, strided<[4096, 1], offset: ?>>, memref<4096x4096xf32, strided<[4096, 1], offset: ?>>, memref<1x1x2048x128xf32, strided<[262144, 262144, 128, 1], offset: ?>>, memref<1x1x2048x128xf32, strided<[262144, 262144, 128, 1], offset: ?>>, memref<4096x4096xf32, strided<[4096, 1], offset: ?>>, memref<4096xf32, strided<[1], offset: ?>>, memref<11008x4096xf32, strided<[4096, 1], offset: ?>>, memref<11008x4096xf32, strided<[4096, 1], offset: ?>>, memref<4096x11008xf32, strided<[11008, 1], offset: ?>>, memref<4096xf32, strided<[1], offset: ?>>, memref<4096x4096xf32, strided<[4096, 1], offset: ?>>, memref<4096x4096xf32, strided<[4096, 1], offset: ?>>, memref<4096x4096xf32, strided<[4096, 1], offset: ?>>, memref<1x1x2048x128xf32, strided<[262144, 262144, 128, 1], offset: ?>>, memref<1x1x2048x128xf32, strided<[262144, 262144, 128, 1], offset: ?>>, memref<4096x4096xf32, strided<[4096, 1], offset: ?>>, memref<4096xf32, strided<[1], offset: ?>>, memref<11008x4096xf32, strided<[4096, 1], offset: ?>>, memref<11008x4096xf32, strided<[4096, 1], offset: ?>>, memref<4096x11008xf32, strided<[11008, 1], offset: ?>>, memref<4096xf32, strided<[1], offset: ?>>, memref<4096x4096xf32, strided<[4096, 1], offset: ?>>, memref<4096x4096xf32, strided<[4096, 1], offset: ?>>, memref<4096x4096xf32, strided<[4096, 1], offset: ?>>, memref<1x1x2048x128xf32, strided<[262144, 262144, 128, 1], offset: ?>>, memref<1x1x2048x128xf32, strided<[262144, 262144, 128, 1], offset: ?>>, memref<4096x4096xf32, strided<[4096, 1], offset: ?>>, memref<4096xf32, strided<[1], offset: ?>>, memref<11008x4096xf32, strided<[4096, 1], offset: ?>>, memref<11008x4096xf32, strided<[4096, 1], offset: ?>>, memref<4096x11008xf32, strided<[11008, 1], offset: ?>>, memref<4096xf32, strided<[1], offset: ?>>, memref<4096x4096xf32, strided<[4096, 1], offset: ?>>, memref<4096x4096xf32, strided<[4096, 1], offset: ?>>, memref<4096x4096xf32, strided<[4096, 1], offset: ?>>, memref<1x1x2048x128xf32, strided<[262144, 262144, 128, 1], offset: ?>>, memref<1x1x2048x128xf32, strided<[262144, 262144, 128, 1], offset: ?>>, memref<4096x4096xf32, strided<[4096, 1], offset: ?>>, memref<4096xf32, strided<[1], offset: ?>>, memref<11008x4096xf32, strided<[4096, 1], offset: ?>>, memref<11008x4096xf32, strided<[4096, 1], offset: ?>>, memref<4096x11008xf32, strided<[11008, 1], offset: ?>>, memref<4096xf32, strided<[1], offset: ?>>, memref<4096x4096xf32, strided<[4096, 1], offset: ?>>, memref<4096x4096xf32, strided<[4096, 1], offset: ?>>, memref<4096x4096xf32, strided<[4096, 1], offset: ?>>, memref<1x1x2048x128xf32, strided<[262144, 262144, 128, 1], offset: ?>>, memref<1x1x2048x128xf32, strided<[262144, 262144, 128, 1], offset: ?>>, memref<4096x4096xf32, strided<[4096, 1], offset: ?>>, memref<4096xf32, strided<[1], offset: ?>>, memref<11008x4096xf32, strided<[4096, 1], offset: ?>>, memref<11008x4096xf32, strided<[4096, 1], offset: ?>>, memref<4096x11008xf32, strided<[11008, 1], offset: ?>>, memref<4096xf32, strided<[1], offset: ?>>, memref<4096x4096xf32, strided<[4096, 1], offset: ?>>, memref<4096x4096xf32, strided<[4096, 1], offset: ?>>, memref<4096x4096xf32, strided<[4096, 1], offset: ?>>, memref<1x1x2048x128xf32, strided<[262144, 262144, 128, 1], offset: ?>>, memref<1x1x2048x128xf32, strided<[262144, 262144, 128, 1], offset: ?>>, memref<4096x4096xf32, strided<[4096, 1], offset: ?>>, memref<4096xf32, strided<[1], offset: ?>>, memref<11008x4096xf32, strided<[4096, 1], offset: ?>>, memref<11008x4096xf32, strided<[4096, 1], offset: ?>>, memref<4096x11008xf32, strided<[11008, 1], offset: ?>>, memref<4096xf32, strided<[1], offset: ?>>, memref<4096x4096xf32, strided<[4096, 1], offset: ?>>, memref<4096x4096xf32, strided<[4096, 1], offset: ?>>, memref<4096x4096xf32, strided<[4096, 1], offset: ?>>, memref<1x1x2048x128xf32, strided<[262144, 262144, 128, 1], offset: ?>>, memref<1x1x2048x128xf32, strided<[262144, 262144, 128, 1], offset: ?>>, memref<4096x4096xf32, strided<[4096, 1], offset: ?>>, memref<4096xf32, strided<[1], offset: ?>>, memref<11008x4096xf32, strided<[4096, 1], offset: ?>>, memref<11008x4096xf32, strided<[4096, 1], offset: ?>>, memref<4096x11008xf32, strided<[11008, 1], offset: ?>>, memref<4096xf32, strided<[1], offset: ?>>, memref<4096x4096xf32, strided<[4096, 1], offset: ?>>, memref<4096x4096xf32, strided<[4096, 1], offset: ?>>, memref<4096x4096xf32, strided<[4096, 1], offset: ?>>, memref<1x1x2048x128xf32, strided<[262144, 262144, 128, 1], offset: ?>>, memref<1x1x2048x128xf32, strided<[262144, 262144, 128, 1], offset: ?>>, memref<4096x4096xf32, strided<[4096, 1], offset: ?>>, memref<4096xf32, strided<[1], offset: ?>>, memref<11008x4096xf32, strided<[4096, 1], offset: ?>>, memref<11008x4096xf32, strided<[4096, 1], offset: ?>>, memref<4096x11008xf32, strided<[11008, 1], offset: ?>>, memref<4096xf32, strided<[1], offset: ?>>, memref<4096x4096xf32, strided<[4096, 1], offset: ?>>, memref<4096x4096xf32, strided<[4096, 1], offset: ?>>, memref<4096x4096xf32, strided<[4096, 1], offset: ?>>, memref<1x1x2048x128xf32, strided<[262144, 262144, 128, 1], offset: ?>>, memref<1x1x2048x128xf32, strided<[262144, 262144, 128, 1], offset: ?>>, memref<4096x4096xf32, strided<[4096, 1], offset: ?>>, memref<4096xf32, strided<[1], offset: ?>>, memref<11008x4096xf32, strided<[4096, 1], offset: ?>>, memref<11008x4096xf32, strided<[4096, 1], offset: ?>>, memref<4096x11008xf32, strided<[11008, 1], offset: ?>>, memref<4096xf32, strided<[1], offset: ?>>, memref<4096x4096xf32, strided<[4096, 1], offset: ?>>, memref<4096x4096xf32, strided<[4096, 1], offset: ?>>, memref<4096x4096xf32, strided<[4096, 1], offset: ?>>, memref<1x1x2048x128xf32, strided<[262144, 262144, 128, 1], offset: ?>>, memref<1x1x2048x128xf32, strided<[262144, 262144, 128, 1], offset: ?>>, memref<4096x4096xf32, strided<[4096, 1], offset: ?>>, memref<4096xf32, strided<[1], offset: ?>>, memref<11008x4096xf32, strided<[4096, 1], offset: ?>>, memref<11008x4096xf32, strided<[4096, 1], offset: ?>>, memref<4096x11008xf32, strided<[11008, 1], offset: ?>>, memref<4096xf32, strided<[1], offset: ?>>, memref<4096x4096xf32, strided<[4096, 1], offset: ?>>, memref<4096x4096xf32, strided<[4096, 1], offset: ?>>, memref<4096x4096xf32, strided<[4096, 1], offset: ?>>, memref<1x1x2048x128xf32, strided<[262144, 262144, 128, 1], offset: ?>>, memref<1x1x2048x128xf32, strided<[262144, 262144, 128, 1], offset: ?>>, memref<4096x4096xf32, strided<[4096, 1], offset: ?>>, memref<4096xf32, strided<[1], offset: ?>>, memref<11008x4096xf32, strided<[4096, 1], offset: ?>>, memref<11008x4096xf32, strided<[4096, 1], offset: ?>>, memref<4096x11008xf32, strided<[11008, 1], offset: ?>>, memref<4096xf32, strided<[1], offset: ?>>, memref<4096x4096xf32, strided<[4096, 1], offset: ?>>, memref<4096x4096xf32, strided<[4096, 1], offset: ?>>, memref<4096x4096xf32, strided<[4096, 1], offset: ?>>, memref<1x1x2048x128xf32, strided<[262144, 262144, 128, 1], offset: ?>>, memref<1x1x2048x128xf32, strided<[262144, 262144, 128, 1], offset: ?>>, memref<4096x4096xf32, strided<[4096, 1], offset: ?>>, memref<4096xf32, strided<[1], offset: ?>>, memref<11008x4096xf32, strided<[4096, 1], offset: ?>>, memref<11008x4096xf32, strided<[4096, 1], offset: ?>>, memref<4096x11008xf32, strided<[11008, 1], offset: ?>>, memref<4096xf32, strided<[1], offset: ?>>, memref<4096x4096xf32, strided<[4096, 1], offset: ?>>, memref<4096x4096xf32, strided<[4096, 1], offset: ?>>, memref<4096x4096xf32, strided<[4096, 1], offset: ?>>, memref<1x1x2048x128xf32, strided<[262144, 262144, 128, 1], offset: ?>>, memref<1x1x2048x128xf32, strided<[262144, 262144, 128, 1], offset: ?>>, memref<4096x4096xf32, strided<[4096, 1], offset: ?>>, memref<4096xf32, strided<[1], offset: ?>>, memref<11008x4096xf32, strided<[4096, 1], offset: ?>>, memref<11008x4096xf32, strided<[4096, 1], offset: ?>>, memref<4096x11008xf32, strided<[11008, 1], offset: ?>>, memref<4096xf32, strided<[1], offset: ?>>, memref<4096x4096xf32, strided<[4096, 1], offset: ?>>, memref<4096x4096xf32, strided<[4096, 1], offset: ?>>, memref<4096x4096xf32, strided<[4096, 1], offset: ?>>, memref<1x1x2048x128xf32, strided<[262144, 262144, 128, 1], offset: ?>>, memref<1x1x2048x128xf32, strided<[262144, 262144, 128, 1], offset: ?>>, memref<4096x4096xf32, strided<[4096, 1], offset: ?>>, memref<4096xf32, strided<[1], offset: ?>>, memref<11008x4096xf32, strided<[4096, 1], offset: ?>>, memref<11008x4096xf32, strided<[4096, 1], offset: ?>>, memref<4096x11008xf32, strided<[11008, 1], offset: ?>>, memref<4096xf32, strided<[1], offset: ?>>, memref<4096x4096xf32, strided<[4096, 1], offset: ?>>, memref<4096x4096xf32, strided<[4096, 1], offset: ?>>, memref<4096x4096xf32, strided<[4096, 1], offset: ?>>, memref<1x1x2048x128xf32, strided<[262144, 262144, 128, 1], offset: ?>>, memref<1x1x2048x128xf32, strided<[262144, 262144, 128, 1], offset: ?>>, memref<4096x4096xf32, strided<[4096, 1], offset: ?>>, memref<4096xf32, strided<[1], offset: ?>>, memref<11008x4096xf32, strided<[4096, 1], offset: ?>>, memref<11008x4096xf32, strided<[4096, 1], offset: ?>>, memref<4096x11008xf32, strided<[11008, 1], offset: ?>>, memref<4096xf32, strided<[1], offset: ?>>, memref<4096x4096xf32, strided<[4096, 1], offset: ?>>, memref<4096x4096xf32, strided<[4096, 1], offset: ?>>, memref<4096x4096xf32, strided<[4096, 1], offset: ?>>, memref<1x1x2048x128xf32, strided<[262144, 262144, 128, 1], offset: ?>>, memref<1x1x2048x128xf32, strided<[262144, 262144, 128, 1], offset: ?>>, memref<4096x4096xf32, strided<[4096, 1], offset: ?>>, memref<4096xf32, strided<[1], offset: ?>>, memref<11008x4096xf32, strided<[4096, 1], offset: ?>>, memref<11008x4096xf32, strided<[4096, 1], offset: ?>>, memref<4096x11008xf32, strided<[11008, 1], offset: ?>>, memref<4096xf32, strided<[1], offset: ?>>, memref<4096x4096xf32, strided<[4096, 1], offset: ?>>, memref<4096x4096xf32, strided<[4096, 1], offset: ?>>, memref<4096x4096xf32, strided<[4096, 1], offset: ?>>, memref<1x1x2048x128xf32, strided<[262144, 262144, 128, 1], offset: ?>>, memref<1x1x2048x128xf32, strided<[262144, 262144, 128, 1], offset: ?>>, memref<4096x4096xf32, strided<[4096, 1], offset: ?>>, memref<4096xf32, strided<[1], offset: ?>>, memref<11008x4096xf32, strided<[4096, 1], offset: ?>>, memref<11008x4096xf32, strided<[4096, 1], offset: ?>>, memref<4096x11008xf32, strided<[11008, 1], offset: ?>>, memref<4096xf32, strided<[1], offset: ?>>, memref<4096x4096xf32, strided<[4096, 1], offset: ?>>, memref<4096x4096xf32, strided<[4096, 1], offset: ?>>, memref<4096x4096xf32, strided<[4096, 1], offset: ?>>, memref<1x1x2048x128xf32, strided<[262144, 262144, 128, 1], offset: ?>>, memref<1x1x2048x128xf32, strided<[262144, 262144, 128, 1], offset: ?>>, memref<4096x4096xf32, strided<[4096, 1], offset: ?>>, memref<4096xf32, strided<[1], offset: ?>>, memref<11008x4096xf32, strided<[4096, 1], offset: ?>>, memref<11008x4096xf32, strided<[4096, 1], offset: ?>>, memref<4096x11008xf32, strided<[11008, 1], offset: ?>>, memref<4096xf32, strided<[1], offset: ?>>, memref<4096x4096xf32, strided<[4096, 1], offset: ?>>, memref<4096x4096xf32, strided<[4096, 1], offset: ?>>, memref<4096x4096xf32, strided<[4096, 1], offset: ?>>, memref<1x1x2048x128xf32, strided<[262144, 262144, 128, 1], offset: ?>>, memref<1x1x2048x128xf32, strided<[262144, 262144, 128, 1], offset: ?>>, memref<4096x4096xf32, strided<[4096, 1], offset: ?>>, memref<4096xf32, strided<[1], offset: ?>>, memref<11008x4096xf32, strided<[4096, 1], offset: ?>>, memref<11008x4096xf32, strided<[4096, 1], offset: ?>>, memref<4096x11008xf32, strided<[11008, 1], offset: ?>>, memref<4096xf32, strided<[1], offset: ?>>, memref<4096x4096xf32, strided<[4096, 1], offset: ?>>, memref<4096x4096xf32, strided<[4096, 1], offset: ?>>, memref<4096x4096xf32, strided<[4096, 1], offset: ?>>, memref<1x1x2048x128xf32, strided<[262144, 262144, 128, 1], offset: ?>>, memref<1x1x2048x128xf32, strided<[262144, 262144, 128, 1], offset: ?>>, memref<4096x4096xf32, strided<[4096, 1], offset: ?>>, memref<4096xf32, strided<[1], offset: ?>>, memref<11008x4096xf32, strided<[4096, 1], offset: ?>>, memref<11008x4096xf32, strided<[4096, 1], offset: ?>>, memref<4096x11008xf32, strided<[11008, 1], offset: ?>>, memref<4096xf32, strided<[1], offset: ?>>, memref<4096x4096xf32, strided<[4096, 1], offset: ?>>, memref<4096x4096xf32, strided<[4096, 1], offset: ?>>, memref<4096x4096xf32, strided<[4096, 1], offset: ?>>, memref<1x1x2048x128xf32, strided<[262144, 262144, 128, 1], offset: ?>>, memref<1x1x2048x128xf32, strided<[262144, 262144, 128, 1], offset: ?>>, memref<4096x4096xf32, strided<[4096, 1], offset: ?>>, memref<4096xf32, strided<[1], offset: ?>>, memref<11008x4096xf32, strided<[4096, 1], offset: ?>>, memref<11008x4096xf32, strided<[4096, 1], offset: ?>>, memref<4096x11008xf32, strided<[11008, 1], offset: ?>>, memref<4096xf32, strided<[1], offset: ?>>, memref<4096x4096xf32, strided<[4096, 1], offset: ?>>, memref<4096x4096xf32, strided<[4096, 1], offset: ?>>, memref<4096x4096xf32, strided<[4096, 1], offset: ?>>, memref<1x1x2048x128xf32, strided<[262144, 262144, 128, 1], offset: ?>>, memref<1x1x2048x128xf32, strided<[262144, 262144, 128, 1], offset: ?>>, memref<4096x4096xf32, strided<[4096, 1], offset: ?>>, memref<4096xf32, strided<[1], offset: ?>>, memref<11008x4096xf32, strided<[4096, 1], offset: ?>>, memref<11008x4096xf32, strided<[4096, 1], offset: ?>>, memref<4096x11008xf32, strided<[11008, 1], offset: ?>>, memref<4096xf32, strided<[1], offset: ?>>, memref<4096x4096xf32, strided<[4096, 1], offset: ?>>, memref<4096x4096xf32, strided<[4096, 1], offset: ?>>, memref<4096x4096xf32, strided<[4096, 1], offset: ?>>, memref<1x1x2048x128xf32, strided<[262144, 262144, 128, 1], offset: ?>>, memref<1x1x2048x128xf32, strided<[262144, 262144, 128, 1], offset: ?>>, memref<4096x4096xf32, strided<[4096, 1], offset: ?>>, memref<4096xf32, strided<[1], offset: ?>>, memref<11008x4096xf32, strided<[4096, 1], offset: ?>>, memref<11008x4096xf32, strided<[4096, 1], offset: ?>>, memref<4096x11008xf32, strided<[11008, 1], offset: ?>>, memref<4096xf32, strided<[1], offset: ?>>, memref<4096x4096xf32, strided<[4096, 1], offset: ?>>, memref<4096x4096xf32, strided<[4096, 1], offset: ?>>, memref<4096x4096xf32, strided<[4096, 1], offset: ?>>, memref<1x1x2048x128xf32, strided<[262144, 262144, 128, 1], offset: ?>>, memref<1x1x2048x128xf32, strided<[262144, 262144, 128, 1], offset: ?>>, memref<4096x4096xf32, strided<[4096, 1], offset: ?>>, memref<4096xf32, strided<[1], offset: ?>>, memref<11008x4096xf32, strided<[4096, 1], offset: ?>>, memref<11008x4096xf32, strided<[4096, 1], offset: ?>>, memref<4096x11008xf32, strided<[11008, 1], offset: ?>>, memref<4096xf32, strided<[1], offset: ?>>, memref<4096x4096xf32, strided<[4096, 1], offset: ?>>, memref<4096x4096xf32, strided<[4096, 1], offset: ?>>, memref<4096x4096xf32, strided<[4096, 1], offset: ?>>, memref<1x1x2048x128xf32, strided<[262144, 262144, 128, 1], offset: ?>>, memref<1x1x2048x128xf32, strided<[262144, 262144, 128, 1], offset: ?>>, memref<4096x4096xf32, strided<[4096, 1], offset: ?>>, memref<4096xf32, strided<[1], offset: ?>>, memref<11008x4096xf32, strided<[4096, 1], offset: ?>>, memref<11008x4096xf32, strided<[4096, 1], offset: ?>>, memref<4096x11008xf32, strided<[11008, 1], offset: ?>>, memref<4096xf32, strided<[1], offset: ?>>, memref<4096x4096xf32, strided<[4096, 1], offset: ?>>, memref<4096x4096xf32, strided<[4096, 1], offset: ?>>, memref<4096x4096xf32, strided<[4096, 1], offset: ?>>, memref<1x1x2048x128xf32, strided<[262144, 262144, 128, 1], offset: ?>>, memref<1x1x2048x128xf32, strided<[262144, 262144, 128, 1], offset: ?>>, memref<4096x4096xf32, strided<[4096, 1], offset: ?>>, memref<4096xf32, strided<[1], offset: ?>>, memref<11008x4096xf32, strided<[4096, 1], offset: ?>>, memref<11008x4096xf32, strided<[4096, 1], offset: ?>>, memref<4096x11008xf32, strided<[11008, 1], offset: ?>>, memref<4096xf32, strided<[1], offset: ?>>, memref<4096x4096xf32, strided<[4096, 1], offset: ?>>, memref<4096x4096xf32, strided<[4096, 1], offset: ?>>, memref<4096x4096xf32, strided<[4096, 1], offset: ?>>, memref<1x1x2048x128xf32, strided<[262144, 262144, 128, 1], offset: ?>>, memref<1x1x2048x128xf32, strided<[262144, 262144, 128, 1], offset: ?>>, memref<4096x4096xf32, strided<[4096, 1], offset: ?>>, memref<4096xf32, strided<[1], offset: ?>>, memref<11008x4096xf32, strided<[4096, 1], offset: ?>>, memref<11008x4096xf32, strided<[4096, 1], offset: ?>>, memref<4096x11008xf32, strided<[11008, 1], offset: ?>>, memref<4096xf32, strided<[1], offset: ?>>, memref<4096x4096xf32, strided<[4096, 1], offset: ?>>, memref<4096x4096xf32, strided<[4096, 1], offset: ?>>, memref<4096x4096xf32, strided<[4096, 1], offset: ?>>, memref<1x1x2048x128xf32, strided<[262144, 262144, 128, 1], offset: ?>>, memref<1x1x2048x128xf32, strided<[262144, 262144, 128, 1], offset: ?>>, memref<4096x4096xf32, strided<[4096, 1], offset: ?>>, memref<4096xf32, strided<[1], offset: ?>>, memref<11008x4096xf32, strided<[4096, 1], offset: ?>>, memref<11008x4096xf32, strided<[4096, 1], offset: ?>>, memref<4096x11008xf32, strided<[11008, 1], offset: ?>>, memref<4096xf32, strided<[1], offset: ?>>, memref<4096x4096xf32, strided<[4096, 1], offset: ?>>, memref<4096x4096xf32, strided<[4096, 1], offset: ?>>, memref<4096x4096xf32, strided<[4096, 1], offset: ?>>, memref<1x1x2048x128xf32, strided<[262144, 262144, 128, 1], offset: ?>>, memref<1x1x2048x128xf32, strided<[262144, 262144, 128, 1], offset: ?>>, memref<4096x4096xf32, strided<[4096, 1], offset: ?>>, memref<4096xf32, strided<[1], offset: ?>>, memref<11008x4096xf32, strided<[4096, 1], offset: ?>>, memref<11008x4096xf32, strided<[4096, 1], offset: ?>>, memref<4096x11008xf32, strided<[11008, 1], offset: ?>>, memref<4096xf32, strided<[1], offset: ?>>, memref<32000x4096xf32, strided<[4096, 1], offset: ?>>) -> (memref<1x40x4096xf32>, memref<1x40x32000xf32>)
    return %0#0, %0#1 : memref<1x40x4096xf32>, memref<1x40x32000xf32>
  }
}

