#map = affine_map<(d0, d1, d2) -> (d1)>
#map1 = affine_map<(d0, d1, d2) -> (d0, d2)>
#map2 = affine_map<(d0, d1, d2) -> (d0, d1)>
#map3 = affine_map<(d0, d1) -> (d0, d1)>
#map4 = affine_map<(d0, d1, d2, d3) -> (d0, d1, d2, d3)>
#map5 = affine_map<(d0, d1, d2) -> (d0, d1, d2)>
#map6 = affine_map<(d0, d1, d2, d3) -> (d0, d1, d2)>
#map7 = affine_map<(d0, d1, d2, d3) -> (d0, d1, d3)>
#map8 = affine_map<(d0, d1, d2) -> (d0, 0, d1, d2)>
#map9 = affine_map<(d0, d1) -> (0, d0, d1)>
module {
  func.func @subgraph0(%arg0: tensor<32000x4096xf32>, %arg1: tensor<1x40xi64>, %arg2: tensor<4096xf32>, %arg3: tensor<4096x4096xf32>, %arg4: tensor<4096x4096xf32>, %arg5: tensor<4096x4096xf32>, %arg6: tensor<1x1x2048x128xf32>, %arg7: tensor<1x1x2048x128xf32>, %arg8: tensor<4096x4096xf32>, %arg9: tensor<4096xf32>, %arg10: tensor<11008x4096xf32>, %arg11: tensor<11008x4096xf32>, %arg12: tensor<4096x11008xf32>, %arg13: tensor<4096xf32>, %arg14: tensor<4096x4096xf32>, %arg15: tensor<4096x4096xf32>, %arg16: tensor<4096x4096xf32>, %arg17: tensor<1x1x2048x128xf32>, %arg18: tensor<1x1x2048x128xf32>, %arg19: tensor<4096x4096xf32>, %arg20: tensor<4096xf32>, %arg21: tensor<11008x4096xf32>, %arg22: tensor<11008x4096xf32>, %arg23: tensor<4096x11008xf32>, %arg24: tensor<4096xf32>, %arg25: tensor<4096x4096xf32>, %arg26: tensor<4096x4096xf32>, %arg27: tensor<4096x4096xf32>, %arg28: tensor<1x1x2048x128xf32>, %arg29: tensor<1x1x2048x128xf32>, %arg30: tensor<4096x4096xf32>, %arg31: tensor<4096xf32>, %arg32: tensor<11008x4096xf32>, %arg33: tensor<11008x4096xf32>, %arg34: tensor<4096x11008xf32>, %arg35: tensor<4096xf32>, %arg36: tensor<4096x4096xf32>, %arg37: tensor<4096x4096xf32>, %arg38: tensor<4096x4096xf32>, %arg39: tensor<1x1x2048x128xf32>, %arg40: tensor<1x1x2048x128xf32>, %arg41: tensor<4096x4096xf32>, %arg42: tensor<4096xf32>, %arg43: tensor<11008x4096xf32>, %arg44: tensor<11008x4096xf32>, %arg45: tensor<4096x11008xf32>, %arg46: tensor<4096xf32>, %arg47: tensor<4096x4096xf32>, %arg48: tensor<4096x4096xf32>, %arg49: tensor<4096x4096xf32>, %arg50: tensor<1x1x2048x128xf32>, %arg51: tensor<1x1x2048x128xf32>, %arg52: tensor<4096x4096xf32>, %arg53: tensor<4096xf32>, %arg54: tensor<11008x4096xf32>, %arg55: tensor<11008x4096xf32>, %arg56: tensor<4096x11008xf32>, %arg57: tensor<4096xf32>, %arg58: tensor<4096x4096xf32>, %arg59: tensor<4096x4096xf32>, %arg60: tensor<4096x4096xf32>, %arg61: tensor<1x1x2048x128xf32>, %arg62: tensor<1x1x2048x128xf32>, %arg63: tensor<4096x4096xf32>, %arg64: tensor<4096xf32>, %arg65: tensor<11008x4096xf32>, %arg66: tensor<11008x4096xf32>, %arg67: tensor<4096x11008xf32>, %arg68: tensor<4096xf32>, %arg69: tensor<4096x4096xf32>, %arg70: tensor<4096x4096xf32>, %arg71: tensor<4096x4096xf32>, %arg72: tensor<1x1x2048x128xf32>, %arg73: tensor<1x1x2048x128xf32>, %arg74: tensor<4096x4096xf32>, %arg75: tensor<4096xf32>, %arg76: tensor<11008x4096xf32>, %arg77: tensor<11008x4096xf32>, %arg78: tensor<4096x11008xf32>, %arg79: tensor<4096xf32>, %arg80: tensor<4096x4096xf32>, %arg81: tensor<4096x4096xf32>, %arg82: tensor<4096x4096xf32>, %arg83: tensor<1x1x2048x128xf32>, %arg84: tensor<1x1x2048x128xf32>, %arg85: tensor<4096x4096xf32>, %arg86: tensor<4096xf32>, %arg87: tensor<11008x4096xf32>, %arg88: tensor<11008x4096xf32>, %arg89: tensor<4096x11008xf32>, %arg90: tensor<4096xf32>, %arg91: tensor<4096x4096xf32>, %arg92: tensor<4096x4096xf32>, %arg93: tensor<4096x4096xf32>, %arg94: tensor<1x1x2048x128xf32>, %arg95: tensor<1x1x2048x128xf32>, %arg96: tensor<4096x4096xf32>, %arg97: tensor<4096xf32>, %arg98: tensor<11008x4096xf32>, %arg99: tensor<11008x4096xf32>, %arg100: tensor<4096x11008xf32>, %arg101: tensor<4096xf32>, %arg102: tensor<4096x4096xf32>, %arg103: tensor<4096x4096xf32>, %arg104: tensor<4096x4096xf32>, %arg105: tensor<1x1x2048x128xf32>, %arg106: tensor<1x1x2048x128xf32>, %arg107: tensor<4096x4096xf32>, %arg108: tensor<4096xf32>, %arg109: tensor<11008x4096xf32>, %arg110: tensor<11008x4096xf32>, %arg111: tensor<4096x11008xf32>, %arg112: tensor<4096xf32>, %arg113: tensor<4096x4096xf32>, %arg114: tensor<4096x4096xf32>, %arg115: tensor<4096x4096xf32>, %arg116: tensor<1x1x2048x128xf32>, %arg117: tensor<1x1x2048x128xf32>, %arg118: tensor<4096x4096xf32>, %arg119: tensor<4096xf32>, %arg120: tensor<11008x4096xf32>, %arg121: tensor<11008x4096xf32>, %arg122: tensor<4096x11008xf32>, %arg123: tensor<4096xf32>, %arg124: tensor<4096x4096xf32>, %arg125: tensor<4096x4096xf32>, %arg126: tensor<4096x4096xf32>, %arg127: tensor<1x1x2048x128xf32>, %arg128: tensor<1x1x2048x128xf32>, %arg129: tensor<4096x4096xf32>, %arg130: tensor<4096xf32>, %arg131: tensor<11008x4096xf32>, %arg132: tensor<11008x4096xf32>, %arg133: tensor<4096x11008xf32>, %arg134: tensor<4096xf32>, %arg135: tensor<4096x4096xf32>, %arg136: tensor<4096x4096xf32>, %arg137: tensor<4096x4096xf32>, %arg138: tensor<1x1x2048x128xf32>, %arg139: tensor<1x1x2048x128xf32>, %arg140: tensor<4096x4096xf32>, %arg141: tensor<4096xf32>, %arg142: tensor<11008x4096xf32>, %arg143: tensor<11008x4096xf32>, %arg144: tensor<4096x11008xf32>, %arg145: tensor<4096xf32>, %arg146: tensor<4096x4096xf32>, %arg147: tensor<4096x4096xf32>, %arg148: tensor<4096x4096xf32>, %arg149: tensor<1x1x2048x128xf32>, %arg150: tensor<1x1x2048x128xf32>, %arg151: tensor<4096x4096xf32>, %arg152: tensor<4096xf32>, %arg153: tensor<11008x4096xf32>, %arg154: tensor<11008x4096xf32>, %arg155: tensor<4096x11008xf32>, %arg156: tensor<4096xf32>, %arg157: tensor<4096x4096xf32>, %arg158: tensor<4096x4096xf32>, %arg159: tensor<4096x4096xf32>, %arg160: tensor<1x1x2048x128xf32>, %arg161: tensor<1x1x2048x128xf32>, %arg162: tensor<4096x4096xf32>, %arg163: tensor<4096xf32>, %arg164: tensor<11008x4096xf32>, %arg165: tensor<11008x4096xf32>, %arg166: tensor<4096x11008xf32>, %arg167: tensor<4096xf32>, %arg168: tensor<4096x4096xf32>, %arg169: tensor<4096x4096xf32>, %arg170: tensor<4096x4096xf32>, %arg171: tensor<1x1x2048x128xf32>, %arg172: tensor<1x1x2048x128xf32>, %arg173: tensor<4096x4096xf32>, %arg174: tensor<4096xf32>, %arg175: tensor<11008x4096xf32>, %arg176: tensor<11008x4096xf32>, %arg177: tensor<4096x11008xf32>, %arg178: tensor<4096xf32>, %arg179: tensor<4096x4096xf32>, %arg180: tensor<4096x4096xf32>, %arg181: tensor<4096x4096xf32>, %arg182: tensor<1x1x2048x128xf32>, %arg183: tensor<1x1x2048x128xf32>, %arg184: tensor<4096x4096xf32>, %arg185: tensor<4096xf32>, %arg186: tensor<11008x4096xf32>, %arg187: tensor<11008x4096xf32>, %arg188: tensor<4096x11008xf32>, %arg189: tensor<4096xf32>, %arg190: tensor<4096x4096xf32>, %arg191: tensor<4096x4096xf32>, %arg192: tensor<4096x4096xf32>, %arg193: tensor<1x1x2048x128xf32>, %arg194: tensor<1x1x2048x128xf32>, %arg195: tensor<4096x4096xf32>, %arg196: tensor<4096xf32>, %arg197: tensor<11008x4096xf32>, %arg198: tensor<11008x4096xf32>, %arg199: tensor<4096x11008xf32>, %arg200: tensor<4096xf32>, %arg201: tensor<4096x4096xf32>, %arg202: tensor<4096x4096xf32>, %arg203: tensor<4096x4096xf32>, %arg204: tensor<1x1x2048x128xf32>, %arg205: tensor<1x1x2048x128xf32>, %arg206: tensor<4096x4096xf32>, %arg207: tensor<4096xf32>, %arg208: tensor<11008x4096xf32>, %arg209: tensor<11008x4096xf32>, %arg210: tensor<4096x11008xf32>, %arg211: tensor<4096xf32>, %arg212: tensor<4096x4096xf32>, %arg213: tensor<4096x4096xf32>, %arg214: tensor<4096x4096xf32>, %arg215: tensor<1x1x2048x128xf32>, %arg216: tensor<1x1x2048x128xf32>, %arg217: tensor<4096x4096xf32>, %arg218: tensor<4096xf32>, %arg219: tensor<11008x4096xf32>, %arg220: tensor<11008x4096xf32>, %arg221: tensor<4096x11008xf32>, %arg222: tensor<4096xf32>, %arg223: tensor<4096x4096xf32>, %arg224: tensor<4096x4096xf32>, %arg225: tensor<4096x4096xf32>, %arg226: tensor<1x1x2048x128xf32>, %arg227: tensor<1x1x2048x128xf32>, %arg228: tensor<4096x4096xf32>, %arg229: tensor<4096xf32>, %arg230: tensor<11008x4096xf32>, %arg231: tensor<11008x4096xf32>, %arg232: tensor<4096x11008xf32>, %arg233: tensor<4096xf32>, %arg234: tensor<4096x4096xf32>, %arg235: tensor<4096x4096xf32>, %arg236: tensor<4096x4096xf32>, %arg237: tensor<1x1x2048x128xf32>, %arg238: tensor<1x1x2048x128xf32>, %arg239: tensor<4096x4096xf32>, %arg240: tensor<4096xf32>, %arg241: tensor<11008x4096xf32>, %arg242: tensor<11008x4096xf32>, %arg243: tensor<4096x11008xf32>, %arg244: tensor<4096xf32>, %arg245: tensor<4096x4096xf32>, %arg246: tensor<4096x4096xf32>, %arg247: tensor<4096x4096xf32>, %arg248: tensor<1x1x2048x128xf32>, %arg249: tensor<1x1x2048x128xf32>, %arg250: tensor<4096x4096xf32>, %arg251: tensor<4096xf32>, %arg252: tensor<11008x4096xf32>, %arg253: tensor<11008x4096xf32>, %arg254: tensor<4096x11008xf32>, %arg255: tensor<4096xf32>, %arg256: tensor<4096x4096xf32>, %arg257: tensor<4096x4096xf32>, %arg258: tensor<4096x4096xf32>, %arg259: tensor<1x1x2048x128xf32>, %arg260: tensor<1x1x2048x128xf32>, %arg261: tensor<4096x4096xf32>, %arg262: tensor<4096xf32>, %arg263: tensor<11008x4096xf32>, %arg264: tensor<11008x4096xf32>, %arg265: tensor<4096x11008xf32>, %arg266: tensor<4096xf32>, %arg267: tensor<4096x4096xf32>, %arg268: tensor<4096x4096xf32>, %arg269: tensor<4096x4096xf32>, %arg270: tensor<1x1x2048x128xf32>, %arg271: tensor<1x1x2048x128xf32>, %arg272: tensor<4096x4096xf32>, %arg273: tensor<4096xf32>, %arg274: tensor<11008x4096xf32>, %arg275: tensor<11008x4096xf32>, %arg276: tensor<4096x11008xf32>, %arg277: tensor<4096xf32>, %arg278: tensor<4096x4096xf32>, %arg279: tensor<4096x4096xf32>, %arg280: tensor<4096x4096xf32>, %arg281: tensor<1x1x2048x128xf32>, %arg282: tensor<1x1x2048x128xf32>, %arg283: tensor<4096x4096xf32>, %arg284: tensor<4096xf32>, %arg285: tensor<11008x4096xf32>, %arg286: tensor<11008x4096xf32>, %arg287: tensor<4096x11008xf32>, %arg288: tensor<4096xf32>, %arg289: tensor<4096x4096xf32>, %arg290: tensor<4096x4096xf32>, %arg291: tensor<4096x4096xf32>, %arg292: tensor<1x1x2048x128xf32>, %arg293: tensor<1x1x2048x128xf32>, %arg294: tensor<4096x4096xf32>, %arg295: tensor<4096xf32>, %arg296: tensor<11008x4096xf32>, %arg297: tensor<11008x4096xf32>, %arg298: tensor<4096x11008xf32>, %arg299: tensor<4096xf32>, %arg300: tensor<4096x4096xf32>, %arg301: tensor<4096x4096xf32>, %arg302: tensor<4096x4096xf32>, %arg303: tensor<1x1x2048x128xf32>, %arg304: tensor<1x1x2048x128xf32>, %arg305: tensor<4096x4096xf32>, %arg306: tensor<4096xf32>, %arg307: tensor<11008x4096xf32>, %arg308: tensor<11008x4096xf32>, %arg309: tensor<4096x11008xf32>, %arg310: tensor<4096xf32>, %arg311: tensor<4096x4096xf32>, %arg312: tensor<4096x4096xf32>, %arg313: tensor<4096x4096xf32>, %arg314: tensor<1x1x2048x128xf32>, %arg315: tensor<1x1x2048x128xf32>, %arg316: tensor<4096x4096xf32>, %arg317: tensor<4096xf32>, %arg318: tensor<11008x4096xf32>, %arg319: tensor<11008x4096xf32>, %arg320: tensor<4096x11008xf32>, %arg321: tensor<4096xf32>, %arg322: tensor<4096x4096xf32>, %arg323: tensor<4096x4096xf32>, %arg324: tensor<4096x4096xf32>, %arg325: tensor<1x1x2048x128xf32>, %arg326: tensor<1x1x2048x128xf32>, %arg327: tensor<4096x4096xf32>, %arg328: tensor<4096xf32>, %arg329: tensor<11008x4096xf32>, %arg330: tensor<11008x4096xf32>, %arg331: tensor<4096x11008xf32>, %arg332: tensor<4096xf32>, %arg333: tensor<4096x4096xf32>, %arg334: tensor<4096x4096xf32>, %arg335: tensor<4096x4096xf32>, %arg336: tensor<1x1x2048x128xf32>, %arg337: tensor<1x1x2048x128xf32>, %arg338: tensor<4096x4096xf32>, %arg339: tensor<4096xf32>, %arg340: tensor<11008x4096xf32>, %arg341: tensor<11008x4096xf32>, %arg342: tensor<4096x11008xf32>, %arg343: tensor<4096xf32>, %arg344: tensor<4096x4096xf32>, %arg345: tensor<4096x4096xf32>, %arg346: tensor<4096x4096xf32>, %arg347: tensor<1x1x2048x128xf32>, %arg348: tensor<1x1x2048x128xf32>, %arg349: tensor<4096x4096xf32>, %arg350: tensor<4096xf32>, %arg351: tensor<11008x4096xf32>, %arg352: tensor<11008x4096xf32>, %arg353: tensor<4096x11008xf32>, %arg354: tensor<4096xf32>, %arg355: tensor<32000x4096xf32>) -> (tensor<1x40x4096xf32>, tensor<1x40x32000xf32>) {
    %0 = "tosa.const"() <{value = dense<[0, 1, 2, 3, 4, 5, 6, 7, 8, 9, 10, 11, 12, 13, 14, 15, 16, 17, 18, 19, 20, 21, 22, 23, 24, 25, 26, 27, 28, 29, 30, 31, 32, 33, 34, 35, 36, 37, 38, 39]> : tensor<40xi64>}> : () -> tensor<40xi64>
    %1 = tosa.reshape %0 {new_shape = array<i64: 1, 40>} : (tensor<40xi64>) -> tensor<1x40xi64>
    %2 = tosa.reshape %1 {new_shape = array<i64: 1, 40>} : (tensor<1x40xi64>) -> tensor<1x40xi64>
    %3 = tosa.cast %arg1 : (tensor<1x40xi64>) -> tensor<1x40xi32>
    %4 = tosa.reshape %arg0 {new_shape = array<i64: 1, 32000, 4096>} : (tensor<32000x4096xf32>) -> tensor<1x32000x4096xf32>
    %5 = tosa.gather %4, %3 : (tensor<1x32000x4096xf32>, tensor<1x40xi32>) -> tensor<1x40x4096xf32>
    %6 = tosa.reshape %5 {new_shape = array<i64: 1, 40, 4096>} : (tensor<1x40x4096xf32>) -> tensor<1x40x4096xf32>
    %cst = arith.constant dense<true> : tensor<1x40xi1>
    %cst_0 = arith.constant dense<-3.40282347E+38> : tensor<40x40xf32>
    %7 = "tosa.const"() <{value = dense<[0, 1, 2, 3, 4, 5, 6, 7, 8, 9, 10, 11, 12, 13, 14, 15, 16, 17, 18, 19, 20, 21, 22, 23, 24, 25, 26, 27, 28, 29, 30, 31, 32, 33, 34, 35, 36, 37, 38, 39]> : tensor<40xi64>}> : () -> tensor<40xi64>
    %8 = "tosa.const"() <{value = dense<1> : tensor<40xi64>}> : () -> tensor<40xi64>
    %9 = tosa.add %7, %8 : (tensor<40xi64>, tensor<40xi64>) -> tensor<40xi64>
    %10 = tosa.reshape %9 {new_shape = array<i64: 40, 1>} : (tensor<40xi64>) -> tensor<40x1xi64>
    %11 = tensor.empty() : tensor<40x40xi1>
    %12 = linalg.generic {indexing_maps = [#map, #map1, #map2], iterator_types = ["parallel", "parallel", "reduction"]} ins(%7, %10 : tensor<40xi64>, tensor<40x1xi64>) outs(%11 : tensor<40x40xi1>) {
    ^bb0(%in: i64, %in_807: i64, %out: i1):
      %4044 = arith.cmpi slt, %in, %in_807 : i64
      linalg.yield %4044 : i1
    } -> tensor<40x40xi1>
    %cst_1 = arith.constant 0.000000e+00 : f32
    %13 = tensor.empty() : tensor<40x40xf32>
    %14 = linalg.generic {indexing_maps = [#map3, #map3, #map3], iterator_types = ["parallel", "parallel"]} ins(%12, %cst_0 : tensor<40x40xi1>, tensor<40x40xf32>) outs(%13 : tensor<40x40xf32>) {
    ^bb0(%in: i1, %in_807: f32, %out: f32):
      %4044 = arith.select %in, %cst_1, %in_807 : f32
      linalg.yield %4044 : f32
    } -> tensor<40x40xf32>
    %extracted_slice = tensor.extract_slice %cst[0, 0] [1, 40] [1, 1] : tensor<1x40xi1> to tensor<1x40xi1>
    %15 = tosa.reshape %extracted_slice {new_shape = array<i64: 1, 1, 40>} : (tensor<1x40xi1>) -> tensor<1x1x40xi1>
    %16 = tosa.reshape %15 {new_shape = array<i64: 1, 1, 1, 40>} : (tensor<1x1x40xi1>) -> tensor<1x1x1x40xi1>
    %extracted_slice_2 = tensor.extract_slice %16[0, 0, 0, 0] [1, 1, 1, 40] [1, 1, 1, 1] : tensor<1x1x1x40xi1> to tensor<1x1x1x40xi1>
    %17 = "tosa.const"() <{value = dense<false> : tensor<1x1x40x40xi1>}> : () -> tensor<1x1x40x40xi1>
    %18 = tosa.add %extracted_slice_2, %17 : (tensor<1x1x1x40xi1>, tensor<1x1x40x40xi1>) -> tensor<1x1x40x40xi1>
    %19 = tosa.cast %18 : (tensor<1x1x40x40xi1>) -> tensor<1x1x40x40xf32>
    %20 = "tosa.const"() <{value = dense<1.000000e+00> : tensor<1x1x40x40xf32>}> : () -> tensor<1x1x40x40xf32>
    %21 = tosa.sub %20, %19 : (tensor<1x1x40x40xf32>, tensor<1x1x40x40xf32>) -> tensor<1x1x40x40xf32>
    %22 = tosa.cast %21 : (tensor<1x1x40x40xf32>) -> tensor<1x1x40x40xi1>
    %cst_3 = arith.constant -3.40282347E+38 : f32
    %23 = tensor.empty() : tensor<1x1x40x40xf32>
    %24 = linalg.generic {indexing_maps = [#map4, #map4, #map4], iterator_types = ["parallel", "parallel", "parallel", "parallel"]} ins(%22, %21 : tensor<1x1x40x40xi1>, tensor<1x1x40x40xf32>) outs(%23 : tensor<1x1x40x40xf32>) {
    ^bb0(%in: i1, %in_807: f32, %out: f32):
      %4044 = arith.select %in, %cst_3, %in_807 : f32
      linalg.yield %4044 : f32
    } -> tensor<1x1x40x40xf32>
    %25 = tosa.reshape %14 {new_shape = array<i64: 1, 40, 40>} : (tensor<40x40xf32>) -> tensor<1x40x40xf32>
    %26 = tosa.reshape %25 {new_shape = array<i64: 1, 1, 40, 40>} : (tensor<1x40x40xf32>) -> tensor<1x1x40x40xf32>
    %extracted_slice_4 = tensor.extract_slice %26[0, 0, 0, 0] [1, 1, 40, 40] [1, 1, 1, 1] : tensor<1x1x40x40xf32> to tensor<1x1x40x40xf32>
    %extracted_slice_5 = tensor.extract_slice %extracted_slice_4[0, 0, 0, 0] [1, 1, 40, 40] [1, 1, 1, 1] : tensor<1x1x40x40xf32> to tensor<1x1x40x40xf32>
    %27 = "tosa.const"() <{value = dense<0.000000e+00> : tensor<1x1x40x40xf32>}> : () -> tensor<1x1x40x40xf32>
    %28 = tosa.add %extracted_slice_5, %27 : (tensor<1x1x40x40xf32>, tensor<1x1x40x40xf32>) -> tensor<1x1x40x40xf32>
    %29 = tosa.add %24, %28 : (tensor<1x1x40x40xf32>, tensor<1x1x40x40xf32>) -> tensor<1x1x40x40xf32>
    %30 = tensor.empty() : tensor<1x40x4096xf32>
    %c2_i32 = arith.constant 2 : i32
    %31 = linalg.generic {indexing_maps = [#map5, #map5], iterator_types = ["parallel", "parallel", "parallel"]} ins(%6 : tensor<1x40x4096xf32>) outs(%30 : tensor<1x40x4096xf32>) {
    ^bb0(%in: f32, %out: f32):
      %4044 = math.fpowi %in, %c2_i32 : f32, i32
      linalg.yield %4044 : f32
    } -> tensor<1x40x4096xf32>
    %cst_6 = arith.constant dense<0.000000e+00> : tensor<1x40x1xf32>
    %32 = linalg.generic {indexing_maps = [#map6, #map7], iterator_types = ["parallel", "parallel", "reduction", "parallel"]} ins(%31 : tensor<1x40x4096xf32>) outs(%cst_6 : tensor<1x40x1xf32>) {
    ^bb0(%in: f32, %out: f32):
      %cst_807 = arith.constant 4.096000e+03 : f32
      %4044 = arith.divf %in, %cst_807 : f32
      %4045 = arith.addf %4044, %out : f32
      linalg.yield %4045 : f32
    } -> tensor<1x40x1xf32>
    %33 = "tosa.const"() <{value = dense<9.99999997E-7> : tensor<1x40x1xf32>}> : () -> tensor<1x40x1xf32>
    %34 = tosa.add %32, %33 : (tensor<1x40x1xf32>, tensor<1x40x1xf32>) -> tensor<1x40x1xf32>
    %35 = tosa.rsqrt %34 : (tensor<1x40x1xf32>) -> tensor<1x40x1xf32>
    %36 = tosa.mul %6, %35 {shift = 0 : i8} : (tensor<1x40x4096xf32>, tensor<1x40x1xf32>) -> tensor<1x40x4096xf32>
    %37 = tosa.reshape %arg2 {new_shape = array<i64: 1, 1, 4096>} : (tensor<4096xf32>) -> tensor<1x1x4096xf32>
    %38 = tosa.mul %37, %36 {shift = 0 : i8} : (tensor<1x1x4096xf32>, tensor<1x40x4096xf32>) -> tensor<1x40x4096xf32>
    %39 = "tosa.const"() <{value = dense<[1, 0]> : tensor<2xi32>}> : () -> tensor<2xi32>
    %40 = tosa.transpose %arg3, %39 : (tensor<4096x4096xf32>, tensor<2xi32>) -> tensor<4096x4096xf32>
    %41 = tosa.reshape %38 {new_shape = array<i64: 40, 4096>} : (tensor<1x40x4096xf32>) -> tensor<40x4096xf32>
    %cst_7 = arith.constant dense<0.000000e+00> : tensor<40x4096xf32>
    %42 = linalg.matmul {cast = #linalg.type_fn<cast_signed>} ins(%41, %40 : tensor<40x4096xf32>, tensor<4096x4096xf32>) outs(%cst_7 : tensor<40x4096xf32>) -> tensor<40x4096xf32>
    %43 = tosa.reshape %42 {new_shape = array<i64: 1, 40, 4096>} : (tensor<40x4096xf32>) -> tensor<1x40x4096xf32>
    %44 = "tosa.const"() <{value = dense<[1, 0]> : tensor<2xi32>}> : () -> tensor<2xi32>
    %45 = tosa.transpose %arg4, %44 : (tensor<4096x4096xf32>, tensor<2xi32>) -> tensor<4096x4096xf32>
    %46 = tosa.reshape %38 {new_shape = array<i64: 40, 4096>} : (tensor<1x40x4096xf32>) -> tensor<40x4096xf32>
    %cst_8 = arith.constant dense<0.000000e+00> : tensor<40x4096xf32>
    %47 = linalg.matmul {cast = #linalg.type_fn<cast_signed>} ins(%46, %45 : tensor<40x4096xf32>, tensor<4096x4096xf32>) outs(%cst_8 : tensor<40x4096xf32>) -> tensor<40x4096xf32>
    %48 = tosa.reshape %47 {new_shape = array<i64: 1, 40, 4096>} : (tensor<40x4096xf32>) -> tensor<1x40x4096xf32>
    %49 = "tosa.const"() <{value = dense<[1, 0]> : tensor<2xi32>}> : () -> tensor<2xi32>
    %50 = tosa.transpose %arg5, %49 : (tensor<4096x4096xf32>, tensor<2xi32>) -> tensor<4096x4096xf32>
    %51 = tosa.reshape %38 {new_shape = array<i64: 40, 4096>} : (tensor<1x40x4096xf32>) -> tensor<40x4096xf32>
    %cst_9 = arith.constant dense<0.000000e+00> : tensor<40x4096xf32>
    %52 = linalg.matmul {cast = #linalg.type_fn<cast_signed>} ins(%51, %50 : tensor<40x4096xf32>, tensor<4096x4096xf32>) outs(%cst_9 : tensor<40x4096xf32>) -> tensor<40x4096xf32>
    %53 = tosa.reshape %52 {new_shape = array<i64: 1, 40, 4096>} : (tensor<40x4096xf32>) -> tensor<1x40x4096xf32>
    %54 = tosa.reshape %43 {new_shape = array<i64: 1, 40, 32, 128>} : (tensor<1x40x4096xf32>) -> tensor<1x40x32x128xf32>
    %55 = "tosa.const"() <{value = dense<[0, 2, 1, 3]> : tensor<4xi32>}> : () -> tensor<4xi32>
    %56 = tosa.transpose %54, %55 : (tensor<1x40x32x128xf32>, tensor<4xi32>) -> tensor<1x32x40x128xf32>
    %57 = tosa.reshape %48 {new_shape = array<i64: 1, 40, 32, 128>} : (tensor<1x40x4096xf32>) -> tensor<1x40x32x128xf32>
    %58 = "tosa.const"() <{value = dense<[0, 2, 1, 3]> : tensor<4xi32>}> : () -> tensor<4xi32>
    %59 = tosa.transpose %57, %58 : (tensor<1x40x32x128xf32>, tensor<4xi32>) -> tensor<1x32x40x128xf32>
    %60 = tosa.reshape %53 {new_shape = array<i64: 1, 40, 32, 128>} : (tensor<1x40x4096xf32>) -> tensor<1x40x32x128xf32>
    %61 = "tosa.const"() <{value = dense<[0, 2, 1, 3]> : tensor<4xi32>}> : () -> tensor<4xi32>
    %62 = tosa.transpose %60, %61 : (tensor<1x40x32x128xf32>, tensor<4xi32>) -> tensor<1x32x40x128xf32>
    %extracted_slice_10 = tensor.extract_slice %arg6[0, 0, 0, 0] [1, 1, 2048, 128] [1, 1, 1, 1] : tensor<1x1x2048x128xf32> to tensor<1x1x2048x128xf32>
    %extracted_slice_11 = tensor.extract_slice %extracted_slice_10[0, 0, 0, 0] [1, 1, 2048, 128] [1, 1, 1, 1] : tensor<1x1x2048x128xf32> to tensor<1x1x2048x128xf32>
    %extracted_slice_12 = tensor.extract_slice %extracted_slice_11[0, 0, 0, 0] [1, 1, 40, 128] [1, 1, 1, 1] : tensor<1x1x2048x128xf32> to tensor<1x1x40x128xf32>
    %extracted_slice_13 = tensor.extract_slice %arg7[0, 0, 0, 0] [1, 1, 2048, 128] [1, 1, 1, 1] : tensor<1x1x2048x128xf32> to tensor<1x1x2048x128xf32>
    %extracted_slice_14 = tensor.extract_slice %extracted_slice_13[0, 0, 0, 0] [1, 1, 2048, 128] [1, 1, 1, 1] : tensor<1x1x2048x128xf32> to tensor<1x1x2048x128xf32>
    %extracted_slice_15 = tensor.extract_slice %extracted_slice_14[0, 0, 0, 0] [1, 1, 40, 128] [1, 1, 1, 1] : tensor<1x1x2048x128xf32> to tensor<1x1x40x128xf32>
    %63 = tensor.empty() : tensor<1x40x128xf32>
    %64 = linalg.generic {indexing_maps = [#map8, #map5], iterator_types = ["parallel", "parallel", "parallel"]} ins(%extracted_slice_12 : tensor<1x1x40x128xf32>) outs(%63 : tensor<1x40x128xf32>) {
    ^bb0(%in: f32, %out: f32):
      linalg.yield %in : f32
    } -> tensor<1x40x128xf32>
    %65 = tensor.empty() : tensor<40x128xf32>
    %66 = linalg.generic {indexing_maps = [#map9, #map3], iterator_types = ["parallel", "parallel"]} ins(%64 : tensor<1x40x128xf32>) outs(%65 : tensor<40x128xf32>) {
    ^bb0(%in: f32, %out: f32):
      linalg.yield %in : f32
    } -> tensor<40x128xf32>
    %67 = tensor.empty() : tensor<1x40x128xf32>
    %68 = linalg.generic {indexing_maps = [#map8, #map5], iterator_types = ["parallel", "parallel", "parallel"]} ins(%extracted_slice_15 : tensor<1x1x40x128xf32>) outs(%67 : tensor<1x40x128xf32>) {
    ^bb0(%in: f32, %out: f32):
      linalg.yield %in : f32
    } -> tensor<1x40x128xf32>
    %69 = tensor.empty() : tensor<40x128xf32>
    %70 = linalg.generic {indexing_maps = [#map9, #map3], iterator_types = ["parallel", "parallel"]} ins(%68 : tensor<1x40x128xf32>) outs(%69 : tensor<40x128xf32>) {
    ^bb0(%in: f32, %out: f32):
      linalg.yield %in : f32
    } -> tensor<40x128xf32>
    %71 = tensor.empty() : tensor<1x40x128xf32>
    %72 = linalg.generic {indexing_maps = [#map2, #map5], iterator_types = ["parallel", "parallel", "parallel"]} ins(%2 : tensor<1x40xi64>) outs(%71 : tensor<1x40x128xf32>) {
    ^bb0(%in: i64, %out: f32):
      %4044 = arith.index_cast %in : i64 to index
      %4045 = linalg.index 2 : index
      %extracted = tensor.extract %66[%4044, %4045] : tensor<40x128xf32>
      linalg.yield %extracted : f32
    } -> tensor<1x40x128xf32>
    %73 = tosa.reshape %72 {new_shape = array<i64: 1, 1, 40, 128>} : (tensor<1x40x128xf32>) -> tensor<1x1x40x128xf32>
    %74 = tensor.empty() : tensor<1x40x128xf32>
    %75 = linalg.generic {indexing_maps = [#map2, #map5], iterator_types = ["parallel", "parallel", "parallel"]} ins(%2 : tensor<1x40xi64>) outs(%74 : tensor<1x40x128xf32>) {
    ^bb0(%in: i64, %out: f32):
      %4044 = arith.index_cast %in : i64 to index
      %4045 = linalg.index 2 : index
      %extracted = tensor.extract %70[%4044, %4045] : tensor<40x128xf32>
      linalg.yield %extracted : f32
    } -> tensor<1x40x128xf32>
    %76 = tosa.reshape %75 {new_shape = array<i64: 1, 1, 40, 128>} : (tensor<1x40x128xf32>) -> tensor<1x1x40x128xf32>
    %77 = tosa.mul %56, %73 {shift = 0 : i8} : (tensor<1x32x40x128xf32>, tensor<1x1x40x128xf32>) -> tensor<1x32x40x128xf32>
    %extracted_slice_16 = tensor.extract_slice %56[0, 0, 0, 0] [1, 32, 40, 64] [1, 1, 1, 1] : tensor<1x32x40x128xf32> to tensor<1x32x40x64xf32>
    %extracted_slice_17 = tensor.extract_slice %56[0, 0, 0, 64] [1, 32, 40, 64] [1, 1, 1, 1] : tensor<1x32x40x128xf32> to tensor<1x32x40x64xf32>
    %78 = tensor.empty() : tensor<1x32x40x64xf32>
    %79 = linalg.negf ins(%extracted_slice_17 : tensor<1x32x40x64xf32>) outs(%78 : tensor<1x32x40x64xf32>) -> tensor<1x32x40x64xf32>
    %80 = tensor.empty() : tensor<1x32x40x128xf32>
    %inserted_slice = tensor.insert_slice %79 into %80[0, 0, 0, 0] [1, 32, 40, 64] [1, 1, 1, 1] : tensor<1x32x40x64xf32> into tensor<1x32x40x128xf32>
    %inserted_slice_18 = tensor.insert_slice %extracted_slice_16 into %inserted_slice[0, 0, 0, 64] [1, 32, 40, 64] [1, 1, 1, 1] : tensor<1x32x40x64xf32> into tensor<1x32x40x128xf32>
    %81 = tosa.mul %inserted_slice_18, %76 {shift = 0 : i8} : (tensor<1x32x40x128xf32>, tensor<1x1x40x128xf32>) -> tensor<1x32x40x128xf32>
    %82 = tosa.add %77, %81 : (tensor<1x32x40x128xf32>, tensor<1x32x40x128xf32>) -> tensor<1x32x40x128xf32>
    %83 = tosa.mul %59, %73 {shift = 0 : i8} : (tensor<1x32x40x128xf32>, tensor<1x1x40x128xf32>) -> tensor<1x32x40x128xf32>
    %extracted_slice_19 = tensor.extract_slice %59[0, 0, 0, 0] [1, 32, 40, 64] [1, 1, 1, 1] : tensor<1x32x40x128xf32> to tensor<1x32x40x64xf32>
    %extracted_slice_20 = tensor.extract_slice %59[0, 0, 0, 64] [1, 32, 40, 64] [1, 1, 1, 1] : tensor<1x32x40x128xf32> to tensor<1x32x40x64xf32>
    %84 = tensor.empty() : tensor<1x32x40x64xf32>
    %85 = linalg.negf ins(%extracted_slice_20 : tensor<1x32x40x64xf32>) outs(%84 : tensor<1x32x40x64xf32>) -> tensor<1x32x40x64xf32>
    %86 = tensor.empty() : tensor<1x32x40x128xf32>
    %inserted_slice_21 = tensor.insert_slice %85 into %86[0, 0, 0, 0] [1, 32, 40, 64] [1, 1, 1, 1] : tensor<1x32x40x64xf32> into tensor<1x32x40x128xf32>
    %inserted_slice_22 = tensor.insert_slice %extracted_slice_19 into %inserted_slice_21[0, 0, 0, 64] [1, 32, 40, 64] [1, 1, 1, 1] : tensor<1x32x40x64xf32> into tensor<1x32x40x128xf32>
    %87 = tosa.mul %inserted_slice_22, %76 {shift = 0 : i8} : (tensor<1x32x40x128xf32>, tensor<1x1x40x128xf32>) -> tensor<1x32x40x128xf32>
    %88 = tosa.add %83, %87 : (tensor<1x32x40x128xf32>, tensor<1x32x40x128xf32>) -> tensor<1x32x40x128xf32>
    %89 = "tosa.const"() <{value = dense<[0, 1, 3, 2]> : tensor<4xi32>}> : () -> tensor<4xi32>
    %90 = tosa.transpose %88, %89 : (tensor<1x32x40x128xf32>, tensor<4xi32>) -> tensor<1x32x128x40xf32>
    %91 = "tosa.const"() <{value = dense<0.000000e+00> : tensor<1x32x40x128xf32>}> : () -> tensor<1x32x40x128xf32>
    %92 = tosa.add %82, %91 : (tensor<1x32x40x128xf32>, tensor<1x32x40x128xf32>) -> tensor<1x32x40x128xf32>
    %93 = tosa.reshape %92 {new_shape = array<i64: 32, 40, 128>} : (tensor<1x32x40x128xf32>) -> tensor<32x40x128xf32>
    %94 = "tosa.const"() <{value = dense<0.000000e+00> : tensor<1x32x128x40xf32>}> : () -> tensor<1x32x128x40xf32>
    %95 = tosa.add %90, %94 : (tensor<1x32x128x40xf32>, tensor<1x32x128x40xf32>) -> tensor<1x32x128x40xf32>
    %96 = tosa.reshape %95 {new_shape = array<i64: 32, 128, 40>} : (tensor<1x32x128x40xf32>) -> tensor<32x128x40xf32>
    %97 = tosa.matmul %93, %96 : (tensor<32x40x128xf32>, tensor<32x128x40xf32>) -> tensor<32x40x40xf32>
    %98 = tosa.reshape %97 {new_shape = array<i64: 1, 32, 40, 40>} : (tensor<32x40x40xf32>) -> tensor<1x32x40x40xf32>
    %99 = "tosa.const"() <{value = dense<11.3137083> : tensor<1x32x40x40xf32>}> : () -> tensor<1x32x40x40xf32>
    %100 = tosa.reciprocal %99 : (tensor<1x32x40x40xf32>) -> tensor<1x32x40x40xf32>
    %101 = tosa.mul %98, %100 {shift = 0 : i8} : (tensor<1x32x40x40xf32>, tensor<1x32x40x40xf32>) -> tensor<1x32x40x40xf32>
    %102 = tosa.add %101, %29 : (tensor<1x32x40x40xf32>, tensor<1x1x40x40xf32>) -> tensor<1x32x40x40xf32>
    %103 = tosa.reduce_max %102 {axis = 3 : i32} : (tensor<1x32x40x40xf32>) -> tensor<1x32x40x1xf32>
    %104 = tosa.sub %102, %103 : (tensor<1x32x40x40xf32>, tensor<1x32x40x1xf32>) -> tensor<1x32x40x40xf32>
    %105 = tosa.exp %104 : (tensor<1x32x40x40xf32>) -> tensor<1x32x40x40xf32>
    %106 = tosa.reduce_sum %105 {axis = 3 : i32} : (tensor<1x32x40x40xf32>) -> tensor<1x32x40x1xf32>
    %107 = tosa.reciprocal %106 : (tensor<1x32x40x1xf32>) -> tensor<1x32x40x1xf32>
    %108 = tosa.mul %105, %107 {shift = 0 : i8} : (tensor<1x32x40x40xf32>, tensor<1x32x40x1xf32>) -> tensor<1x32x40x40xf32>
    %109 = "tosa.const"() <{value = dense<0.000000e+00> : tensor<1x32x40x40xf32>}> : () -> tensor<1x32x40x40xf32>
    %110 = tosa.add %108, %109 : (tensor<1x32x40x40xf32>, tensor<1x32x40x40xf32>) -> tensor<1x32x40x40xf32>
    %111 = tosa.reshape %110 {new_shape = array<i64: 32, 40, 40>} : (tensor<1x32x40x40xf32>) -> tensor<32x40x40xf32>
    %112 = "tosa.const"() <{value = dense<0.000000e+00> : tensor<1x32x40x128xf32>}> : () -> tensor<1x32x40x128xf32>
    %113 = tosa.add %62, %112 : (tensor<1x32x40x128xf32>, tensor<1x32x40x128xf32>) -> tensor<1x32x40x128xf32>
    %114 = tosa.reshape %113 {new_shape = array<i64: 32, 40, 128>} : (tensor<1x32x40x128xf32>) -> tensor<32x40x128xf32>
    %115 = tosa.matmul %111, %114 : (tensor<32x40x40xf32>, tensor<32x40x128xf32>) -> tensor<32x40x128xf32>
    %116 = tosa.reshape %115 {new_shape = array<i64: 1, 32, 40, 128>} : (tensor<32x40x128xf32>) -> tensor<1x32x40x128xf32>
    %117 = "tosa.const"() <{value = dense<[0, 2, 1, 3]> : tensor<4xi32>}> : () -> tensor<4xi32>
    %118 = tosa.transpose %116, %117 : (tensor<1x32x40x128xf32>, tensor<4xi32>) -> tensor<1x40x32x128xf32>
    %119 = tosa.identity %118 : (tensor<1x40x32x128xf32>) -> tensor<1x40x32x128xf32>
    %120 = tosa.reshape %119 {new_shape = array<i64: 1, 40, 4096>} : (tensor<1x40x32x128xf32>) -> tensor<1x40x4096xf32>
    %121 = "tosa.const"() <{value = dense<[1, 0]> : tensor<2xi32>}> : () -> tensor<2xi32>
    %122 = tosa.transpose %arg8, %121 : (tensor<4096x4096xf32>, tensor<2xi32>) -> tensor<4096x4096xf32>
    %123 = tosa.reshape %120 {new_shape = array<i64: 40, 4096>} : (tensor<1x40x4096xf32>) -> tensor<40x4096xf32>
    %cst_23 = arith.constant dense<0.000000e+00> : tensor<40x4096xf32>
    %124 = linalg.matmul {cast = #linalg.type_fn<cast_signed>} ins(%123, %122 : tensor<40x4096xf32>, tensor<4096x4096xf32>) outs(%cst_23 : tensor<40x4096xf32>) -> tensor<40x4096xf32>
    %125 = tosa.reshape %124 {new_shape = array<i64: 1, 40, 4096>} : (tensor<40x4096xf32>) -> tensor<1x40x4096xf32>
    %126 = tosa.add %6, %125 : (tensor<1x40x4096xf32>, tensor<1x40x4096xf32>) -> tensor<1x40x4096xf32>
    %127 = tensor.empty() : tensor<1x40x4096xf32>
    %c2_i32_24 = arith.constant 2 : i32
    %128 = linalg.generic {indexing_maps = [#map5, #map5], iterator_types = ["parallel", "parallel", "parallel"]} ins(%126 : tensor<1x40x4096xf32>) outs(%127 : tensor<1x40x4096xf32>) {
    ^bb0(%in: f32, %out: f32):
      %4044 = math.fpowi %in, %c2_i32_24 : f32, i32
      linalg.yield %4044 : f32
    } -> tensor<1x40x4096xf32>
    %cst_25 = arith.constant dense<0.000000e+00> : tensor<1x40x1xf32>
    %129 = linalg.generic {indexing_maps = [#map6, #map7], iterator_types = ["parallel", "parallel", "reduction", "parallel"]} ins(%128 : tensor<1x40x4096xf32>) outs(%cst_25 : tensor<1x40x1xf32>) {
    ^bb0(%in: f32, %out: f32):
      %cst_807 = arith.constant 4.096000e+03 : f32
      %4044 = arith.divf %in, %cst_807 : f32
      %4045 = arith.addf %4044, %out : f32
      linalg.yield %4045 : f32
    } -> tensor<1x40x1xf32>
    %130 = "tosa.const"() <{value = dense<9.99999997E-7> : tensor<1x40x1xf32>}> : () -> tensor<1x40x1xf32>
    %131 = tosa.add %129, %130 : (tensor<1x40x1xf32>, tensor<1x40x1xf32>) -> tensor<1x40x1xf32>
    %132 = tosa.rsqrt %131 : (tensor<1x40x1xf32>) -> tensor<1x40x1xf32>
    %133 = tosa.mul %126, %132 {shift = 0 : i8} : (tensor<1x40x4096xf32>, tensor<1x40x1xf32>) -> tensor<1x40x4096xf32>
    %134 = tosa.reshape %arg9 {new_shape = array<i64: 1, 1, 4096>} : (tensor<4096xf32>) -> tensor<1x1x4096xf32>
    %135 = tosa.mul %134, %133 {shift = 0 : i8} : (tensor<1x1x4096xf32>, tensor<1x40x4096xf32>) -> tensor<1x40x4096xf32>
    %136 = "tosa.const"() <{value = dense<[1, 0]> : tensor<2xi32>}> : () -> tensor<2xi32>
    %137 = tosa.transpose %arg10, %136 : (tensor<11008x4096xf32>, tensor<2xi32>) -> tensor<4096x11008xf32>
    %138 = tosa.reshape %135 {new_shape = array<i64: 40, 4096>} : (tensor<1x40x4096xf32>) -> tensor<40x4096xf32>
    %cst_26 = arith.constant dense<0.000000e+00> : tensor<40x11008xf32>
    %139 = linalg.matmul {cast = #linalg.type_fn<cast_signed>} ins(%138, %137 : tensor<40x4096xf32>, tensor<4096x11008xf32>) outs(%cst_26 : tensor<40x11008xf32>) -> tensor<40x11008xf32>
    %140 = tosa.reshape %139 {new_shape = array<i64: 1, 40, 11008>} : (tensor<40x11008xf32>) -> tensor<1x40x11008xf32>
    %141 = tosa.sigmoid %140 : (tensor<1x40x11008xf32>) -> tensor<1x40x11008xf32>
    %142 = tosa.mul %140, %141 {shift = 0 : i8} : (tensor<1x40x11008xf32>, tensor<1x40x11008xf32>) -> tensor<1x40x11008xf32>
    %143 = "tosa.const"() <{value = dense<[1, 0]> : tensor<2xi32>}> : () -> tensor<2xi32>
    %144 = tosa.transpose %arg11, %143 : (tensor<11008x4096xf32>, tensor<2xi32>) -> tensor<4096x11008xf32>
    %145 = tosa.reshape %135 {new_shape = array<i64: 40, 4096>} : (tensor<1x40x4096xf32>) -> tensor<40x4096xf32>
    %cst_27 = arith.constant dense<0.000000e+00> : tensor<40x11008xf32>
    %146 = linalg.matmul {cast = #linalg.type_fn<cast_signed>} ins(%145, %144 : tensor<40x4096xf32>, tensor<4096x11008xf32>) outs(%cst_27 : tensor<40x11008xf32>) -> tensor<40x11008xf32>
    %147 = tosa.reshape %146 {new_shape = array<i64: 1, 40, 11008>} : (tensor<40x11008xf32>) -> tensor<1x40x11008xf32>
    %148 = tosa.mul %142, %147 {shift = 0 : i8} : (tensor<1x40x11008xf32>, tensor<1x40x11008xf32>) -> tensor<1x40x11008xf32>
    %149 = "tosa.const"() <{value = dense<[1, 0]> : tensor<2xi32>}> : () -> tensor<2xi32>
    %150 = tosa.transpose %arg12, %149 : (tensor<4096x11008xf32>, tensor<2xi32>) -> tensor<11008x4096xf32>
    %151 = tosa.reshape %148 {new_shape = array<i64: 40, 11008>} : (tensor<1x40x11008xf32>) -> tensor<40x11008xf32>
    %cst_28 = arith.constant dense<0.000000e+00> : tensor<40x4096xf32>
    %152 = linalg.matmul {cast = #linalg.type_fn<cast_signed>} ins(%151, %150 : tensor<40x11008xf32>, tensor<11008x4096xf32>) outs(%cst_28 : tensor<40x4096xf32>) -> tensor<40x4096xf32>
    %153 = tosa.reshape %152 {new_shape = array<i64: 1, 40, 4096>} : (tensor<40x4096xf32>) -> tensor<1x40x4096xf32>
    %154 = tosa.add %126, %153 : (tensor<1x40x4096xf32>, tensor<1x40x4096xf32>) -> tensor<1x40x4096xf32>
    %155 = tensor.empty() : tensor<1x40x4096xf32>
    %c2_i32_29 = arith.constant 2 : i32
    %156 = linalg.generic {indexing_maps = [#map5, #map5], iterator_types = ["parallel", "parallel", "parallel"]} ins(%154 : tensor<1x40x4096xf32>) outs(%155 : tensor<1x40x4096xf32>) {
    ^bb0(%in: f32, %out: f32):
      %4044 = math.fpowi %in, %c2_i32_29 : f32, i32
      linalg.yield %4044 : f32
    } -> tensor<1x40x4096xf32>
    %cst_30 = arith.constant dense<0.000000e+00> : tensor<1x40x1xf32>
    %157 = linalg.generic {indexing_maps = [#map6, #map7], iterator_types = ["parallel", "parallel", "reduction", "parallel"]} ins(%156 : tensor<1x40x4096xf32>) outs(%cst_30 : tensor<1x40x1xf32>) {
    ^bb0(%in: f32, %out: f32):
      %cst_807 = arith.constant 4.096000e+03 : f32
      %4044 = arith.divf %in, %cst_807 : f32
      %4045 = arith.addf %4044, %out : f32
      linalg.yield %4045 : f32
    } -> tensor<1x40x1xf32>
    %158 = "tosa.const"() <{value = dense<9.99999997E-7> : tensor<1x40x1xf32>}> : () -> tensor<1x40x1xf32>
    %159 = tosa.add %157, %158 : (tensor<1x40x1xf32>, tensor<1x40x1xf32>) -> tensor<1x40x1xf32>
    %160 = tosa.rsqrt %159 : (tensor<1x40x1xf32>) -> tensor<1x40x1xf32>
    %161 = tosa.mul %154, %160 {shift = 0 : i8} : (tensor<1x40x4096xf32>, tensor<1x40x1xf32>) -> tensor<1x40x4096xf32>
    %162 = tosa.reshape %arg13 {new_shape = array<i64: 1, 1, 4096>} : (tensor<4096xf32>) -> tensor<1x1x4096xf32>
    %163 = tosa.mul %162, %161 {shift = 0 : i8} : (tensor<1x1x4096xf32>, tensor<1x40x4096xf32>) -> tensor<1x40x4096xf32>
    %164 = "tosa.const"() <{value = dense<[1, 0]> : tensor<2xi32>}> : () -> tensor<2xi32>
    %165 = tosa.transpose %arg14, %164 : (tensor<4096x4096xf32>, tensor<2xi32>) -> tensor<4096x4096xf32>
    %166 = tosa.reshape %163 {new_shape = array<i64: 40, 4096>} : (tensor<1x40x4096xf32>) -> tensor<40x4096xf32>
    %cst_31 = arith.constant dense<0.000000e+00> : tensor<40x4096xf32>
    %167 = linalg.matmul {cast = #linalg.type_fn<cast_signed>} ins(%166, %165 : tensor<40x4096xf32>, tensor<4096x4096xf32>) outs(%cst_31 : tensor<40x4096xf32>) -> tensor<40x4096xf32>
    %168 = tosa.reshape %167 {new_shape = array<i64: 1, 40, 4096>} : (tensor<40x4096xf32>) -> tensor<1x40x4096xf32>
    %169 = "tosa.const"() <{value = dense<[1, 0]> : tensor<2xi32>}> : () -> tensor<2xi32>
    %170 = tosa.transpose %arg15, %169 : (tensor<4096x4096xf32>, tensor<2xi32>) -> tensor<4096x4096xf32>
    %171 = tosa.reshape %163 {new_shape = array<i64: 40, 4096>} : (tensor<1x40x4096xf32>) -> tensor<40x4096xf32>
    %cst_32 = arith.constant dense<0.000000e+00> : tensor<40x4096xf32>
    %172 = linalg.matmul {cast = #linalg.type_fn<cast_signed>} ins(%171, %170 : tensor<40x4096xf32>, tensor<4096x4096xf32>) outs(%cst_32 : tensor<40x4096xf32>) -> tensor<40x4096xf32>
    %173 = tosa.reshape %172 {new_shape = array<i64: 1, 40, 4096>} : (tensor<40x4096xf32>) -> tensor<1x40x4096xf32>
    %174 = "tosa.const"() <{value = dense<[1, 0]> : tensor<2xi32>}> : () -> tensor<2xi32>
    %175 = tosa.transpose %arg16, %174 : (tensor<4096x4096xf32>, tensor<2xi32>) -> tensor<4096x4096xf32>
    %176 = tosa.reshape %163 {new_shape = array<i64: 40, 4096>} : (tensor<1x40x4096xf32>) -> tensor<40x4096xf32>
    %cst_33 = arith.constant dense<0.000000e+00> : tensor<40x4096xf32>
    %177 = linalg.matmul {cast = #linalg.type_fn<cast_signed>} ins(%176, %175 : tensor<40x4096xf32>, tensor<4096x4096xf32>) outs(%cst_33 : tensor<40x4096xf32>) -> tensor<40x4096xf32>
    %178 = tosa.reshape %177 {new_shape = array<i64: 1, 40, 4096>} : (tensor<40x4096xf32>) -> tensor<1x40x4096xf32>
    %179 = tosa.reshape %168 {new_shape = array<i64: 1, 40, 32, 128>} : (tensor<1x40x4096xf32>) -> tensor<1x40x32x128xf32>
    %180 = "tosa.const"() <{value = dense<[0, 2, 1, 3]> : tensor<4xi32>}> : () -> tensor<4xi32>
    %181 = tosa.transpose %179, %180 : (tensor<1x40x32x128xf32>, tensor<4xi32>) -> tensor<1x32x40x128xf32>
    %182 = tosa.reshape %173 {new_shape = array<i64: 1, 40, 32, 128>} : (tensor<1x40x4096xf32>) -> tensor<1x40x32x128xf32>
    %183 = "tosa.const"() <{value = dense<[0, 2, 1, 3]> : tensor<4xi32>}> : () -> tensor<4xi32>
    %184 = tosa.transpose %182, %183 : (tensor<1x40x32x128xf32>, tensor<4xi32>) -> tensor<1x32x40x128xf32>
    %185 = tosa.reshape %178 {new_shape = array<i64: 1, 40, 32, 128>} : (tensor<1x40x4096xf32>) -> tensor<1x40x32x128xf32>
    %186 = "tosa.const"() <{value = dense<[0, 2, 1, 3]> : tensor<4xi32>}> : () -> tensor<4xi32>
    %187 = tosa.transpose %185, %186 : (tensor<1x40x32x128xf32>, tensor<4xi32>) -> tensor<1x32x40x128xf32>
    %extracted_slice_34 = tensor.extract_slice %arg17[0, 0, 0, 0] [1, 1, 2048, 128] [1, 1, 1, 1] : tensor<1x1x2048x128xf32> to tensor<1x1x2048x128xf32>
    %extracted_slice_35 = tensor.extract_slice %extracted_slice_34[0, 0, 0, 0] [1, 1, 2048, 128] [1, 1, 1, 1] : tensor<1x1x2048x128xf32> to tensor<1x1x2048x128xf32>
    %extracted_slice_36 = tensor.extract_slice %extracted_slice_35[0, 0, 0, 0] [1, 1, 40, 128] [1, 1, 1, 1] : tensor<1x1x2048x128xf32> to tensor<1x1x40x128xf32>
    %extracted_slice_37 = tensor.extract_slice %arg18[0, 0, 0, 0] [1, 1, 2048, 128] [1, 1, 1, 1] : tensor<1x1x2048x128xf32> to tensor<1x1x2048x128xf32>
    %extracted_slice_38 = tensor.extract_slice %extracted_slice_37[0, 0, 0, 0] [1, 1, 2048, 128] [1, 1, 1, 1] : tensor<1x1x2048x128xf32> to tensor<1x1x2048x128xf32>
    %extracted_slice_39 = tensor.extract_slice %extracted_slice_38[0, 0, 0, 0] [1, 1, 40, 128] [1, 1, 1, 1] : tensor<1x1x2048x128xf32> to tensor<1x1x40x128xf32>
    %188 = tensor.empty() : tensor<1x40x128xf32>
    %189 = linalg.generic {indexing_maps = [#map8, #map5], iterator_types = ["parallel", "parallel", "parallel"]} ins(%extracted_slice_36 : tensor<1x1x40x128xf32>) outs(%188 : tensor<1x40x128xf32>) {
    ^bb0(%in: f32, %out: f32):
      linalg.yield %in : f32
    } -> tensor<1x40x128xf32>
    %190 = tensor.empty() : tensor<40x128xf32>
    %191 = linalg.generic {indexing_maps = [#map9, #map3], iterator_types = ["parallel", "parallel"]} ins(%189 : tensor<1x40x128xf32>) outs(%190 : tensor<40x128xf32>) {
    ^bb0(%in: f32, %out: f32):
      linalg.yield %in : f32
    } -> tensor<40x128xf32>
    %192 = tensor.empty() : tensor<1x40x128xf32>
    %193 = linalg.generic {indexing_maps = [#map8, #map5], iterator_types = ["parallel", "parallel", "parallel"]} ins(%extracted_slice_39 : tensor<1x1x40x128xf32>) outs(%192 : tensor<1x40x128xf32>) {
    ^bb0(%in: f32, %out: f32):
      linalg.yield %in : f32
    } -> tensor<1x40x128xf32>
    %194 = tensor.empty() : tensor<40x128xf32>
    %195 = linalg.generic {indexing_maps = [#map9, #map3], iterator_types = ["parallel", "parallel"]} ins(%193 : tensor<1x40x128xf32>) outs(%194 : tensor<40x128xf32>) {
    ^bb0(%in: f32, %out: f32):
      linalg.yield %in : f32
    } -> tensor<40x128xf32>
    %196 = tensor.empty() : tensor<1x40x128xf32>
    %197 = linalg.generic {indexing_maps = [#map2, #map5], iterator_types = ["parallel", "parallel", "parallel"]} ins(%2 : tensor<1x40xi64>) outs(%196 : tensor<1x40x128xf32>) {
    ^bb0(%in: i64, %out: f32):
      %4044 = arith.index_cast %in : i64 to index
      %4045 = linalg.index 2 : index
      %extracted = tensor.extract %191[%4044, %4045] : tensor<40x128xf32>
      linalg.yield %extracted : f32
    } -> tensor<1x40x128xf32>
    %198 = tosa.reshape %197 {new_shape = array<i64: 1, 1, 40, 128>} : (tensor<1x40x128xf32>) -> tensor<1x1x40x128xf32>
    %199 = tensor.empty() : tensor<1x40x128xf32>
    %200 = linalg.generic {indexing_maps = [#map2, #map5], iterator_types = ["parallel", "parallel", "parallel"]} ins(%2 : tensor<1x40xi64>) outs(%199 : tensor<1x40x128xf32>) {
    ^bb0(%in: i64, %out: f32):
      %4044 = arith.index_cast %in : i64 to index
      %4045 = linalg.index 2 : index
      %extracted = tensor.extract %195[%4044, %4045] : tensor<40x128xf32>
      linalg.yield %extracted : f32
    } -> tensor<1x40x128xf32>
    %201 = tosa.reshape %200 {new_shape = array<i64: 1, 1, 40, 128>} : (tensor<1x40x128xf32>) -> tensor<1x1x40x128xf32>
    %202 = tosa.mul %181, %198 {shift = 0 : i8} : (tensor<1x32x40x128xf32>, tensor<1x1x40x128xf32>) -> tensor<1x32x40x128xf32>
    %extracted_slice_40 = tensor.extract_slice %181[0, 0, 0, 0] [1, 32, 40, 64] [1, 1, 1, 1] : tensor<1x32x40x128xf32> to tensor<1x32x40x64xf32>
    %extracted_slice_41 = tensor.extract_slice %181[0, 0, 0, 64] [1, 32, 40, 64] [1, 1, 1, 1] : tensor<1x32x40x128xf32> to tensor<1x32x40x64xf32>
    %203 = tensor.empty() : tensor<1x32x40x64xf32>
    %204 = linalg.negf ins(%extracted_slice_41 : tensor<1x32x40x64xf32>) outs(%203 : tensor<1x32x40x64xf32>) -> tensor<1x32x40x64xf32>
    %205 = tensor.empty() : tensor<1x32x40x128xf32>
    %inserted_slice_42 = tensor.insert_slice %204 into %205[0, 0, 0, 0] [1, 32, 40, 64] [1, 1, 1, 1] : tensor<1x32x40x64xf32> into tensor<1x32x40x128xf32>
    %inserted_slice_43 = tensor.insert_slice %extracted_slice_40 into %inserted_slice_42[0, 0, 0, 64] [1, 32, 40, 64] [1, 1, 1, 1] : tensor<1x32x40x64xf32> into tensor<1x32x40x128xf32>
    %206 = tosa.mul %inserted_slice_43, %201 {shift = 0 : i8} : (tensor<1x32x40x128xf32>, tensor<1x1x40x128xf32>) -> tensor<1x32x40x128xf32>
    %207 = tosa.add %202, %206 : (tensor<1x32x40x128xf32>, tensor<1x32x40x128xf32>) -> tensor<1x32x40x128xf32>
    %208 = tosa.mul %184, %198 {shift = 0 : i8} : (tensor<1x32x40x128xf32>, tensor<1x1x40x128xf32>) -> tensor<1x32x40x128xf32>
    %extracted_slice_44 = tensor.extract_slice %184[0, 0, 0, 0] [1, 32, 40, 64] [1, 1, 1, 1] : tensor<1x32x40x128xf32> to tensor<1x32x40x64xf32>
    %extracted_slice_45 = tensor.extract_slice %184[0, 0, 0, 64] [1, 32, 40, 64] [1, 1, 1, 1] : tensor<1x32x40x128xf32> to tensor<1x32x40x64xf32>
    %209 = tensor.empty() : tensor<1x32x40x64xf32>
    %210 = linalg.negf ins(%extracted_slice_45 : tensor<1x32x40x64xf32>) outs(%209 : tensor<1x32x40x64xf32>) -> tensor<1x32x40x64xf32>
    %211 = tensor.empty() : tensor<1x32x40x128xf32>
    %inserted_slice_46 = tensor.insert_slice %210 into %211[0, 0, 0, 0] [1, 32, 40, 64] [1, 1, 1, 1] : tensor<1x32x40x64xf32> into tensor<1x32x40x128xf32>
    %inserted_slice_47 = tensor.insert_slice %extracted_slice_44 into %inserted_slice_46[0, 0, 0, 64] [1, 32, 40, 64] [1, 1, 1, 1] : tensor<1x32x40x64xf32> into tensor<1x32x40x128xf32>
    %212 = tosa.mul %inserted_slice_47, %201 {shift = 0 : i8} : (tensor<1x32x40x128xf32>, tensor<1x1x40x128xf32>) -> tensor<1x32x40x128xf32>
    %213 = tosa.add %208, %212 : (tensor<1x32x40x128xf32>, tensor<1x32x40x128xf32>) -> tensor<1x32x40x128xf32>
    %214 = "tosa.const"() <{value = dense<[0, 1, 3, 2]> : tensor<4xi32>}> : () -> tensor<4xi32>
    %215 = tosa.transpose %213, %214 : (tensor<1x32x40x128xf32>, tensor<4xi32>) -> tensor<1x32x128x40xf32>
    %216 = "tosa.const"() <{value = dense<0.000000e+00> : tensor<1x32x40x128xf32>}> : () -> tensor<1x32x40x128xf32>
    %217 = tosa.add %207, %216 : (tensor<1x32x40x128xf32>, tensor<1x32x40x128xf32>) -> tensor<1x32x40x128xf32>
    %218 = tosa.reshape %217 {new_shape = array<i64: 32, 40, 128>} : (tensor<1x32x40x128xf32>) -> tensor<32x40x128xf32>
    %219 = "tosa.const"() <{value = dense<0.000000e+00> : tensor<1x32x128x40xf32>}> : () -> tensor<1x32x128x40xf32>
    %220 = tosa.add %215, %219 : (tensor<1x32x128x40xf32>, tensor<1x32x128x40xf32>) -> tensor<1x32x128x40xf32>
    %221 = tosa.reshape %220 {new_shape = array<i64: 32, 128, 40>} : (tensor<1x32x128x40xf32>) -> tensor<32x128x40xf32>
    %222 = tosa.matmul %218, %221 : (tensor<32x40x128xf32>, tensor<32x128x40xf32>) -> tensor<32x40x40xf32>
    %223 = tosa.reshape %222 {new_shape = array<i64: 1, 32, 40, 40>} : (tensor<32x40x40xf32>) -> tensor<1x32x40x40xf32>
    %224 = "tosa.const"() <{value = dense<11.3137083> : tensor<1x32x40x40xf32>}> : () -> tensor<1x32x40x40xf32>
    %225 = tosa.reciprocal %224 : (tensor<1x32x40x40xf32>) -> tensor<1x32x40x40xf32>
    %226 = tosa.mul %223, %225 {shift = 0 : i8} : (tensor<1x32x40x40xf32>, tensor<1x32x40x40xf32>) -> tensor<1x32x40x40xf32>
    %227 = tosa.add %226, %29 : (tensor<1x32x40x40xf32>, tensor<1x1x40x40xf32>) -> tensor<1x32x40x40xf32>
    %228 = tosa.reduce_max %227 {axis = 3 : i32} : (tensor<1x32x40x40xf32>) -> tensor<1x32x40x1xf32>
    %229 = tosa.sub %227, %228 : (tensor<1x32x40x40xf32>, tensor<1x32x40x1xf32>) -> tensor<1x32x40x40xf32>
    %230 = tosa.exp %229 : (tensor<1x32x40x40xf32>) -> tensor<1x32x40x40xf32>
    %231 = tosa.reduce_sum %230 {axis = 3 : i32} : (tensor<1x32x40x40xf32>) -> tensor<1x32x40x1xf32>
    %232 = tosa.reciprocal %231 : (tensor<1x32x40x1xf32>) -> tensor<1x32x40x1xf32>
    %233 = tosa.mul %230, %232 {shift = 0 : i8} : (tensor<1x32x40x40xf32>, tensor<1x32x40x1xf32>) -> tensor<1x32x40x40xf32>
    %234 = "tosa.const"() <{value = dense<0.000000e+00> : tensor<1x32x40x40xf32>}> : () -> tensor<1x32x40x40xf32>
    %235 = tosa.add %233, %234 : (tensor<1x32x40x40xf32>, tensor<1x32x40x40xf32>) -> tensor<1x32x40x40xf32>
    %236 = tosa.reshape %235 {new_shape = array<i64: 32, 40, 40>} : (tensor<1x32x40x40xf32>) -> tensor<32x40x40xf32>
    %237 = "tosa.const"() <{value = dense<0.000000e+00> : tensor<1x32x40x128xf32>}> : () -> tensor<1x32x40x128xf32>
    %238 = tosa.add %187, %237 : (tensor<1x32x40x128xf32>, tensor<1x32x40x128xf32>) -> tensor<1x32x40x128xf32>
    %239 = tosa.reshape %238 {new_shape = array<i64: 32, 40, 128>} : (tensor<1x32x40x128xf32>) -> tensor<32x40x128xf32>
    %240 = tosa.matmul %236, %239 : (tensor<32x40x40xf32>, tensor<32x40x128xf32>) -> tensor<32x40x128xf32>
    %241 = tosa.reshape %240 {new_shape = array<i64: 1, 32, 40, 128>} : (tensor<32x40x128xf32>) -> tensor<1x32x40x128xf32>
    %242 = "tosa.const"() <{value = dense<[0, 2, 1, 3]> : tensor<4xi32>}> : () -> tensor<4xi32>
    %243 = tosa.transpose %241, %242 : (tensor<1x32x40x128xf32>, tensor<4xi32>) -> tensor<1x40x32x128xf32>
    %244 = tosa.identity %243 : (tensor<1x40x32x128xf32>) -> tensor<1x40x32x128xf32>
    %245 = tosa.reshape %244 {new_shape = array<i64: 1, 40, 4096>} : (tensor<1x40x32x128xf32>) -> tensor<1x40x4096xf32>
    %246 = "tosa.const"() <{value = dense<[1, 0]> : tensor<2xi32>}> : () -> tensor<2xi32>
    %247 = tosa.transpose %arg19, %246 : (tensor<4096x4096xf32>, tensor<2xi32>) -> tensor<4096x4096xf32>
    %248 = tosa.reshape %245 {new_shape = array<i64: 40, 4096>} : (tensor<1x40x4096xf32>) -> tensor<40x4096xf32>
    %cst_48 = arith.constant dense<0.000000e+00> : tensor<40x4096xf32>
    %249 = linalg.matmul {cast = #linalg.type_fn<cast_signed>} ins(%248, %247 : tensor<40x4096xf32>, tensor<4096x4096xf32>) outs(%cst_48 : tensor<40x4096xf32>) -> tensor<40x4096xf32>
    %250 = tosa.reshape %249 {new_shape = array<i64: 1, 40, 4096>} : (tensor<40x4096xf32>) -> tensor<1x40x4096xf32>
    %251 = tosa.add %154, %250 : (tensor<1x40x4096xf32>, tensor<1x40x4096xf32>) -> tensor<1x40x4096xf32>
    %252 = tensor.empty() : tensor<1x40x4096xf32>
    %c2_i32_49 = arith.constant 2 : i32
    %253 = linalg.generic {indexing_maps = [#map5, #map5], iterator_types = ["parallel", "parallel", "parallel"]} ins(%251 : tensor<1x40x4096xf32>) outs(%252 : tensor<1x40x4096xf32>) {
    ^bb0(%in: f32, %out: f32):
      %4044 = math.fpowi %in, %c2_i32_49 : f32, i32
      linalg.yield %4044 : f32
    } -> tensor<1x40x4096xf32>
    %cst_50 = arith.constant dense<0.000000e+00> : tensor<1x40x1xf32>
    %254 = linalg.generic {indexing_maps = [#map6, #map7], iterator_types = ["parallel", "parallel", "reduction", "parallel"]} ins(%253 : tensor<1x40x4096xf32>) outs(%cst_50 : tensor<1x40x1xf32>) {
    ^bb0(%in: f32, %out: f32):
      %cst_807 = arith.constant 4.096000e+03 : f32
      %4044 = arith.divf %in, %cst_807 : f32
      %4045 = arith.addf %4044, %out : f32
      linalg.yield %4045 : f32
    } -> tensor<1x40x1xf32>
    %255 = "tosa.const"() <{value = dense<9.99999997E-7> : tensor<1x40x1xf32>}> : () -> tensor<1x40x1xf32>
    %256 = tosa.add %254, %255 : (tensor<1x40x1xf32>, tensor<1x40x1xf32>) -> tensor<1x40x1xf32>
    %257 = tosa.rsqrt %256 : (tensor<1x40x1xf32>) -> tensor<1x40x1xf32>
    %258 = tosa.mul %251, %257 {shift = 0 : i8} : (tensor<1x40x4096xf32>, tensor<1x40x1xf32>) -> tensor<1x40x4096xf32>
    %259 = tosa.reshape %arg20 {new_shape = array<i64: 1, 1, 4096>} : (tensor<4096xf32>) -> tensor<1x1x4096xf32>
    %260 = tosa.mul %259, %258 {shift = 0 : i8} : (tensor<1x1x4096xf32>, tensor<1x40x4096xf32>) -> tensor<1x40x4096xf32>
    %261 = "tosa.const"() <{value = dense<[1, 0]> : tensor<2xi32>}> : () -> tensor<2xi32>
    %262 = tosa.transpose %arg21, %261 : (tensor<11008x4096xf32>, tensor<2xi32>) -> tensor<4096x11008xf32>
    %263 = tosa.reshape %260 {new_shape = array<i64: 40, 4096>} : (tensor<1x40x4096xf32>) -> tensor<40x4096xf32>
    %cst_51 = arith.constant dense<0.000000e+00> : tensor<40x11008xf32>
    %264 = linalg.matmul {cast = #linalg.type_fn<cast_signed>} ins(%263, %262 : tensor<40x4096xf32>, tensor<4096x11008xf32>) outs(%cst_51 : tensor<40x11008xf32>) -> tensor<40x11008xf32>
    %265 = tosa.reshape %264 {new_shape = array<i64: 1, 40, 11008>} : (tensor<40x11008xf32>) -> tensor<1x40x11008xf32>
    %266 = tosa.sigmoid %265 : (tensor<1x40x11008xf32>) -> tensor<1x40x11008xf32>
    %267 = tosa.mul %265, %266 {shift = 0 : i8} : (tensor<1x40x11008xf32>, tensor<1x40x11008xf32>) -> tensor<1x40x11008xf32>
    %268 = "tosa.const"() <{value = dense<[1, 0]> : tensor<2xi32>}> : () -> tensor<2xi32>
    %269 = tosa.transpose %arg22, %268 : (tensor<11008x4096xf32>, tensor<2xi32>) -> tensor<4096x11008xf32>
    %270 = tosa.reshape %260 {new_shape = array<i64: 40, 4096>} : (tensor<1x40x4096xf32>) -> tensor<40x4096xf32>
    %cst_52 = arith.constant dense<0.000000e+00> : tensor<40x11008xf32>
    %271 = linalg.matmul {cast = #linalg.type_fn<cast_signed>} ins(%270, %269 : tensor<40x4096xf32>, tensor<4096x11008xf32>) outs(%cst_52 : tensor<40x11008xf32>) -> tensor<40x11008xf32>
    %272 = tosa.reshape %271 {new_shape = array<i64: 1, 40, 11008>} : (tensor<40x11008xf32>) -> tensor<1x40x11008xf32>
    %273 = tosa.mul %267, %272 {shift = 0 : i8} : (tensor<1x40x11008xf32>, tensor<1x40x11008xf32>) -> tensor<1x40x11008xf32>
    %274 = "tosa.const"() <{value = dense<[1, 0]> : tensor<2xi32>}> : () -> tensor<2xi32>
    %275 = tosa.transpose %arg23, %274 : (tensor<4096x11008xf32>, tensor<2xi32>) -> tensor<11008x4096xf32>
    %276 = tosa.reshape %273 {new_shape = array<i64: 40, 11008>} : (tensor<1x40x11008xf32>) -> tensor<40x11008xf32>
    %cst_53 = arith.constant dense<0.000000e+00> : tensor<40x4096xf32>
    %277 = linalg.matmul {cast = #linalg.type_fn<cast_signed>} ins(%276, %275 : tensor<40x11008xf32>, tensor<11008x4096xf32>) outs(%cst_53 : tensor<40x4096xf32>) -> tensor<40x4096xf32>
    %278 = tosa.reshape %277 {new_shape = array<i64: 1, 40, 4096>} : (tensor<40x4096xf32>) -> tensor<1x40x4096xf32>
    %279 = tosa.add %251, %278 : (tensor<1x40x4096xf32>, tensor<1x40x4096xf32>) -> tensor<1x40x4096xf32>
    %280 = tensor.empty() : tensor<1x40x4096xf32>
    %c2_i32_54 = arith.constant 2 : i32
    %281 = linalg.generic {indexing_maps = [#map5, #map5], iterator_types = ["parallel", "parallel", "parallel"]} ins(%279 : tensor<1x40x4096xf32>) outs(%280 : tensor<1x40x4096xf32>) {
    ^bb0(%in: f32, %out: f32):
      %4044 = math.fpowi %in, %c2_i32_54 : f32, i32
      linalg.yield %4044 : f32
    } -> tensor<1x40x4096xf32>
    %cst_55 = arith.constant dense<0.000000e+00> : tensor<1x40x1xf32>
    %282 = linalg.generic {indexing_maps = [#map6, #map7], iterator_types = ["parallel", "parallel", "reduction", "parallel"]} ins(%281 : tensor<1x40x4096xf32>) outs(%cst_55 : tensor<1x40x1xf32>) {
    ^bb0(%in: f32, %out: f32):
      %cst_807 = arith.constant 4.096000e+03 : f32
      %4044 = arith.divf %in, %cst_807 : f32
      %4045 = arith.addf %4044, %out : f32
      linalg.yield %4045 : f32
    } -> tensor<1x40x1xf32>
    %283 = "tosa.const"() <{value = dense<9.99999997E-7> : tensor<1x40x1xf32>}> : () -> tensor<1x40x1xf32>
    %284 = tosa.add %282, %283 : (tensor<1x40x1xf32>, tensor<1x40x1xf32>) -> tensor<1x40x1xf32>
    %285 = tosa.rsqrt %284 : (tensor<1x40x1xf32>) -> tensor<1x40x1xf32>
    %286 = tosa.mul %279, %285 {shift = 0 : i8} : (tensor<1x40x4096xf32>, tensor<1x40x1xf32>) -> tensor<1x40x4096xf32>
    %287 = tosa.reshape %arg24 {new_shape = array<i64: 1, 1, 4096>} : (tensor<4096xf32>) -> tensor<1x1x4096xf32>
    %288 = tosa.mul %287, %286 {shift = 0 : i8} : (tensor<1x1x4096xf32>, tensor<1x40x4096xf32>) -> tensor<1x40x4096xf32>
    %289 = "tosa.const"() <{value = dense<[1, 0]> : tensor<2xi32>}> : () -> tensor<2xi32>
    %290 = tosa.transpose %arg25, %289 : (tensor<4096x4096xf32>, tensor<2xi32>) -> tensor<4096x4096xf32>
    %291 = tosa.reshape %288 {new_shape = array<i64: 40, 4096>} : (tensor<1x40x4096xf32>) -> tensor<40x4096xf32>
    %cst_56 = arith.constant dense<0.000000e+00> : tensor<40x4096xf32>
    %292 = linalg.matmul {cast = #linalg.type_fn<cast_signed>} ins(%291, %290 : tensor<40x4096xf32>, tensor<4096x4096xf32>) outs(%cst_56 : tensor<40x4096xf32>) -> tensor<40x4096xf32>
    %293 = tosa.reshape %292 {new_shape = array<i64: 1, 40, 4096>} : (tensor<40x4096xf32>) -> tensor<1x40x4096xf32>
    %294 = "tosa.const"() <{value = dense<[1, 0]> : tensor<2xi32>}> : () -> tensor<2xi32>
    %295 = tosa.transpose %arg26, %294 : (tensor<4096x4096xf32>, tensor<2xi32>) -> tensor<4096x4096xf32>
    %296 = tosa.reshape %288 {new_shape = array<i64: 40, 4096>} : (tensor<1x40x4096xf32>) -> tensor<40x4096xf32>
    %cst_57 = arith.constant dense<0.000000e+00> : tensor<40x4096xf32>
    %297 = linalg.matmul {cast = #linalg.type_fn<cast_signed>} ins(%296, %295 : tensor<40x4096xf32>, tensor<4096x4096xf32>) outs(%cst_57 : tensor<40x4096xf32>) -> tensor<40x4096xf32>
    %298 = tosa.reshape %297 {new_shape = array<i64: 1, 40, 4096>} : (tensor<40x4096xf32>) -> tensor<1x40x4096xf32>
    %299 = "tosa.const"() <{value = dense<[1, 0]> : tensor<2xi32>}> : () -> tensor<2xi32>
    %300 = tosa.transpose %arg27, %299 : (tensor<4096x4096xf32>, tensor<2xi32>) -> tensor<4096x4096xf32>
    %301 = tosa.reshape %288 {new_shape = array<i64: 40, 4096>} : (tensor<1x40x4096xf32>) -> tensor<40x4096xf32>
    %cst_58 = arith.constant dense<0.000000e+00> : tensor<40x4096xf32>
    %302 = linalg.matmul {cast = #linalg.type_fn<cast_signed>} ins(%301, %300 : tensor<40x4096xf32>, tensor<4096x4096xf32>) outs(%cst_58 : tensor<40x4096xf32>) -> tensor<40x4096xf32>
    %303 = tosa.reshape %302 {new_shape = array<i64: 1, 40, 4096>} : (tensor<40x4096xf32>) -> tensor<1x40x4096xf32>
    %304 = tosa.reshape %293 {new_shape = array<i64: 1, 40, 32, 128>} : (tensor<1x40x4096xf32>) -> tensor<1x40x32x128xf32>
    %305 = "tosa.const"() <{value = dense<[0, 2, 1, 3]> : tensor<4xi32>}> : () -> tensor<4xi32>
    %306 = tosa.transpose %304, %305 : (tensor<1x40x32x128xf32>, tensor<4xi32>) -> tensor<1x32x40x128xf32>
    %307 = tosa.reshape %298 {new_shape = array<i64: 1, 40, 32, 128>} : (tensor<1x40x4096xf32>) -> tensor<1x40x32x128xf32>
    %308 = "tosa.const"() <{value = dense<[0, 2, 1, 3]> : tensor<4xi32>}> : () -> tensor<4xi32>
    %309 = tosa.transpose %307, %308 : (tensor<1x40x32x128xf32>, tensor<4xi32>) -> tensor<1x32x40x128xf32>
    %310 = tosa.reshape %303 {new_shape = array<i64: 1, 40, 32, 128>} : (tensor<1x40x4096xf32>) -> tensor<1x40x32x128xf32>
    %311 = "tosa.const"() <{value = dense<[0, 2, 1, 3]> : tensor<4xi32>}> : () -> tensor<4xi32>
    %312 = tosa.transpose %310, %311 : (tensor<1x40x32x128xf32>, tensor<4xi32>) -> tensor<1x32x40x128xf32>
    %extracted_slice_59 = tensor.extract_slice %arg28[0, 0, 0, 0] [1, 1, 2048, 128] [1, 1, 1, 1] : tensor<1x1x2048x128xf32> to tensor<1x1x2048x128xf32>
    %extracted_slice_60 = tensor.extract_slice %extracted_slice_59[0, 0, 0, 0] [1, 1, 2048, 128] [1, 1, 1, 1] : tensor<1x1x2048x128xf32> to tensor<1x1x2048x128xf32>
    %extracted_slice_61 = tensor.extract_slice %extracted_slice_60[0, 0, 0, 0] [1, 1, 40, 128] [1, 1, 1, 1] : tensor<1x1x2048x128xf32> to tensor<1x1x40x128xf32>
    %extracted_slice_62 = tensor.extract_slice %arg29[0, 0, 0, 0] [1, 1, 2048, 128] [1, 1, 1, 1] : tensor<1x1x2048x128xf32> to tensor<1x1x2048x128xf32>
    %extracted_slice_63 = tensor.extract_slice %extracted_slice_62[0, 0, 0, 0] [1, 1, 2048, 128] [1, 1, 1, 1] : tensor<1x1x2048x128xf32> to tensor<1x1x2048x128xf32>
    %extracted_slice_64 = tensor.extract_slice %extracted_slice_63[0, 0, 0, 0] [1, 1, 40, 128] [1, 1, 1, 1] : tensor<1x1x2048x128xf32> to tensor<1x1x40x128xf32>
    %313 = tensor.empty() : tensor<1x40x128xf32>
    %314 = linalg.generic {indexing_maps = [#map8, #map5], iterator_types = ["parallel", "parallel", "parallel"]} ins(%extracted_slice_61 : tensor<1x1x40x128xf32>) outs(%313 : tensor<1x40x128xf32>) {
    ^bb0(%in: f32, %out: f32):
      linalg.yield %in : f32
    } -> tensor<1x40x128xf32>
    %315 = tensor.empty() : tensor<40x128xf32>
    %316 = linalg.generic {indexing_maps = [#map9, #map3], iterator_types = ["parallel", "parallel"]} ins(%314 : tensor<1x40x128xf32>) outs(%315 : tensor<40x128xf32>) {
    ^bb0(%in: f32, %out: f32):
      linalg.yield %in : f32
    } -> tensor<40x128xf32>
    %317 = tensor.empty() : tensor<1x40x128xf32>
    %318 = linalg.generic {indexing_maps = [#map8, #map5], iterator_types = ["parallel", "parallel", "parallel"]} ins(%extracted_slice_64 : tensor<1x1x40x128xf32>) outs(%317 : tensor<1x40x128xf32>) {
    ^bb0(%in: f32, %out: f32):
      linalg.yield %in : f32
    } -> tensor<1x40x128xf32>
    %319 = tensor.empty() : tensor<40x128xf32>
    %320 = linalg.generic {indexing_maps = [#map9, #map3], iterator_types = ["parallel", "parallel"]} ins(%318 : tensor<1x40x128xf32>) outs(%319 : tensor<40x128xf32>) {
    ^bb0(%in: f32, %out: f32):
      linalg.yield %in : f32
    } -> tensor<40x128xf32>
    %321 = tensor.empty() : tensor<1x40x128xf32>
    %322 = linalg.generic {indexing_maps = [#map2, #map5], iterator_types = ["parallel", "parallel", "parallel"]} ins(%2 : tensor<1x40xi64>) outs(%321 : tensor<1x40x128xf32>) {
    ^bb0(%in: i64, %out: f32):
      %4044 = arith.index_cast %in : i64 to index
      %4045 = linalg.index 2 : index
      %extracted = tensor.extract %316[%4044, %4045] : tensor<40x128xf32>
      linalg.yield %extracted : f32
    } -> tensor<1x40x128xf32>
    %323 = tosa.reshape %322 {new_shape = array<i64: 1, 1, 40, 128>} : (tensor<1x40x128xf32>) -> tensor<1x1x40x128xf32>
    %324 = tensor.empty() : tensor<1x40x128xf32>
    %325 = linalg.generic {indexing_maps = [#map2, #map5], iterator_types = ["parallel", "parallel", "parallel"]} ins(%2 : tensor<1x40xi64>) outs(%324 : tensor<1x40x128xf32>) {
    ^bb0(%in: i64, %out: f32):
      %4044 = arith.index_cast %in : i64 to index
      %4045 = linalg.index 2 : index
      %extracted = tensor.extract %320[%4044, %4045] : tensor<40x128xf32>
      linalg.yield %extracted : f32
    } -> tensor<1x40x128xf32>
    %326 = tosa.reshape %325 {new_shape = array<i64: 1, 1, 40, 128>} : (tensor<1x40x128xf32>) -> tensor<1x1x40x128xf32>
    %327 = tosa.mul %306, %323 {shift = 0 : i8} : (tensor<1x32x40x128xf32>, tensor<1x1x40x128xf32>) -> tensor<1x32x40x128xf32>
    %extracted_slice_65 = tensor.extract_slice %306[0, 0, 0, 0] [1, 32, 40, 64] [1, 1, 1, 1] : tensor<1x32x40x128xf32> to tensor<1x32x40x64xf32>
    %extracted_slice_66 = tensor.extract_slice %306[0, 0, 0, 64] [1, 32, 40, 64] [1, 1, 1, 1] : tensor<1x32x40x128xf32> to tensor<1x32x40x64xf32>
    %328 = tensor.empty() : tensor<1x32x40x64xf32>
    %329 = linalg.negf ins(%extracted_slice_66 : tensor<1x32x40x64xf32>) outs(%328 : tensor<1x32x40x64xf32>) -> tensor<1x32x40x64xf32>
    %330 = tensor.empty() : tensor<1x32x40x128xf32>
    %inserted_slice_67 = tensor.insert_slice %329 into %330[0, 0, 0, 0] [1, 32, 40, 64] [1, 1, 1, 1] : tensor<1x32x40x64xf32> into tensor<1x32x40x128xf32>
    %inserted_slice_68 = tensor.insert_slice %extracted_slice_65 into %inserted_slice_67[0, 0, 0, 64] [1, 32, 40, 64] [1, 1, 1, 1] : tensor<1x32x40x64xf32> into tensor<1x32x40x128xf32>
    %331 = tosa.mul %inserted_slice_68, %326 {shift = 0 : i8} : (tensor<1x32x40x128xf32>, tensor<1x1x40x128xf32>) -> tensor<1x32x40x128xf32>
    %332 = tosa.add %327, %331 : (tensor<1x32x40x128xf32>, tensor<1x32x40x128xf32>) -> tensor<1x32x40x128xf32>
    %333 = tosa.mul %309, %323 {shift = 0 : i8} : (tensor<1x32x40x128xf32>, tensor<1x1x40x128xf32>) -> tensor<1x32x40x128xf32>
    %extracted_slice_69 = tensor.extract_slice %309[0, 0, 0, 0] [1, 32, 40, 64] [1, 1, 1, 1] : tensor<1x32x40x128xf32> to tensor<1x32x40x64xf32>
    %extracted_slice_70 = tensor.extract_slice %309[0, 0, 0, 64] [1, 32, 40, 64] [1, 1, 1, 1] : tensor<1x32x40x128xf32> to tensor<1x32x40x64xf32>
    %334 = tensor.empty() : tensor<1x32x40x64xf32>
    %335 = linalg.negf ins(%extracted_slice_70 : tensor<1x32x40x64xf32>) outs(%334 : tensor<1x32x40x64xf32>) -> tensor<1x32x40x64xf32>
    %336 = tensor.empty() : tensor<1x32x40x128xf32>
    %inserted_slice_71 = tensor.insert_slice %335 into %336[0, 0, 0, 0] [1, 32, 40, 64] [1, 1, 1, 1] : tensor<1x32x40x64xf32> into tensor<1x32x40x128xf32>
    %inserted_slice_72 = tensor.insert_slice %extracted_slice_69 into %inserted_slice_71[0, 0, 0, 64] [1, 32, 40, 64] [1, 1, 1, 1] : tensor<1x32x40x64xf32> into tensor<1x32x40x128xf32>
    %337 = tosa.mul %inserted_slice_72, %326 {shift = 0 : i8} : (tensor<1x32x40x128xf32>, tensor<1x1x40x128xf32>) -> tensor<1x32x40x128xf32>
    %338 = tosa.add %333, %337 : (tensor<1x32x40x128xf32>, tensor<1x32x40x128xf32>) -> tensor<1x32x40x128xf32>
    %339 = "tosa.const"() <{value = dense<[0, 1, 3, 2]> : tensor<4xi32>}> : () -> tensor<4xi32>
    %340 = tosa.transpose %338, %339 : (tensor<1x32x40x128xf32>, tensor<4xi32>) -> tensor<1x32x128x40xf32>
    %341 = "tosa.const"() <{value = dense<0.000000e+00> : tensor<1x32x40x128xf32>}> : () -> tensor<1x32x40x128xf32>
    %342 = tosa.add %332, %341 : (tensor<1x32x40x128xf32>, tensor<1x32x40x128xf32>) -> tensor<1x32x40x128xf32>
    %343 = tosa.reshape %342 {new_shape = array<i64: 32, 40, 128>} : (tensor<1x32x40x128xf32>) -> tensor<32x40x128xf32>
    %344 = "tosa.const"() <{value = dense<0.000000e+00> : tensor<1x32x128x40xf32>}> : () -> tensor<1x32x128x40xf32>
    %345 = tosa.add %340, %344 : (tensor<1x32x128x40xf32>, tensor<1x32x128x40xf32>) -> tensor<1x32x128x40xf32>
    %346 = tosa.reshape %345 {new_shape = array<i64: 32, 128, 40>} : (tensor<1x32x128x40xf32>) -> tensor<32x128x40xf32>
    %347 = tosa.matmul %343, %346 : (tensor<32x40x128xf32>, tensor<32x128x40xf32>) -> tensor<32x40x40xf32>
    %348 = tosa.reshape %347 {new_shape = array<i64: 1, 32, 40, 40>} : (tensor<32x40x40xf32>) -> tensor<1x32x40x40xf32>
    %349 = "tosa.const"() <{value = dense<11.3137083> : tensor<1x32x40x40xf32>}> : () -> tensor<1x32x40x40xf32>
    %350 = tosa.reciprocal %349 : (tensor<1x32x40x40xf32>) -> tensor<1x32x40x40xf32>
    %351 = tosa.mul %348, %350 {shift = 0 : i8} : (tensor<1x32x40x40xf32>, tensor<1x32x40x40xf32>) -> tensor<1x32x40x40xf32>
    %352 = tosa.add %351, %29 : (tensor<1x32x40x40xf32>, tensor<1x1x40x40xf32>) -> tensor<1x32x40x40xf32>
    %353 = tosa.reduce_max %352 {axis = 3 : i32} : (tensor<1x32x40x40xf32>) -> tensor<1x32x40x1xf32>
    %354 = tosa.sub %352, %353 : (tensor<1x32x40x40xf32>, tensor<1x32x40x1xf32>) -> tensor<1x32x40x40xf32>
    %355 = tosa.exp %354 : (tensor<1x32x40x40xf32>) -> tensor<1x32x40x40xf32>
    %356 = tosa.reduce_sum %355 {axis = 3 : i32} : (tensor<1x32x40x40xf32>) -> tensor<1x32x40x1xf32>
    %357 = tosa.reciprocal %356 : (tensor<1x32x40x1xf32>) -> tensor<1x32x40x1xf32>
    %358 = tosa.mul %355, %357 {shift = 0 : i8} : (tensor<1x32x40x40xf32>, tensor<1x32x40x1xf32>) -> tensor<1x32x40x40xf32>
    %359 = "tosa.const"() <{value = dense<0.000000e+00> : tensor<1x32x40x40xf32>}> : () -> tensor<1x32x40x40xf32>
    %360 = tosa.add %358, %359 : (tensor<1x32x40x40xf32>, tensor<1x32x40x40xf32>) -> tensor<1x32x40x40xf32>
    %361 = tosa.reshape %360 {new_shape = array<i64: 32, 40, 40>} : (tensor<1x32x40x40xf32>) -> tensor<32x40x40xf32>
    %362 = "tosa.const"() <{value = dense<0.000000e+00> : tensor<1x32x40x128xf32>}> : () -> tensor<1x32x40x128xf32>
    %363 = tosa.add %312, %362 : (tensor<1x32x40x128xf32>, tensor<1x32x40x128xf32>) -> tensor<1x32x40x128xf32>
    %364 = tosa.reshape %363 {new_shape = array<i64: 32, 40, 128>} : (tensor<1x32x40x128xf32>) -> tensor<32x40x128xf32>
    %365 = tosa.matmul %361, %364 : (tensor<32x40x40xf32>, tensor<32x40x128xf32>) -> tensor<32x40x128xf32>
    %366 = tosa.reshape %365 {new_shape = array<i64: 1, 32, 40, 128>} : (tensor<32x40x128xf32>) -> tensor<1x32x40x128xf32>
    %367 = "tosa.const"() <{value = dense<[0, 2, 1, 3]> : tensor<4xi32>}> : () -> tensor<4xi32>
    %368 = tosa.transpose %366, %367 : (tensor<1x32x40x128xf32>, tensor<4xi32>) -> tensor<1x40x32x128xf32>
    %369 = tosa.identity %368 : (tensor<1x40x32x128xf32>) -> tensor<1x40x32x128xf32>
    %370 = tosa.reshape %369 {new_shape = array<i64: 1, 40, 4096>} : (tensor<1x40x32x128xf32>) -> tensor<1x40x4096xf32>
    %371 = "tosa.const"() <{value = dense<[1, 0]> : tensor<2xi32>}> : () -> tensor<2xi32>
    %372 = tosa.transpose %arg30, %371 : (tensor<4096x4096xf32>, tensor<2xi32>) -> tensor<4096x4096xf32>
    %373 = tosa.reshape %370 {new_shape = array<i64: 40, 4096>} : (tensor<1x40x4096xf32>) -> tensor<40x4096xf32>
    %cst_73 = arith.constant dense<0.000000e+00> : tensor<40x4096xf32>
    %374 = linalg.matmul {cast = #linalg.type_fn<cast_signed>} ins(%373, %372 : tensor<40x4096xf32>, tensor<4096x4096xf32>) outs(%cst_73 : tensor<40x4096xf32>) -> tensor<40x4096xf32>
    %375 = tosa.reshape %374 {new_shape = array<i64: 1, 40, 4096>} : (tensor<40x4096xf32>) -> tensor<1x40x4096xf32>
    %376 = tosa.add %279, %375 : (tensor<1x40x4096xf32>, tensor<1x40x4096xf32>) -> tensor<1x40x4096xf32>
    %377 = tensor.empty() : tensor<1x40x4096xf32>
    %c2_i32_74 = arith.constant 2 : i32
    %378 = linalg.generic {indexing_maps = [#map5, #map5], iterator_types = ["parallel", "parallel", "parallel"]} ins(%376 : tensor<1x40x4096xf32>) outs(%377 : tensor<1x40x4096xf32>) {
    ^bb0(%in: f32, %out: f32):
      %4044 = math.fpowi %in, %c2_i32_74 : f32, i32
      linalg.yield %4044 : f32
    } -> tensor<1x40x4096xf32>
    %cst_75 = arith.constant dense<0.000000e+00> : tensor<1x40x1xf32>
    %379 = linalg.generic {indexing_maps = [#map6, #map7], iterator_types = ["parallel", "parallel", "reduction", "parallel"]} ins(%378 : tensor<1x40x4096xf32>) outs(%cst_75 : tensor<1x40x1xf32>) {
    ^bb0(%in: f32, %out: f32):
      %cst_807 = arith.constant 4.096000e+03 : f32
      %4044 = arith.divf %in, %cst_807 : f32
      %4045 = arith.addf %4044, %out : f32
      linalg.yield %4045 : f32
    } -> tensor<1x40x1xf32>
    %380 = "tosa.const"() <{value = dense<9.99999997E-7> : tensor<1x40x1xf32>}> : () -> tensor<1x40x1xf32>
    %381 = tosa.add %379, %380 : (tensor<1x40x1xf32>, tensor<1x40x1xf32>) -> tensor<1x40x1xf32>
    %382 = tosa.rsqrt %381 : (tensor<1x40x1xf32>) -> tensor<1x40x1xf32>
    %383 = tosa.mul %376, %382 {shift = 0 : i8} : (tensor<1x40x4096xf32>, tensor<1x40x1xf32>) -> tensor<1x40x4096xf32>
    %384 = tosa.reshape %arg31 {new_shape = array<i64: 1, 1, 4096>} : (tensor<4096xf32>) -> tensor<1x1x4096xf32>
    %385 = tosa.mul %384, %383 {shift = 0 : i8} : (tensor<1x1x4096xf32>, tensor<1x40x4096xf32>) -> tensor<1x40x4096xf32>
    %386 = "tosa.const"() <{value = dense<[1, 0]> : tensor<2xi32>}> : () -> tensor<2xi32>
    %387 = tosa.transpose %arg32, %386 : (tensor<11008x4096xf32>, tensor<2xi32>) -> tensor<4096x11008xf32>
    %388 = tosa.reshape %385 {new_shape = array<i64: 40, 4096>} : (tensor<1x40x4096xf32>) -> tensor<40x4096xf32>
    %cst_76 = arith.constant dense<0.000000e+00> : tensor<40x11008xf32>
    %389 = linalg.matmul {cast = #linalg.type_fn<cast_signed>} ins(%388, %387 : tensor<40x4096xf32>, tensor<4096x11008xf32>) outs(%cst_76 : tensor<40x11008xf32>) -> tensor<40x11008xf32>
    %390 = tosa.reshape %389 {new_shape = array<i64: 1, 40, 11008>} : (tensor<40x11008xf32>) -> tensor<1x40x11008xf32>
    %391 = tosa.sigmoid %390 : (tensor<1x40x11008xf32>) -> tensor<1x40x11008xf32>
    %392 = tosa.mul %390, %391 {shift = 0 : i8} : (tensor<1x40x11008xf32>, tensor<1x40x11008xf32>) -> tensor<1x40x11008xf32>
    %393 = "tosa.const"() <{value = dense<[1, 0]> : tensor<2xi32>}> : () -> tensor<2xi32>
    %394 = tosa.transpose %arg33, %393 : (tensor<11008x4096xf32>, tensor<2xi32>) -> tensor<4096x11008xf32>
    %395 = tosa.reshape %385 {new_shape = array<i64: 40, 4096>} : (tensor<1x40x4096xf32>) -> tensor<40x4096xf32>
    %cst_77 = arith.constant dense<0.000000e+00> : tensor<40x11008xf32>
    %396 = linalg.matmul {cast = #linalg.type_fn<cast_signed>} ins(%395, %394 : tensor<40x4096xf32>, tensor<4096x11008xf32>) outs(%cst_77 : tensor<40x11008xf32>) -> tensor<40x11008xf32>
    %397 = tosa.reshape %396 {new_shape = array<i64: 1, 40, 11008>} : (tensor<40x11008xf32>) -> tensor<1x40x11008xf32>
    %398 = tosa.mul %392, %397 {shift = 0 : i8} : (tensor<1x40x11008xf32>, tensor<1x40x11008xf32>) -> tensor<1x40x11008xf32>
    %399 = "tosa.const"() <{value = dense<[1, 0]> : tensor<2xi32>}> : () -> tensor<2xi32>
    %400 = tosa.transpose %arg34, %399 : (tensor<4096x11008xf32>, tensor<2xi32>) -> tensor<11008x4096xf32>
    %401 = tosa.reshape %398 {new_shape = array<i64: 40, 11008>} : (tensor<1x40x11008xf32>) -> tensor<40x11008xf32>
    %cst_78 = arith.constant dense<0.000000e+00> : tensor<40x4096xf32>
    %402 = linalg.matmul {cast = #linalg.type_fn<cast_signed>} ins(%401, %400 : tensor<40x11008xf32>, tensor<11008x4096xf32>) outs(%cst_78 : tensor<40x4096xf32>) -> tensor<40x4096xf32>
    %403 = tosa.reshape %402 {new_shape = array<i64: 1, 40, 4096>} : (tensor<40x4096xf32>) -> tensor<1x40x4096xf32>
    %404 = tosa.add %376, %403 : (tensor<1x40x4096xf32>, tensor<1x40x4096xf32>) -> tensor<1x40x4096xf32>
    %405 = tensor.empty() : tensor<1x40x4096xf32>
    %c2_i32_79 = arith.constant 2 : i32
    %406 = linalg.generic {indexing_maps = [#map5, #map5], iterator_types = ["parallel", "parallel", "parallel"]} ins(%404 : tensor<1x40x4096xf32>) outs(%405 : tensor<1x40x4096xf32>) {
    ^bb0(%in: f32, %out: f32):
      %4044 = math.fpowi %in, %c2_i32_79 : f32, i32
      linalg.yield %4044 : f32
    } -> tensor<1x40x4096xf32>
    %cst_80 = arith.constant dense<0.000000e+00> : tensor<1x40x1xf32>
    %407 = linalg.generic {indexing_maps = [#map6, #map7], iterator_types = ["parallel", "parallel", "reduction", "parallel"]} ins(%406 : tensor<1x40x4096xf32>) outs(%cst_80 : tensor<1x40x1xf32>) {
    ^bb0(%in: f32, %out: f32):
      %cst_807 = arith.constant 4.096000e+03 : f32
      %4044 = arith.divf %in, %cst_807 : f32
      %4045 = arith.addf %4044, %out : f32
      linalg.yield %4045 : f32
    } -> tensor<1x40x1xf32>
    %408 = "tosa.const"() <{value = dense<9.99999997E-7> : tensor<1x40x1xf32>}> : () -> tensor<1x40x1xf32>
    %409 = tosa.add %407, %408 : (tensor<1x40x1xf32>, tensor<1x40x1xf32>) -> tensor<1x40x1xf32>
    %410 = tosa.rsqrt %409 : (tensor<1x40x1xf32>) -> tensor<1x40x1xf32>
    %411 = tosa.mul %404, %410 {shift = 0 : i8} : (tensor<1x40x4096xf32>, tensor<1x40x1xf32>) -> tensor<1x40x4096xf32>
    %412 = tosa.reshape %arg35 {new_shape = array<i64: 1, 1, 4096>} : (tensor<4096xf32>) -> tensor<1x1x4096xf32>
    %413 = tosa.mul %412, %411 {shift = 0 : i8} : (tensor<1x1x4096xf32>, tensor<1x40x4096xf32>) -> tensor<1x40x4096xf32>
    %414 = "tosa.const"() <{value = dense<[1, 0]> : tensor<2xi32>}> : () -> tensor<2xi32>
    %415 = tosa.transpose %arg36, %414 : (tensor<4096x4096xf32>, tensor<2xi32>) -> tensor<4096x4096xf32>
    %416 = tosa.reshape %413 {new_shape = array<i64: 40, 4096>} : (tensor<1x40x4096xf32>) -> tensor<40x4096xf32>
    %cst_81 = arith.constant dense<0.000000e+00> : tensor<40x4096xf32>
    %417 = linalg.matmul {cast = #linalg.type_fn<cast_signed>} ins(%416, %415 : tensor<40x4096xf32>, tensor<4096x4096xf32>) outs(%cst_81 : tensor<40x4096xf32>) -> tensor<40x4096xf32>
    %418 = tosa.reshape %417 {new_shape = array<i64: 1, 40, 4096>} : (tensor<40x4096xf32>) -> tensor<1x40x4096xf32>
    %419 = "tosa.const"() <{value = dense<[1, 0]> : tensor<2xi32>}> : () -> tensor<2xi32>
    %420 = tosa.transpose %arg37, %419 : (tensor<4096x4096xf32>, tensor<2xi32>) -> tensor<4096x4096xf32>
    %421 = tosa.reshape %413 {new_shape = array<i64: 40, 4096>} : (tensor<1x40x4096xf32>) -> tensor<40x4096xf32>
    %cst_82 = arith.constant dense<0.000000e+00> : tensor<40x4096xf32>
    %422 = linalg.matmul {cast = #linalg.type_fn<cast_signed>} ins(%421, %420 : tensor<40x4096xf32>, tensor<4096x4096xf32>) outs(%cst_82 : tensor<40x4096xf32>) -> tensor<40x4096xf32>
    %423 = tosa.reshape %422 {new_shape = array<i64: 1, 40, 4096>} : (tensor<40x4096xf32>) -> tensor<1x40x4096xf32>
    %424 = "tosa.const"() <{value = dense<[1, 0]> : tensor<2xi32>}> : () -> tensor<2xi32>
    %425 = tosa.transpose %arg38, %424 : (tensor<4096x4096xf32>, tensor<2xi32>) -> tensor<4096x4096xf32>
    %426 = tosa.reshape %413 {new_shape = array<i64: 40, 4096>} : (tensor<1x40x4096xf32>) -> tensor<40x4096xf32>
    %cst_83 = arith.constant dense<0.000000e+00> : tensor<40x4096xf32>
    %427 = linalg.matmul {cast = #linalg.type_fn<cast_signed>} ins(%426, %425 : tensor<40x4096xf32>, tensor<4096x4096xf32>) outs(%cst_83 : tensor<40x4096xf32>) -> tensor<40x4096xf32>
    %428 = tosa.reshape %427 {new_shape = array<i64: 1, 40, 4096>} : (tensor<40x4096xf32>) -> tensor<1x40x4096xf32>
    %429 = tosa.reshape %418 {new_shape = array<i64: 1, 40, 32, 128>} : (tensor<1x40x4096xf32>) -> tensor<1x40x32x128xf32>
    %430 = "tosa.const"() <{value = dense<[0, 2, 1, 3]> : tensor<4xi32>}> : () -> tensor<4xi32>
    %431 = tosa.transpose %429, %430 : (tensor<1x40x32x128xf32>, tensor<4xi32>) -> tensor<1x32x40x128xf32>
    %432 = tosa.reshape %423 {new_shape = array<i64: 1, 40, 32, 128>} : (tensor<1x40x4096xf32>) -> tensor<1x40x32x128xf32>
    %433 = "tosa.const"() <{value = dense<[0, 2, 1, 3]> : tensor<4xi32>}> : () -> tensor<4xi32>
    %434 = tosa.transpose %432, %433 : (tensor<1x40x32x128xf32>, tensor<4xi32>) -> tensor<1x32x40x128xf32>
    %435 = tosa.reshape %428 {new_shape = array<i64: 1, 40, 32, 128>} : (tensor<1x40x4096xf32>) -> tensor<1x40x32x128xf32>
    %436 = "tosa.const"() <{value = dense<[0, 2, 1, 3]> : tensor<4xi32>}> : () -> tensor<4xi32>
    %437 = tosa.transpose %435, %436 : (tensor<1x40x32x128xf32>, tensor<4xi32>) -> tensor<1x32x40x128xf32>
    %extracted_slice_84 = tensor.extract_slice %arg39[0, 0, 0, 0] [1, 1, 2048, 128] [1, 1, 1, 1] : tensor<1x1x2048x128xf32> to tensor<1x1x2048x128xf32>
    %extracted_slice_85 = tensor.extract_slice %extracted_slice_84[0, 0, 0, 0] [1, 1, 2048, 128] [1, 1, 1, 1] : tensor<1x1x2048x128xf32> to tensor<1x1x2048x128xf32>
    %extracted_slice_86 = tensor.extract_slice %extracted_slice_85[0, 0, 0, 0] [1, 1, 40, 128] [1, 1, 1, 1] : tensor<1x1x2048x128xf32> to tensor<1x1x40x128xf32>
    %extracted_slice_87 = tensor.extract_slice %arg40[0, 0, 0, 0] [1, 1, 2048, 128] [1, 1, 1, 1] : tensor<1x1x2048x128xf32> to tensor<1x1x2048x128xf32>
    %extracted_slice_88 = tensor.extract_slice %extracted_slice_87[0, 0, 0, 0] [1, 1, 2048, 128] [1, 1, 1, 1] : tensor<1x1x2048x128xf32> to tensor<1x1x2048x128xf32>
    %extracted_slice_89 = tensor.extract_slice %extracted_slice_88[0, 0, 0, 0] [1, 1, 40, 128] [1, 1, 1, 1] : tensor<1x1x2048x128xf32> to tensor<1x1x40x128xf32>
    %438 = tensor.empty() : tensor<1x40x128xf32>
    %439 = linalg.generic {indexing_maps = [#map8, #map5], iterator_types = ["parallel", "parallel", "parallel"]} ins(%extracted_slice_86 : tensor<1x1x40x128xf32>) outs(%438 : tensor<1x40x128xf32>) {
    ^bb0(%in: f32, %out: f32):
      linalg.yield %in : f32
    } -> tensor<1x40x128xf32>
    %440 = tensor.empty() : tensor<40x128xf32>
    %441 = linalg.generic {indexing_maps = [#map9, #map3], iterator_types = ["parallel", "parallel"]} ins(%439 : tensor<1x40x128xf32>) outs(%440 : tensor<40x128xf32>) {
    ^bb0(%in: f32, %out: f32):
      linalg.yield %in : f32
    } -> tensor<40x128xf32>
    %442 = tensor.empty() : tensor<1x40x128xf32>
    %443 = linalg.generic {indexing_maps = [#map8, #map5], iterator_types = ["parallel", "parallel", "parallel"]} ins(%extracted_slice_89 : tensor<1x1x40x128xf32>) outs(%442 : tensor<1x40x128xf32>) {
    ^bb0(%in: f32, %out: f32):
      linalg.yield %in : f32
    } -> tensor<1x40x128xf32>
    %444 = tensor.empty() : tensor<40x128xf32>
    %445 = linalg.generic {indexing_maps = [#map9, #map3], iterator_types = ["parallel", "parallel"]} ins(%443 : tensor<1x40x128xf32>) outs(%444 : tensor<40x128xf32>) {
    ^bb0(%in: f32, %out: f32):
      linalg.yield %in : f32
    } -> tensor<40x128xf32>
    %446 = tensor.empty() : tensor<1x40x128xf32>
    %447 = linalg.generic {indexing_maps = [#map2, #map5], iterator_types = ["parallel", "parallel", "parallel"]} ins(%2 : tensor<1x40xi64>) outs(%446 : tensor<1x40x128xf32>) {
    ^bb0(%in: i64, %out: f32):
      %4044 = arith.index_cast %in : i64 to index
      %4045 = linalg.index 2 : index
      %extracted = tensor.extract %441[%4044, %4045] : tensor<40x128xf32>
      linalg.yield %extracted : f32
    } -> tensor<1x40x128xf32>
    %448 = tosa.reshape %447 {new_shape = array<i64: 1, 1, 40, 128>} : (tensor<1x40x128xf32>) -> tensor<1x1x40x128xf32>
    %449 = tensor.empty() : tensor<1x40x128xf32>
    %450 = linalg.generic {indexing_maps = [#map2, #map5], iterator_types = ["parallel", "parallel", "parallel"]} ins(%2 : tensor<1x40xi64>) outs(%449 : tensor<1x40x128xf32>) {
    ^bb0(%in: i64, %out: f32):
      %4044 = arith.index_cast %in : i64 to index
      %4045 = linalg.index 2 : index
      %extracted = tensor.extract %445[%4044, %4045] : tensor<40x128xf32>
      linalg.yield %extracted : f32
    } -> tensor<1x40x128xf32>
    %451 = tosa.reshape %450 {new_shape = array<i64: 1, 1, 40, 128>} : (tensor<1x40x128xf32>) -> tensor<1x1x40x128xf32>
    %452 = tosa.mul %431, %448 {shift = 0 : i8} : (tensor<1x32x40x128xf32>, tensor<1x1x40x128xf32>) -> tensor<1x32x40x128xf32>
    %extracted_slice_90 = tensor.extract_slice %431[0, 0, 0, 0] [1, 32, 40, 64] [1, 1, 1, 1] : tensor<1x32x40x128xf32> to tensor<1x32x40x64xf32>
    %extracted_slice_91 = tensor.extract_slice %431[0, 0, 0, 64] [1, 32, 40, 64] [1, 1, 1, 1] : tensor<1x32x40x128xf32> to tensor<1x32x40x64xf32>
    %453 = tensor.empty() : tensor<1x32x40x64xf32>
    %454 = linalg.negf ins(%extracted_slice_91 : tensor<1x32x40x64xf32>) outs(%453 : tensor<1x32x40x64xf32>) -> tensor<1x32x40x64xf32>
    %455 = tensor.empty() : tensor<1x32x40x128xf32>
    %inserted_slice_92 = tensor.insert_slice %454 into %455[0, 0, 0, 0] [1, 32, 40, 64] [1, 1, 1, 1] : tensor<1x32x40x64xf32> into tensor<1x32x40x128xf32>
    %inserted_slice_93 = tensor.insert_slice %extracted_slice_90 into %inserted_slice_92[0, 0, 0, 64] [1, 32, 40, 64] [1, 1, 1, 1] : tensor<1x32x40x64xf32> into tensor<1x32x40x128xf32>
    %456 = tosa.mul %inserted_slice_93, %451 {shift = 0 : i8} : (tensor<1x32x40x128xf32>, tensor<1x1x40x128xf32>) -> tensor<1x32x40x128xf32>
    %457 = tosa.add %452, %456 : (tensor<1x32x40x128xf32>, tensor<1x32x40x128xf32>) -> tensor<1x32x40x128xf32>
    %458 = tosa.mul %434, %448 {shift = 0 : i8} : (tensor<1x32x40x128xf32>, tensor<1x1x40x128xf32>) -> tensor<1x32x40x128xf32>
    %extracted_slice_94 = tensor.extract_slice %434[0, 0, 0, 0] [1, 32, 40, 64] [1, 1, 1, 1] : tensor<1x32x40x128xf32> to tensor<1x32x40x64xf32>
    %extracted_slice_95 = tensor.extract_slice %434[0, 0, 0, 64] [1, 32, 40, 64] [1, 1, 1, 1] : tensor<1x32x40x128xf32> to tensor<1x32x40x64xf32>
    %459 = tensor.empty() : tensor<1x32x40x64xf32>
    %460 = linalg.negf ins(%extracted_slice_95 : tensor<1x32x40x64xf32>) outs(%459 : tensor<1x32x40x64xf32>) -> tensor<1x32x40x64xf32>
    %461 = tensor.empty() : tensor<1x32x40x128xf32>
    %inserted_slice_96 = tensor.insert_slice %460 into %461[0, 0, 0, 0] [1, 32, 40, 64] [1, 1, 1, 1] : tensor<1x32x40x64xf32> into tensor<1x32x40x128xf32>
    %inserted_slice_97 = tensor.insert_slice %extracted_slice_94 into %inserted_slice_96[0, 0, 0, 64] [1, 32, 40, 64] [1, 1, 1, 1] : tensor<1x32x40x64xf32> into tensor<1x32x40x128xf32>
    %462 = tosa.mul %inserted_slice_97, %451 {shift = 0 : i8} : (tensor<1x32x40x128xf32>, tensor<1x1x40x128xf32>) -> tensor<1x32x40x128xf32>
    %463 = tosa.add %458, %462 : (tensor<1x32x40x128xf32>, tensor<1x32x40x128xf32>) -> tensor<1x32x40x128xf32>
    %464 = "tosa.const"() <{value = dense<[0, 1, 3, 2]> : tensor<4xi32>}> : () -> tensor<4xi32>
    %465 = tosa.transpose %463, %464 : (tensor<1x32x40x128xf32>, tensor<4xi32>) -> tensor<1x32x128x40xf32>
    %466 = "tosa.const"() <{value = dense<0.000000e+00> : tensor<1x32x40x128xf32>}> : () -> tensor<1x32x40x128xf32>
    %467 = tosa.add %457, %466 : (tensor<1x32x40x128xf32>, tensor<1x32x40x128xf32>) -> tensor<1x32x40x128xf32>
    %468 = tosa.reshape %467 {new_shape = array<i64: 32, 40, 128>} : (tensor<1x32x40x128xf32>) -> tensor<32x40x128xf32>
    %469 = "tosa.const"() <{value = dense<0.000000e+00> : tensor<1x32x128x40xf32>}> : () -> tensor<1x32x128x40xf32>
    %470 = tosa.add %465, %469 : (tensor<1x32x128x40xf32>, tensor<1x32x128x40xf32>) -> tensor<1x32x128x40xf32>
    %471 = tosa.reshape %470 {new_shape = array<i64: 32, 128, 40>} : (tensor<1x32x128x40xf32>) -> tensor<32x128x40xf32>
    %472 = tosa.matmul %468, %471 : (tensor<32x40x128xf32>, tensor<32x128x40xf32>) -> tensor<32x40x40xf32>
    %473 = tosa.reshape %472 {new_shape = array<i64: 1, 32, 40, 40>} : (tensor<32x40x40xf32>) -> tensor<1x32x40x40xf32>
    %474 = "tosa.const"() <{value = dense<11.3137083> : tensor<1x32x40x40xf32>}> : () -> tensor<1x32x40x40xf32>
    %475 = tosa.reciprocal %474 : (tensor<1x32x40x40xf32>) -> tensor<1x32x40x40xf32>
    %476 = tosa.mul %473, %475 {shift = 0 : i8} : (tensor<1x32x40x40xf32>, tensor<1x32x40x40xf32>) -> tensor<1x32x40x40xf32>
    %477 = tosa.add %476, %29 : (tensor<1x32x40x40xf32>, tensor<1x1x40x40xf32>) -> tensor<1x32x40x40xf32>
    %478 = tosa.reduce_max %477 {axis = 3 : i32} : (tensor<1x32x40x40xf32>) -> tensor<1x32x40x1xf32>
    %479 = tosa.sub %477, %478 : (tensor<1x32x40x40xf32>, tensor<1x32x40x1xf32>) -> tensor<1x32x40x40xf32>
    %480 = tosa.exp %479 : (tensor<1x32x40x40xf32>) -> tensor<1x32x40x40xf32>
    %481 = tosa.reduce_sum %480 {axis = 3 : i32} : (tensor<1x32x40x40xf32>) -> tensor<1x32x40x1xf32>
    %482 = tosa.reciprocal %481 : (tensor<1x32x40x1xf32>) -> tensor<1x32x40x1xf32>
    %483 = tosa.mul %480, %482 {shift = 0 : i8} : (tensor<1x32x40x40xf32>, tensor<1x32x40x1xf32>) -> tensor<1x32x40x40xf32>
    %484 = "tosa.const"() <{value = dense<0.000000e+00> : tensor<1x32x40x40xf32>}> : () -> tensor<1x32x40x40xf32>
    %485 = tosa.add %483, %484 : (tensor<1x32x40x40xf32>, tensor<1x32x40x40xf32>) -> tensor<1x32x40x40xf32>
    %486 = tosa.reshape %485 {new_shape = array<i64: 32, 40, 40>} : (tensor<1x32x40x40xf32>) -> tensor<32x40x40xf32>
    %487 = "tosa.const"() <{value = dense<0.000000e+00> : tensor<1x32x40x128xf32>}> : () -> tensor<1x32x40x128xf32>
    %488 = tosa.add %437, %487 : (tensor<1x32x40x128xf32>, tensor<1x32x40x128xf32>) -> tensor<1x32x40x128xf32>
    %489 = tosa.reshape %488 {new_shape = array<i64: 32, 40, 128>} : (tensor<1x32x40x128xf32>) -> tensor<32x40x128xf32>
    %490 = tosa.matmul %486, %489 : (tensor<32x40x40xf32>, tensor<32x40x128xf32>) -> tensor<32x40x128xf32>
    %491 = tosa.reshape %490 {new_shape = array<i64: 1, 32, 40, 128>} : (tensor<32x40x128xf32>) -> tensor<1x32x40x128xf32>
    %492 = "tosa.const"() <{value = dense<[0, 2, 1, 3]> : tensor<4xi32>}> : () -> tensor<4xi32>
    %493 = tosa.transpose %491, %492 : (tensor<1x32x40x128xf32>, tensor<4xi32>) -> tensor<1x40x32x128xf32>
    %494 = tosa.identity %493 : (tensor<1x40x32x128xf32>) -> tensor<1x40x32x128xf32>
    %495 = tosa.reshape %494 {new_shape = array<i64: 1, 40, 4096>} : (tensor<1x40x32x128xf32>) -> tensor<1x40x4096xf32>
    %496 = "tosa.const"() <{value = dense<[1, 0]> : tensor<2xi32>}> : () -> tensor<2xi32>
    %497 = tosa.transpose %arg41, %496 : (tensor<4096x4096xf32>, tensor<2xi32>) -> tensor<4096x4096xf32>
    %498 = tosa.reshape %495 {new_shape = array<i64: 40, 4096>} : (tensor<1x40x4096xf32>) -> tensor<40x4096xf32>
    %cst_98 = arith.constant dense<0.000000e+00> : tensor<40x4096xf32>
    %499 = linalg.matmul {cast = #linalg.type_fn<cast_signed>} ins(%498, %497 : tensor<40x4096xf32>, tensor<4096x4096xf32>) outs(%cst_98 : tensor<40x4096xf32>) -> tensor<40x4096xf32>
    %500 = tosa.reshape %499 {new_shape = array<i64: 1, 40, 4096>} : (tensor<40x4096xf32>) -> tensor<1x40x4096xf32>
    %501 = tosa.add %404, %500 : (tensor<1x40x4096xf32>, tensor<1x40x4096xf32>) -> tensor<1x40x4096xf32>
    %502 = tensor.empty() : tensor<1x40x4096xf32>
    %c2_i32_99 = arith.constant 2 : i32
    %503 = linalg.generic {indexing_maps = [#map5, #map5], iterator_types = ["parallel", "parallel", "parallel"]} ins(%501 : tensor<1x40x4096xf32>) outs(%502 : tensor<1x40x4096xf32>) {
    ^bb0(%in: f32, %out: f32):
      %4044 = math.fpowi %in, %c2_i32_99 : f32, i32
      linalg.yield %4044 : f32
    } -> tensor<1x40x4096xf32>
    %cst_100 = arith.constant dense<0.000000e+00> : tensor<1x40x1xf32>
    %504 = linalg.generic {indexing_maps = [#map6, #map7], iterator_types = ["parallel", "parallel", "reduction", "parallel"]} ins(%503 : tensor<1x40x4096xf32>) outs(%cst_100 : tensor<1x40x1xf32>) {
    ^bb0(%in: f32, %out: f32):
      %cst_807 = arith.constant 4.096000e+03 : f32
      %4044 = arith.divf %in, %cst_807 : f32
      %4045 = arith.addf %4044, %out : f32
      linalg.yield %4045 : f32
    } -> tensor<1x40x1xf32>
    %505 = "tosa.const"() <{value = dense<9.99999997E-7> : tensor<1x40x1xf32>}> : () -> tensor<1x40x1xf32>
    %506 = tosa.add %504, %505 : (tensor<1x40x1xf32>, tensor<1x40x1xf32>) -> tensor<1x40x1xf32>
    %507 = tosa.rsqrt %506 : (tensor<1x40x1xf32>) -> tensor<1x40x1xf32>
    %508 = tosa.mul %501, %507 {shift = 0 : i8} : (tensor<1x40x4096xf32>, tensor<1x40x1xf32>) -> tensor<1x40x4096xf32>
    %509 = tosa.reshape %arg42 {new_shape = array<i64: 1, 1, 4096>} : (tensor<4096xf32>) -> tensor<1x1x4096xf32>
    %510 = tosa.mul %509, %508 {shift = 0 : i8} : (tensor<1x1x4096xf32>, tensor<1x40x4096xf32>) -> tensor<1x40x4096xf32>
    %511 = "tosa.const"() <{value = dense<[1, 0]> : tensor<2xi32>}> : () -> tensor<2xi32>
    %512 = tosa.transpose %arg43, %511 : (tensor<11008x4096xf32>, tensor<2xi32>) -> tensor<4096x11008xf32>
    %513 = tosa.reshape %510 {new_shape = array<i64: 40, 4096>} : (tensor<1x40x4096xf32>) -> tensor<40x4096xf32>
    %cst_101 = arith.constant dense<0.000000e+00> : tensor<40x11008xf32>
    %514 = linalg.matmul {cast = #linalg.type_fn<cast_signed>} ins(%513, %512 : tensor<40x4096xf32>, tensor<4096x11008xf32>) outs(%cst_101 : tensor<40x11008xf32>) -> tensor<40x11008xf32>
    %515 = tosa.reshape %514 {new_shape = array<i64: 1, 40, 11008>} : (tensor<40x11008xf32>) -> tensor<1x40x11008xf32>
    %516 = tosa.sigmoid %515 : (tensor<1x40x11008xf32>) -> tensor<1x40x11008xf32>
    %517 = tosa.mul %515, %516 {shift = 0 : i8} : (tensor<1x40x11008xf32>, tensor<1x40x11008xf32>) -> tensor<1x40x11008xf32>
    %518 = "tosa.const"() <{value = dense<[1, 0]> : tensor<2xi32>}> : () -> tensor<2xi32>
    %519 = tosa.transpose %arg44, %518 : (tensor<11008x4096xf32>, tensor<2xi32>) -> tensor<4096x11008xf32>
    %520 = tosa.reshape %510 {new_shape = array<i64: 40, 4096>} : (tensor<1x40x4096xf32>) -> tensor<40x4096xf32>
    %cst_102 = arith.constant dense<0.000000e+00> : tensor<40x11008xf32>
    %521 = linalg.matmul {cast = #linalg.type_fn<cast_signed>} ins(%520, %519 : tensor<40x4096xf32>, tensor<4096x11008xf32>) outs(%cst_102 : tensor<40x11008xf32>) -> tensor<40x11008xf32>
    %522 = tosa.reshape %521 {new_shape = array<i64: 1, 40, 11008>} : (tensor<40x11008xf32>) -> tensor<1x40x11008xf32>
    %523 = tosa.mul %517, %522 {shift = 0 : i8} : (tensor<1x40x11008xf32>, tensor<1x40x11008xf32>) -> tensor<1x40x11008xf32>
    %524 = "tosa.const"() <{value = dense<[1, 0]> : tensor<2xi32>}> : () -> tensor<2xi32>
    %525 = tosa.transpose %arg45, %524 : (tensor<4096x11008xf32>, tensor<2xi32>) -> tensor<11008x4096xf32>
    %526 = tosa.reshape %523 {new_shape = array<i64: 40, 11008>} : (tensor<1x40x11008xf32>) -> tensor<40x11008xf32>
    %cst_103 = arith.constant dense<0.000000e+00> : tensor<40x4096xf32>
    %527 = linalg.matmul {cast = #linalg.type_fn<cast_signed>} ins(%526, %525 : tensor<40x11008xf32>, tensor<11008x4096xf32>) outs(%cst_103 : tensor<40x4096xf32>) -> tensor<40x4096xf32>
    %528 = tosa.reshape %527 {new_shape = array<i64: 1, 40, 4096>} : (tensor<40x4096xf32>) -> tensor<1x40x4096xf32>
    %529 = tosa.add %501, %528 : (tensor<1x40x4096xf32>, tensor<1x40x4096xf32>) -> tensor<1x40x4096xf32>
    %530 = tensor.empty() : tensor<1x40x4096xf32>
    %c2_i32_104 = arith.constant 2 : i32
    %531 = linalg.generic {indexing_maps = [#map5, #map5], iterator_types = ["parallel", "parallel", "parallel"]} ins(%529 : tensor<1x40x4096xf32>) outs(%530 : tensor<1x40x4096xf32>) {
    ^bb0(%in: f32, %out: f32):
      %4044 = math.fpowi %in, %c2_i32_104 : f32, i32
      linalg.yield %4044 : f32
    } -> tensor<1x40x4096xf32>
    %cst_105 = arith.constant dense<0.000000e+00> : tensor<1x40x1xf32>
    %532 = linalg.generic {indexing_maps = [#map6, #map7], iterator_types = ["parallel", "parallel", "reduction", "parallel"]} ins(%531 : tensor<1x40x4096xf32>) outs(%cst_105 : tensor<1x40x1xf32>) {
    ^bb0(%in: f32, %out: f32):
      %cst_807 = arith.constant 4.096000e+03 : f32
      %4044 = arith.divf %in, %cst_807 : f32
      %4045 = arith.addf %4044, %out : f32
      linalg.yield %4045 : f32
    } -> tensor<1x40x1xf32>
    %533 = "tosa.const"() <{value = dense<9.99999997E-7> : tensor<1x40x1xf32>}> : () -> tensor<1x40x1xf32>
    %534 = tosa.add %532, %533 : (tensor<1x40x1xf32>, tensor<1x40x1xf32>) -> tensor<1x40x1xf32>
    %535 = tosa.rsqrt %534 : (tensor<1x40x1xf32>) -> tensor<1x40x1xf32>
    %536 = tosa.mul %529, %535 {shift = 0 : i8} : (tensor<1x40x4096xf32>, tensor<1x40x1xf32>) -> tensor<1x40x4096xf32>
    %537 = tosa.reshape %arg46 {new_shape = array<i64: 1, 1, 4096>} : (tensor<4096xf32>) -> tensor<1x1x4096xf32>
    %538 = tosa.mul %537, %536 {shift = 0 : i8} : (tensor<1x1x4096xf32>, tensor<1x40x4096xf32>) -> tensor<1x40x4096xf32>
    %539 = "tosa.const"() <{value = dense<[1, 0]> : tensor<2xi32>}> : () -> tensor<2xi32>
    %540 = tosa.transpose %arg47, %539 : (tensor<4096x4096xf32>, tensor<2xi32>) -> tensor<4096x4096xf32>
    %541 = tosa.reshape %538 {new_shape = array<i64: 40, 4096>} : (tensor<1x40x4096xf32>) -> tensor<40x4096xf32>
    %cst_106 = arith.constant dense<0.000000e+00> : tensor<40x4096xf32>
    %542 = linalg.matmul {cast = #linalg.type_fn<cast_signed>} ins(%541, %540 : tensor<40x4096xf32>, tensor<4096x4096xf32>) outs(%cst_106 : tensor<40x4096xf32>) -> tensor<40x4096xf32>
    %543 = tosa.reshape %542 {new_shape = array<i64: 1, 40, 4096>} : (tensor<40x4096xf32>) -> tensor<1x40x4096xf32>
    %544 = "tosa.const"() <{value = dense<[1, 0]> : tensor<2xi32>}> : () -> tensor<2xi32>
    %545 = tosa.transpose %arg48, %544 : (tensor<4096x4096xf32>, tensor<2xi32>) -> tensor<4096x4096xf32>
    %546 = tosa.reshape %538 {new_shape = array<i64: 40, 4096>} : (tensor<1x40x4096xf32>) -> tensor<40x4096xf32>
    %cst_107 = arith.constant dense<0.000000e+00> : tensor<40x4096xf32>
    %547 = linalg.matmul {cast = #linalg.type_fn<cast_signed>} ins(%546, %545 : tensor<40x4096xf32>, tensor<4096x4096xf32>) outs(%cst_107 : tensor<40x4096xf32>) -> tensor<40x4096xf32>
    %548 = tosa.reshape %547 {new_shape = array<i64: 1, 40, 4096>} : (tensor<40x4096xf32>) -> tensor<1x40x4096xf32>
    %549 = "tosa.const"() <{value = dense<[1, 0]> : tensor<2xi32>}> : () -> tensor<2xi32>
    %550 = tosa.transpose %arg49, %549 : (tensor<4096x4096xf32>, tensor<2xi32>) -> tensor<4096x4096xf32>
    %551 = tosa.reshape %538 {new_shape = array<i64: 40, 4096>} : (tensor<1x40x4096xf32>) -> tensor<40x4096xf32>
    %cst_108 = arith.constant dense<0.000000e+00> : tensor<40x4096xf32>
    %552 = linalg.matmul {cast = #linalg.type_fn<cast_signed>} ins(%551, %550 : tensor<40x4096xf32>, tensor<4096x4096xf32>) outs(%cst_108 : tensor<40x4096xf32>) -> tensor<40x4096xf32>
    %553 = tosa.reshape %552 {new_shape = array<i64: 1, 40, 4096>} : (tensor<40x4096xf32>) -> tensor<1x40x4096xf32>
    %554 = tosa.reshape %543 {new_shape = array<i64: 1, 40, 32, 128>} : (tensor<1x40x4096xf32>) -> tensor<1x40x32x128xf32>
    %555 = "tosa.const"() <{value = dense<[0, 2, 1, 3]> : tensor<4xi32>}> : () -> tensor<4xi32>
    %556 = tosa.transpose %554, %555 : (tensor<1x40x32x128xf32>, tensor<4xi32>) -> tensor<1x32x40x128xf32>
    %557 = tosa.reshape %548 {new_shape = array<i64: 1, 40, 32, 128>} : (tensor<1x40x4096xf32>) -> tensor<1x40x32x128xf32>
    %558 = "tosa.const"() <{value = dense<[0, 2, 1, 3]> : tensor<4xi32>}> : () -> tensor<4xi32>
    %559 = tosa.transpose %557, %558 : (tensor<1x40x32x128xf32>, tensor<4xi32>) -> tensor<1x32x40x128xf32>
    %560 = tosa.reshape %553 {new_shape = array<i64: 1, 40, 32, 128>} : (tensor<1x40x4096xf32>) -> tensor<1x40x32x128xf32>
    %561 = "tosa.const"() <{value = dense<[0, 2, 1, 3]> : tensor<4xi32>}> : () -> tensor<4xi32>
    %562 = tosa.transpose %560, %561 : (tensor<1x40x32x128xf32>, tensor<4xi32>) -> tensor<1x32x40x128xf32>
    %extracted_slice_109 = tensor.extract_slice %arg50[0, 0, 0, 0] [1, 1, 2048, 128] [1, 1, 1, 1] : tensor<1x1x2048x128xf32> to tensor<1x1x2048x128xf32>
    %extracted_slice_110 = tensor.extract_slice %extracted_slice_109[0, 0, 0, 0] [1, 1, 2048, 128] [1, 1, 1, 1] : tensor<1x1x2048x128xf32> to tensor<1x1x2048x128xf32>
    %extracted_slice_111 = tensor.extract_slice %extracted_slice_110[0, 0, 0, 0] [1, 1, 40, 128] [1, 1, 1, 1] : tensor<1x1x2048x128xf32> to tensor<1x1x40x128xf32>
    %extracted_slice_112 = tensor.extract_slice %arg51[0, 0, 0, 0] [1, 1, 2048, 128] [1, 1, 1, 1] : tensor<1x1x2048x128xf32> to tensor<1x1x2048x128xf32>
    %extracted_slice_113 = tensor.extract_slice %extracted_slice_112[0, 0, 0, 0] [1, 1, 2048, 128] [1, 1, 1, 1] : tensor<1x1x2048x128xf32> to tensor<1x1x2048x128xf32>
    %extracted_slice_114 = tensor.extract_slice %extracted_slice_113[0, 0, 0, 0] [1, 1, 40, 128] [1, 1, 1, 1] : tensor<1x1x2048x128xf32> to tensor<1x1x40x128xf32>
    %563 = tensor.empty() : tensor<1x40x128xf32>
    %564 = linalg.generic {indexing_maps = [#map8, #map5], iterator_types = ["parallel", "parallel", "parallel"]} ins(%extracted_slice_111 : tensor<1x1x40x128xf32>) outs(%563 : tensor<1x40x128xf32>) {
    ^bb0(%in: f32, %out: f32):
      linalg.yield %in : f32
    } -> tensor<1x40x128xf32>
    %565 = tensor.empty() : tensor<40x128xf32>
    %566 = linalg.generic {indexing_maps = [#map9, #map3], iterator_types = ["parallel", "parallel"]} ins(%564 : tensor<1x40x128xf32>) outs(%565 : tensor<40x128xf32>) {
    ^bb0(%in: f32, %out: f32):
      linalg.yield %in : f32
    } -> tensor<40x128xf32>
    %567 = tensor.empty() : tensor<1x40x128xf32>
    %568 = linalg.generic {indexing_maps = [#map8, #map5], iterator_types = ["parallel", "parallel", "parallel"]} ins(%extracted_slice_114 : tensor<1x1x40x128xf32>) outs(%567 : tensor<1x40x128xf32>) {
    ^bb0(%in: f32, %out: f32):
      linalg.yield %in : f32
    } -> tensor<1x40x128xf32>
    %569 = tensor.empty() : tensor<40x128xf32>
    %570 = linalg.generic {indexing_maps = [#map9, #map3], iterator_types = ["parallel", "parallel"]} ins(%568 : tensor<1x40x128xf32>) outs(%569 : tensor<40x128xf32>) {
    ^bb0(%in: f32, %out: f32):
      linalg.yield %in : f32
    } -> tensor<40x128xf32>
    %571 = tensor.empty() : tensor<1x40x128xf32>
    %572 = linalg.generic {indexing_maps = [#map2, #map5], iterator_types = ["parallel", "parallel", "parallel"]} ins(%2 : tensor<1x40xi64>) outs(%571 : tensor<1x40x128xf32>) {
    ^bb0(%in: i64, %out: f32):
      %4044 = arith.index_cast %in : i64 to index
      %4045 = linalg.index 2 : index
      %extracted = tensor.extract %566[%4044, %4045] : tensor<40x128xf32>
      linalg.yield %extracted : f32
    } -> tensor<1x40x128xf32>
    %573 = tosa.reshape %572 {new_shape = array<i64: 1, 1, 40, 128>} : (tensor<1x40x128xf32>) -> tensor<1x1x40x128xf32>
    %574 = tensor.empty() : tensor<1x40x128xf32>
    %575 = linalg.generic {indexing_maps = [#map2, #map5], iterator_types = ["parallel", "parallel", "parallel"]} ins(%2 : tensor<1x40xi64>) outs(%574 : tensor<1x40x128xf32>) {
    ^bb0(%in: i64, %out: f32):
      %4044 = arith.index_cast %in : i64 to index
      %4045 = linalg.index 2 : index
      %extracted = tensor.extract %570[%4044, %4045] : tensor<40x128xf32>
      linalg.yield %extracted : f32
    } -> tensor<1x40x128xf32>
    %576 = tosa.reshape %575 {new_shape = array<i64: 1, 1, 40, 128>} : (tensor<1x40x128xf32>) -> tensor<1x1x40x128xf32>
    %577 = tosa.mul %556, %573 {shift = 0 : i8} : (tensor<1x32x40x128xf32>, tensor<1x1x40x128xf32>) -> tensor<1x32x40x128xf32>
    %extracted_slice_115 = tensor.extract_slice %556[0, 0, 0, 0] [1, 32, 40, 64] [1, 1, 1, 1] : tensor<1x32x40x128xf32> to tensor<1x32x40x64xf32>
    %extracted_slice_116 = tensor.extract_slice %556[0, 0, 0, 64] [1, 32, 40, 64] [1, 1, 1, 1] : tensor<1x32x40x128xf32> to tensor<1x32x40x64xf32>
    %578 = tensor.empty() : tensor<1x32x40x64xf32>
    %579 = linalg.negf ins(%extracted_slice_116 : tensor<1x32x40x64xf32>) outs(%578 : tensor<1x32x40x64xf32>) -> tensor<1x32x40x64xf32>
    %580 = tensor.empty() : tensor<1x32x40x128xf32>
    %inserted_slice_117 = tensor.insert_slice %579 into %580[0, 0, 0, 0] [1, 32, 40, 64] [1, 1, 1, 1] : tensor<1x32x40x64xf32> into tensor<1x32x40x128xf32>
    %inserted_slice_118 = tensor.insert_slice %extracted_slice_115 into %inserted_slice_117[0, 0, 0, 64] [1, 32, 40, 64] [1, 1, 1, 1] : tensor<1x32x40x64xf32> into tensor<1x32x40x128xf32>
    %581 = tosa.mul %inserted_slice_118, %576 {shift = 0 : i8} : (tensor<1x32x40x128xf32>, tensor<1x1x40x128xf32>) -> tensor<1x32x40x128xf32>
    %582 = tosa.add %577, %581 : (tensor<1x32x40x128xf32>, tensor<1x32x40x128xf32>) -> tensor<1x32x40x128xf32>
    %583 = tosa.mul %559, %573 {shift = 0 : i8} : (tensor<1x32x40x128xf32>, tensor<1x1x40x128xf32>) -> tensor<1x32x40x128xf32>
    %extracted_slice_119 = tensor.extract_slice %559[0, 0, 0, 0] [1, 32, 40, 64] [1, 1, 1, 1] : tensor<1x32x40x128xf32> to tensor<1x32x40x64xf32>
    %extracted_slice_120 = tensor.extract_slice %559[0, 0, 0, 64] [1, 32, 40, 64] [1, 1, 1, 1] : tensor<1x32x40x128xf32> to tensor<1x32x40x64xf32>
    %584 = tensor.empty() : tensor<1x32x40x64xf32>
    %585 = linalg.negf ins(%extracted_slice_120 : tensor<1x32x40x64xf32>) outs(%584 : tensor<1x32x40x64xf32>) -> tensor<1x32x40x64xf32>
    %586 = tensor.empty() : tensor<1x32x40x128xf32>
    %inserted_slice_121 = tensor.insert_slice %585 into %586[0, 0, 0, 0] [1, 32, 40, 64] [1, 1, 1, 1] : tensor<1x32x40x64xf32> into tensor<1x32x40x128xf32>
    %inserted_slice_122 = tensor.insert_slice %extracted_slice_119 into %inserted_slice_121[0, 0, 0, 64] [1, 32, 40, 64] [1, 1, 1, 1] : tensor<1x32x40x64xf32> into tensor<1x32x40x128xf32>
    %587 = tosa.mul %inserted_slice_122, %576 {shift = 0 : i8} : (tensor<1x32x40x128xf32>, tensor<1x1x40x128xf32>) -> tensor<1x32x40x128xf32>
    %588 = tosa.add %583, %587 : (tensor<1x32x40x128xf32>, tensor<1x32x40x128xf32>) -> tensor<1x32x40x128xf32>
    %589 = "tosa.const"() <{value = dense<[0, 1, 3, 2]> : tensor<4xi32>}> : () -> tensor<4xi32>
    %590 = tosa.transpose %588, %589 : (tensor<1x32x40x128xf32>, tensor<4xi32>) -> tensor<1x32x128x40xf32>
    %591 = "tosa.const"() <{value = dense<0.000000e+00> : tensor<1x32x40x128xf32>}> : () -> tensor<1x32x40x128xf32>
    %592 = tosa.add %582, %591 : (tensor<1x32x40x128xf32>, tensor<1x32x40x128xf32>) -> tensor<1x32x40x128xf32>
    %593 = tosa.reshape %592 {new_shape = array<i64: 32, 40, 128>} : (tensor<1x32x40x128xf32>) -> tensor<32x40x128xf32>
    %594 = "tosa.const"() <{value = dense<0.000000e+00> : tensor<1x32x128x40xf32>}> : () -> tensor<1x32x128x40xf32>
    %595 = tosa.add %590, %594 : (tensor<1x32x128x40xf32>, tensor<1x32x128x40xf32>) -> tensor<1x32x128x40xf32>
    %596 = tosa.reshape %595 {new_shape = array<i64: 32, 128, 40>} : (tensor<1x32x128x40xf32>) -> tensor<32x128x40xf32>
    %597 = tosa.matmul %593, %596 : (tensor<32x40x128xf32>, tensor<32x128x40xf32>) -> tensor<32x40x40xf32>
    %598 = tosa.reshape %597 {new_shape = array<i64: 1, 32, 40, 40>} : (tensor<32x40x40xf32>) -> tensor<1x32x40x40xf32>
    %599 = "tosa.const"() <{value = dense<11.3137083> : tensor<1x32x40x40xf32>}> : () -> tensor<1x32x40x40xf32>
    %600 = tosa.reciprocal %599 : (tensor<1x32x40x40xf32>) -> tensor<1x32x40x40xf32>
    %601 = tosa.mul %598, %600 {shift = 0 : i8} : (tensor<1x32x40x40xf32>, tensor<1x32x40x40xf32>) -> tensor<1x32x40x40xf32>
    %602 = tosa.add %601, %29 : (tensor<1x32x40x40xf32>, tensor<1x1x40x40xf32>) -> tensor<1x32x40x40xf32>
    %603 = tosa.reduce_max %602 {axis = 3 : i32} : (tensor<1x32x40x40xf32>) -> tensor<1x32x40x1xf32>
    %604 = tosa.sub %602, %603 : (tensor<1x32x40x40xf32>, tensor<1x32x40x1xf32>) -> tensor<1x32x40x40xf32>
    %605 = tosa.exp %604 : (tensor<1x32x40x40xf32>) -> tensor<1x32x40x40xf32>
    %606 = tosa.reduce_sum %605 {axis = 3 : i32} : (tensor<1x32x40x40xf32>) -> tensor<1x32x40x1xf32>
    %607 = tosa.reciprocal %606 : (tensor<1x32x40x1xf32>) -> tensor<1x32x40x1xf32>
    %608 = tosa.mul %605, %607 {shift = 0 : i8} : (tensor<1x32x40x40xf32>, tensor<1x32x40x1xf32>) -> tensor<1x32x40x40xf32>
    %609 = "tosa.const"() <{value = dense<0.000000e+00> : tensor<1x32x40x40xf32>}> : () -> tensor<1x32x40x40xf32>
    %610 = tosa.add %608, %609 : (tensor<1x32x40x40xf32>, tensor<1x32x40x40xf32>) -> tensor<1x32x40x40xf32>
    %611 = tosa.reshape %610 {new_shape = array<i64: 32, 40, 40>} : (tensor<1x32x40x40xf32>) -> tensor<32x40x40xf32>
    %612 = "tosa.const"() <{value = dense<0.000000e+00> : tensor<1x32x40x128xf32>}> : () -> tensor<1x32x40x128xf32>
    %613 = tosa.add %562, %612 : (tensor<1x32x40x128xf32>, tensor<1x32x40x128xf32>) -> tensor<1x32x40x128xf32>
    %614 = tosa.reshape %613 {new_shape = array<i64: 32, 40, 128>} : (tensor<1x32x40x128xf32>) -> tensor<32x40x128xf32>
    %615 = tosa.matmul %611, %614 : (tensor<32x40x40xf32>, tensor<32x40x128xf32>) -> tensor<32x40x128xf32>
    %616 = tosa.reshape %615 {new_shape = array<i64: 1, 32, 40, 128>} : (tensor<32x40x128xf32>) -> tensor<1x32x40x128xf32>
    %617 = "tosa.const"() <{value = dense<[0, 2, 1, 3]> : tensor<4xi32>}> : () -> tensor<4xi32>
    %618 = tosa.transpose %616, %617 : (tensor<1x32x40x128xf32>, tensor<4xi32>) -> tensor<1x40x32x128xf32>
    %619 = tosa.identity %618 : (tensor<1x40x32x128xf32>) -> tensor<1x40x32x128xf32>
    %620 = tosa.reshape %619 {new_shape = array<i64: 1, 40, 4096>} : (tensor<1x40x32x128xf32>) -> tensor<1x40x4096xf32>
    %621 = "tosa.const"() <{value = dense<[1, 0]> : tensor<2xi32>}> : () -> tensor<2xi32>
    %622 = tosa.transpose %arg52, %621 : (tensor<4096x4096xf32>, tensor<2xi32>) -> tensor<4096x4096xf32>
    %623 = tosa.reshape %620 {new_shape = array<i64: 40, 4096>} : (tensor<1x40x4096xf32>) -> tensor<40x4096xf32>
    %cst_123 = arith.constant dense<0.000000e+00> : tensor<40x4096xf32>
    %624 = linalg.matmul {cast = #linalg.type_fn<cast_signed>} ins(%623, %622 : tensor<40x4096xf32>, tensor<4096x4096xf32>) outs(%cst_123 : tensor<40x4096xf32>) -> tensor<40x4096xf32>
    %625 = tosa.reshape %624 {new_shape = array<i64: 1, 40, 4096>} : (tensor<40x4096xf32>) -> tensor<1x40x4096xf32>
    %626 = tosa.add %529, %625 : (tensor<1x40x4096xf32>, tensor<1x40x4096xf32>) -> tensor<1x40x4096xf32>
    %627 = tensor.empty() : tensor<1x40x4096xf32>
    %c2_i32_124 = arith.constant 2 : i32
    %628 = linalg.generic {indexing_maps = [#map5, #map5], iterator_types = ["parallel", "parallel", "parallel"]} ins(%626 : tensor<1x40x4096xf32>) outs(%627 : tensor<1x40x4096xf32>) {
    ^bb0(%in: f32, %out: f32):
      %4044 = math.fpowi %in, %c2_i32_124 : f32, i32
      linalg.yield %4044 : f32
    } -> tensor<1x40x4096xf32>
    %cst_125 = arith.constant dense<0.000000e+00> : tensor<1x40x1xf32>
    %629 = linalg.generic {indexing_maps = [#map6, #map7], iterator_types = ["parallel", "parallel", "reduction", "parallel"]} ins(%628 : tensor<1x40x4096xf32>) outs(%cst_125 : tensor<1x40x1xf32>) {
    ^bb0(%in: f32, %out: f32):
      %cst_807 = arith.constant 4.096000e+03 : f32
      %4044 = arith.divf %in, %cst_807 : f32
      %4045 = arith.addf %4044, %out : f32
      linalg.yield %4045 : f32
    } -> tensor<1x40x1xf32>
    %630 = "tosa.const"() <{value = dense<9.99999997E-7> : tensor<1x40x1xf32>}> : () -> tensor<1x40x1xf32>
    %631 = tosa.add %629, %630 : (tensor<1x40x1xf32>, tensor<1x40x1xf32>) -> tensor<1x40x1xf32>
    %632 = tosa.rsqrt %631 : (tensor<1x40x1xf32>) -> tensor<1x40x1xf32>
    %633 = tosa.mul %626, %632 {shift = 0 : i8} : (tensor<1x40x4096xf32>, tensor<1x40x1xf32>) -> tensor<1x40x4096xf32>
    %634 = tosa.reshape %arg53 {new_shape = array<i64: 1, 1, 4096>} : (tensor<4096xf32>) -> tensor<1x1x4096xf32>
    %635 = tosa.mul %634, %633 {shift = 0 : i8} : (tensor<1x1x4096xf32>, tensor<1x40x4096xf32>) -> tensor<1x40x4096xf32>
    %636 = "tosa.const"() <{value = dense<[1, 0]> : tensor<2xi32>}> : () -> tensor<2xi32>
    %637 = tosa.transpose %arg54, %636 : (tensor<11008x4096xf32>, tensor<2xi32>) -> tensor<4096x11008xf32>
    %638 = tosa.reshape %635 {new_shape = array<i64: 40, 4096>} : (tensor<1x40x4096xf32>) -> tensor<40x4096xf32>
    %cst_126 = arith.constant dense<0.000000e+00> : tensor<40x11008xf32>
    %639 = linalg.matmul {cast = #linalg.type_fn<cast_signed>} ins(%638, %637 : tensor<40x4096xf32>, tensor<4096x11008xf32>) outs(%cst_126 : tensor<40x11008xf32>) -> tensor<40x11008xf32>
    %640 = tosa.reshape %639 {new_shape = array<i64: 1, 40, 11008>} : (tensor<40x11008xf32>) -> tensor<1x40x11008xf32>
    %641 = tosa.sigmoid %640 : (tensor<1x40x11008xf32>) -> tensor<1x40x11008xf32>
    %642 = tosa.mul %640, %641 {shift = 0 : i8} : (tensor<1x40x11008xf32>, tensor<1x40x11008xf32>) -> tensor<1x40x11008xf32>
    %643 = "tosa.const"() <{value = dense<[1, 0]> : tensor<2xi32>}> : () -> tensor<2xi32>
    %644 = tosa.transpose %arg55, %643 : (tensor<11008x4096xf32>, tensor<2xi32>) -> tensor<4096x11008xf32>
    %645 = tosa.reshape %635 {new_shape = array<i64: 40, 4096>} : (tensor<1x40x4096xf32>) -> tensor<40x4096xf32>
    %cst_127 = arith.constant dense<0.000000e+00> : tensor<40x11008xf32>
    %646 = linalg.matmul {cast = #linalg.type_fn<cast_signed>} ins(%645, %644 : tensor<40x4096xf32>, tensor<4096x11008xf32>) outs(%cst_127 : tensor<40x11008xf32>) -> tensor<40x11008xf32>
    %647 = tosa.reshape %646 {new_shape = array<i64: 1, 40, 11008>} : (tensor<40x11008xf32>) -> tensor<1x40x11008xf32>
    %648 = tosa.mul %642, %647 {shift = 0 : i8} : (tensor<1x40x11008xf32>, tensor<1x40x11008xf32>) -> tensor<1x40x11008xf32>
    %649 = "tosa.const"() <{value = dense<[1, 0]> : tensor<2xi32>}> : () -> tensor<2xi32>
    %650 = tosa.transpose %arg56, %649 : (tensor<4096x11008xf32>, tensor<2xi32>) -> tensor<11008x4096xf32>
    %651 = tosa.reshape %648 {new_shape = array<i64: 40, 11008>} : (tensor<1x40x11008xf32>) -> tensor<40x11008xf32>
    %cst_128 = arith.constant dense<0.000000e+00> : tensor<40x4096xf32>
    %652 = linalg.matmul {cast = #linalg.type_fn<cast_signed>} ins(%651, %650 : tensor<40x11008xf32>, tensor<11008x4096xf32>) outs(%cst_128 : tensor<40x4096xf32>) -> tensor<40x4096xf32>
    %653 = tosa.reshape %652 {new_shape = array<i64: 1, 40, 4096>} : (tensor<40x4096xf32>) -> tensor<1x40x4096xf32>
    %654 = tosa.add %626, %653 : (tensor<1x40x4096xf32>, tensor<1x40x4096xf32>) -> tensor<1x40x4096xf32>
    %655 = tensor.empty() : tensor<1x40x4096xf32>
    %c2_i32_129 = arith.constant 2 : i32
    %656 = linalg.generic {indexing_maps = [#map5, #map5], iterator_types = ["parallel", "parallel", "parallel"]} ins(%654 : tensor<1x40x4096xf32>) outs(%655 : tensor<1x40x4096xf32>) {
    ^bb0(%in: f32, %out: f32):
      %4044 = math.fpowi %in, %c2_i32_129 : f32, i32
      linalg.yield %4044 : f32
    } -> tensor<1x40x4096xf32>
    %cst_130 = arith.constant dense<0.000000e+00> : tensor<1x40x1xf32>
    %657 = linalg.generic {indexing_maps = [#map6, #map7], iterator_types = ["parallel", "parallel", "reduction", "parallel"]} ins(%656 : tensor<1x40x4096xf32>) outs(%cst_130 : tensor<1x40x1xf32>) {
    ^bb0(%in: f32, %out: f32):
      %cst_807 = arith.constant 4.096000e+03 : f32
      %4044 = arith.divf %in, %cst_807 : f32
      %4045 = arith.addf %4044, %out : f32
      linalg.yield %4045 : f32
    } -> tensor<1x40x1xf32>
    %658 = "tosa.const"() <{value = dense<9.99999997E-7> : tensor<1x40x1xf32>}> : () -> tensor<1x40x1xf32>
    %659 = tosa.add %657, %658 : (tensor<1x40x1xf32>, tensor<1x40x1xf32>) -> tensor<1x40x1xf32>
    %660 = tosa.rsqrt %659 : (tensor<1x40x1xf32>) -> tensor<1x40x1xf32>
    %661 = tosa.mul %654, %660 {shift = 0 : i8} : (tensor<1x40x4096xf32>, tensor<1x40x1xf32>) -> tensor<1x40x4096xf32>
    %662 = tosa.reshape %arg57 {new_shape = array<i64: 1, 1, 4096>} : (tensor<4096xf32>) -> tensor<1x1x4096xf32>
    %663 = tosa.mul %662, %661 {shift = 0 : i8} : (tensor<1x1x4096xf32>, tensor<1x40x4096xf32>) -> tensor<1x40x4096xf32>
    %664 = "tosa.const"() <{value = dense<[1, 0]> : tensor<2xi32>}> : () -> tensor<2xi32>
    %665 = tosa.transpose %arg58, %664 : (tensor<4096x4096xf32>, tensor<2xi32>) -> tensor<4096x4096xf32>
    %666 = tosa.reshape %663 {new_shape = array<i64: 40, 4096>} : (tensor<1x40x4096xf32>) -> tensor<40x4096xf32>
    %cst_131 = arith.constant dense<0.000000e+00> : tensor<40x4096xf32>
    %667 = linalg.matmul {cast = #linalg.type_fn<cast_signed>} ins(%666, %665 : tensor<40x4096xf32>, tensor<4096x4096xf32>) outs(%cst_131 : tensor<40x4096xf32>) -> tensor<40x4096xf32>
    %668 = tosa.reshape %667 {new_shape = array<i64: 1, 40, 4096>} : (tensor<40x4096xf32>) -> tensor<1x40x4096xf32>
    %669 = "tosa.const"() <{value = dense<[1, 0]> : tensor<2xi32>}> : () -> tensor<2xi32>
    %670 = tosa.transpose %arg59, %669 : (tensor<4096x4096xf32>, tensor<2xi32>) -> tensor<4096x4096xf32>
    %671 = tosa.reshape %663 {new_shape = array<i64: 40, 4096>} : (tensor<1x40x4096xf32>) -> tensor<40x4096xf32>
    %cst_132 = arith.constant dense<0.000000e+00> : tensor<40x4096xf32>
    %672 = linalg.matmul {cast = #linalg.type_fn<cast_signed>} ins(%671, %670 : tensor<40x4096xf32>, tensor<4096x4096xf32>) outs(%cst_132 : tensor<40x4096xf32>) -> tensor<40x4096xf32>
    %673 = tosa.reshape %672 {new_shape = array<i64: 1, 40, 4096>} : (tensor<40x4096xf32>) -> tensor<1x40x4096xf32>
    %674 = "tosa.const"() <{value = dense<[1, 0]> : tensor<2xi32>}> : () -> tensor<2xi32>
    %675 = tosa.transpose %arg60, %674 : (tensor<4096x4096xf32>, tensor<2xi32>) -> tensor<4096x4096xf32>
    %676 = tosa.reshape %663 {new_shape = array<i64: 40, 4096>} : (tensor<1x40x4096xf32>) -> tensor<40x4096xf32>
    %cst_133 = arith.constant dense<0.000000e+00> : tensor<40x4096xf32>
    %677 = linalg.matmul {cast = #linalg.type_fn<cast_signed>} ins(%676, %675 : tensor<40x4096xf32>, tensor<4096x4096xf32>) outs(%cst_133 : tensor<40x4096xf32>) -> tensor<40x4096xf32>
    %678 = tosa.reshape %677 {new_shape = array<i64: 1, 40, 4096>} : (tensor<40x4096xf32>) -> tensor<1x40x4096xf32>
    %679 = tosa.reshape %668 {new_shape = array<i64: 1, 40, 32, 128>} : (tensor<1x40x4096xf32>) -> tensor<1x40x32x128xf32>
    %680 = "tosa.const"() <{value = dense<[0, 2, 1, 3]> : tensor<4xi32>}> : () -> tensor<4xi32>
    %681 = tosa.transpose %679, %680 : (tensor<1x40x32x128xf32>, tensor<4xi32>) -> tensor<1x32x40x128xf32>
    %682 = tosa.reshape %673 {new_shape = array<i64: 1, 40, 32, 128>} : (tensor<1x40x4096xf32>) -> tensor<1x40x32x128xf32>
    %683 = "tosa.const"() <{value = dense<[0, 2, 1, 3]> : tensor<4xi32>}> : () -> tensor<4xi32>
    %684 = tosa.transpose %682, %683 : (tensor<1x40x32x128xf32>, tensor<4xi32>) -> tensor<1x32x40x128xf32>
    %685 = tosa.reshape %678 {new_shape = array<i64: 1, 40, 32, 128>} : (tensor<1x40x4096xf32>) -> tensor<1x40x32x128xf32>
    %686 = "tosa.const"() <{value = dense<[0, 2, 1, 3]> : tensor<4xi32>}> : () -> tensor<4xi32>
    %687 = tosa.transpose %685, %686 : (tensor<1x40x32x128xf32>, tensor<4xi32>) -> tensor<1x32x40x128xf32>
    %extracted_slice_134 = tensor.extract_slice %arg61[0, 0, 0, 0] [1, 1, 2048, 128] [1, 1, 1, 1] : tensor<1x1x2048x128xf32> to tensor<1x1x2048x128xf32>
    %extracted_slice_135 = tensor.extract_slice %extracted_slice_134[0, 0, 0, 0] [1, 1, 2048, 128] [1, 1, 1, 1] : tensor<1x1x2048x128xf32> to tensor<1x1x2048x128xf32>
    %extracted_slice_136 = tensor.extract_slice %extracted_slice_135[0, 0, 0, 0] [1, 1, 40, 128] [1, 1, 1, 1] : tensor<1x1x2048x128xf32> to tensor<1x1x40x128xf32>
    %extracted_slice_137 = tensor.extract_slice %arg62[0, 0, 0, 0] [1, 1, 2048, 128] [1, 1, 1, 1] : tensor<1x1x2048x128xf32> to tensor<1x1x2048x128xf32>
    %extracted_slice_138 = tensor.extract_slice %extracted_slice_137[0, 0, 0, 0] [1, 1, 2048, 128] [1, 1, 1, 1] : tensor<1x1x2048x128xf32> to tensor<1x1x2048x128xf32>
    %extracted_slice_139 = tensor.extract_slice %extracted_slice_138[0, 0, 0, 0] [1, 1, 40, 128] [1, 1, 1, 1] : tensor<1x1x2048x128xf32> to tensor<1x1x40x128xf32>
    %688 = tensor.empty() : tensor<1x40x128xf32>
    %689 = linalg.generic {indexing_maps = [#map8, #map5], iterator_types = ["parallel", "parallel", "parallel"]} ins(%extracted_slice_136 : tensor<1x1x40x128xf32>) outs(%688 : tensor<1x40x128xf32>) {
    ^bb0(%in: f32, %out: f32):
      linalg.yield %in : f32
    } -> tensor<1x40x128xf32>
    %690 = tensor.empty() : tensor<40x128xf32>
    %691 = linalg.generic {indexing_maps = [#map9, #map3], iterator_types = ["parallel", "parallel"]} ins(%689 : tensor<1x40x128xf32>) outs(%690 : tensor<40x128xf32>) {
    ^bb0(%in: f32, %out: f32):
      linalg.yield %in : f32
    } -> tensor<40x128xf32>
    %692 = tensor.empty() : tensor<1x40x128xf32>
    %693 = linalg.generic {indexing_maps = [#map8, #map5], iterator_types = ["parallel", "parallel", "parallel"]} ins(%extracted_slice_139 : tensor<1x1x40x128xf32>) outs(%692 : tensor<1x40x128xf32>) {
    ^bb0(%in: f32, %out: f32):
      linalg.yield %in : f32
    } -> tensor<1x40x128xf32>
    %694 = tensor.empty() : tensor<40x128xf32>
    %695 = linalg.generic {indexing_maps = [#map9, #map3], iterator_types = ["parallel", "parallel"]} ins(%693 : tensor<1x40x128xf32>) outs(%694 : tensor<40x128xf32>) {
    ^bb0(%in: f32, %out: f32):
      linalg.yield %in : f32
    } -> tensor<40x128xf32>
    %696 = tensor.empty() : tensor<1x40x128xf32>
    %697 = linalg.generic {indexing_maps = [#map2, #map5], iterator_types = ["parallel", "parallel", "parallel"]} ins(%2 : tensor<1x40xi64>) outs(%696 : tensor<1x40x128xf32>) {
    ^bb0(%in: i64, %out: f32):
      %4044 = arith.index_cast %in : i64 to index
      %4045 = linalg.index 2 : index
      %extracted = tensor.extract %691[%4044, %4045] : tensor<40x128xf32>
      linalg.yield %extracted : f32
    } -> tensor<1x40x128xf32>
    %698 = tosa.reshape %697 {new_shape = array<i64: 1, 1, 40, 128>} : (tensor<1x40x128xf32>) -> tensor<1x1x40x128xf32>
    %699 = tensor.empty() : tensor<1x40x128xf32>
    %700 = linalg.generic {indexing_maps = [#map2, #map5], iterator_types = ["parallel", "parallel", "parallel"]} ins(%2 : tensor<1x40xi64>) outs(%699 : tensor<1x40x128xf32>) {
    ^bb0(%in: i64, %out: f32):
      %4044 = arith.index_cast %in : i64 to index
      %4045 = linalg.index 2 : index
      %extracted = tensor.extract %695[%4044, %4045] : tensor<40x128xf32>
      linalg.yield %extracted : f32
    } -> tensor<1x40x128xf32>
    %701 = tosa.reshape %700 {new_shape = array<i64: 1, 1, 40, 128>} : (tensor<1x40x128xf32>) -> tensor<1x1x40x128xf32>
    %702 = tosa.mul %681, %698 {shift = 0 : i8} : (tensor<1x32x40x128xf32>, tensor<1x1x40x128xf32>) -> tensor<1x32x40x128xf32>
    %extracted_slice_140 = tensor.extract_slice %681[0, 0, 0, 0] [1, 32, 40, 64] [1, 1, 1, 1] : tensor<1x32x40x128xf32> to tensor<1x32x40x64xf32>
    %extracted_slice_141 = tensor.extract_slice %681[0, 0, 0, 64] [1, 32, 40, 64] [1, 1, 1, 1] : tensor<1x32x40x128xf32> to tensor<1x32x40x64xf32>
    %703 = tensor.empty() : tensor<1x32x40x64xf32>
    %704 = linalg.negf ins(%extracted_slice_141 : tensor<1x32x40x64xf32>) outs(%703 : tensor<1x32x40x64xf32>) -> tensor<1x32x40x64xf32>
    %705 = tensor.empty() : tensor<1x32x40x128xf32>
    %inserted_slice_142 = tensor.insert_slice %704 into %705[0, 0, 0, 0] [1, 32, 40, 64] [1, 1, 1, 1] : tensor<1x32x40x64xf32> into tensor<1x32x40x128xf32>
    %inserted_slice_143 = tensor.insert_slice %extracted_slice_140 into %inserted_slice_142[0, 0, 0, 64] [1, 32, 40, 64] [1, 1, 1, 1] : tensor<1x32x40x64xf32> into tensor<1x32x40x128xf32>
    %706 = tosa.mul %inserted_slice_143, %701 {shift = 0 : i8} : (tensor<1x32x40x128xf32>, tensor<1x1x40x128xf32>) -> tensor<1x32x40x128xf32>
    %707 = tosa.add %702, %706 : (tensor<1x32x40x128xf32>, tensor<1x32x40x128xf32>) -> tensor<1x32x40x128xf32>
    %708 = tosa.mul %684, %698 {shift = 0 : i8} : (tensor<1x32x40x128xf32>, tensor<1x1x40x128xf32>) -> tensor<1x32x40x128xf32>
    %extracted_slice_144 = tensor.extract_slice %684[0, 0, 0, 0] [1, 32, 40, 64] [1, 1, 1, 1] : tensor<1x32x40x128xf32> to tensor<1x32x40x64xf32>
    %extracted_slice_145 = tensor.extract_slice %684[0, 0, 0, 64] [1, 32, 40, 64] [1, 1, 1, 1] : tensor<1x32x40x128xf32> to tensor<1x32x40x64xf32>
    %709 = tensor.empty() : tensor<1x32x40x64xf32>
    %710 = linalg.negf ins(%extracted_slice_145 : tensor<1x32x40x64xf32>) outs(%709 : tensor<1x32x40x64xf32>) -> tensor<1x32x40x64xf32>
    %711 = tensor.empty() : tensor<1x32x40x128xf32>
    %inserted_slice_146 = tensor.insert_slice %710 into %711[0, 0, 0, 0] [1, 32, 40, 64] [1, 1, 1, 1] : tensor<1x32x40x64xf32> into tensor<1x32x40x128xf32>
    %inserted_slice_147 = tensor.insert_slice %extracted_slice_144 into %inserted_slice_146[0, 0, 0, 64] [1, 32, 40, 64] [1, 1, 1, 1] : tensor<1x32x40x64xf32> into tensor<1x32x40x128xf32>
    %712 = tosa.mul %inserted_slice_147, %701 {shift = 0 : i8} : (tensor<1x32x40x128xf32>, tensor<1x1x40x128xf32>) -> tensor<1x32x40x128xf32>
    %713 = tosa.add %708, %712 : (tensor<1x32x40x128xf32>, tensor<1x32x40x128xf32>) -> tensor<1x32x40x128xf32>
    %714 = "tosa.const"() <{value = dense<[0, 1, 3, 2]> : tensor<4xi32>}> : () -> tensor<4xi32>
    %715 = tosa.transpose %713, %714 : (tensor<1x32x40x128xf32>, tensor<4xi32>) -> tensor<1x32x128x40xf32>
    %716 = "tosa.const"() <{value = dense<0.000000e+00> : tensor<1x32x40x128xf32>}> : () -> tensor<1x32x40x128xf32>
    %717 = tosa.add %707, %716 : (tensor<1x32x40x128xf32>, tensor<1x32x40x128xf32>) -> tensor<1x32x40x128xf32>
    %718 = tosa.reshape %717 {new_shape = array<i64: 32, 40, 128>} : (tensor<1x32x40x128xf32>) -> tensor<32x40x128xf32>
    %719 = "tosa.const"() <{value = dense<0.000000e+00> : tensor<1x32x128x40xf32>}> : () -> tensor<1x32x128x40xf32>
    %720 = tosa.add %715, %719 : (tensor<1x32x128x40xf32>, tensor<1x32x128x40xf32>) -> tensor<1x32x128x40xf32>
    %721 = tosa.reshape %720 {new_shape = array<i64: 32, 128, 40>} : (tensor<1x32x128x40xf32>) -> tensor<32x128x40xf32>
    %722 = tosa.matmul %718, %721 : (tensor<32x40x128xf32>, tensor<32x128x40xf32>) -> tensor<32x40x40xf32>
    %723 = tosa.reshape %722 {new_shape = array<i64: 1, 32, 40, 40>} : (tensor<32x40x40xf32>) -> tensor<1x32x40x40xf32>
    %724 = "tosa.const"() <{value = dense<11.3137083> : tensor<1x32x40x40xf32>}> : () -> tensor<1x32x40x40xf32>
    %725 = tosa.reciprocal %724 : (tensor<1x32x40x40xf32>) -> tensor<1x32x40x40xf32>
    %726 = tosa.mul %723, %725 {shift = 0 : i8} : (tensor<1x32x40x40xf32>, tensor<1x32x40x40xf32>) -> tensor<1x32x40x40xf32>
    %727 = tosa.add %726, %29 : (tensor<1x32x40x40xf32>, tensor<1x1x40x40xf32>) -> tensor<1x32x40x40xf32>
    %728 = tosa.reduce_max %727 {axis = 3 : i32} : (tensor<1x32x40x40xf32>) -> tensor<1x32x40x1xf32>
    %729 = tosa.sub %727, %728 : (tensor<1x32x40x40xf32>, tensor<1x32x40x1xf32>) -> tensor<1x32x40x40xf32>
    %730 = tosa.exp %729 : (tensor<1x32x40x40xf32>) -> tensor<1x32x40x40xf32>
    %731 = tosa.reduce_sum %730 {axis = 3 : i32} : (tensor<1x32x40x40xf32>) -> tensor<1x32x40x1xf32>
    %732 = tosa.reciprocal %731 : (tensor<1x32x40x1xf32>) -> tensor<1x32x40x1xf32>
    %733 = tosa.mul %730, %732 {shift = 0 : i8} : (tensor<1x32x40x40xf32>, tensor<1x32x40x1xf32>) -> tensor<1x32x40x40xf32>
    %734 = "tosa.const"() <{value = dense<0.000000e+00> : tensor<1x32x40x40xf32>}> : () -> tensor<1x32x40x40xf32>
    %735 = tosa.add %733, %734 : (tensor<1x32x40x40xf32>, tensor<1x32x40x40xf32>) -> tensor<1x32x40x40xf32>
    %736 = tosa.reshape %735 {new_shape = array<i64: 32, 40, 40>} : (tensor<1x32x40x40xf32>) -> tensor<32x40x40xf32>
    %737 = "tosa.const"() <{value = dense<0.000000e+00> : tensor<1x32x40x128xf32>}> : () -> tensor<1x32x40x128xf32>
    %738 = tosa.add %687, %737 : (tensor<1x32x40x128xf32>, tensor<1x32x40x128xf32>) -> tensor<1x32x40x128xf32>
    %739 = tosa.reshape %738 {new_shape = array<i64: 32, 40, 128>} : (tensor<1x32x40x128xf32>) -> tensor<32x40x128xf32>
    %740 = tosa.matmul %736, %739 : (tensor<32x40x40xf32>, tensor<32x40x128xf32>) -> tensor<32x40x128xf32>
    %741 = tosa.reshape %740 {new_shape = array<i64: 1, 32, 40, 128>} : (tensor<32x40x128xf32>) -> tensor<1x32x40x128xf32>
    %742 = "tosa.const"() <{value = dense<[0, 2, 1, 3]> : tensor<4xi32>}> : () -> tensor<4xi32>
    %743 = tosa.transpose %741, %742 : (tensor<1x32x40x128xf32>, tensor<4xi32>) -> tensor<1x40x32x128xf32>
    %744 = tosa.identity %743 : (tensor<1x40x32x128xf32>) -> tensor<1x40x32x128xf32>
    %745 = tosa.reshape %744 {new_shape = array<i64: 1, 40, 4096>} : (tensor<1x40x32x128xf32>) -> tensor<1x40x4096xf32>
    %746 = "tosa.const"() <{value = dense<[1, 0]> : tensor<2xi32>}> : () -> tensor<2xi32>
    %747 = tosa.transpose %arg63, %746 : (tensor<4096x4096xf32>, tensor<2xi32>) -> tensor<4096x4096xf32>
    %748 = tosa.reshape %745 {new_shape = array<i64: 40, 4096>} : (tensor<1x40x4096xf32>) -> tensor<40x4096xf32>
    %cst_148 = arith.constant dense<0.000000e+00> : tensor<40x4096xf32>
    %749 = linalg.matmul {cast = #linalg.type_fn<cast_signed>} ins(%748, %747 : tensor<40x4096xf32>, tensor<4096x4096xf32>) outs(%cst_148 : tensor<40x4096xf32>) -> tensor<40x4096xf32>
    %750 = tosa.reshape %749 {new_shape = array<i64: 1, 40, 4096>} : (tensor<40x4096xf32>) -> tensor<1x40x4096xf32>
    %751 = tosa.add %654, %750 : (tensor<1x40x4096xf32>, tensor<1x40x4096xf32>) -> tensor<1x40x4096xf32>
    %752 = tensor.empty() : tensor<1x40x4096xf32>
    %c2_i32_149 = arith.constant 2 : i32
    %753 = linalg.generic {indexing_maps = [#map5, #map5], iterator_types = ["parallel", "parallel", "parallel"]} ins(%751 : tensor<1x40x4096xf32>) outs(%752 : tensor<1x40x4096xf32>) {
    ^bb0(%in: f32, %out: f32):
      %4044 = math.fpowi %in, %c2_i32_149 : f32, i32
      linalg.yield %4044 : f32
    } -> tensor<1x40x4096xf32>
    %cst_150 = arith.constant dense<0.000000e+00> : tensor<1x40x1xf32>
    %754 = linalg.generic {indexing_maps = [#map6, #map7], iterator_types = ["parallel", "parallel", "reduction", "parallel"]} ins(%753 : tensor<1x40x4096xf32>) outs(%cst_150 : tensor<1x40x1xf32>) {
    ^bb0(%in: f32, %out: f32):
      %cst_807 = arith.constant 4.096000e+03 : f32
      %4044 = arith.divf %in, %cst_807 : f32
      %4045 = arith.addf %4044, %out : f32
      linalg.yield %4045 : f32
    } -> tensor<1x40x1xf32>
    %755 = "tosa.const"() <{value = dense<9.99999997E-7> : tensor<1x40x1xf32>}> : () -> tensor<1x40x1xf32>
    %756 = tosa.add %754, %755 : (tensor<1x40x1xf32>, tensor<1x40x1xf32>) -> tensor<1x40x1xf32>
    %757 = tosa.rsqrt %756 : (tensor<1x40x1xf32>) -> tensor<1x40x1xf32>
    %758 = tosa.mul %751, %757 {shift = 0 : i8} : (tensor<1x40x4096xf32>, tensor<1x40x1xf32>) -> tensor<1x40x4096xf32>
    %759 = tosa.reshape %arg64 {new_shape = array<i64: 1, 1, 4096>} : (tensor<4096xf32>) -> tensor<1x1x4096xf32>
    %760 = tosa.mul %759, %758 {shift = 0 : i8} : (tensor<1x1x4096xf32>, tensor<1x40x4096xf32>) -> tensor<1x40x4096xf32>
    %761 = "tosa.const"() <{value = dense<[1, 0]> : tensor<2xi32>}> : () -> tensor<2xi32>
    %762 = tosa.transpose %arg65, %761 : (tensor<11008x4096xf32>, tensor<2xi32>) -> tensor<4096x11008xf32>
    %763 = tosa.reshape %760 {new_shape = array<i64: 40, 4096>} : (tensor<1x40x4096xf32>) -> tensor<40x4096xf32>
    %cst_151 = arith.constant dense<0.000000e+00> : tensor<40x11008xf32>
    %764 = linalg.matmul {cast = #linalg.type_fn<cast_signed>} ins(%763, %762 : tensor<40x4096xf32>, tensor<4096x11008xf32>) outs(%cst_151 : tensor<40x11008xf32>) -> tensor<40x11008xf32>
    %765 = tosa.reshape %764 {new_shape = array<i64: 1, 40, 11008>} : (tensor<40x11008xf32>) -> tensor<1x40x11008xf32>
    %766 = tosa.sigmoid %765 : (tensor<1x40x11008xf32>) -> tensor<1x40x11008xf32>
    %767 = tosa.mul %765, %766 {shift = 0 : i8} : (tensor<1x40x11008xf32>, tensor<1x40x11008xf32>) -> tensor<1x40x11008xf32>
    %768 = "tosa.const"() <{value = dense<[1, 0]> : tensor<2xi32>}> : () -> tensor<2xi32>
    %769 = tosa.transpose %arg66, %768 : (tensor<11008x4096xf32>, tensor<2xi32>) -> tensor<4096x11008xf32>
    %770 = tosa.reshape %760 {new_shape = array<i64: 40, 4096>} : (tensor<1x40x4096xf32>) -> tensor<40x4096xf32>
    %cst_152 = arith.constant dense<0.000000e+00> : tensor<40x11008xf32>
    %771 = linalg.matmul {cast = #linalg.type_fn<cast_signed>} ins(%770, %769 : tensor<40x4096xf32>, tensor<4096x11008xf32>) outs(%cst_152 : tensor<40x11008xf32>) -> tensor<40x11008xf32>
    %772 = tosa.reshape %771 {new_shape = array<i64: 1, 40, 11008>} : (tensor<40x11008xf32>) -> tensor<1x40x11008xf32>
    %773 = tosa.mul %767, %772 {shift = 0 : i8} : (tensor<1x40x11008xf32>, tensor<1x40x11008xf32>) -> tensor<1x40x11008xf32>
    %774 = "tosa.const"() <{value = dense<[1, 0]> : tensor<2xi32>}> : () -> tensor<2xi32>
    %775 = tosa.transpose %arg67, %774 : (tensor<4096x11008xf32>, tensor<2xi32>) -> tensor<11008x4096xf32>
    %776 = tosa.reshape %773 {new_shape = array<i64: 40, 11008>} : (tensor<1x40x11008xf32>) -> tensor<40x11008xf32>
    %cst_153 = arith.constant dense<0.000000e+00> : tensor<40x4096xf32>
    %777 = linalg.matmul {cast = #linalg.type_fn<cast_signed>} ins(%776, %775 : tensor<40x11008xf32>, tensor<11008x4096xf32>) outs(%cst_153 : tensor<40x4096xf32>) -> tensor<40x4096xf32>
    %778 = tosa.reshape %777 {new_shape = array<i64: 1, 40, 4096>} : (tensor<40x4096xf32>) -> tensor<1x40x4096xf32>
    %779 = tosa.add %751, %778 : (tensor<1x40x4096xf32>, tensor<1x40x4096xf32>) -> tensor<1x40x4096xf32>
    %780 = tensor.empty() : tensor<1x40x4096xf32>
    %c2_i32_154 = arith.constant 2 : i32
    %781 = linalg.generic {indexing_maps = [#map5, #map5], iterator_types = ["parallel", "parallel", "parallel"]} ins(%779 : tensor<1x40x4096xf32>) outs(%780 : tensor<1x40x4096xf32>) {
    ^bb0(%in: f32, %out: f32):
      %4044 = math.fpowi %in, %c2_i32_154 : f32, i32
      linalg.yield %4044 : f32
    } -> tensor<1x40x4096xf32>
    %cst_155 = arith.constant dense<0.000000e+00> : tensor<1x40x1xf32>
    %782 = linalg.generic {indexing_maps = [#map6, #map7], iterator_types = ["parallel", "parallel", "reduction", "parallel"]} ins(%781 : tensor<1x40x4096xf32>) outs(%cst_155 : tensor<1x40x1xf32>) {
    ^bb0(%in: f32, %out: f32):
      %cst_807 = arith.constant 4.096000e+03 : f32
      %4044 = arith.divf %in, %cst_807 : f32
      %4045 = arith.addf %4044, %out : f32
      linalg.yield %4045 : f32
    } -> tensor<1x40x1xf32>
    %783 = "tosa.const"() <{value = dense<9.99999997E-7> : tensor<1x40x1xf32>}> : () -> tensor<1x40x1xf32>
    %784 = tosa.add %782, %783 : (tensor<1x40x1xf32>, tensor<1x40x1xf32>) -> tensor<1x40x1xf32>
    %785 = tosa.rsqrt %784 : (tensor<1x40x1xf32>) -> tensor<1x40x1xf32>
    %786 = tosa.mul %779, %785 {shift = 0 : i8} : (tensor<1x40x4096xf32>, tensor<1x40x1xf32>) -> tensor<1x40x4096xf32>
    %787 = tosa.reshape %arg68 {new_shape = array<i64: 1, 1, 4096>} : (tensor<4096xf32>) -> tensor<1x1x4096xf32>
    %788 = tosa.mul %787, %786 {shift = 0 : i8} : (tensor<1x1x4096xf32>, tensor<1x40x4096xf32>) -> tensor<1x40x4096xf32>
    %789 = "tosa.const"() <{value = dense<[1, 0]> : tensor<2xi32>}> : () -> tensor<2xi32>
    %790 = tosa.transpose %arg69, %789 : (tensor<4096x4096xf32>, tensor<2xi32>) -> tensor<4096x4096xf32>
    %791 = tosa.reshape %788 {new_shape = array<i64: 40, 4096>} : (tensor<1x40x4096xf32>) -> tensor<40x4096xf32>
    %cst_156 = arith.constant dense<0.000000e+00> : tensor<40x4096xf32>
    %792 = linalg.matmul {cast = #linalg.type_fn<cast_signed>} ins(%791, %790 : tensor<40x4096xf32>, tensor<4096x4096xf32>) outs(%cst_156 : tensor<40x4096xf32>) -> tensor<40x4096xf32>
    %793 = tosa.reshape %792 {new_shape = array<i64: 1, 40, 4096>} : (tensor<40x4096xf32>) -> tensor<1x40x4096xf32>
    %794 = "tosa.const"() <{value = dense<[1, 0]> : tensor<2xi32>}> : () -> tensor<2xi32>
    %795 = tosa.transpose %arg70, %794 : (tensor<4096x4096xf32>, tensor<2xi32>) -> tensor<4096x4096xf32>
    %796 = tosa.reshape %788 {new_shape = array<i64: 40, 4096>} : (tensor<1x40x4096xf32>) -> tensor<40x4096xf32>
    %cst_157 = arith.constant dense<0.000000e+00> : tensor<40x4096xf32>
    %797 = linalg.matmul {cast = #linalg.type_fn<cast_signed>} ins(%796, %795 : tensor<40x4096xf32>, tensor<4096x4096xf32>) outs(%cst_157 : tensor<40x4096xf32>) -> tensor<40x4096xf32>
    %798 = tosa.reshape %797 {new_shape = array<i64: 1, 40, 4096>} : (tensor<40x4096xf32>) -> tensor<1x40x4096xf32>
    %799 = "tosa.const"() <{value = dense<[1, 0]> : tensor<2xi32>}> : () -> tensor<2xi32>
    %800 = tosa.transpose %arg71, %799 : (tensor<4096x4096xf32>, tensor<2xi32>) -> tensor<4096x4096xf32>
    %801 = tosa.reshape %788 {new_shape = array<i64: 40, 4096>} : (tensor<1x40x4096xf32>) -> tensor<40x4096xf32>
    %cst_158 = arith.constant dense<0.000000e+00> : tensor<40x4096xf32>
    %802 = linalg.matmul {cast = #linalg.type_fn<cast_signed>} ins(%801, %800 : tensor<40x4096xf32>, tensor<4096x4096xf32>) outs(%cst_158 : tensor<40x4096xf32>) -> tensor<40x4096xf32>
    %803 = tosa.reshape %802 {new_shape = array<i64: 1, 40, 4096>} : (tensor<40x4096xf32>) -> tensor<1x40x4096xf32>
    %804 = tosa.reshape %793 {new_shape = array<i64: 1, 40, 32, 128>} : (tensor<1x40x4096xf32>) -> tensor<1x40x32x128xf32>
    %805 = "tosa.const"() <{value = dense<[0, 2, 1, 3]> : tensor<4xi32>}> : () -> tensor<4xi32>
    %806 = tosa.transpose %804, %805 : (tensor<1x40x32x128xf32>, tensor<4xi32>) -> tensor<1x32x40x128xf32>
    %807 = tosa.reshape %798 {new_shape = array<i64: 1, 40, 32, 128>} : (tensor<1x40x4096xf32>) -> tensor<1x40x32x128xf32>
    %808 = "tosa.const"() <{value = dense<[0, 2, 1, 3]> : tensor<4xi32>}> : () -> tensor<4xi32>
    %809 = tosa.transpose %807, %808 : (tensor<1x40x32x128xf32>, tensor<4xi32>) -> tensor<1x32x40x128xf32>
    %810 = tosa.reshape %803 {new_shape = array<i64: 1, 40, 32, 128>} : (tensor<1x40x4096xf32>) -> tensor<1x40x32x128xf32>
    %811 = "tosa.const"() <{value = dense<[0, 2, 1, 3]> : tensor<4xi32>}> : () -> tensor<4xi32>
    %812 = tosa.transpose %810, %811 : (tensor<1x40x32x128xf32>, tensor<4xi32>) -> tensor<1x32x40x128xf32>
    %extracted_slice_159 = tensor.extract_slice %arg72[0, 0, 0, 0] [1, 1, 2048, 128] [1, 1, 1, 1] : tensor<1x1x2048x128xf32> to tensor<1x1x2048x128xf32>
    %extracted_slice_160 = tensor.extract_slice %extracted_slice_159[0, 0, 0, 0] [1, 1, 2048, 128] [1, 1, 1, 1] : tensor<1x1x2048x128xf32> to tensor<1x1x2048x128xf32>
    %extracted_slice_161 = tensor.extract_slice %extracted_slice_160[0, 0, 0, 0] [1, 1, 40, 128] [1, 1, 1, 1] : tensor<1x1x2048x128xf32> to tensor<1x1x40x128xf32>
    %extracted_slice_162 = tensor.extract_slice %arg73[0, 0, 0, 0] [1, 1, 2048, 128] [1, 1, 1, 1] : tensor<1x1x2048x128xf32> to tensor<1x1x2048x128xf32>
    %extracted_slice_163 = tensor.extract_slice %extracted_slice_162[0, 0, 0, 0] [1, 1, 2048, 128] [1, 1, 1, 1] : tensor<1x1x2048x128xf32> to tensor<1x1x2048x128xf32>
    %extracted_slice_164 = tensor.extract_slice %extracted_slice_163[0, 0, 0, 0] [1, 1, 40, 128] [1, 1, 1, 1] : tensor<1x1x2048x128xf32> to tensor<1x1x40x128xf32>
    %813 = tensor.empty() : tensor<1x40x128xf32>
    %814 = linalg.generic {indexing_maps = [#map8, #map5], iterator_types = ["parallel", "parallel", "parallel"]} ins(%extracted_slice_161 : tensor<1x1x40x128xf32>) outs(%813 : tensor<1x40x128xf32>) {
    ^bb0(%in: f32, %out: f32):
      linalg.yield %in : f32
    } -> tensor<1x40x128xf32>
    %815 = tensor.empty() : tensor<40x128xf32>
    %816 = linalg.generic {indexing_maps = [#map9, #map3], iterator_types = ["parallel", "parallel"]} ins(%814 : tensor<1x40x128xf32>) outs(%815 : tensor<40x128xf32>) {
    ^bb0(%in: f32, %out: f32):
      linalg.yield %in : f32
    } -> tensor<40x128xf32>
    %817 = tensor.empty() : tensor<1x40x128xf32>
    %818 = linalg.generic {indexing_maps = [#map8, #map5], iterator_types = ["parallel", "parallel", "parallel"]} ins(%extracted_slice_164 : tensor<1x1x40x128xf32>) outs(%817 : tensor<1x40x128xf32>) {
    ^bb0(%in: f32, %out: f32):
      linalg.yield %in : f32
    } -> tensor<1x40x128xf32>
    %819 = tensor.empty() : tensor<40x128xf32>
    %820 = linalg.generic {indexing_maps = [#map9, #map3], iterator_types = ["parallel", "parallel"]} ins(%818 : tensor<1x40x128xf32>) outs(%819 : tensor<40x128xf32>) {
    ^bb0(%in: f32, %out: f32):
      linalg.yield %in : f32
    } -> tensor<40x128xf32>
    %821 = tensor.empty() : tensor<1x40x128xf32>
    %822 = linalg.generic {indexing_maps = [#map2, #map5], iterator_types = ["parallel", "parallel", "parallel"]} ins(%2 : tensor<1x40xi64>) outs(%821 : tensor<1x40x128xf32>) {
    ^bb0(%in: i64, %out: f32):
      %4044 = arith.index_cast %in : i64 to index
      %4045 = linalg.index 2 : index
      %extracted = tensor.extract %816[%4044, %4045] : tensor<40x128xf32>
      linalg.yield %extracted : f32
    } -> tensor<1x40x128xf32>
    %823 = tosa.reshape %822 {new_shape = array<i64: 1, 1, 40, 128>} : (tensor<1x40x128xf32>) -> tensor<1x1x40x128xf32>
    %824 = tensor.empty() : tensor<1x40x128xf32>
    %825 = linalg.generic {indexing_maps = [#map2, #map5], iterator_types = ["parallel", "parallel", "parallel"]} ins(%2 : tensor<1x40xi64>) outs(%824 : tensor<1x40x128xf32>) {
    ^bb0(%in: i64, %out: f32):
      %4044 = arith.index_cast %in : i64 to index
      %4045 = linalg.index 2 : index
      %extracted = tensor.extract %820[%4044, %4045] : tensor<40x128xf32>
      linalg.yield %extracted : f32
    } -> tensor<1x40x128xf32>
    %826 = tosa.reshape %825 {new_shape = array<i64: 1, 1, 40, 128>} : (tensor<1x40x128xf32>) -> tensor<1x1x40x128xf32>
    %827 = tosa.mul %806, %823 {shift = 0 : i8} : (tensor<1x32x40x128xf32>, tensor<1x1x40x128xf32>) -> tensor<1x32x40x128xf32>
    %extracted_slice_165 = tensor.extract_slice %806[0, 0, 0, 0] [1, 32, 40, 64] [1, 1, 1, 1] : tensor<1x32x40x128xf32> to tensor<1x32x40x64xf32>
    %extracted_slice_166 = tensor.extract_slice %806[0, 0, 0, 64] [1, 32, 40, 64] [1, 1, 1, 1] : tensor<1x32x40x128xf32> to tensor<1x32x40x64xf32>
    %828 = tensor.empty() : tensor<1x32x40x64xf32>
    %829 = linalg.negf ins(%extracted_slice_166 : tensor<1x32x40x64xf32>) outs(%828 : tensor<1x32x40x64xf32>) -> tensor<1x32x40x64xf32>
    %830 = tensor.empty() : tensor<1x32x40x128xf32>
    %inserted_slice_167 = tensor.insert_slice %829 into %830[0, 0, 0, 0] [1, 32, 40, 64] [1, 1, 1, 1] : tensor<1x32x40x64xf32> into tensor<1x32x40x128xf32>
    %inserted_slice_168 = tensor.insert_slice %extracted_slice_165 into %inserted_slice_167[0, 0, 0, 64] [1, 32, 40, 64] [1, 1, 1, 1] : tensor<1x32x40x64xf32> into tensor<1x32x40x128xf32>
    %831 = tosa.mul %inserted_slice_168, %826 {shift = 0 : i8} : (tensor<1x32x40x128xf32>, tensor<1x1x40x128xf32>) -> tensor<1x32x40x128xf32>
    %832 = tosa.add %827, %831 : (tensor<1x32x40x128xf32>, tensor<1x32x40x128xf32>) -> tensor<1x32x40x128xf32>
    %833 = tosa.mul %809, %823 {shift = 0 : i8} : (tensor<1x32x40x128xf32>, tensor<1x1x40x128xf32>) -> tensor<1x32x40x128xf32>
    %extracted_slice_169 = tensor.extract_slice %809[0, 0, 0, 0] [1, 32, 40, 64] [1, 1, 1, 1] : tensor<1x32x40x128xf32> to tensor<1x32x40x64xf32>
    %extracted_slice_170 = tensor.extract_slice %809[0, 0, 0, 64] [1, 32, 40, 64] [1, 1, 1, 1] : tensor<1x32x40x128xf32> to tensor<1x32x40x64xf32>
    %834 = tensor.empty() : tensor<1x32x40x64xf32>
    %835 = linalg.negf ins(%extracted_slice_170 : tensor<1x32x40x64xf32>) outs(%834 : tensor<1x32x40x64xf32>) -> tensor<1x32x40x64xf32>
    %836 = tensor.empty() : tensor<1x32x40x128xf32>
    %inserted_slice_171 = tensor.insert_slice %835 into %836[0, 0, 0, 0] [1, 32, 40, 64] [1, 1, 1, 1] : tensor<1x32x40x64xf32> into tensor<1x32x40x128xf32>
    %inserted_slice_172 = tensor.insert_slice %extracted_slice_169 into %inserted_slice_171[0, 0, 0, 64] [1, 32, 40, 64] [1, 1, 1, 1] : tensor<1x32x40x64xf32> into tensor<1x32x40x128xf32>
    %837 = tosa.mul %inserted_slice_172, %826 {shift = 0 : i8} : (tensor<1x32x40x128xf32>, tensor<1x1x40x128xf32>) -> tensor<1x32x40x128xf32>
    %838 = tosa.add %833, %837 : (tensor<1x32x40x128xf32>, tensor<1x32x40x128xf32>) -> tensor<1x32x40x128xf32>
    %839 = "tosa.const"() <{value = dense<[0, 1, 3, 2]> : tensor<4xi32>}> : () -> tensor<4xi32>
    %840 = tosa.transpose %838, %839 : (tensor<1x32x40x128xf32>, tensor<4xi32>) -> tensor<1x32x128x40xf32>
    %841 = "tosa.const"() <{value = dense<0.000000e+00> : tensor<1x32x40x128xf32>}> : () -> tensor<1x32x40x128xf32>
    %842 = tosa.add %832, %841 : (tensor<1x32x40x128xf32>, tensor<1x32x40x128xf32>) -> tensor<1x32x40x128xf32>
    %843 = tosa.reshape %842 {new_shape = array<i64: 32, 40, 128>} : (tensor<1x32x40x128xf32>) -> tensor<32x40x128xf32>
    %844 = "tosa.const"() <{value = dense<0.000000e+00> : tensor<1x32x128x40xf32>}> : () -> tensor<1x32x128x40xf32>
    %845 = tosa.add %840, %844 : (tensor<1x32x128x40xf32>, tensor<1x32x128x40xf32>) -> tensor<1x32x128x40xf32>
    %846 = tosa.reshape %845 {new_shape = array<i64: 32, 128, 40>} : (tensor<1x32x128x40xf32>) -> tensor<32x128x40xf32>
    %847 = tosa.matmul %843, %846 : (tensor<32x40x128xf32>, tensor<32x128x40xf32>) -> tensor<32x40x40xf32>
    %848 = tosa.reshape %847 {new_shape = array<i64: 1, 32, 40, 40>} : (tensor<32x40x40xf32>) -> tensor<1x32x40x40xf32>
    %849 = "tosa.const"() <{value = dense<11.3137083> : tensor<1x32x40x40xf32>}> : () -> tensor<1x32x40x40xf32>
    %850 = tosa.reciprocal %849 : (tensor<1x32x40x40xf32>) -> tensor<1x32x40x40xf32>
    %851 = tosa.mul %848, %850 {shift = 0 : i8} : (tensor<1x32x40x40xf32>, tensor<1x32x40x40xf32>) -> tensor<1x32x40x40xf32>
    %852 = tosa.add %851, %29 : (tensor<1x32x40x40xf32>, tensor<1x1x40x40xf32>) -> tensor<1x32x40x40xf32>
    %853 = tosa.reduce_max %852 {axis = 3 : i32} : (tensor<1x32x40x40xf32>) -> tensor<1x32x40x1xf32>
    %854 = tosa.sub %852, %853 : (tensor<1x32x40x40xf32>, tensor<1x32x40x1xf32>) -> tensor<1x32x40x40xf32>
    %855 = tosa.exp %854 : (tensor<1x32x40x40xf32>) -> tensor<1x32x40x40xf32>
    %856 = tosa.reduce_sum %855 {axis = 3 : i32} : (tensor<1x32x40x40xf32>) -> tensor<1x32x40x1xf32>
    %857 = tosa.reciprocal %856 : (tensor<1x32x40x1xf32>) -> tensor<1x32x40x1xf32>
    %858 = tosa.mul %855, %857 {shift = 0 : i8} : (tensor<1x32x40x40xf32>, tensor<1x32x40x1xf32>) -> tensor<1x32x40x40xf32>
    %859 = "tosa.const"() <{value = dense<0.000000e+00> : tensor<1x32x40x40xf32>}> : () -> tensor<1x32x40x40xf32>
    %860 = tosa.add %858, %859 : (tensor<1x32x40x40xf32>, tensor<1x32x40x40xf32>) -> tensor<1x32x40x40xf32>
    %861 = tosa.reshape %860 {new_shape = array<i64: 32, 40, 40>} : (tensor<1x32x40x40xf32>) -> tensor<32x40x40xf32>
    %862 = "tosa.const"() <{value = dense<0.000000e+00> : tensor<1x32x40x128xf32>}> : () -> tensor<1x32x40x128xf32>
    %863 = tosa.add %812, %862 : (tensor<1x32x40x128xf32>, tensor<1x32x40x128xf32>) -> tensor<1x32x40x128xf32>
    %864 = tosa.reshape %863 {new_shape = array<i64: 32, 40, 128>} : (tensor<1x32x40x128xf32>) -> tensor<32x40x128xf32>
    %865 = tosa.matmul %861, %864 : (tensor<32x40x40xf32>, tensor<32x40x128xf32>) -> tensor<32x40x128xf32>
    %866 = tosa.reshape %865 {new_shape = array<i64: 1, 32, 40, 128>} : (tensor<32x40x128xf32>) -> tensor<1x32x40x128xf32>
    %867 = "tosa.const"() <{value = dense<[0, 2, 1, 3]> : tensor<4xi32>}> : () -> tensor<4xi32>
    %868 = tosa.transpose %866, %867 : (tensor<1x32x40x128xf32>, tensor<4xi32>) -> tensor<1x40x32x128xf32>
    %869 = tosa.identity %868 : (tensor<1x40x32x128xf32>) -> tensor<1x40x32x128xf32>
    %870 = tosa.reshape %869 {new_shape = array<i64: 1, 40, 4096>} : (tensor<1x40x32x128xf32>) -> tensor<1x40x4096xf32>
    %871 = "tosa.const"() <{value = dense<[1, 0]> : tensor<2xi32>}> : () -> tensor<2xi32>
    %872 = tosa.transpose %arg74, %871 : (tensor<4096x4096xf32>, tensor<2xi32>) -> tensor<4096x4096xf32>
    %873 = tosa.reshape %870 {new_shape = array<i64: 40, 4096>} : (tensor<1x40x4096xf32>) -> tensor<40x4096xf32>
    %cst_173 = arith.constant dense<0.000000e+00> : tensor<40x4096xf32>
    %874 = linalg.matmul {cast = #linalg.type_fn<cast_signed>} ins(%873, %872 : tensor<40x4096xf32>, tensor<4096x4096xf32>) outs(%cst_173 : tensor<40x4096xf32>) -> tensor<40x4096xf32>
    %875 = tosa.reshape %874 {new_shape = array<i64: 1, 40, 4096>} : (tensor<40x4096xf32>) -> tensor<1x40x4096xf32>
    %876 = tosa.add %779, %875 : (tensor<1x40x4096xf32>, tensor<1x40x4096xf32>) -> tensor<1x40x4096xf32>
    %877 = tensor.empty() : tensor<1x40x4096xf32>
    %c2_i32_174 = arith.constant 2 : i32
    %878 = linalg.generic {indexing_maps = [#map5, #map5], iterator_types = ["parallel", "parallel", "parallel"]} ins(%876 : tensor<1x40x4096xf32>) outs(%877 : tensor<1x40x4096xf32>) {
    ^bb0(%in: f32, %out: f32):
      %4044 = math.fpowi %in, %c2_i32_174 : f32, i32
      linalg.yield %4044 : f32
    } -> tensor<1x40x4096xf32>
    %cst_175 = arith.constant dense<0.000000e+00> : tensor<1x40x1xf32>
    %879 = linalg.generic {indexing_maps = [#map6, #map7], iterator_types = ["parallel", "parallel", "reduction", "parallel"]} ins(%878 : tensor<1x40x4096xf32>) outs(%cst_175 : tensor<1x40x1xf32>) {
    ^bb0(%in: f32, %out: f32):
      %cst_807 = arith.constant 4.096000e+03 : f32
      %4044 = arith.divf %in, %cst_807 : f32
      %4045 = arith.addf %4044, %out : f32
      linalg.yield %4045 : f32
    } -> tensor<1x40x1xf32>
    %880 = "tosa.const"() <{value = dense<9.99999997E-7> : tensor<1x40x1xf32>}> : () -> tensor<1x40x1xf32>
    %881 = tosa.add %879, %880 : (tensor<1x40x1xf32>, tensor<1x40x1xf32>) -> tensor<1x40x1xf32>
    %882 = tosa.rsqrt %881 : (tensor<1x40x1xf32>) -> tensor<1x40x1xf32>
    %883 = tosa.mul %876, %882 {shift = 0 : i8} : (tensor<1x40x4096xf32>, tensor<1x40x1xf32>) -> tensor<1x40x4096xf32>
    %884 = tosa.reshape %arg75 {new_shape = array<i64: 1, 1, 4096>} : (tensor<4096xf32>) -> tensor<1x1x4096xf32>
    %885 = tosa.mul %884, %883 {shift = 0 : i8} : (tensor<1x1x4096xf32>, tensor<1x40x4096xf32>) -> tensor<1x40x4096xf32>
    %886 = "tosa.const"() <{value = dense<[1, 0]> : tensor<2xi32>}> : () -> tensor<2xi32>
    %887 = tosa.transpose %arg76, %886 : (tensor<11008x4096xf32>, tensor<2xi32>) -> tensor<4096x11008xf32>
    %888 = tosa.reshape %885 {new_shape = array<i64: 40, 4096>} : (tensor<1x40x4096xf32>) -> tensor<40x4096xf32>
    %cst_176 = arith.constant dense<0.000000e+00> : tensor<40x11008xf32>
    %889 = linalg.matmul {cast = #linalg.type_fn<cast_signed>} ins(%888, %887 : tensor<40x4096xf32>, tensor<4096x11008xf32>) outs(%cst_176 : tensor<40x11008xf32>) -> tensor<40x11008xf32>
    %890 = tosa.reshape %889 {new_shape = array<i64: 1, 40, 11008>} : (tensor<40x11008xf32>) -> tensor<1x40x11008xf32>
    %891 = tosa.sigmoid %890 : (tensor<1x40x11008xf32>) -> tensor<1x40x11008xf32>
    %892 = tosa.mul %890, %891 {shift = 0 : i8} : (tensor<1x40x11008xf32>, tensor<1x40x11008xf32>) -> tensor<1x40x11008xf32>
    %893 = "tosa.const"() <{value = dense<[1, 0]> : tensor<2xi32>}> : () -> tensor<2xi32>
    %894 = tosa.transpose %arg77, %893 : (tensor<11008x4096xf32>, tensor<2xi32>) -> tensor<4096x11008xf32>
    %895 = tosa.reshape %885 {new_shape = array<i64: 40, 4096>} : (tensor<1x40x4096xf32>) -> tensor<40x4096xf32>
    %cst_177 = arith.constant dense<0.000000e+00> : tensor<40x11008xf32>
    %896 = linalg.matmul {cast = #linalg.type_fn<cast_signed>} ins(%895, %894 : tensor<40x4096xf32>, tensor<4096x11008xf32>) outs(%cst_177 : tensor<40x11008xf32>) -> tensor<40x11008xf32>
    %897 = tosa.reshape %896 {new_shape = array<i64: 1, 40, 11008>} : (tensor<40x11008xf32>) -> tensor<1x40x11008xf32>
    %898 = tosa.mul %892, %897 {shift = 0 : i8} : (tensor<1x40x11008xf32>, tensor<1x40x11008xf32>) -> tensor<1x40x11008xf32>
    %899 = "tosa.const"() <{value = dense<[1, 0]> : tensor<2xi32>}> : () -> tensor<2xi32>
    %900 = tosa.transpose %arg78, %899 : (tensor<4096x11008xf32>, tensor<2xi32>) -> tensor<11008x4096xf32>
    %901 = tosa.reshape %898 {new_shape = array<i64: 40, 11008>} : (tensor<1x40x11008xf32>) -> tensor<40x11008xf32>
    %cst_178 = arith.constant dense<0.000000e+00> : tensor<40x4096xf32>
    %902 = linalg.matmul {cast = #linalg.type_fn<cast_signed>} ins(%901, %900 : tensor<40x11008xf32>, tensor<11008x4096xf32>) outs(%cst_178 : tensor<40x4096xf32>) -> tensor<40x4096xf32>
    %903 = tosa.reshape %902 {new_shape = array<i64: 1, 40, 4096>} : (tensor<40x4096xf32>) -> tensor<1x40x4096xf32>
    %904 = tosa.add %876, %903 : (tensor<1x40x4096xf32>, tensor<1x40x4096xf32>) -> tensor<1x40x4096xf32>
    %905 = tensor.empty() : tensor<1x40x4096xf32>
    %c2_i32_179 = arith.constant 2 : i32
    %906 = linalg.generic {indexing_maps = [#map5, #map5], iterator_types = ["parallel", "parallel", "parallel"]} ins(%904 : tensor<1x40x4096xf32>) outs(%905 : tensor<1x40x4096xf32>) {
    ^bb0(%in: f32, %out: f32):
      %4044 = math.fpowi %in, %c2_i32_179 : f32, i32
      linalg.yield %4044 : f32
    } -> tensor<1x40x4096xf32>
    %cst_180 = arith.constant dense<0.000000e+00> : tensor<1x40x1xf32>
    %907 = linalg.generic {indexing_maps = [#map6, #map7], iterator_types = ["parallel", "parallel", "reduction", "parallel"]} ins(%906 : tensor<1x40x4096xf32>) outs(%cst_180 : tensor<1x40x1xf32>) {
    ^bb0(%in: f32, %out: f32):
      %cst_807 = arith.constant 4.096000e+03 : f32
      %4044 = arith.divf %in, %cst_807 : f32
      %4045 = arith.addf %4044, %out : f32
      linalg.yield %4045 : f32
    } -> tensor<1x40x1xf32>
    %908 = "tosa.const"() <{value = dense<9.99999997E-7> : tensor<1x40x1xf32>}> : () -> tensor<1x40x1xf32>
    %909 = tosa.add %907, %908 : (tensor<1x40x1xf32>, tensor<1x40x1xf32>) -> tensor<1x40x1xf32>
    %910 = tosa.rsqrt %909 : (tensor<1x40x1xf32>) -> tensor<1x40x1xf32>
    %911 = tosa.mul %904, %910 {shift = 0 : i8} : (tensor<1x40x4096xf32>, tensor<1x40x1xf32>) -> tensor<1x40x4096xf32>
    %912 = tosa.reshape %arg79 {new_shape = array<i64: 1, 1, 4096>} : (tensor<4096xf32>) -> tensor<1x1x4096xf32>
    %913 = tosa.mul %912, %911 {shift = 0 : i8} : (tensor<1x1x4096xf32>, tensor<1x40x4096xf32>) -> tensor<1x40x4096xf32>
    %914 = "tosa.const"() <{value = dense<[1, 0]> : tensor<2xi32>}> : () -> tensor<2xi32>
    %915 = tosa.transpose %arg80, %914 : (tensor<4096x4096xf32>, tensor<2xi32>) -> tensor<4096x4096xf32>
    %916 = tosa.reshape %913 {new_shape = array<i64: 40, 4096>} : (tensor<1x40x4096xf32>) -> tensor<40x4096xf32>
    %cst_181 = arith.constant dense<0.000000e+00> : tensor<40x4096xf32>
…
    %extracted_slice_745 = tensor.extract_slice %3684[0, 0, 0, 64] [1, 32, 40, 64] [1, 1, 1, 1] : tensor<1x32x40x128xf32> to tensor<1x32x40x64xf32>
    %3709 = tensor.empty() : tensor<1x32x40x64xf32>
    %3710 = linalg.negf ins(%extracted_slice_745 : tensor<1x32x40x64xf32>) outs(%3709 : tensor<1x32x40x64xf32>) -> tensor<1x32x40x64xf32>
    %3711 = tensor.empty() : tensor<1x32x40x128xf32>
    %inserted_slice_746 = tensor.insert_slice %3710 into %3711[0, 0, 0, 0] [1, 32, 40, 64] [1, 1, 1, 1] : tensor<1x32x40x64xf32> into tensor<1x32x40x128xf32>
    %inserted_slice_747 = tensor.insert_slice %extracted_slice_744 into %inserted_slice_746[0, 0, 0, 64] [1, 32, 40, 64] [1, 1, 1, 1] : tensor<1x32x40x64xf32> into tensor<1x32x40x128xf32>
    %3712 = tosa.mul %inserted_slice_747, %3701 {shift = 0 : i8} : (tensor<1x32x40x128xf32>, tensor<1x1x40x128xf32>) -> tensor<1x32x40x128xf32>
    %3713 = tosa.add %3708, %3712 : (tensor<1x32x40x128xf32>, tensor<1x32x40x128xf32>) -> tensor<1x32x40x128xf32>
    %3714 = "tosa.const"() <{value = dense<[0, 1, 3, 2]> : tensor<4xi32>}> : () -> tensor<4xi32>
    %3715 = tosa.transpose %3713, %3714 : (tensor<1x32x40x128xf32>, tensor<4xi32>) -> tensor<1x32x128x40xf32>
    %3716 = "tosa.const"() <{value = dense<0.000000e+00> : tensor<1x32x40x128xf32>}> : () -> tensor<1x32x40x128xf32>
    %3717 = tosa.add %3707, %3716 : (tensor<1x32x40x128xf32>, tensor<1x32x40x128xf32>) -> tensor<1x32x40x128xf32>
    %3718 = tosa.reshape %3717 {new_shape = array<i64: 32, 40, 128>} : (tensor<1x32x40x128xf32>) -> tensor<32x40x128xf32>
    %3719 = "tosa.const"() <{value = dense<0.000000e+00> : tensor<1x32x128x40xf32>}> : () -> tensor<1x32x128x40xf32>
    %3720 = tosa.add %3715, %3719 : (tensor<1x32x128x40xf32>, tensor<1x32x128x40xf32>) -> tensor<1x32x128x40xf32>
    %3721 = tosa.reshape %3720 {new_shape = array<i64: 32, 128, 40>} : (tensor<1x32x128x40xf32>) -> tensor<32x128x40xf32>
    %3722 = tosa.matmul %3718, %3721 : (tensor<32x40x128xf32>, tensor<32x128x40xf32>) -> tensor<32x40x40xf32>
    %3723 = tosa.reshape %3722 {new_shape = array<i64: 1, 32, 40, 40>} : (tensor<32x40x40xf32>) -> tensor<1x32x40x40xf32>
    %3724 = "tosa.const"() <{value = dense<11.3137083> : tensor<1x32x40x40xf32>}> : () -> tensor<1x32x40x40xf32>
    %3725 = tosa.reciprocal %3724 : (tensor<1x32x40x40xf32>) -> tensor<1x32x40x40xf32>
    %3726 = tosa.mul %3723, %3725 {shift = 0 : i8} : (tensor<1x32x40x40xf32>, tensor<1x32x40x40xf32>) -> tensor<1x32x40x40xf32>
    %3727 = tosa.add %3726, %29 : (tensor<1x32x40x40xf32>, tensor<1x1x40x40xf32>) -> tensor<1x32x40x40xf32>
    %3728 = tosa.reduce_max %3727 {axis = 3 : i32} : (tensor<1x32x40x40xf32>) -> tensor<1x32x40x1xf32>
    %3729 = tosa.sub %3727, %3728 : (tensor<1x32x40x40xf32>, tensor<1x32x40x1xf32>) -> tensor<1x32x40x40xf32>
    %3730 = tosa.exp %3729 : (tensor<1x32x40x40xf32>) -> tensor<1x32x40x40xf32>
    %3731 = tosa.reduce_sum %3730 {axis = 3 : i32} : (tensor<1x32x40x40xf32>) -> tensor<1x32x40x1xf32>
    %3732 = tosa.reciprocal %3731 : (tensor<1x32x40x1xf32>) -> tensor<1x32x40x1xf32>
    %3733 = tosa.mul %3730, %3732 {shift = 0 : i8} : (tensor<1x32x40x40xf32>, tensor<1x32x40x1xf32>) -> tensor<1x32x40x40xf32>
    %3734 = "tosa.const"() <{value = dense<0.000000e+00> : tensor<1x32x40x40xf32>}> : () -> tensor<1x32x40x40xf32>
    %3735 = tosa.add %3733, %3734 : (tensor<1x32x40x40xf32>, tensor<1x32x40x40xf32>) -> tensor<1x32x40x40xf32>
    %3736 = tosa.reshape %3735 {new_shape = array<i64: 32, 40, 40>} : (tensor<1x32x40x40xf32>) -> tensor<32x40x40xf32>
    %3737 = "tosa.const"() <{value = dense<0.000000e+00> : tensor<1x32x40x128xf32>}> : () -> tensor<1x32x40x128xf32>
    %3738 = tosa.add %3687, %3737 : (tensor<1x32x40x128xf32>, tensor<1x32x40x128xf32>) -> tensor<1x32x40x128xf32>
    %3739 = tosa.reshape %3738 {new_shape = array<i64: 32, 40, 128>} : (tensor<1x32x40x128xf32>) -> tensor<32x40x128xf32>
    %3740 = tosa.matmul %3736, %3739 : (tensor<32x40x40xf32>, tensor<32x40x128xf32>) -> tensor<32x40x128xf32>
    %3741 = tosa.reshape %3740 {new_shape = array<i64: 1, 32, 40, 128>} : (tensor<32x40x128xf32>) -> tensor<1x32x40x128xf32>
    %3742 = "tosa.const"() <{value = dense<[0, 2, 1, 3]> : tensor<4xi32>}> : () -> tensor<4xi32>
    %3743 = tosa.transpose %3741, %3742 : (tensor<1x32x40x128xf32>, tensor<4xi32>) -> tensor<1x40x32x128xf32>
    %3744 = tosa.identity %3743 : (tensor<1x40x32x128xf32>) -> tensor<1x40x32x128xf32>
    %3745 = tosa.reshape %3744 {new_shape = array<i64: 1, 40, 4096>} : (tensor<1x40x32x128xf32>) -> tensor<1x40x4096xf32>
    %3746 = "tosa.const"() <{value = dense<[1, 0]> : tensor<2xi32>}> : () -> tensor<2xi32>
    %3747 = tosa.transpose %arg327, %3746 : (tensor<4096x4096xf32>, tensor<2xi32>) -> tensor<4096x4096xf32>
    %3748 = tosa.reshape %3745 {new_shape = array<i64: 40, 4096>} : (tensor<1x40x4096xf32>) -> tensor<40x4096xf32>
    %cst_748 = arith.constant dense<0.000000e+00> : tensor<40x4096xf32>
    %3749 = linalg.matmul {cast = #linalg.type_fn<cast_signed>} ins(%3748, %3747 : tensor<40x4096xf32>, tensor<4096x4096xf32>) outs(%cst_748 : tensor<40x4096xf32>) -> tensor<40x4096xf32>
    %3750 = tosa.reshape %3749 {new_shape = array<i64: 1, 40, 4096>} : (tensor<40x4096xf32>) -> tensor<1x40x4096xf32>
    %3751 = tosa.add %3654, %3750 : (tensor<1x40x4096xf32>, tensor<1x40x4096xf32>) -> tensor<1x40x4096xf32>
    %3752 = tensor.empty() : tensor<1x40x4096xf32>
    %c2_i32_749 = arith.constant 2 : i32
    %3753 = linalg.generic {indexing_maps = [#map5, #map5], iterator_types = ["parallel", "parallel", "parallel"]} ins(%3751 : tensor<1x40x4096xf32>) outs(%3752 : tensor<1x40x4096xf32>) {
    ^bb0(%in: f32, %out: f32):
      %4044 = math.fpowi %in, %c2_i32_749 : f32, i32
      linalg.yield %4044 : f32
    } -> tensor<1x40x4096xf32>
    %cst_750 = arith.constant dense<0.000000e+00> : tensor<1x40x1xf32>
    %3754 = linalg.generic {indexing_maps = [#map6, #map7], iterator_types = ["parallel", "parallel", "reduction", "parallel"]} ins(%3753 : tensor<1x40x4096xf32>) outs(%cst_750 : tensor<1x40x1xf32>) {
    ^bb0(%in: f32, %out: f32):
      %cst_807 = arith.constant 4.096000e+03 : f32
      %4044 = arith.divf %in, %cst_807 : f32
      %4045 = arith.addf %4044, %out : f32
      linalg.yield %4045 : f32
    } -> tensor<1x40x1xf32>
    %3755 = "tosa.const"() <{value = dense<9.99999997E-7> : tensor<1x40x1xf32>}> : () -> tensor<1x40x1xf32>
    %3756 = tosa.add %3754, %3755 : (tensor<1x40x1xf32>, tensor<1x40x1xf32>) -> tensor<1x40x1xf32>
    %3757 = tosa.rsqrt %3756 : (tensor<1x40x1xf32>) -> tensor<1x40x1xf32>
    %3758 = tosa.mul %3751, %3757 {shift = 0 : i8} : (tensor<1x40x4096xf32>, tensor<1x40x1xf32>) -> tensor<1x40x4096xf32>
    %3759 = tosa.reshape %arg328 {new_shape = array<i64: 1, 1, 4096>} : (tensor<4096xf32>) -> tensor<1x1x4096xf32>
    %3760 = tosa.mul %3759, %3758 {shift = 0 : i8} : (tensor<1x1x4096xf32>, tensor<1x40x4096xf32>) -> tensor<1x40x4096xf32>
    %3761 = "tosa.const"() <{value = dense<[1, 0]> : tensor<2xi32>}> : () -> tensor<2xi32>
    %3762 = tosa.transpose %arg329, %3761 : (tensor<11008x4096xf32>, tensor<2xi32>) -> tensor<4096x11008xf32>
    %3763 = tosa.reshape %3760 {new_shape = array<i64: 40, 4096>} : (tensor<1x40x4096xf32>) -> tensor<40x4096xf32>
    %cst_751 = arith.constant dense<0.000000e+00> : tensor<40x11008xf32>
    %3764 = linalg.matmul {cast = #linalg.type_fn<cast_signed>} ins(%3763, %3762 : tensor<40x4096xf32>, tensor<4096x11008xf32>) outs(%cst_751 : tensor<40x11008xf32>) -> tensor<40x11008xf32>
    %3765 = tosa.reshape %3764 {new_shape = array<i64: 1, 40, 11008>} : (tensor<40x11008xf32>) -> tensor<1x40x11008xf32>
    %3766 = tosa.sigmoid %3765 : (tensor<1x40x11008xf32>) -> tensor<1x40x11008xf32>
    %3767 = tosa.mul %3765, %3766 {shift = 0 : i8} : (tensor<1x40x11008xf32>, tensor<1x40x11008xf32>) -> tensor<1x40x11008xf32>
    %3768 = "tosa.const"() <{value = dense<[1, 0]> : tensor<2xi32>}> : () -> tensor<2xi32>
    %3769 = tosa.transpose %arg330, %3768 : (tensor<11008x4096xf32>, tensor<2xi32>) -> tensor<4096x11008xf32>
    %3770 = tosa.reshape %3760 {new_shape = array<i64: 40, 4096>} : (tensor<1x40x4096xf32>) -> tensor<40x4096xf32>
    %cst_752 = arith.constant dense<0.000000e+00> : tensor<40x11008xf32>
    %3771 = linalg.matmul {cast = #linalg.type_fn<cast_signed>} ins(%3770, %3769 : tensor<40x4096xf32>, tensor<4096x11008xf32>) outs(%cst_752 : tensor<40x11008xf32>) -> tensor<40x11008xf32>
    %3772 = tosa.reshape %3771 {new_shape = array<i64: 1, 40, 11008>} : (tensor<40x11008xf32>) -> tensor<1x40x11008xf32>
    %3773 = tosa.mul %3767, %3772 {shift = 0 : i8} : (tensor<1x40x11008xf32>, tensor<1x40x11008xf32>) -> tensor<1x40x11008xf32>
    %3774 = "tosa.const"() <{value = dense<[1, 0]> : tensor<2xi32>}> : () -> tensor<2xi32>
    %3775 = tosa.transpose %arg331, %3774 : (tensor<4096x11008xf32>, tensor<2xi32>) -> tensor<11008x4096xf32>
    %3776 = tosa.reshape %3773 {new_shape = array<i64: 40, 11008>} : (tensor<1x40x11008xf32>) -> tensor<40x11008xf32>
    %cst_753 = arith.constant dense<0.000000e+00> : tensor<40x4096xf32>
    %3777 = linalg.matmul {cast = #linalg.type_fn<cast_signed>} ins(%3776, %3775 : tensor<40x11008xf32>, tensor<11008x4096xf32>) outs(%cst_753 : tensor<40x4096xf32>) -> tensor<40x4096xf32>
    %3778 = tosa.reshape %3777 {new_shape = array<i64: 1, 40, 4096>} : (tensor<40x4096xf32>) -> tensor<1x40x4096xf32>
    %3779 = tosa.add %3751, %3778 : (tensor<1x40x4096xf32>, tensor<1x40x4096xf32>) -> tensor<1x40x4096xf32>
    %3780 = tensor.empty() : tensor<1x40x4096xf32>
    %c2_i32_754 = arith.constant 2 : i32
    %3781 = linalg.generic {indexing_maps = [#map5, #map5], iterator_types = ["parallel", "parallel", "parallel"]} ins(%3779 : tensor<1x40x4096xf32>) outs(%3780 : tensor<1x40x4096xf32>) {
    ^bb0(%in: f32, %out: f32):
      %4044 = math.fpowi %in, %c2_i32_754 : f32, i32
      linalg.yield %4044 : f32
    } -> tensor<1x40x4096xf32>
    %cst_755 = arith.constant dense<0.000000e+00> : tensor<1x40x1xf32>
    %3782 = linalg.generic {indexing_maps = [#map6, #map7], iterator_types = ["parallel", "parallel", "reduction", "parallel"]} ins(%3781 : tensor<1x40x4096xf32>) outs(%cst_755 : tensor<1x40x1xf32>) {
    ^bb0(%in: f32, %out: f32):
      %cst_807 = arith.constant 4.096000e+03 : f32
      %4044 = arith.divf %in, %cst_807 : f32
      %4045 = arith.addf %4044, %out : f32
      linalg.yield %4045 : f32
    } -> tensor<1x40x1xf32>
    %3783 = "tosa.const"() <{value = dense<9.99999997E-7> : tensor<1x40x1xf32>}> : () -> tensor<1x40x1xf32>
    %3784 = tosa.add %3782, %3783 : (tensor<1x40x1xf32>, tensor<1x40x1xf32>) -> tensor<1x40x1xf32>
    %3785 = tosa.rsqrt %3784 : (tensor<1x40x1xf32>) -> tensor<1x40x1xf32>
    %3786 = tosa.mul %3779, %3785 {shift = 0 : i8} : (tensor<1x40x4096xf32>, tensor<1x40x1xf32>) -> tensor<1x40x4096xf32>
    %3787 = tosa.reshape %arg332 {new_shape = array<i64: 1, 1, 4096>} : (tensor<4096xf32>) -> tensor<1x1x4096xf32>
    %3788 = tosa.mul %3787, %3786 {shift = 0 : i8} : (tensor<1x1x4096xf32>, tensor<1x40x4096xf32>) -> tensor<1x40x4096xf32>
    %3789 = "tosa.const"() <{value = dense<[1, 0]> : tensor<2xi32>}> : () -> tensor<2xi32>
    %3790 = tosa.transpose %arg333, %3789 : (tensor<4096x4096xf32>, tensor<2xi32>) -> tensor<4096x4096xf32>
    %3791 = tosa.reshape %3788 {new_shape = array<i64: 40, 4096>} : (tensor<1x40x4096xf32>) -> tensor<40x4096xf32>
    %cst_756 = arith.constant dense<0.000000e+00> : tensor<40x4096xf32>
    %3792 = linalg.matmul {cast = #linalg.type_fn<cast_signed>} ins(%3791, %3790 : tensor<40x4096xf32>, tensor<4096x4096xf32>) outs(%cst_756 : tensor<40x4096xf32>) -> tensor<40x4096xf32>
    %3793 = tosa.reshape %3792 {new_shape = array<i64: 1, 40, 4096>} : (tensor<40x4096xf32>) -> tensor<1x40x4096xf32>
    %3794 = "tosa.const"() <{value = dense<[1, 0]> : tensor<2xi32>}> : () -> tensor<2xi32>
    %3795 = tosa.transpose %arg334, %3794 : (tensor<4096x4096xf32>, tensor<2xi32>) -> tensor<4096x4096xf32>
    %3796 = tosa.reshape %3788 {new_shape = array<i64: 40, 4096>} : (tensor<1x40x4096xf32>) -> tensor<40x4096xf32>
    %cst_757 = arith.constant dense<0.000000e+00> : tensor<40x4096xf32>
    %3797 = linalg.matmul {cast = #linalg.type_fn<cast_signed>} ins(%3796, %3795 : tensor<40x4096xf32>, tensor<4096x4096xf32>) outs(%cst_757 : tensor<40x4096xf32>) -> tensor<40x4096xf32>
    %3798 = tosa.reshape %3797 {new_shape = array<i64: 1, 40, 4096>} : (tensor<40x4096xf32>) -> tensor<1x40x4096xf32>
    %3799 = "tosa.const"() <{value = dense<[1, 0]> : tensor<2xi32>}> : () -> tensor<2xi32>
    %3800 = tosa.transpose %arg335, %3799 : (tensor<4096x4096xf32>, tensor<2xi32>) -> tensor<4096x4096xf32>
    %3801 = tosa.reshape %3788 {new_shape = array<i64: 40, 4096>} : (tensor<1x40x4096xf32>) -> tensor<40x4096xf32>
    %cst_758 = arith.constant dense<0.000000e+00> : tensor<40x4096xf32>
    %3802 = linalg.matmul {cast = #linalg.type_fn<cast_signed>} ins(%3801, %3800 : tensor<40x4096xf32>, tensor<4096x4096xf32>) outs(%cst_758 : tensor<40x4096xf32>) -> tensor<40x4096xf32>
    %3803 = tosa.reshape %3802 {new_shape = array<i64: 1, 40, 4096>} : (tensor<40x4096xf32>) -> tensor<1x40x4096xf32>
    %3804 = tosa.reshape %3793 {new_shape = array<i64: 1, 40, 32, 128>} : (tensor<1x40x4096xf32>) -> tensor<1x40x32x128xf32>
    %3805 = "tosa.const"() <{value = dense<[0, 2, 1, 3]> : tensor<4xi32>}> : () -> tensor<4xi32>
    %3806 = tosa.transpose %3804, %3805 : (tensor<1x40x32x128xf32>, tensor<4xi32>) -> tensor<1x32x40x128xf32>
    %3807 = tosa.reshape %3798 {new_shape = array<i64: 1, 40, 32, 128>} : (tensor<1x40x4096xf32>) -> tensor<1x40x32x128xf32>
    %3808 = "tosa.const"() <{value = dense<[0, 2, 1, 3]> : tensor<4xi32>}> : () -> tensor<4xi32>
    %3809 = tosa.transpose %3807, %3808 : (tensor<1x40x32x128xf32>, tensor<4xi32>) -> tensor<1x32x40x128xf32>
    %3810 = tosa.reshape %3803 {new_shape = array<i64: 1, 40, 32, 128>} : (tensor<1x40x4096xf32>) -> tensor<1x40x32x128xf32>
    %3811 = "tosa.const"() <{value = dense<[0, 2, 1, 3]> : tensor<4xi32>}> : () -> tensor<4xi32>
    %3812 = tosa.transpose %3810, %3811 : (tensor<1x40x32x128xf32>, tensor<4xi32>) -> tensor<1x32x40x128xf32>
    %extracted_slice_759 = tensor.extract_slice %arg336[0, 0, 0, 0] [1, 1, 2048, 128] [1, 1, 1, 1] : tensor<1x1x2048x128xf32> to tensor<1x1x2048x128xf32>
    %extracted_slice_760 = tensor.extract_slice %extracted_slice_759[0, 0, 0, 0] [1, 1, 2048, 128] [1, 1, 1, 1] : tensor<1x1x2048x128xf32> to tensor<1x1x2048x128xf32>
    %extracted_slice_761 = tensor.extract_slice %extracted_slice_760[0, 0, 0, 0] [1, 1, 40, 128] [1, 1, 1, 1] : tensor<1x1x2048x128xf32> to tensor<1x1x40x128xf32>
    %extracted_slice_762 = tensor.extract_slice %arg337[0, 0, 0, 0] [1, 1, 2048, 128] [1, 1, 1, 1] : tensor<1x1x2048x128xf32> to tensor<1x1x2048x128xf32>
    %extracted_slice_763 = tensor.extract_slice %extracted_slice_762[0, 0, 0, 0] [1, 1, 2048, 128] [1, 1, 1, 1] : tensor<1x1x2048x128xf32> to tensor<1x1x2048x128xf32>
    %extracted_slice_764 = tensor.extract_slice %extracted_slice_763[0, 0, 0, 0] [1, 1, 40, 128] [1, 1, 1, 1] : tensor<1x1x2048x128xf32> to tensor<1x1x40x128xf32>
    %3813 = tensor.empty() : tensor<1x40x128xf32>
    %3814 = linalg.generic {indexing_maps = [#map8, #map5], iterator_types = ["parallel", "parallel", "parallel"]} ins(%extracted_slice_761 : tensor<1x1x40x128xf32>) outs(%3813 : tensor<1x40x128xf32>) {
    ^bb0(%in: f32, %out: f32):
      linalg.yield %in : f32
    } -> tensor<1x40x128xf32>
    %3815 = tensor.empty() : tensor<40x128xf32>
    %3816 = linalg.generic {indexing_maps = [#map9, #map3], iterator_types = ["parallel", "parallel"]} ins(%3814 : tensor<1x40x128xf32>) outs(%3815 : tensor<40x128xf32>) {
    ^bb0(%in: f32, %out: f32):
      linalg.yield %in : f32
    } -> tensor<40x128xf32>
    %3817 = tensor.empty() : tensor<1x40x128xf32>
    %3818 = linalg.generic {indexing_maps = [#map8, #map5], iterator_types = ["parallel", "parallel", "parallel"]} ins(%extracted_slice_764 : tensor<1x1x40x128xf32>) outs(%3817 : tensor<1x40x128xf32>) {
    ^bb0(%in: f32, %out: f32):
      linalg.yield %in : f32
    } -> tensor<1x40x128xf32>
    %3819 = tensor.empty() : tensor<40x128xf32>
    %3820 = linalg.generic {indexing_maps = [#map9, #map3], iterator_types = ["parallel", "parallel"]} ins(%3818 : tensor<1x40x128xf32>) outs(%3819 : tensor<40x128xf32>) {
    ^bb0(%in: f32, %out: f32):
      linalg.yield %in : f32
    } -> tensor<40x128xf32>
    %3821 = tensor.empty() : tensor<1x40x128xf32>
    %3822 = linalg.generic {indexing_maps = [#map2, #map5], iterator_types = ["parallel", "parallel", "parallel"]} ins(%2 : tensor<1x40xi64>) outs(%3821 : tensor<1x40x128xf32>) {
    ^bb0(%in: i64, %out: f32):
      %4044 = arith.index_cast %in : i64 to index
      %4045 = linalg.index 2 : index
      %extracted = tensor.extract %3816[%4044, %4045] : tensor<40x128xf32>
      linalg.yield %extracted : f32
    } -> tensor<1x40x128xf32>
    %3823 = tosa.reshape %3822 {new_shape = array<i64: 1, 1, 40, 128>} : (tensor<1x40x128xf32>) -> tensor<1x1x40x128xf32>
    %3824 = tensor.empty() : tensor<1x40x128xf32>
    %3825 = linalg.generic {indexing_maps = [#map2, #map5], iterator_types = ["parallel", "parallel", "parallel"]} ins(%2 : tensor<1x40xi64>) outs(%3824 : tensor<1x40x128xf32>) {
    ^bb0(%in: i64, %out: f32):
      %4044 = arith.index_cast %in : i64 to index
      %4045 = linalg.index 2 : index
      %extracted = tensor.extract %3820[%4044, %4045] : tensor<40x128xf32>
      linalg.yield %extracted : f32
    } -> tensor<1x40x128xf32>
    %3826 = tosa.reshape %3825 {new_shape = array<i64: 1, 1, 40, 128>} : (tensor<1x40x128xf32>) -> tensor<1x1x40x128xf32>
    %3827 = tosa.mul %3806, %3823 {shift = 0 : i8} : (tensor<1x32x40x128xf32>, tensor<1x1x40x128xf32>) -> tensor<1x32x40x128xf32>
    %extracted_slice_765 = tensor.extract_slice %3806[0, 0, 0, 0] [1, 32, 40, 64] [1, 1, 1, 1] : tensor<1x32x40x128xf32> to tensor<1x32x40x64xf32>
    %extracted_slice_766 = tensor.extract_slice %3806[0, 0, 0, 64] [1, 32, 40, 64] [1, 1, 1, 1] : tensor<1x32x40x128xf32> to tensor<1x32x40x64xf32>
    %3828 = tensor.empty() : tensor<1x32x40x64xf32>
    %3829 = linalg.negf ins(%extracted_slice_766 : tensor<1x32x40x64xf32>) outs(%3828 : tensor<1x32x40x64xf32>) -> tensor<1x32x40x64xf32>
    %3830 = tensor.empty() : tensor<1x32x40x128xf32>
    %inserted_slice_767 = tensor.insert_slice %3829 into %3830[0, 0, 0, 0] [1, 32, 40, 64] [1, 1, 1, 1] : tensor<1x32x40x64xf32> into tensor<1x32x40x128xf32>
    %inserted_slice_768 = tensor.insert_slice %extracted_slice_765 into %inserted_slice_767[0, 0, 0, 64] [1, 32, 40, 64] [1, 1, 1, 1] : tensor<1x32x40x64xf32> into tensor<1x32x40x128xf32>
    %3831 = tosa.mul %inserted_slice_768, %3826 {shift = 0 : i8} : (tensor<1x32x40x128xf32>, tensor<1x1x40x128xf32>) -> tensor<1x32x40x128xf32>
    %3832 = tosa.add %3827, %3831 : (tensor<1x32x40x128xf32>, tensor<1x32x40x128xf32>) -> tensor<1x32x40x128xf32>
    %3833 = tosa.mul %3809, %3823 {shift = 0 : i8} : (tensor<1x32x40x128xf32>, tensor<1x1x40x128xf32>) -> tensor<1x32x40x128xf32>
    %extracted_slice_769 = tensor.extract_slice %3809[0, 0, 0, 0] [1, 32, 40, 64] [1, 1, 1, 1] : tensor<1x32x40x128xf32> to tensor<1x32x40x64xf32>
    %extracted_slice_770 = tensor.extract_slice %3809[0, 0, 0, 64] [1, 32, 40, 64] [1, 1, 1, 1] : tensor<1x32x40x128xf32> to tensor<1x32x40x64xf32>
    %3834 = tensor.empty() : tensor<1x32x40x64xf32>
    %3835 = linalg.negf ins(%extracted_slice_770 : tensor<1x32x40x64xf32>) outs(%3834 : tensor<1x32x40x64xf32>) -> tensor<1x32x40x64xf32>
    %3836 = tensor.empty() : tensor<1x32x40x128xf32>
    %inserted_slice_771 = tensor.insert_slice %3835 into %3836[0, 0, 0, 0] [1, 32, 40, 64] [1, 1, 1, 1] : tensor<1x32x40x64xf32> into tensor<1x32x40x128xf32>
    %inserted_slice_772 = tensor.insert_slice %extracted_slice_769 into %inserted_slice_771[0, 0, 0, 64] [1, 32, 40, 64] [1, 1, 1, 1] : tensor<1x32x40x64xf32> into tensor<1x32x40x128xf32>
    %3837 = tosa.mul %inserted_slice_772, %3826 {shift = 0 : i8} : (tensor<1x32x40x128xf32>, tensor<1x1x40x128xf32>) -> tensor<1x32x40x128xf32>
    %3838 = tosa.add %3833, %3837 : (tensor<1x32x40x128xf32>, tensor<1x32x40x128xf32>) -> tensor<1x32x40x128xf32>
    %3839 = "tosa.const"() <{value = dense<[0, 1, 3, 2]> : tensor<4xi32>}> : () -> tensor<4xi32>
    %3840 = tosa.transpose %3838, %3839 : (tensor<1x32x40x128xf32>, tensor<4xi32>) -> tensor<1x32x128x40xf32>
    %3841 = "tosa.const"() <{value = dense<0.000000e+00> : tensor<1x32x40x128xf32>}> : () -> tensor<1x32x40x128xf32>
    %3842 = tosa.add %3832, %3841 : (tensor<1x32x40x128xf32>, tensor<1x32x40x128xf32>) -> tensor<1x32x40x128xf32>
    %3843 = tosa.reshape %3842 {new_shape = array<i64: 32, 40, 128>} : (tensor<1x32x40x128xf32>) -> tensor<32x40x128xf32>
    %3844 = "tosa.const"() <{value = dense<0.000000e+00> : tensor<1x32x128x40xf32>}> : () -> tensor<1x32x128x40xf32>
    %3845 = tosa.add %3840, %3844 : (tensor<1x32x128x40xf32>, tensor<1x32x128x40xf32>) -> tensor<1x32x128x40xf32>
    %3846 = tosa.reshape %3845 {new_shape = array<i64: 32, 128, 40>} : (tensor<1x32x128x40xf32>) -> tensor<32x128x40xf32>
    %3847 = tosa.matmul %3843, %3846 : (tensor<32x40x128xf32>, tensor<32x128x40xf32>) -> tensor<32x40x40xf32>
    %3848 = tosa.reshape %3847 {new_shape = array<i64: 1, 32, 40, 40>} : (tensor<32x40x40xf32>) -> tensor<1x32x40x40xf32>
    %3849 = "tosa.const"() <{value = dense<11.3137083> : tensor<1x32x40x40xf32>}> : () -> tensor<1x32x40x40xf32>
    %3850 = tosa.reciprocal %3849 : (tensor<1x32x40x40xf32>) -> tensor<1x32x40x40xf32>
    %3851 = tosa.mul %3848, %3850 {shift = 0 : i8} : (tensor<1x32x40x40xf32>, tensor<1x32x40x40xf32>) -> tensor<1x32x40x40xf32>
    %3852 = tosa.add %3851, %29 : (tensor<1x32x40x40xf32>, tensor<1x1x40x40xf32>) -> tensor<1x32x40x40xf32>
    %3853 = tosa.reduce_max %3852 {axis = 3 : i32} : (tensor<1x32x40x40xf32>) -> tensor<1x32x40x1xf32>
    %3854 = tosa.sub %3852, %3853 : (tensor<1x32x40x40xf32>, tensor<1x32x40x1xf32>) -> tensor<1x32x40x40xf32>
    %3855 = tosa.exp %3854 : (tensor<1x32x40x40xf32>) -> tensor<1x32x40x40xf32>
    %3856 = tosa.reduce_sum %3855 {axis = 3 : i32} : (tensor<1x32x40x40xf32>) -> tensor<1x32x40x1xf32>
    %3857 = tosa.reciprocal %3856 : (tensor<1x32x40x1xf32>) -> tensor<1x32x40x1xf32>
    %3858 = tosa.mul %3855, %3857 {shift = 0 : i8} : (tensor<1x32x40x40xf32>, tensor<1x32x40x1xf32>) -> tensor<1x32x40x40xf32>
    %3859 = "tosa.const"() <{value = dense<0.000000e+00> : tensor<1x32x40x40xf32>}> : () -> tensor<1x32x40x40xf32>
    %3860 = tosa.add %3858, %3859 : (tensor<1x32x40x40xf32>, tensor<1x32x40x40xf32>) -> tensor<1x32x40x40xf32>
    %3861 = tosa.reshape %3860 {new_shape = array<i64: 32, 40, 40>} : (tensor<1x32x40x40xf32>) -> tensor<32x40x40xf32>
    %3862 = "tosa.const"() <{value = dense<0.000000e+00> : tensor<1x32x40x128xf32>}> : () -> tensor<1x32x40x128xf32>
    %3863 = tosa.add %3812, %3862 : (tensor<1x32x40x128xf32>, tensor<1x32x40x128xf32>) -> tensor<1x32x40x128xf32>
    %3864 = tosa.reshape %3863 {new_shape = array<i64: 32, 40, 128>} : (tensor<1x32x40x128xf32>) -> tensor<32x40x128xf32>
    %3865 = tosa.matmul %3861, %3864 : (tensor<32x40x40xf32>, tensor<32x40x128xf32>) -> tensor<32x40x128xf32>
    %3866 = tosa.reshape %3865 {new_shape = array<i64: 1, 32, 40, 128>} : (tensor<32x40x128xf32>) -> tensor<1x32x40x128xf32>
    %3867 = "tosa.const"() <{value = dense<[0, 2, 1, 3]> : tensor<4xi32>}> : () -> tensor<4xi32>
    %3868 = tosa.transpose %3866, %3867 : (tensor<1x32x40x128xf32>, tensor<4xi32>) -> tensor<1x40x32x128xf32>
    %3869 = tosa.identity %3868 : (tensor<1x40x32x128xf32>) -> tensor<1x40x32x128xf32>
    %3870 = tosa.reshape %3869 {new_shape = array<i64: 1, 40, 4096>} : (tensor<1x40x32x128xf32>) -> tensor<1x40x4096xf32>
    %3871 = "tosa.const"() <{value = dense<[1, 0]> : tensor<2xi32>}> : () -> tensor<2xi32>
    %3872 = tosa.transpose %arg338, %3871 : (tensor<4096x4096xf32>, tensor<2xi32>) -> tensor<4096x4096xf32>
    %3873 = tosa.reshape %3870 {new_shape = array<i64: 40, 4096>} : (tensor<1x40x4096xf32>) -> tensor<40x4096xf32>
    %cst_773 = arith.constant dense<0.000000e+00> : tensor<40x4096xf32>
    %3874 = linalg.matmul {cast = #linalg.type_fn<cast_signed>} ins(%3873, %3872 : tensor<40x4096xf32>, tensor<4096x4096xf32>) outs(%cst_773 : tensor<40x4096xf32>) -> tensor<40x4096xf32>
    %3875 = tosa.reshape %3874 {new_shape = array<i64: 1, 40, 4096>} : (tensor<40x4096xf32>) -> tensor<1x40x4096xf32>
    %3876 = tosa.add %3779, %3875 : (tensor<1x40x4096xf32>, tensor<1x40x4096xf32>) -> tensor<1x40x4096xf32>
    %3877 = tensor.empty() : tensor<1x40x4096xf32>
    %c2_i32_774 = arith.constant 2 : i32
    %3878 = linalg.generic {indexing_maps = [#map5, #map5], iterator_types = ["parallel", "parallel", "parallel"]} ins(%3876 : tensor<1x40x4096xf32>) outs(%3877 : tensor<1x40x4096xf32>) {
    ^bb0(%in: f32, %out: f32):
      %4044 = math.fpowi %in, %c2_i32_774 : f32, i32
      linalg.yield %4044 : f32
    } -> tensor<1x40x4096xf32>
    %cst_775 = arith.constant dense<0.000000e+00> : tensor<1x40x1xf32>
    %3879 = linalg.generic {indexing_maps = [#map6, #map7], iterator_types = ["parallel", "parallel", "reduction", "parallel"]} ins(%3878 : tensor<1x40x4096xf32>) outs(%cst_775 : tensor<1x40x1xf32>) {
    ^bb0(%in: f32, %out: f32):
      %cst_807 = arith.constant 4.096000e+03 : f32
      %4044 = arith.divf %in, %cst_807 : f32
      %4045 = arith.addf %4044, %out : f32
      linalg.yield %4045 : f32
    } -> tensor<1x40x1xf32>
    %3880 = "tosa.const"() <{value = dense<9.99999997E-7> : tensor<1x40x1xf32>}> : () -> tensor<1x40x1xf32>
    %3881 = tosa.add %3879, %3880 : (tensor<1x40x1xf32>, tensor<1x40x1xf32>) -> tensor<1x40x1xf32>
    %3882 = tosa.rsqrt %3881 : (tensor<1x40x1xf32>) -> tensor<1x40x1xf32>
    %3883 = tosa.mul %3876, %3882 {shift = 0 : i8} : (tensor<1x40x4096xf32>, tensor<1x40x1xf32>) -> tensor<1x40x4096xf32>
    %3884 = tosa.reshape %arg339 {new_shape = array<i64: 1, 1, 4096>} : (tensor<4096xf32>) -> tensor<1x1x4096xf32>
    %3885 = tosa.mul %3884, %3883 {shift = 0 : i8} : (tensor<1x1x4096xf32>, tensor<1x40x4096xf32>) -> tensor<1x40x4096xf32>
    %3886 = "tosa.const"() <{value = dense<[1, 0]> : tensor<2xi32>}> : () -> tensor<2xi32>
    %3887 = tosa.transpose %arg340, %3886 : (tensor<11008x4096xf32>, tensor<2xi32>) -> tensor<4096x11008xf32>
    %3888 = tosa.reshape %3885 {new_shape = array<i64: 40, 4096>} : (tensor<1x40x4096xf32>) -> tensor<40x4096xf32>
    %cst_776 = arith.constant dense<0.000000e+00> : tensor<40x11008xf32>
    %3889 = linalg.matmul {cast = #linalg.type_fn<cast_signed>} ins(%3888, %3887 : tensor<40x4096xf32>, tensor<4096x11008xf32>) outs(%cst_776 : tensor<40x11008xf32>) -> tensor<40x11008xf32>
    %3890 = tosa.reshape %3889 {new_shape = array<i64: 1, 40, 11008>} : (tensor<40x11008xf32>) -> tensor<1x40x11008xf32>
    %3891 = tosa.sigmoid %3890 : (tensor<1x40x11008xf32>) -> tensor<1x40x11008xf32>
    %3892 = tosa.mul %3890, %3891 {shift = 0 : i8} : (tensor<1x40x11008xf32>, tensor<1x40x11008xf32>) -> tensor<1x40x11008xf32>
    %3893 = "tosa.const"() <{value = dense<[1, 0]> : tensor<2xi32>}> : () -> tensor<2xi32>
    %3894 = tosa.transpose %arg341, %3893 : (tensor<11008x4096xf32>, tensor<2xi32>) -> tensor<4096x11008xf32>
    %3895 = tosa.reshape %3885 {new_shape = array<i64: 40, 4096>} : (tensor<1x40x4096xf32>) -> tensor<40x4096xf32>
    %cst_777 = arith.constant dense<0.000000e+00> : tensor<40x11008xf32>
    %3896 = linalg.matmul {cast = #linalg.type_fn<cast_signed>} ins(%3895, %3894 : tensor<40x4096xf32>, tensor<4096x11008xf32>) outs(%cst_777 : tensor<40x11008xf32>) -> tensor<40x11008xf32>
    %3897 = tosa.reshape %3896 {new_shape = array<i64: 1, 40, 11008>} : (tensor<40x11008xf32>) -> tensor<1x40x11008xf32>
    %3898 = tosa.mul %3892, %3897 {shift = 0 : i8} : (tensor<1x40x11008xf32>, tensor<1x40x11008xf32>) -> tensor<1x40x11008xf32>
    %3899 = "tosa.const"() <{value = dense<[1, 0]> : tensor<2xi32>}> : () -> tensor<2xi32>
    %3900 = tosa.transpose %arg342, %3899 : (tensor<4096x11008xf32>, tensor<2xi32>) -> tensor<11008x4096xf32>
    %3901 = tosa.reshape %3898 {new_shape = array<i64: 40, 11008>} : (tensor<1x40x11008xf32>) -> tensor<40x11008xf32>
    %cst_778 = arith.constant dense<0.000000e+00> : tensor<40x4096xf32>
    %3902 = linalg.matmul {cast = #linalg.type_fn<cast_signed>} ins(%3901, %3900 : tensor<40x11008xf32>, tensor<11008x4096xf32>) outs(%cst_778 : tensor<40x4096xf32>) -> tensor<40x4096xf32>
    %3903 = tosa.reshape %3902 {new_shape = array<i64: 1, 40, 4096>} : (tensor<40x4096xf32>) -> tensor<1x40x4096xf32>
    %3904 = tosa.add %3876, %3903 : (tensor<1x40x4096xf32>, tensor<1x40x4096xf32>) -> tensor<1x40x4096xf32>
    %3905 = tensor.empty() : tensor<1x40x4096xf32>
    %c2_i32_779 = arith.constant 2 : i32
    %3906 = linalg.generic {indexing_maps = [#map5, #map5], iterator_types = ["parallel", "parallel", "parallel"]} ins(%3904 : tensor<1x40x4096xf32>) outs(%3905 : tensor<1x40x4096xf32>) {
    ^bb0(%in: f32, %out: f32):
      %4044 = math.fpowi %in, %c2_i32_779 : f32, i32
      linalg.yield %4044 : f32
    } -> tensor<1x40x4096xf32>
    %cst_780 = arith.constant dense<0.000000e+00> : tensor<1x40x1xf32>
    %3907 = linalg.generic {indexing_maps = [#map6, #map7], iterator_types = ["parallel", "parallel", "reduction", "parallel"]} ins(%3906 : tensor<1x40x4096xf32>) outs(%cst_780 : tensor<1x40x1xf32>) {
    ^bb0(%in: f32, %out: f32):
      %cst_807 = arith.constant 4.096000e+03 : f32
      %4044 = arith.divf %in, %cst_807 : f32
      %4045 = arith.addf %4044, %out : f32
      linalg.yield %4045 : f32
    } -> tensor<1x40x1xf32>
    %3908 = "tosa.const"() <{value = dense<9.99999997E-7> : tensor<1x40x1xf32>}> : () -> tensor<1x40x1xf32>
    %3909 = tosa.add %3907, %3908 : (tensor<1x40x1xf32>, tensor<1x40x1xf32>) -> tensor<1x40x1xf32>
    %3910 = tosa.rsqrt %3909 : (tensor<1x40x1xf32>) -> tensor<1x40x1xf32>
    %3911 = tosa.mul %3904, %3910 {shift = 0 : i8} : (tensor<1x40x4096xf32>, tensor<1x40x1xf32>) -> tensor<1x40x4096xf32>
    %3912 = tosa.reshape %arg343 {new_shape = array<i64: 1, 1, 4096>} : (tensor<4096xf32>) -> tensor<1x1x4096xf32>
    %3913 = tosa.mul %3912, %3911 {shift = 0 : i8} : (tensor<1x1x4096xf32>, tensor<1x40x4096xf32>) -> tensor<1x40x4096xf32>
    %3914 = "tosa.const"() <{value = dense<[1, 0]> : tensor<2xi32>}> : () -> tensor<2xi32>
    %3915 = tosa.transpose %arg344, %3914 : (tensor<4096x4096xf32>, tensor<2xi32>) -> tensor<4096x4096xf32>
    %3916 = tosa.reshape %3913 {new_shape = array<i64: 40, 4096>} : (tensor<1x40x4096xf32>) -> tensor<40x4096xf32>
    %cst_781 = arith.constant dense<0.000000e+00> : tensor<40x4096xf32>
    %3917 = linalg.matmul {cast = #linalg.type_fn<cast_signed>} ins(%3916, %3915 : tensor<40x4096xf32>, tensor<4096x4096xf32>) outs(%cst_781 : tensor<40x4096xf32>) -> tensor<40x4096xf32>
    %3918 = tosa.reshape %3917 {new_shape = array<i64: 1, 40, 4096>} : (tensor<40x4096xf32>) -> tensor<1x40x4096xf32>
    %3919 = "tosa.const"() <{value = dense<[1, 0]> : tensor<2xi32>}> : () -> tensor<2xi32>
    %3920 = tosa.transpose %arg345, %3919 : (tensor<4096x4096xf32>, tensor<2xi32>) -> tensor<4096x4096xf32>
    %3921 = tosa.reshape %3913 {new_shape = array<i64: 40, 4096>} : (tensor<1x40x4096xf32>) -> tensor<40x4096xf32>
    %cst_782 = arith.constant dense<0.000000e+00> : tensor<40x4096xf32>
    %3922 = linalg.matmul {cast = #linalg.type_fn<cast_signed>} ins(%3921, %3920 : tensor<40x4096xf32>, tensor<4096x4096xf32>) outs(%cst_782 : tensor<40x4096xf32>) -> tensor<40x4096xf32>
    %3923 = tosa.reshape %3922 {new_shape = array<i64: 1, 40, 4096>} : (tensor<40x4096xf32>) -> tensor<1x40x4096xf32>
    %3924 = "tosa.const"() <{value = dense<[1, 0]> : tensor<2xi32>}> : () -> tensor<2xi32>
    %3925 = tosa.transpose %arg346, %3924 : (tensor<4096x4096xf32>, tensor<2xi32>) -> tensor<4096x4096xf32>
    %3926 = tosa.reshape %3913 {new_shape = array<i64: 40, 4096>} : (tensor<1x40x4096xf32>) -> tensor<40x4096xf32>
    %cst_783 = arith.constant dense<0.000000e+00> : tensor<40x4096xf32>
    %3927 = linalg.matmul {cast = #linalg.type_fn<cast_signed>} ins(%3926, %3925 : tensor<40x4096xf32>, tensor<4096x4096xf32>) outs(%cst_783 : tensor<40x4096xf32>) -> tensor<40x4096xf32>
    %3928 = tosa.reshape %3927 {new_shape = array<i64: 1, 40, 4096>} : (tensor<40x4096xf32>) -> tensor<1x40x4096xf32>
    %3929 = tosa.reshape %3918 {new_shape = array<i64: 1, 40, 32, 128>} : (tensor<1x40x4096xf32>) -> tensor<1x40x32x128xf32>
    %3930 = "tosa.const"() <{value = dense<[0, 2, 1, 3]> : tensor<4xi32>}> : () -> tensor<4xi32>
    %3931 = tosa.transpose %3929, %3930 : (tensor<1x40x32x128xf32>, tensor<4xi32>) -> tensor<1x32x40x128xf32>
    %3932 = tosa.reshape %3923 {new_shape = array<i64: 1, 40, 32, 128>} : (tensor<1x40x4096xf32>) -> tensor<1x40x32x128xf32>
    %3933 = "tosa.const"() <{value = dense<[0, 2, 1, 3]> : tensor<4xi32>}> : () -> tensor<4xi32>
    %3934 = tosa.transpose %3932, %3933 : (tensor<1x40x32x128xf32>, tensor<4xi32>) -> tensor<1x32x40x128xf32>
    %3935 = tosa.reshape %3928 {new_shape = array<i64: 1, 40, 32, 128>} : (tensor<1x40x4096xf32>) -> tensor<1x40x32x128xf32>
    %3936 = "tosa.const"() <{value = dense<[0, 2, 1, 3]> : tensor<4xi32>}> : () -> tensor<4xi32>
    %3937 = tosa.transpose %3935, %3936 : (tensor<1x40x32x128xf32>, tensor<4xi32>) -> tensor<1x32x40x128xf32>
    %extracted_slice_784 = tensor.extract_slice %arg347[0, 0, 0, 0] [1, 1, 2048, 128] [1, 1, 1, 1] : tensor<1x1x2048x128xf32> to tensor<1x1x2048x128xf32>
    %extracted_slice_785 = tensor.extract_slice %extracted_slice_784[0, 0, 0, 0] [1, 1, 2048, 128] [1, 1, 1, 1] : tensor<1x1x2048x128xf32> to tensor<1x1x2048x128xf32>
    %extracted_slice_786 = tensor.extract_slice %extracted_slice_785[0, 0, 0, 0] [1, 1, 40, 128] [1, 1, 1, 1] : tensor<1x1x2048x128xf32> to tensor<1x1x40x128xf32>
    %extracted_slice_787 = tensor.extract_slice %arg348[0, 0, 0, 0] [1, 1, 2048, 128] [1, 1, 1, 1] : tensor<1x1x2048x128xf32> to tensor<1x1x2048x128xf32>
    %extracted_slice_788 = tensor.extract_slice %extracted_slice_787[0, 0, 0, 0] [1, 1, 2048, 128] [1, 1, 1, 1] : tensor<1x1x2048x128xf32> to tensor<1x1x2048x128xf32>
    %extracted_slice_789 = tensor.extract_slice %extracted_slice_788[0, 0, 0, 0] [1, 1, 40, 128] [1, 1, 1, 1] : tensor<1x1x2048x128xf32> to tensor<1x1x40x128xf32>
    %3938 = tensor.empty() : tensor<1x40x128xf32>
    %3939 = linalg.generic {indexing_maps = [#map8, #map5], iterator_types = ["parallel", "parallel", "parallel"]} ins(%extracted_slice_786 : tensor<1x1x40x128xf32>) outs(%3938 : tensor<1x40x128xf32>) {
    ^bb0(%in: f32, %out: f32):
      linalg.yield %in : f32
    } -> tensor<1x40x128xf32>
    %3940 = tensor.empty() : tensor<40x128xf32>
    %3941 = linalg.generic {indexing_maps = [#map9, #map3], iterator_types = ["parallel", "parallel"]} ins(%3939 : tensor<1x40x128xf32>) outs(%3940 : tensor<40x128xf32>) {
    ^bb0(%in: f32, %out: f32):
      linalg.yield %in : f32
    } -> tensor<40x128xf32>
    %3942 = tensor.empty() : tensor<1x40x128xf32>
    %3943 = linalg.generic {indexing_maps = [#map8, #map5], iterator_types = ["parallel", "parallel", "parallel"]} ins(%extracted_slice_789 : tensor<1x1x40x128xf32>) outs(%3942 : tensor<1x40x128xf32>) {
    ^bb0(%in: f32, %out: f32):
      linalg.yield %in : f32
    } -> tensor<1x40x128xf32>
    %3944 = tensor.empty() : tensor<40x128xf32>
    %3945 = linalg.generic {indexing_maps = [#map9, #map3], iterator_types = ["parallel", "parallel"]} ins(%3943 : tensor<1x40x128xf32>) outs(%3944 : tensor<40x128xf32>) {
    ^bb0(%in: f32, %out: f32):
      linalg.yield %in : f32
    } -> tensor<40x128xf32>
    %3946 = tensor.empty() : tensor<1x40x128xf32>
    %3947 = linalg.generic {indexing_maps = [#map2, #map5], iterator_types = ["parallel", "parallel", "parallel"]} ins(%2 : tensor<1x40xi64>) outs(%3946 : tensor<1x40x128xf32>) {
    ^bb0(%in: i64, %out: f32):
      %4044 = arith.index_cast %in : i64 to index
      %4045 = linalg.index 2 : index
      %extracted = tensor.extract %3941[%4044, %4045] : tensor<40x128xf32>
      linalg.yield %extracted : f32
    } -> tensor<1x40x128xf32>
    %3948 = tosa.reshape %3947 {new_shape = array<i64: 1, 1, 40, 128>} : (tensor<1x40x128xf32>) -> tensor<1x1x40x128xf32>
    %3949 = tensor.empty() : tensor<1x40x128xf32>
    %3950 = linalg.generic {indexing_maps = [#map2, #map5], iterator_types = ["parallel", "parallel", "parallel"]} ins(%2 : tensor<1x40xi64>) outs(%3949 : tensor<1x40x128xf32>) {
    ^bb0(%in: i64, %out: f32):
      %4044 = arith.index_cast %in : i64 to index
      %4045 = linalg.index 2 : index
      %extracted = tensor.extract %3945[%4044, %4045] : tensor<40x128xf32>
      linalg.yield %extracted : f32
    } -> tensor<1x40x128xf32>
    %3951 = tosa.reshape %3950 {new_shape = array<i64: 1, 1, 40, 128>} : (tensor<1x40x128xf32>) -> tensor<1x1x40x128xf32>
    %3952 = tosa.mul %3931, %3948 {shift = 0 : i8} : (tensor<1x32x40x128xf32>, tensor<1x1x40x128xf32>) -> tensor<1x32x40x128xf32>
    %extracted_slice_790 = tensor.extract_slice %3931[0, 0, 0, 0] [1, 32, 40, 64] [1, 1, 1, 1] : tensor<1x32x40x128xf32> to tensor<1x32x40x64xf32>
    %extracted_slice_791 = tensor.extract_slice %3931[0, 0, 0, 64] [1, 32, 40, 64] [1, 1, 1, 1] : tensor<1x32x40x128xf32> to tensor<1x32x40x64xf32>
    %3953 = tensor.empty() : tensor<1x32x40x64xf32>
    %3954 = linalg.negf ins(%extracted_slice_791 : tensor<1x32x40x64xf32>) outs(%3953 : tensor<1x32x40x64xf32>) -> tensor<1x32x40x64xf32>
    %3955 = tensor.empty() : tensor<1x32x40x128xf32>
    %inserted_slice_792 = tensor.insert_slice %3954 into %3955[0, 0, 0, 0] [1, 32, 40, 64] [1, 1, 1, 1] : tensor<1x32x40x64xf32> into tensor<1x32x40x128xf32>
    %inserted_slice_793 = tensor.insert_slice %extracted_slice_790 into %inserted_slice_792[0, 0, 0, 64] [1, 32, 40, 64] [1, 1, 1, 1] : tensor<1x32x40x64xf32> into tensor<1x32x40x128xf32>
    %3956 = tosa.mul %inserted_slice_793, %3951 {shift = 0 : i8} : (tensor<1x32x40x128xf32>, tensor<1x1x40x128xf32>) -> tensor<1x32x40x128xf32>
    %3957 = tosa.add %3952, %3956 : (tensor<1x32x40x128xf32>, tensor<1x32x40x128xf32>) -> tensor<1x32x40x128xf32>
    %3958 = tosa.mul %3934, %3948 {shift = 0 : i8} : (tensor<1x32x40x128xf32>, tensor<1x1x40x128xf32>) -> tensor<1x32x40x128xf32>
    %extracted_slice_794 = tensor.extract_slice %3934[0, 0, 0, 0] [1, 32, 40, 64] [1, 1, 1, 1] : tensor<1x32x40x128xf32> to tensor<1x32x40x64xf32>
    %extracted_slice_795 = tensor.extract_slice %3934[0, 0, 0, 64] [1, 32, 40, 64] [1, 1, 1, 1] : tensor<1x32x40x128xf32> to tensor<1x32x40x64xf32>
    %3959 = tensor.empty() : tensor<1x32x40x64xf32>
    %3960 = linalg.negf ins(%extracted_slice_795 : tensor<1x32x40x64xf32>) outs(%3959 : tensor<1x32x40x64xf32>) -> tensor<1x32x40x64xf32>
    %3961 = tensor.empty() : tensor<1x32x40x128xf32>
    %inserted_slice_796 = tensor.insert_slice %3960 into %3961[0, 0, 0, 0] [1, 32, 40, 64] [1, 1, 1, 1] : tensor<1x32x40x64xf32> into tensor<1x32x40x128xf32>
    %inserted_slice_797 = tensor.insert_slice %extracted_slice_794 into %inserted_slice_796[0, 0, 0, 64] [1, 32, 40, 64] [1, 1, 1, 1] : tensor<1x32x40x64xf32> into tensor<1x32x40x128xf32>
    %3962 = tosa.mul %inserted_slice_797, %3951 {shift = 0 : i8} : (tensor<1x32x40x128xf32>, tensor<1x1x40x128xf32>) -> tensor<1x32x40x128xf32>
    %3963 = tosa.add %3958, %3962 : (tensor<1x32x40x128xf32>, tensor<1x32x40x128xf32>) -> tensor<1x32x40x128xf32>
    %3964 = "tosa.const"() <{value = dense<[0, 1, 3, 2]> : tensor<4xi32>}> : () -> tensor<4xi32>
    %3965 = tosa.transpose %3963, %3964 : (tensor<1x32x40x128xf32>, tensor<4xi32>) -> tensor<1x32x128x40xf32>
    %3966 = "tosa.const"() <{value = dense<0.000000e+00> : tensor<1x32x40x128xf32>}> : () -> tensor<1x32x40x128xf32>
    %3967 = tosa.add %3957, %3966 : (tensor<1x32x40x128xf32>, tensor<1x32x40x128xf32>) -> tensor<1x32x40x128xf32>
    %3968 = tosa.reshape %3967 {new_shape = array<i64: 32, 40, 128>} : (tensor<1x32x40x128xf32>) -> tensor<32x40x128xf32>
    %3969 = "tosa.const"() <{value = dense<0.000000e+00> : tensor<1x32x128x40xf32>}> : () -> tensor<1x32x128x40xf32>
    %3970 = tosa.add %3965, %3969 : (tensor<1x32x128x40xf32>, tensor<1x32x128x40xf32>) -> tensor<1x32x128x40xf32>
    %3971 = tosa.reshape %3970 {new_shape = array<i64: 32, 128, 40>} : (tensor<1x32x128x40xf32>) -> tensor<32x128x40xf32>
    %3972 = tosa.matmul %3968, %3971 : (tensor<32x40x128xf32>, tensor<32x128x40xf32>) -> tensor<32x40x40xf32>
    %3973 = tosa.reshape %3972 {new_shape = array<i64: 1, 32, 40, 40>} : (tensor<32x40x40xf32>) -> tensor<1x32x40x40xf32>
    %3974 = "tosa.const"() <{value = dense<11.3137083> : tensor<1x32x40x40xf32>}> : () -> tensor<1x32x40x40xf32>
    %3975 = tosa.reciprocal %3974 : (tensor<1x32x40x40xf32>) -> tensor<1x32x40x40xf32>
    %3976 = tosa.mul %3973, %3975 {shift = 0 : i8} : (tensor<1x32x40x40xf32>, tensor<1x32x40x40xf32>) -> tensor<1x32x40x40xf32>
    %3977 = tosa.add %3976, %29 : (tensor<1x32x40x40xf32>, tensor<1x1x40x40xf32>) -> tensor<1x32x40x40xf32>
    %3978 = tosa.reduce_max %3977 {axis = 3 : i32} : (tensor<1x32x40x40xf32>) -> tensor<1x32x40x1xf32>
    %3979 = tosa.sub %3977, %3978 : (tensor<1x32x40x40xf32>, tensor<1x32x40x1xf32>) -> tensor<1x32x40x40xf32>
    %3980 = tosa.exp %3979 : (tensor<1x32x40x40xf32>) -> tensor<1x32x40x40xf32>
    %3981 = tosa.reduce_sum %3980 {axis = 3 : i32} : (tensor<1x32x40x40xf32>) -> tensor<1x32x40x1xf32>
    %3982 = tosa.reciprocal %3981 : (tensor<1x32x40x1xf32>) -> tensor<1x32x40x1xf32>
    %3983 = tosa.mul %3980, %3982 {shift = 0 : i8} : (tensor<1x32x40x40xf32>, tensor<1x32x40x1xf32>) -> tensor<1x32x40x40xf32>
    %3984 = "tosa.const"() <{value = dense<0.000000e+00> : tensor<1x32x40x40xf32>}> : () -> tensor<1x32x40x40xf32>
    %3985 = tosa.add %3983, %3984 : (tensor<1x32x40x40xf32>, tensor<1x32x40x40xf32>) -> tensor<1x32x40x40xf32>
    %3986 = tosa.reshape %3985 {new_shape = array<i64: 32, 40, 40>} : (tensor<1x32x40x40xf32>) -> tensor<32x40x40xf32>
    %3987 = "tosa.const"() <{value = dense<0.000000e+00> : tensor<1x32x40x128xf32>}> : () -> tensor<1x32x40x128xf32>
    %3988 = tosa.add %3937, %3987 : (tensor<1x32x40x128xf32>, tensor<1x32x40x128xf32>) -> tensor<1x32x40x128xf32>
    %3989 = tosa.reshape %3988 {new_shape = array<i64: 32, 40, 128>} : (tensor<1x32x40x128xf32>) -> tensor<32x40x128xf32>
    %3990 = tosa.matmul %3986, %3989 : (tensor<32x40x40xf32>, tensor<32x40x128xf32>) -> tensor<32x40x128xf32>
    %3991 = tosa.reshape %3990 {new_shape = array<i64: 1, 32, 40, 128>} : (tensor<32x40x128xf32>) -> tensor<1x32x40x128xf32>
    %3992 = "tosa.const"() <{value = dense<[0, 2, 1, 3]> : tensor<4xi32>}> : () -> tensor<4xi32>
    %3993 = tosa.transpose %3991, %3992 : (tensor<1x32x40x128xf32>, tensor<4xi32>) -> tensor<1x40x32x128xf32>
    %3994 = tosa.identity %3993 : (tensor<1x40x32x128xf32>) -> tensor<1x40x32x128xf32>
    %3995 = tosa.reshape %3994 {new_shape = array<i64: 1, 40, 4096>} : (tensor<1x40x32x128xf32>) -> tensor<1x40x4096xf32>
    %3996 = "tosa.const"() <{value = dense<[1, 0]> : tensor<2xi32>}> : () -> tensor<2xi32>
    %3997 = tosa.transpose %arg349, %3996 : (tensor<4096x4096xf32>, tensor<2xi32>) -> tensor<4096x4096xf32>
    %3998 = tosa.reshape %3995 {new_shape = array<i64: 40, 4096>} : (tensor<1x40x4096xf32>) -> tensor<40x4096xf32>
    %cst_798 = arith.constant dense<0.000000e+00> : tensor<40x4096xf32>
    %3999 = linalg.matmul {cast = #linalg.type_fn<cast_signed>} ins(%3998, %3997 : tensor<40x4096xf32>, tensor<4096x4096xf32>) outs(%cst_798 : tensor<40x4096xf32>) -> tensor<40x4096xf32>
    %4000 = tosa.reshape %3999 {new_shape = array<i64: 1, 40, 4096>} : (tensor<40x4096xf32>) -> tensor<1x40x4096xf32>
    %4001 = tosa.add %3904, %4000 : (tensor<1x40x4096xf32>, tensor<1x40x4096xf32>) -> tensor<1x40x4096xf32>
    %4002 = tensor.empty() : tensor<1x40x4096xf32>
    %c2_i32_799 = arith.constant 2 : i32
    %4003 = linalg.generic {indexing_maps = [#map5, #map5], iterator_types = ["parallel", "parallel", "parallel"]} ins(%4001 : tensor<1x40x4096xf32>) outs(%4002 : tensor<1x40x4096xf32>) {
    ^bb0(%in: f32, %out: f32):
      %4044 = math.fpowi %in, %c2_i32_799 : f32, i32
      linalg.yield %4044 : f32
    } -> tensor<1x40x4096xf32>
    %cst_800 = arith.constant dense<0.000000e+00> : tensor<1x40x1xf32>
    %4004 = linalg.generic {indexing_maps = [#map6, #map7], iterator_types = ["parallel", "parallel", "reduction", "parallel"]} ins(%4003 : tensor<1x40x4096xf32>) outs(%cst_800 : tensor<1x40x1xf32>) {
    ^bb0(%in: f32, %out: f32):
      %cst_807 = arith.constant 4.096000e+03 : f32
      %4044 = arith.divf %in, %cst_807 : f32
      %4045 = arith.addf %4044, %out : f32
      linalg.yield %4045 : f32
    } -> tensor<1x40x1xf32>
    %4005 = "tosa.const"() <{value = dense<9.99999997E-7> : tensor<1x40x1xf32>}> : () -> tensor<1x40x1xf32>
    %4006 = tosa.add %4004, %4005 : (tensor<1x40x1xf32>, tensor<1x40x1xf32>) -> tensor<1x40x1xf32>
    %4007 = tosa.rsqrt %4006 : (tensor<1x40x1xf32>) -> tensor<1x40x1xf32>
    %4008 = tosa.mul %4001, %4007 {shift = 0 : i8} : (tensor<1x40x4096xf32>, tensor<1x40x1xf32>) -> tensor<1x40x4096xf32>
    %4009 = tosa.reshape %arg350 {new_shape = array<i64: 1, 1, 4096>} : (tensor<4096xf32>) -> tensor<1x1x4096xf32>
    %4010 = tosa.mul %4009, %4008 {shift = 0 : i8} : (tensor<1x1x4096xf32>, tensor<1x40x4096xf32>) -> tensor<1x40x4096xf32>
    %4011 = "tosa.const"() <{value = dense<[1, 0]> : tensor<2xi32>}> : () -> tensor<2xi32>
    %4012 = tosa.transpose %arg351, %4011 : (tensor<11008x4096xf32>, tensor<2xi32>) -> tensor<4096x11008xf32>
    %4013 = tosa.reshape %4010 {new_shape = array<i64: 40, 4096>} : (tensor<1x40x4096xf32>) -> tensor<40x4096xf32>
    %cst_801 = arith.constant dense<0.000000e+00> : tensor<40x11008xf32>
    %4014 = linalg.matmul {cast = #linalg.type_fn<cast_signed>} ins(%4013, %4012 : tensor<40x4096xf32>, tensor<4096x11008xf32>) outs(%cst_801 : tensor<40x11008xf32>) -> tensor<40x11008xf32>
    %4015 = tosa.reshape %4014 {new_shape = array<i64: 1, 40, 11008>} : (tensor<40x11008xf32>) -> tensor<1x40x11008xf32>
    %4016 = tosa.sigmoid %4015 : (tensor<1x40x11008xf32>) -> tensor<1x40x11008xf32>
    %4017 = tosa.mul %4015, %4016 {shift = 0 : i8} : (tensor<1x40x11008xf32>, tensor<1x40x11008xf32>) -> tensor<1x40x11008xf32>
    %4018 = "tosa.const"() <{value = dense<[1, 0]> : tensor<2xi32>}> : () -> tensor<2xi32>
    %4019 = tosa.transpose %arg352, %4018 : (tensor<11008x4096xf32>, tensor<2xi32>) -> tensor<4096x11008xf32>
    %4020 = tosa.reshape %4010 {new_shape = array<i64: 40, 4096>} : (tensor<1x40x4096xf32>) -> tensor<40x4096xf32>
    %cst_802 = arith.constant dense<0.000000e+00> : tensor<40x11008xf32>
    %4021 = linalg.matmul {cast = #linalg.type_fn<cast_signed>} ins(%4020, %4019 : tensor<40x4096xf32>, tensor<4096x11008xf32>) outs(%cst_802 : tensor<40x11008xf32>) -> tensor<40x11008xf32>
    %4022 = tosa.reshape %4021 {new_shape = array<i64: 1, 40, 11008>} : (tensor<40x11008xf32>) -> tensor<1x40x11008xf32>
    %4023 = tosa.mul %4017, %4022 {shift = 0 : i8} : (tensor<1x40x11008xf32>, tensor<1x40x11008xf32>) -> tensor<1x40x11008xf32>
    %4024 = "tosa.const"() <{value = dense<[1, 0]> : tensor<2xi32>}> : () -> tensor<2xi32>
    %4025 = tosa.transpose %arg353, %4024 : (tensor<4096x11008xf32>, tensor<2xi32>) -> tensor<11008x4096xf32>
    %4026 = tosa.reshape %4023 {new_shape = array<i64: 40, 11008>} : (tensor<1x40x11008xf32>) -> tensor<40x11008xf32>
    %cst_803 = arith.constant dense<0.000000e+00> : tensor<40x4096xf32>
    %4027 = linalg.matmul {cast = #linalg.type_fn<cast_signed>} ins(%4026, %4025 : tensor<40x11008xf32>, tensor<11008x4096xf32>) outs(%cst_803 : tensor<40x4096xf32>) -> tensor<40x4096xf32>
    %4028 = tosa.reshape %4027 {new_shape = array<i64: 1, 40, 4096>} : (tensor<40x4096xf32>) -> tensor<1x40x4096xf32>
    %4029 = tosa.add %4001, %4028 : (tensor<1x40x4096xf32>, tensor<1x40x4096xf32>) -> tensor<1x40x4096xf32>
    %4030 = tensor.empty() : tensor<1x40x4096xf32>
    %c2_i32_804 = arith.constant 2 : i32
    %4031 = linalg.generic {indexing_maps = [#map5, #map5], iterator_types = ["parallel", "parallel", "parallel"]} ins(%4029 : tensor<1x40x4096xf32>) outs(%4030 : tensor<1x40x4096xf32>) {
    ^bb0(%in: f32, %out: f32):
      %4044 = math.fpowi %in, %c2_i32_804 : f32, i32
      linalg.yield %4044 : f32
    } -> tensor<1x40x4096xf32>
    %cst_805 = arith.constant dense<0.000000e+00> : tensor<1x40x1xf32>
    %4032 = linalg.generic {indexing_maps = [#map6, #map7], iterator_types = ["parallel", "parallel", "reduction", "parallel"]} ins(%4031 : tensor<1x40x4096xf32>) outs(%cst_805 : tensor<1x40x1xf32>) {
    ^bb0(%in: f32, %out: f32):
      %cst_807 = arith.constant 4.096000e+03 : f32
      %4044 = arith.divf %in, %cst_807 : f32
      %4045 = arith.addf %4044, %out : f32
      linalg.yield %4045 : f32
    } -> tensor<1x40x1xf32>
    %4033 = "tosa.const"() <{value = dense<9.99999997E-7> : tensor<1x40x1xf32>}> : () -> tensor<1x40x1xf32>
    %4034 = tosa.add %4032, %4033 : (tensor<1x40x1xf32>, tensor<1x40x1xf32>) -> tensor<1x40x1xf32>
    %4035 = tosa.rsqrt %4034 : (tensor<1x40x1xf32>) -> tensor<1x40x1xf32>
    %4036 = tosa.mul %4029, %4035 {shift = 0 : i8} : (tensor<1x40x4096xf32>, tensor<1x40x1xf32>) -> tensor<1x40x4096xf32>
    %4037 = tosa.reshape %arg354 {new_shape = array<i64: 1, 1, 4096>} : (tensor<4096xf32>) -> tensor<1x1x4096xf32>
    %4038 = tosa.mul %4037, %4036 {shift = 0 : i8} : (tensor<1x1x4096xf32>, tensor<1x40x4096xf32>) -> tensor<1x40x4096xf32>
    %4039 = "tosa.const"() <{value = dense<[1, 0]> : tensor<2xi32>}> : () -> tensor<2xi32>
    %4040 = tosa.transpose %arg355, %4039 : (tensor<32000x4096xf32>, tensor<2xi32>) -> tensor<4096x32000xf32>
    %4041 = tosa.reshape %4038 {new_shape = array<i64: 40, 4096>} : (tensor<1x40x4096xf32>) -> tensor<40x4096xf32>
    %cst_806 = arith.constant dense<0.000000e+00> : tensor<40x32000xf32>
    %4042 = linalg.matmul {cast = #linalg.type_fn<cast_signed>} ins(%4041, %4040 : tensor<40x4096xf32>, tensor<4096x32000xf32>) outs(%cst_806 : tensor<40x32000xf32>) -> tensor<40x32000xf32>
    %4043 = tosa.reshape %4042 {new_shape = array<i64: 1, 40, 32000>} : (tensor<40x32000xf32>) -> tensor<1x40x32000xf32>
    return %4038, %4043 : tensor<1x40x4096xf32>, tensor<1x40x32000xf32>
  }
}

