module {
  func.func private @subgraph0(memref<1xf32, strided<[1], offset: ?>>, memref<1280x320xf32, strided<[320, 1], offset: ?>>, memref<1280xf32, strided<[1], offset: ?>>, memref<1280x1280xf32, strided<[1280, 1], offset: ?>>, memref<1280xf32, strided<[1], offset: ?>>, memref<1x4x64x64xf32, strided<[16384, 4096, 64, 1], offset: ?>>, memref<320x4x3x3xf32, strided<[36, 9, 3, 1], offset: ?>>, memref<320xf32, strided<[1], offset: ?>>, memref<320xf32, strided<[1], offset: ?>>, memref<320xf32, strided<[1], offset: ?>>, memref<320x320x3x3xf32, strided<[2880, 9, 3, 1], offset: ?>>, memref<320xf32, strided<[1], offset: ?>>, memref<320x1280xf32, strided<[1280, 1], offset: ?>>, memref<320xf32, strided<[1], offset: ?>>, memref<320xf32, strided<[1], offset: ?>>, memref<320xf32, strided<[1], offset: ?>>, memref<320x320x3x3xf32, strided<[2880, 9, 3, 1], offset: ?>>, memref<320xf32, strided<[1], offset: ?>>, memref<320xf32, strided<[1], offset: ?>>, memref<320xf32, strided<[1], offset: ?>>, memref<320x320xf32, strided<[320, 1], offset: ?>>, memref<320xf32, strided<[1], offset: ?>>, memref<320xf32, strided<[1], offset: ?>>, memref<320xf32, strided<[1], offset: ?>>, memref<320x320xf32, strided<[320, 1], offset: ?>>, memref<320x320xf32, strided<[320, 1], offset: ?>>, memref<320x320xf32, strided<[320, 1], offset: ?>>, memref<320x320xf32, strided<[320, 1], offset: ?>>, memref<320xf32, strided<[1], offset: ?>>, memref<320xf32, strided<[1], offset: ?>>, memref<320xf32, strided<[1], offset: ?>>, memref<320x320xf32, strided<[320, 1], offset: ?>>, memref<320x1024xf32, strided<[1024, 1], offset: ?>>, memref<1x12x1024xf32, strided<[12288, 1024, 1], offset: ?>>, memref<320x1024xf32, strided<[1024, 1], offset: ?>>, memref<1x12x1024xf32, strided<[12288, 1024, 1], offset: ?>>, memref<320x320xf32, strided<[320, 1], offset: ?>>, memref<320xf32, strided<[1], offset: ?>>, memref<320xf32, strided<[1], offset: ?>>, memref<320xf32, strided<[1], offset: ?>>, memref<2560x320xf32, strided<[320, 1], offset: ?>>, memref<2560xf32, strided<[1], offset: ?>>, memref<320x1280xf32, strided<[1280, 1], offset: ?>>, memref<320xf32, strided<[1], offset: ?>>, memref<320x320xf32, strided<[320, 1], offset: ?>>, memref<320xf32, strided<[1], offset: ?>>, memref<320xf32, strided<[1], offset: ?>>, memref<320xf32, strided<[1], offset: ?>>, memref<320x320x3x3xf32, strided<[2880, 9, 3, 1], offset: ?>>, memref<320xf32, strided<[1], offset: ?>>, memref<320x1280xf32, strided<[1280, 1], offset: ?>>, memref<320xf32, strided<[1], offset: ?>>, memref<320xf32, strided<[1], offset: ?>>, memref<320xf32, strided<[1], offset: ?>>, memref<320x320x3x3xf32, strided<[2880, 9, 3, 1], offset: ?>>, memref<320xf32, strided<[1], offset: ?>>, memref<320xf32, strided<[1], offset: ?>>, memref<320xf32, strided<[1], offset: ?>>, memref<320x320xf32, strided<[320, 1], offset: ?>>, memref<320xf32, strided<[1], offset: ?>>, memref<320xf32, strided<[1], offset: ?>>, memref<320xf32, strided<[1], offset: ?>>, memref<320x320xf32, strided<[320, 1], offset: ?>>, memref<320x320xf32, strided<[320, 1], offset: ?>>, memref<320x320xf32, strided<[320, 1], offset: ?>>, memref<320x320xf32, strided<[320, 1], offset: ?>>, memref<320xf32, strided<[1], offset: ?>>, memref<320xf32, strided<[1], offset: ?>>, memref<320xf32, strided<[1], offset: ?>>, memref<320x320xf32, strided<[320, 1], offset: ?>>, memref<320x1024xf32, strided<[1024, 1], offset: ?>>, memref<1x12x1024xf32, strided<[12288, 1024, 1], offset: ?>>, memref<320x1024xf32, strided<[1024, 1], offset: ?>>, memref<1x12x1024xf32, strided<[12288, 1024, 1], offset: ?>>, memref<320x320xf32, strided<[320, 1], offset: ?>>, memref<320xf32, strided<[1], offset: ?>>, memref<320xf32, strided<[1], offset: ?>>, memref<320xf32, strided<[1], offset: ?>>, memref<2560x320xf32, strided<[320, 1], offset: ?>>, memref<2560xf32, strided<[1], offset: ?>>, memref<320x1280xf32, strided<[1280, 1], offset: ?>>, memref<320xf32, strided<[1], offset: ?>>, memref<320x320xf32, strided<[320, 1], offset: ?>>, memref<320xf32, strided<[1], offset: ?>>, memref<320x320x3x3xf32, strided<[2880, 9, 3, 1], offset: ?>>, memref<320xf32, strided<[1], offset: ?>>, memref<320xf32, strided<[1], offset: ?>>, memref<320xf32, strided<[1], offset: ?>>, memref<640x320x3x3xf32, strided<[2880, 9, 3, 1], offset: ?>>, memref<640xf32, strided<[1], offset: ?>>, memref<640x1280xf32, strided<[1280, 1], offset: ?>>, memref<640xf32, strided<[1], offset: ?>>, memref<640xf32, strided<[1], offset: ?>>, memref<640xf32, strided<[1], offset: ?>>, memref<640x640x3x3xf32, strided<[5760, 9, 3, 1], offset: ?>>, memref<640xf32, strided<[1], offset: ?>>, memref<640x320x1x1xf32, strided<[320, 1, 1, 1], offset: ?>>, memref<640xf32, strided<[1], offset: ?>>, memref<640xf32, strided<[1], offset: ?>>, memref<640xf32, strided<[1], offset: ?>>, memref<640x640xf32, strided<[640, 1], offset: ?>>, memref<640xf32, strided<[1], offset: ?>>, memref<640xf32, strided<[1], offset: ?>>, memref<640xf32, strided<[1], offset: ?>>, memref<640x640xf32, strided<[640, 1], offset: ?>>, memref<640x640xf32, strided<[640, 1], offset: ?>>, memref<640x640xf32, strided<[640, 1], offset: ?>>, memref<640x640xf32, strided<[640, 1], offset: ?>>, memref<640xf32, strided<[1], offset: ?>>, memref<640xf32, strided<[1], offset: ?>>, memref<640xf32, strided<[1], offset: ?>>, memref<640x640xf32, strided<[640, 1], offset: ?>>, memref<640x1024xf32, strided<[1024, 1], offset: ?>>, memref<1x12x1024xf32, strided<[12288, 1024, 1], offset: ?>>, memref<640x1024xf32, strided<[1024, 1], offset: ?>>, memref<1x12x1024xf32, strided<[12288, 1024, 1], offset: ?>>, memref<640x640xf32, strided<[640, 1], offset: ?>>, memref<640xf32, strided<[1], offset: ?>>, memref<640xf32, strided<[1], offset: ?>>, memref<640xf32, strided<[1], offset: ?>>, memref<5120x640xf32, strided<[640, 1], offset: ?>>, memref<5120xf32, strided<[1], offset: ?>>, memref<640x2560xf32, strided<[2560, 1], offset: ?>>, memref<640xf32, strided<[1], offset: ?>>, memref<640x640xf32, strided<[640, 1], offset: ?>>, memref<640xf32, strided<[1], offset: ?>>, memref<640xf32, strided<[1], offset: ?>>, memref<640xf32, strided<[1], offset: ?>>, memref<640x640x3x3xf32, strided<[5760, 9, 3, 1], offset: ?>>, memref<640xf32, strided<[1], offset: ?>>, memref<640x1280xf32, strided<[1280, 1], offset: ?>>, memref<640xf32, strided<[1], offset: ?>>, memref<640xf32, strided<[1], offset: ?>>, memref<640xf32, strided<[1], offset: ?>>, memref<640x640x3x3xf32, strided<[5760, 9, 3, 1], offset: ?>>, memref<640xf32, strided<[1], offset: ?>>, memref<640xf32, strided<[1], offset: ?>>, memref<640xf32, strided<[1], offset: ?>>, memref<640x640xf32, strided<[640, 1], offset: ?>>, memref<640xf32, strided<[1], offset: ?>>, memref<640xf32, strided<[1], offset: ?>>, memref<640xf32, strided<[1], offset: ?>>, memref<640x640xf32, strided<[640, 1], offset: ?>>, memref<640x640xf32, strided<[640, 1], offset: ?>>, memref<640x640xf32, strided<[640, 1], offset: ?>>, memref<640x640xf32, strided<[640, 1], offset: ?>>, memref<640xf32, strided<[1], offset: ?>>, memref<640xf32, strided<[1], offset: ?>>, memref<640xf32, strided<[1], offset: ?>>, memref<640x640xf32, strided<[640, 1], offset: ?>>, memref<640x1024xf32, strided<[1024, 1], offset: ?>>, memref<1x12x1024xf32, strided<[12288, 1024, 1], offset: ?>>, memref<640x1024xf32, strided<[1024, 1], offset: ?>>, memref<1x12x1024xf32, strided<[12288, 1024, 1], offset: ?>>, memref<640x640xf32, strided<[640, 1], offset: ?>>, memref<640xf32, strided<[1], offset: ?>>, memref<640xf32, strided<[1], offset: ?>>, memref<640xf32, strided<[1], offset: ?>>, memref<5120x640xf32, strided<[640, 1], offset: ?>>, memref<5120xf32, strided<[1], offset: ?>>, memref<640x2560xf32, strided<[2560, 1], offset: ?>>, memref<640xf32, strided<[1], offset: ?>>, memref<640x640xf32, strided<[640, 1], offset: ?>>, memref<640xf32, strided<[1], offset: ?>>, memref<640x640x3x3xf32, strided<[5760, 9, 3, 1], offset: ?>>, memref<640xf32, strided<[1], offset: ?>>, memref<640xf32, strided<[1], offset: ?>>, memref<640xf32, strided<[1], offset: ?>>, memref<1280x640x3x3xf32, strided<[5760, 9, 3, 1], offset: ?>>, memref<1280xf32, strided<[1], offset: ?>>, memref<1280x1280xf32, strided<[1280, 1], offset: ?>>, memref<1280xf32, strided<[1], offset: ?>>, memref<1280xf32, strided<[1], offset: ?>>, memref<1280xf32, strided<[1], offset: ?>>, memref<1280x1280x3x3xf32, strided<[11520, 9, 3, 1], offset: ?>>, memref<1280xf32, strided<[1], offset: ?>>, memref<1280x640x1x1xf32, strided<[640, 1, 1, 1], offset: ?>>, memref<1280xf32, strided<[1], offset: ?>>, memref<1280xf32, strided<[1], offset: ?>>, memref<1280xf32, strided<[1], offset: ?>>, memref<1280x1280xf32, strided<[1280, 1], offset: ?>>, memref<1280xf32, strided<[1], offset: ?>>, memref<1280xf32, strided<[1], offset: ?>>, memref<1280xf32, strided<[1], offset: ?>>, memref<1280x1280xf32, strided<[1280, 1], offset: ?>>, memref<1280x1280xf32, strided<[1280, 1], offset: ?>>, memref<1280x1280xf32, strided<[1280, 1], offset: ?>>, memref<1280x1280xf32, strided<[1280, 1], offset: ?>>, memref<1280xf32, strided<[1], offset: ?>>, memref<1280xf32, strided<[1], offset: ?>>, memref<1280xf32, strided<[1], offset: ?>>, memref<1280x1280xf32, strided<[1280, 1], offset: ?>>, memref<1280x1024xf32, strided<[1024, 1], offset: ?>>, memref<1x12x1024xf32, strided<[12288, 1024, 1], offset: ?>>, memref<1280x1024xf32, strided<[1024, 1], offset: ?>>, memref<1x12x1024xf32, strided<[12288, 1024, 1], offset: ?>>, memref<1280x1280xf32, strided<[1280, 1], offset: ?>>, memref<1280xf32, strided<[1], offset: ?>>, memref<1280xf32, strided<[1], offset: ?>>, memref<1280xf32, strided<[1], offset: ?>>, memref<10240x1280xf32, strided<[1280, 1], offset: ?>>, memref<10240xf32, strided<[1], offset: ?>>, memref<1280x5120xf32, strided<[5120, 1], offset: ?>>, memref<1280xf32, strided<[1], offset: ?>>, memref<1280x1280xf32, strided<[1280, 1], offset: ?>>, memref<1280xf32, strided<[1], offset: ?>>, memref<1280xf32, strided<[1], offset: ?>>, memref<1280xf32, strided<[1], offset: ?>>, memref<1280x1280x3x3xf32, strided<[11520, 9, 3, 1], offset: ?>>, memref<1280xf32, strided<[1], offset: ?>>, memref<1280x1280xf32, strided<[1280, 1], offset: ?>>, memref<1280xf32, strided<[1], offset: ?>>, memref<1280xf32, strided<[1], offset: ?>>, memref<1280xf32, strided<[1], offset: ?>>, memref<1280x1280x3x3xf32, strided<[11520, 9, 3, 1], offset: ?>>, memref<1280xf32, strided<[1], offset: ?>>, memref<1280xf32, strided<[1], offset: ?>>, memref<1280xf32, strided<[1], offset: ?>>, memref<1280x1280xf32, strided<[1280, 1], offset: ?>>, memref<1280xf32, strided<[1], offset: ?>>, memref<1280xf32, strided<[1], offset: ?>>, memref<1280xf32, strided<[1], offset: ?>>, memref<1280x1280xf32, strided<[1280, 1], offset: ?>>, memref<1280x1280xf32, strided<[1280, 1], offset: ?>>, memref<1280x1280xf32, strided<[1280, 1], offset: ?>>, memref<1280x1280xf32, strided<[1280, 1], offset: ?>>, memref<1280xf32, strided<[1], offset: ?>>, memref<1280xf32, strided<[1], offset: ?>>, memref<1280xf32, strided<[1], offset: ?>>, memref<1280x1280xf32, strided<[1280, 1], offset: ?>>, memref<1280x1024xf32, strided<[1024, 1], offset: ?>>, memref<1x12x1024xf32, strided<[12288, 1024, 1], offset: ?>>, memref<1280x1024xf32, strided<[1024, 1], offset: ?>>, memref<1x12x1024xf32, strided<[12288, 1024, 1], offset: ?>>, memref<1280x1280xf32, strided<[1280, 1], offset: ?>>, memref<1280xf32, strided<[1], offset: ?>>, memref<1280xf32, strided<[1], offset: ?>>, memref<1280xf32, strided<[1], offset: ?>>, memref<10240x1280xf32, strided<[1280, 1], offset: ?>>, memref<10240xf32, strided<[1], offset: ?>>, memref<1280x5120xf32, strided<[5120, 1], offset: ?>>, memref<1280xf32, strided<[1], offset: ?>>, memref<1280x1280xf32, strided<[1280, 1], offset: ?>>, memref<1280xf32, strided<[1], offset: ?>>, memref<1280x1280x3x3xf32, strided<[11520, 9, 3, 1], offset: ?>>, memref<1280xf32, strided<[1], offset: ?>>, memref<1280xf32, strided<[1], offset: ?>>, memref<1280xf32, strided<[1], offset: ?>>, memref<1280x1280x3x3xf32, strided<[11520, 9, 3, 1], offset: ?>>, memref<1280xf32, strided<[1], offset: ?>>, memref<1280x1280xf32, strided<[1280, 1], offset: ?>>, memref<1280xf32, strided<[1], offset: ?>>, memref<1280xf32, strided<[1], offset: ?>>, memref<1280xf32, strided<[1], offset: ?>>, memref<1280x1280x3x3xf32, strided<[11520, 9, 3, 1], offset: ?>>, memref<1280xf32, strided<[1], offset: ?>>, memref<1280xf32, strided<[1], offset: ?>>, memref<1280xf32, strided<[1], offset: ?>>, memref<1280x1280x3x3xf32, strided<[11520, 9, 3, 1], offset: ?>>, memref<1280xf32, strided<[1], offset: ?>>, memref<1280x1280xf32, strided<[1280, 1], offset: ?>>, memref<1280xf32, strided<[1], offset: ?>>, memref<1280xf32, strided<[1], offset: ?>>, memref<1280xf32, strided<[1], offset: ?>>, memref<1280x1280x3x3xf32, strided<[11520, 9, 3, 1], offset: ?>>, memref<1280xf32, strided<[1], offset: ?>>, memref<1280xf32, strided<[1], offset: ?>>, memref<1280xf32, strided<[1], offset: ?>>, memref<1280x1280x3x3xf32, strided<[11520, 9, 3, 1], offset: ?>>, memref<1280xf32, strided<[1], offset: ?>>, memref<1280x1280xf32, strided<[1280, 1], offset: ?>>, memref<1280xf32, strided<[1], offset: ?>>, memref<1280xf32, strided<[1], offset: ?>>, memref<1280xf32, strided<[1], offset: ?>>, memref<1280x1280x3x3xf32, strided<[11520, 9, 3, 1], offset: ?>>, memref<1280xf32, strided<[1], offset: ?>>, memref<1280xf32, strided<[1], offset: ?>>, memref<1280xf32, strided<[1], offset: ?>>, memref<1280x1280xf32, strided<[1280, 1], offset: ?>>, memref<1280xf32, strided<[1], offset: ?>>, memref<1280xf32, strided<[1], offset: ?>>, memref<1280xf32, strided<[1], offset: ?>>, memref<1280x1280xf32, strided<[1280, 1], offset: ?>>, memref<1280x1280xf32, strided<[1280, 1], offset: ?>>, memref<1280x1280xf32, strided<[1280, 1], offset: ?>>, memref<1280x1280xf32, strided<[1280, 1], offset: ?>>, memref<1280xf32, strided<[1], offset: ?>>, memref<1280xf32, strided<[1], offset: ?>>, memref<1280xf32, strided<[1], offset: ?>>, memref<1280x1280xf32, strided<[1280, 1], offset: ?>>, memref<1280x1024xf32, strided<[1024, 1], offset: ?>>, memref<1x12x1024xf32, strided<[12288, 1024, 1], offset: ?>>, memref<1280x1024xf32, strided<[1024, 1], offset: ?>>, memref<1x12x1024xf32, strided<[12288, 1024, 1], offset: ?>>, memref<1280x1280xf32, strided<[1280, 1], offset: ?>>, memref<1280xf32, strided<[1], offset: ?>>, memref<1280xf32, strided<[1], offset: ?>>, memref<1280xf32, strided<[1], offset: ?>>, memref<10240x1280xf32, strided<[1280, 1], offset: ?>>, memref<10240xf32, strided<[1], offset: ?>>, memref<1280x5120xf32, strided<[5120, 1], offset: ?>>, memref<1280xf32, strided<[1], offset: ?>>, memref<1280x1280xf32, strided<[1280, 1], offset: ?>>, memref<1280xf32, strided<[1], offset: ?>>, memref<1280xf32, strided<[1], offset: ?>>, memref<1280xf32, strided<[1], offset: ?>>, memref<1280x1280x3x3xf32, strided<[11520, 9, 3, 1], offset: ?>>, memref<1280xf32, strided<[1], offset: ?>>, memref<1280x1280xf32, strided<[1280, 1], offset: ?>>, memref<1280xf32, strided<[1], offset: ?>>, memref<1280xf32, strided<[1], offset: ?>>, memref<1280xf32, strided<[1], offset: ?>>, memref<1280x1280x3x3xf32, strided<[11520, 9, 3, 1], offset: ?>>, memref<1280xf32, strided<[1], offset: ?>>, memref<2560xf32, strided<[1], offset: ?>>, memref<2560xf32, strided<[1], offset: ?>>, memref<1280x2560x3x3xf32, strided<[23040, 9, 3, 1], offset: ?>>, memref<1280xf32, strided<[1], offset: ?>>, memref<1280x1280xf32, strided<[1280, 1], offset: ?>>, memref<1280xf32, strided<[1], offset: ?>>, memref<1280xf32, strided<[1], offset: ?>>, memref<1280xf32, strided<[1], offset: ?>>, memref<1280x1280x3x3xf32, strided<[11520, 9, 3, 1], offset: ?>>, memref<1280xf32, strided<[1], offset: ?>>, memref<1280x2560x1x1xf32, strided<[2560, 1, 1, 1], offset: ?>>, memref<1280xf32, strided<[1], offset: ?>>, memref<2560xf32, strided<[1], offset: ?>>, memref<2560xf32, strided<[1], offset: ?>>, memref<1280x2560x3x3xf32, strided<[23040, 9, 3, 1], offset: ?>>, memref<1280xf32, strided<[1], offset: ?>>, memref<1280x1280xf32, strided<[1280, 1], offset: ?>>, memref<1280xf32, strided<[1], offset: ?>>, memref<1280xf32, strided<[1], offset: ?>>, memref<1280xf32, strided<[1], offset: ?>>, memref<1280x1280x3x3xf32, strided<[11520, 9, 3, 1], offset: ?>>, memref<1280xf32, strided<[1], offset: ?>>, memref<1280x2560x1x1xf32, strided<[2560, 1, 1, 1], offset: ?>>, memref<1280xf32, strided<[1], offset: ?>>, memref<2560xf32, strided<[1], offset: ?>>, memref<2560xf32, strided<[1], offset: ?>>, memref<1280x2560x3x3xf32, strided<[23040, 9, 3, 1], offset: ?>>, memref<1280xf32, strided<[1], offset: ?>>, memref<1280x1280xf32, strided<[1280, 1], offset: ?>>, memref<1280xf32, strided<[1], offset: ?>>, memref<1280xf32, strided<[1], offset: ?>>, memref<1280xf32, strided<[1], offset: ?>>, memref<1280x1280x3x3xf32, strided<[11520, 9, 3, 1], offset: ?>>, memref<1280xf32, strided<[1], offset: ?>>, memref<1280x2560x1x1xf32, strided<[2560, 1, 1, 1], offset: ?>>, memref<1280xf32, strided<[1], offset: ?>>, memref<1280x1280x3x3xf32, strided<[11520, 9, 3, 1], offset: ?>>, memref<1280xf32, strided<[1], offset: ?>>, memref<2560xf32, strided<[1], offset: ?>>, memref<2560xf32, strided<[1], offset: ?>>, memref<1280x2560x3x3xf32, strided<[23040, 9, 3, 1], offset: ?>>, memref<1280xf32, strided<[1], offset: ?>>, memref<1280x1280xf32, strided<[1280, 1], offset: ?>>, memref<1280xf32, strided<[1], offset: ?>>, memref<1280xf32, strided<[1], offset: ?>>, memref<1280xf32, strided<[1], offset: ?>>, memref<1280x1280x3x3xf32, strided<[11520, 9, 3, 1], offset: ?>>, memref<1280xf32, strided<[1], offset: ?>>, memref<1280x2560x1x1xf32, strided<[2560, 1, 1, 1], offset: ?>>, memref<1280xf32, strided<[1], offset: ?>>, memref<1280xf32, strided<[1], offset: ?>>, memref<1280xf32, strided<[1], offset: ?>>, memref<1280x1280xf32, strided<[1280, 1], offset: ?>>, memref<1280xf32, strided<[1], offset: ?>>, memref<1280xf32, strided<[1], offset: ?>>, memref<1280xf32, strided<[1], offset: ?>>, memref<1280x1280xf32, strided<[1280, 1], offset: ?>>, memref<1280x1280xf32, strided<[1280, 1], offset: ?>>, memref<1280x1280xf32, strided<[1280, 1], offset: ?>>, memref<1280x1280xf32, strided<[1280, 1], offset: ?>>, memref<1280xf32, strided<[1], offset: ?>>, memref<1280xf32, strided<[1], offset: ?>>, memref<1280xf32, strided<[1], offset: ?>>, memref<1280x1280xf32, strided<[1280, 1], offset: ?>>, memref<1280x1024xf32, strided<[1024, 1], offset: ?>>, memref<1x12x1024xf32, strided<[12288, 1024, 1], offset: ?>>, memref<1280x1024xf32, strided<[1024, 1], offset: ?>>, memref<1x12x1024xf32, strided<[12288, 1024, 1], offset: ?>>, memref<1280x1280xf32, strided<[1280, 1], offset: ?>>, memref<1280xf32, strided<[1], offset: ?>>, memref<1280xf32, strided<[1], offset: ?>>, memref<1280xf32, strided<[1], offset: ?>>, memref<10240x1280xf32, strided<[1280, 1], offset: ?>>, memref<10240xf32, strided<[1], offset: ?>>, memref<1280x5120xf32, strided<[5120, 1], offset: ?>>, memref<1280xf32, strided<[1], offset: ?>>, memref<1280x1280xf32, strided<[1280, 1], offset: ?>>, memref<1280xf32, strided<[1], offset: ?>>, memref<2560xf32, strided<[1], offset: ?>>, memref<2560xf32, strided<[1], offset: ?>>, memref<1280x2560x3x3xf32, strided<[23040, 9, 3, 1], offset: ?>>, memref<1280xf32, strided<[1], offset: ?>>, memref<1280x1280xf32, strided<[1280, 1], offset: ?>>, memref<1280xf32, strided<[1], offset: ?>>, memref<1280xf32, strided<[1], offset: ?>>, memref<1280xf32, strided<[1], offset: ?>>, memref<1280x1280x3x3xf32, strided<[11520, 9, 3, 1], offset: ?>>, memref<1280xf32, strided<[1], offset: ?>>, memref<1280x2560x1x1xf32, strided<[2560, 1, 1, 1], offset: ?>>, memref<1280xf32, strided<[1], offset: ?>>, memref<1280xf32, strided<[1], offset: ?>>, memref<1280xf32, strided<[1], offset: ?>>, memref<1280x1280xf32, strided<[1280, 1], offset: ?>>, memref<1280xf32, strided<[1], offset: ?>>, memref<1280xf32, strided<[1], offset: ?>>, memref<1280xf32, strided<[1], offset: ?>>, memref<1280x1280xf32, strided<[1280, 1], offset: ?>>, memref<1280x1280xf32, strided<[1280, 1], offset: ?>>, memref<1280x1280xf32, strided<[1280, 1], offset: ?>>, memref<1280x1280xf32, strided<[1280, 1], offset: ?>>, memref<1280xf32, strided<[1], offset: ?>>, memref<1280xf32, strided<[1], offset: ?>>, memref<1280xf32, strided<[1], offset: ?>>, memref<1280x1280xf32, strided<[1280, 1], offset: ?>>, memref<1280x1024xf32, strided<[1024, 1], offset: ?>>, memref<1x12x1024xf32, strided<[12288, 1024, 1], offset: ?>>, memref<1280x1024xf32, strided<[1024, 1], offset: ?>>, memref<1x12x1024xf32, strided<[12288, 1024, 1], offset: ?>>, memref<1280x1280xf32, strided<[1280, 1], offset: ?>>, memref<1280xf32, strided<[1], offset: ?>>, memref<1280xf32, strided<[1], offset: ?>>, memref<1280xf32, strided<[1], offset: ?>>, memref<10240x1280xf32, strided<[1280, 1], offset: ?>>, memref<10240xf32, strided<[1], offset: ?>>, memref<1280x5120xf32, strided<[5120, 1], offset: ?>>, memref<1280xf32, strided<[1], offset: ?>>, memref<1280x1280xf32, strided<[1280, 1], offset: ?>>, memref<1280xf32, strided<[1], offset: ?>>, memref<1920xf32, strided<[1], offset: ?>>, memref<1920xf32, strided<[1], offset: ?>>, memref<1280x1920x3x3xf32, strided<[17280, 9, 3, 1], offset: ?>>, memref<1280xf32, strided<[1], offset: ?>>, memref<1280x1280xf32, strided<[1280, 1], offset: ?>>, memref<1280xf32, strided<[1], offset: ?>>, memref<1280xf32, strided<[1], offset: ?>>, memref<1280xf32, strided<[1], offset: ?>>, memref<1280x1280x3x3xf32, strided<[11520, 9, 3, 1], offset: ?>>, memref<1280xf32, strided<[1], offset: ?>>, memref<1280x1920x1x1xf32, strided<[1920, 1, 1, 1], offset: ?>>, memref<1280xf32, strided<[1], offset: ?>>, memref<1280xf32, strided<[1], offset: ?>>, memref<1280xf32, strided<[1], offset: ?>>, memref<1280x1280xf32, strided<[1280, 1], offset: ?>>, memref<1280xf32, strided<[1], offset: ?>>, memref<1280xf32, strided<[1], offset: ?>>, memref<1280xf32, strided<[1], offset: ?>>, memref<1280x1280xf32, strided<[1280, 1], offset: ?>>, memref<1280x1280xf32, strided<[1280, 1], offset: ?>>, memref<1280x1280xf32, strided<[1280, 1], offset: ?>>, memref<1280x1280xf32, strided<[1280, 1], offset: ?>>, memref<1280xf32, strided<[1], offset: ?>>, memref<1280xf32, strided<[1], offset: ?>>, memref<1280xf32, strided<[1], offset: ?>>, memref<1280x1280xf32, strided<[1280, 1], offset: ?>>, memref<1280x1024xf32, strided<[1024, 1], offset: ?>>, memref<1x12x1024xf32, strided<[12288, 1024, 1], offset: ?>>, memref<1280x1024xf32, strided<[1024, 1], offset: ?>>, memref<1x12x1024xf32, strided<[12288, 1024, 1], offset: ?>>, memref<1280x1280xf32, strided<[1280, 1], offset: ?>>, memref<1280xf32, strided<[1], offset: ?>>, memref<1280xf32, strided<[1], offset: ?>>, memref<1280xf32, strided<[1], offset: ?>>, memref<10240x1280xf32, strided<[1280, 1], offset: ?>>, memref<10240xf32, strided<[1], offset: ?>>, memref<1280x5120xf32, strided<[5120, 1], offset: ?>>, memref<1280xf32, strided<[1], offset: ?>>, memref<1280x1280xf32, strided<[1280, 1], offset: ?>>, memref<1280xf32, strided<[1], offset: ?>>, memref<1280x1280x3x3xf32, strided<[11520, 9, 3, 1], offset: ?>>, memref<1280xf32, strided<[1], offset: ?>>, memref<1920xf32, strided<[1], offset: ?>>, memref<1920xf32, strided<[1], offset: ?>>, memref<640x1920x3x3xf32, strided<[17280, 9, 3, 1], offset: ?>>, memref<640xf32, strided<[1], offset: ?>>, memref<640x1280xf32, strided<[1280, 1], offset: ?>>, memref<640xf32, strided<[1], offset: ?>>, memref<640xf32, strided<[1], offset: ?>>, memref<640xf32, strided<[1], offset: ?>>, memref<640x640x3x3xf32, strided<[5760, 9, 3, 1], offset: ?>>, memref<640xf32, strided<[1], offset: ?>>, memref<640x1920x1x1xf32, strided<[1920, 1, 1, 1], offset: ?>>, memref<640xf32, strided<[1], offset: ?>>, memref<640xf32, strided<[1], offset: ?>>, memref<640xf32, strided<[1], offset: ?>>, memref<640x640xf32, strided<[640, 1], offset: ?>>, memref<640xf32, strided<[1], offset: ?>>, memref<640xf32, strided<[1], offset: ?>>, memref<640xf32, strided<[1], offset: ?>>, memref<640x640xf32, strided<[640, 1], offset: ?>>, memref<640x640xf32, strided<[640, 1], offset: ?>>, memref<640x640xf32, strided<[640, 1], offset: ?>>, memref<640x640xf32, strided<[640, 1], offset: ?>>, memref<640xf32, strided<[1], offset: ?>>, memref<640xf32, strided<[1], offset: ?>>, memref<640xf32, strided<[1], offset: ?>>, memref<640x640xf32, strided<[640, 1], offset: ?>>, memref<640x1024xf32, strided<[1024, 1], offset: ?>>, memref<1x12x1024xf32, strided<[12288, 1024, 1], offset: ?>>, memref<640x1024xf32, strided<[1024, 1], offset: ?>>, memref<1x12x1024xf32, strided<[12288, 1024, 1], offset: ?>>, memref<640x640xf32, strided<[640, 1], offset: ?>>, memref<640xf32, strided<[1], offset: ?>>, memref<640xf32, strided<[1], offset: ?>>, memref<640xf32, strided<[1], offset: ?>>, memref<5120x640xf32, strided<[640, 1], offset: ?>>, memref<5120xf32, strided<[1], offset: ?>>, memref<640x2560xf32, strided<[2560, 1], offset: ?>>, memref<640xf32, strided<[1], offset: ?>>, memref<640x640xf32, strided<[640, 1], offset: ?>>, memref<640xf32, strided<[1], offset: ?>>, memref<1280xf32, strided<[1], offset: ?>>, memref<1280xf32, strided<[1], offset: ?>>, memref<640x1280x3x3xf32, strided<[11520, 9, 3, 1], offset: ?>>, memref<640xf32, strided<[1], offset: ?>>, memref<640x1280xf32, strided<[1280, 1], offset: ?>>, memref<640xf32, strided<[1], offset: ?>>, memref<640xf32, strided<[1], offset: ?>>, memref<640xf32, strided<[1], offset: ?>>, memref<640x640x3x3xf32, strided<[5760, 9, 3, 1], offset: ?>>, memref<640xf32, strided<[1], offset: ?>>, memref<640x1280x1x1xf32, strided<[1280, 1, 1, 1], offset: ?>>, memref<640xf32, strided<[1], offset: ?>>, memref<640xf32, strided<[1], offset: ?>>, memref<640xf32, strided<[1], offset: ?>>, memref<640x640xf32, strided<[640, 1], offset: ?>>, memref<640xf32, strided<[1], offset: ?>>, memref<640xf32, strided<[1], offset: ?>>, memref<640xf32, strided<[1], offset: ?>>, memref<640x640xf32, strided<[640, 1], offset: ?>>, memref<640x640xf32, strided<[640, 1], offset: ?>>, memref<640x640xf32, strided<[640, 1], offset: ?>>, memref<640x640xf32, strided<[640, 1], offset: ?>>, memref<640xf32, strided<[1], offset: ?>>, memref<640xf32, strided<[1], offset: ?>>, memref<640xf32, strided<[1], offset: ?>>, memref<640x640xf32, strided<[640, 1], offset: ?>>, memref<640x1024xf32, strided<[1024, 1], offset: ?>>, memref<1x12x1024xf32, strided<[12288, 1024, 1], offset: ?>>, memref<640x1024xf32, strided<[1024, 1], offset: ?>>, memref<1x12x1024xf32, strided<[12288, 1024, 1], offset: ?>>, memref<640x640xf32, strided<[640, 1], offset: ?>>, memref<640xf32, strided<[1], offset: ?>>, memref<640xf32, strided<[1], offset: ?>>, memref<640xf32, strided<[1], offset: ?>>, memref<5120x640xf32, strided<[640, 1], offset: ?>>, memref<5120xf32, strided<[1], offset: ?>>, memref<640x2560xf32, strided<[2560, 1], offset: ?>>, memref<640xf32, strided<[1], offset: ?>>, memref<640x640xf32, strided<[640, 1], offset: ?>>, memref<640xf32, strided<[1], offset: ?>>, memref<960xf32, strided<[1], offset: ?>>, memref<960xf32, strided<[1], offset: ?>>, memref<640x960x3x3xf32, strided<[8640, 9, 3, 1], offset: ?>>, memref<640xf32, strided<[1], offset: ?>>, memref<640x1280xf32, strided<[1280, 1], offset: ?>>, memref<640xf32, strided<[1], offset: ?>>, memref<640xf32, strided<[1], offset: ?>>, memref<640xf32, strided<[1], offset: ?>>, memref<640x640x3x3xf32, strided<[5760, 9, 3, 1], offset: ?>>, memref<640xf32, strided<[1], offset: ?>>, memref<640x960x1x1xf32, strided<[960, 1, 1, 1], offset: ?>>, memref<640xf32, strided<[1], offset: ?>>, memref<640xf32, strided<[1], offset: ?>>, memref<640xf32, strided<[1], offset: ?>>, memref<640x640xf32, strided<[640, 1], offset: ?>>, memref<640xf32, strided<[1], offset: ?>>, memref<640xf32, strided<[1], offset: ?>>, memref<640xf32, strided<[1], offset: ?>>, memref<640x640xf32, strided<[640, 1], offset: ?>>, memref<640x640xf32, strided<[640, 1], offset: ?>>, memref<640x640xf32, strided<[640, 1], offset: ?>>, memref<640x640xf32, strided<[640, 1], offset: ?>>, memref<640xf32, strided<[1], offset: ?>>, memref<640xf32, strided<[1], offset: ?>>, memref<640xf32, strided<[1], offset: ?>>, memref<640x640xf32, strided<[640, 1], offset: ?>>, memref<640x1024xf32, strided<[1024, 1], offset: ?>>, memref<1x12x1024xf32, strided<[12288, 1024, 1], offset: ?>>, memref<640x1024xf32, strided<[1024, 1], offset: ?>>, memref<1x12x1024xf32, strided<[12288, 1024, 1], offset: ?>>, memref<640x640xf32, strided<[640, 1], offset: ?>>, memref<640xf32, strided<[1], offset: ?>>, memref<640xf32, strided<[1], offset: ?>>, memref<640xf32, strided<[1], offset: ?>>, memref<5120x640xf32, strided<[640, 1], offset: ?>>, memref<5120xf32, strided<[1], offset: ?>>, memref<640x2560xf32, strided<[2560, 1], offset: ?>>, memref<640xf32, strided<[1], offset: ?>>, memref<640x640xf32, strided<[640, 1], offset: ?>>, memref<640xf32, strided<[1], offset: ?>>, memref<640x640x3x3xf32, strided<[5760, 9, 3, 1], offset: ?>>, memref<640xf32, strided<[1], offset: ?>>, memref<960xf32, strided<[1], offset: ?>>, memref<960xf32, strided<[1], offset: ?>>, memref<320x960x3x3xf32, strided<[8640, 9, 3, 1], offset: ?>>, memref<320xf32, strided<[1], offset: ?>>, memref<320x1280xf32, strided<[1280, 1], offset: ?>>, memref<320xf32, strided<[1], offset: ?>>, memref<320xf32, strided<[1], offset: ?>>, memref<320xf32, strided<[1], offset: ?>>, memref<320x320x3x3xf32, strided<[2880, 9, 3, 1], offset: ?>>, memref<320xf32, strided<[1], offset: ?>>, memref<320x960x1x1xf32, strided<[960, 1, 1, 1], offset: ?>>, memref<320xf32, strided<[1], offset: ?>>, memref<320xf32, strided<[1], offset: ?>>, memref<320xf32, strided<[1], offset: ?>>, memref<320x320xf32, strided<[320, 1], offset: ?>>, memref<320xf32, strided<[1], offset: ?>>, memref<320xf32, strided<[1], offset: ?>>, memref<320xf32, strided<[1], offset: ?>>, memref<320x320xf32, strided<[320, 1], offset: ?>>, memref<320x320xf32, strided<[320, 1], offset: ?>>, memref<320x320xf32, strided<[320, 1], offset: ?>>, memref<320x320xf32, strided<[320, 1], offset: ?>>, memref<320xf32, strided<[1], offset: ?>>, memref<320xf32, strided<[1], offset: ?>>, memref<320xf32, strided<[1], offset: ?>>, memref<320x320xf32, strided<[320, 1], offset: ?>>, memref<320x1024xf32, strided<[1024, 1], offset: ?>>, memref<1x12x1024xf32, strided<[12288, 1024, 1], offset: ?>>, memref<320x1024xf32, strided<[1024, 1], offset: ?>>, memref<1x12x1024xf32, strided<[12288, 1024, 1], offset: ?>>, memref<320x320xf32, strided<[320, 1], offset: ?>>, memref<320xf32, strided<[1], offset: ?>>, memref<320xf32, strided<[1], offset: ?>>, memref<320xf32, strided<[1], offset: ?>>, memref<2560x320xf32, strided<[320, 1], offset: ?>>, memref<2560xf32, strided<[1], offset: ?>>, memref<320x1280xf32, strided<[1280, 1], offset: ?>>, memref<320xf32, strided<[1], offset: ?>>, memref<320x320xf32, strided<[320, 1], offset: ?>>, memref<320xf32, strided<[1], offset: ?>>, memref<640xf32, strided<[1], offset: ?>>, memref<640xf32, strided<[1], offset: ?>>, memref<320x640x3x3xf32, strided<[5760, 9, 3, 1], offset: ?>>, memref<320xf32, strided<[1], offset: ?>>, memref<320x1280xf32, strided<[1280, 1], offset: ?>>, memref<320xf32, strided<[1], offset: ?>>, memref<320xf32, strided<[1], offset: ?>>, memref<320xf32, strided<[1], offset: ?>>, memref<320x320x3x3xf32, strided<[2880, 9, 3, 1], offset: ?>>, memref<320xf32, strided<[1], offset: ?>>, memref<320x640x1x1xf32, strided<[640, 1, 1, 1], offset: ?>>, memref<320xf32, strided<[1], offset: ?>>, memref<320xf32, strided<[1], offset: ?>>, memref<320xf32, strided<[1], offset: ?>>, memref<320x320xf32, strided<[320, 1], offset: ?>>, memref<320xf32, strided<[1], offset: ?>>, memref<320xf32, strided<[1], offset: ?>>, memref<320xf32, strided<[1], offset: ?>>, memref<320x320xf32, strided<[320, 1], offset: ?>>, memref<320x320xf32, strided<[320, 1], offset: ?>>, memref<320x320xf32, strided<[320, 1], offset: ?>>, memref<320x320xf32, strided<[320, 1], offset: ?>>, memref<320xf32, strided<[1], offset: ?>>, memref<320xf32, strided<[1], offset: ?>>, memref<320xf32, strided<[1], offset: ?>>, memref<320x320xf32, strided<[320, 1], offset: ?>>, memref<320x1024xf32, strided<[1024, 1], offset: ?>>, memref<1x12x1024xf32, strided<[12288, 1024, 1], offset: ?>>, memref<320x1024xf32, strided<[1024, 1], offset: ?>>, memref<1x12x1024xf32, strided<[12288, 1024, 1], offset: ?>>, memref<320x320xf32, strided<[320, 1], offset: ?>>, memref<320xf32, strided<[1], offset: ?>>, memref<320xf32, strided<[1], offset: ?>>, memref<320xf32, strided<[1], offset: ?>>, memref<2560x320xf32, strided<[320, 1], offset: ?>>, memref<2560xf32, strided<[1], offset: ?>>, memref<320x1280xf32, strided<[1280, 1], offset: ?>>, memref<320xf32, strided<[1], offset: ?>>, memref<320x320xf32, strided<[320, 1], offset: ?>>, memref<320xf32, strided<[1], offset: ?>>, memref<640xf32, strided<[1], offset: ?>>, memref<640xf32, strided<[1], offset: ?>>, memref<320x640x3x3xf32, strided<[5760, 9, 3, 1], offset: ?>>, memref<320xf32, strided<[1], offset: ?>>, memref<320x1280xf32, strided<[1280, 1], offset: ?>>, memref<320xf32, strided<[1], offset: ?>>, memref<320xf32, strided<[1], offset: ?>>, memref<320xf32, strided<[1], offset: ?>>, memref<320x320x3x3xf32, strided<[2880, 9, 3, 1], offset: ?>>, memref<320xf32, strided<[1], offset: ?>>, memref<320x640x1x1xf32, strided<[640, 1, 1, 1], offset: ?>>, memref<320xf32, strided<[1], offset: ?>>, memref<320xf32, strided<[1], offset: ?>>, memref<320xf32, strided<[1], offset: ?>>, memref<320x320xf32, strided<[320, 1], offset: ?>>, memref<320xf32, strided<[1], offset: ?>>, memref<320xf32, strided<[1], offset: ?>>, memref<320xf32, strided<[1], offset: ?>>, memref<320x320xf32, strided<[320, 1], offset: ?>>, memref<320x320xf32, strided<[320, 1], offset: ?>>, memref<320x320xf32, strided<[320, 1], offset: ?>>, memref<320x320xf32, strided<[320, 1], offset: ?>>, memref<320xf32, strided<[1], offset: ?>>, memref<320xf32, strided<[1], offset: ?>>, memref<320xf32, strided<[1], offset: ?>>, memref<320x320xf32, strided<[320, 1], offset: ?>>, memref<320x1024xf32, strided<[1024, 1], offset: ?>>, memref<1x12x1024xf32, strided<[12288, 1024, 1], offset: ?>>, memref<320x1024xf32, strided<[1024, 1], offset: ?>>, memref<1x12x1024xf32, strided<[12288, 1024, 1], offset: ?>>, memref<320x320xf32, strided<[320, 1], offset: ?>>, memref<320xf32, strided<[1], offset: ?>>, memref<320xf32, strided<[1], offset: ?>>, memref<320xf32, strided<[1], offset: ?>>, memref<2560x320xf32, strided<[320, 1], offset: ?>>, memref<2560xf32, strided<[1], offset: ?>>, memref<320x1280xf32, strided<[1280, 1], offset: ?>>, memref<320xf32, strided<[1], offset: ?>>, memref<320x320xf32, strided<[320, 1], offset: ?>>, memref<320xf32, strided<[1], offset: ?>>, memref<320xf32, strided<[1], offset: ?>>, memref<320xf32, strided<[1], offset: ?>>, memref<4x320x3x3xf32, strided<[2880, 9, 3, 1], offset: ?>>, memref<4xf32, strided<[1], offset: ?>>) -> memref<1x4x64x64xf32>
  func.func @forward(%arg0: memref<865910724xf32>, %arg1: memref<1x4x64x64xf32>, %arg2: memref<1xf32>, %arg3: memref<1x12x1024xf32>) -> memref<1x4x64x64xf32> {
    %subview = memref.subview %arg0[0] [409600] [1] : memref<865910724xf32> to memref<409600xf32>
    %expand_shape = memref.expand_shape %subview [[0, 1]] : memref<409600xf32> into memref<1280x320xf32>
    %subview_0 = memref.subview %arg0[409600] [1280] [1] : memref<865910724xf32> to memref<1280xf32, strided<[1], offset: 409600>>
    %subview_1 = memref.subview %arg0[410880] [1638400] [1] : memref<865910724xf32> to memref<1638400xf32, strided<[1], offset: 410880>>
    %expand_shape_2 = memref.expand_shape %subview_1 [[0, 1]] : memref<1638400xf32, strided<[1], offset: 410880>> into memref<1280x1280xf32, strided<[1280, 1], offset: 410880>>
    %subview_3 = memref.subview %arg0[2049280] [1280] [1] : memref<865910724xf32> to memref<1280xf32, strided<[1], offset: 2049280>>
    %subview_4 = memref.subview %arg0[2050560] [11520] [1] : memref<865910724xf32> to memref<11520xf32, strided<[1], offset: 2050560>>
    %expand_shape_5 = memref.expand_shape %subview_4 [[0, 1, 2, 3]] : memref<11520xf32, strided<[1], offset: 2050560>> into memref<320x4x3x3xf32, strided<[36, 9, 3, 1], offset: 2050560>>
    %subview_6 = memref.subview %arg0[2062080] [320] [1] : memref<865910724xf32> to memref<320xf32, strided<[1], offset: 2062080>>
    %subview_7 = memref.subview %arg0[2062400] [320] [1] : memref<865910724xf32> to memref<320xf32, strided<[1], offset: 2062400>>
    %subview_8 = memref.subview %arg0[2062720] [320] [1] : memref<865910724xf32> to memref<320xf32, strided<[1], offset: 2062720>>
    %subview_9 = memref.subview %arg0[2063040] [921600] [1] : memref<865910724xf32> to memref<921600xf32, strided<[1], offset: 2063040>>
    %expand_shape_10 = memref.expand_shape %subview_9 [[0, 1, 2, 3]] : memref<921600xf32, strided<[1], offset: 2063040>> into memref<320x320x3x3xf32, strided<[2880, 9, 3, 1], offset: 2063040>>
    %subview_11 = memref.subview %arg0[2984640] [320] [1] : memref<865910724xf32> to memref<320xf32, strided<[1], offset: 2984640>>
    %subview_12 = memref.subview %arg0[2984960] [409600] [1] : memref<865910724xf32> to memref<409600xf32, strided<[1], offset: 2984960>>
    %expand_shape_13 = memref.expand_shape %subview_12 [[0, 1]] : memref<409600xf32, strided<[1], offset: 2984960>> into memref<320x1280xf32, strided<[1280, 1], offset: 2984960>>
    %subview_14 = memref.subview %arg0[3394560] [320] [1] : memref<865910724xf32> to memref<320xf32, strided<[1], offset: 3394560>>
    %subview_15 = memref.subview %arg0[3394880] [320] [1] : memref<865910724xf32> to memref<320xf32, strided<[1], offset: 3394880>>
    %subview_16 = memref.subview %arg0[3395200] [320] [1] : memref<865910724xf32> to memref<320xf32, strided<[1], offset: 3395200>>
    %subview_17 = memref.subview %arg0[3395520] [921600] [1] : memref<865910724xf32> to memref<921600xf32, strided<[1], offset: 3395520>>
    %expand_shape_18 = memref.expand_shape %subview_17 [[0, 1, 2, 3]] : memref<921600xf32, strided<[1], offset: 3395520>> into memref<320x320x3x3xf32, strided<[2880, 9, 3, 1], offset: 3395520>>
    %subview_19 = memref.subview %arg0[4317120] [320] [1] : memref<865910724xf32> to memref<320xf32, strided<[1], offset: 4317120>>
    %subview_20 = memref.subview %arg0[4317440] [320] [1] : memref<865910724xf32> to memref<320xf32, strided<[1], offset: 4317440>>
    %subview_21 = memref.subview %arg0[4317760] [320] [1] : memref<865910724xf32> to memref<320xf32, strided<[1], offset: 4317760>>
    %subview_22 = memref.subview %arg0[4318080] [102400] [1] : memref<865910724xf32> to memref<102400xf32, strided<[1], offset: 4318080>>
    %expand_shape_23 = memref.expand_shape %subview_22 [[0, 1]] : memref<102400xf32, strided<[1], offset: 4318080>> into memref<320x320xf32, strided<[320, 1], offset: 4318080>>
    %subview_24 = memref.subview %arg0[4420480] [320] [1] : memref<865910724xf32> to memref<320xf32, strided<[1], offset: 4420480>>
    %subview_25 = memref.subview %arg0[4420800] [320] [1] : memref<865910724xf32> to memref<320xf32, strided<[1], offset: 4420800>>
    %subview_26 = memref.subview %arg0[4421120] [320] [1] : memref<865910724xf32> to memref<320xf32, strided<[1], offset: 4421120>>
    %subview_27 = memref.subview %arg0[4421440] [102400] [1] : memref<865910724xf32> to memref<102400xf32, strided<[1], offset: 4421440>>
    %expand_shape_28 = memref.expand_shape %subview_27 [[0, 1]] : memref<102400xf32, strided<[1], offset: 4421440>> into memref<320x320xf32, strided<[320, 1], offset: 4421440>>
    %subview_29 = memref.subview %arg0[4523840] [102400] [1] : memref<865910724xf32> to memref<102400xf32, strided<[1], offset: 4523840>>
    %expand_shape_30 = memref.expand_shape %subview_29 [[0, 1]] : memref<102400xf32, strided<[1], offset: 4523840>> into memref<320x320xf32, strided<[320, 1], offset: 4523840>>
    %subview_31 = memref.subview %arg0[4626240] [102400] [1] : memref<865910724xf32> to memref<102400xf32, strided<[1], offset: 4626240>>
    %expand_shape_32 = memref.expand_shape %subview_31 [[0, 1]] : memref<102400xf32, strided<[1], offset: 4626240>> into memref<320x320xf32, strided<[320, 1], offset: 4626240>>
    %subview_33 = memref.subview %arg0[4728640] [102400] [1] : memref<865910724xf32> to memref<102400xf32, strided<[1], offset: 4728640>>
    %expand_shape_34 = memref.expand_shape %subview_33 [[0, 1]] : memref<102400xf32, strided<[1], offset: 4728640>> into memref<320x320xf32, strided<[320, 1], offset: 4728640>>
    %subview_35 = memref.subview %arg0[4831040] [320] [1] : memref<865910724xf32> to memref<320xf32, strided<[1], offset: 4831040>>
    %subview_36 = memref.subview %arg0[4831360] [320] [1] : memref<865910724xf32> to memref<320xf32, strided<[1], offset: 4831360>>
    %subview_37 = memref.subview %arg0[4831680] [320] [1] : memref<865910724xf32> to memref<320xf32, strided<[1], offset: 4831680>>
    %subview_38 = memref.subview %arg0[4832000] [102400] [1] : memref<865910724xf32> to memref<102400xf32, strided<[1], offset: 4832000>>
    %expand_shape_39 = memref.expand_shape %subview_38 [[0, 1]] : memref<102400xf32, strided<[1], offset: 4832000>> into memref<320x320xf32, strided<[320, 1], offset: 4832000>>
    %subview_40 = memref.subview %arg0[4934400] [327680] [1] : memref<865910724xf32> to memref<327680xf32, strided<[1], offset: 4934400>>
    %expand_shape_41 = memref.expand_shape %subview_40 [[0, 1]] : memref<327680xf32, strided<[1], offset: 4934400>> into memref<320x1024xf32, strided<[1024, 1], offset: 4934400>>
    %subview_42 = memref.subview %arg0[5262080] [327680] [1] : memref<865910724xf32> to memref<327680xf32, strided<[1], offset: 5262080>>
    %expand_shape_43 = memref.expand_shape %subview_42 [[0, 1]] : memref<327680xf32, strided<[1], offset: 5262080>> into memref<320x1024xf32, strided<[1024, 1], offset: 5262080>>
    %subview_44 = memref.subview %arg0[5589760] [102400] [1] : memref<865910724xf32> to memref<102400xf32, strided<[1], offset: 5589760>>
    %expand_shape_45 = memref.expand_shape %subview_44 [[0, 1]] : memref<102400xf32, strided<[1], offset: 5589760>> into memref<320x320xf32, strided<[320, 1], offset: 5589760>>
    %subview_46 = memref.subview %arg0[5692160] [320] [1] : memref<865910724xf32> to memref<320xf32, strided<[1], offset: 5692160>>
    %subview_47 = memref.subview %arg0[5692480] [320] [1] : memref<865910724xf32> to memref<320xf32, strided<[1], offset: 5692480>>
    %subview_48 = memref.subview %arg0[5692800] [320] [1] : memref<865910724xf32> to memref<320xf32, strided<[1], offset: 5692800>>
    %subview_49 = memref.subview %arg0[5693120] [819200] [1] : memref<865910724xf32> to memref<819200xf32, strided<[1], offset: 5693120>>
    %expand_shape_50 = memref.expand_shape %subview_49 [[0, 1]] : memref<819200xf32, strided<[1], offset: 5693120>> into memref<2560x320xf32, strided<[320, 1], offset: 5693120>>
    %subview_51 = memref.subview %arg0[6512320] [2560] [1] : memref<865910724xf32> to memref<2560xf32, strided<[1], offset: 6512320>>
    %subview_52 = memref.subview %arg0[6514880] [409600] [1] : memref<865910724xf32> to memref<409600xf32, strided<[1], offset: 6514880>>
    %expand_shape_53 = memref.expand_shape %subview_52 [[0, 1]] : memref<409600xf32, strided<[1], offset: 6514880>> into memref<320x1280xf32, strided<[1280, 1], offset: 6514880>>
    %subview_54 = memref.subview %arg0[6924480] [320] [1] : memref<865910724xf32> to memref<320xf32, strided<[1], offset: 6924480>>
    %subview_55 = memref.subview %arg0[6924800] [102400] [1] : memref<865910724xf32> to memref<102400xf32, strided<[1], offset: 6924800>>
    %expand_shape_56 = memref.expand_shape %subview_55 [[0, 1]] : memref<102400xf32, strided<[1], offset: 6924800>> into memref<320x320xf32, strided<[320, 1], offset: 6924800>>
    %subview_57 = memref.subview %arg0[7027200] [320] [1] : memref<865910724xf32> to memref<320xf32, strided<[1], offset: 7027200>>
    %subview_58 = memref.subview %arg0[7027520] [320] [1] : memref<865910724xf32> to memref<320xf32, strided<[1], offset: 7027520>>
    %subview_59 = memref.subview %arg0[7027840] [320] [1] : memref<865910724xf32> to memref<320xf32, strided<[1], offset: 7027840>>
    %subview_60 = memref.subview %arg0[7028160] [921600] [1] : memref<865910724xf32> to memref<921600xf32, strided<[1], offset: 7028160>>
    %expand_shape_61 = memref.expand_shape %subview_60 [[0, 1, 2, 3]] : memref<921600xf32, strided<[1], offset: 7028160>> into memref<320x320x3x3xf32, strided<[2880, 9, 3, 1], offset: 7028160>>
    %subview_62 = memref.subview %arg0[7949760] [320] [1] : memref<865910724xf32> to memref<320xf32, strided<[1], offset: 7949760>>
    %subview_63 = memref.subview %arg0[7950080] [409600] [1] : memref<865910724xf32> to memref<409600xf32, strided<[1], offset: 7950080>>
    %expand_shape_64 = memref.expand_shape %subview_63 [[0, 1]] : memref<409600xf32, strided<[1], offset: 7950080>> into memref<320x1280xf32, strided<[1280, 1], offset: 7950080>>
    %subview_65 = memref.subview %arg0[8359680] [320] [1] : memref<865910724xf32> to memref<320xf32, strided<[1], offset: 8359680>>
    %subview_66 = memref.subview %arg0[8360000] [320] [1] : memref<865910724xf32> to memref<320xf32, strided<[1], offset: 8360000>>
    %subview_67 = memref.subview %arg0[8360320] [320] [1] : memref<865910724xf32> to memref<320xf32, strided<[1], offset: 8360320>>
    %subview_68 = memref.subview %arg0[8360640] [921600] [1] : memref<865910724xf32> to memref<921600xf32, strided<[1], offset: 8360640>>
    %expand_shape_69 = memref.expand_shape %subview_68 [[0, 1, 2, 3]] : memref<921600xf32, strided<[1], offset: 8360640>> into memref<320x320x3x3xf32, strided<[2880, 9, 3, 1], offset: 8360640>>
    %subview_70 = memref.subview %arg0[9282240] [320] [1] : memref<865910724xf32> to memref<320xf32, strided<[1], offset: 9282240>>
    %subview_71 = memref.subview %arg0[9282560] [320] [1] : memref<865910724xf32> to memref<320xf32, strided<[1], offset: 9282560>>
    %subview_72 = memref.subview %arg0[9282880] [320] [1] : memref<865910724xf32> to memref<320xf32, strided<[1], offset: 9282880>>
    %subview_73 = memref.subview %arg0[9283200] [102400] [1] : memref<865910724xf32> to memref<102400xf32, strided<[1], offset: 9283200>>
    %expand_shape_74 = memref.expand_shape %subview_73 [[0, 1]] : memref<102400xf32, strided<[1], offset: 9283200>> into memref<320x320xf32, strided<[320, 1], offset: 9283200>>
    %subview_75 = memref.subview %arg0[9385600] [320] [1] : memref<865910724xf32> to memref<320xf32, strided<[1], offset: 9385600>>
    %subview_76 = memref.subview %arg0[9385920] [320] [1] : memref<865910724xf32> to memref<320xf32, strided<[1], offset: 9385920>>
    %subview_77 = memref.subview %arg0[9386240] [320] [1] : memref<865910724xf32> to memref<320xf32, strided<[1], offset: 9386240>>
    %subview_78 = memref.subview %arg0[9386560] [102400] [1] : memref<865910724xf32> to memref<102400xf32, strided<[1], offset: 9386560>>
    %expand_shape_79 = memref.expand_shape %subview_78 [[0, 1]] : memref<102400xf32, strided<[1], offset: 9386560>> into memref<320x320xf32, strided<[320, 1], offset: 9386560>>
    %subview_80 = memref.subview %arg0[9488960] [102400] [1] : memref<865910724xf32> to memref<102400xf32, strided<[1], offset: 9488960>>
    %expand_shape_81 = memref.expand_shape %subview_80 [[0, 1]] : memref<102400xf32, strided<[1], offset: 9488960>> into memref<320x320xf32, strided<[320, 1], offset: 9488960>>
    %subview_82 = memref.subview %arg0[9591360] [102400] [1] : memref<865910724xf32> to memref<102400xf32, strided<[1], offset: 9591360>>
    %expand_shape_83 = memref.expand_shape %subview_82 [[0, 1]] : memref<102400xf32, strided<[1], offset: 9591360>> into memref<320x320xf32, strided<[320, 1], offset: 9591360>>
    %subview_84 = memref.subview %arg0[9693760] [102400] [1] : memref<865910724xf32> to memref<102400xf32, strided<[1], offset: 9693760>>
    %expand_shape_85 = memref.expand_shape %subview_84 [[0, 1]] : memref<102400xf32, strided<[1], offset: 9693760>> into memref<320x320xf32, strided<[320, 1], offset: 9693760>>
    %subview_86 = memref.subview %arg0[9796160] [320] [1] : memref<865910724xf32> to memref<320xf32, strided<[1], offset: 9796160>>
    %subview_87 = memref.subview %arg0[9796480] [320] [1] : memref<865910724xf32> to memref<320xf32, strided<[1], offset: 9796480>>
    %subview_88 = memref.subview %arg0[9796800] [320] [1] : memref<865910724xf32> to memref<320xf32, strided<[1], offset: 9796800>>
    %subview_89 = memref.subview %arg0[9797120] [102400] [1] : memref<865910724xf32> to memref<102400xf32, strided<[1], offset: 9797120>>
    %expand_shape_90 = memref.expand_shape %subview_89 [[0, 1]] : memref<102400xf32, strided<[1], offset: 9797120>> into memref<320x320xf32, strided<[320, 1], offset: 9797120>>
    %subview_91 = memref.subview %arg0[9899520] [327680] [1] : memref<865910724xf32> to memref<327680xf32, strided<[1], offset: 9899520>>
    %expand_shape_92 = memref.expand_shape %subview_91 [[0, 1]] : memref<327680xf32, strided<[1], offset: 9899520>> into memref<320x1024xf32, strided<[1024, 1], offset: 9899520>>
    %subview_93 = memref.subview %arg0[10227200] [327680] [1] : memref<865910724xf32> to memref<327680xf32, strided<[1], offset: 10227200>>
    %expand_shape_94 = memref.expand_shape %subview_93 [[0, 1]] : memref<327680xf32, strided<[1], offset: 10227200>> into memref<320x1024xf32, strided<[1024, 1], offset: 10227200>>
    %subview_95 = memref.subview %arg0[10554880] [102400] [1] : memref<865910724xf32> to memref<102400xf32, strided<[1], offset: 10554880>>
    %expand_shape_96 = memref.expand_shape %subview_95 [[0, 1]] : memref<102400xf32, strided<[1], offset: 10554880>> into memref<320x320xf32, strided<[320, 1], offset: 10554880>>
    %subview_97 = memref.subview %arg0[10657280] [320] [1] : memref<865910724xf32> to memref<320xf32, strided<[1], offset: 10657280>>
    %subview_98 = memref.subview %arg0[10657600] [320] [1] : memref<865910724xf32> to memref<320xf32, strided<[1], offset: 10657600>>
    %subview_99 = memref.subview %arg0[10657920] [320] [1] : memref<865910724xf32> to memref<320xf32, strided<[1], offset: 10657920>>
    %subview_100 = memref.subview %arg0[10658240] [819200] [1] : memref<865910724xf32> to memref<819200xf32, strided<[1], offset: 10658240>>
    %expand_shape_101 = memref.expand_shape %subview_100 [[0, 1]] : memref<819200xf32, strided<[1], offset: 10658240>> into memref<2560x320xf32, strided<[320, 1], offset: 10658240>>
    %subview_102 = memref.subview %arg0[11477440] [2560] [1] : memref<865910724xf32> to memref<2560xf32, strided<[1], offset: 11477440>>
    %subview_103 = memref.subview %arg0[11480000] [409600] [1] : memref<865910724xf32> to memref<409600xf32, strided<[1], offset: 11480000>>
    %expand_shape_104 = memref.expand_shape %subview_103 [[0, 1]] : memref<409600xf32, strided<[1], offset: 11480000>> into memref<320x1280xf32, strided<[1280, 1], offset: 11480000>>
    %subview_105 = memref.subview %arg0[11889600] [320] [1] : memref<865910724xf32> to memref<320xf32, strided<[1], offset: 11889600>>
    %subview_106 = memref.subview %arg0[11889920] [102400] [1] : memref<865910724xf32> to memref<102400xf32, strided<[1], offset: 11889920>>
    %expand_shape_107 = memref.expand_shape %subview_106 [[0, 1]] : memref<102400xf32, strided<[1], offset: 11889920>> into memref<320x320xf32, strided<[320, 1], offset: 11889920>>
    %subview_108 = memref.subview %arg0[11992320] [320] [1] : memref<865910724xf32> to memref<320xf32, strided<[1], offset: 11992320>>
    %subview_109 = memref.subview %arg0[11992640] [921600] [1] : memref<865910724xf32> to memref<921600xf32, strided<[1], offset: 11992640>>
    %expand_shape_110 = memref.expand_shape %subview_109 [[0, 1, 2, 3]] : memref<921600xf32, strided<[1], offset: 11992640>> into memref<320x320x3x3xf32, strided<[2880, 9, 3, 1], offset: 11992640>>
    %subview_111 = memref.subview %arg0[12914240] [320] [1] : memref<865910724xf32> to memref<320xf32, strided<[1], offset: 12914240>>
    %subview_112 = memref.subview %arg0[12914560] [320] [1] : memref<865910724xf32> to memref<320xf32, strided<[1], offset: 12914560>>
    %subview_113 = memref.subview %arg0[12914880] [320] [1] : memref<865910724xf32> to memref<320xf32, strided<[1], offset: 12914880>>
    %subview_114 = memref.subview %arg0[12915200] [1843200] [1] : memref<865910724xf32> to memref<1843200xf32, strided<[1], offset: 12915200>>
    %expand_shape_115 = memref.expand_shape %subview_114 [[0, 1, 2, 3]] : memref<1843200xf32, strided<[1], offset: 12915200>> into memref<640x320x3x3xf32, strided<[2880, 9, 3, 1], offset: 12915200>>
    %subview_116 = memref.subview %arg0[14758400] [640] [1] : memref<865910724xf32> to memref<640xf32, strided<[1], offset: 14758400>>
    %subview_117 = memref.subview %arg0[14759040] [819200] [1] : memref<865910724xf32> to memref<819200xf32, strided<[1], offset: 14759040>>
    %expand_shape_118 = memref.expand_shape %subview_117 [[0, 1]] : memref<819200xf32, strided<[1], offset: 14759040>> into memref<640x1280xf32, strided<[1280, 1], offset: 14759040>>
    %subview_119 = memref.subview %arg0[15578240] [640] [1] : memref<865910724xf32> to memref<640xf32, strided<[1], offset: 15578240>>
    %subview_120 = memref.subview %arg0[15578880] [640] [1] : memref<865910724xf32> to memref<640xf32, strided<[1], offset: 15578880>>
    %subview_121 = memref.subview %arg0[15579520] [640] [1] : memref<865910724xf32> to memref<640xf32, strided<[1], offset: 15579520>>
    %subview_122 = memref.subview %arg0[15580160] [3686400] [1] : memref<865910724xf32> to memref<3686400xf32, strided<[1], offset: 15580160>>
    %expand_shape_123 = memref.expand_shape %subview_122 [[0, 1, 2, 3]] : memref<3686400xf32, strided<[1], offset: 15580160>> into memref<640x640x3x3xf32, strided<[5760, 9, 3, 1], offset: 15580160>>
    %subview_124 = memref.subview %arg0[19266560] [640] [1] : memref<865910724xf32> to memref<640xf32, strided<[1], offset: 19266560>>
    %subview_125 = memref.subview %arg0[19267200] [204800] [1] : memref<865910724xf32> to memref<204800xf32, strided<[1], offset: 19267200>>
    %expand_shape_126 = memref.expand_shape %subview_125 [[0, 1, 2, 3]] : memref<204800xf32, strided<[1], offset: 19267200>> into memref<640x320x1x1xf32, strided<[320, 1, 1, 1], offset: 19267200>>
    %subview_127 = memref.subview %arg0[19472000] [640] [1] : memref<865910724xf32> to memref<640xf32, strided<[1], offset: 19472000>>
    %subview_128 = memref.subview %arg0[19472640] [640] [1] : memref<865910724xf32> to memref<640xf32, strided<[1], offset: 19472640>>
    %subview_129 = memref.subview %arg0[19473280] [640] [1] : memref<865910724xf32> to memref<640xf32, strided<[1], offset: 19473280>>
    %subview_130 = memref.subview %arg0[19473920] [409600] [1] : memref<865910724xf32> to memref<409600xf32, strided<[1], offset: 19473920>>
    %expand_shape_131 = memref.expand_shape %subview_130 [[0, 1]] : memref<409600xf32, strided<[1], offset: 19473920>> into memref<640x640xf32, strided<[640, 1], offset: 19473920>>
    %subview_132 = memref.subview %arg0[19883520] [640] [1] : memref<865910724xf32> to memref<640xf32, strided<[1], offset: 19883520>>
    %subview_133 = memref.subview %arg0[19884160] [640] [1] : memref<865910724xf32> to memref<640xf32, strided<[1], offset: 19884160>>
    %subview_134 = memref.subview %arg0[19884800] [640] [1] : memref<865910724xf32> to memref<640xf32, strided<[1], offset: 19884800>>
    %subview_135 = memref.subview %arg0[19885440] [409600] [1] : memref<865910724xf32> to memref<409600xf32, strided<[1], offset: 19885440>>
    %expand_shape_136 = memref.expand_shape %subview_135 [[0, 1]] : memref<409600xf32, strided<[1], offset: 19885440>> into memref<640x640xf32, strided<[640, 1], offset: 19885440>>
    %subview_137 = memref.subview %arg0[20295040] [409600] [1] : memref<865910724xf32> to memref<409600xf32, strided<[1], offset: 20295040>>
    %expand_shape_138 = memref.expand_shape %subview_137 [[0, 1]] : memref<409600xf32, strided<[1], offset: 20295040>> into memref<640x640xf32, strided<[640, 1], offset: 20295040>>
    %subview_139 = memref.subview %arg0[20704640] [409600] [1] : memref<865910724xf32> to memref<409600xf32, strided<[1], offset: 20704640>>
    %expand_shape_140 = memref.expand_shape %subview_139 [[0, 1]] : memref<409600xf32, strided<[1], offset: 20704640>> into memref<640x640xf32, strided<[640, 1], offset: 20704640>>
    %subview_141 = memref.subview %arg0[21114240] [409600] [1] : memref<865910724xf32> to memref<409600xf32, strided<[1], offset: 21114240>>
    %expand_shape_142 = memref.expand_shape %subview_141 [[0, 1]] : memref<409600xf32, strided<[1], offset: 21114240>> into memref<640x640xf32, strided<[640, 1], offset: 21114240>>
    %subview_143 = memref.subview %arg0[21523840] [640] [1] : memref<865910724xf32> to memref<640xf32, strided<[1], offset: 21523840>>
    %subview_144 = memref.subview %arg0[21524480] [640] [1] : memref<865910724xf32> to memref<640xf32, strided<[1], offset: 21524480>>
    %subview_145 = memref.subview %arg0[21525120] [640] [1] : memref<865910724xf32> to memref<640xf32, strided<[1], offset: 21525120>>
    %subview_146 = memref.subview %arg0[21525760] [409600] [1] : memref<865910724xf32> to memref<409600xf32, strided<[1], offset: 21525760>>
    %expand_shape_147 = memref.expand_shape %subview_146 [[0, 1]] : memref<409600xf32, strided<[1], offset: 21525760>> into memref<640x640xf32, strided<[640, 1], offset: 21525760>>
    %subview_148 = memref.subview %arg0[21935360] [655360] [1] : memref<865910724xf32> to memref<655360xf32, strided<[1], offset: 21935360>>
    %expand_shape_149 = memref.expand_shape %subview_148 [[0, 1]] : memref<655360xf32, strided<[1], offset: 21935360>> into memref<640x1024xf32, strided<[1024, 1], offset: 21935360>>
    %subview_150 = memref.subview %arg0[22590720] [655360] [1] : memref<865910724xf32> to memref<655360xf32, strided<[1], offset: 22590720>>
    %expand_shape_151 = memref.expand_shape %subview_150 [[0, 1]] : memref<655360xf32, strided<[1], offset: 22590720>> into memref<640x1024xf32, strided<[1024, 1], offset: 22590720>>
    %subview_152 = memref.subview %arg0[23246080] [409600] [1] : memref<865910724xf32> to memref<409600xf32, strided<[1], offset: 23246080>>
    %expand_shape_153 = memref.expand_shape %subview_152 [[0, 1]] : memref<409600xf32, strided<[1], offset: 23246080>> into memref<640x640xf32, strided<[640, 1], offset: 23246080>>
    %subview_154 = memref.subview %arg0[23655680] [640] [1] : memref<865910724xf32> to memref<640xf32, strided<[1], offset: 23655680>>
    %subview_155 = memref.subview %arg0[23656320] [640] [1] : memref<865910724xf32> to memref<640xf32, strided<[1], offset: 23656320>>
    %subview_156 = memref.subview %arg0[23656960] [640] [1] : memref<865910724xf32> to memref<640xf32, strided<[1], offset: 23656960>>
    %subview_157 = memref.subview %arg0[23657600] [3276800] [1] : memref<865910724xf32> to memref<3276800xf32, strided<[1], offset: 23657600>>
    %expand_shape_158 = memref.expand_shape %subview_157 [[0, 1]] : memref<3276800xf32, strided<[1], offset: 23657600>> into memref<5120x640xf32, strided<[640, 1], offset: 23657600>>
    %subview_159 = memref.subview %arg0[26934400] [5120] [1] : memref<865910724xf32> to memref<5120xf32, strided<[1], offset: 26934400>>
    %subview_160 = memref.subview %arg0[26939520] [1638400] [1] : memref<865910724xf32> to memref<1638400xf32, strided<[1], offset: 26939520>>
    %expand_shape_161 = memref.expand_shape %subview_160 [[0, 1]] : memref<1638400xf32, strided<[1], offset: 26939520>> into memref<640x2560xf32, strided<[2560, 1], offset: 26939520>>
    %subview_162 = memref.subview %arg0[28577920] [640] [1] : memref<865910724xf32> to memref<640xf32, strided<[1], offset: 28577920>>
    %subview_163 = memref.subview %arg0[28578560] [409600] [1] : memref<865910724xf32> to memref<409600xf32, strided<[1], offset: 28578560>>
    %expand_shape_164 = memref.expand_shape %subview_163 [[0, 1]] : memref<409600xf32, strided<[1], offset: 28578560>> into memref<640x640xf32, strided<[640, 1], offset: 28578560>>
    %subview_165 = memref.subview %arg0[28988160] [640] [1] : memref<865910724xf32> to memref<640xf32, strided<[1], offset: 28988160>>
    %subview_166 = memref.subview %arg0[28988800] [640] [1] : memref<865910724xf32> to memref<640xf32, strided<[1], offset: 28988800>>
    %subview_167 = memref.subview %arg0[28989440] [640] [1] : memref<865910724xf32> to memref<640xf32, strided<[1], offset: 28989440>>
    %subview_168 = memref.subview %arg0[28990080] [3686400] [1] : memref<865910724xf32> to memref<3686400xf32, strided<[1], offset: 28990080>>
    %expand_shape_169 = memref.expand_shape %subview_168 [[0, 1, 2, 3]] : memref<3686400xf32, strided<[1], offset: 28990080>> into memref<640x640x3x3xf32, strided<[5760, 9, 3, 1], offset: 28990080>>
    %subview_170 = memref.subview %arg0[32676480] [640] [1] : memref<865910724xf32> to memref<640xf32, strided<[1], offset: 32676480>>
    %subview_171 = memref.subview %arg0[32677120] [819200] [1] : memref<865910724xf32> to memref<819200xf32, strided<[1], offset: 32677120>>
    %expand_shape_172 = memref.expand_shape %subview_171 [[0, 1]] : memref<819200xf32, strided<[1], offset: 32677120>> into memref<640x1280xf32, strided<[1280, 1], offset: 32677120>>
    %subview_173 = memref.subview %arg0[33496320] [640] [1] : memref<865910724xf32> to memref<640xf32, strided<[1], offset: 33496320>>
    %subview_174 = memref.subview %arg0[33496960] [640] [1] : memref<865910724xf32> to memref<640xf32, strided<[1], offset: 33496960>>
    %subview_175 = memref.subview %arg0[33497600] [640] [1] : memref<865910724xf32> to memref<640xf32, strided<[1], offset: 33497600>>
    %subview_176 = memref.subview %arg0[33498240] [3686400] [1] : memref<865910724xf32> to memref<3686400xf32, strided<[1], offset: 33498240>>
    %expand_shape_177 = memref.expand_shape %subview_176 [[0, 1, 2, 3]] : memref<3686400xf32, strided<[1], offset: 33498240>> into memref<640x640x3x3xf32, strided<[5760, 9, 3, 1], offset: 33498240>>
    %subview_178 = memref.subview %arg0[37184640] [640] [1] : memref<865910724xf32> to memref<640xf32, strided<[1], offset: 37184640>>
    %subview_179 = memref.subview %arg0[37185280] [640] [1] : memref<865910724xf32> to memref<640xf32, strided<[1], offset: 37185280>>
    %subview_180 = memref.subview %arg0[37185920] [640] [1] : memref<865910724xf32> to memref<640xf32, strided<[1], offset: 37185920>>
    %subview_181 = memref.subview %arg0[37186560] [409600] [1] : memref<865910724xf32> to memref<409600xf32, strided<[1], offset: 37186560>>
    %expand_shape_182 = memref.expand_shape %subview_181 [[0, 1]] : memref<409600xf32, strided<[1], offset: 37186560>> into memref<640x640xf32, strided<[640, 1], offset: 37186560>>
    %subview_183 = memref.subview %arg0[37596160] [640] [1] : memref<865910724xf32> to memref<640xf32, strided<[1], offset: 37596160>>
    %subview_184 = memref.subview %arg0[37596800] [640] [1] : memref<865910724xf32> to memref<640xf32, strided<[1], offset: 37596800>>
    %subview_185 = memref.subview %arg0[37597440] [640] [1] : memref<865910724xf32> to memref<640xf32, strided<[1], offset: 37597440>>
    %subview_186 = memref.subview %arg0[37598080] [409600] [1] : memref<865910724xf32> to memref<409600xf32, strided<[1], offset: 37598080>>
    %expand_shape_187 = memref.expand_shape %subview_186 [[0, 1]] : memref<409600xf32, strided<[1], offset: 37598080>> into memref<640x640xf32, strided<[640, 1], offset: 37598080>>
    %subview_188 = memref.subview %arg0[38007680] [409600] [1] : memref<865910724xf32> to memref<409600xf32, strided<[1], offset: 38007680>>
    %expand_shape_189 = memref.expand_shape %subview_188 [[0, 1]] : memref<409600xf32, strided<[1], offset: 38007680>> into memref<640x640xf32, strided<[640, 1], offset: 38007680>>
    %subview_190 = memref.subview %arg0[38417280] [409600] [1] : memref<865910724xf32> to memref<409600xf32, strided<[1], offset: 38417280>>
    %expand_shape_191 = memref.expand_shape %subview_190 [[0, 1]] : memref<409600xf32, strided<[1], offset: 38417280>> into memref<640x640xf32, strided<[640, 1], offset: 38417280>>
    %subview_192 = memref.subview %arg0[38826880] [409600] [1] : memref<865910724xf32> to memref<409600xf32, strided<[1], offset: 38826880>>
    %expand_shape_193 = memref.expand_shape %subview_192 [[0, 1]] : memref<409600xf32, strided<[1], offset: 38826880>> into memref<640x640xf32, strided<[640, 1], offset: 38826880>>
    %subview_194 = memref.subview %arg0[39236480] [640] [1] : memref<865910724xf32> to memref<640xf32, strided<[1], offset: 39236480>>
    %subview_195 = memref.subview %arg0[39237120] [640] [1] : memref<865910724xf32> to memref<640xf32, strided<[1], offset: 39237120>>
    %subview_196 = memref.subview %arg0[39237760] [640] [1] : memref<865910724xf32> to memref<640xf32, strided<[1], offset: 39237760>>
    %subview_197 = memref.subview %arg0[39238400] [409600] [1] : memref<865910724xf32> to memref<409600xf32, strided<[1], offset: 39238400>>
    %expand_shape_198 = memref.expand_shape %subview_197 [[0, 1]] : memref<409600xf32, strided<[1], offset: 39238400>> into memref<640x640xf32, strided<[640, 1], offset: 39238400>>
    %subview_199 = memref.subview %arg0[39648000] [655360] [1] : memref<865910724xf32> to memref<655360xf32, strided<[1], offset: 39648000>>
    %expand_shape_200 = memref.expand_shape %subview_199 [[0, 1]] : memref<655360xf32, strided<[1], offset: 39648000>> into memref<640x1024xf32, strided<[1024, 1], offset: 39648000>>
    %subview_201 = memref.subview %arg0[40303360] [655360] [1] : memref<865910724xf32> to memref<655360xf32, strided<[1], offset: 40303360>>
    %expand_shape_202 = memref.expand_shape %subview_201 [[0, 1]] : memref<655360xf32, strided<[1], offset: 40303360>> into memref<640x1024xf32, strided<[1024, 1], offset: 40303360>>
    %subview_203 = memref.subview %arg0[40958720] [409600] [1] : memref<865910724xf32> to memref<409600xf32, strided<[1], offset: 40958720>>
    %expand_shape_204 = memref.expand_shape %subview_203 [[0, 1]] : memref<409600xf32, strided<[1], offset: 40958720>> into memref<640x640xf32, strided<[640, 1], offset: 40958720>>
    %subview_205 = memref.subview %arg0[41368320] [640] [1] : memref<865910724xf32> to memref<640xf32, strided<[1], offset: 41368320>>
    %subview_206 = memref.subview %arg0[41368960] [640] [1] : memref<865910724xf32> to memref<640xf32, strided<[1], offset: 41368960>>
    %subview_207 = memref.subview %arg0[41369600] [640] [1] : memref<865910724xf32> to memref<640xf32, strided<[1], offset: 41369600>>
    %subview_208 = memref.subview %arg0[41370240] [3276800] [1] : memref<865910724xf32> to memref<3276800xf32, strided<[1], offset: 41370240>>
    %expand_shape_209 = memref.expand_shape %subview_208 [[0, 1]] : memref<3276800xf32, strided<[1], offset: 41370240>> into memref<5120x640xf32, strided<[640, 1], offset: 41370240>>
    %subview_210 = memref.subview %arg0[44647040] [5120] [1] : memref<865910724xf32> to memref<5120xf32, strided<[1], offset: 44647040>>
    %subview_211 = memref.subview %arg0[44652160] [1638400] [1] : memref<865910724xf32> to memref<1638400xf32, strided<[1], offset: 44652160>>
    %expand_shape_212 = memref.expand_shape %subview_211 [[0, 1]] : memref<1638400xf32, strided<[1], offset: 44652160>> into memref<640x2560xf32, strided<[2560, 1], offset: 44652160>>
    %subview_213 = memref.subview %arg0[46290560] [640] [1] : memref<865910724xf32> to memref<640xf32, strided<[1], offset: 46290560>>
    %subview_214 = memref.subview %arg0[46291200] [409600] [1] : memref<865910724xf32> to memref<409600xf32, strided<[1], offset: 46291200>>
    %expand_shape_215 = memref.expand_shape %subview_214 [[0, 1]] : memref<409600xf32, strided<[1], offset: 46291200>> into memref<640x640xf32, strided<[640, 1], offset: 46291200>>
    %subview_216 = memref.subview %arg0[46700800] [640] [1] : memref<865910724xf32> to memref<640xf32, strided<[1], offset: 46700800>>
    %subview_217 = memref.subview %arg0[46701440] [3686400] [1] : memref<865910724xf32> to memref<3686400xf32, strided<[1], offset: 46701440>>
    %expand_shape_218 = memref.expand_shape %subview_217 [[0, 1, 2, 3]] : memref<3686400xf32, strided<[1], offset: 46701440>> into memref<640x640x3x3xf32, strided<[5760, 9, 3, 1], offset: 46701440>>
    %subview_219 = memref.subview %arg0[50387840] [640] [1] : memref<865910724xf32> to memref<640xf32, strided<[1], offset: 50387840>>
    %subview_220 = memref.subview %arg0[50388480] [640] [1] : memref<865910724xf32> to memref<640xf32, strided<[1], offset: 50388480>>
    %subview_221 = memref.subview %arg0[50389120] [640] [1] : memref<865910724xf32> to memref<640xf32, strided<[1], offset: 50389120>>
    %subview_222 = memref.subview %arg0[50389760] [7372800] [1] : memref<865910724xf32> to memref<7372800xf32, strided<[1], offset: 50389760>>
    %expand_shape_223 = memref.expand_shape %subview_222 [[0, 1, 2, 3]] : memref<7372800xf32, strided<[1], offset: 50389760>> into memref<1280x640x3x3xf32, strided<[5760, 9, 3, 1], offset: 50389760>>
    %subview_224 = memref.subview %arg0[57762560] [1280] [1] : memref<865910724xf32> to memref<1280xf32, strided<[1], offset: 57762560>>
    %subview_225 = memref.subview %arg0[57763840] [1638400] [1] : memref<865910724xf32> to memref<1638400xf32, strided<[1], offset: 57763840>>
    %expand_shape_226 = memref.expand_shape %subview_225 [[0, 1]] : memref<1638400xf32, strided<[1], offset: 57763840>> into memref<1280x1280xf32, strided<[1280, 1], offset: 57763840>>
    %subview_227 = memref.subview %arg0[59402240] [1280] [1] : memref<865910724xf32> to memref<1280xf32, strided<[1], offset: 59402240>>
    %subview_228 = memref.subview %arg0[59403520] [1280] [1] : memref<865910724xf32> to memref<1280xf32, strided<[1], offset: 59403520>>
    %subview_229 = memref.subview %arg0[59404800] [1280] [1] : memref<865910724xf32> to memref<1280xf32, strided<[1], offset: 59404800>>
    %subview_230 = memref.subview %arg0[59406080] [14745600] [1] : memref<865910724xf32> to memref<14745600xf32, strided<[1], offset: 59406080>>
    %expand_shape_231 = memref.expand_shape %subview_230 [[0, 1, 2, 3]] : memref<14745600xf32, strided<[1], offset: 59406080>> into memref<1280x1280x3x3xf32, strided<[11520, 9, 3, 1], offset: 59406080>>
    %subview_232 = memref.subview %arg0[74151680] [1280] [1] : memref<865910724xf32> to memref<1280xf32, strided<[1], offset: 74151680>>
    %subview_233 = memref.subview %arg0[74152960] [819200] [1] : memref<865910724xf32> to memref<819200xf32, strided<[1], offset: 74152960>>
    %expand_shape_234 = memref.expand_shape %subview_233 [[0, 1, 2, 3]] : memref<819200xf32, strided<[1], offset: 74152960>> into memref<1280x640x1x1xf32, strided<[640, 1, 1, 1], offset: 74152960>>
    %subview_235 = memref.subview %arg0[74972160] [1280] [1] : memref<865910724xf32> to memref<1280xf32, strided<[1], offset: 74972160>>
    %subview_236 = memref.subview %arg0[74973440] [1280] [1] : memref<865910724xf32> to memref<1280xf32, strided<[1], offset: 74973440>>
    %subview_237 = memref.subview %arg0[74974720] [1280] [1] : memref<865910724xf32> to memref<1280xf32, strided<[1], offset: 74974720>>
    %subview_238 = memref.subview %arg0[74976000] [1638400] [1] : memref<865910724xf32> to memref<1638400xf32, strided<[1], offset: 74976000>>
    %expand_shape_239 = memref.expand_shape %subview_238 [[0, 1]] : memref<1638400xf32, strided<[1], offset: 74976000>> into memref<1280x1280xf32, strided<[1280, 1], offset: 74976000>>
    %subview_240 = memref.subview %arg0[76614400] [1280] [1] : memref<865910724xf32> to memref<1280xf32, strided<[1], offset: 76614400>>
    %subview_241 = memref.subview %arg0[76615680] [1280] [1] : memref<865910724xf32> to memref<1280xf32, strided<[1], offset: 76615680>>
    %subview_242 = memref.subview %arg0[76616960] [1280] [1] : memref<865910724xf32> to memref<1280xf32, strided<[1], offset: 76616960>>
    %subview_243 = memref.subview %arg0[76618240] [1638400] [1] : memref<865910724xf32> to memref<1638400xf32, strided<[1], offset: 76618240>>
    %expand_shape_244 = memref.expand_shape %subview_243 [[0, 1]] : memref<1638400xf32, strided<[1], offset: 76618240>> into memref<1280x1280xf32, strided<[1280, 1], offset: 76618240>>
    %subview_245 = memref.subview %arg0[78256640] [1638400] [1] : memref<865910724xf32> to memref<1638400xf32, strided<[1], offset: 78256640>>
    %expand_shape_246 = memref.expand_shape %subview_245 [[0, 1]] : memref<1638400xf32, strided<[1], offset: 78256640>> into memref<1280x1280xf32, strided<[1280, 1], offset: 78256640>>
    %subview_247 = memref.subview %arg0[79895040] [1638400] [1] : memref<865910724xf32> to memref<1638400xf32, strided<[1], offset: 79895040>>
    %expand_shape_248 = memref.expand_shape %subview_247 [[0, 1]] : memref<1638400xf32, strided<[1], offset: 79895040>> into memref<1280x1280xf32, strided<[1280, 1], offset: 79895040>>
    %subview_249 = memref.subview %arg0[81533440] [1638400] [1] : memref<865910724xf32> to memref<1638400xf32, strided<[1], offset: 81533440>>
    %expand_shape_250 = memref.expand_shape %subview_249 [[0, 1]] : memref<1638400xf32, strided<[1], offset: 81533440>> into memref<1280x1280xf32, strided<[1280, 1], offset: 81533440>>
    %subview_251 = memref.subview %arg0[83171840] [1280] [1] : memref<865910724xf32> to memref<1280xf32, strided<[1], offset: 83171840>>
    %subview_252 = memref.subview %arg0[83173120] [1280] [1] : memref<865910724xf32> to memref<1280xf32, strided<[1], offset: 83173120>>
    %subview_253 = memref.subview %arg0[83174400] [1280] [1] : memref<865910724xf32> to memref<1280xf32, strided<[1], offset: 83174400>>
    %subview_254 = memref.subview %arg0[83175680] [1638400] [1] : memref<865910724xf32> to memref<1638400xf32, strided<[1], offset: 83175680>>
    %expand_shape_255 = memref.expand_shape %subview_254 [[0, 1]] : memref<1638400xf32, strided<[1], offset: 83175680>> into memref<1280x1280xf32, strided<[1280, 1], offset: 83175680>>
    %subview_256 = memref.subview %arg0[84814080] [1310720] [1] : memref<865910724xf32> to memref<1310720xf32, strided<[1], offset: 84814080>>
    %expand_shape_257 = memref.expand_shape %subview_256 [[0, 1]] : memref<1310720xf32, strided<[1], offset: 84814080>> into memref<1280x1024xf32, strided<[1024, 1], offset: 84814080>>
    %subview_258 = memref.subview %arg0[86124800] [1310720] [1] : memref<865910724xf32> to memref<1310720xf32, strided<[1], offset: 86124800>>
    %expand_shape_259 = memref.expand_shape %subview_258 [[0, 1]] : memref<1310720xf32, strided<[1], offset: 86124800>> into memref<1280x1024xf32, strided<[1024, 1], offset: 86124800>>
    %subview_260 = memref.subview %arg0[87435520] [1638400] [1] : memref<865910724xf32> to memref<1638400xf32, strided<[1], offset: 87435520>>
    %expand_shape_261 = memref.expand_shape %subview_260 [[0, 1]] : memref<1638400xf32, strided<[1], offset: 87435520>> into memref<1280x1280xf32, strided<[1280, 1], offset: 87435520>>
    %subview_262 = memref.subview %arg0[89073920] [1280] [1] : memref<865910724xf32> to memref<1280xf32, strided<[1], offset: 89073920>>
    %subview_263 = memref.subview %arg0[89075200] [1280] [1] : memref<865910724xf32> to memref<1280xf32, strided<[1], offset: 89075200>>
    %subview_264 = memref.subview %arg0[89076480] [1280] [1] : memref<865910724xf32> to memref<1280xf32, strided<[1], offset: 89076480>>
    %subview_265 = memref.subview %arg0[89077760] [13107200] [1] : memref<865910724xf32> to memref<13107200xf32, strided<[1], offset: 89077760>>
    %expand_shape_266 = memref.expand_shape %subview_265 [[0, 1]] : memref<13107200xf32, strided<[1], offset: 89077760>> into memref<10240x1280xf32, strided<[1280, 1], offset: 89077760>>
    %subview_267 = memref.subview %arg0[102184960] [10240] [1] : memref<865910724xf32> to memref<10240xf32, strided<[1], offset: 102184960>>
    %subview_268 = memref.subview %arg0[102195200] [6553600] [1] : memref<865910724xf32> to memref<6553600xf32, strided<[1], offset: 102195200>>
    %expand_shape_269 = memref.expand_shape %subview_268 [[0, 1]] : memref<6553600xf32, strided<[1], offset: 102195200>> into memref<1280x5120xf32, strided<[5120, 1], offset: 102195200>>
    %subview_270 = memref.subview %arg0[108748800] [1280] [1] : memref<865910724xf32> to memref<1280xf32, strided<[1], offset: 108748800>>
    %subview_271 = memref.subview %arg0[108750080] [1638400] [1] : memref<865910724xf32> to memref<1638400xf32, strided<[1], offset: 108750080>>
    %expand_shape_272 = memref.expand_shape %subview_271 [[0, 1]] : memref<1638400xf32, strided<[1], offset: 108750080>> into memref<1280x1280xf32, strided<[1280, 1], offset: 108750080>>
    %subview_273 = memref.subview %arg0[110388480] [1280] [1] : memref<865910724xf32> to memref<1280xf32, strided<[1], offset: 110388480>>
    %subview_274 = memref.subview %arg0[110389760] [1280] [1] : memref<865910724xf32> to memref<1280xf32, strided<[1], offset: 110389760>>
    %subview_275 = memref.subview %arg0[110391040] [1280] [1] : memref<865910724xf32> to memref<1280xf32, strided<[1], offset: 110391040>>
    %subview_276 = memref.subview %arg0[110392320] [14745600] [1] : memref<865910724xf32> to memref<14745600xf32, strided<[1], offset: 110392320>>
    %expand_shape_277 = memref.expand_shape %subview_276 [[0, 1, 2, 3]] : memref<14745600xf32, strided<[1], offset: 110392320>> into memref<1280x1280x3x3xf32, strided<[11520, 9, 3, 1], offset: 110392320>>
    %subview_278 = memref.subview %arg0[125137920] [1280] [1] : memref<865910724xf32> to memref<1280xf32, strided<[1], offset: 125137920>>
    %subview_279 = memref.subview %arg0[125139200] [1638400] [1] : memref<865910724xf32> to memref<1638400xf32, strided<[1], offset: 125139200>>
    %expand_shape_280 = memref.expand_shape %subview_279 [[0, 1]] : memref<1638400xf32, strided<[1], offset: 125139200>> into memref<1280x1280xf32, strided<[1280, 1], offset: 125139200>>
    %subview_281 = memref.subview %arg0[126777600] [1280] [1] : memref<865910724xf32> to memref<1280xf32, strided<[1], offset: 126777600>>
    %subview_282 = memref.subview %arg0[126778880] [1280] [1] : memref<865910724xf32> to memref<1280xf32, strided<[1], offset: 126778880>>
    %subview_283 = memref.subview %arg0[126780160] [1280] [1] : memref<865910724xf32> to memref<1280xf32, strided<[1], offset: 126780160>>
    %subview_284 = memref.subview %arg0[126781440] [14745600] [1] : memref<865910724xf32> to memref<14745600xf32, strided<[1], offset: 126781440>>
    %expand_shape_285 = memref.expand_shape %subview_284 [[0, 1, 2, 3]] : memref<14745600xf32, strided<[1], offset: 126781440>> into memref<1280x1280x3x3xf32, strided<[11520, 9, 3, 1], offset: 126781440>>
    %subview_286 = memref.subview %arg0[141527040] [1280] [1] : memref<865910724xf32> to memref<1280xf32, strided<[1], offset: 141527040>>
    %subview_287 = memref.subview %arg0[141528320] [1280] [1] : memref<865910724xf32> to memref<1280xf32, strided<[1], offset: 141528320>>
    %subview_288 = memref.subview %arg0[141529600] [1280] [1] : memref<865910724xf32> to memref<1280xf32, strided<[1], offset: 141529600>>
    %subview_289 = memref.subview %arg0[141530880] [1638400] [1] : memref<865910724xf32> to memref<1638400xf32, strided<[1], offset: 141530880>>
    %expand_shape_290 = memref.expand_shape %subview_289 [[0, 1]] : memref<1638400xf32, strided<[1], offset: 141530880>> into memref<1280x1280xf32, strided<[1280, 1], offset: 141530880>>
    %subview_291 = memref.subview %arg0[143169280] [1280] [1] : memref<865910724xf32> to memref<1280xf32, strided<[1], offset: 143169280>>
    %subview_292 = memref.subview %arg0[143170560] [1280] [1] : memref<865910724xf32> to memref<1280xf32, strided<[1], offset: 143170560>>
    %subview_293 = memref.subview %arg0[143171840] [1280] [1] : memref<865910724xf32> to memref<1280xf32, strided<[1], offset: 143171840>>
    %subview_294 = memref.subview %arg0[143173120] [1638400] [1] : memref<865910724xf32> to memref<1638400xf32, strided<[1], offset: 143173120>>
    %expand_shape_295 = memref.expand_shape %subview_294 [[0, 1]] : memref<1638400xf32, strided<[1], offset: 143173120>> into memref<1280x1280xf32, strided<[1280, 1], offset: 143173120>>
    %subview_296 = memref.subview %arg0[144811520] [1638400] [1] : memref<865910724xf32> to memref<1638400xf32, strided<[1], offset: 144811520>>
    %expand_shape_297 = memref.expand_shape %subview_296 [[0, 1]] : memref<1638400xf32, strided<[1], offset: 144811520>> into memref<1280x1280xf32, strided<[1280, 1], offset: 144811520>>
    %subview_298 = memref.subview %arg0[146449920] [1638400] [1] : memref<865910724xf32> to memref<1638400xf32, strided<[1], offset: 146449920>>
    %expand_shape_299 = memref.expand_shape %subview_298 [[0, 1]] : memref<1638400xf32, strided<[1], offset: 146449920>> into memref<1280x1280xf32, strided<[1280, 1], offset: 146449920>>
    %subview_300 = memref.subview %arg0[148088320] [1638400] [1] : memref<865910724xf32> to memref<1638400xf32, strided<[1], offset: 148088320>>
    %expand_shape_301 = memref.expand_shape %subview_300 [[0, 1]] : memref<1638400xf32, strided<[1], offset: 148088320>> into memref<1280x1280xf32, strided<[1280, 1], offset: 148088320>>
    %subview_302 = memref.subview %arg0[149726720] [1280] [1] : memref<865910724xf32> to memref<1280xf32, strided<[1], offset: 149726720>>
    %subview_303 = memref.subview %arg0[149728000] [1280] [1] : memref<865910724xf32> to memref<1280xf32, strided<[1], offset: 149728000>>
    %subview_304 = memref.subview %arg0[149729280] [1280] [1] : memref<865910724xf32> to memref<1280xf32, strided<[1], offset: 149729280>>
    %subview_305 = memref.subview %arg0[149730560] [1638400] [1] : memref<865910724xf32> to memref<1638400xf32, strided<[1], offset: 149730560>>
    %expand_shape_306 = memref.expand_shape %subview_305 [[0, 1]] : memref<1638400xf32, strided<[1], offset: 149730560>> into memref<1280x1280xf32, strided<[1280, 1], offset: 149730560>>
    %subview_307 = memref.subview %arg0[151368960] [1310720] [1] : memref<865910724xf32> to memref<1310720xf32, strided<[1], offset: 151368960>>
    %expand_shape_308 = memref.expand_shape %subview_307 [[0, 1]] : memref<1310720xf32, strided<[1], offset: 151368960>> into memref<1280x1024xf32, strided<[1024, 1], offset: 151368960>>
    %subview_309 = memref.subview %arg0[152679680] [1310720] [1] : memref<865910724xf32> to memref<1310720xf32, strided<[1], offset: 152679680>>
    %expand_shape_310 = memref.expand_shape %subview_309 [[0, 1]] : memref<1310720xf32, strided<[1], offset: 152679680>> into memref<1280x1024xf32, strided<[1024, 1], offset: 152679680>>
    %subview_311 = memref.subview %arg0[153990400] [1638400] [1] : memref<865910724xf32> to memref<1638400xf32, strided<[1], offset: 153990400>>
    %expand_shape_312 = memref.expand_shape %subview_311 [[0, 1]] : memref<1638400xf32, strided<[1], offset: 153990400>> into memref<1280x1280xf32, strided<[1280, 1], offset: 153990400>>
    %subview_313 = memref.subview %arg0[155628800] [1280] [1] : memref<865910724xf32> to memref<1280xf32, strided<[1], offset: 155628800>>
    %subview_314 = memref.subview %arg0[155630080] [1280] [1] : memref<865910724xf32> to memref<1280xf32, strided<[1], offset: 155630080>>
    %subview_315 = memref.subview %arg0[155631360] [1280] [1] : memref<865910724xf32> to memref<1280xf32, strided<[1], offset: 155631360>>
    %subview_316 = memref.subview %arg0[155632640] [13107200] [1] : memref<865910724xf32> to memref<13107200xf32, strided<[1], offset: 155632640>>
    %expand_shape_317 = memref.expand_shape %subview_316 [[0, 1]] : memref<13107200xf32, strided<[1], offset: 155632640>> into memref<10240x1280xf32, strided<[1280, 1], offset: 155632640>>
    %subview_318 = memref.subview %arg0[168739840] [10240] [1] : memref<865910724xf32> to memref<10240xf32, strided<[1], offset: 168739840>>
    %subview_319 = memref.subview %arg0[168750080] [6553600] [1] : memref<865910724xf32> to memref<6553600xf32, strided<[1], offset: 168750080>>
    %expand_shape_320 = memref.expand_shape %subview_319 [[0, 1]] : memref<6553600xf32, strided<[1], offset: 168750080>> into memref<1280x5120xf32, strided<[5120, 1], offset: 168750080>>
    %subview_321 = memref.subview %arg0[175303680] [1280] [1] : memref<865910724xf32> to memref<1280xf32, strided<[1], offset: 175303680>>
    %subview_322 = memref.subview %arg0[175304960] [1638400] [1] : memref<865910724xf32> to memref<1638400xf32, strided<[1], offset: 175304960>>
    %expand_shape_323 = memref.expand_shape %subview_322 [[0, 1]] : memref<1638400xf32, strided<[1], offset: 175304960>> into memref<1280x1280xf32, strided<[1280, 1], offset: 175304960>>
    %subview_324 = memref.subview %arg0[176943360] [1280] [1] : memref<865910724xf32> to memref<1280xf32, strided<[1], offset: 176943360>>
    %subview_325 = memref.subview %arg0[176944640] [14745600] [1] : memref<865910724xf32> to memref<14745600xf32, strided<[1], offset: 176944640>>
    %expand_shape_326 = memref.expand_shape %subview_325 [[0, 1, 2, 3]] : memref<14745600xf32, strided<[1], offset: 176944640>> into memref<1280x1280x3x3xf32, strided<[11520, 9, 3, 1], offset: 176944640>>
    %subview_327 = memref.subview %arg0[191690240] [1280] [1] : memref<865910724xf32> to memref<1280xf32, strided<[1], offset: 191690240>>
    %subview_328 = memref.subview %arg0[191691520] [1280] [1] : memref<865910724xf32> to memref<1280xf32, strided<[1], offset: 191691520>>
    %subview_329 = memref.subview %arg0[191692800] [1280] [1] : memref<865910724xf32> to memref<1280xf32, strided<[1], offset: 191692800>>
    %subview_330 = memref.subview %arg0[191694080] [14745600] [1] : memref<865910724xf32> to memref<14745600xf32, strided<[1], offset: 191694080>>
    %expand_shape_331 = memref.expand_shape %subview_330 [[0, 1, 2, 3]] : memref<14745600xf32, strided<[1], offset: 191694080>> into memref<1280x1280x3x3xf32, strided<[11520, 9, 3, 1], offset: 191694080>>
    %subview_332 = memref.subview %arg0[206439680] [1280] [1] : memref<865910724xf32> to memref<1280xf32, strided<[1], offset: 206439680>>
    %subview_333 = memref.subview %arg0[206440960] [1638400] [1] : memref<865910724xf32> to memref<1638400xf32, strided<[1], offset: 206440960>>
    %expand_shape_334 = memref.expand_shape %subview_333 [[0, 1]] : memref<1638400xf32, strided<[1], offset: 206440960>> into memref<1280x1280xf32, strided<[1280, 1], offset: 206440960>>
    %subview_335 = memref.subview %arg0[208079360] [1280] [1] : memref<865910724xf32> to memref<1280xf32, strided<[1], offset: 208079360>>
    %subview_336 = memref.subview %arg0[208080640] [1280] [1] : memref<865910724xf32> to memref<1280xf32, strided<[1], offset: 208080640>>
    %subview_337 = memref.subview %arg0[208081920] [1280] [1] : memref<865910724xf32> to memref<1280xf32, strided<[1], offset: 208081920>>
    %subview_338 = memref.subview %arg0[208083200] [14745600] [1] : memref<865910724xf32> to memref<14745600xf32, strided<[1], offset: 208083200>>
    %expand_shape_339 = memref.expand_shape %subview_338 [[0, 1, 2, 3]] : memref<14745600xf32, strided<[1], offset: 208083200>> into memref<1280x1280x3x3xf32, strided<[11520, 9, 3, 1], offset: 208083200>>
    %subview_340 = memref.subview %arg0[222828800] [1280] [1] : memref<865910724xf32> to memref<1280xf32, strided<[1], offset: 222828800>>
    %subview_341 = memref.subview %arg0[222830080] [1280] [1] : memref<865910724xf32> to memref<1280xf32, strided<[1], offset: 222830080>>
    %subview_342 = memref.subview %arg0[222831360] [1280] [1] : memref<865910724xf32> to memref<1280xf32, strided<[1], offset: 222831360>>
    %subview_343 = memref.subview %arg0[222832640] [14745600] [1] : memref<865910724xf32> to memref<14745600xf32, strided<[1], offset: 222832640>>
    %expand_shape_344 = memref.expand_shape %subview_343 [[0, 1, 2, 3]] : memref<14745600xf32, strided<[1], offset: 222832640>> into memref<1280x1280x3x3xf32, strided<[11520, 9, 3, 1], offset: 222832640>>
    %subview_345 = memref.subview %arg0[237578240] [1280] [1] : memref<865910724xf32> to memref<1280xf32, strided<[1], offset: 237578240>>
    %subview_346 = memref.subview %arg0[237579520] [1638400] [1] : memref<865910724xf32> to memref<1638400xf32, strided<[1], offset: 237579520>>
    %expand_shape_347 = memref.expand_shape %subview_346 [[0, 1]] : memref<1638400xf32, strided<[1], offset: 237579520>> into memref<1280x1280xf32, strided<[1280, 1], offset: 237579520>>
    %subview_348 = memref.subview %arg0[239217920] [1280] [1] : memref<865910724xf32> to memref<1280xf32, strided<[1], offset: 239217920>>
    %subview_349 = memref.subview %arg0[239219200] [1280] [1] : memref<865910724xf32> to memref<1280xf32, strided<[1], offset: 239219200>>
    %subview_350 = memref.subview %arg0[239220480] [1280] [1] : memref<865910724xf32> to memref<1280xf32, strided<[1], offset: 239220480>>
    %subview_351 = memref.subview %arg0[239221760] [14745600] [1] : memref<865910724xf32> to memref<14745600xf32, strided<[1], offset: 239221760>>
    %expand_shape_352 = memref.expand_shape %subview_351 [[0, 1, 2, 3]] : memref<14745600xf32, strided<[1], offset: 239221760>> into memref<1280x1280x3x3xf32, strided<[11520, 9, 3, 1], offset: 239221760>>
    %subview_353 = memref.subview %arg0[253967360] [1280] [1] : memref<865910724xf32> to memref<1280xf32, strided<[1], offset: 253967360>>
    %subview_354 = memref.subview %arg0[253968640] [1280] [1] : memref<865910724xf32> to memref<1280xf32, strided<[1], offset: 253968640>>
    %subview_355 = memref.subview %arg0[253969920] [1280] [1] : memref<865910724xf32> to memref<1280xf32, strided<[1], offset: 253969920>>
    %subview_356 = memref.subview %arg0[253971200] [14745600] [1] : memref<865910724xf32> to memref<14745600xf32, strided<[1], offset: 253971200>>
    %expand_shape_357 = memref.expand_shape %subview_356 [[0, 1, 2, 3]] : memref<14745600xf32, strided<[1], offset: 253971200>> into memref<1280x1280x3x3xf32, strided<[11520, 9, 3, 1], offset: 253971200>>
    %subview_358 = memref.subview %arg0[268716800] [1280] [1] : memref<865910724xf32> to memref<1280xf32, strided<[1], offset: 268716800>>
    %subview_359 = memref.subview %arg0[268718080] [1638400] [1] : memref<865910724xf32> to memref<1638400xf32, strided<[1], offset: 268718080>>
    %expand_shape_360 = memref.expand_shape %subview_359 [[0, 1]] : memref<1638400xf32, strided<[1], offset: 268718080>> into memref<1280x1280xf32, strided<[1280, 1], offset: 268718080>>
    %subview_361 = memref.subview %arg0[270356480] [1280] [1] : memref<865910724xf32> to memref<1280xf32, strided<[1], offset: 270356480>>
    %subview_362 = memref.subview %arg0[270357760] [1280] [1] : memref<865910724xf32> to memref<1280xf32, strided<[1], offset: 270357760>>
    %subview_363 = memref.subview %arg0[270359040] [1280] [1] : memref<865910724xf32> to memref<1280xf32, strided<[1], offset: 270359040>>
    %subview_364 = memref.subview %arg0[270360320] [14745600] [1] : memref<865910724xf32> to memref<14745600xf32, strided<[1], offset: 270360320>>
    %expand_shape_365 = memref.expand_shape %subview_364 [[0, 1, 2, 3]] : memref<14745600xf32, strided<[1], offset: 270360320>> into memref<1280x1280x3x3xf32, strided<[11520, 9, 3, 1], offset: 270360320>>
    %subview_366 = memref.subview %arg0[285105920] [1280] [1] : memref<865910724xf32> to memref<1280xf32, strided<[1], offset: 285105920>>
    %subview_367 = memref.subview %arg0[285107200] [1280] [1] : memref<865910724xf32> to memref<1280xf32, strided<[1], offset: 285107200>>
    %subview_368 = memref.subview %arg0[285108480] [1280] [1] : memref<865910724xf32> to memref<1280xf32, strided<[1], offset: 285108480>>
    %subview_369 = memref.subview %arg0[285109760] [1638400] [1] : memref<865910724xf32> to memref<1638400xf32, strided<[1], offset: 285109760>>
    %expand_shape_370 = memref.expand_shape %subview_369 [[0, 1]] : memref<1638400xf32, strided<[1], offset: 285109760>> into memref<1280x1280xf32, strided<[1280, 1], offset: 285109760>>
    %subview_371 = memref.subview %arg0[286748160] [1280] [1] : memref<865910724xf32> to memref<1280xf32, strided<[1], offset: 286748160>>
    %subview_372 = memref.subview %arg0[286749440] [1280] [1] : memref<865910724xf32> to memref<1280xf32, strided<[1], offset: 286749440>>
    %subview_373 = memref.subview %arg0[286750720] [1280] [1] : memref<865910724xf32> to memref<1280xf32, strided<[1], offset: 286750720>>
    %subview_374 = memref.subview %arg0[286752000] [1638400] [1] : memref<865910724xf32> to memref<1638400xf32, strided<[1], offset: 286752000>>
    %expand_shape_375 = memref.expand_shape %subview_374 [[0, 1]] : memref<1638400xf32, strided<[1], offset: 286752000>> into memref<1280x1280xf32, strided<[1280, 1], offset: 286752000>>
    %subview_376 = memref.subview %arg0[288390400] [1638400] [1] : memref<865910724xf32> to memref<1638400xf32, strided<[1], offset: 288390400>>
    %expand_shape_377 = memref.expand_shape %subview_376 [[0, 1]] : memref<1638400xf32, strided<[1], offset: 288390400>> into memref<1280x1280xf32, strided<[1280, 1], offset: 288390400>>
    %subview_378 = memref.subview %arg0[290028800] [1638400] [1] : memref<865910724xf32> to memref<1638400xf32, strided<[1], offset: 290028800>>
    %expand_shape_379 = memref.expand_shape %subview_378 [[0, 1]] : memref<1638400xf32, strided<[1], offset: 290028800>> into memref<1280x1280xf32, strided<[1280, 1], offset: 290028800>>
    %subview_380 = memref.subview %arg0[291667200] [1638400] [1] : memref<865910724xf32> to memref<1638400xf32, strided<[1], offset: 291667200>>
    %expand_shape_381 = memref.expand_shape %subview_380 [[0, 1]] : memref<1638400xf32, strided<[1], offset: 291667200>> into memref<1280x1280xf32, strided<[1280, 1], offset: 291667200>>
    %subview_382 = memref.subview %arg0[293305600] [1280] [1] : memref<865910724xf32> to memref<1280xf32, strided<[1], offset: 293305600>>
    %subview_383 = memref.subview %arg0[293306880] [1280] [1] : memref<865910724xf32> to memref<1280xf32, strided<[1], offset: 293306880>>
    %subview_384 = memref.subview %arg0[293308160] [1280] [1] : memref<865910724xf32> to memref<1280xf32, strided<[1], offset: 293308160>>
    %subview_385 = memref.subview %arg0[293309440] [1638400] [1] : memref<865910724xf32> to memref<1638400xf32, strided<[1], offset: 293309440>>
    %expand_shape_386 = memref.expand_shape %subview_385 [[0, 1]] : memref<1638400xf32, strided<[1], offset: 293309440>> into memref<1280x1280xf32, strided<[1280, 1], offset: 293309440>>
    %subview_387 = memref.subview %arg0[294947840] [1310720] [1] : memref<865910724xf32> to memref<1310720xf32, strided<[1], offset: 294947840>>
    %expand_shape_388 = memref.expand_shape %subview_387 [[0, 1]] : memref<1310720xf32, strided<[1], offset: 294947840>> into memref<1280x1024xf32, strided<[1024, 1], offset: 294947840>>
    %subview_389 = memref.subview %arg0[296258560] [1310720] [1] : memref<865910724xf32> to memref<1310720xf32, strided<[1], offset: 296258560>>
    %expand_shape_390 = memref.expand_shape %subview_389 [[0, 1]] : memref<1310720xf32, strided<[1], offset: 296258560>> into memref<1280x1024xf32, strided<[1024, 1], offset: 296258560>>
    %subview_391 = memref.subview %arg0[297569280] [1638400] [1] : memref<865910724xf32> to memref<1638400xf32, strided<[1], offset: 297569280>>
    %expand_shape_392 = memref.expand_shape %subview_391 [[0, 1]] : memref<1638400xf32, strided<[1], offset: 297569280>> into memref<1280x1280xf32, strided<[1280, 1], offset: 297569280>>
    %subview_393 = memref.subview %arg0[299207680] [1280] [1] : memref<865910724xf32> to memref<1280xf32, strided<[1], offset: 299207680>>
    %subview_394 = memref.subview %arg0[299208960] [1280] [1] : memref<865910724xf32> to memref<1280xf32, strided<[1], offset: 299208960>>
    %subview_395 = memref.subview %arg0[299210240] [1280] [1] : memref<865910724xf32> to memref<1280xf32, strided<[1], offset: 299210240>>
    %subview_396 = memref.subview %arg0[299211520] [13107200] [1] : memref<865910724xf32> to memref<13107200xf32, strided<[1], offset: 299211520>>
    %expand_shape_397 = memref.expand_shape %subview_396 [[0, 1]] : memref<13107200xf32, strided<[1], offset: 299211520>> into memref<10240x1280xf32, strided<[1280, 1], offset: 299211520>>
    %subview_398 = memref.subview %arg0[312318720] [10240] [1] : memref<865910724xf32> to memref<10240xf32, strided<[1], offset: 312318720>>
    %subview_399 = memref.subview %arg0[312328960] [6553600] [1] : memref<865910724xf32> to memref<6553600xf32, strided<[1], offset: 312328960>>
    %expand_shape_400 = memref.expand_shape %subview_399 [[0, 1]] : memref<6553600xf32, strided<[1], offset: 312328960>> into memref<1280x5120xf32, strided<[5120, 1], offset: 312328960>>
    %subview_401 = memref.subview %arg0[318882560] [1280] [1] : memref<865910724xf32> to memref<1280xf32, strided<[1], offset: 318882560>>
    %subview_402 = memref.subview %arg0[318883840] [1638400] [1] : memref<865910724xf32> to memref<1638400xf32, strided<[1], offset: 318883840>>
    %expand_shape_403 = memref.expand_shape %subview_402 [[0, 1]] : memref<1638400xf32, strided<[1], offset: 318883840>> into memref<1280x1280xf32, strided<[1280, 1], offset: 318883840>>
    %subview_404 = memref.subview %arg0[320522240] [1280] [1] : memref<865910724xf32> to memref<1280xf32, strided<[1], offset: 320522240>>
    %subview_405 = memref.subview %arg0[320523520] [1280] [1] : memref<865910724xf32> to memref<1280xf32, strided<[1], offset: 320523520>>
    %subview_406 = memref.subview %arg0[320524800] [1280] [1] : memref<865910724xf32> to memref<1280xf32, strided<[1], offset: 320524800>>
    %subview_407 = memref.subview %arg0[320526080] [14745600] [1] : memref<865910724xf32> to memref<14745600xf32, strided<[1], offset: 320526080>>
    %expand_shape_408 = memref.expand_shape %subview_407 [[0, 1, 2, 3]] : memref<14745600xf32, strided<[1], offset: 320526080>> into memref<1280x1280x3x3xf32, strided<[11520, 9, 3, 1], offset: 320526080>>
    %subview_409 = memref.subview %arg0[335271680] [1280] [1] : memref<865910724xf32> to memref<1280xf32, strided<[1], offset: 335271680>>
    %subview_410 = memref.subview %arg0[335272960] [1638400] [1] : memref<865910724xf32> to memref<1638400xf32, strided<[1], offset: 335272960>>
    %expand_shape_411 = memref.expand_shape %subview_410 [[0, 1]] : memref<1638400xf32, strided<[1], offset: 335272960>> into memref<1280x1280xf32, strided<[1280, 1], offset: 335272960>>
    %subview_412 = memref.subview %arg0[336911360] [1280] [1] : memref<865910724xf32> to memref<1280xf32, strided<[1], offset: 336911360>>
    %subview_413 = memref.subview %arg0[336912640] [1280] [1] : memref<865910724xf32> to memref<1280xf32, strided<[1], offset: 336912640>>
    %subview_414 = memref.subview %arg0[336913920] [1280] [1] : memref<865910724xf32> to memref<1280xf32, strided<[1], offset: 336913920>>
    %subview_415 = memref.subview %arg0[336915200] [14745600] [1] : memref<865910724xf32> to memref<14745600xf32, strided<[1], offset: 336915200>>
    %expand_shape_416 = memref.expand_shape %subview_415 [[0, 1, 2, 3]] : memref<14745600xf32, strided<[1], offset: 336915200>> into memref<1280x1280x3x3xf32, strided<[11520, 9, 3, 1], offset: 336915200>>
    %subview_417 = memref.subview %arg0[351660800] [1280] [1] : memref<865910724xf32> to memref<1280xf32, strided<[1], offset: 351660800>>
    %subview_418 = memref.subview %arg0[351662080] [2560] [1] : memref<865910724xf32> to memref<2560xf32, strided<[1], offset: 351662080>>
    %subview_419 = memref.subview %arg0[351664640] [2560] [1] : memref<865910724xf32> to memref<2560xf32, strided<[1], offset: 351664640>>
    %subview_420 = memref.subview %arg0[351667200] [29491200] [1] : memref<865910724xf32> to memref<29491200xf32, strided<[1], offset: 351667200>>
    %expand_shape_421 = memref.expand_shape %subview_420 [[0, 1, 2, 3]] : memref<29491200xf32, strided<[1], offset: 351667200>> into memref<1280x2560x3x3xf32, strided<[23040, 9, 3, 1], offset: 351667200>>
    %subview_422 = memref.subview %arg0[381158400] [1280] [1] : memref<865910724xf32> to memref<1280xf32, strided<[1], offset: 381158400>>
    %subview_423 = memref.subview %arg0[381159680] [1638400] [1] : memref<865910724xf32> to memref<1638400xf32, strided<[1], offset: 381159680>>
    %expand_shape_424 = memref.expand_shape %subview_423 [[0, 1]] : memref<1638400xf32, strided<[1], offset: 381159680>> into memref<1280x1280xf32, strided<[1280, 1], offset: 381159680>>
    %subview_425 = memref.subview %arg0[382798080] [1280] [1] : memref<865910724xf32> to memref<1280xf32, strided<[1], offset: 382798080>>
    %subview_426 = memref.subview %arg0[382799360] [1280] [1] : memref<865910724xf32> to memref<1280xf32, strided<[1], offset: 382799360>>
    %subview_427 = memref.subview %arg0[382800640] [1280] [1] : memref<865910724xf32> to memref<1280xf32, strided<[1], offset: 382800640>>
    %subview_428 = memref.subview %arg0[382801920] [14745600] [1] : memref<865910724xf32> to memref<14745600xf32, strided<[1], offset: 382801920>>
    %expand_shape_429 = memref.expand_shape %subview_428 [[0, 1, 2, 3]] : memref<14745600xf32, strided<[1], offset: 382801920>> into memref<1280x1280x3x3xf32, strided<[11520, 9, 3, 1], offset: 382801920>>
    %subview_430 = memref.subview %arg0[397547520] [1280] [1] : memref<865910724xf32> to memref<1280xf32, strided<[1], offset: 397547520>>
    %subview_431 = memref.subview %arg0[397548800] [3276800] [1] : memref<865910724xf32> to memref<3276800xf32, strided<[1], offset: 397548800>>
    %expand_shape_432 = memref.expand_shape %subview_431 [[0, 1, 2, 3]] : memref<3276800xf32, strided<[1], offset: 397548800>> into memref<1280x2560x1x1xf32, strided<[2560, 1, 1, 1], offset: 397548800>>
    %subview_433 = memref.subview %arg0[400825600] [1280] [1] : memref<865910724xf32> to memref<1280xf32, strided<[1], offset: 400825600>>
    %subview_434 = memref.subview %arg0[400826880] [2560] [1] : memref<865910724xf32> to memref<2560xf32, strided<[1], offset: 400826880>>
    %subview_435 = memref.subview %arg0[400829440] [2560] [1] : memref<865910724xf32> to memref<2560xf32, strided<[1], offset: 400829440>>
    %subview_436 = memref.subview %arg0[400832000] [29491200] [1] : memref<865910724xf32> to memref<29491200xf32, strided<[1], offset: 400832000>>
    %expand_shape_437 = memref.expand_shape %subview_436 [[0, 1, 2, 3]] : memref<29491200xf32, strided<[1], offset: 400832000>> into memref<1280x2560x3x3xf32, strided<[23040, 9, 3, 1], offset: 400832000>>
    %subview_438 = memref.subview %arg0[430323200] [1280] [1] : memref<865910724xf32> to memref<1280xf32, strided<[1], offset: 430323200>>
    %subview_439 = memref.subview %arg0[430324480] [1638400] [1] : memref<865910724xf32> to memref<1638400xf32, strided<[1], offset: 430324480>>
    %expand_shape_440 = memref.expand_shape %subview_439 [[0, 1]] : memref<1638400xf32, strided<[1], offset: 430324480>> into memref<1280x1280xf32, strided<[1280, 1], offset: 430324480>>
    %subview_441 = memref.subview %arg0[431962880] [1280] [1] : memref<865910724xf32> to memref<1280xf32, strided<[1], offset: 431962880>>
    %subview_442 = memref.subview %arg0[431964160] [1280] [1] : memref<865910724xf32> to memref<1280xf32, strided<[1], offset: 431964160>>
    %subview_443 = memref.subview %arg0[431965440] [1280] [1] : memref<865910724xf32> to memref<1280xf32, strided<[1], offset: 431965440>>
    %subview_444 = memref.subview %arg0[431966720] [14745600] [1] : memref<865910724xf32> to memref<14745600xf32, strided<[1], offset: 431966720>>
    %expand_shape_445 = memref.expand_shape %subview_444 [[0, 1, 2, 3]] : memref<14745600xf32, strided<[1], offset: 431966720>> into memref<1280x1280x3x3xf32, strided<[11520, 9, 3, 1], offset: 431966720>>
    %subview_446 = memref.subview %arg0[446712320] [1280] [1] : memref<865910724xf32> to memref<1280xf32, strided<[1], offset: 446712320>>
    %subview_447 = memref.subview %arg0[446713600] [3276800] [1] : memref<865910724xf32> to memref<3276800xf32, strided<[1], offset: 446713600>>
    %expand_shape_448 = memref.expand_shape %subview_447 [[0, 1, 2, 3]] : memref<3276800xf32, strided<[1], offset: 446713600>> into memref<1280x2560x1x1xf32, strided<[2560, 1, 1, 1], offset: 446713600>>
    %subview_449 = memref.subview %arg0[449990400] [1280] [1] : memref<865910724xf32> to memref<1280xf32, strided<[1], offset: 449990400>>
    %subview_450 = memref.subview %arg0[449991680] [2560] [1] : memref<865910724xf32> to memref<2560xf32, strided<[1], offset: 449991680>>
    %subview_451 = memref.subview %arg0[449994240] [2560] [1] : memref<865910724xf32> to memref<2560xf32, strided<[1], offset: 449994240>>
    %subview_452 = memref.subview %arg0[449996800] [29491200] [1] : memref<865910724xf32> to memref<29491200xf32, strided<[1], offset: 449996800>>
    %expand_shape_453 = memref.expand_shape %subview_452 [[0, 1, 2, 3]] : memref<29491200xf32, strided<[1], offset: 449996800>> into memref<1280x2560x3x3xf32, strided<[23040, 9, 3, 1], offset: 449996800>>
    %subview_454 = memref.subview %arg0[479488000] [1280] [1] : memref<865910724xf32> to memref<1280xf32, strided<[1], offset: 479488000>>
    %subview_455 = memref.subview %arg0[479489280] [1638400] [1] : memref<865910724xf32> to memref<1638400xf32, strided<[1], offset: 479489280>>
    %expand_shape_456 = memref.expand_shape %subview_455 [[0, 1]] : memref<1638400xf32, strided<[1], offset: 479489280>> into memref<1280x1280xf32, strided<[1280, 1], offset: 479489280>>
    %subview_457 = memref.subview %arg0[481127680] [1280] [1] : memref<865910724xf32> to memref<1280xf32, strided<[1], offset: 481127680>>
    %subview_458 = memref.subview %arg0[481128960] [1280] [1] : memref<865910724xf32> to memref<1280xf32, strided<[1], offset: 481128960>>
    %subview_459 = memref.subview %arg0[481130240] [1280] [1] : memref<865910724xf32> to memref<1280xf32, strided<[1], offset: 481130240>>
    %subview_460 = memref.subview %arg0[481131520] [14745600] [1] : memref<865910724xf32> to memref<14745600xf32, strided<[1], offset: 481131520>>
    %expand_shape_461 = memref.expand_shape %subview_460 [[0, 1, 2, 3]] : memref<14745600xf32, strided<[1], offset: 481131520>> into memref<1280x1280x3x3xf32, strided<[11520, 9, 3, 1], offset: 481131520>>
    %subview_462 = memref.subview %arg0[495877120] [1280] [1] : memref<865910724xf32> to memref<1280xf32, strided<[1], offset: 495877120>>
    %subview_463 = memref.subview %arg0[495878400] [3276800] [1] : memref<865910724xf32> to memref<3276800xf32, strided<[1], offset: 495878400>>
    %expand_shape_464 = memref.expand_shape %subview_463 [[0, 1, 2, 3]] : memref<3276800xf32, strided<[1], offset: 495878400>> into memref<1280x2560x1x1xf32, strided<[2560, 1, 1, 1], offset: 495878400>>
    %subview_465 = memref.subview %arg0[499155200] [1280] [1] : memref<865910724xf32> to memref<1280xf32, strided<[1], offset: 499155200>>
    %subview_466 = memref.subview %arg0[499156480] [14745600] [1] : memref<865910724xf32> to memref<14745600xf32, strided<[1], offset: 499156480>>
    %expand_shape_467 = memref.expand_shape %subview_466 [[0, 1, 2, 3]] : memref<14745600xf32, strided<[1], offset: 499156480>> into memref<1280x1280x3x3xf32, strided<[11520, 9, 3, 1], offset: 499156480>>
    %subview_468 = memref.subview %arg0[513902080] [1280] [1] : memref<865910724xf32> to memref<1280xf32, strided<[1], offset: 513902080>>
    %subview_469 = memref.subview %arg0[513903360] [2560] [1] : memref<865910724xf32> to memref<2560xf32, strided<[1], offset: 513903360>>
    %subview_470 = memref.subview %arg0[513905920] [2560] [1] : memref<865910724xf32> to memref<2560xf32, strided<[1], offset: 513905920>>
    %subview_471 = memref.subview %arg0[513908480] [29491200] [1] : memref<865910724xf32> to memref<29491200xf32, strided<[1], offset: 513908480>>
    %expand_shape_472 = memref.expand_shape %subview_471 [[0, 1, 2, 3]] : memref<29491200xf32, strided<[1], offset: 513908480>> into memref<1280x2560x3x3xf32, strided<[23040, 9, 3, 1], offset: 513908480>>
    %subview_473 = memref.subview %arg0[543399680] [1280] [1] : memref<865910724xf32> to memref<1280xf32, strided<[1], offset: 543399680>>
    %subview_474 = memref.subview %arg0[543400960] [1638400] [1] : memref<865910724xf32> to memref<1638400xf32, strided<[1], offset: 543400960>>
    %expand_shape_475 = memref.expand_shape %subview_474 [[0, 1]] : memref<1638400xf32, strided<[1], offset: 543400960>> into memref<1280x1280xf32, strided<[1280, 1], offset: 543400960>>
    %subview_476 = memref.subview %arg0[545039360] [1280] [1] : memref<865910724xf32> to memref<1280xf32, strided<[1], offset: 545039360>>
    %subview_477 = memref.subview %arg0[545040640] [1280] [1] : memref<865910724xf32> to memref<1280xf32, strided<[1], offset: 545040640>>
    %subview_478 = memref.subview %arg0[545041920] [1280] [1] : memref<865910724xf32> to memref<1280xf32, strided<[1], offset: 545041920>>
    %subview_479 = memref.subview %arg0[545043200] [14745600] [1] : memref<865910724xf32> to memref<14745600xf32, strided<[1], offset: 545043200>>
    %expand_shape_480 = memref.expand_shape %subview_479 [[0, 1, 2, 3]] : memref<14745600xf32, strided<[1], offset: 545043200>> into memref<1280x1280x3x3xf32, strided<[11520, 9, 3, 1], offset: 545043200>>
    %subview_481 = memref.subview %arg0[559788800] [1280] [1] : memref<865910724xf32> to memref<1280xf32, strided<[1], offset: 559788800>>
    %subview_482 = memref.subview %arg0[559790080] [3276800] [1] : memref<865910724xf32> to memref<3276800xf32, strided<[1], offset: 559790080>>
    %expand_shape_483 = memref.expand_shape %subview_482 [[0, 1, 2, 3]] : memref<3276800xf32, strided<[1], offset: 559790080>> into memref<1280x2560x1x1xf32, strided<[2560, 1, 1, 1], offset: 559790080>>
    %subview_484 = memref.subview %arg0[563066880] [1280] [1] : memref<865910724xf32> to memref<1280xf32, strided<[1], offset: 563066880>>
    %subview_485 = memref.subview %arg0[563068160] [1280] [1] : memref<865910724xf32> to memref<1280xf32, strided<[1], offset: 563068160>>
    %subview_486 = memref.subview %arg0[563069440] [1280] [1] : memref<865910724xf32> to memref<1280xf32, strided<[1], offset: 563069440>>
    %subview_487 = memref.subview %arg0[563070720] [1638400] [1] : memref<865910724xf32> to memref<1638400xf32, strided<[1], offset: 563070720>>
    %expand_shape_488 = memref.expand_shape %subview_487 [[0, 1]] : memref<1638400xf32, strided<[1], offset: 563070720>> into memref<1280x1280xf32, strided<[1280, 1], offset: 563070720>>
    %subview_489 = memref.subview %arg0[564709120] [1280] [1] : memref<865910724xf32> to memref<1280xf32, strided<[1], offset: 564709120>>
    %subview_490 = memref.subview %arg0[564710400] [1280] [1] : memref<865910724xf32> to memref<1280xf32, strided<[1], offset: 564710400>>
    %subview_491 = memref.subview %arg0[564711680] [1280] [1] : memref<865910724xf32> to memref<1280xf32, strided<[1], offset: 564711680>>
    %subview_492 = memref.subview %arg0[564712960] [1638400] [1] : memref<865910724xf32> to memref<1638400xf32, strided<[1], offset: 564712960>>
    %expand_shape_493 = memref.expand_shape %subview_492 [[0, 1]] : memref<1638400xf32, strided<[1], offset: 564712960>> into memref<1280x1280xf32, strided<[1280, 1], offset: 564712960>>
    %subview_494 = memref.subview %arg0[566351360] [1638400] [1] : memref<865910724xf32> to memref<1638400xf32, strided<[1], offset: 566351360>>
    %expand_shape_495 = memref.expand_shape %subview_494 [[0, 1]] : memref<1638400xf32, strided<[1], offset: 566351360>> into memref<1280x1280xf32, strided<[1280, 1], offset: 566351360>>
    %subview_496 = memref.subview %arg0[567989760] [1638400] [1] : memref<865910724xf32> to memref<1638400xf32, strided<[1], offset: 567989760>>
    %expand_shape_497 = memref.expand_shape %subview_496 [[0, 1]] : memref<1638400xf32, strided<[1], offset: 567989760>> into memref<1280x1280xf32, strided<[1280, 1], offset: 567989760>>
    %subview_498 = memref.subview %arg0[569628160] [1638400] [1] : memref<865910724xf32> to memref<1638400xf32, strided<[1], offset: 569628160>>
    %expand_shape_499 = memref.expand_shape %subview_498 [[0, 1]] : memref<1638400xf32, strided<[1], offset: 569628160>> into memref<1280x1280xf32, strided<[1280, 1], offset: 569628160>>
    %subview_500 = memref.subview %arg0[571266560] [1280] [1] : memref<865910724xf32> to memref<1280xf32, strided<[1], offset: 571266560>>
    %subview_501 = memref.subview %arg0[571267840] [1280] [1] : memref<865910724xf32> to memref<1280xf32, strided<[1], offset: 571267840>>
    %subview_502 = memref.subview %arg0[571269120] [1280] [1] : memref<865910724xf32> to memref<1280xf32, strided<[1], offset: 571269120>>
    %subview_503 = memref.subview %arg0[571270400] [1638400] [1] : memref<865910724xf32> to memref<1638400xf32, strided<[1], offset: 571270400>>
    %expand_shape_504 = memref.expand_shape %subview_503 [[0, 1]] : memref<1638400xf32, strided<[1], offset: 571270400>> into memref<1280x1280xf32, strided<[1280, 1], offset: 571270400>>
    %subview_505 = memref.subview %arg0[572908800] [1310720] [1] : memref<865910724xf32> to memref<1310720xf32, strided<[1], offset: 572908800>>
    %expand_shape_506 = memref.expand_shape %subview_505 [[0, 1]] : memref<1310720xf32, strided<[1], offset: 572908800>> into memref<1280x1024xf32, strided<[1024, 1], offset: 572908800>>
    %subview_507 = memref.subview %arg0[574219520] [1310720] [1] : memref<865910724xf32> to memref<1310720xf32, strided<[1], offset: 574219520>>
    %expand_shape_508 = memref.expand_shape %subview_507 [[0, 1]] : memref<1310720xf32, strided<[1], offset: 574219520>> into memref<1280x1024xf32, strided<[1024, 1], offset: 574219520>>
    %subview_509 = memref.subview %arg0[575530240] [1638400] [1] : memref<865910724xf32> to memref<1638400xf32, strided<[1], offset: 575530240>>
    %expand_shape_510 = memref.expand_shape %subview_509 [[0, 1]] : memref<1638400xf32, strided<[1], offset: 575530240>> into memref<1280x1280xf32, strided<[1280, 1], offset: 575530240>>
    %subview_511 = memref.subview %arg0[577168640] [1280] [1] : memref<865910724xf32> to memref<1280xf32, strided<[1], offset: 577168640>>
    %subview_512 = memref.subview %arg0[577169920] [1280] [1] : memref<865910724xf32> to memref<1280xf32, strided<[1], offset: 577169920>>
    %subview_513 = memref.subview %arg0[577171200] [1280] [1] : memref<865910724xf32> to memref<1280xf32, strided<[1], offset: 577171200>>
    %subview_514 = memref.subview %arg0[577172480] [13107200] [1] : memref<865910724xf32> to memref<13107200xf32, strided<[1], offset: 577172480>>
    %expand_shape_515 = memref.expand_shape %subview_514 [[0, 1]] : memref<13107200xf32, strided<[1], offset: 577172480>> into memref<10240x1280xf32, strided<[1280, 1], offset: 577172480>>
    %subview_516 = memref.subview %arg0[590279680] [10240] [1] : memref<865910724xf32> to memref<10240xf32, strided<[1], offset: 590279680>>
    %subview_517 = memref.subview %arg0[590289920] [6553600] [1] : memref<865910724xf32> to memref<6553600xf32, strided<[1], offset: 590289920>>
    %expand_shape_518 = memref.expand_shape %subview_517 [[0, 1]] : memref<6553600xf32, strided<[1], offset: 590289920>> into memref<1280x5120xf32, strided<[5120, 1], offset: 590289920>>
    %subview_519 = memref.subview %arg0[596843520] [1280] [1] : memref<865910724xf32> to memref<1280xf32, strided<[1], offset: 596843520>>
    %subview_520 = memref.subview %arg0[596844800] [1638400] [1] : memref<865910724xf32> to memref<1638400xf32, strided<[1], offset: 596844800>>
    %expand_shape_521 = memref.expand_shape %subview_520 [[0, 1]] : memref<1638400xf32, strided<[1], offset: 596844800>> into memref<1280x1280xf32, strided<[1280, 1], offset: 596844800>>
    %subview_522 = memref.subview %arg0[598483200] [1280] [1] : memref<865910724xf32> to memref<1280xf32, strided<[1], offset: 598483200>>
    %subview_523 = memref.subview %arg0[598484480] [2560] [1] : memref<865910724xf32> to memref<2560xf32, strided<[1], offset: 598484480>>
    %subview_524 = memref.subview %arg0[598487040] [2560] [1] : memref<865910724xf32> to memref<2560xf32, strided<[1], offset: 598487040>>
    %subview_525 = memref.subview %arg0[598489600] [29491200] [1] : memref<865910724xf32> to memref<29491200xf32, strided<[1], offset: 598489600>>
    %expand_shape_526 = memref.expand_shape %subview_525 [[0, 1, 2, 3]] : memref<29491200xf32, strided<[1], offset: 598489600>> into memref<1280x2560x3x3xf32, strided<[23040, 9, 3, 1], offset: 598489600>>
    %subview_527 = memref.subview %arg0[627980800] [1280] [1] : memref<865910724xf32> to memref<1280xf32, strided<[1], offset: 627980800>>
    %subview_528 = memref.subview %arg0[627982080] [1638400] [1] : memref<865910724xf32> to memref<1638400xf32, strided<[1], offset: 627982080>>
    %expand_shape_529 = memref.expand_shape %subview_528 [[0, 1]] : memref<1638400xf32, strided<[1], offset: 627982080>> into memref<1280x1280xf32, strided<[1280, 1], offset: 627982080>>
    %subview_530 = memref.subview %arg0[629620480] [1280] [1] : memref<865910724xf32> to memref<1280xf32, strided<[1], offset: 629620480>>
    %subview_531 = memref.subview %arg0[629621760] [1280] [1] : memref<865910724xf32> to memref<1280xf32, strided<[1], offset: 629621760>>
    %subview_532 = memref.subview %arg0[629623040] [1280] [1] : memref<865910724xf32> to memref<1280xf32, strided<[1], offset: 629623040>>
    %subview_533 = memref.subview %arg0[629624320] [14745600] [1] : memref<865910724xf32> to memref<14745600xf32, strided<[1], offset: 629624320>>
    %expand_shape_534 = memref.expand_shape %subview_533 [[0, 1, 2, 3]] : memref<14745600xf32, strided<[1], offset: 629624320>> into memref<1280x1280x3x3xf32, strided<[11520, 9, 3, 1], offset: 629624320>>
    %subview_535 = memref.subview %arg0[644369920] [1280] [1] : memref<865910724xf32> to memref<1280xf32, strided<[1], offset: 644369920>>
    %subview_536 = memref.subview %arg0[644371200] [3276800] [1] : memref<865910724xf32> to memref<3276800xf32, strided<[1], offset: 644371200>>
    %expand_shape_537 = memref.expand_shape %subview_536 [[0, 1, 2, 3]] : memref<3276800xf32, strided<[1], offset: 644371200>> into memref<1280x2560x1x1xf32, strided<[2560, 1, 1, 1], offset: 644371200>>
    %subview_538 = memref.subview %arg0[647648000] [1280] [1] : memref<865910724xf32> to memref<1280xf32, strided<[1], offset: 647648000>>
    %subview_539 = memref.subview %arg0[647649280] [1280] [1] : memref<865910724xf32> to memref<1280xf32, strided<[1], offset: 647649280>>
    %subview_540 = memref.subview %arg0[647650560] [1280] [1] : memref<865910724xf32> to memref<1280xf32, strided<[1], offset: 647650560>>
    %subview_541 = memref.subview %arg0[647651840] [1638400] [1] : memref<865910724xf32> to memref<1638400xf32, strided<[1], offset: 647651840>>
    %expand_shape_542 = memref.expand_shape %subview_541 [[0, 1]] : memref<1638400xf32, strided<[1], offset: 647651840>> into memref<1280x1280xf32, strided<[1280, 1], offset: 647651840>>
    %subview_543 = memref.subview %arg0[649290240] [1280] [1] : memref<865910724xf32> to memref<1280xf32, strided<[1], offset: 649290240>>
    %subview_544 = memref.subview %arg0[649291520] [1280] [1] : memref<865910724xf32> to memref<1280xf32, strided<[1], offset: 649291520>>
    %subview_545 = memref.subview %arg0[649292800] [1280] [1] : memref<865910724xf32> to memref<1280xf32, strided<[1], offset: 649292800>>
    %subview_546 = memref.subview %arg0[649294080] [1638400] [1] : memref<865910724xf32> to memref<1638400xf32, strided<[1], offset: 649294080>>
    %expand_shape_547 = memref.expand_shape %subview_546 [[0, 1]] : memref<1638400xf32, strided<[1], offset: 649294080>> into memref<1280x1280xf32, strided<[1280, 1], offset: 649294080>>
    %subview_548 = memref.subview %arg0[650932480] [1638400] [1] : memref<865910724xf32> to memref<1638400xf32, strided<[1], offset: 650932480>>
    %expand_shape_549 = memref.expand_shape %subview_548 [[0, 1]] : memref<1638400xf32, strided<[1], offset: 650932480>> into memref<1280x1280xf32, strided<[1280, 1], offset: 650932480>>
    %subview_550 = memref.subview %arg0[652570880] [1638400] [1] : memref<865910724xf32> to memref<1638400xf32, strided<[1], offset: 652570880>>
    %expand_shape_551 = memref.expand_shape %subview_550 [[0, 1]] : memref<1638400xf32, strided<[1], offset: 652570880>> into memref<1280x1280xf32, strided<[1280, 1], offset: 652570880>>
    %subview_552 = memref.subview %arg0[654209280] [1638400] [1] : memref<865910724xf32> to memref<1638400xf32, strided<[1], offset: 654209280>>
    %expand_shape_553 = memref.expand_shape %subview_552 [[0, 1]] : memref<1638400xf32, strided<[1], offset: 654209280>> into memref<1280x1280xf32, strided<[1280, 1], offset: 654209280>>
    %subview_554 = memref.subview %arg0[655847680] [1280] [1] : memref<865910724xf32> to memref<1280xf32, strided<[1], offset: 655847680>>
    %subview_555 = memref.subview %arg0[655848960] [1280] [1] : memref<865910724xf32> to memref<1280xf32, strided<[1], offset: 655848960>>
    %subview_556 = memref.subview %arg0[655850240] [1280] [1] : memref<865910724xf32> to memref<1280xf32, strided<[1], offset: 655850240>>
    %subview_557 = memref.subview %arg0[655851520] [1638400] [1] : memref<865910724xf32> to memref<1638400xf32, strided<[1], offset: 655851520>>
    %expand_shape_558 = memref.expand_shape %subview_557 [[0, 1]] : memref<1638400xf32, strided<[1], offset: 655851520>> into memref<1280x1280xf32, strided<[1280, 1], offset: 655851520>>
    %subview_559 = memref.subview %arg0[657489920] [1310720] [1] : memref<865910724xf32> to memref<1310720xf32, strided<[1], offset: 657489920>>
    %expand_shape_560 = memref.expand_shape %subview_559 [[0, 1]] : memref<1310720xf32, strided<[1], offset: 657489920>> into memref<1280x1024xf32, strided<[1024, 1], offset: 657489920>>
    %subview_561 = memref.subview %arg0[658800640] [1310720] [1] : memref<865910724xf32> to memref<1310720xf32, strided<[1], offset: 658800640>>
    %expand_shape_562 = memref.expand_shape %subview_561 [[0, 1]] : memref<1310720xf32, strided<[1], offset: 658800640>> into memref<1280x1024xf32, strided<[1024, 1], offset: 658800640>>
    %subview_563 = memref.subview %arg0[660111360] [1638400] [1] : memref<865910724xf32> to memref<1638400xf32, strided<[1], offset: 660111360>>
    %expand_shape_564 = memref.expand_shape %subview_563 [[0, 1]] : memref<1638400xf32, strided<[1], offset: 660111360>> into memref<1280x1280xf32, strided<[1280, 1], offset: 660111360>>
    %subview_565 = memref.subview %arg0[661749760] [1280] [1] : memref<865910724xf32> to memref<1280xf32, strided<[1], offset: 661749760>>
    %subview_566 = memref.subview %arg0[661751040] [1280] [1] : memref<865910724xf32> to memref<1280xf32, strided<[1], offset: 661751040>>
    %subview_567 = memref.subview %arg0[661752320] [1280] [1] : memref<865910724xf32> to memref<1280xf32, strided<[1], offset: 661752320>>
    %subview_568 = memref.subview %arg0[661753600] [13107200] [1] : memref<865910724xf32> to memref<13107200xf32, strided<[1], offset: 661753600>>
    %expand_shape_569 = memref.expand_shape %subview_568 [[0, 1]] : memref<13107200xf32, strided<[1], offset: 661753600>> into memref<10240x1280xf32, strided<[1280, 1], offset: 661753600>>
    %subview_570 = memref.subview %arg0[674860800] [10240] [1] : memref<865910724xf32> to memref<10240xf32, strided<[1], offset: 674860800>>
    %subview_571 = memref.subview %arg0[674871040] [6553600] [1] : memref<865910724xf32> to memref<6553600xf32, strided<[1], offset: 674871040>>
    %expand_shape_572 = memref.expand_shape %subview_571 [[0, 1]] : memref<6553600xf32, strided<[1], offset: 674871040>> into memref<1280x5120xf32, strided<[5120, 1], offset: 674871040>>
    %subview_573 = memref.subview %arg0[681424640] [1280] [1] : memref<865910724xf32> to memref<1280xf32, strided<[1], offset: 681424640>>
    %subview_574 = memref.subview %arg0[681425920] [1638400] [1] : memref<865910724xf32> to memref<1638400xf32, strided<[1], offset: 681425920>>
    %expand_shape_575 = memref.expand_shape %subview_574 [[0, 1]] : memref<1638400xf32, strided<[1], offset: 681425920>> into memref<1280x1280xf32, strided<[1280, 1], offset: 681425920>>
    %subview_576 = memref.subview %arg0[683064320] [1280] [1] : memref<865910724xf32> to memref<1280xf32, strided<[1], offset: 683064320>>
    %subview_577 = memref.subview %arg0[683065600] [1920] [1] : memref<865910724xf32> to memref<1920xf32, strided<[1], offset: 683065600>>
    %subview_578 = memref.subview %arg0[683067520] [1920] [1] : memref<865910724xf32> to memref<1920xf32, strided<[1], offset: 683067520>>
    %subview_579 = memref.subview %arg0[683069440] [22118400] [1] : memref<865910724xf32> to memref<22118400xf32, strided<[1], offset: 683069440>>
    %expand_shape_580 = memref.expand_shape %subview_579 [[0, 1, 2, 3]] : memref<22118400xf32, strided<[1], offset: 683069440>> into memref<1280x1920x3x3xf32, strided<[17280, 9, 3, 1], offset: 683069440>>
    %subview_581 = memref.subview %arg0[705187840] [1280] [1] : memref<865910724xf32> to memref<1280xf32, strided<[1], offset: 705187840>>
    %subview_582 = memref.subview %arg0[705189120] [1638400] [1] : memref<865910724xf32> to memref<1638400xf32, strided<[1], offset: 705189120>>
    %expand_shape_583 = memref.expand_shape %subview_582 [[0, 1]] : memref<1638400xf32, strided<[1], offset: 705189120>> into memref<1280x1280xf32, strided<[1280, 1], offset: 705189120>>
    %subview_584 = memref.subview %arg0[706827520] [1280] [1] : memref<865910724xf32> to memref<1280xf32, strided<[1], offset: 706827520>>
    %subview_585 = memref.subview %arg0[706828800] [1280] [1] : memref<865910724xf32> to memref<1280xf32, strided<[1], offset: 706828800>>
    %subview_586 = memref.subview %arg0[706830080] [1280] [1] : memref<865910724xf32> to memref<1280xf32, strided<[1], offset: 706830080>>
    %subview_587 = memref.subview %arg0[706831360] [14745600] [1] : memref<865910724xf32> to memref<14745600xf32, strided<[1], offset: 706831360>>
    %expand_shape_588 = memref.expand_shape %subview_587 [[0, 1, 2, 3]] : memref<14745600xf32, strided<[1], offset: 706831360>> into memref<1280x1280x3x3xf32, strided<[11520, 9, 3, 1], offset: 706831360>>
    %subview_589 = memref.subview %arg0[721576960] [1280] [1] : memref<865910724xf32> to memref<1280xf32, strided<[1], offset: 721576960>>
    %subview_590 = memref.subview %arg0[721578240] [2457600] [1] : memref<865910724xf32> to memref<2457600xf32, strided<[1], offset: 721578240>>
    %expand_shape_591 = memref.expand_shape %subview_590 [[0, 1, 2, 3]] : memref<2457600xf32, strided<[1], offset: 721578240>> into memref<1280x1920x1x1xf32, strided<[1920, 1, 1, 1], offset: 721578240>>
    %subview_592 = memref.subview %arg0[724035840] [1280] [1] : memref<865910724xf32> to memref<1280xf32, strided<[1], offset: 724035840>>
    %subview_593 = memref.subview %arg0[724037120] [1280] [1] : memref<865910724xf32> to memref<1280xf32, strided<[1], offset: 724037120>>
    %subview_594 = memref.subview %arg0[724038400] [1280] [1] : memref<865910724xf32> to memref<1280xf32, strided<[1], offset: 724038400>>
    %subview_595 = memref.subview %arg0[724039680] [1638400] [1] : memref<865910724xf32> to memref<1638400xf32, strided<[1], offset: 724039680>>
    %expand_shape_596 = memref.expand_shape %subview_595 [[0, 1]] : memref<1638400xf32, strided<[1], offset: 724039680>> into memref<1280x1280xf32, strided<[1280, 1], offset: 724039680>>
    %subview_597 = memref.subview %arg0[725678080] [1280] [1] : memref<865910724xf32> to memref<1280xf32, strided<[1], offset: 725678080>>
    %subview_598 = memref.subview %arg0[725679360] [1280] [1] : memref<865910724xf32> to memref<1280xf32, strided<[1], offset: 725679360>>
    %subview_599 = memref.subview %arg0[725680640] [1280] [1] : memref<865910724xf32> to memref<1280xf32, strided<[1], offset: 725680640>>
    %subview_600 = memref.subview %arg0[725681920] [1638400] [1] : memref<865910724xf32> to memref<1638400xf32, strided<[1], offset: 725681920>>
    %expand_shape_601 = memref.expand_shape %subview_600 [[0, 1]] : memref<1638400xf32, strided<[1], offset: 725681920>> into memref<1280x1280xf32, strided<[1280, 1], offset: 725681920>>
    %subview_602 = memref.subview %arg0[727320320] [1638400] [1] : memref<865910724xf32> to memref<1638400xf32, strided<[1], offset: 727320320>>
    %expand_shape_603 = memref.expand_shape %subview_602 [[0, 1]] : memref<1638400xf32, strided<[1], offset: 727320320>> into memref<1280x1280xf32, strided<[1280, 1], offset: 727320320>>
    %subview_604 = memref.subview %arg0[728958720] [1638400] [1] : memref<865910724xf32> to memref<1638400xf32, strided<[1], offset: 728958720>>
    %expand_shape_605 = memref.expand_shape %subview_604 [[0, 1]] : memref<1638400xf32, strided<[1], offset: 728958720>> into memref<1280x1280xf32, strided<[1280, 1], offset: 728958720>>
    %subview_606 = memref.subview %arg0[730597120] [1638400] [1] : memref<865910724xf32> to memref<1638400xf32, strided<[1], offset: 730597120>>
    %expand_shape_607 = memref.expand_shape %subview_606 [[0, 1]] : memref<1638400xf32, strided<[1], offset: 730597120>> into memref<1280x1280xf32, strided<[1280, 1], offset: 730597120>>
    %subview_608 = memref.subview %arg0[732235520] [1280] [1] : memref<865910724xf32> to memref<1280xf32, strided<[1], offset: 732235520>>
    %subview_609 = memref.subview %arg0[732236800] [1280] [1] : memref<865910724xf32> to memref<1280xf32, strided<[1], offset: 732236800>>
    %subview_610 = memref.subview %arg0[732238080] [1280] [1] : memref<865910724xf32> to memref<1280xf32, strided<[1], offset: 732238080>>
    %subview_611 = memref.subview %arg0[732239360] [1638400] [1] : memref<865910724xf32> to memref<1638400xf32, strided<[1], offset: 732239360>>
    %expand_shape_612 = memref.expand_shape %subview_611 [[0, 1]] : memref<1638400xf32, strided<[1], offset: 732239360>> into memref<1280x1280xf32, strided<[1280, 1], offset: 732239360>>
    %subview_613 = memref.subview %arg0[733877760] [1310720] [1] : memref<865910724xf32> to memref<1310720xf32, strided<[1], offset: 733877760>>
    %expand_shape_614 = memref.expand_shape %subview_613 [[0, 1]] : memref<1310720xf32, strided<[1], offset: 733877760>> into memref<1280x1024xf32, strided<[1024, 1], offset: 733877760>>
    %subview_615 = memref.subview %arg0[735188480] [1310720] [1] : memref<865910724xf32> to memref<1310720xf32, strided<[1], offset: 735188480>>
    %expand_shape_616 = memref.expand_shape %subview_615 [[0, 1]] : memref<1310720xf32, strided<[1], offset: 735188480>> into memref<1280x1024xf32, strided<[1024, 1], offset: 735188480>>
    %subview_617 = memref.subview %arg0[736499200] [1638400] [1] : memref<865910724xf32> to memref<1638400xf32, strided<[1], offset: 736499200>>
    %expand_shape_618 = memref.expand_shape %subview_617 [[0, 1]] : memref<1638400xf32, strided<[1], offset: 736499200>> into memref<1280x1280xf32, strided<[1280, 1], offset: 736499200>>
    %subview_619 = memref.subview %arg0[738137600] [1280] [1] : memref<865910724xf32> to memref<1280xf32, strided<[1], offset: 738137600>>
    %subview_620 = memref.subview %arg0[738138880] [1280] [1] : memref<865910724xf32> to memref<1280xf32, strided<[1], offset: 738138880>>
    %subview_621 = memref.subview %arg0[738140160] [1280] [1] : memref<865910724xf32> to memref<1280xf32, strided<[1], offset: 738140160>>
    %subview_622 = memref.subview %arg0[738141440] [13107200] [1] : memref<865910724xf32> to memref<13107200xf32, strided<[1], offset: 738141440>>
    %expand_shape_623 = memref.expand_shape %subview_622 [[0, 1]] : memref<13107200xf32, strided<[1], offset: 738141440>> into memref<10240x1280xf32, strided<[1280, 1], offset: 738141440>>
    %subview_624 = memref.subview %arg0[751248640] [10240] [1] : memref<865910724xf32> to memref<10240xf32, strided<[1], offset: 751248640>>
    %subview_625 = memref.subview %arg0[751258880] [6553600] [1] : memref<865910724xf32> to memref<6553600xf32, strided<[1], offset: 751258880>>
    %expand_shape_626 = memref.expand_shape %subview_625 [[0, 1]] : memref<6553600xf32, strided<[1], offset: 751258880>> into memref<1280x5120xf32, strided<[5120, 1], offset: 751258880>>
    %subview_627 = memref.subview %arg0[757812480] [1280] [1] : memref<865910724xf32> to memref<1280xf32, strided<[1], offset: 757812480>>
    %subview_628 = memref.subview %arg0[757813760] [1638400] [1] : memref<865910724xf32> to memref<1638400xf32, strided<[1], offset: 757813760>>
    %expand_shape_629 = memref.expand_shape %subview_628 [[0, 1]] : memref<1638400xf32, strided<[1], offset: 757813760>> into memref<1280x1280xf32, strided<[1280, 1], offset: 757813760>>
    %subview_630 = memref.subview %arg0[759452160] [1280] [1] : memref<865910724xf32> to memref<1280xf32, strided<[1], offset: 759452160>>
    %subview_631 = memref.subview %arg0[759453440] [14745600] [1] : memref<865910724xf32> to memref<14745600xf32, strided<[1], offset: 759453440>>
    %expand_shape_632 = memref.expand_shape %subview_631 [[0, 1, 2, 3]] : memref<14745600xf32, strided<[1], offset: 759453440>> into memref<1280x1280x3x3xf32, strided<[11520, 9, 3, 1], offset: 759453440>>
    %subview_633 = memref.subview %arg0[774199040] [1280] [1] : memref<865910724xf32> to memref<1280xf32, strided<[1], offset: 774199040>>
    %subview_634 = memref.subview %arg0[774200320] [1920] [1] : memref<865910724xf32> to memref<1920xf32, strided<[1], offset: 774200320>>
    %subview_635 = memref.subview %arg0[774202240] [1920] [1] : memref<865910724xf32> to memref<1920xf32, strided<[1], offset: 774202240>>
    %subview_636 = memref.subview %arg0[774204160] [11059200] [1] : memref<865910724xf32> to memref<11059200xf32, strided<[1], offset: 774204160>>
    %expand_shape_637 = memref.expand_shape %subview_636 [[0, 1, 2, 3]] : memref<11059200xf32, strided<[1], offset: 774204160>> into memref<640x1920x3x3xf32, strided<[17280, 9, 3, 1], offset: 774204160>>
    %subview_638 = memref.subview %arg0[785263360] [640] [1] : memref<865910724xf32> to memref<640xf32, strided<[1], offset: 785263360>>
    %subview_639 = memref.subview %arg0[785264000] [819200] [1] : memref<865910724xf32> to memref<819200xf32, strided<[1], offset: 785264000>>
    %expand_shape_640 = memref.expand_shape %subview_639 [[0, 1]] : memref<819200xf32, strided<[1], offset: 785264000>> into memref<640x1280xf32, strided<[1280, 1], offset: 785264000>>
    %subview_641 = memref.subview %arg0[786083200] [640] [1] : memref<865910724xf32> to memref<640xf32, strided<[1], offset: 786083200>>
    %subview_642 = memref.subview %arg0[786083840] [640] [1] : memref<865910724xf32> to memref<640xf32, strided<[1], offset: 786083840>>
    %subview_643 = memref.subview %arg0[786084480] [640] [1] : memref<865910724xf32> to memref<640xf32, strided<[1], offset: 786084480>>
    %subview_644 = memref.subview %arg0[786085120] [3686400] [1] : memref<865910724xf32> to memref<3686400xf32, strided<[1], offset: 786085120>>
    %expand_shape_645 = memref.expand_shape %subview_644 [[0, 1, 2, 3]] : memref<3686400xf32, strided<[1], offset: 786085120>> into memref<640x640x3x3xf32, strided<[5760, 9, 3, 1], offset: 786085120>>
    %subview_646 = memref.subview %arg0[789771520] [640] [1] : memref<865910724xf32> to memref<640xf32, strided<[1], offset: 789771520>>
    %subview_647 = memref.subview %arg0[789772160] [1228800] [1] : memref<865910724xf32> to memref<1228800xf32, strided<[1], offset: 789772160>>
    %expand_shape_648 = memref.expand_shape %subview_647 [[0, 1, 2, 3]] : memref<1228800xf32, strided<[1], offset: 789772160>> into memref<640x1920x1x1xf32, strided<[1920, 1, 1, 1], offset: 789772160>>
    %subview_649 = memref.subview %arg0[791000960] [640] [1] : memref<865910724xf32> to memref<640xf32, strided<[1], offset: 791000960>>
    %subview_650 = memref.subview %arg0[791001600] [640] [1] : memref<865910724xf32> to memref<640xf32, strided<[1], offset: 791001600>>
    %subview_651 = memref.subview %arg0[791002240] [640] [1] : memref<865910724xf32> to memref<640xf32, strided<[1], offset: 791002240>>
    %subview_652 = memref.subview %arg0[791002880] [409600] [1] : memref<865910724xf32> to memref<409600xf32, strided<[1], offset: 791002880>>
    %expand_shape_653 = memref.expand_shape %subview_652 [[0, 1]] : memref<409600xf32, strided<[1], offset: 791002880>> into memref<640x640xf32, strided<[640, 1], offset: 791002880>>
    %subview_654 = memref.subview %arg0[791412480] [640] [1] : memref<865910724xf32> to memref<640xf32, strided<[1], offset: 791412480>>
    %subview_655 = memref.subview %arg0[791413120] [640] [1] : memref<865910724xf32> to memref<640xf32, strided<[1], offset: 791413120>>
    %subview_656 = memref.subview %arg0[791413760] [640] [1] : memref<865910724xf32> to memref<640xf32, strided<[1], offset: 791413760>>
    %subview_657 = memref.subview %arg0[791414400] [409600] [1] : memref<865910724xf32> to memref<409600xf32, strided<[1], offset: 791414400>>
    %expand_shape_658 = memref.expand_shape %subview_657 [[0, 1]] : memref<409600xf32, strided<[1], offset: 791414400>> into memref<640x640xf32, strided<[640, 1], offset: 791414400>>
    %subview_659 = memref.subview %arg0[791824000] [409600] [1] : memref<865910724xf32> to memref<409600xf32, strided<[1], offset: 791824000>>
    %expand_shape_660 = memref.expand_shape %subview_659 [[0, 1]] : memref<409600xf32, strided<[1], offset: 791824000>> into memref<640x640xf32, strided<[640, 1], offset: 791824000>>
    %subview_661 = memref.subview %arg0[792233600] [409600] [1] : memref<865910724xf32> to memref<409600xf32, strided<[1], offset: 792233600>>
    %expand_shape_662 = memref.expand_shape %subview_661 [[0, 1]] : memref<409600xf32, strided<[1], offset: 792233600>> into memref<640x640xf32, strided<[640, 1], offset: 792233600>>
    %subview_663 = memref.subview %arg0[792643200] [409600] [1] : memref<865910724xf32> to memref<409600xf32, strided<[1], offset: 792643200>>
    %expand_shape_664 = memref.expand_shape %subview_663 [[0, 1]] : memref<409600xf32, strided<[1], offset: 792643200>> into memref<640x640xf32, strided<[640, 1], offset: 792643200>>
    %subview_665 = memref.subview %arg0[793052800] [640] [1] : memref<865910724xf32> to memref<640xf32, strided<[1], offset: 793052800>>
    %subview_666 = memref.subview %arg0[793053440] [640] [1] : memref<865910724xf32> to memref<640xf32, strided<[1], offset: 793053440>>
    %subview_667 = memref.subview %arg0[793054080] [640] [1] : memref<865910724xf32> to memref<640xf32, strided<[1], offset: 793054080>>
    %subview_668 = memref.subview %arg0[793054720] [409600] [1] : memref<865910724xf32> to memref<409600xf32, strided<[1], offset: 793054720>>
    %expand_shape_669 = memref.expand_shape %subview_668 [[0, 1]] : memref<409600xf32, strided<[1], offset: 793054720>> into memref<640x640xf32, strided<[640, 1], offset: 793054720>>
    %subview_670 = memref.subview %arg0[793464320] [655360] [1] : memref<865910724xf32> to memref<655360xf32, strided<[1], offset: 793464320>>
    %expand_shape_671 = memref.expand_shape %subview_670 [[0, 1]] : memref<655360xf32, strided<[1], offset: 793464320>> into memref<640x1024xf32, strided<[1024, 1], offset: 793464320>>
    %subview_672 = memref.subview %arg0[794119680] [655360] [1] : memref<865910724xf32> to memref<655360xf32, strided<[1], offset: 794119680>>
    %expand_shape_673 = memref.expand_shape %subview_672 [[0, 1]] : memref<655360xf32, strided<[1], offset: 794119680>> into memref<640x1024xf32, strided<[1024, 1], offset: 794119680>>
    %subview_674 = memref.subview %arg0[794775040] [409600] [1] : memref<865910724xf32> to memref<409600xf32, strided<[1], offset: 794775040>>
    %expand_shape_675 = memref.expand_shape %subview_674 [[0, 1]] : memref<409600xf32, strided<[1], offset: 794775040>> into memref<640x640xf32, strided<[640, 1], offset: 794775040>>
    %subview_676 = memref.subview %arg0[795184640] [640] [1] : memref<865910724xf32> to memref<640xf32, strided<[1], offset: 795184640>>
    %subview_677 = memref.subview %arg0[795185280] [640] [1] : memref<865910724xf32> to memref<640xf32, strided<[1], offset: 795185280>>
    %subview_678 = memref.subview %arg0[795185920] [640] [1] : memref<865910724xf32> to memref<640xf32, strided<[1], offset: 795185920>>
    %subview_679 = memref.subview %arg0[795186560] [3276800] [1] : memref<865910724xf32> to memref<3276800xf32, strided<[1], offset: 795186560>>
    %expand_shape_680 = memref.expand_shape %subview_679 [[0, 1]] : memref<3276800xf32, strided<[1], offset: 795186560>> into memref<5120x640xf32, strided<[640, 1], offset: 795186560>>
    %subview_681 = memref.subview %arg0[798463360] [5120] [1] : memref<865910724xf32> to memref<5120xf32, strided<[1], offset: 798463360>>
    %subview_682 = memref.subview %arg0[798468480] [1638400] [1] : memref<865910724xf32> to memref<1638400xf32, strided<[1], offset: 798468480>>
    %expand_shape_683 = memref.expand_shape %subview_682 [[0, 1]] : memref<1638400xf32, strided<[1], offset: 798468480>> into memref<640x2560xf32, strided<[2560, 1], offset: 798468480>>
    %subview_684 = memref.subview %arg0[800106880] [640] [1] : memref<865910724xf32> to memref<640xf32, strided<[1], offset: 800106880>>
    %subview_685 = memref.subview %arg0[800107520] [409600] [1] : memref<865910724xf32> to memref<409600xf32, strided<[1], offset: 800107520>>
    %expand_shape_686 = memref.expand_shape %subview_685 [[0, 1]] : memref<409600xf32, strided<[1], offset: 800107520>> into memref<640x640xf32, strided<[640, 1], offset: 800107520>>
    %subview_687 = memref.subview %arg0[800517120] [640] [1] : memref<865910724xf32> to memref<640xf32, strided<[1], offset: 800517120>>
    %subview_688 = memref.subview %arg0[800517760] [1280] [1] : memref<865910724xf32> to memref<1280xf32, strided<[1], offset: 800517760>>
    %subview_689 = memref.subview %arg0[800519040] [1280] [1] : memref<865910724xf32> to memref<1280xf32, strided<[1], offset: 800519040>>
    %subview_690 = memref.subview %arg0[800520320] [7372800] [1] : memref<865910724xf32> to memref<7372800xf32, strided<[1], offset: 800520320>>
    %expand_shape_691 = memref.expand_shape %subview_690 [[0, 1, 2, 3]] : memref<7372800xf32, strided<[1], offset: 800520320>> into memref<640x1280x3x3xf32, strided<[11520, 9, 3, 1], offset: 800520320>>
    %subview_692 = memref.subview %arg0[807893120] [640] [1] : memref<865910724xf32> to memref<640xf32, strided<[1], offset: 807893120>>
    %subview_693 = memref.subview %arg0[807893760] [819200] [1] : memref<865910724xf32> to memref<819200xf32, strided<[1], offset: 807893760>>
    %expand_shape_694 = memref.expand_shape %subview_693 [[0, 1]] : memref<819200xf32, strided<[1], offset: 807893760>> into memref<640x1280xf32, strided<[1280, 1], offset: 807893760>>
    %subview_695 = memref.subview %arg0[808712960] [640] [1] : memref<865910724xf32> to memref<640xf32, strided<[1], offset: 808712960>>
    %subview_696 = memref.subview %arg0[808713600] [640] [1] : memref<865910724xf32> to memref<640xf32, strided<[1], offset: 808713600>>
    %subview_697 = memref.subview %arg0[808714240] [640] [1] : memref<865910724xf32> to memref<640xf32, strided<[1], offset: 808714240>>
    %subview_698 = memref.subview %arg0[808714880] [3686400] [1] : memref<865910724xf32> to memref<3686400xf32, strided<[1], offset: 808714880>>
    %expand_shape_699 = memref.expand_shape %subview_698 [[0, 1, 2, 3]] : memref<3686400xf32, strided<[1], offset: 808714880>> into memref<640x640x3x3xf32, strided<[5760, 9, 3, 1], offset: 808714880>>
    %subview_700 = memref.subview %arg0[812401280] [640] [1] : memref<865910724xf32> to memref<640xf32, strided<[1], offset: 812401280>>
    %subview_701 = memref.subview %arg0[812401920] [819200] [1] : memref<865910724xf32> to memref<819200xf32, strided<[1], offset: 812401920>>
    %expand_shape_702 = memref.expand_shape %subview_701 [[0, 1, 2, 3]] : memref<819200xf32, strided<[1], offset: 812401920>> into memref<640x1280x1x1xf32, strided<[1280, 1, 1, 1], offset: 812401920>>
    %subview_703 = memref.subview %arg0[813221120] [640] [1] : memref<865910724xf32> to memref<640xf32, strided<[1], offset: 813221120>>
    %subview_704 = memref.subview %arg0[813221760] [640] [1] : memref<865910724xf32> to memref<640xf32, strided<[1], offset: 813221760>>
    %subview_705 = memref.subview %arg0[813222400] [640] [1] : memref<865910724xf32> to memref<640xf32, strided<[1], offset: 813222400>>
    %subview_706 = memref.subview %arg0[813223040] [409600] [1] : memref<865910724xf32> to memref<409600xf32, strided<[1], offset: 813223040>>
    %expand_shape_707 = memref.expand_shape %subview_706 [[0, 1]] : memref<409600xf32, strided<[1], offset: 813223040>> into memref<640x640xf32, strided<[640, 1], offset: 813223040>>
    %subview_708 = memref.subview %arg0[813632640] [640] [1] : memref<865910724xf32> to memref<640xf32, strided<[1], offset: 813632640>>
    %subview_709 = memref.subview %arg0[813633280] [640] [1] : memref<865910724xf32> to memref<640xf32, strided<[1], offset: 813633280>>
    %subview_710 = memref.subview %arg0[813633920] [640] [1] : memref<865910724xf32> to memref<640xf32, strided<[1], offset: 813633920>>
    %subview_711 = memref.subview %arg0[813634560] [409600] [1] : memref<865910724xf32> to memref<409600xf32, strided<[1], offset: 813634560>>
    %expand_shape_712 = memref.expand_shape %subview_711 [[0, 1]] : memref<409600xf32, strided<[1], offset: 813634560>> into memref<640x640xf32, strided<[640, 1], offset: 813634560>>
    %subview_713 = memref.subview %arg0[814044160] [409600] [1] : memref<865910724xf32> to memref<409600xf32, strided<[1], offset: 814044160>>
    %expand_shape_714 = memref.expand_shape %subview_713 [[0, 1]] : memref<409600xf32, strided<[1], offset: 814044160>> into memref<640x640xf32, strided<[640, 1], offset: 814044160>>
    %subview_715 = memref.subview %arg0[814453760] [409600] [1] : memref<865910724xf32> to memref<409600xf32, strided<[1], offset: 814453760>>
    %expand_shape_716 = memref.expand_shape %subview_715 [[0, 1]] : memref<409600xf32, strided<[1], offset: 814453760>> into memref<640x640xf32, strided<[640, 1], offset: 814453760>>
    %subview_717 = memref.subview %arg0[814863360] [409600] [1] : memref<865910724xf32> to memref<409600xf32, strided<[1], offset: 814863360>>
    %expand_shape_718 = memref.expand_shape %subview_717 [[0, 1]] : memref<409600xf32, strided<[1], offset: 814863360>> into memref<640x640xf32, strided<[640, 1], offset: 814863360>>
    %subview_719 = memref.subview %arg0[815272960] [640] [1] : memref<865910724xf32> to memref<640xf32, strided<[1], offset: 815272960>>
    %subview_720 = memref.subview %arg0[815273600] [640] [1] : memref<865910724xf32> to memref<640xf32, strided<[1], offset: 815273600>>
    %subview_721 = memref.subview %arg0[815274240] [640] [1] : memref<865910724xf32> to memref<640xf32, strided<[1], offset: 815274240>>
    %subview_722 = memref.subview %arg0[815274880] [409600] [1] : memref<865910724xf32> to memref<409600xf32, strided<[1], offset: 815274880>>
    %expand_shape_723 = memref.expand_shape %subview_722 [[0, 1]] : memref<409600xf32, strided<[1], offset: 815274880>> into memref<640x640xf32, strided<[640, 1], offset: 815274880>>
    %subview_724 = memref.subview %arg0[815684480] [655360] [1] : memref<865910724xf32> to memref<655360xf32, strided<[1], offset: 815684480>>
    %expand_shape_725 = memref.expand_shape %subview_724 [[0, 1]] : memref<655360xf32, strided<[1], offset: 815684480>> into memref<640x1024xf32, strided<[1024, 1], offset: 815684480>>
    %subview_726 = memref.subview %arg0[816339840] [655360] [1] : memref<865910724xf32> to memref<655360xf32, strided<[1], offset: 816339840>>
    %expand_shape_727 = memref.expand_shape %subview_726 [[0, 1]] : memref<655360xf32, strided<[1], offset: 816339840>> into memref<640x1024xf32, strided<[1024, 1], offset: 816339840>>
    %subview_728 = memref.subview %arg0[816995200] [409600] [1] : memref<865910724xf32> to memref<409600xf32, strided<[1], offset: 816995200>>
    %expand_shape_729 = memref.expand_shape %subview_728 [[0, 1]] : memref<409600xf32, strided<[1], offset: 816995200>> into memref<640x640xf32, strided<[640, 1], offset: 816995200>>
    %subview_730 = memref.subview %arg0[817404800] [640] [1] : memref<865910724xf32> to memref<640xf32, strided<[1], offset: 817404800>>
    %subview_731 = memref.subview %arg0[817405440] [640] [1] : memref<865910724xf32> to memref<640xf32, strided<[1], offset: 817405440>>
    %subview_732 = memref.subview %arg0[817406080] [640] [1] : memref<865910724xf32> to memref<640xf32, strided<[1], offset: 817406080>>
    %subview_733 = memref.subview %arg0[817406720] [3276800] [1] : memref<865910724xf32> to memref<3276800xf32, strided<[1], offset: 817406720>>
    %expand_shape_734 = memref.expand_shape %subview_733 [[0, 1]] : memref<3276800xf32, strided<[1], offset: 817406720>> into memref<5120x640xf32, strided<[640, 1], offset: 817406720>>
    %subview_735 = memref.subview %arg0[820683520] [5120] [1] : memref<865910724xf32> to memref<5120xf32, strided<[1], offset: 820683520>>
    %subview_736 = memref.subview %arg0[820688640] [1638400] [1] : memref<865910724xf32> to memref<1638400xf32, strided<[1], offset: 820688640>>
    %expand_shape_737 = memref.expand_shape %subview_736 [[0, 1]] : memref<1638400xf32, strided<[1], offset: 820688640>> into memref<640x2560xf32, strided<[2560, 1], offset: 820688640>>
    %subview_738 = memref.subview %arg0[822327040] [640] [1] : memref<865910724xf32> to memref<640xf32, strided<[1], offset: 822327040>>
    %subview_739 = memref.subview %arg0[822327680] [409600] [1] : memref<865910724xf32> to memref<409600xf32, strided<[1], offset: 822327680>>
    %expand_shape_740 = memref.expand_shape %subview_739 [[0, 1]] : memref<409600xf32, strided<[1], offset: 822327680>> into memref<640x640xf32, strided<[640, 1], offset: 822327680>>
    %subview_741 = memref.subview %arg0[822737280] [640] [1] : memref<865910724xf32> to memref<640xf32, strided<[1], offset: 822737280>>
    %subview_742 = memref.subview %arg0[822737920] [960] [1] : memref<865910724xf32> to memref<960xf32, strided<[1], offset: 822737920>>
    %subview_743 = memref.subview %arg0[822738880] [960] [1] : memref<865910724xf32> to memref<960xf32, strided<[1], offset: 822738880>>
    %subview_744 = memref.subview %arg0[822739840] [5529600] [1] : memref<865910724xf32> to memref<5529600xf32, strided<[1], offset: 822739840>>
    %expand_shape_745 = memref.expand_shape %subview_744 [[0, 1, 2, 3]] : memref<5529600xf32, strided<[1], offset: 822739840>> into memref<640x960x3x3xf32, strided<[8640, 9, 3, 1], offset: 822739840>>
…
    %cast_1640 = memref.cast %subview_906 : memref<320xf32, strided<[1], offset: 859805760>> to memref<320xf32, strided<[1], offset: ?>>
    %cast_1641 = memref.cast %subview_908 : memref<640xf32, strided<[1], offset: 859806720>> to memref<640xf32, strided<[1], offset: ?>>
    %cast_1642 = memref.cast %subview_907 : memref<640xf32, strided<[1], offset: 859806080>> to memref<640xf32, strided<[1], offset: ?>>
    %cast_1643 = memref.cast %expand_shape_910 : memref<320x640x3x3xf32, strided<[5760, 9, 3, 1], offset: 859807360>> to memref<320x640x3x3xf32, strided<[5760, 9, 3, 1], offset: ?>>
    %cast_1644 = memref.cast %subview_911 : memref<320xf32, strided<[1], offset: 861650560>> to memref<320xf32, strided<[1], offset: ?>>
    %cast_1645 = memref.cast %expand_shape_913 : memref<320x1280xf32, strided<[1280, 1], offset: 861650880>> to memref<320x1280xf32, strided<[1280, 1], offset: ?>>
    %cast_1646 = memref.cast %subview_914 : memref<320xf32, strided<[1], offset: 862060480>> to memref<320xf32, strided<[1], offset: ?>>
    %cast_1647 = memref.cast %subview_916 : memref<320xf32, strided<[1], offset: 862061120>> to memref<320xf32, strided<[1], offset: ?>>
    %cast_1648 = memref.cast %subview_915 : memref<320xf32, strided<[1], offset: 862060800>> to memref<320xf32, strided<[1], offset: ?>>
    %cast_1649 = memref.cast %expand_shape_918 : memref<320x320x3x3xf32, strided<[2880, 9, 3, 1], offset: 862061440>> to memref<320x320x3x3xf32, strided<[2880, 9, 3, 1], offset: ?>>
    %cast_1650 = memref.cast %subview_919 : memref<320xf32, strided<[1], offset: 862983040>> to memref<320xf32, strided<[1], offset: ?>>
    %cast_1651 = memref.cast %expand_shape_921 : memref<320x640x1x1xf32, strided<[640, 1, 1, 1], offset: 862983360>> to memref<320x640x1x1xf32, strided<[640, 1, 1, 1], offset: ?>>
    %cast_1652 = memref.cast %subview_922 : memref<320xf32, strided<[1], offset: 863188160>> to memref<320xf32, strided<[1], offset: ?>>
    %cast_1653 = memref.cast %subview_924 : memref<320xf32, strided<[1], offset: 863188800>> to memref<320xf32, strided<[1], offset: ?>>
    %cast_1654 = memref.cast %subview_923 : memref<320xf32, strided<[1], offset: 863188480>> to memref<320xf32, strided<[1], offset: ?>>
    %cast_1655 = memref.cast %expand_shape_926 : memref<320x320xf32, strided<[320, 1], offset: 863189120>> to memref<320x320xf32, strided<[320, 1], offset: ?>>
    %cast_1656 = memref.cast %subview_927 : memref<320xf32, strided<[1], offset: 863291520>> to memref<320xf32, strided<[1], offset: ?>>
    %cast_1657 = memref.cast %subview_928 : memref<320xf32, strided<[1], offset: 863291840>> to memref<320xf32, strided<[1], offset: ?>>
    %cast_1658 = memref.cast %subview_929 : memref<320xf32, strided<[1], offset: 863292160>> to memref<320xf32, strided<[1], offset: ?>>
    %cast_1659 = memref.cast %expand_shape_931 : memref<320x320xf32, strided<[320, 1], offset: 863292480>> to memref<320x320xf32, strided<[320, 1], offset: ?>>
    %cast_1660 = memref.cast %expand_shape_933 : memref<320x320xf32, strided<[320, 1], offset: 863394880>> to memref<320x320xf32, strided<[320, 1], offset: ?>>
    %cast_1661 = memref.cast %expand_shape_935 : memref<320x320xf32, strided<[320, 1], offset: 863497280>> to memref<320x320xf32, strided<[320, 1], offset: ?>>
    %cast_1662 = memref.cast %expand_shape_937 : memref<320x320xf32, strided<[320, 1], offset: 863599680>> to memref<320x320xf32, strided<[320, 1], offset: ?>>
    %cast_1663 = memref.cast %subview_938 : memref<320xf32, strided<[1], offset: 863702080>> to memref<320xf32, strided<[1], offset: ?>>
    %cast_1664 = memref.cast %subview_939 : memref<320xf32, strided<[1], offset: 863702400>> to memref<320xf32, strided<[1], offset: ?>>
    %cast_1665 = memref.cast %subview_940 : memref<320xf32, strided<[1], offset: 863702720>> to memref<320xf32, strided<[1], offset: ?>>
    %cast_1666 = memref.cast %expand_shape_942 : memref<320x320xf32, strided<[320, 1], offset: 863703040>> to memref<320x320xf32, strided<[320, 1], offset: ?>>
    %cast_1667 = memref.cast %expand_shape_944 : memref<320x1024xf32, strided<[1024, 1], offset: 863805440>> to memref<320x1024xf32, strided<[1024, 1], offset: ?>>
    %cast_1668 = memref.cast %arg3 : memref<1x12x1024xf32> to memref<1x12x1024xf32, strided<[12288, 1024, 1], offset: ?>>
    %cast_1669 = memref.cast %expand_shape_946 : memref<320x1024xf32, strided<[1024, 1], offset: 864133120>> to memref<320x1024xf32, strided<[1024, 1], offset: ?>>
    %cast_1670 = memref.cast %arg3 : memref<1x12x1024xf32> to memref<1x12x1024xf32, strided<[12288, 1024, 1], offset: ?>>
    %cast_1671 = memref.cast %expand_shape_948 : memref<320x320xf32, strided<[320, 1], offset: 864460800>> to memref<320x320xf32, strided<[320, 1], offset: ?>>
    %cast_1672 = memref.cast %subview_949 : memref<320xf32, strided<[1], offset: 864563200>> to memref<320xf32, strided<[1], offset: ?>>
    %cast_1673 = memref.cast %subview_950 : memref<320xf32, strided<[1], offset: 864563520>> to memref<320xf32, strided<[1], offset: ?>>
    %cast_1674 = memref.cast %subview_951 : memref<320xf32, strided<[1], offset: 864563840>> to memref<320xf32, strided<[1], offset: ?>>
    %cast_1675 = memref.cast %expand_shape_953 : memref<2560x320xf32, strided<[320, 1], offset: 864564160>> to memref<2560x320xf32, strided<[320, 1], offset: ?>>
    %cast_1676 = memref.cast %subview_954 : memref<2560xf32, strided<[1], offset: 865383360>> to memref<2560xf32, strided<[1], offset: ?>>
    %cast_1677 = memref.cast %expand_shape_956 : memref<320x1280xf32, strided<[1280, 1], offset: 865385920>> to memref<320x1280xf32, strided<[1280, 1], offset: ?>>
    %cast_1678 = memref.cast %subview_957 : memref<320xf32, strided<[1], offset: 865795520>> to memref<320xf32, strided<[1], offset: ?>>
    %cast_1679 = memref.cast %expand_shape_959 : memref<320x320xf32, strided<[320, 1], offset: 865795840>> to memref<320x320xf32, strided<[320, 1], offset: ?>>
    %cast_1680 = memref.cast %subview_960 : memref<320xf32, strided<[1], offset: 865898240>> to memref<320xf32, strided<[1], offset: ?>>
    %cast_1681 = memref.cast %subview_962 : memref<320xf32, strided<[1], offset: 865898880>> to memref<320xf32, strided<[1], offset: ?>>
    %cast_1682 = memref.cast %subview_961 : memref<320xf32, strided<[1], offset: 865898560>> to memref<320xf32, strided<[1], offset: ?>>
    %cast_1683 = memref.cast %expand_shape_964 : memref<4x320x3x3xf32, strided<[2880, 9, 3, 1], offset: 865899200>> to memref<4x320x3x3xf32, strided<[2880, 9, 3, 1], offset: ?>>
    %cast_1684 = memref.cast %subview_965 : memref<4xf32, strided<[1], offset: 865910720>> to memref<4xf32, strided<[1], offset: ?>>
    %0 = call @subgraph0(%cast, %cast_966, %cast_967, %cast_968, %cast_969, %cast_970, %cast_971, %cast_972, %cast_973, %cast_974, %cast_975, %cast_976, %cast_977, %cast_978, %cast_979, %cast_980, %cast_981, %cast_982, %cast_983, %cast_984, %cast_985, %cast_986, %cast_987, %cast_988, %cast_989, %cast_990, %cast_991, %cast_992, %cast_993, %cast_994, %cast_995, %cast_996, %cast_997, %cast_998, %cast_999, %cast_1000, %cast_1001, %cast_1002, %cast_1003, %cast_1004, %cast_1005, %cast_1006, %cast_1007, %cast_1008, %cast_1009, %cast_1010, %cast_1011, %cast_1012, %cast_1013, %cast_1014, %cast_1015, %cast_1016, %cast_1017, %cast_1018, %cast_1019, %cast_1020, %cast_1021, %cast_1022, %cast_1023, %cast_1024, %cast_1025, %cast_1026, %cast_1027, %cast_1028, %cast_1029, %cast_1030, %cast_1031, %cast_1032, %cast_1033, %cast_1034, %cast_1035, %cast_1036, %cast_1037, %cast_1038, %cast_1039, %cast_1040, %cast_1041, %cast_1042, %cast_1043, %cast_1044, %cast_1045, %cast_1046, %cast_1047, %cast_1048, %cast_1049, %cast_1050, %cast_1051, %cast_1052, %cast_1053, %cast_1054, %cast_1055, %cast_1056, %cast_1057, %cast_1058, %cast_1059, %cast_1060, %cast_1061, %cast_1062, %cast_1063, %cast_1064, %cast_1065, %cast_1066, %cast_1067, %cast_1068, %cast_1069, %cast_1070, %cast_1071, %cast_1072, %cast_1073, %cast_1074, %cast_1075, %cast_1076, %cast_1077, %cast_1078, %cast_1079, %cast_1080, %cast_1081, %cast_1082, %cast_1083, %cast_1084, %cast_1085, %cast_1086, %cast_1087, %cast_1088, %cast_1089, %cast_1090, %cast_1091, %cast_1092, %cast_1093, %cast_1094, %cast_1095, %cast_1096, %cast_1097, %cast_1098, %cast_1099, %cast_1100, %cast_1101, %cast_1102, %cast_1103, %cast_1104, %cast_1105, %cast_1106, %cast_1107, %cast_1108, %cast_1109, %cast_1110, %cast_1111, %cast_1112, %cast_1113, %cast_1114, %cast_1115, %cast_1116, %cast_1117, %cast_1118, %cast_1119, %cast_1120, %cast_1121, %cast_1122, %cast_1123, %cast_1124, %cast_1125, %cast_1126, %cast_1127, %cast_1128, %cast_1129, %cast_1130, %cast_1131, %cast_1132, %cast_1133, %cast_1134, %cast_1135, %cast_1136, %cast_1137, %cast_1138, %cast_1139, %cast_1140, %cast_1141, %cast_1142, %cast_1143, %cast_1144, %cast_1145, %cast_1146, %cast_1147, %cast_1148, %cast_1149, %cast_1150, %cast_1151, %cast_1152, %cast_1153, %cast_1154, %cast_1155, %cast_1156, %cast_1157, %cast_1158, %cast_1159, %cast_1160, %cast_1161, %cast_1162, %cast_1163, %cast_1164, %cast_1165, %cast_1166, %cast_1167, %cast_1168, %cast_1169, %cast_1170, %cast_1171, %cast_1172, %cast_1173, %cast_1174, %cast_1175, %cast_1176, %cast_1177, %cast_1178, %cast_1179, %cast_1180, %cast_1181, %cast_1182, %cast_1183, %cast_1184, %cast_1185, %cast_1186, %cast_1187, %cast_1188, %cast_1189, %cast_1190, %cast_1191, %cast_1192, %cast_1193, %cast_1194, %cast_1195, %cast_1196, %cast_1197, %cast_1198, %cast_1199, %cast_1200, %cast_1201, %cast_1202, %cast_1203, %cast_1204, %cast_1205, %cast_1206, %cast_1207, %cast_1208, %cast_1209, %cast_1210, %cast_1211, %cast_1212, %cast_1213, %cast_1214, %cast_1215, %cast_1216, %cast_1217, %cast_1218, %cast_1219, %cast_1220, %cast_1221, %cast_1222, %cast_1223, %cast_1224, %cast_1225, %cast_1226, %cast_1227, %cast_1228, %cast_1229, %cast_1230, %cast_1231, %cast_1232, %cast_1233, %cast_1234, %cast_1235, %cast_1236, %cast_1237, %cast_1238, %cast_1239, %cast_1240, %cast_1241, %cast_1242, %cast_1243, %cast_1244, %cast_1245, %cast_1246, %cast_1247, %cast_1248, %cast_1249, %cast_1250, %cast_1251, %cast_1252, %cast_1253, %cast_1254, %cast_1255, %cast_1256, %cast_1257, %cast_1258, %cast_1259, %cast_1260, %cast_1261, %cast_1262, %cast_1263, %cast_1264, %cast_1265, %cast_1266, %cast_1267, %cast_1268, %cast_1269, %cast_1270, %cast_1271, %cast_1272, %cast_1273, %cast_1274, %cast_1275, %cast_1276, %cast_1277, %cast_1278, %cast_1279, %cast_1280, %cast_1281, %cast_1282, %cast_1283, %cast_1284, %cast_1285, %cast_1286, %cast_1287, %cast_1288, %cast_1289, %cast_1290, %cast_1291, %cast_1292, %cast_1293, %cast_1294, %cast_1295, %cast_1296, %cast_1297, %cast_1298, %cast_1299, %cast_1300, %cast_1301, %cast_1302, %cast_1303, %cast_1304, %cast_1305, %cast_1306, %cast_1307, %cast_1308, %cast_1309, %cast_1310, %cast_1311, %cast_1312, %cast_1313, %cast_1314, %cast_1315, %cast_1316, %cast_1317, %cast_1318, %cast_1319, %cast_1320, %cast_1321, %cast_1322, %cast_1323, %cast_1324, %cast_1325, %cast_1326, %cast_1327, %cast_1328, %cast_1329, %cast_1330, %cast_1331, %cast_1332, %cast_1333, %cast_1334, %cast_1335, %cast_1336, %cast_1337, %cast_1338, %cast_1339, %cast_1340, %cast_1341, %cast_1342, %cast_1343, %cast_1344, %cast_1345, %cast_1346, %cast_1347, %cast_1348, %cast_1349, %cast_1350, %cast_1351, %cast_1352, %cast_1353, %cast_1354, %cast_1355, %cast_1356, %cast_1357, %cast_1358, %cast_1359, %cast_1360, %cast_1361, %cast_1362, %cast_1363, %cast_1364, %cast_1365, %cast_1366, %cast_1367, %cast_1368, %cast_1369, %cast_1370, %cast_1371, %cast_1372, %cast_1373, %cast_1374, %cast_1375, %cast_1376, %cast_1377, %cast_1378, %cast_1379, %cast_1380, %cast_1381, %cast_1382, %cast_1383, %cast_1384, %cast_1385, %cast_1386, %cast_1387, %cast_1388, %cast_1389, %cast_1390, %cast_1391, %cast_1392, %cast_1393, %cast_1394, %cast_1395, %cast_1396, %cast_1397, %cast_1398, %cast_1399, %cast_1400, %cast_1401, %cast_1402, %cast_1403, %cast_1404, %cast_1405, %cast_1406, %cast_1407, %cast_1408, %cast_1409, %cast_1410, %cast_1411, %cast_1412, %cast_1413, %cast_1414, %cast_1415, %cast_1416, %cast_1417, %cast_1418, %cast_1419, %cast_1420, %cast_1421, %cast_1422, %cast_1423, %cast_1424, %cast_1425, %cast_1426, %cast_1427, %cast_1428, %cast_1429, %cast_1430, %cast_1431, %cast_1432, %cast_1433, %cast_1434, %cast_1435, %cast_1436, %cast_1437, %cast_1438, %cast_1439, %cast_1440, %cast_1441, %cast_1442, %cast_1443, %cast_1444, %cast_1445, %cast_1446, %cast_1447, %cast_1448, %cast_1449, %cast_1450, %cast_1451, %cast_1452, %cast_1453, %cast_1454, %cast_1455, %cast_1456, %cast_1457, %cast_1458, %cast_1459, %cast_1460, %cast_1461, %cast_1462, %cast_1463, %cast_1464, %cast_1465, %cast_1466, %cast_1467, %cast_1468, %cast_1469, %cast_1470, %cast_1471, %cast_1472, %cast_1473, %cast_1474, %cast_1475, %cast_1476, %cast_1477, %cast_1478, %cast_1479, %cast_1480, %cast_1481, %cast_1482, %cast_1483, %cast_1484, %cast_1485, %cast_1486, %cast_1487, %cast_1488, %cast_1489, %cast_1490, %cast_1491, %cast_1492, %cast_1493, %cast_1494, %cast_1495, %cast_1496, %cast_1497, %cast_1498, %cast_1499, %cast_1500, %cast_1501, %cast_1502, %cast_1503, %cast_1504, %cast_1505, %cast_1506, %cast_1507, %cast_1508, %cast_1509, %cast_1510, %cast_1511, %cast_1512, %cast_1513, %cast_1514, %cast_1515, %cast_1516, %cast_1517, %cast_1518, %cast_1519, %cast_1520, %cast_1521, %cast_1522, %cast_1523, %cast_1524, %cast_1525, %cast_1526, %cast_1527, %cast_1528, %cast_1529, %cast_1530, %cast_1531, %cast_1532, %cast_1533, %cast_1534, %cast_1535, %cast_1536, %cast_1537, %cast_1538, %cast_1539, %cast_1540, %cast_1541, %cast_1542, %cast_1543, %cast_1544, %cast_1545, %cast_1546, %cast_1547, %cast_1548, %cast_1549, %cast_1550, %cast_1551, %cast_1552, %cast_1553, %cast_1554, %cast_1555, %cast_1556, %cast_1557, %cast_1558, %cast_1559, %cast_1560, %cast_1561, %cast_1562, %cast_1563, %cast_1564, %cast_1565, %cast_1566, %cast_1567, %cast_1568, %cast_1569, %cast_1570, %cast_1571, %cast_1572, %cast_1573, %cast_1574, %cast_1575, %cast_1576, %cast_1577, %cast_1578, %cast_1579, %cast_1580, %cast_1581, %cast_1582, %cast_1583, %cast_1584, %cast_1585, %cast_1586, %cast_1587, %cast_1588, %cast_1589, %cast_1590, %cast_1591, %cast_1592, %cast_1593, %cast_1594, %cast_1595, %cast_1596, %cast_1597, %cast_1598, %cast_1599, %cast_1600, %cast_1601, %cast_1602, %cast_1603, %cast_1604, %cast_1605, %cast_1606, %cast_1607, %cast_1608, %cast_1609, %cast_1610, %cast_1611, %cast_1612, %cast_1613, %cast_1614, %cast_1615, %cast_1616, %cast_1617, %cast_1618, %cast_1619, %cast_1620, %cast_1621, %cast_1622, %cast_1623, %cast_1624, %cast_1625, %cast_1626, %cast_1627, %cast_1628, %cast_1629, %cast_1630, %cast_1631, %cast_1632, %cast_1633, %cast_1634, %cast_1635, %cast_1636, %cast_1637, %cast_1638, %cast_1639, %cast_1640, %cast_1641, %cast_1642, %cast_1643, %cast_1644, %cast_1645, %cast_1646, %cast_1647, %cast_1648, %cast_1649, %cast_1650, %cast_1651, %cast_1652, %cast_1653, %cast_1654, %cast_1655, %cast_1656, %cast_1657, %cast_1658, %cast_1659, %cast_1660, %cast_1661, %cast_1662, %cast_1663, %cast_1664, %cast_1665, %cast_1666, %cast_1667, %cast_1668, %cast_1669, %cast_1670, %cast_1671, %cast_1672, %cast_1673, %cast_1674, %cast_1675, %cast_1676, %cast_1677, %cast_1678, %cast_1679, %cast_1680, %cast_1681, %cast_1682, %cast_1683, %cast_1684) : (memref<1xf32, strided<[1], offset: ?>>, memref<1280x320xf32, strided<[320, 1], offset: ?>>, memref<1280xf32, strided<[1], offset: ?>>, memref<1280x1280xf32, strided<[1280, 1], offset: ?>>, memref<1280xf32, strided<[1], offset: ?>>, memref<1x4x64x64xf32, strided<[16384, 4096, 64, 1], offset: ?>>, memref<320x4x3x3xf32, strided<[36, 9, 3, 1], offset: ?>>, memref<320xf32, strided<[1], offset: ?>>, memref<320xf32, strided<[1], offset: ?>>, memref<320xf32, strided<[1], offset: ?>>, memref<320x320x3x3xf32, strided<[2880, 9, 3, 1], offset: ?>>, memref<320xf32, strided<[1], offset: ?>>, memref<320x1280xf32, strided<[1280, 1], offset: ?>>, memref<320xf32, strided<[1], offset: ?>>, memref<320xf32, strided<[1], offset: ?>>, memref<320xf32, strided<[1], offset: ?>>, memref<320x320x3x3xf32, strided<[2880, 9, 3, 1], offset: ?>>, memref<320xf32, strided<[1], offset: ?>>, memref<320xf32, strided<[1], offset: ?>>, memref<320xf32, strided<[1], offset: ?>>, memref<320x320xf32, strided<[320, 1], offset: ?>>, memref<320xf32, strided<[1], offset: ?>>, memref<320xf32, strided<[1], offset: ?>>, memref<320xf32, strided<[1], offset: ?>>, memref<320x320xf32, strided<[320, 1], offset: ?>>, memref<320x320xf32, strided<[320, 1], offset: ?>>, memref<320x320xf32, strided<[320, 1], offset: ?>>, memref<320x320xf32, strided<[320, 1], offset: ?>>, memref<320xf32, strided<[1], offset: ?>>, memref<320xf32, strided<[1], offset: ?>>, memref<320xf32, strided<[1], offset: ?>>, memref<320x320xf32, strided<[320, 1], offset: ?>>, memref<320x1024xf32, strided<[1024, 1], offset: ?>>, memref<1x12x1024xf32, strided<[12288, 1024, 1], offset: ?>>, memref<320x1024xf32, strided<[1024, 1], offset: ?>>, memref<1x12x1024xf32, strided<[12288, 1024, 1], offset: ?>>, memref<320x320xf32, strided<[320, 1], offset: ?>>, memref<320xf32, strided<[1], offset: ?>>, memref<320xf32, strided<[1], offset: ?>>, memref<320xf32, strided<[1], offset: ?>>, memref<2560x320xf32, strided<[320, 1], offset: ?>>, memref<2560xf32, strided<[1], offset: ?>>, memref<320x1280xf32, strided<[1280, 1], offset: ?>>, memref<320xf32, strided<[1], offset: ?>>, memref<320x320xf32, strided<[320, 1], offset: ?>>, memref<320xf32, strided<[1], offset: ?>>, memref<320xf32, strided<[1], offset: ?>>, memref<320xf32, strided<[1], offset: ?>>, memref<320x320x3x3xf32, strided<[2880, 9, 3, 1], offset: ?>>, memref<320xf32, strided<[1], offset: ?>>, memref<320x1280xf32, strided<[1280, 1], offset: ?>>, memref<320xf32, strided<[1], offset: ?>>, memref<320xf32, strided<[1], offset: ?>>, memref<320xf32, strided<[1], offset: ?>>, memref<320x320x3x3xf32, strided<[2880, 9, 3, 1], offset: ?>>, memref<320xf32, strided<[1], offset: ?>>, memref<320xf32, strided<[1], offset: ?>>, memref<320xf32, strided<[1], offset: ?>>, memref<320x320xf32, strided<[320, 1], offset: ?>>, memref<320xf32, strided<[1], offset: ?>>, memref<320xf32, strided<[1], offset: ?>>, memref<320xf32, strided<[1], offset: ?>>, memref<320x320xf32, strided<[320, 1], offset: ?>>, memref<320x320xf32, strided<[320, 1], offset: ?>>, memref<320x320xf32, strided<[320, 1], offset: ?>>, memref<320x320xf32, strided<[320, 1], offset: ?>>, memref<320xf32, strided<[1], offset: ?>>, memref<320xf32, strided<[1], offset: ?>>, memref<320xf32, strided<[1], offset: ?>>, memref<320x320xf32, strided<[320, 1], offset: ?>>, memref<320x1024xf32, strided<[1024, 1], offset: ?>>, memref<1x12x1024xf32, strided<[12288, 1024, 1], offset: ?>>, memref<320x1024xf32, strided<[1024, 1], offset: ?>>, memref<1x12x1024xf32, strided<[12288, 1024, 1], offset: ?>>, memref<320x320xf32, strided<[320, 1], offset: ?>>, memref<320xf32, strided<[1], offset: ?>>, memref<320xf32, strided<[1], offset: ?>>, memref<320xf32, strided<[1], offset: ?>>, memref<2560x320xf32, strided<[320, 1], offset: ?>>, memref<2560xf32, strided<[1], offset: ?>>, memref<320x1280xf32, strided<[1280, 1], offset: ?>>, memref<320xf32, strided<[1], offset: ?>>, memref<320x320xf32, strided<[320, 1], offset: ?>>, memref<320xf32, strided<[1], offset: ?>>, memref<320x320x3x3xf32, strided<[2880, 9, 3, 1], offset: ?>>, memref<320xf32, strided<[1], offset: ?>>, memref<320xf32, strided<[1], offset: ?>>, memref<320xf32, strided<[1], offset: ?>>, memref<640x320x3x3xf32, strided<[2880, 9, 3, 1], offset: ?>>, memref<640xf32, strided<[1], offset: ?>>, memref<640x1280xf32, strided<[1280, 1], offset: ?>>, memref<640xf32, strided<[1], offset: ?>>, memref<640xf32, strided<[1], offset: ?>>, memref<640xf32, strided<[1], offset: ?>>, memref<640x640x3x3xf32, strided<[5760, 9, 3, 1], offset: ?>>, memref<640xf32, strided<[1], offset: ?>>, memref<640x320x1x1xf32, strided<[320, 1, 1, 1], offset: ?>>, memref<640xf32, strided<[1], offset: ?>>, memref<640xf32, strided<[1], offset: ?>>, memref<640xf32, strided<[1], offset: ?>>, memref<640x640xf32, strided<[640, 1], offset: ?>>, memref<640xf32, strided<[1], offset: ?>>, memref<640xf32, strided<[1], offset: ?>>, memref<640xf32, strided<[1], offset: ?>>, memref<640x640xf32, strided<[640, 1], offset: ?>>, memref<640x640xf32, strided<[640, 1], offset: ?>>, memref<640x640xf32, strided<[640, 1], offset: ?>>, memref<640x640xf32, strided<[640, 1], offset: ?>>, memref<640xf32, strided<[1], offset: ?>>, memref<640xf32, strided<[1], offset: ?>>, memref<640xf32, strided<[1], offset: ?>>, memref<640x640xf32, strided<[640, 1], offset: ?>>, memref<640x1024xf32, strided<[1024, 1], offset: ?>>, memref<1x12x1024xf32, strided<[12288, 1024, 1], offset: ?>>, memref<640x1024xf32, strided<[1024, 1], offset: ?>>, memref<1x12x1024xf32, strided<[12288, 1024, 1], offset: ?>>, memref<640x640xf32, strided<[640, 1], offset: ?>>, memref<640xf32, strided<[1], offset: ?>>, memref<640xf32, strided<[1], offset: ?>>, memref<640xf32, strided<[1], offset: ?>>, memref<5120x640xf32, strided<[640, 1], offset: ?>>, memref<5120xf32, strided<[1], offset: ?>>, memref<640x2560xf32, strided<[2560, 1], offset: ?>>, memref<640xf32, strided<[1], offset: ?>>, memref<640x640xf32, strided<[640, 1], offset: ?>>, memref<640xf32, strided<[1], offset: ?>>, memref<640xf32, strided<[1], offset: ?>>, memref<640xf32, strided<[1], offset: ?>>, memref<640x640x3x3xf32, strided<[5760, 9, 3, 1], offset: ?>>, memref<640xf32, strided<[1], offset: ?>>, memref<640x1280xf32, strided<[1280, 1], offset: ?>>, memref<640xf32, strided<[1], offset: ?>>, memref<640xf32, strided<[1], offset: ?>>, memref<640xf32, strided<[1], offset: ?>>, memref<640x640x3x3xf32, strided<[5760, 9, 3, 1], offset: ?>>, memref<640xf32, strided<[1], offset: ?>>, memref<640xf32, strided<[1], offset: ?>>, memref<640xf32, strided<[1], offset: ?>>, memref<640x640xf32, strided<[640, 1], offset: ?>>, memref<640xf32, strided<[1], offset: ?>>, memref<640xf32, strided<[1], offset: ?>>, memref<640xf32, strided<[1], offset: ?>>, memref<640x640xf32, strided<[640, 1], offset: ?>>, memref<640x640xf32, strided<[640, 1], offset: ?>>, memref<640x640xf32, strided<[640, 1], offset: ?>>, memref<640x640xf32, strided<[640, 1], offset: ?>>, memref<640xf32, strided<[1], offset: ?>>, memref<640xf32, strided<[1], offset: ?>>, memref<640xf32, strided<[1], offset: ?>>, memref<640x640xf32, strided<[640, 1], offset: ?>>, memref<640x1024xf32, strided<[1024, 1], offset: ?>>, memref<1x12x1024xf32, strided<[12288, 1024, 1], offset: ?>>, memref<640x1024xf32, strided<[1024, 1], offset: ?>>, memref<1x12x1024xf32, strided<[12288, 1024, 1], offset: ?>>, memref<640x640xf32, strided<[640, 1], offset: ?>>, memref<640xf32, strided<[1], offset: ?>>, memref<640xf32, strided<[1], offset: ?>>, memref<640xf32, strided<[1], offset: ?>>, memref<5120x640xf32, strided<[640, 1], offset: ?>>, memref<5120xf32, strided<[1], offset: ?>>, memref<640x2560xf32, strided<[2560, 1], offset: ?>>, memref<640xf32, strided<[1], offset: ?>>, memref<640x640xf32, strided<[640, 1], offset: ?>>, memref<640xf32, strided<[1], offset: ?>>, memref<640x640x3x3xf32, strided<[5760, 9, 3, 1], offset: ?>>, memref<640xf32, strided<[1], offset: ?>>, memref<640xf32, strided<[1], offset: ?>>, memref<640xf32, strided<[1], offset: ?>>, memref<1280x640x3x3xf32, strided<[5760, 9, 3, 1], offset: ?>>, memref<1280xf32, strided<[1], offset: ?>>, memref<1280x1280xf32, strided<[1280, 1], offset: ?>>, memref<1280xf32, strided<[1], offset: ?>>, memref<1280xf32, strided<[1], offset: ?>>, memref<1280xf32, strided<[1], offset: ?>>, memref<1280x1280x3x3xf32, strided<[11520, 9, 3, 1], offset: ?>>, memref<1280xf32, strided<[1], offset: ?>>, memref<1280x640x1x1xf32, strided<[640, 1, 1, 1], offset: ?>>, memref<1280xf32, strided<[1], offset: ?>>, memref<1280xf32, strided<[1], offset: ?>>, memref<1280xf32, strided<[1], offset: ?>>, memref<1280x1280xf32, strided<[1280, 1], offset: ?>>, memref<1280xf32, strided<[1], offset: ?>>, memref<1280xf32, strided<[1], offset: ?>>, memref<1280xf32, strided<[1], offset: ?>>, memref<1280x1280xf32, strided<[1280, 1], offset: ?>>, memref<1280x1280xf32, strided<[1280, 1], offset: ?>>, memref<1280x1280xf32, strided<[1280, 1], offset: ?>>, memref<1280x1280xf32, strided<[1280, 1], offset: ?>>, memref<1280xf32, strided<[1], offset: ?>>, memref<1280xf32, strided<[1], offset: ?>>, memref<1280xf32, strided<[1], offset: ?>>, memref<1280x1280xf32, strided<[1280, 1], offset: ?>>, memref<1280x1024xf32, strided<[1024, 1], offset: ?>>, memref<1x12x1024xf32, strided<[12288, 1024, 1], offset: ?>>, memref<1280x1024xf32, strided<[1024, 1], offset: ?>>, memref<1x12x1024xf32, strided<[12288, 1024, 1], offset: ?>>, memref<1280x1280xf32, strided<[1280, 1], offset: ?>>, memref<1280xf32, strided<[1], offset: ?>>, memref<1280xf32, strided<[1], offset: ?>>, memref<1280xf32, strided<[1], offset: ?>>, memref<10240x1280xf32, strided<[1280, 1], offset: ?>>, memref<10240xf32, strided<[1], offset: ?>>, memref<1280x5120xf32, strided<[5120, 1], offset: ?>>, memref<1280xf32, strided<[1], offset: ?>>, memref<1280x1280xf32, strided<[1280, 1], offset: ?>>, memref<1280xf32, strided<[1], offset: ?>>, memref<1280xf32, strided<[1], offset: ?>>, memref<1280xf32, strided<[1], offset: ?>>, memref<1280x1280x3x3xf32, strided<[11520, 9, 3, 1], offset: ?>>, memref<1280xf32, strided<[1], offset: ?>>, memref<1280x1280xf32, strided<[1280, 1], offset: ?>>, memref<1280xf32, strided<[1], offset: ?>>, memref<1280xf32, strided<[1], offset: ?>>, memref<1280xf32, strided<[1], offset: ?>>, memref<1280x1280x3x3xf32, strided<[11520, 9, 3, 1], offset: ?>>, memref<1280xf32, strided<[1], offset: ?>>, memref<1280xf32, strided<[1], offset: ?>>, memref<1280xf32, strided<[1], offset: ?>>, memref<1280x1280xf32, strided<[1280, 1], offset: ?>>, memref<1280xf32, strided<[1], offset: ?>>, memref<1280xf32, strided<[1], offset: ?>>, memref<1280xf32, strided<[1], offset: ?>>, memref<1280x1280xf32, strided<[1280, 1], offset: ?>>, memref<1280x1280xf32, strided<[1280, 1], offset: ?>>, memref<1280x1280xf32, strided<[1280, 1], offset: ?>>, memref<1280x1280xf32, strided<[1280, 1], offset: ?>>, memref<1280xf32, strided<[1], offset: ?>>, memref<1280xf32, strided<[1], offset: ?>>, memref<1280xf32, strided<[1], offset: ?>>, memref<1280x1280xf32, strided<[1280, 1], offset: ?>>, memref<1280x1024xf32, strided<[1024, 1], offset: ?>>, memref<1x12x1024xf32, strided<[12288, 1024, 1], offset: ?>>, memref<1280x1024xf32, strided<[1024, 1], offset: ?>>, memref<1x12x1024xf32, strided<[12288, 1024, 1], offset: ?>>, memref<1280x1280xf32, strided<[1280, 1], offset: ?>>, memref<1280xf32, strided<[1], offset: ?>>, memref<1280xf32, strided<[1], offset: ?>>, memref<1280xf32, strided<[1], offset: ?>>, memref<10240x1280xf32, strided<[1280, 1], offset: ?>>, memref<10240xf32, strided<[1], offset: ?>>, memref<1280x5120xf32, strided<[5120, 1], offset: ?>>, memref<1280xf32, strided<[1], offset: ?>>, memref<1280x1280xf32, strided<[1280, 1], offset: ?>>, memref<1280xf32, strided<[1], offset: ?>>, memref<1280x1280x3x3xf32, strided<[11520, 9, 3, 1], offset: ?>>, memref<1280xf32, strided<[1], offset: ?>>, memref<1280xf32, strided<[1], offset: ?>>, memref<1280xf32, strided<[1], offset: ?>>, memref<1280x1280x3x3xf32, strided<[11520, 9, 3, 1], offset: ?>>, memref<1280xf32, strided<[1], offset: ?>>, memref<1280x1280xf32, strided<[1280, 1], offset: ?>>, memref<1280xf32, strided<[1], offset: ?>>, memref<1280xf32, strided<[1], offset: ?>>, memref<1280xf32, strided<[1], offset: ?>>, memref<1280x1280x3x3xf32, strided<[11520, 9, 3, 1], offset: ?>>, memref<1280xf32, strided<[1], offset: ?>>, memref<1280xf32, strided<[1], offset: ?>>, memref<1280xf32, strided<[1], offset: ?>>, memref<1280x1280x3x3xf32, strided<[11520, 9, 3, 1], offset: ?>>, memref<1280xf32, strided<[1], offset: ?>>, memref<1280x1280xf32, strided<[1280, 1], offset: ?>>, memref<1280xf32, strided<[1], offset: ?>>, memref<1280xf32, strided<[1], offset: ?>>, memref<1280xf32, strided<[1], offset: ?>>, memref<1280x1280x3x3xf32, strided<[11520, 9, 3, 1], offset: ?>>, memref<1280xf32, strided<[1], offset: ?>>, memref<1280xf32, strided<[1], offset: ?>>, memref<1280xf32, strided<[1], offset: ?>>, memref<1280x1280x3x3xf32, strided<[11520, 9, 3, 1], offset: ?>>, memref<1280xf32, strided<[1], offset: ?>>, memref<1280x1280xf32, strided<[1280, 1], offset: ?>>, memref<1280xf32, strided<[1], offset: ?>>, memref<1280xf32, strided<[1], offset: ?>>, memref<1280xf32, strided<[1], offset: ?>>, memref<1280x1280x3x3xf32, strided<[11520, 9, 3, 1], offset: ?>>, memref<1280xf32, strided<[1], offset: ?>>, memref<1280xf32, strided<[1], offset: ?>>, memref<1280xf32, strided<[1], offset: ?>>, memref<1280x1280xf32, strided<[1280, 1], offset: ?>>, memref<1280xf32, strided<[1], offset: ?>>, memref<1280xf32, strided<[1], offset: ?>>, memref<1280xf32, strided<[1], offset: ?>>, memref<1280x1280xf32, strided<[1280, 1], offset: ?>>, memref<1280x1280xf32, strided<[1280, 1], offset: ?>>, memref<1280x1280xf32, strided<[1280, 1], offset: ?>>, memref<1280x1280xf32, strided<[1280, 1], offset: ?>>, memref<1280xf32, strided<[1], offset: ?>>, memref<1280xf32, strided<[1], offset: ?>>, memref<1280xf32, strided<[1], offset: ?>>, memref<1280x1280xf32, strided<[1280, 1], offset: ?>>, memref<1280x1024xf32, strided<[1024, 1], offset: ?>>, memref<1x12x1024xf32, strided<[12288, 1024, 1], offset: ?>>, memref<1280x1024xf32, strided<[1024, 1], offset: ?>>, memref<1x12x1024xf32, strided<[12288, 1024, 1], offset: ?>>, memref<1280x1280xf32, strided<[1280, 1], offset: ?>>, memref<1280xf32, strided<[1], offset: ?>>, memref<1280xf32, strided<[1], offset: ?>>, memref<1280xf32, strided<[1], offset: ?>>, memref<10240x1280xf32, strided<[1280, 1], offset: ?>>, memref<10240xf32, strided<[1], offset: ?>>, memref<1280x5120xf32, strided<[5120, 1], offset: ?>>, memref<1280xf32, strided<[1], offset: ?>>, memref<1280x1280xf32, strided<[1280, 1], offset: ?>>, memref<1280xf32, strided<[1], offset: ?>>, memref<1280xf32, strided<[1], offset: ?>>, memref<1280xf32, strided<[1], offset: ?>>, memref<1280x1280x3x3xf32, strided<[11520, 9, 3, 1], offset: ?>>, memref<1280xf32, strided<[1], offset: ?>>, memref<1280x1280xf32, strided<[1280, 1], offset: ?>>, memref<1280xf32, strided<[1], offset: ?>>, memref<1280xf32, strided<[1], offset: ?>>, memref<1280xf32, strided<[1], offset: ?>>, memref<1280x1280x3x3xf32, strided<[11520, 9, 3, 1], offset: ?>>, memref<1280xf32, strided<[1], offset: ?>>, memref<2560xf32, strided<[1], offset: ?>>, memref<2560xf32, strided<[1], offset: ?>>, memref<1280x2560x3x3xf32, strided<[23040, 9, 3, 1], offset: ?>>, memref<1280xf32, strided<[1], offset: ?>>, memref<1280x1280xf32, strided<[1280, 1], offset: ?>>, memref<1280xf32, strided<[1], offset: ?>>, memref<1280xf32, strided<[1], offset: ?>>, memref<1280xf32, strided<[1], offset: ?>>, memref<1280x1280x3x3xf32, strided<[11520, 9, 3, 1], offset: ?>>, memref<1280xf32, strided<[1], offset: ?>>, memref<1280x2560x1x1xf32, strided<[2560, 1, 1, 1], offset: ?>>, memref<1280xf32, strided<[1], offset: ?>>, memref<2560xf32, strided<[1], offset: ?>>, memref<2560xf32, strided<[1], offset: ?>>, memref<1280x2560x3x3xf32, strided<[23040, 9, 3, 1], offset: ?>>, memref<1280xf32, strided<[1], offset: ?>>, memref<1280x1280xf32, strided<[1280, 1], offset: ?>>, memref<1280xf32, strided<[1], offset: ?>>, memref<1280xf32, strided<[1], offset: ?>>, memref<1280xf32, strided<[1], offset: ?>>, memref<1280x1280x3x3xf32, strided<[11520, 9, 3, 1], offset: ?>>, memref<1280xf32, strided<[1], offset: ?>>, memref<1280x2560x1x1xf32, strided<[2560, 1, 1, 1], offset: ?>>, memref<1280xf32, strided<[1], offset: ?>>, memref<2560xf32, strided<[1], offset: ?>>, memref<2560xf32, strided<[1], offset: ?>>, memref<1280x2560x3x3xf32, strided<[23040, 9, 3, 1], offset: ?>>, memref<1280xf32, strided<[1], offset: ?>>, memref<1280x1280xf32, strided<[1280, 1], offset: ?>>, memref<1280xf32, strided<[1], offset: ?>>, memref<1280xf32, strided<[1], offset: ?>>, memref<1280xf32, strided<[1], offset: ?>>, memref<1280x1280x3x3xf32, strided<[11520, 9, 3, 1], offset: ?>>, memref<1280xf32, strided<[1], offset: ?>>, memref<1280x2560x1x1xf32, strided<[2560, 1, 1, 1], offset: ?>>, memref<1280xf32, strided<[1], offset: ?>>, memref<1280x1280x3x3xf32, strided<[11520, 9, 3, 1], offset: ?>>, memref<1280xf32, strided<[1], offset: ?>>, memref<2560xf32, strided<[1], offset: ?>>, memref<2560xf32, strided<[1], offset: ?>>, memref<1280x2560x3x3xf32, strided<[23040, 9, 3, 1], offset: ?>>, memref<1280xf32, strided<[1], offset: ?>>, memref<1280x1280xf32, strided<[1280, 1], offset: ?>>, memref<1280xf32, strided<[1], offset: ?>>, memref<1280xf32, strided<[1], offset: ?>>, memref<1280xf32, strided<[1], offset: ?>>, memref<1280x1280x3x3xf32, strided<[11520, 9, 3, 1], offset: ?>>, memref<1280xf32, strided<[1], offset: ?>>, memref<1280x2560x1x1xf32, strided<[2560, 1, 1, 1], offset: ?>>, memref<1280xf32, strided<[1], offset: ?>>, memref<1280xf32, strided<[1], offset: ?>>, memref<1280xf32, strided<[1], offset: ?>>, memref<1280x1280xf32, strided<[1280, 1], offset: ?>>, memref<1280xf32, strided<[1], offset: ?>>, memref<1280xf32, strided<[1], offset: ?>>, memref<1280xf32, strided<[1], offset: ?>>, memref<1280x1280xf32, strided<[1280, 1], offset: ?>>, memref<1280x1280xf32, strided<[1280, 1], offset: ?>>, memref<1280x1280xf32, strided<[1280, 1], offset: ?>>, memref<1280x1280xf32, strided<[1280, 1], offset: ?>>, memref<1280xf32, strided<[1], offset: ?>>, memref<1280xf32, strided<[1], offset: ?>>, memref<1280xf32, strided<[1], offset: ?>>, memref<1280x1280xf32, strided<[1280, 1], offset: ?>>, memref<1280x1024xf32, strided<[1024, 1], offset: ?>>, memref<1x12x1024xf32, strided<[12288, 1024, 1], offset: ?>>, memref<1280x1024xf32, strided<[1024, 1], offset: ?>>, memref<1x12x1024xf32, strided<[12288, 1024, 1], offset: ?>>, memref<1280x1280xf32, strided<[1280, 1], offset: ?>>, memref<1280xf32, strided<[1], offset: ?>>, memref<1280xf32, strided<[1], offset: ?>>, memref<1280xf32, strided<[1], offset: ?>>, memref<10240x1280xf32, strided<[1280, 1], offset: ?>>, memref<10240xf32, strided<[1], offset: ?>>, memref<1280x5120xf32, strided<[5120, 1], offset: ?>>, memref<1280xf32, strided<[1], offset: ?>>, memref<1280x1280xf32, strided<[1280, 1], offset: ?>>, memref<1280xf32, strided<[1], offset: ?>>, memref<2560xf32, strided<[1], offset: ?>>, memref<2560xf32, strided<[1], offset: ?>>, memref<1280x2560x3x3xf32, strided<[23040, 9, 3, 1], offset: ?>>, memref<1280xf32, strided<[1], offset: ?>>, memref<1280x1280xf32, strided<[1280, 1], offset: ?>>, memref<1280xf32, strided<[1], offset: ?>>, memref<1280xf32, strided<[1], offset: ?>>, memref<1280xf32, strided<[1], offset: ?>>, memref<1280x1280x3x3xf32, strided<[11520, 9, 3, 1], offset: ?>>, memref<1280xf32, strided<[1], offset: ?>>, memref<1280x2560x1x1xf32, strided<[2560, 1, 1, 1], offset: ?>>, memref<1280xf32, strided<[1], offset: ?>>, memref<1280xf32, strided<[1], offset: ?>>, memref<1280xf32, strided<[1], offset: ?>>, memref<1280x1280xf32, strided<[1280, 1], offset: ?>>, memref<1280xf32, strided<[1], offset: ?>>, memref<1280xf32, strided<[1], offset: ?>>, memref<1280xf32, strided<[1], offset: ?>>, memref<1280x1280xf32, strided<[1280, 1], offset: ?>>, memref<1280x1280xf32, strided<[1280, 1], offset: ?>>, memref<1280x1280xf32, strided<[1280, 1], offset: ?>>, memref<1280x1280xf32, strided<[1280, 1], offset: ?>>, memref<1280xf32, strided<[1], offset: ?>>, memref<1280xf32, strided<[1], offset: ?>>, memref<1280xf32, strided<[1], offset: ?>>, memref<1280x1280xf32, strided<[1280, 1], offset: ?>>, memref<1280x1024xf32, strided<[1024, 1], offset: ?>>, memref<1x12x1024xf32, strided<[12288, 1024, 1], offset: ?>>, memref<1280x1024xf32, strided<[1024, 1], offset: ?>>, memref<1x12x1024xf32, strided<[12288, 1024, 1], offset: ?>>, memref<1280x1280xf32, strided<[1280, 1], offset: ?>>, memref<1280xf32, strided<[1], offset: ?>>, memref<1280xf32, strided<[1], offset: ?>>, memref<1280xf32, strided<[1], offset: ?>>, memref<10240x1280xf32, strided<[1280, 1], offset: ?>>, memref<10240xf32, strided<[1], offset: ?>>, memref<1280x5120xf32, strided<[5120, 1], offset: ?>>, memref<1280xf32, strided<[1], offset: ?>>, memref<1280x1280xf32, strided<[1280, 1], offset: ?>>, memref<1280xf32, strided<[1], offset: ?>>, memref<1920xf32, strided<[1], offset: ?>>, memref<1920xf32, strided<[1], offset: ?>>, memref<1280x1920x3x3xf32, strided<[17280, 9, 3, 1], offset: ?>>, memref<1280xf32, strided<[1], offset: ?>>, memref<1280x1280xf32, strided<[1280, 1], offset: ?>>, memref<1280xf32, strided<[1], offset: ?>>, memref<1280xf32, strided<[1], offset: ?>>, memref<1280xf32, strided<[1], offset: ?>>, memref<1280x1280x3x3xf32, strided<[11520, 9, 3, 1], offset: ?>>, memref<1280xf32, strided<[1], offset: ?>>, memref<1280x1920x1x1xf32, strided<[1920, 1, 1, 1], offset: ?>>, memref<1280xf32, strided<[1], offset: ?>>, memref<1280xf32, strided<[1], offset: ?>>, memref<1280xf32, strided<[1], offset: ?>>, memref<1280x1280xf32, strided<[1280, 1], offset: ?>>, memref<1280xf32, strided<[1], offset: ?>>, memref<1280xf32, strided<[1], offset: ?>>, memref<1280xf32, strided<[1], offset: ?>>, memref<1280x1280xf32, strided<[1280, 1], offset: ?>>, memref<1280x1280xf32, strided<[1280, 1], offset: ?>>, memref<1280x1280xf32, strided<[1280, 1], offset: ?>>, memref<1280x1280xf32, strided<[1280, 1], offset: ?>>, memref<1280xf32, strided<[1], offset: ?>>, memref<1280xf32, strided<[1], offset: ?>>, memref<1280xf32, strided<[1], offset: ?>>, memref<1280x1280xf32, strided<[1280, 1], offset: ?>>, memref<1280x1024xf32, strided<[1024, 1], offset: ?>>, memref<1x12x1024xf32, strided<[12288, 1024, 1], offset: ?>>, memref<1280x1024xf32, strided<[1024, 1], offset: ?>>, memref<1x12x1024xf32, strided<[12288, 1024, 1], offset: ?>>, memref<1280x1280xf32, strided<[1280, 1], offset: ?>>, memref<1280xf32, strided<[1], offset: ?>>, memref<1280xf32, strided<[1], offset: ?>>, memref<1280xf32, strided<[1], offset: ?>>, memref<10240x1280xf32, strided<[1280, 1], offset: ?>>, memref<10240xf32, strided<[1], offset: ?>>, memref<1280x5120xf32, strided<[5120, 1], offset: ?>>, memref<1280xf32, strided<[1], offset: ?>>, memref<1280x1280xf32, strided<[1280, 1], offset: ?>>, memref<1280xf32, strided<[1], offset: ?>>, memref<1280x1280x3x3xf32, strided<[11520, 9, 3, 1], offset: ?>>, memref<1280xf32, strided<[1], offset: ?>>, memref<1920xf32, strided<[1], offset: ?>>, memref<1920xf32, strided<[1], offset: ?>>, memref<640x1920x3x3xf32, strided<[17280, 9, 3, 1], offset: ?>>, memref<640xf32, strided<[1], offset: ?>>, memref<640x1280xf32, strided<[1280, 1], offset: ?>>, memref<640xf32, strided<[1], offset: ?>>, memref<640xf32, strided<[1], offset: ?>>, memref<640xf32, strided<[1], offset: ?>>, memref<640x640x3x3xf32, strided<[5760, 9, 3, 1], offset: ?>>, memref<640xf32, strided<[1], offset: ?>>, memref<640x1920x1x1xf32, strided<[1920, 1, 1, 1], offset: ?>>, memref<640xf32, strided<[1], offset: ?>>, memref<640xf32, strided<[1], offset: ?>>, memref<640xf32, strided<[1], offset: ?>>, memref<640x640xf32, strided<[640, 1], offset: ?>>, memref<640xf32, strided<[1], offset: ?>>, memref<640xf32, strided<[1], offset: ?>>, memref<640xf32, strided<[1], offset: ?>>, memref<640x640xf32, strided<[640, 1], offset: ?>>, memref<640x640xf32, strided<[640, 1], offset: ?>>, memref<640x640xf32, strided<[640, 1], offset: ?>>, memref<640x640xf32, strided<[640, 1], offset: ?>>, memref<640xf32, strided<[1], offset: ?>>, memref<640xf32, strided<[1], offset: ?>>, memref<640xf32, strided<[1], offset: ?>>, memref<640x640xf32, strided<[640, 1], offset: ?>>, memref<640x1024xf32, strided<[1024, 1], offset: ?>>, memref<1x12x1024xf32, strided<[12288, 1024, 1], offset: ?>>, memref<640x1024xf32, strided<[1024, 1], offset: ?>>, memref<1x12x1024xf32, strided<[12288, 1024, 1], offset: ?>>, memref<640x640xf32, strided<[640, 1], offset: ?>>, memref<640xf32, strided<[1], offset: ?>>, memref<640xf32, strided<[1], offset: ?>>, memref<640xf32, strided<[1], offset: ?>>, memref<5120x640xf32, strided<[640, 1], offset: ?>>, memref<5120xf32, strided<[1], offset: ?>>, memref<640x2560xf32, strided<[2560, 1], offset: ?>>, memref<640xf32, strided<[1], offset: ?>>, memref<640x640xf32, strided<[640, 1], offset: ?>>, memref<640xf32, strided<[1], offset: ?>>, memref<1280xf32, strided<[1], offset: ?>>, memref<1280xf32, strided<[1], offset: ?>>, memref<640x1280x3x3xf32, strided<[11520, 9, 3, 1], offset: ?>>, memref<640xf32, strided<[1], offset: ?>>, memref<640x1280xf32, strided<[1280, 1], offset: ?>>, memref<640xf32, strided<[1], offset: ?>>, memref<640xf32, strided<[1], offset: ?>>, memref<640xf32, strided<[1], offset: ?>>, memref<640x640x3x3xf32, strided<[5760, 9, 3, 1], offset: ?>>, memref<640xf32, strided<[1], offset: ?>>, memref<640x1280x1x1xf32, strided<[1280, 1, 1, 1], offset: ?>>, memref<640xf32, strided<[1], offset: ?>>, memref<640xf32, strided<[1], offset: ?>>, memref<640xf32, strided<[1], offset: ?>>, memref<640x640xf32, strided<[640, 1], offset: ?>>, memref<640xf32, strided<[1], offset: ?>>, memref<640xf32, strided<[1], offset: ?>>, memref<640xf32, strided<[1], offset: ?>>, memref<640x640xf32, strided<[640, 1], offset: ?>>, memref<640x640xf32, strided<[640, 1], offset: ?>>, memref<640x640xf32, strided<[640, 1], offset: ?>>, memref<640x640xf32, strided<[640, 1], offset: ?>>, memref<640xf32, strided<[1], offset: ?>>, memref<640xf32, strided<[1], offset: ?>>, memref<640xf32, strided<[1], offset: ?>>, memref<640x640xf32, strided<[640, 1], offset: ?>>, memref<640x1024xf32, strided<[1024, 1], offset: ?>>, memref<1x12x1024xf32, strided<[12288, 1024, 1], offset: ?>>, memref<640x1024xf32, strided<[1024, 1], offset: ?>>, memref<1x12x1024xf32, strided<[12288, 1024, 1], offset: ?>>, memref<640x640xf32, strided<[640, 1], offset: ?>>, memref<640xf32, strided<[1], offset: ?>>, memref<640xf32, strided<[1], offset: ?>>, memref<640xf32, strided<[1], offset: ?>>, memref<5120x640xf32, strided<[640, 1], offset: ?>>, memref<5120xf32, strided<[1], offset: ?>>, memref<640x2560xf32, strided<[2560, 1], offset: ?>>, memref<640xf32, strided<[1], offset: ?>>, memref<640x640xf32, strided<[640, 1], offset: ?>>, memref<640xf32, strided<[1], offset: ?>>, memref<960xf32, strided<[1], offset: ?>>, memref<960xf32, strided<[1], offset: ?>>, memref<640x960x3x3xf32, strided<[8640, 9, 3, 1], offset: ?>>, memref<640xf32, strided<[1], offset: ?>>, memref<640x1280xf32, strided<[1280, 1], offset: ?>>, memref<640xf32, strided<[1], offset: ?>>, memref<640xf32, strided<[1], offset: ?>>, memref<640xf32, strided<[1], offset: ?>>, memref<640x640x3x3xf32, strided<[5760, 9, 3, 1], offset: ?>>, memref<640xf32, strided<[1], offset: ?>>, memref<640x960x1x1xf32, strided<[960, 1, 1, 1], offset: ?>>, memref<640xf32, strided<[1], offset: ?>>, memref<640xf32, strided<[1], offset: ?>>, memref<640xf32, strided<[1], offset: ?>>, memref<640x640xf32, strided<[640, 1], offset: ?>>, memref<640xf32, strided<[1], offset: ?>>, memref<640xf32, strided<[1], offset: ?>>, memref<640xf32, strided<[1], offset: ?>>, memref<640x640xf32, strided<[640, 1], offset: ?>>, memref<640x640xf32, strided<[640, 1], offset: ?>>, memref<640x640xf32, strided<[640, 1], offset: ?>>, memref<640x640xf32, strided<[640, 1], offset: ?>>, memref<640xf32, strided<[1], offset: ?>>, memref<640xf32, strided<[1], offset: ?>>, memref<640xf32, strided<[1], offset: ?>>, memref<640x640xf32, strided<[640, 1], offset: ?>>, memref<640x1024xf32, strided<[1024, 1], offset: ?>>, memref<1x12x1024xf32, strided<[12288, 1024, 1], offset: ?>>, memref<640x1024xf32, strided<[1024, 1], offset: ?>>, memref<1x12x1024xf32, strided<[12288, 1024, 1], offset: ?>>, memref<640x640xf32, strided<[640, 1], offset: ?>>, memref<640xf32, strided<[1], offset: ?>>, memref<640xf32, strided<[1], offset: ?>>, memref<640xf32, strided<[1], offset: ?>>, memref<5120x640xf32, strided<[640, 1], offset: ?>>, memref<5120xf32, strided<[1], offset: ?>>, memref<640x2560xf32, strided<[2560, 1], offset: ?>>, memref<640xf32, strided<[1], offset: ?>>, memref<640x640xf32, strided<[640, 1], offset: ?>>, memref<640xf32, strided<[1], offset: ?>>, memref<640x640x3x3xf32, strided<[5760, 9, 3, 1], offset: ?>>, memref<640xf32, strided<[1], offset: ?>>, memref<960xf32, strided<[1], offset: ?>>, memref<960xf32, strided<[1], offset: ?>>, memref<320x960x3x3xf32, strided<[8640, 9, 3, 1], offset: ?>>, memref<320xf32, strided<[1], offset: ?>>, memref<320x1280xf32, strided<[1280, 1], offset: ?>>, memref<320xf32, strided<[1], offset: ?>>, memref<320xf32, strided<[1], offset: ?>>, memref<320xf32, strided<[1], offset: ?>>, memref<320x320x3x3xf32, strided<[2880, 9, 3, 1], offset: ?>>, memref<320xf32, strided<[1], offset: ?>>, memref<320x960x1x1xf32, strided<[960, 1, 1, 1], offset: ?>>, memref<320xf32, strided<[1], offset: ?>>, memref<320xf32, strided<[1], offset: ?>>, memref<320xf32, strided<[1], offset: ?>>, memref<320x320xf32, strided<[320, 1], offset: ?>>, memref<320xf32, strided<[1], offset: ?>>, memref<320xf32, strided<[1], offset: ?>>, memref<320xf32, strided<[1], offset: ?>>, memref<320x320xf32, strided<[320, 1], offset: ?>>, memref<320x320xf32, strided<[320, 1], offset: ?>>, memref<320x320xf32, strided<[320, 1], offset: ?>>, memref<320x320xf32, strided<[320, 1], offset: ?>>, memref<320xf32, strided<[1], offset: ?>>, memref<320xf32, strided<[1], offset: ?>>, memref<320xf32, strided<[1], offset: ?>>, memref<320x320xf32, strided<[320, 1], offset: ?>>, memref<320x1024xf32, strided<[1024, 1], offset: ?>>, memref<1x12x1024xf32, strided<[12288, 1024, 1], offset: ?>>, memref<320x1024xf32, strided<[1024, 1], offset: ?>>, memref<1x12x1024xf32, strided<[12288, 1024, 1], offset: ?>>, memref<320x320xf32, strided<[320, 1], offset: ?>>, memref<320xf32, strided<[1], offset: ?>>, memref<320xf32, strided<[1], offset: ?>>, memref<320xf32, strided<[1], offset: ?>>, memref<2560x320xf32, strided<[320, 1], offset: ?>>, memref<2560xf32, strided<[1], offset: ?>>, memref<320x1280xf32, strided<[1280, 1], offset: ?>>, memref<320xf32, strided<[1], offset: ?>>, memref<320x320xf32, strided<[320, 1], offset: ?>>, memref<320xf32, strided<[1], offset: ?>>, memref<640xf32, strided<[1], offset: ?>>, memref<640xf32, strided<[1], offset: ?>>, memref<320x640x3x3xf32, strided<[5760, 9, 3, 1], offset: ?>>, memref<320xf32, strided<[1], offset: ?>>, memref<320x1280xf32, strided<[1280, 1], offset: ?>>, memref<320xf32, strided<[1], offset: ?>>, memref<320xf32, strided<[1], offset: ?>>, memref<320xf32, strided<[1], offset: ?>>, memref<320x320x3x3xf32, strided<[2880, 9, 3, 1], offset: ?>>, memref<320xf32, strided<[1], offset: ?>>, memref<320x640x1x1xf32, strided<[640, 1, 1, 1], offset: ?>>, memref<320xf32, strided<[1], offset: ?>>, memref<320xf32, strided<[1], offset: ?>>, memref<320xf32, strided<[1], offset: ?>>, memref<320x320xf32, strided<[320, 1], offset: ?>>, memref<320xf32, strided<[1], offset: ?>>, memref<320xf32, strided<[1], offset: ?>>, memref<320xf32, strided<[1], offset: ?>>, memref<320x320xf32, strided<[320, 1], offset: ?>>, memref<320x320xf32, strided<[320, 1], offset: ?>>, memref<320x320xf32, strided<[320, 1], offset: ?>>, memref<320x320xf32, strided<[320, 1], offset: ?>>, memref<320xf32, strided<[1], offset: ?>>, memref<320xf32, strided<[1], offset: ?>>, memref<320xf32, strided<[1], offset: ?>>, memref<320x320xf32, strided<[320, 1], offset: ?>>, memref<320x1024xf32, strided<[1024, 1], offset: ?>>, memref<1x12x1024xf32, strided<[12288, 1024, 1], offset: ?>>, memref<320x1024xf32, strided<[1024, 1], offset: ?>>, memref<1x12x1024xf32, strided<[12288, 1024, 1], offset: ?>>, memref<320x320xf32, strided<[320, 1], offset: ?>>, memref<320xf32, strided<[1], offset: ?>>, memref<320xf32, strided<[1], offset: ?>>, memref<320xf32, strided<[1], offset: ?>>, memref<2560x320xf32, strided<[320, 1], offset: ?>>, memref<2560xf32, strided<[1], offset: ?>>, memref<320x1280xf32, strided<[1280, 1], offset: ?>>, memref<320xf32, strided<[1], offset: ?>>, memref<320x320xf32, strided<[320, 1], offset: ?>>, memref<320xf32, strided<[1], offset: ?>>, memref<640xf32, strided<[1], offset: ?>>, memref<640xf32, strided<[1], offset: ?>>, memref<320x640x3x3xf32, strided<[5760, 9, 3, 1], offset: ?>>, memref<320xf32, strided<[1], offset: ?>>, memref<320x1280xf32, strided<[1280, 1], offset: ?>>, memref<320xf32, strided<[1], offset: ?>>, memref<320xf32, strided<[1], offset: ?>>, memref<320xf32, strided<[1], offset: ?>>, memref<320x320x3x3xf32, strided<[2880, 9, 3, 1], offset: ?>>, memref<320xf32, strided<[1], offset: ?>>, memref<320x640x1x1xf32, strided<[640, 1, 1, 1], offset: ?>>, memref<320xf32, strided<[1], offset: ?>>, memref<320xf32, strided<[1], offset: ?>>, memref<320xf32, strided<[1], offset: ?>>, memref<320x320xf32, strided<[320, 1], offset: ?>>, memref<320xf32, strided<[1], offset: ?>>, memref<320xf32, strided<[1], offset: ?>>, memref<320xf32, strided<[1], offset: ?>>, memref<320x320xf32, strided<[320, 1], offset: ?>>, memref<320x320xf32, strided<[320, 1], offset: ?>>, memref<320x320xf32, strided<[320, 1], offset: ?>>, memref<320x320xf32, strided<[320, 1], offset: ?>>, memref<320xf32, strided<[1], offset: ?>>, memref<320xf32, strided<[1], offset: ?>>, memref<320xf32, strided<[1], offset: ?>>, memref<320x320xf32, strided<[320, 1], offset: ?>>, memref<320x1024xf32, strided<[1024, 1], offset: ?>>, memref<1x12x1024xf32, strided<[12288, 1024, 1], offset: ?>>, memref<320x1024xf32, strided<[1024, 1], offset: ?>>, memref<1x12x1024xf32, strided<[12288, 1024, 1], offset: ?>>, memref<320x320xf32, strided<[320, 1], offset: ?>>, memref<320xf32, strided<[1], offset: ?>>, memref<320xf32, strided<[1], offset: ?>>, memref<320xf32, strided<[1], offset: ?>>, memref<2560x320xf32, strided<[320, 1], offset: ?>>, memref<2560xf32, strided<[1], offset: ?>>, memref<320x1280xf32, strided<[1280, 1], offset: ?>>, memref<320xf32, strided<[1], offset: ?>>, memref<320x320xf32, strided<[320, 1], offset: ?>>, memref<320xf32, strided<[1], offset: ?>>, memref<320xf32, strided<[1], offset: ?>>, memref<320xf32, strided<[1], offset: ?>>, memref<4x320x3x3xf32, strided<[2880, 9, 3, 1], offset: ?>>, memref<4xf32, strided<[1], offset: ?>>) -> memref<1x4x64x64xf32>
    return %0 : memref<1x4x64x64xf32>
  }
}

