module {
  func.func private @subgraph0(memref<1x12xi64, strided<[12, 1], offset: ?>>, memref<1x77xi64, strided<[77, 1], offset: ?>>, memref<49408x1024xf32, strided<[1024, 1], offset: ?>>, memref<77x1024xf32, strided<[1024, 1], offset: ?>>, memref<1x12xi64, strided<[12, 1], offset: ?>>, memref<1024xf32, strided<[1], offset: ?>>, memref<1024xf32, strided<[1], offset: ?>>, memref<1024x1024xf32, strided<[1024, 1], offset: ?>>, memref<1024xf32, strided<[1], offset: ?>>, memref<1024x1024xf32, strided<[1024, 1], offset: ?>>, memref<1024xf32, strided<[1], offset: ?>>, memref<1024x1024xf32, strided<[1024, 1], offset: ?>>, memref<1024xf32, strided<[1], offset: ?>>, memref<1024x1024xf32, strided<[1024, 1], offset: ?>>, memref<1024xf32, strided<[1], offset: ?>>, memref<1024xf32, strided<[1], offset: ?>>, memref<1024xf32, strided<[1], offset: ?>>, memref<4096x1024xf32, strided<[1024, 1], offset: ?>>, memref<4096xf32, strided<[1], offset: ?>>, memref<1024x4096xf32, strided<[4096, 1], offset: ?>>, memref<1024xf32, strided<[1], offset: ?>>, memref<1024xf32, strided<[1], offset: ?>>, memref<1024xf32, strided<[1], offset: ?>>, memref<1024x1024xf32, strided<[1024, 1], offset: ?>>, memref<1024xf32, strided<[1], offset: ?>>, memref<1024x1024xf32, strided<[1024, 1], offset: ?>>, memref<1024xf32, strided<[1], offset: ?>>, memref<1024x1024xf32, strided<[1024, 1], offset: ?>>, memref<1024xf32, strided<[1], offset: ?>>, memref<1024x1024xf32, strided<[1024, 1], offset: ?>>, memref<1024xf32, strided<[1], offset: ?>>, memref<1024xf32, strided<[1], offset: ?>>, memref<1024xf32, strided<[1], offset: ?>>, memref<4096x1024xf32, strided<[1024, 1], offset: ?>>, memref<4096xf32, strided<[1], offset: ?>>, memref<1024x4096xf32, strided<[4096, 1], offset: ?>>, memref<1024xf32, strided<[1], offset: ?>>, memref<1024xf32, strided<[1], offset: ?>>, memref<1024xf32, strided<[1], offset: ?>>, memref<1024x1024xf32, strided<[1024, 1], offset: ?>>, memref<1024xf32, strided<[1], offset: ?>>, memref<1024x1024xf32, strided<[1024, 1], offset: ?>>, memref<1024xf32, strided<[1], offset: ?>>, memref<1024x1024xf32, strided<[1024, 1], offset: ?>>, memref<1024xf32, strided<[1], offset: ?>>, memref<1024x1024xf32, strided<[1024, 1], offset: ?>>, memref<1024xf32, strided<[1], offset: ?>>, memref<1024xf32, strided<[1], offset: ?>>, memref<1024xf32, strided<[1], offset: ?>>, memref<4096x1024xf32, strided<[1024, 1], offset: ?>>, memref<4096xf32, strided<[1], offset: ?>>, memref<1024x4096xf32, strided<[4096, 1], offset: ?>>, memref<1024xf32, strided<[1], offset: ?>>, memref<1024xf32, strided<[1], offset: ?>>, memref<1024xf32, strided<[1], offset: ?>>, memref<1024x1024xf32, strided<[1024, 1], offset: ?>>, memref<1024xf32, strided<[1], offset: ?>>, memref<1024x1024xf32, strided<[1024, 1], offset: ?>>, memref<1024xf32, strided<[1], offset: ?>>, memref<1024x1024xf32, strided<[1024, 1], offset: ?>>, memref<1024xf32, strided<[1], offset: ?>>, memref<1024x1024xf32, strided<[1024, 1], offset: ?>>, memref<1024xf32, strided<[1], offset: ?>>, memref<1024xf32, strided<[1], offset: ?>>, memref<1024xf32, strided<[1], offset: ?>>, memref<4096x1024xf32, strided<[1024, 1], offset: ?>>, memref<4096xf32, strided<[1], offset: ?>>, memref<1024x4096xf32, strided<[4096, 1], offset: ?>>, memref<1024xf32, strided<[1], offset: ?>>, memref<1024xf32, strided<[1], offset: ?>>, memref<1024xf32, strided<[1], offset: ?>>, memref<1024x1024xf32, strided<[1024, 1], offset: ?>>, memref<1024xf32, strided<[1], offset: ?>>, memref<1024x1024xf32, strided<[1024, 1], offset: ?>>, memref<1024xf32, strided<[1], offset: ?>>, memref<1024x1024xf32, strided<[1024, 1], offset: ?>>, memref<1024xf32, strided<[1], offset: ?>>, memref<1024x1024xf32, strided<[1024, 1], offset: ?>>, memref<1024xf32, strided<[1], offset: ?>>, memref<1024xf32, strided<[1], offset: ?>>, memref<1024xf32, strided<[1], offset: ?>>, memref<4096x1024xf32, strided<[1024, 1], offset: ?>>, memref<4096xf32, strided<[1], offset: ?>>, memref<1024x4096xf32, strided<[4096, 1], offset: ?>>, memref<1024xf32, strided<[1], offset: ?>>, memref<1024xf32, strided<[1], offset: ?>>, memref<1024xf32, strided<[1], offset: ?>>, memref<1024x1024xf32, strided<[1024, 1], offset: ?>>, memref<1024xf32, strided<[1], offset: ?>>, memref<1024x1024xf32, strided<[1024, 1], offset: ?>>, memref<1024xf32, strided<[1], offset: ?>>, memref<1024x1024xf32, strided<[1024, 1], offset: ?>>, memref<1024xf32, strided<[1], offset: ?>>, memref<1024x1024xf32, strided<[1024, 1], offset: ?>>, memref<1024xf32, strided<[1], offset: ?>>, memref<1024xf32, strided<[1], offset: ?>>, memref<1024xf32, strided<[1], offset: ?>>, memref<4096x1024xf32, strided<[1024, 1], offset: ?>>, memref<4096xf32, strided<[1], offset: ?>>, memref<1024x4096xf32, strided<[4096, 1], offset: ?>>, memref<1024xf32, strided<[1], offset: ?>>, memref<1024xf32, strided<[1], offset: ?>>, memref<1024xf32, strided<[1], offset: ?>>, memref<1024x1024xf32, strided<[1024, 1], offset: ?>>, memref<1024xf32, strided<[1], offset: ?>>, memref<1024x1024xf32, strided<[1024, 1], offset: ?>>, memref<1024xf32, strided<[1], offset: ?>>, memref<1024x1024xf32, strided<[1024, 1], offset: ?>>, memref<1024xf32, strided<[1], offset: ?>>, memref<1024x1024xf32, strided<[1024, 1], offset: ?>>, memref<1024xf32, strided<[1], offset: ?>>, memref<1024xf32, strided<[1], offset: ?>>, memref<1024xf32, strided<[1], offset: ?>>, memref<4096x1024xf32, strided<[1024, 1], offset: ?>>, memref<4096xf32, strided<[1], offset: ?>>, memref<1024x4096xf32, strided<[4096, 1], offset: ?>>, memref<1024xf32, strided<[1], offset: ?>>, memref<1024xf32, strided<[1], offset: ?>>, memref<1024xf32, strided<[1], offset: ?>>, memref<1024x1024xf32, strided<[1024, 1], offset: ?>>, memref<1024xf32, strided<[1], offset: ?>>, memref<1024x1024xf32, strided<[1024, 1], offset: ?>>, memref<1024xf32, strided<[1], offset: ?>>, memref<1024x1024xf32, strided<[1024, 1], offset: ?>>, memref<1024xf32, strided<[1], offset: ?>>, memref<1024x1024xf32, strided<[1024, 1], offset: ?>>, memref<1024xf32, strided<[1], offset: ?>>, memref<1024xf32, strided<[1], offset: ?>>, memref<1024xf32, strided<[1], offset: ?>>, memref<4096x1024xf32, strided<[1024, 1], offset: ?>>, memref<4096xf32, strided<[1], offset: ?>>, memref<1024x4096xf32, strided<[4096, 1], offset: ?>>, memref<1024xf32, strided<[1], offset: ?>>, memref<1024xf32, strided<[1], offset: ?>>, memref<1024xf32, strided<[1], offset: ?>>, memref<1024x1024xf32, strided<[1024, 1], offset: ?>>, memref<1024xf32, strided<[1], offset: ?>>, memref<1024x1024xf32, strided<[1024, 1], offset: ?>>, memref<1024xf32, strided<[1], offset: ?>>, memref<1024x1024xf32, strided<[1024, 1], offset: ?>>, memref<1024xf32, strided<[1], offset: ?>>, memref<1024x1024xf32, strided<[1024, 1], offset: ?>>, memref<1024xf32, strided<[1], offset: ?>>, memref<1024xf32, strided<[1], offset: ?>>, memref<1024xf32, strided<[1], offset: ?>>, memref<4096x1024xf32, strided<[1024, 1], offset: ?>>, memref<4096xf32, strided<[1], offset: ?>>, memref<1024x4096xf32, strided<[4096, 1], offset: ?>>, memref<1024xf32, strided<[1], offset: ?>>, memref<1024xf32, strided<[1], offset: ?>>, memref<1024xf32, strided<[1], offset: ?>>, memref<1024x1024xf32, strided<[1024, 1], offset: ?>>, memref<1024xf32, strided<[1], offset: ?>>, memref<1024x1024xf32, strided<[1024, 1], offset: ?>>, memref<1024xf32, strided<[1], offset: ?>>, memref<1024x1024xf32, strided<[1024, 1], offset: ?>>, memref<1024xf32, strided<[1], offset: ?>>, memref<1024x1024xf32, strided<[1024, 1], offset: ?>>, memref<1024xf32, strided<[1], offset: ?>>, memref<1024xf32, strided<[1], offset: ?>>, memref<1024xf32, strided<[1], offset: ?>>, memref<4096x1024xf32, strided<[1024, 1], offset: ?>>, memref<4096xf32, strided<[1], offset: ?>>, memref<1024x4096xf32, strided<[4096, 1], offset: ?>>, memref<1024xf32, strided<[1], offset: ?>>, memref<1024xf32, strided<[1], offset: ?>>, memref<1024xf32, strided<[1], offset: ?>>, memref<1024x1024xf32, strided<[1024, 1], offset: ?>>, memref<1024xf32, strided<[1], offset: ?>>, memref<1024x1024xf32, strided<[1024, 1], offset: ?>>, memref<1024xf32, strided<[1], offset: ?>>, memref<1024x1024xf32, strided<[1024, 1], offset: ?>>, memref<1024xf32, strided<[1], offset: ?>>, memref<1024x1024xf32, strided<[1024, 1], offset: ?>>, memref<1024xf32, strided<[1], offset: ?>>, memref<1024xf32, strided<[1], offset: ?>>, memref<1024xf32, strided<[1], offset: ?>>, memref<4096x1024xf32, strided<[1024, 1], offset: ?>>, memref<4096xf32, strided<[1], offset: ?>>, memref<1024x4096xf32, strided<[4096, 1], offset: ?>>, memref<1024xf32, strided<[1], offset: ?>>, memref<1024xf32, strided<[1], offset: ?>>, memref<1024xf32, strided<[1], offset: ?>>, memref<1024x1024xf32, strided<[1024, 1], offset: ?>>, memref<1024xf32, strided<[1], offset: ?>>, memref<1024x1024xf32, strided<[1024, 1], offset: ?>>, memref<1024xf32, strided<[1], offset: ?>>, memref<1024x1024xf32, strided<[1024, 1], offset: ?>>, memref<1024xf32, strided<[1], offset: ?>>, memref<1024x1024xf32, strided<[1024, 1], offset: ?>>, memref<1024xf32, strided<[1], offset: ?>>, memref<1024xf32, strided<[1], offset: ?>>, memref<1024xf32, strided<[1], offset: ?>>, memref<4096x1024xf32, strided<[1024, 1], offset: ?>>, memref<4096xf32, strided<[1], offset: ?>>, memref<1024x4096xf32, strided<[4096, 1], offset: ?>>, memref<1024xf32, strided<[1], offset: ?>>, memref<1024xf32, strided<[1], offset: ?>>, memref<1024xf32, strided<[1], offset: ?>>, memref<1024x1024xf32, strided<[1024, 1], offset: ?>>, memref<1024xf32, strided<[1], offset: ?>>, memref<1024x1024xf32, strided<[1024, 1], offset: ?>>, memref<1024xf32, strided<[1], offset: ?>>, memref<1024x1024xf32, strided<[1024, 1], offset: ?>>, memref<1024xf32, strided<[1], offset: ?>>, memref<1024x1024xf32, strided<[1024, 1], offset: ?>>, memref<1024xf32, strided<[1], offset: ?>>, memref<1024xf32, strided<[1], offset: ?>>, memref<1024xf32, strided<[1], offset: ?>>, memref<4096x1024xf32, strided<[1024, 1], offset: ?>>, memref<4096xf32, strided<[1], offset: ?>>, memref<1024x4096xf32, strided<[4096, 1], offset: ?>>, memref<1024xf32, strided<[1], offset: ?>>, memref<1024xf32, strided<[1], offset: ?>>, memref<1024xf32, strided<[1], offset: ?>>, memref<1024x1024xf32, strided<[1024, 1], offset: ?>>, memref<1024xf32, strided<[1], offset: ?>>, memref<1024x1024xf32, strided<[1024, 1], offset: ?>>, memref<1024xf32, strided<[1], offset: ?>>, memref<1024x1024xf32, strided<[1024, 1], offset: ?>>, memref<1024xf32, strided<[1], offset: ?>>, memref<1024x1024xf32, strided<[1024, 1], offset: ?>>, memref<1024xf32, strided<[1], offset: ?>>, memref<1024xf32, strided<[1], offset: ?>>, memref<1024xf32, strided<[1], offset: ?>>, memref<4096x1024xf32, strided<[1024, 1], offset: ?>>, memref<4096xf32, strided<[1], offset: ?>>, memref<1024x4096xf32, strided<[4096, 1], offset: ?>>, memref<1024xf32, strided<[1], offset: ?>>, memref<1024xf32, strided<[1], offset: ?>>, memref<1024xf32, strided<[1], offset: ?>>, memref<1024x1024xf32, strided<[1024, 1], offset: ?>>, memref<1024xf32, strided<[1], offset: ?>>, memref<1024x1024xf32, strided<[1024, 1], offset: ?>>, memref<1024xf32, strided<[1], offset: ?>>, memref<1024x1024xf32, strided<[1024, 1], offset: ?>>, memref<1024xf32, strided<[1], offset: ?>>, memref<1024x1024xf32, strided<[1024, 1], offset: ?>>, memref<1024xf32, strided<[1], offset: ?>>, memref<1024xf32, strided<[1], offset: ?>>, memref<1024xf32, strided<[1], offset: ?>>, memref<4096x1024xf32, strided<[1024, 1], offset: ?>>, memref<4096xf32, strided<[1], offset: ?>>, memref<1024x4096xf32, strided<[4096, 1], offset: ?>>, memref<1024xf32, strided<[1], offset: ?>>, memref<1024xf32, strided<[1], offset: ?>>, memref<1024xf32, strided<[1], offset: ?>>, memref<1024x1024xf32, strided<[1024, 1], offset: ?>>, memref<1024xf32, strided<[1], offset: ?>>, memref<1024x1024xf32, strided<[1024, 1], offset: ?>>, memref<1024xf32, strided<[1], offset: ?>>, memref<1024x1024xf32, strided<[1024, 1], offset: ?>>, memref<1024xf32, strided<[1], offset: ?>>, memref<1024x1024xf32, strided<[1024, 1], offset: ?>>, memref<1024xf32, strided<[1], offset: ?>>, memref<1024xf32, strided<[1], offset: ?>>, memref<1024xf32, strided<[1], offset: ?>>, memref<4096x1024xf32, strided<[1024, 1], offset: ?>>, memref<4096xf32, strided<[1], offset: ?>>, memref<1024x4096xf32, strided<[4096, 1], offset: ?>>, memref<1024xf32, strided<[1], offset: ?>>, memref<1024xf32, strided<[1], offset: ?>>, memref<1024xf32, strided<[1], offset: ?>>, memref<1024x1024xf32, strided<[1024, 1], offset: ?>>, memref<1024xf32, strided<[1], offset: ?>>, memref<1024x1024xf32, strided<[1024, 1], offset: ?>>, memref<1024xf32, strided<[1], offset: ?>>, memref<1024x1024xf32, strided<[1024, 1], offset: ?>>, memref<1024xf32, strided<[1], offset: ?>>, memref<1024x1024xf32, strided<[1024, 1], offset: ?>>, memref<1024xf32, strided<[1], offset: ?>>, memref<1024xf32, strided<[1], offset: ?>>, memref<1024xf32, strided<[1], offset: ?>>, memref<4096x1024xf32, strided<[1024, 1], offset: ?>>, memref<4096xf32, strided<[1], offset: ?>>, memref<1024x4096xf32, strided<[4096, 1], offset: ?>>, memref<1024xf32, strided<[1], offset: ?>>, memref<1024xf32, strided<[1], offset: ?>>, memref<1024xf32, strided<[1], offset: ?>>, memref<1024x1024xf32, strided<[1024, 1], offset: ?>>, memref<1024xf32, strided<[1], offset: ?>>, memref<1024x1024xf32, strided<[1024, 1], offset: ?>>, memref<1024xf32, strided<[1], offset: ?>>, memref<1024x1024xf32, strided<[1024, 1], offset: ?>>, memref<1024xf32, strided<[1], offset: ?>>, memref<1024x1024xf32, strided<[1024, 1], offset: ?>>, memref<1024xf32, strided<[1], offset: ?>>, memref<1024xf32, strided<[1], offset: ?>>, memref<1024xf32, strided<[1], offset: ?>>, memref<4096x1024xf32, strided<[1024, 1], offset: ?>>, memref<4096xf32, strided<[1], offset: ?>>, memref<1024x4096xf32, strided<[4096, 1], offset: ?>>, memref<1024xf32, strided<[1], offset: ?>>, memref<1024xf32, strided<[1], offset: ?>>, memref<1024xf32, strided<[1], offset: ?>>, memref<1024x1024xf32, strided<[1024, 1], offset: ?>>, memref<1024xf32, strided<[1], offset: ?>>, memref<1024x1024xf32, strided<[1024, 1], offset: ?>>, memref<1024xf32, strided<[1], offset: ?>>, memref<1024x1024xf32, strided<[1024, 1], offset: ?>>, memref<1024xf32, strided<[1], offset: ?>>, memref<1024x1024xf32, strided<[1024, 1], offset: ?>>, memref<1024xf32, strided<[1], offset: ?>>, memref<1024xf32, strided<[1], offset: ?>>, memref<1024xf32, strided<[1], offset: ?>>, memref<4096x1024xf32, strided<[1024, 1], offset: ?>>, memref<4096xf32, strided<[1], offset: ?>>, memref<1024x4096xf32, strided<[4096, 1], offset: ?>>, memref<1024xf32, strided<[1], offset: ?>>, memref<1024xf32, strided<[1], offset: ?>>, memref<1024xf32, strided<[1], offset: ?>>, memref<1024x1024xf32, strided<[1024, 1], offset: ?>>, memref<1024xf32, strided<[1], offset: ?>>, memref<1024x1024xf32, strided<[1024, 1], offset: ?>>, memref<1024xf32, strided<[1], offset: ?>>, memref<1024x1024xf32, strided<[1024, 1], offset: ?>>, memref<1024xf32, strided<[1], offset: ?>>, memref<1024x1024xf32, strided<[1024, 1], offset: ?>>, memref<1024xf32, strided<[1], offset: ?>>, memref<1024xf32, strided<[1], offset: ?>>, memref<1024xf32, strided<[1], offset: ?>>, memref<4096x1024xf32, strided<[1024, 1], offset: ?>>, memref<4096xf32, strided<[1], offset: ?>>, memref<1024x4096xf32, strided<[4096, 1], offset: ?>>, memref<1024xf32, strided<[1], offset: ?>>, memref<1024xf32, strided<[1], offset: ?>>, memref<1024xf32, strided<[1], offset: ?>>, memref<1024x1024xf32, strided<[1024, 1], offset: ?>>, memref<1024xf32, strided<[1], offset: ?>>, memref<1024x1024xf32, strided<[1024, 1], offset: ?>>, memref<1024xf32, strided<[1], offset: ?>>, memref<1024x1024xf32, strided<[1024, 1], offset: ?>>, memref<1024xf32, strided<[1], offset: ?>>, memref<1024x1024xf32, strided<[1024, 1], offset: ?>>, memref<1024xf32, strided<[1], offset: ?>>, memref<1024xf32, strided<[1], offset: ?>>, memref<1024xf32, strided<[1], offset: ?>>, memref<4096x1024xf32, strided<[1024, 1], offset: ?>>, memref<4096xf32, strided<[1], offset: ?>>, memref<1024x4096xf32, strided<[4096, 1], offset: ?>>, memref<1024xf32, strided<[1], offset: ?>>, memref<1024xf32, strided<[1], offset: ?>>, memref<1024xf32, strided<[1], offset: ?>>, memref<1024x1024xf32, strided<[1024, 1], offset: ?>>, memref<1024xf32, strided<[1], offset: ?>>, memref<1024x1024xf32, strided<[1024, 1], offset: ?>>, memref<1024xf32, strided<[1], offset: ?>>, memref<1024x1024xf32, strided<[1024, 1], offset: ?>>, memref<1024xf32, strided<[1], offset: ?>>, memref<1024x1024xf32, strided<[1024, 1], offset: ?>>, memref<1024xf32, strided<[1], offset: ?>>, memref<1024xf32, strided<[1], offset: ?>>, memref<1024xf32, strided<[1], offset: ?>>, memref<4096x1024xf32, strided<[1024, 1], offset: ?>>, memref<4096xf32, strided<[1], offset: ?>>, memref<1024x4096xf32, strided<[4096, 1], offset: ?>>, memref<1024xf32, strided<[1], offset: ?>>, memref<1024xf32, strided<[1], offset: ?>>, memref<1024xf32, strided<[1], offset: ?>>, memref<1024x1024xf32, strided<[1024, 1], offset: ?>>, memref<1024xf32, strided<[1], offset: ?>>, memref<1024x1024xf32, strided<[1024, 1], offset: ?>>, memref<1024xf32, strided<[1], offset: ?>>, memref<1024x1024xf32, strided<[1024, 1], offset: ?>>, memref<1024xf32, strided<[1], offset: ?>>, memref<1024x1024xf32, strided<[1024, 1], offset: ?>>, memref<1024xf32, strided<[1], offset: ?>>, memref<1024xf32, strided<[1], offset: ?>>, memref<1024xf32, strided<[1], offset: ?>>, memref<4096x1024xf32, strided<[1024, 1], offset: ?>>, memref<4096xf32, strided<[1], offset: ?>>, memref<1024x4096xf32, strided<[4096, 1], offset: ?>>, memref<1024xf32, strided<[1], offset: ?>>, memref<1024xf32, strided<[1], offset: ?>>, memref<1024xf32, strided<[1], offset: ?>>) -> (memref<1x12x1024xf32>, memref<1x1024xf32>)
  func.func @forward(%arg0: memref<340387840xf32>, %arg1: memref<77xi64>, %arg2: memref<1x12xi64>, %arg3: memref<1x12xi64>) -> (memref<1x12x1024xf32>, memref<1x1024xf32>) {
    %subview = memref.subview %arg0[0] [50593792] [1] : memref<340387840xf32> to memref<50593792xf32>
    %expand_shape = memref.expand_shape %subview [[0, 1]] : memref<50593792xf32> into memref<49408x1024xf32>
    %subview_0 = memref.subview %arg0[50593792] [78848] [1] : memref<340387840xf32> to memref<78848xf32, strided<[1], offset: 50593792>>
    %expand_shape_1 = memref.expand_shape %subview_0 [[0, 1]] : memref<78848xf32, strided<[1], offset: 50593792>> into memref<77x1024xf32, strided<[1024, 1], offset: 50593792>>
    %subview_2 = memref.subview %arg0[50672640] [1024] [1] : memref<340387840xf32> to memref<1024xf32, strided<[1], offset: 50672640>>
    %subview_3 = memref.subview %arg0[50673664] [1024] [1] : memref<340387840xf32> to memref<1024xf32, strided<[1], offset: 50673664>>
    %subview_4 = memref.subview %arg0[50674688] [1048576] [1] : memref<340387840xf32> to memref<1048576xf32, strided<[1], offset: 50674688>>
    %expand_shape_5 = memref.expand_shape %subview_4 [[0, 1]] : memref<1048576xf32, strided<[1], offset: 50674688>> into memref<1024x1024xf32, strided<[1024, 1], offset: 50674688>>
    %subview_6 = memref.subview %arg0[51723264] [1024] [1] : memref<340387840xf32> to memref<1024xf32, strided<[1], offset: 51723264>>
    %subview_7 = memref.subview %arg0[51724288] [1048576] [1] : memref<340387840xf32> to memref<1048576xf32, strided<[1], offset: 51724288>>
    %expand_shape_8 = memref.expand_shape %subview_7 [[0, 1]] : memref<1048576xf32, strided<[1], offset: 51724288>> into memref<1024x1024xf32, strided<[1024, 1], offset: 51724288>>
    %subview_9 = memref.subview %arg0[52772864] [1024] [1] : memref<340387840xf32> to memref<1024xf32, strided<[1], offset: 52772864>>
    %subview_10 = memref.subview %arg0[52773888] [1048576] [1] : memref<340387840xf32> to memref<1048576xf32, strided<[1], offset: 52773888>>
    %expand_shape_11 = memref.expand_shape %subview_10 [[0, 1]] : memref<1048576xf32, strided<[1], offset: 52773888>> into memref<1024x1024xf32, strided<[1024, 1], offset: 52773888>>
    %subview_12 = memref.subview %arg0[53822464] [1024] [1] : memref<340387840xf32> to memref<1024xf32, strided<[1], offset: 53822464>>
    %subview_13 = memref.subview %arg0[53823488] [1048576] [1] : memref<340387840xf32> to memref<1048576xf32, strided<[1], offset: 53823488>>
    %expand_shape_14 = memref.expand_shape %subview_13 [[0, 1]] : memref<1048576xf32, strided<[1], offset: 53823488>> into memref<1024x1024xf32, strided<[1024, 1], offset: 53823488>>
    %subview_15 = memref.subview %arg0[54872064] [1024] [1] : memref<340387840xf32> to memref<1024xf32, strided<[1], offset: 54872064>>
    %subview_16 = memref.subview %arg0[54873088] [1024] [1] : memref<340387840xf32> to memref<1024xf32, strided<[1], offset: 54873088>>
    %subview_17 = memref.subview %arg0[54874112] [1024] [1] : memref<340387840xf32> to memref<1024xf32, strided<[1], offset: 54874112>>
    %subview_18 = memref.subview %arg0[54875136] [4194304] [1] : memref<340387840xf32> to memref<4194304xf32, strided<[1], offset: 54875136>>
    %expand_shape_19 = memref.expand_shape %subview_18 [[0, 1]] : memref<4194304xf32, strided<[1], offset: 54875136>> into memref<4096x1024xf32, strided<[1024, 1], offset: 54875136>>
    %subview_20 = memref.subview %arg0[59069440] [4096] [1] : memref<340387840xf32> to memref<4096xf32, strided<[1], offset: 59069440>>
    %subview_21 = memref.subview %arg0[59073536] [4194304] [1] : memref<340387840xf32> to memref<4194304xf32, strided<[1], offset: 59073536>>
    %expand_shape_22 = memref.expand_shape %subview_21 [[0, 1]] : memref<4194304xf32, strided<[1], offset: 59073536>> into memref<1024x4096xf32, strided<[4096, 1], offset: 59073536>>
    %subview_23 = memref.subview %arg0[63267840] [1024] [1] : memref<340387840xf32> to memref<1024xf32, strided<[1], offset: 63267840>>
    %subview_24 = memref.subview %arg0[63268864] [1024] [1] : memref<340387840xf32> to memref<1024xf32, strided<[1], offset: 63268864>>
    %subview_25 = memref.subview %arg0[63269888] [1024] [1] : memref<340387840xf32> to memref<1024xf32, strided<[1], offset: 63269888>>
    %subview_26 = memref.subview %arg0[63270912] [1048576] [1] : memref<340387840xf32> to memref<1048576xf32, strided<[1], offset: 63270912>>
    %expand_shape_27 = memref.expand_shape %subview_26 [[0, 1]] : memref<1048576xf32, strided<[1], offset: 63270912>> into memref<1024x1024xf32, strided<[1024, 1], offset: 63270912>>
    %subview_28 = memref.subview %arg0[64319488] [1024] [1] : memref<340387840xf32> to memref<1024xf32, strided<[1], offset: 64319488>>
    %subview_29 = memref.subview %arg0[64320512] [1048576] [1] : memref<340387840xf32> to memref<1048576xf32, strided<[1], offset: 64320512>>
    %expand_shape_30 = memref.expand_shape %subview_29 [[0, 1]] : memref<1048576xf32, strided<[1], offset: 64320512>> into memref<1024x1024xf32, strided<[1024, 1], offset: 64320512>>
    %subview_31 = memref.subview %arg0[65369088] [1024] [1] : memref<340387840xf32> to memref<1024xf32, strided<[1], offset: 65369088>>
    %subview_32 = memref.subview %arg0[65370112] [1048576] [1] : memref<340387840xf32> to memref<1048576xf32, strided<[1], offset: 65370112>>
    %expand_shape_33 = memref.expand_shape %subview_32 [[0, 1]] : memref<1048576xf32, strided<[1], offset: 65370112>> into memref<1024x1024xf32, strided<[1024, 1], offset: 65370112>>
    %subview_34 = memref.subview %arg0[66418688] [1024] [1] : memref<340387840xf32> to memref<1024xf32, strided<[1], offset: 66418688>>
    %subview_35 = memref.subview %arg0[66419712] [1048576] [1] : memref<340387840xf32> to memref<1048576xf32, strided<[1], offset: 66419712>>
    %expand_shape_36 = memref.expand_shape %subview_35 [[0, 1]] : memref<1048576xf32, strided<[1], offset: 66419712>> into memref<1024x1024xf32, strided<[1024, 1], offset: 66419712>>
    %subview_37 = memref.subview %arg0[67468288] [1024] [1] : memref<340387840xf32> to memref<1024xf32, strided<[1], offset: 67468288>>
    %subview_38 = memref.subview %arg0[67469312] [1024] [1] : memref<340387840xf32> to memref<1024xf32, strided<[1], offset: 67469312>>
    %subview_39 = memref.subview %arg0[67470336] [1024] [1] : memref<340387840xf32> to memref<1024xf32, strided<[1], offset: 67470336>>
    %subview_40 = memref.subview %arg0[67471360] [4194304] [1] : memref<340387840xf32> to memref<4194304xf32, strided<[1], offset: 67471360>>
    %expand_shape_41 = memref.expand_shape %subview_40 [[0, 1]] : memref<4194304xf32, strided<[1], offset: 67471360>> into memref<4096x1024xf32, strided<[1024, 1], offset: 67471360>>
    %subview_42 = memref.subview %arg0[71665664] [4096] [1] : memref<340387840xf32> to memref<4096xf32, strided<[1], offset: 71665664>>
    %subview_43 = memref.subview %arg0[71669760] [4194304] [1] : memref<340387840xf32> to memref<4194304xf32, strided<[1], offset: 71669760>>
    %expand_shape_44 = memref.expand_shape %subview_43 [[0, 1]] : memref<4194304xf32, strided<[1], offset: 71669760>> into memref<1024x4096xf32, strided<[4096, 1], offset: 71669760>>
    %subview_45 = memref.subview %arg0[75864064] [1024] [1] : memref<340387840xf32> to memref<1024xf32, strided<[1], offset: 75864064>>
    %subview_46 = memref.subview %arg0[75865088] [1024] [1] : memref<340387840xf32> to memref<1024xf32, strided<[1], offset: 75865088>>
    %subview_47 = memref.subview %arg0[75866112] [1024] [1] : memref<340387840xf32> to memref<1024xf32, strided<[1], offset: 75866112>>
    %subview_48 = memref.subview %arg0[75867136] [1048576] [1] : memref<340387840xf32> to memref<1048576xf32, strided<[1], offset: 75867136>>
    %expand_shape_49 = memref.expand_shape %subview_48 [[0, 1]] : memref<1048576xf32, strided<[1], offset: 75867136>> into memref<1024x1024xf32, strided<[1024, 1], offset: 75867136>>
    %subview_50 = memref.subview %arg0[76915712] [1024] [1] : memref<340387840xf32> to memref<1024xf32, strided<[1], offset: 76915712>>
    %subview_51 = memref.subview %arg0[76916736] [1048576] [1] : memref<340387840xf32> to memref<1048576xf32, strided<[1], offset: 76916736>>
    %expand_shape_52 = memref.expand_shape %subview_51 [[0, 1]] : memref<1048576xf32, strided<[1], offset: 76916736>> into memref<1024x1024xf32, strided<[1024, 1], offset: 76916736>>
    %subview_53 = memref.subview %arg0[77965312] [1024] [1] : memref<340387840xf32> to memref<1024xf32, strided<[1], offset: 77965312>>
    %subview_54 = memref.subview %arg0[77966336] [1048576] [1] : memref<340387840xf32> to memref<1048576xf32, strided<[1], offset: 77966336>>
    %expand_shape_55 = memref.expand_shape %subview_54 [[0, 1]] : memref<1048576xf32, strided<[1], offset: 77966336>> into memref<1024x1024xf32, strided<[1024, 1], offset: 77966336>>
    %subview_56 = memref.subview %arg0[79014912] [1024] [1] : memref<340387840xf32> to memref<1024xf32, strided<[1], offset: 79014912>>
    %subview_57 = memref.subview %arg0[79015936] [1048576] [1] : memref<340387840xf32> to memref<1048576xf32, strided<[1], offset: 79015936>>
    %expand_shape_58 = memref.expand_shape %subview_57 [[0, 1]] : memref<1048576xf32, strided<[1], offset: 79015936>> into memref<1024x1024xf32, strided<[1024, 1], offset: 79015936>>
    %subview_59 = memref.subview %arg0[80064512] [1024] [1] : memref<340387840xf32> to memref<1024xf32, strided<[1], offset: 80064512>>
    %subview_60 = memref.subview %arg0[80065536] [1024] [1] : memref<340387840xf32> to memref<1024xf32, strided<[1], offset: 80065536>>
    %subview_61 = memref.subview %arg0[80066560] [1024] [1] : memref<340387840xf32> to memref<1024xf32, strided<[1], offset: 80066560>>
    %subview_62 = memref.subview %arg0[80067584] [4194304] [1] : memref<340387840xf32> to memref<4194304xf32, strided<[1], offset: 80067584>>
    %expand_shape_63 = memref.expand_shape %subview_62 [[0, 1]] : memref<4194304xf32, strided<[1], offset: 80067584>> into memref<4096x1024xf32, strided<[1024, 1], offset: 80067584>>
    %subview_64 = memref.subview %arg0[84261888] [4096] [1] : memref<340387840xf32> to memref<4096xf32, strided<[1], offset: 84261888>>
    %subview_65 = memref.subview %arg0[84265984] [4194304] [1] : memref<340387840xf32> to memref<4194304xf32, strided<[1], offset: 84265984>>
    %expand_shape_66 = memref.expand_shape %subview_65 [[0, 1]] : memref<4194304xf32, strided<[1], offset: 84265984>> into memref<1024x4096xf32, strided<[4096, 1], offset: 84265984>>
    %subview_67 = memref.subview %arg0[88460288] [1024] [1] : memref<340387840xf32> to memref<1024xf32, strided<[1], offset: 88460288>>
    %subview_68 = memref.subview %arg0[88461312] [1024] [1] : memref<340387840xf32> to memref<1024xf32, strided<[1], offset: 88461312>>
    %subview_69 = memref.subview %arg0[88462336] [1024] [1] : memref<340387840xf32> to memref<1024xf32, strided<[1], offset: 88462336>>
    %subview_70 = memref.subview %arg0[88463360] [1048576] [1] : memref<340387840xf32> to memref<1048576xf32, strided<[1], offset: 88463360>>
    %expand_shape_71 = memref.expand_shape %subview_70 [[0, 1]] : memref<1048576xf32, strided<[1], offset: 88463360>> into memref<1024x1024xf32, strided<[1024, 1], offset: 88463360>>
    %subview_72 = memref.subview %arg0[89511936] [1024] [1] : memref<340387840xf32> to memref<1024xf32, strided<[1], offset: 89511936>>
    %subview_73 = memref.subview %arg0[89512960] [1048576] [1] : memref<340387840xf32> to memref<1048576xf32, strided<[1], offset: 89512960>>
    %expand_shape_74 = memref.expand_shape %subview_73 [[0, 1]] : memref<1048576xf32, strided<[1], offset: 89512960>> into memref<1024x1024xf32, strided<[1024, 1], offset: 89512960>>
    %subview_75 = memref.subview %arg0[90561536] [1024] [1] : memref<340387840xf32> to memref<1024xf32, strided<[1], offset: 90561536>>
    %subview_76 = memref.subview %arg0[90562560] [1048576] [1] : memref<340387840xf32> to memref<1048576xf32, strided<[1], offset: 90562560>>
    %expand_shape_77 = memref.expand_shape %subview_76 [[0, 1]] : memref<1048576xf32, strided<[1], offset: 90562560>> into memref<1024x1024xf32, strided<[1024, 1], offset: 90562560>>
    %subview_78 = memref.subview %arg0[91611136] [1024] [1] : memref<340387840xf32> to memref<1024xf32, strided<[1], offset: 91611136>>
    %subview_79 = memref.subview %arg0[91612160] [1048576] [1] : memref<340387840xf32> to memref<1048576xf32, strided<[1], offset: 91612160>>
    %expand_shape_80 = memref.expand_shape %subview_79 [[0, 1]] : memref<1048576xf32, strided<[1], offset: 91612160>> into memref<1024x1024xf32, strided<[1024, 1], offset: 91612160>>
    %subview_81 = memref.subview %arg0[92660736] [1024] [1] : memref<340387840xf32> to memref<1024xf32, strided<[1], offset: 92660736>>
    %subview_82 = memref.subview %arg0[92661760] [1024] [1] : memref<340387840xf32> to memref<1024xf32, strided<[1], offset: 92661760>>
    %subview_83 = memref.subview %arg0[92662784] [1024] [1] : memref<340387840xf32> to memref<1024xf32, strided<[1], offset: 92662784>>
    %subview_84 = memref.subview %arg0[92663808] [4194304] [1] : memref<340387840xf32> to memref<4194304xf32, strided<[1], offset: 92663808>>
    %expand_shape_85 = memref.expand_shape %subview_84 [[0, 1]] : memref<4194304xf32, strided<[1], offset: 92663808>> into memref<4096x1024xf32, strided<[1024, 1], offset: 92663808>>
    %subview_86 = memref.subview %arg0[96858112] [4096] [1] : memref<340387840xf32> to memref<4096xf32, strided<[1], offset: 96858112>>
    %subview_87 = memref.subview %arg0[96862208] [4194304] [1] : memref<340387840xf32> to memref<4194304xf32, strided<[1], offset: 96862208>>
    %expand_shape_88 = memref.expand_shape %subview_87 [[0, 1]] : memref<4194304xf32, strided<[1], offset: 96862208>> into memref<1024x4096xf32, strided<[4096, 1], offset: 96862208>>
    %subview_89 = memref.subview %arg0[101056512] [1024] [1] : memref<340387840xf32> to memref<1024xf32, strided<[1], offset: 101056512>>
    %subview_90 = memref.subview %arg0[101057536] [1024] [1] : memref<340387840xf32> to memref<1024xf32, strided<[1], offset: 101057536>>
    %subview_91 = memref.subview %arg0[101058560] [1024] [1] : memref<340387840xf32> to memref<1024xf32, strided<[1], offset: 101058560>>
    %subview_92 = memref.subview %arg0[101059584] [1048576] [1] : memref<340387840xf32> to memref<1048576xf32, strided<[1], offset: 101059584>>
    %expand_shape_93 = memref.expand_shape %subview_92 [[0, 1]] : memref<1048576xf32, strided<[1], offset: 101059584>> into memref<1024x1024xf32, strided<[1024, 1], offset: 101059584>>
    %subview_94 = memref.subview %arg0[102108160] [1024] [1] : memref<340387840xf32> to memref<1024xf32, strided<[1], offset: 102108160>>
    %subview_95 = memref.subview %arg0[102109184] [1048576] [1] : memref<340387840xf32> to memref<1048576xf32, strided<[1], offset: 102109184>>
    %expand_shape_96 = memref.expand_shape %subview_95 [[0, 1]] : memref<1048576xf32, strided<[1], offset: 102109184>> into memref<1024x1024xf32, strided<[1024, 1], offset: 102109184>>
    %subview_97 = memref.subview %arg0[103157760] [1024] [1] : memref<340387840xf32> to memref<1024xf32, strided<[1], offset: 103157760>>
    %subview_98 = memref.subview %arg0[103158784] [1048576] [1] : memref<340387840xf32> to memref<1048576xf32, strided<[1], offset: 103158784>>
    %expand_shape_99 = memref.expand_shape %subview_98 [[0, 1]] : memref<1048576xf32, strided<[1], offset: 103158784>> into memref<1024x1024xf32, strided<[1024, 1], offset: 103158784>>
    %subview_100 = memref.subview %arg0[104207360] [1024] [1] : memref<340387840xf32> to memref<1024xf32, strided<[1], offset: 104207360>>
    %subview_101 = memref.subview %arg0[104208384] [1048576] [1] : memref<340387840xf32> to memref<1048576xf32, strided<[1], offset: 104208384>>
    %expand_shape_102 = memref.expand_shape %subview_101 [[0, 1]] : memref<1048576xf32, strided<[1], offset: 104208384>> into memref<1024x1024xf32, strided<[1024, 1], offset: 104208384>>
    %subview_103 = memref.subview %arg0[105256960] [1024] [1] : memref<340387840xf32> to memref<1024xf32, strided<[1], offset: 105256960>>
    %subview_104 = memref.subview %arg0[105257984] [1024] [1] : memref<340387840xf32> to memref<1024xf32, strided<[1], offset: 105257984>>
    %subview_105 = memref.subview %arg0[105259008] [1024] [1] : memref<340387840xf32> to memref<1024xf32, strided<[1], offset: 105259008>>
    %subview_106 = memref.subview %arg0[105260032] [4194304] [1] : memref<340387840xf32> to memref<4194304xf32, strided<[1], offset: 105260032>>
    %expand_shape_107 = memref.expand_shape %subview_106 [[0, 1]] : memref<4194304xf32, strided<[1], offset: 105260032>> into memref<4096x1024xf32, strided<[1024, 1], offset: 105260032>>
    %subview_108 = memref.subview %arg0[109454336] [4096] [1] : memref<340387840xf32> to memref<4096xf32, strided<[1], offset: 109454336>>
    %subview_109 = memref.subview %arg0[109458432] [4194304] [1] : memref<340387840xf32> to memref<4194304xf32, strided<[1], offset: 109458432>>
    %expand_shape_110 = memref.expand_shape %subview_109 [[0, 1]] : memref<4194304xf32, strided<[1], offset: 109458432>> into memref<1024x4096xf32, strided<[4096, 1], offset: 109458432>>
    %subview_111 = memref.subview %arg0[113652736] [1024] [1] : memref<340387840xf32> to memref<1024xf32, strided<[1], offset: 113652736>>
    %subview_112 = memref.subview %arg0[113653760] [1024] [1] : memref<340387840xf32> to memref<1024xf32, strided<[1], offset: 113653760>>
    %subview_113 = memref.subview %arg0[113654784] [1024] [1] : memref<340387840xf32> to memref<1024xf32, strided<[1], offset: 113654784>>
    %subview_114 = memref.subview %arg0[113655808] [1048576] [1] : memref<340387840xf32> to memref<1048576xf32, strided<[1], offset: 113655808>>
    %expand_shape_115 = memref.expand_shape %subview_114 [[0, 1]] : memref<1048576xf32, strided<[1], offset: 113655808>> into memref<1024x1024xf32, strided<[1024, 1], offset: 113655808>>
    %subview_116 = memref.subview %arg0[114704384] [1024] [1] : memref<340387840xf32> to memref<1024xf32, strided<[1], offset: 114704384>>
    %subview_117 = memref.subview %arg0[114705408] [1048576] [1] : memref<340387840xf32> to memref<1048576xf32, strided<[1], offset: 114705408>>
    %expand_shape_118 = memref.expand_shape %subview_117 [[0, 1]] : memref<1048576xf32, strided<[1], offset: 114705408>> into memref<1024x1024xf32, strided<[1024, 1], offset: 114705408>>
    %subview_119 = memref.subview %arg0[115753984] [1024] [1] : memref<340387840xf32> to memref<1024xf32, strided<[1], offset: 115753984>>
    %subview_120 = memref.subview %arg0[115755008] [1048576] [1] : memref<340387840xf32> to memref<1048576xf32, strided<[1], offset: 115755008>>
    %expand_shape_121 = memref.expand_shape %subview_120 [[0, 1]] : memref<1048576xf32, strided<[1], offset: 115755008>> into memref<1024x1024xf32, strided<[1024, 1], offset: 115755008>>
    %subview_122 = memref.subview %arg0[116803584] [1024] [1] : memref<340387840xf32> to memref<1024xf32, strided<[1], offset: 116803584>>
    %subview_123 = memref.subview %arg0[116804608] [1048576] [1] : memref<340387840xf32> to memref<1048576xf32, strided<[1], offset: 116804608>>
    %expand_shape_124 = memref.expand_shape %subview_123 [[0, 1]] : memref<1048576xf32, strided<[1], offset: 116804608>> into memref<1024x1024xf32, strided<[1024, 1], offset: 116804608>>
    %subview_125 = memref.subview %arg0[117853184] [1024] [1] : memref<340387840xf32> to memref<1024xf32, strided<[1], offset: 117853184>>
    %subview_126 = memref.subview %arg0[117854208] [1024] [1] : memref<340387840xf32> to memref<1024xf32, strided<[1], offset: 117854208>>
    %subview_127 = memref.subview %arg0[117855232] [1024] [1] : memref<340387840xf32> to memref<1024xf32, strided<[1], offset: 117855232>>
    %subview_128 = memref.subview %arg0[117856256] [4194304] [1] : memref<340387840xf32> to memref<4194304xf32, strided<[1], offset: 117856256>>
    %expand_shape_129 = memref.expand_shape %subview_128 [[0, 1]] : memref<4194304xf32, strided<[1], offset: 117856256>> into memref<4096x1024xf32, strided<[1024, 1], offset: 117856256>>
    %subview_130 = memref.subview %arg0[122050560] [4096] [1] : memref<340387840xf32> to memref<4096xf32, strided<[1], offset: 122050560>>
    %subview_131 = memref.subview %arg0[122054656] [4194304] [1] : memref<340387840xf32> to memref<4194304xf32, strided<[1], offset: 122054656>>
    %expand_shape_132 = memref.expand_shape %subview_131 [[0, 1]] : memref<4194304xf32, strided<[1], offset: 122054656>> into memref<1024x4096xf32, strided<[4096, 1], offset: 122054656>>
    %subview_133 = memref.subview %arg0[126248960] [1024] [1] : memref<340387840xf32> to memref<1024xf32, strided<[1], offset: 126248960>>
    %subview_134 = memref.subview %arg0[126249984] [1024] [1] : memref<340387840xf32> to memref<1024xf32, strided<[1], offset: 126249984>>
    %subview_135 = memref.subview %arg0[126251008] [1024] [1] : memref<340387840xf32> to memref<1024xf32, strided<[1], offset: 126251008>>
    %subview_136 = memref.subview %arg0[126252032] [1048576] [1] : memref<340387840xf32> to memref<1048576xf32, strided<[1], offset: 126252032>>
    %expand_shape_137 = memref.expand_shape %subview_136 [[0, 1]] : memref<1048576xf32, strided<[1], offset: 126252032>> into memref<1024x1024xf32, strided<[1024, 1], offset: 126252032>>
    %subview_138 = memref.subview %arg0[127300608] [1024] [1] : memref<340387840xf32> to memref<1024xf32, strided<[1], offset: 127300608>>
    %subview_139 = memref.subview %arg0[127301632] [1048576] [1] : memref<340387840xf32> to memref<1048576xf32, strided<[1], offset: 127301632>>
    %expand_shape_140 = memref.expand_shape %subview_139 [[0, 1]] : memref<1048576xf32, strided<[1], offset: 127301632>> into memref<1024x1024xf32, strided<[1024, 1], offset: 127301632>>
    %subview_141 = memref.subview %arg0[128350208] [1024] [1] : memref<340387840xf32> to memref<1024xf32, strided<[1], offset: 128350208>>
    %subview_142 = memref.subview %arg0[128351232] [1048576] [1] : memref<340387840xf32> to memref<1048576xf32, strided<[1], offset: 128351232>>
    %expand_shape_143 = memref.expand_shape %subview_142 [[0, 1]] : memref<1048576xf32, strided<[1], offset: 128351232>> into memref<1024x1024xf32, strided<[1024, 1], offset: 128351232>>
    %subview_144 = memref.subview %arg0[129399808] [1024] [1] : memref<340387840xf32> to memref<1024xf32, strided<[1], offset: 129399808>>
    %subview_145 = memref.subview %arg0[129400832] [1048576] [1] : memref<340387840xf32> to memref<1048576xf32, strided<[1], offset: 129400832>>
    %expand_shape_146 = memref.expand_shape %subview_145 [[0, 1]] : memref<1048576xf32, strided<[1], offset: 129400832>> into memref<1024x1024xf32, strided<[1024, 1], offset: 129400832>>
    %subview_147 = memref.subview %arg0[130449408] [1024] [1] : memref<340387840xf32> to memref<1024xf32, strided<[1], offset: 130449408>>
    %subview_148 = memref.subview %arg0[130450432] [1024] [1] : memref<340387840xf32> to memref<1024xf32, strided<[1], offset: 130450432>>
    %subview_149 = memref.subview %arg0[130451456] [1024] [1] : memref<340387840xf32> to memref<1024xf32, strided<[1], offset: 130451456>>
    %subview_150 = memref.subview %arg0[130452480] [4194304] [1] : memref<340387840xf32> to memref<4194304xf32, strided<[1], offset: 130452480>>
    %expand_shape_151 = memref.expand_shape %subview_150 [[0, 1]] : memref<4194304xf32, strided<[1], offset: 130452480>> into memref<4096x1024xf32, strided<[1024, 1], offset: 130452480>>
    %subview_152 = memref.subview %arg0[134646784] [4096] [1] : memref<340387840xf32> to memref<4096xf32, strided<[1], offset: 134646784>>
    %subview_153 = memref.subview %arg0[134650880] [4194304] [1] : memref<340387840xf32> to memref<4194304xf32, strided<[1], offset: 134650880>>
    %expand_shape_154 = memref.expand_shape %subview_153 [[0, 1]] : memref<4194304xf32, strided<[1], offset: 134650880>> into memref<1024x4096xf32, strided<[4096, 1], offset: 134650880>>
    %subview_155 = memref.subview %arg0[138845184] [1024] [1] : memref<340387840xf32> to memref<1024xf32, strided<[1], offset: 138845184>>
    %subview_156 = memref.subview %arg0[138846208] [1024] [1] : memref<340387840xf32> to memref<1024xf32, strided<[1], offset: 138846208>>
    %subview_157 = memref.subview %arg0[138847232] [1024] [1] : memref<340387840xf32> to memref<1024xf32, strided<[1], offset: 138847232>>
    %subview_158 = memref.subview %arg0[138848256] [1048576] [1] : memref<340387840xf32> to memref<1048576xf32, strided<[1], offset: 138848256>>
    %expand_shape_159 = memref.expand_shape %subview_158 [[0, 1]] : memref<1048576xf32, strided<[1], offset: 138848256>> into memref<1024x1024xf32, strided<[1024, 1], offset: 138848256>>
    %subview_160 = memref.subview %arg0[139896832] [1024] [1] : memref<340387840xf32> to memref<1024xf32, strided<[1], offset: 139896832>>
    %subview_161 = memref.subview %arg0[139897856] [1048576] [1] : memref<340387840xf32> to memref<1048576xf32, strided<[1], offset: 139897856>>
    %expand_shape_162 = memref.expand_shape %subview_161 [[0, 1]] : memref<1048576xf32, strided<[1], offset: 139897856>> into memref<1024x1024xf32, strided<[1024, 1], offset: 139897856>>
    %subview_163 = memref.subview %arg0[140946432] [1024] [1] : memref<340387840xf32> to memref<1024xf32, strided<[1], offset: 140946432>>
    %subview_164 = memref.subview %arg0[140947456] [1048576] [1] : memref<340387840xf32> to memref<1048576xf32, strided<[1], offset: 140947456>>
    %expand_shape_165 = memref.expand_shape %subview_164 [[0, 1]] : memref<1048576xf32, strided<[1], offset: 140947456>> into memref<1024x1024xf32, strided<[1024, 1], offset: 140947456>>
    %subview_166 = memref.subview %arg0[141996032] [1024] [1] : memref<340387840xf32> to memref<1024xf32, strided<[1], offset: 141996032>>
    %subview_167 = memref.subview %arg0[141997056] [1048576] [1] : memref<340387840xf32> to memref<1048576xf32, strided<[1], offset: 141997056>>
    %expand_shape_168 = memref.expand_shape %subview_167 [[0, 1]] : memref<1048576xf32, strided<[1], offset: 141997056>> into memref<1024x1024xf32, strided<[1024, 1], offset: 141997056>>
    %subview_169 = memref.subview %arg0[143045632] [1024] [1] : memref<340387840xf32> to memref<1024xf32, strided<[1], offset: 143045632>>
    %subview_170 = memref.subview %arg0[143046656] [1024] [1] : memref<340387840xf32> to memref<1024xf32, strided<[1], offset: 143046656>>
    %subview_171 = memref.subview %arg0[143047680] [1024] [1] : memref<340387840xf32> to memref<1024xf32, strided<[1], offset: 143047680>>
    %subview_172 = memref.subview %arg0[143048704] [4194304] [1] : memref<340387840xf32> to memref<4194304xf32, strided<[1], offset: 143048704>>
    %expand_shape_173 = memref.expand_shape %subview_172 [[0, 1]] : memref<4194304xf32, strided<[1], offset: 143048704>> into memref<4096x1024xf32, strided<[1024, 1], offset: 143048704>>
    %subview_174 = memref.subview %arg0[147243008] [4096] [1] : memref<340387840xf32> to memref<4096xf32, strided<[1], offset: 147243008>>
    %subview_175 = memref.subview %arg0[147247104] [4194304] [1] : memref<340387840xf32> to memref<4194304xf32, strided<[1], offset: 147247104>>
    %expand_shape_176 = memref.expand_shape %subview_175 [[0, 1]] : memref<4194304xf32, strided<[1], offset: 147247104>> into memref<1024x4096xf32, strided<[4096, 1], offset: 147247104>>
    %subview_177 = memref.subview %arg0[151441408] [1024] [1] : memref<340387840xf32> to memref<1024xf32, strided<[1], offset: 151441408>>
    %subview_178 = memref.subview %arg0[151442432] [1024] [1] : memref<340387840xf32> to memref<1024xf32, strided<[1], offset: 151442432>>
    %subview_179 = memref.subview %arg0[151443456] [1024] [1] : memref<340387840xf32> to memref<1024xf32, strided<[1], offset: 151443456>>
    %subview_180 = memref.subview %arg0[151444480] [1048576] [1] : memref<340387840xf32> to memref<1048576xf32, strided<[1], offset: 151444480>>
    %expand_shape_181 = memref.expand_shape %subview_180 [[0, 1]] : memref<1048576xf32, strided<[1], offset: 151444480>> into memref<1024x1024xf32, strided<[1024, 1], offset: 151444480>>
    %subview_182 = memref.subview %arg0[152493056] [1024] [1] : memref<340387840xf32> to memref<1024xf32, strided<[1], offset: 152493056>>
    %subview_183 = memref.subview %arg0[152494080] [1048576] [1] : memref<340387840xf32> to memref<1048576xf32, strided<[1], offset: 152494080>>
    %expand_shape_184 = memref.expand_shape %subview_183 [[0, 1]] : memref<1048576xf32, strided<[1], offset: 152494080>> into memref<1024x1024xf32, strided<[1024, 1], offset: 152494080>>
    %subview_185 = memref.subview %arg0[153542656] [1024] [1] : memref<340387840xf32> to memref<1024xf32, strided<[1], offset: 153542656>>
    %subview_186 = memref.subview %arg0[153543680] [1048576] [1] : memref<340387840xf32> to memref<1048576xf32, strided<[1], offset: 153543680>>
    %expand_shape_187 = memref.expand_shape %subview_186 [[0, 1]] : memref<1048576xf32, strided<[1], offset: 153543680>> into memref<1024x1024xf32, strided<[1024, 1], offset: 153543680>>
    %subview_188 = memref.subview %arg0[154592256] [1024] [1] : memref<340387840xf32> to memref<1024xf32, strided<[1], offset: 154592256>>
    %subview_189 = memref.subview %arg0[154593280] [1048576] [1] : memref<340387840xf32> to memref<1048576xf32, strided<[1], offset: 154593280>>
    %expand_shape_190 = memref.expand_shape %subview_189 [[0, 1]] : memref<1048576xf32, strided<[1], offset: 154593280>> into memref<1024x1024xf32, strided<[1024, 1], offset: 154593280>>
    %subview_191 = memref.subview %arg0[155641856] [1024] [1] : memref<340387840xf32> to memref<1024xf32, strided<[1], offset: 155641856>>
    %subview_192 = memref.subview %arg0[155642880] [1024] [1] : memref<340387840xf32> to memref<1024xf32, strided<[1], offset: 155642880>>
    %subview_193 = memref.subview %arg0[155643904] [1024] [1] : memref<340387840xf32> to memref<1024xf32, strided<[1], offset: 155643904>>
    %subview_194 = memref.subview %arg0[155644928] [4194304] [1] : memref<340387840xf32> to memref<4194304xf32, strided<[1], offset: 155644928>>
    %expand_shape_195 = memref.expand_shape %subview_194 [[0, 1]] : memref<4194304xf32, strided<[1], offset: 155644928>> into memref<4096x1024xf32, strided<[1024, 1], offset: 155644928>>
    %subview_196 = memref.subview %arg0[159839232] [4096] [1] : memref<340387840xf32> to memref<4096xf32, strided<[1], offset: 159839232>>
    %subview_197 = memref.subview %arg0[159843328] [4194304] [1] : memref<340387840xf32> to memref<4194304xf32, strided<[1], offset: 159843328>>
    %expand_shape_198 = memref.expand_shape %subview_197 [[0, 1]] : memref<4194304xf32, strided<[1], offset: 159843328>> into memref<1024x4096xf32, strided<[4096, 1], offset: 159843328>>
    %subview_199 = memref.subview %arg0[164037632] [1024] [1] : memref<340387840xf32> to memref<1024xf32, strided<[1], offset: 164037632>>
    %subview_200 = memref.subview %arg0[164038656] [1024] [1] : memref<340387840xf32> to memref<1024xf32, strided<[1], offset: 164038656>>
    %subview_201 = memref.subview %arg0[164039680] [1024] [1] : memref<340387840xf32> to memref<1024xf32, strided<[1], offset: 164039680>>
    %subview_202 = memref.subview %arg0[164040704] [1048576] [1] : memref<340387840xf32> to memref<1048576xf32, strided<[1], offset: 164040704>>
    %expand_shape_203 = memref.expand_shape %subview_202 [[0, 1]] : memref<1048576xf32, strided<[1], offset: 164040704>> into memref<1024x1024xf32, strided<[1024, 1], offset: 164040704>>
    %subview_204 = memref.subview %arg0[165089280] [1024] [1] : memref<340387840xf32> to memref<1024xf32, strided<[1], offset: 165089280>>
    %subview_205 = memref.subview %arg0[165090304] [1048576] [1] : memref<340387840xf32> to memref<1048576xf32, strided<[1], offset: 165090304>>
    %expand_shape_206 = memref.expand_shape %subview_205 [[0, 1]] : memref<1048576xf32, strided<[1], offset: 165090304>> into memref<1024x1024xf32, strided<[1024, 1], offset: 165090304>>
    %subview_207 = memref.subview %arg0[166138880] [1024] [1] : memref<340387840xf32> to memref<1024xf32, strided<[1], offset: 166138880>>
    %subview_208 = memref.subview %arg0[166139904] [1048576] [1] : memref<340387840xf32> to memref<1048576xf32, strided<[1], offset: 166139904>>
    %expand_shape_209 = memref.expand_shape %subview_208 [[0, 1]] : memref<1048576xf32, strided<[1], offset: 166139904>> into memref<1024x1024xf32, strided<[1024, 1], offset: 166139904>>
    %subview_210 = memref.subview %arg0[167188480] [1024] [1] : memref<340387840xf32> to memref<1024xf32, strided<[1], offset: 167188480>>
    %subview_211 = memref.subview %arg0[167189504] [1048576] [1] : memref<340387840xf32> to memref<1048576xf32, strided<[1], offset: 167189504>>
    %expand_shape_212 = memref.expand_shape %subview_211 [[0, 1]] : memref<1048576xf32, strided<[1], offset: 167189504>> into memref<1024x1024xf32, strided<[1024, 1], offset: 167189504>>
    %subview_213 = memref.subview %arg0[168238080] [1024] [1] : memref<340387840xf32> to memref<1024xf32, strided<[1], offset: 168238080>>
    %subview_214 = memref.subview %arg0[168239104] [1024] [1] : memref<340387840xf32> to memref<1024xf32, strided<[1], offset: 168239104>>
    %subview_215 = memref.subview %arg0[168240128] [1024] [1] : memref<340387840xf32> to memref<1024xf32, strided<[1], offset: 168240128>>
    %subview_216 = memref.subview %arg0[168241152] [4194304] [1] : memref<340387840xf32> to memref<4194304xf32, strided<[1], offset: 168241152>>
    %expand_shape_217 = memref.expand_shape %subview_216 [[0, 1]] : memref<4194304xf32, strided<[1], offset: 168241152>> into memref<4096x1024xf32, strided<[1024, 1], offset: 168241152>>
    %subview_218 = memref.subview %arg0[172435456] [4096] [1] : memref<340387840xf32> to memref<4096xf32, strided<[1], offset: 172435456>>
    %subview_219 = memref.subview %arg0[172439552] [4194304] [1] : memref<340387840xf32> to memref<4194304xf32, strided<[1], offset: 172439552>>
    %expand_shape_220 = memref.expand_shape %subview_219 [[0, 1]] : memref<4194304xf32, strided<[1], offset: 172439552>> into memref<1024x4096xf32, strided<[4096, 1], offset: 172439552>>
    %subview_221 = memref.subview %arg0[176633856] [1024] [1] : memref<340387840xf32> to memref<1024xf32, strided<[1], offset: 176633856>>
    %subview_222 = memref.subview %arg0[176634880] [1024] [1] : memref<340387840xf32> to memref<1024xf32, strided<[1], offset: 176634880>>
    %subview_223 = memref.subview %arg0[176635904] [1024] [1] : memref<340387840xf32> to memref<1024xf32, strided<[1], offset: 176635904>>
    %subview_224 = memref.subview %arg0[176636928] [1048576] [1] : memref<340387840xf32> to memref<1048576xf32, strided<[1], offset: 176636928>>
    %expand_shape_225 = memref.expand_shape %subview_224 [[0, 1]] : memref<1048576xf32, strided<[1], offset: 176636928>> into memref<1024x1024xf32, strided<[1024, 1], offset: 176636928>>
    %subview_226 = memref.subview %arg0[177685504] [1024] [1] : memref<340387840xf32> to memref<1024xf32, strided<[1], offset: 177685504>>
    %subview_227 = memref.subview %arg0[177686528] [1048576] [1] : memref<340387840xf32> to memref<1048576xf32, strided<[1], offset: 177686528>>
    %expand_shape_228 = memref.expand_shape %subview_227 [[0, 1]] : memref<1048576xf32, strided<[1], offset: 177686528>> into memref<1024x1024xf32, strided<[1024, 1], offset: 177686528>>
    %subview_229 = memref.subview %arg0[178735104] [1024] [1] : memref<340387840xf32> to memref<1024xf32, strided<[1], offset: 178735104>>
    %subview_230 = memref.subview %arg0[178736128] [1048576] [1] : memref<340387840xf32> to memref<1048576xf32, strided<[1], offset: 178736128>>
    %expand_shape_231 = memref.expand_shape %subview_230 [[0, 1]] : memref<1048576xf32, strided<[1], offset: 178736128>> into memref<1024x1024xf32, strided<[1024, 1], offset: 178736128>>
    %subview_232 = memref.subview %arg0[179784704] [1024] [1] : memref<340387840xf32> to memref<1024xf32, strided<[1], offset: 179784704>>
    %subview_233 = memref.subview %arg0[179785728] [1048576] [1] : memref<340387840xf32> to memref<1048576xf32, strided<[1], offset: 179785728>>
    %expand_shape_234 = memref.expand_shape %subview_233 [[0, 1]] : memref<1048576xf32, strided<[1], offset: 179785728>> into memref<1024x1024xf32, strided<[1024, 1], offset: 179785728>>
    %subview_235 = memref.subview %arg0[180834304] [1024] [1] : memref<340387840xf32> to memref<1024xf32, strided<[1], offset: 180834304>>
    %subview_236 = memref.subview %arg0[180835328] [1024] [1] : memref<340387840xf32> to memref<1024xf32, strided<[1], offset: 180835328>>
    %subview_237 = memref.subview %arg0[180836352] [1024] [1] : memref<340387840xf32> to memref<1024xf32, strided<[1], offset: 180836352>>
    %subview_238 = memref.subview %arg0[180837376] [4194304] [1] : memref<340387840xf32> to memref<4194304xf32, strided<[1], offset: 180837376>>
    %expand_shape_239 = memref.expand_shape %subview_238 [[0, 1]] : memref<4194304xf32, strided<[1], offset: 180837376>> into memref<4096x1024xf32, strided<[1024, 1], offset: 180837376>>
    %subview_240 = memref.subview %arg0[185031680] [4096] [1] : memref<340387840xf32> to memref<4096xf32, strided<[1], offset: 185031680>>
    %subview_241 = memref.subview %arg0[185035776] [4194304] [1] : memref<340387840xf32> to memref<4194304xf32, strided<[1], offset: 185035776>>
    %expand_shape_242 = memref.expand_shape %subview_241 [[0, 1]] : memref<4194304xf32, strided<[1], offset: 185035776>> into memref<1024x4096xf32, strided<[4096, 1], offset: 185035776>>
    %subview_243 = memref.subview %arg0[189230080] [1024] [1] : memref<340387840xf32> to memref<1024xf32, strided<[1], offset: 189230080>>
    %subview_244 = memref.subview %arg0[189231104] [1024] [1] : memref<340387840xf32> to memref<1024xf32, strided<[1], offset: 189231104>>
    %subview_245 = memref.subview %arg0[189232128] [1024] [1] : memref<340387840xf32> to memref<1024xf32, strided<[1], offset: 189232128>>
    %subview_246 = memref.subview %arg0[189233152] [1048576] [1] : memref<340387840xf32> to memref<1048576xf32, strided<[1], offset: 189233152>>
    %expand_shape_247 = memref.expand_shape %subview_246 [[0, 1]] : memref<1048576xf32, strided<[1], offset: 189233152>> into memref<1024x1024xf32, strided<[1024, 1], offset: 189233152>>
    %subview_248 = memref.subview %arg0[190281728] [1024] [1] : memref<340387840xf32> to memref<1024xf32, strided<[1], offset: 190281728>>
    %subview_249 = memref.subview %arg0[190282752] [1048576] [1] : memref<340387840xf32> to memref<1048576xf32, strided<[1], offset: 190282752>>
    %expand_shape_250 = memref.expand_shape %subview_249 [[0, 1]] : memref<1048576xf32, strided<[1], offset: 190282752>> into memref<1024x1024xf32, strided<[1024, 1], offset: 190282752>>
    %subview_251 = memref.subview %arg0[191331328] [1024] [1] : memref<340387840xf32> to memref<1024xf32, strided<[1], offset: 191331328>>
    %subview_252 = memref.subview %arg0[191332352] [1048576] [1] : memref<340387840xf32> to memref<1048576xf32, strided<[1], offset: 191332352>>
    %expand_shape_253 = memref.expand_shape %subview_252 [[0, 1]] : memref<1048576xf32, strided<[1], offset: 191332352>> into memref<1024x1024xf32, strided<[1024, 1], offset: 191332352>>
    %subview_254 = memref.subview %arg0[192380928] [1024] [1] : memref<340387840xf32> to memref<1024xf32, strided<[1], offset: 192380928>>
    %subview_255 = memref.subview %arg0[192381952] [1048576] [1] : memref<340387840xf32> to memref<1048576xf32, strided<[1], offset: 192381952>>
    %expand_shape_256 = memref.expand_shape %subview_255 [[0, 1]] : memref<1048576xf32, strided<[1], offset: 192381952>> into memref<1024x1024xf32, strided<[1024, 1], offset: 192381952>>
    %subview_257 = memref.subview %arg0[193430528] [1024] [1] : memref<340387840xf32> to memref<1024xf32, strided<[1], offset: 193430528>>
    %subview_258 = memref.subview %arg0[193431552] [1024] [1] : memref<340387840xf32> to memref<1024xf32, strided<[1], offset: 193431552>>
    %subview_259 = memref.subview %arg0[193432576] [1024] [1] : memref<340387840xf32> to memref<1024xf32, strided<[1], offset: 193432576>>
    %subview_260 = memref.subview %arg0[193433600] [4194304] [1] : memref<340387840xf32> to memref<4194304xf32, strided<[1], offset: 193433600>>
    %expand_shape_261 = memref.expand_shape %subview_260 [[0, 1]] : memref<4194304xf32, strided<[1], offset: 193433600>> into memref<4096x1024xf32, strided<[1024, 1], offset: 193433600>>
    %subview_262 = memref.subview %arg0[197627904] [4096] [1] : memref<340387840xf32> to memref<4096xf32, strided<[1], offset: 197627904>>
    %subview_263 = memref.subview %arg0[197632000] [4194304] [1] : memref<340387840xf32> to memref<4194304xf32, strided<[1], offset: 197632000>>
    %expand_shape_264 = memref.expand_shape %subview_263 [[0, 1]] : memref<4194304xf32, strided<[1], offset: 197632000>> into memref<1024x4096xf32, strided<[4096, 1], offset: 197632000>>
    %subview_265 = memref.subview %arg0[201826304] [1024] [1] : memref<340387840xf32> to memref<1024xf32, strided<[1], offset: 201826304>>
    %subview_266 = memref.subview %arg0[201827328] [1024] [1] : memref<340387840xf32> to memref<1024xf32, strided<[1], offset: 201827328>>
    %subview_267 = memref.subview %arg0[201828352] [1024] [1] : memref<340387840xf32> to memref<1024xf32, strided<[1], offset: 201828352>>
    %subview_268 = memref.subview %arg0[201829376] [1048576] [1] : memref<340387840xf32> to memref<1048576xf32, strided<[1], offset: 201829376>>
    %expand_shape_269 = memref.expand_shape %subview_268 [[0, 1]] : memref<1048576xf32, strided<[1], offset: 201829376>> into memref<1024x1024xf32, strided<[1024, 1], offset: 201829376>>
    %subview_270 = memref.subview %arg0[202877952] [1024] [1] : memref<340387840xf32> to memref<1024xf32, strided<[1], offset: 202877952>>
    %subview_271 = memref.subview %arg0[202878976] [1048576] [1] : memref<340387840xf32> to memref<1048576xf32, strided<[1], offset: 202878976>>
    %expand_shape_272 = memref.expand_shape %subview_271 [[0, 1]] : memref<1048576xf32, strided<[1], offset: 202878976>> into memref<1024x1024xf32, strided<[1024, 1], offset: 202878976>>
    %subview_273 = memref.subview %arg0[203927552] [1024] [1] : memref<340387840xf32> to memref<1024xf32, strided<[1], offset: 203927552>>
    %subview_274 = memref.subview %arg0[203928576] [1048576] [1] : memref<340387840xf32> to memref<1048576xf32, strided<[1], offset: 203928576>>
    %expand_shape_275 = memref.expand_shape %subview_274 [[0, 1]] : memref<1048576xf32, strided<[1], offset: 203928576>> into memref<1024x1024xf32, strided<[1024, 1], offset: 203928576>>
    %subview_276 = memref.subview %arg0[204977152] [1024] [1] : memref<340387840xf32> to memref<1024xf32, strided<[1], offset: 204977152>>
    %subview_277 = memref.subview %arg0[204978176] [1048576] [1] : memref<340387840xf32> to memref<1048576xf32, strided<[1], offset: 204978176>>
    %expand_shape_278 = memref.expand_shape %subview_277 [[0, 1]] : memref<1048576xf32, strided<[1], offset: 204978176>> into memref<1024x1024xf32, strided<[1024, 1], offset: 204978176>>
    %subview_279 = memref.subview %arg0[206026752] [1024] [1] : memref<340387840xf32> to memref<1024xf32, strided<[1], offset: 206026752>>
    %subview_280 = memref.subview %arg0[206027776] [1024] [1] : memref<340387840xf32> to memref<1024xf32, strided<[1], offset: 206027776>>
    %subview_281 = memref.subview %arg0[206028800] [1024] [1] : memref<340387840xf32> to memref<1024xf32, strided<[1], offset: 206028800>>
    %subview_282 = memref.subview %arg0[206029824] [4194304] [1] : memref<340387840xf32> to memref<4194304xf32, strided<[1], offset: 206029824>>
    %expand_shape_283 = memref.expand_shape %subview_282 [[0, 1]] : memref<4194304xf32, strided<[1], offset: 206029824>> into memref<4096x1024xf32, strided<[1024, 1], offset: 206029824>>
    %subview_284 = memref.subview %arg0[210224128] [4096] [1] : memref<340387840xf32> to memref<4096xf32, strided<[1], offset: 210224128>>
    %subview_285 = memref.subview %arg0[210228224] [4194304] [1] : memref<340387840xf32> to memref<4194304xf32, strided<[1], offset: 210228224>>
    %expand_shape_286 = memref.expand_shape %subview_285 [[0, 1]] : memref<4194304xf32, strided<[1], offset: 210228224>> into memref<1024x4096xf32, strided<[4096, 1], offset: 210228224>>
    %subview_287 = memref.subview %arg0[214422528] [1024] [1] : memref<340387840xf32> to memref<1024xf32, strided<[1], offset: 214422528>>
    %subview_288 = memref.subview %arg0[214423552] [1024] [1] : memref<340387840xf32> to memref<1024xf32, strided<[1], offset: 214423552>>
    %subview_289 = memref.subview %arg0[214424576] [1024] [1] : memref<340387840xf32> to memref<1024xf32, strided<[1], offset: 214424576>>
    %subview_290 = memref.subview %arg0[214425600] [1048576] [1] : memref<340387840xf32> to memref<1048576xf32, strided<[1], offset: 214425600>>
    %expand_shape_291 = memref.expand_shape %subview_290 [[0, 1]] : memref<1048576xf32, strided<[1], offset: 214425600>> into memref<1024x1024xf32, strided<[1024, 1], offset: 214425600>>
    %subview_292 = memref.subview %arg0[215474176] [1024] [1] : memref<340387840xf32> to memref<1024xf32, strided<[1], offset: 215474176>>
    %subview_293 = memref.subview %arg0[215475200] [1048576] [1] : memref<340387840xf32> to memref<1048576xf32, strided<[1], offset: 215475200>>
    %expand_shape_294 = memref.expand_shape %subview_293 [[0, 1]] : memref<1048576xf32, strided<[1], offset: 215475200>> into memref<1024x1024xf32, strided<[1024, 1], offset: 215475200>>
    %subview_295 = memref.subview %arg0[216523776] [1024] [1] : memref<340387840xf32> to memref<1024xf32, strided<[1], offset: 216523776>>
    %subview_296 = memref.subview %arg0[216524800] [1048576] [1] : memref<340387840xf32> to memref<1048576xf32, strided<[1], offset: 216524800>>
    %expand_shape_297 = memref.expand_shape %subview_296 [[0, 1]] : memref<1048576xf32, strided<[1], offset: 216524800>> into memref<1024x1024xf32, strided<[1024, 1], offset: 216524800>>
    %subview_298 = memref.subview %arg0[217573376] [1024] [1] : memref<340387840xf32> to memref<1024xf32, strided<[1], offset: 217573376>>
    %subview_299 = memref.subview %arg0[217574400] [1048576] [1] : memref<340387840xf32> to memref<1048576xf32, strided<[1], offset: 217574400>>
    %expand_shape_300 = memref.expand_shape %subview_299 [[0, 1]] : memref<1048576xf32, strided<[1], offset: 217574400>> into memref<1024x1024xf32, strided<[1024, 1], offset: 217574400>>
    %subview_301 = memref.subview %arg0[218622976] [1024] [1] : memref<340387840xf32> to memref<1024xf32, strided<[1], offset: 218622976>>
    %subview_302 = memref.subview %arg0[218624000] [1024] [1] : memref<340387840xf32> to memref<1024xf32, strided<[1], offset: 218624000>>
    %subview_303 = memref.subview %arg0[218625024] [1024] [1] : memref<340387840xf32> to memref<1024xf32, strided<[1], offset: 218625024>>
    %subview_304 = memref.subview %arg0[218626048] [4194304] [1] : memref<340387840xf32> to memref<4194304xf32, strided<[1], offset: 218626048>>
    %expand_shape_305 = memref.expand_shape %subview_304 [[0, 1]] : memref<4194304xf32, strided<[1], offset: 218626048>> into memref<4096x1024xf32, strided<[1024, 1], offset: 218626048>>
    %subview_306 = memref.subview %arg0[222820352] [4096] [1] : memref<340387840xf32> to memref<4096xf32, strided<[1], offset: 222820352>>
    %subview_307 = memref.subview %arg0[222824448] [4194304] [1] : memref<340387840xf32> to memref<4194304xf32, strided<[1], offset: 222824448>>
    %expand_shape_308 = memref.expand_shape %subview_307 [[0, 1]] : memref<4194304xf32, strided<[1], offset: 222824448>> into memref<1024x4096xf32, strided<[4096, 1], offset: 222824448>>
    %subview_309 = memref.subview %arg0[227018752] [1024] [1] : memref<340387840xf32> to memref<1024xf32, strided<[1], offset: 227018752>>
    %subview_310 = memref.subview %arg0[227019776] [1024] [1] : memref<340387840xf32> to memref<1024xf32, strided<[1], offset: 227019776>>
    %subview_311 = memref.subview %arg0[227020800] [1024] [1] : memref<340387840xf32> to memref<1024xf32, strided<[1], offset: 227020800>>
    %subview_312 = memref.subview %arg0[227021824] [1048576] [1] : memref<340387840xf32> to memref<1048576xf32, strided<[1], offset: 227021824>>
    %expand_shape_313 = memref.expand_shape %subview_312 [[0, 1]] : memref<1048576xf32, strided<[1], offset: 227021824>> into memref<1024x1024xf32, strided<[1024, 1], offset: 227021824>>
    %subview_314 = memref.subview %arg0[228070400] [1024] [1] : memref<340387840xf32> to memref<1024xf32, strided<[1], offset: 228070400>>
    %subview_315 = memref.subview %arg0[228071424] [1048576] [1] : memref<340387840xf32> to memref<1048576xf32, strided<[1], offset: 228071424>>
    %expand_shape_316 = memref.expand_shape %subview_315 [[0, 1]] : memref<1048576xf32, strided<[1], offset: 228071424>> into memref<1024x1024xf32, strided<[1024, 1], offset: 228071424>>
    %subview_317 = memref.subview %arg0[229120000] [1024] [1] : memref<340387840xf32> to memref<1024xf32, strided<[1], offset: 229120000>>
    %subview_318 = memref.subview %arg0[229121024] [1048576] [1] : memref<340387840xf32> to memref<1048576xf32, strided<[1], offset: 229121024>>
    %expand_shape_319 = memref.expand_shape %subview_318 [[0, 1]] : memref<1048576xf32, strided<[1], offset: 229121024>> into memref<1024x1024xf32, strided<[1024, 1], offset: 229121024>>
    %subview_320 = memref.subview %arg0[230169600] [1024] [1] : memref<340387840xf32> to memref<1024xf32, strided<[1], offset: 230169600>>
    %subview_321 = memref.subview %arg0[230170624] [1048576] [1] : memref<340387840xf32> to memref<1048576xf32, strided<[1], offset: 230170624>>
    %expand_shape_322 = memref.expand_shape %subview_321 [[0, 1]] : memref<1048576xf32, strided<[1], offset: 230170624>> into memref<1024x1024xf32, strided<[1024, 1], offset: 230170624>>
    %subview_323 = memref.subview %arg0[231219200] [1024] [1] : memref<340387840xf32> to memref<1024xf32, strided<[1], offset: 231219200>>
    %subview_324 = memref.subview %arg0[231220224] [1024] [1] : memref<340387840xf32> to memref<1024xf32, strided<[1], offset: 231220224>>
    %subview_325 = memref.subview %arg0[231221248] [1024] [1] : memref<340387840xf32> to memref<1024xf32, strided<[1], offset: 231221248>>
    %subview_326 = memref.subview %arg0[231222272] [4194304] [1] : memref<340387840xf32> to memref<4194304xf32, strided<[1], offset: 231222272>>
    %expand_shape_327 = memref.expand_shape %subview_326 [[0, 1]] : memref<4194304xf32, strided<[1], offset: 231222272>> into memref<4096x1024xf32, strided<[1024, 1], offset: 231222272>>
    %subview_328 = memref.subview %arg0[235416576] [4096] [1] : memref<340387840xf32> to memref<4096xf32, strided<[1], offset: 235416576>>
    %subview_329 = memref.subview %arg0[235420672] [4194304] [1] : memref<340387840xf32> to memref<4194304xf32, strided<[1], offset: 235420672>>
    %expand_shape_330 = memref.expand_shape %subview_329 [[0, 1]] : memref<4194304xf32, strided<[1], offset: 235420672>> into memref<1024x4096xf32, strided<[4096, 1], offset: 235420672>>
    %subview_331 = memref.subview %arg0[239614976] [1024] [1] : memref<340387840xf32> to memref<1024xf32, strided<[1], offset: 239614976>>
    %subview_332 = memref.subview %arg0[239616000] [1024] [1] : memref<340387840xf32> to memref<1024xf32, strided<[1], offset: 239616000>>
    %subview_333 = memref.subview %arg0[239617024] [1024] [1] : memref<340387840xf32> to memref<1024xf32, strided<[1], offset: 239617024>>
    %subview_334 = memref.subview %arg0[239618048] [1048576] [1] : memref<340387840xf32> to memref<1048576xf32, strided<[1], offset: 239618048>>
    %expand_shape_335 = memref.expand_shape %subview_334 [[0, 1]] : memref<1048576xf32, strided<[1], offset: 239618048>> into memref<1024x1024xf32, strided<[1024, 1], offset: 239618048>>
    %subview_336 = memref.subview %arg0[240666624] [1024] [1] : memref<340387840xf32> to memref<1024xf32, strided<[1], offset: 240666624>>
    %subview_337 = memref.subview %arg0[240667648] [1048576] [1] : memref<340387840xf32> to memref<1048576xf32, strided<[1], offset: 240667648>>
    %expand_shape_338 = memref.expand_shape %subview_337 [[0, 1]] : memref<1048576xf32, strided<[1], offset: 240667648>> into memref<1024x1024xf32, strided<[1024, 1], offset: 240667648>>
    %subview_339 = memref.subview %arg0[241716224] [1024] [1] : memref<340387840xf32> to memref<1024xf32, strided<[1], offset: 241716224>>
    %subview_340 = memref.subview %arg0[241717248] [1048576] [1] : memref<340387840xf32> to memref<1048576xf32, strided<[1], offset: 241717248>>
    %expand_shape_341 = memref.expand_shape %subview_340 [[0, 1]] : memref<1048576xf32, strided<[1], offset: 241717248>> into memref<1024x1024xf32, strided<[1024, 1], offset: 241717248>>
    %subview_342 = memref.subview %arg0[242765824] [1024] [1] : memref<340387840xf32> to memref<1024xf32, strided<[1], offset: 242765824>>
    %subview_343 = memref.subview %arg0[242766848] [1048576] [1] : memref<340387840xf32> to memref<1048576xf32, strided<[1], offset: 242766848>>
    %expand_shape_344 = memref.expand_shape %subview_343 [[0, 1]] : memref<1048576xf32, strided<[1], offset: 242766848>> into memref<1024x1024xf32, strided<[1024, 1], offset: 242766848>>
    %subview_345 = memref.subview %arg0[243815424] [1024] [1] : memref<340387840xf32> to memref<1024xf32, strided<[1], offset: 243815424>>
    %subview_346 = memref.subview %arg0[243816448] [1024] [1] : memref<340387840xf32> to memref<1024xf32, strided<[1], offset: 243816448>>
    %subview_347 = memref.subview %arg0[243817472] [1024] [1] : memref<340387840xf32> to memref<1024xf32, strided<[1], offset: 243817472>>
    %subview_348 = memref.subview %arg0[243818496] [4194304] [1] : memref<340387840xf32> to memref<4194304xf32, strided<[1], offset: 243818496>>
    %expand_shape_349 = memref.expand_shape %subview_348 [[0, 1]] : memref<4194304xf32, strided<[1], offset: 243818496>> into memref<4096x1024xf32, strided<[1024, 1], offset: 243818496>>
    %subview_350 = memref.subview %arg0[248012800] [4096] [1] : memref<340387840xf32> to memref<4096xf32, strided<[1], offset: 248012800>>
    %subview_351 = memref.subview %arg0[248016896] [4194304] [1] : memref<340387840xf32> to memref<4194304xf32, strided<[1], offset: 248016896>>
    %expand_shape_352 = memref.expand_shape %subview_351 [[0, 1]] : memref<4194304xf32, strided<[1], offset: 248016896>> into memref<1024x4096xf32, strided<[4096, 1], offset: 248016896>>
    %subview_353 = memref.subview %arg0[252211200] [1024] [1] : memref<340387840xf32> to memref<1024xf32, strided<[1], offset: 252211200>>
    %subview_354 = memref.subview %arg0[252212224] [1024] [1] : memref<340387840xf32> to memref<1024xf32, strided<[1], offset: 252212224>>
    %subview_355 = memref.subview %arg0[252213248] [1024] [1] : memref<340387840xf32> to memref<1024xf32, strided<[1], offset: 252213248>>
    %subview_356 = memref.subview %arg0[252214272] [1048576] [1] : memref<340387840xf32> to memref<1048576xf32, strided<[1], offset: 252214272>>
    %expand_shape_357 = memref.expand_shape %subview_356 [[0, 1]] : memref<1048576xf32, strided<[1], offset: 252214272>> into memref<1024x1024xf32, strided<[1024, 1], offset: 252214272>>
    %subview_358 = memref.subview %arg0[253262848] [1024] [1] : memref<340387840xf32> to memref<1024xf32, strided<[1], offset: 253262848>>
    %subview_359 = memref.subview %arg0[253263872] [1048576] [1] : memref<340387840xf32> to memref<1048576xf32, strided<[1], offset: 253263872>>
    %expand_shape_360 = memref.expand_shape %subview_359 [[0, 1]] : memref<1048576xf32, strided<[1], offset: 253263872>> into memref<1024x1024xf32, strided<[1024, 1], offset: 253263872>>
    %subview_361 = memref.subview %arg0[254312448] [1024] [1] : memref<340387840xf32> to memref<1024xf32, strided<[1], offset: 254312448>>
    %subview_362 = memref.subview %arg0[254313472] [1048576] [1] : memref<340387840xf32> to memref<1048576xf32, strided<[1], offset: 254313472>>
    %expand_shape_363 = memref.expand_shape %subview_362 [[0, 1]] : memref<1048576xf32, strided<[1], offset: 254313472>> into memref<1024x1024xf32, strided<[1024, 1], offset: 254313472>>
    %subview_364 = memref.subview %arg0[255362048] [1024] [1] : memref<340387840xf32> to memref<1024xf32, strided<[1], offset: 255362048>>
    %subview_365 = memref.subview %arg0[255363072] [1048576] [1] : memref<340387840xf32> to memref<1048576xf32, strided<[1], offset: 255363072>>
    %expand_shape_366 = memref.expand_shape %subview_365 [[0, 1]] : memref<1048576xf32, strided<[1], offset: 255363072>> into memref<1024x1024xf32, strided<[1024, 1], offset: 255363072>>
    %subview_367 = memref.subview %arg0[256411648] [1024] [1] : memref<340387840xf32> to memref<1024xf32, strided<[1], offset: 256411648>>
    %subview_368 = memref.subview %arg0[256412672] [1024] [1] : memref<340387840xf32> to memref<1024xf32, strided<[1], offset: 256412672>>
    %subview_369 = memref.subview %arg0[256413696] [1024] [1] : memref<340387840xf32> to memref<1024xf32, strided<[1], offset: 256413696>>
    %subview_370 = memref.subview %arg0[256414720] [4194304] [1] : memref<340387840xf32> to memref<4194304xf32, strided<[1], offset: 256414720>>
    %expand_shape_371 = memref.expand_shape %subview_370 [[0, 1]] : memref<4194304xf32, strided<[1], offset: 256414720>> into memref<4096x1024xf32, strided<[1024, 1], offset: 256414720>>
    %subview_372 = memref.subview %arg0[260609024] [4096] [1] : memref<340387840xf32> to memref<4096xf32, strided<[1], offset: 260609024>>
    %subview_373 = memref.subview %arg0[260613120] [4194304] [1] : memref<340387840xf32> to memref<4194304xf32, strided<[1], offset: 260613120>>
    %expand_shape_374 = memref.expand_shape %subview_373 [[0, 1]] : memref<4194304xf32, strided<[1], offset: 260613120>> into memref<1024x4096xf32, strided<[4096, 1], offset: 260613120>>
    %subview_375 = memref.subview %arg0[264807424] [1024] [1] : memref<340387840xf32> to memref<1024xf32, strided<[1], offset: 264807424>>
    %subview_376 = memref.subview %arg0[264808448] [1024] [1] : memref<340387840xf32> to memref<1024xf32, strided<[1], offset: 264808448>>
    %subview_377 = memref.subview %arg0[264809472] [1024] [1] : memref<340387840xf32> to memref<1024xf32, strided<[1], offset: 264809472>>
    %subview_378 = memref.subview %arg0[264810496] [1048576] [1] : memref<340387840xf32> to memref<1048576xf32, strided<[1], offset: 264810496>>
    %expand_shape_379 = memref.expand_shape %subview_378 [[0, 1]] : memref<1048576xf32, strided<[1], offset: 264810496>> into memref<1024x1024xf32, strided<[1024, 1], offset: 264810496>>
    %subview_380 = memref.subview %arg0[265859072] [1024] [1] : memref<340387840xf32> to memref<1024xf32, strided<[1], offset: 265859072>>
    %subview_381 = memref.subview %arg0[265860096] [1048576] [1] : memref<340387840xf32> to memref<1048576xf32, strided<[1], offset: 265860096>>
    %expand_shape_382 = memref.expand_shape %subview_381 [[0, 1]] : memref<1048576xf32, strided<[1], offset: 265860096>> into memref<1024x1024xf32, strided<[1024, 1], offset: 265860096>>
    %subview_383 = memref.subview %arg0[266908672] [1024] [1] : memref<340387840xf32> to memref<1024xf32, strided<[1], offset: 266908672>>
    %subview_384 = memref.subview %arg0[266909696] [1048576] [1] : memref<340387840xf32> to memref<1048576xf32, strided<[1], offset: 266909696>>
    %expand_shape_385 = memref.expand_shape %subview_384 [[0, 1]] : memref<1048576xf32, strided<[1], offset: 266909696>> into memref<1024x1024xf32, strided<[1024, 1], offset: 266909696>>
    %subview_386 = memref.subview %arg0[267958272] [1024] [1] : memref<340387840xf32> to memref<1024xf32, strided<[1], offset: 267958272>>
    %subview_387 = memref.subview %arg0[267959296] [1048576] [1] : memref<340387840xf32> to memref<1048576xf32, strided<[1], offset: 267959296>>
    %expand_shape_388 = memref.expand_shape %subview_387 [[0, 1]] : memref<1048576xf32, strided<[1], offset: 267959296>> into memref<1024x1024xf32, strided<[1024, 1], offset: 267959296>>
    %subview_389 = memref.subview %arg0[269007872] [1024] [1] : memref<340387840xf32> to memref<1024xf32, strided<[1], offset: 269007872>>
    %subview_390 = memref.subview %arg0[269008896] [1024] [1] : memref<340387840xf32> to memref<1024xf32, strided<[1], offset: 269008896>>
    %subview_391 = memref.subview %arg0[269009920] [1024] [1] : memref<340387840xf32> to memref<1024xf32, strided<[1], offset: 269009920>>
    %subview_392 = memref.subview %arg0[269010944] [4194304] [1] : memref<340387840xf32> to memref<4194304xf32, strided<[1], offset: 269010944>>
    %expand_shape_393 = memref.expand_shape %subview_392 [[0, 1]] : memref<4194304xf32, strided<[1], offset: 269010944>> into memref<4096x1024xf32, strided<[1024, 1], offset: 269010944>>
    %subview_394 = memref.subview %arg0[273205248] [4096] [1] : memref<340387840xf32> to memref<4096xf32, strided<[1], offset: 273205248>>
    %subview_395 = memref.subview %arg0[273209344] [4194304] [1] : memref<340387840xf32> to memref<4194304xf32, strided<[1], offset: 273209344>>
    %expand_shape_396 = memref.expand_shape %subview_395 [[0, 1]] : memref<4194304xf32, strided<[1], offset: 273209344>> into memref<1024x4096xf32, strided<[4096, 1], offset: 273209344>>
    %subview_397 = memref.subview %arg0[277403648] [1024] [1] : memref<340387840xf32> to memref<1024xf32, strided<[1], offset: 277403648>>
    %subview_398 = memref.subview %arg0[277404672] [1024] [1] : memref<340387840xf32> to memref<1024xf32, strided<[1], offset: 277404672>>
    %subview_399 = memref.subview %arg0[277405696] [1024] [1] : memref<340387840xf32> to memref<1024xf32, strided<[1], offset: 277405696>>
    %subview_400 = memref.subview %arg0[277406720] [1048576] [1] : memref<340387840xf32> to memref<1048576xf32, strided<[1], offset: 277406720>>
    %expand_shape_401 = memref.expand_shape %subview_400 [[0, 1]] : memref<1048576xf32, strided<[1], offset: 277406720>> into memref<1024x1024xf32, strided<[1024, 1], offset: 277406720>>
    %subview_402 = memref.subview %arg0[278455296] [1024] [1] : memref<340387840xf32> to memref<1024xf32, strided<[1], offset: 278455296>>
    %subview_403 = memref.subview %arg0[278456320] [1048576] [1] : memref<340387840xf32> to memref<1048576xf32, strided<[1], offset: 278456320>>
    %expand_shape_404 = memref.expand_shape %subview_403 [[0, 1]] : memref<1048576xf32, strided<[1], offset: 278456320>> into memref<1024x1024xf32, strided<[1024, 1], offset: 278456320>>
    %subview_405 = memref.subview %arg0[279504896] [1024] [1] : memref<340387840xf32> to memref<1024xf32, strided<[1], offset: 279504896>>
    %subview_406 = memref.subview %arg0[279505920] [1048576] [1] : memref<340387840xf32> to memref<1048576xf32, strided<[1], offset: 279505920>>
    %expand_shape_407 = memref.expand_shape %subview_406 [[0, 1]] : memref<1048576xf32, strided<[1], offset: 279505920>> into memref<1024x1024xf32, strided<[1024, 1], offset: 279505920>>
    %subview_408 = memref.subview %arg0[280554496] [1024] [1] : memref<340387840xf32> to memref<1024xf32, strided<[1], offset: 280554496>>
    %subview_409 = memref.subview %arg0[280555520] [1048576] [1] : memref<340387840xf32> to memref<1048576xf32, strided<[1], offset: 280555520>>
    %expand_shape_410 = memref.expand_shape %subview_409 [[0, 1]] : memref<1048576xf32, strided<[1], offset: 280555520>> into memref<1024x1024xf32, strided<[1024, 1], offset: 280555520>>
    %subview_411 = memref.subview %arg0[281604096] [1024] [1] : memref<340387840xf32> to memref<1024xf32, strided<[1], offset: 281604096>>
    %subview_412 = memref.subview %arg0[281605120] [1024] [1] : memref<340387840xf32> to memref<1024xf32, strided<[1], offset: 281605120>>
    %subview_413 = memref.subview %arg0[281606144] [1024] [1] : memref<340387840xf32> to memref<1024xf32, strided<[1], offset: 281606144>>
    %subview_414 = memref.subview %arg0[281607168] [4194304] [1] : memref<340387840xf32> to memref<4194304xf32, strided<[1], offset: 281607168>>
    %expand_shape_415 = memref.expand_shape %subview_414 [[0, 1]] : memref<4194304xf32, strided<[1], offset: 281607168>> into memref<4096x1024xf32, strided<[1024, 1], offset: 281607168>>
    %subview_416 = memref.subview %arg0[285801472] [4096] [1] : memref<340387840xf32> to memref<4096xf32, strided<[1], offset: 285801472>>
    %subview_417 = memref.subview %arg0[285805568] [4194304] [1] : memref<340387840xf32> to memref<4194304xf32, strided<[1], offset: 285805568>>
    %expand_shape_418 = memref.expand_shape %subview_417 [[0, 1]] : memref<4194304xf32, strided<[1], offset: 285805568>> into memref<1024x4096xf32, strided<[4096, 1], offset: 285805568>>
    %subview_419 = memref.subview %arg0[289999872] [1024] [1] : memref<340387840xf32> to memref<1024xf32, strided<[1], offset: 289999872>>
    %subview_420 = memref.subview %arg0[290000896] [1024] [1] : memref<340387840xf32> to memref<1024xf32, strided<[1], offset: 290000896>>
    %subview_421 = memref.subview %arg0[290001920] [1024] [1] : memref<340387840xf32> to memref<1024xf32, strided<[1], offset: 290001920>>
    %subview_422 = memref.subview %arg0[290002944] [1048576] [1] : memref<340387840xf32> to memref<1048576xf32, strided<[1], offset: 290002944>>
    %expand_shape_423 = memref.expand_shape %subview_422 [[0, 1]] : memref<1048576xf32, strided<[1], offset: 290002944>> into memref<1024x1024xf32, strided<[1024, 1], offset: 290002944>>
    %subview_424 = memref.subview %arg0[291051520] [1024] [1] : memref<340387840xf32> to memref<1024xf32, strided<[1], offset: 291051520>>
    %subview_425 = memref.subview %arg0[291052544] [1048576] [1] : memref<340387840xf32> to memref<1048576xf32, strided<[1], offset: 291052544>>
    %expand_shape_426 = memref.expand_shape %subview_425 [[0, 1]] : memref<1048576xf32, strided<[1], offset: 291052544>> into memref<1024x1024xf32, strided<[1024, 1], offset: 291052544>>
    %subview_427 = memref.subview %arg0[292101120] [1024] [1] : memref<340387840xf32> to memref<1024xf32, strided<[1], offset: 292101120>>
    %subview_428 = memref.subview %arg0[292102144] [1048576] [1] : memref<340387840xf32> to memref<1048576xf32, strided<[1], offset: 292102144>>
    %expand_shape_429 = memref.expand_shape %subview_428 [[0, 1]] : memref<1048576xf32, strided<[1], offset: 292102144>> into memref<1024x1024xf32, strided<[1024, 1], offset: 292102144>>
    %subview_430 = memref.subview %arg0[293150720] [1024] [1] : memref<340387840xf32> to memref<1024xf32, strided<[1], offset: 293150720>>
    %subview_431 = memref.subview %arg0[293151744] [1048576] [1] : memref<340387840xf32> to memref<1048576xf32, strided<[1], offset: 293151744>>
    %expand_shape_432 = memref.expand_shape %subview_431 [[0, 1]] : memref<1048576xf32, strided<[1], offset: 293151744>> into memref<1024x1024xf32, strided<[1024, 1], offset: 293151744>>
    %subview_433 = memref.subview %arg0[294200320] [1024] [1] : memref<340387840xf32> to memref<1024xf32, strided<[1], offset: 294200320>>
    %subview_434 = memref.subview %arg0[294201344] [1024] [1] : memref<340387840xf32> to memref<1024xf32, strided<[1], offset: 294201344>>
    %subview_435 = memref.subview %arg0[294202368] [1024] [1] : memref<340387840xf32> to memref<1024xf32, strided<[1], offset: 294202368>>
    %subview_436 = memref.subview %arg0[294203392] [4194304] [1] : memref<340387840xf32> to memref<4194304xf32, strided<[1], offset: 294203392>>
    %expand_shape_437 = memref.expand_shape %subview_436 [[0, 1]] : memref<4194304xf32, strided<[1], offset: 294203392>> into memref<4096x1024xf32, strided<[1024, 1], offset: 294203392>>
    %subview_438 = memref.subview %arg0[298397696] [4096] [1] : memref<340387840xf32> to memref<4096xf32, strided<[1], offset: 298397696>>
    %subview_439 = memref.subview %arg0[298401792] [4194304] [1] : memref<340387840xf32> to memref<4194304xf32, strided<[1], offset: 298401792>>
    %expand_shape_440 = memref.expand_shape %subview_439 [[0, 1]] : memref<4194304xf32, strided<[1], offset: 298401792>> into memref<1024x4096xf32, strided<[4096, 1], offset: 298401792>>
    %subview_441 = memref.subview %arg0[302596096] [1024] [1] : memref<340387840xf32> to memref<1024xf32, strided<[1], offset: 302596096>>
    %subview_442 = memref.subview %arg0[302597120] [1024] [1] : memref<340387840xf32> to memref<1024xf32, strided<[1], offset: 302597120>>
    %subview_443 = memref.subview %arg0[302598144] [1024] [1] : memref<340387840xf32> to memref<1024xf32, strided<[1], offset: 302598144>>
    %subview_444 = memref.subview %arg0[302599168] [1048576] [1] : memref<340387840xf32> to memref<1048576xf32, strided<[1], offset: 302599168>>
    %expand_shape_445 = memref.expand_shape %subview_444 [[0, 1]] : memref<1048576xf32, strided<[1], offset: 302599168>> into memref<1024x1024xf32, strided<[1024, 1], offset: 302599168>>
    %subview_446 = memref.subview %arg0[303647744] [1024] [1] : memref<340387840xf32> to memref<1024xf32, strided<[1], offset: 303647744>>
    %subview_447 = memref.subview %arg0[303648768] [1048576] [1] : memref<340387840xf32> to memref<1048576xf32, strided<[1], offset: 303648768>>
    %expand_shape_448 = memref.expand_shape %subview_447 [[0, 1]] : memref<1048576xf32, strided<[1], offset: 303648768>> into memref<1024x1024xf32, strided<[1024, 1], offset: 303648768>>
    %subview_449 = memref.subview %arg0[304697344] [1024] [1] : memref<340387840xf32> to memref<1024xf32, strided<[1], offset: 304697344>>
    %subview_450 = memref.subview %arg0[304698368] [1048576] [1] : memref<340387840xf32> to memref<1048576xf32, strided<[1], offset: 304698368>>
    %expand_shape_451 = memref.expand_shape %subview_450 [[0, 1]] : memref<1048576xf32, strided<[1], offset: 304698368>> into memref<1024x1024xf32, strided<[1024, 1], offset: 304698368>>
    %subview_452 = memref.subview %arg0[305746944] [1024] [1] : memref<340387840xf32> to memref<1024xf32, strided<[1], offset: 305746944>>
    %subview_453 = memref.subview %arg0[305747968] [1048576] [1] : memref<340387840xf32> to memref<1048576xf32, strided<[1], offset: 305747968>>
    %expand_shape_454 = memref.expand_shape %subview_453 [[0, 1]] : memref<1048576xf32, strided<[1], offset: 305747968>> into memref<1024x1024xf32, strided<[1024, 1], offset: 305747968>>
    %subview_455 = memref.subview %arg0[306796544] [1024] [1] : memref<340387840xf32> to memref<1024xf32, strided<[1], offset: 306796544>>
    %subview_456 = memref.subview %arg0[306797568] [1024] [1] : memref<340387840xf32> to memref<1024xf32, strided<[1], offset: 306797568>>
    %subview_457 = memref.subview %arg0[306798592] [1024] [1] : memref<340387840xf32> to memref<1024xf32, strided<[1], offset: 306798592>>
    %subview_458 = memref.subview %arg0[306799616] [4194304] [1] : memref<340387840xf32> to memref<4194304xf32, strided<[1], offset: 306799616>>
    %expand_shape_459 = memref.expand_shape %subview_458 [[0, 1]] : memref<4194304xf32, strided<[1], offset: 306799616>> into memref<4096x1024xf32, strided<[1024, 1], offset: 306799616>>
    %subview_460 = memref.subview %arg0[310993920] [4096] [1] : memref<340387840xf32> to memref<4096xf32, strided<[1], offset: 310993920>>
    %subview_461 = memref.subview %arg0[310998016] [4194304] [1] : memref<340387840xf32> to memref<4194304xf32, strided<[1], offset: 310998016>>
    %expand_shape_462 = memref.expand_shape %subview_461 [[0, 1]] : memref<4194304xf32, strided<[1], offset: 310998016>> into memref<1024x4096xf32, strided<[4096, 1], offset: 310998016>>
    %subview_463 = memref.subview %arg0[315192320] [1024] [1] : memref<340387840xf32> to memref<1024xf32, strided<[1], offset: 315192320>>
    %subview_464 = memref.subview %arg0[315193344] [1024] [1] : memref<340387840xf32> to memref<1024xf32, strided<[1], offset: 315193344>>
    %subview_465 = memref.subview %arg0[315194368] [1024] [1] : memref<340387840xf32> to memref<1024xf32, strided<[1], offset: 315194368>>
    %subview_466 = memref.subview %arg0[315195392] [1048576] [1] : memref<340387840xf32> to memref<1048576xf32, strided<[1], offset: 315195392>>
    %expand_shape_467 = memref.expand_shape %subview_466 [[0, 1]] : memref<1048576xf32, strided<[1], offset: 315195392>> into memref<1024x1024xf32, strided<[1024, 1], offset: 315195392>>
    %subview_468 = memref.subview %arg0[316243968] [1024] [1] : memref<340387840xf32> to memref<1024xf32, strided<[1], offset: 316243968>>
    %subview_469 = memref.subview %arg0[316244992] [1048576] [1] : memref<340387840xf32> to memref<1048576xf32, strided<[1], offset: 316244992>>
    %expand_shape_470 = memref.expand_shape %subview_469 [[0, 1]] : memref<1048576xf32, strided<[1], offset: 316244992>> into memref<1024x1024xf32, strided<[1024, 1], offset: 316244992>>
    %subview_471 = memref.subview %arg0[317293568] [1024] [1] : memref<340387840xf32> to memref<1024xf32, strided<[1], offset: 317293568>>
    %subview_472 = memref.subview %arg0[317294592] [1048576] [1] : memref<340387840xf32> to memref<1048576xf32, strided<[1], offset: 317294592>>
    %expand_shape_473 = memref.expand_shape %subview_472 [[0, 1]] : memref<1048576xf32, strided<[1], offset: 317294592>> into memref<1024x1024xf32, strided<[1024, 1], offset: 317294592>>
    %subview_474 = memref.subview %arg0[318343168] [1024] [1] : memref<340387840xf32> to memref<1024xf32, strided<[1], offset: 318343168>>
    %subview_475 = memref.subview %arg0[318344192] [1048576] [1] : memref<340387840xf32> to memref<1048576xf32, strided<[1], offset: 318344192>>
    %expand_shape_476 = memref.expand_shape %subview_475 [[0, 1]] : memref<1048576xf32, strided<[1], offset: 318344192>> into memref<1024x1024xf32, strided<[1024, 1], offset: 318344192>>
    %subview_477 = memref.subview %arg0[319392768] [1024] [1] : memref<340387840xf32> to memref<1024xf32, strided<[1], offset: 319392768>>
    %subview_478 = memref.subview %arg0[319393792] [1024] [1] : memref<340387840xf32> to memref<1024xf32, strided<[1], offset: 319393792>>
    %subview_479 = memref.subview %arg0[319394816] [1024] [1] : memref<340387840xf32> to memref<1024xf32, strided<[1], offset: 319394816>>
    %subview_480 = memref.subview %arg0[319395840] [4194304] [1] : memref<340387840xf32> to memref<4194304xf32, strided<[1], offset: 319395840>>
    %expand_shape_481 = memref.expand_shape %subview_480 [[0, 1]] : memref<4194304xf32, strided<[1], offset: 319395840>> into memref<4096x1024xf32, strided<[1024, 1], offset: 319395840>>
    %subview_482 = memref.subview %arg0[323590144] [4096] [1] : memref<340387840xf32> to memref<4096xf32, strided<[1], offset: 323590144>>
    %subview_483 = memref.subview %arg0[323594240] [4194304] [1] : memref<340387840xf32> to memref<4194304xf32, strided<[1], offset: 323594240>>
    %expand_shape_484 = memref.expand_shape %subview_483 [[0, 1]] : memref<4194304xf32, strided<[1], offset: 323594240>> into memref<1024x4096xf32, strided<[4096, 1], offset: 323594240>>
    %subview_485 = memref.subview %arg0[327788544] [1024] [1] : memref<340387840xf32> to memref<1024xf32, strided<[1], offset: 327788544>>
    %subview_486 = memref.subview %arg0[327789568] [1024] [1] : memref<340387840xf32> to memref<1024xf32, strided<[1], offset: 327789568>>
    %subview_487 = memref.subview %arg0[327790592] [1024] [1] : memref<340387840xf32> to memref<1024xf32, strided<[1], offset: 327790592>>
    %subview_488 = memref.subview %arg0[327791616] [1048576] [1] : memref<340387840xf32> to memref<1048576xf32, strided<[1], offset: 327791616>>
    %expand_shape_489 = memref.expand_shape %subview_488 [[0, 1]] : memref<1048576xf32, strided<[1], offset: 327791616>> into memref<1024x1024xf32, strided<[1024, 1], offset: 327791616>>
    %subview_490 = memref.subview %arg0[328840192] [1024] [1] : memref<340387840xf32> to memref<1024xf32, strided<[1], offset: 328840192>>
    %subview_491 = memref.subview %arg0[328841216] [1048576] [1] : memref<340387840xf32> to memref<1048576xf32, strided<[1], offset: 328841216>>
    %expand_shape_492 = memref.expand_shape %subview_491 [[0, 1]] : memref<1048576xf32, strided<[1], offset: 328841216>> into memref<1024x1024xf32, strided<[1024, 1], offset: 328841216>>
    %subview_493 = memref.subview %arg0[329889792] [1024] [1] : memref<340387840xf32> to memref<1024xf32, strided<[1], offset: 329889792>>
    %subview_494 = memref.subview %arg0[329890816] [1048576] [1] : memref<340387840xf32> to memref<1048576xf32, strided<[1], offset: 329890816>>
    %expand_shape_495 = memref.expand_shape %subview_494 [[0, 1]] : memref<1048576xf32, strided<[1], offset: 329890816>> into memref<1024x1024xf32, strided<[1024, 1], offset: 329890816>>
    %subview_496 = memref.subview %arg0[330939392] [1024] [1] : memref<340387840xf32> to memref<1024xf32, strided<[1], offset: 330939392>>
    %subview_497 = memref.subview %arg0[330940416] [1048576] [1] : memref<340387840xf32> to memref<1048576xf32, strided<[1], offset: 330940416>>
    %expand_shape_498 = memref.expand_shape %subview_497 [[0, 1]] : memref<1048576xf32, strided<[1], offset: 330940416>> into memref<1024x1024xf32, strided<[1024, 1], offset: 330940416>>
    %subview_499 = memref.subview %arg0[331988992] [1024] [1] : memref<340387840xf32> to memref<1024xf32, strided<[1], offset: 331988992>>
    %subview_500 = memref.subview %arg0[331990016] [1024] [1] : memref<340387840xf32> to memref<1024xf32, strided<[1], offset: 331990016>>
    %subview_501 = memref.subview %arg0[331991040] [1024] [1] : memref<340387840xf32> to memref<1024xf32, strided<[1], offset: 331991040>>
    %subview_502 = memref.subview %arg0[331992064] [4194304] [1] : memref<340387840xf32> to memref<4194304xf32, strided<[1], offset: 331992064>>
    %expand_shape_503 = memref.expand_shape %subview_502 [[0, 1]] : memref<4194304xf32, strided<[1], offset: 331992064>> into memref<4096x1024xf32, strided<[1024, 1], offset: 331992064>>
    %subview_504 = memref.subview %arg0[336186368] [4096] [1] : memref<340387840xf32> to memref<4096xf32, strided<[1], offset: 336186368>>
    %subview_505 = memref.subview %arg0[336190464] [4194304] [1] : memref<340387840xf32> to memref<4194304xf32, strided<[1], offset: 336190464>>
    %expand_shape_506 = memref.expand_shape %subview_505 [[0, 1]] : memref<4194304xf32, strided<[1], offset: 336190464>> into memref<1024x4096xf32, strided<[4096, 1], offset: 336190464>>
    %subview_507 = memref.subview %arg0[340384768] [1024] [1] : memref<340387840xf32> to memref<1024xf32, strided<[1], offset: 340384768>>
    %subview_508 = memref.subview %arg0[340385792] [1024] [1] : memref<340387840xf32> to memref<1024xf32, strided<[1], offset: 340385792>>
    %subview_509 = memref.subview %arg0[340386816] [1024] [1] : memref<340387840xf32> to memref<1024xf32, strided<[1], offset: 340386816>>
    %subview_510 = memref.subview %arg1[0] [77] [1] : memref<77xi64> to memref<77xi64>
    %expand_shape_511 = memref.expand_shape %subview_510 [[0, 1]] : memref<77xi64> into memref<1x77xi64>
    %cast = memref.cast %arg2 : memref<1x12xi64> to memref<1x12xi64, strided<[12, 1], offset: ?>>
    %cast_512 = memref.cast %expand_shape_511 : memref<1x77xi64> to memref<1x77xi64, strided<[77, 1], offset: ?>>
    %cast_513 = memref.cast %expand_shape : memref<49408x1024xf32> to memref<49408x1024xf32, strided<[1024, 1], offset: ?>>
    %cast_514 = memref.cast %expand_shape_1 : memref<77x1024xf32, strided<[1024, 1], offset: 50593792>> to memref<77x1024xf32, strided<[1024, 1], offset: ?>>
    %cast_515 = memref.cast %arg3 : memref<1x12xi64> to memref<1x12xi64, strided<[12, 1], offset: ?>>
    %cast_516 = memref.cast %subview_2 : memref<1024xf32, strided<[1], offset: 50672640>> to memref<1024xf32, strided<[1], offset: ?>>
    %cast_517 = memref.cast %subview_3 : memref<1024xf32, strided<[1], offset: 50673664>> to memref<1024xf32, strided<[1], offset: ?>>
    %cast_518 = memref.cast %expand_shape_5 : memref<1024x1024xf32, strided<[1024, 1], offset: 50674688>> to memref<1024x1024xf32, strided<[1024, 1], offset: ?>>
    %cast_519 = memref.cast %subview_6 : memref<1024xf32, strided<[1], offset: 51723264>> to memref<1024xf32, strided<[1], offset: ?>>
    %cast_520 = memref.cast %expand_shape_8 : memref<1024x1024xf32, strided<[1024, 1], offset: 51724288>> to memref<1024x1024xf32, strided<[1024, 1], offset: ?>>
    %cast_521 = memref.cast %subview_9 : memref<1024xf32, strided<[1], offset: 52772864>> to memref<1024xf32, strided<[1], offset: ?>>
    %cast_522 = memref.cast %expand_shape_11 : memref<1024x1024xf32, strided<[1024, 1], offset: 52773888>> to memref<1024x1024xf32, strided<[1024, 1], offset: ?>>
    %cast_523 = memref.cast %subview_12 : memref<1024xf32, strided<[1], offset: 53822464>> to memref<1024xf32, strided<[1], offset: ?>>
    %cast_524 = memref.cast %expand_shape_14 : memref<1024x1024xf32, strided<[1024, 1], offset: 53823488>> to memref<1024x1024xf32, strided<[1024, 1], offset: ?>>
    %cast_525 = memref.cast %subview_15 : memref<1024xf32, strided<[1], offset: 54872064>> to memref<1024xf32, strided<[1], offset: ?>>
    %cast_526 = memref.cast %subview_16 : memref<1024xf32, strided<[1], offset: 54873088>> to memref<1024xf32, strided<[1], offset: ?>>
    %cast_527 = memref.cast %subview_17 : memref<1024xf32, strided<[1], offset: 54874112>> to memref<1024xf32, strided<[1], offset: ?>>
    %cast_528 = memref.cast %expand_shape_19 : memref<4096x1024xf32, strided<[1024, 1], offset: 54875136>> to memref<4096x1024xf32, strided<[1024, 1], offset: ?>>
    %cast_529 = memref.cast %subview_20 : memref<4096xf32, strided<[1], offset: 59069440>> to memref<4096xf32, strided<[1], offset: ?>>
    %cast_530 = memref.cast %expand_shape_22 : memref<1024x4096xf32, strided<[4096, 1], offset: 59073536>> to memref<1024x4096xf32, strided<[4096, 1], offset: ?>>
    %cast_531 = memref.cast %subview_23 : memref<1024xf32, strided<[1], offset: 63267840>> to memref<1024xf32, strided<[1], offset: ?>>
    %cast_532 = memref.cast %subview_24 : memref<1024xf32, strided<[1], offset: 63268864>> to memref<1024xf32, strided<[1], offset: ?>>
    %cast_533 = memref.cast %subview_25 : memref<1024xf32, strided<[1], offset: 63269888>> to memref<1024xf32, strided<[1], offset: ?>>
    %cast_534 = memref.cast %expand_shape_27 : memref<1024x1024xf32, strided<[1024, 1], offset: 63270912>> to memref<1024x1024xf32, strided<[1024, 1], offset: ?>>
    %cast_535 = memref.cast %subview_28 : memref<1024xf32, strided<[1], offset: 64319488>> to memref<1024xf32, strided<[1], offset: ?>>
    %cast_536 = memref.cast %expand_shape_30 : memref<1024x1024xf32, strided<[1024, 1], offset: 64320512>> to memref<1024x1024xf32, strided<[1024, 1], offset: ?>>
    %cast_537 = memref.cast %subview_31 : memref<1024xf32, strided<[1], offset: 65369088>> to memref<1024xf32, strided<[1], offset: ?>>
    %cast_538 = memref.cast %expand_shape_33 : memref<1024x1024xf32, strided<[1024, 1], offset: 65370112>> to memref<1024x1024xf32, strided<[1024, 1], offset: ?>>
    %cast_539 = memref.cast %subview_34 : memref<1024xf32, strided<[1], offset: 66418688>> to memref<1024xf32, strided<[1], offset: ?>>
    %cast_540 = memref.cast %expand_shape_36 : memref<1024x1024xf32, strided<[1024, 1], offset: 66419712>> to memref<1024x1024xf32, strided<[1024, 1], offset: ?>>
    %cast_541 = memref.cast %subview_37 : memref<1024xf32, strided<[1], offset: 67468288>> to memref<1024xf32, strided<[1], offset: ?>>
    %cast_542 = memref.cast %subview_38 : memref<1024xf32, strided<[1], offset: 67469312>> to memref<1024xf32, strided<[1], offset: ?>>
    %cast_543 = memref.cast %subview_39 : memref<1024xf32, strided<[1], offset: 67470336>> to memref<1024xf32, strided<[1], offset: ?>>
    %cast_544 = memref.cast %expand_shape_41 : memref<4096x1024xf32, strided<[1024, 1], offset: 67471360>> to memref<4096x1024xf32, strided<[1024, 1], offset: ?>>
    %cast_545 = memref.cast %subview_42 : memref<4096xf32, strided<[1], offset: 71665664>> to memref<4096xf32, strided<[1], offset: ?>>
    %cast_546 = memref.cast %expand_shape_44 : memref<1024x4096xf32, strided<[4096, 1], offset: 71669760>> to memref<1024x4096xf32, strided<[4096, 1], offset: ?>>
    %cast_547 = memref.cast %subview_45 : memref<1024xf32, strided<[1], offset: 75864064>> to memref<1024xf32, strided<[1], offset: ?>>
    %cast_548 = memref.cast %subview_46 : memref<1024xf32, strided<[1], offset: 75865088>> to memref<1024xf32, strided<[1], offset: ?>>
    %cast_549 = memref.cast %subview_47 : memref<1024xf32, strided<[1], offset: 75866112>> to memref<1024xf32, strided<[1], offset: ?>>
    %cast_550 = memref.cast %expand_shape_49 : memref<1024x1024xf32, strided<[1024, 1], offset: 75867136>> to memref<1024x1024xf32, strided<[1024, 1], offset: ?>>
    %cast_551 = memref.cast %subview_50 : memref<1024xf32, strided<[1], offset: 76915712>> to memref<1024xf32, strided<[1], offset: ?>>
    %cast_552 = memref.cast %expand_shape_52 : memref<1024x1024xf32, strided<[1024, 1], offset: 76916736>> to memref<1024x1024xf32, strided<[1024, 1], offset: ?>>
    %cast_553 = memref.cast %subview_53 : memref<1024xf32, strided<[1], offset: 77965312>> to memref<1024xf32, strided<[1], offset: ?>>
    %cast_554 = memref.cast %expand_shape_55 : memref<1024x1024xf32, strided<[1024, 1], offset: 77966336>> to memref<1024x1024xf32, strided<[1024, 1], offset: ?>>
    %cast_555 = memref.cast %subview_56 : memref<1024xf32, strided<[1], offset: 79014912>> to memref<1024xf32, strided<[1], offset: ?>>
    %cast_556 = memref.cast %expand_shape_58 : memref<1024x1024xf32, strided<[1024, 1], offset: 79015936>> to memref<1024x1024xf32, strided<[1024, 1], offset: ?>>
    %cast_557 = memref.cast %subview_59 : memref<1024xf32, strided<[1], offset: 80064512>> to memref<1024xf32, strided<[1], offset: ?>>
    %cast_558 = memref.cast %subview_60 : memref<1024xf32, strided<[1], offset: 80065536>> to memref<1024xf32, strided<[1], offset: ?>>
    %cast_559 = memref.cast %subview_61 : memref<1024xf32, strided<[1], offset: 80066560>> to memref<1024xf32, strided<[1], offset: ?>>
    %cast_560 = memref.cast %expand_shape_63 : memref<4096x1024xf32, strided<[1024, 1], offset: 80067584>> to memref<4096x1024xf32, strided<[1024, 1], offset: ?>>
    %cast_561 = memref.cast %subview_64 : memref<4096xf32, strided<[1], offset: 84261888>> to memref<4096xf32, strided<[1], offset: ?>>
    %cast_562 = memref.cast %expand_shape_66 : memref<1024x4096xf32, strided<[4096, 1], offset: 84265984>> to memref<1024x4096xf32, strided<[4096, 1], offset: ?>>
    %cast_563 = memref.cast %subview_67 : memref<1024xf32, strided<[1], offset: 88460288>> to memref<1024xf32, strided<[1], offset: ?>>
    %cast_564 = memref.cast %subview_68 : memref<1024xf32, strided<[1], offset: 88461312>> to memref<1024xf32, strided<[1], offset: ?>>
    %cast_565 = memref.cast %subview_69 : memref<1024xf32, strided<[1], offset: 88462336>> to memref<1024xf32, strided<[1], offset: ?>>
    %cast_566 = memref.cast %expand_shape_71 : memref<1024x1024xf32, strided<[1024, 1], offset: 88463360>> to memref<1024x1024xf32, strided<[1024, 1], offset: ?>>
    %cast_567 = memref.cast %subview_72 : memref<1024xf32, strided<[1], offset: 89511936>> to memref<1024xf32, strided<[1], offset: ?>>
    %cast_568 = memref.cast %expand_shape_74 : memref<1024x1024xf32, strided<[1024, 1], offset: 89512960>> to memref<1024x1024xf32, strided<[1024, 1], offset: ?>>
    %cast_569 = memref.cast %subview_75 : memref<1024xf32, strided<[1], offset: 90561536>> to memref<1024xf32, strided<[1], offset: ?>>
    %cast_570 = memref.cast %expand_shape_77 : memref<1024x1024xf32, strided<[1024, 1], offset: 90562560>> to memref<1024x1024xf32, strided<[1024, 1], offset: ?>>
    %cast_571 = memref.cast %subview_78 : memref<1024xf32, strided<[1], offset: 91611136>> to memref<1024xf32, strided<[1], offset: ?>>
    %cast_572 = memref.cast %expand_shape_80 : memref<1024x1024xf32, strided<[1024, 1], offset: 91612160>> to memref<1024x1024xf32, strided<[1024, 1], offset: ?>>
    %cast_573 = memref.cast %subview_81 : memref<1024xf32, strided<[1], offset: 92660736>> to memref<1024xf32, strided<[1], offset: ?>>
    %cast_574 = memref.cast %subview_82 : memref<1024xf32, strided<[1], offset: 92661760>> to memref<1024xf32, strided<[1], offset: ?>>
    %cast_575 = memref.cast %subview_83 : memref<1024xf32, strided<[1], offset: 92662784>> to memref<1024xf32, strided<[1], offset: ?>>
    %cast_576 = memref.cast %expand_shape_85 : memref<4096x1024xf32, strided<[1024, 1], offset: 92663808>> to memref<4096x1024xf32, strided<[1024, 1], offset: ?>>
    %cast_577 = memref.cast %subview_86 : memref<4096xf32, strided<[1], offset: 96858112>> to memref<4096xf32, strided<[1], offset: ?>>
    %cast_578 = memref.cast %expand_shape_88 : memref<1024x4096xf32, strided<[4096, 1], offset: 96862208>> to memref<1024x4096xf32, strided<[4096, 1], offset: ?>>
    %cast_579 = memref.cast %subview_89 : memref<1024xf32, strided<[1], offset: 101056512>> to memref<1024xf32, strided<[1], offset: ?>>
    %cast_580 = memref.cast %subview_90 : memref<1024xf32, strided<[1], offset: 101057536>> to memref<1024xf32, strided<[1], offset: ?>>
    %cast_581 = memref.cast %subview_91 : memref<1024xf32, strided<[1], offset: 101058560>> to memref<1024xf32, strided<[1], offset: ?>>
    %cast_582 = memref.cast %expand_shape_93 : memref<1024x1024xf32, strided<[1024, 1], offset: 101059584>> to memref<1024x1024xf32, strided<[1024, 1], offset: ?>>
    %cast_583 = memref.cast %subview_94 : memref<1024xf32, strided<[1], offset: 102108160>> to memref<1024xf32, strided<[1], offset: ?>>
    %cast_584 = memref.cast %expand_shape_96 : memref<1024x1024xf32, strided<[1024, 1], offset: 102109184>> to memref<1024x1024xf32, strided<[1024, 1], offset: ?>>
    %cast_585 = memref.cast %subview_97 : memref<1024xf32, strided<[1], offset: 103157760>> to memref<1024xf32, strided<[1], offset: ?>>
    %cast_586 = memref.cast %expand_shape_99 : memref<1024x1024xf32, strided<[1024, 1], offset: 103158784>> to memref<1024x1024xf32, strided<[1024, 1], offset: ?>>
    %cast_587 = memref.cast %subview_100 : memref<1024xf32, strided<[1], offset: 104207360>> to memref<1024xf32, strided<[1], offset: ?>>
    %cast_588 = memref.cast %expand_shape_102 : memref<1024x1024xf32, strided<[1024, 1], offset: 104208384>> to memref<1024x1024xf32, strided<[1024, 1], offset: ?>>
    %cast_589 = memref.cast %subview_103 : memref<1024xf32, strided<[1], offset: 105256960>> to memref<1024xf32, strided<[1], offset: ?>>
    %cast_590 = memref.cast %subview_104 : memref<1024xf32, strided<[1], offset: 105257984>> to memref<1024xf32, strided<[1], offset: ?>>
    %cast_591 = memref.cast %subview_105 : memref<1024xf32, strided<[1], offset: 105259008>> to memref<1024xf32, strided<[1], offset: ?>>
    %cast_592 = memref.cast %expand_shape_107 : memref<4096x1024xf32, strided<[1024, 1], offset: 105260032>> to memref<4096x1024xf32, strided<[1024, 1], offset: ?>>
    %cast_593 = memref.cast %subview_108 : memref<4096xf32, strided<[1], offset: 109454336>> to memref<4096xf32, strided<[1], offset: ?>>
    %cast_594 = memref.cast %expand_shape_110 : memref<1024x4096xf32, strided<[4096, 1], offset: 109458432>> to memref<1024x4096xf32, strided<[4096, 1], offset: ?>>
    %cast_595 = memref.cast %subview_111 : memref<1024xf32, strided<[1], offset: 113652736>> to memref<1024xf32, strided<[1], offset: ?>>
    %cast_596 = memref.cast %subview_112 : memref<1024xf32, strided<[1], offset: 113653760>> to memref<1024xf32, strided<[1], offset: ?>>
    %cast_597 = memref.cast %subview_113 : memref<1024xf32, strided<[1], offset: 113654784>> to memref<1024xf32, strided<[1], offset: ?>>
    %cast_598 = memref.cast %expand_shape_115 : memref<1024x1024xf32, strided<[1024, 1], offset: 113655808>> to memref<1024x1024xf32, strided<[1024, 1], offset: ?>>
    %cast_599 = memref.cast %subview_116 : memref<1024xf32, strided<[1], offset: 114704384>> to memref<1024xf32, strided<[1], offset: ?>>
    %cast_600 = memref.cast %expand_shape_118 : memref<1024x1024xf32, strided<[1024, 1], offset: 114705408>> to memref<1024x1024xf32, strided<[1024, 1], offset: ?>>
    %cast_601 = memref.cast %subview_119 : memref<1024xf32, strided<[1], offset: 115753984>> to memref<1024xf32, strided<[1], offset: ?>>
    %cast_602 = memref.cast %expand_shape_121 : memref<1024x1024xf32, strided<[1024, 1], offset: 115755008>> to memref<1024x1024xf32, strided<[1024, 1], offset: ?>>
    %cast_603 = memref.cast %subview_122 : memref<1024xf32, strided<[1], offset: 116803584>> to memref<1024xf32, strided<[1], offset: ?>>
    %cast_604 = memref.cast %expand_shape_124 : memref<1024x1024xf32, strided<[1024, 1], offset: 116804608>> to memref<1024x1024xf32, strided<[1024, 1], offset: ?>>
    %cast_605 = memref.cast %subview_125 : memref<1024xf32, strided<[1], offset: 117853184>> to memref<1024xf32, strided<[1], offset: ?>>
    %cast_606 = memref.cast %subview_126 : memref<1024xf32, strided<[1], offset: 117854208>> to memref<1024xf32, strided<[1], offset: ?>>
    %cast_607 = memref.cast %subview_127 : memref<1024xf32, strided<[1], offset: 117855232>> to memref<1024xf32, strided<[1], offset: ?>>
    %cast_608 = memref.cast %expand_shape_129 : memref<4096x1024xf32, strided<[1024, 1], offset: 117856256>> to memref<4096x1024xf32, strided<[1024, 1], offset: ?>>
    %cast_609 = memref.cast %subview_130 : memref<4096xf32, strided<[1], offset: 122050560>> to memref<4096xf32, strided<[1], offset: ?>>
    %cast_610 = memref.cast %expand_shape_132 : memref<1024x4096xf32, strided<[4096, 1], offset: 122054656>> to memref<1024x4096xf32, strided<[4096, 1], offset: ?>>
    %cast_611 = memref.cast %subview_133 : memref<1024xf32, strided<[1], offset: 126248960>> to memref<1024xf32, strided<[1], offset: ?>>
    %cast_612 = memref.cast %subview_134 : memref<1024xf32, strided<[1], offset: 126249984>> to memref<1024xf32, strided<[1], offset: ?>>
    %cast_613 = memref.cast %subview_135 : memref<1024xf32, strided<[1], offset: 126251008>> to memref<1024xf32, strided<[1], offset: ?>>
    %cast_614 = memref.cast %expand_shape_137 : memref<1024x1024xf32, strided<[1024, 1], offset: 126252032>> to memref<1024x1024xf32, strided<[1024, 1], offset: ?>>
    %cast_615 = memref.cast %subview_138 : memref<1024xf32, strided<[1], offset: 127300608>> to memref<1024xf32, strided<[1], offset: ?>>
    %cast_616 = memref.cast %expand_shape_140 : memref<1024x1024xf32, strided<[1024, 1], offset: 127301632>> to memref<1024x1024xf32, strided<[1024, 1], offset: ?>>
    %cast_617 = memref.cast %subview_141 : memref<1024xf32, strided<[1], offset: 128350208>> to memref<1024xf32, strided<[1], offset: ?>>
    %cast_618 = memref.cast %expand_shape_143 : memref<1024x1024xf32, strided<[1024, 1], offset: 128351232>> to memref<1024x1024xf32, strided<[1024, 1], offset: ?>>
    %cast_619 = memref.cast %subview_144 : memref<1024xf32, strided<[1], offset: 129399808>> to memref<1024xf32, strided<[1], offset: ?>>
    %cast_620 = memref.cast %expand_shape_146 : memref<1024x1024xf32, strided<[1024, 1], offset: 129400832>> to memref<1024x1024xf32, strided<[1024, 1], offset: ?>>
    %cast_621 = memref.cast %subview_147 : memref<1024xf32, strided<[1], offset: 130449408>> to memref<1024xf32, strided<[1], offset: ?>>
    %cast_622 = memref.cast %subview_148 : memref<1024xf32, strided<[1], offset: 130450432>> to memref<1024xf32, strided<[1], offset: ?>>
    %cast_623 = memref.cast %subview_149 : memref<1024xf32, strided<[1], offset: 130451456>> to memref<1024xf32, strided<[1], offset: ?>>
    %cast_624 = memref.cast %expand_shape_151 : memref<4096x1024xf32, strided<[1024, 1], offset: 130452480>> to memref<4096x1024xf32, strided<[1024, 1], offset: ?>>
    %cast_625 = memref.cast %subview_152 : memref<4096xf32, strided<[1], offset: 134646784>> to memref<4096xf32, strided<[1], offset: ?>>
    %cast_626 = memref.cast %expand_shape_154 : memref<1024x4096xf32, strided<[4096, 1], offset: 134650880>> to memref<1024x4096xf32, strided<[4096, 1], offset: ?>>
    %cast_627 = memref.cast %subview_155 : memref<1024xf32, strided<[1], offset: 138845184>> to memref<1024xf32, strided<[1], offset: ?>>
    %cast_628 = memref.cast %subview_156 : memref<1024xf32, strided<[1], offset: 138846208>> to memref<1024xf32, strided<[1], offset: ?>>
    %cast_629 = memref.cast %subview_157 : memref<1024xf32, strided<[1], offset: 138847232>> to memref<1024xf32, strided<[1], offset: ?>>
    %cast_630 = memref.cast %expand_shape_159 : memref<1024x1024xf32, strided<[1024, 1], offset: 138848256>> to memref<1024x1024xf32, strided<[1024, 1], offset: ?>>
    %cast_631 = memref.cast %subview_160 : memref<1024xf32, strided<[1], offset: 139896832>> to memref<1024xf32, strided<[1], offset: ?>>
    %cast_632 = memref.cast %expand_shape_162 : memref<1024x1024xf32, strided<[1024, 1], offset: 139897856>> to memref<1024x1024xf32, strided<[1024, 1], offset: ?>>
    %cast_633 = memref.cast %subview_163 : memref<1024xf32, strided<[1], offset: 140946432>> to memref<1024xf32, strided<[1], offset: ?>>
    %cast_634 = memref.cast %expand_shape_165 : memref<1024x1024xf32, strided<[1024, 1], offset: 140947456>> to memref<1024x1024xf32, strided<[1024, 1], offset: ?>>
    %cast_635 = memref.cast %subview_166 : memref<1024xf32, strided<[1], offset: 141996032>> to memref<1024xf32, strided<[1], offset: ?>>
    %cast_636 = memref.cast %expand_shape_168 : memref<1024x1024xf32, strided<[1024, 1], offset: 141997056>> to memref<1024x1024xf32, strided<[1024, 1], offset: ?>>
    %cast_637 = memref.cast %subview_169 : memref<1024xf32, strided<[1], offset: 143045632>> to memref<1024xf32, strided<[1], offset: ?>>
    %cast_638 = memref.cast %subview_170 : memref<1024xf32, strided<[1], offset: 143046656>> to memref<1024xf32, strided<[1], offset: ?>>
    %cast_639 = memref.cast %subview_171 : memref<1024xf32, strided<[1], offset: 143047680>> to memref<1024xf32, strided<[1], offset: ?>>
    %cast_640 = memref.cast %expand_shape_173 : memref<4096x1024xf32, strided<[1024, 1], offset: 143048704>> to memref<4096x1024xf32, strided<[1024, 1], offset: ?>>
    %cast_641 = memref.cast %subview_174 : memref<4096xf32, strided<[1], offset: 147243008>> to memref<4096xf32, strided<[1], offset: ?>>
    %cast_642 = memref.cast %expand_shape_176 : memref<1024x4096xf32, strided<[4096, 1], offset: 147247104>> to memref<1024x4096xf32, strided<[4096, 1], offset: ?>>
    %cast_643 = memref.cast %subview_177 : memref<1024xf32, strided<[1], offset: 151441408>> to memref<1024xf32, strided<[1], offset: ?>>
    %cast_644 = memref.cast %subview_178 : memref<1024xf32, strided<[1], offset: 151442432>> to memref<1024xf32, strided<[1], offset: ?>>
    %cast_645 = memref.cast %subview_179 : memref<1024xf32, strided<[1], offset: 151443456>> to memref<1024xf32, strided<[1], offset: ?>>
    %cast_646 = memref.cast %expand_shape_181 : memref<1024x1024xf32, strided<[1024, 1], offset: 151444480>> to memref<1024x1024xf32, strided<[1024, 1], offset: ?>>
    %cast_647 = memref.cast %subview_182 : memref<1024xf32, strided<[1], offset: 152493056>> to memref<1024xf32, strided<[1], offset: ?>>
    %cast_648 = memref.cast %expand_shape_184 : memref<1024x1024xf32, strided<[1024, 1], offset: 152494080>> to memref<1024x1024xf32, strided<[1024, 1], offset: ?>>
    %cast_649 = memref.cast %subview_185 : memref<1024xf32, strided<[1], offset: 153542656>> to memref<1024xf32, strided<[1], offset: ?>>
    %cast_650 = memref.cast %expand_shape_187 : memref<1024x1024xf32, strided<[1024, 1], offset: 153543680>> to memref<1024x1024xf32, strided<[1024, 1], offset: ?>>
    %cast_651 = memref.cast %subview_188 : memref<1024xf32, strided<[1], offset: 154592256>> to memref<1024xf32, strided<[1], offset: ?>>
    %cast_652 = memref.cast %expand_shape_190 : memref<1024x1024xf32, strided<[1024, 1], offset: 154593280>> to memref<1024x1024xf32, strided<[1024, 1], offset: ?>>
    %cast_653 = memref.cast %subview_191 : memref<1024xf32, strided<[1], offset: 155641856>> to memref<1024xf32, strided<[1], offset: ?>>
    %cast_654 = memref.cast %subview_192 : memref<1024xf32, strided<[1], offset: 155642880>> to memref<1024xf32, strided<[1], offset: ?>>
    %cast_655 = memref.cast %subview_193 : memref<1024xf32, strided<[1], offset: 155643904>> to memref<1024xf32, strided<[1], offset: ?>>
    %cast_656 = memref.cast %expand_shape_195 : memref<4096x1024xf32, strided<[1024, 1], offset: 155644928>> to memref<4096x1024xf32, strided<[1024, 1], offset: ?>>
    %cast_657 = memref.cast %subview_196 : memref<4096xf32, strided<[1], offset: 159839232>> to memref<4096xf32, strided<[1], offset: ?>>
    %cast_658 = memref.cast %expand_shape_198 : memref<1024x4096xf32, strided<[4096, 1], offset: 159843328>> to memref<1024x4096xf32, strided<[4096, 1], offset: ?>>
    %cast_659 = memref.cast %subview_199 : memref<1024xf32, strided<[1], offset: 164037632>> to memref<1024xf32, strided<[1], offset: ?>>
    %cast_660 = memref.cast %subview_200 : memref<1024xf32, strided<[1], offset: 164038656>> to memref<1024xf32, strided<[1], offset: ?>>
    %cast_661 = memref.cast %subview_201 : memref<1024xf32, strided<[1], offset: 164039680>> to memref<1024xf32, strided<[1], offset: ?>>
    %cast_662 = memref.cast %expand_shape_203 : memref<1024x1024xf32, strided<[1024, 1], offset: 164040704>> to memref<1024x1024xf32, strided<[1024, 1], offset: ?>>
    %cast_663 = memref.cast %subview_204 : memref<1024xf32, strided<[1], offset: 165089280>> to memref<1024xf32, strided<[1], offset: ?>>
    %cast_664 = memref.cast %expand_shape_206 : memref<1024x1024xf32, strided<[1024, 1], offset: 165090304>> to memref<1024x1024xf32, strided<[1024, 1], offset: ?>>
    %cast_665 = memref.cast %subview_207 : memref<1024xf32, strided<[1], offset: 166138880>> to memref<1024xf32, strided<[1], offset: ?>>
    %cast_666 = memref.cast %expand_shape_209 : memref<1024x1024xf32, strided<[1024, 1], offset: 166139904>> to memref<1024x1024xf32, strided<[1024, 1], offset: ?>>
    %cast_667 = memref.cast %subview_210 : memref<1024xf32, strided<[1], offset: 167188480>> to memref<1024xf32, strided<[1], offset: ?>>
    %cast_668 = memref.cast %expand_shape_212 : memref<1024x1024xf32, strided<[1024, 1], offset: 167189504>> to memref<1024x1024xf32, strided<[1024, 1], offset: ?>>
    %cast_669 = memref.cast %subview_213 : memref<1024xf32, strided<[1], offset: 168238080>> to memref<1024xf32, strided<[1], offset: ?>>
    %cast_670 = memref.cast %subview_214 : memref<1024xf32, strided<[1], offset: 168239104>> to memref<1024xf32, strided<[1], offset: ?>>
    %cast_671 = memref.cast %subview_215 : memref<1024xf32, strided<[1], offset: 168240128>> to memref<1024xf32, strided<[1], offset: ?>>
    %cast_672 = memref.cast %expand_shape_217 : memref<4096x1024xf32, strided<[1024, 1], offset: 168241152>> to memref<4096x1024xf32, strided<[1024, 1], offset: ?>>
    %cast_673 = memref.cast %subview_218 : memref<4096xf32, strided<[1], offset: 172435456>> to memref<4096xf32, strided<[1], offset: ?>>
    %cast_674 = memref.cast %expand_shape_220 : memref<1024x4096xf32, strided<[4096, 1], offset: 172439552>> to memref<1024x4096xf32, strided<[4096, 1], offset: ?>>
    %cast_675 = memref.cast %subview_221 : memref<1024xf32, strided<[1], offset: 176633856>> to memref<1024xf32, strided<[1], offset: ?>>
    %cast_676 = memref.cast %subview_222 : memref<1024xf32, strided<[1], offset: 176634880>> to memref<1024xf32, strided<[1], offset: ?>>
    %cast_677 = memref.cast %subview_223 : memref<1024xf32, strided<[1], offset: 176635904>> to memref<1024xf32, strided<[1], offset: ?>>
    %cast_678 = memref.cast %expand_shape_225 : memref<1024x1024xf32, strided<[1024, 1], offset: 176636928>> to memref<1024x1024xf32, strided<[1024, 1], offset: ?>>
    %cast_679 = memref.cast %subview_226 : memref<1024xf32, strided<[1], offset: 177685504>> to memref<1024xf32, strided<[1], offset: ?>>
    %cast_680 = memref.cast %expand_shape_228 : memref<1024x1024xf32, strided<[1024, 1], offset: 177686528>> to memref<1024x1024xf32, strided<[1024, 1], offset: ?>>
    %cast_681 = memref.cast %subview_229 : memref<1024xf32, strided<[1], offset: 178735104>> to memref<1024xf32, strided<[1], offset: ?>>
    %cast_682 = memref.cast %expand_shape_231 : memref<1024x1024xf32, strided<[1024, 1], offset: 178736128>> to memref<1024x1024xf32, strided<[1024, 1], offset: ?>>
    %cast_683 = memref.cast %subview_232 : memref<1024xf32, strided<[1], offset: 179784704>> to memref<1024xf32, strided<[1], offset: ?>>
    %cast_684 = memref.cast %expand_shape_234 : memref<1024x1024xf32, strided<[1024, 1], offset: 179785728>> to memref<1024x1024xf32, strided<[1024, 1], offset: ?>>
    %cast_685 = memref.cast %subview_235 : memref<1024xf32, strided<[1], offset: 180834304>> to memref<1024xf32, strided<[1], offset: ?>>
    %cast_686 = memref.cast %subview_236 : memref<1024xf32, strided<[1], offset: 180835328>> to memref<1024xf32, strided<[1], offset: ?>>
    %cast_687 = memref.cast %subview_237 : memref<1024xf32, strided<[1], offset: 180836352>> to memref<1024xf32, strided<[1], offset: ?>>
    %cast_688 = memref.cast %expand_shape_239 : memref<4096x1024xf32, strided<[1024, 1], offset: 180837376>> to memref<4096x1024xf32, strided<[1024, 1], offset: ?>>
    %cast_689 = memref.cast %subview_240 : memref<4096xf32, strided<[1], offset: 185031680>> to memref<4096xf32, strided<[1], offset: ?>>
    %cast_690 = memref.cast %expand_shape_242 : memref<1024x4096xf32, strided<[4096, 1], offset: 185035776>> to memref<1024x4096xf32, strided<[4096, 1], offset: ?>>
    %cast_691 = memref.cast %subview_243 : memref<1024xf32, strided<[1], offset: 189230080>> to memref<1024xf32, strided<[1], offset: ?>>
    %cast_692 = memref.cast %subview_244 : memref<1024xf32, strided<[1], offset: 189231104>> to memref<1024xf32, strided<[1], offset: ?>>
    %cast_693 = memref.cast %subview_245 : memref<1024xf32, strided<[1], offset: 189232128>> to memref<1024xf32, strided<[1], offset: ?>>
    %cast_694 = memref.cast %expand_shape_247 : memref<1024x1024xf32, strided<[1024, 1], offset: 189233152>> to memref<1024x1024xf32, strided<[1024, 1], offset: ?>>
    %cast_695 = memref.cast %subview_248 : memref<1024xf32, strided<[1], offset: 190281728>> to memref<1024xf32, strided<[1], offset: ?>>
    %cast_696 = memref.cast %expand_shape_250 : memref<1024x1024xf32, strided<[1024, 1], offset: 190282752>> to memref<1024x1024xf32, strided<[1024, 1], offset: ?>>
    %cast_697 = memref.cast %subview_251 : memref<1024xf32, strided<[1], offset: 191331328>> to memref<1024xf32, strided<[1], offset: ?>>
    %cast_698 = memref.cast %expand_shape_253 : memref<1024x1024xf32, strided<[1024, 1], offset: 191332352>> to memref<1024x1024xf32, strided<[1024, 1], offset: ?>>
    %cast_699 = memref.cast %subview_254 : memref<1024xf32, strided<[1], offset: 192380928>> to memref<1024xf32, strided<[1], offset: ?>>
    %cast_700 = memref.cast %expand_shape_256 : memref<1024x1024xf32, strided<[1024, 1], offset: 192381952>> to memref<1024x1024xf32, strided<[1024, 1], offset: ?>>
    %cast_701 = memref.cast %subview_257 : memref<1024xf32, strided<[1], offset: 193430528>> to memref<1024xf32, strided<[1], offset: ?>>
    %cast_702 = memref.cast %subview_258 : memref<1024xf32, strided<[1], offset: 193431552>> to memref<1024xf32, strided<[1], offset: ?>>
    %cast_703 = memref.cast %subview_259 : memref<1024xf32, strided<[1], offset: 193432576>> to memref<1024xf32, strided<[1], offset: ?>>
    %cast_704 = memref.cast %expand_shape_261 : memref<4096x1024xf32, strided<[1024, 1], offset: 193433600>> to memref<4096x1024xf32, strided<[1024, 1], offset: ?>>
    %cast_705 = memref.cast %subview_262 : memref<4096xf32, strided<[1], offset: 197627904>> to memref<4096xf32, strided<[1], offset: ?>>
    %cast_706 = memref.cast %expand_shape_264 : memref<1024x4096xf32, strided<[4096, 1], offset: 197632000>> to memref<1024x4096xf32, strided<[4096, 1], offset: ?>>
    %cast_707 = memref.cast %subview_265 : memref<1024xf32, strided<[1], offset: 201826304>> to memref<1024xf32, strided<[1], offset: ?>>
    %cast_708 = memref.cast %subview_266 : memref<1024xf32, strided<[1], offset: 201827328>> to memref<1024xf32, strided<[1], offset: ?>>
    %cast_709 = memref.cast %subview_267 : memref<1024xf32, strided<[1], offset: 201828352>> to memref<1024xf32, strided<[1], offset: ?>>
    %cast_710 = memref.cast %expand_shape_269 : memref<1024x1024xf32, strided<[1024, 1], offset: 201829376>> to memref<1024x1024xf32, strided<[1024, 1], offset: ?>>
    %cast_711 = memref.cast %subview_270 : memref<1024xf32, strided<[1], offset: 202877952>> to memref<1024xf32, strided<[1], offset: ?>>
    %cast_712 = memref.cast %expand_shape_272 : memref<1024x1024xf32, strided<[1024, 1], offset: 202878976>> to memref<1024x1024xf32, strided<[1024, 1], offset: ?>>
    %cast_713 = memref.cast %subview_273 : memref<1024xf32, strided<[1], offset: 203927552>> to memref<1024xf32, strided<[1], offset: ?>>
    %cast_714 = memref.cast %expand_shape_275 : memref<1024x1024xf32, strided<[1024, 1], offset: 203928576>> to memref<1024x1024xf32, strided<[1024, 1], offset: ?>>
    %cast_715 = memref.cast %subview_276 : memref<1024xf32, strided<[1], offset: 204977152>> to memref<1024xf32, strided<[1], offset: ?>>
    %cast_716 = memref.cast %expand_shape_278 : memref<1024x1024xf32, strided<[1024, 1], offset: 204978176>> to memref<1024x1024xf32, strided<[1024, 1], offset: ?>>
    %cast_717 = memref.cast %subview_279 : memref<1024xf32, strided<[1], offset: 206026752>> to memref<1024xf32, strided<[1], offset: ?>>
    %cast_718 = memref.cast %subview_280 : memref<1024xf32, strided<[1], offset: 206027776>> to memref<1024xf32, strided<[1], offset: ?>>
    %cast_719 = memref.cast %subview_281 : memref<1024xf32, strided<[1], offset: 206028800>> to memref<1024xf32, strided<[1], offset: ?>>
    %cast_720 = memref.cast %expand_shape_283 : memref<4096x1024xf32, strided<[1024, 1], offset: 206029824>> to memref<4096x1024xf32, strided<[1024, 1], offset: ?>>
    %cast_721 = memref.cast %subview_284 : memref<4096xf32, strided<[1], offset: 210224128>> to memref<4096xf32, strided<[1], offset: ?>>
    %cast_722 = memref.cast %expand_shape_286 : memref<1024x4096xf32, strided<[4096, 1], offset: 210228224>> to memref<1024x4096xf32, strided<[4096, 1], offset: ?>>
    %cast_723 = memref.cast %subview_287 : memref<1024xf32, strided<[1], offset: 214422528>> to memref<1024xf32, strided<[1], offset: ?>>
    %cast_724 = memref.cast %subview_288 : memref<1024xf32, strided<[1], offset: 214423552>> to memref<1024xf32, strided<[1], offset: ?>>
    %cast_725 = memref.cast %subview_289 : memref<1024xf32, strided<[1], offset: 214424576>> to memref<1024xf32, strided<[1], offset: ?>>
    %cast_726 = memref.cast %expand_shape_291 : memref<1024x1024xf32, strided<[1024, 1], offset: 214425600>> to memref<1024x1024xf32, strided<[1024, 1], offset: ?>>
    %cast_727 = memref.cast %subview_292 : memref<1024xf32, strided<[1], offset: 215474176>> to memref<1024xf32, strided<[1], offset: ?>>
    %cast_728 = memref.cast %expand_shape_294 : memref<1024x1024xf32, strided<[1024, 1], offset: 215475200>> to memref<1024x1024xf32, strided<[1024, 1], offset: ?>>
    %cast_729 = memref.cast %subview_295 : memref<1024xf32, strided<[1], offset: 216523776>> to memref<1024xf32, strided<[1], offset: ?>>
    %cast_730 = memref.cast %expand_shape_297 : memref<1024x1024xf32, strided<[1024, 1], offset: 216524800>> to memref<1024x1024xf32, strided<[1024, 1], offset: ?>>
    %cast_731 = memref.cast %subview_298 : memref<1024xf32, strided<[1], offset: 217573376>> to memref<1024xf32, strided<[1], offset: ?>>
    %cast_732 = memref.cast %expand_shape_300 : memref<1024x1024xf32, strided<[1024, 1], offset: 217574400>> to memref<1024x1024xf32, strided<[1024, 1], offset: ?>>
    %cast_733 = memref.cast %subview_301 : memref<1024xf32, strided<[1], offset: 218622976>> to memref<1024xf32, strided<[1], offset: ?>>
    %cast_734 = memref.cast %subview_302 : memref<1024xf32, strided<[1], offset: 218624000>> to memref<1024xf32, strided<[1], offset: ?>>
    %cast_735 = memref.cast %subview_303 : memref<1024xf32, strided<[1], offset: 218625024>> to memref<1024xf32, strided<[1], offset: ?>>
    %cast_736 = memref.cast %expand_shape_305 : memref<4096x1024xf32, strided<[1024, 1], offset: 218626048>> to memref<4096x1024xf32, strided<[1024, 1], offset: ?>>
    %cast_737 = memref.cast %subview_306 : memref<4096xf32, strided<[1], offset: 222820352>> to memref<4096xf32, strided<[1], offset: ?>>
    %cast_738 = memref.cast %expand_shape_308 : memref<1024x4096xf32, strided<[4096, 1], offset: 222824448>> to memref<1024x4096xf32, strided<[4096, 1], offset: ?>>
    %cast_739 = memref.cast %subview_309 : memref<1024xf32, strided<[1], offset: 227018752>> to memref<1024xf32, strided<[1], offset: ?>>
    %cast_740 = memref.cast %subview_310 : memref<1024xf32, strided<[1], offset: 227019776>> to memref<1024xf32, strided<[1], offset: ?>>
    %cast_741 = memref.cast %subview_311 : memref<1024xf32, strided<[1], offset: 227020800>> to memref<1024xf32, strided<[1], offset: ?>>
    %cast_742 = memref.cast %expand_shape_313 : memref<1024x1024xf32, strided<[1024, 1], offset: 227021824>> to memref<1024x1024xf32, strided<[1024, 1], offset: ?>>
    %cast_743 = memref.cast %subview_314 : memref<1024xf32, strided<[1], offset: 228070400>> to memref<1024xf32, strided<[1], offset: ?>>
    %cast_744 = memref.cast %expand_shape_316 : memref<1024x1024xf32, strided<[1024, 1], offset: 228071424>> to memref<1024x1024xf32, strided<[1024, 1], offset: ?>>
    %cast_745 = memref.cast %subview_317 : memref<1024xf32, strided<[1], offset: 229120000>> to memref<1024xf32, strided<[1], offset: ?>>
    %cast_746 = memref.cast %expand_shape_319 : memref<1024x1024xf32, strided<[1024, 1], offset: 229121024>> to memref<1024x1024xf32, strided<[1024, 1], offset: ?>>
    %cast_747 = memref.cast %subview_320 : memref<1024xf32, strided<[1], offset: 230169600>> to memref<1024xf32, strided<[1], offset: ?>>
    %cast_748 = memref.cast %expand_shape_322 : memref<1024x1024xf32, strided<[1024, 1], offset: 230170624>> to memref<1024x1024xf32, strided<[1024, 1], offset: ?>>
    %cast_749 = memref.cast %subview_323 : memref<1024xf32, strided<[1], offset: 231219200>> to memref<1024xf32, strided<[1], offset: ?>>
    %cast_750 = memref.cast %subview_324 : memref<1024xf32, strided<[1], offset: 231220224>> to memref<1024xf32, strided<[1], offset: ?>>
    %cast_751 = memref.cast %subview_325 : memref<1024xf32, strided<[1], offset: 231221248>> to memref<1024xf32, strided<[1], offset: ?>>
    %cast_752 = memref.cast %expand_shape_327 : memref<4096x1024xf32, strided<[1024, 1], offset: 231222272>> to memref<4096x1024xf32, strided<[1024, 1], offset: ?>>
    %cast_753 = memref.cast %subview_328 : memref<4096xf32, strided<[1], offset: 235416576>> to memref<4096xf32, strided<[1], offset: ?>>
    %cast_754 = memref.cast %expand_shape_330 : memref<1024x4096xf32, strided<[4096, 1], offset: 235420672>> to memref<1024x4096xf32, strided<[4096, 1], offset: ?>>
    %cast_755 = memref.cast %subview_331 : memref<1024xf32, strided<[1], offset: 239614976>> to memref<1024xf32, strided<[1], offset: ?>>
    %cast_756 = memref.cast %subview_332 : memref<1024xf32, strided<[1], offset: 239616000>> to memref<1024xf32, strided<[1], offset: ?>>
    %cast_757 = memref.cast %subview_333 : memref<1024xf32, strided<[1], offset: 239617024>> to memref<1024xf32, strided<[1], offset: ?>>
    %cast_758 = memref.cast %expand_shape_335 : memref<1024x1024xf32, strided<[1024, 1], offset: 239618048>> to memref<1024x1024xf32, strided<[1024, 1], offset: ?>>
    %cast_759 = memref.cast %subview_336 : memref<1024xf32, strided<[1], offset: 240666624>> to memref<1024xf32, strided<[1], offset: ?>>
    %cast_760 = memref.cast %expand_shape_338 : memref<1024x1024xf32, strided<[1024, 1], offset: 240667648>> to memref<1024x1024xf32, strided<[1024, 1], offset: ?>>
    %cast_761 = memref.cast %subview_339 : memref<1024xf32, strided<[1], offset: 241716224>> to memref<1024xf32, strided<[1], offset: ?>>
    %cast_762 = memref.cast %expand_shape_341 : memref<1024x1024xf32, strided<[1024, 1], offset: 241717248>> to memref<1024x1024xf32, strided<[1024, 1], offset: ?>>
    %cast_763 = memref.cast %subview_342 : memref<1024xf32, strided<[1], offset: 242765824>> to memref<1024xf32, strided<[1], offset: ?>>
    %cast_764 = memref.cast %expand_shape_344 : memref<1024x1024xf32, strided<[1024, 1], offset: 242766848>> to memref<1024x1024xf32, strided<[1024, 1], offset: ?>>
    %cast_765 = memref.cast %subview_345 : memref<1024xf32, strided<[1], offset: 243815424>> to memref<1024xf32, strided<[1], offset: ?>>
    %cast_766 = memref.cast %subview_346 : memref<1024xf32, strided<[1], offset: 243816448>> to memref<1024xf32, strided<[1], offset: ?>>
    %cast_767 = memref.cast %subview_347 : memref<1024xf32, strided<[1], offset: 243817472>> to memref<1024xf32, strided<[1], offset: ?>>
    %cast_768 = memref.cast %expand_shape_349 : memref<4096x1024xf32, strided<[1024, 1], offset: 243818496>> to memref<4096x1024xf32, strided<[1024, 1], offset: ?>>
    %cast_769 = memref.cast %subview_350 : memref<4096xf32, strided<[1], offset: 248012800>> to memref<4096xf32, strided<[1], offset: ?>>
    %cast_770 = memref.cast %expand_shape_352 : memref<1024x4096xf32, strided<[4096, 1], offset: 248016896>> to memref<1024x4096xf32, strided<[4096, 1], offset: ?>>
    %cast_771 = memref.cast %subview_353 : memref<1024xf32, strided<[1], offset: 252211200>> to memref<1024xf32, strided<[1], offset: ?>>
    %cast_772 = memref.cast %subview_354 : memref<1024xf32, strided<[1], offset: 252212224>> to memref<1024xf32, strided<[1], offset: ?>>
    %cast_773 = memref.cast %subview_355 : memref<1024xf32, strided<[1], offset: 252213248>> to memref<1024xf32, strided<[1], offset: ?>>
    %cast_774 = memref.cast %expand_shape_357 : memref<1024x1024xf32, strided<[1024, 1], offset: 252214272>> to memref<1024x1024xf32, strided<[1024, 1], offset: ?>>
    %cast_775 = memref.cast %subview_358 : memref<1024xf32, strided<[1], offset: 253262848>> to memref<1024xf32, strided<[1], offset: ?>>
    %cast_776 = memref.cast %expand_shape_360 : memref<1024x1024xf32, strided<[1024, 1], offset: 253263872>> to memref<1024x1024xf32, strided<[1024, 1], offset: ?>>
    %cast_777 = memref.cast %subview_361 : memref<1024xf32, strided<[1], offset: 254312448>> to memref<1024xf32, strided<[1], offset: ?>>
    %cast_778 = memref.cast %expand_shape_363 : memref<1024x1024xf32, strided<[1024, 1], offset: 254313472>> to memref<1024x1024xf32, strided<[1024, 1], offset: ?>>
    %cast_779 = memref.cast %subview_364 : memref<1024xf32, strided<[1], offset: 255362048>> to memref<1024xf32, strided<[1], offset: ?>>
    %cast_780 = memref.cast %expand_shape_366 : memref<1024x1024xf32, strided<[1024, 1], offset: 255363072>> to memref<1024x1024xf32, strided<[1024, 1], offset: ?>>
    %cast_781 = memref.cast %subview_367 : memref<1024xf32, strided<[1], offset: 256411648>> to memref<1024xf32, strided<[1], offset: ?>>
    %cast_782 = memref.cast %subview_368 : memref<1024xf32, strided<[1], offset: 256412672>> to memref<1024xf32, strided<[1], offset: ?>>
    %cast_783 = memref.cast %subview_369 : memref<1024xf32, strided<[1], offset: 256413696>> to memref<1024xf32, strided<[1], offset: ?>>
    %cast_784 = memref.cast %expand_shape_371 : memref<4096x1024xf32, strided<[1024, 1], offset: 256414720>> to memref<4096x1024xf32, strided<[1024, 1], offset: ?>>
    %cast_785 = memref.cast %subview_372 : memref<4096xf32, strided<[1], offset: 260609024>> to memref<4096xf32, strided<[1], offset: ?>>
    %cast_786 = memref.cast %expand_shape_374 : memref<1024x4096xf32, strided<[4096, 1], offset: 260613120>> to memref<1024x4096xf32, strided<[4096, 1], offset: ?>>
    %cast_787 = memref.cast %subview_375 : memref<1024xf32, strided<[1], offset: 264807424>> to memref<1024xf32, strided<[1], offset: ?>>
    %cast_788 = memref.cast %subview_376 : memref<1024xf32, strided<[1], offset: 264808448>> to memref<1024xf32, strided<[1], offset: ?>>
    %cast_789 = memref.cast %subview_377 : memref<1024xf32, strided<[1], offset: 264809472>> to memref<1024xf32, strided<[1], offset: ?>>
    %cast_790 = memref.cast %expand_shape_379 : memref<1024x1024xf32, strided<[1024, 1], offset: 264810496>> to memref<1024x1024xf32, strided<[1024, 1], offset: ?>>
    %cast_791 = memref.cast %subview_380 : memref<1024xf32, strided<[1], offset: 265859072>> to memref<1024xf32, strided<[1], offset: ?>>
    %cast_792 = memref.cast %expand_shape_382 : memref<1024x1024xf32, strided<[1024, 1], offset: 265860096>> to memref<1024x1024xf32, strided<[1024, 1], offset: ?>>
    %cast_793 = memref.cast %subview_383 : memref<1024xf32, strided<[1], offset: 266908672>> to memref<1024xf32, strided<[1], offset: ?>>
    %cast_794 = memref.cast %expand_shape_385 : memref<1024x1024xf32, strided<[1024, 1], offset: 266909696>> to memref<1024x1024xf32, strided<[1024, 1], offset: ?>>
    %cast_795 = memref.cast %subview_386 : memref<1024xf32, strided<[1], offset: 267958272>> to memref<1024xf32, strided<[1], offset: ?>>
    %cast_796 = memref.cast %expand_shape_388 : memref<1024x1024xf32, strided<[1024, 1], offset: 267959296>> to memref<1024x1024xf32, strided<[1024, 1], offset: ?>>
    %cast_797 = memref.cast %subview_389 : memref<1024xf32, strided<[1], offset: 269007872>> to memref<1024xf32, strided<[1], offset: ?>>
    %cast_798 = memref.cast %subview_390 : memref<1024xf32, strided<[1], offset: 269008896>> to memref<1024xf32, strided<[1], offset: ?>>
    %cast_799 = memref.cast %subview_391 : memref<1024xf32, strided<[1], offset: 269009920>> to memref<1024xf32, strided<[1], offset: ?>>
    %cast_800 = memref.cast %expand_shape_393 : memref<4096x1024xf32, strided<[1024, 1], offset: 269010944>> to memref<4096x1024xf32, strided<[1024, 1], offset: ?>>
    %cast_801 = memref.cast %subview_394 : memref<4096xf32, strided<[1], offset: 273205248>> to memref<4096xf32, strided<[1], offset: ?>>
    %cast_802 = memref.cast %expand_shape_396 : memref<1024x4096xf32, strided<[4096, 1], offset: 273209344>> to memref<1024x4096xf32, strided<[4096, 1], offset: ?>>
    %cast_803 = memref.cast %subview_397 : memref<1024xf32, strided<[1], offset: 277403648>> to memref<1024xf32, strided<[1], offset: ?>>
    %cast_804 = memref.cast %subview_398 : memref<1024xf32, strided<[1], offset: 277404672>> to memref<1024xf32, strided<[1], offset: ?>>
    %cast_805 = memref.cast %subview_399 : memref<1024xf32, strided<[1], offset: 277405696>> to memref<1024xf32, strided<[1], offset: ?>>
    %cast_806 = memref.cast %expand_shape_401 : memref<1024x1024xf32, strided<[1024, 1], offset: 277406720>> to memref<1024x1024xf32, strided<[1024, 1], offset: ?>>
    %cast_807 = memref.cast %subview_402 : memref<1024xf32, strided<[1], offset: 278455296>> to memref<1024xf32, strided<[1], offset: ?>>
    %cast_808 = memref.cast %expand_shape_404 : memref<1024x1024xf32, strided<[1024, 1], offset: 278456320>> to memref<1024x1024xf32, strided<[1024, 1], offset: ?>>
    %cast_809 = memref.cast %subview_405 : memref<1024xf32, strided<[1], offset: 279504896>> to memref<1024xf32, strided<[1], offset: ?>>
    %cast_810 = memref.cast %expand_shape_407 : memref<1024x1024xf32, strided<[1024, 1], offset: 279505920>> to memref<1024x1024xf32, strided<[1024, 1], offset: ?>>
    %cast_811 = memref.cast %subview_408 : memref<1024xf32, strided<[1], offset: 280554496>> to memref<1024xf32, strided<[1], offset: ?>>
    %cast_812 = memref.cast %expand_shape_410 : memref<1024x1024xf32, strided<[1024, 1], offset: 280555520>> to memref<1024x1024xf32, strided<[1024, 1], offset: ?>>
    %cast_813 = memref.cast %subview_411 : memref<1024xf32, strided<[1], offset: 281604096>> to memref<1024xf32, strided<[1], offset: ?>>
    %cast_814 = memref.cast %subview_412 : memref<1024xf32, strided<[1], offset: 281605120>> to memref<1024xf32, strided<[1], offset: ?>>
    %cast_815 = memref.cast %subview_413 : memref<1024xf32, strided<[1], offset: 281606144>> to memref<1024xf32, strided<[1], offset: ?>>
    %cast_816 = memref.cast %expand_shape_415 : memref<4096x1024xf32, strided<[1024, 1], offset: 281607168>> to memref<4096x1024xf32, strided<[1024, 1], offset: ?>>
    %cast_817 = memref.cast %subview_416 : memref<4096xf32, strided<[1], offset: 285801472>> to memref<4096xf32, strided<[1], offset: ?>>
    %cast_818 = memref.cast %expand_shape_418 : memref<1024x4096xf32, strided<[4096, 1], offset: 285805568>> to memref<1024x4096xf32, strided<[4096, 1], offset: ?>>
    %cast_819 = memref.cast %subview_419 : memref<1024xf32, strided<[1], offset: 289999872>> to memref<1024xf32, strided<[1], offset: ?>>
    %cast_820 = memref.cast %subview_420 : memref<1024xf32, strided<[1], offset: 290000896>> to memref<1024xf32, strided<[1], offset: ?>>
    %cast_821 = memref.cast %subview_421 : memref<1024xf32, strided<[1], offset: 290001920>> to memref<1024xf32, strided<[1], offset: ?>>
    %cast_822 = memref.cast %expand_shape_423 : memref<1024x1024xf32, strided<[1024, 1], offset: 290002944>> to memref<1024x1024xf32, strided<[1024, 1], offset: ?>>
    %cast_823 = memref.cast %subview_424 : memref<1024xf32, strided<[1], offset: 291051520>> to memref<1024xf32, strided<[1], offset: ?>>
    %cast_824 = memref.cast %expand_shape_426 : memref<1024x1024xf32, strided<[1024, 1], offset: 291052544>> to memref<1024x1024xf32, strided<[1024, 1], offset: ?>>
    %cast_825 = memref.cast %subview_427 : memref<1024xf32, strided<[1], offset: 292101120>> to memref<1024xf32, strided<[1], offset: ?>>
    %cast_826 = memref.cast %expand_shape_429 : memref<1024x1024xf32, strided<[1024, 1], offset: 292102144>> to memref<1024x1024xf32, strided<[1024, 1], offset: ?>>
    %cast_827 = memref.cast %subview_430 : memref<1024xf32, strided<[1], offset: 293150720>> to memref<1024xf32, strided<[1], offset: ?>>
    %cast_828 = memref.cast %expand_shape_432 : memref<1024x1024xf32, strided<[1024, 1], offset: 293151744>> to memref<1024x1024xf32, strided<[1024, 1], offset: ?>>
    %cast_829 = memref.cast %subview_433 : memref<1024xf32, strided<[1], offset: 294200320>> to memref<1024xf32, strided<[1], offset: ?>>
    %cast_830 = memref.cast %subview_434 : memref<1024xf32, strided<[1], offset: 294201344>> to memref<1024xf32, strided<[1], offset: ?>>
    %cast_831 = memref.cast %subview_435 : memref<1024xf32, strided<[1], offset: 294202368>> to memref<1024xf32, strided<[1], offset: ?>>
    %cast_832 = memref.cast %expand_shape_437 : memref<4096x1024xf32, strided<[1024, 1], offset: 294203392>> to memref<4096x1024xf32, strided<[1024, 1], offset: ?>>
    %cast_833 = memref.cast %subview_438 : memref<4096xf32, strided<[1], offset: 298397696>> to memref<4096xf32, strided<[1], offset: ?>>
    %cast_834 = memref.cast %expand_shape_440 : memref<1024x4096xf32, strided<[4096, 1], offset: 298401792>> to memref<1024x4096xf32, strided<[4096, 1], offset: ?>>
    %cast_835 = memref.cast %subview_441 : memref<1024xf32, strided<[1], offset: 302596096>> to memref<1024xf32, strided<[1], offset: ?>>
    %cast_836 = memref.cast %subview_442 : memref<1024xf32, strided<[1], offset: 302597120>> to memref<1024xf32, strided<[1], offset: ?>>
    %cast_837 = memref.cast %subview_443 : memref<1024xf32, strided<[1], offset: 302598144>> to memref<1024xf32, strided<[1], offset: ?>>
    %cast_838 = memref.cast %expand_shape_445 : memref<1024x1024xf32, strided<[1024, 1], offset: 302599168>> to memref<1024x1024xf32, strided<[1024, 1], offset: ?>>
    %cast_839 = memref.cast %subview_446 : memref<1024xf32, strided<[1], offset: 303647744>> to memref<1024xf32, strided<[1], offset: ?>>
    %cast_840 = memref.cast %expand_shape_448 : memref<1024x1024xf32, strided<[1024, 1], offset: 303648768>> to memref<1024x1024xf32, strided<[1024, 1], offset: ?>>
    %cast_841 = memref.cast %subview_449 : memref<1024xf32, strided<[1], offset: 304697344>> to memref<1024xf32, strided<[1], offset: ?>>
    %cast_842 = memref.cast %expand_shape_451 : memref<1024x1024xf32, strided<[1024, 1], offset: 304698368>> to memref<1024x1024xf32, strided<[1024, 1], offset: ?>>
    %cast_843 = memref.cast %subview_452 : memref<1024xf32, strided<[1], offset: 305746944>> to memref<1024xf32, strided<[1], offset: ?>>
    %cast_844 = memref.cast %expand_shape_454 : memref<1024x1024xf32, strided<[1024, 1], offset: 305747968>> to memref<1024x1024xf32, strided<[1024, 1], offset: ?>>
    %cast_845 = memref.cast %subview_455 : memref<1024xf32, strided<[1], offset: 306796544>> to memref<1024xf32, strided<[1], offset: ?>>
    %cast_846 = memref.cast %subview_456 : memref<1024xf32, strided<[1], offset: 306797568>> to memref<1024xf32, strided<[1], offset: ?>>
    %cast_847 = memref.cast %subview_457 : memref<1024xf32, strided<[1], offset: 306798592>> to memref<1024xf32, strided<[1], offset: ?>>
    %cast_848 = memref.cast %expand_shape_459 : memref<4096x1024xf32, strided<[1024, 1], offset: 306799616>> to memref<4096x1024xf32, strided<[1024, 1], offset: ?>>
    %cast_849 = memref.cast %subview_460 : memref<4096xf32, strided<[1], offset: 310993920>> to memref<4096xf32, strided<[1], offset: ?>>
    %cast_850 = memref.cast %expand_shape_462 : memref<1024x4096xf32, strided<[4096, 1], offset: 310998016>> to memref<1024x4096xf32, strided<[4096, 1], offset: ?>>
    %cast_851 = memref.cast %subview_463 : memref<1024xf32, strided<[1], offset: 315192320>> to memref<1024xf32, strided<[1], offset: ?>>
    %cast_852 = memref.cast %subview_464 : memref<1024xf32, strided<[1], offset: 315193344>> to memref<1024xf32, strided<[1], offset: ?>>
    %cast_853 = memref.cast %subview_465 : memref<1024xf32, strided<[1], offset: 315194368>> to memref<1024xf32, strided<[1], offset: ?>>
    %cast_854 = memref.cast %expand_shape_467 : memref<1024x1024xf32, strided<[1024, 1], offset: 315195392>> to memref<1024x1024xf32, strided<[1024, 1], offset: ?>>
    %cast_855 = memref.cast %subview_468 : memref<1024xf32, strided<[1], offset: 316243968>> to memref<1024xf32, strided<[1], offset: ?>>
    %cast_856 = memref.cast %expand_shape_470 : memref<1024x1024xf32, strided<[1024, 1], offset: 316244992>> to memref<1024x1024xf32, strided<[1024, 1], offset: ?>>
    %cast_857 = memref.cast %subview_471 : memref<1024xf32, strided<[1], offset: 317293568>> to memref<1024xf32, strided<[1], offset: ?>>
    %cast_858 = memref.cast %expand_shape_473 : memref<1024x1024xf32, strided<[1024, 1], offset: 317294592>> to memref<1024x1024xf32, strided<[1024, 1], offset: ?>>
    %cast_859 = memref.cast %subview_474 : memref<1024xf32, strided<[1], offset: 318343168>> to memref<1024xf32, strided<[1], offset: ?>>
    %cast_860 = memref.cast %expand_shape_476 : memref<1024x1024xf32, strided<[1024, 1], offset: 318344192>> to memref<1024x1024xf32, strided<[1024, 1], offset: ?>>
    %cast_861 = memref.cast %subview_477 : memref<1024xf32, strided<[1], offset: 319392768>> to memref<1024xf32, strided<[1], offset: ?>>
    %cast_862 = memref.cast %subview_478 : memref<1024xf32, strided<[1], offset: 319393792>> to memref<1024xf32, strided<[1], offset: ?>>
    %cast_863 = memref.cast %subview_479 : memref<1024xf32, strided<[1], offset: 319394816>> to memref<1024xf32, strided<[1], offset: ?>>
    %cast_864 = memref.cast %expand_shape_481 : memref<4096x1024xf32, strided<[1024, 1], offset: 319395840>> to memref<4096x1024xf32, strided<[1024, 1], offset: ?>>
    %cast_865 = memref.cast %subview_482 : memref<4096xf32, strided<[1], offset: 323590144>> to memref<4096xf32, strided<[1], offset: ?>>
    %cast_866 = memref.cast %expand_shape_484 : memref<1024x4096xf32, strided<[4096, 1], offset: 323594240>> to memref<1024x4096xf32, strided<[4096, 1], offset: ?>>
    %cast_867 = memref.cast %subview_485 : memref<1024xf32, strided<[1], offset: 327788544>> to memref<1024xf32, strided<[1], offset: ?>>
    %cast_868 = memref.cast %subview_486 : memref<1024xf32, strided<[1], offset: 327789568>> to memref<1024xf32, strided<[1], offset: ?>>
    %cast_869 = memref.cast %subview_487 : memref<1024xf32, strided<[1], offset: 327790592>> to memref<1024xf32, strided<[1], offset: ?>>
    %cast_870 = memref.cast %expand_shape_489 : memref<1024x1024xf32, strided<[1024, 1], offset: 327791616>> to memref<1024x1024xf32, strided<[1024, 1], offset: ?>>
    %cast_871 = memref.cast %subview_490 : memref<1024xf32, strided<[1], offset: 328840192>> to memref<1024xf32, strided<[1], offset: ?>>
    %cast_872 = memref.cast %expand_shape_492 : memref<1024x1024xf32, strided<[1024, 1], offset: 328841216>> to memref<1024x1024xf32, strided<[1024, 1], offset: ?>>
    %cast_873 = memref.cast %subview_493 : memref<1024xf32, strided<[1], offset: 329889792>> to memref<1024xf32, strided<[1], offset: ?>>
    %cast_874 = memref.cast %expand_shape_495 : memref<1024x1024xf32, strided<[1024, 1], offset: 329890816>> to memref<1024x1024xf32, strided<[1024, 1], offset: ?>>
    %cast_875 = memref.cast %subview_496 : memref<1024xf32, strided<[1], offset: 330939392>> to memref<1024xf32, strided<[1], offset: ?>>
    %cast_876 = memref.cast %expand_shape_498 : memref<1024x1024xf32, strided<[1024, 1], offset: 330940416>> to memref<1024x1024xf32, strided<[1024, 1], offset: ?>>
    %cast_877 = memref.cast %subview_499 : memref<1024xf32, strided<[1], offset: 331988992>> to memref<1024xf32, strided<[1], offset: ?>>
    %cast_878 = memref.cast %subview_500 : memref<1024xf32, strided<[1], offset: 331990016>> to memref<1024xf32, strided<[1], offset: ?>>
    %cast_879 = memref.cast %subview_501 : memref<1024xf32, strided<[1], offset: 331991040>> to memref<1024xf32, strided<[1], offset: ?>>
    %cast_880 = memref.cast %expand_shape_503 : memref<4096x1024xf32, strided<[1024, 1], offset: 331992064>> to memref<4096x1024xf32, strided<[1024, 1], offset: ?>>
    %cast_881 = memref.cast %subview_504 : memref<4096xf32, strided<[1], offset: 336186368>> to memref<4096xf32, strided<[1], offset: ?>>
    %cast_882 = memref.cast %expand_shape_506 : memref<1024x4096xf32, strided<[4096, 1], offset: 336190464>> to memref<1024x4096xf32, strided<[4096, 1], offset: ?>>
    %cast_883 = memref.cast %subview_507 : memref<1024xf32, strided<[1], offset: 340384768>> to memref<1024xf32, strided<[1], offset: ?>>
    %cast_884 = memref.cast %subview_508 : memref<1024xf32, strided<[1], offset: 340385792>> to memref<1024xf32, strided<[1], offset: ?>>
    %cast_885 = memref.cast %subview_509 : memref<1024xf32, strided<[1], offset: 340386816>> to memref<1024xf32, strided<[1], offset: ?>>
    %0:2 = call @subgraph0(%cast, %cast_512, %cast_513, %cast_514, %cast_515, %cast_516, %cast_517, %cast_518, %cast_519, %cast_520, %cast_521, %cast_522, %cast_523, %cast_524, %cast_525, %cast_526, %cast_527, %cast_528, %cast_529, %cast_530, %cast_531, %cast_532, %cast_533, %cast_534, %cast_535, %cast_536, %cast_537, %cast_538, %cast_539, %cast_540, %cast_541, %cast_542, %cast_543, %cast_544, %cast_545, %cast_546, %cast_547, %cast_548, %cast_549, %cast_550, %cast_551, %cast_552, %cast_553, %cast_554, %cast_555, %cast_556, %cast_557, %cast_558, %cast_559, %cast_560, %cast_561, %cast_562, %cast_563, %cast_564, %cast_565, %cast_566, %cast_567, %cast_568, %cast_569, %cast_570, %cast_571, %cast_572, %cast_573, %cast_574, %cast_575, %cast_576, %cast_577, %cast_578, %cast_579, %cast_580, %cast_581, %cast_582, %cast_583, %cast_584, %cast_585, %cast_586, %cast_587, %cast_588, %cast_589, %cast_590, %cast_591, %cast_592, %cast_593, %cast_594, %cast_595, %cast_596, %cast_597, %cast_598, %cast_599, %cast_600, %cast_601, %cast_602, %cast_603, %cast_604, %cast_605, %cast_606, %cast_607, %cast_608, %cast_609, %cast_610, %cast_611, %cast_612, %cast_613, %cast_614, %cast_615, %cast_616, %cast_617, %cast_618, %cast_619, %cast_620, %cast_621, %cast_622, %cast_623, %cast_624, %cast_625, %cast_626, %cast_627, %cast_628, %cast_629, %cast_630, %cast_631, %cast_632, %cast_633, %cast_634, %cast_635, %cast_636, %cast_637, %cast_638, %cast_639, %cast_640, %cast_641, %cast_642, %cast_643, %cast_644, %cast_645, %cast_646, %cast_647, %cast_648, %cast_649, %cast_650, %cast_651, %cast_652, %cast_653, %cast_654, %cast_655, %cast_656, %cast_657, %cast_658, %cast_659, %cast_660, %cast_661, %cast_662, %cast_663, %cast_664, %cast_665, %cast_666, %cast_667, %cast_668, %cast_669, %cast_670, %cast_671, %cast_672, %cast_673, %cast_674, %cast_675, %cast_676, %cast_677, %cast_678, %cast_679, %cast_680, %cast_681, %cast_682, %cast_683, %cast_684, %cast_685, %cast_686, %cast_687, %cast_688, %cast_689, %cast_690, %cast_691, %cast_692, %cast_693, %cast_694, %cast_695, %cast_696, %cast_697, %cast_698, %cast_699, %cast_700, %cast_701, %cast_702, %cast_703, %cast_704, %cast_705, %cast_706, %cast_707, %cast_708, %cast_709, %cast_710, %cast_711, %cast_712, %cast_713, %cast_714, %cast_715, %cast_716, %cast_717, %cast_718, %cast_719, %cast_720, %cast_721, %cast_722, %cast_723, %cast_724, %cast_725, %cast_726, %cast_727, %cast_728, %cast_729, %cast_730, %cast_731, %cast_732, %cast_733, %cast_734, %cast_735, %cast_736, %cast_737, %cast_738, %cast_739, %cast_740, %cast_741, %cast_742, %cast_743, %cast_744, %cast_745, %cast_746, %cast_747, %cast_748, %cast_749, %cast_750, %cast_751, %cast_752, %cast_753, %cast_754, %cast_755, %cast_756, %cast_757, %cast_758, %cast_759, %cast_760, %cast_761, %cast_762, %cast_763, %cast_764, %cast_765, %cast_766, %cast_767, %cast_768, %cast_769, %cast_770, %cast_771, %cast_772, %cast_773, %cast_774, %cast_775, %cast_776, %cast_777, %cast_778, %cast_779, %cast_780, %cast_781, %cast_782, %cast_783, %cast_784, %cast_785, %cast_786, %cast_787, %cast_788, %cast_789, %cast_790, %cast_791, %cast_792, %cast_793, %cast_794, %cast_795, %cast_796, %cast_797, %cast_798, %cast_799, %cast_800, %cast_801, %cast_802, %cast_803, %cast_804, %cast_805, %cast_806, %cast_807, %cast_808, %cast_809, %cast_810, %cast_811, %cast_812, %cast_813, %cast_814, %cast_815, %cast_816, %cast_817, %cast_818, %cast_819, %cast_820, %cast_821, %cast_822, %cast_823, %cast_824, %cast_825, %cast_826, %cast_827, %cast_828, %cast_829, %cast_830, %cast_831, %cast_832, %cast_833, %cast_834, %cast_835, %cast_836, %cast_837, %cast_838, %cast_839, %cast_840, %cast_841, %cast_842, %cast_843, %cast_844, %cast_845, %cast_846, %cast_847, %cast_848, %cast_849, %cast_850, %cast_851, %cast_852, %cast_853, %cast_854, %cast_855, %cast_856, %cast_857, %cast_858, %cast_859, %cast_860, %cast_861, %cast_862, %cast_863, %cast_864, %cast_865, %cast_866, %cast_867, %cast_868, %cast_869, %cast_870, %cast_871, %cast_872, %cast_873, %cast_874, %cast_875, %cast_876, %cast_877, %cast_878, %cast_879, %cast_880, %cast_881, %cast_882, %cast_883, %cast_884, %cast_885) : (memref<1x12xi64, strided<[12, 1], offset: ?>>, memref<1x77xi64, strided<[77, 1], offset: ?>>, memref<49408x1024xf32, strided<[1024, 1], offset: ?>>, memref<77x1024xf32, strided<[1024, 1], offset: ?>>, memref<1x12xi64, strided<[12, 1], offset: ?>>, memref<1024xf32, strided<[1], offset: ?>>, memref<1024xf32, strided<[1], offset: ?>>, memref<1024x1024xf32, strided<[1024, 1], offset: ?>>, memref<1024xf32, strided<[1], offset: ?>>, memref<1024x1024xf32, strided<[1024, 1], offset: ?>>, memref<1024xf32, strided<[1], offset: ?>>, memref<1024x1024xf32, strided<[1024, 1], offset: ?>>, memref<1024xf32, strided<[1], offset: ?>>, memref<1024x1024xf32, strided<[1024, 1], offset: ?>>, memref<1024xf32, strided<[1], offset: ?>>, memref<1024xf32, strided<[1], offset: ?>>, memref<1024xf32, strided<[1], offset: ?>>, memref<4096x1024xf32, strided<[1024, 1], offset: ?>>, memref<4096xf32, strided<[1], offset: ?>>, memref<1024x4096xf32, strided<[4096, 1], offset: ?>>, memref<1024xf32, strided<[1], offset: ?>>, memref<1024xf32, strided<[1], offset: ?>>, memref<1024xf32, strided<[1], offset: ?>>, memref<1024x1024xf32, strided<[1024, 1], offset: ?>>, memref<1024xf32, strided<[1], offset: ?>>, memref<1024x1024xf32, strided<[1024, 1], offset: ?>>, memref<1024xf32, strided<[1], offset: ?>>, memref<1024x1024xf32, strided<[1024, 1], offset: ?>>, memref<1024xf32, strided<[1], offset: ?>>, memref<1024x1024xf32, strided<[1024, 1], offset: ?>>, memref<1024xf32, strided<[1], offset: ?>>, memref<1024xf32, strided<[1], offset: ?>>, memref<1024xf32, strided<[1], offset: ?>>, memref<4096x1024xf32, strided<[1024, 1], offset: ?>>, memref<4096xf32, strided<[1], offset: ?>>, memref<1024x4096xf32, strided<[4096, 1], offset: ?>>, memref<1024xf32, strided<[1], offset: ?>>, memref<1024xf32, strided<[1], offset: ?>>, memref<1024xf32, strided<[1], offset: ?>>, memref<1024x1024xf32, strided<[1024, 1], offset: ?>>, memref<1024xf32, strided<[1], offset: ?>>, memref<1024x1024xf32, strided<[1024, 1], offset: ?>>, memref<1024xf32, strided<[1], offset: ?>>, memref<1024x1024xf32, strided<[1024, 1], offset: ?>>, memref<1024xf32, strided<[1], offset: ?>>, memref<1024x1024xf32, strided<[1024, 1], offset: ?>>, memref<1024xf32, strided<[1], offset: ?>>, memref<1024xf32, strided<[1], offset: ?>>, memref<1024xf32, strided<[1], offset: ?>>, memref<4096x1024xf32, strided<[1024, 1], offset: ?>>, memref<4096xf32, strided<[1], offset: ?>>, memref<1024x4096xf32, strided<[4096, 1], offset: ?>>, memref<1024xf32, strided<[1], offset: ?>>, memref<1024xf32, strided<[1], offset: ?>>, memref<1024xf32, strided<[1], offset: ?>>, memref<1024x1024xf32, strided<[1024, 1], offset: ?>>, memref<1024xf32, strided<[1], offset: ?>>, memref<1024x1024xf32, strided<[1024, 1], offset: ?>>, memref<1024xf32, strided<[1], offset: ?>>, memref<1024x1024xf32, strided<[1024, 1], offset: ?>>, memref<1024xf32, strided<[1], offset: ?>>, memref<1024x1024xf32, strided<[1024, 1], offset: ?>>, memref<1024xf32, strided<[1], offset: ?>>, memref<1024xf32, strided<[1], offset: ?>>, memref<1024xf32, strided<[1], offset: ?>>, memref<4096x1024xf32, strided<[1024, 1], offset: ?>>, memref<4096xf32, strided<[1], offset: ?>>, memref<1024x4096xf32, strided<[4096, 1], offset: ?>>, memref<1024xf32, strided<[1], offset: ?>>, memref<1024xf32, strided<[1], offset: ?>>, memref<1024xf32, strided<[1], offset: ?>>, memref<1024x1024xf32, strided<[1024, 1], offset: ?>>, memref<1024xf32, strided<[1], offset: ?>>, memref<1024x1024xf32, strided<[1024, 1], offset: ?>>, memref<1024xf32, strided<[1], offset: ?>>, memref<1024x1024xf32, strided<[1024, 1], offset: ?>>, memref<1024xf32, strided<[1], offset: ?>>, memref<1024x1024xf32, strided<[1024, 1], offset: ?>>, memref<1024xf32, strided<[1], offset: ?>>, memref<1024xf32, strided<[1], offset: ?>>, memref<1024xf32, strided<[1], offset: ?>>, memref<4096x1024xf32, strided<[1024, 1], offset: ?>>, memref<4096xf32, strided<[1], offset: ?>>, memref<1024x4096xf32, strided<[4096, 1], offset: ?>>, memref<1024xf32, strided<[1], offset: ?>>, memref<1024xf32, strided<[1], offset: ?>>, memref<1024xf32, strided<[1], offset: ?>>, memref<1024x1024xf32, strided<[1024, 1], offset: ?>>, memref<1024xf32, strided<[1], offset: ?>>, memref<1024x1024xf32, strided<[1024, 1], offset: ?>>, memref<1024xf32, strided<[1], offset: ?>>, memref<1024x1024xf32, strided<[1024, 1], offset: ?>>, memref<1024xf32, strided<[1], offset: ?>>, memref<1024x1024xf32, strided<[1024, 1], offset: ?>>, memref<1024xf32, strided<[1], offset: ?>>, memref<1024xf32, strided<[1], offset: ?>>, memref<1024xf32, strided<[1], offset: ?>>, memref<4096x1024xf32, strided<[1024, 1], offset: ?>>, memref<4096xf32, strided<[1], offset: ?>>, memref<1024x4096xf32, strided<[4096, 1], offset: ?>>, memref<1024xf32, strided<[1], offset: ?>>, memref<1024xf32, strided<[1], offset: ?>>, memref<1024xf32, strided<[1], offset: ?>>, memref<1024x1024xf32, strided<[1024, 1], offset: ?>>, memref<1024xf32, strided<[1], offset: ?>>, memref<1024x1024xf32, strided<[1024, 1], offset: ?>>, memref<1024xf32, strided<[1], offset: ?>>, memref<1024x1024xf32, strided<[1024, 1], offset: ?>>, memref<1024xf32, strided<[1], offset: ?>>, memref<1024x1024xf32, strided<[1024, 1], offset: ?>>, memref<1024xf32, strided<[1], offset: ?>>, memref<1024xf32, strided<[1], offset: ?>>, memref<1024xf32, strided<[1], offset: ?>>, memref<4096x1024xf32, strided<[1024, 1], offset: ?>>, memref<4096xf32, strided<[1], offset: ?>>, memref<1024x4096xf32, strided<[4096, 1], offset: ?>>, memref<1024xf32, strided<[1], offset: ?>>, memref<1024xf32, strided<[1], offset: ?>>, memref<1024xf32, strided<[1], offset: ?>>, memref<1024x1024xf32, strided<[1024, 1], offset: ?>>, memref<1024xf32, strided<[1], offset: ?>>, memref<1024x1024xf32, strided<[1024, 1], offset: ?>>, memref<1024xf32, strided<[1], offset: ?>>, memref<1024x1024xf32, strided<[1024, 1], offset: ?>>, memref<1024xf32, strided<[1], offset: ?>>, memref<1024x1024xf32, strided<[1024, 1], offset: ?>>, memref<1024xf32, strided<[1], offset: ?>>, memref<1024xf32, strided<[1], offset: ?>>, memref<1024xf32, strided<[1], offset: ?>>, memref<4096x1024xf32, strided<[1024, 1], offset: ?>>, memref<4096xf32, strided<[1], offset: ?>>, memref<1024x4096xf32, strided<[4096, 1], offset: ?>>, memref<1024xf32, strided<[1], offset: ?>>, memref<1024xf32, strided<[1], offset: ?>>, memref<1024xf32, strided<[1], offset: ?>>, memref<1024x1024xf32, strided<[1024, 1], offset: ?>>, memref<1024xf32, strided<[1], offset: ?>>, memref<1024x1024xf32, strided<[1024, 1], offset: ?>>, memref<1024xf32, strided<[1], offset: ?>>, memref<1024x1024xf32, strided<[1024, 1], offset: ?>>, memref<1024xf32, strided<[1], offset: ?>>, memref<1024x1024xf32, strided<[1024, 1], offset: ?>>, memref<1024xf32, strided<[1], offset: ?>>, memref<1024xf32, strided<[1], offset: ?>>, memref<1024xf32, strided<[1], offset: ?>>, memref<4096x1024xf32, strided<[1024, 1], offset: ?>>, memref<4096xf32, strided<[1], offset: ?>>, memref<1024x4096xf32, strided<[4096, 1], offset: ?>>, memref<1024xf32, strided<[1], offset: ?>>, memref<1024xf32, strided<[1], offset: ?>>, memref<1024xf32, strided<[1], offset: ?>>, memref<1024x1024xf32, strided<[1024, 1], offset: ?>>, memref<1024xf32, strided<[1], offset: ?>>, memref<1024x1024xf32, strided<[1024, 1], offset: ?>>, memref<1024xf32, strided<[1], offset: ?>>, memref<1024x1024xf32, strided<[1024, 1], offset: ?>>, memref<1024xf32, strided<[1], offset: ?>>, memref<1024x1024xf32, strided<[1024, 1], offset: ?>>, memref<1024xf32, strided<[1], offset: ?>>, memref<1024xf32, strided<[1], offset: ?>>, memref<1024xf32, strided<[1], offset: ?>>, memref<4096x1024xf32, strided<[1024, 1], offset: ?>>, memref<4096xf32, strided<[1], offset: ?>>, memref<1024x4096xf32, strided<[4096, 1], offset: ?>>, memref<1024xf32, strided<[1], offset: ?>>, memref<1024xf32, strided<[1], offset: ?>>, memref<1024xf32, strided<[1], offset: ?>>, memref<1024x1024xf32, strided<[1024, 1], offset: ?>>, memref<1024xf32, strided<[1], offset: ?>>, memref<1024x1024xf32, strided<[1024, 1], offset: ?>>, memref<1024xf32, strided<[1], offset: ?>>, memref<1024x1024xf32, strided<[1024, 1], offset: ?>>, memref<1024xf32, strided<[1], offset: ?>>, memref<1024x1024xf32, strided<[1024, 1], offset: ?>>, memref<1024xf32, strided<[1], offset: ?>>, memref<1024xf32, strided<[1], offset: ?>>, memref<1024xf32, strided<[1], offset: ?>>, memref<4096x1024xf32, strided<[1024, 1], offset: ?>>, memref<4096xf32, strided<[1], offset: ?>>, memref<1024x4096xf32, strided<[4096, 1], offset: ?>>, memref<1024xf32, strided<[1], offset: ?>>, memref<1024xf32, strided<[1], offset: ?>>, memref<1024xf32, strided<[1], offset: ?>>, memref<1024x1024xf32, strided<[1024, 1], offset: ?>>, memref<1024xf32, strided<[1], offset: ?>>, memref<1024x1024xf32, strided<[1024, 1], offset: ?>>, memref<1024xf32, strided<[1], offset: ?>>, memref<1024x1024xf32, strided<[1024, 1], offset: ?>>, memref<1024xf32, strided<[1], offset: ?>>, memref<1024x1024xf32, strided<[1024, 1], offset: ?>>, memref<1024xf32, strided<[1], offset: ?>>, memref<1024xf32, strided<[1], offset: ?>>, memref<1024xf32, strided<[1], offset: ?>>, memref<4096x1024xf32, strided<[1024, 1], offset: ?>>, memref<4096xf32, strided<[1], offset: ?>>, memref<1024x4096xf32, strided<[4096, 1], offset: ?>>, memref<1024xf32, strided<[1], offset: ?>>, memref<1024xf32, strided<[1], offset: ?>>, memref<1024xf32, strided<[1], offset: ?>>, memref<1024x1024xf32, strided<[1024, 1], offset: ?>>, memref<1024xf32, strided<[1], offset: ?>>, memref<1024x1024xf32, strided<[1024, 1], offset: ?>>, memref<1024xf32, strided<[1], offset: ?>>, memref<1024x1024xf32, strided<[1024, 1], offset: ?>>, memref<1024xf32, strided<[1], offset: ?>>, memref<1024x1024xf32, strided<[1024, 1], offset: ?>>, memref<1024xf32, strided<[1], offset: ?>>, memref<1024xf32, strided<[1], offset: ?>>, memref<1024xf32, strided<[1], offset: ?>>, memref<4096x1024xf32, strided<[1024, 1], offset: ?>>, memref<4096xf32, strided<[1], offset: ?>>, memref<1024x4096xf32, strided<[4096, 1], offset: ?>>, memref<1024xf32, strided<[1], offset: ?>>, memref<1024xf32, strided<[1], offset: ?>>, memref<1024xf32, strided<[1], offset: ?>>, memref<1024x1024xf32, strided<[1024, 1], offset: ?>>, memref<1024xf32, strided<[1], offset: ?>>, memref<1024x1024xf32, strided<[1024, 1], offset: ?>>, memref<1024xf32, strided<[1], offset: ?>>, memref<1024x1024xf32, strided<[1024, 1], offset: ?>>, memref<1024xf32, strided<[1], offset: ?>>, memref<1024x1024xf32, strided<[1024, 1], offset: ?>>, memref<1024xf32, strided<[1], offset: ?>>, memref<1024xf32, strided<[1], offset: ?>>, memref<1024xf32, strided<[1], offset: ?>>, memref<4096x1024xf32, strided<[1024, 1], offset: ?>>, memref<4096xf32, strided<[1], offset: ?>>, memref<1024x4096xf32, strided<[4096, 1], offset: ?>>, memref<1024xf32, strided<[1], offset: ?>>, memref<1024xf32, strided<[1], offset: ?>>, memref<1024xf32, strided<[1], offset: ?>>, memref<1024x1024xf32, strided<[1024, 1], offset: ?>>, memref<1024xf32, strided<[1], offset: ?>>, memref<1024x1024xf32, strided<[1024, 1], offset: ?>>, memref<1024xf32, strided<[1], offset: ?>>, memref<1024x1024xf32, strided<[1024, 1], offset: ?>>, memref<1024xf32, strided<[1], offset: ?>>, memref<1024x1024xf32, strided<[1024, 1], offset: ?>>, memref<1024xf32, strided<[1], offset: ?>>, memref<1024xf32, strided<[1], offset: ?>>, memref<1024xf32, strided<[1], offset: ?>>, memref<4096x1024xf32, strided<[1024, 1], offset: ?>>, memref<4096xf32, strided<[1], offset: ?>>, memref<1024x4096xf32, strided<[4096, 1], offset: ?>>, memref<1024xf32, strided<[1], offset: ?>>, memref<1024xf32, strided<[1], offset: ?>>, memref<1024xf32, strided<[1], offset: ?>>, memref<1024x1024xf32, strided<[1024, 1], offset: ?>>, memref<1024xf32, strided<[1], offset: ?>>, memref<1024x1024xf32, strided<[1024, 1], offset: ?>>, memref<1024xf32, strided<[1], offset: ?>>, memref<1024x1024xf32, strided<[1024, 1], offset: ?>>, memref<1024xf32, strided<[1], offset: ?>>, memref<1024x1024xf32, strided<[1024, 1], offset: ?>>, memref<1024xf32, strided<[1], offset: ?>>, memref<1024xf32, strided<[1], offset: ?>>, memref<1024xf32, strided<[1], offset: ?>>, memref<4096x1024xf32, strided<[1024, 1], offset: ?>>, memref<4096xf32, strided<[1], offset: ?>>, memref<1024x4096xf32, strided<[4096, 1], offset: ?>>, memref<1024xf32, strided<[1], offset: ?>>, memref<1024xf32, strided<[1], offset: ?>>, memref<1024xf32, strided<[1], offset: ?>>, memref<1024x1024xf32, strided<[1024, 1], offset: ?>>, memref<1024xf32, strided<[1], offset: ?>>, memref<1024x1024xf32, strided<[1024, 1], offset: ?>>, memref<1024xf32, strided<[1], offset: ?>>, memref<1024x1024xf32, strided<[1024, 1], offset: ?>>, memref<1024xf32, strided<[1], offset: ?>>, memref<1024x1024xf32, strided<[1024, 1], offset: ?>>, memref<1024xf32, strided<[1], offset: ?>>, memref<1024xf32, strided<[1], offset: ?>>, memref<1024xf32, strided<[1], offset: ?>>, memref<4096x1024xf32, strided<[1024, 1], offset: ?>>, memref<4096xf32, strided<[1], offset: ?>>, memref<1024x4096xf32, strided<[4096, 1], offset: ?>>, memref<1024xf32, strided<[1], offset: ?>>, memref<1024xf32, strided<[1], offset: ?>>, memref<1024xf32, strided<[1], offset: ?>>, memref<1024x1024xf32, strided<[1024, 1], offset: ?>>, memref<1024xf32, strided<[1], offset: ?>>, memref<1024x1024xf32, strided<[1024, 1], offset: ?>>, memref<1024xf32, strided<[1], offset: ?>>, memref<1024x1024xf32, strided<[1024, 1], offset: ?>>, memref<1024xf32, strided<[1], offset: ?>>, memref<1024x1024xf32, strided<[1024, 1], offset: ?>>, memref<1024xf32, strided<[1], offset: ?>>, memref<1024xf32, strided<[1], offset: ?>>, memref<1024xf32, strided<[1], offset: ?>>, memref<4096x1024xf32, strided<[1024, 1], offset: ?>>, memref<4096xf32, strided<[1], offset: ?>>, memref<1024x4096xf32, strided<[4096, 1], offset: ?>>, memref<1024xf32, strided<[1], offset: ?>>, memref<1024xf32, strided<[1], offset: ?>>, memref<1024xf32, strided<[1], offset: ?>>, memref<1024x1024xf32, strided<[1024, 1], offset: ?>>, memref<1024xf32, strided<[1], offset: ?>>, memref<1024x1024xf32, strided<[1024, 1], offset: ?>>, memref<1024xf32, strided<[1], offset: ?>>, memref<1024x1024xf32, strided<[1024, 1], offset: ?>>, memref<1024xf32, strided<[1], offset: ?>>, memref<1024x1024xf32, strided<[1024, 1], offset: ?>>, memref<1024xf32, strided<[1], offset: ?>>, memref<1024xf32, strided<[1], offset: ?>>, memref<1024xf32, strided<[1], offset: ?>>, memref<4096x1024xf32, strided<[1024, 1], offset: ?>>, memref<4096xf32, strided<[1], offset: ?>>, memref<1024x4096xf32, strided<[4096, 1], offset: ?>>, memref<1024xf32, strided<[1], offset: ?>>, memref<1024xf32, strided<[1], offset: ?>>, memref<1024xf32, strided<[1], offset: ?>>, memref<1024x1024xf32, strided<[1024, 1], offset: ?>>, memref<1024xf32, strided<[1], offset: ?>>, memref<1024x1024xf32, strided<[1024, 1], offset: ?>>, memref<1024xf32, strided<[1], offset: ?>>, memref<1024x1024xf32, strided<[1024, 1], offset: ?>>, memref<1024xf32, strided<[1], offset: ?>>, memref<1024x1024xf32, strided<[1024, 1], offset: ?>>, memref<1024xf32, strided<[1], offset: ?>>, memref<1024xf32, strided<[1], offset: ?>>, memref<1024xf32, strided<[1], offset: ?>>, memref<4096x1024xf32, strided<[1024, 1], offset: ?>>, memref<4096xf32, strided<[1], offset: ?>>, memref<1024x4096xf32, strided<[4096, 1], offset: ?>>, memref<1024xf32, strided<[1], offset: ?>>, memref<1024xf32, strided<[1], offset: ?>>, memref<1024xf32, strided<[1], offset: ?>>, memref<1024x1024xf32, strided<[1024, 1], offset: ?>>, memref<1024xf32, strided<[1], offset: ?>>, memref<1024x1024xf32, strided<[1024, 1], offset: ?>>, memref<1024xf32, strided<[1], offset: ?>>, memref<1024x1024xf32, strided<[1024, 1], offset: ?>>, memref<1024xf32, strided<[1], offset: ?>>, memref<1024x1024xf32, strided<[1024, 1], offset: ?>>, memref<1024xf32, strided<[1], offset: ?>>, memref<1024xf32, strided<[1], offset: ?>>, memref<1024xf32, strided<[1], offset: ?>>, memref<4096x1024xf32, strided<[1024, 1], offset: ?>>, memref<4096xf32, strided<[1], offset: ?>>, memref<1024x4096xf32, strided<[4096, 1], offset: ?>>, memref<1024xf32, strided<[1], offset: ?>>, memref<1024xf32, strided<[1], offset: ?>>, memref<1024xf32, strided<[1], offset: ?>>, memref<1024x1024xf32, strided<[1024, 1], offset: ?>>, memref<1024xf32, strided<[1], offset: ?>>, memref<1024x1024xf32, strided<[1024, 1], offset: ?>>, memref<1024xf32, strided<[1], offset: ?>>, memref<1024x1024xf32, strided<[1024, 1], offset: ?>>, memref<1024xf32, strided<[1], offset: ?>>, memref<1024x1024xf32, strided<[1024, 1], offset: ?>>, memref<1024xf32, strided<[1], offset: ?>>, memref<1024xf32, strided<[1], offset: ?>>, memref<1024xf32, strided<[1], offset: ?>>, memref<4096x1024xf32, strided<[1024, 1], offset: ?>>, memref<4096xf32, strided<[1], offset: ?>>, memref<1024x4096xf32, strided<[4096, 1], offset: ?>>, memref<1024xf32, strided<[1], offset: ?>>, memref<1024xf32, strided<[1], offset: ?>>, memref<1024xf32, strided<[1], offset: ?>>, memref<1024x1024xf32, strided<[1024, 1], offset: ?>>, memref<1024xf32, strided<[1], offset: ?>>, memref<1024x1024xf32, strided<[1024, 1], offset: ?>>, memref<1024xf32, strided<[1], offset: ?>>, memref<1024x1024xf32, strided<[1024, 1], offset: ?>>, memref<1024xf32, strided<[1], offset: ?>>, memref<1024x1024xf32, strided<[1024, 1], offset: ?>>, memref<1024xf32, strided<[1], offset: ?>>, memref<1024xf32, strided<[1], offset: ?>>, memref<1024xf32, strided<[1], offset: ?>>, memref<4096x1024xf32, strided<[1024, 1], offset: ?>>, memref<4096xf32, strided<[1], offset: ?>>, memref<1024x4096xf32, strided<[4096, 1], offset: ?>>, memref<1024xf32, strided<[1], offset: ?>>, memref<1024xf32, strided<[1], offset: ?>>, memref<1024xf32, strided<[1], offset: ?>>) -> (memref<1x12x1024xf32>, memref<1x1024xf32>)
    return %0#0, %0#1 : memref<1x12x1024xf32>, memref<1x1024xf32>
  }
}

