#map = affine_map<(d0, d1, d2) -> (d0, d2)>
#map1 = affine_map<(d0, d1, d2) -> (d2, d1)>
#map2 = affine_map<(d0, d1, d2) -> (d0, d1)>
#map3 = affine_map<(d0, d1, d2, d3) -> (d0, d1)>
#map4 = affine_map<(d0, d1, d2, d3) -> (d0, d1, d2, d3)>
"builtin.module"() ({
  "func.func"() <{function_type = (tensor<1xf32>, tensor<1280x320xf32>, tensor<1280xf32>, tensor<1280x1280xf32>, tensor<1280xf32>, tensor<1x4x64x64xf32>, tensor<320x4x3x3xf32>, tensor<320xf32>, tensor<320xf32>, tensor<320xf32>, tensor<320x320x3x3xf32>, tensor<320xf32>, tensor<320x1280xf32>, tensor<320xf32>, tensor<320xf32>, tensor<320xf32>, tensor<320x320x3x3xf32>, tensor<320xf32>, tensor<320xf32>, tensor<320xf32>, tensor<320x320xf32>, tensor<320xf32>, tensor<320xf32>, tensor<320xf32>, tensor<320x320xf32>, tensor<320x320xf32>, tensor<320x320xf32>, tensor<320x320xf32>, tensor<320xf32>, tensor<320xf32>, tensor<320xf32>, tensor<320x320xf32>, tensor<320x1024xf32>, tensor<1x12x1024xf32>, tensor<320x1024xf32>, tensor<1x12x1024xf32>, tensor<320x320xf32>, tensor<320xf32>, tensor<320xf32>, tensor<320xf32>, tensor<2560x320xf32>, tensor<2560xf32>, tensor<320x1280xf32>, tensor<320xf32>, tensor<320x320xf32>, tensor<320xf32>, tensor<320xf32>, tensor<320xf32>, tensor<320x320x3x3xf32>, tensor<320xf32>, tensor<320x1280xf32>, tensor<320xf32>, tensor<320xf32>, tensor<320xf32>, tensor<320x320x3x3xf32>, tensor<320xf32>, tensor<320xf32>, tensor<320xf32>, tensor<320x320xf32>, tensor<320xf32>, tensor<320xf32>, tensor<320xf32>, tensor<320x320xf32>, tensor<320x320xf32>, tensor<320x320xf32>, tensor<320x320xf32>, tensor<320xf32>, tensor<320xf32>, tensor<320xf32>, tensor<320x320xf32>, tensor<320x1024xf32>, tensor<1x12x1024xf32>, tensor<320x1024xf32>, tensor<1x12x1024xf32>, tensor<320x320xf32>, tensor<320xf32>, tensor<320xf32>, tensor<320xf32>, tensor<2560x320xf32>, tensor<2560xf32>, tensor<320x1280xf32>, tensor<320xf32>, tensor<320x320xf32>, tensor<320xf32>, tensor<320x320x3x3xf32>, tensor<320xf32>, tensor<320xf32>, tensor<320xf32>, tensor<640x320x3x3xf32>, tensor<640xf32>, tensor<640x1280xf32>, tensor<640xf32>, tensor<640xf32>, tensor<640xf32>, tensor<640x640x3x3xf32>, tensor<640xf32>, tensor<640x320x1x1xf32>, tensor<640xf32>, tensor<640xf32>, tensor<640xf32>, tensor<640x640xf32>, tensor<640xf32>, tensor<640xf32>, tensor<640xf32>, tensor<640x640xf32>, tensor<640x640xf32>, tensor<640x640xf32>, tensor<640x640xf32>, tensor<640xf32>, tensor<640xf32>, tensor<640xf32>, tensor<640x640xf32>, tensor<640x1024xf32>, tensor<1x12x1024xf32>, tensor<640x1024xf32>, tensor<1x12x1024xf32>, tensor<640x640xf32>, tensor<640xf32>, tensor<640xf32>, tensor<640xf32>, tensor<5120x640xf32>, tensor<5120xf32>, tensor<640x2560xf32>, tensor<640xf32>, tensor<640x640xf32>, tensor<640xf32>, tensor<640xf32>, tensor<640xf32>, tensor<640x640x3x3xf32>, tensor<640xf32>, tensor<640x1280xf32>, tensor<640xf32>, tensor<640xf32>, tensor<640xf32>, tensor<640x640x3x3xf32>, tensor<640xf32>, tensor<640xf32>, tensor<640xf32>, tensor<640x640xf32>, tensor<640xf32>, tensor<640xf32>, tensor<640xf32>, tensor<640x640xf32>, tensor<640x640xf32>, tensor<640x640xf32>, tensor<640x640xf32>, tensor<640xf32>, tensor<640xf32>, tensor<640xf32>, tensor<640x640xf32>, tensor<640x1024xf32>, tensor<1x12x1024xf32>, tensor<640x1024xf32>, tensor<1x12x1024xf32>, tensor<640x640xf32>, tensor<640xf32>, tensor<640xf32>, tensor<640xf32>, tensor<5120x640xf32>, tensor<5120xf32>, tensor<640x2560xf32>, tensor<640xf32>, tensor<640x640xf32>, tensor<640xf32>, tensor<640x640x3x3xf32>, tensor<640xf32>, tensor<640xf32>, tensor<640xf32>, tensor<1280x640x3x3xf32>, tensor<1280xf32>, tensor<1280x1280xf32>, tensor<1280xf32>, tensor<1280xf32>, tensor<1280xf32>, tensor<1280x1280x3x3xf32>, tensor<1280xf32>, tensor<1280x640x1x1xf32>, tensor<1280xf32>, tensor<1280xf32>, tensor<1280xf32>, tensor<1280x1280xf32>, tensor<1280xf32>, tensor<1280xf32>, tensor<1280xf32>, tensor<1280x1280xf32>, tensor<1280x1280xf32>, tensor<1280x1280xf32>, tensor<1280x1280xf32>, tensor<1280xf32>, tensor<1280xf32>, tensor<1280xf32>, tensor<1280x1280xf32>, tensor<1280x1024xf32>, tensor<1x12x1024xf32>, tensor<1280x1024xf32>, tensor<1x12x1024xf32>, tensor<1280x1280xf32>, tensor<1280xf32>, tensor<1280xf32>, tensor<1280xf32>, tensor<10240x1280xf32>, tensor<10240xf32>, tensor<1280x5120xf32>, tensor<1280xf32>, tensor<1280x1280xf32>, tensor<1280xf32>, tensor<1280xf32>, tensor<1280xf32>, tensor<1280x1280x3x3xf32>, tensor<1280xf32>, tensor<1280x1280xf32>, tensor<1280xf32>, tensor<1280xf32>, tensor<1280xf32>, tensor<1280x1280x3x3xf32>, tensor<1280xf32>, tensor<1280xf32>, tensor<1280xf32>, tensor<1280x1280xf32>, tensor<1280xf32>, tensor<1280xf32>, tensor<1280xf32>, tensor<1280x1280xf32>, tensor<1280x1280xf32>, tensor<1280x1280xf32>, tensor<1280x1280xf32>, tensor<1280xf32>, tensor<1280xf32>, tensor<1280xf32>, tensor<1280x1280xf32>, tensor<1280x1024xf32>, tensor<1x12x1024xf32>, tensor<1280x1024xf32>, tensor<1x12x1024xf32>, tensor<1280x1280xf32>, tensor<1280xf32>, tensor<1280xf32>, tensor<1280xf32>, tensor<10240x1280xf32>, tensor<10240xf32>, tensor<1280x5120xf32>, tensor<1280xf32>, tensor<1280x1280xf32>, tensor<1280xf32>, tensor<1280x1280x3x3xf32>, tensor<1280xf32>, tensor<1280xf32>, tensor<1280xf32>, tensor<1280x1280x3x3xf32>, tensor<1280xf32>, tensor<1280x1280xf32>, tensor<1280xf32>, tensor<1280xf32>, tensor<1280xf32>, tensor<1280x1280x3x3xf32>, tensor<1280xf32>, tensor<1280xf32>, tensor<1280xf32>, tensor<1280x1280x3x3xf32>, tensor<1280xf32>, tensor<1280x1280xf32>, tensor<1280xf32>, tensor<1280xf32>, tensor<1280xf32>, tensor<1280x1280x3x3xf32>, tensor<1280xf32>, tensor<1280xf32>, tensor<1280xf32>, tensor<1280x1280x3x3xf32>, tensor<1280xf32>, tensor<1280x1280xf32>, tensor<1280xf32>, tensor<1280xf32>, tensor<1280xf32>, tensor<1280x1280x3x3xf32>, tensor<1280xf32>, tensor<1280xf32>, tensor<1280xf32>, tensor<1280x1280xf32>, tensor<1280xf32>, tensor<1280xf32>, tensor<1280xf32>, tensor<1280x1280xf32>, tensor<1280x1280xf32>, tensor<1280x1280xf32>, tensor<1280x1280xf32>, tensor<1280xf32>, tensor<1280xf32>, tensor<1280xf32>, tensor<1280x1280xf32>, tensor<1280x1024xf32>, tensor<1x12x1024xf32>, tensor<1280x1024xf32>, tensor<1x12x1024xf32>, tensor<1280x1280xf32>, tensor<1280xf32>, tensor<1280xf32>, tensor<1280xf32>, tensor<10240x1280xf32>, tensor<10240xf32>, tensor<1280x5120xf32>, tensor<1280xf32>, tensor<1280x1280xf32>, tensor<1280xf32>, tensor<1280xf32>, tensor<1280xf32>, tensor<1280x1280x3x3xf32>, tensor<1280xf32>, tensor<1280x1280xf32>, tensor<1280xf32>, tensor<1280xf32>, tensor<1280xf32>, tensor<1280x1280x3x3xf32>, tensor<1280xf32>, tensor<2560xf32>, tensor<2560xf32>, tensor<1280x2560x3x3xf32>, tensor<1280xf32>, tensor<1280x1280xf32>, tensor<1280xf32>, tensor<1280xf32>, tensor<1280xf32>, tensor<1280x1280x3x3xf32>, tensor<1280xf32>, tensor<1280x2560x1x1xf32>, tensor<1280xf32>, tensor<2560xf32>, tensor<2560xf32>, tensor<1280x2560x3x3xf32>, tensor<1280xf32>, tensor<1280x1280xf32>, tensor<1280xf32>, tensor<1280xf32>, tensor<1280xf32>, tensor<1280x1280x3x3xf32>, tensor<1280xf32>, tensor<1280x2560x1x1xf32>, tensor<1280xf32>, tensor<2560xf32>, tensor<2560xf32>, tensor<1280x2560x3x3xf32>, tensor<1280xf32>, tensor<1280x1280xf32>, tensor<1280xf32>, tensor<1280xf32>, tensor<1280xf32>, tensor<1280x1280x3x3xf32>, tensor<1280xf32>, tensor<1280x2560x1x1xf32>, tensor<1280xf32>, tensor<1280x1280x3x3xf32>, tensor<1280xf32>, tensor<2560xf32>, tensor<2560xf32>, tensor<1280x2560x3x3xf32>, tensor<1280xf32>, tensor<1280x1280xf32>, tensor<1280xf32>, tensor<1280xf32>, tensor<1280xf32>, tensor<1280x1280x3x3xf32>, tensor<1280xf32>, tensor<1280x2560x1x1xf32>, tensor<1280xf32>, tensor<1280xf32>, tensor<1280xf32>, tensor<1280x1280xf32>, tensor<1280xf32>, tensor<1280xf32>, tensor<1280xf32>, tensor<1280x1280xf32>, tensor<1280x1280xf32>, tensor<1280x1280xf32>, tensor<1280x1280xf32>, tensor<1280xf32>, tensor<1280xf32>, tensor<1280xf32>, tensor<1280x1280xf32>, tensor<1280x1024xf32>, tensor<1x12x1024xf32>, tensor<1280x1024xf32>, tensor<1x12x1024xf32>, tensor<1280x1280xf32>, tensor<1280xf32>, tensor<1280xf32>, tensor<1280xf32>, tensor<10240x1280xf32>, tensor<10240xf32>, tensor<1280x5120xf32>, tensor<1280xf32>, tensor<1280x1280xf32>, tensor<1280xf32>, tensor<2560xf32>, tensor<2560xf32>, tensor<1280x2560x3x3xf32>, tensor<1280xf32>, tensor<1280x1280xf32>, tensor<1280xf32>, tensor<1280xf32>, tensor<1280xf32>, tensor<1280x1280x3x3xf32>, tensor<1280xf32>, tensor<1280x2560x1x1xf32>, tensor<1280xf32>, tensor<1280xf32>, tensor<1280xf32>, tensor<1280x1280xf32>, tensor<1280xf32>, tensor<1280xf32>, tensor<1280xf32>, tensor<1280x1280xf32>, tensor<1280x1280xf32>, tensor<1280x1280xf32>, tensor<1280x1280xf32>, tensor<1280xf32>, tensor<1280xf32>, tensor<1280xf32>, tensor<1280x1280xf32>, tensor<1280x1024xf32>, tensor<1x12x1024xf32>, tensor<1280x1024xf32>, tensor<1x12x1024xf32>, tensor<1280x1280xf32>, tensor<1280xf32>, tensor<1280xf32>, tensor<1280xf32>, tensor<10240x1280xf32>, tensor<10240xf32>, tensor<1280x5120xf32>, tensor<1280xf32>, tensor<1280x1280xf32>, tensor<1280xf32>, tensor<1920xf32>, tensor<1920xf32>, tensor<1280x1920x3x3xf32>, tensor<1280xf32>, tensor<1280x1280xf32>, tensor<1280xf32>, tensor<1280xf32>, tensor<1280xf32>, tensor<1280x1280x3x3xf32>, tensor<1280xf32>, tensor<1280x1920x1x1xf32>, tensor<1280xf32>, tensor<1280xf32>, tensor<1280xf32>, tensor<1280x1280xf32>, tensor<1280xf32>, tensor<1280xf32>, tensor<1280xf32>, tensor<1280x1280xf32>, tensor<1280x1280xf32>, tensor<1280x1280xf32>, tensor<1280x1280xf32>, tensor<1280xf32>, tensor<1280xf32>, tensor<1280xf32>, tensor<1280x1280xf32>, tensor<1280x1024xf32>, tensor<1x12x1024xf32>, tensor<1280x1024xf32>, tensor<1x12x1024xf32>, tensor<1280x1280xf32>, tensor<1280xf32>, tensor<1280xf32>, tensor<1280xf32>, tensor<10240x1280xf32>, tensor<10240xf32>, tensor<1280x5120xf32>, tensor<1280xf32>, tensor<1280x1280xf32>, tensor<1280xf32>, tensor<1280x1280x3x3xf32>, tensor<1280xf32>, tensor<1920xf32>, tensor<1920xf32>, tensor<640x1920x3x3xf32>, tensor<640xf32>, tensor<640x1280xf32>, tensor<640xf32>, tensor<640xf32>, tensor<640xf32>, tensor<640x640x3x3xf32>, tensor<640xf32>, tensor<640x1920x1x1xf32>, tensor<640xf32>, tensor<640xf32>, tensor<640xf32>, tensor<640x640xf32>, tensor<640xf32>, tensor<640xf32>, tensor<640xf32>, tensor<640x640xf32>, tensor<640x640xf32>, tensor<640x640xf32>, tensor<640x640xf32>, tensor<640xf32>, tensor<640xf32>, tensor<640xf32>, tensor<640x640xf32>, tensor<640x1024xf32>, tensor<1x12x1024xf32>, tensor<640x1024xf32>, tensor<1x12x1024xf32>, tensor<640x640xf32>, tensor<640xf32>, tensor<640xf32>, tensor<640xf32>, tensor<5120x640xf32>, tensor<5120xf32>, tensor<640x2560xf32>, tensor<640xf32>, tensor<640x640xf32>, tensor<640xf32>, tensor<1280xf32>, tensor<1280xf32>, tensor<640x1280x3x3xf32>, tensor<640xf32>, tensor<640x1280xf32>, tensor<640xf32>, tensor<640xf32>, tensor<640xf32>, tensor<640x640x3x3xf32>, tensor<640xf32>, tensor<640x1280x1x1xf32>, tensor<640xf32>, tensor<640xf32>, tensor<640xf32>, tensor<640x640xf32>, tensor<640xf32>, tensor<640xf32>, tensor<640xf32>, tensor<640x640xf32>, tensor<640x640xf32>, tensor<640x640xf32>, tensor<640x640xf32>, tensor<640xf32>, tensor<640xf32>, tensor<640xf32>, tensor<640x640xf32>, tensor<640x1024xf32>, tensor<1x12x1024xf32>, tensor<640x1024xf32>, tensor<1x12x1024xf32>, tensor<640x640xf32>, tensor<640xf32>, tensor<640xf32>, tensor<640xf32>, tensor<5120x640xf32>, tensor<5120xf32>, tensor<640x2560xf32>, tensor<640xf32>, tensor<640x640xf32>, tensor<640xf32>, tensor<960xf32>, tensor<960xf32>, tensor<640x960x3x3xf32>, tensor<640xf32>, tensor<640x1280xf32>, tensor<640xf32>, tensor<640xf32>, tensor<640xf32>, tensor<640x640x3x3xf32>, tensor<640xf32>, tensor<640x960x1x1xf32>, tensor<640xf32>, tensor<640xf32>, tensor<640xf32>, tensor<640x640xf32>, tensor<640xf32>, tensor<640xf32>, tensor<640xf32>, tensor<640x640xf32>, tensor<640x640xf32>, tensor<640x640xf32>, tensor<640x640xf32>, tensor<640xf32>, tensor<640xf32>, tensor<640xf32>, tensor<640x640xf32>, tensor<640x1024xf32>, tensor<1x12x1024xf32>, tensor<640x1024xf32>, tensor<1x12x1024xf32>, tensor<640x640xf32>, tensor<640xf32>, tensor<640xf32>, tensor<640xf32>, tensor<5120x640xf32>, tensor<5120xf32>, tensor<640x2560xf32>, tensor<640xf32>, tensor<640x640xf32>, tensor<640xf32>, tensor<640x640x3x3xf32>, tensor<640xf32>, tensor<960xf32>, tensor<960xf32>, tensor<320x960x3x3xf32>, tensor<320xf32>, tensor<320x1280xf32>, tensor<320xf32>, tensor<320xf32>, tensor<320xf32>, tensor<320x320x3x3xf32>, tensor<320xf32>, tensor<320x960x1x1xf32>, tensor<320xf32>, tensor<320xf32>, tensor<320xf32>, tensor<320x320xf32>, tensor<320xf32>, tensor<320xf32>, tensor<320xf32>, tensor<320x320xf32>, tensor<320x320xf32>, tensor<320x320xf32>, tensor<320x320xf32>, tensor<320xf32>, tensor<320xf32>, tensor<320xf32>, tensor<320x320xf32>, tensor<320x1024xf32>, tensor<1x12x1024xf32>, tensor<320x1024xf32>, tensor<1x12x1024xf32>, tensor<320x320xf32>, tensor<320xf32>, tensor<320xf32>, tensor<320xf32>, tensor<2560x320xf32>, tensor<2560xf32>, tensor<320x1280xf32>, tensor<320xf32>, tensor<320x320xf32>, tensor<320xf32>, tensor<640xf32>, tensor<640xf32>, tensor<320x640x3x3xf32>, tensor<320xf32>, tensor<320x1280xf32>, tensor<320xf32>, tensor<320xf32>, tensor<320xf32>, tensor<320x320x3x3xf32>, tensor<320xf32>, tensor<320x640x1x1xf32>, tensor<320xf32>, tensor<320xf32>, tensor<320xf32>, tensor<320x320xf32>, tensor<320xf32>, tensor<320xf32>, tensor<320xf32>, tensor<320x320xf32>, tensor<320x320xf32>, tensor<320x320xf32>, tensor<320x320xf32>, tensor<320xf32>, tensor<320xf32>, tensor<320xf32>, tensor<320x320xf32>, tensor<320x1024xf32>, tensor<1x12x1024xf32>, tensor<320x1024xf32>, tensor<1x12x1024xf32>, tensor<320x320xf32>, tensor<320xf32>, tensor<320xf32>, tensor<320xf32>, tensor<2560x320xf32>, tensor<2560xf32>, tensor<320x1280xf32>, tensor<320xf32>, tensor<320x320xf32>, tensor<320xf32>, tensor<640xf32>, tensor<640xf32>, tensor<320x640x3x3xf32>, tensor<320xf32>, tensor<320x1280xf32>, tensor<320xf32>, tensor<320xf32>, tensor<320xf32>, tensor<320x320x3x3xf32>, tensor<320xf32>, tensor<320x640x1x1xf32>, tensor<320xf32>, tensor<320xf32>, tensor<320xf32>, tensor<320x320xf32>, tensor<320xf32>, tensor<320xf32>, tensor<320xf32>, tensor<320x320xf32>, tensor<320x320xf32>, tensor<320x320xf32>, tensor<320x320xf32>, tensor<320xf32>, tensor<320xf32>, tensor<320xf32>, tensor<320x320xf32>, tensor<320x1024xf32>, tensor<1x12x1024xf32>, tensor<320x1024xf32>, tensor<1x12x1024xf32>, tensor<320x320xf32>, tensor<320xf32>, tensor<320xf32>, tensor<320xf32>, tensor<2560x320xf32>, tensor<2560xf32>, tensor<320x1280xf32>, tensor<320xf32>, tensor<320x320xf32>, tensor<320xf32>, tensor<320xf32>, tensor<320xf32>, tensor<4x320x3x3xf32>, tensor<4xf32>) -> tensor<1x4x64x64xf32>, sym_name = "subgraph0"}> ({
  ^bb0(%arg0: tensor<1xf32>, %arg1: tensor<1280x320xf32>, %arg2: tensor<1280xf32>, %arg3: tensor<1280x1280xf32>, %arg4: tensor<1280xf32>, %arg5: tensor<1x4x64x64xf32>, %arg6: tensor<320x4x3x3xf32>, %arg7: tensor<320xf32>, %arg8: tensor<320xf32>, %arg9: tensor<320xf32>, %arg10: tensor<320x320x3x3xf32>, %arg11: tensor<320xf32>, %arg12: tensor<320x1280xf32>, %arg13: tensor<320xf32>, %arg14: tensor<320xf32>, %arg15: tensor<320xf32>, %arg16: tensor<320x320x3x3xf32>, %arg17: tensor<320xf32>, %arg18: tensor<320xf32>, %arg19: tensor<320xf32>, %arg20: tensor<320x320xf32>, %arg21: tensor<320xf32>, %arg22: tensor<320xf32>, %arg23: tensor<320xf32>, %arg24: tensor<320x320xf32>, %arg25: tensor<320x320xf32>, %arg26: tensor<320x320xf32>, %arg27: tensor<320x320xf32>, %arg28: tensor<320xf32>, %arg29: tensor<320xf32>, %arg30: tensor<320xf32>, %arg31: tensor<320x320xf32>, %arg32: tensor<320x1024xf32>, %arg33: tensor<1x12x1024xf32>, %arg34: tensor<320x1024xf32>, %arg35: tensor<1x12x1024xf32>, %arg36: tensor<320x320xf32>, %arg37: tensor<320xf32>, %arg38: tensor<320xf32>, %arg39: tensor<320xf32>, %arg40: tensor<2560x320xf32>, %arg41: tensor<2560xf32>, %arg42: tensor<320x1280xf32>, %arg43: tensor<320xf32>, %arg44: tensor<320x320xf32>, %arg45: tensor<320xf32>, %arg46: tensor<320xf32>, %arg47: tensor<320xf32>, %arg48: tensor<320x320x3x3xf32>, %arg49: tensor<320xf32>, %arg50: tensor<320x1280xf32>, %arg51: tensor<320xf32>, %arg52: tensor<320xf32>, %arg53: tensor<320xf32>, %arg54: tensor<320x320x3x3xf32>, %arg55: tensor<320xf32>, %arg56: tensor<320xf32>, %arg57: tensor<320xf32>, %arg58: tensor<320x320xf32>, %arg59: tensor<320xf32>, %arg60: tensor<320xf32>, %arg61: tensor<320xf32>, %arg62: tensor<320x320xf32>, %arg63: tensor<320x320xf32>, %arg64: tensor<320x320xf32>, %arg65: tensor<320x320xf32>, %arg66: tensor<320xf32>, %arg67: tensor<320xf32>, %arg68: tensor<320xf32>, %arg69: tensor<320x320xf32>, %arg70: tensor<320x1024xf32>, %arg71: tensor<1x12x1024xf32>, %arg72: tensor<320x1024xf32>, %arg73: tensor<1x12x1024xf32>, %arg74: tensor<320x320xf32>, %arg75: tensor<320xf32>, %arg76: tensor<320xf32>, %arg77: tensor<320xf32>, %arg78: tensor<2560x320xf32>, %arg79: tensor<2560xf32>, %arg80: tensor<320x1280xf32>, %arg81: tensor<320xf32>, %arg82: tensor<320x320xf32>, %arg83: tensor<320xf32>, %arg84: tensor<320x320x3x3xf32>, %arg85: tensor<320xf32>, %arg86: tensor<320xf32>, %arg87: tensor<320xf32>, %arg88: tensor<640x320x3x3xf32>, %arg89: tensor<640xf32>, %arg90: tensor<640x1280xf32>, %arg91: tensor<640xf32>, %arg92: tensor<640xf32>, %arg93: tensor<640xf32>, %arg94: tensor<640x640x3x3xf32>, %arg95: tensor<640xf32>, %arg96: tensor<640x320x1x1xf32>, %arg97: tensor<640xf32>, %arg98: tensor<640xf32>, %arg99: tensor<640xf32>, %arg100: tensor<640x640xf32>, %arg101: tensor<640xf32>, %arg102: tensor<640xf32>, %arg103: tensor<640xf32>, %arg104: tensor<640x640xf32>, %arg105: tensor<640x640xf32>, %arg106: tensor<640x640xf32>, %arg107: tensor<640x640xf32>, %arg108: tensor<640xf32>, %arg109: tensor<640xf32>, %arg110: tensor<640xf32>, %arg111: tensor<640x640xf32>, %arg112: tensor<640x1024xf32>, %arg113: tensor<1x12x1024xf32>, %arg114: tensor<640x1024xf32>, %arg115: tensor<1x12x1024xf32>, %arg116: tensor<640x640xf32>, %arg117: tensor<640xf32>, %arg118: tensor<640xf32>, %arg119: tensor<640xf32>, %arg120: tensor<5120x640xf32>, %arg121: tensor<5120xf32>, %arg122: tensor<640x2560xf32>, %arg123: tensor<640xf32>, %arg124: tensor<640x640xf32>, %arg125: tensor<640xf32>, %arg126: tensor<640xf32>, %arg127: tensor<640xf32>, %arg128: tensor<640x640x3x3xf32>, %arg129: tensor<640xf32>, %arg130: tensor<640x1280xf32>, %arg131: tensor<640xf32>, %arg132: tensor<640xf32>, %arg133: tensor<640xf32>, %arg134: tensor<640x640x3x3xf32>, %arg135: tensor<640xf32>, %arg136: tensor<640xf32>, %arg137: tensor<640xf32>, %arg138: tensor<640x640xf32>, %arg139: tensor<640xf32>, %arg140: tensor<640xf32>, %arg141: tensor<640xf32>, %arg142: tensor<640x640xf32>, %arg143: tensor<640x640xf32>, %arg144: tensor<640x640xf32>, %arg145: tensor<640x640xf32>, %arg146: tensor<640xf32>, %arg147: tensor<640xf32>, %arg148: tensor<640xf32>, %arg149: tensor<640x640xf32>, %arg150: tensor<640x1024xf32>, %arg151: tensor<1x12x1024xf32>, %arg152: tensor<640x1024xf32>, %arg153: tensor<1x12x1024xf32>, %arg154: tensor<640x640xf32>, %arg155: tensor<640xf32>, %arg156: tensor<640xf32>, %arg157: tensor<640xf32>, %arg158: tensor<5120x640xf32>, %arg159: tensor<5120xf32>, %arg160: tensor<640x2560xf32>, %arg161: tensor<640xf32>, %arg162: tensor<640x640xf32>, %arg163: tensor<640xf32>, %arg164: tensor<640x640x3x3xf32>, %arg165: tensor<640xf32>, %arg166: tensor<640xf32>, %arg167: tensor<640xf32>, %arg168: tensor<1280x640x3x3xf32>, %arg169: tensor<1280xf32>, %arg170: tensor<1280x1280xf32>, %arg171: tensor<1280xf32>, %arg172: tensor<1280xf32>, %arg173: tensor<1280xf32>, %arg174: tensor<1280x1280x3x3xf32>, %arg175: tensor<1280xf32>, %arg176: tensor<1280x640x1x1xf32>, %arg177: tensor<1280xf32>, %arg178: tensor<1280xf32>, %arg179: tensor<1280xf32>, %arg180: tensor<1280x1280xf32>, %arg181: tensor<1280xf32>, %arg182: tensor<1280xf32>, %arg183: tensor<1280xf32>, %arg184: tensor<1280x1280xf32>, %arg185: tensor<1280x1280xf32>, %arg186: tensor<1280x1280xf32>, %arg187: tensor<1280x1280xf32>, %arg188: tensor<1280xf32>, %arg189: tensor<1280xf32>, %arg190: tensor<1280xf32>, %arg191: tensor<1280x1280xf32>, %arg192: tensor<1280x1024xf32>, %arg193: tensor<1x12x1024xf32>, %arg194: tensor<1280x1024xf32>, %arg195: tensor<1x12x1024xf32>, %arg196: tensor<1280x1280xf32>, %arg197: tensor<1280xf32>, %arg198: tensor<1280xf32>, %arg199: tensor<1280xf32>, %arg200: tensor<10240x1280xf32>, %arg201: tensor<10240xf32>, %arg202: tensor<1280x5120xf32>, %arg203: tensor<1280xf32>, %arg204: tensor<1280x1280xf32>, %arg205: tensor<1280xf32>, %arg206: tensor<1280xf32>, %arg207: tensor<1280xf32>, %arg208: tensor<1280x1280x3x3xf32>, %arg209: tensor<1280xf32>, %arg210: tensor<1280x1280xf32>, %arg211: tensor<1280xf32>, %arg212: tensor<1280xf32>, %arg213: tensor<1280xf32>, %arg214: tensor<1280x1280x3x3xf32>, %arg215: tensor<1280xf32>, %arg216: tensor<1280xf32>, %arg217: tensor<1280xf32>, %arg218: tensor<1280x1280xf32>, %arg219: tensor<1280xf32>, %arg220: tensor<1280xf32>, %arg221: tensor<1280xf32>, %arg222: tensor<1280x1280xf32>, %arg223: tensor<1280x1280xf32>, %arg224: tensor<1280x1280xf32>, %arg225: tensor<1280x1280xf32>, %arg226: tensor<1280xf32>, %arg227: tensor<1280xf32>, %arg228: tensor<1280xf32>, %arg229: tensor<1280x1280xf32>, %arg230: tensor<1280x1024xf32>, %arg231: tensor<1x12x1024xf32>, %arg232: tensor<1280x1024xf32>, %arg233: tensor<1x12x1024xf32>, %arg234: tensor<1280x1280xf32>, %arg235: tensor<1280xf32>, %arg236: tensor<1280xf32>, %arg237: tensor<1280xf32>, %arg238: tensor<10240x1280xf32>, %arg239: tensor<10240xf32>, %arg240: tensor<1280x5120xf32>, %arg241: tensor<1280xf32>, %arg242: tensor<1280x1280xf32>, %arg243: tensor<1280xf32>, %arg244: tensor<1280x1280x3x3xf32>, %arg245: tensor<1280xf32>, %arg246: tensor<1280xf32>, %arg247: tensor<1280xf32>, %arg248: tensor<1280x1280x3x3xf32>, %arg249: tensor<1280xf32>, %arg250: tensor<1280x1280xf32>, %arg251: tensor<1280xf32>, %arg252: tensor<1280xf32>, %arg253: tensor<1280xf32>, %arg254: tensor<1280x1280x3x3xf32>, %arg255: tensor<1280xf32>, %arg256: tensor<1280xf32>, %arg257: tensor<1280xf32>, %arg258: tensor<1280x1280x3x3xf32>, %arg259: tensor<1280xf32>, %arg260: tensor<1280x1280xf32>, %arg261: tensor<1280xf32>, %arg262: tensor<1280xf32>, %arg263: tensor<1280xf32>, %arg264: tensor<1280x1280x3x3xf32>, %arg265: tensor<1280xf32>, %arg266: tensor<1280xf32>, %arg267: tensor<1280xf32>, %arg268: tensor<1280x1280x3x3xf32>, %arg269: tensor<1280xf32>, %arg270: tensor<1280x1280xf32>, %arg271: tensor<1280xf32>, %arg272: tensor<1280xf32>, %arg273: tensor<1280xf32>, %arg274: tensor<1280x1280x3x3xf32>, %arg275: tensor<1280xf32>, %arg276: tensor<1280xf32>, %arg277: tensor<1280xf32>, %arg278: tensor<1280x1280xf32>, %arg279: tensor<1280xf32>, %arg280: tensor<1280xf32>, %arg281: tensor<1280xf32>, %arg282: tensor<1280x1280xf32>, %arg283: tensor<1280x1280xf32>, %arg284: tensor<1280x1280xf32>, %arg285: tensor<1280x1280xf32>, %arg286: tensor<1280xf32>, %arg287: tensor<1280xf32>, %arg288: tensor<1280xf32>, %arg289: tensor<1280x1280xf32>, %arg290: tensor<1280x1024xf32>, %arg291: tensor<1x12x1024xf32>, %arg292: tensor<1280x1024xf32>, %arg293: tensor<1x12x1024xf32>, %arg294: tensor<1280x1280xf32>, %arg295: tensor<1280xf32>, %arg296: tensor<1280xf32>, %arg297: tensor<1280xf32>, %arg298: tensor<10240x1280xf32>, %arg299: tensor<10240xf32>, %arg300: tensor<1280x5120xf32>, %arg301: tensor<1280xf32>, %arg302: tensor<1280x1280xf32>, %arg303: tensor<1280xf32>, %arg304: tensor<1280xf32>, %arg305: tensor<1280xf32>, %arg306: tensor<1280x1280x3x3xf32>, %arg307: tensor<1280xf32>, %arg308: tensor<1280x1280xf32>, %arg309: tensor<1280xf32>, %arg310: tensor<1280xf32>, %arg311: tensor<1280xf32>, %arg312: tensor<1280x1280x3x3xf32>, %arg313: tensor<1280xf32>, %arg314: tensor<2560xf32>, %arg315: tensor<2560xf32>, %arg316: tensor<1280x2560x3x3xf32>, %arg317: tensor<1280xf32>, %arg318: tensor<1280x1280xf32>, %arg319: tensor<1280xf32>, %arg320: tensor<1280xf32>, %arg321: tensor<1280xf32>, %arg322: tensor<1280x1280x3x3xf32>, %arg323: tensor<1280xf32>, %arg324: tensor<1280x2560x1x1xf32>, %arg325: tensor<1280xf32>, %arg326: tensor<2560xf32>, %arg327: tensor<2560xf32>, %arg328: tensor<1280x2560x3x3xf32>, %arg329: tensor<1280xf32>, %arg330: tensor<1280x1280xf32>, %arg331: tensor<1280xf32>, %arg332: tensor<1280xf32>, %arg333: tensor<1280xf32>, %arg334: tensor<1280x1280x3x3xf32>, %arg335: tensor<1280xf32>, %arg336: tensor<1280x2560x1x1xf32>, %arg337: tensor<1280xf32>, %arg338: tensor<2560xf32>, %arg339: tensor<2560xf32>, %arg340: tensor<1280x2560x3x3xf32>, %arg341: tensor<1280xf32>, %arg342: tensor<1280x1280xf32>, %arg343: tensor<1280xf32>, %arg344: tensor<1280xf32>, %arg345: tensor<1280xf32>, %arg346: tensor<1280x1280x3x3xf32>, %arg347: tensor<1280xf32>, %arg348: tensor<1280x2560x1x1xf32>, %arg349: tensor<1280xf32>, %arg350: tensor<1280x1280x3x3xf32>, %arg351: tensor<1280xf32>, %arg352: tensor<2560xf32>, %arg353: tensor<2560xf32>, %arg354: tensor<1280x2560x3x3xf32>, %arg355: tensor<1280xf32>, %arg356: tensor<1280x1280xf32>, %arg357: tensor<1280xf32>, %arg358: tensor<1280xf32>, %arg359: tensor<1280xf32>, %arg360: tensor<1280x1280x3x3xf32>, %arg361: tensor<1280xf32>, %arg362: tensor<1280x2560x1x1xf32>, %arg363: tensor<1280xf32>, %arg364: tensor<1280xf32>, %arg365: tensor<1280xf32>, %arg366: tensor<1280x1280xf32>, %arg367: tensor<1280xf32>, %arg368: tensor<1280xf32>, %arg369: tensor<1280xf32>, %arg370: tensor<1280x1280xf32>, %arg371: tensor<1280x1280xf32>, %arg372: tensor<1280x1280xf32>, %arg373: tensor<1280x1280xf32>, %arg374: tensor<1280xf32>, %arg375: tensor<1280xf32>, %arg376: tensor<1280xf32>, %arg377: tensor<1280x1280xf32>, %arg378: tensor<1280x1024xf32>, %arg379: tensor<1x12x1024xf32>, %arg380: tensor<1280x1024xf32>, %arg381: tensor<1x12x1024xf32>, %arg382: tensor<1280x1280xf32>, %arg383: tensor<1280xf32>, %arg384: tensor<1280xf32>, %arg385: tensor<1280xf32>, %arg386: tensor<10240x1280xf32>, %arg387: tensor<10240xf32>, %arg388: tensor<1280x5120xf32>, %arg389: tensor<1280xf32>, %arg390: tensor<1280x1280xf32>, %arg391: tensor<1280xf32>, %arg392: tensor<2560xf32>, %arg393: tensor<2560xf32>, %arg394: tensor<1280x2560x3x3xf32>, %arg395: tensor<1280xf32>, %arg396: tensor<1280x1280xf32>, %arg397: tensor<1280xf32>, %arg398: tensor<1280xf32>, %arg399: tensor<1280xf32>, %arg400: tensor<1280x1280x3x3xf32>, %arg401: tensor<1280xf32>, %arg402: tensor<1280x2560x1x1xf32>, %arg403: tensor<1280xf32>, %arg404: tensor<1280xf32>, %arg405: tensor<1280xf32>, %arg406: tensor<1280x1280xf32>, %arg407: tensor<1280xf32>, %arg408: tensor<1280xf32>, %arg409: tensor<1280xf32>, %arg410: tensor<1280x1280xf32>, %arg411: tensor<1280x1280xf32>, %arg412: tensor<1280x1280xf32>, %arg413: tensor<1280x1280xf32>, %arg414: tensor<1280xf32>, %arg415: tensor<1280xf32>, %arg416: tensor<1280xf32>, %arg417: tensor<1280x1280xf32>, %arg418: tensor<1280x1024xf32>, %arg419: tensor<1x12x1024xf32>, %arg420: tensor<1280x1024xf32>, %arg421: tensor<1x12x1024xf32>, %arg422: tensor<1280x1280xf32>, %arg423: tensor<1280xf32>, %arg424: tensor<1280xf32>, %arg425: tensor<1280xf32>, %arg426: tensor<10240x1280xf32>, %arg427: tensor<10240xf32>, %arg428: tensor<1280x5120xf32>, %arg429: tensor<1280xf32>, %arg430: tensor<1280x1280xf32>, %arg431: tensor<1280xf32>, %arg432: tensor<1920xf32>, %arg433: tensor<1920xf32>, %arg434: tensor<1280x1920x3x3xf32>, %arg435: tensor<1280xf32>, %arg436: tensor<1280x1280xf32>, %arg437: tensor<1280xf32>, %arg438: tensor<1280xf32>, %arg439: tensor<1280xf32>, %arg440: tensor<1280x1280x3x3xf32>, %arg441: tensor<1280xf32>, %arg442: tensor<1280x1920x1x1xf32>, %arg443: tensor<1280xf32>, %arg444: tensor<1280xf32>, %arg445: tensor<1280xf32>, %arg446: tensor<1280x1280xf32>, %arg447: tensor<1280xf32>, %arg448: tensor<1280xf32>, %arg449: tensor<1280xf32>, %arg450: tensor<1280x1280xf32>, %arg451: tensor<1280x1280xf32>, %arg452: tensor<1280x1280xf32>, %arg453: tensor<1280x1280xf32>, %arg454: tensor<1280xf32>, %arg455: tensor<1280xf32>, %arg456: tensor<1280xf32>, %arg457: tensor<1280x1280xf32>, %arg458: tensor<1280x1024xf32>, %arg459: tensor<1x12x1024xf32>, %arg460: tensor<1280x1024xf32>, %arg461: tensor<1x12x1024xf32>, %arg462: tensor<1280x1280xf32>, %arg463: tensor<1280xf32>, %arg464: tensor<1280xf32>, %arg465: tensor<1280xf32>, %arg466: tensor<10240x1280xf32>, %arg467: tensor<10240xf32>, %arg468: tensor<1280x5120xf32>, %arg469: tensor<1280xf32>, %arg470: tensor<1280x1280xf32>, %arg471: tensor<1280xf32>, %arg472: tensor<1280x1280x3x3xf32>, %arg473: tensor<1280xf32>, %arg474: tensor<1920xf32>, %arg475: tensor<1920xf32>, %arg476: tensor<640x1920x3x3xf32>, %arg477: tensor<640xf32>, %arg478: tensor<640x1280xf32>, %arg479: tensor<640xf32>, %arg480: tensor<640xf32>, %arg481: tensor<640xf32>, %arg482: tensor<640x640x3x3xf32>, %arg483: tensor<640xf32>, %arg484: tensor<640x1920x1x1xf32>, %arg485: tensor<640xf32>, %arg486: tensor<640xf32>, %arg487: tensor<640xf32>, %arg488: tensor<640x640xf32>, %arg489: tensor<640xf32>, %arg490: tensor<640xf32>, %arg491: tensor<640xf32>, %arg492: tensor<640x640xf32>, %arg493: tensor<640x640xf32>, %arg494: tensor<640x640xf32>, %arg495: tensor<640x640xf32>, %arg496: tensor<640xf32>, %arg497: tensor<640xf32>, %arg498: tensor<640xf32>, %arg499: tensor<640x640xf32>, %arg500: tensor<640x1024xf32>, %arg501: tensor<1x12x1024xf32>, %arg502: tensor<640x1024xf32>, %arg503: tensor<1x12x1024xf32>, %arg504: tensor<640x640xf32>, %arg505: tensor<640xf32>, %arg506: tensor<640xf32>, %arg507: tensor<640xf32>, %arg508: tensor<5120x640xf32>, %arg509: tensor<5120xf32>, %arg510: tensor<640x2560xf32>, %arg511: tensor<640xf32>, %arg512: tensor<640x640xf32>, %arg513: tensor<640xf32>, %arg514: tensor<1280xf32>, %arg515: tensor<1280xf32>, %arg516: tensor<640x1280x3x3xf32>, %arg517: tensor<640xf32>, %arg518: tensor<640x1280xf32>, %arg519: tensor<640xf32>, %arg520: tensor<640xf32>, %arg521: tensor<640xf32>, %arg522: tensor<640x640x3x3xf32>, %arg523: tensor<640xf32>, %arg524: tensor<640x1280x1x1xf32>, %arg525: tensor<640xf32>, %arg526: tensor<640xf32>, %arg527: tensor<640xf32>, %arg528: tensor<640x640xf32>, %arg529: tensor<640xf32>, %arg530: tensor<640xf32>, %arg531: tensor<640xf32>, %arg532: tensor<640x640xf32>, %arg533: tensor<640x640xf32>, %arg534: tensor<640x640xf32>, %arg535: tensor<640x640xf32>, %arg536: tensor<640xf32>, %arg537: tensor<640xf32>, %arg538: tensor<640xf32>, %arg539: tensor<640x640xf32>, %arg540: tensor<640x1024xf32>, %arg541: tensor<1x12x1024xf32>, %arg542: tensor<640x1024xf32>, %arg543: tensor<1x12x1024xf32>, %arg544: tensor<640x640xf32>, %arg545: tensor<640xf32>, %arg546: tensor<640xf32>, %arg547: tensor<640xf32>, %arg548: tensor<5120x640xf32>, %arg549: tensor<5120xf32>, %arg550: tensor<640x2560xf32>, %arg551: tensor<640xf32>, %arg552: tensor<640x640xf32>, %arg553: tensor<640xf32>, %arg554: tensor<960xf32>, %arg555: tensor<960xf32>, %arg556: tensor<640x960x3x3xf32>, %arg557: tensor<640xf32>, %arg558: tensor<640x1280xf32>, %arg559: tensor<640xf32>, %arg560: tensor<640xf32>, %arg561: tensor<640xf32>, %arg562: tensor<640x640x3x3xf32>, %arg563: tensor<640xf32>, %arg564: tensor<640x960x1x1xf32>, %arg565: tensor<640xf32>, %arg566: tensor<640xf32>, %arg567: tensor<640xf32>, %arg568: tensor<640x640xf32>, %arg569: tensor<640xf32>, %arg570: tensor<640xf32>, %arg571: tensor<640xf32>, %arg572: tensor<640x640xf32>, %arg573: tensor<640x640xf32>, %arg574: tensor<640x640xf32>, %arg575: tensor<640x640xf32>, %arg576: tensor<640xf32>, %arg577: tensor<640xf32>, %arg578: tensor<640xf32>, %arg579: tensor<640x640xf32>, %arg580: tensor<640x1024xf32>, %arg581: tensor<1x12x1024xf32>, %arg582: tensor<640x1024xf32>, %arg583: tensor<1x12x1024xf32>, %arg584: tensor<640x640xf32>, %arg585: tensor<640xf32>, %arg586: tensor<640xf32>, %arg587: tensor<640xf32>, %arg588: tensor<5120x640xf32>, %arg589: tensor<5120xf32>, %arg590: tensor<640x2560xf32>, %arg591: tensor<640xf32>, %arg592: tensor<640x640xf32>, %arg593: tensor<640xf32>, %arg594: tensor<640x640x3x3xf32>, %arg595: tensor<640xf32>, %arg596: tensor<960xf32>, %arg597: tensor<960xf32>, %arg598: tensor<320x960x3x3xf32>, %arg599: tensor<320xf32>, %arg600: tensor<320x1280xf32>, %arg601: tensor<320xf32>, %arg602: tensor<320xf32>, %arg603: tensor<320xf32>, %arg604: tensor<320x320x3x3xf32>, %arg605: tensor<320xf32>, %arg606: tensor<320x960x1x1xf32>, %arg607: tensor<320xf32>, %arg608: tensor<320xf32>, %arg609: tensor<320xf32>, %arg610: tensor<320x320xf32>, %arg611: tensor<320xf32>, %arg612: tensor<320xf32>, %arg613: tensor<320xf32>, %arg614: tensor<320x320xf32>, %arg615: tensor<320x320xf32>, %arg616: tensor<320x320xf32>, %arg617: tensor<320x320xf32>, %arg618: tensor<320xf32>, %arg619: tensor<320xf32>, %arg620: tensor<320xf32>, %arg621: tensor<320x320xf32>, %arg622: tensor<320x1024xf32>, %arg623: tensor<1x12x1024xf32>, %arg624: tensor<320x1024xf32>, %arg625: tensor<1x12x1024xf32>, %arg626: tensor<320x320xf32>, %arg627: tensor<320xf32>, %arg628: tensor<320xf32>, %arg629: tensor<320xf32>, %arg630: tensor<2560x320xf32>, %arg631: tensor<2560xf32>, %arg632: tensor<320x1280xf32>, %arg633: tensor<320xf32>, %arg634: tensor<320x320xf32>, %arg635: tensor<320xf32>, %arg636: tensor<640xf32>, %arg637: tensor<640xf32>, %arg638: tensor<320x640x3x3xf32>, %arg639: tensor<320xf32>, %arg640: tensor<320x1280xf32>, %arg641: tensor<320xf32>, %arg642: tensor<320xf32>, %arg643: tensor<320xf32>, %arg644: tensor<320x320x3x3xf32>, %arg645: tensor<320xf32>, %arg646: tensor<320x640x1x1xf32>, %arg647: tensor<320xf32>, %arg648: tensor<320xf32>, %arg649: tensor<320xf32>, %arg650: tensor<320x320xf32>, %arg651: tensor<320xf32>, %arg652: tensor<320xf32>, %arg653: tensor<320xf32>, %arg654: tensor<320x320xf32>, %arg655: tensor<320x320xf32>, %arg656: tensor<320x320xf32>, %arg657: tensor<320x320xf32>, %arg658: tensor<320xf32>, %arg659: tensor<320xf32>, %arg660: tensor<320xf32>, %arg661: tensor<320x320xf32>, %arg662: tensor<320x1024xf32>, %arg663: tensor<1x12x1024xf32>, %arg664: tensor<320x1024xf32>, %arg665: tensor<1x12x1024xf32>, %arg666: tensor<320x320xf32>, %arg667: tensor<320xf32>, %arg668: tensor<320xf32>, %arg669: tensor<320xf32>, %arg670: tensor<2560x320xf32>, %arg671: tensor<2560xf32>, %arg672: tensor<320x1280xf32>, %arg673: tensor<320xf32>, %arg674: tensor<320x320xf32>, %arg675: tensor<320xf32>, %arg676: tensor<640xf32>, %arg677: tensor<640xf32>, %arg678: tensor<320x640x3x3xf32>, %arg679: tensor<320xf32>, %arg680: tensor<320x1280xf32>, %arg681: tensor<320xf32>, %arg682: tensor<320xf32>, %arg683: tensor<320xf32>, %arg684: tensor<320x320x3x3xf32>, %arg685: tensor<320xf32>, %arg686: tensor<320x640x1x1xf32>, %arg687: tensor<320xf32>, %arg688: tensor<320xf32>, %arg689: tensor<320xf32>, %arg690: tensor<320x320xf32>, %arg691: tensor<320xf32>, %arg692: tensor<320xf32>, %arg693: tensor<320xf32>, %arg694: tensor<320x320xf32>, %arg695: tensor<320x320xf32>, %arg696: tensor<320x320xf32>, %arg697: tensor<320x320xf32>, %arg698: tensor<320xf32>, %arg699: tensor<320xf32>, %arg700: tensor<320xf32>, %arg701: tensor<320x320xf32>, %arg702: tensor<320x1024xf32>, %arg703: tensor<1x12x1024xf32>, %arg704: tensor<320x1024xf32>, %arg705: tensor<1x12x1024xf32>, %arg706: tensor<320x320xf32>, %arg707: tensor<320xf32>, %arg708: tensor<320xf32>, %arg709: tensor<320xf32>, %arg710: tensor<2560x320xf32>, %arg711: tensor<2560xf32>, %arg712: tensor<320x1280xf32>, %arg713: tensor<320xf32>, %arg714: tensor<320x320xf32>, %arg715: tensor<320xf32>, %arg716: tensor<320xf32>, %arg717: tensor<320xf32>, %arg718: tensor<4x320x3x3xf32>, %arg719: tensor<4xf32>):
    %0 = "tosa.const"() <{value = dense<0.000000e+00> : tensor<1xf32>}> : () -> tensor<1xf32>
    %1 = "tosa.add"(%arg0, %0) : (tensor<1xf32>, tensor<1xf32>) -> tensor<1xf32>
    %2 = "tosa.const"() <{value = dense<"…"> : tensor<160xi64>}> : () -> tensor<160xi64>
    %3 = "tosa.cast"(%2) : (tensor<160xi64>) -> tensor<160xf32>
    %4 = "tosa.const"() <{value = dense<1.000000e+00> : tensor<160xf32>}> : () -> tensor<160xf32>
    %5 = "tosa.mul"(%3, %4) <{shift = 0 : i8}> : (tensor<160xf32>, tensor<160xf32>) -> tensor<160xf32>
    %6 = "tosa.const"() <{value = dense<0.000000e+00> : tensor<160xf32>}> : () -> tensor<160xf32>
    %7 = "tosa.add"(%5, %6) : (tensor<160xf32>, tensor<160xf32>) -> tensor<160xf32>
    %8 = "tosa.const"() <{value = dense<-9.21034049> : tensor<160xf32>}> : () -> tensor<160xf32>
    %9 = "tosa.mul"(%7, %8) <{shift = 0 : i8}> : (tensor<160xf32>, tensor<160xf32>) -> tensor<160xf32>
    %10 = "tosa.const"() <{value = dense<1.600000e+02> : tensor<160xf32>}> : () -> tensor<160xf32>
    %11 = "tosa.reciprocal"(%10) : (tensor<160xf32>) -> tensor<160xf32>
    %12 = "tosa.mul"(%9, %11) <{shift = 0 : i8}> : (tensor<160xf32>, tensor<160xf32>) -> tensor<160xf32>
    %13 = "tosa.exp"(%12) : (tensor<160xf32>) -> tensor<160xf32>
    %14 = "tensor.extract_slice"(%1) <{operandSegmentSizes = array<i32: 1, 0, 0, 0>, static_offsets = array<i64: 0>, static_sizes = array<i64: 1>, static_strides = array<i64: 1>}> : (tensor<1xf32>) -> tensor<1xf32>
    %15 = "tosa.reshape"(%14) <{new_shape = array<i64: 1, 1>}> : (tensor<1xf32>) -> tensor<1x1xf32>
    %16 = "tosa.reshape"(%13) <{new_shape = array<i64: 1, 160>}> : (tensor<160xf32>) -> tensor<1x160xf32>
    %17 = "tensor.extract_slice"(%16) <{operandSegmentSizes = array<i32: 1, 0, 0, 0>, static_offsets = array<i64: 0, 0>, static_sizes = array<i64: 1, 160>, static_strides = array<i64: 1, 1>}> : (tensor<1x160xf32>) -> tensor<1x160xf32>
    %18 = "tosa.mul"(%15, %17) <{shift = 0 : i8}> : (tensor<1x1xf32>, tensor<1x160xf32>) -> tensor<1x160xf32>
    %19 = "tosa.const"() <{value = dense<1.000000e+00> : tensor<1x160xf32>}> : () -> tensor<1x160xf32>
    %20 = "tosa.mul"(%18, %19) <{shift = 0 : i8}> : (tensor<1x160xf32>, tensor<1x160xf32>) -> tensor<1x160xf32>
    %21 = "math.sin"(%20) <{fastmath = #arith.fastmath<none>}> : (tensor<1x160xf32>) -> tensor<1x160xf32>
    %22 = "math.cos"(%20) <{fastmath = #arith.fastmath<none>}> : (tensor<1x160xf32>) -> tensor<1x160xf32>
    %23 = "tensor.empty"() : () -> tensor<1x320xf32>
    %24 = "tensor.insert_slice"(%21, %23) <{operandSegmentSizes = array<i32: 1, 1, 0, 0, 0>, static_offsets = array<i64: 0, 0>, static_sizes = array<i64: 1, 160>, static_strides = array<i64: 1, 1>}> : (tensor<1x160xf32>, tensor<1x320xf32>) -> tensor<1x320xf32>
    %25 = "tensor.insert_slice"(%22, %24) <{operandSegmentSizes = array<i32: 1, 1, 0, 0, 0>, static_offsets = array<i64: 0, 160>, static_sizes = array<i64: 1, 160>, static_strides = array<i64: 1, 1>}> : (tensor<1x160xf32>, tensor<1x320xf32>) -> tensor<1x320xf32>
    %26 = "tensor.extract_slice"(%25) <{operandSegmentSizes = array<i32: 1, 0, 0, 0>, static_offsets = array<i64: 0, 0>, static_sizes = array<i64: 1, 320>, static_strides = array<i64: 1, 1>}> : (tensor<1x320xf32>) -> tensor<1x320xf32>
    %27 = "tensor.extract_slice"(%26) <{operandSegmentSizes = array<i32: 1, 0, 0, 0>, static_offsets = array<i64: 0, 160>, static_sizes = array<i64: 1, 160>, static_strides = array<i64: 1, 1>}> : (tensor<1x320xf32>) -> tensor<1x160xf32>
    %28 = "tensor.extract_slice"(%25) <{operandSegmentSizes = array<i32: 1, 0, 0, 0>, static_offsets = array<i64: 0, 0>, static_sizes = array<i64: 1, 320>, static_strides = array<i64: 1, 1>}> : (tensor<1x320xf32>) -> tensor<1x320xf32>
    %29 = "tensor.extract_slice"(%28) <{operandSegmentSizes = array<i32: 1, 0, 0, 0>, static_offsets = array<i64: 0, 0>, static_sizes = array<i64: 1, 160>, static_strides = array<i64: 1, 1>}> : (tensor<1x320xf32>) -> tensor<1x160xf32>
    %30 = "tensor.empty"() : () -> tensor<1x320xf32>
    %31 = "tensor.insert_slice"(%27, %30) <{operandSegmentSizes = array<i32: 1, 1, 0, 0, 0>, static_offsets = array<i64: 0, 0>, static_sizes = array<i64: 1, 160>, static_strides = array<i64: 1, 1>}> : (tensor<1x160xf32>, tensor<1x320xf32>) -> tensor<1x320xf32>
    %32 = "tensor.insert_slice"(%29, %31) <{operandSegmentSizes = array<i32: 1, 1, 0, 0, 0>, static_offsets = array<i64: 0, 160>, static_sizes = array<i64: 1, 160>, static_strides = array<i64: 1, 1>}> : (tensor<1x160xf32>, tensor<1x320xf32>) -> tensor<1x320xf32>
    %33 = "tosa.const"() <{value = dense<[1, 0]> : tensor<2xi32>}> : () -> tensor<2xi32>
    %34 = "tosa.transpose"(%arg1, %33) : (tensor<1280x320xf32>, tensor<2xi32>) -> tensor<320x1280xf32>
    %35 = "tosa.reshape"(%32) <{new_shape = array<i64: 1, 1, 320>}> : (tensor<1x320xf32>) -> tensor<1x1x320xf32>
    %36 = "tosa.reshape"(%34) <{new_shape = array<i64: 1, 320, 1280>}> : (tensor<320x1280xf32>) -> tensor<1x320x1280xf32>
    %37 = "tosa.matmul"(%35, %36) : (tensor<1x1x320xf32>, tensor<1x320x1280xf32>) -> tensor<1x1x1280xf32>
    %38 = "tosa.reshape"(%37) <{new_shape = array<i64: 1, 1280>}> : (tensor<1x1x1280xf32>) -> tensor<1x1280xf32>
    %39 = "tosa.reshape"(%arg2) <{new_shape = array<i64: 1, 1280>}> : (tensor<1280xf32>) -> tensor<1x1280xf32>
    %40 = "tosa.add"(%39, %38) : (tensor<1x1280xf32>, tensor<1x1280xf32>) -> tensor<1x1280xf32>
    %41 = "tosa.sigmoid"(%40) : (tensor<1x1280xf32>) -> tensor<1x1280xf32>
    %42 = "tosa.mul"(%40, %41) <{shift = 0 : i8}> : (tensor<1x1280xf32>, tensor<1x1280xf32>) -> tensor<1x1280xf32>
    %43 = "tosa.const"() <{value = dense<[1, 0]> : tensor<2xi32>}> : () -> tensor<2xi32>
    %44 = "tosa.transpose"(%arg3, %43) : (tensor<1280x1280xf32>, tensor<2xi32>) -> tensor<1280x1280xf32>
    %45 = "tosa.reshape"(%42) <{new_shape = array<i64: 1, 1, 1280>}> : (tensor<1x1280xf32>) -> tensor<1x1x1280xf32>
    %46 = "tosa.reshape"(%44) <{new_shape = array<i64: 1, 1280, 1280>}> : (tensor<1280x1280xf32>) -> tensor<1x1280x1280xf32>
    %47 = "tosa.matmul"(%45, %46) : (tensor<1x1x1280xf32>, tensor<1x1280x1280xf32>) -> tensor<1x1x1280xf32>
    %48 = "tosa.reshape"(%47) <{new_shape = array<i64: 1, 1280>}> : (tensor<1x1x1280xf32>) -> tensor<1x1280xf32>
    %49 = "tosa.reshape"(%arg4) <{new_shape = array<i64: 1, 1280>}> : (tensor<1280xf32>) -> tensor<1x1280xf32>
    %50 = "tosa.add"(%49, %48) : (tensor<1x1280xf32>, tensor<1x1280xf32>) -> tensor<1x1280xf32>
    %51 = "tosa.const"() <{value = dense<[0, 2, 3, 1]> : tensor<4xi32>}> : () -> tensor<4xi32>
    %52 = "tosa.transpose"(%arg5, %51) : (tensor<1x4x64x64xf32>, tensor<4xi32>) -> tensor<1x64x64x4xf32>
    %53 = "tosa.const"() <{value = dense<[0, 2, 3, 1]> : tensor<4xi32>}> : () -> tensor<4xi32>
    %54 = "tosa.transpose"(%arg6, %53) : (tensor<320x4x3x3xf32>, tensor<4xi32>) -> tensor<320x3x3x4xf32>
    %55 = "tosa.conv2d"(%52, %54, %arg7) <{dilation = array<i64: 1, 1>, pad = array<i64: 1, 1, 1, 1>, stride = array<i64: 1, 1>}> : (tensor<1x64x64x4xf32>, tensor<320x3x3x4xf32>, tensor<320xf32>) -> tensor<1x64x64x320xf32>
    %56 = "tosa.const"() <{value = dense<[0, 3, 1, 2]> : tensor<4xi32>}> : () -> tensor<4xi32>
    %57 = "tosa.transpose"(%55, %56) : (tensor<1x64x64x320xf32>, tensor<4xi32>) -> tensor<1x320x64x64xf32>
    %58 = "tosa.reshape"(%57) <{new_shape = array<i64: 1, 32, 10, 4096>}> : (tensor<1x320x64x64xf32>) -> tensor<1x32x10x4096xf32>
    %59 = "tosa.reduce_sum"(%58) <{axis = 2 : i32}> : (tensor<1x32x10x4096xf32>) -> tensor<1x32x1x4096xf32>
    %60 = "tosa.reduce_sum"(%59) <{axis = 3 : i32}> : (tensor<1x32x1x4096xf32>) -> tensor<1x32x1x1xf32>
    %61 = "tosa.const"() <{value = dense<4.096000e+04> : tensor<1xf32>}> : () -> tensor<1xf32>
    %62 = "tosa.reciprocal"(%61) : (tensor<1xf32>) -> tensor<1xf32>
    %63 = "tosa.mul"(%62, %60) <{shift = 0 : i8}> : (tensor<1xf32>, tensor<1x32x1x1xf32>) -> tensor<1x32x1x1xf32>
    %64 = "tosa.sub"(%58, %63) : (tensor<1x32x10x4096xf32>, tensor<1x32x1x1xf32>) -> tensor<1x32x10x4096xf32>
    %65 = "tosa.mul"(%64, %64) <{shift = 0 : i8}> : (tensor<1x32x10x4096xf32>, tensor<1x32x10x4096xf32>) -> tensor<1x32x10x4096xf32>
    %66 = "tosa.reduce_sum"(%65) <{axis = 2 : i32}> : (tensor<1x32x10x4096xf32>) -> tensor<1x32x1x4096xf32>
    %67 = "tosa.reduce_sum"(%66) <{axis = 3 : i32}> : (tensor<1x32x1x4096xf32>) -> tensor<1x32x1x1xf32>
    %68 = "tosa.const"() <{value = dense<4.096000e+04> : tensor<1xf32>}> : () -> tensor<1xf32>
    %69 = "tosa.reciprocal"(%68) : (tensor<1xf32>) -> tensor<1xf32>
    %70 = "tosa.mul"(%69, %67) <{shift = 0 : i8}> : (tensor<1xf32>, tensor<1x32x1x1xf32>) -> tensor<1x32x1x1xf32>
    %71 = "tosa.const"() <{value = dense<9.99999974E-6> : tensor<1x32x1x1xf32>}> : () -> tensor<1x32x1x1xf32>
    %72 = "tosa.add"(%70, %71) : (tensor<1x32x1x1xf32>, tensor<1x32x1x1xf32>) -> tensor<1x32x1x1xf32>
    %73 = "tosa.rsqrt"(%72) : (tensor<1x32x1x1xf32>) -> tensor<1x32x1x1xf32>
    %74 = "tosa.sub"(%58, %63) : (tensor<1x32x10x4096xf32>, tensor<1x32x1x1xf32>) -> tensor<1x32x10x4096xf32>
    %75 = "tosa.mul"(%74, %73) <{shift = 0 : i8}> : (tensor<1x32x10x4096xf32>, tensor<1x32x1x1xf32>) -> tensor<1x32x10x4096xf32>
    %76 = "tosa.reshape"(%75) <{new_shape = array<i64: 1, 320, 64, 64>}> : (tensor<1x32x10x4096xf32>) -> tensor<1x320x64x64xf32>
    %77 = "tosa.reshape"(%arg8) <{new_shape = array<i64: 1, 320>}> : (tensor<320xf32>) -> tensor<1x320xf32>
    %78 = "tosa.reshape"(%77) <{new_shape = array<i64: 1, 320, 1>}> : (tensor<1x320xf32>) -> tensor<1x320x1xf32>
    %79 = "tosa.reshape"(%78) <{new_shape = array<i64: 1, 320, 1, 1>}> : (tensor<1x320x1xf32>) -> tensor<1x320x1x1xf32>
    %80 = "tosa.reshape"(%arg9) <{new_shape = array<i64: 1, 320>}> : (tensor<320xf32>) -> tensor<1x320xf32>
    %81 = "tosa.reshape"(%80) <{new_shape = array<i64: 1, 320, 1>}> : (tensor<1x320xf32>) -> tensor<1x320x1xf32>
    %82 = "tosa.reshape"(%81) <{new_shape = array<i64: 1, 320, 1, 1>}> : (tensor<1x320x1xf32>) -> tensor<1x320x1x1xf32>
    %83 = "tosa.mul"(%76, %82) <{shift = 0 : i8}> : (tensor<1x320x64x64xf32>, tensor<1x320x1x1xf32>) -> tensor<1x320x64x64xf32>
    %84 = "tosa.add"(%83, %79) : (tensor<1x320x64x64xf32>, tensor<1x320x1x1xf32>) -> tensor<1x320x64x64xf32>
    %85 = "tosa.sigmoid"(%84) : (tensor<1x320x64x64xf32>) -> tensor<1x320x64x64xf32>
    %86 = "tosa.mul"(%84, %85) <{shift = 0 : i8}> : (tensor<1x320x64x64xf32>, tensor<1x320x64x64xf32>) -> tensor<1x320x64x64xf32>
    %87 = "tosa.const"() <{value = dense<[0, 2, 3, 1]> : tensor<4xi32>}> : () -> tensor<4xi32>
    %88 = "tosa.transpose"(%86, %87) : (tensor<1x320x64x64xf32>, tensor<4xi32>) -> tensor<1x64x64x320xf32>
    %89 = "tosa.const"() <{value = dense<[0, 2, 3, 1]> : tensor<4xi32>}> : () -> tensor<4xi32>
    %90 = "tosa.transpose"(%arg10, %89) : (tensor<320x320x3x3xf32>, tensor<4xi32>) -> tensor<320x3x3x320xf32>
    %91 = "tosa.conv2d"(%88, %90, %arg11) <{dilation = array<i64: 1, 1>, pad = array<i64: 1, 1, 1, 1>, stride = array<i64: 1, 1>}> : (tensor<1x64x64x320xf32>, tensor<320x3x3x320xf32>, tensor<320xf32>) -> tensor<1x64x64x320xf32>
    %92 = "tosa.const"() <{value = dense<[0, 3, 1, 2]> : tensor<4xi32>}> : () -> tensor<4xi32>
    %93 = "tosa.transpose"(%91, %92) : (tensor<1x64x64x320xf32>, tensor<4xi32>) -> tensor<1x320x64x64xf32>
    %94 = "tosa.sigmoid"(%50) : (tensor<1x1280xf32>) -> tensor<1x1280xf32>
    %95 = "tosa.mul"(%50, %94) <{shift = 0 : i8}> : (tensor<1x1280xf32>, tensor<1x1280xf32>) -> tensor<1x1280xf32>
    %96 = "tosa.const"() <{value = dense<[1, 0]> : tensor<2xi32>}> : () -> tensor<2xi32>
    %97 = "tosa.transpose"(%arg12, %96) : (tensor<320x1280xf32>, tensor<2xi32>) -> tensor<1280x320xf32>
    %98 = "tosa.reshape"(%95) <{new_shape = array<i64: 1, 1, 1280>}> : (tensor<1x1280xf32>) -> tensor<1x1x1280xf32>
    %99 = "tosa.reshape"(%97) <{new_shape = array<i64: 1, 1280, 320>}> : (tensor<1280x320xf32>) -> tensor<1x1280x320xf32>
    %100 = "tosa.matmul"(%98, %99) : (tensor<1x1x1280xf32>, tensor<1x1280x320xf32>) -> tensor<1x1x320xf32>
    %101 = "tosa.reshape"(%100) <{new_shape = array<i64: 1, 320>}> : (tensor<1x1x320xf32>) -> tensor<1x320xf32>
    %102 = "tosa.reshape"(%arg13) <{new_shape = array<i64: 1, 320>}> : (tensor<320xf32>) -> tensor<1x320xf32>
    %103 = "tosa.add"(%102, %101) : (tensor<1x320xf32>, tensor<1x320xf32>) -> tensor<1x320xf32>
    %104 = "tensor.extract_slice"(%103) <{operandSegmentSizes = array<i32: 1, 0, 0, 0>, static_offsets = array<i64: 0, 0>, static_sizes = array<i64: 1, 320>, static_strides = array<i64: 1, 1>}> : (tensor<1x320xf32>) -> tensor<1x320xf32>
    %105 = "tensor.extract_slice"(%104) <{operandSegmentSizes = array<i32: 1, 0, 0, 0>, static_offsets = array<i64: 0, 0>, static_sizes = array<i64: 1, 320>, static_strides = array<i64: 1, 1>}> : (tensor<1x320xf32>) -> tensor<1x320xf32>
    %106 = "tosa.reshape"(%105) <{new_shape = array<i64: 1, 320, 1>}> : (tensor<1x320xf32>) -> tensor<1x320x1xf32>
    %107 = "tosa.reshape"(%106) <{new_shape = array<i64: 1, 320, 1, 1>}> : (tensor<1x320x1xf32>) -> tensor<1x320x1x1xf32>
    %108 = "tosa.add"(%93, %107) : (tensor<1x320x64x64xf32>, tensor<1x320x1x1xf32>) -> tensor<1x320x64x64xf32>
    %109 = "tosa.reshape"(%108) <{new_shape = array<i64: 1, 32, 10, 4096>}> : (tensor<1x320x64x64xf32>) -> tensor<1x32x10x4096xf32>
    %110 = "tosa.reduce_sum"(%109) <{axis = 2 : i32}> : (tensor<1x32x10x4096xf32>) -> tensor<1x32x1x4096xf32>
    %111 = "tosa.reduce_sum"(%110) <{axis = 3 : i32}> : (tensor<1x32x1x4096xf32>) -> tensor<1x32x1x1xf32>
    %112 = "tosa.const"() <{value = dense<4.096000e+04> : tensor<1xf32>}> : () -> tensor<1xf32>
    %113 = "tosa.reciprocal"(%112) : (tensor<1xf32>) -> tensor<1xf32>
    %114 = "tosa.mul"(%113, %111) <{shift = 0 : i8}> : (tensor<1xf32>, tensor<1x32x1x1xf32>) -> tensor<1x32x1x1xf32>
    %115 = "tosa.sub"(%109, %114) : (tensor<1x32x10x4096xf32>, tensor<1x32x1x1xf32>) -> tensor<1x32x10x4096xf32>
    %116 = "tosa.mul"(%115, %115) <{shift = 0 : i8}> : (tensor<1x32x10x4096xf32>, tensor<1x32x10x4096xf32>) -> tensor<1x32x10x4096xf32>
    %117 = "tosa.reduce_sum"(%116) <{axis = 2 : i32}> : (tensor<1x32x10x4096xf32>) -> tensor<1x32x1x4096xf32>
    %118 = "tosa.reduce_sum"(%117) <{axis = 3 : i32}> : (tensor<1x32x1x4096xf32>) -> tensor<1x32x1x1xf32>
    %119 = "tosa.const"() <{value = dense<4.096000e+04> : tensor<1xf32>}> : () -> tensor<1xf32>
    %120 = "tosa.reciprocal"(%119) : (tensor<1xf32>) -> tensor<1xf32>
    %121 = "tosa.mul"(%120, %118) <{shift = 0 : i8}> : (tensor<1xf32>, tensor<1x32x1x1xf32>) -> tensor<1x32x1x1xf32>
    %122 = "tosa.const"() <{value = dense<9.99999974E-6> : tensor<1x32x1x1xf32>}> : () -> tensor<1x32x1x1xf32>
    %123 = "tosa.add"(%121, %122) : (tensor<1x32x1x1xf32>, tensor<1x32x1x1xf32>) -> tensor<1x32x1x1xf32>
    %124 = "tosa.rsqrt"(%123) : (tensor<1x32x1x1xf32>) -> tensor<1x32x1x1xf32>
    %125 = "tosa.sub"(%109, %114) : (tensor<1x32x10x4096xf32>, tensor<1x32x1x1xf32>) -> tensor<1x32x10x4096xf32>
    %126 = "tosa.mul"(%125, %124) <{shift = 0 : i8}> : (tensor<1x32x10x4096xf32>, tensor<1x32x1x1xf32>) -> tensor<1x32x10x4096xf32>
    %127 = "tosa.reshape"(%126) <{new_shape = array<i64: 1, 320, 64, 64>}> : (tensor<1x32x10x4096xf32>) -> tensor<1x320x64x64xf32>
    %128 = "tosa.reshape"(%arg14) <{new_shape = array<i64: 1, 320>}> : (tensor<320xf32>) -> tensor<1x320xf32>
    %129 = "tosa.reshape"(%128) <{new_shape = array<i64: 1, 320, 1>}> : (tensor<1x320xf32>) -> tensor<1x320x1xf32>
    %130 = "tosa.reshape"(%129) <{new_shape = array<i64: 1, 320, 1, 1>}> : (tensor<1x320x1xf32>) -> tensor<1x320x1x1xf32>
    %131 = "tosa.reshape"(%arg15) <{new_shape = array<i64: 1, 320>}> : (tensor<320xf32>) -> tensor<1x320xf32>
    %132 = "tosa.reshape"(%131) <{new_shape = array<i64: 1, 320, 1>}> : (tensor<1x320xf32>) -> tensor<1x320x1xf32>
    %133 = "tosa.reshape"(%132) <{new_shape = array<i64: 1, 320, 1, 1>}> : (tensor<1x320x1xf32>) -> tensor<1x320x1x1xf32>
    %134 = "tosa.mul"(%127, %133) <{shift = 0 : i8}> : (tensor<1x320x64x64xf32>, tensor<1x320x1x1xf32>) -> tensor<1x320x64x64xf32>
    %135 = "tosa.add"(%134, %130) : (tensor<1x320x64x64xf32>, tensor<1x320x1x1xf32>) -> tensor<1x320x64x64xf32>
    %136 = "tosa.sigmoid"(%135) : (tensor<1x320x64x64xf32>) -> tensor<1x320x64x64xf32>
    %137 = "tosa.mul"(%135, %136) <{shift = 0 : i8}> : (tensor<1x320x64x64xf32>, tensor<1x320x64x64xf32>) -> tensor<1x320x64x64xf32>
    %138 = "tosa.identity"(%137) : (tensor<1x320x64x64xf32>) -> tensor<1x320x64x64xf32>
    %139 = "tosa.const"() <{value = dense<[0, 2, 3, 1]> : tensor<4xi32>}> : () -> tensor<4xi32>
    %140 = "tosa.transpose"(%138, %139) : (tensor<1x320x64x64xf32>, tensor<4xi32>) -> tensor<1x64x64x320xf32>
    %141 = "tosa.const"() <{value = dense<[0, 2, 3, 1]> : tensor<4xi32>}> : () -> tensor<4xi32>
    %142 = "tosa.transpose"(%arg16, %141) : (tensor<320x320x3x3xf32>, tensor<4xi32>) -> tensor<320x3x3x320xf32>
    %143 = "tosa.conv2d"(%140, %142, %arg17) <{dilation = array<i64: 1, 1>, pad = array<i64: 1, 1, 1, 1>, stride = array<i64: 1, 1>}> : (tensor<1x64x64x320xf32>, tensor<320x3x3x320xf32>, tensor<320xf32>) -> tensor<1x64x64x320xf32>
    %144 = "tosa.const"() <{value = dense<[0, 3, 1, 2]> : tensor<4xi32>}> : () -> tensor<4xi32>
    %145 = "tosa.transpose"(%143, %144) : (tensor<1x64x64x320xf32>, tensor<4xi32>) -> tensor<1x320x64x64xf32>
    %146 = "tosa.add"(%57, %145) : (tensor<1x320x64x64xf32>, tensor<1x320x64x64xf32>) -> tensor<1x320x64x64xf32>
    %147 = "tosa.const"() <{value = dense<1.000000e+00> : tensor<1x320x64x64xf32>}> : () -> tensor<1x320x64x64xf32>
    %148 = "tosa.reciprocal"(%147) : (tensor<1x320x64x64xf32>) -> tensor<1x320x64x64xf32>
    %149 = "tosa.mul"(%146, %148) <{shift = 0 : i8}> : (tensor<1x320x64x64xf32>, tensor<1x320x64x64xf32>) -> tensor<1x320x64x64xf32>
    %150 = "tosa.reshape"(%149) <{new_shape = array<i64: 1, 32, 10, 4096>}> : (tensor<1x320x64x64xf32>) -> tensor<1x32x10x4096xf32>
    %151 = "tosa.reduce_sum"(%150) <{axis = 2 : i32}> : (tensor<1x32x10x4096xf32>) -> tensor<1x32x1x4096xf32>
    %152 = "tosa.reduce_sum"(%151) <{axis = 3 : i32}> : (tensor<1x32x1x4096xf32>) -> tensor<1x32x1x1xf32>
    %153 = "tosa.const"() <{value = dense<4.096000e+04> : tensor<1xf32>}> : () -> tensor<1xf32>
    %154 = "tosa.reciprocal"(%153) : (tensor<1xf32>) -> tensor<1xf32>
    %155 = "tosa.mul"(%154, %152) <{shift = 0 : i8}> : (tensor<1xf32>, tensor<1x32x1x1xf32>) -> tensor<1x32x1x1xf32>
    %156 = "tosa.sub"(%150, %155) : (tensor<1x32x10x4096xf32>, tensor<1x32x1x1xf32>) -> tensor<1x32x10x4096xf32>
    %157 = "tosa.mul"(%156, %156) <{shift = 0 : i8}> : (tensor<1x32x10x4096xf32>, tensor<1x32x10x4096xf32>) -> tensor<1x32x10x4096xf32>
    %158 = "tosa.reduce_sum"(%157) <{axis = 2 : i32}> : (tensor<1x32x10x4096xf32>) -> tensor<1x32x1x4096xf32>
    %159 = "tosa.reduce_sum"(%158) <{axis = 3 : i32}> : (tensor<1x32x1x4096xf32>) -> tensor<1x32x1x1xf32>
    %160 = "tosa.const"() <{value = dense<4.096000e+04> : tensor<1xf32>}> : () -> tensor<1xf32>
    %161 = "tosa.reciprocal"(%160) : (tensor<1xf32>) -> tensor<1xf32>
    %162 = "tosa.mul"(%161, %159) <{shift = 0 : i8}> : (tensor<1xf32>, tensor<1x32x1x1xf32>) -> tensor<1x32x1x1xf32>
    %163 = "tosa.const"() <{value = dense<9.99999997E-7> : tensor<1x32x1x1xf32>}> : () -> tensor<1x32x1x1xf32>
    %164 = "tosa.add"(%162, %163) : (tensor<1x32x1x1xf32>, tensor<1x32x1x1xf32>) -> tensor<1x32x1x1xf32>
    %165 = "tosa.rsqrt"(%164) : (tensor<1x32x1x1xf32>) -> tensor<1x32x1x1xf32>
    %166 = "tosa.sub"(%150, %155) : (tensor<1x32x10x4096xf32>, tensor<1x32x1x1xf32>) -> tensor<1x32x10x4096xf32>
    %167 = "tosa.mul"(%166, %165) <{shift = 0 : i8}> : (tensor<1x32x10x4096xf32>, tensor<1x32x1x1xf32>) -> tensor<1x32x10x4096xf32>
    %168 = "tosa.reshape"(%167) <{new_shape = array<i64: 1, 320, 64, 64>}> : (tensor<1x32x10x4096xf32>) -> tensor<1x320x64x64xf32>
    %169 = "tosa.reshape"(%arg18) <{new_shape = array<i64: 1, 320>}> : (tensor<320xf32>) -> tensor<1x320xf32>
    %170 = "tosa.reshape"(%169) <{new_shape = array<i64: 1, 320, 1>}> : (tensor<1x320xf32>) -> tensor<1x320x1xf32>
    %171 = "tosa.reshape"(%170) <{new_shape = array<i64: 1, 320, 1, 1>}> : (tensor<1x320x1xf32>) -> tensor<1x320x1x1xf32>
    %172 = "tosa.reshape"(%arg19) <{new_shape = array<i64: 1, 320>}> : (tensor<320xf32>) -> tensor<1x320xf32>
    %173 = "tosa.reshape"(%172) <{new_shape = array<i64: 1, 320, 1>}> : (tensor<1x320xf32>) -> tensor<1x320x1xf32>
    %174 = "tosa.reshape"(%173) <{new_shape = array<i64: 1, 320, 1, 1>}> : (tensor<1x320x1xf32>) -> tensor<1x320x1x1xf32>
    %175 = "tosa.mul"(%168, %174) <{shift = 0 : i8}> : (tensor<1x320x64x64xf32>, tensor<1x320x1x1xf32>) -> tensor<1x320x64x64xf32>
    %176 = "tosa.add"(%175, %171) : (tensor<1x320x64x64xf32>, tensor<1x320x1x1xf32>) -> tensor<1x320x64x64xf32>
    %177 = "tosa.const"() <{value = dense<[0, 2, 3, 1]> : tensor<4xi32>}> : () -> tensor<4xi32>
    %178 = "tosa.transpose"(%176, %177) : (tensor<1x320x64x64xf32>, tensor<4xi32>) -> tensor<1x64x64x320xf32>
    %179 = "tosa.reshape"(%178) <{new_shape = array<i64: 1, 4096, 320>}> : (tensor<1x64x64x320xf32>) -> tensor<1x4096x320xf32>
    %180 = "tosa.const"() <{value = dense<[1, 0]> : tensor<2xi32>}> : () -> tensor<2xi32>
    %181 = "tosa.transpose"(%arg20, %180) : (tensor<320x320xf32>, tensor<2xi32>) -> tensor<320x320xf32>
    %182 = "tosa.reshape"(%179) <{new_shape = array<i64: 4096, 320>}> : (tensor<1x4096x320xf32>) -> tensor<4096x320xf32>
    %183 = "arith.constant"() <{value = dense<0.000000e+00> : tensor<4096x320xf32>}> : () -> tensor<4096x320xf32>
    %184 = "linalg.matmul"(%182, %181, %183) <{cast = #linalg.type_fn<cast_signed>, operandSegmentSizes = array<i32: 2, 1>}> ({
    ^bb0(%arg720: f32, %arg721: f32, %arg722: f32):
      %6629 = "arith.mulf"(%arg720, %arg721) <{fastmath = #arith.fastmath<none>}> : (f32, f32) -> f32
      %6630 = "arith.addf"(%arg722, %6629) <{fastmath = #arith.fastmath<none>}> : (f32, f32) -> f32
      "linalg.yield"(%6630) : (f32) -> ()
    }) {linalg.memoized_indexing_maps = [#map, #map1, #map2]} : (tensor<4096x320xf32>, tensor<320x320xf32>, tensor<4096x320xf32>) -> tensor<4096x320xf32>
    %185 = "tosa.reshape"(%184) <{new_shape = array<i64: 1, 4096, 320>}> : (tensor<4096x320xf32>) -> tensor<1x4096x320xf32>
    %186 = "tosa.reshape"(%arg21) <{new_shape = array<i64: 1, 1, 320>}> : (tensor<320xf32>) -> tensor<1x1x320xf32>
    %187 = "tosa.add"(%185, %186) : (tensor<1x4096x320xf32>, tensor<1x1x320xf32>) -> tensor<1x4096x320xf32>
    %188 = "tosa.reduce_sum"(%187) <{axis = 2 : i32}> : (tensor<1x4096x320xf32>) -> tensor<1x4096x1xf32>
    %189 = "tosa.const"() <{value = dense<3.200000e+02> : tensor<1xf32>}> : () -> tensor<1xf32>
    %190 = "tosa.reciprocal"(%189) : (tensor<1xf32>) -> tensor<1xf32>
    %191 = "tosa.mul"(%190, %188) <{shift = 0 : i8}> : (tensor<1xf32>, tensor<1x4096x1xf32>) -> tensor<1x4096x1xf32>
    %192 = "tosa.sub"(%187, %191) : (tensor<1x4096x320xf32>, tensor<1x4096x1xf32>) -> tensor<1x4096x320xf32>
    %193 = "tosa.mul"(%192, %192) <{shift = 0 : i8}> : (tensor<1x4096x320xf32>, tensor<1x4096x320xf32>) -> tensor<1x4096x320xf32>
    %194 = "tosa.reduce_sum"(%193) <{axis = 2 : i32}> : (tensor<1x4096x320xf32>) -> tensor<1x4096x1xf32>
    %195 = "tosa.const"() <{value = dense<3.200000e+02> : tensor<1xf32>}> : () -> tensor<1xf32>
    %196 = "tosa.reciprocal"(%195) : (tensor<1xf32>) -> tensor<1xf32>
    %197 = "tosa.mul"(%196, %194) <{shift = 0 : i8}> : (tensor<1xf32>, tensor<1x4096x1xf32>) -> tensor<1x4096x1xf32>
    %198 = "tosa.const"() <{value = dense<9.99999974E-6> : tensor<1x4096x1xf32>}> : () -> tensor<1x4096x1xf32>
    %199 = "tosa.add"(%197, %198) : (tensor<1x4096x1xf32>, tensor<1x4096x1xf32>) -> tensor<1x4096x1xf32>
    %200 = "tosa.rsqrt"(%199) : (tensor<1x4096x1xf32>) -> tensor<1x4096x1xf32>
    %201 = "tosa.sub"(%187, %191) : (tensor<1x4096x320xf32>, tensor<1x4096x1xf32>) -> tensor<1x4096x320xf32>
    %202 = "tosa.mul"(%201, %200) <{shift = 0 : i8}> : (tensor<1x4096x320xf32>, tensor<1x4096x1xf32>) -> tensor<1x4096x320xf32>
    %203 = "tosa.reshape"(%arg22) <{new_shape = array<i64: 1, 1, 320>}> : (tensor<320xf32>) -> tensor<1x1x320xf32>
    %204 = "tosa.mul"(%202, %203) <{shift = 0 : i8}> : (tensor<1x4096x320xf32>, tensor<1x1x320xf32>) -> tensor<1x4096x320xf32>
    %205 = "tosa.reshape"(%arg23) <{new_shape = array<i64: 1, 1, 320>}> : (tensor<320xf32>) -> tensor<1x1x320xf32>
    %206 = "tosa.add"(%204, %205) : (tensor<1x4096x320xf32>, tensor<1x1x320xf32>) -> tensor<1x4096x320xf32>
    %207 = "tosa.const"() <{value = dense<[1, 0]> : tensor<2xi32>}> : () -> tensor<2xi32>
    %208 = "tosa.transpose"(%arg24, %207) : (tensor<320x320xf32>, tensor<2xi32>) -> tensor<320x320xf32>
    %209 = "tosa.reshape"(%206) <{new_shape = array<i64: 4096, 320>}> : (tensor<1x4096x320xf32>) -> tensor<4096x320xf32>
    %210 = "arith.constant"() <{value = dense<0.000000e+00> : tensor<4096x320xf32>}> : () -> tensor<4096x320xf32>
    %211 = "linalg.matmul"(%209, %208, %210) <{cast = #linalg.type_fn<cast_signed>, operandSegmentSizes = array<i32: 2, 1>}> ({
    ^bb0(%arg720: f32, %arg721: f32, %arg722: f32):
      %6629 = "arith.mulf"(%arg720, %arg721) <{fastmath = #arith.fastmath<none>}> : (f32, f32) -> f32
      %6630 = "arith.addf"(%arg722, %6629) <{fastmath = #arith.fastmath<none>}> : (f32, f32) -> f32
      "linalg.yield"(%6630) : (f32) -> ()
    }) {linalg.memoized_indexing_maps = [#map, #map1, #map2]} : (tensor<4096x320xf32>, tensor<320x320xf32>, tensor<4096x320xf32>) -> tensor<4096x320xf32>
    %212 = "tosa.reshape"(%211) <{new_shape = array<i64: 1, 4096, 320>}> : (tensor<4096x320xf32>) -> tensor<1x4096x320xf32>
    %213 = "tosa.const"() <{value = dense<[1, 0]> : tensor<2xi32>}> : () -> tensor<2xi32>
    %214 = "tosa.transpose"(%arg25, %213) : (tensor<320x320xf32>, tensor<2xi32>) -> tensor<320x320xf32>
    %215 = "tosa.reshape"(%206) <{new_shape = array<i64: 4096, 320>}> : (tensor<1x4096x320xf32>) -> tensor<4096x320xf32>
    %216 = "arith.constant"() <{value = dense<0.000000e+00> : tensor<4096x320xf32>}> : () -> tensor<4096x320xf32>
    %217 = "linalg.matmul"(%215, %214, %216) <{cast = #linalg.type_fn<cast_signed>, operandSegmentSizes = array<i32: 2, 1>}> ({
    ^bb0(%arg720: f32, %arg721: f32, %arg722: f32):
      %6629 = "arith.mulf"(%arg720, %arg721) <{fastmath = #arith.fastmath<none>}> : (f32, f32) -> f32
      %6630 = "arith.addf"(%arg722, %6629) <{fastmath = #arith.fastmath<none>}> : (f32, f32) -> f32
      "linalg.yield"(%6630) : (f32) -> ()
    }) {linalg.memoized_indexing_maps = [#map, #map1, #map2]} : (tensor<4096x320xf32>, tensor<320x320xf32>, tensor<4096x320xf32>) -> tensor<4096x320xf32>
    %218 = "tosa.reshape"(%217) <{new_shape = array<i64: 1, 4096, 320>}> : (tensor<4096x320xf32>) -> tensor<1x4096x320xf32>
    %219 = "tosa.const"() <{value = dense<[1, 0]> : tensor<2xi32>}> : () -> tensor<2xi32>
    %220 = "tosa.transpose"(%arg26, %219) : (tensor<320x320xf32>, tensor<2xi32>) -> tensor<320x320xf32>
    %221 = "tosa.reshape"(%206) <{new_shape = array<i64: 4096, 320>}> : (tensor<1x4096x320xf32>) -> tensor<4096x320xf32>
    %222 = "arith.constant"() <{value = dense<0.000000e+00> : tensor<4096x320xf32>}> : () -> tensor<4096x320xf32>
    %223 = "linalg.matmul"(%221, %220, %222) <{cast = #linalg.type_fn<cast_signed>, operandSegmentSizes = array<i32: 2, 1>}> ({
    ^bb0(%arg720: f32, %arg721: f32, %arg722: f32):
      %6629 = "arith.mulf"(%arg720, %arg721) <{fastmath = #arith.fastmath<none>}> : (f32, f32) -> f32
      %6630 = "arith.addf"(%arg722, %6629) <{fastmath = #arith.fastmath<none>}> : (f32, f32) -> f32
      "linalg.yield"(%6630) : (f32) -> ()
    }) {linalg.memoized_indexing_maps = [#map, #map1, #map2]} : (tensor<4096x320xf32>, tensor<320x320xf32>, tensor<4096x320xf32>) -> tensor<4096x320xf32>
    %224 = "tosa.reshape"(%223) <{new_shape = array<i64: 1, 4096, 320>}> : (tensor<4096x320xf32>) -> tensor<1x4096x320xf32>
    %225 = "tosa.reshape"(%212) <{new_shape = array<i64: 1, 4096, 5, 64>}> : (tensor<1x4096x320xf32>) -> tensor<1x4096x5x64xf32>
    %226 = "tosa.const"() <{value = dense<[0, 2, 1, 3]> : tensor<4xi32>}> : () -> tensor<4xi32>
    %227 = "tosa.transpose"(%225, %226) : (tensor<1x4096x5x64xf32>, tensor<4xi32>) -> tensor<1x5x4096x64xf32>
    %228 = "tosa.reshape"(%218) <{new_shape = array<i64: 1, 4096, 5, 64>}> : (tensor<1x4096x320xf32>) -> tensor<1x4096x5x64xf32>
    %229 = "tosa.const"() <{value = dense<[0, 2, 1, 3]> : tensor<4xi32>}> : () -> tensor<4xi32>
    %230 = "tosa.transpose"(%228, %229) : (tensor<1x4096x5x64xf32>, tensor<4xi32>) -> tensor<1x5x4096x64xf32>
    %231 = "tosa.reshape"(%224) <{new_shape = array<i64: 1, 4096, 5, 64>}> : (tensor<1x4096x320xf32>) -> tensor<1x4096x5x64xf32>
    %232 = "tosa.const"() <{value = dense<[0, 2, 1, 3]> : tensor<4xi32>}> : () -> tensor<4xi32>
    %233 = "tosa.transpose"(%231, %232) : (tensor<1x4096x5x64xf32>, tensor<4xi32>) -> tensor<1x5x4096x64xf32>
    %234 = "arith.constant"() <{value = dense<0.000000e+00> : tensor<4096x4096xf32>}> : () -> tensor<4096x4096xf32>
    %235 = "tosa.const"() <{value = dense<[0, 1, 3, 2]> : tensor<4xi32>}> : () -> tensor<4xi32>
    %236 = "tosa.transpose"(%230, %235) : (tensor<1x5x4096x64xf32>, tensor<4xi32>) -> tensor<1x5x64x4096xf32>
    %237 = "tosa.reshape"(%227) <{new_shape = array<i64: 5, 4096, 64>}> : (tensor<1x5x4096x64xf32>) -> tensor<5x4096x64xf32>
    %238 = "tosa.reshape"(%236) <{new_shape = array<i64: 5, 64, 4096>}> : (tensor<1x5x64x4096xf32>) -> tensor<5x64x4096xf32>
    %239 = "tosa.matmul"(%237, %238) : (tensor<5x4096x64xf32>, tensor<5x64x4096xf32>) -> tensor<5x4096x4096xf32>
    %240 = "arith.constant"() <{value = dense<1.250000e-01> : tensor<5x4096x4096xf32>}> : () -> tensor<5x4096x4096xf32>
    %241 = "tosa.mul"(%239, %240) <{shift = 0 : i8}> : (tensor<5x4096x4096xf32>, tensor<5x4096x4096xf32>) -> tensor<5x4096x4096xf32>
    %242 = "tosa.add"(%241, %234) : (tensor<5x4096x4096xf32>, tensor<4096x4096xf32>) -> tensor<5x4096x4096xf32>
    %243 = "arith.constant"() <{value = dense<0.000000e+00> : tensor<5x4096x4096xf32>}> : () -> tensor<5x4096x4096xf32>
    %244 = "linalg.softmax"(%242, %243) <{dimension = 3 : i64}> : (tensor<5x4096x4096xf32>, tensor<5x4096x4096xf32>) -> tensor<5x4096x4096xf32>
    %245 = "tosa.reshape"(%233) <{new_shape = array<i64: 5, 4096, 64>}> : (tensor<1x5x4096x64xf32>) -> tensor<5x4096x64xf32>
    %246 = "tosa.matmul"(%244, %245) : (tensor<5x4096x4096xf32>, tensor<5x4096x64xf32>) -> tensor<5x4096x64xf32>
    %247 = "tosa.reshape"(%246) <{new_shape = array<i64: 1, 5, 4096, 64>}> : (tensor<5x4096x64xf32>) -> tensor<1x5x4096x64xf32>
    %248 = "tosa.const"() <{value = dense<> : tensor<0xi32>}> : () -> tensor<0xi32>
    %249 = "tosa.const"() <{value = dense<> : tensor<0xi32>}> : () -> tensor<0xi32>
    %250 = "tosa.const"() <{value = dense<> : tensor<0xi32>}> : () -> tensor<0xi32>
    %251 = "tosa.const"() <{value = dense<[0, 2, 1, 3]> : tensor<4xi32>}> : () -> tensor<4xi32>
    %252 = "tosa.transpose"(%247, %251) : (tensor<1x5x4096x64xf32>, tensor<4xi32>) -> tensor<1x4096x5x64xf32>
    %253 = "tosa.reshape"(%252) <{new_shape = array<i64: 1, 4096, 320>}> : (tensor<1x4096x5x64xf32>) -> tensor<1x4096x320xf32>
    %254 = "tosa.reshape"(%253) <{new_shape = array<i64: 4096, 320>}> : (tensor<1x4096x320xf32>) -> tensor<4096x320xf32>
    %255 = "tosa.const"() <{value = dense<[1, 0]> : tensor<2xi32>}> : () -> tensor<2xi32>
    %256 = "tosa.transpose"(%arg27, %255) : (tensor<320x320xf32>, tensor<2xi32>) -> tensor<320x320xf32>
    %257 = "tosa.reshape"(%254) <{new_shape = array<i64: 1, 4096, 320>}> : (tensor<4096x320xf32>) -> tensor<1x4096x320xf32>
    %258 = "tosa.reshape"(%256) <{new_shape = array<i64: 1, 320, 320>}> : (tensor<320x320xf32>) -> tensor<1x320x320xf32>
    %259 = "tosa.matmul"(%257, %258) : (tensor<1x4096x320xf32>, tensor<1x320x320xf32>) -> tensor<1x4096x320xf32>
    %260 = "tosa.reshape"(%259) <{new_shape = array<i64: 4096, 320>}> : (tensor<1x4096x320xf32>) -> tensor<4096x320xf32>
    %261 = "tosa.reshape"(%arg28) <{new_shape = array<i64: 1, 320>}> : (tensor<320xf32>) -> tensor<1x320xf32>
    %262 = "tosa.add"(%261, %260) : (tensor<1x320xf32>, tensor<4096x320xf32>) -> tensor<4096x320xf32>
    %263 = "tosa.reshape"(%262) <{new_shape = array<i64: 1, 4096, 320>}> : (tensor<4096x320xf32>) -> tensor<1x4096x320xf32>
    %264 = "tosa.identity"(%263) : (tensor<1x4096x320xf32>) -> tensor<1x4096x320xf32>
    %265 = "tosa.const"() <{value = dense<1.000000e+00> : tensor<1x4096x320xf32>}> : () -> tensor<1x4096x320xf32>
    %266 = "tosa.reciprocal"(%265) : (tensor<1x4096x320xf32>) -> tensor<1x4096x320xf32>
    %267 = "tosa.mul"(%264, %266) <{shift = 0 : i8}> : (tensor<1x4096x320xf32>, tensor<1x4096x320xf32>) -> tensor<1x4096x320xf32>
    %268 = "tosa.add"(%267, %187) : (tensor<1x4096x320xf32>, tensor<1x4096x320xf32>) -> tensor<1x4096x320xf32>
    %269 = "tosa.reduce_sum"(%268) <{axis = 2 : i32}> : (tensor<1x4096x320xf32>) -> tensor<1x4096x1xf32>
    %270 = "tosa.const"() <{value = dense<3.200000e+02> : tensor<1xf32>}> : () -> tensor<1xf32>
    %271 = "tosa.reciprocal"(%270) : (tensor<1xf32>) -> tensor<1xf32>
    %272 = "tosa.mul"(%271, %269) <{shift = 0 : i8}> : (tensor<1xf32>, tensor<1x4096x1xf32>) -> tensor<1x4096x1xf32>
    %273 = "tosa.sub"(%268, %272) : (tensor<1x4096x320xf32>, tensor<1x4096x1xf32>) -> tensor<1x4096x320xf32>
    %274 = "tosa.mul"(%273, %273) <{shift = 0 : i8}> : (tensor<1x4096x320xf32>, tensor<1x4096x320xf32>) -> tensor<1x4096x320xf32>
    %275 = "tosa.reduce_sum"(%274) <{axis = 2 : i32}> : (tensor<1x4096x320xf32>) -> tensor<1x4096x1xf32>
    %276 = "tosa.const"() <{value = dense<3.200000e+02> : tensor<1xf32>}> : () -> tensor<1xf32>
    %277 = "tosa.reciprocal"(%276) : (tensor<1xf32>) -> tensor<1xf32>
    %278 = "tosa.mul"(%277, %275) <{shift = 0 : i8}> : (tensor<1xf32>, tensor<1x4096x1xf32>) -> tensor<1x4096x1xf32>
    %279 = "tosa.const"() <{value = dense<9.99999974E-6> : tensor<1x4096x1xf32>}> : () -> tensor<1x4096x1xf32>
    %280 = "tosa.add"(%278, %279) : (tensor<1x4096x1xf32>, tensor<1x4096x1xf32>) -> tensor<1x4096x1xf32>
    %281 = "tosa.rsqrt"(%280) : (tensor<1x4096x1xf32>) -> tensor<1x4096x1xf32>
    %282 = "tosa.sub"(%268, %272) : (tensor<1x4096x320xf32>, tensor<1x4096x1xf32>) -> tensor<1x4096x320xf32>
    %283 = "tosa.mul"(%282, %281) <{shift = 0 : i8}> : (tensor<1x4096x320xf32>, tensor<1x4096x1xf32>) -> tensor<1x4096x320xf32>
    %284 = "tosa.reshape"(%arg29) <{new_shape = array<i64: 1, 1, 320>}> : (tensor<320xf32>) -> tensor<1x1x320xf32>
    %285 = "tosa.mul"(%283, %284) <{shift = 0 : i8}> : (tensor<1x4096x320xf32>, tensor<1x1x320xf32>) -> tensor<1x4096x320xf32>
    %286 = "tosa.reshape"(%arg30) <{new_shape = array<i64: 1, 1, 320>}> : (tensor<320xf32>) -> tensor<1x1x320xf32>
    %287 = "tosa.add"(%285, %286) : (tensor<1x4096x320xf32>, tensor<1x1x320xf32>) -> tensor<1x4096x320xf32>
    %288 = "tosa.const"() <{value = dense<[1, 0]> : tensor<2xi32>}> : () -> tensor<2xi32>
    %289 = "tosa.transpose"(%arg31, %288) : (tensor<320x320xf32>, tensor<2xi32>) -> tensor<320x320xf32>
    %290 = "tosa.reshape"(%287) <{new_shape = array<i64: 4096, 320>}> : (tensor<1x4096x320xf32>) -> tensor<4096x320xf32>
    %291 = "arith.constant"() <{value = dense<0.000000e+00> : tensor<4096x320xf32>}> : () -> tensor<4096x320xf32>
    %292 = "linalg.matmul"(%290, %289, %291) <{cast = #linalg.type_fn<cast_signed>, operandSegmentSizes = array<i32: 2, 1>}> ({
    ^bb0(%arg720: f32, %arg721: f32, %arg722: f32):
      %6629 = "arith.mulf"(%arg720, %arg721) <{fastmath = #arith.fastmath<none>}> : (f32, f32) -> f32
      %6630 = "arith.addf"(%arg722, %6629) <{fastmath = #arith.fastmath<none>}> : (f32, f32) -> f32
      "linalg.yield"(%6630) : (f32) -> ()
    }) : (tensor<4096x320xf32>, tensor<320x320xf32>, tensor<4096x320xf32>) -> tensor<4096x320xf32>
    %293 = "tosa.reshape"(%292) <{new_shape = array<i64: 1, 4096, 320>}> : (tensor<4096x320xf32>) -> tensor<1x4096x320xf32>
    %294 = "tosa.const"() <{value = dense<[1, 0]> : tensor<2xi32>}> : () -> tensor<2xi32>
    %295 = "tosa.transpose"(%arg32, %294) : (tensor<320x1024xf32>, tensor<2xi32>) -> tensor<1024x320xf32>
    %296 = "tosa.reshape"(%arg705) <{new_shape = array<i64: 12, 1024>}> : (tensor<1x12x1024xf32>) -> tensor<12x1024xf32>
    %297 = "arith.constant"() <{value = dense<0.000000e+00> : tensor<12x320xf32>}> : () -> tensor<12x320xf32>
    %298 = "linalg.matmul"(%296, %295, %297) <{cast = #linalg.type_fn<cast_signed>, operandSegmentSizes = array<i32: 2, 1>}> ({
    ^bb0(%arg720: f32, %arg721: f32, %arg722: f32):
      %6629 = "arith.mulf"(%arg720, %arg721) <{fastmath = #arith.fastmath<none>}> : (f32, f32) -> f32
      %6630 = "arith.addf"(%arg722, %6629) <{fastmath = #arith.fastmath<none>}> : (f32, f32) -> f32
      "linalg.yield"(%6630) : (f32) -> ()
    }) : (tensor<12x1024xf32>, tensor<1024x320xf32>, tensor<12x320xf32>) -> tensor<12x320xf32>
    %299 = "tosa.reshape"(%298) <{new_shape = array<i64: 1, 12, 320>}> : (tensor<12x320xf32>) -> tensor<1x12x320xf32>
    %300 = "tosa.const"() <{value = dense<[1, 0]> : tensor<2xi32>}> : () -> tensor<2xi32>
    %301 = "tosa.transpose"(%arg34, %300) : (tensor<320x1024xf32>, tensor<2xi32>) -> tensor<1024x320xf32>
    %302 = "tosa.reshape"(%arg705) <{new_shape = array<i64: 12, 1024>}> : (tensor<1x12x1024xf32>) -> tensor<12x1024xf32>
    %303 = "arith.constant"() <{value = dense<0.000000e+00> : tensor<12x320xf32>}> : () -> tensor<12x320xf32>
    %304 = "linalg.matmul"(%302, %301, %303) <{cast = #linalg.type_fn<cast_signed>, operandSegmentSizes = array<i32: 2, 1>}> ({
    ^bb0(%arg720: f32, %arg721: f32, %arg722: f32):
      %6629 = "arith.mulf"(%arg720, %arg721) <{fastmath = #arith.fastmath<none>}> : (f32, f32) -> f32
      %6630 = "arith.addf"(%arg722, %6629) <{fastmath = #arith.fastmath<none>}> : (f32, f32) -> f32
      "linalg.yield"(%6630) : (f32) -> ()
    }) : (tensor<12x1024xf32>, tensor<1024x320xf32>, tensor<12x320xf32>) -> tensor<12x320xf32>
    %305 = "tosa.reshape"(%304) <{new_shape = array<i64: 1, 12, 320>}> : (tensor<12x320xf32>) -> tensor<1x12x320xf32>
    %306 = "tosa.reshape"(%293) <{new_shape = array<i64: 1, 4096, 5, 64>}> : (tensor<1x4096x320xf32>) -> tensor<1x4096x5x64xf32>
    %307 = "tosa.const"() <{value = dense<[0, 2, 1, 3]> : tensor<4xi32>}> : () -> tensor<4xi32>
    %308 = "tosa.transpose"(%306, %307) : (tensor<1x4096x5x64xf32>, tensor<4xi32>) -> tensor<1x5x4096x64xf32>
    %309 = "tosa.reshape"(%299) <{new_shape = array<i64: 1, 12, 5, 64>}> : (tensor<1x12x320xf32>) -> tensor<1x12x5x64xf32>
    %310 = "tosa.const"() <{value = dense<[0, 2, 1, 3]> : tensor<4xi32>}> : () -> tensor<4xi32>
    %311 = "tosa.transpose"(%309, %310) : (tensor<1x12x5x64xf32>, tensor<4xi32>) -> tensor<1x5x12x64xf32>
    %312 = "tosa.reshape"(%305) <{new_shape = array<i64: 1, 12, 5, 64>}> : (tensor<1x12x320xf32>) -> tensor<1x12x5x64xf32>
    %313 = "tosa.const"() <{value = dense<[0, 2, 1, 3]> : tensor<4xi32>}> : () -> tensor<4xi32>
    %314 = "tosa.transpose"(%312, %313) : (tensor<1x12x5x64xf32>, tensor<4xi32>) -> tensor<1x5x12x64xf32>
    %315 = "arith.constant"() <{value = dense<0.000000e+00> : tensor<4096x12xf32>}> : () -> tensor<4096x12xf32>
    %316 = "tosa.const"() <{value = dense<[0, 1, 3, 2]> : tensor<4xi32>}> : () -> tensor<4xi32>
    %317 = "tosa.transpose"(%311, %316) : (tensor<1x5x12x64xf32>, tensor<4xi32>) -> tensor<1x5x64x12xf32>
    %318 = "tosa.reshape"(%308) <{new_shape = array<i64: 5, 4096, 64>}> : (tensor<1x5x4096x64xf32>) -> tensor<5x4096x64xf32>
    %319 = "tosa.reshape"(%317) <{new_shape = array<i64: 5, 64, 12>}> : (tensor<1x5x64x12xf32>) -> tensor<5x64x12xf32>
    %320 = "tosa.matmul"(%318, %319) : (tensor<5x4096x64xf32>, tensor<5x64x12xf32>) -> tensor<5x4096x12xf32>
    %321 = "arith.constant"() <{value = dense<1.250000e-01> : tensor<5x4096x12xf32>}> : () -> tensor<5x4096x12xf32>
    %322 = "tosa.mul"(%320, %321) <{shift = 0 : i8}> : (tensor<5x4096x12xf32>, tensor<5x4096x12xf32>) -> tensor<5x4096x12xf32>
    %323 = "tosa.add"(%322, %315) : (tensor<5x4096x12xf32>, tensor<4096x12xf32>) -> tensor<5x4096x12xf32>
    %324 = "arith.constant"() <{value = dense<0.000000e+00> : tensor<5x4096x12xf32>}> : () -> tensor<5x4096x12xf32>
    %325 = "linalg.softmax"(%323, %324) <{dimension = 3 : i64}> : (tensor<5x4096x12xf32>, tensor<5x4096x12xf32>) -> tensor<5x4096x12xf32>
    %326 = "tosa.reshape"(%314) <{new_shape = array<i64: 5, 12, 64>}> : (tensor<1x5x12x64xf32>) -> tensor<5x12x64xf32>
    %327 = "tosa.matmul"(%325, %326) : (tensor<5x4096x12xf32>, tensor<5x12x64xf32>) -> tensor<5x4096x64xf32>
    %328 = "tosa.reshape"(%327) <{new_shape = array<i64: 1, 5, 4096, 64>}> : (tensor<5x4096x64xf32>) -> tensor<1x5x4096x64xf32>
    %329 = "tosa.const"() <{value = dense<> : tensor<0xi32>}> : () -> tensor<0xi32>
    %330 = "tosa.const"() <{value = dense<> : tensor<0xi32>}> : () -> tensor<0xi32>
    %331 = "tosa.const"() <{value = dense<> : tensor<0xi32>}> : () -> tensor<0xi32>
    %332 = "tosa.const"() <{value = dense<[0, 2, 1, 3]> : tensor<4xi32>}> : () -> tensor<4xi32>
    %333 = "tosa.transpose"(%328, %332) : (tensor<1x5x4096x64xf32>, tensor<4xi32>) -> tensor<1x4096x5x64xf32>
    %334 = "tosa.reshape"(%333) <{new_shape = array<i64: 1, 4096, 320>}> : (tensor<1x4096x5x64xf32>) -> tensor<1x4096x320xf32>
    %335 = "tosa.reshape"(%334) <{new_shape = array<i64: 4096, 320>}> : (tensor<1x4096x320xf32>) -> tensor<4096x320xf32>
    %336 = "tosa.const"() <{value = dense<[1, 0]> : tensor<2xi32>}> : () -> tensor<2xi32>
    %337 = "tosa.transpose"(%arg36, %336) : (tensor<320x320xf32>, tensor<2xi32>) -> tensor<320x320xf32>
    %338 = "tosa.reshape"(%335) <{new_shape = array<i64: 1, 4096, 320>}> : (tensor<4096x320xf32>) -> tensor<1x4096x320xf32>
    %339 = "tosa.reshape"(%337) <{new_shape = array<i64: 1, 320, 320>}> : (tensor<320x320xf32>) -> tensor<1x320x320xf32>
    %340 = "tosa.matmul"(%338, %339) : (tensor<1x4096x320xf32>, tensor<1x320x320xf32>) -> tensor<1x4096x320xf32>
    %341 = "tosa.reshape"(%340) <{new_shape = array<i64: 4096, 320>}> : (tensor<1x4096x320xf32>) -> tensor<4096x320xf32>
    %342 = "tosa.reshape"(%arg37) <{new_shape = array<i64: 1, 320>}> : (tensor<320xf32>) -> tensor<1x320xf32>
    %343 = "tosa.add"(%342, %341) : (tensor<1x320xf32>, tensor<4096x320xf32>) -> tensor<4096x320xf32>
    %344 = "tosa.reshape"(%343) <{new_shape = array<i64: 1, 4096, 320>}> : (tensor<4096x320xf32>) -> tensor<1x4096x320xf32>
    %345 = "tosa.identity"(%344) : (tensor<1x4096x320xf32>) -> tensor<1x4096x320xf32>
    %346 = "tosa.const"() <{value = dense<1.000000e+00> : tensor<1x4096x320xf32>}> : () -> tensor<1x4096x320xf32>
    %347 = "tosa.reciprocal"(%346) : (tensor<1x4096x320xf32>) -> tensor<1x4096x320xf32>
    %348 = "tosa.mul"(%345, %347) <{shift = 0 : i8}> : (tensor<1x4096x320xf32>, tensor<1x4096x320xf32>) -> tensor<1x4096x320xf32>
    %349 = "tosa.add"(%348, %268) : (tensor<1x4096x320xf32>, tensor<1x4096x320xf32>) -> tensor<1x4096x320xf32>
    %350 = "tosa.reduce_sum"(%349) <{axis = 2 : i32}> : (tensor<1x4096x320xf32>) -> tensor<1x4096x1xf32>
    %351 = "tosa.const"() <{value = dense<3.200000e+02> : tensor<1xf32>}> : () -> tensor<1xf32>
    %352 = "tosa.reciprocal"(%351) : (tensor<1xf32>) -> tensor<1xf32>
    %353 = "tosa.mul"(%352, %350) <{shift = 0 : i8}> : (tensor<1xf32>, tensor<1x4096x1xf32>) -> tensor<1x4096x1xf32>
    %354 = "tosa.sub"(%349, %353) : (tensor<1x4096x320xf32>, tensor<1x4096x1xf32>) -> tensor<1x4096x320xf32>
    %355 = "tosa.mul"(%354, %354) <{shift = 0 : i8}> : (tensor<1x4096x320xf32>, tensor<1x4096x320xf32>) -> tensor<1x4096x320xf32>
    %356 = "tosa.reduce_sum"(%355) <{axis = 2 : i32}> : (tensor<1x4096x320xf32>) -> tensor<1x4096x1xf32>
    %357 = "tosa.const"() <{value = dense<3.200000e+02> : tensor<1xf32>}> : () -> tensor<1xf32>
    %358 = "tosa.reciprocal"(%357) : (tensor<1xf32>) -> tensor<1xf32>
    %359 = "tosa.mul"(%358, %356) <{shift = 0 : i8}> : (tensor<1xf32>, tensor<1x4096x1xf32>) -> tensor<1x4096x1xf32>
    %360 = "tosa.const"() <{value = dense<9.99999974E-6> : tensor<1x4096x1xf32>}> : () -> tensor<1x4096x1xf32>
    %361 = "tosa.add"(%359, %360) : (tensor<1x4096x1xf32>, tensor<1x4096x1xf32>) -> tensor<1x4096x1xf32>
    %362 = "tosa.rsqrt"(%361) : (tensor<1x4096x1xf32>) -> tensor<1x4096x1xf32>
    %363 = "tosa.sub"(%349, %353) : (tensor<1x4096x320xf32>, tensor<1x4096x1xf32>) -> tensor<1x4096x320xf32>
    %364 = "tosa.mul"(%363, %362) <{shift = 0 : i8}> : (tensor<1x4096x320xf32>, tensor<1x4096x1xf32>) -> tensor<1x4096x320xf32>
    %365 = "tosa.reshape"(%arg38) <{new_shape = array<i64: 1, 1, 320>}> : (tensor<320xf32>) -> tensor<1x1x320xf32>
    %366 = "tosa.mul"(%364, %365) <{shift = 0 : i8}> : (tensor<1x4096x320xf32>, tensor<1x1x320xf32>) -> tensor<1x4096x320xf32>
    %367 = "tosa.reshape"(%arg39) <{new_shape = array<i64: 1, 1, 320>}> : (tensor<320xf32>) -> tensor<1x1x320xf32>
    %368 = "tosa.add"(%366, %367) : (tensor<1x4096x320xf32>, tensor<1x1x320xf32>) -> tensor<1x4096x320xf32>
    %369 = "tosa.reshape"(%368) <{new_shape = array<i64: 4096, 320>}> : (tensor<1x4096x320xf32>) -> tensor<4096x320xf32>
    %370 = "tosa.const"() <{value = dense<[1, 0]> : tensor<2xi32>}> : () -> tensor<2xi32>
    %371 = "tosa.transpose"(%arg40, %370) : (tensor<2560x320xf32>, tensor<2xi32>) -> tensor<320x2560xf32>
    %372 = "tosa.reshape"(%369) <{new_shape = array<i64: 1, 4096, 320>}> : (tensor<4096x320xf32>) -> tensor<1x4096x320xf32>
    %373 = "tosa.reshape"(%371) <{new_shape = array<i64: 1, 320, 2560>}> : (tensor<320x2560xf32>) -> tensor<1x320x2560xf32>
    %374 = "tosa.matmul"(%372, %373) : (tensor<1x4096x320xf32>, tensor<1x320x2560xf32>) -> tensor<1x4096x2560xf32>
    %375 = "tosa.reshape"(%374) <{new_shape = array<i64: 4096, 2560>}> : (tensor<1x4096x2560xf32>) -> tensor<4096x2560xf32>
    %376 = "tosa.reshape"(%arg41) <{new_shape = array<i64: 1, 2560>}> : (tensor<2560xf32>) -> tensor<1x2560xf32>
    %377 = "tosa.add"(%376, %375) : (tensor<1x2560xf32>, tensor<4096x2560xf32>) -> tensor<4096x2560xf32>
    %378 = "tosa.reshape"(%377) <{new_shape = array<i64: 1, 4096, 2560>}> : (tensor<4096x2560xf32>) -> tensor<1x4096x2560xf32>
    %379 = "tosa.slice"(%378) <{size = array<i64: 0, 0, 1280>, start = array<i64: 0, 0, 0>}> : (tensor<1x4096x2560xf32>) -> tensor<1x4096x1280xf32>
    %380 = "tosa.slice"(%378) <{size = array<i64: 0, 0, 2560>, start = array<i64: 0, 0, 1280>}> : (tensor<1x4096x2560xf32>) -> tensor<1x4096x1280xf32>
    %381 = "tosa.const"() <{value = dense<5.000000e-01> : tensor<1x4096x1280xf32>}> : () -> tensor<1x4096x1280xf32>
    %382 = "tosa.mul"(%380, %381) <{shift = 0 : i8}> : (tensor<1x4096x1280xf32>, tensor<1x4096x1280xf32>) -> tensor<1x4096x1280xf32>
    %383 = "tosa.const"() <{value = dense<0.707106769> : tensor<1x4096x1280xf32>}> : () -> tensor<1x4096x1280xf32>
    %384 = "tosa.mul"(%380, %383) <{shift = 0 : i8}> : (tensor<1x4096x1280xf32>, tensor<1x4096x1280xf32>) -> tensor<1x4096x1280xf32>
    %385 = "math.erf"(%384) <{fastmath = #arith.fastmath<none>}> : (tensor<1x4096x1280xf32>) -> tensor<1x4096x1280xf32>
    %386 = "tosa.const"() <{value = dense<1.000000e+00> : tensor<1x4096x1280xf32>}> : () -> tensor<1x4096x1280xf32>
    %387 = "tosa.add"(%385, %386) : (tensor<1x4096x1280xf32>, tensor<1x4096x1280xf32>) -> tensor<1x4096x1280xf32>
    %388 = "tosa.mul"(%382, %387) <{shift = 0 : i8}> : (tensor<1x4096x1280xf32>, tensor<1x4096x1280xf32>) -> tensor<1x4096x1280xf32>
    %389 = "tosa.mul"(%379, %388) <{shift = 0 : i8}> : (tensor<1x4096x1280xf32>, tensor<1x4096x1280xf32>) -> tensor<1x4096x1280xf32>
    %390 = "tosa.identity"(%389) : (tensor<1x4096x1280xf32>) -> tensor<1x4096x1280xf32>
    %391 = "tosa.reshape"(%390) <{new_shape = array<i64: 4096, 1280>}> : (tensor<1x4096x1280xf32>) -> tensor<4096x1280xf32>
    %392 = "tosa.const"() <{value = dense<[1, 0]> : tensor<2xi32>}> : () -> tensor<2xi32>
    %393 = "tosa.transpose"(%arg42, %392) : (tensor<320x1280xf32>, tensor<2xi32>) -> tensor<1280x320xf32>
    %394 = "tosa.reshape"(%391) <{new_shape = array<i64: 1, 4096, 1280>}> : (tensor<4096x1280xf32>) -> tensor<1x4096x1280xf32>
    %395 = "tosa.reshape"(%393) <{new_shape = array<i64: 1, 1280, 320>}> : (tensor<1280x320xf32>) -> tensor<1x1280x320xf32>
    %396 = "tosa.matmul"(%394, %395) : (tensor<1x4096x1280xf32>, tensor<1x1280x320xf32>) -> tensor<1x4096x320xf32>
    %397 = "tosa.reshape"(%396) <{new_shape = array<i64: 4096, 320>}> : (tensor<1x4096x320xf32>) -> tensor<4096x320xf32>
    %398 = "tosa.reshape"(%arg43) <{new_shape = array<i64: 1, 320>}> : (tensor<320xf32>) -> tensor<1x320xf32>
    %399 = "tosa.add"(%398, %397) : (tensor<1x320xf32>, tensor<4096x320xf32>) -> tensor<4096x320xf32>
    %400 = "tosa.reshape"(%399) <{new_shape = array<i64: 1, 4096, 320>}> : (tensor<4096x320xf32>) -> tensor<1x4096x320xf32>
    %401 = "tosa.add"(%400, %349) : (tensor<1x4096x320xf32>, tensor<1x4096x320xf32>) -> tensor<1x4096x320xf32>
    %402 = "tosa.reshape"(%401) <{new_shape = array<i64: 4096, 320>}> : (tensor<1x4096x320xf32>) -> tensor<4096x320xf32>
    %403 = "tosa.const"() <{value = dense<[1, 0]> : tensor<2xi32>}> : () -> tensor<2xi32>
    %404 = "tosa.transpose"(%arg44, %403) : (tensor<320x320xf32>, tensor<2xi32>) -> tensor<320x320xf32>
    %405 = "tosa.reshape"(%402) <{new_shape = array<i64: 1, 4096, 320>}> : (tensor<4096x320xf32>) -> tensor<1x4096x320xf32>
    %406 = "tosa.reshape"(%404) <{new_shape = array<i64: 1, 320, 320>}> : (tensor<320x320xf32>) -> tensor<1x320x320xf32>
    %407 = "tosa.matmul"(%405, %406) : (tensor<1x4096x320xf32>, tensor<1x320x320xf32>) -> tensor<1x4096x320xf32>
    %408 = "tosa.reshape"(%407) <{new_shape = array<i64: 4096, 320>}> : (tensor<1x4096x320xf32>) -> tensor<4096x320xf32>
    %409 = "tosa.reshape"(%arg45) <{new_shape = array<i64: 1, 320>}> : (tensor<320xf32>) -> tensor<1x320xf32>
    %410 = "tosa.add"(%409, %408) : (tensor<1x320xf32>, tensor<4096x320xf32>) -> tensor<4096x320xf32>
    %411 = "tosa.reshape"(%410) <{new_shape = array<i64: 1, 4096, 320>}> : (tensor<4096x320xf32>) -> tensor<1x4096x320xf32>
    %412 = "tosa.reshape"(%411) <{new_shape = array<i64: 1, 64, 64, 320>}> : (tensor<1x4096x320xf32>) -> tensor<1x64x64x320xf32>
    %413 = "tosa.const"() <{value = dense<[0, 3, 1, 2]> : tensor<4xi32>}> : () -> tensor<4xi32>
    %414 = "tosa.transpose"(%412, %413) : (tensor<1x64x64x320xf32>, tensor<4xi32>) -> tensor<1x320x64x64xf32>
    %415 = "tosa.identity"(%414) : (tensor<1x320x64x64xf32>) -> tensor<1x320x64x64xf32>
    %416 = "tosa.add"(%415, %149) : (tensor<1x320x64x64xf32>, tensor<1x320x64x64xf32>) -> tensor<1x320x64x64xf32>
    %417 = "tosa.reshape"(%416) <{new_shape = array<i64: 1, 32, 10, 4096>}> : (tensor<1x320x64x64xf32>) -> tensor<1x32x10x4096xf32>
    %418 = "tosa.reduce_sum"(%417) <{axis = 2 : i32}> : (tensor<1x32x10x4096xf32>) -> tensor<1x32x1x4096xf32>
    %419 = "tosa.reduce_sum"(%418) <{axis = 3 : i32}> : (tensor<1x32x1x4096xf32>) -> tensor<1x32x1x1xf32>
    %420 = "tosa.const"() <{value = dense<4.096000e+04> : tensor<1xf32>}> : () -> tensor<1xf32>
    %421 = "tosa.reciprocal"(%420) : (tensor<1xf32>) -> tensor<1xf32>
    %422 = "tosa.mul"(%421, %419) <{shift = 0 : i8}> : (tensor<1xf32>, tensor<1x32x1x1xf32>) -> tensor<1x32x1x1xf32>
    %423 = "tosa.sub"(%417, %422) : (tensor<1x32x10x4096xf32>, tensor<1x32x1x1xf32>) -> tensor<1x32x10x4096xf32>
    %424 = "tosa.mul"(%423, %423) <{shift = 0 : i8}> : (tensor<1x32x10x4096xf32>, tensor<1x32x10x4096xf32>) -> tensor<1x32x10x4096xf32>
    %425 = "tosa.reduce_sum"(%424) <{axis = 2 : i32}> : (tensor<1x32x10x4096xf32>) -> tensor<1x32x1x4096xf32>
    %426 = "tosa.reduce_sum"(%425) <{axis = 3 : i32}> : (tensor<1x32x1x4096xf32>) -> tensor<1x32x1x1xf32>
    %427 = "tosa.const"() <{value = dense<4.096000e+04> : tensor<1xf32>}> : () -> tensor<1xf32>
    %428 = "tosa.reciprocal"(%427) : (tensor<1xf32>) -> tensor<1xf32>
    %429 = "tosa.mul"(%428, %426) <{shift = 0 : i8}> : (tensor<1xf32>, tensor<1x32x1x1xf32>) -> tensor<1x32x1x1xf32>
    %430 = "tosa.const"() <{value = dense<9.99999974E-6> : tensor<1x32x1x1xf32>}> : () -> tensor<1x32x1x1xf32>
    %431 = "tosa.add"(%429, %430) : (tensor<1x32x1x1xf32>, tensor<1x32x1x1xf32>) -> tensor<1x32x1x1xf32>
    %432 = "tosa.rsqrt"(%431) : (tensor<1x32x1x1xf32>) -> tensor<1x32x1x1xf32>
    %433 = "tosa.sub"(%417, %422) : (tensor<1x32x10x4096xf32>, tensor<1x32x1x1xf32>) -> tensor<1x32x10x4096xf32>
    %434 = "tosa.mul"(%433, %432) <{shift = 0 : i8}> : (tensor<1x32x10x4096xf32>, tensor<1x32x1x1xf32>) -> tensor<1x32x10x4096xf32>
    %435 = "tosa.reshape"(%434) <{new_shape = array<i64: 1, 320, 64, 64>}> : (tensor<1x32x10x4096xf32>) -> tensor<1x320x64x64xf32>
    %436 = "tosa.reshape"(%arg46) <{new_shape = array<i64: 1, 320>}> : (tensor<320xf32>) -> tensor<1x320xf32>
    %437 = "tosa.reshape"(%436) <{new_shape = array<i64: 1, 320, 1>}> : (tensor<1x320xf32>) -> tensor<1x320x1xf32>
    %438 = "tosa.reshape"(%437) <{new_shape = array<i64: 1, 320, 1, 1>}> : (tensor<1x320x1xf32>) -> tensor<1x320x1x1xf32>
    %439 = "tosa.reshape"(%arg47) <{new_shape = array<i64: 1, 320>}> : (tensor<320xf32>) -> tensor<1x320xf32>
    %440 = "tosa.reshape"(%439) <{new_shape = array<i64: 1, 320, 1>}> : (tensor<1x320xf32>) -> tensor<1x320x1xf32>
    %441 = "tosa.reshape"(%440) <{new_shape = array<i64: 1, 320, 1, 1>}> : (tensor<1x320x1xf32>) -> tensor<1x320x1x1xf32>
    %442 = "tosa.mul"(%435, %441) <{shift = 0 : i8}> : (tensor<1x320x64x64xf32>, tensor<1x320x1x1xf32>) -> tensor<1x320x64x64xf32>
    %443 = "tosa.add"(%442, %438) : (tensor<1x320x64x64xf32>, tensor<1x320x1x1xf32>) -> tensor<1x320x64x64xf32>
    %444 = "tosa.sigmoid"(%443) : (tensor<1x320x64x64xf32>) -> tensor<1x320x64x64xf32>
    %445 = "tosa.mul"(%443, %444) <{shift = 0 : i8}> : (tensor<1x320x64x64xf32>, tensor<1x320x64x64xf32>) -> tensor<1x320x64x64xf32>
    %446 = "tosa.const"() <{value = dense<[0, 2, 3, 1]> : tensor<4xi32>}> : () -> tensor<4xi32>
    %447 = "tosa.transpose"(%445, %446) : (tensor<1x320x64x64xf32>, tensor<4xi32>) -> tensor<1x64x64x320xf32>
    %448 = "tosa.const"() <{value = dense<[0, 2, 3, 1]> : tensor<4xi32>}> : () -> tensor<4xi32>
    %449 = "tosa.transpose"(%arg48, %448) : (tensor<320x320x3x3xf32>, tensor<4xi32>) -> tensor<320x3x3x320xf32>
    %450 = "tosa.conv2d"(%447, %449, %arg49) <{dilation = array<i64: 1, 1>, pad = array<i64: 1, 1, 1, 1>, stride = array<i64: 1, 1>}> : (tensor<1x64x64x320xf32>, tensor<320x3x3x320xf32>, tensor<320xf32>) -> tensor<1x64x64x320xf32>
    %451 = "tosa.const"() <{value = dense<[0, 3, 1, 2]> : tensor<4xi32>}> : () -> tensor<4xi32>
    %452 = "tosa.transpose"(%450, %451) : (tensor<1x64x64x320xf32>, tensor<4xi32>) -> tensor<1x320x64x64xf32>
    %453 = "tosa.sigmoid"(%50) : (tensor<1x1280xf32>) -> tensor<1x1280xf32>
    %454 = "tosa.mul"(%50, %453) <{shift = 0 : i8}> : (tensor<1x1280xf32>, tensor<1x1280xf32>) -> tensor<1x1280xf32>
    %455 = "tosa.const"() <{value = dense<[1, 0]> : tensor<2xi32>}> : () -> tensor<2xi32>
    %456 = "tosa.transpose"(%arg50, %455) : (tensor<320x1280xf32>, tensor<2xi32>) -> tensor<1280x320xf32>
    %457 = "tosa.reshape"(%454) <{new_shape = array<i64: 1, 1, 1280>}> : (tensor<1x1280xf32>) -> tensor<1x1x1280xf32>
    %458 = "tosa.reshape"(%456) <{new_shape = array<i64: 1, 1280, 320>}> : (tensor<1280x320xf32>) -> tensor<1x1280x320xf32>
    %459 = "tosa.matmul"(%457, %458) : (tensor<1x1x1280xf32>, tensor<1x1280x320xf32>) -> tensor<1x1x320xf32>
    %460 = "tosa.reshape"(%459) <{new_shape = array<i64: 1, 320>}> : (tensor<1x1x320xf32>) -> tensor<1x320xf32>
    %461 = "tosa.reshape"(%arg51) <{new_shape = array<i64: 1, 320>}> : (tensor<320xf32>) -> tensor<1x320xf32>
    %462 = "tosa.add"(%461, %460) : (tensor<1x320xf32>, tensor<1x320xf32>) -> tensor<1x320xf32>
    %463 = "tensor.extract_slice"(%462) <{operandSegmentSizes = array<i32: 1, 0, 0, 0>, static_offsets = array<i64: 0, 0>, static_sizes = array<i64: 1, 320>, static_strides = array<i64: 1, 1>}> : (tensor<1x320xf32>) -> tensor<1x320xf32>
    %464 = "tensor.extract_slice"(%463) <{operandSegmentSizes = array<i32: 1, 0, 0, 0>, static_offsets = array<i64: 0, 0>, static_sizes = array<i64: 1, 320>, static_strides = array<i64: 1, 1>}> : (tensor<1x320xf32>) -> tensor<1x320xf32>
    %465 = "tosa.reshape"(%464) <{new_shape = array<i64: 1, 320, 1>}> : (tensor<1x320xf32>) -> tensor<1x320x1xf32>
    %466 = "tosa.reshape"(%465) <{new_shape = array<i64: 1, 320, 1, 1>}> : (tensor<1x320x1xf32>) -> tensor<1x320x1x1xf32>
    %467 = "tosa.add"(%452, %466) : (tensor<1x320x64x64xf32>, tensor<1x320x1x1xf32>) -> tensor<1x320x64x64xf32>
    %468 = "tosa.reshape"(%467) <{new_shape = array<i64: 1, 32, 10, 4096>}> : (tensor<1x320x64x64xf32>) -> tensor<1x32x10x4096xf32>
    %469 = "tosa.reduce_sum"(%468) <{axis = 2 : i32}> : (tensor<1x32x10x4096xf32>) -> tensor<1x32x1x4096xf32>
    %470 = "tosa.reduce_sum"(%469) <{axis = 3 : i32}> : (tensor<1x32x1x4096xf32>) -> tensor<1x32x1x1xf32>
    %471 = "tosa.const"() <{value = dense<4.096000e+04> : tensor<1xf32>}> : () -> tensor<1xf32>
    %472 = "tosa.reciprocal"(%471) : (tensor<1xf32>) -> tensor<1xf32>
    %473 = "tosa.mul"(%472, %470) <{shift = 0 : i8}> : (tensor<1xf32>, tensor<1x32x1x1xf32>) -> tensor<1x32x1x1xf32>
    %474 = "tosa.sub"(%468, %473) : (tensor<1x32x10x4096xf32>, tensor<1x32x1x1xf32>) -> tensor<1x32x10x4096xf32>
    %475 = "tosa.mul"(%474, %474) <{shift = 0 : i8}> : (tensor<1x32x10x4096xf32>, tensor<1x32x10x4096xf32>) -> tensor<1x32x10x4096xf32>
    %476 = "tosa.reduce_sum"(%475) <{axis = 2 : i32}> : (tensor<1x32x10x4096xf32>) -> tensor<1x32x1x4096xf32>
    %477 = "tosa.reduce_sum"(%476) <{axis = 3 : i32}> : (tensor<1x32x1x4096xf32>) -> tensor<1x32x1x1xf32>
    %478 = "tosa.const"() <{value = dense<4.096000e+04> : tensor<1xf32>}> : () -> tensor<1xf32>
    %479 = "tosa.reciprocal"(%478) : (tensor<1xf32>) -> tensor<1xf32>
    %480 = "tosa.mul"(%479, %477) <{shift = 0 : i8}> : (tensor<1xf32>, tensor<1x32x1x1xf32>) -> tensor<1x32x1x1xf32>
    %481 = "tosa.const"() <{value = dense<9.99999974E-6> : tensor<1x32x1x1xf32>}> : () -> tensor<1x32x1x1xf32>
    %482 = "tosa.add"(%480, %481) : (tensor<1x32x1x1xf32>, tensor<1x32x1x1xf32>) -> tensor<1x32x1x1xf32>
    %483 = "tosa.rsqrt"(%482) : (tensor<1x32x1x1xf32>) -> tensor<1x32x1x1xf32>
    %484 = "tosa.sub"(%468, %473) : (tensor<1x32x10x4096xf32>, tensor<1x32x1x1xf32>) -> tensor<1x32x10x4096xf32>
    %485 = "tosa.mul"(%484, %483) <{shift = 0 : i8}> : (tensor<1x32x10x4096xf32>, tensor<1x32x1x1xf32>) -> tensor<1x32x10x4096xf32>
    %486 = "tosa.reshape"(%485) <{new_shape = array<i64: 1, 320, 64, 64>}> : (tensor<1x32x10x4096xf32>) -> tensor<1x320x64x64xf32>
    %487 = "tosa.reshape"(%arg52) <{new_shape = array<i64: 1, 320>}> : (tensor<320xf32>) -> tensor<1x320xf32>
    %488 = "tosa.reshape"(%487) <{new_shape = array<i64: 1, 320, 1>}> : (tensor<1x320xf32>) -> tensor<1x320x1xf32>
    %489 = "tosa.reshape"(%488) <{new_shape = array<i64: 1, 320, 1, 1>}> : (tensor<1x320x1xf32>) -> tensor<1x320x1x1xf32>
    %490 = "tosa.reshape"(%arg53) <{new_shape = array<i64: 1, 320>}> : (tensor<320xf32>) -> tensor<1x320xf32>
    %491 = "tosa.reshape"(%490) <{new_shape = array<i64: 1, 320, 1>}> : (tensor<1x320xf32>) -> tensor<1x320x1xf32>
    %492 = "tosa.reshape"(%491) <{new_shape = array<i64: 1, 320, 1, 1>}> : (tensor<1x320x1xf32>) -> tensor<1x320x1x1xf32>
    %493 = "tosa.mul"(%486, %492) <{shift = 0 : i8}> : (tensor<1x320x64x64xf32>, tensor<1x320x1x1xf32>) -> tensor<1x320x64x64xf32>
    %494 = "tosa.add"(%493, %489) : (tensor<1x320x64x64xf32>, tensor<1x320x1x1xf32>) -> tensor<1x320x64x64xf32>
    %495 = "tosa.sigmoid"(%494) : (tensor<1x320x64x64xf32>) -> tensor<1x320x64x64xf32>
    %496 = "tosa.mul"(%494, %495) <{shift = 0 : i8}> : (tensor<1x320x64x64xf32>, tensor<1x320x64x64xf32>) -> tensor<1x320x64x64xf32>
    %497 = "tosa.identity"(%496) : (tensor<1x320x64x64xf32>) -> tensor<1x320x64x64xf32>
    %498 = "tosa.const"() <{value = dense<[0, 2, 3, 1]> : tensor<4xi32>}> : () -> tensor<4xi32>
    %499 = "tosa.transpose"(%497, %498) : (tensor<1x320x64x64xf32>, tensor<4xi32>) -> tensor<1x64x64x320xf32>
    %500 = "tosa.const"() <{value = dense<[0, 2, 3, 1]> : tensor<4xi32>}> : () -> tensor<4xi32>
    %501 = "tosa.transpose"(%arg54, %500) : (tensor<320x320x3x3xf32>, tensor<4xi32>) -> tensor<320x3x3x320xf32>
    %502 = "tosa.conv2d"(%499, %501, %arg55) <{dilation = array<i64: 1, 1>, pad = array<i64: 1, 1, 1, 1>, stride = array<i64: 1, 1>}> : (tensor<1x64x64x320xf32>, tensor<320x3x3x320xf32>, tensor<320xf32>) -> tensor<1x64x64x320xf32>
    %503 = "tosa.const"() <{value = dense<[0, 3, 1, 2]> : tensor<4xi32>}> : () -> tensor<4xi32>
    %504 = "tosa.transpose"(%502, %503) : (tensor<1x64x64x320xf32>, tensor<4xi32>) -> tensor<1x320x64x64xf32>
    %505 = "tosa.add"(%416, %504) : (tensor<1x320x64x64xf32>, tensor<1x320x64x64xf32>) -> tensor<1x320x64x64xf32>
    %506 = "tosa.const"() <{value = dense<1.000000e+00> : tensor<1x320x64x64xf32>}> : () -> tensor<1x320x64x64xf32>
    %507 = "tosa.reciprocal"(%506) : (tensor<1x320x64x64xf32>) -> tensor<1x320x64x64xf32>
    %508 = "tosa.mul"(%505, %507) <{shift = 0 : i8}> : (tensor<1x320x64x64xf32>, tensor<1x320x64x64xf32>) -> tensor<1x320x64x64xf32>
    %509 = "tosa.reshape"(%508) <{new_shape = array<i64: 1, 32, 10, 4096>}> : (tensor<1x320x64x64xf32>) -> tensor<1x32x10x4096xf32>
    %510 = "tosa.reduce_sum"(%509) <{axis = 2 : i32}> : (tensor<1x32x10x4096xf32>) -> tensor<1x32x1x4096xf32>
    %511 = "tosa.reduce_sum"(%510) <{axis = 3 : i32}> : (tensor<1x32x1x4096xf32>) -> tensor<1x32x1x1xf32>
    %512 = "tosa.const"() <{value = dense<4.096000e+04> : tensor<1xf32>}> : () -> tensor<1xf32>
    %513 = "tosa.reciprocal"(%512) : (tensor<1xf32>) -> tensor<1xf32>
    %514 = "tosa.mul"(%513, %511) <{shift = 0 : i8}> : (tensor<1xf32>, tensor<1x32x1x1xf32>) -> tensor<1x32x1x1xf32>
    %515 = "tosa.sub"(%509, %514) : (tensor<1x32x10x4096xf32>, tensor<1x32x1x1xf32>) -> tensor<1x32x10x4096xf32>
    %516 = "tosa.mul"(%515, %515) <{shift = 0 : i8}> : (tensor<1x32x10x4096xf32>, tensor<1x32x10x4096xf32>) -> tensor<1x32x10x4096xf32>
    %517 = "tosa.reduce_sum"(%516) <{axis = 2 : i32}> : (tensor<1x32x10x4096xf32>) -> tensor<1x32x1x4096xf32>
    %518 = "tosa.reduce_sum"(%517) <{axis = 3 : i32}> : (tensor<1x32x1x4096xf32>) -> tensor<1x32x1x1xf32>
    %519 = "tosa.const"() <{value = dense<4.096000e+04> : tensor<1xf32>}> : () -> tensor<1xf32>
    %520 = "tosa.reciprocal"(%519) : (tensor<1xf32>) -> tensor<1xf32>
    %521 = "tosa.mul"(%520, %518) <{shift = 0 : i8}> : (tensor<1xf32>, tensor<1x32x1x1xf32>) -> tensor<1x32x1x1xf32>
    %522 = "tosa.const"() <{value = dense<9.99999997E-7> : tensor<1x32x1x1xf32>}> : () -> tensor<1x32x1x1xf32>
    %523 = "tosa.add"(%521, %522) : (tensor<1x32x1x1xf32>, tensor<1x32x1x1xf32>) -> tensor<1x32x1x1xf32>
    %524 = "tosa.rsqrt"(%523) : (tensor<1x32x1x1xf32>) -> tensor<1x32x1x1xf32>
    %525 = "tosa.sub"(%509, %514) : (tensor<1x32x10x4096xf32>, tensor<1x32x1x1xf32>) -> tensor<1x32x10x4096xf32>
    %526 = "tosa.mul"(%525, %524) <{shift = 0 : i8}> : (tensor<1x32x10x4096xf32>, tensor<1x32x1x1xf32>) -> tensor<1x32x10x4096xf32>
    %527 = "tosa.reshape"(%526) <{new_shape = array<i64: 1, 320, 64, 64>}> : (tensor<1x32x10x4096xf32>) -> tensor<1x320x64x64xf32>
    %528 = "tosa.reshape"(%arg56) <{new_shape = array<i64: 1, 320>}> : (tensor<320xf32>) -> tensor<1x320xf32>
    %529 = "tosa.reshape"(%528) <{new_shape = array<i64: 1, 320, 1>}> : (tensor<1x320xf32>) -> tensor<1x320x1xf32>
    %530 = "tosa.reshape"(%529) <{new_shape = array<i64: 1, 320, 1, 1>}> : (tensor<1x320x1xf32>) -> tensor<1x320x1x1xf32>
    %531 = "tosa.reshape"(%arg57) <{new_shape = array<i64: 1, 320>}> : (tensor<320xf32>) -> tensor<1x320xf32>
    %532 = "tosa.reshape"(%531) <{new_shape = array<i64: 1, 320, 1>}> : (tensor<1x320xf32>) -> tensor<1x320x1xf32>
    %533 = "tosa.reshape"(%532) <{new_shape = array<i64: 1, 320, 1, 1>}> : (tensor<1x320x1xf32>) -> tensor<1x320x1x1xf32>
    %534 = "tosa.mul"(%527, %533) <{shift = 0 : i8}> : (tensor<1x320x64x64xf32>, tensor<1x320x1x1xf32>) -> tensor<1x320x64x64xf32>
    %535 = "tosa.add"(%534, %530) : (tensor<1x320x64x64xf32>, tensor<1x320x1x1xf32>) -> tensor<1x320x64x64xf32>
    %536 = "tosa.const"() <{value = dense<[0, 2, 3, 1]> : tensor<4xi32>}> : () -> tensor<4xi32>
    %537 = "tosa.transpose"(%535, %536) : (tensor<1x320x64x64xf32>, tensor<4xi32>) -> tensor<1x64x64x320xf32>
    %538 = "tosa.reshape"(%537) <{new_shape = array<i64: 1, 4096, 320>}> : (tensor<1x64x64x320xf32>) -> tensor<1x4096x320xf32>
    %539 = "tosa.const"() <{value = dense<[1, 0]> : tensor<2xi32>}> : () -> tensor<2xi32>
    %540 = "tosa.transpose"(%arg58, %539) : (tensor<320x320xf32>, tensor<2xi32>) -> tensor<320x320xf32>
    %541 = "tosa.reshape"(%538) <{new_shape = array<i64: 4096, 320>}> : (tensor<1x4096x320xf32>) -> tensor<4096x320xf32>
    %542 = "arith.constant"() <{value = dense<0.000000e+00> : tensor<4096x320xf32>}> : () -> tensor<4096x320xf32>
    %543 = "linalg.matmul"(%541, %540, %542) <{cast = #linalg.type_fn<cast_signed>, operandSegmentSizes = array<i32: 2, 1>}> ({
    ^bb0(%arg720: f32, %arg721: f32, %arg722: f32):
      %6629 = "arith.mulf"(%arg720, %arg721) <{fastmath = #arith.fastmath<none>}> : (f32, f32) -> f32
      %6630 = "arith.addf"(%arg722, %6629) <{fastmath = #arith.fastmath<none>}> : (f32, f32) -> f32
      "linalg.yield"(%6630) : (f32) -> ()
    }) : (tensor<4096x320xf32>, tensor<320x320xf32>, tensor<4096x320xf32>) -> tensor<4096x320xf32>
    %544 = "tosa.reshape"(%543) <{new_shape = array<i64: 1, 4096, 320>}> : (tensor<4096x320xf32>) -> tensor<1x4096x320xf32>
    %545 = "tosa.reshape"(%arg59) <{new_shape = array<i64: 1, 1, 320>}> : (tensor<320xf32>) -> tensor<1x1x320xf32>
    %546 = "tosa.add"(%544, %545) : (tensor<1x4096x320xf32>, tensor<1x1x320xf32>) -> tensor<1x4096x320xf32>
    %547 = "tosa.reduce_sum"(%546) <{axis = 2 : i32}> : (tensor<1x4096x320xf32>) -> tensor<1x4096x1xf32>
    %548 = "tosa.const"() <{value = dense<3.200000e+02> : tensor<1xf32>}> : () -> tensor<1xf32>
    %549 = "tosa.reciprocal"(%548) : (tensor<1xf32>) -> tensor<1xf32>
    %550 = "tosa.mul"(%549, %547) <{shift = 0 : i8}> : (tensor<1xf32>, tensor<1x4096x1xf32>) -> tensor<1x4096x1xf32>
    %551 = "tosa.sub"(%546, %550) : (tensor<1x4096x320xf32>, tensor<1x4096x1xf32>) -> tensor<1x4096x320xf32>
    %552 = "tosa.mul"(%551, %551) <{shift = 0 : i8}> : (tensor<1x4096x320xf32>, tensor<1x4096x320xf32>) -> tensor<1x4096x320xf32>
    %553 = "tosa.reduce_sum"(%552) <{axis = 2 : i32}> : (tensor<1x4096x320xf32>) -> tensor<1x4096x1xf32>
    %554 = "tosa.const"() <{value = dense<3.200000e+02> : tensor<1xf32>}> : () -> tensor<1xf32>
    %555 = "tosa.reciprocal"(%554) : (tensor<1xf32>) -> tensor<1xf32>
    %556 = "tosa.mul"(%555, %553) <{shift = 0 : i8}> : (tensor<1xf32>, tensor<1x4096x1xf32>) -> tensor<1x4096x1xf32>
    %557 = "tosa.const"() <{value = dense<9.99999974E-6> : tensor<1x4096x1xf32>}> : () -> tensor<1x4096x1xf32>
    %558 = "tosa.add"(%556, %557) : (tensor<1x4096x1xf32>, tensor<1x4096x1xf32>) -> tensor<1x4096x1xf32>
    %559 = "tosa.rsqrt"(%558) : (tensor<1x4096x1xf32>) -> tensor<1x4096x1xf32>
    %560 = "tosa.sub"(%546, %550) : (tensor<1x4096x320xf32>, tensor<1x4096x1xf32>) -> tensor<1x4096x320xf32>
    %561 = "tosa.mul"(%560, %559) <{shift = 0 : i8}> : (tensor<1x4096x320xf32>, tensor<1x4096x1xf32>) -> tensor<1x4096x320xf32>
    %562 = "tosa.reshape"(%arg60) <{new_shape = array<i64: 1, 1, 320>}> : (tensor<320xf32>) -> tensor<1x1x320xf32>
    %563 = "tosa.mul"(%561, %562) <{shift = 0 : i8}> : (tensor<1x4096x320xf32>, tensor<1x1x320xf32>) -> tensor<1x4096x320xf32>
    %564 = "tosa.reshape"(%arg61) <{new_shape = array<i64: 1, 1, 320>}> : (tensor<320xf32>) -> tensor<1x1x320xf32>
    %565 = "tosa.add"(%563, %564) : (tensor<1x4096x320xf32>, tensor<1x1x320xf32>) -> tensor<1x4096x320xf32>
    %566 = "tosa.const"() <{value = dense<[1, 0]> : tensor<2xi32>}> : () -> tensor<2xi32>
    %567 = "tosa.transpose"(%arg62, %566) : (tensor<320x320xf32>, tensor<2xi32>) -> tensor<320x320xf32>
    %568 = "tosa.reshape"(%565) <{new_shape = array<i64: 4096, 320>}> : (tensor<1x4096x320xf32>) -> tensor<4096x320xf32>
    %569 = "arith.constant"() <{value = dense<0.000000e+00> : tensor<4096x320xf32>}> : () -> tensor<4096x320xf32>
    %570 = "linalg.matmul"(%568, %567, %569) <{cast = #linalg.type_fn<cast_signed>, operandSegmentSizes = array<i32: 2, 1>}> ({
    ^bb0(%arg720: f32, %arg721: f32, %arg722: f32):
      %6629 = "arith.mulf"(%arg720, %arg721) <{fastmath = #arith.fastmath<none>}> : (f32, f32) -> f32
      %6630 = "arith.addf"(%arg722, %6629) <{fastmath = #arith.fastmath<none>}> : (f32, f32) -> f32
      "linalg.yield"(%6630) : (f32) -> ()
    }) : (tensor<4096x320xf32>, tensor<320x320xf32>, tensor<4096x320xf32>) -> tensor<4096x320xf32>
    %571 = "tosa.reshape"(%570) <{new_shape = array<i64: 1, 4096, 320>}> : (tensor<4096x320xf32>) -> tensor<1x4096x320xf32>
    %572 = "tosa.const"() <{value = dense<[1, 0]> : tensor<2xi32>}> : () -> tensor<2xi32>
    %573 = "tosa.transpose"(%arg63, %572) : (tensor<320x320xf32>, tensor<2xi32>) -> tensor<320x320xf32>
    %574 = "tosa.reshape"(%565) <{new_shape = array<i64: 4096, 320>}> : (tensor<1x4096x320xf32>) -> tensor<4096x320xf32>
    %575 = "arith.constant"() <{value = dense<0.000000e+00> : tensor<4096x320xf32>}> : () -> tensor<4096x320xf32>
    %576 = "linalg.matmul"(%574, %573, %575) <{cast = #linalg.type_fn<cast_signed>, operandSegmentSizes = array<i32: 2, 1>}> ({
    ^bb0(%arg720: f32, %arg721: f32, %arg722: f32):
      %6629 = "arith.mulf"(%arg720, %arg721) <{fastmath = #arith.fastmath<none>}> : (f32, f32) -> f32
      %6630 = "arith.addf"(%arg722, %6629) <{fastmath = #arith.fastmath<none>}> : (f32, f32) -> f32
      "linalg.yield"(%6630) : (f32) -> ()
    }) : (tensor<4096x320xf32>, tensor<320x320xf32>, tensor<4096x320xf32>) -> tensor<4096x320xf32>
    %577 = "tosa.reshape"(%576) <{new_shape = array<i64: 1, 4096, 320>}> : (tensor<4096x320xf32>) -> tensor<1x4096x320xf32>
    %578 = "tosa.const"() <{value = dense<[1, 0]> : tensor<2xi32>}> : () -> tensor<2xi32>
    %579 = "tosa.transpose"(%arg64, %578) : (tensor<320x320xf32>, tensor<2xi32>) -> tensor<320x320xf32>
    %580 = "tosa.reshape"(%565) <{new_shape = array<i64: 4096, 320>}> : (tensor<1x4096x320xf32>) -> tensor<4096x320xf32>
    %581 = "arith.constant"() <{value = dense<0.000000e+00> : tensor<4096x320xf32>}> : () -> tensor<4096x320xf32>
    %582 = "linalg.matmul"(%580, %579, %581) <{cast = #linalg.type_fn<cast_signed>, operandSegmentSizes = array<i32: 2, 1>}> ({
    ^bb0(%arg720: f32, %arg721: f32, %arg722: f32):
      %6629 = "arith.mulf"(%arg720, %arg721) <{fastmath = #arith.fastmath<none>}> : (f32, f32) -> f32
      %6630 = "arith.addf"(%arg722, %6629) <{fastmath = #arith.fastmath<none>}> : (f32, f32) -> f32
      "linalg.yield"(%6630) : (f32) -> ()
    }) : (tensor<4096x320xf32>, tensor<320x320xf32>, tensor<4096x320xf32>) -> tensor<4096x320xf32>
    %583 = "tosa.reshape"(%582) <{new_shape = array<i64: 1, 4096, 320>}> : (tensor<4096x320xf32>) -> tensor<1x4096x320xf32>
    %584 = "tosa.reshape"(%571) <{new_shape = array<i64: 1, 4096, 5, 64>}> : (tensor<1x4096x320xf32>) -> tensor<1x4096x5x64xf32>
    %585 = "tosa.const"() <{value = dense<[0, 2, 1, 3]> : tensor<4xi32>}> : () -> tensor<4xi32>
    %586 = "tosa.transpose"(%584, %585) : (tensor<1x4096x5x64xf32>, tensor<4xi32>) -> tensor<1x5x4096x64xf32>
    %587 = "tosa.reshape"(%577) <{new_shape = array<i64: 1, 4096, 5, 64>}> : (tensor<1x4096x320xf32>) -> tensor<1x4096x5x64xf32>
    %588 = "tosa.const"() <{value = dense<[0, 2, 1, 3]> : tensor<4xi32>}> : () -> tensor<4xi32>
    %589 = "tosa.transpose"(%587, %588) : (tensor<1x4096x5x64xf32>, tensor<4xi32>) -> tensor<1x5x4096x64xf32>
    %590 = "tosa.reshape"(%583) <{new_shape = array<i64: 1, 4096, 5, 64>}> : (tensor<1x4096x320xf32>) -> tensor<1x4096x5x64xf32>
    %591 = "tosa.const"() <{value = dense<[0, 2, 1, 3]> : tensor<4xi32>}> : () -> tensor<4xi32>
    %592 = "tosa.transpose"(%590, %591) : (tensor<1x4096x5x64xf32>, tensor<4xi32>) -> tensor<1x5x4096x64xf32>
    %593 = "arith.constant"() <{value = dense<0.000000e+00> : tensor<4096x4096xf32>}> : () -> tensor<4096x4096xf32>
    %594 = "tosa.const"() <{value = dense<[0, 1, 3, 2]> : tensor<4xi32>}> : () -> tensor<4xi32>
    %595 = "tosa.transpose"(%589, %594) : (tensor<1x5x4096x64xf32>, tensor<4xi32>) -> tensor<1x5x64x4096xf32>
    %596 = "tosa.reshape"(%586) <{new_shape = array<i64: 5, 4096, 64>}> : (tensor<1x5x4096x64xf32>) -> tensor<5x4096x64xf32>
    %597 = "tosa.reshape"(%595) <{new_shape = array<i64: 5, 64, 4096>}> : (tensor<1x5x64x4096xf32>) -> tensor<5x64x4096xf32>
    %598 = "tosa.matmul"(%596, %597) : (tensor<5x4096x64xf32>, tensor<5x64x4096xf32>) -> tensor<5x4096x4096xf32>
    %599 = "arith.constant"() <{value = dense<1.250000e-01> : tensor<5x4096x4096xf32>}> : () -> tensor<5x4096x4096xf32>
    %600 = "tosa.mul"(%598, %599) <{shift = 0 : i8}> : (tensor<5x4096x4096xf32>, tensor<5x4096x4096xf32>) -> tensor<5x4096x4096xf32>
    %601 = "tosa.add"(%600, %593) : (tensor<5x4096x4096xf32>, tensor<4096x4096xf32>) -> tensor<5x4096x4096xf32>
    %602 = "arith.constant"() <{value = dense<0.000000e+00> : tensor<5x4096x4096xf32>}> : () -> tensor<5x4096x4096xf32>
    %603 = "linalg.softmax"(%601, %602) <{dimension = 3 : i64}> : (tensor<5x4096x4096xf32>, tensor<5x4096x4096xf32>) -> tensor<5x4096x4096xf32>
    %604 = "tosa.reshape"(%592) <{new_shape = array<i64: 5, 4096, 64>}> : (tensor<1x5x4096x64xf32>) -> tensor<5x4096x64xf32>
    %605 = "tosa.matmul"(%603, %604) : (tensor<5x4096x4096xf32>, tensor<5x4096x64xf32>) -> tensor<5x4096x64xf32>
    %606 = "tosa.reshape"(%605) <{new_shape = array<i64: 1, 5, 4096, 64>}> : (tensor<5x4096x64xf32>) -> tensor<1x5x4096x64xf32>
    %607 = "tosa.const"() <{value = dense<> : tensor<0xi32>}> : () -> tensor<0xi32>
    %608 = "tosa.const"() <{value = dense<> : tensor<0xi32>}> : () -> tensor<0xi32>
    %609 = "tosa.const"() <{value = dense<> : tensor<0xi32>}> : () -> tensor<0xi32>
    %610 = "tosa.const"() <{value = dense<[0, 2, 1, 3]> : tensor<4xi32>}> : () -> tensor<4xi32>
    %611 = "tosa.transpose"(%606, %610) : (tensor<1x5x4096x64xf32>, tensor<4xi32>) -> tensor<1x4096x5x64xf32>
    %612 = "tosa.reshape"(%611) <{new_shape = array<i64: 1, 4096, 320>}> : (tensor<1x4096x5x64xf32>) -> tensor<1x4096x320xf32>
    %613 = "tosa.reshape"(%612) <{new_shape = array<i64: 4096, 320>}> : (tensor<1x4096x320xf32>) -> tensor<4096x320xf32>
    %614 = "tosa.const"() <{value = dense<[1, 0]> : tensor<2xi32>}> : () -> tensor<2xi32>
    %615 = "tosa.transpose"(%arg65, %614) : (tensor<320x320xf32>, tensor<2xi32>) -> tensor<320x320xf32>
    %616 = "tosa.reshape"(%613) <{new_shape = array<i64: 1, 4096, 320>}> : (tensor<4096x320xf32>) -> tensor<1x4096x320xf32>
    %617 = "tosa.reshape"(%615) <{new_shape = array<i64: 1, 320, 320>}> : (tensor<320x320xf32>) -> tensor<1x320x320xf32>
    %618 = "tosa.matmul"(%616, %617) : (tensor<1x4096x320xf32>, tensor<1x320x320xf32>) -> tensor<1x4096x320xf32>
    %619 = "tosa.reshape"(%618) <{new_shape = array<i64: 4096, 320>}> : (tensor<1x4096x320xf32>) -> tensor<4096x320xf32>
    %620 = "tosa.reshape"(%arg66) <{new_shape = array<i64: 1, 320>}> : (tensor<320xf32>) -> tensor<1x320xf32>
    %621 = "tosa.add"(%620, %619) : (tensor<1x320xf32>, tensor<4096x320xf32>) -> tensor<4096x320xf32>
    %622 = "tosa.reshape"(%621) <{new_shape = array<i64: 1, 4096, 320>}> : (tensor<4096x320xf32>) -> tensor<1x4096x320xf32>
    %623 = "tosa.identity"(%622) : (tensor<1x4096x320xf32>) -> tensor<1x4096x320xf32>
    %624 = "tosa.const"() <{value = dense<1.000000e+00> : tensor<1x4096x320xf32>}> : () -> tensor<1x4096x320xf32>
    %625 = "tosa.reciprocal"(%624) : (tensor<1x4096x320xf32>) -> tensor<1x4096x320xf32>
    %626 = "tosa.mul"(%623, %625) <{shift = 0 : i8}> : (tensor<1x4096x320xf32>, tensor<1x4096x320xf32>) -> tensor<1x4096x320xf32>
    %627 = "tosa.add"(%626, %546) : (tensor<1x4096x320xf32>, tensor<1x4096x320xf32>) -> tensor<1x4096x320xf32>
    %628 = "tosa.reduce_sum"(%627) <{axis = 2 : i32}> : (tensor<1x4096x320xf32>) -> tensor<1x4096x1xf32>
    %629 = "tosa.const"() <{value = dense<3.200000e+02> : tensor<1xf32>}> : () -> tensor<1xf32>
    %630 = "tosa.reciprocal"(%629) : (tensor<1xf32>) -> tensor<1xf32>
    %631 = "tosa.mul"(%630, %628) <{shift = 0 : i8}> : (tensor<1xf32>, tensor<1x4096x1xf32>) -> tensor<1x4096x1xf32>
    %632 = "tosa.sub"(%627, %631) : (tensor<1x4096x320xf32>, tensor<1x4096x1xf32>) -> tensor<1x4096x320xf32>
    %633 = "tosa.mul"(%632, %632) <{shift = 0 : i8}> : (tensor<1x4096x320xf32>, tensor<1x4096x320xf32>) -> tensor<1x4096x320xf32>
    %634 = "tosa.reduce_sum"(%633) <{axis = 2 : i32}> : (tensor<1x4096x320xf32>) -> tensor<1x4096x1xf32>
    %635 = "tosa.const"() <{value = dense<3.200000e+02> : tensor<1xf32>}> : () -> tensor<1xf32>
    %636 = "tosa.reciprocal"(%635) : (tensor<1xf32>) -> tensor<1xf32>
    %637 = "tosa.mul"(%636, %634) <{shift = 0 : i8}> : (tensor<1xf32>, tensor<1x4096x1xf32>) -> tensor<1x4096x1xf32>
    %638 = "tosa.const"() <{value = dense<9.99999974E-6> : tensor<1x4096x1xf32>}> : () -> tensor<1x4096x1xf32>
    %639 = "tosa.add"(%637, %638) : (tensor<1x4096x1xf32>, tensor<1x4096x1xf32>) -> tensor<1x4096x1xf32>
    %640 = "tosa.rsqrt"(%639) : (tensor<1x4096x1xf32>) -> tensor<1x4096x1xf32>
    %641 = "tosa.sub"(%627, %631) : (tensor<1x4096x320xf32>, tensor<1x4096x1xf32>) -> tensor<1x4096x320xf32>
    %642 = "tosa.mul"(%641, %640) <{shift = 0 : i8}> : (tensor<1x4096x320xf32>, tensor<1x4096x1xf32>) -> tensor<1x4096x320xf32>
    %643 = "tosa.reshape"(%arg67) <{new_shape = array<i64: 1, 1, 320>}> : (tensor<320xf32>) -> tensor<1x1x320xf32>
    %644 = "tosa.mul"(%642, %643) <{shift = 0 : i8}> : (tensor<1x4096x320xf32>, tensor<1x1x320xf32>) -> tensor<1x4096x320xf32>
    %645 = "tosa.reshape"(%arg68) <{new_shape = array<i64: 1, 1, 320>}> : (tensor<320xf32>) -> tensor<1x1x320xf32>
    %646 = "tosa.add"(%644, %645) : (tensor<1x4096x320xf32>, tensor<1x1x320xf32>) -> tensor<1x4096x320xf32>
    %647 = "tosa.const"() <{value = dense<[1, 0]> : tensor<2xi32>}> : () -> tensor<2xi32>
    %648 = "tosa.transpose"(%arg69, %647) : (tensor<320x320xf32>, tensor<2xi32>) -> tensor<320x320xf32>
    %649 = "tosa.reshape"(%646) <{new_shape = array<i64: 4096, 320>}> : (tensor<1x4096x320xf32>) -> tensor<4096x320xf32>
    %650 = "arith.constant"() <{value = dense<0.000000e+00> : tensor<4096x320xf32>}> : () -> tensor<4096x320xf32>
    %651 = "linalg.matmul"(%649, %648, %650) <{cast = #linalg.type_fn<cast_signed>, operandSegmentSizes = array<i32: 2, 1>}> ({
    ^bb0(%arg720: f32, %arg721: f32, %arg722: f32):
      %6629 = "arith.mulf"(%arg720, %arg721) <{fastmath = #arith.fastmath<none>}> : (f32, f32) -> f32
      %6630 = "arith.addf"(%arg722, %6629) <{fastmath = #arith.fastmath<none>}> : (f32, f32) -> f32
      "linalg.yield"(%6630) : (f32) -> ()
    }) : (tensor<4096x320xf32>, tensor<320x320xf32>, tensor<4096x320xf32>) -> tensor<4096x320xf32>
    %652 = "tosa.reshape"(%651) <{new_shape = array<i64: 1, 4096, 320>}> : (tensor<4096x320xf32>) -> tensor<1x4096x320xf32>
    %653 = "tosa.const"() <{value = dense<[1, 0]> : tensor<2xi32>}> : () -> tensor<2xi32>
    %654 = "tosa.transpose"(%arg70, %653) : (tensor<320x1024xf32>, tensor<2xi32>) -> tensor<1024x320xf32>
    %655 = "tosa.reshape"(%arg705) <{new_shape = array<i64: 12, 1024>}> : (tensor<1x12x1024xf32>) -> tensor<12x1024xf32>
    %656 = "arith.constant"() <{value = dense<0.000000e+00> : tensor<12x320xf32>}> : () -> tensor<12x320xf32>
    %657 = "linalg.matmul"(%655, %654, %656) <{cast = #linalg.type_fn<cast_signed>, operandSegmentSizes = array<i32: 2, 1>}> ({
    ^bb0(%arg720: f32, %arg721: f32, %arg722: f32):
      %6629 = "arith.mulf"(%arg720, %arg721) <{fastmath = #arith.fastmath<none>}> : (f32, f32) -> f32
      %6630 = "arith.addf"(%arg722, %6629) <{fastmath = #arith.fastmath<none>}> : (f32, f32) -> f32
      "linalg.yield"(%6630) : (f32) -> ()
    }) : (tensor<12x1024xf32>, tensor<1024x320xf32>, tensor<12x320xf32>) -> tensor<12x320xf32>
    %658 = "tosa.reshape"(%657) <{new_shape = array<i64: 1, 12, 320>}> : (tensor<12x320xf32>) -> tensor<1x12x320xf32>
    %659 = "tosa.const"() <{value = dense<[1, 0]> : tensor<2xi32>}> : () -> tensor<2xi32>
    %660 = "tosa.transpose"(%arg72, %659) : (tensor<320x1024xf32>, tensor<2xi32>) -> tensor<1024x320xf32>
    %661 = "tosa.reshape"(%arg705) <{new_shape = array<i64: 12, 1024>}> : (tensor<1x12x1024xf32>) -> tensor<12x1024xf32>
    %662 = "arith.constant"() <{value = dense<0.000000e+00> : tensor<12x320xf32>}> : () -> tensor<12x320xf32>
    %663 = "linalg.matmul"(%661, %660, %662) <{cast = #linalg.type_fn<cast_signed>, operandSegmentSizes = array<i32: 2, 1>}> ({
    ^bb0(%arg720: f32, %arg721: f32, %arg722: f32):
      %6629 = "arith.mulf"(%arg720, %arg721) <{fastmath = #arith.fastmath<none>}> : (f32, f32) -> f32
      %6630 = "arith.addf"(%arg722, %6629) <{fastmath = #arith.fastmath<none>}> : (f32, f32) -> f32
      "linalg.yield"(%6630) : (f32) -> ()
    }) : (tensor<12x1024xf32>, tensor<1024x320xf32>, tensor<12x320xf32>) -> tensor<12x320xf32>
    %664 = "tosa.reshape"(%663) <{new_shape = array<i64: 1, 12, 320>}> : (tensor<12x320xf32>) -> tensor<1x12x320xf32>
    %665 = "tosa.reshape"(%652) <{new_shape = array<i64: 1, 4096, 5, 64>}> : (tensor<1x4096x320xf32>) -> tensor<1x4096x5x64xf32>
    %666 = "tosa.const"() <{value = dense<[0, 2, 1, 3]> : tensor<4xi32>}> : () -> tensor<4xi32>
    %667 = "tosa.transpose"(%665, %666) : (tensor<1x4096x5x64xf32>, tensor<4xi32>) -> tensor<1x5x4096x64xf32>
    %668 = "tosa.reshape"(%658) <{new_shape = array<i64: 1, 12, 5, 64>}> : (tensor<1x12x320xf32>) -> tensor<1x12x5x64xf32>
    %669 = "tosa.const"() <{value = dense<[0, 2, 1, 3]> : tensor<4xi32>}> : () -> tensor<4xi32>
    %670 = "tosa.transpose"(%668, %669) : (tensor<1x12x5x64xf32>, tensor<4xi32>) -> tensor<1x5x12x64xf32>
    %671 = "tosa.reshape"(%664) <{new_shape = array<i64: 1, 12, 5, 64>}> : (tensor<1x12x320xf32>) -> tensor<1x12x5x64xf32>
    %672 = "tosa.const"() <{value = dense<[0, 2, 1, 3]> : tensor<4xi32>}> : () -> tensor<4xi32>
    %673 = "tosa.transpose"(%671, %672) : (tensor<1x12x5x64xf32>, tensor<4xi32>) -> tensor<1x5x12x64xf32>
    %674 = "arith.constant"() <{value = dense<0.000000e+00> : tensor<4096x12xf32>}> : () -> tensor<4096x12xf32>
    %675 = "tosa.const"() <{value = dense<[0, 1, 3, 2]> : tensor<4xi32>}> : () -> tensor<4xi32>
    %676 = "tosa.transpose"(%670, %675) : (tensor<1x5x12x64xf32>, tensor<4xi32>) -> tensor<1x5x64x12xf32>
    %677 = "tosa.reshape"(%667) <{new_shape = array<i64: 5, 4096, 64>}> : (tensor<1x5x4096x64xf32>) -> tensor<5x4096x64xf32>
    %678 = "tosa.reshape"(%676) <{new_shape = array<i64: 5, 64, 12>}> : (tensor<1x5x64x12xf32>) -> tensor<5x64x12xf32>
    %679 = "tosa.matmul"(%677, %678) : (tensor<5x4096x64xf32>, tensor<5x64x12xf32>) -> tensor<5x4096x12xf32>
    %680 = "arith.constant"() <{value = dense<1.250000e-01> : tensor<5x4096x12xf32>}> : () -> tensor<5x4096x12xf32>
    %681 = "tosa.mul"(%679, %680) <{shift = 0 : i8}> : (tensor<5x4096x12xf32>, tensor<5x4096x12xf32>) -> tensor<5x4096x12xf32>
    %682 = "tosa.add"(%681, %674) : (tensor<5x4096x12xf32>, tensor<4096x12xf32>) -> tensor<5x4096x12xf32>
    %683 = "arith.constant"() <{value = dense<0.000000e+00> : tensor<5x4096x12xf32>}> : () -> tensor<5x4096x12xf32>
    %684 = "linalg.softmax"(%682, %683) <{dimension = 3 : i64}> : (tensor<5x4096x12xf32>, tensor<5x4096x12xf32>) -> tensor<5x4096x12xf32>
    %685 = "tosa.reshape"(%673) <{new_shape = array<i64: 5, 12, 64>}> : (tensor<1x5x12x64xf32>) -> tensor<5x12x64xf32>
    %686 = "tosa.matmul"(%684, %685) : (tensor<5x4096x12xf32>, tensor<5x12x64xf32>) -> tensor<5x4096x64xf32>
    %687 = "tosa.reshape"(%686) <{new_shape = array<i64: 1, 5, 4096, 64>}> : (tensor<5x4096x64xf32>) -> tensor<1x5x4096x64xf32>
    %688 = "tosa.const"() <{value = dense<> : tensor<0xi32>}> : () -> tensor<0xi32>
    %689 = "tosa.const"() <{value = dense<> : tensor<0xi32>}> : () -> tensor<0xi32>
    %690 = "tosa.const"() <{value = dense<> : tensor<0xi32>}> : () -> tensor<0xi32>
    %691 = "tosa.const"() <{value = dense<[0, 2, 1, 3]> : tensor<4xi32>}> : () -> tensor<4xi32>
    %692 = "tosa.transpose"(%687, %691) : (tensor<1x5x4096x64xf32>, tensor<4xi32>) -> tensor<1x4096x5x64xf32>
    %693 = "tosa.reshape"(%692) <{new_shape = array<i64: 1, 4096, 320>}> : (tensor<1x4096x5x64xf32>) -> tensor<1x4096x320xf32>
    %694 = "tosa.reshape"(%693) <{new_shape = array<i64: 4096, 320>}> : (tensor<1x4096x320xf32>) -> tensor<4096x320xf32>
    %695 = "tosa.const"() <{value = dense<[1, 0]> : tensor<2xi32>}> : () -> tensor<2xi32>
    %696 = "tosa.transpose"(%arg74, %695) : (tensor<320x320xf32>, tensor<2xi32>) -> tensor<320x320xf32>
    %697 = "tosa.reshape"(%694) <{new_shape = array<i64: 1, 4096, 320>}> : (tensor<4096x320xf32>) -> tensor<1x4096x320xf32>
    %698 = "tosa.reshape"(%696) <{new_shape = array<i64: 1, 320, 320>}> : (tensor<320x320xf32>) -> tensor<1x320x320xf32>
    %699 = "tosa.matmul"(%697, %698) : (tensor<1x4096x320xf32>, tensor<1x320x320xf32>) -> tensor<1x4096x320xf32>
    %700 = "tosa.reshape"(%699) <{new_shape = array<i64: 4096, 320>}> : (tensor<1x4096x320xf32>) -> tensor<4096x320xf32>
    %701 = "tosa.reshape"(%arg75) <{new_shape = array<i64: 1, 320>}> : (tensor<320xf32>) -> tensor<1x320xf32>
    %702 = "tosa.add"(%701, %700) : (tensor<1x320xf32>, tensor<4096x320xf32>) -> tensor<4096x320xf32>
    %703 = "tosa.reshape"(%702) <{new_shape = array<i64: 1, 4096, 320>}> : (tensor<4096x320xf32>) -> tensor<1x4096x320xf32>
    %704 = "tosa.identity"(%703) : (tensor<1x4096x320xf32>) -> tensor<1x4096x320xf32>
    %705 = "tosa.const"() <{value = dense<1.000000e+00> : tensor<1x4096x320xf32>}> : () -> tensor<1x4096x320xf32>
    %706 = "tosa.reciprocal"(%705) : (tensor<1x4096x320xf32>) -> tensor<1x4096x320xf32>
    %707 = "tosa.mul"(%704, %706) <{shift = 0 : i8}> : (tensor<1x4096x320xf32>, tensor<1x4096x320xf32>) -> tensor<1x4096x320xf32>
    %708 = "tosa.add"(%707, %627) : (tensor<1x4096x320xf32>, tensor<1x4096x320xf32>) -> tensor<1x4096x320xf32>
    %709 = "tosa.reduce_sum"(%708) <{axis = 2 : i32}> : (tensor<1x4096x320xf32>) -> tensor<1x4096x1xf32>
    %710 = "tosa.const"() <{value = dense<3.200000e+02> : tensor<1xf32>}> : () -> tensor<1xf32>
    %711 = "tosa.reciprocal"(%710) : (tensor<1xf32>) -> tensor<1xf32>
    %712 = "tosa.mul"(%711, %709) <{shift = 0 : i8}> : (tensor<1xf32>, tensor<1x4096x1xf32>) -> tensor<1x4096x1xf32>
    %713 = "tosa.sub"(%708, %712) : (tensor<1x4096x320xf32>, tensor<1x4096x1xf32>) -> tensor<1x4096x320xf32>
    %714 = "tosa.mul"(%713, %713) <{shift = 0 : i8}> : (tensor<1x4096x320xf32>, tensor<1x4096x320xf32>) -> tensor<1x4096x320xf32>
    %715 = "tosa.reduce_sum"(%714) <{axis = 2 : i32}> : (tensor<1x4096x320xf32>) -> tensor<1x4096x1xf32>
    %716 = "tosa.const"() <{value = dense<3.200000e+02> : tensor<1xf32>}> : () -> tensor<1xf32>
    %717 = "tosa.reciprocal"(%716) : (tensor<1xf32>) -> tensor<1xf32>
    %718 = "tosa.mul"(%717, %715) <{shift = 0 : i8}> : (tensor<1xf32>, tensor<1x4096x1xf32>) -> tensor<1x4096x1xf32>
    %719 = "tosa.const"() <{value = dense<9.99999974E-6> : tensor<1x4096x1xf32>}> : () -> tensor<1x4096x1xf32>
    %720 = "tosa.add"(%718, %719) : (tensor<1x4096x1xf32>, tensor<1x4096x1xf32>) -> tensor<1x4096x1xf32>
    %721 = "tosa.rsqrt"(%720) : (tensor<1x4096x1xf32>) -> tensor<1x4096x1xf32>
    %722 = "tosa.sub"(%708, %712) : (tensor<1x4096x320xf32>, tensor<1x4096x1xf32>) -> tensor<1x4096x320xf32>
    %723 = "tosa.mul"(%722, %721) <{shift = 0 : i8}> : (tensor<1x4096x320xf32>, tensor<1x4096x1xf32>) -> tensor<1x4096x320xf32>
    %724 = "tosa.reshape"(%arg76) <{new_shape = array<i64: 1, 1, 320>}> : (tensor<320xf32>) -> tensor<1x1x320xf32>
    %725 = "tosa.mul"(%723, %724) <{shift = 0 : i8}> : (tensor<1x4096x320xf32>, tensor<1x1x320xf32>) -> tensor<1x4096x320xf32>
    %726 = "tosa.reshape"(%arg77) <{new_shape = array<i64: 1, 1, 320>}> : (tensor<320xf32>) -> tensor<1x1x320xf32>
    %727 = "tosa.add"(%725, %726) : (tensor<1x4096x320xf32>, tensor<1x1x320xf32>) -> tensor<1x4096x320xf32>
    %728 = "tosa.reshape"(%727) <{new_shape = array<i64: 4096, 320>}> : (tensor<1x4096x320xf32>) -> tensor<4096x320xf32>
    %729 = "tosa.const"() <{value = dense<[1, 0]> : tensor<2xi32>}> : () -> tensor<2xi32>
    %730 = "tosa.transpose"(%arg78, %729) : (tensor<2560x320xf32>, tensor<2xi32>) -> tensor<320x2560xf32>
    %731 = "tosa.reshape"(%728) <{new_shape = array<i64: 1, 4096, 320>}> : (tensor<4096x320xf32>) -> tensor<1x4096x320xf32>
    %732 = "tosa.reshape"(%730) <{new_shape = array<i64: 1, 320, 2560>}> : (tensor<320x2560xf32>) -> tensor<1x320x2560xf32>
    %733 = "tosa.matmul"(%731, %732) : (tensor<1x4096x320xf32>, tensor<1x320x2560xf32>) -> tensor<1x4096x2560xf32>
    %734 = "tosa.reshape"(%733) <{new_shape = array<i64: 4096, 2560>}> : (tensor<1x4096x2560xf32>) -> tensor<4096x2560xf32>
    %735 = "tosa.reshape"(%arg79) <{new_shape = array<i64: 1, 2560>}> : (tensor<2560xf32>) -> tensor<1x2560xf32>
    %736 = "tosa.add"(%735, %734) : (tensor<1x2560xf32>, tensor<4096x2560xf32>) -> tensor<4096x2560xf32>
    %737 = "tosa.reshape"(%736) <{new_shape = array<i64: 1, 4096, 2560>}> : (tensor<4096x2560xf32>) -> tensor<1x4096x2560xf32>
    %738 = "tosa.slice"(%737) <{size = array<i64: 0, 0, 1280>, start = array<i64: 0, 0, 0>}> : (tensor<1x4096x2560xf32>) -> tensor<1x4096x1280xf32>
    %739 = "tosa.slice"(%737) <{size = array<i64: 0, 0, 2560>, start = array<i64: 0, 0, 1280>}> : (tensor<1x4096x2560xf32>) -> tensor<1x4096x1280xf32>
    %740 = "tosa.const"() <{value = dense<5.000000e-01> : tensor<1x4096x1280xf32>}> : () -> tensor<1x4096x1280xf32>
    %741 = "tosa.mul"(%739, %740) <{shift = 0 : i8}> : (tensor<1x4096x1280xf32>, tensor<1x4096x1280xf32>) -> tensor<1x4096x1280xf32>
    %742 = "tosa.const"() <{value = dense<0.707106769> : tensor<1x4096x1280xf32>}> : () -> tensor<1x4096x1280xf32>
    %743 = "tosa.mul"(%739, %742) <{shift = 0 : i8}> : (tensor<1x4096x1280xf32>, tensor<1x4096x1280xf32>) -> tensor<1x4096x1280xf32>
    %744 = "math.erf"(%743) <{fastmath = #arith.fastmath<none>}> : (tensor<1x4096x1280xf32>) -> tensor<1x4096x1280xf32>
    %745 = "tosa.const"() <{value = dense<1.000000e+00> : tensor<1x4096x1280xf32>}> : () -> tensor<1x4096x1280xf32>
    %746 = "tosa.add"(%744, %745) : (tensor<1x4096x1280xf32>, tensor<1x4096x1280xf32>) -> tensor<1x4096x1280xf32>
    %747 = "tosa.mul"(%741, %746) <{shift = 0 : i8}> : (tensor<1x4096x1280xf32>, tensor<1x4096x1280xf32>) -> tensor<1x4096x1280xf32>
    %748 = "tosa.mul"(%738, %747) <{shift = 0 : i8}> : (tensor<1x4096x1280xf32>, tensor<1x4096x1280xf32>) -> tensor<1x4096x1280xf32>
    %749 = "tosa.identity"(%748) : (tensor<1x4096x1280xf32>) -> tensor<1x4096x1280xf32>
    %750 = "tosa.reshape"(%749) <{new_shape = array<i64: 4096, 1280>}> : (tensor<1x4096x1280xf32>) -> tensor<4096x1280xf32>
    %751 = "tosa.const"() <{value = dense<[1, 0]> : tensor<2xi32>}> : () -> tensor<2xi32>
    %752 = "tosa.transpose"(%arg80, %751) : (tensor<320x1280xf32>, tensor<2xi32>) -> tensor<1280x320xf32>
    %753 = "tosa.reshape"(%750) <{new_shape = array<i64: 1, 4096, 1280>}> : (tensor<4096x1280xf32>) -> tensor<1x4096x1280xf32>
    %754 = "tosa.reshape"(%752) <{new_shape = array<i64: 1, 1280, 320>}> : (tensor<1280x320xf32>) -> tensor<1x1280x320xf32>
    %755 = "tosa.matmul"(%753, %754) : (tensor<1x4096x1280xf32>, tensor<1x1280x320xf32>) -> tensor<1x4096x320xf32>
    %756 = "tosa.reshape"(%755) <{new_shape = array<i64: 4096, 320>}> : (tensor<1x4096x320xf32>) -> tensor<4096x320xf32>
    %757 = "tosa.reshape"(%arg81) <{new_shape = array<i64: 1, 320>}> : (tensor<320xf32>) -> tensor<1x320xf32>
    %758 = "tosa.add"(%757, %756) : (tensor<1x320xf32>, tensor<4096x320xf32>) -> tensor<4096x320xf32>
    %759 = "tosa.reshape"(%758) <{new_shape = array<i64: 1, 4096, 320>}> : (tensor<4096x320xf32>) -> tensor<1x4096x320xf32>
    %760 = "tosa.add"(%759, %708) : (tensor<1x4096x320xf32>, tensor<1x4096x320xf32>) -> tensor<1x4096x320xf32>
    %761 = "tosa.reshape"(%760) <{new_shape = array<i64: 4096, 320>}> : (tensor<1x4096x320xf32>) -> tensor<4096x320xf32>
    %762 = "tosa.const"() <{value = dense<[1, 0]> : tensor<2xi32>}> : () -> tensor<2xi32>
    %763 = "tosa.transpose"(%arg82, %762) : (tensor<320x320xf32>, tensor<2xi32>) -> tensor<320x320xf32>
    %764 = "tosa.reshape"(%761) <{new_shape = array<i64: 1, 4096, 320>}> : (tensor<4096x320xf32>) -> tensor<1x4096x320xf32>
    %765 = "tosa.reshape"(%763) <{new_shape = array<i64: 1, 320, 320>}> : (tensor<320x320xf32>) -> tensor<1x320x320xf32>
    %766 = "tosa.matmul"(%764, %765) : (tensor<1x4096x320xf32>, tensor<1x320x320xf32>) -> tensor<1x4096x320xf32>
    %767 = "tosa.reshape"(%766) <{new_shape = array<i64: 4096, 320>}> : (tensor<1x4096x320xf32>) -> tensor<4096x320xf32>
    %768 = "tosa.reshape"(%arg83) <{new_shape = array<i64: 1, 320>}> : (tensor<320xf32>) -> tensor<1x320xf32>
    %769 = "tosa.add"(%768, %767) : (tensor<1x320xf32>, tensor<4096x320xf32>) -> tensor<4096x320xf32>
    %770 = "tosa.reshape"(%769) <{new_shape = array<i64: 1, 4096, 320>}> : (tensor<4096x320xf32>) -> tensor<1x4096x320xf32>
    %771 = "tosa.reshape"(%770) <{new_shape = array<i64: 1, 64, 64, 320>}> : (tensor<1x4096x320xf32>) -> tensor<1x64x64x320xf32>
    %772 = "tosa.const"() <{value = dense<[0, 3, 1, 2]> : tensor<4xi32>}> : () -> tensor<4xi32>
    %773 = "tosa.transpose"(%771, %772) : (tensor<1x64x64x320xf32>, tensor<4xi32>) -> tensor<1x320x64x64xf32>
    %774 = "tosa.identity"(%773) : (tensor<1x320x64x64xf32>) -> tensor<1x320x64x64xf32>
    %775 = "tosa.add"(%774, %508) : (tensor<1x320x64x64xf32>, tensor<1x320x64x64xf32>) -> tensor<1x320x64x64xf32>
    %776 = "tosa.const"() <{value = dense<[0, 2, 3, 1]> : tensor<4xi32>}> : () -> tensor<4xi32>
    %777 = "tosa.transpose"(%775, %776) : (tensor<1x320x64x64xf32>, tensor<4xi32>) -> tensor<1x64x64x320xf32>
    %778 = "tosa.const"() <{value = dense<[0, 2, 3, 1]> : tensor<4xi32>}> : () -> tensor<4xi32>
    %779 = "tosa.transpose"(%arg84, %778) : (tensor<320x320x3x3xf32>, tensor<4xi32>) -> tensor<320x3x3x320xf32>
    %780 = "tosa.conv2d"(%777, %779, %arg85) <{dilation = array<i64: 1, 1>, pad = array<i64: 1, 1, 1, 1>, stride = array<i64: 2, 2>}> : (tensor<1x64x64x320xf32>, tensor<320x3x3x320xf32>, tensor<320xf32>) -> tensor<1x32x32x320xf32>
    %781 = "tosa.const"() <{value = dense<[0, 3, 1, 2]> : tensor<4xi32>}> : () -> tensor<4xi32>
    %782 = "tosa.transpose"(%780, %781) : (tensor<1x32x32x320xf32>, tensor<4xi32>) -> tensor<1x320x32x32xf32>
    %783 = "tosa.reshape"(%782) <{new_shape = array<i64: 1, 32, 10, 1024>}> : (tensor<1x320x32x32xf32>) -> tensor<1x32x10x1024xf32>
    %784 = "tosa.reduce_sum"(%783) <{axis = 2 : i32}> : (tensor<1x32x10x1024xf32>) -> tensor<1x32x1x1024xf32>
    %785 = "tosa.reduce_sum"(%784) <{axis = 3 : i32}> : (tensor<1x32x1x1024xf32>) -> tensor<1x32x1x1xf32>
    %786 = "tosa.const"() <{value = dense<1.024000e+04> : tensor<1xf32>}> : () -> tensor<1xf32>
    %787 = "tosa.reciprocal"(%786) : (tensor<1xf32>) -> tensor<1xf32>
    %788 = "tosa.mul"(%787, %785) <{shift = 0 : i8}> : (tensor<1xf32>, tensor<1x32x1x1xf32>) -> tensor<1x32x1x1xf32>
    %789 = "tosa.sub"(%783, %788) : (tensor<1x32x10x1024xf32>, tensor<1x32x1x1xf32>) -> tensor<1x32x10x1024xf32>
    %790 = "tosa.mul"(%789, %789) <{shift = 0 : i8}> : (tensor<1x32x10x1024xf32>, tensor<1x32x10x1024xf32>) -> tensor<1x32x10x1024xf32>
    %791 = "tosa.reduce_sum"(%790) <{axis = 2 : i32}> : (tensor<1x32x10x1024xf32>) -> tensor<1x32x1x1024xf32>
    %792 = "tosa.reduce_sum"(%791) <{axis = 3 : i32}> : (tensor<1x32x1x1024xf32>) -> tensor<1x32x1x1xf32>
    %793 = "tosa.const"() <{value = dense<1.024000e+04> : tensor<1xf32>}> : () -> tensor<1xf32>
    %794 = "tosa.reciprocal"(%793) : (tensor<1xf32>) -> tensor<1xf32>
    %795 = "tosa.mul"(%794, %792) <{shift = 0 : i8}> : (tensor<1xf32>, tensor<1x32x1x1xf32>) -> tensor<1x32x1x1xf32>
    %796 = "tosa.const"() <{value = dense<9.99999974E-6> : tensor<1x32x1x1xf32>}> : () -> tensor<1x32x1x1xf32>
    %797 = "tosa.add"(%795, %796) : (tensor<1x32x1x1xf32>, tensor<1x32x1x1xf32>) -> tensor<1x32x1x1xf32>
    %798 = "tosa.rsqrt"(%797) : (tensor<1x32x1x1xf32>) -> tensor<1x32x1x1xf32>
    %799 = "tosa.sub"(%783, %788) : (tensor<1x32x10x1024xf32>, tensor<1x32x1x1xf32>) -> tensor<1x32x10x1024xf32>
    %800 = "tosa.mul"(%799, %798) <{shift = 0 : i8}> : (tensor<1x32x10x1024xf32>, tensor<1x32x1x1xf32>) -> tensor<1x32x10x1024xf32>
    %801 = "tosa.reshape"(%800) <{new_shape = array<i64: 1, 320, 32, 32>}> : (tensor<1x32x10x1024xf32>) -> tensor<1x320x32x32xf32>
    %802 = "tosa.reshape"(%arg86) <{new_shape = array<i64: 1, 320>}> : (tensor<320xf32>) -> tensor<1x320xf32>
    %803 = "tosa.reshape"(%802) <{new_shape = array<i64: 1, 320, 1>}> : (tensor<1x320xf32>) -> tensor<1x320x1xf32>
    %804 = "tosa.reshape"(%803) <{new_shape = array<i64: 1, 320, 1, 1>}> : (tensor<1x320x1xf32>) -> tensor<1x320x1x1xf32>
    %805 = "tosa.reshape"(%arg87) <{new_shape = array<i64: 1, 320>}> : (tensor<320xf32>) -> tensor<1x320xf32>
    %806 = "tosa.reshape"(%805) <{new_shape = array<i64: 1, 320, 1>}> : (tensor<1x320xf32>) -> tensor<1x320x1xf32>
    %807 = "tosa.reshape"(%806) <{new_shape = array<i64: 1, 320, 1, 1>}> : (tensor<1x320x1xf32>) -> tensor<1x320x1x1xf32>
    %808 = "tosa.mul"(%801, %807) <{shift = 0 : i8}> : (tensor<1x320x32x32xf32>, tensor<1x320x1x1xf32>) -> tensor<1x320x32x32xf32>
    %809 = "tosa.add"(%808, %804) : (tensor<1x320x32x32xf32>, tensor<1x320x1x1xf32>) -> tensor<1x320x32x32xf32>
    %810 = "tosa.sigmoid"(%809) : (tensor<1x320x32x32xf32>) -> tensor<1x320x32x32xf32>
    %811 = "tosa.mul"(%809, %810) <{shift = 0 : i8}> : (tensor<1x320x32x32xf32>, tensor<1x320x32x32xf32>) -> tensor<1x320x32x32xf32>
    %812 = "tosa.const"() <{value = dense<[0, 2, 3, 1]> : tensor<4xi32>}> : () -> tensor<4xi32>
    %813 = "tosa.transpose"(%811, %812) : (tensor<1x320x32x32xf32>, tensor<4xi32>) -> tensor<1x32x32x320xf32>
    %814 = "tosa.const"() <{value = dense<[0, 2, 3, 1]> : tensor<4xi32>}> : () -> tensor<4xi32>
    %815 = "tosa.transpose"(%arg88, %814) : (tensor<640x320x3x3xf32>, tensor<4xi32>) -> tensor<640x3x3x320xf32>
    %816 = "tosa.conv2d"(%813, %815, %arg89) <{dilation = array<i64: 1, 1>, pad = array<i64: 1, 1, 1, 1>, stride = array<i64: 1, 1>}> : (tensor<1x32x32x320xf32>, tensor<640x3x3x320xf32>, tensor<640xf32>) -> tensor<1x32x32x640xf32>
    %817 = "tosa.const"() <{value = dense<[0, 3, 1, 2]> : tensor<4xi32>}> : () -> tensor<4xi32>
    %818 = "tosa.transpose"(%816, %817) : (tensor<1x32x32x640xf32>, tensor<4xi32>) -> tensor<1x640x32x32xf32>
    %819 = "tosa.sigmoid"(%50) : (tensor<1x1280xf32>) -> tensor<1x1280xf32>
    %820 = "tosa.mul"(%50, %819) <{shift = 0 : i8}> : (tensor<1x1280xf32>, tensor<1x1280xf32>) -> tensor<1x1280xf32>
    %821 = "tosa.const"() <{value = dense<[1, 0]> : tensor<2xi32>}> : () -> tensor<2xi32>
    %822 = "tosa.transpose"(%arg90, %821) : (tensor<640x1280xf32>, tensor<2xi32>) -> tensor<1280x640xf32>
    %823 = "tosa.reshape"(%820) <{new_shape = array<i64: 1, 1, 1280>}> : (tensor<1x1280xf32>) -> tensor<1x1x1280xf32>
    %824 = "tosa.reshape"(%822) <{new_shape = array<i64: 1, 1280, 640>}> : (tensor<1280x640xf32>) -> tensor<1x1280x640xf32>
    %825 = "tosa.matmul"(%823, %824) : (tensor<1x1x1280xf32>, tensor<1x1280x640xf32>) -> tensor<1x1x640xf32>
    %826 = "tosa.reshape"(%825) <{new_shape = array<i64: 1, 640>}> : (tensor<1x1x640xf32>) -> tensor<1x640xf32>
    %827 = "tosa.reshape"(%arg91) <{new_shape = array<i64: 1, 640>}> : (tensor<640xf32>) -> tensor<1x640xf32>
    %828 = "tosa.add"(%827, %826) : (tensor<1x640xf32>, tensor<1x640xf32>) -> tensor<1x640xf32>
    %829 = "tensor.extract_slice"(%828) <{operandSegmentSizes = array<i32: 1, 0, 0, 0>, static_offsets = array<i64: 0, 0>, static_sizes = array<i64: 1, 640>, static_strides = array<i64: 1, 1>}> : (tensor<1x640xf32>) -> tensor<1x640xf32>
    %830 = "tensor.extract_slice"(%829) <{operandSegmentSizes = array<i32: 1, 0, 0, 0>, static_offsets = array<i64: 0, 0>, static_sizes = array<i64: 1, 640>, static_strides = array<i64: 1, 1>}> : (tensor<1x640xf32>) -> tensor<1x640xf32>
    %831 = "tosa.reshape"(%830) <{new_shape = array<i64: 1, 640, 1>}> : (tensor<1x640xf32>) -> tensor<1x640x1xf32>
    %832 = "tosa.reshape"(%831) <{new_shape = array<i64: 1, 640, 1, 1>}> : (tensor<1x640x1xf32>) -> tensor<1x640x1x1xf32>
    %833 = "tosa.add"(%818, %832) : (tensor<1x640x32x32xf32>, tensor<1x640x1x1xf32>) -> tensor<1x640x32x32xf32>
    %834 = "tosa.reshape"(%833) <{new_shape = array<i64: 1, 32, 20, 1024>}> : (tensor<1x640x32x32xf32>) -> tensor<1x32x20x1024xf32>
    %835 = "tosa.reduce_sum"(%834) <{axis = 2 : i32}> : (tensor<1x32x20x1024xf32>) -> tensor<1x32x1x1024xf32>
    %836 = "tosa.reduce_sum"(%835) <{axis = 3 : i32}> : (tensor<1x32x1x1024xf32>) -> tensor<1x32x1x1xf32>
    %837 = "tosa.const"() <{value = dense<2.048000e+04> : tensor<1xf32>}> : () -> tensor<1xf32>
    %838 = "tosa.reciprocal"(%837) : (tensor<1xf32>) -> tensor<1xf32>
    %839 = "tosa.mul"(%838, %836) <{shift = 0 : i8}> : (tensor<1xf32>, tensor<1x32x1x1xf32>) -> tensor<1x32x1x1xf32>
    %840 = "tosa.sub"(%834, %839) : (tensor<1x32x20x1024xf32>, tensor<1x32x1x1xf32>) -> tensor<1x32x20x1024xf32>
    %841 = "tosa.mul"(%840, %840) <{shift = 0 : i8}> : (tensor<1x32x20x1024xf32>, tensor<1x32x20x1024xf32>) -> tensor<1x32x20x1024xf32>
    %842 = "tosa.reduce_sum"(%841) <{axis = 2 : i32}> : (tensor<1x32x20x1024xf32>) -> tensor<1x32x1x1024xf32>
    %843 = "tosa.reduce_sum"(%842) <{axis = 3 : i32}> : (tensor<1x32x1x1024xf32>) -> tensor<1x32x1x1xf32>
    %844 = "tosa.const"() <{value = dense<2.048000e+04> : tensor<1xf32>}> : () -> tensor<1xf32>
    %845 = "tosa.reciprocal"(%844) : (tensor<1xf32>) -> tensor<1xf32>
    %846 = "tosa.mul"(%845, %843) <{shift = 0 : i8}> : (tensor<1xf32>, tensor<1x32x1x1xf32>) -> tensor<1x32x1x1xf32>
    %847 = "tosa.const"() <{value = dense<9.99999974E-6> : tensor<1x32x1x1xf32>}> : () -> tensor<1x32x1x1xf32>
    %848 = "tosa.add"(%846, %847) : (tensor<1x32x1x1xf32>, tensor<1x32x1x1xf32>) -> tensor<1x32x1x1xf32>
    %849 = "tosa.rsqrt"(%848) : (tensor<1x32x1x1xf32>) -> tensor<1x32x1x1xf32>
    %850 = "tosa.sub"(%834, %839) : (tensor<1x32x20x1024xf32>, tensor<1x32x1x1xf32>) -> tensor<1x32x20x1024xf32>
    %851 = "tosa.mul"(%850, %849) <{shift = 0 : i8}> : (tensor<1x32x20x1024xf32>, tensor<1x32x1x1xf32>) -> tensor<1x32x20x1024xf32>
    %852 = "tosa.reshape"(%851) <{new_shape = array<i64: 1, 640, 32, 32>}> : (tensor<1x32x20x1024xf32>) -> tensor<1x640x32x32xf32>
    %853 = "tosa.reshape"(%arg92) <{new_shape = array<i64: 1, 640>}> : (tensor<640xf32>) -> tensor<1x640xf32>
    %854 = "tosa.reshape"(%853) <{new_shape = array<i64: 1, 640, 1>}> : (tensor<1x640xf32>) -> tensor<1x640x1xf32>
    %855 = "tosa.reshape"(%854) <{new_shape = array<i64: 1, 640, 1, 1>}> : (tensor<1x640x1xf32>) -> tensor<1x640x1x1xf32>
    %856 = "tosa.reshape"(%arg93) <{new_shape = array<i64: 1, 640>}> : (tensor<640xf32>) -> tensor<1x640xf32>
    %857 = "tosa.reshape"(%856) <{new_shape = array<i64: 1, 640, 1>}> : (tensor<1x640xf32>) -> tensor<1x640x1xf32>
    %858 = "tosa.reshape"(%857) <{new_shape = array<i64: 1, 640, 1, 1>}> : (tensor<1x640x1xf32>) -> tensor<1x640x1x1xf32>
    %859 = "tosa.mul"(%852, %858) <{shift = 0 : i8}> : (tensor<1x640x32x32xf32>, tensor<1x640x1x1xf32>) -> tensor<1x640x32x32xf32>
    %860 = "tosa.add"(%859, %855) : (tensor<1x640x32x32xf32>, tensor<1x640x1x1xf32>) -> tensor<1x640x32x32xf32>
    %861 = "tosa.sigmoid"(%860) : (tensor<1x640x32x32xf32>) -> tensor<1x640x32x32xf32>
    %862 = "tosa.mul"(%860, %861) <{shift = 0 : i8}> : (tensor<1x640x32x32xf32>, tensor<1x640x32x32xf32>) -> tensor<1x640x32x32xf32>
    %863 = "tosa.identity"(%862) : (tensor<1x640x32x32xf32>) -> tensor<1x640x32x32xf32>
    %864 = "tosa.const"() <{value = dense<[0, 2, 3, 1]> : tensor<4xi32>}> : () -> tensor<4xi32>
    %865 = "tosa.transpose"(%863, %864) : (tensor<1x640x32x32xf32>, tensor<4xi32>) -> tensor<1x32x32x640xf32>
    %866 = "tosa.const"() <{value = dense<[0, 2, 3, 1]> : tensor<4xi32>}> : () -> tensor<4xi32>
    %867 = "tosa.transpose"(%arg94, %866) : (tensor<640x640x3x3xf32>, tensor<4xi32>) -> tensor<640x3x3x640xf32>
    %868 = "tosa.conv2d"(%865, %867, %arg95) <{dilation = array<i64: 1, 1>, pad = array<i64: 1, 1, 1, 1>, stride = array<i64: 1, 1>}> : (tensor<1x32x32x640xf32>, tensor<640x3x3x640xf32>, tensor<640xf32>) -> tensor<1x32x32x640xf32>
    %869 = "tosa.const"() <{value = dense<[0, 3, 1, 2]> : tensor<4xi32>}> : () -> tensor<4xi32>
    %870 = "tosa.transpose"(%868, %869) : (tensor<1x32x32x640xf32>, tensor<4xi32>) -> tensor<1x640x32x32xf32>
    %871 = "tosa.const"() <{value = dense<[0, 2, 3, 1]> : tensor<4xi32>}> : () -> tensor<4xi32>
    %872 = "tosa.transpose"(%782, %871) : (tensor<1x320x32x32xf32>, tensor<4xi32>) -> tensor<1x32x32x320xf32>
    %873 = "tosa.const"() <{value = dense<[0, 2, 3, 1]> : tensor<4xi32>}> : () -> tensor<4xi32>
    %874 = "tosa.transpose"(%arg96, %873) : (tensor<640x320x1x1xf32>, tensor<4xi32>) -> tensor<640x1x1x320xf32>
    %875 = "tosa.conv2d"(%872, %874, %arg97) <{dilation = array<i64: 1, 1>, pad = array<i64: 0, 0, 0, 0>, stride = array<i64: 1, 1>}> : (tensor<1x32x32x320xf32>, tensor<640x1x1x320xf32>, tensor<640xf32>) -> tensor<1x32x32x640xf32>
    %876 = "tosa.const"() <{value = dense<[0, 3, 1, 2]> : tensor<4xi32>}> : () -> tensor<4xi32>
    %877 = "tosa.transpose"(%875, %876) : (tensor<1x32x32x640xf32>, tensor<4xi32>) -> tensor<1x640x32x32xf32>
    %878 = "tosa.add"(%877, %870) : (tensor<1x640x32x32xf32>, tensor<1x640x32x32xf32>) -> tensor<1x640x32x32xf32>
    %879 = "tosa.const"() <{value = dense<1.000000e+00> : tensor<1x640x32x32xf32>}> : () -> tensor<1x640x32x32xf32>
    %880 = "tosa.reciprocal"(%879) : (tensor<1x640x32x32xf32>) -> tensor<1x640x32x32xf32>
    %881 = "tosa.mul"(%878, %880) <{shift = 0 : i8}> : (tensor<1x640x32x32xf32>, tensor<1x640x32x32xf32>) -> tensor<1x640x32x32xf32>
    %882 = "tosa.reshape"(%881) <{new_shape = array<i64: 1, 32, 20, 1024>}> : (tensor<1x640x32x32xf32>) -> tensor<1x32x20x1024xf32>
    %883 = "tosa.reduce_sum"(%882) <{axis = 2 : i32}> : (tensor<1x32x20x1024xf32>) -> tensor<1x32x1x1024xf32>
    %884 = "tosa.reduce_sum"(%883) <{axis = 3 : i32}> : (tensor<1x32x1x1024xf32>) -> tensor<1x32x1x1xf32>
    %885 = "tosa.const"() <{value = dense<2.048000e+04> : tensor<1xf32>}> : () -> tensor<1xf32>
    %886 = "tosa.reciprocal"(%885) : (tensor<1xf32>) -> tensor<1xf32>
    %887 = "tosa.mul"(%886, %884) <{shift = 0 : i8}> : (tensor<1xf32>, tensor<1x32x1x1xf32>) -> tensor<1x32x1x1xf32>
    %888 = "tosa.sub"(%882, %887) : (tensor<1x32x20x1024xf32>, tensor<1x32x1x1xf32>) -> tensor<1x32x20x1024xf32>
    %889 = "tosa.mul"(%888, %888) <{shift = 0 : i8}> : (tensor<1x32x20x1024xf32>, tensor<1x32x20x1024xf32>) -> tensor<1x32x20x1024xf32>
    %890 = "tosa.reduce_sum"(%889) <{axis = 2 : i32}> : (tensor<1x32x20x1024xf32>) -> tensor<1x32x1x1024xf32>
    %891 = "tosa.reduce_sum"(%890) <{axis = 3 : i32}> : (tensor<1x32x1x1024xf32>) -> tensor<1x32x1x1xf32>
    %892 = "tosa.const"() <{value = dense<2.048000e+04> : tensor<1xf32>}> : () -> tensor<1xf32>
    %893 = "tosa.reciprocal"(%892) : (tensor<1xf32>) -> tensor<1xf32>
    %894 = "tosa.mul"(%893, %891) <{shift = 0 : i8}> : (tensor<1xf32>, tensor<1x32x1x1xf32>) -> tensor<1x32x1x1xf32>
    %895 = "tosa.const"() <{value = dense<9.99999997E-7> : tensor<1x32x1x1xf32>}> : () -> tensor<1x32x1x1xf32>
    %896 = "tosa.add"(%894, %895) : (tensor<1x32x1x1xf32>, tensor<1x32x1x1xf32>) -> tensor<1x32x1x1xf32>
    %897 = "tosa.rsqrt"(%896) : (tensor<1x32x1x1xf32>) -> tensor<1x32x1x1xf32>
    %898 = "tosa.sub"(%882, %887) : (tensor<1x32x20x1024xf32>, tensor<1x32x1x1xf32>) -> tensor<1x32x20x1024xf32>
    %899 = "tosa.mul"(%898, %897) <{shift = 0 : i8}> : (tensor<1x32x20x1024xf32>, tensor<1x32x1x1xf32>) -> tensor<1x32x20x1024xf32>
    %900 = "tosa.reshape"(%899) <{new_shape = array<i64: 1, 640, 32, 32>}> : (tensor<1x32x20x1024xf32>) -> tensor<1x640x32x32xf32>
    %901 = "tosa.reshape"(%arg98) <{new_shape = array<i64: 1, 640>}> : (tensor<640xf32>) -> tensor<1x640xf32>
    %902 = "tosa.reshape"(%901) <{new_shape = array<i64: 1, 640, 1>}> : (tensor<1x640xf32>) -> tensor<1x640x1xf32>
    %903 = "tosa.reshape"(%902) <{new_shape = array<i64: 1, 640, 1, 1>}> : (tensor<1x640x1xf32>) -> tensor<1x640x1x1xf32>
    %904 = "tosa.reshape"(%arg99) <{new_shape = array<i64: 1, 640>}> : (tensor<640xf32>) -> tensor<1x640xf32>
    %905 = "tosa.reshape"(%904) <{new_shape = array<i64: 1, 640, 1>}> : (tensor<1x640xf32>) -> tensor<1x640x1xf32>
    %906 = "tosa.reshape"(%905) <{new_shape = array<i64: 1, 640, 1, 1>}> : (tensor<1x640x1xf32>) -> tensor<1x640x1x1xf32>
    %907 = "tosa.mul"(%900, %906) <{shift = 0 : i8}> : (tensor<1x640x32x32xf32>, tensor<1x640x1x1xf32>) -> tensor<1x640x32x32xf32>
    %908 = "tosa.add"(%907, %903) : (tensor<1x640x32x32xf32>, tensor<1x640x1x1xf32>) -> tensor<1x640x32x32xf32>
    %909 = "tosa.const"() <{value = dense<[0, 2, 3, 1]> : tensor<4xi32>}> : () -> tensor<4xi32>
    %910 = "tosa.transpose"(%908, %909) : (tensor<1x640x32x32xf32>, tensor<4xi32>) -> tensor<1x32x32x640xf32>
    %911 = "tosa.reshape"(%910) <{new_shape = array<i64: 1, 1024, 640>}> : (tensor<1x32x32x640xf32>) -> tensor<1x1024x640xf32>
    %912 = "tosa.const"() <{value = dense<[1, 0]> : tensor<2xi32>}> : () -> tensor<2xi32>
    %913 = "tosa.transpose"(%arg100, %912) : (tensor<640x640xf32>, tensor<2xi32>) -> tensor<640x640xf32>
    %914 = "tosa.reshape"(%911) <{new_shape = array<i64: 1024, 640>}> : (tensor<1x1024x640xf32>) -> tensor<1024x640xf32>
    %915 = "arith.constant"() <{value = dense<0.000000e+00> : tensor<1024x640xf32>}> : () -> tensor<1024x640xf32>
    %916 = "linalg.matmul"(%914, %913, %915) <{cast = #linalg.type_fn<cast_signed>, operandSegmentSizes = array<i32: 2, 1>}> ({
    ^bb0(%arg720: f32, %arg721: f32, %arg722: f32):
      %6629 = "arith.mulf"(%arg720, %arg721) <{fastmath = #arith.fastmath<none>}> : (f32, f32) -> f32
      %6630 = "arith.addf"(%arg722, %6629) <{fastmath = #arith.fastmath<none>}> : (f32, f32) -> f32
      "linalg.yield"(%6630) : (f32) -> ()
    }) : (tensor<1024x640xf32>, tensor<640x640xf32>, tensor<1024x640xf32>) -> tensor<1024x640xf32>
    %917 = "tosa.reshape"(%916) <{new_shape = array<i64: 1, 1024, 640>}> : (tensor<1024x640xf32>) -> tensor<1x1024x640xf32>
    %918 = "tosa.reshape"(%arg101) <{new_shape = array<i64: 1, 1, 640>}> : (tensor<640xf32>) -> tensor<1x1x640xf32>
    %919 = "tosa.add"(%917, %918) : (tensor<1x1024x640xf32>, tensor<1x1x640xf32>) -> tensor<1x1024x640xf32>
    %920 = "tosa.reduce_sum"(%919) <{axis = 2 : i32}> : (tensor<1x1024x640xf32>) -> tensor<1x1024x1xf32>
    %921 = "tosa.const"() <{value = dense<6.400000e+02> : tensor<1xf32>}> : () -> tensor<1xf32>
    %922 = "tosa.reciprocal"(%921) : (tensor<1xf32>) -> tensor<1xf32>
    %923 = "tosa.mul"(%922, %920) <{shift = 0 : i8}> : (tensor<1xf32>, tensor<1x1024x1xf32>) -> tensor<1x1024x1xf32>
    %924 = "tosa.sub"(%919, %923) : (tensor<1x1024x640xf32>, tensor<1x1024x1xf32>) -> tensor<1x1024x640xf32>
    %925 = "tosa.mul"(%924, %924) <{shift = 0 : i8}> : (tensor<1x1024x640xf32>, tensor<1x1024x640xf32>) -> tensor<1x1024x640xf32>
    %926 = "tosa.reduce_sum"(%925) <{axis = 2 : i32}> : (tensor<1x1024x640xf32>) -> tensor<1x1024x1xf32>
    %927 = "tosa.const"() <{value = dense<6.400000e+02> : tensor<1xf32>}> : () -> tensor<1xf32>
    %928 = "tosa.reciprocal"(%927) : (tensor<1xf32>) -> tensor<1xf32>
    %929 = "tosa.mul"(%928, %926) <{shift = 0 : i8}> : (tensor<1xf32>, tensor<1x1024x1xf32>) -> tensor<1x1024x1xf32>
    %930 = "tosa.const"() <{value = dense<9.99999974E-6> : tensor<1x1024x1xf32>}> : () -> tensor<1x1024x1xf32>
    %931 = "tosa.add"(%929, %930) : (tensor<1x1024x1xf32>, tensor<1x1024x1xf32>) -> tensor<1x1024x1xf32>
    %932 = "tosa.rsqrt"(%931) : (tensor<1x1024x1xf32>) -> tensor<1x1024x1xf32>
    %933 = "tosa.sub"(%919, %923) : (tensor<1x1024x640xf32>, tensor<1x1024x1xf32>) -> tensor<1x1024x640xf32>
    %934 = "tosa.mul"(%933, %932) <{shift = 0 : i8}> : (tensor<1x1024x640xf32>, tensor<1x1024x1xf32>) -> tensor<1x1024x640xf32>
    %935 = "tosa.reshape"(%arg102) <{new_shape = array<i64: 1, 1, 640>}> : (tensor<640xf32>) -> tensor<1x1x640xf32>
    %936 = "tosa.mul"(%934, %935) <{shift = 0 : i8}> : (tensor<1x1024x640xf32>, tensor<1x1x640xf32>) -> tensor<1x1024x640xf32>
    %937 = "tosa.reshape"(%arg103) <{new_shape = array<i64: 1, 1, 640>}> : (tensor<640xf32>) -> tensor<1x1x640xf32>
    %938 = "tosa.add"(%936, %937) : (tensor<1x1024x640xf32>, tensor<1x1x640xf32>) -> tensor<1x1024x640xf32>
    %939 = "tosa.const"() <{value = dense<[1, 0]> : tensor<2xi32>}> : () -> tensor<2xi32>
    %940 = "tosa.transpose"(%arg104, %939) : (tensor<640x640xf32>, tensor<2xi32>) -> tensor<640x640xf32>
    %941 = "tosa.reshape"(%938) <{new_shape = array<i64: 1024, 640>}> : (tensor<1x1024x640xf32>) -> tensor<1024x640xf32>
    %942 = "arith.constant"() <{value = dense<0.000000e+00> : tensor<1024x640xf32>}> : () -> tensor<1024x640xf32>
    %943 = "linalg.matmul"(%941, %940, %942) <{cast = #linalg.type_fn<cast_signed>, operandSegmentSizes = array<i32: 2, 1>}> ({
    ^bb0(%arg720: f32, %arg721: f32, %arg722: f32):
      %6629 = "arith.mulf"(%arg720, %arg721) <{fastmath = #arith.fastmath<none>}> : (f32, f32) -> f32
      %6630 = "arith.addf"(%arg722, %6629) <{fastmath = #arith.fastmath<none>}> : (f32, f32) -> f32
      "linalg.yield"(%6630) : (f32) -> ()
    }) : (tensor<1024x640xf32>, tensor<640x640xf32>, tensor<1024x640xf32>) -> tensor<1024x640xf32>
    %944 = "tosa.reshape"(%943) <{new_shape = array<i64: 1, 1024, 640>}> : (tensor<1024x640xf32>) -> tensor<1x1024x640xf32>
    %945 = "tosa.const"() <{value = dense<[1, 0]> : tensor<2xi32>}> : () -> tensor<2xi32>
    %946 = "tosa.transpose"(%arg105, %945) : (tensor<640x640xf32>, tensor<2xi32>) -> tensor<640x640xf32>
    %947 = "tosa.reshape"(%938) <{new_shape = array<i64: 1024, 640>}> : (tensor<1x1024x640xf32>) -> tensor<1024x640xf32>
    %948 = "arith.constant"() <{value = dense<0.000000e+00> : tensor<1024x640xf32>}> : () -> tensor<1024x640xf32>
    %949 = "linalg.matmul"(%947, %946, %948) <{cast = #linalg.type_fn<cast_signed>, operandSegmentSizes = array<i32: 2, 1>}> ({
    ^bb0(%arg720: f32, %arg721: f32, %arg722: f32):
      %6629 = "arith.mulf"(%arg720, %arg721) <{fastmath = #arith.fastmath<none>}> : (f32, f32) -> f32
      %6630 = "arith.addf"(%arg722, %6629) <{fastmath = #arith.fastmath<none>}> : (f32, f32) -> f32
      "linalg.yield"(%6630) : (f32) -> ()
    }) : (tensor<1024x640xf32>, tensor<640x640xf32>, tensor<1024x640xf32>) -> tensor<1024x640xf32>
    %950 = "tosa.reshape"(%949) <{new_shape = array<i64: 1, 1024, 640>}> : (tensor<1024x640xf32>) -> tensor<1x1024x640xf32>
    %951 = "tosa.const"() <{value = dense<[1, 0]> : tensor<2xi32>}> : () -> tensor<2xi32>
    %952 = "tosa.transpose"(%arg106, %951) : (tensor<640x640xf32>, tensor<2xi32>) -> tensor<640x640xf32>
…
    %6219 = "tosa.reshape"(%6218) <{new_shape = array<i64: 1, 64, 64, 320>}> : (tensor<1x4096x320xf32>) -> tensor<1x64x64x320xf32>
    %6220 = "tosa.const"() <{value = dense<[0, 3, 1, 2]> : tensor<4xi32>}> : () -> tensor<4xi32>
    %6221 = "tosa.transpose"(%6219, %6220) : (tensor<1x64x64x320xf32>, tensor<4xi32>) -> tensor<1x320x64x64xf32>
    %6222 = "tosa.identity"(%6221) : (tensor<1x320x64x64xf32>) -> tensor<1x320x64x64xf32>
    %6223 = "tosa.add"(%6222, %5956) : (tensor<1x320x64x64xf32>, tensor<1x320x64x64xf32>) -> tensor<1x320x64x64xf32>
    %6224 = "tensor.empty"() : () -> tensor<1x640x64x64xf32>
    %6225 = "tensor.insert_slice"(%6223, %6224) <{operandSegmentSizes = array<i32: 1, 1, 0, 0, 0>, static_offsets = array<i64: 0, 0, 0, 0>, static_sizes = array<i64: 1, 320, 64, 64>, static_strides = array<i64: 1, 1, 1, 1>}> : (tensor<1x320x64x64xf32>, tensor<1x640x64x64xf32>) -> tensor<1x640x64x64xf32>
    %6226 = "tensor.insert_slice"(%57, %6225) <{operandSegmentSizes = array<i32: 1, 1, 0, 0, 0>, static_offsets = array<i64: 0, 320, 0, 0>, static_sizes = array<i64: 1, 320, 64, 64>, static_strides = array<i64: 1, 1, 1, 1>}> : (tensor<1x320x64x64xf32>, tensor<1x640x64x64xf32>) -> tensor<1x640x64x64xf32>
    %6227 = "tosa.reshape"(%6226) <{new_shape = array<i64: 1, 32, 20, 4096>}> : (tensor<1x640x64x64xf32>) -> tensor<1x32x20x4096xf32>
    %6228 = "tosa.reduce_sum"(%6227) <{axis = 2 : i32}> : (tensor<1x32x20x4096xf32>) -> tensor<1x32x1x4096xf32>
    %6229 = "tosa.reduce_sum"(%6228) <{axis = 3 : i32}> : (tensor<1x32x1x4096xf32>) -> tensor<1x32x1x1xf32>
    %6230 = "tosa.const"() <{value = dense<8.192000e+04> : tensor<1xf32>}> : () -> tensor<1xf32>
    %6231 = "tosa.reciprocal"(%6230) : (tensor<1xf32>) -> tensor<1xf32>
    %6232 = "tosa.mul"(%6231, %6229) <{shift = 0 : i8}> : (tensor<1xf32>, tensor<1x32x1x1xf32>) -> tensor<1x32x1x1xf32>
    %6233 = "tosa.sub"(%6227, %6232) : (tensor<1x32x20x4096xf32>, tensor<1x32x1x1xf32>) -> tensor<1x32x20x4096xf32>
    %6234 = "tosa.mul"(%6233, %6233) <{shift = 0 : i8}> : (tensor<1x32x20x4096xf32>, tensor<1x32x20x4096xf32>) -> tensor<1x32x20x4096xf32>
    %6235 = "tosa.reduce_sum"(%6234) <{axis = 2 : i32}> : (tensor<1x32x20x4096xf32>) -> tensor<1x32x1x4096xf32>
    %6236 = "tosa.reduce_sum"(%6235) <{axis = 3 : i32}> : (tensor<1x32x1x4096xf32>) -> tensor<1x32x1x1xf32>
    %6237 = "tosa.const"() <{value = dense<8.192000e+04> : tensor<1xf32>}> : () -> tensor<1xf32>
    %6238 = "tosa.reciprocal"(%6237) : (tensor<1xf32>) -> tensor<1xf32>
    %6239 = "tosa.mul"(%6238, %6236) <{shift = 0 : i8}> : (tensor<1xf32>, tensor<1x32x1x1xf32>) -> tensor<1x32x1x1xf32>
    %6240 = "tosa.const"() <{value = dense<9.99999974E-6> : tensor<1x32x1x1xf32>}> : () -> tensor<1x32x1x1xf32>
    %6241 = "tosa.add"(%6239, %6240) : (tensor<1x32x1x1xf32>, tensor<1x32x1x1xf32>) -> tensor<1x32x1x1xf32>
    %6242 = "tosa.rsqrt"(%6241) : (tensor<1x32x1x1xf32>) -> tensor<1x32x1x1xf32>
    %6243 = "tosa.sub"(%6227, %6232) : (tensor<1x32x20x4096xf32>, tensor<1x32x1x1xf32>) -> tensor<1x32x20x4096xf32>
    %6244 = "tosa.mul"(%6243, %6242) <{shift = 0 : i8}> : (tensor<1x32x20x4096xf32>, tensor<1x32x1x1xf32>) -> tensor<1x32x20x4096xf32>
    %6245 = "tosa.reshape"(%6244) <{new_shape = array<i64: 1, 640, 64, 64>}> : (tensor<1x32x20x4096xf32>) -> tensor<1x640x64x64xf32>
    %6246 = "tosa.reshape"(%arg676) <{new_shape = array<i64: 1, 640>}> : (tensor<640xf32>) -> tensor<1x640xf32>
    %6247 = "tosa.reshape"(%6246) <{new_shape = array<i64: 1, 640, 1>}> : (tensor<1x640xf32>) -> tensor<1x640x1xf32>
    %6248 = "tosa.reshape"(%6247) <{new_shape = array<i64: 1, 640, 1, 1>}> : (tensor<1x640x1xf32>) -> tensor<1x640x1x1xf32>
    %6249 = "tosa.reshape"(%arg677) <{new_shape = array<i64: 1, 640>}> : (tensor<640xf32>) -> tensor<1x640xf32>
    %6250 = "tosa.reshape"(%6249) <{new_shape = array<i64: 1, 640, 1>}> : (tensor<1x640xf32>) -> tensor<1x640x1xf32>
    %6251 = "tosa.reshape"(%6250) <{new_shape = array<i64: 1, 640, 1, 1>}> : (tensor<1x640x1xf32>) -> tensor<1x640x1x1xf32>
    %6252 = "tosa.mul"(%6245, %6251) <{shift = 0 : i8}> : (tensor<1x640x64x64xf32>, tensor<1x640x1x1xf32>) -> tensor<1x640x64x64xf32>
    %6253 = "tosa.add"(%6252, %6248) : (tensor<1x640x64x64xf32>, tensor<1x640x1x1xf32>) -> tensor<1x640x64x64xf32>
    %6254 = "tosa.sigmoid"(%6253) : (tensor<1x640x64x64xf32>) -> tensor<1x640x64x64xf32>
    %6255 = "tosa.mul"(%6253, %6254) <{shift = 0 : i8}> : (tensor<1x640x64x64xf32>, tensor<1x640x64x64xf32>) -> tensor<1x640x64x64xf32>
    %6256 = "tosa.const"() <{value = dense<[0, 2, 3, 1]> : tensor<4xi32>}> : () -> tensor<4xi32>
    %6257 = "tosa.transpose"(%6255, %6256) : (tensor<1x640x64x64xf32>, tensor<4xi32>) -> tensor<1x64x64x640xf32>
    %6258 = "tosa.const"() <{value = dense<[0, 2, 3, 1]> : tensor<4xi32>}> : () -> tensor<4xi32>
    %6259 = "tosa.transpose"(%arg678, %6258) : (tensor<320x640x3x3xf32>, tensor<4xi32>) -> tensor<320x3x3x640xf32>
    %6260 = "tosa.conv2d"(%6257, %6259, %arg679) <{dilation = array<i64: 1, 1>, pad = array<i64: 1, 1, 1, 1>, stride = array<i64: 1, 1>}> : (tensor<1x64x64x640xf32>, tensor<320x3x3x640xf32>, tensor<320xf32>) -> tensor<1x64x64x320xf32>
    %6261 = "tosa.const"() <{value = dense<[0, 3, 1, 2]> : tensor<4xi32>}> : () -> tensor<4xi32>
    %6262 = "tosa.transpose"(%6260, %6261) : (tensor<1x64x64x320xf32>, tensor<4xi32>) -> tensor<1x320x64x64xf32>
    %6263 = "tosa.sigmoid"(%50) : (tensor<1x1280xf32>) -> tensor<1x1280xf32>
    %6264 = "tosa.mul"(%50, %6263) <{shift = 0 : i8}> : (tensor<1x1280xf32>, tensor<1x1280xf32>) -> tensor<1x1280xf32>
    %6265 = "tosa.const"() <{value = dense<[1, 0]> : tensor<2xi32>}> : () -> tensor<2xi32>
    %6266 = "tosa.transpose"(%arg680, %6265) : (tensor<320x1280xf32>, tensor<2xi32>) -> tensor<1280x320xf32>
    %6267 = "tosa.reshape"(%6264) <{new_shape = array<i64: 1, 1, 1280>}> : (tensor<1x1280xf32>) -> tensor<1x1x1280xf32>
    %6268 = "tosa.reshape"(%6266) <{new_shape = array<i64: 1, 1280, 320>}> : (tensor<1280x320xf32>) -> tensor<1x1280x320xf32>
    %6269 = "tosa.matmul"(%6267, %6268) : (tensor<1x1x1280xf32>, tensor<1x1280x320xf32>) -> tensor<1x1x320xf32>
    %6270 = "tosa.reshape"(%6269) <{new_shape = array<i64: 1, 320>}> : (tensor<1x1x320xf32>) -> tensor<1x320xf32>
    %6271 = "tosa.reshape"(%arg681) <{new_shape = array<i64: 1, 320>}> : (tensor<320xf32>) -> tensor<1x320xf32>
    %6272 = "tosa.add"(%6271, %6270) : (tensor<1x320xf32>, tensor<1x320xf32>) -> tensor<1x320xf32>
    %6273 = "tensor.extract_slice"(%6272) <{operandSegmentSizes = array<i32: 1, 0, 0, 0>, static_offsets = array<i64: 0, 0>, static_sizes = array<i64: 1, 320>, static_strides = array<i64: 1, 1>}> : (tensor<1x320xf32>) -> tensor<1x320xf32>
    %6274 = "tensor.extract_slice"(%6273) <{operandSegmentSizes = array<i32: 1, 0, 0, 0>, static_offsets = array<i64: 0, 0>, static_sizes = array<i64: 1, 320>, static_strides = array<i64: 1, 1>}> : (tensor<1x320xf32>) -> tensor<1x320xf32>
    %6275 = "tosa.reshape"(%6274) <{new_shape = array<i64: 1, 320, 1>}> : (tensor<1x320xf32>) -> tensor<1x320x1xf32>
    %6276 = "tosa.reshape"(%6275) <{new_shape = array<i64: 1, 320, 1, 1>}> : (tensor<1x320x1xf32>) -> tensor<1x320x1x1xf32>
    %6277 = "tosa.add"(%6262, %6276) : (tensor<1x320x64x64xf32>, tensor<1x320x1x1xf32>) -> tensor<1x320x64x64xf32>
    %6278 = "tosa.reshape"(%6277) <{new_shape = array<i64: 1, 32, 10, 4096>}> : (tensor<1x320x64x64xf32>) -> tensor<1x32x10x4096xf32>
    %6279 = "tosa.reduce_sum"(%6278) <{axis = 2 : i32}> : (tensor<1x32x10x4096xf32>) -> tensor<1x32x1x4096xf32>
    %6280 = "tosa.reduce_sum"(%6279) <{axis = 3 : i32}> : (tensor<1x32x1x4096xf32>) -> tensor<1x32x1x1xf32>
    %6281 = "tosa.const"() <{value = dense<4.096000e+04> : tensor<1xf32>}> : () -> tensor<1xf32>
    %6282 = "tosa.reciprocal"(%6281) : (tensor<1xf32>) -> tensor<1xf32>
    %6283 = "tosa.mul"(%6282, %6280) <{shift = 0 : i8}> : (tensor<1xf32>, tensor<1x32x1x1xf32>) -> tensor<1x32x1x1xf32>
    %6284 = "tosa.sub"(%6278, %6283) : (tensor<1x32x10x4096xf32>, tensor<1x32x1x1xf32>) -> tensor<1x32x10x4096xf32>
    %6285 = "tosa.mul"(%6284, %6284) <{shift = 0 : i8}> : (tensor<1x32x10x4096xf32>, tensor<1x32x10x4096xf32>) -> tensor<1x32x10x4096xf32>
    %6286 = "tosa.reduce_sum"(%6285) <{axis = 2 : i32}> : (tensor<1x32x10x4096xf32>) -> tensor<1x32x1x4096xf32>
    %6287 = "tosa.reduce_sum"(%6286) <{axis = 3 : i32}> : (tensor<1x32x1x4096xf32>) -> tensor<1x32x1x1xf32>
    %6288 = "tosa.const"() <{value = dense<4.096000e+04> : tensor<1xf32>}> : () -> tensor<1xf32>
    %6289 = "tosa.reciprocal"(%6288) : (tensor<1xf32>) -> tensor<1xf32>
    %6290 = "tosa.mul"(%6289, %6287) <{shift = 0 : i8}> : (tensor<1xf32>, tensor<1x32x1x1xf32>) -> tensor<1x32x1x1xf32>
    %6291 = "tosa.const"() <{value = dense<9.99999974E-6> : tensor<1x32x1x1xf32>}> : () -> tensor<1x32x1x1xf32>
    %6292 = "tosa.add"(%6290, %6291) : (tensor<1x32x1x1xf32>, tensor<1x32x1x1xf32>) -> tensor<1x32x1x1xf32>
    %6293 = "tosa.rsqrt"(%6292) : (tensor<1x32x1x1xf32>) -> tensor<1x32x1x1xf32>
    %6294 = "tosa.sub"(%6278, %6283) : (tensor<1x32x10x4096xf32>, tensor<1x32x1x1xf32>) -> tensor<1x32x10x4096xf32>
    %6295 = "tosa.mul"(%6294, %6293) <{shift = 0 : i8}> : (tensor<1x32x10x4096xf32>, tensor<1x32x1x1xf32>) -> tensor<1x32x10x4096xf32>
    %6296 = "tosa.reshape"(%6295) <{new_shape = array<i64: 1, 320, 64, 64>}> : (tensor<1x32x10x4096xf32>) -> tensor<1x320x64x64xf32>
    %6297 = "tosa.reshape"(%arg682) <{new_shape = array<i64: 1, 320>}> : (tensor<320xf32>) -> tensor<1x320xf32>
    %6298 = "tosa.reshape"(%6297) <{new_shape = array<i64: 1, 320, 1>}> : (tensor<1x320xf32>) -> tensor<1x320x1xf32>
    %6299 = "tosa.reshape"(%6298) <{new_shape = array<i64: 1, 320, 1, 1>}> : (tensor<1x320x1xf32>) -> tensor<1x320x1x1xf32>
    %6300 = "tosa.reshape"(%arg683) <{new_shape = array<i64: 1, 320>}> : (tensor<320xf32>) -> tensor<1x320xf32>
    %6301 = "tosa.reshape"(%6300) <{new_shape = array<i64: 1, 320, 1>}> : (tensor<1x320xf32>) -> tensor<1x320x1xf32>
    %6302 = "tosa.reshape"(%6301) <{new_shape = array<i64: 1, 320, 1, 1>}> : (tensor<1x320x1xf32>) -> tensor<1x320x1x1xf32>
    %6303 = "tosa.mul"(%6296, %6302) <{shift = 0 : i8}> : (tensor<1x320x64x64xf32>, tensor<1x320x1x1xf32>) -> tensor<1x320x64x64xf32>
    %6304 = "tosa.add"(%6303, %6299) : (tensor<1x320x64x64xf32>, tensor<1x320x1x1xf32>) -> tensor<1x320x64x64xf32>
    %6305 = "tosa.sigmoid"(%6304) : (tensor<1x320x64x64xf32>) -> tensor<1x320x64x64xf32>
    %6306 = "tosa.mul"(%6304, %6305) <{shift = 0 : i8}> : (tensor<1x320x64x64xf32>, tensor<1x320x64x64xf32>) -> tensor<1x320x64x64xf32>
    %6307 = "tosa.identity"(%6306) : (tensor<1x320x64x64xf32>) -> tensor<1x320x64x64xf32>
    %6308 = "tosa.const"() <{value = dense<[0, 2, 3, 1]> : tensor<4xi32>}> : () -> tensor<4xi32>
    %6309 = "tosa.transpose"(%6307, %6308) : (tensor<1x320x64x64xf32>, tensor<4xi32>) -> tensor<1x64x64x320xf32>
    %6310 = "tosa.const"() <{value = dense<[0, 2, 3, 1]> : tensor<4xi32>}> : () -> tensor<4xi32>
    %6311 = "tosa.transpose"(%arg684, %6310) : (tensor<320x320x3x3xf32>, tensor<4xi32>) -> tensor<320x3x3x320xf32>
    %6312 = "tosa.conv2d"(%6309, %6311, %arg685) <{dilation = array<i64: 1, 1>, pad = array<i64: 1, 1, 1, 1>, stride = array<i64: 1, 1>}> : (tensor<1x64x64x320xf32>, tensor<320x3x3x320xf32>, tensor<320xf32>) -> tensor<1x64x64x320xf32>
    %6313 = "tosa.const"() <{value = dense<[0, 3, 1, 2]> : tensor<4xi32>}> : () -> tensor<4xi32>
    %6314 = "tosa.transpose"(%6312, %6313) : (tensor<1x64x64x320xf32>, tensor<4xi32>) -> tensor<1x320x64x64xf32>
    %6315 = "tosa.const"() <{value = dense<[0, 2, 3, 1]> : tensor<4xi32>}> : () -> tensor<4xi32>
    %6316 = "tosa.transpose"(%6226, %6315) : (tensor<1x640x64x64xf32>, tensor<4xi32>) -> tensor<1x64x64x640xf32>
    %6317 = "tosa.const"() <{value = dense<[0, 2, 3, 1]> : tensor<4xi32>}> : () -> tensor<4xi32>
    %6318 = "tosa.transpose"(%arg686, %6317) : (tensor<320x640x1x1xf32>, tensor<4xi32>) -> tensor<320x1x1x640xf32>
    %6319 = "tosa.conv2d"(%6316, %6318, %arg687) <{dilation = array<i64: 1, 1>, pad = array<i64: 0, 0, 0, 0>, stride = array<i64: 1, 1>}> : (tensor<1x64x64x640xf32>, tensor<320x1x1x640xf32>, tensor<320xf32>) -> tensor<1x64x64x320xf32>
    %6320 = "tosa.const"() <{value = dense<[0, 3, 1, 2]> : tensor<4xi32>}> : () -> tensor<4xi32>
    %6321 = "tosa.transpose"(%6319, %6320) : (tensor<1x64x64x320xf32>, tensor<4xi32>) -> tensor<1x320x64x64xf32>
    %6322 = "tosa.add"(%6321, %6314) : (tensor<1x320x64x64xf32>, tensor<1x320x64x64xf32>) -> tensor<1x320x64x64xf32>
    %6323 = "tosa.const"() <{value = dense<1.000000e+00> : tensor<1x320x64x64xf32>}> : () -> tensor<1x320x64x64xf32>
    %6324 = "tosa.reciprocal"(%6323) : (tensor<1x320x64x64xf32>) -> tensor<1x320x64x64xf32>
    %6325 = "tosa.mul"(%6322, %6324) <{shift = 0 : i8}> : (tensor<1x320x64x64xf32>, tensor<1x320x64x64xf32>) -> tensor<1x320x64x64xf32>
    %6326 = "tosa.reshape"(%6325) <{new_shape = array<i64: 1, 32, 10, 4096>}> : (tensor<1x320x64x64xf32>) -> tensor<1x32x10x4096xf32>
    %6327 = "tosa.reduce_sum"(%6326) <{axis = 2 : i32}> : (tensor<1x32x10x4096xf32>) -> tensor<1x32x1x4096xf32>
    %6328 = "tosa.reduce_sum"(%6327) <{axis = 3 : i32}> : (tensor<1x32x1x4096xf32>) -> tensor<1x32x1x1xf32>
    %6329 = "tosa.const"() <{value = dense<4.096000e+04> : tensor<1xf32>}> : () -> tensor<1xf32>
    %6330 = "tosa.reciprocal"(%6329) : (tensor<1xf32>) -> tensor<1xf32>
    %6331 = "tosa.mul"(%6330, %6328) <{shift = 0 : i8}> : (tensor<1xf32>, tensor<1x32x1x1xf32>) -> tensor<1x32x1x1xf32>
    %6332 = "tosa.sub"(%6326, %6331) : (tensor<1x32x10x4096xf32>, tensor<1x32x1x1xf32>) -> tensor<1x32x10x4096xf32>
    %6333 = "tosa.mul"(%6332, %6332) <{shift = 0 : i8}> : (tensor<1x32x10x4096xf32>, tensor<1x32x10x4096xf32>) -> tensor<1x32x10x4096xf32>
    %6334 = "tosa.reduce_sum"(%6333) <{axis = 2 : i32}> : (tensor<1x32x10x4096xf32>) -> tensor<1x32x1x4096xf32>
    %6335 = "tosa.reduce_sum"(%6334) <{axis = 3 : i32}> : (tensor<1x32x1x4096xf32>) -> tensor<1x32x1x1xf32>
    %6336 = "tosa.const"() <{value = dense<4.096000e+04> : tensor<1xf32>}> : () -> tensor<1xf32>
    %6337 = "tosa.reciprocal"(%6336) : (tensor<1xf32>) -> tensor<1xf32>
    %6338 = "tosa.mul"(%6337, %6335) <{shift = 0 : i8}> : (tensor<1xf32>, tensor<1x32x1x1xf32>) -> tensor<1x32x1x1xf32>
    %6339 = "tosa.const"() <{value = dense<9.99999997E-7> : tensor<1x32x1x1xf32>}> : () -> tensor<1x32x1x1xf32>
    %6340 = "tosa.add"(%6338, %6339) : (tensor<1x32x1x1xf32>, tensor<1x32x1x1xf32>) -> tensor<1x32x1x1xf32>
    %6341 = "tosa.rsqrt"(%6340) : (tensor<1x32x1x1xf32>) -> tensor<1x32x1x1xf32>
    %6342 = "tosa.sub"(%6326, %6331) : (tensor<1x32x10x4096xf32>, tensor<1x32x1x1xf32>) -> tensor<1x32x10x4096xf32>
    %6343 = "tosa.mul"(%6342, %6341) <{shift = 0 : i8}> : (tensor<1x32x10x4096xf32>, tensor<1x32x1x1xf32>) -> tensor<1x32x10x4096xf32>
    %6344 = "tosa.reshape"(%6343) <{new_shape = array<i64: 1, 320, 64, 64>}> : (tensor<1x32x10x4096xf32>) -> tensor<1x320x64x64xf32>
    %6345 = "tosa.reshape"(%arg688) <{new_shape = array<i64: 1, 320>}> : (tensor<320xf32>) -> tensor<1x320xf32>
    %6346 = "tosa.reshape"(%6345) <{new_shape = array<i64: 1, 320, 1>}> : (tensor<1x320xf32>) -> tensor<1x320x1xf32>
    %6347 = "tosa.reshape"(%6346) <{new_shape = array<i64: 1, 320, 1, 1>}> : (tensor<1x320x1xf32>) -> tensor<1x320x1x1xf32>
    %6348 = "tosa.reshape"(%arg689) <{new_shape = array<i64: 1, 320>}> : (tensor<320xf32>) -> tensor<1x320xf32>
    %6349 = "tosa.reshape"(%6348) <{new_shape = array<i64: 1, 320, 1>}> : (tensor<1x320xf32>) -> tensor<1x320x1xf32>
    %6350 = "tosa.reshape"(%6349) <{new_shape = array<i64: 1, 320, 1, 1>}> : (tensor<1x320x1xf32>) -> tensor<1x320x1x1xf32>
    %6351 = "tosa.mul"(%6344, %6350) <{shift = 0 : i8}> : (tensor<1x320x64x64xf32>, tensor<1x320x1x1xf32>) -> tensor<1x320x64x64xf32>
    %6352 = "tosa.add"(%6351, %6347) : (tensor<1x320x64x64xf32>, tensor<1x320x1x1xf32>) -> tensor<1x320x64x64xf32>
    %6353 = "tosa.const"() <{value = dense<[0, 2, 3, 1]> : tensor<4xi32>}> : () -> tensor<4xi32>
    %6354 = "tosa.transpose"(%6352, %6353) : (tensor<1x320x64x64xf32>, tensor<4xi32>) -> tensor<1x64x64x320xf32>
    %6355 = "tosa.reshape"(%6354) <{new_shape = array<i64: 1, 4096, 320>}> : (tensor<1x64x64x320xf32>) -> tensor<1x4096x320xf32>
    %6356 = "tosa.const"() <{value = dense<[1, 0]> : tensor<2xi32>}> : () -> tensor<2xi32>
    %6357 = "tosa.transpose"(%arg690, %6356) : (tensor<320x320xf32>, tensor<2xi32>) -> tensor<320x320xf32>
    %6358 = "tosa.reshape"(%6355) <{new_shape = array<i64: 4096, 320>}> : (tensor<1x4096x320xf32>) -> tensor<4096x320xf32>
    %6359 = "arith.constant"() <{value = dense<0.000000e+00> : tensor<4096x320xf32>}> : () -> tensor<4096x320xf32>
    %6360 = "linalg.matmul"(%6358, %6357, %6359) <{cast = #linalg.type_fn<cast_signed>, operandSegmentSizes = array<i32: 2, 1>}> ({
    ^bb0(%arg720: f32, %arg721: f32, %arg722: f32):
      %6629 = "arith.mulf"(%arg720, %arg721) <{fastmath = #arith.fastmath<none>}> : (f32, f32) -> f32
      %6630 = "arith.addf"(%arg722, %6629) <{fastmath = #arith.fastmath<none>}> : (f32, f32) -> f32
      "linalg.yield"(%6630) : (f32) -> ()
    }) : (tensor<4096x320xf32>, tensor<320x320xf32>, tensor<4096x320xf32>) -> tensor<4096x320xf32>
    %6361 = "tosa.reshape"(%6360) <{new_shape = array<i64: 1, 4096, 320>}> : (tensor<4096x320xf32>) -> tensor<1x4096x320xf32>
    %6362 = "tosa.reshape"(%arg691) <{new_shape = array<i64: 1, 1, 320>}> : (tensor<320xf32>) -> tensor<1x1x320xf32>
    %6363 = "tosa.add"(%6361, %6362) : (tensor<1x4096x320xf32>, tensor<1x1x320xf32>) -> tensor<1x4096x320xf32>
    %6364 = "tosa.reduce_sum"(%6363) <{axis = 2 : i32}> : (tensor<1x4096x320xf32>) -> tensor<1x4096x1xf32>
    %6365 = "tosa.const"() <{value = dense<3.200000e+02> : tensor<1xf32>}> : () -> tensor<1xf32>
    %6366 = "tosa.reciprocal"(%6365) : (tensor<1xf32>) -> tensor<1xf32>
    %6367 = "tosa.mul"(%6366, %6364) <{shift = 0 : i8}> : (tensor<1xf32>, tensor<1x4096x1xf32>) -> tensor<1x4096x1xf32>
    %6368 = "tosa.sub"(%6363, %6367) : (tensor<1x4096x320xf32>, tensor<1x4096x1xf32>) -> tensor<1x4096x320xf32>
    %6369 = "tosa.mul"(%6368, %6368) <{shift = 0 : i8}> : (tensor<1x4096x320xf32>, tensor<1x4096x320xf32>) -> tensor<1x4096x320xf32>
    %6370 = "tosa.reduce_sum"(%6369) <{axis = 2 : i32}> : (tensor<1x4096x320xf32>) -> tensor<1x4096x1xf32>
    %6371 = "tosa.const"() <{value = dense<3.200000e+02> : tensor<1xf32>}> : () -> tensor<1xf32>
    %6372 = "tosa.reciprocal"(%6371) : (tensor<1xf32>) -> tensor<1xf32>
    %6373 = "tosa.mul"(%6372, %6370) <{shift = 0 : i8}> : (tensor<1xf32>, tensor<1x4096x1xf32>) -> tensor<1x4096x1xf32>
    %6374 = "tosa.const"() <{value = dense<9.99999974E-6> : tensor<1x4096x1xf32>}> : () -> tensor<1x4096x1xf32>
    %6375 = "tosa.add"(%6373, %6374) : (tensor<1x4096x1xf32>, tensor<1x4096x1xf32>) -> tensor<1x4096x1xf32>
    %6376 = "tosa.rsqrt"(%6375) : (tensor<1x4096x1xf32>) -> tensor<1x4096x1xf32>
    %6377 = "tosa.sub"(%6363, %6367) : (tensor<1x4096x320xf32>, tensor<1x4096x1xf32>) -> tensor<1x4096x320xf32>
    %6378 = "tosa.mul"(%6377, %6376) <{shift = 0 : i8}> : (tensor<1x4096x320xf32>, tensor<1x4096x1xf32>) -> tensor<1x4096x320xf32>
    %6379 = "tosa.reshape"(%arg692) <{new_shape = array<i64: 1, 1, 320>}> : (tensor<320xf32>) -> tensor<1x1x320xf32>
    %6380 = "tosa.mul"(%6378, %6379) <{shift = 0 : i8}> : (tensor<1x4096x320xf32>, tensor<1x1x320xf32>) -> tensor<1x4096x320xf32>
    %6381 = "tosa.reshape"(%arg693) <{new_shape = array<i64: 1, 1, 320>}> : (tensor<320xf32>) -> tensor<1x1x320xf32>
    %6382 = "tosa.add"(%6380, %6381) : (tensor<1x4096x320xf32>, tensor<1x1x320xf32>) -> tensor<1x4096x320xf32>
    %6383 = "tosa.const"() <{value = dense<[1, 0]> : tensor<2xi32>}> : () -> tensor<2xi32>
    %6384 = "tosa.transpose"(%arg694, %6383) : (tensor<320x320xf32>, tensor<2xi32>) -> tensor<320x320xf32>
    %6385 = "tosa.reshape"(%6382) <{new_shape = array<i64: 4096, 320>}> : (tensor<1x4096x320xf32>) -> tensor<4096x320xf32>
    %6386 = "arith.constant"() <{value = dense<0.000000e+00> : tensor<4096x320xf32>}> : () -> tensor<4096x320xf32>
    %6387 = "linalg.matmul"(%6385, %6384, %6386) <{cast = #linalg.type_fn<cast_signed>, operandSegmentSizes = array<i32: 2, 1>}> ({
    ^bb0(%arg720: f32, %arg721: f32, %arg722: f32):
      %6629 = "arith.mulf"(%arg720, %arg721) <{fastmath = #arith.fastmath<none>}> : (f32, f32) -> f32
      %6630 = "arith.addf"(%arg722, %6629) <{fastmath = #arith.fastmath<none>}> : (f32, f32) -> f32
      "linalg.yield"(%6630) : (f32) -> ()
    }) : (tensor<4096x320xf32>, tensor<320x320xf32>, tensor<4096x320xf32>) -> tensor<4096x320xf32>
    %6388 = "tosa.reshape"(%6387) <{new_shape = array<i64: 1, 4096, 320>}> : (tensor<4096x320xf32>) -> tensor<1x4096x320xf32>
    %6389 = "tosa.const"() <{value = dense<[1, 0]> : tensor<2xi32>}> : () -> tensor<2xi32>
    %6390 = "tosa.transpose"(%arg695, %6389) : (tensor<320x320xf32>, tensor<2xi32>) -> tensor<320x320xf32>
    %6391 = "tosa.reshape"(%6382) <{new_shape = array<i64: 4096, 320>}> : (tensor<1x4096x320xf32>) -> tensor<4096x320xf32>
    %6392 = "arith.constant"() <{value = dense<0.000000e+00> : tensor<4096x320xf32>}> : () -> tensor<4096x320xf32>
    %6393 = "linalg.matmul"(%6391, %6390, %6392) <{cast = #linalg.type_fn<cast_signed>, operandSegmentSizes = array<i32: 2, 1>}> ({
    ^bb0(%arg720: f32, %arg721: f32, %arg722: f32):
      %6629 = "arith.mulf"(%arg720, %arg721) <{fastmath = #arith.fastmath<none>}> : (f32, f32) -> f32
      %6630 = "arith.addf"(%arg722, %6629) <{fastmath = #arith.fastmath<none>}> : (f32, f32) -> f32
      "linalg.yield"(%6630) : (f32) -> ()
    }) : (tensor<4096x320xf32>, tensor<320x320xf32>, tensor<4096x320xf32>) -> tensor<4096x320xf32>
    %6394 = "tosa.reshape"(%6393) <{new_shape = array<i64: 1, 4096, 320>}> : (tensor<4096x320xf32>) -> tensor<1x4096x320xf32>
    %6395 = "tosa.const"() <{value = dense<[1, 0]> : tensor<2xi32>}> : () -> tensor<2xi32>
    %6396 = "tosa.transpose"(%arg696, %6395) : (tensor<320x320xf32>, tensor<2xi32>) -> tensor<320x320xf32>
    %6397 = "tosa.reshape"(%6382) <{new_shape = array<i64: 4096, 320>}> : (tensor<1x4096x320xf32>) -> tensor<4096x320xf32>
    %6398 = "arith.constant"() <{value = dense<0.000000e+00> : tensor<4096x320xf32>}> : () -> tensor<4096x320xf32>
    %6399 = "linalg.matmul"(%6397, %6396, %6398) <{cast = #linalg.type_fn<cast_signed>, operandSegmentSizes = array<i32: 2, 1>}> ({
    ^bb0(%arg720: f32, %arg721: f32, %arg722: f32):
      %6629 = "arith.mulf"(%arg720, %arg721) <{fastmath = #arith.fastmath<none>}> : (f32, f32) -> f32
      %6630 = "arith.addf"(%arg722, %6629) <{fastmath = #arith.fastmath<none>}> : (f32, f32) -> f32
      "linalg.yield"(%6630) : (f32) -> ()
    }) : (tensor<4096x320xf32>, tensor<320x320xf32>, tensor<4096x320xf32>) -> tensor<4096x320xf32>
    %6400 = "tosa.reshape"(%6399) <{new_shape = array<i64: 1, 4096, 320>}> : (tensor<4096x320xf32>) -> tensor<1x4096x320xf32>
    %6401 = "tosa.reshape"(%6388) <{new_shape = array<i64: 1, 4096, 5, 64>}> : (tensor<1x4096x320xf32>) -> tensor<1x4096x5x64xf32>
    %6402 = "tosa.const"() <{value = dense<[0, 2, 1, 3]> : tensor<4xi32>}> : () -> tensor<4xi32>
    %6403 = "tosa.transpose"(%6401, %6402) : (tensor<1x4096x5x64xf32>, tensor<4xi32>) -> tensor<1x5x4096x64xf32>
    %6404 = "tosa.reshape"(%6394) <{new_shape = array<i64: 1, 4096, 5, 64>}> : (tensor<1x4096x320xf32>) -> tensor<1x4096x5x64xf32>
    %6405 = "tosa.const"() <{value = dense<[0, 2, 1, 3]> : tensor<4xi32>}> : () -> tensor<4xi32>
    %6406 = "tosa.transpose"(%6404, %6405) : (tensor<1x4096x5x64xf32>, tensor<4xi32>) -> tensor<1x5x4096x64xf32>
    %6407 = "tosa.reshape"(%6400) <{new_shape = array<i64: 1, 4096, 5, 64>}> : (tensor<1x4096x320xf32>) -> tensor<1x4096x5x64xf32>
    %6408 = "tosa.const"() <{value = dense<[0, 2, 1, 3]> : tensor<4xi32>}> : () -> tensor<4xi32>
    %6409 = "tosa.transpose"(%6407, %6408) : (tensor<1x4096x5x64xf32>, tensor<4xi32>) -> tensor<1x5x4096x64xf32>
    %6410 = "arith.constant"() <{value = dense<0.000000e+00> : tensor<4096x4096xf32>}> : () -> tensor<4096x4096xf32>
    %6411 = "tosa.const"() <{value = dense<[0, 1, 3, 2]> : tensor<4xi32>}> : () -> tensor<4xi32>
    %6412 = "tosa.transpose"(%6406, %6411) : (tensor<1x5x4096x64xf32>, tensor<4xi32>) -> tensor<1x5x64x4096xf32>
    %6413 = "tosa.reshape"(%6403) <{new_shape = array<i64: 5, 4096, 64>}> : (tensor<1x5x4096x64xf32>) -> tensor<5x4096x64xf32>
    %6414 = "tosa.reshape"(%6412) <{new_shape = array<i64: 5, 64, 4096>}> : (tensor<1x5x64x4096xf32>) -> tensor<5x64x4096xf32>
    %6415 = "tosa.matmul"(%6413, %6414) : (tensor<5x4096x64xf32>, tensor<5x64x4096xf32>) -> tensor<5x4096x4096xf32>
    %6416 = "arith.constant"() <{value = dense<1.250000e-01> : tensor<5x4096x4096xf32>}> : () -> tensor<5x4096x4096xf32>
    %6417 = "tosa.mul"(%6415, %6416) <{shift = 0 : i8}> : (tensor<5x4096x4096xf32>, tensor<5x4096x4096xf32>) -> tensor<5x4096x4096xf32>
    %6418 = "tosa.add"(%6417, %6410) : (tensor<5x4096x4096xf32>, tensor<4096x4096xf32>) -> tensor<5x4096x4096xf32>
    %6419 = "arith.constant"() <{value = dense<0.000000e+00> : tensor<5x4096x4096xf32>}> : () -> tensor<5x4096x4096xf32>
    %6420 = "linalg.softmax"(%6418, %6419) <{dimension = 3 : i64}> : (tensor<5x4096x4096xf32>, tensor<5x4096x4096xf32>) -> tensor<5x4096x4096xf32>
    %6421 = "tosa.reshape"(%6409) <{new_shape = array<i64: 5, 4096, 64>}> : (tensor<1x5x4096x64xf32>) -> tensor<5x4096x64xf32>
    %6422 = "tosa.matmul"(%6420, %6421) : (tensor<5x4096x4096xf32>, tensor<5x4096x64xf32>) -> tensor<5x4096x64xf32>
    %6423 = "tosa.reshape"(%6422) <{new_shape = array<i64: 1, 5, 4096, 64>}> : (tensor<5x4096x64xf32>) -> tensor<1x5x4096x64xf32>
    %6424 = "tosa.const"() <{value = dense<> : tensor<0xi32>}> : () -> tensor<0xi32>
    %6425 = "tosa.const"() <{value = dense<> : tensor<0xi32>}> : () -> tensor<0xi32>
    %6426 = "tosa.const"() <{value = dense<> : tensor<0xi32>}> : () -> tensor<0xi32>
    %6427 = "tosa.const"() <{value = dense<[0, 2, 1, 3]> : tensor<4xi32>}> : () -> tensor<4xi32>
    %6428 = "tosa.transpose"(%6423, %6427) : (tensor<1x5x4096x64xf32>, tensor<4xi32>) -> tensor<1x4096x5x64xf32>
    %6429 = "tosa.reshape"(%6428) <{new_shape = array<i64: 1, 4096, 320>}> : (tensor<1x4096x5x64xf32>) -> tensor<1x4096x320xf32>
    %6430 = "tosa.reshape"(%6429) <{new_shape = array<i64: 4096, 320>}> : (tensor<1x4096x320xf32>) -> tensor<4096x320xf32>
    %6431 = "tosa.const"() <{value = dense<[1, 0]> : tensor<2xi32>}> : () -> tensor<2xi32>
    %6432 = "tosa.transpose"(%arg697, %6431) : (tensor<320x320xf32>, tensor<2xi32>) -> tensor<320x320xf32>
    %6433 = "tosa.reshape"(%6430) <{new_shape = array<i64: 1, 4096, 320>}> : (tensor<4096x320xf32>) -> tensor<1x4096x320xf32>
    %6434 = "tosa.reshape"(%6432) <{new_shape = array<i64: 1, 320, 320>}> : (tensor<320x320xf32>) -> tensor<1x320x320xf32>
    %6435 = "tosa.matmul"(%6433, %6434) : (tensor<1x4096x320xf32>, tensor<1x320x320xf32>) -> tensor<1x4096x320xf32>
    %6436 = "tosa.reshape"(%6435) <{new_shape = array<i64: 4096, 320>}> : (tensor<1x4096x320xf32>) -> tensor<4096x320xf32>
    %6437 = "tosa.reshape"(%arg698) <{new_shape = array<i64: 1, 320>}> : (tensor<320xf32>) -> tensor<1x320xf32>
    %6438 = "tosa.add"(%6437, %6436) : (tensor<1x320xf32>, tensor<4096x320xf32>) -> tensor<4096x320xf32>
    %6439 = "tosa.reshape"(%6438) <{new_shape = array<i64: 1, 4096, 320>}> : (tensor<4096x320xf32>) -> tensor<1x4096x320xf32>
    %6440 = "tosa.identity"(%6439) : (tensor<1x4096x320xf32>) -> tensor<1x4096x320xf32>
    %6441 = "tosa.const"() <{value = dense<1.000000e+00> : tensor<1x4096x320xf32>}> : () -> tensor<1x4096x320xf32>
    %6442 = "tosa.reciprocal"(%6441) : (tensor<1x4096x320xf32>) -> tensor<1x4096x320xf32>
    %6443 = "tosa.mul"(%6440, %6442) <{shift = 0 : i8}> : (tensor<1x4096x320xf32>, tensor<1x4096x320xf32>) -> tensor<1x4096x320xf32>
    %6444 = "tosa.add"(%6443, %6363) : (tensor<1x4096x320xf32>, tensor<1x4096x320xf32>) -> tensor<1x4096x320xf32>
    %6445 = "tosa.reduce_sum"(%6444) <{axis = 2 : i32}> : (tensor<1x4096x320xf32>) -> tensor<1x4096x1xf32>
    %6446 = "tosa.const"() <{value = dense<3.200000e+02> : tensor<1xf32>}> : () -> tensor<1xf32>
    %6447 = "tosa.reciprocal"(%6446) : (tensor<1xf32>) -> tensor<1xf32>
    %6448 = "tosa.mul"(%6447, %6445) <{shift = 0 : i8}> : (tensor<1xf32>, tensor<1x4096x1xf32>) -> tensor<1x4096x1xf32>
    %6449 = "tosa.sub"(%6444, %6448) : (tensor<1x4096x320xf32>, tensor<1x4096x1xf32>) -> tensor<1x4096x320xf32>
    %6450 = "tosa.mul"(%6449, %6449) <{shift = 0 : i8}> : (tensor<1x4096x320xf32>, tensor<1x4096x320xf32>) -> tensor<1x4096x320xf32>
    %6451 = "tosa.reduce_sum"(%6450) <{axis = 2 : i32}> : (tensor<1x4096x320xf32>) -> tensor<1x4096x1xf32>
    %6452 = "tosa.const"() <{value = dense<3.200000e+02> : tensor<1xf32>}> : () -> tensor<1xf32>
    %6453 = "tosa.reciprocal"(%6452) : (tensor<1xf32>) -> tensor<1xf32>
    %6454 = "tosa.mul"(%6453, %6451) <{shift = 0 : i8}> : (tensor<1xf32>, tensor<1x4096x1xf32>) -> tensor<1x4096x1xf32>
    %6455 = "tosa.const"() <{value = dense<9.99999974E-6> : tensor<1x4096x1xf32>}> : () -> tensor<1x4096x1xf32>
    %6456 = "tosa.add"(%6454, %6455) : (tensor<1x4096x1xf32>, tensor<1x4096x1xf32>) -> tensor<1x4096x1xf32>
    %6457 = "tosa.rsqrt"(%6456) : (tensor<1x4096x1xf32>) -> tensor<1x4096x1xf32>
    %6458 = "tosa.sub"(%6444, %6448) : (tensor<1x4096x320xf32>, tensor<1x4096x1xf32>) -> tensor<1x4096x320xf32>
    %6459 = "tosa.mul"(%6458, %6457) <{shift = 0 : i8}> : (tensor<1x4096x320xf32>, tensor<1x4096x1xf32>) -> tensor<1x4096x320xf32>
    %6460 = "tosa.reshape"(%arg699) <{new_shape = array<i64: 1, 1, 320>}> : (tensor<320xf32>) -> tensor<1x1x320xf32>
    %6461 = "tosa.mul"(%6459, %6460) <{shift = 0 : i8}> : (tensor<1x4096x320xf32>, tensor<1x1x320xf32>) -> tensor<1x4096x320xf32>
    %6462 = "tosa.reshape"(%arg700) <{new_shape = array<i64: 1, 1, 320>}> : (tensor<320xf32>) -> tensor<1x1x320xf32>
    %6463 = "tosa.add"(%6461, %6462) : (tensor<1x4096x320xf32>, tensor<1x1x320xf32>) -> tensor<1x4096x320xf32>
    %6464 = "tosa.const"() <{value = dense<[1, 0]> : tensor<2xi32>}> : () -> tensor<2xi32>
    %6465 = "tosa.transpose"(%arg701, %6464) : (tensor<320x320xf32>, tensor<2xi32>) -> tensor<320x320xf32>
    %6466 = "tosa.reshape"(%6463) <{new_shape = array<i64: 4096, 320>}> : (tensor<1x4096x320xf32>) -> tensor<4096x320xf32>
    %6467 = "arith.constant"() <{value = dense<0.000000e+00> : tensor<4096x320xf32>}> : () -> tensor<4096x320xf32>
    %6468 = "linalg.matmul"(%6466, %6465, %6467) <{cast = #linalg.type_fn<cast_signed>, operandSegmentSizes = array<i32: 2, 1>}> ({
    ^bb0(%arg720: f32, %arg721: f32, %arg722: f32):
      %6629 = "arith.mulf"(%arg720, %arg721) <{fastmath = #arith.fastmath<none>}> : (f32, f32) -> f32
      %6630 = "arith.addf"(%arg722, %6629) <{fastmath = #arith.fastmath<none>}> : (f32, f32) -> f32
      "linalg.yield"(%6630) : (f32) -> ()
    }) : (tensor<4096x320xf32>, tensor<320x320xf32>, tensor<4096x320xf32>) -> tensor<4096x320xf32>
    %6469 = "tosa.reshape"(%6468) <{new_shape = array<i64: 1, 4096, 320>}> : (tensor<4096x320xf32>) -> tensor<1x4096x320xf32>
    %6470 = "tosa.const"() <{value = dense<[1, 0]> : tensor<2xi32>}> : () -> tensor<2xi32>
    %6471 = "tosa.transpose"(%arg702, %6470) : (tensor<320x1024xf32>, tensor<2xi32>) -> tensor<1024x320xf32>
    %6472 = "tosa.reshape"(%arg705) <{new_shape = array<i64: 12, 1024>}> : (tensor<1x12x1024xf32>) -> tensor<12x1024xf32>
    %6473 = "arith.constant"() <{value = dense<0.000000e+00> : tensor<12x320xf32>}> : () -> tensor<12x320xf32>
    %6474 = "linalg.matmul"(%6472, %6471, %6473) <{cast = #linalg.type_fn<cast_signed>, operandSegmentSizes = array<i32: 2, 1>}> ({
    ^bb0(%arg720: f32, %arg721: f32, %arg722: f32):
      %6629 = "arith.mulf"(%arg720, %arg721) <{fastmath = #arith.fastmath<none>}> : (f32, f32) -> f32
      %6630 = "arith.addf"(%arg722, %6629) <{fastmath = #arith.fastmath<none>}> : (f32, f32) -> f32
      "linalg.yield"(%6630) : (f32) -> ()
    }) : (tensor<12x1024xf32>, tensor<1024x320xf32>, tensor<12x320xf32>) -> tensor<12x320xf32>
    %6475 = "tosa.reshape"(%6474) <{new_shape = array<i64: 1, 12, 320>}> : (tensor<12x320xf32>) -> tensor<1x12x320xf32>
    %6476 = "tosa.const"() <{value = dense<[1, 0]> : tensor<2xi32>}> : () -> tensor<2xi32>
    %6477 = "tosa.transpose"(%arg704, %6476) : (tensor<320x1024xf32>, tensor<2xi32>) -> tensor<1024x320xf32>
    %6478 = "tosa.reshape"(%arg705) <{new_shape = array<i64: 12, 1024>}> : (tensor<1x12x1024xf32>) -> tensor<12x1024xf32>
    %6479 = "arith.constant"() <{value = dense<0.000000e+00> : tensor<12x320xf32>}> : () -> tensor<12x320xf32>
    %6480 = "linalg.matmul"(%6478, %6477, %6479) <{cast = #linalg.type_fn<cast_signed>, operandSegmentSizes = array<i32: 2, 1>}> ({
    ^bb0(%arg720: f32, %arg721: f32, %arg722: f32):
      %6629 = "arith.mulf"(%arg720, %arg721) <{fastmath = #arith.fastmath<none>}> : (f32, f32) -> f32
      %6630 = "arith.addf"(%arg722, %6629) <{fastmath = #arith.fastmath<none>}> : (f32, f32) -> f32
      "linalg.yield"(%6630) : (f32) -> ()
    }) : (tensor<12x1024xf32>, tensor<1024x320xf32>, tensor<12x320xf32>) -> tensor<12x320xf32>
    %6481 = "tosa.reshape"(%6480) <{new_shape = array<i64: 1, 12, 320>}> : (tensor<12x320xf32>) -> tensor<1x12x320xf32>
    %6482 = "tosa.reshape"(%6469) <{new_shape = array<i64: 1, 4096, 5, 64>}> : (tensor<1x4096x320xf32>) -> tensor<1x4096x5x64xf32>
    %6483 = "tosa.const"() <{value = dense<[0, 2, 1, 3]> : tensor<4xi32>}> : () -> tensor<4xi32>
    %6484 = "tosa.transpose"(%6482, %6483) : (tensor<1x4096x5x64xf32>, tensor<4xi32>) -> tensor<1x5x4096x64xf32>
    %6485 = "tosa.reshape"(%6475) <{new_shape = array<i64: 1, 12, 5, 64>}> : (tensor<1x12x320xf32>) -> tensor<1x12x5x64xf32>
    %6486 = "tosa.const"() <{value = dense<[0, 2, 1, 3]> : tensor<4xi32>}> : () -> tensor<4xi32>
    %6487 = "tosa.transpose"(%6485, %6486) : (tensor<1x12x5x64xf32>, tensor<4xi32>) -> tensor<1x5x12x64xf32>
    %6488 = "tosa.reshape"(%6481) <{new_shape = array<i64: 1, 12, 5, 64>}> : (tensor<1x12x320xf32>) -> tensor<1x12x5x64xf32>
    %6489 = "tosa.const"() <{value = dense<[0, 2, 1, 3]> : tensor<4xi32>}> : () -> tensor<4xi32>
    %6490 = "tosa.transpose"(%6488, %6489) : (tensor<1x12x5x64xf32>, tensor<4xi32>) -> tensor<1x5x12x64xf32>
    %6491 = "arith.constant"() <{value = dense<0.000000e+00> : tensor<4096x12xf32>}> : () -> tensor<4096x12xf32>
    %6492 = "tosa.const"() <{value = dense<[0, 1, 3, 2]> : tensor<4xi32>}> : () -> tensor<4xi32>
    %6493 = "tosa.transpose"(%6487, %6492) : (tensor<1x5x12x64xf32>, tensor<4xi32>) -> tensor<1x5x64x12xf32>
    %6494 = "tosa.reshape"(%6484) <{new_shape = array<i64: 5, 4096, 64>}> : (tensor<1x5x4096x64xf32>) -> tensor<5x4096x64xf32>
    %6495 = "tosa.reshape"(%6493) <{new_shape = array<i64: 5, 64, 12>}> : (tensor<1x5x64x12xf32>) -> tensor<5x64x12xf32>
    %6496 = "tosa.matmul"(%6494, %6495) : (tensor<5x4096x64xf32>, tensor<5x64x12xf32>) -> tensor<5x4096x12xf32>
    %6497 = "arith.constant"() <{value = dense<1.250000e-01> : tensor<5x4096x12xf32>}> : () -> tensor<5x4096x12xf32>
    %6498 = "tosa.mul"(%6496, %6497) <{shift = 0 : i8}> : (tensor<5x4096x12xf32>, tensor<5x4096x12xf32>) -> tensor<5x4096x12xf32>
    %6499 = "tosa.add"(%6498, %6491) : (tensor<5x4096x12xf32>, tensor<4096x12xf32>) -> tensor<5x4096x12xf32>
    %6500 = "arith.constant"() <{value = dense<0.000000e+00> : tensor<5x4096x12xf32>}> : () -> tensor<5x4096x12xf32>
    %6501 = "linalg.softmax"(%6499, %6500) <{dimension = 3 : i64}> : (tensor<5x4096x12xf32>, tensor<5x4096x12xf32>) -> tensor<5x4096x12xf32>
    %6502 = "tosa.reshape"(%6490) <{new_shape = array<i64: 5, 12, 64>}> : (tensor<1x5x12x64xf32>) -> tensor<5x12x64xf32>
    %6503 = "tosa.matmul"(%6501, %6502) : (tensor<5x4096x12xf32>, tensor<5x12x64xf32>) -> tensor<5x4096x64xf32>
    %6504 = "tosa.reshape"(%6503) <{new_shape = array<i64: 1, 5, 4096, 64>}> : (tensor<5x4096x64xf32>) -> tensor<1x5x4096x64xf32>
    %6505 = "tosa.const"() <{value = dense<> : tensor<0xi32>}> : () -> tensor<0xi32>
    %6506 = "tosa.const"() <{value = dense<> : tensor<0xi32>}> : () -> tensor<0xi32>
    %6507 = "tosa.const"() <{value = dense<> : tensor<0xi32>}> : () -> tensor<0xi32>
    %6508 = "tosa.const"() <{value = dense<[0, 2, 1, 3]> : tensor<4xi32>}> : () -> tensor<4xi32>
    %6509 = "tosa.transpose"(%6504, %6508) : (tensor<1x5x4096x64xf32>, tensor<4xi32>) -> tensor<1x4096x5x64xf32>
    %6510 = "tosa.reshape"(%6509) <{new_shape = array<i64: 1, 4096, 320>}> : (tensor<1x4096x5x64xf32>) -> tensor<1x4096x320xf32>
    %6511 = "tosa.reshape"(%6510) <{new_shape = array<i64: 4096, 320>}> : (tensor<1x4096x320xf32>) -> tensor<4096x320xf32>
    %6512 = "tosa.const"() <{value = dense<[1, 0]> : tensor<2xi32>}> : () -> tensor<2xi32>
    %6513 = "tosa.transpose"(%arg706, %6512) : (tensor<320x320xf32>, tensor<2xi32>) -> tensor<320x320xf32>
    %6514 = "tosa.reshape"(%6511) <{new_shape = array<i64: 1, 4096, 320>}> : (tensor<4096x320xf32>) -> tensor<1x4096x320xf32>
    %6515 = "tosa.reshape"(%6513) <{new_shape = array<i64: 1, 320, 320>}> : (tensor<320x320xf32>) -> tensor<1x320x320xf32>
    %6516 = "tosa.matmul"(%6514, %6515) : (tensor<1x4096x320xf32>, tensor<1x320x320xf32>) -> tensor<1x4096x320xf32>
    %6517 = "tosa.reshape"(%6516) <{new_shape = array<i64: 4096, 320>}> : (tensor<1x4096x320xf32>) -> tensor<4096x320xf32>
    %6518 = "tosa.reshape"(%arg707) <{new_shape = array<i64: 1, 320>}> : (tensor<320xf32>) -> tensor<1x320xf32>
    %6519 = "tosa.add"(%6518, %6517) : (tensor<1x320xf32>, tensor<4096x320xf32>) -> tensor<4096x320xf32>
    %6520 = "tosa.reshape"(%6519) <{new_shape = array<i64: 1, 4096, 320>}> : (tensor<4096x320xf32>) -> tensor<1x4096x320xf32>
    %6521 = "tosa.identity"(%6520) : (tensor<1x4096x320xf32>) -> tensor<1x4096x320xf32>
    %6522 = "tosa.const"() <{value = dense<1.000000e+00> : tensor<1x4096x320xf32>}> : () -> tensor<1x4096x320xf32>
    %6523 = "tosa.reciprocal"(%6522) : (tensor<1x4096x320xf32>) -> tensor<1x4096x320xf32>
    %6524 = "tosa.mul"(%6521, %6523) <{shift = 0 : i8}> : (tensor<1x4096x320xf32>, tensor<1x4096x320xf32>) -> tensor<1x4096x320xf32>
    %6525 = "tosa.add"(%6524, %6444) : (tensor<1x4096x320xf32>, tensor<1x4096x320xf32>) -> tensor<1x4096x320xf32>
    %6526 = "tosa.reduce_sum"(%6525) <{axis = 2 : i32}> : (tensor<1x4096x320xf32>) -> tensor<1x4096x1xf32>
    %6527 = "tosa.const"() <{value = dense<3.200000e+02> : tensor<1xf32>}> : () -> tensor<1xf32>
    %6528 = "tosa.reciprocal"(%6527) : (tensor<1xf32>) -> tensor<1xf32>
    %6529 = "tosa.mul"(%6528, %6526) <{shift = 0 : i8}> : (tensor<1xf32>, tensor<1x4096x1xf32>) -> tensor<1x4096x1xf32>
    %6530 = "tosa.sub"(%6525, %6529) : (tensor<1x4096x320xf32>, tensor<1x4096x1xf32>) -> tensor<1x4096x320xf32>
    %6531 = "tosa.mul"(%6530, %6530) <{shift = 0 : i8}> : (tensor<1x4096x320xf32>, tensor<1x4096x320xf32>) -> tensor<1x4096x320xf32>
    %6532 = "tosa.reduce_sum"(%6531) <{axis = 2 : i32}> : (tensor<1x4096x320xf32>) -> tensor<1x4096x1xf32>
    %6533 = "tosa.const"() <{value = dense<3.200000e+02> : tensor<1xf32>}> : () -> tensor<1xf32>
    %6534 = "tosa.reciprocal"(%6533) : (tensor<1xf32>) -> tensor<1xf32>
    %6535 = "tosa.mul"(%6534, %6532) <{shift = 0 : i8}> : (tensor<1xf32>, tensor<1x4096x1xf32>) -> tensor<1x4096x1xf32>
    %6536 = "tosa.const"() <{value = dense<9.99999974E-6> : tensor<1x4096x1xf32>}> : () -> tensor<1x4096x1xf32>
    %6537 = "tosa.add"(%6535, %6536) : (tensor<1x4096x1xf32>, tensor<1x4096x1xf32>) -> tensor<1x4096x1xf32>
    %6538 = "tosa.rsqrt"(%6537) : (tensor<1x4096x1xf32>) -> tensor<1x4096x1xf32>
    %6539 = "tosa.sub"(%6525, %6529) : (tensor<1x4096x320xf32>, tensor<1x4096x1xf32>) -> tensor<1x4096x320xf32>
    %6540 = "tosa.mul"(%6539, %6538) <{shift = 0 : i8}> : (tensor<1x4096x320xf32>, tensor<1x4096x1xf32>) -> tensor<1x4096x320xf32>
    %6541 = "tosa.reshape"(%arg708) <{new_shape = array<i64: 1, 1, 320>}> : (tensor<320xf32>) -> tensor<1x1x320xf32>
    %6542 = "tosa.mul"(%6540, %6541) <{shift = 0 : i8}> : (tensor<1x4096x320xf32>, tensor<1x1x320xf32>) -> tensor<1x4096x320xf32>
    %6543 = "tosa.reshape"(%arg709) <{new_shape = array<i64: 1, 1, 320>}> : (tensor<320xf32>) -> tensor<1x1x320xf32>
    %6544 = "tosa.add"(%6542, %6543) : (tensor<1x4096x320xf32>, tensor<1x1x320xf32>) -> tensor<1x4096x320xf32>
    %6545 = "tosa.reshape"(%6544) <{new_shape = array<i64: 4096, 320>}> : (tensor<1x4096x320xf32>) -> tensor<4096x320xf32>
    %6546 = "tosa.const"() <{value = dense<[1, 0]> : tensor<2xi32>}> : () -> tensor<2xi32>
    %6547 = "tosa.transpose"(%arg710, %6546) : (tensor<2560x320xf32>, tensor<2xi32>) -> tensor<320x2560xf32>
    %6548 = "tosa.reshape"(%6545) <{new_shape = array<i64: 1, 4096, 320>}> : (tensor<4096x320xf32>) -> tensor<1x4096x320xf32>
    %6549 = "tosa.reshape"(%6547) <{new_shape = array<i64: 1, 320, 2560>}> : (tensor<320x2560xf32>) -> tensor<1x320x2560xf32>
    %6550 = "tosa.matmul"(%6548, %6549) : (tensor<1x4096x320xf32>, tensor<1x320x2560xf32>) -> tensor<1x4096x2560xf32>
    %6551 = "tosa.reshape"(%6550) <{new_shape = array<i64: 4096, 2560>}> : (tensor<1x4096x2560xf32>) -> tensor<4096x2560xf32>
    %6552 = "tosa.reshape"(%arg711) <{new_shape = array<i64: 1, 2560>}> : (tensor<2560xf32>) -> tensor<1x2560xf32>
    %6553 = "tosa.add"(%6552, %6551) : (tensor<1x2560xf32>, tensor<4096x2560xf32>) -> tensor<4096x2560xf32>
    %6554 = "tosa.reshape"(%6553) <{new_shape = array<i64: 1, 4096, 2560>}> : (tensor<4096x2560xf32>) -> tensor<1x4096x2560xf32>
    %6555 = "tosa.slice"(%6554) <{size = array<i64: 0, 0, 1280>, start = array<i64: 0, 0, 0>}> : (tensor<1x4096x2560xf32>) -> tensor<1x4096x1280xf32>
    %6556 = "tosa.slice"(%6554) <{size = array<i64: 0, 0, 2560>, start = array<i64: 0, 0, 1280>}> : (tensor<1x4096x2560xf32>) -> tensor<1x4096x1280xf32>
    %6557 = "tosa.const"() <{value = dense<5.000000e-01> : tensor<1x4096x1280xf32>}> : () -> tensor<1x4096x1280xf32>
    %6558 = "tosa.mul"(%6556, %6557) <{shift = 0 : i8}> : (tensor<1x4096x1280xf32>, tensor<1x4096x1280xf32>) -> tensor<1x4096x1280xf32>
    %6559 = "tosa.const"() <{value = dense<0.707106769> : tensor<1x4096x1280xf32>}> : () -> tensor<1x4096x1280xf32>
    %6560 = "tosa.mul"(%6556, %6559) <{shift = 0 : i8}> : (tensor<1x4096x1280xf32>, tensor<1x4096x1280xf32>) -> tensor<1x4096x1280xf32>
    %6561 = "math.erf"(%6560) <{fastmath = #arith.fastmath<none>}> : (tensor<1x4096x1280xf32>) -> tensor<1x4096x1280xf32>
    %6562 = "tosa.const"() <{value = dense<1.000000e+00> : tensor<1x4096x1280xf32>}> : () -> tensor<1x4096x1280xf32>
    %6563 = "tosa.add"(%6561, %6562) : (tensor<1x4096x1280xf32>, tensor<1x4096x1280xf32>) -> tensor<1x4096x1280xf32>
    %6564 = "tosa.mul"(%6558, %6563) <{shift = 0 : i8}> : (tensor<1x4096x1280xf32>, tensor<1x4096x1280xf32>) -> tensor<1x4096x1280xf32>
    %6565 = "tosa.mul"(%6555, %6564) <{shift = 0 : i8}> : (tensor<1x4096x1280xf32>, tensor<1x4096x1280xf32>) -> tensor<1x4096x1280xf32>
    %6566 = "tosa.identity"(%6565) : (tensor<1x4096x1280xf32>) -> tensor<1x4096x1280xf32>
    %6567 = "tosa.reshape"(%6566) <{new_shape = array<i64: 4096, 1280>}> : (tensor<1x4096x1280xf32>) -> tensor<4096x1280xf32>
    %6568 = "tosa.const"() <{value = dense<[1, 0]> : tensor<2xi32>}> : () -> tensor<2xi32>
    %6569 = "tosa.transpose"(%arg712, %6568) : (tensor<320x1280xf32>, tensor<2xi32>) -> tensor<1280x320xf32>
    %6570 = "tosa.reshape"(%6567) <{new_shape = array<i64: 1, 4096, 1280>}> : (tensor<4096x1280xf32>) -> tensor<1x4096x1280xf32>
    %6571 = "tosa.reshape"(%6569) <{new_shape = array<i64: 1, 1280, 320>}> : (tensor<1280x320xf32>) -> tensor<1x1280x320xf32>
    %6572 = "tosa.matmul"(%6570, %6571) : (tensor<1x4096x1280xf32>, tensor<1x1280x320xf32>) -> tensor<1x4096x320xf32>
    %6573 = "tosa.reshape"(%6572) <{new_shape = array<i64: 4096, 320>}> : (tensor<1x4096x320xf32>) -> tensor<4096x320xf32>
    %6574 = "tosa.reshape"(%arg713) <{new_shape = array<i64: 1, 320>}> : (tensor<320xf32>) -> tensor<1x320xf32>
    %6575 = "tosa.add"(%6574, %6573) : (tensor<1x320xf32>, tensor<4096x320xf32>) -> tensor<4096x320xf32>
    %6576 = "tosa.reshape"(%6575) <{new_shape = array<i64: 1, 4096, 320>}> : (tensor<4096x320xf32>) -> tensor<1x4096x320xf32>
    %6577 = "tosa.add"(%6576, %6525) : (tensor<1x4096x320xf32>, tensor<1x4096x320xf32>) -> tensor<1x4096x320xf32>
    %6578 = "tosa.reshape"(%6577) <{new_shape = array<i64: 4096, 320>}> : (tensor<1x4096x320xf32>) -> tensor<4096x320xf32>
    %6579 = "tosa.const"() <{value = dense<[1, 0]> : tensor<2xi32>}> : () -> tensor<2xi32>
    %6580 = "tosa.transpose"(%arg714, %6579) : (tensor<320x320xf32>, tensor<2xi32>) -> tensor<320x320xf32>
    %6581 = "tosa.reshape"(%6578) <{new_shape = array<i64: 1, 4096, 320>}> : (tensor<4096x320xf32>) -> tensor<1x4096x320xf32>
    %6582 = "tosa.reshape"(%6580) <{new_shape = array<i64: 1, 320, 320>}> : (tensor<320x320xf32>) -> tensor<1x320x320xf32>
    %6583 = "tosa.matmul"(%6581, %6582) : (tensor<1x4096x320xf32>, tensor<1x320x320xf32>) -> tensor<1x4096x320xf32>
    %6584 = "tosa.reshape"(%6583) <{new_shape = array<i64: 4096, 320>}> : (tensor<1x4096x320xf32>) -> tensor<4096x320xf32>
    %6585 = "tosa.reshape"(%arg715) <{new_shape = array<i64: 1, 320>}> : (tensor<320xf32>) -> tensor<1x320xf32>
    %6586 = "tosa.add"(%6585, %6584) : (tensor<1x320xf32>, tensor<4096x320xf32>) -> tensor<4096x320xf32>
    %6587 = "tosa.reshape"(%6586) <{new_shape = array<i64: 1, 4096, 320>}> : (tensor<4096x320xf32>) -> tensor<1x4096x320xf32>
    %6588 = "tosa.reshape"(%6587) <{new_shape = array<i64: 1, 64, 64, 320>}> : (tensor<1x4096x320xf32>) -> tensor<1x64x64x320xf32>
    %6589 = "tosa.const"() <{value = dense<[0, 3, 1, 2]> : tensor<4xi32>}> : () -> tensor<4xi32>
    %6590 = "tosa.transpose"(%6588, %6589) : (tensor<1x64x64x320xf32>, tensor<4xi32>) -> tensor<1x320x64x64xf32>
    %6591 = "tosa.identity"(%6590) : (tensor<1x320x64x64xf32>) -> tensor<1x320x64x64xf32>
    %6592 = "tosa.add"(%6591, %6325) : (tensor<1x320x64x64xf32>, tensor<1x320x64x64xf32>) -> tensor<1x320x64x64xf32>
    %6593 = "tosa.reshape"(%6592) <{new_shape = array<i64: 1, 32, 10, 4096>}> : (tensor<1x320x64x64xf32>) -> tensor<1x32x10x4096xf32>
    %6594 = "tosa.reduce_sum"(%6593) <{axis = 2 : i32}> : (tensor<1x32x10x4096xf32>) -> tensor<1x32x1x4096xf32>
    %6595 = "tosa.reduce_sum"(%6594) <{axis = 3 : i32}> : (tensor<1x32x1x4096xf32>) -> tensor<1x32x1x1xf32>
    %6596 = "tosa.const"() <{value = dense<4.096000e+04> : tensor<1xf32>}> : () -> tensor<1xf32>
    %6597 = "tosa.reciprocal"(%6596) : (tensor<1xf32>) -> tensor<1xf32>
    %6598 = "tosa.mul"(%6597, %6595) <{shift = 0 : i8}> : (tensor<1xf32>, tensor<1x32x1x1xf32>) -> tensor<1x32x1x1xf32>
    %6599 = "tosa.sub"(%6593, %6598) : (tensor<1x32x10x4096xf32>, tensor<1x32x1x1xf32>) -> tensor<1x32x10x4096xf32>
    %6600 = "tosa.mul"(%6599, %6599) <{shift = 0 : i8}> : (tensor<1x32x10x4096xf32>, tensor<1x32x10x4096xf32>) -> tensor<1x32x10x4096xf32>
    %6601 = "tosa.reduce_sum"(%6600) <{axis = 2 : i32}> : (tensor<1x32x10x4096xf32>) -> tensor<1x32x1x4096xf32>
    %6602 = "tosa.reduce_sum"(%6601) <{axis = 3 : i32}> : (tensor<1x32x1x4096xf32>) -> tensor<1x32x1x1xf32>
    %6603 = "tosa.const"() <{value = dense<4.096000e+04> : tensor<1xf32>}> : () -> tensor<1xf32>
    %6604 = "tosa.reciprocal"(%6603) : (tensor<1xf32>) -> tensor<1xf32>
    %6605 = "tosa.mul"(%6604, %6602) <{shift = 0 : i8}> : (tensor<1xf32>, tensor<1x32x1x1xf32>) -> tensor<1x32x1x1xf32>
    %6606 = "tosa.const"() <{value = dense<9.99999974E-6> : tensor<1x32x1x1xf32>}> : () -> tensor<1x32x1x1xf32>
    %6607 = "tosa.add"(%6605, %6606) : (tensor<1x32x1x1xf32>, tensor<1x32x1x1xf32>) -> tensor<1x32x1x1xf32>
    %6608 = "tosa.rsqrt"(%6607) : (tensor<1x32x1x1xf32>) -> tensor<1x32x1x1xf32>
    %6609 = "tosa.sub"(%6593, %6598) : (tensor<1x32x10x4096xf32>, tensor<1x32x1x1xf32>) -> tensor<1x32x10x4096xf32>
    %6610 = "tosa.mul"(%6609, %6608) <{shift = 0 : i8}> : (tensor<1x32x10x4096xf32>, tensor<1x32x1x1xf32>) -> tensor<1x32x10x4096xf32>
    %6611 = "tosa.reshape"(%6610) <{new_shape = array<i64: 1, 320, 64, 64>}> : (tensor<1x32x10x4096xf32>) -> tensor<1x320x64x64xf32>
    %6612 = "tosa.reshape"(%arg716) <{new_shape = array<i64: 1, 320>}> : (tensor<320xf32>) -> tensor<1x320xf32>
    %6613 = "tosa.reshape"(%6612) <{new_shape = array<i64: 1, 320, 1>}> : (tensor<1x320xf32>) -> tensor<1x320x1xf32>
    %6614 = "tosa.reshape"(%6613) <{new_shape = array<i64: 1, 320, 1, 1>}> : (tensor<1x320x1xf32>) -> tensor<1x320x1x1xf32>
    %6615 = "tosa.reshape"(%arg717) <{new_shape = array<i64: 1, 320>}> : (tensor<320xf32>) -> tensor<1x320xf32>
    %6616 = "tosa.reshape"(%6615) <{new_shape = array<i64: 1, 320, 1>}> : (tensor<1x320xf32>) -> tensor<1x320x1xf32>
    %6617 = "tosa.reshape"(%6616) <{new_shape = array<i64: 1, 320, 1, 1>}> : (tensor<1x320x1xf32>) -> tensor<1x320x1x1xf32>
    %6618 = "tosa.mul"(%6611, %6617) <{shift = 0 : i8}> : (tensor<1x320x64x64xf32>, tensor<1x320x1x1xf32>) -> tensor<1x320x64x64xf32>
    %6619 = "tosa.add"(%6618, %6614) : (tensor<1x320x64x64xf32>, tensor<1x320x1x1xf32>) -> tensor<1x320x64x64xf32>
    %6620 = "tosa.sigmoid"(%6619) : (tensor<1x320x64x64xf32>) -> tensor<1x320x64x64xf32>
    %6621 = "tosa.mul"(%6619, %6620) <{shift = 0 : i8}> : (tensor<1x320x64x64xf32>, tensor<1x320x64x64xf32>) -> tensor<1x320x64x64xf32>
    %6622 = "tosa.const"() <{value = dense<[0, 2, 3, 1]> : tensor<4xi32>}> : () -> tensor<4xi32>
    %6623 = "tosa.transpose"(%6621, %6622) : (tensor<1x320x64x64xf32>, tensor<4xi32>) -> tensor<1x64x64x320xf32>
    %6624 = "tosa.const"() <{value = dense<[0, 2, 3, 1]> : tensor<4xi32>}> : () -> tensor<4xi32>
    %6625 = "tosa.transpose"(%arg718, %6624) : (tensor<4x320x3x3xf32>, tensor<4xi32>) -> tensor<4x3x3x320xf32>
    %6626 = "tosa.conv2d"(%6623, %6625, %arg719) <{dilation = array<i64: 1, 1>, pad = array<i64: 1, 1, 1, 1>, stride = array<i64: 1, 1>}> : (tensor<1x64x64x320xf32>, tensor<4x3x3x320xf32>, tensor<4xf32>) -> tensor<1x64x64x4xf32>
    %6627 = "tosa.const"() <{value = dense<[0, 3, 1, 2]> : tensor<4xi32>}> : () -> tensor<4xi32>
    %6628 = "tosa.transpose"(%6626, %6627) : (tensor<1x64x64x4xf32>, tensor<4xi32>) -> tensor<1x4x64x64xf32>
    "func.return"(%6628) : (tensor<1x4x64x64xf32>) -> ()
  }) : () -> ()
}) : () -> ()

