#map = affine_map<(d0, d1, d2) -> (d1)>
#map1 = affine_map<(d0, d1, d2) -> (d0, d2)>
#map2 = affine_map<(d0, d1, d2) -> (d0, d1)>
#map3 = affine_map<(d0, d1) -> (d0, d1)>
#map4 = affine_map<(d0, d1, d2, d3) -> (d0, d1, d2, d3)>
#map5 = affine_map<(d0, d1) -> (d0)>
"builtin.module"() ({
  "func.func"() <{function_type = (tensor<1x12xi64>, tensor<1x77xi64>, tensor<49408x1024xf32>, tensor<77x1024xf32>, tensor<1x12xi64>, tensor<1024xf32>, tensor<1024xf32>, tensor<1024x1024xf32>, tensor<1024xf32>, tensor<1024x1024xf32>, tensor<1024xf32>, tensor<1024x1024xf32>, tensor<1024xf32>, tensor<1024x1024xf32>, tensor<1024xf32>, tensor<1024xf32>, tensor<1024xf32>, tensor<4096x1024xf32>, tensor<4096xf32>, tensor<1024x4096xf32>, tensor<1024xf32>, tensor<1024xf32>, tensor<1024xf32>, tensor<1024x1024xf32>, tensor<1024xf32>, tensor<1024x1024xf32>, tensor<1024xf32>, tensor<1024x1024xf32>, tensor<1024xf32>, tensor<1024x1024xf32>, tensor<1024xf32>, tensor<1024xf32>, tensor<1024xf32>, tensor<4096x1024xf32>, tensor<4096xf32>, tensor<1024x4096xf32>, tensor<1024xf32>, tensor<1024xf32>, tensor<1024xf32>, tensor<1024x1024xf32>, tensor<1024xf32>, tensor<1024x1024xf32>, tensor<1024xf32>, tensor<1024x1024xf32>, tensor<1024xf32>, tensor<1024x1024xf32>, tensor<1024xf32>, tensor<1024xf32>, tensor<1024xf32>, tensor<4096x1024xf32>, tensor<4096xf32>, tensor<1024x4096xf32>, tensor<1024xf32>, tensor<1024xf32>, tensor<1024xf32>, tensor<1024x1024xf32>, tensor<1024xf32>, tensor<1024x1024xf32>, tensor<1024xf32>, tensor<1024x1024xf32>, tensor<1024xf32>, tensor<1024x1024xf32>, tensor<1024xf32>, tensor<1024xf32>, tensor<1024xf32>, tensor<4096x1024xf32>, tensor<4096xf32>, tensor<1024x4096xf32>, tensor<1024xf32>, tensor<1024xf32>, tensor<1024xf32>, tensor<1024x1024xf32>, tensor<1024xf32>, tensor<1024x1024xf32>, tensor<1024xf32>, tensor<1024x1024xf32>, tensor<1024xf32>, tensor<1024x1024xf32>, tensor<1024xf32>, tensor<1024xf32>, tensor<1024xf32>, tensor<4096x1024xf32>, tensor<4096xf32>, tensor<1024x4096xf32>, tensor<1024xf32>, tensor<1024xf32>, tensor<1024xf32>, tensor<1024x1024xf32>, tensor<1024xf32>, tensor<1024x1024xf32>, tensor<1024xf32>, tensor<1024x1024xf32>, tensor<1024xf32>, tensor<1024x1024xf32>, tensor<1024xf32>, tensor<1024xf32>, tensor<1024xf32>, tensor<4096x1024xf32>, tensor<4096xf32>, tensor<1024x4096xf32>, tensor<1024xf32>, tensor<1024xf32>, tensor<1024xf32>, tensor<1024x1024xf32>, tensor<1024xf32>, tensor<1024x1024xf32>, tensor<1024xf32>, tensor<1024x1024xf32>, tensor<1024xf32>, tensor<1024x1024xf32>, tensor<1024xf32>, tensor<1024xf32>, tensor<1024xf32>, tensor<4096x1024xf32>, tensor<4096xf32>, tensor<1024x4096xf32>, tensor<1024xf32>, tensor<1024xf32>, tensor<1024xf32>, tensor<1024x1024xf32>, tensor<1024xf32>, tensor<1024x1024xf32>, tensor<1024xf32>, tensor<1024x1024xf32>, tensor<1024xf32>, tensor<1024x1024xf32>, tensor<1024xf32>, tensor<1024xf32>, tensor<1024xf32>, tensor<4096x1024xf32>, tensor<4096xf32>, tensor<1024x4096xf32>, tensor<1024xf32>, tensor<1024xf32>, tensor<1024xf32>, tensor<1024x1024xf32>, tensor<1024xf32>, tensor<1024x1024xf32>, tensor<1024xf32>, tensor<1024x1024xf32>, tensor<1024xf32>, tensor<1024x1024xf32>, tensor<1024xf32>, tensor<1024xf32>, tensor<1024xf32>, tensor<4096x1024xf32>, tensor<4096xf32>, tensor<1024x4096xf32>, tensor<1024xf32>, tensor<1024xf32>, tensor<1024xf32>, tensor<1024x1024xf32>, tensor<1024xf32>, tensor<1024x1024xf32>, tensor<1024xf32>, tensor<1024x1024xf32>, tensor<1024xf32>, tensor<1024x1024xf32>, tensor<1024xf32>, tensor<1024xf32>, tensor<1024xf32>, tensor<4096x1024xf32>, tensor<4096xf32>, tensor<1024x4096xf32>, tensor<1024xf32>, tensor<1024xf32>, tensor<1024xf32>, tensor<1024x1024xf32>, tensor<1024xf32>, tensor<1024x1024xf32>, tensor<1024xf32>, tensor<1024x1024xf32>, tensor<1024xf32>, tensor<1024x1024xf32>, tensor<1024xf32>, tensor<1024xf32>, tensor<1024xf32>, tensor<4096x1024xf32>, tensor<4096xf32>, tensor<1024x4096xf32>, tensor<1024xf32>, tensor<1024xf32>, tensor<1024xf32>, tensor<1024x1024xf32>, tensor<1024xf32>, tensor<1024x1024xf32>, tensor<1024xf32>, tensor<1024x1024xf32>, tensor<1024xf32>, tensor<1024x1024xf32>, tensor<1024xf32>, tensor<1024xf32>, tensor<1024xf32>, tensor<4096x1024xf32>, tensor<4096xf32>, tensor<1024x4096xf32>, tensor<1024xf32>, tensor<1024xf32>, tensor<1024xf32>, tensor<1024x1024xf32>, tensor<1024xf32>, tensor<1024x1024xf32>, tensor<1024xf32>, tensor<1024x1024xf32>, tensor<1024xf32>, tensor<1024x1024xf32>, tensor<1024xf32>, tensor<1024xf32>, tensor<1024xf32>, tensor<4096x1024xf32>, tensor<4096xf32>, tensor<1024x4096xf32>, tensor<1024xf32>, tensor<1024xf32>, tensor<1024xf32>, tensor<1024x1024xf32>, tensor<1024xf32>, tensor<1024x1024xf32>, tensor<1024xf32>, tensor<1024x1024xf32>, tensor<1024xf32>, tensor<1024x1024xf32>, tensor<1024xf32>, tensor<1024xf32>, tensor<1024xf32>, tensor<4096x1024xf32>, tensor<4096xf32>, tensor<1024x4096xf32>, tensor<1024xf32>, tensor<1024xf32>, tensor<1024xf32>, tensor<1024x1024xf32>, tensor<1024xf32>, tensor<1024x1024xf32>, tensor<1024xf32>, tensor<1024x1024xf32>, tensor<1024xf32>, tensor<1024x1024xf32>, tensor<1024xf32>, tensor<1024xf32>, tensor<1024xf32>, tensor<4096x1024xf32>, tensor<4096xf32>, tensor<1024x4096xf32>, tensor<1024xf32>, tensor<1024xf32>, tensor<1024xf32>, tensor<1024x1024xf32>, tensor<1024xf32>, tensor<1024x1024xf32>, tensor<1024xf32>, tensor<1024x1024xf32>, tensor<1024xf32>, tensor<1024x1024xf32>, tensor<1024xf32>, tensor<1024xf32>, tensor<1024xf32>, tensor<4096x1024xf32>, tensor<4096xf32>, tensor<1024x4096xf32>, tensor<1024xf32>, tensor<1024xf32>, tensor<1024xf32>, tensor<1024x1024xf32>, tensor<1024xf32>, tensor<1024x1024xf32>, tensor<1024xf32>, tensor<1024x1024xf32>, tensor<1024xf32>, tensor<1024x1024xf32>, tensor<1024xf32>, tensor<1024xf32>, tensor<1024xf32>, tensor<4096x1024xf32>, tensor<4096xf32>, tensor<1024x4096xf32>, tensor<1024xf32>, tensor<1024xf32>, tensor<1024xf32>, tensor<1024x1024xf32>, tensor<1024xf32>, tensor<1024x1024xf32>, tensor<1024xf32>, tensor<1024x1024xf32>, tensor<1024xf32>, tensor<1024x1024xf32>, tensor<1024xf32>, tensor<1024xf32>, tensor<1024xf32>, tensor<4096x1024xf32>, tensor<4096xf32>, tensor<1024x4096xf32>, tensor<1024xf32>, tensor<1024xf32>, tensor<1024xf32>, tensor<1024x1024xf32>, tensor<1024xf32>, tensor<1024x1024xf32>, tensor<1024xf32>, tensor<1024x1024xf32>, tensor<1024xf32>, tensor<1024x1024xf32>, tensor<1024xf32>, tensor<1024xf32>, tensor<1024xf32>, tensor<4096x1024xf32>, tensor<4096xf32>, tensor<1024x4096xf32>, tensor<1024xf32>, tensor<1024xf32>, tensor<1024xf32>, tensor<1024x1024xf32>, tensor<1024xf32>, tensor<1024x1024xf32>, tensor<1024xf32>, tensor<1024x1024xf32>, tensor<1024xf32>, tensor<1024x1024xf32>, tensor<1024xf32>, tensor<1024xf32>, tensor<1024xf32>, tensor<4096x1024xf32>, tensor<4096xf32>, tensor<1024x4096xf32>, tensor<1024xf32>, tensor<1024xf32>, tensor<1024xf32>, tensor<1024x1024xf32>, tensor<1024xf32>, tensor<1024x1024xf32>, tensor<1024xf32>, tensor<1024x1024xf32>, tensor<1024xf32>, tensor<1024x1024xf32>, tensor<1024xf32>, tensor<1024xf32>, tensor<1024xf32>, tensor<4096x1024xf32>, tensor<4096xf32>, tensor<1024x4096xf32>, tensor<1024xf32>, tensor<1024xf32>, tensor<1024xf32>, tensor<1024x1024xf32>, tensor<1024xf32>, tensor<1024x1024xf32>, tensor<1024xf32>, tensor<1024x1024xf32>, tensor<1024xf32>, tensor<1024x1024xf32>, tensor<1024xf32>, tensor<1024xf32>, tensor<1024xf32>, tensor<4096x1024xf32>, tensor<4096xf32>, tensor<1024x4096xf32>, tensor<1024xf32>, tensor<1024xf32>, tensor<1024xf32>, tensor<1024x1024xf32>, tensor<1024xf32>, tensor<1024x1024xf32>, tensor<1024xf32>, tensor<1024x1024xf32>, tensor<1024xf32>, tensor<1024x1024xf32>, tensor<1024xf32>, tensor<1024xf32>, tensor<1024xf32>, tensor<4096x1024xf32>, tensor<4096xf32>, tensor<1024x4096xf32>, tensor<1024xf32>, tensor<1024xf32>, tensor<1024xf32>) -> (tensor<1x12x1024xf32>, tensor<1x1024xf32>), sym_name = "subgraph0"}> ({
  ^bb0(%arg0: tensor<1x12xi64>, %arg1: tensor<1x77xi64>, %arg2: tensor<49408x1024xf32>, %arg3: tensor<77x1024xf32>, %arg4: tensor<1x12xi64>, %arg5: tensor<1024xf32>, %arg6: tensor<1024xf32>, %arg7: tensor<1024x1024xf32>, %arg8: tensor<1024xf32>, %arg9: tensor<1024x1024xf32>, %arg10: tensor<1024xf32>, %arg11: tensor<1024x1024xf32>, %arg12: tensor<1024xf32>, %arg13: tensor<1024x1024xf32>, %arg14: tensor<1024xf32>, %arg15: tensor<1024xf32>, %arg16: tensor<1024xf32>, %arg17: tensor<4096x1024xf32>, %arg18: tensor<4096xf32>, %arg19: tensor<1024x4096xf32>, %arg20: tensor<1024xf32>, %arg21: tensor<1024xf32>, %arg22: tensor<1024xf32>, %arg23: tensor<1024x1024xf32>, %arg24: tensor<1024xf32>, %arg25: tensor<1024x1024xf32>, %arg26: tensor<1024xf32>, %arg27: tensor<1024x1024xf32>, %arg28: tensor<1024xf32>, %arg29: tensor<1024x1024xf32>, %arg30: tensor<1024xf32>, %arg31: tensor<1024xf32>, %arg32: tensor<1024xf32>, %arg33: tensor<4096x1024xf32>, %arg34: tensor<4096xf32>, %arg35: tensor<1024x4096xf32>, %arg36: tensor<1024xf32>, %arg37: tensor<1024xf32>, %arg38: tensor<1024xf32>, %arg39: tensor<1024x1024xf32>, %arg40: tensor<1024xf32>, %arg41: tensor<1024x1024xf32>, %arg42: tensor<1024xf32>, %arg43: tensor<1024x1024xf32>, %arg44: tensor<1024xf32>, %arg45: tensor<1024x1024xf32>, %arg46: tensor<1024xf32>, %arg47: tensor<1024xf32>, %arg48: tensor<1024xf32>, %arg49: tensor<4096x1024xf32>, %arg50: tensor<4096xf32>, %arg51: tensor<1024x4096xf32>, %arg52: tensor<1024xf32>, %arg53: tensor<1024xf32>, %arg54: tensor<1024xf32>, %arg55: tensor<1024x1024xf32>, %arg56: tensor<1024xf32>, %arg57: tensor<1024x1024xf32>, %arg58: tensor<1024xf32>, %arg59: tensor<1024x1024xf32>, %arg60: tensor<1024xf32>, %arg61: tensor<1024x1024xf32>, %arg62: tensor<1024xf32>, %arg63: tensor<1024xf32>, %arg64: tensor<1024xf32>, %arg65: tensor<4096x1024xf32>, %arg66: tensor<4096xf32>, %arg67: tensor<1024x4096xf32>, %arg68: tensor<1024xf32>, %arg69: tensor<1024xf32>, %arg70: tensor<1024xf32>, %arg71: tensor<1024x1024xf32>, %arg72: tensor<1024xf32>, %arg73: tensor<1024x1024xf32>, %arg74: tensor<1024xf32>, %arg75: tensor<1024x1024xf32>, %arg76: tensor<1024xf32>, %arg77: tensor<1024x1024xf32>, %arg78: tensor<1024xf32>, %arg79: tensor<1024xf32>, %arg80: tensor<1024xf32>, %arg81: tensor<4096x1024xf32>, %arg82: tensor<4096xf32>, %arg83: tensor<1024x4096xf32>, %arg84: tensor<1024xf32>, %arg85: tensor<1024xf32>, %arg86: tensor<1024xf32>, %arg87: tensor<1024x1024xf32>, %arg88: tensor<1024xf32>, %arg89: tensor<1024x1024xf32>, %arg90: tensor<1024xf32>, %arg91: tensor<1024x1024xf32>, %arg92: tensor<1024xf32>, %arg93: tensor<1024x1024xf32>, %arg94: tensor<1024xf32>, %arg95: tensor<1024xf32>, %arg96: tensor<1024xf32>, %arg97: tensor<4096x1024xf32>, %arg98: tensor<4096xf32>, %arg99: tensor<1024x4096xf32>, %arg100: tensor<1024xf32>, %arg101: tensor<1024xf32>, %arg102: tensor<1024xf32>, %arg103: tensor<1024x1024xf32>, %arg104: tensor<1024xf32>, %arg105: tensor<1024x1024xf32>, %arg106: tensor<1024xf32>, %arg107: tensor<1024x1024xf32>, %arg108: tensor<1024xf32>, %arg109: tensor<1024x1024xf32>, %arg110: tensor<1024xf32>, %arg111: tensor<1024xf32>, %arg112: tensor<1024xf32>, %arg113: tensor<4096x1024xf32>, %arg114: tensor<4096xf32>, %arg115: tensor<1024x4096xf32>, %arg116: tensor<1024xf32>, %arg117: tensor<1024xf32>, %arg118: tensor<1024xf32>, %arg119: tensor<1024x1024xf32>, %arg120: tensor<1024xf32>, %arg121: tensor<1024x1024xf32>, %arg122: tensor<1024xf32>, %arg123: tensor<1024x1024xf32>, %arg124: tensor<1024xf32>, %arg125: tensor<1024x1024xf32>, %arg126: tensor<1024xf32>, %arg127: tensor<1024xf32>, %arg128: tensor<1024xf32>, %arg129: tensor<4096x1024xf32>, %arg130: tensor<4096xf32>, %arg131: tensor<1024x4096xf32>, %arg132: tensor<1024xf32>, %arg133: tensor<1024xf32>, %arg134: tensor<1024xf32>, %arg135: tensor<1024x1024xf32>, %arg136: tensor<1024xf32>, %arg137: tensor<1024x1024xf32>, %arg138: tensor<1024xf32>, %arg139: tensor<1024x1024xf32>, %arg140: tensor<1024xf32>, %arg141: tensor<1024x1024xf32>, %arg142: tensor<1024xf32>, %arg143: tensor<1024xf32>, %arg144: tensor<1024xf32>, %arg145: tensor<4096x1024xf32>, %arg146: tensor<4096xf32>, %arg147: tensor<1024x4096xf32>, %arg148: tensor<1024xf32>, %arg149: tensor<1024xf32>, %arg150: tensor<1024xf32>, %arg151: tensor<1024x1024xf32>, %arg152: tensor<1024xf32>, %arg153: tensor<1024x1024xf32>, %arg154: tensor<1024xf32>, %arg155: tensor<1024x1024xf32>, %arg156: tensor<1024xf32>, %arg157: tensor<1024x1024xf32>, %arg158: tensor<1024xf32>, %arg159: tensor<1024xf32>, %arg160: tensor<1024xf32>, %arg161: tensor<4096x1024xf32>, %arg162: tensor<4096xf32>, %arg163: tensor<1024x4096xf32>, %arg164: tensor<1024xf32>, %arg165: tensor<1024xf32>, %arg166: tensor<1024xf32>, %arg167: tensor<1024x1024xf32>, %arg168: tensor<1024xf32>, %arg169: tensor<1024x1024xf32>, %arg170: tensor<1024xf32>, %arg171: tensor<1024x1024xf32>, %arg172: tensor<1024xf32>, %arg173: tensor<1024x1024xf32>, %arg174: tensor<1024xf32>, %arg175: tensor<1024xf32>, %arg176: tensor<1024xf32>, %arg177: tensor<4096x1024xf32>, %arg178: tensor<4096xf32>, %arg179: tensor<1024x4096xf32>, %arg180: tensor<1024xf32>, %arg181: tensor<1024xf32>, %arg182: tensor<1024xf32>, %arg183: tensor<1024x1024xf32>, %arg184: tensor<1024xf32>, %arg185: tensor<1024x1024xf32>, %arg186: tensor<1024xf32>, %arg187: tensor<1024x1024xf32>, %arg188: tensor<1024xf32>, %arg189: tensor<1024x1024xf32>, %arg190: tensor<1024xf32>, %arg191: tensor<1024xf32>, %arg192: tensor<1024xf32>, %arg193: tensor<4096x1024xf32>, %arg194: tensor<4096xf32>, %arg195: tensor<1024x4096xf32>, %arg196: tensor<1024xf32>, %arg197: tensor<1024xf32>, %arg198: tensor<1024xf32>, %arg199: tensor<1024x1024xf32>, %arg200: tensor<1024xf32>, %arg201: tensor<1024x1024xf32>, %arg202: tensor<1024xf32>, %arg203: tensor<1024x1024xf32>, %arg204: tensor<1024xf32>, %arg205: tensor<1024x1024xf32>, %arg206: tensor<1024xf32>, %arg207: tensor<1024xf32>, %arg208: tensor<1024xf32>, %arg209: tensor<4096x1024xf32>, %arg210: tensor<4096xf32>, %arg211: tensor<1024x4096xf32>, %arg212: tensor<1024xf32>, %arg213: tensor<1024xf32>, %arg214: tensor<1024xf32>, %arg215: tensor<1024x1024xf32>, %arg216: tensor<1024xf32>, %arg217: tensor<1024x1024xf32>, %arg218: tensor<1024xf32>, %arg219: tensor<1024x1024xf32>, %arg220: tensor<1024xf32>, %arg221: tensor<1024x1024xf32>, %arg222: tensor<1024xf32>, %arg223: tensor<1024xf32>, %arg224: tensor<1024xf32>, %arg225: tensor<4096x1024xf32>, %arg226: tensor<4096xf32>, %arg227: tensor<1024x4096xf32>, %arg228: tensor<1024xf32>, %arg229: tensor<1024xf32>, %arg230: tensor<1024xf32>, %arg231: tensor<1024x1024xf32>, %arg232: tensor<1024xf32>, %arg233: tensor<1024x1024xf32>, %arg234: tensor<1024xf32>, %arg235: tensor<1024x1024xf32>, %arg236: tensor<1024xf32>, %arg237: tensor<1024x1024xf32>, %arg238: tensor<1024xf32>, %arg239: tensor<1024xf32>, %arg240: tensor<1024xf32>, %arg241: tensor<4096x1024xf32>, %arg242: tensor<4096xf32>, %arg243: tensor<1024x4096xf32>, %arg244: tensor<1024xf32>, %arg245: tensor<1024xf32>, %arg246: tensor<1024xf32>, %arg247: tensor<1024x1024xf32>, %arg248: tensor<1024xf32>, %arg249: tensor<1024x1024xf32>, %arg250: tensor<1024xf32>, %arg251: tensor<1024x1024xf32>, %arg252: tensor<1024xf32>, %arg253: tensor<1024x1024xf32>, %arg254: tensor<1024xf32>, %arg255: tensor<1024xf32>, %arg256: tensor<1024xf32>, %arg257: tensor<4096x1024xf32>, %arg258: tensor<4096xf32>, %arg259: tensor<1024x4096xf32>, %arg260: tensor<1024xf32>, %arg261: tensor<1024xf32>, %arg262: tensor<1024xf32>, %arg263: tensor<1024x1024xf32>, %arg264: tensor<1024xf32>, %arg265: tensor<1024x1024xf32>, %arg266: tensor<1024xf32>, %arg267: tensor<1024x1024xf32>, %arg268: tensor<1024xf32>, %arg269: tensor<1024x1024xf32>, %arg270: tensor<1024xf32>, %arg271: tensor<1024xf32>, %arg272: tensor<1024xf32>, %arg273: tensor<4096x1024xf32>, %arg274: tensor<4096xf32>, %arg275: tensor<1024x4096xf32>, %arg276: tensor<1024xf32>, %arg277: tensor<1024xf32>, %arg278: tensor<1024xf32>, %arg279: tensor<1024x1024xf32>, %arg280: tensor<1024xf32>, %arg281: tensor<1024x1024xf32>, %arg282: tensor<1024xf32>, %arg283: tensor<1024x1024xf32>, %arg284: tensor<1024xf32>, %arg285: tensor<1024x1024xf32>, %arg286: tensor<1024xf32>, %arg287: tensor<1024xf32>, %arg288: tensor<1024xf32>, %arg289: tensor<4096x1024xf32>, %arg290: tensor<4096xf32>, %arg291: tensor<1024x4096xf32>, %arg292: tensor<1024xf32>, %arg293: tensor<1024xf32>, %arg294: tensor<1024xf32>, %arg295: tensor<1024x1024xf32>, %arg296: tensor<1024xf32>, %arg297: tensor<1024x1024xf32>, %arg298: tensor<1024xf32>, %arg299: tensor<1024x1024xf32>, %arg300: tensor<1024xf32>, %arg301: tensor<1024x1024xf32>, %arg302: tensor<1024xf32>, %arg303: tensor<1024xf32>, %arg304: tensor<1024xf32>, %arg305: tensor<4096x1024xf32>, %arg306: tensor<4096xf32>, %arg307: tensor<1024x4096xf32>, %arg308: tensor<1024xf32>, %arg309: tensor<1024xf32>, %arg310: tensor<1024xf32>, %arg311: tensor<1024x1024xf32>, %arg312: tensor<1024xf32>, %arg313: tensor<1024x1024xf32>, %arg314: tensor<1024xf32>, %arg315: tensor<1024x1024xf32>, %arg316: tensor<1024xf32>, %arg317: tensor<1024x1024xf32>, %arg318: tensor<1024xf32>, %arg319: tensor<1024xf32>, %arg320: tensor<1024xf32>, %arg321: tensor<4096x1024xf32>, %arg322: tensor<4096xf32>, %arg323: tensor<1024x4096xf32>, %arg324: tensor<1024xf32>, %arg325: tensor<1024xf32>, %arg326: tensor<1024xf32>, %arg327: tensor<1024x1024xf32>, %arg328: tensor<1024xf32>, %arg329: tensor<1024x1024xf32>, %arg330: tensor<1024xf32>, %arg331: tensor<1024x1024xf32>, %arg332: tensor<1024xf32>, %arg333: tensor<1024x1024xf32>, %arg334: tensor<1024xf32>, %arg335: tensor<1024xf32>, %arg336: tensor<1024xf32>, %arg337: tensor<4096x1024xf32>, %arg338: tensor<4096xf32>, %arg339: tensor<1024x4096xf32>, %arg340: tensor<1024xf32>, %arg341: tensor<1024xf32>, %arg342: tensor<1024xf32>, %arg343: tensor<1024x1024xf32>, %arg344: tensor<1024xf32>, %arg345: tensor<1024x1024xf32>, %arg346: tensor<1024xf32>, %arg347: tensor<1024x1024xf32>, %arg348: tensor<1024xf32>, %arg349: tensor<1024x1024xf32>, %arg350: tensor<1024xf32>, %arg351: tensor<1024xf32>, %arg352: tensor<1024xf32>, %arg353: tensor<4096x1024xf32>, %arg354: tensor<4096xf32>, %arg355: tensor<1024x4096xf32>, %arg356: tensor<1024xf32>, %arg357: tensor<1024xf32>, %arg358: tensor<1024xf32>, %arg359: tensor<1024x1024xf32>, %arg360: tensor<1024xf32>, %arg361: tensor<1024x1024xf32>, %arg362: tensor<1024xf32>, %arg363: tensor<1024x1024xf32>, %arg364: tensor<1024xf32>, %arg365: tensor<1024x1024xf32>, %arg366: tensor<1024xf32>, %arg367: tensor<1024xf32>, %arg368: tensor<1024xf32>, %arg369: tensor<4096x1024xf32>, %arg370: tensor<4096xf32>, %arg371: tensor<1024x4096xf32>, %arg372: tensor<1024xf32>, %arg373: tensor<1024xf32>, %arg374: tensor<1024xf32>):
    %0 = "tosa.reshape"(%arg0) <{new_shape = array<i64: 1, 12>}> : (tensor<1x12xi64>) -> tensor<1x12xi64>
    %1 = "tensor.extract_slice"(%arg1) <{operandSegmentSizes = array<i32: 1, 0, 0, 0>, static_offsets = array<i64: 0, 0>, static_sizes = array<i64: 1, 77>, static_strides = array<i64: 1, 1>}> : (tensor<1x77xi64>) -> tensor<1x77xi64>
    %2 = "tensor.extract_slice"(%1) <{operandSegmentSizes = array<i32: 1, 0, 0, 0>, static_offsets = array<i64: 0, 0>, static_sizes = array<i64: 1, 12>, static_strides = array<i64: 1, 1>}> : (tensor<1x77xi64>) -> tensor<1x12xi64>
    %3 = "tosa.cast"(%0) : (tensor<1x12xi64>) -> tensor<1x12xi32>
    %4 = "tosa.reshape"(%arg2) <{new_shape = array<i64: 1, 49408, 1024>}> : (tensor<49408x1024xf32>) -> tensor<1x49408x1024xf32>
    %5 = "tosa.gather"(%4, %3) : (tensor<1x49408x1024xf32>, tensor<1x12xi32>) -> tensor<1x12x1024xf32>
    %6 = "tosa.reshape"(%5) <{new_shape = array<i64: 1, 12, 1024>}> : (tensor<1x12x1024xf32>) -> tensor<1x12x1024xf32>
    %7 = "tosa.cast"(%2) : (tensor<1x12xi64>) -> tensor<1x12xi32>
    %8 = "tosa.reshape"(%arg3) <{new_shape = array<i64: 1, 77, 1024>}> : (tensor<77x1024xf32>) -> tensor<1x77x1024xf32>
    %9 = "tosa.gather"(%8, %7) : (tensor<1x77x1024xf32>, tensor<1x12xi32>) -> tensor<1x12x1024xf32>
    %10 = "tosa.reshape"(%9) <{new_shape = array<i64: 1, 12, 1024>}> : (tensor<1x12x1024xf32>) -> tensor<1x12x1024xf32>
    %11 = "tosa.add"(%6, %10) : (tensor<1x12x1024xf32>, tensor<1x12x1024xf32>) -> tensor<1x12x1024xf32>
    %12 = "arith.constant"() <{value = dense<-3.40282347E+38> : tensor<12x12xf32>}> : () -> tensor<12x12xf32>
    %13 = "tosa.const"() <{value = dense<[0, 1, 2, 3, 4, 5, 6, 7, 8, 9, 10, 11]> : tensor<12xi64>}> : () -> tensor<12xi64>
    %14 = "tosa.const"() <{value = dense<1> : tensor<12xi64>}> : () -> tensor<12xi64>
    %15 = "tosa.add"(%13, %14) : (tensor<12xi64>, tensor<12xi64>) -> tensor<12xi64>
    %16 = "tosa.reshape"(%15) <{new_shape = array<i64: 12, 1>}> : (tensor<12xi64>) -> tensor<12x1xi64>
    %17 = "tensor.empty"() : () -> tensor<12x12xi1>
    %18 = "linalg.generic"(%13, %16, %17) <{indexing_maps = [#map, #map1, #map2], iterator_types = [#linalg.iterator_type<parallel>, #linalg.iterator_type<parallel>, #linalg.iterator_type<reduction>], operandSegmentSizes = array<i32: 2, 1>}> ({
    ^bb0(%arg375: i64, %arg376: i64, %arg377: i1):
      %3446 = "arith.cmpi"(%arg375, %arg376) <{predicate = 2 : i64}> : (i64, i64) -> i1
      "linalg.yield"(%3446) : (i1) -> ()
    }) : (tensor<12xi64>, tensor<12x1xi64>, tensor<12x12xi1>) -> tensor<12x12xi1>
    %19 = "arith.constant"() <{value = 0.000000e+00 : f32}> : () -> f32
    %20 = "tensor.empty"() : () -> tensor<12x12xf32>
    %21 = "linalg.generic"(%18, %12, %20) <{indexing_maps = [#map3, #map3, #map3], iterator_types = [#linalg.iterator_type<parallel>, #linalg.iterator_type<parallel>], operandSegmentSizes = array<i32: 2, 1>}> ({
    ^bb0(%arg375: i1, %arg376: f32, %arg377: f32):
      %3446 = "arith.select"(%arg375, %19, %arg376) : (i1, f32, f32) -> f32
      "linalg.yield"(%3446) : (f32) -> ()
    }) : (tensor<12x12xi1>, tensor<12x12xf32>, tensor<12x12xf32>) -> tensor<12x12xf32>
    %22 = "tensor.extract_slice"(%arg4) <{operandSegmentSizes = array<i32: 1, 0, 0, 0>, static_offsets = array<i64: 0, 0>, static_sizes = array<i64: 1, 12>, static_strides = array<i64: 1, 1>}> : (tensor<1x12xi64>) -> tensor<1x12xi64>
    %23 = "tosa.reshape"(%22) <{new_shape = array<i64: 1, 1, 12>}> : (tensor<1x12xi64>) -> tensor<1x1x12xi64>
    %24 = "tosa.reshape"(%23) <{new_shape = array<i64: 1, 1, 1, 12>}> : (tensor<1x1x12xi64>) -> tensor<1x1x1x12xi64>
    %25 = "tensor.extract_slice"(%24) <{operandSegmentSizes = array<i32: 1, 0, 0, 0>, static_offsets = array<i64: 0, 0, 0, 0>, static_sizes = array<i64: 1, 1, 1, 12>, static_strides = array<i64: 1, 1, 1, 1>}> : (tensor<1x1x1x12xi64>) -> tensor<1x1x1x12xi64>
    %26 = "tosa.const"() <{value = dense<0> : tensor<1x1x12x12xi64>}> : () -> tensor<1x1x12x12xi64>
    %27 = "tosa.add"(%25, %26) : (tensor<1x1x1x12xi64>, tensor<1x1x12x12xi64>) -> tensor<1x1x12x12xi64>
    %28 = "tosa.cast"(%27) : (tensor<1x1x12x12xi64>) -> tensor<1x1x12x12xf32>
    %29 = "tosa.const"() <{value = dense<1.000000e+00> : tensor<1x1x12x12xf32>}> : () -> tensor<1x1x12x12xf32>
    %30 = "tosa.sub"(%29, %28) : (tensor<1x1x12x12xf32>, tensor<1x1x12x12xf32>) -> tensor<1x1x12x12xf32>
    %31 = "tosa.cast"(%30) : (tensor<1x1x12x12xf32>) -> tensor<1x1x12x12xi1>
    %32 = "arith.constant"() <{value = -3.40282347E+38 : f32}> : () -> f32
    %33 = "tensor.empty"() : () -> tensor<1x1x12x12xf32>
    %34 = "linalg.generic"(%31, %30, %33) <{indexing_maps = [#map4, #map4, #map4], iterator_types = [#linalg.iterator_type<parallel>, #linalg.iterator_type<parallel>, #linalg.iterator_type<parallel>, #linalg.iterator_type<parallel>], operandSegmentSizes = array<i32: 2, 1>}> ({
    ^bb0(%arg375: i1, %arg376: f32, %arg377: f32):
      %3446 = "arith.select"(%arg375, %32, %arg376) : (i1, f32, f32) -> f32
      "linalg.yield"(%3446) : (f32) -> ()
    }) : (tensor<1x1x12x12xi1>, tensor<1x1x12x12xf32>, tensor<1x1x12x12xf32>) -> tensor<1x1x12x12xf32>
    %35 = "tosa.reduce_sum"(%11) <{axis = 2 : i32}> : (tensor<1x12x1024xf32>) -> tensor<1x12x1xf32>
    %36 = "tosa.const"() <{value = dense<1.024000e+03> : tensor<1xf32>}> : () -> tensor<1xf32>
    %37 = "tosa.reciprocal"(%36) : (tensor<1xf32>) -> tensor<1xf32>
    %38 = "tosa.mul"(%37, %35) <{shift = 0 : i8}> : (tensor<1xf32>, tensor<1x12x1xf32>) -> tensor<1x12x1xf32>
    %39 = "tosa.sub"(%11, %38) : (tensor<1x12x1024xf32>, tensor<1x12x1xf32>) -> tensor<1x12x1024xf32>
    %40 = "tosa.mul"(%39, %39) <{shift = 0 : i8}> : (tensor<1x12x1024xf32>, tensor<1x12x1024xf32>) -> tensor<1x12x1024xf32>
    %41 = "tosa.reduce_sum"(%40) <{axis = 2 : i32}> : (tensor<1x12x1024xf32>) -> tensor<1x12x1xf32>
    %42 = "tosa.const"() <{value = dense<1.024000e+03> : tensor<1xf32>}> : () -> tensor<1xf32>
    %43 = "tosa.reciprocal"(%42) : (tensor<1xf32>) -> tensor<1xf32>
    %44 = "tosa.mul"(%43, %41) <{shift = 0 : i8}> : (tensor<1xf32>, tensor<1x12x1xf32>) -> tensor<1x12x1xf32>
    %45 = "tosa.const"() <{value = dense<9.99999974E-6> : tensor<1x12x1xf32>}> : () -> tensor<1x12x1xf32>
    %46 = "tosa.add"(%44, %45) : (tensor<1x12x1xf32>, tensor<1x12x1xf32>) -> tensor<1x12x1xf32>
    %47 = "tosa.rsqrt"(%46) : (tensor<1x12x1xf32>) -> tensor<1x12x1xf32>
    %48 = "tosa.sub"(%11, %38) : (tensor<1x12x1024xf32>, tensor<1x12x1xf32>) -> tensor<1x12x1024xf32>
    %49 = "tosa.mul"(%48, %47) <{shift = 0 : i8}> : (tensor<1x12x1024xf32>, tensor<1x12x1xf32>) -> tensor<1x12x1024xf32>
    %50 = "tosa.reshape"(%arg5) <{new_shape = array<i64: 1, 1, 1024>}> : (tensor<1024xf32>) -> tensor<1x1x1024xf32>
    %51 = "tosa.mul"(%49, %50) <{shift = 0 : i8}> : (tensor<1x12x1024xf32>, tensor<1x1x1024xf32>) -> tensor<1x12x1024xf32>
    %52 = "tosa.reshape"(%arg6) <{new_shape = array<i64: 1, 1, 1024>}> : (tensor<1024xf32>) -> tensor<1x1x1024xf32>
    %53 = "tosa.add"(%51, %52) : (tensor<1x12x1024xf32>, tensor<1x1x1024xf32>) -> tensor<1x12x1024xf32>
    %54 = "tosa.reshape"(%53) <{new_shape = array<i64: 12, 1024>}> : (tensor<1x12x1024xf32>) -> tensor<12x1024xf32>
    %55 = "tosa.const"() <{value = dense<[1, 0]> : tensor<2xi32>}> : () -> tensor<2xi32>
    %56 = "tosa.transpose"(%arg7, %55) : (tensor<1024x1024xf32>, tensor<2xi32>) -> tensor<1024x1024xf32>
    %57 = "tosa.reshape"(%54) <{new_shape = array<i64: 1, 12, 1024>}> : (tensor<12x1024xf32>) -> tensor<1x12x1024xf32>
    %58 = "tosa.reshape"(%56) <{new_shape = array<i64: 1, 1024, 1024>}> : (tensor<1024x1024xf32>) -> tensor<1x1024x1024xf32>
    %59 = "tosa.matmul"(%57, %58) : (tensor<1x12x1024xf32>, tensor<1x1024x1024xf32>) -> tensor<1x12x1024xf32>
    %60 = "tosa.reshape"(%59) <{new_shape = array<i64: 12, 1024>}> : (tensor<1x12x1024xf32>) -> tensor<12x1024xf32>
    %61 = "tosa.reshape"(%arg8) <{new_shape = array<i64: 1, 1024>}> : (tensor<1024xf32>) -> tensor<1x1024xf32>
    %62 = "tosa.add"(%61, %60) : (tensor<1x1024xf32>, tensor<12x1024xf32>) -> tensor<12x1024xf32>
    %63 = "tosa.reshape"(%62) <{new_shape = array<i64: 1, 12, 1024>}> : (tensor<12x1024xf32>) -> tensor<1x12x1024xf32>
    %64 = "tosa.const"() <{value = dense<1.250000e-01> : tensor<1x12x1024xf32>}> : () -> tensor<1x12x1024xf32>
    %65 = "tosa.mul"(%63, %64) <{shift = 0 : i8}> : (tensor<1x12x1024xf32>, tensor<1x12x1024xf32>) -> tensor<1x12x1024xf32>
    %66 = "tosa.reshape"(%53) <{new_shape = array<i64: 12, 1024>}> : (tensor<1x12x1024xf32>) -> tensor<12x1024xf32>
    %67 = "tosa.const"() <{value = dense<[1, 0]> : tensor<2xi32>}> : () -> tensor<2xi32>
    %68 = "tosa.transpose"(%arg9, %67) : (tensor<1024x1024xf32>, tensor<2xi32>) -> tensor<1024x1024xf32>
    %69 = "tosa.reshape"(%66) <{new_shape = array<i64: 1, 12, 1024>}> : (tensor<12x1024xf32>) -> tensor<1x12x1024xf32>
    %70 = "tosa.reshape"(%68) <{new_shape = array<i64: 1, 1024, 1024>}> : (tensor<1024x1024xf32>) -> tensor<1x1024x1024xf32>
    %71 = "tosa.matmul"(%69, %70) : (tensor<1x12x1024xf32>, tensor<1x1024x1024xf32>) -> tensor<1x12x1024xf32>
    %72 = "tosa.reshape"(%71) <{new_shape = array<i64: 12, 1024>}> : (tensor<1x12x1024xf32>) -> tensor<12x1024xf32>
    %73 = "tosa.reshape"(%arg10) <{new_shape = array<i64: 1, 1024>}> : (tensor<1024xf32>) -> tensor<1x1024xf32>
    %74 = "tosa.add"(%73, %72) : (tensor<1x1024xf32>, tensor<12x1024xf32>) -> tensor<12x1024xf32>
    %75 = "tosa.reshape"(%74) <{new_shape = array<i64: 1, 12, 1024>}> : (tensor<12x1024xf32>) -> tensor<1x12x1024xf32>
    %76 = "tosa.reshape"(%75) <{new_shape = array<i64: 1, 12, 16, 64>}> : (tensor<1x12x1024xf32>) -> tensor<1x12x16x64xf32>
    %77 = "tosa.const"() <{value = dense<[0, 2, 1, 3]> : tensor<4xi32>}> : () -> tensor<4xi32>
    %78 = "tosa.transpose"(%76, %77) : (tensor<1x12x16x64xf32>, tensor<4xi32>) -> tensor<1x16x12x64xf32>
    %79 = "tosa.identity"(%78) : (tensor<1x16x12x64xf32>) -> tensor<1x16x12x64xf32>
    %80 = "tosa.reshape"(%53) <{new_shape = array<i64: 12, 1024>}> : (tensor<1x12x1024xf32>) -> tensor<12x1024xf32>
    %81 = "tosa.const"() <{value = dense<[1, 0]> : tensor<2xi32>}> : () -> tensor<2xi32>
    %82 = "tosa.transpose"(%arg11, %81) : (tensor<1024x1024xf32>, tensor<2xi32>) -> tensor<1024x1024xf32>
    %83 = "tosa.reshape"(%80) <{new_shape = array<i64: 1, 12, 1024>}> : (tensor<12x1024xf32>) -> tensor<1x12x1024xf32>
    %84 = "tosa.reshape"(%82) <{new_shape = array<i64: 1, 1024, 1024>}> : (tensor<1024x1024xf32>) -> tensor<1x1024x1024xf32>
    %85 = "tosa.matmul"(%83, %84) : (tensor<1x12x1024xf32>, tensor<1x1024x1024xf32>) -> tensor<1x12x1024xf32>
    %86 = "tosa.reshape"(%85) <{new_shape = array<i64: 12, 1024>}> : (tensor<1x12x1024xf32>) -> tensor<12x1024xf32>
    %87 = "tosa.reshape"(%arg12) <{new_shape = array<i64: 1, 1024>}> : (tensor<1024xf32>) -> tensor<1x1024xf32>
    %88 = "tosa.add"(%87, %86) : (tensor<1x1024xf32>, tensor<12x1024xf32>) -> tensor<12x1024xf32>
    %89 = "tosa.reshape"(%88) <{new_shape = array<i64: 1, 12, 1024>}> : (tensor<12x1024xf32>) -> tensor<1x12x1024xf32>
    %90 = "tosa.reshape"(%89) <{new_shape = array<i64: 1, 12, 16, 64>}> : (tensor<1x12x1024xf32>) -> tensor<1x12x16x64xf32>
    %91 = "tosa.const"() <{value = dense<[0, 2, 1, 3]> : tensor<4xi32>}> : () -> tensor<4xi32>
    %92 = "tosa.transpose"(%90, %91) : (tensor<1x12x16x64xf32>, tensor<4xi32>) -> tensor<1x16x12x64xf32>
    %93 = "tosa.identity"(%92) : (tensor<1x16x12x64xf32>) -> tensor<1x16x12x64xf32>
    %94 = "tosa.reshape"(%65) <{new_shape = array<i64: 1, 12, 16, 64>}> : (tensor<1x12x1024xf32>) -> tensor<1x12x16x64xf32>
    %95 = "tosa.const"() <{value = dense<[0, 2, 1, 3]> : tensor<4xi32>}> : () -> tensor<4xi32>
    %96 = "tosa.transpose"(%94, %95) : (tensor<1x12x16x64xf32>, tensor<4xi32>) -> tensor<1x16x12x64xf32>
    %97 = "tosa.identity"(%96) : (tensor<1x16x12x64xf32>) -> tensor<1x16x12x64xf32>
    %98 = "tosa.reshape"(%97) <{new_shape = array<i64: 16, 12, 64>}> : (tensor<1x16x12x64xf32>) -> tensor<16x12x64xf32>
    %99 = "tosa.reshape"(%79) <{new_shape = array<i64: 16, 12, 64>}> : (tensor<1x16x12x64xf32>) -> tensor<16x12x64xf32>
    %100 = "tosa.reshape"(%93) <{new_shape = array<i64: 16, 12, 64>}> : (tensor<1x16x12x64xf32>) -> tensor<16x12x64xf32>
    %101 = "tosa.const"() <{value = dense<[0, 2, 1]> : tensor<3xi32>}> : () -> tensor<3xi32>
    %102 = "tosa.transpose"(%99, %101) : (tensor<16x12x64xf32>, tensor<3xi32>) -> tensor<16x64x12xf32>
    %103 = "tosa.matmul"(%98, %102) : (tensor<16x12x64xf32>, tensor<16x64x12xf32>) -> tensor<16x12x12xf32>
    %104 = "tosa.reshape"(%103) <{new_shape = array<i64: 1, 16, 12, 12>}> : (tensor<16x12x12xf32>) -> tensor<1x16x12x12xf32>
    %105 = "tosa.reshape"(%21) <{new_shape = array<i64: 1, 12, 12>}> : (tensor<12x12xf32>) -> tensor<1x12x12xf32>
    %106 = "tosa.reshape"(%105) <{new_shape = array<i64: 1, 1, 12, 12>}> : (tensor<1x12x12xf32>) -> tensor<1x1x12x12xf32>
    %107 = "tensor.extract_slice"(%106) <{operandSegmentSizes = array<i32: 1, 0, 0, 0>, static_offsets = array<i64: 0, 0, 0, 0>, static_sizes = array<i64: 1, 1, 12, 12>, static_strides = array<i64: 1, 1, 1, 1>}> : (tensor<1x1x12x12xf32>) -> tensor<1x1x12x12xf32>
    %108 = "tensor.extract_slice"(%107) <{operandSegmentSizes = array<i32: 1, 0, 0, 0>, static_offsets = array<i64: 0, 0, 0, 0>, static_sizes = array<i64: 1, 1, 12, 12>, static_strides = array<i64: 1, 1, 1, 1>}> : (tensor<1x1x12x12xf32>) -> tensor<1x1x12x12xf32>
    %109 = "tosa.const"() <{value = dense<0.000000e+00> : tensor<1x1x12x12xf32>}> : () -> tensor<1x1x12x12xf32>
    %110 = "tosa.add"(%108, %109) : (tensor<1x1x12x12xf32>, tensor<1x1x12x12xf32>) -> tensor<1x1x12x12xf32>
    %111 = "tosa.add"(%104, %110) : (tensor<1x16x12x12xf32>, tensor<1x1x12x12xf32>) -> tensor<1x16x12x12xf32>
    %112 = "tosa.reshape"(%111) <{new_shape = array<i64: 16, 12, 12>}> : (tensor<1x16x12x12xf32>) -> tensor<16x12x12xf32>
    %113 = "tosa.reshape"(%112) <{new_shape = array<i64: 1, 16, 12, 12>}> : (tensor<16x12x12xf32>) -> tensor<1x16x12x12xf32>
    %114 = "tosa.add"(%113, %34) : (tensor<1x16x12x12xf32>, tensor<1x1x12x12xf32>) -> tensor<1x16x12x12xf32>
    %115 = "tosa.reshape"(%114) <{new_shape = array<i64: 16, 12, 12>}> : (tensor<1x16x12x12xf32>) -> tensor<16x12x12xf32>
    %116 = "tosa.reduce_max"(%115) <{axis = 2 : i32}> : (tensor<16x12x12xf32>) -> tensor<16x12x1xf32>
    %117 = "tosa.sub"(%115, %116) : (tensor<16x12x12xf32>, tensor<16x12x1xf32>) -> tensor<16x12x12xf32>
    %118 = "tosa.exp"(%117) : (tensor<16x12x12xf32>) -> tensor<16x12x12xf32>
    %119 = "tosa.reduce_sum"(%118) <{axis = 2 : i32}> : (tensor<16x12x12xf32>) -> tensor<16x12x1xf32>
    %120 = "tosa.reciprocal"(%119) : (tensor<16x12x1xf32>) -> tensor<16x12x1xf32>
    %121 = "tosa.mul"(%118, %120) <{shift = 0 : i8}> : (tensor<16x12x12xf32>, tensor<16x12x1xf32>) -> tensor<16x12x12xf32>
    %122 = "tosa.identity"(%121) : (tensor<16x12x12xf32>) -> tensor<16x12x12xf32>
    %123 = "tosa.matmul"(%122, %100) : (tensor<16x12x12xf32>, tensor<16x12x64xf32>) -> tensor<16x12x64xf32>
    %124 = "tosa.reshape"(%123) <{new_shape = array<i64: 1, 16, 12, 64>}> : (tensor<16x12x64xf32>) -> tensor<1x16x12x64xf32>
    %125 = "tosa.const"() <{value = dense<[0, 2, 1, 3]> : tensor<4xi32>}> : () -> tensor<4xi32>
    %126 = "tosa.transpose"(%124, %125) : (tensor<1x16x12x64xf32>, tensor<4xi32>) -> tensor<1x12x16x64xf32>
    %127 = "tosa.identity"(%126) : (tensor<1x12x16x64xf32>) -> tensor<1x12x16x64xf32>
    %128 = "tosa.reshape"(%127) <{new_shape = array<i64: 1, 12, 1024>}> : (tensor<1x12x16x64xf32>) -> tensor<1x12x1024xf32>
    %129 = "tosa.reshape"(%128) <{new_shape = array<i64: 12, 1024>}> : (tensor<1x12x1024xf32>) -> tensor<12x1024xf32>
    %130 = "tosa.const"() <{value = dense<[1, 0]> : tensor<2xi32>}> : () -> tensor<2xi32>
    %131 = "tosa.transpose"(%arg13, %130) : (tensor<1024x1024xf32>, tensor<2xi32>) -> tensor<1024x1024xf32>
    %132 = "tosa.reshape"(%129) <{new_shape = array<i64: 1, 12, 1024>}> : (tensor<12x1024xf32>) -> tensor<1x12x1024xf32>
    %133 = "tosa.reshape"(%131) <{new_shape = array<i64: 1, 1024, 1024>}> : (tensor<1024x1024xf32>) -> tensor<1x1024x1024xf32>
    %134 = "tosa.matmul"(%132, %133) : (tensor<1x12x1024xf32>, tensor<1x1024x1024xf32>) -> tensor<1x12x1024xf32>
    %135 = "tosa.reshape"(%134) <{new_shape = array<i64: 12, 1024>}> : (tensor<1x12x1024xf32>) -> tensor<12x1024xf32>
    %136 = "tosa.reshape"(%arg14) <{new_shape = array<i64: 1, 1024>}> : (tensor<1024xf32>) -> tensor<1x1024xf32>
    %137 = "tosa.add"(%136, %135) : (tensor<1x1024xf32>, tensor<12x1024xf32>) -> tensor<12x1024xf32>
    %138 = "tosa.reshape"(%137) <{new_shape = array<i64: 1, 12, 1024>}> : (tensor<12x1024xf32>) -> tensor<1x12x1024xf32>
    %139 = "tosa.add"(%11, %138) : (tensor<1x12x1024xf32>, tensor<1x12x1024xf32>) -> tensor<1x12x1024xf32>
    %140 = "tosa.reduce_sum"(%139) <{axis = 2 : i32}> : (tensor<1x12x1024xf32>) -> tensor<1x12x1xf32>
    %141 = "tosa.const"() <{value = dense<1.024000e+03> : tensor<1xf32>}> : () -> tensor<1xf32>
    %142 = "tosa.reciprocal"(%141) : (tensor<1xf32>) -> tensor<1xf32>
    %143 = "tosa.mul"(%142, %140) <{shift = 0 : i8}> : (tensor<1xf32>, tensor<1x12x1xf32>) -> tensor<1x12x1xf32>
    %144 = "tosa.sub"(%139, %143) : (tensor<1x12x1024xf32>, tensor<1x12x1xf32>) -> tensor<1x12x1024xf32>
    %145 = "tosa.mul"(%144, %144) <{shift = 0 : i8}> : (tensor<1x12x1024xf32>, tensor<1x12x1024xf32>) -> tensor<1x12x1024xf32>
    %146 = "tosa.reduce_sum"(%145) <{axis = 2 : i32}> : (tensor<1x12x1024xf32>) -> tensor<1x12x1xf32>
    %147 = "tosa.const"() <{value = dense<1.024000e+03> : tensor<1xf32>}> : () -> tensor<1xf32>
    %148 = "tosa.reciprocal"(%147) : (tensor<1xf32>) -> tensor<1xf32>
    %149 = "tosa.mul"(%148, %146) <{shift = 0 : i8}> : (tensor<1xf32>, tensor<1x12x1xf32>) -> tensor<1x12x1xf32>
    %150 = "tosa.const"() <{value = dense<9.99999974E-6> : tensor<1x12x1xf32>}> : () -> tensor<1x12x1xf32>
    %151 = "tosa.add"(%149, %150) : (tensor<1x12x1xf32>, tensor<1x12x1xf32>) -> tensor<1x12x1xf32>
    %152 = "tosa.rsqrt"(%151) : (tensor<1x12x1xf32>) -> tensor<1x12x1xf32>
    %153 = "tosa.sub"(%139, %143) : (tensor<1x12x1024xf32>, tensor<1x12x1xf32>) -> tensor<1x12x1024xf32>
    %154 = "tosa.mul"(%153, %152) <{shift = 0 : i8}> : (tensor<1x12x1024xf32>, tensor<1x12x1xf32>) -> tensor<1x12x1024xf32>
    %155 = "tosa.reshape"(%arg15) <{new_shape = array<i64: 1, 1, 1024>}> : (tensor<1024xf32>) -> tensor<1x1x1024xf32>
    %156 = "tosa.mul"(%154, %155) <{shift = 0 : i8}> : (tensor<1x12x1024xf32>, tensor<1x1x1024xf32>) -> tensor<1x12x1024xf32>
    %157 = "tosa.reshape"(%arg16) <{new_shape = array<i64: 1, 1, 1024>}> : (tensor<1024xf32>) -> tensor<1x1x1024xf32>
    %158 = "tosa.add"(%156, %157) : (tensor<1x12x1024xf32>, tensor<1x1x1024xf32>) -> tensor<1x12x1024xf32>
    %159 = "tosa.reshape"(%158) <{new_shape = array<i64: 12, 1024>}> : (tensor<1x12x1024xf32>) -> tensor<12x1024xf32>
    %160 = "tosa.const"() <{value = dense<[1, 0]> : tensor<2xi32>}> : () -> tensor<2xi32>
    %161 = "tosa.transpose"(%arg17, %160) : (tensor<4096x1024xf32>, tensor<2xi32>) -> tensor<1024x4096xf32>
    %162 = "tosa.reshape"(%159) <{new_shape = array<i64: 1, 12, 1024>}> : (tensor<12x1024xf32>) -> tensor<1x12x1024xf32>
    %163 = "tosa.reshape"(%161) <{new_shape = array<i64: 1, 1024, 4096>}> : (tensor<1024x4096xf32>) -> tensor<1x1024x4096xf32>
    %164 = "tosa.matmul"(%162, %163) : (tensor<1x12x1024xf32>, tensor<1x1024x4096xf32>) -> tensor<1x12x4096xf32>
    %165 = "tosa.reshape"(%164) <{new_shape = array<i64: 12, 4096>}> : (tensor<1x12x4096xf32>) -> tensor<12x4096xf32>
    %166 = "tosa.reshape"(%arg18) <{new_shape = array<i64: 1, 4096>}> : (tensor<4096xf32>) -> tensor<1x4096xf32>
    %167 = "tosa.add"(%166, %165) : (tensor<1x4096xf32>, tensor<12x4096xf32>) -> tensor<12x4096xf32>
    %168 = "tosa.reshape"(%167) <{new_shape = array<i64: 1, 12, 4096>}> : (tensor<12x4096xf32>) -> tensor<1x12x4096xf32>
    %169 = "tosa.const"() <{value = dense<5.000000e-01> : tensor<1x12x4096xf32>}> : () -> tensor<1x12x4096xf32>
    %170 = "tosa.mul"(%168, %169) <{shift = 0 : i8}> : (tensor<1x12x4096xf32>, tensor<1x12x4096xf32>) -> tensor<1x12x4096xf32>
    %171 = "tosa.const"() <{value = dense<0.707106769> : tensor<1x12x4096xf32>}> : () -> tensor<1x12x4096xf32>
    %172 = "tosa.mul"(%168, %171) <{shift = 0 : i8}> : (tensor<1x12x4096xf32>, tensor<1x12x4096xf32>) -> tensor<1x12x4096xf32>
    %173 = "math.erf"(%172) <{fastmath = #arith.fastmath<none>}> : (tensor<1x12x4096xf32>) -> tensor<1x12x4096xf32>
    %174 = "tosa.const"() <{value = dense<1.000000e+00> : tensor<1x12x4096xf32>}> : () -> tensor<1x12x4096xf32>
    %175 = "tosa.add"(%173, %174) : (tensor<1x12x4096xf32>, tensor<1x12x4096xf32>) -> tensor<1x12x4096xf32>
    %176 = "tosa.mul"(%170, %175) <{shift = 0 : i8}> : (tensor<1x12x4096xf32>, tensor<1x12x4096xf32>) -> tensor<1x12x4096xf32>
    %177 = "tosa.reshape"(%176) <{new_shape = array<i64: 12, 4096>}> : (tensor<1x12x4096xf32>) -> tensor<12x4096xf32>
    %178 = "tosa.const"() <{value = dense<[1, 0]> : tensor<2xi32>}> : () -> tensor<2xi32>
    %179 = "tosa.transpose"(%arg19, %178) : (tensor<1024x4096xf32>, tensor<2xi32>) -> tensor<4096x1024xf32>
    %180 = "tosa.reshape"(%177) <{new_shape = array<i64: 1, 12, 4096>}> : (tensor<12x4096xf32>) -> tensor<1x12x4096xf32>
    %181 = "tosa.reshape"(%179) <{new_shape = array<i64: 1, 4096, 1024>}> : (tensor<4096x1024xf32>) -> tensor<1x4096x1024xf32>
    %182 = "tosa.matmul"(%180, %181) : (tensor<1x12x4096xf32>, tensor<1x4096x1024xf32>) -> tensor<1x12x1024xf32>
    %183 = "tosa.reshape"(%182) <{new_shape = array<i64: 12, 1024>}> : (tensor<1x12x1024xf32>) -> tensor<12x1024xf32>
    %184 = "tosa.reshape"(%arg20) <{new_shape = array<i64: 1, 1024>}> : (tensor<1024xf32>) -> tensor<1x1024xf32>
    %185 = "tosa.add"(%184, %183) : (tensor<1x1024xf32>, tensor<12x1024xf32>) -> tensor<12x1024xf32>
    %186 = "tosa.reshape"(%185) <{new_shape = array<i64: 1, 12, 1024>}> : (tensor<12x1024xf32>) -> tensor<1x12x1024xf32>
    %187 = "tosa.add"(%139, %186) : (tensor<1x12x1024xf32>, tensor<1x12x1024xf32>) -> tensor<1x12x1024xf32>
    %188 = "tosa.reduce_sum"(%187) <{axis = 2 : i32}> : (tensor<1x12x1024xf32>) -> tensor<1x12x1xf32>
    %189 = "tosa.const"() <{value = dense<1.024000e+03> : tensor<1xf32>}> : () -> tensor<1xf32>
    %190 = "tosa.reciprocal"(%189) : (tensor<1xf32>) -> tensor<1xf32>
    %191 = "tosa.mul"(%190, %188) <{shift = 0 : i8}> : (tensor<1xf32>, tensor<1x12x1xf32>) -> tensor<1x12x1xf32>
    %192 = "tosa.sub"(%187, %191) : (tensor<1x12x1024xf32>, tensor<1x12x1xf32>) -> tensor<1x12x1024xf32>
    %193 = "tosa.mul"(%192, %192) <{shift = 0 : i8}> : (tensor<1x12x1024xf32>, tensor<1x12x1024xf32>) -> tensor<1x12x1024xf32>
    %194 = "tosa.reduce_sum"(%193) <{axis = 2 : i32}> : (tensor<1x12x1024xf32>) -> tensor<1x12x1xf32>
    %195 = "tosa.const"() <{value = dense<1.024000e+03> : tensor<1xf32>}> : () -> tensor<1xf32>
    %196 = "tosa.reciprocal"(%195) : (tensor<1xf32>) -> tensor<1xf32>
    %197 = "tosa.mul"(%196, %194) <{shift = 0 : i8}> : (tensor<1xf32>, tensor<1x12x1xf32>) -> tensor<1x12x1xf32>
    %198 = "tosa.const"() <{value = dense<9.99999974E-6> : tensor<1x12x1xf32>}> : () -> tensor<1x12x1xf32>
    %199 = "tosa.add"(%197, %198) : (tensor<1x12x1xf32>, tensor<1x12x1xf32>) -> tensor<1x12x1xf32>
    %200 = "tosa.rsqrt"(%199) : (tensor<1x12x1xf32>) -> tensor<1x12x1xf32>
    %201 = "tosa.sub"(%187, %191) : (tensor<1x12x1024xf32>, tensor<1x12x1xf32>) -> tensor<1x12x1024xf32>
    %202 = "tosa.mul"(%201, %200) <{shift = 0 : i8}> : (tensor<1x12x1024xf32>, tensor<1x12x1xf32>) -> tensor<1x12x1024xf32>
    %203 = "tosa.reshape"(%arg21) <{new_shape = array<i64: 1, 1, 1024>}> : (tensor<1024xf32>) -> tensor<1x1x1024xf32>
    %204 = "tosa.mul"(%202, %203) <{shift = 0 : i8}> : (tensor<1x12x1024xf32>, tensor<1x1x1024xf32>) -> tensor<1x12x1024xf32>
    %205 = "tosa.reshape"(%arg22) <{new_shape = array<i64: 1, 1, 1024>}> : (tensor<1024xf32>) -> tensor<1x1x1024xf32>
    %206 = "tosa.add"(%204, %205) : (tensor<1x12x1024xf32>, tensor<1x1x1024xf32>) -> tensor<1x12x1024xf32>
    %207 = "tosa.reshape"(%206) <{new_shape = array<i64: 12, 1024>}> : (tensor<1x12x1024xf32>) -> tensor<12x1024xf32>
    %208 = "tosa.const"() <{value = dense<[1, 0]> : tensor<2xi32>}> : () -> tensor<2xi32>
    %209 = "tosa.transpose"(%arg23, %208) : (tensor<1024x1024xf32>, tensor<2xi32>) -> tensor<1024x1024xf32>
    %210 = "tosa.reshape"(%207) <{new_shape = array<i64: 1, 12, 1024>}> : (tensor<12x1024xf32>) -> tensor<1x12x1024xf32>
    %211 = "tosa.reshape"(%209) <{new_shape = array<i64: 1, 1024, 1024>}> : (tensor<1024x1024xf32>) -> tensor<1x1024x1024xf32>
    %212 = "tosa.matmul"(%210, %211) : (tensor<1x12x1024xf32>, tensor<1x1024x1024xf32>) -> tensor<1x12x1024xf32>
    %213 = "tosa.reshape"(%212) <{new_shape = array<i64: 12, 1024>}> : (tensor<1x12x1024xf32>) -> tensor<12x1024xf32>
    %214 = "tosa.reshape"(%arg24) <{new_shape = array<i64: 1, 1024>}> : (tensor<1024xf32>) -> tensor<1x1024xf32>
    %215 = "tosa.add"(%214, %213) : (tensor<1x1024xf32>, tensor<12x1024xf32>) -> tensor<12x1024xf32>
    %216 = "tosa.reshape"(%215) <{new_shape = array<i64: 1, 12, 1024>}> : (tensor<12x1024xf32>) -> tensor<1x12x1024xf32>
    %217 = "tosa.const"() <{value = dense<1.250000e-01> : tensor<1x12x1024xf32>}> : () -> tensor<1x12x1024xf32>
    %218 = "tosa.mul"(%216, %217) <{shift = 0 : i8}> : (tensor<1x12x1024xf32>, tensor<1x12x1024xf32>) -> tensor<1x12x1024xf32>
    %219 = "tosa.reshape"(%206) <{new_shape = array<i64: 12, 1024>}> : (tensor<1x12x1024xf32>) -> tensor<12x1024xf32>
    %220 = "tosa.const"() <{value = dense<[1, 0]> : tensor<2xi32>}> : () -> tensor<2xi32>
    %221 = "tosa.transpose"(%arg25, %220) : (tensor<1024x1024xf32>, tensor<2xi32>) -> tensor<1024x1024xf32>
    %222 = "tosa.reshape"(%219) <{new_shape = array<i64: 1, 12, 1024>}> : (tensor<12x1024xf32>) -> tensor<1x12x1024xf32>
    %223 = "tosa.reshape"(%221) <{new_shape = array<i64: 1, 1024, 1024>}> : (tensor<1024x1024xf32>) -> tensor<1x1024x1024xf32>
    %224 = "tosa.matmul"(%222, %223) : (tensor<1x12x1024xf32>, tensor<1x1024x1024xf32>) -> tensor<1x12x1024xf32>
    %225 = "tosa.reshape"(%224) <{new_shape = array<i64: 12, 1024>}> : (tensor<1x12x1024xf32>) -> tensor<12x1024xf32>
    %226 = "tosa.reshape"(%arg26) <{new_shape = array<i64: 1, 1024>}> : (tensor<1024xf32>) -> tensor<1x1024xf32>
    %227 = "tosa.add"(%226, %225) : (tensor<1x1024xf32>, tensor<12x1024xf32>) -> tensor<12x1024xf32>
    %228 = "tosa.reshape"(%227) <{new_shape = array<i64: 1, 12, 1024>}> : (tensor<12x1024xf32>) -> tensor<1x12x1024xf32>
    %229 = "tosa.reshape"(%228) <{new_shape = array<i64: 1, 12, 16, 64>}> : (tensor<1x12x1024xf32>) -> tensor<1x12x16x64xf32>
    %230 = "tosa.const"() <{value = dense<[0, 2, 1, 3]> : tensor<4xi32>}> : () -> tensor<4xi32>
    %231 = "tosa.transpose"(%229, %230) : (tensor<1x12x16x64xf32>, tensor<4xi32>) -> tensor<1x16x12x64xf32>
    %232 = "tosa.identity"(%231) : (tensor<1x16x12x64xf32>) -> tensor<1x16x12x64xf32>
    %233 = "tosa.reshape"(%206) <{new_shape = array<i64: 12, 1024>}> : (tensor<1x12x1024xf32>) -> tensor<12x1024xf32>
    %234 = "tosa.const"() <{value = dense<[1, 0]> : tensor<2xi32>}> : () -> tensor<2xi32>
    %235 = "tosa.transpose"(%arg27, %234) : (tensor<1024x1024xf32>, tensor<2xi32>) -> tensor<1024x1024xf32>
    %236 = "tosa.reshape"(%233) <{new_shape = array<i64: 1, 12, 1024>}> : (tensor<12x1024xf32>) -> tensor<1x12x1024xf32>
    %237 = "tosa.reshape"(%235) <{new_shape = array<i64: 1, 1024, 1024>}> : (tensor<1024x1024xf32>) -> tensor<1x1024x1024xf32>
    %238 = "tosa.matmul"(%236, %237) : (tensor<1x12x1024xf32>, tensor<1x1024x1024xf32>) -> tensor<1x12x1024xf32>
    %239 = "tosa.reshape"(%238) <{new_shape = array<i64: 12, 1024>}> : (tensor<1x12x1024xf32>) -> tensor<12x1024xf32>
    %240 = "tosa.reshape"(%arg28) <{new_shape = array<i64: 1, 1024>}> : (tensor<1024xf32>) -> tensor<1x1024xf32>
    %241 = "tosa.add"(%240, %239) : (tensor<1x1024xf32>, tensor<12x1024xf32>) -> tensor<12x1024xf32>
    %242 = "tosa.reshape"(%241) <{new_shape = array<i64: 1, 12, 1024>}> : (tensor<12x1024xf32>) -> tensor<1x12x1024xf32>
    %243 = "tosa.reshape"(%242) <{new_shape = array<i64: 1, 12, 16, 64>}> : (tensor<1x12x1024xf32>) -> tensor<1x12x16x64xf32>
    %244 = "tosa.const"() <{value = dense<[0, 2, 1, 3]> : tensor<4xi32>}> : () -> tensor<4xi32>
    %245 = "tosa.transpose"(%243, %244) : (tensor<1x12x16x64xf32>, tensor<4xi32>) -> tensor<1x16x12x64xf32>
    %246 = "tosa.identity"(%245) : (tensor<1x16x12x64xf32>) -> tensor<1x16x12x64xf32>
    %247 = "tosa.reshape"(%218) <{new_shape = array<i64: 1, 12, 16, 64>}> : (tensor<1x12x1024xf32>) -> tensor<1x12x16x64xf32>
    %248 = "tosa.const"() <{value = dense<[0, 2, 1, 3]> : tensor<4xi32>}> : () -> tensor<4xi32>
    %249 = "tosa.transpose"(%247, %248) : (tensor<1x12x16x64xf32>, tensor<4xi32>) -> tensor<1x16x12x64xf32>
    %250 = "tosa.identity"(%249) : (tensor<1x16x12x64xf32>) -> tensor<1x16x12x64xf32>
    %251 = "tosa.reshape"(%250) <{new_shape = array<i64: 16, 12, 64>}> : (tensor<1x16x12x64xf32>) -> tensor<16x12x64xf32>
    %252 = "tosa.reshape"(%232) <{new_shape = array<i64: 16, 12, 64>}> : (tensor<1x16x12x64xf32>) -> tensor<16x12x64xf32>
    %253 = "tosa.reshape"(%246) <{new_shape = array<i64: 16, 12, 64>}> : (tensor<1x16x12x64xf32>) -> tensor<16x12x64xf32>
    %254 = "tosa.const"() <{value = dense<[0, 2, 1]> : tensor<3xi32>}> : () -> tensor<3xi32>
    %255 = "tosa.transpose"(%252, %254) : (tensor<16x12x64xf32>, tensor<3xi32>) -> tensor<16x64x12xf32>
    %256 = "tosa.matmul"(%251, %255) : (tensor<16x12x64xf32>, tensor<16x64x12xf32>) -> tensor<16x12x12xf32>
    %257 = "tosa.reshape"(%256) <{new_shape = array<i64: 1, 16, 12, 12>}> : (tensor<16x12x12xf32>) -> tensor<1x16x12x12xf32>
    %258 = "tosa.add"(%257, %110) : (tensor<1x16x12x12xf32>, tensor<1x1x12x12xf32>) -> tensor<1x16x12x12xf32>
    %259 = "tosa.reshape"(%258) <{new_shape = array<i64: 16, 12, 12>}> : (tensor<1x16x12x12xf32>) -> tensor<16x12x12xf32>
    %260 = "tosa.reshape"(%259) <{new_shape = array<i64: 1, 16, 12, 12>}> : (tensor<16x12x12xf32>) -> tensor<1x16x12x12xf32>
    %261 = "tosa.add"(%260, %34) : (tensor<1x16x12x12xf32>, tensor<1x1x12x12xf32>) -> tensor<1x16x12x12xf32>
    %262 = "tosa.reshape"(%261) <{new_shape = array<i64: 16, 12, 12>}> : (tensor<1x16x12x12xf32>) -> tensor<16x12x12xf32>
    %263 = "tosa.reduce_max"(%262) <{axis = 2 : i32}> : (tensor<16x12x12xf32>) -> tensor<16x12x1xf32>
    %264 = "tosa.sub"(%262, %263) : (tensor<16x12x12xf32>, tensor<16x12x1xf32>) -> tensor<16x12x12xf32>
    %265 = "tosa.exp"(%264) : (tensor<16x12x12xf32>) -> tensor<16x12x12xf32>
    %266 = "tosa.reduce_sum"(%265) <{axis = 2 : i32}> : (tensor<16x12x12xf32>) -> tensor<16x12x1xf32>
    %267 = "tosa.reciprocal"(%266) : (tensor<16x12x1xf32>) -> tensor<16x12x1xf32>
    %268 = "tosa.mul"(%265, %267) <{shift = 0 : i8}> : (tensor<16x12x12xf32>, tensor<16x12x1xf32>) -> tensor<16x12x12xf32>
    %269 = "tosa.identity"(%268) : (tensor<16x12x12xf32>) -> tensor<16x12x12xf32>
    %270 = "tosa.matmul"(%269, %253) : (tensor<16x12x12xf32>, tensor<16x12x64xf32>) -> tensor<16x12x64xf32>
    %271 = "tosa.reshape"(%270) <{new_shape = array<i64: 1, 16, 12, 64>}> : (tensor<16x12x64xf32>) -> tensor<1x16x12x64xf32>
    %272 = "tosa.const"() <{value = dense<[0, 2, 1, 3]> : tensor<4xi32>}> : () -> tensor<4xi32>
    %273 = "tosa.transpose"(%271, %272) : (tensor<1x16x12x64xf32>, tensor<4xi32>) -> tensor<1x12x16x64xf32>
    %274 = "tosa.identity"(%273) : (tensor<1x12x16x64xf32>) -> tensor<1x12x16x64xf32>
    %275 = "tosa.reshape"(%274) <{new_shape = array<i64: 1, 12, 1024>}> : (tensor<1x12x16x64xf32>) -> tensor<1x12x1024xf32>
    %276 = "tosa.reshape"(%275) <{new_shape = array<i64: 12, 1024>}> : (tensor<1x12x1024xf32>) -> tensor<12x1024xf32>
    %277 = "tosa.const"() <{value = dense<[1, 0]> : tensor<2xi32>}> : () -> tensor<2xi32>
    %278 = "tosa.transpose"(%arg29, %277) : (tensor<1024x1024xf32>, tensor<2xi32>) -> tensor<1024x1024xf32>
    %279 = "tosa.reshape"(%276) <{new_shape = array<i64: 1, 12, 1024>}> : (tensor<12x1024xf32>) -> tensor<1x12x1024xf32>
    %280 = "tosa.reshape"(%278) <{new_shape = array<i64: 1, 1024, 1024>}> : (tensor<1024x1024xf32>) -> tensor<1x1024x1024xf32>
    %281 = "tosa.matmul"(%279, %280) : (tensor<1x12x1024xf32>, tensor<1x1024x1024xf32>) -> tensor<1x12x1024xf32>
    %282 = "tosa.reshape"(%281) <{new_shape = array<i64: 12, 1024>}> : (tensor<1x12x1024xf32>) -> tensor<12x1024xf32>
    %283 = "tosa.reshape"(%arg30) <{new_shape = array<i64: 1, 1024>}> : (tensor<1024xf32>) -> tensor<1x1024xf32>
    %284 = "tosa.add"(%283, %282) : (tensor<1x1024xf32>, tensor<12x1024xf32>) -> tensor<12x1024xf32>
    %285 = "tosa.reshape"(%284) <{new_shape = array<i64: 1, 12, 1024>}> : (tensor<12x1024xf32>) -> tensor<1x12x1024xf32>
    %286 = "tosa.add"(%187, %285) : (tensor<1x12x1024xf32>, tensor<1x12x1024xf32>) -> tensor<1x12x1024xf32>
    %287 = "tosa.reduce_sum"(%286) <{axis = 2 : i32}> : (tensor<1x12x1024xf32>) -> tensor<1x12x1xf32>
    %288 = "tosa.const"() <{value = dense<1.024000e+03> : tensor<1xf32>}> : () -> tensor<1xf32>
    %289 = "tosa.reciprocal"(%288) : (tensor<1xf32>) -> tensor<1xf32>
    %290 = "tosa.mul"(%289, %287) <{shift = 0 : i8}> : (tensor<1xf32>, tensor<1x12x1xf32>) -> tensor<1x12x1xf32>
    %291 = "tosa.sub"(%286, %290) : (tensor<1x12x1024xf32>, tensor<1x12x1xf32>) -> tensor<1x12x1024xf32>
    %292 = "tosa.mul"(%291, %291) <{shift = 0 : i8}> : (tensor<1x12x1024xf32>, tensor<1x12x1024xf32>) -> tensor<1x12x1024xf32>
    %293 = "tosa.reduce_sum"(%292) <{axis = 2 : i32}> : (tensor<1x12x1024xf32>) -> tensor<1x12x1xf32>
    %294 = "tosa.const"() <{value = dense<1.024000e+03> : tensor<1xf32>}> : () -> tensor<1xf32>
    %295 = "tosa.reciprocal"(%294) : (tensor<1xf32>) -> tensor<1xf32>
    %296 = "tosa.mul"(%295, %293) <{shift = 0 : i8}> : (tensor<1xf32>, tensor<1x12x1xf32>) -> tensor<1x12x1xf32>
    %297 = "tosa.const"() <{value = dense<9.99999974E-6> : tensor<1x12x1xf32>}> : () -> tensor<1x12x1xf32>
    %298 = "tosa.add"(%296, %297) : (tensor<1x12x1xf32>, tensor<1x12x1xf32>) -> tensor<1x12x1xf32>
    %299 = "tosa.rsqrt"(%298) : (tensor<1x12x1xf32>) -> tensor<1x12x1xf32>
    %300 = "tosa.sub"(%286, %290) : (tensor<1x12x1024xf32>, tensor<1x12x1xf32>) -> tensor<1x12x1024xf32>
    %301 = "tosa.mul"(%300, %299) <{shift = 0 : i8}> : (tensor<1x12x1024xf32>, tensor<1x12x1xf32>) -> tensor<1x12x1024xf32>
    %302 = "tosa.reshape"(%arg31) <{new_shape = array<i64: 1, 1, 1024>}> : (tensor<1024xf32>) -> tensor<1x1x1024xf32>
    %303 = "tosa.mul"(%301, %302) <{shift = 0 : i8}> : (tensor<1x12x1024xf32>, tensor<1x1x1024xf32>) -> tensor<1x12x1024xf32>
    %304 = "tosa.reshape"(%arg32) <{new_shape = array<i64: 1, 1, 1024>}> : (tensor<1024xf32>) -> tensor<1x1x1024xf32>
    %305 = "tosa.add"(%303, %304) : (tensor<1x12x1024xf32>, tensor<1x1x1024xf32>) -> tensor<1x12x1024xf32>
    %306 = "tosa.reshape"(%305) <{new_shape = array<i64: 12, 1024>}> : (tensor<1x12x1024xf32>) -> tensor<12x1024xf32>
    %307 = "tosa.const"() <{value = dense<[1, 0]> : tensor<2xi32>}> : () -> tensor<2xi32>
    %308 = "tosa.transpose"(%arg33, %307) : (tensor<4096x1024xf32>, tensor<2xi32>) -> tensor<1024x4096xf32>
    %309 = "tosa.reshape"(%306) <{new_shape = array<i64: 1, 12, 1024>}> : (tensor<12x1024xf32>) -> tensor<1x12x1024xf32>
    %310 = "tosa.reshape"(%308) <{new_shape = array<i64: 1, 1024, 4096>}> : (tensor<1024x4096xf32>) -> tensor<1x1024x4096xf32>
    %311 = "tosa.matmul"(%309, %310) : (tensor<1x12x1024xf32>, tensor<1x1024x4096xf32>) -> tensor<1x12x4096xf32>
    %312 = "tosa.reshape"(%311) <{new_shape = array<i64: 12, 4096>}> : (tensor<1x12x4096xf32>) -> tensor<12x4096xf32>
    %313 = "tosa.reshape"(%arg34) <{new_shape = array<i64: 1, 4096>}> : (tensor<4096xf32>) -> tensor<1x4096xf32>
    %314 = "tosa.add"(%313, %312) : (tensor<1x4096xf32>, tensor<12x4096xf32>) -> tensor<12x4096xf32>
    %315 = "tosa.reshape"(%314) <{new_shape = array<i64: 1, 12, 4096>}> : (tensor<12x4096xf32>) -> tensor<1x12x4096xf32>
    %316 = "tosa.const"() <{value = dense<5.000000e-01> : tensor<1x12x4096xf32>}> : () -> tensor<1x12x4096xf32>
    %317 = "tosa.mul"(%315, %316) <{shift = 0 : i8}> : (tensor<1x12x4096xf32>, tensor<1x12x4096xf32>) -> tensor<1x12x4096xf32>
    %318 = "tosa.const"() <{value = dense<0.707106769> : tensor<1x12x4096xf32>}> : () -> tensor<1x12x4096xf32>
    %319 = "tosa.mul"(%315, %318) <{shift = 0 : i8}> : (tensor<1x12x4096xf32>, tensor<1x12x4096xf32>) -> tensor<1x12x4096xf32>
    %320 = "math.erf"(%319) <{fastmath = #arith.fastmath<none>}> : (tensor<1x12x4096xf32>) -> tensor<1x12x4096xf32>
    %321 = "tosa.const"() <{value = dense<1.000000e+00> : tensor<1x12x4096xf32>}> : () -> tensor<1x12x4096xf32>
    %322 = "tosa.add"(%320, %321) : (tensor<1x12x4096xf32>, tensor<1x12x4096xf32>) -> tensor<1x12x4096xf32>
    %323 = "tosa.mul"(%317, %322) <{shift = 0 : i8}> : (tensor<1x12x4096xf32>, tensor<1x12x4096xf32>) -> tensor<1x12x4096xf32>
    %324 = "tosa.reshape"(%323) <{new_shape = array<i64: 12, 4096>}> : (tensor<1x12x4096xf32>) -> tensor<12x4096xf32>
    %325 = "tosa.const"() <{value = dense<[1, 0]> : tensor<2xi32>}> : () -> tensor<2xi32>
    %326 = "tosa.transpose"(%arg35, %325) : (tensor<1024x4096xf32>, tensor<2xi32>) -> tensor<4096x1024xf32>
    %327 = "tosa.reshape"(%324) <{new_shape = array<i64: 1, 12, 4096>}> : (tensor<12x4096xf32>) -> tensor<1x12x4096xf32>
    %328 = "tosa.reshape"(%326) <{new_shape = array<i64: 1, 4096, 1024>}> : (tensor<4096x1024xf32>) -> tensor<1x4096x1024xf32>
    %329 = "tosa.matmul"(%327, %328) : (tensor<1x12x4096xf32>, tensor<1x4096x1024xf32>) -> tensor<1x12x1024xf32>
    %330 = "tosa.reshape"(%329) <{new_shape = array<i64: 12, 1024>}> : (tensor<1x12x1024xf32>) -> tensor<12x1024xf32>
    %331 = "tosa.reshape"(%arg36) <{new_shape = array<i64: 1, 1024>}> : (tensor<1024xf32>) -> tensor<1x1024xf32>
    %332 = "tosa.add"(%331, %330) : (tensor<1x1024xf32>, tensor<12x1024xf32>) -> tensor<12x1024xf32>
    %333 = "tosa.reshape"(%332) <{new_shape = array<i64: 1, 12, 1024>}> : (tensor<12x1024xf32>) -> tensor<1x12x1024xf32>
    %334 = "tosa.add"(%286, %333) : (tensor<1x12x1024xf32>, tensor<1x12x1024xf32>) -> tensor<1x12x1024xf32>
    %335 = "tosa.reduce_sum"(%334) <{axis = 2 : i32}> : (tensor<1x12x1024xf32>) -> tensor<1x12x1xf32>
    %336 = "tosa.const"() <{value = dense<1.024000e+03> : tensor<1xf32>}> : () -> tensor<1xf32>
    %337 = "tosa.reciprocal"(%336) : (tensor<1xf32>) -> tensor<1xf32>
    %338 = "tosa.mul"(%337, %335) <{shift = 0 : i8}> : (tensor<1xf32>, tensor<1x12x1xf32>) -> tensor<1x12x1xf32>
    %339 = "tosa.sub"(%334, %338) : (tensor<1x12x1024xf32>, tensor<1x12x1xf32>) -> tensor<1x12x1024xf32>
    %340 = "tosa.mul"(%339, %339) <{shift = 0 : i8}> : (tensor<1x12x1024xf32>, tensor<1x12x1024xf32>) -> tensor<1x12x1024xf32>
    %341 = "tosa.reduce_sum"(%340) <{axis = 2 : i32}> : (tensor<1x12x1024xf32>) -> tensor<1x12x1xf32>
    %342 = "tosa.const"() <{value = dense<1.024000e+03> : tensor<1xf32>}> : () -> tensor<1xf32>
    %343 = "tosa.reciprocal"(%342) : (tensor<1xf32>) -> tensor<1xf32>
    %344 = "tosa.mul"(%343, %341) <{shift = 0 : i8}> : (tensor<1xf32>, tensor<1x12x1xf32>) -> tensor<1x12x1xf32>
    %345 = "tosa.const"() <{value = dense<9.99999974E-6> : tensor<1x12x1xf32>}> : () -> tensor<1x12x1xf32>
    %346 = "tosa.add"(%344, %345) : (tensor<1x12x1xf32>, tensor<1x12x1xf32>) -> tensor<1x12x1xf32>
    %347 = "tosa.rsqrt"(%346) : (tensor<1x12x1xf32>) -> tensor<1x12x1xf32>
    %348 = "tosa.sub"(%334, %338) : (tensor<1x12x1024xf32>, tensor<1x12x1xf32>) -> tensor<1x12x1024xf32>
    %349 = "tosa.mul"(%348, %347) <{shift = 0 : i8}> : (tensor<1x12x1024xf32>, tensor<1x12x1xf32>) -> tensor<1x12x1024xf32>
    %350 = "tosa.reshape"(%arg37) <{new_shape = array<i64: 1, 1, 1024>}> : (tensor<1024xf32>) -> tensor<1x1x1024xf32>
    %351 = "tosa.mul"(%349, %350) <{shift = 0 : i8}> : (tensor<1x12x1024xf32>, tensor<1x1x1024xf32>) -> tensor<1x12x1024xf32>
    %352 = "tosa.reshape"(%arg38) <{new_shape = array<i64: 1, 1, 1024>}> : (tensor<1024xf32>) -> tensor<1x1x1024xf32>
    %353 = "tosa.add"(%351, %352) : (tensor<1x12x1024xf32>, tensor<1x1x1024xf32>) -> tensor<1x12x1024xf32>
    %354 = "tosa.reshape"(%353) <{new_shape = array<i64: 12, 1024>}> : (tensor<1x12x1024xf32>) -> tensor<12x1024xf32>
    %355 = "tosa.const"() <{value = dense<[1, 0]> : tensor<2xi32>}> : () -> tensor<2xi32>
    %356 = "tosa.transpose"(%arg39, %355) : (tensor<1024x1024xf32>, tensor<2xi32>) -> tensor<1024x1024xf32>
    %357 = "tosa.reshape"(%354) <{new_shape = array<i64: 1, 12, 1024>}> : (tensor<12x1024xf32>) -> tensor<1x12x1024xf32>
    %358 = "tosa.reshape"(%356) <{new_shape = array<i64: 1, 1024, 1024>}> : (tensor<1024x1024xf32>) -> tensor<1x1024x1024xf32>
    %359 = "tosa.matmul"(%357, %358) : (tensor<1x12x1024xf32>, tensor<1x1024x1024xf32>) -> tensor<1x12x1024xf32>
    %360 = "tosa.reshape"(%359) <{new_shape = array<i64: 12, 1024>}> : (tensor<1x12x1024xf32>) -> tensor<12x1024xf32>
    %361 = "tosa.reshape"(%arg40) <{new_shape = array<i64: 1, 1024>}> : (tensor<1024xf32>) -> tensor<1x1024xf32>
    %362 = "tosa.add"(%361, %360) : (tensor<1x1024xf32>, tensor<12x1024xf32>) -> tensor<12x1024xf32>
    %363 = "tosa.reshape"(%362) <{new_shape = array<i64: 1, 12, 1024>}> : (tensor<12x1024xf32>) -> tensor<1x12x1024xf32>
    %364 = "tosa.const"() <{value = dense<1.250000e-01> : tensor<1x12x1024xf32>}> : () -> tensor<1x12x1024xf32>
    %365 = "tosa.mul"(%363, %364) <{shift = 0 : i8}> : (tensor<1x12x1024xf32>, tensor<1x12x1024xf32>) -> tensor<1x12x1024xf32>
    %366 = "tosa.reshape"(%353) <{new_shape = array<i64: 12, 1024>}> : (tensor<1x12x1024xf32>) -> tensor<12x1024xf32>
    %367 = "tosa.const"() <{value = dense<[1, 0]> : tensor<2xi32>}> : () -> tensor<2xi32>
    %368 = "tosa.transpose"(%arg41, %367) : (tensor<1024x1024xf32>, tensor<2xi32>) -> tensor<1024x1024xf32>
    %369 = "tosa.reshape"(%366) <{new_shape = array<i64: 1, 12, 1024>}> : (tensor<12x1024xf32>) -> tensor<1x12x1024xf32>
    %370 = "tosa.reshape"(%368) <{new_shape = array<i64: 1, 1024, 1024>}> : (tensor<1024x1024xf32>) -> tensor<1x1024x1024xf32>
    %371 = "tosa.matmul"(%369, %370) : (tensor<1x12x1024xf32>, tensor<1x1024x1024xf32>) -> tensor<1x12x1024xf32>
    %372 = "tosa.reshape"(%371) <{new_shape = array<i64: 12, 1024>}> : (tensor<1x12x1024xf32>) -> tensor<12x1024xf32>
    %373 = "tosa.reshape"(%arg42) <{new_shape = array<i64: 1, 1024>}> : (tensor<1024xf32>) -> tensor<1x1024xf32>
    %374 = "tosa.add"(%373, %372) : (tensor<1x1024xf32>, tensor<12x1024xf32>) -> tensor<12x1024xf32>
    %375 = "tosa.reshape"(%374) <{new_shape = array<i64: 1, 12, 1024>}> : (tensor<12x1024xf32>) -> tensor<1x12x1024xf32>
    %376 = "tosa.reshape"(%375) <{new_shape = array<i64: 1, 12, 16, 64>}> : (tensor<1x12x1024xf32>) -> tensor<1x12x16x64xf32>
    %377 = "tosa.const"() <{value = dense<[0, 2, 1, 3]> : tensor<4xi32>}> : () -> tensor<4xi32>
    %378 = "tosa.transpose"(%376, %377) : (tensor<1x12x16x64xf32>, tensor<4xi32>) -> tensor<1x16x12x64xf32>
    %379 = "tosa.identity"(%378) : (tensor<1x16x12x64xf32>) -> tensor<1x16x12x64xf32>
    %380 = "tosa.reshape"(%353) <{new_shape = array<i64: 12, 1024>}> : (tensor<1x12x1024xf32>) -> tensor<12x1024xf32>
    %381 = "tosa.const"() <{value = dense<[1, 0]> : tensor<2xi32>}> : () -> tensor<2xi32>
    %382 = "tosa.transpose"(%arg43, %381) : (tensor<1024x1024xf32>, tensor<2xi32>) -> tensor<1024x1024xf32>
    %383 = "tosa.reshape"(%380) <{new_shape = array<i64: 1, 12, 1024>}> : (tensor<12x1024xf32>) -> tensor<1x12x1024xf32>
    %384 = "tosa.reshape"(%382) <{new_shape = array<i64: 1, 1024, 1024>}> : (tensor<1024x1024xf32>) -> tensor<1x1024x1024xf32>
    %385 = "tosa.matmul"(%383, %384) : (tensor<1x12x1024xf32>, tensor<1x1024x1024xf32>) -> tensor<1x12x1024xf32>
    %386 = "tosa.reshape"(%385) <{new_shape = array<i64: 12, 1024>}> : (tensor<1x12x1024xf32>) -> tensor<12x1024xf32>
    %387 = "tosa.reshape"(%arg44) <{new_shape = array<i64: 1, 1024>}> : (tensor<1024xf32>) -> tensor<1x1024xf32>
    %388 = "tosa.add"(%387, %386) : (tensor<1x1024xf32>, tensor<12x1024xf32>) -> tensor<12x1024xf32>
    %389 = "tosa.reshape"(%388) <{new_shape = array<i64: 1, 12, 1024>}> : (tensor<12x1024xf32>) -> tensor<1x12x1024xf32>
    %390 = "tosa.reshape"(%389) <{new_shape = array<i64: 1, 12, 16, 64>}> : (tensor<1x12x1024xf32>) -> tensor<1x12x16x64xf32>
    %391 = "tosa.const"() <{value = dense<[0, 2, 1, 3]> : tensor<4xi32>}> : () -> tensor<4xi32>
    %392 = "tosa.transpose"(%390, %391) : (tensor<1x12x16x64xf32>, tensor<4xi32>) -> tensor<1x16x12x64xf32>
    %393 = "tosa.identity"(%392) : (tensor<1x16x12x64xf32>) -> tensor<1x16x12x64xf32>
    %394 = "tosa.reshape"(%365) <{new_shape = array<i64: 1, 12, 16, 64>}> : (tensor<1x12x1024xf32>) -> tensor<1x12x16x64xf32>
    %395 = "tosa.const"() <{value = dense<[0, 2, 1, 3]> : tensor<4xi32>}> : () -> tensor<4xi32>
    %396 = "tosa.transpose"(%394, %395) : (tensor<1x12x16x64xf32>, tensor<4xi32>) -> tensor<1x16x12x64xf32>
    %397 = "tosa.identity"(%396) : (tensor<1x16x12x64xf32>) -> tensor<1x16x12x64xf32>
    %398 = "tosa.reshape"(%397) <{new_shape = array<i64: 16, 12, 64>}> : (tensor<1x16x12x64xf32>) -> tensor<16x12x64xf32>
    %399 = "tosa.reshape"(%379) <{new_shape = array<i64: 16, 12, 64>}> : (tensor<1x16x12x64xf32>) -> tensor<16x12x64xf32>
    %400 = "tosa.reshape"(%393) <{new_shape = array<i64: 16, 12, 64>}> : (tensor<1x16x12x64xf32>) -> tensor<16x12x64xf32>
    %401 = "tosa.const"() <{value = dense<[0, 2, 1]> : tensor<3xi32>}> : () -> tensor<3xi32>
    %402 = "tosa.transpose"(%399, %401) : (tensor<16x12x64xf32>, tensor<3xi32>) -> tensor<16x64x12xf32>
    %403 = "tosa.matmul"(%398, %402) : (tensor<16x12x64xf32>, tensor<16x64x12xf32>) -> tensor<16x12x12xf32>
    %404 = "tosa.reshape"(%403) <{new_shape = array<i64: 1, 16, 12, 12>}> : (tensor<16x12x12xf32>) -> tensor<1x16x12x12xf32>
    %405 = "tosa.add"(%404, %110) : (tensor<1x16x12x12xf32>, tensor<1x1x12x12xf32>) -> tensor<1x16x12x12xf32>
    %406 = "tosa.reshape"(%405) <{new_shape = array<i64: 16, 12, 12>}> : (tensor<1x16x12x12xf32>) -> tensor<16x12x12xf32>
    %407 = "tosa.reshape"(%406) <{new_shape = array<i64: 1, 16, 12, 12>}> : (tensor<16x12x12xf32>) -> tensor<1x16x12x12xf32>
    %408 = "tosa.add"(%407, %34) : (tensor<1x16x12x12xf32>, tensor<1x1x12x12xf32>) -> tensor<1x16x12x12xf32>
    %409 = "tosa.reshape"(%408) <{new_shape = array<i64: 16, 12, 12>}> : (tensor<1x16x12x12xf32>) -> tensor<16x12x12xf32>
    %410 = "tosa.reduce_max"(%409) <{axis = 2 : i32}> : (tensor<16x12x12xf32>) -> tensor<16x12x1xf32>
    %411 = "tosa.sub"(%409, %410) : (tensor<16x12x12xf32>, tensor<16x12x1xf32>) -> tensor<16x12x12xf32>
    %412 = "tosa.exp"(%411) : (tensor<16x12x12xf32>) -> tensor<16x12x12xf32>
    %413 = "tosa.reduce_sum"(%412) <{axis = 2 : i32}> : (tensor<16x12x12xf32>) -> tensor<16x12x1xf32>
    %414 = "tosa.reciprocal"(%413) : (tensor<16x12x1xf32>) -> tensor<16x12x1xf32>
    %415 = "tosa.mul"(%412, %414) <{shift = 0 : i8}> : (tensor<16x12x12xf32>, tensor<16x12x1xf32>) -> tensor<16x12x12xf32>
    %416 = "tosa.identity"(%415) : (tensor<16x12x12xf32>) -> tensor<16x12x12xf32>
    %417 = "tosa.matmul"(%416, %400) : (tensor<16x12x12xf32>, tensor<16x12x64xf32>) -> tensor<16x12x64xf32>
    %418 = "tosa.reshape"(%417) <{new_shape = array<i64: 1, 16, 12, 64>}> : (tensor<16x12x64xf32>) -> tensor<1x16x12x64xf32>
    %419 = "tosa.const"() <{value = dense<[0, 2, 1, 3]> : tensor<4xi32>}> : () -> tensor<4xi32>
    %420 = "tosa.transpose"(%418, %419) : (tensor<1x16x12x64xf32>, tensor<4xi32>) -> tensor<1x12x16x64xf32>
    %421 = "tosa.identity"(%420) : (tensor<1x12x16x64xf32>) -> tensor<1x12x16x64xf32>
    %422 = "tosa.reshape"(%421) <{new_shape = array<i64: 1, 12, 1024>}> : (tensor<1x12x16x64xf32>) -> tensor<1x12x1024xf32>
    %423 = "tosa.reshape"(%422) <{new_shape = array<i64: 12, 1024>}> : (tensor<1x12x1024xf32>) -> tensor<12x1024xf32>
    %424 = "tosa.const"() <{value = dense<[1, 0]> : tensor<2xi32>}> : () -> tensor<2xi32>
    %425 = "tosa.transpose"(%arg45, %424) : (tensor<1024x1024xf32>, tensor<2xi32>) -> tensor<1024x1024xf32>
    %426 = "tosa.reshape"(%423) <{new_shape = array<i64: 1, 12, 1024>}> : (tensor<12x1024xf32>) -> tensor<1x12x1024xf32>
    %427 = "tosa.reshape"(%425) <{new_shape = array<i64: 1, 1024, 1024>}> : (tensor<1024x1024xf32>) -> tensor<1x1024x1024xf32>
    %428 = "tosa.matmul"(%426, %427) : (tensor<1x12x1024xf32>, tensor<1x1024x1024xf32>) -> tensor<1x12x1024xf32>
    %429 = "tosa.reshape"(%428) <{new_shape = array<i64: 12, 1024>}> : (tensor<1x12x1024xf32>) -> tensor<12x1024xf32>
    %430 = "tosa.reshape"(%arg46) <{new_shape = array<i64: 1, 1024>}> : (tensor<1024xf32>) -> tensor<1x1024xf32>
    %431 = "tosa.add"(%430, %429) : (tensor<1x1024xf32>, tensor<12x1024xf32>) -> tensor<12x1024xf32>
    %432 = "tosa.reshape"(%431) <{new_shape = array<i64: 1, 12, 1024>}> : (tensor<12x1024xf32>) -> tensor<1x12x1024xf32>
    %433 = "tosa.add"(%334, %432) : (tensor<1x12x1024xf32>, tensor<1x12x1024xf32>) -> tensor<1x12x1024xf32>
    %434 = "tosa.reduce_sum"(%433) <{axis = 2 : i32}> : (tensor<1x12x1024xf32>) -> tensor<1x12x1xf32>
    %435 = "tosa.const"() <{value = dense<1.024000e+03> : tensor<1xf32>}> : () -> tensor<1xf32>
    %436 = "tosa.reciprocal"(%435) : (tensor<1xf32>) -> tensor<1xf32>
    %437 = "tosa.mul"(%436, %434) <{shift = 0 : i8}> : (tensor<1xf32>, tensor<1x12x1xf32>) -> tensor<1x12x1xf32>
    %438 = "tosa.sub"(%433, %437) : (tensor<1x12x1024xf32>, tensor<1x12x1xf32>) -> tensor<1x12x1024xf32>
    %439 = "tosa.mul"(%438, %438) <{shift = 0 : i8}> : (tensor<1x12x1024xf32>, tensor<1x12x1024xf32>) -> tensor<1x12x1024xf32>
    %440 = "tosa.reduce_sum"(%439) <{axis = 2 : i32}> : (tensor<1x12x1024xf32>) -> tensor<1x12x1xf32>
    %441 = "tosa.const"() <{value = dense<1.024000e+03> : tensor<1xf32>}> : () -> tensor<1xf32>
    %442 = "tosa.reciprocal"(%441) : (tensor<1xf32>) -> tensor<1xf32>
    %443 = "tosa.mul"(%442, %440) <{shift = 0 : i8}> : (tensor<1xf32>, tensor<1x12x1xf32>) -> tensor<1x12x1xf32>
    %444 = "tosa.const"() <{value = dense<9.99999974E-6> : tensor<1x12x1xf32>}> : () -> tensor<1x12x1xf32>
    %445 = "tosa.add"(%443, %444) : (tensor<1x12x1xf32>, tensor<1x12x1xf32>) -> tensor<1x12x1xf32>
    %446 = "tosa.rsqrt"(%445) : (tensor<1x12x1xf32>) -> tensor<1x12x1xf32>
    %447 = "tosa.sub"(%433, %437) : (tensor<1x12x1024xf32>, tensor<1x12x1xf32>) -> tensor<1x12x1024xf32>
    %448 = "tosa.mul"(%447, %446) <{shift = 0 : i8}> : (tensor<1x12x1024xf32>, tensor<1x12x1xf32>) -> tensor<1x12x1024xf32>
    %449 = "tosa.reshape"(%arg47) <{new_shape = array<i64: 1, 1, 1024>}> : (tensor<1024xf32>) -> tensor<1x1x1024xf32>
    %450 = "tosa.mul"(%448, %449) <{shift = 0 : i8}> : (tensor<1x12x1024xf32>, tensor<1x1x1024xf32>) -> tensor<1x12x1024xf32>
    %451 = "tosa.reshape"(%arg48) <{new_shape = array<i64: 1, 1, 1024>}> : (tensor<1024xf32>) -> tensor<1x1x1024xf32>
    %452 = "tosa.add"(%450, %451) : (tensor<1x12x1024xf32>, tensor<1x1x1024xf32>) -> tensor<1x12x1024xf32>
    %453 = "tosa.reshape"(%452) <{new_shape = array<i64: 12, 1024>}> : (tensor<1x12x1024xf32>) -> tensor<12x1024xf32>
    %454 = "tosa.const"() <{value = dense<[1, 0]> : tensor<2xi32>}> : () -> tensor<2xi32>
    %455 = "tosa.transpose"(%arg49, %454) : (tensor<4096x1024xf32>, tensor<2xi32>) -> tensor<1024x4096xf32>
    %456 = "tosa.reshape"(%453) <{new_shape = array<i64: 1, 12, 1024>}> : (tensor<12x1024xf32>) -> tensor<1x12x1024xf32>
    %457 = "tosa.reshape"(%455) <{new_shape = array<i64: 1, 1024, 4096>}> : (tensor<1024x4096xf32>) -> tensor<1x1024x4096xf32>
    %458 = "tosa.matmul"(%456, %457) : (tensor<1x12x1024xf32>, tensor<1x1024x4096xf32>) -> tensor<1x12x4096xf32>
    %459 = "tosa.reshape"(%458) <{new_shape = array<i64: 12, 4096>}> : (tensor<1x12x4096xf32>) -> tensor<12x4096xf32>
    %460 = "tosa.reshape"(%arg50) <{new_shape = array<i64: 1, 4096>}> : (tensor<4096xf32>) -> tensor<1x4096xf32>
    %461 = "tosa.add"(%460, %459) : (tensor<1x4096xf32>, tensor<12x4096xf32>) -> tensor<12x4096xf32>
    %462 = "tosa.reshape"(%461) <{new_shape = array<i64: 1, 12, 4096>}> : (tensor<12x4096xf32>) -> tensor<1x12x4096xf32>
    %463 = "tosa.const"() <{value = dense<5.000000e-01> : tensor<1x12x4096xf32>}> : () -> tensor<1x12x4096xf32>
    %464 = "tosa.mul"(%462, %463) <{shift = 0 : i8}> : (tensor<1x12x4096xf32>, tensor<1x12x4096xf32>) -> tensor<1x12x4096xf32>
    %465 = "tosa.const"() <{value = dense<0.707106769> : tensor<1x12x4096xf32>}> : () -> tensor<1x12x4096xf32>
    %466 = "tosa.mul"(%462, %465) <{shift = 0 : i8}> : (tensor<1x12x4096xf32>, tensor<1x12x4096xf32>) -> tensor<1x12x4096xf32>
    %467 = "math.erf"(%466) <{fastmath = #arith.fastmath<none>}> : (tensor<1x12x4096xf32>) -> tensor<1x12x4096xf32>
    %468 = "tosa.const"() <{value = dense<1.000000e+00> : tensor<1x12x4096xf32>}> : () -> tensor<1x12x4096xf32>
    %469 = "tosa.add"(%467, %468) : (tensor<1x12x4096xf32>, tensor<1x12x4096xf32>) -> tensor<1x12x4096xf32>
    %470 = "tosa.mul"(%464, %469) <{shift = 0 : i8}> : (tensor<1x12x4096xf32>, tensor<1x12x4096xf32>) -> tensor<1x12x4096xf32>
    %471 = "tosa.reshape"(%470) <{new_shape = array<i64: 12, 4096>}> : (tensor<1x12x4096xf32>) -> tensor<12x4096xf32>
    %472 = "tosa.const"() <{value = dense<[1, 0]> : tensor<2xi32>}> : () -> tensor<2xi32>
    %473 = "tosa.transpose"(%arg51, %472) : (tensor<1024x4096xf32>, tensor<2xi32>) -> tensor<4096x1024xf32>
    %474 = "tosa.reshape"(%471) <{new_shape = array<i64: 1, 12, 4096>}> : (tensor<12x4096xf32>) -> tensor<1x12x4096xf32>
    %475 = "tosa.reshape"(%473) <{new_shape = array<i64: 1, 4096, 1024>}> : (tensor<4096x1024xf32>) -> tensor<1x4096x1024xf32>
    %476 = "tosa.matmul"(%474, %475) : (tensor<1x12x4096xf32>, tensor<1x4096x1024xf32>) -> tensor<1x12x1024xf32>
    %477 = "tosa.reshape"(%476) <{new_shape = array<i64: 12, 1024>}> : (tensor<1x12x1024xf32>) -> tensor<12x1024xf32>
    %478 = "tosa.reshape"(%arg52) <{new_shape = array<i64: 1, 1024>}> : (tensor<1024xf32>) -> tensor<1x1024xf32>
    %479 = "tosa.add"(%478, %477) : (tensor<1x1024xf32>, tensor<12x1024xf32>) -> tensor<12x1024xf32>
    %480 = "tosa.reshape"(%479) <{new_shape = array<i64: 1, 12, 1024>}> : (tensor<12x1024xf32>) -> tensor<1x12x1024xf32>
    %481 = "tosa.add"(%433, %480) : (tensor<1x12x1024xf32>, tensor<1x12x1024xf32>) -> tensor<1x12x1024xf32>
    %482 = "tosa.reduce_sum"(%481) <{axis = 2 : i32}> : (tensor<1x12x1024xf32>) -> tensor<1x12x1xf32>
    %483 = "tosa.const"() <{value = dense<1.024000e+03> : tensor<1xf32>}> : () -> tensor<1xf32>
    %484 = "tosa.reciprocal"(%483) : (tensor<1xf32>) -> tensor<1xf32>
    %485 = "tosa.mul"(%484, %482) <{shift = 0 : i8}> : (tensor<1xf32>, tensor<1x12x1xf32>) -> tensor<1x12x1xf32>
    %486 = "tosa.sub"(%481, %485) : (tensor<1x12x1024xf32>, tensor<1x12x1xf32>) -> tensor<1x12x1024xf32>
    %487 = "tosa.mul"(%486, %486) <{shift = 0 : i8}> : (tensor<1x12x1024xf32>, tensor<1x12x1024xf32>) -> tensor<1x12x1024xf32>
    %488 = "tosa.reduce_sum"(%487) <{axis = 2 : i32}> : (tensor<1x12x1024xf32>) -> tensor<1x12x1xf32>
    %489 = "tosa.const"() <{value = dense<1.024000e+03> : tensor<1xf32>}> : () -> tensor<1xf32>
    %490 = "tosa.reciprocal"(%489) : (tensor<1xf32>) -> tensor<1xf32>
    %491 = "tosa.mul"(%490, %488) <{shift = 0 : i8}> : (tensor<1xf32>, tensor<1x12x1xf32>) -> tensor<1x12x1xf32>
    %492 = "tosa.const"() <{value = dense<9.99999974E-6> : tensor<1x12x1xf32>}> : () -> tensor<1x12x1xf32>
    %493 = "tosa.add"(%491, %492) : (tensor<1x12x1xf32>, tensor<1x12x1xf32>) -> tensor<1x12x1xf32>
    %494 = "tosa.rsqrt"(%493) : (tensor<1x12x1xf32>) -> tensor<1x12x1xf32>
    %495 = "tosa.sub"(%481, %485) : (tensor<1x12x1024xf32>, tensor<1x12x1xf32>) -> tensor<1x12x1024xf32>
    %496 = "tosa.mul"(%495, %494) <{shift = 0 : i8}> : (tensor<1x12x1024xf32>, tensor<1x12x1xf32>) -> tensor<1x12x1024xf32>
    %497 = "tosa.reshape"(%arg53) <{new_shape = array<i64: 1, 1, 1024>}> : (tensor<1024xf32>) -> tensor<1x1x1024xf32>
    %498 = "tosa.mul"(%496, %497) <{shift = 0 : i8}> : (tensor<1x12x1024xf32>, tensor<1x1x1024xf32>) -> tensor<1x12x1024xf32>
    %499 = "tosa.reshape"(%arg54) <{new_shape = array<i64: 1, 1, 1024>}> : (tensor<1024xf32>) -> tensor<1x1x1024xf32>
    %500 = "tosa.add"(%498, %499) : (tensor<1x12x1024xf32>, tensor<1x1x1024xf32>) -> tensor<1x12x1024xf32>
    %501 = "tosa.reshape"(%500) <{new_shape = array<i64: 12, 1024>}> : (tensor<1x12x1024xf32>) -> tensor<12x1024xf32>
    %502 = "tosa.const"() <{value = dense<[1, 0]> : tensor<2xi32>}> : () -> tensor<2xi32>
    %503 = "tosa.transpose"(%arg55, %502) : (tensor<1024x1024xf32>, tensor<2xi32>) -> tensor<1024x1024xf32>
    %504 = "tosa.reshape"(%501) <{new_shape = array<i64: 1, 12, 1024>}> : (tensor<12x1024xf32>) -> tensor<1x12x1024xf32>
    %505 = "tosa.reshape"(%503) <{new_shape = array<i64: 1, 1024, 1024>}> : (tensor<1024x1024xf32>) -> tensor<1x1024x1024xf32>
    %506 = "tosa.matmul"(%504, %505) : (tensor<1x12x1024xf32>, tensor<1x1024x1024xf32>) -> tensor<1x12x1024xf32>
    %507 = "tosa.reshape"(%506) <{new_shape = array<i64: 12, 1024>}> : (tensor<1x12x1024xf32>) -> tensor<12x1024xf32>
    %508 = "tosa.reshape"(%arg56) <{new_shape = array<i64: 1, 1024>}> : (tensor<1024xf32>) -> tensor<1x1024xf32>
    %509 = "tosa.add"(%508, %507) : (tensor<1x1024xf32>, tensor<12x1024xf32>) -> tensor<12x1024xf32>
    %510 = "tosa.reshape"(%509) <{new_shape = array<i64: 1, 12, 1024>}> : (tensor<12x1024xf32>) -> tensor<1x12x1024xf32>
    %511 = "tosa.const"() <{value = dense<1.250000e-01> : tensor<1x12x1024xf32>}> : () -> tensor<1x12x1024xf32>
    %512 = "tosa.mul"(%510, %511) <{shift = 0 : i8}> : (tensor<1x12x1024xf32>, tensor<1x12x1024xf32>) -> tensor<1x12x1024xf32>
    %513 = "tosa.reshape"(%500) <{new_shape = array<i64: 12, 1024>}> : (tensor<1x12x1024xf32>) -> tensor<12x1024xf32>
    %514 = "tosa.const"() <{value = dense<[1, 0]> : tensor<2xi32>}> : () -> tensor<2xi32>
    %515 = "tosa.transpose"(%arg57, %514) : (tensor<1024x1024xf32>, tensor<2xi32>) -> tensor<1024x1024xf32>
    %516 = "tosa.reshape"(%513) <{new_shape = array<i64: 1, 12, 1024>}> : (tensor<12x1024xf32>) -> tensor<1x12x1024xf32>
    %517 = "tosa.reshape"(%515) <{new_shape = array<i64: 1, 1024, 1024>}> : (tensor<1024x1024xf32>) -> tensor<1x1024x1024xf32>
    %518 = "tosa.matmul"(%516, %517) : (tensor<1x12x1024xf32>, tensor<1x1024x1024xf32>) -> tensor<1x12x1024xf32>
    %519 = "tosa.reshape"(%518) <{new_shape = array<i64: 12, 1024>}> : (tensor<1x12x1024xf32>) -> tensor<12x1024xf32>
    %520 = "tosa.reshape"(%arg58) <{new_shape = array<i64: 1, 1024>}> : (tensor<1024xf32>) -> tensor<1x1024xf32>
    %521 = "tosa.add"(%520, %519) : (tensor<1x1024xf32>, tensor<12x1024xf32>) -> tensor<12x1024xf32>
    %522 = "tosa.reshape"(%521) <{new_shape = array<i64: 1, 12, 1024>}> : (tensor<12x1024xf32>) -> tensor<1x12x1024xf32>
    %523 = "tosa.reshape"(%522) <{new_shape = array<i64: 1, 12, 16, 64>}> : (tensor<1x12x1024xf32>) -> tensor<1x12x16x64xf32>
    %524 = "tosa.const"() <{value = dense<[0, 2, 1, 3]> : tensor<4xi32>}> : () -> tensor<4xi32>
    %525 = "tosa.transpose"(%523, %524) : (tensor<1x12x16x64xf32>, tensor<4xi32>) -> tensor<1x16x12x64xf32>
    %526 = "tosa.identity"(%525) : (tensor<1x16x12x64xf32>) -> tensor<1x16x12x64xf32>
    %527 = "tosa.reshape"(%500) <{new_shape = array<i64: 12, 1024>}> : (tensor<1x12x1024xf32>) -> tensor<12x1024xf32>
    %528 = "tosa.const"() <{value = dense<[1, 0]> : tensor<2xi32>}> : () -> tensor<2xi32>
    %529 = "tosa.transpose"(%arg59, %528) : (tensor<1024x1024xf32>, tensor<2xi32>) -> tensor<1024x1024xf32>
    %530 = "tosa.reshape"(%527) <{new_shape = array<i64: 1, 12, 1024>}> : (tensor<12x1024xf32>) -> tensor<1x12x1024xf32>
    %531 = "tosa.reshape"(%529) <{new_shape = array<i64: 1, 1024, 1024>}> : (tensor<1024x1024xf32>) -> tensor<1x1024x1024xf32>
    %532 = "tosa.matmul"(%530, %531) : (tensor<1x12x1024xf32>, tensor<1x1024x1024xf32>) -> tensor<1x12x1024xf32>
    %533 = "tosa.reshape"(%532) <{new_shape = array<i64: 12, 1024>}> : (tensor<1x12x1024xf32>) -> tensor<12x1024xf32>
    %534 = "tosa.reshape"(%arg60) <{new_shape = array<i64: 1, 1024>}> : (tensor<1024xf32>) -> tensor<1x1024xf32>
    %535 = "tosa.add"(%534, %533) : (tensor<1x1024xf32>, tensor<12x1024xf32>) -> tensor<12x1024xf32>
    %536 = "tosa.reshape"(%535) <{new_shape = array<i64: 1, 12, 1024>}> : (tensor<12x1024xf32>) -> tensor<1x12x1024xf32>
    %537 = "tosa.reshape"(%536) <{new_shape = array<i64: 1, 12, 16, 64>}> : (tensor<1x12x1024xf32>) -> tensor<1x12x16x64xf32>
    %538 = "tosa.const"() <{value = dense<[0, 2, 1, 3]> : tensor<4xi32>}> : () -> tensor<4xi32>
    %539 = "tosa.transpose"(%537, %538) : (tensor<1x12x16x64xf32>, tensor<4xi32>) -> tensor<1x16x12x64xf32>
    %540 = "tosa.identity"(%539) : (tensor<1x16x12x64xf32>) -> tensor<1x16x12x64xf32>
    %541 = "tosa.reshape"(%512) <{new_shape = array<i64: 1, 12, 16, 64>}> : (tensor<1x12x1024xf32>) -> tensor<1x12x16x64xf32>
    %542 = "tosa.const"() <{value = dense<[0, 2, 1, 3]> : tensor<4xi32>}> : () -> tensor<4xi32>
    %543 = "tosa.transpose"(%541, %542) : (tensor<1x12x16x64xf32>, tensor<4xi32>) -> tensor<1x16x12x64xf32>
    %544 = "tosa.identity"(%543) : (tensor<1x16x12x64xf32>) -> tensor<1x16x12x64xf32>
    %545 = "tosa.reshape"(%544) <{new_shape = array<i64: 16, 12, 64>}> : (tensor<1x16x12x64xf32>) -> tensor<16x12x64xf32>
    %546 = "tosa.reshape"(%526) <{new_shape = array<i64: 16, 12, 64>}> : (tensor<1x16x12x64xf32>) -> tensor<16x12x64xf32>
    %547 = "tosa.reshape"(%540) <{new_shape = array<i64: 16, 12, 64>}> : (tensor<1x16x12x64xf32>) -> tensor<16x12x64xf32>
    %548 = "tosa.const"() <{value = dense<[0, 2, 1]> : tensor<3xi32>}> : () -> tensor<3xi32>
    %549 = "tosa.transpose"(%546, %548) : (tensor<16x12x64xf32>, tensor<3xi32>) -> tensor<16x64x12xf32>
    %550 = "tosa.matmul"(%545, %549) : (tensor<16x12x64xf32>, tensor<16x64x12xf32>) -> tensor<16x12x12xf32>
    %551 = "tosa.reshape"(%550) <{new_shape = array<i64: 1, 16, 12, 12>}> : (tensor<16x12x12xf32>) -> tensor<1x16x12x12xf32>
    %552 = "tosa.add"(%551, %110) : (tensor<1x16x12x12xf32>, tensor<1x1x12x12xf32>) -> tensor<1x16x12x12xf32>
    %553 = "tosa.reshape"(%552) <{new_shape = array<i64: 16, 12, 12>}> : (tensor<1x16x12x12xf32>) -> tensor<16x12x12xf32>
    %554 = "tosa.reshape"(%553) <{new_shape = array<i64: 1, 16, 12, 12>}> : (tensor<16x12x12xf32>) -> tensor<1x16x12x12xf32>
    %555 = "tosa.add"(%554, %34) : (tensor<1x16x12x12xf32>, tensor<1x1x12x12xf32>) -> tensor<1x16x12x12xf32>
    %556 = "tosa.reshape"(%555) <{new_shape = array<i64: 16, 12, 12>}> : (tensor<1x16x12x12xf32>) -> tensor<16x12x12xf32>
    %557 = "tosa.reduce_max"(%556) <{axis = 2 : i32}> : (tensor<16x12x12xf32>) -> tensor<16x12x1xf32>
    %558 = "tosa.sub"(%556, %557) : (tensor<16x12x12xf32>, tensor<16x12x1xf32>) -> tensor<16x12x12xf32>
    %559 = "tosa.exp"(%558) : (tensor<16x12x12xf32>) -> tensor<16x12x12xf32>
    %560 = "tosa.reduce_sum"(%559) <{axis = 2 : i32}> : (tensor<16x12x12xf32>) -> tensor<16x12x1xf32>
    %561 = "tosa.reciprocal"(%560) : (tensor<16x12x1xf32>) -> tensor<16x12x1xf32>
    %562 = "tosa.mul"(%559, %561) <{shift = 0 : i8}> : (tensor<16x12x12xf32>, tensor<16x12x1xf32>) -> tensor<16x12x12xf32>
    %563 = "tosa.identity"(%562) : (tensor<16x12x12xf32>) -> tensor<16x12x12xf32>
    %564 = "tosa.matmul"(%563, %547) : (tensor<16x12x12xf32>, tensor<16x12x64xf32>) -> tensor<16x12x64xf32>
    %565 = "tosa.reshape"(%564) <{new_shape = array<i64: 1, 16, 12, 64>}> : (tensor<16x12x64xf32>) -> tensor<1x16x12x64xf32>
    %566 = "tosa.const"() <{value = dense<[0, 2, 1, 3]> : tensor<4xi32>}> : () -> tensor<4xi32>
    %567 = "tosa.transpose"(%565, %566) : (tensor<1x16x12x64xf32>, tensor<4xi32>) -> tensor<1x12x16x64xf32>
    %568 = "tosa.identity"(%567) : (tensor<1x12x16x64xf32>) -> tensor<1x12x16x64xf32>
    %569 = "tosa.reshape"(%568) <{new_shape = array<i64: 1, 12, 1024>}> : (tensor<1x12x16x64xf32>) -> tensor<1x12x1024xf32>
    %570 = "tosa.reshape"(%569) <{new_shape = array<i64: 12, 1024>}> : (tensor<1x12x1024xf32>) -> tensor<12x1024xf32>
    %571 = "tosa.const"() <{value = dense<[1, 0]> : tensor<2xi32>}> : () -> tensor<2xi32>
    %572 = "tosa.transpose"(%arg61, %571) : (tensor<1024x1024xf32>, tensor<2xi32>) -> tensor<1024x1024xf32>
    %573 = "tosa.reshape"(%570) <{new_shape = array<i64: 1, 12, 1024>}> : (tensor<12x1024xf32>) -> tensor<1x12x1024xf32>
    %574 = "tosa.reshape"(%572) <{new_shape = array<i64: 1, 1024, 1024>}> : (tensor<1024x1024xf32>) -> tensor<1x1024x1024xf32>
    %575 = "tosa.matmul"(%573, %574) : (tensor<1x12x1024xf32>, tensor<1x1024x1024xf32>) -> tensor<1x12x1024xf32>
    %576 = "tosa.reshape"(%575) <{new_shape = array<i64: 12, 1024>}> : (tensor<1x12x1024xf32>) -> tensor<12x1024xf32>
    %577 = "tosa.reshape"(%arg62) <{new_shape = array<i64: 1, 1024>}> : (tensor<1024xf32>) -> tensor<1x1024xf32>
    %578 = "tosa.add"(%577, %576) : (tensor<1x1024xf32>, tensor<12x1024xf32>) -> tensor<12x1024xf32>
    %579 = "tosa.reshape"(%578) <{new_shape = array<i64: 1, 12, 1024>}> : (tensor<12x1024xf32>) -> tensor<1x12x1024xf32>
    %580 = "tosa.add"(%481, %579) : (tensor<1x12x1024xf32>, tensor<1x12x1024xf32>) -> tensor<1x12x1024xf32>
    %581 = "tosa.reduce_sum"(%580) <{axis = 2 : i32}> : (tensor<1x12x1024xf32>) -> tensor<1x12x1xf32>
    %582 = "tosa.const"() <{value = dense<1.024000e+03> : tensor<1xf32>}> : () -> tensor<1xf32>
    %583 = "tosa.reciprocal"(%582) : (tensor<1xf32>) -> tensor<1xf32>
    %584 = "tosa.mul"(%583, %581) <{shift = 0 : i8}> : (tensor<1xf32>, tensor<1x12x1xf32>) -> tensor<1x12x1xf32>
    %585 = "tosa.sub"(%580, %584) : (tensor<1x12x1024xf32>, tensor<1x12x1xf32>) -> tensor<1x12x1024xf32>
    %586 = "tosa.mul"(%585, %585) <{shift = 0 : i8}> : (tensor<1x12x1024xf32>, tensor<1x12x1024xf32>) -> tensor<1x12x1024xf32>
    %587 = "tosa.reduce_sum"(%586) <{axis = 2 : i32}> : (tensor<1x12x1024xf32>) -> tensor<1x12x1xf32>
    %588 = "tosa.const"() <{value = dense<1.024000e+03> : tensor<1xf32>}> : () -> tensor<1xf32>
    %589 = "tosa.reciprocal"(%588) : (tensor<1xf32>) -> tensor<1xf32>
    %590 = "tosa.mul"(%589, %587) <{shift = 0 : i8}> : (tensor<1xf32>, tensor<1x12x1xf32>) -> tensor<1x12x1xf32>
    %591 = "tosa.const"() <{value = dense<9.99999974E-6> : tensor<1x12x1xf32>}> : () -> tensor<1x12x1xf32>
    %592 = "tosa.add"(%590, %591) : (tensor<1x12x1xf32>, tensor<1x12x1xf32>) -> tensor<1x12x1xf32>
    %593 = "tosa.rsqrt"(%592) : (tensor<1x12x1xf32>) -> tensor<1x12x1xf32>
    %594 = "tosa.sub"(%580, %584) : (tensor<1x12x1024xf32>, tensor<1x12x1xf32>) -> tensor<1x12x1024xf32>
    %595 = "tosa.mul"(%594, %593) <{shift = 0 : i8}> : (tensor<1x12x1024xf32>, tensor<1x12x1xf32>) -> tensor<1x12x1024xf32>
    %596 = "tosa.reshape"(%arg63) <{new_shape = array<i64: 1, 1, 1024>}> : (tensor<1024xf32>) -> tensor<1x1x1024xf32>
    %597 = "tosa.mul"(%595, %596) <{shift = 0 : i8}> : (tensor<1x12x1024xf32>, tensor<1x1x1024xf32>) -> tensor<1x12x1024xf32>
    %598 = "tosa.reshape"(%arg64) <{new_shape = array<i64: 1, 1, 1024>}> : (tensor<1024xf32>) -> tensor<1x1x1024xf32>
    %599 = "tosa.add"(%597, %598) : (tensor<1x12x1024xf32>, tensor<1x1x1024xf32>) -> tensor<1x12x1024xf32>
    %600 = "tosa.reshape"(%599) <{new_shape = array<i64: 12, 1024>}> : (tensor<1x12x1024xf32>) -> tensor<12x1024xf32>
    %601 = "tosa.const"() <{value = dense<[1, 0]> : tensor<2xi32>}> : () -> tensor<2xi32>
    %602 = "tosa.transpose"(%arg65, %601) : (tensor<4096x1024xf32>, tensor<2xi32>) -> tensor<1024x4096xf32>
    %603 = "tosa.reshape"(%600) <{new_shape = array<i64: 1, 12, 1024>}> : (tensor<12x1024xf32>) -> tensor<1x12x1024xf32>
    %604 = "tosa.reshape"(%602) <{new_shape = array<i64: 1, 1024, 4096>}> : (tensor<1024x4096xf32>) -> tensor<1x1024x4096xf32>
    %605 = "tosa.matmul"(%603, %604) : (tensor<1x12x1024xf32>, tensor<1x1024x4096xf32>) -> tensor<1x12x4096xf32>
    %606 = "tosa.reshape"(%605) <{new_shape = array<i64: 12, 4096>}> : (tensor<1x12x4096xf32>) -> tensor<12x4096xf32>
    %607 = "tosa.reshape"(%arg66) <{new_shape = array<i64: 1, 4096>}> : (tensor<4096xf32>) -> tensor<1x4096xf32>
    %608 = "tosa.add"(%607, %606) : (tensor<1x4096xf32>, tensor<12x4096xf32>) -> tensor<12x4096xf32>
    %609 = "tosa.reshape"(%608) <{new_shape = array<i64: 1, 12, 4096>}> : (tensor<12x4096xf32>) -> tensor<1x12x4096xf32>
    %610 = "tosa.const"() <{value = dense<5.000000e-01> : tensor<1x12x4096xf32>}> : () -> tensor<1x12x4096xf32>
    %611 = "tosa.mul"(%609, %610) <{shift = 0 : i8}> : (tensor<1x12x4096xf32>, tensor<1x12x4096xf32>) -> tensor<1x12x4096xf32>
    %612 = "tosa.const"() <{value = dense<0.707106769> : tensor<1x12x4096xf32>}> : () -> tensor<1x12x4096xf32>
    %613 = "tosa.mul"(%609, %612) <{shift = 0 : i8}> : (tensor<1x12x4096xf32>, tensor<1x12x4096xf32>) -> tensor<1x12x4096xf32>
    %614 = "math.erf"(%613) <{fastmath = #arith.fastmath<none>}> : (tensor<1x12x4096xf32>) -> tensor<1x12x4096xf32>
    %615 = "tosa.const"() <{value = dense<1.000000e+00> : tensor<1x12x4096xf32>}> : () -> tensor<1x12x4096xf32>
    %616 = "tosa.add"(%614, %615) : (tensor<1x12x4096xf32>, tensor<1x12x4096xf32>) -> tensor<1x12x4096xf32>
    %617 = "tosa.mul"(%611, %616) <{shift = 0 : i8}> : (tensor<1x12x4096xf32>, tensor<1x12x4096xf32>) -> tensor<1x12x4096xf32>
    %618 = "tosa.reshape"(%617) <{new_shape = array<i64: 12, 4096>}> : (tensor<1x12x4096xf32>) -> tensor<12x4096xf32>
    %619 = "tosa.const"() <{value = dense<[1, 0]> : tensor<2xi32>}> : () -> tensor<2xi32>
    %620 = "tosa.transpose"(%arg67, %619) : (tensor<1024x4096xf32>, tensor<2xi32>) -> tensor<4096x1024xf32>
    %621 = "tosa.reshape"(%618) <{new_shape = array<i64: 1, 12, 4096>}> : (tensor<12x4096xf32>) -> tensor<1x12x4096xf32>
    %622 = "tosa.reshape"(%620) <{new_shape = array<i64: 1, 4096, 1024>}> : (tensor<4096x1024xf32>) -> tensor<1x4096x1024xf32>
    %623 = "tosa.matmul"(%621, %622) : (tensor<1x12x4096xf32>, tensor<1x4096x1024xf32>) -> tensor<1x12x1024xf32>
    %624 = "tosa.reshape"(%623) <{new_shape = array<i64: 12, 1024>}> : (tensor<1x12x1024xf32>) -> tensor<12x1024xf32>
    %625 = "tosa.reshape"(%arg68) <{new_shape = array<i64: 1, 1024>}> : (tensor<1024xf32>) -> tensor<1x1024xf32>
    %626 = "tosa.add"(%625, %624) : (tensor<1x1024xf32>, tensor<12x1024xf32>) -> tensor<12x1024xf32>
    %627 = "tosa.reshape"(%626) <{new_shape = array<i64: 1, 12, 1024>}> : (tensor<12x1024xf32>) -> tensor<1x12x1024xf32>
    %628 = "tosa.add"(%580, %627) : (tensor<1x12x1024xf32>, tensor<1x12x1024xf32>) -> tensor<1x12x1024xf32>
    %629 = "tosa.reduce_sum"(%628) <{axis = 2 : i32}> : (tensor<1x12x1024xf32>) -> tensor<1x12x1xf32>
    %630 = "tosa.const"() <{value = dense<1.024000e+03> : tensor<1xf32>}> : () -> tensor<1xf32>
    %631 = "tosa.reciprocal"(%630) : (tensor<1xf32>) -> tensor<1xf32>
    %632 = "tosa.mul"(%631, %629) <{shift = 0 : i8}> : (tensor<1xf32>, tensor<1x12x1xf32>) -> tensor<1x12x1xf32>
    %633 = "tosa.sub"(%628, %632) : (tensor<1x12x1024xf32>, tensor<1x12x1xf32>) -> tensor<1x12x1024xf32>
    %634 = "tosa.mul"(%633, %633) <{shift = 0 : i8}> : (tensor<1x12x1024xf32>, tensor<1x12x1024xf32>) -> tensor<1x12x1024xf32>
    %635 = "tosa.reduce_sum"(%634) <{axis = 2 : i32}> : (tensor<1x12x1024xf32>) -> tensor<1x12x1xf32>
    %636 = "tosa.const"() <{value = dense<1.024000e+03> : tensor<1xf32>}> : () -> tensor<1xf32>
    %637 = "tosa.reciprocal"(%636) : (tensor<1xf32>) -> tensor<1xf32>
    %638 = "tosa.mul"(%637, %635) <{shift = 0 : i8}> : (tensor<1xf32>, tensor<1x12x1xf32>) -> tensor<1x12x1xf32>
    %639 = "tosa.const"() <{value = dense<9.99999974E-6> : tensor<1x12x1xf32>}> : () -> tensor<1x12x1xf32>
    %640 = "tosa.add"(%638, %639) : (tensor<1x12x1xf32>, tensor<1x12x1xf32>) -> tensor<1x12x1xf32>
    %641 = "tosa.rsqrt"(%640) : (tensor<1x12x1xf32>) -> tensor<1x12x1xf32>
    %642 = "tosa.sub"(%628, %632) : (tensor<1x12x1024xf32>, tensor<1x12x1xf32>) -> tensor<1x12x1024xf32>
    %643 = "tosa.mul"(%642, %641) <{shift = 0 : i8}> : (tensor<1x12x1024xf32>, tensor<1x12x1xf32>) -> tensor<1x12x1024xf32>
    %644 = "tosa.reshape"(%arg69) <{new_shape = array<i64: 1, 1, 1024>}> : (tensor<1024xf32>) -> tensor<1x1x1024xf32>
    %645 = "tosa.mul"(%643, %644) <{shift = 0 : i8}> : (tensor<1x12x1024xf32>, tensor<1x1x1024xf32>) -> tensor<1x12x1024xf32>
    %646 = "tosa.reshape"(%arg70) <{new_shape = array<i64: 1, 1, 1024>}> : (tensor<1024xf32>) -> tensor<1x1x1024xf32>
    %647 = "tosa.add"(%645, %646) : (tensor<1x12x1024xf32>, tensor<1x1x1024xf32>) -> tensor<1x12x1024xf32>
    %648 = "tosa.reshape"(%647) <{new_shape = array<i64: 12, 1024>}> : (tensor<1x12x1024xf32>) -> tensor<12x1024xf32>
    %649 = "tosa.const"() <{value = dense<[1, 0]> : tensor<2xi32>}> : () -> tensor<2xi32>
    %650 = "tosa.transpose"(%arg71, %649) : (tensor<1024x1024xf32>, tensor<2xi32>) -> tensor<1024x1024xf32>
    %651 = "tosa.reshape"(%648) <{new_shape = array<i64: 1, 12, 1024>}> : (tensor<12x1024xf32>) -> tensor<1x12x1024xf32>
    %652 = "tosa.reshape"(%650) <{new_shape = array<i64: 1, 1024, 1024>}> : (tensor<1024x1024xf32>) -> tensor<1x1024x1024xf32>
    %653 = "tosa.matmul"(%651, %652) : (tensor<1x12x1024xf32>, tensor<1x1024x1024xf32>) -> tensor<1x12x1024xf32>
    %654 = "tosa.reshape"(%653) <{new_shape = array<i64: 12, 1024>}> : (tensor<1x12x1024xf32>) -> tensor<12x1024xf32>
    %655 = "tosa.reshape"(%arg72) <{new_shape = array<i64: 1, 1024>}> : (tensor<1024xf32>) -> tensor<1x1024xf32>
    %656 = "tosa.add"(%655, %654) : (tensor<1x1024xf32>, tensor<12x1024xf32>) -> tensor<12x1024xf32>
    %657 = "tosa.reshape"(%656) <{new_shape = array<i64: 1, 12, 1024>}> : (tensor<12x1024xf32>) -> tensor<1x12x1024xf32>
    %658 = "tosa.const"() <{value = dense<1.250000e-01> : tensor<1x12x1024xf32>}> : () -> tensor<1x12x1024xf32>
    %659 = "tosa.mul"(%657, %658) <{shift = 0 : i8}> : (tensor<1x12x1024xf32>, tensor<1x12x1024xf32>) -> tensor<1x12x1024xf32>
    %660 = "tosa.reshape"(%647) <{new_shape = array<i64: 12, 1024>}> : (tensor<1x12x1024xf32>) -> tensor<12x1024xf32>
    %661 = "tosa.const"() <{value = dense<[1, 0]> : tensor<2xi32>}> : () -> tensor<2xi32>
    %662 = "tosa.transpose"(%arg73, %661) : (tensor<1024x1024xf32>, tensor<2xi32>) -> tensor<1024x1024xf32>
    %663 = "tosa.reshape"(%660) <{new_shape = array<i64: 1, 12, 1024>}> : (tensor<12x1024xf32>) -> tensor<1x12x1024xf32>
    %664 = "tosa.reshape"(%662) <{new_shape = array<i64: 1, 1024, 1024>}> : (tensor<1024x1024xf32>) -> tensor<1x1024x1024xf32>
    %665 = "tosa.matmul"(%663, %664) : (tensor<1x12x1024xf32>, tensor<1x1024x1024xf32>) -> tensor<1x12x1024xf32>
    %666 = "tosa.reshape"(%665) <{new_shape = array<i64: 12, 1024>}> : (tensor<1x12x1024xf32>) -> tensor<12x1024xf32>
    %667 = "tosa.reshape"(%arg74) <{new_shape = array<i64: 1, 1024>}> : (tensor<1024xf32>) -> tensor<1x1024xf32>
    %668 = "tosa.add"(%667, %666) : (tensor<1x1024xf32>, tensor<12x1024xf32>) -> tensor<12x1024xf32>
    %669 = "tosa.reshape"(%668) <{new_shape = array<i64: 1, 12, 1024>}> : (tensor<12x1024xf32>) -> tensor<1x12x1024xf32>
    %670 = "tosa.reshape"(%669) <{new_shape = array<i64: 1, 12, 16, 64>}> : (tensor<1x12x1024xf32>) -> tensor<1x12x16x64xf32>
    %671 = "tosa.const"() <{value = dense<[0, 2, 1, 3]> : tensor<4xi32>}> : () -> tensor<4xi32>
    %672 = "tosa.transpose"(%670, %671) : (tensor<1x12x16x64xf32>, tensor<4xi32>) -> tensor<1x16x12x64xf32>
    %673 = "tosa.identity"(%672) : (tensor<1x16x12x64xf32>) -> tensor<1x16x12x64xf32>
    %674 = "tosa.reshape"(%647) <{new_shape = array<i64: 12, 1024>}> : (tensor<1x12x1024xf32>) -> tensor<12x1024xf32>
    %675 = "tosa.const"() <{value = dense<[1, 0]> : tensor<2xi32>}> : () -> tensor<2xi32>
    %676 = "tosa.transpose"(%arg75, %675) : (tensor<1024x1024xf32>, tensor<2xi32>) -> tensor<1024x1024xf32>
    %677 = "tosa.reshape"(%674) <{new_shape = array<i64: 1, 12, 1024>}> : (tensor<12x1024xf32>) -> tensor<1x12x1024xf32>
    %678 = "tosa.reshape"(%676) <{new_shape = array<i64: 1, 1024, 1024>}> : (tensor<1024x1024xf32>) -> tensor<1x1024x1024xf32>
    %679 = "tosa.matmul"(%677, %678) : (tensor<1x12x1024xf32>, tensor<1x1024x1024xf32>) -> tensor<1x12x1024xf32>
    %680 = "tosa.reshape"(%679) <{new_shape = array<i64: 12, 1024>}> : (tensor<1x12x1024xf32>) -> tensor<12x1024xf32>
    %681 = "tosa.reshape"(%arg76) <{new_shape = array<i64: 1, 1024>}> : (tensor<1024xf32>) -> tensor<1x1024xf32>
    %682 = "tosa.add"(%681, %680) : (tensor<1x1024xf32>, tensor<12x1024xf32>) -> tensor<12x1024xf32>
    %683 = "tosa.reshape"(%682) <{new_shape = array<i64: 1, 12, 1024>}> : (tensor<12x1024xf32>) -> tensor<1x12x1024xf32>
    %684 = "tosa.reshape"(%683) <{new_shape = array<i64: 1, 12, 16, 64>}> : (tensor<1x12x1024xf32>) -> tensor<1x12x16x64xf32>
    %685 = "tosa.const"() <{value = dense<[0, 2, 1, 3]> : tensor<4xi32>}> : () -> tensor<4xi32>
    %686 = "tosa.transpose"(%684, %685) : (tensor<1x12x16x64xf32>, tensor<4xi32>) -> tensor<1x16x12x64xf32>
    %687 = "tosa.identity"(%686) : (tensor<1x16x12x64xf32>) -> tensor<1x16x12x64xf32>
    %688 = "tosa.reshape"(%659) <{new_shape = array<i64: 1, 12, 16, 64>}> : (tensor<1x12x1024xf32>) -> tensor<1x12x16x64xf32>
    %689 = "tosa.const"() <{value = dense<[0, 2, 1, 3]> : tensor<4xi32>}> : () -> tensor<4xi32>
    %690 = "tosa.transpose"(%688, %689) : (tensor<1x12x16x64xf32>, tensor<4xi32>) -> tensor<1x16x12x64xf32>
    %691 = "tosa.identity"(%690) : (tensor<1x16x12x64xf32>) -> tensor<1x16x12x64xf32>
    %692 = "tosa.reshape"(%691) <{new_shape = array<i64: 16, 12, 64>}> : (tensor<1x16x12x64xf32>) -> tensor<16x12x64xf32>
    %693 = "tosa.reshape"(%673) <{new_shape = array<i64: 16, 12, 64>}> : (tensor<1x16x12x64xf32>) -> tensor<16x12x64xf32>
    %694 = "tosa.reshape"(%687) <{new_shape = array<i64: 16, 12, 64>}> : (tensor<1x16x12x64xf32>) -> tensor<16x12x64xf32>
    %695 = "tosa.const"() <{value = dense<[0, 2, 1]> : tensor<3xi32>}> : () -> tensor<3xi32>
    %696 = "tosa.transpose"(%693, %695) : (tensor<16x12x64xf32>, tensor<3xi32>) -> tensor<16x64x12xf32>
    %697 = "tosa.matmul"(%692, %696) : (tensor<16x12x64xf32>, tensor<16x64x12xf32>) -> tensor<16x12x12xf32>
    %698 = "tosa.reshape"(%697) <{new_shape = array<i64: 1, 16, 12, 12>}> : (tensor<16x12x12xf32>) -> tensor<1x16x12x12xf32>
    %699 = "tosa.add"(%698, %110) : (tensor<1x16x12x12xf32>, tensor<1x1x12x12xf32>) -> tensor<1x16x12x12xf32>
    %700 = "tosa.reshape"(%699) <{new_shape = array<i64: 16, 12, 12>}> : (tensor<1x16x12x12xf32>) -> tensor<16x12x12xf32>
    %701 = "tosa.reshape"(%700) <{new_shape = array<i64: 1, 16, 12, 12>}> : (tensor<16x12x12xf32>) -> tensor<1x16x12x12xf32>
    %702 = "tosa.add"(%701, %34) : (tensor<1x16x12x12xf32>, tensor<1x1x12x12xf32>) -> tensor<1x16x12x12xf32>
    %703 = "tosa.reshape"(%702) <{new_shape = array<i64: 16, 12, 12>}> : (tensor<1x16x12x12xf32>) -> tensor<16x12x12xf32>
    %704 = "tosa.reduce_max"(%703) <{axis = 2 : i32}> : (tensor<16x12x12xf32>) -> tensor<16x12x1xf32>
    %705 = "tosa.sub"(%703, %704) : (tensor<16x12x12xf32>, tensor<16x12x1xf32>) -> tensor<16x12x12xf32>
    %706 = "tosa.exp"(%705) : (tensor<16x12x12xf32>) -> tensor<16x12x12xf32>
    %707 = "tosa.reduce_sum"(%706) <{axis = 2 : i32}> : (tensor<16x12x12xf32>) -> tensor<16x12x1xf32>
    %708 = "tosa.reciprocal"(%707) : (tensor<16x12x1xf32>) -> tensor<16x12x1xf32>
    %709 = "tosa.mul"(%706, %708) <{shift = 0 : i8}> : (tensor<16x12x12xf32>, tensor<16x12x1xf32>) -> tensor<16x12x12xf32>
    %710 = "tosa.identity"(%709) : (tensor<16x12x12xf32>) -> tensor<16x12x12xf32>
    %711 = "tosa.matmul"(%710, %694) : (tensor<16x12x12xf32>, tensor<16x12x64xf32>) -> tensor<16x12x64xf32>
    %712 = "tosa.reshape"(%711) <{new_shape = array<i64: 1, 16, 12, 64>}> : (tensor<16x12x64xf32>) -> tensor<1x16x12x64xf32>
    %713 = "tosa.const"() <{value = dense<[0, 2, 1, 3]> : tensor<4xi32>}> : () -> tensor<4xi32>
    %714 = "tosa.transpose"(%712, %713) : (tensor<1x16x12x64xf32>, tensor<4xi32>) -> tensor<1x12x16x64xf32>
    %715 = "tosa.identity"(%714) : (tensor<1x12x16x64xf32>) -> tensor<1x12x16x64xf32>
    %716 = "tosa.reshape"(%715) <{new_shape = array<i64: 1, 12, 1024>}> : (tensor<1x12x16x64xf32>) -> tensor<1x12x1024xf32>
    %717 = "tosa.reshape"(%716) <{new_shape = array<i64: 12, 1024>}> : (tensor<1x12x1024xf32>) -> tensor<12x1024xf32>
    %718 = "tosa.const"() <{value = dense<[1, 0]> : tensor<2xi32>}> : () -> tensor<2xi32>
    %719 = "tosa.transpose"(%arg77, %718) : (tensor<1024x1024xf32>, tensor<2xi32>) -> tensor<1024x1024xf32>
    %720 = "tosa.reshape"(%717) <{new_shape = array<i64: 1, 12, 1024>}> : (tensor<12x1024xf32>) -> tensor<1x12x1024xf32>
    %721 = "tosa.reshape"(%719) <{new_shape = array<i64: 1, 1024, 1024>}> : (tensor<1024x1024xf32>) -> tensor<1x1024x1024xf32>
    %722 = "tosa.matmul"(%720, %721) : (tensor<1x12x1024xf32>, tensor<1x1024x1024xf32>) -> tensor<1x12x1024xf32>
    %723 = "tosa.reshape"(%722) <{new_shape = array<i64: 12, 1024>}> : (tensor<1x12x1024xf32>) -> tensor<12x1024xf32>
    %724 = "tosa.reshape"(%arg78) <{new_shape = array<i64: 1, 1024>}> : (tensor<1024xf32>) -> tensor<1x1024xf32>
    %725 = "tosa.add"(%724, %723) : (tensor<1x1024xf32>, tensor<12x1024xf32>) -> tensor<12x1024xf32>
    %726 = "tosa.reshape"(%725) <{new_shape = array<i64: 1, 12, 1024>}> : (tensor<12x1024xf32>) -> tensor<1x12x1024xf32>
    %727 = "tosa.add"(%628, %726) : (tensor<1x12x1024xf32>, tensor<1x12x1024xf32>) -> tensor<1x12x1024xf32>
    %728 = "tosa.reduce_sum"(%727) <{axis = 2 : i32}> : (tensor<1x12x1024xf32>) -> tensor<1x12x1xf32>
    %729 = "tosa.const"() <{value = dense<1.024000e+03> : tensor<1xf32>}> : () -> tensor<1xf32>
    %730 = "tosa.reciprocal"(%729) : (tensor<1xf32>) -> tensor<1xf32>
    %731 = "tosa.mul"(%730, %728) <{shift = 0 : i8}> : (tensor<1xf32>, tensor<1x12x1xf32>) -> tensor<1x12x1xf32>
    %732 = "tosa.sub"(%727, %731) : (tensor<1x12x1024xf32>, tensor<1x12x1xf32>) -> tensor<1x12x1024xf32>
    %733 = "tosa.mul"(%732, %732) <{shift = 0 : i8}> : (tensor<1x12x1024xf32>, tensor<1x12x1024xf32>) -> tensor<1x12x1024xf32>
    %734 = "tosa.reduce_sum"(%733) <{axis = 2 : i32}> : (tensor<1x12x1024xf32>) -> tensor<1x12x1xf32>
    %735 = "tosa.const"() <{value = dense<1.024000e+03> : tensor<1xf32>}> : () -> tensor<1xf32>
    %736 = "tosa.reciprocal"(%735) : (tensor<1xf32>) -> tensor<1xf32>
    %737 = "tosa.mul"(%736, %734) <{shift = 0 : i8}> : (tensor<1xf32>, tensor<1x12x1xf32>) -> tensor<1x12x1xf32>
    %738 = "tosa.const"() <{value = dense<9.99999974E-6> : tensor<1x12x1xf32>}> : () -> tensor<1x12x1xf32>
    %739 = "tosa.add"(%737, %738) : (tensor<1x12x1xf32>, tensor<1x12x1xf32>) -> tensor<1x12x1xf32>
    %740 = "tosa.rsqrt"(%739) : (tensor<1x12x1xf32>) -> tensor<1x12x1xf32>
    %741 = "tosa.sub"(%727, %731) : (tensor<1x12x1024xf32>, tensor<1x12x1xf32>) -> tensor<1x12x1024xf32>
    %742 = "tosa.mul"(%741, %740) <{shift = 0 : i8}> : (tensor<1x12x1024xf32>, tensor<1x12x1xf32>) -> tensor<1x12x1024xf32>
    %743 = "tosa.reshape"(%arg79) <{new_shape = array<i64: 1, 1, 1024>}> : (tensor<1024xf32>) -> tensor<1x1x1024xf32>
    %744 = "tosa.mul"(%742, %743) <{shift = 0 : i8}> : (tensor<1x12x1024xf32>, tensor<1x1x1024xf32>) -> tensor<1x12x1024xf32>
    %745 = "tosa.reshape"(%arg80) <{new_shape = array<i64: 1, 1, 1024>}> : (tensor<1024xf32>) -> tensor<1x1x1024xf32>
    %746 = "tosa.add"(%744, %745) : (tensor<1x12x1024xf32>, tensor<1x1x1024xf32>) -> tensor<1x12x1024xf32>
    %747 = "tosa.reshape"(%746) <{new_shape = array<i64: 12, 1024>}> : (tensor<1x12x1024xf32>) -> tensor<12x1024xf32>
    %748 = "tosa.const"() <{value = dense<[1, 0]> : tensor<2xi32>}> : () -> tensor<2xi32>
    %749 = "tosa.transpose"(%arg81, %748) : (tensor<4096x1024xf32>, tensor<2xi32>) -> tensor<1024x4096xf32>
    %750 = "tosa.reshape"(%747) <{new_shape = array<i64: 1, 12, 1024>}> : (tensor<12x1024xf32>) -> tensor<1x12x1024xf32>
    %751 = "tosa.reshape"(%749) <{new_shape = array<i64: 1, 1024, 4096>}> : (tensor<1024x4096xf32>) -> tensor<1x1024x4096xf32>
    %752 = "tosa.matmul"(%750, %751) : (tensor<1x12x1024xf32>, tensor<1x1024x4096xf32>) -> tensor<1x12x4096xf32>
    %753 = "tosa.reshape"(%752) <{new_shape = array<i64: 12, 4096>}> : (tensor<1x12x4096xf32>) -> tensor<12x4096xf32>
    %754 = "tosa.reshape"(%arg82) <{new_shape = array<i64: 1, 4096>}> : (tensor<4096xf32>) -> tensor<1x4096xf32>
    %755 = "tosa.add"(%754, %753) : (tensor<1x4096xf32>, tensor<12x4096xf32>) -> tensor<12x4096xf32>
    %756 = "tosa.reshape"(%755) <{new_shape = array<i64: 1, 12, 4096>}> : (tensor<12x4096xf32>) -> tensor<1x12x4096xf32>
    %757 = "tosa.const"() <{value = dense<5.000000e-01> : tensor<1x12x4096xf32>}> : () -> tensor<1x12x4096xf32>
    %758 = "tosa.mul"(%756, %757) <{shift = 0 : i8}> : (tensor<1x12x4096xf32>, tensor<1x12x4096xf32>) -> tensor<1x12x4096xf32>
    %759 = "tosa.const"() <{value = dense<0.707106769> : tensor<1x12x4096xf32>}> : () -> tensor<1x12x4096xf32>
    %760 = "tosa.mul"(%756, %759) <{shift = 0 : i8}> : (tensor<1x12x4096xf32>, tensor<1x12x4096xf32>) -> tensor<1x12x4096xf32>
    %761 = "math.erf"(%760) <{fastmath = #arith.fastmath<none>}> : (tensor<1x12x4096xf32>) -> tensor<1x12x4096xf32>
    %762 = "tosa.const"() <{value = dense<1.000000e+00> : tensor<1x12x4096xf32>}> : () -> tensor<1x12x4096xf32>
    %763 = "tosa.add"(%761, %762) : (tensor<1x12x4096xf32>, tensor<1x12x4096xf32>) -> tensor<1x12x4096xf32>
    %764 = "tosa.mul"(%758, %763) <{shift = 0 : i8}> : (tensor<1x12x4096xf32>, tensor<1x12x4096xf32>) -> tensor<1x12x4096xf32>
    %765 = "tosa.reshape"(%764) <{new_shape = array<i64: 12, 4096>}> : (tensor<1x12x4096xf32>) -> tensor<12x4096xf32>
    %766 = "tosa.const"() <{value = dense<[1, 0]> : tensor<2xi32>}> : () -> tensor<2xi32>
    %767 = "tosa.transpose"(%arg83, %766) : (tensor<1024x4096xf32>, tensor<2xi32>) -> tensor<4096x1024xf32>
    %768 = "tosa.reshape"(%765) <{new_shape = array<i64: 1, 12, 4096>}> : (tensor<12x4096xf32>) -> tensor<1x12x4096xf32>
    %769 = "tosa.reshape"(%767) <{new_shape = array<i64: 1, 4096, 1024>}> : (tensor<4096x1024xf32>) -> tensor<1x4096x1024xf32>
    %770 = "tosa.matmul"(%768, %769) : (tensor<1x12x4096xf32>, tensor<1x4096x1024xf32>) -> tensor<1x12x1024xf32>
    %771 = "tosa.reshape"(%770) <{new_shape = array<i64: 12, 1024>}> : (tensor<1x12x1024xf32>) -> tensor<12x1024xf32>
    %772 = "tosa.reshape"(%arg84) <{new_shape = array<i64: 1, 1024>}> : (tensor<1024xf32>) -> tensor<1x1024xf32>
    %773 = "tosa.add"(%772, %771) : (tensor<1x1024xf32>, tensor<12x1024xf32>) -> tensor<12x1024xf32>
    %774 = "tosa.reshape"(%773) <{new_shape = array<i64: 1, 12, 1024>}> : (tensor<12x1024xf32>) -> tensor<1x12x1024xf32>
    %775 = "tosa.add"(%727, %774) : (tensor<1x12x1024xf32>, tensor<1x12x1024xf32>) -> tensor<1x12x1024xf32>
    %776 = "tosa.reduce_sum"(%775) <{axis = 2 : i32}> : (tensor<1x12x1024xf32>) -> tensor<1x12x1xf32>
    %777 = "tosa.const"() <{value = dense<1.024000e+03> : tensor<1xf32>}> : () -> tensor<1xf32>
    %778 = "tosa.reciprocal"(%777) : (tensor<1xf32>) -> tensor<1xf32>
    %779 = "tosa.mul"(%778, %776) <{shift = 0 : i8}> : (tensor<1xf32>, tensor<1x12x1xf32>) -> tensor<1x12x1xf32>
    %780 = "tosa.sub"(%775, %779) : (tensor<1x12x1024xf32>, tensor<1x12x1xf32>) -> tensor<1x12x1024xf32>
    %781 = "tosa.mul"(%780, %780) <{shift = 0 : i8}> : (tensor<1x12x1024xf32>, tensor<1x12x1024xf32>) -> tensor<1x12x1024xf32>
    %782 = "tosa.reduce_sum"(%781) <{axis = 2 : i32}> : (tensor<1x12x1024xf32>) -> tensor<1x12x1xf32>
    %783 = "tosa.const"() <{value = dense<1.024000e+03> : tensor<1xf32>}> : () -> tensor<1xf32>
    %784 = "tosa.reciprocal"(%783) : (tensor<1xf32>) -> tensor<1xf32>
    %785 = "tosa.mul"(%784, %782) <{shift = 0 : i8}> : (tensor<1xf32>, tensor<1x12x1xf32>) -> tensor<1x12x1xf32>
    %786 = "tosa.const"() <{value = dense<9.99999974E-6> : tensor<1x12x1xf32>}> : () -> tensor<1x12x1xf32>
    %787 = "tosa.add"(%785, %786) : (tensor<1x12x1xf32>, tensor<1x12x1xf32>) -> tensor<1x12x1xf32>
    %788 = "tosa.rsqrt"(%787) : (tensor<1x12x1xf32>) -> tensor<1x12x1xf32>
    %789 = "tosa.sub"(%775, %779) : (tensor<1x12x1024xf32>, tensor<1x12x1xf32>) -> tensor<1x12x1024xf32>
    %790 = "tosa.mul"(%789, %788) <{shift = 0 : i8}> : (tensor<1x12x1024xf32>, tensor<1x12x1xf32>) -> tensor<1x12x1024xf32>
    %791 = "tosa.reshape"(%arg85) <{new_shape = array<i64: 1, 1, 1024>}> : (tensor<1024xf32>) -> tensor<1x1x1024xf32>
    %792 = "tosa.mul"(%790, %791) <{shift = 0 : i8}> : (tensor<1x12x1024xf32>, tensor<1x1x1024xf32>) -> tensor<1x12x1024xf32>
    %793 = "tosa.reshape"(%arg86) <{new_shape = array<i64: 1, 1, 1024>}> : (tensor<1024xf32>) -> tensor<1x1x1024xf32>
    %794 = "tosa.add"(%792, %793) : (tensor<1x12x1024xf32>, tensor<1x1x1024xf32>) -> tensor<1x12x1024xf32>
    %795 = "tosa.reshape"(%794) <{new_shape = array<i64: 12, 1024>}> : (tensor<1x12x1024xf32>) -> tensor<12x1024xf32>
    %796 = "tosa.const"() <{value = dense<[1, 0]> : tensor<2xi32>}> : () -> tensor<2xi32>
    %797 = "tosa.transpose"(%arg87, %796) : (tensor<1024x1024xf32>, tensor<2xi32>) -> tensor<1024x1024xf32>
    %798 = "tosa.reshape"(%795) <{new_shape = array<i64: 1, 12, 1024>}> : (tensor<12x1024xf32>) -> tensor<1x12x1024xf32>
    %799 = "tosa.reshape"(%797) <{new_shape = array<i64: 1, 1024, 1024>}> : (tensor<1024x1024xf32>) -> tensor<1x1024x1024xf32>
    %800 = "tosa.matmul"(%798, %799) : (tensor<1x12x1024xf32>, tensor<1x1024x1024xf32>) -> tensor<1x12x1024xf32>
    %801 = "tosa.reshape"(%800) <{new_shape = array<i64: 12, 1024>}> : (tensor<1x12x1024xf32>) -> tensor<12x1024xf32>
    %802 = "tosa.reshape"(%arg88) <{new_shape = array<i64: 1, 1024>}> : (tensor<1024xf32>) -> tensor<1x1024xf32>
    %803 = "tosa.add"(%802, %801) : (tensor<1x1024xf32>, tensor<12x1024xf32>) -> tensor<12x1024xf32>
    %804 = "tosa.reshape"(%803) <{new_shape = array<i64: 1, 12, 1024>}> : (tensor<12x1024xf32>) -> tensor<1x12x1024xf32>
    %805 = "tosa.const"() <{value = dense<1.250000e-01> : tensor<1x12x1024xf32>}> : () -> tensor<1x12x1024xf32>
    %806 = "tosa.mul"(%804, %805) <{shift = 0 : i8}> : (tensor<1x12x1024xf32>, tensor<1x12x1024xf32>) -> tensor<1x12x1024xf32>
    %807 = "tosa.reshape"(%794) <{new_shape = array<i64: 12, 1024>}> : (tensor<1x12x1024xf32>) -> tensor<12x1024xf32>
    %808 = "tosa.const"() <{value = dense<[1, 0]> : tensor<2xi32>}> : () -> tensor<2xi32>
    %809 = "tosa.transpose"(%arg89, %808) : (tensor<1024x1024xf32>, tensor<2xi32>) -> tensor<1024x1024xf32>
    %810 = "tosa.reshape"(%807) <{new_shape = array<i64: 1, 12, 1024>}> : (tensor<12x1024xf32>) -> tensor<1x12x1024xf32>
    %811 = "tosa.reshape"(%809) <{new_shape = array<i64: 1, 1024, 1024>}> : (tensor<1024x1024xf32>) -> tensor<1x1024x1024xf32>
    %812 = "tosa.matmul"(%810, %811) : (tensor<1x12x1024xf32>, tensor<1x1024x1024xf32>) -> tensor<1x12x1024xf32>
    %813 = "tosa.reshape"(%812) <{new_shape = array<i64: 12, 1024>}> : (tensor<1x12x1024xf32>) -> tensor<12x1024xf32>
    %814 = "tosa.reshape"(%arg90) <{new_shape = array<i64: 1, 1024>}> : (tensor<1024xf32>) -> tensor<1x1024xf32>
    %815 = "tosa.add"(%814, %813) : (tensor<1x1024xf32>, tensor<12x1024xf32>) -> tensor<12x1024xf32>
    %816 = "tosa.reshape"(%815) <{new_shape = array<i64: 1, 12, 1024>}> : (tensor<12x1024xf32>) -> tensor<1x12x1024xf32>
    %817 = "tosa.reshape"(%816) <{new_shape = array<i64: 1, 12, 16, 64>}> : (tensor<1x12x1024xf32>) -> tensor<1x12x16x64xf32>
    %818 = "tosa.const"() <{value = dense<[0, 2, 1, 3]> : tensor<4xi32>}> : () -> tensor<4xi32>
    %819 = "tosa.transpose"(%817, %818) : (tensor<1x12x16x64xf32>, tensor<4xi32>) -> tensor<1x16x12x64xf32>
    %820 = "tosa.identity"(%819) : (tensor<1x16x12x64xf32>) -> tensor<1x16x12x64xf32>
    %821 = "tosa.reshape"(%794) <{new_shape = array<i64: 12, 1024>}> : (tensor<1x12x1024xf32>) -> tensor<12x1024xf32>
    %822 = "tosa.const"() <{value = dense<[1, 0]> : tensor<2xi32>}> : () -> tensor<2xi32>
    %823 = "tosa.transpose"(%arg91, %822) : (tensor<1024x1024xf32>, tensor<2xi32>) -> tensor<1024x1024xf32>
    %824 = "tosa.reshape"(%821) <{new_shape = array<i64: 1, 12, 1024>}> : (tensor<12x1024xf32>) -> tensor<1x12x1024xf32>
    %825 = "tosa.reshape"(%823) <{new_shape = array<i64: 1, 1024, 1024>}> : (tensor<1024x1024xf32>) -> tensor<1x1024x1024xf32>
    %826 = "tosa.matmul"(%824, %825) : (tensor<1x12x1024xf32>, tensor<1x1024x1024xf32>) -> tensor<1x12x1024xf32>
    %827 = "tosa.reshape"(%826) <{new_shape = array<i64: 12, 1024>}> : (tensor<1x12x1024xf32>) -> tensor<12x1024xf32>
    %828 = "tosa.reshape"(%arg92) <{new_shape = array<i64: 1, 1024>}> : (tensor<1024xf32>) -> tensor<1x1024xf32>
    %829 = "tosa.add"(%828, %827) : (tensor<1x1024xf32>, tensor<12x1024xf32>) -> tensor<12x1024xf32>
    %830 = "tosa.reshape"(%829) <{new_shape = array<i64: 1, 12, 1024>}> : (tensor<12x1024xf32>) -> tensor<1x12x1024xf32>
    %831 = "tosa.reshape"(%830) <{new_shape = array<i64: 1, 12, 16, 64>}> : (tensor<1x12x1024xf32>) -> tensor<1x12x16x64xf32>
    %832 = "tosa.const"() <{value = dense<[0, 2, 1, 3]> : tensor<4xi32>}> : () -> tensor<4xi32>
    %833 = "tosa.transpose"(%831, %832) : (tensor<1x12x16x64xf32>, tensor<4xi32>) -> tensor<1x16x12x64xf32>
    %834 = "tosa.identity"(%833) : (tensor<1x16x12x64xf32>) -> tensor<1x16x12x64xf32>
    %835 = "tosa.reshape"(%806) <{new_shape = array<i64: 1, 12, 16, 64>}> : (tensor<1x12x1024xf32>) -> tensor<1x12x16x64xf32>
    %836 = "tosa.const"() <{value = dense<[0, 2, 1, 3]> : tensor<4xi32>}> : () -> tensor<4xi32>
    %837 = "tosa.transpose"(%835, %836) : (tensor<1x12x16x64xf32>, tensor<4xi32>) -> tensor<1x16x12x64xf32>
    %838 = "tosa.identity"(%837) : (tensor<1x16x12x64xf32>) -> tensor<1x16x12x64xf32>
    %839 = "tosa.reshape"(%838) <{new_shape = array<i64: 16, 12, 64>}> : (tensor<1x16x12x64xf32>) -> tensor<16x12x64xf32>
    %840 = "tosa.reshape"(%820) <{new_shape = array<i64: 16, 12, 64>}> : (tensor<1x16x12x64xf32>) -> tensor<16x12x64xf32>
    %841 = "tosa.reshape"(%834) <{new_shape = array<i64: 16, 12, 64>}> : (tensor<1x16x12x64xf32>) -> tensor<16x12x64xf32>
    %842 = "tosa.const"() <{value = dense<[0, 2, 1]> : tensor<3xi32>}> : () -> tensor<3xi32>
    %843 = "tosa.transpose"(%840, %842) : (tensor<16x12x64xf32>, tensor<3xi32>) -> tensor<16x64x12xf32>
    %844 = "tosa.matmul"(%839, %843) : (tensor<16x12x64xf32>, tensor<16x64x12xf32>) -> tensor<16x12x12xf32>
    %845 = "tosa.reshape"(%844) <{new_shape = array<i64: 1, 16, 12, 12>}> : (tensor<16x12x12xf32>) -> tensor<1x16x12x12xf32>
    %846 = "tosa.add"(%845, %110) : (tensor<1x16x12x12xf32>, tensor<1x1x12x12xf32>) -> tensor<1x16x12x12xf32>
    %847 = "tosa.reshape"(%846) <{new_shape = array<i64: 16, 12, 12>}> : (tensor<1x16x12x12xf32>) -> tensor<16x12x12xf32>
    %848 = "tosa.reshape"(%847) <{new_shape = array<i64: 1, 16, 12, 12>}> : (tensor<16x12x12xf32>) -> tensor<1x16x12x12xf32>
    %849 = "tosa.add"(%848, %34) : (tensor<1x16x12x12xf32>, tensor<1x1x12x12xf32>) -> tensor<1x16x12x12xf32>
    %850 = "tosa.reshape"(%849) <{new_shape = array<i64: 16, 12, 12>}> : (tensor<1x16x12x12xf32>) -> tensor<16x12x12xf32>
    %851 = "tosa.reduce_max"(%850) <{axis = 2 : i32}> : (tensor<16x12x12xf32>) -> tensor<16x12x1xf32>
    %852 = "tosa.sub"(%850, %851) : (tensor<16x12x12xf32>, tensor<16x12x1xf32>) -> tensor<16x12x12xf32>
    %853 = "tosa.exp"(%852) : (tensor<16x12x12xf32>) -> tensor<16x12x12xf32>
    %854 = "tosa.reduce_sum"(%853) <{axis = 2 : i32}> : (tensor<16x12x12xf32>) -> tensor<16x12x1xf32>
    %855 = "tosa.reciprocal"(%854) : (tensor<16x12x1xf32>) -> tensor<16x12x1xf32>
    %856 = "tosa.mul"(%853, %855) <{shift = 0 : i8}> : (tensor<16x12x12xf32>, tensor<16x12x1xf32>) -> tensor<16x12x12xf32>
    %857 = "tosa.identity"(%856) : (tensor<16x12x12xf32>) -> tensor<16x12x12xf32>
    %858 = "tosa.matmul"(%857, %841) : (tensor<16x12x12xf32>, tensor<16x12x64xf32>) -> tensor<16x12x64xf32>
    %859 = "tosa.reshape"(%858) <{new_shape = array<i64: 1, 16, 12, 64>}> : (tensor<16x12x64xf32>) -> tensor<1x16x12x64xf32>
    %860 = "tosa.const"() <{value = dense<[0, 2, 1, 3]> : tensor<4xi32>}> : () -> tensor<4xi32>
    %861 = "tosa.transpose"(%859, %860) : (tensor<1x16x12x64xf32>, tensor<4xi32>) -> tensor<1x12x16x64xf32>
    %862 = "tosa.identity"(%861) : (tensor<1x12x16x64xf32>) -> tensor<1x12x16x64xf32>
    %863 = "tosa.reshape"(%862) <{new_shape = array<i64: 1, 12, 1024>}> : (tensor<1x12x16x64xf32>) -> tensor<1x12x1024xf32>
    %864 = "tosa.reshape"(%863) <{new_shape = array<i64: 12, 1024>}> : (tensor<1x12x1024xf32>) -> tensor<12x1024xf32>
    %865 = "tosa.const"() <{value = dense<[1, 0]> : tensor<2xi32>}> : () -> tensor<2xi32>
    %866 = "tosa.transpose"(%arg93, %865) : (tensor<1024x1024xf32>, tensor<2xi32>) -> tensor<1024x1024xf32>
    %867 = "tosa.reshape"(%864) <{new_shape = array<i64: 1, 12, 1024>}> : (tensor<12x1024xf32>) -> tensor<1x12x1024xf32>
    %868 = "tosa.reshape"(%866) <{new_shape = array<i64: 1, 1024, 1024>}> : (tensor<1024x1024xf32>) -> tensor<1x1024x1024xf32>
    %869 = "tosa.matmul"(%867, %868) : (tensor<1x12x1024xf32>, tensor<1x1024x1024xf32>) -> tensor<1x12x1024xf32>
    %870 = "tosa.reshape"(%869) <{new_shape = array<i64: 12, 1024>}> : (tensor<1x12x1024xf32>) -> tensor<12x1024xf32>
    %871 = "tosa.reshape"(%arg94) <{new_shape = array<i64: 1, 1024>}> : (tensor<1024xf32>) -> tensor<1x1024xf32>
    %872 = "tosa.add"(%871, %870) : (tensor<1x1024xf32>, tensor<12x1024xf32>) -> tensor<12x1024xf32>
    %873 = "tosa.reshape"(%872) <{new_shape = array<i64: 1, 12, 1024>}> : (tensor<12x1024xf32>) -> tensor<1x12x1024xf32>
    %874 = "tosa.add"(%775, %873) : (tensor<1x12x1024xf32>, tensor<1x12x1024xf32>) -> tensor<1x12x1024xf32>
    %875 = "tosa.reduce_sum"(%874) <{axis = 2 : i32}> : (tensor<1x12x1024xf32>) -> tensor<1x12x1xf32>
    %876 = "tosa.const"() <{value = dense<1.024000e+03> : tensor<1xf32>}> : () -> tensor<1xf32>
    %877 = "tosa.reciprocal"(%876) : (tensor<1xf32>) -> tensor<1xf32>
    %878 = "tosa.mul"(%877, %875) <{shift = 0 : i8}> : (tensor<1xf32>, tensor<1x12x1xf32>) -> tensor<1x12x1xf32>
    %879 = "tosa.sub"(%874, %878) : (tensor<1x12x1024xf32>, tensor<1x12x1xf32>) -> tensor<1x12x1024xf32>
    %880 = "tosa.mul"(%879, %879) <{shift = 0 : i8}> : (tensor<1x12x1024xf32>, tensor<1x12x1024xf32>) -> tensor<1x12x1024xf32>
    %881 = "tosa.reduce_sum"(%880) <{axis = 2 : i32}> : (tensor<1x12x1024xf32>) -> tensor<1x12x1xf32>
    %882 = "tosa.const"() <{value = dense<1.024000e+03> : tensor<1xf32>}> : () -> tensor<1xf32>
    %883 = "tosa.reciprocal"(%882) : (tensor<1xf32>) -> tensor<1xf32>
    %884 = "tosa.mul"(%883, %881) <{shift = 0 : i8}> : (tensor<1xf32>, tensor<1x12x1xf32>) -> tensor<1x12x1xf32>
    %885 = "tosa.const"() <{value = dense<9.99999974E-6> : tensor<1x12x1xf32>}> : () -> tensor<1x12x1xf32>
    %886 = "tosa.add"(%884, %885) : (tensor<1x12x1xf32>, tensor<1x12x1xf32>) -> tensor<1x12x1xf32>
    %887 = "tosa.rsqrt"(%886) : (tensor<1x12x1xf32>) -> tensor<1x12x1xf32>
    %888 = "tosa.sub"(%874, %878) : (tensor<1x12x1024xf32>, tensor<1x12x1xf32>) -> tensor<1x12x1024xf32>
    %889 = "tosa.mul"(%888, %887) <{shift = 0 : i8}> : (tensor<1x12x1024xf32>, tensor<1x12x1xf32>) -> tensor<1x12x1024xf32>
    %890 = "tosa.reshape"(%arg95) <{new_shape = array<i64: 1, 1, 1024>}> : (tensor<1024xf32>) -> tensor<1x1x1024xf32>
    %891 = "tosa.mul"(%889, %890) <{shift = 0 : i8}> : (tensor<1x12x1024xf32>, tensor<1x1x1024xf32>) -> tensor<1x12x1024xf32>
    %892 = "tosa.reshape"(%arg96) <{new_shape = array<i64: 1, 1, 1024>}> : (tensor<1024xf32>) -> tensor<1x1x1024xf32>
    %893 = "tosa.add"(%891, %892) : (tensor<1x12x1024xf32>, tensor<1x1x1024xf32>) -> tensor<1x12x1024xf32>
    %894 = "tosa.reshape"(%893) <{new_shape = array<i64: 12, 1024>}> : (tensor<1x12x1024xf32>) -> tensor<12x1024xf32>
    %895 = "tosa.const"() <{value = dense<[1, 0]> : tensor<2xi32>}> : () -> tensor<2xi32>
    %896 = "tosa.transpose"(%arg97, %895) : (tensor<4096x1024xf32>, tensor<2xi32>) -> tensor<1024x4096xf32>
    %897 = "tosa.reshape"(%894) <{new_shape = array<i64: 1, 12, 1024>}> : (tensor<12x1024xf32>) -> tensor<1x12x1024xf32>
    %898 = "tosa.reshape"(%896) <{new_shape = array<i64: 1, 1024, 4096>}> : (tensor<1024x4096xf32>) -> tensor<1x1024x4096xf32>
    %899 = "tosa.matmul"(%897, %898) : (tensor<1x12x1024xf32>, tensor<1x1024x4096xf32>) -> tensor<1x12x4096xf32>
    %900 = "tosa.reshape"(%899) <{new_shape = array<i64: 12, 4096>}> : (tensor<1x12x4096xf32>) -> tensor<12x4096xf32>
    %901 = "tosa.reshape"(%arg98) <{new_shape = array<i64: 1, 4096>}> : (tensor<4096xf32>) -> tensor<1x4096xf32>
    %902 = "tosa.add"(%901, %900) : (tensor<1x4096xf32>, tensor<12x4096xf32>) -> tensor<12x4096xf32>
    %903 = "tosa.reshape"(%902) <{new_shape = array<i64: 1, 12, 4096>}> : (tensor<12x4096xf32>) -> tensor<1x12x4096xf32>
    %904 = "tosa.const"() <{value = dense<5.000000e-01> : tensor<1x12x4096xf32>}> : () -> tensor<1x12x4096xf32>
    %905 = "tosa.mul"(%903, %904) <{shift = 0 : i8}> : (tensor<1x12x4096xf32>, tensor<1x12x4096xf32>) -> tensor<1x12x4096xf32>
    %906 = "tosa.const"() <{value = dense<0.707106769> : tensor<1x12x4096xf32>}> : () -> tensor<1x12x4096xf32>
    %907 = "tosa.mul"(%903, %906) <{shift = 0 : i8}> : (tensor<1x12x4096xf32>, tensor<1x12x4096xf32>) -> tensor<1x12x4096xf32>
    %908 = "math.erf"(%907) <{fastmath = #arith.fastmath<none>}> : (tensor<1x12x4096xf32>) -> tensor<1x12x4096xf32>
    %909 = "tosa.const"() <{value = dense<1.000000e+00> : tensor<1x12x4096xf32>}> : () -> tensor<1x12x4096xf32>
    %910 = "tosa.add"(%908, %909) : (tensor<1x12x4096xf32>, tensor<1x12x4096xf32>) -> tensor<1x12x4096xf32>
    %911 = "tosa.mul"(%905, %910) <{shift = 0 : i8}> : (tensor<1x12x4096xf32>, tensor<1x12x4096xf32>) -> tensor<1x12x4096xf32>
    %912 = "tosa.reshape"(%911) <{new_shape = array<i64: 12, 4096>}> : (tensor<1x12x4096xf32>) -> tensor<12x4096xf32>
    %913 = "tosa.const"() <{value = dense<[1, 0]> : tensor<2xi32>}> : () -> tensor<2xi32>
    %914 = "tosa.transpose"(%arg99, %913) : (tensor<1024x4096xf32>, tensor<2xi32>) -> tensor<4096x1024xf32>
    %915 = "tosa.reshape"(%912) <{new_shape = array<i64: 1, 12, 4096>}> : (tensor<12x4096xf32>) -> tensor<1x12x4096xf32>
    %916 = "tosa.reshape"(%914) <{new_shape = array<i64: 1, 4096, 1024>}> : (tensor<4096x1024xf32>) -> tensor<1x4096x1024xf32>
    %917 = "tosa.matmul"(%915, %916) : (tensor<1x12x4096xf32>, tensor<1x4096x1024xf32>) -> tensor<1x12x1024xf32>
    %918 = "tosa.reshape"(%917) <{new_shape = array<i64: 12, 1024>}> : (tensor<1x12x1024xf32>) -> tensor<12x1024xf32>
    %919 = "tosa.reshape"(%arg100) <{new_shape = array<i64: 1, 1024>}> : (tensor<1024xf32>) -> tensor<1x1024xf32>
    %920 = "tosa.add"(%919, %918) : (tensor<1x1024xf32>, tensor<12x1024xf32>) -> tensor<12x1024xf32>
    %921 = "tosa.reshape"(%920) <{new_shape = array<i64: 1, 12, 1024>}> : (tensor<12x1024xf32>) -> tensor<1x12x1024xf32>
    %922 = "tosa.add"(%874, %921) : (tensor<1x12x1024xf32>, tensor<1x12x1024xf32>) -> tensor<1x12x1024xf32>
    %923 = "tosa.reduce_sum"(%922) <{axis = 2 : i32}> : (tensor<1x12x1024xf32>) -> tensor<1x12x1xf32>
    %924 = "tosa.const"() <{value = dense<1.024000e+03> : tensor<1xf32>}> : () -> tensor<1xf32>
    %925 = "tosa.reciprocal"(%924) : (tensor<1xf32>) -> tensor<1xf32>
    %926 = "tosa.mul"(%925, %923) <{shift = 0 : i8}> : (tensor<1xf32>, tensor<1x12x1xf32>) -> tensor<1x12x1xf32>
    %927 = "tosa.sub"(%922, %926) : (tensor<1x12x1024xf32>, tensor<1x12x1xf32>) -> tensor<1x12x1024xf32>
    %928 = "tosa.mul"(%927, %927) <{shift = 0 : i8}> : (tensor<1x12x1024xf32>, tensor<1x12x1024xf32>) -> tensor<1x12x1024xf32>
    %929 = "tosa.reduce_sum"(%928) <{axis = 2 : i32}> : (tensor<1x12x1024xf32>) -> tensor<1x12x1xf32>
    %930 = "tosa.const"() <{value = dense<1.024000e+03> : tensor<1xf32>}> : () -> tensor<1xf32>
    %931 = "tosa.reciprocal"(%930) : (tensor<1xf32>) -> tensor<1xf32>
    %932 = "tosa.mul"(%931, %929) <{shift = 0 : i8}> : (tensor<1xf32>, tensor<1x12x1xf32>) -> tensor<1x12x1xf32>
    %933 = "tosa.const"() <{value = dense<9.99999974E-6> : tensor<1x12x1xf32>}> : () -> tensor<1x12x1xf32>
    %934 = "tosa.add"(%932, %933) : (tensor<1x12x1xf32>, tensor<1x12x1xf32>) -> tensor<1x12x1xf32>
    %935 = "tosa.rsqrt"(%934) : (tensor<1x12x1xf32>) -> tensor<1x12x1xf32>
    %936 = "tosa.sub"(%922, %926) : (tensor<1x12x1024xf32>, tensor<1x12x1xf32>) -> tensor<1x12x1024xf32>
    %937 = "tosa.mul"(%936, %935) <{shift = 0 : i8}> : (tensor<1x12x1024xf32>, tensor<1x12x1xf32>) -> tensor<1x12x1024xf32>
    %938 = "tosa.reshape"(%arg101) <{new_shape = array<i64: 1, 1, 1024>}> : (tensor<1024xf32>) -> tensor<1x1x1024xf32>
    %939 = "tosa.mul"(%937, %938) <{shift = 0 : i8}> : (tensor<1x12x1024xf32>, tensor<1x1x1024xf32>) -> tensor<1x12x1024xf32>
    %940 = "tosa.reshape"(%arg102) <{new_shape = array<i64: 1, 1, 1024>}> : (tensor<1024xf32>) -> tensor<1x1x1024xf32>
    %941 = "tosa.add"(%939, %940) : (tensor<1x12x1024xf32>, tensor<1x1x1024xf32>) -> tensor<1x12x1024xf32>
    %942 = "tosa.reshape"(%941) <{new_shape = array<i64: 12, 1024>}> : (tensor<1x12x1024xf32>) -> tensor<12x1024xf32>
    %943 = "tosa.const"() <{value = dense<[1, 0]> : tensor<2xi32>}> : () -> tensor<2xi32>
    %944 = "tosa.transpose"(%arg103, %943) : (tensor<1024x1024xf32>, tensor<2xi32>) -> tensor<1024x1024xf32>
    %945 = "tosa.reshape"(%942) <{new_shape = array<i64: 1, 12, 1024>}> : (tensor<12x1024xf32>) -> tensor<1x12x1024xf32>
    %946 = "tosa.reshape"(%944) <{new_shape = array<i64: 1, 1024, 1024>}> : (tensor<1024x1024xf32>) -> tensor<1x1024x1024xf32>
    %947 = "tosa.matmul"(%945, %946) : (tensor<1x12x1024xf32>, tensor<1x1024x1024xf32>) -> tensor<1x12x1024xf32>
    %948 = "tosa.reshape"(%947) <{new_shape = array<i64: 12, 1024>}> : (tensor<1x12x1024xf32>) -> tensor<12x1024xf32>
    %949 = "tosa.reshape"(%arg104) <{new_shape = array<i64: 1, 1024>}> : (tensor<1024xf32>) -> tensor<1x1024xf32>
    %950 = "tosa.add"(%949, %948) : (tensor<1x1024xf32>, tensor<12x1024xf32>) -> tensor<12x1024xf32>
    %951 = "tosa.reshape"(%950) <{new_shape = array<i64: 1, 12, 1024>}> : (tensor<12x1024xf32>) -> tensor<1x12x1024xf32>
    %952 = "tosa.const"() <{value = dense<1.250000e-01> : tensor<1x12x1024xf32>}> : () -> tensor<1x12x1024xf32>
    %953 = "tosa.mul"(%951, %952) <{shift = 0 : i8}> : (tensor<1x12x1024xf32>, tensor<1x12x1024xf32>) -> tensor<1x12x1024xf32>
    %954 = "tosa.reshape"(%941) <{new_shape = array<i64: 12, 1024>}> : (tensor<1x12x1024xf32>) -> tensor<12x1024xf32>
    %955 = "tosa.const"() <{value = dense<[1, 0]> : tensor<2xi32>}> : () -> tensor<2xi32>
    %956 = "tosa.transpose"(%arg105, %955) : (tensor<1024x1024xf32>, tensor<2xi32>) -> tensor<1024x1024xf32>
    %957 = "tosa.reshape"(%954) <{new_shape = array<i64: 1, 12, 1024>}> : (tensor<12x1024xf32>) -> tensor<1x12x1024xf32>
    %958 = "tosa.reshape"(%956) <{new_shape = array<i64: 1, 1024, 1024>}> : (tensor<1024x1024xf32>) -> tensor<1x1024x1024xf32>
    %959 = "tosa.matmul"(%957, %958) : (tensor<1x12x1024xf32>, tensor<1x1024x1024xf32>) -> tensor<1x12x1024xf32>
    %960 = "tosa.reshape"(%959) <{new_shape = array<i64: 12, 1024>}> : (tensor<1x12x1024xf32>) -> tensor<12x1024xf32>
    %961 = "tosa.reshape"(%arg106) <{new_shape = array<i64: 1, 1024>}> : (tensor<1024xf32>) -> tensor<1x1024xf32>
    %962 = "tosa.add"(%961, %960) : (tensor<1x1024xf32>, tensor<12x1024xf32>) -> tensor<12x1024xf32>
    %963 = "tosa.reshape"(%962) <{new_shape = array<i64: 1, 12, 1024>}> : (tensor<12x1024xf32>) -> tensor<1x12x1024xf32>
    %964 = "tosa.reshape"(%963) <{new_shape = array<i64: 1, 12, 16, 64>}> : (tensor<1x12x1024xf32>) -> tensor<1x12x16x64xf32>
    %965 = "tosa.const"() <{value = dense<[0, 2, 1, 3]> : tensor<4xi32>}> : () -> tensor<4xi32>
    %966 = "tosa.transpose"(%964, %965) : (tensor<1x12x16x64xf32>, tensor<4xi32>) -> tensor<1x16x12x64xf32>
    %967 = "tosa.identity"(%966) : (tensor<1x16x12x64xf32>) -> tensor<1x16x12x64xf32>
    %968 = "tosa.reshape"(%941) <{new_shape = array<i64: 12, 1024>}> : (tensor<1x12x1024xf32>) -> tensor<12x1024xf32>
    %969 = "tosa.const"() <{value = dense<[1, 0]> : tensor<2xi32>}> : () -> tensor<2xi32>
    %970 = "tosa.transpose"(%arg107, %969) : (tensor<1024x1024xf32>, tensor<2xi32>) -> tensor<1024x1024xf32>
    %971 = "tosa.reshape"(%968) <{new_shape = array<i64: 1, 12, 1024>}> : (tensor<12x1024xf32>) -> tensor<1x12x1024xf32>
    %972 = "tosa.reshape"(%970) <{new_shape = array<i64: 1, 1024, 1024>}> : (tensor<1024x1024xf32>) -> tensor<1x1024x1024xf32>
    %973 = "tosa.matmul"(%971, %972) : (tensor<1x12x1024xf32>, tensor<1x1024x1024xf32>) -> tensor<1x12x1024xf32>
    %974 = "tosa.reshape"(%973) <{new_shape = array<i64: 12, 1024>}> : (tensor<1x12x1024xf32>) -> tensor<12x1024xf32>
    %975 = "tosa.reshape"(%arg108) <{new_shape = array<i64: 1, 1024>}> : (tensor<1024xf32>) -> tensor<1x1024xf32>
    %976 = "tosa.add"(%975, %974) : (tensor<1x1024xf32>, tensor<12x1024xf32>) -> tensor<12x1024xf32>
    %977 = "tosa.reshape"(%976) <{new_shape = array<i64: 1, 12, 1024>}> : (tensor<12x1024xf32>) -> tensor<1x12x1024xf32>
    %978 = "tosa.reshape"(%977) <{new_shape = array<i64: 1, 12, 16, 64>}> : (tensor<1x12x1024xf32>) -> tensor<1x12x16x64xf32>
    %979 = "tosa.const"() <{value = dense<[0, 2, 1, 3]> : tensor<4xi32>}> : () -> tensor<4xi32>
    %980 = "tosa.transpose"(%978, %979) : (tensor<1x12x16x64xf32>, tensor<4xi32>) -> tensor<1x16x12x64xf32>
    %981 = "tosa.identity"(%980) : (tensor<1x16x12x64xf32>) -> tensor<1x16x12x64xf32>
    %982 = "tosa.reshape"(%953) <{new_shape = array<i64: 1, 12, 16, 64>}> : (tensor<1x12x1024xf32>) -> tensor<1x12x16x64xf32>
    %983 = "tosa.const"() <{value = dense<[0, 2, 1, 3]> : tensor<4xi32>}> : () -> tensor<4xi32>
    %984 = "tosa.transpose"(%982, %983) : (tensor<1x12x16x64xf32>, tensor<4xi32>) -> tensor<1x16x12x64xf32>
    %985 = "tosa.identity"(%984) : (tensor<1x16x12x64xf32>) -> tensor<1x16x12x64xf32>
    %986 = "tosa.reshape"(%985) <{new_shape = array<i64: 16, 12, 64>}> : (tensor<1x16x12x64xf32>) -> tensor<16x12x64xf32>
    %987 = "tosa.reshape"(%967) <{new_shape = array<i64: 16, 12, 64>}> : (tensor<1x16x12x64xf32>) -> tensor<16x12x64xf32>
    %988 = "tosa.reshape"(%981) <{new_shape = array<i64: 16, 12, 64>}> : (tensor<1x16x12x64xf32>) -> tensor<16x12x64xf32>
    %989 = "tosa.const"() <{value = dense<[0, 2, 1]> : tensor<3xi32>}> : () -> tensor<3xi32>
    %990 = "tosa.transpose"(%987, %989) : (tensor<16x12x64xf32>, tensor<3xi32>) -> tensor<16x64x12xf32>
    %991 = "tosa.matmul"(%986, %990) : (tensor<16x12x64xf32>, tensor<16x64x12xf32>) -> tensor<16x12x12xf32>
    %992 = "tosa.reshape"(%991) <{new_shape = array<i64: 1, 16, 12, 12>}> : (tensor<16x12x12xf32>) -> tensor<1x16x12x12xf32>
    %993 = "tosa.add"(%992, %110) : (tensor<1x16x12x12xf32>, tensor<1x1x12x12xf32>) -> tensor<1x16x12x12xf32>
    %994 = "tosa.reshape"(%993) <{new_shape = array<i64: 16, 12, 12>}> : (tensor<1x16x12x12xf32>) -> tensor<16x12x12xf32>
    %995 = "tosa.reshape"(%994) <{new_shape = array<i64: 1, 16, 12, 12>}> : (tensor<16x12x12xf32>) -> tensor<1x16x12x12xf32>
    %996 = "tosa.add"(%995, %34) : (tensor<1x16x12x12xf32>, tensor<1x1x12x12xf32>) -> tensor<1x16x12x12xf32>
    %997 = "tosa.reshape"(%996) <{new_shape = array<i64: 16, 12, 12>}> : (tensor<1x16x12x12xf32>) -> tensor<16x12x12xf32>
    %998 = "tosa.reduce_max"(%997) <{axis = 2 : i32}> : (tensor<16x12x12xf32>) -> tensor<16x12x1xf32>
    %999 = "tosa.sub"(%997, %998) : (tensor<16x12x12xf32>, tensor<16x12x1xf32>) -> tensor<16x12x12xf32>
    %1000 = "tosa.exp"(%999) : (tensor<16x12x12xf32>) -> tensor<16x12x12xf32>
    %1001 = "tosa.reduce_sum"(%1000) <{axis = 2 : i32}> : (tensor<16x12x12xf32>) -> tensor<16x12x1xf32>
    %1002 = "tosa.reciprocal"(%1001) : (tensor<16x12x1xf32>) -> tensor<16x12x1xf32>
    %1003 = "tosa.mul"(%1000, %1002) <{shift = 0 : i8}> : (tensor<16x12x12xf32>, tensor<16x12x1xf32>) -> tensor<16x12x12xf32>
    %1004 = "tosa.identity"(%1003) : (tensor<16x12x12xf32>) -> tensor<16x12x12xf32>
    %1005 = "tosa.matmul"(%1004, %988) : (tensor<16x12x12xf32>, tensor<16x12x64xf32>) -> tensor<16x12x64xf32>
    %1006 = "tosa.reshape"(%1005) <{new_shape = array<i64: 1, 16, 12, 64>}> : (tensor<16x12x64xf32>) -> tensor<1x16x12x64xf32>
    %1007 = "tosa.const"() <{value = dense<[0, 2, 1, 3]> : tensor<4xi32>}> : () -> tensor<4xi32>
    %1008 = "tosa.transpose"(%1006, %1007) : (tensor<1x16x12x64xf32>, tensor<4xi32>) -> tensor<1x12x16x64xf32>
    %1009 = "tosa.identity"(%1008) : (tensor<1x12x16x64xf32>) -> tensor<1x12x16x64xf32>
    %1010 = "tosa.reshape"(%1009) <{new_shape = array<i64: 1, 12, 1024>}> : (tensor<1x12x16x64xf32>) -> tensor<1x12x1024xf32>
    %1011 = "tosa.reshape"(%1010) <{new_shape = array<i64: 12, 1024>}> : (tensor<1x12x1024xf32>) -> tensor<12x1024xf32>
    %1012 = "tosa.const"() <{value = dense<[1, 0]> : tensor<2xi32>}> : () -> tensor<2xi32>
    %1013 = "tosa.transpose"(%arg109, %1012) : (tensor<1024x1024xf32>, tensor<2xi32>) -> tensor<1024x1024xf32>
    %1014 = "tosa.reshape"(%1011) <{new_shape = array<i64: 1, 12, 1024>}> : (tensor<12x1024xf32>) -> tensor<1x12x1024xf32>
    %1015 = "tosa.reshape"(%1013) <{new_shape = array<i64: 1, 1024, 1024>}> : (tensor<1024x1024xf32>) -> tensor<1x1024x1024xf32>
    %1016 = "tosa.matmul"(%1014, %1015) : (tensor<1x12x1024xf32>, tensor<1x1024x1024xf32>) -> tensor<1x12x1024xf32>
    %1017 = "tosa.reshape"(%1016) <{new_shape = array<i64: 12, 1024>}> : (tensor<1x12x1024xf32>) -> tensor<12x1024xf32>
    %1018 = "tosa.reshape"(%arg110) <{new_shape = array<i64: 1, 1024>}> : (tensor<1024xf32>) -> tensor<1x1024xf32>
    %1019 = "tosa.add"(%1018, %1017) : (tensor<1x1024xf32>, tensor<12x1024xf32>) -> tensor<12x1024xf32>
    %1020 = "tosa.reshape"(%1019) <{new_shape = array<i64: 1, 12, 1024>}> : (tensor<12x1024xf32>) -> tensor<1x12x1024xf32>
    %1021 = "tosa.add"(%922, %1020) : (tensor<1x12x1024xf32>, tensor<1x12x1024xf32>) -> tensor<1x12x1024xf32>
    %1022 = "tosa.reduce_sum"(%1021) <{axis = 2 : i32}> : (tensor<1x12x1024xf32>) -> tensor<1x12x1xf32>
    %1023 = "tosa.const"() <{value = dense<1.024000e+03> : tensor<1xf32>}> : () -> tensor<1xf32>
    %1024 = "tosa.reciprocal"(%1023) : (tensor<1xf32>) -> tensor<1xf32>
    %1025 = "tosa.mul"(%1024, %1022) <{shift = 0 : i8}> : (tensor<1xf32>, tensor<1x12x1xf32>) -> tensor<1x12x1xf32>
    %1026 = "tosa.sub"(%1021, %1025) : (tensor<1x12x1024xf32>, tensor<1x12x1xf32>) -> tensor<1x12x1024xf32>
    %1027 = "tosa.mul"(%1026, %1026) <{shift = 0 : i8}> : (tensor<1x12x1024xf32>, tensor<1x12x1024xf32>) -> tensor<1x12x1024xf32>
    %1028 = "tosa.reduce_sum"(%1027) <{axis = 2 : i32}> : (tensor<1x12x1024xf32>) -> tensor<1x12x1xf32>
    %1029 = "tosa.const"() <{value = dense<1.024000e+03> : tensor<1xf32>}> : () -> tensor<1xf32>
    %1030 = "tosa.reciprocal"(%1029) : (tensor<1xf32>) -> tensor<1xf32>
    %1031 = "tosa.mul"(%1030, %1028) <{shift = 0 : i8}> : (tensor<1xf32>, tensor<1x12x1xf32>) -> tensor<1x12x1xf32>
    %1032 = "tosa.const"() <{value = dense<9.99999974E-6> : tensor<1x12x1xf32>}> : () -> tensor<1x12x1xf32>
    %1033 = "tosa.add"(%1031, %1032) : (tensor<1x12x1xf32>, tensor<1x12x1xf32>) -> tensor<1x12x1xf32>
    %1034 = "tosa.rsqrt"(%1033) : (tensor<1x12x1xf32>) -> tensor<1x12x1xf32>
    %1035 = "tosa.sub"(%1021, %1025) : (tensor<1x12x1024xf32>, tensor<1x12x1xf32>) -> tensor<1x12x1024xf32>
    %1036 = "tosa.mul"(%1035, %1034) <{shift = 0 : i8}> : (tensor<1x12x1024xf32>, tensor<1x12x1xf32>) -> tensor<1x12x1024xf32>
    %1037 = "tosa.reshape"(%arg111) <{new_shape = array<i64: 1, 1, 1024>}> : (tensor<1024xf32>) -> tensor<1x1x1024xf32>
    %1038 = "tosa.mul"(%1036, %1037) <{shift = 0 : i8}> : (tensor<1x12x1024xf32>, tensor<1x1x1024xf32>) -> tensor<1x12x1024xf32>
    %1039 = "tosa.reshape"(%arg112) <{new_shape = array<i64: 1, 1, 1024>}> : (tensor<1024xf32>) -> tensor<1x1x1024xf32>
    %1040 = "tosa.add"(%1038, %1039) : (tensor<1x12x1024xf32>, tensor<1x1x1024xf32>) -> tensor<1x12x1024xf32>
    %1041 = "tosa.reshape"(%1040) <{new_shape = array<i64: 12, 1024>}> : (tensor<1x12x1024xf32>) -> tensor<12x1024xf32>
    %1042 = "tosa.const"() <{value = dense<[1, 0]> : tensor<2xi32>}> : () -> tensor<2xi32>
    %1043 = "tosa.transpose"(%arg113, %1042) : (tensor<4096x1024xf32>, tensor<2xi32>) -> tensor<1024x4096xf32>
    %1044 = "tosa.reshape"(%1041) <{new_shape = array<i64: 1, 12, 1024>}> : (tensor<12x1024xf32>) -> tensor<1x12x1024xf32>
    %1045 = "tosa.reshape"(%1043) <{new_shape = array<i64: 1, 1024, 4096>}> : (tensor<1024x4096xf32>) -> tensor<1x1024x4096xf32>
    %1046 = "tosa.matmul"(%1044, %1045) : (tensor<1x12x1024xf32>, tensor<1x1024x4096xf32>) -> tensor<1x12x4096xf32>
    %1047 = "tosa.reshape"(%1046) <{new_shape = array<i64: 12, 4096>}> : (tensor<1x12x4096xf32>) -> tensor<12x4096xf32>
    %1048 = "tosa.reshape"(%arg114) <{new_shape = array<i64: 1, 4096>}> : (tensor<4096xf32>) -> tensor<1x4096xf32>
    %1049 = "tosa.add"(%1048, %1047) : (tensor<1x4096xf32>, tensor<12x4096xf32>) -> tensor<12x4096xf32>
    %1050 = "tosa.reshape"(%1049) <{new_shape = array<i64: 1, 12, 4096>}> : (tensor<12x4096xf32>) -> tensor<1x12x4096xf32>
    %1051 = "tosa.const"() <{value = dense<5.000000e-01> : tensor<1x12x4096xf32>}> : () -> tensor<1x12x4096xf32>
    %1052 = "tosa.mul"(%1050, %1051) <{shift = 0 : i8}> : (tensor<1x12x4096xf32>, tensor<1x12x4096xf32>) -> tensor<1x12x4096xf32>
    %1053 = "tosa.const"() <{value = dense<0.707106769> : tensor<1x12x4096xf32>}> : () -> tensor<1x12x4096xf32>
    %1054 = "tosa.mul"(%1050, %1053) <{shift = 0 : i8}> : (tensor<1x12x4096xf32>, tensor<1x12x4096xf32>) -> tensor<1x12x4096xf32>
    %1055 = "math.erf"(%1054) <{fastmath = #arith.fastmath<none>}> : (tensor<1x12x4096xf32>) -> tensor<1x12x4096xf32>
    %1056 = "tosa.const"() <{value = dense<1.000000e+00> : tensor<1x12x4096xf32>}> : () -> tensor<1x12x4096xf32>
    %1057 = "tosa.add"(%1055, %1056) : (tensor<1x12x4096xf32>, tensor<1x12x4096xf32>) -> tensor<1x12x4096xf32>
    %1058 = "tosa.mul"(%1052, %1057) <{shift = 0 : i8}> : (tensor<1x12x4096xf32>, tensor<1x12x4096xf32>) -> tensor<1x12x4096xf32>
    %1059 = "tosa.reshape"(%1058) <{new_shape = array<i64: 12, 4096>}> : (tensor<1x12x4096xf32>) -> tensor<12x4096xf32>
    %1060 = "tosa.const"() <{value = dense<[1, 0]> : tensor<2xi32>}> : () -> tensor<2xi32>
    %1061 = "tosa.transpose"(%arg115, %1060) : (tensor<1024x4096xf32>, tensor<2xi32>) -> tensor<4096x1024xf32>
    %1062 = "tosa.reshape"(%1059) <{new_shape = array<i64: 1, 12, 4096>}> : (tensor<12x4096xf32>) -> tensor<1x12x4096xf32>
    %1063 = "tosa.reshape"(%1061) <{new_shape = array<i64: 1, 4096, 1024>}> : (tensor<4096x1024xf32>) -> tensor<1x4096x1024xf32>
    %1064 = "tosa.matmul"(%1062, %1063) : (tensor<1x12x4096xf32>, tensor<1x4096x1024xf32>) -> tensor<1x12x1024xf32>
    %1065 = "tosa.reshape"(%1064) <{new_shape = array<i64: 12, 1024>}> : (tensor<1x12x1024xf32>) -> tensor<12x1024xf32>
    %1066 = "tosa.reshape"(%arg116) <{new_shape = array<i64: 1, 1024>}> : (tensor<1024xf32>) -> tensor<1x1024xf32>
    %1067 = "tosa.add"(%1066, %1065) : (tensor<1x1024xf32>, tensor<12x1024xf32>) -> tensor<12x1024xf32>
    %1068 = "tosa.reshape"(%1067) <{new_shape = array<i64: 1, 12, 1024>}> : (tensor<12x1024xf32>) -> tensor<1x12x1024xf32>
    %1069 = "tosa.add"(%1021, %1068) : (tensor<1x12x1024xf32>, tensor<1x12x1024xf32>) -> tensor<1x12x1024xf32>
    %1070 = "tosa.reduce_sum"(%1069) <{axis = 2 : i32}> : (tensor<1x12x1024xf32>) -> tensor<1x12x1xf32>
    %1071 = "tosa.const"() <{value = dense<1.024000e+03> : tensor<1xf32>}> : () -> tensor<1xf32>
    %1072 = "tosa.reciprocal"(%1071) : (tensor<1xf32>) -> tensor<1xf32>
    %1073 = "tosa.mul"(%1072, %1070) <{shift = 0 : i8}> : (tensor<1xf32>, tensor<1x12x1xf32>) -> tensor<1x12x1xf32>
    %1074 = "tosa.sub"(%1069, %1073) : (tensor<1x12x1024xf32>, tensor<1x12x1xf32>) -> tensor<1x12x1024xf32>
    %1075 = "tosa.mul"(%1074, %1074) <{shift = 0 : i8}> : (tensor<1x12x1024xf32>, tensor<1x12x1024xf32>) -> tensor<1x12x1024xf32>
    %1076 = "tosa.reduce_sum"(%1075) <{axis = 2 : i32}> : (tensor<1x12x1024xf32>) -> tensor<1x12x1xf32>
    %1077 = "tosa.const"() <{value = dense<1.024000e+03> : tensor<1xf32>}> : () -> tensor<1xf32>
    %1078 = "tosa.reciprocal"(%1077) : (tensor<1xf32>) -> tensor<1xf32>
    %1079 = "tosa.mul"(%1078, %1076) <{shift = 0 : i8}> : (tensor<1xf32>, tensor<1x12x1xf32>) -> tensor<1x12x1xf32>
    %1080 = "tosa.const"() <{value = dense<9.99999974E-6> : tensor<1x12x1xf32>}> : () -> tensor<1x12x1xf32>
    %1081 = "tosa.add"(%1079, %1080) : (tensor<1x12x1xf32>, tensor<1x12x1xf32>) -> tensor<1x12x1xf32>
    %1082 = "tosa.rsqrt"(%1081) : (tensor<1x12x1xf32>) -> tensor<1x12x1xf32>
    %1083 = "tosa.sub"(%1069, %1073) : (tensor<1x12x1024xf32>, tensor<1x12x1xf32>) -> tensor<1x12x1024xf32>
    %1084 = "tosa.mul"(%1083, %1082) <{shift = 0 : i8}> : (tensor<1x12x1024xf32>, tensor<1x12x1xf32>) -> tensor<1x12x1024xf32>
    %1085 = "tosa.reshape"(%arg117) <{new_shape = array<i64: 1, 1, 1024>}> : (tensor<1024xf32>) -> tensor<1x1x1024xf32>
    %1086 = "tosa.mul"(%1084, %1085) <{shift = 0 : i8}> : (tensor<1x12x1024xf32>, tensor<1x1x1024xf32>) -> tensor<1x12x1024xf32>
    %1087 = "tosa.reshape"(%arg118) <{new_shape = array<i64: 1, 1, 1024>}> : (tensor<1024xf32>) -> tensor<1x1x1024xf32>
    %1088 = "tosa.add"(%1086, %1087) : (tensor<1x12x1024xf32>, tensor<1x1x1024xf32>) -> tensor<1x12x1024xf32>
    %1089 = "tosa.reshape"(%1088) <{new_shape = array<i64: 12, 1024>}> : (tensor<1x12x1024xf32>) -> tensor<12x1024xf32>
    %1090 = "tosa.const"() <{value = dense<[1, 0]> : tensor<2xi32>}> : () -> tensor<2xi32>
    %1091 = "tosa.transpose"(%arg119, %1090) : (tensor<1024x1024xf32>, tensor<2xi32>) -> tensor<1024x1024xf32>
    %1092 = "tosa.reshape"(%1089) <{new_shape = array<i64: 1, 12, 1024>}> : (tensor<12x1024xf32>) -> tensor<1x12x1024xf32>
    %1093 = "tosa.reshape"(%1091) <{new_shape = array<i64: 1, 1024, 1024>}> : (tensor<1024x1024xf32>) -> tensor<1x1024x1024xf32>
    %1094 = "tosa.matmul"(%1092, %1093) : (tensor<1x12x1024xf32>, tensor<1x1024x1024xf32>) -> tensor<1x12x1024xf32>
    %1095 = "tosa.reshape"(%1094) <{new_shape = array<i64: 12, 1024>}> : (tensor<1x12x1024xf32>) -> tensor<12x1024xf32>
    %1096 = "tosa.reshape"(%arg120) <{new_shape = array<i64: 1, 1024>}> : (tensor<1024xf32>) -> tensor<1x1024xf32>
    %1097 = "tosa.add"(%1096, %1095) : (tensor<1x1024xf32>, tensor<12x1024xf32>) -> tensor<12x1024xf32>
    %1098 = "tosa.reshape"(%1097) <{new_shape = array<i64: 1, 12, 1024>}> : (tensor<12x1024xf32>) -> tensor<1x12x1024xf32>
    %1099 = "tosa.const"() <{value = dense<1.250000e-01> : tensor<1x12x1024xf32>}> : () -> tensor<1x12x1024xf32>
    %1100 = "tosa.mul"(%1098, %1099) <{shift = 0 : i8}> : (tensor<1x12x1024xf32>, tensor<1x12x1024xf32>) -> tensor<1x12x1024xf32>
    %1101 = "tosa.reshape"(%1088) <{new_shape = array<i64: 12, 1024>}> : (tensor<1x12x1024xf32>) -> tensor<12x1024xf32>
    %1102 = "tosa.const"() <{value = dense<[1, 0]> : tensor<2xi32>}> : () -> tensor<2xi32>
    %1103 = "tosa.transpose"(%arg121, %1102) : (tensor<1024x1024xf32>, tensor<2xi32>) -> tensor<1024x1024xf32>
    %1104 = "tosa.reshape"(%1101) <{new_shape = array<i64: 1, 12, 1024>}> : (tensor<12x1024xf32>) -> tensor<1x12x1024xf32>
    %1105 = "tosa.reshape"(%1103) <{new_shape = array<i64: 1, 1024, 1024>}> : (tensor<1024x1024xf32>) -> tensor<1x1024x1024xf32>
    %1106 = "tosa.matmul"(%1104, %1105) : (tensor<1x12x1024xf32>, tensor<1x1024x1024xf32>) -> tensor<1x12x1024xf32>
    %1107 = "tosa.reshape"(%1106) <{new_shape = array<i64: 12, 1024>}> : (tensor<1x12x1024xf32>) -> tensor<12x1024xf32>
    %1108 = "tosa.reshape"(%arg122) <{new_shape = array<i64: 1, 1024>}> : (tensor<1024xf32>) -> tensor<1x1024xf32>
    %1109 = "tosa.add"(%1108, %1107) : (tensor<1x1024xf32>, tensor<12x1024xf32>) -> tensor<12x1024xf32>
    %1110 = "tosa.reshape"(%1109) <{new_shape = array<i64: 1, 12, 1024>}> : (tensor<12x1024xf32>) -> tensor<1x12x1024xf32>
    %1111 = "tosa.reshape"(%1110) <{new_shape = array<i64: 1, 12, 16, 64>}> : (tensor<1x12x1024xf32>) -> tensor<1x12x16x64xf32>
    %1112 = "tosa.const"() <{value = dense<[0, 2, 1, 3]> : tensor<4xi32>}> : () -> tensor<4xi32>
    %1113 = "tosa.transpose"(%1111, %1112) : (tensor<1x12x16x64xf32>, tensor<4xi32>) -> tensor<1x16x12x64xf32>
    %1114 = "tosa.identity"(%1113) : (tensor<1x16x12x64xf32>) -> tensor<1x16x12x64xf32>
    %1115 = "tosa.reshape"(%1088) <{new_shape = array<i64: 12, 1024>}> : (tensor<1x12x1024xf32>) -> tensor<12x1024xf32>
    %1116 = "tosa.const"() <{value = dense<[1, 0]> : tensor<2xi32>}> : () -> tensor<2xi32>
    %1117 = "tosa.transpose"(%arg123, %1116) : (tensor<1024x1024xf32>, tensor<2xi32>) -> tensor<1024x1024xf32>
    %1118 = "tosa.reshape"(%1115) <{new_shape = array<i64: 1, 12, 1024>}> : (tensor<12x1024xf32>) -> tensor<1x12x1024xf32>
    %1119 = "tosa.reshape"(%1117) <{new_shape = array<i64: 1, 1024, 1024>}> : (tensor<1024x1024xf32>) -> tensor<1x1024x1024xf32>
    %1120 = "tosa.matmul"(%1118, %1119) : (tensor<1x12x1024xf32>, tensor<1x1024x1024xf32>) -> tensor<1x12x1024xf32>
    %1121 = "tosa.reshape"(%1120) <{new_shape = array<i64: 12, 1024>}> : (tensor<1x12x1024xf32>) -> tensor<12x1024xf32>
    %1122 = "tosa.reshape"(%arg124) <{new_shape = array<i64: 1, 1024>}> : (tensor<1024xf32>) -> tensor<1x1024xf32>
    %1123 = "tosa.add"(%1122, %1121) : (tensor<1x1024xf32>, tensor<12x1024xf32>) -> tensor<12x1024xf32>
    %1124 = "tosa.reshape"(%1123) <{new_shape = array<i64: 1, 12, 1024>}> : (tensor<12x1024xf32>) -> tensor<1x12x1024xf32>
    %1125 = "tosa.reshape"(%1124) <{new_shape = array<i64: 1, 12, 16, 64>}> : (tensor<1x12x1024xf32>) -> tensor<1x12x16x64xf32>
    %1126 = "tosa.const"() <{value = dense<[0, 2, 1, 3]> : tensor<4xi32>}> : () -> tensor<4xi32>
    %1127 = "tosa.transpose"(%1125, %1126) : (tensor<1x12x16x64xf32>, tensor<4xi32>) -> tensor<1x16x12x64xf32>
    %1128 = "tosa.identity"(%1127) : (tensor<1x16x12x64xf32>) -> tensor<1x16x12x64xf32>
    %1129 = "tosa.reshape"(%1100) <{new_shape = array<i64: 1, 12, 16, 64>}> : (tensor<1x12x1024xf32>) -> tensor<1x12x16x64xf32>
    %1130 = "tosa.const"() <{value = dense<[0, 2, 1, 3]> : tensor<4xi32>}> : () -> tensor<4xi32>
    %1131 = "tosa.transpose"(%1129, %1130) : (tensor<1x12x16x64xf32>, tensor<4xi32>) -> tensor<1x16x12x64xf32>
    %1132 = "tosa.identity"(%1131) : (tensor<1x16x12x64xf32>) -> tensor<1x16x12x64xf32>
    %1133 = "tosa.reshape"(%1132) <{new_shape = array<i64: 16, 12, 64>}> : (tensor<1x16x12x64xf32>) -> tensor<16x12x64xf32>
    %1134 = "tosa.reshape"(%1114) <{new_shape = array<i64: 16, 12, 64>}> : (tensor<1x16x12x64xf32>) -> tensor<16x12x64xf32>
    %1135 = "tosa.reshape"(%1128) <{new_shape = array<i64: 16, 12, 64>}> : (tensor<1x16x12x64xf32>) -> tensor<16x12x64xf32>
    %1136 = "tosa.const"() <{value = dense<[0, 2, 1]> : tensor<3xi32>}> : () -> tensor<3xi32>
    %1137 = "tosa.transpose"(%1134, %1136) : (tensor<16x12x64xf32>, tensor<3xi32>) -> tensor<16x64x12xf32>
    %1138 = "tosa.matmul"(%1133, %1137) : (tensor<16x12x64xf32>, tensor<16x64x12xf32>) -> tensor<16x12x12xf32>
    %1139 = "tosa.reshape"(%1138) <{new_shape = array<i64: 1, 16, 12, 12>}> : (tensor<16x12x12xf32>) -> tensor<1x16x12x12xf32>
    %1140 = "tosa.add"(%1139, %110) : (tensor<1x16x12x12xf32>, tensor<1x1x12x12xf32>) -> tensor<1x16x12x12xf32>
    %1141 = "tosa.reshape"(%1140) <{new_shape = array<i64: 16, 12, 12>}> : (tensor<1x16x12x12xf32>) -> tensor<16x12x12xf32>
    %1142 = "tosa.reshape"(%1141) <{new_shape = array<i64: 1, 16, 12, 12>}> : (tensor<16x12x12xf32>) -> tensor<1x16x12x12xf32>
    %1143 = "tosa.add"(%1142, %34) : (tensor<1x16x12x12xf32>, tensor<1x1x12x12xf32>) -> tensor<1x16x12x12xf32>
    %1144 = "tosa.reshape"(%1143) <{new_shape = array<i64: 16, 12, 12>}> : (tensor<1x16x12x12xf32>) -> tensor<16x12x12xf32>
    %1145 = "tosa.reduce_max"(%1144) <{axis = 2 : i32}> : (tensor<16x12x12xf32>) -> tensor<16x12x1xf32>
    %1146 = "tosa.sub"(%1144, %1145) : (tensor<16x12x12xf32>, tensor<16x12x1xf32>) -> tensor<16x12x12xf32>
    %1147 = "tosa.exp"(%1146) : (tensor<16x12x12xf32>) -> tensor<16x12x12xf32>
    %1148 = "tosa.reduce_sum"(%1147) <{axis = 2 : i32}> : (tensor<16x12x12xf32>) -> tensor<16x12x1xf32>
    %1149 = "tosa.reciprocal"(%1148) : (tensor<16x12x1xf32>) -> tensor<16x12x1xf32>
    %1150 = "tosa.mul"(%1147, %1149) <{shift = 0 : i8}> : (tensor<16x12x12xf32>, tensor<16x12x1xf32>) -> tensor<16x12x12xf32>
    %1151 = "tosa.identity"(%1150) : (tensor<16x12x12xf32>) -> tensor<16x12x12xf32>
    %1152 = "tosa.matmul"(%1151, %1135) : (tensor<16x12x12xf32>, tensor<16x12x64xf32>) -> tensor<16x12x64xf32>
    %1153 = "tosa.reshape"(%1152) <{new_shape = array<i64: 1, 16, 12, 64>}> : (tensor<16x12x64xf32>) -> tensor<1x16x12x64xf32>
    %1154 = "tosa.const"() <{value = dense<[0, 2, 1, 3]> : tensor<4xi32>}> : () -> tensor<4xi32>
    %1155 = "tosa.transpose"(%1153, %1154) : (tensor<1x16x12x64xf32>, tensor<4xi32>) -> tensor<1x12x16x64xf32>
    %1156 = "tosa.identity"(%1155) : (tensor<1x12x16x64xf32>) -> tensor<1x12x16x64xf32>
    %1157 = "tosa.reshape"(%1156) <{new_shape = array<i64: 1, 12, 1024>}> : (tensor<1x12x16x64xf32>) -> tensor<1x12x1024xf32>
    %1158 = "tosa.reshape"(%1157) <{new_shape = array<i64: 12, 1024>}> : (tensor<1x12x1024xf32>) -> tensor<12x1024xf32>
    %1159 = "tosa.const"() <{value = dense<[1, 0]> : tensor<2xi32>}> : () -> tensor<2xi32>
    %1160 = "tosa.transpose"(%arg125, %1159) : (tensor<1024x1024xf32>, tensor<2xi32>) -> tensor<1024x1024xf32>
    %1161 = "tosa.reshape"(%1158) <{new_shape = array<i64: 1, 12, 1024>}> : (tensor<12x1024xf32>) -> tensor<1x12x1024xf32>
    %1162 = "tosa.reshape"(%1160) <{new_shape = array<i64: 1, 1024, 1024>}> : (tensor<1024x1024xf32>) -> tensor<1x1024x1024xf32>
    %1163 = "tosa.matmul"(%1161, %1162) : (tensor<1x12x1024xf32>, tensor<1x1024x1024xf32>) -> tensor<1x12x1024xf32>
    %1164 = "tosa.reshape"(%1163) <{new_shape = array<i64: 12, 1024>}> : (tensor<1x12x1024xf32>) -> tensor<12x1024xf32>
    %1165 = "tosa.reshape"(%arg126) <{new_shape = array<i64: 1, 1024>}> : (tensor<1024xf32>) -> tensor<1x1024xf32>
    %1166 = "tosa.add"(%1165, %1164) : (tensor<1x1024xf32>, tensor<12x1024xf32>) -> tensor<12x1024xf32>
    %1167 = "tosa.reshape"(%1166) <{new_shape = array<i64: 1, 12, 1024>}> : (tensor<12x1024xf32>) -> tensor<1x12x1024xf32>
    %1168 = "tosa.add"(%1069, %1167) : (tensor<1x12x1024xf32>, tensor<1x12x1024xf32>) -> tensor<1x12x1024xf32>
    %1169 = "tosa.reduce_sum"(%1168) <{axis = 2 : i32}> : (tensor<1x12x1024xf32>) -> tensor<1x12x1xf32>
    %1170 = "tosa.const"() <{value = dense<1.024000e+03> : tensor<1xf32>}> : () -> tensor<1xf32>
    %1171 = "tosa.reciprocal"(%1170) : (tensor<1xf32>) -> tensor<1xf32>
    %1172 = "tosa.mul"(%1171, %1169) <{shift = 0 : i8}> : (tensor<1xf32>, tensor<1x12x1xf32>) -> tensor<1x12x1xf32>
    %1173 = "tosa.sub"(%1168, %1172) : (tensor<1x12x1024xf32>, tensor<1x12x1xf32>) -> tensor<1x12x1024xf32>
    %1174 = "tosa.mul"(%1173, %1173) <{shift = 0 : i8}> : (tensor<1x12x1024xf32>, tensor<1x12x1024xf32>) -> tensor<1x12x1024xf32>
    %1175 = "tosa.reduce_sum"(%1174) <{axis = 2 : i32}> : (tensor<1x12x1024xf32>) -> tensor<1x12x1xf32>
    %1176 = "tosa.const"() <{value = dense<1.024000e+03> : tensor<1xf32>}> : () -> tensor<1xf32>
    %1177 = "tosa.reciprocal"(%1176) : (tensor<1xf32>) -> tensor<1xf32>
    %1178 = "tosa.mul"(%1177, %1175) <{shift = 0 : i8}> : (tensor<1xf32>, tensor<1x12x1xf32>) -> tensor<1x12x1xf32>
    %1179 = "tosa.const"() <{value = dense<9.99999974E-6> : tensor<1x12x1xf32>}> : () -> tensor<1x12x1xf32>
    %1180 = "tosa.add"(%1178, %1179) : (tensor<1x12x1xf32>, tensor<1x12x1xf32>) -> tensor<1x12x1xf32>
    %1181 = "tosa.rsqrt"(%1180) : (tensor<1x12x1xf32>) -> tensor<1x12x1xf32>
    %1182 = "tosa.sub"(%1168, %1172) : (tensor<1x12x1024xf32>, tensor<1x12x1xf32>) -> tensor<1x12x1024xf32>
    %1183 = "tosa.mul"(%1182, %1181) <{shift = 0 : i8}> : (tensor<1x12x1024xf32>, tensor<1x12x1xf32>) -> tensor<1x12x1024xf32>
    %1184 = "tosa.reshape"(%arg127) <{new_shape = array<i64: 1, 1, 1024>}> : (tensor<1024xf32>) -> tensor<1x1x1024xf32>
    %1185 = "tosa.mul"(%1183, %1184) <{shift = 0 : i8}> : (tensor<1x12x1024xf32>, tensor<1x1x1024xf32>) -> tensor<1x12x1024xf32>
…
    %3002 = "tosa.transpose"(%arg327, %3001) : (tensor<1024x1024xf32>, tensor<2xi32>) -> tensor<1024x1024xf32>
    %3003 = "tosa.reshape"(%3000) <{new_shape = array<i64: 1, 12, 1024>}> : (tensor<12x1024xf32>) -> tensor<1x12x1024xf32>
    %3004 = "tosa.reshape"(%3002) <{new_shape = array<i64: 1, 1024, 1024>}> : (tensor<1024x1024xf32>) -> tensor<1x1024x1024xf32>
    %3005 = "tosa.matmul"(%3003, %3004) : (tensor<1x12x1024xf32>, tensor<1x1024x1024xf32>) -> tensor<1x12x1024xf32>
    %3006 = "tosa.reshape"(%3005) <{new_shape = array<i64: 12, 1024>}> : (tensor<1x12x1024xf32>) -> tensor<12x1024xf32>
    %3007 = "tosa.reshape"(%arg328) <{new_shape = array<i64: 1, 1024>}> : (tensor<1024xf32>) -> tensor<1x1024xf32>
    %3008 = "tosa.add"(%3007, %3006) : (tensor<1x1024xf32>, tensor<12x1024xf32>) -> tensor<12x1024xf32>
    %3009 = "tosa.reshape"(%3008) <{new_shape = array<i64: 1, 12, 1024>}> : (tensor<12x1024xf32>) -> tensor<1x12x1024xf32>
    %3010 = "tosa.const"() <{value = dense<1.250000e-01> : tensor<1x12x1024xf32>}> : () -> tensor<1x12x1024xf32>
    %3011 = "tosa.mul"(%3009, %3010) <{shift = 0 : i8}> : (tensor<1x12x1024xf32>, tensor<1x12x1024xf32>) -> tensor<1x12x1024xf32>
    %3012 = "tosa.reshape"(%2999) <{new_shape = array<i64: 12, 1024>}> : (tensor<1x12x1024xf32>) -> tensor<12x1024xf32>
    %3013 = "tosa.const"() <{value = dense<[1, 0]> : tensor<2xi32>}> : () -> tensor<2xi32>
    %3014 = "tosa.transpose"(%arg329, %3013) : (tensor<1024x1024xf32>, tensor<2xi32>) -> tensor<1024x1024xf32>
    %3015 = "tosa.reshape"(%3012) <{new_shape = array<i64: 1, 12, 1024>}> : (tensor<12x1024xf32>) -> tensor<1x12x1024xf32>
    %3016 = "tosa.reshape"(%3014) <{new_shape = array<i64: 1, 1024, 1024>}> : (tensor<1024x1024xf32>) -> tensor<1x1024x1024xf32>
    %3017 = "tosa.matmul"(%3015, %3016) : (tensor<1x12x1024xf32>, tensor<1x1024x1024xf32>) -> tensor<1x12x1024xf32>
    %3018 = "tosa.reshape"(%3017) <{new_shape = array<i64: 12, 1024>}> : (tensor<1x12x1024xf32>) -> tensor<12x1024xf32>
    %3019 = "tosa.reshape"(%arg330) <{new_shape = array<i64: 1, 1024>}> : (tensor<1024xf32>) -> tensor<1x1024xf32>
    %3020 = "tosa.add"(%3019, %3018) : (tensor<1x1024xf32>, tensor<12x1024xf32>) -> tensor<12x1024xf32>
    %3021 = "tosa.reshape"(%3020) <{new_shape = array<i64: 1, 12, 1024>}> : (tensor<12x1024xf32>) -> tensor<1x12x1024xf32>
    %3022 = "tosa.reshape"(%3021) <{new_shape = array<i64: 1, 12, 16, 64>}> : (tensor<1x12x1024xf32>) -> tensor<1x12x16x64xf32>
    %3023 = "tosa.const"() <{value = dense<[0, 2, 1, 3]> : tensor<4xi32>}> : () -> tensor<4xi32>
    %3024 = "tosa.transpose"(%3022, %3023) : (tensor<1x12x16x64xf32>, tensor<4xi32>) -> tensor<1x16x12x64xf32>
    %3025 = "tosa.identity"(%3024) : (tensor<1x16x12x64xf32>) -> tensor<1x16x12x64xf32>
    %3026 = "tosa.reshape"(%2999) <{new_shape = array<i64: 12, 1024>}> : (tensor<1x12x1024xf32>) -> tensor<12x1024xf32>
    %3027 = "tosa.const"() <{value = dense<[1, 0]> : tensor<2xi32>}> : () -> tensor<2xi32>
    %3028 = "tosa.transpose"(%arg331, %3027) : (tensor<1024x1024xf32>, tensor<2xi32>) -> tensor<1024x1024xf32>
    %3029 = "tosa.reshape"(%3026) <{new_shape = array<i64: 1, 12, 1024>}> : (tensor<12x1024xf32>) -> tensor<1x12x1024xf32>
    %3030 = "tosa.reshape"(%3028) <{new_shape = array<i64: 1, 1024, 1024>}> : (tensor<1024x1024xf32>) -> tensor<1x1024x1024xf32>
    %3031 = "tosa.matmul"(%3029, %3030) : (tensor<1x12x1024xf32>, tensor<1x1024x1024xf32>) -> tensor<1x12x1024xf32>
    %3032 = "tosa.reshape"(%3031) <{new_shape = array<i64: 12, 1024>}> : (tensor<1x12x1024xf32>) -> tensor<12x1024xf32>
    %3033 = "tosa.reshape"(%arg332) <{new_shape = array<i64: 1, 1024>}> : (tensor<1024xf32>) -> tensor<1x1024xf32>
    %3034 = "tosa.add"(%3033, %3032) : (tensor<1x1024xf32>, tensor<12x1024xf32>) -> tensor<12x1024xf32>
    %3035 = "tosa.reshape"(%3034) <{new_shape = array<i64: 1, 12, 1024>}> : (tensor<12x1024xf32>) -> tensor<1x12x1024xf32>
    %3036 = "tosa.reshape"(%3035) <{new_shape = array<i64: 1, 12, 16, 64>}> : (tensor<1x12x1024xf32>) -> tensor<1x12x16x64xf32>
    %3037 = "tosa.const"() <{value = dense<[0, 2, 1, 3]> : tensor<4xi32>}> : () -> tensor<4xi32>
    %3038 = "tosa.transpose"(%3036, %3037) : (tensor<1x12x16x64xf32>, tensor<4xi32>) -> tensor<1x16x12x64xf32>
    %3039 = "tosa.identity"(%3038) : (tensor<1x16x12x64xf32>) -> tensor<1x16x12x64xf32>
    %3040 = "tosa.reshape"(%3011) <{new_shape = array<i64: 1, 12, 16, 64>}> : (tensor<1x12x1024xf32>) -> tensor<1x12x16x64xf32>
    %3041 = "tosa.const"() <{value = dense<[0, 2, 1, 3]> : tensor<4xi32>}> : () -> tensor<4xi32>
    %3042 = "tosa.transpose"(%3040, %3041) : (tensor<1x12x16x64xf32>, tensor<4xi32>) -> tensor<1x16x12x64xf32>
    %3043 = "tosa.identity"(%3042) : (tensor<1x16x12x64xf32>) -> tensor<1x16x12x64xf32>
    %3044 = "tosa.reshape"(%3043) <{new_shape = array<i64: 16, 12, 64>}> : (tensor<1x16x12x64xf32>) -> tensor<16x12x64xf32>
    %3045 = "tosa.reshape"(%3025) <{new_shape = array<i64: 16, 12, 64>}> : (tensor<1x16x12x64xf32>) -> tensor<16x12x64xf32>
    %3046 = "tosa.reshape"(%3039) <{new_shape = array<i64: 16, 12, 64>}> : (tensor<1x16x12x64xf32>) -> tensor<16x12x64xf32>
    %3047 = "tosa.const"() <{value = dense<[0, 2, 1]> : tensor<3xi32>}> : () -> tensor<3xi32>
    %3048 = "tosa.transpose"(%3045, %3047) : (tensor<16x12x64xf32>, tensor<3xi32>) -> tensor<16x64x12xf32>
    %3049 = "tosa.matmul"(%3044, %3048) : (tensor<16x12x64xf32>, tensor<16x64x12xf32>) -> tensor<16x12x12xf32>
    %3050 = "tosa.reshape"(%3049) <{new_shape = array<i64: 1, 16, 12, 12>}> : (tensor<16x12x12xf32>) -> tensor<1x16x12x12xf32>
    %3051 = "tosa.add"(%3050, %110) : (tensor<1x16x12x12xf32>, tensor<1x1x12x12xf32>) -> tensor<1x16x12x12xf32>
    %3052 = "tosa.reshape"(%3051) <{new_shape = array<i64: 16, 12, 12>}> : (tensor<1x16x12x12xf32>) -> tensor<16x12x12xf32>
    %3053 = "tosa.reshape"(%3052) <{new_shape = array<i64: 1, 16, 12, 12>}> : (tensor<16x12x12xf32>) -> tensor<1x16x12x12xf32>
    %3054 = "tosa.add"(%3053, %34) : (tensor<1x16x12x12xf32>, tensor<1x1x12x12xf32>) -> tensor<1x16x12x12xf32>
    %3055 = "tosa.reshape"(%3054) <{new_shape = array<i64: 16, 12, 12>}> : (tensor<1x16x12x12xf32>) -> tensor<16x12x12xf32>
    %3056 = "tosa.reduce_max"(%3055) <{axis = 2 : i32}> : (tensor<16x12x12xf32>) -> tensor<16x12x1xf32>
    %3057 = "tosa.sub"(%3055, %3056) : (tensor<16x12x12xf32>, tensor<16x12x1xf32>) -> tensor<16x12x12xf32>
    %3058 = "tosa.exp"(%3057) : (tensor<16x12x12xf32>) -> tensor<16x12x12xf32>
    %3059 = "tosa.reduce_sum"(%3058) <{axis = 2 : i32}> : (tensor<16x12x12xf32>) -> tensor<16x12x1xf32>
    %3060 = "tosa.reciprocal"(%3059) : (tensor<16x12x1xf32>) -> tensor<16x12x1xf32>
    %3061 = "tosa.mul"(%3058, %3060) <{shift = 0 : i8}> : (tensor<16x12x12xf32>, tensor<16x12x1xf32>) -> tensor<16x12x12xf32>
    %3062 = "tosa.identity"(%3061) : (tensor<16x12x12xf32>) -> tensor<16x12x12xf32>
    %3063 = "tosa.matmul"(%3062, %3046) : (tensor<16x12x12xf32>, tensor<16x12x64xf32>) -> tensor<16x12x64xf32>
    %3064 = "tosa.reshape"(%3063) <{new_shape = array<i64: 1, 16, 12, 64>}> : (tensor<16x12x64xf32>) -> tensor<1x16x12x64xf32>
    %3065 = "tosa.const"() <{value = dense<[0, 2, 1, 3]> : tensor<4xi32>}> : () -> tensor<4xi32>
    %3066 = "tosa.transpose"(%3064, %3065) : (tensor<1x16x12x64xf32>, tensor<4xi32>) -> tensor<1x12x16x64xf32>
    %3067 = "tosa.identity"(%3066) : (tensor<1x12x16x64xf32>) -> tensor<1x12x16x64xf32>
    %3068 = "tosa.reshape"(%3067) <{new_shape = array<i64: 1, 12, 1024>}> : (tensor<1x12x16x64xf32>) -> tensor<1x12x1024xf32>
    %3069 = "tosa.reshape"(%3068) <{new_shape = array<i64: 12, 1024>}> : (tensor<1x12x1024xf32>) -> tensor<12x1024xf32>
    %3070 = "tosa.const"() <{value = dense<[1, 0]> : tensor<2xi32>}> : () -> tensor<2xi32>
    %3071 = "tosa.transpose"(%arg333, %3070) : (tensor<1024x1024xf32>, tensor<2xi32>) -> tensor<1024x1024xf32>
    %3072 = "tosa.reshape"(%3069) <{new_shape = array<i64: 1, 12, 1024>}> : (tensor<12x1024xf32>) -> tensor<1x12x1024xf32>
    %3073 = "tosa.reshape"(%3071) <{new_shape = array<i64: 1, 1024, 1024>}> : (tensor<1024x1024xf32>) -> tensor<1x1024x1024xf32>
    %3074 = "tosa.matmul"(%3072, %3073) : (tensor<1x12x1024xf32>, tensor<1x1024x1024xf32>) -> tensor<1x12x1024xf32>
    %3075 = "tosa.reshape"(%3074) <{new_shape = array<i64: 12, 1024>}> : (tensor<1x12x1024xf32>) -> tensor<12x1024xf32>
    %3076 = "tosa.reshape"(%arg334) <{new_shape = array<i64: 1, 1024>}> : (tensor<1024xf32>) -> tensor<1x1024xf32>
    %3077 = "tosa.add"(%3076, %3075) : (tensor<1x1024xf32>, tensor<12x1024xf32>) -> tensor<12x1024xf32>
    %3078 = "tosa.reshape"(%3077) <{new_shape = array<i64: 1, 12, 1024>}> : (tensor<12x1024xf32>) -> tensor<1x12x1024xf32>
    %3079 = "tosa.add"(%2980, %3078) : (tensor<1x12x1024xf32>, tensor<1x12x1024xf32>) -> tensor<1x12x1024xf32>
    %3080 = "tosa.reduce_sum"(%3079) <{axis = 2 : i32}> : (tensor<1x12x1024xf32>) -> tensor<1x12x1xf32>
    %3081 = "tosa.const"() <{value = dense<1.024000e+03> : tensor<1xf32>}> : () -> tensor<1xf32>
    %3082 = "tosa.reciprocal"(%3081) : (tensor<1xf32>) -> tensor<1xf32>
    %3083 = "tosa.mul"(%3082, %3080) <{shift = 0 : i8}> : (tensor<1xf32>, tensor<1x12x1xf32>) -> tensor<1x12x1xf32>
    %3084 = "tosa.sub"(%3079, %3083) : (tensor<1x12x1024xf32>, tensor<1x12x1xf32>) -> tensor<1x12x1024xf32>
    %3085 = "tosa.mul"(%3084, %3084) <{shift = 0 : i8}> : (tensor<1x12x1024xf32>, tensor<1x12x1024xf32>) -> tensor<1x12x1024xf32>
    %3086 = "tosa.reduce_sum"(%3085) <{axis = 2 : i32}> : (tensor<1x12x1024xf32>) -> tensor<1x12x1xf32>
    %3087 = "tosa.const"() <{value = dense<1.024000e+03> : tensor<1xf32>}> : () -> tensor<1xf32>
    %3088 = "tosa.reciprocal"(%3087) : (tensor<1xf32>) -> tensor<1xf32>
    %3089 = "tosa.mul"(%3088, %3086) <{shift = 0 : i8}> : (tensor<1xf32>, tensor<1x12x1xf32>) -> tensor<1x12x1xf32>
    %3090 = "tosa.const"() <{value = dense<9.99999974E-6> : tensor<1x12x1xf32>}> : () -> tensor<1x12x1xf32>
    %3091 = "tosa.add"(%3089, %3090) : (tensor<1x12x1xf32>, tensor<1x12x1xf32>) -> tensor<1x12x1xf32>
    %3092 = "tosa.rsqrt"(%3091) : (tensor<1x12x1xf32>) -> tensor<1x12x1xf32>
    %3093 = "tosa.sub"(%3079, %3083) : (tensor<1x12x1024xf32>, tensor<1x12x1xf32>) -> tensor<1x12x1024xf32>
    %3094 = "tosa.mul"(%3093, %3092) <{shift = 0 : i8}> : (tensor<1x12x1024xf32>, tensor<1x12x1xf32>) -> tensor<1x12x1024xf32>
    %3095 = "tosa.reshape"(%arg335) <{new_shape = array<i64: 1, 1, 1024>}> : (tensor<1024xf32>) -> tensor<1x1x1024xf32>
    %3096 = "tosa.mul"(%3094, %3095) <{shift = 0 : i8}> : (tensor<1x12x1024xf32>, tensor<1x1x1024xf32>) -> tensor<1x12x1024xf32>
    %3097 = "tosa.reshape"(%arg336) <{new_shape = array<i64: 1, 1, 1024>}> : (tensor<1024xf32>) -> tensor<1x1x1024xf32>
    %3098 = "tosa.add"(%3096, %3097) : (tensor<1x12x1024xf32>, tensor<1x1x1024xf32>) -> tensor<1x12x1024xf32>
    %3099 = "tosa.reshape"(%3098) <{new_shape = array<i64: 12, 1024>}> : (tensor<1x12x1024xf32>) -> tensor<12x1024xf32>
    %3100 = "tosa.const"() <{value = dense<[1, 0]> : tensor<2xi32>}> : () -> tensor<2xi32>
    %3101 = "tosa.transpose"(%arg337, %3100) : (tensor<4096x1024xf32>, tensor<2xi32>) -> tensor<1024x4096xf32>
    %3102 = "tosa.reshape"(%3099) <{new_shape = array<i64: 1, 12, 1024>}> : (tensor<12x1024xf32>) -> tensor<1x12x1024xf32>
    %3103 = "tosa.reshape"(%3101) <{new_shape = array<i64: 1, 1024, 4096>}> : (tensor<1024x4096xf32>) -> tensor<1x1024x4096xf32>
    %3104 = "tosa.matmul"(%3102, %3103) : (tensor<1x12x1024xf32>, tensor<1x1024x4096xf32>) -> tensor<1x12x4096xf32>
    %3105 = "tosa.reshape"(%3104) <{new_shape = array<i64: 12, 4096>}> : (tensor<1x12x4096xf32>) -> tensor<12x4096xf32>
    %3106 = "tosa.reshape"(%arg338) <{new_shape = array<i64: 1, 4096>}> : (tensor<4096xf32>) -> tensor<1x4096xf32>
    %3107 = "tosa.add"(%3106, %3105) : (tensor<1x4096xf32>, tensor<12x4096xf32>) -> tensor<12x4096xf32>
    %3108 = "tosa.reshape"(%3107) <{new_shape = array<i64: 1, 12, 4096>}> : (tensor<12x4096xf32>) -> tensor<1x12x4096xf32>
    %3109 = "tosa.const"() <{value = dense<5.000000e-01> : tensor<1x12x4096xf32>}> : () -> tensor<1x12x4096xf32>
    %3110 = "tosa.mul"(%3108, %3109) <{shift = 0 : i8}> : (tensor<1x12x4096xf32>, tensor<1x12x4096xf32>) -> tensor<1x12x4096xf32>
    %3111 = "tosa.const"() <{value = dense<0.707106769> : tensor<1x12x4096xf32>}> : () -> tensor<1x12x4096xf32>
    %3112 = "tosa.mul"(%3108, %3111) <{shift = 0 : i8}> : (tensor<1x12x4096xf32>, tensor<1x12x4096xf32>) -> tensor<1x12x4096xf32>
    %3113 = "math.erf"(%3112) <{fastmath = #arith.fastmath<none>}> : (tensor<1x12x4096xf32>) -> tensor<1x12x4096xf32>
    %3114 = "tosa.const"() <{value = dense<1.000000e+00> : tensor<1x12x4096xf32>}> : () -> tensor<1x12x4096xf32>
    %3115 = "tosa.add"(%3113, %3114) : (tensor<1x12x4096xf32>, tensor<1x12x4096xf32>) -> tensor<1x12x4096xf32>
    %3116 = "tosa.mul"(%3110, %3115) <{shift = 0 : i8}> : (tensor<1x12x4096xf32>, tensor<1x12x4096xf32>) -> tensor<1x12x4096xf32>
    %3117 = "tosa.reshape"(%3116) <{new_shape = array<i64: 12, 4096>}> : (tensor<1x12x4096xf32>) -> tensor<12x4096xf32>
    %3118 = "tosa.const"() <{value = dense<[1, 0]> : tensor<2xi32>}> : () -> tensor<2xi32>
    %3119 = "tosa.transpose"(%arg339, %3118) : (tensor<1024x4096xf32>, tensor<2xi32>) -> tensor<4096x1024xf32>
    %3120 = "tosa.reshape"(%3117) <{new_shape = array<i64: 1, 12, 4096>}> : (tensor<12x4096xf32>) -> tensor<1x12x4096xf32>
    %3121 = "tosa.reshape"(%3119) <{new_shape = array<i64: 1, 4096, 1024>}> : (tensor<4096x1024xf32>) -> tensor<1x4096x1024xf32>
    %3122 = "tosa.matmul"(%3120, %3121) : (tensor<1x12x4096xf32>, tensor<1x4096x1024xf32>) -> tensor<1x12x1024xf32>
    %3123 = "tosa.reshape"(%3122) <{new_shape = array<i64: 12, 1024>}> : (tensor<1x12x1024xf32>) -> tensor<12x1024xf32>
    %3124 = "tosa.reshape"(%arg340) <{new_shape = array<i64: 1, 1024>}> : (tensor<1024xf32>) -> tensor<1x1024xf32>
    %3125 = "tosa.add"(%3124, %3123) : (tensor<1x1024xf32>, tensor<12x1024xf32>) -> tensor<12x1024xf32>
    %3126 = "tosa.reshape"(%3125) <{new_shape = array<i64: 1, 12, 1024>}> : (tensor<12x1024xf32>) -> tensor<1x12x1024xf32>
    %3127 = "tosa.add"(%3079, %3126) : (tensor<1x12x1024xf32>, tensor<1x12x1024xf32>) -> tensor<1x12x1024xf32>
    %3128 = "tosa.reduce_sum"(%3127) <{axis = 2 : i32}> : (tensor<1x12x1024xf32>) -> tensor<1x12x1xf32>
    %3129 = "tosa.const"() <{value = dense<1.024000e+03> : tensor<1xf32>}> : () -> tensor<1xf32>
    %3130 = "tosa.reciprocal"(%3129) : (tensor<1xf32>) -> tensor<1xf32>
    %3131 = "tosa.mul"(%3130, %3128) <{shift = 0 : i8}> : (tensor<1xf32>, tensor<1x12x1xf32>) -> tensor<1x12x1xf32>
    %3132 = "tosa.sub"(%3127, %3131) : (tensor<1x12x1024xf32>, tensor<1x12x1xf32>) -> tensor<1x12x1024xf32>
    %3133 = "tosa.mul"(%3132, %3132) <{shift = 0 : i8}> : (tensor<1x12x1024xf32>, tensor<1x12x1024xf32>) -> tensor<1x12x1024xf32>
    %3134 = "tosa.reduce_sum"(%3133) <{axis = 2 : i32}> : (tensor<1x12x1024xf32>) -> tensor<1x12x1xf32>
    %3135 = "tosa.const"() <{value = dense<1.024000e+03> : tensor<1xf32>}> : () -> tensor<1xf32>
    %3136 = "tosa.reciprocal"(%3135) : (tensor<1xf32>) -> tensor<1xf32>
    %3137 = "tosa.mul"(%3136, %3134) <{shift = 0 : i8}> : (tensor<1xf32>, tensor<1x12x1xf32>) -> tensor<1x12x1xf32>
    %3138 = "tosa.const"() <{value = dense<9.99999974E-6> : tensor<1x12x1xf32>}> : () -> tensor<1x12x1xf32>
    %3139 = "tosa.add"(%3137, %3138) : (tensor<1x12x1xf32>, tensor<1x12x1xf32>) -> tensor<1x12x1xf32>
    %3140 = "tosa.rsqrt"(%3139) : (tensor<1x12x1xf32>) -> tensor<1x12x1xf32>
    %3141 = "tosa.sub"(%3127, %3131) : (tensor<1x12x1024xf32>, tensor<1x12x1xf32>) -> tensor<1x12x1024xf32>
    %3142 = "tosa.mul"(%3141, %3140) <{shift = 0 : i8}> : (tensor<1x12x1024xf32>, tensor<1x12x1xf32>) -> tensor<1x12x1024xf32>
    %3143 = "tosa.reshape"(%arg341) <{new_shape = array<i64: 1, 1, 1024>}> : (tensor<1024xf32>) -> tensor<1x1x1024xf32>
    %3144 = "tosa.mul"(%3142, %3143) <{shift = 0 : i8}> : (tensor<1x12x1024xf32>, tensor<1x1x1024xf32>) -> tensor<1x12x1024xf32>
    %3145 = "tosa.reshape"(%arg342) <{new_shape = array<i64: 1, 1, 1024>}> : (tensor<1024xf32>) -> tensor<1x1x1024xf32>
    %3146 = "tosa.add"(%3144, %3145) : (tensor<1x12x1024xf32>, tensor<1x1x1024xf32>) -> tensor<1x12x1024xf32>
    %3147 = "tosa.reshape"(%3146) <{new_shape = array<i64: 12, 1024>}> : (tensor<1x12x1024xf32>) -> tensor<12x1024xf32>
    %3148 = "tosa.const"() <{value = dense<[1, 0]> : tensor<2xi32>}> : () -> tensor<2xi32>
    %3149 = "tosa.transpose"(%arg343, %3148) : (tensor<1024x1024xf32>, tensor<2xi32>) -> tensor<1024x1024xf32>
    %3150 = "tosa.reshape"(%3147) <{new_shape = array<i64: 1, 12, 1024>}> : (tensor<12x1024xf32>) -> tensor<1x12x1024xf32>
    %3151 = "tosa.reshape"(%3149) <{new_shape = array<i64: 1, 1024, 1024>}> : (tensor<1024x1024xf32>) -> tensor<1x1024x1024xf32>
    %3152 = "tosa.matmul"(%3150, %3151) : (tensor<1x12x1024xf32>, tensor<1x1024x1024xf32>) -> tensor<1x12x1024xf32>
    %3153 = "tosa.reshape"(%3152) <{new_shape = array<i64: 12, 1024>}> : (tensor<1x12x1024xf32>) -> tensor<12x1024xf32>
    %3154 = "tosa.reshape"(%arg344) <{new_shape = array<i64: 1, 1024>}> : (tensor<1024xf32>) -> tensor<1x1024xf32>
    %3155 = "tosa.add"(%3154, %3153) : (tensor<1x1024xf32>, tensor<12x1024xf32>) -> tensor<12x1024xf32>
    %3156 = "tosa.reshape"(%3155) <{new_shape = array<i64: 1, 12, 1024>}> : (tensor<12x1024xf32>) -> tensor<1x12x1024xf32>
    %3157 = "tosa.const"() <{value = dense<1.250000e-01> : tensor<1x12x1024xf32>}> : () -> tensor<1x12x1024xf32>
    %3158 = "tosa.mul"(%3156, %3157) <{shift = 0 : i8}> : (tensor<1x12x1024xf32>, tensor<1x12x1024xf32>) -> tensor<1x12x1024xf32>
    %3159 = "tosa.reshape"(%3146) <{new_shape = array<i64: 12, 1024>}> : (tensor<1x12x1024xf32>) -> tensor<12x1024xf32>
    %3160 = "tosa.const"() <{value = dense<[1, 0]> : tensor<2xi32>}> : () -> tensor<2xi32>
    %3161 = "tosa.transpose"(%arg345, %3160) : (tensor<1024x1024xf32>, tensor<2xi32>) -> tensor<1024x1024xf32>
    %3162 = "tosa.reshape"(%3159) <{new_shape = array<i64: 1, 12, 1024>}> : (tensor<12x1024xf32>) -> tensor<1x12x1024xf32>
    %3163 = "tosa.reshape"(%3161) <{new_shape = array<i64: 1, 1024, 1024>}> : (tensor<1024x1024xf32>) -> tensor<1x1024x1024xf32>
    %3164 = "tosa.matmul"(%3162, %3163) : (tensor<1x12x1024xf32>, tensor<1x1024x1024xf32>) -> tensor<1x12x1024xf32>
    %3165 = "tosa.reshape"(%3164) <{new_shape = array<i64: 12, 1024>}> : (tensor<1x12x1024xf32>) -> tensor<12x1024xf32>
    %3166 = "tosa.reshape"(%arg346) <{new_shape = array<i64: 1, 1024>}> : (tensor<1024xf32>) -> tensor<1x1024xf32>
    %3167 = "tosa.add"(%3166, %3165) : (tensor<1x1024xf32>, tensor<12x1024xf32>) -> tensor<12x1024xf32>
    %3168 = "tosa.reshape"(%3167) <{new_shape = array<i64: 1, 12, 1024>}> : (tensor<12x1024xf32>) -> tensor<1x12x1024xf32>
    %3169 = "tosa.reshape"(%3168) <{new_shape = array<i64: 1, 12, 16, 64>}> : (tensor<1x12x1024xf32>) -> tensor<1x12x16x64xf32>
    %3170 = "tosa.const"() <{value = dense<[0, 2, 1, 3]> : tensor<4xi32>}> : () -> tensor<4xi32>
    %3171 = "tosa.transpose"(%3169, %3170) : (tensor<1x12x16x64xf32>, tensor<4xi32>) -> tensor<1x16x12x64xf32>
    %3172 = "tosa.identity"(%3171) : (tensor<1x16x12x64xf32>) -> tensor<1x16x12x64xf32>
    %3173 = "tosa.reshape"(%3146) <{new_shape = array<i64: 12, 1024>}> : (tensor<1x12x1024xf32>) -> tensor<12x1024xf32>
    %3174 = "tosa.const"() <{value = dense<[1, 0]> : tensor<2xi32>}> : () -> tensor<2xi32>
    %3175 = "tosa.transpose"(%arg347, %3174) : (tensor<1024x1024xf32>, tensor<2xi32>) -> tensor<1024x1024xf32>
    %3176 = "tosa.reshape"(%3173) <{new_shape = array<i64: 1, 12, 1024>}> : (tensor<12x1024xf32>) -> tensor<1x12x1024xf32>
    %3177 = "tosa.reshape"(%3175) <{new_shape = array<i64: 1, 1024, 1024>}> : (tensor<1024x1024xf32>) -> tensor<1x1024x1024xf32>
    %3178 = "tosa.matmul"(%3176, %3177) : (tensor<1x12x1024xf32>, tensor<1x1024x1024xf32>) -> tensor<1x12x1024xf32>
    %3179 = "tosa.reshape"(%3178) <{new_shape = array<i64: 12, 1024>}> : (tensor<1x12x1024xf32>) -> tensor<12x1024xf32>
    %3180 = "tosa.reshape"(%arg348) <{new_shape = array<i64: 1, 1024>}> : (tensor<1024xf32>) -> tensor<1x1024xf32>
    %3181 = "tosa.add"(%3180, %3179) : (tensor<1x1024xf32>, tensor<12x1024xf32>) -> tensor<12x1024xf32>
    %3182 = "tosa.reshape"(%3181) <{new_shape = array<i64: 1, 12, 1024>}> : (tensor<12x1024xf32>) -> tensor<1x12x1024xf32>
    %3183 = "tosa.reshape"(%3182) <{new_shape = array<i64: 1, 12, 16, 64>}> : (tensor<1x12x1024xf32>) -> tensor<1x12x16x64xf32>
    %3184 = "tosa.const"() <{value = dense<[0, 2, 1, 3]> : tensor<4xi32>}> : () -> tensor<4xi32>
    %3185 = "tosa.transpose"(%3183, %3184) : (tensor<1x12x16x64xf32>, tensor<4xi32>) -> tensor<1x16x12x64xf32>
    %3186 = "tosa.identity"(%3185) : (tensor<1x16x12x64xf32>) -> tensor<1x16x12x64xf32>
    %3187 = "tosa.reshape"(%3158) <{new_shape = array<i64: 1, 12, 16, 64>}> : (tensor<1x12x1024xf32>) -> tensor<1x12x16x64xf32>
    %3188 = "tosa.const"() <{value = dense<[0, 2, 1, 3]> : tensor<4xi32>}> : () -> tensor<4xi32>
    %3189 = "tosa.transpose"(%3187, %3188) : (tensor<1x12x16x64xf32>, tensor<4xi32>) -> tensor<1x16x12x64xf32>
    %3190 = "tosa.identity"(%3189) : (tensor<1x16x12x64xf32>) -> tensor<1x16x12x64xf32>
    %3191 = "tosa.reshape"(%3190) <{new_shape = array<i64: 16, 12, 64>}> : (tensor<1x16x12x64xf32>) -> tensor<16x12x64xf32>
    %3192 = "tosa.reshape"(%3172) <{new_shape = array<i64: 16, 12, 64>}> : (tensor<1x16x12x64xf32>) -> tensor<16x12x64xf32>
    %3193 = "tosa.reshape"(%3186) <{new_shape = array<i64: 16, 12, 64>}> : (tensor<1x16x12x64xf32>) -> tensor<16x12x64xf32>
    %3194 = "tosa.const"() <{value = dense<[0, 2, 1]> : tensor<3xi32>}> : () -> tensor<3xi32>
    %3195 = "tosa.transpose"(%3192, %3194) : (tensor<16x12x64xf32>, tensor<3xi32>) -> tensor<16x64x12xf32>
    %3196 = "tosa.matmul"(%3191, %3195) : (tensor<16x12x64xf32>, tensor<16x64x12xf32>) -> tensor<16x12x12xf32>
    %3197 = "tosa.reshape"(%3196) <{new_shape = array<i64: 1, 16, 12, 12>}> : (tensor<16x12x12xf32>) -> tensor<1x16x12x12xf32>
    %3198 = "tosa.add"(%3197, %110) : (tensor<1x16x12x12xf32>, tensor<1x1x12x12xf32>) -> tensor<1x16x12x12xf32>
    %3199 = "tosa.reshape"(%3198) <{new_shape = array<i64: 16, 12, 12>}> : (tensor<1x16x12x12xf32>) -> tensor<16x12x12xf32>
    %3200 = "tosa.reshape"(%3199) <{new_shape = array<i64: 1, 16, 12, 12>}> : (tensor<16x12x12xf32>) -> tensor<1x16x12x12xf32>
    %3201 = "tosa.add"(%3200, %34) : (tensor<1x16x12x12xf32>, tensor<1x1x12x12xf32>) -> tensor<1x16x12x12xf32>
    %3202 = "tosa.reshape"(%3201) <{new_shape = array<i64: 16, 12, 12>}> : (tensor<1x16x12x12xf32>) -> tensor<16x12x12xf32>
    %3203 = "tosa.reduce_max"(%3202) <{axis = 2 : i32}> : (tensor<16x12x12xf32>) -> tensor<16x12x1xf32>
    %3204 = "tosa.sub"(%3202, %3203) : (tensor<16x12x12xf32>, tensor<16x12x1xf32>) -> tensor<16x12x12xf32>
    %3205 = "tosa.exp"(%3204) : (tensor<16x12x12xf32>) -> tensor<16x12x12xf32>
    %3206 = "tosa.reduce_sum"(%3205) <{axis = 2 : i32}> : (tensor<16x12x12xf32>) -> tensor<16x12x1xf32>
    %3207 = "tosa.reciprocal"(%3206) : (tensor<16x12x1xf32>) -> tensor<16x12x1xf32>
    %3208 = "tosa.mul"(%3205, %3207) <{shift = 0 : i8}> : (tensor<16x12x12xf32>, tensor<16x12x1xf32>) -> tensor<16x12x12xf32>
    %3209 = "tosa.identity"(%3208) : (tensor<16x12x12xf32>) -> tensor<16x12x12xf32>
    %3210 = "tosa.matmul"(%3209, %3193) : (tensor<16x12x12xf32>, tensor<16x12x64xf32>) -> tensor<16x12x64xf32>
    %3211 = "tosa.reshape"(%3210) <{new_shape = array<i64: 1, 16, 12, 64>}> : (tensor<16x12x64xf32>) -> tensor<1x16x12x64xf32>
    %3212 = "tosa.const"() <{value = dense<[0, 2, 1, 3]> : tensor<4xi32>}> : () -> tensor<4xi32>
    %3213 = "tosa.transpose"(%3211, %3212) : (tensor<1x16x12x64xf32>, tensor<4xi32>) -> tensor<1x12x16x64xf32>
    %3214 = "tosa.identity"(%3213) : (tensor<1x12x16x64xf32>) -> tensor<1x12x16x64xf32>
    %3215 = "tosa.reshape"(%3214) <{new_shape = array<i64: 1, 12, 1024>}> : (tensor<1x12x16x64xf32>) -> tensor<1x12x1024xf32>
    %3216 = "tosa.reshape"(%3215) <{new_shape = array<i64: 12, 1024>}> : (tensor<1x12x1024xf32>) -> tensor<12x1024xf32>
    %3217 = "tosa.const"() <{value = dense<[1, 0]> : tensor<2xi32>}> : () -> tensor<2xi32>
    %3218 = "tosa.transpose"(%arg349, %3217) : (tensor<1024x1024xf32>, tensor<2xi32>) -> tensor<1024x1024xf32>
    %3219 = "tosa.reshape"(%3216) <{new_shape = array<i64: 1, 12, 1024>}> : (tensor<12x1024xf32>) -> tensor<1x12x1024xf32>
    %3220 = "tosa.reshape"(%3218) <{new_shape = array<i64: 1, 1024, 1024>}> : (tensor<1024x1024xf32>) -> tensor<1x1024x1024xf32>
    %3221 = "tosa.matmul"(%3219, %3220) : (tensor<1x12x1024xf32>, tensor<1x1024x1024xf32>) -> tensor<1x12x1024xf32>
    %3222 = "tosa.reshape"(%3221) <{new_shape = array<i64: 12, 1024>}> : (tensor<1x12x1024xf32>) -> tensor<12x1024xf32>
    %3223 = "tosa.reshape"(%arg350) <{new_shape = array<i64: 1, 1024>}> : (tensor<1024xf32>) -> tensor<1x1024xf32>
    %3224 = "tosa.add"(%3223, %3222) : (tensor<1x1024xf32>, tensor<12x1024xf32>) -> tensor<12x1024xf32>
    %3225 = "tosa.reshape"(%3224) <{new_shape = array<i64: 1, 12, 1024>}> : (tensor<12x1024xf32>) -> tensor<1x12x1024xf32>
    %3226 = "tosa.add"(%3127, %3225) : (tensor<1x12x1024xf32>, tensor<1x12x1024xf32>) -> tensor<1x12x1024xf32>
    %3227 = "tosa.reduce_sum"(%3226) <{axis = 2 : i32}> : (tensor<1x12x1024xf32>) -> tensor<1x12x1xf32>
    %3228 = "tosa.const"() <{value = dense<1.024000e+03> : tensor<1xf32>}> : () -> tensor<1xf32>
    %3229 = "tosa.reciprocal"(%3228) : (tensor<1xf32>) -> tensor<1xf32>
    %3230 = "tosa.mul"(%3229, %3227) <{shift = 0 : i8}> : (tensor<1xf32>, tensor<1x12x1xf32>) -> tensor<1x12x1xf32>
    %3231 = "tosa.sub"(%3226, %3230) : (tensor<1x12x1024xf32>, tensor<1x12x1xf32>) -> tensor<1x12x1024xf32>
    %3232 = "tosa.mul"(%3231, %3231) <{shift = 0 : i8}> : (tensor<1x12x1024xf32>, tensor<1x12x1024xf32>) -> tensor<1x12x1024xf32>
    %3233 = "tosa.reduce_sum"(%3232) <{axis = 2 : i32}> : (tensor<1x12x1024xf32>) -> tensor<1x12x1xf32>
    %3234 = "tosa.const"() <{value = dense<1.024000e+03> : tensor<1xf32>}> : () -> tensor<1xf32>
    %3235 = "tosa.reciprocal"(%3234) : (tensor<1xf32>) -> tensor<1xf32>
    %3236 = "tosa.mul"(%3235, %3233) <{shift = 0 : i8}> : (tensor<1xf32>, tensor<1x12x1xf32>) -> tensor<1x12x1xf32>
    %3237 = "tosa.const"() <{value = dense<9.99999974E-6> : tensor<1x12x1xf32>}> : () -> tensor<1x12x1xf32>
    %3238 = "tosa.add"(%3236, %3237) : (tensor<1x12x1xf32>, tensor<1x12x1xf32>) -> tensor<1x12x1xf32>
    %3239 = "tosa.rsqrt"(%3238) : (tensor<1x12x1xf32>) -> tensor<1x12x1xf32>
    %3240 = "tosa.sub"(%3226, %3230) : (tensor<1x12x1024xf32>, tensor<1x12x1xf32>) -> tensor<1x12x1024xf32>
    %3241 = "tosa.mul"(%3240, %3239) <{shift = 0 : i8}> : (tensor<1x12x1024xf32>, tensor<1x12x1xf32>) -> tensor<1x12x1024xf32>
    %3242 = "tosa.reshape"(%arg351) <{new_shape = array<i64: 1, 1, 1024>}> : (tensor<1024xf32>) -> tensor<1x1x1024xf32>
    %3243 = "tosa.mul"(%3241, %3242) <{shift = 0 : i8}> : (tensor<1x12x1024xf32>, tensor<1x1x1024xf32>) -> tensor<1x12x1024xf32>
    %3244 = "tosa.reshape"(%arg352) <{new_shape = array<i64: 1, 1, 1024>}> : (tensor<1024xf32>) -> tensor<1x1x1024xf32>
    %3245 = "tosa.add"(%3243, %3244) : (tensor<1x12x1024xf32>, tensor<1x1x1024xf32>) -> tensor<1x12x1024xf32>
    %3246 = "tosa.reshape"(%3245) <{new_shape = array<i64: 12, 1024>}> : (tensor<1x12x1024xf32>) -> tensor<12x1024xf32>
    %3247 = "tosa.const"() <{value = dense<[1, 0]> : tensor<2xi32>}> : () -> tensor<2xi32>
    %3248 = "tosa.transpose"(%arg353, %3247) : (tensor<4096x1024xf32>, tensor<2xi32>) -> tensor<1024x4096xf32>
    %3249 = "tosa.reshape"(%3246) <{new_shape = array<i64: 1, 12, 1024>}> : (tensor<12x1024xf32>) -> tensor<1x12x1024xf32>
    %3250 = "tosa.reshape"(%3248) <{new_shape = array<i64: 1, 1024, 4096>}> : (tensor<1024x4096xf32>) -> tensor<1x1024x4096xf32>
    %3251 = "tosa.matmul"(%3249, %3250) : (tensor<1x12x1024xf32>, tensor<1x1024x4096xf32>) -> tensor<1x12x4096xf32>
    %3252 = "tosa.reshape"(%3251) <{new_shape = array<i64: 12, 4096>}> : (tensor<1x12x4096xf32>) -> tensor<12x4096xf32>
    %3253 = "tosa.reshape"(%arg354) <{new_shape = array<i64: 1, 4096>}> : (tensor<4096xf32>) -> tensor<1x4096xf32>
    %3254 = "tosa.add"(%3253, %3252) : (tensor<1x4096xf32>, tensor<12x4096xf32>) -> tensor<12x4096xf32>
    %3255 = "tosa.reshape"(%3254) <{new_shape = array<i64: 1, 12, 4096>}> : (tensor<12x4096xf32>) -> tensor<1x12x4096xf32>
    %3256 = "tosa.const"() <{value = dense<5.000000e-01> : tensor<1x12x4096xf32>}> : () -> tensor<1x12x4096xf32>
    %3257 = "tosa.mul"(%3255, %3256) <{shift = 0 : i8}> : (tensor<1x12x4096xf32>, tensor<1x12x4096xf32>) -> tensor<1x12x4096xf32>
    %3258 = "tosa.const"() <{value = dense<0.707106769> : tensor<1x12x4096xf32>}> : () -> tensor<1x12x4096xf32>
    %3259 = "tosa.mul"(%3255, %3258) <{shift = 0 : i8}> : (tensor<1x12x4096xf32>, tensor<1x12x4096xf32>) -> tensor<1x12x4096xf32>
    %3260 = "math.erf"(%3259) <{fastmath = #arith.fastmath<none>}> : (tensor<1x12x4096xf32>) -> tensor<1x12x4096xf32>
    %3261 = "tosa.const"() <{value = dense<1.000000e+00> : tensor<1x12x4096xf32>}> : () -> tensor<1x12x4096xf32>
    %3262 = "tosa.add"(%3260, %3261) : (tensor<1x12x4096xf32>, tensor<1x12x4096xf32>) -> tensor<1x12x4096xf32>
    %3263 = "tosa.mul"(%3257, %3262) <{shift = 0 : i8}> : (tensor<1x12x4096xf32>, tensor<1x12x4096xf32>) -> tensor<1x12x4096xf32>
    %3264 = "tosa.reshape"(%3263) <{new_shape = array<i64: 12, 4096>}> : (tensor<1x12x4096xf32>) -> tensor<12x4096xf32>
    %3265 = "tosa.const"() <{value = dense<[1, 0]> : tensor<2xi32>}> : () -> tensor<2xi32>
    %3266 = "tosa.transpose"(%arg355, %3265) : (tensor<1024x4096xf32>, tensor<2xi32>) -> tensor<4096x1024xf32>
    %3267 = "tosa.reshape"(%3264) <{new_shape = array<i64: 1, 12, 4096>}> : (tensor<12x4096xf32>) -> tensor<1x12x4096xf32>
    %3268 = "tosa.reshape"(%3266) <{new_shape = array<i64: 1, 4096, 1024>}> : (tensor<4096x1024xf32>) -> tensor<1x4096x1024xf32>
    %3269 = "tosa.matmul"(%3267, %3268) : (tensor<1x12x4096xf32>, tensor<1x4096x1024xf32>) -> tensor<1x12x1024xf32>
    %3270 = "tosa.reshape"(%3269) <{new_shape = array<i64: 12, 1024>}> : (tensor<1x12x1024xf32>) -> tensor<12x1024xf32>
    %3271 = "tosa.reshape"(%arg356) <{new_shape = array<i64: 1, 1024>}> : (tensor<1024xf32>) -> tensor<1x1024xf32>
    %3272 = "tosa.add"(%3271, %3270) : (tensor<1x1024xf32>, tensor<12x1024xf32>) -> tensor<12x1024xf32>
    %3273 = "tosa.reshape"(%3272) <{new_shape = array<i64: 1, 12, 1024>}> : (tensor<12x1024xf32>) -> tensor<1x12x1024xf32>
    %3274 = "tosa.add"(%3226, %3273) : (tensor<1x12x1024xf32>, tensor<1x12x1024xf32>) -> tensor<1x12x1024xf32>
    %3275 = "tosa.reduce_sum"(%3274) <{axis = 2 : i32}> : (tensor<1x12x1024xf32>) -> tensor<1x12x1xf32>
    %3276 = "tosa.const"() <{value = dense<1.024000e+03> : tensor<1xf32>}> : () -> tensor<1xf32>
    %3277 = "tosa.reciprocal"(%3276) : (tensor<1xf32>) -> tensor<1xf32>
    %3278 = "tosa.mul"(%3277, %3275) <{shift = 0 : i8}> : (tensor<1xf32>, tensor<1x12x1xf32>) -> tensor<1x12x1xf32>
    %3279 = "tosa.sub"(%3274, %3278) : (tensor<1x12x1024xf32>, tensor<1x12x1xf32>) -> tensor<1x12x1024xf32>
    %3280 = "tosa.mul"(%3279, %3279) <{shift = 0 : i8}> : (tensor<1x12x1024xf32>, tensor<1x12x1024xf32>) -> tensor<1x12x1024xf32>
    %3281 = "tosa.reduce_sum"(%3280) <{axis = 2 : i32}> : (tensor<1x12x1024xf32>) -> tensor<1x12x1xf32>
    %3282 = "tosa.const"() <{value = dense<1.024000e+03> : tensor<1xf32>}> : () -> tensor<1xf32>
    %3283 = "tosa.reciprocal"(%3282) : (tensor<1xf32>) -> tensor<1xf32>
    %3284 = "tosa.mul"(%3283, %3281) <{shift = 0 : i8}> : (tensor<1xf32>, tensor<1x12x1xf32>) -> tensor<1x12x1xf32>
    %3285 = "tosa.const"() <{value = dense<9.99999974E-6> : tensor<1x12x1xf32>}> : () -> tensor<1x12x1xf32>
    %3286 = "tosa.add"(%3284, %3285) : (tensor<1x12x1xf32>, tensor<1x12x1xf32>) -> tensor<1x12x1xf32>
    %3287 = "tosa.rsqrt"(%3286) : (tensor<1x12x1xf32>) -> tensor<1x12x1xf32>
    %3288 = "tosa.sub"(%3274, %3278) : (tensor<1x12x1024xf32>, tensor<1x12x1xf32>) -> tensor<1x12x1024xf32>
    %3289 = "tosa.mul"(%3288, %3287) <{shift = 0 : i8}> : (tensor<1x12x1024xf32>, tensor<1x12x1xf32>) -> tensor<1x12x1024xf32>
    %3290 = "tosa.reshape"(%arg357) <{new_shape = array<i64: 1, 1, 1024>}> : (tensor<1024xf32>) -> tensor<1x1x1024xf32>
    %3291 = "tosa.mul"(%3289, %3290) <{shift = 0 : i8}> : (tensor<1x12x1024xf32>, tensor<1x1x1024xf32>) -> tensor<1x12x1024xf32>
    %3292 = "tosa.reshape"(%arg358) <{new_shape = array<i64: 1, 1, 1024>}> : (tensor<1024xf32>) -> tensor<1x1x1024xf32>
    %3293 = "tosa.add"(%3291, %3292) : (tensor<1x12x1024xf32>, tensor<1x1x1024xf32>) -> tensor<1x12x1024xf32>
    %3294 = "tosa.reshape"(%3293) <{new_shape = array<i64: 12, 1024>}> : (tensor<1x12x1024xf32>) -> tensor<12x1024xf32>
    %3295 = "tosa.const"() <{value = dense<[1, 0]> : tensor<2xi32>}> : () -> tensor<2xi32>
    %3296 = "tosa.transpose"(%arg359, %3295) : (tensor<1024x1024xf32>, tensor<2xi32>) -> tensor<1024x1024xf32>
    %3297 = "tosa.reshape"(%3294) <{new_shape = array<i64: 1, 12, 1024>}> : (tensor<12x1024xf32>) -> tensor<1x12x1024xf32>
    %3298 = "tosa.reshape"(%3296) <{new_shape = array<i64: 1, 1024, 1024>}> : (tensor<1024x1024xf32>) -> tensor<1x1024x1024xf32>
    %3299 = "tosa.matmul"(%3297, %3298) : (tensor<1x12x1024xf32>, tensor<1x1024x1024xf32>) -> tensor<1x12x1024xf32>
    %3300 = "tosa.reshape"(%3299) <{new_shape = array<i64: 12, 1024>}> : (tensor<1x12x1024xf32>) -> tensor<12x1024xf32>
    %3301 = "tosa.reshape"(%arg360) <{new_shape = array<i64: 1, 1024>}> : (tensor<1024xf32>) -> tensor<1x1024xf32>
    %3302 = "tosa.add"(%3301, %3300) : (tensor<1x1024xf32>, tensor<12x1024xf32>) -> tensor<12x1024xf32>
    %3303 = "tosa.reshape"(%3302) <{new_shape = array<i64: 1, 12, 1024>}> : (tensor<12x1024xf32>) -> tensor<1x12x1024xf32>
    %3304 = "tosa.const"() <{value = dense<1.250000e-01> : tensor<1x12x1024xf32>}> : () -> tensor<1x12x1024xf32>
    %3305 = "tosa.mul"(%3303, %3304) <{shift = 0 : i8}> : (tensor<1x12x1024xf32>, tensor<1x12x1024xf32>) -> tensor<1x12x1024xf32>
    %3306 = "tosa.reshape"(%3293) <{new_shape = array<i64: 12, 1024>}> : (tensor<1x12x1024xf32>) -> tensor<12x1024xf32>
    %3307 = "tosa.const"() <{value = dense<[1, 0]> : tensor<2xi32>}> : () -> tensor<2xi32>
    %3308 = "tosa.transpose"(%arg361, %3307) : (tensor<1024x1024xf32>, tensor<2xi32>) -> tensor<1024x1024xf32>
    %3309 = "tosa.reshape"(%3306) <{new_shape = array<i64: 1, 12, 1024>}> : (tensor<12x1024xf32>) -> tensor<1x12x1024xf32>
    %3310 = "tosa.reshape"(%3308) <{new_shape = array<i64: 1, 1024, 1024>}> : (tensor<1024x1024xf32>) -> tensor<1x1024x1024xf32>
    %3311 = "tosa.matmul"(%3309, %3310) : (tensor<1x12x1024xf32>, tensor<1x1024x1024xf32>) -> tensor<1x12x1024xf32>
    %3312 = "tosa.reshape"(%3311) <{new_shape = array<i64: 12, 1024>}> : (tensor<1x12x1024xf32>) -> tensor<12x1024xf32>
    %3313 = "tosa.reshape"(%arg362) <{new_shape = array<i64: 1, 1024>}> : (tensor<1024xf32>) -> tensor<1x1024xf32>
    %3314 = "tosa.add"(%3313, %3312) : (tensor<1x1024xf32>, tensor<12x1024xf32>) -> tensor<12x1024xf32>
    %3315 = "tosa.reshape"(%3314) <{new_shape = array<i64: 1, 12, 1024>}> : (tensor<12x1024xf32>) -> tensor<1x12x1024xf32>
    %3316 = "tosa.reshape"(%3315) <{new_shape = array<i64: 1, 12, 16, 64>}> : (tensor<1x12x1024xf32>) -> tensor<1x12x16x64xf32>
    %3317 = "tosa.const"() <{value = dense<[0, 2, 1, 3]> : tensor<4xi32>}> : () -> tensor<4xi32>
    %3318 = "tosa.transpose"(%3316, %3317) : (tensor<1x12x16x64xf32>, tensor<4xi32>) -> tensor<1x16x12x64xf32>
    %3319 = "tosa.identity"(%3318) : (tensor<1x16x12x64xf32>) -> tensor<1x16x12x64xf32>
    %3320 = "tosa.reshape"(%3293) <{new_shape = array<i64: 12, 1024>}> : (tensor<1x12x1024xf32>) -> tensor<12x1024xf32>
    %3321 = "tosa.const"() <{value = dense<[1, 0]> : tensor<2xi32>}> : () -> tensor<2xi32>
    %3322 = "tosa.transpose"(%arg363, %3321) : (tensor<1024x1024xf32>, tensor<2xi32>) -> tensor<1024x1024xf32>
    %3323 = "tosa.reshape"(%3320) <{new_shape = array<i64: 1, 12, 1024>}> : (tensor<12x1024xf32>) -> tensor<1x12x1024xf32>
    %3324 = "tosa.reshape"(%3322) <{new_shape = array<i64: 1, 1024, 1024>}> : (tensor<1024x1024xf32>) -> tensor<1x1024x1024xf32>
    %3325 = "tosa.matmul"(%3323, %3324) : (tensor<1x12x1024xf32>, tensor<1x1024x1024xf32>) -> tensor<1x12x1024xf32>
    %3326 = "tosa.reshape"(%3325) <{new_shape = array<i64: 12, 1024>}> : (tensor<1x12x1024xf32>) -> tensor<12x1024xf32>
    %3327 = "tosa.reshape"(%arg364) <{new_shape = array<i64: 1, 1024>}> : (tensor<1024xf32>) -> tensor<1x1024xf32>
    %3328 = "tosa.add"(%3327, %3326) : (tensor<1x1024xf32>, tensor<12x1024xf32>) -> tensor<12x1024xf32>
    %3329 = "tosa.reshape"(%3328) <{new_shape = array<i64: 1, 12, 1024>}> : (tensor<12x1024xf32>) -> tensor<1x12x1024xf32>
    %3330 = "tosa.reshape"(%3329) <{new_shape = array<i64: 1, 12, 16, 64>}> : (tensor<1x12x1024xf32>) -> tensor<1x12x16x64xf32>
    %3331 = "tosa.const"() <{value = dense<[0, 2, 1, 3]> : tensor<4xi32>}> : () -> tensor<4xi32>
    %3332 = "tosa.transpose"(%3330, %3331) : (tensor<1x12x16x64xf32>, tensor<4xi32>) -> tensor<1x16x12x64xf32>
    %3333 = "tosa.identity"(%3332) : (tensor<1x16x12x64xf32>) -> tensor<1x16x12x64xf32>
    %3334 = "tosa.reshape"(%3305) <{new_shape = array<i64: 1, 12, 16, 64>}> : (tensor<1x12x1024xf32>) -> tensor<1x12x16x64xf32>
    %3335 = "tosa.const"() <{value = dense<[0, 2, 1, 3]> : tensor<4xi32>}> : () -> tensor<4xi32>
    %3336 = "tosa.transpose"(%3334, %3335) : (tensor<1x12x16x64xf32>, tensor<4xi32>) -> tensor<1x16x12x64xf32>
    %3337 = "tosa.identity"(%3336) : (tensor<1x16x12x64xf32>) -> tensor<1x16x12x64xf32>
    %3338 = "tosa.reshape"(%3337) <{new_shape = array<i64: 16, 12, 64>}> : (tensor<1x16x12x64xf32>) -> tensor<16x12x64xf32>
    %3339 = "tosa.reshape"(%3319) <{new_shape = array<i64: 16, 12, 64>}> : (tensor<1x16x12x64xf32>) -> tensor<16x12x64xf32>
    %3340 = "tosa.reshape"(%3333) <{new_shape = array<i64: 16, 12, 64>}> : (tensor<1x16x12x64xf32>) -> tensor<16x12x64xf32>
    %3341 = "tosa.const"() <{value = dense<[0, 2, 1]> : tensor<3xi32>}> : () -> tensor<3xi32>
    %3342 = "tosa.transpose"(%3339, %3341) : (tensor<16x12x64xf32>, tensor<3xi32>) -> tensor<16x64x12xf32>
    %3343 = "tosa.matmul"(%3338, %3342) : (tensor<16x12x64xf32>, tensor<16x64x12xf32>) -> tensor<16x12x12xf32>
    %3344 = "tosa.reshape"(%3343) <{new_shape = array<i64: 1, 16, 12, 12>}> : (tensor<16x12x12xf32>) -> tensor<1x16x12x12xf32>
    %3345 = "tosa.add"(%3344, %110) : (tensor<1x16x12x12xf32>, tensor<1x1x12x12xf32>) -> tensor<1x16x12x12xf32>
    %3346 = "tosa.reshape"(%3345) <{new_shape = array<i64: 16, 12, 12>}> : (tensor<1x16x12x12xf32>) -> tensor<16x12x12xf32>
    %3347 = "tosa.reshape"(%3346) <{new_shape = array<i64: 1, 16, 12, 12>}> : (tensor<16x12x12xf32>) -> tensor<1x16x12x12xf32>
    %3348 = "tosa.add"(%3347, %34) : (tensor<1x16x12x12xf32>, tensor<1x1x12x12xf32>) -> tensor<1x16x12x12xf32>
    %3349 = "tosa.reshape"(%3348) <{new_shape = array<i64: 16, 12, 12>}> : (tensor<1x16x12x12xf32>) -> tensor<16x12x12xf32>
    %3350 = "tosa.reduce_max"(%3349) <{axis = 2 : i32}> : (tensor<16x12x12xf32>) -> tensor<16x12x1xf32>
    %3351 = "tosa.sub"(%3349, %3350) : (tensor<16x12x12xf32>, tensor<16x12x1xf32>) -> tensor<16x12x12xf32>
    %3352 = "tosa.exp"(%3351) : (tensor<16x12x12xf32>) -> tensor<16x12x12xf32>
    %3353 = "tosa.reduce_sum"(%3352) <{axis = 2 : i32}> : (tensor<16x12x12xf32>) -> tensor<16x12x1xf32>
    %3354 = "tosa.reciprocal"(%3353) : (tensor<16x12x1xf32>) -> tensor<16x12x1xf32>
    %3355 = "tosa.mul"(%3352, %3354) <{shift = 0 : i8}> : (tensor<16x12x12xf32>, tensor<16x12x1xf32>) -> tensor<16x12x12xf32>
    %3356 = "tosa.identity"(%3355) : (tensor<16x12x12xf32>) -> tensor<16x12x12xf32>
    %3357 = "tosa.matmul"(%3356, %3340) : (tensor<16x12x12xf32>, tensor<16x12x64xf32>) -> tensor<16x12x64xf32>
    %3358 = "tosa.reshape"(%3357) <{new_shape = array<i64: 1, 16, 12, 64>}> : (tensor<16x12x64xf32>) -> tensor<1x16x12x64xf32>
    %3359 = "tosa.const"() <{value = dense<[0, 2, 1, 3]> : tensor<4xi32>}> : () -> tensor<4xi32>
    %3360 = "tosa.transpose"(%3358, %3359) : (tensor<1x16x12x64xf32>, tensor<4xi32>) -> tensor<1x12x16x64xf32>
    %3361 = "tosa.identity"(%3360) : (tensor<1x12x16x64xf32>) -> tensor<1x12x16x64xf32>
    %3362 = "tosa.reshape"(%3361) <{new_shape = array<i64: 1, 12, 1024>}> : (tensor<1x12x16x64xf32>) -> tensor<1x12x1024xf32>
    %3363 = "tosa.reshape"(%3362) <{new_shape = array<i64: 12, 1024>}> : (tensor<1x12x1024xf32>) -> tensor<12x1024xf32>
    %3364 = "tosa.const"() <{value = dense<[1, 0]> : tensor<2xi32>}> : () -> tensor<2xi32>
    %3365 = "tosa.transpose"(%arg365, %3364) : (tensor<1024x1024xf32>, tensor<2xi32>) -> tensor<1024x1024xf32>
    %3366 = "tosa.reshape"(%3363) <{new_shape = array<i64: 1, 12, 1024>}> : (tensor<12x1024xf32>) -> tensor<1x12x1024xf32>
    %3367 = "tosa.reshape"(%3365) <{new_shape = array<i64: 1, 1024, 1024>}> : (tensor<1024x1024xf32>) -> tensor<1x1024x1024xf32>
    %3368 = "tosa.matmul"(%3366, %3367) : (tensor<1x12x1024xf32>, tensor<1x1024x1024xf32>) -> tensor<1x12x1024xf32>
    %3369 = "tosa.reshape"(%3368) <{new_shape = array<i64: 12, 1024>}> : (tensor<1x12x1024xf32>) -> tensor<12x1024xf32>
    %3370 = "tosa.reshape"(%arg366) <{new_shape = array<i64: 1, 1024>}> : (tensor<1024xf32>) -> tensor<1x1024xf32>
    %3371 = "tosa.add"(%3370, %3369) : (tensor<1x1024xf32>, tensor<12x1024xf32>) -> tensor<12x1024xf32>
    %3372 = "tosa.reshape"(%3371) <{new_shape = array<i64: 1, 12, 1024>}> : (tensor<12x1024xf32>) -> tensor<1x12x1024xf32>
    %3373 = "tosa.add"(%3274, %3372) : (tensor<1x12x1024xf32>, tensor<1x12x1024xf32>) -> tensor<1x12x1024xf32>
    %3374 = "tosa.reduce_sum"(%3373) <{axis = 2 : i32}> : (tensor<1x12x1024xf32>) -> tensor<1x12x1xf32>
    %3375 = "tosa.const"() <{value = dense<1.024000e+03> : tensor<1xf32>}> : () -> tensor<1xf32>
    %3376 = "tosa.reciprocal"(%3375) : (tensor<1xf32>) -> tensor<1xf32>
    %3377 = "tosa.mul"(%3376, %3374) <{shift = 0 : i8}> : (tensor<1xf32>, tensor<1x12x1xf32>) -> tensor<1x12x1xf32>
    %3378 = "tosa.sub"(%3373, %3377) : (tensor<1x12x1024xf32>, tensor<1x12x1xf32>) -> tensor<1x12x1024xf32>
    %3379 = "tosa.mul"(%3378, %3378) <{shift = 0 : i8}> : (tensor<1x12x1024xf32>, tensor<1x12x1024xf32>) -> tensor<1x12x1024xf32>
    %3380 = "tosa.reduce_sum"(%3379) <{axis = 2 : i32}> : (tensor<1x12x1024xf32>) -> tensor<1x12x1xf32>
    %3381 = "tosa.const"() <{value = dense<1.024000e+03> : tensor<1xf32>}> : () -> tensor<1xf32>
    %3382 = "tosa.reciprocal"(%3381) : (tensor<1xf32>) -> tensor<1xf32>
    %3383 = "tosa.mul"(%3382, %3380) <{shift = 0 : i8}> : (tensor<1xf32>, tensor<1x12x1xf32>) -> tensor<1x12x1xf32>
    %3384 = "tosa.const"() <{value = dense<9.99999974E-6> : tensor<1x12x1xf32>}> : () -> tensor<1x12x1xf32>
    %3385 = "tosa.add"(%3383, %3384) : (tensor<1x12x1xf32>, tensor<1x12x1xf32>) -> tensor<1x12x1xf32>
    %3386 = "tosa.rsqrt"(%3385) : (tensor<1x12x1xf32>) -> tensor<1x12x1xf32>
    %3387 = "tosa.sub"(%3373, %3377) : (tensor<1x12x1024xf32>, tensor<1x12x1xf32>) -> tensor<1x12x1024xf32>
    %3388 = "tosa.mul"(%3387, %3386) <{shift = 0 : i8}> : (tensor<1x12x1024xf32>, tensor<1x12x1xf32>) -> tensor<1x12x1024xf32>
    %3389 = "tosa.reshape"(%arg367) <{new_shape = array<i64: 1, 1, 1024>}> : (tensor<1024xf32>) -> tensor<1x1x1024xf32>
    %3390 = "tosa.mul"(%3388, %3389) <{shift = 0 : i8}> : (tensor<1x12x1024xf32>, tensor<1x1x1024xf32>) -> tensor<1x12x1024xf32>
    %3391 = "tosa.reshape"(%arg368) <{new_shape = array<i64: 1, 1, 1024>}> : (tensor<1024xf32>) -> tensor<1x1x1024xf32>
    %3392 = "tosa.add"(%3390, %3391) : (tensor<1x12x1024xf32>, tensor<1x1x1024xf32>) -> tensor<1x12x1024xf32>
    %3393 = "tosa.reshape"(%3392) <{new_shape = array<i64: 12, 1024>}> : (tensor<1x12x1024xf32>) -> tensor<12x1024xf32>
    %3394 = "tosa.const"() <{value = dense<[1, 0]> : tensor<2xi32>}> : () -> tensor<2xi32>
    %3395 = "tosa.transpose"(%arg369, %3394) : (tensor<4096x1024xf32>, tensor<2xi32>) -> tensor<1024x4096xf32>
    %3396 = "tosa.reshape"(%3393) <{new_shape = array<i64: 1, 12, 1024>}> : (tensor<12x1024xf32>) -> tensor<1x12x1024xf32>
    %3397 = "tosa.reshape"(%3395) <{new_shape = array<i64: 1, 1024, 4096>}> : (tensor<1024x4096xf32>) -> tensor<1x1024x4096xf32>
    %3398 = "tosa.matmul"(%3396, %3397) : (tensor<1x12x1024xf32>, tensor<1x1024x4096xf32>) -> tensor<1x12x4096xf32>
    %3399 = "tosa.reshape"(%3398) <{new_shape = array<i64: 12, 4096>}> : (tensor<1x12x4096xf32>) -> tensor<12x4096xf32>
    %3400 = "tosa.reshape"(%arg370) <{new_shape = array<i64: 1, 4096>}> : (tensor<4096xf32>) -> tensor<1x4096xf32>
    %3401 = "tosa.add"(%3400, %3399) : (tensor<1x4096xf32>, tensor<12x4096xf32>) -> tensor<12x4096xf32>
    %3402 = "tosa.reshape"(%3401) <{new_shape = array<i64: 1, 12, 4096>}> : (tensor<12x4096xf32>) -> tensor<1x12x4096xf32>
    %3403 = "tosa.const"() <{value = dense<5.000000e-01> : tensor<1x12x4096xf32>}> : () -> tensor<1x12x4096xf32>
    %3404 = "tosa.mul"(%3402, %3403) <{shift = 0 : i8}> : (tensor<1x12x4096xf32>, tensor<1x12x4096xf32>) -> tensor<1x12x4096xf32>
    %3405 = "tosa.const"() <{value = dense<0.707106769> : tensor<1x12x4096xf32>}> : () -> tensor<1x12x4096xf32>
    %3406 = "tosa.mul"(%3402, %3405) <{shift = 0 : i8}> : (tensor<1x12x4096xf32>, tensor<1x12x4096xf32>) -> tensor<1x12x4096xf32>
    %3407 = "math.erf"(%3406) <{fastmath = #arith.fastmath<none>}> : (tensor<1x12x4096xf32>) -> tensor<1x12x4096xf32>
    %3408 = "tosa.const"() <{value = dense<1.000000e+00> : tensor<1x12x4096xf32>}> : () -> tensor<1x12x4096xf32>
    %3409 = "tosa.add"(%3407, %3408) : (tensor<1x12x4096xf32>, tensor<1x12x4096xf32>) -> tensor<1x12x4096xf32>
    %3410 = "tosa.mul"(%3404, %3409) <{shift = 0 : i8}> : (tensor<1x12x4096xf32>, tensor<1x12x4096xf32>) -> tensor<1x12x4096xf32>
    %3411 = "tosa.reshape"(%3410) <{new_shape = array<i64: 12, 4096>}> : (tensor<1x12x4096xf32>) -> tensor<12x4096xf32>
    %3412 = "tosa.const"() <{value = dense<[1, 0]> : tensor<2xi32>}> : () -> tensor<2xi32>
    %3413 = "tosa.transpose"(%arg371, %3412) : (tensor<1024x4096xf32>, tensor<2xi32>) -> tensor<4096x1024xf32>
    %3414 = "tosa.reshape"(%3411) <{new_shape = array<i64: 1, 12, 4096>}> : (tensor<12x4096xf32>) -> tensor<1x12x4096xf32>
    %3415 = "tosa.reshape"(%3413) <{new_shape = array<i64: 1, 4096, 1024>}> : (tensor<4096x1024xf32>) -> tensor<1x4096x1024xf32>
    %3416 = "tosa.matmul"(%3414, %3415) : (tensor<1x12x4096xf32>, tensor<1x4096x1024xf32>) -> tensor<1x12x1024xf32>
    %3417 = "tosa.reshape"(%3416) <{new_shape = array<i64: 12, 1024>}> : (tensor<1x12x1024xf32>) -> tensor<12x1024xf32>
    %3418 = "tosa.reshape"(%arg372) <{new_shape = array<i64: 1, 1024>}> : (tensor<1024xf32>) -> tensor<1x1024xf32>
    %3419 = "tosa.add"(%3418, %3417) : (tensor<1x1024xf32>, tensor<12x1024xf32>) -> tensor<12x1024xf32>
    %3420 = "tosa.reshape"(%3419) <{new_shape = array<i64: 1, 12, 1024>}> : (tensor<12x1024xf32>) -> tensor<1x12x1024xf32>
    %3421 = "tosa.add"(%3373, %3420) : (tensor<1x12x1024xf32>, tensor<1x12x1024xf32>) -> tensor<1x12x1024xf32>
    %3422 = "tosa.reduce_sum"(%3421) <{axis = 2 : i32}> : (tensor<1x12x1024xf32>) -> tensor<1x12x1xf32>
    %3423 = "tosa.const"() <{value = dense<1.024000e+03> : tensor<1xf32>}> : () -> tensor<1xf32>
    %3424 = "tosa.reciprocal"(%3423) : (tensor<1xf32>) -> tensor<1xf32>
    %3425 = "tosa.mul"(%3424, %3422) <{shift = 0 : i8}> : (tensor<1xf32>, tensor<1x12x1xf32>) -> tensor<1x12x1xf32>
    %3426 = "tosa.sub"(%3421, %3425) : (tensor<1x12x1024xf32>, tensor<1x12x1xf32>) -> tensor<1x12x1024xf32>
    %3427 = "tosa.mul"(%3426, %3426) <{shift = 0 : i8}> : (tensor<1x12x1024xf32>, tensor<1x12x1024xf32>) -> tensor<1x12x1024xf32>
    %3428 = "tosa.reduce_sum"(%3427) <{axis = 2 : i32}> : (tensor<1x12x1024xf32>) -> tensor<1x12x1xf32>
    %3429 = "tosa.const"() <{value = dense<1.024000e+03> : tensor<1xf32>}> : () -> tensor<1xf32>
    %3430 = "tosa.reciprocal"(%3429) : (tensor<1xf32>) -> tensor<1xf32>
    %3431 = "tosa.mul"(%3430, %3428) <{shift = 0 : i8}> : (tensor<1xf32>, tensor<1x12x1xf32>) -> tensor<1x12x1xf32>
    %3432 = "tosa.const"() <{value = dense<9.99999974E-6> : tensor<1x12x1xf32>}> : () -> tensor<1x12x1xf32>
    %3433 = "tosa.add"(%3431, %3432) : (tensor<1x12x1xf32>, tensor<1x12x1xf32>) -> tensor<1x12x1xf32>
    %3434 = "tosa.rsqrt"(%3433) : (tensor<1x12x1xf32>) -> tensor<1x12x1xf32>
    %3435 = "tosa.sub"(%3421, %3425) : (tensor<1x12x1024xf32>, tensor<1x12x1xf32>) -> tensor<1x12x1024xf32>
    %3436 = "tosa.mul"(%3435, %3434) <{shift = 0 : i8}> : (tensor<1x12x1024xf32>, tensor<1x12x1xf32>) -> tensor<1x12x1024xf32>
    %3437 = "tosa.reshape"(%arg373) <{new_shape = array<i64: 1, 1, 1024>}> : (tensor<1024xf32>) -> tensor<1x1x1024xf32>
    %3438 = "tosa.mul"(%3436, %3437) <{shift = 0 : i8}> : (tensor<1x12x1024xf32>, tensor<1x1x1024xf32>) -> tensor<1x12x1024xf32>
    %3439 = "tosa.reshape"(%arg374) <{new_shape = array<i64: 1, 1, 1024>}> : (tensor<1024xf32>) -> tensor<1x1x1024xf32>
    %3440 = "tosa.add"(%3438, %3439) : (tensor<1x12x1024xf32>, tensor<1x1x1024xf32>) -> tensor<1x12x1024xf32>
    %3441 = "tosa.const"() <{value = dense<0> : tensor<1xi64>}> : () -> tensor<1xi64>
    %3442 = "tosa.cast"(%0) : (tensor<1x12xi64>) -> tensor<1x12xi32>
    %3443 = "tosa.argmax"(%3442) <{axis = 1 : i32}> : (tensor<1x12xi32>) -> tensor<1xi32>
    %3444 = "tensor.empty"() : () -> tensor<1x1024xf32>
    %3445 = "linalg.generic"(%3441, %3443, %3444) <{indexing_maps = [#map5, #map5, #map3], iterator_types = [#linalg.iterator_type<parallel>, #linalg.iterator_type<parallel>], operandSegmentSizes = array<i32: 2, 1>}> ({
    ^bb0(%arg375: i64, %arg376: i32, %arg377: f32):
      %3446 = "arith.index_cast"(%arg375) : (i64) -> index
      %3447 = "arith.index_cast"(%arg376) : (i32) -> index
      %3448 = "tensor.extract"(%3440, %3446, %3447) : (tensor<1x12x1024xf32>, index, index) -> f32
      "linalg.yield"(%3448) : (f32) -> ()
    }) : (tensor<1xi64>, tensor<1xi32>, tensor<1x1024xf32>) -> tensor<1x1024xf32>
    "func.return"(%3440, %3445) : (tensor<1x12x1024xf32>, tensor<1x1024xf32>) -> ()
  }) : () -> ()
}) : () -> ()

